…
I0806 17:09:40.866582  4771 net.cpp:322] The NetState phase (0) differed from the phase (1) specified by a rule in layer data
I0806 17:09:40.866811  4771 net.cpp:49] Initializing net from parameters: 
name: "FaceNN"
state {
  phase: TRAIN
}
layer {
  name: "data"
  type: "ImageData"
  top: "data"
  top: "label"
  include {
    phase: TRAIN
  }
  transform_param {
    mirror: true
    crop_size: 100
    mean_value: 104
    mean_value: 117
    mean_value: 123
  }
  image_data_param {
    source: "../lists/roi-train-L0-s1.lst"
    batch_size: 64
    shuffle: true
    new_height: 110
    new_width: 110
  }
}
layer {
  name: "conv11"
  type: "Convolution"
  bottom: "data"
  top: "conv11"
  param {
    lr_mult: 1
    decay_mult: 1
  }
  param {
    lr_mult: 2
    decay_mult: 0
  }
  convolution_param {
    num_output: 32
    pad: 1
    stride: 1
    weight_filler {
      type: "xavier"
    }
    bias_filler {
      type: "constant"
    }
    kernel_h: 3
    kernel_w: 3
  }
}
layer {
  name: "relu11"
  type: "ReLU"
  bottom: "conv11"
  top: "conv11"
}
layer {
  name: "conv12"
  type: "Convolution"
  bottom: "conv11"
  top: "conv12"
  param {
    lr_mult: 1
    decay_mult: 1
  }
  param {
    lr_mult: 2
    decay_mult: 0
  }
  convolution_param {
    num_output: 32
    pad: 1
    stride: 1
    weight_filler {
      type: "xavier"
    }
    bias_filler {
      type: "constant"
    }
    kernel_h: 3
    kernel_w: 3
  }
}
layer {
  name: "relu12"
  type: "ReLU"
  bottom: "conv12"
  top: "conv12"
}
layer {
  name: "pool1"
  type: "Pooling"
  bottom: "conv12"
  top: "pool1"
  pooling_param {
    pool: MAX
    kernel_size: 2
    stride: 2
  }
}
layer {
  name: "conv21"
  type: "Convolution"
  bottom: "pool1"
  top: "conv21"
  param {
    lr_mult: 1
    decay_mult: 1
  }
  param {
    lr_mult: 2
    decay_mult: 0
  }
  convolution_param {
    num_output: 64
    pad: 1
    stride: 1
    weight_filler {
      type: "xavier"
    }
    bias_filler {
      type: "constant"
    }
    kernel_h: 3
    kernel_w: 3
  }
}
layer {
  name: "relu21"
  type: "ReLU"
  bottom: "conv21"
  top: "conv21"
}
layer {
  name: "conv22"
  type: "Convolution"
  bottom: "conv21"
  top: "conv22"
  param {
    lr_mult: 1
    decay_mult: 1
  }
  param {
    lr_mult: 2
    decay_mult: 0
  }
  convolution_param {
    num_output: 64
    pad: 1
    stride: 1
    weight_filler {
      type: "xavier"
    }
    bias_filler {
      type: "constant"
    }
    kernel_h: 3
    kernel_w: 3
  }
}
layer {
  name: "relu22"
  type: "ReLU"
  bottom: "conv22"
  top: "conv22"
}
layer {
  name: "pool2"
  type: "Pooling"
  bottom: "conv22"
  top: "pool2"
  pooling_param {
    pool: MAX
    kernel_size: 2
    stride: 2
  }
}
layer {
  name: "conv31"
  type: "Convolution"
  bottom: "pool2"
  top: "conv31"
  param {
    lr_mult: 1
    decay_mult: 1
  }
  param {
    lr_mult: 2
    decay_mult: 0
  }
  convolution_param {
    num_output: 96
    pad: 1
    stride: 1
    weight_filler {
      type: "xavier"
    }
    bias_filler {
      type: "constant"
    }
    kernel_h: 3
    kernel_w: 3
  }
}
layer {
  name: "relu31"
  type: "ReLU"
  bottom: "conv31"
  top: "conv31"
}
layer {
  name: "conv32"
  type: "Convolution"
  bottom: "conv31"
  top: "conv32"
  param {
    lr_mult: 1
    decay_mult: 1
  }
  param {
    lr_mult: 2
    decay_mult: 0
  }
  convolution_param {
    num_output: 96
    pad: 1
    stride: 1
    weight_filler {
      type: "xavier"
    }
    bias_filler {
      type: "constant"
    }
    kernel_h: 3
    kernel_w: 3
  }
}
layer {
  name: "relu32"
  type: "ReLU"
  bottom: "conv32"
  top: "conv32"
}
layer {
  name: "pool3"
  type: "Pooling"
  bottom: "conv32"
  top: "pool3"
  pooling_param {
    pool: MAX
    kernel_size: 2
    stride: 2
  }
}
layer {
  name: "conv41"
  type: "Convolution"
  bottom: "pool3"
  top: "conv41"
  param {
    lr_mult: 1
    decay_mult: 1
  }
  param {
    lr_mult: 2
    decay_mult: 0
  }
  convolution_param {
    num_output: 128
    pad: 1
    stride: 1
    weight_filler {
      type: "xavier"
    }
    bias_filler {
      type: "constant"
    }
    kernel_h: 3
    kernel_w: 3
  }
}
layer {
  name: "relu41"
  type: "ReLU"
  bottom: "conv41"
  top: "conv41"
}
layer {
  name: "conv42"
  type: "Convolution"
  bottom: "conv41"
  top: "conv42"
  param {
    lr_mult: 1
    decay_mult: 1
  }
  param {
    lr_mult: 2
    decay_mult: 0
  }
  convolution_param {
    num_output: 128
    pad: 1
    stride: 1
    weight_filler {
      type: "xavier"
    }
    bias_filler {
      type: "constant"
    }
    kernel_h: 3
    kernel_w: 3
  }
}
layer {
  name: "relu42"
  type: "ReLU"
  bottom: "conv42"
  top: "conv42"
}
layer {
  name: "pool4"
  type: "Pooling"
  bottom: "conv42"
  top: "pool4"
  pooling_param {
    pool: MAX
    kernel_size: 2
    stride: 2
  }
}
layer {
  name: "conv51"
  type: "Convolution"
  bottom: "pool4"
  top: "conv51"
  param {
    lr_mult: 1
    decay_mult: 1
  }
  param {
    lr_mult: 2
    decay_mult: 0
  }
  convolution_param {
    num_output: 256
    pad: 1
    stride: 1
    weight_filler {
      type: "xavier"
    }
    bias_filler {
      type: "constant"
    }
    kernel_h: 3
    kernel_w: 3
  }
}
layer {
  name: "relu51"
  type: "ReLU"
  bottom: "conv51"
  top: "conv51"
}
layer {
  name: "conv52"
  type: "Convolution"
  bottom: "conv51"
  top: "conv52"
  param {
    lr_mult: 1
    decay_mult: 1
  }
  param {
    lr_mult: 2
    decay_mult: 0
  }
  convolution_param {
    num_output: 256
    pad: 1
    stride: 1
    weight_filler {
      type: "xavier"
    }
    bias_filler {
      type: "constant"
    }
    kernel_h: 3
    kernel_w: 3
  }
}
layer {
  name: "relu52"
  type: "ReLU"
  bottom: "conv52"
  top: "conv52"
}
layer {
  name: "conv53"
  type: "Convolution"
  bottom: "conv52"
  top: "conv53"
  param {
    lr_mult: 1
    decay_mult: 1
  }
  param {
    lr_mult: 2
    decay_mult: 0
  }
  convolution_param {
    num_output: 256
    stride: 1
    weight_filler {
      type: "xavier"
    }
    bias_filler {
      type: "constant"
    }
    kernel_h: 7
    kernel_w: 7
  }
}
layer {
  name: "relu53"
  type: "ReLU"
  bottom: "conv53"
  top: "conv53"
}
layer {
  name: "drop6"
  type: "Dropout"
  bottom: "conv53"
  top: "drop6"
  dropout_param {
    dropout_ratio: 0.4
  }
}
layer {
  name: "conv54"
  type: "Convolution"
  bottom: "drop6"
  top: "conv54"
  param {
    lr_mult: 1
    decay_mult: 1
  }
  param {
    lr_mult: 2
    decay_mult: 0
  }
  convolution_param {
    num_output: 2
    stride: 1
    weight_filler {
      type: "xavier"
    }
    bias_filler {
      type: "constant"
    }
    kernel_h: 1
    kernel_w: 1
  }
}
layer {
  name: "accuracy"
  type: "Accuracy"
  bottom: "conv54"
  bottom: "label"
  top: "accuracy"
}
layer {
  name: "loss"
  type: "SoftmaxWithLoss"
  bottom: "conv54"
  bottom: "label"
  top: "loss"
}
I0806 17:09:40.868463  4771 layer_factory.hpp:76] Creating layer data
I0806 17:09:40.868508  4771 net.cpp:106] Creating Layer data
I0806 17:09:40.868523  4771 net.cpp:411] data -> data
I0806 17:09:40.868551  4771 net.cpp:411] data -> label
I0806 17:09:40.868988  4771 image_data_layer.cpp:36] Opening file ../lists/roi-train-L0-s1.lst
I0806 17:09:41.018823  4771 image_data_layer.cpp:46] Shuffling data
I0806 17:09:41.057402  4771 image_data_layer.cpp:51] A total of 238140 images.
I0806 17:09:41.235800  4771 image_data_layer.cpp:78] output data size: 64,3,100,100
I0806 17:09:41.257838  4771 net.cpp:150] Setting up data
I0806 17:09:41.257932  4771 net.cpp:157] Top shape: 64 3 100 100 (1920000)
I0806 17:09:41.257946  4771 net.cpp:157] Top shape: 64 (64)
I0806 17:09:41.257956  4771 net.cpp:165] Memory required for data: 7680256
I0806 17:09:41.257971  4771 layer_factory.hpp:76] Creating layer label_data_1_split
I0806 17:09:41.257993  4771 net.cpp:106] Creating Layer label_data_1_split
I0806 17:09:41.258008  4771 net.cpp:454] label_data_1_split <- label
I0806 17:09:41.258025  4771 net.cpp:411] label_data_1_split -> label_data_1_split_0
I0806 17:09:41.258041  4771 net.cpp:411] label_data_1_split -> label_data_1_split_1
I0806 17:09:41.258102  4771 net.cpp:150] Setting up label_data_1_split
I0806 17:09:41.258117  4771 net.cpp:157] Top shape: 64 (64)
I0806 17:09:41.258127  4771 net.cpp:157] Top shape: 64 (64)
I0806 17:09:41.258134  4771 net.cpp:165] Memory required for data: 7680768
I0806 17:09:41.258148  4771 layer_factory.hpp:76] Creating layer conv11
I0806 17:09:41.258170  4771 net.cpp:106] Creating Layer conv11
I0806 17:09:41.258180  4771 net.cpp:454] conv11 <- data
I0806 17:09:41.258190  4771 net.cpp:411] conv11 -> conv11
I0806 17:09:41.426126  4771 net.cpp:150] Setting up conv11
I0806 17:09:41.426198  4771 net.cpp:157] Top shape: 64 32 100 100 (20480000)
I0806 17:09:41.426218  4771 net.cpp:165] Memory required for data: 89600768
I0806 17:09:41.426265  4771 layer_factory.hpp:76] Creating layer relu11
I0806 17:09:41.426301  4771 net.cpp:106] Creating Layer relu11
I0806 17:09:41.426323  4771 net.cpp:454] relu11 <- conv11
I0806 17:09:41.426344  4771 net.cpp:397] relu11 -> conv11 (in-place)
I0806 17:09:41.426626  4771 net.cpp:150] Setting up relu11
I0806 17:09:41.426666  4771 net.cpp:157] Top shape: 64 32 100 100 (20480000)
I0806 17:09:41.426684  4771 net.cpp:165] Memory required for data: 171520768
I0806 17:09:41.426700  4771 layer_factory.hpp:76] Creating layer conv12
I0806 17:09:41.426729  4771 net.cpp:106] Creating Layer conv12
I0806 17:09:41.426745  4771 net.cpp:454] conv12 <- conv11
I0806 17:09:41.426765  4771 net.cpp:411] conv12 -> conv12
I0806 17:09:41.428449  4771 net.cpp:150] Setting up conv12
I0806 17:09:41.428478  4771 net.cpp:157] Top shape: 64 32 100 100 (20480000)
I0806 17:09:41.428488  4771 net.cpp:165] Memory required for data: 253440768
I0806 17:09:41.428504  4771 layer_factory.hpp:76] Creating layer relu12
I0806 17:09:41.428517  4771 net.cpp:106] Creating Layer relu12
I0806 17:09:41.428527  4771 net.cpp:454] relu12 <- conv12
I0806 17:09:41.428537  4771 net.cpp:397] relu12 -> conv12 (in-place)
I0806 17:09:41.428952  4771 net.cpp:150] Setting up relu12
I0806 17:09:41.428974  4771 net.cpp:157] Top shape: 64 32 100 100 (20480000)
I0806 17:09:41.428984  4771 net.cpp:165] Memory required for data: 335360768
I0806 17:09:41.428993  4771 layer_factory.hpp:76] Creating layer pool1
I0806 17:09:41.429008  4771 net.cpp:106] Creating Layer pool1
I0806 17:09:41.429015  4771 net.cpp:454] pool1 <- conv12
I0806 17:09:41.429026  4771 net.cpp:411] pool1 -> pool1
I0806 17:09:41.429244  4771 net.cpp:150] Setting up pool1
I0806 17:09:41.429263  4771 net.cpp:157] Top shape: 64 32 50 50 (5120000)
I0806 17:09:41.429272  4771 net.cpp:165] Memory required for data: 355840768
I0806 17:09:41.429281  4771 layer_factory.hpp:76] Creating layer conv21
I0806 17:09:41.429296  4771 net.cpp:106] Creating Layer conv21
I0806 17:09:41.429306  4771 net.cpp:454] conv21 <- pool1
I0806 17:09:41.429316  4771 net.cpp:411] conv21 -> conv21
I0806 17:09:41.432246  4771 net.cpp:150] Setting up conv21
I0806 17:09:41.432276  4771 net.cpp:157] Top shape: 64 64 50 50 (10240000)
I0806 17:09:41.432286  4771 net.cpp:165] Memory required for data: 396800768
I0806 17:09:41.432301  4771 layer_factory.hpp:76] Creating layer relu21
I0806 17:09:41.432319  4771 net.cpp:106] Creating Layer relu21
I0806 17:09:41.432329  4771 net.cpp:454] relu21 <- conv21
I0806 17:09:41.432343  4771 net.cpp:397] relu21 -> conv21 (in-place)
I0806 17:09:41.432772  4771 net.cpp:150] Setting up relu21
I0806 17:09:41.432795  4771 net.cpp:157] Top shape: 64 64 50 50 (10240000)
I0806 17:09:41.432803  4771 net.cpp:165] Memory required for data: 437760768
I0806 17:09:41.432847  4771 layer_factory.hpp:76] Creating layer conv22
I0806 17:09:41.432867  4771 net.cpp:106] Creating Layer conv22
I0806 17:09:41.432876  4771 net.cpp:454] conv22 <- conv21
I0806 17:09:41.432888  4771 net.cpp:411] conv22 -> conv22
I0806 17:09:41.434097  4771 net.cpp:150] Setting up conv22
I0806 17:09:41.434119  4771 net.cpp:157] Top shape: 64 64 50 50 (10240000)
I0806 17:09:41.434129  4771 net.cpp:165] Memory required for data: 478720768
I0806 17:09:41.434141  4771 layer_factory.hpp:76] Creating layer relu22
I0806 17:09:41.434155  4771 net.cpp:106] Creating Layer relu22
I0806 17:09:41.434165  4771 net.cpp:454] relu22 <- conv22
I0806 17:09:41.434173  4771 net.cpp:397] relu22 -> conv22 (in-place)
I0806 17:09:41.434686  4771 net.cpp:150] Setting up relu22
I0806 17:09:41.434716  4771 net.cpp:157] Top shape: 64 64 50 50 (10240000)
I0806 17:09:41.434731  4771 net.cpp:165] Memory required for data: 519680768
I0806 17:09:41.434746  4771 layer_factory.hpp:76] Creating layer pool2
I0806 17:09:41.434767  4771 net.cpp:106] Creating Layer pool2
I0806 17:09:41.434779  4771 net.cpp:454] pool2 <- conv22
I0806 17:09:41.434797  4771 net.cpp:411] pool2 -> pool2
I0806 17:09:41.435084  4771 net.cpp:150] Setting up pool2
I0806 17:09:41.435111  4771 net.cpp:157] Top shape: 64 64 25 25 (2560000)
I0806 17:09:41.435123  4771 net.cpp:165] Memory required for data: 529920768
I0806 17:09:41.435137  4771 layer_factory.hpp:76] Creating layer conv31
I0806 17:09:41.435158  4771 net.cpp:106] Creating Layer conv31
I0806 17:09:41.435173  4771 net.cpp:454] conv31 <- pool2
I0806 17:09:41.435190  4771 net.cpp:411] conv31 -> conv31
I0806 17:09:41.437393  4771 cudnn_conv_layer.cpp:194] Reallocating workspace storage: 6912
I0806 17:09:41.437788  4771 net.cpp:150] Setting up conv31
I0806 17:09:41.437816  4771 net.cpp:157] Top shape: 64 96 25 25 (3840000)
I0806 17:09:41.437831  4771 net.cpp:165] Memory required for data: 545280768
I0806 17:09:41.437857  4771 layer_factory.hpp:76] Creating layer relu31
I0806 17:09:41.437876  4771 net.cpp:106] Creating Layer relu31
I0806 17:09:41.437891  4771 net.cpp:454] relu31 <- conv31
I0806 17:09:41.437911  4771 net.cpp:397] relu31 -> conv31 (in-place)
I0806 17:09:41.438447  4771 net.cpp:150] Setting up relu31
I0806 17:09:41.438477  4771 net.cpp:157] Top shape: 64 96 25 25 (3840000)
I0806 17:09:41.438490  4771 net.cpp:165] Memory required for data: 560640768
I0806 17:09:41.438504  4771 layer_factory.hpp:76] Creating layer conv32
I0806 17:09:41.438527  4771 net.cpp:106] Creating Layer conv32
I0806 17:09:41.438542  4771 net.cpp:454] conv32 <- conv31
I0806 17:09:41.438561  4771 net.cpp:411] conv32 -> conv32
I0806 17:09:41.442649  4771 cudnn_conv_layer.cpp:194] Reallocating workspace storage: 10368
I0806 17:09:41.442705  4771 net.cpp:150] Setting up conv32
I0806 17:09:41.442728  4771 net.cpp:157] Top shape: 64 96 25 25 (3840000)
I0806 17:09:41.442744  4771 net.cpp:165] Memory required for data: 576000768
I0806 17:09:41.442765  4771 layer_factory.hpp:76] Creating layer relu32
I0806 17:09:41.442785  4771 net.cpp:106] Creating Layer relu32
I0806 17:09:41.442800  4771 net.cpp:454] relu32 <- conv32
I0806 17:09:41.442819  4771 net.cpp:397] relu32 -> conv32 (in-place)
I0806 17:09:41.443091  4771 net.cpp:150] Setting up relu32
I0806 17:09:41.443117  4771 net.cpp:157] Top shape: 64 96 25 25 (3840000)
I0806 17:09:41.443131  4771 net.cpp:165] Memory required for data: 591360768
I0806 17:09:41.443146  4771 layer_factory.hpp:76] Creating layer pool3
I0806 17:09:41.443173  4771 net.cpp:106] Creating Layer pool3
I0806 17:09:41.443188  4771 net.cpp:454] pool3 <- conv32
I0806 17:09:41.443205  4771 net.cpp:411] pool3 -> pool3
I0806 17:09:41.443819  4771 net.cpp:150] Setting up pool3
I0806 17:09:41.443848  4771 net.cpp:157] Top shape: 64 96 13 13 (1038336)
I0806 17:09:41.443863  4771 net.cpp:165] Memory required for data: 595514112
I0806 17:09:41.443878  4771 layer_factory.hpp:76] Creating layer conv41
I0806 17:09:41.443902  4771 net.cpp:106] Creating Layer conv41
I0806 17:09:41.443917  4771 net.cpp:454] conv41 <- pool3
I0806 17:09:41.443981  4771 net.cpp:411] conv41 -> conv41
I0806 17:09:41.446696  4771 net.cpp:150] Setting up conv41
I0806 17:09:41.446727  4771 net.cpp:157] Top shape: 64 128 13 13 (1384448)
I0806 17:09:41.446743  4771 net.cpp:165] Memory required for data: 601051904
I0806 17:09:41.446763  4771 layer_factory.hpp:76] Creating layer relu41
I0806 17:09:41.446784  4771 net.cpp:106] Creating Layer relu41
I0806 17:09:41.446800  4771 net.cpp:454] relu41 <- conv41
I0806 17:09:41.446820  4771 net.cpp:397] relu41 -> conv41 (in-place)
I0806 17:09:41.447684  4771 net.cpp:150] Setting up relu41
I0806 17:09:41.447712  4771 net.cpp:157] Top shape: 64 128 13 13 (1384448)
I0806 17:09:41.447728  4771 net.cpp:165] Memory required for data: 606589696
I0806 17:09:41.447742  4771 layer_factory.hpp:76] Creating layer conv42
I0806 17:09:41.447765  4771 net.cpp:106] Creating Layer conv42
I0806 17:09:41.447782  4771 net.cpp:454] conv42 <- conv41
I0806 17:09:41.447806  4771 net.cpp:411] conv42 -> conv42
I0806 17:09:41.452110  4771 cudnn_conv_layer.cpp:194] Reallocating workspace storage: 13824
I0806 17:09:41.452167  4771 net.cpp:150] Setting up conv42
I0806 17:09:41.452190  4771 net.cpp:157] Top shape: 64 128 13 13 (1384448)
I0806 17:09:41.452204  4771 net.cpp:165] Memory required for data: 612127488
I0806 17:09:41.452224  4771 layer_factory.hpp:76] Creating layer relu42
I0806 17:09:41.452244  4771 net.cpp:106] Creating Layer relu42
I0806 17:09:41.452258  4771 net.cpp:454] relu42 <- conv42
I0806 17:09:41.452275  4771 net.cpp:397] relu42 -> conv42 (in-place)
I0806 17:09:41.452553  4771 net.cpp:150] Setting up relu42
I0806 17:09:41.452580  4771 net.cpp:157] Top shape: 64 128 13 13 (1384448)
I0806 17:09:41.452595  4771 net.cpp:165] Memory required for data: 617665280
I0806 17:09:41.452610  4771 layer_factory.hpp:76] Creating layer pool4
I0806 17:09:41.452632  4771 net.cpp:106] Creating Layer pool4
I0806 17:09:41.452647  4771 net.cpp:454] pool4 <- conv42
I0806 17:09:41.452663  4771 net.cpp:411] pool4 -> pool4
I0806 17:09:41.453260  4771 net.cpp:150] Setting up pool4
I0806 17:09:41.453292  4771 net.cpp:157] Top shape: 64 128 7 7 (401408)
I0806 17:09:41.453308  4771 net.cpp:165] Memory required for data: 619270912
I0806 17:09:41.453323  4771 layer_factory.hpp:76] Creating layer conv51
I0806 17:09:41.453346  4771 net.cpp:106] Creating Layer conv51
I0806 17:09:41.453361  4771 net.cpp:454] conv51 <- pool4
I0806 17:09:41.453383  4771 net.cpp:411] conv51 -> conv51
I0806 17:09:41.460961  4771 cudnn_conv_layer.cpp:194] Reallocating workspace storage: 13824
I0806 17:09:41.461037  4771 net.cpp:150] Setting up conv51
I0806 17:09:41.461066  4771 net.cpp:157] Top shape: 64 256 7 7 (802816)
I0806 17:09:41.461086  4771 net.cpp:165] Memory required for data: 622482176
I0806 17:09:41.461119  4771 layer_factory.hpp:76] Creating layer relu51
I0806 17:09:41.461149  4771 net.cpp:106] Creating Layer relu51
I0806 17:09:41.461166  4771 net.cpp:454] relu51 <- conv51
I0806 17:09:41.461185  4771 net.cpp:397] relu51 -> conv51 (in-place)
I0806 17:09:41.461498  4771 net.cpp:150] Setting up relu51
I0806 17:09:41.461525  4771 net.cpp:157] Top shape: 64 256 7 7 (802816)
I0806 17:09:41.461540  4771 net.cpp:165] Memory required for data: 625693440
I0806 17:09:41.461555  4771 layer_factory.hpp:76] Creating layer conv52
I0806 17:09:41.461583  4771 net.cpp:106] Creating Layer conv52
I0806 17:09:41.461598  4771 net.cpp:454] conv52 <- conv51
I0806 17:09:41.461617  4771 net.cpp:411] conv52 -> conv52
I0806 17:09:41.471823  4771 cudnn_conv_layer.cpp:194] Reallocating workspace storage: 27648
I0806 17:09:41.471915  4771 net.cpp:150] Setting up conv52
I0806 17:09:41.471943  4771 net.cpp:157] Top shape: 64 256 7 7 (802816)
I0806 17:09:41.471961  4771 net.cpp:165] Memory required for data: 628904704
I0806 17:09:41.471987  4771 layer_factory.hpp:76] Creating layer relu52
I0806 17:09:41.472012  4771 net.cpp:106] Creating Layer relu52
I0806 17:09:41.472033  4771 net.cpp:454] relu52 <- conv52
I0806 17:09:41.472056  4771 net.cpp:397] relu52 -> conv52 (in-place)
I0806 17:09:41.472841  4771 net.cpp:150] Setting up relu52
I0806 17:09:41.472872  4771 net.cpp:157] Top shape: 64 256 7 7 (802816)
I0806 17:09:41.472887  4771 net.cpp:165] Memory required for data: 632115968
I0806 17:09:41.472901  4771 layer_factory.hpp:76] Creating layer conv53
I0806 17:09:41.472929  4771 net.cpp:106] Creating Layer conv53
I0806 17:09:41.472944  4771 net.cpp:454] conv53 <- conv52
I0806 17:09:41.472965  4771 net.cpp:411] conv53 -> conv53
I0806 17:09:41.518326  4771 cudnn_conv_layer.cpp:194] Reallocating workspace storage: 9633792
I0806 17:09:41.518754  4771 net.cpp:150] Setting up conv53
I0806 17:09:41.518790  4771 net.cpp:157] Top shape: 64 256 1 1 (16384)
I0806 17:09:41.518805  4771 net.cpp:165] Memory required for data: 632181504
I0806 17:09:41.518833  4771 layer_factory.hpp:76] Creating layer relu53
I0806 17:09:41.518859  4771 net.cpp:106] Creating Layer relu53
I0806 17:09:41.518882  4771 net.cpp:454] relu53 <- conv53
I0806 17:09:41.518901  4771 net.cpp:397] relu53 -> conv53 (in-place)
I0806 17:09:41.519523  4771 net.cpp:150] Setting up relu53
I0806 17:09:41.519556  4771 net.cpp:157] Top shape: 64 256 1 1 (16384)
I0806 17:09:41.519570  4771 net.cpp:165] Memory required for data: 632247040
I0806 17:09:41.519585  4771 layer_factory.hpp:76] Creating layer drop6
I0806 17:09:41.519615  4771 net.cpp:106] Creating Layer drop6
I0806 17:09:41.519630  4771 net.cpp:454] drop6 <- conv53
I0806 17:09:41.519650  4771 net.cpp:411] drop6 -> drop6
I0806 17:09:41.519732  4771 net.cpp:150] Setting up drop6
I0806 17:09:41.519755  4771 net.cpp:157] Top shape: 64 256 1 1 (16384)
I0806 17:09:41.519769  4771 net.cpp:165] Memory required for data: 632312576
I0806 17:09:41.519783  4771 layer_factory.hpp:76] Creating layer conv54
I0806 17:09:41.519810  4771 net.cpp:106] Creating Layer conv54
I0806 17:09:41.519825  4771 net.cpp:454] conv54 <- drop6
I0806 17:09:41.519846  4771 net.cpp:411] conv54 -> conv54
I0806 17:09:41.521564  4771 cudnn_conv_layer.cpp:194] Reallocating workspace storage: 3072
I0806 17:09:41.521950  4771 net.cpp:150] Setting up conv54
I0806 17:09:41.521980  4771 net.cpp:157] Top shape: 64 2 1 1 (128)
I0806 17:09:41.521993  4771 net.cpp:165] Memory required for data: 632313088
I0806 17:09:41.522013  4771 layer_factory.hpp:76] Creating layer conv54_conv54_0_split
I0806 17:09:41.522033  4771 net.cpp:106] Creating Layer conv54_conv54_0_split
I0806 17:09:41.522047  4771 net.cpp:454] conv54_conv54_0_split <- conv54
I0806 17:09:41.522064  4771 net.cpp:411] conv54_conv54_0_split -> conv54_conv54_0_split_0
I0806 17:09:41.522084  4771 net.cpp:411] conv54_conv54_0_split -> conv54_conv54_0_split_1
I0806 17:09:41.522159  4771 net.cpp:150] Setting up conv54_conv54_0_split
I0806 17:09:41.522181  4771 net.cpp:157] Top shape: 64 2 1 1 (128)
I0806 17:09:41.522197  4771 net.cpp:157] Top shape: 64 2 1 1 (128)
I0806 17:09:41.522212  4771 net.cpp:165] Memory required for data: 632314112
I0806 17:09:41.522225  4771 layer_factory.hpp:76] Creating layer accuracy
I0806 17:09:41.522251  4771 net.cpp:106] Creating Layer accuracy
I0806 17:09:41.522265  4771 net.cpp:454] accuracy <- conv54_conv54_0_split_0
I0806 17:09:41.522281  4771 net.cpp:454] accuracy <- label_data_1_split_0
I0806 17:09:41.522299  4771 net.cpp:411] accuracy -> accuracy
…
I0806 17:09:41.525074  4771 net.cpp:322] The NetState phase (1) differed from the phase (0) specified by a rule in layer data
I0806 17:09:41.525439  4771 net.cpp:49] Initializing net from parameters: 
name: "FaceNN"
state {
  phase: TEST
}
layer {
  name: "data"
  type: "ImageData"
  top: "data"
  top: "label"
  include {
    phase: TEST
  }
  transform_param {
    mirror: false
    crop_size: 100
    mean_value: 104
    mean_value: 117
    mean_value: 123
  }
  image_data_param {
    source: "../lists/roi-val-L0-s1.lst"
    batch_size: 100
    shuffle: true
    new_height: 110
    new_width: 110
  }
}
layer {
  name: "conv11"
  type: "Convolution"
  bottom: "data"
  top: "conv11"
  param {
    lr_mult: 1
    decay_mult: 1
  }
  param {
    lr_mult: 2
    decay_mult: 0
  }
  convolution_param {
    num_output: 32
    pad: 1
    stride: 1
    weight_filler {
      type: "xavier"
    }
    bias_filler {
      type: "constant"
    }
    kernel_h: 3
    kernel_w: 3
  }
}
layer {
  name: "relu11"
  type: "ReLU"
  bottom: "conv11"
  top: "conv11"
}
layer {
  name: "conv12"
  type: "Convolution"
  bottom: "conv11"
  top: "conv12"
  param {
    lr_mult: 1
    decay_mult: 1
  }
  param {
    lr_mult: 2
    decay_mult: 0
  }
  convolution_param {
    num_output: 32
    pad: 1
    stride: 1
    weight_filler {
      type: "xavier"
    }
    bias_filler {
      type: "constant"
    }
    kernel_h: 3
    kernel_w: 3
  }
}
layer {
  name: "relu12"
  type: "ReLU"
  bottom: "conv12"
  top: "conv12"
}
layer {
  name: "pool1"
  type: "Pooling"
  bottom: "conv12"
  top: "pool1"
  pooling_param {
    pool: MAX
    kernel_size: 2
    stride: 2
  }
}
layer {
  name: "conv21"
  type: "Convolution"
  bottom: "pool1"
  top: "conv21"
  param {
    lr_mult: 1
    decay_mult: 1
  }
  param {
    lr_mult: 2
    decay_mult: 0
  }
  convolution_param {
    num_output: 64
    pad: 1
    stride: 1
    weight_filler {
      type: "xavier"
    }
    bias_filler {
      type: "constant"
    }
    kernel_h: 3
    kernel_w: 3
  }
}
layer {
  name: "relu21"
  type: "ReLU"
  bottom: "conv21"
  top: "conv21"
}
layer {
  name: "conv22"
  type: "Convolution"
  bottom: "conv21"
  top: "conv22"
  param {
    lr_mult: 1
    decay_mult: 1
  }
  param {
    lr_mult: 2
    decay_mult: 0
  }
  convolution_param {
    num_output: 64
    pad: 1
    stride: 1
    weight_filler {
      type: "xavier"
    }
    bias_filler {
      type: "constant"
    }
    kernel_h: 3
    kernel_w: 3
  }
}
layer {
  name: "relu22"
  type: "ReLU"
  bottom: "conv22"
  top: "conv22"
}
layer {
  name: "pool2"
  type: "Pooling"
  bottom: "conv22"
  top: "pool2"
  pooling_param {
    pool: MAX
    kernel_size: 2
    stride: 2
  }
}
layer {
  name: "conv31"
  type: "Convolution"
  bottom: "pool2"
  top: "conv31"
  param {
    lr_mult: 1
    decay_mult: 1
  }
  param {
    lr_mult: 2
    decay_mult: 0
  }
  convolution_param {
    num_output: 96
    pad: 1
    stride: 1
    weight_filler {
      type: "xavier"
    }
    bias_filler {
      type: "constant"
    }
    kernel_h: 3
    kernel_w: 3
  }
}
layer {
  name: "relu31"
  type: "ReLU"
  bottom: "conv31"
  top: "conv31"
}
layer {
  name: "conv32"
  type: "Convolution"
  bottom: "conv31"
  top: "conv32"
  param {
    lr_mult: 1
    decay_mult: 1
  }
  param {
    lr_mult: 2
    decay_mult: 0
  }
  convolution_param {
    num_output: 96
    pad: 1
    stride: 1
    weight_filler {
      type: "xavier"
    }
    bias_filler {
      type: "constant"
    }
    kernel_h: 3
    kernel_w: 3
  }
}
layer {
  name: "relu32"
  type: "ReLU"
  bottom: "conv32"
  top: "conv32"
}
layer {
  name: "pool3"
  type: "Pooling"
  bottom: "conv32"
  top: "pool3"
  pooling_param {
    pool: MAX
    kernel_size: 2
    stride: 2
  }
}
layer {
  name: "conv41"
  type: "Convolution"
  bottom: "pool3"
  top: "conv41"
  param {
    lr_mult: 1
    decay_mult: 1
  }
  param {
    lr_mult: 2
    decay_mult: 0
  }
  convolution_param {
    num_output: 128
    pad: 1
    stride: 1
    weight_filler {
      type: "xavier"
    }
    bias_filler {
      type: "constant"
    }
    kernel_h: 3
    kernel_w: 3
  }
}
layer {
  name: "relu41"
  type: "ReLU"
  bottom: "conv41"
  top: "conv41"
}
layer {
  name: "conv42"
  type: "Convolution"
  bottom: "conv41"
  top: "conv42"
  param {
    lr_mult: 1
    decay_mult: 1
  }
  param {
    lr_mult: 2
    decay_mult: 0
  }
  convolution_param {
    num_output: 128
    pad: 1
    stride: 1
    weight_filler {
      type: "xavier"
    }
    bias_filler {
      type: "constant"
    }
    kernel_h: 3
    kernel_w: 3
  }
}
layer {
  name: "relu42"
  type: "ReLU"
  bottom: "conv42"
  top: "conv42"
}
layer {
  name: "pool4"
  type: "Pooling"
  bottom: "conv42"
  top: "pool4"
  pooling_param {
    pool: MAX
    kernel_size: 2
    stride: 2
  }
}
layer {
  name: "conv51"
  type: "Convolution"
  bottom: "pool4"
  top: "conv51"
  param {
    lr_mult: 1
    decay_mult: 1
  }
  param {
    lr_mult: 2
    decay_mult: 0
  }
  convolution_param {
    num_output: 256
    pad: 1
    stride: 1
    weight_filler {
      type: "xavier"
    }
    bias_filler {
      type: "constant"
    }
    kernel_h: 3
    kernel_w: 3
  }
}
layer {
  name: "relu51"
  type: "ReLU"
  bottom: "conv51"
  top: "conv51"
}
layer {
  name: "conv52"
  type: "Convolution"
  bottom: "conv51"
  top: "conv52"
  param {
    lr_mult: 1
    decay_mult: 1
  }
  param {
    lr_mult: 2
    decay_mult: 0
  }
  convolution_param {
    num_output: 256
    pad: 1
    stride: 1
    weight_filler {
      type: "xavier"
    }
    bias_filler {
      type: "constant"
    }
    kernel_h: 3
    kernel_w: 3
  }
}
layer {
  name: "relu52"
  type: "ReLU"
  bottom: "conv52"
  top: "conv52"
}
layer {
  name: "conv53"
  type: "Convolution"
  bottom: "conv52"
  top: "conv53"
  param {
    lr_mult: 1
    decay_mult: 1
  }
  param {
    lr_mult: 2
    decay_mult: 0
  }
  convolution_param {
    num_output: 256
    stride: 1
    weight_filler {
      type: "xavier"
    }
    bias_filler {
      type: "constant"
    }
    kernel_h: 7
    kernel_w: 7
  }
}
layer {
  name: "relu53"
  type: "ReLU"
  bottom: "conv53"
  top: "conv53"
}
layer {
  name: "drop6"
  type: "Dropout"
  bottom: "conv53"
  top: "drop6"
  dropout_param {
    dropout_ratio: 0.4
  }
}
layer {
  name: "conv54"
  type: "Convolution"
  bottom: "drop6"
  top: "conv54"
  param {
    lr_mult: 1
    decay_mult: 1
  }
  param {
    lr_mult: 2
    decay_mult: 0
  }
  convolution_param {
    num_output: 2
    stride: 1
    weight_filler {
      type: "xavier"
    }
    bias_filler {
      type: "constant"
    }
    kernel_h: 1
    kernel_w: 1
  }
}
layer {
  name: "accuracy"
  type: "Accuracy"
  bottom: "conv54"
  bottom: "label"
  top: "accuracy"
}
layer {
  name: "loss"
  type: "SoftmaxWithLoss"
  bottom: "conv54"
  bottom: "label"
  top: "loss"
}
I0806 17:09:41.528316  4771 layer_factory.hpp:76] Creating layer data
I0806 17:09:41.528352  4771 net.cpp:106] Creating Layer data
I0806 17:09:41.528369  4771 net.cpp:411] data -> data
I0806 17:09:41.528391  4771 net.cpp:411] data -> label
I0806 17:09:41.528414  4771 image_data_layer.cpp:36] Opening file ../lists/roi-val-L0-s1.lst
I0806 17:09:41.553267  4771 image_data_layer.cpp:46] Shuffling data
I0806 17:09:41.557104  4771 image_data_layer.cpp:51] A total of 26460 images.
I0806 17:09:41.580926  4771 image_data_layer.cpp:78] output data size: 100,3,100,100
I0806 17:09:41.620095  4771 net.cpp:150] Setting up data
I0806 17:09:41.620164  4771 net.cpp:157] Top shape: 100 3 100 100 (3000000)
I0806 17:09:41.620184  4771 net.cpp:157] Top shape: 100 (100)
I0806 17:09:41.620200  4771 net.cpp:165] Memory required for data: 12000400
I0806 17:09:41.620218  4771 layer_factory.hpp:76] Creating layer label_data_1_split
I0806 17:09:41.620249  4771 net.cpp:106] Creating Layer label_data_1_split
I0806 17:09:41.620267  4771 net.cpp:454] label_data_1_split <- label
I0806 17:09:41.620288  4771 net.cpp:411] label_data_1_split -> label_data_1_split_0
I0806 17:09:41.620314  4771 net.cpp:411] label_data_1_split -> label_data_1_split_1
I0806 17:09:41.620407  4771 net.cpp:150] Setting up label_data_1_split
I0806 17:09:41.620430  4771 net.cpp:157] Top shape: 100 (100)
I0806 17:09:41.620446  4771 net.cpp:157] Top shape: 100 (100)
I0806 17:09:41.620460  4771 net.cpp:165] Memory required for data: 12001200
I0806 17:09:41.620474  4771 layer_factory.hpp:76] Creating layer conv11
I0806 17:09:41.620501  4771 net.cpp:106] Creating Layer conv11
I0806 17:09:41.620517  4771 net.cpp:454] conv11 <- data
I0806 17:09:41.620534  4771 net.cpp:411] conv11 -> conv11
I0806 17:09:41.622474  4771 net.cpp:150] Setting up conv11
I0806 17:09:41.622509  4771 net.cpp:157] Top shape: 100 32 100 100 (32000000)
I0806 17:09:41.622524  4771 net.cpp:165] Memory required for data: 140001200
I0806 17:09:41.622550  4771 layer_factory.hpp:76] Creating layer relu11
I0806 17:09:41.622570  4771 net.cpp:106] Creating Layer relu11
I0806 17:09:41.622586  4771 net.cpp:454] relu11 <- conv11
I0806 17:09:41.622604  4771 net.cpp:397] relu11 -> conv11 (in-place)
I0806 17:09:41.623289  4771 net.cpp:150] Setting up relu11
I0806 17:09:41.623352  4771 net.cpp:157] Top shape: 100 32 100 100 (32000000)
I0806 17:09:41.623368  4771 net.cpp:165] Memory required for data: 268001200
I0806 17:09:41.623383  4771 layer_factory.hpp:76] Creating layer conv12
I0806 17:09:41.623407  4771 net.cpp:106] Creating Layer conv12
I0806 17:09:41.623422  4771 net.cpp:454] conv12 <- conv11
I0806 17:09:41.623441  4771 net.cpp:411] conv12 -> conv12
I0806 17:09:41.625108  4771 net.cpp:150] Setting up conv12
I0806 17:09:41.625144  4771 net.cpp:157] Top shape: 100 32 100 100 (32000000)
I0806 17:09:41.625159  4771 net.cpp:165] Memory required for data: 396001200
I0806 17:09:41.625183  4771 layer_factory.hpp:76] Creating layer relu12
I0806 17:09:41.625201  4771 net.cpp:106] Creating Layer relu12
I0806 17:09:41.625216  4771 net.cpp:454] relu12 <- conv12
I0806 17:09:41.625232  4771 net.cpp:397] relu12 -> conv12 (in-place)
I0806 17:09:41.625803  4771 net.cpp:150] Setting up relu12
I0806 17:09:41.625833  4771 net.cpp:157] Top shape: 100 32 100 100 (32000000)
I0806 17:09:41.625847  4771 net.cpp:165] Memory required for data: 524001200
I0806 17:09:41.625861  4771 layer_factory.hpp:76] Creating layer pool1
I0806 17:09:41.625880  4771 net.cpp:106] Creating Layer pool1
I0806 17:09:41.625895  4771 net.cpp:454] pool1 <- conv12
I0806 17:09:41.625915  4771 net.cpp:411] pool1 -> pool1
I0806 17:09:41.628073  4771 net.cpp:150] Setting up pool1
I0806 17:09:41.628103  4771 net.cpp:157] Top shape: 100 32 50 50 (8000000)
I0806 17:09:41.628118  4771 net.cpp:165] Memory required for data: 556001200
I0806 17:09:41.628134  4771 layer_factory.hpp:76] Creating layer conv21
I0806 17:09:41.628156  4771 net.cpp:106] Creating Layer conv21
I0806 17:09:41.628172  4771 net.cpp:454] conv21 <- pool1
I0806 17:09:41.628196  4771 net.cpp:411] conv21 -> conv21
I0806 17:09:41.630185  4771 net.cpp:150] Setting up conv21
I0806 17:09:41.630218  4771 net.cpp:157] Top shape: 100 64 50 50 (16000000)
I0806 17:09:41.630234  4771 net.cpp:165] Memory required for data: 620001200
I0806 17:09:41.630260  4771 layer_factory.hpp:76] Creating layer relu21
I0806 17:09:41.630282  4771 net.cpp:106] Creating Layer relu21
I0806 17:09:41.630297  4771 net.cpp:454] relu21 <- conv21
I0806 17:09:41.630316  4771 net.cpp:397] relu21 -> conv21 (in-place)
I0806 17:09:41.630887  4771 net.cpp:150] Setting up relu21
I0806 17:09:41.630918  4771 net.cpp:157] Top shape: 100 64 50 50 (16000000)
I0806 17:09:41.630933  4771 net.cpp:165] Memory required for data: 684001200
I0806 17:09:41.630946  4771 layer_factory.hpp:76] Creating layer conv22
I0806 17:09:41.630970  4771 net.cpp:106] Creating Layer conv22
I0806 17:09:41.630985  4771 net.cpp:454] conv22 <- conv21
I0806 17:09:41.631008  4771 net.cpp:411] conv22 -> conv22
I0806 17:09:41.633319  4771 net.cpp:150] Setting up conv22
I0806 17:09:41.633358  4771 net.cpp:157] Top shape: 100 64 50 50 (16000000)
I0806 17:09:41.633373  4771 net.cpp:165] Memory required for data: 748001200
I0806 17:09:41.633393  4771 layer_factory.hpp:76] Creating layer relu22
I0806 17:09:41.633412  4771 net.cpp:106] Creating Layer relu22
I0806 17:09:41.633426  4771 net.cpp:454] relu22 <- conv22
I0806 17:09:41.633443  4771 net.cpp:397] relu22 -> conv22 (in-place)
I0806 17:09:41.633720  4771 net.cpp:150] Setting up relu22
I0806 17:09:41.633746  4771 net.cpp:157] Top shape: 100 64 50 50 (16000000)
I0806 17:09:41.633760  4771 net.cpp:165] Memory required for data: 812001200
I0806 17:09:41.633775  4771 layer_factory.hpp:76] Creating layer pool2
I0806 17:09:41.633795  4771 net.cpp:106] Creating Layer pool2
I0806 17:09:41.633810  4771 net.cpp:454] pool2 <- conv22
I0806 17:09:41.633826  4771 net.cpp:411] pool2 -> pool2
I0806 17:09:41.634446  4771 net.cpp:150] Setting up pool2
I0806 17:09:41.634476  4771 net.cpp:157] Top shape: 100 64 25 25 (4000000)
I0806 17:09:41.634491  4771 net.cpp:165] Memory required for data: 828001200
I0806 17:09:41.634505  4771 layer_factory.hpp:76] Creating layer conv31
I0806 17:09:41.634529  4771 net.cpp:106] Creating Layer conv31
I0806 17:09:41.634544  4771 net.cpp:454] conv31 <- pool2
I0806 17:09:41.634600  4771 net.cpp:411] conv31 -> conv31
I0806 17:09:41.636755  4771 cudnn_conv_layer.cpp:194] Reallocating workspace storage: 6912
I0806 17:09:41.636807  4771 net.cpp:150] Setting up conv31
I0806 17:09:41.636829  4771 net.cpp:157] Top shape: 100 96 25 25 (6000000)
I0806 17:09:41.636844  4771 net.cpp:165] Memory required for data: 852001200
I0806 17:09:41.636871  4771 layer_factory.hpp:76] Creating layer relu31
I0806 17:09:41.636889  4771 net.cpp:106] Creating Layer relu31
I0806 17:09:41.636904  4771 net.cpp:454] relu31 <- conv31
I0806 17:09:41.636920  4771 net.cpp:397] relu31 -> conv31 (in-place)
I0806 17:09:41.637483  4771 net.cpp:150] Setting up relu31
I0806 17:09:41.637516  4771 net.cpp:157] Top shape: 100 96 25 25 (6000000)
I0806 17:09:41.637531  4771 net.cpp:165] Memory required for data: 876001200
I0806 17:09:41.637544  4771 layer_factory.hpp:76] Creating layer conv32
I0806 17:09:41.637567  4771 net.cpp:106] Creating Layer conv32
I0806 17:09:41.637581  4771 net.cpp:454] conv32 <- conv31
I0806 17:09:41.637603  4771 net.cpp:411] conv32 -> conv32
I0806 17:09:41.643959  4771 cudnn_conv_layer.cpp:194] Reallocating workspace storage: 10368
I0806 17:09:41.644012  4771 net.cpp:150] Setting up conv32
I0806 17:09:41.644037  4771 net.cpp:157] Top shape: 100 96 25 25 (6000000)
I0806 17:09:41.644052  4771 net.cpp:165] Memory required for data: 900001200
I0806 17:09:41.644073  4771 layer_factory.hpp:76] Creating layer relu32
I0806 17:09:41.644093  4771 net.cpp:106] Creating Layer relu32
I0806 17:09:41.644109  4771 net.cpp:454] relu32 <- conv32
I0806 17:09:41.644129  4771 net.cpp:397] relu32 -> conv32 (in-place)
I0806 17:09:41.644412  4771 net.cpp:150] Setting up relu32
I0806 17:09:41.644438  4771 net.cpp:157] Top shape: 100 96 25 25 (6000000)
I0806 17:09:41.644451  4771 net.cpp:165] Memory required for data: 924001200
I0806 17:09:41.644466  4771 layer_factory.hpp:76] Creating layer pool3
I0806 17:09:41.644490  4771 net.cpp:106] Creating Layer pool3
I0806 17:09:41.644505  4771 net.cpp:454] pool3 <- conv32
I0806 17:09:41.644526  4771 net.cpp:411] pool3 -> pool3
I0806 17:09:41.645135  4771 net.cpp:150] Setting up pool3
I0806 17:09:41.645165  4771 net.cpp:157] Top shape: 100 96 13 13 (1622400)
I0806 17:09:41.645180  4771 net.cpp:165] Memory required for data: 930490800
I0806 17:09:41.645195  4771 layer_factory.hpp:76] Creating layer conv41
I0806 17:09:41.645217  4771 net.cpp:106] Creating Layer conv41
I0806 17:09:41.645236  4771 net.cpp:454] conv41 <- pool3
I0806 17:09:41.645253  4771 net.cpp:411] conv41 -> conv41
I0806 17:09:41.649140  4771 net.cpp:150] Setting up conv41
I0806 17:09:41.649174  4771 net.cpp:157] Top shape: 100 128 13 13 (2163200)
I0806 17:09:41.649189  4771 net.cpp:165] Memory required for data: 939143600
I0806 17:09:41.649209  4771 layer_factory.hpp:76] Creating layer relu41
I0806 17:09:41.649233  4771 net.cpp:106] Creating Layer relu41
I0806 17:09:41.649250  4771 net.cpp:454] relu41 <- conv41
I0806 17:09:41.649268  4771 net.cpp:397] relu41 -> conv41 (in-place)
I0806 17:09:41.649551  4771 net.cpp:150] Setting up relu41
I0806 17:09:41.649577  4771 net.cpp:157] Top shape: 100 128 13 13 (2163200)
I0806 17:09:41.649592  4771 net.cpp:165] Memory required for data: 947796400
I0806 17:09:41.649606  4771 layer_factory.hpp:76] Creating layer conv42
I0806 17:09:41.649631  4771 net.cpp:106] Creating Layer conv42
I0806 17:09:41.649647  4771 net.cpp:454] conv42 <- conv41
I0806 17:09:41.649665  4771 net.cpp:411] conv42 -> conv42
I0806 17:09:41.653060  4771 cudnn_conv_layer.cpp:194] Reallocating workspace storage: 13824
I0806 17:09:41.653112  4771 net.cpp:150] Setting up conv42
I0806 17:09:41.653138  4771 net.cpp:157] Top shape: 100 128 13 13 (2163200)
I0806 17:09:41.653153  4771 net.cpp:165] Memory required for data: 956449200
I0806 17:09:41.653173  4771 layer_factory.hpp:76] Creating layer relu42
I0806 17:09:41.653192  4771 net.cpp:106] Creating Layer relu42
I0806 17:09:41.653205  4771 net.cpp:454] relu42 <- conv42
I0806 17:09:41.653224  4771 net.cpp:397] relu42 -> conv42 (in-place)
I0806 17:09:41.653796  4771 net.cpp:150] Setting up relu42
I0806 17:09:41.653857  4771 net.cpp:157] Top shape: 100 128 13 13 (2163200)
I0806 17:09:41.653872  4771 net.cpp:165] Memory required for data: 965102000
I0806 17:09:41.653887  4771 layer_factory.hpp:76] Creating layer pool4
I0806 17:09:41.653905  4771 net.cpp:106] Creating Layer pool4
I0806 17:09:41.653920  4771 net.cpp:454] pool4 <- conv42
I0806 17:09:41.653936  4771 net.cpp:411] pool4 -> pool4
I0806 17:09:41.654268  4771 net.cpp:150] Setting up pool4
I0806 17:09:41.654295  4771 net.cpp:157] Top shape: 100 128 7 7 (627200)
I0806 17:09:41.654310  4771 net.cpp:165] Memory required for data: 967610800
I0806 17:09:41.654325  4771 layer_factory.hpp:76] Creating layer conv51
I0806 17:09:41.654348  4771 net.cpp:106] Creating Layer conv51
I0806 17:09:41.654363  4771 net.cpp:454] conv51 <- pool4
I0806 17:09:41.654389  4771 net.cpp:411] conv51 -> conv51
I0806 17:09:41.660485  4771 cudnn_conv_layer.cpp:194] Reallocating workspace storage: 13824
I0806 17:09:41.660540  4771 net.cpp:150] Setting up conv51
I0806 17:09:41.660565  4771 net.cpp:157] Top shape: 100 256 7 7 (1254400)
I0806 17:09:41.660580  4771 net.cpp:165] Memory required for data: 972628400
I0806 17:09:41.660609  4771 layer_factory.hpp:76] Creating layer relu51
I0806 17:09:41.660627  4771 net.cpp:106] Creating Layer relu51
I0806 17:09:41.660642  4771 net.cpp:454] relu51 <- conv51
I0806 17:09:41.660660  4771 net.cpp:397] relu51 -> conv51 (in-place)
I0806 17:09:41.660931  4771 net.cpp:150] Setting up relu51
I0806 17:09:41.660958  4771 net.cpp:157] Top shape: 100 256 7 7 (1254400)
I0806 17:09:41.660971  4771 net.cpp:165] Memory required for data: 977646000
I0806 17:09:41.660986  4771 layer_factory.hpp:76] Creating layer conv52
I0806 17:09:41.661011  4771 net.cpp:106] Creating Layer conv52
I0806 17:09:41.661027  4771 net.cpp:454] conv52 <- conv51
I0806 17:09:41.661047  4771 net.cpp:411] conv52 -> conv52
I0806 17:09:41.671490  4771 net.cpp:150] Setting up conv52
I0806 17:09:41.671546  4771 net.cpp:157] Top shape: 100 256 7 7 (1254400)
I0806 17:09:41.671563  4771 net.cpp:165] Memory required for data: 982663600
I0806 17:09:41.671586  4771 layer_factory.hpp:76] Creating layer relu52
I0806 17:09:41.671609  4771 net.cpp:106] Creating Layer relu52
I0806 17:09:41.671625  4771 net.cpp:454] relu52 <- conv52
I0806 17:09:41.671645  4771 net.cpp:397] relu52 -> conv52 (in-place)
I0806 17:09:41.672225  4771 net.cpp:150] Setting up relu52
I0806 17:09:41.672255  4771 net.cpp:157] Top shape: 100 256 7 7 (1254400)
I0806 17:09:41.672269  4771 net.cpp:165] Memory required for data: 987681200
I0806 17:09:41.672284  4771 layer_factory.hpp:76] Creating layer conv53
I0806 17:09:41.672309  4771 net.cpp:106] Creating Layer conv53
I0806 17:09:41.672325  4771 net.cpp:454] conv53 <- conv52
I0806 17:09:41.672346  4771 net.cpp:411] conv53 -> conv53
I0806 17:09:41.718276  4771 cudnn_conv_layer.cpp:194] Reallocating workspace storage: 150528
I0806 17:09:41.718724  4771 net.cpp:150] Setting up conv53
I0806 17:09:41.718757  4771 net.cpp:157] Top shape: 100 256 1 1 (25600)
I0806 17:09:41.718773  4771 net.cpp:165] Memory required for data: 987783600
I0806 17:09:41.718798  4771 layer_factory.hpp:76] Creating layer relu53
I0806 17:09:41.718823  4771 net.cpp:106] Creating Layer relu53
I0806 17:09:41.718842  4771 net.cpp:454] relu53 <- conv53
I0806 17:09:41.718868  4771 net.cpp:397] relu53 -> conv53 (in-place)
I0806 17:09:41.719166  4771 net.cpp:150] Setting up relu53
I0806 17:09:41.719194  4771 net.cpp:157] Top shape: 100 256 1 1 (25600)
I0806 17:09:41.719209  4771 net.cpp:165] Memory required for data: 987886000
I0806 17:09:41.719224  4771 layer_factory.hpp:76] Creating layer drop6
I0806 17:09:41.719245  4771 net.cpp:106] Creating Layer drop6
I0806 17:09:41.719259  4771 net.cpp:454] drop6 <- conv53
I0806 17:09:41.719277  4771 net.cpp:411] drop6 -> drop6
I0806 17:09:41.719362  4771 net.cpp:150] Setting up drop6
I0806 17:09:41.719385  4771 net.cpp:157] Top shape: 100 256 1 1 (25600)
I0806 17:09:41.719400  4771 net.cpp:165] Memory required for data: 987988400
I0806 17:09:41.719415  4771 layer_factory.hpp:76] Creating layer conv54
I0806 17:09:41.719483  4771 net.cpp:106] Creating Layer conv54
I0806 17:09:41.719501  4771 net.cpp:454] conv54 <- drop6
I0806 17:09:41.719521  4771 net.cpp:411] conv54 -> conv54
I0806 17:09:41.721411  4771 cudnn_conv_layer.cpp:194] Reallocating workspace storage: 3072
I0806 17:09:41.721458  4771 net.cpp:150] Setting up conv54
I0806 17:09:41.721478  4771 net.cpp:157] Top shape: 100 2 1 1 (200)
I0806 17:09:41.721495  4771 net.cpp:165] Memory required for data: 987989200
I0806 17:09:41.721514  4771 layer_factory.hpp:76] Creating layer conv54_conv54_0_split
I0806 17:09:41.721537  4771 net.cpp:106] Creating Layer conv54_conv54_0_split
I0806 17:09:41.721554  4771 net.cpp:454] conv54_conv54_0_split <- conv54
I0806 17:09:41.721571  4771 net.cpp:411] conv54_conv54_0_split -> conv54_conv54_0_split_0
I0806 17:09:41.721592  4771 net.cpp:411] conv54_conv54_0_split -> conv54_conv54_0_split_1
I0806 17:09:41.721668  4771 net.cpp:150] Setting up conv54_conv54_0_split
I0806 17:09:41.721690  4771 net.cpp:157] Top shape: 100 2 1 1 (200)
I0806 17:09:41.721706  4771 net.cpp:157] Top shape: 100 2 1 1 (200)
I0806 17:09:41.721719  4771 net.cpp:165] Memory required for data: 987990800
I0806 17:09:41.721734  4771 layer_factory.hpp:76] Creating layer accuracy
I0806 17:09:41.721751  4771 net.cpp:106] Creating Layer accuracy
I0806 17:09:41.721765  4771 net.cpp:454] accuracy <- conv54_conv54_0_split_0
I0806 17:09:41.721781  4771 net.cpp:454] accuracy <- label_data_1_split_0
I0806 17:09:41.721799  4771 net.cpp:411] accuracy -> accuracy
…
