…
I0807 16:36:59.115703 59231 net.cpp:322] The NetState phase (0) differed from the phase (1) specified by a rule in layer data
I0807 16:36:59.115993 59231 net.cpp:49] Initializing net from parameters: 
name: "FaceNN"
state {
  phase: TRAIN
}
layer {
  name: "data"
  type: "ImageData"
  top: "data"
  top: "label"
  include {
    phase: TRAIN
  }
  transform_param {
    mirror: true
    crop_size: 100
    mean_value: 104
    mean_value: 117
    mean_value: 123
  }
  image_data_param {
    source: "../lists/roi-train-L0-s1.lst"
    batch_size: 64
    shuffle: true
    new_height: 110
    new_width: 110
  }
}
layer {
  name: "conv11"
  type: "Convolution"
  bottom: "data"
  top: "conv11"
  param {
    lr_mult: 1
    decay_mult: 1
  }
  param {
    lr_mult: 2
    decay_mult: 0
  }
  convolution_param {
    num_output: 32
    pad: 1
    stride: 1
    weight_filler {
      type: "xavier"
    }
    bias_filler {
      type: "constant"
    }
    kernel_h: 3
    kernel_w: 3
  }
}
layer {
  name: "relu11"
  type: "ReLU"
  bottom: "conv11"
  top: "conv11"
}
layer {
  name: "conv12"
  type: "Convolution"
  bottom: "conv11"
  top: "conv12"
  param {
    lr_mult: 1
    decay_mult: 1
  }
  param {
    lr_mult: 2
    decay_mult: 0
  }
  convolution_param {
    num_output: 32
    pad: 1
    stride: 1
    weight_filler {
      type: "xavier"
    }
    bias_filler {
      type: "constant"
    }
    kernel_h: 3
    kernel_w: 3
  }
}
layer {
  name: "relu12"
  type: "ReLU"
  bottom: "conv12"
  top: "conv12"
}
layer {
  name: "pool1"
  type: "Pooling"
  bottom: "conv12"
  top: "pool1"
  pooling_param {
    pool: MAX
    kernel_size: 2
    stride: 2
  }
}
layer {
  name: "conv21"
  type: "Convolution"
  bottom: "pool1"
  top: "conv21"
  param {
    lr_mult: 1
    decay_mult: 1
  }
  param {
    lr_mult: 2
    decay_mult: 0
  }
  convolution_param {
    num_output: 64
    pad: 1
    stride: 1
    weight_filler {
      type: "xavier"
    }
    bias_filler {
      type: "constant"
    }
    kernel_h: 3
    kernel_w: 3
  }
}
layer {
  name: "relu21"
  type: "ReLU"
  bottom: "conv21"
  top: "conv21"
}
layer {
  name: "conv22"
  type: "Convolution"
  bottom: "conv21"
  top: "conv22"
  param {
    lr_mult: 1
    decay_mult: 1
  }
  param {
    lr_mult: 2
    decay_mult: 0
  }
  convolution_param {
    num_output: 64
    pad: 1
    stride: 1
    weight_filler {
      type: "xavier"
    }
    bias_filler {
      type: "constant"
    }
    kernel_h: 3
    kernel_w: 3
  }
}
layer {
  name: "relu22"
  type: "ReLU"
  bottom: "conv22"
  top: "conv22"
}
layer {
  name: "pool2"
  type: "Pooling"
  bottom: "conv22"
  top: "pool2"
  pooling_param {
    pool: MAX
    kernel_size: 2
    stride: 2
  }
}
layer {
  name: "conv31"
  type: "Convolution"
  bottom: "pool2"
  top: "conv31"
  param {
    lr_mult: 1
    decay_mult: 1
  }
  param {
    lr_mult: 2
    decay_mult: 0
  }
  convolution_param {
    num_output: 96
    pad: 1
    stride: 1
    weight_filler {
      type: "xavier"
    }
    bias_filler {
      type: "constant"
    }
    kernel_h: 3
    kernel_w: 3
  }
}
layer {
  name: "relu31"
  type: "ReLU"
  bottom: "conv31"
  top: "conv31"
}
layer {
  name: "conv32"
  type: "Convolution"
  bottom: "conv31"
  top: "conv32"
  param {
    lr_mult: 1
    decay_mult: 1
  }
  param {
    lr_mult: 2
    decay_mult: 0
  }
  convolution_param {
    num_output: 96
    pad: 1
    stride: 1
    weight_filler {
      type: "xavier"
    }
    bias_filler {
      type: "constant"
    }
    kernel_h: 3
    kernel_w: 3
  }
}
layer {
  name: "relu32"
  type: "ReLU"
  bottom: "conv32"
  top: "conv32"
}
layer {
  name: "pool3"
  type: "Pooling"
  bottom: "conv32"
  top: "pool3"
  pooling_param {
    pool: MAX
    kernel_size: 2
    stride: 2
  }
}
layer {
  name: "conv41"
  type: "Convolution"
  bottom: "pool3"
  top: "conv41"
  param {
    lr_mult: 1
    decay_mult: 1
  }
  param {
    lr_mult: 2
    decay_mult: 0
  }
  convolution_param {
    num_output: 128
    pad: 1
    stride: 1
    weight_filler {
      type: "xavier"
    }
    bias_filler {
      type: "constant"
    }
    kernel_h: 3
    kernel_w: 3
  }
}
layer {
  name: "relu41"
  type: "ReLU"
  bottom: "conv41"
  top: "conv41"
}
layer {
  name: "conv42"
  type: "Convolution"
  bottom: "conv41"
  top: "conv42"
  param {
    lr_mult: 1
    decay_mult: 1
  }
  param {
    lr_mult: 2
    decay_mult: 0
  }
  convolution_param {
    num_output: 128
    pad: 1
    stride: 1
    weight_filler {
      type: "xavier"
    }
    bias_filler {
      type: "constant"
    }
    kernel_h: 3
    kernel_w: 3
  }
}
layer {
  name: "relu42"
  type: "ReLU"
  bottom: "conv42"
  top: "conv42"
}
layer {
  name: "pool4"
  type: "Pooling"
  bottom: "conv42"
  top: "pool4"
  pooling_param {
    pool: MAX
    kernel_size: 2
    stride: 2
  }
}
layer {
  name: "conv51"
  type: "Convolution"
  bottom: "pool4"
  top: "conv51"
  param {
    lr_mult: 1
    decay_mult: 1
  }
  param {
    lr_mult: 2
    decay_mult: 0
  }
  convolution_param {
    num_output: 256
    pad: 1
    stride: 1
    weight_filler {
      type: "xavier"
    }
    bias_filler {
      type: "constant"
    }
    kernel_h: 3
    kernel_w: 3
  }
}
layer {
  name: "relu51"
  type: "ReLU"
  bottom: "conv51"
  top: "conv51"
}
layer {
  name: "conv52"
  type: "Convolution"
  bottom: "conv51"
  top: "conv52"
  param {
    lr_mult: 1
    decay_mult: 1
  }
  param {
    lr_mult: 2
    decay_mult: 0
  }
  convolution_param {
    num_output: 256
    pad: 1
    stride: 1
    weight_filler {
      type: "xavier"
    }
    bias_filler {
      type: "constant"
    }
    kernel_h: 3
    kernel_w: 3
  }
}
layer {
  name: "relu52"
  type: "ReLU"
  bottom: "conv52"
  top: "conv52"
}
layer {
  name: "conv53"
  type: "Convolution"
  bottom: "conv52"
  top: "conv53"
  param {
    lr_mult: 1
    decay_mult: 1
  }
  param {
    lr_mult: 2
    decay_mult: 0
  }
  convolution_param {
    num_output: 256
    stride: 1
    weight_filler {
      type: "xavier"
    }
    bias_filler {
      type: "constant"
    }
    kernel_h: 7
    kernel_w: 7
  }
}
layer {
  name: "relu53"
  type: "ReLU"
  bottom: "conv53"
  top: "conv53"
}
layer {
  name: "drop6"
  type: "Dropout"
  bottom: "conv53"
  top: "drop6"
  dropout_param {
    dropout_ratio: 0.4
  }
}
layer {
  name: "conv54"
  type: "Convolution"
  bottom: "drop6"
  top: "conv54"
  param {
    lr_mult: 1
    decay_mult: 1
  }
  param {
    lr_mult: 2
    decay_mult: 0
  }
  convolution_param {
    num_output: 2
    stride: 1
    weight_filler {
      type: "xavier"
    }
    bias_filler {
      type: "constant"
    }
    kernel_h: 1
    kernel_w: 1
  }
}
layer {
  name: "accuracy"
  type: "Accuracy"
  bottom: "conv54"
  bottom: "label"
  top: "accuracy"
}
layer {
  name: "loss"
  type: "SoftmaxWithLoss"
  bottom: "conv54"
  bottom: "label"
  top: "loss"
}
I0807 16:36:59.117661 59231 layer_factory.hpp:76] Creating layer data
I0807 16:36:59.117728 59231 net.cpp:106] Creating Layer data
I0807 16:36:59.117748 59231 net.cpp:411] data -> data
I0807 16:36:59.117775 59231 net.cpp:411] data -> label
I0807 16:36:59.118216 59231 image_data_layer.cpp:36] Opening file ../lists/roi-train-L0-s1.lst
I0807 16:36:59.257808 59231 image_data_layer.cpp:46] Shuffling data
I0807 16:36:59.309273 59231 image_data_layer.cpp:51] A total of 238140 images.
I0807 16:36:59.325780 59231 image_data_layer.cpp:78] output data size: 64,3,100,100
I0807 16:36:59.379403 59231 net.cpp:150] Setting up data
I0807 16:36:59.379493 59231 net.cpp:157] Top shape: 64 3 100 100 (1920000)
I0807 16:36:59.379508 59231 net.cpp:157] Top shape: 64 (64)
I0807 16:36:59.379518 59231 net.cpp:165] Memory required for data: 7680256
I0807 16:36:59.379531 59231 layer_factory.hpp:76] Creating layer label_data_1_split
I0807 16:36:59.379554 59231 net.cpp:106] Creating Layer label_data_1_split
I0807 16:36:59.379567 59231 net.cpp:454] label_data_1_split <- label
I0807 16:36:59.379585 59231 net.cpp:411] label_data_1_split -> label_data_1_split_0
I0807 16:36:59.379622 59231 net.cpp:411] label_data_1_split -> label_data_1_split_1
I0807 16:36:59.379690 59231 net.cpp:150] Setting up label_data_1_split
I0807 16:36:59.379704 59231 net.cpp:157] Top shape: 64 (64)
I0807 16:36:59.379714 59231 net.cpp:157] Top shape: 64 (64)
I0807 16:36:59.379724 59231 net.cpp:165] Memory required for data: 7680768
I0807 16:36:59.379732 59231 layer_factory.hpp:76] Creating layer conv11
I0807 16:36:59.379765 59231 net.cpp:106] Creating Layer conv11
I0807 16:36:59.379791 59231 net.cpp:454] conv11 <- data
I0807 16:36:59.379804 59231 net.cpp:411] conv11 -> conv11
I0807 16:36:59.563933 59231 net.cpp:150] Setting up conv11
I0807 16:36:59.563995 59231 net.cpp:157] Top shape: 64 32 100 100 (20480000)
I0807 16:36:59.564005 59231 net.cpp:165] Memory required for data: 89600768
I0807 16:36:59.564033 59231 layer_factory.hpp:76] Creating layer relu11
I0807 16:36:59.564054 59231 net.cpp:106] Creating Layer relu11
I0807 16:36:59.564065 59231 net.cpp:454] relu11 <- conv11
I0807 16:36:59.564079 59231 net.cpp:397] relu11 -> conv11 (in-place)
I0807 16:36:59.564283 59231 net.cpp:150] Setting up relu11
I0807 16:36:59.564311 59231 net.cpp:157] Top shape: 64 32 100 100 (20480000)
I0807 16:36:59.564321 59231 net.cpp:165] Memory required for data: 171520768
I0807 16:36:59.564329 59231 layer_factory.hpp:76] Creating layer conv12
I0807 16:36:59.564348 59231 net.cpp:106] Creating Layer conv12
I0807 16:36:59.564357 59231 net.cpp:454] conv12 <- conv11
I0807 16:36:59.564368 59231 net.cpp:411] conv12 -> conv12
I0807 16:36:59.565564 59231 net.cpp:150] Setting up conv12
I0807 16:36:59.565585 59231 net.cpp:157] Top shape: 64 32 100 100 (20480000)
I0807 16:36:59.565606 59231 net.cpp:165] Memory required for data: 253440768
I0807 16:36:59.565621 59231 layer_factory.hpp:76] Creating layer relu12
I0807 16:36:59.565634 59231 net.cpp:106] Creating Layer relu12
I0807 16:36:59.565642 59231 net.cpp:454] relu12 <- conv12
I0807 16:36:59.565652 59231 net.cpp:397] relu12 -> conv12 (in-place)
I0807 16:36:59.566068 59231 net.cpp:150] Setting up relu12
I0807 16:36:59.566099 59231 net.cpp:157] Top shape: 64 32 100 100 (20480000)
I0807 16:36:59.566109 59231 net.cpp:165] Memory required for data: 335360768
I0807 16:36:59.566118 59231 layer_factory.hpp:76] Creating layer pool1
I0807 16:36:59.566131 59231 net.cpp:106] Creating Layer pool1
I0807 16:36:59.566140 59231 net.cpp:454] pool1 <- conv12
I0807 16:36:59.566151 59231 net.cpp:411] pool1 -> pool1
I0807 16:36:59.566381 59231 net.cpp:150] Setting up pool1
I0807 16:36:59.566411 59231 net.cpp:157] Top shape: 64 32 50 50 (5120000)
I0807 16:36:59.566418 59231 net.cpp:165] Memory required for data: 355840768
I0807 16:36:59.566427 59231 layer_factory.hpp:76] Creating layer conv21
I0807 16:36:59.566440 59231 net.cpp:106] Creating Layer conv21
I0807 16:36:59.566449 59231 net.cpp:454] conv21 <- pool1
I0807 16:36:59.566460 59231 net.cpp:411] conv21 -> conv21
I0807 16:36:59.569401 59231 net.cpp:150] Setting up conv21
I0807 16:36:59.569435 59231 net.cpp:157] Top shape: 64 64 50 50 (10240000)
I0807 16:36:59.569444 59231 net.cpp:165] Memory required for data: 396800768
I0807 16:36:59.569460 59231 layer_factory.hpp:76] Creating layer relu21
I0807 16:36:59.569473 59231 net.cpp:106] Creating Layer relu21
I0807 16:36:59.569483 59231 net.cpp:454] relu21 <- conv21
I0807 16:36:59.569494 59231 net.cpp:397] relu21 -> conv21 (in-place)
I0807 16:36:59.569952 59231 net.cpp:150] Setting up relu21
I0807 16:36:59.569983 59231 net.cpp:157] Top shape: 64 64 50 50 (10240000)
I0807 16:36:59.569993 59231 net.cpp:165] Memory required for data: 437760768
I0807 16:36:59.570044 59231 layer_factory.hpp:76] Creating layer conv22
I0807 16:36:59.570073 59231 net.cpp:106] Creating Layer conv22
I0807 16:36:59.570096 59231 net.cpp:454] conv22 <- conv21
I0807 16:36:59.570107 59231 net.cpp:411] conv22 -> conv22
I0807 16:36:59.571261 59231 net.cpp:150] Setting up conv22
I0807 16:36:59.571293 59231 net.cpp:157] Top shape: 64 64 50 50 (10240000)
I0807 16:36:59.571303 59231 net.cpp:165] Memory required for data: 478720768
I0807 16:36:59.571316 59231 layer_factory.hpp:76] Creating layer relu22
I0807 16:36:59.571327 59231 net.cpp:106] Creating Layer relu22
I0807 16:36:59.571336 59231 net.cpp:454] relu22 <- conv22
I0807 16:36:59.571346 59231 net.cpp:397] relu22 -> conv22 (in-place)
I0807 16:36:59.571789 59231 net.cpp:150] Setting up relu22
I0807 16:36:59.571821 59231 net.cpp:157] Top shape: 64 64 50 50 (10240000)
I0807 16:36:59.571830 59231 net.cpp:165] Memory required for data: 519680768
I0807 16:36:59.571838 59231 layer_factory.hpp:76] Creating layer pool2
I0807 16:36:59.571851 59231 net.cpp:106] Creating Layer pool2
I0807 16:36:59.571859 59231 net.cpp:454] pool2 <- conv22
I0807 16:36:59.571869 59231 net.cpp:411] pool2 -> pool2
I0807 16:36:59.572151 59231 net.cpp:150] Setting up pool2
I0807 16:36:59.572180 59231 net.cpp:157] Top shape: 64 64 25 25 (2560000)
I0807 16:36:59.572201 59231 net.cpp:165] Memory required for data: 529920768
I0807 16:36:59.572209 59231 layer_factory.hpp:76] Creating layer conv31
I0807 16:36:59.572227 59231 net.cpp:106] Creating Layer conv31
I0807 16:36:59.572237 59231 net.cpp:454] conv31 <- pool2
I0807 16:36:59.572249 59231 net.cpp:411] conv31 -> conv31
I0807 16:36:59.573770 59231 cudnn_conv_layer.cpp:194] Reallocating workspace storage: 6912
I0807 16:36:59.574169 59231 net.cpp:150] Setting up conv31
I0807 16:36:59.574198 59231 net.cpp:157] Top shape: 64 96 25 25 (3840000)
I0807 16:36:59.574208 59231 net.cpp:165] Memory required for data: 545280768
I0807 16:36:59.574226 59231 layer_factory.hpp:76] Creating layer relu31
I0807 16:36:59.574239 59231 net.cpp:106] Creating Layer relu31
I0807 16:36:59.574249 59231 net.cpp:454] relu31 <- conv31
I0807 16:36:59.574260 59231 net.cpp:397] relu31 -> conv31 (in-place)
I0807 16:36:59.574764 59231 net.cpp:150] Setting up relu31
I0807 16:36:59.574806 59231 net.cpp:157] Top shape: 64 96 25 25 (3840000)
I0807 16:36:59.574816 59231 net.cpp:165] Memory required for data: 560640768
I0807 16:36:59.574826 59231 layer_factory.hpp:76] Creating layer conv32
I0807 16:36:59.574841 59231 net.cpp:106] Creating Layer conv32
I0807 16:36:59.574862 59231 net.cpp:454] conv32 <- conv31
I0807 16:36:59.574874 59231 net.cpp:411] conv32 -> conv32
I0807 16:36:59.577354 59231 cudnn_conv_layer.cpp:194] Reallocating workspace storage: 10368
I0807 16:36:59.577401 59231 net.cpp:150] Setting up conv32
I0807 16:36:59.577417 59231 net.cpp:157] Top shape: 64 96 25 25 (3840000)
I0807 16:36:59.577426 59231 net.cpp:165] Memory required for data: 576000768
I0807 16:36:59.577452 59231 layer_factory.hpp:76] Creating layer relu32
I0807 16:36:59.577464 59231 net.cpp:106] Creating Layer relu32
I0807 16:36:59.577476 59231 net.cpp:454] relu32 <- conv32
I0807 16:36:59.577491 59231 net.cpp:397] relu32 -> conv32 (in-place)
I0807 16:36:59.577682 59231 net.cpp:150] Setting up relu32
I0807 16:36:59.577710 59231 net.cpp:157] Top shape: 64 96 25 25 (3840000)
I0807 16:36:59.577719 59231 net.cpp:165] Memory required for data: 591360768
I0807 16:36:59.577730 59231 layer_factory.hpp:76] Creating layer pool3
I0807 16:36:59.577747 59231 net.cpp:106] Creating Layer pool3
I0807 16:36:59.577757 59231 net.cpp:454] pool3 <- conv32
I0807 16:36:59.577767 59231 net.cpp:411] pool3 -> pool3
I0807 16:36:59.578250 59231 net.cpp:150] Setting up pool3
I0807 16:36:59.578281 59231 net.cpp:157] Top shape: 64 96 13 13 (1038336)
I0807 16:36:59.578302 59231 net.cpp:165] Memory required for data: 595514112
I0807 16:36:59.578311 59231 layer_factory.hpp:76] Creating layer conv41
I0807 16:36:59.578336 59231 net.cpp:106] Creating Layer conv41
I0807 16:36:59.578346 59231 net.cpp:454] conv41 <- pool3
I0807 16:36:59.578394 59231 net.cpp:411] conv41 -> conv41
I0807 16:36:59.580086 59231 net.cpp:150] Setting up conv41
I0807 16:36:59.580121 59231 net.cpp:157] Top shape: 64 128 13 13 (1384448)
I0807 16:36:59.580130 59231 net.cpp:165] Memory required for data: 601051904
I0807 16:36:59.580143 59231 layer_factory.hpp:76] Creating layer relu41
I0807 16:36:59.580157 59231 net.cpp:106] Creating Layer relu41
I0807 16:36:59.580165 59231 net.cpp:454] relu41 <- conv41
I0807 16:36:59.580179 59231 net.cpp:397] relu41 -> conv41 (in-place)
I0807 16:36:59.580935 59231 net.cpp:150] Setting up relu41
I0807 16:36:59.580968 59231 net.cpp:157] Top shape: 64 128 13 13 (1384448)
I0807 16:36:59.580978 59231 net.cpp:165] Memory required for data: 606589696
I0807 16:36:59.580987 59231 layer_factory.hpp:76] Creating layer conv42
I0807 16:36:59.581004 59231 net.cpp:106] Creating Layer conv42
I0807 16:36:59.581014 59231 net.cpp:454] conv42 <- conv41
I0807 16:36:59.581027 59231 net.cpp:411] conv42 -> conv42
I0807 16:36:59.584194 59231 cudnn_conv_layer.cpp:194] Reallocating workspace storage: 13824
I0807 16:36:59.584256 59231 net.cpp:150] Setting up conv42
I0807 16:36:59.584270 59231 net.cpp:157] Top shape: 64 128 13 13 (1384448)
I0807 16:36:59.584278 59231 net.cpp:165] Memory required for data: 612127488
I0807 16:36:59.584295 59231 layer_factory.hpp:76] Creating layer relu42
I0807 16:36:59.584313 59231 net.cpp:106] Creating Layer relu42
I0807 16:36:59.584324 59231 net.cpp:454] relu42 <- conv42
I0807 16:36:59.584341 59231 net.cpp:397] relu42 -> conv42 (in-place)
I0807 16:36:59.584564 59231 net.cpp:150] Setting up relu42
I0807 16:36:59.584592 59231 net.cpp:157] Top shape: 64 128 13 13 (1384448)
I0807 16:36:59.584601 59231 net.cpp:165] Memory required for data: 617665280
I0807 16:36:59.584610 59231 layer_factory.hpp:76] Creating layer pool4
I0807 16:36:59.584625 59231 net.cpp:106] Creating Layer pool4
I0807 16:36:59.584633 59231 net.cpp:454] pool4 <- conv42
I0807 16:36:59.584646 59231 net.cpp:411] pool4 -> pool4
I0807 16:36:59.585114 59231 net.cpp:150] Setting up pool4
I0807 16:36:59.585146 59231 net.cpp:157] Top shape: 64 128 7 7 (401408)
I0807 16:36:59.585155 59231 net.cpp:165] Memory required for data: 619270912
I0807 16:36:59.585165 59231 layer_factory.hpp:76] Creating layer conv51
I0807 16:36:59.585181 59231 net.cpp:106] Creating Layer conv51
I0807 16:36:59.585191 59231 net.cpp:454] conv51 <- pool4
I0807 16:36:59.585204 59231 net.cpp:411] conv51 -> conv51
I0807 16:36:59.589324 59231 cudnn_conv_layer.cpp:194] Reallocating workspace storage: 13824
I0807 16:36:59.589385 59231 net.cpp:150] Setting up conv51
I0807 16:36:59.589401 59231 net.cpp:157] Top shape: 64 256 7 7 (802816)
I0807 16:36:59.589408 59231 net.cpp:165] Memory required for data: 622482176
I0807 16:36:59.589428 59231 layer_factory.hpp:76] Creating layer relu51
I0807 16:36:59.589443 59231 net.cpp:106] Creating Layer relu51
I0807 16:36:59.589454 59231 net.cpp:454] relu51 <- conv51
I0807 16:36:59.589468 59231 net.cpp:397] relu51 -> conv51 (in-place)
I0807 16:36:59.589692 59231 net.cpp:150] Setting up relu51
I0807 16:36:59.589725 59231 net.cpp:157] Top shape: 64 256 7 7 (802816)
I0807 16:36:59.589733 59231 net.cpp:165] Memory required for data: 625693440
I0807 16:36:59.589742 59231 layer_factory.hpp:76] Creating layer conv52
I0807 16:36:59.589756 59231 net.cpp:106] Creating Layer conv52
I0807 16:36:59.589766 59231 net.cpp:454] conv52 <- conv51
I0807 16:36:59.589779 59231 net.cpp:411] conv52 -> conv52
I0807 16:36:59.596837 59231 cudnn_conv_layer.cpp:194] Reallocating workspace storage: 27648
I0807 16:36:59.596904 59231 net.cpp:150] Setting up conv52
I0807 16:36:59.596917 59231 net.cpp:157] Top shape: 64 256 7 7 (802816)
I0807 16:36:59.596926 59231 net.cpp:165] Memory required for data: 628904704
I0807 16:36:59.596945 59231 layer_factory.hpp:76] Creating layer relu52
I0807 16:36:59.596961 59231 net.cpp:106] Creating Layer relu52
I0807 16:36:59.596971 59231 net.cpp:454] relu52 <- conv52
I0807 16:36:59.596987 59231 net.cpp:397] relu52 -> conv52 (in-place)
I0807 16:36:59.597468 59231 net.cpp:150] Setting up relu52
I0807 16:36:59.597501 59231 net.cpp:157] Top shape: 64 256 7 7 (802816)
I0807 16:36:59.597510 59231 net.cpp:165] Memory required for data: 632115968
I0807 16:36:59.597519 59231 layer_factory.hpp:76] Creating layer conv53
I0807 16:36:59.597538 59231 net.cpp:106] Creating Layer conv53
I0807 16:36:59.597548 59231 net.cpp:454] conv53 <- conv52
I0807 16:36:59.597559 59231 net.cpp:411] conv53 -> conv53
I0807 16:36:59.628641 59231 cudnn_conv_layer.cpp:194] Reallocating workspace storage: 9633792
I0807 16:36:59.629026 59231 net.cpp:150] Setting up conv53
I0807 16:36:59.629061 59231 net.cpp:157] Top shape: 64 256 1 1 (16384)
I0807 16:36:59.629071 59231 net.cpp:165] Memory required for data: 632181504
I0807 16:36:59.629086 59231 layer_factory.hpp:76] Creating layer relu53
I0807 16:36:59.629112 59231 net.cpp:106] Creating Layer relu53
I0807 16:36:59.629123 59231 net.cpp:454] relu53 <- conv53
I0807 16:36:59.629137 59231 net.cpp:397] relu53 -> conv53 (in-place)
I0807 16:36:59.629654 59231 net.cpp:150] Setting up relu53
I0807 16:36:59.629685 59231 net.cpp:157] Top shape: 64 256 1 1 (16384)
I0807 16:36:59.629694 59231 net.cpp:165] Memory required for data: 632247040
I0807 16:36:59.629704 59231 layer_factory.hpp:76] Creating layer drop6
I0807 16:36:59.629726 59231 net.cpp:106] Creating Layer drop6
I0807 16:36:59.629736 59231 net.cpp:454] drop6 <- conv53
I0807 16:36:59.629747 59231 net.cpp:411] drop6 -> drop6
I0807 16:36:59.629807 59231 net.cpp:150] Setting up drop6
I0807 16:36:59.629822 59231 net.cpp:157] Top shape: 64 256 1 1 (16384)
I0807 16:36:59.629829 59231 net.cpp:165] Memory required for data: 632312576
I0807 16:36:59.629838 59231 layer_factory.hpp:76] Creating layer conv54
I0807 16:36:59.629868 59231 net.cpp:106] Creating Layer conv54
I0807 16:36:59.629881 59231 net.cpp:454] conv54 <- drop6
I0807 16:36:59.629899 59231 net.cpp:411] conv54 -> conv54
I0807 16:36:59.631136 59231 cudnn_conv_layer.cpp:194] Reallocating workspace storage: 3072
I0807 16:36:59.631496 59231 net.cpp:150] Setting up conv54
I0807 16:36:59.631526 59231 net.cpp:157] Top shape: 64 2 1 1 (128)
I0807 16:36:59.631536 59231 net.cpp:165] Memory required for data: 632313088
I0807 16:36:59.631552 59231 layer_factory.hpp:76] Creating layer conv54_conv54_0_split
I0807 16:36:59.631567 59231 net.cpp:106] Creating Layer conv54_conv54_0_split
I0807 16:36:59.631575 59231 net.cpp:454] conv54_conv54_0_split <- conv54
I0807 16:36:59.631587 59231 net.cpp:411] conv54_conv54_0_split -> conv54_conv54_0_split_0
I0807 16:36:59.631600 59231 net.cpp:411] conv54_conv54_0_split -> conv54_conv54_0_split_1
I0807 16:36:59.631660 59231 net.cpp:150] Setting up conv54_conv54_0_split
I0807 16:36:59.631675 59231 net.cpp:157] Top shape: 64 2 1 1 (128)
I0807 16:36:59.631685 59231 net.cpp:157] Top shape: 64 2 1 1 (128)
I0807 16:36:59.631692 59231 net.cpp:165] Memory required for data: 632314112
I0807 16:36:59.631701 59231 layer_factory.hpp:76] Creating layer accuracy
I0807 16:36:59.631721 59231 net.cpp:106] Creating Layer accuracy
I0807 16:36:59.631731 59231 net.cpp:454] accuracy <- conv54_conv54_0_split_0
I0807 16:36:59.631742 59231 net.cpp:454] accuracy <- label_data_1_split_0
I0807 16:36:59.631752 59231 net.cpp:411] accuracy -> accuracy
…
I0807 16:36:59.633682 59231 net.cpp:322] The NetState phase (1) differed from the phase (0) specified by a rule in layer data
I0807 16:36:59.633898 59231 net.cpp:49] Initializing net from parameters: 
name: "FaceNN"
state {
  phase: TEST
}
layer {
  name: "data"
  type: "ImageData"
  top: "data"
  top: "label"
  include {
    phase: TEST
  }
  transform_param {
    mirror: false
    crop_size: 100
    mean_value: 104
    mean_value: 117
    mean_value: 123
  }
  image_data_param {
    source: "../lists/roi-val-L0-s1.lst"
    batch_size: 100
    shuffle: true
    new_height: 110
    new_width: 110
  }
}
layer {
  name: "conv11"
  type: "Convolution"
  bottom: "data"
  top: "conv11"
  param {
    lr_mult: 1
    decay_mult: 1
  }
  param {
    lr_mult: 2
    decay_mult: 0
  }
  convolution_param {
    num_output: 32
    pad: 1
    stride: 1
    weight_filler {
      type: "xavier"
    }
    bias_filler {
      type: "constant"
    }
    kernel_h: 3
    kernel_w: 3
  }
}
layer {
  name: "relu11"
  type: "ReLU"
  bottom: "conv11"
  top: "conv11"
}
layer {
  name: "conv12"
  type: "Convolution"
  bottom: "conv11"
  top: "conv12"
  param {
    lr_mult: 1
    decay_mult: 1
  }
  param {
    lr_mult: 2
    decay_mult: 0
  }
  convolution_param {
    num_output: 32
    pad: 1
    stride: 1
    weight_filler {
      type: "xavier"
    }
    bias_filler {
      type: "constant"
    }
    kernel_h: 3
    kernel_w: 3
  }
}
layer {
  name: "relu12"
  type: "ReLU"
  bottom: "conv12"
  top: "conv12"
}
layer {
  name: "pool1"
  type: "Pooling"
  bottom: "conv12"
  top: "pool1"
  pooling_param {
    pool: MAX
    kernel_size: 2
    stride: 2
  }
}
layer {
  name: "conv21"
  type: "Convolution"
  bottom: "pool1"
  top: "conv21"
  param {
    lr_mult: 1
    decay_mult: 1
  }
  param {
    lr_mult: 2
    decay_mult: 0
  }
  convolution_param {
    num_output: 64
    pad: 1
    stride: 1
    weight_filler {
      type: "xavier"
    }
    bias_filler {
      type: "constant"
    }
    kernel_h: 3
    kernel_w: 3
  }
}
layer {
  name: "relu21"
  type: "ReLU"
  bottom: "conv21"
  top: "conv21"
}
layer {
  name: "conv22"
  type: "Convolution"
  bottom: "conv21"
  top: "conv22"
  param {
    lr_mult: 1
    decay_mult: 1
  }
  param {
    lr_mult: 2
    decay_mult: 0
  }
  convolution_param {
    num_output: 64
    pad: 1
    stride: 1
    weight_filler {
      type: "xavier"
    }
    bias_filler {
      type: "constant"
    }
    kernel_h: 3
    kernel_w: 3
  }
}
layer {
  name: "relu22"
  type: "ReLU"
  bottom: "conv22"
  top: "conv22"
}
layer {
  name: "pool2"
  type: "Pooling"
  bottom: "conv22"
  top: "pool2"
  pooling_param {
    pool: MAX
    kernel_size: 2
    stride: 2
  }
}
layer {
  name: "conv31"
  type: "Convolution"
  bottom: "pool2"
  top: "conv31"
  param {
    lr_mult: 1
    decay_mult: 1
  }
  param {
    lr_mult: 2
    decay_mult: 0
  }
  convolution_param {
    num_output: 96
    pad: 1
    stride: 1
    weight_filler {
      type: "xavier"
    }
    bias_filler {
      type: "constant"
    }
    kernel_h: 3
    kernel_w: 3
  }
}
layer {
  name: "relu31"
  type: "ReLU"
  bottom: "conv31"
  top: "conv31"
}
layer {
  name: "conv32"
  type: "Convolution"
  bottom: "conv31"
  top: "conv32"
  param {
    lr_mult: 1
    decay_mult: 1
  }
  param {
    lr_mult: 2
    decay_mult: 0
  }
  convolution_param {
    num_output: 96
    pad: 1
    stride: 1
    weight_filler {
      type: "xavier"
    }
    bias_filler {
      type: "constant"
    }
    kernel_h: 3
    kernel_w: 3
  }
}
layer {
  name: "relu32"
  type: "ReLU"
  bottom: "conv32"
  top: "conv32"
}
layer {
  name: "pool3"
  type: "Pooling"
  bottom: "conv32"
  top: "pool3"
  pooling_param {
    pool: MAX
    kernel_size: 2
    stride: 2
  }
}
layer {
  name: "conv41"
  type: "Convolution"
  bottom: "pool3"
  top: "conv41"
  param {
    lr_mult: 1
    decay_mult: 1
  }
  param {
    lr_mult: 2
    decay_mult: 0
  }
  convolution_param {
    num_output: 128
    pad: 1
    stride: 1
    weight_filler {
      type: "xavier"
    }
    bias_filler {
      type: "constant"
    }
    kernel_h: 3
    kernel_w: 3
  }
}
layer {
  name: "relu41"
  type: "ReLU"
  bottom: "conv41"
  top: "conv41"
}
layer {
  name: "conv42"
  type: "Convolution"
  bottom: "conv41"
  top: "conv42"
  param {
    lr_mult: 1
    decay_mult: 1
  }
  param {
    lr_mult: 2
    decay_mult: 0
  }
  convolution_param {
    num_output: 128
    pad: 1
    stride: 1
    weight_filler {
      type: "xavier"
    }
    bias_filler {
      type: "constant"
    }
    kernel_h: 3
    kernel_w: 3
  }
}
layer {
  name: "relu42"
  type: "ReLU"
  bottom: "conv42"
  top: "conv42"
}
layer {
  name: "pool4"
  type: "Pooling"
  bottom: "conv42"
  top: "pool4"
  pooling_param {
    pool: MAX
    kernel_size: 2
    stride: 2
  }
}
layer {
  name: "conv51"
  type: "Convolution"
  bottom: "pool4"
  top: "conv51"
  param {
    lr_mult: 1
    decay_mult: 1
  }
  param {
    lr_mult: 2
    decay_mult: 0
  }
  convolution_param {
    num_output: 256
    pad: 1
    stride: 1
    weight_filler {
      type: "xavier"
    }
    bias_filler {
      type: "constant"
    }
    kernel_h: 3
    kernel_w: 3
  }
}
layer {
  name: "relu51"
  type: "ReLU"
  bottom: "conv51"
  top: "conv51"
}
layer {
  name: "conv52"
  type: "Convolution"
  bottom: "conv51"
  top: "conv52"
  param {
    lr_mult: 1
    decay_mult: 1
  }
  param {
    lr_mult: 2
    decay_mult: 0
  }
  convolution_param {
    num_output: 256
    pad: 1
    stride: 1
    weight_filler {
      type: "xavier"
    }
    bias_filler {
      type: "constant"
    }
    kernel_h: 3
    kernel_w: 3
  }
}
layer {
  name: "relu52"
  type: "ReLU"
  bottom: "conv52"
  top: "conv52"
}
layer {
  name: "conv53"
  type: "Convolution"
  bottom: "conv52"
  top: "conv53"
  param {
    lr_mult: 1
    decay_mult: 1
  }
  param {
    lr_mult: 2
    decay_mult: 0
  }
  convolution_param {
    num_output: 256
    stride: 1
    weight_filler {
      type: "xavier"
    }
    bias_filler {
      type: "constant"
    }
    kernel_h: 7
    kernel_w: 7
  }
}
layer {
  name: "relu53"
  type: "ReLU"
  bottom: "conv53"
  top: "conv53"
}
layer {
  name: "drop6"
  type: "Dropout"
  bottom: "conv53"
  top: "drop6"
  dropout_param {
    dropout_ratio: 0.4
  }
}
layer {
  name: "conv54"
  type: "Convolution"
  bottom: "drop6"
  top: "conv54"
  param {
    lr_mult: 1
    decay_mult: 1
  }
  param {
    lr_mult: 2
    decay_mult: 0
  }
  convolution_param {
    num_output: 2
    stride: 1
    weight_filler {
      type: "xavier"
    }
    bias_filler {
      type: "constant"
    }
    kernel_h: 1
    kernel_w: 1
  }
}
layer {
  name: "accuracy"
  type: "Accuracy"
  bottom: "conv54"
  bottom: "label"
  top: "accuracy"
}
layer {
  name: "loss"
  type: "SoftmaxWithLoss"
  bottom: "conv54"
  bottom: "label"
  top: "loss"
}
I0807 16:36:59.635545 59231 layer_factory.hpp:76] Creating layer data
I0807 16:36:59.635578 59231 net.cpp:106] Creating Layer data
I0807 16:36:59.635601 59231 net.cpp:411] data -> data
I0807 16:36:59.635617 59231 net.cpp:411] data -> label
I0807 16:36:59.635632 59231 image_data_layer.cpp:36] Opening file ../lists/roi-val-L0-s1.lst
I0807 16:36:59.649878 59231 image_data_layer.cpp:46] Shuffling data
I0807 16:36:59.652907 59231 image_data_layer.cpp:51] A total of 26460 images.
I0807 16:36:59.717052 59231 image_data_layer.cpp:78] output data size: 100,3,100,100
I0807 16:36:59.757704 59231 net.cpp:150] Setting up data
I0807 16:36:59.757750 59231 net.cpp:157] Top shape: 100 3 100 100 (3000000)
I0807 16:36:59.757762 59231 net.cpp:157] Top shape: 100 (100)
I0807 16:36:59.757771 59231 net.cpp:165] Memory required for data: 12000400
I0807 16:36:59.757784 59231 layer_factory.hpp:76] Creating layer label_data_1_split
I0807 16:36:59.757803 59231 net.cpp:106] Creating Layer label_data_1_split
I0807 16:36:59.757813 59231 net.cpp:454] label_data_1_split <- label
I0807 16:36:59.757827 59231 net.cpp:411] label_data_1_split -> label_data_1_split_0
I0807 16:36:59.757843 59231 net.cpp:411] label_data_1_split -> label_data_1_split_1
I0807 16:36:59.757949 59231 net.cpp:150] Setting up label_data_1_split
I0807 16:36:59.757967 59231 net.cpp:157] Top shape: 100 (100)
I0807 16:36:59.757977 59231 net.cpp:157] Top shape: 100 (100)
I0807 16:36:59.757987 59231 net.cpp:165] Memory required for data: 12001200
I0807 16:36:59.757995 59231 layer_factory.hpp:76] Creating layer conv11
I0807 16:36:59.758014 59231 net.cpp:106] Creating Layer conv11
I0807 16:36:59.758023 59231 net.cpp:454] conv11 <- data
I0807 16:36:59.758035 59231 net.cpp:411] conv11 -> conv11
I0807 16:36:59.759851 59231 net.cpp:150] Setting up conv11
I0807 16:36:59.759877 59231 net.cpp:157] Top shape: 100 32 100 100 (32000000)
I0807 16:36:59.759887 59231 net.cpp:165] Memory required for data: 140001200
I0807 16:36:59.759905 59231 layer_factory.hpp:76] Creating layer relu11
I0807 16:36:59.759920 59231 net.cpp:106] Creating Layer relu11
I0807 16:36:59.759929 59231 net.cpp:454] relu11 <- conv11
I0807 16:36:59.759941 59231 net.cpp:397] relu11 -> conv11 (in-place)
I0807 16:36:59.760397 59231 net.cpp:150] Setting up relu11
I0807 16:36:59.760443 59231 net.cpp:157] Top shape: 100 32 100 100 (32000000)
I0807 16:36:59.760452 59231 net.cpp:165] Memory required for data: 268001200
I0807 16:36:59.760462 59231 layer_factory.hpp:76] Creating layer conv12
I0807 16:36:59.760479 59231 net.cpp:106] Creating Layer conv12
I0807 16:36:59.760488 59231 net.cpp:454] conv12 <- conv11
I0807 16:36:59.760507 59231 net.cpp:411] conv12 -> conv12
I0807 16:36:59.761626 59231 net.cpp:150] Setting up conv12
I0807 16:36:59.761649 59231 net.cpp:157] Top shape: 100 32 100 100 (32000000)
I0807 16:36:59.761659 59231 net.cpp:165] Memory required for data: 396001200
I0807 16:36:59.761677 59231 layer_factory.hpp:76] Creating layer relu12
I0807 16:36:59.761690 59231 net.cpp:106] Creating Layer relu12
I0807 16:36:59.761699 59231 net.cpp:454] relu12 <- conv12
I0807 16:36:59.761713 59231 net.cpp:397] relu12 -> conv12 (in-place)
I0807 16:36:59.762163 59231 net.cpp:150] Setting up relu12
I0807 16:36:59.762183 59231 net.cpp:157] Top shape: 100 32 100 100 (32000000)
I0807 16:36:59.762192 59231 net.cpp:165] Memory required for data: 524001200
I0807 16:36:59.762202 59231 layer_factory.hpp:76] Creating layer pool1
I0807 16:36:59.762214 59231 net.cpp:106] Creating Layer pool1
I0807 16:36:59.762223 59231 net.cpp:454] pool1 <- conv12
I0807 16:36:59.762236 59231 net.cpp:411] pool1 -> pool1
I0807 16:36:59.762825 59231 net.cpp:150] Setting up pool1
I0807 16:36:59.762845 59231 net.cpp:157] Top shape: 100 32 50 50 (8000000)
I0807 16:36:59.762854 59231 net.cpp:165] Memory required for data: 556001200
I0807 16:36:59.762863 59231 layer_factory.hpp:76] Creating layer conv21
I0807 16:36:59.762879 59231 net.cpp:106] Creating Layer conv21
I0807 16:36:59.762889 59231 net.cpp:454] conv21 <- pool1
I0807 16:36:59.762902 59231 net.cpp:411] conv21 -> conv21
I0807 16:36:59.768095 59231 net.cpp:150] Setting up conv21
I0807 16:36:59.768131 59231 net.cpp:157] Top shape: 100 64 50 50 (16000000)
I0807 16:36:59.768142 59231 net.cpp:165] Memory required for data: 620001200
I0807 16:36:59.768159 59231 layer_factory.hpp:76] Creating layer relu21
I0807 16:36:59.768187 59231 net.cpp:106] Creating Layer relu21
I0807 16:36:59.768198 59231 net.cpp:454] relu21 <- conv21
I0807 16:36:59.768213 59231 net.cpp:397] relu21 -> conv21 (in-place)
I0807 16:36:59.768708 59231 net.cpp:150] Setting up relu21
I0807 16:36:59.768729 59231 net.cpp:157] Top shape: 100 64 50 50 (16000000)
I0807 16:36:59.768738 59231 net.cpp:165] Memory required for data: 684001200
I0807 16:36:59.768746 59231 layer_factory.hpp:76] Creating layer conv22
I0807 16:36:59.768764 59231 net.cpp:106] Creating Layer conv22
I0807 16:36:59.768774 59231 net.cpp:454] conv22 <- conv21
I0807 16:36:59.768786 59231 net.cpp:411] conv22 -> conv22
I0807 16:36:59.770213 59231 net.cpp:150] Setting up conv22
I0807 16:36:59.770238 59231 net.cpp:157] Top shape: 100 64 50 50 (16000000)
I0807 16:36:59.770247 59231 net.cpp:165] Memory required for data: 748001200
I0807 16:36:59.770261 59231 layer_factory.hpp:76] Creating layer relu22
I0807 16:36:59.770272 59231 net.cpp:106] Creating Layer relu22
I0807 16:36:59.770280 59231 net.cpp:454] relu22 <- conv22
I0807 16:36:59.770294 59231 net.cpp:397] relu22 -> conv22 (in-place)
I0807 16:36:59.770506 59231 net.cpp:150] Setting up relu22
I0807 16:36:59.770524 59231 net.cpp:157] Top shape: 100 64 50 50 (16000000)
I0807 16:36:59.770532 59231 net.cpp:165] Memory required for data: 812001200
I0807 16:36:59.770540 59231 layer_factory.hpp:76] Creating layer pool2
I0807 16:36:59.770568 59231 net.cpp:106] Creating Layer pool2
I0807 16:36:59.770576 59231 net.cpp:454] pool2 <- conv22
I0807 16:36:59.770587 59231 net.cpp:411] pool2 -> pool2
I0807 16:36:59.771091 59231 net.cpp:150] Setting up pool2
I0807 16:36:59.771111 59231 net.cpp:157] Top shape: 100 64 25 25 (4000000)
I0807 16:36:59.771121 59231 net.cpp:165] Memory required for data: 828001200
I0807 16:36:59.771128 59231 layer_factory.hpp:76] Creating layer conv31
I0807 16:36:59.771144 59231 net.cpp:106] Creating Layer conv31
I0807 16:36:59.771153 59231 net.cpp:454] conv31 <- pool2
I0807 16:36:59.771189 59231 net.cpp:411] conv31 -> conv31
I0807 16:36:59.772585 59231 cudnn_conv_layer.cpp:194] Reallocating workspace storage: 6912
I0807 16:36:59.772624 59231 net.cpp:150] Setting up conv31
I0807 16:36:59.772636 59231 net.cpp:157] Top shape: 100 96 25 25 (6000000)
I0807 16:36:59.772645 59231 net.cpp:165] Memory required for data: 852001200
I0807 16:36:59.772660 59231 layer_factory.hpp:76] Creating layer relu31
I0807 16:36:59.772673 59231 net.cpp:106] Creating Layer relu31
I0807 16:36:59.772682 59231 net.cpp:454] relu31 <- conv31
I0807 16:36:59.772693 59231 net.cpp:397] relu31 -> conv31 (in-place)
I0807 16:36:59.773155 59231 net.cpp:150] Setting up relu31
I0807 16:36:59.773175 59231 net.cpp:157] Top shape: 100 96 25 25 (6000000)
I0807 16:36:59.773183 59231 net.cpp:165] Memory required for data: 876001200
I0807 16:36:59.773191 59231 layer_factory.hpp:76] Creating layer conv32
I0807 16:36:59.773210 59231 net.cpp:106] Creating Layer conv32
I0807 16:36:59.773218 59231 net.cpp:454] conv32 <- conv31
I0807 16:36:59.773229 59231 net.cpp:411] conv32 -> conv32
I0807 16:36:59.775091 59231 cudnn_conv_layer.cpp:194] Reallocating workspace storage: 10368
I0807 16:36:59.775130 59231 net.cpp:150] Setting up conv32
I0807 16:36:59.775156 59231 net.cpp:157] Top shape: 100 96 25 25 (6000000)
I0807 16:36:59.775178 59231 net.cpp:165] Memory required for data: 900001200
I0807 16:36:59.775190 59231 layer_factory.hpp:76] Creating layer relu32
I0807 16:36:59.775203 59231 net.cpp:106] Creating Layer relu32
I0807 16:36:59.775213 59231 net.cpp:454] relu32 <- conv32
I0807 16:36:59.775224 59231 net.cpp:397] relu32 -> conv32 (in-place)
I0807 16:36:59.775477 59231 net.cpp:150] Setting up relu32
I0807 16:36:59.775506 59231 net.cpp:157] Top shape: 100 96 25 25 (6000000)
I0807 16:36:59.775513 59231 net.cpp:165] Memory required for data: 924001200
I0807 16:36:59.775524 59231 layer_factory.hpp:76] Creating layer pool3
I0807 16:36:59.775539 59231 net.cpp:106] Creating Layer pool3
I0807 16:36:59.775548 59231 net.cpp:454] pool3 <- conv32
I0807 16:36:59.775558 59231 net.cpp:411] pool3 -> pool3
I0807 16:36:59.776080 59231 net.cpp:150] Setting up pool3
I0807 16:36:59.776114 59231 net.cpp:157] Top shape: 100 96 13 13 (1622400)
I0807 16:36:59.776124 59231 net.cpp:165] Memory required for data: 930490800
I0807 16:36:59.776134 59231 layer_factory.hpp:76] Creating layer conv41
I0807 16:36:59.776146 59231 net.cpp:106] Creating Layer conv41
I0807 16:36:59.776156 59231 net.cpp:454] conv41 <- pool3
I0807 16:36:59.776170 59231 net.cpp:411] conv41 -> conv41
I0807 16:36:59.779140 59231 net.cpp:150] Setting up conv41
I0807 16:36:59.779173 59231 net.cpp:157] Top shape: 100 128 13 13 (2163200)
I0807 16:36:59.779183 59231 net.cpp:165] Memory required for data: 939143600
I0807 16:36:59.779196 59231 layer_factory.hpp:76] Creating layer relu41
I0807 16:36:59.779211 59231 net.cpp:106] Creating Layer relu41
I0807 16:36:59.779222 59231 net.cpp:454] relu41 <- conv41
I0807 16:36:59.779232 59231 net.cpp:397] relu41 -> conv41 (in-place)
I0807 16:36:59.779475 59231 net.cpp:150] Setting up relu41
I0807 16:36:59.779502 59231 net.cpp:157] Top shape: 100 128 13 13 (2163200)
I0807 16:36:59.779511 59231 net.cpp:165] Memory required for data: 947796400
I0807 16:36:59.779521 59231 layer_factory.hpp:76] Creating layer conv42
I0807 16:36:59.779536 59231 net.cpp:106] Creating Layer conv42
I0807 16:36:59.779546 59231 net.cpp:454] conv42 <- conv41
I0807 16:36:59.779559 59231 net.cpp:411] conv42 -> conv42
I0807 16:36:59.781886 59231 cudnn_conv_layer.cpp:194] Reallocating workspace storage: 13824
I0807 16:36:59.781935 59231 net.cpp:150] Setting up conv42
I0807 16:36:59.781949 59231 net.cpp:157] Top shape: 100 128 13 13 (2163200)
I0807 16:36:59.781957 59231 net.cpp:165] Memory required for data: 956449200
I0807 16:36:59.781970 59231 layer_factory.hpp:76] Creating layer relu42
I0807 16:36:59.781985 59231 net.cpp:106] Creating Layer relu42
I0807 16:36:59.781994 59231 net.cpp:454] relu42 <- conv42
I0807 16:36:59.782006 59231 net.cpp:397] relu42 -> conv42 (in-place)
I0807 16:36:59.782467 59231 net.cpp:150] Setting up relu42
I0807 16:36:59.782512 59231 net.cpp:157] Top shape: 100 128 13 13 (2163200)
I0807 16:36:59.782522 59231 net.cpp:165] Memory required for data: 965102000
I0807 16:36:59.782532 59231 layer_factory.hpp:76] Creating layer pool4
I0807 16:36:59.782547 59231 net.cpp:106] Creating Layer pool4
I0807 16:36:59.782557 59231 net.cpp:454] pool4 <- conv42
I0807 16:36:59.782569 59231 net.cpp:411] pool4 -> pool4
I0807 16:36:59.782838 59231 net.cpp:150] Setting up pool4
I0807 16:36:59.782868 59231 net.cpp:157] Top shape: 100 128 7 7 (627200)
I0807 16:36:59.782889 59231 net.cpp:165] Memory required for data: 967610800
I0807 16:36:59.782898 59231 layer_factory.hpp:76] Creating layer conv51
I0807 16:36:59.782914 59231 net.cpp:106] Creating Layer conv51
I0807 16:36:59.782924 59231 net.cpp:454] conv51 <- pool4
I0807 16:36:59.782938 59231 net.cpp:411] conv51 -> conv51
I0807 16:36:59.787055 59231 cudnn_conv_layer.cpp:194] Reallocating workspace storage: 13824
I0807 16:36:59.787102 59231 net.cpp:150] Setting up conv51
I0807 16:36:59.787117 59231 net.cpp:157] Top shape: 100 256 7 7 (1254400)
I0807 16:36:59.787124 59231 net.cpp:165] Memory required for data: 972628400
I0807 16:36:59.787142 59231 layer_factory.hpp:76] Creating layer relu51
I0807 16:36:59.787173 59231 net.cpp:106] Creating Layer relu51
I0807 16:36:59.787184 59231 net.cpp:454] relu51 <- conv51
I0807 16:36:59.787194 59231 net.cpp:397] relu51 -> conv51 (in-place)
I0807 16:36:59.787454 59231 net.cpp:150] Setting up relu51
I0807 16:36:59.787482 59231 net.cpp:157] Top shape: 100 256 7 7 (1254400)
I0807 16:36:59.787489 59231 net.cpp:165] Memory required for data: 977646000
I0807 16:36:59.787499 59231 layer_factory.hpp:76] Creating layer conv52
I0807 16:36:59.787514 59231 net.cpp:106] Creating Layer conv52
I0807 16:36:59.787523 59231 net.cpp:454] conv52 <- conv51
I0807 16:36:59.787533 59231 net.cpp:411] conv52 -> conv52
I0807 16:36:59.794502 59231 net.cpp:150] Setting up conv52
I0807 16:36:59.794536 59231 net.cpp:157] Top shape: 100 256 7 7 (1254400)
I0807 16:36:59.794546 59231 net.cpp:165] Memory required for data: 982663600
I0807 16:36:59.794559 59231 layer_factory.hpp:76] Creating layer relu52
I0807 16:36:59.794570 59231 net.cpp:106] Creating Layer relu52
I0807 16:36:59.794580 59231 net.cpp:454] relu52 <- conv52
I0807 16:36:59.794594 59231 net.cpp:397] relu52 -> conv52 (in-place)
I0807 16:36:59.795079 59231 net.cpp:150] Setting up relu52
I0807 16:36:59.795110 59231 net.cpp:157] Top shape: 100 256 7 7 (1254400)
I0807 16:36:59.795120 59231 net.cpp:165] Memory required for data: 987681200
I0807 16:36:59.795130 59231 layer_factory.hpp:76] Creating layer conv53
I0807 16:36:59.795147 59231 net.cpp:106] Creating Layer conv53
I0807 16:36:59.795157 59231 net.cpp:454] conv53 <- conv52
I0807 16:36:59.795171 59231 net.cpp:411] conv53 -> conv53
I0807 16:36:59.827790 59231 cudnn_conv_layer.cpp:194] Reallocating workspace storage: 150528
I0807 16:36:59.828178 59231 net.cpp:150] Setting up conv53
I0807 16:36:59.828212 59231 net.cpp:157] Top shape: 100 256 1 1 (25600)
I0807 16:36:59.828222 59231 net.cpp:165] Memory required for data: 987783600
I0807 16:36:59.828238 59231 layer_factory.hpp:76] Creating layer relu53
I0807 16:36:59.828258 59231 net.cpp:106] Creating Layer relu53
I0807 16:36:59.828269 59231 net.cpp:454] relu53 <- conv53
I0807 16:36:59.828281 59231 net.cpp:397] relu53 -> conv53 (in-place)
I0807 16:36:59.828517 59231 net.cpp:150] Setting up relu53
I0807 16:36:59.828546 59231 net.cpp:157] Top shape: 100 256 1 1 (25600)
I0807 16:36:59.828554 59231 net.cpp:165] Memory required for data: 987886000
I0807 16:36:59.828564 59231 layer_factory.hpp:76] Creating layer drop6
I0807 16:36:59.828578 59231 net.cpp:106] Creating Layer drop6
I0807 16:36:59.828588 59231 net.cpp:454] drop6 <- conv53
I0807 16:36:59.828598 59231 net.cpp:411] drop6 -> drop6
I0807 16:36:59.828668 59231 net.cpp:150] Setting up drop6
I0807 16:36:59.828683 59231 net.cpp:157] Top shape: 100 256 1 1 (25600)
I0807 16:36:59.828693 59231 net.cpp:165] Memory required for data: 987988400
I0807 16:36:59.828702 59231 layer_factory.hpp:76] Creating layer conv54
I0807 16:36:59.828768 59231 net.cpp:106] Creating Layer conv54
I0807 16:36:59.828780 59231 net.cpp:454] conv54 <- drop6
I0807 16:36:59.828794 59231 net.cpp:411] conv54 -> conv54
I0807 16:36:59.830101 59231 cudnn_conv_layer.cpp:194] Reallocating workspace storage: 3072
I0807 16:36:59.830148 59231 net.cpp:150] Setting up conv54
I0807 16:36:59.830160 59231 net.cpp:157] Top shape: 100 2 1 1 (200)
I0807 16:36:59.830169 59231 net.cpp:165] Memory required for data: 987989200
I0807 16:36:59.830183 59231 layer_factory.hpp:76] Creating layer conv54_conv54_0_split
I0807 16:36:59.830198 59231 net.cpp:106] Creating Layer conv54_conv54_0_split
I0807 16:36:59.830207 59231 net.cpp:454] conv54_conv54_0_split <- conv54
I0807 16:36:59.830219 59231 net.cpp:411] conv54_conv54_0_split -> conv54_conv54_0_split_0
I0807 16:36:59.830231 59231 net.cpp:411] conv54_conv54_0_split -> conv54_conv54_0_split_1
I0807 16:36:59.830296 59231 net.cpp:150] Setting up conv54_conv54_0_split
I0807 16:36:59.830332 59231 net.cpp:157] Top shape: 100 2 1 1 (200)
I0807 16:36:59.830341 59231 net.cpp:157] Top shape: 100 2 1 1 (200)
I0807 16:36:59.830361 59231 net.cpp:165] Memory required for data: 987990800
I0807 16:36:59.830370 59231 layer_factory.hpp:76] Creating layer accuracy
I0807 16:36:59.830381 59231 net.cpp:106] Creating Layer accuracy
I0807 16:36:59.830390 59231 net.cpp:454] accuracy <- conv54_conv54_0_split_0
I0807 16:36:59.830399 59231 net.cpp:454] accuracy <- label_data_1_split_0
I0807 16:36:59.830412 59231 net.cpp:411] accuracy -> accuracy
…
