…
I0714 00:34:40.092979 25208 net.cpp:322] The NetState phase (0) differed from the phase (1) specified by a rule in layer loss3/top-1
I0714 00:34:40.093840 25208 net.cpp:49] Initializing net from parameters: 
name: "GoogleNet"
state {
  phase: TRAIN
}
layer {
  name: "data"
  type: "ImageData"
  top: "data"
  top: "label"
  include {
    phase: TRAIN
  }
  transform_param {
    mirror: true
    crop_size: 224
    mean_value: 185
    mean_value: 150
    mean_value: 186
  }
  image_data_param {
    source: "../../list_stage1_tr.lst"
    batch_size: 32
    shuffle: true
    new_height: 256
    new_width: 256
    root_folder: "../../training_examples/"
  }
}
layer {
  name: "conv1/7x7_s2"
  type: "Convolution"
  bottom: "data"
  top: "conv1/7x7_s2"
  param {
    lr_mult: 1
    decay_mult: 1
  }
  param {
    lr_mult: 2
    decay_mult: 0
  }
  convolution_param {
    num_output: 64
    pad: 3
    kernel_size: 7
    stride: 2
    weight_filler {
      type: "xavier"
    }
    bias_filler {
      type: "constant"
      value: 0.2
    }
  }
}
layer {
  name: "conv1/relu_7x7"
  type: "ReLU"
  bottom: "conv1/7x7_s2"
  top: "conv1/7x7_s2"
}
layer {
  name: "pool1/3x3_s2"
  type: "Pooling"
  bottom: "conv1/7x7_s2"
  top: "pool1/3x3_s2"
  pooling_param {
    pool: MAX
    kernel_size: 3
    stride: 2
  }
}
layer {
  name: "pool1/norm1"
  type: "LRN"
  bottom: "pool1/3x3_s2"
  top: "pool1/norm1"
  lrn_param {
    local_size: 5
    alpha: 0.0001
    beta: 0.75
  }
}
layer {
  name: "conv2/3x3_reduce"
  type: "Convolution"
  bottom: "pool1/norm1"
  top: "conv2/3x3_reduce"
  param {
    lr_mult: 1
    decay_mult: 1
  }
  param {
    lr_mult: 2
    decay_mult: 0
  }
  convolution_param {
    num_output: 64
    kernel_size: 1
    weight_filler {
      type: "xavier"
    }
    bias_filler {
      type: "constant"
      value: 0.2
    }
  }
}
layer {
  name: "conv2/relu_3x3_reduce"
  type: "ReLU"
  bottom: "conv2/3x3_reduce"
  top: "conv2/3x3_reduce"
}
layer {
  name: "conv2/3x3"
  type: "Convolution"
  bottom: "conv2/3x3_reduce"
  top: "conv2/3x3"
  param {
    lr_mult: 1
    decay_mult: 1
  }
  param {
    lr_mult: 2
    decay_mult: 0
  }
  convolution_param {
    num_output: 192
    pad: 1
    kernel_size: 3
    weight_filler {
      type: "xavier"
    }
    bias_filler {
      type: "constant"
      value: 0.2
    }
  }
}
layer {
  name: "conv2/relu_3x3"
  type: "ReLU"
  bottom: "conv2/3x3"
  top: "conv2/3x3"
}
layer {
  name: "conv2/norm2"
  type: "LRN"
  bottom: "conv2/3x3"
  top: "conv2/norm2"
  lrn_param {
    local_size: 5
    alpha: 0.0001
    beta: 0.75
  }
}
layer {
  name: "pool2/3x3_s2"
  type: "Pooling"
  bottom: "conv2/norm2"
  top: "pool2/3x3_s2"
  pooling_param {
    pool: MAX
    kernel_size: 3
    stride: 2
  }
}
layer {
  name: "inception_3a/1x1"
  type: "Convolution"
  bottom: "pool2/3x3_s2"
  top: "inception_3a/1x1"
  param {
    lr_mult: 1
    decay_mult: 1
  }
  param {
    lr_mult: 2
    decay_mult: 0
  }
  convolution_param {
    num_output: 64
    kernel_size: 1
    weight_filler {
      type: "xavier"
    }
    bias_filler {
      type: "constant"
      value: 0.2
    }
  }
}
layer {
  name: "inception_3a/relu_1x1"
  type: "ReLU"
  bottom: "inception_3a/1x1"
  top: "inception_3a/1x1"
}
layer {
  name: "inception_3a/3x3_reduce"
  type: "Convolution"
  bottom: "pool2/3x3_s2"
  top: "inception_3a/3x3_reduce"
  param {
    lr_mult: 1
    decay_mult: 1
  }
  param {
    lr_mult: 2
    decay_mult: 0
  }
  convolution_param {
    num_output: 96
    kernel_size: 1
    weight_filler {
      type: "xavier"
    }
    bias_filler {
      type: "constant"
      value: 0.2
    }
  }
}
layer {
  name: "inception_3a/relu_3x3_reduce"
  type: "ReLU"
  bottom: "inception_3a/3x3_reduce"
  top: "inception_3a/3x3_reduce"
}
layer {
  name: "inception_3a/3x3"
  type: "Convolution"
  bottom: "inception_3a/3x3_reduce"
  top: "inception_3a/3x3"
  param {
    lr_mult: 1
    decay_mult: 1
  }
  param {
    lr_mult: 2
    decay_mult: 0
  }
  convolution_param {
    num_output: 128
    pad: 1
    kernel_size: 3
    weight_filler {
      type: "xavier"
    }
    bias_filler {
      type: "constant"
      value: 0.2
    }
  }
}
layer {
  name: "inception_3a/relu_3x3"
  type: "ReLU"
  bottom: "inception_3a/3x3"
  top: "inception_3a/3x3"
}
layer {
  name: "inception_3a/5x5_reduce"
  type: "Convolution"
  bottom: "pool2/3x3_s2"
  top: "inception_3a/5x5_reduce"
  param {
    lr_mult: 1
    decay_mult: 1
  }
  param {
    lr_mult: 2
    decay_mult: 0
  }
  convolution_param {
    num_output: 16
    kernel_size: 1
    weight_filler {
      type: "xavier"
    }
    bias_filler {
      type: "constant"
      value: 0.2
    }
  }
}
layer {
  name: "inception_3a/relu_5x5_reduce"
  type: "ReLU"
  bottom: "inception_3a/5x5_reduce"
  top: "inception_3a/5x5_reduce"
}
layer {
  name: "inception_3a/5x5"
  type: "Convolution"
  bottom: "inception_3a/5x5_reduce"
  top: "inception_3a/5x5"
  param {
    lr_mult: 1
    decay_mult: 1
  }
  param {
    lr_mult: 2
    decay_mult: 0
  }
  convolution_param {
    num_output: 32
    pad: 2
    kernel_size: 5
    weight_filler {
      type: "xavier"
    }
    bias_filler {
      type: "constant"
      value: 0.2
    }
  }
}
layer {
  name: "inception_3a/relu_5x5"
  type: "ReLU"
  bottom: "inception_3a/5x5"
  top: "inception_3a/5x5"
}
layer {
  name: "inception_3a/pool"
  type: "Pooling"
  bottom: "pool2/3x3_s2"
  top: "inception_3a/pool"
  pooling_param {
    pool: MAX
    kernel_size: 3
    stride: 1
    pad: 1
  }
}
layer {
  name: "inception_3a/pool_proj"
  type: "Convolution"
  bottom: "inception_3a/pool"
  top: "inception_3a/pool_proj"
  param {
    lr_mult: 1
    decay_mult: 1
  }
  param {
    lr_mult: 2
    decay_mult: 0
  }
  convolution_param {
    num_output: 32
    kernel_size: 1
    weight_filler {
      type: "xavier"
    }
    bias_filler {
      type: "constant"
      value: 0.2
    }
  }
}
layer {
  name: "inception_3a/relu_pool_proj"
  type: "ReLU"
  bottom: "inception_3a/pool_proj"
  top: "inception_3a/pool_proj"
}
layer {
  name: "inception_3a/output"
  type: "Concat"
  bottom: "inception_3a/1x1"
  bottom: "inception_3a/3x3"
  bottom: "inception_3a/5x5"
  bottom: "inception_3a/pool_proj"
  top: "inception_3a/output"
}
layer {
  name: "inception_3b/1x1"
  type: "Convolution"
  bottom: "inception_3a/output"
  top: "inception_3b/1x1"
  param {
    lr_mult: 1
    decay_mult: 1
  }
  param {
    lr_mult: 2
    decay_mult: 0
  }
  convolution_param {
    num_output: 128
    kernel_size: 1
    weight_filler {
      type: "xavier"
    }
    bias_filler {
      type: "constant"
      value: 0.2
    }
  }
}
layer {
  name: "inception_3b/relu_1x1"
  type: "ReLU"
  bottom: "inception_3b/1x1"
  top: "inception_3b/1x1"
}
layer {
  name: "inception_3b/3x3_reduce"
  type: "Convolution"
  bottom: "inception_3a/output"
  top: "inception_3b/3x3_reduce"
  param {
    lr_mult: 1
    decay_mult: 1
  }
  param {
    lr_mult: 2
    decay_mult: 0
  }
  convolution_param {
    num_output: 128
    kernel_size: 1
    weight_filler {
      type: "xavier"
    }
    bias_filler {
      type: "constant"
      value: 0.2
    }
  }
}
layer {
  name: "inception_3b/relu_3x3_reduce"
  type: "ReLU"
  bottom: "inception_3b/3x3_reduce"
  top: "inception_3b/3x3_reduce"
}
layer {
  name: "inception_3b/3x3"
  type: "Convolution"
  bottom: "inception_3b/3x3_reduce"
  top: "inception_3b/3x3"
  param {
    lr_mult: 1
    decay_mult: 1
  }
  param {
    lr_mult: 2
    decay_mult: 0
  }
  convolution_param {
    num_output: 192
    pad: 1
    kernel_size: 3
    weight_filler {
      type: "xavier"
    }
    bias_filler {
      type: "constant"
      value: 0.2
    }
  }
}
layer {
  name: "inception_3b/relu_3x3"
  type: "ReLU"
  bottom: "inception_3b/3x3"
  top: "inception_3b/3x3"
}
layer {
  name: "inception_3b/5x5_reduce"
  type: "Convolution"
  bottom: "inception_3a/output"
  top: "inception_3b/5x5_reduce"
  param {
    lr_mult: 1
    decay_mult: 1
  }
  param {
    lr_mult: 2
    decay_mult: 0
  }
  convolution_param {
    num_output: 32
    kernel_size: 1
    weight_filler {
      type: "xavier"
    }
    bias_filler {
      type: "constant"
      value: 0.2
    }
  }
}
layer {
  name: "inception_3b/relu_5x5_reduce"
  type: "ReLU"
  bottom: "inception_3b/5x5_reduce"
  top: "inception_3b/5x5_reduce"
}
layer {
  name: "inception_3b/5x5"
  type: "Convolution"
  bottom: "inception_3b/5x5_reduce"
  top: "inception_3b/5x5"
  param {
    lr_mult: 1
    decay_mult: 1
  }
  param {
    lr_mult: 2
    decay_mult: 0
  }
  convolution_param {
    num_output: 96
    pad: 2
    kernel_size: 5
    weight_filler {
      type: "xavier"
    }
    bias_filler {
      type: "constant"
      value: 0.2
    }
  }
}
layer {
  name: "inception_3b/relu_5x5"
  type: "ReLU"
  bottom: "inception_3b/5x5"
  top: "inception_3b/5x5"
}
layer {
  name: "inception_3b/pool"
  type: "Pooling"
  bottom: "inception_3a/output"
  top: "inception_3b/pool"
  pooling_param {
    pool: MAX
    kernel_size: 3
    stride: 1
    pad: 1
  }
}
layer {
  name: "inception_3b/pool_proj"
  type: "Convolution"
  bottom: "inception_3b/pool"
  top: "inception_3b/pool_proj"
  param {
    lr_mult: 1
    decay_mult: 1
  }
  param {
    lr_mult: 2
    decay_mult: 0
  }
  convolution_param {
    num_output: 64
    kernel_size: 1
    weight_filler {
      type: "xavier"
    }
    bias_filler {
      type: "constant"
      value: 0.2
    }
  }
}
layer {
  name: "inception_3b/relu_pool_proj"
  type: "ReLU"
  bottom: "inception_3b/pool_proj"
  top: "inception_3b/pool_proj"
}
layer {
  name: "inception_3b/output"
  type: "Concat"
  bottom: "inception_3b/1x1"
  bottom: "inception_3b/3x3"
  bottom: "inception_3b/5x5"
  bottom: "inception_3b/pool_proj"
  top: "inception_3b/output"
}
layer {
  name: "pool3/3x3_s2"
  type: "Pooling"
  bottom: "inception_3b/output"
  top: "pool3/3x3_s2"
  pooling_param {
    pool: MAX
    kernel_size: 3
    stride: 2
  }
}
layer {
  name: "inception_4a/1x1"
  type: "Convolution"
  bottom: "pool3/3x3_s2"
  top: "inception_4a/1x1"
  param {
    lr_mult: 1
    decay_mult: 1
  }
  param {
    lr_mult: 2
    decay_mult: 0
  }
  convolution_param {
    num_output: 192
    kernel_size: 1
    weight_filler {
      type: "xavier"
    }
    bias_filler {
      type: "constant"
      value: 0.2
    }
  }
}
layer {
  name: "inception_4a/relu_1x1"
  type: "ReLU"
  bottom: "inception_4a/1x1"
  top: "inception_4a/1x1"
}
layer {
  name: "inception_4a/3x3_reduce"
  type: "Convolution"
  bottom: "pool3/3x3_s2"
  top: "inception_4a/3x3_reduce"
  param {
    lr_mult: 1
    decay_mult: 1
  }
  param {
    lr_mult: 2
    decay_mult: 0
  }
  convolution_param {
    num_output: 96
    kernel_size: 1
    weight_filler {
      type: "xavier"
    }
    bias_filler {
      type: "constant"
      value: 0.2
    }
  }
}
layer {
  name: "inception_4a/relu_3x3_reduce"
  type: "ReLU"
  bottom: "inception_4a/3x3_reduce"
  top: "inception_4a/3x3_reduce"
}
layer {
  name: "inception_4a/3x3"
  type: "Convolution"
  bottom: "inception_4a/3x3_reduce"
  top: "inception_4a/3x3"
  param {
    lr_mult: 1
    decay_mult: 1
  }
  param {
    lr_mult: 2
    decay_mult: 0
  }
  convolution_param {
    num_output: 208
    pad: 1
    kernel_size: 3
    weight_filler {
      type: "xavier"
    }
    bias_filler {
      type: "constant"
      value: 0.2
    }
  }
}
layer {
  name: "inception_4a/relu_3x3"
  type: "ReLU"
  bottom: "inception_4a/3x3"
  top: "inception_4a/3x3"
}
layer {
  name: "inception_4a/5x5_reduce"
  type: "Convolution"
  bottom: "pool3/3x3_s2"
  top: "inception_4a/5x5_reduce"
  param {
    lr_mult: 1
    decay_mult: 1
  }
  param {
    lr_mult: 2
    decay_mult: 0
  }
  convolution_param {
    num_output: 16
    kernel_size: 1
    weight_filler {
      type: "xavier"
    }
    bias_filler {
      type: "constant"
      value: 0.2
    }
  }
}
layer {
  name: "inception_4a/relu_5x5_reduce"
  type: "ReLU"
  bottom: "inception_4a/5x5_reduce"
  top: "inception_4a/5x5_reduce"
}
layer {
  name: "inception_4a/5x5"
  type: "Convolution"
  bottom: "inception_4a/5x5_reduce"
  top: "inception_4a/5x5"
  param {
    lr_mult: 1
    decay_mult: 1
  }
  param {
    lr_mult: 2
    decay_mult: 0
  }
  convolution_param {
    num_output: 48
    pad: 2
    kernel_size: 5
    weight_filler {
      type: "xavier"
    }
    bias_filler {
      type: "constant"
      value: 0.2
    }
  }
}
layer {
  name: "inception_4a/relu_5x5"
  type: "ReLU"
  bottom: "inception_4a/5x5"
  top: "inception_4a/5x5"
}
layer {
  name: "inception_4a/pool"
  type: "Pooling"
  bottom: "pool3/3x3_s2"
  top: "inception_4a/pool"
  pooling_param {
    pool: MAX
    kernel_size: 3
    stride: 1
    pad: 1
  }
}
layer {
  name: "inception_4a/pool_proj"
  type: "Convolution"
  bottom: "inception_4a/pool"
  top: "inception_4a/pool_proj"
  param {
    lr_mult: 1
    decay_mult: 1
  }
  param {
    lr_mult: 2
    decay_mult: 0
  }
  convolution_param {
    num_output: 64
    kernel_size: 1
    weight_filler {
      type: "xavier"
    }
    bias_filler {
      type: "constant"
      value: 0.2
    }
  }
}
layer {
  name: "inception_4a/relu_pool_proj"
  type: "ReLU"
  bottom: "inception_4a/pool_proj"
  top: "inception_4a/pool_proj"
}
layer {
  name: "inception_4a/output"
  type: "Concat"
  bottom: "inception_4a/1x1"
  bottom: "inception_4a/3x3"
  bottom: "inception_4a/5x5"
  bottom: "inception_4a/pool_proj"
  top: "inception_4a/output"
}
layer {
  name: "loss1/ave_pool"
  type: "Pooling"
  bottom: "inception_4a/output"
  top: "loss1/ave_pool"
  pooling_param {
    pool: AVE
    kernel_size: 5
    stride: 3
  }
}
layer {
  name: "loss1/conv"
  type: "Convolution"
  bottom: "loss1/ave_pool"
  top: "loss1/conv"
  param {
    lr_mult: 1
    decay_mult: 1
  }
  param {
    lr_mult: 2
    decay_mult: 0
  }
  convolution_param {
    num_output: 128
    kernel_size: 1
    weight_filler {
      type: "xavier"
    }
    bias_filler {
      type: "constant"
      value: 0.2
    }
  }
}
layer {
  name: "loss1/relu_conv"
  type: "ReLU"
  bottom: "loss1/conv"
  top: "loss1/conv"
}
layer {
  name: "loss1/fc"
  type: "InnerProduct"
  bottom: "loss1/conv"
  top: "loss1/fc"
  param {
    lr_mult: 1
    decay_mult: 1
  }
  param {
    lr_mult: 2
    decay_mult: 0
  }
  inner_product_param {
    num_output: 1024
    weight_filler {
      type: "xavier"
    }
    bias_filler {
      type: "constant"
      value: 0.2
    }
  }
}
layer {
  name: "loss1/relu_fc"
  type: "ReLU"
  bottom: "loss1/fc"
  top: "loss1/fc"
}
layer {
  name: "loss1/drop_fc"
  type: "Dropout"
  bottom: "loss1/fc"
  top: "loss1/fc"
  dropout_param {
    dropout_ratio: 0.7
  }
}
layer {
  name: "loss1/classifier"
  type: "InnerProduct"
  bottom: "loss1/fc"
  top: "loss1/classifier"
  param {
    lr_mult: 1
    decay_mult: 1
  }
  param {
    lr_mult: 2
    decay_mult: 0
  }
  inner_product_param {
    num_output: 2
    weight_filler {
      type: "xavier"
    }
    bias_filler {
      type: "constant"
      value: 0
    }
  }
}
layer {
  name: "loss1/loss"
  type: "SoftmaxWithLoss"
  bottom: "loss1/classifier"
  bottom: "label"
  top: "loss1/loss1"
  loss_weight: 0.3
}
layer {
  name: "inception_4b/1x1"
  type: "Convolution"
  bottom: "inception_4a/output"
  top: "inception_4b/1x1"
  param {
    lr_mult: 1
    decay_mult: 1
  }
  param {
    lr_mult: 2
    decay_mult: 0
  }
  convolution_param {
    num_output: 160
    kernel_size: 1
    weight_filler {
      type: "xavier"
    }
    bias_filler {
      type: "constant"
      value: 0.2
    }
  }
}
layer {
  name: "inception_4b/relu_1x1"
  type: "ReLU"
  bottom: "inception_4b/1x1"
  top: "inception_4b/1x1"
}
layer {
  name: "inception_4b/3x3_reduce"
  type: "Convolution"
  bottom: "inception_4a/output"
  top: "inception_4b/3x3_reduce"
  param {
    lr_mult: 1
    decay_mult: 1
  }
  param {
    lr_mult: 2
    decay_mult: 0
  }
  convolution_param {
    num_output: 112
    kernel_size: 1
    weight_filler {
      type: "xavier"
    }
    bias_filler {
      type: "constant"
      value: 0.2
    }
  }
}
layer {
  name: "inception_4b/relu_3x3_reduce"
  type: "ReLU"
  bottom: "inception_4b/3x3_reduce"
  top: "inception_4b/3x3_reduce"
}
layer {
  name: "inception_4b/3x3"
  type: "Convolution"
  bottom: "inception_4b/3x3_reduce"
  top: "inception_4b/3x3"
  param {
    lr_mult: 1
    decay_mult: 1
  }
  param {
    lr_mult: 2
    decay_mult: 0
  }
  convolution_param {
    num_output: 224
    pad: 1
    kernel_size: 3
    weight_filler {
      type: "xavier"
    }
    bias_filler {
      type: "constant"
      value: 0.2
    }
  }
}
layer {
  name: "inception_4b/relu_3x3"
  type: "ReLU"
  bottom: "inception_4b/3x3"
  top: "inception_4b/3x3"
}
layer {
  name: "inception_4b/5x5_reduce"
  type: "Convolution"
  bottom: "inception_4a/output"
  top: "inception_4b/5x5_reduce"
  param {
    lr_mult: 1
    decay_mult: 1
  }
  param {
    lr_mult: 2
    decay_mult: 0
  }
  convolution_param {
    num_output: 24
    kernel_size: 1
    weight_filler {
      type: "xavier"
    }
    bias_filler {
      type: "constant"
      value: 0.2
    }
  }
}
layer {
  name: "inception_4b/relu_5x5_reduce"
  type: "ReLU"
  bottom: "inception_4b/5x5_reduce"
  top: "inception_4b/5x5_reduce"
}
layer {
  name: "inception_4b/5x5"
  type: "Convolution"
  bottom: "inception_4b/5x5_reduce"
  top: "inception_4b/5x5"
  param {
    lr_mult: 1
    decay_mult: 1
  }
  param {
    lr_mult: 2
    decay_mult: 0
  }
  convolution_param {
    num_output: 64
    pad: 2
    kernel_size: 5
    weight_filler {
      type: "xavier"
    }
    bias_filler {
      type: "constant"
      value: 0.2
    }
  }
}
layer {
  name: "inception_4b/relu_5x5"
  type: "ReLU"
  bottom: "inception_4b/5x5"
  top: "inception_4b/5x5"
}
layer {
  name: "inception_4b/pool"
  type: "Pooling"
  bottom: "inception_4a/output"
  top: "inception_4b/pool"
  pooling_param {
    pool: MAX
    kernel_size: 3
    stride: 1
    pad: 1
  }
}
layer {
  name: "inception_4b/pool_proj"
  type: "Convolution"
  bottom: "inception_4b/pool"
  top: "inception_4b/pool_proj"
  param {
    lr_mult: 1
    decay_mult: 1
  }
  param {
    lr_mult: 2
    decay_mult: 0
  }
  convolution_param {
    num_output: 64
    kernel_size: 1
    weight_filler {
      type: "xavier"
    }
    bias_filler {
      type: "constant"
      value: 0.2
    }
  }
}
layer {
  name: "inception_4b/relu_pool_proj"
  type: "ReLU"
  bottom: "inception_4b/pool_proj"
  top: "inception_4b/pool_proj"
}
layer {
  name: "inception_4b/output"
  type: "Concat"
  bottom: "inception_4b/1x1"
  bottom: "inception_4b/3x3"
  bottom: "inception_4b/5x5"
  bottom: "inception_4b/pool_proj"
  top: "inception_4b/output"
}
layer {
  name: "inception_4c/1x1"
  type: "Convolution"
  bottom: "inception_4b/output"
  top: "inception_4c/1x1"
  param {
    lr_mult: 1
    decay_mult: 1
  }
  param {
    lr_mult: 2
    decay_mult: 0
  }
  convolution_param {
    num_output: 128
    kernel_size: 1
    weight_filler {
      type: "xavier"
    }
    bias_filler {
      type: "constant"
      value: 0.2
    }
  }
}
layer {
  name: "inception_4c/relu_1x1"
  type: "ReLU"
  bottom: "inception_4c/1x1"
  top: "inception_4c/1x1"
}
layer {
  name: "inception_4c/3x3_reduce"
  type: "Convolution"
  bottom: "inception_4b/output"
  top: "inception_4c/3x3_reduce"
  param {
    lr_mult: 1
    decay_mult: 1
  }
  param {
    lr_mult: 2
    decay_mult: 0
  }
  convolution_param {
    num_output: 128
    kernel_size: 1
    weight_filler {
      type: "xavier"
    }
    bias_filler {
      type: "constant"
      value: 0.2
    }
  }
}
layer {
  name: "inception_4c/relu_3x3_reduce"
  type: "ReLU"
  bottom: "inception_4c/3x3_reduce"
  top: "inception_4c/3x3_reduce"
}
layer {
  name: "inception_4c/3x3"
  type: "Convolution"
  bottom: "inception_4c/3x3_reduce"
  top: "inception_4c/3x3"
  param {
    lr_mult: 1
    decay_mult: 1
  }
  param {
    lr_mult: 2
    decay_mult: 0
  }
  convolution_param {
    num_output: 256
    pad: 1
    kernel_size: 3
    weight_filler {
      type: "xavier"
    }
    bias_filler {
      type: "constant"
      value: 0.2
    }
  }
}
layer {
  name: "inception_4c/relu_3x3"
  type: "ReLU"
  bottom: "inception_4c/3x3"
  top: "inception_4c/3x3"
}
layer {
  name: "inception_4c/5x5_reduce"
  type: "Convolution"
  bottom: "inception_4b/output"
  top: "inception_4c/5x5_reduce"
  param {
    lr_mult: 1
    decay_mult: 1
  }
  param {
    lr_mult: 2
    decay_mult: 0
  }
  convolution_param {
    num_output: 24
    kernel_size: 1
    weight_filler {
      type: "xavier"
    }
    bias_filler {
      type: "constant"
      value: 0.2
    }
  }
}
layer {
  name: "inception_4c/relu_5x5_reduce"
  type: "ReLU"
  bottom: "inception_4c/5x5_reduce"
  top: "inception_4c/5x5_reduce"
}
layer {
  name: "inception_4c/5x5"
  type: "Convolution"
  bottom: "inception_4c/5x5_reduce"
  top: "inception_4c/5x5"
  param {
    lr_mult: 1
    decay_mult: 1
  }
  param {
    lr_mult: 2
    decay_mult: 0
  }
  convolution_param {
    num_output: 64
    pad: 2
    kernel_size: 5
    weight_filler {
      type: "xavier"
    }
    bias_filler {
      type: "constant"
      value: 0.2
    }
  }
}
layer {
  name: "inception_4c/relu_5x5"
  type: "ReLU"
  bottom: "inception_4c/5x5"
  top: "inception_4c/5x5"
}
layer {
  name: "inception_4c/pool"
  type: "Pooling"
  bottom: "inception_4b/output"
  top: "inception_4c/pool"
  pooling_param {
    pool: MAX
    kernel_size: 3
    stride: 1
    pad: 1
  }
}
layer {
  name: "inception_4c/pool_proj"
  type: "Convolution"
  bottom: "inception_4c/pool"
  top: "inception_4c/pool_proj"
  param {
    lr_mult: 1
    decay_mult: 1
  }
  param {
    lr_mult: 2
    decay_mult: 0
  }
  convolution_param {
    num_output: 64
    kernel_size: 1
    weight_filler {
      type: "xavier"
    }
    bias_filler {
      type: "constant"
      value: 0.2
    }
  }
}
layer {
  name: "inception_4c/relu_pool_proj"
  type: "ReLU"
  bottom: "inception_4c/pool_proj"
  top: "inception_4c/pool_proj"
}
layer {
  name: "inception_4c/output"
  type: "Concat"
  bottom: "inception_4c/1x1"
  bottom: "inception_4c/3x3"
  bottom: "inception_4c/5x5"
  bottom: "inception_4c/pool_proj"
  top: "inception_4c/output"
}
layer {
  name: "inception_4d/1x1"
  type: "Convolution"
  bottom: "inception_4c/output"
  top: "inception_4d/1x1"
  param {
    lr_mult: 1
    decay_mult: 1
  }
  param {
    lr_mult: 2
    decay_mult: 0
  }
  convolution_param {
    num_output: 112
    kernel_size: 1
    weight_filler {
      type: "xavier"
    }
    bias_filler {
      type: "constant"
      value: 0.2
    }
  }
}
layer {
  name: "inception_4d/relu_1x1"
  type: "ReLU"
  bottom: "inception_4d/1x1"
  top: "inception_4d/1x1"
}
layer {
  name: "inception_4d/3x3_reduce"
  type: "Convolution"
  bottom: "inception_4c/output"
  top: "inception_4d/3x3_reduce"
  param {
    lr_mult: 1
    decay_mult: 1
  }
  param {
    lr_mult: 2
    decay_mult: 0
  }
  convolution_param {
    num_output: 144
    kernel_size: 1
    weight_filler {
      type: "xavier"
    }
    bias_filler {
      type: "constant"
      value: 0.2
    }
  }
}
layer {
  name: "inception_4d/relu_3x3_reduce"
  type: "ReLU"
  bottom: "inception_4d/3x3_reduce"
  top: "inception_4d/3x3_reduce"
}
layer {
  name: "inception_4d/3x3"
  type: "Convolution"
  bottom: "inception_4d/3x3_reduce"
  top: "inception_4d/3x3"
  param {
    lr_mult: 1
    decay_mult: 1
  }
  param {
    lr_mult: 2
    decay_mult: 0
  }
  convolution_param {
    num_output: 288
    pad: 1
    kernel_size: 3
    weight_filler {
      type: "xavier"
    }
    bias_filler {
      type: "constant"
      value: 0.2
    }
  }
}
layer {
  name: "inception_4d/relu_3x3"
  type: "ReLU"
  bottom: "inception_4d/3x3"
  top: "inception_4d/3x3"
}
layer {
  name: "inception_4d/5x5_reduce"
  type: "Convolution"
  bottom: "inception_4c/output"
  top: "inception_4d/5x5_reduce"
  param {
    lr_mult: 1
    decay_mult: 1
  }
  param {
    lr_mult: 2
    decay_mult: 0
  }
  convolution_param {
    num_output: 32
    kernel_size: 1
    weight_filler {
      type: "xavier"
    }
    bias_filler {
      type: "constant"
      value: 0.2
    }
  }
}
layer {
  name: "inception_4d/relu_5x5_reduce"
  type: "ReLU"
  bottom: "inception_4d/5x5_reduce"
  top: "inception_4d/5x5_reduce"
}
layer {
  name: "inception_4d/5x5"
  type: "Convolution"
  bottom: "inception_4d/5x5_reduce"
  top: "inception_4d/5x5"
  param {
    lr_mult: 1
    decay_mult: 1
  }
  param {
    lr_mult: 2
    decay_mult: 0
  }
  convolution_param {
    num_output: 64
    pad: 2
    kernel_size: 5
    weight_filler {
      type: "xavier"
    }
    bias_filler {
      type: "constant"
      value: 0.2
    }
  }
}
layer {
  name: "inception_4d/relu_5x5"
  type: "ReLU"
  bottom: "inception_4d/5x5"
  top: "inception_4d/5x5"
}
layer {
  name: "inception_4d/pool"
  type: "Pooling"
  bottom: "inception_4c/output"
  top: "inception_4d/pool"
  pooling_param {
    pool: MAX
    kernel_size: 3
    stride: 1
    pad: 1
  }
}
layer {
  name: "inception_4d/pool_proj"
  type: "Convolution"
  bottom: "inception_4d/pool"
  top: "inception_4d/pool_proj"
  param {
    lr_mult: 1
    decay_mult: 1
  }
  param {
    lr_mult: 2
    decay_mult: 0
  }
  convolution_param {
    num_output: 64
    kernel_size: 1
    weight_filler {
      type: "xavier"
    }
    bias_filler {
      type: "constant"
      value: 0.2
    }
  }
}
layer {
  name: "inception_4d/relu_pool_proj"
  type: "ReLU"
  bottom: "inception_4d/pool_proj"
  top: "inception_4d/pool_proj"
}
layer {
  name: "inception_4d/output"
  type: "Concat"
  bottom: "inception_4d/1x1"
  bottom: "inception_4d/3x3"
  bottom: "inception_4d/5x5"
  bottom: "inception_4d/pool_proj"
  top: "inception_4d/output"
}
layer {
  name: "loss2/ave_pool"
  type: "Pooling"
  bottom: "inception_4d/output"
  top: "loss2/ave_pool"
  pooling_param {
    pool: AVE
    kernel_size: 5
    stride: 3
  }
}
layer {
  name: "loss2/conv"
  type: "Convolution"
  bottom: "loss2/ave_pool"
  top: "loss2/conv"
  param {
    lr_mult: 1
    decay_mult: 1
  }
  param {
    lr_mult: 2
    decay_mult: 0
  }
  convolution_param {
    num_output: 128
    kernel_size: 1
    weight_filler {
      type: "xavier"
    }
    bias_filler {
      type: "constant"
      value: 0.2
    }
  }
}
layer {
  name: "loss2/relu_conv"
  type: "ReLU"
  bottom: "loss2/conv"
  top: "loss2/conv"
}
layer {
  name: "loss2/fc"
  type: "InnerProduct"
  bottom: "loss2/conv"
  top: "loss2/fc"
  param {
    lr_mult: 1
    decay_mult: 1
  }
  param {
    lr_mult: 2
    decay_mult: 0
  }
  inner_product_param {
    num_output: 1024
    weight_filler {
      type: "xavier"
    }
    bias_filler {
      type: "constant"
      value: 0.2
    }
  }
}
layer {
  name: "loss2/relu_fc"
  type: "ReLU"
  bottom: "loss2/fc"
  top: "loss2/fc"
}
layer {
  name: "loss2/drop_fc"
  type: "Dropout"
  bottom: "loss2/fc"
  top: "loss2/fc"
  dropout_param {
    dropout_ratio: 0.7
  }
}
layer {
  name: "loss2/classifier"
  type: "InnerProduct"
  bottom: "loss2/fc"
  top: "loss2/classifier"
  param {
    lr_mult: 1
    decay_mult: 1
  }
  param {
    lr_mult: 2
    decay_mult: 0
  }
  inner_product_param {
    num_output: 2
    weight_filler {
      type: "xavier"
    }
    bias_filler {
      type: "constant"
      value: 0
    }
  }
}
layer {
  name: "loss2/loss"
  type: "SoftmaxWithLoss"
  bottom: "loss2/classifier"
  bottom: "label"
  top: "loss2/loss1"
  loss_weight: 0.3
}
layer {
  name: "inception_4e/1x1"
  type: "Convolution"
  bottom: "inception_4d/output"
  top: "inception_4e/1x1"
  param {
    lr_mult: 1
    decay_mult: 1
  }
  param {
    lr_mult: 2
    decay_mult: 0
  }
  convolution_param {
    num_output: 256
    kernel_size: 1
    weight_filler {
      type: "xavier"
    }
    bias_filler {
      type: "constant"
      value: 0.2
    }
  }
}
layer {
  name: "inception_4e/relu_1x1"
  type: "ReLU"
  bottom: "inception_4e/1x1"
  top: "inception_4e/1x1"
}
layer {
  name: "inception_4e/3x3_reduce"
  type: "Convolution"
  bottom: "inception_4d/output"
  top: "inception_4e/3x3_reduce"
  param {
    lr_mult: 1
    decay_mult: 1
  }
  param {
    lr_mult: 2
    decay_mult: 0
  }
  convolution_param {
    num_output: 160
    kernel_size: 1
    weight_filler {
      type: "xavier"
    }
    bias_filler {
      type: "constant"
      value: 0.2
    }
  }
}
layer {
  name: "inception_4e/relu_3x3_reduce"
  type: "ReLU"
  bottom: "inception_4e/3x3_reduce"
  top: "inception_4e/3x3_reduce"
}
layer {
  name: "inception_4e/3x3"
  type: "Convolution"
  bottom: "inception_4e/3x3_reduce"
  top: "inception_4e/3x3"
  param {
    lr_mult: 1
    decay_mult: 1
  }
  param {
    lr_mult: 2
    decay_mult: 0
  }
  convolution_param {
    num_output: 320
    pad: 1
    kernel_size: 3
    weight_filler {
      type: "xavier"
    }
    bias_filler {
      type: "constant"
      value: 0.2
    }
  }
}
layer {
  name: "inception_4e/relu_3x3"
  type: "ReLU"
  bottom: "inception_4e/3x3"
  top: "inception_4e/3x3"
}
layer {
  name: "inception_4e/5x5_reduce"
  type: "Convolution"
  bottom: "inception_4d/output"
  top: "inception_4e/5x5_reduce"
  param {
    lr_mult: 1
    decay_mult: 1
  }
  param {
    lr_mult: 2
    decay_mult: 0
  }
  convolution_param {
    num_output: 32
    kernel_size: 1
    weight_filler {
      type: "xavier"
    }
    bias_filler {
      type: "constant"
      value: 0.2
    }
  }
}
layer {
  name: "inception_4e/relu_5x5_reduce"
  type: "ReLU"
  bottom: "inception_4e/5x5_reduce"
  top: "inception_4e/5x5_reduce"
}
layer {
  name: "inception_4e/5x5"
  type: "Convolution"
  bottom: "inception_4e/5x5_reduce"
  top: "inception_4e/5x5"
  param {
    lr_mult: 1
    decay_mult: 1
  }
  param {
    lr_mult: 2
    decay_mult: 0
  }
  convolution_param {
    num_output: 128
    pad: 2
    kernel_size: 5
    weight_filler {
      type: "xavier"
    }
    bias_filler {
      type: "constant"
      value: 0.2
    }
  }
}
layer {
  name: "inception_4e/relu_5x5"
  type: "ReLU"
  bottom: "inception_4e/5x5"
  top: "inception_4e/5x5"
}
layer {
  name: "inception_4e/pool"
  type: "Pooling"
  bottom: "inception_4d/output"
  top: "inception
I0714 00:34:40.100106 25208 layer_factory.hpp:76] Creating layer data
I0714 00:34:40.100168 25208 net.cpp:106] Creating Layer data
I0714 00:34:40.100185 25208 net.cpp:411] data -> data
I0714 00:34:40.100227 25208 net.cpp:411] data -> label
I0714 00:34:40.100690 25208 image_data_layer.cpp:36] Opening file ../../list_stage1_tr.lst
I0714 00:34:40.119127 25208 image_data_layer.cpp:46] Shuffling data
I0714 00:34:40.124023 25208 image_data_layer.cpp:51] A total of 43224 images.
I0714 00:34:40.548679 25208 image_data_layer.cpp:78] output data size: 32,3,224,224
I0714 00:34:40.621135 25208 net.cpp:150] Setting up data
I0714 00:34:40.621345 25208 net.cpp:157] Top shape: 32 3 224 224 (4816896)
I0714 00:34:40.621371 25208 net.cpp:157] Top shape: 32 (32)
I0714 00:34:40.621376 25208 net.cpp:165] Memory required for data: 19267712
I0714 00:34:40.621409 25208 layer_factory.hpp:76] Creating layer label_data_1_split
I0714 00:34:40.621518 25208 net.cpp:106] Creating Layer label_data_1_split
I0714 00:34:40.621527 25208 net.cpp:454] label_data_1_split <- label
I0714 00:34:40.621567 25208 net.cpp:411] label_data_1_split -> label_data_1_split_0
I0714 00:34:40.621588 25208 net.cpp:411] label_data_1_split -> label_data_1_split_1
I0714 00:34:40.621598 25208 net.cpp:411] label_data_1_split -> label_data_1_split_2
I0714 00:34:40.622211 25208 net.cpp:150] Setting up label_data_1_split
I0714 00:34:40.622236 25208 net.cpp:157] Top shape: 32 (32)
I0714 00:34:40.622242 25208 net.cpp:157] Top shape: 32 (32)
I0714 00:34:40.622248 25208 net.cpp:157] Top shape: 32 (32)
I0714 00:34:40.622253 25208 net.cpp:165] Memory required for data: 19268096
I0714 00:34:40.622267 25208 layer_factory.hpp:76] Creating layer conv1/7x7_s2
I0714 00:34:40.622306 25208 net.cpp:106] Creating Layer conv1/7x7_s2
I0714 00:34:40.622344 25208 net.cpp:454] conv1/7x7_s2 <- data
I0714 00:34:40.622362 25208 net.cpp:411] conv1/7x7_s2 -> conv1/7x7_s2
I0714 00:34:41.313519 25208 net.cpp:150] Setting up conv1/7x7_s2
I0714 00:34:41.313572 25208 net.cpp:157] Top shape: 32 64 112 112 (25690112)
I0714 00:34:41.313583 25208 net.cpp:165] Memory required for data: 122028544
I0714 00:34:41.313616 25208 layer_factory.hpp:76] Creating layer conv1/relu_7x7
I0714 00:34:41.313639 25208 net.cpp:106] Creating Layer conv1/relu_7x7
I0714 00:34:41.313650 25208 net.cpp:454] conv1/relu_7x7 <- conv1/7x7_s2
I0714 00:34:41.313663 25208 net.cpp:397] conv1/relu_7x7 -> conv1/7x7_s2 (in-place)
I0714 00:34:41.317971 25208 net.cpp:150] Setting up conv1/relu_7x7
I0714 00:34:41.317992 25208 net.cpp:157] Top shape: 32 64 112 112 (25690112)
I0714 00:34:41.318008 25208 net.cpp:165] Memory required for data: 224788992
I0714 00:34:41.318022 25208 layer_factory.hpp:76] Creating layer pool1/3x3_s2
I0714 00:34:41.318040 25208 net.cpp:106] Creating Layer pool1/3x3_s2
I0714 00:34:41.318049 25208 net.cpp:454] pool1/3x3_s2 <- conv1/7x7_s2
I0714 00:34:41.318063 25208 net.cpp:411] pool1/3x3_s2 -> pool1/3x3_s2
I0714 00:34:41.324079 25208 net.cpp:150] Setting up pool1/3x3_s2
I0714 00:34:41.324107 25208 net.cpp:157] Top shape: 32 64 56 56 (6422528)
I0714 00:34:41.324117 25208 net.cpp:165] Memory required for data: 250479104
I0714 00:34:41.324127 25208 layer_factory.hpp:76] Creating layer pool1/norm1
I0714 00:34:41.324152 25208 net.cpp:106] Creating Layer pool1/norm1
I0714 00:34:41.324162 25208 net.cpp:454] pool1/norm1 <- pool1/3x3_s2
I0714 00:34:41.324174 25208 net.cpp:411] pool1/norm1 -> pool1/norm1
I0714 00:34:41.328614 25208 net.cpp:150] Setting up pool1/norm1
I0714 00:34:41.328635 25208 net.cpp:157] Top shape: 32 64 56 56 (6422528)
I0714 00:34:41.328644 25208 net.cpp:165] Memory required for data: 276169216
I0714 00:34:41.328654 25208 layer_factory.hpp:76] Creating layer conv2/3x3_reduce
I0714 00:34:41.328671 25208 net.cpp:106] Creating Layer conv2/3x3_reduce
I0714 00:34:41.328681 25208 net.cpp:454] conv2/3x3_reduce <- pool1/norm1
I0714 00:34:41.328698 25208 net.cpp:411] conv2/3x3_reduce -> conv2/3x3_reduce
I0714 00:34:41.343868 25208 cudnn_conv_layer.cpp:194] Reallocating workspace storage: 768
I0714 00:34:41.343905 25208 net.cpp:150] Setting up conv2/3x3_reduce
I0714 00:34:41.343920 25208 net.cpp:157] Top shape: 32 64 56 56 (6422528)
I0714 00:34:41.343930 25208 net.cpp:165] Memory required for data: 301859328
I0714 00:34:41.343945 25208 layer_factory.hpp:76] Creating layer conv2/relu_3x3_reduce
I0714 00:34:41.343958 25208 net.cpp:106] Creating Layer conv2/relu_3x3_reduce
I0714 00:34:41.343967 25208 net.cpp:454] conv2/relu_3x3_reduce <- conv2/3x3_reduce
I0714 00:34:41.343979 25208 net.cpp:397] conv2/relu_3x3_reduce -> conv2/3x3_reduce (in-place)
I0714 00:34:41.349508 25208 net.cpp:150] Setting up conv2/relu_3x3_reduce
I0714 00:34:41.349530 25208 net.cpp:157] Top shape: 32 64 56 56 (6422528)
I0714 00:34:41.349540 25208 net.cpp:165] Memory required for data: 327549440
I0714 00:34:41.349561 25208 layer_factory.hpp:76] Creating layer conv2/3x3
I0714 00:34:41.349586 25208 net.cpp:106] Creating Layer conv2/3x3
I0714 00:34:41.349596 25208 net.cpp:454] conv2/3x3 <- conv2/3x3_reduce
I0714 00:34:41.349618 25208 net.cpp:411] conv2/3x3 -> conv2/3x3
I0714 00:34:41.364562 25208 cudnn_conv_layer.cpp:194] Reallocating workspace storage: 6912
I0714 00:34:41.364809 25208 net.cpp:150] Setting up conv2/3x3
I0714 00:34:41.364830 25208 net.cpp:157] Top shape: 32 192 56 56 (19267584)
I0714 00:34:41.364838 25208 net.cpp:165] Memory required for data: 404619776
I0714 00:34:41.364852 25208 layer_factory.hpp:76] Creating layer conv2/relu_3x3
I0714 00:34:41.364864 25208 net.cpp:106] Creating Layer conv2/relu_3x3
I0714 00:34:41.364874 25208 net.cpp:454] conv2/relu_3x3 <- conv2/3x3
I0714 00:34:41.364886 25208 net.cpp:397] conv2/relu_3x3 -> conv2/3x3 (in-place)
I0714 00:34:41.369796 25208 net.cpp:150] Setting up conv2/relu_3x3
I0714 00:34:41.369814 25208 net.cpp:157] Top shape: 32 192 56 56 (19267584)
I0714 00:34:41.369853 25208 net.cpp:165] Memory required for data: 481690112
I0714 00:34:41.369863 25208 layer_factory.hpp:76] Creating layer conv2/norm2
I0714 00:34:41.369876 25208 net.cpp:106] Creating Layer conv2/norm2
I0714 00:34:41.369889 25208 net.cpp:454] conv2/norm2 <- conv2/3x3
I0714 00:34:41.369907 25208 net.cpp:411] conv2/norm2 -> conv2/norm2
I0714 00:34:41.374060 25208 net.cpp:150] Setting up conv2/norm2
I0714 00:34:41.374081 25208 net.cpp:157] Top shape: 32 192 56 56 (19267584)
I0714 00:34:41.374091 25208 net.cpp:165] Memory required for data: 558760448
I0714 00:34:41.374099 25208 layer_factory.hpp:76] Creating layer pool2/3x3_s2
I0714 00:34:41.374114 25208 net.cpp:106] Creating Layer pool2/3x3_s2
I0714 00:34:41.374124 25208 net.cpp:454] pool2/3x3_s2 <- conv2/norm2
I0714 00:34:41.374137 25208 net.cpp:411] pool2/3x3_s2 -> pool2/3x3_s2
I0714 00:34:41.379418 25208 net.cpp:150] Setting up pool2/3x3_s2
I0714 00:34:41.379438 25208 net.cpp:157] Top shape: 32 192 28 28 (4816896)
I0714 00:34:41.379447 25208 net.cpp:165] Memory required for data: 578028032
I0714 00:34:41.379457 25208 layer_factory.hpp:76] Creating layer pool2/3x3_s2_pool2/3x3_s2_0_split
I0714 00:34:41.379473 25208 net.cpp:106] Creating Layer pool2/3x3_s2_pool2/3x3_s2_0_split
I0714 00:34:41.379483 25208 net.cpp:454] pool2/3x3_s2_pool2/3x3_s2_0_split <- pool2/3x3_s2
I0714 00:34:41.379495 25208 net.cpp:411] pool2/3x3_s2_pool2/3x3_s2_0_split -> pool2/3x3_s2_pool2/3x3_s2_0_split_0
I0714 00:34:41.379508 25208 net.cpp:411] pool2/3x3_s2_pool2/3x3_s2_0_split -> pool2/3x3_s2_pool2/3x3_s2_0_split_1
I0714 00:34:41.379521 25208 net.cpp:411] pool2/3x3_s2_pool2/3x3_s2_0_split -> pool2/3x3_s2_pool2/3x3_s2_0_split_2
I0714 00:34:41.379533 25208 net.cpp:411] pool2/3x3_s2_pool2/3x3_s2_0_split -> pool2/3x3_s2_pool2/3x3_s2_0_split_3
I0714 00:34:41.379598 25208 net.cpp:150] Setting up pool2/3x3_s2_pool2/3x3_s2_0_split
I0714 00:34:41.379614 25208 net.cpp:157] Top shape: 32 192 28 28 (4816896)
I0714 00:34:41.379624 25208 net.cpp:157] Top shape: 32 192 28 28 (4816896)
I0714 00:34:41.379633 25208 net.cpp:157] Top shape: 32 192 28 28 (4816896)
I0714 00:34:41.379647 25208 net.cpp:157] Top shape: 32 192 28 28 (4816896)
I0714 00:34:41.379657 25208 net.cpp:165] Memory required for data: 655098368
I0714 00:34:41.379665 25208 layer_factory.hpp:76] Creating layer inception_3a/1x1
I0714 00:34:41.379684 25208 net.cpp:106] Creating Layer inception_3a/1x1
I0714 00:34:41.379694 25208 net.cpp:454] inception_3a/1x1 <- pool2/3x3_s2_pool2/3x3_s2_0_split_0
I0714 00:34:41.379708 25208 net.cpp:411] inception_3a/1x1 -> inception_3a/1x1
I0714 00:34:41.396023 25208 net.cpp:150] Setting up inception_3a/1x1
I0714 00:34:41.396047 25208 net.cpp:157] Top shape: 32 64 28 28 (1605632)
I0714 00:34:41.396056 25208 net.cpp:165] Memory required for data: 661520896
I0714 00:34:41.396070 25208 layer_factory.hpp:76] Creating layer inception_3a/relu_1x1
I0714 00:34:41.396086 25208 net.cpp:106] Creating Layer inception_3a/relu_1x1
I0714 00:34:41.396095 25208 net.cpp:454] inception_3a/relu_1x1 <- inception_3a/1x1
I0714 00:34:41.396108 25208 net.cpp:397] inception_3a/relu_1x1 -> inception_3a/1x1 (in-place)
I0714 00:34:41.400671 25208 net.cpp:150] Setting up inception_3a/relu_1x1
I0714 00:34:41.400691 25208 net.cpp:157] Top shape: 32 64 28 28 (1605632)
I0714 00:34:41.400699 25208 net.cpp:165] Memory required for data: 667943424
I0714 00:34:41.400708 25208 layer_factory.hpp:76] Creating layer inception_3a/3x3_reduce
I0714 00:34:41.400727 25208 net.cpp:106] Creating Layer inception_3a/3x3_reduce
I0714 00:34:41.400737 25208 net.cpp:454] inception_3a/3x3_reduce <- pool2/3x3_s2_pool2/3x3_s2_0_split_1
I0714 00:34:41.400749 25208 net.cpp:411] inception_3a/3x3_reduce -> inception_3a/3x3_reduce
I0714 00:34:41.469004 25208 cudnn_conv_layer.cpp:194] Reallocating workspace storage: 2304
I0714 00:34:41.469252 25208 net.cpp:150] Setting up inception_3a/3x3_reduce
I0714 00:34:41.469274 25208 net.cpp:157] Top shape: 32 96 28 28 (2408448)
I0714 00:34:41.469283 25208 net.cpp:165] Memory required for data: 677577216
I0714 00:34:41.469298 25208 layer_factory.hpp:76] Creating layer inception_3a/relu_3x3_reduce
I0714 00:34:41.469334 25208 net.cpp:106] Creating Layer inception_3a/relu_3x3_reduce
I0714 00:34:41.469346 25208 net.cpp:454] inception_3a/relu_3x3_reduce <- inception_3a/3x3_reduce
I0714 00:34:41.469367 25208 net.cpp:397] inception_3a/relu_3x3_reduce -> inception_3a/3x3_reduce (in-place)
I0714 00:34:41.475951 25208 net.cpp:150] Setting up inception_3a/relu_3x3_reduce
I0714 00:34:41.475972 25208 net.cpp:157] Top shape: 32 96 28 28 (2408448)
I0714 00:34:41.475981 25208 net.cpp:165] Memory required for data: 687211008
I0714 00:34:41.475991 25208 layer_factory.hpp:76] Creating layer inception_3a/3x3
I0714 00:34:41.476007 25208 net.cpp:106] Creating Layer inception_3a/3x3
I0714 00:34:41.476016 25208 net.cpp:454] inception_3a/3x3 <- inception_3a/3x3_reduce
I0714 00:34:41.476027 25208 net.cpp:411] inception_3a/3x3 -> inception_3a/3x3
I0714 00:34:41.492837 25208 net.cpp:150] Setting up inception_3a/3x3
I0714 00:34:41.492861 25208 net.cpp:157] Top shape: 32 128 28 28 (3211264)
I0714 00:34:41.492871 25208 net.cpp:165] Memory required for data: 700056064
I0714 00:34:41.492893 25208 layer_factory.hpp:76] Creating layer inception_3a/relu_3x3
I0714 00:34:41.492914 25208 net.cpp:106] Creating Layer inception_3a/relu_3x3
I0714 00:34:41.492923 25208 net.cpp:454] inception_3a/relu_3x3 <- inception_3a/3x3
I0714 00:34:41.492934 25208 net.cpp:397] inception_3a/relu_3x3 -> inception_3a/3x3 (in-place)
I0714 00:34:41.499729 25208 net.cpp:150] Setting up inception_3a/relu_3x3
I0714 00:34:41.499747 25208 net.cpp:157] Top shape: 32 128 28 28 (3211264)
I0714 00:34:41.499757 25208 net.cpp:165] Memory required for data: 712901120
I0714 00:34:41.499769 25208 layer_factory.hpp:76] Creating layer inception_3a/5x5_reduce
I0714 00:34:41.499783 25208 net.cpp:106] Creating Layer inception_3a/5x5_reduce
I0714 00:34:41.499794 25208 net.cpp:454] inception_3a/5x5_reduce <- pool2/3x3_s2_pool2/3x3_s2_0_split_2
I0714 00:34:41.499806 25208 net.cpp:411] inception_3a/5x5_reduce -> inception_3a/5x5_reduce
I0714 00:34:41.513986 25208 net.cpp:150] Setting up inception_3a/5x5_reduce
I0714 00:34:41.514013 25208 net.cpp:157] Top shape: 32 16 28 28 (401408)
I0714 00:34:41.514021 25208 net.cpp:165] Memory required for data: 714506752
I0714 00:34:41.514034 25208 layer_factory.hpp:76] Creating layer inception_3a/relu_5x5_reduce
I0714 00:34:41.514045 25208 net.cpp:106] Creating Layer inception_3a/relu_5x5_reduce
I0714 00:34:41.514053 25208 net.cpp:454] inception_3a/relu_5x5_reduce <- inception_3a/5x5_reduce
I0714 00:34:41.514063 25208 net.cpp:397] inception_3a/relu_5x5_reduce -> inception_3a/5x5_reduce (in-place)
I0714 00:34:41.519002 25208 net.cpp:150] Setting up inception_3a/relu_5x5_reduce
I0714 00:34:41.519026 25208 net.cpp:157] Top shape: 32 16 28 28 (401408)
I0714 00:34:41.519034 25208 net.cpp:165] Memory required for data: 716112384
I0714 00:34:41.519043 25208 layer_factory.hpp:76] Creating layer inception_3a/5x5
I0714 00:34:41.519065 25208 net.cpp:106] Creating Layer inception_3a/5x5
I0714 00:34:41.519075 25208 net.cpp:454] inception_3a/5x5 <- inception_3a/5x5_reduce
I0714 00:34:41.519088 25208 net.cpp:411] inception_3a/5x5 -> inception_3a/5x5
I0714 00:34:41.533974 25208 net.cpp:150] Setting up inception_3a/5x5
I0714 00:34:41.533999 25208 net.cpp:157] Top shape: 32 32 28 28 (802816)
I0714 00:34:41.534009 25208 net.cpp:165] Memory required for data: 719323648
I0714 00:34:41.534021 25208 layer_factory.hpp:76] Creating layer inception_3a/relu_5x5
I0714 00:34:41.534040 25208 net.cpp:106] Creating Layer inception_3a/relu_5x5
I0714 00:34:41.534050 25208 net.cpp:454] inception_3a/relu_5x5 <- inception_3a/5x5
I0714 00:34:41.534060 25208 net.cpp:397] inception_3a/relu_5x5 -> inception_3a/5x5 (in-place)
I0714 00:34:41.539227 25208 net.cpp:150] Setting up inception_3a/relu_5x5
I0714 00:34:41.539252 25208 net.cpp:157] Top shape: 32 32 28 28 (802816)
I0714 00:34:41.539261 25208 net.cpp:165] Memory required for data: 722534912
I0714 00:34:41.539270 25208 layer_factory.hpp:76] Creating layer inception_3a/pool
I0714 00:34:41.539297 25208 net.cpp:106] Creating Layer inception_3a/pool
I0714 00:34:41.539307 25208 net.cpp:454] inception_3a/pool <- pool2/3x3_s2_pool2/3x3_s2_0_split_3
I0714 00:34:41.539317 25208 net.cpp:411] inception_3a/pool -> inception_3a/pool
I0714 00:34:41.543589 25208 net.cpp:150] Setting up inception_3a/pool
I0714 00:34:41.543608 25208 net.cpp:157] Top shape: 32 192 28 28 (4816896)
I0714 00:34:41.543617 25208 net.cpp:165] Memory required for data: 741802496
I0714 00:34:41.543625 25208 layer_factory.hpp:76] Creating layer inception_3a/pool_proj
I0714 00:34:41.543648 25208 net.cpp:106] Creating Layer inception_3a/pool_proj
I0714 00:34:41.543658 25208 net.cpp:454] inception_3a/pool_proj <- inception_3a/pool
I0714 00:34:41.543673 25208 net.cpp:411] inception_3a/pool_proj -> inception_3a/pool_proj
I0714 00:34:41.558992 25208 net.cpp:150] Setting up inception_3a/pool_proj
I0714 00:34:41.559015 25208 net.cpp:157] Top shape: 32 32 28 28 (802816)
I0714 00:34:41.559025 25208 net.cpp:165] Memory required for data: 745013760
I0714 00:34:41.559042 25208 layer_factory.hpp:76] Creating layer inception_3a/relu_pool_proj
I0714 00:34:41.559054 25208 net.cpp:106] Creating Layer inception_3a/relu_pool_proj
I0714 00:34:41.559064 25208 net.cpp:454] inception_3a/relu_pool_proj <- inception_3a/pool_proj
I0714 00:34:41.559074 25208 net.cpp:397] inception_3a/relu_pool_proj -> inception_3a/pool_proj (in-place)
I0714 00:34:41.563102 25208 net.cpp:150] Setting up inception_3a/relu_pool_proj
I0714 00:34:41.563124 25208 net.cpp:157] Top shape: 32 32 28 28 (802816)
I0714 00:34:41.563133 25208 net.cpp:165] Memory required for data: 748225024
I0714 00:34:41.563150 25208 layer_factory.hpp:76] Creating layer inception_3a/output
I0714 00:34:41.563169 25208 net.cpp:106] Creating Layer inception_3a/output
I0714 00:34:41.563177 25208 net.cpp:454] inception_3a/output <- inception_3a/1x1
I0714 00:34:41.563187 25208 net.cpp:454] inception_3a/output <- inception_3a/3x3
I0714 00:34:41.563196 25208 net.cpp:454] inception_3a/output <- inception_3a/5x5
I0714 00:34:41.563205 25208 net.cpp:454] inception_3a/output <- inception_3a/pool_proj
I0714 00:34:41.563213 25208 net.cpp:411] inception_3a/output -> inception_3a/output
I0714 00:34:41.563252 25208 net.cpp:150] Setting up inception_3a/output
I0714 00:34:41.563266 25208 net.cpp:157] Top shape: 32 256 28 28 (6422528)
I0714 00:34:41.563273 25208 net.cpp:165] Memory required for data: 773915136
I0714 00:34:41.563282 25208 layer_factory.hpp:76] Creating layer inception_3a/output_inception_3a/output_0_split
I0714 00:34:41.563297 25208 net.cpp:106] Creating Layer inception_3a/output_inception_3a/output_0_split
I0714 00:34:41.563307 25208 net.cpp:454] inception_3a/output_inception_3a/output_0_split <- inception_3a/output
I0714 00:34:41.563316 25208 net.cpp:411] inception_3a/output_inception_3a/output_0_split -> inception_3a/output_inception_3a/output_0_split_0
I0714 00:34:41.563328 25208 net.cpp:411] inception_3a/output_inception_3a/output_0_split -> inception_3a/output_inception_3a/output_0_split_1
I0714 00:34:41.563344 25208 net.cpp:411] inception_3a/output_inception_3a/output_0_split -> inception_3a/output_inception_3a/output_0_split_2
I0714 00:34:41.563354 25208 net.cpp:411] inception_3a/output_inception_3a/output_0_split -> inception_3a/output_inception_3a/output_0_split_3
I0714 00:34:41.563421 25208 net.cpp:150] Setting up inception_3a/output_inception_3a/output_0_split
I0714 00:34:41.563436 25208 net.cpp:157] Top shape: 32 256 28 28 (6422528)
I0714 00:34:41.563446 25208 net.cpp:157] Top shape: 32 256 28 28 (6422528)
I0714 00:34:41.563457 25208 net.cpp:157] Top shape: 32 256 28 28 (6422528)
I0714 00:34:41.563465 25208 net.cpp:157] Top shape: 32 256 28 28 (6422528)
I0714 00:34:41.563477 25208 net.cpp:165] Memory required for data: 876675584
I0714 00:34:41.563485 25208 layer_factory.hpp:76] Creating layer inception_3b/1x1
I0714 00:34:41.563506 25208 net.cpp:106] Creating Layer inception_3b/1x1
I0714 00:34:41.563519 25208 net.cpp:454] inception_3b/1x1 <- inception_3a/output_inception_3a/output_0_split_0
I0714 00:34:41.563550 25208 net.cpp:411] inception_3b/1x1 -> inception_3b/1x1
I0714 00:34:41.754112 25208 cudnn_conv_layer.cpp:194] Reallocating workspace storage: 3072
I0714 00:34:41.754166 25208 net.cpp:150] Setting up inception_3b/1x1
I0714 00:34:41.754182 25208 net.cpp:157] Top shape: 32 128 28 28 (3211264)
I0714 00:34:41.754192 25208 net.cpp:165] Memory required for data: 889520640
I0714 00:34:41.754206 25208 layer_factory.hpp:76] Creating layer inception_3b/relu_1x1
I0714 00:34:41.754220 25208 net.cpp:106] Creating Layer inception_3b/relu_1x1
I0714 00:34:41.754231 25208 net.cpp:454] inception_3b/relu_1x1 <- inception_3b/1x1
I0714 00:34:41.754245 25208 net.cpp:397] inception_3b/relu_1x1 -> inception_3b/1x1 (in-place)
I0714 00:34:41.758493 25208 net.cpp:150] Setting up inception_3b/relu_1x1
I0714 00:34:41.758514 25208 net.cpp:157] Top shape: 32 128 28 28 (3211264)
I0714 00:34:41.758527 25208 net.cpp:165] Memory required for data: 902365696
I0714 00:34:41.758545 25208 layer_factory.hpp:76] Creating layer inception_3b/3x3_reduce
I0714 00:34:41.758563 25208 net.cpp:106] Creating Layer inception_3b/3x3_reduce
I0714 00:34:41.758574 25208 net.cpp:454] inception_3b/3x3_reduce <- inception_3a/output_inception_3a/output_0_split_1
I0714 00:34:41.758589 25208 net.cpp:411] inception_3b/3x3_reduce -> inception_3b/3x3_reduce
I0714 00:34:41.787253 25208 cudnn_conv_layer.cpp:194] Reallocating workspace storage: 3072
I0714 00:34:41.787291 25208 net.cpp:150] Setting up inception_3b/3x3_reduce
I0714 00:34:41.787304 25208 net.cpp:157] Top shape: 32 128 28 28 (3211264)
I0714 00:34:41.787313 25208 net.cpp:165] Memory required for data: 915210752
I0714 00:34:41.787325 25208 layer_factory.hpp:76] Creating layer inception_3b/relu_3x3_reduce
I0714 00:34:41.787350 25208 net.cpp:106] Creating Layer inception_3b/relu_3x3_reduce
I0714 00:34:41.787360 25208 net.cpp:454] inception_3b/relu_3x3_reduce <- inception_3b/3x3_reduce
I0714 00:34:41.787374 25208 net.cpp:397] inception_3b/relu_3x3_reduce -> inception_3b/3x3_reduce (in-place)
I0714 00:34:41.787560 25208 net.cpp:150] Setting up inception_3b/relu_3x3_reduce
I0714 00:34:41.787580 25208 net.cpp:157] Top shape: 32 128 28 28 (3211264)
I0714 00:34:41.787588 25208 net.cpp:165] Memory required for data: 928055808
I0714 00:34:41.787596 25208 layer_factory.hpp:76] Creating layer inception_3b/3x3
I0714 00:34:41.787623 25208 net.cpp:106] Creating Layer inception_3b/3x3
I0714 00:34:41.787634 25208 net.cpp:454] inception_3b/3x3 <- inception_3b/3x3_reduce
I0714 00:34:41.787647 25208 net.cpp:411] inception_3b/3x3 -> inception_3b/3x3
I0714 00:34:41.800966 25208 cudnn_conv_layer.cpp:194] Reallocating workspace storage: 13824
I0714 00:34:41.801007 25208 net.cpp:150] Setting up inception_3b/3x3
I0714 00:34:41.801033 25208 net.cpp:157] Top shape: 32 192 28 28 (4816896)
I0714 00:34:41.801043 25208 net.cpp:165] Memory required for data: 947323392
I0714 00:34:41.801054 25208 layer_factory.hpp:76] Creating layer inception_3b/relu_3x3
I0714 00:34:41.801067 25208 net.cpp:106] Creating Layer inception_3b/relu_3x3
I0714 00:34:41.801077 25208 net.cpp:454] inception_3b/relu_3x3 <- inception_3b/3x3
I0714 00:34:41.801090 25208 net.cpp:397] inception_3b/relu_3x3 -> inception_3b/3x3 (in-place)
I0714 00:34:41.806156 25208 net.cpp:150] Setting up inception_3b/relu_3x3
I0714 00:34:41.806179 25208 net.cpp:157] Top shape: 32 192 28 28 (4816896)
I0714 00:34:41.806187 25208 net.cpp:165] Memory required for data: 966590976
I0714 00:34:41.806203 25208 layer_factory.hpp:76] Creating layer inception_3b/5x5_reduce
I0714 00:34:41.806226 25208 net.cpp:106] Creating Layer inception_3b/5x5_reduce
I0714 00:34:41.806236 25208 net.cpp:454] inception_3b/5x5_reduce <- inception_3a/output_inception_3a/output_0_split_2
I0714 00:34:41.806249 25208 net.cpp:411] inception_3b/5x5_reduce -> inception_3b/5x5_reduce
I0714 00:34:41.822180 25208 net.cpp:150] Setting up inception_3b/5x5_reduce
I0714 00:34:41.822204 25208 net.cpp:157] Top shape: 32 32 28 28 (802816)
I0714 00:34:41.822213 25208 net.cpp:165] Memory required for data: 969802240
I0714 00:34:41.822227 25208 layer_factory.hpp:76] Creating layer inception_3b/relu_5x5_reduce
I0714 00:34:41.822265 25208 net.cpp:106] Creating Layer inception_3b/relu_5x5_reduce
I0714 00:34:41.822281 25208 net.cpp:454] inception_3b/relu_5x5_reduce <- inception_3b/5x5_reduce
I0714 00:34:41.822296 25208 net.cpp:397] inception_3b/relu_5x5_reduce -> inception_3b/5x5_reduce (in-place)
I0714 00:34:41.827374 25208 net.cpp:150] Setting up inception_3b/relu_5x5_reduce
I0714 00:34:41.827394 25208 net.cpp:157] Top shape: 32 32 28 28 (802816)
I0714 00:34:41.827404 25208 net.cpp:165] Memory required for data: 973013504
I0714 00:34:41.827412 25208 layer_factory.hpp:76] Creating layer inception_3b/5x5
I0714 00:34:41.827428 25208 net.cpp:106] Creating Layer inception_3b/5x5
I0714 00:34:41.827438 25208 net.cpp:454] inception_3b/5x5 <- inception_3b/5x5_reduce
I0714 00:34:41.827450 25208 net.cpp:411] inception_3b/5x5 -> inception_3b/5x5
I0714 00:34:41.843392 25208 cudnn_conv_layer.cpp:194] Reallocating workspace storage: 9600
I0714 00:34:41.843427 25208 net.cpp:150] Setting up inception_3b/5x5
I0714 00:34:41.843441 25208 net.cpp:157] Top shape: 32 96 28 28 (2408448)
I0714 00:34:41.843449 25208 net.cpp:165] Memory required for data: 982647296
I0714 00:34:41.843461 25208 layer_factory.hpp:76] Creating layer inception_3b/relu_5x5
I0714 00:34:41.843487 25208 net.cpp:106] Creating Layer inception_3b/relu_5x5
I0714 00:34:41.843495 25208 net.cpp:454] inception_3b/relu_5x5 <- inception_3b/5x5
I0714 00:34:41.843507 25208 net.cpp:397] inception_3b/relu_5x5 -> inception_3b/5x5 (in-place)
I0714 00:34:41.847539 25208 net.cpp:150] Setting up inception_3b/relu_5x5
I0714 00:34:41.847559 25208 net.cpp:157] Top shape: 32 96 28 28 (2408448)
I0714 00:34:41.847568 25208 net.cpp:165] Memory required for data: 992281088
I0714 00:34:41.847584 25208 layer_factory.hpp:76] Creating layer inception_3b/pool
I0714 00:34:41.847596 25208 net.cpp:106] Creating Layer inception_3b/pool
I0714 00:34:41.847606 25208 net.cpp:454] inception_3b/pool <- inception_3a/output_inception_3a/output_0_split_3
I0714 00:34:41.847620 25208 net.cpp:411] inception_3b/pool -> inception_3b/pool
I0714 00:34:41.852872 25208 net.cpp:150] Setting up inception_3b/pool
I0714 00:34:41.852897 25208 net.cpp:157] Top shape: 32 256 28 28 (6422528)
I0714 00:34:41.852908 25208 net.cpp:165] Memory required for data: 1017971200
I0714 00:34:41.852918 25208 layer_factory.hpp:76] Creating layer inception_3b/pool_proj
I0714 00:34:41.852934 25208 net.cpp:106] Creating Layer inception_3b/pool_proj
I0714 00:34:41.852946 25208 net.cpp:454] inception_3b/pool_proj <- inception_3b/pool
I0714 00:34:41.852957 25208 net.cpp:411] inception_3b/pool_proj -> inception_3b/pool_proj
I0714 00:34:41.865957 25208 cudnn_conv_layer.cpp:194] Reallocating workspace storage: 3072
I0714 00:34:41.865990 25208 net.cpp:150] Setting up inception_3b/pool_proj
I0714 00:34:41.866008 25208 net.cpp:157] Top shape: 32 64 28 28 (1605632)
I0714 00:34:41.866016 25208 net.cpp:165] Memory required for data: 1024393728
I0714 00:34:41.866029 25208 layer_factory.hpp:76] Creating layer inception_3b/relu_pool_proj
I0714 00:34:41.866049 25208 net.cpp:106] Creating Layer inception_3b/relu_pool_proj
I0714 00:34:41.866058 25208 net.cpp:454] inception_3b/relu_pool_proj <- inception_3b/pool_proj
I0714 00:34:41.866070 25208 net.cpp:397] inception_3b/relu_pool_proj -> inception_3b/pool_proj (in-place)
I0714 00:34:41.870285 25208 net.cpp:150] Setting up inception_3b/relu_pool_proj
I0714 00:34:41.870304 25208 net.cpp:157] Top shape: 32 64 28 28 (1605632)
I0714 00:34:41.870313 25208 net.cpp:165] Memory required for data: 1030816256
I0714 00:34:41.870322 25208 layer_factory.hpp:76] Creating layer inception_3b/output
I0714 00:34:41.870337 25208 net.cpp:106] Creating Layer inception_3b/output
I0714 00:34:41.870347 25208 net.cpp:454] inception_3b/output <- inception_3b/1x1
I0714 00:34:41.870357 25208 net.cpp:454] inception_3b/output <- inception_3b/3x3
I0714 00:34:41.870365 25208 net.cpp:454] inception_3b/output <- inception_3b/5x5
I0714 00:34:41.870373 25208 net.cpp:454] inception_3b/output <- inception_3b/pool_proj
I0714 00:34:41.870404 25208 net.cpp:411] inception_3b/output -> inception_3b/output
I0714 00:34:41.870441 25208 net.cpp:150] Setting up inception_3b/output
I0714 00:34:41.870455 25208 net.cpp:157] Top shape: 32 480 28 28 (12042240)
I0714 00:34:41.870462 25208 net.cpp:165] Memory required for data: 1078985216
I0714 00:34:41.870481 25208 layer_factory.hpp:76] Creating layer pool3/3x3_s2
I0714 00:34:41.870493 25208 net.cpp:106] Creating Layer pool3/3x3_s2
I0714 00:34:41.870502 25208 net.cpp:454] pool3/3x3_s2 <- inception_3b/output
I0714 00:34:41.870512 25208 net.cpp:411] pool3/3x3_s2 -> pool3/3x3_s2
I0714 00:34:41.875823 25208 net.cpp:150] Setting up pool3/3x3_s2
I0714 00:34:41.875846 25208 net.cpp:157] Top shape: 32 480 14 14 (3010560)
I0714 00:34:41.875856 25208 net.cpp:165] Memory required for data: 1091027456
I0714 00:34:41.875867 25208 layer_factory.hpp:76] Creating layer pool3/3x3_s2_pool3/3x3_s2_0_split
I0714 00:34:41.875880 25208 net.cpp:106] Creating Layer pool3/3x3_s2_pool3/3x3_s2_0_split
I0714 00:34:41.875890 25208 net.cpp:454] pool3/3x3_s2_pool3/3x3_s2_0_split <- pool3/3x3_s2
I0714 00:34:41.875901 25208 net.cpp:411] pool3/3x3_s2_pool3/3x3_s2_0_split -> pool3/3x3_s2_pool3/3x3_s2_0_split_0
I0714 00:34:41.875915 25208 net.cpp:411] pool3/3x3_s2_pool3/3x3_s2_0_split -> pool3/3x3_s2_pool3/3x3_s2_0_split_1
I0714 00:34:41.875926 25208 net.cpp:411] pool3/3x3_s2_pool3/3x3_s2_0_split -> pool3/3x3_s2_pool3/3x3_s2_0_split_2
I0714 00:34:41.875936 25208 net.cpp:411] pool3/3x3_s2_pool3/3x3_s2_0_split -> pool3/3x3_s2_pool3/3x3_s2_0_split_3
I0714 00:34:41.876003 25208 net.cpp:150] Setting up pool3/3x3_s2_pool3/3x3_s2_0_split
I0714 00:34:41.876018 25208 net.cpp:157] Top shape: 32 480 14 14 (3010560)
I0714 00:34:41.876027 25208 net.cpp:157] Top shape: 32 480 14 14 (3010560)
I0714 00:34:41.876036 25208 net.cpp:157] Top shape: 32 480 14 14 (3010560)
I0714 00:34:41.876045 25208 net.cpp:157] Top shape: 32 480 14 14 (3010560)
I0714 00:34:41.876052 25208 net.cpp:165] Memory required for data: 1139196416
I0714 00:34:41.876060 25208 layer_factory.hpp:76] Creating layer inception_4a/1x1
I0714 00:34:41.876072 25208 net.cpp:106] Creating Layer inception_4a/1x1
I0714 00:34:41.876081 25208 net.cpp:454] inception_4a/1x1 <- pool3/3x3_s2_pool3/3x3_s2_0_split_0
I0714 00:34:41.876094 25208 net.cpp:411] inception_4a/1x1 -> inception_4a/1x1
I0714 00:34:42.043612 25208 cudnn_conv_layer.cpp:194] Reallocating workspace storage: 5760
I0714 00:34:42.043665 25208 net.cpp:150] Setting up inception_4a/1x1
I0714 00:34:42.043679 25208 net.cpp:157] Top shape: 32 192 14 14 (1204224)
I0714 00:34:42.043689 25208 net.cpp:165] Memory required for data: 1144013312
I0714 00:34:42.043700 25208 layer_factory.hpp:76] Creating layer inception_4a/relu_1x1
I0714 00:34:42.043722 25208 net.cpp:106] Creating Layer inception_4a/relu_1x1
I0714 00:34:42.043733 25208 net.cpp:454] inception_4a/relu_1x1 <- inception_4a/1x1
I0714 00:34:42.043745 25208 net.cpp:397] inception_4a/relu_1x1 -> inception_4a/1x1 (in-place)
I0714 00:34:42.046763 25208 net.cpp:150] Setting up inception_4a/relu_1x1
I0714 00:34:42.046780 25208 net.cpp:157] Top shape: 32 192 14 14 (1204224)
I0714 00:34:42.046794 25208 net.cpp:165] Memory required for data: 1148830208
I0714 00:34:42.046810 25208 layer_factory.hpp:76] Creating layer inception_4a/3x3_reduce
I0714 00:34:42.046826 25208 net.cpp:106] Creating Layer inception_4a/3x3_reduce
I0714 00:34:42.046835 25208 net.cpp:454] inception_4a/3x3_reduce <- pool3/3x3_s2_pool3/3x3_s2_0_split_1
I0714 00:34:42.046851 25208 net.cpp:411] inception_4a/3x3_reduce -> inception_4a/3x3_reduce
I0714 00:34:42.059427 25208 cudnn_conv_layer.cpp:194] Reallocating workspace storage: 5760
I0714 00:34:42.059466 25208 net.cpp:150] Setting up inception_4a/3x3_reduce
I0714 00:34:42.059478 25208 net.cpp:157] Top shape: 32 96 14 14 (602112)
I0714 00:34:42.059487 25208 net.cpp:165] Memory required for data: 1151238656
I0714 00:34:42.059509 25208 layer_factory.hpp:76] Creating layer inception_4a/relu_3x3_reduce
I0714 00:34:42.059521 25208 net.cpp:106] Creating Layer inception_4a/relu_3x3_reduce
I0714 00:34:42.059556 25208 net.cpp:454] inception_4a/relu_3x3_reduce <- inception_4a/3x3_reduce
I0714 00:34:42.059571 25208 net.cpp:397] inception_4a/relu_3x3_reduce -> inception_4a/3x3_reduce (in-place)
I0714 00:34:42.063541 25208 net.cpp:150] Setting up inception_4a/relu_3x3_reduce
I0714 00:34:42.063560 25208 net.cpp:157] Top shape: 32 96 14 14 (602112)
I0714 00:34:42.063567 25208 net.cpp:165] Memory required for data: 1153647104
I0714 00:34:42.063575 25208 layer_factory.hpp:76] Creating layer inception_4a/3x3
I0714 00:34:42.063597 25208 net.cpp:106] Creating Layer inception_4a/3x3
I0714 00:34:42.063606 25208 net.cpp:454] inception_4a/3x3 <- inception_4a/3x3_reduce
I0714 00:34:42.063632 25208 net.cpp:411] inception_4a/3x3 -> inception_4a/3x3
I0714 00:34:42.079144 25208 cudnn_conv_layer.cpp:194] Reallocating workspace storage: 10368
I0714 00:34:42.079180 25208 net.cpp:150] Setting up inception_4a/3x3
I0714 00:34:42.079192 25208 net.cpp:157] Top shape: 32 208 14 14 (1304576)
I0714 00:34:42.079200 25208 net.cpp:165] Memory required for data: 1158865408
I0714 00:34:42.079211 25208 layer_factory.hpp:76] Creating layer inception_4a/relu_3x3
I0714 00:34:42.079231 25208 net.cpp:106] Creating Layer inception_4a/relu_3x3
I0714 00:34:42.079241 25208 net.cpp:454] inception_4a/relu_3x3 <- inception_4a/3x3
I0714 00:34:42.079251 25208 net.cpp:397] inception_4a/relu_3x3 -> inception_4a/3x3 (in-place)
I0714 00:34:42.084419 25208 net.cpp:150] Setting up inception_4a/relu_3x3
I0714 00:34:42.084439 25208 net.cpp:157] Top shape: 32 208 14 14 (1304576)
I0714 00:34:42.084447 25208 net.cpp:165] Memory required for data: 1164083712
I0714 00:34:42.084455 25208 layer_factory.hpp:76] Creating layer inception_4a/5x5_reduce
I0714 00:34:42.084470 25208 net.cpp:106] Creating Layer inception_4a/5x5_reduce
I0714 00:34:42.084480 25208 net.cpp:454] inception_4a/5x5_reduce <- pool3/3x3_s2_pool3/3x3_s2_0_split_2
I0714 00:34:42.084496 25208 net.cpp:411] inception_4a/5x5_reduce -> inception_4a/5x5_reduce
I0714 00:34:42.099808 25208 net.cpp:150] Setting up inception_4a/5x5_reduce
I0714 00:34:42.099830 25208 net.cpp:157] Top shape: 32 16 14 14 (100352)
I0714 00:34:42.099839 25208 net.cpp:165] Memory required for data: 1164485120
I0714 00:34:42.099850 25208 layer_factory.hpp:76] Creating layer inception_4a/relu_5x5_reduce
I0714 00:34:42.099869 25208 net.cpp:106] Creating Layer inception_4a/relu_5x5_reduce
I0714 00:34:42.099877 25208 net.cpp:454] inception_4a/relu_5x5_reduce <- inception_4a/5x5_reduce
I0714 00:34:42.099887 25208 net.cpp:397] inception_4a/relu_5x5_reduce -> inception_4a/5x5_reduce (in-place)
I0714 00:34:42.105394 25208 net.cpp:150] Setting up inception_4a/relu_5x5_reduce
I0714 00:34:42.105412 25208 net.cpp:157] Top shape: 32 16 14 14 (100352)
I0714 00:34:42.105420 25208 net.cpp:165] Memory required for data: 1164886528
I0714 00:34:42.105429 25208 layer_factory.hpp:76] Creating layer inception_4a/5x5
I0714 00:34:42.105444 25208 net.cpp:106] Creating Layer inception_4a/5x5
I0714 00:34:42.105453 25208 net.cpp:454] inception_4a/5x5 <- inception_4a/5x5_reduce
I0714 00:34:42.105474 25208 net.cpp:411] inception_4a/5x5 -> inception_4a/5x5
I0714 00:34:42.121323 25208 net.cpp:150] Setting up inception_4a/5x5
I0714 00:34:42.121345 25208 net.cpp:157] Top shape: 32 48 14 14 (301056)
I0714 00:34:42.121354 25208 net.cpp:165] Memory required for data: 1166090752
I0714 00:34:42.121368 25208 layer_factory.hpp:76] Creating layer inception_4a/relu_5x5
I0714 00:34:42.121381 25208 net.cpp:106] Creating Layer inception_4a/relu_5x5
I0714 00:34:42.121389 25208 net.cpp:454] inception_4a/relu_5x5 <- inception_4a/5x5
I0714 00:34:42.121399 25208 net.cpp:397] inception_4a/relu_5x5 -> inception_4a/5x5 (in-place)
I0714 00:34:42.126916 25208 net.cpp:150] Setting up inception_4a/relu_5x5
I0714 00:34:42.126938 25208 net.cpp:157] Top shape: 32 48 14 14 (301056)
I0714 00:34:42.126950 25208 net.cpp:165] Memory required for data: 1167294976
I0714 00:34:42.126966 25208 layer_factory.hpp:76] Creating layer inception_4a/pool
I0714 00:34:42.126982 25208 net.cpp:106] Creating Layer inception_4a/pool
I0714 00:34:42.127007 25208 net.cpp:454] inception_4a/pool <- pool3/3x3_s2_pool3/3x3_s2_0_split_3
I0714 00:34:42.127022 25208 net.cpp:411] inception_4a/pool -> inception_4a/pool
I0714 00:34:42.132652 25208 net.cpp:150] Setting up inception_4a/pool
I0714 00:34:42.132673 25208 net.cpp:157] Top shape: 32 480 14 14 (3010560)
I0714 00:34:42.132683 25208 net.cpp:165] Memory required for data: 1179337216
I0714 00:34:42.132690 25208 layer_factory.hpp:76] Creating layer inception_4a/pool_proj
I0714 00:34:42.132706 25208 net.cpp:106] Creating Layer inception_4a/pool_proj
I0714 00:34:42.132715 25208 net.cpp:454] inception_4a/pool_proj <- inception_4a/pool
I0714 00:34:42.132728 25208 net.cpp:411] inception_4a/pool_proj -> inception_4a/pool_proj
I0714 00:34:42.148620 25208 net.cpp:150] Setting up inception_4a/pool_proj
I0714 00:34:42.148643 25208 net.cpp:157] Top shape: 32 64 14 14 (401408)
I0714 00:34:42.148653 25208 net.cpp:165] Memory required for data: 1180942848
I0714 00:34:42.148663 25208 layer_factory.hpp:76] Creating layer inception_4a/relu_pool_proj
I0714 00:34:42.148674 25208 net.cpp:106] Creating Layer inception_4a/relu_pool_proj
I0714 00:34:42.148682 25208 net.cpp:454] inception_4a/relu_pool_proj <- inception_4a/pool_proj
I0714 00:34:42.148692 25208 net.cpp:397] inception_4a/relu_pool_proj -> inception_4a/pool_proj (in-place)
I0714 00:34:42.153079 25208 net.cpp:150] Setting up inception_4a/relu_pool_proj
I0714 00:34:42.153098 25208 net.cpp:157] Top shape: 32 64 14 14 (401408)
I0714 00:34:42.153108 25208 net.cpp:165] Memory required for data: 1182548480
I0714 00:34:42.153120 25208 layer_factory.hpp:76] Creating layer inception_4a/output
I0714 00:34:42.153141 25208 net.cpp:106] Creating Layer inception_4a/output
I0714 00:34:42.153149 25208 net.cpp:454] inception_4a/output <- inception_4a/1x1
I0714 00:34:42.153158 25208 net.cpp:454] inception_4a/output <- inception_4a/3x3
I0714 00:34:42.153168 25208 net.cpp:454] inception_4a/output <- inception_4a/5x5
I0714 00:34:42.153177 25208 net.cpp:454] inception_4a/output <- inception_4a/pool_proj
I0714 00:34:42.153189 25208 net.cpp:411] inception_4a/output -> inception_4a/output
I0714 00:34:42.153225 25208 net.cpp:150] Setting up inception_4a/output
I0714 00:34:42.153237 25208 net.cpp:157] Top shape: 32 512 14 14 (3211264)
I0714 00:34:42.153249 25208 net.cpp:165] Memory required for data: 1195393536
I0714 00:34:42.153264 25208 layer_factory.hpp:76] Creating layer inception_4a/output_inception_4a/output_0_split
I0714 00:34:42.153278 25208 net.cpp:106] Creating Layer inception_4a/output_inception_4a/output_0_split
I0714 00:34:42.153287 25208 net.cpp:454] inception_4a/output_inception_4a/output_0_split <- inception_4a/output
I0714 00:34:42.153297 25208 net.cpp:411] inception_4a/output_inception_4a/output_0_split -> inception_4a/output_inception_4a/output_0_split_0
I0714 00:34:42.153308 25208 net.cpp:411] inception_4a/output_inception_4a/output_0_split -> inception_4a/output_inception_4a/output_0_split_1
I0714 00:34:42.153321 25208 net.cpp:411] inception_4a/output_inception_4a/output_0_split -> inception_4a/output_inception_4a/output_0_split_2
I0714 00:34:42.153334 25208 net.cpp:411] inception_4a/output_inception_4a/output_0_split -> inception_4a/output_inception_4a/output_0_split_3
I0714 00:34:42.153344 25208 net.cpp:411] inception_4a/output_inception_4a/output_0_split -> inception_4a/output_inception_4a/output_0_split_4
I0714 00:34:42.153429 25208 net.cpp:150] Setting up inception_4a/output_inception_4a/output_0_split
I0714 00:34:42.153442 25208 net.cpp:157] Top shape: 32 512 14 14 (3211264)
I0714 00:34:42.153451 25208 net.cpp:157] Top shape: 32 512 14 14 (3211264)
I0714 00:34:42.153460 25208 net.cpp:157] Top shape: 32 512 14 14 (3211264)
I0714 00:34:42.153468 25208 net.cpp:157] Top shape: 32 512 14 14 (3211264)
I0714 00:34:42.153476 25208 net.cpp:157] Top shape: 32 512 14 14 (3211264)
I0714 00:34:42.153484 25208 net.cpp:165] Memory required for data: 1259618816
I0714 00:34:42.153492 25208 layer_factory.hpp:76] Creating layer loss1/ave_pool
I0714 00:34:42.153508 25208 net.cpp:106] Creating Layer loss1/ave_pool
I0714 00:34:42.153543 25208 net.cpp:454] loss1/ave_pool <- inception_4a/output_inception_4a/output_0_split_0
I0714 00:34:42.153554 25208 net.cpp:411] loss1/ave_pool -> loss1/ave_pool
I0714 00:34:42.157656 25208 net.cpp:150] Setting up loss1/ave_pool
I0714 00:34:42.157678 25208 net.cpp:157] Top shape: 32 512 4 4 (262144)
I0714 00:34:42.157691 25208 net.cpp:165] Memory required for data: 1260667392
I0714 00:34:42.157698 25208 layer_factory.hpp:76] Creating layer loss1/conv
I0714 00:34:42.157711 25208 net.cpp:106] Creating Layer loss1/conv
I0714 00:34:42.157719 25208 net.cpp:454] loss1/conv <- loss1/ave_pool
I0714 00:34:42.157732 25208 net.cpp:411] loss1/conv -> loss1/conv
I0714 00:34:42.173486 25208 cudnn_conv_layer.cpp:194] Reallocating workspace storage: 6144
I0714 00:34:42.173521 25208 net.cpp:150] Setting up loss1/conv
I0714 00:34:42.173533 25208 net.cpp:157] Top shape: 32 128 4 4 (65536)
I0714 00:34:42.173542 25208 net.cpp:165] Memory required for data: 1260929536
I0714 00:34:42.173552 25208 layer_factory.hpp:76] Creating layer loss1/relu_conv
I0714 00:34:42.173573 25208 net.cpp:106] Creating Layer loss1/relu_conv
I0714 00:34:42.173583 25208 net.cpp:454] loss1/relu_conv <- loss1/conv
I0714 00:34:42.173593 25208 net.cpp:397] loss1/relu_conv -> loss1/conv (in-place)
I0714 00:34:42.177888 25208 net.cpp:150] Setting up loss1/relu_conv
I0714 00:34:42.177906 25208 net.cpp:157] Top shape: 32 128 4 4 (65536)
I0714 00:34:42.177916 25208 net.cpp:165] Memory required for data: 1261191680
I0714 00:34:42.177933 25208 layer_factory.hpp:76] Creating layer loss1/fc
I0714 00:34:42.177945 25208 net.cpp:106] Creating Layer loss1/fc
I0714 00:34:42.177953 25208 net.cpp:454] loss1/fc <- loss1/conv
I0714 00:34:42.177968 25208 net.cpp:411] loss1/fc -> loss1/fc
I0714 00:34:42.195901 25208 net.cpp:150] Setting up loss1/fc
I0714 00:34:42.195929 25208 net.cpp:157] Top shape: 32 1024 (32768)
I0714 00:34:42.195937 25208 net.cpp:165] Memory required for data: 1261322752
I0714 00:34:42.195950 25208 layer_factory.hpp:76] Creating layer loss1/relu_fc
I0714 00:34:42.195962 25208 net.cpp:106] Creating Layer loss1/relu_fc
I0714 00:34:42.195971 25208 net.cpp:454] loss1/relu_fc <- loss1/fc
I0714 00:34:42.195981 25208 net.cpp:397] loss1/relu_fc -> loss1/fc (in-place)
I0714 00:34:42.196391 25208 net.cpp:150] Setting up loss1/relu_fc
I0714 00:34:42.196410 25208 net.cpp:157] Top shape: 32 1024 (32768)
I0714 00:34:42.196419 25208 net.cpp:165] Memory required for data: 1261453824
I0714 00:34:42.196427 25208 layer_factory.hpp:76] Creating layer loss1/drop_fc
I0714 00:34:42.196451 25208 net.cpp:106] Creating Layer loss1/drop_fc
I0714 00:34:42.196461 25208 net.cpp:454] loss1/drop_fc <- loss1/fc
I0714 00:34:42.196471 25208 net.cpp:397] loss1/drop_fc -> loss1/fc (in-place)
I0714 00:34:42.196513 25208 net.cpp:150] Setting up loss1/drop_fc
I0714 00:34:42.196526 25208 net.cpp:157] Top shape: 32 1024 (32768)
I0714 00:34:42.196533 25208 net.cpp:165] Memory required for data: 1261584896
I0714 00:34:42.196542 25208 layer_factory.hpp:76] Creating layer loss1/classifier
I0714 00:34:42.196558 25208 net.cpp:106] Creating Layer loss1/classifier
I0714 00:34:42.196566 25208 net.cpp:454] loss1/classifier <- loss1/fc
I0714 00:34:42.196575 25208 net.cpp:411] loss1/classifier -> loss1/classifier
I0714 00:34:42.196704 25208 net.cpp:150] Setting up loss1/classifier
I0714 00:34:42.196718 25208 net.cpp:157] Top shape: 32 2 (64)
I0714 00:34:42.196730 25208 net.cpp:165] Memory required for data: 1261585152
I0714 00:34:42.196741 25208 layer_factory.hpp:76] Creating layer loss1/loss
I0714 00:34:42.196756 25208 net.cpp:106] Creating Layer loss1/loss
I0714 00:34:42.196764 25208 net.cpp:454] loss1/loss <- loss1/classifier
I0714 00:34:42.196774 25208 net.cpp:454] loss1/loss <- label_data_1_split_0
I0714 00:34:42.196785 25208 net.cpp:411] loss1/loss -> loss1/loss1
I0714 00:34:42.196810 25208 layer_factory.hpp:76] Creating layer loss1/loss
I0714 00:34:42.202050 25208 net.cpp:150] Setting up loss1/loss
I0714 00:34:42.202069 25208 net.cpp:157] Top shape: (1)
I0714 00:34:42.202095 25208 net.cpp:160]     with loss weight 0.3
I0714 00:34:42.202123 25208 net.cpp:165] Memory required for data: 1261585156
I0714 00:34:42.202131 25208 layer_factory.hpp:76] Creating layer inception_4b/1x1
I0714 00:34:42.202149 25208 net.cpp:106] Creating Layer inception_4b/1x1
I0714 00:34:42.202158 25208 net.cpp:454] inception_4b/1x1 <- inception_4a/output_inception_4a/output_0_split_1
I0714 00:34:42.202172 25208 net.cpp:411] inception_4b/1x1 -> inception_4b/1x1
I0714 00:34:42.214999 25208 cudnn_conv_layer.cpp:194] Reallocating workspace storage: 6144
I0714 00:34:42.215032 25208 net.cpp:150] Setting up inception_4b/1x1
I0714 00:34:42.215044 25208 net.cpp:157] Top shape: 32 160 14 14 (1003520)
I0714 00:34:42.215054 25208 net.cpp:165] Memory required for data: 1265599236
I0714 00:34:42.215065 25208 layer_factory.hpp:76] Creating layer inception_4b/relu_1x1
I0714 00:34:42.215083 25208 net.cpp:106] Creating Layer inception_4b/relu_1x1
I0714 00:34:42.215092 25208 net.cpp:454] inception_4b/relu_1x1 <- inception_4b/1x1
I0714 00:34:42.215102 25208 net.cpp:397] inception_4b/relu_1x1 -> inception_4b/1x1 (in-place)
I0714 00:34:42.219116 25208 net.cpp:150] Setting up inception_4b/relu_1x1
I0714 00:34:42.219136 25208 net.cpp:157] Top shape: 32 160 14 14 (1003520)
I0714 00:34:42.219146 25208 net.cpp:165] Memory required for data: 1269613316
I0714 00:34:42.219156 25208 layer_factory.hpp:76] Creating layer inception_4b/3x3_reduce
I0714 00:34:42.219172 25208 net.cpp:106] Creating Layer inception_4b/3x3_reduce
I0714 00:34:42.219182 25208 net.cpp:454] inception_4b/3x3_reduce <- inception_4a/output_inception_4a/output_0_split_2
I0714 00:34:42.219194 25208 net.cpp:411] inception_4b/3x3_reduce -> inception_4b/3x3_reduce
I0714 00:34:42.236495 25208 cudnn_conv_layer.cpp:194] Reallocating workspace storage: 6144
I0714 00:34:42.236527 25208 net.cpp:150] Setting up inception_4b/3x3_reduce
I0714 00:34:42.236539 25208 net.cpp:157] Top shape: 32 112 14 14 (702464)
I0714 00:34:42.236547 25208 net.cpp:165] Memory required for data: 1272423172
I0714 00:34:42.236559 25208 layer_factory.hpp:76] Creating layer inception_4b/relu_3x3_reduce
I0714 00:34:42.236572 25208 net.cpp:106] Creating Layer inception_4b/relu_3x3_reduce
I0714 00:34:42.236583 25208 net.cpp:454] inception_4b/relu_3x3_reduce <- inception_4b/3x3_reduce
I0714 00:34:42.236593 25208 net.cpp:397] inception_4b/relu_3x3_reduce -> inception_4b/3x3_reduce (in-place)
I0714 00:34:42.242457 25208 net.cpp:150] Setting up inception_4b/relu_3x3_reduce
I0714 00:34:42.242477 25208 net.cpp:157] Top shape: 32 112 14 14 (702464)
I0714 00:34:42.242486 25208 net.cpp:165] Memory required for data: 1275233028
I0714 00:34:42.242494 25208 layer_factory.hpp:76] Creating layer inception_4b/3x3
I0714 00:34:42.242511 25208 net.cpp:106] Creating Layer inception_4b/3x3
I0714 00:34:42.242525 25208 net.cpp:454] inception_4b/3x3 <- inception_4b/3x3_reduce
I0714 00:34:42.242537 25208 net.cpp:411] inception_4b/3x3 -> inception_4b/3x3
I0714 00:34:42.257712 25208 cudnn_conv_layer.cpp:194] Reallocating workspace storage: 12096
I0714 00:34:42.257750 25208 net.cpp:150] Setting up inception_4b/3x3
I0714 00:34:42.257762 25208 net.cpp:157] Top shape: 32 224 14 14 (1404928)
I0714 00:34:42.257771 25208 net.cpp:165] Memory required for data: 1280852740
I0714 00:34:42.257782 25208 layer_factory.hpp:76] Creating layer inception_4b/relu_3x3
I0714 00:34:42.257797 25208 net.cpp:106] Creating Layer inception_4b/relu_3x3
I0714 00:34:42.257805 25208 net.cpp:454] inception_4b/relu_3x3 <- inception_4b/3x3
I0714 00:34:42.257817 25208 net.cpp:397] inception_4b/relu_3x3 -> inception_4b/3x3 (in-place)
I0714 00:34:42.263031 25208 net.cpp:150] Setting up inception_4b/relu_3x3
I0714 00:34:42.263048 25208 net.cpp:157] Top shape: 32 224 14 14 (1404928)
I0714 00:34:42.263057 25208 net.cpp:165] Memory required for data: 1286472452
I0714 00:34:42.263065 25208 layer_factory.hpp:76] Creating layer inception_4b/5x5_reduce
I0714 00:34:42.263082 25208 net.cpp:106] Creating Layer inception_4b/5x5_reduce
I0714 00:34:42.263092 25208 net.cpp:454] inception_4b/5x5_reduce <- inception_4a/output_inception_4a/output_0_split_3
I0714 00:34:42.263123 25208 net.cpp:411] inception_4b/5x5_reduce -> inception_4b/5x5_reduce
I0714 00:34:42.278517 25208 net.cpp:150] Setting up inception_4b/5x5_reduce
I0714 00:34:42.278542 25208 net.cpp:157] Top shape: 32 24 14 14 (150528)
I0714 00:34:42.278551 25208 net.cpp:165] Memory required for data: 1287074564
I0714 00:34:42.278563 25208 layer_factory.hpp:76] Creating layer inception_4b/relu_5x5_reduce
I0714 00:34:42.278573 25208 net.cpp:106] Creating Layer inception_4b/relu_5x5_reduce
I0714 00:34:42.278583 25208 net.cpp:454] inception_4b/relu_5x5_reduce <- inception_4b/5x5_reduce
I0714 00:34:42.278594 25208 net.cpp:397] inception_4b/relu_5x5_reduce -> inception_4b/5x5_reduce (in-place)
I0714 00:34:42.283745 25208 net.cpp:150] Setting up inception_4b/relu_5x5_reduce
I0714 00:34:42.283764 25208 net.cpp:157] Top shape: 32 24 14 14 (150528)
I0714 00:34:42.283772 25208 net.cpp:165] Memory required for data: 1287676676
I0714 00:34:42.283782 25208 layer_factory.hpp:76] Creating layer inception_4b/5x5
I0714 00:34:42.283797 25208 net.cpp:106] Creating Layer inception_4b/5x5
I0714 00:34:42.283807 25208 net.cpp:454] inception_4b/5x5 <- inception_4b/5x5_reduce
I0714 00:34:42.283819 25208 net.cpp:411] inception_4b/5x5 -> inception_4b/5x5
I0714 00:34:42.299635 25208 net.cpp:150] Setting up inception_4b/5x5
I0714 00:34:42.299656 25208 net.cpp:157] Top shape: 32 64 14 14 (401408)
I0714 00:34:42.299665 25208 net.cpp:165] Memory required for data: 1289282308
I0714 00:34:42.299677 25208 layer_factory.hpp:76] Creating layer inception_4b/relu_5x5
I0714 00:34:42.299693 25208 net.cpp:106] Creating Layer inception_4b/relu_5x5
I0714 00:34:42.299702 25208 net.cpp:454] inception_4b/relu_5x5 <- inception_4b/5x5
I0714 00:34:42.299712 25208 net.cpp:397] inception_4b/relu_5x5 -> inception_4b/5x5 (in-place)
I0714 00:34:42.304332 25208 net.cpp:150] Setting up inception_4b/relu_5x5
I0714 00:34:42.304352 25208 net.cpp:157] Top shape: 32 64 14 14 (401408)
I0714 00:34:42.304361 25208 net.cpp:165] Memory required for data: 1290887940
I0714 00:34:42.304374 25208 layer_factory.hpp:76] Creating layer inception_4b/pool
I0714 00:34:42.304388 25208 net.cpp:106] Creating Layer inception_4b/pool
I0714 00:34:42.304399 25208 net.cpp:454] inception_4b/pool <- inception_4a/output_inception_4a/output_0_split_4
I0714 00:34:42.304410 25208 net.cpp:411] inception_4b/pool -> inception_4b/pool
I0714 00:34:42.310572 25208 net.cpp:150] Setting up inception_4b/pool
I0714 00:34:42.310593 25208 net.cpp:157] Top shape: 32 512 14 14 (3211264)
I0714 00:34:42.310602 25208 net.cpp:165] Memory required for data: 1303732996
I0714 00:34:42.310611 25208 layer_factory.hpp:76] Creating layer inception_4b/pool_proj
I0714 00:34:42.310631 25208 net.cpp:106] Creating Layer inception_4b/pool_proj
I0714 00:34:42.310653 25208 net.cpp:454] inception_4b/pool_proj <- inception_4b/pool
I0714 00:34:42.310667 25208 net.cpp:411] inception_4b/pool_proj -> inception_4b/pool_proj
I0714 00:34:42.325114 25208 cudnn_conv_layer.cpp:194] Reallocating workspace storage: 6144
I0714 00:34:42.325160 25208 net.cpp:150] Setting up inception_4b/pool_proj
I0714 00:34:42.325173 25208 net.cpp:157] Top shape: 32 64 14 14 (401408)
I0714 00:34:42.325181 25208 net.cpp:165] Memory required for data: 1305338628
I0714 00:34:42.325192 25208 layer_factory.hpp:76] Creating layer inception_4b/relu_pool_proj
I0714 00:34:42.325208 25208 net.cpp:106] Creating Layer inception_4b/relu_pool_proj
I0714 00:34:42.325218 25208 net.cpp:454] inception_4b/relu_pool_proj <- inception_4b/pool_proj
I0714 00:34:42.325227 25208 net.cpp:397] inception_4b/relu_pool_proj -> inception_4b/pool_proj (in-place)
I0714 00:34:42.330279 25208 net.cpp:150] Setting up inception_4b/relu_pool_proj
I0714 00:34:42.330301 25208 net.cpp:157] Top shape: 32 64 14 14 (401408)
I0714 00:34:42.330309 25208 net.cpp:165] Memory required for data: 1306944260
I0714 00:34:42.330318 25208 layer_factory.hpp:76] Creating layer inception_4b/output
I0714 00:34:42.330333 25208 net.cpp:106] Creating Layer inception_4b/output
I0714 00:34:42.330356 25208 net.cpp:454] inception_4b/output <- inception_4b/1x1
I0714 00:34:42.330366 25208 net.cpp:454] inception_4b/output <- inception_4b/3x3
I0714 00:34:42.330375 25208 net.cpp:454] inception_4b/output <- inception_4b/5x5
I0714 00:34:42.330384 25208 net.cpp:454] inception_4b/output <- inception_4b/pool_proj
I0714 00:34:42.330394 25208 net.cpp:411] inception_4b/output -> inception_4b/output
I0714 00:34:42.330435 25208 net.cpp:150] Setting up inception_4b/output
I0714 00:34:42.330447 25208 net.cpp:157] Top shape: 32 512 14 14 (3211264)
I0714 00:34:42.330456 25208 net.cpp:165] Memory required for data: 1319789316
I0714 00:34:42.330466 25208 layer_factory.hpp:76] Creating layer inception_4b/output_inception_4b/output_0_split
I0714 00:34:42.330476 25208 net.cpp:106] Creating Layer inception_4b/output_inception_4b/output_0_split
I0714 00:34:42.330485 25208 net.cpp:454] inception_4b/output_inception_4b/output_0_split <- inception_4b/output
I0714 00:34:42.330497 25208 net.cpp:411] inception_4b/output_inception_4b/output_0_split -> inception_4b/output_inception_4b/output_0_split_0
I0714 00:34:42.330512 25208 net.cpp:411] inception_4b/output_inception_4b/output_0_split -> inception_4b/output_inception_4b/output_0_split_1
I0714 00:34:42.330523 25208 net.cpp:411] inception_4b/output_inception_4b/output_0_split -> inception_4b/output_inception_4b/output_0_split_2
I0714 00:34:42.330533 25208 net.cpp:411] inception_4b/output_inception_4b/output_0_split -> inception_4b/output_inception_4b/output_0_split_3
I0714 00:34:42.330605 25208 net.cpp:150] Setting up inception_4b/output_inception_4b/output_0_split
I0714 00:34:42.330617 25208 net.cpp:157] Top shape: 32 512 14 14 (3211264)
I0714 00:34:42.330657 25208 net.cpp:157] Top shape: 32 512 14 14 (3211264)
I0714 00:34:42.330667 25208 net.cpp:157] Top shape: 32 512 14 14 (3211264)
I0714 00:34:42.330677 25208 net.cpp:157] Top shape: 32 512 14 14 (3211264)
I0714 00:34:42.330685 25208 net.cpp:165] Memory required for data: 1371169540
I0714 00:34:42.330695 25208 layer_factory.hpp:76] Creating layer inception_4c/1x1
I0714 00:34:42.330708 25208 net.cpp:106] Creating Layer inception_4c/1x1
I0714 00:34:42.330718 25208 net.cpp:454] inception_4c/1x1 <- inception_4b/output_inception_4b/output_0_split_0
I0714 00:34:42.330741 25208 net.cpp:411] inception_4c/1x1 -> inception_4c/1x1
I0714 00:34:42.345679 25208 cudnn_conv_layer.cpp:194] Reallocating workspace storage: 6144
I0714 00:34:42.345711 25208 net.cpp:150] Setting up inception_4c/1x1
I0714 00:34:42.345723 25208 net.cpp:157] Top shape: 32 128 14 14 (802816)
I0714 00:34:42.345733 25208 net.cpp:165] Memory required for data: 1374380804
I0714 00:34:42.345746 25208 layer_factory.hpp:76] Creating layer inception_4c/relu_1x1
I0714 00:34:42.345760 25208 net.cpp:106] Creating Layer inception_4c/relu_1x1
I0714 00:34:42.345769 25208 net.cpp:454] inception_4c/relu_1x1 <- inception_4c/1x1
I0714 00:34:42.345779 25208 net.cpp:397] inception_4c/relu_1x1 -> inception_4c/1x1 (in-place)
I0714 00:34:42.352037 25208 net.cpp:150] Setting up inception_4c/relu_1x1
I0714 00:34:42.352056 25208 net.cpp:157] Top shape: 32 128 14 14 (802816)
I0714 00:34:42.352064 25208 net.cpp:165] Memory required for data: 1377592068
I0714 00:34:42.352072 25208 layer_factory.hpp:76] Creating layer inception_4c/3x3_reduce
I0714 00:34:42.352087 25208 net.cpp:106] Creating Layer inception_4c/3x3_reduce
I0714 00:34:42.352097 25208 net.cpp:454] inception_4c/3x3_reduce <- inception_4b/output_inception_4b/output_0_split_1
I0714 00:34:42.352110 25208 net.cpp:411] inception_4c/3x3_reduce -> inception_4c/3x3_reduce
I0714 00:34:42.367590 25208 cudnn_conv_layer.cpp:194] Reallocating workspace storage: 6144
I0714 00:34:42.367630 25208 net.cpp:150] Setting up inception_4c/3x3_reduce
I0714 00:34:42.367642 25208 net.cpp:157] Top shape: 32 128 14 14 (802816)
I0714 00:34:42.367650 25208 net.cpp:165] Memory required for data: 1380803332
I0714 00:34:42.367665 25208 layer_factory.hpp:76] Creating layer inception_4c/relu_3x3_reduce
I0714 00:34:42.367677 25208 net.cpp:106] Creating Layer inception_4c/relu_3x3_reduce
I0714 00:34:42.367699 25208 net.cpp:454] inception_4c/relu_3x3_reduce <- inception_4c/3x3_reduce
I0714 00:34:42.367712 25208 net.cpp:397] inception_4c/relu_3x3_reduce -> inception_4c/3x3_reduce (in-place)
I0714 00:34:42.372083 25208 net.cpp:150] Setting up inception_4c/relu_3x3_reduce
I0714 00:34:42.372102 25208 net.cpp:157] Top shape: 32 128 14 14 (802816)
I0714 00:34:42.372112 25208 net.cpp:165] Memory required for data: 1384014596
I0714 00:34:42.372120 25208 layer_factory.hpp:76] Creating layer inception_4c/3x3
I0714 00:34:42.372138 25208 net.cpp:106] Creating Layer inception_4c/3x3
I0714 00:34:42.372146 25208 net.cpp:454] inception_4c/3x3 <- inception_4c/3x3_reduce
I0714 00:34:42.372158 25208 net.cpp:411] inception_4c/3x3 -> inception_4c/3x3
I0714 00:34:42.383909 25208 net.cpp:150] Setting up inception_4c/3x3
I0714 00:34:42.383932 25208 net.cpp:157] Top shape: 32 256 14 14 (1605632)
I0714 00:34:42.383941 25208 net.cpp:165] Memory required for data: 1390437124
I0714 00:34:42.383967 25208 layer_factory.hpp:76] Creating layer inception_4c/relu_3x3
I0714 00:34:42.383980 25208 net.cpp:106] Creating Layer inception_4c/relu_3x3
I0714 00:34:42.383990 25208 net.cpp:454] inception_4c/relu_3x3 <- inception_4c/3x3
I0714 00:34:42.383999 25208 net.cpp:397] inception_4c/relu_3x3 -> inception_4c/3x3 (in-place)
I0714 00:34:42.386940 25208 net.cpp:150] Setting up inception_4c/relu_3x3
I0714 00:34:42.386960 25208 net.cpp:157] Top shape: 32 256 14 14 (1605632)
I0714 00:34:42.386970 25208 net.cpp:165] Memory required for data: 1396859652
I0714 00:34:42.386978 25208 layer_factory.hpp:76] Creating layer inception_4c/5x5_reduce
I0714 00:34:42.386996 25208 net.cpp:106] Creating Layer inception_4c/5x5_reduce
I0714 00:34:42.387006 25208 net.cpp:454] inception_4c/5x5_reduce <- inception_4b/output_inception_4b/output_0_split_2
I0714 00:34:42.387017 25208 net.cpp:411] inception_4c/5x5_reduce -> inception_4c/5x5_reduce
I0714 00:34:42.396415 25208 net.cpp:150] Setting up inception_4c/5x5_reduce
I0714 00:34:42.396437 25208 net.cpp:157] Top shape: 32 24 14 14 (150528)
I0714 00:34:42.396451 25208 net.cpp:165] Memory required for data: 1397461764
I0714 00:34:42.396462 25208 layer_factory.hpp:76] Creating layer inception_4c/relu_5x5_reduce
I0714 00:34:42.396481 25208 net.cpp:106] Creating Layer inception_4c/relu_5x5_reduce
I0714 00:34:42.396491 25208 net.cpp:454] inception_4c/relu_5x5_reduce <- inception_4c/5x5_reduce
I0714 00:34:42.396500 25208 net.cpp:397] inception_4c/relu_5x5_reduce -> inception_4c/5x5_reduce (in-place)
I0714 00:34:42.399493 25208 net.cpp:150] Setting up inception_4c/relu_5x5_reduce
I0714 00:34:42.399512 25208 net.cpp:157] Top shape: 32 24 14 14 (150528)
I0714 00:34:42.399524 25208 net.cpp:165] Memory required for data: 1398063876
I0714 00:34:42.399533 25208 layer_factory.hpp:76] Creating layer inception_4c/5x5
I0714 00:34:42.399551 25208 net.cpp:106] Creating Layer inception_4c/5x5
I0714 00:34:42.399564 25208 net.cpp:454] inception_4c/5x5 <- inception_4c/5x5_reduce
I0714 00:34:42.399575 25208 net.cpp:411] inception_4c/5x5 -> inception_4c/5x5
I0714 00:34:42.413100 25208 net.cpp:150] Setting up inception_4c/5x5
I0714 00:34:42.413125 25208 net.cpp:157] Top shape: 32 64 14 14 (401408)
I0714 00:34:42.413135 25208 net.cpp:165] Memory required for data: 1399669508
I0714 00:34:42.413146 25208 layer_factory.hpp:76] Creating layer inception_4c/relu_5x5
I0714 00:34:42.413157 25208 net.cpp:106] Creating Layer inception_4c/relu_5x5
I0714 00:34:42.413166 25208 net.cpp:454] inception_4c/relu_5x5 <- inception_4c/5x5
I0714 00:34:42.413175 25208 net.cpp:397] inception_4c/relu_5x5 -> inception_4c/5x5 (in-place)
I0714 00:34:42.431090 25208 net.cpp:150] Setting up inception_4c/relu_5x5
I0714 00:34:42.431109 25208 net.cpp:157] Top shape: 32 64 14 14 (401408)
I0714 00:34:42.431121 25208 net.cpp:165] Memory required for data: 1401275140
I0714 00:34:42.431130 25208 layer_factory.hpp:76] Creating layer inception_4c/pool
I0714 00:34:42.431144 25208 net.cpp:106] Creating Layer inception_4c/pool
I0714 00:34:42.431167 25208 net.cpp:454] inception_4c/pool <- inception_4b/output_inception_4b/output_0_split_3
I0714 00:34:42.431180 25208 net.cpp:411] inception_4c/pool -> inception_4c/pool
I0714 00:34:42.435434 25208 net.cpp:150] Setting up inception_4c/pool
I0714 00:34:42.435456 25208 net.cpp:157] Top shape: 32 512 14 14 (3211264)
I0714 00:34:42.435464 25208 net.cpp:165] Memory required for data: 1414120196
I0714 00:34:42.435475 25208 layer_factory.hpp:76] Creating layer inception_4c/pool_proj
I0714 00:34:42.435492 25208 net.cpp:106] Creating Layer inception_4c/pool_proj
I0714 00:34:42.435502 25208 net.cpp:454] inception_4c/pool_proj <- inception_4c/pool
I0714 00:34:42.435515 25208 net.cpp:411] inception_4c/pool_proj -> inception_4c/pool_proj
I0714 00:34:42.449419 25208 cudnn_conv_layer.cpp:194] Reallocating workspace storage: 6144
I0714 00:34:42.449455 25208 net.cpp:150] Setting up inception_4c/pool_proj
I0714 00:34:42.449468 25208 net.cpp:157] Top shape: 32 64 14 14 (401408)
I0714 00:34:42.449481 25208 net.cpp:165] Memory required for data: 1415725828
I0714 00:34:42.449491 25208 layer_factory.hpp:76] Creating layer inception_4c/relu_pool_proj
I0714 00:34:42.449506 25208 net.cpp:106] Creating Layer inception_4c/relu_pool_proj
I0714 00:34:42.449515 25208 net.cpp:454] inception_4c/relu_pool_proj <- inception_4c/pool_proj
I0714 00:34:42.449534 25208 net.cpp:397] inception_4c/relu_pool_proj -> inception_4c/pool_proj (in-place)
I0714 00:34:42.453577 25208 net.cpp:150] Setting up inception_4c/relu_pool_proj
I0714 00:34:42.453598 25208 net.cpp:157] Top shape: 32 64 14 14 (401408)
I0714 00:34:42.453608 25208 net.cpp:165] Memory required for data: 1417331460
I0714 00:34:42.453615 25208 layer_factory.hpp:76] Creating layer inception_4c/output
I0714 00:34:42.453629 25208 net.cpp:106] Creating Layer inception_4c/output
I0714 00:34:42.453639 25208 net.cpp:454] inception_4c/output <- inception_4c/1x1
I0714 00:34:42.453647 25208 net.cpp:454] inception_4c/output <- inception_4c/3x3
I0714 00:34:42.453656 25208 net.cpp:454] inception_4c/output <- inception_4c/5x5
I0714 00:34:42.453665 25208 net.cpp:454] inception_4c/output <- inception_4c/pool_proj
I0714 00:34:42.453675 25208 net.cpp:411] inception_4c/output -> inception_4c/output
I0714 00:34:42.453716 25208 net.cpp:150] Setting up inception_4c/output
I0714 00:34:42.453732 25208 net.cpp:157] Top shape: 32 512 14 14 (3211264)
I0714 00:34:42.453742 25208 net.cpp:165] Memory required for data: 1430176516
I0714 00:34:42.453749 25208 layer_factory.hpp:76] Creating layer inception_4c/output_inception_4c/output_0_split
I0714 00:34:42.453761 25208 net.cpp:106] Creating Layer inception_4c/output_inception_4c/output_0_split
I0714 00:34:42.453770 25208 net.cpp:454] inception_4c/output_inception_4c/output_0_split <- inception_4c/output
I0714 00:34:42.453783 25208 net.cpp:411] inception_4c/output_inception_4c/output_0_split -> inception_4c/output_inception_4c/output_0_split_0
I0714 00:34:42.453795 25208 net.cpp:411] inception_4c/output_inception_4c/output_0_split -> inception_4c/output_inception_4c/output_0_split_1
I0714 00:34:42.453805 25208 net.cpp:411] inception_4c/output_inception_4c/output_0_split -> inception_4c/output_inception_4c/output_0_split_2
I0714 00:34:42.453816 25208 net.cpp:411] inception_4c/output_inception_4c/output_0_split -> inception_4c/output_inception_4c/output_0_split_3
I0714 00:34:42.453891 25208 net.cpp:150] Setting up inception_4c/output_inception_4c/output_0_split
I0714 00:34:42.453903 25208 net.cpp:157] Top shape: 32 512 14 14 (3211264)
I0714 00:34:42.453912 25208 net.cpp:157] Top shape: 32 512 14 14 (3211264)
I0714 00:34:42.453922 25208 net.cpp:157] Top shape: 32 512 14 14 (3211264)
I0714 00:34:42.453933 25208 net.cpp:157] Top shape: 32 512 14 14 (3211264)
I0714 00:34:42.453953 25208 net.cpp:165] Memory required for data: 1481556740
I0714 00:34:42.453963 25208 layer_factory.hpp:76] Creating layer inception_4d/1x1
I0714 00:34:42.453977 25208 net.cpp:106] Creating Layer inception_4d/1x1
I0714 00:34:42.453986 25208 net.cpp:454] inception_4d/1x1 <- inception_4c/output_inception_4c/output_0_split_0
I0714 00:34:42.454011 25208 net.cpp:411] inception_4d/1x1 -> inception_4d/1x1
I0714 00:34:42.467955 25208 cudnn_conv_layer.cpp:194] Reallocating workspace storage: 6144
I0714 00:34:42.467989 25208 net.cpp:150] Setting up inception_4d/1x1
I0714 00:34:42.468003 25208 net.cpp:157] Top shape: 32 112 14 14 (702464)
I0714 00:34:42.468011 25208 net.cpp:165] Memory required for data: 1484366596
I0714 00:34:42.468022 25208 layer_factory.hpp:76] Creating layer inception_4d/relu_1x1
I0714 00:34:42.468044 25208 net.cpp:106] Creating Layer inception_4d/relu_1x1
I0714 00:34:42.468053 25208 net.cpp:454] inception_4d/relu_1x1 <- inception_4d/1x1
I0714 00:34:42.468063 25208 net.cpp:397] inception_4d/relu_1x1 -> inception_4d/1x1 (in-place)
I0714 00:34:42.472122 25208 net.cpp:150] Setting up inception_4d/relu_1x1
I0714 00:34:42.472142 25208 net.cpp:157] Top shape: 32 112 14 14 (702464)
I0714 00:34:42.472151 25208 net.cpp:165] Memory required for data: 1487176452
I0714 00:34:42.472160 25208 layer_factory.hpp:76] Creating layer inception_4d/3x3_reduce
I0714 00:34:42.472183 25208 net.cpp:106] Creating Layer inception_4d/3x3_reduce
I0714 00:34:42.472193 25208 net.cpp:454] inception_4d/3x3_reduce <- inception_4c/output_inception_4c/output_0_split_1
I0714 00:34:42.472204 25208 net.cpp:411] inception_4d/3x3_reduce -> inception_4d/3x3_reduce
I0714 00:34:42.487306 25208 cudnn_conv_layer.cpp:194] Reallocating workspace storage: 6144
I0714 00:34:42.487340 25208 net.cpp:150] Setting up inception_4d/3x3_reduce
I0714 00:34:42.487354 25208 net.cpp:157] Top shape: 32 144 14 14 (903168)
I0714 00:34:42.487362 25208 net.cpp:165] Memory required for data: 1490789124
I0714 00:34:42.487373 25208 layer_factory.hpp:76] Creating layer inception_4d/relu_3x3_reduce
I0714 00:34:42.487393 25208 net.cpp:106] Creating Layer inception_4d/relu_3x3_reduce
I0714 00:34:42.487403 25208 net.cpp:454] inception_4d/relu_3x3_reduce <- inception_4d/3x3_reduce
I0714 00:34:42.487414 25208 net.cpp:397] inception_4d/relu_3x3_reduce -> inception_4d/3x3_reduce (in-place)
I0714 00:34:42.492709 25208 net.cpp:150] Setting up inception_4d/relu_3x3_reduce
I0714 00:34:42.492730 25208 net.cpp:157] Top shape: 32 144 14 14 (903168)
I0714 00:34:42.492741 25208 net.cpp:165] Memory required for data: 1494401796
I0714 00:34:42.492751 25208 layer_factory.hpp:76] Creating layer inception_4d/3x3
I0714 00:34:42.492769 25208 net.cpp:106] Creating Layer inception_4d/3x3
I0714 00:34:42.492779 25208 net.cpp:454] inception_4d/3x3 <- inception_4d/3x3_reduce
I0714 00:34:42.492790 25208 net.cpp:411] inception_4d/3x3 -> inception_4d/3x3
I0714 00:34:42.507122 25208 cudnn_conv_layer.cpp:194] Reallocating workspace storage: 15552
I0714 00:34:42.507158 25208 net.cpp:150] Setting up inception_4d/3x3
I0714 00:34:42.507171 25208 net.cpp:157] Top shape: 32 288 14 14 (1806336)
I0714 00:34:42.507180 25208 net.cpp:165] Memory required for data: 1501627140
I0714 00:34:42.507191 25208 layer_factory.hpp:76] Creating layer inception_4d/relu_3x3
I0714 00:34:42.507215 25208 net.cpp:106] Creating Layer inception_4d/relu_3x3
I0714 00:34:42.507225 25208 net.cpp:454] inception_4d/relu_3x3 <- inception_4d/3x3
I0714 00:34:42.507237 25208 net.cpp:397] inception_4d/relu_3x3 -> inception_4d/3x3 (in-place)
I0714 00:34:42.512351 25208 net.cpp:150] Setting up inception_4d/relu_3x3
I0714 00:34:42.512369 25208 net.cpp:157] Top shape: 32 288 14 14 (1806336)
I0714 00:34:42.512380 25208 net.cpp:165] Memory required for data: 1508852484
I0714 00:34:42.512388 25208 layer_factory.hpp:76] Creating layer inception_4d/5x5_reduce
I0714 00:34:42.512405 25208 net.cpp:106] Creating Layer inception_4d/5x5_reduce
I0714 00:34:42.512415 25208 net.cpp:454] inception_4d/5x5_reduce <- inception_4c/output_inception_4c/output_0_split_2
I0714 00:34:42.512429 25208 net.cpp:411] inception_4d/5x5_reduce -> inception_4d/5x5_reduce
I0714 00:34:42.526451 25208 net.cpp:150] Setting up inception_4d/5x5_reduce
I0714 00:34:42.526473 25208 net.cpp:157] Top shape: 32 32 14 14 (200704)
I0714 00:34:42.526484 25208 net.cpp:165] Memory required for data: 1509655300
I0714 00:34:42.526510 25208 layer_factory.hpp:76] Creating layer inception_4d/relu_5x5_reduce
I0714 00:34:42.526526 25208 net.cpp:106] Creating Layer inception_4d/relu_5x5_reduce
I0714 00:34:42.526535 25208 net.cpp:454] inception_4d/relu_5x5_reduce <- inception_4d/5x5_reduce
I0714 00:34:42.526546 25208 net.cpp:397] inception_4d/relu_5x5_reduce -> inception_4d/5x5_reduce (in-place)
I0714 00:34:42.531702 25208 net.cpp:150] Setting up inception_4d/relu_5x5_reduce
I0714 00:34:42.531723 25208 net.cpp:157] Top shape: 32 32 14 14 (200704)
I0714 00:34:42.531733 25208 net.cpp:165] Memory required for data: 1510458116
I0714 00:34:42.531744 25208 layer_factory.hpp:76] Creating layer inception_4d/5x5
I0714 00:34:42.531762 25208 net.cpp:106] Creating Layer inception_4d/5x5
I0714 00:34:42.531772 25208 net.cpp:454] inception_4d/5x5 <- inception_4d/5x5_reduce
I0714 00:34:42.531785 25208 net.cpp:411] inception_4d/5x5 -> inception_4d/5x5
I0714 00:34:42.547801 25208 net.cpp:150] Setting up inception_4d/5x5
I0714 00:34:42.547822 25208 net.cpp:157] Top shape: 32 64 14 14 (401408)
I0714 00:34:42.547833 25208 net.cpp:165] Memory required for data: 1512063748
I0714 00:34:42.547844 25208 layer_factory.hpp:76] Creating layer inception_4d/relu_5x5
I0714 00:34:42.547861 25208 net.cpp:106] Creating Layer inception_4d/relu_5x5
I0714 00:34:42.547871 25208 net.cpp:454] inception_4d/relu_5x5 <- inception_4d/5x5
I0714 00:34:42.547881 25208 net.cpp:397] inception_4d/relu_5x5 -> inception_4d/5x5 (in-place)
I0714 00:34:42.553037 25208 net.cpp:150] Setting up inception_4d/relu_5x5
I0714 00:34:42.553058 25208 net.cpp:157] Top shape: 32 64 14 14 (401408)
I0714 00:34:42.553067 25208 net.cpp:165] Memory required for data: 1513669380
I0714 00:34:42.553076 25208 layer_factory.hpp:76] Creating layer inception_4d/pool
I0714 00:34:42.553091 25208 net.cpp:106] Creating Layer inception_4d/pool
I0714 00:34:42.553112 25208 net.cpp:454] inception_4d/pool <- inception_4c/output_inception_4c/output_0_split_3
I0714 00:34:42.553122 25208 net.cpp:411] inception_4d/pool -> inception_4d/pool
I0714 00:34:42.558388 25208 net.cpp:150] Setting up inception_4d/pool
I0714 00:34:42.558409 25208 net.cpp:157] Top shape: 32 512 14 14 (3211264)
I0714 00:34:42.558418 25208 net.cpp:165] Memory required for data: 1526514436
I0714 00:34:42.558426 25208 layer_factory.hpp:76] Creating layer inception_4d/pool_proj
I0714 00:34:42.558454 25208 net.cpp:106] Creating Layer inception_4d/pool_proj
I0714 00:34:42.558464 25208 net.cpp:454] inception_4d/pool_proj <- inception_4d/pool
I0714 00:34:42.558475 25208 net.cpp:411] inception_4d/pool_proj -> inception_4d/pool_proj
I0714 00:34:42.573401 25208 cudnn_conv_layer.cpp:194] Reallocating workspace storage: 6144
I0714 00:34:42.573442 25208 net.cpp:150] Setting up inception_4d/pool_proj
I0714 00:34:42.573456 25208 net.cpp:157] Top shape: 32 64 14 14 (401408)
I0714 00:34:42.573475 25208 net.cpp:165] Memory required for data: 1528120068
I0714 00:34:42.573488 25208 layer_factory.hpp:76] Creating layer inception_4d/relu_pool_proj
I0714 00:34:42.573503 25208 net.cpp:106] Creating Layer inception_4d/relu_pool_proj
I0714 00:34:42.573513 25208 net.cpp:454] inception_4d/relu_pool_proj <- inception_4d/pool_proj
I0714 00:34:42.573523 25208 net.cpp:397] inception_4d/relu_pool_proj -> inception_4d/pool_proj (in-place)
I0714 00:34:42.578608 25208 net.cpp:150] Setting up inception_4d/relu_pool_proj
I0714 00:34:42.578632 25208 net.cpp:157] Top shape: 32 64 14 14 (401408)
I0714 00:34:42.578666 25208 net.cpp:165] Memory required for data: 1529725700
I0714 00:34:42.578675 25208 layer_factory.hpp:76] Creating layer inception_4d/output
I0714 00:34:42.578701 25208 net.cpp:106] Creating Layer inception_4d/output
I0714 00:34:42.578712 25208 net.cpp:454] inception_4d/output <- inception_4d/1x1
I0714 00:34:42.578722 25208 net.cpp:454] inception_4d/output <- inception_4d/3x3
I0714 00:34:42.578747 25208 net.cpp:454] inception_4d/output <- inception_4d/5x5
I0714 00:34:42.578758 25208 net.cpp:454] inception_4d/output <- inception_4d/pool_proj
I0714 00:34:42.578768 25208 net.cpp:411] inception_4d/output -> inception_4d/output
I0714 00:34:42.578833 25208 net.cpp:150] Setting up inception_4d/output
I0714 00:34:42.578853 25208 net.cpp:157] Top shape: 32 528 14 14 (3311616)
I0714 00:34:42.578862 25208 net.cpp:165] Memory required for data: 1542972164
I0714 00:34:42.578871 25208 layer_factory.hpp:76] Creating layer inception_4d/output_inception_4d/output_0_split
I0714 00:34:42.578882 25208 net.cpp:106] Creating Layer inception_4d/output_inception_4d/output_0_split
I0714 00:34:42.578891 25208 net.cpp:454] inception_4d/output_inception_4d/output_0_split <- inception_4d/output
I0714 00:34:42.578910 25208 net.cpp:411] inception_4d/output_inception_4d/output_0_split -> inception_4d/output_inception_4d/output_0_split_0
I0714 00:34:42.578927 25208 net.cpp:411] inception_4d/output_inception_4d/output_0_split -> inception_4d/output_inception_4d/output_0_split_1
I0714 00:34:42.578938 25208 net.cpp:411] inception_4d/output_inception_4d/output_0_split -> inception_4d/output_inception_4d/output_0_split_2
I0714 00:34:42.578948 25208 net.cpp:411] inception_4d/output_inception_4d/output_0_split -> inception_4d/output_inception_4d/output_0_split_3
I0714 00:34:42.578959 25208 net.cpp:411] inception_4d/output_inception_4d/output_0_split -> inception_4d/output_inception_4d/output_0_split_4
I0714 00:34:42.579061 25208 net.cpp:150] Setting up inception_4d/output_inception_4d/output_0_split
I0714 00:34:42.579085 25208 net.cpp:157] Top shape: 32 528 14 14 (3311616)
I0714 00:34:42.579094 25208 net.cpp:157] Top shape: 32 528 14 14 (3311616)
I0714 00:34:42.579102 25208 net.cpp:157] Top shape: 32 528 14 14 (3311616)
I0714 00:34:42.579111 25208 net.cpp:157] Top shape: 32 528 14 14 (3311616)
I0714 00:34:42.579120 25208 net.cpp:157] Top shape: 32 528 14 14 (3311616)
I0714 00:34:42.579128 25208 net.cpp:165] Memory required for data: 1609204484
I0714 00:34:42.579136 25208 layer_factory.hpp:76] Creating layer loss2/ave_pool
I0714 00:34:42.579151 25208 net.cpp:106] Creating Layer loss2/ave_pool
I0714 00:34:42.579159 25208 net.cpp:454] loss2/ave_pool <- inception_4d/output_inception_4d/output_0_split_0
I0714 00:34:42.579169 25208 net.cpp:411] loss2/ave_pool -> loss2/ave_pool
I0714 00:34:42.584188 25208 net.cpp:150] Setting up loss2/ave_pool
I0714 00:34:42.584206 25208 net.cpp:157] Top shape: 32 528 4 4 (270336)
I0714 00:34:42.584215 25208 net.cpp:165] Memory required for data: 1610285828
I0714 00:34:42.584224 25208 layer_factory.hpp:76] Creating layer loss2/conv
I0714 00:34:42.584242 25208 net.cpp:106] Creating Layer loss2/conv
I0714 00:34:42.584252 25208 net.cpp:454] loss2/conv <- loss2/ave_pool
I0714 00:34:42.584264 25208 net.cpp:411] loss2/conv -> loss2/conv
I0714 00:34:42.600852 25208 cudnn_conv_layer.cpp:194] Reallocating workspace storage: 6336
I0714 00:34:42.600888 25208 net.cpp:150] Setting up loss2/conv
I0714 00:34:42.600900 25208 net.cpp:157] Top shape: 32 128 4 4 (65536)
I0714 00:34:42.600911 25208 net.cpp:165] Memory required for data: 1610547972
I0714 00:34:42.600922 25208 layer_factory.hpp:76] Creating layer loss2/relu_conv
I0714 00:34:42.600936 25208 net.cpp:106] Creating Layer loss2/relu_conv
I0714 00:34:42.600946 25208 net.cpp:454] loss2/relu_conv <- loss2/conv
I0714 00:34:42.600960 25208 net.cpp:397] loss2/relu_conv -> loss2/conv (in-place)
I0714 00:34:42.605379 25208 net.cpp:150] Setting up loss2/relu_conv
I0714 00:34:42.605399 25208 net.cpp:157] Top shape: 32 128 4 4 (65536)
I0714 00:34:42.605408 25208 net.cpp:165] Memory required for data: 1610810116
I0714 00:34:42.605417 25208 layer_factory.hpp:76] Creating layer loss2/fc
I0714 00:34:42.605435 25208 net.cpp:106] Creating Layer loss2/fc
I0714 00:34:42.605444 25208 net.cpp:454] loss2/fc <- loss2/conv
I0714 00:34:42.605458 25208 net.cpp:411] loss2/fc -> loss2/fc
I0714 00:34:42.625264 25208 net.cpp:150] Setting up loss2/fc
I0714 00:34:42.625293 25208 net.cpp:157] Top shape: 32 1024 (32768)
I0714 00:34:42.625304 25208 net.cpp:165] Memory required for data: 1610941188
I0714 00:34:42.625316 25208 layer_factory.hpp:76] Creating layer loss2/relu_fc
I0714 00:34:42.625340 25208 net.cpp:106] Creating Layer loss2/relu_fc
I0714 00:34:42.625377 25208 net.cpp:454] loss2/relu_fc <- loss2/fc
I0714 00:34:42.625391 25208 net.cpp:397] loss2/relu_fc -> loss2/fc (in-place)
I0714 00:34:42.625615 25208 net.cpp:150] Setting up loss2/relu_fc
I0714 00:34:42.625635 25208 net.cpp:157] Top shape: 32 1024 (32768)
I0714 00:34:42.625644 25208 net.cpp:165] Memory required for data: 1611072260
I0714 00:34:42.625659 25208 layer_factory.hpp:76] Creating layer loss2/drop_fc
I0714 00:34:42.625671 25208 net.cpp:106] Creating Layer loss2/drop_fc
I0714 00:34:42.625679 25208 net.cpp:454] loss2/drop_fc <- loss2/fc
I0714 00:34:42.625689 25208 net.cpp:397] loss2/drop_fc -> loss2/fc (in-place)
I0714 00:34:42.625731 25208 net.cpp:150] Setting up loss2/drop_fc
I0714 00:34:42.625743 25208 net.cpp:157] Top shape: 32 1024 (32768)
I0714 00:34:42.625751 25208 net.cpp:165] Memory required for data: 1611203332
I0714 00:34:42.625759 25208 layer_factory.hpp:76] Creating layer loss2/classifier
I0714 00:34:42.625773 25208 net.cpp:106] Creating Layer loss2/classifier
I0714 00:34:42.625782 25208 net.cpp:454] loss2/classifier <- loss2/fc
I0714 00:34:42.625792 25208 net.cpp:411] loss2/classifier -> loss2/classifier
I0714 00:34:42.625946 25208 net.cpp:150] Setting up loss2/classifier
I0714 00:34:42.625967 25208 net.cpp:157] Top shape: 32 2 (64)
I0714 00:34:42.625977 25208 net.cpp:165] Memory required for data: 1611203588
I0714 00:34:42.625988 25208 layer_factory.hpp:76] Creating layer loss2/loss
I0714 00:34:42.626008 25208 net.cpp:106] Creating Layer loss2/loss
I0714 00:34:42.626018 25208 net.cpp:454] loss2/loss <- loss2/classifier
I0714 00:34:42.626026 25208 net.cpp:454] loss2/loss <- label_data_1_split_1
I0714 00:34:42.626039 25208 net.cpp:411] loss2/loss -> loss2/loss1
I0714 00:34:42.626060 25208 layer_factory.hpp:76] Creating layer loss2/loss
I0714 00:34:42.677626 25208 net.cpp:150] Setting up loss2/loss
I0714 00:34:42.677659 25208 net.cpp:157] Top shape: (1)
I0714 00:34:42.677670 25208 net.cpp:160]     with loss weight 0.3
I0714 00:34:42.677686 25208 net.cpp:165] Memory required for data: 1611203592
I0714 00:34:42.677697 25208 layer_factory.hpp:76] Creating layer inception_4e/1x1
I0714 00:34:42.677729 25208 net.cpp:106] Creating Layer inception_4e/1x1
I0714 00:34:42.677774 25208 net.cpp:454] inception_4e/1x1 <- inception_4d/output_inception_4d/output_0_split_1
I0714 00:34:42.677810 25208 net.cpp:411] inception_4e/1x1 -> inception_4e/1x1
I0714 00:34:42.693606 25208 cudnn_conv_layer.cpp:194] Reallocating workspace storage: 6336
I0714 00:34:42.693701 25208 net.cpp:150] Setting up inception_4e/1x1
I0714 00:34:42.693717 25208 net.cpp:157] Top shape: 32 256 14 14 (1605632)
I0714 00:34:42.693727 25208 net.cpp:165] Memory required for data: 1617626120
I0714 00:34:42.693742 25208 layer_factory.hpp:76] Creating layer inception_4e/relu_1x1
I0714 00:34:42.693763 25208 net.cpp:106] Creating Layer inception_4e/relu_1x1
I0714 00:34:42.693773 25208 net.cpp:454] inception_4e/relu_1x1 <- inception_4e/1x1
I0714 00:34:42.693785 25208 net.cpp:397] inception_4e/relu_1x1 -> inception_4e/1x1 (in-place)
I0714 00:34:42.700590 25208 net.cpp:150] Setting up inception_4e/relu_1x1
I0714 00:34:42.700608 25208 net.cpp:157] Top shape: 32 256 14 14 (1605632)
I0714 00:34:42.700616 25208 net.cpp:165] Memory required for data: 1624048648
I0714 00:34:42.700624 25208 layer_factory.hpp:76] Creating layer inception_4e/3x3_reduce
I0714 00:34:42.700639 25208 net.cpp:106] Creating Layer inception_4e/3x3_reduce
I0714 00:34:42.700649 25208 net.cpp:454] inception_4e/3x3_reduce <- inception_4d/output_inception_4d/output_0_split_2
I0714 00:34:42.700669 25208 net.cpp:411] inception_4e/3x3_reduce -> inception_4e/3x3_reduce
I0714 00:34:42.717201 25208 cudnn_conv_layer.cpp:194] Reallocating workspace storage: 6336
I0714 00:34:42.717243 25208 net.cpp:150] Setting up inception_4e/3x3_reduce
I0714 00:34:42.717257 25208 net.cpp:157] Top shape: 32 160 14 14 (1003520)
I0714 00:34:42.717267 25208 net.cpp:165] Memory required for data: 1628062728
I0714 00:34:42.717278 25208 layer_factory.hpp:76] Creating layer inception_4e/relu_3x3_reduce
I0714 00:34:42.717308 25208 net.cpp:106] Creating Layer inception_4e/relu_3x3_reduce
I0714 00:34:42.717317 25208 net.cpp:454] inception_4e/relu_3x3_reduce <- inception_4e/3x3_reduce
I0714 00:34:42.717329 25208 net.cpp:397] inception_4e/relu_3x3_reduce -> inception_4e/3x3_reduce (in-place)
I0714 00:34:42.721417 25208 net.cpp:150] Setting up inception_4e/relu_3x3_reduce
I0714 00:34:42.721437 25208 net.cpp:157] Top shape: 32 160 14 14 (1003520)
I0714 00:34:42.721446 25208 net.cpp:165] Memory required for data: 1632076808
I0714 00:34:42.721454 25208 layer_factory.hpp:76] Creating layer inception_4e/3x3
I0714 00:34:42.721473 25208 net.cpp:106] Creating Layer inception_4e/3x3
I0714 00:34:42.721482 25208 net.cpp:454] inception_4e/3x3 <- inception_4e/3x3_reduce
I0714 00:34:42.721495 25208 net.cpp:411] inception_4e/3x3 -> inception_4e/3x3
I0714 00:34:42.735417 25208 cudnn_conv_layer.cpp:194] Reallocating workspace storage: 17280
I0714 00:34:42.735448 25208 net.cpp:150] Setting up inception_4e/3x3
I0714 00:34:42.735460 25208 net.cpp:157] Top shape: 32 320 14 14 (2007040)
I0714 00:34:42.735469 25208 net.cpp:165] Memory required for data: 1640104968
I0714 00:34:42.735482 25208 layer_factory.hpp:76] Creating layer inception_4e/relu_3x3
I0714 00:34:42.735496 25208 net.cpp:106] Creating Layer inception_4e/relu_3x3
I0714 00:34:42.735505 25208 net.cpp:454] inception_4e/relu_3x3 <- inception_4e/3x3
I0714 00:34:42.735515 25208 net.cpp:397] inception_4e/relu_3x3 -> inception_4e/3x3 (in-place)
I0714 00:34:42.740643 25208 net.cpp:150] Setting up inception_4e/relu_3x3
I0714 00:34:42.740664 25208 net.cpp:157] Top shape: 32 320 14 14 (2007040)
I0714 00:34:42.740675 25208 net.cpp:165] Memory required for data: 1648133128
I0714 00:34:42.740684 25208 layer_factory.hpp:76] Creating layer inception_4e/5x5_reduce
I0714 00:34:42.740696 25208 net.cpp:106] Creating Layer inception_4e/5x5_reduce
I0714 00:34:42.740718 25208 net.cpp:454] inception_4e/5x5_reduce <- inception_4d/output_inception_4d/output_0_split_3
I0714 00:34:42.740732 25208 net.cpp:411] inception_4e/5x5_reduce -> inception_4e/5x5_reduce
I0714 00:34:42.754896 25208 net.cpp:150] Setting up inception_4e/5x5_reduce
I0714 00:34:42.754919 25208 net.cpp:157] Top shape: 32 32 14 14 (200704)
I0714 00:34:42.754927 25208 net.cpp:165] Memory required for data: 1648935944
I0714 00:34:42.754938 25208 layer_factory.hpp:76] Creating layer inception_4e/relu_5x5_reduce
I0714 00:34:42.754956 25208 net.cpp:106] Creating Layer inception_4e/relu_5x5_reduce
I0714 00:34:42.754966 25208 net.cpp:454] inception_4e/relu_5x5_reduce <- inception_4e/5x5_reduce
I0714 00:34:42.754977 25208 net.cpp:397] inception_4e/relu_5x5_reduce -> inception_4e/5x5_reduce (in-place)
I0714 00:34:42.759140 25208 net.cpp:150] Setting up inception_4e/relu_5x5_reduce
I0714 00:34:42.759161 25208 net.cpp:157] Top shape: 32 32 14 14 (200704)
I0714 00:34:42.759171 25208 net.cpp:165] Memory required for data: 1649738760
I0714 00:34:42.759178 25208 layer_factory.hpp:76] Creating layer inception_4e/5x5
I0714 00:34:42.759286 25208 net.cpp:106] Creating Layer inception_4e/5x5
I0714 00:34:42.759299 25208 net.cpp:454] inception_4e/5x5 <- inception_4e/5x5_reduce
I0714 00:34:42.759313 25208 net.cpp:411] inception_4e/5x5 -> inception_4e/5x5
I0714 00:34:42.772277 25208 net.cpp:150] Setting up inception_4e/5x5
I0714 00:34:42.772300 25208 net.cpp:157] Top shape: 32 128 14 14 (802816)
I0714 00:34:42.772308 25208 net.cpp:165] Memory required for data: 1652950024
I0714 00:34:42.772321 25208 layer_factory.hpp:76] Creating layer inception_4e/relu_5x5
I0714 00:34:42.772333 25208 net.cpp:106] Creating Layer inception_4e/relu_5x5
I0714 00:34:42.772342 25208 net.cpp:454] inception_4e/relu_5x5 <- inception_4e/5x5
I0714 00:34:42.772354 25208 net.cpp:397] inception_4e/relu_5x5 -> inception_4e/5x5 (in-place)
I0714 00:34:42.777681 25208 net.cpp:150] Setting up inception_4e/relu_5x5
I0714 00:34:42.777699 25208 net.cpp:157] Top shape: 32 128 14 14 (802816)
I0714 00:34:42.777709 25208 net.cpp:165] Memory required for data: 1656161288
I0714 00:34:42.777730 25208 layer_factory.hpp:76] Creating layer inception_4e/pool
I0714 00:34:42.777745 25208 net.cpp:106] Creating Layer inception_4e/pool
I0714 00:34:42.777765 25208 net.cpp:454] inception_4e/pool <- inception_4d/output_inception_4d/output_0_split_4
I0714 00:34:42.777776 25208 net.cpp:411] inception_4e/pool -> inception_4e/pool
I0714 00:34:42.781949 25208 net.cpp:150] Setting up inception_4e/pool
I0714 00:34:42.781970 25208 net.cpp:157] Top shape: 32 528 14 14 (3311616)
I0714 00:34:42.781978 25208 net.cpp:165] Memory required for data: 1669407752
I0714 00:34:42.781986 25208 layer_factory.hpp:76] Creating layer inception_4e/pool_proj
I0714 00:34:42.782006 25208 net.cpp:106] Creating Layer inception_4e/pool_proj
I0714 00:34:42.782016 25208 net.cpp:454] inception_4e/pool_proj <- inception_4e/pool
I0714 00:34:42.782027 25208 net.cpp:411] inception_4e/pool_proj -> inception_4e/pool_proj
I0714 00:34:42.998066 25208 cudnn_conv_layer.cpp:194] Reallocating workspace storage: 6336
I0714 00:34:42.998136 25208 net.cpp:150] Setting up inception_4e/pool_proj
I0714 00:34:42.998153 25208 net.cpp:157] Top shape: 32 128 14 14 (802816)
I0714 00:34:42.998164 25208 net.cpp:165] Memory required for data: 1672619016
I0714 00:34:42.998179 25208 layer_factory.hpp:76] Creating layer inception_4e/relu_pool_proj
I0714 00:34:42.998203 25208 net.cpp:106] Creating Layer inception_4e/relu_pool_proj
I0714 00:34:42.998215 25208 net.cpp:454] inception_4e/relu_pool_proj <- inception_4e/pool_proj
I0714 00:34:42.998226 25208 net.cpp:397] inception_4e/relu_pool_proj -> inception_4e/pool_proj (in-place)
I0714 00:34:43.003120 25208 net.cpp:150] Setting up inception_4e/relu_pool_proj
I0714 00:34:43.003139 25208 net.cpp:157] Top shape: 32 128 14 14 (802816)
I0714 00:34:43.003147 25208 net.cpp:165] Memory required for data: 1675830280
I0714 00:34:43.003159 25208 layer_factory.hpp:76] Creating layer inception_4e/output
I0714 00:34:43.003172 25208 net.cpp:106] Creating Layer inception_4e/output
I0714 00:34:43.003181 25208 net.cpp:454] inception_4e/output <- inception_4e/1x1
I0714 00:34:43.003191 25208 net.cpp:454] inception_4e/output <- inception_4e/3x3
I0714 00:34:43.003201 25208 net.cpp:454] inception_4e/output <- inception_4e/5x5
I0714 00:34:43.003216 25208 net.cpp:454] inception_4e/output <- inception_4e/pool_proj
I0714 00:34:43.003231 25208 net.cpp:411] inception_4e/output -> inception_4e/output
I0714 00:34:43.003280 25208 net.cpp:150] Setting up inception_4e/output
I0714 00:34:43.003293 25208 net.cpp:157] Top shape: 32 832 14 14 (5218304)
I0714 00:34:43.003300 25208 net.cpp:165] Memory required for data: 1696703496
I0714 00:34:43.003309 25208 layer_factory.hpp:76] Creating layer pool4/3x3_s2
I0714 00:34:43.003325 25208 net.cpp:106] Creating Layer pool4/3x3_s2
I0714 00:34:43.003334 25208 net.cpp:454] pool4/3x3_s2 <- inception_4e/output
I0714 00:34:43.003347 25208 net.cpp:411] pool4/3x3_s2 -> pool4/3x3_s2
I0714 00:34:43.008394 25208 net.cpp:150] Setting up pool4/3x3_s2
I0714 00:34:43.008415 25208 net.cpp:157] Top shape: 32 832 7 7 (1304576)
I0714 00:34:43.008424 25208 net.cpp:165] Memory required for data: 1701921800
I0714 00:34:43.008432 25208 layer_factory.hpp:76] Creating layer pool4/3x3_s2_pool4/3x3_s2_0_split
I0714 00:34:43.008451 25208 net.cpp:106] Creating Layer pool4/3x3_s2_pool4/3x3_s2_0_split
I0714 00:34:43.008461 25208 net.cpp:454] pool4/3x3_s2_pool4/3x3_s2_0_split <- pool4/3x3_s2
I0714 00:34:43.008472 25208 net.cpp:411] pool4/3x3_s2_pool4/3x3_s2_0_split -> pool4/3x3_s2_pool4/3x3_s2_0_split_0
I0714 00:34:43.008491 25208 net.cpp:411] pool4/3x3_s2_pool4/3x3_s2_0_split -> pool4/3x3_s2_pool4/3x3_s2_0_split_1
I0714 00:34:43.008502 25208 net.cpp:411] pool4/3x3_s2_pool4/3x3_s2_0_split -> pool4/3x3_s2_pool4/3x3_s2_0_split_2
I0714 00:34:43.008513 25208 net.cpp:411] pool4/3x3_s2_pool4/3x3_s2_0_split -> pool4/3x3_s2_pool4/3x3_s2_0_split_3
I0714 00:34:43.008594 25208 net.cpp:150] Setting up pool4/3x3_s2_pool4/3x3_s2_0_split
I0714 00:34:43.008607 25208 net.cpp:157] Top shape: 32 832 7 7 (1304576)
I0714 00:34:43.008616 25208 net.cpp:157] Top shape: 32 832 7 7 (1304576)
I0714 00:34:43.008653 25208 net.cpp:157] Top shape: 32 832 7 7 (1304576)
I0714 00:34:43.008662 25208 net.cpp:157] Top shape: 32 832 7 7 (1304576)
I0714 00:34:43.008669 25208 net.cpp:165] Memory required for data: 1722795016
I0714 00:34:43.008689 25208 layer_factory.hpp:76] Creating layer inception_5a/1x1
I0714 00:34:43.008709 25208 net.cpp:106] Creating Layer inception_5a/1x1
I0714 00:34:43.008718 25208 net.cpp:454] inception_5a/1x1 <- pool4/3x3_s2_pool4/3x3_s2_0_split_0
I0714 00:34:43.008733 25208 net.cpp:411] inception_5a/1x1 -> inception_5a/1x1
I0714 00:34:43.023174 25208 cudnn_conv_layer.cpp:194] Reallocating workspace storage: 9984
I0714 00:34:43.023228 25208 net.cpp:150] Setting up inception_5a/1x1
I0714 00:34:43.023301 25208 net.cpp:157] Top shape: 32 256 7 7 (401408)
I0714 00:34:43.023322 25208 net.cpp:165] Memory required for data: 1724400648
I0714 00:34:43.023342 25208 layer_factory.hpp:76] Creating layer inception_5a/relu_1x1
I0714 00:34:43.023366 25208 net.cpp:106] Creating Layer inception_5a/relu_1x1
I0714 00:34:43.023389 25208 net.cpp:454] inception_5a/relu_1x1 <- inception_5a/1x1
I0714 00:34:43.023402 25208 net.cpp:397] inception_5a/relu_1x1 -> inception_5a/1x1 (in-place)
I0714 00:34:43.028168 25208 net.cpp:150] Setting up inception_5a/relu_1x1
I0714 00:34:43.028183 25208 net.cpp:157] Top shape: 32 256 7 7 (401408)
I0714 00:34:43.028192 25208 net.cpp:165] Memory required for data: 1726006280
I0714 00:34:43.028199 25208 layer_factory.hpp:76] Creating layer inception_5a/3x3_reduce
I0714 00:34:43.028220 25208 net.cpp:106] Creating Layer inception_5a/3x3_reduce
I0714 00:34:43.028231 25208 net.cpp:454] inception_5a/3x3_reduce <- pool4/3x3_s2_pool4/3x3_s2_0_split_1
I0714 00:34:43.028244 25208 net.cpp:411] inception_5a/3x3_reduce -> inception_5a/3x3_reduce
I0714 00:34:43.041785 25208 cudnn_conv_layer.cpp:194] Reallocating workspace storage: 9984
I0714 00:34:43.041851 25208 net.cpp:150] Setting up inception_5a/3x3_reduce
I0714 00:34:43.041864 25208 net.cpp:157] Top shape: 32 160 7 7 (250880)
I0714 00:34:43.041874 25208 net.cpp:165] Memory required for data: 1727009800
I0714 00:34:43.041887 25208 layer_factory.hpp:76] Creating layer inception_5a/relu_3x3_reduce
I0714 00:34:43.041899 25208 net.cpp:106] Creating Layer inception_5a/relu_3x3_reduce
I0714 00:34:43.041909 25208 net.cpp:454] inception_5a/relu_3x3_reduce <- inception_5a/3x3_reduce
I0714 00:34:43.041923 25208 net.cpp:397] inception_5a/relu_3x3_reduce -> inception_5a/3x3_reduce (in-place)
I0714 00:34:43.046838 25208 net.cpp:150] Setting up inception_5a/relu_3x3_reduce
I0714 00:34:43.046871 25208 net.cpp:157] Top shape: 32 160 7 7 (250880)
I0714 00:34:43.046881 25208 net.cpp:165] Memory required for data: 1728013320
I0714 00:34:43.046890 25208 layer_factory.hpp:76] Creating layer inception_5a/3x3
I0714 00:34:43.046908 25208 net.cpp:106] Creating Layer inception_5a/3x3
I0714 00:34:43.046919 25208 net.cpp:454] inception_5a/3x3 <- inception_5a/3x3_reduce
I0714 00:34:43.046933 25208 net.cpp:411] inception_5a/3x3 -> inception_5a/3x3
I0714 00:34:43.059468 25208 net.cpp:150] Setting up inception_5a/3x3
I0714 00:34:43.059494 25208 net.cpp:157] Top shape: 32 320 7 7 (501760)
I0714 00:34:43.059504 25208 net.cpp:165] Memory required for data: 1730020360
I0714 00:34:43.059517 25208 layer_factory.hpp:76] Creating layer inception_5a/relu_3x3
I0714 00:34:43.059530 25208 net.cpp:106] Creating Layer inception_5a/relu_3x3
I0714 00:34:43.059542 25208 net.cpp:454] inception_5a/relu_3x3 <- inception_5a/3x3
I0714 00:34:43.059553 25208 net.cpp:397] inception_5a/relu_3x3 -> inception_5a/3x3 (in-place)
I0714 00:34:43.064545 25208 net.cpp:150] Setting up inception_5a/relu_3x3
I0714 00:34:43.064579 25208 net.cpp:157] Top shape: 32 320 7 7 (501760)
I0714 00:34:43.064589 25208 net.cpp:165] Memory required for data: 1732027400
I0714 00:34:43.064599 25208 layer_factory.hpp:76] Creating layer inception_5a/5x5_reduce
I0714 00:34:43.064615 25208 net.cpp:106] Creating Layer inception_5a/5x5_reduce
I0714 00:34:43.064625 25208 net.cpp:454] inception_5a/5x5_reduce <- pool4/3x3_s2_pool4/3x3_s2_0_split_2
I0714 00:34:43.064673 25208 net.cpp:411] inception_5a/5x5_reduce -> inception_5a/5x5_reduce
I0714 00:34:43.082054 25208 cudnn_conv_layer.cpp:194] Reallocating workspace storage: 9984
I0714 00:34:43.082118 25208 net.cpp:150] Setting up inception_5a/5x5_reduce
I0714 00:34:43.082134 25208 net.cpp:157] Top shape: 32 32 7 7 (50176)
I0714 00:34:43.082142 25208 net.cpp:165] Memory required for data: 1732228104
I0714 00:34:43.082154 25208 layer_factory.hpp:76] Creating layer inception_5a/relu_5x5_reduce
I0714 00:34:43.082177 25208 net.cpp:106] Creating Layer inception_5a/relu_5x5_reduce
I0714 00:34:43.082195 25208 net.cpp:454] inception_5a/relu_5x5_reduce <- inception_5a/5x5_reduce
I0714 00:34:43.082216 25208 net.cpp:397] inception_5a/relu_5x5_reduce -> inception_5a/5x5_reduce (in-place)
I0714 00:34:43.084306 25208 net.cpp:150] Setting up inception_5a/relu_5x5_reduce
I0714 00:34:43.084341 25208 net.cpp:157] Top shape: 32 32 7 7 (50176)
I0714 00:34:43.084350 25208 net.cpp:165] Memory required for data: 1732428808
I0714 00:34:43.084359 25208 layer_factory.hpp:76] Creating layer inception_5a/5x5
I0714 00:34:43.084378 25208 net.cpp:106] Creating Layer inception_5a/5x5
I0714 00:34:43.084388 25208 net.cpp:454] inception_5a/5x5 <- inception_5a/5x5_reduce
I0714 00:34:43.084400 25208 net.cpp:411] inception_5a/5x5 -> inception_5a/5x5
I0714 00:34:43.100167 25208 net.cpp:150] Setting up inception_5a/5x5
I0714 00:34:43.100203 25208 net.cpp:157] Top shape: 32 128 7 7 (200704)
I0714 00:34:43.100213 25208 net.cpp:165] Memory required for data: 1733231624
I0714 00:34:43.100224 25208 layer_factory.hpp:76] Creating layer inception_5a/relu_5x5
I0714 00:34:43.100239 25208 net.cpp:106] Creating Layer inception_5a/relu_5x5
I0714 00:34:43.100249 25208 net.cpp:454] inception_5a/relu_5x5 <- inception_5a/5x5
I0714 00:34:43.100260 25208 net.cpp:397] inception_5a/relu_5x5 -> inception_5a/5x5 (in-place)
I0714 00:34:43.104255 25208 net.cpp:150] Setting up inception_5a/relu_5x5
I0714 00:34:43.104288 25208 net.cpp:157] Top shape: 32 128 7 7 (200704)
I0714 00:34:43.104298 25208 net.cpp:165] Memory required for data: 1734034440
I0714 00:34:43.104307 25208 layer_factory.hpp:76] Creating layer inception_5a/pool
I0714 00:34:43.104323 25208 net.cpp:106] Creating Layer inception_5a/pool
I0714 00:34:43.104333 25208 net.cpp:454] inception_5a/pool <- pool4/3x3_s2_pool4/3x3_s2_0_split_3
I0714 00:34:43.104346 25208 net.cpp:411] inception_5a/pool -> inception_5a/pool
I0714 00:34:43.109606 25208 net.cpp:150] Setting up inception_5a/pool
I0714 00:34:43.109642 25208 net.cpp:157] Top shape: 32 832 7 7 (1304576)
I0714 00:34:43.109650 25208 net.cpp:165] Memory required for data: 1739252744
I0714 00:34:43.109660 25208 layer_factory.hpp:76] Creating layer inception_5a/pool_proj
I0714 00:34:43.109676 25208 net.cpp:106] Creating Layer inception_5a/pool_proj
I0714 00:34:43.109686 25208 net.cpp:454] inception_5a/pool_proj <- inception_5a/pool
I0714 00:34:43.109700 25208 net.cpp:411] inception_5a/pool_proj -> inception_5a/pool_proj
I0714 00:34:43.124290 25208 cudnn_conv_layer.cpp:194] Reallocating workspace storage: 9984
I0714 00:34:43.124349 25208 net.cpp:150] Setting up inception_5a/pool_proj
I0714 00:34:43.124363 25208 net.cpp:157] Top shape: 32 128 7 7 (200704)
I0714 00:34:43.124372 25208 net.cpp:165] Memory required for data: 1740055560
I0714 00:34:43.124387 25208 layer_factory.hpp:76] Creating layer inception_5a/relu_pool_proj
I0714 00:34:43.124398 25208 net.cpp:106] Creating Layer inception_5a/relu_pool_proj
I0714 00:34:43.124408 25208 net.cpp:454] inception_5a/relu_pool_proj <- inception_5a/pool_proj
I0714 00:34:43.124421 25208 net.cpp:397] inception_5a/relu_pool_proj -> inception_5a/pool_proj (in-place)
I0714 00:34:43.282532 25208 net.cpp:150] Setting up inception_5a/relu_pool_proj
I0714 00:34:43.282567 25208 net.cpp:157] Top shape: 32 128 7 7 (200704)
I0714 00:34:43.282577 25208 net.cpp:165] Memory required for data: 1740858376
I0714 00:34:43.282585 25208 layer_factory.hpp:76] Creating layer inception_5a/output
I0714 00:34:43.282600 25208 net.cpp:106] Creating Layer inception_5a/output
I0714 00:34:43.282624 25208 net.cpp:454] inception_5a/output <- inception_5a/1x1
I0714 00:34:43.282647 25208 net.cpp:454] inception_5a/output <- inception_5a/3x3
I0714 00:34:43.282675 25208 net.cpp:454] inception_5a/output <- inception_5a/5x5
I0714 00:34:43.282691 25208 net.cpp:454] inception_5a/output <- inception_5a/pool_proj
I0714 00:34:43.282709 25208 net.cpp:411] inception_5a/output -> inception_5a/output
I0714 00:34:43.282779 25208 net.cpp:150] Setting up inception_5a/output
I0714 00:34:43.282811 25208 net.cpp:157] Top shape: 32 832 7 7 (1304576)
I0714 00:34:43.282832 25208 net.cpp:165] Memory required for data: 1746076680
I0714 00:34:43.282841 25208 layer_factory.hpp:76] Creating layer inception_5a/output_inception_5a/output_0_split
I0714 00:34:43.282855 25208 net.cpp:106] Creating Layer inception_5a/output_inception_5a/output_0_split
I0714 00:34:43.282865 25208 net.cpp:454] inception_5a/output_inception_5a/output_0_split <- inception_5a/output
I0714 00:34:43.282877 25208 net.cpp:411] inception_5a/output_inception_5a/output_0_split -> inception_5a/output_inception_5a/output_0_split_0
I0714 00:34:43.282901 25208 net.cpp:411] inception_5a/output_inception_5a/output_0_split -> inception_5a/output_inception_5a/output_0_split_1
I0714 00:34:43.282912 25208 net.cpp:411] inception_5a/output_inception_5a/output_0_split -> inception_5a/output_inception_5a/output_0_split_2
I0714 00:34:43.282922 25208 net.cpp:411] inception_5a/output_inception_5a/output_0_split -> inception_5a/output_inception_5a/output_0_split_3
I0714 00:34:43.283043 25208 net.cpp:150] Setting up inception_5a/output_inception_5a/output_0_split
I0714 00:34:43.283085 25208 net.cpp:157] Top shape: 32 832 7 7 (1304576)
I0714 00:34:43.283095 25208 net.cpp:157] Top shape: 32 832 7 7 (1304576)
I0714 00:34:43.283104 25208 net.cpp:157] Top shape: 32 832 7 7 (1304576)
I0714 00:34:43.283113 25208 net.cpp:157] Top shape: 32 832 7 7 (1304576)
I0714 00:34:43.283121 25208 net.cpp:165] Memory required for data: 1766949896
I0714 00:34:43.283129 25208 layer_factory.hpp:76] Creating layer inception_5b/1x1
I0714 00:34:43.283154 25208 net.cpp:106] Creating Layer inception_5b/1x1
I0714 00:34:43.283164 25208 net.cpp:454] inception_5b/1x1 <- inception_5a/output_inception_5a/output_0_split_0
I0714 00:34:43.283176 25208 net.cpp:411] inception_5b/1x1 -> inception_5b/1x1
I0714 00:34:43.292348 25208 cudnn_conv_layer.cpp:194] Reallocating workspace storage: 9984
I0714 00:34:43.292402 25208 net.cpp:150] Setting up inception_5b/1x1
I0714 00:34:43.292417 25208 net.cpp:157] Top shape: 32 384 7 7 (602112)
I0714 00:34:43.292424 25208 net.cpp:165] Memory required for data: 1769358344
I0714 00:34:43.292436 25208 layer_factory.hpp:76] Creating layer inception_5b/relu_1x1
I0714 00:34:43.292450 25208 net.cpp:106] Creating Layer inception_5b/relu_1x1
I0714 00:34:43.292459 25208 net.cpp:454] inception_5b/relu_1x1 <- inception_5b/1x1
I0714 00:34:43.292469 25208 net.cpp:397] inception_5b/relu_1x1 -> inception_5b/1x1 (in-place)
I0714 00:34:43.296021 25208 net.cpp:150] Setting up inception_5b/relu_1x1
I0714 00:34:43.296054 25208 net.cpp:157] Top shape: 32 384 7 7 (602112)
I0714 00:34:43.296063 25208 net.cpp:165] Memory required for data: 1771766792
I0714 00:34:43.296073 25208 layer_factory.hpp:76] Creating layer inception_5b/3x3_reduce
I0714 00:34:43.296089 25208 net.cpp:106] Creating Layer inception_5b/3x3_reduce
I0714 00:34:43.296099 25208 net.cpp:454] inception_5b/3x3_reduce <- inception_5a/output_inception_5a/output_0_split_1
I0714 00:34:43.296111 25208 net.cpp:411] inception_5b/3x3_reduce -> inception_5b/3x3_reduce
I0714 00:34:43.309272 25208 cudnn_conv_layer.cpp:194] Reallocating workspace storage: 9984
I0714 00:34:43.309327 25208 net.cpp:150] Setting up inception_5b/3x3_reduce
I0714 00:34:43.309340 25208 net.cpp:157] Top shape: 32 192 7 7 (301056)
I0714 00:34:43.309348 25208 net.cpp:165] Memory required for data: 1772971016
I0714 00:34:43.309360 25208 layer_factory.hpp:76] Creating layer inception_5b/relu_3x3_reduce
I0714 00:34:43.309373 25208 net.cpp:106] Creating Layer inception_5b/relu_3x3_reduce
I0714 00:34:43.309402 25208 net.cpp:454] inception_5b/relu_3x3_reduce <- inception_5b/3x3_reduce
I0714 00:34:43.309438 25208 net.cpp:397] inception_5b/relu_3x3_reduce -> inception_5b/3x3_reduce (in-place)
I0714 00:34:43.312827 25208 net.cpp:150] Setting up inception_5b/relu_3x3_reduce
I0714 00:34:43.312860 25208 net.cpp:157] Top shape: 32 192 7 7 (301056)
I0714 00:34:43.312870 25208 net.cpp:165] Memory required for data: 1774175240
I0714 00:34:43.312878 25208 layer_factory.hpp:76] Creating layer inception_5b/3x3
I0714 00:34:43.312892 25208 net.cpp:106] Creating Layer inception_5b/3x3
I0714 00:34:43.312902 25208 net.cpp:454] inception_5b/3x3 <- inception_5b/3x3_reduce
I0714 00:34:43.312913 25208 net.cpp:411] inception_5b/3x3 -> inception_5b/3x3
I0714 00:34:43.324879 25208 cudnn_conv_layer.cpp:194] Reallocating workspace storage: 20736
I0714 00:34:43.324925 25208 net.cpp:150] Setting up inception_5b/3x3
I0714 00:34:43.324939 25208 net.cpp:157] Top shape: 32 384 7 7 (602112)
I0714 00:34:43.324947 25208 net.cpp:165] Memory required for data: 1776583688
I0714 00:34:43.324959 25208 layer_factory.hpp:76] Creating layer inception_5b/relu_3x3
I0714 00:34:43.324972 25208 net.cpp:106] Creating Layer inception_5b/relu_3x3
I0714 00:34:43.324981 25208 net.cpp:454] inception_5b/relu_3x3 <- inception_5b/3x3
I0714 00:34:43.324993 25208 net.cpp:397] inception_5b/relu_3x3 -> inception_5b/3x3 (in-place)
I0714 00:34:43.329601 25208 net.cpp:150] Setting up inception_5b/relu_3x3
I0714 00:34:43.329632 25208 net.cpp:157] Top shape: 32 384 7 7 (602112)
I0714 00:34:43.329640 25208 net.cpp:165] Memory required for data: 1778992136
I0714 00:34:43.329649 25208 layer_factory.hpp:76] Creating layer inception_5b/5x5_reduce
I0714 00:34:43.329665 25208 net.cpp:106] Creating Layer inception_5b/5x5_reduce
I0714 00:34:43.329675 25208 net.cpp:454] inception_5b/5x5_reduce <- inception_5a/output_inception_5a/output_0_split_2
I0714 00:34:43.329686 25208 net.cpp:411] inception_5b/5x5_reduce -> inception_5b/5x5_reduce
I0714 00:34:43.342926 25208 net.cpp:150] Setting up inception_5b/5x5_reduce
I0714 00:34:43.342962 25208 net.cpp:157] Top shape: 32 48 7 7 (75264)
I0714 00:34:43.342972 25208 net.cpp:165] Memory required for data: 1779293192
I0714 00:34:43.342988 25208 layer_factory.hpp:76] Creating layer inception_5b/relu_5x5_reduce
I0714 00:34:43.342999 25208 net.cpp:106] Creating Layer inception_5b/relu_5x5_reduce
I0714 00:34:43.343009 25208 net.cpp:454] inception_5b/relu_5x5_reduce <- inception_5b/5x5_reduce
I0714 00:34:43.343021 25208 net.cpp:397] inception_5b/relu_5x5_reduce -> inception_5b/5x5_reduce (in-place)
I0714 00:34:43.347962 25208 net.cpp:150] Setting up inception_5b/relu_5x5_reduce
I0714 00:34:43.347995 25208 net.cpp:157] Top shape: 32 48 7 7 (75264)
I0714 00:34:43.348003 25208 net.cpp:165] Memory required for data: 1779594248
I0714 00:34:43.348011 25208 layer_factory.hpp:76] Creating layer inception_5b/5x5
I0714 00:34:43.348031 25208 net.cpp:106] Creating Layer inception_5b/5x5
I0714 00:34:43.348040 25208 net.cpp:454] inception_5b/5x5 <- inception_5b/5x5_reduce
I0714 00:34:43.348052 25208 net.cpp:411] inception_5b/5x5 -> inception_5b/5x5
I0714 00:34:43.361407 25208 net.cpp:150] Setting up inception_5b/5x5
I0714 00:34:43.361440 25208 net.cpp:157] Top shape: 32 128 7 7 (200704)
I0714 00:34:43.361449 25208 net.cpp:165] Memory required for data: 1780397064
I0714 00:34:43.361460 25208 layer_factory.hpp:76] Creating layer inception_5b/relu_5x5
I0714 00:34:43.361474 25208 net.cpp:106] Creating Layer inception_5b/relu_5x5
I0714 00:34:43.361484 25208 net.cpp:454] inception_5b/relu_5x5 <- inception_5b/5x5
I0714 00:34:43.361493 25208 net.cpp:397] inception_5b/relu_5x5 -> inception_5b/5x5 (in-place)
I0714 00:34:43.366125 25208 net.cpp:150] Setting up inception_5b/relu_5x5
I0714 00:34:43.366158 25208 net.cpp:157] Top shape: 32 128 7 7 (200704)
I0714 00:34:43.366165 25208 net.cpp:165] Memory required for data: 1781199880
I0714 00:34:43.366176 25208 layer_factory.hpp:76] Creating layer inception_5b/pool
I0714 00:34:43.366190 25208 net.cpp:106] Creating Layer inception_5b/pool
I0714 00:34:43.366214 25208 net.cpp:454] inception_5b/pool <- inception_5a/output_inception_5a/output_0_split_3
I0714 00:34:43.366226 25208 net.cpp:411] inception_5b/pool -> inception_5b/pool
I0714 00:34:43.371068 25208 net.cpp:150] Setting up inception_5b/pool
I0714 00:34:43.371101 25208 net.cpp:157] Top shape: 32 832 7 7 (1304576)
I0714 00:34:43.371110 25208 net.cpp:165] Memory required for data: 1786418184
I0714 00:34:43.371119 25208 layer_factory.hpp:76] Creating layer inception_5b/pool_proj
I0714 00:34:43.371134 25208 net.cpp:106] Creating Layer inception_5b/pool_proj
I0714 00:34:43.371142 25208 net.cpp:454] inception_5b/pool_proj <- inception_5b/pool
I0714 00:34:43.371155 25208 net.cpp:411] inception_5b/pool_proj -> inception_5b/pool_proj
I0714 00:34:43.409451 25208 cudnn_conv_layer.cpp:194] Reallocating workspace storage: 9984
I0714 00:34:43.409519 25208 net.cpp:150] Setting up inception_5b/pool_proj
I0714 00:34:43.409533 25208 net.cpp:157] Top shape: 32 128 7 7 (200704)
I0714 00:34:43.409543 25208 net.cpp:165] Memory required for data: 1787221000
I0714 00:34:43.409567 25208 layer_factory.hpp:76] Creating layer inception_5b/relu_pool_proj
I0714 00:34:43.409579 25208 net.cpp:106] Creating Layer inception_5b/relu_pool_proj
I0714 00:34:43.409590 25208 net.cpp:454] inception_5b/relu_pool_proj <- inception_5b/pool_proj
I0714 00:34:43.409601 25208 net.cpp:397] inception_5b/relu_pool_proj -> inception_5b/pool_proj (in-place)
I0714 00:34:43.415632 25208 net.cpp:150] Setting up inception_5b/relu_pool_proj
I0714 00:34:43.415664 25208 net.cpp:157] Top shape: 32 128 7 7 (200704)
I0714 00:34:43.415673 25208 net.cpp:165] Memory required for data: 1788023816
I0714 00:34:43.415683 25208 layer_factory.hpp:76] Creating layer inception_5b/output
I0714 00:34:43.415693 25208 net.cpp:106] Creating Layer inception_5b/output
I0714 00:34:43.415704 25208 net.cpp:454] inception_5b/output <- inception_5b/1x1
I0714 00:34:43.415714 25208 net.cpp:454] inception_5b/output <- inception_5b/3x3
I0714 00:34:43.415722 25208 net.cpp:454] inception_5b/output <- inception_5b/5x5
I0714 00:34:43.415731 25208 net.cpp:454] inception_5b/output <- inception_5b/pool_proj
I0714 00:34:43.415742 25208 net.cpp:411] inception_5b/output -> inception_5b/output
I0714 00:34:43.415792 25208 net.cpp:150] Setting up inception_5b/output
I0714 00:34:43.415813 25208 net.cpp:157] Top shape: 32 1024 7 7 (1605632)
I0714 00:34:43.415854 25208 net.cpp:165] Memory required for data: 1794446344
I0714 00:34:43.415869 25208 layer_factory.hpp:76] Creating layer pool5/7x7_s1
I0714 00:34:43.415894 25208 net.cpp:106] Creating Layer pool5/7x7_s1
I0714 00:34:43.415917 25208 net.cpp:454] pool5/7x7_s1 <- inception_5b/output
I0714 00:34:43.415930 25208 net.cpp:411] pool5/7x7_s1 -> pool5/7x7_s1
I0714 00:34:43.419049 25208 net.cpp:150] Setting up pool5/7x7_s1
I0714 00:34:43.419080 25208 net.cpp:157] Top shape: 32 1024 1 1 (32768)
I0714 00:34:43.419088 25208 net.cpp:165] Memory required for data: 1794577416
I0714 00:34:43.419097 25208 layer_factory.hpp:76] Creating layer pool5/drop_7x7_s1
I0714 00:34:43.419108 25208 net.cpp:106] Creating Layer pool5/drop_7x7_s1
I0714 00:34:43.419117 25208 net.cpp:454] pool5/drop_7x7_s1 <- pool5/7x7_s1
I0714 00:34:43.419129 25208 net.cpp:397] pool5/drop_7x7_s1 -> pool5/7x7_s1 (in-place)
I0714 00:34:43.419170 25208 net.cpp:150] Setting up pool5/drop_7x7_s1
I0714 00:34:43.419191 25208 net.cpp:157] Top shape: 32 1024 1 1 (32768)
I0714 00:34:43.419221 25208 net.cpp:165] Memory required for data: 1794708488
I0714 00:34:43.419247 25208 layer_factory.hpp:76] Creating layer loss3/classifier
I0714 00:34:43.419280 25208 net.cpp:106] Creating Layer loss3/classifier
I0714 00:34:43.419291 25208 net.cpp:454] loss3/classifier <- pool5/7x7_s1
I0714 00:34:43.419306 25208 net.cpp:411] loss3/classifier -> loss3/classifier
I0714 00:34:43.419615 25208 net.cpp:150] Setting up loss3/classifier
I0714 00:34:43.419646 25208 net.cpp:157] Top shape: 32 2 (64)
I0714 00:34:43.419654 25208 net.cpp:165] Memory required for data: 1794708744
I0714 00:34:43.419680 25208 layer_factory.hpp:76] Creating layer loss3/loss3
I0714 00:34:43.419692 25208 net.cpp:106] Creating Layer loss3/loss3
I0714 00:34:43.419701 25208 net.cpp:454] loss3/loss3 <- loss3/classifier
I0714 00:34:43.419710 25208 net.cpp:454] loss3/loss3 <- label_data_1_split_2
I0714 00:34:43.419720 25208 net.cpp:411] loss3/loss3 -> loss3/loss3
…
I0714 00:34:43.429774 25208 net.cpp:322] The NetState phase (1) differed from the phase (0) specified by a rule in layer data
I0714 00:34:43.430734 25208 net.cpp:49] Initializing net from parameters: 
name: "GoogleNet"
state {
  phase: TEST
}
layer {
  name: "data"
  type: "ImageData"
  top: "data"
  top: "label"
  include {
    phase: TEST
  }
  transform_param {
    mirror: false
    crop_size: 224
    mean_value: 185
    mean_value: 150
    mean_value: 186
  }
  image_data_param {
    source: "../../list_stage1_tr.lst"
    batch_size: 100
    shuffle: true
    new_height: 256
    new_width: 256
    root_folder: "../../training_examples/"
  }
}
layer {
  name: "conv1/7x7_s2"
  type: "Convolution"
  bottom: "data"
  top: "conv1/7x7_s2"
  param {
    lr_mult: 1
    decay_mult: 1
  }
  param {
    lr_mult: 2
    decay_mult: 0
  }
  convolution_param {
    num_output: 64
    pad: 3
    kernel_size: 7
    stride: 2
    weight_filler {
      type: "xavier"
    }
    bias_filler {
      type: "constant"
      value: 0.2
    }
  }
}
layer {
  name: "conv1/relu_7x7"
  type: "ReLU"
  bottom: "conv1/7x7_s2"
  top: "conv1/7x7_s2"
}
layer {
  name: "pool1/3x3_s2"
  type: "Pooling"
  bottom: "conv1/7x7_s2"
  top: "pool1/3x3_s2"
  pooling_param {
    pool: MAX
    kernel_size: 3
    stride: 2
  }
}
layer {
  name: "pool1/norm1"
  type: "LRN"
  bottom: "pool1/3x3_s2"
  top: "pool1/norm1"
  lrn_param {
    local_size: 5
    alpha: 0.0001
    beta: 0.75
  }
}
layer {
  name: "conv2/3x3_reduce"
  type: "Convolution"
  bottom: "pool1/norm1"
  top: "conv2/3x3_reduce"
  param {
    lr_mult: 1
    decay_mult: 1
  }
  param {
    lr_mult: 2
    decay_mult: 0
  }
  convolution_param {
    num_output: 64
    kernel_size: 1
    weight_filler {
      type: "xavier"
    }
    bias_filler {
      type: "constant"
      value: 0.2
    }
  }
}
layer {
  name: "conv2/relu_3x3_reduce"
  type: "ReLU"
  bottom: "conv2/3x3_reduce"
  top: "conv2/3x3_reduce"
}
layer {
  name: "conv2/3x3"
  type: "Convolution"
  bottom: "conv2/3x3_reduce"
  top: "conv2/3x3"
  param {
    lr_mult: 1
    decay_mult: 1
  }
  param {
    lr_mult: 2
    decay_mult: 0
  }
  convolution_param {
    num_output: 192
    pad: 1
    kernel_size: 3
    weight_filler {
      type: "xavier"
    }
    bias_filler {
      type: "constant"
      value: 0.2
    }
  }
}
layer {
  name: "conv2/relu_3x3"
  type: "ReLU"
  bottom: "conv2/3x3"
  top: "conv2/3x3"
}
layer {
  name: "conv2/norm2"
  type: "LRN"
  bottom: "conv2/3x3"
  top: "conv2/norm2"
  lrn_param {
    local_size: 5
    alpha: 0.0001
    beta: 0.75
  }
}
layer {
  name: "pool2/3x3_s2"
  type: "Pooling"
  bottom: "conv2/norm2"
  top: "pool2/3x3_s2"
  pooling_param {
    pool: MAX
    kernel_size: 3
    stride: 2
  }
}
layer {
  name: "inception_3a/1x1"
  type: "Convolution"
  bottom: "pool2/3x3_s2"
  top: "inception_3a/1x1"
  param {
    lr_mult: 1
    decay_mult: 1
  }
  param {
    lr_mult: 2
    decay_mult: 0
  }
  convolution_param {
    num_output: 64
    kernel_size: 1
    weight_filler {
      type: "xavier"
    }
    bias_filler {
      type: "constant"
      value: 0.2
    }
  }
}
layer {
  name: "inception_3a/relu_1x1"
  type: "ReLU"
  bottom: "inception_3a/1x1"
  top: "inception_3a/1x1"
}
layer {
  name: "inception_3a/3x3_reduce"
  type: "Convolution"
  bottom: "pool2/3x3_s2"
  top: "inception_3a/3x3_reduce"
  param {
    lr_mult: 1
    decay_mult: 1
  }
  param {
    lr_mult: 2
    decay_mult: 0
  }
  convolution_param {
    num_output: 96
    kernel_size: 1
    weight_filler {
      type: "xavier"
    }
    bias_filler {
      type: "constant"
      value: 0.2
    }
  }
}
layer {
  name: "inception_3a/relu_3x3_reduce"
  type: "ReLU"
  bottom: "inception_3a/3x3_reduce"
  top: "inception_3a/3x3_reduce"
}
layer {
  name: "inception_3a/3x3"
  type: "Convolution"
  bottom: "inception_3a/3x3_reduce"
  top: "inception_3a/3x3"
  param {
    lr_mult: 1
    decay_mult: 1
  }
  param {
    lr_mult: 2
    decay_mult: 0
  }
  convolution_param {
    num_output: 128
    pad: 1
    kernel_size: 3
    weight_filler {
      type: "xavier"
    }
    bias_filler {
      type: "constant"
      value: 0.2
    }
  }
}
layer {
  name: "inception_3a/relu_3x3"
  type: "ReLU"
  bottom: "inception_3a/3x3"
  top: "inception_3a/3x3"
}
layer {
  name: "inception_3a/5x5_reduce"
  type: "Convolution"
  bottom: "pool2/3x3_s2"
  top: "inception_3a/5x5_reduce"
  param {
    lr_mult: 1
    decay_mult: 1
  }
  param {
    lr_mult: 2
    decay_mult: 0
  }
  convolution_param {
    num_output: 16
    kernel_size: 1
    weight_filler {
      type: "xavier"
    }
    bias_filler {
      type: "constant"
      value: 0.2
    }
  }
}
layer {
  name: "inception_3a/relu_5x5_reduce"
  type: "ReLU"
  bottom: "inception_3a/5x5_reduce"
  top: "inception_3a/5x5_reduce"
}
layer {
  name: "inception_3a/5x5"
  type: "Convolution"
  bottom: "inception_3a/5x5_reduce"
  top: "inception_3a/5x5"
  param {
    lr_mult: 1
    decay_mult: 1
  }
  param {
    lr_mult: 2
    decay_mult: 0
  }
  convolution_param {
    num_output: 32
    pad: 2
    kernel_size: 5
    weight_filler {
      type: "xavier"
    }
    bias_filler {
      type: "constant"
      value: 0.2
    }
  }
}
layer {
  name: "inception_3a/relu_5x5"
  type: "ReLU"
  bottom: "inception_3a/5x5"
  top: "inception_3a/5x5"
}
layer {
  name: "inception_3a/pool"
  type: "Pooling"
  bottom: "pool2/3x3_s2"
  top: "inception_3a/pool"
  pooling_param {
    pool: MAX
    kernel_size: 3
    stride: 1
    pad: 1
  }
}
layer {
  name: "inception_3a/pool_proj"
  type: "Convolution"
  bottom: "inception_3a/pool"
  top: "inception_3a/pool_proj"
  param {
    lr_mult: 1
    decay_mult: 1
  }
  param {
    lr_mult: 2
    decay_mult: 0
  }
  convolution_param {
    num_output: 32
    kernel_size: 1
    weight_filler {
      type: "xavier"
    }
    bias_filler {
      type: "constant"
      value: 0.2
    }
  }
}
layer {
  name: "inception_3a/relu_pool_proj"
  type: "ReLU"
  bottom: "inception_3a/pool_proj"
  top: "inception_3a/pool_proj"
}
layer {
  name: "inception_3a/output"
  type: "Concat"
  bottom: "inception_3a/1x1"
  bottom: "inception_3a/3x3"
  bottom: "inception_3a/5x5"
  bottom: "inception_3a/pool_proj"
  top: "inception_3a/output"
}
layer {
  name: "inception_3b/1x1"
  type: "Convolution"
  bottom: "inception_3a/output"
  top: "inception_3b/1x1"
  param {
    lr_mult: 1
    decay_mult: 1
  }
  param {
    lr_mult: 2
    decay_mult: 0
  }
  convolution_param {
    num_output: 128
    kernel_size: 1
    weight_filler {
      type: "xavier"
    }
    bias_filler {
      type: "constant"
      value: 0.2
    }
  }
}
layer {
  name: "inception_3b/relu_1x1"
  type: "ReLU"
  bottom: "inception_3b/1x1"
  top: "inception_3b/1x1"
}
layer {
  name: "inception_3b/3x3_reduce"
  type: "Convolution"
  bottom: "inception_3a/output"
  top: "inception_3b/3x3_reduce"
  param {
    lr_mult: 1
    decay_mult: 1
  }
  param {
    lr_mult: 2
    decay_mult: 0
  }
  convolution_param {
    num_output: 128
    kernel_size: 1
    weight_filler {
      type: "xavier"
    }
    bias_filler {
      type: "constant"
      value: 0.2
    }
  }
}
layer {
  name: "inception_3b/relu_3x3_reduce"
  type: "ReLU"
  bottom: "inception_3b/3x3_reduce"
  top: "inception_3b/3x3_reduce"
}
layer {
  name: "inception_3b/3x3"
  type: "Convolution"
  bottom: "inception_3b/3x3_reduce"
  top: "inception_3b/3x3"
  param {
    lr_mult: 1
    decay_mult: 1
  }
  param {
    lr_mult: 2
    decay_mult: 0
  }
  convolution_param {
    num_output: 192
    pad: 1
    kernel_size: 3
    weight_filler {
      type: "xavier"
    }
    bias_filler {
      type: "constant"
      value: 0.2
    }
  }
}
layer {
  name: "inception_3b/relu_3x3"
  type: "ReLU"
  bottom: "inception_3b/3x3"
  top: "inception_3b/3x3"
}
layer {
  name: "inception_3b/5x5_reduce"
  type: "Convolution"
  bottom: "inception_3a/output"
  top: "inception_3b/5x5_reduce"
  param {
    lr_mult: 1
    decay_mult: 1
  }
  param {
    lr_mult: 2
    decay_mult: 0
  }
  convolution_param {
    num_output: 32
    kernel_size: 1
    weight_filler {
      type: "xavier"
    }
    bias_filler {
      type: "constant"
      value: 0.2
    }
  }
}
layer {
  name: "inception_3b/relu_5x5_reduce"
  type: "ReLU"
  bottom: "inception_3b/5x5_reduce"
  top: "inception_3b/5x5_reduce"
}
layer {
  name: "inception_3b/5x5"
  type: "Convolution"
  bottom: "inception_3b/5x5_reduce"
  top: "inception_3b/5x5"
  param {
    lr_mult: 1
    decay_mult: 1
  }
  param {
    lr_mult: 2
    decay_mult: 0
  }
  convolution_param {
    num_output: 96
    pad: 2
    kernel_size: 5
    weight_filler {
      type: "xavier"
    }
    bias_filler {
      type: "constant"
      value: 0.2
    }
  }
}
layer {
  name: "inception_3b/relu_5x5"
  type: "ReLU"
  bottom: "inception_3b/5x5"
  top: "inception_3b/5x5"
}
layer {
  name: "inception_3b/pool"
  type: "Pooling"
  bottom: "inception_3a/output"
  top: "inception_3b/pool"
  pooling_param {
    pool: MAX
    kernel_size: 3
    stride: 1
    pad: 1
  }
}
layer {
  name: "inception_3b/pool_proj"
  type: "Convolution"
  bottom: "inception_3b/pool"
  top: "inception_3b/pool_proj"
  param {
    lr_mult: 1
    decay_mult: 1
  }
  param {
    lr_mult: 2
    decay_mult: 0
  }
  convolution_param {
    num_output: 64
    kernel_size: 1
    weight_filler {
      type: "xavier"
    }
    bias_filler {
      type: "constant"
      value: 0.2
    }
  }
}
layer {
  name: "inception_3b/relu_pool_proj"
  type: "ReLU"
  bottom: "inception_3b/pool_proj"
  top: "inception_3b/pool_proj"
}
layer {
  name: "inception_3b/output"
  type: "Concat"
  bottom: "inception_3b/1x1"
  bottom: "inception_3b/3x3"
  bottom: "inception_3b/5x5"
  bottom: "inception_3b/pool_proj"
  top: "inception_3b/output"
}
layer {
  name: "pool3/3x3_s2"
  type: "Pooling"
  bottom: "inception_3b/output"
  top: "pool3/3x3_s2"
  pooling_param {
    pool: MAX
    kernel_size: 3
    stride: 2
  }
}
layer {
  name: "inception_4a/1x1"
  type: "Convolution"
  bottom: "pool3/3x3_s2"
  top: "inception_4a/1x1"
  param {
    lr_mult: 1
    decay_mult: 1
  }
  param {
    lr_mult: 2
    decay_mult: 0
  }
  convolution_param {
    num_output: 192
    kernel_size: 1
    weight_filler {
      type: "xavier"
    }
    bias_filler {
      type: "constant"
      value: 0.2
    }
  }
}
layer {
  name: "inception_4a/relu_1x1"
  type: "ReLU"
  bottom: "inception_4a/1x1"
  top: "inception_4a/1x1"
}
layer {
  name: "inception_4a/3x3_reduce"
  type: "Convolution"
  bottom: "pool3/3x3_s2"
  top: "inception_4a/3x3_reduce"
  param {
    lr_mult: 1
    decay_mult: 1
  }
  param {
    lr_mult: 2
    decay_mult: 0
  }
  convolution_param {
    num_output: 96
    kernel_size: 1
    weight_filler {
      type: "xavier"
    }
    bias_filler {
      type: "constant"
      value: 0.2
    }
  }
}
layer {
  name: "inception_4a/relu_3x3_reduce"
  type: "ReLU"
  bottom: "inception_4a/3x3_reduce"
  top: "inception_4a/3x3_reduce"
}
layer {
  name: "inception_4a/3x3"
  type: "Convolution"
  bottom: "inception_4a/3x3_reduce"
  top: "inception_4a/3x3"
  param {
    lr_mult: 1
    decay_mult: 1
  }
  param {
    lr_mult: 2
    decay_mult: 0
  }
  convolution_param {
    num_output: 208
    pad: 1
…
I0714 00:34:44.977708 25208 net.cpp:157] Top shape: 100 64 14 14 (1254400)
I0714 00:34:44.977718 25208 net.cpp:165] Memory required for data: 4424146008
I0714 00:34:44.977732 25208 layer_factory.hpp:76] Creating layer inception_4c/relu_pool_proj
I0714 00:34:44.977751 25208 net.cpp:106] Creating Layer inception_4c/relu_pool_proj
I0714 00:34:44.977761 25208 net.cpp:454] inception_4c/relu_pool_proj <- inception_4c/pool_proj
I0714 00:34:44.977776 25208 net.cpp:397] inception_4c/relu_pool_proj -> inception_4c/pool_proj (in-place)
I0714 00:34:44.982614 25208 net.cpp:150] Setting up inception_4c/relu_pool_proj
I0714 00:34:44.982638 25208 net.cpp:157] Top shape: 100 64 14 14 (1254400)
I0714 00:34:44.982656 25208 net.cpp:165] Memory required for data: 4429163608
I0714 00:34:44.982668 25208 layer_factory.hpp:76] Creating layer inception_4c/output
I0714 00:34:44.982683 25208 net.cpp:106] Creating Layer inception_4c/output
I0714 00:34:44.982692 25208 net.cpp:454] inception_4c/output <- inception_4c/1x1
I0714 00:34:44.982703 25208 net.cpp:454] inception_4c/output <- inception_4c/3x3
I0714 00:34:44.982713 25208 net.cpp:454] inception_4c/output <- inception_4c/5x5
I0714 00:34:44.982722 25208 net.cpp:454] inception_4c/output <- inception_4c/pool_proj
I0714 00:34:44.982733 25208 net.cpp:411] inception_4c/output -> inception_4c/output
I0714 00:34:44.982791 25208 net.cpp:150] Setting up inception_4c/output
I0714 00:34:44.982805 25208 net.cpp:157] Top shape: 100 512 14 14 (10035200)
I0714 00:34:44.982813 25208 net.cpp:165] Memory required for data: 4469304408
I0714 00:34:44.982825 25208 layer_factory.hpp:76] Creating layer inception_4c/output_inception_4c/output_0_split
I0714 00:34:44.982838 25208 net.cpp:106] Creating Layer inception_4c/output_inception_4c/output_0_split
I0714 00:34:44.982847 25208 net.cpp:454] inception_4c/output_inception_4c/output_0_split <- inception_4c/output
I0714 00:34:44.982884 25208 net.cpp:411] inception_4c/output_inception_4c/output_0_split -> inception_4c/output_inception_4c/output_0_split_0
I0714 00:34:44.982898 25208 net.cpp:411] inception_4c/output_inception_4c/output_0_split -> inception_4c/output_inception_4c/output_0_split_1
I0714 00:34:44.982910 25208 net.cpp:411] inception_4c/output_inception_4c/output_0_split -> inception_4c/output_inception_4c/output_0_split_2
I0714 00:34:44.982921 25208 net.cpp:411] inception_4c/output_inception_4c/output_0_split -> inception_4c/output_inception_4c/output_0_split_3
I0714 00:34:44.983042 25208 net.cpp:150] Setting up inception_4c/output_inception_4c/output_0_split
I0714 00:34:44.983055 25208 net.cpp:157] Top shape: 100 512 14 14 (10035200)
I0714 00:34:44.983065 25208 net.cpp:157] Top shape: 100 512 14 14 (10035200)
I0714 00:34:44.983074 25208 net.cpp:157] Top shape: 100 512 14 14 (10035200)
I0714 00:34:44.983083 25208 net.cpp:157] Top shape: 100 512 14 14 (10035200)
I0714 00:34:44.983093 25208 net.cpp:165] Memory required for data: 4629867608
I0714 00:34:44.983100 25208 layer_factory.hpp:76] Creating layer inception_4d/1x1
I0714 00:34:44.983114 25208 net.cpp:106] Creating Layer inception_4d/1x1
I0714 00:34:44.983124 25208 net.cpp:454] inception_4d/1x1 <- inception_4c/output_inception_4c/output_0_split_0
I0714 00:34:44.983137 25208 net.cpp:411] inception_4d/1x1 -> inception_4d/1x1
I0714 00:34:44.996551 25208 cudnn_conv_layer.cpp:194] Reallocating workspace storage: 6144
I0714 00:34:44.996611 25208 net.cpp:150] Setting up inception_4d/1x1
I0714 00:34:44.996628 25208 net.cpp:157] Top shape: 100 112 14 14 (2195200)
I0714 00:34:44.996636 25208 net.cpp:165] Memory required for data: 4638648408
I0714 00:34:44.996650 25208 layer_factory.hpp:76] Creating layer inception_4d/relu_1x1
I0714 00:34:44.996665 25208 net.cpp:106] Creating Layer inception_4d/relu_1x1
I0714 00:34:44.996675 25208 net.cpp:454] inception_4d/relu_1x1 <- inception_4d/1x1
I0714 00:34:44.996685 25208 net.cpp:397] inception_4d/relu_1x1 -> inception_4d/1x1 (in-place)
I0714 00:34:45.001843 25208 net.cpp:150] Setting up inception_4d/relu_1x1
I0714 00:34:45.001865 25208 net.cpp:157] Top shape: 100 112 14 14 (2195200)
I0714 00:34:45.001875 25208 net.cpp:165] Memory required for data: 4647429208
I0714 00:34:45.001885 25208 layer_factory.hpp:76] Creating layer inception_4d/3x3_reduce
I0714 00:34:45.001906 25208 net.cpp:106] Creating Layer inception_4d/3x3_reduce
I0714 00:34:45.001917 25208 net.cpp:454] inception_4d/3x3_reduce <- inception_4c/output_inception_4c/output_0_split_1
I0714 00:34:45.001931 25208 net.cpp:411] inception_4d/3x3_reduce -> inception_4d/3x3_reduce
I0714 00:34:45.017474 25208 cudnn_conv_layer.cpp:194] Reallocating workspace storage: 6144
I0714 00:34:45.017530 25208 net.cpp:150] Setting up inception_4d/3x3_reduce
I0714 00:34:45.017554 25208 net.cpp:157] Top shape: 100 144 14 14 (2822400)
I0714 00:34:45.017563 25208 net.cpp:165] Memory required for data: 4658718808
I0714 00:34:45.017576 25208 layer_factory.hpp:76] Creating layer inception_4d/relu_3x3_reduce
I0714 00:34:45.017590 25208 net.cpp:106] Creating Layer inception_4d/relu_3x3_reduce
I0714 00:34:45.017601 25208 net.cpp:454] inception_4d/relu_3x3_reduce <- inception_4d/3x3_reduce
I0714 00:34:45.017614 25208 net.cpp:397] inception_4d/relu_3x3_reduce -> inception_4d/3x3_reduce (in-place)
I0714 00:34:45.022430 25208 net.cpp:150] Setting up inception_4d/relu_3x3_reduce
I0714 00:34:45.022456 25208 net.cpp:157] Top shape: 100 144 14 14 (2822400)
I0714 00:34:45.022465 25208 net.cpp:165] Memory required for data: 4670008408
I0714 00:34:45.022475 25208 layer_factory.hpp:76] Creating layer inception_4d/3x3
I0714 00:34:45.022507 25208 net.cpp:106] Creating Layer inception_4d/3x3
I0714 00:34:45.022518 25208 net.cpp:454] inception_4d/3x3 <- inception_4d/3x3_reduce
I0714 00:34:45.022532 25208 net.cpp:411] inception_4d/3x3 -> inception_4d/3x3
I0714 00:34:45.036239 25208 cudnn_conv_layer.cpp:194] Reallocating workspace storage: 15552
I0714 00:34:45.036298 25208 net.cpp:150] Setting up inception_4d/3x3
I0714 00:34:45.036337 25208 net.cpp:157] Top shape: 100 288 14 14 (5644800)
I0714 00:34:45.036348 25208 net.cpp:165] Memory required for data: 4692587608
I0714 00:34:45.036362 25208 layer_factory.hpp:76] Creating layer inception_4d/relu_3x3
I0714 00:34:45.036380 25208 net.cpp:106] Creating Layer inception_4d/relu_3x3
I0714 00:34:45.036391 25208 net.cpp:454] inception_4d/relu_3x3 <- inception_4d/3x3
I0714 00:34:45.036401 25208 net.cpp:397] inception_4d/relu_3x3 -> inception_4d/3x3 (in-place)
I0714 00:34:45.041095 25208 net.cpp:150] Setting up inception_4d/relu_3x3
I0714 00:34:45.041115 25208 net.cpp:157] Top shape: 100 288 14 14 (5644800)
I0714 00:34:45.041124 25208 net.cpp:165] Memory required for data: 4715166808
I0714 00:34:45.041133 25208 layer_factory.hpp:76] Creating layer inception_4d/5x5_reduce
I0714 00:34:45.041153 25208 net.cpp:106] Creating Layer inception_4d/5x5_reduce
I0714 00:34:45.041163 25208 net.cpp:454] inception_4d/5x5_reduce <- inception_4c/output_inception_4c/output_0_split_2
I0714 00:34:45.041178 25208 net.cpp:411] inception_4d/5x5_reduce -> inception_4d/5x5_reduce
I0714 00:34:45.056550 25208 net.cpp:150] Setting up inception_4d/5x5_reduce
I0714 00:34:45.056578 25208 net.cpp:157] Top shape: 100 32 14 14 (627200)
I0714 00:34:45.056588 25208 net.cpp:165] Memory required for data: 4717675608
I0714 00:34:45.056602 25208 layer_factory.hpp:76] Creating layer inception_4d/relu_5x5_reduce
I0714 00:34:45.056617 25208 net.cpp:106] Creating Layer inception_4d/relu_5x5_reduce
I0714 00:34:45.056627 25208 net.cpp:454] inception_4d/relu_5x5_reduce <- inception_4d/5x5_reduce
I0714 00:34:45.056640 25208 net.cpp:397] inception_4d/relu_5x5_reduce -> inception_4d/5x5_reduce (in-place)
I0714 00:34:45.062088 25208 net.cpp:150] Setting up inception_4d/relu_5x5_reduce
I0714 00:34:45.062109 25208 net.cpp:157] Top shape: 100 32 14 14 (627200)
I0714 00:34:45.062119 25208 net.cpp:165] Memory required for data: 4720184408
I0714 00:34:45.062127 25208 layer_factory.hpp:76] Creating layer inception_4d/5x5
I0714 00:34:45.062147 25208 net.cpp:106] Creating Layer inception_4d/5x5
I0714 00:34:45.062157 25208 net.cpp:454] inception_4d/5x5 <- inception_4d/5x5_reduce
I0714 00:34:45.062171 25208 net.cpp:411] inception_4d/5x5 -> inception_4d/5x5
I0714 00:34:45.078634 25208 cudnn_conv_layer.cpp:194] Reallocating workspace storage: 9600
I0714 00:34:45.078718 25208 net.cpp:150] Setting up inception_4d/5x5
I0714 00:34:45.078735 25208 net.cpp:157] Top shape: 100 64 14 14 (1254400)
I0714 00:34:45.078744 25208 net.cpp:165] Memory required for data: 4725202008
I0714 00:34:45.078758 25208 layer_factory.hpp:76] Creating layer inception_4d/relu_5x5
I0714 00:34:45.078773 25208 net.cpp:106] Creating Layer inception_4d/relu_5x5
I0714 00:34:45.078784 25208 net.cpp:454] inception_4d/relu_5x5 <- inception_4d/5x5
I0714 00:34:45.078796 25208 net.cpp:397] inception_4d/relu_5x5 -> inception_4d/5x5 (in-place)
I0714 00:34:45.084053 25208 net.cpp:150] Setting up inception_4d/relu_5x5
I0714 00:34:45.084076 25208 net.cpp:157] Top shape: 100 64 14 14 (1254400)
I0714 00:34:45.084085 25208 net.cpp:165] Memory required for data: 4730219608
I0714 00:34:45.084096 25208 layer_factory.hpp:76] Creating layer inception_4d/pool
I0714 00:34:45.084113 25208 net.cpp:106] Creating Layer inception_4d/pool
I0714 00:34:45.084123 25208 net.cpp:454] inception_4d/pool <- inception_4c/output_inception_4c/output_0_split_3
I0714 00:34:45.084139 25208 net.cpp:411] inception_4d/pool -> inception_4d/pool
I0714 00:34:45.089330 25208 net.cpp:150] Setting up inception_4d/pool
I0714 00:34:45.089354 25208 net.cpp:157] Top shape: 100 512 14 14 (10035200)
I0714 00:34:45.089365 25208 net.cpp:165] Memory required for data: 4770360408
I0714 00:34:45.089373 25208 layer_factory.hpp:76] Creating layer inception_4d/pool_proj
I0714 00:34:45.089398 25208 net.cpp:106] Creating Layer inception_4d/pool_proj
I0714 00:34:45.089409 25208 net.cpp:454] inception_4d/pool_proj <- inception_4d/pool
I0714 00:34:45.089421 25208 net.cpp:411] inception_4d/pool_proj -> inception_4d/pool_proj
I0714 00:34:45.101997 25208 net.cpp:150] Setting up inception_4d/pool_proj
I0714 00:34:45.102026 25208 net.cpp:157] Top shape: 100 64 14 14 (1254400)
I0714 00:34:45.102035 25208 net.cpp:165] Memory required for data: 4775378008
I0714 00:34:45.102049 25208 layer_factory.hpp:76] Creating layer inception_4d/relu_pool_proj
I0714 00:34:45.102064 25208 net.cpp:106] Creating Layer inception_4d/relu_pool_proj
I0714 00:34:45.102075 25208 net.cpp:454] inception_4d/relu_pool_proj <- inception_4d/pool_proj
I0714 00:34:45.102087 25208 net.cpp:397] inception_4d/relu_pool_proj -> inception_4d/pool_proj (in-place)
I0714 00:34:45.106916 25208 net.cpp:150] Setting up inception_4d/relu_pool_proj
I0714 00:34:45.106940 25208 net.cpp:157] Top shape: 100 64 14 14 (1254400)
I0714 00:34:45.106950 25208 net.cpp:165] Memory required for data: 4780395608
I0714 00:34:45.106958 25208 layer_factory.hpp:76] Creating layer inception_4d/output
I0714 00:34:45.106973 25208 net.cpp:106] Creating Layer inception_4d/output
I0714 00:34:45.106983 25208 net.cpp:454] inception_4d/output <- inception_4d/1x1
I0714 00:34:45.106993 25208 net.cpp:454] inception_4d/output <- inception_4d/3x3
I0714 00:34:45.107004 25208 net.cpp:454] inception_4d/output <- inception_4d/5x5
I0714 00:34:45.107013 25208 net.cpp:454] inception_4d/output <- inception_4d/pool_proj
I0714 00:34:45.107024 25208 net.cpp:411] inception_4d/output -> inception_4d/output
I0714 00:34:45.107086 25208 net.cpp:150] Setting up inception_4d/output
I0714 00:34:45.107100 25208 net.cpp:157] Top shape: 100 528 14 14 (10348800)
I0714 00:34:45.107108 25208 net.cpp:165] Memory required for data: 4821790808
I0714 00:34:45.107120 25208 layer_factory.hpp:76] Creating layer inception_4d/output_inception_4d/output_0_split
I0714 00:34:45.107136 25208 net.cpp:106] Creating Layer inception_4d/output_inception_4d/output_0_split
I0714 00:34:45.107144 25208 net.cpp:454] inception_4d/output_inception_4d/output_0_split <- inception_4d/output
I0714 00:34:45.107161 25208 net.cpp:411] inception_4d/output_inception_4d/output_0_split -> inception_4d/output_inception_4d/output_0_split_0
I0714 00:34:45.107173 25208 net.cpp:411] inception_4d/output_inception_4d/output_0_split -> inception_4d/output_inception_4d/output_0_split_1
I0714 00:34:45.107185 25208 net.cpp:411] inception_4d/output_inception_4d/output_0_split -> inception_4d/output_inception_4d/output_0_split_2
I0714 00:34:45.107197 25208 net.cpp:411] inception_4d/output_inception_4d/output_0_split -> inception_4d/output_inception_4d/output_0_split_3
I0714 00:34:45.107208 25208 net.cpp:411] inception_4d/output_inception_4d/output_0_split -> inception_4d/output_inception_4d/output_0_split_4
I0714 00:34:45.107357 25208 net.cpp:150] Setting up inception_4d/output_inception_4d/output_0_split
I0714 00:34:45.107369 25208 net.cpp:157] Top shape: 100 528 14 14 (10348800)
I0714 00:34:45.107380 25208 net.cpp:157] Top shape: 100 528 14 14 (10348800)
I0714 00:34:45.107390 25208 net.cpp:157] Top shape: 100 528 14 14 (10348800)
I0714 00:34:45.107399 25208 net.cpp:157] Top shape: 100 528 14 14 (10348800)
I0714 00:34:45.107409 25208 net.cpp:157] Top shape: 100 528 14 14 (10348800)
I0714 00:34:45.107416 25208 net.cpp:165] Memory required for data: 5028766808
I0714 00:34:45.107425 25208 layer_factory.hpp:76] Creating layer loss2/ave_pool
I0714 00:34:45.107437 25208 net.cpp:106] Creating Layer loss2/ave_pool
I0714 00:34:45.107446 25208 net.cpp:454] loss2/ave_pool <- inception_4d/output_inception_4d/output_0_split_0
I0714 00:34:45.107460 25208 net.cpp:411] loss2/ave_pool -> loss2/ave_pool
I0714 00:34:45.111752 25208 net.cpp:150] Setting up loss2/ave_pool
I0714 00:34:45.111771 25208 net.cpp:157] Top shape: 100 528 4 4 (844800)
I0714 00:34:45.111780 25208 net.cpp:165] Memory required for data: 5032146008
I0714 00:34:45.111789 25208 layer_factory.hpp:76] Creating layer loss2/conv
I0714 00:34:45.111805 25208 net.cpp:106] Creating Layer loss2/conv
I0714 00:34:45.111815 25208 net.cpp:454] loss2/conv <- loss2/ave_pool
I0714 00:34:45.111829 25208 net.cpp:411] loss2/conv -> loss2/conv
I0714 00:34:45.126301 25208 cudnn_conv_layer.cpp:194] Reallocating workspace storage: 6336
I0714 00:34:45.126415 25208 net.cpp:150] Setting up loss2/conv
I0714 00:34:45.126435 25208 net.cpp:157] Top shape: 100 128 4 4 (204800)
I0714 00:34:45.126443 25208 net.cpp:165] Memory required for data: 5032965208
I0714 00:34:45.126459 25208 layer_factory.hpp:76] Creating layer loss2/relu_conv
I0714 00:34:45.126473 25208 net.cpp:106] Creating Layer loss2/relu_conv
I0714 00:34:45.126483 25208 net.cpp:454] loss2/relu_conv <- loss2/conv
I0714 00:34:45.126498 25208 net.cpp:397] loss2/relu_conv -> loss2/conv (in-place)
I0714 00:34:45.129397 25208 net.cpp:150] Setting up loss2/relu_conv
I0714 00:34:45.129443 25208 net.cpp:157] Top shape: 100 128 4 4 (204800)
I0714 00:34:45.129456 25208 net.cpp:165] Memory required for data: 5033784408
I0714 00:34:45.129472 25208 layer_factory.hpp:76] Creating layer loss2/fc
I0714 00:34:45.129492 25208 net.cpp:106] Creating Layer loss2/fc
I0714 00:34:45.129505 25208 net.cpp:454] loss2/fc <- loss2/conv
I0714 00:34:45.129520 25208 net.cpp:411] loss2/fc -> loss2/fc
I0714 00:34:45.148286 25208 net.cpp:150] Setting up loss2/fc
I0714 00:34:45.148329 25208 net.cpp:157] Top shape: 100 1024 (102400)
I0714 00:34:45.148339 25208 net.cpp:165] Memory required for data: 5034194008
I0714 00:34:45.148353 25208 layer_factory.hpp:76] Creating layer loss2/relu_fc
I0714 00:34:45.148370 25208 net.cpp:106] Creating Layer loss2/relu_fc
I0714 00:34:45.148380 25208 net.cpp:454] loss2/relu_fc <- loss2/fc
I0714 00:34:45.148394 25208 net.cpp:397] loss2/relu_fc -> loss2/fc (in-place)
I0714 00:34:45.161236 25208 net.cpp:150] Setting up loss2/relu_fc
I0714 00:34:45.161259 25208 net.cpp:157] Top shape: 100 1024 (102400)
I0714 00:34:45.161269 25208 net.cpp:165] Memory required for data: 5034603608
I0714 00:34:45.161278 25208 layer_factory.hpp:76] Creating layer loss2/drop_fc
I0714 00:34:45.161304 25208 net.cpp:106] Creating Layer loss2/drop_fc
I0714 00:34:45.161315 25208 net.cpp:454] loss2/drop_fc <- loss2/fc
I0714 00:34:45.161325 25208 net.cpp:397] loss2/drop_fc -> loss2/fc (in-place)
I0714 00:34:45.161398 25208 net.cpp:150] Setting up loss2/drop_fc
I0714 00:34:45.161417 25208 net.cpp:157] Top shape: 100 1024 (102400)
I0714 00:34:45.161427 25208 net.cpp:165] Memory required for data: 5035013208
I0714 00:34:45.161437 25208 layer_factory.hpp:76] Creating layer loss2/classifier
I0714 00:34:45.161455 25208 net.cpp:106] Creating Layer loss2/classifier
I0714 00:34:45.161465 25208 net.cpp:454] loss2/classifier <- loss2/fc
I0714 00:34:45.161476 25208 net.cpp:411] loss2/classifier -> loss2/classifier
I0714 00:34:45.161700 25208 net.cpp:150] Setting up loss2/classifier
I0714 00:34:45.161717 25208 net.cpp:157] Top shape: 100 2 (200)
I0714 00:34:45.161733 25208 net.cpp:165] Memory required for data: 5035014008
I0714 00:34:45.161747 25208 layer_factory.hpp:76] Creating layer loss2/classifier_loss2/classifier_0_split
I0714 00:34:45.161761 25208 net.cpp:106] Creating Layer loss2/classifier_loss2/classifier_0_split
I0714 00:34:45.161770 25208 net.cpp:454] loss2/classifier_loss2/classifier_0_split <- loss2/classifier
I0714 00:34:45.161785 25208 net.cpp:411] loss2/classifier_loss2/classifier_0_split -> loss2/classifier_loss2/classifier_0_split_0
I0714 00:34:45.161800 25208 net.cpp:411] loss2/classifier_loss2/classifier_0_split -> loss2/classifier_loss2/classifier_0_split_1
I0714 00:34:45.161871 25208 net.cpp:150] Setting up loss2/classifier_loss2/classifier_0_split
I0714 00:34:45.161886 25208 net.cpp:157] Top shape: 100 2 (200)
I0714 00:34:45.161900 25208 net.cpp:157] Top shape: 100 2 (200)
I0714 00:34:45.161908 25208 net.cpp:165] Memory required for data: 5035015608
I0714 00:34:45.161916 25208 layer_factory.hpp:76] Creating layer loss2/loss
I0714 00:34:45.161932 25208 net.cpp:106] Creating Layer loss2/loss
I0714 00:34:45.161942 25208 net.cpp:454] loss2/loss <- loss2/classifier_loss2/classifier_0_split_0
I0714 00:34:45.161952 25208 net.cpp:454] loss2/loss <- label_data_1_split_2
…
I0714 00:34:45.164561 25208 net.cpp:165] Memory required for data: 5035015616
I0714 00:34:45.164569 25208 layer_factory.hpp:76] Creating layer inception_4e/1x1
I0714 00:34:45.164585 25208 net.cpp:106] Creating Layer inception_4e/1x1
I0714 00:34:45.164597 25208 net.cpp:454] inception_4e/1x1 <- inception_4d/output_inception_4d/output_0_split_1
I0714 00:34:45.164614 25208 net.cpp:411] inception_4e/1x1 -> inception_4e/1x1
I0714 00:34:45.219701 25208 cudnn_conv_layer.cpp:194] Reallocating workspace storage: 6336
I0714 00:34:45.219763 25208 net.cpp:150] Setting up inception_4e/1x1
I0714 00:34:45.219777 25208 net.cpp:157] Top shape: 100 256 14 14 (5017600)
I0714 00:34:45.219787 25208 net.cpp:165] Memory required for data: 5055086016
I0714 00:34:45.219801 25208 layer_factory.hpp:76] Creating layer inception_4e/relu_1x1
I0714 00:34:45.219815 25208 net.cpp:106] Creating Layer inception_4e/relu_1x1
I0714 00:34:45.219828 25208 net.cpp:454] inception_4e/relu_1x1 <- inception_4e/1x1
I0714 00:34:45.219841 25208 net.cpp:397] inception_4e/relu_1x1 -> inception_4e/1x1 (in-place)
I0714 00:34:45.223424 25208 net.cpp:150] Setting up inception_4e/relu_1x1
I0714 00:34:45.223445 25208 net.cpp:157] Top shape: 100 256 14 14 (5017600)
I0714 00:34:45.223459 25208 net.cpp:165] Memory required for data: 5075156416
I0714 00:34:45.223467 25208 layer_factory.hpp:76] Creating layer inception_4e/3x3_reduce
I0714 00:34:45.223497 25208 net.cpp:106] Creating Layer inception_4e/3x3_reduce
I0714 00:34:45.223508 25208 net.cpp:454] inception_4e/3x3_reduce <- inception_4d/output_inception_4d/output_0_split_2
I0714 00:34:45.223522 25208 net.cpp:411] inception_4e/3x3_reduce -> inception_4e/3x3_reduce
I0714 00:34:45.268080 25208 cudnn_conv_layer.cpp:194] Reallocating workspace storage: 6336
I0714 00:34:45.268136 25208 net.cpp:150] Setting up inception_4e/3x3_reduce
I0714 00:34:45.268152 25208 net.cpp:157] Top shape: 100 160 14 14 (3136000)
I0714 00:34:45.268160 25208 net.cpp:165] Memory required for data: 5087700416
I0714 00:34:45.268173 25208 layer_factory.hpp:76] Creating layer inception_4e/relu_3x3_reduce
I0714 00:34:45.268185 25208 net.cpp:106] Creating Layer inception_4e/relu_3x3_reduce
I0714 00:34:45.268195 25208 net.cpp:454] inception_4e/relu_3x3_reduce <- inception_4e/3x3_reduce
I0714 00:34:45.268206 25208 net.cpp:397] inception_4e/relu_3x3_reduce -> inception_4e/3x3_reduce (in-place)
I0714 00:34:45.271322 25208 net.cpp:150] Setting up inception_4e/relu_3x3_reduce
I0714 00:34:45.271342 25208 net.cpp:157] Top shape: 100 160 14 14 (3136000)
I0714 00:34:45.271350 25208 net.cpp:165] Memory required for data: 5100244416
I0714 00:34:45.271359 25208 layer_factory.hpp:76] Creating layer inception_4e/3x3
I0714 00:34:45.271400 25208 net.cpp:106] Creating Layer inception_4e/3x3
I0714 00:34:45.271411 25208 net.cpp:454] inception_4e/3x3 <- inception_4e/3x3_reduce
I0714 00:34:45.271422 25208 net.cpp:411] inception_4e/3x3 -> inception_4e/3x3
I0714 00:34:45.284626 25208 cudnn_conv_layer.cpp:194] Reallocating workspace storage: 17280
I0714 00:34:45.284659 25208 net.cpp:150] Setting up inception_4e/3x3
I0714 00:34:45.284672 25208 net.cpp:157] Top shape: 100 320 14 14 (6272000)
I0714 00:34:45.284682 25208 net.cpp:165] Memory required for data: 5125332416
I0714 00:34:45.284713 25208 layer_factory.hpp:76] Creating layer inception_4e/relu_3x3
I0714 00:34:45.284729 25208 net.cpp:106] Creating Layer inception_4e/relu_3x3
I0714 00:34:45.284741 25208 net.cpp:454] inception_4e/relu_3x3 <- inception_4e/3x3
I0714 00:34:45.284754 25208 net.cpp:397] inception_4e/relu_3x3 -> inception_4e/3x3 (in-place)
I0714 00:34:45.289188 25208 net.cpp:150] Setting up inception_4e/relu_3x3
I0714 00:34:45.289209 25208 net.cpp:157] Top shape: 100 320 14 14 (6272000)
I0714 00:34:45.289218 25208 net.cpp:165] Memory required for data: 5150420416
I0714 00:34:45.289227 25208 layer_factory.hpp:76] Creating layer inception_4e/5x5_reduce
I0714 00:34:45.289245 25208 net.cpp:106] Creating Layer inception_4e/5x5_reduce
I0714 00:34:45.289258 25208 net.cpp:454] inception_4e/5x5_reduce <- inception_4d/output_inception_4d/output_0_split_3
I0714 00:34:45.289269 25208 net.cpp:411] inception_4e/5x5_reduce -> inception_4e/5x5_reduce
I0714 00:34:45.508990 25208 cudnn_conv_layer.cpp:194] Reallocating workspace storage: 6336
I0714 00:34:45.509088 25208 net.cpp:150] Setting up inception_4e/5x5_reduce
I0714 00:34:45.509104 25208 net.cpp:157] Top shape: 100 32 14 14 (627200)
I0714 00:34:45.509115 25208 net.cpp:165] Memory required for data: 5152929216
I0714 00:34:45.509130 25208 layer_factory.hpp:76] Creating layer inception_4e/relu_5x5_reduce
I0714 00:34:45.509146 25208 net.cpp:106] Creating Layer inception_4e/relu_5x5_reduce
I0714 00:34:45.509158 25208 net.cpp:454] inception_4e/relu_5x5_reduce <- inception_4e/5x5_reduce
I0714 00:34:45.509174 25208 net.cpp:397] inception_4e/relu_5x5_reduce -> inception_4e/5x5_reduce (in-place)
I0714 00:34:45.513885 25208 net.cpp:150] Setting up inception_4e/relu_5x5_reduce
I0714 00:34:45.513905 25208 net.cpp:157] Top shape: 100 32 14 14 (627200)
I0714 00:34:45.513913 25208 net.cpp:165] Memory required for data: 5155438016
I0714 00:34:45.513922 25208 layer_factory.hpp:76] Creating layer inception_4e/5x5
I0714 00:34:45.513959 25208 net.cpp:106] Creating Layer inception_4e/5x5
I0714 00:34:45.513972 25208 net.cpp:454] inception_4e/5x5 <- inception_4e/5x5_reduce
I0714 00:34:45.513983 25208 net.cpp:411] inception_4e/5x5 -> inception_4e/5x5
I0714 00:34:45.529798 25208 net.cpp:150] Setting up inception_4e/5x5
I0714 00:34:45.529821 25208 net.cpp:157] Top shape: 100 128 14 14 (2508800)
I0714 00:34:45.529835 25208 net.cpp:165] Memory required for data: 5165473216
I0714 00:34:45.529850 25208 layer_factory.hpp:76] Creating layer inception_4e/relu_5x5
I0714 00:34:45.529865 25208 net.cpp:106] Creating Layer inception_4e/relu_5x5
I0714 00:34:45.529875 25208 net.cpp:454] inception_4e/relu_5x5 <- inception_4e/5x5
I0714 00:34:45.529884 25208 net.cpp:397] inception_4e/relu_5x5 -> inception_4e/5x5 (in-place)
I0714 00:34:45.534924 25208 net.cpp:150] Setting up inception_4e/relu_5x5
I0714 00:34:45.534941 25208 net.cpp:157] Top shape: 100 128 14 14 (2508800)
I0714 00:34:45.534950 25208 net.cpp:165] Memory required for data: 5175508416
I0714 00:34:45.534958 25208 layer_factory.hpp:76] Creating layer inception_4e/pool
I0714 00:34:45.534970 25208 net.cpp:106] Creating Layer inception_4e/pool
I0714 00:34:45.534979 25208 net.cpp:454] inception_4e/pool <- inception_4d/output_inception_4d/output_0_split_4
I0714 00:34:45.534992 25208 net.cpp:411] inception_4e/pool -> inception_4e/pool
I0714 00:34:45.540302 25208 net.cpp:150] Setting up inception_4e/pool
I0714 00:34:45.540323 25208 net.cpp:157] Top shape: 100 528 14 14 (10348800)
I0714 00:34:45.540338 25208 net.cpp:165] Memory required for data: 5216903616
I0714 00:34:45.540354 25208 layer_factory.hpp:76] Creating layer inception_4e/pool_proj
I0714 00:34:45.540371 25208 net.cpp:106] Creating Layer inception_4e/pool_proj
I0714 00:34:45.540380 25208 net.cpp:454] inception_4e/pool_proj <- inception_4e/pool
I0714 00:34:45.540393 25208 net.cpp:411] inception_4e/pool_proj -> inception_4e/pool_proj
I0714 00:34:45.553928 25208 cudnn_conv_layer.cpp:194] Reallocating workspace storage: 6336
I0714 00:34:45.553982 25208 net.cpp:150] Setting up inception_4e/pool_proj
I0714 00:34:45.553995 25208 net.cpp:157] Top shape: 100 128 14 14 (2508800)
I0714 00:34:45.554026 25208 net.cpp:165] Memory required for data: 5226938816
I0714 00:34:45.554039 25208 layer_factory.hpp:76] Creating layer inception_4e/relu_pool_proj
I0714 00:34:45.554052 25208 net.cpp:106] Creating Layer inception_4e/relu_pool_proj
I0714 00:34:45.554064 25208 net.cpp:454] inception_4e/relu_pool_proj <- inception_4e/pool_proj
I0714 00:34:45.554075 25208 net.cpp:397] inception_4e/relu_pool_proj -> inception_4e/pool_proj (in-place)
I0714 00:34:45.558598 25208 net.cpp:150] Setting up inception_4e/relu_pool_proj
I0714 00:34:45.558617 25208 net.cpp:157] Top shape: 100 128 14 14 (2508800)
I0714 00:34:45.558625 25208 net.cpp:165] Memory required for data: 5236974016
I0714 00:34:45.558639 25208 layer_factory.hpp:76] Creating layer inception_4e/output
I0714 00:34:45.558655 25208 net.cpp:106] Creating Layer inception_4e/output
I0714 00:34:45.558665 25208 net.cpp:454] inception_4e/output <- inception_4e/1x1
I0714 00:34:45.558673 25208 net.cpp:454] inception_4e/output <- inception_4e/3x3
I0714 00:34:45.558682 25208 net.cpp:454] inception_4e/output <- inception_4e/5x5
I0714 00:34:45.558691 25208 net.cpp:454] inception_4e/output <- inception_4e/pool_proj
I0714 00:34:45.558701 25208 net.cpp:411] inception_4e/output -> inception_4e/output
I0714 00:34:45.558756 25208 net.cpp:150] Setting up inception_4e/output
I0714 00:34:45.558769 25208 net.cpp:157] Top shape: 100 832 14 14 (16307200)
I0714 00:34:45.558778 25208 net.cpp:165] Memory required for data: 5302202816
I0714 00:34:45.558785 25208 layer_factory.hpp:76] Creating layer pool4/3x3_s2
I0714 00:34:45.558797 25208 net.cpp:106] Creating Layer pool4/3x3_s2
I0714 00:34:45.558804 25208 net.cpp:454] pool4/3x3_s2 <- inception_4e/output
I0714 00:34:45.558817 25208 net.cpp:411] pool4/3x3_s2 -> pool4/3x3_s2
I0714 00:34:45.563524 25208 net.cpp:150] Setting up pool4/3x3_s2
I0714 00:34:45.563545 25208 net.cpp:157] Top shape: 100 832 7 7 (4076800)
I0714 00:34:45.563555 25208 net.cpp:165] Memory required for data: 5318510016
I0714 00:34:45.563570 25208 layer_factory.hpp:76] Creating layer pool4/3x3_s2_pool4/3x3_s2_0_split
I0714 00:34:45.563585 25208 net.cpp:106] Creating Layer pool4/3x3_s2_pool4/3x3_s2_0_split
I0714 00:34:45.563593 25208 net.cpp:454] pool4/3x3_s2_pool4/3x3_s2_0_split <- pool4/3x3_s2
I0714 00:34:45.563606 25208 net.cpp:411] pool4/3x3_s2_pool4/3x3_s2_0_split -> pool4/3x3_s2_pool4/3x3_s2_0_split_0
I0714 00:34:45.563617 25208 net.cpp:411] pool4/3x3_s2_pool4/3x3_s2_0_split -> pool4/3x3_s2_pool4/3x3_s2_0_split_1
I0714 00:34:45.563628 25208 net.cpp:411] pool4/3x3_s2_pool4/3x3_s2_0_split -> pool4/3x3_s2_pool4/3x3_s2_0_split_2
I0714 00:34:45.563639 25208 net.cpp:411] pool4/3x3_s2_pool4/3x3_s2_0_split -> pool4/3x3_s2_pool4/3x3_s2_0_split_3
I0714 00:34:45.563753 25208 net.cpp:150] Setting up pool4/3x3_s2_pool4/3x3_s2_0_split
I0714 00:34:45.563769 25208 net.cpp:157] Top shape: 100 832 7 7 (4076800)
I0714 00:34:45.563778 25208 net.cpp:157] Top shape: 100 832 7 7 (4076800)
I0714 00:34:45.563787 25208 net.cpp:157] Top shape: 100 832 7 7 (4076800)
I0714 00:34:45.563796 25208 net.cpp:157] Top shape: 100 832 7 7 (4076800)
I0714 00:34:45.563802 25208 net.cpp:165] Memory required for data: 5383738816
I0714 00:34:45.563812 25208 layer_factory.hpp:76] Creating layer inception_5a/1x1
I0714 00:34:45.563827 25208 net.cpp:106] Creating Layer inception_5a/1x1
I0714 00:34:45.563835 25208 net.cpp:454] inception_5a/1x1 <- pool4/3x3_s2_pool4/3x3_s2_0_split_0
I0714 00:34:45.563846 25208 net.cpp:411] inception_5a/1x1 -> inception_5a/1x1
I0714 00:34:45.578162 25208 cudnn_conv_layer.cpp:194] Reallocating workspace storage: 9984
I0714 00:34:45.578215 25208 net.cpp:150] Setting up inception_5a/1x1
I0714 00:34:45.578229 25208 net.cpp:157] Top shape: 100 256 7 7 (1254400)
I0714 00:34:45.578238 25208 net.cpp:165] Memory required for data: 5388756416
I0714 00:34:45.578250 25208 layer_factory.hpp:76] Creating layer inception_5a/relu_1x1
I0714 00:34:45.578266 25208 net.cpp:106] Creating Layer inception_5a/relu_1x1
I0714 00:34:45.578276 25208 net.cpp:454] inception_5a/relu_1x1 <- inception_5a/1x1
I0714 00:34:45.578300 25208 net.cpp:397] inception_5a/relu_1x1 -> inception_5a/1x1 (in-place)
I0714 00:34:45.582885 25208 net.cpp:150] Setting up inception_5a/relu_1x1
I0714 00:34:45.582903 25208 net.cpp:157] Top shape: 100 256 7 7 (1254400)
I0714 00:34:45.582911 25208 net.cpp:165] Memory required for data: 5393774016
I0714 00:34:45.582919 25208 layer_factory.hpp:76] Creating layer inception_5a/3x3_reduce
I0714 00:34:45.582934 25208 net.cpp:106] Creating Layer inception_5a/3x3_reduce
I0714 00:34:45.582945 25208 net.cpp:454] inception_5a/3x3_reduce <- pool4/3x3_s2_pool4/3x3_s2_0_split_1
I0714 00:34:45.582957 25208 net.cpp:411] inception_5a/3x3_reduce -> inception_5a/3x3_reduce
I0714 00:34:45.597559 25208 cudnn_conv_layer.cpp:194] Reallocating workspace storage: 9984
I0714 00:34:45.597631 25208 net.cpp:150] Setting up inception_5a/3x3_reduce
I0714 00:34:45.597646 25208 net.cpp:157] Top shape: 100 160 7 7 (784000)
I0714 00:34:45.597654 25208 net.cpp:165] Memory required for data: 5396910016
I0714 00:34:45.597666 25208 layer_factory.hpp:76] Creating layer inception_5a/relu_3x3_reduce
I0714 00:34:45.597678 25208 net.cpp:106] Creating Layer inception_5a/relu_3x3_reduce
I0714 00:34:45.597687 25208 net.cpp:454] inception_5a/relu_3x3_reduce <- inception_5a/3x3_reduce
I0714 00:34:45.597697 25208 net.cpp:397] inception_5a/relu_3x3_reduce -> inception_5a/3x3_reduce (in-place)
I0714 00:34:45.601248 25208 net.cpp:150] Setting up inception_5a/relu_3x3_reduce
I0714 00:34:45.601269 25208 net.cpp:157] Top shape: 100 160 7 7 (784000)
I0714 00:34:45.601277 25208 net.cpp:165] Memory required for data: 5400046016
I0714 00:34:45.601286 25208 layer_factory.hpp:76] Creating layer inception_5a/3x3
I0714 00:34:45.601303 25208 net.cpp:106] Creating Layer inception_5a/3x3
I0714 00:34:45.601313 25208 net.cpp:454] inception_5a/3x3 <- inception_5a/3x3_reduce
I0714 00:34:45.601326 25208 net.cpp:411] inception_5a/3x3 -> inception_5a/3x3
I0714 00:34:45.614083 25208 net.cpp:150] Setting up inception_5a/3x3
I0714 00:34:45.614110 25208 net.cpp:157] Top shape: 100 320 7 7 (1568000)
I0714 00:34:45.614120 25208 net.cpp:165] Memory required for data: 5406318016
I0714 00:34:45.614132 25208 layer_factory.hpp:76] Creating layer inception_5a/relu_3x3
I0714 00:34:45.614145 25208 net.cpp:106] Creating Layer inception_5a/relu_3x3
I0714 00:34:45.614154 25208 net.cpp:454] inception_5a/relu_3x3 <- inception_5a/3x3
I0714 00:34:45.614164 25208 net.cpp:397] inception_5a/relu_3x3 -> inception_5a/3x3 (in-place)
I0714 00:34:45.618711 25208 net.cpp:150] Setting up inception_5a/relu_3x3
I0714 00:34:45.618732 25208 net.cpp:157] Top shape: 100 320 7 7 (1568000)
I0714 00:34:45.618742 25208 net.cpp:165] Memory required for data: 5412590016
I0714 00:34:45.618752 25208 layer_factory.hpp:76] Creating layer inception_5a/5x5_reduce
I0714 00:34:45.618772 25208 net.cpp:106] Creating Layer inception_5a/5x5_reduce
I0714 00:34:45.618782 25208 net.cpp:454] inception_5a/5x5_reduce <- pool4/3x3_s2_pool4/3x3_s2_0_split_2
I0714 00:34:45.618793 25208 net.cpp:411] inception_5a/5x5_reduce -> inception_5a/5x5_reduce
I0714 00:34:45.785536 25208 net.cpp:150] Setting up inception_5a/5x5_reduce
I0714 00:34:45.785575 25208 net.cpp:157] Top shape: 100 32 7 7 (156800)
I0714 00:34:45.785584 25208 net.cpp:165] Memory required for data: 5413217216
I0714 00:34:45.785604 25208 layer_factory.hpp:76] Creating layer inception_5a/relu_5x5_reduce
I0714 00:34:45.785625 25208 net.cpp:106] Creating Layer inception_5a/relu_5x5_reduce
I0714 00:34:45.785637 25208 net.cpp:454] inception_5a/relu_5x5_reduce <- inception_5a/5x5_reduce
I0714 00:34:45.785650 25208 net.cpp:397] inception_5a/relu_5x5_reduce -> inception_5a/5x5_reduce (in-place)
I0714 00:34:45.788724 25208 net.cpp:150] Setting up inception_5a/relu_5x5_reduce
I0714 00:34:45.788744 25208 net.cpp:157] Top shape: 100 32 7 7 (156800)
I0714 00:34:45.788753 25208 net.cpp:165] Memory required for data: 5413844416
I0714 00:34:45.788763 25208 layer_factory.hpp:76] Creating layer inception_5a/5x5
I0714 00:34:45.788780 25208 net.cpp:106] Creating Layer inception_5a/5x5
I0714 00:34:45.788833 25208 net.cpp:454] inception_5a/5x5 <- inception_5a/5x5_reduce
I0714 00:34:45.788853 25208 net.cpp:411] inception_5a/5x5 -> inception_5a/5x5
I0714 00:34:45.801141 25208 net.cpp:150] Setting up inception_5a/5x5
I0714 00:34:45.801163 25208 net.cpp:157] Top shape: 100 128 7 7 (627200)
I0714 00:34:45.801172 25208 net.cpp:165] Memory required for data: 5416353216
I0714 00:34:45.801185 25208 layer_factory.hpp:76] Creating layer inception_5a/relu_5x5
I0714 00:34:45.801201 25208 net.cpp:106] Creating Layer inception_5a/relu_5x5
I0714 00:34:45.801211 25208 net.cpp:454] inception_5a/relu_5x5 <- inception_5a/5x5
I0714 00:34:45.801221 25208 net.cpp:397] inception_5a/relu_5x5 -> inception_5a/5x5 (in-place)
I0714 00:34:45.805691 25208 net.cpp:150] Setting up inception_5a/relu_5x5
I0714 00:34:45.805713 25208 net.cpp:157] Top shape: 100 128 7 7 (627200)
I0714 00:34:45.805722 25208 net.cpp:165] Memory required for data: 5418862016
I0714 00:34:45.805732 25208 layer_factory.hpp:76] Creating layer inception_5a/pool
I0714 00:34:45.805747 25208 net.cpp:106] Creating Layer inception_5a/pool
I0714 00:34:45.805758 25208 net.cpp:454] inception_5a/pool <- pool4/3x3_s2_pool4/3x3_s2_0_split_3
I0714 00:34:45.805769 25208 net.cpp:411] inception_5a/pool -> inception_5a/pool
I0714 00:34:45.810510 25208 net.cpp:150] Setting up inception_5a/pool
I0714 00:34:45.810534 25208 net.cpp:157] Top shape: 100 832 7 7 (4076800)
I0714 00:34:45.810542 25208 net.cpp:165] Memory required for data: 5435169216
I0714 00:34:45.810552 25208 layer_factory.hpp:76] Creating layer inception_5a/pool_proj
I0714 00:34:45.810575 25208 net.cpp:106] Creating Layer inception_5a/pool_proj
I0714 00:34:45.810585 25208 net.cpp:454] inception_5a/pool_proj <- inception_5a/pool
I0714 00:34:45.810596 25208 net.cpp:411] inception_5a/pool_proj -> inception_5a/pool_proj
I0714 00:34:45.824481 25208 cudnn_conv_layer.cpp:194] Reallocating workspace storage: 9984
I0714 00:34:45.824547 25208 net.cpp:150] Setting up inception_5a/pool_proj
I0714 00:34:45.824564 25208 net.cpp:157] Top shape: 100 128 7 7 (627200)
I0714 00:34:45.824574 25208 net.cpp:165] Memory required for data: 5437678016
I0714 00:34:45.824589 25208 layer_factory.hpp:76] Creating layer inception_5a/relu_pool_proj
I0714 00:34:45.824605 25208 net.cpp:106] Creating Layer inception_5a/relu_pool_proj
I0714 00:34:45.824621 25208 net.cpp:454] inception_5a/relu_pool_proj <- inception_5a/pool_proj
I0714 00:34:45.824632 25208 net.cpp:397] inception_5a/relu_pool_proj -> inception_5a/pool_proj (in-place)
I0714 00:34:45.828073 25208 net.cpp:150] Setting up inception_5a/relu_pool_proj
I0714 00:34:45.828094 25208 net.cpp:157] Top shape: 100 128 7 7 (627200)
I0714 00:34:45.828101 25208 net.cpp:165] Memory required for data: 5440186816
I0714 00:34:45.828110 25208 layer_factory.hpp:76] Creating layer inception_5a/output
I0714 00:34:45.828122 25208 net.cpp:106] Creating Layer inception_5a/output
I0714 00:34:45.828131 25208 net.cpp:454] inception_5a/output <- inception_5a/1x1
I0714 00:34:45.828141 25208 net.cpp:454] inception_5a/output <- inception_5a/3x3
I0714 00:34:45.828155 25208 net.cpp:454] inception_5a/output <- inception_5a/5x5
I0714 00:34:45.828164 25208 net.cpp:454] inception_5a/output <- inception_5a/pool_proj
I0714 00:34:45.828174 25208 net.cpp:411] inception_5a/output -> inception_5a/output
I0714 00:34:45.828230 25208 net.cpp:150] Setting up inception_5a/output
I0714 00:34:45.828248 25208 net.cpp:157] Top shape: 100 832 7 7 (4076800)
I0714 00:34:45.828256 25208 net.cpp:165] Memory required for data: 5456494016
I0714 00:34:45.828270 25208 layer_factory.hpp:76] Creating layer inception_5a/output_inception_5a/output_0_split
I0714 00:34:45.828289 25208 net.cpp:106] Creating Layer inception_5a/output_inception_5a/output_0_split
I0714 00:34:45.828299 25208 net.cpp:454] inception_5a/output_inception_5a/output_0_split <- inception_5a/output
I0714 00:34:45.828310 25208 net.cpp:411] inception_5a/output_inception_5a/output_0_split -> inception_5a/output_inception_5a/output_0_split_0
I0714 00:34:45.828325 25208 net.cpp:411] inception_5a/output_inception_5a/output_0_split -> inception_5a/output_inception_5a/output_0_split_1
I0714 00:34:45.828352 25208 net.cpp:411] inception_5a/output_inception_5a/output_0_split -> inception_5a/output_inception_5a/output_0_split_2
I0714 00:34:45.828364 25208 net.cpp:411] inception_5a/output_inception_5a/output_0_split -> inception_5a/output_inception_5a/output_0_split_3
I0714 00:34:45.828490 25208 net.cpp:150] Setting up inception_5a/output_inception_5a/output_0_split
I0714 00:34:45.828514 25208 net.cpp:157] Top shape: 100 832 7 7 (4076800)
I0714 00:34:45.828524 25208 net.cpp:157] Top shape: 100 832 7 7 (4076800)
I0714 00:34:45.828536 25208 net.cpp:157] Top shape: 100 832 7 7 (4076800)
I0714 00:34:45.828543 25208 net.cpp:157] Top shape: 100 832 7 7 (4076800)
I0714 00:34:45.828552 25208 net.cpp:165] Memory required for data: 5521722816
I0714 00:34:45.828559 25208 layer_factory.hpp:76] Creating layer inception_5b/1x1
I0714 00:34:45.828574 25208 net.cpp:106] Creating Layer inception_5b/1x1
I0714 00:34:45.828584 25208 net.cpp:454] inception_5b/1x1 <- inception_5a/output_inception_5a/output_0_split_0
I0714 00:34:45.828598 25208 net.cpp:411] inception_5b/1x1 -> inception_5b/1x1
I0714 00:34:45.843803 25208 cudnn_conv_layer.cpp:194] Reallocating workspace storage: 9984
I0714 00:34:45.843861 25208 net.cpp:150] Setting up inception_5b/1x1
I0714 00:34:45.843875 25208 net.cpp:157] Top shape: 100 384 7 7 (1881600)
I0714 00:34:45.843885 25208 net.cpp:165] Memory required for data: 5529249216
I0714 00:34:45.843899 25208 layer_factory.hpp:76] Creating layer inception_5b/relu_1x1
I0714 00:34:45.843910 25208 net.cpp:106] Creating Layer inception_5b/relu_1x1
I0714 00:34:45.843921 25208 net.cpp:454] inception_5b/relu_1x1 <- inception_5b/1x1
I0714 00:34:45.843935 25208 net.cpp:397] inception_5b/relu_1x1 -> inception_5b/1x1 (in-place)
I0714 00:34:45.848045 25208 net.cpp:150] Setting up inception_5b/relu_1x1
I0714 00:34:45.848067 25208 net.cpp:157] Top shape: 100 384 7 7 (1881600)
I0714 00:34:45.848076 25208 net.cpp:165] Memory required for data: 5536775616
I0714 00:34:45.848085 25208 layer_factory.hpp:76] Creating layer inception_5b/3x3_reduce
I0714 00:34:45.848101 25208 net.cpp:106] Creating Layer inception_5b/3x3_reduce
I0714 00:34:45.848111 25208 net.cpp:454] inception_5b/3x3_reduce <- inception_5a/output_inception_5a/output_0_split_1
I0714 00:34:45.848124 25208 net.cpp:411] inception_5b/3x3_reduce -> inception_5b/3x3_reduce
I0714 00:34:45.865175 25208 cudnn_conv_layer.cpp:194] Reallocating workspace storage: 9984
I0714 00:34:45.865231 25208 net.cpp:150] Setting up inception_5b/3x3_reduce
I0714 00:34:45.865247 25208 net.cpp:157] Top shape: 100 192 7 7 (940800)
I0714 00:34:45.865255 25208 net.cpp:165] Memory required for data: 5540538816
I0714 00:34:45.865270 25208 layer_factory.hpp:76] Creating layer inception_5b/relu_3x3_reduce
I0714 00:34:45.865283 25208 net.cpp:106] Creating Layer inception_5b/relu_3x3_reduce
I0714 00:34:45.865295 25208 net.cpp:454] inception_5b/relu_3x3_reduce <- inception_5b/3x3_reduce
I0714 00:34:45.865305 25208 net.cpp:397] inception_5b/relu_3x3_reduce -> inception_5b/3x3_reduce (in-place)
I0714 00:34:45.870586 25208 net.cpp:150] Setting up inception_5b/relu_3x3_reduce
I0714 00:34:45.870606 25208 net.cpp:157] Top shape: 100 192 7 7 (940800)
I0714 00:34:45.870615 25208 net.cpp:165] Memory required for data: 5544302016
I0714 00:34:45.870623 25208 layer_factory.hpp:76] Creating layer inception_5b/3x3
I0714 00:34:45.870646 25208 net.cpp:106] Creating Layer inception_5b/3x3
I0714 00:34:45.870659 25208 net.cpp:454] inception_5b/3x3 <- inception_5b/3x3_reduce
I0714 00:34:45.870671 25208 net.cpp:411] inception_5b/3x3 -> inception_5b/3x3
I0714 00:34:45.884647 25208 net.cpp:150] Setting up inception_5b/3x3
I0714 00:34:45.884672 25208 net.cpp:157] Top shape: 100 384 7 7 (1881600)
I0714 00:34:45.884681 25208 net.cpp:165] Memory required for data: 5551828416
I0714 00:34:45.884693 25208 layer_factory.hpp:76] Creating layer inception_5b/relu_3x3
I0714 00:34:45.884707 25208 net.cpp:106] Creating Layer inception_5b/relu_3x3
I0714 00:34:45.884735 25208 net.cpp:454] inception_5b/relu_3x3 <- inception_5b/3x3
I0714 00:34:45.884747 25208 net.cpp:397] inception_5b/relu_3x3 -> inception_5b/3x3 (in-place)
I0714 00:34:45.889019 25208 net.cpp:150] Setting up inception_5b/relu_3x3
I0714 00:34:45.889039 25208 net.cpp:157] Top shape: 100 384 7 7 (1881600)
I0714 00:34:45.889047 25208 net.cpp:165] Memory required for data: 5559354816
I0714 00:34:45.889056 25208 layer_factory.hpp:76] Creating layer inception_5b/5x5_reduce
I0714 00:34:45.889073 25208 net.cpp:106] Creating Layer inception_5b/5x5_reduce
I0714 00:34:45.889084 25208 net.cpp:454] inception_5b/5x5_reduce <- inception_5a/output_inception_5a/output_0_split_2
I0714 00:34:45.889098 25208 net.cpp:411] inception_5b/5x5_reduce -> inception_5b/5x5_reduce
I0714 00:34:45.902405 25208 net.cpp:150] Setting up inception_5b/5x5_reduce
I0714 00:34:45.902431 25208 net.cpp:157] Top shape: 100 48 7 7 (235200)
I0714 00:34:45.902441 25208 net.cpp:165] Memory required for data: 5560295616
I0714 00:34:45.902452 25208 layer_factory.hpp:76] Creating layer inception_5b/relu_5x5_reduce
I0714 00:34:45.902467 25208 net.cpp:106] Creating Layer inception_5b/relu_5x5_reduce
I0714 00:34:45.902477 25208 net.cpp:454] inception_5b/relu_5x5_reduce <- inception_5b/5x5_reduce
I0714 00:34:45.902488 25208 net.cpp:397] inception_5b/relu_5x5_reduce -> inception_5b/5x5_reduce (in-place)
I0714 00:34:45.907358 25208 net.cpp:150] Setting up inception_5b/relu_5x5_reduce
I0714 00:34:45.907379 25208 net.cpp:157] Top shape: 100 48 7 7 (235200)
I0714 00:34:45.907389 25208 net.cpp:165] Memory required for data: 5561236416
I0714 00:34:45.907402 25208 layer_factory.hpp:76] Creating layer inception_5b/5x5
I0714 00:34:45.907418 25208 net.cpp:106] Creating Layer inception_5b/5x5
I0714 00:34:45.907428 25208 net.cpp:454] inception_5b/5x5 <- inception_5b/5x5_reduce
I0714 00:34:45.907441 25208 net.cpp:411] inception_5b/5x5 -> inception_5b/5x5
I0714 00:34:45.919402 25208 net.cpp:150] Setting up inception_5b/5x5
I0714 00:34:45.919430 25208 net.cpp:157] Top shape: 100 128 7 7 (627200)
I0714 00:34:45.919440 25208 net.cpp:165] Memory required for data: 5563745216
I0714 00:34:45.919455 25208 layer_factory.hpp:76] Creating layer inception_5b/relu_5x5
I0714 00:34:45.919469 25208 net.cpp:106] Creating Layer inception_5b/relu_5x5
I0714 00:34:45.919479 25208 net.cpp:454] inception_5b/relu_5x5 <- inception_5b/5x5
I0714 00:34:45.919491 25208 net.cpp:397] inception_5b/relu_5x5 -> inception_5b/5x5 (in-place)
I0714 00:34:45.923867 25208 net.cpp:150] Setting up inception_5b/relu_5x5
I0714 00:34:45.923887 25208 net.cpp:157] Top shape: 100 128 7 7 (627200)
I0714 00:34:45.923895 25208 net.cpp:165] Memory required for data: 5566254016
I0714 00:34:45.923904 25208 layer_factory.hpp:76] Creating layer inception_5b/pool
I0714 00:34:45.923916 25208 net.cpp:106] Creating Layer inception_5b/pool
I0714 00:34:45.923925 25208 net.cpp:454] inception_5b/pool <- inception_5a/output_inception_5a/output_0_split_3
I0714 00:34:45.923938 25208 net.cpp:411] inception_5b/pool -> inception_5b/pool
I0714 00:34:45.928603 25208 net.cpp:150] Setting up inception_5b/pool
I0714 00:34:45.928624 25208 net.cpp:157] Top shape: 100 832 7 7 (4076800)
I0714 00:34:45.928634 25208 net.cpp:165] Memory required for data: 5582561216
I0714 00:34:45.928644 25208 layer_factory.hpp:76] Creating layer inception_5b/pool_proj
I0714 00:34:45.928660 25208 net.cpp:106] Creating Layer inception_5b/pool_proj
I0714 00:34:45.928669 25208 net.cpp:454] inception_5b/pool_proj <- inception_5b/pool
I0714 00:34:45.928686 25208 net.cpp:411] inception_5b/pool_proj -> inception_5b/pool_proj
I0714 00:34:45.940255 25208 cudnn_conv_layer.cpp:194] Reallocating workspace storage: 9984
I0714 00:34:45.940325 25208 net.cpp:150] Setting up inception_5b/pool_proj
I0714 00:34:45.940340 25208 net.cpp:157] Top shape: 100 128 7 7 (627200)
I0714 00:34:45.940349 25208 net.cpp:165] Memory required for data: 5585070016
I0714 00:34:45.940361 25208 layer_factory.hpp:76] Creating layer inception_5b/relu_pool_proj
I0714 00:34:45.940373 25208 net.cpp:106] Creating Layer inception_5b/relu_pool_proj
I0714 00:34:45.940403 25208 net.cpp:454] inception_5b/relu_pool_proj <- inception_5b/pool_proj
I0714 00:34:45.940415 25208 net.cpp:397] inception_5b/relu_pool_proj -> inception_5b/pool_proj (in-place)
I0714 00:34:45.945149 25208 net.cpp:150] Setting up inception_5b/relu_pool_proj
I0714 00:34:45.945173 25208 net.cpp:157] Top shape: 100 128 7 7 (627200)
I0714 00:34:45.945183 25208 net.cpp:165] Memory required for data: 5587578816
I0714 00:34:45.945191 25208 layer_factory.hpp:76] Creating layer inception_5b/output
I0714 00:34:45.945205 25208 net.cpp:106] Creating Layer inception_5b/output
I0714 00:34:45.945214 25208 net.cpp:454] inception_5b/output <- inception_5b/1x1
I0714 00:34:45.945225 25208 net.cpp:454] inception_5b/output <- inception_5b/3x3
I0714 00:34:45.945233 25208 net.cpp:454] inception_5b/output <- inception_5b/5x5
I0714 00:34:45.945242 25208 net.cpp:454] inception_5b/output <- inception_5b/pool_proj
I0714 00:34:45.945253 25208 net.cpp:411] inception_5b/output -> inception_5b/output
I0714 00:34:45.945291 25208 net.cpp:150] Setting up inception_5b/output
I0714 00:34:45.945302 25208 net.cpp:157] Top shape: 100 1024 7 7 (5017600)
I0714 00:34:45.945310 25208 net.cpp:165] Memory required for data: 5607649216
I0714 00:34:45.945318 25208 layer_factory.hpp:76] Creating layer pool5/7x7_s1
I0714 00:34:45.945333 25208 net.cpp:106] Creating Layer pool5/7x7_s1
I0714 00:34:45.945343 25208 net.cpp:454] pool5/7x7_s1 <- inception_5b/output
I0714 00:34:45.945358 25208 net.cpp:411] pool5/7x7_s1 -> pool5/7x7_s1
I0714 00:34:45.950429 25208 net.cpp:150] Setting up pool5/7x7_s1
I0714 00:34:45.950450 25208 net.cpp:157] Top shape: 100 1024 1 1 (102400)
I0714 00:34:45.950459 25208 net.cpp:165] Memory required for data: 5608058816
I0714 00:34:45.950474 25208 layer_factory.hpp:76] Creating layer pool5/drop_7x7_s1
I0714 00:34:45.950487 25208 net.cpp:106] Creating Layer pool5/drop_7x7_s1
I0714 00:34:45.950496 25208 net.cpp:454] pool5/drop_7x7_s1 <- pool5/7x7_s1
I0714 00:34:45.950506 25208 net.cpp:397] pool5/drop_7x7_s1 -> pool5/7x7_s1 (in-place)
I0714 00:34:45.950541 25208 net.cpp:150] Setting up pool5/drop_7x7_s1
I0714 00:34:45.950554 25208 net.cpp:157] Top shape: 100 1024 1 1 (102400)
I0714 00:34:45.950562 25208 net.cpp:165] Memory required for data: 5608468416
I0714 00:34:45.950572 25208 layer_factory.hpp:76] Creating layer loss3/classifier
I0714 00:34:45.950584 25208 net.cpp:106] Creating Layer loss3/classifier
I0714 00:34:45.950592 25208 net.cpp:454] loss3/classifier <- pool5/7x7_s1
I0714 00:34:45.950606 25208 net.cpp:411] loss3/classifier -> loss3/classifier
I0714 00:34:45.950769 25208 net.cpp:150] Setting up loss3/classifier
I0714 00:34:45.950786 25208 net.cpp:157] Top shape: 100 2 (200)
I0714 00:34:45.950794 25208 net.cpp:165] Memory required for data: 5608469216
I0714 00:34:45.950806 25208 layer_factory.hpp:76] Creating layer loss3/classifier_loss3/classifier_0_split
I0714 00:34:45.950819 25208 net.cpp:106] Creating Layer loss3/classifier_loss3/classifier_0_split
I0714 00:34:45.950829 25208 net.cpp:454] loss3/classifier_loss3/classifier_0_split <- loss3/classifier
I0714 00:34:45.950839 25208 net.cpp:411] loss3/classifier_loss3/classifier_0_split -> loss3/classifier_loss3/classifier_0_split_0
I0714 00:34:45.950853 25208 net.cpp:411] loss3/classifier_loss3/classifier_0_split -> loss3/classifier_loss3/classifier_0_split_1
I0714 00:34:45.950899 25208 net.cpp:150] Setting up loss3/classifier_loss3/classifier_0_split
I0714 00:34:45.950912 25208 net.cpp:157] Top shape: 100 2 (200)
I0714 00:34:45.950922 25208 net.cpp:157] Top shape: 100 2 (200)
I0714 00:34:45.950929 25208 net.cpp:165] Memory required for data: 5608470816
I0714 00:34:45.950937 25208 layer_factory.hpp:76] Creating layer loss3/loss3
I0714 00:34:45.950950 25208 net.cpp:106] Creating Layer loss3/loss3
I0714 00:34:45.950959 25208 net.cpp:454] loss3/loss3 <- loss3/classifier_loss3/classifier_0_split_0
I0714 00:34:45.950968 25208 net.cpp:454] loss3/loss3 <- label_data_1_split_4
…
