…
I0711 10:07:34.076478 119936 net.cpp:49] Initializing net from parameters: 
name: "GoogleNet"
state {
  phase: TRAIN
}
layer {
  name: "data"
  type: "ImageData"
  top: "data"
  top: "label"
  include {
    phase: TRAIN
  }
  transform_param {
    mirror: true
    crop_size: 224
    mean_value: 104
    mean_value: 117
    mean_value: 123
  }
  image_data_param {
    source: "/data/dywang/Database/Proliferation/libs/stage04_mitosisDetection/training_examples/train2.lst"
    batch_size: 32
    shuffle: true
    new_height: 256
    new_width: 256
  }
}
layer {
  name: "conv1/7x7_s2"
  type: "Convolution"
  bottom: "data"
  top: "conv1/7x7_s2"
  param {
    lr_mult: 1
    decay_mult: 1
  }
  param {
    lr_mult: 2
    decay_mult: 0
  }
  convolution_param {
    num_output: 64
    pad: 3
    kernel_size: 7
    stride: 2
    weight_filler {
      type: "xavier"
    }
    bias_filler {
      type: "constant"
      value: 0.2
    }
  }
}
layer {
  name: "conv1/relu_7x7"
  type: "ReLU"
  bottom: "conv1/7x7_s2"
  top: "conv1/7x7_s2"
}
layer {
  name: "pool1/3x3_s2"
  type: "Pooling"
  bottom: "conv1/7x7_s2"
  top: "pool1/3x3_s2"
  pooling_param {
    pool: MAX
    kernel_size: 3
    stride: 2
  }
}
layer {
  name: "pool1/norm1"
  type: "LRN"
  bottom: "pool1/3x3_s2"
  top: "pool1/norm1"
  lrn_param {
    local_size: 5
    alpha: 0.0001
    beta: 0.75
  }
}
layer {
  name: "conv2/3x3_reduce"
  type: "Convolution"
  bottom: "pool1/norm1"
  top: "conv2/3x3_reduce"
  param {
    lr_mult: 1
    decay_mult: 1
  }
  param {
    lr_mult: 2
    decay_mult: 0
  }
  convolution_param {
    num_output: 64
    kernel_size: 1
    weight_filler {
      type: "xavier"
    }
    bias_filler {
      type: "constant"
      value: 0.2
    }
  }
}
layer {
  name: "conv2/relu_3x3_reduce"
  type: "ReLU"
  bottom: "conv2/3x3_reduce"
  top: "conv2/3x3_reduce"
}
layer {
  name: "conv2/3x3"
  type: "Convolution"
  bottom: "conv2/3x3_reduce"
  top: "conv2/3x3"
  param {
    lr_mult: 1
    decay_mult: 1
  }
  param {
    lr_mult: 2
    decay_mult: 0
  }
  convolution_param {
    num_output: 192
    pad: 1
    kernel_size: 3
    weight_filler {
      type: "xavier"
    }
    bias_filler {
      type: "constant"
      value: 0.2
    }
  }
}
layer {
  name: "conv2/relu_3x3"
  type: "ReLU"
  bottom: "conv2/3x3"
  top: "conv2/3x3"
}
layer {
  name: "conv2/norm2"
  type: "LRN"
  bottom: "conv2/3x3"
  top: "conv2/norm2"
  lrn_param {
    local_size: 5
    alpha: 0.0001
    beta: 0.75
  }
}
layer {
  name: "pool2/3x3_s2"
  type: "Pooling"
  bottom: "conv2/norm2"
  top: "pool2/3x3_s2"
  pooling_param {
    pool: MAX
    kernel_size: 3
    stride: 2
  }
}
layer {
  name: "inception_3a/1x1"
  type: "Convolution"
  bottom: "pool2/3x3_s2"
  top: "inception_3a/1x1"
  param {
    lr_mult: 1
    decay_mult: 1
  }
  param {
    lr_mult: 2
    decay_mult: 0
  }
  convolution_param {
    num_output: 64
    kernel_size: 1
    weight_filler {
      type: "xavier"
    }
    bias_filler {
      type: "constant"
      value: 0.2
    }
  }
}
layer {
  name: "inception_3a/relu_1x1"
  type: "ReLU"
  bottom: "inception_3a/1x1"
  top: "inception_3a/1x1"
}
layer {
  name: "inception_3a/3x3_reduce"
  type: "Convolution"
  bottom: "pool2/3x3_s2"
  top: "inception_3a/3x3_reduce"
  param {
    lr_mult: 1
    decay_mult: 1
  }
  param {
    lr_mult: 2
    decay_mult: 0
  }
  convolution_param {
    num_output: 96
    kernel_size: 1
    weight_filler {
      type: "xavier"
    }
    bias_filler {
      type: "constant"
      value: 0.2
    }
  }
}
layer {
  name: "inception_3a/relu_3x3_reduce"
  type: "ReLU"
  bottom: "inception_3a/3x3_reduce"
  top: "inception_3a/3x3_reduce"
}
layer {
  name: "inception_3a/3x3"
  type: "Convolution"
  bottom: "inception_3a/3x3_reduce"
  top: "inception_3a/3x3"
  param {
    lr_mult: 1
    decay_mult: 1
  }
  param {
    lr_mult: 2
    decay_mult: 0
  }
  convolution_param {
    num_output: 128
    pad: 1
    kernel_size: 3
    weight_filler {
      type: "xavier"
    }
    bias_filler {
      type: "constant"
      value: 0.2
    }
  }
}
layer {
  name: "inception_3a/relu_3x3"
  type: "ReLU"
  bottom: "inception_3a/3x3"
  top: "inception_3a/3x3"
}
layer {
  name: "inception_3a/5x5_reduce"
  type: "Convolution"
  bottom: "pool2/3x3_s2"
  top: "inception_3a/5x5_reduce"
  param {
    lr_mult: 1
    decay_mult: 1
  }
  param {
    lr_mult: 2
    decay_mult: 0
  }
  convolution_param {
    num_output: 16
    kernel_size: 1
    weight_filler {
      type: "xavier"
    }
    bias_filler {
      type: "constant"
      value: 0.2
    }
  }
}
layer {
  name: "inception_3a/relu_5x5_reduce"
  type: "ReLU"
  bottom: "inception_3a/5x5_reduce"
  top: "inception_3a/5x5_reduce"
}
layer {
  name: "inception_3a/5x5"
  type: "Convolution"
  bottom: "inception_3a/5x5_reduce"
  top: "inception_3a/5x5"
  param {
    lr_mult: 1
    decay_mult: 1
  }
  param {
    lr_mult: 2
    decay_mult: 0
  }
  convolution_param {
    num_output: 32
    pad: 2
    kernel_size: 5
    weight_filler {
      type: "xavier"
    }
    bias_filler {
      type: "constant"
      value: 0.2
    }
  }
}
layer {
  name: "inception_3a/relu_5x5"
  type: "ReLU"
  bottom: "inception_3a/5x5"
  top: "inception_3a/5x5"
}
layer {
  name: "inception_3a/pool"
  type: "Pooling"
  bottom: "pool2/3x3_s2"
  top: "inception_3a/pool"
  pooling_param {
    pool: MAX
    kernel_size: 3
    stride: 1
    pad: 1
  }
}
layer {
  name: "inception_3a/pool_proj"
  type: "Convolution"
  bottom: "inception_3a/pool"
  top: "inception_3a/pool_proj"
  param {
    lr_mult: 1
    decay_mult: 1
  }
  param {
    lr_mult: 2
    decay_mult: 0
  }
  convolution_param {
    num_output: 32
    kernel_size: 1
    weight_filler {
      type: "xavier"
    }
    bias_filler {
      type: "constant"
      value: 0.2
    }
  }
}
layer {
  name: "inception_3a/relu_pool_proj"
  type: "ReLU"
  bottom: "inception_3a/pool_proj"
  top: "inception_3a/pool_proj"
}
layer {
  name: "inception_3a/output"
  type: "Concat"
  bottom: "inception_3a/1x1"
  bottom: "inception_3a/3x3"
  bottom: "inception_3a/5x5"
  bottom: "inception_3a/pool_proj"
  top: "inception_3a/output"
}
layer {
  name: "inception_3b/1x1"
  type: "Convolution"
  bottom: "inception_3a/output"
  top: "inception_3b/1x1"
  param {
    lr_mult: 1
    decay_mult: 1
  }
  param {
    lr_mult: 2
    decay_mult: 0
  }
  convolution_param {
    num_output: 128
    kernel_size: 1
    weight_filler {
      type: "xavier"
    }
    bias_filler {
      type: "constant"
      value: 0.2
    }
  }
}
layer {
  name: "inception_3b/relu_1x1"
  type: "ReLU"
  bottom: "inception_3b/1x1"
  top: "inception_3b/1x1"
}
layer {
  name: "inception_3b/3x3_reduce"
  type: "Convolution"
  bottom: "inception_3a/output"
  top: "inception_3b/3x3_reduce"
  param {
    lr_mult: 1
    decay_mult: 1
  }
  param {
    lr_mult: 2
    decay_mult: 0
  }
  convolution_param {
    num_output: 128
    kernel_size: 1
    weight_filler {
      type: "xavier"
    }
    bias_filler {
      type: "constant"
      value: 0.2
    }
  }
}
layer {
  name: "inception_3b/relu_3x3_reduce"
  type: "ReLU"
  bottom: "inception_3b/3x3_reduce"
  top: "inception_3b/3x3_reduce"
}
layer {
  name: "inception_3b/3x3"
  type: "Convolution"
  bottom: "inception_3b/3x3_reduce"
  top: "inception_3b/3x3"
  param {
    lr_mult: 1
    decay_mult: 1
  }
  param {
    lr_mult: 2
    decay_mult: 0
  }
  convolution_param {
    num_output: 192
    pad: 1
    kernel_size: 3
    weight_filler {
      type: "xavier"
    }
    bias_filler {
      type: "constant"
      value: 0.2
    }
  }
}
layer {
  name: "inception_3b/relu_3x3"
  type: "ReLU"
  bottom: "inception_3b/3x3"
  top: "inception_3b/3x3"
}
layer {
  name: "inception_3b/5x5_reduce"
  type: "Convolution"
  bottom: "inception_3a/output"
  top: "inception_3b/5x5_reduce"
  param {
    lr_mult: 1
    decay_mult: 1
  }
  param {
    lr_mult: 2
    decay_mult: 0
  }
  convolution_param {
    num_output: 32
    kernel_size: 1
    weight_filler {
      type: "xavier"
    }
    bias_filler {
      type: "constant"
      value: 0.2
    }
  }
}
layer {
  name: "inception_3b/relu_5x5_reduce"
  type: "ReLU"
  bottom: "inception_3b/5x5_reduce"
  top: "inception_3b/5x5_reduce"
}
layer {
  name: "inception_3b/5x5"
  type: "Convolution"
  bottom: "inception_3b/5x5_reduce"
  top: "inception_3b/5x5"
  param {
    lr_mult: 1
    decay_mult: 1
  }
  param {
    lr_mult: 2
    decay_mult: 0
  }
  convolution_param {
    num_output: 96
    pad: 2
    kernel_size: 5
    weight_filler {
      type: "xavier"
    }
    bias_filler {
      type: "constant"
      value: 0.2
    }
  }
}
layer {
  name: "inception_3b/relu_5x5"
  type: "ReLU"
  bottom: "inception_3b/5x5"
  top: "inception_3b/5x5"
}
layer {
  name: "inception_3b/pool"
  type: "Pooling"
  bottom: "inception_3a/output"
  top: "inception_3b/pool"
  pooling_param {
    pool: MAX
    kernel_size: 3
    stride: 1
    pad: 1
  }
}
layer {
  name: "inception_3b/pool_proj"
  type: "Convolution"
  bottom: "inception_3b/pool"
  top: "inception_3b/pool_proj"
  param {
    lr_mult: 1
    decay_mult: 1
  }
  param {
    lr_mult: 2
    decay_mult: 0
  }
  convolution_param {
    num_output: 64
    kernel_size: 1
    weight_filler {
      type: "xavier"
    }
    bias_filler {
      type: "constant"
      value: 0.2
    }
  }
}
layer {
  name: "inception_3b/relu_pool_proj"
  type: "ReLU"
  bottom: "inception_3b/pool_proj"
  top: "inception_3b/pool_proj"
}
layer {
  name: "inception_3b/output"
  type: "Concat"
  bottom: "inception_3b/1x1"
  bottom: "inception_3b/3x3"
  bottom: "inception_3b/5x5"
  bottom: "inception_3b/pool_proj"
  top: "inception_3b/output"
}
layer {
  name: "pool3/3x3_s2"
  type: "Pooling"
  bottom: "inception_3b/output"
  top: "pool3/3x3_s2"
  pooling_param {
    pool: MAX
    kernel_size: 3
    stride: 2
  }
}
layer {
  name: "inception_4a/1x1"
  type: "Convolution"
  bottom: "pool3/3x3_s2"
  top: "inception_4a/1x1"
  param {
    lr_mult: 1
    decay_mult: 1
  }
  param {
    lr_mult: 2
    decay_mult: 0
  }
  convolution_param {
    num_output: 192
    kernel_size: 1
    weight_filler {
      type: "xavier"
    }
    bias_filler {
      type: "constant"
      value: 0.2
    }
  }
}
layer {
  name: "inception_4a/relu_1x1"
  type: "ReLU"
  bottom: "inception_4a/1x1"
  top: "inception_4a/1x1"
}
layer {
  name: "inception_4a/3x3_reduce"
  type: "Convolution"
  bottom: "pool3/3x3_s2"
  top: "inception_4a/3x3_reduce"
  param {
    lr_mult: 1
    decay_mult: 1
  }
  param {
    lr_mult: 2
    decay_mult: 0
  }
  convolution_param {
    num_output: 96
    kernel_size: 1
    weight_filler {
      type: "xavier"
    }
    bias_filler {
      type: "constant"
      value: 0.2
    }
  }
}
layer {
  name: "inception_4a/relu_3x3_reduce"
  type: "ReLU"
  bottom: "inception_4a/3x3_reduce"
  top: "inception_4a/3x3_reduce"
}
layer {
  name: "inception_4a/3x3"
  type: "Convolution"
  bottom: "inception_4a/3x3_reduce"
  top: "inception_4a/3x3"
  param {
    lr_mult: 1
    decay_mult: 1
  }
  param {
    lr_mult: 2
    decay_mult: 0
  }
  convolution_param {
    num_output: 208
    pad: 1
    kernel_size: 3
    weight_filler {
      type: "xavier"
    }
    bias_filler {
      type: "constant"
      value: 0.2
    }
  }
}
layer {
  name: "inception_4a/relu_3x3"
  type: "ReLU"
  bottom: "inception_4a/3x3"
  top: "inception_4a/3x3"
}
layer {
  name: "inception_4a/5x5_reduce"
  type: "Convolution"
  bottom: "pool3/3x3_s2"
  top: "inception_4a/5x5_reduce"
  param {
    lr_mult: 1
    decay_mult: 1
  }
  param {
    lr_mult: 2
    decay_mult: 0
  }
  convolution_param {
    num_output: 16
    kernel_size: 1
    weight_filler {
      type: "xavier"
    }
    bias_filler {
      type: "constant"
      value: 0.2
    }
  }
}
layer {
  name: "inception_4a/relu_5x5_reduce"
  type: "ReLU"
  bottom: "inception_4a/5x5_reduce"
  top: "inception_4a/5x5_reduce"
}
layer {
  name: "inception_4a/5x5"
  type: "Convolution"
  bottom: "inception_4a/5x5_reduce"
  top: "inception_4a/5x5"
  param {
    lr_mult: 1
    decay_mult: 1
  }
  param {
    lr_mult: 2
    decay_mult: 0
  }
  convolution_param {
    num_output: 48
    pad: 2
    kernel_size: 5
    weight_filler {
      type: "xavier"
    }
    bias_filler {
      type: "constant"
      value: 0.2
    }
  }
}
layer {
  name: "inception_4a/relu_5x5"
  type: "ReLU"
  bottom: "inception_4a/5x5"
  top: "inception_4a/5x5"
}
layer {
  name: "inception_4a/pool"
  type: "Pooling"
  bottom: "pool3/3x3_s2"
  top: "inception_4a/pool"
  pooling_param {
    pool: MAX
    kernel_size: 3
    stride: 1
    pad: 1
  }
}
layer {
  name: "inception_4a/pool_proj"
  type: "Convolution"
  bottom: "inception_4a/pool"
  top: "inception_4a/pool_proj"
  param {
    lr_mult: 1
    decay_mult: 1
  }
  param {
    lr_mult: 2
    decay_mult: 0
  }
  convolution_param {
    num_output: 64
    kernel_size: 1
    weight_filler {
      type: "xavier"
    }
    bias_filler {
      type: "constant"
      value: 0.2
    }
  }
}
layer {
  name: "inception_4a/relu_pool_proj"
  type: "ReLU"
  bottom: "inception_4a/pool_proj"
  top: "inception_4a/pool_proj"
}
layer {
  name: "inception_4a/output"
  type: "Concat"
  bottom: "inception_4a/1x1"
  bottom: "inception_4a/3x3"
  bottom: "inception_4a/5x5"
  bottom: "inception_4a/pool_proj"
  top: "inception_4a/output"
}
layer {
  name: "loss1/ave_pool"
  type: "Pooling"
  bottom: "inception_4a/output"
  top: "loss1/ave_pool"
  pooling_param {
    pool: AVE
    kernel_size: 5
    stride: 3
  }
}
layer {
  name: "loss1/conv"
  type: "Convolution"
  bottom: "loss1/ave_pool"
  top: "loss1/conv"
  param {
    lr_mult: 1
    decay_mult: 1
  }
  param {
    lr_mult: 2
    decay_mult: 0
  }
  convolution_param {
    num_output: 128
    kernel_size: 1
    weight_filler {
      type: "xavier"
    }
    bias_filler {
      type: "constant"
      value: 0.2
    }
  }
}
layer {
  name: "loss1/relu_conv"
  type: "ReLU"
  bottom: "loss1/conv"
  top: "loss1/conv"
}
layer {
  name: "loss1/fc"
  type: "InnerProduct"
  bottom: "loss1/conv"
  top: "loss1/fc"
  param {
    lr_mult: 1
    decay_mult: 1
  }
  param {
    lr_mult: 2
    decay_mult: 0
  }
  inner_product_param {
    num_output: 1024
    weight_filler {
      type: "xavier"
    }
    bias_filler {
      type: "constant"
      value: 0.2
    }
  }
}
layer {
  name: "loss1/relu_fc"
  type: "ReLU"
  bottom: "loss1/fc"
  top: "loss1/fc"
}
layer {
  name: "loss1/drop_fc"
  type: "Dropout"
  bottom: "loss1/fc"
  top: "loss1/fc"
  dropout_param {
    dropout_ratio: 0.7
  }
}
layer {
  name: "loss1/classifier"
  type: "InnerProduct"
  bottom: "loss1/fc"
  top: "loss1/classifier"
  param {
    lr_mult: 1
    decay_mult: 1
  }
  param {
    lr_mult: 2
    decay_mult: 0
  }
  inner_product_param {
    num_output: 2
    weight_filler {
      type: "xavier"
    }
    bias_filler {
      type: "constant"
      value: 0
    }
  }
}
layer {
  name: "loss1/loss"
  type: "SoftmaxWithLoss"
  bottom: "loss1/classifier"
  bottom: "label"
  top: "loss1/loss1"
  loss_weight: 0.3
}
layer {
  name: "inception_4b/1x1"
  type: "Convolution"
  bottom: "inception_4a/output"
  top: "inception_4b/1x1"
  param {
    lr_mult: 1
    decay_mult: 1
  }
  param {
    lr_mult: 2
    decay_mult: 0
  }
  convolution_param {
    num_output: 160
    kernel_size: 1
    weight_filler {
      type: "xavier"
    }
    bias_filler {
      type: "constant"
      value: 0.2
    }
  }
}
layer {
  name: "inception_4b/relu_1x1"
  type: "ReLU"
  bottom: "inception_4b/1x1"
  top: "inception_4b/1x1"
}
layer {
  name: "inception_4b/3x3_reduce"
  type: "Convolution"
  bottom: "inception_4a/output"
  top: "inception_4b/3x3_reduce"
  param {
    lr_mult: 1
    decay_mult: 1
  }
  param {
    lr_mult: 2
    decay_mult: 0
  }
  convolution_param {
    num_output: 112
    kernel_size: 1
    weight_filler {
      type: "xavier"
    }
    bias_filler {
      type: "constant"
      value: 0.2
    }
  }
}
layer {
  name: "inception_4b/relu_3x3_reduce"
  type: "ReLU"
  bottom: "inception_4b/3x3_reduce"
  top: "inception_4b/3x3_reduce"
}
layer {
  name: "inception_4b/3x3"
  type: "Convolution"
  bottom: "inception_4b/3x3_reduce"
  top: "inception_4b/3x3"
  param {
    lr_mult: 1
    decay_mult: 1
  }
  param {
    lr_mult: 2
    decay_mult: 0
  }
  convolution_param {
    num_output: 224
    pad: 1
    kernel_size: 3
    weight_filler {
      type: "xavier"
    }
    bias_filler {
      type: "constant"
      value: 0.2
    }
  }
}
layer {
  name: "inception_4b/relu_3x3"
  type: "ReLU"
  bottom: "inception_4b/3x3"
  top: "inception_4b/3x3"
}
layer {
  name: "inception_4b/5x5_reduce"
  type: "Convolution"
  bottom: "inception_4a/output"
  top: "inception_4b/5x5_reduce"
  param {
    lr_mult: 1
    decay_mult: 1
  }
  param {
    lr_mult: 2
    decay_mult: 0
  }
  convolution_param {
    num_output: 24
    kernel_size: 1
    weight_filler {
      type: "xavier"
    }
    bias_filler {
      type: "constant"
      value: 0.2
    }
  }
}
layer {
  name: "inception_4b/relu_5x5_reduce"
  type: "ReLU"
  bottom: "inception_4b/5x5_reduce"
  top: "inception_4b/5x5_reduce"
}
layer {
  name: "inception_4b/5x5"
  type: "Convolution"
  bottom: "inception_4b/5x5_reduce"
  top: "inception_4b/5x5"
  param {
    lr_mult: 1
    decay_mult: 1
  }
  param {
    lr_mult: 2
    decay_mult: 0
  }
  convolution_param {
    num_output: 64
    pad: 2
    kernel_size: 5
    weight_filler {
      type: "xavier"
    }
    bias_filler {
      type: "constant"
      value: 0.2
    }
  }
}
layer {
  name: "inception_4b/relu_5x5"
  type: "ReLU"
  bottom: "inception_4b/5x5"
  top: "inception_4b/5x5"
}
layer {
  name: "inception_4b/pool"
  type: "Pooling"
  bottom: "inception_4a/output"
  top: "inception_4b/pool"
  pooling_param {
    pool: MAX
    kernel_size: 3
    stride: 1
    pad: 1
  }
}
layer {
  name: "inception_4b/pool_proj"
  type: "Convolution"
  bottom: "inception_4b/pool"
  top: "inception_4b/pool_proj"
  param {
    lr_mult: 1
    decay_mult: 1
  }
  param {
    lr_mult: 2
    decay_mult: 0
  }
  convolution_param {
    num_output: 64
    kernel_size: 1
    weight_filler {
      type: "xavier"
    }
    bias_filler {
      type: "constant"
      value: 0.2
    }
  }
}
layer {
  name: "inception_4b/relu_pool_proj"
  type: "ReLU"
  bottom: "inception_4b/pool_proj"
  top: "inception_4b/pool_proj"
}
layer {
  name: "inception_4b/output"
  type: "Concat"
  bottom: "inception_4b/1x1"
  bottom: "inception_4b/3x3"
  bottom: "inception_4b/5x5"
  bottom: "inception_4b/pool_proj"
  top: "inception_4b/output"
}
layer {
  name: "inception_4c/1x1"
  type: "Convolution"
  bottom: "inception_4b/output"
  top: "inception_4c/1x1"
  param {
    lr_mult: 1
    decay_mult: 1
  }
  param {
    lr_mult: 2
    decay_mult: 0
  }
  convolution_param {
    num_output: 128
    kernel_size: 1
    weight_filler {
      type: "xavier"
    }
    bias_filler {
      type: "constant"
      value: 0.2
    }
  }
}
layer {
  name: "inception_4c/relu_1x1"
  type: "ReLU"
  bottom: "inception_4c/1x1"
  top: "inception_4c/1x1"
}
layer {
  name: "inception_4c/3x3_reduce"
  type: "Convolution"
  bottom: "inception_4b/output"
  top: "inception_4c/3x3_reduce"
  param {
    lr_mult: 1
    decay_mult: 1
  }
  param {
    lr_mult: 2
    decay_mult: 0
  }
  convolution_param {
    num_output: 128
    kernel_size: 1
    weight_filler {
      type: "xavier"
    }
    bias_filler {
      type: "constant"
      value: 0.2
    }
  }
}
layer {
  name: "inception_4c/relu_3x3_reduce"
  type: "ReLU"
  bottom: "inception_4c/3x3_reduce"
  top: "inception_4c/3x3_reduce"
}
layer {
  name: "inception_4c/3x3"
  type: "Convolution"
  bottom: "inception_4c/3x3_reduce"
  top: "inception_4c/3x3"
  param {
    lr_mult: 1
    decay_mult: 1
  }
  param {
    lr_mult: 2
    decay_mult: 0
  }
  convolution_param {
    num_output: 256
    pad: 1
    kernel_size: 3
    weight_filler {
      type: "xavier"
    }
    bias_filler {
      type: "constant"
      value: 0.2
    }
  }
}
layer {
  name: "inception_4c/relu_3x3"
  type: "ReLU"
  bottom: "inception_4c/3x3"
  top: "inception_4c/3x3"
}
layer {
  name: "inception_4c/5x5_reduce"
  type: "Convolution"
  bottom: "inception_4b/output"
  top: "inception_4c/5x5_reduce"
  param {
    lr_mult: 1
    decay_mult: 1
  }
  param {
    lr_mult: 2
    decay_mult: 0
  }
  convolution_param {
    num_output: 24
    kernel_size: 1
    weight_filler {
      type: "xavier"
    }
    bias_filler {
      type: "constant"
      value: 0.2
    }
  }
}
layer {
  name: "inception_4c/relu_5x5_reduce"
  type: "ReLU"
  bottom: "inception_4c/5x5_reduce"
  top: "inception_4c/5x5_reduce"
}
layer {
  name: "inception_4c/5x5"
  type: "Convolution"
  bottom: "inception_4c/5x5_reduce"
  top: "inception_4c/5x5"
  param {
    lr_mult: 1
    decay_mult: 1
  }
  param {
    lr_mult: 2
    decay_mult: 0
  }
  convolution_param {
    num_output: 64
    pad: 2
    kernel_size: 5
    weight_filler {
      type: "xavier"
    }
    bias_filler {
      type: "constant"
      value: 0.2
    }
  }
}
layer {
  name: "inception_4c/relu_5x5"
  type: "ReLU"
  bottom: "inception_4c/5x5"
  top: "inception_4c/5x5"
}
layer {
  name: "inception_4c/pool"
  type: "Pooling"
  bottom: "inception_4b/output"
  top: "inception_4c/pool"
  pooling_param {
    pool: MAX
    kernel_size: 3
    stride: 1
    pad: 1
  }
}
layer {
  name: "inception_4c/pool_proj"
  type: "Convolution"
  bottom: "inception_4c/pool"
  top: "inception_4c/pool_proj"
  param {
    lr_mult: 1
    decay_mult: 1
  }
  param {
    lr_mult: 2
    decay_mult: 0
  }
  convolution_param {
    num_output: 64
    kernel_size: 1
    weight_filler {
      type: "xavier"
    }
    bias_filler {
      type: "constant"
      value: 0.2
    }
  }
}
layer {
  name: "inception_4c/relu_pool_proj"
  type: "ReLU"
  bottom: "inception_4c/pool_proj"
  top: "inception_4c/pool_proj"
}
layer {
  name: "inception_4c/output"
  type: "Concat"
  bottom: "inception_4c/1x1"
  bottom: "inception_4c/3x3"
  bottom: "inception_4c/5x5"
  bottom: "inception_4c/pool_proj"
  top: "inception_4c/output"
}
layer {
  name: "inception_4d/1x1"
  type: "Convolution"
  bottom: "inception_4c/output"
  top: "inception_4d/1x1"
  param {
    lr_mult: 1
    decay_mult: 1
  }
  param {
    lr_mult: 2
    decay_mult: 0
  }
  convolution_param {
    num_output: 112
    kernel_size: 1
    weight_filler {
      type: "xavier"
    }
    bias_filler {
      type: "constant"
      value: 0.2
    }
  }
}
layer {
  name: "inception_4d/relu_1x1"
  type: "ReLU"
  bottom: "inception_4d/1x1"
  top: "inception_4d/1x1"
}
layer {
  name: "inception_4d/3x3_reduce"
  type: "Convolution"
  bottom: "inception_4c/output"
  top: "inception_4d/3x3_reduce"
  param {
    lr_mult: 1
    decay_mult: 1
  }
  param {
    lr_mult: 2
    decay_mult: 0
  }
  convolution_param {
    num_output: 144
    kernel_size: 1
    weight_filler {
      type: "xavier"
    }
    bias_filler {
      type: "constant"
      value: 0.2
    }
  }
}
layer {
  name: "inception_4d/relu_3x3_reduce"
  type: "ReLU"
  bottom: "inception_4d/3x3_reduce"
  top: "inception_4d/3x3_reduce"
}
layer {
  name: "inception_4d/3x3"
  type: "Convolution"
  bottom: "inception_4d/3x3_reduce"
  top: "inception_4d/3x3"
  param {
    lr_mult: 1
    decay_mult: 1
  }
  param {
    lr_mult: 2
    decay_mult: 0
  }
  convolution_param {
    num_output: 288
    pad: 1
    kernel_size: 3
    weight_filler {
      type: "xavier"
    }
    bias_filler {
      type: "constant"
      value: 0.2
    }
  }
}
layer {
  name: "inception_4d/relu_3x3"
  type: "ReLU"
  bottom: "inception_4d/3x3"
  top: "inception_4d/3x3"
}
layer {
  name: "inception_4d/5x5_reduce"
  type: "Convolution"
  bottom: "inception_4c/output"
  top: "inception_4d/5x5_reduce"
  param {
    lr_mult: 1
    decay_mult: 1
  }
  param {
    lr_mult: 2
    decay_mult: 0
  }
  convolution_param {
    num_output: 32
    kernel_size: 1
    weight_filler {
      type: "xavier"
    }
    bias_filler {
      type: "constant"
      value: 0.2
    }
  }
}
layer {
  name: "inception_4d/relu_5x5_reduce"
  type: "ReLU"
  bottom: "inception_4d/5x5_reduce"
  top: "inception_4d/5x5_reduce"
}
layer {
  name: "inception_4d/5x5"
  type: "Convolution"
  bottom: "inception_4d/5x5_reduce"
  top: "inception_4d/5x5"
  param {
    lr_mult: 1
    decay_mult: 1
  }
  param {
    lr_mult: 2
    decay_mult: 0
  }
  convolution_param {
    num_output: 64
    pad: 2
    kernel_size: 5
    weight_filler {
      type: "xavier"
    }
    bias_filler {
      type: "constant"
      value: 0.2
    }
  }
}
layer {
  name: "inception_4d/relu_5x5"
  type: "ReLU"
  bottom: "inception_4d/5x5"
  top: "inception_4d/5x5"
}
layer {
  name: "inception_4d/pool"
  type: "Pooling"
  bottom: "inception_4c/output"
  top: "inception_4d/pool"
  pooling_param {
    pool: MAX
    kernel_size: 3
    stride: 1
    pad: 1
  }
}
layer {
  name: "inception_4d/pool_proj"
  type: "Convolution"
  bottom: "inception_4d/pool"
  top: "inception_4d/pool_proj"
  param {
    lr_mult: 1
    decay_mult: 1
  }
  param {
    lr_mult: 2
    decay_mult: 0
  }
  convolution_param {
    num_output: 64
    kernel_size: 1
    weight_filler {
      type: "xavier"
    }
    bias_filler {
      type: "constant"
      value: 0.2
    }
  }
}
layer {
  name: "inception_4d/relu_pool_proj"
  type: "ReLU"
  bottom: "inception_4d/pool_proj"
  top: "inception_4d/pool_proj"
}
layer {
  name: "inception_4d/output"
  type: "Concat"
  bottom: "inception_4d/1x1"
  bottom: "inception_4d/3x3"
  bottom: "inception_4d/5x5"
  bottom: "inception_4d/pool_proj"
  top: "inception_4d/output"
}
layer {
  name: "loss2/ave_pool"
  type: "Pooling"
  bottom: "inception_4d/output"
  top: "loss2/ave_pool"
  pooling_param {
    pool: AVE
    kernel_size: 5
    stride: 3
  }
}
layer {
  name: "loss2/conv"
  type: "Convolution"
  bottom: "loss2/ave_pool"
  top: "loss2/conv"
  param {
    lr_mult: 1
    decay_mult: 1
  }
  param {
    lr_mult: 2
    decay_mult: 0
  }
  convolution_param {
    num_output: 128
    kernel_size: 1
    weight_filler {
      type: "xavier"
    }
    bias_filler {
      type: "constant"
      value: 0.2
    }
  }
}
layer {
  name: "loss2/relu_conv"
  type: "ReLU"
  bottom: "loss2/conv"
  top: "loss2/conv"
}
layer {
  name: "loss2/fc"
  type: "InnerProduct"
  bottom: "loss2/conv"
  top: "loss2/fc"
  param {
    lr_mult: 1
    decay_mult: 1
  }
  param {
    lr_mult: 2
    decay_mult: 0
  }
  inner_product_param {
    num_output: 1024
    weight_filler {
      type: "xavier"
    }
    bias_filler {
      type: "constant"
      value: 0.2
    }
  }
}
layer {
  name: "loss2/relu_fc"
  type: "ReLU"
  bottom: "loss2/fc"
  top: "loss2/fc"
}
layer {
  name: "loss2/drop_fc"
  type: "Dropout"
  bottom: "loss2/fc"
  top: "loss2/fc"
  dropout_param {
    dropout_ratio: 0.7
  }
}
layer {
  name: "loss2/classifier"
  type: "InnerProduct"
  bottom: "loss2/fc"
  top: "loss2/classifier"
  param {
    lr_mult: 1
    decay_mult: 1
  }
  param {
    lr_mult: 2
    decay_mult: 0
  }
  inner_product_param {
    num_output: 2
    weight_filler {
      type: "xavier"
    }
    bias_filler {
      type: "constant"
      value: 0
    }
  }
}
layer {
  name: "loss2/loss"
  type: "SoftmaxWithLoss"
  bottom: "loss2/classifier"
  bottom: "label"
  top: "loss2/loss1"
  loss_weight: 0.3
}
layer {
  name: "inception_4e/1x1"
  type: "Convolution"
  bottom: "inception_4d/output"
  top: "inception_4e/1x1"
  param {
    lr_mult: 1
    decay_mult: 1
  }
  param {
    lr_mult: 2
    decay_mult: 0
  }
  convolution_param {
    num_output: 256
    kernel_size: 1
    weight_filler {
      type: "xavier"
    }
    bias_filler {
      type: "constant"
      value: 0.2
    }
  }
}
layer {
  name: "inception_4e/relu_1x1"
  type: "ReLU"
  bottom: "inception_4e/1x1"
  top: "inception_4e/1x1"
}
layer {
  name: "inception_4e/3x3_reduce"
  type: "Convolution"
  bottom: "inception_4d/output"
  top: "inception_4e/3x3_reduce"
  param {
    lr_mult: 1
    decay_mult: 1
  }
  param {
    lr_mult: 2
    decay_mult: 0
  }
  convolution_param {
    num_output: 160
    kernel_size: 1
    weight_filler {
      type: "xavier"
    }
    bias_filler {
      type: "constant"
      value: 0.2
    }
  }
}
layer {
  name: "inception_4e/relu_3x3_reduce"
  type: "ReLU"
  bottom: "inception_4e/3x3_reduce"
  top: "inception_4e/3x3_reduce"
}
layer {
  name: "inception_4e/3x3"
  type: "Convolution"
  bottom: "inception_4e/3x3_reduce"
  top: "inception_4e/3x3"
  param {
    lr_mult: 1
    decay_mult: 1
  }
  param {
    lr_mult: 2
    decay_mult: 0
  }
  convolution_param {
    num_output: 320
    pad: 1
    kernel_size: 3
    weight_filler {
      type: "xavier"
    }
    bias_filler {
      type: "constant"
      value: 0.2
    }
  }
}
layer {
  name: "inception_4e/relu_3x3"
  type: "ReLU"
  bottom: "inception_4e/3x3"
  top: "inception_4e/3x3"
}
layer {
  name: "inception_4e/5x5_reduce"
  type: "Convolution"
  bottom: "inception_4d/output"
  top: "inception_4e/5x5_reduce"
  param {
    lr_mult: 1
    decay_mult: 1
  }
  param {
    lr_mult: 2
    decay_mult: 0
  }
  convolution_param {
    num_output: 32
    kernel_size: 1
    weight_filler {
      type: "xavier"
    }
    bias_filler {
      type: "constant"
      value: 0.2
    }
  }
}
layer {
  name: "inception_4e/relu_5x5_reduce"
  type: "ReLU"
  bottom: "inception_4e/5x5_reduce"
  top: "inception_4e/5x5_reduce"
}
layer {
  name: "inception_4e/5x5"
  type: "Convolution"
  bottom: "inception_4e/5x5_reduce"
  top: "inception_4e/5x5"
  param {
    lr_mult: 1
    decay_mult: 1
  }
  param {
    lr_mult: 2
    decay_mult: 0
  }
  convolution_param {
    num_output: 128
    pad: 2
    kernel_size: 5
    weight_filler {
      type: "xavier"
    }
    bias_filler {
      type: "constant"
      value: 0.2
    }
  }
}
layer {
  name: "inception_4e/relu_5x5"
  type: "ReLU"
  bottom: "inception_4e/5x5"
  top: "inception_4e/5x5"
}
layer {
  name: "inception_4e/pool"
  type: "Pooling"
  bottom: "inception_4
I0711 10:07:34.077582 119936 layer_factory.hpp:76] Creating layer data
I0711 10:07:34.077620 119936 net.cpp:106] Creating Layer data
I0711 10:07:34.077628 119936 net.cpp:411] data -> data
I0711 10:07:34.077656 119936 net.cpp:411] data -> label
I0711 10:07:34.078054 119936 image_data_layer.cpp:36] Opening file /data/dywang/Database/Proliferation/libs/stage04_mitosisDetection/training_examples/train2.lst
I0711 10:07:34.109194 119936 image_data_layer.cpp:46] Shuffling data
I0711 10:07:34.115008 119936 image_data_layer.cpp:51] A total of 64722 images.
I0711 10:07:34.124646 119936 image_data_layer.cpp:78] output data size: 32,3,224,224
I0711 10:07:34.172940 119936 net.cpp:150] Setting up data
I0711 10:07:34.173007 119936 net.cpp:157] Top shape: 32 3 224 224 (4816896)
I0711 10:07:34.173020 119936 net.cpp:157] Top shape: 32 (32)
I0711 10:07:34.173030 119936 net.cpp:165] Memory required for data: 19267712
I0711 10:07:34.173045 119936 layer_factory.hpp:76] Creating layer label_data_1_split
I0711 10:07:34.173069 119936 net.cpp:106] Creating Layer label_data_1_split
I0711 10:07:34.173081 119936 net.cpp:454] label_data_1_split <- label
I0711 10:07:34.173100 119936 net.cpp:411] label_data_1_split -> label_data_1_split_0
I0711 10:07:34.173120 119936 net.cpp:411] label_data_1_split -> label_data_1_split_1
I0711 10:07:34.173141 119936 net.cpp:411] label_data_1_split -> label_data_1_split_2
I0711 10:07:34.173207 119936 net.cpp:150] Setting up label_data_1_split
I0711 10:07:34.173233 119936 net.cpp:157] Top shape: 32 (32)
I0711 10:07:34.173255 119936 net.cpp:157] Top shape: 32 (32)
I0711 10:07:34.173266 119936 net.cpp:157] Top shape: 32 (32)
I0711 10:07:34.173287 119936 net.cpp:165] Memory required for data: 19268096
I0711 10:07:34.173297 119936 layer_factory.hpp:76] Creating layer conv1/7x7_s2
I0711 10:07:34.173367 119936 net.cpp:106] Creating Layer conv1/7x7_s2
I0711 10:07:34.173379 119936 net.cpp:454] conv1/7x7_s2 <- data
I0711 10:07:34.173393 119936 net.cpp:411] conv1/7x7_s2 -> conv1/7x7_s2
I0711 10:07:34.295361 119936 net.cpp:150] Setting up conv1/7x7_s2
I0711 10:07:34.295418 119936 net.cpp:157] Top shape: 32 64 112 112 (25690112)
I0711 10:07:34.295431 119936 net.cpp:165] Memory required for data: 122028544
I0711 10:07:34.295462 119936 layer_factory.hpp:76] Creating layer conv1/relu_7x7
I0711 10:07:34.295482 119936 net.cpp:106] Creating Layer conv1/relu_7x7
I0711 10:07:34.295495 119936 net.cpp:454] conv1/relu_7x7 <- conv1/7x7_s2
I0711 10:07:34.295521 119936 net.cpp:397] conv1/relu_7x7 -> conv1/7x7_s2 (in-place)
I0711 10:07:34.295776 119936 net.cpp:150] Setting up conv1/relu_7x7
I0711 10:07:34.295819 119936 net.cpp:157] Top shape: 32 64 112 112 (25690112)
I0711 10:07:34.295830 119936 net.cpp:165] Memory required for data: 224788992
I0711 10:07:34.295838 119936 layer_factory.hpp:76] Creating layer pool1/3x3_s2
I0711 10:07:34.295852 119936 net.cpp:106] Creating Layer pool1/3x3_s2
I0711 10:07:34.295861 119936 net.cpp:454] pool1/3x3_s2 <- conv1/7x7_s2
I0711 10:07:34.295873 119936 net.cpp:411] pool1/3x3_s2 -> pool1/3x3_s2
I0711 10:07:34.296277 119936 net.cpp:150] Setting up pool1/3x3_s2
I0711 10:07:34.296309 119936 net.cpp:157] Top shape: 32 64 56 56 (6422528)
I0711 10:07:34.296324 119936 net.cpp:165] Memory required for data: 250479104
I0711 10:07:34.296336 119936 layer_factory.hpp:76] Creating layer pool1/norm1
I0711 10:07:34.296357 119936 net.cpp:106] Creating Layer pool1/norm1
I0711 10:07:34.296370 119936 net.cpp:454] pool1/norm1 <- pool1/3x3_s2
I0711 10:07:34.296411 119936 net.cpp:411] pool1/norm1 -> pool1/norm1
I0711 10:07:34.296674 119936 net.cpp:150] Setting up pool1/norm1
I0711 10:07:34.296705 119936 net.cpp:157] Top shape: 32 64 56 56 (6422528)
I0711 10:07:34.296715 119936 net.cpp:165] Memory required for data: 276169216
I0711 10:07:34.296725 119936 layer_factory.hpp:76] Creating layer conv2/3x3_reduce
I0711 10:07:34.296742 119936 net.cpp:106] Creating Layer conv2/3x3_reduce
I0711 10:07:34.296768 119936 net.cpp:454] conv2/3x3_reduce <- pool1/norm1
I0711 10:07:34.296797 119936 net.cpp:411] conv2/3x3_reduce -> conv2/3x3_reduce
I0711 10:07:34.298506 119936 cudnn_conv_layer.cpp:194] Reallocating workspace storage: 768
I0711 10:07:34.298548 119936 net.cpp:150] Setting up conv2/3x3_reduce
I0711 10:07:34.298563 119936 net.cpp:157] Top shape: 32 64 56 56 (6422528)
I0711 10:07:34.298573 119936 net.cpp:165] Memory required for data: 301859328
I0711 10:07:34.298588 119936 layer_factory.hpp:76] Creating layer conv2/relu_3x3_reduce
I0711 10:07:34.298617 119936 net.cpp:106] Creating Layer conv2/relu_3x3_reduce
I0711 10:07:34.298646 119936 net.cpp:454] conv2/relu_3x3_reduce <- conv2/3x3_reduce
I0711 10:07:34.298669 119936 net.cpp:397] conv2/relu_3x3_reduce -> conv2/3x3_reduce (in-place)
I0711 10:07:34.299029 119936 net.cpp:150] Setting up conv2/relu_3x3_reduce
I0711 10:07:34.299060 119936 net.cpp:157] Top shape: 32 64 56 56 (6422528)
I0711 10:07:34.299070 119936 net.cpp:165] Memory required for data: 327549440
I0711 10:07:34.299080 119936 layer_factory.hpp:76] Creating layer conv2/3x3
I0711 10:07:34.299100 119936 net.cpp:106] Creating Layer conv2/3x3
I0711 10:07:34.299124 119936 net.cpp:454] conv2/3x3 <- conv2/3x3_reduce
I0711 10:07:34.299150 119936 net.cpp:411] conv2/3x3 -> conv2/3x3
I0711 10:07:34.301702 119936 cudnn_conv_layer.cpp:194] Reallocating workspace storage: 6912
I0711 10:07:34.301976 119936 net.cpp:150] Setting up conv2/3x3
I0711 10:07:34.302006 119936 net.cpp:157] Top shape: 32 192 56 56 (19267584)
I0711 10:07:34.302018 119936 net.cpp:165] Memory required for data: 404619776
I0711 10:07:34.302033 119936 layer_factory.hpp:76] Creating layer conv2/relu_3x3
I0711 10:07:34.302047 119936 net.cpp:106] Creating Layer conv2/relu_3x3
I0711 10:07:34.302055 119936 net.cpp:454] conv2/relu_3x3 <- conv2/3x3
I0711 10:07:34.302067 119936 net.cpp:397] conv2/relu_3x3 -> conv2/3x3 (in-place)
I0711 10:07:34.302325 119936 net.cpp:150] Setting up conv2/relu_3x3
I0711 10:07:34.302353 119936 net.cpp:157] Top shape: 32 192 56 56 (19267584)
I0711 10:07:34.302363 119936 net.cpp:165] Memory required for data: 481690112
I0711 10:07:34.302372 119936 layer_factory.hpp:76] Creating layer conv2/norm2
I0711 10:07:34.302386 119936 net.cpp:106] Creating Layer conv2/norm2
I0711 10:07:34.302395 119936 net.cpp:454] conv2/norm2 <- conv2/3x3
I0711 10:07:34.302407 119936 net.cpp:411] conv2/norm2 -> conv2/norm2
I0711 10:07:34.302822 119936 net.cpp:150] Setting up conv2/norm2
I0711 10:07:34.302858 119936 net.cpp:157] Top shape: 32 192 56 56 (19267584)
I0711 10:07:34.302870 119936 net.cpp:165] Memory required for data: 558760448
I0711 10:07:34.302877 119936 layer_factory.hpp:76] Creating layer pool2/3x3_s2
I0711 10:07:34.302891 119936 net.cpp:106] Creating Layer pool2/3x3_s2
I0711 10:07:34.302898 119936 net.cpp:454] pool2/3x3_s2 <- conv2/norm2
I0711 10:07:34.302909 119936 net.cpp:411] pool2/3x3_s2 -> pool2/3x3_s2
I0711 10:07:34.303165 119936 net.cpp:150] Setting up pool2/3x3_s2
I0711 10:07:34.303194 119936 net.cpp:157] Top shape: 32 192 28 28 (4816896)
I0711 10:07:34.303202 119936 net.cpp:165] Memory required for data: 578028032
I0711 10:07:34.303211 119936 layer_factory.hpp:76] Creating layer pool2/3x3_s2_pool2/3x3_s2_0_split
I0711 10:07:34.303223 119936 net.cpp:106] Creating Layer pool2/3x3_s2_pool2/3x3_s2_0_split
I0711 10:07:34.303232 119936 net.cpp:454] pool2/3x3_s2_pool2/3x3_s2_0_split <- pool2/3x3_s2
I0711 10:07:34.303246 119936 net.cpp:411] pool2/3x3_s2_pool2/3x3_s2_0_split -> pool2/3x3_s2_pool2/3x3_s2_0_split_0
I0711 10:07:34.303257 119936 net.cpp:411] pool2/3x3_s2_pool2/3x3_s2_0_split -> pool2/3x3_s2_pool2/3x3_s2_0_split_1
I0711 10:07:34.303269 119936 net.cpp:411] pool2/3x3_s2_pool2/3x3_s2_0_split -> pool2/3x3_s2_pool2/3x3_s2_0_split_2
I0711 10:07:34.303279 119936 net.cpp:411] pool2/3x3_s2_pool2/3x3_s2_0_split -> pool2/3x3_s2_pool2/3x3_s2_0_split_3
I0711 10:07:34.303359 119936 net.cpp:150] Setting up pool2/3x3_s2_pool2/3x3_s2_0_split
I0711 10:07:34.303387 119936 net.cpp:157] Top shape: 32 192 28 28 (4816896)
I0711 10:07:34.303409 119936 net.cpp:157] Top shape: 32 192 28 28 (4816896)
I0711 10:07:34.303419 119936 net.cpp:157] Top shape: 32 192 28 28 (4816896)
I0711 10:07:34.303439 119936 net.cpp:157] Top shape: 32 192 28 28 (4816896)
I0711 10:07:34.303447 119936 net.cpp:165] Memory required for data: 655098368
I0711 10:07:34.303457 119936 layer_factory.hpp:76] Creating layer inception_3a/1x1
I0711 10:07:34.303472 119936 net.cpp:106] Creating Layer inception_3a/1x1
I0711 10:07:34.303483 119936 net.cpp:454] inception_3a/1x1 <- pool2/3x3_s2_pool2/3x3_s2_0_split_0
I0711 10:07:34.303493 119936 net.cpp:411] inception_3a/1x1 -> inception_3a/1x1
I0711 10:07:34.305241 119936 net.cpp:150] Setting up inception_3a/1x1
I0711 10:07:34.305276 119936 net.cpp:157] Top shape: 32 64 28 28 (1605632)
I0711 10:07:34.305286 119936 net.cpp:165] Memory required for data: 661520896
I0711 10:07:34.305299 119936 layer_factory.hpp:76] Creating layer inception_3a/relu_1x1
I0711 10:07:34.305315 119936 net.cpp:106] Creating Layer inception_3a/relu_1x1
I0711 10:07:34.305325 119936 net.cpp:454] inception_3a/relu_1x1 <- inception_3a/1x1
I0711 10:07:34.305347 119936 net.cpp:397] inception_3a/relu_1x1 -> inception_3a/1x1 (in-place)
I0711 10:07:34.305711 119936 net.cpp:150] Setting up inception_3a/relu_1x1
I0711 10:07:34.305744 119936 net.cpp:157] Top shape: 32 64 28 28 (1605632)
I0711 10:07:34.305754 119936 net.cpp:165] Memory required for data: 667943424
I0711 10:07:34.305763 119936 layer_factory.hpp:76] Creating layer inception_3a/3x3_reduce
I0711 10:07:34.305778 119936 net.cpp:106] Creating Layer inception_3a/3x3_reduce
I0711 10:07:34.305788 119936 net.cpp:454] inception_3a/3x3_reduce <- pool2/3x3_s2_pool2/3x3_s2_0_split_1
I0711 10:07:34.305799 119936 net.cpp:411] inception_3a/3x3_reduce -> inception_3a/3x3_reduce
I0711 10:07:34.307474 119936 cudnn_conv_layer.cpp:194] Reallocating workspace storage: 2304
I0711 10:07:34.307750 119936 net.cpp:150] Setting up inception_3a/3x3_reduce
I0711 10:07:34.307792 119936 net.cpp:157] Top shape: 32 96 28 28 (2408448)
I0711 10:07:34.307803 119936 net.cpp:165] Memory required for data: 677577216
I0711 10:07:34.307819 119936 layer_factory.hpp:76] Creating layer inception_3a/relu_3x3_reduce
I0711 10:07:34.307837 119936 net.cpp:106] Creating Layer inception_3a/relu_3x3_reduce
I0711 10:07:34.307848 119936 net.cpp:454] inception_3a/relu_3x3_reduce <- inception_3a/3x3_reduce
I0711 10:07:34.307859 119936 net.cpp:397] inception_3a/relu_3x3_reduce -> inception_3a/3x3_reduce (in-place)
I0711 10:07:34.308236 119936 net.cpp:150] Setting up inception_3a/relu_3x3_reduce
I0711 10:07:34.308269 119936 net.cpp:157] Top shape: 32 96 28 28 (2408448)
I0711 10:07:34.308282 119936 net.cpp:165] Memory required for data: 687211008
I0711 10:07:34.308291 119936 layer_factory.hpp:76] Creating layer inception_3a/3x3
I0711 10:07:34.308310 119936 net.cpp:106] Creating Layer inception_3a/3x3
I0711 10:07:34.308320 119936 net.cpp:454] inception_3a/3x3 <- inception_3a/3x3_reduce
I0711 10:07:34.308333 119936 net.cpp:411] inception_3a/3x3 -> inception_3a/3x3
I0711 10:07:34.310153 119936 net.cpp:150] Setting up inception_3a/3x3
I0711 10:07:34.310189 119936 net.cpp:157] Top shape: 32 128 28 28 (3211264)
I0711 10:07:34.310199 119936 net.cpp:165] Memory required for data: 700056064
I0711 10:07:34.310210 119936 layer_factory.hpp:76] Creating layer inception_3a/relu_3x3
I0711 10:07:34.310225 119936 net.cpp:106] Creating Layer inception_3a/relu_3x3
I0711 10:07:34.310235 119936 net.cpp:454] inception_3a/relu_3x3 <- inception_3a/3x3
I0711 10:07:34.310247 119936 net.cpp:397] inception_3a/relu_3x3 -> inception_3a/3x3 (in-place)
I0711 10:07:34.310482 119936 net.cpp:150] Setting up inception_3a/relu_3x3
I0711 10:07:34.310511 119936 net.cpp:157] Top shape: 32 128 28 28 (3211264)
I0711 10:07:34.310520 119936 net.cpp:165] Memory required for data: 712901120
I0711 10:07:34.310529 119936 layer_factory.hpp:76] Creating layer inception_3a/5x5_reduce
I0711 10:07:34.310547 119936 net.cpp:106] Creating Layer inception_3a/5x5_reduce
I0711 10:07:34.310557 119936 net.cpp:454] inception_3a/5x5_reduce <- pool2/3x3_s2_pool2/3x3_s2_0_split_2
I0711 10:07:34.310570 119936 net.cpp:411] inception_3a/5x5_reduce -> inception_3a/5x5_reduce
I0711 10:07:34.311908 119936 net.cpp:150] Setting up inception_3a/5x5_reduce
I0711 10:07:34.311940 119936 net.cpp:157] Top shape: 32 16 28 28 (401408)
I0711 10:07:34.311950 119936 net.cpp:165] Memory required for data: 714506752
I0711 10:07:34.311962 119936 layer_factory.hpp:76] Creating layer inception_3a/relu_5x5_reduce
I0711 10:07:34.311975 119936 net.cpp:106] Creating Layer inception_3a/relu_5x5_reduce
I0711 10:07:34.311983 119936 net.cpp:454] inception_3a/relu_5x5_reduce <- inception_3a/5x5_reduce
I0711 10:07:34.311997 119936 net.cpp:397] inception_3a/relu_5x5_reduce -> inception_3a/5x5_reduce (in-place)
I0711 10:07:34.312371 119936 net.cpp:150] Setting up inception_3a/relu_5x5_reduce
I0711 10:07:34.312402 119936 net.cpp:157] Top shape: 32 16 28 28 (401408)
I0711 10:07:34.312412 119936 net.cpp:165] Memory required for data: 716112384
I0711 10:07:34.312422 119936 layer_factory.hpp:76] Creating layer inception_3a/5x5
I0711 10:07:34.312436 119936 net.cpp:106] Creating Layer inception_3a/5x5
I0711 10:07:34.312446 119936 net.cpp:454] inception_3a/5x5 <- inception_3a/5x5_reduce
I0711 10:07:34.312460 119936 net.cpp:411] inception_3a/5x5 -> inception_3a/5x5
I0711 10:07:34.313457 119936 net.cpp:150] Setting up inception_3a/5x5
I0711 10:07:34.313490 119936 net.cpp:157] Top shape: 32 32 28 28 (802816)
I0711 10:07:34.313499 119936 net.cpp:165] Memory required for data: 719323648
I0711 10:07:34.313511 119936 layer_factory.hpp:76] Creating layer inception_3a/relu_5x5
I0711 10:07:34.313524 119936 net.cpp:106] Creating Layer inception_3a/relu_5x5
I0711 10:07:34.313534 119936 net.cpp:454] inception_3a/relu_5x5 <- inception_3a/5x5
I0711 10:07:34.313546 119936 net.cpp:397] inception_3a/relu_5x5 -> inception_3a/5x5 (in-place)
I0711 10:07:34.313908 119936 net.cpp:150] Setting up inception_3a/relu_5x5
I0711 10:07:34.313951 119936 net.cpp:157] Top shape: 32 32 28 28 (802816)
I0711 10:07:34.313961 119936 net.cpp:165] Memory required for data: 722534912
I0711 10:07:34.313969 119936 layer_factory.hpp:76] Creating layer inception_3a/pool
I0711 10:07:34.313982 119936 net.cpp:106] Creating Layer inception_3a/pool
I0711 10:07:34.313990 119936 net.cpp:454] inception_3a/pool <- pool2/3x3_s2_pool2/3x3_s2_0_split_3
I0711 10:07:34.314005 119936 net.cpp:411] inception_3a/pool -> inception_3a/pool
I0711 10:07:34.314283 119936 net.cpp:150] Setting up inception_3a/pool
I0711 10:07:34.314312 119936 net.cpp:157] Top shape: 32 192 28 28 (4816896)
I0711 10:07:34.314321 119936 net.cpp:165] Memory required for data: 741802496
I0711 10:07:34.314330 119936 layer_factory.hpp:76] Creating layer inception_3a/pool_proj
I0711 10:07:34.314344 119936 net.cpp:106] Creating Layer inception_3a/pool_proj
I0711 10:07:34.314354 119936 net.cpp:454] inception_3a/pool_proj <- inception_3a/pool
I0711 10:07:34.314368 119936 net.cpp:411] inception_3a/pool_proj -> inception_3a/pool_proj
I0711 10:07:34.315490 119936 net.cpp:150] Setting up inception_3a/pool_proj
I0711 10:07:34.315523 119936 net.cpp:157] Top shape: 32 32 28 28 (802816)
I0711 10:07:34.315533 119936 net.cpp:165] Memory required for data: 745013760
I0711 10:07:34.315549 119936 layer_factory.hpp:76] Creating layer inception_3a/relu_pool_proj
I0711 10:07:34.315562 119936 net.cpp:106] Creating Layer inception_3a/relu_pool_proj
I0711 10:07:34.315572 119936 net.cpp:454] inception_3a/relu_pool_proj <- inception_3a/pool_proj
I0711 10:07:34.315587 119936 net.cpp:397] inception_3a/relu_pool_proj -> inception_3a/pool_proj (in-place)
I0711 10:07:34.315971 119936 net.cpp:150] Setting up inception_3a/relu_pool_proj
I0711 10:07:34.316002 119936 net.cpp:157] Top shape: 32 32 28 28 (802816)
I0711 10:07:34.316012 119936 net.cpp:165] Memory required for data: 748225024
I0711 10:07:34.316021 119936 layer_factory.hpp:76] Creating layer inception_3a/output
I0711 10:07:34.316036 119936 net.cpp:106] Creating Layer inception_3a/output
I0711 10:07:34.316045 119936 net.cpp:454] inception_3a/output <- inception_3a/1x1
I0711 10:07:34.316058 119936 net.cpp:454] inception_3a/output <- inception_3a/3x3
I0711 10:07:34.316068 119936 net.cpp:454] inception_3a/output <- inception_3a/5x5
I0711 10:07:34.316077 119936 net.cpp:454] inception_3a/output <- inception_3a/pool_proj
I0711 10:07:34.316087 119936 net.cpp:411] inception_3a/output -> inception_3a/output
I0711 10:07:34.316139 119936 net.cpp:150] Setting up inception_3a/output
I0711 10:07:34.316156 119936 net.cpp:157] Top shape: 32 256 28 28 (6422528)
I0711 10:07:34.316171 119936 net.cpp:165] Memory required for data: 773915136
I0711 10:07:34.316192 119936 layer_factory.hpp:76] Creating layer inception_3a/output_inception_3a/output_0_split
I0711 10:07:34.316205 119936 net.cpp:106] Creating Layer inception_3a/output_inception_3a/output_0_split
I0711 10:07:34.316226 119936 net.cpp:454] inception_3a/output_inception_3a/output_0_split <- inception_3a/output
I0711 10:07:34.316236 119936 net.cpp:411] inception_3a/output_inception_3a/output_0_split -> inception_3a/output_inception_3a/output_0_split_0
I0711 10:07:34.316262 119936 net.cpp:411] inception_3a/output_inception_3a/output_0_split -> inception_3a/output_inception_3a/output_0_split_1
I0711 10:07:34.316287 119936 net.cpp:411] inception_3a/output_inception_3a/output_0_split -> inception_3a/output_inception_3a/output_0_split_2
I0711 10:07:34.316298 119936 net.cpp:411] inception_3a/output_inception_3a/output_0_split -> inception_3a/output_inception_3a/output_0_split_3
I0711 10:07:34.316393 119936 net.cpp:150] Setting up inception_3a/output_inception_3a/output_0_split
I0711 10:07:34.316408 119936 net.cpp:157] Top shape: 32 256 28 28 (6422528)
I0711 10:07:34.316418 119936 net.cpp:157] Top shape: 32 256 28 28 (6422528)
I0711 10:07:34.316428 119936 net.cpp:157] Top shape: 32 256 28 28 (6422528)
I0711 10:07:34.316437 119936 net.cpp:157] Top shape: 32 256 28 28 (6422528)
I0711 10:07:34.316447 119936 net.cpp:165] Memory required for data: 876675584
I0711 10:07:34.316510 119936 layer_factory.hpp:76] Creating layer inception_3b/1x1
I0711 10:07:34.316529 119936 net.cpp:106] Creating Layer inception_3b/1x1
I0711 10:07:34.316543 119936 net.cpp:454] inception_3b/1x1 <- inception_3a/output_inception_3a/output_0_split_0
I0711 10:07:34.316556 119936 net.cpp:411] inception_3b/1x1 -> inception_3b/1x1
I0711 10:07:34.317845 119936 cudnn_conv_layer.cpp:194] Reallocating workspace storage: 3072
I0711 10:07:34.317893 119936 net.cpp:150] Setting up inception_3b/1x1
I0711 10:07:34.317906 119936 net.cpp:157] Top shape: 32 128 28 28 (3211264)
I0711 10:07:34.317915 119936 net.cpp:165] Memory required for data: 889520640
I0711 10:07:34.317927 119936 layer_factory.hpp:76] Creating layer inception_3b/relu_1x1
I0711 10:07:34.317942 119936 net.cpp:106] Creating Layer inception_3b/relu_1x1
I0711 10:07:34.317955 119936 net.cpp:454] inception_3b/relu_1x1 <- inception_3b/1x1
I0711 10:07:34.317977 119936 net.cpp:397] inception_3b/relu_1x1 -> inception_3b/1x1 (in-place)
I0711 10:07:34.318186 119936 net.cpp:150] Setting up inception_3b/relu_1x1
I0711 10:07:34.318217 119936 net.cpp:157] Top shape: 32 128 28 28 (3211264)
I0711 10:07:34.318238 119936 net.cpp:165] Memory required for data: 902365696
I0711 10:07:34.318248 119936 layer_factory.hpp:76] Creating layer inception_3b/3x3_reduce
I0711 10:07:34.318262 119936 net.cpp:106] Creating Layer inception_3b/3x3_reduce
I0711 10:07:34.318272 119936 net.cpp:454] inception_3b/3x3_reduce <- inception_3a/output_inception_3a/output_0_split_1
I0711 10:07:34.318284 119936 net.cpp:411] inception_3b/3x3_reduce -> inception_3b/3x3_reduce
I0711 10:07:34.319525 119936 cudnn_conv_layer.cpp:194] Reallocating workspace storage: 3072
I0711 10:07:34.319566 119936 net.cpp:150] Setting up inception_3b/3x3_reduce
I0711 10:07:34.319581 119936 net.cpp:157] Top shape: 32 128 28 28 (3211264)
I0711 10:07:34.319591 119936 net.cpp:165] Memory required for data: 915210752
I0711 10:07:34.319603 119936 layer_factory.hpp:76] Creating layer inception_3b/relu_3x3_reduce
I0711 10:07:34.319615 119936 net.cpp:106] Creating Layer inception_3b/relu_3x3_reduce
I0711 10:07:34.319624 119936 net.cpp:454] inception_3b/relu_3x3_reduce <- inception_3b/3x3_reduce
I0711 10:07:34.319636 119936 net.cpp:397] inception_3b/relu_3x3_reduce -> inception_3b/3x3_reduce (in-place)
I0711 10:07:34.319875 119936 net.cpp:150] Setting up inception_3b/relu_3x3_reduce
I0711 10:07:34.319902 119936 net.cpp:157] Top shape: 32 128 28 28 (3211264)
I0711 10:07:34.319911 119936 net.cpp:165] Memory required for data: 928055808
I0711 10:07:34.319921 119936 layer_factory.hpp:76] Creating layer inception_3b/3x3
I0711 10:07:34.319938 119936 net.cpp:106] Creating Layer inception_3b/3x3
I0711 10:07:34.319947 119936 net.cpp:454] inception_3b/3x3 <- inception_3b/3x3_reduce
I0711 10:07:34.319962 119936 net.cpp:411] inception_3b/3x3 -> inception_3b/3x3
I0711 10:07:34.323071 119936 cudnn_conv_layer.cpp:194] Reallocating workspace storage: 13824
I0711 10:07:34.323119 119936 net.cpp:150] Setting up inception_3b/3x3
I0711 10:07:34.323133 119936 net.cpp:157] Top shape: 32 192 28 28 (4816896)
I0711 10:07:34.323143 119936 net.cpp:165] Memory required for data: 947323392
I0711 10:07:34.323155 119936 layer_factory.hpp:76] Creating layer inception_3b/relu_3x3
I0711 10:07:34.323168 119936 net.cpp:106] Creating Layer inception_3b/relu_3x3
I0711 10:07:34.323181 119936 net.cpp:454] inception_3b/relu_3x3 <- inception_3b/3x3
I0711 10:07:34.323207 119936 net.cpp:397] inception_3b/relu_3x3 -> inception_3b/3x3 (in-place)
I0711 10:07:34.323587 119936 net.cpp:150] Setting up inception_3b/relu_3x3
I0711 10:07:34.323618 119936 net.cpp:157] Top shape: 32 192 28 28 (4816896)
I0711 10:07:34.323628 119936 net.cpp:165] Memory required for data: 966590976
I0711 10:07:34.323637 119936 layer_factory.hpp:76] Creating layer inception_3b/5x5_reduce
I0711 10:07:34.323652 119936 net.cpp:106] Creating Layer inception_3b/5x5_reduce
I0711 10:07:34.323662 119936 net.cpp:454] inception_3b/5x5_reduce <- inception_3a/output_inception_3a/output_0_split_2
I0711 10:07:34.323704 119936 net.cpp:411] inception_3b/5x5_reduce -> inception_3b/5x5_reduce
I0711 10:07:34.324867 119936 net.cpp:150] Setting up inception_3b/5x5_reduce
I0711 10:07:34.324903 119936 net.cpp:157] Top shape: 32 32 28 28 (802816)
I0711 10:07:34.324913 119936 net.cpp:165] Memory required for data: 969802240
I0711 10:07:34.324925 119936 layer_factory.hpp:76] Creating layer inception_3b/relu_5x5_reduce
I0711 10:07:34.324939 119936 net.cpp:106] Creating Layer inception_3b/relu_5x5_reduce
I0711 10:07:34.324949 119936 net.cpp:454] inception_3b/relu_5x5_reduce <- inception_3b/5x5_reduce
I0711 10:07:34.324959 119936 net.cpp:397] inception_3b/relu_5x5_reduce -> inception_3b/5x5_reduce (in-place)
I0711 10:07:34.325193 119936 net.cpp:150] Setting up inception_3b/relu_5x5_reduce
I0711 10:07:34.325222 119936 net.cpp:157] Top shape: 32 32 28 28 (802816)
I0711 10:07:34.325232 119936 net.cpp:165] Memory required for data: 973013504
I0711 10:07:34.325239 119936 layer_factory.hpp:76] Creating layer inception_3b/5x5
I0711 10:07:34.325255 119936 net.cpp:106] Creating Layer inception_3b/5x5
I0711 10:07:34.325265 119936 net.cpp:454] inception_3b/5x5 <- inception_3b/5x5_reduce
I0711 10:07:34.325278 119936 net.cpp:411] inception_3b/5x5 -> inception_3b/5x5
I0711 10:07:34.327574 119936 cudnn_conv_layer.cpp:194] Reallocating workspace storage: 9600
I0711 10:07:34.327621 119936 net.cpp:150] Setting up inception_3b/5x5
I0711 10:07:34.327636 119936 net.cpp:157] Top shape: 32 96 28 28 (2408448)
I0711 10:07:34.327646 119936 net.cpp:165] Memory required for data: 982647296
I0711 10:07:34.327658 119936 layer_factory.hpp:76] Creating layer inception_3b/relu_5x5
I0711 10:07:34.327671 119936 net.cpp:106] Creating Layer inception_3b/relu_5x5
I0711 10:07:34.327680 119936 net.cpp:454] inception_3b/relu_5x5 <- inception_3b/5x5
I0711 10:07:34.327694 119936 net.cpp:397] inception_3b/relu_5x5 -> inception_3b/5x5 (in-place)
I0711 10:07:34.327950 119936 net.cpp:150] Setting up inception_3b/relu_5x5
I0711 10:07:34.327968 119936 net.cpp:157] Top shape: 32 96 28 28 (2408448)
I0711 10:07:34.327977 119936 net.cpp:165] Memory required for data: 992281088
I0711 10:07:34.327986 119936 layer_factory.hpp:76] Creating layer inception_3b/pool
I0711 10:07:34.328004 119936 net.cpp:106] Creating Layer inception_3b/pool
I0711 10:07:34.328029 119936 net.cpp:454] inception_3b/pool <- inception_3a/output_inception_3a/output_0_split_3
I0711 10:07:34.328042 119936 net.cpp:411] inception_3b/pool -> inception_3b/pool
I0711 10:07:34.328454 119936 net.cpp:150] Setting up inception_3b/pool
I0711 10:07:34.328487 119936 net.cpp:157] Top shape: 32 256 28 28 (6422528)
I0711 10:07:34.328497 119936 net.cpp:165] Memory required for data: 1017971200
I0711 10:07:34.328507 119936 layer_factory.hpp:76] Creating layer inception_3b/pool_proj
I0711 10:07:34.328526 119936 net.cpp:106] Creating Layer inception_3b/pool_proj
I0711 10:07:34.328537 119936 net.cpp:454] inception_3b/pool_proj <- inception_3b/pool
I0711 10:07:34.328552 119936 net.cpp:411] inception_3b/pool_proj -> inception_3b/pool_proj
I0711 10:07:34.329939 119936 cudnn_conv_layer.cpp:194] Reallocating workspace storage: 3072
I0711 10:07:34.329982 119936 net.cpp:150] Setting up inception_3b/pool_proj
I0711 10:07:34.329995 119936 net.cpp:157] Top shape: 32 64 28 28 (1605632)
I0711 10:07:34.330004 119936 net.cpp:165] Memory required for data: 1024393728
I0711 10:07:34.330016 119936 layer_factory.hpp:76] Creating layer inception_3b/relu_pool_proj
I0711 10:07:34.330029 119936 net.cpp:106] Creating Layer inception_3b/relu_pool_proj
I0711 10:07:34.330037 119936 net.cpp:454] inception_3b/relu_pool_proj <- inception_3b/pool_proj
I0711 10:07:34.330051 119936 net.cpp:397] inception_3b/relu_pool_proj -> inception_3b/pool_proj (in-place)
I0711 10:07:34.330320 119936 net.cpp:150] Setting up inception_3b/relu_pool_proj
I0711 10:07:34.330350 119936 net.cpp:157] Top shape: 32 64 28 28 (1605632)
I0711 10:07:34.330360 119936 net.cpp:165] Memory required for data: 1030816256
I0711 10:07:34.330368 119936 layer_factory.hpp:76] Creating layer inception_3b/output
I0711 10:07:34.330394 119936 net.cpp:106] Creating Layer inception_3b/output
I0711 10:07:34.330404 119936 net.cpp:454] inception_3b/output <- inception_3b/1x1
I0711 10:07:34.330413 119936 net.cpp:454] inception_3b/output <- inception_3b/3x3
I0711 10:07:34.330422 119936 net.cpp:454] inception_3b/output <- inception_3b/5x5
I0711 10:07:34.330432 119936 net.cpp:454] inception_3b/output <- inception_3b/pool_proj
I0711 10:07:34.330441 119936 net.cpp:411] inception_3b/output -> inception_3b/output
I0711 10:07:34.330492 119936 net.cpp:150] Setting up inception_3b/output
I0711 10:07:34.330507 119936 net.cpp:157] Top shape: 32 480 28 28 (12042240)
I0711 10:07:34.330515 119936 net.cpp:165] Memory required for data: 1078985216
I0711 10:07:34.330525 119936 layer_factory.hpp:76] Creating layer pool3/3x3_s2
I0711 10:07:34.330539 119936 net.cpp:106] Creating Layer pool3/3x3_s2
I0711 10:07:34.330551 119936 net.cpp:454] pool3/3x3_s2 <- inception_3b/output
I0711 10:07:34.330574 119936 net.cpp:411] pool3/3x3_s2 -> pool3/3x3_s2
I0711 10:07:34.331019 119936 net.cpp:150] Setting up pool3/3x3_s2
I0711 10:07:34.331051 119936 net.cpp:157] Top shape: 32 480 14 14 (3010560)
I0711 10:07:34.331060 119936 net.cpp:165] Memory required for data: 1091027456
I0711 10:07:34.331070 119936 layer_factory.hpp:76] Creating layer pool3/3x3_s2_pool3/3x3_s2_0_split
I0711 10:07:34.331084 119936 net.cpp:106] Creating Layer pool3/3x3_s2_pool3/3x3_s2_0_split
I0711 10:07:34.331094 119936 net.cpp:454] pool3/3x3_s2_pool3/3x3_s2_0_split <- pool3/3x3_s2
I0711 10:07:34.331104 119936 net.cpp:411] pool3/3x3_s2_pool3/3x3_s2_0_split -> pool3/3x3_s2_pool3/3x3_s2_0_split_0
I0711 10:07:34.331116 119936 net.cpp:411] pool3/3x3_s2_pool3/3x3_s2_0_split -> pool3/3x3_s2_pool3/3x3_s2_0_split_1
I0711 10:07:34.331128 119936 net.cpp:411] pool3/3x3_s2_pool3/3x3_s2_0_split -> pool3/3x3_s2_pool3/3x3_s2_0_split_2
I0711 10:07:34.331140 119936 net.cpp:411] pool3/3x3_s2_pool3/3x3_s2_0_split -> pool3/3x3_s2_pool3/3x3_s2_0_split_3
I0711 10:07:34.331224 119936 net.cpp:150] Setting up pool3/3x3_s2_pool3/3x3_s2_0_split
I0711 10:07:34.331262 119936 net.cpp:157] Top shape: 32 480 14 14 (3010560)
I0711 10:07:34.331284 119936 net.cpp:157] Top shape: 32 480 14 14 (3010560)
I0711 10:07:34.331293 119936 net.cpp:157] Top shape: 32 480 14 14 (3010560)
I0711 10:07:34.331302 119936 net.cpp:157] Top shape: 32 480 14 14 (3010560)
I0711 10:07:34.331310 119936 net.cpp:165] Memory required for data: 1139196416
I0711 10:07:34.331320 119936 layer_factory.hpp:76] Creating layer inception_4a/1x1
I0711 10:07:34.331334 119936 net.cpp:106] Creating Layer inception_4a/1x1
I0711 10:07:34.331343 119936 net.cpp:454] inception_4a/1x1 <- pool3/3x3_s2_pool3/3x3_s2_0_split_0
I0711 10:07:34.331357 119936 net.cpp:411] inception_4a/1x1 -> inception_4a/1x1
I0711 10:07:34.332988 119936 cudnn_conv_layer.cpp:194] Reallocating workspace storage: 5760
I0711 10:07:34.333044 119936 net.cpp:150] Setting up inception_4a/1x1
I0711 10:07:34.333070 119936 net.cpp:157] Top shape: 32 192 14 14 (1204224)
I0711 10:07:34.333078 119936 net.cpp:165] Memory required for data: 1144013312
I0711 10:07:34.333091 119936 layer_factory.hpp:76] Creating layer inception_4a/relu_1x1
I0711 10:07:34.333107 119936 net.cpp:106] Creating Layer inception_4a/relu_1x1
I0711 10:07:34.333117 119936 net.cpp:454] inception_4a/relu_1x1 <- inception_4a/1x1
I0711 10:07:34.333129 119936 net.cpp:397] inception_4a/relu_1x1 -> inception_4a/1x1 (in-place)
I0711 10:07:34.333353 119936 net.cpp:150] Setting up inception_4a/relu_1x1
I0711 10:07:34.333381 119936 net.cpp:157] Top shape: 32 192 14 14 (1204224)
I0711 10:07:34.333390 119936 net.cpp:165] Memory required for data: 1148830208
I0711 10:07:34.333400 119936 layer_factory.hpp:76] Creating layer inception_4a/3x3_reduce
I0711 10:07:34.333416 119936 net.cpp:106] Creating Layer inception_4a/3x3_reduce
I0711 10:07:34.333426 119936 net.cpp:454] inception_4a/3x3_reduce <- pool3/3x3_s2_pool3/3x3_s2_0_split_1
I0711 10:07:34.333437 119936 net.cpp:411] inception_4a/3x3_reduce -> inception_4a/3x3_reduce
I0711 10:07:34.334835 119936 cudnn_conv_layer.cpp:194] Reallocating workspace storage: 5760
I0711 10:07:34.334897 119936 net.cpp:150] Setting up inception_4a/3x3_reduce
I0711 10:07:34.334911 119936 net.cpp:157] Top shape: 32 96 14 14 (602112)
I0711 10:07:34.334933 119936 net.cpp:165] Memory required for data: 1151238656
I0711 10:07:34.334951 119936 layer_factory.hpp:76] Creating layer inception_4a/relu_3x3_reduce
I0711 10:07:34.334964 119936 net.cpp:106] Creating Layer inception_4a/relu_3x3_reduce
I0711 10:07:34.334975 119936 net.cpp:454] inception_4a/relu_3x3_reduce <- inception_4a/3x3_reduce
I0711 10:07:34.334988 119936 net.cpp:397] inception_4a/relu_3x3_reduce -> inception_4a/3x3_reduce (in-place)
I0711 10:07:34.335214 119936 net.cpp:150] Setting up inception_4a/relu_3x3_reduce
I0711 10:07:34.335248 119936 net.cpp:157] Top shape: 32 96 14 14 (602112)
I0711 10:07:34.335260 119936 net.cpp:165] Memory required for data: 1153647104
I0711 10:07:34.335270 119936 layer_factory.hpp:76] Creating layer inception_4a/3x3
I0711 10:07:34.335284 119936 net.cpp:106] Creating Layer inception_4a/3x3
I0711 10:07:34.335309 119936 net.cpp:454] inception_4a/3x3 <- inception_4a/3x3_reduce
I0711 10:07:34.335325 119936 net.cpp:411] inception_4a/3x3 -> inception_4a/3x3
I0711 10:07:34.338176 119936 cudnn_conv_layer.cpp:194] Reallocating workspace storage: 10368
I0711 10:07:34.338227 119936 net.cpp:150] Setting up inception_4a/3x3
I0711 10:07:34.338255 119936 net.cpp:157] Top shape: 32 208 14 14 (1304576)
I0711 10:07:34.338264 119936 net.cpp:165] Memory required for data: 1158865408
I0711 10:07:34.338277 119936 layer_factory.hpp:76] Creating layer inception_4a/relu_3x3
I0711 10:07:34.338289 119936 net.cpp:106] Creating Layer inception_4a/relu_3x3
I0711 10:07:34.338299 119936 net.cpp:454] inception_4a/relu_3x3 <- inception_4a/3x3
I0711 10:07:34.338310 119936 net.cpp:397] inception_4a/relu_3x3 -> inception_4a/3x3 (in-place)
I0711 10:07:34.338696 119936 net.cpp:150] Setting up inception_4a/relu_3x3
I0711 10:07:34.338727 119936 net.cpp:157] Top shape: 32 208 14 14 (1304576)
I0711 10:07:34.338737 119936 net.cpp:165] Memory required for data: 1164083712
I0711 10:07:34.338745 119936 layer_factory.hpp:76] Creating layer inception_4a/5x5_reduce
I0711 10:07:34.338762 119936 net.cpp:106] Creating Layer inception_4a/5x5_reduce
I0711 10:07:34.338771 119936 net.cpp:454] inception_4a/5x5_reduce <- pool3/3x3_s2_pool3/3x3_s2_0_split_2
I0711 10:07:34.338783 119936 net.cpp:411] inception_4a/5x5_reduce -> inception_4a/5x5_reduce
I0711 10:07:34.339902 119936 net.cpp:150] Setting up inception_4a/5x5_reduce
I0711 10:07:34.339936 119936 net.cpp:157] Top shape: 32 16 14 14 (100352)
I0711 10:07:34.339944 119936 net.cpp:165] Memory required for data: 1164485120
I0711 10:07:34.339956 119936 layer_factory.hpp:76] Creating layer inception_4a/relu_5x5_reduce
I0711 10:07:34.339972 119936 net.cpp:106] Creating Layer inception_4a/relu_5x5_reduce
I0711 10:07:34.339982 119936 net.cpp:454] inception_4a/relu_5x5_reduce <- inception_4a/5x5_reduce
I0711 10:07:34.339993 119936 net.cpp:397] inception_4a/relu_5x5_reduce -> inception_4a/5x5_reduce (in-place)
I0711 10:07:34.340229 119936 net.cpp:150] Setting up inception_4a/relu_5x5_reduce
I0711 10:07:34.340256 119936 net.cpp:157] Top shape: 32 16 14 14 (100352)
I0711 10:07:34.340265 119936 net.cpp:165] Memory required for data: 1164886528
I0711 10:07:34.340275 119936 layer_factory.hpp:76] Creating layer inception_4a/5x5
I0711 10:07:34.340296 119936 net.cpp:106] Creating Layer inception_4a/5x5
I0711 10:07:34.340304 119936 net.cpp:454] inception_4a/5x5 <- inception_4a/5x5_reduce
I0711 10:07:34.340330 119936 net.cpp:411] inception_4a/5x5 -> inception_4a/5x5
I0711 10:07:34.341599 119936 net.cpp:150] Setting up inception_4a/5x5
I0711 10:07:34.341632 119936 net.cpp:157] Top shape: 32 48 14 14 (301056)
I0711 10:07:34.341644 119936 net.cpp:165] Memory required for data: 1166090752
I0711 10:07:34.341655 119936 layer_factory.hpp:76] Creating layer inception_4a/relu_5x5
I0711 10:07:34.341667 119936 net.cpp:106] Creating Layer inception_4a/relu_5x5
I0711 10:07:34.341677 119936 net.cpp:454] inception_4a/relu_5x5 <- inception_4a/5x5
I0711 10:07:34.341716 119936 net.cpp:397] inception_4a/relu_5x5 -> inception_4a/5x5 (in-place)
I0711 10:07:34.341954 119936 net.cpp:150] Setting up inception_4a/relu_5x5
I0711 10:07:34.341984 119936 net.cpp:157] Top shape: 32 48 14 14 (301056)
I0711 10:07:34.341994 119936 net.cpp:165] Memory required for data: 1167294976
I0711 10:07:34.342002 119936 layer_factory.hpp:76] Creating layer inception_4a/pool
I0711 10:07:34.342017 119936 net.cpp:106] Creating Layer inception_4a/pool
I0711 10:07:34.342027 119936 net.cpp:454] inception_4a/pool <- pool3/3x3_s2_pool3/3x3_s2_0_split_3
I0711 10:07:34.342037 119936 net.cpp:411] inception_4a/pool -> inception_4a/pool
I0711 10:07:34.342475 119936 net.cpp:150] Setting up inception_4a/pool
I0711 10:07:34.342509 119936 net.cpp:157] Top shape: 32 480 14 14 (3010560)
I0711 10:07:34.342519 119936 net.cpp:165] Memory required for data: 1179337216
I0711 10:07:34.342527 119936 layer_factory.hpp:76] Creating layer inception_4a/pool_proj
I0711 10:07:34.342553 119936 net.cpp:106] Creating Layer inception_4a/pool_proj
I0711 10:07:34.342563 119936 net.cpp:454] inception_4a/pool_proj <- inception_4a/pool
I0711 10:07:34.342577 119936 net.cpp:411] inception_4a/pool_proj -> inception_4a/pool_proj
I0711 10:07:34.343850 119936 net.cpp:150] Setting up inception_4a/pool_proj
I0711 10:07:34.343883 119936 net.cpp:157] Top shape: 32 64 14 14 (401408)
I0711 10:07:34.343894 119936 net.cpp:165] Memory required for data: 1180942848
I0711 10:07:34.343905 119936 layer_factory.hpp:76] Creating layer inception_4a/relu_pool_proj
I0711 10:07:34.343930 119936 net.cpp:106] Creating Layer inception_4a/relu_pool_proj
I0711 10:07:34.343940 119936 net.cpp:454] inception_4a/relu_pool_proj <- inception_4a/pool_proj
I0711 10:07:34.343955 119936 net.cpp:397] inception_4a/relu_pool_proj -> inception_4a/pool_proj (in-place)
I0711 10:07:34.344182 119936 net.cpp:150] Setting up inception_4a/relu_pool_proj
I0711 10:07:34.344213 119936 net.cpp:157] Top shape: 32 64 14 14 (401408)
I0711 10:07:34.344223 119936 net.cpp:165] Memory required for data: 1182548480
I0711 10:07:34.344231 119936 layer_factory.hpp:76] Creating layer inception_4a/output
I0711 10:07:34.344243 119936 net.cpp:106] Creating Layer inception_4a/output
I0711 10:07:34.344251 119936 net.cpp:454] inception_4a/output <- inception_4a/1x1
I0711 10:07:34.344261 119936 net.cpp:454] inception_4a/output <- inception_4a/3x3
I0711 10:07:34.344283 119936 net.cpp:454] inception_4a/output <- inception_4a/5x5
I0711 10:07:34.344292 119936 net.cpp:454] inception_4a/output <- inception_4a/pool_proj
I0711 10:07:34.344302 119936 net.cpp:411] inception_4a/output -> inception_4a/output
I0711 10:07:34.344341 119936 net.cpp:150] Setting up inception_4a/output
I0711 10:07:34.344355 119936 net.cpp:157] Top shape: 32 512 14 14 (3211264)
I0711 10:07:34.344364 119936 net.cpp:165] Memory required for data: 1195393536
I0711 10:07:34.344373 119936 layer_factory.hpp:76] Creating layer inception_4a/output_inception_4a/output_0_split
I0711 10:07:34.344385 119936 net.cpp:106] Creating Layer inception_4a/output_inception_4a/output_0_split
I0711 10:07:34.344395 119936 net.cpp:454] inception_4a/output_inception_4a/output_0_split <- inception_4a/output
I0711 10:07:34.344408 119936 net.cpp:411] inception_4a/output_inception_4a/output_0_split -> inception_4a/output_inception_4a/output_0_split_0
I0711 10:07:34.344421 119936 net.cpp:411] inception_4a/output_inception_4a/output_0_split -> inception_4a/output_inception_4a/output_0_split_1
I0711 10:07:34.344434 119936 net.cpp:411] inception_4a/output_inception_4a/output_0_split -> inception_4a/output_inception_4a/output_0_split_2
I0711 10:07:34.344445 119936 net.cpp:411] inception_4a/output_inception_4a/output_0_split -> inception_4a/output_inception_4a/output_0_split_3
I0711 10:07:34.344456 119936 net.cpp:411] inception_4a/output_inception_4a/output_0_split -> inception_4a/output_inception_4a/output_0_split_4
I0711 10:07:34.344563 119936 net.cpp:150] Setting up inception_4a/output_inception_4a/output_0_split
I0711 10:07:34.344606 119936 net.cpp:157] Top shape: 32 512 14 14 (3211264)
I0711 10:07:34.344619 119936 net.cpp:157] Top shape: 32 512 14 14 (3211264)
I0711 10:07:34.344632 119936 net.cpp:157] Top shape: 32 512 14 14 (3211264)
I0711 10:07:34.344641 119936 net.cpp:157] Top shape: 32 512 14 14 (3211264)
I0711 10:07:34.344651 119936 net.cpp:157] Top shape: 32 512 14 14 (3211264)
I0711 10:07:34.344660 119936 net.cpp:165] Memory required for data: 1259618816
I0711 10:07:34.344668 119936 layer_factory.hpp:76] Creating layer loss1/ave_pool
I0711 10:07:34.344684 119936 net.cpp:106] Creating Layer loss1/ave_pool
I0711 10:07:34.344697 119936 net.cpp:454] loss1/ave_pool <- inception_4a/output_inception_4a/output_0_split_0
I0711 10:07:34.344714 119936 net.cpp:411] loss1/ave_pool -> loss1/ave_pool
I0711 10:07:34.345108 119936 net.cpp:150] Setting up loss1/ave_pool
I0711 10:07:34.345139 119936 net.cpp:157] Top shape: 32 512 4 4 (262144)
I0711 10:07:34.345149 119936 net.cpp:165] Memory required for data: 1260667392
I0711 10:07:34.345158 119936 layer_factory.hpp:76] Creating layer loss1/conv
I0711 10:07:34.345175 119936 net.cpp:106] Creating Layer loss1/conv
I0711 10:07:34.345185 119936 net.cpp:454] loss1/conv <- loss1/ave_pool
I0711 10:07:34.345198 119936 net.cpp:411] loss1/conv -> loss1/conv
I0711 10:07:34.346925 119936 cudnn_conv_layer.cpp:194] Reallocating workspace storage: 6144
I0711 10:07:34.346976 119936 net.cpp:150] Setting up loss1/conv
I0711 10:07:34.346990 119936 net.cpp:157] Top shape: 32 128 4 4 (65536)
I0711 10:07:34.347000 119936 net.cpp:165] Memory required for data: 1260929536
I0711 10:07:34.347012 119936 layer_factory.hpp:76] Creating layer loss1/relu_conv
I0711 10:07:34.347025 119936 net.cpp:106] Creating Layer loss1/relu_conv
I0711 10:07:34.347038 119936 net.cpp:454] loss1/relu_conv <- loss1/conv
I0711 10:07:34.347049 119936 net.cpp:397] loss1/relu_conv -> loss1/conv (in-place)
I0711 10:07:34.347262 119936 net.cpp:150] Setting up loss1/relu_conv
I0711 10:07:34.347291 119936 net.cpp:157] Top shape: 32 128 4 4 (65536)
I0711 10:07:34.347301 119936 net.cpp:165] Memory required for data: 1261191680
I0711 10:07:34.347311 119936 layer_factory.hpp:76] Creating layer loss1/fc
I0711 10:07:34.347326 119936 net.cpp:106] Creating Layer loss1/fc
I0711 10:07:34.347335 119936 net.cpp:454] loss1/fc <- loss1/conv
I0711 10:07:34.347348 119936 net.cpp:411] loss1/fc -> loss1/fc
I0711 10:07:34.366848 119936 net.cpp:150] Setting up loss1/fc
I0711 10:07:34.366878 119936 net.cpp:157] Top shape: 32 1024 (32768)
I0711 10:07:34.366888 119936 net.cpp:165] Memory required for data: 1261322752
I0711 10:07:34.366904 119936 layer_factory.hpp:76] Creating layer loss1/relu_fc
I0711 10:07:34.366917 119936 net.cpp:106] Creating Layer loss1/relu_fc
I0711 10:07:34.366928 119936 net.cpp:454] loss1/relu_fc <- loss1/fc
I0711 10:07:34.366956 119936 net.cpp:397] loss1/relu_fc -> loss1/fc (in-place)
I0711 10:07:34.367399 119936 net.cpp:150] Setting up loss1/relu_fc
I0711 10:07:34.367431 119936 net.cpp:157] Top shape: 32 1024 (32768)
I0711 10:07:34.367440 119936 net.cpp:165] Memory required for data: 1261453824
I0711 10:07:34.367450 119936 layer_factory.hpp:76] Creating layer loss1/drop_fc
I0711 10:07:34.367487 119936 net.cpp:106] Creating Layer loss1/drop_fc
I0711 10:07:34.367516 119936 net.cpp:454] loss1/drop_fc <- loss1/fc
I0711 10:07:34.367529 119936 net.cpp:397] loss1/drop_fc -> loss1/fc (in-place)
I0711 10:07:34.367575 119936 net.cpp:150] Setting up loss1/drop_fc
I0711 10:07:34.367591 119936 net.cpp:157] Top shape: 32 1024 (32768)
I0711 10:07:34.367600 119936 net.cpp:165] Memory required for data: 1261584896
I0711 10:07:34.367610 119936 layer_factory.hpp:76] Creating layer loss1/classifier
I0711 10:07:34.367650 119936 net.cpp:106] Creating Layer loss1/classifier
I0711 10:07:34.367661 119936 net.cpp:454] loss1/classifier <- loss1/fc
I0711 10:07:34.367676 119936 net.cpp:411] loss1/classifier -> loss1/classifier
I0711 10:07:34.367875 119936 net.cpp:150] Setting up loss1/classifier
I0711 10:07:34.367908 119936 net.cpp:157] Top shape: 32 2 (64)
I0711 10:07:34.367916 119936 net.cpp:165] Memory required for data: 1261585152
I0711 10:07:34.367947 119936 layer_factory.hpp:76] Creating layer loss1/loss
I0711 10:07:34.367980 119936 net.cpp:106] Creating Layer loss1/loss
I0711 10:07:34.367992 119936 net.cpp:454] loss1/loss <- loss1/classifier
I0711 10:07:34.368006 119936 net.cpp:454] loss1/loss <- label_data_1_split_0
I0711 10:07:34.368018 119936 net.cpp:411] loss1/loss -> loss1/loss1
I0711 10:07:34.368039 119936 layer_factory.hpp:76] Creating layer loss1/loss
I0711 10:07:34.368398 119936 net.cpp:150] Setting up loss1/loss
I0711 10:07:34.368429 119936 net.cpp:157] Top shape: (1)
I0711 10:07:34.368444 119936 net.cpp:160]     with loss weight 0.3
I0711 10:07:34.368472 119936 net.cpp:165] Memory required for data: 1261585156
I0711 10:07:34.368494 119936 layer_factory.hpp:76] Creating layer inception_4b/1x1
I0711 10:07:34.368515 119936 net.cpp:106] Creating Layer inception_4b/1x1
I0711 10:07:34.368531 119936 net.cpp:454] inception_4b/1x1 <- inception_4a/output_inception_4a/output_0_split_1
I0711 10:07:34.368544 119936 net.cpp:411] inception_4b/1x1 -> inception_4b/1x1
I0711 10:07:34.370323 119936 cudnn_conv_layer.cpp:194] Reallocating workspace storage: 6144
I0711 10:07:34.370376 119936 net.cpp:150] Setting up inception_4b/1x1
I0711 10:07:34.370390 119936 net.cpp:157] Top shape: 32 160 14 14 (1003520)
I0711 10:07:34.370411 119936 net.cpp:165] Memory required for data: 1265599236
I0711 10:07:34.370424 119936 layer_factory.hpp:76] Creating layer inception_4b/relu_1x1
I0711 10:07:34.370436 119936 net.cpp:106] Creating Layer inception_4b/relu_1x1
I0711 10:07:34.370446 119936 net.cpp:454] inception_4b/relu_1x1 <- inception_4b/1x1
I0711 10:07:34.370457 119936 net.cpp:397] inception_4b/relu_1x1 -> inception_4b/1x1 (in-place)
I0711 10:07:34.370828 119936 net.cpp:150] Setting up inception_4b/relu_1x1
I0711 10:07:34.370860 119936 net.cpp:157] Top shape: 32 160 14 14 (1003520)
I0711 10:07:34.370870 119936 net.cpp:165] Memory required for data: 1269613316
I0711 10:07:34.370879 119936 layer_factory.hpp:76] Creating layer inception_4b/3x3_reduce
I0711 10:07:34.370896 119936 net.cpp:106] Creating Layer inception_4b/3x3_reduce
I0711 10:07:34.370908 119936 net.cpp:454] inception_4b/3x3_reduce <- inception_4a/output_inception_4a/output_0_split_2
I0711 10:07:34.370921 119936 net.cpp:411] inception_4b/3x3_reduce -> inception_4b/3x3_reduce
I0711 10:07:34.372926 119936 cudnn_conv_layer.cpp:194] Reallocating workspace storage: 6144
I0711 10:07:34.372973 119936 net.cpp:150] Setting up inception_4b/3x3_reduce
I0711 10:07:34.372987 119936 net.cpp:157] Top shape: 32 112 14 14 (702464)
I0711 10:07:34.372997 119936 net.cpp:165] Memory required for data: 1272423172
I0711 10:07:34.373009 119936 layer_factory.hpp:76] Creating layer inception_4b/relu_3x3_reduce
I0711 10:07:34.373023 119936 net.cpp:106] Creating Layer inception_4b/relu_3x3_reduce
I0711 10:07:34.373033 119936 net.cpp:454] inception_4b/relu_3x3_reduce <- inception_4b/3x3_reduce
I0711 10:07:34.373047 119936 net.cpp:397] inception_4b/relu_3x3_reduce -> inception_4b/3x3_reduce (in-place)
I0711 10:07:34.373409 119936 net.cpp:150] Setting up inception_4b/relu_3x3_reduce
I0711 10:07:34.373441 119936 net.cpp:157] Top shape: 32 112 14 14 (702464)
I0711 10:07:34.373456 119936 net.cpp:165] Memory required for data: 1275233028
I0711 10:07:34.373468 119936 layer_factory.hpp:76] Creating layer inception_4b/3x3
I0711 10:07:34.373486 119936 net.cpp:106] Creating Layer inception_4b/3x3
I0711 10:07:34.373497 119936 net.cpp:454] inception_4b/3x3 <- inception_4b/3x3_reduce
I0711 10:07:34.373507 119936 net.cpp:411] inception_4b/3x3 -> inception_4b/3x3
I0711 10:07:34.376775 119936 cudnn_conv_layer.cpp:194] Reallocating workspace storage: 12096
I0711 10:07:34.376821 119936 net.cpp:150] Setting up inception_4b/3x3
I0711 10:07:34.376834 119936 net.cpp:157] Top shape: 32 224 14 14 (1404928)
I0711 10:07:34.376843 119936 net.cpp:165] Memory required for data: 1280852740
I0711 10:07:34.376857 119936 layer_factory.hpp:76] Creating layer inception_4b/relu_3x3
I0711 10:07:34.376871 119936 net.cpp:106] Creating Layer inception_4b/relu_3x3
I0711 10:07:34.376898 119936 net.cpp:454] inception_4b/relu_3x3 <- inception_4b/3x3
I0711 10:07:34.376909 119936 net.cpp:397] inception_4b/relu_3x3 -> inception_4b/3x3 (in-place)
I0711 10:07:34.377130 119936 net.cpp:150] Setting up inception_4b/relu_3x3
I0711 10:07:34.377158 119936 net.cpp:157] Top shape: 32 224 14 14 (1404928)
I0711 10:07:34.377168 119936 net.cpp:165] Memory required for data: 1286472452
I0711 10:07:34.377177 119936 layer_factory.hpp:76] Creating layer inception_4b/5x5_reduce
I0711 10:07:34.377197 119936 net.cpp:106] Creating Layer inception_4b/5x5_reduce
I0711 10:07:34.377207 119936 net.cpp:454] inception_4b/5x5_reduce <- inception_4a/output_inception_4a/output_0_split_3
I0711 10:07:34.377221 119936 net.cpp:411] inception_4b/5x5_reduce -> inception_4b/5x5_reduce
I0711 10:07:34.378410 119936 net.cpp:150] Setting up inception_4b/5x5_reduce
I0711 10:07:34.378445 119936 net.cpp:157] Top shape: 32 24 14 14 (150528)
I0711 10:07:34.378455 119936 net.cpp:165] Memory required for data: 1287074564
I0711 10:07:34.378468 119936 layer_factory.hpp:76] Creating layer inception_4b/relu_5x5_reduce
I0711 10:07:34.378482 119936 net.cpp:106] Creating Layer inception_4b/relu_5x5_reduce
I0711 10:07:34.378492 119936 net.cpp:454] inception_4b/relu_5x5_reduce <- inception_4b/5x5_reduce
I0711 10:07:34.378504 119936 net.cpp:397] inception_4b/relu_5x5_reduce -> inception_4b/5x5_reduce (in-place)
I0711 10:07:34.378872 119936 net.cpp:150] Setting up inception_4b/relu_5x5_reduce
I0711 10:07:34.378906 119936 net.cpp:157] Top shape: 32 24 14 14 (150528)
I0711 10:07:34.378914 119936 net.cpp:165] Memory required for data: 1287676676
I0711 10:07:34.378924 119936 layer_factory.hpp:76] Creating layer inception_4b/5x5
I0711 10:07:34.378940 119936 net.cpp:106] Creating Layer inception_4b/5x5
I0711 10:07:34.378953 119936 net.cpp:454] inception_4b/5x5 <- inception_4b/5x5_reduce
I0711 10:07:34.378964 119936 net.cpp:411] inception_4b/5x5 -> inception_4b/5x5
I0711 10:07:34.380198 119936 net.cpp:150] Setting up inception_4b/5x5
I0711 10:07:34.380233 119936 net.cpp:157] Top shape: 32 64 14 14 (401408)
I0711 10:07:34.380241 119936 net.cpp:165] Memory required for data: 1289282308
I0711 10:07:34.380254 119936 layer_factory.hpp:76] Creating layer inception_4b/relu_5x5
I0711 10:07:34.380269 119936 net.cpp:106] Creating Layer inception_4b/relu_5x5
I0711 10:07:34.380278 119936 net.cpp:454] inception_4b/relu_5x5 <- inception_4b/5x5
I0711 10:07:34.380301 119936 net.cpp:397] inception_4b/relu_5x5 -> inception_4b/5x5 (in-place)
I0711 10:07:34.380673 119936 net.cpp:150] Setting up inception_4b/relu_5x5
I0711 10:07:34.380705 119936 net.cpp:157] Top shape: 32 64 14 14 (401408)
I0711 10:07:34.380720 119936 net.cpp:165] Memory required for data: 1290887940
I0711 10:07:34.380730 119936 layer_factory.hpp:76] Creating layer inception_4b/pool
I0711 10:07:34.380745 119936 net.cpp:106] Creating Layer inception_4b/pool
I0711 10:07:34.380755 119936 net.cpp:454] inception_4b/pool <- inception_4a/output_inception_4a/output_0_split_4
I0711 10:07:34.380779 119936 net.cpp:411] inception_4b/pool -> inception_4b/pool
I0711 10:07:34.381064 119936 net.cpp:150] Setting up inception_4b/pool
I0711 10:07:34.381098 119936 net.cpp:157] Top shape: 32 512 14 14 (3211264)
I0711 10:07:34.381108 119936 net.cpp:165] Memory required for data: 1303732996
I0711 10:07:34.381116 119936 layer_factory.hpp:76] Creating layer inception_4b/pool_proj
I0711 10:07:34.381132 119936 net.cpp:106] Creating Layer inception_4b/pool_proj
I0711 10:07:34.381142 119936 net.cpp:454] inception_4b/pool_proj <- inception_4b/pool
I0711 10:07:34.381153 119936 net.cpp:411] inception_4b/pool_proj -> inception_4b/pool_proj
I0711 10:07:34.382457 119936 cudnn_conv_layer.cpp:194] Reallocating workspace storage: 6144
I0711 10:07:34.382513 119936 net.cpp:150] Setting up inception_4b/pool_proj
I0711 10:07:34.382541 119936 net.cpp:157] Top shape: 32 64 14 14 (401408)
I0711 10:07:34.382551 119936 net.cpp:165] Memory required for data: 1305338628
I0711 10:07:34.382563 119936 layer_factory.hpp:76] Creating layer inception_4b/relu_pool_proj
I0711 10:07:34.382591 119936 net.cpp:106] Creating Layer inception_4b/relu_pool_proj
I0711 10:07:34.382601 119936 net.cpp:454] inception_4b/relu_pool_proj <- inception_4b/pool_proj
I0711 10:07:34.382613 119936 net.cpp:397] inception_4b/relu_pool_proj -> inception_4b/pool_proj (in-place)
I0711 10:07:34.383003 119936 net.cpp:150] Setting up inception_4b/relu_pool_proj
I0711 10:07:34.383035 119936 net.cpp:157] Top shape: 32 64 14 14 (401408)
I0711 10:07:34.383044 119936 net.cpp:165] Memory required for data: 1306944260
I0711 10:07:34.383054 119936 layer_factory.hpp:76] Creating layer inception_4b/output
I0711 10:07:34.383065 119936 net.cpp:106] Creating Layer inception_4b/output
I0711 10:07:34.383075 119936 net.cpp:454] inception_4b/output <- inception_4b/1x1
I0711 10:07:34.383085 119936 net.cpp:454] inception_4b/output <- inception_4b/3x3
I0711 10:07:34.383107 119936 net.cpp:454] inception_4b/output <- inception_4b/5x5
I0711 10:07:34.383116 119936 net.cpp:454] inception_4b/output <- inception_4b/pool_proj
I0711 10:07:34.383127 119936 net.cpp:411] inception_4b/output -> inception_4b/output
I0711 10:07:34.383170 119936 net.cpp:150] Setting up inception_4b/output
I0711 10:07:34.383186 119936 net.cpp:157] Top shape: 32 512 14 14 (3211264)
I0711 10:07:34.383195 119936 net.cpp:165] Memory required for data: 1319789316
I0711 10:07:34.383203 119936 layer_factory.hpp:76] Creating layer inception_4b/output_inception_4b/output_0_split
I0711 10:07:34.383219 119936 net.cpp:106] Creating Layer inception_4b/output_inception_4b/output_0_split
I0711 10:07:34.383229 119936 net.cpp:454] inception_4b/output_inception_4b/output_0_split <- inception_4b/output
I0711 10:07:34.383239 119936 net.cpp:411] inception_4b/output_inception_4b/output_0_split -> inception_4b/output_inception_4b/output_0_split_0
I0711 10:07:34.383252 119936 net.cpp:411] inception_4b/output_inception_4b/output_0_split -> inception_4b/output_inception_4b/output_0_split_1
I0711 10:07:34.383265 119936 net.cpp:411] inception_4b/output_inception_4b/output_0_split -> inception_4b/output_inception_4b/output_0_split_2
I0711 10:07:34.383280 119936 net.cpp:411] inception_4b/output_inception_4b/output_0_split -> inception_4b/output_inception_4b/output_0_split_3
I0711 10:07:34.383355 119936 net.cpp:150] Setting up inception_4b/output_inception_4b/output_0_split
I0711 10:07:34.383381 119936 net.cpp:157] Top shape: 32 512 14 14 (3211264)
I0711 10:07:34.383404 119936 net.cpp:157] Top shape: 32 512 14 14 (3211264)
I0711 10:07:34.383419 119936 net.cpp:157] Top shape: 32 512 14 14 (3211264)
I0711 10:07:34.383430 119936 net.cpp:157] Top shape: 32 512 14 14 (3211264)
I0711 10:07:34.383440 119936 net.cpp:165] Memory required for data: 1371169540
I0711 10:07:34.383448 119936 layer_factory.hpp:76] Creating layer inception_4c/1x1
I0711 10:07:34.383467 119936 net.cpp:106] Creating Layer inception_4c/1x1
I0711 10:07:34.383478 119936 net.cpp:454] inception_4c/1x1 <- inception_4b/output_inception_4b/output_0_split_0
I0711 10:07:34.383492 119936 net.cpp:411] inception_4c/1x1 -> inception_4c/1x1
I0711 10:07:34.385196 119936 cudnn_conv_layer.cpp:194] Reallocating workspace storage: 6144
I0711 10:07:34.385244 119936 net.cpp:150] Setting up inception_4c/1x1
I0711 10:07:34.385264 119936 net.cpp:157] Top shape: 32 128 14 14 (802816)
I0711 10:07:34.385273 119936 net.cpp:165] Memory required for data: 1374380804
I0711 10:07:34.385287 119936 layer_factory.hpp:76] Creating layer inception_4c/relu_1x1
I0711 10:07:34.385301 119936 net.cpp:106] Creating Layer inception_4c/relu_1x1
I0711 10:07:34.385313 119936 net.cpp:454] inception_4c/relu_1x1 <- inception_4c/1x1
I0711 10:07:34.385324 119936 net.cpp:397] inception_4c/relu_1x1 -> inception_4c/1x1 (in-place)
I0711 10:07:34.385547 119936 net.cpp:150] Setting up inception_4c/relu_1x1
I0711 10:07:34.385576 119936 net.cpp:157] Top shape: 32 128 14 14 (802816)
I0711 10:07:34.385586 119936 net.cpp:165] Memory required for data: 1377592068
I0711 10:07:34.385596 119936 layer_factory.hpp:76] Creating layer inception_4c/3x3_reduce
I0711 10:07:34.385632 119936 net.cpp:106] Creating Layer inception_4c/3x3_reduce
I0711 10:07:34.385645 119936 net.cpp:454] inception_4c/3x3_reduce <- inception_4b/output_inception_4b/output_0_split_1
I0711 10:07:34.385658 119936 net.cpp:411] inception_4c/3x3_reduce -> inception_4c/3x3_reduce
I0711 10:07:34.387222 119936 cudnn_conv_layer.cpp:194] Reallocating workspace storage: 6144
I0711 10:07:34.387267 119936 net.cpp:150] Setting up inception_4c/3x3_reduce
I0711 10:07:34.387284 119936 net.cpp:157] Top shape: 32 128 14 14 (802816)
I0711 10:07:34.387293 119936 net.cpp:165] Memory required for data: 1380803332
I0711 10:07:34.387305 119936 layer_factory.hpp:76] Creating layer inception_4c/relu_3x3_reduce
I0711 10:07:34.387318 119936 net.cpp:106] Creating Layer inception_4c/relu_3x3_reduce
I0711 10:07:34.387328 119936 net.cpp:454] inception_4c/relu_3x3_reduce <- inception_4c/3x3_reduce
I0711 10:07:34.387342 119936 net.cpp:397] inception_4c/relu_3x3_reduce -> inception_4c/3x3_reduce (in-place)
I0711 10:07:34.387558 119936 net.cpp:150] Setting up inception_4c/relu_3x3_reduce
I0711 10:07:34.387593 119936 net.cpp:157] Top shape: 32 128 14 14 (802816)
I0711 10:07:34.387603 119936 net.cpp:165] Memory required for data: 1384014596
I0711 10:07:34.387612 119936 layer_factory.hpp:76] Creating layer inception_4c/3x3
I0711 10:07:34.387632 119936 net.cpp:106] Creating Layer inception_4c/3x3
I0711 10:07:34.387645 119936 net.cpp:454] inception_4c/3x3 <- inception_4c/3x3_reduce
I0711 10:07:34.387660 119936 net.cpp:411] inception_4c/3x3 -> inception_4c/3x3
I0711 10:07:34.391449 119936 net.cpp:150] Setting up inception_4c/3x3
I0711 10:07:34.391484 119936 net.cpp:157] Top shape: 32 256 14 14 (1605632)
I0711 10:07:34.391494 119936 net.cpp:165] Memory required for data: 1390437124
I0711 10:07:34.391525 119936 layer_factory.hpp:76] Creating layer inception_4c/relu_3x3
I0711 10:07:34.391541 119936 net.cpp:106] Creating Layer inception_4c/relu_3x3
I0711 10:07:34.391551 119936 net.cpp:454] inception_4c/relu_3x3 <- inception_4c/3x3
I0711 10:07:34.391561 119936 net.cpp:397] inception_4c/relu_3x3 -> inception_4c/3x3 (in-place)
I0711 10:07:34.391924 119936 net.cpp:150] Setting up inception_4c/relu_3x3
I0711 10:07:34.391957 119936 net.cpp:157] Top shape: 32 256 14 14 (1605632)
I0711 10:07:34.391966 119936 net.cpp:165] Memory required for data: 1396859652
I0711 10:07:34.391978 119936 layer_factory.hpp:76] Creating layer inception_4c/5x5_reduce
I0711 10:07:34.391993 119936 net.cpp:106] Creating Layer inception_4c/5x5_reduce
I0711 10:07:34.392004 119936 net.cpp:454] inception_4c/5x5_reduce <- inception_4b/output_inception_4b/output_0_split_2
I0711 10:07:34.392019 119936 net.cpp:411] inception_4c/5x5_reduce -> inception_4c/5x5_reduce
I0711 10:07:34.393229 119936 net.cpp:150] Setting up inception_4c/5x5_reduce
I0711 10:07:34.393263 119936 net.cpp:157] Top shape: 32 24 14 14 (150528)
I0711 10:07:34.393273 119936 net.cpp:165] Memory required for data: 1397461764
I0711 10:07:34.393285 119936 layer_factory.hpp:76] Creating layer inception_4c/relu_5x5_reduce
I0711 10:07:34.393298 119936 net.cpp:106] Creating Layer inception_4c/relu_5x5_reduce
I0711 10:07:34.393308 119936 net.cpp:454] inception_4c/relu_5x5_reduce <- inception_4c/5x5_reduce
I0711 10:07:34.393319 119936 net.cpp:397] inception_4c/relu_5x5_reduce -> inception_4c/5x5_reduce (in-place)
I0711 10:07:34.393540 119936 net.cpp:150] Setting up inception_4c/relu_5x5_reduce
I0711 10:07:34.393569 119936 net.cpp:157] Top shape: 32 24 14 14 (150528)
I0711 10:07:34.393579 119936 net.cpp:165] Memory required for data: 1398063876
I0711 10:07:34.393589 119936 layer_factory.hpp:76] Creating layer inception_4c/5x5
I0711 10:07:34.393604 119936 net.cpp:106] Creating Layer inception_4c/5x5
I0711 10:07:34.393613 119936 net.cpp:454] inception_4c/5x5 <- inception_4c/5x5_reduce
I0711 10:07:34.393627 119936 net.cpp:411] inception_4c/5x5 -> inception_4c/5x5
I0711 10:07:34.395666 119936 net.cpp:150] Setting up inception_4c/5x5
I0711 10:07:34.395701 119936 net.cpp:157] Top shape: 32 64 14 14 (401408)
I0711 10:07:34.395711 119936 net.cpp:165] Memory required for data: 1399669508
I0711 10:07:34.395737 119936 layer_factory.hpp:76] Creating layer inception_4c/relu_5x5
I0711 10:07:34.395750 119936 net.cpp:106] Creating Layer inception_4c/relu_5x5
I0711 10:07:34.395761 119936 net.cpp:454] inception_4c/relu_5x5 <- inception_4c/5x5
I0711 10:07:34.395774 119936 net.cpp:397] inception_4c/relu_5x5 -> inception_4c/5x5 (in-place)
I0711 10:07:34.395998 119936 net.cpp:150] Setting up inception_4c/relu_5x5
I0711 10:07:34.396028 119936 net.cpp:157] Top shape: 32 64 14 14 (401408)
I0711 10:07:34.396037 119936 net.cpp:165] Memory required for data: 1401275140
I0711 10:07:34.396050 119936 layer_factory.hpp:76] Creating layer inception_4c/pool
I0711 10:07:34.396064 119936 net.cpp:106] Creating Layer inception_4c/pool
I0711 10:07:34.396075 119936 net.cpp:454] inception_4c/pool <- inception_4b/output_inception_4b/output_0_split_3
I0711 10:07:34.396085 119936 net.cpp:411] inception_4c/pool -> inception_4c/pool
I0711 10:07:34.396489 119936 net.cpp:150] Setting up inception_4c/pool
I0711 10:07:34.396527 119936 net.cpp:157] Top shape: 32 512 14 14 (3211264)
I0711 10:07:34.396539 119936 net.cpp:165] Memory required for data: 1414120196
I0711 10:07:34.396561 119936 layer_factory.hpp:76] Creating layer inception_4c/pool_proj
I0711 10:07:34.396575 119936 net.cpp:106] Creating Layer inception_4c/pool_proj
I0711 10:07:34.396585 119936 net.cpp:454] inception_4c/pool_proj <- inception_4c/pool
I0711 10:07:34.396606 119936 net.cpp:411] inception_4c/pool_proj -> inception_4c/pool_proj
I0711 10:07:34.397948 119936 cudnn_conv_layer.cpp:194] Reallocating workspace storage: 6144
I0711 10:07:34.397995 119936 net.cpp:150] Setting up inception_4c/pool_proj
I0711 10:07:34.398010 119936 net.cpp:157] Top shape: 32 64 14 14 (401408)
I0711 10:07:34.398018 119936 net.cpp:165] Memory required for data: 1415725828
I0711 10:07:34.398032 119936 layer_factory.hpp:76] Creating layer inception_4c/relu_pool_proj
I0711 10:07:34.398047 119936 net.cpp:106] Creating Layer inception_4c/relu_pool_proj
I0711 10:07:34.398058 119936 net.cpp:454] inception_4c/relu_pool_proj <- inception_4c/pool_proj
I0711 10:07:34.398069 119936 net.cpp:397] inception_4c/relu_pool_proj -> inception_4c/pool_proj (in-place)
I0711 10:07:34.398289 119936 net.cpp:150] Setting up inception_4c/relu_pool_proj
I0711 10:07:34.398318 119936 net.cpp:157] Top shape: 32 64 14 14 (401408)
I0711 10:07:34.398327 119936 net.cpp:165] Memory required for data: 1417331460
I0711 10:07:34.398336 119936 layer_factory.hpp:76] Creating layer inception_4c/output
I0711 10:07:34.398347 119936 net.cpp:106] Creating Layer inception_4c/output
I0711 10:07:34.398357 119936 net.cpp:454] inception_4c/output <- inception_4c/1x1
I0711 10:07:34.398367 119936 net.cpp:454] inception_4c/output <- inception_4c/3x3
I0711 10:07:34.398377 119936 net.cpp:454] inception_4c/output <- inception_4c/5x5
I0711 10:07:34.398386 119936 net.cpp:454] inception_4c/output <- inception_4c/pool_proj
I0711 10:07:34.398399 119936 net.cpp:411] inception_4c/output -> inception_4c/output
I0711 10:07:34.398439 119936 net.cpp:150] Setting up inception_4c/output
I0711 10:07:34.398458 119936 net.cpp:157] Top shape: 32 512 14 14 (3211264)
I0711 10:07:34.398466 119936 net.cpp:165] Memory required for data: 1430176516
I0711 10:07:34.398475 119936 layer_factory.hpp:76] Creating layer inception_4c/output_inception_4c/output_0_split
I0711 10:07:34.398488 119936 net.cpp:106] Creating Layer inception_4c/output_inception_4c/output_0_split
I0711 10:07:34.398497 119936 net.cpp:454] inception_4c/output_inception_4c/output_0_split <- inception_4c/output
I0711 10:07:34.398509 119936 net.cpp:411] inception_4c/output_inception_4c/output_0_split -> inception_4c/output_inception_4c/output_0_split_0
I0711 10:07:34.398520 119936 net.cpp:411] inception_4c/output_inception_4c/output_0_split -> inception_4c/output_inception_4c/output_0_split_1
I0711 10:07:34.398532 119936 net.cpp:411] inception_4c/output_inception_4c/output_0_split -> inception_4c/output_inception_4c/output_0_split_2
I0711 10:07:34.398546 119936 net.cpp:411] inception_4c/output_inception_4c/output_0_split -> inception_4c/output_inception_4c/output_0_split_3
I0711 10:07:34.398676 119936 net.cpp:150] Setting up inception_4c/output_inception_4c/output_0_split
I0711 10:07:34.398706 119936 net.cpp:157] Top shape: 32 512 14 14 (3211264)
I0711 10:07:34.398716 119936 net.cpp:157] Top shape: 32 512 14 14 (3211264)
I0711 10:07:34.398726 119936 net.cpp:157] Top shape: 32 512 14 14 (3211264)
I0711 10:07:34.398736 119936 net.cpp:157] Top shape: 32 512 14 14 (3211264)
I0711 10:07:34.398746 119936 net.cpp:165] Memory required for data: 1481556740
I0711 10:07:34.398754 119936 layer_factory.hpp:76] Creating layer inception_4d/1x1
I0711 10:07:34.398772 119936 net.cpp:106] Creating Layer inception_4d/1x1
I0711 10:07:34.398785 119936 net.cpp:454] inception_4d/1x1 <- inception_4c/output_inception_4c/output_0_split_0
I0711 10:07:34.398802 119936 net.cpp:411] inception_4d/1x1 -> inception_4d/1x1
I0711 10:07:34.400312 119936 cudnn_conv_layer.cpp:194] Reallocating workspace storage: 6144
I0711 10:07:34.400362 119936 net.cpp:150] Setting up inception_4d/1x1
I0711 10:07:34.400380 119936 net.cpp:157] Top shape: 32 112 14 14 (702464)
I0711 10:07:34.400390 119936 net.cpp:165] Memory required for data: 1484366596
I0711 10:07:34.400403 119936 layer_factory.hpp:76] Creating layer inception_4d/relu_1x1
I0711 10:07:34.400418 119936 net.cpp:106] Creating Layer inception_4d/relu_1x1
I0711 10:07:34.400429 119936 net.cpp:454] inception_4d/relu_1x1 <- inception_4d/1x1
I0711 10:07:34.400439 119936 net.cpp:397] inception_4d/relu_1x1 -> inception_4d/1x1 (in-place)
I0711 10:07:34.400806 119936 net.cpp:150] Setting up inception_4d/relu_1x1
I0711 10:07:34.400837 119936 net.cpp:157] Top shape: 32 112 14 14 (702464)
I0711 10:07:34.400847 119936 net.cpp:165] Memory required for data: 1487176452
I0711 10:07:34.400856 119936 layer_factory.hpp:76] Creating layer inception_4d/3x3_reduce
I0711 10:07:34.400872 119936 net.cpp:106] Creating Layer inception_4d/3x3_reduce
I0711 10:07:34.400882 119936 net.cpp:454] inception_4d/3x3_reduce <- inception_4c/output_inception_4c/output_0_split_1
I0711 10:07:34.400897 119936 net.cpp:411] inception_4d/3x3_reduce -> inception_4d/3x3_reduce
I0711 10:07:34.402479 119936 cudnn_conv_layer.cpp:194] Reallocating workspace storage: 6144
I0711 10:07:34.402530 119936 net.cpp:150] Setting up inception_4d/3x3_reduce
I0711 10:07:34.402544 119936 net.cpp:157] Top shape: 32 144 14 14 (903168)
I0711 10:07:34.402554 119936 net.cpp:165] Memory required for data: 1490789124
I0711 10:07:34.402566 119936 layer_factory.hpp:76] Creating layer inception_4d/relu_3x3_reduce
I0711 10:07:34.402580 119936 net.cpp:106] Creating Layer inception_4d/relu_3x3_reduce
I0711 10:07:34.402592 119936 net.cpp:454] inception_4d/relu_3x3_reduce <- inception_4d/3x3_reduce
I0711 10:07:34.402604 119936 net.cpp:397] inception_4d/relu_3x3_reduce -> inception_4d/3x3_reduce (in-place)
I0711 10:07:34.402992 119936 net.cpp:150] Setting up inception_4d/relu_3x3_reduce
I0711 10:07:34.403023 119936 net.cpp:157] Top shape: 32 144 14 14 (903168)
I0711 10:07:34.403033 119936 net.cpp:165] Memory required for data: 1494401796
I0711 10:07:34.403056 119936 layer_factory.hpp:76] Creating layer inception_4d/3x3
I0711 10:07:34.403080 119936 net.cpp:106] Creating Layer inception_4d/3x3
I0711 10:07:34.403093 119936 net.cpp:454] inception_4d/3x3 <- inception_4d/3x3_reduce
I0711 10:07:34.403110 119936 net.cpp:411] inception_4d/3x3 -> inception_4d/3x3
I0711 10:07:34.407902 119936 cudnn_conv_layer.cpp:194] Reallocating workspace storage: 15552
I0711 10:07:34.407949 119936 net.cpp:150] Setting up inception_4d/3x3
I0711 10:07:34.407963 119936 net.cpp:157] Top shape: 32 288 14 14 (1806336)
I0711 10:07:34.407973 119936 net.cpp:165] Memory required for data: 1501627140
I0711 10:07:34.407986 119936 layer_factory.hpp:76] Creating layer inception_4d/relu_3x3
I0711 10:07:34.408001 119936 net.cpp:106] Creating Layer inception_4d/relu_3x3
I0711 10:07:34.408012 119936 net.cpp:454] inception_4d/relu_3x3 <- inception_4d/3x3
I0711 10:07:34.408023 119936 net.cpp:397] inception_4d/relu_3x3 -> inception_4d/3x3 (in-place)
I0711 10:07:34.408260 119936 net.cpp:150] Setting up inception_4d/relu_3x3
I0711 10:07:34.408289 119936 net.cpp:157] Top shape: 32 288 14 14 (1806336)
I0711 10:07:34.408299 119936 net.cpp:165] Memory required for data: 1508852484
I0711 10:07:34.408308 119936 layer_factory.hpp:76] Creating layer inception_4d/5x5_reduce
I0711 10:07:34.408324 119936 net.cpp:106] Creating Layer inception_4d/5x5_reduce
I0711 10:07:34.408334 119936 net.cpp:454] inception_4d/5x5_reduce <- inception_4c/output_inception_4c/output_0_split_2
I0711 10:07:34.408346 119936 net.cpp:411] inception_4d/5x5_reduce -> inception_4d/5x5_reduce
I0711 10:07:34.409682 119936 net.cpp:150] Setting up inception_4d/5x5_reduce
I0711 10:07:34.409716 119936 net.cpp:157] Top shape: 32 32 14 14 (200704)
I0711 10:07:34.409729 119936 net.cpp:165] Memory required for data: 1509655300
I0711 10:07:34.409744 119936 layer_factory.hpp:76] Creating layer inception_4d/relu_5x5_reduce
I0711 10:07:34.409759 119936 net.cpp:106] Creating Layer inception_4d/relu_5x5_reduce
I0711 10:07:34.409768 119936 net.cpp:454] inception_4d/relu_5x5_reduce <- inception_4d/5x5_reduce
I0711 10:07:34.409783 119936 net.cpp:397] inception_4d/relu_5x5_reduce -> inception_4d/5x5_reduce (in-place)
I0711 10:07:34.410168 119936 net.cpp:150] Setting up inception_4d/relu_5x5_reduce
I0711 10:07:34.410200 119936 net.cpp:157] Top shape: 32 32 14 14 (200704)
I0711 10:07:34.410210 119936 net.cpp:165] Memory required for data: 1510458116
I0711 10:07:34.410220 119936 layer_factory.hpp:76] Creating layer inception_4d/5x5
I0711 10:07:34.410238 119936 net.cpp:106] Creating Layer inception_4d/5x5
I0711 10:07:34.410248 119936 net.cpp:454] inception_4d/5x5 <- inception_4d/5x5_reduce
I0711 10:07:34.410262 119936 net.cpp:411] inception_4d/5x5 -> inception_4d/5x5
I0711 10:07:34.411677 119936 net.cpp:150] Setting up inception_4d/5x5
I0711 10:07:34.411712 119936 net.cpp:157] Top shape: 32 64 14 14 (401408)
I0711 10:07:34.411723 119936 net.cpp:165] Memory required for data: 1512063748
I0711 10:07:34.411736 119936 layer_factory.hpp:76] Creating layer inception_4d/relu_5x5
I0711 10:07:34.411749 119936 net.cpp:106] Creating Layer inception_4d/relu_5x5
I0711 10:07:34.411759 119936 net.cpp:454] inception_4d/relu_5x5 <- inception_4d/5x5
I0711 10:07:34.411774 119936 net.cpp:397] inception_4d/relu_5x5 -> inception_4d/5x5 (in-place)
I0711 10:07:34.412153 119936 net.cpp:150] Setting up inception_4d/relu_5x5
I0711 10:07:34.412186 119936 net.cpp:157] Top shape: 32 64 14 14 (401408)
I0711 10:07:34.412201 119936 net.cpp:165] Memory required for data: 1513669380
I0711 10:07:34.412214 119936 layer_factory.hpp:76] Creating layer inception_4d/pool
I0711 10:07:34.412226 119936 net.cpp:106] Creating Layer inception_4d/pool
I0711 10:07:34.412236 119936 net.cpp:454] inception_4d/pool <- inception_4c/output_inception_4c/output_0_split_3
I0711 10:07:34.412256 119936 net.cpp:411] inception_4d/pool -> inception_4d/pool
I0711 10:07:34.412688 119936 net.cpp:150] Setting up inception_4d/pool
I0711 10:07:34.412719 119936 net.cpp:157] Top shape: 32 512 14 14 (3211264)
I0711 10:07:34.412729 119936 net.cpp:165] Memory required for data: 1526514436
I0711 10:07:34.412739 119936 layer_factory.hpp:76] Creating layer inception_4d/pool_proj
I0711 10:07:34.412755 119936 net.cpp:106] Creating Layer inception_4d/pool_proj
I0711 10:07:34.412765 119936 net.cpp:454] inception_4d/pool_proj <- inception_4d/pool
I0711 10:07:34.412780 119936 net.cpp:411] inception_4d/pool_proj -> inception_4d/pool_proj
I0711 10:07:34.413988 119936 cudnn_conv_layer.cpp:194] Reallocating workspace storage: 6144
I0711 10:07:34.414042 119936 net.cpp:150] Setting up inception_4d/pool_proj
I0711 10:07:34.414062 119936 net.cpp:157] Top shape: 32 64 14 14 (401408)
I0711 10:07:34.414070 119936 net.cpp:165] Memory required for data: 1528120068
I0711 10:07:34.414083 119936 layer_factory.hpp:76] Creating layer inception_4d/relu_pool_proj
I0711 10:07:34.414095 119936 net.cpp:106] Creating Layer inception_4d/relu_pool_proj
I0711 10:07:34.414105 119936 net.cpp:454] inception_4d/relu_pool_proj <- inception_4d/pool_proj
I0711 10:07:34.414135 119936 net.cpp:397] inception_4d/relu_pool_proj -> inception_4d/pool_proj (in-place)
I0711 10:07:34.414520 119936 net.cpp:150] Setting up inception_4d/relu_pool_proj
I0711 10:07:34.414553 119936 net.cpp:157] Top shape: 32 64 14 14 (401408)
I0711 10:07:34.414563 119936 net.cpp:165] Memory required for data: 1529725700
I0711 10:07:34.414573 119936 layer_factory.hpp:76] Creating layer inception_4d/output
I0711 10:07:34.414585 119936 net.cpp:106] Creating Layer inception_4d/output
I0711 10:07:34.414595 119936 net.cpp:454] inception_4d/output <- inception_4d/1x1
I0711 10:07:34.414607 119936 net.cpp:454] inception_4d/output <- inception_4d/3x3
I0711 10:07:34.414616 119936 net.cpp:454] inception_4d/output <- inception_4d/5x5
I0711 10:07:34.414626 119936 net.cpp:454] inception_4d/output <- inception_4d/pool_proj
I0711 10:07:34.414645 119936 net.cpp:411] inception_4d/output -> inception_4d/output
I0711 10:07:34.414691 119936 net.cpp:150] Setting up inception_4d/output
I0711 10:07:34.414706 119936 net.cpp:157] Top shape: 32 528 14 14 (3311616)
I0711 10:07:34.414716 119936 net.cpp:165] Memory required for data: 1542972164
I0711 10:07:34.414726 119936 layer_factory.hpp:76] Creating layer inception_4d/output_inception_4d/output_0_split
I0711 10:07:34.414741 119936 net.cpp:106] Creating Layer inception_4d/output_inception_4d/output_0_split
I0711 10:07:34.414750 119936 net.cpp:454] inception_4d/output_inception_4d/output_0_split <- inception_4d/output
I0711 10:07:34.414762 119936 net.cpp:411] inception_4d/output_inception_4d/output_0_split -> inception_4d/output_inception_4d/output_0_split_0
I0711 10:07:34.414773 119936 net.cpp:411] inception_4d/output_inception_4d/output_0_split -> inception_4d/output_inception_4d/output_0_split_1
I0711 10:07:34.414786 119936 net.cpp:411] inception_4d/output_inception_4d/output_0_split -> inception_4d/output_inception_4d/output_0_split_2
I0711 10:07:34.414798 119936 net.cpp:411] inception_4d/output_inception_4d/output_0_split -> inception_4d/output_inception_4d/output_0_split_3
I0711 10:07:34.414814 119936 net.cpp:411] inception_4d/output_inception_4d/output_0_split -> inception_4d/output_inception_4d/output_0_split_4
I0711 10:07:34.414938 119936 net.cpp:150] Setting up inception_4d/output_inception_4d/output_0_split
I0711 10:07:34.414970 119936 net.cpp:157] Top shape: 32 528 14 14 (3311616)
I0711 10:07:34.414981 119936 net.cpp:157] Top shape: 32 528 14 14 (3311616)
I0711 10:07:34.414990 119936 net.cpp:157] Top shape: 32 528 14 14 (3311616)
I0711 10:07:34.415002 119936 net.cpp:157] Top shape: 32 528 14 14 (3311616)
I0711 10:07:34.415014 119936 net.cpp:157] Top shape: 32 528 14 14 (3311616)
I0711 10:07:34.415022 119936 net.cpp:165] Memory required for data: 1609204484
I0711 10:07:34.415031 119936 layer_factory.hpp:76] Creating layer loss2/ave_pool
I0711 10:07:34.415046 119936 net.cpp:106] Creating Layer loss2/ave_pool
I0711 10:07:34.415056 119936 net.cpp:454] loss2/ave_pool <- inception_4d/output_inception_4d/output_0_split_0
I0711 10:07:34.415067 119936 net.cpp:411] loss2/ave_pool -> loss2/ave_pool
I0711 10:07:34.415324 119936 net.cpp:150] Setting up loss2/ave_pool
I0711 10:07:34.415355 119936 net.cpp:157] Top shape: 32 528 4 4 (270336)
I0711 10:07:34.415367 119936 net.cpp:165] Memory required for data: 1610285828
I0711 10:07:34.415377 119936 layer_factory.hpp:76] Creating layer loss2/conv
I0711 10:07:34.415395 119936 net.cpp:106] Creating Layer loss2/conv
I0711 10:07:34.415405 119936 net.cpp:454] loss2/conv <- loss2/ave_pool
I0711 10:07:34.415416 119936 net.cpp:411] loss2/conv -> loss2/conv
I0711 10:07:34.417670 119936 cudnn_conv_layer.cpp:194] Reallocating workspace storage: 6336
I0711 10:07:34.417721 119936 net.cpp:150] Setting up loss2/conv
I0711 10:07:34.417737 119936 net.cpp:157] Top shape: 32 128 4 4 (65536)
I0711 10:07:34.417747 119936 net.cpp:165] Memory required for data: 1610547972
I0711 10:07:34.417759 119936 layer_factory.hpp:76] Creating layer loss2/relu_conv
I0711 10:07:34.417771 119936 net.cpp:106] Creating Layer loss2/relu_conv
I0711 10:07:34.417796 119936 net.cpp:454] loss2/relu_conv <- loss2/conv
I0711 10:07:34.417811 119936 net.cpp:397] loss2/relu_conv -> loss2/conv (in-place)
I0711 10:07:34.418215 119936 net.cpp:150] Setting up loss2/relu_conv
I0711 10:07:34.418248 119936 net.cpp:157] Top shape: 32 128 4 4 (65536)
I0711 10:07:34.418258 119936 net.cpp:165] Memory required for data: 1610810116
I0711 10:07:34.418279 119936 layer_factory.hpp:76] Creating layer loss2/fc
I0711 10:07:34.418297 119936 net.cpp:106] Creating Layer loss2/fc
I0711 10:07:34.418308 119936 net.cpp:454] loss2/fc <- loss2/conv
I0711 10:07:34.418318 119936 net.cpp:411] loss2/fc -> loss2/fc
I0711 10:07:34.436825 119936 net.cpp:150] Setting up loss2/fc
I0711 10:07:34.436864 119936 net.cpp:157] Top shape: 32 1024 (32768)
I0711 10:07:34.436874 119936 net.cpp:165] Memory required for data: 1610941188
I0711 10:07:34.436887 119936 layer_factory.hpp:76] Creating layer loss2/relu_fc
I0711 10:07:34.436903 119936 net.cpp:106] Creating Layer loss2/relu_fc
I0711 10:07:34.436915 119936 net.cpp:454] loss2/relu_fc <- loss2/fc
I0711 10:07:34.436926 119936 net.cpp:397] loss2/relu_fc -> loss2/fc (in-place)
I0711 10:07:34.437189 119936 net.cpp:150] Setting up loss2/relu_fc
I0711 10:07:34.437218 119936 net.cpp:157] Top shape: 32 1024 (32768)
I0711 10:07:34.437228 119936 net.cpp:165] Memory required for data: 1611072260
I0711 10:07:34.437237 119936 layer_factory.hpp:76] Creating layer loss2/drop_fc
I0711 10:07:34.437249 119936 net.cpp:106] Creating Layer loss2/drop_fc
I0711 10:07:34.437258 119936 net.cpp:454] loss2/drop_fc <- loss2/fc
I0711 10:07:34.437270 119936 net.cpp:397] loss2/drop_fc -> loss2/fc (in-place)
I0711 10:07:34.437328 119936 net.cpp:150] Setting up loss2/drop_fc
I0711 10:07:34.437345 119936 net.cpp:157] Top shape: 32 1024 (32768)
I0711 10:07:34.437353 119936 net.cpp:165] Memory required for data: 1611203332
I0711 10:07:34.437362 119936 layer_factory.hpp:76] Creating layer loss2/classifier
I0711 10:07:34.437376 119936 net.cpp:106] Creating Layer loss2/classifier
I0711 10:07:34.437384 119936 net.cpp:454] loss2/classifier <- loss2/fc
I0711 10:07:34.437398 119936 net.cpp:411] loss2/classifier -> loss2/classifier
I0711 10:07:34.437600 119936 net.cpp:150] Setting up loss2/classifier
I0711 10:07:34.437628 119936 net.cpp:157] Top shape: 32 2 (64)
I0711 10:07:34.437635 119936 net.cpp:165] Memory required for data: 1611203588
I0711 10:07:34.437647 119936 layer_factory.hpp:76] Creating layer loss2/loss
I0711 10:07:34.437662 119936 net.cpp:106] Creating Layer loss2/loss
I0711 10:07:34.437672 119936 net.cpp:454] loss2/loss <- loss2/classifier
I0711 10:07:34.437682 119936 net.cpp:454] loss2/loss <- label_data_1_split_1
I0711 10:07:34.437705 119936 net.cpp:411] loss2/loss -> loss2/loss1
I0711 10:07:34.437719 119936 layer_factory.hpp:76] Creating layer loss2/loss
I0711 10:07:34.438230 119936 net.cpp:150] Setting up loss2/loss
I0711 10:07:34.438261 119936 net.cpp:157] Top shape: (1)
I0711 10:07:34.438271 119936 net.cpp:160]     with loss weight 0.3
I0711 10:07:34.438287 119936 net.cpp:165] Memory required for data: 1611203592
I0711 10:07:34.438297 119936 layer_factory.hpp:76] Creating layer inception_4e/1x1
I0711 10:07:34.438315 119936 net.cpp:106] Creating Layer inception_4e/1x1
I0711 10:07:34.438326 119936 net.cpp:454] inception_4e/1x1 <- inception_4d/output_inception_4d/output_0_split_1
I0711 10:07:34.438338 119936 net.cpp:411] inception_4e/1x1 -> inception_4e/1x1
I0711 10:07:34.440476 119936 cudnn_conv_layer.cpp:194] Reallocating workspace storage: 6336
I0711 10:07:34.440536 119936 net.cpp:150] Setting up inception_4e/1x1
I0711 10:07:34.440549 119936 net.cpp:157] Top shape: 32 256 14 14 (1605632)
I0711 10:07:34.440562 119936 net.cpp:165] Memory required for data: 1617626120
I0711 10:07:34.440575 119936 layer_factory.hpp:76] Creating layer inception_4e/relu_1x1
I0711 10:07:34.440587 119936 net.cpp:106] Creating Layer inception_4e/relu_1x1
I0711 10:07:34.440598 119936 net.cpp:454] inception_4e/relu_1x1 <- inception_4e/1x1
I0711 10:07:34.440609 119936 net.cpp:397] inception_4e/relu_1x1 -> inception_4e/1x1 (in-place)
I0711 10:07:34.440855 119936 net.cpp:150] Setting up inception_4e/relu_1x1
I0711 10:07:34.440883 119936 net.cpp:157] Top shape: 32 256 14 14 (1605632)
I0711 10:07:34.440892 119936 net.cpp:165] Memory required for data: 1624048648
I0711 10:07:34.440902 119936 layer_factory.hpp:76] Creating layer inception_4e/3x3_reduce
I0711 10:07:34.440918 119936 net.cpp:106] Creating Layer inception_4e/3x3_reduce
I0711 10:07:34.440928 119936 net.cpp:454] inception_4e/3x3_reduce <- inception_4d/output_inception_4d/output_0_split_2
I0711 10:07:34.440940 119936 net.cpp:411] inception_4e/3x3_reduce -> inception_4e/3x3_reduce
I0711 10:07:34.443354 119936 cudnn_conv_layer.cpp:194] Reallocating workspace storage: 6336
I0711 10:07:34.443408 119936 net.cpp:150] Setting up inception_4e/3x3_reduce
I0711 10:07:34.443421 119936 net.cpp:157] Top shape: 32 160 14 14 (1003520)
I0711 10:07:34.443431 119936 net.cpp:165] Memory required for data: 1628062728
I0711 10:07:34.443445 119936 layer_factory.hpp:76] Creating layer inception_4e/relu_3x3_reduce
I0711 10:07:34.443461 119936 net.cpp:106] Creating Layer inception_4e/relu_3x3_reduce
I0711 10:07:34.443473 119936 net.cpp:454] inception_4e/relu_3x3_reduce <- inception_4e/3x3_reduce
I0711 10:07:34.443485 119936 net.cpp:397] inception_4e/relu_3x3_reduce -> inception_4e/3x3_reduce (in-place)
I0711 10:07:34.443714 119936 net.cpp:150] Setting up inception_4e/relu_3x3_reduce
I0711 10:07:34.443743 119936 net.cpp:157] Top shape: 32 160 14 14 (1003520)
I0711 10:07:34.443753 119936 net.cpp:165] Memory required for data: 1632076808
I0711 10:07:34.443763 119936 layer_factory.hpp:76] Creating layer inception_4e/3x3
I0711 10:07:34.443778 119936 net.cpp:106] Creating Layer inception_4e/3x3
I0711 10:07:34.443800 119936 net.cpp:454] inception_4e/3x3 <- inception_4e/3x3_reduce
I0711 10:07:34.443815 119936 net.cpp:411] inception_4e/3x3 -> inception_4e/3x3
I0711 10:07:34.449362 119936 cudnn_conv_layer.cpp:194] Reallocating workspace storage: 17280
I0711 10:07:34.449409 119936 net.cpp:150] Setting up inception_4e/3x3
I0711 10:07:34.449424 119936 net.cpp:157] Top shape: 32 320 14 14 (2007040)
I0711 10:07:34.449434 119936 net.cpp:165] Memory required for data: 1640104968
I0711 10:07:34.449447 119936 layer_factory.hpp:76] Creating layer inception_4e/relu_3x3
I0711 10:07:34.449463 119936 net.cpp:106] Creating Layer inception_4e/relu_3x3
I0711 10:07:34.449475 119936 net.cpp:454] inception_4e/relu_3x3 <- inception_4e/3x3
I0711 10:07:34.449487 119936 net.cpp:397] inception_4e/relu_3x3 -> inception_4e/3x3 (in-place)
I0711 10:07:34.449900 119936 net.cpp:150] Setting up inception_4e/relu_3x3
I0711 10:07:34.449934 119936 net.cpp:157] Top shape: 32 320 14 14 (2007040)
I0711 10:07:34.449944 119936 net.cpp:165] Memory required for data: 1648133128
I0711 10:07:34.449954 119936 layer_factory.hpp:76] Creating layer inception_4e/5x5_reduce
I0711 10:07:34.449975 119936 net.cpp:106] Creating Layer inception_4e/5x5_reduce
I0711 10:07:34.449990 119936 net.cpp:454] inception_4e/5x5_reduce <- inception_4d/output_inception_4d/output_0_split_3
I0711 10:07:34.450006 119936 net.cpp:411] inception_4e/5x5_reduce -> inception_4e/5x5_reduce
I0711 10:07:34.451372 119936 net.cpp:150] Setting up inception_4e/5x5_reduce
I0711 10:07:34.451407 119936 net.cpp:157] Top shape: 32 32 14 14 (200704)
I0711 10:07:34.451418 119936 net.cpp:165] Memory required for data: 1648935944
I0711 10:07:34.451431 119936 layer_factory.hpp:76] Creating layer inception_4e/relu_5x5_reduce
I0711 10:07:34.451447 119936 net.cpp:106] Creating Layer inception_4e/relu_5x5_reduce
I0711 10:07:34.451458 119936 net.cpp:454] inception_4e/relu_5x5_reduce <- inception_4e/5x5_reduce
I0711 10:07:34.451469 119936 net.cpp:397] inception_4e/relu_5x5_reduce -> inception_4e/5x5_reduce (in-place)
I0711 10:07:34.451705 119936 net.cpp:150] Setting up inception_4e/relu_5x5_reduce
I0711 10:07:34.451735 119936 net.cpp:157] Top shape: 32 32 14 14 (200704)
I0711 10:07:34.451745 119936 net.cpp:165] Memory required for data: 1649738760
I0711 10:07:34.451755 119936 layer_factory.hpp:76] Creating layer inception_4e/5x5
I0711 10:07:34.451809 119936 net.cpp:106] Creating Layer inception_4e/5x5
I0711 10:07:34.451823 119936 net.cpp:454] inception_4e/5x5 <- inception_4e/5x5_reduce
I0711 10:07:34.451836 119936 net.cpp:411] inception_4e/5x5 -> inception_4e/5x5
I0711 10:07:34.453752 119936 net.cpp:150] Setting up inception_4e/5x5
I0711 10:07:34.453784 119936 net.cpp:157] Top shape: 32 128 14 14 (802816)
I0711 10:07:34.453795 119936 net.cpp:165] Memory required for data: 1652950024
I0711 10:07:34.453809 119936 layer_factory.hpp:76] Creating layer inception_4e/relu_5x5
I0711 10:07:34.453824 119936 net.cpp:106] Creating Layer inception_4e/relu_5x5
I0711 10:07:34.453835 119936 net.cpp:454] inception_4e/relu_5x5 <- inception_4e/5x5
I0711 10:07:34.453845 119936 net.cpp:397] inception_4e/relu_5x5 -> inception_4e/5x5 (in-place)
I0711 10:07:34.454076 119936 net.cpp:150] Setting up inception_4e/relu_5x5
I0711 10:07:34.454105 119936 net.cpp:157] Top shape: 32 128 14 14 (802816)
I0711 10:07:34.454114 119936 net.cpp:165] Memory required for data: 1656161288
I0711 10:07:34.454124 119936 layer_factory.hpp:76] Creating layer inception_4e/pool
I0711 10:07:34.454136 119936 net.cpp:106] Creating Layer inception_4e/pool
I0711 10:07:34.454145 119936 net.cpp:454] inception_4e/pool <- inception_4d/output_inception_4d/output_0_split_4
I0711 10:07:34.454159 119936 net.cpp:411] inception_4e/pool -> inception_4e/pool
I0711 10:07:34.454581 119936 net.cpp:150] Setting up inception_4e/pool
I0711 10:07:34.454613 119936 net.cpp:157] Top shape: 32 528 14 14 (3311616)
I0711 10:07:34.454622 119936 net.cpp:165] Memory required for data: 1669407752
I0711 10:07:34.454638 119936 layer_factory.hpp:76] Creating layer inception_4e/pool_proj
I0711 10:07:34.454654 119936 net.cpp:106] Creating Layer inception_4e/pool_proj
I0711 10:07:34.454665 119936 net.cpp:454] inception_4e/pool_proj <- inception_4e/pool
I0711 10:07:34.454679 119936 net.cpp:411] inception_4e/pool_proj -> inception_4e/pool_proj
I0711 10:07:34.456297 119936 cudnn_conv_layer.cpp:194] Reallocating workspace storage: 6336
I0711 10:07:34.456356 119936 net.cpp:150] Setting up inception_4e/pool_proj
I0711 10:07:34.456370 119936 net.cpp:157] Top shape: 32 128 14 14 (802816)
I0711 10:07:34.456379 119936 net.cpp:165] Memory required for data: 1672619016
I0711 10:07:34.456393 119936 layer_factory.hpp:76] Creating layer inception_4e/relu_pool_proj
I0711 10:07:34.456404 119936 net.cpp:106] Creating Layer inception_4e/relu_pool_proj
I0711 10:07:34.456415 119936 net.cpp:454] inception_4e/relu_pool_proj <- inception_4e/pool_proj
I0711 10:07:34.456429 119936 net.cpp:397] inception_4e/relu_pool_proj -> inception_4e/pool_proj (in-place)
I0711 10:07:34.456653 119936 net.cpp:150] Setting up inception_4e/relu_pool_proj
I0711 10:07:34.456682 119936 net.cpp:157] Top shape: 32 128 14 14 (802816)
I0711 10:07:34.456692 119936 net.cpp:165] Memory required for data: 1675830280
I0711 10:07:34.456707 119936 layer_factory.hpp:76] Creating layer inception_4e/output
I0711 10:07:34.456724 119936 net.cpp:106] Creating Layer inception_4e/output
I0711 10:07:34.456734 119936 net.cpp:454] inception_4e/output <- inception_4e/1x1
I0711 10:07:34.456744 119936 net.cpp:454] inception_4e/output <- inception_4e/3x3
I0711 10:07:34.456755 119936 net.cpp:454] inception_4e/output <- inception_4e/5x5
I0711 10:07:34.456769 119936 net.cpp:454] inception_4e/output <- inception_4e/pool_proj
I0711 10:07:34.456781 119936 net.cpp:411] inception_4e/output -> inception_4e/output
I0711 10:07:34.456828 119936 net.cpp:150] Setting up inception_4e/output
I0711 10:07:34.456843 119936 net.cpp:157] Top shape: 32 832 14 14 (5218304)
I0711 10:07:34.456852 119936 net.cpp:165] Memory required for data: 1696703496
I0711 10:07:34.456861 119936 layer_factory.hpp:76] Creating layer pool4/3x3_s2
I0711 10:07:34.456874 119936 net.cpp:106] Creating Layer pool4/3x3_s2
I0711 10:07:34.456883 119936 net.cpp:454] pool4/3x3_s2 <- inception_4e/output
I0711 10:07:34.456897 119936 net.cpp:411] pool4/3x3_s2 -> pool4/3x3_s2
I0711 10:07:34.457330 119936 net.cpp:150] Setting up pool4/3x3_s2
I0711 10:07:34.457375 119936 net.cpp:157] Top shape: 32 832 7 7 (1304576)
I0711 10:07:34.457384 119936 net.cpp:165] Memory required for data: 1701921800
I0711 10:07:34.457393 119936 layer_factory.hpp:76] Creating layer pool4/3x3_s2_pool4/3x3_s2_0_split
I0711 10:07:34.457407 119936 net.cpp:106] Creating Layer pool4/3x3_s2_pool4/3x3_s2_0_split
I0711 10:07:34.457419 119936 net.cpp:454] pool4/3x3_s2_pool4/3x3_s2_0_split <- pool4/3x3_s2
I0711 10:07:34.457430 119936 net.cpp:411] pool4/3x3_s2_pool4/3x3_s2_0_split -> pool4/3x3_s2_pool4/3x3_s2_0_split_0
I0711 10:07:34.457443 119936 net.cpp:411] pool4/3x3_s2_pool4/3x3_s2_0_split -> pool4/3x3_s2_pool4/3x3_s2_0_split_1
I0711 10:07:34.457455 119936 net.cpp:411] pool4/3x3_s2_pool4/3x3_s2_0_split -> pool4/3x3_s2_pool4/3x3_s2_0_split_2
I0711 10:07:34.457466 119936 net.cpp:411] pool4/3x3_s2_pool4/3x3_s2_0_split -> pool4/3x3_s2_pool4/3x3_s2_0_split_3
I0711 10:07:34.457568 119936 net.cpp:150] Setting up pool4/3x3_s2_pool4/3x3_s2_0_split
I0711 10:07:34.457595 119936 net.cpp:157] Top shape: 32 832 7 7 (1304576)
I0711 10:07:34.457607 119936 net.cpp:157] Top shape: 32 832 7 7 (1304576)
I0711 10:07:34.457615 119936 net.cpp:157] Top shape: 32 832 7 7 (1304576)
I0711 10:07:34.457625 119936 net.cpp:157] Top shape: 32 832 7 7 (1304576)
I0711 10:07:34.457633 119936 net.cpp:165] Memory required for data: 1722795016
I0711 10:07:34.457643 119936 layer_factory.hpp:76] Creating layer inception_5a/1x1
I0711 10:07:34.457659 119936 net.cpp:106] Creating Layer inception_5a/1x1
I0711 10:07:34.457669 119936 net.cpp:454] inception_5a/1x1 <- pool4/3x3_s2_pool4/3x3_s2_0_split_0
I0711 10:07:34.457681 119936 net.cpp:411] inception_5a/1x1 -> inception_5a/1x1
I0711 10:07:34.460961 119936 cudnn_conv_layer.cpp:194] Reallocating workspace storage: 9984
I0711 10:07:34.461015 119936 net.cpp:150] Setting up inception_5a/1x1
I0711 10:07:34.461035 119936 net.cpp:157] Top shape: 32 256 7 7 (401408)
I0711 10:07:34.461045 119936 net.cpp:165] Memory required for data: 1724400648
I0711 10:07:34.461057 119936 layer_factory.hpp:76] Creating layer inception_5a/relu_1x1
I0711 10:07:34.461071 119936 net.cpp:106] Creating Layer inception_5a/relu_1x1
I0711 10:07:34.461081 119936 net.cpp:454] inception_5a/relu_1x1 <- inception_5a/1x1
I0711 10:07:34.461091 119936 net.cpp:397] inception_5a/relu_1x1 -> inception_5a/1x1 (in-place)
I0711 10:07:34.461313 119936 net.cpp:150] Setting up inception_5a/relu_1x1
I0711 10:07:34.461343 119936 net.cpp:157] Top shape: 32 256 7 7 (401408)
I0711 10:07:34.461351 119936 net.cpp:165] Memory required for data: 1726006280
I0711 10:07:34.461361 119936 layer_factory.hpp:76] Creating layer inception_5a/3x3_reduce
I0711 10:07:34.461379 119936 net.cpp:106] Creating Layer inception_5a/3x3_reduce
I0711 10:07:34.461388 119936 net.cpp:454] inception_5a/3x3_reduce <- pool4/3x3_s2_pool4/3x3_s2_0_split_1
I0711 10:07:34.461402 119936 net.cpp:411] inception_5a/3x3_reduce -> inception_5a/3x3_reduce
I0711 10:07:34.464190 119936 cudnn_conv_layer.cpp:194] Reallocating workspace storage: 9984
I0711 10:07:34.464259 119936 net.cpp:150] Setting up inception_5a/3x3_reduce
I0711 10:07:34.464287 119936 net.cpp:157] Top shape: 32 160 7 7 (250880)
I0711 10:07:34.464296 119936 net.cpp:165] Memory required for data: 1727009800
I0711 10:07:34.464309 119936 layer_factory.hpp:76] Creating layer inception_5a/relu_3x3_reduce
I0711 10:07:34.464326 119936 net.cpp:106] Creating Layer inception_5a/relu_3x3_reduce
I0711 10:07:34.464337 119936 net.cpp:454] inception_5a/relu_3x3_reduce <- inception_5a/3x3_reduce
I0711 10:07:34.464349 119936 net.cpp:397] inception_5a/relu_3x3_reduce -> inception_5a/3x3_reduce (in-place)
I0711 10:07:34.464738 119936 net.cpp:150] Setting up inception_5a/relu_3x3_reduce
I0711 10:07:34.464773 119936 net.cpp:157] Top shape: 32 160 7 7 (250880)
I0711 10:07:34.464783 119936 net.cpp:165] Memory required for data: 1728013320
I0711 10:07:34.464793 119936 layer_factory.hpp:76] Creating layer inception_5a/3x3
I0711 10:07:34.464810 119936 net.cpp:106] Creating Layer inception_5a/3x3
I0711 10:07:34.464821 119936 net.cpp:454] inception_5a/3x3 <- inception_5a/3x3_reduce
I0711 10:07:34.464848 119936 net.cpp:411] inception_5a/3x3 -> inception_5a/3x3
I0711 10:07:34.470160 119936 net.cpp:150] Setting up inception_5a/3x3
I0711 10:07:34.470196 119936 net.cpp:157] Top shape: 32 320 7 7 (501760)
I0711 10:07:34.470208 119936 net.cpp:165] Memory required for data: 1730020360
I0711 10:07:34.470221 119936 layer_factory.hpp:76] Creating layer inception_5a/relu_3x3
I0711 10:07:34.470233 119936 net.cpp:106] Creating Layer inception_5a/relu_3x3
I0711 10:07:34.470243 119936 net.cpp:454] inception_5a/relu_3x3 <- inception_5a/3x3
I0711 10:07:34.470254 119936 net.cpp:397] inception_5a/relu_3x3 -> inception_5a/3x3 (in-place)
I0711 10:07:34.470679 119936 net.cpp:150] Setting up inception_5a/relu_3x3
I0711 10:07:34.470712 119936 net.cpp:157] Top shape: 32 320 7 7 (501760)
I0711 10:07:34.470723 119936 net.cpp:165] Memory required for data: 1732027400
I0711 10:07:34.470732 119936 layer_factory.hpp:76] Creating layer inception_5a/5x5_reduce
I0711 10:07:34.470746 119936 net.cpp:106] Creating Layer inception_5a/5x5_reduce
I0711 10:07:34.470757 119936 net.cpp:454] inception_5a/5x5_reduce <- pool4/3x3_s2_pool4/3x3_s2_0_split_2
I0711 10:07:34.470772 119936 net.cpp:411] inception_5a/5x5_reduce -> inception_5a/5x5_reduce
I0711 10:07:34.472321 119936 cudnn_conv_layer.cpp:194] Reallocating workspace storage: 9984
I0711 10:07:34.472375 119936 net.cpp:150] Setting up inception_5a/5x5_reduce
I0711 10:07:34.472401 119936 net.cpp:157] Top shape: 32 32 7 7 (50176)
I0711 10:07:34.472410 119936 net.cpp:165] Memory required for data: 1732228104
I0711 10:07:34.472424 119936 layer_factory.hpp:76] Creating layer inception_5a/relu_5x5_reduce
I0711 10:07:34.472435 119936 net.cpp:106] Creating Layer inception_5a/relu_5x5_reduce
I0711 10:07:34.472445 119936 net.cpp:454] inception_5a/relu_5x5_reduce <- inception_5a/5x5_reduce
I0711 10:07:34.472457 119936 net.cpp:397] inception_5a/relu_5x5_reduce -> inception_5a/5x5_reduce (in-place)
I0711 10:07:34.472707 119936 net.cpp:150] Setting up inception_5a/relu_5x5_reduce
I0711 10:07:34.472736 119936 net.cpp:157] Top shape: 32 32 7 7 (50176)
I0711 10:07:34.472745 119936 net.cpp:165] Memory required for data: 1732428808
I0711 10:07:34.472754 119936 layer_factory.hpp:76] Creating layer inception_5a/5x5
I0711 10:07:34.472769 119936 net.cpp:106] Creating Layer inception_5a/5x5
I0711 10:07:34.472779 119936 net.cpp:454] inception_5a/5x5 <- inception_5a/5x5_reduce
I0711 10:07:34.472792 119936 net.cpp:411] inception_5a/5x5 -> inception_5a/5x5
I0711 10:07:34.474681 119936 net.cpp:150] Setting up inception_5a/5x5
I0711 10:07:34.474719 119936 net.cpp:157] Top shape: 32 128 7 7 (200704)
I0711 10:07:34.474730 119936 net.cpp:165] Memory required for data: 1733231624
I0711 10:07:34.474741 119936 layer_factory.hpp:76] Creating layer inception_5a/relu_5x5
I0711 10:07:34.474753 119936 net.cpp:106] Creating Layer inception_5a/relu_5x5
I0711 10:07:34.474763 119936 net.cpp:454] inception_5a/relu_5x5 <- inception_5a/5x5
I0711 10:07:34.474788 119936 net.cpp:397] inception_5a/relu_5x5 -> inception_5a/5x5 (in-place)
I0711 10:07:34.475188 119936 net.cpp:150] Setting up inception_5a/relu_5x5
I0711 10:07:34.475219 119936 net.cpp:157] Top shape: 32 128 7 7 (200704)
I0711 10:07:34.475227 119936 net.cpp:165] Memory required for data: 1734034440
I0711 10:07:34.475237 119936 layer_factory.hpp:76] Creating layer inception_5a/pool
I0711 10:07:34.475249 119936 net.cpp:106] Creating Layer inception_5a/pool
I0711 10:07:34.475261 119936 net.cpp:454] inception_5a/pool <- pool4/3x3_s2_pool4/3x3_s2_0_split_3
I0711 10:07:34.475272 119936 net.cpp:411] inception_5a/pool -> inception_5a/pool
I0711 10:07:34.475564 119936 net.cpp:150] Setting up inception_5a/pool
I0711 10:07:34.475596 119936 net.cpp:157] Top shape: 32 832 7 7 (1304576)
I0711 10:07:34.475608 119936 net.cpp:165] Memory required for data: 1739252744
I0711 10:07:34.475621 119936 layer_factory.hpp:76] Creating layer inception_5a/pool_proj
I0711 10:07:34.475641 119936 net.cpp:106] Creating Layer inception_5a/pool_proj
I0711 10:07:34.475680 119936 net.cpp:454] inception_5a/pool_proj <- inception_5a/pool
I0711 10:07:34.475693 119936 net.cpp:411] inception_5a/pool_proj -> inception_5a/pool_proj
I0711 10:07:34.478355 119936 cudnn_conv_layer.cpp:194] Reallocating workspace storage: 9984
I0711 10:07:34.478410 119936 net.cpp:150] Setting up inception_5a/pool_proj
I0711 10:07:34.478425 119936 net.cpp:157] Top shape: 32 128 7 7 (200704)
I0711 10:07:34.478447 119936 net.cpp:165] Memory required for data: 1740055560
I0711 10:07:34.478461 119936 layer_factory.hpp:76] Creating layer inception_5a/relu_pool_proj
I0711 10:07:34.478476 119936 net.cpp:106] Creating Layer inception_5a/relu_pool_proj
I0711 10:07:34.478487 119936 net.cpp:454] inception_5a/relu_pool_proj <- inception_5a/pool_proj
I0711 10:07:34.478498 119936 net.cpp:397] inception_5a/relu_pool_proj -> inception_5a/pool_proj (in-place)
I0711 10:07:34.478747 119936 net.cpp:150] Setting up inception_5a/relu_pool_proj
I0711 10:07:34.478782 119936 net.cpp:157] Top shape: 32 128 7 7 (200704)
I0711 10:07:34.478796 119936 net.cpp:165] Memory required for data: 1740858376
I0711 10:07:34.478806 119936 layer_factory.hpp:76] Creating layer inception_5a/output
I0711 10:07:34.478821 119936 net.cpp:106] Creating Layer inception_5a/output
I0711 10:07:34.478832 119936 net.cpp:454] inception_5a/output <- inception_5a/1x1
I0711 10:07:34.478843 119936 net.cpp:454] inception_5a/output <- inception_5a/3x3
I0711 10:07:34.478853 119936 net.cpp:454] inception_5a/output <- inception_5a/5x5
I0711 10:07:34.478863 119936 net.cpp:454] inception_5a/output <- inception_5a/pool_proj
I0711 10:07:34.478873 119936 net.cpp:411] inception_5a/output -> inception_5a/output
I0711 10:07:34.478924 119936 net.cpp:150] Setting up inception_5a/output
I0711 10:07:34.478940 119936 net.cpp:157] Top shape: 32 832 7 7 (1304576)
I0711 10:07:34.478950 119936 net.cpp:165] Memory required for data: 1746076680
I0711 10:07:34.478960 119936 layer_factory.hpp:76] Creating layer inception_5a/output_inception_5a/output_0_split
I0711 10:07:34.478974 119936 net.cpp:106] Creating Layer inception_5a/output_inception_5a/output_0_split
I0711 10:07:34.478984 119936 net.cpp:454] inception_5a/output_inception_5a/output_0_split <- inception_5a/output
I0711 10:07:34.478996 119936 net.cpp:411] inception_5a/output_inception_5a/output_0_split -> inception_5a/output_inception_5a/output_0_split_0
I0711 10:07:34.479008 119936 net.cpp:411] inception_5a/output_inception_5a/output_0_split -> inception_5a/output_inception_5a/output_0_split_1
I0711 10:07:34.479022 119936 net.cpp:411] inception_5a/output_inception_5a/output_0_split -> inception_5a/output_inception_5a/output_0_split_2
I0711 10:07:34.479034 119936 net.cpp:411] inception_5a/output_inception_5a/output_0_split -> inception_5a/output_inception_5a/output_0_split_3
I0711 10:07:34.479147 119936 net.cpp:150] Setting up inception_5a/output_inception_5a/output_0_split
I0711 10:07:34.479179 119936 net.cpp:157] Top shape: 32 832 7 7 (1304576)
I0711 10:07:34.479190 119936 net.cpp:157] Top shape: 32 832 7 7 (1304576)
I0711 10:07:34.479200 119936 net.cpp:157] Top shape: 32 832 7 7 (1304576)
I0711 10:07:34.479210 119936 net.cpp:157] Top shape: 32 832 7 7 (1304576)
I0711 10:07:34.479221 119936 net.cpp:165] Memory required for data: 1766949896
I0711 10:07:34.479233 119936 layer_factory.hpp:76] Creating layer inception_5b/1x1
I0711 10:07:34.479250 119936 net.cpp:106] Creating Layer inception_5b/1x1
I0711 10:07:34.479266 119936 net.cpp:454] inception_5b/1x1 <- inception_5a/output_inception_5a/output_0_split_0
I0711 10:07:34.479281 119936 net.cpp:411] inception_5b/1x1 -> inception_5b/1x1
I0711 10:07:34.487208 119936 cudnn_conv_layer.cpp:194] Reallocating workspace storage: 9984
I0711 10:07:34.487264 119936 net.cpp:150] Setting up inception_5b/1x1
I0711 10:07:34.487280 119936 net.cpp:157] Top shape: 32 384 7 7 (602112)
I0711 10:07:34.487295 119936 net.cpp:165] Memory required for data: 1769358344
I0711 10:07:34.487316 119936 layer_factory.hpp:76] Creating layer inception_5b/relu_1x1
I0711 10:07:34.487345 119936 net.cpp:106] Creating Layer inception_5b/relu_1x1
I0711 10:07:34.487395 119936 net.cpp:454] inception_5b/relu_1x1 <- inception_5b/1x1
I0711 10:07:34.487414 119936 net.cpp:397] inception_5b/relu_1x1 -> inception_5b/1x1 (in-place)
I0711 10:07:34.489372 119936 net.cpp:150] Setting up inception_5b/relu_1x1
I0711 10:07:34.489405 119936 net.cpp:157] Top shape: 32 384 7 7 (602112)
I0711 10:07:34.489415 119936 net.cpp:165] Memory required for data: 1771766792
I0711 10:07:34.489426 119936 layer_factory.hpp:76] Creating layer inception_5b/3x3_reduce
I0711 10:07:34.489441 119936 net.cpp:106] Creating Layer inception_5b/3x3_reduce
I0711 10:07:34.489452 119936 net.cpp:454] inception_5b/3x3_reduce <- inception_5a/output_inception_5a/output_0_split_1
I0711 10:07:34.489467 119936 net.cpp:411] inception_5b/3x3_reduce -> inception_5b/3x3_reduce
I0711 10:07:34.496261 119936 cudnn_conv_layer.cpp:194] Reallocating workspace storage: 9984
I0711 10:07:34.496320 119936 net.cpp:150] Setting up inception_5b/3x3_reduce
I0711 10:07:34.496340 119936 net.cpp:157] Top shape: 32 192 7 7 (301056)
I0711 10:07:34.496362 119936 net.cpp:165] Memory required for data: 1772971016
I0711 10:07:34.496386 119936 layer_factory.hpp:76] Creating layer inception_5b/relu_3x3_reduce
I0711 10:07:34.496407 119936 net.cpp:106] Creating Layer inception_5b/relu_3x3_reduce
I0711 10:07:34.496430 119936 net.cpp:454] inception_5b/relu_3x3_reduce <- inception_5b/3x3_reduce
I0711 10:07:34.496449 119936 net.cpp:397] inception_5b/relu_3x3_reduce -> inception_5b/3x3_reduce (in-place)
I0711 10:07:34.498392 119936 net.cpp:150] Setting up inception_5b/relu_3x3_reduce
I0711 10:07:34.498425 119936 net.cpp:157] Top shape: 32 192 7 7 (301056)
I0711 10:07:34.498435 119936 net.cpp:165] Memory required for data: 1774175240
I0711 10:07:34.498445 119936 layer_factory.hpp:76] Creating layer inception_5b/3x3
I0711 10:07:34.498466 119936 net.cpp:106] Creating Layer inception_5b/3x3
I0711 10:07:34.498476 119936 net.cpp:454] inception_5b/3x3 <- inception_5b/3x3_reduce
I0711 10:07:34.498495 119936 net.cpp:411] inception_5b/3x3 -> inception_5b/3x3
I0711 10:07:34.509528 119936 cudnn_conv_layer.cpp:194] Reallocating workspace storage: 20736
I0711 10:07:34.509573 119936 net.cpp:150] Setting up inception_5b/3x3
I0711 10:07:34.509588 119936 net.cpp:157] Top shape: 32 384 7 7 (602112)
I0711 10:07:34.509598 119936 net.cpp:165] Memory required for data: 1776583688
I0711 10:07:34.509615 119936 layer_factory.hpp:76] Creating layer inception_5b/relu_3x3
I0711 10:07:34.509639 119936 net.cpp:106] Creating Layer inception_5b/relu_3x3
I0711 10:07:34.509665 119936 net.cpp:454] inception_5b/relu_3x3 <- inception_5b/3x3
I0711 10:07:34.509685 119936 net.cpp:397] inception_5b/relu_3x3 -> inception_5b/3x3 (in-place)
I0711 10:07:34.511652 119936 net.cpp:150] Setting up inception_5b/relu_3x3
I0711 10:07:34.511685 119936 net.cpp:157] Top shape: 32 384 7 7 (602112)
I0711 10:07:34.511695 119936 net.cpp:165] Memory required for data: 1778992136
I0711 10:07:34.511705 119936 layer_factory.hpp:76] Creating layer inception_5b/5x5_reduce
I0711 10:07:34.511723 119936 net.cpp:106] Creating Layer inception_5b/5x5_reduce
I0711 10:07:34.511734 119936 net.cpp:454] inception_5b/5x5_reduce <- inception_5a/output_inception_5a/output_0_split_2
I0711 10:07:34.511752 119936 net.cpp:411] inception_5b/5x5_reduce -> inception_5b/5x5_reduce
I0711 10:07:34.518368 119936 net.cpp:150] Setting up inception_5b/5x5_reduce
I0711 10:07:34.518401 119936 net.cpp:157] Top shape: 32 48 7 7 (75264)
I0711 10:07:34.518412 119936 net.cpp:165] Memory required for data: 1779293192
I0711 10:07:34.518425 119936 layer_factory.hpp:76] Creating layer inception_5b/relu_5x5_reduce
I0711 10:07:34.518440 119936 net.cpp:106] Creating Layer inception_5b/relu_5x5_reduce
I0711 10:07:34.518451 119936 net.cpp:454] inception_5b/relu_5x5_reduce <- inception_5b/5x5_reduce
I0711 10:07:34.518466 119936 net.cpp:397] inception_5b/relu_5x5_reduce -> inception_5b/5x5_reduce (in-place)
I0711 10:07:34.520450 119936 net.cpp:150] Setting up inception_5b/relu_5x5_reduce
I0711 10:07:34.520483 119936 net.cpp:157] Top shape: 32 48 7 7 (75264)
I0711 10:07:34.520509 119936 net.cpp:165] Memory required for data: 1779594248
I0711 10:07:34.520519 119936 layer_factory.hpp:76] Creating layer inception_5b/5x5
I0711 10:07:34.520542 119936 net.cpp:106] Creating Layer inception_5b/5x5
I0711 10:07:34.520566 119936 net.cpp:454] inception_5b/5x5 <- inception_5b/5x5_reduce
I0711 10:07:34.520591 119936 net.cpp:411] inception_5b/5x5 -> inception_5b/5x5
I0711 10:07:34.526604 119936 net.cpp:150] Setting up inception_5b/5x5
I0711 10:07:34.526669 119936 net.cpp:157] Top shape: 32 128 7 7 (200704)
I0711 10:07:34.526681 119936 net.cpp:165] Memory required for data: 1780397064
I0711 10:07:34.526700 119936 layer_factory.hpp:76] Creating layer inception_5b/relu_5x5
I0711 10:07:34.526715 119936 net.cpp:106] Creating Layer inception_5b/relu_5x5
I0711 10:07:34.526731 119936 net.cpp:454] inception_5b/relu_5x5 <- inception_5b/5x5
I0711 10:07:34.526751 119936 net.cpp:397] inception_5b/relu_5x5 -> inception_5b/5x5 (in-place)
I0711 10:07:34.527632 119936 net.cpp:150] Setting up inception_5b/relu_5x5
I0711 10:07:34.527664 119936 net.cpp:157] Top shape: 32 128 7 7 (200704)
I0711 10:07:34.527674 119936 net.cpp:165] Memory required for data: 1781199880
I0711 10:07:34.527684 119936 layer_factory.hpp:76] Creating layer inception_5b/pool
I0711 10:07:34.527700 119936 net.cpp:106] Creating Layer inception_5b/pool
I0711 10:07:34.527710 119936 net.cpp:454] inception_5b/pool <- inception_5a/output_inception_5a/output_0_split_3
I0711 10:07:34.527724 119936 net.cpp:411] inception_5b/pool -> inception_5b/pool
I0711 10:07:34.530485 119936 net.cpp:150] Setting up inception_5b/pool
I0711 10:07:34.530519 119936 net.cpp:157] Top shape: 32 832 7 7 (1304576)
I0711 10:07:34.530529 119936 net.cpp:165] Memory required for data: 1786418184
I0711 10:07:34.530539 119936 layer_factory.hpp:76] Creating layer inception_5b/pool_proj
I0711 10:07:34.530555 119936 net.cpp:106] Creating Layer inception_5b/pool_proj
I0711 10:07:34.530566 119936 net.cpp:454] inception_5b/pool_proj <- inception_5b/pool
I0711 10:07:34.530586 119936 net.cpp:411] inception_5b/pool_proj -> inception_5b/pool_proj
I0711 10:07:34.537907 119936 cudnn_conv_layer.cpp:194] Reallocating workspace storage: 9984
I0711 10:07:34.537974 119936 net.cpp:150] Setting up inception_5b/pool_proj
I0711 10:07:34.537999 119936 net.cpp:157] Top shape: 32 128 7 7 (200704)
I0711 10:07:34.538020 119936 net.cpp:165] Memory required for data: 1787221000
I0711 10:07:34.538046 119936 layer_factory.hpp:76] Creating layer inception_5b/relu_pool_proj
I0711 10:07:34.538084 119936 net.cpp:106] Creating Layer inception_5b/relu_pool_proj
I0711 10:07:34.538107 119936 net.cpp:454] inception_5b/relu_pool_proj <- inception_5b/pool_proj
I0711 10:07:34.538125 119936 net.cpp:397] inception_5b/relu_pool_proj -> inception_5b/pool_proj (in-place)
I0711 10:07:34.540352 119936 net.cpp:150] Setting up inception_5b/relu_pool_proj
I0711 10:07:34.540385 119936 net.cpp:157] Top shape: 32 128 7 7 (200704)
I0711 10:07:34.540395 119936 net.cpp:165] Memory required for data: 1788023816
I0711 10:07:34.540405 119936 layer_factory.hpp:76] Creating layer inception_5b/output
I0711 10:07:34.540419 119936 net.cpp:106] Creating Layer inception_5b/output
I0711 10:07:34.540431 119936 net.cpp:454] inception_5b/output <- inception_5b/1x1
I0711 10:07:34.540441 119936 net.cpp:454] inception_5b/output <- inception_5b/3x3
I0711 10:07:34.540457 119936 net.cpp:454] inception_5b/output <- inception_5b/5x5
I0711 10:07:34.540474 119936 net.cpp:454] inception_5b/output <- inception_5b/pool_proj
I0711 10:07:34.540493 119936 net.cpp:411] inception_5b/output -> inception_5b/output
I0711 10:07:34.540567 119936 net.cpp:150] Setting up inception_5b/output
I0711 10:07:34.540607 119936 net.cpp:157] Top shape: 32 1024 7 7 (1605632)
I0711 10:07:34.540616 119936 net.cpp:165] Memory required for data: 1794446344
I0711 10:07:34.540627 119936 layer_factory.hpp:76] Creating layer pool5/7x7_s1
I0711 10:07:34.540637 119936 net.cpp:106] Creating Layer pool5/7x7_s1
I0711 10:07:34.540648 119936 net.cpp:454] pool5/7x7_s1 <- inception_5b/output
I0711 10:07:34.540679 119936 net.cpp:411] pool5/7x7_s1 -> pool5/7x7_s1
I0711 10:07:34.542911 119936 net.cpp:150] Setting up pool5/7x7_s1
I0711 10:07:34.542943 119936 net.cpp:157] Top shape: 32 1024 1 1 (32768)
I0711 10:07:34.542953 119936 net.cpp:165] Memory required for data: 1794577416
I0711 10:07:34.542961 119936 layer_factory.hpp:76] Creating layer pool5/drop_7x7_s1
I0711 10:07:34.542973 119936 net.cpp:106] Creating Layer pool5/drop_7x7_s1
I0711 10:07:34.542982 119936 net.cpp:454] pool5/drop_7x7_s1 <- pool5/7x7_s1
I0711 10:07:34.542994 119936 net.cpp:397] pool5/drop_7x7_s1 -> pool5/7x7_s1 (in-place)
I0711 10:07:34.543054 119936 net.cpp:150] Setting up pool5/drop_7x7_s1
I0711 10:07:34.543083 119936 net.cpp:157] Top shape: 32 1024 1 1 (32768)
I0711 10:07:34.543103 119936 net.cpp:165] Memory required for data: 1794708488
I0711 10:07:34.543112 119936 layer_factory.hpp:76] Creating layer loss3/classifier
I0711 10:07:34.543131 119936 net.cpp:106] Creating Layer loss3/classifier
I0711 10:07:34.543140 119936 net.cpp:454] loss3/classifier <- pool5/7x7_s1
I0711 10:07:34.543153 119936 net.cpp:411] loss3/classifier -> loss3/classifier
I0711 10:07:34.543370 119936 net.cpp:150] Setting up loss3/classifier
I0711 10:07:34.543397 119936 net.cpp:157] Top shape: 32 2 (64)
I0711 10:07:34.543406 119936 net.cpp:165] Memory required for data: 1794708744
I0711 10:07:34.543418 119936 layer_factory.hpp:76] Creating layer loss3/loss3
I0711 10:07:34.543431 119936 net.cpp:106] Creating Layer loss3/loss3
I0711 10:07:34.543439 119936 net.cpp:454] loss3/loss3 <- loss3/classifier
I0711 10:07:34.543449 119936 net.cpp:454] loss3/loss3 <- label_data_1_split_2
I0711 10:07:34.543469 119936 net.cpp:411] loss3/loss3 -> loss3/loss3
…
I0711 10:07:34.552377 119936 net.cpp:49] Initializing net from parameters: 
name: "GoogleNet"
state {
  phase: TEST
}
layer {
  name: "data"
  type: "ImageData"
  top: "data"
  top: "label"
  include {
    phase: TEST
  }
  transform_param {
    mirror: false
    crop_size: 224
    mean_value: 104
    mean_value: 117
    mean_value: 123
  }
  image_data_param {
    source: "/data/dywang/Database/Proliferation/libs/stage04_mitosisDetection/training_examples/val2.lst"
    batch_size: 100
    shuffle: true
    new_height: 256
    new_width: 256
  }
}
layer {
  name: "conv1/7x7_s2"
  type: "Convolution"
  bottom: "data"
  top: "conv1/7x7_s2"
  param {
    lr_mult: 1
    decay_mult: 1
  }
  param {
    lr_mult: 2
    decay_mult: 0
  }
  convolution_param {
    num_output: 64
    pad: 3
    kernel_size: 7
    stride: 2
    weight_filler {
      type: "xavier"
    }
    bias_filler {
      type: "constant"
      value: 0.2
    }
  }
}
layer {
  name: "conv1/relu_7x7"
  type: "ReLU"
  bottom: "conv1/7x7_s2"
  top: "conv1/7x7_s2"
}
layer {
  name: "pool1/3x3_s2"
  type: "Pooling"
  bottom: "conv1/7x7_s2"
  top: "pool1/3x3_s2"
  pooling_param {
    pool: MAX
    kernel_size: 3
    stride: 2
  }
}
layer {
  name: "pool1/norm1"
  type: "LRN"
  bottom: "pool1/3x3_s2"
  top: "pool1/norm1"
  lrn_param {
    local_size: 5
    alpha: 0.0001
    beta: 0.75
  }
}
layer {
  name: "conv2/3x3_reduce"
  type: "Convolution"
  bottom: "pool1/norm1"
  top: "conv2/3x3_reduce"
  param {
    lr_mult: 1
    decay_mult: 1
  }
  param {
    lr_mult: 2
    decay_mult: 0
  }
  convolution_param {
    num_output: 64
    kernel_size: 1
    weight_filler {
      type: "xavier"
    }
    bias_filler {
      type: "constant"
      value: 0.2
    }
  }
}
layer {
  name: "conv2/relu_3x3_reduce"
  type: "ReLU"
  bottom: "conv2/3x3_reduce"
  top: "conv2/3x3_reduce"
}
layer {
  name: "conv2/3x3"
  type: "Convolution"
  bottom: "conv2/3x3_reduce"
  top: "conv2/3x3"
  param {
    lr_mult: 1
    decay_mult: 1
  }
  param {
    lr_mult: 2
    decay_mult: 0
  }
  convolution_param {
    num_output: 192
    pad: 1
    kernel_size: 3
    weight_filler {
      type: "xavier"
    }
    bias_filler {
      type: "constant"
      value: 0.2
    }
  }
}
layer {
  name: "conv2/relu_3x3"
  type: "ReLU"
  bottom: "conv2/3x3"
  top: "conv2/3x3"
}
layer {
  name: "conv2/norm2"
  type: "LRN"
  bottom: "conv2/3x3"
  top: "conv2/norm2"
  lrn_param {
    local_size: 5
    alpha: 0.0001
    beta: 0.75
  }
}
layer {
  name: "pool2/3x3_s2"
  type: "Pooling"
  bottom: "conv2/norm2"
  top: "pool2/3x3_s2"
  pooling_param {
    pool: MAX
    kernel_size: 3
    stride: 2
  }
}
layer {
  name: "inception_3a/1x1"
  type: "Convolution"
  bottom: "pool2/3x3_s2"
  top: "inception_3a/1x1"
  param {
    lr_mult: 1
    decay_mult: 1
  }
  param {
    lr_mult: 2
    decay_mult: 0
  }
  convolution_param {
    num_output: 64
    kernel_size: 1
    weight_filler {
      type: "xavier"
    }
    bias_filler {
      type: "constant"
      value: 0.2
    }
  }
}
layer {
  name: "inception_3a/relu_1x1"
  type: "ReLU"
  bottom: "inception_3a/1x1"
  top: "inception_3a/1x1"
}
layer {
  name: "inception_3a/3x3_reduce"
  type: "Convolution"
  bottom: "pool2/3x3_s2"
  top: "inception_3a/3x3_reduce"
  param {
    lr_mult: 1
    decay_mult: 1
  }
  param {
    lr_mult: 2
    decay_mult: 0
  }
  convolution_param {
    num_output: 96
    kernel_size: 1
    weight_filler {
      type: "xavier"
    }
    bias_filler {
      type: "constant"
      value: 0.2
    }
  }
}
layer {
  name: "inception_3a/relu_3x3_reduce"
  type: "ReLU"
  bottom: "inception_3a/3x3_reduce"
  top: "inception_3a/3x3_reduce"
}
layer {
  name: "inception_3a/3x3"
  type: "Convolution"
  bottom: "inception_3a/3x3_reduce"
  top: "inception_3a/3x3"
  param {
    lr_mult: 1
    decay_mult: 1
  }
  param {
    lr_mult: 2
    decay_mult: 0
  }
  convolution_param {
    num_output: 128
    pad: 1
    kernel_size: 3
    weight_filler {
      type: "xavier"
    }
    bias_filler {
      type: "constant"
      value: 0.2
    }
  }
}
layer {
  name: "inception_3a/relu_3x3"
  type: "ReLU"
  bottom: "inception_3a/3x3"
  top: "inception_3a/3x3"
}
layer {
  name: "inception_3a/5x5_reduce"
  type: "Convolution"
  bottom: "pool2/3x3_s2"
  top: "inception_3a/5x5_reduce"
  param {
    lr_mult: 1
    decay_mult: 1
  }
  param {
    lr_mult: 2
    decay_mult: 0
  }
  convolution_param {
    num_output: 16
    kernel_size: 1
    weight_filler {
      type: "xavier"
    }
    bias_filler {
      type: "constant"
      value: 0.2
    }
  }
}
layer {
  name: "inception_3a/relu_5x5_reduce"
  type: "ReLU"
  bottom: "inception_3a/5x5_reduce"
  top: "inception_3a/5x5_reduce"
}
layer {
  name: "inception_3a/5x5"
  type: "Convolution"
  bottom: "inception_3a/5x5_reduce"
  top: "inception_3a/5x5"
  param {
    lr_mult: 1
    decay_mult: 1
  }
  param {
    lr_mult: 2
    decay_mult: 0
  }
  convolution_param {
    num_output: 32
    pad: 2
    kernel_size: 5
    weight_filler {
      type: "xavier"
    }
    bias_filler {
      type: "constant"
      value: 0.2
    }
  }
}
layer {
  name: "inception_3a/relu_5x5"
  type: "ReLU"
  bottom: "inception_3a/5x5"
  top: "inception_3a/5x5"
}
layer {
  name: "inception_3a/pool"
  type: "Pooling"
  bottom: "pool2/3x3_s2"
  top: "inception_3a/pool"
  pooling_param {
    pool: MAX
    kernel_size: 3
    stride: 1
    pad: 1
  }
}
layer {
  name: "inception_3a/pool_proj"
  type: "Convolution"
  bottom: "inception_3a/pool"
  top: "inception_3a/pool_proj"
  param {
    lr_mult: 1
    decay_mult: 1
  }
  param {
    lr_mult: 2
    decay_mult: 0
  }
  convolution_param {
    num_output: 32
    kernel_size: 1
    weight_filler {
      type: "xavier"
    }
    bias_filler {
      type: "constant"
      value: 0.2
    }
  }
}
layer {
  name: "inception_3a/relu_pool_proj"
  type: "ReLU"
  bottom: "inception_3a/pool_proj"
  top: "inception_3a/pool_proj"
}
layer {
  name: "inception_3a/output"
  type: "Concat"
  bottom: "inception_3a/1x1"
  bottom: "inception_3a/3x3"
  bottom: "inception_3a/5x5"
  bottom: "inception_3a/pool_proj"
  top: "inception_3a/output"
}
layer {
  name: "inception_3b/1x1"
  type: "Convolution"
  bottom: "inception_3a/output"
  top: "inception_3b/1x1"
  param {
    lr_mult: 1
    decay_mult: 1
  }
  param {
    lr_mult: 2
    decay_mult: 0
  }
  convolution_param {
    num_output: 128
    kernel_size: 1
    weight_filler {
      type: "xavier"
    }
    bias_filler {
      type: "constant"
      value: 0.2
    }
  }
}
layer {
  name: "inception_3b/relu_1x1"
  type: "ReLU"
  bottom: "inception_3b/1x1"
  top: "inception_3b/1x1"
}
layer {
  name: "inception_3b/3x3_reduce"
  type: "Convolution"
  bottom: "inception_3a/output"
  top: "inception_3b/3x3_reduce"
  param {
    lr_mult: 1
    decay_mult: 1
  }
  param {
    lr_mult: 2
    decay_mult: 0
  }
  convolution_param {
    num_output: 128
    kernel_size: 1
    weight_filler {
      type: "xavier"
    }
    bias_filler {
      type: "constant"
      value: 0.2
    }
  }
}
layer {
  name: "inception_3b/relu_3x3_reduce"
  type: "ReLU"
  bottom: "inception_3b/3x3_reduce"
  top: "inception_3b/3x3_reduce"
}
layer {
  name: "inception_3b/3x3"
  type: "Convolution"
  bottom: "inception_3b/3x3_reduce"
  top: "inception_3b/3x3"
  param {
    lr_mult: 1
    decay_mult: 1
  }
  param {
    lr_mult: 2
    decay_mult: 0
  }
  convolution_param {
    num_output: 192
    pad: 1
    kernel_size: 3
    weight_filler {
      type: "xavier"
    }
    bias_filler {
      type: "constant"
      value: 0.2
    }
  }
}
layer {
  name: "inception_3b/relu_3x3"
  type: "ReLU"
  bottom: "inception_3b/3x3"
  top: "inception_3b/3x3"
}
layer {
  name: "inception_3b/5x5_reduce"
  type: "Convolution"
  bottom: "inception_3a/output"
  top: "inception_3b/5x5_reduce"
  param {
    lr_mult: 1
    decay_mult: 1
  }
  param {
    lr_mult: 2
    decay_mult: 0
  }
  convolution_param {
    num_output: 32
    kernel_size: 1
    weight_filler {
      type: "xavier"
    }
    bias_filler {
      type: "constant"
      value: 0.2
    }
  }
}
layer {
  name: "inception_3b/relu_5x5_reduce"
  type: "ReLU"
  bottom: "inception_3b/5x5_reduce"
  top: "inception_3b/5x5_reduce"
}
layer {
  name: "inception_3b/5x5"
  type: "Convolution"
  bottom: "inception_3b/5x5_reduce"
  top: "inception_3b/5x5"
  param {
    lr_mult: 1
    decay_mult: 1
  }
  param {
    lr_mult: 2
    decay_mult: 0
  }
  convolution_param {
    num_output: 96
    pad: 2
    kernel_size: 5
    weight_filler {
      type: "xavier"
    }
    bias_filler {
      type: "constant"
      value: 0.2
    }
  }
}
layer {
  name: "inception_3b/relu_5x5"
  type: "ReLU"
  bottom: "inception_3b/5x5"
  top: "inception_3b/5x5"
}
layer {
  name: "inception_3b/pool"
  type: "Pooling"
  bottom: "inception_3a/output"
  top: "inception_3b/pool"
  pooling_param {
    pool: MAX
    kernel_size: 3
    stride: 1
    pad: 1
  }
}
layer {
  name: "inception_3b/pool_proj"
  type: "Convolution"
  bottom: "inception_3b/pool"
  top: "inception_3b/pool_proj"
  param {
    lr_mult: 1
    decay_mult: 1
  }
  param {
    lr_mult: 2
    decay_mult: 0
  }
  convolution_param {
    num_output: 64
    kernel_size: 1
    weight_filler {
      type: "xavier"
    }
    bias_filler {
      type: "constant"
      value: 0.2
    }
  }
}
layer {
  name: "inception_3b/relu_pool_proj"
  type: "ReLU"
  bottom: "inception_3b/pool_proj"
  top: "inception_3b/pool_proj"
}
layer {
  name: "inception_3b/output"
  type: "Concat"
  bottom: "inception_3b/1x1"
  bottom: "inception_3b/3x3"
  bottom: "inception_3b/5x5"
  bottom: "inception_3b/pool_proj"
  top: "inception_3b/output"
}
layer {
  name: "pool3/3x3_s2"
  type: "Pooling"
  bottom: "inception_3b/output"
  top: "pool3/3x3_s2"
  pooling_param {
    pool: MAX
    kernel_size: 3
    stride: 2
  }
}
layer {
  name: "inception_4a/1x1"
  type: "Convolution"
  bottom: "pool3/3x3_s2"
  top: "inception_4a/1x1"
  param {
    lr_mult: 1
…
I0711 10:07:34.892570 119936 net.cpp:157] Top shape: 100 64 14 14 (1254400)
I0711 10:07:34.892580 119936 net.cpp:165] Memory required for data: 4429163608
I0711 10:07:34.892590 119936 layer_factory.hpp:76] Creating layer inception_4c/output
I0711 10:07:34.892601 119936 net.cpp:106] Creating Layer inception_4c/output
I0711 10:07:34.892609 119936 net.cpp:454] inception_4c/output <- inception_4c/1x1
I0711 10:07:34.892621 119936 net.cpp:454] inception_4c/output <- inception_4c/3x3
I0711 10:07:34.892629 119936 net.cpp:454] inception_4c/output <- inception_4c/5x5
I0711 10:07:34.892639 119936 net.cpp:454] inception_4c/output <- inception_4c/pool_proj
I0711 10:07:34.892649 119936 net.cpp:411] inception_4c/output -> inception_4c/output
I0711 10:07:34.892702 119936 net.cpp:150] Setting up inception_4c/output
I0711 10:07:34.892719 119936 net.cpp:157] Top shape: 100 512 14 14 (10035200)
I0711 10:07:34.892727 119936 net.cpp:165] Memory required for data: 4469304408
I0711 10:07:34.892736 119936 layer_factory.hpp:76] Creating layer inception_4c/output_inception_4c/output_0_split
I0711 10:07:34.892748 119936 net.cpp:106] Creating Layer inception_4c/output_inception_4c/output_0_split
I0711 10:07:34.892757 119936 net.cpp:454] inception_4c/output_inception_4c/output_0_split <- inception_4c/output
I0711 10:07:34.892771 119936 net.cpp:411] inception_4c/output_inception_4c/output_0_split -> inception_4c/output_inception_4c/output_0_split_0
I0711 10:07:34.892783 119936 net.cpp:411] inception_4c/output_inception_4c/output_0_split -> inception_4c/output_inception_4c/output_0_split_1
I0711 10:07:34.892796 119936 net.cpp:411] inception_4c/output_inception_4c/output_0_split -> inception_4c/output_inception_4c/output_0_split_2
I0711 10:07:34.892808 119936 net.cpp:411] inception_4c/output_inception_4c/output_0_split -> inception_4c/output_inception_4c/output_0_split_3
I0711 10:07:34.892925 119936 net.cpp:150] Setting up inception_4c/output_inception_4c/output_0_split
I0711 10:07:34.892951 119936 net.cpp:157] Top shape: 100 512 14 14 (10035200)
I0711 10:07:34.892962 119936 net.cpp:157] Top shape: 100 512 14 14 (10035200)
I0711 10:07:34.892971 119936 net.cpp:157] Top shape: 100 512 14 14 (10035200)
I0711 10:07:34.892982 119936 net.cpp:157] Top shape: 100 512 14 14 (10035200)
I0711 10:07:34.892989 119936 net.cpp:165] Memory required for data: 4629867608
I0711 10:07:34.892998 119936 layer_factory.hpp:76] Creating layer inception_4d/1x1
I0711 10:07:34.893013 119936 net.cpp:106] Creating Layer inception_4d/1x1
I0711 10:07:34.893023 119936 net.cpp:454] inception_4d/1x1 <- inception_4c/output_inception_4c/output_0_split_0
I0711 10:07:34.893034 119936 net.cpp:411] inception_4d/1x1 -> inception_4d/1x1
I0711 10:07:34.894788 119936 cudnn_conv_layer.cpp:194] Reallocating workspace storage: 6144
I0711 10:07:34.894843 119936 net.cpp:150] Setting up inception_4d/1x1
I0711 10:07:34.894857 119936 net.cpp:157] Top shape: 100 112 14 14 (2195200)
I0711 10:07:34.894893 119936 net.cpp:165] Memory required for data: 4638648408
I0711 10:07:34.894907 119936 layer_factory.hpp:76] Creating layer inception_4d/relu_1x1
I0711 10:07:34.894919 119936 net.cpp:106] Creating Layer inception_4d/relu_1x1
I0711 10:07:34.894929 119936 net.cpp:454] inception_4d/relu_1x1 <- inception_4d/1x1
I0711 10:07:34.894943 119936 net.cpp:397] inception_4d/relu_1x1 -> inception_4d/1x1 (in-place)
I0711 10:07:34.895539 119936 net.cpp:150] Setting up inception_4d/relu_1x1
I0711 10:07:34.895570 119936 net.cpp:157] Top shape: 100 112 14 14 (2195200)
I0711 10:07:34.895579 119936 net.cpp:165] Memory required for data: 4647429208
I0711 10:07:34.895588 119936 layer_factory.hpp:76] Creating layer inception_4d/3x3_reduce
I0711 10:07:34.895604 119936 net.cpp:106] Creating Layer inception_4d/3x3_reduce
I0711 10:07:34.895614 119936 net.cpp:454] inception_4d/3x3_reduce <- inception_4c/output_inception_4c/output_0_split_1
I0711 10:07:34.895625 119936 net.cpp:411] inception_4d/3x3_reduce -> inception_4d/3x3_reduce
I0711 10:07:34.897382 119936 cudnn_conv_layer.cpp:194] Reallocating workspace storage: 6144
I0711 10:07:34.897439 119936 net.cpp:150] Setting up inception_4d/3x3_reduce
I0711 10:07:34.897465 119936 net.cpp:157] Top shape: 100 144 14 14 (2822400)
I0711 10:07:34.897475 119936 net.cpp:165] Memory required for data: 4658718808
I0711 10:07:34.897487 119936 layer_factory.hpp:76] Creating layer inception_4d/relu_3x3_reduce
I0711 10:07:34.897501 119936 net.cpp:106] Creating Layer inception_4d/relu_3x3_reduce
I0711 10:07:34.897512 119936 net.cpp:454] inception_4d/relu_3x3_reduce <- inception_4d/3x3_reduce
I0711 10:07:34.897523 119936 net.cpp:397] inception_4d/relu_3x3_reduce -> inception_4d/3x3_reduce (in-place)
I0711 10:07:34.897981 119936 net.cpp:150] Setting up inception_4d/relu_3x3_reduce
I0711 10:07:34.898012 119936 net.cpp:157] Top shape: 100 144 14 14 (2822400)
I0711 10:07:34.898021 119936 net.cpp:165] Memory required for data: 4670008408
I0711 10:07:34.898031 119936 layer_factory.hpp:76] Creating layer inception_4d/3x3
I0711 10:07:34.898047 119936 net.cpp:106] Creating Layer inception_4d/3x3
I0711 10:07:34.898057 119936 net.cpp:454] inception_4d/3x3 <- inception_4d/3x3_reduce
I0711 10:07:34.898071 119936 net.cpp:411] inception_4d/3x3 -> inception_4d/3x3
I0711 10:07:34.902798 119936 cudnn_conv_layer.cpp:194] Reallocating workspace storage: 15552
I0711 10:07:34.902853 119936 net.cpp:150] Setting up inception_4d/3x3
I0711 10:07:34.902868 119936 net.cpp:157] Top shape: 100 288 14 14 (5644800)
I0711 10:07:34.902889 119936 net.cpp:165] Memory required for data: 4692587608
I0711 10:07:34.902902 119936 layer_factory.hpp:76] Creating layer inception_4d/relu_3x3
I0711 10:07:34.902917 119936 net.cpp:106] Creating Layer inception_4d/relu_3x3
I0711 10:07:34.902927 119936 net.cpp:454] inception_4d/relu_3x3 <- inception_4d/3x3
I0711 10:07:34.902940 119936 net.cpp:397] inception_4d/relu_3x3 -> inception_4d/3x3 (in-place)
I0711 10:07:34.903197 119936 net.cpp:150] Setting up inception_4d/relu_3x3
I0711 10:07:34.903225 119936 net.cpp:157] Top shape: 100 288 14 14 (5644800)
I0711 10:07:34.903235 119936 net.cpp:165] Memory required for data: 4715166808
I0711 10:07:34.903244 119936 layer_factory.hpp:76] Creating layer inception_4d/5x5_reduce
I0711 10:07:34.903259 119936 net.cpp:106] Creating Layer inception_4d/5x5_reduce
I0711 10:07:34.903270 119936 net.cpp:454] inception_4d/5x5_reduce <- inception_4c/output_inception_4c/output_0_split_2
I0711 10:07:34.903297 119936 net.cpp:411] inception_4d/5x5_reduce -> inception_4d/5x5_reduce
I0711 10:07:34.904788 119936 net.cpp:150] Setting up inception_4d/5x5_reduce
I0711 10:07:34.904822 119936 net.cpp:157] Top shape: 100 32 14 14 (627200)
I0711 10:07:34.904832 119936 net.cpp:165] Memory required for data: 4717675608
I0711 10:07:34.904844 119936 layer_factory.hpp:76] Creating layer inception_4d/relu_5x5_reduce
I0711 10:07:34.904857 119936 net.cpp:106] Creating Layer inception_4d/relu_5x5_reduce
I0711 10:07:34.904866 119936 net.cpp:454] inception_4d/relu_5x5_reduce <- inception_4d/5x5_reduce
I0711 10:07:34.904906 119936 net.cpp:397] inception_4d/relu_5x5_reduce -> inception_4d/5x5_reduce (in-place)
I0711 10:07:34.905323 119936 net.cpp:150] Setting up inception_4d/relu_5x5_reduce
I0711 10:07:34.905354 119936 net.cpp:157] Top shape: 100 32 14 14 (627200)
I0711 10:07:34.905364 119936 net.cpp:165] Memory required for data: 4720184408
I0711 10:07:34.905372 119936 layer_factory.hpp:76] Creating layer inception_4d/5x5
I0711 10:07:34.905390 119936 net.cpp:106] Creating Layer inception_4d/5x5
I0711 10:07:34.905400 119936 net.cpp:454] inception_4d/5x5 <- inception_4d/5x5_reduce
I0711 10:07:34.905424 119936 net.cpp:411] inception_4d/5x5 -> inception_4d/5x5
I0711 10:07:34.907022 119936 cudnn_conv_layer.cpp:194] Reallocating workspace storage: 9600
I0711 10:07:34.907086 119936 net.cpp:150] Setting up inception_4d/5x5
I0711 10:07:34.907116 119936 net.cpp:157] Top shape: 100 64 14 14 (1254400)
I0711 10:07:34.907125 119936 net.cpp:165] Memory required for data: 4725202008
I0711 10:07:34.907138 119936 layer_factory.hpp:76] Creating layer inception_4d/relu_5x5
I0711 10:07:34.907155 119936 net.cpp:106] Creating Layer inception_4d/relu_5x5
I0711 10:07:34.907165 119936 net.cpp:454] inception_4d/relu_5x5 <- inception_4d/5x5
I0711 10:07:34.907176 119936 net.cpp:397] inception_4d/relu_5x5 -> inception_4d/5x5 (in-place)
I0711 10:07:34.907582 119936 net.cpp:150] Setting up inception_4d/relu_5x5
I0711 10:07:34.907615 119936 net.cpp:157] Top shape: 100 64 14 14 (1254400)
I0711 10:07:34.907625 119936 net.cpp:165] Memory required for data: 4730219608
I0711 10:07:34.907634 119936 layer_factory.hpp:76] Creating layer inception_4d/pool
I0711 10:07:34.907646 119936 net.cpp:106] Creating Layer inception_4d/pool
I0711 10:07:34.907656 119936 net.cpp:454] inception_4d/pool <- inception_4c/output_inception_4c/output_0_split_3
I0711 10:07:34.907670 119936 net.cpp:411] inception_4d/pool -> inception_4d/pool
I0711 10:07:34.908126 119936 net.cpp:150] Setting up inception_4d/pool
I0711 10:07:34.908145 119936 net.cpp:157] Top shape: 100 512 14 14 (10035200)
I0711 10:07:34.908167 119936 net.cpp:165] Memory required for data: 4770360408
I0711 10:07:34.908177 119936 layer_factory.hpp:76] Creating layer inception_4d/pool_proj
I0711 10:07:34.908195 119936 net.cpp:106] Creating Layer inception_4d/pool_proj
I0711 10:07:34.908205 119936 net.cpp:454] inception_4d/pool_proj <- inception_4d/pool
I0711 10:07:34.908218 119936 net.cpp:411] inception_4d/pool_proj -> inception_4d/pool_proj
I0711 10:07:34.909649 119936 net.cpp:150] Setting up inception_4d/pool_proj
I0711 10:07:34.909682 119936 net.cpp:157] Top shape: 100 64 14 14 (1254400)
I0711 10:07:34.909693 119936 net.cpp:165] Memory required for data: 4775378008
I0711 10:07:34.909705 119936 layer_factory.hpp:76] Creating layer inception_4d/relu_pool_proj
I0711 10:07:34.909720 119936 net.cpp:106] Creating Layer inception_4d/relu_pool_proj
I0711 10:07:34.909730 119936 net.cpp:454] inception_4d/relu_pool_proj <- inception_4d/pool_proj
I0711 10:07:34.909741 119936 net.cpp:397] inception_4d/relu_pool_proj -> inception_4d/pool_proj (in-place)
I0711 10:07:34.910162 119936 net.cpp:150] Setting up inception_4d/relu_pool_proj
I0711 10:07:34.910194 119936 net.cpp:157] Top shape: 100 64 14 14 (1254400)
I0711 10:07:34.910203 119936 net.cpp:165] Memory required for data: 4780395608
I0711 10:07:34.910212 119936 layer_factory.hpp:76] Creating layer inception_4d/output
I0711 10:07:34.910226 119936 net.cpp:106] Creating Layer inception_4d/output
I0711 10:07:34.910235 119936 net.cpp:454] inception_4d/output <- inception_4d/1x1
I0711 10:07:34.910245 119936 net.cpp:454] inception_4d/output <- inception_4d/3x3
I0711 10:07:34.910269 119936 net.cpp:454] inception_4d/output <- inception_4d/5x5
I0711 10:07:34.910277 119936 net.cpp:454] inception_4d/output <- inception_4d/pool_proj
I0711 10:07:34.910290 119936 net.cpp:411] inception_4d/output -> inception_4d/output
I0711 10:07:34.910343 119936 net.cpp:150] Setting up inception_4d/output
I0711 10:07:34.910359 119936 net.cpp:157] Top shape: 100 528 14 14 (10348800)
I0711 10:07:34.910406 119936 net.cpp:165] Memory required for data: 4821790808
I0711 10:07:34.910416 119936 layer_factory.hpp:76] Creating layer inception_4d/output_inception_4d/output_0_split
I0711 10:07:34.910429 119936 net.cpp:106] Creating Layer inception_4d/output_inception_4d/output_0_split
I0711 10:07:34.910439 119936 net.cpp:454] inception_4d/output_inception_4d/output_0_split <- inception_4d/output
I0711 10:07:34.910456 119936 net.cpp:411] inception_4d/output_inception_4d/output_0_split -> inception_4d/output_inception_4d/output_0_split_0
I0711 10:07:34.910470 119936 net.cpp:411] inception_4d/output_inception_4d/output_0_split -> inception_4d/output_inception_4d/output_0_split_1
I0711 10:07:34.910482 119936 net.cpp:411] inception_4d/output_inception_4d/output_0_split -> inception_4d/output_inception_4d/output_0_split_2
I0711 10:07:34.910495 119936 net.cpp:411] inception_4d/output_inception_4d/output_0_split -> inception_4d/output_inception_4d/output_0_split_3
I0711 10:07:34.910506 119936 net.cpp:411] inception_4d/output_inception_4d/output_0_split -> inception_4d/output_inception_4d/output_0_split_4
I0711 10:07:34.910683 119936 net.cpp:150] Setting up inception_4d/output_inception_4d/output_0_split
I0711 10:07:34.910699 119936 net.cpp:157] Top shape: 100 528 14 14 (10348800)
I0711 10:07:34.910711 119936 net.cpp:157] Top shape: 100 528 14 14 (10348800)
I0711 10:07:34.910719 119936 net.cpp:157] Top shape: 100 528 14 14 (10348800)
I0711 10:07:34.910728 119936 net.cpp:157] Top shape: 100 528 14 14 (10348800)
I0711 10:07:34.910738 119936 net.cpp:157] Top shape: 100 528 14 14 (10348800)
I0711 10:07:34.910747 119936 net.cpp:165] Memory required for data: 5028766808
I0711 10:07:34.910755 119936 layer_factory.hpp:76] Creating layer loss2/ave_pool
I0711 10:07:34.910768 119936 net.cpp:106] Creating Layer loss2/ave_pool
I0711 10:07:34.910776 119936 net.cpp:454] loss2/ave_pool <- inception_4d/output_inception_4d/output_0_split_0
I0711 10:07:34.910790 119936 net.cpp:411] loss2/ave_pool -> loss2/ave_pool
I0711 10:07:34.911067 119936 net.cpp:150] Setting up loss2/ave_pool
I0711 10:07:34.911097 119936 net.cpp:157] Top shape: 100 528 4 4 (844800)
I0711 10:07:34.911105 119936 net.cpp:165] Memory required for data: 5032146008
I0711 10:07:34.911114 119936 layer_factory.hpp:76] Creating layer loss2/conv
I0711 10:07:34.911131 119936 net.cpp:106] Creating Layer loss2/conv
I0711 10:07:34.911141 119936 net.cpp:454] loss2/conv <- loss2/ave_pool
I0711 10:07:34.911154 119936 net.cpp:411] loss2/conv -> loss2/conv
I0711 10:07:34.913576 119936 cudnn_conv_layer.cpp:194] Reallocating workspace storage: 6336
I0711 10:07:34.913648 119936 net.cpp:150] Setting up loss2/conv
I0711 10:07:34.913679 119936 net.cpp:157] Top shape: 100 128 4 4 (204800)
I0711 10:07:34.913689 119936 net.cpp:165] Memory required for data: 5032965208
I0711 10:07:34.913702 119936 layer_factory.hpp:76] Creating layer loss2/relu_conv
I0711 10:07:34.913717 119936 net.cpp:106] Creating Layer loss2/relu_conv
I0711 10:07:34.913727 119936 net.cpp:454] loss2/relu_conv <- loss2/conv
I0711 10:07:34.913738 119936 net.cpp:397] loss2/relu_conv -> loss2/conv (in-place)
I0711 10:07:34.914172 119936 net.cpp:150] Setting up loss2/relu_conv
I0711 10:07:34.914203 119936 net.cpp:157] Top shape: 100 128 4 4 (204800)
I0711 10:07:34.914212 119936 net.cpp:165] Memory required for data: 5033784408
I0711 10:07:34.914222 119936 layer_factory.hpp:76] Creating layer loss2/fc
I0711 10:07:34.914237 119936 net.cpp:106] Creating Layer loss2/fc
I0711 10:07:34.914247 119936 net.cpp:454] loss2/fc <- loss2/conv
I0711 10:07:34.914273 119936 net.cpp:411] loss2/fc -> loss2/fc
I0711 10:07:34.932484 119936 net.cpp:150] Setting up loss2/fc
I0711 10:07:34.932523 119936 net.cpp:157] Top shape: 100 1024 (102400)
I0711 10:07:34.932531 119936 net.cpp:165] Memory required for data: 5034194008
I0711 10:07:34.932545 119936 layer_factory.hpp:76] Creating layer loss2/relu_fc
I0711 10:07:34.932559 119936 net.cpp:106] Creating Layer loss2/relu_fc
I0711 10:07:34.932569 119936 net.cpp:454] loss2/relu_fc <- loss2/fc
I0711 10:07:34.932582 119936 net.cpp:397] loss2/relu_fc -> loss2/fc (in-place)
I0711 10:07:34.932905 119936 net.cpp:150] Setting up loss2/relu_fc
I0711 10:07:34.932936 119936 net.cpp:157] Top shape: 100 1024 (102400)
I0711 10:07:34.932945 119936 net.cpp:165] Memory required for data: 5034603608
I0711 10:07:34.932955 119936 layer_factory.hpp:76] Creating layer loss2/drop_fc
I0711 10:07:34.932966 119936 net.cpp:106] Creating Layer loss2/drop_fc
I0711 10:07:34.932976 119936 net.cpp:454] loss2/drop_fc <- loss2/fc
I0711 10:07:34.932986 119936 net.cpp:397] loss2/drop_fc -> loss2/fc (in-place)
I0711 10:07:34.933056 119936 net.cpp:150] Setting up loss2/drop_fc
I0711 10:07:34.933071 119936 net.cpp:157] Top shape: 100 1024 (102400)
I0711 10:07:34.933080 119936 net.cpp:165] Memory required for data: 5035013208
I0711 10:07:34.933101 119936 layer_factory.hpp:76] Creating layer loss2/classifier
I0711 10:07:34.933128 119936 net.cpp:106] Creating Layer loss2/classifier
I0711 10:07:34.933138 119936 net.cpp:454] loss2/classifier <- loss2/fc
I0711 10:07:34.933149 119936 net.cpp:411] loss2/classifier -> loss2/classifier
I0711 10:07:34.933418 119936 net.cpp:150] Setting up loss2/classifier
I0711 10:07:34.933445 119936 net.cpp:157] Top shape: 100 2 (200)
I0711 10:07:34.933454 119936 net.cpp:165] Memory required for data: 5035014008
I0711 10:07:34.933466 119936 layer_factory.hpp:76] Creating layer loss2/classifier_loss2/classifier_0_split
I0711 10:07:34.933501 119936 net.cpp:106] Creating Layer loss2/classifier_loss2/classifier_0_split
I0711 10:07:34.933511 119936 net.cpp:454] loss2/classifier_loss2/classifier_0_split <- loss2/classifier
I0711 10:07:34.933522 119936 net.cpp:411] loss2/classifier_loss2/classifier_0_split -> loss2/classifier_loss2/classifier_0_split_0
I0711 10:07:34.933538 119936 net.cpp:411] loss2/classifier_loss2/classifier_0_split -> loss2/classifier_loss2/classifier_0_split_1
I0711 10:07:34.933607 119936 net.cpp:150] Setting up loss2/classifier_loss2/classifier_0_split
I0711 10:07:34.933622 119936 net.cpp:157] Top shape: 100 2 (200)
I0711 10:07:34.933634 119936 net.cpp:157] Top shape: 100 2 (200)
I0711 10:07:34.933641 119936 net.cpp:165] Memory required for data: 5035015608
I0711 10:07:34.933651 119936 layer_factory.hpp:76] Creating layer loss2/loss
I0711 10:07:34.933666 119936 net.cpp:106] Creating Layer loss2/loss
I0711 10:07:34.933676 119936 net.cpp:454] loss2/loss <- loss2/classifier_loss2/classifier_0_split_0
I0711 10:07:34.933686 119936 net.cpp:454] loss2/loss <- label_data_1_split_2
…
I0711 10:07:34.934468 119936 net.cpp:165] Memory required for data: 5035015616
I0711 10:07:34.934476 119936 layer_factory.hpp:76] Creating layer inception_4e/1x1
I0711 10:07:34.934490 119936 net.cpp:106] Creating Layer inception_4e/1x1
I0711 10:07:34.934500 119936 net.cpp:454] inception_4e/1x1 <- inception_4d/output_inception_4d/output_0_split_1
I0711 10:07:34.934515 119936 net.cpp:411] inception_4e/1x1 -> inception_4e/1x1
I0711 10:07:34.936874 119936 cudnn_conv_layer.cpp:194] Reallocating workspace storage: 6336
I0711 10:07:34.936946 119936 net.cpp:150] Setting up inception_4e/1x1
I0711 10:07:34.936962 119936 net.cpp:157] Top shape: 100 256 14 14 (5017600)
I0711 10:07:34.936985 119936 net.cpp:165] Memory required for data: 5055086016
I0711 10:07:34.937000 119936 layer_factory.hpp:76] Creating layer inception_4e/relu_1x1
I0711 10:07:34.937012 119936 net.cpp:106] Creating Layer inception_4e/relu_1x1
I0711 10:07:34.937022 119936 net.cpp:454] inception_4e/relu_1x1 <- inception_4e/1x1
I0711 10:07:34.937037 119936 net.cpp:397] inception_4e/relu_1x1 -> inception_4e/1x1 (in-place)
I0711 10:07:34.937477 119936 net.cpp:150] Setting up inception_4e/relu_1x1
I0711 10:07:34.937510 119936 net.cpp:157] Top shape: 100 256 14 14 (5017600)
I0711 10:07:34.937518 119936 net.cpp:165] Memory required for data: 5075156416
I0711 10:07:34.937527 119936 layer_factory.hpp:76] Creating layer inception_4e/3x3_reduce
I0711 10:07:34.937544 119936 net.cpp:106] Creating Layer inception_4e/3x3_reduce
I0711 10:07:34.937554 119936 net.cpp:454] inception_4e/3x3_reduce <- inception_4d/output_inception_4d/output_0_split_2
I0711 10:07:34.937568 119936 net.cpp:411] inception_4e/3x3_reduce -> inception_4e/3x3_reduce
I0711 10:07:34.940264 119936 cudnn_conv_layer.cpp:194] Reallocating workspace storage: 6336
I0711 10:07:34.940330 119936 net.cpp:150] Setting up inception_4e/3x3_reduce
I0711 10:07:34.940359 119936 net.cpp:157] Top shape: 100 160 14 14 (3136000)
I0711 10:07:34.940369 119936 net.cpp:165] Memory required for data: 5087700416
I0711 10:07:34.940382 119936 layer_factory.hpp:76] Creating layer inception_4e/relu_3x3_reduce
I0711 10:07:34.940394 119936 net.cpp:106] Creating Layer inception_4e/relu_3x3_reduce
I0711 10:07:34.940404 119936 net.cpp:454] inception_4e/relu_3x3_reduce <- inception_4e/3x3_reduce
I0711 10:07:34.940417 119936 net.cpp:397] inception_4e/relu_3x3_reduce -> inception_4e/3x3_reduce (in-place)
I0711 10:07:34.940672 119936 net.cpp:150] Setting up inception_4e/relu_3x3_reduce
I0711 10:07:34.940701 119936 net.cpp:157] Top shape: 100 160 14 14 (3136000)
I0711 10:07:34.940711 119936 net.cpp:165] Memory required for data: 5100244416
I0711 10:07:34.940721 119936 layer_factory.hpp:76] Creating layer inception_4e/3x3
I0711 10:07:34.940765 119936 net.cpp:106] Creating Layer inception_4e/3x3
I0711 10:07:34.940778 119936 net.cpp:454] inception_4e/3x3 <- inception_4e/3x3_reduce
I0711 10:07:34.940790 119936 net.cpp:411] inception_4e/3x3 -> inception_4e/3x3
I0711 10:07:34.946367 119936 cudnn_conv_layer.cpp:194] Reallocating workspace storage: 17280
I0711 10:07:34.946410 119936 net.cpp:150] Setting up inception_4e/3x3
I0711 10:07:34.946424 119936 net.cpp:157] Top shape: 100 320 14 14 (6272000)
I0711 10:07:34.946434 119936 net.cpp:165] Memory required for data: 5125332416
I0711 10:07:34.946446 119936 layer_factory.hpp:76] Creating layer inception_4e/relu_3x3
I0711 10:07:34.946460 119936 net.cpp:106] Creating Layer inception_4e/relu_3x3
I0711 10:07:34.946470 119936 net.cpp:454] inception_4e/relu_3x3 <- inception_4e/3x3
I0711 10:07:34.946483 119936 net.cpp:397] inception_4e/relu_3x3 -> inception_4e/3x3 (in-place)
I0711 10:07:34.946925 119936 net.cpp:150] Setting up inception_4e/relu_3x3
I0711 10:07:34.946957 119936 net.cpp:157] Top shape: 100 320 14 14 (6272000)
I0711 10:07:34.946966 119936 net.cpp:165] Memory required for data: 5150420416
I0711 10:07:34.946976 119936 layer_factory.hpp:76] Creating layer inception_4e/5x5_reduce
I0711 10:07:34.947006 119936 net.cpp:106] Creating Layer inception_4e/5x5_reduce
I0711 10:07:34.947016 119936 net.cpp:454] inception_4e/5x5_reduce <- inception_4d/output_inception_4d/output_0_split_3
I0711 10:07:34.947041 119936 net.cpp:411] inception_4e/5x5_reduce -> inception_4e/5x5_reduce
I0711 10:07:34.948571 119936 cudnn_conv_layer.cpp:194] Reallocating workspace storage: 6336
I0711 10:07:34.948634 119936 net.cpp:150] Setting up inception_4e/5x5_reduce
I0711 10:07:34.948663 119936 net.cpp:157] Top shape: 100 32 14 14 (627200)
I0711 10:07:34.948673 119936 net.cpp:165] Memory required for data: 5152929216
I0711 10:07:34.948685 119936 layer_factory.hpp:76] Creating layer inception_4e/relu_5x5_reduce
I0711 10:07:34.948700 119936 net.cpp:106] Creating Layer inception_4e/relu_5x5_reduce
I0711 10:07:34.948727 119936 net.cpp:454] inception_4e/relu_5x5_reduce <- inception_4e/5x5_reduce
I0711 10:07:34.948740 119936 net.cpp:397] inception_4e/relu_5x5_reduce -> inception_4e/5x5_reduce (in-place)
I0711 10:07:34.948992 119936 net.cpp:150] Setting up inception_4e/relu_5x5_reduce
I0711 10:07:34.949025 119936 net.cpp:157] Top shape: 100 32 14 14 (627200)
I0711 10:07:34.949036 119936 net.cpp:165] Memory required for data: 5155438016
I0711 10:07:34.949045 119936 layer_factory.hpp:76] Creating layer inception_4e/5x5
I0711 10:07:34.949061 119936 net.cpp:106] Creating Layer inception_4e/5x5
I0711 10:07:34.949072 119936 net.cpp:454] inception_4e/5x5 <- inception_4e/5x5_reduce
I0711 10:07:34.949084 119936 net.cpp:411] inception_4e/5x5 -> inception_4e/5x5
I0711 10:07:34.951328 119936 net.cpp:150] Setting up inception_4e/5x5
I0711 10:07:34.951360 119936 net.cpp:157] Top shape: 100 128 14 14 (2508800)
I0711 10:07:34.951370 119936 net.cpp:165] Memory required for data: 5165473216
I0711 10:07:34.951382 119936 layer_factory.hpp:76] Creating layer inception_4e/relu_5x5
I0711 10:07:34.951397 119936 net.cpp:106] Creating Layer inception_4e/relu_5x5
I0711 10:07:34.951407 119936 net.cpp:454] inception_4e/relu_5x5 <- inception_4e/5x5
I0711 10:07:34.951417 119936 net.cpp:397] inception_4e/relu_5x5 -> inception_4e/5x5 (in-place)
I0711 10:07:34.951705 119936 net.cpp:150] Setting up inception_4e/relu_5x5
I0711 10:07:34.951735 119936 net.cpp:157] Top shape: 100 128 14 14 (2508800)
I0711 10:07:34.951743 119936 net.cpp:165] Memory required for data: 5175508416
I0711 10:07:34.951752 119936 layer_factory.hpp:76] Creating layer inception_4e/pool
I0711 10:07:34.951764 119936 net.cpp:106] Creating Layer inception_4e/pool
I0711 10:07:34.951773 119936 net.cpp:454] inception_4e/pool <- inception_4d/output_inception_4d/output_0_split_4
I0711 10:07:34.951786 119936 net.cpp:411] inception_4e/pool -> inception_4e/pool
I0711 10:07:34.952340 119936 net.cpp:150] Setting up inception_4e/pool
I0711 10:07:34.952371 119936 net.cpp:157] Top shape: 100 528 14 14 (10348800)
I0711 10:07:34.952380 119936 net.cpp:165] Memory required for data: 5216903616
I0711 10:07:34.952389 119936 layer_factory.hpp:76] Creating layer inception_4e/pool_proj
I0711 10:07:34.952406 119936 net.cpp:106] Creating Layer inception_4e/pool_proj
I0711 10:07:34.952416 119936 net.cpp:454] inception_4e/pool_proj <- inception_4e/pool
I0711 10:07:34.952442 119936 net.cpp:411] inception_4e/pool_proj -> inception_4e/pool_proj
I0711 10:07:34.954284 119936 cudnn_conv_layer.cpp:194] Reallocating workspace storage: 6336
I0711 10:07:34.954349 119936 net.cpp:150] Setting up inception_4e/pool_proj
I0711 10:07:34.954377 119936 net.cpp:157] Top shape: 100 128 14 14 (2508800)
I0711 10:07:34.954386 119936 net.cpp:165] Memory required for data: 5226938816
I0711 10:07:34.954399 119936 layer_factory.hpp:76] Creating layer inception_4e/relu_pool_proj
I0711 10:07:34.954414 119936 net.cpp:106] Creating Layer inception_4e/relu_pool_proj
I0711 10:07:34.954426 119936 net.cpp:454] inception_4e/relu_pool_proj <- inception_4e/pool_proj
I0711 10:07:34.954437 119936 net.cpp:397] inception_4e/relu_pool_proj -> inception_4e/pool_proj (in-place)
I0711 10:07:34.954710 119936 net.cpp:150] Setting up inception_4e/relu_pool_proj
I0711 10:07:34.954740 119936 net.cpp:157] Top shape: 100 128 14 14 (2508800)
I0711 10:07:34.954748 119936 net.cpp:165] Memory required for data: 5236974016
I0711 10:07:34.954758 119936 layer_factory.hpp:76] Creating layer inception_4e/output
I0711 10:07:34.954773 119936 net.cpp:106] Creating Layer inception_4e/output
I0711 10:07:34.954782 119936 net.cpp:454] inception_4e/output <- inception_4e/1x1
I0711 10:07:34.954792 119936 net.cpp:454] inception_4e/output <- inception_4e/3x3
I0711 10:07:34.954803 119936 net.cpp:454] inception_4e/output <- inception_4e/5x5
I0711 10:07:34.954813 119936 net.cpp:454] inception_4e/output <- inception_4e/pool_proj
I0711 10:07:34.954823 119936 net.cpp:411] inception_4e/output -> inception_4e/output
I0711 10:07:34.954880 119936 net.cpp:150] Setting up inception_4e/output
I0711 10:07:34.954919 119936 net.cpp:157] Top shape: 100 832 14 14 (16307200)
I0711 10:07:34.954929 119936 net.cpp:165] Memory required for data: 5302202816
I0711 10:07:34.954938 119936 layer_factory.hpp:76] Creating layer pool4/3x3_s2
I0711 10:07:34.954951 119936 net.cpp:106] Creating Layer pool4/3x3_s2
I0711 10:07:34.954959 119936 net.cpp:454] pool4/3x3_s2 <- inception_4e/output
I0711 10:07:34.954972 119936 net.cpp:411] pool4/3x3_s2 -> pool4/3x3_s2
I0711 10:07:34.955497 119936 net.cpp:150] Setting up pool4/3x3_s2
I0711 10:07:34.955528 119936 net.cpp:157] Top shape: 100 832 7 7 (4076800)
I0711 10:07:34.955538 119936 net.cpp:165] Memory required for data: 5318510016
I0711 10:07:34.955548 119936 layer_factory.hpp:76] Creating layer pool4/3x3_s2_pool4/3x3_s2_0_split
I0711 10:07:34.955561 119936 net.cpp:106] Creating Layer pool4/3x3_s2_pool4/3x3_s2_0_split
I0711 10:07:34.955571 119936 net.cpp:454] pool4/3x3_s2_pool4/3x3_s2_0_split <- pool4/3x3_s2
I0711 10:07:34.955581 119936 net.cpp:411] pool4/3x3_s2_pool4/3x3_s2_0_split -> pool4/3x3_s2_pool4/3x3_s2_0_split_0
I0711 10:07:34.955606 119936 net.cpp:411] pool4/3x3_s2_pool4/3x3_s2_0_split -> pool4/3x3_s2_pool4/3x3_s2_0_split_1
I0711 10:07:34.955618 119936 net.cpp:411] pool4/3x3_s2_pool4/3x3_s2_0_split -> pool4/3x3_s2_pool4/3x3_s2_0_split_2
I0711 10:07:34.955631 119936 net.cpp:411] pool4/3x3_s2_pool4/3x3_s2_0_split -> pool4/3x3_s2_pool4/3x3_s2_0_split_3
I0711 10:07:34.955755 119936 net.cpp:150] Setting up pool4/3x3_s2_pool4/3x3_s2_0_split
I0711 10:07:34.955782 119936 net.cpp:157] Top shape: 100 832 7 7 (4076800)
I0711 10:07:34.955792 119936 net.cpp:157] Top shape: 100 832 7 7 (4076800)
I0711 10:07:34.955802 119936 net.cpp:157] Top shape: 100 832 7 7 (4076800)
I0711 10:07:34.955812 119936 net.cpp:157] Top shape: 100 832 7 7 (4076800)
I0711 10:07:34.955821 119936 net.cpp:165] Memory required for data: 5383738816
I0711 10:07:34.955829 119936 layer_factory.hpp:76] Creating layer inception_5a/1x1
I0711 10:07:34.955845 119936 net.cpp:106] Creating Layer inception_5a/1x1
I0711 10:07:34.955857 119936 net.cpp:454] inception_5a/1x1 <- pool4/3x3_s2_pool4/3x3_s2_0_split_0
I0711 10:07:34.955870 119936 net.cpp:411] inception_5a/1x1 -> inception_5a/1x1
I0711 10:07:34.959396 119936 cudnn_conv_layer.cpp:194] Reallocating workspace storage: 9984
I0711 10:07:34.959471 119936 net.cpp:150] Setting up inception_5a/1x1
I0711 10:07:34.959488 119936 net.cpp:157] Top shape: 100 256 7 7 (1254400)
I0711 10:07:34.959497 119936 net.cpp:165] Memory required for data: 5388756416
I0711 10:07:34.959511 119936 layer_factory.hpp:76] Creating layer inception_5a/relu_1x1
I0711 10:07:34.959528 119936 net.cpp:106] Creating Layer inception_5a/relu_1x1
I0711 10:07:34.959538 119936 net.cpp:454] inception_5a/relu_1x1 <- inception_5a/1x1
I0711 10:07:34.959550 119936 net.cpp:397] inception_5a/relu_1x1 -> inception_5a/1x1 (in-place)
I0711 10:07:34.959825 119936 net.cpp:150] Setting up inception_5a/relu_1x1
I0711 10:07:34.959852 119936 net.cpp:157] Top shape: 100 256 7 7 (1254400)
I0711 10:07:34.959873 119936 net.cpp:165] Memory required for data: 5393774016
I0711 10:07:34.959882 119936 layer_factory.hpp:76] Creating layer inception_5a/3x3_reduce
I0711 10:07:34.959898 119936 net.cpp:106] Creating Layer inception_5a/3x3_reduce
I0711 10:07:34.959908 119936 net.cpp:454] inception_5a/3x3_reduce <- pool4/3x3_s2_pool4/3x3_s2_0_split_1
I0711 10:07:34.959920 119936 net.cpp:411] inception_5a/3x3_reduce -> inception_5a/3x3_reduce
I0711 10:07:34.963042 119936 cudnn_conv_layer.cpp:194] Reallocating workspace storage: 9984
I0711 10:07:34.963117 119936 net.cpp:150] Setting up inception_5a/3x3_reduce
I0711 10:07:34.963135 119936 net.cpp:157] Top shape: 100 160 7 7 (784000)
I0711 10:07:34.963145 119936 net.cpp:165] Memory required for data: 5396910016
I0711 10:07:34.963157 119936 layer_factory.hpp:76] Creating layer inception_5a/relu_3x3_reduce
I0711 10:07:34.963171 119936 net.cpp:106] Creating Layer inception_5a/relu_3x3_reduce
I0711 10:07:34.963181 119936 net.cpp:454] inception_5a/relu_3x3_reduce <- inception_5a/3x3_reduce
I0711 10:07:34.963208 119936 net.cpp:397] inception_5a/relu_3x3_reduce -> inception_5a/3x3_reduce (in-place)
I0711 10:07:34.963649 119936 net.cpp:150] Setting up inception_5a/relu_3x3_reduce
I0711 10:07:34.963682 119936 net.cpp:157] Top shape: 100 160 7 7 (784000)
I0711 10:07:34.963692 119936 net.cpp:165] Memory required for data: 5400046016
I0711 10:07:34.963713 119936 layer_factory.hpp:76] Creating layer inception_5a/3x3
I0711 10:07:34.963731 119936 net.cpp:106] Creating Layer inception_5a/3x3
I0711 10:07:34.963740 119936 net.cpp:454] inception_5a/3x3 <- inception_5a/3x3_reduce
I0711 10:07:34.963767 119936 net.cpp:411] inception_5a/3x3 -> inception_5a/3x3
I0711 10:07:34.969488 119936 net.cpp:150] Setting up inception_5a/3x3
I0711 10:07:34.969526 119936 net.cpp:157] Top shape: 100 320 7 7 (1568000)
I0711 10:07:34.969535 119936 net.cpp:165] Memory required for data: 5406318016
I0711 10:07:34.969547 119936 layer_factory.hpp:76] Creating layer inception_5a/relu_3x3
I0711 10:07:34.969560 119936 net.cpp:106] Creating Layer inception_5a/relu_3x3
I0711 10:07:34.969569 119936 net.cpp:454] inception_5a/relu_3x3 <- inception_5a/3x3
I0711 10:07:34.969594 119936 net.cpp:397] inception_5a/relu_3x3 -> inception_5a/3x3 (in-place)
I0711 10:07:34.970016 119936 net.cpp:150] Setting up inception_5a/relu_3x3
I0711 10:07:34.970048 119936 net.cpp:157] Top shape: 100 320 7 7 (1568000)
I0711 10:07:34.970058 119936 net.cpp:165] Memory required for data: 5412590016
I0711 10:07:34.970068 119936 layer_factory.hpp:76] Creating layer inception_5a/5x5_reduce
I0711 10:07:34.970084 119936 net.cpp:106] Creating Layer inception_5a/5x5_reduce
I0711 10:07:34.970095 119936 net.cpp:454] inception_5a/5x5_reduce <- pool4/3x3_s2_pool4/3x3_s2_0_split_2
I0711 10:07:34.970108 119936 net.cpp:411] inception_5a/5x5_reduce -> inception_5a/5x5_reduce
I0711 10:07:34.972458 119936 net.cpp:150] Setting up inception_5a/5x5_reduce
I0711 10:07:34.972492 119936 net.cpp:157] Top shape: 100 32 7 7 (156800)
I0711 10:07:34.972501 119936 net.cpp:165] Memory required for data: 5413217216
I0711 10:07:34.972513 119936 layer_factory.hpp:76] Creating layer inception_5a/relu_5x5_reduce
I0711 10:07:34.972528 119936 net.cpp:106] Creating Layer inception_5a/relu_5x5_reduce
I0711 10:07:34.972539 119936 net.cpp:454] inception_5a/relu_5x5_reduce <- inception_5a/5x5_reduce
I0711 10:07:34.972564 119936 net.cpp:397] inception_5a/relu_5x5_reduce -> inception_5a/5x5_reduce (in-place)
I0711 10:07:34.972841 119936 net.cpp:150] Setting up inception_5a/relu_5x5_reduce
I0711 10:07:34.972869 119936 net.cpp:157] Top shape: 100 32 7 7 (156800)
I0711 10:07:34.972879 119936 net.cpp:165] Memory required for data: 5413844416
I0711 10:07:34.972888 119936 layer_factory.hpp:76] Creating layer inception_5a/5x5
I0711 10:07:34.972904 119936 net.cpp:106] Creating Layer inception_5a/5x5
I0711 10:07:34.972914 119936 net.cpp:454] inception_5a/5x5 <- inception_5a/5x5_reduce
I0711 10:07:34.972940 119936 net.cpp:411] inception_5a/5x5 -> inception_5a/5x5
I0711 10:07:34.975071 119936 net.cpp:150] Setting up inception_5a/5x5
I0711 10:07:34.975103 119936 net.cpp:157] Top shape: 100 128 7 7 (627200)
I0711 10:07:34.975113 119936 net.cpp:165] Memory required for data: 5416353216
I0711 10:07:34.975126 119936 layer_factory.hpp:76] Creating layer inception_5a/relu_5x5
I0711 10:07:34.975139 119936 net.cpp:106] Creating Layer inception_5a/relu_5x5
I0711 10:07:34.975150 119936 net.cpp:454] inception_5a/relu_5x5 <- inception_5a/5x5
I0711 10:07:34.975160 119936 net.cpp:397] inception_5a/relu_5x5 -> inception_5a/5x5 (in-place)
I0711 10:07:34.975613 119936 net.cpp:150] Setting up inception_5a/relu_5x5
I0711 10:07:34.975657 119936 net.cpp:157] Top shape: 100 128 7 7 (627200)
I0711 10:07:34.975667 119936 net.cpp:165] Memory required for data: 5418862016
I0711 10:07:34.975677 119936 layer_factory.hpp:76] Creating layer inception_5a/pool
I0711 10:07:34.975692 119936 net.cpp:106] Creating Layer inception_5a/pool
I0711 10:07:34.975713 119936 net.cpp:454] inception_5a/pool <- pool4/3x3_s2_pool4/3x3_s2_0_split_3
I0711 10:07:34.975724 119936 net.cpp:411] inception_5a/pool -> inception_5a/pool
I0711 10:07:34.976117 119936 net.cpp:150] Setting up inception_5a/pool
I0711 10:07:34.976150 119936 net.cpp:157] Top shape: 100 832 7 7 (4076800)
I0711 10:07:34.976160 119936 net.cpp:165] Memory required for data: 5435169216
I0711 10:07:34.976168 119936 layer_factory.hpp:76] Creating layer inception_5a/pool_proj
I0711 10:07:34.976184 119936 net.cpp:106] Creating Layer inception_5a/pool_proj
I0711 10:07:34.976194 119936 net.cpp:454] inception_5a/pool_proj <- inception_5a/pool
I0711 10:07:34.976220 119936 net.cpp:411] inception_5a/pool_proj -> inception_5a/pool_proj
I0711 10:07:34.979132 119936 cudnn_conv_layer.cpp:194] Reallocating workspace storage: 9984
I0711 10:07:34.979198 119936 net.cpp:150] Setting up inception_5a/pool_proj
I0711 10:07:34.979230 119936 net.cpp:157] Top shape: 100 128 7 7 (627200)
I0711 10:07:34.979240 119936 net.cpp:165] Memory required for data: 5437678016
I0711 10:07:34.979254 119936 layer_factory.hpp:76] Creating layer inception_5a/relu_pool_proj
I0711 10:07:34.979265 119936 net.cpp:106] Creating Layer inception_5a/relu_pool_proj
I0711 10:07:34.979275 119936 net.cpp:454] inception_5a/relu_pool_proj <- inception_5a/pool_proj
I0711 10:07:34.979287 119936 net.cpp:397] inception_5a/relu_pool_proj -> inception_5a/pool_proj (in-place)
I0711 10:07:34.979553 119936 net.cpp:150] Setting up inception_5a/relu_pool_proj
I0711 10:07:34.979583 119936 net.cpp:157] Top shape: 100 128 7 7 (627200)
I0711 10:07:34.979591 119936 net.cpp:165] Memory required for data: 5440186816
I0711 10:07:34.979600 119936 layer_factory.hpp:76] Creating layer inception_5a/output
I0711 10:07:34.979612 119936 net.cpp:106] Creating Layer inception_5a/output
I0711 10:07:34.979622 119936 net.cpp:454] inception_5a/output <- inception_5a/1x1
I0711 10:07:34.979632 119936 net.cpp:454] inception_5a/output <- inception_5a/3x3
I0711 10:07:34.979645 119936 net.cpp:454] inception_5a/output <- inception_5a/5x5
I0711 10:07:34.979655 119936 net.cpp:454] inception_5a/output <- inception_5a/pool_proj
I0711 10:07:34.979665 119936 net.cpp:411] inception_5a/output -> inception_5a/output
I0711 10:07:34.979722 119936 net.cpp:150] Setting up inception_5a/output
I0711 10:07:34.979738 119936 net.cpp:157] Top shape: 100 832 7 7 (4076800)
I0711 10:07:34.979748 119936 net.cpp:165] Memory required for data: 5456494016
I0711 10:07:34.979756 119936 layer_factory.hpp:76] Creating layer inception_5a/output_inception_5a/output_0_split
I0711 10:07:34.979774 119936 net.cpp:106] Creating Layer inception_5a/output_inception_5a/output_0_split
I0711 10:07:34.979784 119936 net.cpp:454] inception_5a/output_inception_5a/output_0_split <- inception_5a/output
I0711 10:07:34.979795 119936 net.cpp:411] inception_5a/output_inception_5a/output_0_split -> inception_5a/output_inception_5a/output_0_split_0
I0711 10:07:34.979811 119936 net.cpp:411] inception_5a/output_inception_5a/output_0_split -> inception_5a/output_inception_5a/output_0_split_1
I0711 10:07:34.979823 119936 net.cpp:411] inception_5a/output_inception_5a/output_0_split -> inception_5a/output_inception_5a/output_0_split_2
I0711 10:07:34.979835 119936 net.cpp:411] inception_5a/output_inception_5a/output_0_split -> inception_5a/output_inception_5a/output_0_split_3
I0711 10:07:34.979979 119936 net.cpp:150] Setting up inception_5a/output_inception_5a/output_0_split
I0711 10:07:34.979995 119936 net.cpp:157] Top shape: 100 832 7 7 (4076800)
I0711 10:07:34.980005 119936 net.cpp:157] Top shape: 100 832 7 7 (4076800)
I0711 10:07:34.980015 119936 net.cpp:157] Top shape: 100 832 7 7 (4076800)
I0711 10:07:34.980024 119936 net.cpp:157] Top shape: 100 832 7 7 (4076800)
I0711 10:07:34.980032 119936 net.cpp:165] Memory required for data: 5521722816
I0711 10:07:34.980041 119936 layer_factory.hpp:76] Creating layer inception_5b/1x1
I0711 10:07:34.980057 119936 net.cpp:106] Creating Layer inception_5b/1x1
I0711 10:07:34.980067 119936 net.cpp:454] inception_5b/1x1 <- inception_5a/output_inception_5a/output_0_split_0
I0711 10:07:34.980082 119936 net.cpp:411] inception_5b/1x1 -> inception_5b/1x1
I0711 10:07:34.984452 119936 cudnn_conv_layer.cpp:194] Reallocating workspace storage: 9984
I0711 10:07:34.984520 119936 net.cpp:150] Setting up inception_5b/1x1
I0711 10:07:34.984537 119936 net.cpp:157] Top shape: 100 384 7 7 (1881600)
I0711 10:07:34.984547 119936 net.cpp:165] Memory required for data: 5529249216
I0711 10:07:34.984560 119936 layer_factory.hpp:76] Creating layer inception_5b/relu_1x1
I0711 10:07:34.984571 119936 net.cpp:106] Creating Layer inception_5b/relu_1x1
I0711 10:07:34.984582 119936 net.cpp:454] inception_5b/relu_1x1 <- inception_5b/1x1
I0711 10:07:34.984596 119936 net.cpp:397] inception_5b/relu_1x1 -> inception_5b/1x1 (in-place)
I0711 10:07:34.985067 119936 net.cpp:150] Setting up inception_5b/relu_1x1
I0711 10:07:34.985098 119936 net.cpp:157] Top shape: 100 384 7 7 (1881600)
I0711 10:07:34.985108 119936 net.cpp:165] Memory required for data: 5536775616
I0711 10:07:34.985117 119936 layer_factory.hpp:76] Creating layer inception_5b/3x3_reduce
I0711 10:07:34.985134 119936 net.cpp:106] Creating Layer inception_5b/3x3_reduce
I0711 10:07:34.985144 119936 net.cpp:454] inception_5b/3x3_reduce <- inception_5a/output_inception_5a/output_0_split_1
I0711 10:07:34.985159 119936 net.cpp:411] inception_5b/3x3_reduce -> inception_5b/3x3_reduce
I0711 10:07:34.988370 119936 cudnn_conv_layer.cpp:194] Reallocating workspace storage: 9984
I0711 10:07:34.988437 119936 net.cpp:150] Setting up inception_5b/3x3_reduce
I0711 10:07:34.988466 119936 net.cpp:157] Top shape: 100 192 7 7 (940800)
I0711 10:07:34.988476 119936 net.cpp:165] Memory required for data: 5540538816
I0711 10:07:34.988488 119936 layer_factory.hpp:76] Creating layer inception_5b/relu_3x3_reduce
I0711 10:07:34.988504 119936 net.cpp:106] Creating Layer inception_5b/relu_3x3_reduce
I0711 10:07:34.988517 119936 net.cpp:454] inception_5b/relu_3x3_reduce <- inception_5b/3x3_reduce
I0711 10:07:34.988528 119936 net.cpp:397] inception_5b/relu_3x3_reduce -> inception_5b/3x3_reduce (in-place)
I0711 10:07:34.988798 119936 net.cpp:150] Setting up inception_5b/relu_3x3_reduce
I0711 10:07:34.988827 119936 net.cpp:157] Top shape: 100 192 7 7 (940800)
I0711 10:07:34.988836 119936 net.cpp:165] Memory required for data: 5544302016
I0711 10:07:34.988844 119936 layer_factory.hpp:76] Creating layer inception_5b/3x3
I0711 10:07:34.988876 119936 net.cpp:106] Creating Layer inception_5b/3x3
I0711 10:07:34.988886 119936 net.cpp:454] inception_5b/3x3 <- inception_5b/3x3_reduce
I0711 10:07:34.988898 119936 net.cpp:411] inception_5b/3x3 -> inception_5b/3x3
I0711 10:07:34.996803 119936 net.cpp:150] Setting up inception_5b/3x3
I0711 10:07:34.996837 119936 net.cpp:157] Top shape: 100 384 7 7 (1881600)
I0711 10:07:34.996847 119936 net.cpp:165] Memory required for data: 5551828416
I0711 10:07:34.996860 119936 layer_factory.hpp:76] Creating layer inception_5b/relu_3x3
I0711 10:07:34.996871 119936 net.cpp:106] Creating Layer inception_5b/relu_3x3
I0711 10:07:34.996881 119936 net.cpp:454] inception_5b/relu_3x3 <- inception_5b/3x3
I0711 10:07:34.996892 119936 net.cpp:397] inception_5b/relu_3x3 -> inception_5b/3x3 (in-place)
I0711 10:07:34.997187 119936 net.cpp:150] Setting up inception_5b/relu_3x3
I0711 10:07:34.997216 119936 net.cpp:157] Top shape: 100 384 7 7 (1881600)
I0711 10:07:34.997225 119936 net.cpp:165] Memory required for data: 5559354816
I0711 10:07:34.997234 119936 layer_factory.hpp:76] Creating layer inception_5b/5x5_reduce
I0711 10:07:34.997251 119936 net.cpp:106] Creating Layer inception_5b/5x5_reduce
I0711 10:07:34.997261 119936 net.cpp:454] inception_5b/5x5_reduce <- inception_5a/output_inception_5a/output_0_split_2
I0711 10:07:34.997287 119936 net.cpp:411] inception_5b/5x5_reduce -> inception_5b/5x5_reduce
I0711 10:07:34.998905 119936 net.cpp:150] Setting up inception_5b/5x5_reduce
I0711 10:07:34.998940 119936 net.cpp:157] Top shape: 100 48 7 7 (235200)
I0711 10:07:34.998950 119936 net.cpp:165] Memory required for data: 5560295616
I0711 10:07:34.998963 119936 layer_factory.hpp:76] Creating layer inception_5b/relu_5x5_reduce
I0711 10:07:34.998976 119936 net.cpp:106] Creating Layer inception_5b/relu_5x5_reduce
I0711 10:07:34.999013 119936 net.cpp:454] inception_5b/relu_5x5_reduce <- inception_5b/5x5_reduce
I0711 10:07:34.999025 119936 net.cpp:397] inception_5b/relu_5x5_reduce -> inception_5b/5x5_reduce (in-place)
I0711 10:07:34.999665 119936 net.cpp:150] Setting up inception_5b/relu_5x5_reduce
I0711 10:07:34.999696 119936 net.cpp:157] Top shape: 100 48 7 7 (235200)
I0711 10:07:34.999706 119936 net.cpp:165] Memory required for data: 5561236416
I0711 10:07:34.999716 119936 layer_factory.hpp:76] Creating layer inception_5b/5x5
I0711 10:07:34.999732 119936 net.cpp:106] Creating Layer inception_5b/5x5
I0711 10:07:34.999743 119936 net.cpp:454] inception_5b/5x5 <- inception_5b/5x5_reduce
I0711 10:07:34.999768 119936 net.cpp:411] inception_5b/5x5 -> inception_5b/5x5
I0711 10:07:35.002102 119936 net.cpp:150] Setting up inception_5b/5x5
I0711 10:07:35.002136 119936 net.cpp:157] Top shape: 100 128 7 7 (627200)
I0711 10:07:35.002146 119936 net.cpp:165] Memory required for data: 5563745216
I0711 10:07:35.002157 119936 layer_factory.hpp:76] Creating layer inception_5b/relu_5x5
I0711 10:07:35.002173 119936 net.cpp:106] Creating Layer inception_5b/relu_5x5
I0711 10:07:35.002183 119936 net.cpp:454] inception_5b/relu_5x5 <- inception_5b/5x5
I0711 10:07:35.002208 119936 net.cpp:397] inception_5b/relu_5x5 -> inception_5b/5x5 (in-place)
I0711 10:07:35.002491 119936 net.cpp:150] Setting up inception_5b/relu_5x5
I0711 10:07:35.002521 119936 net.cpp:157] Top shape: 100 128 7 7 (627200)
I0711 10:07:35.002531 119936 net.cpp:165] Memory required for data: 5566254016
I0711 10:07:35.002539 119936 layer_factory.hpp:76] Creating layer inception_5b/pool
I0711 10:07:35.002550 119936 net.cpp:106] Creating Layer inception_5b/pool
I0711 10:07:35.002559 119936 net.cpp:454] inception_5b/pool <- inception_5a/output_inception_5a/output_0_split_3
I0711 10:07:35.002573 119936 net.cpp:411] inception_5b/pool -> inception_5b/pool
I0711 10:07:35.003093 119936 net.cpp:150] Setting up inception_5b/pool
I0711 10:07:35.003124 119936 net.cpp:157] Top shape: 100 832 7 7 (4076800)
I0711 10:07:35.003134 119936 net.cpp:165] Memory required for data: 5582561216
I0711 10:07:35.003144 119936 layer_factory.hpp:76] Creating layer inception_5b/pool_proj
I0711 10:07:35.003159 119936 net.cpp:106] Creating Layer inception_5b/pool_proj
I0711 10:07:35.003170 119936 net.cpp:454] inception_5b/pool_proj <- inception_5b/pool
I0711 10:07:35.003195 119936 net.cpp:411] inception_5b/pool_proj -> inception_5b/pool_proj
I0711 10:07:35.005877 119936 cudnn_conv_layer.cpp:194] Reallocating workspace storage: 9984
I0711 10:07:35.005960 119936 net.cpp:150] Setting up inception_5b/pool_proj
I0711 10:07:35.005977 119936 net.cpp:157] Top shape: 100 128 7 7 (627200)
I0711 10:07:35.005986 119936 net.cpp:165] Memory required for data: 5585070016
I0711 10:07:35.006000 119936 layer_factory.hpp:76] Creating layer inception_5b/relu_pool_proj
I0711 10:07:35.006011 119936 net.cpp:106] Creating Layer inception_5b/relu_pool_proj
I0711 10:07:35.006024 119936 net.cpp:454] inception_5b/relu_pool_proj <- inception_5b/pool_proj
I0711 10:07:35.006036 119936 net.cpp:397] inception_5b/relu_pool_proj -> inception_5b/pool_proj (in-place)
I0711 10:07:35.006480 119936 net.cpp:150] Setting up inception_5b/relu_pool_proj
I0711 10:07:35.006520 119936 net.cpp:157] Top shape: 100 128 7 7 (627200)
I0711 10:07:35.006539 119936 net.cpp:165] Memory required for data: 5587578816
I0711 10:07:35.006549 119936 layer_factory.hpp:76] Creating layer inception_5b/output
I0711 10:07:35.006563 119936 net.cpp:106] Creating Layer inception_5b/output
I0711 10:07:35.006573 119936 net.cpp:454] inception_5b/output <- inception_5b/1x1
I0711 10:07:35.006583 119936 net.cpp:454] inception_5b/output <- inception_5b/3x3
I0711 10:07:35.006605 119936 net.cpp:454] inception_5b/output <- inception_5b/5x5
I0711 10:07:35.006615 119936 net.cpp:454] inception_5b/output <- inception_5b/pool_proj
I0711 10:07:35.006628 119936 net.cpp:411] inception_5b/output -> inception_5b/output
I0711 10:07:35.006675 119936 net.cpp:150] Setting up inception_5b/output
I0711 10:07:35.006705 119936 net.cpp:157] Top shape: 100 1024 7 7 (5017600)
I0711 10:07:35.006714 119936 net.cpp:165] Memory required for data: 5607649216
I0711 10:07:35.006723 119936 layer_factory.hpp:76] Creating layer pool5/7x7_s1
I0711 10:07:35.006737 119936 net.cpp:106] Creating Layer pool5/7x7_s1
I0711 10:07:35.006747 119936 net.cpp:454] pool5/7x7_s1 <- inception_5b/output
I0711 10:07:35.006762 119936 net.cpp:411] pool5/7x7_s1 -> pool5/7x7_s1
I0711 10:07:35.007060 119936 net.cpp:150] Setting up pool5/7x7_s1
I0711 10:07:35.007088 119936 net.cpp:157] Top shape: 100 1024 1 1 (102400)
I0711 10:07:35.007098 119936 net.cpp:165] Memory required for data: 5608058816
I0711 10:07:35.007118 119936 layer_factory.hpp:76] Creating layer pool5/drop_7x7_s1
I0711 10:07:35.007133 119936 net.cpp:106] Creating Layer pool5/drop_7x7_s1
I0711 10:07:35.007143 119936 net.cpp:454] pool5/drop_7x7_s1 <- pool5/7x7_s1
I0711 10:07:35.007153 119936 net.cpp:397] pool5/drop_7x7_s1 -> pool5/7x7_s1 (in-place)
I0711 10:07:35.007200 119936 net.cpp:150] Setting up pool5/drop_7x7_s1
I0711 10:07:35.007215 119936 net.cpp:157] Top shape: 100 1024 1 1 (102400)
I0711 10:07:35.007223 119936 net.cpp:165] Memory required for data: 5608468416
I0711 10:07:35.007232 119936 layer_factory.hpp:76] Creating layer loss3/classifier
I0711 10:07:35.007246 119936 net.cpp:106] Creating Layer loss3/classifier
I0711 10:07:35.007257 119936 net.cpp:454] loss3/classifier <- pool5/7x7_s1
I0711 10:07:35.007269 119936 net.cpp:411] loss3/classifier -> loss3/classifier
I0711 10:07:35.007475 119936 net.cpp:150] Setting up loss3/classifier
I0711 10:07:35.007503 119936 net.cpp:157] Top shape: 100 2 (200)
I0711 10:07:35.007511 119936 net.cpp:165] Memory required for data: 5608469216
I0711 10:07:35.007524 119936 layer_factory.hpp:76] Creating layer loss3/classifier_loss3/classifier_0_split
I0711 10:07:35.007546 119936 net.cpp:106] Creating Layer loss3/classifier_loss3/classifier_0_split
I0711 10:07:35.007556 119936 net.cpp:454] loss3/classifier_loss3/classifier_0_split <- loss3/classifier
I0711 10:07:35.007566 119936 net.cpp:411] loss3/classifier_loss3/classifier_0_split -> loss3/classifier_loss3/classifier_0_split_0
I0711 10:07:35.007580 119936 net.cpp:411] loss3/classifier_loss3/classifier_0_split -> loss3/classifier_loss3/classifier_0_split_1
I0711 10:07:35.007628 119936 net.cpp:150] Setting up loss3/classifier_loss3/classifier_0_split
I0711 10:07:35.007642 119936 net.cpp:157] Top shape: 100 2 (200)
I0711 10:07:35.007652 119936 net.cpp:157] Top shape: 100 2 (200)
I0711 10:07:35.007660 119936 net.cpp:165] Memory required for data: 5608470816
I0711 10:07:35.007669 119936 layer_factory.hpp:76] Creating layer loss3/loss3
I0711 10:07:35.007684 119936 net.cpp:106] Creating Layer loss3/loss3
I0711 10:07:35.007694 119936 net.cpp:454] loss3/loss3 <- loss3/classifier_loss3/classifier_0_split_0
I0711 10:07:35.007704 119936 net.cpp:454] loss3/loss3 <- label_data_1_split_4
…
