…
I0711 09:59:39.962510 119437 net.cpp:49] Initializing net from parameters: 
name: "GoogleNet"
state {
  phase: TRAIN
}
layer {
  name: "data"
  type: "ImageData"
  top: "data"
  top: "label"
  include {
    phase: TRAIN
  }
  transform_param {
    mirror: true
    crop_size: 224
    mean_value: 104
    mean_value: 117
    mean_value: 123
  }
  image_data_param {
    source: "/data/dywang/Database/Proliferation/libs/stage04_mitosisDetection/training_examples/train2.lst"
    batch_size: 32
    shuffle: true
    new_height: 256
    new_width: 256
  }
}
layer {
  name: "conv1/7x7_s2"
  type: "Convolution"
  bottom: "data"
  top: "conv1/7x7_s2"
  param {
    lr_mult: 1
    decay_mult: 1
  }
  param {
    lr_mult: 2
    decay_mult: 0
  }
  convolution_param {
    num_output: 64
    pad: 3
    kernel_size: 7
    stride: 2
    weight_filler {
      type: "xavier"
    }
    bias_filler {
      type: "constant"
      value: 0.2
    }
  }
}
layer {
  name: "conv1/relu_7x7"
  type: "ReLU"
  bottom: "conv1/7x7_s2"
  top: "conv1/7x7_s2"
}
layer {
  name: "pool1/3x3_s2"
  type: "Pooling"
  bottom: "conv1/7x7_s2"
  top: "pool1/3x3_s2"
  pooling_param {
    pool: MAX
    kernel_size: 3
    stride: 2
  }
}
layer {
  name: "pool1/norm1"
  type: "LRN"
  bottom: "pool1/3x3_s2"
  top: "pool1/norm1"
  lrn_param {
    local_size: 5
    alpha: 0.0001
    beta: 0.75
  }
}
layer {
  name: "conv2/3x3_reduce"
  type: "Convolution"
  bottom: "pool1/norm1"
  top: "conv2/3x3_reduce"
  param {
    lr_mult: 1
    decay_mult: 1
  }
  param {
    lr_mult: 2
    decay_mult: 0
  }
  convolution_param {
    num_output: 64
    kernel_size: 1
    weight_filler {
      type: "xavier"
    }
    bias_filler {
      type: "constant"
      value: 0.2
    }
  }
}
layer {
  name: "conv2/relu_3x3_reduce"
  type: "ReLU"
  bottom: "conv2/3x3_reduce"
  top: "conv2/3x3_reduce"
}
layer {
  name: "conv2/3x3"
  type: "Convolution"
  bottom: "conv2/3x3_reduce"
  top: "conv2/3x3"
  param {
    lr_mult: 1
    decay_mult: 1
  }
  param {
    lr_mult: 2
    decay_mult: 0
  }
  convolution_param {
    num_output: 192
    pad: 1
    kernel_size: 3
    weight_filler {
      type: "xavier"
    }
    bias_filler {
      type: "constant"
      value: 0.2
    }
  }
}
layer {
  name: "conv2/relu_3x3"
  type: "ReLU"
  bottom: "conv2/3x3"
  top: "conv2/3x3"
}
layer {
  name: "conv2/norm2"
  type: "LRN"
  bottom: "conv2/3x3"
  top: "conv2/norm2"
  lrn_param {
    local_size: 5
    alpha: 0.0001
    beta: 0.75
  }
}
layer {
  name: "pool2/3x3_s2"
  type: "Pooling"
  bottom: "conv2/norm2"
  top: "pool2/3x3_s2"
  pooling_param {
    pool: MAX
    kernel_size: 3
    stride: 2
  }
}
layer {
  name: "inception_3a/1x1"
  type: "Convolution"
  bottom: "pool2/3x3_s2"
  top: "inception_3a/1x1"
  param {
    lr_mult: 1
    decay_mult: 1
  }
  param {
    lr_mult: 2
    decay_mult: 0
  }
  convolution_param {
    num_output: 64
    kernel_size: 1
    weight_filler {
      type: "xavier"
    }
    bias_filler {
      type: "constant"
      value: 0.2
    }
  }
}
layer {
  name: "inception_3a/relu_1x1"
  type: "ReLU"
  bottom: "inception_3a/1x1"
  top: "inception_3a/1x1"
}
layer {
  name: "inception_3a/3x3_reduce"
  type: "Convolution"
  bottom: "pool2/3x3_s2"
  top: "inception_3a/3x3_reduce"
  param {
    lr_mult: 1
    decay_mult: 1
  }
  param {
    lr_mult: 2
    decay_mult: 0
  }
  convolution_param {
    num_output: 96
    kernel_size: 1
    weight_filler {
      type: "xavier"
    }
    bias_filler {
      type: "constant"
      value: 0.2
    }
  }
}
layer {
  name: "inception_3a/relu_3x3_reduce"
  type: "ReLU"
  bottom: "inception_3a/3x3_reduce"
  top: "inception_3a/3x3_reduce"
}
layer {
  name: "inception_3a/3x3"
  type: "Convolution"
  bottom: "inception_3a/3x3_reduce"
  top: "inception_3a/3x3"
  param {
    lr_mult: 1
    decay_mult: 1
  }
  param {
    lr_mult: 2
    decay_mult: 0
  }
  convolution_param {
    num_output: 128
    pad: 1
    kernel_size: 3
    weight_filler {
      type: "xavier"
    }
    bias_filler {
      type: "constant"
      value: 0.2
    }
  }
}
layer {
  name: "inception_3a/relu_3x3"
  type: "ReLU"
  bottom: "inception_3a/3x3"
  top: "inception_3a/3x3"
}
layer {
  name: "inception_3a/5x5_reduce"
  type: "Convolution"
  bottom: "pool2/3x3_s2"
  top: "inception_3a/5x5_reduce"
  param {
    lr_mult: 1
    decay_mult: 1
  }
  param {
    lr_mult: 2
    decay_mult: 0
  }
  convolution_param {
    num_output: 16
    kernel_size: 1
    weight_filler {
      type: "xavier"
    }
    bias_filler {
      type: "constant"
      value: 0.2
    }
  }
}
layer {
  name: "inception_3a/relu_5x5_reduce"
  type: "ReLU"
  bottom: "inception_3a/5x5_reduce"
  top: "inception_3a/5x5_reduce"
}
layer {
  name: "inception_3a/5x5"
  type: "Convolution"
  bottom: "inception_3a/5x5_reduce"
  top: "inception_3a/5x5"
  param {
    lr_mult: 1
    decay_mult: 1
  }
  param {
    lr_mult: 2
    decay_mult: 0
  }
  convolution_param {
    num_output: 32
    pad: 2
    kernel_size: 5
    weight_filler {
      type: "xavier"
    }
    bias_filler {
      type: "constant"
      value: 0.2
    }
  }
}
layer {
  name: "inception_3a/relu_5x5"
  type: "ReLU"
  bottom: "inception_3a/5x5"
  top: "inception_3a/5x5"
}
layer {
  name: "inception_3a/pool"
  type: "Pooling"
  bottom: "pool2/3x3_s2"
  top: "inception_3a/pool"
  pooling_param {
    pool: MAX
    kernel_size: 3
    stride: 1
    pad: 1
  }
}
layer {
  name: "inception_3a/pool_proj"
  type: "Convolution"
  bottom: "inception_3a/pool"
  top: "inception_3a/pool_proj"
  param {
    lr_mult: 1
    decay_mult: 1
  }
  param {
    lr_mult: 2
    decay_mult: 0
  }
  convolution_param {
    num_output: 32
    kernel_size: 1
    weight_filler {
      type: "xavier"
    }
    bias_filler {
      type: "constant"
      value: 0.2
    }
  }
}
layer {
  name: "inception_3a/relu_pool_proj"
  type: "ReLU"
  bottom: "inception_3a/pool_proj"
  top: "inception_3a/pool_proj"
}
layer {
  name: "inception_3a/output"
  type: "Concat"
  bottom: "inception_3a/1x1"
  bottom: "inception_3a/3x3"
  bottom: "inception_3a/5x5"
  bottom: "inception_3a/pool_proj"
  top: "inception_3a/output"
}
layer {
  name: "inception_3b/1x1"
  type: "Convolution"
  bottom: "inception_3a/output"
  top: "inception_3b/1x1"
  param {
    lr_mult: 1
    decay_mult: 1
  }
  param {
    lr_mult: 2
    decay_mult: 0
  }
  convolution_param {
    num_output: 128
    kernel_size: 1
    weight_filler {
      type: "xavier"
    }
    bias_filler {
      type: "constant"
      value: 0.2
    }
  }
}
layer {
  name: "inception_3b/relu_1x1"
  type: "ReLU"
  bottom: "inception_3b/1x1"
  top: "inception_3b/1x1"
}
layer {
  name: "inception_3b/3x3_reduce"
  type: "Convolution"
  bottom: "inception_3a/output"
  top: "inception_3b/3x3_reduce"
  param {
    lr_mult: 1
    decay_mult: 1
  }
  param {
    lr_mult: 2
    decay_mult: 0
  }
  convolution_param {
    num_output: 128
    kernel_size: 1
    weight_filler {
      type: "xavier"
    }
    bias_filler {
      type: "constant"
      value: 0.2
    }
  }
}
layer {
  name: "inception_3b/relu_3x3_reduce"
  type: "ReLU"
  bottom: "inception_3b/3x3_reduce"
  top: "inception_3b/3x3_reduce"
}
layer {
  name: "inception_3b/3x3"
  type: "Convolution"
  bottom: "inception_3b/3x3_reduce"
  top: "inception_3b/3x3"
  param {
    lr_mult: 1
    decay_mult: 1
  }
  param {
    lr_mult: 2
    decay_mult: 0
  }
  convolution_param {
    num_output: 192
    pad: 1
    kernel_size: 3
    weight_filler {
      type: "xavier"
    }
    bias_filler {
      type: "constant"
      value: 0.2
    }
  }
}
layer {
  name: "inception_3b/relu_3x3"
  type: "ReLU"
  bottom: "inception_3b/3x3"
  top: "inception_3b/3x3"
}
layer {
  name: "inception_3b/5x5_reduce"
  type: "Convolution"
  bottom: "inception_3a/output"
  top: "inception_3b/5x5_reduce"
  param {
    lr_mult: 1
    decay_mult: 1
  }
  param {
    lr_mult: 2
    decay_mult: 0
  }
  convolution_param {
    num_output: 32
    kernel_size: 1
    weight_filler {
      type: "xavier"
    }
    bias_filler {
      type: "constant"
      value: 0.2
    }
  }
}
layer {
  name: "inception_3b/relu_5x5_reduce"
  type: "ReLU"
  bottom: "inception_3b/5x5_reduce"
  top: "inception_3b/5x5_reduce"
}
layer {
  name: "inception_3b/5x5"
  type: "Convolution"
  bottom: "inception_3b/5x5_reduce"
  top: "inception_3b/5x5"
  param {
    lr_mult: 1
    decay_mult: 1
  }
  param {
    lr_mult: 2
    decay_mult: 0
  }
  convolution_param {
    num_output: 96
    pad: 2
    kernel_size: 5
    weight_filler {
      type: "xavier"
    }
    bias_filler {
      type: "constant"
      value: 0.2
    }
  }
}
layer {
  name: "inception_3b/relu_5x5"
  type: "ReLU"
  bottom: "inception_3b/5x5"
  top: "inception_3b/5x5"
}
layer {
  name: "inception_3b/pool"
  type: "Pooling"
  bottom: "inception_3a/output"
  top: "inception_3b/pool"
  pooling_param {
    pool: MAX
    kernel_size: 3
    stride: 1
    pad: 1
  }
}
layer {
  name: "inception_3b/pool_proj"
  type: "Convolution"
  bottom: "inception_3b/pool"
  top: "inception_3b/pool_proj"
  param {
    lr_mult: 1
    decay_mult: 1
  }
  param {
    lr_mult: 2
    decay_mult: 0
  }
  convolution_param {
    num_output: 64
    kernel_size: 1
    weight_filler {
      type: "xavier"
    }
    bias_filler {
      type: "constant"
      value: 0.2
    }
  }
}
layer {
  name: "inception_3b/relu_pool_proj"
  type: "ReLU"
  bottom: "inception_3b/pool_proj"
  top: "inception_3b/pool_proj"
}
layer {
  name: "inception_3b/output"
  type: "Concat"
  bottom: "inception_3b/1x1"
  bottom: "inception_3b/3x3"
  bottom: "inception_3b/5x5"
  bottom: "inception_3b/pool_proj"
  top: "inception_3b/output"
}
layer {
  name: "pool3/3x3_s2"
  type: "Pooling"
  bottom: "inception_3b/output"
  top: "pool3/3x3_s2"
  pooling_param {
    pool: MAX
    kernel_size: 3
    stride: 2
  }
}
layer {
  name: "inception_4a/1x1"
  type: "Convolution"
  bottom: "pool3/3x3_s2"
  top: "inception_4a/1x1"
  param {
    lr_mult: 1
    decay_mult: 1
  }
  param {
    lr_mult: 2
    decay_mult: 0
  }
  convolution_param {
    num_output: 192
    kernel_size: 1
    weight_filler {
      type: "xavier"
    }
    bias_filler {
      type: "constant"
      value: 0.2
    }
  }
}
layer {
  name: "inception_4a/relu_1x1"
  type: "ReLU"
  bottom: "inception_4a/1x1"
  top: "inception_4a/1x1"
}
layer {
  name: "inception_4a/3x3_reduce"
  type: "Convolution"
  bottom: "pool3/3x3_s2"
  top: "inception_4a/3x3_reduce"
  param {
    lr_mult: 1
    decay_mult: 1
  }
  param {
    lr_mult: 2
    decay_mult: 0
  }
  convolution_param {
    num_output: 96
    kernel_size: 1
    weight_filler {
      type: "xavier"
    }
    bias_filler {
      type: "constant"
      value: 0.2
    }
  }
}
layer {
  name: "inception_4a/relu_3x3_reduce"
  type: "ReLU"
  bottom: "inception_4a/3x3_reduce"
  top: "inception_4a/3x3_reduce"
}
layer {
  name: "inception_4a/3x3"
  type: "Convolution"
  bottom: "inception_4a/3x3_reduce"
  top: "inception_4a/3x3"
  param {
    lr_mult: 1
    decay_mult: 1
  }
  param {
    lr_mult: 2
    decay_mult: 0
  }
  convolution_param {
    num_output: 208
    pad: 1
    kernel_size: 3
    weight_filler {
      type: "xavier"
    }
    bias_filler {
      type: "constant"
      value: 0.2
    }
  }
}
layer {
  name: "inception_4a/relu_3x3"
  type: "ReLU"
  bottom: "inception_4a/3x3"
  top: "inception_4a/3x3"
}
layer {
  name: "inception_4a/5x5_reduce"
  type: "Convolution"
  bottom: "pool3/3x3_s2"
  top: "inception_4a/5x5_reduce"
  param {
    lr_mult: 1
    decay_mult: 1
  }
  param {
    lr_mult: 2
    decay_mult: 0
  }
  convolution_param {
    num_output: 16
    kernel_size: 1
    weight_filler {
      type: "xavier"
    }
    bias_filler {
      type: "constant"
      value: 0.2
    }
  }
}
layer {
  name: "inception_4a/relu_5x5_reduce"
  type: "ReLU"
  bottom: "inception_4a/5x5_reduce"
  top: "inception_4a/5x5_reduce"
}
layer {
  name: "inception_4a/5x5"
  type: "Convolution"
  bottom: "inception_4a/5x5_reduce"
  top: "inception_4a/5x5"
  param {
    lr_mult: 1
    decay_mult: 1
  }
  param {
    lr_mult: 2
    decay_mult: 0
  }
  convolution_param {
    num_output: 48
    pad: 2
    kernel_size: 5
    weight_filler {
      type: "xavier"
    }
    bias_filler {
      type: "constant"
      value: 0.2
    }
  }
}
layer {
  name: "inception_4a/relu_5x5"
  type: "ReLU"
  bottom: "inception_4a/5x5"
  top: "inception_4a/5x5"
}
layer {
  name: "inception_4a/pool"
  type: "Pooling"
  bottom: "pool3/3x3_s2"
  top: "inception_4a/pool"
  pooling_param {
    pool: MAX
    kernel_size: 3
    stride: 1
    pad: 1
  }
}
layer {
  name: "inception_4a/pool_proj"
  type: "Convolution"
  bottom: "inception_4a/pool"
  top: "inception_4a/pool_proj"
  param {
    lr_mult: 1
    decay_mult: 1
  }
  param {
    lr_mult: 2
    decay_mult: 0
  }
  convolution_param {
    num_output: 64
    kernel_size: 1
    weight_filler {
      type: "xavier"
    }
    bias_filler {
      type: "constant"
      value: 0.2
    }
  }
}
layer {
  name: "inception_4a/relu_pool_proj"
  type: "ReLU"
  bottom: "inception_4a/pool_proj"
  top: "inception_4a/pool_proj"
}
layer {
  name: "inception_4a/output"
  type: "Concat"
  bottom: "inception_4a/1x1"
  bottom: "inception_4a/3x3"
  bottom: "inception_4a/5x5"
  bottom: "inception_4a/pool_proj"
  top: "inception_4a/output"
}
layer {
  name: "loss1/ave_pool"
  type: "Pooling"
  bottom: "inception_4a/output"
  top: "loss1/ave_pool"
  pooling_param {
    pool: AVE
    kernel_size: 5
    stride: 3
  }
}
layer {
  name: "loss1/conv"
  type: "Convolution"
  bottom: "loss1/ave_pool"
  top: "loss1/conv"
  param {
    lr_mult: 1
    decay_mult: 1
  }
  param {
    lr_mult: 2
    decay_mult: 0
  }
  convolution_param {
    num_output: 128
    kernel_size: 1
    weight_filler {
      type: "xavier"
    }
    bias_filler {
      type: "constant"
      value: 0.2
    }
  }
}
layer {
  name: "loss1/relu_conv"
  type: "ReLU"
  bottom: "loss1/conv"
  top: "loss1/conv"
}
layer {
  name: "loss1/fc"
  type: "InnerProduct"
  bottom: "loss1/conv"
  top: "loss1/fc"
  param {
    lr_mult: 1
    decay_mult: 1
  }
  param {
    lr_mult: 2
    decay_mult: 0
  }
  inner_product_param {
    num_output: 1024
    weight_filler {
      type: "xavier"
    }
    bias_filler {
      type: "constant"
      value: 0.2
    }
  }
}
layer {
  name: "loss1/relu_fc"
  type: "ReLU"
  bottom: "loss1/fc"
  top: "loss1/fc"
}
layer {
  name: "loss1/drop_fc"
  type: "Dropout"
  bottom: "loss1/fc"
  top: "loss1/fc"
  dropout_param {
    dropout_ratio: 0.7
  }
}
layer {
  name: "loss1/classifier"
  type: "InnerProduct"
  bottom: "loss1/fc"
  top: "loss1/classifier"
  param {
    lr_mult: 1
    decay_mult: 1
  }
  param {
    lr_mult: 2
    decay_mult: 0
  }
  inner_product_param {
    num_output: 2
    weight_filler {
      type: "xavier"
    }
    bias_filler {
      type: "constant"
      value: 0
    }
  }
}
layer {
  name: "loss1/loss"
  type: "SoftmaxWithLoss"
  bottom: "loss1/classifier"
  bottom: "label"
  top: "loss1/loss1"
  loss_weight: 0.3
}
layer {
  name: "inception_4b/1x1"
  type: "Convolution"
  bottom: "inception_4a/output"
  top: "inception_4b/1x1"
  param {
    lr_mult: 1
    decay_mult: 1
  }
  param {
    lr_mult: 2
    decay_mult: 0
  }
  convolution_param {
    num_output: 160
    kernel_size: 1
    weight_filler {
      type: "xavier"
    }
    bias_filler {
      type: "constant"
      value: 0.2
    }
  }
}
layer {
  name: "inception_4b/relu_1x1"
  type: "ReLU"
  bottom: "inception_4b/1x1"
  top: "inception_4b/1x1"
}
layer {
  name: "inception_4b/3x3_reduce"
  type: "Convolution"
  bottom: "inception_4a/output"
  top: "inception_4b/3x3_reduce"
  param {
    lr_mult: 1
    decay_mult: 1
  }
  param {
    lr_mult: 2
    decay_mult: 0
  }
  convolution_param {
    num_output: 112
    kernel_size: 1
    weight_filler {
      type: "xavier"
    }
    bias_filler {
      type: "constant"
      value: 0.2
    }
  }
}
layer {
  name: "inception_4b/relu_3x3_reduce"
  type: "ReLU"
  bottom: "inception_4b/3x3_reduce"
  top: "inception_4b/3x3_reduce"
}
layer {
  name: "inception_4b/3x3"
  type: "Convolution"
  bottom: "inception_4b/3x3_reduce"
  top: "inception_4b/3x3"
  param {
    lr_mult: 1
    decay_mult: 1
  }
  param {
    lr_mult: 2
    decay_mult: 0
  }
  convolution_param {
    num_output: 224
    pad: 1
    kernel_size: 3
    weight_filler {
      type: "xavier"
    }
    bias_filler {
      type: "constant"
      value: 0.2
    }
  }
}
layer {
  name: "inception_4b/relu_3x3"
  type: "ReLU"
  bottom: "inception_4b/3x3"
  top: "inception_4b/3x3"
}
layer {
  name: "inception_4b/5x5_reduce"
  type: "Convolution"
  bottom: "inception_4a/output"
  top: "inception_4b/5x5_reduce"
  param {
    lr_mult: 1
    decay_mult: 1
  }
  param {
    lr_mult: 2
    decay_mult: 0
  }
  convolution_param {
    num_output: 24
    kernel_size: 1
    weight_filler {
      type: "xavier"
    }
    bias_filler {
      type: "constant"
      value: 0.2
    }
  }
}
layer {
  name: "inception_4b/relu_5x5_reduce"
  type: "ReLU"
  bottom: "inception_4b/5x5_reduce"
  top: "inception_4b/5x5_reduce"
}
layer {
  name: "inception_4b/5x5"
  type: "Convolution"
  bottom: "inception_4b/5x5_reduce"
  top: "inception_4b/5x5"
  param {
    lr_mult: 1
    decay_mult: 1
  }
  param {
    lr_mult: 2
    decay_mult: 0
  }
  convolution_param {
    num_output: 64
    pad: 2
    kernel_size: 5
    weight_filler {
      type: "xavier"
    }
    bias_filler {
      type: "constant"
      value: 0.2
    }
  }
}
layer {
  name: "inception_4b/relu_5x5"
  type: "ReLU"
  bottom: "inception_4b/5x5"
  top: "inception_4b/5x5"
}
layer {
  name: "inception_4b/pool"
  type: "Pooling"
  bottom: "inception_4a/output"
  top: "inception_4b/pool"
  pooling_param {
    pool: MAX
    kernel_size: 3
    stride: 1
    pad: 1
  }
}
layer {
  name: "inception_4b/pool_proj"
  type: "Convolution"
  bottom: "inception_4b/pool"
  top: "inception_4b/pool_proj"
  param {
    lr_mult: 1
    decay_mult: 1
  }
  param {
    lr_mult: 2
    decay_mult: 0
  }
  convolution_param {
    num_output: 64
    kernel_size: 1
    weight_filler {
      type: "xavier"
    }
    bias_filler {
      type: "constant"
      value: 0.2
    }
  }
}
layer {
  name: "inception_4b/relu_pool_proj"
  type: "ReLU"
  bottom: "inception_4b/pool_proj"
  top: "inception_4b/pool_proj"
}
layer {
  name: "inception_4b/output"
  type: "Concat"
  bottom: "inception_4b/1x1"
  bottom: "inception_4b/3x3"
  bottom: "inception_4b/5x5"
  bottom: "inception_4b/pool_proj"
  top: "inception_4b/output"
}
layer {
  name: "inception_4c/1x1"
  type: "Convolution"
  bottom: "inception_4b/output"
  top: "inception_4c/1x1"
  param {
    lr_mult: 1
    decay_mult: 1
  }
  param {
    lr_mult: 2
    decay_mult: 0
  }
  convolution_param {
    num_output: 128
    kernel_size: 1
    weight_filler {
      type: "xavier"
    }
    bias_filler {
      type: "constant"
      value: 0.2
    }
  }
}
layer {
  name: "inception_4c/relu_1x1"
  type: "ReLU"
  bottom: "inception_4c/1x1"
  top: "inception_4c/1x1"
}
layer {
  name: "inception_4c/3x3_reduce"
  type: "Convolution"
  bottom: "inception_4b/output"
  top: "inception_4c/3x3_reduce"
  param {
    lr_mult: 1
    decay_mult: 1
  }
  param {
    lr_mult: 2
    decay_mult: 0
  }
  convolution_param {
    num_output: 128
    kernel_size: 1
    weight_filler {
      type: "xavier"
    }
    bias_filler {
      type: "constant"
      value: 0.2
    }
  }
}
layer {
  name: "inception_4c/relu_3x3_reduce"
  type: "ReLU"
  bottom: "inception_4c/3x3_reduce"
  top: "inception_4c/3x3_reduce"
}
layer {
  name: "inception_4c/3x3"
  type: "Convolution"
  bottom: "inception_4c/3x3_reduce"
  top: "inception_4c/3x3"
  param {
    lr_mult: 1
    decay_mult: 1
  }
  param {
    lr_mult: 2
    decay_mult: 0
  }
  convolution_param {
    num_output: 256
    pad: 1
    kernel_size: 3
    weight_filler {
      type: "xavier"
    }
    bias_filler {
      type: "constant"
      value: 0.2
    }
  }
}
layer {
  name: "inception_4c/relu_3x3"
  type: "ReLU"
  bottom: "inception_4c/3x3"
  top: "inception_4c/3x3"
}
layer {
  name: "inception_4c/5x5_reduce"
  type: "Convolution"
  bottom: "inception_4b/output"
  top: "inception_4c/5x5_reduce"
  param {
    lr_mult: 1
    decay_mult: 1
  }
  param {
    lr_mult: 2
    decay_mult: 0
  }
  convolution_param {
    num_output: 24
    kernel_size: 1
    weight_filler {
      type: "xavier"
    }
    bias_filler {
      type: "constant"
      value: 0.2
    }
  }
}
layer {
  name: "inception_4c/relu_5x5_reduce"
  type: "ReLU"
  bottom: "inception_4c/5x5_reduce"
  top: "inception_4c/5x5_reduce"
}
layer {
  name: "inception_4c/5x5"
  type: "Convolution"
  bottom: "inception_4c/5x5_reduce"
  top: "inception_4c/5x5"
  param {
    lr_mult: 1
    decay_mult: 1
  }
  param {
    lr_mult: 2
    decay_mult: 0
  }
  convolution_param {
    num_output: 64
    pad: 2
    kernel_size: 5
    weight_filler {
      type: "xavier"
    }
    bias_filler {
      type: "constant"
      value: 0.2
    }
  }
}
layer {
  name: "inception_4c/relu_5x5"
  type: "ReLU"
  bottom: "inception_4c/5x5"
  top: "inception_4c/5x5"
}
layer {
  name: "inception_4c/pool"
  type: "Pooling"
  bottom: "inception_4b/output"
  top: "inception_4c/pool"
  pooling_param {
    pool: MAX
    kernel_size: 3
    stride: 1
    pad: 1
  }
}
layer {
  name: "inception_4c/pool_proj"
  type: "Convolution"
  bottom: "inception_4c/pool"
  top: "inception_4c/pool_proj"
  param {
    lr_mult: 1
    decay_mult: 1
  }
  param {
    lr_mult: 2
    decay_mult: 0
  }
  convolution_param {
    num_output: 64
    kernel_size: 1
    weight_filler {
      type: "xavier"
    }
    bias_filler {
      type: "constant"
      value: 0.2
    }
  }
}
layer {
  name: "inception_4c/relu_pool_proj"
  type: "ReLU"
  bottom: "inception_4c/pool_proj"
  top: "inception_4c/pool_proj"
}
layer {
  name: "inception_4c/output"
  type: "Concat"
  bottom: "inception_4c/1x1"
  bottom: "inception_4c/3x3"
  bottom: "inception_4c/5x5"
  bottom: "inception_4c/pool_proj"
  top: "inception_4c/output"
}
layer {
  name: "inception_4d/1x1"
  type: "Convolution"
  bottom: "inception_4c/output"
  top: "inception_4d/1x1"
  param {
    lr_mult: 1
    decay_mult: 1
  }
  param {
    lr_mult: 2
    decay_mult: 0
  }
  convolution_param {
    num_output: 112
    kernel_size: 1
    weight_filler {
      type: "xavier"
    }
    bias_filler {
      type: "constant"
      value: 0.2
    }
  }
}
layer {
  name: "inception_4d/relu_1x1"
  type: "ReLU"
  bottom: "inception_4d/1x1"
  top: "inception_4d/1x1"
}
layer {
  name: "inception_4d/3x3_reduce"
  type: "Convolution"
  bottom: "inception_4c/output"
  top: "inception_4d/3x3_reduce"
  param {
    lr_mult: 1
    decay_mult: 1
  }
  param {
    lr_mult: 2
    decay_mult: 0
  }
  convolution_param {
    num_output: 144
    kernel_size: 1
    weight_filler {
      type: "xavier"
    }
    bias_filler {
      type: "constant"
      value: 0.2
    }
  }
}
layer {
  name: "inception_4d/relu_3x3_reduce"
  type: "ReLU"
  bottom: "inception_4d/3x3_reduce"
  top: "inception_4d/3x3_reduce"
}
layer {
  name: "inception_4d/3x3"
  type: "Convolution"
  bottom: "inception_4d/3x3_reduce"
  top: "inception_4d/3x3"
  param {
    lr_mult: 1
    decay_mult: 1
  }
  param {
    lr_mult: 2
    decay_mult: 0
  }
  convolution_param {
    num_output: 288
    pad: 1
    kernel_size: 3
    weight_filler {
      type: "xavier"
    }
    bias_filler {
      type: "constant"
      value: 0.2
    }
  }
}
layer {
  name: "inception_4d/relu_3x3"
  type: "ReLU"
  bottom: "inception_4d/3x3"
  top: "inception_4d/3x3"
}
layer {
  name: "inception_4d/5x5_reduce"
  type: "Convolution"
  bottom: "inception_4c/output"
  top: "inception_4d/5x5_reduce"
  param {
    lr_mult: 1
    decay_mult: 1
  }
  param {
    lr_mult: 2
    decay_mult: 0
  }
  convolution_param {
    num_output: 32
    kernel_size: 1
    weight_filler {
      type: "xavier"
    }
    bias_filler {
      type: "constant"
      value: 0.2
    }
  }
}
layer {
  name: "inception_4d/relu_5x5_reduce"
  type: "ReLU"
  bottom: "inception_4d/5x5_reduce"
  top: "inception_4d/5x5_reduce"
}
layer {
  name: "inception_4d/5x5"
  type: "Convolution"
  bottom: "inception_4d/5x5_reduce"
  top: "inception_4d/5x5"
  param {
    lr_mult: 1
    decay_mult: 1
  }
  param {
    lr_mult: 2
    decay_mult: 0
  }
  convolution_param {
    num_output: 64
    pad: 2
    kernel_size: 5
    weight_filler {
      type: "xavier"
    }
    bias_filler {
      type: "constant"
      value: 0.2
    }
  }
}
layer {
  name: "inception_4d/relu_5x5"
  type: "ReLU"
  bottom: "inception_4d/5x5"
  top: "inception_4d/5x5"
}
layer {
  name: "inception_4d/pool"
  type: "Pooling"
  bottom: "inception_4c/output"
  top: "inception_4d/pool"
  pooling_param {
    pool: MAX
    kernel_size: 3
    stride: 1
    pad: 1
  }
}
layer {
  name: "inception_4d/pool_proj"
  type: "Convolution"
  bottom: "inception_4d/pool"
  top: "inception_4d/pool_proj"
  param {
    lr_mult: 1
    decay_mult: 1
  }
  param {
    lr_mult: 2
    decay_mult: 0
  }
  convolution_param {
    num_output: 64
    kernel_size: 1
    weight_filler {
      type: "xavier"
    }
    bias_filler {
      type: "constant"
      value: 0.2
    }
  }
}
layer {
  name: "inception_4d/relu_pool_proj"
  type: "ReLU"
  bottom: "inception_4d/pool_proj"
  top: "inception_4d/pool_proj"
}
layer {
  name: "inception_4d/output"
  type: "Concat"
  bottom: "inception_4d/1x1"
  bottom: "inception_4d/3x3"
  bottom: "inception_4d/5x5"
  bottom: "inception_4d/pool_proj"
  top: "inception_4d/output"
}
layer {
  name: "loss2/ave_pool"
  type: "Pooling"
  bottom: "inception_4d/output"
  top: "loss2/ave_pool"
  pooling_param {
    pool: AVE
    kernel_size: 5
    stride: 3
  }
}
layer {
  name: "loss2/conv"
  type: "Convolution"
  bottom: "loss2/ave_pool"
  top: "loss2/conv"
  param {
    lr_mult: 1
    decay_mult: 1
  }
  param {
    lr_mult: 2
    decay_mult: 0
  }
  convolution_param {
    num_output: 128
    kernel_size: 1
    weight_filler {
      type: "xavier"
    }
    bias_filler {
      type: "constant"
      value: 0.2
    }
  }
}
layer {
  name: "loss2/relu_conv"
  type: "ReLU"
  bottom: "loss2/conv"
  top: "loss2/conv"
}
layer {
  name: "loss2/fc"
  type: "InnerProduct"
  bottom: "loss2/conv"
  top: "loss2/fc"
  param {
    lr_mult: 1
    decay_mult: 1
  }
  param {
    lr_mult: 2
    decay_mult: 0
  }
  inner_product_param {
    num_output: 1024
    weight_filler {
      type: "xavier"
    }
    bias_filler {
      type: "constant"
      value: 0.2
    }
  }
}
layer {
  name: "loss2/relu_fc"
  type: "ReLU"
  bottom: "loss2/fc"
  top: "loss2/fc"
}
layer {
  name: "loss2/drop_fc"
  type: "Dropout"
  bottom: "loss2/fc"
  top: "loss2/fc"
  dropout_param {
    dropout_ratio: 0.7
  }
}
layer {
  name: "loss2/classifier"
  type: "InnerProduct"
  bottom: "loss2/fc"
  top: "loss2/classifier"
  param {
    lr_mult: 1
    decay_mult: 1
  }
  param {
    lr_mult: 2
    decay_mult: 0
  }
  inner_product_param {
    num_output: 2
    weight_filler {
      type: "xavier"
    }
    bias_filler {
      type: "constant"
      value: 0
    }
  }
}
layer {
  name: "loss2/loss"
  type: "SoftmaxWithLoss"
  bottom: "loss2/classifier"
  bottom: "label"
  top: "loss2/loss1"
  loss_weight: 0.3
}
layer {
  name: "inception_4e/1x1"
  type: "Convolution"
  bottom: "inception_4d/output"
  top: "inception_4e/1x1"
  param {
    lr_mult: 1
    decay_mult: 1
  }
  param {
    lr_mult: 2
    decay_mult: 0
  }
  convolution_param {
    num_output: 256
    kernel_size: 1
    weight_filler {
      type: "xavier"
    }
    bias_filler {
      type: "constant"
      value: 0.2
    }
  }
}
layer {
  name: "inception_4e/relu_1x1"
  type: "ReLU"
  bottom: "inception_4e/1x1"
  top: "inception_4e/1x1"
}
layer {
  name: "inception_4e/3x3_reduce"
  type: "Convolution"
  bottom: "inception_4d/output"
  top: "inception_4e/3x3_reduce"
  param {
    lr_mult: 1
    decay_mult: 1
  }
  param {
    lr_mult: 2
    decay_mult: 0
  }
  convolution_param {
    num_output: 160
    kernel_size: 1
    weight_filler {
      type: "xavier"
    }
    bias_filler {
      type: "constant"
      value: 0.2
    }
  }
}
layer {
  name: "inception_4e/relu_3x3_reduce"
  type: "ReLU"
  bottom: "inception_4e/3x3_reduce"
  top: "inception_4e/3x3_reduce"
}
layer {
  name: "inception_4e/3x3"
  type: "Convolution"
  bottom: "inception_4e/3x3_reduce"
  top: "inception_4e/3x3"
  param {
    lr_mult: 1
    decay_mult: 1
  }
  param {
    lr_mult: 2
    decay_mult: 0
  }
  convolution_param {
    num_output: 320
    pad: 1
    kernel_size: 3
    weight_filler {
      type: "xavier"
    }
    bias_filler {
      type: "constant"
      value: 0.2
    }
  }
}
layer {
  name: "inception_4e/relu_3x3"
  type: "ReLU"
  bottom: "inception_4e/3x3"
  top: "inception_4e/3x3"
}
layer {
  name: "inception_4e/5x5_reduce"
  type: "Convolution"
  bottom: "inception_4d/output"
  top: "inception_4e/5x5_reduce"
  param {
    lr_mult: 1
    decay_mult: 1
  }
  param {
    lr_mult: 2
    decay_mult: 0
  }
  convolution_param {
    num_output: 32
    kernel_size: 1
    weight_filler {
      type: "xavier"
    }
    bias_filler {
      type: "constant"
      value: 0.2
    }
  }
}
layer {
  name: "inception_4e/relu_5x5_reduce"
  type: "ReLU"
  bottom: "inception_4e/5x5_reduce"
  top: "inception_4e/5x5_reduce"
}
layer {
  name: "inception_4e/5x5"
  type: "Convolution"
  bottom: "inception_4e/5x5_reduce"
  top: "inception_4e/5x5"
  param {
    lr_mult: 1
    decay_mult: 1
  }
  param {
    lr_mult: 2
    decay_mult: 0
  }
  convolution_param {
    num_output: 128
    pad: 2
    kernel_size: 5
    weight_filler {
      type: "xavier"
    }
    bias_filler {
      type: "constant"
      value: 0.2
    }
  }
}
layer {
  name: "inception_4e/relu_5x5"
  type: "ReLU"
  bottom: "inception_4e/5x5"
  top: "inception_4e/5x5"
}
layer {
  name: "inception_4e/pool"
  type: "Pooling"
  bottom: "inception_4
I0711 09:59:39.968246 119437 layer_factory.hpp:76] Creating layer data
I0711 09:59:39.968302 119437 net.cpp:106] Creating Layer data
I0711 09:59:39.968323 119437 net.cpp:411] data -> data
I0711 09:59:39.968353 119437 net.cpp:411] data -> label
I0711 09:59:39.968773 119437 image_data_layer.cpp:36] Opening file /data/dywang/Database/Proliferation/libs/stage04_mitosisDetection/training_examples/train2.lst
I0711 09:59:39.996706 119437 image_data_layer.cpp:46] Shuffling data
I0711 09:59:40.002079 119437 image_data_layer.cpp:51] A total of 64722 images.
I0711 09:59:40.066488 119437 image_data_layer.cpp:78] output data size: 32,3,224,224
I0711 09:59:40.115223 119437 net.cpp:150] Setting up data
I0711 09:59:40.115283 119437 net.cpp:157] Top shape: 32 3 224 224 (4816896)
I0711 09:59:40.115294 119437 net.cpp:157] Top shape: 32 (32)
I0711 09:59:40.115303 119437 net.cpp:165] Memory required for data: 19267712
I0711 09:59:40.115315 119437 layer_factory.hpp:76] Creating layer label_data_1_split
I0711 09:59:40.115336 119437 net.cpp:106] Creating Layer label_data_1_split
I0711 09:59:40.115360 119437 net.cpp:454] label_data_1_split <- label
I0711 09:59:40.115377 119437 net.cpp:411] label_data_1_split -> label_data_1_split_0
I0711 09:59:40.115393 119437 net.cpp:411] label_data_1_split -> label_data_1_split_1
I0711 09:59:40.115406 119437 net.cpp:411] label_data_1_split -> label_data_1_split_2
I0711 09:59:40.115469 119437 net.cpp:150] Setting up label_data_1_split
I0711 09:59:40.115483 119437 net.cpp:157] Top shape: 32 (32)
I0711 09:59:40.115504 119437 net.cpp:157] Top shape: 32 (32)
I0711 09:59:40.115511 119437 net.cpp:157] Top shape: 32 (32)
I0711 09:59:40.115530 119437 net.cpp:165] Memory required for data: 19268096
I0711 09:59:40.115538 119437 layer_factory.hpp:76] Creating layer conv1/7x7_s2
I0711 09:59:40.115589 119437 net.cpp:106] Creating Layer conv1/7x7_s2
I0711 09:59:40.115600 119437 net.cpp:454] conv1/7x7_s2 <- data
I0711 09:59:40.115612 119437 net.cpp:411] conv1/7x7_s2 -> conv1/7x7_s2
I0711 09:59:40.238337 119437 net.cpp:150] Setting up conv1/7x7_s2
I0711 09:59:40.238385 119437 net.cpp:157] Top shape: 32 64 112 112 (25690112)
I0711 09:59:40.238394 119437 net.cpp:165] Memory required for data: 122028544
I0711 09:59:40.238425 119437 layer_factory.hpp:76] Creating layer conv1/relu_7x7
I0711 09:59:40.238442 119437 net.cpp:106] Creating Layer conv1/relu_7x7
I0711 09:59:40.238452 119437 net.cpp:454] conv1/relu_7x7 <- conv1/7x7_s2
I0711 09:59:40.238476 119437 net.cpp:397] conv1/relu_7x7 -> conv1/7x7_s2 (in-place)
I0711 09:59:40.238709 119437 net.cpp:150] Setting up conv1/relu_7x7
I0711 09:59:40.238726 119437 net.cpp:157] Top shape: 32 64 112 112 (25690112)
I0711 09:59:40.238734 119437 net.cpp:165] Memory required for data: 224788992
I0711 09:59:40.238755 119437 layer_factory.hpp:76] Creating layer pool1/3x3_s2
I0711 09:59:40.238781 119437 net.cpp:106] Creating Layer pool1/3x3_s2
I0711 09:59:40.238790 119437 net.cpp:454] pool1/3x3_s2 <- conv1/7x7_s2
I0711 09:59:40.238798 119437 net.cpp:411] pool1/3x3_s2 -> pool1/3x3_s2
I0711 09:59:40.239320 119437 net.cpp:150] Setting up pool1/3x3_s2
I0711 09:59:40.239351 119437 net.cpp:157] Top shape: 32 64 56 56 (6422528)
I0711 09:59:40.239359 119437 net.cpp:165] Memory required for data: 250479104
I0711 09:59:40.239367 119437 layer_factory.hpp:76] Creating layer pool1/norm1
I0711 09:59:40.239398 119437 net.cpp:106] Creating Layer pool1/norm1
I0711 09:59:40.239408 119437 net.cpp:454] pool1/norm1 <- pool1/3x3_s2
I0711 09:59:40.239418 119437 net.cpp:411] pool1/norm1 -> pool1/norm1
I0711 09:59:40.239670 119437 net.cpp:150] Setting up pool1/norm1
I0711 09:59:40.239686 119437 net.cpp:157] Top shape: 32 64 56 56 (6422528)
I0711 09:59:40.239706 119437 net.cpp:165] Memory required for data: 276169216
I0711 09:59:40.239714 119437 layer_factory.hpp:76] Creating layer conv2/3x3_reduce
I0711 09:59:40.239730 119437 net.cpp:106] Creating Layer conv2/3x3_reduce
I0711 09:59:40.239738 119437 net.cpp:454] conv2/3x3_reduce <- pool1/norm1
I0711 09:59:40.239763 119437 net.cpp:411] conv2/3x3_reduce -> conv2/3x3_reduce
I0711 09:59:40.241541 119437 cudnn_conv_layer.cpp:194] Reallocating workspace storage: 768
I0711 09:59:40.241583 119437 net.cpp:150] Setting up conv2/3x3_reduce
I0711 09:59:40.241598 119437 net.cpp:157] Top shape: 32 64 56 56 (6422528)
I0711 09:59:40.241606 119437 net.cpp:165] Memory required for data: 301859328
I0711 09:59:40.241631 119437 layer_factory.hpp:76] Creating layer conv2/relu_3x3_reduce
I0711 09:59:40.241644 119437 net.cpp:106] Creating Layer conv2/relu_3x3_reduce
I0711 09:59:40.241652 119437 net.cpp:454] conv2/relu_3x3_reduce <- conv2/3x3_reduce
I0711 09:59:40.241665 119437 net.cpp:397] conv2/relu_3x3_reduce -> conv2/3x3_reduce (in-place)
I0711 09:59:40.242032 119437 net.cpp:150] Setting up conv2/relu_3x3_reduce
I0711 09:59:40.242048 119437 net.cpp:157] Top shape: 32 64 56 56 (6422528)
I0711 09:59:40.242055 119437 net.cpp:165] Memory required for data: 327549440
I0711 09:59:40.242063 119437 layer_factory.hpp:76] Creating layer conv2/3x3
I0711 09:59:40.242099 119437 net.cpp:106] Creating Layer conv2/3x3
I0711 09:59:40.242120 119437 net.cpp:454] conv2/3x3 <- conv2/3x3_reduce
I0711 09:59:40.242132 119437 net.cpp:411] conv2/3x3 -> conv2/3x3
I0711 09:59:40.244539 119437 cudnn_conv_layer.cpp:194] Reallocating workspace storage: 6912
I0711 09:59:40.244757 119437 net.cpp:150] Setting up conv2/3x3
I0711 09:59:40.244774 119437 net.cpp:157] Top shape: 32 192 56 56 (19267584)
I0711 09:59:40.244781 119437 net.cpp:165] Memory required for data: 404619776
I0711 09:59:40.244793 119437 layer_factory.hpp:76] Creating layer conv2/relu_3x3
I0711 09:59:40.244804 119437 net.cpp:106] Creating Layer conv2/relu_3x3
I0711 09:59:40.244812 119437 net.cpp:454] conv2/relu_3x3 <- conv2/3x3
I0711 09:59:40.244822 119437 net.cpp:397] conv2/relu_3x3 -> conv2/3x3 (in-place)
I0711 09:59:40.245028 119437 net.cpp:150] Setting up conv2/relu_3x3
I0711 09:59:40.245045 119437 net.cpp:157] Top shape: 32 192 56 56 (19267584)
I0711 09:59:40.245052 119437 net.cpp:165] Memory required for data: 481690112
I0711 09:59:40.245059 119437 layer_factory.hpp:76] Creating layer conv2/norm2
I0711 09:59:40.245069 119437 net.cpp:106] Creating Layer conv2/norm2
I0711 09:59:40.245076 119437 net.cpp:454] conv2/norm2 <- conv2/3x3
I0711 09:59:40.245087 119437 net.cpp:411] conv2/norm2 -> conv2/norm2
I0711 09:59:40.245434 119437 net.cpp:150] Setting up conv2/norm2
I0711 09:59:40.245451 119437 net.cpp:157] Top shape: 32 192 56 56 (19267584)
I0711 09:59:40.245458 119437 net.cpp:165] Memory required for data: 558760448
I0711 09:59:40.245465 119437 layer_factory.hpp:76] Creating layer pool2/3x3_s2
I0711 09:59:40.245476 119437 net.cpp:106] Creating Layer pool2/3x3_s2
I0711 09:59:40.245482 119437 net.cpp:454] pool2/3x3_s2 <- conv2/norm2
I0711 09:59:40.245492 119437 net.cpp:411] pool2/3x3_s2 -> pool2/3x3_s2
I0711 09:59:40.245694 119437 net.cpp:150] Setting up pool2/3x3_s2
I0711 09:59:40.245710 119437 net.cpp:157] Top shape: 32 192 28 28 (4816896)
I0711 09:59:40.245718 119437 net.cpp:165] Memory required for data: 578028032
I0711 09:59:40.245724 119437 layer_factory.hpp:76] Creating layer pool2/3x3_s2_pool2/3x3_s2_0_split
I0711 09:59:40.245734 119437 net.cpp:106] Creating Layer pool2/3x3_s2_pool2/3x3_s2_0_split
I0711 09:59:40.245741 119437 net.cpp:454] pool2/3x3_s2_pool2/3x3_s2_0_split <- pool2/3x3_s2
I0711 09:59:40.245749 119437 net.cpp:411] pool2/3x3_s2_pool2/3x3_s2_0_split -> pool2/3x3_s2_pool2/3x3_s2_0_split_0
I0711 09:59:40.245759 119437 net.cpp:411] pool2/3x3_s2_pool2/3x3_s2_0_split -> pool2/3x3_s2_pool2/3x3_s2_0_split_1
I0711 09:59:40.245782 119437 net.cpp:411] pool2/3x3_s2_pool2/3x3_s2_0_split -> pool2/3x3_s2_pool2/3x3_s2_0_split_2
I0711 09:59:40.245792 119437 net.cpp:411] pool2/3x3_s2_pool2/3x3_s2_0_split -> pool2/3x3_s2_pool2/3x3_s2_0_split_3
I0711 09:59:40.245854 119437 net.cpp:150] Setting up pool2/3x3_s2_pool2/3x3_s2_0_split
I0711 09:59:40.245867 119437 net.cpp:157] Top shape: 32 192 28 28 (4816896)
I0711 09:59:40.245875 119437 net.cpp:157] Top shape: 32 192 28 28 (4816896)
I0711 09:59:40.245883 119437 net.cpp:157] Top shape: 32 192 28 28 (4816896)
I0711 09:59:40.245892 119437 net.cpp:157] Top shape: 32 192 28 28 (4816896)
I0711 09:59:40.245898 119437 net.cpp:165] Memory required for data: 655098368
I0711 09:59:40.245905 119437 layer_factory.hpp:76] Creating layer inception_3a/1x1
I0711 09:59:40.245919 119437 net.cpp:106] Creating Layer inception_3a/1x1
I0711 09:59:40.245929 119437 net.cpp:454] inception_3a/1x1 <- pool2/3x3_s2_pool2/3x3_s2_0_split_0
I0711 09:59:40.245939 119437 net.cpp:411] inception_3a/1x1 -> inception_3a/1x1
I0711 09:59:40.247660 119437 net.cpp:150] Setting up inception_3a/1x1
I0711 09:59:40.247691 119437 net.cpp:157] Top shape: 32 64 28 28 (1605632)
I0711 09:59:40.247699 119437 net.cpp:165] Memory required for data: 661520896
I0711 09:59:40.247711 119437 layer_factory.hpp:76] Creating layer inception_3a/relu_1x1
I0711 09:59:40.247725 119437 net.cpp:106] Creating Layer inception_3a/relu_1x1
I0711 09:59:40.247732 119437 net.cpp:454] inception_3a/relu_1x1 <- inception_3a/1x1
I0711 09:59:40.247742 119437 net.cpp:397] inception_3a/relu_1x1 -> inception_3a/1x1 (in-place)
I0711 09:59:40.248040 119437 net.cpp:150] Setting up inception_3a/relu_1x1
I0711 09:59:40.248057 119437 net.cpp:157] Top shape: 32 64 28 28 (1605632)
I0711 09:59:40.248064 119437 net.cpp:165] Memory required for data: 667943424
I0711 09:59:40.248071 119437 layer_factory.hpp:76] Creating layer inception_3a/3x3_reduce
I0711 09:59:40.248086 119437 net.cpp:106] Creating Layer inception_3a/3x3_reduce
I0711 09:59:40.248095 119437 net.cpp:454] inception_3a/3x3_reduce <- pool2/3x3_s2_pool2/3x3_s2_0_split_1
I0711 09:59:40.248106 119437 net.cpp:411] inception_3a/3x3_reduce -> inception_3a/3x3_reduce
I0711 09:59:40.249620 119437 cudnn_conv_layer.cpp:194] Reallocating workspace storage: 2304
I0711 09:59:40.249838 119437 net.cpp:150] Setting up inception_3a/3x3_reduce
I0711 09:59:40.249866 119437 net.cpp:157] Top shape: 32 96 28 28 (2408448)
I0711 09:59:40.249873 119437 net.cpp:165] Memory required for data: 677577216
I0711 09:59:40.249888 119437 layer_factory.hpp:76] Creating layer inception_3a/relu_3x3_reduce
I0711 09:59:40.249900 119437 net.cpp:106] Creating Layer inception_3a/relu_3x3_reduce
I0711 09:59:40.249908 119437 net.cpp:454] inception_3a/relu_3x3_reduce <- inception_3a/3x3_reduce
I0711 09:59:40.249917 119437 net.cpp:397] inception_3a/relu_3x3_reduce -> inception_3a/3x3_reduce (in-place)
I0711 09:59:40.250231 119437 net.cpp:150] Setting up inception_3a/relu_3x3_reduce
I0711 09:59:40.250248 119437 net.cpp:157] Top shape: 32 96 28 28 (2408448)
I0711 09:59:40.250255 119437 net.cpp:165] Memory required for data: 687211008
I0711 09:59:40.250262 119437 layer_factory.hpp:76] Creating layer inception_3a/3x3
I0711 09:59:40.250277 119437 net.cpp:106] Creating Layer inception_3a/3x3
I0711 09:59:40.250284 119437 net.cpp:454] inception_3a/3x3 <- inception_3a/3x3_reduce
I0711 09:59:40.250295 119437 net.cpp:411] inception_3a/3x3 -> inception_3a/3x3
I0711 09:59:40.251896 119437 net.cpp:150] Setting up inception_3a/3x3
I0711 09:59:40.251915 119437 net.cpp:157] Top shape: 32 128 28 28 (3211264)
I0711 09:59:40.251922 119437 net.cpp:165] Memory required for data: 700056064
I0711 09:59:40.251932 119437 layer_factory.hpp:76] Creating layer inception_3a/relu_3x3
I0711 09:59:40.251942 119437 net.cpp:106] Creating Layer inception_3a/relu_3x3
I0711 09:59:40.251950 119437 net.cpp:454] inception_3a/relu_3x3 <- inception_3a/3x3
I0711 09:59:40.251957 119437 net.cpp:397] inception_3a/relu_3x3 -> inception_3a/3x3 (in-place)
I0711 09:59:40.252147 119437 net.cpp:150] Setting up inception_3a/relu_3x3
I0711 09:59:40.252161 119437 net.cpp:157] Top shape: 32 128 28 28 (3211264)
I0711 09:59:40.252168 119437 net.cpp:165] Memory required for data: 712901120
I0711 09:59:40.252176 119437 layer_factory.hpp:76] Creating layer inception_3a/5x5_reduce
I0711 09:59:40.252188 119437 net.cpp:106] Creating Layer inception_3a/5x5_reduce
I0711 09:59:40.252197 119437 net.cpp:454] inception_3a/5x5_reduce <- pool2/3x3_s2_pool2/3x3_s2_0_split_2
I0711 09:59:40.252207 119437 net.cpp:411] inception_3a/5x5_reduce -> inception_3a/5x5_reduce
I0711 09:59:40.253317 119437 net.cpp:150] Setting up inception_3a/5x5_reduce
I0711 09:59:40.253345 119437 net.cpp:157] Top shape: 32 16 28 28 (401408)
I0711 09:59:40.253371 119437 net.cpp:165] Memory required for data: 714506752
I0711 09:59:40.253381 119437 layer_factory.hpp:76] Creating layer inception_3a/relu_5x5_reduce
I0711 09:59:40.253409 119437 net.cpp:106] Creating Layer inception_3a/relu_5x5_reduce
I0711 09:59:40.253418 119437 net.cpp:454] inception_3a/relu_5x5_reduce <- inception_3a/5x5_reduce
I0711 09:59:40.253428 119437 net.cpp:397] inception_3a/relu_5x5_reduce -> inception_3a/5x5_reduce (in-place)
I0711 09:59:40.253803 119437 net.cpp:150] Setting up inception_3a/relu_5x5_reduce
I0711 09:59:40.253831 119437 net.cpp:157] Top shape: 32 16 28 28 (401408)
I0711 09:59:40.253851 119437 net.cpp:165] Memory required for data: 716112384
I0711 09:59:40.253859 119437 layer_factory.hpp:76] Creating layer inception_3a/5x5
I0711 09:59:40.253876 119437 net.cpp:106] Creating Layer inception_3a/5x5
I0711 09:59:40.253885 119437 net.cpp:454] inception_3a/5x5 <- inception_3a/5x5_reduce
I0711 09:59:40.253906 119437 net.cpp:411] inception_3a/5x5 -> inception_3a/5x5
I0711 09:59:40.254935 119437 net.cpp:150] Setting up inception_3a/5x5
I0711 09:59:40.254964 119437 net.cpp:157] Top shape: 32 32 28 28 (802816)
I0711 09:59:40.254972 119437 net.cpp:165] Memory required for data: 719323648
I0711 09:59:40.254983 119437 layer_factory.hpp:76] Creating layer inception_3a/relu_5x5
I0711 09:59:40.254997 119437 net.cpp:106] Creating Layer inception_3a/relu_5x5
I0711 09:59:40.255017 119437 net.cpp:454] inception_3a/relu_5x5 <- inception_3a/5x5
I0711 09:59:40.255029 119437 net.cpp:397] inception_3a/relu_5x5 -> inception_3a/5x5 (in-place)
I0711 09:59:40.255383 119437 net.cpp:150] Setting up inception_3a/relu_5x5
I0711 09:59:40.255422 119437 net.cpp:157] Top shape: 32 32 28 28 (802816)
I0711 09:59:40.255431 119437 net.cpp:165] Memory required for data: 722534912
I0711 09:59:40.255439 119437 layer_factory.hpp:76] Creating layer inception_3a/pool
I0711 09:59:40.255453 119437 net.cpp:106] Creating Layer inception_3a/pool
I0711 09:59:40.255461 119437 net.cpp:454] inception_3a/pool <- pool2/3x3_s2_pool2/3x3_s2_0_split_3
I0711 09:59:40.255486 119437 net.cpp:411] inception_3a/pool -> inception_3a/pool
I0711 09:59:40.255753 119437 net.cpp:150] Setting up inception_3a/pool
I0711 09:59:40.255766 119437 net.cpp:157] Top shape: 32 192 28 28 (4816896)
I0711 09:59:40.255785 119437 net.cpp:165] Memory required for data: 741802496
I0711 09:59:40.255794 119437 layer_factory.hpp:76] Creating layer inception_3a/pool_proj
I0711 09:59:40.255808 119437 net.cpp:106] Creating Layer inception_3a/pool_proj
I0711 09:59:40.255817 119437 net.cpp:454] inception_3a/pool_proj <- inception_3a/pool
I0711 09:59:40.255841 119437 net.cpp:411] inception_3a/pool_proj -> inception_3a/pool_proj
I0711 09:59:40.256882 119437 net.cpp:150] Setting up inception_3a/pool_proj
I0711 09:59:40.256901 119437 net.cpp:157] Top shape: 32 32 28 28 (802816)
I0711 09:59:40.256907 119437 net.cpp:165] Memory required for data: 745013760
I0711 09:59:40.256922 119437 layer_factory.hpp:76] Creating layer inception_3a/relu_pool_proj
I0711 09:59:40.256933 119437 net.cpp:106] Creating Layer inception_3a/relu_pool_proj
I0711 09:59:40.256940 119437 net.cpp:454] inception_3a/relu_pool_proj <- inception_3a/pool_proj
I0711 09:59:40.256949 119437 net.cpp:397] inception_3a/relu_pool_proj -> inception_3a/pool_proj (in-place)
I0711 09:59:40.257264 119437 net.cpp:150] Setting up inception_3a/relu_pool_proj
I0711 09:59:40.257282 119437 net.cpp:157] Top shape: 32 32 28 28 (802816)
I0711 09:59:40.257288 119437 net.cpp:165] Memory required for data: 748225024
I0711 09:59:40.257295 119437 layer_factory.hpp:76] Creating layer inception_3a/output
I0711 09:59:40.257397 119437 net.cpp:106] Creating Layer inception_3a/output
I0711 09:59:40.257426 119437 net.cpp:454] inception_3a/output <- inception_3a/1x1
I0711 09:59:40.257434 119437 net.cpp:454] inception_3a/output <- inception_3a/3x3
I0711 09:59:40.257442 119437 net.cpp:454] inception_3a/output <- inception_3a/5x5
I0711 09:59:40.257449 119437 net.cpp:454] inception_3a/output <- inception_3a/pool_proj
I0711 09:59:40.257473 119437 net.cpp:411] inception_3a/output -> inception_3a/output
I0711 09:59:40.257539 119437 net.cpp:150] Setting up inception_3a/output
I0711 09:59:40.257551 119437 net.cpp:157] Top shape: 32 256 28 28 (6422528)
I0711 09:59:40.257558 119437 net.cpp:165] Memory required for data: 773915136
I0711 09:59:40.257566 119437 layer_factory.hpp:76] Creating layer inception_3a/output_inception_3a/output_0_split
I0711 09:59:40.257580 119437 net.cpp:106] Creating Layer inception_3a/output_inception_3a/output_0_split
I0711 09:59:40.257587 119437 net.cpp:454] inception_3a/output_inception_3a/output_0_split <- inception_3a/output
I0711 09:59:40.257596 119437 net.cpp:411] inception_3a/output_inception_3a/output_0_split -> inception_3a/output_inception_3a/output_0_split_0
I0711 09:59:40.257607 119437 net.cpp:411] inception_3a/output_inception_3a/output_0_split -> inception_3a/output_inception_3a/output_0_split_1
I0711 09:59:40.257616 119437 net.cpp:411] inception_3a/output_inception_3a/output_0_split -> inception_3a/output_inception_3a/output_0_split_2
I0711 09:59:40.257629 119437 net.cpp:411] inception_3a/output_inception_3a/output_0_split -> inception_3a/output_inception_3a/output_0_split_3
I0711 09:59:40.257689 119437 net.cpp:150] Setting up inception_3a/output_inception_3a/output_0_split
I0711 09:59:40.257701 119437 net.cpp:157] Top shape: 32 256 28 28 (6422528)
I0711 09:59:40.257710 119437 net.cpp:157] Top shape: 32 256 28 28 (6422528)
I0711 09:59:40.257719 119437 net.cpp:157] Top shape: 32 256 28 28 (6422528)
I0711 09:59:40.257725 119437 net.cpp:157] Top shape: 32 256 28 28 (6422528)
I0711 09:59:40.257732 119437 net.cpp:165] Memory required for data: 876675584
I0711 09:59:40.257751 119437 layer_factory.hpp:76] Creating layer inception_3b/1x1
I0711 09:59:40.257766 119437 net.cpp:106] Creating Layer inception_3b/1x1
I0711 09:59:40.257774 119437 net.cpp:454] inception_3b/1x1 <- inception_3a/output_inception_3a/output_0_split_0
I0711 09:59:40.257793 119437 net.cpp:411] inception_3b/1x1 -> inception_3b/1x1
I0711 09:59:40.258975 119437 cudnn_conv_layer.cpp:194] Reallocating workspace storage: 3072
I0711 09:59:40.259007 119437 net.cpp:150] Setting up inception_3b/1x1
I0711 09:59:40.259022 119437 net.cpp:157] Top shape: 32 128 28 28 (3211264)
I0711 09:59:40.259032 119437 net.cpp:165] Memory required for data: 889520640
I0711 09:59:40.259055 119437 layer_factory.hpp:76] Creating layer inception_3b/relu_1x1
I0711 09:59:40.259066 119437 net.cpp:106] Creating Layer inception_3b/relu_1x1
I0711 09:59:40.259074 119437 net.cpp:454] inception_3b/relu_1x1 <- inception_3b/1x1
I0711 09:59:40.259090 119437 net.cpp:397] inception_3b/relu_1x1 -> inception_3b/1x1 (in-place)
I0711 09:59:40.259276 119437 net.cpp:150] Setting up inception_3b/relu_1x1
I0711 09:59:40.259294 119437 net.cpp:157] Top shape: 32 128 28 28 (3211264)
I0711 09:59:40.259305 119437 net.cpp:165] Memory required for data: 902365696
I0711 09:59:40.259312 119437 layer_factory.hpp:76] Creating layer inception_3b/3x3_reduce
I0711 09:59:40.259325 119437 net.cpp:106] Creating Layer inception_3b/3x3_reduce
I0711 09:59:40.259333 119437 net.cpp:454] inception_3b/3x3_reduce <- inception_3a/output_inception_3a/output_0_split_1
I0711 09:59:40.259344 119437 net.cpp:411] inception_3b/3x3_reduce -> inception_3b/3x3_reduce
I0711 09:59:40.260536 119437 cudnn_conv_layer.cpp:194] Reallocating workspace storage: 3072
I0711 09:59:40.260565 119437 net.cpp:150] Setting up inception_3b/3x3_reduce
I0711 09:59:40.260576 119437 net.cpp:157] Top shape: 32 128 28 28 (3211264)
I0711 09:59:40.260582 119437 net.cpp:165] Memory required for data: 915210752
I0711 09:59:40.260591 119437 layer_factory.hpp:76] Creating layer inception_3b/relu_3x3_reduce
I0711 09:59:40.260601 119437 net.cpp:106] Creating Layer inception_3b/relu_3x3_reduce
I0711 09:59:40.260622 119437 net.cpp:454] inception_3b/relu_3x3_reduce <- inception_3b/3x3_reduce
I0711 09:59:40.260633 119437 net.cpp:397] inception_3b/relu_3x3_reduce -> inception_3b/3x3_reduce (in-place)
I0711 09:59:40.260830 119437 net.cpp:150] Setting up inception_3b/relu_3x3_reduce
I0711 09:59:40.260859 119437 net.cpp:157] Top shape: 32 128 28 28 (3211264)
I0711 09:59:40.260866 119437 net.cpp:165] Memory required for data: 928055808
I0711 09:59:40.260874 119437 layer_factory.hpp:76] Creating layer inception_3b/3x3
I0711 09:59:40.260891 119437 net.cpp:106] Creating Layer inception_3b/3x3
I0711 09:59:40.260900 119437 net.cpp:454] inception_3b/3x3 <- inception_3b/3x3_reduce
I0711 09:59:40.260912 119437 net.cpp:411] inception_3b/3x3 -> inception_3b/3x3
I0711 09:59:40.263780 119437 cudnn_conv_layer.cpp:194] Reallocating workspace storage: 13824
I0711 09:59:40.263810 119437 net.cpp:150] Setting up inception_3b/3x3
I0711 09:59:40.263824 119437 net.cpp:157] Top shape: 32 192 28 28 (4816896)
I0711 09:59:40.263831 119437 net.cpp:165] Memory required for data: 947323392
I0711 09:59:40.263841 119437 layer_factory.hpp:76] Creating layer inception_3b/relu_3x3
I0711 09:59:40.263864 119437 net.cpp:106] Creating Layer inception_3b/relu_3x3
I0711 09:59:40.263871 119437 net.cpp:454] inception_3b/relu_3x3 <- inception_3b/3x3
I0711 09:59:40.263881 119437 net.cpp:397] inception_3b/relu_3x3 -> inception_3b/3x3 (in-place)
I0711 09:59:40.264184 119437 net.cpp:150] Setting up inception_3b/relu_3x3
I0711 09:59:40.264204 119437 net.cpp:157] Top shape: 32 192 28 28 (4816896)
I0711 09:59:40.264210 119437 net.cpp:165] Memory required for data: 966590976
I0711 09:59:40.264217 119437 layer_factory.hpp:76] Creating layer inception_3b/5x5_reduce
I0711 09:59:40.264230 119437 net.cpp:106] Creating Layer inception_3b/5x5_reduce
I0711 09:59:40.264237 119437 net.cpp:454] inception_3b/5x5_reduce <- inception_3a/output_inception_3a/output_0_split_2
I0711 09:59:40.264276 119437 net.cpp:411] inception_3b/5x5_reduce -> inception_3b/5x5_reduce
I0711 09:59:40.265255 119437 net.cpp:150] Setting up inception_3b/5x5_reduce
I0711 09:59:40.265274 119437 net.cpp:157] Top shape: 32 32 28 28 (802816)
I0711 09:59:40.265280 119437 net.cpp:165] Memory required for data: 969802240
I0711 09:59:40.265290 119437 layer_factory.hpp:76] Creating layer inception_3b/relu_5x5_reduce
I0711 09:59:40.265300 119437 net.cpp:106] Creating Layer inception_3b/relu_5x5_reduce
I0711 09:59:40.265307 119437 net.cpp:454] inception_3b/relu_5x5_reduce <- inception_3b/5x5_reduce
I0711 09:59:40.265318 119437 net.cpp:397] inception_3b/relu_5x5_reduce -> inception_3b/5x5_reduce (in-place)
I0711 09:59:40.265518 119437 net.cpp:150] Setting up inception_3b/relu_5x5_reduce
I0711 09:59:40.265558 119437 net.cpp:157] Top shape: 32 32 28 28 (802816)
I0711 09:59:40.265565 119437 net.cpp:165] Memory required for data: 973013504
I0711 09:59:40.265573 119437 layer_factory.hpp:76] Creating layer inception_3b/5x5
I0711 09:59:40.265585 119437 net.cpp:106] Creating Layer inception_3b/5x5
I0711 09:59:40.265594 119437 net.cpp:454] inception_3b/5x5 <- inception_3b/5x5_reduce
I0711 09:59:40.265606 119437 net.cpp:411] inception_3b/5x5 -> inception_3b/5x5
I0711 09:59:40.267658 119437 cudnn_conv_layer.cpp:194] Reallocating workspace storage: 9600
I0711 09:59:40.267684 119437 net.cpp:150] Setting up inception_3b/5x5
I0711 09:59:40.267699 119437 net.cpp:157] Top shape: 32 96 28 28 (2408448)
I0711 09:59:40.267705 119437 net.cpp:165] Memory required for data: 982647296
I0711 09:59:40.267715 119437 layer_factory.hpp:76] Creating layer inception_3b/relu_5x5
I0711 09:59:40.267737 119437 net.cpp:106] Creating Layer inception_3b/relu_5x5
I0711 09:59:40.267745 119437 net.cpp:454] inception_3b/relu_5x5 <- inception_3b/5x5
I0711 09:59:40.267755 119437 net.cpp:397] inception_3b/relu_5x5 -> inception_3b/5x5 (in-place)
I0711 09:59:40.267930 119437 net.cpp:150] Setting up inception_3b/relu_5x5
I0711 09:59:40.267945 119437 net.cpp:157] Top shape: 32 96 28 28 (2408448)
I0711 09:59:40.267951 119437 net.cpp:165] Memory required for data: 992281088
I0711 09:59:40.267958 119437 layer_factory.hpp:76] Creating layer inception_3b/pool
I0711 09:59:40.267967 119437 net.cpp:106] Creating Layer inception_3b/pool
I0711 09:59:40.267976 119437 net.cpp:454] inception_3b/pool <- inception_3a/output_inception_3a/output_0_split_3
I0711 09:59:40.267985 119437 net.cpp:411] inception_3b/pool -> inception_3b/pool
I0711 09:59:40.268326 119437 net.cpp:150] Setting up inception_3b/pool
I0711 09:59:40.268342 119437 net.cpp:157] Top shape: 32 256 28 28 (6422528)
I0711 09:59:40.268349 119437 net.cpp:165] Memory required for data: 1017971200
I0711 09:59:40.268357 119437 layer_factory.hpp:76] Creating layer inception_3b/pool_proj
I0711 09:59:40.268371 119437 net.cpp:106] Creating Layer inception_3b/pool_proj
I0711 09:59:40.268379 119437 net.cpp:454] inception_3b/pool_proj <- inception_3b/pool
I0711 09:59:40.268388 119437 net.cpp:411] inception_3b/pool_proj -> inception_3b/pool_proj
I0711 09:59:40.269613 119437 cudnn_conv_layer.cpp:194] Reallocating workspace storage: 3072
I0711 09:59:40.269639 119437 net.cpp:150] Setting up inception_3b/pool_proj
I0711 09:59:40.269649 119437 net.cpp:157] Top shape: 32 64 28 28 (1605632)
I0711 09:59:40.269655 119437 net.cpp:165] Memory required for data: 1024393728
I0711 09:59:40.269665 119437 layer_factory.hpp:76] Creating layer inception_3b/relu_pool_proj
I0711 09:59:40.269677 119437 net.cpp:106] Creating Layer inception_3b/relu_pool_proj
I0711 09:59:40.269697 119437 net.cpp:454] inception_3b/relu_pool_proj <- inception_3b/pool_proj
I0711 09:59:40.269707 119437 net.cpp:397] inception_3b/relu_pool_proj -> inception_3b/pool_proj (in-place)
I0711 09:59:40.269881 119437 net.cpp:150] Setting up inception_3b/relu_pool_proj
I0711 09:59:40.269896 119437 net.cpp:157] Top shape: 32 64 28 28 (1605632)
I0711 09:59:40.269901 119437 net.cpp:165] Memory required for data: 1030816256
I0711 09:59:40.269908 119437 layer_factory.hpp:76] Creating layer inception_3b/output
I0711 09:59:40.269930 119437 net.cpp:106] Creating Layer inception_3b/output
I0711 09:59:40.269938 119437 net.cpp:454] inception_3b/output <- inception_3b/1x1
I0711 09:59:40.269945 119437 net.cpp:454] inception_3b/output <- inception_3b/3x3
I0711 09:59:40.269965 119437 net.cpp:454] inception_3b/output <- inception_3b/5x5
I0711 09:59:40.269973 119437 net.cpp:454] inception_3b/output <- inception_3b/pool_proj
I0711 09:59:40.269984 119437 net.cpp:411] inception_3b/output -> inception_3b/output
I0711 09:59:40.270018 119437 net.cpp:150] Setting up inception_3b/output
I0711 09:59:40.270035 119437 net.cpp:157] Top shape: 32 480 28 28 (12042240)
I0711 09:59:40.270041 119437 net.cpp:165] Memory required for data: 1078985216
I0711 09:59:40.270050 119437 layer_factory.hpp:76] Creating layer pool3/3x3_s2
I0711 09:59:40.270059 119437 net.cpp:106] Creating Layer pool3/3x3_s2
I0711 09:59:40.270067 119437 net.cpp:454] pool3/3x3_s2 <- inception_3b/output
I0711 09:59:40.270076 119437 net.cpp:411] pool3/3x3_s2 -> pool3/3x3_s2
I0711 09:59:40.270438 119437 net.cpp:150] Setting up pool3/3x3_s2
I0711 09:59:40.270467 119437 net.cpp:157] Top shape: 32 480 14 14 (3010560)
I0711 09:59:40.270474 119437 net.cpp:165] Memory required for data: 1091027456
I0711 09:59:40.270483 119437 layer_factory.hpp:76] Creating layer pool3/3x3_s2_pool3/3x3_s2_0_split
I0711 09:59:40.270493 119437 net.cpp:106] Creating Layer pool3/3x3_s2_pool3/3x3_s2_0_split
I0711 09:59:40.270500 119437 net.cpp:454] pool3/3x3_s2_pool3/3x3_s2_0_split <- pool3/3x3_s2
I0711 09:59:40.270509 119437 net.cpp:411] pool3/3x3_s2_pool3/3x3_s2_0_split -> pool3/3x3_s2_pool3/3x3_s2_0_split_0
I0711 09:59:40.270525 119437 net.cpp:411] pool3/3x3_s2_pool3/3x3_s2_0_split -> pool3/3x3_s2_pool3/3x3_s2_0_split_1
I0711 09:59:40.270536 119437 net.cpp:411] pool3/3x3_s2_pool3/3x3_s2_0_split -> pool3/3x3_s2_pool3/3x3_s2_0_split_2
I0711 09:59:40.270546 119437 net.cpp:411] pool3/3x3_s2_pool3/3x3_s2_0_split -> pool3/3x3_s2_pool3/3x3_s2_0_split_3
I0711 09:59:40.270611 119437 net.cpp:150] Setting up pool3/3x3_s2_pool3/3x3_s2_0_split
I0711 09:59:40.270622 119437 net.cpp:157] Top shape: 32 480 14 14 (3010560)
I0711 09:59:40.270635 119437 net.cpp:157] Top shape: 32 480 14 14 (3010560)
I0711 09:59:40.270643 119437 net.cpp:157] Top shape: 32 480 14 14 (3010560)
I0711 09:59:40.270651 119437 net.cpp:157] Top shape: 32 480 14 14 (3010560)
I0711 09:59:40.270658 119437 net.cpp:165] Memory required for data: 1139196416
I0711 09:59:40.270665 119437 layer_factory.hpp:76] Creating layer inception_4a/1x1
I0711 09:59:40.270681 119437 net.cpp:106] Creating Layer inception_4a/1x1
I0711 09:59:40.270690 119437 net.cpp:454] inception_4a/1x1 <- pool3/3x3_s2_pool3/3x3_s2_0_split_0
I0711 09:59:40.270699 119437 net.cpp:411] inception_4a/1x1 -> inception_4a/1x1
I0711 09:59:40.272194 119437 cudnn_conv_layer.cpp:194] Reallocating workspace storage: 5760
I0711 09:59:40.272245 119437 net.cpp:150] Setting up inception_4a/1x1
I0711 09:59:40.272258 119437 net.cpp:157] Top shape: 32 192 14 14 (1204224)
I0711 09:59:40.272264 119437 net.cpp:165] Memory required for data: 1144013312
I0711 09:59:40.272275 119437 layer_factory.hpp:76] Creating layer inception_4a/relu_1x1
I0711 09:59:40.272285 119437 net.cpp:106] Creating Layer inception_4a/relu_1x1
I0711 09:59:40.272294 119437 net.cpp:454] inception_4a/relu_1x1 <- inception_4a/1x1
I0711 09:59:40.272305 119437 net.cpp:397] inception_4a/relu_1x1 -> inception_4a/1x1 (in-place)
I0711 09:59:40.272505 119437 net.cpp:150] Setting up inception_4a/relu_1x1
I0711 09:59:40.272531 119437 net.cpp:157] Top shape: 32 192 14 14 (1204224)
I0711 09:59:40.272538 119437 net.cpp:165] Memory required for data: 1148830208
I0711 09:59:40.272547 119437 layer_factory.hpp:76] Creating layer inception_4a/3x3_reduce
I0711 09:59:40.272560 119437 net.cpp:106] Creating Layer inception_4a/3x3_reduce
I0711 09:59:40.272569 119437 net.cpp:454] inception_4a/3x3_reduce <- pool3/3x3_s2_pool3/3x3_s2_0_split_1
I0711 09:59:40.272581 119437 net.cpp:411] inception_4a/3x3_reduce -> inception_4a/3x3_reduce
I0711 09:59:40.273823 119437 cudnn_conv_layer.cpp:194] Reallocating workspace storage: 5760
I0711 09:59:40.273881 119437 net.cpp:150] Setting up inception_4a/3x3_reduce
I0711 09:59:40.273893 119437 net.cpp:157] Top shape: 32 96 14 14 (602112)
I0711 09:59:40.273901 119437 net.cpp:165] Memory required for data: 1151238656
I0711 09:59:40.273918 119437 layer_factory.hpp:76] Creating layer inception_4a/relu_3x3_reduce
I0711 09:59:40.273929 119437 net.cpp:106] Creating Layer inception_4a/relu_3x3_reduce
I0711 09:59:40.273938 119437 net.cpp:454] inception_4a/relu_3x3_reduce <- inception_4a/3x3_reduce
I0711 09:59:40.273947 119437 net.cpp:397] inception_4a/relu_3x3_reduce -> inception_4a/3x3_reduce (in-place)
I0711 09:59:40.274150 119437 net.cpp:150] Setting up inception_4a/relu_3x3_reduce
I0711 09:59:40.274175 119437 net.cpp:157] Top shape: 32 96 14 14 (602112)
I0711 09:59:40.274183 119437 net.cpp:165] Memory required for data: 1153647104
I0711 09:59:40.274191 119437 layer_factory.hpp:76] Creating layer inception_4a/3x3
I0711 09:59:40.274205 119437 net.cpp:106] Creating Layer inception_4a/3x3
I0711 09:59:40.274214 119437 net.cpp:454] inception_4a/3x3 <- inception_4a/3x3_reduce
I0711 09:59:40.274226 119437 net.cpp:411] inception_4a/3x3 -> inception_4a/3x3
I0711 09:59:40.277093 119437 cudnn_conv_layer.cpp:194] Reallocating workspace storage: 10368
I0711 09:59:40.277142 119437 net.cpp:150] Setting up inception_4a/3x3
I0711 09:59:40.277153 119437 net.cpp:157] Top shape: 32 208 14 14 (1304576)
I0711 09:59:40.277161 119437 net.cpp:165] Memory required for data: 1158865408
I0711 09:59:40.277173 119437 layer_factory.hpp:76] Creating layer inception_4a/relu_3x3
I0711 09:59:40.277185 119437 net.cpp:106] Creating Layer inception_4a/relu_3x3
I0711 09:59:40.277194 119437 net.cpp:454] inception_4a/relu_3x3 <- inception_4a/3x3
I0711 09:59:40.277204 119437 net.cpp:397] inception_4a/relu_3x3 -> inception_4a/3x3 (in-place)
I0711 09:59:40.277565 119437 net.cpp:150] Setting up inception_4a/relu_3x3
I0711 09:59:40.277595 119437 net.cpp:157] Top shape: 32 208 14 14 (1304576)
I0711 09:59:40.277602 119437 net.cpp:165] Memory required for data: 1164083712
I0711 09:59:40.277611 119437 layer_factory.hpp:76] Creating layer inception_4a/5x5_reduce
I0711 09:59:40.277626 119437 net.cpp:106] Creating Layer inception_4a/5x5_reduce
I0711 09:59:40.277634 119437 net.cpp:454] inception_4a/5x5_reduce <- pool3/3x3_s2_pool3/3x3_s2_0_split_2
I0711 09:59:40.277647 119437 net.cpp:411] inception_4a/5x5_reduce -> inception_4a/5x5_reduce
I0711 09:59:40.278833 119437 net.cpp:150] Setting up inception_4a/5x5_reduce
I0711 09:59:40.278863 119437 net.cpp:157] Top shape: 32 16 14 14 (100352)
I0711 09:59:40.278872 119437 net.cpp:165] Memory required for data: 1164485120
I0711 09:59:40.278882 119437 layer_factory.hpp:76] Creating layer inception_4a/relu_5x5_reduce
I0711 09:59:40.278893 119437 net.cpp:106] Creating Layer inception_4a/relu_5x5_reduce
I0711 09:59:40.278901 119437 net.cpp:454] inception_4a/relu_5x5_reduce <- inception_4a/5x5_reduce
I0711 09:59:40.278925 119437 net.cpp:397] inception_4a/relu_5x5_reduce -> inception_4a/5x5_reduce (in-place)
I0711 09:59:40.279136 119437 net.cpp:150] Setting up inception_4a/relu_5x5_reduce
I0711 09:59:40.279162 119437 net.cpp:157] Top shape: 32 16 14 14 (100352)
I0711 09:59:40.279170 119437 net.cpp:165] Memory required for data: 1164886528
I0711 09:59:40.279180 119437 layer_factory.hpp:76] Creating layer inception_4a/5x5
I0711 09:59:40.279194 119437 net.cpp:106] Creating Layer inception_4a/5x5
I0711 09:59:40.279203 119437 net.cpp:454] inception_4a/5x5 <- inception_4a/5x5_reduce
I0711 09:59:40.279216 119437 net.cpp:411] inception_4a/5x5 -> inception_4a/5x5
I0711 09:59:40.280376 119437 net.cpp:150] Setting up inception_4a/5x5
I0711 09:59:40.280407 119437 net.cpp:157] Top shape: 32 48 14 14 (301056)
I0711 09:59:40.280416 119437 net.cpp:165] Memory required for data: 1166090752
I0711 09:59:40.280426 119437 layer_factory.hpp:76] Creating layer inception_4a/relu_5x5
I0711 09:59:40.280439 119437 net.cpp:106] Creating Layer inception_4a/relu_5x5
I0711 09:59:40.280462 119437 net.cpp:454] inception_4a/relu_5x5 <- inception_4a/5x5
I0711 09:59:40.280486 119437 net.cpp:397] inception_4a/relu_5x5 -> inception_4a/5x5 (in-place)
I0711 09:59:40.280709 119437 net.cpp:150] Setting up inception_4a/relu_5x5
I0711 09:59:40.280735 119437 net.cpp:157] Top shape: 32 48 14 14 (301056)
I0711 09:59:40.280742 119437 net.cpp:165] Memory required for data: 1167294976
I0711 09:59:40.280763 119437 layer_factory.hpp:76] Creating layer inception_4a/pool
I0711 09:59:40.280774 119437 net.cpp:106] Creating Layer inception_4a/pool
I0711 09:59:40.280781 119437 net.cpp:454] inception_4a/pool <- pool3/3x3_s2_pool3/3x3_s2_0_split_3
I0711 09:59:40.280794 119437 net.cpp:411] inception_4a/pool -> inception_4a/pool
I0711 09:59:40.281201 119437 net.cpp:150] Setting up inception_4a/pool
I0711 09:59:40.281230 119437 net.cpp:157] Top shape: 32 480 14 14 (3010560)
I0711 09:59:40.281239 119437 net.cpp:165] Memory required for data: 1179337216
I0711 09:59:40.281245 119437 layer_factory.hpp:76] Creating layer inception_4a/pool_proj
I0711 09:59:40.281261 119437 net.cpp:106] Creating Layer inception_4a/pool_proj
I0711 09:59:40.281270 119437 net.cpp:454] inception_4a/pool_proj <- inception_4a/pool
I0711 09:59:40.281294 119437 net.cpp:411] inception_4a/pool_proj -> inception_4a/pool_proj
I0711 09:59:40.282579 119437 net.cpp:150] Setting up inception_4a/pool_proj
I0711 09:59:40.282598 119437 net.cpp:157] Top shape: 32 64 14 14 (401408)
I0711 09:59:40.282605 119437 net.cpp:165] Memory required for data: 1180942848
I0711 09:59:40.282615 119437 layer_factory.hpp:76] Creating layer inception_4a/relu_pool_proj
I0711 09:59:40.282634 119437 net.cpp:106] Creating Layer inception_4a/relu_pool_proj
I0711 09:59:40.282655 119437 net.cpp:454] inception_4a/relu_pool_proj <- inception_4a/pool_proj
I0711 09:59:40.282665 119437 net.cpp:397] inception_4a/relu_pool_proj -> inception_4a/pool_proj (in-place)
I0711 09:59:40.282847 119437 net.cpp:150] Setting up inception_4a/relu_pool_proj
I0711 09:59:40.282866 119437 net.cpp:157] Top shape: 32 64 14 14 (401408)
I0711 09:59:40.282873 119437 net.cpp:165] Memory required for data: 1182548480
I0711 09:59:40.282881 119437 layer_factory.hpp:76] Creating layer inception_4a/output
I0711 09:59:40.282891 119437 net.cpp:106] Creating Layer inception_4a/output
I0711 09:59:40.282897 119437 net.cpp:454] inception_4a/output <- inception_4a/1x1
I0711 09:59:40.282904 119437 net.cpp:454] inception_4a/output <- inception_4a/3x3
I0711 09:59:40.282912 119437 net.cpp:454] inception_4a/output <- inception_4a/5x5
I0711 09:59:40.282932 119437 net.cpp:454] inception_4a/output <- inception_4a/pool_proj
I0711 09:59:40.282943 119437 net.cpp:411] inception_4a/output -> inception_4a/output
I0711 09:59:40.282976 119437 net.cpp:150] Setting up inception_4a/output
I0711 09:59:40.282999 119437 net.cpp:157] Top shape: 32 512 14 14 (3211264)
I0711 09:59:40.283006 119437 net.cpp:165] Memory required for data: 1195393536
I0711 09:59:40.283015 119437 layer_factory.hpp:76] Creating layer inception_4a/output_inception_4a/output_0_split
I0711 09:59:40.283025 119437 net.cpp:106] Creating Layer inception_4a/output_inception_4a/output_0_split
I0711 09:59:40.283032 119437 net.cpp:454] inception_4a/output_inception_4a/output_0_split <- inception_4a/output
I0711 09:59:40.283041 119437 net.cpp:411] inception_4a/output_inception_4a/output_0_split -> inception_4a/output_inception_4a/output_0_split_0
I0711 09:59:40.283052 119437 net.cpp:411] inception_4a/output_inception_4a/output_0_split -> inception_4a/output_inception_4a/output_0_split_1
I0711 09:59:40.283068 119437 net.cpp:411] inception_4a/output_inception_4a/output_0_split -> inception_4a/output_inception_4a/output_0_split_2
I0711 09:59:40.283079 119437 net.cpp:411] inception_4a/output_inception_4a/output_0_split -> inception_4a/output_inception_4a/output_0_split_3
I0711 09:59:40.283088 119437 net.cpp:411] inception_4a/output_inception_4a/output_0_split -> inception_4a/output_inception_4a/output_0_split_4
I0711 09:59:40.283172 119437 net.cpp:150] Setting up inception_4a/output_inception_4a/output_0_split
I0711 09:59:40.283223 119437 net.cpp:157] Top shape: 32 512 14 14 (3211264)
I0711 09:59:40.283244 119437 net.cpp:157] Top shape: 32 512 14 14 (3211264)
I0711 09:59:40.283252 119437 net.cpp:157] Top shape: 32 512 14 14 (3211264)
I0711 09:59:40.283260 119437 net.cpp:157] Top shape: 32 512 14 14 (3211264)
I0711 09:59:40.283268 119437 net.cpp:157] Top shape: 32 512 14 14 (3211264)
I0711 09:59:40.283279 119437 net.cpp:165] Memory required for data: 1259618816
I0711 09:59:40.283287 119437 layer_factory.hpp:76] Creating layer loss1/ave_pool
I0711 09:59:40.283311 119437 net.cpp:106] Creating Layer loss1/ave_pool
I0711 09:59:40.283319 119437 net.cpp:454] loss1/ave_pool <- inception_4a/output_inception_4a/output_0_split_0
I0711 09:59:40.283329 119437 net.cpp:411] loss1/ave_pool -> loss1/ave_pool
I0711 09:59:40.283687 119437 net.cpp:150] Setting up loss1/ave_pool
I0711 09:59:40.283716 119437 net.cpp:157] Top shape: 32 512 4 4 (262144)
I0711 09:59:40.283725 119437 net.cpp:165] Memory required for data: 1260667392
I0711 09:59:40.283732 119437 layer_factory.hpp:76] Creating layer loss1/conv
I0711 09:59:40.283749 119437 net.cpp:106] Creating Layer loss1/conv
I0711 09:59:40.283758 119437 net.cpp:454] loss1/conv <- loss1/ave_pool
I0711 09:59:40.283767 119437 net.cpp:411] loss1/conv -> loss1/conv
I0711 09:59:40.285400 119437 cudnn_conv_layer.cpp:194] Reallocating workspace storage: 6144
I0711 09:59:40.285432 119437 net.cpp:150] Setting up loss1/conv
I0711 09:59:40.285445 119437 net.cpp:157] Top shape: 32 128 4 4 (65536)
I0711 09:59:40.285454 119437 net.cpp:165] Memory required for data: 1260929536
I0711 09:59:40.285475 119437 layer_factory.hpp:76] Creating layer loss1/relu_conv
I0711 09:59:40.285486 119437 net.cpp:106] Creating Layer loss1/relu_conv
I0711 09:59:40.285495 119437 net.cpp:454] loss1/relu_conv <- loss1/conv
I0711 09:59:40.285503 119437 net.cpp:397] loss1/relu_conv -> loss1/conv (in-place)
I0711 09:59:40.285678 119437 net.cpp:150] Setting up loss1/relu_conv
I0711 09:59:40.285692 119437 net.cpp:157] Top shape: 32 128 4 4 (65536)
I0711 09:59:40.285699 119437 net.cpp:165] Memory required for data: 1261191680
I0711 09:59:40.285706 119437 layer_factory.hpp:76] Creating layer loss1/fc
I0711 09:59:40.285720 119437 net.cpp:106] Creating Layer loss1/fc
I0711 09:59:40.285728 119437 net.cpp:454] loss1/fc <- loss1/conv
I0711 09:59:40.285737 119437 net.cpp:411] loss1/fc -> loss1/fc
I0711 09:59:40.302156 119437 net.cpp:150] Setting up loss1/fc
I0711 09:59:40.302181 119437 net.cpp:157] Top shape: 32 1024 (32768)
I0711 09:59:40.302187 119437 net.cpp:165] Memory required for data: 1261322752
I0711 09:59:40.302198 119437 layer_factory.hpp:76] Creating layer loss1/relu_fc
I0711 09:59:40.302209 119437 net.cpp:106] Creating Layer loss1/relu_fc
I0711 09:59:40.302217 119437 net.cpp:454] loss1/relu_fc <- loss1/fc
I0711 09:59:40.302224 119437 net.cpp:397] loss1/relu_fc -> loss1/fc (in-place)
I0711 09:59:40.302588 119437 net.cpp:150] Setting up loss1/relu_fc
I0711 09:59:40.302605 119437 net.cpp:157] Top shape: 32 1024 (32768)
I0711 09:59:40.302613 119437 net.cpp:165] Memory required for data: 1261453824
I0711 09:59:40.302620 119437 layer_factory.hpp:76] Creating layer loss1/drop_fc
I0711 09:59:40.302664 119437 net.cpp:106] Creating Layer loss1/drop_fc
I0711 09:59:40.302673 119437 net.cpp:454] loss1/drop_fc <- loss1/fc
I0711 09:59:40.302683 119437 net.cpp:397] loss1/drop_fc -> loss1/fc (in-place)
I0711 09:59:40.302726 119437 net.cpp:150] Setting up loss1/drop_fc
I0711 09:59:40.302738 119437 net.cpp:157] Top shape: 32 1024 (32768)
I0711 09:59:40.302745 119437 net.cpp:165] Memory required for data: 1261584896
I0711 09:59:40.302754 119437 layer_factory.hpp:76] Creating layer loss1/classifier
I0711 09:59:40.302767 119437 net.cpp:106] Creating Layer loss1/classifier
I0711 09:59:40.302777 119437 net.cpp:454] loss1/classifier <- loss1/fc
I0711 09:59:40.302785 119437 net.cpp:411] loss1/classifier -> loss1/classifier
I0711 09:59:40.302922 119437 net.cpp:150] Setting up loss1/classifier
I0711 09:59:40.302947 119437 net.cpp:157] Top shape: 32 2 (64)
I0711 09:59:40.302954 119437 net.cpp:165] Memory required for data: 1261585152
I0711 09:59:40.303001 119437 layer_factory.hpp:76] Creating layer loss1/loss
I0711 09:59:40.303133 119437 net.cpp:106] Creating Layer loss1/loss
I0711 09:59:40.303158 119437 net.cpp:454] loss1/loss <- loss1/classifier
I0711 09:59:40.303167 119437 net.cpp:454] loss1/loss <- label_data_1_split_0
I0711 09:59:40.303192 119437 net.cpp:411] loss1/loss -> loss1/loss1
I0711 09:59:40.303210 119437 layer_factory.hpp:76] Creating layer loss1/loss
I0711 09:59:40.303505 119437 net.cpp:150] Setting up loss1/loss
I0711 09:59:40.303535 119437 net.cpp:157] Top shape: (1)
I0711 09:59:40.303544 119437 net.cpp:160]     with loss weight 0.3
I0711 09:59:40.303566 119437 net.cpp:165] Memory required for data: 1261585156
I0711 09:59:40.303575 119437 layer_factory.hpp:76] Creating layer inception_4b/1x1
I0711 09:59:40.303588 119437 net.cpp:106] Creating Layer inception_4b/1x1
I0711 09:59:40.303596 119437 net.cpp:454] inception_4b/1x1 <- inception_4a/output_inception_4a/output_0_split_1
I0711 09:59:40.303608 119437 net.cpp:411] inception_4b/1x1 -> inception_4b/1x1
I0711 09:59:40.305133 119437 cudnn_conv_layer.cpp:194] Reallocating workspace storage: 6144
I0711 09:59:40.305165 119437 net.cpp:150] Setting up inception_4b/1x1
I0711 09:59:40.305176 119437 net.cpp:157] Top shape: 32 160 14 14 (1003520)
I0711 09:59:40.305182 119437 net.cpp:165] Memory required for data: 1265599236
I0711 09:59:40.305192 119437 layer_factory.hpp:76] Creating layer inception_4b/relu_1x1
I0711 09:59:40.305218 119437 net.cpp:106] Creating Layer inception_4b/relu_1x1
I0711 09:59:40.305227 119437 net.cpp:454] inception_4b/relu_1x1 <- inception_4b/1x1
I0711 09:59:40.305236 119437 net.cpp:397] inception_4b/relu_1x1 -> inception_4b/1x1 (in-place)
I0711 09:59:40.305553 119437 net.cpp:150] Setting up inception_4b/relu_1x1
I0711 09:59:40.305570 119437 net.cpp:157] Top shape: 32 160 14 14 (1003520)
I0711 09:59:40.305577 119437 net.cpp:165] Memory required for data: 1269613316
I0711 09:59:40.305584 119437 layer_factory.hpp:76] Creating layer inception_4b/3x3_reduce
I0711 09:59:40.305598 119437 net.cpp:106] Creating Layer inception_4b/3x3_reduce
I0711 09:59:40.305608 119437 net.cpp:454] inception_4b/3x3_reduce <- inception_4a/output_inception_4a/output_0_split_2
I0711 09:59:40.305618 119437 net.cpp:411] inception_4b/3x3_reduce -> inception_4b/3x3_reduce
I0711 09:59:40.307605 119437 cudnn_conv_layer.cpp:194] Reallocating workspace storage: 6144
I0711 09:59:40.307649 119437 net.cpp:150] Setting up inception_4b/3x3_reduce
I0711 09:59:40.307662 119437 net.cpp:157] Top shape: 32 112 14 14 (702464)
I0711 09:59:40.307685 119437 net.cpp:165] Memory required for data: 1272423172
I0711 09:59:40.307698 119437 layer_factory.hpp:76] Creating layer inception_4b/relu_3x3_reduce
I0711 09:59:40.307708 119437 net.cpp:106] Creating Layer inception_4b/relu_3x3_reduce
I0711 09:59:40.307718 119437 net.cpp:454] inception_4b/relu_3x3_reduce <- inception_4b/3x3_reduce
I0711 09:59:40.307730 119437 net.cpp:397] inception_4b/relu_3x3_reduce -> inception_4b/3x3_reduce (in-place)
I0711 09:59:40.308102 119437 net.cpp:150] Setting up inception_4b/relu_3x3_reduce
I0711 09:59:40.308133 119437 net.cpp:157] Top shape: 32 112 14 14 (702464)
I0711 09:59:40.308141 119437 net.cpp:165] Memory required for data: 1275233028
I0711 09:59:40.308149 119437 layer_factory.hpp:76] Creating layer inception_4b/3x3
I0711 09:59:40.308161 119437 net.cpp:106] Creating Layer inception_4b/3x3
I0711 09:59:40.308169 119437 net.cpp:454] inception_4b/3x3 <- inception_4b/3x3_reduce
I0711 09:59:40.308194 119437 net.cpp:411] inception_4b/3x3 -> inception_4b/3x3
I0711 09:59:40.311293 119437 cudnn_conv_layer.cpp:194] Reallocating workspace storage: 12096
I0711 09:59:40.311337 119437 net.cpp:150] Setting up inception_4b/3x3
I0711 09:59:40.311348 119437 net.cpp:157] Top shape: 32 224 14 14 (1404928)
I0711 09:59:40.311357 119437 net.cpp:165] Memory required for data: 1280852740
I0711 09:59:40.311379 119437 layer_factory.hpp:76] Creating layer inception_4b/relu_3x3
I0711 09:59:40.311389 119437 net.cpp:106] Creating Layer inception_4b/relu_3x3
I0711 09:59:40.311413 119437 net.cpp:454] inception_4b/relu_3x3 <- inception_4b/3x3
I0711 09:59:40.311427 119437 net.cpp:397] inception_4b/relu_3x3 -> inception_4b/3x3 (in-place)
I0711 09:59:40.311645 119437 net.cpp:150] Setting up inception_4b/relu_3x3
I0711 09:59:40.311671 119437 net.cpp:157] Top shape: 32 224 14 14 (1404928)
I0711 09:59:40.311679 119437 net.cpp:165] Memory required for data: 1286472452
I0711 09:59:40.311688 119437 layer_factory.hpp:76] Creating layer inception_4b/5x5_reduce
I0711 09:59:40.311703 119437 net.cpp:106] Creating Layer inception_4b/5x5_reduce
I0711 09:59:40.311712 119437 net.cpp:454] inception_4b/5x5_reduce <- inception_4a/output_inception_4a/output_0_split_3
I0711 09:59:40.311749 119437 net.cpp:411] inception_4b/5x5_reduce -> inception_4b/5x5_reduce
I0711 09:59:40.312880 119437 net.cpp:150] Setting up inception_4b/5x5_reduce
I0711 09:59:40.312899 119437 net.cpp:157] Top shape: 32 24 14 14 (150528)
I0711 09:59:40.312906 119437 net.cpp:165] Memory required for data: 1287074564
I0711 09:59:40.312916 119437 layer_factory.hpp:76] Creating layer inception_4b/relu_5x5_reduce
I0711 09:59:40.312925 119437 net.cpp:106] Creating Layer inception_4b/relu_5x5_reduce
I0711 09:59:40.312933 119437 net.cpp:454] inception_4b/relu_5x5_reduce <- inception_4b/5x5_reduce
I0711 09:59:40.312943 119437 net.cpp:397] inception_4b/relu_5x5_reduce -> inception_4b/5x5_reduce (in-place)
I0711 09:59:40.313277 119437 net.cpp:150] Setting up inception_4b/relu_5x5_reduce
I0711 09:59:40.313294 119437 net.cpp:157] Top shape: 32 24 14 14 (150528)
I0711 09:59:40.313302 119437 net.cpp:165] Memory required for data: 1287676676
I0711 09:59:40.313308 119437 layer_factory.hpp:76] Creating layer inception_4b/5x5
I0711 09:59:40.313323 119437 net.cpp:106] Creating Layer inception_4b/5x5
I0711 09:59:40.313330 119437 net.cpp:454] inception_4b/5x5 <- inception_4b/5x5_reduce
I0711 09:59:40.313341 119437 net.cpp:411] inception_4b/5x5 -> inception_4b/5x5
I0711 09:59:40.314510 119437 net.cpp:150] Setting up inception_4b/5x5
I0711 09:59:40.314529 119437 net.cpp:157] Top shape: 32 64 14 14 (401408)
I0711 09:59:40.314543 119437 net.cpp:165] Memory required for data: 1289282308
I0711 09:59:40.314553 119437 layer_factory.hpp:76] Creating layer inception_4b/relu_5x5
I0711 09:59:40.314563 119437 net.cpp:106] Creating Layer inception_4b/relu_5x5
I0711 09:59:40.314571 119437 net.cpp:454] inception_4b/relu_5x5 <- inception_4b/5x5
I0711 09:59:40.314594 119437 net.cpp:397] inception_4b/relu_5x5 -> inception_4b/5x5 (in-place)
I0711 09:59:40.314920 119437 net.cpp:150] Setting up inception_4b/relu_5x5
I0711 09:59:40.314937 119437 net.cpp:157] Top shape: 32 64 14 14 (401408)
I0711 09:59:40.314944 119437 net.cpp:165] Memory required for data: 1290887940
I0711 09:59:40.314951 119437 layer_factory.hpp:76] Creating layer inception_4b/pool
I0711 09:59:40.314962 119437 net.cpp:106] Creating Layer inception_4b/pool
I0711 09:59:40.314972 119437 net.cpp:454] inception_4b/pool <- inception_4a/output_inception_4a/output_0_split_4
I0711 09:59:40.314981 119437 net.cpp:411] inception_4b/pool -> inception_4b/pool
I0711 09:59:40.315215 119437 net.cpp:150] Setting up inception_4b/pool
I0711 09:59:40.315232 119437 net.cpp:157] Top shape: 32 512 14 14 (3211264)
I0711 09:59:40.315239 119437 net.cpp:165] Memory required for data: 1303732996
I0711 09:59:40.315246 119437 layer_factory.hpp:76] Creating layer inception_4b/pool_proj
I0711 09:59:40.315258 119437 net.cpp:106] Creating Layer inception_4b/pool_proj
I0711 09:59:40.315265 119437 net.cpp:454] inception_4b/pool_proj <- inception_4b/pool
I0711 09:59:40.315276 119437 net.cpp:411] inception_4b/pool_proj -> inception_4b/pool_proj
I0711 09:59:40.316457 119437 cudnn_conv_layer.cpp:194] Reallocating workspace storage: 6144
I0711 09:59:40.316498 119437 net.cpp:150] Setting up inception_4b/pool_proj
I0711 09:59:40.316509 119437 net.cpp:157] Top shape: 32 64 14 14 (401408)
I0711 09:59:40.316529 119437 net.cpp:165] Memory required for data: 1305338628
I0711 09:59:40.316540 119437 layer_factory.hpp:76] Creating layer inception_4b/relu_pool_proj
I0711 09:59:40.316570 119437 net.cpp:106] Creating Layer inception_4b/relu_pool_proj
I0711 09:59:40.316579 119437 net.cpp:454] inception_4b/relu_pool_proj <- inception_4b/pool_proj
I0711 09:59:40.316596 119437 net.cpp:397] inception_4b/relu_pool_proj -> inception_4b/pool_proj (in-place)
I0711 09:59:40.316939 119437 net.cpp:150] Setting up inception_4b/relu_pool_proj
I0711 09:59:40.316968 119437 net.cpp:157] Top shape: 32 64 14 14 (401408)
I0711 09:59:40.316977 119437 net.cpp:165] Memory required for data: 1306944260
I0711 09:59:40.316984 119437 layer_factory.hpp:76] Creating layer inception_4b/output
I0711 09:59:40.316995 119437 net.cpp:106] Creating Layer inception_4b/output
I0711 09:59:40.317003 119437 net.cpp:454] inception_4b/output <- inception_4b/1x1
I0711 09:59:40.317014 119437 net.cpp:454] inception_4b/output <- inception_4b/3x3
I0711 09:59:40.317023 119437 net.cpp:454] inception_4b/output <- inception_4b/5x5
I0711 09:59:40.317030 119437 net.cpp:454] inception_4b/output <- inception_4b/pool_proj
I0711 09:59:40.317039 119437 net.cpp:411] inception_4b/output -> inception_4b/output
I0711 09:59:40.317077 119437 net.cpp:150] Setting up inception_4b/output
I0711 09:59:40.317093 119437 net.cpp:157] Top shape: 32 512 14 14 (3211264)
I0711 09:59:40.317101 119437 net.cpp:165] Memory required for data: 1319789316
I0711 09:59:40.317108 119437 layer_factory.hpp:76] Creating layer inception_4b/output_inception_4b/output_0_split
I0711 09:59:40.317119 119437 net.cpp:106] Creating Layer inception_4b/output_inception_4b/output_0_split
I0711 09:59:40.317127 119437 net.cpp:454] inception_4b/output_inception_4b/output_0_split <- inception_4b/output
I0711 09:59:40.317137 119437 net.cpp:411] inception_4b/output_inception_4b/output_0_split -> inception_4b/output_inception_4b/output_0_split_0
I0711 09:59:40.317149 119437 net.cpp:411] inception_4b/output_inception_4b/output_0_split -> inception_4b/output_inception_4b/output_0_split_1
I0711 09:59:40.317159 119437 net.cpp:411] inception_4b/output_inception_4b/output_0_split -> inception_4b/output_inception_4b/output_0_split_2
I0711 09:59:40.317169 119437 net.cpp:411] inception_4b/output_inception_4b/output_0_split -> inception_4b/output_inception_4b/output_0_split_3
I0711 09:59:40.317239 119437 net.cpp:150] Setting up inception_4b/output_inception_4b/output_0_split
I0711 09:59:40.317251 119437 net.cpp:157] Top shape: 32 512 14 14 (3211264)
I0711 09:59:40.317260 119437 net.cpp:157] Top shape: 32 512 14 14 (3211264)
I0711 09:59:40.317267 119437 net.cpp:157] Top shape: 32 512 14 14 (3211264)
I0711 09:59:40.317275 119437 net.cpp:157] Top shape: 32 512 14 14 (3211264)
I0711 09:59:40.317281 119437 net.cpp:165] Memory required for data: 1371169540
I0711 09:59:40.317289 119437 layer_factory.hpp:76] Creating layer inception_4c/1x1
I0711 09:59:40.317302 119437 net.cpp:106] Creating Layer inception_4c/1x1
I0711 09:59:40.317313 119437 net.cpp:454] inception_4c/1x1 <- inception_4b/output_inception_4b/output_0_split_0
I0711 09:59:40.317323 119437 net.cpp:411] inception_4c/1x1 -> inception_4c/1x1
I0711 09:59:40.318923 119437 cudnn_conv_layer.cpp:194] Reallocating workspace storage: 6144
I0711 09:59:40.318967 119437 net.cpp:150] Setting up inception_4c/1x1
I0711 09:59:40.318979 119437 net.cpp:157] Top shape: 32 128 14 14 (802816)
I0711 09:59:40.318992 119437 net.cpp:165] Memory required for data: 1374380804
I0711 09:59:40.319005 119437 layer_factory.hpp:76] Creating layer inception_4c/relu_1x1
I0711 09:59:40.319015 119437 net.cpp:106] Creating Layer inception_4c/relu_1x1
I0711 09:59:40.319025 119437 net.cpp:454] inception_4c/relu_1x1 <- inception_4c/1x1
I0711 09:59:40.319033 119437 net.cpp:397] inception_4c/relu_1x1 -> inception_4c/1x1 (in-place)
I0711 09:59:40.319254 119437 net.cpp:150] Setting up inception_4c/relu_1x1
I0711 09:59:40.319281 119437 net.cpp:157] Top shape: 32 128 14 14 (802816)
I0711 09:59:40.319288 119437 net.cpp:165] Memory required for data: 1377592068
I0711 09:59:40.319298 119437 layer_factory.hpp:76] Creating layer inception_4c/3x3_reduce
I0711 09:59:40.319324 119437 net.cpp:106] Creating Layer inception_4c/3x3_reduce
I0711 09:59:40.319334 119437 net.cpp:454] inception_4c/3x3_reduce <- inception_4b/output_inception_4b/output_0_split_1
I0711 09:59:40.319351 119437 net.cpp:411] inception_4c/3x3_reduce -> inception_4c/3x3_reduce
I0711 09:59:40.320775 119437 cudnn_conv_layer.cpp:194] Reallocating workspace storage: 6144
I0711 09:59:40.320816 119437 net.cpp:150] Setting up inception_4c/3x3_reduce
I0711 09:59:40.320828 119437 net.cpp:157] Top shape: 32 128 14 14 (802816)
I0711 09:59:40.320835 119437 net.cpp:165] Memory required for data: 1380803332
I0711 09:59:40.320847 119437 layer_factory.hpp:76] Creating layer inception_4c/relu_3x3_reduce
I0711 09:59:40.320860 119437 net.cpp:106] Creating Layer inception_4c/relu_3x3_reduce
I0711 09:59:40.320869 119437 net.cpp:454] inception_4c/relu_3x3_reduce <- inception_4c/3x3_reduce
I0711 09:59:40.320878 119437 net.cpp:397] inception_4c/relu_3x3_reduce -> inception_4c/3x3_reduce (in-place)
I0711 09:59:40.321086 119437 net.cpp:150] Setting up inception_4c/relu_3x3_reduce
I0711 09:59:40.321112 119437 net.cpp:157] Top shape: 32 128 14 14 (802816)
I0711 09:59:40.321120 119437 net.cpp:165] Memory required for data: 1384014596
I0711 09:59:40.321128 119437 layer_factory.hpp:76] Creating layer inception_4c/3x3
I0711 09:59:40.321142 119437 net.cpp:106] Creating Layer inception_4c/3x3
I0711 09:59:40.321151 119437 net.cpp:454] inception_4c/3x3 <- inception_4c/3x3_reduce
I0711 09:59:40.321161 119437 net.cpp:411] inception_4c/3x3 -> inception_4c/3x3
I0711 09:59:40.324617 119437 net.cpp:150] Setting up inception_4c/3x3
I0711 09:59:40.324636 119437 net.cpp:157] Top shape: 32 256 14 14 (1605632)
I0711 09:59:40.324645 119437 net.cpp:165] Memory required for data: 1390437124
I0711 09:59:40.324669 119437 layer_factory.hpp:76] Creating layer inception_4c/relu_3x3
I0711 09:59:40.324681 119437 net.cpp:106] Creating Layer inception_4c/relu_3x3
I0711 09:59:40.324702 119437 net.cpp:454] inception_4c/relu_3x3 <- inception_4c/3x3
I0711 09:59:40.324710 119437 net.cpp:397] inception_4c/relu_3x3 -> inception_4c/3x3 (in-place)
I0711 09:59:40.325052 119437 net.cpp:150] Setting up inception_4c/relu_3x3
I0711 09:59:40.325069 119437 net.cpp:157] Top shape: 32 256 14 14 (1605632)
I0711 09:59:40.325076 119437 net.cpp:165] Memory required for data: 1396859652
I0711 09:59:40.325084 119437 layer_factory.hpp:76] Creating layer inception_4c/5x5_reduce
I0711 09:59:40.325098 119437 net.cpp:106] Creating Layer inception_4c/5x5_reduce
I0711 09:59:40.325106 119437 net.cpp:454] inception_4c/5x5_reduce <- inception_4b/output_inception_4b/output_0_split_2
I0711 09:59:40.325117 119437 net.cpp:411] inception_4c/5x5_reduce -> inception_4c/5x5_reduce
I0711 09:59:40.326237 119437 net.cpp:150] Setting up inception_4c/5x5_reduce
I0711 09:59:40.326256 119437 net.cpp:157] Top shape: 32 24 14 14 (150528)
I0711 09:59:40.326263 119437 net.cpp:165] Memory required for data: 1397461764
I0711 09:59:40.326273 119437 layer_factory.hpp:76] Creating layer inception_4c/relu_5x5_reduce
I0711 09:59:40.326287 119437 net.cpp:106] Creating Layer inception_4c/relu_5x5_reduce
I0711 09:59:40.326295 119437 net.cpp:454] inception_4c/relu_5x5_reduce <- inception_4c/5x5_reduce
I0711 09:59:40.326303 119437 net.cpp:397] inception_4c/relu_5x5_reduce -> inception_4c/5x5_reduce (in-place)
I0711 09:59:40.326503 119437 net.cpp:150] Setting up inception_4c/relu_5x5_reduce
I0711 09:59:40.326517 119437 net.cpp:157] Top shape: 32 24 14 14 (150528)
I0711 09:59:40.326524 119437 net.cpp:165] Memory required for data: 1398063876
I0711 09:59:40.326530 119437 layer_factory.hpp:76] Creating layer inception_4c/5x5
I0711 09:59:40.326545 119437 net.cpp:106] Creating Layer inception_4c/5x5
I0711 09:59:40.326552 119437 net.cpp:454] inception_4c/5x5 <- inception_4c/5x5_reduce
I0711 09:59:40.326561 119437 net.cpp:411] inception_4c/5x5 -> inception_4c/5x5
I0711 09:59:40.328444 119437 net.cpp:150] Setting up inception_4c/5x5
I0711 09:59:40.328464 119437 net.cpp:157] Top shape: 32 64 14 14 (401408)
I0711 09:59:40.328470 119437 net.cpp:165] Memory required for data: 1399669508
I0711 09:59:40.328492 119437 layer_factory.hpp:76] Creating layer inception_4c/relu_5x5
I0711 09:59:40.328505 119437 net.cpp:106] Creating Layer inception_4c/relu_5x5
I0711 09:59:40.328526 119437 net.cpp:454] inception_4c/relu_5x5 <- inception_4c/5x5
I0711 09:59:40.328536 119437 net.cpp:397] inception_4c/relu_5x5 -> inception_4c/5x5 (in-place)
I0711 09:59:40.328725 119437 net.cpp:150] Setting up inception_4c/relu_5x5
I0711 09:59:40.328739 119437 net.cpp:157] Top shape: 32 64 14 14 (401408)
I0711 09:59:40.328747 119437 net.cpp:165] Memory required for data: 1401275140
I0711 09:59:40.328753 119437 layer_factory.hpp:76] Creating layer inception_4c/pool
I0711 09:59:40.328763 119437 net.cpp:106] Creating Layer inception_4c/pool
I0711 09:59:40.328771 119437 net.cpp:454] inception_4c/pool <- inception_4b/output_inception_4b/output_0_split_3
I0711 09:59:40.328781 119437 net.cpp:411] inception_4c/pool -> inception_4c/pool
I0711 09:59:40.329165 119437 net.cpp:150] Setting up inception_4c/pool
I0711 09:59:40.329182 119437 net.cpp:157] Top shape: 32 512 14 14 (3211264)
I0711 09:59:40.329190 119437 net.cpp:165] Memory required for data: 1414120196
I0711 09:59:40.329196 119437 layer_factory.hpp:76] Creating layer inception_4c/pool_proj
I0711 09:59:40.329210 119437 net.cpp:106] Creating Layer inception_4c/pool_proj
I0711 09:59:40.329218 119437 net.cpp:454] inception_4c/pool_proj <- inception_4c/pool
I0711 09:59:40.329231 119437 net.cpp:411] inception_4c/pool_proj -> inception_4c/pool_proj
I0711 09:59:40.330430 119437 cudnn_conv_layer.cpp:194] Reallocating workspace storage: 6144
I0711 09:59:40.330461 119437 net.cpp:150] Setting up inception_4c/pool_proj
I0711 09:59:40.330472 119437 net.cpp:157] Top shape: 32 64 14 14 (401408)
I0711 09:59:40.330479 119437 net.cpp:165] Memory required for data: 1415725828
I0711 09:59:40.330488 119437 layer_factory.hpp:76] Creating layer inception_4c/relu_pool_proj
I0711 09:59:40.330513 119437 net.cpp:106] Creating Layer inception_4c/relu_pool_proj
I0711 09:59:40.330523 119437 net.cpp:454] inception_4c/relu_pool_proj <- inception_4c/pool_proj
I0711 09:59:40.330531 119437 net.cpp:397] inception_4c/relu_pool_proj -> inception_4c/pool_proj (in-place)
I0711 09:59:40.330719 119437 net.cpp:150] Setting up inception_4c/relu_pool_proj
I0711 09:59:40.330734 119437 net.cpp:157] Top shape: 32 64 14 14 (401408)
I0711 09:59:40.330740 119437 net.cpp:165] Memory required for data: 1417331460
I0711 09:59:40.330747 119437 layer_factory.hpp:76] Creating layer inception_4c/output
I0711 09:59:40.330760 119437 net.cpp:106] Creating Layer inception_4c/output
I0711 09:59:40.330767 119437 net.cpp:454] inception_4c/output <- inception_4c/1x1
I0711 09:59:40.330775 119437 net.cpp:454] inception_4c/output <- inception_4c/3x3
I0711 09:59:40.330782 119437 net.cpp:454] inception_4c/output <- inception_4c/5x5
I0711 09:59:40.330790 119437 net.cpp:454] inception_4c/output <- inception_4c/pool_proj
I0711 09:59:40.330809 119437 net.cpp:411] inception_4c/output -> inception_4c/output
I0711 09:59:40.330848 119437 net.cpp:150] Setting up inception_4c/output
I0711 09:59:40.330859 119437 net.cpp:157] Top shape: 32 512 14 14 (3211264)
I0711 09:59:40.330868 119437 net.cpp:165] Memory required for data: 1430176516
I0711 09:59:40.330875 119437 layer_factory.hpp:76] Creating layer inception_4c/output_inception_4c/output_0_split
I0711 09:59:40.330885 119437 net.cpp:106] Creating Layer inception_4c/output_inception_4c/output_0_split
I0711 09:59:40.330893 119437 net.cpp:454] inception_4c/output_inception_4c/output_0_split <- inception_4c/output
I0711 09:59:40.330904 119437 net.cpp:411] inception_4c/output_inception_4c/output_0_split -> inception_4c/output_inception_4c/output_0_split_0
I0711 09:59:40.330915 119437 net.cpp:411] inception_4c/output_inception_4c/output_0_split -> inception_4c/output_inception_4c/output_0_split_1
I0711 09:59:40.330925 119437 net.cpp:411] inception_4c/output_inception_4c/output_0_split -> inception_4c/output_inception_4c/output_0_split_2
I0711 09:59:40.330935 119437 net.cpp:411] inception_4c/output_inception_4c/output_0_split -> inception_4c/output_inception_4c/output_0_split_3
I0711 09:59:40.331022 119437 net.cpp:150] Setting up inception_4c/output_inception_4c/output_0_split
I0711 09:59:40.331060 119437 net.cpp:157] Top shape: 32 512 14 14 (3211264)
I0711 09:59:40.331069 119437 net.cpp:157] Top shape: 32 512 14 14 (3211264)
I0711 09:59:40.331089 119437 net.cpp:157] Top shape: 32 512 14 14 (3211264)
I0711 09:59:40.331097 119437 net.cpp:157] Top shape: 32 512 14 14 (3211264)
I0711 09:59:40.331104 119437 net.cpp:165] Memory required for data: 1481556740
I0711 09:59:40.331111 119437 layer_factory.hpp:76] Creating layer inception_4d/1x1
I0711 09:59:40.331126 119437 net.cpp:106] Creating Layer inception_4d/1x1
I0711 09:59:40.331147 119437 net.cpp:454] inception_4d/1x1 <- inception_4c/output_inception_4c/output_0_split_0
I0711 09:59:40.331156 119437 net.cpp:411] inception_4d/1x1 -> inception_4d/1x1
I0711 09:59:40.332516 119437 cudnn_conv_layer.cpp:194] Reallocating workspace storage: 6144
I0711 09:59:40.332561 119437 net.cpp:150] Setting up inception_4d/1x1
I0711 09:59:40.332571 119437 net.cpp:157] Top shape: 32 112 14 14 (702464)
I0711 09:59:40.332579 119437 net.cpp:165] Memory required for data: 1484366596
I0711 09:59:40.332590 119437 layer_factory.hpp:76] Creating layer inception_4d/relu_1x1
I0711 09:59:40.332600 119437 net.cpp:106] Creating Layer inception_4d/relu_1x1
I0711 09:59:40.332609 119437 net.cpp:454] inception_4d/relu_1x1 <- inception_4d/1x1
I0711 09:59:40.332618 119437 net.cpp:397] inception_4d/relu_1x1 -> inception_4d/1x1 (in-place)
I0711 09:59:40.332968 119437 net.cpp:150] Setting up inception_4d/relu_1x1
I0711 09:59:40.332996 119437 net.cpp:157] Top shape: 32 112 14 14 (702464)
I0711 09:59:40.333004 119437 net.cpp:165] Memory required for data: 1487176452
I0711 09:59:40.333012 119437 layer_factory.hpp:76] Creating layer inception_4d/3x3_reduce
I0711 09:59:40.333027 119437 net.cpp:106] Creating Layer inception_4d/3x3_reduce
I0711 09:59:40.333035 119437 net.cpp:454] inception_4d/3x3_reduce <- inception_4c/output_inception_4c/output_0_split_1
I0711 09:59:40.333048 119437 net.cpp:411] inception_4d/3x3_reduce -> inception_4d/3x3_reduce
I0711 09:59:40.334451 119437 cudnn_conv_layer.cpp:194] Reallocating workspace storage: 6144
I0711 09:59:40.334482 119437 net.cpp:150] Setting up inception_4d/3x3_reduce
I0711 09:59:40.334493 119437 net.cpp:157] Top shape: 32 144 14 14 (903168)
I0711 09:59:40.334501 119437 net.cpp:165] Memory required for data: 1490789124
I0711 09:59:40.334509 119437 layer_factory.hpp:76] Creating layer inception_4d/relu_3x3_reduce
I0711 09:59:40.334532 119437 net.cpp:106] Creating Layer inception_4d/relu_3x3_reduce
I0711 09:59:40.334540 119437 net.cpp:454] inception_4d/relu_3x3_reduce <- inception_4d/3x3_reduce
I0711 09:59:40.334550 119437 net.cpp:397] inception_4d/relu_3x3_reduce -> inception_4d/3x3_reduce (in-place)
I0711 09:59:40.334874 119437 net.cpp:150] Setting up inception_4d/relu_3x3_reduce
I0711 09:59:40.334892 119437 net.cpp:157] Top shape: 32 144 14 14 (903168)
I0711 09:59:40.334898 119437 net.cpp:165] Memory required for data: 1494401796
I0711 09:59:40.334905 119437 layer_factory.hpp:76] Creating layer inception_4d/3x3
I0711 09:59:40.334921 119437 net.cpp:106] Creating Layer inception_4d/3x3
I0711 09:59:40.334929 119437 net.cpp:454] inception_4d/3x3 <- inception_4d/3x3_reduce
I0711 09:59:40.334939 119437 net.cpp:411] inception_4d/3x3 -> inception_4d/3x3
I0711 09:59:40.339263 119437 cudnn_conv_layer.cpp:194] Reallocating workspace storage: 15552
I0711 09:59:40.339298 119437 net.cpp:150] Setting up inception_4d/3x3
I0711 09:59:40.339308 119437 net.cpp:157] Top shape: 32 288 14 14 (1806336)
I0711 09:59:40.339315 119437 net.cpp:165] Memory required for data: 1501627140
I0711 09:59:40.339336 119437 layer_factory.hpp:76] Creating layer inception_4d/relu_3x3
I0711 09:59:40.339347 119437 net.cpp:106] Creating Layer inception_4d/relu_3x3
I0711 09:59:40.339355 119437 net.cpp:454] inception_4d/relu_3x3 <- inception_4d/3x3
I0711 09:59:40.339367 119437 net.cpp:397] inception_4d/relu_3x3 -> inception_4d/3x3 (in-place)
I0711 09:59:40.339603 119437 net.cpp:150] Setting up inception_4d/relu_3x3
I0711 09:59:40.339630 119437 net.cpp:157] Top shape: 32 288 14 14 (1806336)
I0711 09:59:40.339646 119437 net.cpp:165] Memory required for data: 1508852484
I0711 09:59:40.339654 119437 layer_factory.hpp:76] Creating layer inception_4d/5x5_reduce
I0711 09:59:40.339666 119437 net.cpp:106] Creating Layer inception_4d/5x5_reduce
I0711 09:59:40.339674 119437 net.cpp:454] inception_4d/5x5_reduce <- inception_4c/output_inception_4c/output_0_split_2
I0711 09:59:40.339687 119437 net.cpp:411] inception_4d/5x5_reduce -> inception_4d/5x5_reduce
I0711 09:59:40.340899 119437 net.cpp:150] Setting up inception_4d/5x5_reduce
I0711 09:59:40.340921 119437 net.cpp:157] Top shape: 32 32 14 14 (200704)
I0711 09:59:40.340929 119437 net.cpp:165] Memory required for data: 1509655300
I0711 09:59:40.340939 119437 layer_factory.hpp:76] Creating layer inception_4d/relu_5x5_reduce
I0711 09:59:40.340948 119437 net.cpp:106] Creating Layer inception_4d/relu_5x5_reduce
I0711 09:59:40.340956 119437 net.cpp:454] inception_4d/relu_5x5_reduce <- inception_4d/5x5_reduce
I0711 09:59:40.340965 119437 net.cpp:397] inception_4d/relu_5x5_reduce -> inception_4d/5x5_reduce (in-place)
I0711 09:59:40.341306 119437 net.cpp:150] Setting up inception_4d/relu_5x5_reduce
I0711 09:59:40.341325 119437 net.cpp:157] Top shape: 32 32 14 14 (200704)
I0711 09:59:40.341333 119437 net.cpp:165] Memory required for data: 1510458116
I0711 09:59:40.341341 119437 layer_factory.hpp:76] Creating layer inception_4d/5x5
I0711 09:59:40.341352 119437 net.cpp:106] Creating Layer inception_4d/5x5
I0711 09:59:40.341359 119437 net.cpp:454] inception_4d/5x5 <- inception_4d/5x5_reduce
I0711 09:59:40.341370 119437 net.cpp:411] inception_4d/5x5 -> inception_4d/5x5
I0711 09:59:40.342563 119437 net.cpp:150] Setting up inception_4d/5x5
I0711 09:59:40.342583 119437 net.cpp:157] Top shape: 32 64 14 14 (401408)
I0711 09:59:40.342592 119437 net.cpp:165] Memory required for data: 1512063748
I0711 09:59:40.342600 119437 layer_factory.hpp:76] Creating layer inception_4d/relu_5x5
I0711 09:59:40.342610 119437 net.cpp:106] Creating Layer inception_4d/relu_5x5
I0711 09:59:40.342618 119437 net.cpp:454] inception_4d/relu_5x5 <- inception_4d/5x5
I0711 09:59:40.342627 119437 net.cpp:397] inception_4d/relu_5x5 -> inception_4d/5x5 (in-place)
I0711 09:59:40.342967 119437 net.cpp:150] Setting up inception_4d/relu_5x5
I0711 09:59:40.342998 119437 net.cpp:157] Top shape: 32 64 14 14 (401408)
I0711 09:59:40.343006 119437 net.cpp:165] Memory required for data: 1513669380
I0711 09:59:40.343014 119437 layer_factory.hpp:76] Creating layer inception_4d/pool
I0711 09:59:40.343036 119437 net.cpp:106] Creating Layer inception_4d/pool
I0711 09:59:40.343044 119437 net.cpp:454] inception_4d/pool <- inception_4c/output_inception_4c/output_0_split_3
I0711 09:59:40.343065 119437 net.cpp:411] inception_4d/pool -> inception_4d/pool
I0711 09:59:40.343422 119437 net.cpp:150] Setting up inception_4d/pool
I0711 09:59:40.343439 119437 net.cpp:157] Top shape: 32 512 14 14 (3211264)
I0711 09:59:40.343446 119437 net.cpp:165] Memory required for data: 1526514436
I0711 09:59:40.343453 119437 layer_factory.hpp:76] Creating layer inception_4d/pool_proj
I0711 09:59:40.343467 119437 net.cpp:106] Creating Layer inception_4d/pool_proj
I0711 09:59:40.343475 119437 net.cpp:454] inception_4d/pool_proj <- inception_4d/pool
I0711 09:59:40.343484 119437 net.cpp:411] inception_4d/pool_proj -> inception_4d/pool_proj
I0711 09:59:40.344563 119437 cudnn_conv_layer.cpp:194] Reallocating workspace storage: 6144
I0711 09:59:40.344599 119437 net.cpp:150] Setting up inception_4d/pool_proj
I0711 09:59:40.344610 119437 net.cpp:157] Top shape: 32 64 14 14 (401408)
I0711 09:59:40.344616 119437 net.cpp:165] Memory required for data: 1528120068
I0711 09:59:40.344638 119437 layer_factory.hpp:76] Creating layer inception_4d/relu_pool_proj
I0711 09:59:40.344651 119437 net.cpp:106] Creating Layer inception_4d/relu_pool_proj
I0711 09:59:40.344662 119437 net.cpp:454] inception_4d/relu_pool_proj <- inception_4d/pool_proj
I0711 09:59:40.344707 119437 net.cpp:397] inception_4d/relu_pool_proj -> inception_4d/pool_proj (in-place)
I0711 09:59:40.345090 119437 net.cpp:150] Setting up inception_4d/relu_pool_proj
I0711 09:59:40.345119 119437 net.cpp:157] Top shape: 32 64 14 14 (401408)
I0711 09:59:40.345127 119437 net.cpp:165] Memory required for data: 1529725700
I0711 09:59:40.345135 119437 layer_factory.hpp:76] Creating layer inception_4d/output
I0711 09:59:40.345149 119437 net.cpp:106] Creating Layer inception_4d/output
I0711 09:59:40.345157 119437 net.cpp:454] inception_4d/output <- inception_4d/1x1
I0711 09:59:40.345177 119437 net.cpp:454] inception_4d/output <- inception_4d/3x3
I0711 09:59:40.345186 119437 net.cpp:454] inception_4d/output <- inception_4d/5x5
I0711 09:59:40.345194 119437 net.cpp:454] inception_4d/output <- inception_4d/pool_proj
I0711 09:59:40.345204 119437 net.cpp:411] inception_4d/output -> inception_4d/output
I0711 09:59:40.345245 119437 net.cpp:150] Setting up inception_4d/output
I0711 09:59:40.345258 119437 net.cpp:157] Top shape: 32 528 14 14 (3311616)
I0711 09:59:40.345266 119437 net.cpp:165] Memory required for data: 1542972164
I0711 09:59:40.345274 119437 layer_factory.hpp:76] Creating layer inception_4d/output_inception_4d/output_0_split
I0711 09:59:40.345285 119437 net.cpp:106] Creating Layer inception_4d/output_inception_4d/output_0_split
I0711 09:59:40.345294 119437 net.cpp:454] inception_4d/output_inception_4d/output_0_split <- inception_4d/output
I0711 09:59:40.345305 119437 net.cpp:411] inception_4d/output_inception_4d/output_0_split -> inception_4d/output_inception_4d/output_0_split_0
I0711 09:59:40.345317 119437 net.cpp:411] inception_4d/output_inception_4d/output_0_split -> inception_4d/output_inception_4d/output_0_split_1
I0711 09:59:40.345327 119437 net.cpp:411] inception_4d/output_inception_4d/output_0_split -> inception_4d/output_inception_4d/output_0_split_2
I0711 09:59:40.345346 119437 net.cpp:411] inception_4d/output_inception_4d/output_0_split -> inception_4d/output_inception_4d/output_0_split_3
I0711 09:59:40.345356 119437 net.cpp:411] inception_4d/output_inception_4d/output_0_split -> inception_4d/output_inception_4d/output_0_split_4
I0711 09:59:40.345469 119437 net.cpp:150] Setting up inception_4d/output_inception_4d/output_0_split
I0711 09:59:40.345494 119437 net.cpp:157] Top shape: 32 528 14 14 (3311616)
I0711 09:59:40.345515 119437 net.cpp:157] Top shape: 32 528 14 14 (3311616)
I0711 09:59:40.345523 119437 net.cpp:157] Top shape: 32 528 14 14 (3311616)
I0711 09:59:40.345536 119437 net.cpp:157] Top shape: 32 528 14 14 (3311616)
I0711 09:59:40.345546 119437 net.cpp:157] Top shape: 32 528 14 14 (3311616)
I0711 09:59:40.345553 119437 net.cpp:165] Memory required for data: 1609204484
I0711 09:59:40.345572 119437 layer_factory.hpp:76] Creating layer loss2/ave_pool
I0711 09:59:40.345583 119437 net.cpp:106] Creating Layer loss2/ave_pool
I0711 09:59:40.345590 119437 net.cpp:454] loss2/ave_pool <- inception_4d/output_inception_4d/output_0_split_0
I0711 09:59:40.345602 119437 net.cpp:411] loss2/ave_pool -> loss2/ave_pool
I0711 09:59:40.345846 119437 net.cpp:150] Setting up loss2/ave_pool
I0711 09:59:40.345880 119437 net.cpp:157] Top shape: 32 528 4 4 (270336)
I0711 09:59:40.345888 119437 net.cpp:165] Memory required for data: 1610285828
I0711 09:59:40.345896 119437 layer_factory.hpp:76] Creating layer loss2/conv
I0711 09:59:40.345911 119437 net.cpp:106] Creating Layer loss2/conv
I0711 09:59:40.345921 119437 net.cpp:454] loss2/conv <- loss2/ave_pool
I0711 09:59:40.345932 119437 net.cpp:411] loss2/conv -> loss2/conv
I0711 09:59:40.348136 119437 cudnn_conv_layer.cpp:194] Reallocating workspace storage: 6336
I0711 09:59:40.348181 119437 net.cpp:150] Setting up loss2/conv
I0711 09:59:40.348199 119437 net.cpp:157] Top shape: 32 128 4 4 (65536)
I0711 09:59:40.348207 119437 net.cpp:165] Memory required for data: 1610547972
I0711 09:59:40.348218 119437 layer_factory.hpp:76] Creating layer loss2/relu_conv
I0711 09:59:40.348229 119437 net.cpp:106] Creating Layer loss2/relu_conv
I0711 09:59:40.348263 119437 net.cpp:454] loss2/relu_conv <- loss2/conv
I0711 09:59:40.348274 119437 net.cpp:397] loss2/relu_conv -> loss2/conv (in-place)
I0711 09:59:40.348646 119437 net.cpp:150] Setting up loss2/relu_conv
I0711 09:59:40.348683 119437 net.cpp:157] Top shape: 32 128 4 4 (65536)
I0711 09:59:40.348704 119437 net.cpp:165] Memory required for data: 1610810116
I0711 09:59:40.348711 119437 layer_factory.hpp:76] Creating layer loss2/fc
I0711 09:59:40.348737 119437 net.cpp:106] Creating Layer loss2/fc
I0711 09:59:40.348747 119437 net.cpp:454] loss2/fc <- loss2/conv
I0711 09:59:40.348759 119437 net.cpp:411] loss2/fc -> loss2/fc
I0711 09:59:40.365182 119437 net.cpp:150] Setting up loss2/fc
I0711 09:59:40.365205 119437 net.cpp:157] Top shape: 32 1024 (32768)
I0711 09:59:40.365211 119437 net.cpp:165] Memory required for data: 1610941188
I0711 09:59:40.365221 119437 layer_factory.hpp:76] Creating layer loss2/relu_fc
I0711 09:59:40.365234 119437 net.cpp:106] Creating Layer loss2/relu_fc
I0711 09:59:40.365242 119437 net.cpp:454] loss2/relu_fc <- loss2/fc
I0711 09:59:40.365250 119437 net.cpp:397] loss2/relu_fc -> loss2/fc (in-place)
I0711 09:59:40.365491 119437 net.cpp:150] Setting up loss2/relu_fc
I0711 09:59:40.365519 119437 net.cpp:157] Top shape: 32 1024 (32768)
I0711 09:59:40.365526 119437 net.cpp:165] Memory required for data: 1611072260
I0711 09:59:40.365535 119437 layer_factory.hpp:76] Creating layer loss2/drop_fc
I0711 09:59:40.365548 119437 net.cpp:106] Creating Layer loss2/drop_fc
I0711 09:59:40.365556 119437 net.cpp:454] loss2/drop_fc <- loss2/fc
I0711 09:59:40.365566 119437 net.cpp:397] loss2/drop_fc -> loss2/fc (in-place)
I0711 09:59:40.365605 119437 net.cpp:150] Setting up loss2/drop_fc
I0711 09:59:40.365617 119437 net.cpp:157] Top shape: 32 1024 (32768)
I0711 09:59:40.365624 119437 net.cpp:165] Memory required for data: 1611203332
I0711 09:59:40.365633 119437 layer_factory.hpp:76] Creating layer loss2/classifier
I0711 09:59:40.365648 119437 net.cpp:106] Creating Layer loss2/classifier
I0711 09:59:40.365655 119437 net.cpp:454] loss2/classifier <- loss2/fc
I0711 09:59:40.365664 119437 net.cpp:411] loss2/classifier -> loss2/classifier
I0711 09:59:40.365833 119437 net.cpp:150] Setting up loss2/classifier
I0711 09:59:40.365857 119437 net.cpp:157] Top shape: 32 2 (64)
I0711 09:59:40.365864 119437 net.cpp:165] Memory required for data: 1611203588
I0711 09:59:40.365887 119437 layer_factory.hpp:76] Creating layer loss2/loss
I0711 09:59:40.365898 119437 net.cpp:106] Creating Layer loss2/loss
I0711 09:59:40.365909 119437 net.cpp:454] loss2/loss <- loss2/classifier
I0711 09:59:40.365917 119437 net.cpp:454] loss2/loss <- label_data_1_split_1
I0711 09:59:40.365926 119437 net.cpp:411] loss2/loss -> loss2/loss1
I0711 09:59:40.365938 119437 layer_factory.hpp:76] Creating layer loss2/loss
I0711 09:59:40.366389 119437 net.cpp:150] Setting up loss2/loss
I0711 09:59:40.366407 119437 net.cpp:157] Top shape: (1)
I0711 09:59:40.366415 119437 net.cpp:160]     with loss weight 0.3
I0711 09:59:40.366426 119437 net.cpp:165] Memory required for data: 1611203592
I0711 09:59:40.366433 119437 layer_factory.hpp:76] Creating layer inception_4e/1x1
I0711 09:59:40.366447 119437 net.cpp:106] Creating Layer inception_4e/1x1
I0711 09:59:40.366456 119437 net.cpp:454] inception_4e/1x1 <- inception_4d/output_inception_4d/output_0_split_1
I0711 09:59:40.366480 119437 net.cpp:411] inception_4e/1x1 -> inception_4e/1x1
I0711 09:59:40.368448 119437 cudnn_conv_layer.cpp:194] Reallocating workspace storage: 6336
I0711 09:59:40.368500 119437 net.cpp:150] Setting up inception_4e/1x1
I0711 09:59:40.368512 119437 net.cpp:157] Top shape: 32 256 14 14 (1605632)
I0711 09:59:40.368531 119437 net.cpp:165] Memory required for data: 1617626120
I0711 09:59:40.368543 119437 layer_factory.hpp:76] Creating layer inception_4e/relu_1x1
I0711 09:59:40.368556 119437 net.cpp:106] Creating Layer inception_4e/relu_1x1
I0711 09:59:40.368564 119437 net.cpp:454] inception_4e/relu_1x1 <- inception_4e/1x1
I0711 09:59:40.368577 119437 net.cpp:397] inception_4e/relu_1x1 -> inception_4e/1x1 (in-place)
I0711 09:59:40.368820 119437 net.cpp:150] Setting up inception_4e/relu_1x1
I0711 09:59:40.368850 119437 net.cpp:157] Top shape: 32 256 14 14 (1605632)
I0711 09:59:40.368859 119437 net.cpp:165] Memory required for data: 1624048648
I0711 09:59:40.368866 119437 layer_factory.hpp:76] Creating layer inception_4e/3x3_reduce
I0711 09:59:40.368880 119437 net.cpp:106] Creating Layer inception_4e/3x3_reduce
I0711 09:59:40.368888 119437 net.cpp:454] inception_4e/3x3_reduce <- inception_4d/output_inception_4d/output_0_split_2
I0711 09:59:40.368901 119437 net.cpp:411] inception_4e/3x3_reduce -> inception_4e/3x3_reduce
I0711 09:59:40.371328 119437 cudnn_conv_layer.cpp:194] Reallocating workspace storage: 6336
I0711 09:59:40.371379 119437 net.cpp:150] Setting up inception_4e/3x3_reduce
I0711 09:59:40.371392 119437 net.cpp:157] Top shape: 32 160 14 14 (1003520)
I0711 09:59:40.371399 119437 net.cpp:165] Memory required for data: 1628062728
I0711 09:59:40.371410 119437 layer_factory.hpp:76] Creating layer inception_4e/relu_3x3_reduce
I0711 09:59:40.371424 119437 net.cpp:106] Creating Layer inception_4e/relu_3x3_reduce
I0711 09:59:40.371433 119437 net.cpp:454] inception_4e/relu_3x3_reduce <- inception_4e/3x3_reduce
I0711 09:59:40.371443 119437 net.cpp:397] inception_4e/relu_3x3_reduce -> inception_4e/3x3_reduce (in-place)
I0711 09:59:40.371660 119437 net.cpp:150] Setting up inception_4e/relu_3x3_reduce
I0711 09:59:40.371675 119437 net.cpp:157] Top shape: 32 160 14 14 (1003520)
I0711 09:59:40.371693 119437 net.cpp:165] Memory required for data: 1632076808
I0711 09:59:40.371701 119437 layer_factory.hpp:76] Creating layer inception_4e/3x3
I0711 09:59:40.371718 119437 net.cpp:106] Creating Layer inception_4e/3x3
I0711 09:59:40.371726 119437 net.cpp:454] inception_4e/3x3 <- inception_4e/3x3_reduce
I0711 09:59:40.371737 119437 net.cpp:411] inception_4e/3x3 -> inception_4e/3x3
I0711 09:59:40.376734 119437 cudnn_conv_layer.cpp:194] Reallocating workspace storage: 17280
I0711 09:59:40.376775 119437 net.cpp:150] Setting up inception_4e/3x3
I0711 09:59:40.376785 119437 net.cpp:157] Top shape: 32 320 14 14 (2007040)
I0711 09:59:40.376793 119437 net.cpp:165] Memory required for data: 1640104968
I0711 09:59:40.376804 119437 layer_factory.hpp:76] Creating layer inception_4e/relu_3x3
I0711 09:59:40.376818 119437 net.cpp:106] Creating Layer inception_4e/relu_3x3
I0711 09:59:40.376827 119437 net.cpp:454] inception_4e/relu_3x3 <- inception_4e/3x3
I0711 09:59:40.376837 119437 net.cpp:397] inception_4e/relu_3x3 -> inception_4e/3x3 (in-place)
I0711 09:59:40.377233 119437 net.cpp:150] Setting up inception_4e/relu_3x3
I0711 09:59:40.377264 119437 net.cpp:157] Top shape: 32 320 14 14 (2007040)
I0711 09:59:40.377271 119437 net.cpp:165] Memory required for data: 1648133128
I0711 09:59:40.377279 119437 layer_factory.hpp:76] Creating layer inception_4e/5x5_reduce
I0711 09:59:40.377297 119437 net.cpp:106] Creating Layer inception_4e/5x5_reduce
I0711 09:59:40.377307 119437 net.cpp:454] inception_4e/5x5_reduce <- inception_4d/output_inception_4d/output_0_split_3
I0711 09:59:40.377317 119437 net.cpp:411] inception_4e/5x5_reduce -> inception_4e/5x5_reduce
I0711 09:59:40.378664 119437 net.cpp:150] Setting up inception_4e/5x5_reduce
I0711 09:59:40.378695 119437 net.cpp:157] Top shape: 32 32 14 14 (200704)
I0711 09:59:40.378705 119437 net.cpp:165] Memory required for data: 1648935944
I0711 09:59:40.378727 119437 layer_factory.hpp:76] Creating layer inception_4e/relu_5x5_reduce
I0711 09:59:40.378741 119437 net.cpp:106] Creating Layer inception_4e/relu_5x5_reduce
I0711 09:59:40.378762 119437 net.cpp:454] inception_4e/relu_5x5_reduce <- inception_4e/5x5_reduce
I0711 09:59:40.378772 119437 net.cpp:397] inception_4e/relu_5x5_reduce -> inception_4e/5x5_reduce (in-place)
I0711 09:59:40.379005 119437 net.cpp:150] Setting up inception_4e/relu_5x5_reduce
I0711 09:59:40.379030 119437 net.cpp:157] Top shape: 32 32 14 14 (200704)
I0711 09:59:40.379039 119437 net.cpp:165] Memory required for data: 1649738760
I0711 09:59:40.379046 119437 layer_factory.hpp:76] Creating layer inception_4e/5x5
I0711 09:59:40.379115 119437 net.cpp:106] Creating Layer inception_4e/5x5
I0711 09:59:40.379127 119437 net.cpp:454] inception_4e/5x5 <- inception_4e/5x5_reduce
I0711 09:59:40.379138 119437 net.cpp:411] inception_4e/5x5 -> inception_4e/5x5
I0711 09:59:40.380913 119437 net.cpp:150] Setting up inception_4e/5x5
I0711 09:59:40.380944 119437 net.cpp:157] Top shape: 32 128 14 14 (802816)
I0711 09:59:40.380951 119437 net.cpp:165] Memory required for data: 1652950024
I0711 09:59:40.380964 119437 layer_factory.hpp:76] Creating layer inception_4e/relu_5x5
I0711 09:59:40.380973 119437 net.cpp:106] Creating Layer inception_4e/relu_5x5
I0711 09:59:40.380981 119437 net.cpp:454] inception_4e/relu_5x5 <- inception_4e/5x5
I0711 09:59:40.381006 119437 net.cpp:397] inception_4e/relu_5x5 -> inception_4e/5x5 (in-place)
I0711 09:59:40.381240 119437 net.cpp:150] Setting up inception_4e/relu_5x5
I0711 09:59:40.381268 119437 net.cpp:157] Top shape: 32 128 14 14 (802816)
I0711 09:59:40.381276 119437 net.cpp:165] Memory required for data: 1656161288
I0711 09:59:40.381284 119437 layer_factory.hpp:76] Creating layer inception_4e/pool
I0711 09:59:40.381295 119437 net.cpp:106] Creating Layer inception_4e/pool
I0711 09:59:40.381304 119437 net.cpp:454] inception_4e/pool <- inception_4d/output_inception_4d/output_0_split_4
I0711 09:59:40.381326 119437 net.cpp:411] inception_4e/pool -> inception_4e/pool
I0711 09:59:40.381764 119437 net.cpp:150] Setting up inception_4e/pool
I0711 09:59:40.381781 119437 net.cpp:157] Top shape: 32 528 14 14 (3311616)
I0711 09:59:40.381800 119437 net.cpp:165] Memory required for data: 1669407752
I0711 09:59:40.381809 119437 layer_factory.hpp:76] Creating layer inception_4e/pool_proj
I0711 09:59:40.381824 119437 net.cpp:106] Creating Layer inception_4e/pool_proj
I0711 09:59:40.381834 119437 net.cpp:454] inception_4e/pool_proj <- inception_4e/pool
I0711 09:59:40.381855 119437 net.cpp:411] inception_4e/pool_proj -> inception_4e/pool_proj
I0711 09:59:40.383422 119437 cudnn_conv_layer.cpp:194] Reallocating workspace storage: 6336
I0711 09:59:40.383469 119437 net.cpp:150] Setting up inception_4e/pool_proj
I0711 09:59:40.383481 119437 net.cpp:157] Top shape: 32 128 14 14 (802816)
I0711 09:59:40.383502 119437 net.cpp:165] Memory required for data: 1672619016
I0711 09:59:40.383512 119437 layer_factory.hpp:76] Creating layer inception_4e/relu_pool_proj
I0711 09:59:40.383525 119437 net.cpp:106] Creating Layer inception_4e/relu_pool_proj
I0711 09:59:40.383535 119437 net.cpp:454] inception_4e/relu_pool_proj <- inception_4e/pool_proj
I0711 09:59:40.383544 119437 net.cpp:397] inception_4e/relu_pool_proj -> inception_4e/pool_proj (in-place)
I0711 09:59:40.383780 119437 net.cpp:150] Setting up inception_4e/relu_pool_proj
I0711 09:59:40.383793 119437 net.cpp:157] Top shape: 32 128 14 14 (802816)
I0711 09:59:40.383812 119437 net.cpp:165] Memory required for data: 1675830280
I0711 09:59:40.383819 119437 layer_factory.hpp:76] Creating layer inception_4e/output
I0711 09:59:40.383831 119437 net.cpp:106] Creating Layer inception_4e/output
I0711 09:59:40.383838 119437 net.cpp:454] inception_4e/output <- inception_4e/1x1
I0711 09:59:40.383847 119437 net.cpp:454] inception_4e/output <- inception_4e/3x3
I0711 09:59:40.383854 119437 net.cpp:454] inception_4e/output <- inception_4e/5x5
I0711 09:59:40.383874 119437 net.cpp:454] inception_4e/output <- inception_4e/pool_proj
I0711 09:59:40.383887 119437 net.cpp:411] inception_4e/output -> inception_4e/output
I0711 09:59:40.383926 119437 net.cpp:150] Setting up inception_4e/output
I0711 09:59:40.383942 119437 net.cpp:157] Top shape: 32 832 14 14 (5218304)
I0711 09:59:40.383949 119437 net.cpp:165] Memory required for data: 1696703496
I0711 09:59:40.383958 119437 layer_factory.hpp:76] Creating layer pool4/3x3_s2
I0711 09:59:40.383968 119437 net.cpp:106] Creating Layer pool4/3x3_s2
I0711 09:59:40.383976 119437 net.cpp:454] pool4/3x3_s2 <- inception_4e/output
I0711 09:59:40.383986 119437 net.cpp:411] pool4/3x3_s2 -> pool4/3x3_s2
I0711 09:59:40.384399 119437 net.cpp:150] Setting up pool4/3x3_s2
I0711 09:59:40.384441 119437 net.cpp:157] Top shape: 32 832 7 7 (1304576)
I0711 09:59:40.384461 119437 net.cpp:165] Memory required for data: 1701921800
I0711 09:59:40.384469 119437 layer_factory.hpp:76] Creating layer pool4/3x3_s2_pool4/3x3_s2_0_split
I0711 09:59:40.384480 119437 net.cpp:106] Creating Layer pool4/3x3_s2_pool4/3x3_s2_0_split
I0711 09:59:40.384488 119437 net.cpp:454] pool4/3x3_s2_pool4/3x3_s2_0_split <- pool4/3x3_s2
I0711 09:59:40.384497 119437 net.cpp:411] pool4/3x3_s2_pool4/3x3_s2_0_split -> pool4/3x3_s2_pool4/3x3_s2_0_split_0
I0711 09:59:40.384526 119437 net.cpp:411] pool4/3x3_s2_pool4/3x3_s2_0_split -> pool4/3x3_s2_pool4/3x3_s2_0_split_1
I0711 09:59:40.384537 119437 net.cpp:411] pool4/3x3_s2_pool4/3x3_s2_0_split -> pool4/3x3_s2_pool4/3x3_s2_0_split_2
I0711 09:59:40.384547 119437 net.cpp:411] pool4/3x3_s2_pool4/3x3_s2_0_split -> pool4/3x3_s2_pool4/3x3_s2_0_split_3
I0711 09:59:40.384631 119437 net.cpp:150] Setting up pool4/3x3_s2_pool4/3x3_s2_0_split
I0711 09:59:40.384656 119437 net.cpp:157] Top shape: 32 832 7 7 (1304576)
I0711 09:59:40.384676 119437 net.cpp:157] Top shape: 32 832 7 7 (1304576)
I0711 09:59:40.384696 119437 net.cpp:157] Top shape: 32 832 7 7 (1304576)
I0711 09:59:40.384704 119437 net.cpp:157] Top shape: 32 832 7 7 (1304576)
I0711 09:59:40.384711 119437 net.cpp:165] Memory required for data: 1722795016
I0711 09:59:40.384719 119437 layer_factory.hpp:76] Creating layer inception_5a/1x1
I0711 09:59:40.384734 119437 net.cpp:106] Creating Layer inception_5a/1x1
I0711 09:59:40.384755 119437 net.cpp:454] inception_5a/1x1 <- pool4/3x3_s2_pool4/3x3_s2_0_split_0
I0711 09:59:40.384768 119437 net.cpp:411] inception_5a/1x1 -> inception_5a/1x1
I0711 09:59:40.387984 119437 cudnn_conv_layer.cpp:194] Reallocating workspace storage: 9984
I0711 09:59:40.388036 119437 net.cpp:150] Setting up inception_5a/1x1
I0711 09:59:40.388048 119437 net.cpp:157] Top shape: 32 256 7 7 (401408)
I0711 09:59:40.388068 119437 net.cpp:165] Memory required for data: 1724400648
I0711 09:59:40.388079 119437 layer_factory.hpp:76] Creating layer inception_5a/relu_1x1
I0711 09:59:40.388090 119437 net.cpp:106] Creating Layer inception_5a/relu_1x1
I0711 09:59:40.388099 119437 net.cpp:454] inception_5a/relu_1x1 <- inception_5a/1x1
I0711 09:59:40.388113 119437 net.cpp:397] inception_5a/relu_1x1 -> inception_5a/1x1 (in-place)
I0711 09:59:40.388340 119437 net.cpp:150] Setting up inception_5a/relu_1x1
I0711 09:59:40.388367 119437 net.cpp:157] Top shape: 32 256 7 7 (401408)
I0711 09:59:40.388375 119437 net.cpp:165] Memory required for data: 1726006280
I0711 09:59:40.388383 119437 layer_factory.hpp:76] Creating layer inception_5a/3x3_reduce
I0711 09:59:40.388399 119437 net.cpp:106] Creating Layer inception_5a/3x3_reduce
I0711 09:59:40.388408 119437 net.cpp:454] inception_5a/3x3_reduce <- pool4/3x3_s2_pool4/3x3_s2_0_split_1
I0711 09:59:40.388418 119437 net.cpp:411] inception_5a/3x3_reduce -> inception_5a/3x3_reduce
I0711 09:59:40.391077 119437 cudnn_conv_layer.cpp:194] Reallocating workspace storage: 9984
I0711 09:59:40.391129 119437 net.cpp:150] Setting up inception_5a/3x3_reduce
I0711 09:59:40.391141 119437 net.cpp:157] Top shape: 32 160 7 7 (250880)
I0711 09:59:40.391160 119437 net.cpp:165] Memory required for data: 1727009800
I0711 09:59:40.391172 119437 layer_factory.hpp:76] Creating layer inception_5a/relu_3x3_reduce
I0711 09:59:40.391185 119437 net.cpp:106] Creating Layer inception_5a/relu_3x3_reduce
I0711 09:59:40.391194 119437 net.cpp:454] inception_5a/relu_3x3_reduce <- inception_5a/3x3_reduce
I0711 09:59:40.391204 119437 net.cpp:397] inception_5a/relu_3x3_reduce -> inception_5a/3x3_reduce (in-place)
I0711 09:59:40.391595 119437 net.cpp:150] Setting up inception_5a/relu_3x3_reduce
I0711 09:59:40.391636 119437 net.cpp:157] Top shape: 32 160 7 7 (250880)
I0711 09:59:40.391646 119437 net.cpp:165] Memory required for data: 1728013320
I0711 09:59:40.391654 119437 layer_factory.hpp:76] Creating layer inception_5a/3x3
I0711 09:59:40.391667 119437 net.cpp:106] Creating Layer inception_5a/3x3
I0711 09:59:40.391675 119437 net.cpp:454] inception_5a/3x3 <- inception_5a/3x3_reduce
I0711 09:59:40.391713 119437 net.cpp:411] inception_5a/3x3 -> inception_5a/3x3
I0711 09:59:40.396466 119437 net.cpp:150] Setting up inception_5a/3x3
I0711 09:59:40.396486 119437 net.cpp:157] Top shape: 32 320 7 7 (501760)
I0711 09:59:40.396492 119437 net.cpp:165] Memory required for data: 1730020360
I0711 09:59:40.396502 119437 layer_factory.hpp:76] Creating layer inception_5a/relu_3x3
I0711 09:59:40.396512 119437 net.cpp:106] Creating Layer inception_5a/relu_3x3
I0711 09:59:40.396520 119437 net.cpp:454] inception_5a/relu_3x3 <- inception_5a/3x3
I0711 09:59:40.396530 119437 net.cpp:397] inception_5a/relu_3x3 -> inception_5a/3x3 (in-place)
I0711 09:59:40.396908 119437 net.cpp:150] Setting up inception_5a/relu_3x3
I0711 09:59:40.396925 119437 net.cpp:157] Top shape: 32 320 7 7 (501760)
I0711 09:59:40.396932 119437 net.cpp:165] Memory required for data: 1732027400
I0711 09:59:40.396940 119437 layer_factory.hpp:76] Creating layer inception_5a/5x5_reduce
I0711 09:59:40.396955 119437 net.cpp:106] Creating Layer inception_5a/5x5_reduce
I0711 09:59:40.396963 119437 net.cpp:454] inception_5a/5x5_reduce <- pool4/3x3_s2_pool4/3x3_s2_0_split_2
I0711 09:59:40.396975 119437 net.cpp:411] inception_5a/5x5_reduce -> inception_5a/5x5_reduce
I0711 09:59:40.398396 119437 cudnn_conv_layer.cpp:194] Reallocating workspace storage: 9984
I0711 09:59:40.398432 119437 net.cpp:150] Setting up inception_5a/5x5_reduce
I0711 09:59:40.398442 119437 net.cpp:157] Top shape: 32 32 7 7 (50176)
I0711 09:59:40.398449 119437 net.cpp:165] Memory required for data: 1732228104
I0711 09:59:40.398471 119437 layer_factory.hpp:76] Creating layer inception_5a/relu_5x5_reduce
I0711 09:59:40.398485 119437 net.cpp:106] Creating Layer inception_5a/relu_5x5_reduce
I0711 09:59:40.398494 119437 net.cpp:454] inception_5a/relu_5x5_reduce <- inception_5a/5x5_reduce
I0711 09:59:40.398504 119437 net.cpp:397] inception_5a/relu_5x5_reduce -> inception_5a/5x5_reduce (in-place)
I0711 09:59:40.398711 119437 net.cpp:150] Setting up inception_5a/relu_5x5_reduce
I0711 09:59:40.398726 119437 net.cpp:157] Top shape: 32 32 7 7 (50176)
I0711 09:59:40.398733 119437 net.cpp:165] Memory required for data: 1732428808
I0711 09:59:40.398741 119437 layer_factory.hpp:76] Creating layer inception_5a/5x5
I0711 09:59:40.398753 119437 net.cpp:106] Creating Layer inception_5a/5x5
I0711 09:59:40.398761 119437 net.cpp:454] inception_5a/5x5 <- inception_5a/5x5_reduce
I0711 09:59:40.398771 119437 net.cpp:411] inception_5a/5x5 -> inception_5a/5x5
I0711 09:59:40.400454 119437 net.cpp:150] Setting up inception_5a/5x5
I0711 09:59:40.400475 119437 net.cpp:157] Top shape: 32 128 7 7 (200704)
I0711 09:59:40.400481 119437 net.cpp:165] Memory required for data: 1733231624
I0711 09:59:40.400491 119437 layer_factory.hpp:76] Creating layer inception_5a/relu_5x5
I0711 09:59:40.400501 119437 net.cpp:106] Creating Layer inception_5a/relu_5x5
I0711 09:59:40.400509 119437 net.cpp:454] inception_5a/relu_5x5 <- inception_5a/5x5
I0711 09:59:40.400517 119437 net.cpp:397] inception_5a/relu_5x5 -> inception_5a/5x5 (in-place)
I0711 09:59:40.400866 119437 net.cpp:150] Setting up inception_5a/relu_5x5
I0711 09:59:40.400882 119437 net.cpp:157] Top shape: 32 128 7 7 (200704)
I0711 09:59:40.400889 119437 net.cpp:165] Memory required for data: 1734034440
I0711 09:59:40.400897 119437 layer_factory.hpp:76] Creating layer inception_5a/pool
I0711 09:59:40.400907 119437 net.cpp:106] Creating Layer inception_5a/pool
I0711 09:59:40.400913 119437 net.cpp:454] inception_5a/pool <- pool4/3x3_s2_pool4/3x3_s2_0_split_3
I0711 09:59:40.400923 119437 net.cpp:411] inception_5a/pool -> inception_5a/pool
I0711 09:59:40.401162 119437 net.cpp:150] Setting up inception_5a/pool
I0711 09:59:40.401177 119437 net.cpp:157] Top shape: 32 832 7 7 (1304576)
I0711 09:59:40.401185 119437 net.cpp:165] Memory required for data: 1739252744
I0711 09:59:40.401191 119437 layer_factory.hpp:76] Creating layer inception_5a/pool_proj
I0711 09:59:40.401206 119437 net.cpp:106] Creating Layer inception_5a/pool_proj
I0711 09:59:40.401244 119437 net.cpp:454] inception_5a/pool_proj <- inception_5a/pool
I0711 09:59:40.401258 119437 net.cpp:411] inception_5a/pool_proj -> inception_5a/pool_proj
I0711 09:59:40.406116 119437 cudnn_conv_layer.cpp:194] Reallocating workspace storage: 9984
I0711 09:59:40.406167 119437 net.cpp:150] Setting up inception_5a/pool_proj
I0711 09:59:40.406180 119437 net.cpp:157] Top shape: 32 128 7 7 (200704)
I0711 09:59:40.406199 119437 net.cpp:165] Memory required for data: 1740055560
I0711 09:59:40.406211 119437 layer_factory.hpp:76] Creating layer inception_5a/relu_pool_proj
I0711 09:59:40.406224 119437 net.cpp:106] Creating Layer inception_5a/relu_pool_proj
I0711 09:59:40.406232 119437 net.cpp:454] inception_5a/relu_pool_proj <- inception_5a/pool_proj
I0711 09:59:40.406244 119437 net.cpp:397] inception_5a/relu_pool_proj -> inception_5a/pool_proj (in-place)
I0711 09:59:40.406483 119437 net.cpp:150] Setting up inception_5a/relu_pool_proj
I0711 09:59:40.406497 119437 net.cpp:157] Top shape: 32 128 7 7 (200704)
I0711 09:59:40.406517 119437 net.cpp:165] Memory required for data: 1740858376
I0711 09:59:40.406527 119437 layer_factory.hpp:76] Creating layer inception_5a/output
I0711 09:59:40.406539 119437 net.cpp:106] Creating Layer inception_5a/output
I0711 09:59:40.406548 119437 net.cpp:454] inception_5a/output <- inception_5a/1x1
I0711 09:59:40.406555 119437 net.cpp:454] inception_5a/output <- inception_5a/3x3
I0711 09:59:40.406576 119437 net.cpp:454] inception_5a/output <- inception_5a/5x5
I0711 09:59:40.406584 119437 net.cpp:454] inception_5a/output <- inception_5a/pool_proj
I0711 09:59:40.406594 119437 net.cpp:411] inception_5a/output -> inception_5a/output
I0711 09:59:40.406641 119437 net.cpp:150] Setting up inception_5a/output
I0711 09:59:40.406656 119437 net.cpp:157] Top shape: 32 832 7 7 (1304576)
I0711 09:59:40.406663 119437 net.cpp:165] Memory required for data: 1746076680
I0711 09:59:40.406672 119437 layer_factory.hpp:76] Creating layer inception_5a/output_inception_5a/output_0_split
I0711 09:59:40.406682 119437 net.cpp:106] Creating Layer inception_5a/output_inception_5a/output_0_split
I0711 09:59:40.406692 119437 net.cpp:454] inception_5a/output_inception_5a/output_0_split <- inception_5a/output
I0711 09:59:40.406703 119437 net.cpp:411] inception_5a/output_inception_5a/output_0_split -> inception_5a/output_inception_5a/output_0_split_0
I0711 09:59:40.406715 119437 net.cpp:411] inception_5a/output_inception_5a/output_0_split -> inception_5a/output_inception_5a/output_0_split_1
I0711 09:59:40.406725 119437 net.cpp:411] inception_5a/output_inception_5a/output_0_split -> inception_5a/output_inception_5a/output_0_split_2
I0711 09:59:40.406736 119437 net.cpp:411] inception_5a/output_inception_5a/output_0_split -> inception_5a/output_inception_5a/output_0_split_3
I0711 09:59:40.406822 119437 net.cpp:150] Setting up inception_5a/output_inception_5a/output_0_split
I0711 09:59:40.406847 119437 net.cpp:157] Top shape: 32 832 7 7 (1304576)
I0711 09:59:40.406867 119437 net.cpp:157] Top shape: 32 832 7 7 (1304576)
I0711 09:59:40.406877 119437 net.cpp:157] Top shape: 32 832 7 7 (1304576)
I0711 09:59:40.406896 119437 net.cpp:157] Top shape: 32 832 7 7 (1304576)
I0711 09:59:40.406903 119437 net.cpp:165] Memory required for data: 1766949896
I0711 09:59:40.406911 119437 layer_factory.hpp:76] Creating layer inception_5b/1x1
I0711 09:59:40.406929 119437 net.cpp:106] Creating Layer inception_5b/1x1
I0711 09:59:40.406939 119437 net.cpp:454] inception_5b/1x1 <- inception_5a/output_inception_5a/output_0_split_0
I0711 09:59:40.406960 119437 net.cpp:411] inception_5b/1x1 -> inception_5b/1x1
I0711 09:59:40.410991 119437 cudnn_conv_layer.cpp:194] Reallocating workspace storage: 9984
I0711 09:59:40.411042 119437 net.cpp:150] Setting up inception_5b/1x1
I0711 09:59:40.411054 119437 net.cpp:157] Top shape: 32 384 7 7 (602112)
I0711 09:59:40.411074 119437 net.cpp:165] Memory required for data: 1769358344
I0711 09:59:40.411085 119437 layer_factory.hpp:76] Creating layer inception_5b/relu_1x1
I0711 09:59:40.411097 119437 net.cpp:106] Creating Layer inception_5b/relu_1x1
I0711 09:59:40.411125 119437 net.cpp:454] inception_5b/relu_1x1 <- inception_5b/1x1
I0711 09:59:40.411136 119437 net.cpp:397] inception_5b/relu_1x1 -> inception_5b/1x1 (in-place)
I0711 09:59:40.411502 119437 net.cpp:150] Setting up inception_5b/relu_1x1
I0711 09:59:40.411532 119437 net.cpp:157] Top shape: 32 384 7 7 (602112)
I0711 09:59:40.411540 119437 net.cpp:165] Memory required for data: 1771766792
I0711 09:59:40.411550 119437 layer_factory.hpp:76] Creating layer inception_5b/3x3_reduce
I0711 09:59:40.411561 119437 net.cpp:106] Creating Layer inception_5b/3x3_reduce
I0711 09:59:40.411571 119437 net.cpp:454] inception_5b/3x3_reduce <- inception_5a/output_inception_5a/output_0_split_1
I0711 09:59:40.411581 119437 net.cpp:411] inception_5b/3x3_reduce -> inception_5b/3x3_reduce
I0711 09:59:40.414333 119437 cudnn_conv_layer.cpp:194] Reallocating workspace storage: 9984
I0711 09:59:40.414384 119437 net.cpp:150] Setting up inception_5b/3x3_reduce
I0711 09:59:40.414397 119437 net.cpp:157] Top shape: 32 192 7 7 (301056)
I0711 09:59:40.414417 119437 net.cpp:165] Memory required for data: 1772971016
I0711 09:59:40.414427 119437 layer_factory.hpp:76] Creating layer inception_5b/relu_3x3_reduce
I0711 09:59:40.414441 119437 net.cpp:106] Creating Layer inception_5b/relu_3x3_reduce
I0711 09:59:40.414451 119437 net.cpp:454] inception_5b/relu_3x3_reduce <- inception_5b/3x3_reduce
I0711 09:59:40.414461 119437 net.cpp:397] inception_5b/relu_3x3_reduce -> inception_5b/3x3_reduce (in-place)
I0711 09:59:40.414712 119437 net.cpp:150] Setting up inception_5b/relu_3x3_reduce
I0711 09:59:40.414729 119437 net.cpp:157] Top shape: 32 192 7 7 (301056)
I0711 09:59:40.414749 119437 net.cpp:165] Memory required for data: 1774175240
I0711 09:59:40.414759 119437 layer_factory.hpp:76] Creating layer inception_5b/3x3
I0711 09:59:40.414774 119437 net.cpp:106] Creating Layer inception_5b/3x3
I0711 09:59:40.414783 119437 net.cpp:454] inception_5b/3x3 <- inception_5b/3x3_reduce
I0711 09:59:40.414796 119437 net.cpp:411] inception_5b/3x3 -> inception_5b/3x3
I0711 09:59:40.421239 119437 cudnn_conv_layer.cpp:194] Reallocating workspace storage: 20736
I0711 09:59:40.421283 119437 net.cpp:150] Setting up inception_5b/3x3
I0711 09:59:40.421298 119437 net.cpp:157] Top shape: 32 384 7 7 (602112)
I0711 09:59:40.421305 119437 net.cpp:165] Memory required for data: 1776583688
I0711 09:59:40.421329 119437 layer_factory.hpp:76] Creating layer inception_5b/relu_3x3
I0711 09:59:40.421340 119437 net.cpp:106] Creating Layer inception_5b/relu_3x3
I0711 09:59:40.421350 119437 net.cpp:454] inception_5b/relu_3x3 <- inception_5b/3x3
I0711 09:59:40.421358 119437 net.cpp:397] inception_5b/relu_3x3 -> inception_5b/3x3 (in-place)
I0711 09:59:40.421596 119437 net.cpp:150] Setting up inception_5b/relu_3x3
I0711 09:59:40.421622 119437 net.cpp:157] Top shape: 32 384 7 7 (602112)
I0711 09:59:40.421630 119437 net.cpp:165] Memory required for data: 1778992136
I0711 09:59:40.421639 119437 layer_factory.hpp:76] Creating layer inception_5b/5x5_reduce
I0711 09:59:40.421658 119437 net.cpp:106] Creating Layer inception_5b/5x5_reduce
I0711 09:59:40.421666 119437 net.cpp:454] inception_5b/5x5_reduce <- inception_5a/output_inception_5a/output_0_split_2
I0711 09:59:40.421677 119437 net.cpp:411] inception_5b/5x5_reduce -> inception_5b/5x5_reduce
I0711 09:59:40.423861 119437 net.cpp:150] Setting up inception_5b/5x5_reduce
I0711 09:59:40.423890 119437 net.cpp:157] Top shape: 32 48 7 7 (75264)
I0711 09:59:40.423899 119437 net.cpp:165] Memory required for data: 1779293192
I0711 09:59:40.423910 119437 layer_factory.hpp:76] Creating layer inception_5b/relu_5x5_reduce
I0711 09:59:40.423923 119437 net.cpp:106] Creating Layer inception_5b/relu_5x5_reduce
I0711 09:59:40.423943 119437 net.cpp:454] inception_5b/relu_5x5_reduce <- inception_5b/5x5_reduce
I0711 09:59:40.423954 119437 net.cpp:397] inception_5b/relu_5x5_reduce -> inception_5b/5x5_reduce (in-place)
I0711 09:59:40.424341 119437 net.cpp:150] Setting up inception_5b/relu_5x5_reduce
I0711 09:59:40.424371 119437 net.cpp:157] Top shape: 32 48 7 7 (75264)
I0711 09:59:40.424393 119437 net.cpp:165] Memory required for data: 1779594248
I0711 09:59:40.424402 119437 layer_factory.hpp:76] Creating layer inception_5b/5x5
I0711 09:59:40.424418 119437 net.cpp:106] Creating Layer inception_5b/5x5
I0711 09:59:40.424427 119437 net.cpp:454] inception_5b/5x5 <- inception_5b/5x5_reduce
I0711 09:59:40.424440 119437 net.cpp:411] inception_5b/5x5 -> inception_5b/5x5
I0711 09:59:40.426683 119437 net.cpp:150] Setting up inception_5b/5x5
I0711 09:59:40.426714 119437 net.cpp:157] Top shape: 32 128 7 7 (200704)
I0711 09:59:40.426734 119437 net.cpp:165] Memory required for data: 1780397064
I0711 09:59:40.426744 119437 layer_factory.hpp:76] Creating layer inception_5b/relu_5x5
I0711 09:59:40.426758 119437 net.cpp:106] Creating Layer inception_5b/relu_5x5
I0711 09:59:40.426777 119437 net.cpp:454] inception_5b/relu_5x5 <- inception_5b/5x5
I0711 09:59:40.426786 119437 net.cpp:397] inception_5b/relu_5x5 -> inception_5b/5x5 (in-place)
I0711 09:59:40.426985 119437 net.cpp:150] Setting up inception_5b/relu_5x5
I0711 09:59:40.427000 119437 net.cpp:157] Top shape: 32 128 7 7 (200704)
I0711 09:59:40.427006 119437 net.cpp:165] Memory required for data: 1781199880
I0711 09:59:40.427013 119437 layer_factory.hpp:76] Creating layer inception_5b/pool
I0711 09:59:40.427023 119437 net.cpp:106] Creating Layer inception_5b/pool
I0711 09:59:40.427031 119437 net.cpp:454] inception_5b/pool <- inception_5a/output_inception_5a/output_0_split_3
I0711 09:59:40.427039 119437 net.cpp:411] inception_5b/pool -> inception_5b/pool
I0711 09:59:40.427628 119437 net.cpp:150] Setting up inception_5b/pool
I0711 09:59:40.427646 119437 net.cpp:157] Top shape: 32 832 7 7 (1304576)
I0711 09:59:40.427654 119437 net.cpp:165] Memory required for data: 1786418184
I0711 09:59:40.427660 119437 layer_factory.hpp:76] Creating layer inception_5b/pool_proj
I0711 09:59:40.427675 119437 net.cpp:106] Creating Layer inception_5b/pool_proj
I0711 09:59:40.427683 119437 net.cpp:454] inception_5b/pool_proj <- inception_5b/pool
I0711 09:59:40.427693 119437 net.cpp:411] inception_5b/pool_proj -> inception_5b/pool_proj
I0711 09:59:40.429940 119437 cudnn_conv_layer.cpp:194] Reallocating workspace storage: 9984
I0711 09:59:40.429996 119437 net.cpp:150] Setting up inception_5b/pool_proj
I0711 09:59:40.430022 119437 net.cpp:157] Top shape: 32 128 7 7 (200704)
I0711 09:59:40.430029 119437 net.cpp:165] Memory required for data: 1787221000
I0711 09:59:40.430040 119437 layer_factory.hpp:76] Creating layer inception_5b/relu_pool_proj
I0711 09:59:40.430052 119437 net.cpp:106] Creating Layer inception_5b/relu_pool_proj
I0711 09:59:40.430060 119437 net.cpp:454] inception_5b/relu_pool_proj <- inception_5b/pool_proj
I0711 09:59:40.430073 119437 net.cpp:397] inception_5b/relu_pool_proj -> inception_5b/pool_proj (in-place)
I0711 09:59:40.430457 119437 net.cpp:150] Setting up inception_5b/relu_pool_proj
I0711 09:59:40.430486 119437 net.cpp:157] Top shape: 32 128 7 7 (200704)
I0711 09:59:40.430495 119437 net.cpp:165] Memory required for data: 1788023816
I0711 09:59:40.430502 119437 layer_factory.hpp:76] Creating layer inception_5b/output
I0711 09:59:40.430513 119437 net.cpp:106] Creating Layer inception_5b/output
I0711 09:59:40.430521 119437 net.cpp:454] inception_5b/output <- inception_5b/1x1
I0711 09:59:40.430543 119437 net.cpp:454] inception_5b/output <- inception_5b/3x3
I0711 09:59:40.430552 119437 net.cpp:454] inception_5b/output <- inception_5b/5x5
I0711 09:59:40.430559 119437 net.cpp:454] inception_5b/output <- inception_5b/pool_proj
I0711 09:59:40.430574 119437 net.cpp:411] inception_5b/output -> inception_5b/output
I0711 09:59:40.430618 119437 net.cpp:150] Setting up inception_5b/output
I0711 09:59:40.430639 119437 net.cpp:157] Top shape: 32 1024 7 7 (1605632)
I0711 09:59:40.430646 119437 net.cpp:165] Memory required for data: 1794446344
I0711 09:59:40.430655 119437 layer_factory.hpp:76] Creating layer pool5/7x7_s1
I0711 09:59:40.430665 119437 net.cpp:106] Creating Layer pool5/7x7_s1
I0711 09:59:40.430673 119437 net.cpp:454] pool5/7x7_s1 <- inception_5b/output
I0711 09:59:40.430697 119437 net.cpp:411] pool5/7x7_s1 -> pool5/7x7_s1
I0711 09:59:40.430955 119437 net.cpp:150] Setting up pool5/7x7_s1
I0711 09:59:40.430982 119437 net.cpp:157] Top shape: 32 1024 1 1 (32768)
I0711 09:59:40.430991 119437 net.cpp:165] Memory required for data: 1794577416
I0711 09:59:40.431000 119437 layer_factory.hpp:76] Creating layer pool5/drop_7x7_s1
I0711 09:59:40.431010 119437 net.cpp:106] Creating Layer pool5/drop_7x7_s1
I0711 09:59:40.431018 119437 net.cpp:454] pool5/drop_7x7_s1 <- pool5/7x7_s1
I0711 09:59:40.431030 119437 net.cpp:397] pool5/drop_7x7_s1 -> pool5/7x7_s1 (in-place)
I0711 09:59:40.431072 119437 net.cpp:150] Setting up pool5/drop_7x7_s1
I0711 09:59:40.431085 119437 net.cpp:157] Top shape: 32 1024 1 1 (32768)
I0711 09:59:40.431092 119437 net.cpp:165] Memory required for data: 1794708488
I0711 09:59:40.431102 119437 layer_factory.hpp:76] Creating layer loss3/classifier
I0711 09:59:40.431113 119437 net.cpp:106] Creating Layer loss3/classifier
I0711 09:59:40.431121 119437 net.cpp:454] loss3/classifier <- pool5/7x7_s1
I0711 09:59:40.431134 119437 net.cpp:411] loss3/classifier -> loss3/classifier
I0711 09:59:40.431355 119437 net.cpp:150] Setting up loss3/classifier
I0711 09:59:40.431380 119437 net.cpp:157] Top shape: 32 2 (64)
I0711 09:59:40.431386 119437 net.cpp:165] Memory required for data: 1794708744
I0711 09:59:40.431397 119437 layer_factory.hpp:76] Creating layer loss3/loss3
I0711 09:59:40.431411 119437 net.cpp:106] Creating Layer loss3/loss3
I0711 09:59:40.431418 119437 net.cpp:454] loss3/loss3 <- loss3/classifier
I0711 09:59:40.431427 119437 net.cpp:454] loss3/loss3 <- label_data_1_split_2
I0711 09:59:40.431437 119437 net.cpp:411] loss3/loss3 -> loss3/loss3
…
I0711 09:59:40.437656 119437 net.cpp:49] Initializing net from parameters: 
name: "GoogleNet"
state {
  phase: TEST
}
layer {
  name: "data"
  type: "ImageData"
  top: "data"
  top: "label"
  include {
    phase: TEST
  }
  transform_param {
    mirror: false
    crop_size: 224
    mean_value: 104
    mean_value: 117
    mean_value: 123
  }
  image_data_param {
    source: "/data/dywang/Database/Proliferation/libs/stage04_mitosisDetection/training_examples/val2.lst"
    batch_size: 100
    shuffle: true
    new_height: 256
    new_width: 256
  }
}
layer {
  name: "conv1/7x7_s2"
  type: "Convolution"
  bottom: "data"
  top: "conv1/7x7_s2"
  param {
    lr_mult: 1
    decay_mult: 1
  }
  param {
    lr_mult: 2
    decay_mult: 0
  }
  convolution_param {
    num_output: 64
    pad: 3
    kernel_size: 7
    stride: 2
    weight_filler {
      type: "xavier"
    }
    bias_filler {
      type: "constant"
      value: 0.2
    }
  }
}
layer {
  name: "conv1/relu_7x7"
  type: "ReLU"
  bottom: "conv1/7x7_s2"
  top: "conv1/7x7_s2"
}
layer {
  name: "pool1/3x3_s2"
  type: "Pooling"
  bottom: "conv1/7x7_s2"
  top: "pool1/3x3_s2"
  pooling_param {
    pool: MAX
    kernel_size: 3
    stride: 2
  }
}
layer {
  name: "pool1/norm1"
  type: "LRN"
  bottom: "pool1/3x3_s2"
  top: "pool1/norm1"
  lrn_param {
    local_size: 5
    alpha: 0.0001
    beta: 0.75
  }
}
layer {
  name: "conv2/3x3_reduce"
  type: "Convolution"
  bottom: "pool1/norm1"
  top: "conv2/3x3_reduce"
  param {
    lr_mult: 1
    decay_mult: 1
  }
  param {
    lr_mult: 2
    decay_mult: 0
  }
  convolution_param {
    num_output: 64
    kernel_size: 1
    weight_filler {
      type: "xavier"
    }
    bias_filler {
      type: "constant"
      value: 0.2
    }
  }
}
layer {
  name: "conv2/relu_3x3_reduce"
  type: "ReLU"
  bottom: "conv2/3x3_reduce"
  top: "conv2/3x3_reduce"
}
layer {
  name: "conv2/3x3"
  type: "Convolution"
  bottom: "conv2/3x3_reduce"
  top: "conv2/3x3"
  param {
    lr_mult: 1
    decay_mult: 1
  }
  param {
    lr_mult: 2
    decay_mult: 0
  }
  convolution_param {
    num_output: 192
    pad: 1
    kernel_size: 3
    weight_filler {
      type: "xavier"
    }
    bias_filler {
      type: "constant"
      value: 0.2
    }
  }
}
layer {
  name: "conv2/relu_3x3"
  type: "ReLU"
  bottom: "conv2/3x3"
  top: "conv2/3x3"
}
layer {
  name: "conv2/norm2"
  type: "LRN"
  bottom: "conv2/3x3"
  top: "conv2/norm2"
  lrn_param {
    local_size: 5
    alpha: 0.0001
    beta: 0.75
  }
}
layer {
  name: "pool2/3x3_s2"
  type: "Pooling"
  bottom: "conv2/norm2"
  top: "pool2/3x3_s2"
  pooling_param {
    pool: MAX
    kernel_size: 3
    stride: 2
  }
}
layer {
  name: "inception_3a/1x1"
  type: "Convolution"
  bottom: "pool2/3x3_s2"
  top: "inception_3a/1x1"
  param {
    lr_mult: 1
    decay_mult: 1
  }
  param {
    lr_mult: 2
    decay_mult: 0
  }
  convolution_param {
    num_output: 64
    kernel_size: 1
    weight_filler {
      type: "xavier"
    }
    bias_filler {
      type: "constant"
      value: 0.2
    }
  }
}
layer {
  name: "inception_3a/relu_1x1"
  type: "ReLU"
  bottom: "inception_3a/1x1"
  top: "inception_3a/1x1"
}
layer {
  name: "inception_3a/3x3_reduce"
  type: "Convolution"
  bottom: "pool2/3x3_s2"
  top: "inception_3a/3x3_reduce"
  param {
    lr_mult: 1
    decay_mult: 1
  }
  param {
    lr_mult: 2
    decay_mult: 0
  }
  convolution_param {
    num_output: 96
    kernel_size: 1
    weight_filler {
      type: "xavier"
    }
    bias_filler {
      type: "constant"
      value: 0.2
    }
  }
}
layer {
  name: "inception_3a/relu_3x3_reduce"
  type: "ReLU"
  bottom: "inception_3a/3x3_reduce"
  top: "inception_3a/3x3_reduce"
}
layer {
  name: "inception_3a/3x3"
  type: "Convolution"
  bottom: "inception_3a/3x3_reduce"
  top: "inception_3a/3x3"
  param {
    lr_mult: 1
    decay_mult: 1
  }
  param {
    lr_mult: 2
    decay_mult: 0
  }
  convolution_param {
    num_output: 128
    pad: 1
    kernel_size: 3
    weight_filler {
      type: "xavier"
    }
    bias_filler {
      type: "constant"
      value: 0.2
    }
  }
}
layer {
  name: "inception_3a/relu_3x3"
  type: "ReLU"
  bottom: "inception_3a/3x3"
  top: "inception_3a/3x3"
}
layer {
  name: "inception_3a/5x5_reduce"
  type: "Convolution"
  bottom: "pool2/3x3_s2"
  top: "inception_3a/5x5_reduce"
  param {
    lr_mult: 1
    decay_mult: 1
  }
  param {
    lr_mult: 2
    decay_mult: 0
  }
  convolution_param {
    num_output: 16
    kernel_size: 1
    weight_filler {
      type: "xavier"
    }
    bias_filler {
      type: "constant"
      value: 0.2
    }
  }
}
layer {
  name: "inception_3a/relu_5x5_reduce"
  type: "ReLU"
  bottom: "inception_3a/5x5_reduce"
  top: "inception_3a/5x5_reduce"
}
layer {
  name: "inception_3a/5x5"
  type: "Convolution"
  bottom: "inception_3a/5x5_reduce"
  top: "inception_3a/5x5"
  param {
    lr_mult: 1
    decay_mult: 1
  }
  param {
    lr_mult: 2
    decay_mult: 0
  }
  convolution_param {
    num_output: 32
    pad: 2
    kernel_size: 5
    weight_filler {
      type: "xavier"
    }
    bias_filler {
      type: "constant"
      value: 0.2
    }
  }
}
layer {
  name: "inception_3a/relu_5x5"
  type: "ReLU"
  bottom: "inception_3a/5x5"
  top: "inception_3a/5x5"
}
layer {
  name: "inception_3a/pool"
  type: "Pooling"
  bottom: "pool2/3x3_s2"
  top: "inception_3a/pool"
  pooling_param {
    pool: MAX
    kernel_size: 3
    stride: 1
    pad: 1
  }
}
layer {
  name: "inception_3a/pool_proj"
  type: "Convolution"
  bottom: "inception_3a/pool"
  top: "inception_3a/pool_proj"
  param {
    lr_mult: 1
    decay_mult: 1
  }
  param {
    lr_mult: 2
    decay_mult: 0
  }
  convolution_param {
    num_output: 32
    kernel_size: 1
    weight_filler {
      type: "xavier"
    }
    bias_filler {
      type: "constant"
      value: 0.2
    }
  }
}
layer {
  name: "inception_3a/relu_pool_proj"
  type: "ReLU"
  bottom: "inception_3a/pool_proj"
  top: "inception_3a/pool_proj"
}
layer {
  name: "inception_3a/output"
  type: "Concat"
  bottom: "inception_3a/1x1"
  bottom: "inception_3a/3x3"
  bottom: "inception_3a/5x5"
  bottom: "inception_3a/pool_proj"
  top: "inception_3a/output"
}
layer {
  name: "inception_3b/1x1"
  type: "Convolution"
  bottom: "inception_3a/output"
  top: "inception_3b/1x1"
  param {
    lr_mult: 1
    decay_mult: 1
  }
  param {
    lr_mult: 2
    decay_mult: 0
  }
  convolution_param {
    num_output: 128
    kernel_size: 1
    weight_filler {
      type: "xavier"
    }
    bias_filler {
      type: "constant"
      value: 0.2
    }
  }
}
layer {
  name: "inception_3b/relu_1x1"
  type: "ReLU"
  bottom: "inception_3b/1x1"
  top: "inception_3b/1x1"
}
layer {
  name: "inception_3b/3x3_reduce"
  type: "Convolution"
  bottom: "inception_3a/output"
  top: "inception_3b/3x3_reduce"
  param {
    lr_mult: 1
    decay_mult: 1
  }
  param {
    lr_mult: 2
    decay_mult: 0
  }
  convolution_param {
    num_output: 128
    kernel_size: 1
    weight_filler {
      type: "xavier"
    }
    bias_filler {
      type: "constant"
      value: 0.2
    }
  }
}
layer {
  name: "inception_3b/relu_3x3_reduce"
  type: "ReLU"
  bottom: "inception_3b/3x3_reduce"
  top: "inception_3b/3x3_reduce"
}
layer {
  name: "inception_3b/3x3"
  type: "Convolution"
  bottom: "inception_3b/3x3_reduce"
  top: "inception_3b/3x3"
  param {
    lr_mult: 1
    decay_mult: 1
  }
  param {
    lr_mult: 2
    decay_mult: 0
  }
  convolution_param {
    num_output: 192
    pad: 1
    kernel_size: 3
    weight_filler {
      type: "xavier"
    }
    bias_filler {
      type: "constant"
      value: 0.2
    }
  }
}
layer {
  name: "inception_3b/relu_3x3"
  type: "ReLU"
  bottom: "inception_3b/3x3"
  top: "inception_3b/3x3"
}
layer {
  name: "inception_3b/5x5_reduce"
  type: "Convolution"
  bottom: "inception_3a/output"
  top: "inception_3b/5x5_reduce"
  param {
    lr_mult: 1
    decay_mult: 1
  }
  param {
    lr_mult: 2
    decay_mult: 0
  }
  convolution_param {
    num_output: 32
    kernel_size: 1
    weight_filler {
      type: "xavier"
    }
    bias_filler {
      type: "constant"
      value: 0.2
    }
  }
}
layer {
  name: "inception_3b/relu_5x5_reduce"
  type: "ReLU"
  bottom: "inception_3b/5x5_reduce"
  top: "inception_3b/5x5_reduce"
}
layer {
  name: "inception_3b/5x5"
  type: "Convolution"
  bottom: "inception_3b/5x5_reduce"
  top: "inception_3b/5x5"
  param {
    lr_mult: 1
    decay_mult: 1
  }
  param {
    lr_mult: 2
    decay_mult: 0
  }
  convolution_param {
    num_output: 96
    pad: 2
    kernel_size: 5
    weight_filler {
      type: "xavier"
    }
    bias_filler {
      type: "constant"
      value: 0.2
    }
  }
}
layer {
  name: "inception_3b/relu_5x5"
  type: "ReLU"
  bottom: "inception_3b/5x5"
  top: "inception_3b/5x5"
}
layer {
  name: "inception_3b/pool"
  type: "Pooling"
  bottom: "inception_3a/output"
  top: "inception_3b/pool"
  pooling_param {
    pool: MAX
    kernel_size: 3
    stride: 1
    pad: 1
  }
}
layer {
  name: "inception_3b/pool_proj"
  type: "Convolution"
  bottom: "inception_3b/pool"
  top: "inception_3b/pool_proj"
  param {
    lr_mult: 1
    decay_mult: 1
  }
  param {
    lr_mult: 2
    decay_mult: 0
  }
  convolution_param {
    num_output: 64
    kernel_size: 1
    weight_filler {
      type: "xavier"
    }
    bias_filler {
      type: "constant"
      value: 0.2
    }
  }
}
layer {
  name: "inception_3b/relu_pool_proj"
  type: "ReLU"
  bottom: "inception_3b/pool_proj"
  top: "inception_3b/pool_proj"
}
layer {
  name: "inception_3b/output"
  type: "Concat"
  bottom: "inception_3b/1x1"
  bottom: "inception_3b/3x3"
  bottom: "inception_3b/5x5"
  bottom: "inception_3b/pool_proj"
  top: "inception_3b/output"
}
layer {
  name: "pool3/3x3_s2"
  type: "Pooling"
  bottom: "inception_3b/output"
  top: "pool3/3x3_s2"
  pooling_param {
    pool: MAX
    kernel_size: 3
    stride: 2
  }
}
layer {
  name: "inception_4a/1x1"
  type: "Convolution"
  bottom: "pool3/3x3_s2"
  top: "inception_4a/1x1"
  param {
    lr_mult: 1
…
I0711 09:59:40.717712 119437 net.cpp:157] Top shape: 100 64 14 14 (1254400)
I0711 09:59:40.717720 119437 net.cpp:165] Memory required for data: 4429163608
I0711 09:59:40.717728 119437 layer_factory.hpp:76] Creating layer inception_4c/output
I0711 09:59:40.717738 119437 net.cpp:106] Creating Layer inception_4c/output
I0711 09:59:40.717746 119437 net.cpp:454] inception_4c/output <- inception_4c/1x1
I0711 09:59:40.717756 119437 net.cpp:454] inception_4c/output <- inception_4c/3x3
I0711 09:59:40.717763 119437 net.cpp:454] inception_4c/output <- inception_4c/5x5
I0711 09:59:40.717770 119437 net.cpp:454] inception_4c/output <- inception_4c/pool_proj
I0711 09:59:40.717779 119437 net.cpp:411] inception_4c/output -> inception_4c/output
I0711 09:59:40.717844 119437 net.cpp:150] Setting up inception_4c/output
I0711 09:59:40.717857 119437 net.cpp:157] Top shape: 100 512 14 14 (10035200)
I0711 09:59:40.717864 119437 net.cpp:165] Memory required for data: 4469304408
I0711 09:59:40.717872 119437 layer_factory.hpp:76] Creating layer inception_4c/output_inception_4c/output_0_split
I0711 09:59:40.717886 119437 net.cpp:106] Creating Layer inception_4c/output_inception_4c/output_0_split
I0711 09:59:40.717895 119437 net.cpp:454] inception_4c/output_inception_4c/output_0_split <- inception_4c/output
I0711 09:59:40.717905 119437 net.cpp:411] inception_4c/output_inception_4c/output_0_split -> inception_4c/output_inception_4c/output_0_split_0
I0711 09:59:40.717916 119437 net.cpp:411] inception_4c/output_inception_4c/output_0_split -> inception_4c/output_inception_4c/output_0_split_1
I0711 09:59:40.717941 119437 net.cpp:411] inception_4c/output_inception_4c/output_0_split -> inception_4c/output_inception_4c/output_0_split_2
I0711 09:59:40.717962 119437 net.cpp:411] inception_4c/output_inception_4c/output_0_split -> inception_4c/output_inception_4c/output_0_split_3
I0711 09:59:40.718106 119437 net.cpp:150] Setting up inception_4c/output_inception_4c/output_0_split
I0711 09:59:40.718118 119437 net.cpp:157] Top shape: 100 512 14 14 (10035200)
I0711 09:59:40.718127 119437 net.cpp:157] Top shape: 100 512 14 14 (10035200)
I0711 09:59:40.718134 119437 net.cpp:157] Top shape: 100 512 14 14 (10035200)
I0711 09:59:40.718142 119437 net.cpp:157] Top shape: 100 512 14 14 (10035200)
I0711 09:59:40.718148 119437 net.cpp:165] Memory required for data: 4629867608
I0711 09:59:40.718155 119437 layer_factory.hpp:76] Creating layer inception_4d/1x1
I0711 09:59:40.718195 119437 net.cpp:106] Creating Layer inception_4d/1x1
I0711 09:59:40.718204 119437 net.cpp:454] inception_4d/1x1 <- inception_4c/output_inception_4c/output_0_split_0
I0711 09:59:40.718220 119437 net.cpp:411] inception_4d/1x1 -> inception_4d/1x1
I0711 09:59:40.719991 119437 cudnn_conv_layer.cpp:194] Reallocating workspace storage: 6144
I0711 09:59:40.720043 119437 net.cpp:150] Setting up inception_4d/1x1
I0711 09:59:40.720055 119437 net.cpp:157] Top shape: 100 112 14 14 (2195200)
I0711 09:59:40.720089 119437 net.cpp:165] Memory required for data: 4638648408
I0711 09:59:40.720103 119437 layer_factory.hpp:76] Creating layer inception_4d/relu_1x1
I0711 09:59:40.720113 119437 net.cpp:106] Creating Layer inception_4d/relu_1x1
I0711 09:59:40.720123 119437 net.cpp:454] inception_4d/relu_1x1 <- inception_4d/1x1
I0711 09:59:40.720135 119437 net.cpp:397] inception_4d/relu_1x1 -> inception_4d/1x1 (in-place)
I0711 09:59:40.720741 119437 net.cpp:150] Setting up inception_4d/relu_1x1
I0711 09:59:40.720772 119437 net.cpp:157] Top shape: 100 112 14 14 (2195200)
I0711 09:59:40.720779 119437 net.cpp:165] Memory required for data: 4647429208
I0711 09:59:40.720788 119437 layer_factory.hpp:76] Creating layer inception_4d/3x3_reduce
I0711 09:59:40.720803 119437 net.cpp:106] Creating Layer inception_4d/3x3_reduce
I0711 09:59:40.720811 119437 net.cpp:454] inception_4d/3x3_reduce <- inception_4c/output_inception_4c/output_0_split_1
I0711 09:59:40.720824 119437 net.cpp:411] inception_4d/3x3_reduce -> inception_4d/3x3_reduce
I0711 09:59:40.722528 119437 cudnn_conv_layer.cpp:194] Reallocating workspace storage: 6144
I0711 09:59:40.722580 119437 net.cpp:150] Setting up inception_4d/3x3_reduce
I0711 09:59:40.722610 119437 net.cpp:157] Top shape: 100 144 14 14 (2822400)
I0711 09:59:40.722620 119437 net.cpp:165] Memory required for data: 4658718808
I0711 09:59:40.722637 119437 layer_factory.hpp:76] Creating layer inception_4d/relu_3x3_reduce
I0711 09:59:40.722651 119437 net.cpp:106] Creating Layer inception_4d/relu_3x3_reduce
I0711 09:59:40.722659 119437 net.cpp:454] inception_4d/relu_3x3_reduce <- inception_4d/3x3_reduce
I0711 09:59:40.722669 119437 net.cpp:397] inception_4d/relu_3x3_reduce -> inception_4d/3x3_reduce (in-place)
I0711 09:59:40.723125 119437 net.cpp:150] Setting up inception_4d/relu_3x3_reduce
I0711 09:59:40.723158 119437 net.cpp:157] Top shape: 100 144 14 14 (2822400)
I0711 09:59:40.723168 119437 net.cpp:165] Memory required for data: 4670008408
I0711 09:59:40.723188 119437 layer_factory.hpp:76] Creating layer inception_4d/3x3
I0711 09:59:40.723201 119437 net.cpp:106] Creating Layer inception_4d/3x3
I0711 09:59:40.723209 119437 net.cpp:454] inception_4d/3x3 <- inception_4d/3x3_reduce
I0711 09:59:40.723222 119437 net.cpp:411] inception_4d/3x3 -> inception_4d/3x3
I0711 09:59:40.727854 119437 cudnn_conv_layer.cpp:194] Reallocating workspace storage: 15552
I0711 09:59:40.727911 119437 net.cpp:150] Setting up inception_4d/3x3
I0711 09:59:40.727938 119437 net.cpp:157] Top shape: 100 288 14 14 (5644800)
I0711 09:59:40.727958 119437 net.cpp:165] Memory required for data: 4692587608
I0711 09:59:40.727970 119437 layer_factory.hpp:76] Creating layer inception_4d/relu_3x3
I0711 09:59:40.727993 119437 net.cpp:106] Creating Layer inception_4d/relu_3x3
I0711 09:59:40.728001 119437 net.cpp:454] inception_4d/relu_3x3 <- inception_4d/3x3
I0711 09:59:40.728013 119437 net.cpp:397] inception_4d/relu_3x3 -> inception_4d/3x3 (in-place)
I0711 09:59:40.728369 119437 net.cpp:150] Setting up inception_4d/relu_3x3
I0711 09:59:40.728396 119437 net.cpp:157] Top shape: 100 288 14 14 (5644800)
I0711 09:59:40.728404 119437 net.cpp:165] Memory required for data: 4715166808
I0711 09:59:40.728412 119437 layer_factory.hpp:76] Creating layer inception_4d/5x5_reduce
I0711 09:59:40.728427 119437 net.cpp:106] Creating Layer inception_4d/5x5_reduce
I0711 09:59:40.728436 119437 net.cpp:454] inception_4d/5x5_reduce <- inception_4c/output_inception_4c/output_0_split_2
I0711 09:59:40.728449 119437 net.cpp:411] inception_4d/5x5_reduce -> inception_4d/5x5_reduce
I0711 09:59:40.729912 119437 net.cpp:150] Setting up inception_4d/5x5_reduce
I0711 09:59:40.729930 119437 net.cpp:157] Top shape: 100 32 14 14 (627200)
I0711 09:59:40.729938 119437 net.cpp:165] Memory required for data: 4717675608
I0711 09:59:40.729948 119437 layer_factory.hpp:76] Creating layer inception_4d/relu_5x5_reduce
I0711 09:59:40.729961 119437 net.cpp:106] Creating Layer inception_4d/relu_5x5_reduce
I0711 09:59:40.729969 119437 net.cpp:454] inception_4d/relu_5x5_reduce <- inception_4d/5x5_reduce
I0711 09:59:40.729990 119437 net.cpp:397] inception_4d/relu_5x5_reduce -> inception_4d/5x5_reduce (in-place)
I0711 09:59:40.730368 119437 net.cpp:150] Setting up inception_4d/relu_5x5_reduce
I0711 09:59:40.730386 119437 net.cpp:157] Top shape: 100 32 14 14 (627200)
I0711 09:59:40.730392 119437 net.cpp:165] Memory required for data: 4720184408
I0711 09:59:40.730399 119437 layer_factory.hpp:76] Creating layer inception_4d/5x5
I0711 09:59:40.730417 119437 net.cpp:106] Creating Layer inception_4d/5x5
I0711 09:59:40.730425 119437 net.cpp:454] inception_4d/5x5 <- inception_4d/5x5_reduce
I0711 09:59:40.730435 119437 net.cpp:411] inception_4d/5x5 -> inception_4d/5x5
I0711 09:59:40.731855 119437 cudnn_conv_layer.cpp:194] Reallocating workspace storage: 9600
I0711 09:59:40.731905 119437 net.cpp:150] Setting up inception_4d/5x5
I0711 09:59:40.731931 119437 net.cpp:157] Top shape: 100 64 14 14 (1254400)
I0711 09:59:40.731950 119437 net.cpp:165] Memory required for data: 4725202008
I0711 09:59:40.731961 119437 layer_factory.hpp:76] Creating layer inception_4d/relu_5x5
I0711 09:59:40.731986 119437 net.cpp:106] Creating Layer inception_4d/relu_5x5
I0711 09:59:40.731993 119437 net.cpp:454] inception_4d/relu_5x5 <- inception_4d/5x5
I0711 09:59:40.732017 119437 net.cpp:397] inception_4d/relu_5x5 -> inception_4d/5x5 (in-place)
I0711 09:59:40.732434 119437 net.cpp:150] Setting up inception_4d/relu_5x5
I0711 09:59:40.732463 119437 net.cpp:157] Top shape: 100 64 14 14 (1254400)
I0711 09:59:40.732471 119437 net.cpp:165] Memory required for data: 4730219608
I0711 09:59:40.732492 119437 layer_factory.hpp:76] Creating layer inception_4d/pool
I0711 09:59:40.732504 119437 net.cpp:106] Creating Layer inception_4d/pool
I0711 09:59:40.732512 119437 net.cpp:454] inception_4d/pool <- inception_4c/output_inception_4c/output_0_split_3
I0711 09:59:40.732522 119437 net.cpp:411] inception_4d/pool -> inception_4d/pool
I0711 09:59:40.732990 119437 net.cpp:150] Setting up inception_4d/pool
I0711 09:59:40.733006 119437 net.cpp:157] Top shape: 100 512 14 14 (10035200)
I0711 09:59:40.733013 119437 net.cpp:165] Memory required for data: 4770360408
I0711 09:59:40.733021 119437 layer_factory.hpp:76] Creating layer inception_4d/pool_proj
I0711 09:59:40.733036 119437 net.cpp:106] Creating Layer inception_4d/pool_proj
I0711 09:59:40.733044 119437 net.cpp:454] inception_4d/pool_proj <- inception_4d/pool
I0711 09:59:40.733055 119437 net.cpp:411] inception_4d/pool_proj -> inception_4d/pool_proj
I0711 09:59:40.734434 119437 net.cpp:150] Setting up inception_4d/pool_proj
I0711 09:59:40.734465 119437 net.cpp:157] Top shape: 100 64 14 14 (1254400)
I0711 09:59:40.734473 119437 net.cpp:165] Memory required for data: 4775378008
I0711 09:59:40.734484 119437 layer_factory.hpp:76] Creating layer inception_4d/relu_pool_proj
I0711 09:59:40.734498 119437 net.cpp:106] Creating Layer inception_4d/relu_pool_proj
I0711 09:59:40.734506 119437 net.cpp:454] inception_4d/relu_pool_proj <- inception_4d/pool_proj
I0711 09:59:40.734520 119437 net.cpp:397] inception_4d/relu_pool_proj -> inception_4d/pool_proj (in-place)
I0711 09:59:40.734963 119437 net.cpp:150] Setting up inception_4d/relu_pool_proj
I0711 09:59:40.735007 119437 net.cpp:157] Top shape: 100 64 14 14 (1254400)
I0711 09:59:40.735014 119437 net.cpp:165] Memory required for data: 4780395608
I0711 09:59:40.735023 119437 layer_factory.hpp:76] Creating layer inception_4d/output
I0711 09:59:40.735033 119437 net.cpp:106] Creating Layer inception_4d/output
I0711 09:59:40.735041 119437 net.cpp:454] inception_4d/output <- inception_4d/1x1
I0711 09:59:40.735050 119437 net.cpp:454] inception_4d/output <- inception_4d/3x3
I0711 09:59:40.735059 119437 net.cpp:454] inception_4d/output <- inception_4d/5x5
I0711 09:59:40.735066 119437 net.cpp:454] inception_4d/output <- inception_4d/pool_proj
I0711 09:59:40.735079 119437 net.cpp:411] inception_4d/output -> inception_4d/output
I0711 09:59:40.735178 119437 net.cpp:150] Setting up inception_4d/output
I0711 09:59:40.735203 119437 net.cpp:157] Top shape: 100 528 14 14 (10348800)
I0711 09:59:40.735224 119437 net.cpp:165] Memory required for data: 4821790808
I0711 09:59:40.735244 119437 layer_factory.hpp:76] Creating layer inception_4d/output_inception_4d/output_0_split
I0711 09:59:40.735309 119437 net.cpp:106] Creating Layer inception_4d/output_inception_4d/output_0_split
I0711 09:59:40.735333 119437 net.cpp:454] inception_4d/output_inception_4d/output_0_split <- inception_4d/output
I0711 09:59:40.735355 119437 net.cpp:411] inception_4d/output_inception_4d/output_0_split -> inception_4d/output_inception_4d/output_0_split_0
I0711 09:59:40.735368 119437 net.cpp:411] inception_4d/output_inception_4d/output_0_split -> inception_4d/output_inception_4d/output_0_split_1
I0711 09:59:40.735380 119437 net.cpp:411] inception_4d/output_inception_4d/output_0_split -> inception_4d/output_inception_4d/output_0_split_2
I0711 09:59:40.735404 119437 net.cpp:411] inception_4d/output_inception_4d/output_0_split -> inception_4d/output_inception_4d/output_0_split_3
I0711 09:59:40.735414 119437 net.cpp:411] inception_4d/output_inception_4d/output_0_split -> inception_4d/output_inception_4d/output_0_split_4
I0711 09:59:40.735632 119437 net.cpp:150] Setting up inception_4d/output_inception_4d/output_0_split
I0711 09:59:40.735646 119437 net.cpp:157] Top shape: 100 528 14 14 (10348800)
I0711 09:59:40.735682 119437 net.cpp:157] Top shape: 100 528 14 14 (10348800)
I0711 09:59:40.735703 119437 net.cpp:157] Top shape: 100 528 14 14 (10348800)
I0711 09:59:40.735712 119437 net.cpp:157] Top shape: 100 528 14 14 (10348800)
I0711 09:59:40.735719 119437 net.cpp:157] Top shape: 100 528 14 14 (10348800)
I0711 09:59:40.735725 119437 net.cpp:165] Memory required for data: 5028766808
I0711 09:59:40.735733 119437 layer_factory.hpp:76] Creating layer loss2/ave_pool
I0711 09:59:40.735743 119437 net.cpp:106] Creating Layer loss2/ave_pool
I0711 09:59:40.735750 119437 net.cpp:454] loss2/ave_pool <- inception_4d/output_inception_4d/output_0_split_0
I0711 09:59:40.735764 119437 net.cpp:411] loss2/ave_pool -> loss2/ave_pool
I0711 09:59:40.736057 119437 net.cpp:150] Setting up loss2/ave_pool
I0711 09:59:40.736083 119437 net.cpp:157] Top shape: 100 528 4 4 (844800)
I0711 09:59:40.736090 119437 net.cpp:165] Memory required for data: 5032146008
I0711 09:59:40.736099 119437 layer_factory.hpp:76] Creating layer loss2/conv
I0711 09:59:40.736114 119437 net.cpp:106] Creating Layer loss2/conv
I0711 09:59:40.736124 119437 net.cpp:454] loss2/conv <- loss2/ave_pool
I0711 09:59:40.736134 119437 net.cpp:411] loss2/conv -> loss2/conv
I0711 09:59:40.738500 119437 cudnn_conv_layer.cpp:194] Reallocating workspace storage: 6336
I0711 09:59:40.738566 119437 net.cpp:150] Setting up loss2/conv
I0711 09:59:40.738592 119437 net.cpp:157] Top shape: 100 128 4 4 (204800)
I0711 09:59:40.738601 119437 net.cpp:165] Memory required for data: 5032965208
I0711 09:59:40.738612 119437 layer_factory.hpp:76] Creating layer loss2/relu_conv
I0711 09:59:40.738626 119437 net.cpp:106] Creating Layer loss2/relu_conv
I0711 09:59:40.738643 119437 net.cpp:454] loss2/relu_conv <- loss2/conv
I0711 09:59:40.738667 119437 net.cpp:397] loss2/relu_conv -> loss2/conv (in-place)
I0711 09:59:40.739140 119437 net.cpp:150] Setting up loss2/relu_conv
I0711 09:59:40.739156 119437 net.cpp:157] Top shape: 100 128 4 4 (204800)
I0711 09:59:40.739163 119437 net.cpp:165] Memory required for data: 5033784408
I0711 09:59:40.739171 119437 layer_factory.hpp:76] Creating layer loss2/fc
I0711 09:59:40.739184 119437 net.cpp:106] Creating Layer loss2/fc
I0711 09:59:40.739192 119437 net.cpp:454] loss2/fc <- loss2/conv
I0711 09:59:40.739203 119437 net.cpp:411] loss2/fc -> loss2/fc
I0711 09:59:40.755695 119437 net.cpp:150] Setting up loss2/fc
I0711 09:59:40.755719 119437 net.cpp:157] Top shape: 100 1024 (102400)
I0711 09:59:40.755728 119437 net.cpp:165] Memory required for data: 5034194008
I0711 09:59:40.755738 119437 layer_factory.hpp:76] Creating layer loss2/relu_fc
I0711 09:59:40.755753 119437 net.cpp:106] Creating Layer loss2/relu_fc
I0711 09:59:40.755761 119437 net.cpp:454] loss2/relu_fc <- loss2/fc
I0711 09:59:40.755770 119437 net.cpp:397] loss2/relu_fc -> loss2/fc (in-place)
I0711 09:59:40.756042 119437 net.cpp:150] Setting up loss2/relu_fc
I0711 09:59:40.756057 119437 net.cpp:157] Top shape: 100 1024 (102400)
I0711 09:59:40.756063 119437 net.cpp:165] Memory required for data: 5034603608
I0711 09:59:40.756070 119437 layer_factory.hpp:76] Creating layer loss2/drop_fc
I0711 09:59:40.756081 119437 net.cpp:106] Creating Layer loss2/drop_fc
I0711 09:59:40.756088 119437 net.cpp:454] loss2/drop_fc <- loss2/fc
I0711 09:59:40.756096 119437 net.cpp:397] loss2/drop_fc -> loss2/fc (in-place)
I0711 09:59:40.756158 119437 net.cpp:150] Setting up loss2/drop_fc
I0711 09:59:40.756172 119437 net.cpp:157] Top shape: 100 1024 (102400)
I0711 09:59:40.756180 119437 net.cpp:165] Memory required for data: 5035013208
I0711 09:59:40.756187 119437 layer_factory.hpp:76] Creating layer loss2/classifier
I0711 09:59:40.756201 119437 net.cpp:106] Creating Layer loss2/classifier
I0711 09:59:40.756209 119437 net.cpp:454] loss2/classifier <- loss2/fc
I0711 09:59:40.756218 119437 net.cpp:411] loss2/classifier -> loss2/classifier
I0711 09:59:40.756476 119437 net.cpp:150] Setting up loss2/classifier
I0711 09:59:40.756489 119437 net.cpp:157] Top shape: 100 2 (200)
I0711 09:59:40.756495 119437 net.cpp:165] Memory required for data: 5035014008
I0711 09:59:40.756522 119437 layer_factory.hpp:76] Creating layer loss2/classifier_loss2/classifier_0_split
I0711 09:59:40.756533 119437 net.cpp:106] Creating Layer loss2/classifier_loss2/classifier_0_split
I0711 09:59:40.756541 119437 net.cpp:454] loss2/classifier_loss2/classifier_0_split <- loss2/classifier
I0711 09:59:40.756552 119437 net.cpp:411] loss2/classifier_loss2/classifier_0_split -> loss2/classifier_loss2/classifier_0_split_0
I0711 09:59:40.756575 119437 net.cpp:411] loss2/classifier_loss2/classifier_0_split -> loss2/classifier_loss2/classifier_0_split_1
I0711 09:59:40.756651 119437 net.cpp:150] Setting up loss2/classifier_loss2/classifier_0_split
I0711 09:59:40.756664 119437 net.cpp:157] Top shape: 100 2 (200)
I0711 09:59:40.756672 119437 net.cpp:157] Top shape: 100 2 (200)
I0711 09:59:40.756680 119437 net.cpp:165] Memory required for data: 5035015608
I0711 09:59:40.756687 119437 layer_factory.hpp:76] Creating layer loss2/loss
I0711 09:59:40.756700 119437 net.cpp:106] Creating Layer loss2/loss
I0711 09:59:40.756708 119437 net.cpp:454] loss2/loss <- loss2/classifier_loss2/classifier_0_split_0
I0711 09:59:40.756729 119437 net.cpp:454] loss2/loss <- label_data_1_split_2
…
I0711 09:59:40.757521 119437 net.cpp:165] Memory required for data: 5035015616
I0711 09:59:40.757529 119437 layer_factory.hpp:76] Creating layer inception_4e/1x1
I0711 09:59:40.757544 119437 net.cpp:106] Creating Layer inception_4e/1x1
I0711 09:59:40.757556 119437 net.cpp:454] inception_4e/1x1 <- inception_4d/output_inception_4d/output_0_split_1
I0711 09:59:40.757591 119437 net.cpp:411] inception_4e/1x1 -> inception_4e/1x1
I0711 09:59:40.759946 119437 cudnn_conv_layer.cpp:194] Reallocating workspace storage: 6336
I0711 09:59:40.759996 119437 net.cpp:150] Setting up inception_4e/1x1
I0711 09:59:40.760023 119437 net.cpp:157] Top shape: 100 256 14 14 (5017600)
I0711 09:59:40.760056 119437 net.cpp:165] Memory required for data: 5055086016
I0711 09:59:40.760079 119437 layer_factory.hpp:76] Creating layer inception_4e/relu_1x1
I0711 09:59:40.760094 119437 net.cpp:106] Creating Layer inception_4e/relu_1x1
I0711 09:59:40.760103 119437 net.cpp:454] inception_4e/relu_1x1 <- inception_4e/1x1
I0711 09:59:40.760113 119437 net.cpp:397] inception_4e/relu_1x1 -> inception_4e/1x1 (in-place)
I0711 09:59:40.760548 119437 net.cpp:150] Setting up inception_4e/relu_1x1
I0711 09:59:40.760587 119437 net.cpp:157] Top shape: 100 256 14 14 (5017600)
I0711 09:59:40.760607 119437 net.cpp:165] Memory required for data: 5075156416
I0711 09:59:40.760614 119437 layer_factory.hpp:76] Creating layer inception_4e/3x3_reduce
I0711 09:59:40.760633 119437 net.cpp:106] Creating Layer inception_4e/3x3_reduce
I0711 09:59:40.760642 119437 net.cpp:454] inception_4e/3x3_reduce <- inception_4d/output_inception_4d/output_0_split_2
I0711 09:59:40.760651 119437 net.cpp:411] inception_4e/3x3_reduce -> inception_4e/3x3_reduce
I0711 09:59:40.763243 119437 cudnn_conv_layer.cpp:194] Reallocating workspace storage: 6336
I0711 09:59:40.763306 119437 net.cpp:150] Setting up inception_4e/3x3_reduce
I0711 09:59:40.763332 119437 net.cpp:157] Top shape: 100 160 14 14 (3136000)
I0711 09:59:40.763341 119437 net.cpp:165] Memory required for data: 5087700416
I0711 09:59:40.763352 119437 layer_factory.hpp:76] Creating layer inception_4e/relu_3x3_reduce
I0711 09:59:40.763363 119437 net.cpp:106] Creating Layer inception_4e/relu_3x3_reduce
I0711 09:59:40.763372 119437 net.cpp:454] inception_4e/relu_3x3_reduce <- inception_4e/3x3_reduce
I0711 09:59:40.763384 119437 net.cpp:397] inception_4e/relu_3x3_reduce -> inception_4e/3x3_reduce (in-place)
I0711 09:59:40.763691 119437 net.cpp:150] Setting up inception_4e/relu_3x3_reduce
I0711 09:59:40.763720 119437 net.cpp:157] Top shape: 100 160 14 14 (3136000)
I0711 09:59:40.763728 119437 net.cpp:165] Memory required for data: 5100244416
I0711 09:59:40.763736 119437 layer_factory.hpp:76] Creating layer inception_4e/3x3
I0711 09:59:40.763787 119437 net.cpp:106] Creating Layer inception_4e/3x3
I0711 09:59:40.763798 119437 net.cpp:454] inception_4e/3x3 <- inception_4e/3x3_reduce
I0711 09:59:40.763813 119437 net.cpp:411] inception_4e/3x3 -> inception_4e/3x3
I0711 09:59:40.768962 119437 cudnn_conv_layer.cpp:194] Reallocating workspace storage: 17280
I0711 09:59:40.769003 119437 net.cpp:150] Setting up inception_4e/3x3
I0711 09:59:40.769014 119437 net.cpp:157] Top shape: 100 320 14 14 (6272000)
I0711 09:59:40.769022 119437 net.cpp:165] Memory required for data: 5125332416
I0711 09:59:40.769034 119437 layer_factory.hpp:76] Creating layer inception_4e/relu_3x3
I0711 09:59:40.769048 119437 net.cpp:106] Creating Layer inception_4e/relu_3x3
I0711 09:59:40.769058 119437 net.cpp:454] inception_4e/relu_3x3 <- inception_4e/3x3
I0711 09:59:40.769068 119437 net.cpp:397] inception_4e/relu_3x3 -> inception_4e/3x3 (in-place)
I0711 09:59:40.769503 119437 net.cpp:150] Setting up inception_4e/relu_3x3
I0711 09:59:40.769532 119437 net.cpp:157] Top shape: 100 320 14 14 (6272000)
I0711 09:59:40.769541 119437 net.cpp:165] Memory required for data: 5150420416
I0711 09:59:40.769548 119437 layer_factory.hpp:76] Creating layer inception_4e/5x5_reduce
I0711 09:59:40.769567 119437 net.cpp:106] Creating Layer inception_4e/5x5_reduce
I0711 09:59:40.769577 119437 net.cpp:454] inception_4e/5x5_reduce <- inception_4d/output_inception_4d/output_0_split_3
I0711 09:59:40.769587 119437 net.cpp:411] inception_4e/5x5_reduce -> inception_4e/5x5_reduce
I0711 09:59:40.771078 119437 cudnn_conv_layer.cpp:194] Reallocating workspace storage: 6336
I0711 09:59:40.771126 119437 net.cpp:150] Setting up inception_4e/5x5_reduce
I0711 09:59:40.771152 119437 net.cpp:157] Top shape: 100 32 14 14 (627200)
I0711 09:59:40.771172 119437 net.cpp:165] Memory required for data: 5152929216
I0711 09:59:40.771183 119437 layer_factory.hpp:76] Creating layer inception_4e/relu_5x5_reduce
I0711 09:59:40.771204 119437 net.cpp:106] Creating Layer inception_4e/relu_5x5_reduce
I0711 09:59:40.771226 119437 net.cpp:454] inception_4e/relu_5x5_reduce <- inception_4e/5x5_reduce
I0711 09:59:40.771237 119437 net.cpp:397] inception_4e/relu_5x5_reduce -> inception_4e/5x5_reduce (in-place)
I0711 09:59:40.771477 119437 net.cpp:150] Setting up inception_4e/relu_5x5_reduce
I0711 09:59:40.771492 119437 net.cpp:157] Top shape: 100 32 14 14 (627200)
I0711 09:59:40.771499 119437 net.cpp:165] Memory required for data: 5155438016
I0711 09:59:40.771507 119437 layer_factory.hpp:76] Creating layer inception_4e/5x5
I0711 09:59:40.771520 119437 net.cpp:106] Creating Layer inception_4e/5x5
I0711 09:59:40.771528 119437 net.cpp:454] inception_4e/5x5 <- inception_4e/5x5_reduce
I0711 09:59:40.771540 119437 net.cpp:411] inception_4e/5x5 -> inception_4e/5x5
I0711 09:59:40.773435 119437 net.cpp:150] Setting up inception_4e/5x5
I0711 09:59:40.773453 119437 net.cpp:157] Top shape: 100 128 14 14 (2508800)
I0711 09:59:40.773460 119437 net.cpp:165] Memory required for data: 5165473216
I0711 09:59:40.773470 119437 layer_factory.hpp:76] Creating layer inception_4e/relu_5x5
I0711 09:59:40.773480 119437 net.cpp:106] Creating Layer inception_4e/relu_5x5
I0711 09:59:40.773488 119437 net.cpp:454] inception_4e/relu_5x5 <- inception_4e/5x5
I0711 09:59:40.773499 119437 net.cpp:397] inception_4e/relu_5x5 -> inception_4e/5x5 (in-place)
I0711 09:59:40.773720 119437 net.cpp:150] Setting up inception_4e/relu_5x5
I0711 09:59:40.773735 119437 net.cpp:157] Top shape: 100 128 14 14 (2508800)
I0711 09:59:40.773741 119437 net.cpp:165] Memory required for data: 5175508416
I0711 09:59:40.773748 119437 layer_factory.hpp:76] Creating layer inception_4e/pool
I0711 09:59:40.773761 119437 net.cpp:106] Creating Layer inception_4e/pool
I0711 09:59:40.773769 119437 net.cpp:454] inception_4e/pool <- inception_4d/output_inception_4d/output_0_split_4
I0711 09:59:40.773778 119437 net.cpp:411] inception_4e/pool -> inception_4e/pool
I0711 09:59:40.774201 119437 net.cpp:150] Setting up inception_4e/pool
I0711 09:59:40.774219 119437 net.cpp:157] Top shape: 100 528 14 14 (10348800)
I0711 09:59:40.774225 119437 net.cpp:165] Memory required for data: 5216903616
I0711 09:59:40.774232 119437 layer_factory.hpp:76] Creating layer inception_4e/pool_proj
I0711 09:59:40.774248 119437 net.cpp:106] Creating Layer inception_4e/pool_proj
I0711 09:59:40.774256 119437 net.cpp:454] inception_4e/pool_proj <- inception_4e/pool
I0711 09:59:40.774266 119437 net.cpp:411] inception_4e/pool_proj -> inception_4e/pool_proj
I0711 09:59:40.775946 119437 cudnn_conv_layer.cpp:194] Reallocating workspace storage: 6336
I0711 09:59:40.775992 119437 net.cpp:150] Setting up inception_4e/pool_proj
I0711 09:59:40.776018 119437 net.cpp:157] Top shape: 100 128 14 14 (2508800)
I0711 09:59:40.776028 119437 net.cpp:165] Memory required for data: 5226938816
I0711 09:59:40.776039 119437 layer_factory.hpp:76] Creating layer inception_4e/relu_pool_proj
I0711 09:59:40.776051 119437 net.cpp:106] Creating Layer inception_4e/relu_pool_proj
I0711 09:59:40.776059 119437 net.cpp:454] inception_4e/relu_pool_proj <- inception_4e/pool_proj
I0711 09:59:40.776082 119437 net.cpp:397] inception_4e/relu_pool_proj -> inception_4e/pool_proj (in-place)
I0711 09:59:40.776304 119437 net.cpp:150] Setting up inception_4e/relu_pool_proj
I0711 09:59:40.776319 119437 net.cpp:157] Top shape: 100 128 14 14 (2508800)
I0711 09:59:40.776324 119437 net.cpp:165] Memory required for data: 5236974016
I0711 09:59:40.776331 119437 layer_factory.hpp:76] Creating layer inception_4e/output
I0711 09:59:40.776355 119437 net.cpp:106] Creating Layer inception_4e/output
I0711 09:59:40.776362 119437 net.cpp:454] inception_4e/output <- inception_4e/1x1
I0711 09:59:40.776371 119437 net.cpp:454] inception_4e/output <- inception_4e/3x3
I0711 09:59:40.776379 119437 net.cpp:454] inception_4e/output <- inception_4e/5x5
I0711 09:59:40.776387 119437 net.cpp:454] inception_4e/output <- inception_4e/pool_proj
I0711 09:59:40.776412 119437 net.cpp:411] inception_4e/output -> inception_4e/output
I0711 09:59:40.776471 119437 net.cpp:150] Setting up inception_4e/output
I0711 09:59:40.776497 119437 net.cpp:157] Top shape: 100 832 14 14 (16307200)
I0711 09:59:40.776504 119437 net.cpp:165] Memory required for data: 5302202816
I0711 09:59:40.776512 119437 layer_factory.hpp:76] Creating layer pool4/3x3_s2
I0711 09:59:40.776538 119437 net.cpp:106] Creating Layer pool4/3x3_s2
I0711 09:59:40.776546 119437 net.cpp:454] pool4/3x3_s2 <- inception_4e/output
I0711 09:59:40.776556 119437 net.cpp:411] pool4/3x3_s2 -> pool4/3x3_s2
I0711 09:59:40.776986 119437 net.cpp:150] Setting up pool4/3x3_s2
I0711 09:59:40.777004 119437 net.cpp:157] Top shape: 100 832 7 7 (4076800)
I0711 09:59:40.777011 119437 net.cpp:165] Memory required for data: 5318510016
I0711 09:59:40.777019 119437 layer_factory.hpp:76] Creating layer pool4/3x3_s2_pool4/3x3_s2_0_split
I0711 09:59:40.777030 119437 net.cpp:106] Creating Layer pool4/3x3_s2_pool4/3x3_s2_0_split
I0711 09:59:40.777039 119437 net.cpp:454] pool4/3x3_s2_pool4/3x3_s2_0_split <- pool4/3x3_s2
I0711 09:59:40.777046 119437 net.cpp:411] pool4/3x3_s2_pool4/3x3_s2_0_split -> pool4/3x3_s2_pool4/3x3_s2_0_split_0
I0711 09:59:40.777058 119437 net.cpp:411] pool4/3x3_s2_pool4/3x3_s2_0_split -> pool4/3x3_s2_pool4/3x3_s2_0_split_1
I0711 09:59:40.777068 119437 net.cpp:411] pool4/3x3_s2_pool4/3x3_s2_0_split -> pool4/3x3_s2_pool4/3x3_s2_0_split_2
I0711 09:59:40.777077 119437 net.cpp:411] pool4/3x3_s2_pool4/3x3_s2_0_split -> pool4/3x3_s2_pool4/3x3_s2_0_split_3
I0711 09:59:40.777209 119437 net.cpp:150] Setting up pool4/3x3_s2_pool4/3x3_s2_0_split
I0711 09:59:40.777220 119437 net.cpp:157] Top shape: 100 832 7 7 (4076800)
I0711 09:59:40.777227 119437 net.cpp:157] Top shape: 100 832 7 7 (4076800)
I0711 09:59:40.777235 119437 net.cpp:157] Top shape: 100 832 7 7 (4076800)
I0711 09:59:40.777241 119437 net.cpp:157] Top shape: 100 832 7 7 (4076800)
I0711 09:59:40.777247 119437 net.cpp:165] Memory required for data: 5383738816
I0711 09:59:40.777254 119437 layer_factory.hpp:76] Creating layer inception_5a/1x1
I0711 09:59:40.777267 119437 net.cpp:106] Creating Layer inception_5a/1x1
I0711 09:59:40.777276 119437 net.cpp:454] inception_5a/1x1 <- pool4/3x3_s2_pool4/3x3_s2_0_split_0
I0711 09:59:40.777287 119437 net.cpp:411] inception_5a/1x1 -> inception_5a/1x1
I0711 09:59:40.780834 119437 cudnn_conv_layer.cpp:194] Reallocating workspace storage: 9984
I0711 09:59:40.780895 119437 net.cpp:150] Setting up inception_5a/1x1
I0711 09:59:40.780921 119437 net.cpp:157] Top shape: 100 256 7 7 (1254400)
I0711 09:59:40.780930 119437 net.cpp:165] Memory required for data: 5388756416
I0711 09:59:40.780941 119437 layer_factory.hpp:76] Creating layer inception_5a/relu_1x1
I0711 09:59:40.780956 119437 net.cpp:106] Creating Layer inception_5a/relu_1x1
I0711 09:59:40.780967 119437 net.cpp:454] inception_5a/relu_1x1 <- inception_5a/1x1
I0711 09:59:40.780989 119437 net.cpp:397] inception_5a/relu_1x1 -> inception_5a/1x1 (in-place)
I0711 09:59:40.781289 119437 net.cpp:150] Setting up inception_5a/relu_1x1
I0711 09:59:40.781318 119437 net.cpp:157] Top shape: 100 256 7 7 (1254400)
I0711 09:59:40.781338 119437 net.cpp:165] Memory required for data: 5393774016
I0711 09:59:40.781347 119437 layer_factory.hpp:76] Creating layer inception_5a/3x3_reduce
I0711 09:59:40.781374 119437 net.cpp:106] Creating Layer inception_5a/3x3_reduce
I0711 09:59:40.781383 119437 net.cpp:454] inception_5a/3x3_reduce <- pool4/3x3_s2_pool4/3x3_s2_0_split_1
I0711 09:59:40.781396 119437 net.cpp:411] inception_5a/3x3_reduce -> inception_5a/3x3_reduce
I0711 09:59:40.784415 119437 cudnn_conv_layer.cpp:194] Reallocating workspace storage: 9984
I0711 09:59:40.784495 119437 net.cpp:150] Setting up inception_5a/3x3_reduce
I0711 09:59:40.784510 119437 net.cpp:157] Top shape: 100 160 7 7 (784000)
I0711 09:59:40.784518 119437 net.cpp:165] Memory required for data: 5396910016
I0711 09:59:40.784529 119437 layer_factory.hpp:76] Creating layer inception_5a/relu_3x3_reduce
I0711 09:59:40.784540 119437 net.cpp:106] Creating Layer inception_5a/relu_3x3_reduce
I0711 09:59:40.784550 119437 net.cpp:454] inception_5a/relu_3x3_reduce <- inception_5a/3x3_reduce
I0711 09:59:40.784575 119437 net.cpp:397] inception_5a/relu_3x3_reduce -> inception_5a/3x3_reduce (in-place)
I0711 09:59:40.785028 119437 net.cpp:150] Setting up inception_5a/relu_3x3_reduce
I0711 09:59:40.785058 119437 net.cpp:157] Top shape: 100 160 7 7 (784000)
I0711 09:59:40.785065 119437 net.cpp:165] Memory required for data: 5400046016
I0711 09:59:40.785073 119437 layer_factory.hpp:76] Creating layer inception_5a/3x3
I0711 09:59:40.785089 119437 net.cpp:106] Creating Layer inception_5a/3x3
I0711 09:59:40.785099 119437 net.cpp:454] inception_5a/3x3 <- inception_5a/3x3_reduce
I0711 09:59:40.785110 119437 net.cpp:411] inception_5a/3x3 -> inception_5a/3x3
I0711 09:59:40.792809 119437 net.cpp:150] Setting up inception_5a/3x3
I0711 09:59:40.792839 119437 net.cpp:157] Top shape: 100 320 7 7 (1568000)
I0711 09:59:40.792846 119437 net.cpp:165] Memory required for data: 5406318016
I0711 09:59:40.792872 119437 layer_factory.hpp:76] Creating layer inception_5a/relu_3x3
I0711 09:59:40.792892 119437 net.cpp:106] Creating Layer inception_5a/relu_3x3
I0711 09:59:40.792950 119437 net.cpp:454] inception_5a/relu_3x3 <- inception_5a/3x3
I0711 09:59:40.792978 119437 net.cpp:397] inception_5a/relu_3x3 -> inception_5a/3x3 (in-place)
I0711 09:59:40.793360 119437 net.cpp:150] Setting up inception_5a/relu_3x3
I0711 09:59:40.793378 119437 net.cpp:157] Top shape: 100 320 7 7 (1568000)
I0711 09:59:40.793385 119437 net.cpp:165] Memory required for data: 5412590016
I0711 09:59:40.793407 119437 layer_factory.hpp:76] Creating layer inception_5a/5x5_reduce
I0711 09:59:40.793426 119437 net.cpp:106] Creating Layer inception_5a/5x5_reduce
I0711 09:59:40.793444 119437 net.cpp:454] inception_5a/5x5_reduce <- pool4/3x3_s2_pool4/3x3_s2_0_split_2
I0711 09:59:40.793469 119437 net.cpp:411] inception_5a/5x5_reduce -> inception_5a/5x5_reduce
I0711 09:59:40.795832 119437 net.cpp:150] Setting up inception_5a/5x5_reduce
I0711 09:59:40.795852 119437 net.cpp:157] Top shape: 100 32 7 7 (156800)
I0711 09:59:40.795860 119437 net.cpp:165] Memory required for data: 5413217216
I0711 09:59:40.795869 119437 layer_factory.hpp:76] Creating layer inception_5a/relu_5x5_reduce
I0711 09:59:40.795882 119437 net.cpp:106] Creating Layer inception_5a/relu_5x5_reduce
I0711 09:59:40.795893 119437 net.cpp:454] inception_5a/relu_5x5_reduce <- inception_5a/5x5_reduce
I0711 09:59:40.795902 119437 net.cpp:397] inception_5a/relu_5x5_reduce -> inception_5a/5x5_reduce (in-place)
I0711 09:59:40.796216 119437 net.cpp:150] Setting up inception_5a/relu_5x5_reduce
I0711 09:59:40.796231 119437 net.cpp:157] Top shape: 100 32 7 7 (156800)
I0711 09:59:40.796237 119437 net.cpp:165] Memory required for data: 5413844416
I0711 09:59:40.796246 119437 layer_factory.hpp:76] Creating layer inception_5a/5x5
I0711 09:59:40.796267 119437 net.cpp:106] Creating Layer inception_5a/5x5
I0711 09:59:40.796275 119437 net.cpp:454] inception_5a/5x5 <- inception_5a/5x5_reduce
I0711 09:59:40.796285 119437 net.cpp:411] inception_5a/5x5 -> inception_5a/5x5
I0711 09:59:40.798218 119437 net.cpp:150] Setting up inception_5a/5x5
I0711 09:59:40.798236 119437 net.cpp:157] Top shape: 100 128 7 7 (627200)
I0711 09:59:40.798243 119437 net.cpp:165] Memory required for data: 5416353216
I0711 09:59:40.798254 119437 layer_factory.hpp:76] Creating layer inception_5a/relu_5x5
I0711 09:59:40.798266 119437 net.cpp:106] Creating Layer inception_5a/relu_5x5
I0711 09:59:40.798274 119437 net.cpp:454] inception_5a/relu_5x5 <- inception_5a/5x5
I0711 09:59:40.798285 119437 net.cpp:397] inception_5a/relu_5x5 -> inception_5a/5x5 (in-place)
I0711 09:59:40.798674 119437 net.cpp:150] Setting up inception_5a/relu_5x5
I0711 09:59:40.798708 119437 net.cpp:157] Top shape: 100 128 7 7 (627200)
I0711 09:59:40.798728 119437 net.cpp:165] Memory required for data: 5418862016
I0711 09:59:40.798737 119437 layer_factory.hpp:76] Creating layer inception_5a/pool
I0711 09:59:40.798751 119437 net.cpp:106] Creating Layer inception_5a/pool
I0711 09:59:40.798760 119437 net.cpp:454] inception_5a/pool <- pool4/3x3_s2_pool4/3x3_s2_0_split_3
I0711 09:59:40.798774 119437 net.cpp:411] inception_5a/pool -> inception_5a/pool
I0711 09:59:40.799273 119437 net.cpp:150] Setting up inception_5a/pool
I0711 09:59:40.799290 119437 net.cpp:157] Top shape: 100 832 7 7 (4076800)
I0711 09:59:40.799298 119437 net.cpp:165] Memory required for data: 5435169216
I0711 09:59:40.799306 119437 layer_factory.hpp:76] Creating layer inception_5a/pool_proj
I0711 09:59:40.799322 119437 net.cpp:106] Creating Layer inception_5a/pool_proj
I0711 09:59:40.799331 119437 net.cpp:454] inception_5a/pool_proj <- inception_5a/pool
I0711 09:59:40.799343 119437 net.cpp:411] inception_5a/pool_proj -> inception_5a/pool_proj
I0711 09:59:40.801972 119437 cudnn_conv_layer.cpp:194] Reallocating workspace storage: 9984
I0711 09:59:40.802117 119437 net.cpp:150] Setting up inception_5a/pool_proj
I0711 09:59:40.802144 119437 net.cpp:157] Top shape: 100 128 7 7 (627200)
I0711 09:59:40.802162 119437 net.cpp:165] Memory required for data: 5437678016
I0711 09:59:40.802173 119437 layer_factory.hpp:76] Creating layer inception_5a/relu_pool_proj
I0711 09:59:40.802187 119437 net.cpp:106] Creating Layer inception_5a/relu_pool_proj
I0711 09:59:40.802196 119437 net.cpp:454] inception_5a/relu_pool_proj <- inception_5a/pool_proj
I0711 09:59:40.802208 119437 net.cpp:397] inception_5a/relu_pool_proj -> inception_5a/pool_proj (in-place)
I0711 09:59:40.802479 119437 net.cpp:150] Setting up inception_5a/relu_pool_proj
I0711 09:59:40.802505 119437 net.cpp:157] Top shape: 100 128 7 7 (627200)
I0711 09:59:40.802515 119437 net.cpp:165] Memory required for data: 5440186816
I0711 09:59:40.802523 119437 layer_factory.hpp:76] Creating layer inception_5a/output
I0711 09:59:40.802536 119437 net.cpp:106] Creating Layer inception_5a/output
I0711 09:59:40.802544 119437 net.cpp:454] inception_5a/output <- inception_5a/1x1
I0711 09:59:40.802554 119437 net.cpp:454] inception_5a/output <- inception_5a/3x3
I0711 09:59:40.802563 119437 net.cpp:454] inception_5a/output <- inception_5a/5x5
I0711 09:59:40.802572 119437 net.cpp:454] inception_5a/output <- inception_5a/pool_proj
I0711 09:59:40.802580 119437 net.cpp:411] inception_5a/output -> inception_5a/output
I0711 09:59:40.802659 119437 net.cpp:150] Setting up inception_5a/output
I0711 09:59:40.802687 119437 net.cpp:157] Top shape: 100 832 7 7 (4076800)
I0711 09:59:40.802706 119437 net.cpp:165] Memory required for data: 5456494016
I0711 09:59:40.802714 119437 layer_factory.hpp:76] Creating layer inception_5a/output_inception_5a/output_0_split
I0711 09:59:40.802726 119437 net.cpp:106] Creating Layer inception_5a/output_inception_5a/output_0_split
I0711 09:59:40.802734 119437 net.cpp:454] inception_5a/output_inception_5a/output_0_split <- inception_5a/output
I0711 09:59:40.802747 119437 net.cpp:411] inception_5a/output_inception_5a/output_0_split -> inception_5a/output_inception_5a/output_0_split_0
I0711 09:59:40.802759 119437 net.cpp:411] inception_5a/output_inception_5a/output_0_split -> inception_5a/output_inception_5a/output_0_split_1
I0711 09:59:40.802783 119437 net.cpp:411] inception_5a/output_inception_5a/output_0_split -> inception_5a/output_inception_5a/output_0_split_2
I0711 09:59:40.802791 119437 net.cpp:411] inception_5a/output_inception_5a/output_0_split -> inception_5a/output_inception_5a/output_0_split_3
I0711 09:59:40.802945 119437 net.cpp:150] Setting up inception_5a/output_inception_5a/output_0_split
I0711 09:59:40.802991 119437 net.cpp:157] Top shape: 100 832 7 7 (4076800)
I0711 09:59:40.803000 119437 net.cpp:157] Top shape: 100 832 7 7 (4076800)
I0711 09:59:40.803009 119437 net.cpp:157] Top shape: 100 832 7 7 (4076800)
I0711 09:59:40.803015 119437 net.cpp:157] Top shape: 100 832 7 7 (4076800)
I0711 09:59:40.803022 119437 net.cpp:165] Memory required for data: 5521722816
I0711 09:59:40.803030 119437 layer_factory.hpp:76] Creating layer inception_5b/1x1
I0711 09:59:40.803041 119437 net.cpp:106] Creating Layer inception_5b/1x1
I0711 09:59:40.803050 119437 net.cpp:454] inception_5b/1x1 <- inception_5a/output_inception_5a/output_0_split_0
I0711 09:59:40.803062 119437 net.cpp:411] inception_5b/1x1 -> inception_5b/1x1
I0711 09:59:40.807310 119437 cudnn_conv_layer.cpp:194] Reallocating workspace storage: 9984
I0711 09:59:40.807360 119437 net.cpp:150] Setting up inception_5b/1x1
I0711 09:59:40.807386 119437 net.cpp:157] Top shape: 100 384 7 7 (1881600)
I0711 09:59:40.807406 119437 net.cpp:165] Memory required for data: 5529249216
I0711 09:59:40.807418 119437 layer_factory.hpp:76] Creating layer inception_5b/relu_1x1
I0711 09:59:40.807443 119437 net.cpp:106] Creating Layer inception_5b/relu_1x1
I0711 09:59:40.807451 119437 net.cpp:454] inception_5b/relu_1x1 <- inception_5b/1x1
I0711 09:59:40.807461 119437 net.cpp:397] inception_5b/relu_1x1 -> inception_5b/1x1 (in-place)
I0711 09:59:40.807850 119437 net.cpp:150] Setting up inception_5b/relu_1x1
I0711 09:59:40.807868 119437 net.cpp:157] Top shape: 100 384 7 7 (1881600)
I0711 09:59:40.807874 119437 net.cpp:165] Memory required for data: 5536775616
I0711 09:59:40.807883 119437 layer_factory.hpp:76] Creating layer inception_5b/3x3_reduce
I0711 09:59:40.807898 119437 net.cpp:106] Creating Layer inception_5b/3x3_reduce
I0711 09:59:40.807906 119437 net.cpp:454] inception_5b/3x3_reduce <- inception_5a/output_inception_5a/output_0_split_1
I0711 09:59:40.807919 119437 net.cpp:411] inception_5b/3x3_reduce -> inception_5b/3x3_reduce
I0711 09:59:40.810948 119437 cudnn_conv_layer.cpp:194] Reallocating workspace storage: 9984
I0711 09:59:40.811013 119437 net.cpp:150] Setting up inception_5b/3x3_reduce
I0711 09:59:40.811039 119437 net.cpp:157] Top shape: 100 192 7 7 (940800)
I0711 09:59:40.811050 119437 net.cpp:165] Memory required for data: 5540538816
I0711 09:59:40.811063 119437 layer_factory.hpp:76] Creating layer inception_5b/relu_3x3_reduce
I0711 09:59:40.811075 119437 net.cpp:106] Creating Layer inception_5b/relu_3x3_reduce
I0711 09:59:40.811085 119437 net.cpp:454] inception_5b/relu_3x3_reduce <- inception_5b/3x3_reduce
I0711 09:59:40.811095 119437 net.cpp:397] inception_5b/relu_3x3_reduce -> inception_5b/3x3_reduce (in-place)
I0711 09:59:40.811362 119437 net.cpp:150] Setting up inception_5b/relu_3x3_reduce
I0711 09:59:40.811388 119437 net.cpp:157] Top shape: 100 192 7 7 (940800)
I0711 09:59:40.811394 119437 net.cpp:165] Memory required for data: 5544302016
I0711 09:59:40.811403 119437 layer_factory.hpp:76] Creating layer inception_5b/3x3
I0711 09:59:40.811424 119437 net.cpp:106] Creating Layer inception_5b/3x3
I0711 09:59:40.811445 119437 net.cpp:454] inception_5b/3x3 <- inception_5b/3x3_reduce
I0711 09:59:40.811456 119437 net.cpp:411] inception_5b/3x3 -> inception_5b/3x3
I0711 09:59:40.818971 119437 net.cpp:150] Setting up inception_5b/3x3
I0711 09:59:40.818991 119437 net.cpp:157] Top shape: 100 384 7 7 (1881600)
I0711 09:59:40.819000 119437 net.cpp:165] Memory required for data: 5551828416
I0711 09:59:40.819010 119437 layer_factory.hpp:76] Creating layer inception_5b/relu_3x3
I0711 09:59:40.819022 119437 net.cpp:106] Creating Layer inception_5b/relu_3x3
I0711 09:59:40.819031 119437 net.cpp:454] inception_5b/relu_3x3 <- inception_5b/3x3
I0711 09:59:40.819042 119437 net.cpp:397] inception_5b/relu_3x3 -> inception_5b/3x3 (in-place)
I0711 09:59:40.819288 119437 net.cpp:150] Setting up inception_5b/relu_3x3
I0711 09:59:40.819304 119437 net.cpp:157] Top shape: 100 384 7 7 (1881600)
I0711 09:59:40.819311 119437 net.cpp:165] Memory required for data: 5559354816
I0711 09:59:40.819319 119437 layer_factory.hpp:76] Creating layer inception_5b/5x5_reduce
I0711 09:59:40.819331 119437 net.cpp:106] Creating Layer inception_5b/5x5_reduce
I0711 09:59:40.819339 119437 net.cpp:454] inception_5b/5x5_reduce <- inception_5a/output_inception_5a/output_0_split_2
I0711 09:59:40.819350 119437 net.cpp:411] inception_5b/5x5_reduce -> inception_5b/5x5_reduce
I0711 09:59:40.820782 119437 net.cpp:150] Setting up inception_5b/5x5_reduce
I0711 09:59:40.820801 119437 net.cpp:157] Top shape: 100 48 7 7 (235200)
I0711 09:59:40.820808 119437 net.cpp:165] Memory required for data: 5560295616
I0711 09:59:40.820818 119437 layer_factory.hpp:76] Creating layer inception_5b/relu_5x5_reduce
I0711 09:59:40.820837 119437 net.cpp:106] Creating Layer inception_5b/relu_5x5_reduce
I0711 09:59:40.820873 119437 net.cpp:454] inception_5b/relu_5x5_reduce <- inception_5b/5x5_reduce
I0711 09:59:40.820883 119437 net.cpp:397] inception_5b/relu_5x5_reduce -> inception_5b/5x5_reduce (in-place)
I0711 09:59:40.821435 119437 net.cpp:150] Setting up inception_5b/relu_5x5_reduce
I0711 09:59:40.821470 119437 net.cpp:157] Top shape: 100 48 7 7 (235200)
I0711 09:59:40.821477 119437 net.cpp:165] Memory required for data: 5561236416
I0711 09:59:40.821485 119437 layer_factory.hpp:76] Creating layer inception_5b/5x5
I0711 09:59:40.821506 119437 net.cpp:106] Creating Layer inception_5b/5x5
I0711 09:59:40.821527 119437 net.cpp:454] inception_5b/5x5 <- inception_5b/5x5_reduce
I0711 09:59:40.821547 119437 net.cpp:411] inception_5b/5x5 -> inception_5b/5x5
I0711 09:59:40.823755 119437 net.cpp:150] Setting up inception_5b/5x5
I0711 09:59:40.823773 119437 net.cpp:157] Top shape: 100 128 7 7 (627200)
I0711 09:59:40.823781 119437 net.cpp:165] Memory required for data: 5563745216
I0711 09:59:40.823791 119437 layer_factory.hpp:76] Creating layer inception_5b/relu_5x5
I0711 09:59:40.823801 119437 net.cpp:106] Creating Layer inception_5b/relu_5x5
I0711 09:59:40.823812 119437 net.cpp:454] inception_5b/relu_5x5 <- inception_5b/5x5
I0711 09:59:40.823820 119437 net.cpp:397] inception_5b/relu_5x5 -> inception_5b/5x5 (in-place)
I0711 09:59:40.824093 119437 net.cpp:150] Setting up inception_5b/relu_5x5
I0711 09:59:40.824108 119437 net.cpp:157] Top shape: 100 128 7 7 (627200)
I0711 09:59:40.824115 119437 net.cpp:165] Memory required for data: 5566254016
I0711 09:59:40.824123 119437 layer_factory.hpp:76] Creating layer inception_5b/pool
I0711 09:59:40.824138 119437 net.cpp:106] Creating Layer inception_5b/pool
I0711 09:59:40.824146 119437 net.cpp:454] inception_5b/pool <- inception_5a/output_inception_5a/output_0_split_3
I0711 09:59:40.824156 119437 net.cpp:411] inception_5b/pool -> inception_5b/pool
I0711 09:59:40.824615 119437 net.cpp:150] Setting up inception_5b/pool
I0711 09:59:40.824632 119437 net.cpp:157] Top shape: 100 832 7 7 (4076800)
I0711 09:59:40.824640 119437 net.cpp:165] Memory required for data: 5582561216
I0711 09:59:40.824647 119437 layer_factory.hpp:76] Creating layer inception_5b/pool_proj
I0711 09:59:40.824666 119437 net.cpp:106] Creating Layer inception_5b/pool_proj
I0711 09:59:40.824674 119437 net.cpp:454] inception_5b/pool_proj <- inception_5b/pool
I0711 09:59:40.824702 119437 net.cpp:411] inception_5b/pool_proj -> inception_5b/pool_proj
I0711 09:59:40.827085 119437 cudnn_conv_layer.cpp:194] Reallocating workspace storage: 9984
I0711 09:59:40.827139 119437 net.cpp:150] Setting up inception_5b/pool_proj
I0711 09:59:40.827167 119437 net.cpp:157] Top shape: 100 128 7 7 (627200)
I0711 09:59:40.827175 119437 net.cpp:165] Memory required for data: 5585070016
I0711 09:59:40.827186 119437 layer_factory.hpp:76] Creating layer inception_5b/relu_pool_proj
I0711 09:59:40.827203 119437 net.cpp:106] Creating Layer inception_5b/relu_pool_proj
I0711 09:59:40.827213 119437 net.cpp:454] inception_5b/relu_pool_proj <- inception_5b/pool_proj
I0711 09:59:40.827221 119437 net.cpp:397] inception_5b/relu_pool_proj -> inception_5b/pool_proj (in-place)
I0711 09:59:40.827597 119437 net.cpp:150] Setting up inception_5b/relu_pool_proj
I0711 09:59:40.827628 119437 net.cpp:157] Top shape: 100 128 7 7 (627200)
I0711 09:59:40.827637 119437 net.cpp:165] Memory required for data: 5587578816
I0711 09:59:40.827656 119437 layer_factory.hpp:76] Creating layer inception_5b/output
I0711 09:59:40.827666 119437 net.cpp:106] Creating Layer inception_5b/output
I0711 09:59:40.827673 119437 net.cpp:454] inception_5b/output <- inception_5b/1x1
I0711 09:59:40.827693 119437 net.cpp:454] inception_5b/output <- inception_5b/3x3
I0711 09:59:40.827702 119437 net.cpp:454] inception_5b/output <- inception_5b/5x5
I0711 09:59:40.827710 119437 net.cpp:454] inception_5b/output <- inception_5b/pool_proj
I0711 09:59:40.827719 119437 net.cpp:411] inception_5b/output -> inception_5b/output
I0711 09:59:40.827754 119437 net.cpp:150] Setting up inception_5b/output
I0711 09:59:40.827780 119437 net.cpp:157] Top shape: 100 1024 7 7 (5017600)
I0711 09:59:40.827788 119437 net.cpp:165] Memory required for data: 5607649216
I0711 09:59:40.827795 119437 layer_factory.hpp:76] Creating layer pool5/7x7_s1
I0711 09:59:40.827822 119437 net.cpp:106] Creating Layer pool5/7x7_s1
I0711 09:59:40.827831 119437 net.cpp:454] pool5/7x7_s1 <- inception_5b/output
I0711 09:59:40.827842 119437 net.cpp:411] pool5/7x7_s1 -> pool5/7x7_s1
I0711 09:59:40.828117 119437 net.cpp:150] Setting up pool5/7x7_s1
I0711 09:59:40.828131 119437 net.cpp:157] Top shape: 100 1024 1 1 (102400)
I0711 09:59:40.828138 119437 net.cpp:165] Memory required for data: 5608058816
I0711 09:59:40.828162 119437 layer_factory.hpp:76] Creating layer pool5/drop_7x7_s1
I0711 09:59:40.828173 119437 net.cpp:106] Creating Layer pool5/drop_7x7_s1
I0711 09:59:40.828181 119437 net.cpp:454] pool5/drop_7x7_s1 <- pool5/7x7_s1
I0711 09:59:40.828189 119437 net.cpp:397] pool5/drop_7x7_s1 -> pool5/7x7_s1 (in-place)
I0711 09:59:40.828220 119437 net.cpp:150] Setting up pool5/drop_7x7_s1
I0711 09:59:40.828230 119437 net.cpp:157] Top shape: 100 1024 1 1 (102400)
I0711 09:59:40.828238 119437 net.cpp:165] Memory required for data: 5608468416
I0711 09:59:40.828250 119437 layer_factory.hpp:76] Creating layer loss3/classifier
I0711 09:59:40.828264 119437 net.cpp:106] Creating Layer loss3/classifier
I0711 09:59:40.828272 119437 net.cpp:454] loss3/classifier <- pool5/7x7_s1
I0711 09:59:40.828284 119437 net.cpp:411] loss3/classifier -> loss3/classifier
I0711 09:59:40.828508 119437 net.cpp:150] Setting up loss3/classifier
I0711 09:59:40.828532 119437 net.cpp:157] Top shape: 100 2 (200)
I0711 09:59:40.828541 119437 net.cpp:165] Memory required for data: 5608469216
I0711 09:59:40.828552 119437 layer_factory.hpp:76] Creating layer loss3/classifier_loss3/classifier_0_split
I0711 09:59:40.828562 119437 net.cpp:106] Creating Layer loss3/classifier_loss3/classifier_0_split
I0711 09:59:40.828569 119437 net.cpp:454] loss3/classifier_loss3/classifier_0_split <- loss3/classifier
I0711 09:59:40.828582 119437 net.cpp:411] loss3/classifier_loss3/classifier_0_split -> loss3/classifier_loss3/classifier_0_split_0
I0711 09:59:40.828593 119437 net.cpp:411] loss3/classifier_loss3/classifier_0_split -> loss3/classifier_loss3/classifier_0_split_1
I0711 09:59:40.828639 119437 net.cpp:150] Setting up loss3/classifier_loss3/classifier_0_split
I0711 09:59:40.828650 119437 net.cpp:157] Top shape: 100 2 (200)
I0711 09:59:40.828658 119437 net.cpp:157] Top shape: 100 2 (200)
I0711 09:59:40.828666 119437 net.cpp:165] Memory required for data: 5608470816
I0711 09:59:40.828675 119437 layer_factory.hpp:76] Creating layer loss3/loss3
I0711 09:59:40.828688 119437 net.cpp:106] Creating Layer loss3/loss3
I0711 09:59:40.828697 119437 net.cpp:454] loss3/loss3 <- loss3/classifier_loss3/classifier_0_split_0
I0711 09:59:40.828706 119437 net.cpp:454] loss3/loss3 <- label_data_1_split_4
…
