…
I0712 12:35:27.529232 139757 net.cpp:49] Initializing net from parameters: 
name: "GoogleNet"
state {
  phase: TRAIN
}
layer {
  name: "data"
  type: "ImageData"
  top: "data"
  top: "label"
  include {
    phase: TRAIN
  }
  transform_param {
    mirror: true
    crop_size: 224
    mean_value: 104
    mean_value: 117
    mean_value: 123
  }
  image_data_param {
    source: "/data/dywang/Database/Proliferation/libs/stage04_mitosisDetection/training_examples/train3.lst"
    batch_size: 32
    shuffle: true
    new_height: 256
    new_width: 256
  }
}
layer {
  name: "conv1/7x7_s2"
  type: "Convolution"
  bottom: "data"
  top: "conv1/7x7_s2"
  param {
    lr_mult: 1
    decay_mult: 1
  }
  param {
    lr_mult: 2
    decay_mult: 0
  }
  convolution_param {
    num_output: 64
    pad: 3
    kernel_size: 7
    stride: 2
    weight_filler {
      type: "xavier"
    }
    bias_filler {
      type: "constant"
      value: 0.2
    }
  }
}
layer {
  name: "conv1/relu_7x7"
  type: "ReLU"
  bottom: "conv1/7x7_s2"
  top: "conv1/7x7_s2"
}
layer {
  name: "pool1/3x3_s2"
  type: "Pooling"
  bottom: "conv1/7x7_s2"
  top: "pool1/3x3_s2"
  pooling_param {
    pool: MAX
    kernel_size: 3
    stride: 2
  }
}
layer {
  name: "pool1/norm1"
  type: "LRN"
  bottom: "pool1/3x3_s2"
  top: "pool1/norm1"
  lrn_param {
    local_size: 5
    alpha: 0.0001
    beta: 0.75
  }
}
layer {
  name: "conv2/3x3_reduce"
  type: "Convolution"
  bottom: "pool1/norm1"
  top: "conv2/3x3_reduce"
  param {
    lr_mult: 1
    decay_mult: 1
  }
  param {
    lr_mult: 2
    decay_mult: 0
  }
  convolution_param {
    num_output: 64
    kernel_size: 1
    weight_filler {
      type: "xavier"
    }
    bias_filler {
      type: "constant"
      value: 0.2
    }
  }
}
layer {
  name: "conv2/relu_3x3_reduce"
  type: "ReLU"
  bottom: "conv2/3x3_reduce"
  top: "conv2/3x3_reduce"
}
layer {
  name: "conv2/3x3"
  type: "Convolution"
  bottom: "conv2/3x3_reduce"
  top: "conv2/3x3"
  param {
    lr_mult: 1
    decay_mult: 1
  }
  param {
    lr_mult: 2
    decay_mult: 0
  }
  convolution_param {
    num_output: 192
    pad: 1
    kernel_size: 3
    weight_filler {
      type: "xavier"
    }
    bias_filler {
      type: "constant"
      value: 0.2
    }
  }
}
layer {
  name: "conv2/relu_3x3"
  type: "ReLU"
  bottom: "conv2/3x3"
  top: "conv2/3x3"
}
layer {
  name: "conv2/norm2"
  type: "LRN"
  bottom: "conv2/3x3"
  top: "conv2/norm2"
  lrn_param {
    local_size: 5
    alpha: 0.0001
    beta: 0.75
  }
}
layer {
  name: "pool2/3x3_s2"
  type: "Pooling"
  bottom: "conv2/norm2"
  top: "pool2/3x3_s2"
  pooling_param {
    pool: MAX
    kernel_size: 3
    stride: 2
  }
}
layer {
  name: "inception_3a/1x1"
  type: "Convolution"
  bottom: "pool2/3x3_s2"
  top: "inception_3a/1x1"
  param {
    lr_mult: 1
    decay_mult: 1
  }
  param {
    lr_mult: 2
    decay_mult: 0
  }
  convolution_param {
    num_output: 64
    kernel_size: 1
    weight_filler {
      type: "xavier"
    }
    bias_filler {
      type: "constant"
      value: 0.2
    }
  }
}
layer {
  name: "inception_3a/relu_1x1"
  type: "ReLU"
  bottom: "inception_3a/1x1"
  top: "inception_3a/1x1"
}
layer {
  name: "inception_3a/3x3_reduce"
  type: "Convolution"
  bottom: "pool2/3x3_s2"
  top: "inception_3a/3x3_reduce"
  param {
    lr_mult: 1
    decay_mult: 1
  }
  param {
    lr_mult: 2
    decay_mult: 0
  }
  convolution_param {
    num_output: 96
    kernel_size: 1
    weight_filler {
      type: "xavier"
    }
    bias_filler {
      type: "constant"
      value: 0.2
    }
  }
}
layer {
  name: "inception_3a/relu_3x3_reduce"
  type: "ReLU"
  bottom: "inception_3a/3x3_reduce"
  top: "inception_3a/3x3_reduce"
}
layer {
  name: "inception_3a/3x3"
  type: "Convolution"
  bottom: "inception_3a/3x3_reduce"
  top: "inception_3a/3x3"
  param {
    lr_mult: 1
    decay_mult: 1
  }
  param {
    lr_mult: 2
    decay_mult: 0
  }
  convolution_param {
    num_output: 128
    pad: 1
    kernel_size: 3
    weight_filler {
      type: "xavier"
    }
    bias_filler {
      type: "constant"
      value: 0.2
    }
  }
}
layer {
  name: "inception_3a/relu_3x3"
  type: "ReLU"
  bottom: "inception_3a/3x3"
  top: "inception_3a/3x3"
}
layer {
  name: "inception_3a/5x5_reduce"
  type: "Convolution"
  bottom: "pool2/3x3_s2"
  top: "inception_3a/5x5_reduce"
  param {
    lr_mult: 1
    decay_mult: 1
  }
  param {
    lr_mult: 2
    decay_mult: 0
  }
  convolution_param {
    num_output: 16
    kernel_size: 1
    weight_filler {
      type: "xavier"
    }
    bias_filler {
      type: "constant"
      value: 0.2
    }
  }
}
layer {
  name: "inception_3a/relu_5x5_reduce"
  type: "ReLU"
  bottom: "inception_3a/5x5_reduce"
  top: "inception_3a/5x5_reduce"
}
layer {
  name: "inception_3a/5x5"
  type: "Convolution"
  bottom: "inception_3a/5x5_reduce"
  top: "inception_3a/5x5"
  param {
    lr_mult: 1
    decay_mult: 1
  }
  param {
    lr_mult: 2
    decay_mult: 0
  }
  convolution_param {
    num_output: 32
    pad: 2
    kernel_size: 5
    weight_filler {
      type: "xavier"
    }
    bias_filler {
      type: "constant"
      value: 0.2
    }
  }
}
layer {
  name: "inception_3a/relu_5x5"
  type: "ReLU"
  bottom: "inception_3a/5x5"
  top: "inception_3a/5x5"
}
layer {
  name: "inception_3a/pool"
  type: "Pooling"
  bottom: "pool2/3x3_s2"
  top: "inception_3a/pool"
  pooling_param {
    pool: MAX
    kernel_size: 3
    stride: 1
    pad: 1
  }
}
layer {
  name: "inception_3a/pool_proj"
  type: "Convolution"
  bottom: "inception_3a/pool"
  top: "inception_3a/pool_proj"
  param {
    lr_mult: 1
    decay_mult: 1
  }
  param {
    lr_mult: 2
    decay_mult: 0
  }
  convolution_param {
    num_output: 32
    kernel_size: 1
    weight_filler {
      type: "xavier"
    }
    bias_filler {
      type: "constant"
      value: 0.2
    }
  }
}
layer {
  name: "inception_3a/relu_pool_proj"
  type: "ReLU"
  bottom: "inception_3a/pool_proj"
  top: "inception_3a/pool_proj"
}
layer {
  name: "inception_3a/output"
  type: "Concat"
  bottom: "inception_3a/1x1"
  bottom: "inception_3a/3x3"
  bottom: "inception_3a/5x5"
  bottom: "inception_3a/pool_proj"
  top: "inception_3a/output"
}
layer {
  name: "inception_3b/1x1"
  type: "Convolution"
  bottom: "inception_3a/output"
  top: "inception_3b/1x1"
  param {
    lr_mult: 1
    decay_mult: 1
  }
  param {
    lr_mult: 2
    decay_mult: 0
  }
  convolution_param {
    num_output: 128
    kernel_size: 1
    weight_filler {
      type: "xavier"
    }
    bias_filler {
      type: "constant"
      value: 0.2
    }
  }
}
layer {
  name: "inception_3b/relu_1x1"
  type: "ReLU"
  bottom: "inception_3b/1x1"
  top: "inception_3b/1x1"
}
layer {
  name: "inception_3b/3x3_reduce"
  type: "Convolution"
  bottom: "inception_3a/output"
  top: "inception_3b/3x3_reduce"
  param {
    lr_mult: 1
    decay_mult: 1
  }
  param {
    lr_mult: 2
    decay_mult: 0
  }
  convolution_param {
    num_output: 128
    kernel_size: 1
    weight_filler {
      type: "xavier"
    }
    bias_filler {
      type: "constant"
      value: 0.2
    }
  }
}
layer {
  name: "inception_3b/relu_3x3_reduce"
  type: "ReLU"
  bottom: "inception_3b/3x3_reduce"
  top: "inception_3b/3x3_reduce"
}
layer {
  name: "inception_3b/3x3"
  type: "Convolution"
  bottom: "inception_3b/3x3_reduce"
  top: "inception_3b/3x3"
  param {
    lr_mult: 1
    decay_mult: 1
  }
  param {
    lr_mult: 2
    decay_mult: 0
  }
  convolution_param {
    num_output: 192
    pad: 1
    kernel_size: 3
    weight_filler {
      type: "xavier"
    }
    bias_filler {
      type: "constant"
      value: 0.2
    }
  }
}
layer {
  name: "inception_3b/relu_3x3"
  type: "ReLU"
  bottom: "inception_3b/3x3"
  top: "inception_3b/3x3"
}
layer {
  name: "inception_3b/5x5_reduce"
  type: "Convolution"
  bottom: "inception_3a/output"
  top: "inception_3b/5x5_reduce"
  param {
    lr_mult: 1
    decay_mult: 1
  }
  param {
    lr_mult: 2
    decay_mult: 0
  }
  convolution_param {
    num_output: 32
    kernel_size: 1
    weight_filler {
      type: "xavier"
    }
    bias_filler {
      type: "constant"
      value: 0.2
    }
  }
}
layer {
  name: "inception_3b/relu_5x5_reduce"
  type: "ReLU"
  bottom: "inception_3b/5x5_reduce"
  top: "inception_3b/5x5_reduce"
}
layer {
  name: "inception_3b/5x5"
  type: "Convolution"
  bottom: "inception_3b/5x5_reduce"
  top: "inception_3b/5x5"
  param {
    lr_mult: 1
    decay_mult: 1
  }
  param {
    lr_mult: 2
    decay_mult: 0
  }
  convolution_param {
    num_output: 96
    pad: 2
    kernel_size: 5
    weight_filler {
      type: "xavier"
    }
    bias_filler {
      type: "constant"
      value: 0.2
    }
  }
}
layer {
  name: "inception_3b/relu_5x5"
  type: "ReLU"
  bottom: "inception_3b/5x5"
  top: "inception_3b/5x5"
}
layer {
  name: "inception_3b/pool"
  type: "Pooling"
  bottom: "inception_3a/output"
  top: "inception_3b/pool"
  pooling_param {
    pool: MAX
    kernel_size: 3
    stride: 1
    pad: 1
  }
}
layer {
  name: "inception_3b/pool_proj"
  type: "Convolution"
  bottom: "inception_3b/pool"
  top: "inception_3b/pool_proj"
  param {
    lr_mult: 1
    decay_mult: 1
  }
  param {
    lr_mult: 2
    decay_mult: 0
  }
  convolution_param {
    num_output: 64
    kernel_size: 1
    weight_filler {
      type: "xavier"
    }
    bias_filler {
      type: "constant"
      value: 0.2
    }
  }
}
layer {
  name: "inception_3b/relu_pool_proj"
  type: "ReLU"
  bottom: "inception_3b/pool_proj"
  top: "inception_3b/pool_proj"
}
layer {
  name: "inception_3b/output"
  type: "Concat"
  bottom: "inception_3b/1x1"
  bottom: "inception_3b/3x3"
  bottom: "inception_3b/5x5"
  bottom: "inception_3b/pool_proj"
  top: "inception_3b/output"
}
layer {
  name: "pool3/3x3_s2"
  type: "Pooling"
  bottom: "inception_3b/output"
  top: "pool3/3x3_s2"
  pooling_param {
    pool: MAX
    kernel_size: 3
    stride: 2
  }
}
layer {
  name: "inception_4a/1x1"
  type: "Convolution"
  bottom: "pool3/3x3_s2"
  top: "inception_4a/1x1"
  param {
    lr_mult: 1
    decay_mult: 1
  }
  param {
    lr_mult: 2
    decay_mult: 0
  }
  convolution_param {
    num_output: 192
    kernel_size: 1
    weight_filler {
      type: "xavier"
    }
    bias_filler {
      type: "constant"
      value: 0.2
    }
  }
}
layer {
  name: "inception_4a/relu_1x1"
  type: "ReLU"
  bottom: "inception_4a/1x1"
  top: "inception_4a/1x1"
}
layer {
  name: "inception_4a/3x3_reduce"
  type: "Convolution"
  bottom: "pool3/3x3_s2"
  top: "inception_4a/3x3_reduce"
  param {
    lr_mult: 1
    decay_mult: 1
  }
  param {
    lr_mult: 2
    decay_mult: 0
  }
  convolution_param {
    num_output: 96
    kernel_size: 1
    weight_filler {
      type: "xavier"
    }
    bias_filler {
      type: "constant"
      value: 0.2
    }
  }
}
layer {
  name: "inception_4a/relu_3x3_reduce"
  type: "ReLU"
  bottom: "inception_4a/3x3_reduce"
  top: "inception_4a/3x3_reduce"
}
layer {
  name: "inception_4a/3x3"
  type: "Convolution"
  bottom: "inception_4a/3x3_reduce"
  top: "inception_4a/3x3"
  param {
    lr_mult: 1
    decay_mult: 1
  }
  param {
    lr_mult: 2
    decay_mult: 0
  }
  convolution_param {
    num_output: 208
    pad: 1
    kernel_size: 3
    weight_filler {
      type: "xavier"
    }
    bias_filler {
      type: "constant"
      value: 0.2
    }
  }
}
layer {
  name: "inception_4a/relu_3x3"
  type: "ReLU"
  bottom: "inception_4a/3x3"
  top: "inception_4a/3x3"
}
layer {
  name: "inception_4a/5x5_reduce"
  type: "Convolution"
  bottom: "pool3/3x3_s2"
  top: "inception_4a/5x5_reduce"
  param {
    lr_mult: 1
    decay_mult: 1
  }
  param {
    lr_mult: 2
    decay_mult: 0
  }
  convolution_param {
    num_output: 16
    kernel_size: 1
    weight_filler {
      type: "xavier"
    }
    bias_filler {
      type: "constant"
      value: 0.2
    }
  }
}
layer {
  name: "inception_4a/relu_5x5_reduce"
  type: "ReLU"
  bottom: "inception_4a/5x5_reduce"
  top: "inception_4a/5x5_reduce"
}
layer {
  name: "inception_4a/5x5"
  type: "Convolution"
  bottom: "inception_4a/5x5_reduce"
  top: "inception_4a/5x5"
  param {
    lr_mult: 1
    decay_mult: 1
  }
  param {
    lr_mult: 2
    decay_mult: 0
  }
  convolution_param {
    num_output: 48
    pad: 2
    kernel_size: 5
    weight_filler {
      type: "xavier"
    }
    bias_filler {
      type: "constant"
      value: 0.2
    }
  }
}
layer {
  name: "inception_4a/relu_5x5"
  type: "ReLU"
  bottom: "inception_4a/5x5"
  top: "inception_4a/5x5"
}
layer {
  name: "inception_4a/pool"
  type: "Pooling"
  bottom: "pool3/3x3_s2"
  top: "inception_4a/pool"
  pooling_param {
    pool: MAX
    kernel_size: 3
    stride: 1
    pad: 1
  }
}
layer {
  name: "inception_4a/pool_proj"
  type: "Convolution"
  bottom: "inception_4a/pool"
  top: "inception_4a/pool_proj"
  param {
    lr_mult: 1
    decay_mult: 1
  }
  param {
    lr_mult: 2
    decay_mult: 0
  }
  convolution_param {
    num_output: 64
    kernel_size: 1
    weight_filler {
      type: "xavier"
    }
    bias_filler {
      type: "constant"
      value: 0.2
    }
  }
}
layer {
  name: "inception_4a/relu_pool_proj"
  type: "ReLU"
  bottom: "inception_4a/pool_proj"
  top: "inception_4a/pool_proj"
}
layer {
  name: "inception_4a/output"
  type: "Concat"
  bottom: "inception_4a/1x1"
  bottom: "inception_4a/3x3"
  bottom: "inception_4a/5x5"
  bottom: "inception_4a/pool_proj"
  top: "inception_4a/output"
}
layer {
  name: "loss1/ave_pool"
  type: "Pooling"
  bottom: "inception_4a/output"
  top: "loss1/ave_pool"
  pooling_param {
    pool: AVE
    kernel_size: 5
    stride: 3
  }
}
layer {
  name: "loss1/conv"
  type: "Convolution"
  bottom: "loss1/ave_pool"
  top: "loss1/conv"
  param {
    lr_mult: 1
    decay_mult: 1
  }
  param {
    lr_mult: 2
    decay_mult: 0
  }
  convolution_param {
    num_output: 128
    kernel_size: 1
    weight_filler {
      type: "xavier"
    }
    bias_filler {
      type: "constant"
      value: 0.2
    }
  }
}
layer {
  name: "loss1/relu_conv"
  type: "ReLU"
  bottom: "loss1/conv"
  top: "loss1/conv"
}
layer {
  name: "loss1/fc"
  type: "InnerProduct"
  bottom: "loss1/conv"
  top: "loss1/fc"
  param {
    lr_mult: 1
    decay_mult: 1
  }
  param {
    lr_mult: 2
    decay_mult: 0
  }
  inner_product_param {
    num_output: 1024
    weight_filler {
      type: "xavier"
    }
    bias_filler {
      type: "constant"
      value: 0.2
    }
  }
}
layer {
  name: "loss1/relu_fc"
  type: "ReLU"
  bottom: "loss1/fc"
  top: "loss1/fc"
}
layer {
  name: "loss1/drop_fc"
  type: "Dropout"
  bottom: "loss1/fc"
  top: "loss1/fc"
  dropout_param {
    dropout_ratio: 0.7
  }
}
layer {
  name: "loss1/classifier"
  type: "InnerProduct"
  bottom: "loss1/fc"
  top: "loss1/classifier"
  param {
    lr_mult: 1
    decay_mult: 1
  }
  param {
    lr_mult: 2
    decay_mult: 0
  }
  inner_product_param {
    num_output: 2
    weight_filler {
      type: "xavier"
    }
    bias_filler {
      type: "constant"
      value: 0
    }
  }
}
layer {
  name: "loss1/loss"
  type: "SoftmaxWithLoss"
  bottom: "loss1/classifier"
  bottom: "label"
  top: "loss1/loss1"
  loss_weight: 0.3
}
layer {
  name: "inception_4b/1x1"
  type: "Convolution"
  bottom: "inception_4a/output"
  top: "inception_4b/1x1"
  param {
    lr_mult: 1
    decay_mult: 1
  }
  param {
    lr_mult: 2
    decay_mult: 0
  }
  convolution_param {
    num_output: 160
    kernel_size: 1
    weight_filler {
      type: "xavier"
    }
    bias_filler {
      type: "constant"
      value: 0.2
    }
  }
}
layer {
  name: "inception_4b/relu_1x1"
  type: "ReLU"
  bottom: "inception_4b/1x1"
  top: "inception_4b/1x1"
}
layer {
  name: "inception_4b/3x3_reduce"
  type: "Convolution"
  bottom: "inception_4a/output"
  top: "inception_4b/3x3_reduce"
  param {
    lr_mult: 1
    decay_mult: 1
  }
  param {
    lr_mult: 2
    decay_mult: 0
  }
  convolution_param {
    num_output: 112
    kernel_size: 1
    weight_filler {
      type: "xavier"
    }
    bias_filler {
      type: "constant"
      value: 0.2
    }
  }
}
layer {
  name: "inception_4b/relu_3x3_reduce"
  type: "ReLU"
  bottom: "inception_4b/3x3_reduce"
  top: "inception_4b/3x3_reduce"
}
layer {
  name: "inception_4b/3x3"
  type: "Convolution"
  bottom: "inception_4b/3x3_reduce"
  top: "inception_4b/3x3"
  param {
    lr_mult: 1
    decay_mult: 1
  }
  param {
    lr_mult: 2
    decay_mult: 0
  }
  convolution_param {
    num_output: 224
    pad: 1
    kernel_size: 3
    weight_filler {
      type: "xavier"
    }
    bias_filler {
      type: "constant"
      value: 0.2
    }
  }
}
layer {
  name: "inception_4b/relu_3x3"
  type: "ReLU"
  bottom: "inception_4b/3x3"
  top: "inception_4b/3x3"
}
layer {
  name: "inception_4b/5x5_reduce"
  type: "Convolution"
  bottom: "inception_4a/output"
  top: "inception_4b/5x5_reduce"
  param {
    lr_mult: 1
    decay_mult: 1
  }
  param {
    lr_mult: 2
    decay_mult: 0
  }
  convolution_param {
    num_output: 24
    kernel_size: 1
    weight_filler {
      type: "xavier"
    }
    bias_filler {
      type: "constant"
      value: 0.2
    }
  }
}
layer {
  name: "inception_4b/relu_5x5_reduce"
  type: "ReLU"
  bottom: "inception_4b/5x5_reduce"
  top: "inception_4b/5x5_reduce"
}
layer {
  name: "inception_4b/5x5"
  type: "Convolution"
  bottom: "inception_4b/5x5_reduce"
  top: "inception_4b/5x5"
  param {
    lr_mult: 1
    decay_mult: 1
  }
  param {
    lr_mult: 2
    decay_mult: 0
  }
  convolution_param {
    num_output: 64
    pad: 2
    kernel_size: 5
    weight_filler {
      type: "xavier"
    }
    bias_filler {
      type: "constant"
      value: 0.2
    }
  }
}
layer {
  name: "inception_4b/relu_5x5"
  type: "ReLU"
  bottom: "inception_4b/5x5"
  top: "inception_4b/5x5"
}
layer {
  name: "inception_4b/pool"
  type: "Pooling"
  bottom: "inception_4a/output"
  top: "inception_4b/pool"
  pooling_param {
    pool: MAX
    kernel_size: 3
    stride: 1
    pad: 1
  }
}
layer {
  name: "inception_4b/pool_proj"
  type: "Convolution"
  bottom: "inception_4b/pool"
  top: "inception_4b/pool_proj"
  param {
    lr_mult: 1
    decay_mult: 1
  }
  param {
    lr_mult: 2
    decay_mult: 0
  }
  convolution_param {
    num_output: 64
    kernel_size: 1
    weight_filler {
      type: "xavier"
    }
    bias_filler {
      type: "constant"
      value: 0.2
    }
  }
}
layer {
  name: "inception_4b/relu_pool_proj"
  type: "ReLU"
  bottom: "inception_4b/pool_proj"
  top: "inception_4b/pool_proj"
}
layer {
  name: "inception_4b/output"
  type: "Concat"
  bottom: "inception_4b/1x1"
  bottom: "inception_4b/3x3"
  bottom: "inception_4b/5x5"
  bottom: "inception_4b/pool_proj"
  top: "inception_4b/output"
}
layer {
  name: "inception_4c/1x1"
  type: "Convolution"
  bottom: "inception_4b/output"
  top: "inception_4c/1x1"
  param {
    lr_mult: 1
    decay_mult: 1
  }
  param {
    lr_mult: 2
    decay_mult: 0
  }
  convolution_param {
    num_output: 128
    kernel_size: 1
    weight_filler {
      type: "xavier"
    }
    bias_filler {
      type: "constant"
      value: 0.2
    }
  }
}
layer {
  name: "inception_4c/relu_1x1"
  type: "ReLU"
  bottom: "inception_4c/1x1"
  top: "inception_4c/1x1"
}
layer {
  name: "inception_4c/3x3_reduce"
  type: "Convolution"
  bottom: "inception_4b/output"
  top: "inception_4c/3x3_reduce"
  param {
    lr_mult: 1
    decay_mult: 1
  }
  param {
    lr_mult: 2
    decay_mult: 0
  }
  convolution_param {
    num_output: 128
    kernel_size: 1
    weight_filler {
      type: "xavier"
    }
    bias_filler {
      type: "constant"
      value: 0.2
    }
  }
}
layer {
  name: "inception_4c/relu_3x3_reduce"
  type: "ReLU"
  bottom: "inception_4c/3x3_reduce"
  top: "inception_4c/3x3_reduce"
}
layer {
  name: "inception_4c/3x3"
  type: "Convolution"
  bottom: "inception_4c/3x3_reduce"
  top: "inception_4c/3x3"
  param {
    lr_mult: 1
    decay_mult: 1
  }
  param {
    lr_mult: 2
    decay_mult: 0
  }
  convolution_param {
    num_output: 256
    pad: 1
    kernel_size: 3
    weight_filler {
      type: "xavier"
    }
    bias_filler {
      type: "constant"
      value: 0.2
    }
  }
}
layer {
  name: "inception_4c/relu_3x3"
  type: "ReLU"
  bottom: "inception_4c/3x3"
  top: "inception_4c/3x3"
}
layer {
  name: "inception_4c/5x5_reduce"
  type: "Convolution"
  bottom: "inception_4b/output"
  top: "inception_4c/5x5_reduce"
  param {
    lr_mult: 1
    decay_mult: 1
  }
  param {
    lr_mult: 2
    decay_mult: 0
  }
  convolution_param {
    num_output: 24
    kernel_size: 1
    weight_filler {
      type: "xavier"
    }
    bias_filler {
      type: "constant"
      value: 0.2
    }
  }
}
layer {
  name: "inception_4c/relu_5x5_reduce"
  type: "ReLU"
  bottom: "inception_4c/5x5_reduce"
  top: "inception_4c/5x5_reduce"
}
layer {
  name: "inception_4c/5x5"
  type: "Convolution"
  bottom: "inception_4c/5x5_reduce"
  top: "inception_4c/5x5"
  param {
    lr_mult: 1
    decay_mult: 1
  }
  param {
    lr_mult: 2
    decay_mult: 0
  }
  convolution_param {
    num_output: 64
    pad: 2
    kernel_size: 5
    weight_filler {
      type: "xavier"
    }
    bias_filler {
      type: "constant"
      value: 0.2
    }
  }
}
layer {
  name: "inception_4c/relu_5x5"
  type: "ReLU"
  bottom: "inception_4c/5x5"
  top: "inception_4c/5x5"
}
layer {
  name: "inception_4c/pool"
  type: "Pooling"
  bottom: "inception_4b/output"
  top: "inception_4c/pool"
  pooling_param {
    pool: MAX
    kernel_size: 3
    stride: 1
    pad: 1
  }
}
layer {
  name: "inception_4c/pool_proj"
  type: "Convolution"
  bottom: "inception_4c/pool"
  top: "inception_4c/pool_proj"
  param {
    lr_mult: 1
    decay_mult: 1
  }
  param {
    lr_mult: 2
    decay_mult: 0
  }
  convolution_param {
    num_output: 64
    kernel_size: 1
    weight_filler {
      type: "xavier"
    }
    bias_filler {
      type: "constant"
      value: 0.2
    }
  }
}
layer {
  name: "inception_4c/relu_pool_proj"
  type: "ReLU"
  bottom: "inception_4c/pool_proj"
  top: "inception_4c/pool_proj"
}
layer {
  name: "inception_4c/output"
  type: "Concat"
  bottom: "inception_4c/1x1"
  bottom: "inception_4c/3x3"
  bottom: "inception_4c/5x5"
  bottom: "inception_4c/pool_proj"
  top: "inception_4c/output"
}
layer {
  name: "inception_4d/1x1"
  type: "Convolution"
  bottom: "inception_4c/output"
  top: "inception_4d/1x1"
  param {
    lr_mult: 1
    decay_mult: 1
  }
  param {
    lr_mult: 2
    decay_mult: 0
  }
  convolution_param {
    num_output: 112
    kernel_size: 1
    weight_filler {
      type: "xavier"
    }
    bias_filler {
      type: "constant"
      value: 0.2
    }
  }
}
layer {
  name: "inception_4d/relu_1x1"
  type: "ReLU"
  bottom: "inception_4d/1x1"
  top: "inception_4d/1x1"
}
layer {
  name: "inception_4d/3x3_reduce"
  type: "Convolution"
  bottom: "inception_4c/output"
  top: "inception_4d/3x3_reduce"
  param {
    lr_mult: 1
    decay_mult: 1
  }
  param {
    lr_mult: 2
    decay_mult: 0
  }
  convolution_param {
    num_output: 144
    kernel_size: 1
    weight_filler {
      type: "xavier"
    }
    bias_filler {
      type: "constant"
      value: 0.2
    }
  }
}
layer {
  name: "inception_4d/relu_3x3_reduce"
  type: "ReLU"
  bottom: "inception_4d/3x3_reduce"
  top: "inception_4d/3x3_reduce"
}
layer {
  name: "inception_4d/3x3"
  type: "Convolution"
  bottom: "inception_4d/3x3_reduce"
  top: "inception_4d/3x3"
  param {
    lr_mult: 1
    decay_mult: 1
  }
  param {
    lr_mult: 2
    decay_mult: 0
  }
  convolution_param {
    num_output: 288
    pad: 1
    kernel_size: 3
    weight_filler {
      type: "xavier"
    }
    bias_filler {
      type: "constant"
      value: 0.2
    }
  }
}
layer {
  name: "inception_4d/relu_3x3"
  type: "ReLU"
  bottom: "inception_4d/3x3"
  top: "inception_4d/3x3"
}
layer {
  name: "inception_4d/5x5_reduce"
  type: "Convolution"
  bottom: "inception_4c/output"
  top: "inception_4d/5x5_reduce"
  param {
    lr_mult: 1
    decay_mult: 1
  }
  param {
    lr_mult: 2
    decay_mult: 0
  }
  convolution_param {
    num_output: 32
    kernel_size: 1
    weight_filler {
      type: "xavier"
    }
    bias_filler {
      type: "constant"
      value: 0.2
    }
  }
}
layer {
  name: "inception_4d/relu_5x5_reduce"
  type: "ReLU"
  bottom: "inception_4d/5x5_reduce"
  top: "inception_4d/5x5_reduce"
}
layer {
  name: "inception_4d/5x5"
  type: "Convolution"
  bottom: "inception_4d/5x5_reduce"
  top: "inception_4d/5x5"
  param {
    lr_mult: 1
    decay_mult: 1
  }
  param {
    lr_mult: 2
    decay_mult: 0
  }
  convolution_param {
    num_output: 64
    pad: 2
    kernel_size: 5
    weight_filler {
      type: "xavier"
    }
    bias_filler {
      type: "constant"
      value: 0.2
    }
  }
}
layer {
  name: "inception_4d/relu_5x5"
  type: "ReLU"
  bottom: "inception_4d/5x5"
  top: "inception_4d/5x5"
}
layer {
  name: "inception_4d/pool"
  type: "Pooling"
  bottom: "inception_4c/output"
  top: "inception_4d/pool"
  pooling_param {
    pool: MAX
    kernel_size: 3
    stride: 1
    pad: 1
  }
}
layer {
  name: "inception_4d/pool_proj"
  type: "Convolution"
  bottom: "inception_4d/pool"
  top: "inception_4d/pool_proj"
  param {
    lr_mult: 1
    decay_mult: 1
  }
  param {
    lr_mult: 2
    decay_mult: 0
  }
  convolution_param {
    num_output: 64
    kernel_size: 1
    weight_filler {
      type: "xavier"
    }
    bias_filler {
      type: "constant"
      value: 0.2
    }
  }
}
layer {
  name: "inception_4d/relu_pool_proj"
  type: "ReLU"
  bottom: "inception_4d/pool_proj"
  top: "inception_4d/pool_proj"
}
layer {
  name: "inception_4d/output"
  type: "Concat"
  bottom: "inception_4d/1x1"
  bottom: "inception_4d/3x3"
  bottom: "inception_4d/5x5"
  bottom: "inception_4d/pool_proj"
  top: "inception_4d/output"
}
layer {
  name: "loss2/ave_pool"
  type: "Pooling"
  bottom: "inception_4d/output"
  top: "loss2/ave_pool"
  pooling_param {
    pool: AVE
    kernel_size: 5
    stride: 3
  }
}
layer {
  name: "loss2/conv"
  type: "Convolution"
  bottom: "loss2/ave_pool"
  top: "loss2/conv"
  param {
    lr_mult: 1
    decay_mult: 1
  }
  param {
    lr_mult: 2
    decay_mult: 0
  }
  convolution_param {
    num_output: 128
    kernel_size: 1
    weight_filler {
      type: "xavier"
    }
    bias_filler {
      type: "constant"
      value: 0.2
    }
  }
}
layer {
  name: "loss2/relu_conv"
  type: "ReLU"
  bottom: "loss2/conv"
  top: "loss2/conv"
}
layer {
  name: "loss2/fc"
  type: "InnerProduct"
  bottom: "loss2/conv"
  top: "loss2/fc"
  param {
    lr_mult: 1
    decay_mult: 1
  }
  param {
    lr_mult: 2
    decay_mult: 0
  }
  inner_product_param {
    num_output: 1024
    weight_filler {
      type: "xavier"
    }
    bias_filler {
      type: "constant"
      value: 0.2
    }
  }
}
layer {
  name: "loss2/relu_fc"
  type: "ReLU"
  bottom: "loss2/fc"
  top: "loss2/fc"
}
layer {
  name: "loss2/drop_fc"
  type: "Dropout"
  bottom: "loss2/fc"
  top: "loss2/fc"
  dropout_param {
    dropout_ratio: 0.7
  }
}
layer {
  name: "loss2/classifier"
  type: "InnerProduct"
  bottom: "loss2/fc"
  top: "loss2/classifier"
  param {
    lr_mult: 1
    decay_mult: 1
  }
  param {
    lr_mult: 2
    decay_mult: 0
  }
  inner_product_param {
    num_output: 2
    weight_filler {
      type: "xavier"
    }
    bias_filler {
      type: "constant"
      value: 0
    }
  }
}
layer {
  name: "loss2/loss"
  type: "SoftmaxWithLoss"
  bottom: "loss2/classifier"
  bottom: "label"
  top: "loss2/loss1"
  loss_weight: 0.3
}
layer {
  name: "inception_4e/1x1"
  type: "Convolution"
  bottom: "inception_4d/output"
  top: "inception_4e/1x1"
  param {
    lr_mult: 1
    decay_mult: 1
  }
  param {
    lr_mult: 2
    decay_mult: 0
  }
  convolution_param {
    num_output: 256
    kernel_size: 1
    weight_filler {
      type: "xavier"
    }
    bias_filler {
      type: "constant"
      value: 0.2
    }
  }
}
layer {
  name: "inception_4e/relu_1x1"
  type: "ReLU"
  bottom: "inception_4e/1x1"
  top: "inception_4e/1x1"
}
layer {
  name: "inception_4e/3x3_reduce"
  type: "Convolution"
  bottom: "inception_4d/output"
  top: "inception_4e/3x3_reduce"
  param {
    lr_mult: 1
    decay_mult: 1
  }
  param {
    lr_mult: 2
    decay_mult: 0
  }
  convolution_param {
    num_output: 160
    kernel_size: 1
    weight_filler {
      type: "xavier"
    }
    bias_filler {
      type: "constant"
      value: 0.2
    }
  }
}
layer {
  name: "inception_4e/relu_3x3_reduce"
  type: "ReLU"
  bottom: "inception_4e/3x3_reduce"
  top: "inception_4e/3x3_reduce"
}
layer {
  name: "inception_4e/3x3"
  type: "Convolution"
  bottom: "inception_4e/3x3_reduce"
  top: "inception_4e/3x3"
  param {
    lr_mult: 1
    decay_mult: 1
  }
  param {
    lr_mult: 2
    decay_mult: 0
  }
  convolution_param {
    num_output: 320
    pad: 1
    kernel_size: 3
    weight_filler {
      type: "xavier"
    }
    bias_filler {
      type: "constant"
      value: 0.2
    }
  }
}
layer {
  name: "inception_4e/relu_3x3"
  type: "ReLU"
  bottom: "inception_4e/3x3"
  top: "inception_4e/3x3"
}
layer {
  name: "inception_4e/5x5_reduce"
  type: "Convolution"
  bottom: "inception_4d/output"
  top: "inception_4e/5x5_reduce"
  param {
    lr_mult: 1
    decay_mult: 1
  }
  param {
    lr_mult: 2
    decay_mult: 0
  }
  convolution_param {
    num_output: 32
    kernel_size: 1
    weight_filler {
      type: "xavier"
    }
    bias_filler {
      type: "constant"
      value: 0.2
    }
  }
}
layer {
  name: "inception_4e/relu_5x5_reduce"
  type: "ReLU"
  bottom: "inception_4e/5x5_reduce"
  top: "inception_4e/5x5_reduce"
}
layer {
  name: "inception_4e/5x5"
  type: "Convolution"
  bottom: "inception_4e/5x5_reduce"
  top: "inception_4e/5x5"
  param {
    lr_mult: 1
    decay_mult: 1
  }
  param {
    lr_mult: 2
    decay_mult: 0
  }
  convolution_param {
    num_output: 128
    pad: 2
    kernel_size: 5
    weight_filler {
      type: "xavier"
    }
    bias_filler {
      type: "constant"
      value: 0.2
    }
  }
}
layer {
  name: "inception_4e/relu_5x5"
  type: "ReLU"
  bottom: "inception_4e/5x5"
  top: "inception_4e/5x5"
}
layer {
  name: "inception_4e/pool"
  type: "Pooling"
  bottom: "inception_4
I0712 12:35:27.535362 139757 layer_factory.hpp:76] Creating layer data
I0712 12:35:27.540429 139757 net.cpp:106] Creating Layer data
I0712 12:35:27.540494 139757 net.cpp:411] data -> data
I0712 12:35:27.542376 139757 net.cpp:411] data -> label
I0712 12:35:27.577533 139757 image_data_layer.cpp:36] Opening file /data/dywang/Database/Proliferation/libs/stage04_mitosisDetection/training_examples/train3.lst
I0712 12:35:27.881903 139757 image_data_layer.cpp:46] Shuffling data
I0712 12:35:27.910146 139757 image_data_layer.cpp:51] A total of 161806 images.
I0712 12:35:28.087158 139757 image_data_layer.cpp:78] output data size: 32,3,224,224
I0712 12:35:28.130995 139757 net.cpp:150] Setting up data
I0712 12:35:28.131057 139757 net.cpp:157] Top shape: 32 3 224 224 (4816896)
I0712 12:35:28.131070 139757 net.cpp:157] Top shape: 32 (32)
I0712 12:35:28.131079 139757 net.cpp:165] Memory required for data: 19267712
I0712 12:35:28.131094 139757 layer_factory.hpp:76] Creating layer label_data_1_split
I0712 12:35:28.131238 139757 net.cpp:106] Creating Layer label_data_1_split
I0712 12:35:28.131258 139757 net.cpp:454] label_data_1_split <- label
I0712 12:35:28.131278 139757 net.cpp:411] label_data_1_split -> label_data_1_split_0
I0712 12:35:28.131295 139757 net.cpp:411] label_data_1_split -> label_data_1_split_1
I0712 12:35:28.131307 139757 net.cpp:411] label_data_1_split -> label_data_1_split_2
I0712 12:35:28.131386 139757 net.cpp:150] Setting up label_data_1_split
I0712 12:35:28.131399 139757 net.cpp:157] Top shape: 32 (32)
I0712 12:35:28.131408 139757 net.cpp:157] Top shape: 32 (32)
I0712 12:35:28.131417 139757 net.cpp:157] Top shape: 32 (32)
I0712 12:35:28.131425 139757 net.cpp:165] Memory required for data: 19268096
I0712 12:35:28.131434 139757 layer_factory.hpp:76] Creating layer conv1/7x7_s2
I0712 12:35:28.131489 139757 net.cpp:106] Creating Layer conv1/7x7_s2
I0712 12:35:28.131500 139757 net.cpp:454] conv1/7x7_s2 <- data
I0712 12:35:28.131510 139757 net.cpp:411] conv1/7x7_s2 -> conv1/7x7_s2
I0712 12:35:28.516921 139757 net.cpp:150] Setting up conv1/7x7_s2
I0712 12:35:28.516991 139757 net.cpp:157] Top shape: 32 64 112 112 (25690112)
I0712 12:35:28.517002 139757 net.cpp:165] Memory required for data: 122028544
I0712 12:35:28.517053 139757 layer_factory.hpp:76] Creating layer conv1/relu_7x7
I0712 12:35:28.517081 139757 net.cpp:106] Creating Layer conv1/relu_7x7
I0712 12:35:28.517098 139757 net.cpp:454] conv1/relu_7x7 <- conv1/7x7_s2
I0712 12:35:28.517129 139757 net.cpp:397] conv1/relu_7x7 -> conv1/7x7_s2 (in-place)
I0712 12:35:28.517333 139757 net.cpp:150] Setting up conv1/relu_7x7
I0712 12:35:28.517352 139757 net.cpp:157] Top shape: 32 64 112 112 (25690112)
I0712 12:35:28.517361 139757 net.cpp:165] Memory required for data: 224788992
I0712 12:35:28.517370 139757 layer_factory.hpp:76] Creating layer pool1/3x3_s2
I0712 12:35:28.517391 139757 net.cpp:106] Creating Layer pool1/3x3_s2
I0712 12:35:28.517401 139757 net.cpp:454] pool1/3x3_s2 <- conv1/7x7_s2
I0712 12:35:28.517417 139757 net.cpp:411] pool1/3x3_s2 -> pool1/3x3_s2
I0712 12:35:28.518000 139757 net.cpp:150] Setting up pool1/3x3_s2
I0712 12:35:28.518023 139757 net.cpp:157] Top shape: 32 64 56 56 (6422528)
I0712 12:35:28.518033 139757 net.cpp:165] Memory required for data: 250479104
I0712 12:35:28.518043 139757 layer_factory.hpp:76] Creating layer pool1/norm1
I0712 12:35:28.518064 139757 net.cpp:106] Creating Layer pool1/norm1
I0712 12:35:28.518072 139757 net.cpp:454] pool1/norm1 <- pool1/3x3_s2
I0712 12:35:28.518084 139757 net.cpp:411] pool1/norm1 -> pool1/norm1
I0712 12:35:28.518301 139757 net.cpp:150] Setting up pool1/norm1
I0712 12:35:28.518321 139757 net.cpp:157] Top shape: 32 64 56 56 (6422528)
I0712 12:35:28.518331 139757 net.cpp:165] Memory required for data: 276169216
I0712 12:35:28.518339 139757 layer_factory.hpp:76] Creating layer conv2/3x3_reduce
I0712 12:35:28.518354 139757 net.cpp:106] Creating Layer conv2/3x3_reduce
I0712 12:35:28.518363 139757 net.cpp:454] conv2/3x3_reduce <- pool1/norm1
I0712 12:35:28.518384 139757 net.cpp:411] conv2/3x3_reduce -> conv2/3x3_reduce
I0712 12:35:28.520086 139757 cudnn_conv_layer.cpp:194] Reallocating workspace storage: 768
I0712 12:35:28.520122 139757 net.cpp:150] Setting up conv2/3x3_reduce
I0712 12:35:28.520134 139757 net.cpp:157] Top shape: 32 64 56 56 (6422528)
I0712 12:35:28.520143 139757 net.cpp:165] Memory required for data: 301859328
I0712 12:35:28.520159 139757 layer_factory.hpp:76] Creating layer conv2/relu_3x3_reduce
I0712 12:35:28.520182 139757 net.cpp:106] Creating Layer conv2/relu_3x3_reduce
I0712 12:35:28.520192 139757 net.cpp:454] conv2/relu_3x3_reduce <- conv2/3x3_reduce
I0712 12:35:28.520203 139757 net.cpp:397] conv2/relu_3x3_reduce -> conv2/3x3_reduce (in-place)
I0712 12:35:28.520545 139757 net.cpp:150] Setting up conv2/relu_3x3_reduce
I0712 12:35:28.520565 139757 net.cpp:157] Top shape: 32 64 56 56 (6422528)
I0712 12:35:28.520575 139757 net.cpp:165] Memory required for data: 327549440
I0712 12:35:28.520592 139757 layer_factory.hpp:76] Creating layer conv2/3x3
I0712 12:35:28.520614 139757 net.cpp:106] Creating Layer conv2/3x3
I0712 12:35:28.520624 139757 net.cpp:454] conv2/3x3 <- conv2/3x3_reduce
I0712 12:35:28.520642 139757 net.cpp:411] conv2/3x3 -> conv2/3x3
I0712 12:35:28.523391 139757 cudnn_conv_layer.cpp:194] Reallocating workspace storage: 6912
I0712 12:35:28.523643 139757 net.cpp:150] Setting up conv2/3x3
I0712 12:35:28.523666 139757 net.cpp:157] Top shape: 32 192 56 56 (19267584)
I0712 12:35:28.523675 139757 net.cpp:165] Memory required for data: 404619776
I0712 12:35:28.523694 139757 layer_factory.hpp:76] Creating layer conv2/relu_3x3
I0712 12:35:28.523717 139757 net.cpp:106] Creating Layer conv2/relu_3x3
I0712 12:35:28.523727 139757 net.cpp:454] conv2/relu_3x3 <- conv2/3x3
I0712 12:35:28.523738 139757 net.cpp:397] conv2/relu_3x3 -> conv2/3x3 (in-place)
I0712 12:35:28.523972 139757 net.cpp:150] Setting up conv2/relu_3x3
I0712 12:35:28.523991 139757 net.cpp:157] Top shape: 32 192 56 56 (19267584)
I0712 12:35:28.524000 139757 net.cpp:165] Memory required for data: 481690112
I0712 12:35:28.524009 139757 layer_factory.hpp:76] Creating layer conv2/norm2
I0712 12:35:28.524024 139757 net.cpp:106] Creating Layer conv2/norm2
I0712 12:35:28.524032 139757 net.cpp:454] conv2/norm2 <- conv2/3x3
I0712 12:35:28.524052 139757 net.cpp:411] conv2/norm2 -> conv2/norm2
I0712 12:35:28.524461 139757 net.cpp:150] Setting up conv2/norm2
I0712 12:35:28.524482 139757 net.cpp:157] Top shape: 32 192 56 56 (19267584)
I0712 12:35:28.524492 139757 net.cpp:165] Memory required for data: 558760448
I0712 12:35:28.524502 139757 layer_factory.hpp:76] Creating layer pool2/3x3_s2
I0712 12:35:28.524513 139757 net.cpp:106] Creating Layer pool2/3x3_s2
I0712 12:35:28.524523 139757 net.cpp:454] pool2/3x3_s2 <- conv2/norm2
I0712 12:35:28.524534 139757 net.cpp:411] pool2/3x3_s2 -> pool2/3x3_s2
I0712 12:35:28.524761 139757 net.cpp:150] Setting up pool2/3x3_s2
I0712 12:35:28.524781 139757 net.cpp:157] Top shape: 32 192 28 28 (4816896)
I0712 12:35:28.524791 139757 net.cpp:165] Memory required for data: 578028032
I0712 12:35:28.524811 139757 layer_factory.hpp:76] Creating layer pool2/3x3_s2_pool2/3x3_s2_0_split
I0712 12:35:28.524832 139757 net.cpp:106] Creating Layer pool2/3x3_s2_pool2/3x3_s2_0_split
I0712 12:35:28.524840 139757 net.cpp:454] pool2/3x3_s2_pool2/3x3_s2_0_split <- pool2/3x3_s2
I0712 12:35:28.524859 139757 net.cpp:411] pool2/3x3_s2_pool2/3x3_s2_0_split -> pool2/3x3_s2_pool2/3x3_s2_0_split_0
I0712 12:35:28.524871 139757 net.cpp:411] pool2/3x3_s2_pool2/3x3_s2_0_split -> pool2/3x3_s2_pool2/3x3_s2_0_split_1
I0712 12:35:28.524883 139757 net.cpp:411] pool2/3x3_s2_pool2/3x3_s2_0_split -> pool2/3x3_s2_pool2/3x3_s2_0_split_2
I0712 12:35:28.524893 139757 net.cpp:411] pool2/3x3_s2_pool2/3x3_s2_0_split -> pool2/3x3_s2_pool2/3x3_s2_0_split_3
I0712 12:35:28.524960 139757 net.cpp:150] Setting up pool2/3x3_s2_pool2/3x3_s2_0_split
I0712 12:35:28.524972 139757 net.cpp:157] Top shape: 32 192 28 28 (4816896)
I0712 12:35:28.524981 139757 net.cpp:157] Top shape: 32 192 28 28 (4816896)
I0712 12:35:28.524991 139757 net.cpp:157] Top shape: 32 192 28 28 (4816896)
I0712 12:35:28.524999 139757 net.cpp:157] Top shape: 32 192 28 28 (4816896)
I0712 12:35:28.525007 139757 net.cpp:165] Memory required for data: 655098368
I0712 12:35:28.525014 139757 layer_factory.hpp:76] Creating layer inception_3a/1x1
I0712 12:35:28.525037 139757 net.cpp:106] Creating Layer inception_3a/1x1
I0712 12:35:28.525045 139757 net.cpp:454] inception_3a/1x1 <- pool2/3x3_s2_pool2/3x3_s2_0_split_0
I0712 12:35:28.525058 139757 net.cpp:411] inception_3a/1x1 -> inception_3a/1x1
I0712 12:35:28.526865 139757 net.cpp:150] Setting up inception_3a/1x1
I0712 12:35:28.526897 139757 net.cpp:157] Top shape: 32 64 28 28 (1605632)
I0712 12:35:28.526906 139757 net.cpp:165] Memory required for data: 661520896
I0712 12:35:28.526919 139757 layer_factory.hpp:76] Creating layer inception_3a/relu_1x1
I0712 12:35:28.526932 139757 net.cpp:106] Creating Layer inception_3a/relu_1x1
I0712 12:35:28.526942 139757 net.cpp:454] inception_3a/relu_1x1 <- inception_3a/1x1
I0712 12:35:28.526962 139757 net.cpp:397] inception_3a/relu_1x1 -> inception_3a/1x1 (in-place)
I0712 12:35:28.527340 139757 net.cpp:150] Setting up inception_3a/relu_1x1
I0712 12:35:28.527362 139757 net.cpp:157] Top shape: 32 64 28 28 (1605632)
I0712 12:35:28.527371 139757 net.cpp:165] Memory required for data: 667943424
I0712 12:35:28.527380 139757 layer_factory.hpp:76] Creating layer inception_3a/3x3_reduce
I0712 12:35:28.527405 139757 net.cpp:106] Creating Layer inception_3a/3x3_reduce
I0712 12:35:28.527416 139757 net.cpp:454] inception_3a/3x3_reduce <- pool2/3x3_s2_pool2/3x3_s2_0_split_1
I0712 12:35:28.527429 139757 net.cpp:411] inception_3a/3x3_reduce -> inception_3a/3x3_reduce
I0712 12:35:28.529099 139757 cudnn_conv_layer.cpp:194] Reallocating workspace storage: 2304
I0712 12:35:28.529366 139757 net.cpp:150] Setting up inception_3a/3x3_reduce
I0712 12:35:28.529418 139757 net.cpp:157] Top shape: 32 96 28 28 (2408448)
I0712 12:35:28.529433 139757 net.cpp:165] Memory required for data: 677577216
I0712 12:35:28.529461 139757 layer_factory.hpp:76] Creating layer inception_3a/relu_3x3_reduce
I0712 12:35:28.529484 139757 net.cpp:106] Creating Layer inception_3a/relu_3x3_reduce
I0712 12:35:28.529497 139757 net.cpp:454] inception_3a/relu_3x3_reduce <- inception_3a/3x3_reduce
I0712 12:35:28.529525 139757 net.cpp:397] inception_3a/relu_3x3_reduce -> inception_3a/3x3_reduce (in-place)
I0712 12:35:28.529906 139757 net.cpp:150] Setting up inception_3a/relu_3x3_reduce
I0712 12:35:28.529929 139757 net.cpp:157] Top shape: 32 96 28 28 (2408448)
I0712 12:35:28.529938 139757 net.cpp:165] Memory required for data: 687211008
I0712 12:35:28.529947 139757 layer_factory.hpp:76] Creating layer inception_3a/3x3
I0712 12:35:28.529963 139757 net.cpp:106] Creating Layer inception_3a/3x3
I0712 12:35:28.529973 139757 net.cpp:454] inception_3a/3x3 <- inception_3a/3x3_reduce
I0712 12:35:28.529983 139757 net.cpp:411] inception_3a/3x3 -> inception_3a/3x3
I0712 12:35:28.532474 139757 net.cpp:150] Setting up inception_3a/3x3
I0712 12:35:28.532505 139757 net.cpp:157] Top shape: 32 128 28 28 (3211264)
I0712 12:35:28.532515 139757 net.cpp:165] Memory required for data: 700056064
I0712 12:35:28.532539 139757 layer_factory.hpp:76] Creating layer inception_3a/relu_3x3
I0712 12:35:28.532559 139757 net.cpp:106] Creating Layer inception_3a/relu_3x3
I0712 12:35:28.532569 139757 net.cpp:454] inception_3a/relu_3x3 <- inception_3a/3x3
I0712 12:35:28.532580 139757 net.cpp:397] inception_3a/relu_3x3 -> inception_3a/3x3 (in-place)
I0712 12:35:28.532788 139757 net.cpp:150] Setting up inception_3a/relu_3x3
I0712 12:35:28.532809 139757 net.cpp:157] Top shape: 32 128 28 28 (3211264)
I0712 12:35:28.532817 139757 net.cpp:165] Memory required for data: 712901120
I0712 12:35:28.532826 139757 layer_factory.hpp:76] Creating layer inception_3a/5x5_reduce
I0712 12:35:28.532842 139757 net.cpp:106] Creating Layer inception_3a/5x5_reduce
I0712 12:35:28.532852 139757 net.cpp:454] inception_3a/5x5_reduce <- pool2/3x3_s2_pool2/3x3_s2_0_split_2
I0712 12:35:28.532863 139757 net.cpp:411] inception_3a/5x5_reduce -> inception_3a/5x5_reduce
I0712 12:35:28.534153 139757 net.cpp:150] Setting up inception_3a/5x5_reduce
I0712 12:35:28.534178 139757 net.cpp:157] Top shape: 32 16 28 28 (401408)
I0712 12:35:28.534186 139757 net.cpp:165] Memory required for data: 714506752
I0712 12:35:28.534198 139757 layer_factory.hpp:76] Creating layer inception_3a/relu_5x5_reduce
I0712 12:35:28.534212 139757 net.cpp:106] Creating Layer inception_3a/relu_5x5_reduce
I0712 12:35:28.534221 139757 net.cpp:454] inception_3a/relu_5x5_reduce <- inception_3a/5x5_reduce
I0712 12:35:28.534232 139757 net.cpp:397] inception_3a/relu_5x5_reduce -> inception_3a/5x5_reduce (in-place)
I0712 12:35:28.534585 139757 net.cpp:150] Setting up inception_3a/relu_5x5_reduce
I0712 12:35:28.534608 139757 net.cpp:157] Top shape: 32 16 28 28 (401408)
I0712 12:35:28.534617 139757 net.cpp:165] Memory required for data: 716112384
I0712 12:35:28.534626 139757 layer_factory.hpp:76] Creating layer inception_3a/5x5
I0712 12:35:28.534657 139757 net.cpp:106] Creating Layer inception_3a/5x5
I0712 12:35:28.534672 139757 net.cpp:454] inception_3a/5x5 <- inception_3a/5x5_reduce
I0712 12:35:28.534682 139757 net.cpp:411] inception_3a/5x5 -> inception_3a/5x5
I0712 12:35:28.535711 139757 net.cpp:150] Setting up inception_3a/5x5
I0712 12:35:28.535733 139757 net.cpp:157] Top shape: 32 32 28 28 (802816)
I0712 12:35:28.535742 139757 net.cpp:165] Memory required for data: 719323648
I0712 12:35:28.535754 139757 layer_factory.hpp:76] Creating layer inception_3a/relu_5x5
I0712 12:35:28.535778 139757 net.cpp:106] Creating Layer inception_3a/relu_5x5
I0712 12:35:28.535789 139757 net.cpp:454] inception_3a/relu_5x5 <- inception_3a/5x5
I0712 12:35:28.535799 139757 net.cpp:397] inception_3a/relu_5x5 -> inception_3a/5x5 (in-place)
I0712 12:35:28.536140 139757 net.cpp:150] Setting up inception_3a/relu_5x5
I0712 12:35:28.536183 139757 net.cpp:157] Top shape: 32 32 28 28 (802816)
I0712 12:35:28.536192 139757 net.cpp:165] Memory required for data: 722534912
I0712 12:35:28.536201 139757 layer_factory.hpp:76] Creating layer inception_3a/pool
I0712 12:35:28.536216 139757 net.cpp:106] Creating Layer inception_3a/pool
I0712 12:35:28.536226 139757 net.cpp:454] inception_3a/pool <- pool2/3x3_s2_pool2/3x3_s2_0_split_3
I0712 12:35:28.536237 139757 net.cpp:411] inception_3a/pool -> inception_3a/pool
I0712 12:35:28.536469 139757 net.cpp:150] Setting up inception_3a/pool
I0712 12:35:28.536489 139757 net.cpp:157] Top shape: 32 192 28 28 (4816896)
I0712 12:35:28.536499 139757 net.cpp:165] Memory required for data: 741802496
I0712 12:35:28.536506 139757 layer_factory.hpp:76] Creating layer inception_3a/pool_proj
I0712 12:35:28.536530 139757 net.cpp:106] Creating Layer inception_3a/pool_proj
I0712 12:35:28.536540 139757 net.cpp:454] inception_3a/pool_proj <- inception_3a/pool
I0712 12:35:28.536553 139757 net.cpp:411] inception_3a/pool_proj -> inception_3a/pool_proj
I0712 12:35:28.537683 139757 net.cpp:150] Setting up inception_3a/pool_proj
I0712 12:35:28.537708 139757 net.cpp:157] Top shape: 32 32 28 28 (802816)
I0712 12:35:28.537716 139757 net.cpp:165] Memory required for data: 745013760
I0712 12:35:28.537734 139757 layer_factory.hpp:76] Creating layer inception_3a/relu_pool_proj
I0712 12:35:28.537749 139757 net.cpp:106] Creating Layer inception_3a/relu_pool_proj
I0712 12:35:28.537757 139757 net.cpp:454] inception_3a/relu_pool_proj <- inception_3a/pool_proj
I0712 12:35:28.537768 139757 net.cpp:397] inception_3a/relu_pool_proj -> inception_3a/pool_proj (in-place)
I0712 12:35:28.538121 139757 net.cpp:150] Setting up inception_3a/relu_pool_proj
I0712 12:35:28.538142 139757 net.cpp:157] Top shape: 32 32 28 28 (802816)
I0712 12:35:28.538151 139757 net.cpp:165] Memory required for data: 748225024
I0712 12:35:28.538168 139757 layer_factory.hpp:76] Creating layer inception_3a/output
I0712 12:35:28.538189 139757 net.cpp:106] Creating Layer inception_3a/output
I0712 12:35:28.538199 139757 net.cpp:454] inception_3a/output <- inception_3a/1x1
I0712 12:35:28.538209 139757 net.cpp:454] inception_3a/output <- inception_3a/3x3
I0712 12:35:28.538219 139757 net.cpp:454] inception_3a/output <- inception_3a/5x5
I0712 12:35:28.538228 139757 net.cpp:454] inception_3a/output <- inception_3a/pool_proj
I0712 12:35:28.538239 139757 net.cpp:411] inception_3a/output -> inception_3a/output
I0712 12:35:28.538280 139757 net.cpp:150] Setting up inception_3a/output
I0712 12:35:28.538292 139757 net.cpp:157] Top shape: 32 256 28 28 (6422528)
I0712 12:35:28.538300 139757 net.cpp:165] Memory required for data: 773915136
I0712 12:35:28.538308 139757 layer_factory.hpp:76] Creating layer inception_3a/output_inception_3a/output_0_split
I0712 12:35:28.538319 139757 net.cpp:106] Creating Layer inception_3a/output_inception_3a/output_0_split
I0712 12:35:28.538328 139757 net.cpp:454] inception_3a/output_inception_3a/output_0_split <- inception_3a/output
I0712 12:35:28.538341 139757 net.cpp:411] inception_3a/output_inception_3a/output_0_split -> inception_3a/output_inception_3a/output_0_split_0
I0712 12:35:28.538352 139757 net.cpp:411] inception_3a/output_inception_3a/output_0_split -> inception_3a/output_inception_3a/output_0_split_1
I0712 12:35:28.538363 139757 net.cpp:411] inception_3a/output_inception_3a/output_0_split -> inception_3a/output_inception_3a/output_0_split_2
I0712 12:35:28.538373 139757 net.cpp:411] inception_3a/output_inception_3a/output_0_split -> inception_3a/output_inception_3a/output_0_split_3
I0712 12:35:28.538442 139757 net.cpp:150] Setting up inception_3a/output_inception_3a/output_0_split
I0712 12:35:28.538455 139757 net.cpp:157] Top shape: 32 256 28 28 (6422528)
I0712 12:35:28.538463 139757 net.cpp:157] Top shape: 32 256 28 28 (6422528)
I0712 12:35:28.538472 139757 net.cpp:157] Top shape: 32 256 28 28 (6422528)
I0712 12:35:28.538480 139757 net.cpp:157] Top shape: 32 256 28 28 (6422528)
I0712 12:35:28.538488 139757 net.cpp:165] Memory required for data: 876675584
I0712 12:35:28.538513 139757 layer_factory.hpp:76] Creating layer inception_3b/1x1
I0712 12:35:28.538535 139757 net.cpp:106] Creating Layer inception_3b/1x1
I0712 12:35:28.538545 139757 net.cpp:454] inception_3b/1x1 <- inception_3a/output_inception_3a/output_0_split_0
I0712 12:35:28.538555 139757 net.cpp:411] inception_3b/1x1 -> inception_3b/1x1
I0712 12:35:28.539866 139757 cudnn_conv_layer.cpp:194] Reallocating workspace storage: 3072
I0712 12:35:28.539911 139757 net.cpp:150] Setting up inception_3b/1x1
I0712 12:35:28.539929 139757 net.cpp:157] Top shape: 32 128 28 28 (3211264)
I0712 12:35:28.539944 139757 net.cpp:165] Memory required for data: 889520640
I0712 12:35:28.539963 139757 layer_factory.hpp:76] Creating layer inception_3b/relu_1x1
I0712 12:35:28.539976 139757 net.cpp:106] Creating Layer inception_3b/relu_1x1
I0712 12:35:28.539985 139757 net.cpp:454] inception_3b/relu_1x1 <- inception_3b/1x1
I0712 12:35:28.539995 139757 net.cpp:397] inception_3b/relu_1x1 -> inception_3b/1x1 (in-place)
I0712 12:35:28.540196 139757 net.cpp:150] Setting up inception_3b/relu_1x1
I0712 12:35:28.540215 139757 net.cpp:157] Top shape: 32 128 28 28 (3211264)
I0712 12:35:28.540225 139757 net.cpp:165] Memory required for data: 902365696
I0712 12:35:28.540241 139757 layer_factory.hpp:76] Creating layer inception_3b/3x3_reduce
I0712 12:35:28.540256 139757 net.cpp:106] Creating Layer inception_3b/3x3_reduce
I0712 12:35:28.540266 139757 net.cpp:454] inception_3b/3x3_reduce <- inception_3a/output_inception_3a/output_0_split_1
I0712 12:35:28.540287 139757 net.cpp:411] inception_3b/3x3_reduce -> inception_3b/3x3_reduce
I0712 12:35:28.541592 139757 cudnn_conv_layer.cpp:194] Reallocating workspace storage: 3072
I0712 12:35:28.541625 139757 net.cpp:150] Setting up inception_3b/3x3_reduce
I0712 12:35:28.541637 139757 net.cpp:157] Top shape: 32 128 28 28 (3211264)
I0712 12:35:28.541651 139757 net.cpp:165] Memory required for data: 915210752
I0712 12:35:28.541671 139757 layer_factory.hpp:76] Creating layer inception_3b/relu_3x3_reduce
I0712 12:35:28.541700 139757 net.cpp:106] Creating Layer inception_3b/relu_3x3_reduce
I0712 12:35:28.541717 139757 net.cpp:454] inception_3b/relu_3x3_reduce <- inception_3b/3x3_reduce
I0712 12:35:28.541729 139757 net.cpp:397] inception_3b/relu_3x3_reduce -> inception_3b/3x3_reduce (in-place)
I0712 12:35:28.541937 139757 net.cpp:150] Setting up inception_3b/relu_3x3_reduce
I0712 12:35:28.541957 139757 net.cpp:157] Top shape: 32 128 28 28 (3211264)
I0712 12:35:28.541965 139757 net.cpp:165] Memory required for data: 928055808
I0712 12:35:28.541975 139757 layer_factory.hpp:76] Creating layer inception_3b/3x3
I0712 12:35:28.541992 139757 net.cpp:106] Creating Layer inception_3b/3x3
I0712 12:35:28.542002 139757 net.cpp:454] inception_3b/3x3 <- inception_3b/3x3_reduce
I0712 12:35:28.542021 139757 net.cpp:411] inception_3b/3x3 -> inception_3b/3x3
I0712 12:35:28.545521 139757 cudnn_conv_layer.cpp:194] Reallocating workspace storage: 13824
I0712 12:35:28.545567 139757 net.cpp:150] Setting up inception_3b/3x3
I0712 12:35:28.545581 139757 net.cpp:157] Top shape: 32 192 28 28 (4816896)
I0712 12:35:28.545594 139757 net.cpp:165] Memory required for data: 947323392
I0712 12:35:28.545614 139757 layer_factory.hpp:76] Creating layer inception_3b/relu_3x3
I0712 12:35:28.545637 139757 net.cpp:106] Creating Layer inception_3b/relu_3x3
I0712 12:35:28.545655 139757 net.cpp:454] inception_3b/relu_3x3 <- inception_3b/3x3
I0712 12:35:28.545670 139757 net.cpp:397] inception_3b/relu_3x3 -> inception_3b/3x3 (in-place)
I0712 12:35:28.546028 139757 net.cpp:150] Setting up inception_3b/relu_3x3
I0712 12:35:28.546051 139757 net.cpp:157] Top shape: 32 192 28 28 (4816896)
I0712 12:35:28.546059 139757 net.cpp:165] Memory required for data: 966590976
I0712 12:35:28.546077 139757 layer_factory.hpp:76] Creating layer inception_3b/5x5_reduce
I0712 12:35:28.546098 139757 net.cpp:106] Creating Layer inception_3b/5x5_reduce
I0712 12:35:28.546113 139757 net.cpp:454] inception_3b/5x5_reduce <- inception_3a/output_inception_3a/output_0_split_2
I0712 12:35:28.546167 139757 net.cpp:411] inception_3b/5x5_reduce -> inception_3b/5x5_reduce
I0712 12:35:28.547334 139757 net.cpp:150] Setting up inception_3b/5x5_reduce
I0712 12:35:28.547358 139757 net.cpp:157] Top shape: 32 32 28 28 (802816)
I0712 12:35:28.547366 139757 net.cpp:165] Memory required for data: 969802240
I0712 12:35:28.547379 139757 layer_factory.hpp:76] Creating layer inception_3b/relu_5x5_reduce
I0712 12:35:28.547389 139757 net.cpp:106] Creating Layer inception_3b/relu_5x5_reduce
I0712 12:35:28.547399 139757 net.cpp:454] inception_3b/relu_5x5_reduce <- inception_3b/5x5_reduce
I0712 12:35:28.547412 139757 net.cpp:397] inception_3b/relu_5x5_reduce -> inception_3b/5x5_reduce (in-place)
I0712 12:35:28.547623 139757 net.cpp:150] Setting up inception_3b/relu_5x5_reduce
I0712 12:35:28.547642 139757 net.cpp:157] Top shape: 32 32 28 28 (802816)
I0712 12:35:28.547652 139757 net.cpp:165] Memory required for data: 973013504
I0712 12:35:28.547660 139757 layer_factory.hpp:76] Creating layer inception_3b/5x5
I0712 12:35:28.547674 139757 net.cpp:106] Creating Layer inception_3b/5x5
I0712 12:35:28.547684 139757 net.cpp:454] inception_3b/5x5 <- inception_3b/5x5_reduce
I0712 12:35:28.547698 139757 net.cpp:411] inception_3b/5x5 -> inception_3b/5x5
I0712 12:35:28.549979 139757 cudnn_conv_layer.cpp:194] Reallocating workspace storage: 9600
I0712 12:35:28.550016 139757 net.cpp:150] Setting up inception_3b/5x5
I0712 12:35:28.550030 139757 net.cpp:157] Top shape: 32 96 28 28 (2408448)
I0712 12:35:28.550045 139757 net.cpp:165] Memory required for data: 982647296
I0712 12:35:28.550063 139757 layer_factory.hpp:76] Creating layer inception_3b/relu_5x5
I0712 12:35:28.550101 139757 net.cpp:106] Creating Layer inception_3b/relu_5x5
I0712 12:35:28.550113 139757 net.cpp:454] inception_3b/relu_5x5 <- inception_3b/5x5
I0712 12:35:28.550130 139757 net.cpp:397] inception_3b/relu_5x5 -> inception_3b/5x5 (in-place)
I0712 12:35:28.550336 139757 net.cpp:150] Setting up inception_3b/relu_5x5
I0712 12:35:28.550356 139757 net.cpp:157] Top shape: 32 96 28 28 (2408448)
I0712 12:35:28.550364 139757 net.cpp:165] Memory required for data: 992281088
I0712 12:35:28.550380 139757 layer_factory.hpp:76] Creating layer inception_3b/pool
I0712 12:35:28.550398 139757 net.cpp:106] Creating Layer inception_3b/pool
I0712 12:35:28.550410 139757 net.cpp:454] inception_3b/pool <- inception_3a/output_inception_3a/output_0_split_3
I0712 12:35:28.550431 139757 net.cpp:411] inception_3b/pool -> inception_3b/pool
I0712 12:35:28.550819 139757 net.cpp:150] Setting up inception_3b/pool
I0712 12:35:28.550840 139757 net.cpp:157] Top shape: 32 256 28 28 (6422528)
I0712 12:35:28.550849 139757 net.cpp:165] Memory required for data: 1017971200
I0712 12:35:28.550858 139757 layer_factory.hpp:76] Creating layer inception_3b/pool_proj
I0712 12:35:28.550874 139757 net.cpp:106] Creating Layer inception_3b/pool_proj
I0712 12:35:28.550884 139757 net.cpp:454] inception_3b/pool_proj <- inception_3b/pool
I0712 12:35:28.550897 139757 net.cpp:411] inception_3b/pool_proj -> inception_3b/pool_proj
I0712 12:35:28.552460 139757 cudnn_conv_layer.cpp:194] Reallocating workspace storage: 3072
I0712 12:35:28.552494 139757 net.cpp:150] Setting up inception_3b/pool_proj
I0712 12:35:28.552507 139757 net.cpp:157] Top shape: 32 64 28 28 (1605632)
I0712 12:35:28.552520 139757 net.cpp:165] Memory required for data: 1024393728
I0712 12:35:28.552541 139757 layer_factory.hpp:76] Creating layer inception_3b/relu_pool_proj
I0712 12:35:28.552573 139757 net.cpp:106] Creating Layer inception_3b/relu_pool_proj
I0712 12:35:28.552587 139757 net.cpp:454] inception_3b/relu_pool_proj <- inception_3b/pool_proj
I0712 12:35:28.552599 139757 net.cpp:397] inception_3b/relu_pool_proj -> inception_3b/pool_proj (in-place)
I0712 12:35:28.552804 139757 net.cpp:150] Setting up inception_3b/relu_pool_proj
I0712 12:35:28.552824 139757 net.cpp:157] Top shape: 32 64 28 28 (1605632)
I0712 12:35:28.552832 139757 net.cpp:165] Memory required for data: 1030816256
I0712 12:35:28.552841 139757 layer_factory.hpp:76] Creating layer inception_3b/output
I0712 12:35:28.552867 139757 net.cpp:106] Creating Layer inception_3b/output
I0712 12:35:28.552878 139757 net.cpp:454] inception_3b/output <- inception_3b/1x1
I0712 12:35:28.552894 139757 net.cpp:454] inception_3b/output <- inception_3b/3x3
I0712 12:35:28.552909 139757 net.cpp:454] inception_3b/output <- inception_3b/5x5
I0712 12:35:28.552919 139757 net.cpp:454] inception_3b/output <- inception_3b/pool_proj
I0712 12:35:28.552929 139757 net.cpp:411] inception_3b/output -> inception_3b/output
I0712 12:35:28.552975 139757 net.cpp:150] Setting up inception_3b/output
I0712 12:35:28.552994 139757 net.cpp:157] Top shape: 32 480 28 28 (12042240)
I0712 12:35:28.553002 139757 net.cpp:165] Memory required for data: 1078985216
I0712 12:35:28.553023 139757 layer_factory.hpp:76] Creating layer pool3/3x3_s2
I0712 12:35:28.553040 139757 net.cpp:106] Creating Layer pool3/3x3_s2
I0712 12:35:28.553050 139757 net.cpp:454] pool3/3x3_s2 <- inception_3b/output
I0712 12:35:28.553061 139757 net.cpp:411] pool3/3x3_s2 -> pool3/3x3_s2
I0712 12:35:28.553455 139757 net.cpp:150] Setting up pool3/3x3_s2
I0712 12:35:28.553479 139757 net.cpp:157] Top shape: 32 480 14 14 (3010560)
I0712 12:35:28.553488 139757 net.cpp:165] Memory required for data: 1091027456
I0712 12:35:28.553498 139757 layer_factory.hpp:76] Creating layer pool3/3x3_s2_pool3/3x3_s2_0_split
I0712 12:35:28.553509 139757 net.cpp:106] Creating Layer pool3/3x3_s2_pool3/3x3_s2_0_split
I0712 12:35:28.553517 139757 net.cpp:454] pool3/3x3_s2_pool3/3x3_s2_0_split <- pool3/3x3_s2
I0712 12:35:28.553539 139757 net.cpp:411] pool3/3x3_s2_pool3/3x3_s2_0_split -> pool3/3x3_s2_pool3/3x3_s2_0_split_0
I0712 12:35:28.553561 139757 net.cpp:411] pool3/3x3_s2_pool3/3x3_s2_0_split -> pool3/3x3_s2_pool3/3x3_s2_0_split_1
I0712 12:35:28.553581 139757 net.cpp:411] pool3/3x3_s2_pool3/3x3_s2_0_split -> pool3/3x3_s2_pool3/3x3_s2_0_split_2
I0712 12:35:28.553594 139757 net.cpp:411] pool3/3x3_s2_pool3/3x3_s2_0_split -> pool3/3x3_s2_pool3/3x3_s2_0_split_3
I0712 12:35:28.553684 139757 net.cpp:150] Setting up pool3/3x3_s2_pool3/3x3_s2_0_split
I0712 12:35:28.553705 139757 net.cpp:157] Top shape: 32 480 14 14 (3010560)
I0712 12:35:28.553720 139757 net.cpp:157] Top shape: 32 480 14 14 (3010560)
I0712 12:35:28.553730 139757 net.cpp:157] Top shape: 32 480 14 14 (3010560)
I0712 12:35:28.553740 139757 net.cpp:157] Top shape: 32 480 14 14 (3010560)
I0712 12:35:28.553753 139757 net.cpp:165] Memory required for data: 1139196416
I0712 12:35:28.553766 139757 layer_factory.hpp:76] Creating layer inception_4a/1x1
I0712 12:35:28.553787 139757 net.cpp:106] Creating Layer inception_4a/1x1
I0712 12:35:28.553797 139757 net.cpp:454] inception_4a/1x1 <- pool3/3x3_s2_pool3/3x3_s2_0_split_0
I0712 12:35:28.553810 139757 net.cpp:411] inception_4a/1x1 -> inception_4a/1x1
I0712 12:35:28.555580 139757 cudnn_conv_layer.cpp:194] Reallocating workspace storage: 5760
I0712 12:35:28.555625 139757 net.cpp:150] Setting up inception_4a/1x1
I0712 12:35:28.555651 139757 net.cpp:157] Top shape: 32 192 14 14 (1204224)
I0712 12:35:28.555670 139757 net.cpp:165] Memory required for data: 1144013312
I0712 12:35:28.555691 139757 layer_factory.hpp:76] Creating layer inception_4a/relu_1x1
I0712 12:35:28.555704 139757 net.cpp:106] Creating Layer inception_4a/relu_1x1
I0712 12:35:28.555717 139757 net.cpp:454] inception_4a/relu_1x1 <- inception_4a/1x1
I0712 12:35:28.555733 139757 net.cpp:397] inception_4a/relu_1x1 -> inception_4a/1x1 (in-place)
I0712 12:35:28.555939 139757 net.cpp:150] Setting up inception_4a/relu_1x1
I0712 12:35:28.555959 139757 net.cpp:157] Top shape: 32 192 14 14 (1204224)
I0712 12:35:28.555968 139757 net.cpp:165] Memory required for data: 1148830208
I0712 12:35:28.555984 139757 layer_factory.hpp:76] Creating layer inception_4a/3x3_reduce
I0712 12:35:28.555999 139757 net.cpp:106] Creating Layer inception_4a/3x3_reduce
I0712 12:35:28.556008 139757 net.cpp:454] inception_4a/3x3_reduce <- pool3/3x3_s2_pool3/3x3_s2_0_split_1
I0712 12:35:28.556026 139757 net.cpp:411] inception_4a/3x3_reduce -> inception_4a/3x3_reduce
I0712 12:35:28.557485 139757 cudnn_conv_layer.cpp:194] Reallocating workspace storage: 5760
I0712 12:35:28.557539 139757 net.cpp:150] Setting up inception_4a/3x3_reduce
I0712 12:35:28.557559 139757 net.cpp:157] Top shape: 32 96 14 14 (602112)
I0712 12:35:28.557574 139757 net.cpp:165] Memory required for data: 1151238656
I0712 12:35:28.557603 139757 layer_factory.hpp:76] Creating layer inception_4a/relu_3x3_reduce
I0712 12:35:28.557636 139757 net.cpp:106] Creating Layer inception_4a/relu_3x3_reduce
I0712 12:35:28.557663 139757 net.cpp:454] inception_4a/relu_3x3_reduce <- inception_4a/3x3_reduce
I0712 12:35:28.557677 139757 net.cpp:397] inception_4a/relu_3x3_reduce -> inception_4a/3x3_reduce (in-place)
I0712 12:35:28.557880 139757 net.cpp:150] Setting up inception_4a/relu_3x3_reduce
I0712 12:35:28.557899 139757 net.cpp:157] Top shape: 32 96 14 14 (602112)
I0712 12:35:28.557909 139757 net.cpp:165] Memory required for data: 1153647104
I0712 12:35:28.557916 139757 layer_factory.hpp:76] Creating layer inception_4a/3x3
I0712 12:35:28.557932 139757 net.cpp:106] Creating Layer inception_4a/3x3
I0712 12:35:28.557942 139757 net.cpp:454] inception_4a/3x3 <- inception_4a/3x3_reduce
I0712 12:35:28.557957 139757 net.cpp:411] inception_4a/3x3 -> inception_4a/3x3
I0712 12:35:28.561137 139757 cudnn_conv_layer.cpp:194] Reallocating workspace storage: 10368
I0712 12:35:28.561192 139757 net.cpp:150] Setting up inception_4a/3x3
I0712 12:35:28.561213 139757 net.cpp:157] Top shape: 32 208 14 14 (1304576)
I0712 12:35:28.561228 139757 net.cpp:165] Memory required for data: 1158865408
I0712 12:35:28.561245 139757 layer_factory.hpp:76] Creating layer inception_4a/relu_3x3
I0712 12:35:28.561274 139757 net.cpp:106] Creating Layer inception_4a/relu_3x3
I0712 12:35:28.561290 139757 net.cpp:454] inception_4a/relu_3x3 <- inception_4a/3x3
I0712 12:35:28.561316 139757 net.cpp:397] inception_4a/relu_3x3 -> inception_4a/3x3 (in-place)
I0712 12:35:28.561767 139757 net.cpp:150] Setting up inception_4a/relu_3x3
I0712 12:35:28.561796 139757 net.cpp:157] Top shape: 32 208 14 14 (1304576)
I0712 12:35:28.561810 139757 net.cpp:165] Memory required for data: 1164083712
I0712 12:35:28.561825 139757 layer_factory.hpp:76] Creating layer inception_4a/5x5_reduce
I0712 12:35:28.561846 139757 net.cpp:106] Creating Layer inception_4a/5x5_reduce
I0712 12:35:28.561862 139757 net.cpp:454] inception_4a/5x5_reduce <- pool3/3x3_s2_pool3/3x3_s2_0_split_2
I0712 12:35:28.561883 139757 net.cpp:411] inception_4a/5x5_reduce -> inception_4a/5x5_reduce
I0712 12:35:28.563334 139757 net.cpp:150] Setting up inception_4a/5x5_reduce
I0712 12:35:28.563357 139757 net.cpp:157] Top shape: 32 16 14 14 (100352)
I0712 12:35:28.563366 139757 net.cpp:165] Memory required for data: 1164485120
I0712 12:35:28.563379 139757 layer_factory.hpp:76] Creating layer inception_4a/relu_5x5_reduce
I0712 12:35:28.563406 139757 net.cpp:106] Creating Layer inception_4a/relu_5x5_reduce
I0712 12:35:28.563417 139757 net.cpp:454] inception_4a/relu_5x5_reduce <- inception_4a/5x5_reduce
I0712 12:35:28.563428 139757 net.cpp:397] inception_4a/relu_5x5_reduce -> inception_4a/5x5_reduce (in-place)
I0712 12:35:28.563608 139757 net.cpp:150] Setting up inception_4a/relu_5x5_reduce
I0712 12:35:28.563626 139757 net.cpp:157] Top shape: 32 16 14 14 (100352)
I0712 12:35:28.563634 139757 net.cpp:165] Memory required for data: 1164886528
I0712 12:35:28.563642 139757 layer_factory.hpp:76] Creating layer inception_4a/5x5
I0712 12:35:28.563657 139757 net.cpp:106] Creating Layer inception_4a/5x5
I0712 12:35:28.563666 139757 net.cpp:454] inception_4a/5x5 <- inception_4a/5x5_reduce
I0712 12:35:28.563679 139757 net.cpp:411] inception_4a/5x5 -> inception_4a/5x5
I0712 12:35:28.564896 139757 net.cpp:150] Setting up inception_4a/5x5
I0712 12:35:28.564918 139757 net.cpp:157] Top shape: 32 48 14 14 (301056)
I0712 12:35:28.564927 139757 net.cpp:165] Memory required for data: 1166090752
I0712 12:35:28.564939 139757 layer_factory.hpp:76] Creating layer inception_4a/relu_5x5
I0712 12:35:28.564957 139757 net.cpp:106] Creating Layer inception_4a/relu_5x5
I0712 12:35:28.564967 139757 net.cpp:454] inception_4a/relu_5x5 <- inception_4a/5x5
I0712 12:35:28.564996 139757 net.cpp:397] inception_4a/relu_5x5 -> inception_4a/5x5 (in-place)
I0712 12:35:28.565179 139757 net.cpp:150] Setting up inception_4a/relu_5x5
I0712 12:35:28.565197 139757 net.cpp:157] Top shape: 32 48 14 14 (301056)
I0712 12:35:28.565207 139757 net.cpp:165] Memory required for data: 1167294976
I0712 12:35:28.565220 139757 layer_factory.hpp:76] Creating layer inception_4a/pool
I0712 12:35:28.565232 139757 net.cpp:106] Creating Layer inception_4a/pool
I0712 12:35:28.565242 139757 net.cpp:454] inception_4a/pool <- pool3/3x3_s2_pool3/3x3_s2_0_split_3
I0712 12:35:28.565253 139757 net.cpp:411] inception_4a/pool -> inception_4a/pool
I0712 12:35:28.565616 139757 net.cpp:150] Setting up inception_4a/pool
I0712 12:35:28.565636 139757 net.cpp:157] Top shape: 32 480 14 14 (3010560)
I0712 12:35:28.565645 139757 net.cpp:165] Memory required for data: 1179337216
I0712 12:35:28.565654 139757 layer_factory.hpp:76] Creating layer inception_4a/pool_proj
I0712 12:35:28.565670 139757 net.cpp:106] Creating Layer inception_4a/pool_proj
I0712 12:35:28.565680 139757 net.cpp:454] inception_4a/pool_proj <- inception_4a/pool
I0712 12:35:28.565690 139757 net.cpp:411] inception_4a/pool_proj -> inception_4a/pool_proj
I0712 12:35:28.567037 139757 net.cpp:150] Setting up inception_4a/pool_proj
I0712 12:35:28.567059 139757 net.cpp:157] Top shape: 32 64 14 14 (401408)
I0712 12:35:28.567068 139757 net.cpp:165] Memory required for data: 1180942848
I0712 12:35:28.567080 139757 layer_factory.hpp:76] Creating layer inception_4a/relu_pool_proj
I0712 12:35:28.567100 139757 net.cpp:106] Creating Layer inception_4a/relu_pool_proj
I0712 12:35:28.567109 139757 net.cpp:454] inception_4a/relu_pool_proj <- inception_4a/pool_proj
I0712 12:35:28.567119 139757 net.cpp:397] inception_4a/relu_pool_proj -> inception_4a/pool_proj (in-place)
I0712 12:35:28.567306 139757 net.cpp:150] Setting up inception_4a/relu_pool_proj
I0712 12:35:28.567323 139757 net.cpp:157] Top shape: 32 64 14 14 (401408)
I0712 12:35:28.567332 139757 net.cpp:165] Memory required for data: 1182548480
I0712 12:35:28.567340 139757 layer_factory.hpp:76] Creating layer inception_4a/output
I0712 12:35:28.567358 139757 net.cpp:106] Creating Layer inception_4a/output
I0712 12:35:28.567368 139757 net.cpp:454] inception_4a/output <- inception_4a/1x1
I0712 12:35:28.567378 139757 net.cpp:454] inception_4a/output <- inception_4a/3x3
I0712 12:35:28.567386 139757 net.cpp:454] inception_4a/output <- inception_4a/5x5
I0712 12:35:28.567394 139757 net.cpp:454] inception_4a/output <- inception_4a/pool_proj
I0712 12:35:28.567404 139757 net.cpp:411] inception_4a/output -> inception_4a/output
I0712 12:35:28.567442 139757 net.cpp:150] Setting up inception_4a/output
I0712 12:35:28.567456 139757 net.cpp:157] Top shape: 32 512 14 14 (3211264)
I0712 12:35:28.567462 139757 net.cpp:165] Memory required for data: 1195393536
I0712 12:35:28.567476 139757 layer_factory.hpp:76] Creating layer inception_4a/output_inception_4a/output_0_split
I0712 12:35:28.567489 139757 net.cpp:106] Creating Layer inception_4a/output_inception_4a/output_0_split
I0712 12:35:28.567498 139757 net.cpp:454] inception_4a/output_inception_4a/output_0_split <- inception_4a/output
I0712 12:35:28.567508 139757 net.cpp:411] inception_4a/output_inception_4a/output_0_split -> inception_4a/output_inception_4a/output_0_split_0
I0712 12:35:28.567520 139757 net.cpp:411] inception_4a/output_inception_4a/output_0_split -> inception_4a/output_inception_4a/output_0_split_1
I0712 12:35:28.567531 139757 net.cpp:411] inception_4a/output_inception_4a/output_0_split -> inception_4a/output_inception_4a/output_0_split_2
I0712 12:35:28.567543 139757 net.cpp:411] inception_4a/output_inception_4a/output_0_split -> inception_4a/output_inception_4a/output_0_split_3
I0712 12:35:28.567554 139757 net.cpp:411] inception_4a/output_inception_4a/output_0_split -> inception_4a/output_inception_4a/output_0_split_4
I0712 12:35:28.567639 139757 net.cpp:150] Setting up inception_4a/output_inception_4a/output_0_split
I0712 12:35:28.567663 139757 net.cpp:157] Top shape: 32 512 14 14 (3211264)
I0712 12:35:28.567673 139757 net.cpp:157] Top shape: 32 512 14 14 (3211264)
I0712 12:35:28.567682 139757 net.cpp:157] Top shape: 32 512 14 14 (3211264)
I0712 12:35:28.567690 139757 net.cpp:157] Top shape: 32 512 14 14 (3211264)
I0712 12:35:28.567698 139757 net.cpp:157] Top shape: 32 512 14 14 (3211264)
I0712 12:35:28.567706 139757 net.cpp:165] Memory required for data: 1259618816
I0712 12:35:28.567713 139757 layer_factory.hpp:76] Creating layer loss1/ave_pool
I0712 12:35:28.567726 139757 net.cpp:106] Creating Layer loss1/ave_pool
I0712 12:35:28.567735 139757 net.cpp:454] loss1/ave_pool <- inception_4a/output_inception_4a/output_0_split_0
I0712 12:35:28.567745 139757 net.cpp:411] loss1/ave_pool -> loss1/ave_pool
I0712 12:35:28.568116 139757 net.cpp:150] Setting up loss1/ave_pool
I0712 12:35:28.568136 139757 net.cpp:157] Top shape: 32 512 4 4 (262144)
I0712 12:35:28.568145 139757 net.cpp:165] Memory required for data: 1260667392
I0712 12:35:28.568155 139757 layer_factory.hpp:76] Creating layer loss1/conv
I0712 12:35:28.568168 139757 net.cpp:106] Creating Layer loss1/conv
I0712 12:35:28.568177 139757 net.cpp:454] loss1/conv <- loss1/ave_pool
I0712 12:35:28.568191 139757 net.cpp:411] loss1/conv -> loss1/conv
I0712 12:35:28.569941 139757 cudnn_conv_layer.cpp:194] Reallocating workspace storage: 6144
I0712 12:35:28.569983 139757 net.cpp:150] Setting up loss1/conv
I0712 12:35:28.570003 139757 net.cpp:157] Top shape: 32 128 4 4 (65536)
I0712 12:35:28.570013 139757 net.cpp:165] Memory required for data: 1260929536
I0712 12:35:28.570024 139757 layer_factory.hpp:76] Creating layer loss1/relu_conv
I0712 12:35:28.570045 139757 net.cpp:106] Creating Layer loss1/relu_conv
I0712 12:35:28.570055 139757 net.cpp:454] loss1/relu_conv <- loss1/conv
I0712 12:35:28.570065 139757 net.cpp:397] loss1/relu_conv -> loss1/conv (in-place)
I0712 12:35:28.570317 139757 net.cpp:150] Setting up loss1/relu_conv
I0712 12:35:28.570346 139757 net.cpp:157] Top shape: 32 128 4 4 (65536)
I0712 12:35:28.570361 139757 net.cpp:165] Memory required for data: 1261191680
I0712 12:35:28.570385 139757 layer_factory.hpp:76] Creating layer loss1/fc
I0712 12:35:28.570405 139757 net.cpp:106] Creating Layer loss1/fc
I0712 12:35:28.570418 139757 net.cpp:454] loss1/fc <- loss1/conv
I0712 12:35:28.570441 139757 net.cpp:411] loss1/fc -> loss1/fc
I0712 12:35:28.590243 139757 net.cpp:150] Setting up loss1/fc
I0712 12:35:28.590282 139757 net.cpp:157] Top shape: 32 1024 (32768)
I0712 12:35:28.590291 139757 net.cpp:165] Memory required for data: 1261322752
I0712 12:35:28.590306 139757 layer_factory.hpp:76] Creating layer loss1/relu_fc
I0712 12:35:28.590322 139757 net.cpp:106] Creating Layer loss1/relu_fc
I0712 12:35:28.590334 139757 net.cpp:454] loss1/relu_fc <- loss1/fc
I0712 12:35:28.590345 139757 net.cpp:397] loss1/relu_fc -> loss1/fc (in-place)
I0712 12:35:28.590847 139757 net.cpp:150] Setting up loss1/relu_fc
I0712 12:35:28.590869 139757 net.cpp:157] Top shape: 32 1024 (32768)
I0712 12:35:28.590878 139757 net.cpp:165] Memory required for data: 1261453824
I0712 12:35:28.590888 139757 layer_factory.hpp:76] Creating layer loss1/drop_fc
I0712 12:35:28.590924 139757 net.cpp:106] Creating Layer loss1/drop_fc
I0712 12:35:28.590935 139757 net.cpp:454] loss1/drop_fc <- loss1/fc
I0712 12:35:28.590946 139757 net.cpp:397] loss1/drop_fc -> loss1/fc (in-place)
I0712 12:35:28.590993 139757 net.cpp:150] Setting up loss1/drop_fc
I0712 12:35:28.591008 139757 net.cpp:157] Top shape: 32 1024 (32768)
I0712 12:35:28.591017 139757 net.cpp:165] Memory required for data: 1261584896
I0712 12:35:28.591025 139757 layer_factory.hpp:76] Creating layer loss1/classifier
I0712 12:35:28.591037 139757 net.cpp:106] Creating Layer loss1/classifier
I0712 12:35:28.591048 139757 net.cpp:454] loss1/classifier <- loss1/fc
I0712 12:35:28.591059 139757 net.cpp:411] loss1/classifier -> loss1/classifier
I0712 12:35:28.591203 139757 net.cpp:150] Setting up loss1/classifier
I0712 12:35:28.591218 139757 net.cpp:157] Top shape: 32 2 (64)
I0712 12:35:28.591226 139757 net.cpp:165] Memory required for data: 1261585152
I0712 12:35:28.591266 139757 layer_factory.hpp:76] Creating layer loss1/loss
I0712 12:35:28.591282 139757 net.cpp:106] Creating Layer loss1/loss
I0712 12:35:28.591291 139757 net.cpp:454] loss1/loss <- loss1/classifier
I0712 12:35:28.591301 139757 net.cpp:454] loss1/loss <- label_data_1_split_0
I0712 12:35:28.591311 139757 net.cpp:411] loss1/loss -> loss1/loss1
I0712 12:35:28.591331 139757 layer_factory.hpp:76] Creating layer loss1/loss
I0712 12:35:28.591621 139757 net.cpp:150] Setting up loss1/loss
I0712 12:35:28.591639 139757 net.cpp:157] Top shape: (1)
I0712 12:35:28.591648 139757 net.cpp:160]     with loss weight 0.3
I0712 12:35:28.591672 139757 net.cpp:165] Memory required for data: 1261585156
I0712 12:35:28.591681 139757 layer_factory.hpp:76] Creating layer inception_4b/1x1
I0712 12:35:28.591698 139757 net.cpp:106] Creating Layer inception_4b/1x1
I0712 12:35:28.591708 139757 net.cpp:454] inception_4b/1x1 <- inception_4a/output_inception_4a/output_0_split_1
I0712 12:35:28.591722 139757 net.cpp:411] inception_4b/1x1 -> inception_4b/1x1
I0712 12:35:28.593448 139757 cudnn_conv_layer.cpp:194] Reallocating workspace storage: 6144
I0712 12:35:28.593485 139757 net.cpp:150] Setting up inception_4b/1x1
I0712 12:35:28.593498 139757 net.cpp:157] Top shape: 32 160 14 14 (1003520)
I0712 12:35:28.593507 139757 net.cpp:165] Memory required for data: 1265599236
I0712 12:35:28.593518 139757 layer_factory.hpp:76] Creating layer inception_4b/relu_1x1
I0712 12:35:28.593538 139757 net.cpp:106] Creating Layer inception_4b/relu_1x1
I0712 12:35:28.593549 139757 net.cpp:454] inception_4b/relu_1x1 <- inception_4b/1x1
I0712 12:35:28.593564 139757 net.cpp:397] inception_4b/relu_1x1 -> inception_4b/1x1 (in-place)
I0712 12:35:28.593899 139757 net.cpp:150] Setting up inception_4b/relu_1x1
I0712 12:35:28.593919 139757 net.cpp:157] Top shape: 32 160 14 14 (1003520)
I0712 12:35:28.593929 139757 net.cpp:165] Memory required for data: 1269613316
I0712 12:35:28.593937 139757 layer_factory.hpp:76] Creating layer inception_4b/3x3_reduce
I0712 12:35:28.593966 139757 net.cpp:106] Creating Layer inception_4b/3x3_reduce
I0712 12:35:28.593977 139757 net.cpp:454] inception_4b/3x3_reduce <- inception_4a/output_inception_4a/output_0_split_2
I0712 12:35:28.593991 139757 net.cpp:411] inception_4b/3x3_reduce -> inception_4b/3x3_reduce
I0712 12:35:28.596052 139757 cudnn_conv_layer.cpp:194] Reallocating workspace storage: 6144
I0712 12:35:28.596091 139757 net.cpp:150] Setting up inception_4b/3x3_reduce
I0712 12:35:28.596103 139757 net.cpp:157] Top shape: 32 112 14 14 (702464)
I0712 12:35:28.596112 139757 net.cpp:165] Memory required for data: 1272423172
I0712 12:35:28.596124 139757 layer_factory.hpp:76] Creating layer inception_4b/relu_3x3_reduce
I0712 12:35:28.596138 139757 net.cpp:106] Creating Layer inception_4b/relu_3x3_reduce
I0712 12:35:28.596148 139757 net.cpp:454] inception_4b/relu_3x3_reduce <- inception_4b/3x3_reduce
I0712 12:35:28.596158 139757 net.cpp:397] inception_4b/relu_3x3_reduce -> inception_4b/3x3_reduce (in-place)
I0712 12:35:28.596498 139757 net.cpp:150] Setting up inception_4b/relu_3x3_reduce
I0712 12:35:28.596518 139757 net.cpp:157] Top shape: 32 112 14 14 (702464)
I0712 12:35:28.596527 139757 net.cpp:165] Memory required for data: 1275233028
I0712 12:35:28.596535 139757 layer_factory.hpp:76] Creating layer inception_4b/3x3
I0712 12:35:28.596550 139757 net.cpp:106] Creating Layer inception_4b/3x3
I0712 12:35:28.596560 139757 net.cpp:454] inception_4b/3x3 <- inception_4b/3x3_reduce
I0712 12:35:28.596573 139757 net.cpp:411] inception_4b/3x3 -> inception_4b/3x3
I0712 12:35:28.599931 139757 cudnn_conv_layer.cpp:194] Reallocating workspace storage: 12096
I0712 12:35:28.599967 139757 net.cpp:150] Setting up inception_4b/3x3
I0712 12:35:28.599978 139757 net.cpp:157] Top shape: 32 224 14 14 (1404928)
I0712 12:35:28.599987 139757 net.cpp:165] Memory required for data: 1280852740
I0712 12:35:28.599999 139757 layer_factory.hpp:76] Creating layer inception_4b/relu_3x3
I0712 12:35:28.600021 139757 net.cpp:106] Creating Layer inception_4b/relu_3x3
I0712 12:35:28.600049 139757 net.cpp:454] inception_4b/relu_3x3 <- inception_4b/3x3
I0712 12:35:28.600064 139757 net.cpp:397] inception_4b/relu_3x3 -> inception_4b/3x3 (in-place)
I0712 12:35:28.600250 139757 net.cpp:150] Setting up inception_4b/relu_3x3
I0712 12:35:28.600268 139757 net.cpp:157] Top shape: 32 224 14 14 (1404928)
I0712 12:35:28.600276 139757 net.cpp:165] Memory required for data: 1286472452
I0712 12:35:28.600286 139757 layer_factory.hpp:76] Creating layer inception_4b/5x5_reduce
I0712 12:35:28.600312 139757 net.cpp:106] Creating Layer inception_4b/5x5_reduce
I0712 12:35:28.600324 139757 net.cpp:454] inception_4b/5x5_reduce <- inception_4a/output_inception_4a/output_0_split_3
I0712 12:35:28.600338 139757 net.cpp:411] inception_4b/5x5_reduce -> inception_4b/5x5_reduce
I0712 12:35:28.601549 139757 net.cpp:150] Setting up inception_4b/5x5_reduce
I0712 12:35:28.601572 139757 net.cpp:157] Top shape: 32 24 14 14 (150528)
I0712 12:35:28.601582 139757 net.cpp:165] Memory required for data: 1287074564
I0712 12:35:28.601593 139757 layer_factory.hpp:76] Creating layer inception_4b/relu_5x5_reduce
I0712 12:35:28.601606 139757 net.cpp:106] Creating Layer inception_4b/relu_5x5_reduce
I0712 12:35:28.601616 139757 net.cpp:454] inception_4b/relu_5x5_reduce <- inception_4b/5x5_reduce
I0712 12:35:28.601627 139757 net.cpp:397] inception_4b/relu_5x5_reduce -> inception_4b/5x5_reduce (in-place)
I0712 12:35:28.601966 139757 net.cpp:150] Setting up inception_4b/relu_5x5_reduce
I0712 12:35:28.601989 139757 net.cpp:157] Top shape: 32 24 14 14 (150528)
I0712 12:35:28.601999 139757 net.cpp:165] Memory required for data: 1287676676
I0712 12:35:28.602008 139757 layer_factory.hpp:76] Creating layer inception_4b/5x5
I0712 12:35:28.602030 139757 net.cpp:106] Creating Layer inception_4b/5x5
I0712 12:35:28.602041 139757 net.cpp:454] inception_4b/5x5 <- inception_4b/5x5_reduce
I0712 12:35:28.602051 139757 net.cpp:411] inception_4b/5x5 -> inception_4b/5x5
I0712 12:35:28.603334 139757 net.cpp:150] Setting up inception_4b/5x5
I0712 12:35:28.603356 139757 net.cpp:157] Top shape: 32 64 14 14 (401408)
I0712 12:35:28.603365 139757 net.cpp:165] Memory required for data: 1289282308
I0712 12:35:28.603377 139757 layer_factory.hpp:76] Creating layer inception_4b/relu_5x5
I0712 12:35:28.603391 139757 net.cpp:106] Creating Layer inception_4b/relu_5x5
I0712 12:35:28.603400 139757 net.cpp:454] inception_4b/relu_5x5 <- inception_4b/5x5
I0712 12:35:28.603411 139757 net.cpp:397] inception_4b/relu_5x5 -> inception_4b/5x5 (in-place)
I0712 12:35:28.603752 139757 net.cpp:150] Setting up inception_4b/relu_5x5
I0712 12:35:28.603772 139757 net.cpp:157] Top shape: 32 64 14 14 (401408)
I0712 12:35:28.603781 139757 net.cpp:165] Memory required for data: 1290887940
I0712 12:35:28.603790 139757 layer_factory.hpp:76] Creating layer inception_4b/pool
I0712 12:35:28.603811 139757 net.cpp:106] Creating Layer inception_4b/pool
I0712 12:35:28.603821 139757 net.cpp:454] inception_4b/pool <- inception_4a/output_inception_4a/output_0_split_4
I0712 12:35:28.603833 139757 net.cpp:411] inception_4b/pool -> inception_4b/pool
I0712 12:35:28.604074 139757 net.cpp:150] Setting up inception_4b/pool
I0712 12:35:28.604091 139757 net.cpp:157] Top shape: 32 512 14 14 (3211264)
I0712 12:35:28.604100 139757 net.cpp:165] Memory required for data: 1303732996
I0712 12:35:28.604110 139757 layer_factory.hpp:76] Creating layer inception_4b/pool_proj
I0712 12:35:28.604123 139757 net.cpp:106] Creating Layer inception_4b/pool_proj
I0712 12:35:28.604133 139757 net.cpp:454] inception_4b/pool_proj <- inception_4b/pool
I0712 12:35:28.604146 139757 net.cpp:411] inception_4b/pool_proj -> inception_4b/pool_proj
I0712 12:35:28.605533 139757 cudnn_conv_layer.cpp:194] Reallocating workspace storage: 6144
I0712 12:35:28.605581 139757 net.cpp:150] Setting up inception_4b/pool_proj
I0712 12:35:28.605594 139757 net.cpp:157] Top shape: 32 64 14 14 (401408)
I0712 12:35:28.605603 139757 net.cpp:165] Memory required for data: 1305338628
I0712 12:35:28.605614 139757 layer_factory.hpp:76] Creating layer inception_4b/relu_pool_proj
I0712 12:35:28.605649 139757 net.cpp:106] Creating Layer inception_4b/relu_pool_proj
I0712 12:35:28.605660 139757 net.cpp:454] inception_4b/relu_pool_proj <- inception_4b/pool_proj
I0712 12:35:28.605677 139757 net.cpp:397] inception_4b/relu_pool_proj -> inception_4b/pool_proj (in-place)
I0712 12:35:28.606022 139757 net.cpp:150] Setting up inception_4b/relu_pool_proj
I0712 12:35:28.606043 139757 net.cpp:157] Top shape: 32 64 14 14 (401408)
I0712 12:35:28.606051 139757 net.cpp:165] Memory required for data: 1306944260
I0712 12:35:28.606060 139757 layer_factory.hpp:76] Creating layer inception_4b/output
I0712 12:35:28.606071 139757 net.cpp:106] Creating Layer inception_4b/output
I0712 12:35:28.606081 139757 net.cpp:454] inception_4b/output <- inception_4b/1x1
I0712 12:35:28.606091 139757 net.cpp:454] inception_4b/output <- inception_4b/3x3
I0712 12:35:28.606101 139757 net.cpp:454] inception_4b/output <- inception_4b/5x5
I0712 12:35:28.606111 139757 net.cpp:454] inception_4b/output <- inception_4b/pool_proj
I0712 12:35:28.606122 139757 net.cpp:411] inception_4b/output -> inception_4b/output
I0712 12:35:28.606161 139757 net.cpp:150] Setting up inception_4b/output
I0712 12:35:28.606178 139757 net.cpp:157] Top shape: 32 512 14 14 (3211264)
I0712 12:35:28.606185 139757 net.cpp:165] Memory required for data: 1319789316
I0712 12:35:28.606200 139757 layer_factory.hpp:76] Creating layer inception_4b/output_inception_4b/output_0_split
I0712 12:35:28.606212 139757 net.cpp:106] Creating Layer inception_4b/output_inception_4b/output_0_split
I0712 12:35:28.606222 139757 net.cpp:454] inception_4b/output_inception_4b/output_0_split <- inception_4b/output
I0712 12:35:28.606232 139757 net.cpp:411] inception_4b/output_inception_4b/output_0_split -> inception_4b/output_inception_4b/output_0_split_0
I0712 12:35:28.606245 139757 net.cpp:411] inception_4b/output_inception_4b/output_0_split -> inception_4b/output_inception_4b/output_0_split_1
I0712 12:35:28.606256 139757 net.cpp:411] inception_4b/output_inception_4b/output_0_split -> inception_4b/output_inception_4b/output_0_split_2
I0712 12:35:28.606269 139757 net.cpp:411] inception_4b/output_inception_4b/output_0_split -> inception_4b/output_inception_4b/output_0_split_3
I0712 12:35:28.606346 139757 net.cpp:150] Setting up inception_4b/output_inception_4b/output_0_split
I0712 12:35:28.606359 139757 net.cpp:157] Top shape: 32 512 14 14 (3211264)
I0712 12:35:28.606369 139757 net.cpp:157] Top shape: 32 512 14 14 (3211264)
I0712 12:35:28.606377 139757 net.cpp:157] Top shape: 32 512 14 14 (3211264)
I0712 12:35:28.606386 139757 net.cpp:157] Top shape: 32 512 14 14 (3211264)
I0712 12:35:28.606394 139757 net.cpp:165] Memory required for data: 1371169540
I0712 12:35:28.606401 139757 layer_factory.hpp:76] Creating layer inception_4c/1x1
I0712 12:35:28.606415 139757 net.cpp:106] Creating Layer inception_4c/1x1
I0712 12:35:28.606425 139757 net.cpp:454] inception_4c/1x1 <- inception_4b/output_inception_4b/output_0_split_0
I0712 12:35:28.606438 139757 net.cpp:411] inception_4c/1x1 -> inception_4c/1x1
I0712 12:35:28.608207 139757 cudnn_conv_layer.cpp:194] Reallocating workspace storage: 6144
I0712 12:35:28.608242 139757 net.cpp:150] Setting up inception_4c/1x1
I0712 12:35:28.608256 139757 net.cpp:157] Top shape: 32 128 14 14 (802816)
I0712 12:35:28.608268 139757 net.cpp:165] Memory required for data: 1374380804
I0712 12:35:28.608280 139757 layer_factory.hpp:76] Creating layer inception_4c/relu_1x1
I0712 12:35:28.608299 139757 net.cpp:106] Creating Layer inception_4c/relu_1x1
I0712 12:35:28.608309 139757 net.cpp:454] inception_4c/relu_1x1 <- inception_4c/1x1
I0712 12:35:28.608319 139757 net.cpp:397] inception_4c/relu_1x1 -> inception_4c/1x1 (in-place)
I0712 12:35:28.608525 139757 net.cpp:150] Setting up inception_4c/relu_1x1
I0712 12:35:28.608543 139757 net.cpp:157] Top shape: 32 128 14 14 (802816)
I0712 12:35:28.608551 139757 net.cpp:165] Memory required for data: 1377592068
I0712 12:35:28.608561 139757 layer_factory.hpp:76] Creating layer inception_4c/3x3_reduce
I0712 12:35:28.608588 139757 net.cpp:106] Creating Layer inception_4c/3x3_reduce
I0712 12:35:28.608599 139757 net.cpp:454] inception_4c/3x3_reduce <- inception_4b/output_inception_4b/output_0_split_1
I0712 12:35:28.608613 139757 net.cpp:411] inception_4c/3x3_reduce -> inception_4c/3x3_reduce
I0712 12:35:28.610236 139757 cudnn_conv_layer.cpp:194] Reallocating workspace storage: 6144
I0712 12:35:28.610271 139757 net.cpp:150] Setting up inception_4c/3x3_reduce
I0712 12:35:28.610285 139757 net.cpp:157] Top shape: 32 128 14 14 (802816)
I0712 12:35:28.610293 139757 net.cpp:165] Memory required for data: 1380803332
I0712 12:35:28.610312 139757 layer_factory.hpp:76] Creating layer inception_4c/relu_3x3_reduce
I0712 12:35:28.610332 139757 net.cpp:106] Creating Layer inception_4c/relu_3x3_reduce
I0712 12:35:28.610342 139757 net.cpp:454] inception_4c/relu_3x3_reduce <- inception_4c/3x3_reduce
I0712 12:35:28.610353 139757 net.cpp:397] inception_4c/relu_3x3_reduce -> inception_4c/3x3_reduce (in-place)
I0712 12:35:28.610545 139757 net.cpp:150] Setting up inception_4c/relu_3x3_reduce
I0712 12:35:28.610563 139757 net.cpp:157] Top shape: 32 128 14 14 (802816)
I0712 12:35:28.610572 139757 net.cpp:165] Memory required for data: 1384014596
I0712 12:35:28.610580 139757 layer_factory.hpp:76] Creating layer inception_4c/3x3
I0712 12:35:28.610596 139757 net.cpp:106] Creating Layer inception_4c/3x3
I0712 12:35:28.610606 139757 net.cpp:454] inception_4c/3x3 <- inception_4c/3x3_reduce
I0712 12:35:28.610617 139757 net.cpp:411] inception_4c/3x3 -> inception_4c/3x3
I0712 12:35:28.614578 139757 net.cpp:150] Setting up inception_4c/3x3
I0712 12:35:28.614604 139757 net.cpp:157] Top shape: 32 256 14 14 (1605632)
I0712 12:35:28.614614 139757 net.cpp:165] Memory required for data: 1390437124
I0712 12:35:28.614645 139757 layer_factory.hpp:76] Creating layer inception_4c/relu_3x3
I0712 12:35:28.614662 139757 net.cpp:106] Creating Layer inception_4c/relu_3x3
I0712 12:35:28.614672 139757 net.cpp:454] inception_4c/relu_3x3 <- inception_4c/3x3
I0712 12:35:28.614682 139757 net.cpp:397] inception_4c/relu_3x3 -> inception_4c/3x3 (in-place)
I0712 12:35:28.615036 139757 net.cpp:150] Setting up inception_4c/relu_3x3
I0712 12:35:28.615058 139757 net.cpp:157] Top shape: 32 256 14 14 (1605632)
I0712 12:35:28.615067 139757 net.cpp:165] Memory required for data: 1396859652
I0712 12:35:28.615077 139757 layer_factory.hpp:76] Creating layer inception_4c/5x5_reduce
I0712 12:35:28.615089 139757 net.cpp:106] Creating Layer inception_4c/5x5_reduce
I0712 12:35:28.615099 139757 net.cpp:454] inception_4c/5x5_reduce <- inception_4b/output_inception_4b/output_0_split_2
I0712 12:35:28.615113 139757 net.cpp:411] inception_4c/5x5_reduce -> inception_4c/5x5_reduce
I0712 12:35:28.616348 139757 net.cpp:150] Setting up inception_4c/5x5_reduce
I0712 12:35:28.616369 139757 net.cpp:157] Top shape: 32 24 14 14 (150528)
I0712 12:35:28.616379 139757 net.cpp:165] Memory required for data: 1397461764
I0712 12:35:28.616399 139757 layer_factory.hpp:76] Creating layer inception_4c/relu_5x5_reduce
I0712 12:35:28.616416 139757 net.cpp:106] Creating Layer inception_4c/relu_5x5_reduce
I0712 12:35:28.616426 139757 net.cpp:454] inception_4c/relu_5x5_reduce <- inception_4c/5x5_reduce
I0712 12:35:28.616439 139757 net.cpp:397] inception_4c/relu_5x5_reduce -> inception_4c/5x5_reduce (in-place)
I0712 12:35:28.616629 139757 net.cpp:150] Setting up inception_4c/relu_5x5_reduce
I0712 12:35:28.616648 139757 net.cpp:157] Top shape: 32 24 14 14 (150528)
I0712 12:35:28.616657 139757 net.cpp:165] Memory required for data: 1398063876
I0712 12:35:28.616665 139757 layer_factory.hpp:76] Creating layer inception_4c/5x5
I0712 12:35:28.616677 139757 net.cpp:106] Creating Layer inception_4c/5x5
I0712 12:35:28.616686 139757 net.cpp:454] inception_4c/5x5 <- inception_4c/5x5_reduce
I0712 12:35:28.616699 139757 net.cpp:411] inception_4c/5x5 -> inception_4c/5x5
I0712 12:35:28.618751 139757 net.cpp:150] Setting up inception_4c/5x5
I0712 12:35:28.618773 139757 net.cpp:157] Top shape: 32 64 14 14 (401408)
I0712 12:35:28.618782 139757 net.cpp:165] Memory required for data: 1399669508
I0712 12:35:28.618813 139757 layer_factory.hpp:76] Creating layer inception_4c/relu_5x5
I0712 12:35:28.618834 139757 net.cpp:106] Creating Layer inception_4c/relu_5x5
I0712 12:35:28.618845 139757 net.cpp:454] inception_4c/relu_5x5 <- inception_4c/5x5
I0712 12:35:28.618860 139757 net.cpp:397] inception_4c/relu_5x5 -> inception_4c/5x5 (in-place)
I0712 12:35:28.619060 139757 net.cpp:150] Setting up inception_4c/relu_5x5
I0712 12:35:28.619077 139757 net.cpp:157] Top shape: 32 64 14 14 (401408)
I0712 12:35:28.619086 139757 net.cpp:165] Memory required for data: 1401275140
I0712 12:35:28.619094 139757 layer_factory.hpp:76] Creating layer inception_4c/pool
I0712 12:35:28.619105 139757 net.cpp:106] Creating Layer inception_4c/pool
I0712 12:35:28.619114 139757 net.cpp:454] inception_4c/pool <- inception_4b/output_inception_4b/output_0_split_3
I0712 12:35:28.619125 139757 net.cpp:411] inception_4c/pool -> inception_4c/pool
I0712 12:35:28.619513 139757 net.cpp:150] Setting up inception_4c/pool
I0712 12:35:28.619534 139757 net.cpp:157] Top shape: 32 512 14 14 (3211264)
I0712 12:35:28.619542 139757 net.cpp:165] Memory required for data: 1414120196
I0712 12:35:28.619557 139757 layer_factory.hpp:76] Creating layer inception_4c/pool_proj
I0712 12:35:28.619573 139757 net.cpp:106] Creating Layer inception_4c/pool_proj
I0712 12:35:28.619583 139757 net.cpp:454] inception_4c/pool_proj <- inception_4c/pool
I0712 12:35:28.619596 139757 net.cpp:411] inception_4c/pool_proj -> inception_4c/pool_proj
I0712 12:35:28.620959 139757 cudnn_conv_layer.cpp:194] Reallocating workspace storage: 6144
I0712 12:35:28.620997 139757 net.cpp:150] Setting up inception_4c/pool_proj
I0712 12:35:28.621011 139757 net.cpp:157] Top shape: 32 64 14 14 (401408)
I0712 12:35:28.621019 139757 net.cpp:165] Memory required for data: 1415725828
I0712 12:35:28.621031 139757 layer_factory.hpp:76] Creating layer inception_4c/relu_pool_proj
I0712 12:35:28.621042 139757 net.cpp:106] Creating Layer inception_4c/relu_pool_proj
I0712 12:35:28.621052 139757 net.cpp:454] inception_4c/relu_pool_proj <- inception_4c/pool_proj
I0712 12:35:28.621067 139757 net.cpp:397] inception_4c/relu_pool_proj -> inception_4c/pool_proj (in-place)
I0712 12:35:28.621253 139757 net.cpp:150] Setting up inception_4c/relu_pool_proj
I0712 12:35:28.621269 139757 net.cpp:157] Top shape: 32 64 14 14 (401408)
I0712 12:35:28.621278 139757 net.cpp:165] Memory required for data: 1417331460
I0712 12:35:28.621286 139757 layer_factory.hpp:76] Creating layer inception_4c/output
I0712 12:35:28.621310 139757 net.cpp:106] Creating Layer inception_4c/output
I0712 12:35:28.621320 139757 net.cpp:454] inception_4c/output <- inception_4c/1x1
I0712 12:35:28.621335 139757 net.cpp:454] inception_4c/output <- inception_4c/3x3
I0712 12:35:28.621345 139757 net.cpp:454] inception_4c/output <- inception_4c/5x5
I0712 12:35:28.621353 139757 net.cpp:454] inception_4c/output <- inception_4c/pool_proj
I0712 12:35:28.621362 139757 net.cpp:411] inception_4c/output -> inception_4c/output
I0712 12:35:28.621405 139757 net.cpp:150] Setting up inception_4c/output
I0712 12:35:28.621418 139757 net.cpp:157] Top shape: 32 512 14 14 (3211264)
I0712 12:35:28.621426 139757 net.cpp:165] Memory required for data: 1430176516
I0712 12:35:28.621433 139757 layer_factory.hpp:76] Creating layer inception_4c/output_inception_4c/output_0_split
I0712 12:35:28.621445 139757 net.cpp:106] Creating Layer inception_4c/output_inception_4c/output_0_split
I0712 12:35:28.621454 139757 net.cpp:454] inception_4c/output_inception_4c/output_0_split <- inception_4c/output
I0712 12:35:28.621464 139757 net.cpp:411] inception_4c/output_inception_4c/output_0_split -> inception_4c/output_inception_4c/output_0_split_0
I0712 12:35:28.621479 139757 net.cpp:411] inception_4c/output_inception_4c/output_0_split -> inception_4c/output_inception_4c/output_0_split_1
I0712 12:35:28.621490 139757 net.cpp:411] inception_4c/output_inception_4c/output_0_split -> inception_4c/output_inception_4c/output_0_split_2
I0712 12:35:28.621501 139757 net.cpp:411] inception_4c/output_inception_4c/output_0_split -> inception_4c/output_inception_4c/output_0_split_3
I0712 12:35:28.621598 139757 net.cpp:150] Setting up inception_4c/output_inception_4c/output_0_split
I0712 12:35:28.621609 139757 net.cpp:157] Top shape: 32 512 14 14 (3211264)
I0712 12:35:28.621618 139757 net.cpp:157] Top shape: 32 512 14 14 (3211264)
I0712 12:35:28.621628 139757 net.cpp:157] Top shape: 32 512 14 14 (3211264)
I0712 12:35:28.621635 139757 net.cpp:157] Top shape: 32 512 14 14 (3211264)
I0712 12:35:28.621644 139757 net.cpp:165] Memory required for data: 1481556740
I0712 12:35:28.621659 139757 layer_factory.hpp:76] Creating layer inception_4d/1x1
I0712 12:35:28.621676 139757 net.cpp:106] Creating Layer inception_4d/1x1
I0712 12:35:28.621685 139757 net.cpp:454] inception_4d/1x1 <- inception_4c/output_inception_4c/output_0_split_0
I0712 12:35:28.621696 139757 net.cpp:411] inception_4d/1x1 -> inception_4d/1x1
I0712 12:35:28.623270 139757 cudnn_conv_layer.cpp:194] Reallocating workspace storage: 6144
I0712 12:35:28.623306 139757 net.cpp:150] Setting up inception_4d/1x1
I0712 12:35:28.623319 139757 net.cpp:157] Top shape: 32 112 14 14 (702464)
I0712 12:35:28.623329 139757 net.cpp:165] Memory required for data: 1484366596
I0712 12:35:28.623342 139757 layer_factory.hpp:76] Creating layer inception_4d/relu_1x1
I0712 12:35:28.623353 139757 net.cpp:106] Creating Layer inception_4d/relu_1x1
I0712 12:35:28.623361 139757 net.cpp:454] inception_4d/relu_1x1 <- inception_4d/1x1
I0712 12:35:28.623371 139757 net.cpp:397] inception_4d/relu_1x1 -> inception_4d/1x1 (in-place)
I0712 12:35:28.623730 139757 net.cpp:150] Setting up inception_4d/relu_1x1
I0712 12:35:28.623754 139757 net.cpp:157] Top shape: 32 112 14 14 (702464)
I0712 12:35:28.623762 139757 net.cpp:165] Memory required for data: 1487176452
I0712 12:35:28.623771 139757 layer_factory.hpp:76] Creating layer inception_4d/3x3_reduce
I0712 12:35:28.623795 139757 net.cpp:106] Creating Layer inception_4d/3x3_reduce
I0712 12:35:28.623805 139757 net.cpp:454] inception_4d/3x3_reduce <- inception_4c/output_inception_4c/output_0_split_1
I0712 12:35:28.623818 139757 net.cpp:411] inception_4d/3x3_reduce -> inception_4d/3x3_reduce
I0712 12:35:28.625366 139757 cudnn_conv_layer.cpp:194] Reallocating workspace storage: 6144
I0712 12:35:28.625401 139757 net.cpp:150] Setting up inception_4d/3x3_reduce
I0712 12:35:28.625413 139757 net.cpp:157] Top shape: 32 144 14 14 (903168)
I0712 12:35:28.625422 139757 net.cpp:165] Memory required for data: 1490789124
I0712 12:35:28.625433 139757 layer_factory.hpp:76] Creating layer inception_4d/relu_3x3_reduce
I0712 12:35:28.625447 139757 net.cpp:106] Creating Layer inception_4d/relu_3x3_reduce
I0712 12:35:28.625457 139757 net.cpp:454] inception_4d/relu_3x3_reduce <- inception_4d/3x3_reduce
I0712 12:35:28.625468 139757 net.cpp:397] inception_4d/relu_3x3_reduce -> inception_4d/3x3_reduce (in-place)
I0712 12:35:28.625813 139757 net.cpp:150] Setting up inception_4d/relu_3x3_reduce
I0712 12:35:28.625835 139757 net.cpp:157] Top shape: 32 144 14 14 (903168)
I0712 12:35:28.625844 139757 net.cpp:165] Memory required for data: 1494401796
I0712 12:35:28.625860 139757 layer_factory.hpp:76] Creating layer inception_4d/3x3
I0712 12:35:28.625874 139757 net.cpp:106] Creating Layer inception_4d/3x3
I0712 12:35:28.625882 139757 net.cpp:454] inception_4d/3x3 <- inception_4d/3x3_reduce
I0712 12:35:28.625895 139757 net.cpp:411] inception_4d/3x3 -> inception_4d/3x3
I0712 12:35:28.630884 139757 cudnn_conv_layer.cpp:194] Reallocating workspace storage: 15552
I0712 12:35:28.630931 139757 net.cpp:150] Setting up inception_4d/3x3
I0712 12:35:28.630945 139757 net.cpp:157] Top shape: 32 288 14 14 (1806336)
I0712 12:35:28.630954 139757 net.cpp:165] Memory required for data: 1501627140
I0712 12:35:28.630967 139757 layer_factory.hpp:76] Creating layer inception_4d/relu_3x3
I0712 12:35:28.630990 139757 net.cpp:106] Creating Layer inception_4d/relu_3x3
I0712 12:35:28.631000 139757 net.cpp:454] inception_4d/relu_3x3 <- inception_4d/3x3
I0712 12:35:28.631011 139757 net.cpp:397] inception_4d/relu_3x3 -> inception_4d/3x3 (in-place)
I0712 12:35:28.631232 139757 net.cpp:150] Setting up inception_4d/relu_3x3
I0712 12:35:28.631249 139757 net.cpp:157] Top shape: 32 288 14 14 (1806336)
I0712 12:35:28.631258 139757 net.cpp:165] Memory required for data: 1508852484
I0712 12:35:28.631265 139757 layer_factory.hpp:76] Creating layer inception_4d/5x5_reduce
I0712 12:35:28.631280 139757 net.cpp:106] Creating Layer inception_4d/5x5_reduce
I0712 12:35:28.631290 139757 net.cpp:454] inception_4d/5x5_reduce <- inception_4c/output_inception_4c/output_0_split_2
I0712 12:35:28.631304 139757 net.cpp:411] inception_4d/5x5_reduce -> inception_4d/5x5_reduce
I0712 12:35:28.632623 139757 net.cpp:150] Setting up inception_4d/5x5_reduce
I0712 12:35:28.632645 139757 net.cpp:157] Top shape: 32 32 14 14 (200704)
I0712 12:35:28.632657 139757 net.cpp:165] Memory required for data: 1509655300
I0712 12:35:28.632669 139757 layer_factory.hpp:76] Creating layer inception_4d/relu_5x5_reduce
I0712 12:35:28.632684 139757 net.cpp:106] Creating Layer inception_4d/relu_5x5_reduce
I0712 12:35:28.632694 139757 net.cpp:454] inception_4d/relu_5x5_reduce <- inception_4d/5x5_reduce
I0712 12:35:28.632704 139757 net.cpp:397] inception_4d/relu_5x5_reduce -> inception_4d/5x5_reduce (in-place)
I0712 12:35:28.633060 139757 net.cpp:150] Setting up inception_4d/relu_5x5_reduce
I0712 12:35:28.633081 139757 net.cpp:157] Top shape: 32 32 14 14 (200704)
I0712 12:35:28.633090 139757 net.cpp:165] Memory required for data: 1510458116
I0712 12:35:28.633107 139757 layer_factory.hpp:76] Creating layer inception_4d/5x5
I0712 12:35:28.633127 139757 net.cpp:106] Creating Layer inception_4d/5x5
I0712 12:35:28.633138 139757 net.cpp:454] inception_4d/5x5 <- inception_4d/5x5_reduce
I0712 12:35:28.633152 139757 net.cpp:411] inception_4d/5x5 -> inception_4d/5x5
I0712 12:35:28.634574 139757 net.cpp:150] Setting up inception_4d/5x5
I0712 12:35:28.634598 139757 net.cpp:157] Top shape: 32 64 14 14 (401408)
I0712 12:35:28.634606 139757 net.cpp:165] Memory required for data: 1512063748
I0712 12:35:28.634618 139757 layer_factory.hpp:76] Creating layer inception_4d/relu_5x5
I0712 12:35:28.634636 139757 net.cpp:106] Creating Layer inception_4d/relu_5x5
I0712 12:35:28.634647 139757 net.cpp:454] inception_4d/relu_5x5 <- inception_4d/5x5
I0712 12:35:28.634659 139757 net.cpp:397] inception_4d/relu_5x5 -> inception_4d/5x5 (in-place)
I0712 12:35:28.635004 139757 net.cpp:150] Setting up inception_4d/relu_5x5
I0712 12:35:28.635025 139757 net.cpp:157] Top shape: 32 64 14 14 (401408)
I0712 12:35:28.635032 139757 net.cpp:165] Memory required for data: 1513669380
I0712 12:35:28.635041 139757 layer_factory.hpp:76] Creating layer inception_4d/pool
I0712 12:35:28.635054 139757 net.cpp:106] Creating Layer inception_4d/pool
I0712 12:35:28.635064 139757 net.cpp:454] inception_4d/pool <- inception_4c/output_inception_4c/output_0_split_3
I0712 12:35:28.635076 139757 net.cpp:411] inception_4d/pool -> inception_4d/pool
I0712 12:35:28.635462 139757 net.cpp:150] Setting up inception_4d/pool
I0712 12:35:28.635485 139757 net.cpp:157] Top shape: 32 512 14 14 (3211264)
I0712 12:35:28.635494 139757 net.cpp:165] Memory required for data: 1526514436
I0712 12:35:28.635504 139757 layer_factory.hpp:76] Creating layer inception_4d/pool_proj
I0712 12:35:28.635526 139757 net.cpp:106] Creating Layer inception_4d/pool_proj
I0712 12:35:28.635536 139757 net.cpp:454] inception_4d/pool_proj <- inception_4d/pool
I0712 12:35:28.635550 139757 net.cpp:411] inception_4d/pool_proj -> inception_4d/pool_proj
I0712 12:35:28.636837 139757 cudnn_conv_layer.cpp:194] Reallocating workspace storage: 6144
I0712 12:35:28.636881 139757 net.cpp:150] Setting up inception_4d/pool_proj
I0712 12:35:28.636895 139757 net.cpp:157] Top shape: 32 64 14 14 (401408)
I0712 12:35:28.636904 139757 net.cpp:165] Memory required for data: 1528120068
I0712 12:35:28.636924 139757 layer_factory.hpp:76] Creating layer inception_4d/relu_pool_proj
I0712 12:35:28.636936 139757 net.cpp:106] Creating Layer inception_4d/relu_pool_proj
I0712 12:35:28.636946 139757 net.cpp:454] inception_4d/relu_pool_proj <- inception_4d/pool_proj
I0712 12:35:28.636973 139757 net.cpp:397] inception_4d/relu_pool_proj -> inception_4d/pool_proj (in-place)
I0712 12:35:28.637333 139757 net.cpp:150] Setting up inception_4d/relu_pool_proj
I0712 12:35:28.637353 139757 net.cpp:157] Top shape: 32 64 14 14 (401408)
I0712 12:35:28.637362 139757 net.cpp:165] Memory required for data: 1529725700
I0712 12:35:28.637370 139757 layer_factory.hpp:76] Creating layer inception_4d/output
I0712 12:35:28.637382 139757 net.cpp:106] Creating Layer inception_4d/output
I0712 12:35:28.637390 139757 net.cpp:454] inception_4d/output <- inception_4d/1x1
I0712 12:35:28.637400 139757 net.cpp:454] inception_4d/output <- inception_4d/3x3
I0712 12:35:28.637409 139757 net.cpp:454] inception_4d/output <- inception_4d/5x5
I0712 12:35:28.637418 139757 net.cpp:454] inception_4d/output <- inception_4d/pool_proj
I0712 12:35:28.637430 139757 net.cpp:411] inception_4d/output -> inception_4d/output
I0712 12:35:28.637475 139757 net.cpp:150] Setting up inception_4d/output
I0712 12:35:28.637486 139757 net.cpp:157] Top shape: 32 528 14 14 (3311616)
I0712 12:35:28.637495 139757 net.cpp:165] Memory required for data: 1542972164
I0712 12:35:28.637502 139757 layer_factory.hpp:76] Creating layer inception_4d/output_inception_4d/output_0_split
I0712 12:35:28.637513 139757 net.cpp:106] Creating Layer inception_4d/output_inception_4d/output_0_split
I0712 12:35:28.637522 139757 net.cpp:454] inception_4d/output_inception_4d/output_0_split <- inception_4d/output
I0712 12:35:28.637532 139757 net.cpp:411] inception_4d/output_inception_4d/output_0_split -> inception_4d/output_inception_4d/output_0_split_0
I0712 12:35:28.637544 139757 net.cpp:411] inception_4d/output_inception_4d/output_0_split -> inception_4d/output_inception_4d/output_0_split_1
I0712 12:35:28.637557 139757 net.cpp:411] inception_4d/output_inception_4d/output_0_split -> inception_4d/output_inception_4d/output_0_split_2
I0712 12:35:28.637569 139757 net.cpp:411] inception_4d/output_inception_4d/output_0_split -> inception_4d/output_inception_4d/output_0_split_3
I0712 12:35:28.637579 139757 net.cpp:411] inception_4d/output_inception_4d/output_0_split -> inception_4d/output_inception_4d/output_0_split_4
I0712 12:35:28.637701 139757 net.cpp:150] Setting up inception_4d/output_inception_4d/output_0_split
I0712 12:35:28.637715 139757 net.cpp:157] Top shape: 32 528 14 14 (3311616)
I0712 12:35:28.637724 139757 net.cpp:157] Top shape: 32 528 14 14 (3311616)
I0712 12:35:28.637733 139757 net.cpp:157] Top shape: 32 528 14 14 (3311616)
I0712 12:35:28.637742 139757 net.cpp:157] Top shape: 32 528 14 14 (3311616)
I0712 12:35:28.637750 139757 net.cpp:157] Top shape: 32 528 14 14 (3311616)
I0712 12:35:28.637758 139757 net.cpp:165] Memory required for data: 1609204484
I0712 12:35:28.637765 139757 layer_factory.hpp:76] Creating layer loss2/ave_pool
I0712 12:35:28.637786 139757 net.cpp:106] Creating Layer loss2/ave_pool
I0712 12:35:28.637796 139757 net.cpp:454] loss2/ave_pool <- inception_4d/output_inception_4d/output_0_split_0
I0712 12:35:28.637806 139757 net.cpp:411] loss2/ave_pool -> loss2/ave_pool
I0712 12:35:28.638048 139757 net.cpp:150] Setting up loss2/ave_pool
I0712 12:35:28.638068 139757 net.cpp:157] Top shape: 32 528 4 4 (270336)
I0712 12:35:28.638077 139757 net.cpp:165] Memory required for data: 1610285828
I0712 12:35:28.638093 139757 layer_factory.hpp:76] Creating layer loss2/conv
I0712 12:35:28.638108 139757 net.cpp:106] Creating Layer loss2/conv
I0712 12:35:28.638118 139757 net.cpp:454] loss2/conv <- loss2/ave_pool
I0712 12:35:28.638131 139757 net.cpp:411] loss2/conv -> loss2/conv
I0712 12:35:28.640471 139757 cudnn_conv_layer.cpp:194] Reallocating workspace storage: 6336
I0712 12:35:28.640513 139757 net.cpp:150] Setting up loss2/conv
I0712 12:35:28.640527 139757 net.cpp:157] Top shape: 32 128 4 4 (65536)
I0712 12:35:28.640534 139757 net.cpp:165] Memory required for data: 1610547972
I0712 12:35:28.640547 139757 layer_factory.hpp:76] Creating layer loss2/relu_conv
I0712 12:35:28.640561 139757 net.cpp:106] Creating Layer loss2/relu_conv
I0712 12:35:28.640585 139757 net.cpp:454] loss2/relu_conv <- loss2/conv
I0712 12:35:28.640596 139757 net.cpp:397] loss2/relu_conv -> loss2/conv (in-place)
I0712 12:35:28.640951 139757 net.cpp:150] Setting up loss2/relu_conv
I0712 12:35:28.640972 139757 net.cpp:157] Top shape: 32 128 4 4 (65536)
I0712 12:35:28.640981 139757 net.cpp:165] Memory required for data: 1610810116
I0712 12:35:28.640990 139757 layer_factory.hpp:76] Creating layer loss2/fc
I0712 12:35:28.641011 139757 net.cpp:106] Creating Layer loss2/fc
I0712 12:35:28.641022 139757 net.cpp:454] loss2/fc <- loss2/conv
I0712 12:35:28.641033 139757 net.cpp:411] loss2/fc -> loss2/fc
I0712 12:35:28.660313 139757 net.cpp:150] Setting up loss2/fc
I0712 12:35:28.660354 139757 net.cpp:157] Top shape: 32 1024 (32768)
I0712 12:35:28.660363 139757 net.cpp:165] Memory required for data: 1610941188
I0712 12:35:28.660378 139757 layer_factory.hpp:76] Creating layer loss2/relu_fc
I0712 12:35:28.660393 139757 net.cpp:106] Creating Layer loss2/relu_fc
I0712 12:35:28.660404 139757 net.cpp:454] loss2/relu_fc <- loss2/fc
I0712 12:35:28.660418 139757 net.cpp:397] loss2/relu_fc -> loss2/fc (in-place)
I0712 12:35:28.660689 139757 net.cpp:150] Setting up loss2/relu_fc
I0712 12:35:28.660707 139757 net.cpp:157] Top shape: 32 1024 (32768)
I0712 12:35:28.660715 139757 net.cpp:165] Memory required for data: 1611072260
I0712 12:35:28.660733 139757 layer_factory.hpp:76] Creating layer loss2/drop_fc
I0712 12:35:28.660748 139757 net.cpp:106] Creating Layer loss2/drop_fc
I0712 12:35:28.660758 139757 net.cpp:454] loss2/drop_fc <- loss2/fc
I0712 12:35:28.660768 139757 net.cpp:397] loss2/drop_fc -> loss2/fc (in-place)
I0712 12:35:28.660814 139757 net.cpp:150] Setting up loss2/drop_fc
I0712 12:35:28.660825 139757 net.cpp:157] Top shape: 32 1024 (32768)
I0712 12:35:28.660833 139757 net.cpp:165] Memory required for data: 1611203332
I0712 12:35:28.660841 139757 layer_factory.hpp:76] Creating layer loss2/classifier
I0712 12:35:28.660853 139757 net.cpp:106] Creating Layer loss2/classifier
I0712 12:35:28.660862 139757 net.cpp:454] loss2/classifier <- loss2/fc
I0712 12:35:28.660876 139757 net.cpp:411] loss2/classifier -> loss2/classifier
I0712 12:35:28.661042 139757 net.cpp:150] Setting up loss2/classifier
I0712 12:35:28.661058 139757 net.cpp:157] Top shape: 32 2 (64)
I0712 12:35:28.661067 139757 net.cpp:165] Memory required for data: 1611203588
I0712 12:35:28.661077 139757 layer_factory.hpp:76] Creating layer loss2/loss
I0712 12:35:28.661098 139757 net.cpp:106] Creating Layer loss2/loss
I0712 12:35:28.661108 139757 net.cpp:454] loss2/loss <- loss2/classifier
I0712 12:35:28.661118 139757 net.cpp:454] loss2/loss <- label_data_1_split_1
I0712 12:35:28.661130 139757 net.cpp:411] loss2/loss -> loss2/loss1
I0712 12:35:28.661144 139757 layer_factory.hpp:76] Creating layer loss2/loss
I0712 12:35:28.661726 139757 net.cpp:150] Setting up loss2/loss
I0712 12:35:28.661748 139757 net.cpp:157] Top shape: (1)
I0712 12:35:28.661757 139757 net.cpp:160]     with loss weight 0.3
I0712 12:35:28.661770 139757 net.cpp:165] Memory required for data: 1611203592
I0712 12:35:28.661779 139757 layer_factory.hpp:76] Creating layer inception_4e/1x1
I0712 12:35:28.661803 139757 net.cpp:106] Creating Layer inception_4e/1x1
I0712 12:35:28.661813 139757 net.cpp:454] inception_4e/1x1 <- inception_4d/output_inception_4d/output_0_split_1
I0712 12:35:28.661825 139757 net.cpp:411] inception_4e/1x1 -> inception_4e/1x1
I0712 12:35:28.664070 139757 cudnn_conv_layer.cpp:194] Reallocating workspace storage: 6336
I0712 12:35:28.664130 139757 net.cpp:150] Setting up inception_4e/1x1
I0712 12:35:28.664144 139757 net.cpp:157] Top shape: 32 256 14 14 (1605632)
I0712 12:35:28.664151 139757 net.cpp:165] Memory required for data: 1617626120
I0712 12:35:28.664163 139757 layer_factory.hpp:76] Creating layer inception_4e/relu_1x1
I0712 12:35:28.664185 139757 net.cpp:106] Creating Layer inception_4e/relu_1x1
I0712 12:35:28.664194 139757 net.cpp:454] inception_4e/relu_1x1 <- inception_4e/1x1
I0712 12:35:28.664206 139757 net.cpp:397] inception_4e/relu_1x1 -> inception_4e/1x1 (in-place)
I0712 12:35:28.664468 139757 net.cpp:150] Setting up inception_4e/relu_1x1
I0712 12:35:28.664496 139757 net.cpp:157] Top shape: 32 256 14 14 (1605632)
I0712 12:35:28.664505 139757 net.cpp:165] Memory required for data: 1624048648
I0712 12:35:28.664513 139757 layer_factory.hpp:76] Creating layer inception_4e/3x3_reduce
I0712 12:35:28.664530 139757 net.cpp:106] Creating Layer inception_4e/3x3_reduce
I0712 12:35:28.664538 139757 net.cpp:454] inception_4e/3x3_reduce <- inception_4d/output_inception_4d/output_0_split_2
I0712 12:35:28.664552 139757 net.cpp:411] inception_4e/3x3_reduce -> inception_4e/3x3_reduce
I0712 12:35:28.667006 139757 cudnn_conv_layer.cpp:194] Reallocating workspace storage: 6336
I0712 12:35:28.667059 139757 net.cpp:150] Setting up inception_4e/3x3_reduce
I0712 12:35:28.667075 139757 net.cpp:157] Top shape: 32 160 14 14 (1003520)
I0712 12:35:28.667083 139757 net.cpp:165] Memory required for data: 1628062728
I0712 12:35:28.667095 139757 layer_factory.hpp:76] Creating layer inception_4e/relu_3x3_reduce
I0712 12:35:28.667106 139757 net.cpp:106] Creating Layer inception_4e/relu_3x3_reduce
I0712 12:35:28.667116 139757 net.cpp:454] inception_4e/relu_3x3_reduce <- inception_4e/3x3_reduce
I0712 12:35:28.667129 139757 net.cpp:397] inception_4e/relu_3x3_reduce -> inception_4e/3x3_reduce (in-place)
I0712 12:35:28.667362 139757 net.cpp:150] Setting up inception_4e/relu_3x3_reduce
I0712 12:35:28.667392 139757 net.cpp:157] Top shape: 32 160 14 14 (1003520)
I0712 12:35:28.667400 139757 net.cpp:165] Memory required for data: 1632076808
I0712 12:35:28.667408 139757 layer_factory.hpp:76] Creating layer inception_4e/3x3
I0712 12:35:28.667431 139757 net.cpp:106] Creating Layer inception_4e/3x3
I0712 12:35:28.667443 139757 net.cpp:454] inception_4e/3x3 <- inception_4e/3x3_reduce
I0712 12:35:28.667454 139757 net.cpp:411] inception_4e/3x3 -> inception_4e/3x3
I0712 12:35:28.673239 139757 cudnn_conv_layer.cpp:194] Reallocating workspace storage: 17280
I0712 12:35:28.673290 139757 net.cpp:150] Setting up inception_4e/3x3
I0712 12:35:28.673302 139757 net.cpp:157] Top shape: 32 320 14 14 (2007040)
I0712 12:35:28.673311 139757 net.cpp:165] Memory required for data: 1640104968
I0712 12:35:28.673332 139757 layer_factory.hpp:76] Creating layer inception_4e/relu_3x3
I0712 12:35:28.673346 139757 net.cpp:106] Creating Layer inception_4e/relu_3x3
I0712 12:35:28.673357 139757 net.cpp:454] inception_4e/relu_3x3 <- inception_4e/3x3
I0712 12:35:28.673369 139757 net.cpp:397] inception_4e/relu_3x3 -> inception_4e/3x3 (in-place)
I0712 12:35:28.673794 139757 net.cpp:150] Setting up inception_4e/relu_3x3
I0712 12:35:28.673825 139757 net.cpp:157] Top shape: 32 320 14 14 (2007040)
I0712 12:35:28.673833 139757 net.cpp:165] Memory required for data: 1648133128
I0712 12:35:28.673842 139757 layer_factory.hpp:76] Creating layer inception_4e/5x5_reduce
I0712 12:35:28.673858 139757 net.cpp:106] Creating Layer inception_4e/5x5_reduce
I0712 12:35:28.673871 139757 net.cpp:454] inception_4e/5x5_reduce <- inception_4d/output_inception_4d/output_0_split_3
I0712 12:35:28.673882 139757 net.cpp:411] inception_4e/5x5_reduce -> inception_4e/5x5_reduce
I0712 12:35:28.675247 139757 net.cpp:150] Setting up inception_4e/5x5_reduce
I0712 12:35:28.675282 139757 net.cpp:157] Top shape: 32 32 14 14 (200704)
I0712 12:35:28.675292 139757 net.cpp:165] Memory required for data: 1648935944
I0712 12:35:28.675303 139757 layer_factory.hpp:76] Creating layer inception_4e/relu_5x5_reduce
I0712 12:35:28.675323 139757 net.cpp:106] Creating Layer inception_4e/relu_5x5_reduce
I0712 12:35:28.675333 139757 net.cpp:454] inception_4e/relu_5x5_reduce <- inception_4e/5x5_reduce
I0712 12:35:28.675349 139757 net.cpp:397] inception_4e/relu_5x5_reduce -> inception_4e/5x5_reduce (in-place)
I0712 12:35:28.675585 139757 net.cpp:150] Setting up inception_4e/relu_5x5_reduce
I0712 12:35:28.675612 139757 net.cpp:157] Top shape: 32 32 14 14 (200704)
I0712 12:35:28.675621 139757 net.cpp:165] Memory required for data: 1649738760
I0712 12:35:28.675629 139757 layer_factory.hpp:76] Creating layer inception_4e/5x5
I0712 12:35:28.675685 139757 net.cpp:106] Creating Layer inception_4e/5x5
I0712 12:35:28.675698 139757 net.cpp:454] inception_4e/5x5 <- inception_4e/5x5_reduce
I0712 12:35:28.675712 139757 net.cpp:411] inception_4e/5x5 -> inception_4e/5x5
I0712 12:35:28.677637 139757 net.cpp:150] Setting up inception_4e/5x5
I0712 12:35:28.677671 139757 net.cpp:157] Top shape: 32 128 14 14 (802816)
I0712 12:35:28.677681 139757 net.cpp:165] Memory required for data: 1652950024
I0712 12:35:28.677700 139757 layer_factory.hpp:76] Creating layer inception_4e/relu_5x5
I0712 12:35:28.677713 139757 net.cpp:106] Creating Layer inception_4e/relu_5x5
I0712 12:35:28.677723 139757 net.cpp:454] inception_4e/relu_5x5 <- inception_4e/5x5
I0712 12:35:28.677734 139757 net.cpp:397] inception_4e/relu_5x5 -> inception_4e/5x5 (in-place)
I0712 12:35:28.677968 139757 net.cpp:150] Setting up inception_4e/relu_5x5
I0712 12:35:28.677995 139757 net.cpp:157] Top shape: 32 128 14 14 (802816)
I0712 12:35:28.678004 139757 net.cpp:165] Memory required for data: 1656161288
I0712 12:35:28.678011 139757 layer_factory.hpp:76] Creating layer inception_4e/pool
I0712 12:35:28.678035 139757 net.cpp:106] Creating Layer inception_4e/pool
I0712 12:35:28.678043 139757 net.cpp:454] inception_4e/pool <- inception_4d/output_inception_4d/output_0_split_4
I0712 12:35:28.678055 139757 net.cpp:411] inception_4e/pool -> inception_4e/pool
I0712 12:35:28.678498 139757 net.cpp:150] Setting up inception_4e/pool
I0712 12:35:28.678530 139757 net.cpp:157] Top shape: 32 528 14 14 (3311616)
I0712 12:35:28.678541 139757 net.cpp:165] Memory required for data: 1669407752
I0712 12:35:28.678551 139757 layer_factory.hpp:76] Creating layer inception_4e/pool_proj
I0712 12:35:28.678563 139757 net.cpp:106] Creating Layer inception_4e/pool_proj
I0712 12:35:28.678578 139757 net.cpp:454] inception_4e/pool_proj <- inception_4e/pool
I0712 12:35:28.678593 139757 net.cpp:411] inception_4e/pool_proj -> inception_4e/pool_proj
I0712 12:35:28.680279 139757 cudnn_conv_layer.cpp:194] Reallocating workspace storage: 6336
I0712 12:35:28.680337 139757 net.cpp:150] Setting up inception_4e/pool_proj
I0712 12:35:28.680353 139757 net.cpp:157] Top shape: 32 128 14 14 (802816)
I0712 12:35:28.680361 139757 net.cpp:165] Memory required for data: 1672619016
I0712 12:35:28.680373 139757 layer_factory.hpp:76] Creating layer inception_4e/relu_pool_proj
I0712 12:35:28.680387 139757 net.cpp:106] Creating Layer inception_4e/relu_pool_proj
I0712 12:35:28.680397 139757 net.cpp:454] inception_4e/relu_pool_proj <- inception_4e/pool_proj
I0712 12:35:28.680408 139757 net.cpp:397] inception_4e/relu_pool_proj -> inception_4e/pool_proj (in-place)
I0712 12:35:28.680640 139757 net.cpp:150] Setting up inception_4e/relu_pool_proj
I0712 12:35:28.680668 139757 net.cpp:157] Top shape: 32 128 14 14 (802816)
I0712 12:35:28.680677 139757 net.cpp:165] Memory required for data: 1675830280
I0712 12:35:28.680693 139757 layer_factory.hpp:76] Creating layer inception_4e/output
I0712 12:35:28.680706 139757 net.cpp:106] Creating Layer inception_4e/output
I0712 12:35:28.680714 139757 net.cpp:454] inception_4e/output <- inception_4e/1x1
I0712 12:35:28.680724 139757 net.cpp:454] inception_4e/output <- inception_4e/3x3
I0712 12:35:28.680733 139757 net.cpp:454] inception_4e/output <- inception_4e/5x5
I0712 12:35:28.680742 139757 net.cpp:454] inception_4e/output <- inception_4e/pool_proj
I0712 12:35:28.680752 139757 net.cpp:411] inception_4e/output -> inception_4e/output
I0712 12:35:28.680797 139757 net.cpp:150] Setting up inception_4e/output
I0712 12:35:28.680811 139757 net.cpp:157] Top shape: 32 832 14 14 (5218304)
I0712 12:35:28.680819 139757 net.cpp:165] Memory required for data: 1696703496
I0712 12:35:28.680829 139757 layer_factory.hpp:76] Creating layer pool4/3x3_s2
I0712 12:35:28.680840 139757 net.cpp:106] Creating Layer pool4/3x3_s2
I0712 12:35:28.680850 139757 net.cpp:454] pool4/3x3_s2 <- inception_4e/output
I0712 12:35:28.680860 139757 net.cpp:411] pool4/3x3_s2 -> pool4/3x3_s2
I0712 12:35:28.681282 139757 net.cpp:150] Setting up pool4/3x3_s2
I0712 12:35:28.681329 139757 net.cpp:157] Top shape: 32 832 7 7 (1304576)
I0712 12:35:28.681339 139757 net.cpp:165] Memory required for data: 1701921800
I0712 12:35:28.681347 139757 layer_factory.hpp:76] Creating layer pool4/3x3_s2_pool4/3x3_s2_0_split
I0712 12:35:28.681360 139757 net.cpp:106] Creating Layer pool4/3x3_s2_pool4/3x3_s2_0_split
I0712 12:35:28.681368 139757 net.cpp:454] pool4/3x3_s2_pool4/3x3_s2_0_split <- pool4/3x3_s2
I0712 12:35:28.681380 139757 net.cpp:411] pool4/3x3_s2_pool4/3x3_s2_0_split -> pool4/3x3_s2_pool4/3x3_s2_0_split_0
I0712 12:35:28.681391 139757 net.cpp:411] pool4/3x3_s2_pool4/3x3_s2_0_split -> pool4/3x3_s2_pool4/3x3_s2_0_split_1
I0712 12:35:28.681402 139757 net.cpp:411] pool4/3x3_s2_pool4/3x3_s2_0_split -> pool4/3x3_s2_pool4/3x3_s2_0_split_2
I0712 12:35:28.681424 139757 net.cpp:411] pool4/3x3_s2_pool4/3x3_s2_0_split -> pool4/3x3_s2_pool4/3x3_s2_0_split_3
I0712 12:35:28.681524 139757 net.cpp:150] Setting up pool4/3x3_s2_pool4/3x3_s2_0_split
I0712 12:35:28.681537 139757 net.cpp:157] Top shape: 32 832 7 7 (1304576)
I0712 12:35:28.681560 139757 net.cpp:157] Top shape: 32 832 7 7 (1304576)
I0712 12:35:28.681568 139757 net.cpp:157] Top shape: 32 832 7 7 (1304576)
I0712 12:35:28.681576 139757 net.cpp:157] Top shape: 32 832 7 7 (1304576)
I0712 12:35:28.681584 139757 net.cpp:165] Memory required for data: 1722795016
I0712 12:35:28.681592 139757 layer_factory.hpp:76] Creating layer inception_5a/1x1
I0712 12:35:28.681617 139757 net.cpp:106] Creating Layer inception_5a/1x1
I0712 12:35:28.681627 139757 net.cpp:454] inception_5a/1x1 <- pool4/3x3_s2_pool4/3x3_s2_0_split_0
I0712 12:35:28.681640 139757 net.cpp:411] inception_5a/1x1 -> inception_5a/1x1
I0712 12:35:28.685039 139757 cudnn_conv_layer.cpp:194] Reallocating workspace storage: 9984
I0712 12:35:28.685101 139757 net.cpp:150] Setting up inception_5a/1x1
I0712 12:35:28.685116 139757 net.cpp:157] Top shape: 32 256 7 7 (401408)
I0712 12:35:28.685124 139757 net.cpp:165] Memory required for data: 1724400648
I0712 12:35:28.685137 139757 layer_factory.hpp:76] Creating layer inception_5a/relu_1x1
I0712 12:35:28.685158 139757 net.cpp:106] Creating Layer inception_5a/relu_1x1
I0712 12:35:28.685168 139757 net.cpp:454] inception_5a/relu_1x1 <- inception_5a/1x1
I0712 12:35:28.685180 139757 net.cpp:397] inception_5a/relu_1x1 -> inception_5a/1x1 (in-place)
I0712 12:35:28.685413 139757 net.cpp:150] Setting up inception_5a/relu_1x1
I0712 12:35:28.685441 139757 net.cpp:157] Top shape: 32 256 7 7 (401408)
I0712 12:35:28.685451 139757 net.cpp:165] Memory required for data: 1726006280
I0712 12:35:28.685458 139757 layer_factory.hpp:76] Creating layer inception_5a/3x3_reduce
I0712 12:35:28.685472 139757 net.cpp:106] Creating Layer inception_5a/3x3_reduce
I0712 12:35:28.685482 139757 net.cpp:454] inception_5a/3x3_reduce <- pool4/3x3_s2_pool4/3x3_s2_0_split_1
I0712 12:35:28.685497 139757 net.cpp:411] inception_5a/3x3_reduce -> inception_5a/3x3_reduce
I0712 12:35:28.688338 139757 cudnn_conv_layer.cpp:194] Reallocating workspace storage: 9984
I0712 12:35:28.688393 139757 net.cpp:150] Setting up inception_5a/3x3_reduce
I0712 12:35:28.688410 139757 net.cpp:157] Top shape: 32 160 7 7 (250880)
I0712 12:35:28.688418 139757 net.cpp:165] Memory required for data: 1727009800
I0712 12:35:28.688431 139757 layer_factory.hpp:76] Creating layer inception_5a/relu_3x3_reduce
I0712 12:35:28.688451 139757 net.cpp:106] Creating Layer inception_5a/relu_3x3_reduce
I0712 12:35:28.688465 139757 net.cpp:454] inception_5a/relu_3x3_reduce <- inception_5a/3x3_reduce
I0712 12:35:28.688477 139757 net.cpp:397] inception_5a/relu_3x3_reduce -> inception_5a/3x3_reduce (in-place)
I0712 12:35:28.688863 139757 net.cpp:150] Setting up inception_5a/relu_3x3_reduce
I0712 12:35:28.688894 139757 net.cpp:157] Top shape: 32 160 7 7 (250880)
I0712 12:35:28.688902 139757 net.cpp:165] Memory required for data: 1728013320
I0712 12:35:28.688911 139757 layer_factory.hpp:76] Creating layer inception_5a/3x3
I0712 12:35:28.688927 139757 net.cpp:106] Creating Layer inception_5a/3x3
I0712 12:35:28.688937 139757 net.cpp:454] inception_5a/3x3 <- inception_5a/3x3_reduce
I0712 12:35:28.688968 139757 net.cpp:411] inception_5a/3x3 -> inception_5a/3x3
I0712 12:35:28.694293 139757 net.cpp:150] Setting up inception_5a/3x3
I0712 12:35:28.694334 139757 net.cpp:157] Top shape: 32 320 7 7 (501760)
I0712 12:35:28.694344 139757 net.cpp:165] Memory required for data: 1730020360
I0712 12:35:28.694365 139757 layer_factory.hpp:76] Creating layer inception_5a/relu_3x3
I0712 12:35:28.694377 139757 net.cpp:106] Creating Layer inception_5a/relu_3x3
I0712 12:35:28.694387 139757 net.cpp:454] inception_5a/relu_3x3 <- inception_5a/3x3
I0712 12:35:28.694401 139757 net.cpp:397] inception_5a/relu_3x3 -> inception_5a/3x3 (in-place)
I0712 12:35:28.694844 139757 net.cpp:150] Setting up inception_5a/relu_3x3
I0712 12:35:28.694876 139757 net.cpp:157] Top shape: 32 320 7 7 (501760)
I0712 12:35:28.694886 139757 net.cpp:165] Memory required for data: 1732027400
I0712 12:35:28.694895 139757 layer_factory.hpp:76] Creating layer inception_5a/5x5_reduce
I0712 12:35:28.694911 139757 net.cpp:106] Creating Layer inception_5a/5x5_reduce
I0712 12:35:28.694922 139757 net.cpp:454] inception_5a/5x5_reduce <- pool4/3x3_s2_pool4/3x3_s2_0_split_2
I0712 12:35:28.694936 139757 net.cpp:411] inception_5a/5x5_reduce -> inception_5a/5x5_reduce
I0712 12:35:28.696539 139757 cudnn_conv_layer.cpp:194] Reallocating workspace storage: 9984
I0712 12:35:28.696597 139757 net.cpp:150] Setting up inception_5a/5x5_reduce
I0712 12:35:28.696612 139757 net.cpp:157] Top shape: 32 32 7 7 (50176)
I0712 12:35:28.696621 139757 net.cpp:165] Memory required for data: 1732228104
I0712 12:35:28.696633 139757 layer_factory.hpp:76] Creating layer inception_5a/relu_5x5_reduce
I0712 12:35:28.696655 139757 net.cpp:106] Creating Layer inception_5a/relu_5x5_reduce
I0712 12:35:28.696666 139757 net.cpp:454] inception_5a/relu_5x5_reduce <- inception_5a/5x5_reduce
I0712 12:35:28.696678 139757 net.cpp:397] inception_5a/relu_5x5_reduce -> inception_5a/5x5_reduce (in-place)
I0712 12:35:28.696925 139757 net.cpp:150] Setting up inception_5a/relu_5x5_reduce
I0712 12:35:28.696955 139757 net.cpp:157] Top shape: 32 32 7 7 (50176)
I0712 12:35:28.696965 139757 net.cpp:165] Memory required for data: 1732428808
I0712 12:35:28.696974 139757 layer_factory.hpp:76] Creating layer inception_5a/5x5
I0712 12:35:28.696992 139757 net.cpp:106] Creating Layer inception_5a/5x5
I0712 12:35:28.697003 139757 net.cpp:454] inception_5a/5x5 <- inception_5a/5x5_reduce
I0712 12:35:28.697016 139757 net.cpp:411] inception_5a/5x5 -> inception_5a/5x5
I0712 12:35:28.699126 139757 net.cpp:150] Setting up inception_5a/5x5
I0712 12:35:28.699149 139757 net.cpp:157] Top shape: 32 128 7 7 (200704)
I0712 12:35:28.699158 139757 net.cpp:165] Memory required for data: 1733231624
I0712 12:35:28.699170 139757 layer_factory.hpp:76] Creating layer inception_5a/relu_5x5
I0712 12:35:28.699192 139757 net.cpp:106] Creating Layer inception_5a/relu_5x5
I0712 12:35:28.699203 139757 net.cpp:454] inception_5a/relu_5x5 <- inception_5a/5x5
I0712 12:35:28.699213 139757 net.cpp:397] inception_5a/relu_5x5 -> inception_5a/5x5 (in-place)
I0712 12:35:28.699571 139757 net.cpp:150] Setting up inception_5a/relu_5x5
I0712 12:35:28.699594 139757 net.cpp:157] Top shape: 32 128 7 7 (200704)
I0712 12:35:28.699601 139757 net.cpp:165] Memory required for data: 1734034440
I0712 12:35:28.699610 139757 layer_factory.hpp:76] Creating layer inception_5a/pool
I0712 12:35:28.699625 139757 net.cpp:106] Creating Layer inception_5a/pool
I0712 12:35:28.699633 139757 net.cpp:454] inception_5a/pool <- pool4/3x3_s2_pool4/3x3_s2_0_split_3
I0712 12:35:28.699645 139757 net.cpp:411] inception_5a/pool -> inception_5a/pool
I0712 12:35:28.699892 139757 net.cpp:150] Setting up inception_5a/pool
I0712 12:35:28.699910 139757 net.cpp:157] Top shape: 32 832 7 7 (1304576)
I0712 12:35:28.699919 139757 net.cpp:165] Memory required for data: 1739252744
I0712 12:35:28.699928 139757 layer_factory.hpp:76] Creating layer inception_5a/pool_proj
I0712 12:35:28.699941 139757 net.cpp:106] Creating Layer inception_5a/pool_proj
I0712 12:35:28.699972 139757 net.cpp:454] inception_5a/pool_proj <- inception_5a/pool
I0712 12:35:28.699985 139757 net.cpp:411] inception_5a/pool_proj -> inception_5a/pool_proj
I0712 12:35:28.702615 139757 cudnn_conv_layer.cpp:194] Reallocating workspace storage: 9984
I0712 12:35:28.702669 139757 net.cpp:150] Setting up inception_5a/pool_proj
I0712 12:35:28.702683 139757 net.cpp:157] Top shape: 32 128 7 7 (200704)
I0712 12:35:28.702692 139757 net.cpp:165] Memory required for data: 1740055560
I0712 12:35:28.702713 139757 layer_factory.hpp:76] Creating layer inception_5a/relu_pool_proj
I0712 12:35:28.702728 139757 net.cpp:106] Creating Layer inception_5a/relu_pool_proj
I0712 12:35:28.702738 139757 net.cpp:454] inception_5a/relu_pool_proj <- inception_5a/pool_proj
I0712 12:35:28.702749 139757 net.cpp:397] inception_5a/relu_pool_proj -> inception_5a/pool_proj (in-place)
I0712 12:35:28.702955 139757 net.cpp:150] Setting up inception_5a/relu_pool_proj
I0712 12:35:28.702971 139757 net.cpp:157] Top shape: 32 128 7 7 (200704)
I0712 12:35:28.702980 139757 net.cpp:165] Memory required for data: 1740858376
I0712 12:35:28.702987 139757 layer_factory.hpp:76] Creating layer inception_5a/output
I0712 12:35:28.703006 139757 net.cpp:106] Creating Layer inception_5a/output
I0712 12:35:28.703014 139757 net.cpp:454] inception_5a/output <- inception_5a/1x1
I0712 12:35:28.703024 139757 net.cpp:454] inception_5a/output <- inception_5a/3x3
I0712 12:35:28.703033 139757 net.cpp:454] inception_5a/output <- inception_5a/5x5
I0712 12:35:28.703042 139757 net.cpp:454] inception_5a/output <- inception_5a/pool_proj
I0712 12:35:28.703054 139757 net.cpp:411] inception_5a/output -> inception_5a/output
I0712 12:35:28.703101 139757 net.cpp:150] Setting up inception_5a/output
I0712 12:35:28.703114 139757 net.cpp:157] Top shape: 32 832 7 7 (1304576)
I0712 12:35:28.703121 139757 net.cpp:165] Memory required for data: 1746076680
I0712 12:35:28.703130 139757 layer_factory.hpp:76] Creating layer inception_5a/output_inception_5a/output_0_split
I0712 12:35:28.703141 139757 net.cpp:106] Creating Layer inception_5a/output_inception_5a/output_0_split
I0712 12:35:28.703150 139757 net.cpp:454] inception_5a/output_inception_5a/output_0_split <- inception_5a/output
I0712 12:35:28.703161 139757 net.cpp:411] inception_5a/output_inception_5a/output_0_split -> inception_5a/output_inception_5a/output_0_split_0
I0712 12:35:28.703171 139757 net.cpp:411] inception_5a/output_inception_5a/output_0_split -> inception_5a/output_inception_5a/output_0_split_1
I0712 12:35:28.703184 139757 net.cpp:411] inception_5a/output_inception_5a/output_0_split -> inception_5a/output_inception_5a/output_0_split_2
I0712 12:35:28.703197 139757 net.cpp:411] inception_5a/output_inception_5a/output_0_split -> inception_5a/output_inception_5a/output_0_split_3
I0712 12:35:28.703284 139757 net.cpp:150] Setting up inception_5a/output_inception_5a/output_0_split
I0712 12:35:28.703295 139757 net.cpp:157] Top shape: 32 832 7 7 (1304576)
I0712 12:35:28.703305 139757 net.cpp:157] Top shape: 32 832 7 7 (1304576)
I0712 12:35:28.703313 139757 net.cpp:157] Top shape: 32 832 7 7 (1304576)
I0712 12:35:28.703321 139757 net.cpp:157] Top shape: 32 832 7 7 (1304576)
I0712 12:35:28.703330 139757 net.cpp:165] Memory required for data: 1766949896
I0712 12:35:28.703337 139757 layer_factory.hpp:76] Creating layer inception_5b/1x1
I0712 12:35:28.703351 139757 net.cpp:106] Creating Layer inception_5b/1x1
I0712 12:35:28.703361 139757 net.cpp:454] inception_5b/1x1 <- inception_5a/output_inception_5a/output_0_split_0
I0712 12:35:28.703372 139757 net.cpp:411] inception_5b/1x1 -> inception_5b/1x1
I0712 12:35:28.707715 139757 cudnn_conv_layer.cpp:194] Reallocating workspace storage: 9984
I0712 12:35:28.707764 139757 net.cpp:150] Setting up inception_5b/1x1
I0712 12:35:28.707778 139757 net.cpp:157] Top shape: 32 384 7 7 (602112)
I0712 12:35:28.707787 139757 net.cpp:165] Memory required for data: 1769358344
I0712 12:35:28.707799 139757 layer_factory.hpp:76] Creating layer inception_5b/relu_1x1
I0712 12:35:28.707823 139757 net.cpp:106] Creating Layer inception_5b/relu_1x1
I0712 12:35:28.707850 139757 net.cpp:454] inception_5b/relu_1x1 <- inception_5b/1x1
I0712 12:35:28.707862 139757 net.cpp:397] inception_5b/relu_1x1 -> inception_5b/1x1 (in-place)
I0712 12:35:28.708220 139757 net.cpp:150] Setting up inception_5b/relu_1x1
I0712 12:35:28.708240 139757 net.cpp:157] Top shape: 32 384 7 7 (602112)
I0712 12:35:28.708250 139757 net.cpp:165] Memory required for data: 1771766792
I0712 12:35:28.708258 139757 layer_factory.hpp:76] Creating layer inception_5b/3x3_reduce
I0712 12:35:28.708286 139757 net.cpp:106] Creating Layer inception_5b/3x3_reduce
I0712 12:35:28.708297 139757 net.cpp:454] inception_5b/3x3_reduce <- inception_5a/output_inception_5a/output_0_split_1
I0712 12:35:28.708308 139757 net.cpp:411] inception_5b/3x3_reduce -> inception_5b/3x3_reduce
I0712 12:35:28.711305 139757 cudnn_conv_layer.cpp:194] Reallocating workspace storage: 9984
I0712 12:35:28.711364 139757 net.cpp:150] Setting up inception_5b/3x3_reduce
I0712 12:35:28.711380 139757 net.cpp:157] Top shape: 32 192 7 7 (301056)
I0712 12:35:28.711388 139757 net.cpp:165] Memory required for data: 1772971016
I0712 12:35:28.711400 139757 layer_factory.hpp:76] Creating layer inception_5b/relu_3x3_reduce
I0712 12:35:28.711411 139757 net.cpp:106] Creating Layer inception_5b/relu_3x3_reduce
I0712 12:35:28.711421 139757 net.cpp:454] inception_5b/relu_3x3_reduce <- inception_5b/3x3_reduce
I0712 12:35:28.711434 139757 net.cpp:397] inception_5b/relu_3x3_reduce -> inception_5b/3x3_reduce (in-place)
I0712 12:35:28.711671 139757 net.cpp:150] Setting up inception_5b/relu_3x3_reduce
I0712 12:35:28.711701 139757 net.cpp:157] Top shape: 32 192 7 7 (301056)
I0712 12:35:28.711710 139757 net.cpp:165] Memory required for data: 1774175240
I0712 12:35:28.711719 139757 layer_factory.hpp:76] Creating layer inception_5b/3x3
I0712 12:35:28.711730 139757 net.cpp:106] Creating Layer inception_5b/3x3
I0712 12:35:28.711740 139757 net.cpp:454] inception_5b/3x3 <- inception_5b/3x3_reduce
I0712 12:35:28.711755 139757 net.cpp:411] inception_5b/3x3 -> inception_5b/3x3
I0712 12:35:28.719270 139757 cudnn_conv_layer.cpp:194] Reallocating workspace storage: 20736
I0712 12:35:28.719324 139757 net.cpp:150] Setting up inception_5b/3x3
I0712 12:35:28.719342 139757 net.cpp:157] Top shape: 32 384 7 7 (602112)
I0712 12:35:28.719352 139757 net.cpp:165] Memory required for data: 1776583688
I0712 12:35:28.719370 139757 layer_factory.hpp:76] Creating layer inception_5b/relu_3x3
I0712 12:35:28.719395 139757 net.cpp:106] Creating Layer inception_5b/relu_3x3
I0712 12:35:28.719408 139757 net.cpp:454] inception_5b/relu_3x3 <- inception_5b/3x3
I0712 12:35:28.719421 139757 net.cpp:397] inception_5b/relu_3x3 -> inception_5b/3x3 (in-place)
I0712 12:35:28.719669 139757 net.cpp:150] Setting up inception_5b/relu_3x3
I0712 12:35:28.719698 139757 net.cpp:157] Top shape: 32 384 7 7 (602112)
I0712 12:35:28.719707 139757 net.cpp:165] Memory required for data: 1778992136
I0712 12:35:28.719717 139757 layer_factory.hpp:76] Creating layer inception_5b/5x5_reduce
I0712 12:35:28.719733 139757 net.cpp:106] Creating Layer inception_5b/5x5_reduce
I0712 12:35:28.719744 139757 net.cpp:454] inception_5b/5x5_reduce <- inception_5a/output_inception_5a/output_0_split_2
I0712 12:35:28.719755 139757 net.cpp:411] inception_5b/5x5_reduce -> inception_5b/5x5_reduce
I0712 12:35:28.721899 139757 net.cpp:150] Setting up inception_5b/5x5_reduce
I0712 12:35:28.721935 139757 net.cpp:157] Top shape: 32 48 7 7 (75264)
I0712 12:35:28.721946 139757 net.cpp:165] Memory required for data: 1779293192
I0712 12:35:28.721958 139757 layer_factory.hpp:76] Creating layer inception_5b/relu_5x5_reduce
I0712 12:35:28.721969 139757 net.cpp:106] Creating Layer inception_5b/relu_5x5_reduce
I0712 12:35:28.721979 139757 net.cpp:454] inception_5b/relu_5x5_reduce <- inception_5b/5x5_reduce
I0712 12:35:28.721989 139757 net.cpp:397] inception_5b/relu_5x5_reduce -> inception_5b/5x5_reduce (in-place)
I0712 12:35:28.722394 139757 net.cpp:150] Setting up inception_5b/relu_5x5_reduce
I0712 12:35:28.722425 139757 net.cpp:157] Top shape: 32 48 7 7 (75264)
I0712 12:35:28.722457 139757 net.cpp:165] Memory required for data: 1779594248
I0712 12:35:28.722466 139757 layer_factory.hpp:76] Creating layer inception_5b/5x5
I0712 12:35:28.722491 139757 net.cpp:106] Creating Layer inception_5b/5x5
I0712 12:35:28.722502 139757 net.cpp:454] inception_5b/5x5 <- inception_5b/5x5_reduce
I0712 12:35:28.722514 139757 net.cpp:411] inception_5b/5x5 -> inception_5b/5x5
I0712 12:35:28.724956 139757 net.cpp:150] Setting up inception_5b/5x5
I0712 12:35:28.724979 139757 net.cpp:157] Top shape: 32 128 7 7 (200704)
I0712 12:35:28.724988 139757 net.cpp:165] Memory required for data: 1780397064
I0712 12:35:28.725000 139757 layer_factory.hpp:76] Creating layer inception_5b/relu_5x5
I0712 12:35:28.725011 139757 net.cpp:106] Creating Layer inception_5b/relu_5x5
I0712 12:35:28.725021 139757 net.cpp:454] inception_5b/relu_5x5 <- inception_5b/5x5
I0712 12:35:28.725033 139757 net.cpp:397] inception_5b/relu_5x5 -> inception_5b/5x5 (in-place)
I0712 12:35:28.725276 139757 net.cpp:150] Setting up inception_5b/relu_5x5
I0712 12:35:28.725294 139757 net.cpp:157] Top shape: 32 128 7 7 (200704)
I0712 12:35:28.725303 139757 net.cpp:165] Memory required for data: 1781199880
I0712 12:35:28.725311 139757 layer_factory.hpp:76] Creating layer inception_5b/pool
I0712 12:35:28.725325 139757 net.cpp:106] Creating Layer inception_5b/pool
I0712 12:35:28.725335 139757 net.cpp:454] inception_5b/pool <- inception_5a/output_inception_5a/output_0_split_3
I0712 12:35:28.725345 139757 net.cpp:411] inception_5b/pool -> inception_5b/pool
I0712 12:35:28.726022 139757 net.cpp:150] Setting up inception_5b/pool
I0712 12:35:28.726073 139757 net.cpp:157] Top shape: 32 832 7 7 (1304576)
I0712 12:35:28.726083 139757 net.cpp:165] Memory required for data: 1786418184
I0712 12:35:28.726092 139757 layer_factory.hpp:76] Creating layer inception_5b/pool_proj
I0712 12:35:28.726119 139757 net.cpp:106] Creating Layer inception_5b/pool_proj
I0712 12:35:28.726128 139757 net.cpp:454] inception_5b/pool_proj <- inception_5b/pool
I0712 12:35:28.726142 139757 net.cpp:411] inception_5b/pool_proj -> inception_5b/pool_proj
I0712 12:35:28.728710 139757 cudnn_conv_layer.cpp:194] Reallocating workspace storage: 9984
I0712 12:35:28.728773 139757 net.cpp:150] Setting up inception_5b/pool_proj
I0712 12:35:28.728790 139757 net.cpp:157] Top shape: 32 128 7 7 (200704)
I0712 12:35:28.728799 139757 net.cpp:165] Memory required for data: 1787221000
I0712 12:35:28.728811 139757 layer_factory.hpp:76] Creating layer inception_5b/relu_pool_proj
I0712 12:35:28.728823 139757 net.cpp:106] Creating Layer inception_5b/relu_pool_proj
I0712 12:35:28.728833 139757 net.cpp:454] inception_5b/relu_pool_proj <- inception_5b/pool_proj
I0712 12:35:28.728843 139757 net.cpp:397] inception_5b/relu_pool_proj -> inception_5b/pool_proj (in-place)
I0712 12:35:28.729243 139757 net.cpp:150] Setting up inception_5b/relu_pool_proj
I0712 12:35:28.729274 139757 net.cpp:157] Top shape: 32 128 7 7 (200704)
I0712 12:35:28.729284 139757 net.cpp:165] Memory required for data: 1788023816
I0712 12:35:28.729292 139757 layer_factory.hpp:76] Creating layer inception_5b/output
I0712 12:35:28.729303 139757 net.cpp:106] Creating Layer inception_5b/output
I0712 12:35:28.729315 139757 net.cpp:454] inception_5b/output <- inception_5b/1x1
I0712 12:35:28.729324 139757 net.cpp:454] inception_5b/output <- inception_5b/3x3
I0712 12:35:28.729333 139757 net.cpp:454] inception_5b/output <- inception_5b/5x5
I0712 12:35:28.729342 139757 net.cpp:454] inception_5b/output <- inception_5b/pool_proj
I0712 12:35:28.729351 139757 net.cpp:411] inception_5b/output -> inception_5b/output
I0712 12:35:28.729401 139757 net.cpp:150] Setting up inception_5b/output
I0712 12:35:28.729416 139757 net.cpp:157] Top shape: 32 1024 7 7 (1605632)
I0712 12:35:28.729424 139757 net.cpp:165] Memory required for data: 1794446344
I0712 12:35:28.729432 139757 layer_factory.hpp:76] Creating layer pool5/7x7_s1
I0712 12:35:28.729452 139757 net.cpp:106] Creating Layer pool5/7x7_s1
I0712 12:35:28.729465 139757 net.cpp:454] pool5/7x7_s1 <- inception_5b/output
I0712 12:35:28.729497 139757 net.cpp:411] pool5/7x7_s1 -> pool5/7x7_s1
I0712 12:35:28.729761 139757 net.cpp:150] Setting up pool5/7x7_s1
I0712 12:35:28.729790 139757 net.cpp:157] Top shape: 32 1024 1 1 (32768)
I0712 12:35:28.729799 139757 net.cpp:165] Memory required for data: 1794577416
I0712 12:35:28.729807 139757 layer_factory.hpp:76] Creating layer pool5/drop_7x7_s1
I0712 12:35:28.729818 139757 net.cpp:106] Creating Layer pool5/drop_7x7_s1
I0712 12:35:28.729827 139757 net.cpp:454] pool5/drop_7x7_s1 <- pool5/7x7_s1
I0712 12:35:28.729840 139757 net.cpp:397] pool5/drop_7x7_s1 -> pool5/7x7_s1 (in-place)
I0712 12:35:28.729881 139757 net.cpp:150] Setting up pool5/drop_7x7_s1
I0712 12:35:28.729897 139757 net.cpp:157] Top shape: 32 1024 1 1 (32768)
I0712 12:35:28.729904 139757 net.cpp:165] Memory required for data: 1794708488
I0712 12:35:28.729913 139757 layer_factory.hpp:76] Creating layer loss3/classifier
I0712 12:35:28.729925 139757 net.cpp:106] Creating Layer loss3/classifier
I0712 12:35:28.729933 139757 net.cpp:454] loss3/classifier <- pool5/7x7_s1
I0712 12:35:28.729944 139757 net.cpp:411] loss3/classifier -> loss3/classifier
I0712 12:35:28.730152 139757 net.cpp:150] Setting up loss3/classifier
I0712 12:35:28.730166 139757 net.cpp:157] Top shape: 32 2 (64)
I0712 12:35:28.730186 139757 net.cpp:165] Memory required for data: 1794708744
I0712 12:35:28.730198 139757 layer_factory.hpp:76] Creating layer loss3/loss3
I0712 12:35:28.730212 139757 net.cpp:106] Creating Layer loss3/loss3
I0712 12:35:28.730221 139757 net.cpp:454] loss3/loss3 <- loss3/classifier
I0712 12:35:28.730232 139757 net.cpp:454] loss3/loss3 <- label_data_1_split_2
I0712 12:35:28.730240 139757 net.cpp:411] loss3/loss3 -> loss3/loss3
…
I0712 12:35:28.737310 139757 net.cpp:49] Initializing net from parameters: 
name: "GoogleNet"
state {
  phase: TEST
}
layer {
  name: "data"
  type: "ImageData"
  top: "data"
  top: "label"
  include {
    phase: TEST
  }
  transform_param {
    mirror: false
    crop_size: 224
    mean_value: 104
    mean_value: 117
    mean_value: 123
  }
  image_data_param {
    source: "/data/dywang/Database/Proliferation/libs/stage04_mitosisDetection/training_examples/val3.lst"
    batch_size: 100
    shuffle: true
    new_height: 256
    new_width: 256
  }
}
layer {
  name: "conv1/7x7_s2"
  type: "Convolution"
  bottom: "data"
  top: "conv1/7x7_s2"
  param {
    lr_mult: 1
    decay_mult: 1
  }
  param {
    lr_mult: 2
    decay_mult: 0
  }
  convolution_param {
    num_output: 64
    pad: 3
    kernel_size: 7
    stride: 2
    weight_filler {
      type: "xavier"
    }
    bias_filler {
      type: "constant"
      value: 0.2
    }
  }
}
layer {
  name: "conv1/relu_7x7"
  type: "ReLU"
  bottom: "conv1/7x7_s2"
  top: "conv1/7x7_s2"
}
layer {
  name: "pool1/3x3_s2"
  type: "Pooling"
  bottom: "conv1/7x7_s2"
  top: "pool1/3x3_s2"
  pooling_param {
    pool: MAX
    kernel_size: 3
    stride: 2
  }
}
layer {
  name: "pool1/norm1"
  type: "LRN"
  bottom: "pool1/3x3_s2"
  top: "pool1/norm1"
  lrn_param {
    local_size: 5
    alpha: 0.0001
    beta: 0.75
  }
}
layer {
  name: "conv2/3x3_reduce"
  type: "Convolution"
  bottom: "pool1/norm1"
  top: "conv2/3x3_reduce"
  param {
    lr_mult: 1
    decay_mult: 1
  }
  param {
    lr_mult: 2
    decay_mult: 0
  }
  convolution_param {
    num_output: 64
    kernel_size: 1
    weight_filler {
      type: "xavier"
    }
    bias_filler {
      type: "constant"
      value: 0.2
    }
  }
}
layer {
  name: "conv2/relu_3x3_reduce"
  type: "ReLU"
  bottom: "conv2/3x3_reduce"
  top: "conv2/3x3_reduce"
}
layer {
  name: "conv2/3x3"
  type: "Convolution"
  bottom: "conv2/3x3_reduce"
  top: "conv2/3x3"
  param {
    lr_mult: 1
    decay_mult: 1
  }
  param {
    lr_mult: 2
    decay_mult: 0
  }
  convolution_param {
    num_output: 192
    pad: 1
    kernel_size: 3
    weight_filler {
      type: "xavier"
    }
    bias_filler {
      type: "constant"
      value: 0.2
    }
  }
}
layer {
  name: "conv2/relu_3x3"
  type: "ReLU"
  bottom: "conv2/3x3"
  top: "conv2/3x3"
}
layer {
  name: "conv2/norm2"
  type: "LRN"
  bottom: "conv2/3x3"
  top: "conv2/norm2"
  lrn_param {
    local_size: 5
    alpha: 0.0001
    beta: 0.75
  }
}
layer {
  name: "pool2/3x3_s2"
  type: "Pooling"
  bottom: "conv2/norm2"
  top: "pool2/3x3_s2"
  pooling_param {
    pool: MAX
    kernel_size: 3
    stride: 2
  }
}
layer {
  name: "inception_3a/1x1"
  type: "Convolution"
  bottom: "pool2/3x3_s2"
  top: "inception_3a/1x1"
  param {
    lr_mult: 1
    decay_mult: 1
  }
  param {
    lr_mult: 2
    decay_mult: 0
  }
  convolution_param {
    num_output: 64
    kernel_size: 1
    weight_filler {
      type: "xavier"
    }
    bias_filler {
      type: "constant"
      value: 0.2
    }
  }
}
layer {
  name: "inception_3a/relu_1x1"
  type: "ReLU"
  bottom: "inception_3a/1x1"
  top: "inception_3a/1x1"
}
layer {
  name: "inception_3a/3x3_reduce"
  type: "Convolution"
  bottom: "pool2/3x3_s2"
  top: "inception_3a/3x3_reduce"
  param {
    lr_mult: 1
    decay_mult: 1
  }
  param {
    lr_mult: 2
    decay_mult: 0
  }
  convolution_param {
    num_output: 96
    kernel_size: 1
    weight_filler {
      type: "xavier"
    }
    bias_filler {
      type: "constant"
      value: 0.2
    }
  }
}
layer {
  name: "inception_3a/relu_3x3_reduce"
  type: "ReLU"
  bottom: "inception_3a/3x3_reduce"
  top: "inception_3a/3x3_reduce"
}
layer {
  name: "inception_3a/3x3"
  type: "Convolution"
  bottom: "inception_3a/3x3_reduce"
  top: "inception_3a/3x3"
  param {
    lr_mult: 1
    decay_mult: 1
  }
  param {
    lr_mult: 2
    decay_mult: 0
  }
  convolution_param {
    num_output: 128
    pad: 1
    kernel_size: 3
    weight_filler {
      type: "xavier"
    }
    bias_filler {
      type: "constant"
      value: 0.2
    }
  }
}
layer {
  name: "inception_3a/relu_3x3"
  type: "ReLU"
  bottom: "inception_3a/3x3"
  top: "inception_3a/3x3"
}
layer {
  name: "inception_3a/5x5_reduce"
  type: "Convolution"
  bottom: "pool2/3x3_s2"
  top: "inception_3a/5x5_reduce"
  param {
    lr_mult: 1
    decay_mult: 1
  }
  param {
    lr_mult: 2
    decay_mult: 0
  }
  convolution_param {
    num_output: 16
    kernel_size: 1
    weight_filler {
      type: "xavier"
    }
    bias_filler {
      type: "constant"
      value: 0.2
    }
  }
}
layer {
  name: "inception_3a/relu_5x5_reduce"
  type: "ReLU"
  bottom: "inception_3a/5x5_reduce"
  top: "inception_3a/5x5_reduce"
}
layer {
  name: "inception_3a/5x5"
  type: "Convolution"
  bottom: "inception_3a/5x5_reduce"
  top: "inception_3a/5x5"
  param {
    lr_mult: 1
    decay_mult: 1
  }
  param {
    lr_mult: 2
    decay_mult: 0
  }
  convolution_param {
    num_output: 32
    pad: 2
    kernel_size: 5
    weight_filler {
      type: "xavier"
    }
    bias_filler {
      type: "constant"
      value: 0.2
    }
  }
}
layer {
  name: "inception_3a/relu_5x5"
  type: "ReLU"
  bottom: "inception_3a/5x5"
  top: "inception_3a/5x5"
}
layer {
  name: "inception_3a/pool"
  type: "Pooling"
  bottom: "pool2/3x3_s2"
  top: "inception_3a/pool"
  pooling_param {
    pool: MAX
    kernel_size: 3
    stride: 1
    pad: 1
  }
}
layer {
  name: "inception_3a/pool_proj"
  type: "Convolution"
  bottom: "inception_3a/pool"
  top: "inception_3a/pool_proj"
  param {
    lr_mult: 1
    decay_mult: 1
  }
  param {
    lr_mult: 2
    decay_mult: 0
  }
  convolution_param {
    num_output: 32
    kernel_size: 1
    weight_filler {
      type: "xavier"
    }
    bias_filler {
      type: "constant"
      value: 0.2
    }
  }
}
layer {
  name: "inception_3a/relu_pool_proj"
  type: "ReLU"
  bottom: "inception_3a/pool_proj"
  top: "inception_3a/pool_proj"
}
layer {
  name: "inception_3a/output"
  type: "Concat"
  bottom: "inception_3a/1x1"
  bottom: "inception_3a/3x3"
  bottom: "inception_3a/5x5"
  bottom: "inception_3a/pool_proj"
  top: "inception_3a/output"
}
layer {
  name: "inception_3b/1x1"
  type: "Convolution"
  bottom: "inception_3a/output"
  top: "inception_3b/1x1"
  param {
    lr_mult: 1
    decay_mult: 1
  }
  param {
    lr_mult: 2
    decay_mult: 0
  }
  convolution_param {
    num_output: 128
    kernel_size: 1
    weight_filler {
      type: "xavier"
    }
    bias_filler {
      type: "constant"
      value: 0.2
    }
  }
}
layer {
  name: "inception_3b/relu_1x1"
  type: "ReLU"
  bottom: "inception_3b/1x1"
  top: "inception_3b/1x1"
}
layer {
  name: "inception_3b/3x3_reduce"
  type: "Convolution"
  bottom: "inception_3a/output"
  top: "inception_3b/3x3_reduce"
  param {
    lr_mult: 1
    decay_mult: 1
  }
  param {
    lr_mult: 2
    decay_mult: 0
  }
  convolution_param {
    num_output: 128
    kernel_size: 1
    weight_filler {
      type: "xavier"
    }
    bias_filler {
      type: "constant"
      value: 0.2
    }
  }
}
layer {
  name: "inception_3b/relu_3x3_reduce"
  type: "ReLU"
  bottom: "inception_3b/3x3_reduce"
  top: "inception_3b/3x3_reduce"
}
layer {
  name: "inception_3b/3x3"
  type: "Convolution"
  bottom: "inception_3b/3x3_reduce"
  top: "inception_3b/3x3"
  param {
    lr_mult: 1
    decay_mult: 1
  }
  param {
    lr_mult: 2
    decay_mult: 0
  }
  convolution_param {
    num_output: 192
    pad: 1
    kernel_size: 3
    weight_filler {
      type: "xavier"
    }
    bias_filler {
      type: "constant"
      value: 0.2
    }
  }
}
layer {
  name: "inception_3b/relu_3x3"
  type: "ReLU"
  bottom: "inception_3b/3x3"
  top: "inception_3b/3x3"
}
layer {
  name: "inception_3b/5x5_reduce"
  type: "Convolution"
  bottom: "inception_3a/output"
  top: "inception_3b/5x5_reduce"
  param {
    lr_mult: 1
    decay_mult: 1
  }
  param {
    lr_mult: 2
    decay_mult: 0
  }
  convolution_param {
    num_output: 32
    kernel_size: 1
    weight_filler {
      type: "xavier"
    }
    bias_filler {
      type: "constant"
      value: 0.2
    }
  }
}
layer {
  name: "inception_3b/relu_5x5_reduce"
  type: "ReLU"
  bottom: "inception_3b/5x5_reduce"
  top: "inception_3b/5x5_reduce"
}
layer {
  name: "inception_3b/5x5"
  type: "Convolution"
  bottom: "inception_3b/5x5_reduce"
  top: "inception_3b/5x5"
  param {
    lr_mult: 1
    decay_mult: 1
  }
  param {
    lr_mult: 2
    decay_mult: 0
  }
  convolution_param {
    num_output: 96
    pad: 2
    kernel_size: 5
    weight_filler {
      type: "xavier"
    }
    bias_filler {
      type: "constant"
      value: 0.2
    }
  }
}
layer {
  name: "inception_3b/relu_5x5"
  type: "ReLU"
  bottom: "inception_3b/5x5"
  top: "inception_3b/5x5"
}
layer {
  name: "inception_3b/pool"
  type: "Pooling"
  bottom: "inception_3a/output"
  top: "inception_3b/pool"
  pooling_param {
    pool: MAX
    kernel_size: 3
    stride: 1
    pad: 1
  }
}
layer {
  name: "inception_3b/pool_proj"
  type: "Convolution"
  bottom: "inception_3b/pool"
  top: "inception_3b/pool_proj"
  param {
    lr_mult: 1
    decay_mult: 1
  }
  param {
    lr_mult: 2
    decay_mult: 0
  }
  convolution_param {
    num_output: 64
    kernel_size: 1
    weight_filler {
      type: "xavier"
    }
    bias_filler {
      type: "constant"
      value: 0.2
    }
  }
}
layer {
  name: "inception_3b/relu_pool_proj"
  type: "ReLU"
  bottom: "inception_3b/pool_proj"
  top: "inception_3b/pool_proj"
}
layer {
  name: "inception_3b/output"
  type: "Concat"
  bottom: "inception_3b/1x1"
  bottom: "inception_3b/3x3"
  bottom: "inception_3b/5x5"
  bottom: "inception_3b/pool_proj"
  top: "inception_3b/output"
}
layer {
  name: "pool3/3x3_s2"
  type: "Pooling"
  bottom: "inception_3b/output"
  top: "pool3/3x3_s2"
  pooling_param {
    pool: MAX
    kernel_size: 3
    stride: 2
  }
}
layer {
  name: "inception_4a/1x1"
  type: "Convolution"
  bottom: "pool3/3x3_s2"
  top: "inception_4a/1x1"
  param {
    lr_mult: 1
…
I0712 12:35:29.085227 139757 net.cpp:157] Top shape: 100 64 14 14 (1254400)
I0712 12:35:29.085234 139757 net.cpp:165] Memory required for data: 4429163608
I0712 12:35:29.085243 139757 layer_factory.hpp:76] Creating layer inception_4c/output
I0712 12:35:29.085256 139757 net.cpp:106] Creating Layer inception_4c/output
I0712 12:35:29.085266 139757 net.cpp:454] inception_4c/output <- inception_4c/1x1
I0712 12:35:29.085276 139757 net.cpp:454] inception_4c/output <- inception_4c/3x3
I0712 12:35:29.085285 139757 net.cpp:454] inception_4c/output <- inception_4c/5x5
I0712 12:35:29.085294 139757 net.cpp:454] inception_4c/output <- inception_4c/pool_proj
I0712 12:35:29.085304 139757 net.cpp:411] inception_4c/output -> inception_4c/output
I0712 12:35:29.085360 139757 net.cpp:150] Setting up inception_4c/output
I0712 12:35:29.085373 139757 net.cpp:157] Top shape: 100 512 14 14 (10035200)
I0712 12:35:29.085382 139757 net.cpp:165] Memory required for data: 4469304408
I0712 12:35:29.085391 139757 layer_factory.hpp:76] Creating layer inception_4c/output_inception_4c/output_0_split
I0712 12:35:29.085402 139757 net.cpp:106] Creating Layer inception_4c/output_inception_4c/output_0_split
I0712 12:35:29.085410 139757 net.cpp:454] inception_4c/output_inception_4c/output_0_split <- inception_4c/output
I0712 12:35:29.085423 139757 net.cpp:411] inception_4c/output_inception_4c/output_0_split -> inception_4c/output_inception_4c/output_0_split_0
I0712 12:35:29.085435 139757 net.cpp:411] inception_4c/output_inception_4c/output_0_split -> inception_4c/output_inception_4c/output_0_split_1
I0712 12:35:29.085448 139757 net.cpp:411] inception_4c/output_inception_4c/output_0_split -> inception_4c/output_inception_4c/output_0_split_2
I0712 12:35:29.085458 139757 net.cpp:411] inception_4c/output_inception_4c/output_0_split -> inception_4c/output_inception_4c/output_0_split_3
I0712 12:35:29.085574 139757 net.cpp:150] Setting up inception_4c/output_inception_4c/output_0_split
I0712 12:35:29.085589 139757 net.cpp:157] Top shape: 100 512 14 14 (10035200)
I0712 12:35:29.085598 139757 net.cpp:157] Top shape: 100 512 14 14 (10035200)
I0712 12:35:29.085608 139757 net.cpp:157] Top shape: 100 512 14 14 (10035200)
I0712 12:35:29.085618 139757 net.cpp:157] Top shape: 100 512 14 14 (10035200)
I0712 12:35:29.085624 139757 net.cpp:165] Memory required for data: 4629867608
I0712 12:35:29.085633 139757 layer_factory.hpp:76] Creating layer inception_4d/1x1
I0712 12:35:29.085651 139757 net.cpp:106] Creating Layer inception_4d/1x1
I0712 12:35:29.085660 139757 net.cpp:454] inception_4d/1x1 <- inception_4c/output_inception_4c/output_0_split_0
I0712 12:35:29.085672 139757 net.cpp:411] inception_4d/1x1 -> inception_4d/1x1
I0712 12:35:29.087518 139757 cudnn_conv_layer.cpp:194] Reallocating workspace storage: 6144
I0712 12:35:29.087573 139757 net.cpp:150] Setting up inception_4d/1x1
I0712 12:35:29.087586 139757 net.cpp:157] Top shape: 100 112 14 14 (2195200)
I0712 12:35:29.087620 139757 net.cpp:165] Memory required for data: 4638648408
I0712 12:35:29.087632 139757 layer_factory.hpp:76] Creating layer inception_4d/relu_1x1
I0712 12:35:29.087644 139757 net.cpp:106] Creating Layer inception_4d/relu_1x1
I0712 12:35:29.087657 139757 net.cpp:454] inception_4d/relu_1x1 <- inception_4d/1x1
I0712 12:35:29.087667 139757 net.cpp:397] inception_4d/relu_1x1 -> inception_4d/1x1 (in-place)
I0712 12:35:29.088268 139757 net.cpp:150] Setting up inception_4d/relu_1x1
I0712 12:35:29.088289 139757 net.cpp:157] Top shape: 100 112 14 14 (2195200)
I0712 12:35:29.088297 139757 net.cpp:165] Memory required for data: 4647429208
I0712 12:35:29.088306 139757 layer_factory.hpp:76] Creating layer inception_4d/3x3_reduce
I0712 12:35:29.088323 139757 net.cpp:106] Creating Layer inception_4d/3x3_reduce
I0712 12:35:29.088333 139757 net.cpp:454] inception_4d/3x3_reduce <- inception_4c/output_inception_4c/output_0_split_1
I0712 12:35:29.088347 139757 net.cpp:411] inception_4d/3x3_reduce -> inception_4d/3x3_reduce
I0712 12:35:29.090201 139757 cudnn_conv_layer.cpp:194] Reallocating workspace storage: 6144
I0712 12:35:29.090250 139757 net.cpp:150] Setting up inception_4d/3x3_reduce
I0712 12:35:29.090265 139757 net.cpp:157] Top shape: 100 144 14 14 (2822400)
I0712 12:35:29.090273 139757 net.cpp:165] Memory required for data: 4658718808
I0712 12:35:29.090286 139757 layer_factory.hpp:76] Creating layer inception_4d/relu_3x3_reduce
I0712 12:35:29.090301 139757 net.cpp:106] Creating Layer inception_4d/relu_3x3_reduce
I0712 12:35:29.090312 139757 net.cpp:454] inception_4d/relu_3x3_reduce <- inception_4d/3x3_reduce
I0712 12:35:29.090322 139757 net.cpp:397] inception_4d/relu_3x3_reduce -> inception_4d/3x3_reduce (in-place)
I0712 12:35:29.090719 139757 net.cpp:150] Setting up inception_4d/relu_3x3_reduce
I0712 12:35:29.090740 139757 net.cpp:157] Top shape: 100 144 14 14 (2822400)
I0712 12:35:29.090749 139757 net.cpp:165] Memory required for data: 4670008408
I0712 12:35:29.090759 139757 layer_factory.hpp:76] Creating layer inception_4d/3x3
I0712 12:35:29.090773 139757 net.cpp:106] Creating Layer inception_4d/3x3
I0712 12:35:29.090783 139757 net.cpp:454] inception_4d/3x3 <- inception_4d/3x3_reduce
I0712 12:35:29.090796 139757 net.cpp:411] inception_4d/3x3 -> inception_4d/3x3
I0712 12:35:29.095963 139757 cudnn_conv_layer.cpp:194] Reallocating workspace storage: 15552
I0712 12:35:29.096032 139757 net.cpp:150] Setting up inception_4d/3x3
I0712 12:35:29.096050 139757 net.cpp:157] Top shape: 100 288 14 14 (5644800)
I0712 12:35:29.096060 139757 net.cpp:165] Memory required for data: 4692587608
I0712 12:35:29.096074 139757 layer_factory.hpp:76] Creating layer inception_4d/relu_3x3
I0712 12:35:29.096088 139757 net.cpp:106] Creating Layer inception_4d/relu_3x3
I0712 12:35:29.096099 139757 net.cpp:454] inception_4d/relu_3x3 <- inception_4d/3x3
I0712 12:35:29.096112 139757 net.cpp:397] inception_4d/relu_3x3 -> inception_4d/3x3 (in-place)
I0712 12:35:29.096334 139757 net.cpp:150] Setting up inception_4d/relu_3x3
I0712 12:35:29.096352 139757 net.cpp:157] Top shape: 100 288 14 14 (5644800)
I0712 12:35:29.096360 139757 net.cpp:165] Memory required for data: 4715166808
I0712 12:35:29.096369 139757 layer_factory.hpp:76] Creating layer inception_4d/5x5_reduce
I0712 12:35:29.096395 139757 net.cpp:106] Creating Layer inception_4d/5x5_reduce
I0712 12:35:29.096405 139757 net.cpp:454] inception_4d/5x5_reduce <- inception_4c/output_inception_4c/output_0_split_2
I0712 12:35:29.096418 139757 net.cpp:411] inception_4d/5x5_reduce -> inception_4d/5x5_reduce
I0712 12:35:29.098000 139757 net.cpp:150] Setting up inception_4d/5x5_reduce
I0712 12:35:29.098022 139757 net.cpp:157] Top shape: 100 32 14 14 (627200)
I0712 12:35:29.098032 139757 net.cpp:165] Memory required for data: 4717675608
I0712 12:35:29.098044 139757 layer_factory.hpp:76] Creating layer inception_4d/relu_5x5_reduce
I0712 12:35:29.098059 139757 net.cpp:106] Creating Layer inception_4d/relu_5x5_reduce
I0712 12:35:29.098069 139757 net.cpp:454] inception_4d/relu_5x5_reduce <- inception_4d/5x5_reduce
I0712 12:35:29.098104 139757 net.cpp:397] inception_4d/relu_5x5_reduce -> inception_4d/5x5_reduce (in-place)
I0712 12:35:29.098500 139757 net.cpp:150] Setting up inception_4d/relu_5x5_reduce
I0712 12:35:29.098520 139757 net.cpp:157] Top shape: 100 32 14 14 (627200)
I0712 12:35:29.098529 139757 net.cpp:165] Memory required for data: 4720184408
I0712 12:35:29.098538 139757 layer_factory.hpp:76] Creating layer inception_4d/5x5
I0712 12:35:29.098553 139757 net.cpp:106] Creating Layer inception_4d/5x5
I0712 12:35:29.098563 139757 net.cpp:454] inception_4d/5x5 <- inception_4d/5x5_reduce
I0712 12:35:29.098577 139757 net.cpp:411] inception_4d/5x5 -> inception_4d/5x5
I0712 12:35:29.100219 139757 cudnn_conv_layer.cpp:194] Reallocating workspace storage: 9600
I0712 12:35:29.100281 139757 net.cpp:150] Setting up inception_4d/5x5
I0712 12:35:29.100296 139757 net.cpp:157] Top shape: 100 64 14 14 (1254400)
I0712 12:35:29.100304 139757 net.cpp:165] Memory required for data: 4725202008
I0712 12:35:29.100317 139757 layer_factory.hpp:76] Creating layer inception_4d/relu_5x5
I0712 12:35:29.100328 139757 net.cpp:106] Creating Layer inception_4d/relu_5x5
I0712 12:35:29.100337 139757 net.cpp:454] inception_4d/relu_5x5 <- inception_4d/5x5
I0712 12:35:29.100348 139757 net.cpp:397] inception_4d/relu_5x5 -> inception_4d/5x5 (in-place)
I0712 12:35:29.100740 139757 net.cpp:150] Setting up inception_4d/relu_5x5
I0712 12:35:29.100761 139757 net.cpp:157] Top shape: 100 64 14 14 (1254400)
I0712 12:35:29.100769 139757 net.cpp:165] Memory required for data: 4730219608
I0712 12:35:29.100778 139757 layer_factory.hpp:76] Creating layer inception_4d/pool
I0712 12:35:29.100790 139757 net.cpp:106] Creating Layer inception_4d/pool
I0712 12:35:29.100800 139757 net.cpp:454] inception_4d/pool <- inception_4c/output_inception_4c/output_0_split_3
I0712 12:35:29.100813 139757 net.cpp:411] inception_4d/pool -> inception_4d/pool
I0712 12:35:29.101270 139757 net.cpp:150] Setting up inception_4d/pool
I0712 12:35:29.101290 139757 net.cpp:157] Top shape: 100 512 14 14 (10035200)
I0712 12:35:29.101300 139757 net.cpp:165] Memory required for data: 4770360408
I0712 12:35:29.101308 139757 layer_factory.hpp:76] Creating layer inception_4d/pool_proj
I0712 12:35:29.101323 139757 net.cpp:106] Creating Layer inception_4d/pool_proj
I0712 12:35:29.101333 139757 net.cpp:454] inception_4d/pool_proj <- inception_4d/pool
I0712 12:35:29.101347 139757 net.cpp:411] inception_4d/pool_proj -> inception_4d/pool_proj
I0712 12:35:29.102833 139757 net.cpp:150] Setting up inception_4d/pool_proj
I0712 12:35:29.102861 139757 net.cpp:157] Top shape: 100 64 14 14 (1254400)
I0712 12:35:29.102870 139757 net.cpp:165] Memory required for data: 4775378008
I0712 12:35:29.102882 139757 layer_factory.hpp:76] Creating layer inception_4d/relu_pool_proj
I0712 12:35:29.102895 139757 net.cpp:106] Creating Layer inception_4d/relu_pool_proj
I0712 12:35:29.102905 139757 net.cpp:454] inception_4d/relu_pool_proj <- inception_4d/pool_proj
I0712 12:35:29.102916 139757 net.cpp:397] inception_4d/relu_pool_proj -> inception_4d/pool_proj (in-place)
I0712 12:35:29.103327 139757 net.cpp:150] Setting up inception_4d/relu_pool_proj
I0712 12:35:29.103348 139757 net.cpp:157] Top shape: 100 64 14 14 (1254400)
I0712 12:35:29.103358 139757 net.cpp:165] Memory required for data: 4780395608
I0712 12:35:29.103366 139757 layer_factory.hpp:76] Creating layer inception_4d/output
I0712 12:35:29.103379 139757 net.cpp:106] Creating Layer inception_4d/output
I0712 12:35:29.103387 139757 net.cpp:454] inception_4d/output <- inception_4d/1x1
I0712 12:35:29.103397 139757 net.cpp:454] inception_4d/output <- inception_4d/3x3
I0712 12:35:29.103406 139757 net.cpp:454] inception_4d/output <- inception_4d/5x5
I0712 12:35:29.103415 139757 net.cpp:454] inception_4d/output <- inception_4d/pool_proj
I0712 12:35:29.103425 139757 net.cpp:411] inception_4d/output -> inception_4d/output
I0712 12:35:29.103484 139757 net.cpp:150] Setting up inception_4d/output
I0712 12:35:29.103497 139757 net.cpp:157] Top shape: 100 528 14 14 (10348800)
I0712 12:35:29.103530 139757 net.cpp:165] Memory required for data: 4821790808
I0712 12:35:29.103539 139757 layer_factory.hpp:76] Creating layer inception_4d/output_inception_4d/output_0_split
I0712 12:35:29.103554 139757 net.cpp:106] Creating Layer inception_4d/output_inception_4d/output_0_split
I0712 12:35:29.103564 139757 net.cpp:454] inception_4d/output_inception_4d/output_0_split <- inception_4d/output
I0712 12:35:29.103579 139757 net.cpp:411] inception_4d/output_inception_4d/output_0_split -> inception_4d/output_inception_4d/output_0_split_0
I0712 12:35:29.103591 139757 net.cpp:411] inception_4d/output_inception_4d/output_0_split -> inception_4d/output_inception_4d/output_0_split_1
I0712 12:35:29.103602 139757 net.cpp:411] inception_4d/output_inception_4d/output_0_split -> inception_4d/output_inception_4d/output_0_split_2
I0712 12:35:29.103613 139757 net.cpp:411] inception_4d/output_inception_4d/output_0_split -> inception_4d/output_inception_4d/output_0_split_3
I0712 12:35:29.103623 139757 net.cpp:411] inception_4d/output_inception_4d/output_0_split -> inception_4d/output_inception_4d/output_0_split_4
I0712 12:35:29.103772 139757 net.cpp:150] Setting up inception_4d/output_inception_4d/output_0_split
I0712 12:35:29.103786 139757 net.cpp:157] Top shape: 100 528 14 14 (10348800)
I0712 12:35:29.103796 139757 net.cpp:157] Top shape: 100 528 14 14 (10348800)
I0712 12:35:29.103804 139757 net.cpp:157] Top shape: 100 528 14 14 (10348800)
I0712 12:35:29.103812 139757 net.cpp:157] Top shape: 100 528 14 14 (10348800)
I0712 12:35:29.103821 139757 net.cpp:157] Top shape: 100 528 14 14 (10348800)
I0712 12:35:29.103828 139757 net.cpp:165] Memory required for data: 5028766808
I0712 12:35:29.103837 139757 layer_factory.hpp:76] Creating layer loss2/ave_pool
I0712 12:35:29.103847 139757 net.cpp:106] Creating Layer loss2/ave_pool
I0712 12:35:29.103855 139757 net.cpp:454] loss2/ave_pool <- inception_4d/output_inception_4d/output_0_split_0
I0712 12:35:29.103869 139757 net.cpp:411] loss2/ave_pool -> loss2/ave_pool
I0712 12:35:29.104125 139757 net.cpp:150] Setting up loss2/ave_pool
I0712 12:35:29.104146 139757 net.cpp:157] Top shape: 100 528 4 4 (844800)
I0712 12:35:29.104153 139757 net.cpp:165] Memory required for data: 5032146008
I0712 12:35:29.104162 139757 layer_factory.hpp:76] Creating layer loss2/conv
I0712 12:35:29.104176 139757 net.cpp:106] Creating Layer loss2/conv
I0712 12:35:29.104185 139757 net.cpp:454] loss2/conv <- loss2/ave_pool
I0712 12:35:29.104198 139757 net.cpp:411] loss2/conv -> loss2/conv
I0712 12:35:29.106916 139757 cudnn_conv_layer.cpp:194] Reallocating workspace storage: 6336
I0712 12:35:29.106988 139757 net.cpp:150] Setting up loss2/conv
I0712 12:35:29.107005 139757 net.cpp:157] Top shape: 100 128 4 4 (204800)
I0712 12:35:29.107017 139757 net.cpp:165] Memory required for data: 5032965208
I0712 12:35:29.107029 139757 layer_factory.hpp:76] Creating layer loss2/relu_conv
I0712 12:35:29.107043 139757 net.cpp:106] Creating Layer loss2/relu_conv
I0712 12:35:29.107053 139757 net.cpp:454] loss2/relu_conv <- loss2/conv
I0712 12:35:29.107064 139757 net.cpp:397] loss2/relu_conv -> loss2/conv (in-place)
I0712 12:35:29.107460 139757 net.cpp:150] Setting up loss2/relu_conv
I0712 12:35:29.107483 139757 net.cpp:157] Top shape: 100 128 4 4 (204800)
I0712 12:35:29.107493 139757 net.cpp:165] Memory required for data: 5033784408
I0712 12:35:29.107502 139757 layer_factory.hpp:76] Creating layer loss2/fc
I0712 12:35:29.107516 139757 net.cpp:106] Creating Layer loss2/fc
I0712 12:35:29.107524 139757 net.cpp:454] loss2/fc <- loss2/conv
I0712 12:35:29.107537 139757 net.cpp:411] loss2/fc -> loss2/fc
I0712 12:35:29.127323 139757 net.cpp:150] Setting up loss2/fc
I0712 12:35:29.127365 139757 net.cpp:157] Top shape: 100 1024 (102400)
I0712 12:35:29.127374 139757 net.cpp:165] Memory required for data: 5034194008
I0712 12:35:29.127390 139757 layer_factory.hpp:76] Creating layer loss2/relu_fc
I0712 12:35:29.127408 139757 net.cpp:106] Creating Layer loss2/relu_fc
I0712 12:35:29.127419 139757 net.cpp:454] loss2/relu_fc <- loss2/fc
I0712 12:35:29.127454 139757 net.cpp:397] loss2/relu_fc -> loss2/fc (in-place)
I0712 12:35:29.127797 139757 net.cpp:150] Setting up loss2/relu_fc
I0712 12:35:29.127818 139757 net.cpp:157] Top shape: 100 1024 (102400)
I0712 12:35:29.127827 139757 net.cpp:165] Memory required for data: 5034603608
I0712 12:35:29.127836 139757 layer_factory.hpp:76] Creating layer loss2/drop_fc
I0712 12:35:29.127851 139757 net.cpp:106] Creating Layer loss2/drop_fc
I0712 12:35:29.127861 139757 net.cpp:454] loss2/drop_fc <- loss2/fc
I0712 12:35:29.127869 139757 net.cpp:397] loss2/drop_fc -> loss2/fc (in-place)
I0712 12:35:29.127928 139757 net.cpp:150] Setting up loss2/drop_fc
I0712 12:35:29.127939 139757 net.cpp:157] Top shape: 100 1024 (102400)
I0712 12:35:29.127948 139757 net.cpp:165] Memory required for data: 5035013208
I0712 12:35:29.127956 139757 layer_factory.hpp:76] Creating layer loss2/classifier
I0712 12:35:29.127974 139757 net.cpp:106] Creating Layer loss2/classifier
I0712 12:35:29.127984 139757 net.cpp:454] loss2/classifier <- loss2/fc
I0712 12:35:29.127995 139757 net.cpp:411] loss2/classifier -> loss2/classifier
I0712 12:35:29.128226 139757 net.cpp:150] Setting up loss2/classifier
I0712 12:35:29.128242 139757 net.cpp:157] Top shape: 100 2 (200)
I0712 12:35:29.128250 139757 net.cpp:165] Memory required for data: 5035014008
I0712 12:35:29.128262 139757 layer_factory.hpp:76] Creating layer loss2/classifier_loss2/classifier_0_split
I0712 12:35:29.128273 139757 net.cpp:106] Creating Layer loss2/classifier_loss2/classifier_0_split
I0712 12:35:29.128283 139757 net.cpp:454] loss2/classifier_loss2/classifier_0_split <- loss2/classifier
I0712 12:35:29.128294 139757 net.cpp:411] loss2/classifier_loss2/classifier_0_split -> loss2/classifier_loss2/classifier_0_split_0
I0712 12:35:29.128307 139757 net.cpp:411] loss2/classifier_loss2/classifier_0_split -> loss2/classifier_loss2/classifier_0_split_1
I0712 12:35:29.128378 139757 net.cpp:150] Setting up loss2/classifier_loss2/classifier_0_split
I0712 12:35:29.128392 139757 net.cpp:157] Top shape: 100 2 (200)
I0712 12:35:29.128401 139757 net.cpp:157] Top shape: 100 2 (200)
I0712 12:35:29.128409 139757 net.cpp:165] Memory required for data: 5035015608
I0712 12:35:29.128417 139757 layer_factory.hpp:76] Creating layer loss2/loss
I0712 12:35:29.128428 139757 net.cpp:106] Creating Layer loss2/loss
I0712 12:35:29.128437 139757 net.cpp:454] loss2/loss <- loss2/classifier_loss2/classifier_0_split_0
I0712 12:35:29.128448 139757 net.cpp:454] loss2/loss <- label_data_1_split_2
…
I0712 12:35:29.129300 139757 net.cpp:165] Memory required for data: 5035015616
I0712 12:35:29.129307 139757 layer_factory.hpp:76] Creating layer inception_4e/1x1
I0712 12:35:29.129326 139757 net.cpp:106] Creating Layer inception_4e/1x1
I0712 12:35:29.129336 139757 net.cpp:454] inception_4e/1x1 <- inception_4d/output_inception_4d/output_0_split_1
I0712 12:35:29.129348 139757 net.cpp:411] inception_4e/1x1 -> inception_4e/1x1
I0712 12:35:29.131850 139757 cudnn_conv_layer.cpp:194] Reallocating workspace storage: 6336
I0712 12:35:29.131916 139757 net.cpp:150] Setting up inception_4e/1x1
I0712 12:35:29.131932 139757 net.cpp:157] Top shape: 100 256 14 14 (5017600)
I0712 12:35:29.131961 139757 net.cpp:165] Memory required for data: 5055086016
I0712 12:35:29.131974 139757 layer_factory.hpp:76] Creating layer inception_4e/relu_1x1
I0712 12:35:29.131990 139757 net.cpp:106] Creating Layer inception_4e/relu_1x1
I0712 12:35:29.132001 139757 net.cpp:454] inception_4e/relu_1x1 <- inception_4e/1x1
I0712 12:35:29.132011 139757 net.cpp:397] inception_4e/relu_1x1 -> inception_4e/1x1 (in-place)
I0712 12:35:29.132443 139757 net.cpp:150] Setting up inception_4e/relu_1x1
I0712 12:35:29.132467 139757 net.cpp:157] Top shape: 100 256 14 14 (5017600)
I0712 12:35:29.132475 139757 net.cpp:165] Memory required for data: 5075156416
I0712 12:35:29.132484 139757 layer_factory.hpp:76] Creating layer inception_4e/3x3_reduce
I0712 12:35:29.132498 139757 net.cpp:106] Creating Layer inception_4e/3x3_reduce
I0712 12:35:29.132506 139757 net.cpp:454] inception_4e/3x3_reduce <- inception_4d/output_inception_4d/output_0_split_2
I0712 12:35:29.132520 139757 net.cpp:411] inception_4e/3x3_reduce -> inception_4e/3x3_reduce
I0712 12:35:29.135349 139757 cudnn_conv_layer.cpp:194] Reallocating workspace storage: 6336
I0712 12:35:29.135416 139757 net.cpp:150] Setting up inception_4e/3x3_reduce
I0712 12:35:29.135432 139757 net.cpp:157] Top shape: 100 160 14 14 (3136000)
I0712 12:35:29.135442 139757 net.cpp:165] Memory required for data: 5087700416
I0712 12:35:29.135454 139757 layer_factory.hpp:76] Creating layer inception_4e/relu_3x3_reduce
I0712 12:35:29.135468 139757 net.cpp:106] Creating Layer inception_4e/relu_3x3_reduce
I0712 12:35:29.135478 139757 net.cpp:454] inception_4e/relu_3x3_reduce <- inception_4e/3x3_reduce
I0712 12:35:29.135491 139757 net.cpp:397] inception_4e/relu_3x3_reduce -> inception_4e/3x3_reduce (in-place)
I0712 12:35:29.135717 139757 net.cpp:150] Setting up inception_4e/relu_3x3_reduce
I0712 12:35:29.135735 139757 net.cpp:157] Top shape: 100 160 14 14 (3136000)
I0712 12:35:29.135743 139757 net.cpp:165] Memory required for data: 5100244416
I0712 12:35:29.135752 139757 layer_factory.hpp:76] Creating layer inception_4e/3x3
I0712 12:35:29.135787 139757 net.cpp:106] Creating Layer inception_4e/3x3
I0712 12:35:29.135798 139757 net.cpp:454] inception_4e/3x3 <- inception_4e/3x3_reduce
I0712 12:35:29.135812 139757 net.cpp:411] inception_4e/3x3 -> inception_4e/3x3
I0712 12:35:29.141846 139757 cudnn_conv_layer.cpp:194] Reallocating workspace storage: 17280
I0712 12:35:29.141893 139757 net.cpp:150] Setting up inception_4e/3x3
I0712 12:35:29.141907 139757 net.cpp:157] Top shape: 100 320 14 14 (6272000)
I0712 12:35:29.141916 139757 net.cpp:165] Memory required for data: 5125332416
I0712 12:35:29.141932 139757 layer_factory.hpp:76] Creating layer inception_4e/relu_3x3
I0712 12:35:29.141949 139757 net.cpp:106] Creating Layer inception_4e/relu_3x3
I0712 12:35:29.141962 139757 net.cpp:454] inception_4e/relu_3x3 <- inception_4e/3x3
I0712 12:35:29.141973 139757 net.cpp:397] inception_4e/relu_3x3 -> inception_4e/3x3 (in-place)
I0712 12:35:29.142385 139757 net.cpp:150] Setting up inception_4e/relu_3x3
I0712 12:35:29.142405 139757 net.cpp:157] Top shape: 100 320 14 14 (6272000)
I0712 12:35:29.142415 139757 net.cpp:165] Memory required for data: 5150420416
I0712 12:35:29.142423 139757 layer_factory.hpp:76] Creating layer inception_4e/5x5_reduce
I0712 12:35:29.142441 139757 net.cpp:106] Creating Layer inception_4e/5x5_reduce
I0712 12:35:29.142452 139757 net.cpp:454] inception_4e/5x5_reduce <- inception_4d/output_inception_4d/output_0_split_3
I0712 12:35:29.142463 139757 net.cpp:411] inception_4e/5x5_reduce -> inception_4e/5x5_reduce
I0712 12:35:29.144070 139757 cudnn_conv_layer.cpp:194] Reallocating workspace storage: 6336
I0712 12:35:29.144131 139757 net.cpp:150] Setting up inception_4e/5x5_reduce
I0712 12:35:29.144147 139757 net.cpp:157] Top shape: 100 32 14 14 (627200)
I0712 12:35:29.144155 139757 net.cpp:165] Memory required for data: 5152929216
I0712 12:35:29.144168 139757 layer_factory.hpp:76] Creating layer inception_4e/relu_5x5_reduce
I0712 12:35:29.144183 139757 net.cpp:106] Creating Layer inception_4e/relu_5x5_reduce
I0712 12:35:29.144219 139757 net.cpp:454] inception_4e/relu_5x5_reduce <- inception_4e/5x5_reduce
I0712 12:35:29.144230 139757 net.cpp:397] inception_4e/relu_5x5_reduce -> inception_4e/5x5_reduce (in-place)
I0712 12:35:29.144460 139757 net.cpp:150] Setting up inception_4e/relu_5x5_reduce
I0712 12:35:29.144480 139757 net.cpp:157] Top shape: 100 32 14 14 (627200)
I0712 12:35:29.144490 139757 net.cpp:165] Memory required for data: 5155438016
I0712 12:35:29.144497 139757 layer_factory.hpp:76] Creating layer inception_4e/5x5
I0712 12:35:29.144512 139757 net.cpp:106] Creating Layer inception_4e/5x5
I0712 12:35:29.144522 139757 net.cpp:454] inception_4e/5x5 <- inception_4e/5x5_reduce
I0712 12:35:29.144534 139757 net.cpp:411] inception_4e/5x5 -> inception_4e/5x5
I0712 12:35:29.146786 139757 net.cpp:150] Setting up inception_4e/5x5
I0712 12:35:29.146813 139757 net.cpp:157] Top shape: 100 128 14 14 (2508800)
I0712 12:35:29.146822 139757 net.cpp:165] Memory required for data: 5165473216
I0712 12:35:29.146836 139757 layer_factory.hpp:76] Creating layer inception_4e/relu_5x5
I0712 12:35:29.146848 139757 net.cpp:106] Creating Layer inception_4e/relu_5x5
I0712 12:35:29.146858 139757 net.cpp:454] inception_4e/relu_5x5 <- inception_4e/5x5
I0712 12:35:29.146869 139757 net.cpp:397] inception_4e/relu_5x5 -> inception_4e/5x5 (in-place)
I0712 12:35:29.147099 139757 net.cpp:150] Setting up inception_4e/relu_5x5
I0712 12:35:29.147119 139757 net.cpp:157] Top shape: 100 128 14 14 (2508800)
I0712 12:35:29.147127 139757 net.cpp:165] Memory required for data: 5175508416
I0712 12:35:29.147136 139757 layer_factory.hpp:76] Creating layer inception_4e/pool
I0712 12:35:29.147152 139757 net.cpp:106] Creating Layer inception_4e/pool
I0712 12:35:29.147166 139757 net.cpp:454] inception_4e/pool <- inception_4d/output_inception_4d/output_0_split_4
I0712 12:35:29.147176 139757 net.cpp:411] inception_4e/pool -> inception_4e/pool
I0712 12:35:29.147635 139757 net.cpp:150] Setting up inception_4e/pool
I0712 12:35:29.147656 139757 net.cpp:157] Top shape: 100 528 14 14 (10348800)
I0712 12:35:29.147667 139757 net.cpp:165] Memory required for data: 5216903616
I0712 12:35:29.147676 139757 layer_factory.hpp:76] Creating layer inception_4e/pool_proj
I0712 12:35:29.147691 139757 net.cpp:106] Creating Layer inception_4e/pool_proj
I0712 12:35:29.147699 139757 net.cpp:454] inception_4e/pool_proj <- inception_4e/pool
I0712 12:35:29.147713 139757 net.cpp:411] inception_4e/pool_proj -> inception_4e/pool_proj
I0712 12:35:29.149693 139757 cudnn_conv_layer.cpp:194] Reallocating workspace storage: 6336
I0712 12:35:29.149755 139757 net.cpp:150] Setting up inception_4e/pool_proj
I0712 12:35:29.149770 139757 net.cpp:157] Top shape: 100 128 14 14 (2508800)
I0712 12:35:29.149780 139757 net.cpp:165] Memory required for data: 5226938816
I0712 12:35:29.149792 139757 layer_factory.hpp:76] Creating layer inception_4e/relu_pool_proj
I0712 12:35:29.149807 139757 net.cpp:106] Creating Layer inception_4e/relu_pool_proj
I0712 12:35:29.149817 139757 net.cpp:454] inception_4e/relu_pool_proj <- inception_4e/pool_proj
I0712 12:35:29.149829 139757 net.cpp:397] inception_4e/relu_pool_proj -> inception_4e/pool_proj (in-place)
I0712 12:35:29.150056 139757 net.cpp:150] Setting up inception_4e/relu_pool_proj
I0712 12:35:29.150075 139757 net.cpp:157] Top shape: 100 128 14 14 (2508800)
I0712 12:35:29.150084 139757 net.cpp:165] Memory required for data: 5236974016
I0712 12:35:29.150092 139757 layer_factory.hpp:76] Creating layer inception_4e/output
I0712 12:35:29.150104 139757 net.cpp:106] Creating Layer inception_4e/output
I0712 12:35:29.150112 139757 net.cpp:454] inception_4e/output <- inception_4e/1x1
I0712 12:35:29.150122 139757 net.cpp:454] inception_4e/output <- inception_4e/3x3
I0712 12:35:29.150132 139757 net.cpp:454] inception_4e/output <- inception_4e/5x5
I0712 12:35:29.150141 139757 net.cpp:454] inception_4e/output <- inception_4e/pool_proj
I0712 12:35:29.150151 139757 net.cpp:411] inception_4e/output -> inception_4e/output
I0712 12:35:29.150209 139757 net.cpp:150] Setting up inception_4e/output
I0712 12:35:29.150243 139757 net.cpp:157] Top shape: 100 832 14 14 (16307200)
I0712 12:35:29.150251 139757 net.cpp:165] Memory required for data: 5302202816
I0712 12:35:29.150260 139757 layer_factory.hpp:76] Creating layer pool4/3x3_s2
I0712 12:35:29.150274 139757 net.cpp:106] Creating Layer pool4/3x3_s2
I0712 12:35:29.150282 139757 net.cpp:454] pool4/3x3_s2 <- inception_4e/output
I0712 12:35:29.150293 139757 net.cpp:411] pool4/3x3_s2 -> pool4/3x3_s2
I0712 12:35:29.150774 139757 net.cpp:150] Setting up pool4/3x3_s2
I0712 12:35:29.150797 139757 net.cpp:157] Top shape: 100 832 7 7 (4076800)
I0712 12:35:29.150806 139757 net.cpp:165] Memory required for data: 5318510016
I0712 12:35:29.150816 139757 layer_factory.hpp:76] Creating layer pool4/3x3_s2_pool4/3x3_s2_0_split
I0712 12:35:29.150827 139757 net.cpp:106] Creating Layer pool4/3x3_s2_pool4/3x3_s2_0_split
I0712 12:35:29.150837 139757 net.cpp:454] pool4/3x3_s2_pool4/3x3_s2_0_split <- pool4/3x3_s2
I0712 12:35:29.150847 139757 net.cpp:411] pool4/3x3_s2_pool4/3x3_s2_0_split -> pool4/3x3_s2_pool4/3x3_s2_0_split_0
I0712 12:35:29.150859 139757 net.cpp:411] pool4/3x3_s2_pool4/3x3_s2_0_split -> pool4/3x3_s2_pool4/3x3_s2_0_split_1
I0712 12:35:29.150871 139757 net.cpp:411] pool4/3x3_s2_pool4/3x3_s2_0_split -> pool4/3x3_s2_pool4/3x3_s2_0_split_2
I0712 12:35:29.150882 139757 net.cpp:411] pool4/3x3_s2_pool4/3x3_s2_0_split -> pool4/3x3_s2_pool4/3x3_s2_0_split_3
I0712 12:35:29.151006 139757 net.cpp:150] Setting up pool4/3x3_s2_pool4/3x3_s2_0_split
I0712 12:35:29.151022 139757 net.cpp:157] Top shape: 100 832 7 7 (4076800)
I0712 12:35:29.151031 139757 net.cpp:157] Top shape: 100 832 7 7 (4076800)
I0712 12:35:29.151041 139757 net.cpp:157] Top shape: 100 832 7 7 (4076800)
I0712 12:35:29.151049 139757 net.cpp:157] Top shape: 100 832 7 7 (4076800)
I0712 12:35:29.151057 139757 net.cpp:165] Memory required for data: 5383738816
I0712 12:35:29.151064 139757 layer_factory.hpp:76] Creating layer inception_5a/1x1
I0712 12:35:29.151079 139757 net.cpp:106] Creating Layer inception_5a/1x1
I0712 12:35:29.151088 139757 net.cpp:454] inception_5a/1x1 <- pool4/3x3_s2_pool4/3x3_s2_0_split_0
I0712 12:35:29.151101 139757 net.cpp:411] inception_5a/1x1 -> inception_5a/1x1
I0712 12:35:29.154958 139757 cudnn_conv_layer.cpp:194] Reallocating workspace storage: 9984
I0712 12:35:29.155028 139757 net.cpp:150] Setting up inception_5a/1x1
I0712 12:35:29.155052 139757 net.cpp:157] Top shape: 100 256 7 7 (1254400)
I0712 12:35:29.155066 139757 net.cpp:165] Memory required for data: 5388756416
I0712 12:35:29.155079 139757 layer_factory.hpp:76] Creating layer inception_5a/relu_1x1
I0712 12:35:29.155094 139757 net.cpp:106] Creating Layer inception_5a/relu_1x1
I0712 12:35:29.155105 139757 net.cpp:454] inception_5a/relu_1x1 <- inception_5a/1x1
I0712 12:35:29.155117 139757 net.cpp:397] inception_5a/relu_1x1 -> inception_5a/1x1 (in-place)
I0712 12:35:29.155364 139757 net.cpp:150] Setting up inception_5a/relu_1x1
I0712 12:35:29.155382 139757 net.cpp:157] Top shape: 100 256 7 7 (1254400)
I0712 12:35:29.155390 139757 net.cpp:165] Memory required for data: 5393774016
I0712 12:35:29.155400 139757 layer_factory.hpp:76] Creating layer inception_5a/3x3_reduce
I0712 12:35:29.155416 139757 net.cpp:106] Creating Layer inception_5a/3x3_reduce
I0712 12:35:29.155426 139757 net.cpp:454] inception_5a/3x3_reduce <- pool4/3x3_s2_pool4/3x3_s2_0_split_1
I0712 12:35:29.155438 139757 net.cpp:411] inception_5a/3x3_reduce -> inception_5a/3x3_reduce
I0712 12:35:29.158690 139757 cudnn_conv_layer.cpp:194] Reallocating workspace storage: 9984
I0712 12:35:29.158756 139757 net.cpp:150] Setting up inception_5a/3x3_reduce
I0712 12:35:29.158771 139757 net.cpp:157] Top shape: 100 160 7 7 (784000)
I0712 12:35:29.158781 139757 net.cpp:165] Memory required for data: 5396910016
I0712 12:35:29.158792 139757 layer_factory.hpp:76] Creating layer inception_5a/relu_3x3_reduce
I0712 12:35:29.158805 139757 net.cpp:106] Creating Layer inception_5a/relu_3x3_reduce
I0712 12:35:29.158815 139757 net.cpp:454] inception_5a/relu_3x3_reduce <- inception_5a/3x3_reduce
I0712 12:35:29.158852 139757 net.cpp:397] inception_5a/relu_3x3_reduce -> inception_5a/3x3_reduce (in-place)
I0712 12:35:29.159240 139757 net.cpp:150] Setting up inception_5a/relu_3x3_reduce
I0712 12:35:29.159260 139757 net.cpp:157] Top shape: 100 160 7 7 (784000)
I0712 12:35:29.159270 139757 net.cpp:165] Memory required for data: 5400046016
I0712 12:35:29.159277 139757 layer_factory.hpp:76] Creating layer inception_5a/3x3
I0712 12:35:29.159293 139757 net.cpp:106] Creating Layer inception_5a/3x3
I0712 12:35:29.159303 139757 net.cpp:454] inception_5a/3x3 <- inception_5a/3x3_reduce
I0712 12:35:29.159317 139757 net.cpp:411] inception_5a/3x3 -> inception_5a/3x3
I0712 12:35:29.165362 139757 net.cpp:150] Setting up inception_5a/3x3
I0712 12:35:29.165405 139757 net.cpp:157] Top shape: 100 320 7 7 (1568000)
I0712 12:35:29.165415 139757 net.cpp:165] Memory required for data: 5406318016
I0712 12:35:29.165428 139757 layer_factory.hpp:76] Creating layer inception_5a/relu_3x3
I0712 12:35:29.165448 139757 net.cpp:106] Creating Layer inception_5a/relu_3x3
I0712 12:35:29.165462 139757 net.cpp:454] inception_5a/relu_3x3 <- inception_5a/3x3
I0712 12:35:29.165477 139757 net.cpp:397] inception_5a/relu_3x3 -> inception_5a/3x3 (in-place)
I0712 12:35:29.165909 139757 net.cpp:150] Setting up inception_5a/relu_3x3
I0712 12:35:29.165937 139757 net.cpp:157] Top shape: 100 320 7 7 (1568000)
I0712 12:35:29.165948 139757 net.cpp:165] Memory required for data: 5412590016
I0712 12:35:29.165959 139757 layer_factory.hpp:76] Creating layer inception_5a/5x5_reduce
I0712 12:35:29.165982 139757 net.cpp:106] Creating Layer inception_5a/5x5_reduce
I0712 12:35:29.165993 139757 net.cpp:454] inception_5a/5x5_reduce <- pool4/3x3_s2_pool4/3x3_s2_0_split_2
I0712 12:35:29.166005 139757 net.cpp:411] inception_5a/5x5_reduce -> inception_5a/5x5_reduce
I0712 12:35:29.168431 139757 net.cpp:150] Setting up inception_5a/5x5_reduce
I0712 12:35:29.168459 139757 net.cpp:157] Top shape: 100 32 7 7 (156800)
I0712 12:35:29.168468 139757 net.cpp:165] Memory required for data: 5413217216
I0712 12:35:29.168480 139757 layer_factory.hpp:76] Creating layer inception_5a/relu_5x5_reduce
I0712 12:35:29.168494 139757 net.cpp:106] Creating Layer inception_5a/relu_5x5_reduce
I0712 12:35:29.168505 139757 net.cpp:454] inception_5a/relu_5x5_reduce <- inception_5a/5x5_reduce
I0712 12:35:29.168519 139757 net.cpp:397] inception_5a/relu_5x5_reduce -> inception_5a/5x5_reduce (in-place)
I0712 12:35:29.168747 139757 net.cpp:150] Setting up inception_5a/relu_5x5_reduce
I0712 12:35:29.168766 139757 net.cpp:157] Top shape: 100 32 7 7 (156800)
I0712 12:35:29.168774 139757 net.cpp:165] Memory required for data: 5413844416
I0712 12:35:29.168782 139757 layer_factory.hpp:76] Creating layer inception_5a/5x5
I0712 12:35:29.168798 139757 net.cpp:106] Creating Layer inception_5a/5x5
I0712 12:35:29.168808 139757 net.cpp:454] inception_5a/5x5 <- inception_5a/5x5_reduce
I0712 12:35:29.168822 139757 net.cpp:411] inception_5a/5x5 -> inception_5a/5x5
I0712 12:35:29.171061 139757 net.cpp:150] Setting up inception_5a/5x5
I0712 12:35:29.171085 139757 net.cpp:157] Top shape: 100 128 7 7 (627200)
I0712 12:35:29.171095 139757 net.cpp:165] Memory required for data: 5416353216
I0712 12:35:29.171108 139757 layer_factory.hpp:76] Creating layer inception_5a/relu_5x5
I0712 12:35:29.171118 139757 net.cpp:106] Creating Layer inception_5a/relu_5x5
I0712 12:35:29.171128 139757 net.cpp:454] inception_5a/relu_5x5 <- inception_5a/5x5
I0712 12:35:29.171140 139757 net.cpp:397] inception_5a/relu_5x5 -> inception_5a/5x5 (in-place)
I0712 12:35:29.171555 139757 net.cpp:150] Setting up inception_5a/relu_5x5
I0712 12:35:29.171576 139757 net.cpp:157] Top shape: 100 128 7 7 (627200)
I0712 12:35:29.171584 139757 net.cpp:165] Memory required for data: 5418862016
I0712 12:35:29.171593 139757 layer_factory.hpp:76] Creating layer inception_5a/pool
I0712 12:35:29.171607 139757 net.cpp:106] Creating Layer inception_5a/pool
I0712 12:35:29.171615 139757 net.cpp:454] inception_5a/pool <- pool4/3x3_s2_pool4/3x3_s2_0_split_3
I0712 12:35:29.171627 139757 net.cpp:411] inception_5a/pool -> inception_5a/pool
I0712 12:35:29.171967 139757 net.cpp:150] Setting up inception_5a/pool
I0712 12:35:29.171988 139757 net.cpp:157] Top shape: 100 832 7 7 (4076800)
I0712 12:35:29.171996 139757 net.cpp:165] Memory required for data: 5435169216
I0712 12:35:29.172005 139757 layer_factory.hpp:76] Creating layer inception_5a/pool_proj
I0712 12:35:29.172020 139757 net.cpp:106] Creating Layer inception_5a/pool_proj
I0712 12:35:29.172029 139757 net.cpp:454] inception_5a/pool_proj <- inception_5a/pool
I0712 12:35:29.172044 139757 net.cpp:411] inception_5a/pool_proj -> inception_5a/pool_proj
I0712 12:35:29.174947 139757 cudnn_conv_layer.cpp:194] Reallocating workspace storage: 9984
I0712 12:35:29.175017 139757 net.cpp:150] Setting up inception_5a/pool_proj
I0712 12:35:29.175035 139757 net.cpp:157] Top shape: 100 128 7 7 (627200)
I0712 12:35:29.175045 139757 net.cpp:165] Memory required for data: 5437678016
I0712 12:35:29.175057 139757 layer_factory.hpp:76] Creating layer inception_5a/relu_pool_proj
I0712 12:35:29.175071 139757 net.cpp:106] Creating Layer inception_5a/relu_pool_proj
I0712 12:35:29.175081 139757 net.cpp:454] inception_5a/relu_pool_proj <- inception_5a/pool_proj
I0712 12:35:29.175094 139757 net.cpp:397] inception_5a/relu_pool_proj -> inception_5a/pool_proj (in-place)
I0712 12:35:29.175323 139757 net.cpp:150] Setting up inception_5a/relu_pool_proj
I0712 12:35:29.175339 139757 net.cpp:157] Top shape: 100 128 7 7 (627200)
I0712 12:35:29.175348 139757 net.cpp:165] Memory required for data: 5440186816
I0712 12:35:29.175356 139757 layer_factory.hpp:76] Creating layer inception_5a/output
I0712 12:35:29.175369 139757 net.cpp:106] Creating Layer inception_5a/output
I0712 12:35:29.175377 139757 net.cpp:454] inception_5a/output <- inception_5a/1x1
I0712 12:35:29.175389 139757 net.cpp:454] inception_5a/output <- inception_5a/3x3
I0712 12:35:29.175397 139757 net.cpp:454] inception_5a/output <- inception_5a/5x5
I0712 12:35:29.175406 139757 net.cpp:454] inception_5a/output <- inception_5a/pool_proj
I0712 12:35:29.175418 139757 net.cpp:411] inception_5a/output -> inception_5a/output
I0712 12:35:29.175480 139757 net.cpp:150] Setting up inception_5a/output
I0712 12:35:29.175494 139757 net.cpp:157] Top shape: 100 832 7 7 (4076800)
I0712 12:35:29.175503 139757 net.cpp:165] Memory required for data: 5456494016
I0712 12:35:29.175511 139757 layer_factory.hpp:76] Creating layer inception_5a/output_inception_5a/output_0_split
I0712 12:35:29.175523 139757 net.cpp:106] Creating Layer inception_5a/output_inception_5a/output_0_split
I0712 12:35:29.175532 139757 net.cpp:454] inception_5a/output_inception_5a/output_0_split <- inception_5a/output
I0712 12:35:29.175542 139757 net.cpp:411] inception_5a/output_inception_5a/output_0_split -> inception_5a/output_inception_5a/output_0_split_0
I0712 12:35:29.175560 139757 net.cpp:411] inception_5a/output_inception_5a/output_0_split -> inception_5a/output_inception_5a/output_0_split_1
I0712 12:35:29.175573 139757 net.cpp:411] inception_5a/output_inception_5a/output_0_split -> inception_5a/output_inception_5a/output_0_split_2
I0712 12:35:29.175585 139757 net.cpp:411] inception_5a/output_inception_5a/output_0_split -> inception_5a/output_inception_5a/output_0_split_3
I0712 12:35:29.175717 139757 net.cpp:150] Setting up inception_5a/output_inception_5a/output_0_split
I0712 12:35:29.175731 139757 net.cpp:157] Top shape: 100 832 7 7 (4076800)
I0712 12:35:29.175740 139757 net.cpp:157] Top shape: 100 832 7 7 (4076800)
I0712 12:35:29.175750 139757 net.cpp:157] Top shape: 100 832 7 7 (4076800)
I0712 12:35:29.175757 139757 net.cpp:157] Top shape: 100 832 7 7 (4076800)
I0712 12:35:29.175765 139757 net.cpp:165] Memory required for data: 5521722816
I0712 12:35:29.175773 139757 layer_factory.hpp:76] Creating layer inception_5b/1x1
I0712 12:35:29.175789 139757 net.cpp:106] Creating Layer inception_5b/1x1
I0712 12:35:29.175801 139757 net.cpp:454] inception_5b/1x1 <- inception_5a/output_inception_5a/output_0_split_0
I0712 12:35:29.175812 139757 net.cpp:411] inception_5b/1x1 -> inception_5b/1x1
I0712 12:35:29.180694 139757 cudnn_conv_layer.cpp:194] Reallocating workspace storage: 9984
I0712 12:35:29.180773 139757 net.cpp:150] Setting up inception_5b/1x1
I0712 12:35:29.180788 139757 net.cpp:157] Top shape: 100 384 7 7 (1881600)
I0712 12:35:29.180796 139757 net.cpp:165] Memory required for data: 5529249216
I0712 12:35:29.180810 139757 layer_factory.hpp:76] Creating layer inception_5b/relu_1x1
I0712 12:35:29.180824 139757 net.cpp:106] Creating Layer inception_5b/relu_1x1
I0712 12:35:29.180835 139757 net.cpp:454] inception_5b/relu_1x1 <- inception_5b/1x1
I0712 12:35:29.180850 139757 net.cpp:397] inception_5b/relu_1x1 -> inception_5b/1x1 (in-place)
I0712 12:35:29.181272 139757 net.cpp:150] Setting up inception_5b/relu_1x1
I0712 12:35:29.181294 139757 net.cpp:157] Top shape: 100 384 7 7 (1881600)
I0712 12:35:29.181303 139757 net.cpp:165] Memory required for data: 5536775616
I0712 12:35:29.181311 139757 layer_factory.hpp:76] Creating layer inception_5b/3x3_reduce
I0712 12:35:29.181329 139757 net.cpp:106] Creating Layer inception_5b/3x3_reduce
I0712 12:35:29.181339 139757 net.cpp:454] inception_5b/3x3_reduce <- inception_5a/output_inception_5a/output_0_split_1
I0712 12:35:29.181354 139757 net.cpp:411] inception_5b/3x3_reduce -> inception_5b/3x3_reduce
I0712 12:35:29.184684 139757 cudnn_conv_layer.cpp:194] Reallocating workspace storage: 9984
I0712 12:35:29.184746 139757 net.cpp:150] Setting up inception_5b/3x3_reduce
I0712 12:35:29.184762 139757 net.cpp:157] Top shape: 100 192 7 7 (940800)
I0712 12:35:29.184769 139757 net.cpp:165] Memory required for data: 5540538816
I0712 12:35:29.184782 139757 layer_factory.hpp:76] Creating layer inception_5b/relu_3x3_reduce
I0712 12:35:29.184799 139757 net.cpp:106] Creating Layer inception_5b/relu_3x3_reduce
I0712 12:35:29.184810 139757 net.cpp:454] inception_5b/relu_3x3_reduce <- inception_5b/3x3_reduce
I0712 12:35:29.184821 139757 net.cpp:397] inception_5b/relu_3x3_reduce -> inception_5b/3x3_reduce (in-place)
I0712 12:35:29.185053 139757 net.cpp:150] Setting up inception_5b/relu_3x3_reduce
I0712 12:35:29.185070 139757 net.cpp:157] Top shape: 100 192 7 7 (940800)
I0712 12:35:29.185080 139757 net.cpp:165] Memory required for data: 5544302016
I0712 12:35:29.185087 139757 layer_factory.hpp:76] Creating layer inception_5b/3x3
I0712 12:35:29.185103 139757 net.cpp:106] Creating Layer inception_5b/3x3
I0712 12:35:29.185113 139757 net.cpp:454] inception_5b/3x3 <- inception_5b/3x3_reduce
I0712 12:35:29.185124 139757 net.cpp:411] inception_5b/3x3 -> inception_5b/3x3
I0712 12:35:29.193804 139757 net.cpp:150] Setting up inception_5b/3x3
I0712 12:35:29.193845 139757 net.cpp:157] Top shape: 100 384 7 7 (1881600)
I0712 12:35:29.193856 139757 net.cpp:165] Memory required for data: 5551828416
I0712 12:35:29.193869 139757 layer_factory.hpp:76] Creating layer inception_5b/relu_3x3
I0712 12:35:29.193884 139757 net.cpp:106] Creating Layer inception_5b/relu_3x3
I0712 12:35:29.193897 139757 net.cpp:454] inception_5b/relu_3x3 <- inception_5b/3x3
I0712 12:35:29.193910 139757 net.cpp:397] inception_5b/relu_3x3 -> inception_5b/3x3 (in-place)
I0712 12:35:29.194155 139757 net.cpp:150] Setting up inception_5b/relu_3x3
I0712 12:35:29.194174 139757 net.cpp:157] Top shape: 100 384 7 7 (1881600)
I0712 12:35:29.194181 139757 net.cpp:165] Memory required for data: 5559354816
I0712 12:35:29.194190 139757 layer_factory.hpp:76] Creating layer inception_5b/5x5_reduce
I0712 12:35:29.194207 139757 net.cpp:106] Creating Layer inception_5b/5x5_reduce
I0712 12:35:29.194218 139757 net.cpp:454] inception_5b/5x5_reduce <- inception_5a/output_inception_5a/output_0_split_2
I0712 12:35:29.194231 139757 net.cpp:411] inception_5b/5x5_reduce -> inception_5b/5x5_reduce
I0712 12:35:29.195827 139757 net.cpp:150] Setting up inception_5b/5x5_reduce
I0712 12:35:29.195855 139757 net.cpp:157] Top shape: 100 48 7 7 (235200)
I0712 12:35:29.195864 139757 net.cpp:165] Memory required for data: 5560295616
I0712 12:35:29.195878 139757 layer_factory.hpp:76] Creating layer inception_5b/relu_5x5_reduce
I0712 12:35:29.195894 139757 net.cpp:106] Creating Layer inception_5b/relu_5x5_reduce
I0712 12:35:29.195930 139757 net.cpp:454] inception_5b/relu_5x5_reduce <- inception_5b/5x5_reduce
I0712 12:35:29.195940 139757 net.cpp:397] inception_5b/relu_5x5_reduce -> inception_5b/5x5_reduce (in-place)
I0712 12:35:29.196581 139757 net.cpp:150] Setting up inception_5b/relu_5x5_reduce
I0712 12:35:29.196607 139757 net.cpp:157] Top shape: 100 48 7 7 (235200)
I0712 12:35:29.196616 139757 net.cpp:165] Memory required for data: 5561236416
I0712 12:35:29.196625 139757 layer_factory.hpp:76] Creating layer inception_5b/5x5
I0712 12:35:29.196640 139757 net.cpp:106] Creating Layer inception_5b/5x5
I0712 12:35:29.196650 139757 net.cpp:454] inception_5b/5x5 <- inception_5b/5x5_reduce
I0712 12:35:29.196663 139757 net.cpp:411] inception_5b/5x5 -> inception_5b/5x5
I0712 12:35:29.199246 139757 net.cpp:150] Setting up inception_5b/5x5
I0712 12:35:29.199280 139757 net.cpp:157] Top shape: 100 128 7 7 (627200)
I0712 12:35:29.199288 139757 net.cpp:165] Memory required for data: 5563745216
I0712 12:35:29.199302 139757 layer_factory.hpp:76] Creating layer inception_5b/relu_5x5
I0712 12:35:29.199321 139757 net.cpp:106] Creating Layer inception_5b/relu_5x5
I0712 12:35:29.199332 139757 net.cpp:454] inception_5b/relu_5x5 <- inception_5b/5x5
I0712 12:35:29.199345 139757 net.cpp:397] inception_5b/relu_5x5 -> inception_5b/5x5 (in-place)
I0712 12:35:29.199635 139757 net.cpp:150] Setting up inception_5b/relu_5x5
I0712 12:35:29.199656 139757 net.cpp:157] Top shape: 100 128 7 7 (627200)
I0712 12:35:29.199664 139757 net.cpp:165] Memory required for data: 5566254016
I0712 12:35:29.199673 139757 layer_factory.hpp:76] Creating layer inception_5b/pool
I0712 12:35:29.199688 139757 net.cpp:106] Creating Layer inception_5b/pool
I0712 12:35:29.199699 139757 net.cpp:454] inception_5b/pool <- inception_5a/output_inception_5a/output_0_split_3
I0712 12:35:29.199710 139757 net.cpp:411] inception_5b/pool -> inception_5b/pool
I0712 12:35:29.200193 139757 net.cpp:150] Setting up inception_5b/pool
I0712 12:35:29.200217 139757 net.cpp:157] Top shape: 100 832 7 7 (4076800)
I0712 12:35:29.200227 139757 net.cpp:165] Memory required for data: 5582561216
I0712 12:35:29.200237 139757 layer_factory.hpp:76] Creating layer inception_5b/pool_proj
I0712 12:35:29.200250 139757 net.cpp:106] Creating Layer inception_5b/pool_proj
I0712 12:35:29.200260 139757 net.cpp:454] inception_5b/pool_proj <- inception_5b/pool
I0712 12:35:29.200273 139757 net.cpp:411] inception_5b/pool_proj -> inception_5b/pool_proj
I0712 12:35:29.202997 139757 cudnn_conv_layer.cpp:194] Reallocating workspace storage: 9984
I0712 12:35:29.203069 139757 net.cpp:150] Setting up inception_5b/pool_proj
I0712 12:35:29.203094 139757 net.cpp:157] Top shape: 100 128 7 7 (627200)
I0712 12:35:29.203109 139757 net.cpp:165] Memory required for data: 5585070016
I0712 12:35:29.203121 139757 layer_factory.hpp:76] Creating layer inception_5b/relu_pool_proj
I0712 12:35:29.203135 139757 net.cpp:106] Creating Layer inception_5b/relu_pool_proj
I0712 12:35:29.203145 139757 net.cpp:454] inception_5b/relu_pool_proj <- inception_5b/pool_proj
I0712 12:35:29.203157 139757 net.cpp:397] inception_5b/relu_pool_proj -> inception_5b/pool_proj (in-place)
I0712 12:35:29.203582 139757 net.cpp:150] Setting up inception_5b/relu_pool_proj
I0712 12:35:29.203603 139757 net.cpp:157] Top shape: 100 128 7 7 (627200)
I0712 12:35:29.203613 139757 net.cpp:165] Memory required for data: 5587578816
I0712 12:35:29.203620 139757 layer_factory.hpp:76] Creating layer inception_5b/output
I0712 12:35:29.203636 139757 net.cpp:106] Creating Layer inception_5b/output
I0712 12:35:29.203646 139757 net.cpp:454] inception_5b/output <- inception_5b/1x1
I0712 12:35:29.203656 139757 net.cpp:454] inception_5b/output <- inception_5b/3x3
I0712 12:35:29.203665 139757 net.cpp:454] inception_5b/output <- inception_5b/5x5
I0712 12:35:29.203675 139757 net.cpp:454] inception_5b/output <- inception_5b/pool_proj
I0712 12:35:29.203685 139757 net.cpp:411] inception_5b/output -> inception_5b/output
I0712 12:35:29.203724 139757 net.cpp:150] Setting up inception_5b/output
I0712 12:35:29.203757 139757 net.cpp:157] Top shape: 100 1024 7 7 (5017600)
I0712 12:35:29.203765 139757 net.cpp:165] Memory required for data: 5607649216
I0712 12:35:29.203773 139757 layer_factory.hpp:76] Creating layer pool5/7x7_s1
I0712 12:35:29.203784 139757 net.cpp:106] Creating Layer pool5/7x7_s1
I0712 12:35:29.203793 139757 net.cpp:454] pool5/7x7_s1 <- inception_5b/output
I0712 12:35:29.203806 139757 net.cpp:411] pool5/7x7_s1 -> pool5/7x7_s1
I0712 12:35:29.204083 139757 net.cpp:150] Setting up pool5/7x7_s1
I0712 12:35:29.204103 139757 net.cpp:157] Top shape: 100 1024 1 1 (102400)
I0712 12:35:29.204111 139757 net.cpp:165] Memory required for data: 5608058816
I0712 12:35:29.204120 139757 layer_factory.hpp:76] Creating layer pool5/drop_7x7_s1
I0712 12:35:29.204135 139757 net.cpp:106] Creating Layer pool5/drop_7x7_s1
I0712 12:35:29.204145 139757 net.cpp:454] pool5/drop_7x7_s1 <- pool5/7x7_s1
I0712 12:35:29.204155 139757 net.cpp:397] pool5/drop_7x7_s1 -> pool5/7x7_s1 (in-place)
I0712 12:35:29.204188 139757 net.cpp:150] Setting up pool5/drop_7x7_s1
I0712 12:35:29.204200 139757 net.cpp:157] Top shape: 100 1024 1 1 (102400)
I0712 12:35:29.204208 139757 net.cpp:165] Memory required for data: 5608468416
I0712 12:35:29.204216 139757 layer_factory.hpp:76] Creating layer loss3/classifier
I0712 12:35:29.204228 139757 net.cpp:106] Creating Layer loss3/classifier
I0712 12:35:29.204237 139757 net.cpp:454] loss3/classifier <- pool5/7x7_s1
I0712 12:35:29.204251 139757 net.cpp:411] loss3/classifier -> loss3/classifier
I0712 12:35:29.204434 139757 net.cpp:150] Setting up loss3/classifier
I0712 12:35:29.204452 139757 net.cpp:157] Top shape: 100 2 (200)
I0712 12:35:29.204462 139757 net.cpp:165] Memory required for data: 5608469216
I0712 12:35:29.204473 139757 layer_factory.hpp:76] Creating layer loss3/classifier_loss3/classifier_0_split
I0712 12:35:29.204484 139757 net.cpp:106] Creating Layer loss3/classifier_loss3/classifier_0_split
I0712 12:35:29.204493 139757 net.cpp:454] loss3/classifier_loss3/classifier_0_split <- loss3/classifier
I0712 12:35:29.204506 139757 net.cpp:411] loss3/classifier_loss3/classifier_0_split -> loss3/classifier_loss3/classifier_0_split_0
I0712 12:35:29.204519 139757 net.cpp:411] loss3/classifier_loss3/classifier_0_split -> loss3/classifier_loss3/classifier_0_split_1
I0712 12:35:29.204562 139757 net.cpp:150] Setting up loss3/classifier_loss3/classifier_0_split
I0712 12:35:29.204577 139757 net.cpp:157] Top shape: 100 2 (200)
I0712 12:35:29.204586 139757 net.cpp:157] Top shape: 100 2 (200)
I0712 12:35:29.204594 139757 net.cpp:165] Memory required for data: 5608470816
I0712 12:35:29.204602 139757 layer_factory.hpp:76] Creating layer loss3/loss3
I0712 12:35:29.204613 139757 net.cpp:106] Creating Layer loss3/loss3
I0712 12:35:29.204622 139757 net.cpp:454] loss3/loss3 <- loss3/classifier_loss3/classifier_0_split_0
I0712 12:35:29.204632 139757 net.cpp:454] loss3/loss3 <- label_data_1_split_4
…
