…
I0711 10:42:45.634372 121357 net.cpp:49] Initializing net from parameters: 
name: "GoogleNet"
state {
  phase: TRAIN
}
layer {
  name: "data"
  type: "ImageData"
  top: "data"
  top: "label"
  include {
    phase: TRAIN
  }
  transform_param {
    mirror: true
    crop_size: 224
    mean_value: 104
    mean_value: 117
    mean_value: 123
  }
  image_data_param {
    source: "/data/dywang/Database/Proliferation/libs/stage04_mitosisDetection/training_examples/train2.lst"
    batch_size: 32
    shuffle: true
    new_height: 256
    new_width: 256
  }
}
layer {
  name: "conv1/7x7_s2"
  type: "Convolution"
  bottom: "data"
  top: "conv1/7x7_s2"
  param {
    lr_mult: 1
    decay_mult: 1
  }
  param {
    lr_mult: 2
    decay_mult: 0
  }
  convolution_param {
    num_output: 64
    pad: 3
    kernel_size: 7
    stride: 2
    weight_filler {
      type: "xavier"
    }
    bias_filler {
      type: "constant"
      value: 0.2
    }
  }
}
layer {
  name: "conv1/relu_7x7"
  type: "ReLU"
  bottom: "conv1/7x7_s2"
  top: "conv1/7x7_s2"
}
layer {
  name: "pool1/3x3_s2"
  type: "Pooling"
  bottom: "conv1/7x7_s2"
  top: "pool1/3x3_s2"
  pooling_param {
    pool: MAX
    kernel_size: 3
    stride: 2
  }
}
layer {
  name: "pool1/norm1"
  type: "LRN"
  bottom: "pool1/3x3_s2"
  top: "pool1/norm1"
  lrn_param {
    local_size: 5
    alpha: 0.0001
    beta: 0.75
  }
}
layer {
  name: "conv2/3x3_reduce"
  type: "Convolution"
  bottom: "pool1/norm1"
  top: "conv2/3x3_reduce"
  param {
    lr_mult: 1
    decay_mult: 1
  }
  param {
    lr_mult: 2
    decay_mult: 0
  }
  convolution_param {
    num_output: 64
    kernel_size: 1
    weight_filler {
      type: "xavier"
    }
    bias_filler {
      type: "constant"
      value: 0.2
    }
  }
}
layer {
  name: "conv2/relu_3x3_reduce"
  type: "ReLU"
  bottom: "conv2/3x3_reduce"
  top: "conv2/3x3_reduce"
}
layer {
  name: "conv2/3x3"
  type: "Convolution"
  bottom: "conv2/3x3_reduce"
  top: "conv2/3x3"
  param {
    lr_mult: 1
    decay_mult: 1
  }
  param {
    lr_mult: 2
    decay_mult: 0
  }
  convolution_param {
    num_output: 192
    pad: 1
    kernel_size: 3
    weight_filler {
      type: "xavier"
    }
    bias_filler {
      type: "constant"
      value: 0.2
    }
  }
}
layer {
  name: "conv2/relu_3x3"
  type: "ReLU"
  bottom: "conv2/3x3"
  top: "conv2/3x3"
}
layer {
  name: "conv2/norm2"
  type: "LRN"
  bottom: "conv2/3x3"
  top: "conv2/norm2"
  lrn_param {
    local_size: 5
    alpha: 0.0001
    beta: 0.75
  }
}
layer {
  name: "pool2/3x3_s2"
  type: "Pooling"
  bottom: "conv2/norm2"
  top: "pool2/3x3_s2"
  pooling_param {
    pool: MAX
    kernel_size: 3
    stride: 2
  }
}
layer {
  name: "inception_3a/1x1"
  type: "Convolution"
  bottom: "pool2/3x3_s2"
  top: "inception_3a/1x1"
  param {
    lr_mult: 1
    decay_mult: 1
  }
  param {
    lr_mult: 2
    decay_mult: 0
  }
  convolution_param {
    num_output: 64
    kernel_size: 1
    weight_filler {
      type: "xavier"
    }
    bias_filler {
      type: "constant"
      value: 0.2
    }
  }
}
layer {
  name: "inception_3a/relu_1x1"
  type: "ReLU"
  bottom: "inception_3a/1x1"
  top: "inception_3a/1x1"
}
layer {
  name: "inception_3a/3x3_reduce"
  type: "Convolution"
  bottom: "pool2/3x3_s2"
  top: "inception_3a/3x3_reduce"
  param {
    lr_mult: 1
    decay_mult: 1
  }
  param {
    lr_mult: 2
    decay_mult: 0
  }
  convolution_param {
    num_output: 96
    kernel_size: 1
    weight_filler {
      type: "xavier"
    }
    bias_filler {
      type: "constant"
      value: 0.2
    }
  }
}
layer {
  name: "inception_3a/relu_3x3_reduce"
  type: "ReLU"
  bottom: "inception_3a/3x3_reduce"
  top: "inception_3a/3x3_reduce"
}
layer {
  name: "inception_3a/3x3"
  type: "Convolution"
  bottom: "inception_3a/3x3_reduce"
  top: "inception_3a/3x3"
  param {
    lr_mult: 1
    decay_mult: 1
  }
  param {
    lr_mult: 2
    decay_mult: 0
  }
  convolution_param {
    num_output: 128
    pad: 1
    kernel_size: 3
    weight_filler {
      type: "xavier"
    }
    bias_filler {
      type: "constant"
      value: 0.2
    }
  }
}
layer {
  name: "inception_3a/relu_3x3"
  type: "ReLU"
  bottom: "inception_3a/3x3"
  top: "inception_3a/3x3"
}
layer {
  name: "inception_3a/5x5_reduce"
  type: "Convolution"
  bottom: "pool2/3x3_s2"
  top: "inception_3a/5x5_reduce"
  param {
    lr_mult: 1
    decay_mult: 1
  }
  param {
    lr_mult: 2
    decay_mult: 0
  }
  convolution_param {
    num_output: 16
    kernel_size: 1
    weight_filler {
      type: "xavier"
    }
    bias_filler {
      type: "constant"
      value: 0.2
    }
  }
}
layer {
  name: "inception_3a/relu_5x5_reduce"
  type: "ReLU"
  bottom: "inception_3a/5x5_reduce"
  top: "inception_3a/5x5_reduce"
}
layer {
  name: "inception_3a/5x5"
  type: "Convolution"
  bottom: "inception_3a/5x5_reduce"
  top: "inception_3a/5x5"
  param {
    lr_mult: 1
    decay_mult: 1
  }
  param {
    lr_mult: 2
    decay_mult: 0
  }
  convolution_param {
    num_output: 32
    pad: 2
    kernel_size: 5
    weight_filler {
      type: "xavier"
    }
    bias_filler {
      type: "constant"
      value: 0.2
    }
  }
}
layer {
  name: "inception_3a/relu_5x5"
  type: "ReLU"
  bottom: "inception_3a/5x5"
  top: "inception_3a/5x5"
}
layer {
  name: "inception_3a/pool"
  type: "Pooling"
  bottom: "pool2/3x3_s2"
  top: "inception_3a/pool"
  pooling_param {
    pool: MAX
    kernel_size: 3
    stride: 1
    pad: 1
  }
}
layer {
  name: "inception_3a/pool_proj"
  type: "Convolution"
  bottom: "inception_3a/pool"
  top: "inception_3a/pool_proj"
  param {
    lr_mult: 1
    decay_mult: 1
  }
  param {
    lr_mult: 2
    decay_mult: 0
  }
  convolution_param {
    num_output: 32
    kernel_size: 1
    weight_filler {
      type: "xavier"
    }
    bias_filler {
      type: "constant"
      value: 0.2
    }
  }
}
layer {
  name: "inception_3a/relu_pool_proj"
  type: "ReLU"
  bottom: "inception_3a/pool_proj"
  top: "inception_3a/pool_proj"
}
layer {
  name: "inception_3a/output"
  type: "Concat"
  bottom: "inception_3a/1x1"
  bottom: "inception_3a/3x3"
  bottom: "inception_3a/5x5"
  bottom: "inception_3a/pool_proj"
  top: "inception_3a/output"
}
layer {
  name: "inception_3b/1x1"
  type: "Convolution"
  bottom: "inception_3a/output"
  top: "inception_3b/1x1"
  param {
    lr_mult: 1
    decay_mult: 1
  }
  param {
    lr_mult: 2
    decay_mult: 0
  }
  convolution_param {
    num_output: 128
    kernel_size: 1
    weight_filler {
      type: "xavier"
    }
    bias_filler {
      type: "constant"
      value: 0.2
    }
  }
}
layer {
  name: "inception_3b/relu_1x1"
  type: "ReLU"
  bottom: "inception_3b/1x1"
  top: "inception_3b/1x1"
}
layer {
  name: "inception_3b/3x3_reduce"
  type: "Convolution"
  bottom: "inception_3a/output"
  top: "inception_3b/3x3_reduce"
  param {
    lr_mult: 1
    decay_mult: 1
  }
  param {
    lr_mult: 2
    decay_mult: 0
  }
  convolution_param {
    num_output: 128
    kernel_size: 1
    weight_filler {
      type: "xavier"
    }
    bias_filler {
      type: "constant"
      value: 0.2
    }
  }
}
layer {
  name: "inception_3b/relu_3x3_reduce"
  type: "ReLU"
  bottom: "inception_3b/3x3_reduce"
  top: "inception_3b/3x3_reduce"
}
layer {
  name: "inception_3b/3x3"
  type: "Convolution"
  bottom: "inception_3b/3x3_reduce"
  top: "inception_3b/3x3"
  param {
    lr_mult: 1
    decay_mult: 1
  }
  param {
    lr_mult: 2
    decay_mult: 0
  }
  convolution_param {
    num_output: 192
    pad: 1
    kernel_size: 3
    weight_filler {
      type: "xavier"
    }
    bias_filler {
      type: "constant"
      value: 0.2
    }
  }
}
layer {
  name: "inception_3b/relu_3x3"
  type: "ReLU"
  bottom: "inception_3b/3x3"
  top: "inception_3b/3x3"
}
layer {
  name: "inception_3b/5x5_reduce"
  type: "Convolution"
  bottom: "inception_3a/output"
  top: "inception_3b/5x5_reduce"
  param {
    lr_mult: 1
    decay_mult: 1
  }
  param {
    lr_mult: 2
    decay_mult: 0
  }
  convolution_param {
    num_output: 32
    kernel_size: 1
    weight_filler {
      type: "xavier"
    }
    bias_filler {
      type: "constant"
      value: 0.2
    }
  }
}
layer {
  name: "inception_3b/relu_5x5_reduce"
  type: "ReLU"
  bottom: "inception_3b/5x5_reduce"
  top: "inception_3b/5x5_reduce"
}
layer {
  name: "inception_3b/5x5"
  type: "Convolution"
  bottom: "inception_3b/5x5_reduce"
  top: "inception_3b/5x5"
  param {
    lr_mult: 1
    decay_mult: 1
  }
  param {
    lr_mult: 2
    decay_mult: 0
  }
  convolution_param {
    num_output: 96
    pad: 2
    kernel_size: 5
    weight_filler {
      type: "xavier"
    }
    bias_filler {
      type: "constant"
      value: 0.2
    }
  }
}
layer {
  name: "inception_3b/relu_5x5"
  type: "ReLU"
  bottom: "inception_3b/5x5"
  top: "inception_3b/5x5"
}
layer {
  name: "inception_3b/pool"
  type: "Pooling"
  bottom: "inception_3a/output"
  top: "inception_3b/pool"
  pooling_param {
    pool: MAX
    kernel_size: 3
    stride: 1
    pad: 1
  }
}
layer {
  name: "inception_3b/pool_proj"
  type: "Convolution"
  bottom: "inception_3b/pool"
  top: "inception_3b/pool_proj"
  param {
    lr_mult: 1
    decay_mult: 1
  }
  param {
    lr_mult: 2
    decay_mult: 0
  }
  convolution_param {
    num_output: 64
    kernel_size: 1
    weight_filler {
      type: "xavier"
    }
    bias_filler {
      type: "constant"
      value: 0.2
    }
  }
}
layer {
  name: "inception_3b/relu_pool_proj"
  type: "ReLU"
  bottom: "inception_3b/pool_proj"
  top: "inception_3b/pool_proj"
}
layer {
  name: "inception_3b/output"
  type: "Concat"
  bottom: "inception_3b/1x1"
  bottom: "inception_3b/3x3"
  bottom: "inception_3b/5x5"
  bottom: "inception_3b/pool_proj"
  top: "inception_3b/output"
}
layer {
  name: "pool3/3x3_s2"
  type: "Pooling"
  bottom: "inception_3b/output"
  top: "pool3/3x3_s2"
  pooling_param {
    pool: MAX
    kernel_size: 3
    stride: 2
  }
}
layer {
  name: "inception_4a/1x1"
  type: "Convolution"
  bottom: "pool3/3x3_s2"
  top: "inception_4a/1x1"
  param {
    lr_mult: 1
    decay_mult: 1
  }
  param {
    lr_mult: 2
    decay_mult: 0
  }
  convolution_param {
    num_output: 192
    kernel_size: 1
    weight_filler {
      type: "xavier"
    }
    bias_filler {
      type: "constant"
      value: 0.2
    }
  }
}
layer {
  name: "inception_4a/relu_1x1"
  type: "ReLU"
  bottom: "inception_4a/1x1"
  top: "inception_4a/1x1"
}
layer {
  name: "inception_4a/3x3_reduce"
  type: "Convolution"
  bottom: "pool3/3x3_s2"
  top: "inception_4a/3x3_reduce"
  param {
    lr_mult: 1
    decay_mult: 1
  }
  param {
    lr_mult: 2
    decay_mult: 0
  }
  convolution_param {
    num_output: 96
    kernel_size: 1
    weight_filler {
      type: "xavier"
    }
    bias_filler {
      type: "constant"
      value: 0.2
    }
  }
}
layer {
  name: "inception_4a/relu_3x3_reduce"
  type: "ReLU"
  bottom: "inception_4a/3x3_reduce"
  top: "inception_4a/3x3_reduce"
}
layer {
  name: "inception_4a/3x3"
  type: "Convolution"
  bottom: "inception_4a/3x3_reduce"
  top: "inception_4a/3x3"
  param {
    lr_mult: 1
    decay_mult: 1
  }
  param {
    lr_mult: 2
    decay_mult: 0
  }
  convolution_param {
    num_output: 208
    pad: 1
    kernel_size: 3
    weight_filler {
      type: "xavier"
    }
    bias_filler {
      type: "constant"
      value: 0.2
    }
  }
}
layer {
  name: "inception_4a/relu_3x3"
  type: "ReLU"
  bottom: "inception_4a/3x3"
  top: "inception_4a/3x3"
}
layer {
  name: "inception_4a/5x5_reduce"
  type: "Convolution"
  bottom: "pool3/3x3_s2"
  top: "inception_4a/5x5_reduce"
  param {
    lr_mult: 1
    decay_mult: 1
  }
  param {
    lr_mult: 2
    decay_mult: 0
  }
  convolution_param {
    num_output: 16
    kernel_size: 1
    weight_filler {
      type: "xavier"
    }
    bias_filler {
      type: "constant"
      value: 0.2
    }
  }
}
layer {
  name: "inception_4a/relu_5x5_reduce"
  type: "ReLU"
  bottom: "inception_4a/5x5_reduce"
  top: "inception_4a/5x5_reduce"
}
layer {
  name: "inception_4a/5x5"
  type: "Convolution"
  bottom: "inception_4a/5x5_reduce"
  top: "inception_4a/5x5"
  param {
    lr_mult: 1
    decay_mult: 1
  }
  param {
    lr_mult: 2
    decay_mult: 0
  }
  convolution_param {
    num_output: 48
    pad: 2
    kernel_size: 5
    weight_filler {
      type: "xavier"
    }
    bias_filler {
      type: "constant"
      value: 0.2
    }
  }
}
layer {
  name: "inception_4a/relu_5x5"
  type: "ReLU"
  bottom: "inception_4a/5x5"
  top: "inception_4a/5x5"
}
layer {
  name: "inception_4a/pool"
  type: "Pooling"
  bottom: "pool3/3x3_s2"
  top: "inception_4a/pool"
  pooling_param {
    pool: MAX
    kernel_size: 3
    stride: 1
    pad: 1
  }
}
layer {
  name: "inception_4a/pool_proj"
  type: "Convolution"
  bottom: "inception_4a/pool"
  top: "inception_4a/pool_proj"
  param {
    lr_mult: 1
    decay_mult: 1
  }
  param {
    lr_mult: 2
    decay_mult: 0
  }
  convolution_param {
    num_output: 64
    kernel_size: 1
    weight_filler {
      type: "xavier"
    }
    bias_filler {
      type: "constant"
      value: 0.2
    }
  }
}
layer {
  name: "inception_4a/relu_pool_proj"
  type: "ReLU"
  bottom: "inception_4a/pool_proj"
  top: "inception_4a/pool_proj"
}
layer {
  name: "inception_4a/output"
  type: "Concat"
  bottom: "inception_4a/1x1"
  bottom: "inception_4a/3x3"
  bottom: "inception_4a/5x5"
  bottom: "inception_4a/pool_proj"
  top: "inception_4a/output"
}
layer {
  name: "loss1/ave_pool"
  type: "Pooling"
  bottom: "inception_4a/output"
  top: "loss1/ave_pool"
  pooling_param {
    pool: AVE
    kernel_size: 5
    stride: 3
  }
}
layer {
  name: "loss1/conv"
  type: "Convolution"
  bottom: "loss1/ave_pool"
  top: "loss1/conv"
  param {
    lr_mult: 1
    decay_mult: 1
  }
  param {
    lr_mult: 2
    decay_mult: 0
  }
  convolution_param {
    num_output: 128
    kernel_size: 1
    weight_filler {
      type: "xavier"
    }
    bias_filler {
      type: "constant"
      value: 0.2
    }
  }
}
layer {
  name: "loss1/relu_conv"
  type: "ReLU"
  bottom: "loss1/conv"
  top: "loss1/conv"
}
layer {
  name: "loss1/fc"
  type: "InnerProduct"
  bottom: "loss1/conv"
  top: "loss1/fc"
  param {
    lr_mult: 1
    decay_mult: 1
  }
  param {
    lr_mult: 2
    decay_mult: 0
  }
  inner_product_param {
    num_output: 1024
    weight_filler {
      type: "xavier"
    }
    bias_filler {
      type: "constant"
      value: 0.2
    }
  }
}
layer {
  name: "loss1/relu_fc"
  type: "ReLU"
  bottom: "loss1/fc"
  top: "loss1/fc"
}
layer {
  name: "loss1/drop_fc"
  type: "Dropout"
  bottom: "loss1/fc"
  top: "loss1/fc"
  dropout_param {
    dropout_ratio: 0.7
  }
}
layer {
  name: "loss1/classifier"
  type: "InnerProduct"
  bottom: "loss1/fc"
  top: "loss1/classifier"
  param {
    lr_mult: 1
    decay_mult: 1
  }
  param {
    lr_mult: 2
    decay_mult: 0
  }
  inner_product_param {
    num_output: 2
    weight_filler {
      type: "xavier"
    }
    bias_filler {
      type: "constant"
      value: 0
    }
  }
}
layer {
  name: "loss1/loss"
  type: "SoftmaxWithLoss"
  bottom: "loss1/classifier"
  bottom: "label"
  top: "loss1/loss1"
  loss_weight: 0.3
}
layer {
  name: "inception_4b/1x1"
  type: "Convolution"
  bottom: "inception_4a/output"
  top: "inception_4b/1x1"
  param {
    lr_mult: 1
    decay_mult: 1
  }
  param {
    lr_mult: 2
    decay_mult: 0
  }
  convolution_param {
    num_output: 160
    kernel_size: 1
    weight_filler {
      type: "xavier"
    }
    bias_filler {
      type: "constant"
      value: 0.2
    }
  }
}
layer {
  name: "inception_4b/relu_1x1"
  type: "ReLU"
  bottom: "inception_4b/1x1"
  top: "inception_4b/1x1"
}
layer {
  name: "inception_4b/3x3_reduce"
  type: "Convolution"
  bottom: "inception_4a/output"
  top: "inception_4b/3x3_reduce"
  param {
    lr_mult: 1
    decay_mult: 1
  }
  param {
    lr_mult: 2
    decay_mult: 0
  }
  convolution_param {
    num_output: 112
    kernel_size: 1
    weight_filler {
      type: "xavier"
    }
    bias_filler {
      type: "constant"
      value: 0.2
    }
  }
}
layer {
  name: "inception_4b/relu_3x3_reduce"
  type: "ReLU"
  bottom: "inception_4b/3x3_reduce"
  top: "inception_4b/3x3_reduce"
}
layer {
  name: "inception_4b/3x3"
  type: "Convolution"
  bottom: "inception_4b/3x3_reduce"
  top: "inception_4b/3x3"
  param {
    lr_mult: 1
    decay_mult: 1
  }
  param {
    lr_mult: 2
    decay_mult: 0
  }
  convolution_param {
    num_output: 224
    pad: 1
    kernel_size: 3
    weight_filler {
      type: "xavier"
    }
    bias_filler {
      type: "constant"
      value: 0.2
    }
  }
}
layer {
  name: "inception_4b/relu_3x3"
  type: "ReLU"
  bottom: "inception_4b/3x3"
  top: "inception_4b/3x3"
}
layer {
  name: "inception_4b/5x5_reduce"
  type: "Convolution"
  bottom: "inception_4a/output"
  top: "inception_4b/5x5_reduce"
  param {
    lr_mult: 1
    decay_mult: 1
  }
  param {
    lr_mult: 2
    decay_mult: 0
  }
  convolution_param {
    num_output: 24
    kernel_size: 1
    weight_filler {
      type: "xavier"
    }
    bias_filler {
      type: "constant"
      value: 0.2
    }
  }
}
layer {
  name: "inception_4b/relu_5x5_reduce"
  type: "ReLU"
  bottom: "inception_4b/5x5_reduce"
  top: "inception_4b/5x5_reduce"
}
layer {
  name: "inception_4b/5x5"
  type: "Convolution"
  bottom: "inception_4b/5x5_reduce"
  top: "inception_4b/5x5"
  param {
    lr_mult: 1
    decay_mult: 1
  }
  param {
    lr_mult: 2
    decay_mult: 0
  }
  convolution_param {
    num_output: 64
    pad: 2
    kernel_size: 5
    weight_filler {
      type: "xavier"
    }
    bias_filler {
      type: "constant"
      value: 0.2
    }
  }
}
layer {
  name: "inception_4b/relu_5x5"
  type: "ReLU"
  bottom: "inception_4b/5x5"
  top: "inception_4b/5x5"
}
layer {
  name: "inception_4b/pool"
  type: "Pooling"
  bottom: "inception_4a/output"
  top: "inception_4b/pool"
  pooling_param {
    pool: MAX
    kernel_size: 3
    stride: 1
    pad: 1
  }
}
layer {
  name: "inception_4b/pool_proj"
  type: "Convolution"
  bottom: "inception_4b/pool"
  top: "inception_4b/pool_proj"
  param {
    lr_mult: 1
    decay_mult: 1
  }
  param {
    lr_mult: 2
    decay_mult: 0
  }
  convolution_param {
    num_output: 64
    kernel_size: 1
    weight_filler {
      type: "xavier"
    }
    bias_filler {
      type: "constant"
      value: 0.2
    }
  }
}
layer {
  name: "inception_4b/relu_pool_proj"
  type: "ReLU"
  bottom: "inception_4b/pool_proj"
  top: "inception_4b/pool_proj"
}
layer {
  name: "inception_4b/output"
  type: "Concat"
  bottom: "inception_4b/1x1"
  bottom: "inception_4b/3x3"
  bottom: "inception_4b/5x5"
  bottom: "inception_4b/pool_proj"
  top: "inception_4b/output"
}
layer {
  name: "inception_4c/1x1"
  type: "Convolution"
  bottom: "inception_4b/output"
  top: "inception_4c/1x1"
  param {
    lr_mult: 1
    decay_mult: 1
  }
  param {
    lr_mult: 2
    decay_mult: 0
  }
  convolution_param {
    num_output: 128
    kernel_size: 1
    weight_filler {
      type: "xavier"
    }
    bias_filler {
      type: "constant"
      value: 0.2
    }
  }
}
layer {
  name: "inception_4c/relu_1x1"
  type: "ReLU"
  bottom: "inception_4c/1x1"
  top: "inception_4c/1x1"
}
layer {
  name: "inception_4c/3x3_reduce"
  type: "Convolution"
  bottom: "inception_4b/output"
  top: "inception_4c/3x3_reduce"
  param {
    lr_mult: 1
    decay_mult: 1
  }
  param {
    lr_mult: 2
    decay_mult: 0
  }
  convolution_param {
    num_output: 128
    kernel_size: 1
    weight_filler {
      type: "xavier"
    }
    bias_filler {
      type: "constant"
      value: 0.2
    }
  }
}
layer {
  name: "inception_4c/relu_3x3_reduce"
  type: "ReLU"
  bottom: "inception_4c/3x3_reduce"
  top: "inception_4c/3x3_reduce"
}
layer {
  name: "inception_4c/3x3"
  type: "Convolution"
  bottom: "inception_4c/3x3_reduce"
  top: "inception_4c/3x3"
  param {
    lr_mult: 1
    decay_mult: 1
  }
  param {
    lr_mult: 2
    decay_mult: 0
  }
  convolution_param {
    num_output: 256
    pad: 1
    kernel_size: 3
    weight_filler {
      type: "xavier"
    }
    bias_filler {
      type: "constant"
      value: 0.2
    }
  }
}
layer {
  name: "inception_4c/relu_3x3"
  type: "ReLU"
  bottom: "inception_4c/3x3"
  top: "inception_4c/3x3"
}
layer {
  name: "inception_4c/5x5_reduce"
  type: "Convolution"
  bottom: "inception_4b/output"
  top: "inception_4c/5x5_reduce"
  param {
    lr_mult: 1
    decay_mult: 1
  }
  param {
    lr_mult: 2
    decay_mult: 0
  }
  convolution_param {
    num_output: 24
    kernel_size: 1
    weight_filler {
      type: "xavier"
    }
    bias_filler {
      type: "constant"
      value: 0.2
    }
  }
}
layer {
  name: "inception_4c/relu_5x5_reduce"
  type: "ReLU"
  bottom: "inception_4c/5x5_reduce"
  top: "inception_4c/5x5_reduce"
}
layer {
  name: "inception_4c/5x5"
  type: "Convolution"
  bottom: "inception_4c/5x5_reduce"
  top: "inception_4c/5x5"
  param {
    lr_mult: 1
    decay_mult: 1
  }
  param {
    lr_mult: 2
    decay_mult: 0
  }
  convolution_param {
    num_output: 64
    pad: 2
    kernel_size: 5
    weight_filler {
      type: "xavier"
    }
    bias_filler {
      type: "constant"
      value: 0.2
    }
  }
}
layer {
  name: "inception_4c/relu_5x5"
  type: "ReLU"
  bottom: "inception_4c/5x5"
  top: "inception_4c/5x5"
}
layer {
  name: "inception_4c/pool"
  type: "Pooling"
  bottom: "inception_4b/output"
  top: "inception_4c/pool"
  pooling_param {
    pool: MAX
    kernel_size: 3
    stride: 1
    pad: 1
  }
}
layer {
  name: "inception_4c/pool_proj"
  type: "Convolution"
  bottom: "inception_4c/pool"
  top: "inception_4c/pool_proj"
  param {
    lr_mult: 1
    decay_mult: 1
  }
  param {
    lr_mult: 2
    decay_mult: 0
  }
  convolution_param {
    num_output: 64
    kernel_size: 1
    weight_filler {
      type: "xavier"
    }
    bias_filler {
      type: "constant"
      value: 0.2
    }
  }
}
layer {
  name: "inception_4c/relu_pool_proj"
  type: "ReLU"
  bottom: "inception_4c/pool_proj"
  top: "inception_4c/pool_proj"
}
layer {
  name: "inception_4c/output"
  type: "Concat"
  bottom: "inception_4c/1x1"
  bottom: "inception_4c/3x3"
  bottom: "inception_4c/5x5"
  bottom: "inception_4c/pool_proj"
  top: "inception_4c/output"
}
layer {
  name: "inception_4d/1x1"
  type: "Convolution"
  bottom: "inception_4c/output"
  top: "inception_4d/1x1"
  param {
    lr_mult: 1
    decay_mult: 1
  }
  param {
    lr_mult: 2
    decay_mult: 0
  }
  convolution_param {
    num_output: 112
    kernel_size: 1
    weight_filler {
      type: "xavier"
    }
    bias_filler {
      type: "constant"
      value: 0.2
    }
  }
}
layer {
  name: "inception_4d/relu_1x1"
  type: "ReLU"
  bottom: "inception_4d/1x1"
  top: "inception_4d/1x1"
}
layer {
  name: "inception_4d/3x3_reduce"
  type: "Convolution"
  bottom: "inception_4c/output"
  top: "inception_4d/3x3_reduce"
  param {
    lr_mult: 1
    decay_mult: 1
  }
  param {
    lr_mult: 2
    decay_mult: 0
  }
  convolution_param {
    num_output: 144
    kernel_size: 1
    weight_filler {
      type: "xavier"
    }
    bias_filler {
      type: "constant"
      value: 0.2
    }
  }
}
layer {
  name: "inception_4d/relu_3x3_reduce"
  type: "ReLU"
  bottom: "inception_4d/3x3_reduce"
  top: "inception_4d/3x3_reduce"
}
layer {
  name: "inception_4d/3x3"
  type: "Convolution"
  bottom: "inception_4d/3x3_reduce"
  top: "inception_4d/3x3"
  param {
    lr_mult: 1
    decay_mult: 1
  }
  param {
    lr_mult: 2
    decay_mult: 0
  }
  convolution_param {
    num_output: 288
    pad: 1
    kernel_size: 3
    weight_filler {
      type: "xavier"
    }
    bias_filler {
      type: "constant"
      value: 0.2
    }
  }
}
layer {
  name: "inception_4d/relu_3x3"
  type: "ReLU"
  bottom: "inception_4d/3x3"
  top: "inception_4d/3x3"
}
layer {
  name: "inception_4d/5x5_reduce"
  type: "Convolution"
  bottom: "inception_4c/output"
  top: "inception_4d/5x5_reduce"
  param {
    lr_mult: 1
    decay_mult: 1
  }
  param {
    lr_mult: 2
    decay_mult: 0
  }
  convolution_param {
    num_output: 32
    kernel_size: 1
    weight_filler {
      type: "xavier"
    }
    bias_filler {
      type: "constant"
      value: 0.2
    }
  }
}
layer {
  name: "inception_4d/relu_5x5_reduce"
  type: "ReLU"
  bottom: "inception_4d/5x5_reduce"
  top: "inception_4d/5x5_reduce"
}
layer {
  name: "inception_4d/5x5"
  type: "Convolution"
  bottom: "inception_4d/5x5_reduce"
  top: "inception_4d/5x5"
  param {
    lr_mult: 1
    decay_mult: 1
  }
  param {
    lr_mult: 2
    decay_mult: 0
  }
  convolution_param {
    num_output: 64
    pad: 2
    kernel_size: 5
    weight_filler {
      type: "xavier"
    }
    bias_filler {
      type: "constant"
      value: 0.2
    }
  }
}
layer {
  name: "inception_4d/relu_5x5"
  type: "ReLU"
  bottom: "inception_4d/5x5"
  top: "inception_4d/5x5"
}
layer {
  name: "inception_4d/pool"
  type: "Pooling"
  bottom: "inception_4c/output"
  top: "inception_4d/pool"
  pooling_param {
    pool: MAX
    kernel_size: 3
    stride: 1
    pad: 1
  }
}
layer {
  name: "inception_4d/pool_proj"
  type: "Convolution"
  bottom: "inception_4d/pool"
  top: "inception_4d/pool_proj"
  param {
    lr_mult: 1
    decay_mult: 1
  }
  param {
    lr_mult: 2
    decay_mult: 0
  }
  convolution_param {
    num_output: 64
    kernel_size: 1
    weight_filler {
      type: "xavier"
    }
    bias_filler {
      type: "constant"
      value: 0.2
    }
  }
}
layer {
  name: "inception_4d/relu_pool_proj"
  type: "ReLU"
  bottom: "inception_4d/pool_proj"
  top: "inception_4d/pool_proj"
}
layer {
  name: "inception_4d/output"
  type: "Concat"
  bottom: "inception_4d/1x1"
  bottom: "inception_4d/3x3"
  bottom: "inception_4d/5x5"
  bottom: "inception_4d/pool_proj"
  top: "inception_4d/output"
}
layer {
  name: "loss2/ave_pool"
  type: "Pooling"
  bottom: "inception_4d/output"
  top: "loss2/ave_pool"
  pooling_param {
    pool: AVE
    kernel_size: 5
    stride: 3
  }
}
layer {
  name: "loss2/conv"
  type: "Convolution"
  bottom: "loss2/ave_pool"
  top: "loss2/conv"
  param {
    lr_mult: 1
    decay_mult: 1
  }
  param {
    lr_mult: 2
    decay_mult: 0
  }
  convolution_param {
    num_output: 128
    kernel_size: 1
    weight_filler {
      type: "xavier"
    }
    bias_filler {
      type: "constant"
      value: 0.2
    }
  }
}
layer {
  name: "loss2/relu_conv"
  type: "ReLU"
  bottom: "loss2/conv"
  top: "loss2/conv"
}
layer {
  name: "loss2/fc"
  type: "InnerProduct"
  bottom: "loss2/conv"
  top: "loss2/fc"
  param {
    lr_mult: 1
    decay_mult: 1
  }
  param {
    lr_mult: 2
    decay_mult: 0
  }
  inner_product_param {
    num_output: 1024
    weight_filler {
      type: "xavier"
    }
    bias_filler {
      type: "constant"
      value: 0.2
    }
  }
}
layer {
  name: "loss2/relu_fc"
  type: "ReLU"
  bottom: "loss2/fc"
  top: "loss2/fc"
}
layer {
  name: "loss2/drop_fc"
  type: "Dropout"
  bottom: "loss2/fc"
  top: "loss2/fc"
  dropout_param {
    dropout_ratio: 0.7
  }
}
layer {
  name: "loss2/classifier"
  type: "InnerProduct"
  bottom: "loss2/fc"
  top: "loss2/classifier"
  param {
    lr_mult: 1
    decay_mult: 1
  }
  param {
    lr_mult: 2
    decay_mult: 0
  }
  inner_product_param {
    num_output: 2
    weight_filler {
      type: "xavier"
    }
    bias_filler {
      type: "constant"
      value: 0
    }
  }
}
layer {
  name: "loss2/loss"
  type: "SoftmaxWithLoss"
  bottom: "loss2/classifier"
  bottom: "label"
  top: "loss2/loss1"
  loss_weight: 0.3
}
layer {
  name: "inception_4e/1x1"
  type: "Convolution"
  bottom: "inception_4d/output"
  top: "inception_4e/1x1"
  param {
    lr_mult: 1
    decay_mult: 1
  }
  param {
    lr_mult: 2
    decay_mult: 0
  }
  convolution_param {
    num_output: 256
    kernel_size: 1
    weight_filler {
      type: "xavier"
    }
    bias_filler {
      type: "constant"
      value: 0.2
    }
  }
}
layer {
  name: "inception_4e/relu_1x1"
  type: "ReLU"
  bottom: "inception_4e/1x1"
  top: "inception_4e/1x1"
}
layer {
  name: "inception_4e/3x3_reduce"
  type: "Convolution"
  bottom: "inception_4d/output"
  top: "inception_4e/3x3_reduce"
  param {
    lr_mult: 1
    decay_mult: 1
  }
  param {
    lr_mult: 2
    decay_mult: 0
  }
  convolution_param {
    num_output: 160
    kernel_size: 1
    weight_filler {
      type: "xavier"
    }
    bias_filler {
      type: "constant"
      value: 0.2
    }
  }
}
layer {
  name: "inception_4e/relu_3x3_reduce"
  type: "ReLU"
  bottom: "inception_4e/3x3_reduce"
  top: "inception_4e/3x3_reduce"
}
layer {
  name: "inception_4e/3x3"
  type: "Convolution"
  bottom: "inception_4e/3x3_reduce"
  top: "inception_4e/3x3"
  param {
    lr_mult: 1
    decay_mult: 1
  }
  param {
    lr_mult: 2
    decay_mult: 0
  }
  convolution_param {
    num_output: 320
    pad: 1
    kernel_size: 3
    weight_filler {
      type: "xavier"
    }
    bias_filler {
      type: "constant"
      value: 0.2
    }
  }
}
layer {
  name: "inception_4e/relu_3x3"
  type: "ReLU"
  bottom: "inception_4e/3x3"
  top: "inception_4e/3x3"
}
layer {
  name: "inception_4e/5x5_reduce"
  type: "Convolution"
  bottom: "inception_4d/output"
  top: "inception_4e/5x5_reduce"
  param {
    lr_mult: 1
    decay_mult: 1
  }
  param {
    lr_mult: 2
    decay_mult: 0
  }
  convolution_param {
    num_output: 32
    kernel_size: 1
    weight_filler {
      type: "xavier"
    }
    bias_filler {
      type: "constant"
      value: 0.2
    }
  }
}
layer {
  name: "inception_4e/relu_5x5_reduce"
  type: "ReLU"
  bottom: "inception_4e/5x5_reduce"
  top: "inception_4e/5x5_reduce"
}
layer {
  name: "inception_4e/5x5"
  type: "Convolution"
  bottom: "inception_4e/5x5_reduce"
  top: "inception_4e/5x5"
  param {
    lr_mult: 1
    decay_mult: 1
  }
  param {
    lr_mult: 2
    decay_mult: 0
  }
  convolution_param {
    num_output: 128
    pad: 2
    kernel_size: 5
    weight_filler {
      type: "xavier"
    }
    bias_filler {
      type: "constant"
      value: 0.2
    }
  }
}
layer {
  name: "inception_4e/relu_5x5"
  type: "ReLU"
  bottom: "inception_4e/5x5"
  top: "inception_4e/5x5"
}
layer {
  name: "inception_4e/pool"
  type: "Pooling"
  bottom: "inception_4
I0711 10:42:45.640578 121357 layer_factory.hpp:76] Creating layer data
I0711 10:42:45.640641 121357 net.cpp:106] Creating Layer data
I0711 10:42:45.640663 121357 net.cpp:411] data -> data
I0711 10:42:45.640700 121357 net.cpp:411] data -> label
I0711 10:42:45.641136 121357 image_data_layer.cpp:36] Opening file /data/dywang/Database/Proliferation/libs/stage04_mitosisDetection/training_examples/train2.lst
I0711 10:42:45.694852 121357 image_data_layer.cpp:46] Shuffling data
I0711 10:42:45.708611 121357 image_data_layer.cpp:51] A total of 101583 images.
I0711 10:42:45.730010 121357 image_data_layer.cpp:78] output data size: 32,3,224,224
I0711 10:42:45.763844 121357 net.cpp:150] Setting up data
I0711 10:42:45.763908 121357 net.cpp:157] Top shape: 32 3 224 224 (4816896)
I0711 10:42:45.763921 121357 net.cpp:157] Top shape: 32 (32)
I0711 10:42:45.763931 121357 net.cpp:165] Memory required for data: 19267712
I0711 10:42:45.763945 121357 layer_factory.hpp:76] Creating layer label_data_1_split
I0711 10:42:45.763967 121357 net.cpp:106] Creating Layer label_data_1_split
I0711 10:42:45.763978 121357 net.cpp:454] label_data_1_split <- label
I0711 10:42:45.763998 121357 net.cpp:411] label_data_1_split -> label_data_1_split_0
I0711 10:42:45.764014 121357 net.cpp:411] label_data_1_split -> label_data_1_split_1
I0711 10:42:45.764026 121357 net.cpp:411] label_data_1_split -> label_data_1_split_2
I0711 10:42:45.764091 121357 net.cpp:150] Setting up label_data_1_split
I0711 10:42:45.764117 121357 net.cpp:157] Top shape: 32 (32)
I0711 10:42:45.764137 121357 net.cpp:157] Top shape: 32 (32)
I0711 10:42:45.764145 121357 net.cpp:157] Top shape: 32 (32)
I0711 10:42:45.764153 121357 net.cpp:165] Memory required for data: 19268096
I0711 10:42:45.764161 121357 layer_factory.hpp:76] Creating layer conv1/7x7_s2
I0711 10:42:45.764210 121357 net.cpp:106] Creating Layer conv1/7x7_s2
I0711 10:42:45.764230 121357 net.cpp:454] conv1/7x7_s2 <- data
I0711 10:42:45.764242 121357 net.cpp:411] conv1/7x7_s2 -> conv1/7x7_s2
I0711 10:42:45.880009 121357 net.cpp:150] Setting up conv1/7x7_s2
I0711 10:42:45.880060 121357 net.cpp:157] Top shape: 32 64 112 112 (25690112)
I0711 10:42:45.880070 121357 net.cpp:165] Memory required for data: 122028544
I0711 10:42:45.880098 121357 layer_factory.hpp:76] Creating layer conv1/relu_7x7
I0711 10:42:45.880118 121357 net.cpp:106] Creating Layer conv1/relu_7x7
I0711 10:42:45.880130 121357 net.cpp:454] conv1/relu_7x7 <- conv1/7x7_s2
I0711 10:42:45.880141 121357 net.cpp:397] conv1/relu_7x7 -> conv1/7x7_s2 (in-place)
I0711 10:42:45.880302 121357 net.cpp:150] Setting up conv1/relu_7x7
I0711 10:42:45.880319 121357 net.cpp:157] Top shape: 32 64 112 112 (25690112)
I0711 10:42:45.880327 121357 net.cpp:165] Memory required for data: 224788992
I0711 10:42:45.880336 121357 layer_factory.hpp:76] Creating layer pool1/3x3_s2
I0711 10:42:45.880350 121357 net.cpp:106] Creating Layer pool1/3x3_s2
I0711 10:42:45.880359 121357 net.cpp:454] pool1/3x3_s2 <- conv1/7x7_s2
I0711 10:42:45.880370 121357 net.cpp:411] pool1/3x3_s2 -> pool1/3x3_s2
I0711 10:42:45.880738 121357 net.cpp:150] Setting up pool1/3x3_s2
I0711 10:42:45.880758 121357 net.cpp:157] Top shape: 32 64 56 56 (6422528)
I0711 10:42:45.880764 121357 net.cpp:165] Memory required for data: 250479104
I0711 10:42:45.880772 121357 layer_factory.hpp:76] Creating layer pool1/norm1
I0711 10:42:45.880792 121357 net.cpp:106] Creating Layer pool1/norm1
I0711 10:42:45.880801 121357 net.cpp:454] pool1/norm1 <- pool1/3x3_s2
I0711 10:42:45.880810 121357 net.cpp:411] pool1/norm1 -> pool1/norm1
I0711 10:42:45.881016 121357 net.cpp:150] Setting up pool1/norm1
I0711 10:42:45.881033 121357 net.cpp:157] Top shape: 32 64 56 56 (6422528)
I0711 10:42:45.881041 121357 net.cpp:165] Memory required for data: 276169216
I0711 10:42:45.881048 121357 layer_factory.hpp:76] Creating layer conv2/3x3_reduce
I0711 10:42:45.881062 121357 net.cpp:106] Creating Layer conv2/3x3_reduce
I0711 10:42:45.881070 121357 net.cpp:454] conv2/3x3_reduce <- pool1/norm1
I0711 10:42:45.881083 121357 net.cpp:411] conv2/3x3_reduce -> conv2/3x3_reduce
I0711 10:42:45.882777 121357 cudnn_conv_layer.cpp:194] Reallocating workspace storage: 768
I0711 10:42:45.882809 121357 net.cpp:150] Setting up conv2/3x3_reduce
I0711 10:42:45.882822 121357 net.cpp:157] Top shape: 32 64 56 56 (6422528)
I0711 10:42:45.882828 121357 net.cpp:165] Memory required for data: 301859328
I0711 10:42:45.882843 121357 layer_factory.hpp:76] Creating layer conv2/relu_3x3_reduce
I0711 10:42:45.882856 121357 net.cpp:106] Creating Layer conv2/relu_3x3_reduce
I0711 10:42:45.882864 121357 net.cpp:454] conv2/relu_3x3_reduce <- conv2/3x3_reduce
I0711 10:42:45.882874 121357 net.cpp:397] conv2/relu_3x3_reduce -> conv2/3x3_reduce (in-place)
I0711 10:42:45.883175 121357 net.cpp:150] Setting up conv2/relu_3x3_reduce
I0711 10:42:45.883193 121357 net.cpp:157] Top shape: 32 64 56 56 (6422528)
I0711 10:42:45.883199 121357 net.cpp:165] Memory required for data: 327549440
I0711 10:42:45.883208 121357 layer_factory.hpp:76] Creating layer conv2/3x3
I0711 10:42:45.883229 121357 net.cpp:106] Creating Layer conv2/3x3
I0711 10:42:45.883237 121357 net.cpp:454] conv2/3x3 <- conv2/3x3_reduce
I0711 10:42:45.883247 121357 net.cpp:411] conv2/3x3 -> conv2/3x3
I0711 10:42:45.885571 121357 cudnn_conv_layer.cpp:194] Reallocating workspace storage: 6912
I0711 10:42:45.885808 121357 net.cpp:150] Setting up conv2/3x3
I0711 10:42:45.885833 121357 net.cpp:157] Top shape: 32 192 56 56 (19267584)
I0711 10:42:45.885854 121357 net.cpp:165] Memory required for data: 404619776
I0711 10:42:45.885875 121357 layer_factory.hpp:76] Creating layer conv2/relu_3x3
I0711 10:42:45.885895 121357 net.cpp:106] Creating Layer conv2/relu_3x3
I0711 10:42:45.885905 121357 net.cpp:454] conv2/relu_3x3 <- conv2/3x3
I0711 10:42:45.885917 121357 net.cpp:397] conv2/relu_3x3 -> conv2/3x3 (in-place)
I0711 10:42:45.886121 121357 net.cpp:150] Setting up conv2/relu_3x3
I0711 10:42:45.886149 121357 net.cpp:157] Top shape: 32 192 56 56 (19267584)
I0711 10:42:45.886157 121357 net.cpp:165] Memory required for data: 481690112
I0711 10:42:45.886163 121357 layer_factory.hpp:76] Creating layer conv2/norm2
I0711 10:42:45.886178 121357 net.cpp:106] Creating Layer conv2/norm2
I0711 10:42:45.886186 121357 net.cpp:454] conv2/norm2 <- conv2/3x3
I0711 10:42:45.886195 121357 net.cpp:411] conv2/norm2 -> conv2/norm2
I0711 10:42:45.886540 121357 net.cpp:150] Setting up conv2/norm2
I0711 10:42:45.886560 121357 net.cpp:157] Top shape: 32 192 56 56 (19267584)
I0711 10:42:45.886567 121357 net.cpp:165] Memory required for data: 558760448
I0711 10:42:45.886575 121357 layer_factory.hpp:76] Creating layer pool2/3x3_s2
I0711 10:42:45.886587 121357 net.cpp:106] Creating Layer pool2/3x3_s2
I0711 10:42:45.886595 121357 net.cpp:454] pool2/3x3_s2 <- conv2/norm2
I0711 10:42:45.886605 121357 net.cpp:411] pool2/3x3_s2 -> pool2/3x3_s2
I0711 10:42:45.886801 121357 net.cpp:150] Setting up pool2/3x3_s2
I0711 10:42:45.886816 121357 net.cpp:157] Top shape: 32 192 28 28 (4816896)
I0711 10:42:45.886824 121357 net.cpp:165] Memory required for data: 578028032
I0711 10:42:45.886844 121357 layer_factory.hpp:76] Creating layer pool2/3x3_s2_pool2/3x3_s2_0_split
I0711 10:42:45.886857 121357 net.cpp:106] Creating Layer pool2/3x3_s2_pool2/3x3_s2_0_split
I0711 10:42:45.886864 121357 net.cpp:454] pool2/3x3_s2_pool2/3x3_s2_0_split <- pool2/3x3_s2
I0711 10:42:45.886874 121357 net.cpp:411] pool2/3x3_s2_pool2/3x3_s2_0_split -> pool2/3x3_s2_pool2/3x3_s2_0_split_0
I0711 10:42:45.886884 121357 net.cpp:411] pool2/3x3_s2_pool2/3x3_s2_0_split -> pool2/3x3_s2_pool2/3x3_s2_0_split_1
I0711 10:42:45.886895 121357 net.cpp:411] pool2/3x3_s2_pool2/3x3_s2_0_split -> pool2/3x3_s2_pool2/3x3_s2_0_split_2
I0711 10:42:45.886904 121357 net.cpp:411] pool2/3x3_s2_pool2/3x3_s2_0_split -> pool2/3x3_s2_pool2/3x3_s2_0_split_3
I0711 10:42:45.886965 121357 net.cpp:150] Setting up pool2/3x3_s2_pool2/3x3_s2_0_split
I0711 10:42:45.886983 121357 net.cpp:157] Top shape: 32 192 28 28 (4816896)
I0711 10:42:45.886991 121357 net.cpp:157] Top shape: 32 192 28 28 (4816896)
I0711 10:42:45.886999 121357 net.cpp:157] Top shape: 32 192 28 28 (4816896)
I0711 10:42:45.887006 121357 net.cpp:157] Top shape: 32 192 28 28 (4816896)
I0711 10:42:45.887013 121357 net.cpp:165] Memory required for data: 655098368
I0711 10:42:45.887019 121357 layer_factory.hpp:76] Creating layer inception_3a/1x1
I0711 10:42:45.887037 121357 net.cpp:106] Creating Layer inception_3a/1x1
I0711 10:42:45.887045 121357 net.cpp:454] inception_3a/1x1 <- pool2/3x3_s2_pool2/3x3_s2_0_split_0
I0711 10:42:45.887054 121357 net.cpp:411] inception_3a/1x1 -> inception_3a/1x1
I0711 10:42:45.888656 121357 net.cpp:150] Setting up inception_3a/1x1
I0711 10:42:45.888685 121357 net.cpp:157] Top shape: 32 64 28 28 (1605632)
I0711 10:42:45.888695 121357 net.cpp:165] Memory required for data: 661520896
I0711 10:42:45.888707 121357 layer_factory.hpp:76] Creating layer inception_3a/relu_1x1
I0711 10:42:45.888722 121357 net.cpp:106] Creating Layer inception_3a/relu_1x1
I0711 10:42:45.888732 121357 net.cpp:454] inception_3a/relu_1x1 <- inception_3a/1x1
I0711 10:42:45.888748 121357 net.cpp:397] inception_3a/relu_1x1 -> inception_3a/1x1 (in-place)
I0711 10:42:45.889052 121357 net.cpp:150] Setting up inception_3a/relu_1x1
I0711 10:42:45.889071 121357 net.cpp:157] Top shape: 32 64 28 28 (1605632)
I0711 10:42:45.889080 121357 net.cpp:165] Memory required for data: 667943424
I0711 10:42:45.889087 121357 layer_factory.hpp:76] Creating layer inception_3a/3x3_reduce
I0711 10:42:45.889106 121357 net.cpp:106] Creating Layer inception_3a/3x3_reduce
I0711 10:42:45.889114 121357 net.cpp:454] inception_3a/3x3_reduce <- pool2/3x3_s2_pool2/3x3_s2_0_split_1
I0711 10:42:45.889125 121357 net.cpp:411] inception_3a/3x3_reduce -> inception_3a/3x3_reduce
I0711 10:42:45.890610 121357 cudnn_conv_layer.cpp:194] Reallocating workspace storage: 2304
I0711 10:42:45.890854 121357 net.cpp:150] Setting up inception_3a/3x3_reduce
I0711 10:42:45.890893 121357 net.cpp:157] Top shape: 32 96 28 28 (2408448)
I0711 10:42:45.890902 121357 net.cpp:165] Memory required for data: 677577216
I0711 10:42:45.890918 121357 layer_factory.hpp:76] Creating layer inception_3a/relu_3x3_reduce
I0711 10:42:45.890933 121357 net.cpp:106] Creating Layer inception_3a/relu_3x3_reduce
I0711 10:42:45.890943 121357 net.cpp:454] inception_3a/relu_3x3_reduce <- inception_3a/3x3_reduce
I0711 10:42:45.890954 121357 net.cpp:397] inception_3a/relu_3x3_reduce -> inception_3a/3x3_reduce (in-place)
I0711 10:42:45.891268 121357 net.cpp:150] Setting up inception_3a/relu_3x3_reduce
I0711 10:42:45.891288 121357 net.cpp:157] Top shape: 32 96 28 28 (2408448)
I0711 10:42:45.891296 121357 net.cpp:165] Memory required for data: 687211008
I0711 10:42:45.891304 121357 layer_factory.hpp:76] Creating layer inception_3a/3x3
I0711 10:42:45.891319 121357 net.cpp:106] Creating Layer inception_3a/3x3
I0711 10:42:45.891327 121357 net.cpp:454] inception_3a/3x3 <- inception_3a/3x3_reduce
I0711 10:42:45.891340 121357 net.cpp:411] inception_3a/3x3 -> inception_3a/3x3
I0711 10:42:45.893080 121357 net.cpp:150] Setting up inception_3a/3x3
I0711 10:42:45.893111 121357 net.cpp:157] Top shape: 32 128 28 28 (3211264)
I0711 10:42:45.893121 121357 net.cpp:165] Memory required for data: 700056064
I0711 10:42:45.893132 121357 layer_factory.hpp:76] Creating layer inception_3a/relu_3x3
I0711 10:42:45.893148 121357 net.cpp:106] Creating Layer inception_3a/relu_3x3
I0711 10:42:45.893157 121357 net.cpp:454] inception_3a/relu_3x3 <- inception_3a/3x3
I0711 10:42:45.893172 121357 net.cpp:397] inception_3a/relu_3x3 -> inception_3a/3x3 (in-place)
I0711 10:42:45.893338 121357 net.cpp:150] Setting up inception_3a/relu_3x3
I0711 10:42:45.893354 121357 net.cpp:157] Top shape: 32 128 28 28 (3211264)
I0711 10:42:45.893362 121357 net.cpp:165] Memory required for data: 712901120
I0711 10:42:45.893370 121357 layer_factory.hpp:76] Creating layer inception_3a/5x5_reduce
I0711 10:42:45.893388 121357 net.cpp:106] Creating Layer inception_3a/5x5_reduce
I0711 10:42:45.893399 121357 net.cpp:454] inception_3a/5x5_reduce <- pool2/3x3_s2_pool2/3x3_s2_0_split_2
I0711 10:42:45.893409 121357 net.cpp:411] inception_3a/5x5_reduce -> inception_3a/5x5_reduce
I0711 10:42:45.894660 121357 net.cpp:150] Setting up inception_3a/5x5_reduce
I0711 10:42:45.894685 121357 net.cpp:157] Top shape: 32 16 28 28 (401408)
I0711 10:42:45.894697 121357 net.cpp:165] Memory required for data: 714506752
I0711 10:42:45.894711 121357 layer_factory.hpp:76] Creating layer inception_3a/relu_5x5_reduce
I0711 10:42:45.894724 121357 net.cpp:106] Creating Layer inception_3a/relu_5x5_reduce
I0711 10:42:45.894733 121357 net.cpp:454] inception_3a/relu_5x5_reduce <- inception_3a/5x5_reduce
I0711 10:42:45.894754 121357 net.cpp:397] inception_3a/relu_5x5_reduce -> inception_3a/5x5_reduce (in-place)
I0711 10:42:45.895071 121357 net.cpp:150] Setting up inception_3a/relu_5x5_reduce
I0711 10:42:45.895089 121357 net.cpp:157] Top shape: 32 16 28 28 (401408)
I0711 10:42:45.895097 121357 net.cpp:165] Memory required for data: 716112384
I0711 10:42:45.895105 121357 layer_factory.hpp:76] Creating layer inception_3a/5x5
I0711 10:42:45.895122 121357 net.cpp:106] Creating Layer inception_3a/5x5
I0711 10:42:45.895131 121357 net.cpp:454] inception_3a/5x5 <- inception_3a/5x5_reduce
I0711 10:42:45.895143 121357 net.cpp:411] inception_3a/5x5 -> inception_3a/5x5
I0711 10:42:45.896144 121357 net.cpp:150] Setting up inception_3a/5x5
I0711 10:42:45.896167 121357 net.cpp:157] Top shape: 32 32 28 28 (802816)
I0711 10:42:45.896174 121357 net.cpp:165] Memory required for data: 719323648
I0711 10:42:45.896186 121357 layer_factory.hpp:76] Creating layer inception_3a/relu_5x5
I0711 10:42:45.896203 121357 net.cpp:106] Creating Layer inception_3a/relu_5x5
I0711 10:42:45.896210 121357 net.cpp:454] inception_3a/relu_5x5 <- inception_3a/5x5
I0711 10:42:45.896222 121357 net.cpp:397] inception_3a/relu_5x5 -> inception_3a/5x5 (in-place)
I0711 10:42:45.896555 121357 net.cpp:150] Setting up inception_3a/relu_5x5
I0711 10:42:45.896600 121357 net.cpp:157] Top shape: 32 32 28 28 (802816)
I0711 10:42:45.896607 121357 net.cpp:165] Memory required for data: 722534912
I0711 10:42:45.896615 121357 layer_factory.hpp:76] Creating layer inception_3a/pool
I0711 10:42:45.896627 121357 net.cpp:106] Creating Layer inception_3a/pool
I0711 10:42:45.896637 121357 net.cpp:454] inception_3a/pool <- pool2/3x3_s2_pool2/3x3_s2_0_split_3
I0711 10:42:45.896651 121357 net.cpp:411] inception_3a/pool -> inception_3a/pool
I0711 10:42:45.896845 121357 net.cpp:150] Setting up inception_3a/pool
I0711 10:42:45.896862 121357 net.cpp:157] Top shape: 32 192 28 28 (4816896)
I0711 10:42:45.896869 121357 net.cpp:165] Memory required for data: 741802496
I0711 10:42:45.896896 121357 layer_factory.hpp:76] Creating layer inception_3a/pool_proj
I0711 10:42:45.896915 121357 net.cpp:106] Creating Layer inception_3a/pool_proj
I0711 10:42:45.896927 121357 net.cpp:454] inception_3a/pool_proj <- inception_3a/pool
I0711 10:42:45.896940 121357 net.cpp:411] inception_3a/pool_proj -> inception_3a/pool_proj
I0711 10:42:45.898037 121357 net.cpp:150] Setting up inception_3a/pool_proj
I0711 10:42:45.898061 121357 net.cpp:157] Top shape: 32 32 28 28 (802816)
I0711 10:42:45.898069 121357 net.cpp:165] Memory required for data: 745013760
I0711 10:42:45.898087 121357 layer_factory.hpp:76] Creating layer inception_3a/relu_pool_proj
I0711 10:42:45.898100 121357 net.cpp:106] Creating Layer inception_3a/relu_pool_proj
I0711 10:42:45.898109 121357 net.cpp:454] inception_3a/relu_pool_proj <- inception_3a/pool_proj
I0711 10:42:45.898124 121357 net.cpp:397] inception_3a/relu_pool_proj -> inception_3a/pool_proj (in-place)
I0711 10:42:45.898455 121357 net.cpp:150] Setting up inception_3a/relu_pool_proj
I0711 10:42:45.898489 121357 net.cpp:157] Top shape: 32 32 28 28 (802816)
I0711 10:42:45.898499 121357 net.cpp:165] Memory required for data: 748225024
I0711 10:42:45.898506 121357 layer_factory.hpp:76] Creating layer inception_3a/output
I0711 10:42:45.898526 121357 net.cpp:106] Creating Layer inception_3a/output
I0711 10:42:45.898536 121357 net.cpp:454] inception_3a/output <- inception_3a/1x1
I0711 10:42:45.898546 121357 net.cpp:454] inception_3a/output <- inception_3a/3x3
I0711 10:42:45.898568 121357 net.cpp:454] inception_3a/output <- inception_3a/5x5
I0711 10:42:45.898578 121357 net.cpp:454] inception_3a/output <- inception_3a/pool_proj
I0711 10:42:45.898588 121357 net.cpp:411] inception_3a/output -> inception_3a/output
I0711 10:42:45.898635 121357 net.cpp:150] Setting up inception_3a/output
I0711 10:42:45.898658 121357 net.cpp:157] Top shape: 32 256 28 28 (6422528)
I0711 10:42:45.898694 121357 net.cpp:165] Memory required for data: 773915136
I0711 10:42:45.898715 121357 layer_factory.hpp:76] Creating layer inception_3a/output_inception_3a/output_0_split
I0711 10:42:45.898727 121357 net.cpp:106] Creating Layer inception_3a/output_inception_3a/output_0_split
I0711 10:42:45.898741 121357 net.cpp:454] inception_3a/output_inception_3a/output_0_split <- inception_3a/output
I0711 10:42:45.898763 121357 net.cpp:411] inception_3a/output_inception_3a/output_0_split -> inception_3a/output_inception_3a/output_0_split_0
I0711 10:42:45.898778 121357 net.cpp:411] inception_3a/output_inception_3a/output_0_split -> inception_3a/output_inception_3a/output_0_split_1
I0711 10:42:45.898805 121357 net.cpp:411] inception_3a/output_inception_3a/output_0_split -> inception_3a/output_inception_3a/output_0_split_2
I0711 10:42:45.898815 121357 net.cpp:411] inception_3a/output_inception_3a/output_0_split -> inception_3a/output_inception_3a/output_0_split_3
I0711 10:42:45.898885 121357 net.cpp:150] Setting up inception_3a/output_inception_3a/output_0_split
I0711 10:42:45.898905 121357 net.cpp:157] Top shape: 32 256 28 28 (6422528)
I0711 10:42:45.898913 121357 net.cpp:157] Top shape: 32 256 28 28 (6422528)
I0711 10:42:45.898921 121357 net.cpp:157] Top shape: 32 256 28 28 (6422528)
I0711 10:42:45.898929 121357 net.cpp:157] Top shape: 32 256 28 28 (6422528)
I0711 10:42:45.898938 121357 net.cpp:165] Memory required for data: 876675584
I0711 10:42:45.898965 121357 layer_factory.hpp:76] Creating layer inception_3b/1x1
I0711 10:42:45.898983 121357 net.cpp:106] Creating Layer inception_3b/1x1
I0711 10:42:45.898994 121357 net.cpp:454] inception_3b/1x1 <- inception_3a/output_inception_3a/output_0_split_0
I0711 10:42:45.899004 121357 net.cpp:411] inception_3b/1x1 -> inception_3b/1x1
I0711 10:42:45.900223 121357 cudnn_conv_layer.cpp:194] Reallocating workspace storage: 3072
I0711 10:42:45.900272 121357 net.cpp:150] Setting up inception_3b/1x1
I0711 10:42:45.900285 121357 net.cpp:157] Top shape: 32 128 28 28 (3211264)
I0711 10:42:45.900300 121357 net.cpp:165] Memory required for data: 889520640
I0711 10:42:45.900312 121357 layer_factory.hpp:76] Creating layer inception_3b/relu_1x1
I0711 10:42:45.900326 121357 net.cpp:106] Creating Layer inception_3b/relu_1x1
I0711 10:42:45.900336 121357 net.cpp:454] inception_3b/relu_1x1 <- inception_3b/1x1
I0711 10:42:45.900346 121357 net.cpp:397] inception_3b/relu_1x1 -> inception_3b/1x1 (in-place)
I0711 10:42:45.900513 121357 net.cpp:150] Setting up inception_3b/relu_1x1
I0711 10:42:45.900529 121357 net.cpp:157] Top shape: 32 128 28 28 (3211264)
I0711 10:42:45.900537 121357 net.cpp:165] Memory required for data: 902365696
I0711 10:42:45.900544 121357 layer_factory.hpp:76] Creating layer inception_3b/3x3_reduce
I0711 10:42:45.900560 121357 net.cpp:106] Creating Layer inception_3b/3x3_reduce
I0711 10:42:45.900570 121357 net.cpp:454] inception_3b/3x3_reduce <- inception_3a/output_inception_3a/output_0_split_1
I0711 10:42:45.900581 121357 net.cpp:411] inception_3b/3x3_reduce -> inception_3b/3x3_reduce
I0711 10:42:45.901788 121357 cudnn_conv_layer.cpp:194] Reallocating workspace storage: 3072
I0711 10:42:45.901824 121357 net.cpp:150] Setting up inception_3b/3x3_reduce
I0711 10:42:45.901839 121357 net.cpp:157] Top shape: 32 128 28 28 (3211264)
I0711 10:42:45.901849 121357 net.cpp:165] Memory required for data: 915210752
I0711 10:42:45.901860 121357 layer_factory.hpp:76] Creating layer inception_3b/relu_3x3_reduce
I0711 10:42:45.901873 121357 net.cpp:106] Creating Layer inception_3b/relu_3x3_reduce
I0711 10:42:45.901883 121357 net.cpp:454] inception_3b/relu_3x3_reduce <- inception_3b/3x3_reduce
I0711 10:42:45.901895 121357 net.cpp:397] inception_3b/relu_3x3_reduce -> inception_3b/3x3_reduce (in-place)
I0711 10:42:45.902065 121357 net.cpp:150] Setting up inception_3b/relu_3x3_reduce
I0711 10:42:45.902081 121357 net.cpp:157] Top shape: 32 128 28 28 (3211264)
I0711 10:42:45.902088 121357 net.cpp:165] Memory required for data: 928055808
I0711 10:42:45.902096 121357 layer_factory.hpp:76] Creating layer inception_3b/3x3
I0711 10:42:45.902117 121357 net.cpp:106] Creating Layer inception_3b/3x3
I0711 10:42:45.902127 121357 net.cpp:454] inception_3b/3x3 <- inception_3b/3x3_reduce
I0711 10:42:45.902143 121357 net.cpp:411] inception_3b/3x3 -> inception_3b/3x3
I0711 10:42:45.905472 121357 cudnn_conv_layer.cpp:194] Reallocating workspace storage: 13824
I0711 10:42:45.905531 121357 net.cpp:150] Setting up inception_3b/3x3
I0711 10:42:45.905549 121357 net.cpp:157] Top shape: 32 192 28 28 (4816896)
I0711 10:42:45.905557 121357 net.cpp:165] Memory required for data: 947323392
I0711 10:42:45.905572 121357 layer_factory.hpp:76] Creating layer inception_3b/relu_3x3
I0711 10:42:45.905589 121357 net.cpp:106] Creating Layer inception_3b/relu_3x3
I0711 10:42:45.905603 121357 net.cpp:454] inception_3b/relu_3x3 <- inception_3b/3x3
I0711 10:42:45.905617 121357 net.cpp:397] inception_3b/relu_3x3 -> inception_3b/3x3 (in-place)
I0711 10:42:45.905936 121357 net.cpp:150] Setting up inception_3b/relu_3x3
I0711 10:42:45.905956 121357 net.cpp:157] Top shape: 32 192 28 28 (4816896)
I0711 10:42:45.905963 121357 net.cpp:165] Memory required for data: 966590976
I0711 10:42:45.905972 121357 layer_factory.hpp:76] Creating layer inception_3b/5x5_reduce
I0711 10:42:45.905989 121357 net.cpp:106] Creating Layer inception_3b/5x5_reduce
I0711 10:42:45.905999 121357 net.cpp:454] inception_3b/5x5_reduce <- inception_3a/output_inception_3a/output_0_split_2
I0711 10:42:45.906041 121357 net.cpp:411] inception_3b/5x5_reduce -> inception_3b/5x5_reduce
I0711 10:42:45.907243 121357 net.cpp:150] Setting up inception_3b/5x5_reduce
I0711 10:42:45.907268 121357 net.cpp:157] Top shape: 32 32 28 28 (802816)
I0711 10:42:45.907275 121357 net.cpp:165] Memory required for data: 969802240
I0711 10:42:45.907289 121357 layer_factory.hpp:76] Creating layer inception_3b/relu_5x5_reduce
I0711 10:42:45.907301 121357 net.cpp:106] Creating Layer inception_3b/relu_5x5_reduce
I0711 10:42:45.907311 121357 net.cpp:454] inception_3b/relu_5x5_reduce <- inception_3b/5x5_reduce
I0711 10:42:45.907322 121357 net.cpp:397] inception_3b/relu_5x5_reduce -> inception_3b/5x5_reduce (in-place)
I0711 10:42:45.907491 121357 net.cpp:150] Setting up inception_3b/relu_5x5_reduce
I0711 10:42:45.907507 121357 net.cpp:157] Top shape: 32 32 28 28 (802816)
I0711 10:42:45.907515 121357 net.cpp:165] Memory required for data: 973013504
I0711 10:42:45.907522 121357 layer_factory.hpp:76] Creating layer inception_3b/5x5
I0711 10:42:45.907539 121357 net.cpp:106] Creating Layer inception_3b/5x5
I0711 10:42:45.907548 121357 net.cpp:454] inception_3b/5x5 <- inception_3b/5x5_reduce
I0711 10:42:45.907562 121357 net.cpp:411] inception_3b/5x5 -> inception_3b/5x5
I0711 10:42:45.909940 121357 cudnn_conv_layer.cpp:194] Reallocating workspace storage: 9600
I0711 10:42:45.910017 121357 net.cpp:150] Setting up inception_3b/5x5
I0711 10:42:45.910046 121357 net.cpp:157] Top shape: 32 96 28 28 (2408448)
I0711 10:42:45.910063 121357 net.cpp:165] Memory required for data: 982647296
I0711 10:42:45.910086 121357 layer_factory.hpp:76] Creating layer inception_3b/relu_5x5
I0711 10:42:45.910115 121357 net.cpp:106] Creating Layer inception_3b/relu_5x5
I0711 10:42:45.910138 121357 net.cpp:454] inception_3b/relu_5x5 <- inception_3b/5x5
I0711 10:42:45.910161 121357 net.cpp:397] inception_3b/relu_5x5 -> inception_3b/5x5 (in-place)
I0711 10:42:45.910508 121357 net.cpp:150] Setting up inception_3b/relu_5x5
I0711 10:42:45.910531 121357 net.cpp:157] Top shape: 32 96 28 28 (2408448)
I0711 10:42:45.910542 121357 net.cpp:165] Memory required for data: 992281088
I0711 10:42:45.910552 121357 layer_factory.hpp:76] Creating layer inception_3b/pool
I0711 10:42:45.910574 121357 net.cpp:106] Creating Layer inception_3b/pool
I0711 10:42:45.910593 121357 net.cpp:454] inception_3b/pool <- inception_3a/output_inception_3a/output_0_split_3
I0711 10:42:45.910609 121357 net.cpp:411] inception_3b/pool -> inception_3b/pool
I0711 10:42:45.911206 121357 net.cpp:150] Setting up inception_3b/pool
I0711 10:42:45.911242 121357 net.cpp:157] Top shape: 32 256 28 28 (6422528)
I0711 10:42:45.911257 121357 net.cpp:165] Memory required for data: 1017971200
I0711 10:42:45.911274 121357 layer_factory.hpp:76] Creating layer inception_3b/pool_proj
I0711 10:42:45.911305 121357 net.cpp:106] Creating Layer inception_3b/pool_proj
I0711 10:42:45.911329 121357 net.cpp:454] inception_3b/pool_proj <- inception_3b/pool
I0711 10:42:45.911351 121357 net.cpp:411] inception_3b/pool_proj -> inception_3b/pool_proj
I0711 10:42:45.913449 121357 cudnn_conv_layer.cpp:194] Reallocating workspace storage: 3072
I0711 10:42:45.913477 121357 net.cpp:150] Setting up inception_3b/pool_proj
I0711 10:42:45.913488 121357 net.cpp:157] Top shape: 32 64 28 28 (1605632)
I0711 10:42:45.913499 121357 net.cpp:165] Memory required for data: 1024393728
I0711 10:42:45.913509 121357 layer_factory.hpp:76] Creating layer inception_3b/relu_pool_proj
I0711 10:42:45.913521 121357 net.cpp:106] Creating Layer inception_3b/relu_pool_proj
I0711 10:42:45.913529 121357 net.cpp:454] inception_3b/relu_pool_proj <- inception_3b/pool_proj
I0711 10:42:45.913539 121357 net.cpp:397] inception_3b/relu_pool_proj -> inception_3b/pool_proj (in-place)
I0711 10:42:45.913702 121357 net.cpp:150] Setting up inception_3b/relu_pool_proj
I0711 10:42:45.913720 121357 net.cpp:157] Top shape: 32 64 28 28 (1605632)
I0711 10:42:45.913728 121357 net.cpp:165] Memory required for data: 1030816256
I0711 10:42:45.913748 121357 layer_factory.hpp:76] Creating layer inception_3b/output
I0711 10:42:45.913779 121357 net.cpp:106] Creating Layer inception_3b/output
I0711 10:42:45.913789 121357 net.cpp:454] inception_3b/output <- inception_3b/1x1
I0711 10:42:45.913797 121357 net.cpp:454] inception_3b/output <- inception_3b/3x3
I0711 10:42:45.913808 121357 net.cpp:454] inception_3b/output <- inception_3b/5x5
I0711 10:42:45.913815 121357 net.cpp:454] inception_3b/output <- inception_3b/pool_proj
I0711 10:42:45.913823 121357 net.cpp:411] inception_3b/output -> inception_3b/output
I0711 10:42:45.913856 121357 net.cpp:150] Setting up inception_3b/output
I0711 10:42:45.913869 121357 net.cpp:157] Top shape: 32 480 28 28 (12042240)
I0711 10:42:45.913877 121357 net.cpp:165] Memory required for data: 1078985216
I0711 10:42:45.913883 121357 layer_factory.hpp:76] Creating layer pool3/3x3_s2
I0711 10:42:45.913899 121357 net.cpp:106] Creating Layer pool3/3x3_s2
I0711 10:42:45.913908 121357 net.cpp:454] pool3/3x3_s2 <- inception_3b/output
I0711 10:42:45.913916 121357 net.cpp:411] pool3/3x3_s2 -> pool3/3x3_s2
I0711 10:42:45.914252 121357 net.cpp:150] Setting up pool3/3x3_s2
I0711 10:42:45.914271 121357 net.cpp:157] Top shape: 32 480 14 14 (3010560)
I0711 10:42:45.914279 121357 net.cpp:165] Memory required for data: 1091027456
I0711 10:42:45.914288 121357 layer_factory.hpp:76] Creating layer pool3/3x3_s2_pool3/3x3_s2_0_split
I0711 10:42:45.914301 121357 net.cpp:106] Creating Layer pool3/3x3_s2_pool3/3x3_s2_0_split
I0711 10:42:45.914310 121357 net.cpp:454] pool3/3x3_s2_pool3/3x3_s2_0_split <- pool3/3x3_s2
I0711 10:42:45.914320 121357 net.cpp:411] pool3/3x3_s2_pool3/3x3_s2_0_split -> pool3/3x3_s2_pool3/3x3_s2_0_split_0
I0711 10:42:45.914331 121357 net.cpp:411] pool3/3x3_s2_pool3/3x3_s2_0_split -> pool3/3x3_s2_pool3/3x3_s2_0_split_1
I0711 10:42:45.914342 121357 net.cpp:411] pool3/3x3_s2_pool3/3x3_s2_0_split -> pool3/3x3_s2_pool3/3x3_s2_0_split_2
I0711 10:42:45.914352 121357 net.cpp:411] pool3/3x3_s2_pool3/3x3_s2_0_split -> pool3/3x3_s2_pool3/3x3_s2_0_split_3
I0711 10:42:45.914417 121357 net.cpp:150] Setting up pool3/3x3_s2_pool3/3x3_s2_0_split
I0711 10:42:45.914432 121357 net.cpp:157] Top shape: 32 480 14 14 (3010560)
I0711 10:42:45.914439 121357 net.cpp:157] Top shape: 32 480 14 14 (3010560)
I0711 10:42:45.914448 121357 net.cpp:157] Top shape: 32 480 14 14 (3010560)
I0711 10:42:45.914455 121357 net.cpp:157] Top shape: 32 480 14 14 (3010560)
I0711 10:42:45.914463 121357 net.cpp:165] Memory required for data: 1139196416
I0711 10:42:45.914470 121357 layer_factory.hpp:76] Creating layer inception_4a/1x1
I0711 10:42:45.914484 121357 net.cpp:106] Creating Layer inception_4a/1x1
I0711 10:42:45.914492 121357 net.cpp:454] inception_4a/1x1 <- pool3/3x3_s2_pool3/3x3_s2_0_split_0
I0711 10:42:45.914505 121357 net.cpp:411] inception_4a/1x1 -> inception_4a/1x1
I0711 10:42:45.916163 121357 cudnn_conv_layer.cpp:194] Reallocating workspace storage: 5760
I0711 10:42:45.916208 121357 net.cpp:150] Setting up inception_4a/1x1
I0711 10:42:45.916219 121357 net.cpp:157] Top shape: 32 192 14 14 (1204224)
I0711 10:42:45.916227 121357 net.cpp:165] Memory required for data: 1144013312
I0711 10:42:45.916239 121357 layer_factory.hpp:76] Creating layer inception_4a/relu_1x1
I0711 10:42:45.916252 121357 net.cpp:106] Creating Layer inception_4a/relu_1x1
I0711 10:42:45.916261 121357 net.cpp:454] inception_4a/relu_1x1 <- inception_4a/1x1
I0711 10:42:45.916273 121357 net.cpp:397] inception_4a/relu_1x1 -> inception_4a/1x1 (in-place)
I0711 10:42:45.916438 121357 net.cpp:150] Setting up inception_4a/relu_1x1
I0711 10:42:45.916455 121357 net.cpp:157] Top shape: 32 192 14 14 (1204224)
I0711 10:42:45.916462 121357 net.cpp:165] Memory required for data: 1148830208
I0711 10:42:45.916470 121357 layer_factory.hpp:76] Creating layer inception_4a/3x3_reduce
I0711 10:42:45.916486 121357 net.cpp:106] Creating Layer inception_4a/3x3_reduce
I0711 10:42:45.916496 121357 net.cpp:454] inception_4a/3x3_reduce <- pool3/3x3_s2_pool3/3x3_s2_0_split_1
I0711 10:42:45.916506 121357 net.cpp:411] inception_4a/3x3_reduce -> inception_4a/3x3_reduce
I0711 10:42:45.917774 121357 cudnn_conv_layer.cpp:194] Reallocating workspace storage: 5760
I0711 10:42:45.917824 121357 net.cpp:150] Setting up inception_4a/3x3_reduce
I0711 10:42:45.917836 121357 net.cpp:157] Top shape: 32 96 14 14 (602112)
I0711 10:42:45.917845 121357 net.cpp:165] Memory required for data: 1151238656
I0711 10:42:45.917865 121357 layer_factory.hpp:76] Creating layer inception_4a/relu_3x3_reduce
I0711 10:42:45.917876 121357 net.cpp:106] Creating Layer inception_4a/relu_3x3_reduce
I0711 10:42:45.917887 121357 net.cpp:454] inception_4a/relu_3x3_reduce <- inception_4a/3x3_reduce
I0711 10:42:45.917898 121357 net.cpp:397] inception_4a/relu_3x3_reduce -> inception_4a/3x3_reduce (in-place)
I0711 10:42:45.918063 121357 net.cpp:150] Setting up inception_4a/relu_3x3_reduce
I0711 10:42:45.918078 121357 net.cpp:157] Top shape: 32 96 14 14 (602112)
I0711 10:42:45.918087 121357 net.cpp:165] Memory required for data: 1153647104
I0711 10:42:45.918094 121357 layer_factory.hpp:76] Creating layer inception_4a/3x3
I0711 10:42:45.918107 121357 net.cpp:106] Creating Layer inception_4a/3x3
I0711 10:42:45.918115 121357 net.cpp:454] inception_4a/3x3 <- inception_4a/3x3_reduce
I0711 10:42:45.918128 121357 net.cpp:411] inception_4a/3x3 -> inception_4a/3x3
I0711 10:42:45.920665 121357 cudnn_conv_layer.cpp:194] Reallocating workspace storage: 10368
I0711 10:42:45.920699 121357 net.cpp:150] Setting up inception_4a/3x3
I0711 10:42:45.920711 121357 net.cpp:157] Top shape: 32 208 14 14 (1304576)
I0711 10:42:45.920718 121357 net.cpp:165] Memory required for data: 1158865408
I0711 10:42:45.920728 121357 layer_factory.hpp:76] Creating layer inception_4a/relu_3x3
I0711 10:42:45.920740 121357 net.cpp:106] Creating Layer inception_4a/relu_3x3
I0711 10:42:45.920747 121357 net.cpp:454] inception_4a/relu_3x3 <- inception_4a/3x3
I0711 10:42:45.920756 121357 net.cpp:397] inception_4a/relu_3x3 -> inception_4a/3x3 (in-place)
I0711 10:42:45.921104 121357 net.cpp:150] Setting up inception_4a/relu_3x3
I0711 10:42:45.921123 121357 net.cpp:157] Top shape: 32 208 14 14 (1304576)
I0711 10:42:45.921130 121357 net.cpp:165] Memory required for data: 1164083712
I0711 10:42:45.921139 121357 layer_factory.hpp:76] Creating layer inception_4a/5x5_reduce
I0711 10:42:45.921154 121357 net.cpp:106] Creating Layer inception_4a/5x5_reduce
I0711 10:42:45.921164 121357 net.cpp:454] inception_4a/5x5_reduce <- pool3/3x3_s2_pool3/3x3_s2_0_split_2
I0711 10:42:45.921175 121357 net.cpp:411] inception_4a/5x5_reduce -> inception_4a/5x5_reduce
I0711 10:42:45.922235 121357 net.cpp:150] Setting up inception_4a/5x5_reduce
I0711 10:42:45.922256 121357 net.cpp:157] Top shape: 32 16 14 14 (100352)
I0711 10:42:45.922264 121357 net.cpp:165] Memory required for data: 1164485120
I0711 10:42:45.922276 121357 layer_factory.hpp:76] Creating layer inception_4a/relu_5x5_reduce
I0711 10:42:45.922296 121357 net.cpp:106] Creating Layer inception_4a/relu_5x5_reduce
I0711 10:42:45.922304 121357 net.cpp:454] inception_4a/relu_5x5_reduce <- inception_4a/5x5_reduce
I0711 10:42:45.922315 121357 net.cpp:397] inception_4a/relu_5x5_reduce -> inception_4a/5x5_reduce (in-place)
I0711 10:42:45.922477 121357 net.cpp:150] Setting up inception_4a/relu_5x5_reduce
I0711 10:42:45.922492 121357 net.cpp:157] Top shape: 32 16 14 14 (100352)
I0711 10:42:45.922499 121357 net.cpp:165] Memory required for data: 1164886528
I0711 10:42:45.922510 121357 layer_factory.hpp:76] Creating layer inception_4a/5x5
I0711 10:42:45.922533 121357 net.cpp:106] Creating Layer inception_4a/5x5
I0711 10:42:45.922544 121357 net.cpp:454] inception_4a/5x5 <- inception_4a/5x5_reduce
I0711 10:42:45.922555 121357 net.cpp:411] inception_4a/5x5 -> inception_4a/5x5
I0711 10:42:45.923704 121357 net.cpp:150] Setting up inception_4a/5x5
I0711 10:42:45.923725 121357 net.cpp:157] Top shape: 32 48 14 14 (301056)
I0711 10:42:45.923733 121357 net.cpp:165] Memory required for data: 1166090752
I0711 10:42:45.923743 121357 layer_factory.hpp:76] Creating layer inception_4a/relu_5x5
I0711 10:42:45.923758 121357 net.cpp:106] Creating Layer inception_4a/relu_5x5
I0711 10:42:45.923768 121357 net.cpp:454] inception_4a/relu_5x5 <- inception_4a/5x5
I0711 10:42:45.923795 121357 net.cpp:397] inception_4a/relu_5x5 -> inception_4a/5x5 (in-place)
I0711 10:42:45.923991 121357 net.cpp:150] Setting up inception_4a/relu_5x5
I0711 10:42:45.924007 121357 net.cpp:157] Top shape: 32 48 14 14 (301056)
I0711 10:42:45.924015 121357 net.cpp:165] Memory required for data: 1167294976
I0711 10:42:45.924023 121357 layer_factory.hpp:76] Creating layer inception_4a/pool
I0711 10:42:45.924036 121357 net.cpp:106] Creating Layer inception_4a/pool
I0711 10:42:45.924046 121357 net.cpp:454] inception_4a/pool <- pool3/3x3_s2_pool3/3x3_s2_0_split_3
I0711 10:42:45.924057 121357 net.cpp:411] inception_4a/pool -> inception_4a/pool
I0711 10:42:45.924398 121357 net.cpp:150] Setting up inception_4a/pool
I0711 10:42:45.924418 121357 net.cpp:157] Top shape: 32 480 14 14 (3010560)
I0711 10:42:45.924427 121357 net.cpp:165] Memory required for data: 1179337216
I0711 10:42:45.924435 121357 layer_factory.hpp:76] Creating layer inception_4a/pool_proj
I0711 10:42:45.924449 121357 net.cpp:106] Creating Layer inception_4a/pool_proj
I0711 10:42:45.924458 121357 net.cpp:454] inception_4a/pool_proj <- inception_4a/pool
I0711 10:42:45.924470 121357 net.cpp:411] inception_4a/pool_proj -> inception_4a/pool_proj
I0711 10:42:45.925673 121357 net.cpp:150] Setting up inception_4a/pool_proj
I0711 10:42:45.925694 121357 net.cpp:157] Top shape: 32 64 14 14 (401408)
I0711 10:42:45.925703 121357 net.cpp:165] Memory required for data: 1180942848
I0711 10:42:45.925714 121357 layer_factory.hpp:76] Creating layer inception_4a/relu_pool_proj
I0711 10:42:45.925729 121357 net.cpp:106] Creating Layer inception_4a/relu_pool_proj
I0711 10:42:45.925737 121357 net.cpp:454] inception_4a/relu_pool_proj <- inception_4a/pool_proj
I0711 10:42:45.925750 121357 net.cpp:397] inception_4a/relu_pool_proj -> inception_4a/pool_proj (in-place)
I0711 10:42:45.925920 121357 net.cpp:150] Setting up inception_4a/relu_pool_proj
I0711 10:42:45.925936 121357 net.cpp:157] Top shape: 32 64 14 14 (401408)
I0711 10:42:45.925945 121357 net.cpp:165] Memory required for data: 1182548480
I0711 10:42:45.925952 121357 layer_factory.hpp:76] Creating layer inception_4a/output
I0711 10:42:45.925964 121357 net.cpp:106] Creating Layer inception_4a/output
I0711 10:42:45.925974 121357 net.cpp:454] inception_4a/output <- inception_4a/1x1
I0711 10:42:45.925982 121357 net.cpp:454] inception_4a/output <- inception_4a/3x3
I0711 10:42:45.925990 121357 net.cpp:454] inception_4a/output <- inception_4a/5x5
I0711 10:42:45.925999 121357 net.cpp:454] inception_4a/output <- inception_4a/pool_proj
I0711 10:42:45.926008 121357 net.cpp:411] inception_4a/output -> inception_4a/output
I0711 10:42:45.926044 121357 net.cpp:150] Setting up inception_4a/output
I0711 10:42:45.926059 121357 net.cpp:157] Top shape: 32 512 14 14 (3211264)
I0711 10:42:45.926066 121357 net.cpp:165] Memory required for data: 1195393536
I0711 10:42:45.926074 121357 layer_factory.hpp:76] Creating layer inception_4a/output_inception_4a/output_0_split
I0711 10:42:45.926086 121357 net.cpp:106] Creating Layer inception_4a/output_inception_4a/output_0_split
I0711 10:42:45.926095 121357 net.cpp:454] inception_4a/output_inception_4a/output_0_split <- inception_4a/output
I0711 10:42:45.926105 121357 net.cpp:411] inception_4a/output_inception_4a/output_0_split -> inception_4a/output_inception_4a/output_0_split_0
I0711 10:42:45.926118 121357 net.cpp:411] inception_4a/output_inception_4a/output_0_split -> inception_4a/output_inception_4a/output_0_split_1
I0711 10:42:45.926128 121357 net.cpp:411] inception_4a/output_inception_4a/output_0_split -> inception_4a/output_inception_4a/output_0_split_2
I0711 10:42:45.926141 121357 net.cpp:411] inception_4a/output_inception_4a/output_0_split -> inception_4a/output_inception_4a/output_0_split_3
I0711 10:42:45.926149 121357 net.cpp:411] inception_4a/output_inception_4a/output_0_split -> inception_4a/output_inception_4a/output_0_split_4
I0711 10:42:45.926226 121357 net.cpp:150] Setting up inception_4a/output_inception_4a/output_0_split
I0711 10:42:45.926252 121357 net.cpp:157] Top shape: 32 512 14 14 (3211264)
I0711 10:42:45.926261 121357 net.cpp:157] Top shape: 32 512 14 14 (3211264)
I0711 10:42:45.926270 121357 net.cpp:157] Top shape: 32 512 14 14 (3211264)
I0711 10:42:45.926277 121357 net.cpp:157] Top shape: 32 512 14 14 (3211264)
I0711 10:42:45.926285 121357 net.cpp:157] Top shape: 32 512 14 14 (3211264)
I0711 10:42:45.926293 121357 net.cpp:165] Memory required for data: 1259618816
I0711 10:42:45.926301 121357 layer_factory.hpp:76] Creating layer loss1/ave_pool
I0711 10:42:45.926311 121357 net.cpp:106] Creating Layer loss1/ave_pool
I0711 10:42:45.926318 121357 net.cpp:454] loss1/ave_pool <- inception_4a/output_inception_4a/output_0_split_0
I0711 10:42:45.926331 121357 net.cpp:411] loss1/ave_pool -> loss1/ave_pool
I0711 10:42:45.926707 121357 net.cpp:150] Setting up loss1/ave_pool
I0711 10:42:45.926725 121357 net.cpp:157] Top shape: 32 512 4 4 (262144)
I0711 10:42:45.926734 121357 net.cpp:165] Memory required for data: 1260667392
I0711 10:42:45.926743 121357 layer_factory.hpp:76] Creating layer loss1/conv
I0711 10:42:45.926756 121357 net.cpp:106] Creating Layer loss1/conv
I0711 10:42:45.926766 121357 net.cpp:454] loss1/conv <- loss1/ave_pool
I0711 10:42:45.926780 121357 net.cpp:411] loss1/conv -> loss1/conv
I0711 10:42:45.928455 121357 cudnn_conv_layer.cpp:194] Reallocating workspace storage: 6144
I0711 10:42:45.928493 121357 net.cpp:150] Setting up loss1/conv
I0711 10:42:45.928504 121357 net.cpp:157] Top shape: 32 128 4 4 (65536)
I0711 10:42:45.928511 121357 net.cpp:165] Memory required for data: 1260929536
I0711 10:42:45.928521 121357 layer_factory.hpp:76] Creating layer loss1/relu_conv
I0711 10:42:45.928534 121357 net.cpp:106] Creating Layer loss1/relu_conv
I0711 10:42:45.928544 121357 net.cpp:454] loss1/relu_conv <- loss1/conv
I0711 10:42:45.928556 121357 net.cpp:397] loss1/relu_conv -> loss1/conv (in-place)
I0711 10:42:45.928722 121357 net.cpp:150] Setting up loss1/relu_conv
I0711 10:42:45.928750 121357 net.cpp:157] Top shape: 32 128 4 4 (65536)
I0711 10:42:45.928757 121357 net.cpp:165] Memory required for data: 1261191680
I0711 10:42:45.928766 121357 layer_factory.hpp:76] Creating layer loss1/fc
I0711 10:42:45.928779 121357 net.cpp:106] Creating Layer loss1/fc
I0711 10:42:45.928787 121357 net.cpp:454] loss1/fc <- loss1/conv
I0711 10:42:45.928800 121357 net.cpp:411] loss1/fc -> loss1/fc
I0711 10:42:45.944988 121357 net.cpp:150] Setting up loss1/fc
I0711 10:42:45.945026 121357 net.cpp:157] Top shape: 32 1024 (32768)
I0711 10:42:45.945035 121357 net.cpp:165] Memory required for data: 1261322752
I0711 10:42:45.945051 121357 layer_factory.hpp:76] Creating layer loss1/relu_fc
I0711 10:42:45.945068 121357 net.cpp:106] Creating Layer loss1/relu_fc
I0711 10:42:45.945083 121357 net.cpp:454] loss1/relu_fc <- loss1/fc
I0711 10:42:45.945097 121357 net.cpp:397] loss1/relu_fc -> loss1/fc (in-place)
I0711 10:42:45.945586 121357 net.cpp:150] Setting up loss1/relu_fc
I0711 10:42:45.945605 121357 net.cpp:157] Top shape: 32 1024 (32768)
I0711 10:42:45.945613 121357 net.cpp:165] Memory required for data: 1261453824
I0711 10:42:45.945621 121357 layer_factory.hpp:76] Creating layer loss1/drop_fc
I0711 10:42:45.945652 121357 net.cpp:106] Creating Layer loss1/drop_fc
I0711 10:42:45.945662 121357 net.cpp:454] loss1/drop_fc <- loss1/fc
I0711 10:42:45.945672 121357 net.cpp:397] loss1/drop_fc -> loss1/fc (in-place)
I0711 10:42:45.945718 121357 net.cpp:150] Setting up loss1/drop_fc
I0711 10:42:45.945731 121357 net.cpp:157] Top shape: 32 1024 (32768)
I0711 10:42:45.945739 121357 net.cpp:165] Memory required for data: 1261584896
I0711 10:42:45.945747 121357 layer_factory.hpp:76] Creating layer loss1/classifier
I0711 10:42:45.945762 121357 net.cpp:106] Creating Layer loss1/classifier
I0711 10:42:45.945771 121357 net.cpp:454] loss1/classifier <- loss1/fc
I0711 10:42:45.945786 121357 net.cpp:411] loss1/classifier -> loss1/classifier
I0711 10:42:45.945919 121357 net.cpp:150] Setting up loss1/classifier
I0711 10:42:45.945935 121357 net.cpp:157] Top shape: 32 2 (64)
I0711 10:42:45.945943 121357 net.cpp:165] Memory required for data: 1261585152
I0711 10:42:45.945972 121357 layer_factory.hpp:76] Creating layer loss1/loss
I0711 10:42:45.945987 121357 net.cpp:106] Creating Layer loss1/loss
I0711 10:42:45.945996 121357 net.cpp:454] loss1/loss <- loss1/classifier
I0711 10:42:45.946004 121357 net.cpp:454] loss1/loss <- label_data_1_split_0
I0711 10:42:45.946015 121357 net.cpp:411] loss1/loss -> loss1/loss1
I0711 10:42:45.946033 121357 layer_factory.hpp:76] Creating layer loss1/loss
I0711 10:42:45.946297 121357 net.cpp:150] Setting up loss1/loss
I0711 10:42:45.946315 121357 net.cpp:157] Top shape: (1)
I0711 10:42:45.946321 121357 net.cpp:160]     with loss weight 0.3
I0711 10:42:45.946348 121357 net.cpp:165] Memory required for data: 1261585156
I0711 10:42:45.946357 121357 layer_factory.hpp:76] Creating layer inception_4b/1x1
I0711 10:42:45.946373 121357 net.cpp:106] Creating Layer inception_4b/1x1
I0711 10:42:45.946382 121357 net.cpp:454] inception_4b/1x1 <- inception_4a/output_inception_4a/output_0_split_1
I0711 10:42:45.946393 121357 net.cpp:411] inception_4b/1x1 -> inception_4b/1x1
I0711 10:42:45.947978 121357 cudnn_conv_layer.cpp:194] Reallocating workspace storage: 6144
I0711 10:42:45.948014 121357 net.cpp:150] Setting up inception_4b/1x1
I0711 10:42:45.948025 121357 net.cpp:157] Top shape: 32 160 14 14 (1003520)
I0711 10:42:45.948034 121357 net.cpp:165] Memory required for data: 1265599236
I0711 10:42:45.948045 121357 layer_factory.hpp:76] Creating layer inception_4b/relu_1x1
I0711 10:42:45.948056 121357 net.cpp:106] Creating Layer inception_4b/relu_1x1
I0711 10:42:45.948065 121357 net.cpp:454] inception_4b/relu_1x1 <- inception_4b/1x1
I0711 10:42:45.948079 121357 net.cpp:397] inception_4b/relu_1x1 -> inception_4b/1x1 (in-place)
I0711 10:42:45.948390 121357 net.cpp:150] Setting up inception_4b/relu_1x1
I0711 10:42:45.948408 121357 net.cpp:157] Top shape: 32 160 14 14 (1003520)
I0711 10:42:45.948416 121357 net.cpp:165] Memory required for data: 1269613316
I0711 10:42:45.948424 121357 layer_factory.hpp:76] Creating layer inception_4b/3x3_reduce
I0711 10:42:45.948441 121357 net.cpp:106] Creating Layer inception_4b/3x3_reduce
I0711 10:42:45.948449 121357 net.cpp:454] inception_4b/3x3_reduce <- inception_4a/output_inception_4a/output_0_split_2
I0711 10:42:45.948462 121357 net.cpp:411] inception_4b/3x3_reduce -> inception_4b/3x3_reduce
I0711 10:42:45.950217 121357 cudnn_conv_layer.cpp:194] Reallocating workspace storage: 6144
I0711 10:42:45.950248 121357 net.cpp:150] Setting up inception_4b/3x3_reduce
I0711 10:42:45.950259 121357 net.cpp:157] Top shape: 32 112 14 14 (702464)
I0711 10:42:45.950269 121357 net.cpp:165] Memory required for data: 1272423172
I0711 10:42:45.950279 121357 layer_factory.hpp:76] Creating layer inception_4b/relu_3x3_reduce
I0711 10:42:45.950289 121357 net.cpp:106] Creating Layer inception_4b/relu_3x3_reduce
I0711 10:42:45.950299 121357 net.cpp:454] inception_4b/relu_3x3_reduce <- inception_4b/3x3_reduce
I0711 10:42:45.950309 121357 net.cpp:397] inception_4b/relu_3x3_reduce -> inception_4b/3x3_reduce (in-place)
I0711 10:42:45.950623 121357 net.cpp:150] Setting up inception_4b/relu_3x3_reduce
I0711 10:42:45.950665 121357 net.cpp:157] Top shape: 32 112 14 14 (702464)
I0711 10:42:45.950675 121357 net.cpp:165] Memory required for data: 1275233028
I0711 10:42:45.950683 121357 layer_factory.hpp:76] Creating layer inception_4b/3x3
I0711 10:42:45.950700 121357 net.cpp:106] Creating Layer inception_4b/3x3
I0711 10:42:45.950712 121357 net.cpp:454] inception_4b/3x3 <- inception_4b/3x3_reduce
I0711 10:42:45.950737 121357 net.cpp:411] inception_4b/3x3 -> inception_4b/3x3
I0711 10:42:45.953627 121357 cudnn_conv_layer.cpp:194] Reallocating workspace storage: 12096
I0711 10:42:45.953657 121357 net.cpp:150] Setting up inception_4b/3x3
I0711 10:42:45.953668 121357 net.cpp:157] Top shape: 32 224 14 14 (1404928)
I0711 10:42:45.953680 121357 net.cpp:165] Memory required for data: 1280852740
I0711 10:42:45.953690 121357 layer_factory.hpp:76] Creating layer inception_4b/relu_3x3
I0711 10:42:45.953701 121357 net.cpp:106] Creating Layer inception_4b/relu_3x3
I0711 10:42:45.953728 121357 net.cpp:454] inception_4b/relu_3x3 <- inception_4b/3x3
I0711 10:42:45.953738 121357 net.cpp:397] inception_4b/relu_3x3 -> inception_4b/3x3 (in-place)
I0711 10:42:45.953912 121357 net.cpp:150] Setting up inception_4b/relu_3x3
I0711 10:42:45.953940 121357 net.cpp:157] Top shape: 32 224 14 14 (1404928)
I0711 10:42:45.953948 121357 net.cpp:165] Memory required for data: 1286472452
I0711 10:42:45.953954 121357 layer_factory.hpp:76] Creating layer inception_4b/5x5_reduce
I0711 10:42:45.953969 121357 net.cpp:106] Creating Layer inception_4b/5x5_reduce
I0711 10:42:45.953979 121357 net.cpp:454] inception_4b/5x5_reduce <- inception_4a/output_inception_4a/output_0_split_3
I0711 10:42:45.953990 121357 net.cpp:411] inception_4b/5x5_reduce -> inception_4b/5x5_reduce
I0711 10:42:45.955039 121357 net.cpp:150] Setting up inception_4b/5x5_reduce
I0711 10:42:45.955059 121357 net.cpp:157] Top shape: 32 24 14 14 (150528)
I0711 10:42:45.955065 121357 net.cpp:165] Memory required for data: 1287074564
I0711 10:42:45.955075 121357 layer_factory.hpp:76] Creating layer inception_4b/relu_5x5_reduce
I0711 10:42:45.955088 121357 net.cpp:106] Creating Layer inception_4b/relu_5x5_reduce
I0711 10:42:45.955097 121357 net.cpp:454] inception_4b/relu_5x5_reduce <- inception_4b/5x5_reduce
I0711 10:42:45.955106 121357 net.cpp:397] inception_4b/relu_5x5_reduce -> inception_4b/5x5_reduce (in-place)
I0711 10:42:45.955421 121357 net.cpp:150] Setting up inception_4b/relu_5x5_reduce
I0711 10:42:45.955438 121357 net.cpp:157] Top shape: 32 24 14 14 (150528)
I0711 10:42:45.955446 121357 net.cpp:165] Memory required for data: 1287676676
I0711 10:42:45.955453 121357 layer_factory.hpp:76] Creating layer inception_4b/5x5
I0711 10:42:45.955468 121357 net.cpp:106] Creating Layer inception_4b/5x5
I0711 10:42:45.955477 121357 net.cpp:454] inception_4b/5x5 <- inception_4b/5x5_reduce
I0711 10:42:45.955487 121357 net.cpp:411] inception_4b/5x5 -> inception_4b/5x5
I0711 10:42:45.956580 121357 net.cpp:150] Setting up inception_4b/5x5
I0711 10:42:45.956598 121357 net.cpp:157] Top shape: 32 64 14 14 (401408)
I0711 10:42:45.956606 121357 net.cpp:165] Memory required for data: 1289282308
I0711 10:42:45.956616 121357 layer_factory.hpp:76] Creating layer inception_4b/relu_5x5
I0711 10:42:45.956629 121357 net.cpp:106] Creating Layer inception_4b/relu_5x5
I0711 10:42:45.956636 121357 net.cpp:454] inception_4b/relu_5x5 <- inception_4b/5x5
I0711 10:42:45.956645 121357 net.cpp:397] inception_4b/relu_5x5 -> inception_4b/5x5 (in-place)
I0711 10:42:45.956961 121357 net.cpp:150] Setting up inception_4b/relu_5x5
I0711 10:42:45.956979 121357 net.cpp:157] Top shape: 32 64 14 14 (401408)
I0711 10:42:45.956985 121357 net.cpp:165] Memory required for data: 1290887940
I0711 10:42:45.956992 121357 layer_factory.hpp:76] Creating layer inception_4b/pool
I0711 10:42:45.957005 121357 net.cpp:106] Creating Layer inception_4b/pool
I0711 10:42:45.957013 121357 net.cpp:454] inception_4b/pool <- inception_4a/output_inception_4a/output_0_split_4
I0711 10:42:45.957022 121357 net.cpp:411] inception_4b/pool -> inception_4b/pool
I0711 10:42:45.957244 121357 net.cpp:150] Setting up inception_4b/pool
I0711 10:42:45.957260 121357 net.cpp:157] Top shape: 32 512 14 14 (3211264)
I0711 10:42:45.957267 121357 net.cpp:165] Memory required for data: 1303732996
I0711 10:42:45.957274 121357 layer_factory.hpp:76] Creating layer inception_4b/pool_proj
I0711 10:42:45.957288 121357 net.cpp:106] Creating Layer inception_4b/pool_proj
I0711 10:42:45.957296 121357 net.cpp:454] inception_4b/pool_proj <- inception_4b/pool
I0711 10:42:45.957305 121357 net.cpp:411] inception_4b/pool_proj -> inception_4b/pool_proj
I0711 10:42:45.958456 121357 cudnn_conv_layer.cpp:194] Reallocating workspace storage: 6144
I0711 10:42:45.958495 121357 net.cpp:150] Setting up inception_4b/pool_proj
I0711 10:42:45.958508 121357 net.cpp:157] Top shape: 32 64 14 14 (401408)
I0711 10:42:45.958515 121357 net.cpp:165] Memory required for data: 1305338628
I0711 10:42:45.958526 121357 layer_factory.hpp:76] Creating layer inception_4b/relu_pool_proj
I0711 10:42:45.958551 121357 net.cpp:106] Creating Layer inception_4b/relu_pool_proj
I0711 10:42:45.958561 121357 net.cpp:454] inception_4b/relu_pool_proj <- inception_4b/pool_proj
I0711 10:42:45.958571 121357 net.cpp:397] inception_4b/relu_pool_proj -> inception_4b/pool_proj (in-place)
I0711 10:42:45.958930 121357 net.cpp:150] Setting up inception_4b/relu_pool_proj
I0711 10:42:45.958946 121357 net.cpp:157] Top shape: 32 64 14 14 (401408)
I0711 10:42:45.958953 121357 net.cpp:165] Memory required for data: 1306944260
I0711 10:42:45.958961 121357 layer_factory.hpp:76] Creating layer inception_4b/output
I0711 10:42:45.958972 121357 net.cpp:106] Creating Layer inception_4b/output
I0711 10:42:45.958981 121357 net.cpp:454] inception_4b/output <- inception_4b/1x1
I0711 10:42:45.958988 121357 net.cpp:454] inception_4b/output <- inception_4b/3x3
I0711 10:42:45.958997 121357 net.cpp:454] inception_4b/output <- inception_4b/5x5
I0711 10:42:45.959003 121357 net.cpp:454] inception_4b/output <- inception_4b/pool_proj
I0711 10:42:45.959012 121357 net.cpp:411] inception_4b/output -> inception_4b/output
I0711 10:42:45.959048 121357 net.cpp:150] Setting up inception_4b/output
I0711 10:42:45.959059 121357 net.cpp:157] Top shape: 32 512 14 14 (3211264)
I0711 10:42:45.959064 121357 net.cpp:165] Memory required for data: 1319789316
I0711 10:42:45.959071 121357 layer_factory.hpp:76] Creating layer inception_4b/output_inception_4b/output_0_split
I0711 10:42:45.959084 121357 net.cpp:106] Creating Layer inception_4b/output_inception_4b/output_0_split
I0711 10:42:45.959091 121357 net.cpp:454] inception_4b/output_inception_4b/output_0_split <- inception_4b/output
I0711 10:42:45.959100 121357 net.cpp:411] inception_4b/output_inception_4b/output_0_split -> inception_4b/output_inception_4b/output_0_split_0
I0711 10:42:45.959111 121357 net.cpp:411] inception_4b/output_inception_4b/output_0_split -> inception_4b/output_inception_4b/output_0_split_1
I0711 10:42:45.959121 121357 net.cpp:411] inception_4b/output_inception_4b/output_0_split -> inception_4b/output_inception_4b/output_0_split_2
I0711 10:42:45.959131 121357 net.cpp:411] inception_4b/output_inception_4b/output_0_split -> inception_4b/output_inception_4b/output_0_split_3
I0711 10:42:45.959194 121357 net.cpp:150] Setting up inception_4b/output_inception_4b/output_0_split
I0711 10:42:45.959206 121357 net.cpp:157] Top shape: 32 512 14 14 (3211264)
I0711 10:42:45.959214 121357 net.cpp:157] Top shape: 32 512 14 14 (3211264)
I0711 10:42:45.959223 121357 net.cpp:157] Top shape: 32 512 14 14 (3211264)
I0711 10:42:45.959229 121357 net.cpp:157] Top shape: 32 512 14 14 (3211264)
I0711 10:42:45.959235 121357 net.cpp:165] Memory required for data: 1371169540
I0711 10:42:45.959246 121357 layer_factory.hpp:76] Creating layer inception_4c/1x1
I0711 10:42:45.959259 121357 net.cpp:106] Creating Layer inception_4c/1x1
I0711 10:42:45.959266 121357 net.cpp:454] inception_4c/1x1 <- inception_4b/output_inception_4b/output_0_split_0
I0711 10:42:45.959277 121357 net.cpp:411] inception_4c/1x1 -> inception_4c/1x1
I0711 10:42:45.960793 121357 cudnn_conv_layer.cpp:194] Reallocating workspace storage: 6144
I0711 10:42:45.960822 121357 net.cpp:150] Setting up inception_4c/1x1
I0711 10:42:45.960834 121357 net.cpp:157] Top shape: 32 128 14 14 (802816)
I0711 10:42:45.960842 121357 net.cpp:165] Memory required for data: 1374380804
I0711 10:42:45.960852 121357 layer_factory.hpp:76] Creating layer inception_4c/relu_1x1
I0711 10:42:45.960865 121357 net.cpp:106] Creating Layer inception_4c/relu_1x1
I0711 10:42:45.960875 121357 net.cpp:454] inception_4c/relu_1x1 <- inception_4c/1x1
I0711 10:42:45.960882 121357 net.cpp:397] inception_4c/relu_1x1 -> inception_4c/1x1 (in-place)
I0711 10:42:45.961055 121357 net.cpp:150] Setting up inception_4c/relu_1x1
I0711 10:42:45.961084 121357 net.cpp:157] Top shape: 32 128 14 14 (802816)
I0711 10:42:45.961091 121357 net.cpp:165] Memory required for data: 1377592068
I0711 10:42:45.961099 121357 layer_factory.hpp:76] Creating layer inception_4c/3x3_reduce
I0711 10:42:45.961127 121357 net.cpp:106] Creating Layer inception_4c/3x3_reduce
I0711 10:42:45.961135 121357 net.cpp:454] inception_4c/3x3_reduce <- inception_4b/output_inception_4b/output_0_split_1
I0711 10:42:45.961145 121357 net.cpp:411] inception_4c/3x3_reduce -> inception_4c/3x3_reduce
I0711 10:42:45.962626 121357 cudnn_conv_layer.cpp:194] Reallocating workspace storage: 6144
I0711 10:42:45.962668 121357 net.cpp:150] Setting up inception_4c/3x3_reduce
I0711 10:42:45.962682 121357 net.cpp:157] Top shape: 32 128 14 14 (802816)
I0711 10:42:45.962693 121357 net.cpp:165] Memory required for data: 1380803332
I0711 10:42:45.962704 121357 layer_factory.hpp:76] Creating layer inception_4c/relu_3x3_reduce
I0711 10:42:45.962716 121357 net.cpp:106] Creating Layer inception_4c/relu_3x3_reduce
I0711 10:42:45.962725 121357 net.cpp:454] inception_4c/relu_3x3_reduce <- inception_4c/3x3_reduce
I0711 10:42:45.962738 121357 net.cpp:397] inception_4c/relu_3x3_reduce -> inception_4c/3x3_reduce (in-place)
I0711 10:42:45.962906 121357 net.cpp:150] Setting up inception_4c/relu_3x3_reduce
I0711 10:42:45.962923 121357 net.cpp:157] Top shape: 32 128 14 14 (802816)
I0711 10:42:45.962930 121357 net.cpp:165] Memory required for data: 1384014596
I0711 10:42:45.962939 121357 layer_factory.hpp:76] Creating layer inception_4c/3x3
I0711 10:42:45.962952 121357 net.cpp:106] Creating Layer inception_4c/3x3
I0711 10:42:45.962961 121357 net.cpp:454] inception_4c/3x3 <- inception_4c/3x3_reduce
I0711 10:42:45.962973 121357 net.cpp:411] inception_4c/3x3 -> inception_4c/3x3
I0711 10:42:45.967195 121357 net.cpp:150] Setting up inception_4c/3x3
I0711 10:42:45.967219 121357 net.cpp:157] Top shape: 32 256 14 14 (1605632)
I0711 10:42:45.967227 121357 net.cpp:165] Memory required for data: 1390437124
I0711 10:42:45.967253 121357 layer_factory.hpp:76] Creating layer inception_4c/relu_3x3
I0711 10:42:45.967267 121357 net.cpp:106] Creating Layer inception_4c/relu_3x3
I0711 10:42:45.967277 121357 net.cpp:454] inception_4c/relu_3x3 <- inception_4c/3x3
I0711 10:42:45.967286 121357 net.cpp:397] inception_4c/relu_3x3 -> inception_4c/3x3 (in-place)
I0711 10:42:45.967628 121357 net.cpp:150] Setting up inception_4c/relu_3x3
I0711 10:42:45.967646 121357 net.cpp:157] Top shape: 32 256 14 14 (1605632)
I0711 10:42:45.967653 121357 net.cpp:165] Memory required for data: 1396859652
I0711 10:42:45.967663 121357 layer_factory.hpp:76] Creating layer inception_4c/5x5_reduce
I0711 10:42:45.967677 121357 net.cpp:106] Creating Layer inception_4c/5x5_reduce
I0711 10:42:45.967687 121357 net.cpp:454] inception_4c/5x5_reduce <- inception_4b/output_inception_4b/output_0_split_2
I0711 10:42:45.967700 121357 net.cpp:411] inception_4c/5x5_reduce -> inception_4c/5x5_reduce
I0711 10:42:45.968858 121357 net.cpp:150] Setting up inception_4c/5x5_reduce
I0711 10:42:45.968878 121357 net.cpp:157] Top shape: 32 24 14 14 (150528)
I0711 10:42:45.968886 121357 net.cpp:165] Memory required for data: 1397461764
I0711 10:42:45.968897 121357 layer_factory.hpp:76] Creating layer inception_4c/relu_5x5_reduce
I0711 10:42:45.968909 121357 net.cpp:106] Creating Layer inception_4c/relu_5x5_reduce
I0711 10:42:45.968919 121357 net.cpp:454] inception_4c/relu_5x5_reduce <- inception_4c/5x5_reduce
I0711 10:42:45.968929 121357 net.cpp:397] inception_4c/relu_5x5_reduce -> inception_4c/5x5_reduce (in-place)
I0711 10:42:45.969116 121357 net.cpp:150] Setting up inception_4c/relu_5x5_reduce
I0711 10:42:45.969133 121357 net.cpp:157] Top shape: 32 24 14 14 (150528)
I0711 10:42:45.969156 121357 net.cpp:165] Memory required for data: 1398063876
I0711 10:42:45.969167 121357 layer_factory.hpp:76] Creating layer inception_4c/5x5
I0711 10:42:45.969182 121357 net.cpp:106] Creating Layer inception_4c/5x5
I0711 10:42:45.969190 121357 net.cpp:454] inception_4c/5x5 <- inception_4c/5x5_reduce
I0711 10:42:45.969202 121357 net.cpp:411] inception_4c/5x5 -> inception_4c/5x5
I0711 10:42:45.971091 121357 net.cpp:150] Setting up inception_4c/5x5
I0711 10:42:45.971112 121357 net.cpp:157] Top shape: 32 64 14 14 (401408)
I0711 10:42:45.971120 121357 net.cpp:165] Memory required for data: 1399669508
I0711 10:42:45.971148 121357 layer_factory.hpp:76] Creating layer inception_4c/relu_5x5
I0711 10:42:45.971159 121357 net.cpp:106] Creating Layer inception_4c/relu_5x5
I0711 10:42:45.971169 121357 net.cpp:454] inception_4c/relu_5x5 <- inception_4c/5x5
I0711 10:42:45.971184 121357 net.cpp:397] inception_4c/relu_5x5 -> inception_4c/5x5 (in-place)
I0711 10:42:45.971395 121357 net.cpp:150] Setting up inception_4c/relu_5x5
I0711 10:42:45.971412 121357 net.cpp:157] Top shape: 32 64 14 14 (401408)
I0711 10:42:45.971421 121357 net.cpp:165] Memory required for data: 1401275140
I0711 10:42:45.971428 121357 layer_factory.hpp:76] Creating layer inception_4c/pool
I0711 10:42:45.971441 121357 net.cpp:106] Creating Layer inception_4c/pool
I0711 10:42:45.971449 121357 net.cpp:454] inception_4c/pool <- inception_4b/output_inception_4b/output_0_split_3
I0711 10:42:45.971459 121357 net.cpp:411] inception_4c/pool -> inception_4c/pool
I0711 10:42:45.971837 121357 net.cpp:150] Setting up inception_4c/pool
I0711 10:42:45.971855 121357 net.cpp:157] Top shape: 32 512 14 14 (3211264)
I0711 10:42:45.971863 121357 net.cpp:165] Memory required for data: 1414120196
I0711 10:42:45.971871 121357 layer_factory.hpp:76] Creating layer inception_4c/pool_proj
I0711 10:42:45.971884 121357 net.cpp:106] Creating Layer inception_4c/pool_proj
I0711 10:42:45.971894 121357 net.cpp:454] inception_4c/pool_proj <- inception_4c/pool
I0711 10:42:45.971906 121357 net.cpp:411] inception_4c/pool_proj -> inception_4c/pool_proj
I0711 10:42:45.973181 121357 cudnn_conv_layer.cpp:194] Reallocating workspace storage: 6144
I0711 10:42:45.973218 121357 net.cpp:150] Setting up inception_4c/pool_proj
I0711 10:42:45.973229 121357 net.cpp:157] Top shape: 32 64 14 14 (401408)
I0711 10:42:45.973237 121357 net.cpp:165] Memory required for data: 1415725828
I0711 10:42:45.973248 121357 layer_factory.hpp:76] Creating layer inception_4c/relu_pool_proj
I0711 10:42:45.973263 121357 net.cpp:106] Creating Layer inception_4c/relu_pool_proj
I0711 10:42:45.973271 121357 net.cpp:454] inception_4c/relu_pool_proj <- inception_4c/pool_proj
I0711 10:42:45.973283 121357 net.cpp:397] inception_4c/relu_pool_proj -> inception_4c/pool_proj (in-place)
I0711 10:42:45.973486 121357 net.cpp:150] Setting up inception_4c/relu_pool_proj
I0711 10:42:45.973527 121357 net.cpp:157] Top shape: 32 64 14 14 (401408)
I0711 10:42:45.973536 121357 net.cpp:165] Memory required for data: 1417331460
I0711 10:42:45.973547 121357 layer_factory.hpp:76] Creating layer inception_4c/output
I0711 10:42:45.973561 121357 net.cpp:106] Creating Layer inception_4c/output
I0711 10:42:45.973569 121357 net.cpp:454] inception_4c/output <- inception_4c/1x1
I0711 10:42:45.973578 121357 net.cpp:454] inception_4c/output <- inception_4c/3x3
I0711 10:42:45.973587 121357 net.cpp:454] inception_4c/output <- inception_4c/5x5
I0711 10:42:45.973594 121357 net.cpp:454] inception_4c/output <- inception_4c/pool_proj
I0711 10:42:45.973606 121357 net.cpp:411] inception_4c/output -> inception_4c/output
I0711 10:42:45.973659 121357 net.cpp:150] Setting up inception_4c/output
I0711 10:42:45.973673 121357 net.cpp:157] Top shape: 32 512 14 14 (3211264)
I0711 10:42:45.973680 121357 net.cpp:165] Memory required for data: 1430176516
I0711 10:42:45.973688 121357 layer_factory.hpp:76] Creating layer inception_4c/output_inception_4c/output_0_split
I0711 10:42:45.973701 121357 net.cpp:106] Creating Layer inception_4c/output_inception_4c/output_0_split
I0711 10:42:45.973709 121357 net.cpp:454] inception_4c/output_inception_4c/output_0_split <- inception_4c/output
I0711 10:42:45.973718 121357 net.cpp:411] inception_4c/output_inception_4c/output_0_split -> inception_4c/output_inception_4c/output_0_split_0
I0711 10:42:45.973731 121357 net.cpp:411] inception_4c/output_inception_4c/output_0_split -> inception_4c/output_inception_4c/output_0_split_1
I0711 10:42:45.973742 121357 net.cpp:411] inception_4c/output_inception_4c/output_0_split -> inception_4c/output_inception_4c/output_0_split_2
I0711 10:42:45.973754 121357 net.cpp:411] inception_4c/output_inception_4c/output_0_split -> inception_4c/output_inception_4c/output_0_split_3
I0711 10:42:45.973844 121357 net.cpp:150] Setting up inception_4c/output_inception_4c/output_0_split
I0711 10:42:45.973860 121357 net.cpp:157] Top shape: 32 512 14 14 (3211264)
I0711 10:42:45.973867 121357 net.cpp:157] Top shape: 32 512 14 14 (3211264)
I0711 10:42:45.973875 121357 net.cpp:157] Top shape: 32 512 14 14 (3211264)
I0711 10:42:45.973884 121357 net.cpp:157] Top shape: 32 512 14 14 (3211264)
I0711 10:42:45.973891 121357 net.cpp:165] Memory required for data: 1481556740
I0711 10:42:45.973899 121357 layer_factory.hpp:76] Creating layer inception_4d/1x1
I0711 10:42:45.973912 121357 net.cpp:106] Creating Layer inception_4d/1x1
I0711 10:42:45.973922 121357 net.cpp:454] inception_4d/1x1 <- inception_4c/output_inception_4c/output_0_split_0
I0711 10:42:45.973932 121357 net.cpp:411] inception_4d/1x1 -> inception_4d/1x1
I0711 10:42:45.975386 121357 cudnn_conv_layer.cpp:194] Reallocating workspace storage: 6144
I0711 10:42:45.975420 121357 net.cpp:150] Setting up inception_4d/1x1
I0711 10:42:45.975432 121357 net.cpp:157] Top shape: 32 112 14 14 (702464)
I0711 10:42:45.975441 121357 net.cpp:165] Memory required for data: 1484366596
I0711 10:42:45.975451 121357 layer_factory.hpp:76] Creating layer inception_4d/relu_1x1
I0711 10:42:45.975466 121357 net.cpp:106] Creating Layer inception_4d/relu_1x1
I0711 10:42:45.975474 121357 net.cpp:454] inception_4d/relu_1x1 <- inception_4d/1x1
I0711 10:42:45.975487 121357 net.cpp:397] inception_4d/relu_1x1 -> inception_4d/1x1 (in-place)
I0711 10:42:45.975805 121357 net.cpp:150] Setting up inception_4d/relu_1x1
I0711 10:42:45.975823 121357 net.cpp:157] Top shape: 32 112 14 14 (702464)
I0711 10:42:45.975831 121357 net.cpp:165] Memory required for data: 1487176452
I0711 10:42:45.975838 121357 layer_factory.hpp:76] Creating layer inception_4d/3x3_reduce
I0711 10:42:45.975853 121357 net.cpp:106] Creating Layer inception_4d/3x3_reduce
I0711 10:42:45.975863 121357 net.cpp:454] inception_4d/3x3_reduce <- inception_4c/output_inception_4c/output_0_split_1
I0711 10:42:45.975877 121357 net.cpp:411] inception_4d/3x3_reduce -> inception_4d/3x3_reduce
I0711 10:42:45.977337 121357 cudnn_conv_layer.cpp:194] Reallocating workspace storage: 6144
I0711 10:42:45.977370 121357 net.cpp:150] Setting up inception_4d/3x3_reduce
I0711 10:42:45.977385 121357 net.cpp:157] Top shape: 32 144 14 14 (903168)
I0711 10:42:45.977393 121357 net.cpp:165] Memory required for data: 1490789124
I0711 10:42:45.977403 121357 layer_factory.hpp:76] Creating layer inception_4d/relu_3x3_reduce
I0711 10:42:45.977416 121357 net.cpp:106] Creating Layer inception_4d/relu_3x3_reduce
I0711 10:42:45.977426 121357 net.cpp:454] inception_4d/relu_3x3_reduce <- inception_4d/3x3_reduce
I0711 10:42:45.977437 121357 net.cpp:397] inception_4d/relu_3x3_reduce -> inception_4d/3x3_reduce (in-place)
I0711 10:42:45.977757 121357 net.cpp:150] Setting up inception_4d/relu_3x3_reduce
I0711 10:42:45.977776 121357 net.cpp:157] Top shape: 32 144 14 14 (903168)
I0711 10:42:45.977782 121357 net.cpp:165] Memory required for data: 1494401796
I0711 10:42:45.977789 121357 layer_factory.hpp:76] Creating layer inception_4d/3x3
I0711 10:42:45.977805 121357 net.cpp:106] Creating Layer inception_4d/3x3
I0711 10:42:45.977814 121357 net.cpp:454] inception_4d/3x3 <- inception_4d/3x3_reduce
I0711 10:42:45.977826 121357 net.cpp:411] inception_4d/3x3 -> inception_4d/3x3
I0711 10:42:45.981875 121357 cudnn_conv_layer.cpp:194] Reallocating workspace storage: 15552
I0711 10:42:45.981910 121357 net.cpp:150] Setting up inception_4d/3x3
I0711 10:42:45.981923 121357 net.cpp:157] Top shape: 32 288 14 14 (1806336)
I0711 10:42:45.981931 121357 net.cpp:165] Memory required for data: 1501627140
I0711 10:42:45.981942 121357 layer_factory.hpp:76] Creating layer inception_4d/relu_3x3
I0711 10:42:45.981953 121357 net.cpp:106] Creating Layer inception_4d/relu_3x3
I0711 10:42:45.981961 121357 net.cpp:454] inception_4d/relu_3x3 <- inception_4d/3x3
I0711 10:42:45.981971 121357 net.cpp:397] inception_4d/relu_3x3 -> inception_4d/3x3 (in-place)
I0711 10:42:45.982169 121357 net.cpp:150] Setting up inception_4d/relu_3x3
I0711 10:42:45.982197 121357 net.cpp:157] Top shape: 32 288 14 14 (1806336)
I0711 10:42:45.982204 121357 net.cpp:165] Memory required for data: 1508852484
I0711 10:42:45.982211 121357 layer_factory.hpp:76] Creating layer inception_4d/5x5_reduce
I0711 10:42:45.982225 121357 net.cpp:106] Creating Layer inception_4d/5x5_reduce
I0711 10:42:45.982234 121357 net.cpp:454] inception_4d/5x5_reduce <- inception_4c/output_inception_4c/output_0_split_2
I0711 10:42:45.982244 121357 net.cpp:411] inception_4d/5x5_reduce -> inception_4d/5x5_reduce
I0711 10:42:45.983402 121357 net.cpp:150] Setting up inception_4d/5x5_reduce
I0711 10:42:45.983422 121357 net.cpp:157] Top shape: 32 32 14 14 (200704)
I0711 10:42:45.983428 121357 net.cpp:165] Memory required for data: 1509655300
I0711 10:42:45.983438 121357 layer_factory.hpp:76] Creating layer inception_4d/relu_5x5_reduce
I0711 10:42:45.983449 121357 net.cpp:106] Creating Layer inception_4d/relu_5x5_reduce
I0711 10:42:45.983458 121357 net.cpp:454] inception_4d/relu_5x5_reduce <- inception_4d/5x5_reduce
I0711 10:42:45.983469 121357 net.cpp:397] inception_4d/relu_5x5_reduce -> inception_4d/5x5_reduce (in-place)
I0711 10:42:45.983794 121357 net.cpp:150] Setting up inception_4d/relu_5x5_reduce
I0711 10:42:45.983813 121357 net.cpp:157] Top shape: 32 32 14 14 (200704)
I0711 10:42:45.983819 121357 net.cpp:165] Memory required for data: 1510458116
I0711 10:42:45.983826 121357 layer_factory.hpp:76] Creating layer inception_4d/5x5
I0711 10:42:45.983840 121357 net.cpp:106] Creating Layer inception_4d/5x5
I0711 10:42:45.983850 121357 net.cpp:454] inception_4d/5x5 <- inception_4d/5x5_reduce
I0711 10:42:45.983860 121357 net.cpp:411] inception_4d/5x5 -> inception_4d/5x5
I0711 10:42:45.985049 121357 net.cpp:150] Setting up inception_4d/5x5
I0711 10:42:45.985067 121357 net.cpp:157] Top shape: 32 64 14 14 (401408)
I0711 10:42:45.985074 121357 net.cpp:165] Memory required for data: 1512063748
I0711 10:42:45.985085 121357 layer_factory.hpp:76] Creating layer inception_4d/relu_5x5
I0711 10:42:45.985095 121357 net.cpp:106] Creating Layer inception_4d/relu_5x5
I0711 10:42:45.985103 121357 net.cpp:454] inception_4d/relu_5x5 <- inception_4d/5x5
I0711 10:42:45.985113 121357 net.cpp:397] inception_4d/relu_5x5 -> inception_4d/5x5 (in-place)
I0711 10:42:45.985440 121357 net.cpp:150] Setting up inception_4d/relu_5x5
I0711 10:42:45.985457 121357 net.cpp:157] Top shape: 32 64 14 14 (401408)
I0711 10:42:45.985463 121357 net.cpp:165] Memory required for data: 1513669380
I0711 10:42:45.985482 121357 layer_factory.hpp:76] Creating layer inception_4d/pool
I0711 10:42:45.985496 121357 net.cpp:106] Creating Layer inception_4d/pool
I0711 10:42:45.985507 121357 net.cpp:454] inception_4d/pool <- inception_4c/output_inception_4c/output_0_split_3
I0711 10:42:45.985517 121357 net.cpp:411] inception_4d/pool -> inception_4d/pool
I0711 10:42:45.985923 121357 net.cpp:150] Setting up inception_4d/pool
I0711 10:42:45.985941 121357 net.cpp:157] Top shape: 32 512 14 14 (3211264)
I0711 10:42:45.985949 121357 net.cpp:165] Memory required for data: 1526514436
I0711 10:42:45.985956 121357 layer_factory.hpp:76] Creating layer inception_4d/pool_proj
I0711 10:42:45.985971 121357 net.cpp:106] Creating Layer inception_4d/pool_proj
I0711 10:42:45.985980 121357 net.cpp:454] inception_4d/pool_proj <- inception_4d/pool
I0711 10:42:45.985992 121357 net.cpp:411] inception_4d/pool_proj -> inception_4d/pool_proj
I0711 10:42:45.987089 121357 cudnn_conv_layer.cpp:194] Reallocating workspace storage: 6144
I0711 10:42:45.987128 121357 net.cpp:150] Setting up inception_4d/pool_proj
I0711 10:42:45.987143 121357 net.cpp:157] Top shape: 32 64 14 14 (401408)
I0711 10:42:45.987149 121357 net.cpp:165] Memory required for data: 1528120068
I0711 10:42:45.987182 121357 layer_factory.hpp:76] Creating layer inception_4d/relu_pool_proj
I0711 10:42:45.987195 121357 net.cpp:106] Creating Layer inception_4d/relu_pool_proj
I0711 10:42:45.987205 121357 net.cpp:454] inception_4d/relu_pool_proj <- inception_4d/pool_proj
I0711 10:42:45.987239 121357 net.cpp:397] inception_4d/relu_pool_proj -> inception_4d/pool_proj (in-place)
I0711 10:42:45.987615 121357 net.cpp:150] Setting up inception_4d/relu_pool_proj
I0711 10:42:45.987646 121357 net.cpp:157] Top shape: 32 64 14 14 (401408)
I0711 10:42:45.987653 121357 net.cpp:165] Memory required for data: 1529725700
I0711 10:42:45.987661 121357 layer_factory.hpp:76] Creating layer inception_4d/output
I0711 10:42:45.987673 121357 net.cpp:106] Creating Layer inception_4d/output
I0711 10:42:45.987682 121357 net.cpp:454] inception_4d/output <- inception_4d/1x1
I0711 10:42:45.987691 121357 net.cpp:454] inception_4d/output <- inception_4d/3x3
I0711 10:42:45.987699 121357 net.cpp:454] inception_4d/output <- inception_4d/5x5
I0711 10:42:45.987707 121357 net.cpp:454] inception_4d/output <- inception_4d/pool_proj
I0711 10:42:45.987716 121357 net.cpp:411] inception_4d/output -> inception_4d/output
I0711 10:42:45.987758 121357 net.cpp:150] Setting up inception_4d/output
I0711 10:42:45.987771 121357 net.cpp:157] Top shape: 32 528 14 14 (3311616)
I0711 10:42:45.987778 121357 net.cpp:165] Memory required for data: 1542972164
I0711 10:42:45.987787 121357 layer_factory.hpp:76] Creating layer inception_4d/output_inception_4d/output_0_split
I0711 10:42:45.987802 121357 net.cpp:106] Creating Layer inception_4d/output_inception_4d/output_0_split
I0711 10:42:45.987810 121357 net.cpp:454] inception_4d/output_inception_4d/output_0_split <- inception_4d/output
I0711 10:42:45.987819 121357 net.cpp:411] inception_4d/output_inception_4d/output_0_split -> inception_4d/output_inception_4d/output_0_split_0
I0711 10:42:45.987831 121357 net.cpp:411] inception_4d/output_inception_4d/output_0_split -> inception_4d/output_inception_4d/output_0_split_1
I0711 10:42:45.987843 121357 net.cpp:411] inception_4d/output_inception_4d/output_0_split -> inception_4d/output_inception_4d/output_0_split_2
I0711 10:42:45.987854 121357 net.cpp:411] inception_4d/output_inception_4d/output_0_split -> inception_4d/output_inception_4d/output_0_split_3
I0711 10:42:45.987869 121357 net.cpp:411] inception_4d/output_inception_4d/output_0_split -> inception_4d/output_inception_4d/output_0_split_4
I0711 10:42:45.987960 121357 net.cpp:150] Setting up inception_4d/output_inception_4d/output_0_split
I0711 10:42:45.987977 121357 net.cpp:157] Top shape: 32 528 14 14 (3311616)
I0711 10:42:45.987984 121357 net.cpp:157] Top shape: 32 528 14 14 (3311616)
I0711 10:42:45.987993 121357 net.cpp:157] Top shape: 32 528 14 14 (3311616)
I0711 10:42:45.988000 121357 net.cpp:157] Top shape: 32 528 14 14 (3311616)
I0711 10:42:45.988009 121357 net.cpp:157] Top shape: 32 528 14 14 (3311616)
I0711 10:42:45.988016 121357 net.cpp:165] Memory required for data: 1609204484
I0711 10:42:45.988024 121357 layer_factory.hpp:76] Creating layer loss2/ave_pool
I0711 10:42:45.988036 121357 net.cpp:106] Creating Layer loss2/ave_pool
I0711 10:42:45.988044 121357 net.cpp:454] loss2/ave_pool <- inception_4d/output_inception_4d/output_0_split_0
I0711 10:42:45.988055 121357 net.cpp:411] loss2/ave_pool -> loss2/ave_pool
I0711 10:42:45.988250 121357 net.cpp:150] Setting up loss2/ave_pool
I0711 10:42:45.988267 121357 net.cpp:157] Top shape: 32 528 4 4 (270336)
I0711 10:42:45.988275 121357 net.cpp:165] Memory required for data: 1610285828
I0711 10:42:45.988282 121357 layer_factory.hpp:76] Creating layer loss2/conv
I0711 10:42:45.988296 121357 net.cpp:106] Creating Layer loss2/conv
I0711 10:42:45.988306 121357 net.cpp:454] loss2/conv <- loss2/ave_pool
I0711 10:42:45.988317 121357 net.cpp:411] loss2/conv -> loss2/conv
I0711 10:42:45.990381 121357 cudnn_conv_layer.cpp:194] Reallocating workspace storage: 6336
I0711 10:42:45.990414 121357 net.cpp:150] Setting up loss2/conv
I0711 10:42:45.990425 121357 net.cpp:157] Top shape: 32 128 4 4 (65536)
I0711 10:42:45.990432 121357 net.cpp:165] Memory required for data: 1610547972
I0711 10:42:45.990443 121357 layer_factory.hpp:76] Creating layer loss2/relu_conv
I0711 10:42:45.990456 121357 net.cpp:106] Creating Layer loss2/relu_conv
I0711 10:42:45.990478 121357 net.cpp:454] loss2/relu_conv <- loss2/conv
I0711 10:42:45.990489 121357 net.cpp:397] loss2/relu_conv -> loss2/conv (in-place)
I0711 10:42:45.990852 121357 net.cpp:150] Setting up loss2/relu_conv
I0711 10:42:45.990870 121357 net.cpp:157] Top shape: 32 128 4 4 (65536)
I0711 10:42:45.990877 121357 net.cpp:165] Memory required for data: 1610810116
I0711 10:42:45.990885 121357 layer_factory.hpp:76] Creating layer loss2/fc
I0711 10:42:45.990897 121357 net.cpp:106] Creating Layer loss2/fc
I0711 10:42:45.990906 121357 net.cpp:454] loss2/fc <- loss2/conv
I0711 10:42:45.990916 121357 net.cpp:411] loss2/fc -> loss2/fc
I0711 10:42:46.007349 121357 net.cpp:150] Setting up loss2/fc
I0711 10:42:46.007386 121357 net.cpp:157] Top shape: 32 1024 (32768)
I0711 10:42:46.007393 121357 net.cpp:165] Memory required for data: 1610941188
I0711 10:42:46.007408 121357 layer_factory.hpp:76] Creating layer loss2/relu_fc
I0711 10:42:46.007423 121357 net.cpp:106] Creating Layer loss2/relu_fc
I0711 10:42:46.007434 121357 net.cpp:454] loss2/relu_fc <- loss2/fc
I0711 10:42:46.007446 121357 net.cpp:397] loss2/relu_fc -> loss2/fc (in-place)
I0711 10:42:46.007728 121357 net.cpp:150] Setting up loss2/relu_fc
I0711 10:42:46.007743 121357 net.cpp:157] Top shape: 32 1024 (32768)
I0711 10:42:46.007750 121357 net.cpp:165] Memory required for data: 1611072260
I0711 10:42:46.007758 121357 layer_factory.hpp:76] Creating layer loss2/drop_fc
I0711 10:42:46.007771 121357 net.cpp:106] Creating Layer loss2/drop_fc
I0711 10:42:46.007779 121357 net.cpp:454] loss2/drop_fc <- loss2/fc
I0711 10:42:46.007789 121357 net.cpp:397] loss2/drop_fc -> loss2/fc (in-place)
I0711 10:42:46.007828 121357 net.cpp:150] Setting up loss2/drop_fc
I0711 10:42:46.007839 121357 net.cpp:157] Top shape: 32 1024 (32768)
I0711 10:42:46.007846 121357 net.cpp:165] Memory required for data: 1611203332
I0711 10:42:46.007853 121357 layer_factory.hpp:76] Creating layer loss2/classifier
I0711 10:42:46.007865 121357 net.cpp:106] Creating Layer loss2/classifier
I0711 10:42:46.007874 121357 net.cpp:454] loss2/classifier <- loss2/fc
I0711 10:42:46.007885 121357 net.cpp:411] loss2/classifier -> loss2/classifier
I0711 10:42:46.008045 121357 net.cpp:150] Setting up loss2/classifier
I0711 10:42:46.008059 121357 net.cpp:157] Top shape: 32 2 (64)
I0711 10:42:46.008067 121357 net.cpp:165] Memory required for data: 1611203588
I0711 10:42:46.008090 121357 layer_factory.hpp:76] Creating layer loss2/loss
I0711 10:42:46.008106 121357 net.cpp:106] Creating Layer loss2/loss
I0711 10:42:46.008114 121357 net.cpp:454] loss2/loss <- loss2/classifier
I0711 10:42:46.008122 121357 net.cpp:454] loss2/loss <- label_data_1_split_1
I0711 10:42:46.008132 121357 net.cpp:411] loss2/loss -> loss2/loss1
I0711 10:42:46.008144 121357 layer_factory.hpp:76] Creating layer loss2/loss
I0711 10:42:46.008672 121357 net.cpp:150] Setting up loss2/loss
I0711 10:42:46.008690 121357 net.cpp:157] Top shape: (1)
I0711 10:42:46.008697 121357 net.cpp:160]     with loss weight 0.3
I0711 10:42:46.008710 121357 net.cpp:165] Memory required for data: 1611203592
I0711 10:42:46.008720 121357 layer_factory.hpp:76] Creating layer inception_4e/1x1
I0711 10:42:46.008738 121357 net.cpp:106] Creating Layer inception_4e/1x1
I0711 10:42:46.008745 121357 net.cpp:454] inception_4e/1x1 <- inception_4d/output_inception_4d/output_0_split_1
I0711 10:42:46.008756 121357 net.cpp:411] inception_4e/1x1 -> inception_4e/1x1
I0711 10:42:46.010656 121357 cudnn_conv_layer.cpp:194] Reallocating workspace storage: 6336
I0711 10:42:46.010699 121357 net.cpp:150] Setting up inception_4e/1x1
I0711 10:42:46.010713 121357 net.cpp:157] Top shape: 32 256 14 14 (1605632)
I0711 10:42:46.010721 121357 net.cpp:165] Memory required for data: 1617626120
I0711 10:42:46.010731 121357 layer_factory.hpp:76] Creating layer inception_4e/relu_1x1
I0711 10:42:46.010741 121357 net.cpp:106] Creating Layer inception_4e/relu_1x1
I0711 10:42:46.010757 121357 net.cpp:454] inception_4e/relu_1x1 <- inception_4e/1x1
I0711 10:42:46.010766 121357 net.cpp:397] inception_4e/relu_1x1 -> inception_4e/1x1 (in-place)
I0711 10:42:46.010990 121357 net.cpp:150] Setting up inception_4e/relu_1x1
I0711 10:42:46.011006 121357 net.cpp:157] Top shape: 32 256 14 14 (1605632)
I0711 10:42:46.011013 121357 net.cpp:165] Memory required for data: 1624048648
I0711 10:42:46.011020 121357 layer_factory.hpp:76] Creating layer inception_4e/3x3_reduce
I0711 10:42:46.011034 121357 net.cpp:106] Creating Layer inception_4e/3x3_reduce
I0711 10:42:46.011044 121357 net.cpp:454] inception_4e/3x3_reduce <- inception_4d/output_inception_4d/output_0_split_2
I0711 10:42:46.011054 121357 net.cpp:411] inception_4e/3x3_reduce -> inception_4e/3x3_reduce
I0711 10:42:46.013253 121357 cudnn_conv_layer.cpp:194] Reallocating workspace storage: 6336
I0711 10:42:46.013289 121357 net.cpp:150] Setting up inception_4e/3x3_reduce
I0711 10:42:46.013301 121357 net.cpp:157] Top shape: 32 160 14 14 (1003520)
I0711 10:42:46.013309 121357 net.cpp:165] Memory required for data: 1628062728
I0711 10:42:46.013319 121357 layer_factory.hpp:76] Creating layer inception_4e/relu_3x3_reduce
I0711 10:42:46.013334 121357 net.cpp:106] Creating Layer inception_4e/relu_3x3_reduce
I0711 10:42:46.013344 121357 net.cpp:454] inception_4e/relu_3x3_reduce <- inception_4e/3x3_reduce
I0711 10:42:46.013355 121357 net.cpp:397] inception_4e/relu_3x3_reduce -> inception_4e/3x3_reduce (in-place)
I0711 10:42:46.013558 121357 net.cpp:150] Setting up inception_4e/relu_3x3_reduce
I0711 10:42:46.013573 121357 net.cpp:157] Top shape: 32 160 14 14 (1003520)
I0711 10:42:46.013581 121357 net.cpp:165] Memory required for data: 1632076808
I0711 10:42:46.013587 121357 layer_factory.hpp:76] Creating layer inception_4e/3x3
I0711 10:42:46.013602 121357 net.cpp:106] Creating Layer inception_4e/3x3
I0711 10:42:46.013610 121357 net.cpp:454] inception_4e/3x3 <- inception_4e/3x3_reduce
I0711 10:42:46.013622 121357 net.cpp:411] inception_4e/3x3 -> inception_4e/3x3
I0711 10:42:46.018940 121357 cudnn_conv_layer.cpp:194] Reallocating workspace storage: 17280
I0711 10:42:46.018973 121357 net.cpp:150] Setting up inception_4e/3x3
I0711 10:42:46.018985 121357 net.cpp:157] Top shape: 32 320 14 14 (2007040)
I0711 10:42:46.018996 121357 net.cpp:165] Memory required for data: 1640104968
I0711 10:42:46.019006 121357 layer_factory.hpp:76] Creating layer inception_4e/relu_3x3
I0711 10:42:46.019018 121357 net.cpp:106] Creating Layer inception_4e/relu_3x3
I0711 10:42:46.019027 121357 net.cpp:454] inception_4e/relu_3x3 <- inception_4e/3x3
I0711 10:42:46.019039 121357 net.cpp:397] inception_4e/relu_3x3 -> inception_4e/3x3 (in-place)
I0711 10:42:46.019398 121357 net.cpp:150] Setting up inception_4e/relu_3x3
I0711 10:42:46.019418 121357 net.cpp:157] Top shape: 32 320 14 14 (2007040)
I0711 10:42:46.019424 121357 net.cpp:165] Memory required for data: 1648133128
I0711 10:42:46.019433 121357 layer_factory.hpp:76] Creating layer inception_4e/5x5_reduce
I0711 10:42:46.019448 121357 net.cpp:106] Creating Layer inception_4e/5x5_reduce
I0711 10:42:46.019457 121357 net.cpp:454] inception_4e/5x5_reduce <- inception_4d/output_inception_4d/output_0_split_3
I0711 10:42:46.019469 121357 net.cpp:411] inception_4e/5x5_reduce -> inception_4e/5x5_reduce
I0711 10:42:46.020637 121357 net.cpp:150] Setting up inception_4e/5x5_reduce
I0711 10:42:46.020655 121357 net.cpp:157] Top shape: 32 32 14 14 (200704)
I0711 10:42:46.020663 121357 net.cpp:165] Memory required for data: 1648935944
I0711 10:42:46.020673 121357 layer_factory.hpp:76] Creating layer inception_4e/relu_5x5_reduce
I0711 10:42:46.020686 121357 net.cpp:106] Creating Layer inception_4e/relu_5x5_reduce
I0711 10:42:46.020696 121357 net.cpp:454] inception_4e/relu_5x5_reduce <- inception_4e/5x5_reduce
I0711 10:42:46.020707 121357 net.cpp:397] inception_4e/relu_5x5_reduce -> inception_4e/5x5_reduce (in-place)
I0711 10:42:46.020889 121357 net.cpp:150] Setting up inception_4e/relu_5x5_reduce
I0711 10:42:46.020905 121357 net.cpp:157] Top shape: 32 32 14 14 (200704)
I0711 10:42:46.020925 121357 net.cpp:165] Memory required for data: 1649738760
I0711 10:42:46.020933 121357 layer_factory.hpp:76] Creating layer inception_4e/5x5
I0711 10:42:46.020987 121357 net.cpp:106] Creating Layer inception_4e/5x5
I0711 10:42:46.020998 121357 net.cpp:454] inception_4e/5x5 <- inception_4e/5x5_reduce
I0711 10:42:46.021009 121357 net.cpp:411] inception_4e/5x5 -> inception_4e/5x5
I0711 10:42:46.022795 121357 net.cpp:150] Setting up inception_4e/5x5
I0711 10:42:46.022816 121357 net.cpp:157] Top shape: 32 128 14 14 (802816)
I0711 10:42:46.022825 121357 net.cpp:165] Memory required for data: 1652950024
I0711 10:42:46.022835 121357 layer_factory.hpp:76] Creating layer inception_4e/relu_5x5
I0711 10:42:46.022850 121357 net.cpp:106] Creating Layer inception_4e/relu_5x5
I0711 10:42:46.022857 121357 net.cpp:454] inception_4e/relu_5x5 <- inception_4e/5x5
I0711 10:42:46.022866 121357 net.cpp:397] inception_4e/relu_5x5 -> inception_4e/5x5 (in-place)
I0711 10:42:46.023054 121357 net.cpp:150] Setting up inception_4e/relu_5x5
I0711 10:42:46.023071 121357 net.cpp:157] Top shape: 32 128 14 14 (802816)
I0711 10:42:46.023092 121357 net.cpp:165] Memory required for data: 1656161288
I0711 10:42:46.023098 121357 layer_factory.hpp:76] Creating layer inception_4e/pool
I0711 10:42:46.023109 121357 net.cpp:106] Creating Layer inception_4e/pool
I0711 10:42:46.023118 121357 net.cpp:454] inception_4e/pool <- inception_4d/output_inception_4d/output_0_split_4
I0711 10:42:46.023128 121357 net.cpp:411] inception_4e/pool -> inception_4e/pool
I0711 10:42:46.023505 121357 net.cpp:150] Setting up inception_4e/pool
I0711 10:42:46.023522 121357 net.cpp:157] Top shape: 32 528 14 14 (3311616)
I0711 10:42:46.023530 121357 net.cpp:165] Memory required for data: 1669407752
I0711 10:42:46.023537 121357 layer_factory.hpp:76] Creating layer inception_4e/pool_proj
I0711 10:42:46.023550 121357 net.cpp:106] Creating Layer inception_4e/pool_proj
I0711 10:42:46.023560 121357 net.cpp:454] inception_4e/pool_proj <- inception_4e/pool
I0711 10:42:46.023571 121357 net.cpp:411] inception_4e/pool_proj -> inception_4e/pool_proj
I0711 10:42:46.025070 121357 cudnn_conv_layer.cpp:194] Reallocating workspace storage: 6336
I0711 10:42:46.025115 121357 net.cpp:150] Setting up inception_4e/pool_proj
I0711 10:42:46.025126 121357 net.cpp:157] Top shape: 32 128 14 14 (802816)
I0711 10:42:46.025137 121357 net.cpp:165] Memory required for data: 1672619016
I0711 10:42:46.025147 121357 layer_factory.hpp:76] Creating layer inception_4e/relu_pool_proj
I0711 10:42:46.025157 121357 net.cpp:106] Creating Layer inception_4e/relu_pool_proj
I0711 10:42:46.025166 121357 net.cpp:454] inception_4e/relu_pool_proj <- inception_4e/pool_proj
I0711 10:42:46.025177 121357 net.cpp:397] inception_4e/relu_pool_proj -> inception_4e/pool_proj (in-place)
I0711 10:42:46.025377 121357 net.cpp:150] Setting up inception_4e/relu_pool_proj
I0711 10:42:46.025390 121357 net.cpp:157] Top shape: 32 128 14 14 (802816)
I0711 10:42:46.025399 121357 net.cpp:165] Memory required for data: 1675830280
I0711 10:42:46.025408 121357 layer_factory.hpp:76] Creating layer inception_4e/output
I0711 10:42:46.025418 121357 net.cpp:106] Creating Layer inception_4e/output
I0711 10:42:46.025427 121357 net.cpp:454] inception_4e/output <- inception_4e/1x1
I0711 10:42:46.025435 121357 net.cpp:454] inception_4e/output <- inception_4e/3x3
I0711 10:42:46.025442 121357 net.cpp:454] inception_4e/output <- inception_4e/5x5
I0711 10:42:46.025449 121357 net.cpp:454] inception_4e/output <- inception_4e/pool_proj
I0711 10:42:46.025459 121357 net.cpp:411] inception_4e/output -> inception_4e/output
I0711 10:42:46.025497 121357 net.cpp:150] Setting up inception_4e/output
I0711 10:42:46.025508 121357 net.cpp:157] Top shape: 32 832 14 14 (5218304)
I0711 10:42:46.025516 121357 net.cpp:165] Memory required for data: 1696703496
I0711 10:42:46.025522 121357 layer_factory.hpp:76] Creating layer pool4/3x3_s2
I0711 10:42:46.025532 121357 net.cpp:106] Creating Layer pool4/3x3_s2
I0711 10:42:46.025538 121357 net.cpp:454] pool4/3x3_s2 <- inception_4e/output
I0711 10:42:46.025550 121357 net.cpp:411] pool4/3x3_s2 -> pool4/3x3_s2
I0711 10:42:46.025925 121357 net.cpp:150] Setting up pool4/3x3_s2
I0711 10:42:46.025959 121357 net.cpp:157] Top shape: 32 832 7 7 (1304576)
I0711 10:42:46.025965 121357 net.cpp:165] Memory required for data: 1701921800
I0711 10:42:46.025974 121357 layer_factory.hpp:76] Creating layer pool4/3x3_s2_pool4/3x3_s2_0_split
I0711 10:42:46.025987 121357 net.cpp:106] Creating Layer pool4/3x3_s2_pool4/3x3_s2_0_split
I0711 10:42:46.025995 121357 net.cpp:454] pool4/3x3_s2_pool4/3x3_s2_0_split <- pool4/3x3_s2
I0711 10:42:46.026005 121357 net.cpp:411] pool4/3x3_s2_pool4/3x3_s2_0_split -> pool4/3x3_s2_pool4/3x3_s2_0_split_0
I0711 10:42:46.026015 121357 net.cpp:411] pool4/3x3_s2_pool4/3x3_s2_0_split -> pool4/3x3_s2_pool4/3x3_s2_0_split_1
I0711 10:42:46.026026 121357 net.cpp:411] pool4/3x3_s2_pool4/3x3_s2_0_split -> pool4/3x3_s2_pool4/3x3_s2_0_split_2
I0711 10:42:46.026038 121357 net.cpp:411] pool4/3x3_s2_pool4/3x3_s2_0_split -> pool4/3x3_s2_pool4/3x3_s2_0_split_3
I0711 10:42:46.026115 121357 net.cpp:150] Setting up pool4/3x3_s2_pool4/3x3_s2_0_split
I0711 10:42:46.026129 121357 net.cpp:157] Top shape: 32 832 7 7 (1304576)
I0711 10:42:46.026137 121357 net.cpp:157] Top shape: 32 832 7 7 (1304576)
I0711 10:42:46.026147 121357 net.cpp:157] Top shape: 32 832 7 7 (1304576)
I0711 10:42:46.026154 121357 net.cpp:157] Top shape: 32 832 7 7 (1304576)
I0711 10:42:46.026161 121357 net.cpp:165] Memory required for data: 1722795016
I0711 10:42:46.026168 121357 layer_factory.hpp:76] Creating layer inception_5a/1x1
I0711 10:42:46.026182 121357 net.cpp:106] Creating Layer inception_5a/1x1
I0711 10:42:46.026190 121357 net.cpp:454] inception_5a/1x1 <- pool4/3x3_s2_pool4/3x3_s2_0_split_0
I0711 10:42:46.026203 121357 net.cpp:411] inception_5a/1x1 -> inception_5a/1x1
I0711 10:42:46.029228 121357 cudnn_conv_layer.cpp:194] Reallocating workspace storage: 9984
I0711 10:42:46.029270 121357 net.cpp:150] Setting up inception_5a/1x1
I0711 10:42:46.029281 121357 net.cpp:157] Top shape: 32 256 7 7 (401408)
I0711 10:42:46.029289 121357 net.cpp:165] Memory required for data: 1724400648
I0711 10:42:46.029299 121357 layer_factory.hpp:76] Creating layer inception_5a/relu_1x1
I0711 10:42:46.029309 121357 net.cpp:106] Creating Layer inception_5a/relu_1x1
I0711 10:42:46.029321 121357 net.cpp:454] inception_5a/relu_1x1 <- inception_5a/1x1
I0711 10:42:46.029330 121357 net.cpp:397] inception_5a/relu_1x1 -> inception_5a/1x1 (in-place)
I0711 10:42:46.029527 121357 net.cpp:150] Setting up inception_5a/relu_1x1
I0711 10:42:46.029542 121357 net.cpp:157] Top shape: 32 256 7 7 (401408)
I0711 10:42:46.029549 121357 net.cpp:165] Memory required for data: 1726006280
I0711 10:42:46.029556 121357 layer_factory.hpp:76] Creating layer inception_5a/3x3_reduce
I0711 10:42:46.029572 121357 net.cpp:106] Creating Layer inception_5a/3x3_reduce
I0711 10:42:46.029582 121357 net.cpp:454] inception_5a/3x3_reduce <- pool4/3x3_s2_pool4/3x3_s2_0_split_1
I0711 10:42:46.029593 121357 net.cpp:411] inception_5a/3x3_reduce -> inception_5a/3x3_reduce
I0711 10:42:46.032126 121357 cudnn_conv_layer.cpp:194] Reallocating workspace storage: 9984
I0711 10:42:46.032163 121357 net.cpp:150] Setting up inception_5a/3x3_reduce
I0711 10:42:46.032176 121357 net.cpp:157] Top shape: 32 160 7 7 (250880)
I0711 10:42:46.032183 121357 net.cpp:165] Memory required for data: 1727009800
I0711 10:42:46.032193 121357 layer_factory.hpp:76] Creating layer inception_5a/relu_3x3_reduce
I0711 10:42:46.032207 121357 net.cpp:106] Creating Layer inception_5a/relu_3x3_reduce
I0711 10:42:46.032214 121357 net.cpp:454] inception_5a/relu_3x3_reduce <- inception_5a/3x3_reduce
I0711 10:42:46.032229 121357 net.cpp:397] inception_5a/relu_3x3_reduce -> inception_5a/3x3_reduce (in-place)
I0711 10:42:46.032567 121357 net.cpp:150] Setting up inception_5a/relu_3x3_reduce
I0711 10:42:46.032585 121357 net.cpp:157] Top shape: 32 160 7 7 (250880)
I0711 10:42:46.032593 121357 net.cpp:165] Memory required for data: 1728013320
I0711 10:42:46.032600 121357 layer_factory.hpp:76] Creating layer inception_5a/3x3
I0711 10:42:46.032614 121357 net.cpp:106] Creating Layer inception_5a/3x3
I0711 10:42:46.032624 121357 net.cpp:454] inception_5a/3x3 <- inception_5a/3x3_reduce
I0711 10:42:46.032649 121357 net.cpp:411] inception_5a/3x3 -> inception_5a/3x3
I0711 10:42:46.038252 121357 net.cpp:150] Setting up inception_5a/3x3
I0711 10:42:46.038292 121357 net.cpp:157] Top shape: 32 320 7 7 (501760)
I0711 10:42:46.038301 121357 net.cpp:165] Memory required for data: 1730020360
I0711 10:42:46.038316 121357 layer_factory.hpp:76] Creating layer inception_5a/relu_3x3
I0711 10:42:46.038331 121357 net.cpp:106] Creating Layer inception_5a/relu_3x3
I0711 10:42:46.038343 121357 net.cpp:454] inception_5a/relu_3x3 <- inception_5a/3x3
I0711 10:42:46.038354 121357 net.cpp:397] inception_5a/relu_3x3 -> inception_5a/3x3 (in-place)
I0711 10:42:46.038847 121357 net.cpp:150] Setting up inception_5a/relu_3x3
I0711 10:42:46.038866 121357 net.cpp:157] Top shape: 32 320 7 7 (501760)
I0711 10:42:46.038873 121357 net.cpp:165] Memory required for data: 1732027400
I0711 10:42:46.038882 121357 layer_factory.hpp:76] Creating layer inception_5a/5x5_reduce
I0711 10:42:46.038898 121357 net.cpp:106] Creating Layer inception_5a/5x5_reduce
I0711 10:42:46.038909 121357 net.cpp:454] inception_5a/5x5_reduce <- pool4/3x3_s2_pool4/3x3_s2_0_split_2
I0711 10:42:46.038919 121357 net.cpp:411] inception_5a/5x5_reduce -> inception_5a/5x5_reduce
I0711 10:42:46.040740 121357 cudnn_conv_layer.cpp:194] Reallocating workspace storage: 9984
I0711 10:42:46.040784 121357 net.cpp:150] Setting up inception_5a/5x5_reduce
I0711 10:42:46.040796 121357 net.cpp:157] Top shape: 32 32 7 7 (50176)
I0711 10:42:46.040803 121357 net.cpp:165] Memory required for data: 1732228104
I0711 10:42:46.040813 121357 layer_factory.hpp:76] Creating layer inception_5a/relu_5x5_reduce
I0711 10:42:46.040823 121357 net.cpp:106] Creating Layer inception_5a/relu_5x5_reduce
I0711 10:42:46.040833 121357 net.cpp:454] inception_5a/relu_5x5_reduce <- inception_5a/5x5_reduce
I0711 10:42:46.040843 121357 net.cpp:397] inception_5a/relu_5x5_reduce -> inception_5a/5x5_reduce (in-place)
I0711 10:42:46.041051 121357 net.cpp:150] Setting up inception_5a/relu_5x5_reduce
I0711 10:42:46.041066 121357 net.cpp:157] Top shape: 32 32 7 7 (50176)
I0711 10:42:46.041074 121357 net.cpp:165] Memory required for data: 1732428808
I0711 10:42:46.041080 121357 layer_factory.hpp:76] Creating layer inception_5a/5x5
I0711 10:42:46.041096 121357 net.cpp:106] Creating Layer inception_5a/5x5
I0711 10:42:46.041105 121357 net.cpp:454] inception_5a/5x5 <- inception_5a/5x5_reduce
I0711 10:42:46.041116 121357 net.cpp:411] inception_5a/5x5 -> inception_5a/5x5
I0711 10:42:46.042975 121357 net.cpp:150] Setting up inception_5a/5x5
I0711 10:42:46.042994 121357 net.cpp:157] Top shape: 32 128 7 7 (200704)
I0711 10:42:46.043002 121357 net.cpp:165] Memory required for data: 1733231624
I0711 10:42:46.043012 121357 layer_factory.hpp:76] Creating layer inception_5a/relu_5x5
I0711 10:42:46.043022 121357 net.cpp:106] Creating Layer inception_5a/relu_5x5
I0711 10:42:46.043031 121357 net.cpp:454] inception_5a/relu_5x5 <- inception_5a/5x5
I0711 10:42:46.043042 121357 net.cpp:397] inception_5a/relu_5x5 -> inception_5a/5x5 (in-place)
I0711 10:42:46.043439 121357 net.cpp:150] Setting up inception_5a/relu_5x5
I0711 10:42:46.043457 121357 net.cpp:157] Top shape: 32 128 7 7 (200704)
I0711 10:42:46.043464 121357 net.cpp:165] Memory required for data: 1734034440
I0711 10:42:46.043472 121357 layer_factory.hpp:76] Creating layer inception_5a/pool
I0711 10:42:46.043485 121357 net.cpp:106] Creating Layer inception_5a/pool
I0711 10:42:46.043494 121357 net.cpp:454] inception_5a/pool <- pool4/3x3_s2_pool4/3x3_s2_0_split_3
I0711 10:42:46.043503 121357 net.cpp:411] inception_5a/pool -> inception_5a/pool
I0711 10:42:46.043741 121357 net.cpp:150] Setting up inception_5a/pool
I0711 10:42:46.043756 121357 net.cpp:157] Top shape: 32 832 7 7 (1304576)
I0711 10:42:46.043763 121357 net.cpp:165] Memory required for data: 1739252744
I0711 10:42:46.043771 121357 layer_factory.hpp:76] Creating layer inception_5a/pool_proj
I0711 10:42:46.043787 121357 net.cpp:106] Creating Layer inception_5a/pool_proj
I0711 10:42:46.043835 121357 net.cpp:454] inception_5a/pool_proj <- inception_5a/pool
I0711 10:42:46.043848 121357 net.cpp:411] inception_5a/pool_proj -> inception_5a/pool_proj
I0711 10:42:46.046344 121357 cudnn_conv_layer.cpp:194] Reallocating workspace storage: 9984
I0711 10:42:46.046385 121357 net.cpp:150] Setting up inception_5a/pool_proj
I0711 10:42:46.046399 121357 net.cpp:157] Top shape: 32 128 7 7 (200704)
I0711 10:42:46.046407 121357 net.cpp:165] Memory required for data: 1740055560
I0711 10:42:46.046418 121357 layer_factory.hpp:76] Creating layer inception_5a/relu_pool_proj
I0711 10:42:46.046432 121357 net.cpp:106] Creating Layer inception_5a/relu_pool_proj
I0711 10:42:46.046442 121357 net.cpp:454] inception_5a/relu_pool_proj <- inception_5a/pool_proj
I0711 10:42:46.046452 121357 net.cpp:397] inception_5a/relu_pool_proj -> inception_5a/pool_proj (in-place)
I0711 10:42:46.046658 121357 net.cpp:150] Setting up inception_5a/relu_pool_proj
I0711 10:42:46.046676 121357 net.cpp:157] Top shape: 32 128 7 7 (200704)
I0711 10:42:46.046691 121357 net.cpp:165] Memory required for data: 1740858376
I0711 10:42:46.046700 121357 layer_factory.hpp:76] Creating layer inception_5a/output
I0711 10:42:46.046726 121357 net.cpp:106] Creating Layer inception_5a/output
I0711 10:42:46.046736 121357 net.cpp:454] inception_5a/output <- inception_5a/1x1
I0711 10:42:46.046746 121357 net.cpp:454] inception_5a/output <- inception_5a/3x3
I0711 10:42:46.046758 121357 net.cpp:454] inception_5a/output <- inception_5a/5x5
I0711 10:42:46.046766 121357 net.cpp:454] inception_5a/output <- inception_5a/pool_proj
I0711 10:42:46.046778 121357 net.cpp:411] inception_5a/output -> inception_5a/output
I0711 10:42:46.046821 121357 net.cpp:150] Setting up inception_5a/output
I0711 10:42:46.046841 121357 net.cpp:157] Top shape: 32 832 7 7 (1304576)
I0711 10:42:46.046850 121357 net.cpp:165] Memory required for data: 1746076680
I0711 10:42:46.046859 121357 layer_factory.hpp:76] Creating layer inception_5a/output_inception_5a/output_0_split
I0711 10:42:46.046869 121357 net.cpp:106] Creating Layer inception_5a/output_inception_5a/output_0_split
I0711 10:42:46.046878 121357 net.cpp:454] inception_5a/output_inception_5a/output_0_split <- inception_5a/output
I0711 10:42:46.046888 121357 net.cpp:411] inception_5a/output_inception_5a/output_0_split -> inception_5a/output_inception_5a/output_0_split_0
I0711 10:42:46.046900 121357 net.cpp:411] inception_5a/output_inception_5a/output_0_split -> inception_5a/output_inception_5a/output_0_split_1
I0711 10:42:46.046911 121357 net.cpp:411] inception_5a/output_inception_5a/output_0_split -> inception_5a/output_inception_5a/output_0_split_2
I0711 10:42:46.046924 121357 net.cpp:411] inception_5a/output_inception_5a/output_0_split -> inception_5a/output_inception_5a/output_0_split_3
I0711 10:42:46.047006 121357 net.cpp:150] Setting up inception_5a/output_inception_5a/output_0_split
I0711 10:42:46.047019 121357 net.cpp:157] Top shape: 32 832 7 7 (1304576)
I0711 10:42:46.047029 121357 net.cpp:157] Top shape: 32 832 7 7 (1304576)
I0711 10:42:46.047036 121357 net.cpp:157] Top shape: 32 832 7 7 (1304576)
I0711 10:42:46.047044 121357 net.cpp:157] Top shape: 32 832 7 7 (1304576)
I0711 10:42:46.047051 121357 net.cpp:165] Memory required for data: 1766949896
I0711 10:42:46.047058 121357 layer_factory.hpp:76] Creating layer inception_5b/1x1
I0711 10:42:46.047075 121357 net.cpp:106] Creating Layer inception_5b/1x1
I0711 10:42:46.047085 121357 net.cpp:454] inception_5b/1x1 <- inception_5a/output_inception_5a/output_0_split_0
I0711 10:42:46.047096 121357 net.cpp:411] inception_5b/1x1 -> inception_5b/1x1
I0711 10:42:46.051466 121357 cudnn_conv_layer.cpp:194] Reallocating workspace storage: 9984
I0711 10:42:46.051511 121357 net.cpp:150] Setting up inception_5b/1x1
I0711 10:42:46.051523 121357 net.cpp:157] Top shape: 32 384 7 7 (602112)
I0711 10:42:46.051532 121357 net.cpp:165] Memory required for data: 1769358344
I0711 10:42:46.051543 121357 layer_factory.hpp:76] Creating layer inception_5b/relu_1x1
I0711 10:42:46.051555 121357 net.cpp:106] Creating Layer inception_5b/relu_1x1
I0711 10:42:46.051581 121357 net.cpp:454] inception_5b/relu_1x1 <- inception_5b/1x1
I0711 10:42:46.051594 121357 net.cpp:397] inception_5b/relu_1x1 -> inception_5b/1x1 (in-place)
I0711 10:42:46.051947 121357 net.cpp:150] Setting up inception_5b/relu_1x1
I0711 10:42:46.051966 121357 net.cpp:157] Top shape: 32 384 7 7 (602112)
I0711 10:42:46.051975 121357 net.cpp:165] Memory required for data: 1771766792
I0711 10:42:46.051982 121357 layer_factory.hpp:76] Creating layer inception_5b/3x3_reduce
I0711 10:42:46.051996 121357 net.cpp:106] Creating Layer inception_5b/3x3_reduce
I0711 10:42:46.052006 121357 net.cpp:454] inception_5b/3x3_reduce <- inception_5a/output_inception_5a/output_0_split_1
I0711 10:42:46.052017 121357 net.cpp:411] inception_5b/3x3_reduce -> inception_5b/3x3_reduce
I0711 10:42:46.054833 121357 cudnn_conv_layer.cpp:194] Reallocating workspace storage: 9984
I0711 10:42:46.054872 121357 net.cpp:150] Setting up inception_5b/3x3_reduce
I0711 10:42:46.054888 121357 net.cpp:157] Top shape: 32 192 7 7 (301056)
I0711 10:42:46.054894 121357 net.cpp:165] Memory required for data: 1772971016
I0711 10:42:46.054904 121357 layer_factory.hpp:76] Creating layer inception_5b/relu_3x3_reduce
I0711 10:42:46.054915 121357 net.cpp:106] Creating Layer inception_5b/relu_3x3_reduce
I0711 10:42:46.054924 121357 net.cpp:454] inception_5b/relu_3x3_reduce <- inception_5b/3x3_reduce
I0711 10:42:46.054935 121357 net.cpp:397] inception_5b/relu_3x3_reduce -> inception_5b/3x3_reduce (in-place)
I0711 10:42:46.055120 121357 net.cpp:150] Setting up inception_5b/relu_3x3_reduce
I0711 10:42:46.055148 121357 net.cpp:157] Top shape: 32 192 7 7 (301056)
I0711 10:42:46.055155 121357 net.cpp:165] Memory required for data: 1774175240
I0711 10:42:46.055163 121357 layer_factory.hpp:76] Creating layer inception_5b/3x3
I0711 10:42:46.055177 121357 net.cpp:106] Creating Layer inception_5b/3x3
I0711 10:42:46.055186 121357 net.cpp:454] inception_5b/3x3 <- inception_5b/3x3_reduce
I0711 10:42:46.055197 121357 net.cpp:411] inception_5b/3x3 -> inception_5b/3x3
I0711 10:42:46.061413 121357 cudnn_conv_layer.cpp:194] Reallocating workspace storage: 20736
I0711 10:42:46.061440 121357 net.cpp:150] Setting up inception_5b/3x3
I0711 10:42:46.061453 121357 net.cpp:157] Top shape: 32 384 7 7 (602112)
I0711 10:42:46.061465 121357 net.cpp:165] Memory required for data: 1776583688
I0711 10:42:46.061475 121357 layer_factory.hpp:76] Creating layer inception_5b/relu_3x3
I0711 10:42:46.061486 121357 net.cpp:106] Creating Layer inception_5b/relu_3x3
I0711 10:42:46.061497 121357 net.cpp:454] inception_5b/relu_3x3 <- inception_5b/3x3
I0711 10:42:46.061506 121357 net.cpp:397] inception_5b/relu_3x3 -> inception_5b/3x3 (in-place)
I0711 10:42:46.061693 121357 net.cpp:150] Setting up inception_5b/relu_3x3
I0711 10:42:46.061709 121357 net.cpp:157] Top shape: 32 384 7 7 (602112)
I0711 10:42:46.061729 121357 net.cpp:165] Memory required for data: 1778992136
I0711 10:42:46.061738 121357 layer_factory.hpp:76] Creating layer inception_5b/5x5_reduce
I0711 10:42:46.061751 121357 net.cpp:106] Creating Layer inception_5b/5x5_reduce
I0711 10:42:46.061759 121357 net.cpp:454] inception_5b/5x5_reduce <- inception_5a/output_inception_5a/output_0_split_2
I0711 10:42:46.061771 121357 net.cpp:411] inception_5b/5x5_reduce -> inception_5b/5x5_reduce
I0711 10:42:46.063653 121357 net.cpp:150] Setting up inception_5b/5x5_reduce
I0711 10:42:46.063673 121357 net.cpp:157] Top shape: 32 48 7 7 (75264)
I0711 10:42:46.063681 121357 net.cpp:165] Memory required for data: 1779293192
I0711 10:42:46.063691 121357 layer_factory.hpp:76] Creating layer inception_5b/relu_5x5_reduce
I0711 10:42:46.063704 121357 net.cpp:106] Creating Layer inception_5b/relu_5x5_reduce
I0711 10:42:46.063714 121357 net.cpp:454] inception_5b/relu_5x5_reduce <- inception_5b/5x5_reduce
I0711 10:42:46.063724 121357 net.cpp:397] inception_5b/relu_5x5_reduce -> inception_5b/5x5_reduce (in-place)
I0711 10:42:46.064137 121357 net.cpp:150] Setting up inception_5b/relu_5x5_reduce
I0711 10:42:46.064157 121357 net.cpp:157] Top shape: 32 48 7 7 (75264)
I0711 10:42:46.064182 121357 net.cpp:165] Memory required for data: 1779594248
I0711 10:42:46.064191 121357 layer_factory.hpp:76] Creating layer inception_5b/5x5
I0711 10:42:46.064204 121357 net.cpp:106] Creating Layer inception_5b/5x5
I0711 10:42:46.064214 121357 net.cpp:454] inception_5b/5x5 <- inception_5b/5x5_reduce
I0711 10:42:46.064227 121357 net.cpp:411] inception_5b/5x5 -> inception_5b/5x5
I0711 10:42:46.066294 121357 net.cpp:150] Setting up inception_5b/5x5
I0711 10:42:46.066314 121357 net.cpp:157] Top shape: 32 128 7 7 (200704)
I0711 10:42:46.066321 121357 net.cpp:165] Memory required for data: 1780397064
I0711 10:42:46.066331 121357 layer_factory.hpp:76] Creating layer inception_5b/relu_5x5
I0711 10:42:46.066341 121357 net.cpp:106] Creating Layer inception_5b/relu_5x5
I0711 10:42:46.066350 121357 net.cpp:454] inception_5b/relu_5x5 <- inception_5b/5x5
I0711 10:42:46.066359 121357 net.cpp:397] inception_5b/relu_5x5 -> inception_5b/5x5 (in-place)
I0711 10:42:46.066542 121357 net.cpp:150] Setting up inception_5b/relu_5x5
I0711 10:42:46.066558 121357 net.cpp:157] Top shape: 32 128 7 7 (200704)
I0711 10:42:46.066565 121357 net.cpp:165] Memory required for data: 1781199880
I0711 10:42:46.066586 121357 layer_factory.hpp:76] Creating layer inception_5b/pool
I0711 10:42:46.066598 121357 net.cpp:106] Creating Layer inception_5b/pool
I0711 10:42:46.066607 121357 net.cpp:454] inception_5b/pool <- inception_5a/output_inception_5a/output_0_split_3
I0711 10:42:46.066617 121357 net.cpp:411] inception_5b/pool -> inception_5b/pool
I0711 10:42:46.067437 121357 net.cpp:150] Setting up inception_5b/pool
I0711 10:42:46.067454 121357 net.cpp:157] Top shape: 32 832 7 7 (1304576)
I0711 10:42:46.067461 121357 net.cpp:165] Memory required for data: 1786418184
I0711 10:42:46.067469 121357 layer_factory.hpp:76] Creating layer inception_5b/pool_proj
I0711 10:42:46.067482 121357 net.cpp:106] Creating Layer inception_5b/pool_proj
I0711 10:42:46.067492 121357 net.cpp:454] inception_5b/pool_proj <- inception_5b/pool
I0711 10:42:46.067502 121357 net.cpp:411] inception_5b/pool_proj -> inception_5b/pool_proj
I0711 10:42:46.069622 121357 cudnn_conv_layer.cpp:194] Reallocating workspace storage: 9984
I0711 10:42:46.069664 121357 net.cpp:150] Setting up inception_5b/pool_proj
I0711 10:42:46.069676 121357 net.cpp:157] Top shape: 32 128 7 7 (200704)
I0711 10:42:46.069684 121357 net.cpp:165] Memory required for data: 1787221000
I0711 10:42:46.069694 121357 layer_factory.hpp:76] Creating layer inception_5b/relu_pool_proj
I0711 10:42:46.069706 121357 net.cpp:106] Creating Layer inception_5b/relu_pool_proj
I0711 10:42:46.069715 121357 net.cpp:454] inception_5b/relu_pool_proj <- inception_5b/pool_proj
I0711 10:42:46.069728 121357 net.cpp:397] inception_5b/relu_pool_proj -> inception_5b/pool_proj (in-place)
I0711 10:42:46.070070 121357 net.cpp:150] Setting up inception_5b/relu_pool_proj
I0711 10:42:46.070091 121357 net.cpp:157] Top shape: 32 128 7 7 (200704)
I0711 10:42:46.070097 121357 net.cpp:165] Memory required for data: 1788023816
I0711 10:42:46.070106 121357 layer_factory.hpp:76] Creating layer inception_5b/output
I0711 10:42:46.070116 121357 net.cpp:106] Creating Layer inception_5b/output
I0711 10:42:46.070125 121357 net.cpp:454] inception_5b/output <- inception_5b/1x1
I0711 10:42:46.070133 121357 net.cpp:454] inception_5b/output <- inception_5b/3x3
I0711 10:42:46.070140 121357 net.cpp:454] inception_5b/output <- inception_5b/5x5
I0711 10:42:46.070147 121357 net.cpp:454] inception_5b/output <- inception_5b/pool_proj
I0711 10:42:46.070157 121357 net.cpp:411] inception_5b/output -> inception_5b/output
I0711 10:42:46.070199 121357 net.cpp:150] Setting up inception_5b/output
I0711 10:42:46.070210 121357 net.cpp:157] Top shape: 32 1024 7 7 (1605632)
I0711 10:42:46.070219 121357 net.cpp:165] Memory required for data: 1794446344
I0711 10:42:46.070225 121357 layer_factory.hpp:76] Creating layer pool5/7x7_s1
I0711 10:42:46.070236 121357 net.cpp:106] Creating Layer pool5/7x7_s1
I0711 10:42:46.070246 121357 net.cpp:454] pool5/7x7_s1 <- inception_5b/output
I0711 10:42:46.070269 121357 net.cpp:411] pool5/7x7_s1 -> pool5/7x7_s1
I0711 10:42:46.070494 121357 net.cpp:150] Setting up pool5/7x7_s1
I0711 10:42:46.070509 121357 net.cpp:157] Top shape: 32 1024 1 1 (32768)
I0711 10:42:46.070516 121357 net.cpp:165] Memory required for data: 1794577416
I0711 10:42:46.070523 121357 layer_factory.hpp:76] Creating layer pool5/drop_7x7_s1
I0711 10:42:46.070547 121357 net.cpp:106] Creating Layer pool5/drop_7x7_s1
I0711 10:42:46.070556 121357 net.cpp:454] pool5/drop_7x7_s1 <- pool5/7x7_s1
I0711 10:42:46.070565 121357 net.cpp:397] pool5/drop_7x7_s1 -> pool5/7x7_s1 (in-place)
I0711 10:42:46.070616 121357 net.cpp:150] Setting up pool5/drop_7x7_s1
I0711 10:42:46.070642 121357 net.cpp:157] Top shape: 32 1024 1 1 (32768)
I0711 10:42:46.070650 121357 net.cpp:165] Memory required for data: 1794708488
I0711 10:42:46.070657 121357 layer_factory.hpp:76] Creating layer loss3/classifier
I0711 10:42:46.070674 121357 net.cpp:106] Creating Layer loss3/classifier
I0711 10:42:46.070683 121357 net.cpp:454] loss3/classifier <- pool5/7x7_s1
I0711 10:42:46.070698 121357 net.cpp:411] loss3/classifier -> loss3/classifier
I0711 10:42:46.070873 121357 net.cpp:150] Setting up loss3/classifier
I0711 10:42:46.070889 121357 net.cpp:157] Top shape: 32 2 (64)
I0711 10:42:46.070895 121357 net.cpp:165] Memory required for data: 1794708744
I0711 10:42:46.070917 121357 layer_factory.hpp:76] Creating layer loss3/loss3
I0711 10:42:46.070932 121357 net.cpp:106] Creating Layer loss3/loss3
I0711 10:42:46.070940 121357 net.cpp:454] loss3/loss3 <- loss3/classifier
I0711 10:42:46.070950 121357 net.cpp:454] loss3/loss3 <- label_data_1_split_2
I0711 10:42:46.070973 121357 net.cpp:411] loss3/loss3 -> loss3/loss3
…
I0711 10:42:46.077014 121357 net.cpp:49] Initializing net from parameters: 
name: "GoogleNet"
state {
  phase: TEST
}
layer {
  name: "data"
  type: "ImageData"
  top: "data"
  top: "label"
  include {
    phase: TEST
  }
  transform_param {
    mirror: false
    crop_size: 224
    mean_value: 104
    mean_value: 117
    mean_value: 123
  }
  image_data_param {
    source: "/data/dywang/Database/Proliferation/libs/stage04_mitosisDetection/training_examples/val2.lst"
    batch_size: 100
    shuffle: true
    new_height: 256
    new_width: 256
  }
}
layer {
  name: "conv1/7x7_s2"
  type: "Convolution"
  bottom: "data"
  top: "conv1/7x7_s2"
  param {
    lr_mult: 1
    decay_mult: 1
  }
  param {
    lr_mult: 2
    decay_mult: 0
  }
  convolution_param {
    num_output: 64
    pad: 3
    kernel_size: 7
    stride: 2
    weight_filler {
      type: "xavier"
    }
    bias_filler {
      type: "constant"
      value: 0.2
    }
  }
}
layer {
  name: "conv1/relu_7x7"
  type: "ReLU"
  bottom: "conv1/7x7_s2"
  top: "conv1/7x7_s2"
}
layer {
  name: "pool1/3x3_s2"
  type: "Pooling"
  bottom: "conv1/7x7_s2"
  top: "pool1/3x3_s2"
  pooling_param {
    pool: MAX
    kernel_size: 3
    stride: 2
  }
}
layer {
  name: "pool1/norm1"
  type: "LRN"
  bottom: "pool1/3x3_s2"
  top: "pool1/norm1"
  lrn_param {
    local_size: 5
    alpha: 0.0001
    beta: 0.75
  }
}
layer {
  name: "conv2/3x3_reduce"
  type: "Convolution"
  bottom: "pool1/norm1"
  top: "conv2/3x3_reduce"
  param {
    lr_mult: 1
    decay_mult: 1
  }
  param {
    lr_mult: 2
    decay_mult: 0
  }
  convolution_param {
    num_output: 64
    kernel_size: 1
    weight_filler {
      type: "xavier"
    }
    bias_filler {
      type: "constant"
      value: 0.2
    }
  }
}
layer {
  name: "conv2/relu_3x3_reduce"
  type: "ReLU"
  bottom: "conv2/3x3_reduce"
  top: "conv2/3x3_reduce"
}
layer {
  name: "conv2/3x3"
  type: "Convolution"
  bottom: "conv2/3x3_reduce"
  top: "conv2/3x3"
  param {
    lr_mult: 1
    decay_mult: 1
  }
  param {
    lr_mult: 2
    decay_mult: 0
  }
  convolution_param {
    num_output: 192
    pad: 1
    kernel_size: 3
    weight_filler {
      type: "xavier"
    }
    bias_filler {
      type: "constant"
      value: 0.2
    }
  }
}
layer {
  name: "conv2/relu_3x3"
  type: "ReLU"
  bottom: "conv2/3x3"
  top: "conv2/3x3"
}
layer {
  name: "conv2/norm2"
  type: "LRN"
  bottom: "conv2/3x3"
  top: "conv2/norm2"
  lrn_param {
    local_size: 5
    alpha: 0.0001
    beta: 0.75
  }
}
layer {
  name: "pool2/3x3_s2"
  type: "Pooling"
  bottom: "conv2/norm2"
  top: "pool2/3x3_s2"
  pooling_param {
    pool: MAX
    kernel_size: 3
    stride: 2
  }
}
layer {
  name: "inception_3a/1x1"
  type: "Convolution"
  bottom: "pool2/3x3_s2"
  top: "inception_3a/1x1"
  param {
    lr_mult: 1
    decay_mult: 1
  }
  param {
    lr_mult: 2
    decay_mult: 0
  }
  convolution_param {
    num_output: 64
    kernel_size: 1
    weight_filler {
      type: "xavier"
    }
    bias_filler {
      type: "constant"
      value: 0.2
    }
  }
}
layer {
  name: "inception_3a/relu_1x1"
  type: "ReLU"
  bottom: "inception_3a/1x1"
  top: "inception_3a/1x1"
}
layer {
  name: "inception_3a/3x3_reduce"
  type: "Convolution"
  bottom: "pool2/3x3_s2"
  top: "inception_3a/3x3_reduce"
  param {
    lr_mult: 1
    decay_mult: 1
  }
  param {
    lr_mult: 2
    decay_mult: 0
  }
  convolution_param {
    num_output: 96
    kernel_size: 1
    weight_filler {
      type: "xavier"
    }
    bias_filler {
      type: "constant"
      value: 0.2
    }
  }
}
layer {
  name: "inception_3a/relu_3x3_reduce"
  type: "ReLU"
  bottom: "inception_3a/3x3_reduce"
  top: "inception_3a/3x3_reduce"
}
layer {
  name: "inception_3a/3x3"
  type: "Convolution"
  bottom: "inception_3a/3x3_reduce"
  top: "inception_3a/3x3"
  param {
    lr_mult: 1
    decay_mult: 1
  }
  param {
    lr_mult: 2
    decay_mult: 0
  }
  convolution_param {
    num_output: 128
    pad: 1
    kernel_size: 3
    weight_filler {
      type: "xavier"
    }
    bias_filler {
      type: "constant"
      value: 0.2
    }
  }
}
layer {
  name: "inception_3a/relu_3x3"
  type: "ReLU"
  bottom: "inception_3a/3x3"
  top: "inception_3a/3x3"
}
layer {
  name: "inception_3a/5x5_reduce"
  type: "Convolution"
  bottom: "pool2/3x3_s2"
  top: "inception_3a/5x5_reduce"
  param {
    lr_mult: 1
    decay_mult: 1
  }
  param {
    lr_mult: 2
    decay_mult: 0
  }
  convolution_param {
    num_output: 16
    kernel_size: 1
    weight_filler {
      type: "xavier"
    }
    bias_filler {
      type: "constant"
      value: 0.2
    }
  }
}
layer {
  name: "inception_3a/relu_5x5_reduce"
  type: "ReLU"
  bottom: "inception_3a/5x5_reduce"
  top: "inception_3a/5x5_reduce"
}
layer {
  name: "inception_3a/5x5"
  type: "Convolution"
  bottom: "inception_3a/5x5_reduce"
  top: "inception_3a/5x5"
  param {
    lr_mult: 1
    decay_mult: 1
  }
  param {
    lr_mult: 2
    decay_mult: 0
  }
  convolution_param {
    num_output: 32
    pad: 2
    kernel_size: 5
    weight_filler {
      type: "xavier"
    }
    bias_filler {
      type: "constant"
      value: 0.2
    }
  }
}
layer {
  name: "inception_3a/relu_5x5"
  type: "ReLU"
  bottom: "inception_3a/5x5"
  top: "inception_3a/5x5"
}
layer {
  name: "inception_3a/pool"
  type: "Pooling"
  bottom: "pool2/3x3_s2"
  top: "inception_3a/pool"
  pooling_param {
    pool: MAX
    kernel_size: 3
    stride: 1
    pad: 1
  }
}
layer {
  name: "inception_3a/pool_proj"
  type: "Convolution"
  bottom: "inception_3a/pool"
  top: "inception_3a/pool_proj"
  param {
    lr_mult: 1
    decay_mult: 1
  }
  param {
    lr_mult: 2
    decay_mult: 0
  }
  convolution_param {
    num_output: 32
    kernel_size: 1
    weight_filler {
      type: "xavier"
    }
    bias_filler {
      type: "constant"
      value: 0.2
    }
  }
}
layer {
  name: "inception_3a/relu_pool_proj"
  type: "ReLU"
  bottom: "inception_3a/pool_proj"
  top: "inception_3a/pool_proj"
}
layer {
  name: "inception_3a/output"
  type: "Concat"
  bottom: "inception_3a/1x1"
  bottom: "inception_3a/3x3"
  bottom: "inception_3a/5x5"
  bottom: "inception_3a/pool_proj"
  top: "inception_3a/output"
}
layer {
  name: "inception_3b/1x1"
  type: "Convolution"
  bottom: "inception_3a/output"
  top: "inception_3b/1x1"
  param {
    lr_mult: 1
    decay_mult: 1
  }
  param {
    lr_mult: 2
    decay_mult: 0
  }
  convolution_param {
    num_output: 128
    kernel_size: 1
    weight_filler {
      type: "xavier"
    }
    bias_filler {
      type: "constant"
      value: 0.2
    }
  }
}
layer {
  name: "inception_3b/relu_1x1"
  type: "ReLU"
  bottom: "inception_3b/1x1"
  top: "inception_3b/1x1"
}
layer {
  name: "inception_3b/3x3_reduce"
  type: "Convolution"
  bottom: "inception_3a/output"
  top: "inception_3b/3x3_reduce"
  param {
    lr_mult: 1
    decay_mult: 1
  }
  param {
    lr_mult: 2
    decay_mult: 0
  }
  convolution_param {
    num_output: 128
    kernel_size: 1
    weight_filler {
      type: "xavier"
    }
    bias_filler {
      type: "constant"
      value: 0.2
    }
  }
}
layer {
  name: "inception_3b/relu_3x3_reduce"
  type: "ReLU"
  bottom: "inception_3b/3x3_reduce"
  top: "inception_3b/3x3_reduce"
}
layer {
  name: "inception_3b/3x3"
  type: "Convolution"
  bottom: "inception_3b/3x3_reduce"
  top: "inception_3b/3x3"
  param {
    lr_mult: 1
    decay_mult: 1
  }
  param {
    lr_mult: 2
    decay_mult: 0
  }
  convolution_param {
    num_output: 192
    pad: 1
    kernel_size: 3
    weight_filler {
      type: "xavier"
    }
    bias_filler {
      type: "constant"
      value: 0.2
    }
  }
}
layer {
  name: "inception_3b/relu_3x3"
  type: "ReLU"
  bottom: "inception_3b/3x3"
  top: "inception_3b/3x3"
}
layer {
  name: "inception_3b/5x5_reduce"
  type: "Convolution"
  bottom: "inception_3a/output"
  top: "inception_3b/5x5_reduce"
  param {
    lr_mult: 1
    decay_mult: 1
  }
  param {
    lr_mult: 2
    decay_mult: 0
  }
  convolution_param {
    num_output: 32
    kernel_size: 1
    weight_filler {
      type: "xavier"
    }
    bias_filler {
      type: "constant"
      value: 0.2
    }
  }
}
layer {
  name: "inception_3b/relu_5x5_reduce"
  type: "ReLU"
  bottom: "inception_3b/5x5_reduce"
  top: "inception_3b/5x5_reduce"
}
layer {
  name: "inception_3b/5x5"
  type: "Convolution"
  bottom: "inception_3b/5x5_reduce"
  top: "inception_3b/5x5"
  param {
    lr_mult: 1
    decay_mult: 1
  }
  param {
    lr_mult: 2
    decay_mult: 0
  }
  convolution_param {
    num_output: 96
    pad: 2
    kernel_size: 5
    weight_filler {
      type: "xavier"
    }
    bias_filler {
      type: "constant"
      value: 0.2
    }
  }
}
layer {
  name: "inception_3b/relu_5x5"
  type: "ReLU"
  bottom: "inception_3b/5x5"
  top: "inception_3b/5x5"
}
layer {
  name: "inception_3b/pool"
  type: "Pooling"
  bottom: "inception_3a/output"
  top: "inception_3b/pool"
  pooling_param {
    pool: MAX
    kernel_size: 3
    stride: 1
    pad: 1
  }
}
layer {
  name: "inception_3b/pool_proj"
  type: "Convolution"
  bottom: "inception_3b/pool"
  top: "inception_3b/pool_proj"
  param {
    lr_mult: 1
    decay_mult: 1
  }
  param {
    lr_mult: 2
    decay_mult: 0
  }
  convolution_param {
    num_output: 64
    kernel_size: 1
    weight_filler {
      type: "xavier"
    }
    bias_filler {
      type: "constant"
      value: 0.2
    }
  }
}
layer {
  name: "inception_3b/relu_pool_proj"
  type: "ReLU"
  bottom: "inception_3b/pool_proj"
  top: "inception_3b/pool_proj"
}
layer {
  name: "inception_3b/output"
  type: "Concat"
  bottom: "inception_3b/1x1"
  bottom: "inception_3b/3x3"
  bottom: "inception_3b/5x5"
  bottom: "inception_3b/pool_proj"
  top: "inception_3b/output"
}
layer {
  name: "pool3/3x3_s2"
  type: "Pooling"
  bottom: "inception_3b/output"
  top: "pool3/3x3_s2"
  pooling_param {
    pool: MAX
    kernel_size: 3
    stride: 2
  }
}
layer {
  name: "inception_4a/1x1"
  type: "Convolution"
  bottom: "pool3/3x3_s2"
  top: "inception_4a/1x1"
  param {
    lr_mult: 1
…
I0711 10:42:46.345209 121357 net.cpp:157] Top shape: 100 64 14 14 (1254400)
I0711 10:42:46.345217 121357 net.cpp:165] Memory required for data: 4429163608
I0711 10:42:46.345227 121357 layer_factory.hpp:76] Creating layer inception_4c/output
I0711 10:42:46.345247 121357 net.cpp:106] Creating Layer inception_4c/output
I0711 10:42:46.345269 121357 net.cpp:454] inception_4c/output <- inception_4c/1x1
I0711 10:42:46.345294 121357 net.cpp:454] inception_4c/output <- inception_4c/3x3
I0711 10:42:46.345309 121357 net.cpp:454] inception_4c/output <- inception_4c/5x5
I0711 10:42:46.345324 121357 net.cpp:454] inception_4c/output <- inception_4c/pool_proj
I0711 10:42:46.345335 121357 net.cpp:411] inception_4c/output -> inception_4c/output
I0711 10:42:46.345392 121357 net.cpp:150] Setting up inception_4c/output
I0711 10:42:46.345407 121357 net.cpp:157] Top shape: 100 512 14 14 (10035200)
I0711 10:42:46.345415 121357 net.cpp:165] Memory required for data: 4469304408
I0711 10:42:46.345423 121357 layer_factory.hpp:76] Creating layer inception_4c/output_inception_4c/output_0_split
I0711 10:42:46.345438 121357 net.cpp:106] Creating Layer inception_4c/output_inception_4c/output_0_split
I0711 10:42:46.345448 121357 net.cpp:454] inception_4c/output_inception_4c/output_0_split <- inception_4c/output
I0711 10:42:46.345460 121357 net.cpp:411] inception_4c/output_inception_4c/output_0_split -> inception_4c/output_inception_4c/output_0_split_0
I0711 10:42:46.345473 121357 net.cpp:411] inception_4c/output_inception_4c/output_0_split -> inception_4c/output_inception_4c/output_0_split_1
I0711 10:42:46.345485 121357 net.cpp:411] inception_4c/output_inception_4c/output_0_split -> inception_4c/output_inception_4c/output_0_split_2
I0711 10:42:46.345496 121357 net.cpp:411] inception_4c/output_inception_4c/output_0_split -> inception_4c/output_inception_4c/output_0_split_3
I0711 10:42:46.345612 121357 net.cpp:150] Setting up inception_4c/output_inception_4c/output_0_split
I0711 10:42:46.345625 121357 net.cpp:157] Top shape: 100 512 14 14 (10035200)
I0711 10:42:46.345634 121357 net.cpp:157] Top shape: 100 512 14 14 (10035200)
I0711 10:42:46.345643 121357 net.cpp:157] Top shape: 100 512 14 14 (10035200)
I0711 10:42:46.345656 121357 net.cpp:157] Top shape: 100 512 14 14 (10035200)
I0711 10:42:46.345664 121357 net.cpp:165] Memory required for data: 4629867608
I0711 10:42:46.345672 121357 layer_factory.hpp:76] Creating layer inception_4d/1x1
I0711 10:42:46.345686 121357 net.cpp:106] Creating Layer inception_4d/1x1
I0711 10:42:46.345696 121357 net.cpp:454] inception_4d/1x1 <- inception_4c/output_inception_4c/output_0_split_0
I0711 10:42:46.345707 121357 net.cpp:411] inception_4d/1x1 -> inception_4d/1x1
I0711 10:42:46.347542 121357 cudnn_conv_layer.cpp:194] Reallocating workspace storage: 6144
I0711 10:42:46.347591 121357 net.cpp:150] Setting up inception_4d/1x1
I0711 10:42:46.347606 121357 net.cpp:157] Top shape: 100 112 14 14 (2195200)
I0711 10:42:46.347630 121357 net.cpp:165] Memory required for data: 4638648408
I0711 10:42:46.347642 121357 layer_factory.hpp:76] Creating layer inception_4d/relu_1x1
I0711 10:42:46.347654 121357 net.cpp:106] Creating Layer inception_4d/relu_1x1
I0711 10:42:46.347668 121357 net.cpp:454] inception_4d/relu_1x1 <- inception_4d/1x1
I0711 10:42:46.347678 121357 net.cpp:397] inception_4d/relu_1x1 -> inception_4d/1x1 (in-place)
I0711 10:42:46.348239 121357 net.cpp:150] Setting up inception_4d/relu_1x1
I0711 10:42:46.348260 121357 net.cpp:157] Top shape: 100 112 14 14 (2195200)
I0711 10:42:46.348269 121357 net.cpp:165] Memory required for data: 4647429208
I0711 10:42:46.348278 121357 layer_factory.hpp:76] Creating layer inception_4d/3x3_reduce
I0711 10:42:46.348294 121357 net.cpp:106] Creating Layer inception_4d/3x3_reduce
I0711 10:42:46.348305 121357 net.cpp:454] inception_4d/3x3_reduce <- inception_4c/output_inception_4c/output_0_split_1
I0711 10:42:46.348318 121357 net.cpp:411] inception_4d/3x3_reduce -> inception_4d/3x3_reduce
I0711 10:42:46.350121 121357 cudnn_conv_layer.cpp:194] Reallocating workspace storage: 6144
I0711 10:42:46.350167 121357 net.cpp:150] Setting up inception_4d/3x3_reduce
I0711 10:42:46.350181 121357 net.cpp:157] Top shape: 100 144 14 14 (2822400)
I0711 10:42:46.350189 121357 net.cpp:165] Memory required for data: 4658718808
I0711 10:42:46.350203 121357 layer_factory.hpp:76] Creating layer inception_4d/relu_3x3_reduce
I0711 10:42:46.350215 121357 net.cpp:106] Creating Layer inception_4d/relu_3x3_reduce
I0711 10:42:46.350225 121357 net.cpp:454] inception_4d/relu_3x3_reduce <- inception_4d/3x3_reduce
I0711 10:42:46.350237 121357 net.cpp:397] inception_4d/relu_3x3_reduce -> inception_4d/3x3_reduce (in-place)
I0711 10:42:46.350610 121357 net.cpp:150] Setting up inception_4d/relu_3x3_reduce
I0711 10:42:46.350636 121357 net.cpp:157] Top shape: 100 144 14 14 (2822400)
I0711 10:42:46.350646 121357 net.cpp:165] Memory required for data: 4670008408
I0711 10:42:46.350656 121357 layer_factory.hpp:76] Creating layer inception_4d/3x3
I0711 10:42:46.350670 121357 net.cpp:106] Creating Layer inception_4d/3x3
I0711 10:42:46.350692 121357 net.cpp:454] inception_4d/3x3 <- inception_4d/3x3_reduce
I0711 10:42:46.350708 121357 net.cpp:411] inception_4d/3x3 -> inception_4d/3x3
I0711 10:42:46.355614 121357 cudnn_conv_layer.cpp:194] Reallocating workspace storage: 15552
I0711 10:42:46.355671 121357 net.cpp:150] Setting up inception_4d/3x3
I0711 10:42:46.355686 121357 net.cpp:157] Top shape: 100 288 14 14 (5644800)
I0711 10:42:46.355696 121357 net.cpp:165] Memory required for data: 4692587608
I0711 10:42:46.355708 121357 layer_factory.hpp:76] Creating layer inception_4d/relu_3x3
I0711 10:42:46.355721 121357 net.cpp:106] Creating Layer inception_4d/relu_3x3
I0711 10:42:46.355731 121357 net.cpp:454] inception_4d/relu_3x3 <- inception_4d/3x3
I0711 10:42:46.355742 121357 net.cpp:397] inception_4d/relu_3x3 -> inception_4d/3x3 (in-place)
I0711 10:42:46.355962 121357 net.cpp:150] Setting up inception_4d/relu_3x3
I0711 10:42:46.355979 121357 net.cpp:157] Top shape: 100 288 14 14 (5644800)
I0711 10:42:46.355988 121357 net.cpp:165] Memory required for data: 4715166808
I0711 10:42:46.355996 121357 layer_factory.hpp:76] Creating layer inception_4d/5x5_reduce
I0711 10:42:46.356012 121357 net.cpp:106] Creating Layer inception_4d/5x5_reduce
I0711 10:42:46.356024 121357 net.cpp:454] inception_4d/5x5_reduce <- inception_4c/output_inception_4c/output_0_split_2
I0711 10:42:46.356037 121357 net.cpp:411] inception_4d/5x5_reduce -> inception_4d/5x5_reduce
I0711 10:42:46.357537 121357 net.cpp:150] Setting up inception_4d/5x5_reduce
I0711 10:42:46.357559 121357 net.cpp:157] Top shape: 100 32 14 14 (627200)
I0711 10:42:46.357568 121357 net.cpp:165] Memory required for data: 4717675608
I0711 10:42:46.357580 121357 layer_factory.hpp:76] Creating layer inception_4d/relu_5x5_reduce
I0711 10:42:46.357594 121357 net.cpp:106] Creating Layer inception_4d/relu_5x5_reduce
I0711 10:42:46.357604 121357 net.cpp:454] inception_4d/relu_5x5_reduce <- inception_4d/5x5_reduce
I0711 10:42:46.357635 121357 net.cpp:397] inception_4d/relu_5x5_reduce -> inception_4d/5x5_reduce (in-place)
I0711 10:42:46.358021 121357 net.cpp:150] Setting up inception_4d/relu_5x5_reduce
I0711 10:42:46.358042 121357 net.cpp:157] Top shape: 100 32 14 14 (627200)
I0711 10:42:46.358050 121357 net.cpp:165] Memory required for data: 4720184408
I0711 10:42:46.358059 121357 layer_factory.hpp:76] Creating layer inception_4d/5x5
I0711 10:42:46.358079 121357 net.cpp:106] Creating Layer inception_4d/5x5
I0711 10:42:46.358098 121357 net.cpp:454] inception_4d/5x5 <- inception_4d/5x5_reduce
I0711 10:42:46.358111 121357 net.cpp:411] inception_4d/5x5 -> inception_4d/5x5
I0711 10:42:46.359727 121357 cudnn_conv_layer.cpp:194] Reallocating workspace storage: 9600
I0711 10:42:46.359783 121357 net.cpp:150] Setting up inception_4d/5x5
I0711 10:42:46.359800 121357 net.cpp:157] Top shape: 100 64 14 14 (1254400)
I0711 10:42:46.359808 121357 net.cpp:165] Memory required for data: 4725202008
I0711 10:42:46.359820 121357 layer_factory.hpp:76] Creating layer inception_4d/relu_5x5
I0711 10:42:46.359834 121357 net.cpp:106] Creating Layer inception_4d/relu_5x5
I0711 10:42:46.359844 121357 net.cpp:454] inception_4d/relu_5x5 <- inception_4d/5x5
I0711 10:42:46.359854 121357 net.cpp:397] inception_4d/relu_5x5 -> inception_4d/5x5 (in-place)
I0711 10:42:46.360234 121357 net.cpp:150] Setting up inception_4d/relu_5x5
I0711 10:42:46.360254 121357 net.cpp:157] Top shape: 100 64 14 14 (1254400)
I0711 10:42:46.360261 121357 net.cpp:165] Memory required for data: 4730219608
I0711 10:42:46.360271 121357 layer_factory.hpp:76] Creating layer inception_4d/pool
I0711 10:42:46.360285 121357 net.cpp:106] Creating Layer inception_4d/pool
I0711 10:42:46.360294 121357 net.cpp:454] inception_4d/pool <- inception_4c/output_inception_4c/output_0_split_3
I0711 10:42:46.360308 121357 net.cpp:411] inception_4d/pool -> inception_4d/pool
I0711 10:42:46.360752 121357 net.cpp:150] Setting up inception_4d/pool
I0711 10:42:46.360774 121357 net.cpp:157] Top shape: 100 512 14 14 (10035200)
I0711 10:42:46.360782 121357 net.cpp:165] Memory required for data: 4770360408
I0711 10:42:46.360790 121357 layer_factory.hpp:76] Creating layer inception_4d/pool_proj
I0711 10:42:46.360806 121357 net.cpp:106] Creating Layer inception_4d/pool_proj
I0711 10:42:46.360816 121357 net.cpp:454] inception_4d/pool_proj <- inception_4d/pool
I0711 10:42:46.360829 121357 net.cpp:411] inception_4d/pool_proj -> inception_4d/pool_proj
I0711 10:42:46.362330 121357 net.cpp:150] Setting up inception_4d/pool_proj
I0711 10:42:46.362354 121357 net.cpp:157] Top shape: 100 64 14 14 (1254400)
I0711 10:42:46.362363 121357 net.cpp:165] Memory required for data: 4775378008
I0711 10:42:46.362375 121357 layer_factory.hpp:76] Creating layer inception_4d/relu_pool_proj
I0711 10:42:46.362387 121357 net.cpp:106] Creating Layer inception_4d/relu_pool_proj
I0711 10:42:46.362396 121357 net.cpp:454] inception_4d/relu_pool_proj <- inception_4d/pool_proj
I0711 10:42:46.362407 121357 net.cpp:397] inception_4d/relu_pool_proj -> inception_4d/pool_proj (in-place)
I0711 10:42:46.362823 121357 net.cpp:150] Setting up inception_4d/relu_pool_proj
I0711 10:42:46.362844 121357 net.cpp:157] Top shape: 100 64 14 14 (1254400)
I0711 10:42:46.362853 121357 net.cpp:165] Memory required for data: 4780395608
I0711 10:42:46.362861 121357 layer_factory.hpp:76] Creating layer inception_4d/output
I0711 10:42:46.362874 121357 net.cpp:106] Creating Layer inception_4d/output
I0711 10:42:46.362882 121357 net.cpp:454] inception_4d/output <- inception_4d/1x1
I0711 10:42:46.362893 121357 net.cpp:454] inception_4d/output <- inception_4d/3x3
I0711 10:42:46.362905 121357 net.cpp:454] inception_4d/output <- inception_4d/5x5
I0711 10:42:46.362915 121357 net.cpp:454] inception_4d/output <- inception_4d/pool_proj
I0711 10:42:46.362923 121357 net.cpp:411] inception_4d/output -> inception_4d/output
I0711 10:42:46.362979 121357 net.cpp:150] Setting up inception_4d/output
I0711 10:42:46.362994 121357 net.cpp:157] Top shape: 100 528 14 14 (10348800)
I0711 10:42:46.363019 121357 net.cpp:165] Memory required for data: 4821790808
I0711 10:42:46.363029 121357 layer_factory.hpp:76] Creating layer inception_4d/output_inception_4d/output_0_split
I0711 10:42:46.363044 121357 net.cpp:106] Creating Layer inception_4d/output_inception_4d/output_0_split
I0711 10:42:46.363054 121357 net.cpp:454] inception_4d/output_inception_4d/output_0_split <- inception_4d/output
I0711 10:42:46.363065 121357 net.cpp:411] inception_4d/output_inception_4d/output_0_split -> inception_4d/output_inception_4d/output_0_split_0
I0711 10:42:46.363077 121357 net.cpp:411] inception_4d/output_inception_4d/output_0_split -> inception_4d/output_inception_4d/output_0_split_1
I0711 10:42:46.363090 121357 net.cpp:411] inception_4d/output_inception_4d/output_0_split -> inception_4d/output_inception_4d/output_0_split_2
I0711 10:42:46.363101 121357 net.cpp:411] inception_4d/output_inception_4d/output_0_split -> inception_4d/output_inception_4d/output_0_split_3
I0711 10:42:46.363111 121357 net.cpp:411] inception_4d/output_inception_4d/output_0_split -> inception_4d/output_inception_4d/output_0_split_4
I0711 10:42:46.363266 121357 net.cpp:150] Setting up inception_4d/output_inception_4d/output_0_split
I0711 10:42:46.363293 121357 net.cpp:157] Top shape: 100 528 14 14 (10348800)
I0711 10:42:46.363303 121357 net.cpp:157] Top shape: 100 528 14 14 (10348800)
I0711 10:42:46.363312 121357 net.cpp:157] Top shape: 100 528 14 14 (10348800)
I0711 10:42:46.363320 121357 net.cpp:157] Top shape: 100 528 14 14 (10348800)
I0711 10:42:46.363329 121357 net.cpp:157] Top shape: 100 528 14 14 (10348800)
I0711 10:42:46.363337 121357 net.cpp:165] Memory required for data: 5028766808
I0711 10:42:46.363345 121357 layer_factory.hpp:76] Creating layer loss2/ave_pool
I0711 10:42:46.363356 121357 net.cpp:106] Creating Layer loss2/ave_pool
I0711 10:42:46.363365 121357 net.cpp:454] loss2/ave_pool <- inception_4d/output_inception_4d/output_0_split_0
I0711 10:42:46.363379 121357 net.cpp:411] loss2/ave_pool -> loss2/ave_pool
I0711 10:42:46.363658 121357 net.cpp:150] Setting up loss2/ave_pool
I0711 10:42:46.363678 121357 net.cpp:157] Top shape: 100 528 4 4 (844800)
I0711 10:42:46.363687 121357 net.cpp:165] Memory required for data: 5032146008
I0711 10:42:46.363695 121357 layer_factory.hpp:76] Creating layer loss2/conv
I0711 10:42:46.363714 121357 net.cpp:106] Creating Layer loss2/conv
I0711 10:42:46.363730 121357 net.cpp:454] loss2/conv <- loss2/ave_pool
I0711 10:42:46.363750 121357 net.cpp:411] loss2/conv -> loss2/conv
I0711 10:42:46.366314 121357 cudnn_conv_layer.cpp:194] Reallocating workspace storage: 6336
I0711 10:42:46.366380 121357 net.cpp:150] Setting up loss2/conv
I0711 10:42:46.366396 121357 net.cpp:157] Top shape: 100 128 4 4 (204800)
I0711 10:42:46.366407 121357 net.cpp:165] Memory required for data: 5032965208
I0711 10:42:46.366420 121357 layer_factory.hpp:76] Creating layer loss2/relu_conv
I0711 10:42:46.366432 121357 net.cpp:106] Creating Layer loss2/relu_conv
I0711 10:42:46.366444 121357 net.cpp:454] loss2/relu_conv <- loss2/conv
I0711 10:42:46.366456 121357 net.cpp:397] loss2/relu_conv -> loss2/conv (in-place)
I0711 10:42:46.366904 121357 net.cpp:150] Setting up loss2/relu_conv
I0711 10:42:46.366926 121357 net.cpp:157] Top shape: 100 128 4 4 (204800)
I0711 10:42:46.366935 121357 net.cpp:165] Memory required for data: 5033784408
I0711 10:42:46.366943 121357 layer_factory.hpp:76] Creating layer loss2/fc
I0711 10:42:46.366956 121357 net.cpp:106] Creating Layer loss2/fc
I0711 10:42:46.366967 121357 net.cpp:454] loss2/fc <- loss2/conv
I0711 10:42:46.366981 121357 net.cpp:411] loss2/fc -> loss2/fc
I0711 10:42:46.385905 121357 net.cpp:150] Setting up loss2/fc
I0711 10:42:46.385951 121357 net.cpp:157] Top shape: 100 1024 (102400)
I0711 10:42:46.385959 121357 net.cpp:165] Memory required for data: 5034194008
I0711 10:42:46.385975 121357 layer_factory.hpp:76] Creating layer loss2/relu_fc
I0711 10:42:46.385996 121357 net.cpp:106] Creating Layer loss2/relu_fc
I0711 10:42:46.386009 121357 net.cpp:454] loss2/relu_fc <- loss2/fc
I0711 10:42:46.386049 121357 net.cpp:397] loss2/relu_fc -> loss2/fc (in-place)
I0711 10:42:46.386343 121357 net.cpp:150] Setting up loss2/relu_fc
I0711 10:42:46.386360 121357 net.cpp:157] Top shape: 100 1024 (102400)
I0711 10:42:46.386368 121357 net.cpp:165] Memory required for data: 5034603608
I0711 10:42:46.386378 121357 layer_factory.hpp:76] Creating layer loss2/drop_fc
I0711 10:42:46.386392 121357 net.cpp:106] Creating Layer loss2/drop_fc
I0711 10:42:46.386401 121357 net.cpp:454] loss2/drop_fc <- loss2/fc
I0711 10:42:46.386411 121357 net.cpp:397] loss2/drop_fc -> loss2/fc (in-place)
I0711 10:42:46.386466 121357 net.cpp:150] Setting up loss2/drop_fc
I0711 10:42:46.386481 121357 net.cpp:157] Top shape: 100 1024 (102400)
I0711 10:42:46.386488 121357 net.cpp:165] Memory required for data: 5035013208
I0711 10:42:46.386497 121357 layer_factory.hpp:76] Creating layer loss2/classifier
I0711 10:42:46.386512 121357 net.cpp:106] Creating Layer loss2/classifier
I0711 10:42:46.386521 121357 net.cpp:454] loss2/classifier <- loss2/fc
I0711 10:42:46.386534 121357 net.cpp:411] loss2/classifier -> loss2/classifier
I0711 10:42:46.386768 121357 net.cpp:150] Setting up loss2/classifier
I0711 10:42:46.386785 121357 net.cpp:157] Top shape: 100 2 (200)
I0711 10:42:46.386792 121357 net.cpp:165] Memory required for data: 5035014008
I0711 10:42:46.386803 121357 layer_factory.hpp:76] Creating layer loss2/classifier_loss2/classifier_0_split
I0711 10:42:46.386814 121357 net.cpp:106] Creating Layer loss2/classifier_loss2/classifier_0_split
I0711 10:42:46.386823 121357 net.cpp:454] loss2/classifier_loss2/classifier_0_split <- loss2/classifier
I0711 10:42:46.386836 121357 net.cpp:411] loss2/classifier_loss2/classifier_0_split -> loss2/classifier_loss2/classifier_0_split_0
I0711 10:42:46.386848 121357 net.cpp:411] loss2/classifier_loss2/classifier_0_split -> loss2/classifier_loss2/classifier_0_split_1
I0711 10:42:46.386917 121357 net.cpp:150] Setting up loss2/classifier_loss2/classifier_0_split
I0711 10:42:46.386932 121357 net.cpp:157] Top shape: 100 2 (200)
I0711 10:42:46.386941 121357 net.cpp:157] Top shape: 100 2 (200)
I0711 10:42:46.386950 121357 net.cpp:165] Memory required for data: 5035015608
I0711 10:42:46.386957 121357 layer_factory.hpp:76] Creating layer loss2/loss
I0711 10:42:46.386968 121357 net.cpp:106] Creating Layer loss2/loss
I0711 10:42:46.386977 121357 net.cpp:454] loss2/loss <- loss2/classifier_loss2/classifier_0_split_0
I0711 10:42:46.386991 121357 net.cpp:454] loss2/loss <- label_data_1_split_2
…
I0711 10:42:46.387850 121357 net.cpp:165] Memory required for data: 5035015616
I0711 10:42:46.387858 121357 layer_factory.hpp:76] Creating layer inception_4e/1x1
I0711 10:42:46.387874 121357 net.cpp:106] Creating Layer inception_4e/1x1
I0711 10:42:46.387884 121357 net.cpp:454] inception_4e/1x1 <- inception_4d/output_inception_4d/output_0_split_1
I0711 10:42:46.387895 121357 net.cpp:411] inception_4e/1x1 -> inception_4e/1x1
I0711 10:42:46.390302 121357 cudnn_conv_layer.cpp:194] Reallocating workspace storage: 6336
I0711 10:42:46.390370 121357 net.cpp:150] Setting up inception_4e/1x1
I0711 10:42:46.390385 121357 net.cpp:157] Top shape: 100 256 14 14 (5017600)
I0711 10:42:46.390419 121357 net.cpp:165] Memory required for data: 5055086016
I0711 10:42:46.390432 121357 layer_factory.hpp:76] Creating layer inception_4e/relu_1x1
I0711 10:42:46.390449 121357 net.cpp:106] Creating Layer inception_4e/relu_1x1
I0711 10:42:46.390460 121357 net.cpp:454] inception_4e/relu_1x1 <- inception_4e/1x1
I0711 10:42:46.390470 121357 net.cpp:397] inception_4e/relu_1x1 -> inception_4e/1x1 (in-place)
I0711 10:42:46.390938 121357 net.cpp:150] Setting up inception_4e/relu_1x1
I0711 10:42:46.390960 121357 net.cpp:157] Top shape: 100 256 14 14 (5017600)
I0711 10:42:46.390969 121357 net.cpp:165] Memory required for data: 5075156416
I0711 10:42:46.390979 121357 layer_factory.hpp:76] Creating layer inception_4e/3x3_reduce
I0711 10:42:46.390993 121357 net.cpp:106] Creating Layer inception_4e/3x3_reduce
I0711 10:42:46.391003 121357 net.cpp:454] inception_4e/3x3_reduce <- inception_4d/output_inception_4d/output_0_split_2
I0711 10:42:46.391016 121357 net.cpp:411] inception_4e/3x3_reduce -> inception_4e/3x3_reduce
I0711 10:42:46.393784 121357 cudnn_conv_layer.cpp:194] Reallocating workspace storage: 6336
I0711 10:42:46.393862 121357 net.cpp:150] Setting up inception_4e/3x3_reduce
I0711 10:42:46.393879 121357 net.cpp:157] Top shape: 100 160 14 14 (3136000)
I0711 10:42:46.393888 121357 net.cpp:165] Memory required for data: 5087700416
I0711 10:42:46.393903 121357 layer_factory.hpp:76] Creating layer inception_4e/relu_3x3_reduce
I0711 10:42:46.393920 121357 net.cpp:106] Creating Layer inception_4e/relu_3x3_reduce
I0711 10:42:46.393934 121357 net.cpp:454] inception_4e/relu_3x3_reduce <- inception_4e/3x3_reduce
I0711 10:42:46.393949 121357 net.cpp:397] inception_4e/relu_3x3_reduce -> inception_4e/3x3_reduce (in-place)
I0711 10:42:46.394153 121357 net.cpp:150] Setting up inception_4e/relu_3x3_reduce
I0711 10:42:46.394170 121357 net.cpp:157] Top shape: 100 160 14 14 (3136000)
I0711 10:42:46.394178 121357 net.cpp:165] Memory required for data: 5100244416
I0711 10:42:46.394187 121357 layer_factory.hpp:76] Creating layer inception_4e/3x3
I0711 10:42:46.394230 121357 net.cpp:106] Creating Layer inception_4e/3x3
I0711 10:42:46.394243 121357 net.cpp:454] inception_4e/3x3 <- inception_4e/3x3_reduce
I0711 10:42:46.394256 121357 net.cpp:411] inception_4e/3x3 -> inception_4e/3x3
I0711 10:42:46.400415 121357 cudnn_conv_layer.cpp:194] Reallocating workspace storage: 17280
I0711 10:42:46.400462 121357 net.cpp:150] Setting up inception_4e/3x3
I0711 10:42:46.400480 121357 net.cpp:157] Top shape: 100 320 14 14 (6272000)
I0711 10:42:46.400487 121357 net.cpp:165] Memory required for data: 5125332416
I0711 10:42:46.400506 121357 layer_factory.hpp:76] Creating layer inception_4e/relu_3x3
I0711 10:42:46.400524 121357 net.cpp:106] Creating Layer inception_4e/relu_3x3
I0711 10:42:46.400538 121357 net.cpp:454] inception_4e/relu_3x3 <- inception_4e/3x3
I0711 10:42:46.400549 121357 net.cpp:397] inception_4e/relu_3x3 -> inception_4e/3x3 (in-place)
I0711 10:42:46.400936 121357 net.cpp:150] Setting up inception_4e/relu_3x3
I0711 10:42:46.400956 121357 net.cpp:157] Top shape: 100 320 14 14 (6272000)
I0711 10:42:46.400965 121357 net.cpp:165] Memory required for data: 5150420416
I0711 10:42:46.400974 121357 layer_factory.hpp:76] Creating layer inception_4e/5x5_reduce
I0711 10:42:46.400995 121357 net.cpp:106] Creating Layer inception_4e/5x5_reduce
I0711 10:42:46.401006 121357 net.cpp:454] inception_4e/5x5_reduce <- inception_4d/output_inception_4d/output_0_split_3
I0711 10:42:46.401018 121357 net.cpp:411] inception_4e/5x5_reduce -> inception_4e/5x5_reduce
I0711 10:42:46.402487 121357 cudnn_conv_layer.cpp:194] Reallocating workspace storage: 6336
I0711 10:42:46.402544 121357 net.cpp:150] Setting up inception_4e/5x5_reduce
I0711 10:42:46.402557 121357 net.cpp:157] Top shape: 100 32 14 14 (627200)
I0711 10:42:46.402565 121357 net.cpp:165] Memory required for data: 5152929216
I0711 10:42:46.402577 121357 layer_factory.hpp:76] Creating layer inception_4e/relu_5x5_reduce
I0711 10:42:46.402593 121357 net.cpp:106] Creating Layer inception_4e/relu_5x5_reduce
I0711 10:42:46.402623 121357 net.cpp:454] inception_4e/relu_5x5_reduce <- inception_4e/5x5_reduce
I0711 10:42:46.402640 121357 net.cpp:397] inception_4e/relu_5x5_reduce -> inception_4e/5x5_reduce (in-place)
I0711 10:42:46.402858 121357 net.cpp:150] Setting up inception_4e/relu_5x5_reduce
I0711 10:42:46.402874 121357 net.cpp:157] Top shape: 100 32 14 14 (627200)
I0711 10:42:46.402882 121357 net.cpp:165] Memory required for data: 5155438016
I0711 10:42:46.402890 121357 layer_factory.hpp:76] Creating layer inception_4e/5x5
I0711 10:42:46.402905 121357 net.cpp:106] Creating Layer inception_4e/5x5
I0711 10:42:46.402915 121357 net.cpp:454] inception_4e/5x5 <- inception_4e/5x5_reduce
I0711 10:42:46.402928 121357 net.cpp:411] inception_4e/5x5 -> inception_4e/5x5
I0711 10:42:46.405004 121357 net.cpp:150] Setting up inception_4e/5x5
I0711 10:42:46.405025 121357 net.cpp:157] Top shape: 100 128 14 14 (2508800)
I0711 10:42:46.405032 121357 net.cpp:165] Memory required for data: 5165473216
I0711 10:42:46.405043 121357 layer_factory.hpp:76] Creating layer inception_4e/relu_5x5
I0711 10:42:46.405055 121357 net.cpp:106] Creating Layer inception_4e/relu_5x5
I0711 10:42:46.405063 121357 net.cpp:454] inception_4e/relu_5x5 <- inception_4e/5x5
I0711 10:42:46.405073 121357 net.cpp:397] inception_4e/relu_5x5 -> inception_4e/5x5 (in-place)
I0711 10:42:46.405288 121357 net.cpp:150] Setting up inception_4e/relu_5x5
I0711 10:42:46.405305 121357 net.cpp:157] Top shape: 100 128 14 14 (2508800)
I0711 10:42:46.405313 121357 net.cpp:165] Memory required for data: 5175508416
I0711 10:42:46.405324 121357 layer_factory.hpp:76] Creating layer inception_4e/pool
I0711 10:42:46.405338 121357 net.cpp:106] Creating Layer inception_4e/pool
I0711 10:42:46.405347 121357 net.cpp:454] inception_4e/pool <- inception_4d/output_inception_4d/output_0_split_4
I0711 10:42:46.405359 121357 net.cpp:411] inception_4e/pool -> inception_4e/pool
I0711 10:42:46.405792 121357 net.cpp:150] Setting up inception_4e/pool
I0711 10:42:46.405812 121357 net.cpp:157] Top shape: 100 528 14 14 (10348800)
I0711 10:42:46.405822 121357 net.cpp:165] Memory required for data: 5216903616
I0711 10:42:46.405830 121357 layer_factory.hpp:76] Creating layer inception_4e/pool_proj
I0711 10:42:46.405843 121357 net.cpp:106] Creating Layer inception_4e/pool_proj
I0711 10:42:46.405853 121357 net.cpp:454] inception_4e/pool_proj <- inception_4e/pool
I0711 10:42:46.405865 121357 net.cpp:411] inception_4e/pool_proj -> inception_4e/pool_proj
I0711 10:42:46.407575 121357 cudnn_conv_layer.cpp:194] Reallocating workspace storage: 6336
I0711 10:42:46.407626 121357 net.cpp:150] Setting up inception_4e/pool_proj
I0711 10:42:46.407640 121357 net.cpp:157] Top shape: 100 128 14 14 (2508800)
I0711 10:42:46.407649 121357 net.cpp:165] Memory required for data: 5226938816
I0711 10:42:46.407658 121357 layer_factory.hpp:76] Creating layer inception_4e/relu_pool_proj
I0711 10:42:46.407671 121357 net.cpp:106] Creating Layer inception_4e/relu_pool_proj
I0711 10:42:46.407680 121357 net.cpp:454] inception_4e/relu_pool_proj <- inception_4e/pool_proj
I0711 10:42:46.407691 121357 net.cpp:397] inception_4e/relu_pool_proj -> inception_4e/pool_proj (in-place)
I0711 10:42:46.407887 121357 net.cpp:150] Setting up inception_4e/relu_pool_proj
I0711 10:42:46.407903 121357 net.cpp:157] Top shape: 100 128 14 14 (2508800)
I0711 10:42:46.407910 121357 net.cpp:165] Memory required for data: 5236974016
I0711 10:42:46.407920 121357 layer_factory.hpp:76] Creating layer inception_4e/output
I0711 10:42:46.407930 121357 net.cpp:106] Creating Layer inception_4e/output
I0711 10:42:46.407939 121357 net.cpp:454] inception_4e/output <- inception_4e/1x1
I0711 10:42:46.407948 121357 net.cpp:454] inception_4e/output <- inception_4e/3x3
I0711 10:42:46.407956 121357 net.cpp:454] inception_4e/output <- inception_4e/5x5
I0711 10:42:46.407963 121357 net.cpp:454] inception_4e/output <- inception_4e/pool_proj
I0711 10:42:46.407973 121357 net.cpp:411] inception_4e/output -> inception_4e/output
I0711 10:42:46.408021 121357 net.cpp:150] Setting up inception_4e/output
I0711 10:42:46.408047 121357 net.cpp:157] Top shape: 100 832 14 14 (16307200)
I0711 10:42:46.408056 121357 net.cpp:165] Memory required for data: 5302202816
I0711 10:42:46.408062 121357 layer_factory.hpp:76] Creating layer pool4/3x3_s2
I0711 10:42:46.408074 121357 net.cpp:106] Creating Layer pool4/3x3_s2
I0711 10:42:46.408082 121357 net.cpp:454] pool4/3x3_s2 <- inception_4e/output
I0711 10:42:46.408095 121357 net.cpp:411] pool4/3x3_s2 -> pool4/3x3_s2
I0711 10:42:46.408504 121357 net.cpp:150] Setting up pool4/3x3_s2
I0711 10:42:46.408522 121357 net.cpp:157] Top shape: 100 832 7 7 (4076800)
I0711 10:42:46.408530 121357 net.cpp:165] Memory required for data: 5318510016
I0711 10:42:46.408538 121357 layer_factory.hpp:76] Creating layer pool4/3x3_s2_pool4/3x3_s2_0_split
I0711 10:42:46.408550 121357 net.cpp:106] Creating Layer pool4/3x3_s2_pool4/3x3_s2_0_split
I0711 10:42:46.408558 121357 net.cpp:454] pool4/3x3_s2_pool4/3x3_s2_0_split <- pool4/3x3_s2
I0711 10:42:46.408571 121357 net.cpp:411] pool4/3x3_s2_pool4/3x3_s2_0_split -> pool4/3x3_s2_pool4/3x3_s2_0_split_0
I0711 10:42:46.408581 121357 net.cpp:411] pool4/3x3_s2_pool4/3x3_s2_0_split -> pool4/3x3_s2_pool4/3x3_s2_0_split_1
I0711 10:42:46.408594 121357 net.cpp:411] pool4/3x3_s2_pool4/3x3_s2_0_split -> pool4/3x3_s2_pool4/3x3_s2_0_split_2
I0711 10:42:46.408606 121357 net.cpp:411] pool4/3x3_s2_pool4/3x3_s2_0_split -> pool4/3x3_s2_pool4/3x3_s2_0_split_3
I0711 10:42:46.408710 121357 net.cpp:150] Setting up pool4/3x3_s2_pool4/3x3_s2_0_split
I0711 10:42:46.408722 121357 net.cpp:157] Top shape: 100 832 7 7 (4076800)
I0711 10:42:46.408731 121357 net.cpp:157] Top shape: 100 832 7 7 (4076800)
I0711 10:42:46.408742 121357 net.cpp:157] Top shape: 100 832 7 7 (4076800)
I0711 10:42:46.408751 121357 net.cpp:157] Top shape: 100 832 7 7 (4076800)
I0711 10:42:46.408757 121357 net.cpp:165] Memory required for data: 5383738816
I0711 10:42:46.408763 121357 layer_factory.hpp:76] Creating layer inception_5a/1x1
I0711 10:42:46.408779 121357 net.cpp:106] Creating Layer inception_5a/1x1
I0711 10:42:46.408790 121357 net.cpp:454] inception_5a/1x1 <- pool4/3x3_s2_pool4/3x3_s2_0_split_0
I0711 10:42:46.408802 121357 net.cpp:411] inception_5a/1x1 -> inception_5a/1x1
I0711 10:42:46.412088 121357 cudnn_conv_layer.cpp:194] Reallocating workspace storage: 9984
I0711 10:42:46.412138 121357 net.cpp:150] Setting up inception_5a/1x1
I0711 10:42:46.412163 121357 net.cpp:157] Top shape: 100 256 7 7 (1254400)
I0711 10:42:46.412170 121357 net.cpp:165] Memory required for data: 5388756416
I0711 10:42:46.412181 121357 layer_factory.hpp:76] Creating layer inception_5a/relu_1x1
I0711 10:42:46.412192 121357 net.cpp:106] Creating Layer inception_5a/relu_1x1
I0711 10:42:46.412200 121357 net.cpp:454] inception_5a/relu_1x1 <- inception_5a/1x1
I0711 10:42:46.412210 121357 net.cpp:397] inception_5a/relu_1x1 -> inception_5a/1x1 (in-place)
I0711 10:42:46.412408 121357 net.cpp:150] Setting up inception_5a/relu_1x1
I0711 10:42:46.412425 121357 net.cpp:157] Top shape: 100 256 7 7 (1254400)
I0711 10:42:46.412431 121357 net.cpp:165] Memory required for data: 5393774016
I0711 10:42:46.412442 121357 layer_factory.hpp:76] Creating layer inception_5a/3x3_reduce
I0711 10:42:46.412456 121357 net.cpp:106] Creating Layer inception_5a/3x3_reduce
I0711 10:42:46.412464 121357 net.cpp:454] inception_5a/3x3_reduce <- pool4/3x3_s2_pool4/3x3_s2_0_split_1
I0711 10:42:46.412477 121357 net.cpp:411] inception_5a/3x3_reduce -> inception_5a/3x3_reduce
I0711 10:42:46.415299 121357 cudnn_conv_layer.cpp:194] Reallocating workspace storage: 9984
I0711 10:42:46.415359 121357 net.cpp:150] Setting up inception_5a/3x3_reduce
I0711 10:42:46.415374 121357 net.cpp:157] Top shape: 100 160 7 7 (784000)
I0711 10:42:46.415382 121357 net.cpp:165] Memory required for data: 5396910016
I0711 10:42:46.415393 121357 layer_factory.hpp:76] Creating layer inception_5a/relu_3x3_reduce
I0711 10:42:46.415408 121357 net.cpp:106] Creating Layer inception_5a/relu_3x3_reduce
I0711 10:42:46.415418 121357 net.cpp:454] inception_5a/relu_3x3_reduce <- inception_5a/3x3_reduce
I0711 10:42:46.415444 121357 net.cpp:397] inception_5a/relu_3x3_reduce -> inception_5a/3x3_reduce (in-place)
I0711 10:42:46.415853 121357 net.cpp:150] Setting up inception_5a/relu_3x3_reduce
I0711 10:42:46.415873 121357 net.cpp:157] Top shape: 100 160 7 7 (784000)
I0711 10:42:46.415881 121357 net.cpp:165] Memory required for data: 5400046016
I0711 10:42:46.415889 121357 layer_factory.hpp:76] Creating layer inception_5a/3x3
I0711 10:42:46.415905 121357 net.cpp:106] Creating Layer inception_5a/3x3
I0711 10:42:46.415915 121357 net.cpp:454] inception_5a/3x3 <- inception_5a/3x3_reduce
I0711 10:42:46.415928 121357 net.cpp:411] inception_5a/3x3 -> inception_5a/3x3
I0711 10:42:46.421185 121357 net.cpp:150] Setting up inception_5a/3x3
I0711 10:42:46.421213 121357 net.cpp:157] Top shape: 100 320 7 7 (1568000)
I0711 10:42:46.421221 121357 net.cpp:165] Memory required for data: 5406318016
I0711 10:42:46.421232 121357 layer_factory.hpp:76] Creating layer inception_5a/relu_3x3
I0711 10:42:46.421246 121357 net.cpp:106] Creating Layer inception_5a/relu_3x3
I0711 10:42:46.421255 121357 net.cpp:454] inception_5a/relu_3x3 <- inception_5a/3x3
I0711 10:42:46.421267 121357 net.cpp:397] inception_5a/relu_3x3 -> inception_5a/3x3 (in-place)
I0711 10:42:46.421618 121357 net.cpp:150] Setting up inception_5a/relu_3x3
I0711 10:42:46.421636 121357 net.cpp:157] Top shape: 100 320 7 7 (1568000)
I0711 10:42:46.421644 121357 net.cpp:165] Memory required for data: 5412590016
I0711 10:42:46.421653 121357 layer_factory.hpp:76] Creating layer inception_5a/5x5_reduce
I0711 10:42:46.421668 121357 net.cpp:106] Creating Layer inception_5a/5x5_reduce
I0711 10:42:46.421676 121357 net.cpp:454] inception_5a/5x5_reduce <- pool4/3x3_s2_pool4/3x3_s2_0_split_2
I0711 10:42:46.421689 121357 net.cpp:411] inception_5a/5x5_reduce -> inception_5a/5x5_reduce
I0711 10:42:46.423764 121357 net.cpp:150] Setting up inception_5a/5x5_reduce
I0711 10:42:46.423785 121357 net.cpp:157] Top shape: 100 32 7 7 (156800)
I0711 10:42:46.423795 121357 net.cpp:165] Memory required for data: 5413217216
I0711 10:42:46.423810 121357 layer_factory.hpp:76] Creating layer inception_5a/relu_5x5_reduce
I0711 10:42:46.423823 121357 net.cpp:106] Creating Layer inception_5a/relu_5x5_reduce
I0711 10:42:46.423832 121357 net.cpp:454] inception_5a/relu_5x5_reduce <- inception_5a/5x5_reduce
I0711 10:42:46.423846 121357 net.cpp:397] inception_5a/relu_5x5_reduce -> inception_5a/5x5_reduce (in-place)
I0711 10:42:46.424093 121357 net.cpp:150] Setting up inception_5a/relu_5x5_reduce
I0711 10:42:46.424109 121357 net.cpp:157] Top shape: 100 32 7 7 (156800)
I0711 10:42:46.424118 121357 net.cpp:165] Memory required for data: 5413844416
I0711 10:42:46.424125 121357 layer_factory.hpp:76] Creating layer inception_5a/5x5
I0711 10:42:46.424140 121357 net.cpp:106] Creating Layer inception_5a/5x5
I0711 10:42:46.424149 121357 net.cpp:454] inception_5a/5x5 <- inception_5a/5x5_reduce
I0711 10:42:46.424163 121357 net.cpp:411] inception_5a/5x5 -> inception_5a/5x5
I0711 10:42:46.426218 121357 net.cpp:150] Setting up inception_5a/5x5
I0711 10:42:46.426242 121357 net.cpp:157] Top shape: 100 128 7 7 (627200)
I0711 10:42:46.426251 121357 net.cpp:165] Memory required for data: 5416353216
I0711 10:42:46.426264 121357 layer_factory.hpp:76] Creating layer inception_5a/relu_5x5
I0711 10:42:46.426287 121357 net.cpp:106] Creating Layer inception_5a/relu_5x5
I0711 10:42:46.426296 121357 net.cpp:454] inception_5a/relu_5x5 <- inception_5a/5x5
I0711 10:42:46.426307 121357 net.cpp:397] inception_5a/relu_5x5 -> inception_5a/5x5 (in-place)
I0711 10:42:46.426718 121357 net.cpp:150] Setting up inception_5a/relu_5x5
I0711 10:42:46.426738 121357 net.cpp:157] Top shape: 100 128 7 7 (627200)
I0711 10:42:46.426748 121357 net.cpp:165] Memory required for data: 5418862016
I0711 10:42:46.426756 121357 layer_factory.hpp:76] Creating layer inception_5a/pool
I0711 10:42:46.426769 121357 net.cpp:106] Creating Layer inception_5a/pool
I0711 10:42:46.426779 121357 net.cpp:454] inception_5a/pool <- pool4/3x3_s2_pool4/3x3_s2_0_split_3
I0711 10:42:46.426789 121357 net.cpp:411] inception_5a/pool -> inception_5a/pool
I0711 10:42:46.427115 121357 net.cpp:150] Setting up inception_5a/pool
I0711 10:42:46.427136 121357 net.cpp:157] Top shape: 100 832 7 7 (4076800)
I0711 10:42:46.427148 121357 net.cpp:165] Memory required for data: 5435169216
I0711 10:42:46.427156 121357 layer_factory.hpp:76] Creating layer inception_5a/pool_proj
I0711 10:42:46.427172 121357 net.cpp:106] Creating Layer inception_5a/pool_proj
I0711 10:42:46.427183 121357 net.cpp:454] inception_5a/pool_proj <- inception_5a/pool
I0711 10:42:46.427196 121357 net.cpp:411] inception_5a/pool_proj -> inception_5a/pool_proj
I0711 10:42:46.429746 121357 cudnn_conv_layer.cpp:194] Reallocating workspace storage: 9984
I0711 10:42:46.429808 121357 net.cpp:150] Setting up inception_5a/pool_proj
I0711 10:42:46.429823 121357 net.cpp:157] Top shape: 100 128 7 7 (627200)
I0711 10:42:46.429831 121357 net.cpp:165] Memory required for data: 5437678016
I0711 10:42:46.429846 121357 layer_factory.hpp:76] Creating layer inception_5a/relu_pool_proj
I0711 10:42:46.429857 121357 net.cpp:106] Creating Layer inception_5a/relu_pool_proj
I0711 10:42:46.429867 121357 net.cpp:454] inception_5a/relu_pool_proj <- inception_5a/pool_proj
I0711 10:42:46.429878 121357 net.cpp:397] inception_5a/relu_pool_proj -> inception_5a/pool_proj (in-place)
I0711 10:42:46.430080 121357 net.cpp:150] Setting up inception_5a/relu_pool_proj
I0711 10:42:46.430096 121357 net.cpp:157] Top shape: 100 128 7 7 (627200)
I0711 10:42:46.430104 121357 net.cpp:165] Memory required for data: 5440186816
I0711 10:42:46.430112 121357 layer_factory.hpp:76] Creating layer inception_5a/output
I0711 10:42:46.430124 121357 net.cpp:106] Creating Layer inception_5a/output
I0711 10:42:46.430131 121357 net.cpp:454] inception_5a/output <- inception_5a/1x1
I0711 10:42:46.430143 121357 net.cpp:454] inception_5a/output <- inception_5a/3x3
I0711 10:42:46.430151 121357 net.cpp:454] inception_5a/output <- inception_5a/5x5
I0711 10:42:46.430160 121357 net.cpp:454] inception_5a/output <- inception_5a/pool_proj
I0711 10:42:46.430171 121357 net.cpp:411] inception_5a/output -> inception_5a/output
I0711 10:42:46.430227 121357 net.cpp:150] Setting up inception_5a/output
I0711 10:42:46.430239 121357 net.cpp:157] Top shape: 100 832 7 7 (4076800)
I0711 10:42:46.430246 121357 net.cpp:165] Memory required for data: 5456494016
I0711 10:42:46.430256 121357 layer_factory.hpp:76] Creating layer inception_5a/output_inception_5a/output_0_split
I0711 10:42:46.430266 121357 net.cpp:106] Creating Layer inception_5a/output_inception_5a/output_0_split
I0711 10:42:46.430275 121357 net.cpp:454] inception_5a/output_inception_5a/output_0_split <- inception_5a/output
I0711 10:42:46.430284 121357 net.cpp:411] inception_5a/output_inception_5a/output_0_split -> inception_5a/output_inception_5a/output_0_split_0
I0711 10:42:46.430302 121357 net.cpp:411] inception_5a/output_inception_5a/output_0_split -> inception_5a/output_inception_5a/output_0_split_1
I0711 10:42:46.430316 121357 net.cpp:411] inception_5a/output_inception_5a/output_0_split -> inception_5a/output_inception_5a/output_0_split_2
I0711 10:42:46.430326 121357 net.cpp:411] inception_5a/output_inception_5a/output_0_split -> inception_5a/output_inception_5a/output_0_split_3
I0711 10:42:46.430438 121357 net.cpp:150] Setting up inception_5a/output_inception_5a/output_0_split
I0711 10:42:46.430451 121357 net.cpp:157] Top shape: 100 832 7 7 (4076800)
I0711 10:42:46.430461 121357 net.cpp:157] Top shape: 100 832 7 7 (4076800)
I0711 10:42:46.430469 121357 net.cpp:157] Top shape: 100 832 7 7 (4076800)
I0711 10:42:46.430476 121357 net.cpp:157] Top shape: 100 832 7 7 (4076800)
I0711 10:42:46.430483 121357 net.cpp:165] Memory required for data: 5521722816
I0711 10:42:46.430490 121357 layer_factory.hpp:76] Creating layer inception_5b/1x1
I0711 10:42:46.430505 121357 net.cpp:106] Creating Layer inception_5b/1x1
I0711 10:42:46.430512 121357 net.cpp:454] inception_5b/1x1 <- inception_5a/output_inception_5a/output_0_split_0
I0711 10:42:46.430524 121357 net.cpp:411] inception_5b/1x1 -> inception_5b/1x1
I0711 10:42:46.436336 121357 cudnn_conv_layer.cpp:194] Reallocating workspace storage: 9984
I0711 10:42:46.436393 121357 net.cpp:150] Setting up inception_5b/1x1
I0711 10:42:46.436408 121357 net.cpp:157] Top shape: 100 384 7 7 (1881600)
I0711 10:42:46.436416 121357 net.cpp:165] Memory required for data: 5529249216
I0711 10:42:46.436427 121357 layer_factory.hpp:76] Creating layer inception_5b/relu_1x1
I0711 10:42:46.436439 121357 net.cpp:106] Creating Layer inception_5b/relu_1x1
I0711 10:42:46.436449 121357 net.cpp:454] inception_5b/relu_1x1 <- inception_5b/1x1
I0711 10:42:46.436461 121357 net.cpp:397] inception_5b/relu_1x1 -> inception_5b/1x1 (in-place)
I0711 10:42:46.438423 121357 net.cpp:150] Setting up inception_5b/relu_1x1
I0711 10:42:46.438441 121357 net.cpp:157] Top shape: 100 384 7 7 (1881600)
I0711 10:42:46.438449 121357 net.cpp:165] Memory required for data: 5536775616
I0711 10:42:46.438457 121357 layer_factory.hpp:76] Creating layer inception_5b/3x3_reduce
I0711 10:42:46.438472 121357 net.cpp:106] Creating Layer inception_5b/3x3_reduce
I0711 10:42:46.438480 121357 net.cpp:454] inception_5b/3x3_reduce <- inception_5a/output_inception_5a/output_0_split_1
I0711 10:42:46.438493 121357 net.cpp:411] inception_5b/3x3_reduce -> inception_5b/3x3_reduce
I0711 10:42:46.445329 121357 cudnn_conv_layer.cpp:194] Reallocating workspace storage: 9984
I0711 10:42:46.445380 121357 net.cpp:150] Setting up inception_5b/3x3_reduce
I0711 10:42:46.445394 121357 net.cpp:157] Top shape: 100 192 7 7 (940800)
I0711 10:42:46.445401 121357 net.cpp:165] Memory required for data: 5540538816
I0711 10:42:46.445411 121357 layer_factory.hpp:76] Creating layer inception_5b/relu_3x3_reduce
I0711 10:42:46.445422 121357 net.cpp:106] Creating Layer inception_5b/relu_3x3_reduce
I0711 10:42:46.445431 121357 net.cpp:454] inception_5b/relu_3x3_reduce <- inception_5b/3x3_reduce
I0711 10:42:46.445446 121357 net.cpp:397] inception_5b/relu_3x3_reduce -> inception_5b/3x3_reduce (in-place)
I0711 10:42:46.447422 121357 net.cpp:150] Setting up inception_5b/relu_3x3_reduce
I0711 10:42:46.447439 121357 net.cpp:157] Top shape: 100 192 7 7 (940800)
I0711 10:42:46.447446 121357 net.cpp:165] Memory required for data: 5544302016
I0711 10:42:46.447456 121357 layer_factory.hpp:76] Creating layer inception_5b/3x3
I0711 10:42:46.447469 121357 net.cpp:106] Creating Layer inception_5b/3x3
I0711 10:42:46.447479 121357 net.cpp:454] inception_5b/3x3 <- inception_5b/3x3_reduce
I0711 10:42:46.447489 121357 net.cpp:411] inception_5b/3x3 -> inception_5b/3x3
I0711 10:42:46.457993 121357 net.cpp:150] Setting up inception_5b/3x3
I0711 10:42:46.458015 121357 net.cpp:157] Top shape: 100 384 7 7 (1881600)
I0711 10:42:46.458025 121357 net.cpp:165] Memory required for data: 5551828416
I0711 10:42:46.458037 121357 layer_factory.hpp:76] Creating layer inception_5b/relu_3x3
I0711 10:42:46.458050 121357 net.cpp:106] Creating Layer inception_5b/relu_3x3
I0711 10:42:46.458060 121357 net.cpp:454] inception_5b/relu_3x3 <- inception_5b/3x3
I0711 10:42:46.458075 121357 net.cpp:397] inception_5b/relu_3x3 -> inception_5b/3x3 (in-place)
I0711 10:42:46.459585 121357 net.cpp:150] Setting up inception_5b/relu_3x3
I0711 10:42:46.459604 121357 net.cpp:157] Top shape: 100 384 7 7 (1881600)
I0711 10:42:46.459612 121357 net.cpp:165] Memory required for data: 5559354816
I0711 10:42:46.459621 121357 layer_factory.hpp:76] Creating layer inception_5b/5x5_reduce
I0711 10:42:46.459636 121357 net.cpp:106] Creating Layer inception_5b/5x5_reduce
I0711 10:42:46.459646 121357 net.cpp:454] inception_5b/5x5_reduce <- inception_5a/output_inception_5a/output_0_split_2
I0711 10:42:46.459659 121357 net.cpp:411] inception_5b/5x5_reduce -> inception_5b/5x5_reduce
I0711 10:42:46.466389 121357 net.cpp:150] Setting up inception_5b/5x5_reduce
I0711 10:42:46.466411 121357 net.cpp:157] Top shape: 100 48 7 7 (235200)
I0711 10:42:46.466421 121357 net.cpp:165] Memory required for data: 5560295616
I0711 10:42:46.466434 121357 layer_factory.hpp:76] Creating layer inception_5b/relu_5x5_reduce
I0711 10:42:46.466461 121357 net.cpp:106] Creating Layer inception_5b/relu_5x5_reduce
I0711 10:42:46.466488 121357 net.cpp:454] inception_5b/relu_5x5_reduce <- inception_5b/5x5_reduce
I0711 10:42:46.466501 121357 net.cpp:397] inception_5b/relu_5x5_reduce -> inception_5b/5x5_reduce (in-place)
I0711 10:42:46.468510 121357 net.cpp:150] Setting up inception_5b/relu_5x5_reduce
I0711 10:42:46.468533 121357 net.cpp:157] Top shape: 100 48 7 7 (235200)
I0711 10:42:46.468543 121357 net.cpp:165] Memory required for data: 5561236416
I0711 10:42:46.468551 121357 layer_factory.hpp:76] Creating layer inception_5b/5x5
I0711 10:42:46.468580 121357 net.cpp:106] Creating Layer inception_5b/5x5
I0711 10:42:46.468590 121357 net.cpp:454] inception_5b/5x5 <- inception_5b/5x5_reduce
I0711 10:42:46.468605 121357 net.cpp:411] inception_5b/5x5 -> inception_5b/5x5
I0711 10:42:46.474256 121357 net.cpp:150] Setting up inception_5b/5x5
I0711 10:42:46.474275 121357 net.cpp:157] Top shape: 100 128 7 7 (627200)
I0711 10:42:46.474283 121357 net.cpp:165] Memory required for data: 5563745216
I0711 10:42:46.474293 121357 layer_factory.hpp:76] Creating layer inception_5b/relu_5x5
I0711 10:42:46.474319 121357 net.cpp:106] Creating Layer inception_5b/relu_5x5
I0711 10:42:46.474333 121357 net.cpp:454] inception_5b/relu_5x5 <- inception_5b/5x5
I0711 10:42:46.474342 121357 net.cpp:397] inception_5b/relu_5x5 -> inception_5b/5x5 (in-place)
I0711 10:42:46.476394 121357 net.cpp:150] Setting up inception_5b/relu_5x5
I0711 10:42:46.476410 121357 net.cpp:157] Top shape: 100 128 7 7 (627200)
I0711 10:42:46.476418 121357 net.cpp:165] Memory required for data: 5566254016
I0711 10:42:46.476425 121357 layer_factory.hpp:76] Creating layer inception_5b/pool
I0711 10:42:46.476449 121357 net.cpp:106] Creating Layer inception_5b/pool
I0711 10:42:46.476465 121357 net.cpp:454] inception_5b/pool <- inception_5a/output_inception_5a/output_0_split_3
I0711 10:42:46.476475 121357 net.cpp:411] inception_5b/pool -> inception_5b/pool
I0711 10:42:46.478027 121357 net.cpp:150] Setting up inception_5b/pool
I0711 10:42:46.478049 121357 net.cpp:157] Top shape: 100 832 7 7 (4076800)
I0711 10:42:46.478057 121357 net.cpp:165] Memory required for data: 5582561216
I0711 10:42:46.478080 121357 layer_factory.hpp:76] Creating layer inception_5b/pool_proj
I0711 10:42:46.478094 121357 net.cpp:106] Creating Layer inception_5b/pool_proj
I0711 10:42:46.478104 121357 net.cpp:454] inception_5b/pool_proj <- inception_5b/pool
I0711 10:42:46.478117 121357 net.cpp:411] inception_5b/pool_proj -> inception_5b/pool_proj
I0711 10:42:46.484253 121357 cudnn_conv_layer.cpp:194] Reallocating workspace storage: 9984
I0711 10:42:46.484326 121357 net.cpp:150] Setting up inception_5b/pool_proj
I0711 10:42:46.484341 121357 net.cpp:157] Top shape: 100 128 7 7 (627200)
I0711 10:42:46.484350 121357 net.cpp:165] Memory required for data: 5585070016
I0711 10:42:46.484362 121357 layer_factory.hpp:76] Creating layer inception_5b/relu_pool_proj
I0711 10:42:46.484374 121357 net.cpp:106] Creating Layer inception_5b/relu_pool_proj
I0711 10:42:46.484385 121357 net.cpp:454] inception_5b/relu_pool_proj <- inception_5b/pool_proj
I0711 10:42:46.484397 121357 net.cpp:397] inception_5b/relu_pool_proj -> inception_5b/pool_proj (in-place)
I0711 10:42:46.486768 121357 net.cpp:150] Setting up inception_5b/relu_pool_proj
I0711 10:42:46.486788 121357 net.cpp:157] Top shape: 100 128 7 7 (627200)
I0711 10:42:46.486794 121357 net.cpp:165] Memory required for data: 5587578816
I0711 10:42:46.486802 121357 layer_factory.hpp:76] Creating layer inception_5b/output
I0711 10:42:46.486826 121357 net.cpp:106] Creating Layer inception_5b/output
I0711 10:42:46.486840 121357 net.cpp:454] inception_5b/output <- inception_5b/1x1
I0711 10:42:46.486850 121357 net.cpp:454] inception_5b/output <- inception_5b/3x3
I0711 10:42:46.486860 121357 net.cpp:454] inception_5b/output <- inception_5b/5x5
I0711 10:42:46.486868 121357 net.cpp:454] inception_5b/output <- inception_5b/pool_proj
I0711 10:42:46.486878 121357 net.cpp:411] inception_5b/output -> inception_5b/output
I0711 10:42:46.486913 121357 net.cpp:150] Setting up inception_5b/output
I0711 10:42:46.486939 121357 net.cpp:157] Top shape: 100 1024 7 7 (5017600)
I0711 10:42:46.486948 121357 net.cpp:165] Memory required for data: 5607649216
I0711 10:42:46.486956 121357 layer_factory.hpp:76] Creating layer pool5/7x7_s1
I0711 10:42:46.486994 121357 net.cpp:106] Creating Layer pool5/7x7_s1
I0711 10:42:46.487010 121357 net.cpp:454] pool5/7x7_s1 <- inception_5b/output
I0711 10:42:46.487022 121357 net.cpp:411] pool5/7x7_s1 -> pool5/7x7_s1
I0711 10:42:46.489289 121357 net.cpp:150] Setting up pool5/7x7_s1
I0711 10:42:46.489306 121357 net.cpp:157] Top shape: 100 1024 1 1 (102400)
I0711 10:42:46.489315 121357 net.cpp:165] Memory required for data: 5608058816
I0711 10:42:46.489323 121357 layer_factory.hpp:76] Creating layer pool5/drop_7x7_s1
I0711 10:42:46.489349 121357 net.cpp:106] Creating Layer pool5/drop_7x7_s1
I0711 10:42:46.489359 121357 net.cpp:454] pool5/drop_7x7_s1 <- pool5/7x7_s1
I0711 10:42:46.489370 121357 net.cpp:397] pool5/drop_7x7_s1 -> pool5/7x7_s1 (in-place)
I0711 10:42:46.489403 121357 net.cpp:150] Setting up pool5/drop_7x7_s1
I0711 10:42:46.489418 121357 net.cpp:157] Top shape: 100 1024 1 1 (102400)
I0711 10:42:46.489425 121357 net.cpp:165] Memory required for data: 5608468416
I0711 10:42:46.489434 121357 layer_factory.hpp:76] Creating layer loss3/classifier
I0711 10:42:46.489449 121357 net.cpp:106] Creating Layer loss3/classifier
I0711 10:42:46.489459 121357 net.cpp:454] loss3/classifier <- pool5/7x7_s1
I0711 10:42:46.489475 121357 net.cpp:411] loss3/classifier -> loss3/classifier
I0711 10:42:46.489650 121357 net.cpp:150] Setting up loss3/classifier
I0711 10:42:46.489665 121357 net.cpp:157] Top shape: 100 2 (200)
I0711 10:42:46.489672 121357 net.cpp:165] Memory required for data: 5608469216
I0711 10:42:46.489683 121357 layer_factory.hpp:76] Creating layer loss3/classifier_loss3/classifier_0_split
I0711 10:42:46.489709 121357 net.cpp:106] Creating Layer loss3/classifier_loss3/classifier_0_split
I0711 10:42:46.489718 121357 net.cpp:454] loss3/classifier_loss3/classifier_0_split <- loss3/classifier
I0711 10:42:46.489732 121357 net.cpp:411] loss3/classifier_loss3/classifier_0_split -> loss3/classifier_loss3/classifier_0_split_0
I0711 10:42:46.489743 121357 net.cpp:411] loss3/classifier_loss3/classifier_0_split -> loss3/classifier_loss3/classifier_0_split_1
I0711 10:42:46.489789 121357 net.cpp:150] Setting up loss3/classifier_loss3/classifier_0_split
I0711 10:42:46.489804 121357 net.cpp:157] Top shape: 100 2 (200)
I0711 10:42:46.489812 121357 net.cpp:157] Top shape: 100 2 (200)
I0711 10:42:46.489820 121357 net.cpp:165] Memory required for data: 5608470816
I0711 10:42:46.489828 121357 layer_factory.hpp:76] Creating layer loss3/loss3
I0711 10:42:46.489840 121357 net.cpp:106] Creating Layer loss3/loss3
I0711 10:42:46.489848 121357 net.cpp:454] loss3/loss3 <- loss3/classifier_loss3/classifier_0_split_0
I0711 10:42:46.489857 121357 net.cpp:454] loss3/loss3 <- label_data_1_split_4
…
