…
I0711 11:15:37.266572 122639 net.cpp:49] Initializing net from parameters: 
name: "GoogleNet"
state {
  phase: TRAIN
}
layer {
  name: "data"
  type: "ImageData"
  top: "data"
  top: "label"
  include {
    phase: TRAIN
  }
  transform_param {
    mirror: true
    crop_size: 224
    mean_value: 104
    mean_value: 117
    mean_value: 123
  }
  image_data_param {
    source: "/data/dywang/Database/Proliferation/libs/stage04_mitosisDetection/training_examples/train2.lst"
    batch_size: 32
    shuffle: true
    new_height: 256
    new_width: 256
  }
}
layer {
  name: "conv1/7x7_s2"
  type: "Convolution"
  bottom: "data"
  top: "conv1/7x7_s2"
  param {
    lr_mult: 1
    decay_mult: 1
  }
  param {
    lr_mult: 2
    decay_mult: 0
  }
  convolution_param {
    num_output: 64
    pad: 3
    kernel_size: 7
    stride: 2
    weight_filler {
      type: "xavier"
    }
    bias_filler {
      type: "constant"
      value: 0.2
    }
  }
}
layer {
  name: "conv1/relu_7x7"
  type: "ReLU"
  bottom: "conv1/7x7_s2"
  top: "conv1/7x7_s2"
}
layer {
  name: "pool1/3x3_s2"
  type: "Pooling"
  bottom: "conv1/7x7_s2"
  top: "pool1/3x3_s2"
  pooling_param {
    pool: MAX
    kernel_size: 3
    stride: 2
  }
}
layer {
  name: "pool1/norm1"
  type: "LRN"
  bottom: "pool1/3x3_s2"
  top: "pool1/norm1"
  lrn_param {
    local_size: 5
    alpha: 0.0001
    beta: 0.75
  }
}
layer {
  name: "conv2/3x3_reduce"
  type: "Convolution"
  bottom: "pool1/norm1"
  top: "conv2/3x3_reduce"
  param {
    lr_mult: 1
    decay_mult: 1
  }
  param {
    lr_mult: 2
    decay_mult: 0
  }
  convolution_param {
    num_output: 64
    kernel_size: 1
    weight_filler {
      type: "xavier"
    }
    bias_filler {
      type: "constant"
      value: 0.2
    }
  }
}
layer {
  name: "conv2/relu_3x3_reduce"
  type: "ReLU"
  bottom: "conv2/3x3_reduce"
  top: "conv2/3x3_reduce"
}
layer {
  name: "conv2/3x3"
  type: "Convolution"
  bottom: "conv2/3x3_reduce"
  top: "conv2/3x3"
  param {
    lr_mult: 1
    decay_mult: 1
  }
  param {
    lr_mult: 2
    decay_mult: 0
  }
  convolution_param {
    num_output: 192
    pad: 1
    kernel_size: 3
    weight_filler {
      type: "xavier"
    }
    bias_filler {
      type: "constant"
      value: 0.2
    }
  }
}
layer {
  name: "conv2/relu_3x3"
  type: "ReLU"
  bottom: "conv2/3x3"
  top: "conv2/3x3"
}
layer {
  name: "conv2/norm2"
  type: "LRN"
  bottom: "conv2/3x3"
  top: "conv2/norm2"
  lrn_param {
    local_size: 5
    alpha: 0.0001
    beta: 0.75
  }
}
layer {
  name: "pool2/3x3_s2"
  type: "Pooling"
  bottom: "conv2/norm2"
  top: "pool2/3x3_s2"
  pooling_param {
    pool: MAX
    kernel_size: 3
    stride: 2
  }
}
layer {
  name: "inception_3a/1x1"
  type: "Convolution"
  bottom: "pool2/3x3_s2"
  top: "inception_3a/1x1"
  param {
    lr_mult: 1
    decay_mult: 1
  }
  param {
    lr_mult: 2
    decay_mult: 0
  }
  convolution_param {
    num_output: 64
    kernel_size: 1
    weight_filler {
      type: "xavier"
    }
    bias_filler {
      type: "constant"
      value: 0.2
    }
  }
}
layer {
  name: "inception_3a/relu_1x1"
  type: "ReLU"
  bottom: "inception_3a/1x1"
  top: "inception_3a/1x1"
}
layer {
  name: "inception_3a/3x3_reduce"
  type: "Convolution"
  bottom: "pool2/3x3_s2"
  top: "inception_3a/3x3_reduce"
  param {
    lr_mult: 1
    decay_mult: 1
  }
  param {
    lr_mult: 2
    decay_mult: 0
  }
  convolution_param {
    num_output: 96
    kernel_size: 1
    weight_filler {
      type: "xavier"
    }
    bias_filler {
      type: "constant"
      value: 0.2
    }
  }
}
layer {
  name: "inception_3a/relu_3x3_reduce"
  type: "ReLU"
  bottom: "inception_3a/3x3_reduce"
  top: "inception_3a/3x3_reduce"
}
layer {
  name: "inception_3a/3x3"
  type: "Convolution"
  bottom: "inception_3a/3x3_reduce"
  top: "inception_3a/3x3"
  param {
    lr_mult: 1
    decay_mult: 1
  }
  param {
    lr_mult: 2
    decay_mult: 0
  }
  convolution_param {
    num_output: 128
    pad: 1
    kernel_size: 3
    weight_filler {
      type: "xavier"
    }
    bias_filler {
      type: "constant"
      value: 0.2
    }
  }
}
layer {
  name: "inception_3a/relu_3x3"
  type: "ReLU"
  bottom: "inception_3a/3x3"
  top: "inception_3a/3x3"
}
layer {
  name: "inception_3a/5x5_reduce"
  type: "Convolution"
  bottom: "pool2/3x3_s2"
  top: "inception_3a/5x5_reduce"
  param {
    lr_mult: 1
    decay_mult: 1
  }
  param {
    lr_mult: 2
    decay_mult: 0
  }
  convolution_param {
    num_output: 16
    kernel_size: 1
    weight_filler {
      type: "xavier"
    }
    bias_filler {
      type: "constant"
      value: 0.2
    }
  }
}
layer {
  name: "inception_3a/relu_5x5_reduce"
  type: "ReLU"
  bottom: "inception_3a/5x5_reduce"
  top: "inception_3a/5x5_reduce"
}
layer {
  name: "inception_3a/5x5"
  type: "Convolution"
  bottom: "inception_3a/5x5_reduce"
  top: "inception_3a/5x5"
  param {
    lr_mult: 1
    decay_mult: 1
  }
  param {
    lr_mult: 2
    decay_mult: 0
  }
  convolution_param {
    num_output: 32
    pad: 2
    kernel_size: 5
    weight_filler {
      type: "xavier"
    }
    bias_filler {
      type: "constant"
      value: 0.2
    }
  }
}
layer {
  name: "inception_3a/relu_5x5"
  type: "ReLU"
  bottom: "inception_3a/5x5"
  top: "inception_3a/5x5"
}
layer {
  name: "inception_3a/pool"
  type: "Pooling"
  bottom: "pool2/3x3_s2"
  top: "inception_3a/pool"
  pooling_param {
    pool: MAX
    kernel_size: 3
    stride: 1
    pad: 1
  }
}
layer {
  name: "inception_3a/pool_proj"
  type: "Convolution"
  bottom: "inception_3a/pool"
  top: "inception_3a/pool_proj"
  param {
    lr_mult: 1
    decay_mult: 1
  }
  param {
    lr_mult: 2
    decay_mult: 0
  }
  convolution_param {
    num_output: 32
    kernel_size: 1
    weight_filler {
      type: "xavier"
    }
    bias_filler {
      type: "constant"
      value: 0.2
    }
  }
}
layer {
  name: "inception_3a/relu_pool_proj"
  type: "ReLU"
  bottom: "inception_3a/pool_proj"
  top: "inception_3a/pool_proj"
}
layer {
  name: "inception_3a/output"
  type: "Concat"
  bottom: "inception_3a/1x1"
  bottom: "inception_3a/3x3"
  bottom: "inception_3a/5x5"
  bottom: "inception_3a/pool_proj"
  top: "inception_3a/output"
}
layer {
  name: "inception_3b/1x1"
  type: "Convolution"
  bottom: "inception_3a/output"
  top: "inception_3b/1x1"
  param {
    lr_mult: 1
    decay_mult: 1
  }
  param {
    lr_mult: 2
    decay_mult: 0
  }
  convolution_param {
    num_output: 128
    kernel_size: 1
    weight_filler {
      type: "xavier"
    }
    bias_filler {
      type: "constant"
      value: 0.2
    }
  }
}
layer {
  name: "inception_3b/relu_1x1"
  type: "ReLU"
  bottom: "inception_3b/1x1"
  top: "inception_3b/1x1"
}
layer {
  name: "inception_3b/3x3_reduce"
  type: "Convolution"
  bottom: "inception_3a/output"
  top: "inception_3b/3x3_reduce"
  param {
    lr_mult: 1
    decay_mult: 1
  }
  param {
    lr_mult: 2
    decay_mult: 0
  }
  convolution_param {
    num_output: 128
    kernel_size: 1
    weight_filler {
      type: "xavier"
    }
    bias_filler {
      type: "constant"
      value: 0.2
    }
  }
}
layer {
  name: "inception_3b/relu_3x3_reduce"
  type: "ReLU"
  bottom: "inception_3b/3x3_reduce"
  top: "inception_3b/3x3_reduce"
}
layer {
  name: "inception_3b/3x3"
  type: "Convolution"
  bottom: "inception_3b/3x3_reduce"
  top: "inception_3b/3x3"
  param {
    lr_mult: 1
    decay_mult: 1
  }
  param {
    lr_mult: 2
    decay_mult: 0
  }
  convolution_param {
    num_output: 192
    pad: 1
    kernel_size: 3
    weight_filler {
      type: "xavier"
    }
    bias_filler {
      type: "constant"
      value: 0.2
    }
  }
}
layer {
  name: "inception_3b/relu_3x3"
  type: "ReLU"
  bottom: "inception_3b/3x3"
  top: "inception_3b/3x3"
}
layer {
  name: "inception_3b/5x5_reduce"
  type: "Convolution"
  bottom: "inception_3a/output"
  top: "inception_3b/5x5_reduce"
  param {
    lr_mult: 1
    decay_mult: 1
  }
  param {
    lr_mult: 2
    decay_mult: 0
  }
  convolution_param {
    num_output: 32
    kernel_size: 1
    weight_filler {
      type: "xavier"
    }
    bias_filler {
      type: "constant"
      value: 0.2
    }
  }
}
layer {
  name: "inception_3b/relu_5x5_reduce"
  type: "ReLU"
  bottom: "inception_3b/5x5_reduce"
  top: "inception_3b/5x5_reduce"
}
layer {
  name: "inception_3b/5x5"
  type: "Convolution"
  bottom: "inception_3b/5x5_reduce"
  top: "inception_3b/5x5"
  param {
    lr_mult: 1
    decay_mult: 1
  }
  param {
    lr_mult: 2
    decay_mult: 0
  }
  convolution_param {
    num_output: 96
    pad: 2
    kernel_size: 5
    weight_filler {
      type: "xavier"
    }
    bias_filler {
      type: "constant"
      value: 0.2
    }
  }
}
layer {
  name: "inception_3b/relu_5x5"
  type: "ReLU"
  bottom: "inception_3b/5x5"
  top: "inception_3b/5x5"
}
layer {
  name: "inception_3b/pool"
  type: "Pooling"
  bottom: "inception_3a/output"
  top: "inception_3b/pool"
  pooling_param {
    pool: MAX
    kernel_size: 3
    stride: 1
    pad: 1
  }
}
layer {
  name: "inception_3b/pool_proj"
  type: "Convolution"
  bottom: "inception_3b/pool"
  top: "inception_3b/pool_proj"
  param {
    lr_mult: 1
    decay_mult: 1
  }
  param {
    lr_mult: 2
    decay_mult: 0
  }
  convolution_param {
    num_output: 64
    kernel_size: 1
    weight_filler {
      type: "xavier"
    }
    bias_filler {
      type: "constant"
      value: 0.2
    }
  }
}
layer {
  name: "inception_3b/relu_pool_proj"
  type: "ReLU"
  bottom: "inception_3b/pool_proj"
  top: "inception_3b/pool_proj"
}
layer {
  name: "inception_3b/output"
  type: "Concat"
  bottom: "inception_3b/1x1"
  bottom: "inception_3b/3x3"
  bottom: "inception_3b/5x5"
  bottom: "inception_3b/pool_proj"
  top: "inception_3b/output"
}
layer {
  name: "pool3/3x3_s2"
  type: "Pooling"
  bottom: "inception_3b/output"
  top: "pool3/3x3_s2"
  pooling_param {
    pool: MAX
    kernel_size: 3
    stride: 2
  }
}
layer {
  name: "inception_4a/1x1"
  type: "Convolution"
  bottom: "pool3/3x3_s2"
  top: "inception_4a/1x1"
  param {
    lr_mult: 1
    decay_mult: 1
  }
  param {
    lr_mult: 2
    decay_mult: 0
  }
  convolution_param {
    num_output: 192
    kernel_size: 1
    weight_filler {
      type: "xavier"
    }
    bias_filler {
      type: "constant"
      value: 0.2
    }
  }
}
layer {
  name: "inception_4a/relu_1x1"
  type: "ReLU"
  bottom: "inception_4a/1x1"
  top: "inception_4a/1x1"
}
layer {
  name: "inception_4a/3x3_reduce"
  type: "Convolution"
  bottom: "pool3/3x3_s2"
  top: "inception_4a/3x3_reduce"
  param {
    lr_mult: 1
    decay_mult: 1
  }
  param {
    lr_mult: 2
    decay_mult: 0
  }
  convolution_param {
    num_output: 96
    kernel_size: 1
    weight_filler {
      type: "xavier"
    }
    bias_filler {
      type: "constant"
      value: 0.2
    }
  }
}
layer {
  name: "inception_4a/relu_3x3_reduce"
  type: "ReLU"
  bottom: "inception_4a/3x3_reduce"
  top: "inception_4a/3x3_reduce"
}
layer {
  name: "inception_4a/3x3"
  type: "Convolution"
  bottom: "inception_4a/3x3_reduce"
  top: "inception_4a/3x3"
  param {
    lr_mult: 1
    decay_mult: 1
  }
  param {
    lr_mult: 2
    decay_mult: 0
  }
  convolution_param {
    num_output: 208
    pad: 1
    kernel_size: 3
    weight_filler {
      type: "xavier"
    }
    bias_filler {
      type: "constant"
      value: 0.2
    }
  }
}
layer {
  name: "inception_4a/relu_3x3"
  type: "ReLU"
  bottom: "inception_4a/3x3"
  top: "inception_4a/3x3"
}
layer {
  name: "inception_4a/5x5_reduce"
  type: "Convolution"
  bottom: "pool3/3x3_s2"
  top: "inception_4a/5x5_reduce"
  param {
    lr_mult: 1
    decay_mult: 1
  }
  param {
    lr_mult: 2
    decay_mult: 0
  }
  convolution_param {
    num_output: 16
    kernel_size: 1
    weight_filler {
      type: "xavier"
    }
    bias_filler {
      type: "constant"
      value: 0.2
    }
  }
}
layer {
  name: "inception_4a/relu_5x5_reduce"
  type: "ReLU"
  bottom: "inception_4a/5x5_reduce"
  top: "inception_4a/5x5_reduce"
}
layer {
  name: "inception_4a/5x5"
  type: "Convolution"
  bottom: "inception_4a/5x5_reduce"
  top: "inception_4a/5x5"
  param {
    lr_mult: 1
    decay_mult: 1
  }
  param {
    lr_mult: 2
    decay_mult: 0
  }
  convolution_param {
    num_output: 48
    pad: 2
    kernel_size: 5
    weight_filler {
      type: "xavier"
    }
    bias_filler {
      type: "constant"
      value: 0.2
    }
  }
}
layer {
  name: "inception_4a/relu_5x5"
  type: "ReLU"
  bottom: "inception_4a/5x5"
  top: "inception_4a/5x5"
}
layer {
  name: "inception_4a/pool"
  type: "Pooling"
  bottom: "pool3/3x3_s2"
  top: "inception_4a/pool"
  pooling_param {
    pool: MAX
    kernel_size: 3
    stride: 1
    pad: 1
  }
}
layer {
  name: "inception_4a/pool_proj"
  type: "Convolution"
  bottom: "inception_4a/pool"
  top: "inception_4a/pool_proj"
  param {
    lr_mult: 1
    decay_mult: 1
  }
  param {
    lr_mult: 2
    decay_mult: 0
  }
  convolution_param {
    num_output: 64
    kernel_size: 1
    weight_filler {
      type: "xavier"
    }
    bias_filler {
      type: "constant"
      value: 0.2
    }
  }
}
layer {
  name: "inception_4a/relu_pool_proj"
  type: "ReLU"
  bottom: "inception_4a/pool_proj"
  top: "inception_4a/pool_proj"
}
layer {
  name: "inception_4a/output"
  type: "Concat"
  bottom: "inception_4a/1x1"
  bottom: "inception_4a/3x3"
  bottom: "inception_4a/5x5"
  bottom: "inception_4a/pool_proj"
  top: "inception_4a/output"
}
layer {
  name: "loss1/ave_pool"
  type: "Pooling"
  bottom: "inception_4a/output"
  top: "loss1/ave_pool"
  pooling_param {
    pool: AVE
    kernel_size: 5
    stride: 3
  }
}
layer {
  name: "loss1/conv"
  type: "Convolution"
  bottom: "loss1/ave_pool"
  top: "loss1/conv"
  param {
    lr_mult: 1
    decay_mult: 1
  }
  param {
    lr_mult: 2
    decay_mult: 0
  }
  convolution_param {
    num_output: 128
    kernel_size: 1
    weight_filler {
      type: "xavier"
    }
    bias_filler {
      type: "constant"
      value: 0.2
    }
  }
}
layer {
  name: "loss1/relu_conv"
  type: "ReLU"
  bottom: "loss1/conv"
  top: "loss1/conv"
}
layer {
  name: "loss1/fc"
  type: "InnerProduct"
  bottom: "loss1/conv"
  top: "loss1/fc"
  param {
    lr_mult: 1
    decay_mult: 1
  }
  param {
    lr_mult: 2
    decay_mult: 0
  }
  inner_product_param {
    num_output: 1024
    weight_filler {
      type: "xavier"
    }
    bias_filler {
      type: "constant"
      value: 0.2
    }
  }
}
layer {
  name: "loss1/relu_fc"
  type: "ReLU"
  bottom: "loss1/fc"
  top: "loss1/fc"
}
layer {
  name: "loss1/drop_fc"
  type: "Dropout"
  bottom: "loss1/fc"
  top: "loss1/fc"
  dropout_param {
    dropout_ratio: 0.7
  }
}
layer {
  name: "loss1/classifier"
  type: "InnerProduct"
  bottom: "loss1/fc"
  top: "loss1/classifier"
  param {
    lr_mult: 1
    decay_mult: 1
  }
  param {
    lr_mult: 2
    decay_mult: 0
  }
  inner_product_param {
    num_output: 2
    weight_filler {
      type: "xavier"
    }
    bias_filler {
      type: "constant"
      value: 0
    }
  }
}
layer {
  name: "loss1/loss"
  type: "SoftmaxWithLoss"
  bottom: "loss1/classifier"
  bottom: "label"
  top: "loss1/loss1"
  loss_weight: 0.3
}
layer {
  name: "inception_4b/1x1"
  type: "Convolution"
  bottom: "inception_4a/output"
  top: "inception_4b/1x1"
  param {
    lr_mult: 1
    decay_mult: 1
  }
  param {
    lr_mult: 2
    decay_mult: 0
  }
  convolution_param {
    num_output: 160
    kernel_size: 1
    weight_filler {
      type: "xavier"
    }
    bias_filler {
      type: "constant"
      value: 0.2
    }
  }
}
layer {
  name: "inception_4b/relu_1x1"
  type: "ReLU"
  bottom: "inception_4b/1x1"
  top: "inception_4b/1x1"
}
layer {
  name: "inception_4b/3x3_reduce"
  type: "Convolution"
  bottom: "inception_4a/output"
  top: "inception_4b/3x3_reduce"
  param {
    lr_mult: 1
    decay_mult: 1
  }
  param {
    lr_mult: 2
    decay_mult: 0
  }
  convolution_param {
    num_output: 112
    kernel_size: 1
    weight_filler {
      type: "xavier"
    }
    bias_filler {
      type: "constant"
      value: 0.2
    }
  }
}
layer {
  name: "inception_4b/relu_3x3_reduce"
  type: "ReLU"
  bottom: "inception_4b/3x3_reduce"
  top: "inception_4b/3x3_reduce"
}
layer {
  name: "inception_4b/3x3"
  type: "Convolution"
  bottom: "inception_4b/3x3_reduce"
  top: "inception_4b/3x3"
  param {
    lr_mult: 1
    decay_mult: 1
  }
  param {
    lr_mult: 2
    decay_mult: 0
  }
  convolution_param {
    num_output: 224
    pad: 1
    kernel_size: 3
    weight_filler {
      type: "xavier"
    }
    bias_filler {
      type: "constant"
      value: 0.2
    }
  }
}
layer {
  name: "inception_4b/relu_3x3"
  type: "ReLU"
  bottom: "inception_4b/3x3"
  top: "inception_4b/3x3"
}
layer {
  name: "inception_4b/5x5_reduce"
  type: "Convolution"
  bottom: "inception_4a/output"
  top: "inception_4b/5x5_reduce"
  param {
    lr_mult: 1
    decay_mult: 1
  }
  param {
    lr_mult: 2
    decay_mult: 0
  }
  convolution_param {
    num_output: 24
    kernel_size: 1
    weight_filler {
      type: "xavier"
    }
    bias_filler {
      type: "constant"
      value: 0.2
    }
  }
}
layer {
  name: "inception_4b/relu_5x5_reduce"
  type: "ReLU"
  bottom: "inception_4b/5x5_reduce"
  top: "inception_4b/5x5_reduce"
}
layer {
  name: "inception_4b/5x5"
  type: "Convolution"
  bottom: "inception_4b/5x5_reduce"
  top: "inception_4b/5x5"
  param {
    lr_mult: 1
    decay_mult: 1
  }
  param {
    lr_mult: 2
    decay_mult: 0
  }
  convolution_param {
    num_output: 64
    pad: 2
    kernel_size: 5
    weight_filler {
      type: "xavier"
    }
    bias_filler {
      type: "constant"
      value: 0.2
    }
  }
}
layer {
  name: "inception_4b/relu_5x5"
  type: "ReLU"
  bottom: "inception_4b/5x5"
  top: "inception_4b/5x5"
}
layer {
  name: "inception_4b/pool"
  type: "Pooling"
  bottom: "inception_4a/output"
  top: "inception_4b/pool"
  pooling_param {
    pool: MAX
    kernel_size: 3
    stride: 1
    pad: 1
  }
}
layer {
  name: "inception_4b/pool_proj"
  type: "Convolution"
  bottom: "inception_4b/pool"
  top: "inception_4b/pool_proj"
  param {
    lr_mult: 1
    decay_mult: 1
  }
  param {
    lr_mult: 2
    decay_mult: 0
  }
  convolution_param {
    num_output: 64
    kernel_size: 1
    weight_filler {
      type: "xavier"
    }
    bias_filler {
      type: "constant"
      value: 0.2
    }
  }
}
layer {
  name: "inception_4b/relu_pool_proj"
  type: "ReLU"
  bottom: "inception_4b/pool_proj"
  top: "inception_4b/pool_proj"
}
layer {
  name: "inception_4b/output"
  type: "Concat"
  bottom: "inception_4b/1x1"
  bottom: "inception_4b/3x3"
  bottom: "inception_4b/5x5"
  bottom: "inception_4b/pool_proj"
  top: "inception_4b/output"
}
layer {
  name: "inception_4c/1x1"
  type: "Convolution"
  bottom: "inception_4b/output"
  top: "inception_4c/1x1"
  param {
    lr_mult: 1
    decay_mult: 1
  }
  param {
    lr_mult: 2
    decay_mult: 0
  }
  convolution_param {
    num_output: 128
    kernel_size: 1
    weight_filler {
      type: "xavier"
    }
    bias_filler {
      type: "constant"
      value: 0.2
    }
  }
}
layer {
  name: "inception_4c/relu_1x1"
  type: "ReLU"
  bottom: "inception_4c/1x1"
  top: "inception_4c/1x1"
}
layer {
  name: "inception_4c/3x3_reduce"
  type: "Convolution"
  bottom: "inception_4b/output"
  top: "inception_4c/3x3_reduce"
  param {
    lr_mult: 1
    decay_mult: 1
  }
  param {
    lr_mult: 2
    decay_mult: 0
  }
  convolution_param {
    num_output: 128
    kernel_size: 1
    weight_filler {
      type: "xavier"
    }
    bias_filler {
      type: "constant"
      value: 0.2
    }
  }
}
layer {
  name: "inception_4c/relu_3x3_reduce"
  type: "ReLU"
  bottom: "inception_4c/3x3_reduce"
  top: "inception_4c/3x3_reduce"
}
layer {
  name: "inception_4c/3x3"
  type: "Convolution"
  bottom: "inception_4c/3x3_reduce"
  top: "inception_4c/3x3"
  param {
    lr_mult: 1
    decay_mult: 1
  }
  param {
    lr_mult: 2
    decay_mult: 0
  }
  convolution_param {
    num_output: 256
    pad: 1
    kernel_size: 3
    weight_filler {
      type: "xavier"
    }
    bias_filler {
      type: "constant"
      value: 0.2
    }
  }
}
layer {
  name: "inception_4c/relu_3x3"
  type: "ReLU"
  bottom: "inception_4c/3x3"
  top: "inception_4c/3x3"
}
layer {
  name: "inception_4c/5x5_reduce"
  type: "Convolution"
  bottom: "inception_4b/output"
  top: "inception_4c/5x5_reduce"
  param {
    lr_mult: 1
    decay_mult: 1
  }
  param {
    lr_mult: 2
    decay_mult: 0
  }
  convolution_param {
    num_output: 24
    kernel_size: 1
    weight_filler {
      type: "xavier"
    }
    bias_filler {
      type: "constant"
      value: 0.2
    }
  }
}
layer {
  name: "inception_4c/relu_5x5_reduce"
  type: "ReLU"
  bottom: "inception_4c/5x5_reduce"
  top: "inception_4c/5x5_reduce"
}
layer {
  name: "inception_4c/5x5"
  type: "Convolution"
  bottom: "inception_4c/5x5_reduce"
  top: "inception_4c/5x5"
  param {
    lr_mult: 1
    decay_mult: 1
  }
  param {
    lr_mult: 2
    decay_mult: 0
  }
  convolution_param {
    num_output: 64
    pad: 2
    kernel_size: 5
    weight_filler {
      type: "xavier"
    }
    bias_filler {
      type: "constant"
      value: 0.2
    }
  }
}
layer {
  name: "inception_4c/relu_5x5"
  type: "ReLU"
  bottom: "inception_4c/5x5"
  top: "inception_4c/5x5"
}
layer {
  name: "inception_4c/pool"
  type: "Pooling"
  bottom: "inception_4b/output"
  top: "inception_4c/pool"
  pooling_param {
    pool: MAX
    kernel_size: 3
    stride: 1
    pad: 1
  }
}
layer {
  name: "inception_4c/pool_proj"
  type: "Convolution"
  bottom: "inception_4c/pool"
  top: "inception_4c/pool_proj"
  param {
    lr_mult: 1
    decay_mult: 1
  }
  param {
    lr_mult: 2
    decay_mult: 0
  }
  convolution_param {
    num_output: 64
    kernel_size: 1
    weight_filler {
      type: "xavier"
    }
    bias_filler {
      type: "constant"
      value: 0.2
    }
  }
}
layer {
  name: "inception_4c/relu_pool_proj"
  type: "ReLU"
  bottom: "inception_4c/pool_proj"
  top: "inception_4c/pool_proj"
}
layer {
  name: "inception_4c/output"
  type: "Concat"
  bottom: "inception_4c/1x1"
  bottom: "inception_4c/3x3"
  bottom: "inception_4c/5x5"
  bottom: "inception_4c/pool_proj"
  top: "inception_4c/output"
}
layer {
  name: "inception_4d/1x1"
  type: "Convolution"
  bottom: "inception_4c/output"
  top: "inception_4d/1x1"
  param {
    lr_mult: 1
    decay_mult: 1
  }
  param {
    lr_mult: 2
    decay_mult: 0
  }
  convolution_param {
    num_output: 112
    kernel_size: 1
    weight_filler {
      type: "xavier"
    }
    bias_filler {
      type: "constant"
      value: 0.2
    }
  }
}
layer {
  name: "inception_4d/relu_1x1"
  type: "ReLU"
  bottom: "inception_4d/1x1"
  top: "inception_4d/1x1"
}
layer {
  name: "inception_4d/3x3_reduce"
  type: "Convolution"
  bottom: "inception_4c/output"
  top: "inception_4d/3x3_reduce"
  param {
    lr_mult: 1
    decay_mult: 1
  }
  param {
    lr_mult: 2
    decay_mult: 0
  }
  convolution_param {
    num_output: 144
    kernel_size: 1
    weight_filler {
      type: "xavier"
    }
    bias_filler {
      type: "constant"
      value: 0.2
    }
  }
}
layer {
  name: "inception_4d/relu_3x3_reduce"
  type: "ReLU"
  bottom: "inception_4d/3x3_reduce"
  top: "inception_4d/3x3_reduce"
}
layer {
  name: "inception_4d/3x3"
  type: "Convolution"
  bottom: "inception_4d/3x3_reduce"
  top: "inception_4d/3x3"
  param {
    lr_mult: 1
    decay_mult: 1
  }
  param {
    lr_mult: 2
    decay_mult: 0
  }
  convolution_param {
    num_output: 288
    pad: 1
    kernel_size: 3
    weight_filler {
      type: "xavier"
    }
    bias_filler {
      type: "constant"
      value: 0.2
    }
  }
}
layer {
  name: "inception_4d/relu_3x3"
  type: "ReLU"
  bottom: "inception_4d/3x3"
  top: "inception_4d/3x3"
}
layer {
  name: "inception_4d/5x5_reduce"
  type: "Convolution"
  bottom: "inception_4c/output"
  top: "inception_4d/5x5_reduce"
  param {
    lr_mult: 1
    decay_mult: 1
  }
  param {
    lr_mult: 2
    decay_mult: 0
  }
  convolution_param {
    num_output: 32
    kernel_size: 1
    weight_filler {
      type: "xavier"
    }
    bias_filler {
      type: "constant"
      value: 0.2
    }
  }
}
layer {
  name: "inception_4d/relu_5x5_reduce"
  type: "ReLU"
  bottom: "inception_4d/5x5_reduce"
  top: "inception_4d/5x5_reduce"
}
layer {
  name: "inception_4d/5x5"
  type: "Convolution"
  bottom: "inception_4d/5x5_reduce"
  top: "inception_4d/5x5"
  param {
    lr_mult: 1
    decay_mult: 1
  }
  param {
    lr_mult: 2
    decay_mult: 0
  }
  convolution_param {
    num_output: 64
    pad: 2
    kernel_size: 5
    weight_filler {
      type: "xavier"
    }
    bias_filler {
      type: "constant"
      value: 0.2
    }
  }
}
layer {
  name: "inception_4d/relu_5x5"
  type: "ReLU"
  bottom: "inception_4d/5x5"
  top: "inception_4d/5x5"
}
layer {
  name: "inception_4d/pool"
  type: "Pooling"
  bottom: "inception_4c/output"
  top: "inception_4d/pool"
  pooling_param {
    pool: MAX
    kernel_size: 3
    stride: 1
    pad: 1
  }
}
layer {
  name: "inception_4d/pool_proj"
  type: "Convolution"
  bottom: "inception_4d/pool"
  top: "inception_4d/pool_proj"
  param {
    lr_mult: 1
    decay_mult: 1
  }
  param {
    lr_mult: 2
    decay_mult: 0
  }
  convolution_param {
    num_output: 64
    kernel_size: 1
    weight_filler {
      type: "xavier"
    }
    bias_filler {
      type: "constant"
      value: 0.2
    }
  }
}
layer {
  name: "inception_4d/relu_pool_proj"
  type: "ReLU"
  bottom: "inception_4d/pool_proj"
  top: "inception_4d/pool_proj"
}
layer {
  name: "inception_4d/output"
  type: "Concat"
  bottom: "inception_4d/1x1"
  bottom: "inception_4d/3x3"
  bottom: "inception_4d/5x5"
  bottom: "inception_4d/pool_proj"
  top: "inception_4d/output"
}
layer {
  name: "loss2/ave_pool"
  type: "Pooling"
  bottom: "inception_4d/output"
  top: "loss2/ave_pool"
  pooling_param {
    pool: AVE
    kernel_size: 5
    stride: 3
  }
}
layer {
  name: "loss2/conv"
  type: "Convolution"
  bottom: "loss2/ave_pool"
  top: "loss2/conv"
  param {
    lr_mult: 1
    decay_mult: 1
  }
  param {
    lr_mult: 2
    decay_mult: 0
  }
  convolution_param {
    num_output: 128
    kernel_size: 1
    weight_filler {
      type: "xavier"
    }
    bias_filler {
      type: "constant"
      value: 0.2
    }
  }
}
layer {
  name: "loss2/relu_conv"
  type: "ReLU"
  bottom: "loss2/conv"
  top: "loss2/conv"
}
layer {
  name: "loss2/fc"
  type: "InnerProduct"
  bottom: "loss2/conv"
  top: "loss2/fc"
  param {
    lr_mult: 1
    decay_mult: 1
  }
  param {
    lr_mult: 2
    decay_mult: 0
  }
  inner_product_param {
    num_output: 1024
    weight_filler {
      type: "xavier"
    }
    bias_filler {
      type: "constant"
      value: 0.2
    }
  }
}
layer {
  name: "loss2/relu_fc"
  type: "ReLU"
  bottom: "loss2/fc"
  top: "loss2/fc"
}
layer {
  name: "loss2/drop_fc"
  type: "Dropout"
  bottom: "loss2/fc"
  top: "loss2/fc"
  dropout_param {
    dropout_ratio: 0.7
  }
}
layer {
  name: "loss2/classifier"
  type: "InnerProduct"
  bottom: "loss2/fc"
  top: "loss2/classifier"
  param {
    lr_mult: 1
    decay_mult: 1
  }
  param {
    lr_mult: 2
    decay_mult: 0
  }
  inner_product_param {
    num_output: 2
    weight_filler {
      type: "xavier"
    }
    bias_filler {
      type: "constant"
      value: 0
    }
  }
}
layer {
  name: "loss2/loss"
  type: "SoftmaxWithLoss"
  bottom: "loss2/classifier"
  bottom: "label"
  top: "loss2/loss1"
  loss_weight: 0.3
}
layer {
  name: "inception_4e/1x1"
  type: "Convolution"
  bottom: "inception_4d/output"
  top: "inception_4e/1x1"
  param {
    lr_mult: 1
    decay_mult: 1
  }
  param {
    lr_mult: 2
    decay_mult: 0
  }
  convolution_param {
    num_output: 256
    kernel_size: 1
    weight_filler {
      type: "xavier"
    }
    bias_filler {
      type: "constant"
      value: 0.2
    }
  }
}
layer {
  name: "inception_4e/relu_1x1"
  type: "ReLU"
  bottom: "inception_4e/1x1"
  top: "inception_4e/1x1"
}
layer {
  name: "inception_4e/3x3_reduce"
  type: "Convolution"
  bottom: "inception_4d/output"
  top: "inception_4e/3x3_reduce"
  param {
    lr_mult: 1
    decay_mult: 1
  }
  param {
    lr_mult: 2
    decay_mult: 0
  }
  convolution_param {
    num_output: 160
    kernel_size: 1
    weight_filler {
      type: "xavier"
    }
    bias_filler {
      type: "constant"
      value: 0.2
    }
  }
}
layer {
  name: "inception_4e/relu_3x3_reduce"
  type: "ReLU"
  bottom: "inception_4e/3x3_reduce"
  top: "inception_4e/3x3_reduce"
}
layer {
  name: "inception_4e/3x3"
  type: "Convolution"
  bottom: "inception_4e/3x3_reduce"
  top: "inception_4e/3x3"
  param {
    lr_mult: 1
    decay_mult: 1
  }
  param {
    lr_mult: 2
    decay_mult: 0
  }
  convolution_param {
    num_output: 320
    pad: 1
    kernel_size: 3
    weight_filler {
      type: "xavier"
    }
    bias_filler {
      type: "constant"
      value: 0.2
    }
  }
}
layer {
  name: "inception_4e/relu_3x3"
  type: "ReLU"
  bottom: "inception_4e/3x3"
  top: "inception_4e/3x3"
}
layer {
  name: "inception_4e/5x5_reduce"
  type: "Convolution"
  bottom: "inception_4d/output"
  top: "inception_4e/5x5_reduce"
  param {
    lr_mult: 1
    decay_mult: 1
  }
  param {
    lr_mult: 2
    decay_mult: 0
  }
  convolution_param {
    num_output: 32
    kernel_size: 1
    weight_filler {
      type: "xavier"
    }
    bias_filler {
      type: "constant"
      value: 0.2
    }
  }
}
layer {
  name: "inception_4e/relu_5x5_reduce"
  type: "ReLU"
  bottom: "inception_4e/5x5_reduce"
  top: "inception_4e/5x5_reduce"
}
layer {
  name: "inception_4e/5x5"
  type: "Convolution"
  bottom: "inception_4e/5x5_reduce"
  top: "inception_4e/5x5"
  param {
    lr_mult: 1
    decay_mult: 1
  }
  param {
    lr_mult: 2
    decay_mult: 0
  }
  convolution_param {
    num_output: 128
    pad: 2
    kernel_size: 5
    weight_filler {
      type: "xavier"
    }
    bias_filler {
      type: "constant"
      value: 0.2
    }
  }
}
layer {
  name: "inception_4e/relu_5x5"
  type: "ReLU"
  bottom: "inception_4e/5x5"
  top: "inception_4e/5x5"
}
layer {
  name: "inception_4e/pool"
  type: "Pooling"
  bottom: "inception_4
I0711 11:15:37.273049 122639 layer_factory.hpp:76] Creating layer data
I0711 11:15:37.273102 122639 net.cpp:106] Creating Layer data
I0711 11:15:37.273118 122639 net.cpp:411] data -> data
I0711 11:15:37.273155 122639 net.cpp:411] data -> label
I0711 11:15:37.273581 122639 image_data_layer.cpp:36] Opening file /data/dywang/Database/Proliferation/libs/stage04_mitosisDetection/training_examples/train2.lst
I0711 11:15:37.332777 122639 image_data_layer.cpp:46] Shuffling data
I0711 11:15:37.344748 122639 image_data_layer.cpp:51] A total of 101583 images.
I0711 11:15:37.410419 122639 image_data_layer.cpp:78] output data size: 32,3,224,224
I0711 11:15:37.454831 122639 net.cpp:150] Setting up data
I0711 11:15:37.454895 122639 net.cpp:157] Top shape: 32 3 224 224 (4816896)
I0711 11:15:37.454908 122639 net.cpp:157] Top shape: 32 (32)
I0711 11:15:37.454917 122639 net.cpp:165] Memory required for data: 19267712
I0711 11:15:37.454932 122639 layer_factory.hpp:76] Creating layer label_data_1_split
I0711 11:15:37.454959 122639 net.cpp:106] Creating Layer label_data_1_split
I0711 11:15:37.454973 122639 net.cpp:454] label_data_1_split <- label
I0711 11:15:37.455004 122639 net.cpp:411] label_data_1_split -> label_data_1_split_0
I0711 11:15:37.455021 122639 net.cpp:411] label_data_1_split -> label_data_1_split_1
I0711 11:15:37.455039 122639 net.cpp:411] label_data_1_split -> label_data_1_split_2
I0711 11:15:37.455106 122639 net.cpp:150] Setting up label_data_1_split
I0711 11:15:37.455121 122639 net.cpp:157] Top shape: 32 (32)
I0711 11:15:37.455132 122639 net.cpp:157] Top shape: 32 (32)
I0711 11:15:37.455140 122639 net.cpp:157] Top shape: 32 (32)
I0711 11:15:37.455148 122639 net.cpp:165] Memory required for data: 19268096
I0711 11:15:37.455157 122639 layer_factory.hpp:76] Creating layer conv1/7x7_s2
I0711 11:15:37.455224 122639 net.cpp:106] Creating Layer conv1/7x7_s2
I0711 11:15:37.455235 122639 net.cpp:454] conv1/7x7_s2 <- data
I0711 11:15:37.455247 122639 net.cpp:411] conv1/7x7_s2 -> conv1/7x7_s2
I0711 11:15:37.657308 122639 net.cpp:150] Setting up conv1/7x7_s2
I0711 11:15:37.657376 122639 net.cpp:157] Top shape: 32 64 112 112 (25690112)
I0711 11:15:37.657387 122639 net.cpp:165] Memory required for data: 122028544
I0711 11:15:37.657421 122639 layer_factory.hpp:76] Creating layer conv1/relu_7x7
I0711 11:15:37.657454 122639 net.cpp:106] Creating Layer conv1/relu_7x7
I0711 11:15:37.657479 122639 net.cpp:454] conv1/relu_7x7 <- conv1/7x7_s2
I0711 11:15:37.657490 122639 net.cpp:397] conv1/relu_7x7 -> conv1/7x7_s2 (in-place)
I0711 11:15:37.657698 122639 net.cpp:150] Setting up conv1/relu_7x7
I0711 11:15:37.657726 122639 net.cpp:157] Top shape: 32 64 112 112 (25690112)
I0711 11:15:37.657745 122639 net.cpp:165] Memory required for data: 224788992
I0711 11:15:37.657753 122639 layer_factory.hpp:76] Creating layer pool1/3x3_s2
I0711 11:15:37.657769 122639 net.cpp:106] Creating Layer pool1/3x3_s2
I0711 11:15:37.657778 122639 net.cpp:454] pool1/3x3_s2 <- conv1/7x7_s2
I0711 11:15:37.657788 122639 net.cpp:411] pool1/3x3_s2 -> pool1/3x3_s2
I0711 11:15:37.658164 122639 net.cpp:150] Setting up pool1/3x3_s2
I0711 11:15:37.658185 122639 net.cpp:157] Top shape: 32 64 56 56 (6422528)
I0711 11:15:37.658192 122639 net.cpp:165] Memory required for data: 250479104
I0711 11:15:37.658200 122639 layer_factory.hpp:76] Creating layer pool1/norm1
I0711 11:15:37.658222 122639 net.cpp:106] Creating Layer pool1/norm1
I0711 11:15:37.658232 122639 net.cpp:454] pool1/norm1 <- pool1/3x3_s2
I0711 11:15:37.658244 122639 net.cpp:411] pool1/norm1 -> pool1/norm1
I0711 11:15:37.658439 122639 net.cpp:150] Setting up pool1/norm1
I0711 11:15:37.658457 122639 net.cpp:157] Top shape: 32 64 56 56 (6422528)
I0711 11:15:37.658464 122639 net.cpp:165] Memory required for data: 276169216
I0711 11:15:37.658473 122639 layer_factory.hpp:76] Creating layer conv2/3x3_reduce
I0711 11:15:37.658490 122639 net.cpp:106] Creating Layer conv2/3x3_reduce
I0711 11:15:37.658502 122639 net.cpp:454] conv2/3x3_reduce <- pool1/norm1
I0711 11:15:37.658526 122639 net.cpp:411] conv2/3x3_reduce -> conv2/3x3_reduce
I0711 11:15:37.660228 122639 cudnn_conv_layer.cpp:194] Reallocating workspace storage: 768
I0711 11:15:37.660274 122639 net.cpp:150] Setting up conv2/3x3_reduce
I0711 11:15:37.660289 122639 net.cpp:157] Top shape: 32 64 56 56 (6422528)
I0711 11:15:37.660296 122639 net.cpp:165] Memory required for data: 301859328
I0711 11:15:37.660312 122639 layer_factory.hpp:76] Creating layer conv2/relu_3x3_reduce
I0711 11:15:37.660326 122639 net.cpp:106] Creating Layer conv2/relu_3x3_reduce
I0711 11:15:37.660334 122639 net.cpp:454] conv2/relu_3x3_reduce <- conv2/3x3_reduce
I0711 11:15:37.660347 122639 net.cpp:397] conv2/relu_3x3_reduce -> conv2/3x3_reduce (in-place)
I0711 11:15:37.660712 122639 net.cpp:150] Setting up conv2/relu_3x3_reduce
I0711 11:15:37.660743 122639 net.cpp:157] Top shape: 32 64 56 56 (6422528)
I0711 11:15:37.660764 122639 net.cpp:165] Memory required for data: 327549440
I0711 11:15:37.660773 122639 layer_factory.hpp:76] Creating layer conv2/3x3
I0711 11:15:37.660802 122639 net.cpp:106] Creating Layer conv2/3x3
I0711 11:15:37.660811 122639 net.cpp:454] conv2/3x3 <- conv2/3x3_reduce
I0711 11:15:37.660825 122639 net.cpp:411] conv2/3x3 -> conv2/3x3
I0711 11:15:37.663673 122639 cudnn_conv_layer.cpp:194] Reallocating workspace storage: 6912
I0711 11:15:37.663950 122639 net.cpp:150] Setting up conv2/3x3
I0711 11:15:37.663980 122639 net.cpp:157] Top shape: 32 192 56 56 (19267584)
I0711 11:15:37.663988 122639 net.cpp:165] Memory required for data: 404619776
I0711 11:15:37.664003 122639 layer_factory.hpp:76] Creating layer conv2/relu_3x3
I0711 11:15:37.664016 122639 net.cpp:106] Creating Layer conv2/relu_3x3
I0711 11:15:37.664026 122639 net.cpp:454] conv2/relu_3x3 <- conv2/3x3
I0711 11:15:37.664059 122639 net.cpp:397] conv2/relu_3x3 -> conv2/3x3 (in-place)
I0711 11:15:37.664326 122639 net.cpp:150] Setting up conv2/relu_3x3
I0711 11:15:37.664367 122639 net.cpp:157] Top shape: 32 192 56 56 (19267584)
I0711 11:15:37.664376 122639 net.cpp:165] Memory required for data: 481690112
I0711 11:15:37.664397 122639 layer_factory.hpp:76] Creating layer conv2/norm2
I0711 11:15:37.664410 122639 net.cpp:106] Creating Layer conv2/norm2
I0711 11:15:37.664419 122639 net.cpp:454] conv2/norm2 <- conv2/3x3
I0711 11:15:37.664432 122639 net.cpp:411] conv2/norm2 -> conv2/norm2
I0711 11:15:37.664841 122639 net.cpp:150] Setting up conv2/norm2
I0711 11:15:37.664885 122639 net.cpp:157] Top shape: 32 192 56 56 (19267584)
I0711 11:15:37.664893 122639 net.cpp:165] Memory required for data: 558760448
I0711 11:15:37.664913 122639 layer_factory.hpp:76] Creating layer pool2/3x3_s2
I0711 11:15:37.664927 122639 net.cpp:106] Creating Layer pool2/3x3_s2
I0711 11:15:37.664935 122639 net.cpp:454] pool2/3x3_s2 <- conv2/norm2
I0711 11:15:37.664949 122639 net.cpp:411] pool2/3x3_s2 -> pool2/3x3_s2
I0711 11:15:37.665201 122639 net.cpp:150] Setting up pool2/3x3_s2
I0711 11:15:37.665230 122639 net.cpp:157] Top shape: 32 192 28 28 (4816896)
I0711 11:15:37.665237 122639 net.cpp:165] Memory required for data: 578028032
I0711 11:15:37.665246 122639 layer_factory.hpp:76] Creating layer pool2/3x3_s2_pool2/3x3_s2_0_split
I0711 11:15:37.665259 122639 net.cpp:106] Creating Layer pool2/3x3_s2_pool2/3x3_s2_0_split
I0711 11:15:37.665268 122639 net.cpp:454] pool2/3x3_s2_pool2/3x3_s2_0_split <- pool2/3x3_s2
I0711 11:15:37.665277 122639 net.cpp:411] pool2/3x3_s2_pool2/3x3_s2_0_split -> pool2/3x3_s2_pool2/3x3_s2_0_split_0
I0711 11:15:37.665288 122639 net.cpp:411] pool2/3x3_s2_pool2/3x3_s2_0_split -> pool2/3x3_s2_pool2/3x3_s2_0_split_1
I0711 11:15:37.665302 122639 net.cpp:411] pool2/3x3_s2_pool2/3x3_s2_0_split -> pool2/3x3_s2_pool2/3x3_s2_0_split_2
I0711 11:15:37.665313 122639 net.cpp:411] pool2/3x3_s2_pool2/3x3_s2_0_split -> pool2/3x3_s2_pool2/3x3_s2_0_split_3
I0711 11:15:37.665379 122639 net.cpp:150] Setting up pool2/3x3_s2_pool2/3x3_s2_0_split
I0711 11:15:37.665391 122639 net.cpp:157] Top shape: 32 192 28 28 (4816896)
I0711 11:15:37.665400 122639 net.cpp:157] Top shape: 32 192 28 28 (4816896)
I0711 11:15:37.665408 122639 net.cpp:157] Top shape: 32 192 28 28 (4816896)
I0711 11:15:37.665416 122639 net.cpp:157] Top shape: 32 192 28 28 (4816896)
I0711 11:15:37.665424 122639 net.cpp:165] Memory required for data: 655098368
I0711 11:15:37.665432 122639 layer_factory.hpp:76] Creating layer inception_3a/1x1
I0711 11:15:37.665447 122639 net.cpp:106] Creating Layer inception_3a/1x1
I0711 11:15:37.665457 122639 net.cpp:454] inception_3a/1x1 <- pool2/3x3_s2_pool2/3x3_s2_0_split_0
I0711 11:15:37.665480 122639 net.cpp:411] inception_3a/1x1 -> inception_3a/1x1
I0711 11:15:37.667254 122639 net.cpp:150] Setting up inception_3a/1x1
I0711 11:15:37.667289 122639 net.cpp:157] Top shape: 32 64 28 28 (1605632)
I0711 11:15:37.667297 122639 net.cpp:165] Memory required for data: 661520896
I0711 11:15:37.667309 122639 layer_factory.hpp:76] Creating layer inception_3a/relu_1x1
I0711 11:15:37.667322 122639 net.cpp:106] Creating Layer inception_3a/relu_1x1
I0711 11:15:37.667331 122639 net.cpp:454] inception_3a/relu_1x1 <- inception_3a/1x1
I0711 11:15:37.667341 122639 net.cpp:397] inception_3a/relu_1x1 -> inception_3a/1x1 (in-place)
I0711 11:15:37.667681 122639 net.cpp:150] Setting up inception_3a/relu_1x1
I0711 11:15:37.667711 122639 net.cpp:157] Top shape: 32 64 28 28 (1605632)
I0711 11:15:37.667735 122639 net.cpp:165] Memory required for data: 667943424
I0711 11:15:37.667743 122639 layer_factory.hpp:76] Creating layer inception_3a/3x3_reduce
I0711 11:15:37.667757 122639 net.cpp:106] Creating Layer inception_3a/3x3_reduce
I0711 11:15:37.667767 122639 net.cpp:454] inception_3a/3x3_reduce <- pool2/3x3_s2_pool2/3x3_s2_0_split_1
I0711 11:15:37.667789 122639 net.cpp:411] inception_3a/3x3_reduce -> inception_3a/3x3_reduce
I0711 11:15:37.669740 122639 cudnn_conv_layer.cpp:194] Reallocating workspace storage: 2304
I0711 11:15:37.669996 122639 net.cpp:150] Setting up inception_3a/3x3_reduce
I0711 11:15:37.670045 122639 net.cpp:157] Top shape: 32 96 28 28 (2408448)
I0711 11:15:37.670055 122639 net.cpp:165] Memory required for data: 677577216
I0711 11:15:37.670073 122639 layer_factory.hpp:76] Creating layer inception_3a/relu_3x3_reduce
I0711 11:15:37.670088 122639 net.cpp:106] Creating Layer inception_3a/relu_3x3_reduce
I0711 11:15:37.670096 122639 net.cpp:454] inception_3a/relu_3x3_reduce <- inception_3a/3x3_reduce
I0711 11:15:37.670109 122639 net.cpp:397] inception_3a/relu_3x3_reduce -> inception_3a/3x3_reduce (in-place)
I0711 11:15:37.670451 122639 net.cpp:150] Setting up inception_3a/relu_3x3_reduce
I0711 11:15:37.670482 122639 net.cpp:157] Top shape: 32 96 28 28 (2408448)
I0711 11:15:37.670491 122639 net.cpp:165] Memory required for data: 687211008
I0711 11:15:37.670500 122639 layer_factory.hpp:76] Creating layer inception_3a/3x3
I0711 11:15:37.670516 122639 net.cpp:106] Creating Layer inception_3a/3x3
I0711 11:15:37.670524 122639 net.cpp:454] inception_3a/3x3 <- inception_3a/3x3_reduce
I0711 11:15:37.670537 122639 net.cpp:411] inception_3a/3x3 -> inception_3a/3x3
I0711 11:15:37.672585 122639 net.cpp:150] Setting up inception_3a/3x3
I0711 11:15:37.672617 122639 net.cpp:157] Top shape: 32 128 28 28 (3211264)
I0711 11:15:37.672626 122639 net.cpp:165] Memory required for data: 700056064
I0711 11:15:37.672637 122639 layer_factory.hpp:76] Creating layer inception_3a/relu_3x3
I0711 11:15:37.672648 122639 net.cpp:106] Creating Layer inception_3a/relu_3x3
I0711 11:15:37.672657 122639 net.cpp:454] inception_3a/relu_3x3 <- inception_3a/3x3
I0711 11:15:37.672667 122639 net.cpp:397] inception_3a/relu_3x3 -> inception_3a/3x3 (in-place)
I0711 11:15:37.672870 122639 net.cpp:150] Setting up inception_3a/relu_3x3
I0711 11:15:37.672900 122639 net.cpp:157] Top shape: 32 128 28 28 (3211264)
I0711 11:15:37.672919 122639 net.cpp:165] Memory required for data: 712901120
I0711 11:15:37.672929 122639 layer_factory.hpp:76] Creating layer inception_3a/5x5_reduce
I0711 11:15:37.672943 122639 net.cpp:106] Creating Layer inception_3a/5x5_reduce
I0711 11:15:37.672965 122639 net.cpp:454] inception_3a/5x5_reduce <- pool2/3x3_s2_pool2/3x3_s2_0_split_2
I0711 11:15:37.672977 122639 net.cpp:411] inception_3a/5x5_reduce -> inception_3a/5x5_reduce
I0711 11:15:37.674310 122639 net.cpp:150] Setting up inception_3a/5x5_reduce
I0711 11:15:37.674342 122639 net.cpp:157] Top shape: 32 16 28 28 (401408)
I0711 11:15:37.674351 122639 net.cpp:165] Memory required for data: 714506752
I0711 11:15:37.674363 122639 layer_factory.hpp:76] Creating layer inception_3a/relu_5x5_reduce
I0711 11:15:37.674377 122639 net.cpp:106] Creating Layer inception_3a/relu_5x5_reduce
I0711 11:15:37.674386 122639 net.cpp:454] inception_3a/relu_5x5_reduce <- inception_3a/5x5_reduce
I0711 11:15:37.674396 122639 net.cpp:397] inception_3a/relu_5x5_reduce -> inception_3a/5x5_reduce (in-place)
I0711 11:15:37.674942 122639 net.cpp:150] Setting up inception_3a/relu_5x5_reduce
I0711 11:15:37.674974 122639 net.cpp:157] Top shape: 32 16 28 28 (401408)
I0711 11:15:37.674983 122639 net.cpp:165] Memory required for data: 716112384
I0711 11:15:37.674991 122639 layer_factory.hpp:76] Creating layer inception_3a/5x5
I0711 11:15:37.675009 122639 net.cpp:106] Creating Layer inception_3a/5x5
I0711 11:15:37.675019 122639 net.cpp:454] inception_3a/5x5 <- inception_3a/5x5_reduce
I0711 11:15:37.675029 122639 net.cpp:411] inception_3a/5x5 -> inception_3a/5x5
I0711 11:15:37.676120 122639 net.cpp:150] Setting up inception_3a/5x5
I0711 11:15:37.676153 122639 net.cpp:157] Top shape: 32 32 28 28 (802816)
I0711 11:15:37.676162 122639 net.cpp:165] Memory required for data: 719323648
I0711 11:15:37.676174 122639 layer_factory.hpp:76] Creating layer inception_3a/relu_5x5
I0711 11:15:37.676188 122639 net.cpp:106] Creating Layer inception_3a/relu_5x5
I0711 11:15:37.676198 122639 net.cpp:454] inception_3a/relu_5x5 <- inception_3a/5x5
I0711 11:15:37.676208 122639 net.cpp:397] inception_3a/relu_5x5 -> inception_3a/5x5 (in-place)
I0711 11:15:37.676551 122639 net.cpp:150] Setting up inception_3a/relu_5x5
I0711 11:15:37.676597 122639 net.cpp:157] Top shape: 32 32 28 28 (802816)
I0711 11:15:37.676606 122639 net.cpp:165] Memory required for data: 722534912
I0711 11:15:37.676615 122639 layer_factory.hpp:76] Creating layer inception_3a/pool
I0711 11:15:37.676631 122639 net.cpp:106] Creating Layer inception_3a/pool
I0711 11:15:37.676640 122639 net.cpp:454] inception_3a/pool <- pool2/3x3_s2_pool2/3x3_s2_0_split_3
I0711 11:15:37.676653 122639 net.cpp:411] inception_3a/pool -> inception_3a/pool
I0711 11:15:37.676872 122639 net.cpp:150] Setting up inception_3a/pool
I0711 11:15:37.676901 122639 net.cpp:157] Top shape: 32 192 28 28 (4816896)
I0711 11:15:37.676909 122639 net.cpp:165] Memory required for data: 741802496
I0711 11:15:37.676918 122639 layer_factory.hpp:76] Creating layer inception_3a/pool_proj
I0711 11:15:37.676946 122639 net.cpp:106] Creating Layer inception_3a/pool_proj
I0711 11:15:37.676956 122639 net.cpp:454] inception_3a/pool_proj <- inception_3a/pool
I0711 11:15:37.676980 122639 net.cpp:411] inception_3a/pool_proj -> inception_3a/pool_proj
I0711 11:15:37.678198 122639 net.cpp:150] Setting up inception_3a/pool_proj
I0711 11:15:37.678231 122639 net.cpp:157] Top shape: 32 32 28 28 (802816)
I0711 11:15:37.678241 122639 net.cpp:165] Memory required for data: 745013760
I0711 11:15:37.678259 122639 layer_factory.hpp:76] Creating layer inception_3a/relu_pool_proj
I0711 11:15:37.678272 122639 net.cpp:106] Creating Layer inception_3a/relu_pool_proj
I0711 11:15:37.678280 122639 net.cpp:454] inception_3a/relu_pool_proj <- inception_3a/pool_proj
I0711 11:15:37.678292 122639 net.cpp:397] inception_3a/relu_pool_proj -> inception_3a/pool_proj (in-place)
I0711 11:15:37.678638 122639 net.cpp:150] Setting up inception_3a/relu_pool_proj
I0711 11:15:37.678681 122639 net.cpp:157] Top shape: 32 32 28 28 (802816)
I0711 11:15:37.678690 122639 net.cpp:165] Memory required for data: 748225024
I0711 11:15:37.678699 122639 layer_factory.hpp:76] Creating layer inception_3a/output
I0711 11:15:37.678715 122639 net.cpp:106] Creating Layer inception_3a/output
I0711 11:15:37.678725 122639 net.cpp:454] inception_3a/output <- inception_3a/1x1
I0711 11:15:37.678745 122639 net.cpp:454] inception_3a/output <- inception_3a/3x3
I0711 11:15:37.678752 122639 net.cpp:454] inception_3a/output <- inception_3a/5x5
I0711 11:15:37.678761 122639 net.cpp:454] inception_3a/output <- inception_3a/pool_proj
I0711 11:15:37.678773 122639 net.cpp:411] inception_3a/output -> inception_3a/output
I0711 11:15:37.678810 122639 net.cpp:150] Setting up inception_3a/output
I0711 11:15:37.678824 122639 net.cpp:157] Top shape: 32 256 28 28 (6422528)
I0711 11:15:37.678833 122639 net.cpp:165] Memory required for data: 773915136
I0711 11:15:37.678839 122639 layer_factory.hpp:76] Creating layer inception_3a/output_inception_3a/output_0_split
I0711 11:15:37.678856 122639 net.cpp:106] Creating Layer inception_3a/output_inception_3a/output_0_split
I0711 11:15:37.678864 122639 net.cpp:454] inception_3a/output_inception_3a/output_0_split <- inception_3a/output
I0711 11:15:37.678874 122639 net.cpp:411] inception_3a/output_inception_3a/output_0_split -> inception_3a/output_inception_3a/output_0_split_0
I0711 11:15:37.678885 122639 net.cpp:411] inception_3a/output_inception_3a/output_0_split -> inception_3a/output_inception_3a/output_0_split_1
I0711 11:15:37.678897 122639 net.cpp:411] inception_3a/output_inception_3a/output_0_split -> inception_3a/output_inception_3a/output_0_split_2
I0711 11:15:37.678908 122639 net.cpp:411] inception_3a/output_inception_3a/output_0_split -> inception_3a/output_inception_3a/output_0_split_3
I0711 11:15:37.679009 122639 net.cpp:150] Setting up inception_3a/output_inception_3a/output_0_split
I0711 11:15:37.679021 122639 net.cpp:157] Top shape: 32 256 28 28 (6422528)
I0711 11:15:37.679042 122639 net.cpp:157] Top shape: 32 256 28 28 (6422528)
I0711 11:15:37.679050 122639 net.cpp:157] Top shape: 32 256 28 28 (6422528)
I0711 11:15:37.679057 122639 net.cpp:157] Top shape: 32 256 28 28 (6422528)
I0711 11:15:37.679065 122639 net.cpp:165] Memory required for data: 876675584
I0711 11:15:37.679098 122639 layer_factory.hpp:76] Creating layer inception_3b/1x1
I0711 11:15:37.679128 122639 net.cpp:106] Creating Layer inception_3b/1x1
I0711 11:15:37.679150 122639 net.cpp:454] inception_3b/1x1 <- inception_3a/output_inception_3a/output_0_split_0
I0711 11:15:37.679163 122639 net.cpp:411] inception_3b/1x1 -> inception_3b/1x1
I0711 11:15:37.680454 122639 cudnn_conv_layer.cpp:194] Reallocating workspace storage: 3072
I0711 11:15:37.680505 122639 net.cpp:150] Setting up inception_3b/1x1
I0711 11:15:37.680531 122639 net.cpp:157] Top shape: 32 128 28 28 (3211264)
I0711 11:15:37.680538 122639 net.cpp:165] Memory required for data: 889520640
I0711 11:15:37.680551 122639 layer_factory.hpp:76] Creating layer inception_3b/relu_1x1
I0711 11:15:37.680562 122639 net.cpp:106] Creating Layer inception_3b/relu_1x1
I0711 11:15:37.680572 122639 net.cpp:454] inception_3b/relu_1x1 <- inception_3b/1x1
I0711 11:15:37.680595 122639 net.cpp:397] inception_3b/relu_1x1 -> inception_3b/1x1 (in-place)
I0711 11:15:37.680867 122639 net.cpp:150] Setting up inception_3b/relu_1x1
I0711 11:15:37.680897 122639 net.cpp:157] Top shape: 32 128 28 28 (3211264)
I0711 11:15:37.680905 122639 net.cpp:165] Memory required for data: 902365696
I0711 11:15:37.680914 122639 layer_factory.hpp:76] Creating layer inception_3b/3x3_reduce
I0711 11:15:37.680927 122639 net.cpp:106] Creating Layer inception_3b/3x3_reduce
I0711 11:15:37.680935 122639 net.cpp:454] inception_3b/3x3_reduce <- inception_3a/output_inception_3a/output_0_split_1
I0711 11:15:37.680959 122639 net.cpp:411] inception_3b/3x3_reduce -> inception_3b/3x3_reduce
I0711 11:15:37.682220 122639 cudnn_conv_layer.cpp:194] Reallocating workspace storage: 3072
I0711 11:15:37.682260 122639 net.cpp:150] Setting up inception_3b/3x3_reduce
I0711 11:15:37.682273 122639 net.cpp:157] Top shape: 32 128 28 28 (3211264)
I0711 11:15:37.682282 122639 net.cpp:165] Memory required for data: 915210752
I0711 11:15:37.682293 122639 layer_factory.hpp:76] Creating layer inception_3b/relu_3x3_reduce
I0711 11:15:37.682307 122639 net.cpp:106] Creating Layer inception_3b/relu_3x3_reduce
I0711 11:15:37.682315 122639 net.cpp:454] inception_3b/relu_3x3_reduce <- inception_3b/3x3_reduce
I0711 11:15:37.682329 122639 net.cpp:397] inception_3b/relu_3x3_reduce -> inception_3b/3x3_reduce (in-place)
I0711 11:15:37.682549 122639 net.cpp:150] Setting up inception_3b/relu_3x3_reduce
I0711 11:15:37.682579 122639 net.cpp:157] Top shape: 32 128 28 28 (3211264)
I0711 11:15:37.682598 122639 net.cpp:165] Memory required for data: 928055808
I0711 11:15:37.682607 122639 layer_factory.hpp:76] Creating layer inception_3b/3x3
I0711 11:15:37.682632 122639 net.cpp:106] Creating Layer inception_3b/3x3
I0711 11:15:37.682654 122639 net.cpp:454] inception_3b/3x3 <- inception_3b/3x3_reduce
I0711 11:15:37.682668 122639 net.cpp:411] inception_3b/3x3 -> inception_3b/3x3
I0711 11:15:37.686740 122639 cudnn_conv_layer.cpp:194] Reallocating workspace storage: 13824
I0711 11:15:37.686810 122639 net.cpp:150] Setting up inception_3b/3x3
I0711 11:15:37.686826 122639 net.cpp:157] Top shape: 32 192 28 28 (4816896)
I0711 11:15:37.686836 122639 net.cpp:165] Memory required for data: 947323392
I0711 11:15:37.686847 122639 layer_factory.hpp:76] Creating layer inception_3b/relu_3x3
I0711 11:15:37.686861 122639 net.cpp:106] Creating Layer inception_3b/relu_3x3
I0711 11:15:37.686869 122639 net.cpp:454] inception_3b/relu_3x3 <- inception_3b/3x3
I0711 11:15:37.686880 122639 net.cpp:397] inception_3b/relu_3x3 -> inception_3b/3x3 (in-place)
I0711 11:15:37.687240 122639 net.cpp:150] Setting up inception_3b/relu_3x3
I0711 11:15:37.687271 122639 net.cpp:157] Top shape: 32 192 28 28 (4816896)
I0711 11:15:37.687280 122639 net.cpp:165] Memory required for data: 966590976
I0711 11:15:37.687289 122639 layer_factory.hpp:76] Creating layer inception_3b/5x5_reduce
I0711 11:15:37.687305 122639 net.cpp:106] Creating Layer inception_3b/5x5_reduce
I0711 11:15:37.687314 122639 net.cpp:454] inception_3b/5x5_reduce <- inception_3a/output_inception_3a/output_0_split_2
I0711 11:15:37.687358 122639 net.cpp:411] inception_3b/5x5_reduce -> inception_3b/5x5_reduce
I0711 11:15:37.688616 122639 net.cpp:150] Setting up inception_3b/5x5_reduce
I0711 11:15:37.688648 122639 net.cpp:157] Top shape: 32 32 28 28 (802816)
I0711 11:15:37.688657 122639 net.cpp:165] Memory required for data: 969802240
I0711 11:15:37.688680 122639 layer_factory.hpp:76] Creating layer inception_3b/relu_5x5_reduce
I0711 11:15:37.688693 122639 net.cpp:106] Creating Layer inception_3b/relu_5x5_reduce
I0711 11:15:37.688701 122639 net.cpp:454] inception_3b/relu_5x5_reduce <- inception_3b/5x5_reduce
I0711 11:15:37.688714 122639 net.cpp:397] inception_3b/relu_5x5_reduce -> inception_3b/5x5_reduce (in-place)
I0711 11:15:37.688884 122639 net.cpp:150] Setting up inception_3b/relu_5x5_reduce
I0711 11:15:37.688901 122639 net.cpp:157] Top shape: 32 32 28 28 (802816)
I0711 11:15:37.688910 122639 net.cpp:165] Memory required for data: 973013504
I0711 11:15:37.688917 122639 layer_factory.hpp:76] Creating layer inception_3b/5x5
I0711 11:15:37.688930 122639 net.cpp:106] Creating Layer inception_3b/5x5
I0711 11:15:37.688938 122639 net.cpp:454] inception_3b/5x5 <- inception_3b/5x5_reduce
I0711 11:15:37.688951 122639 net.cpp:411] inception_3b/5x5 -> inception_3b/5x5
I0711 11:15:37.691293 122639 cudnn_conv_layer.cpp:194] Reallocating workspace storage: 9600
I0711 11:15:37.691339 122639 net.cpp:150] Setting up inception_3b/5x5
I0711 11:15:37.691366 122639 net.cpp:157] Top shape: 32 96 28 28 (2408448)
I0711 11:15:37.691375 122639 net.cpp:165] Memory required for data: 982647296
I0711 11:15:37.691390 122639 layer_factory.hpp:76] Creating layer inception_3b/relu_5x5
I0711 11:15:37.691401 122639 net.cpp:106] Creating Layer inception_3b/relu_5x5
I0711 11:15:37.691411 122639 net.cpp:454] inception_3b/relu_5x5 <- inception_3b/5x5
I0711 11:15:37.691421 122639 net.cpp:397] inception_3b/relu_5x5 -> inception_3b/5x5 (in-place)
I0711 11:15:37.691661 122639 net.cpp:150] Setting up inception_3b/relu_5x5
I0711 11:15:37.691690 122639 net.cpp:157] Top shape: 32 96 28 28 (2408448)
I0711 11:15:37.691710 122639 net.cpp:165] Memory required for data: 992281088
I0711 11:15:37.691718 122639 layer_factory.hpp:76] Creating layer inception_3b/pool
I0711 11:15:37.691731 122639 net.cpp:106] Creating Layer inception_3b/pool
I0711 11:15:37.691754 122639 net.cpp:454] inception_3b/pool <- inception_3a/output_inception_3a/output_0_split_3
I0711 11:15:37.691766 122639 net.cpp:411] inception_3b/pool -> inception_3b/pool
I0711 11:15:37.692163 122639 net.cpp:150] Setting up inception_3b/pool
I0711 11:15:37.692194 122639 net.cpp:157] Top shape: 32 256 28 28 (6422528)
I0711 11:15:37.692204 122639 net.cpp:165] Memory required for data: 1017971200
I0711 11:15:37.692212 122639 layer_factory.hpp:76] Creating layer inception_3b/pool_proj
I0711 11:15:37.692229 122639 net.cpp:106] Creating Layer inception_3b/pool_proj
I0711 11:15:37.692237 122639 net.cpp:454] inception_3b/pool_proj <- inception_3b/pool
I0711 11:15:37.692248 122639 net.cpp:411] inception_3b/pool_proj -> inception_3b/pool_proj
I0711 11:15:37.693673 122639 cudnn_conv_layer.cpp:194] Reallocating workspace storage: 3072
I0711 11:15:37.693706 122639 net.cpp:150] Setting up inception_3b/pool_proj
I0711 11:15:37.693718 122639 net.cpp:157] Top shape: 32 64 28 28 (1605632)
I0711 11:15:37.693727 122639 net.cpp:165] Memory required for data: 1024393728
I0711 11:15:37.693737 122639 layer_factory.hpp:76] Creating layer inception_3b/relu_pool_proj
I0711 11:15:37.693752 122639 net.cpp:106] Creating Layer inception_3b/relu_pool_proj
I0711 11:15:37.693763 122639 net.cpp:454] inception_3b/relu_pool_proj <- inception_3b/pool_proj
I0711 11:15:37.693788 122639 net.cpp:397] inception_3b/relu_pool_proj -> inception_3b/pool_proj (in-place)
I0711 11:15:37.693975 122639 net.cpp:150] Setting up inception_3b/relu_pool_proj
I0711 11:15:37.693991 122639 net.cpp:157] Top shape: 32 64 28 28 (1605632)
I0711 11:15:37.694000 122639 net.cpp:165] Memory required for data: 1030816256
I0711 11:15:37.694007 122639 layer_factory.hpp:76] Creating layer inception_3b/output
I0711 11:15:37.694033 122639 net.cpp:106] Creating Layer inception_3b/output
I0711 11:15:37.694042 122639 net.cpp:454] inception_3b/output <- inception_3b/1x1
I0711 11:15:37.694052 122639 net.cpp:454] inception_3b/output <- inception_3b/3x3
I0711 11:15:37.694061 122639 net.cpp:454] inception_3b/output <- inception_3b/5x5
I0711 11:15:37.694070 122639 net.cpp:454] inception_3b/output <- inception_3b/pool_proj
I0711 11:15:37.694082 122639 net.cpp:411] inception_3b/output -> inception_3b/output
I0711 11:15:37.694119 122639 net.cpp:150] Setting up inception_3b/output
I0711 11:15:37.694133 122639 net.cpp:157] Top shape: 32 480 28 28 (12042240)
I0711 11:15:37.694140 122639 net.cpp:165] Memory required for data: 1078985216
I0711 11:15:37.694149 122639 layer_factory.hpp:76] Creating layer pool3/3x3_s2
I0711 11:15:37.694159 122639 net.cpp:106] Creating Layer pool3/3x3_s2
I0711 11:15:37.694166 122639 net.cpp:454] pool3/3x3_s2 <- inception_3b/output
I0711 11:15:37.694176 122639 net.cpp:411] pool3/3x3_s2 -> pool3/3x3_s2
I0711 11:15:37.694692 122639 net.cpp:150] Setting up pool3/3x3_s2
I0711 11:15:37.694712 122639 net.cpp:157] Top shape: 32 480 14 14 (3010560)
I0711 11:15:37.694732 122639 net.cpp:165] Memory required for data: 1091027456
I0711 11:15:37.694741 122639 layer_factory.hpp:76] Creating layer pool3/3x3_s2_pool3/3x3_s2_0_split
I0711 11:15:37.694753 122639 net.cpp:106] Creating Layer pool3/3x3_s2_pool3/3x3_s2_0_split
I0711 11:15:37.694761 122639 net.cpp:454] pool3/3x3_s2_pool3/3x3_s2_0_split <- pool3/3x3_s2
I0711 11:15:37.694773 122639 net.cpp:411] pool3/3x3_s2_pool3/3x3_s2_0_split -> pool3/3x3_s2_pool3/3x3_s2_0_split_0
I0711 11:15:37.694785 122639 net.cpp:411] pool3/3x3_s2_pool3/3x3_s2_0_split -> pool3/3x3_s2_pool3/3x3_s2_0_split_1
I0711 11:15:37.694795 122639 net.cpp:411] pool3/3x3_s2_pool3/3x3_s2_0_split -> pool3/3x3_s2_pool3/3x3_s2_0_split_2
I0711 11:15:37.694805 122639 net.cpp:411] pool3/3x3_s2_pool3/3x3_s2_0_split -> pool3/3x3_s2_pool3/3x3_s2_0_split_3
I0711 11:15:37.694872 122639 net.cpp:150] Setting up pool3/3x3_s2_pool3/3x3_s2_0_split
I0711 11:15:37.694897 122639 net.cpp:157] Top shape: 32 480 14 14 (3010560)
I0711 11:15:37.694917 122639 net.cpp:157] Top shape: 32 480 14 14 (3010560)
I0711 11:15:37.694926 122639 net.cpp:157] Top shape: 32 480 14 14 (3010560)
I0711 11:15:37.694934 122639 net.cpp:157] Top shape: 32 480 14 14 (3010560)
I0711 11:15:37.694941 122639 net.cpp:165] Memory required for data: 1139196416
I0711 11:15:37.694948 122639 layer_factory.hpp:76] Creating layer inception_4a/1x1
I0711 11:15:37.694965 122639 net.cpp:106] Creating Layer inception_4a/1x1
I0711 11:15:37.694973 122639 net.cpp:454] inception_4a/1x1 <- pool3/3x3_s2_pool3/3x3_s2_0_split_0
I0711 11:15:37.694983 122639 net.cpp:411] inception_4a/1x1 -> inception_4a/1x1
I0711 11:15:37.696732 122639 cudnn_conv_layer.cpp:194] Reallocating workspace storage: 5760
I0711 11:15:37.696789 122639 net.cpp:150] Setting up inception_4a/1x1
I0711 11:15:37.696815 122639 net.cpp:157] Top shape: 32 192 14 14 (1204224)
I0711 11:15:37.696835 122639 net.cpp:165] Memory required for data: 1144013312
I0711 11:15:37.696848 122639 layer_factory.hpp:76] Creating layer inception_4a/relu_1x1
I0711 11:15:37.696861 122639 net.cpp:106] Creating Layer inception_4a/relu_1x1
I0711 11:15:37.696880 122639 net.cpp:454] inception_4a/relu_1x1 <- inception_4a/1x1
I0711 11:15:37.696890 122639 net.cpp:397] inception_4a/relu_1x1 -> inception_4a/1x1 (in-place)
I0711 11:15:37.697159 122639 net.cpp:150] Setting up inception_4a/relu_1x1
I0711 11:15:37.697175 122639 net.cpp:157] Top shape: 32 192 14 14 (1204224)
I0711 11:15:37.697194 122639 net.cpp:165] Memory required for data: 1148830208
I0711 11:15:37.697203 122639 layer_factory.hpp:76] Creating layer inception_4a/3x3_reduce
I0711 11:15:37.697222 122639 net.cpp:106] Creating Layer inception_4a/3x3_reduce
I0711 11:15:37.697232 122639 net.cpp:454] inception_4a/3x3_reduce <- pool3/3x3_s2_pool3/3x3_s2_0_split_1
I0711 11:15:37.697244 122639 net.cpp:411] inception_4a/3x3_reduce -> inception_4a/3x3_reduce
I0711 11:15:37.698647 122639 cudnn_conv_layer.cpp:194] Reallocating workspace storage: 5760
I0711 11:15:37.698711 122639 net.cpp:150] Setting up inception_4a/3x3_reduce
I0711 11:15:37.698724 122639 net.cpp:157] Top shape: 32 96 14 14 (602112)
I0711 11:15:37.698732 122639 net.cpp:165] Memory required for data: 1151238656
I0711 11:15:37.698765 122639 layer_factory.hpp:76] Creating layer inception_4a/relu_3x3_reduce
I0711 11:15:37.698779 122639 net.cpp:106] Creating Layer inception_4a/relu_3x3_reduce
I0711 11:15:37.698799 122639 net.cpp:454] inception_4a/relu_3x3_reduce <- inception_4a/3x3_reduce
I0711 11:15:37.698812 122639 net.cpp:397] inception_4a/relu_3x3_reduce -> inception_4a/3x3_reduce (in-place)
I0711 11:15:37.699053 122639 net.cpp:150] Setting up inception_4a/relu_3x3_reduce
I0711 11:15:37.699079 122639 net.cpp:157] Top shape: 32 96 14 14 (602112)
I0711 11:15:37.699087 122639 net.cpp:165] Memory required for data: 1153647104
I0711 11:15:37.699096 122639 layer_factory.hpp:76] Creating layer inception_4a/3x3
I0711 11:15:37.699111 122639 net.cpp:106] Creating Layer inception_4a/3x3
I0711 11:15:37.699120 122639 net.cpp:454] inception_4a/3x3 <- inception_4a/3x3_reduce
I0711 11:15:37.699132 122639 net.cpp:411] inception_4a/3x3 -> inception_4a/3x3
I0711 11:15:37.702442 122639 cudnn_conv_layer.cpp:194] Reallocating workspace storage: 10368
I0711 11:15:37.702493 122639 net.cpp:150] Setting up inception_4a/3x3
I0711 11:15:37.702507 122639 net.cpp:157] Top shape: 32 208 14 14 (1304576)
I0711 11:15:37.702517 122639 net.cpp:165] Memory required for data: 1158865408
I0711 11:15:37.702528 122639 layer_factory.hpp:76] Creating layer inception_4a/relu_3x3
I0711 11:15:37.702546 122639 net.cpp:106] Creating Layer inception_4a/relu_3x3
I0711 11:15:37.702558 122639 net.cpp:454] inception_4a/relu_3x3 <- inception_4a/3x3
I0711 11:15:37.702581 122639 net.cpp:397] inception_4a/relu_3x3 -> inception_4a/3x3 (in-place)
I0711 11:15:37.702991 122639 net.cpp:150] Setting up inception_4a/relu_3x3
I0711 11:15:37.703022 122639 net.cpp:157] Top shape: 32 208 14 14 (1304576)
I0711 11:15:37.703032 122639 net.cpp:165] Memory required for data: 1164083712
I0711 11:15:37.703039 122639 layer_factory.hpp:76] Creating layer inception_4a/5x5_reduce
I0711 11:15:37.703055 122639 net.cpp:106] Creating Layer inception_4a/5x5_reduce
I0711 11:15:37.703065 122639 net.cpp:454] inception_4a/5x5_reduce <- pool3/3x3_s2_pool3/3x3_s2_0_split_2
I0711 11:15:37.703078 122639 net.cpp:411] inception_4a/5x5_reduce -> inception_4a/5x5_reduce
I0711 11:15:37.704457 122639 net.cpp:150] Setting up inception_4a/5x5_reduce
I0711 11:15:37.704491 122639 net.cpp:157] Top shape: 32 16 14 14 (100352)
I0711 11:15:37.704500 122639 net.cpp:165] Memory required for data: 1164485120
I0711 11:15:37.704514 122639 layer_factory.hpp:76] Creating layer inception_4a/relu_5x5_reduce
I0711 11:15:37.704525 122639 net.cpp:106] Creating Layer inception_4a/relu_5x5_reduce
I0711 11:15:37.704535 122639 net.cpp:454] inception_4a/relu_5x5_reduce <- inception_4a/5x5_reduce
I0711 11:15:37.704548 122639 net.cpp:397] inception_4a/relu_5x5_reduce -> inception_4a/5x5_reduce (in-place)
I0711 11:15:37.704797 122639 net.cpp:150] Setting up inception_4a/relu_5x5_reduce
I0711 11:15:37.704824 122639 net.cpp:157] Top shape: 32 16 14 14 (100352)
I0711 11:15:37.704833 122639 net.cpp:165] Memory required for data: 1164886528
I0711 11:15:37.704841 122639 layer_factory.hpp:76] Creating layer inception_4a/5x5
I0711 11:15:37.704860 122639 net.cpp:106] Creating Layer inception_4a/5x5
I0711 11:15:37.704869 122639 net.cpp:454] inception_4a/5x5 <- inception_4a/5x5_reduce
I0711 11:15:37.704882 122639 net.cpp:411] inception_4a/5x5 -> inception_4a/5x5
I0711 11:15:37.706243 122639 net.cpp:150] Setting up inception_4a/5x5
I0711 11:15:37.706264 122639 net.cpp:157] Top shape: 32 48 14 14 (301056)
I0711 11:15:37.706274 122639 net.cpp:165] Memory required for data: 1166090752
I0711 11:15:37.706285 122639 layer_factory.hpp:76] Creating layer inception_4a/relu_5x5
I0711 11:15:37.706300 122639 net.cpp:106] Creating Layer inception_4a/relu_5x5
I0711 11:15:37.706310 122639 net.cpp:454] inception_4a/relu_5x5 <- inception_4a/5x5
I0711 11:15:37.706349 122639 net.cpp:397] inception_4a/relu_5x5 -> inception_4a/5x5 (in-place)
I0711 11:15:37.706583 122639 net.cpp:150] Setting up inception_4a/relu_5x5
I0711 11:15:37.706611 122639 net.cpp:157] Top shape: 32 48 14 14 (301056)
I0711 11:15:37.706619 122639 net.cpp:165] Memory required for data: 1167294976
I0711 11:15:37.706634 122639 layer_factory.hpp:76] Creating layer inception_4a/pool
I0711 11:15:37.706647 122639 net.cpp:106] Creating Layer inception_4a/pool
I0711 11:15:37.706656 122639 net.cpp:454] inception_4a/pool <- pool3/3x3_s2_pool3/3x3_s2_0_split_3
I0711 11:15:37.706670 122639 net.cpp:411] inception_4a/pool -> inception_4a/pool
I0711 11:15:37.707082 122639 net.cpp:150] Setting up inception_4a/pool
I0711 11:15:37.707113 122639 net.cpp:157] Top shape: 32 480 14 14 (3010560)
I0711 11:15:37.707121 122639 net.cpp:165] Memory required for data: 1179337216
I0711 11:15:37.707129 122639 layer_factory.hpp:76] Creating layer inception_4a/pool_proj
I0711 11:15:37.707146 122639 net.cpp:106] Creating Layer inception_4a/pool_proj
I0711 11:15:37.707155 122639 net.cpp:454] inception_4a/pool_proj <- inception_4a/pool
I0711 11:15:37.707168 122639 net.cpp:411] inception_4a/pool_proj -> inception_4a/pool_proj
I0711 11:15:37.708633 122639 net.cpp:150] Setting up inception_4a/pool_proj
I0711 11:15:37.708667 122639 net.cpp:157] Top shape: 32 64 14 14 (401408)
I0711 11:15:37.708675 122639 net.cpp:165] Memory required for data: 1180942848
I0711 11:15:37.708688 122639 layer_factory.hpp:76] Creating layer inception_4a/relu_pool_proj
I0711 11:15:37.708701 122639 net.cpp:106] Creating Layer inception_4a/relu_pool_proj
I0711 11:15:37.708710 122639 net.cpp:454] inception_4a/relu_pool_proj <- inception_4a/pool_proj
I0711 11:15:37.708720 122639 net.cpp:397] inception_4a/relu_pool_proj -> inception_4a/pool_proj (in-place)
I0711 11:15:37.708955 122639 net.cpp:150] Setting up inception_4a/relu_pool_proj
I0711 11:15:37.708982 122639 net.cpp:157] Top shape: 32 64 14 14 (401408)
I0711 11:15:37.709002 122639 net.cpp:165] Memory required for data: 1182548480
I0711 11:15:37.709012 122639 layer_factory.hpp:76] Creating layer inception_4a/output
I0711 11:15:37.709024 122639 net.cpp:106] Creating Layer inception_4a/output
I0711 11:15:37.709033 122639 net.cpp:454] inception_4a/output <- inception_4a/1x1
I0711 11:15:37.709043 122639 net.cpp:454] inception_4a/output <- inception_4a/3x3
I0711 11:15:37.709064 122639 net.cpp:454] inception_4a/output <- inception_4a/5x5
I0711 11:15:37.709071 122639 net.cpp:454] inception_4a/output <- inception_4a/pool_proj
I0711 11:15:37.709084 122639 net.cpp:411] inception_4a/output -> inception_4a/output
I0711 11:15:37.709123 122639 net.cpp:150] Setting up inception_4a/output
I0711 11:15:37.709148 122639 net.cpp:157] Top shape: 32 512 14 14 (3211264)
I0711 11:15:37.709169 122639 net.cpp:165] Memory required for data: 1195393536
I0711 11:15:37.709177 122639 layer_factory.hpp:76] Creating layer inception_4a/output_inception_4a/output_0_split
I0711 11:15:37.709202 122639 net.cpp:106] Creating Layer inception_4a/output_inception_4a/output_0_split
I0711 11:15:37.709209 122639 net.cpp:454] inception_4a/output_inception_4a/output_0_split <- inception_4a/output
I0711 11:15:37.709218 122639 net.cpp:411] inception_4a/output_inception_4a/output_0_split -> inception_4a/output_inception_4a/output_0_split_0
I0711 11:15:37.709229 122639 net.cpp:411] inception_4a/output_inception_4a/output_0_split -> inception_4a/output_inception_4a/output_0_split_1
I0711 11:15:37.709241 122639 net.cpp:411] inception_4a/output_inception_4a/output_0_split -> inception_4a/output_inception_4a/output_0_split_2
I0711 11:15:37.709252 122639 net.cpp:411] inception_4a/output_inception_4a/output_0_split -> inception_4a/output_inception_4a/output_0_split_3
I0711 11:15:37.709275 122639 net.cpp:411] inception_4a/output_inception_4a/output_0_split -> inception_4a/output_inception_4a/output_0_split_4
I0711 11:15:37.709373 122639 net.cpp:150] Setting up inception_4a/output_inception_4a/output_0_split
I0711 11:15:37.709411 122639 net.cpp:157] Top shape: 32 512 14 14 (3211264)
I0711 11:15:37.709421 122639 net.cpp:157] Top shape: 32 512 14 14 (3211264)
I0711 11:15:37.709429 122639 net.cpp:157] Top shape: 32 512 14 14 (3211264)
I0711 11:15:37.709437 122639 net.cpp:157] Top shape: 32 512 14 14 (3211264)
I0711 11:15:37.709446 122639 net.cpp:157] Top shape: 32 512 14 14 (3211264)
I0711 11:15:37.709453 122639 net.cpp:165] Memory required for data: 1259618816
I0711 11:15:37.709461 122639 layer_factory.hpp:76] Creating layer loss1/ave_pool
I0711 11:15:37.709475 122639 net.cpp:106] Creating Layer loss1/ave_pool
I0711 11:15:37.709483 122639 net.cpp:454] loss1/ave_pool <- inception_4a/output_inception_4a/output_0_split_0
I0711 11:15:37.709493 122639 net.cpp:411] loss1/ave_pool -> loss1/ave_pool
I0711 11:15:37.709848 122639 net.cpp:150] Setting up loss1/ave_pool
I0711 11:15:37.709868 122639 net.cpp:157] Top shape: 32 512 4 4 (262144)
I0711 11:15:37.709877 122639 net.cpp:165] Memory required for data: 1260667392
I0711 11:15:37.709885 122639 layer_factory.hpp:76] Creating layer loss1/conv
I0711 11:15:37.709903 122639 net.cpp:106] Creating Layer loss1/conv
I0711 11:15:37.709913 122639 net.cpp:454] loss1/conv <- loss1/ave_pool
I0711 11:15:37.709923 122639 net.cpp:411] loss1/conv -> loss1/conv
I0711 11:15:37.711714 122639 cudnn_conv_layer.cpp:194] Reallocating workspace storage: 6144
I0711 11:15:37.711761 122639 net.cpp:150] Setting up loss1/conv
I0711 11:15:37.711774 122639 net.cpp:157] Top shape: 32 128 4 4 (65536)
I0711 11:15:37.711782 122639 net.cpp:165] Memory required for data: 1260929536
I0711 11:15:37.711794 122639 layer_factory.hpp:76] Creating layer loss1/relu_conv
I0711 11:15:37.711807 122639 net.cpp:106] Creating Layer loss1/relu_conv
I0711 11:15:37.711815 122639 net.cpp:454] loss1/relu_conv <- loss1/conv
I0711 11:15:37.711824 122639 net.cpp:397] loss1/relu_conv -> loss1/conv (in-place)
I0711 11:15:37.712023 122639 net.cpp:150] Setting up loss1/relu_conv
I0711 11:15:37.712038 122639 net.cpp:157] Top shape: 32 128 4 4 (65536)
I0711 11:15:37.712046 122639 net.cpp:165] Memory required for data: 1261191680
I0711 11:15:37.712054 122639 layer_factory.hpp:76] Creating layer loss1/fc
I0711 11:15:37.712069 122639 net.cpp:106] Creating Layer loss1/fc
I0711 11:15:37.712077 122639 net.cpp:454] loss1/fc <- loss1/conv
I0711 11:15:37.712088 122639 net.cpp:411] loss1/fc -> loss1/fc
I0711 11:15:37.734468 122639 net.cpp:150] Setting up loss1/fc
I0711 11:15:37.734529 122639 net.cpp:157] Top shape: 32 1024 (32768)
I0711 11:15:37.734539 122639 net.cpp:165] Memory required for data: 1261322752
I0711 11:15:37.734556 122639 layer_factory.hpp:76] Creating layer loss1/relu_fc
I0711 11:15:37.734583 122639 net.cpp:106] Creating Layer loss1/relu_fc
I0711 11:15:37.734596 122639 net.cpp:454] loss1/relu_fc <- loss1/fc
I0711 11:15:37.734608 122639 net.cpp:397] loss1/relu_fc -> loss1/fc (in-place)
I0711 11:15:37.735307 122639 net.cpp:150] Setting up loss1/relu_fc
I0711 11:15:37.735339 122639 net.cpp:157] Top shape: 32 1024 (32768)
I0711 11:15:37.735348 122639 net.cpp:165] Memory required for data: 1261453824
I0711 11:15:37.735371 122639 layer_factory.hpp:76] Creating layer loss1/drop_fc
I0711 11:15:37.735429 122639 net.cpp:106] Creating Layer loss1/drop_fc
I0711 11:15:37.735441 122639 net.cpp:454] loss1/drop_fc <- loss1/fc
I0711 11:15:37.735452 122639 net.cpp:397] loss1/drop_fc -> loss1/fc (in-place)
I0711 11:15:37.735515 122639 net.cpp:150] Setting up loss1/drop_fc
I0711 11:15:37.735540 122639 net.cpp:157] Top shape: 32 1024 (32768)
I0711 11:15:37.735560 122639 net.cpp:165] Memory required for data: 1261584896
I0711 11:15:37.735569 122639 layer_factory.hpp:76] Creating layer loss1/classifier
I0711 11:15:37.735584 122639 net.cpp:106] Creating Layer loss1/classifier
I0711 11:15:37.735606 122639 net.cpp:454] loss1/classifier <- loss1/fc
I0711 11:15:37.735616 122639 net.cpp:411] loss1/classifier -> loss1/classifier
I0711 11:15:37.735800 122639 net.cpp:150] Setting up loss1/classifier
I0711 11:15:37.735815 122639 net.cpp:157] Top shape: 32 2 (64)
I0711 11:15:37.735834 122639 net.cpp:165] Memory required for data: 1261585152
I0711 11:15:37.735890 122639 layer_factory.hpp:76] Creating layer loss1/loss
I0711 11:15:37.735908 122639 net.cpp:106] Creating Layer loss1/loss
I0711 11:15:37.735929 122639 net.cpp:454] loss1/loss <- loss1/classifier
I0711 11:15:37.735937 122639 net.cpp:454] loss1/loss <- label_data_1_split_0
I0711 11:15:37.735950 122639 net.cpp:411] loss1/loss -> loss1/loss1
I0711 11:15:37.735970 122639 layer_factory.hpp:76] Creating layer loss1/loss
I0711 11:15:37.736287 122639 net.cpp:150] Setting up loss1/loss
I0711 11:15:37.736318 122639 net.cpp:157] Top shape: (1)
I0711 11:15:37.736327 122639 net.cpp:160]     with loss weight 0.3
I0711 11:15:37.736351 122639 net.cpp:165] Memory required for data: 1261585156
I0711 11:15:37.736359 122639 layer_factory.hpp:76] Creating layer inception_4b/1x1
I0711 11:15:37.736373 122639 net.cpp:106] Creating Layer inception_4b/1x1
I0711 11:15:37.736383 122639 net.cpp:454] inception_4b/1x1 <- inception_4a/output_inception_4a/output_0_split_1
I0711 11:15:37.736398 122639 net.cpp:411] inception_4b/1x1 -> inception_4b/1x1
I0711 11:15:37.738337 122639 cudnn_conv_layer.cpp:194] Reallocating workspace storage: 6144
I0711 11:15:37.738399 122639 net.cpp:150] Setting up inception_4b/1x1
I0711 11:15:37.738412 122639 net.cpp:157] Top shape: 32 160 14 14 (1003520)
I0711 11:15:37.738420 122639 net.cpp:165] Memory required for data: 1265599236
I0711 11:15:37.738433 122639 layer_factory.hpp:76] Creating layer inception_4b/relu_1x1
I0711 11:15:37.738461 122639 net.cpp:106] Creating Layer inception_4b/relu_1x1
I0711 11:15:37.738472 122639 net.cpp:454] inception_4b/relu_1x1 <- inception_4b/1x1
I0711 11:15:37.738495 122639 net.cpp:397] inception_4b/relu_1x1 -> inception_4b/1x1 (in-place)
I0711 11:15:37.738888 122639 net.cpp:150] Setting up inception_4b/relu_1x1
I0711 11:15:37.738919 122639 net.cpp:157] Top shape: 32 160 14 14 (1003520)
I0711 11:15:37.738929 122639 net.cpp:165] Memory required for data: 1269613316
I0711 11:15:37.738939 122639 layer_factory.hpp:76] Creating layer inception_4b/3x3_reduce
I0711 11:15:37.738955 122639 net.cpp:106] Creating Layer inception_4b/3x3_reduce
I0711 11:15:37.738965 122639 net.cpp:454] inception_4b/3x3_reduce <- inception_4a/output_inception_4a/output_0_split_2
I0711 11:15:37.738976 122639 net.cpp:411] inception_4b/3x3_reduce -> inception_4b/3x3_reduce
I0711 11:15:37.741104 122639 cudnn_conv_layer.cpp:194] Reallocating workspace storage: 6144
I0711 11:15:37.741159 122639 net.cpp:150] Setting up inception_4b/3x3_reduce
I0711 11:15:37.741174 122639 net.cpp:157] Top shape: 32 112 14 14 (702464)
I0711 11:15:37.741183 122639 net.cpp:165] Memory required for data: 1272423172
I0711 11:15:37.741195 122639 layer_factory.hpp:76] Creating layer inception_4b/relu_3x3_reduce
I0711 11:15:37.741207 122639 net.cpp:106] Creating Layer inception_4b/relu_3x3_reduce
I0711 11:15:37.741216 122639 net.cpp:454] inception_4b/relu_3x3_reduce <- inception_4b/3x3_reduce
I0711 11:15:37.741226 122639 net.cpp:397] inception_4b/relu_3x3_reduce -> inception_4b/3x3_reduce (in-place)
I0711 11:15:37.741683 122639 net.cpp:150] Setting up inception_4b/relu_3x3_reduce
I0711 11:15:37.741717 122639 net.cpp:157] Top shape: 32 112 14 14 (702464)
I0711 11:15:37.741726 122639 net.cpp:165] Memory required for data: 1275233028
I0711 11:15:37.741734 122639 layer_factory.hpp:76] Creating layer inception_4b/3x3
I0711 11:15:37.741749 122639 net.cpp:106] Creating Layer inception_4b/3x3
I0711 11:15:37.741757 122639 net.cpp:454] inception_4b/3x3 <- inception_4b/3x3_reduce
I0711 11:15:37.741770 122639 net.cpp:411] inception_4b/3x3 -> inception_4b/3x3
I0711 11:15:37.745189 122639 cudnn_conv_layer.cpp:194] Reallocating workspace storage: 12096
I0711 11:15:37.745255 122639 net.cpp:150] Setting up inception_4b/3x3
I0711 11:15:37.745268 122639 net.cpp:157] Top shape: 32 224 14 14 (1404928)
I0711 11:15:37.745276 122639 net.cpp:165] Memory required for data: 1280852740
I0711 11:15:37.745290 122639 layer_factory.hpp:76] Creating layer inception_4b/relu_3x3
I0711 11:15:37.745301 122639 net.cpp:106] Creating Layer inception_4b/relu_3x3
I0711 11:15:37.745332 122639 net.cpp:454] inception_4b/relu_3x3 <- inception_4b/3x3
I0711 11:15:37.745342 122639 net.cpp:397] inception_4b/relu_3x3 -> inception_4b/3x3 (in-place)
I0711 11:15:37.745566 122639 net.cpp:150] Setting up inception_4b/relu_3x3
I0711 11:15:37.745595 122639 net.cpp:157] Top shape: 32 224 14 14 (1404928)
I0711 11:15:37.745604 122639 net.cpp:165] Memory required for data: 1286472452
I0711 11:15:37.745625 122639 layer_factory.hpp:76] Creating layer inception_4b/5x5_reduce
I0711 11:15:37.745641 122639 net.cpp:106] Creating Layer inception_4b/5x5_reduce
I0711 11:15:37.745651 122639 net.cpp:454] inception_4b/5x5_reduce <- inception_4a/output_inception_4a/output_0_split_3
I0711 11:15:37.745661 122639 net.cpp:411] inception_4b/5x5_reduce -> inception_4b/5x5_reduce
I0711 11:15:37.747102 122639 net.cpp:150] Setting up inception_4b/5x5_reduce
I0711 11:15:37.747135 122639 net.cpp:157] Top shape: 32 24 14 14 (150528)
I0711 11:15:37.747155 122639 net.cpp:165] Memory required for data: 1287074564
I0711 11:15:37.747166 122639 layer_factory.hpp:76] Creating layer inception_4b/relu_5x5_reduce
I0711 11:15:37.747179 122639 net.cpp:106] Creating Layer inception_4b/relu_5x5_reduce
I0711 11:15:37.747187 122639 net.cpp:454] inception_4b/relu_5x5_reduce <- inception_4b/5x5_reduce
I0711 11:15:37.747200 122639 net.cpp:397] inception_4b/relu_5x5_reduce -> inception_4b/5x5_reduce (in-place)
I0711 11:15:37.747570 122639 net.cpp:150] Setting up inception_4b/relu_5x5_reduce
I0711 11:15:37.747599 122639 net.cpp:157] Top shape: 32 24 14 14 (150528)
I0711 11:15:37.747607 122639 net.cpp:165] Memory required for data: 1287676676
I0711 11:15:37.747617 122639 layer_factory.hpp:76] Creating layer inception_4b/5x5
I0711 11:15:37.747632 122639 net.cpp:106] Creating Layer inception_4b/5x5
I0711 11:15:37.747640 122639 net.cpp:454] inception_4b/5x5 <- inception_4b/5x5_reduce
I0711 11:15:37.747653 122639 net.cpp:411] inception_4b/5x5 -> inception_4b/5x5
I0711 11:15:37.749032 122639 net.cpp:150] Setting up inception_4b/5x5
I0711 11:15:37.749068 122639 net.cpp:157] Top shape: 32 64 14 14 (401408)
I0711 11:15:37.749076 122639 net.cpp:165] Memory required for data: 1289282308
I0711 11:15:37.749089 122639 layer_factory.hpp:76] Creating layer inception_4b/relu_5x5
I0711 11:15:37.749099 122639 net.cpp:106] Creating Layer inception_4b/relu_5x5
I0711 11:15:37.749109 122639 net.cpp:454] inception_4b/relu_5x5 <- inception_4b/5x5
I0711 11:15:37.749140 122639 net.cpp:397] inception_4b/relu_5x5 -> inception_4b/5x5 (in-place)
I0711 11:15:37.749547 122639 net.cpp:150] Setting up inception_4b/relu_5x5
I0711 11:15:37.749567 122639 net.cpp:157] Top shape: 32 64 14 14 (401408)
I0711 11:15:37.749575 122639 net.cpp:165] Memory required for data: 1290887940
I0711 11:15:37.749583 122639 layer_factory.hpp:76] Creating layer inception_4b/pool
I0711 11:15:37.749598 122639 net.cpp:106] Creating Layer inception_4b/pool
I0711 11:15:37.749608 122639 net.cpp:454] inception_4b/pool <- inception_4a/output_inception_4a/output_0_split_4
I0711 11:15:37.749620 122639 net.cpp:411] inception_4b/pool -> inception_4b/pool
I0711 11:15:37.749886 122639 net.cpp:150] Setting up inception_4b/pool
I0711 11:15:37.749917 122639 net.cpp:157] Top shape: 32 512 14 14 (3211264)
I0711 11:15:37.749925 122639 net.cpp:165] Memory required for data: 1303732996
I0711 11:15:37.749934 122639 layer_factory.hpp:76] Creating layer inception_4b/pool_proj
I0711 11:15:37.749948 122639 net.cpp:106] Creating Layer inception_4b/pool_proj
I0711 11:15:37.749956 122639 net.cpp:454] inception_4b/pool_proj <- inception_4b/pool
I0711 11:15:37.749969 122639 net.cpp:411] inception_4b/pool_proj -> inception_4b/pool_proj
I0711 11:15:37.751447 122639 cudnn_conv_layer.cpp:194] Reallocating workspace storage: 6144
I0711 11:15:37.751508 122639 net.cpp:150] Setting up inception_4b/pool_proj
I0711 11:15:37.751535 122639 net.cpp:157] Top shape: 32 64 14 14 (401408)
I0711 11:15:37.751543 122639 net.cpp:165] Memory required for data: 1305338628
I0711 11:15:37.751556 122639 layer_factory.hpp:76] Creating layer inception_4b/relu_pool_proj
I0711 11:15:37.751593 122639 net.cpp:106] Creating Layer inception_4b/relu_pool_proj
I0711 11:15:37.751603 122639 net.cpp:454] inception_4b/relu_pool_proj <- inception_4b/pool_proj
I0711 11:15:37.751616 122639 net.cpp:397] inception_4b/relu_pool_proj -> inception_4b/pool_proj (in-place)
I0711 11:15:37.752048 122639 net.cpp:150] Setting up inception_4b/relu_pool_proj
I0711 11:15:37.752079 122639 net.cpp:157] Top shape: 32 64 14 14 (401408)
I0711 11:15:37.752087 122639 net.cpp:165] Memory required for data: 1306944260
I0711 11:15:37.752095 122639 layer_factory.hpp:76] Creating layer inception_4b/output
I0711 11:15:37.752110 122639 net.cpp:106] Creating Layer inception_4b/output
I0711 11:15:37.752118 122639 net.cpp:454] inception_4b/output <- inception_4b/1x1
I0711 11:15:37.752127 122639 net.cpp:454] inception_4b/output <- inception_4b/3x3
I0711 11:15:37.752136 122639 net.cpp:454] inception_4b/output <- inception_4b/5x5
I0711 11:15:37.752145 122639 net.cpp:454] inception_4b/output <- inception_4b/pool_proj
I0711 11:15:37.752154 122639 net.cpp:411] inception_4b/output -> inception_4b/output
I0711 11:15:37.752194 122639 net.cpp:150] Setting up inception_4b/output
I0711 11:15:37.752208 122639 net.cpp:157] Top shape: 32 512 14 14 (3211264)
I0711 11:15:37.752215 122639 net.cpp:165] Memory required for data: 1319789316
I0711 11:15:37.752223 122639 layer_factory.hpp:76] Creating layer inception_4b/output_inception_4b/output_0_split
I0711 11:15:37.752235 122639 net.cpp:106] Creating Layer inception_4b/output_inception_4b/output_0_split
I0711 11:15:37.752243 122639 net.cpp:454] inception_4b/output_inception_4b/output_0_split <- inception_4b/output
I0711 11:15:37.752255 122639 net.cpp:411] inception_4b/output_inception_4b/output_0_split -> inception_4b/output_inception_4b/output_0_split_0
I0711 11:15:37.752267 122639 net.cpp:411] inception_4b/output_inception_4b/output_0_split -> inception_4b/output_inception_4b/output_0_split_1
I0711 11:15:37.752277 122639 net.cpp:411] inception_4b/output_inception_4b/output_0_split -> inception_4b/output_inception_4b/output_0_split_2
I0711 11:15:37.752288 122639 net.cpp:411] inception_4b/output_inception_4b/output_0_split -> inception_4b/output_inception_4b/output_0_split_3
I0711 11:15:37.752398 122639 net.cpp:150] Setting up inception_4b/output_inception_4b/output_0_split
I0711 11:15:37.752421 122639 net.cpp:157] Top shape: 32 512 14 14 (3211264)
I0711 11:15:37.752430 122639 net.cpp:157] Top shape: 32 512 14 14 (3211264)
I0711 11:15:37.752439 122639 net.cpp:157] Top shape: 32 512 14 14 (3211264)
I0711 11:15:37.752446 122639 net.cpp:157] Top shape: 32 512 14 14 (3211264)
I0711 11:15:37.752454 122639 net.cpp:165] Memory required for data: 1371169540
I0711 11:15:37.752475 122639 layer_factory.hpp:76] Creating layer inception_4c/1x1
I0711 11:15:37.752491 122639 net.cpp:106] Creating Layer inception_4c/1x1
I0711 11:15:37.752501 122639 net.cpp:454] inception_4c/1x1 <- inception_4b/output_inception_4b/output_0_split_0
I0711 11:15:37.752511 122639 net.cpp:411] inception_4c/1x1 -> inception_4c/1x1
I0711 11:15:37.754464 122639 cudnn_conv_layer.cpp:194] Reallocating workspace storage: 6144
I0711 11:15:37.754509 122639 net.cpp:150] Setting up inception_4c/1x1
I0711 11:15:37.754534 122639 net.cpp:157] Top shape: 32 128 14 14 (802816)
I0711 11:15:37.754541 122639 net.cpp:165] Memory required for data: 1374380804
I0711 11:15:37.754554 122639 layer_factory.hpp:76] Creating layer inception_4c/relu_1x1
I0711 11:15:37.754565 122639 net.cpp:106] Creating Layer inception_4c/relu_1x1
I0711 11:15:37.754586 122639 net.cpp:454] inception_4c/relu_1x1 <- inception_4c/1x1
I0711 11:15:37.754595 122639 net.cpp:397] inception_4c/relu_1x1 -> inception_4c/1x1 (in-place)
I0711 11:15:37.754828 122639 net.cpp:150] Setting up inception_4c/relu_1x1
I0711 11:15:37.754856 122639 net.cpp:157] Top shape: 32 128 14 14 (802816)
I0711 11:15:37.754864 122639 net.cpp:165] Memory required for data: 1377592068
I0711 11:15:37.754873 122639 layer_factory.hpp:76] Creating layer inception_4c/3x3_reduce
I0711 11:15:37.754901 122639 net.cpp:106] Creating Layer inception_4c/3x3_reduce
I0711 11:15:37.754910 122639 net.cpp:454] inception_4c/3x3_reduce <- inception_4b/output_inception_4b/output_0_split_1
I0711 11:15:37.754923 122639 net.cpp:411] inception_4c/3x3_reduce -> inception_4c/3x3_reduce
I0711 11:15:37.756541 122639 cudnn_conv_layer.cpp:194] Reallocating workspace storage: 6144
I0711 11:15:37.756573 122639 net.cpp:150] Setting up inception_4c/3x3_reduce
I0711 11:15:37.756603 122639 net.cpp:157] Top shape: 32 128 14 14 (802816)
I0711 11:15:37.756613 122639 net.cpp:165] Memory required for data: 1380803332
I0711 11:15:37.756635 122639 layer_factory.hpp:76] Creating layer inception_4c/relu_3x3_reduce
I0711 11:15:37.756647 122639 net.cpp:106] Creating Layer inception_4c/relu_3x3_reduce
I0711 11:15:37.756656 122639 net.cpp:454] inception_4c/relu_3x3_reduce <- inception_4c/3x3_reduce
I0711 11:15:37.756666 122639 net.cpp:397] inception_4c/relu_3x3_reduce -> inception_4c/3x3_reduce (in-place)
I0711 11:15:37.756899 122639 net.cpp:150] Setting up inception_4c/relu_3x3_reduce
I0711 11:15:37.756927 122639 net.cpp:157] Top shape: 32 128 14 14 (802816)
I0711 11:15:37.756935 122639 net.cpp:165] Memory required for data: 1384014596
I0711 11:15:37.756944 122639 layer_factory.hpp:76] Creating layer inception_4c/3x3
I0711 11:15:37.756968 122639 net.cpp:106] Creating Layer inception_4c/3x3
I0711 11:15:37.756989 122639 net.cpp:454] inception_4c/3x3 <- inception_4c/3x3_reduce
I0711 11:15:37.757000 122639 net.cpp:411] inception_4c/3x3 -> inception_4c/3x3
I0711 11:15:37.761154 122639 net.cpp:150] Setting up inception_4c/3x3
I0711 11:15:37.761204 122639 net.cpp:157] Top shape: 32 256 14 14 (1605632)
I0711 11:15:37.761214 122639 net.cpp:165] Memory required for data: 1390437124
I0711 11:15:37.761245 122639 layer_factory.hpp:76] Creating layer inception_4c/relu_3x3
I0711 11:15:37.761260 122639 net.cpp:106] Creating Layer inception_4c/relu_3x3
I0711 11:15:37.761270 122639 net.cpp:454] inception_4c/relu_3x3 <- inception_4c/3x3
I0711 11:15:37.761279 122639 net.cpp:397] inception_4c/relu_3x3 -> inception_4c/3x3 (in-place)
I0711 11:15:37.761687 122639 net.cpp:150] Setting up inception_4c/relu_3x3
I0711 11:15:37.761718 122639 net.cpp:157] Top shape: 32 256 14 14 (1605632)
I0711 11:15:37.761726 122639 net.cpp:165] Memory required for data: 1396859652
I0711 11:15:37.761735 122639 layer_factory.hpp:76] Creating layer inception_4c/5x5_reduce
I0711 11:15:37.761752 122639 net.cpp:106] Creating Layer inception_4c/5x5_reduce
I0711 11:15:37.761761 122639 net.cpp:454] inception_4c/5x5_reduce <- inception_4b/output_inception_4b/output_0_split_2
I0711 11:15:37.761786 122639 net.cpp:411] inception_4c/5x5_reduce -> inception_4c/5x5_reduce
I0711 11:15:37.763106 122639 net.cpp:150] Setting up inception_4c/5x5_reduce
I0711 11:15:37.763128 122639 net.cpp:157] Top shape: 32 24 14 14 (150528)
I0711 11:15:37.763139 122639 net.cpp:165] Memory required for data: 1397461764
I0711 11:15:37.763160 122639 layer_factory.hpp:76] Creating layer inception_4c/relu_5x5_reduce
I0711 11:15:37.763176 122639 net.cpp:106] Creating Layer inception_4c/relu_5x5_reduce
I0711 11:15:37.763187 122639 net.cpp:454] inception_4c/relu_5x5_reduce <- inception_4c/5x5_reduce
I0711 11:15:37.763209 122639 net.cpp:397] inception_4c/relu_5x5_reduce -> inception_4c/5x5_reduce (in-place)
I0711 11:15:37.763468 122639 net.cpp:150] Setting up inception_4c/relu_5x5_reduce
I0711 11:15:37.763494 122639 net.cpp:157] Top shape: 32 24 14 14 (150528)
I0711 11:15:37.763502 122639 net.cpp:165] Memory required for data: 1398063876
I0711 11:15:37.763510 122639 layer_factory.hpp:76] Creating layer inception_4c/5x5
I0711 11:15:37.763528 122639 net.cpp:106] Creating Layer inception_4c/5x5
I0711 11:15:37.763537 122639 net.cpp:454] inception_4c/5x5 <- inception_4c/5x5_reduce
I0711 11:15:37.763550 122639 net.cpp:411] inception_4c/5x5 -> inception_4c/5x5
I0711 11:15:37.765756 122639 net.cpp:150] Setting up inception_4c/5x5
I0711 11:15:37.765789 122639 net.cpp:157] Top shape: 32 64 14 14 (401408)
I0711 11:15:37.765799 122639 net.cpp:165] Memory required for data: 1399669508
I0711 11:15:37.765826 122639 layer_factory.hpp:76] Creating layer inception_4c/relu_5x5
I0711 11:15:37.765842 122639 net.cpp:106] Creating Layer inception_4c/relu_5x5
I0711 11:15:37.765853 122639 net.cpp:454] inception_4c/relu_5x5 <- inception_4c/5x5
I0711 11:15:37.765875 122639 net.cpp:397] inception_4c/relu_5x5 -> inception_4c/5x5 (in-place)
I0711 11:15:37.766146 122639 net.cpp:150] Setting up inception_4c/relu_5x5
I0711 11:15:37.766186 122639 net.cpp:157] Top shape: 32 64 14 14 (401408)
I0711 11:15:37.766194 122639 net.cpp:165] Memory required for data: 1401275140
I0711 11:15:37.766202 122639 layer_factory.hpp:76] Creating layer inception_4c/pool
I0711 11:15:37.766214 122639 net.cpp:106] Creating Layer inception_4c/pool
I0711 11:15:37.766222 122639 net.cpp:454] inception_4c/pool <- inception_4b/output_inception_4b/output_0_split_3
I0711 11:15:37.766235 122639 net.cpp:411] inception_4c/pool -> inception_4c/pool
I0711 11:15:37.766686 122639 net.cpp:150] Setting up inception_4c/pool
I0711 11:15:37.766706 122639 net.cpp:157] Top shape: 32 512 14 14 (3211264)
I0711 11:15:37.766715 122639 net.cpp:165] Memory required for data: 1414120196
I0711 11:15:37.766734 122639 layer_factory.hpp:76] Creating layer inception_4c/pool_proj
I0711 11:15:37.766751 122639 net.cpp:106] Creating Layer inception_4c/pool_proj
I0711 11:15:37.766760 122639 net.cpp:454] inception_4c/pool_proj <- inception_4c/pool
I0711 11:15:37.766788 122639 net.cpp:411] inception_4c/pool_proj -> inception_4c/pool_proj
I0711 11:15:37.768239 122639 cudnn_conv_layer.cpp:194] Reallocating workspace storage: 6144
I0711 11:15:37.768292 122639 net.cpp:150] Setting up inception_4c/pool_proj
I0711 11:15:37.768304 122639 net.cpp:157] Top shape: 32 64 14 14 (401408)
I0711 11:15:37.768313 122639 net.cpp:165] Memory required for data: 1415725828
I0711 11:15:37.768324 122639 layer_factory.hpp:76] Creating layer inception_4c/relu_pool_proj
I0711 11:15:37.768338 122639 net.cpp:106] Creating Layer inception_4c/relu_pool_proj
I0711 11:15:37.768348 122639 net.cpp:454] inception_4c/relu_pool_proj <- inception_4c/pool_proj
I0711 11:15:37.768358 122639 net.cpp:397] inception_4c/relu_pool_proj -> inception_4c/pool_proj (in-place)
I0711 11:15:37.768580 122639 net.cpp:150] Setting up inception_4c/relu_pool_proj
I0711 11:15:37.768609 122639 net.cpp:157] Top shape: 32 64 14 14 (401408)
I0711 11:15:37.768628 122639 net.cpp:165] Memory required for data: 1417331460
I0711 11:15:37.768637 122639 layer_factory.hpp:76] Creating layer inception_4c/output
I0711 11:15:37.768652 122639 net.cpp:106] Creating Layer inception_4c/output
I0711 11:15:37.768662 122639 net.cpp:454] inception_4c/output <- inception_4c/1x1
I0711 11:15:37.768672 122639 net.cpp:454] inception_4c/output <- inception_4c/3x3
I0711 11:15:37.768682 122639 net.cpp:454] inception_4c/output <- inception_4c/5x5
I0711 11:15:37.768692 122639 net.cpp:454] inception_4c/output <- inception_4c/pool_proj
I0711 11:15:37.768702 122639 net.cpp:411] inception_4c/output -> inception_4c/output
I0711 11:15:37.768754 122639 net.cpp:150] Setting up inception_4c/output
I0711 11:15:37.768769 122639 net.cpp:157] Top shape: 32 512 14 14 (3211264)
I0711 11:15:37.768776 122639 net.cpp:165] Memory required for data: 1430176516
I0711 11:15:37.768785 122639 layer_factory.hpp:76] Creating layer inception_4c/output_inception_4c/output_0_split
I0711 11:15:37.768797 122639 net.cpp:106] Creating Layer inception_4c/output_inception_4c/output_0_split
I0711 11:15:37.768805 122639 net.cpp:454] inception_4c/output_inception_4c/output_0_split <- inception_4c/output
I0711 11:15:37.768820 122639 net.cpp:411] inception_4c/output_inception_4c/output_0_split -> inception_4c/output_inception_4c/output_0_split_0
I0711 11:15:37.768831 122639 net.cpp:411] inception_4c/output_inception_4c/output_0_split -> inception_4c/output_inception_4c/output_0_split_1
I0711 11:15:37.768842 122639 net.cpp:411] inception_4c/output_inception_4c/output_0_split -> inception_4c/output_inception_4c/output_0_split_2
I0711 11:15:37.768853 122639 net.cpp:411] inception_4c/output_inception_4c/output_0_split -> inception_4c/output_inception_4c/output_0_split_3
I0711 11:15:37.768965 122639 net.cpp:150] Setting up inception_4c/output_inception_4c/output_0_split
I0711 11:15:37.768990 122639 net.cpp:157] Top shape: 32 512 14 14 (3211264)
I0711 11:15:37.769001 122639 net.cpp:157] Top shape: 32 512 14 14 (3211264)
I0711 11:15:37.769008 122639 net.cpp:157] Top shape: 32 512 14 14 (3211264)
I0711 11:15:37.769016 122639 net.cpp:157] Top shape: 32 512 14 14 (3211264)
I0711 11:15:37.769023 122639 net.cpp:165] Memory required for data: 1481556740
I0711 11:15:37.769032 122639 layer_factory.hpp:76] Creating layer inception_4d/1x1
I0711 11:15:37.769048 122639 net.cpp:106] Creating Layer inception_4d/1x1
I0711 11:15:37.769057 122639 net.cpp:454] inception_4d/1x1 <- inception_4c/output_inception_4c/output_0_split_0
I0711 11:15:37.769068 122639 net.cpp:411] inception_4d/1x1 -> inception_4d/1x1
I0711 11:15:37.770745 122639 cudnn_conv_layer.cpp:194] Reallocating workspace storage: 6144
I0711 11:15:37.770792 122639 net.cpp:150] Setting up inception_4d/1x1
I0711 11:15:37.770805 122639 net.cpp:157] Top shape: 32 112 14 14 (702464)
I0711 11:15:37.770812 122639 net.cpp:165] Memory required for data: 1484366596
I0711 11:15:37.770823 122639 layer_factory.hpp:76] Creating layer inception_4d/relu_1x1
I0711 11:15:37.770835 122639 net.cpp:106] Creating Layer inception_4d/relu_1x1
I0711 11:15:37.770844 122639 net.cpp:454] inception_4d/relu_1x1 <- inception_4d/1x1
I0711 11:15:37.770853 122639 net.cpp:397] inception_4d/relu_1x1 -> inception_4d/1x1 (in-place)
I0711 11:15:37.771266 122639 net.cpp:150] Setting up inception_4d/relu_1x1
I0711 11:15:37.771296 122639 net.cpp:157] Top shape: 32 112 14 14 (702464)
I0711 11:15:37.771306 122639 net.cpp:165] Memory required for data: 1487176452
I0711 11:15:37.771313 122639 layer_factory.hpp:76] Creating layer inception_4d/3x3_reduce
I0711 11:15:37.771328 122639 net.cpp:106] Creating Layer inception_4d/3x3_reduce
I0711 11:15:37.771337 122639 net.cpp:454] inception_4d/3x3_reduce <- inception_4c/output_inception_4c/output_0_split_1
I0711 11:15:37.771350 122639 net.cpp:411] inception_4d/3x3_reduce -> inception_4d/3x3_reduce
I0711 11:15:37.772897 122639 cudnn_conv_layer.cpp:194] Reallocating workspace storage: 6144
I0711 11:15:37.772944 122639 net.cpp:150] Setting up inception_4d/3x3_reduce
I0711 11:15:37.772956 122639 net.cpp:157] Top shape: 32 144 14 14 (903168)
I0711 11:15:37.772964 122639 net.cpp:165] Memory required for data: 1490789124
I0711 11:15:37.772976 122639 layer_factory.hpp:76] Creating layer inception_4d/relu_3x3_reduce
I0711 11:15:37.772987 122639 net.cpp:106] Creating Layer inception_4d/relu_3x3_reduce
I0711 11:15:37.772996 122639 net.cpp:454] inception_4d/relu_3x3_reduce <- inception_4d/3x3_reduce
I0711 11:15:37.773006 122639 net.cpp:397] inception_4d/relu_3x3_reduce -> inception_4d/3x3_reduce (in-place)
I0711 11:15:37.773435 122639 net.cpp:150] Setting up inception_4d/relu_3x3_reduce
I0711 11:15:37.773466 122639 net.cpp:157] Top shape: 32 144 14 14 (903168)
I0711 11:15:37.773475 122639 net.cpp:165] Memory required for data: 1494401796
I0711 11:15:37.773483 122639 layer_factory.hpp:76] Creating layer inception_4d/3x3
I0711 11:15:37.773499 122639 net.cpp:106] Creating Layer inception_4d/3x3
I0711 11:15:37.773509 122639 net.cpp:454] inception_4d/3x3 <- inception_4d/3x3_reduce
I0711 11:15:37.773522 122639 net.cpp:411] inception_4d/3x3 -> inception_4d/3x3
I0711 11:15:37.778607 122639 cudnn_conv_layer.cpp:194] Reallocating workspace storage: 15552
I0711 11:15:37.778687 122639 net.cpp:150] Setting up inception_4d/3x3
I0711 11:15:37.778712 122639 net.cpp:157] Top shape: 32 288 14 14 (1806336)
I0711 11:15:37.778722 122639 net.cpp:165] Memory required for data: 1501627140
I0711 11:15:37.778733 122639 layer_factory.hpp:76] Creating layer inception_4d/relu_3x3
I0711 11:15:37.778748 122639 net.cpp:106] Creating Layer inception_4d/relu_3x3
I0711 11:15:37.778769 122639 net.cpp:454] inception_4d/relu_3x3 <- inception_4d/3x3
I0711 11:15:37.778784 122639 net.cpp:397] inception_4d/relu_3x3 -> inception_4d/3x3 (in-place)
I0711 11:15:37.779021 122639 net.cpp:150] Setting up inception_4d/relu_3x3
I0711 11:15:37.779049 122639 net.cpp:157] Top shape: 32 288 14 14 (1806336)
I0711 11:15:37.779057 122639 net.cpp:165] Memory required for data: 1508852484
I0711 11:15:37.779065 122639 layer_factory.hpp:76] Creating layer inception_4d/5x5_reduce
I0711 11:15:37.779079 122639 net.cpp:106] Creating Layer inception_4d/5x5_reduce
I0711 11:15:37.779088 122639 net.cpp:454] inception_4d/5x5_reduce <- inception_4c/output_inception_4c/output_0_split_2
I0711 11:15:37.779103 122639 net.cpp:411] inception_4d/5x5_reduce -> inception_4d/5x5_reduce
I0711 11:15:37.780361 122639 net.cpp:150] Setting up inception_4d/5x5_reduce
I0711 11:15:37.780385 122639 net.cpp:157] Top shape: 32 32 14 14 (200704)
I0711 11:15:37.780392 122639 net.cpp:165] Memory required for data: 1509655300
I0711 11:15:37.780405 122639 layer_factory.hpp:76] Creating layer inception_4d/relu_5x5_reduce
I0711 11:15:37.780416 122639 net.cpp:106] Creating Layer inception_4d/relu_5x5_reduce
I0711 11:15:37.780424 122639 net.cpp:454] inception_4d/relu_5x5_reduce <- inception_4d/5x5_reduce
I0711 11:15:37.780434 122639 net.cpp:397] inception_4d/relu_5x5_reduce -> inception_4d/5x5_reduce (in-place)
I0711 11:15:37.780797 122639 net.cpp:150] Setting up inception_4d/relu_5x5_reduce
I0711 11:15:37.780827 122639 net.cpp:157] Top shape: 32 32 14 14 (200704)
I0711 11:15:37.780835 122639 net.cpp:165] Memory required for data: 1510458116
I0711 11:15:37.780855 122639 layer_factory.hpp:76] Creating layer inception_4d/5x5
I0711 11:15:37.780871 122639 net.cpp:106] Creating Layer inception_4d/5x5
I0711 11:15:37.780880 122639 net.cpp:454] inception_4d/5x5 <- inception_4d/5x5_reduce
I0711 11:15:37.780891 122639 net.cpp:411] inception_4d/5x5 -> inception_4d/5x5
I0711 11:15:37.782340 122639 net.cpp:150] Setting up inception_4d/5x5
I0711 11:15:37.782373 122639 net.cpp:157] Top shape: 32 64 14 14 (401408)
I0711 11:15:37.782382 122639 net.cpp:165] Memory required for data: 1512063748
I0711 11:15:37.782392 122639 layer_factory.hpp:76] Creating layer inception_4d/relu_5x5
I0711 11:15:37.782403 122639 net.cpp:106] Creating Layer inception_4d/relu_5x5
I0711 11:15:37.782413 122639 net.cpp:454] inception_4d/relu_5x5 <- inception_4d/5x5
I0711 11:15:37.782421 122639 net.cpp:397] inception_4d/relu_5x5 -> inception_4d/5x5 (in-place)
I0711 11:15:37.782872 122639 net.cpp:150] Setting up inception_4d/relu_5x5
I0711 11:15:37.782904 122639 net.cpp:157] Top shape: 32 64 14 14 (401408)
I0711 11:15:37.782912 122639 net.cpp:165] Memory required for data: 1513669380
I0711 11:15:37.782922 122639 layer_factory.hpp:76] Creating layer inception_4d/pool
I0711 11:15:37.782933 122639 net.cpp:106] Creating Layer inception_4d/pool
I0711 11:15:37.782943 122639 net.cpp:454] inception_4d/pool <- inception_4c/output_inception_4c/output_0_split_3
I0711 11:15:37.782953 122639 net.cpp:411] inception_4d/pool -> inception_4d/pool
I0711 11:15:37.783414 122639 net.cpp:150] Setting up inception_4d/pool
I0711 11:15:37.783445 122639 net.cpp:157] Top shape: 32 512 14 14 (3211264)
I0711 11:15:37.783454 122639 net.cpp:165] Memory required for data: 1526514436
I0711 11:15:37.783463 122639 layer_factory.hpp:76] Creating layer inception_4d/pool_proj
I0711 11:15:37.783479 122639 net.cpp:106] Creating Layer inception_4d/pool_proj
I0711 11:15:37.783488 122639 net.cpp:454] inception_4d/pool_proj <- inception_4d/pool
I0711 11:15:37.783509 122639 net.cpp:411] inception_4d/pool_proj -> inception_4d/pool_proj
I0711 11:15:37.784886 122639 cudnn_conv_layer.cpp:194] Reallocating workspace storage: 6144
I0711 11:15:37.784945 122639 net.cpp:150] Setting up inception_4d/pool_proj
I0711 11:15:37.784961 122639 net.cpp:157] Top shape: 32 64 14 14 (401408)
I0711 11:15:37.784970 122639 net.cpp:165] Memory required for data: 1528120068
I0711 11:15:37.784981 122639 layer_factory.hpp:76] Creating layer inception_4d/relu_pool_proj
I0711 11:15:37.784999 122639 net.cpp:106] Creating Layer inception_4d/relu_pool_proj
I0711 11:15:37.785009 122639 net.cpp:454] inception_4d/relu_pool_proj <- inception_4d/pool_proj
I0711 11:15:37.785038 122639 net.cpp:397] inception_4d/relu_pool_proj -> inception_4d/pool_proj (in-place)
I0711 11:15:37.785430 122639 net.cpp:150] Setting up inception_4d/relu_pool_proj
I0711 11:15:37.785462 122639 net.cpp:157] Top shape: 32 64 14 14 (401408)
I0711 11:15:37.785470 122639 net.cpp:165] Memory required for data: 1529725700
I0711 11:15:37.785480 122639 layer_factory.hpp:76] Creating layer inception_4d/output
I0711 11:15:37.785495 122639 net.cpp:106] Creating Layer inception_4d/output
I0711 11:15:37.785504 122639 net.cpp:454] inception_4d/output <- inception_4d/1x1
I0711 11:15:37.785513 122639 net.cpp:454] inception_4d/output <- inception_4d/3x3
I0711 11:15:37.785524 122639 net.cpp:454] inception_4d/output <- inception_4d/5x5
I0711 11:15:37.785533 122639 net.cpp:454] inception_4d/output <- inception_4d/pool_proj
I0711 11:15:37.785543 122639 net.cpp:411] inception_4d/output -> inception_4d/output
I0711 11:15:37.785589 122639 net.cpp:150] Setting up inception_4d/output
I0711 11:15:37.785604 122639 net.cpp:157] Top shape: 32 528 14 14 (3311616)
I0711 11:15:37.785612 122639 net.cpp:165] Memory required for data: 1542972164
I0711 11:15:37.785621 122639 layer_factory.hpp:76] Creating layer inception_4d/output_inception_4d/output_0_split
I0711 11:15:37.785634 122639 net.cpp:106] Creating Layer inception_4d/output_inception_4d/output_0_split
I0711 11:15:37.785643 122639 net.cpp:454] inception_4d/output_inception_4d/output_0_split <- inception_4d/output
I0711 11:15:37.785656 122639 net.cpp:411] inception_4d/output_inception_4d/output_0_split -> inception_4d/output_inception_4d/output_0_split_0
I0711 11:15:37.785668 122639 net.cpp:411] inception_4d/output_inception_4d/output_0_split -> inception_4d/output_inception_4d/output_0_split_1
I0711 11:15:37.785681 122639 net.cpp:411] inception_4d/output_inception_4d/output_0_split -> inception_4d/output_inception_4d/output_0_split_2
I0711 11:15:37.785692 122639 net.cpp:411] inception_4d/output_inception_4d/output_0_split -> inception_4d/output_inception_4d/output_0_split_3
I0711 11:15:37.785702 122639 net.cpp:411] inception_4d/output_inception_4d/output_0_split -> inception_4d/output_inception_4d/output_0_split_4
I0711 11:15:37.785815 122639 net.cpp:150] Setting up inception_4d/output_inception_4d/output_0_split
I0711 11:15:37.785840 122639 net.cpp:157] Top shape: 32 528 14 14 (3311616)
I0711 11:15:37.785850 122639 net.cpp:157] Top shape: 32 528 14 14 (3311616)
I0711 11:15:37.785857 122639 net.cpp:157] Top shape: 32 528 14 14 (3311616)
I0711 11:15:37.785866 122639 net.cpp:157] Top shape: 32 528 14 14 (3311616)
I0711 11:15:37.785876 122639 net.cpp:157] Top shape: 32 528 14 14 (3311616)
I0711 11:15:37.785883 122639 net.cpp:165] Memory required for data: 1609204484
I0711 11:15:37.785892 122639 layer_factory.hpp:76] Creating layer loss2/ave_pool
I0711 11:15:37.785902 122639 net.cpp:106] Creating Layer loss2/ave_pool
I0711 11:15:37.785910 122639 net.cpp:454] loss2/ave_pool <- inception_4d/output_inception_4d/output_0_split_0
I0711 11:15:37.785922 122639 net.cpp:411] loss2/ave_pool -> loss2/ave_pool
I0711 11:15:37.786171 122639 net.cpp:150] Setting up loss2/ave_pool
I0711 11:15:37.786200 122639 net.cpp:157] Top shape: 32 528 4 4 (270336)
I0711 11:15:37.786208 122639 net.cpp:165] Memory required for data: 1610285828
I0711 11:15:37.786217 122639 layer_factory.hpp:76] Creating layer loss2/conv
I0711 11:15:37.786233 122639 net.cpp:106] Creating Layer loss2/conv
I0711 11:15:37.786242 122639 net.cpp:454] loss2/conv <- loss2/ave_pool
I0711 11:15:37.786255 122639 net.cpp:411] loss2/conv -> loss2/conv
I0711 11:15:37.788828 122639 cudnn_conv_layer.cpp:194] Reallocating workspace storage: 6336
I0711 11:15:37.788892 122639 net.cpp:150] Setting up loss2/conv
I0711 11:15:37.788909 122639 net.cpp:157] Top shape: 32 128 4 4 (65536)
I0711 11:15:37.788918 122639 net.cpp:165] Memory required for data: 1610547972
I0711 11:15:37.788930 122639 layer_factory.hpp:76] Creating layer loss2/relu_conv
I0711 11:15:37.788944 122639 net.cpp:106] Creating Layer loss2/relu_conv
I0711 11:15:37.788971 122639 net.cpp:454] loss2/relu_conv <- loss2/conv
I0711 11:15:37.788983 122639 net.cpp:397] loss2/relu_conv -> loss2/conv (in-place)
I0711 11:15:37.789383 122639 net.cpp:150] Setting up loss2/relu_conv
I0711 11:15:37.789417 122639 net.cpp:157] Top shape: 32 128 4 4 (65536)
I0711 11:15:37.789427 122639 net.cpp:165] Memory required for data: 1610810116
I0711 11:15:37.789435 122639 layer_factory.hpp:76] Creating layer loss2/fc
I0711 11:15:37.789449 122639 net.cpp:106] Creating Layer loss2/fc
I0711 11:15:37.789458 122639 net.cpp:454] loss2/fc <- loss2/conv
I0711 11:15:37.789471 122639 net.cpp:411] loss2/fc -> loss2/fc
I0711 11:15:37.812017 122639 net.cpp:150] Setting up loss2/fc
I0711 11:15:37.812055 122639 net.cpp:157] Top shape: 32 1024 (32768)
I0711 11:15:37.812064 122639 net.cpp:165] Memory required for data: 1610941188
I0711 11:15:37.812082 122639 layer_factory.hpp:76] Creating layer loss2/relu_fc
I0711 11:15:37.812100 122639 net.cpp:106] Creating Layer loss2/relu_fc
I0711 11:15:37.812113 122639 net.cpp:454] loss2/relu_fc <- loss2/fc
I0711 11:15:37.812124 122639 net.cpp:397] loss2/relu_fc -> loss2/fc (in-place)
I0711 11:15:37.812453 122639 net.cpp:150] Setting up loss2/relu_fc
I0711 11:15:37.812481 122639 net.cpp:157] Top shape: 32 1024 (32768)
I0711 11:15:37.812490 122639 net.cpp:165] Memory required for data: 1611072260
I0711 11:15:37.812500 122639 layer_factory.hpp:76] Creating layer loss2/drop_fc
I0711 11:15:37.812516 122639 net.cpp:106] Creating Layer loss2/drop_fc
I0711 11:15:37.812525 122639 net.cpp:454] loss2/drop_fc <- loss2/fc
I0711 11:15:37.812537 122639 net.cpp:397] loss2/drop_fc -> loss2/fc (in-place)
I0711 11:15:37.812577 122639 net.cpp:150] Setting up loss2/drop_fc
I0711 11:15:37.812589 122639 net.cpp:157] Top shape: 32 1024 (32768)
I0711 11:15:37.812597 122639 net.cpp:165] Memory required for data: 1611203332
I0711 11:15:37.812605 122639 layer_factory.hpp:76] Creating layer loss2/classifier
I0711 11:15:37.812634 122639 net.cpp:106] Creating Layer loss2/classifier
I0711 11:15:37.812644 122639 net.cpp:454] loss2/classifier <- loss2/fc
I0711 11:15:37.812654 122639 net.cpp:411] loss2/classifier -> loss2/classifier
I0711 11:15:37.812876 122639 net.cpp:150] Setting up loss2/classifier
I0711 11:15:37.812891 122639 net.cpp:157] Top shape: 32 2 (64)
I0711 11:15:37.812911 122639 net.cpp:165] Memory required for data: 1611203588
I0711 11:15:37.812922 122639 layer_factory.hpp:76] Creating layer loss2/loss
I0711 11:15:37.812938 122639 net.cpp:106] Creating Layer loss2/loss
I0711 11:15:37.812947 122639 net.cpp:454] loss2/loss <- loss2/classifier
I0711 11:15:37.812957 122639 net.cpp:454] loss2/loss <- label_data_1_split_1
I0711 11:15:37.812968 122639 net.cpp:411] loss2/loss -> loss2/loss1
I0711 11:15:37.812980 122639 layer_factory.hpp:76] Creating layer loss2/loss
I0711 11:15:37.813648 122639 net.cpp:150] Setting up loss2/loss
I0711 11:15:37.813679 122639 net.cpp:157] Top shape: (1)
I0711 11:15:37.813689 122639 net.cpp:160]     with loss weight 0.3
I0711 11:15:37.813704 122639 net.cpp:165] Memory required for data: 1611203592
I0711 11:15:37.813714 122639 layer_factory.hpp:76] Creating layer inception_4e/1x1
I0711 11:15:37.813730 122639 net.cpp:106] Creating Layer inception_4e/1x1
I0711 11:15:37.813740 122639 net.cpp:454] inception_4e/1x1 <- inception_4d/output_inception_4d/output_0_split_1
I0711 11:15:37.813755 122639 net.cpp:411] inception_4e/1x1 -> inception_4e/1x1
I0711 11:15:37.816206 122639 cudnn_conv_layer.cpp:194] Reallocating workspace storage: 6336
I0711 11:15:37.816270 122639 net.cpp:150] Setting up inception_4e/1x1
I0711 11:15:37.816285 122639 net.cpp:157] Top shape: 32 256 14 14 (1605632)
I0711 11:15:37.816293 122639 net.cpp:165] Memory required for data: 1617626120
I0711 11:15:37.816305 122639 layer_factory.hpp:76] Creating layer inception_4e/relu_1x1
I0711 11:15:37.816318 122639 net.cpp:106] Creating Layer inception_4e/relu_1x1
I0711 11:15:37.816328 122639 net.cpp:454] inception_4e/relu_1x1 <- inception_4e/1x1
I0711 11:15:37.816340 122639 net.cpp:397] inception_4e/relu_1x1 -> inception_4e/1x1 (in-place)
I0711 11:15:37.816617 122639 net.cpp:150] Setting up inception_4e/relu_1x1
I0711 11:15:37.816648 122639 net.cpp:157] Top shape: 32 256 14 14 (1605632)
I0711 11:15:37.816656 122639 net.cpp:165] Memory required for data: 1624048648
I0711 11:15:37.816665 122639 layer_factory.hpp:76] Creating layer inception_4e/3x3_reduce
I0711 11:15:37.816679 122639 net.cpp:106] Creating Layer inception_4e/3x3_reduce
I0711 11:15:37.816687 122639 net.cpp:454] inception_4e/3x3_reduce <- inception_4d/output_inception_4d/output_0_split_2
I0711 11:15:37.816701 122639 net.cpp:411] inception_4e/3x3_reduce -> inception_4e/3x3_reduce
I0711 11:15:37.819341 122639 cudnn_conv_layer.cpp:194] Reallocating workspace storage: 6336
I0711 11:15:37.819397 122639 net.cpp:150] Setting up inception_4e/3x3_reduce
I0711 11:15:37.819416 122639 net.cpp:157] Top shape: 32 160 14 14 (1003520)
I0711 11:15:37.819423 122639 net.cpp:165] Memory required for data: 1628062728
I0711 11:15:37.819435 122639 layer_factory.hpp:76] Creating layer inception_4e/relu_3x3_reduce
I0711 11:15:37.819450 122639 net.cpp:106] Creating Layer inception_4e/relu_3x3_reduce
I0711 11:15:37.819460 122639 net.cpp:454] inception_4e/relu_3x3_reduce <- inception_4e/3x3_reduce
I0711 11:15:37.819470 122639 net.cpp:397] inception_4e/relu_3x3_reduce -> inception_4e/3x3_reduce (in-place)
I0711 11:15:37.819741 122639 net.cpp:150] Setting up inception_4e/relu_3x3_reduce
I0711 11:15:37.819772 122639 net.cpp:157] Top shape: 32 160 14 14 (1003520)
I0711 11:15:37.819782 122639 net.cpp:165] Memory required for data: 1632076808
I0711 11:15:37.819789 122639 layer_factory.hpp:76] Creating layer inception_4e/3x3
I0711 11:15:37.819804 122639 net.cpp:106] Creating Layer inception_4e/3x3
I0711 11:15:37.819814 122639 net.cpp:454] inception_4e/3x3 <- inception_4e/3x3_reduce
I0711 11:15:37.819824 122639 net.cpp:411] inception_4e/3x3 -> inception_4e/3x3
I0711 11:15:37.825964 122639 cudnn_conv_layer.cpp:194] Reallocating workspace storage: 17280
I0711 11:15:37.826015 122639 net.cpp:150] Setting up inception_4e/3x3
I0711 11:15:37.826030 122639 net.cpp:157] Top shape: 32 320 14 14 (2007040)
I0711 11:15:37.826038 122639 net.cpp:165] Memory required for data: 1640104968
I0711 11:15:37.826051 122639 layer_factory.hpp:76] Creating layer inception_4e/relu_3x3
I0711 11:15:37.826067 122639 net.cpp:106] Creating Layer inception_4e/relu_3x3
I0711 11:15:37.826078 122639 net.cpp:454] inception_4e/relu_3x3 <- inception_4e/3x3
I0711 11:15:37.826091 122639 net.cpp:397] inception_4e/relu_3x3 -> inception_4e/3x3 (in-place)
I0711 11:15:37.826522 122639 net.cpp:150] Setting up inception_4e/relu_3x3
I0711 11:15:37.826545 122639 net.cpp:157] Top shape: 32 320 14 14 (2007040)
I0711 11:15:37.826553 122639 net.cpp:165] Memory required for data: 1648133128
I0711 11:15:37.826562 122639 layer_factory.hpp:76] Creating layer inception_4e/5x5_reduce
I0711 11:15:37.826581 122639 net.cpp:106] Creating Layer inception_4e/5x5_reduce
I0711 11:15:37.826591 122639 net.cpp:454] inception_4e/5x5_reduce <- inception_4d/output_inception_4d/output_0_split_3
I0711 11:15:37.826601 122639 net.cpp:411] inception_4e/5x5_reduce -> inception_4e/5x5_reduce
I0711 11:15:37.828104 122639 net.cpp:150] Setting up inception_4e/5x5_reduce
I0711 11:15:37.828137 122639 net.cpp:157] Top shape: 32 32 14 14 (200704)
I0711 11:15:37.828147 122639 net.cpp:165] Memory required for data: 1648935944
I0711 11:15:37.828160 122639 layer_factory.hpp:76] Creating layer inception_4e/relu_5x5_reduce
I0711 11:15:37.828176 122639 net.cpp:106] Creating Layer inception_4e/relu_5x5_reduce
I0711 11:15:37.828186 122639 net.cpp:454] inception_4e/relu_5x5_reduce <- inception_4e/5x5_reduce
I0711 11:15:37.828197 122639 net.cpp:397] inception_4e/relu_5x5_reduce -> inception_4e/5x5_reduce (in-place)
I0711 11:15:37.828438 122639 net.cpp:150] Setting up inception_4e/relu_5x5_reduce
I0711 11:15:37.828466 122639 net.cpp:157] Top shape: 32 32 14 14 (200704)
I0711 11:15:37.828475 122639 net.cpp:165] Memory required for data: 1649738760
I0711 11:15:37.828483 122639 layer_factory.hpp:76] Creating layer inception_4e/5x5
I0711 11:15:37.828553 122639 net.cpp:106] Creating Layer inception_4e/5x5
I0711 11:15:37.828567 122639 net.cpp:454] inception_4e/5x5 <- inception_4e/5x5_reduce
I0711 11:15:37.828580 122639 net.cpp:411] inception_4e/5x5 -> inception_4e/5x5
I0711 11:15:37.830699 122639 net.cpp:150] Setting up inception_4e/5x5
I0711 11:15:37.830732 122639 net.cpp:157] Top shape: 32 128 14 14 (802816)
I0711 11:15:37.830754 122639 net.cpp:165] Memory required for data: 1652950024
I0711 11:15:37.830776 122639 layer_factory.hpp:76] Creating layer inception_4e/relu_5x5
I0711 11:15:37.830790 122639 net.cpp:106] Creating Layer inception_4e/relu_5x5
I0711 11:15:37.830797 122639 net.cpp:454] inception_4e/relu_5x5 <- inception_4e/5x5
I0711 11:15:37.830811 122639 net.cpp:397] inception_4e/relu_5x5 -> inception_4e/5x5 (in-place)
I0711 11:15:37.831045 122639 net.cpp:150] Setting up inception_4e/relu_5x5
I0711 11:15:37.831076 122639 net.cpp:157] Top shape: 32 128 14 14 (802816)
I0711 11:15:37.831085 122639 net.cpp:165] Memory required for data: 1656161288
I0711 11:15:37.831094 122639 layer_factory.hpp:76] Creating layer inception_4e/pool
I0711 11:15:37.831105 122639 net.cpp:106] Creating Layer inception_4e/pool
I0711 11:15:37.831115 122639 net.cpp:454] inception_4e/pool <- inception_4d/output_inception_4d/output_0_split_4
I0711 11:15:37.831135 122639 net.cpp:411] inception_4e/pool -> inception_4e/pool
I0711 11:15:37.831547 122639 net.cpp:150] Setting up inception_4e/pool
I0711 11:15:37.831578 122639 net.cpp:157] Top shape: 32 528 14 14 (3311616)
I0711 11:15:37.831586 122639 net.cpp:165] Memory required for data: 1669407752
I0711 11:15:37.831594 122639 layer_factory.hpp:76] Creating layer inception_4e/pool_proj
I0711 11:15:37.831610 122639 net.cpp:106] Creating Layer inception_4e/pool_proj
I0711 11:15:37.831619 122639 net.cpp:454] inception_4e/pool_proj <- inception_4e/pool
I0711 11:15:37.831631 122639 net.cpp:411] inception_4e/pool_proj -> inception_4e/pool_proj
I0711 11:15:37.833428 122639 cudnn_conv_layer.cpp:194] Reallocating workspace storage: 6336
I0711 11:15:37.833488 122639 net.cpp:150] Setting up inception_4e/pool_proj
I0711 11:15:37.833503 122639 net.cpp:157] Top shape: 32 128 14 14 (802816)
I0711 11:15:37.833510 122639 net.cpp:165] Memory required for data: 1672619016
I0711 11:15:37.833521 122639 layer_factory.hpp:76] Creating layer inception_4e/relu_pool_proj
I0711 11:15:37.833535 122639 net.cpp:106] Creating Layer inception_4e/relu_pool_proj
I0711 11:15:37.833544 122639 net.cpp:454] inception_4e/relu_pool_proj <- inception_4e/pool_proj
I0711 11:15:37.833554 122639 net.cpp:397] inception_4e/relu_pool_proj -> inception_4e/pool_proj (in-place)
I0711 11:15:37.833786 122639 net.cpp:150] Setting up inception_4e/relu_pool_proj
I0711 11:15:37.833813 122639 net.cpp:157] Top shape: 32 128 14 14 (802816)
I0711 11:15:37.833822 122639 net.cpp:165] Memory required for data: 1675830280
I0711 11:15:37.833829 122639 layer_factory.hpp:76] Creating layer inception_4e/output
I0711 11:15:37.833843 122639 net.cpp:106] Creating Layer inception_4e/output
I0711 11:15:37.833852 122639 net.cpp:454] inception_4e/output <- inception_4e/1x1
I0711 11:15:37.833861 122639 net.cpp:454] inception_4e/output <- inception_4e/3x3
I0711 11:15:37.833869 122639 net.cpp:454] inception_4e/output <- inception_4e/5x5
I0711 11:15:37.833878 122639 net.cpp:454] inception_4e/output <- inception_4e/pool_proj
I0711 11:15:37.833889 122639 net.cpp:411] inception_4e/output -> inception_4e/output
I0711 11:15:37.833932 122639 net.cpp:150] Setting up inception_4e/output
I0711 11:15:37.833946 122639 net.cpp:157] Top shape: 32 832 14 14 (5218304)
I0711 11:15:37.833953 122639 net.cpp:165] Memory required for data: 1696703496
I0711 11:15:37.833961 122639 layer_factory.hpp:76] Creating layer pool4/3x3_s2
I0711 11:15:37.833986 122639 net.cpp:106] Creating Layer pool4/3x3_s2
I0711 11:15:37.833994 122639 net.cpp:454] pool4/3x3_s2 <- inception_4e/output
I0711 11:15:37.834004 122639 net.cpp:411] pool4/3x3_s2 -> pool4/3x3_s2
I0711 11:15:37.834430 122639 net.cpp:150] Setting up pool4/3x3_s2
I0711 11:15:37.834475 122639 net.cpp:157] Top shape: 32 832 7 7 (1304576)
I0711 11:15:37.834484 122639 net.cpp:165] Memory required for data: 1701921800
I0711 11:15:37.834494 122639 layer_factory.hpp:76] Creating layer pool4/3x3_s2_pool4/3x3_s2_0_split
I0711 11:15:37.834507 122639 net.cpp:106] Creating Layer pool4/3x3_s2_pool4/3x3_s2_0_split
I0711 11:15:37.834517 122639 net.cpp:454] pool4/3x3_s2_pool4/3x3_s2_0_split <- pool4/3x3_s2
I0711 11:15:37.834527 122639 net.cpp:411] pool4/3x3_s2_pool4/3x3_s2_0_split -> pool4/3x3_s2_pool4/3x3_s2_0_split_0
I0711 11:15:37.834542 122639 net.cpp:411] pool4/3x3_s2_pool4/3x3_s2_0_split -> pool4/3x3_s2_pool4/3x3_s2_0_split_1
I0711 11:15:37.834553 122639 net.cpp:411] pool4/3x3_s2_pool4/3x3_s2_0_split -> pool4/3x3_s2_pool4/3x3_s2_0_split_2
I0711 11:15:37.834565 122639 net.cpp:411] pool4/3x3_s2_pool4/3x3_s2_0_split -> pool4/3x3_s2_pool4/3x3_s2_0_split_3
I0711 11:15:37.834671 122639 net.cpp:150] Setting up pool4/3x3_s2_pool4/3x3_s2_0_split
I0711 11:15:37.834697 122639 net.cpp:157] Top shape: 32 832 7 7 (1304576)
I0711 11:15:37.834708 122639 net.cpp:157] Top shape: 32 832 7 7 (1304576)
I0711 11:15:37.834717 122639 net.cpp:157] Top shape: 32 832 7 7 (1304576)
I0711 11:15:37.834725 122639 net.cpp:157] Top shape: 32 832 7 7 (1304576)
I0711 11:15:37.834733 122639 net.cpp:165] Memory required for data: 1722795016
I0711 11:15:37.834741 122639 layer_factory.hpp:76] Creating layer inception_5a/1x1
I0711 11:15:37.834756 122639 net.cpp:106] Creating Layer inception_5a/1x1
I0711 11:15:37.834767 122639 net.cpp:454] inception_5a/1x1 <- pool4/3x3_s2_pool4/3x3_s2_0_split_0
I0711 11:15:37.834779 122639 net.cpp:411] inception_5a/1x1 -> inception_5a/1x1
I0711 11:15:37.838198 122639 cudnn_conv_layer.cpp:194] Reallocating workspace storage: 9984
I0711 11:15:37.838258 122639 net.cpp:150] Setting up inception_5a/1x1
I0711 11:15:37.838274 122639 net.cpp:157] Top shape: 32 256 7 7 (401408)
I0711 11:15:37.838281 122639 net.cpp:165] Memory required for data: 1724400648
I0711 11:15:37.838294 122639 layer_factory.hpp:76] Creating layer inception_5a/relu_1x1
I0711 11:15:37.838309 122639 net.cpp:106] Creating Layer inception_5a/relu_1x1
I0711 11:15:37.838318 122639 net.cpp:454] inception_5a/relu_1x1 <- inception_5a/1x1
I0711 11:15:37.838330 122639 net.cpp:397] inception_5a/relu_1x1 -> inception_5a/1x1 (in-place)
I0711 11:15:37.838557 122639 net.cpp:150] Setting up inception_5a/relu_1x1
I0711 11:15:37.838583 122639 net.cpp:157] Top shape: 32 256 7 7 (401408)
I0711 11:15:37.838593 122639 net.cpp:165] Memory required for data: 1726006280
I0711 11:15:37.838600 122639 layer_factory.hpp:76] Creating layer inception_5a/3x3_reduce
I0711 11:15:37.838618 122639 net.cpp:106] Creating Layer inception_5a/3x3_reduce
I0711 11:15:37.838626 122639 net.cpp:454] inception_5a/3x3_reduce <- pool4/3x3_s2_pool4/3x3_s2_0_split_1
I0711 11:15:37.838644 122639 net.cpp:411] inception_5a/3x3_reduce -> inception_5a/3x3_reduce
I0711 11:15:37.841879 122639 cudnn_conv_layer.cpp:194] Reallocating workspace storage: 9984
I0711 11:15:37.841938 122639 net.cpp:150] Setting up inception_5a/3x3_reduce
I0711 11:15:37.841955 122639 net.cpp:157] Top shape: 32 160 7 7 (250880)
I0711 11:15:37.841964 122639 net.cpp:165] Memory required for data: 1727009800
I0711 11:15:37.841975 122639 layer_factory.hpp:76] Creating layer inception_5a/relu_3x3_reduce
I0711 11:15:37.841990 122639 net.cpp:106] Creating Layer inception_5a/relu_3x3_reduce
I0711 11:15:37.842000 122639 net.cpp:454] inception_5a/relu_3x3_reduce <- inception_5a/3x3_reduce
I0711 11:15:37.842010 122639 net.cpp:397] inception_5a/relu_3x3_reduce -> inception_5a/3x3_reduce (in-place)
I0711 11:15:37.842494 122639 net.cpp:150] Setting up inception_5a/relu_3x3_reduce
I0711 11:15:37.842527 122639 net.cpp:157] Top shape: 32 160 7 7 (250880)
I0711 11:15:37.842536 122639 net.cpp:165] Memory required for data: 1728013320
I0711 11:15:37.842545 122639 layer_factory.hpp:76] Creating layer inception_5a/3x3
I0711 11:15:37.842559 122639 net.cpp:106] Creating Layer inception_5a/3x3
I0711 11:15:37.842568 122639 net.cpp:454] inception_5a/3x3 <- inception_5a/3x3_reduce
I0711 11:15:37.842602 122639 net.cpp:411] inception_5a/3x3 -> inception_5a/3x3
I0711 11:15:37.848367 122639 net.cpp:150] Setting up inception_5a/3x3
I0711 11:15:37.848408 122639 net.cpp:157] Top shape: 32 320 7 7 (501760)
I0711 11:15:37.848417 122639 net.cpp:165] Memory required for data: 1730020360
I0711 11:15:37.848431 122639 layer_factory.hpp:76] Creating layer inception_5a/relu_3x3
I0711 11:15:37.848444 122639 net.cpp:106] Creating Layer inception_5a/relu_3x3
I0711 11:15:37.848456 122639 net.cpp:454] inception_5a/relu_3x3 <- inception_5a/3x3
I0711 11:15:37.848469 122639 net.cpp:397] inception_5a/relu_3x3 -> inception_5a/3x3 (in-place)
I0711 11:15:37.848920 122639 net.cpp:150] Setting up inception_5a/relu_3x3
I0711 11:15:37.848940 122639 net.cpp:157] Top shape: 32 320 7 7 (501760)
I0711 11:15:37.848948 122639 net.cpp:165] Memory required for data: 1732027400
I0711 11:15:37.848958 122639 layer_factory.hpp:76] Creating layer inception_5a/5x5_reduce
I0711 11:15:37.848975 122639 net.cpp:106] Creating Layer inception_5a/5x5_reduce
I0711 11:15:37.848985 122639 net.cpp:454] inception_5a/5x5_reduce <- pool4/3x3_s2_pool4/3x3_s2_0_split_2
I0711 11:15:37.848999 122639 net.cpp:411] inception_5a/5x5_reduce -> inception_5a/5x5_reduce
I0711 11:15:37.850602 122639 cudnn_conv_layer.cpp:194] Reallocating workspace storage: 9984
I0711 11:15:37.850689 122639 net.cpp:150] Setting up inception_5a/5x5_reduce
I0711 11:15:37.850706 122639 net.cpp:157] Top shape: 32 32 7 7 (50176)
I0711 11:15:37.850715 122639 net.cpp:165] Memory required for data: 1732228104
I0711 11:15:37.850728 122639 layer_factory.hpp:76] Creating layer inception_5a/relu_5x5_reduce
I0711 11:15:37.850754 122639 net.cpp:106] Creating Layer inception_5a/relu_5x5_reduce
I0711 11:15:37.850775 122639 net.cpp:454] inception_5a/relu_5x5_reduce <- inception_5a/5x5_reduce
I0711 11:15:37.850785 122639 net.cpp:397] inception_5a/relu_5x5_reduce -> inception_5a/5x5_reduce (in-place)
I0711 11:15:37.851023 122639 net.cpp:150] Setting up inception_5a/relu_5x5_reduce
I0711 11:15:37.851050 122639 net.cpp:157] Top shape: 32 32 7 7 (50176)
I0711 11:15:37.851058 122639 net.cpp:165] Memory required for data: 1732428808
I0711 11:15:37.851066 122639 layer_factory.hpp:76] Creating layer inception_5a/5x5
I0711 11:15:37.851081 122639 net.cpp:106] Creating Layer inception_5a/5x5
I0711 11:15:37.851090 122639 net.cpp:454] inception_5a/5x5 <- inception_5a/5x5_reduce
I0711 11:15:37.851100 122639 net.cpp:411] inception_5a/5x5 -> inception_5a/5x5
I0711 11:15:37.853121 122639 net.cpp:150] Setting up inception_5a/5x5
I0711 11:15:37.853157 122639 net.cpp:157] Top shape: 32 128 7 7 (200704)
I0711 11:15:37.853164 122639 net.cpp:165] Memory required for data: 1733231624
I0711 11:15:37.853184 122639 layer_factory.hpp:76] Creating layer inception_5a/relu_5x5
I0711 11:15:37.853210 122639 net.cpp:106] Creating Layer inception_5a/relu_5x5
I0711 11:15:37.853219 122639 net.cpp:454] inception_5a/relu_5x5 <- inception_5a/5x5
I0711 11:15:37.853230 122639 net.cpp:397] inception_5a/relu_5x5 -> inception_5a/5x5 (in-place)
I0711 11:15:37.853615 122639 net.cpp:150] Setting up inception_5a/relu_5x5
I0711 11:15:37.853644 122639 net.cpp:157] Top shape: 32 128 7 7 (200704)
I0711 11:15:37.853654 122639 net.cpp:165] Memory required for data: 1734034440
I0711 11:15:37.853662 122639 layer_factory.hpp:76] Creating layer inception_5a/pool
I0711 11:15:37.853675 122639 net.cpp:106] Creating Layer inception_5a/pool
I0711 11:15:37.853684 122639 net.cpp:454] inception_5a/pool <- pool4/3x3_s2_pool4/3x3_s2_0_split_3
I0711 11:15:37.853695 122639 net.cpp:411] inception_5a/pool -> inception_5a/pool
I0711 11:15:37.853976 122639 net.cpp:150] Setting up inception_5a/pool
I0711 11:15:37.854006 122639 net.cpp:157] Top shape: 32 832 7 7 (1304576)
I0711 11:15:37.854014 122639 net.cpp:165] Memory required for data: 1739252744
I0711 11:15:37.854023 122639 layer_factory.hpp:76] Creating layer inception_5a/pool_proj
I0711 11:15:37.854039 122639 net.cpp:106] Creating Layer inception_5a/pool_proj
I0711 11:15:37.854069 122639 net.cpp:454] inception_5a/pool_proj <- inception_5a/pool
I0711 11:15:37.854084 122639 net.cpp:411] inception_5a/pool_proj -> inception_5a/pool_proj
I0711 11:15:37.859014 122639 cudnn_conv_layer.cpp:194] Reallocating workspace storage: 9984
I0711 11:15:37.859089 122639 net.cpp:150] Setting up inception_5a/pool_proj
I0711 11:15:37.859107 122639 net.cpp:157] Top shape: 32 128 7 7 (200704)
I0711 11:15:37.859115 122639 net.cpp:165] Memory required for data: 1740055560
I0711 11:15:37.859133 122639 layer_factory.hpp:76] Creating layer inception_5a/relu_pool_proj
I0711 11:15:37.859146 122639 net.cpp:106] Creating Layer inception_5a/relu_pool_proj
I0711 11:15:37.859160 122639 net.cpp:454] inception_5a/relu_pool_proj <- inception_5a/pool_proj
I0711 11:15:37.859171 122639 net.cpp:397] inception_5a/relu_pool_proj -> inception_5a/pool_proj (in-place)
I0711 11:15:37.859407 122639 net.cpp:150] Setting up inception_5a/relu_pool_proj
I0711 11:15:37.859436 122639 net.cpp:157] Top shape: 32 128 7 7 (200704)
I0711 11:15:37.859443 122639 net.cpp:165] Memory required for data: 1740858376
I0711 11:15:37.859452 122639 layer_factory.hpp:76] Creating layer inception_5a/output
I0711 11:15:37.859467 122639 net.cpp:106] Creating Layer inception_5a/output
I0711 11:15:37.859477 122639 net.cpp:454] inception_5a/output <- inception_5a/1x1
I0711 11:15:37.859486 122639 net.cpp:454] inception_5a/output <- inception_5a/3x3
I0711 11:15:37.859495 122639 net.cpp:454] inception_5a/output <- inception_5a/5x5
I0711 11:15:37.859504 122639 net.cpp:454] inception_5a/output <- inception_5a/pool_proj
I0711 11:15:37.859513 122639 net.cpp:411] inception_5a/output -> inception_5a/output
I0711 11:15:37.859562 122639 net.cpp:150] Setting up inception_5a/output
I0711 11:15:37.859576 122639 net.cpp:157] Top shape: 32 832 7 7 (1304576)
I0711 11:15:37.859585 122639 net.cpp:165] Memory required for data: 1746076680
I0711 11:15:37.859593 122639 layer_factory.hpp:76] Creating layer inception_5a/output_inception_5a/output_0_split
I0711 11:15:37.859606 122639 net.cpp:106] Creating Layer inception_5a/output_inception_5a/output_0_split
I0711 11:15:37.859614 122639 net.cpp:454] inception_5a/output_inception_5a/output_0_split <- inception_5a/output
I0711 11:15:37.859627 122639 net.cpp:411] inception_5a/output_inception_5a/output_0_split -> inception_5a/output_inception_5a/output_0_split_0
I0711 11:15:37.859639 122639 net.cpp:411] inception_5a/output_inception_5a/output_0_split -> inception_5a/output_inception_5a/output_0_split_1
I0711 11:15:37.859650 122639 net.cpp:411] inception_5a/output_inception_5a/output_0_split -> inception_5a/output_inception_5a/output_0_split_2
I0711 11:15:37.859661 122639 net.cpp:411] inception_5a/output_inception_5a/output_0_split -> inception_5a/output_inception_5a/output_0_split_3
I0711 11:15:37.859763 122639 net.cpp:150] Setting up inception_5a/output_inception_5a/output_0_split
I0711 11:15:37.859788 122639 net.cpp:157] Top shape: 32 832 7 7 (1304576)
I0711 11:15:37.859797 122639 net.cpp:157] Top shape: 32 832 7 7 (1304576)
I0711 11:15:37.859805 122639 net.cpp:157] Top shape: 32 832 7 7 (1304576)
I0711 11:15:37.859814 122639 net.cpp:157] Top shape: 32 832 7 7 (1304576)
I0711 11:15:37.859822 122639 net.cpp:165] Memory required for data: 1766949896
I0711 11:15:37.859829 122639 layer_factory.hpp:76] Creating layer inception_5b/1x1
I0711 11:15:37.859848 122639 net.cpp:106] Creating Layer inception_5b/1x1
I0711 11:15:37.859856 122639 net.cpp:454] inception_5b/1x1 <- inception_5a/output_inception_5a/output_0_split_0
I0711 11:15:37.859866 122639 net.cpp:411] inception_5b/1x1 -> inception_5b/1x1
I0711 11:15:37.864573 122639 cudnn_conv_layer.cpp:194] Reallocating workspace storage: 9984
I0711 11:15:37.864631 122639 net.cpp:150] Setting up inception_5b/1x1
I0711 11:15:37.864650 122639 net.cpp:157] Top shape: 32 384 7 7 (602112)
I0711 11:15:37.864658 122639 net.cpp:165] Memory required for data: 1769358344
I0711 11:15:37.864671 122639 layer_factory.hpp:76] Creating layer inception_5b/relu_1x1
I0711 11:15:37.864684 122639 net.cpp:106] Creating Layer inception_5b/relu_1x1
I0711 11:15:37.864712 122639 net.cpp:454] inception_5b/relu_1x1 <- inception_5b/1x1
I0711 11:15:37.864723 122639 net.cpp:397] inception_5b/relu_1x1 -> inception_5b/1x1 (in-place)
I0711 11:15:37.865090 122639 net.cpp:150] Setting up inception_5b/relu_1x1
I0711 11:15:37.865120 122639 net.cpp:157] Top shape: 32 384 7 7 (602112)
I0711 11:15:37.865129 122639 net.cpp:165] Memory required for data: 1771766792
I0711 11:15:37.865139 122639 layer_factory.hpp:76] Creating layer inception_5b/3x3_reduce
I0711 11:15:37.865154 122639 net.cpp:106] Creating Layer inception_5b/3x3_reduce
I0711 11:15:37.865162 122639 net.cpp:454] inception_5b/3x3_reduce <- inception_5a/output_inception_5a/output_0_split_1
I0711 11:15:37.865173 122639 net.cpp:411] inception_5b/3x3_reduce -> inception_5b/3x3_reduce
I0711 11:15:37.868279 122639 cudnn_conv_layer.cpp:194] Reallocating workspace storage: 9984
I0711 11:15:37.868335 122639 net.cpp:150] Setting up inception_5b/3x3_reduce
I0711 11:15:37.868351 122639 net.cpp:157] Top shape: 32 192 7 7 (301056)
I0711 11:15:37.868360 122639 net.cpp:165] Memory required for data: 1772971016
I0711 11:15:37.868371 122639 layer_factory.hpp:76] Creating layer inception_5b/relu_3x3_reduce
I0711 11:15:37.868386 122639 net.cpp:106] Creating Layer inception_5b/relu_3x3_reduce
I0711 11:15:37.868396 122639 net.cpp:454] inception_5b/relu_3x3_reduce <- inception_5b/3x3_reduce
I0711 11:15:37.868405 122639 net.cpp:397] inception_5b/relu_3x3_reduce -> inception_5b/3x3_reduce (in-place)
I0711 11:15:37.868636 122639 net.cpp:150] Setting up inception_5b/relu_3x3_reduce
I0711 11:15:37.868664 122639 net.cpp:157] Top shape: 32 192 7 7 (301056)
I0711 11:15:37.868672 122639 net.cpp:165] Memory required for data: 1774175240
I0711 11:15:37.868680 122639 layer_factory.hpp:76] Creating layer inception_5b/3x3
I0711 11:15:37.868696 122639 net.cpp:106] Creating Layer inception_5b/3x3
I0711 11:15:37.868705 122639 net.cpp:454] inception_5b/3x3 <- inception_5b/3x3_reduce
I0711 11:15:37.868717 122639 net.cpp:411] inception_5b/3x3 -> inception_5b/3x3
I0711 11:15:37.876890 122639 cudnn_conv_layer.cpp:194] Reallocating workspace storage: 20736
I0711 11:15:37.876950 122639 net.cpp:150] Setting up inception_5b/3x3
I0711 11:15:37.876967 122639 net.cpp:157] Top shape: 32 384 7 7 (602112)
I0711 11:15:37.876976 122639 net.cpp:165] Memory required for data: 1776583688
I0711 11:15:37.876992 122639 layer_factory.hpp:76] Creating layer inception_5b/relu_3x3
I0711 11:15:37.877007 122639 net.cpp:106] Creating Layer inception_5b/relu_3x3
I0711 11:15:37.877020 122639 net.cpp:454] inception_5b/relu_3x3 <- inception_5b/3x3
I0711 11:15:37.877032 122639 net.cpp:397] inception_5b/relu_3x3 -> inception_5b/3x3 (in-place)
I0711 11:15:37.877274 122639 net.cpp:150] Setting up inception_5b/relu_3x3
I0711 11:15:37.877301 122639 net.cpp:157] Top shape: 32 384 7 7 (602112)
I0711 11:15:37.877310 122639 net.cpp:165] Memory required for data: 1778992136
I0711 11:15:37.877317 122639 layer_factory.hpp:76] Creating layer inception_5b/5x5_reduce
I0711 11:15:37.877334 122639 net.cpp:106] Creating Layer inception_5b/5x5_reduce
I0711 11:15:37.877343 122639 net.cpp:454] inception_5b/5x5_reduce <- inception_5a/output_inception_5a/output_0_split_2
I0711 11:15:37.877356 122639 net.cpp:411] inception_5b/5x5_reduce -> inception_5b/5x5_reduce
I0711 11:15:37.879837 122639 net.cpp:150] Setting up inception_5b/5x5_reduce
I0711 11:15:37.879871 122639 net.cpp:157] Top shape: 32 48 7 7 (75264)
I0711 11:15:37.879881 122639 net.cpp:165] Memory required for data: 1779293192
I0711 11:15:37.879892 122639 layer_factory.hpp:76] Creating layer inception_5b/relu_5x5_reduce
I0711 11:15:37.879905 122639 net.cpp:106] Creating Layer inception_5b/relu_5x5_reduce
I0711 11:15:37.879915 122639 net.cpp:454] inception_5b/relu_5x5_reduce <- inception_5b/5x5_reduce
I0711 11:15:37.879930 122639 net.cpp:397] inception_5b/relu_5x5_reduce -> inception_5b/5x5_reduce (in-place)
I0711 11:15:37.880331 122639 net.cpp:150] Setting up inception_5b/relu_5x5_reduce
I0711 11:15:37.880362 122639 net.cpp:157] Top shape: 32 48 7 7 (75264)
I0711 11:15:37.880393 122639 net.cpp:165] Memory required for data: 1779594248
I0711 11:15:37.880403 122639 layer_factory.hpp:76] Creating layer inception_5b/5x5
I0711 11:15:37.880419 122639 net.cpp:106] Creating Layer inception_5b/5x5
I0711 11:15:37.880429 122639 net.cpp:454] inception_5b/5x5 <- inception_5b/5x5_reduce
I0711 11:15:37.880442 122639 net.cpp:411] inception_5b/5x5 -> inception_5b/5x5
I0711 11:15:37.882989 122639 net.cpp:150] Setting up inception_5b/5x5
I0711 11:15:37.883021 122639 net.cpp:157] Top shape: 32 128 7 7 (200704)
I0711 11:15:37.883030 122639 net.cpp:165] Memory required for data: 1780397064
I0711 11:15:37.883043 122639 layer_factory.hpp:76] Creating layer inception_5b/relu_5x5
I0711 11:15:37.883056 122639 net.cpp:106] Creating Layer inception_5b/relu_5x5
I0711 11:15:37.883066 122639 net.cpp:454] inception_5b/relu_5x5 <- inception_5b/5x5
I0711 11:15:37.883077 122639 net.cpp:397] inception_5b/relu_5x5 -> inception_5b/5x5 (in-place)
I0711 11:15:37.883309 122639 net.cpp:150] Setting up inception_5b/relu_5x5
I0711 11:15:37.883337 122639 net.cpp:157] Top shape: 32 128 7 7 (200704)
I0711 11:15:37.883347 122639 net.cpp:165] Memory required for data: 1781199880
I0711 11:15:37.883354 122639 layer_factory.hpp:76] Creating layer inception_5b/pool
I0711 11:15:37.883365 122639 net.cpp:106] Creating Layer inception_5b/pool
I0711 11:15:37.883374 122639 net.cpp:454] inception_5b/pool <- inception_5a/output_inception_5a/output_0_split_3
I0711 11:15:37.883384 122639 net.cpp:411] inception_5b/pool -> inception_5b/pool
I0711 11:15:37.883991 122639 net.cpp:150] Setting up inception_5b/pool
I0711 11:15:37.884024 122639 net.cpp:157] Top shape: 32 832 7 7 (1304576)
I0711 11:15:37.884033 122639 net.cpp:165] Memory required for data: 1786418184
I0711 11:15:37.884042 122639 layer_factory.hpp:76] Creating layer inception_5b/pool_proj
I0711 11:15:37.884057 122639 net.cpp:106] Creating Layer inception_5b/pool_proj
I0711 11:15:37.884068 122639 net.cpp:454] inception_5b/pool_proj <- inception_5b/pool
I0711 11:15:37.884078 122639 net.cpp:411] inception_5b/pool_proj -> inception_5b/pool_proj
I0711 11:15:37.886883 122639 cudnn_conv_layer.cpp:194] Reallocating workspace storage: 9984
I0711 11:15:37.886947 122639 net.cpp:150] Setting up inception_5b/pool_proj
I0711 11:15:37.886963 122639 net.cpp:157] Top shape: 32 128 7 7 (200704)
I0711 11:15:37.886972 122639 net.cpp:165] Memory required for data: 1787221000
I0711 11:15:37.886983 122639 layer_factory.hpp:76] Creating layer inception_5b/relu_pool_proj
I0711 11:15:37.886994 122639 net.cpp:106] Creating Layer inception_5b/relu_pool_proj
I0711 11:15:37.887003 122639 net.cpp:454] inception_5b/relu_pool_proj <- inception_5b/pool_proj
I0711 11:15:37.887017 122639 net.cpp:397] inception_5b/relu_pool_proj -> inception_5b/pool_proj (in-place)
I0711 11:15:37.887424 122639 net.cpp:150] Setting up inception_5b/relu_pool_proj
I0711 11:15:37.887454 122639 net.cpp:157] Top shape: 32 128 7 7 (200704)
I0711 11:15:37.887464 122639 net.cpp:165] Memory required for data: 1788023816
I0711 11:15:37.887471 122639 layer_factory.hpp:76] Creating layer inception_5b/output
I0711 11:15:37.887485 122639 net.cpp:106] Creating Layer inception_5b/output
I0711 11:15:37.887492 122639 net.cpp:454] inception_5b/output <- inception_5b/1x1
I0711 11:15:37.887502 122639 net.cpp:454] inception_5b/output <- inception_5b/3x3
I0711 11:15:37.887511 122639 net.cpp:454] inception_5b/output <- inception_5b/5x5
I0711 11:15:37.887519 122639 net.cpp:454] inception_5b/output <- inception_5b/pool_proj
I0711 11:15:37.887531 122639 net.cpp:411] inception_5b/output -> inception_5b/output
I0711 11:15:37.887579 122639 net.cpp:150] Setting up inception_5b/output
I0711 11:15:37.887594 122639 net.cpp:157] Top shape: 32 1024 7 7 (1605632)
I0711 11:15:37.887601 122639 net.cpp:165] Memory required for data: 1794446344
I0711 11:15:37.887609 122639 layer_factory.hpp:76] Creating layer pool5/7x7_s1
I0711 11:15:37.887620 122639 net.cpp:106] Creating Layer pool5/7x7_s1
I0711 11:15:37.887629 122639 net.cpp:454] pool5/7x7_s1 <- inception_5b/output
I0711 11:15:37.887656 122639 net.cpp:411] pool5/7x7_s1 -> pool5/7x7_s1
I0711 11:15:37.887922 122639 net.cpp:150] Setting up pool5/7x7_s1
I0711 11:15:37.887938 122639 net.cpp:157] Top shape: 32 1024 1 1 (32768)
I0711 11:15:37.887946 122639 net.cpp:165] Memory required for data: 1794577416
I0711 11:15:37.887954 122639 layer_factory.hpp:76] Creating layer pool5/drop_7x7_s1
I0711 11:15:37.887965 122639 net.cpp:106] Creating Layer pool5/drop_7x7_s1
I0711 11:15:37.887974 122639 net.cpp:454] pool5/drop_7x7_s1 <- pool5/7x7_s1
I0711 11:15:37.887985 122639 net.cpp:397] pool5/drop_7x7_s1 -> pool5/7x7_s1 (in-place)
I0711 11:15:37.888028 122639 net.cpp:150] Setting up pool5/drop_7x7_s1
I0711 11:15:37.888041 122639 net.cpp:157] Top shape: 32 1024 1 1 (32768)
I0711 11:15:37.888049 122639 net.cpp:165] Memory required for data: 1794708488
I0711 11:15:37.888056 122639 layer_factory.hpp:76] Creating layer loss3/classifier
I0711 11:15:37.888069 122639 net.cpp:106] Creating Layer loss3/classifier
I0711 11:15:37.888077 122639 net.cpp:454] loss3/classifier <- pool5/7x7_s1
I0711 11:15:37.888090 122639 net.cpp:411] loss3/classifier -> loss3/classifier
I0711 11:15:37.888298 122639 net.cpp:150] Setting up loss3/classifier
I0711 11:15:37.888324 122639 net.cpp:157] Top shape: 32 2 (64)
I0711 11:15:37.888331 122639 net.cpp:165] Memory required for data: 1794708744
I0711 11:15:37.888342 122639 layer_factory.hpp:76] Creating layer loss3/loss3
I0711 11:15:37.888356 122639 net.cpp:106] Creating Layer loss3/loss3
I0711 11:15:37.888365 122639 net.cpp:454] loss3/loss3 <- loss3/classifier
I0711 11:15:37.888375 122639 net.cpp:454] loss3/loss3 <- label_data_1_split_2
I0711 11:15:37.888383 122639 net.cpp:411] loss3/loss3 -> loss3/loss3
…
I0711 11:15:37.895433 122639 net.cpp:49] Initializing net from parameters: 
name: "GoogleNet"
state {
  phase: TEST
}
layer {
  name: "data"
  type: "ImageData"
  top: "data"
  top: "label"
  include {
    phase: TEST
  }
  transform_param {
    mirror: false
    crop_size: 224
    mean_value: 104
    mean_value: 117
    mean_value: 123
  }
  image_data_param {
    source: "/data/dywang/Database/Proliferation/libs/stage04_mitosisDetection/training_examples/val2.lst"
    batch_size: 100
    shuffle: true
    new_height: 256
    new_width: 256
  }
}
layer {
  name: "conv1/7x7_s2"
  type: "Convolution"
  bottom: "data"
  top: "conv1/7x7_s2"
  param {
    lr_mult: 1
    decay_mult: 1
  }
  param {
    lr_mult: 2
    decay_mult: 0
  }
  convolution_param {
    num_output: 64
    pad: 3
    kernel_size: 7
    stride: 2
    weight_filler {
      type: "xavier"
    }
    bias_filler {
      type: "constant"
      value: 0.2
    }
  }
}
layer {
  name: "conv1/relu_7x7"
  type: "ReLU"
  bottom: "conv1/7x7_s2"
  top: "conv1/7x7_s2"
}
layer {
  name: "pool1/3x3_s2"
  type: "Pooling"
  bottom: "conv1/7x7_s2"
  top: "pool1/3x3_s2"
  pooling_param {
    pool: MAX
    kernel_size: 3
    stride: 2
  }
}
layer {
  name: "pool1/norm1"
  type: "LRN"
  bottom: "pool1/3x3_s2"
  top: "pool1/norm1"
  lrn_param {
    local_size: 5
    alpha: 0.0001
    beta: 0.75
  }
}
layer {
  name: "conv2/3x3_reduce"
  type: "Convolution"
  bottom: "pool1/norm1"
  top: "conv2/3x3_reduce"
  param {
    lr_mult: 1
    decay_mult: 1
  }
  param {
    lr_mult: 2
    decay_mult: 0
  }
  convolution_param {
    num_output: 64
    kernel_size: 1
    weight_filler {
      type: "xavier"
    }
    bias_filler {
      type: "constant"
      value: 0.2
    }
  }
}
layer {
  name: "conv2/relu_3x3_reduce"
  type: "ReLU"
  bottom: "conv2/3x3_reduce"
  top: "conv2/3x3_reduce"
}
layer {
  name: "conv2/3x3"
  type: "Convolution"
  bottom: "conv2/3x3_reduce"
  top: "conv2/3x3"
  param {
    lr_mult: 1
    decay_mult: 1
  }
  param {
    lr_mult: 2
    decay_mult: 0
  }
  convolution_param {
    num_output: 192
    pad: 1
    kernel_size: 3
    weight_filler {
      type: "xavier"
    }
    bias_filler {
      type: "constant"
      value: 0.2
    }
  }
}
layer {
  name: "conv2/relu_3x3"
  type: "ReLU"
  bottom: "conv2/3x3"
  top: "conv2/3x3"
}
layer {
  name: "conv2/norm2"
  type: "LRN"
  bottom: "conv2/3x3"
  top: "conv2/norm2"
  lrn_param {
    local_size: 5
    alpha: 0.0001
    beta: 0.75
  }
}
layer {
  name: "pool2/3x3_s2"
  type: "Pooling"
  bottom: "conv2/norm2"
  top: "pool2/3x3_s2"
  pooling_param {
    pool: MAX
    kernel_size: 3
    stride: 2
  }
}
layer {
  name: "inception_3a/1x1"
  type: "Convolution"
  bottom: "pool2/3x3_s2"
  top: "inception_3a/1x1"
  param {
    lr_mult: 1
    decay_mult: 1
  }
  param {
    lr_mult: 2
    decay_mult: 0
  }
  convolution_param {
    num_output: 64
    kernel_size: 1
    weight_filler {
      type: "xavier"
    }
    bias_filler {
      type: "constant"
      value: 0.2
    }
  }
}
layer {
  name: "inception_3a/relu_1x1"
  type: "ReLU"
  bottom: "inception_3a/1x1"
  top: "inception_3a/1x1"
}
layer {
  name: "inception_3a/3x3_reduce"
  type: "Convolution"
  bottom: "pool2/3x3_s2"
  top: "inception_3a/3x3_reduce"
  param {
    lr_mult: 1
    decay_mult: 1
  }
  param {
    lr_mult: 2
    decay_mult: 0
  }
  convolution_param {
    num_output: 96
    kernel_size: 1
    weight_filler {
      type: "xavier"
    }
    bias_filler {
      type: "constant"
      value: 0.2
    }
  }
}
layer {
  name: "inception_3a/relu_3x3_reduce"
  type: "ReLU"
  bottom: "inception_3a/3x3_reduce"
  top: "inception_3a/3x3_reduce"
}
layer {
  name: "inception_3a/3x3"
  type: "Convolution"
  bottom: "inception_3a/3x3_reduce"
  top: "inception_3a/3x3"
  param {
    lr_mult: 1
    decay_mult: 1
  }
  param {
    lr_mult: 2
    decay_mult: 0
  }
  convolution_param {
    num_output: 128
    pad: 1
    kernel_size: 3
    weight_filler {
      type: "xavier"
    }
    bias_filler {
      type: "constant"
      value: 0.2
    }
  }
}
layer {
  name: "inception_3a/relu_3x3"
  type: "ReLU"
  bottom: "inception_3a/3x3"
  top: "inception_3a/3x3"
}
layer {
  name: "inception_3a/5x5_reduce"
  type: "Convolution"
  bottom: "pool2/3x3_s2"
  top: "inception_3a/5x5_reduce"
  param {
    lr_mult: 1
    decay_mult: 1
  }
  param {
    lr_mult: 2
    decay_mult: 0
  }
  convolution_param {
    num_output: 16
    kernel_size: 1
    weight_filler {
      type: "xavier"
    }
    bias_filler {
      type: "constant"
      value: 0.2
    }
  }
}
layer {
  name: "inception_3a/relu_5x5_reduce"
  type: "ReLU"
  bottom: "inception_3a/5x5_reduce"
  top: "inception_3a/5x5_reduce"
}
layer {
  name: "inception_3a/5x5"
  type: "Convolution"
  bottom: "inception_3a/5x5_reduce"
  top: "inception_3a/5x5"
  param {
    lr_mult: 1
    decay_mult: 1
  }
  param {
    lr_mult: 2
    decay_mult: 0
  }
  convolution_param {
    num_output: 32
    pad: 2
    kernel_size: 5
    weight_filler {
      type: "xavier"
    }
    bias_filler {
      type: "constant"
      value: 0.2
    }
  }
}
layer {
  name: "inception_3a/relu_5x5"
  type: "ReLU"
  bottom: "inception_3a/5x5"
  top: "inception_3a/5x5"
}
layer {
  name: "inception_3a/pool"
  type: "Pooling"
  bottom: "pool2/3x3_s2"
  top: "inception_3a/pool"
  pooling_param {
    pool: MAX
    kernel_size: 3
    stride: 1
    pad: 1
  }
}
layer {
  name: "inception_3a/pool_proj"
  type: "Convolution"
  bottom: "inception_3a/pool"
  top: "inception_3a/pool_proj"
  param {
    lr_mult: 1
    decay_mult: 1
  }
  param {
    lr_mult: 2
    decay_mult: 0
  }
  convolution_param {
    num_output: 32
    kernel_size: 1
    weight_filler {
      type: "xavier"
    }
    bias_filler {
      type: "constant"
      value: 0.2
    }
  }
}
layer {
  name: "inception_3a/relu_pool_proj"
  type: "ReLU"
  bottom: "inception_3a/pool_proj"
  top: "inception_3a/pool_proj"
}
layer {
  name: "inception_3a/output"
  type: "Concat"
  bottom: "inception_3a/1x1"
  bottom: "inception_3a/3x3"
  bottom: "inception_3a/5x5"
  bottom: "inception_3a/pool_proj"
  top: "inception_3a/output"
}
layer {
  name: "inception_3b/1x1"
  type: "Convolution"
  bottom: "inception_3a/output"
  top: "inception_3b/1x1"
  param {
    lr_mult: 1
    decay_mult: 1
  }
  param {
    lr_mult: 2
    decay_mult: 0
  }
  convolution_param {
    num_output: 128
    kernel_size: 1
    weight_filler {
      type: "xavier"
    }
    bias_filler {
      type: "constant"
      value: 0.2
    }
  }
}
layer {
  name: "inception_3b/relu_1x1"
  type: "ReLU"
  bottom: "inception_3b/1x1"
  top: "inception_3b/1x1"
}
layer {
  name: "inception_3b/3x3_reduce"
  type: "Convolution"
  bottom: "inception_3a/output"
  top: "inception_3b/3x3_reduce"
  param {
    lr_mult: 1
    decay_mult: 1
  }
  param {
    lr_mult: 2
    decay_mult: 0
  }
  convolution_param {
    num_output: 128
    kernel_size: 1
    weight_filler {
      type: "xavier"
    }
    bias_filler {
      type: "constant"
      value: 0.2
    }
  }
}
layer {
  name: "inception_3b/relu_3x3_reduce"
  type: "ReLU"
  bottom: "inception_3b/3x3_reduce"
  top: "inception_3b/3x3_reduce"
}
layer {
  name: "inception_3b/3x3"
  type: "Convolution"
  bottom: "inception_3b/3x3_reduce"
  top: "inception_3b/3x3"
  param {
    lr_mult: 1
    decay_mult: 1
  }
  param {
    lr_mult: 2
    decay_mult: 0
  }
  convolution_param {
    num_output: 192
    pad: 1
    kernel_size: 3
    weight_filler {
      type: "xavier"
    }
    bias_filler {
      type: "constant"
      value: 0.2
    }
  }
}
layer {
  name: "inception_3b/relu_3x3"
  type: "ReLU"
  bottom: "inception_3b/3x3"
  top: "inception_3b/3x3"
}
layer {
  name: "inception_3b/5x5_reduce"
  type: "Convolution"
  bottom: "inception_3a/output"
  top: "inception_3b/5x5_reduce"
  param {
    lr_mult: 1
    decay_mult: 1
  }
  param {
    lr_mult: 2
    decay_mult: 0
  }
  convolution_param {
    num_output: 32
    kernel_size: 1
    weight_filler {
      type: "xavier"
    }
    bias_filler {
      type: "constant"
      value: 0.2
    }
  }
}
layer {
  name: "inception_3b/relu_5x5_reduce"
  type: "ReLU"
  bottom: "inception_3b/5x5_reduce"
  top: "inception_3b/5x5_reduce"
}
layer {
  name: "inception_3b/5x5"
  type: "Convolution"
  bottom: "inception_3b/5x5_reduce"
  top: "inception_3b/5x5"
  param {
    lr_mult: 1
    decay_mult: 1
  }
  param {
    lr_mult: 2
    decay_mult: 0
  }
  convolution_param {
    num_output: 96
    pad: 2
    kernel_size: 5
    weight_filler {
      type: "xavier"
    }
    bias_filler {
      type: "constant"
      value: 0.2
    }
  }
}
layer {
  name: "inception_3b/relu_5x5"
  type: "ReLU"
  bottom: "inception_3b/5x5"
  top: "inception_3b/5x5"
}
layer {
  name: "inception_3b/pool"
  type: "Pooling"
  bottom: "inception_3a/output"
  top: "inception_3b/pool"
  pooling_param {
    pool: MAX
    kernel_size: 3
    stride: 1
    pad: 1
  }
}
layer {
  name: "inception_3b/pool_proj"
  type: "Convolution"
  bottom: "inception_3b/pool"
  top: "inception_3b/pool_proj"
  param {
    lr_mult: 1
    decay_mult: 1
  }
  param {
    lr_mult: 2
    decay_mult: 0
  }
  convolution_param {
    num_output: 64
    kernel_size: 1
    weight_filler {
      type: "xavier"
    }
    bias_filler {
      type: "constant"
      value: 0.2
    }
  }
}
layer {
  name: "inception_3b/relu_pool_proj"
  type: "ReLU"
  bottom: "inception_3b/pool_proj"
  top: "inception_3b/pool_proj"
}
layer {
  name: "inception_3b/output"
  type: "Concat"
  bottom: "inception_3b/1x1"
  bottom: "inception_3b/3x3"
  bottom: "inception_3b/5x5"
  bottom: "inception_3b/pool_proj"
  top: "inception_3b/output"
}
layer {
  name: "pool3/3x3_s2"
  type: "Pooling"
  bottom: "inception_3b/output"
  top: "pool3/3x3_s2"
  pooling_param {
    pool: MAX
    kernel_size: 3
    stride: 2
  }
}
layer {
  name: "inception_4a/1x1"
  type: "Convolution"
  bottom: "pool3/3x3_s2"
  top: "inception_4a/1x1"
  param {
    lr_mult: 1
…
I0711 11:15:38.208751 122639 net.cpp:157] Top shape: 100 64 14 14 (1254400)
I0711 11:15:38.208760 122639 net.cpp:165] Memory required for data: 4429163608
I0711 11:15:38.208767 122639 layer_factory.hpp:76] Creating layer inception_4c/output
I0711 11:15:38.208781 122639 net.cpp:106] Creating Layer inception_4c/output
I0711 11:15:38.208791 122639 net.cpp:454] inception_4c/output <- inception_4c/1x1
I0711 11:15:38.208799 122639 net.cpp:454] inception_4c/output <- inception_4c/3x3
I0711 11:15:38.208808 122639 net.cpp:454] inception_4c/output <- inception_4c/5x5
I0711 11:15:38.208817 122639 net.cpp:454] inception_4c/output <- inception_4c/pool_proj
I0711 11:15:38.208825 122639 net.cpp:411] inception_4c/output -> inception_4c/output
I0711 11:15:38.208878 122639 net.cpp:150] Setting up inception_4c/output
I0711 11:15:38.208892 122639 net.cpp:157] Top shape: 100 512 14 14 (10035200)
I0711 11:15:38.208900 122639 net.cpp:165] Memory required for data: 4469304408
I0711 11:15:38.208907 122639 layer_factory.hpp:76] Creating layer inception_4c/output_inception_4c/output_0_split
I0711 11:15:38.208920 122639 net.cpp:106] Creating Layer inception_4c/output_inception_4c/output_0_split
I0711 11:15:38.208927 122639 net.cpp:454] inception_4c/output_inception_4c/output_0_split <- inception_4c/output
I0711 11:15:38.208940 122639 net.cpp:411] inception_4c/output_inception_4c/output_0_split -> inception_4c/output_inception_4c/output_0_split_0
I0711 11:15:38.208950 122639 net.cpp:411] inception_4c/output_inception_4c/output_0_split -> inception_4c/output_inception_4c/output_0_split_1
I0711 11:15:38.208961 122639 net.cpp:411] inception_4c/output_inception_4c/output_0_split -> inception_4c/output_inception_4c/output_0_split_2
I0711 11:15:38.208971 122639 net.cpp:411] inception_4c/output_inception_4c/output_0_split -> inception_4c/output_inception_4c/output_0_split_3
I0711 11:15:38.209074 122639 net.cpp:150] Setting up inception_4c/output_inception_4c/output_0_split
I0711 11:15:38.209090 122639 net.cpp:157] Top shape: 100 512 14 14 (10035200)
I0711 11:15:38.209100 122639 net.cpp:157] Top shape: 100 512 14 14 (10035200)
I0711 11:15:38.209107 122639 net.cpp:157] Top shape: 100 512 14 14 (10035200)
I0711 11:15:38.209115 122639 net.cpp:157] Top shape: 100 512 14 14 (10035200)
I0711 11:15:38.209122 122639 net.cpp:165] Memory required for data: 4629867608
I0711 11:15:38.209131 122639 layer_factory.hpp:76] Creating layer inception_4d/1x1
I0711 11:15:38.209144 122639 net.cpp:106] Creating Layer inception_4d/1x1
I0711 11:15:38.209152 122639 net.cpp:454] inception_4d/1x1 <- inception_4c/output_inception_4c/output_0_split_0
I0711 11:15:38.209166 122639 net.cpp:411] inception_4d/1x1 -> inception_4d/1x1
I0711 11:15:38.210964 122639 cudnn_conv_layer.cpp:194] Reallocating workspace storage: 6144
I0711 11:15:38.211025 122639 net.cpp:150] Setting up inception_4d/1x1
I0711 11:15:38.211055 122639 net.cpp:157] Top shape: 100 112 14 14 (2195200)
I0711 11:15:38.211081 122639 net.cpp:165] Memory required for data: 4638648408
I0711 11:15:38.211093 122639 layer_factory.hpp:76] Creating layer inception_4d/relu_1x1
I0711 11:15:38.211117 122639 net.cpp:106] Creating Layer inception_4d/relu_1x1
I0711 11:15:38.211127 122639 net.cpp:454] inception_4d/relu_1x1 <- inception_4d/1x1
I0711 11:15:38.211136 122639 net.cpp:397] inception_4d/relu_1x1 -> inception_4d/1x1 (in-place)
I0711 11:15:38.211748 122639 net.cpp:150] Setting up inception_4d/relu_1x1
I0711 11:15:38.211779 122639 net.cpp:157] Top shape: 100 112 14 14 (2195200)
I0711 11:15:38.211788 122639 net.cpp:165] Memory required for data: 4647429208
I0711 11:15:38.211797 122639 layer_factory.hpp:76] Creating layer inception_4d/3x3_reduce
I0711 11:15:38.211814 122639 net.cpp:106] Creating Layer inception_4d/3x3_reduce
I0711 11:15:38.211823 122639 net.cpp:454] inception_4d/3x3_reduce <- inception_4c/output_inception_4c/output_0_split_1
I0711 11:15:38.211834 122639 net.cpp:411] inception_4d/3x3_reduce -> inception_4d/3x3_reduce
I0711 11:15:38.213663 122639 cudnn_conv_layer.cpp:194] Reallocating workspace storage: 6144
I0711 11:15:38.213721 122639 net.cpp:150] Setting up inception_4d/3x3_reduce
I0711 11:15:38.213737 122639 net.cpp:157] Top shape: 100 144 14 14 (2822400)
I0711 11:15:38.213744 122639 net.cpp:165] Memory required for data: 4658718808
I0711 11:15:38.213757 122639 layer_factory.hpp:76] Creating layer inception_4d/relu_3x3_reduce
I0711 11:15:38.213768 122639 net.cpp:106] Creating Layer inception_4d/relu_3x3_reduce
I0711 11:15:38.213790 122639 net.cpp:454] inception_4d/relu_3x3_reduce <- inception_4d/3x3_reduce
I0711 11:15:38.213802 122639 net.cpp:397] inception_4d/relu_3x3_reduce -> inception_4d/3x3_reduce (in-place)
I0711 11:15:38.214195 122639 net.cpp:150] Setting up inception_4d/relu_3x3_reduce
I0711 11:15:38.214215 122639 net.cpp:157] Top shape: 100 144 14 14 (2822400)
I0711 11:15:38.214222 122639 net.cpp:165] Memory required for data: 4670008408
I0711 11:15:38.214231 122639 layer_factory.hpp:76] Creating layer inception_4d/3x3
I0711 11:15:38.214246 122639 net.cpp:106] Creating Layer inception_4d/3x3
I0711 11:15:38.214256 122639 net.cpp:454] inception_4d/3x3 <- inception_4d/3x3_reduce
I0711 11:15:38.214267 122639 net.cpp:411] inception_4d/3x3 -> inception_4d/3x3
I0711 11:15:38.219318 122639 cudnn_conv_layer.cpp:194] Reallocating workspace storage: 15552
I0711 11:15:38.219384 122639 net.cpp:150] Setting up inception_4d/3x3
I0711 11:15:38.219400 122639 net.cpp:157] Top shape: 100 288 14 14 (5644800)
I0711 11:15:38.219408 122639 net.cpp:165] Memory required for data: 4692587608
I0711 11:15:38.219434 122639 layer_factory.hpp:76] Creating layer inception_4d/relu_3x3
I0711 11:15:38.219449 122639 net.cpp:106] Creating Layer inception_4d/relu_3x3
I0711 11:15:38.219460 122639 net.cpp:454] inception_4d/relu_3x3 <- inception_4d/3x3
I0711 11:15:38.219470 122639 net.cpp:397] inception_4d/relu_3x3 -> inception_4d/3x3 (in-place)
I0711 11:15:38.219744 122639 net.cpp:150] Setting up inception_4d/relu_3x3
I0711 11:15:38.219772 122639 net.cpp:157] Top shape: 100 288 14 14 (5644800)
I0711 11:15:38.219781 122639 net.cpp:165] Memory required for data: 4715166808
I0711 11:15:38.219789 122639 layer_factory.hpp:76] Creating layer inception_4d/5x5_reduce
I0711 11:15:38.219805 122639 net.cpp:106] Creating Layer inception_4d/5x5_reduce
I0711 11:15:38.219815 122639 net.cpp:454] inception_4d/5x5_reduce <- inception_4c/output_inception_4c/output_0_split_2
I0711 11:15:38.219832 122639 net.cpp:411] inception_4d/5x5_reduce -> inception_4d/5x5_reduce
I0711 11:15:38.221333 122639 net.cpp:150] Setting up inception_4d/5x5_reduce
I0711 11:15:38.221354 122639 net.cpp:157] Top shape: 100 32 14 14 (627200)
I0711 11:15:38.221364 122639 net.cpp:165] Memory required for data: 4717675608
I0711 11:15:38.221374 122639 layer_factory.hpp:76] Creating layer inception_4d/relu_5x5_reduce
I0711 11:15:38.221386 122639 net.cpp:106] Creating Layer inception_4d/relu_5x5_reduce
I0711 11:15:38.221395 122639 net.cpp:454] inception_4d/relu_5x5_reduce <- inception_4d/5x5_reduce
I0711 11:15:38.221427 122639 net.cpp:397] inception_4d/relu_5x5_reduce -> inception_4d/5x5_reduce (in-place)
I0711 11:15:38.221806 122639 net.cpp:150] Setting up inception_4d/relu_5x5_reduce
I0711 11:15:38.221825 122639 net.cpp:157] Top shape: 100 32 14 14 (627200)
I0711 11:15:38.221834 122639 net.cpp:165] Memory required for data: 4720184408
I0711 11:15:38.221843 122639 layer_factory.hpp:76] Creating layer inception_4d/5x5
I0711 11:15:38.221858 122639 net.cpp:106] Creating Layer inception_4d/5x5
I0711 11:15:38.221868 122639 net.cpp:454] inception_4d/5x5 <- inception_4d/5x5_reduce
I0711 11:15:38.221880 122639 net.cpp:411] inception_4d/5x5 -> inception_4d/5x5
I0711 11:15:38.223567 122639 cudnn_conv_layer.cpp:194] Reallocating workspace storage: 9600
I0711 11:15:38.223621 122639 net.cpp:150] Setting up inception_4d/5x5
I0711 11:15:38.223636 122639 net.cpp:157] Top shape: 100 64 14 14 (1254400)
I0711 11:15:38.223645 122639 net.cpp:165] Memory required for data: 4725202008
I0711 11:15:38.223657 122639 layer_factory.hpp:76] Creating layer inception_4d/relu_5x5
I0711 11:15:38.223671 122639 net.cpp:106] Creating Layer inception_4d/relu_5x5
I0711 11:15:38.223681 122639 net.cpp:454] inception_4d/relu_5x5 <- inception_4d/5x5
I0711 11:15:38.223691 122639 net.cpp:397] inception_4d/relu_5x5 -> inception_4d/5x5 (in-place)
I0711 11:15:38.224109 122639 net.cpp:150] Setting up inception_4d/relu_5x5
I0711 11:15:38.224141 122639 net.cpp:157] Top shape: 100 64 14 14 (1254400)
I0711 11:15:38.224161 122639 net.cpp:165] Memory required for data: 4730219608
I0711 11:15:38.224170 122639 layer_factory.hpp:76] Creating layer inception_4d/pool
I0711 11:15:38.224185 122639 net.cpp:106] Creating Layer inception_4d/pool
I0711 11:15:38.224195 122639 net.cpp:454] inception_4d/pool <- inception_4c/output_inception_4c/output_0_split_3
I0711 11:15:38.224208 122639 net.cpp:411] inception_4d/pool -> inception_4d/pool
I0711 11:15:38.224665 122639 net.cpp:150] Setting up inception_4d/pool
I0711 11:15:38.224697 122639 net.cpp:157] Top shape: 100 512 14 14 (10035200)
I0711 11:15:38.224706 122639 net.cpp:165] Memory required for data: 4770360408
I0711 11:15:38.224714 122639 layer_factory.hpp:76] Creating layer inception_4d/pool_proj
I0711 11:15:38.224730 122639 net.cpp:106] Creating Layer inception_4d/pool_proj
I0711 11:15:38.224740 122639 net.cpp:454] inception_4d/pool_proj <- inception_4d/pool
I0711 11:15:38.224750 122639 net.cpp:411] inception_4d/pool_proj -> inception_4d/pool_proj
I0711 11:15:38.226258 122639 net.cpp:150] Setting up inception_4d/pool_proj
I0711 11:15:38.226291 122639 net.cpp:157] Top shape: 100 64 14 14 (1254400)
I0711 11:15:38.226300 122639 net.cpp:165] Memory required for data: 4775378008
I0711 11:15:38.226311 122639 layer_factory.hpp:76] Creating layer inception_4d/relu_pool_proj
I0711 11:15:38.226323 122639 net.cpp:106] Creating Layer inception_4d/relu_pool_proj
I0711 11:15:38.226332 122639 net.cpp:454] inception_4d/relu_pool_proj <- inception_4d/pool_proj
I0711 11:15:38.226346 122639 net.cpp:397] inception_4d/relu_pool_proj -> inception_4d/pool_proj (in-place)
I0711 11:15:38.226764 122639 net.cpp:150] Setting up inception_4d/relu_pool_proj
I0711 11:15:38.226794 122639 net.cpp:157] Top shape: 100 64 14 14 (1254400)
I0711 11:15:38.226804 122639 net.cpp:165] Memory required for data: 4780395608
I0711 11:15:38.226812 122639 layer_factory.hpp:76] Creating layer inception_4d/output
I0711 11:15:38.226826 122639 net.cpp:106] Creating Layer inception_4d/output
I0711 11:15:38.226835 122639 net.cpp:454] inception_4d/output <- inception_4d/1x1
I0711 11:15:38.226845 122639 net.cpp:454] inception_4d/output <- inception_4d/3x3
I0711 11:15:38.226855 122639 net.cpp:454] inception_4d/output <- inception_4d/5x5
I0711 11:15:38.226864 122639 net.cpp:454] inception_4d/output <- inception_4d/pool_proj
I0711 11:15:38.226873 122639 net.cpp:411] inception_4d/output -> inception_4d/output
I0711 11:15:38.226929 122639 net.cpp:150] Setting up inception_4d/output
I0711 11:15:38.226944 122639 net.cpp:157] Top shape: 100 528 14 14 (10348800)
I0711 11:15:38.226969 122639 net.cpp:165] Memory required for data: 4821790808
I0711 11:15:38.226979 122639 layer_factory.hpp:76] Creating layer inception_4d/output_inception_4d/output_0_split
I0711 11:15:38.226990 122639 net.cpp:106] Creating Layer inception_4d/output_inception_4d/output_0_split
I0711 11:15:38.226999 122639 net.cpp:454] inception_4d/output_inception_4d/output_0_split <- inception_4d/output
I0711 11:15:38.227030 122639 net.cpp:411] inception_4d/output_inception_4d/output_0_split -> inception_4d/output_inception_4d/output_0_split_0
I0711 11:15:38.227049 122639 net.cpp:411] inception_4d/output_inception_4d/output_0_split -> inception_4d/output_inception_4d/output_0_split_1
I0711 11:15:38.227061 122639 net.cpp:411] inception_4d/output_inception_4d/output_0_split -> inception_4d/output_inception_4d/output_0_split_2
I0711 11:15:38.227072 122639 net.cpp:411] inception_4d/output_inception_4d/output_0_split -> inception_4d/output_inception_4d/output_0_split_3
I0711 11:15:38.227082 122639 net.cpp:411] inception_4d/output_inception_4d/output_0_split -> inception_4d/output_inception_4d/output_0_split_4
I0711 11:15:38.227231 122639 net.cpp:150] Setting up inception_4d/output_inception_4d/output_0_split
I0711 11:15:38.227259 122639 net.cpp:157] Top shape: 100 528 14 14 (10348800)
I0711 11:15:38.227269 122639 net.cpp:157] Top shape: 100 528 14 14 (10348800)
I0711 11:15:38.227277 122639 net.cpp:157] Top shape: 100 528 14 14 (10348800)
I0711 11:15:38.227285 122639 net.cpp:157] Top shape: 100 528 14 14 (10348800)
I0711 11:15:38.227305 122639 net.cpp:157] Top shape: 100 528 14 14 (10348800)
I0711 11:15:38.227313 122639 net.cpp:165] Memory required for data: 5028766808
I0711 11:15:38.227321 122639 layer_factory.hpp:76] Creating layer loss2/ave_pool
I0711 11:15:38.227332 122639 net.cpp:106] Creating Layer loss2/ave_pool
I0711 11:15:38.227341 122639 net.cpp:454] loss2/ave_pool <- inception_4d/output_inception_4d/output_0_split_0
I0711 11:15:38.227352 122639 net.cpp:411] loss2/ave_pool -> loss2/ave_pool
I0711 11:15:38.227627 122639 net.cpp:150] Setting up loss2/ave_pool
I0711 11:15:38.227656 122639 net.cpp:157] Top shape: 100 528 4 4 (844800)
I0711 11:15:38.227664 122639 net.cpp:165] Memory required for data: 5032146008
I0711 11:15:38.227672 122639 layer_factory.hpp:76] Creating layer loss2/conv
I0711 11:15:38.227689 122639 net.cpp:106] Creating Layer loss2/conv
I0711 11:15:38.227697 122639 net.cpp:454] loss2/conv <- loss2/ave_pool
I0711 11:15:38.227710 122639 net.cpp:411] loss2/conv -> loss2/conv
I0711 11:15:38.230355 122639 cudnn_conv_layer.cpp:194] Reallocating workspace storage: 6336
I0711 11:15:38.230429 122639 net.cpp:150] Setting up loss2/conv
I0711 11:15:38.230444 122639 net.cpp:157] Top shape: 100 128 4 4 (204800)
I0711 11:15:38.230453 122639 net.cpp:165] Memory required for data: 5032965208
I0711 11:15:38.230465 122639 layer_factory.hpp:76] Creating layer loss2/relu_conv
I0711 11:15:38.230478 122639 net.cpp:106] Creating Layer loss2/relu_conv
I0711 11:15:38.230486 122639 net.cpp:454] loss2/relu_conv <- loss2/conv
I0711 11:15:38.230499 122639 net.cpp:397] loss2/relu_conv -> loss2/conv (in-place)
I0711 11:15:38.230973 122639 net.cpp:150] Setting up loss2/relu_conv
I0711 11:15:38.231003 122639 net.cpp:157] Top shape: 100 128 4 4 (204800)
I0711 11:15:38.231012 122639 net.cpp:165] Memory required for data: 5033784408
I0711 11:15:38.231021 122639 layer_factory.hpp:76] Creating layer loss2/fc
I0711 11:15:38.231036 122639 net.cpp:106] Creating Layer loss2/fc
I0711 11:15:38.231046 122639 net.cpp:454] loss2/fc <- loss2/conv
I0711 11:15:38.231056 122639 net.cpp:411] loss2/fc -> loss2/fc
I0711 11:15:38.251585 122639 net.cpp:150] Setting up loss2/fc
I0711 11:15:38.251631 122639 net.cpp:157] Top shape: 100 1024 (102400)
I0711 11:15:38.251639 122639 net.cpp:165] Memory required for data: 5034194008
I0711 11:15:38.251655 122639 layer_factory.hpp:76] Creating layer loss2/relu_fc
I0711 11:15:38.251673 122639 net.cpp:106] Creating Layer loss2/relu_fc
I0711 11:15:38.251685 122639 net.cpp:454] loss2/relu_fc <- loss2/fc
I0711 11:15:38.251715 122639 net.cpp:397] loss2/relu_fc -> loss2/fc (in-place)
I0711 11:15:38.252068 122639 net.cpp:150] Setting up loss2/relu_fc
I0711 11:15:38.252095 122639 net.cpp:157] Top shape: 100 1024 (102400)
I0711 11:15:38.252104 122639 net.cpp:165] Memory required for data: 5034603608
I0711 11:15:38.252112 122639 layer_factory.hpp:76] Creating layer loss2/drop_fc
I0711 11:15:38.252127 122639 net.cpp:106] Creating Layer loss2/drop_fc
I0711 11:15:38.252135 122639 net.cpp:454] loss2/drop_fc <- loss2/fc
I0711 11:15:38.252146 122639 net.cpp:397] loss2/drop_fc -> loss2/fc (in-place)
I0711 11:15:38.252202 122639 net.cpp:150] Setting up loss2/drop_fc
I0711 11:15:38.252215 122639 net.cpp:157] Top shape: 100 1024 (102400)
I0711 11:15:38.252223 122639 net.cpp:165] Memory required for data: 5035013208
I0711 11:15:38.252231 122639 layer_factory.hpp:76] Creating layer loss2/classifier
I0711 11:15:38.252244 122639 net.cpp:106] Creating Layer loss2/classifier
I0711 11:15:38.252252 122639 net.cpp:454] loss2/classifier <- loss2/fc
I0711 11:15:38.252264 122639 net.cpp:411] loss2/classifier -> loss2/classifier
I0711 11:15:38.252495 122639 net.cpp:150] Setting up loss2/classifier
I0711 11:15:38.252519 122639 net.cpp:157] Top shape: 100 2 (200)
I0711 11:15:38.252528 122639 net.cpp:165] Memory required for data: 5035014008
I0711 11:15:38.252539 122639 layer_factory.hpp:76] Creating layer loss2/classifier_loss2/classifier_0_split
I0711 11:15:38.252552 122639 net.cpp:106] Creating Layer loss2/classifier_loss2/classifier_0_split
I0711 11:15:38.252560 122639 net.cpp:454] loss2/classifier_loss2/classifier_0_split <- loss2/classifier
I0711 11:15:38.252570 122639 net.cpp:411] loss2/classifier_loss2/classifier_0_split -> loss2/classifier_loss2/classifier_0_split_0
I0711 11:15:38.252581 122639 net.cpp:411] loss2/classifier_loss2/classifier_0_split -> loss2/classifier_loss2/classifier_0_split_1
I0711 11:15:38.252653 122639 net.cpp:150] Setting up loss2/classifier_loss2/classifier_0_split
I0711 11:15:38.252667 122639 net.cpp:157] Top shape: 100 2 (200)
I0711 11:15:38.252676 122639 net.cpp:157] Top shape: 100 2 (200)
I0711 11:15:38.252684 122639 net.cpp:165] Memory required for data: 5035015608
I0711 11:15:38.252692 122639 layer_factory.hpp:76] Creating layer loss2/loss
I0711 11:15:38.252707 122639 net.cpp:106] Creating Layer loss2/loss
I0711 11:15:38.252715 122639 net.cpp:454] loss2/loss <- loss2/classifier_loss2/classifier_0_split_0
I0711 11:15:38.252725 122639 net.cpp:454] loss2/loss <- label_data_1_split_2
…
I0711 11:15:38.253609 122639 net.cpp:165] Memory required for data: 5035015616
I0711 11:15:38.253618 122639 layer_factory.hpp:76] Creating layer inception_4e/1x1
I0711 11:15:38.253634 122639 net.cpp:106] Creating Layer inception_4e/1x1
I0711 11:15:38.253648 122639 net.cpp:454] inception_4e/1x1 <- inception_4d/output_inception_4d/output_0_split_1
I0711 11:15:38.253660 122639 net.cpp:411] inception_4e/1x1 -> inception_4e/1x1
I0711 11:15:38.256300 122639 cudnn_conv_layer.cpp:194] Reallocating workspace storage: 6336
I0711 11:15:38.256368 122639 net.cpp:150] Setting up inception_4e/1x1
I0711 11:15:38.256383 122639 net.cpp:157] Top shape: 100 256 14 14 (5017600)
I0711 11:15:38.256407 122639 net.cpp:165] Memory required for data: 5055086016
I0711 11:15:38.256418 122639 layer_factory.hpp:76] Creating layer inception_4e/relu_1x1
I0711 11:15:38.256430 122639 net.cpp:106] Creating Layer inception_4e/relu_1x1
I0711 11:15:38.256439 122639 net.cpp:454] inception_4e/relu_1x1 <- inception_4e/1x1
I0711 11:15:38.256453 122639 net.cpp:397] inception_4e/relu_1x1 -> inception_4e/1x1 (in-place)
I0711 11:15:38.256906 122639 net.cpp:150] Setting up inception_4e/relu_1x1
I0711 11:15:38.256924 122639 net.cpp:157] Top shape: 100 256 14 14 (5017600)
I0711 11:15:38.256932 122639 net.cpp:165] Memory required for data: 5075156416
I0711 11:15:38.256940 122639 layer_factory.hpp:76] Creating layer inception_4e/3x3_reduce
I0711 11:15:38.256955 122639 net.cpp:106] Creating Layer inception_4e/3x3_reduce
I0711 11:15:38.256965 122639 net.cpp:454] inception_4e/3x3_reduce <- inception_4d/output_inception_4d/output_0_split_2
I0711 11:15:38.256978 122639 net.cpp:411] inception_4e/3x3_reduce -> inception_4e/3x3_reduce
I0711 11:15:38.264525 122639 cudnn_conv_layer.cpp:194] Reallocating workspace storage: 6336
I0711 11:15:38.264595 122639 net.cpp:150] Setting up inception_4e/3x3_reduce
I0711 11:15:38.264613 122639 net.cpp:157] Top shape: 100 160 14 14 (3136000)
I0711 11:15:38.264622 122639 net.cpp:165] Memory required for data: 5087700416
I0711 11:15:38.264633 122639 layer_factory.hpp:76] Creating layer inception_4e/relu_3x3_reduce
I0711 11:15:38.264647 122639 net.cpp:106] Creating Layer inception_4e/relu_3x3_reduce
I0711 11:15:38.264655 122639 net.cpp:454] inception_4e/relu_3x3_reduce <- inception_4e/3x3_reduce
I0711 11:15:38.264667 122639 net.cpp:397] inception_4e/relu_3x3_reduce -> inception_4e/3x3_reduce (in-place)
I0711 11:15:38.264957 122639 net.cpp:150] Setting up inception_4e/relu_3x3_reduce
I0711 11:15:38.264986 122639 net.cpp:157] Top shape: 100 160 14 14 (3136000)
I0711 11:15:38.264996 122639 net.cpp:165] Memory required for data: 5100244416
I0711 11:15:38.265004 122639 layer_factory.hpp:76] Creating layer inception_4e/3x3
I0711 11:15:38.265044 122639 net.cpp:106] Creating Layer inception_4e/3x3
I0711 11:15:38.265055 122639 net.cpp:454] inception_4e/3x3 <- inception_4e/3x3_reduce
I0711 11:15:38.265066 122639 net.cpp:411] inception_4e/3x3 -> inception_4e/3x3
I0711 11:15:38.270884 122639 cudnn_conv_layer.cpp:194] Reallocating workspace storage: 17280
I0711 11:15:38.270946 122639 net.cpp:150] Setting up inception_4e/3x3
I0711 11:15:38.270959 122639 net.cpp:157] Top shape: 100 320 14 14 (6272000)
I0711 11:15:38.270968 122639 net.cpp:165] Memory required for data: 5125332416
I0711 11:15:38.270980 122639 layer_factory.hpp:76] Creating layer inception_4e/relu_3x3
I0711 11:15:38.270995 122639 net.cpp:106] Creating Layer inception_4e/relu_3x3
I0711 11:15:38.271005 122639 net.cpp:454] inception_4e/relu_3x3 <- inception_4e/3x3
I0711 11:15:38.271018 122639 net.cpp:397] inception_4e/relu_3x3 -> inception_4e/3x3 (in-place)
I0711 11:15:38.271497 122639 net.cpp:150] Setting up inception_4e/relu_3x3
I0711 11:15:38.271517 122639 net.cpp:157] Top shape: 100 320 14 14 (6272000)
I0711 11:15:38.271527 122639 net.cpp:165] Memory required for data: 5150420416
I0711 11:15:38.271536 122639 layer_factory.hpp:76] Creating layer inception_4e/5x5_reduce
I0711 11:15:38.271553 122639 net.cpp:106] Creating Layer inception_4e/5x5_reduce
I0711 11:15:38.271564 122639 net.cpp:454] inception_4e/5x5_reduce <- inception_4d/output_inception_4d/output_0_split_3
I0711 11:15:38.271577 122639 net.cpp:411] inception_4e/5x5_reduce -> inception_4e/5x5_reduce
I0711 11:15:38.273214 122639 cudnn_conv_layer.cpp:194] Reallocating workspace storage: 6336
I0711 11:15:38.273283 122639 net.cpp:150] Setting up inception_4e/5x5_reduce
I0711 11:15:38.273298 122639 net.cpp:157] Top shape: 100 32 14 14 (627200)
I0711 11:15:38.273305 122639 net.cpp:165] Memory required for data: 5152929216
I0711 11:15:38.273318 122639 layer_factory.hpp:76] Creating layer inception_4e/relu_5x5_reduce
I0711 11:15:38.273331 122639 net.cpp:106] Creating Layer inception_4e/relu_5x5_reduce
I0711 11:15:38.273360 122639 net.cpp:454] inception_4e/relu_5x5_reduce <- inception_4e/5x5_reduce
I0711 11:15:38.273371 122639 net.cpp:397] inception_4e/relu_5x5_reduce -> inception_4e/5x5_reduce (in-place)
I0711 11:15:38.273623 122639 net.cpp:150] Setting up inception_4e/relu_5x5_reduce
I0711 11:15:38.273651 122639 net.cpp:157] Top shape: 100 32 14 14 (627200)
I0711 11:15:38.273660 122639 net.cpp:165] Memory required for data: 5155438016
I0711 11:15:38.273669 122639 layer_factory.hpp:76] Creating layer inception_4e/5x5
I0711 11:15:38.273687 122639 net.cpp:106] Creating Layer inception_4e/5x5
I0711 11:15:38.273697 122639 net.cpp:454] inception_4e/5x5 <- inception_4e/5x5_reduce
I0711 11:15:38.273707 122639 net.cpp:411] inception_4e/5x5 -> inception_4e/5x5
I0711 11:15:38.276046 122639 net.cpp:150] Setting up inception_4e/5x5
I0711 11:15:38.276078 122639 net.cpp:157] Top shape: 100 128 14 14 (2508800)
I0711 11:15:38.276098 122639 net.cpp:165] Memory required for data: 5165473216
I0711 11:15:38.276110 122639 layer_factory.hpp:76] Creating layer inception_4e/relu_5x5
I0711 11:15:38.276124 122639 net.cpp:106] Creating Layer inception_4e/relu_5x5
I0711 11:15:38.276134 122639 net.cpp:454] inception_4e/relu_5x5 <- inception_4e/5x5
I0711 11:15:38.276149 122639 net.cpp:397] inception_4e/relu_5x5 -> inception_4e/5x5 (in-place)
I0711 11:15:38.276420 122639 net.cpp:150] Setting up inception_4e/relu_5x5
I0711 11:15:38.276450 122639 net.cpp:157] Top shape: 100 128 14 14 (2508800)
I0711 11:15:38.276459 122639 net.cpp:165] Memory required for data: 5175508416
I0711 11:15:38.276468 122639 layer_factory.hpp:76] Creating layer inception_4e/pool
I0711 11:15:38.276480 122639 net.cpp:106] Creating Layer inception_4e/pool
I0711 11:15:38.276489 122639 net.cpp:454] inception_4e/pool <- inception_4d/output_inception_4d/output_0_split_4
I0711 11:15:38.276501 122639 net.cpp:411] inception_4e/pool -> inception_4e/pool
I0711 11:15:38.276978 122639 net.cpp:150] Setting up inception_4e/pool
I0711 11:15:38.277010 122639 net.cpp:157] Top shape: 100 528 14 14 (10348800)
I0711 11:15:38.277019 122639 net.cpp:165] Memory required for data: 5216903616
I0711 11:15:38.277027 122639 layer_factory.hpp:76] Creating layer inception_4e/pool_proj
I0711 11:15:38.277045 122639 net.cpp:106] Creating Layer inception_4e/pool_proj
I0711 11:15:38.277055 122639 net.cpp:454] inception_4e/pool_proj <- inception_4e/pool
I0711 11:15:38.277067 122639 net.cpp:411] inception_4e/pool_proj -> inception_4e/pool_proj
I0711 11:15:38.279089 122639 cudnn_conv_layer.cpp:194] Reallocating workspace storage: 6336
I0711 11:15:38.279160 122639 net.cpp:150] Setting up inception_4e/pool_proj
I0711 11:15:38.279186 122639 net.cpp:157] Top shape: 100 128 14 14 (2508800)
I0711 11:15:38.279194 122639 net.cpp:165] Memory required for data: 5226938816
I0711 11:15:38.279208 122639 layer_factory.hpp:76] Creating layer inception_4e/relu_pool_proj
I0711 11:15:38.279222 122639 net.cpp:106] Creating Layer inception_4e/relu_pool_proj
I0711 11:15:38.279232 122639 net.cpp:454] inception_4e/relu_pool_proj <- inception_4e/pool_proj
I0711 11:15:38.279245 122639 net.cpp:397] inception_4e/relu_pool_proj -> inception_4e/pool_proj (in-place)
I0711 11:15:38.279503 122639 net.cpp:150] Setting up inception_4e/relu_pool_proj
I0711 11:15:38.279531 122639 net.cpp:157] Top shape: 100 128 14 14 (2508800)
I0711 11:15:38.279539 122639 net.cpp:165] Memory required for data: 5236974016
I0711 11:15:38.279548 122639 layer_factory.hpp:76] Creating layer inception_4e/output
I0711 11:15:38.279567 122639 net.cpp:106] Creating Layer inception_4e/output
I0711 11:15:38.279575 122639 net.cpp:454] inception_4e/output <- inception_4e/1x1
I0711 11:15:38.279585 122639 net.cpp:454] inception_4e/output <- inception_4e/3x3
I0711 11:15:38.279595 122639 net.cpp:454] inception_4e/output <- inception_4e/5x5
I0711 11:15:38.279603 122639 net.cpp:454] inception_4e/output <- inception_4e/pool_proj
I0711 11:15:38.279613 122639 net.cpp:411] inception_4e/output -> inception_4e/output
I0711 11:15:38.279670 122639 net.cpp:150] Setting up inception_4e/output
I0711 11:15:38.279722 122639 net.cpp:157] Top shape: 100 832 14 14 (16307200)
I0711 11:15:38.279731 122639 net.cpp:165] Memory required for data: 5302202816
I0711 11:15:38.279739 122639 layer_factory.hpp:76] Creating layer pool4/3x3_s2
I0711 11:15:38.279750 122639 net.cpp:106] Creating Layer pool4/3x3_s2
I0711 11:15:38.279759 122639 net.cpp:454] pool4/3x3_s2 <- inception_4e/output
I0711 11:15:38.279772 122639 net.cpp:411] pool4/3x3_s2 -> pool4/3x3_s2
I0711 11:15:38.280226 122639 net.cpp:150] Setting up pool4/3x3_s2
I0711 11:15:38.280258 122639 net.cpp:157] Top shape: 100 832 7 7 (4076800)
I0711 11:15:38.280267 122639 net.cpp:165] Memory required for data: 5318510016
I0711 11:15:38.280277 122639 layer_factory.hpp:76] Creating layer pool4/3x3_s2_pool4/3x3_s2_0_split
I0711 11:15:38.280288 122639 net.cpp:106] Creating Layer pool4/3x3_s2_pool4/3x3_s2_0_split
I0711 11:15:38.280297 122639 net.cpp:454] pool4/3x3_s2_pool4/3x3_s2_0_split <- pool4/3x3_s2
I0711 11:15:38.280310 122639 net.cpp:411] pool4/3x3_s2_pool4/3x3_s2_0_split -> pool4/3x3_s2_pool4/3x3_s2_0_split_0
I0711 11:15:38.280323 122639 net.cpp:411] pool4/3x3_s2_pool4/3x3_s2_0_split -> pool4/3x3_s2_pool4/3x3_s2_0_split_1
I0711 11:15:38.280333 122639 net.cpp:411] pool4/3x3_s2_pool4/3x3_s2_0_split -> pool4/3x3_s2_pool4/3x3_s2_0_split_2
I0711 11:15:38.280344 122639 net.cpp:411] pool4/3x3_s2_pool4/3x3_s2_0_split -> pool4/3x3_s2_pool4/3x3_s2_0_split_3
I0711 11:15:38.280488 122639 net.cpp:150] Setting up pool4/3x3_s2_pool4/3x3_s2_0_split
I0711 11:15:38.280503 122639 net.cpp:157] Top shape: 100 832 7 7 (4076800)
I0711 11:15:38.280511 122639 net.cpp:157] Top shape: 100 832 7 7 (4076800)
I0711 11:15:38.280520 122639 net.cpp:157] Top shape: 100 832 7 7 (4076800)
I0711 11:15:38.280529 122639 net.cpp:157] Top shape: 100 832 7 7 (4076800)
I0711 11:15:38.280535 122639 net.cpp:165] Memory required for data: 5383738816
I0711 11:15:38.280555 122639 layer_factory.hpp:76] Creating layer inception_5a/1x1
I0711 11:15:38.280570 122639 net.cpp:106] Creating Layer inception_5a/1x1
I0711 11:15:38.280580 122639 net.cpp:454] inception_5a/1x1 <- pool4/3x3_s2_pool4/3x3_s2_0_split_0
I0711 11:15:38.280589 122639 net.cpp:411] inception_5a/1x1 -> inception_5a/1x1
I0711 11:15:38.284245 122639 cudnn_conv_layer.cpp:194] Reallocating workspace storage: 9984
I0711 11:15:38.284312 122639 net.cpp:150] Setting up inception_5a/1x1
I0711 11:15:38.284327 122639 net.cpp:157] Top shape: 100 256 7 7 (1254400)
I0711 11:15:38.284335 122639 net.cpp:165] Memory required for data: 5388756416
I0711 11:15:38.284346 122639 layer_factory.hpp:76] Creating layer inception_5a/relu_1x1
I0711 11:15:38.284358 122639 net.cpp:106] Creating Layer inception_5a/relu_1x1
I0711 11:15:38.284368 122639 net.cpp:454] inception_5a/relu_1x1 <- inception_5a/1x1
I0711 11:15:38.284380 122639 net.cpp:397] inception_5a/relu_1x1 -> inception_5a/1x1 (in-place)
I0711 11:15:38.284624 122639 net.cpp:150] Setting up inception_5a/relu_1x1
I0711 11:15:38.284644 122639 net.cpp:157] Top shape: 100 256 7 7 (1254400)
I0711 11:15:38.284652 122639 net.cpp:165] Memory required for data: 5393774016
I0711 11:15:38.284662 122639 layer_factory.hpp:76] Creating layer inception_5a/3x3_reduce
I0711 11:15:38.284674 122639 net.cpp:106] Creating Layer inception_5a/3x3_reduce
I0711 11:15:38.284683 122639 net.cpp:454] inception_5a/3x3_reduce <- pool4/3x3_s2_pool4/3x3_s2_0_split_1
I0711 11:15:38.284698 122639 net.cpp:411] inception_5a/3x3_reduce -> inception_5a/3x3_reduce
I0711 11:15:38.288214 122639 cudnn_conv_layer.cpp:194] Reallocating workspace storage: 9984
I0711 11:15:38.288291 122639 net.cpp:150] Setting up inception_5a/3x3_reduce
I0711 11:15:38.288306 122639 net.cpp:157] Top shape: 100 160 7 7 (784000)
I0711 11:15:38.288316 122639 net.cpp:165] Memory required for data: 5396910016
I0711 11:15:38.288327 122639 layer_factory.hpp:76] Creating layer inception_5a/relu_3x3_reduce
I0711 11:15:38.288339 122639 net.cpp:106] Creating Layer inception_5a/relu_3x3_reduce
I0711 11:15:38.288349 122639 net.cpp:454] inception_5a/relu_3x3_reduce <- inception_5a/3x3_reduce
I0711 11:15:38.288378 122639 net.cpp:397] inception_5a/relu_3x3_reduce -> inception_5a/3x3_reduce (in-place)
I0711 11:15:38.288794 122639 net.cpp:150] Setting up inception_5a/relu_3x3_reduce
I0711 11:15:38.288836 122639 net.cpp:157] Top shape: 100 160 7 7 (784000)
I0711 11:15:38.288847 122639 net.cpp:165] Memory required for data: 5400046016
I0711 11:15:38.288856 122639 layer_factory.hpp:76] Creating layer inception_5a/3x3
I0711 11:15:38.288877 122639 net.cpp:106] Creating Layer inception_5a/3x3
I0711 11:15:38.288887 122639 net.cpp:454] inception_5a/3x3 <- inception_5a/3x3_reduce
I0711 11:15:38.288899 122639 net.cpp:411] inception_5a/3x3 -> inception_5a/3x3
I0711 11:15:38.294879 122639 net.cpp:150] Setting up inception_5a/3x3
I0711 11:15:38.294919 122639 net.cpp:157] Top shape: 100 320 7 7 (1568000)
I0711 11:15:38.294927 122639 net.cpp:165] Memory required for data: 5406318016
I0711 11:15:38.294939 122639 layer_factory.hpp:76] Creating layer inception_5a/relu_3x3
I0711 11:15:38.294953 122639 net.cpp:106] Creating Layer inception_5a/relu_3x3
I0711 11:15:38.294963 122639 net.cpp:454] inception_5a/relu_3x3 <- inception_5a/3x3
I0711 11:15:38.294973 122639 net.cpp:397] inception_5a/relu_3x3 -> inception_5a/3x3 (in-place)
I0711 11:15:38.295392 122639 net.cpp:150] Setting up inception_5a/relu_3x3
I0711 11:15:38.295438 122639 net.cpp:157] Top shape: 100 320 7 7 (1568000)
I0711 11:15:38.295446 122639 net.cpp:165] Memory required for data: 5412590016
I0711 11:15:38.295455 122639 layer_factory.hpp:76] Creating layer inception_5a/5x5_reduce
I0711 11:15:38.295469 122639 net.cpp:106] Creating Layer inception_5a/5x5_reduce
I0711 11:15:38.295480 122639 net.cpp:454] inception_5a/5x5_reduce <- pool4/3x3_s2_pool4/3x3_s2_0_split_2
I0711 11:15:38.295505 122639 net.cpp:411] inception_5a/5x5_reduce -> inception_5a/5x5_reduce
I0711 11:15:38.297981 122639 net.cpp:150] Setting up inception_5a/5x5_reduce
I0711 11:15:38.298014 122639 net.cpp:157] Top shape: 100 32 7 7 (156800)
I0711 11:15:38.298023 122639 net.cpp:165] Memory required for data: 5413217216
I0711 11:15:38.298034 122639 layer_factory.hpp:76] Creating layer inception_5a/relu_5x5_reduce
I0711 11:15:38.298049 122639 net.cpp:106] Creating Layer inception_5a/relu_5x5_reduce
I0711 11:15:38.298058 122639 net.cpp:454] inception_5a/relu_5x5_reduce <- inception_5a/5x5_reduce
I0711 11:15:38.298069 122639 net.cpp:397] inception_5a/relu_5x5_reduce -> inception_5a/5x5_reduce (in-place)
I0711 11:15:38.298323 122639 net.cpp:150] Setting up inception_5a/relu_5x5_reduce
I0711 11:15:38.298351 122639 net.cpp:157] Top shape: 100 32 7 7 (156800)
I0711 11:15:38.298358 122639 net.cpp:165] Memory required for data: 5413844416
I0711 11:15:38.298367 122639 layer_factory.hpp:76] Creating layer inception_5a/5x5
I0711 11:15:38.298382 122639 net.cpp:106] Creating Layer inception_5a/5x5
I0711 11:15:38.298391 122639 net.cpp:454] inception_5a/5x5 <- inception_5a/5x5_reduce
I0711 11:15:38.298404 122639 net.cpp:411] inception_5a/5x5 -> inception_5a/5x5
I0711 11:15:38.300606 122639 net.cpp:150] Setting up inception_5a/5x5
I0711 11:15:38.300652 122639 net.cpp:157] Top shape: 100 128 7 7 (627200)
I0711 11:15:38.300662 122639 net.cpp:165] Memory required for data: 5416353216
I0711 11:15:38.300685 122639 layer_factory.hpp:76] Creating layer inception_5a/relu_5x5
I0711 11:15:38.300700 122639 net.cpp:106] Creating Layer inception_5a/relu_5x5
I0711 11:15:38.300709 122639 net.cpp:454] inception_5a/relu_5x5 <- inception_5a/5x5
I0711 11:15:38.300732 122639 net.cpp:397] inception_5a/relu_5x5 -> inception_5a/5x5 (in-place)
I0711 11:15:38.301213 122639 net.cpp:150] Setting up inception_5a/relu_5x5
I0711 11:15:38.301245 122639 net.cpp:157] Top shape: 100 128 7 7 (627200)
I0711 11:15:38.301254 122639 net.cpp:165] Memory required for data: 5418862016
I0711 11:15:38.301262 122639 layer_factory.hpp:76] Creating layer inception_5a/pool
I0711 11:15:38.301277 122639 net.cpp:106] Creating Layer inception_5a/pool
I0711 11:15:38.301288 122639 net.cpp:454] inception_5a/pool <- pool4/3x3_s2_pool4/3x3_s2_0_split_3
I0711 11:15:38.301300 122639 net.cpp:411] inception_5a/pool -> inception_5a/pool
I0711 11:15:38.301703 122639 net.cpp:150] Setting up inception_5a/pool
I0711 11:15:38.301748 122639 net.cpp:157] Top shape: 100 832 7 7 (4076800)
I0711 11:15:38.301756 122639 net.cpp:165] Memory required for data: 5435169216
I0711 11:15:38.301765 122639 layer_factory.hpp:76] Creating layer inception_5a/pool_proj
I0711 11:15:38.301791 122639 net.cpp:106] Creating Layer inception_5a/pool_proj
I0711 11:15:38.301800 122639 net.cpp:454] inception_5a/pool_proj <- inception_5a/pool
I0711 11:15:38.301815 122639 net.cpp:411] inception_5a/pool_proj -> inception_5a/pool_proj
I0711 11:15:38.304899 122639 cudnn_conv_layer.cpp:194] Reallocating workspace storage: 9984
I0711 11:15:38.304997 122639 net.cpp:150] Setting up inception_5a/pool_proj
I0711 11:15:38.305016 122639 net.cpp:157] Top shape: 100 128 7 7 (627200)
I0711 11:15:38.305037 122639 net.cpp:165] Memory required for data: 5437678016
I0711 11:15:38.305048 122639 layer_factory.hpp:76] Creating layer inception_5a/relu_pool_proj
I0711 11:15:38.305073 122639 net.cpp:106] Creating Layer inception_5a/relu_pool_proj
I0711 11:15:38.305083 122639 net.cpp:454] inception_5a/relu_pool_proj <- inception_5a/pool_proj
I0711 11:15:38.305094 122639 net.cpp:397] inception_5a/relu_pool_proj -> inception_5a/pool_proj (in-place)
I0711 11:15:38.305403 122639 net.cpp:150] Setting up inception_5a/relu_pool_proj
I0711 11:15:38.305433 122639 net.cpp:157] Top shape: 100 128 7 7 (627200)
I0711 11:15:38.305440 122639 net.cpp:165] Memory required for data: 5440186816
I0711 11:15:38.305449 122639 layer_factory.hpp:76] Creating layer inception_5a/output
I0711 11:15:38.305471 122639 net.cpp:106] Creating Layer inception_5a/output
I0711 11:15:38.305481 122639 net.cpp:454] inception_5a/output <- inception_5a/1x1
I0711 11:15:38.305490 122639 net.cpp:454] inception_5a/output <- inception_5a/3x3
I0711 11:15:38.305500 122639 net.cpp:454] inception_5a/output <- inception_5a/5x5
I0711 11:15:38.305510 122639 net.cpp:454] inception_5a/output <- inception_5a/pool_proj
I0711 11:15:38.305521 122639 net.cpp:411] inception_5a/output -> inception_5a/output
I0711 11:15:38.305599 122639 net.cpp:150] Setting up inception_5a/output
I0711 11:15:38.305624 122639 net.cpp:157] Top shape: 100 832 7 7 (4076800)
I0711 11:15:38.305632 122639 net.cpp:165] Memory required for data: 5456494016
I0711 11:15:38.305651 122639 layer_factory.hpp:76] Creating layer inception_5a/output_inception_5a/output_0_split
I0711 11:15:38.305681 122639 net.cpp:106] Creating Layer inception_5a/output_inception_5a/output_0_split
I0711 11:15:38.305691 122639 net.cpp:454] inception_5a/output_inception_5a/output_0_split <- inception_5a/output
I0711 11:15:38.305713 122639 net.cpp:411] inception_5a/output_inception_5a/output_0_split -> inception_5a/output_inception_5a/output_0_split_0
I0711 11:15:38.305726 122639 net.cpp:411] inception_5a/output_inception_5a/output_0_split -> inception_5a/output_inception_5a/output_0_split_1
I0711 11:15:38.305738 122639 net.cpp:411] inception_5a/output_inception_5a/output_0_split -> inception_5a/output_inception_5a/output_0_split_2
I0711 11:15:38.305762 122639 net.cpp:411] inception_5a/output_inception_5a/output_0_split -> inception_5a/output_inception_5a/output_0_split_3
I0711 11:15:38.305907 122639 net.cpp:150] Setting up inception_5a/output_inception_5a/output_0_split
I0711 11:15:38.305944 122639 net.cpp:157] Top shape: 100 832 7 7 (4076800)
I0711 11:15:38.305953 122639 net.cpp:157] Top shape: 100 832 7 7 (4076800)
I0711 11:15:38.305963 122639 net.cpp:157] Top shape: 100 832 7 7 (4076800)
I0711 11:15:38.305981 122639 net.cpp:157] Top shape: 100 832 7 7 (4076800)
I0711 11:15:38.305989 122639 net.cpp:165] Memory required for data: 5521722816
I0711 11:15:38.305997 122639 layer_factory.hpp:76] Creating layer inception_5b/1x1
I0711 11:15:38.306012 122639 net.cpp:106] Creating Layer inception_5b/1x1
I0711 11:15:38.306035 122639 net.cpp:454] inception_5b/1x1 <- inception_5a/output_inception_5a/output_0_split_0
I0711 11:15:38.306046 122639 net.cpp:411] inception_5b/1x1 -> inception_5b/1x1
I0711 11:15:38.310811 122639 cudnn_conv_layer.cpp:194] Reallocating workspace storage: 9984
I0711 11:15:38.310876 122639 net.cpp:150] Setting up inception_5b/1x1
I0711 11:15:38.310892 122639 net.cpp:157] Top shape: 100 384 7 7 (1881600)
I0711 11:15:38.310901 122639 net.cpp:165] Memory required for data: 5529249216
I0711 11:15:38.310912 122639 layer_factory.hpp:76] Creating layer inception_5b/relu_1x1
I0711 11:15:38.310927 122639 net.cpp:106] Creating Layer inception_5b/relu_1x1
I0711 11:15:38.310937 122639 net.cpp:454] inception_5b/relu_1x1 <- inception_5b/1x1
I0711 11:15:38.310950 122639 net.cpp:397] inception_5b/relu_1x1 -> inception_5b/1x1 (in-place)
I0711 11:15:38.311373 122639 net.cpp:150] Setting up inception_5b/relu_1x1
I0711 11:15:38.311405 122639 net.cpp:157] Top shape: 100 384 7 7 (1881600)
I0711 11:15:38.311415 122639 net.cpp:165] Memory required for data: 5536775616
I0711 11:15:38.311424 122639 layer_factory.hpp:76] Creating layer inception_5b/3x3_reduce
I0711 11:15:38.311440 122639 net.cpp:106] Creating Layer inception_5b/3x3_reduce
I0711 11:15:38.311450 122639 net.cpp:454] inception_5b/3x3_reduce <- inception_5a/output_inception_5a/output_0_split_1
I0711 11:15:38.311460 122639 net.cpp:411] inception_5b/3x3_reduce -> inception_5b/3x3_reduce
I0711 11:15:38.314811 122639 cudnn_conv_layer.cpp:194] Reallocating workspace storage: 9984
I0711 11:15:38.314878 122639 net.cpp:150] Setting up inception_5b/3x3_reduce
I0711 11:15:38.314894 122639 net.cpp:157] Top shape: 100 192 7 7 (940800)
I0711 11:15:38.314903 122639 net.cpp:165] Memory required for data: 5540538816
I0711 11:15:38.314913 122639 layer_factory.hpp:76] Creating layer inception_5b/relu_3x3_reduce
I0711 11:15:38.314925 122639 net.cpp:106] Creating Layer inception_5b/relu_3x3_reduce
I0711 11:15:38.314934 122639 net.cpp:454] inception_5b/relu_3x3_reduce <- inception_5b/3x3_reduce
I0711 11:15:38.314946 122639 net.cpp:397] inception_5b/relu_3x3_reduce -> inception_5b/3x3_reduce (in-place)
I0711 11:15:38.315201 122639 net.cpp:150] Setting up inception_5b/relu_3x3_reduce
I0711 11:15:38.315228 122639 net.cpp:157] Top shape: 100 192 7 7 (940800)
I0711 11:15:38.315237 122639 net.cpp:165] Memory required for data: 5544302016
I0711 11:15:38.315244 122639 layer_factory.hpp:76] Creating layer inception_5b/3x3
I0711 11:15:38.315259 122639 net.cpp:106] Creating Layer inception_5b/3x3
I0711 11:15:38.315268 122639 net.cpp:454] inception_5b/3x3 <- inception_5b/3x3_reduce
I0711 11:15:38.315281 122639 net.cpp:411] inception_5b/3x3 -> inception_5b/3x3
I0711 11:15:38.324224 122639 net.cpp:150] Setting up inception_5b/3x3
I0711 11:15:38.324275 122639 net.cpp:157] Top shape: 100 384 7 7 (1881600)
I0711 11:15:38.324283 122639 net.cpp:165] Memory required for data: 5551828416
I0711 11:15:38.324296 122639 layer_factory.hpp:76] Creating layer inception_5b/relu_3x3
I0711 11:15:38.324311 122639 net.cpp:106] Creating Layer inception_5b/relu_3x3
I0711 11:15:38.324321 122639 net.cpp:454] inception_5b/relu_3x3 <- inception_5b/3x3
I0711 11:15:38.324333 122639 net.cpp:397] inception_5b/relu_3x3 -> inception_5b/3x3 (in-place)
I0711 11:15:38.324616 122639 net.cpp:150] Setting up inception_5b/relu_3x3
I0711 11:15:38.324645 122639 net.cpp:157] Top shape: 100 384 7 7 (1881600)
I0711 11:15:38.324653 122639 net.cpp:165] Memory required for data: 5559354816
I0711 11:15:38.324661 122639 layer_factory.hpp:76] Creating layer inception_5b/5x5_reduce
I0711 11:15:38.324678 122639 net.cpp:106] Creating Layer inception_5b/5x5_reduce
I0711 11:15:38.324688 122639 net.cpp:454] inception_5b/5x5_reduce <- inception_5a/output_inception_5a/output_0_split_2
I0711 11:15:38.324702 122639 net.cpp:411] inception_5b/5x5_reduce -> inception_5b/5x5_reduce
I0711 11:15:38.326339 122639 net.cpp:150] Setting up inception_5b/5x5_reduce
I0711 11:15:38.326370 122639 net.cpp:157] Top shape: 100 48 7 7 (235200)
I0711 11:15:38.326380 122639 net.cpp:165] Memory required for data: 5560295616
I0711 11:15:38.326391 122639 layer_factory.hpp:76] Creating layer inception_5b/relu_5x5_reduce
I0711 11:15:38.326407 122639 net.cpp:106] Creating Layer inception_5b/relu_5x5_reduce
I0711 11:15:38.326436 122639 net.cpp:454] inception_5b/relu_5x5_reduce <- inception_5b/5x5_reduce
I0711 11:15:38.326447 122639 net.cpp:397] inception_5b/relu_5x5_reduce -> inception_5b/5x5_reduce (in-place)
I0711 11:15:38.327101 122639 net.cpp:150] Setting up inception_5b/relu_5x5_reduce
I0711 11:15:38.327133 122639 net.cpp:157] Top shape: 100 48 7 7 (235200)
I0711 11:15:38.327153 122639 net.cpp:165] Memory required for data: 5561236416
I0711 11:15:38.327162 122639 layer_factory.hpp:76] Creating layer inception_5b/5x5
I0711 11:15:38.327188 122639 net.cpp:106] Creating Layer inception_5b/5x5
I0711 11:15:38.327210 122639 net.cpp:454] inception_5b/5x5 <- inception_5b/5x5_reduce
I0711 11:15:38.327224 122639 net.cpp:411] inception_5b/5x5 -> inception_5b/5x5
I0711 11:15:38.329849 122639 net.cpp:150] Setting up inception_5b/5x5
I0711 11:15:38.329881 122639 net.cpp:157] Top shape: 100 128 7 7 (627200)
I0711 11:15:38.329890 122639 net.cpp:165] Memory required for data: 5563745216
I0711 11:15:38.329902 122639 layer_factory.hpp:76] Creating layer inception_5b/relu_5x5
I0711 11:15:38.329916 122639 net.cpp:106] Creating Layer inception_5b/relu_5x5
I0711 11:15:38.329926 122639 net.cpp:454] inception_5b/relu_5x5 <- inception_5b/5x5
I0711 11:15:38.329936 122639 net.cpp:397] inception_5b/relu_5x5 -> inception_5b/5x5 (in-place)
I0711 11:15:38.330198 122639 net.cpp:150] Setting up inception_5b/relu_5x5
I0711 11:15:38.330225 122639 net.cpp:157] Top shape: 100 128 7 7 (627200)
I0711 11:15:38.330234 122639 net.cpp:165] Memory required for data: 5566254016
I0711 11:15:38.330242 122639 layer_factory.hpp:76] Creating layer inception_5b/pool
I0711 11:15:38.330255 122639 net.cpp:106] Creating Layer inception_5b/pool
I0711 11:15:38.330263 122639 net.cpp:454] inception_5b/pool <- inception_5a/output_inception_5a/output_0_split_3
I0711 11:15:38.330277 122639 net.cpp:411] inception_5b/pool -> inception_5b/pool
I0711 11:15:38.330744 122639 net.cpp:150] Setting up inception_5b/pool
I0711 11:15:38.330776 122639 net.cpp:157] Top shape: 100 832 7 7 (4076800)
I0711 11:15:38.330785 122639 net.cpp:165] Memory required for data: 5582561216
I0711 11:15:38.330793 122639 layer_factory.hpp:76] Creating layer inception_5b/pool_proj
I0711 11:15:38.330809 122639 net.cpp:106] Creating Layer inception_5b/pool_proj
I0711 11:15:38.330819 122639 net.cpp:454] inception_5b/pool_proj <- inception_5b/pool
I0711 11:15:38.330832 122639 net.cpp:411] inception_5b/pool_proj -> inception_5b/pool_proj
I0711 11:15:38.333976 122639 cudnn_conv_layer.cpp:194] Reallocating workspace storage: 9984
I0711 11:15:38.334066 122639 net.cpp:150] Setting up inception_5b/pool_proj
I0711 11:15:38.334081 122639 net.cpp:157] Top shape: 100 128 7 7 (627200)
I0711 11:15:38.334089 122639 net.cpp:165] Memory required for data: 5585070016
I0711 11:15:38.334101 122639 layer_factory.hpp:76] Creating layer inception_5b/relu_pool_proj
I0711 11:15:38.334112 122639 net.cpp:106] Creating Layer inception_5b/relu_pool_proj
I0711 11:15:38.334121 122639 net.cpp:454] inception_5b/relu_pool_proj <- inception_5b/pool_proj
I0711 11:15:38.334134 122639 net.cpp:397] inception_5b/relu_pool_proj -> inception_5b/pool_proj (in-place)
I0711 11:15:38.334568 122639 net.cpp:150] Setting up inception_5b/relu_pool_proj
I0711 11:15:38.334599 122639 net.cpp:157] Top shape: 100 128 7 7 (627200)
I0711 11:15:38.334609 122639 net.cpp:165] Memory required for data: 5587578816
I0711 11:15:38.334616 122639 layer_factory.hpp:76] Creating layer inception_5b/output
I0711 11:15:38.334633 122639 net.cpp:106] Creating Layer inception_5b/output
I0711 11:15:38.334656 122639 net.cpp:454] inception_5b/output <- inception_5b/1x1
I0711 11:15:38.334666 122639 net.cpp:454] inception_5b/output <- inception_5b/3x3
I0711 11:15:38.334686 122639 net.cpp:454] inception_5b/output <- inception_5b/5x5
I0711 11:15:38.334695 122639 net.cpp:454] inception_5b/output <- inception_5b/pool_proj
I0711 11:15:38.334709 122639 net.cpp:411] inception_5b/output -> inception_5b/output
I0711 11:15:38.334758 122639 net.cpp:150] Setting up inception_5b/output
I0711 11:15:38.334786 122639 net.cpp:157] Top shape: 100 1024 7 7 (5017600)
I0711 11:15:38.334795 122639 net.cpp:165] Memory required for data: 5607649216
I0711 11:15:38.334802 122639 layer_factory.hpp:76] Creating layer pool5/7x7_s1
I0711 11:15:38.334817 122639 net.cpp:106] Creating Layer pool5/7x7_s1
I0711 11:15:38.334827 122639 net.cpp:454] pool5/7x7_s1 <- inception_5b/output
I0711 11:15:38.334851 122639 net.cpp:411] pool5/7x7_s1 -> pool5/7x7_s1
I0711 11:15:38.335155 122639 net.cpp:150] Setting up pool5/7x7_s1
I0711 11:15:38.335182 122639 net.cpp:157] Top shape: 100 1024 1 1 (102400)
I0711 11:15:38.335191 122639 net.cpp:165] Memory required for data: 5608058816
I0711 11:15:38.335199 122639 layer_factory.hpp:76] Creating layer pool5/drop_7x7_s1
I0711 11:15:38.335224 122639 net.cpp:106] Creating Layer pool5/drop_7x7_s1
I0711 11:15:38.335232 122639 net.cpp:454] pool5/drop_7x7_s1 <- pool5/7x7_s1
I0711 11:15:38.335242 122639 net.cpp:397] pool5/drop_7x7_s1 -> pool5/7x7_s1 (in-place)
I0711 11:15:38.335274 122639 net.cpp:150] Setting up pool5/drop_7x7_s1
I0711 11:15:38.335297 122639 net.cpp:157] Top shape: 100 1024 1 1 (102400)
I0711 11:15:38.335316 122639 net.cpp:165] Memory required for data: 5608468416
I0711 11:15:38.335325 122639 layer_factory.hpp:76] Creating layer loss3/classifier
I0711 11:15:38.335352 122639 net.cpp:106] Creating Layer loss3/classifier
I0711 11:15:38.335361 122639 net.cpp:454] loss3/classifier <- pool5/7x7_s1
I0711 11:15:38.335373 122639 net.cpp:411] loss3/classifier -> loss3/classifier
I0711 11:15:38.335597 122639 net.cpp:150] Setting up loss3/classifier
I0711 11:15:38.335621 122639 net.cpp:157] Top shape: 100 2 (200)
I0711 11:15:38.335629 122639 net.cpp:165] Memory required for data: 5608469216
I0711 11:15:38.335642 122639 layer_factory.hpp:76] Creating layer loss3/classifier_loss3/classifier_0_split
I0711 11:15:38.335654 122639 net.cpp:106] Creating Layer loss3/classifier_loss3/classifier_0_split
I0711 11:15:38.335662 122639 net.cpp:454] loss3/classifier_loss3/classifier_0_split <- loss3/classifier
I0711 11:15:38.335671 122639 net.cpp:411] loss3/classifier_loss3/classifier_0_split -> loss3/classifier_loss3/classifier_0_split_0
I0711 11:15:38.335682 122639 net.cpp:411] loss3/classifier_loss3/classifier_0_split -> loss3/classifier_loss3/classifier_0_split_1
I0711 11:15:38.335728 122639 net.cpp:150] Setting up loss3/classifier_loss3/classifier_0_split
I0711 11:15:38.335742 122639 net.cpp:157] Top shape: 100 2 (200)
I0711 11:15:38.335750 122639 net.cpp:157] Top shape: 100 2 (200)
I0711 11:15:38.335757 122639 net.cpp:165] Memory required for data: 5608470816
I0711 11:15:38.335765 122639 layer_factory.hpp:76] Creating layer loss3/loss3
I0711 11:15:38.335777 122639 net.cpp:106] Creating Layer loss3/loss3
I0711 11:15:38.335784 122639 net.cpp:454] loss3/loss3 <- loss3/classifier_loss3/classifier_0_split_0
I0711 11:15:38.335793 122639 net.cpp:454] loss3/loss3 <- label_data_1_split_4
…
