…
I0711 10:14:08.792508 120388 net.cpp:49] Initializing net from parameters: 
name: "GoogleNet"
state {
  phase: TRAIN
}
layer {
  name: "data"
  type: "ImageData"
  top: "data"
  top: "label"
  include {
    phase: TRAIN
  }
  transform_param {
    mirror: true
    crop_size: 224
    mean_value: 104
    mean_value: 117
    mean_value: 123
  }
  image_data_param {
    source: "/data/dywang/Database/Proliferation/libs/stage04_mitosisDetection/training_examples/train2.lst"
    batch_size: 32
    shuffle: true
    new_height: 256
    new_width: 256
  }
}
layer {
  name: "conv1/7x7_s2"
  type: "Convolution"
  bottom: "data"
  top: "conv1/7x7_s2"
  param {
    lr_mult: 1
    decay_mult: 1
  }
  param {
    lr_mult: 2
    decay_mult: 0
  }
  convolution_param {
    num_output: 64
    pad: 3
    kernel_size: 7
    stride: 2
    weight_filler {
      type: "xavier"
    }
    bias_filler {
      type: "constant"
      value: 0.2
    }
  }
}
layer {
  name: "conv1/relu_7x7"
  type: "ReLU"
  bottom: "conv1/7x7_s2"
  top: "conv1/7x7_s2"
}
layer {
  name: "pool1/3x3_s2"
  type: "Pooling"
  bottom: "conv1/7x7_s2"
  top: "pool1/3x3_s2"
  pooling_param {
    pool: MAX
    kernel_size: 3
    stride: 2
  }
}
layer {
  name: "pool1/norm1"
  type: "LRN"
  bottom: "pool1/3x3_s2"
  top: "pool1/norm1"
  lrn_param {
    local_size: 5
    alpha: 0.0001
    beta: 0.75
  }
}
layer {
  name: "conv2/3x3_reduce"
  type: "Convolution"
  bottom: "pool1/norm1"
  top: "conv2/3x3_reduce"
  param {
    lr_mult: 1
    decay_mult: 1
  }
  param {
    lr_mult: 2
    decay_mult: 0
  }
  convolution_param {
    num_output: 64
    kernel_size: 1
    weight_filler {
      type: "xavier"
    }
    bias_filler {
      type: "constant"
      value: 0.2
    }
  }
}
layer {
  name: "conv2/relu_3x3_reduce"
  type: "ReLU"
  bottom: "conv2/3x3_reduce"
  top: "conv2/3x3_reduce"
}
layer {
  name: "conv2/3x3"
  type: "Convolution"
  bottom: "conv2/3x3_reduce"
  top: "conv2/3x3"
  param {
    lr_mult: 1
    decay_mult: 1
  }
  param {
    lr_mult: 2
    decay_mult: 0
  }
  convolution_param {
    num_output: 192
    pad: 1
    kernel_size: 3
    weight_filler {
      type: "xavier"
    }
    bias_filler {
      type: "constant"
      value: 0.2
    }
  }
}
layer {
  name: "conv2/relu_3x3"
  type: "ReLU"
  bottom: "conv2/3x3"
  top: "conv2/3x3"
}
layer {
  name: "conv2/norm2"
  type: "LRN"
  bottom: "conv2/3x3"
  top: "conv2/norm2"
  lrn_param {
    local_size: 5
    alpha: 0.0001
    beta: 0.75
  }
}
layer {
  name: "pool2/3x3_s2"
  type: "Pooling"
  bottom: "conv2/norm2"
  top: "pool2/3x3_s2"
  pooling_param {
    pool: MAX
    kernel_size: 3
    stride: 2
  }
}
layer {
  name: "inception_3a/1x1"
  type: "Convolution"
  bottom: "pool2/3x3_s2"
  top: "inception_3a/1x1"
  param {
    lr_mult: 1
    decay_mult: 1
  }
  param {
    lr_mult: 2
    decay_mult: 0
  }
  convolution_param {
    num_output: 64
    kernel_size: 1
    weight_filler {
      type: "xavier"
    }
    bias_filler {
      type: "constant"
      value: 0.2
    }
  }
}
layer {
  name: "inception_3a/relu_1x1"
  type: "ReLU"
  bottom: "inception_3a/1x1"
  top: "inception_3a/1x1"
}
layer {
  name: "inception_3a/3x3_reduce"
  type: "Convolution"
  bottom: "pool2/3x3_s2"
  top: "inception_3a/3x3_reduce"
  param {
    lr_mult: 1
    decay_mult: 1
  }
  param {
    lr_mult: 2
    decay_mult: 0
  }
  convolution_param {
    num_output: 96
    kernel_size: 1
    weight_filler {
      type: "xavier"
    }
    bias_filler {
      type: "constant"
      value: 0.2
    }
  }
}
layer {
  name: "inception_3a/relu_3x3_reduce"
  type: "ReLU"
  bottom: "inception_3a/3x3_reduce"
  top: "inception_3a/3x3_reduce"
}
layer {
  name: "inception_3a/3x3"
  type: "Convolution"
  bottom: "inception_3a/3x3_reduce"
  top: "inception_3a/3x3"
  param {
    lr_mult: 1
    decay_mult: 1
  }
  param {
    lr_mult: 2
    decay_mult: 0
  }
  convolution_param {
    num_output: 128
    pad: 1
    kernel_size: 3
    weight_filler {
      type: "xavier"
    }
    bias_filler {
      type: "constant"
      value: 0.2
    }
  }
}
layer {
  name: "inception_3a/relu_3x3"
  type: "ReLU"
  bottom: "inception_3a/3x3"
  top: "inception_3a/3x3"
}
layer {
  name: "inception_3a/5x5_reduce"
  type: "Convolution"
  bottom: "pool2/3x3_s2"
  top: "inception_3a/5x5_reduce"
  param {
    lr_mult: 1
    decay_mult: 1
  }
  param {
    lr_mult: 2
    decay_mult: 0
  }
  convolution_param {
    num_output: 16
    kernel_size: 1
    weight_filler {
      type: "xavier"
    }
    bias_filler {
      type: "constant"
      value: 0.2
    }
  }
}
layer {
  name: "inception_3a/relu_5x5_reduce"
  type: "ReLU"
  bottom: "inception_3a/5x5_reduce"
  top: "inception_3a/5x5_reduce"
}
layer {
  name: "inception_3a/5x5"
  type: "Convolution"
  bottom: "inception_3a/5x5_reduce"
  top: "inception_3a/5x5"
  param {
    lr_mult: 1
    decay_mult: 1
  }
  param {
    lr_mult: 2
    decay_mult: 0
  }
  convolution_param {
    num_output: 32
    pad: 2
    kernel_size: 5
    weight_filler {
      type: "xavier"
    }
    bias_filler {
      type: "constant"
      value: 0.2
    }
  }
}
layer {
  name: "inception_3a/relu_5x5"
  type: "ReLU"
  bottom: "inception_3a/5x5"
  top: "inception_3a/5x5"
}
layer {
  name: "inception_3a/pool"
  type: "Pooling"
  bottom: "pool2/3x3_s2"
  top: "inception_3a/pool"
  pooling_param {
    pool: MAX
    kernel_size: 3
    stride: 1
    pad: 1
  }
}
layer {
  name: "inception_3a/pool_proj"
  type: "Convolution"
  bottom: "inception_3a/pool"
  top: "inception_3a/pool_proj"
  param {
    lr_mult: 1
    decay_mult: 1
  }
  param {
    lr_mult: 2
    decay_mult: 0
  }
  convolution_param {
    num_output: 32
    kernel_size: 1
    weight_filler {
      type: "xavier"
    }
    bias_filler {
      type: "constant"
      value: 0.2
    }
  }
}
layer {
  name: "inception_3a/relu_pool_proj"
  type: "ReLU"
  bottom: "inception_3a/pool_proj"
  top: "inception_3a/pool_proj"
}
layer {
  name: "inception_3a/output"
  type: "Concat"
  bottom: "inception_3a/1x1"
  bottom: "inception_3a/3x3"
  bottom: "inception_3a/5x5"
  bottom: "inception_3a/pool_proj"
  top: "inception_3a/output"
}
layer {
  name: "inception_3b/1x1"
  type: "Convolution"
  bottom: "inception_3a/output"
  top: "inception_3b/1x1"
  param {
    lr_mult: 1
    decay_mult: 1
  }
  param {
    lr_mult: 2
    decay_mult: 0
  }
  convolution_param {
    num_output: 128
    kernel_size: 1
    weight_filler {
      type: "xavier"
    }
    bias_filler {
      type: "constant"
      value: 0.2
    }
  }
}
layer {
  name: "inception_3b/relu_1x1"
  type: "ReLU"
  bottom: "inception_3b/1x1"
  top: "inception_3b/1x1"
}
layer {
  name: "inception_3b/3x3_reduce"
  type: "Convolution"
  bottom: "inception_3a/output"
  top: "inception_3b/3x3_reduce"
  param {
    lr_mult: 1
    decay_mult: 1
  }
  param {
    lr_mult: 2
    decay_mult: 0
  }
  convolution_param {
    num_output: 128
    kernel_size: 1
    weight_filler {
      type: "xavier"
    }
    bias_filler {
      type: "constant"
      value: 0.2
    }
  }
}
layer {
  name: "inception_3b/relu_3x3_reduce"
  type: "ReLU"
  bottom: "inception_3b/3x3_reduce"
  top: "inception_3b/3x3_reduce"
}
layer {
  name: "inception_3b/3x3"
  type: "Convolution"
  bottom: "inception_3b/3x3_reduce"
  top: "inception_3b/3x3"
  param {
    lr_mult: 1
    decay_mult: 1
  }
  param {
    lr_mult: 2
    decay_mult: 0
  }
  convolution_param {
    num_output: 192
    pad: 1
    kernel_size: 3
    weight_filler {
      type: "xavier"
    }
    bias_filler {
      type: "constant"
      value: 0.2
    }
  }
}
layer {
  name: "inception_3b/relu_3x3"
  type: "ReLU"
  bottom: "inception_3b/3x3"
  top: "inception_3b/3x3"
}
layer {
  name: "inception_3b/5x5_reduce"
  type: "Convolution"
  bottom: "inception_3a/output"
  top: "inception_3b/5x5_reduce"
  param {
    lr_mult: 1
    decay_mult: 1
  }
  param {
    lr_mult: 2
    decay_mult: 0
  }
  convolution_param {
    num_output: 32
    kernel_size: 1
    weight_filler {
      type: "xavier"
    }
    bias_filler {
      type: "constant"
      value: 0.2
    }
  }
}
layer {
  name: "inception_3b/relu_5x5_reduce"
  type: "ReLU"
  bottom: "inception_3b/5x5_reduce"
  top: "inception_3b/5x5_reduce"
}
layer {
  name: "inception_3b/5x5"
  type: "Convolution"
  bottom: "inception_3b/5x5_reduce"
  top: "inception_3b/5x5"
  param {
    lr_mult: 1
    decay_mult: 1
  }
  param {
    lr_mult: 2
    decay_mult: 0
  }
  convolution_param {
    num_output: 96
    pad: 2
    kernel_size: 5
    weight_filler {
      type: "xavier"
    }
    bias_filler {
      type: "constant"
      value: 0.2
    }
  }
}
layer {
  name: "inception_3b/relu_5x5"
  type: "ReLU"
  bottom: "inception_3b/5x5"
  top: "inception_3b/5x5"
}
layer {
  name: "inception_3b/pool"
  type: "Pooling"
  bottom: "inception_3a/output"
  top: "inception_3b/pool"
  pooling_param {
    pool: MAX
    kernel_size: 3
    stride: 1
    pad: 1
  }
}
layer {
  name: "inception_3b/pool_proj"
  type: "Convolution"
  bottom: "inception_3b/pool"
  top: "inception_3b/pool_proj"
  param {
    lr_mult: 1
    decay_mult: 1
  }
  param {
    lr_mult: 2
    decay_mult: 0
  }
  convolution_param {
    num_output: 64
    kernel_size: 1
    weight_filler {
      type: "xavier"
    }
    bias_filler {
      type: "constant"
      value: 0.2
    }
  }
}
layer {
  name: "inception_3b/relu_pool_proj"
  type: "ReLU"
  bottom: "inception_3b/pool_proj"
  top: "inception_3b/pool_proj"
}
layer {
  name: "inception_3b/output"
  type: "Concat"
  bottom: "inception_3b/1x1"
  bottom: "inception_3b/3x3"
  bottom: "inception_3b/5x5"
  bottom: "inception_3b/pool_proj"
  top: "inception_3b/output"
}
layer {
  name: "pool3/3x3_s2"
  type: "Pooling"
  bottom: "inception_3b/output"
  top: "pool3/3x3_s2"
  pooling_param {
    pool: MAX
    kernel_size: 3
    stride: 2
  }
}
layer {
  name: "inception_4a/1x1"
  type: "Convolution"
  bottom: "pool3/3x3_s2"
  top: "inception_4a/1x1"
  param {
    lr_mult: 1
    decay_mult: 1
  }
  param {
    lr_mult: 2
    decay_mult: 0
  }
  convolution_param {
    num_output: 192
    kernel_size: 1
    weight_filler {
      type: "xavier"
    }
    bias_filler {
      type: "constant"
      value: 0.2
    }
  }
}
layer {
  name: "inception_4a/relu_1x1"
  type: "ReLU"
  bottom: "inception_4a/1x1"
  top: "inception_4a/1x1"
}
layer {
  name: "inception_4a/3x3_reduce"
  type: "Convolution"
  bottom: "pool3/3x3_s2"
  top: "inception_4a/3x3_reduce"
  param {
    lr_mult: 1
    decay_mult: 1
  }
  param {
    lr_mult: 2
    decay_mult: 0
  }
  convolution_param {
    num_output: 96
    kernel_size: 1
    weight_filler {
      type: "xavier"
    }
    bias_filler {
      type: "constant"
      value: 0.2
    }
  }
}
layer {
  name: "inception_4a/relu_3x3_reduce"
  type: "ReLU"
  bottom: "inception_4a/3x3_reduce"
  top: "inception_4a/3x3_reduce"
}
layer {
  name: "inception_4a/3x3"
  type: "Convolution"
  bottom: "inception_4a/3x3_reduce"
  top: "inception_4a/3x3"
  param {
    lr_mult: 1
    decay_mult: 1
  }
  param {
    lr_mult: 2
    decay_mult: 0
  }
  convolution_param {
    num_output: 208
    pad: 1
    kernel_size: 3
    weight_filler {
      type: "xavier"
    }
    bias_filler {
      type: "constant"
      value: 0.2
    }
  }
}
layer {
  name: "inception_4a/relu_3x3"
  type: "ReLU"
  bottom: "inception_4a/3x3"
  top: "inception_4a/3x3"
}
layer {
  name: "inception_4a/5x5_reduce"
  type: "Convolution"
  bottom: "pool3/3x3_s2"
  top: "inception_4a/5x5_reduce"
  param {
    lr_mult: 1
    decay_mult: 1
  }
  param {
    lr_mult: 2
    decay_mult: 0
  }
  convolution_param {
    num_output: 16
    kernel_size: 1
    weight_filler {
      type: "xavier"
    }
    bias_filler {
      type: "constant"
      value: 0.2
    }
  }
}
layer {
  name: "inception_4a/relu_5x5_reduce"
  type: "ReLU"
  bottom: "inception_4a/5x5_reduce"
  top: "inception_4a/5x5_reduce"
}
layer {
  name: "inception_4a/5x5"
  type: "Convolution"
  bottom: "inception_4a/5x5_reduce"
  top: "inception_4a/5x5"
  param {
    lr_mult: 1
    decay_mult: 1
  }
  param {
    lr_mult: 2
    decay_mult: 0
  }
  convolution_param {
    num_output: 48
    pad: 2
    kernel_size: 5
    weight_filler {
      type: "xavier"
    }
    bias_filler {
      type: "constant"
      value: 0.2
    }
  }
}
layer {
  name: "inception_4a/relu_5x5"
  type: "ReLU"
  bottom: "inception_4a/5x5"
  top: "inception_4a/5x5"
}
layer {
  name: "inception_4a/pool"
  type: "Pooling"
  bottom: "pool3/3x3_s2"
  top: "inception_4a/pool"
  pooling_param {
    pool: MAX
    kernel_size: 3
    stride: 1
    pad: 1
  }
}
layer {
  name: "inception_4a/pool_proj"
  type: "Convolution"
  bottom: "inception_4a/pool"
  top: "inception_4a/pool_proj"
  param {
    lr_mult: 1
    decay_mult: 1
  }
  param {
    lr_mult: 2
    decay_mult: 0
  }
  convolution_param {
    num_output: 64
    kernel_size: 1
    weight_filler {
      type: "xavier"
    }
    bias_filler {
      type: "constant"
      value: 0.2
    }
  }
}
layer {
  name: "inception_4a/relu_pool_proj"
  type: "ReLU"
  bottom: "inception_4a/pool_proj"
  top: "inception_4a/pool_proj"
}
layer {
  name: "inception_4a/output"
  type: "Concat"
  bottom: "inception_4a/1x1"
  bottom: "inception_4a/3x3"
  bottom: "inception_4a/5x5"
  bottom: "inception_4a/pool_proj"
  top: "inception_4a/output"
}
layer {
  name: "loss1/ave_pool"
  type: "Pooling"
  bottom: "inception_4a/output"
  top: "loss1/ave_pool"
  pooling_param {
    pool: AVE
    kernel_size: 5
    stride: 3
  }
}
layer {
  name: "loss1/conv"
  type: "Convolution"
  bottom: "loss1/ave_pool"
  top: "loss1/conv"
  param {
    lr_mult: 1
    decay_mult: 1
  }
  param {
    lr_mult: 2
    decay_mult: 0
  }
  convolution_param {
    num_output: 128
    kernel_size: 1
    weight_filler {
      type: "xavier"
    }
    bias_filler {
      type: "constant"
      value: 0.2
    }
  }
}
layer {
  name: "loss1/relu_conv"
  type: "ReLU"
  bottom: "loss1/conv"
  top: "loss1/conv"
}
layer {
  name: "loss1/fc"
  type: "InnerProduct"
  bottom: "loss1/conv"
  top: "loss1/fc"
  param {
    lr_mult: 1
    decay_mult: 1
  }
  param {
    lr_mult: 2
    decay_mult: 0
  }
  inner_product_param {
    num_output: 1024
    weight_filler {
      type: "xavier"
    }
    bias_filler {
      type: "constant"
      value: 0.2
    }
  }
}
layer {
  name: "loss1/relu_fc"
  type: "ReLU"
  bottom: "loss1/fc"
  top: "loss1/fc"
}
layer {
  name: "loss1/drop_fc"
  type: "Dropout"
  bottom: "loss1/fc"
  top: "loss1/fc"
  dropout_param {
    dropout_ratio: 0.7
  }
}
layer {
  name: "loss1/classifier"
  type: "InnerProduct"
  bottom: "loss1/fc"
  top: "loss1/classifier"
  param {
    lr_mult: 1
    decay_mult: 1
  }
  param {
    lr_mult: 2
    decay_mult: 0
  }
  inner_product_param {
    num_output: 2
    weight_filler {
      type: "xavier"
    }
    bias_filler {
      type: "constant"
      value: 0
    }
  }
}
layer {
  name: "loss1/loss"
  type: "SoftmaxWithLoss"
  bottom: "loss1/classifier"
  bottom: "label"
  top: "loss1/loss1"
  loss_weight: 0.3
}
layer {
  name: "inception_4b/1x1"
  type: "Convolution"
  bottom: "inception_4a/output"
  top: "inception_4b/1x1"
  param {
    lr_mult: 1
    decay_mult: 1
  }
  param {
    lr_mult: 2
    decay_mult: 0
  }
  convolution_param {
    num_output: 160
    kernel_size: 1
    weight_filler {
      type: "xavier"
    }
    bias_filler {
      type: "constant"
      value: 0.2
    }
  }
}
layer {
  name: "inception_4b/relu_1x1"
  type: "ReLU"
  bottom: "inception_4b/1x1"
  top: "inception_4b/1x1"
}
layer {
  name: "inception_4b/3x3_reduce"
  type: "Convolution"
  bottom: "inception_4a/output"
  top: "inception_4b/3x3_reduce"
  param {
    lr_mult: 1
    decay_mult: 1
  }
  param {
    lr_mult: 2
    decay_mult: 0
  }
  convolution_param {
    num_output: 112
    kernel_size: 1
    weight_filler {
      type: "xavier"
    }
    bias_filler {
      type: "constant"
      value: 0.2
    }
  }
}
layer {
  name: "inception_4b/relu_3x3_reduce"
  type: "ReLU"
  bottom: "inception_4b/3x3_reduce"
  top: "inception_4b/3x3_reduce"
}
layer {
  name: "inception_4b/3x3"
  type: "Convolution"
  bottom: "inception_4b/3x3_reduce"
  top: "inception_4b/3x3"
  param {
    lr_mult: 1
    decay_mult: 1
  }
  param {
    lr_mult: 2
    decay_mult: 0
  }
  convolution_param {
    num_output: 224
    pad: 1
    kernel_size: 3
    weight_filler {
      type: "xavier"
    }
    bias_filler {
      type: "constant"
      value: 0.2
    }
  }
}
layer {
  name: "inception_4b/relu_3x3"
  type: "ReLU"
  bottom: "inception_4b/3x3"
  top: "inception_4b/3x3"
}
layer {
  name: "inception_4b/5x5_reduce"
  type: "Convolution"
  bottom: "inception_4a/output"
  top: "inception_4b/5x5_reduce"
  param {
    lr_mult: 1
    decay_mult: 1
  }
  param {
    lr_mult: 2
    decay_mult: 0
  }
  convolution_param {
    num_output: 24
    kernel_size: 1
    weight_filler {
      type: "xavier"
    }
    bias_filler {
      type: "constant"
      value: 0.2
    }
  }
}
layer {
  name: "inception_4b/relu_5x5_reduce"
  type: "ReLU"
  bottom: "inception_4b/5x5_reduce"
  top: "inception_4b/5x5_reduce"
}
layer {
  name: "inception_4b/5x5"
  type: "Convolution"
  bottom: "inception_4b/5x5_reduce"
  top: "inception_4b/5x5"
  param {
    lr_mult: 1
    decay_mult: 1
  }
  param {
    lr_mult: 2
    decay_mult: 0
  }
  convolution_param {
    num_output: 64
    pad: 2
    kernel_size: 5
    weight_filler {
      type: "xavier"
    }
    bias_filler {
      type: "constant"
      value: 0.2
    }
  }
}
layer {
  name: "inception_4b/relu_5x5"
  type: "ReLU"
  bottom: "inception_4b/5x5"
  top: "inception_4b/5x5"
}
layer {
  name: "inception_4b/pool"
  type: "Pooling"
  bottom: "inception_4a/output"
  top: "inception_4b/pool"
  pooling_param {
    pool: MAX
    kernel_size: 3
    stride: 1
    pad: 1
  }
}
layer {
  name: "inception_4b/pool_proj"
  type: "Convolution"
  bottom: "inception_4b/pool"
  top: "inception_4b/pool_proj"
  param {
    lr_mult: 1
    decay_mult: 1
  }
  param {
    lr_mult: 2
    decay_mult: 0
  }
  convolution_param {
    num_output: 64
    kernel_size: 1
    weight_filler {
      type: "xavier"
    }
    bias_filler {
      type: "constant"
      value: 0.2
    }
  }
}
layer {
  name: "inception_4b/relu_pool_proj"
  type: "ReLU"
  bottom: "inception_4b/pool_proj"
  top: "inception_4b/pool_proj"
}
layer {
  name: "inception_4b/output"
  type: "Concat"
  bottom: "inception_4b/1x1"
  bottom: "inception_4b/3x3"
  bottom: "inception_4b/5x5"
  bottom: "inception_4b/pool_proj"
  top: "inception_4b/output"
}
layer {
  name: "inception_4c/1x1"
  type: "Convolution"
  bottom: "inception_4b/output"
  top: "inception_4c/1x1"
  param {
    lr_mult: 1
    decay_mult: 1
  }
  param {
    lr_mult: 2
    decay_mult: 0
  }
  convolution_param {
    num_output: 128
    kernel_size: 1
    weight_filler {
      type: "xavier"
    }
    bias_filler {
      type: "constant"
      value: 0.2
    }
  }
}
layer {
  name: "inception_4c/relu_1x1"
  type: "ReLU"
  bottom: "inception_4c/1x1"
  top: "inception_4c/1x1"
}
layer {
  name: "inception_4c/3x3_reduce"
  type: "Convolution"
  bottom: "inception_4b/output"
  top: "inception_4c/3x3_reduce"
  param {
    lr_mult: 1
    decay_mult: 1
  }
  param {
    lr_mult: 2
    decay_mult: 0
  }
  convolution_param {
    num_output: 128
    kernel_size: 1
    weight_filler {
      type: "xavier"
    }
    bias_filler {
      type: "constant"
      value: 0.2
    }
  }
}
layer {
  name: "inception_4c/relu_3x3_reduce"
  type: "ReLU"
  bottom: "inception_4c/3x3_reduce"
  top: "inception_4c/3x3_reduce"
}
layer {
  name: "inception_4c/3x3"
  type: "Convolution"
  bottom: "inception_4c/3x3_reduce"
  top: "inception_4c/3x3"
  param {
    lr_mult: 1
    decay_mult: 1
  }
  param {
    lr_mult: 2
    decay_mult: 0
  }
  convolution_param {
    num_output: 256
    pad: 1
    kernel_size: 3
    weight_filler {
      type: "xavier"
    }
    bias_filler {
      type: "constant"
      value: 0.2
    }
  }
}
layer {
  name: "inception_4c/relu_3x3"
  type: "ReLU"
  bottom: "inception_4c/3x3"
  top: "inception_4c/3x3"
}
layer {
  name: "inception_4c/5x5_reduce"
  type: "Convolution"
  bottom: "inception_4b/output"
  top: "inception_4c/5x5_reduce"
  param {
    lr_mult: 1
    decay_mult: 1
  }
  param {
    lr_mult: 2
    decay_mult: 0
  }
  convolution_param {
    num_output: 24
    kernel_size: 1
    weight_filler {
      type: "xavier"
    }
    bias_filler {
      type: "constant"
      value: 0.2
    }
  }
}
layer {
  name: "inception_4c/relu_5x5_reduce"
  type: "ReLU"
  bottom: "inception_4c/5x5_reduce"
  top: "inception_4c/5x5_reduce"
}
layer {
  name: "inception_4c/5x5"
  type: "Convolution"
  bottom: "inception_4c/5x5_reduce"
  top: "inception_4c/5x5"
  param {
    lr_mult: 1
    decay_mult: 1
  }
  param {
    lr_mult: 2
    decay_mult: 0
  }
  convolution_param {
    num_output: 64
    pad: 2
    kernel_size: 5
    weight_filler {
      type: "xavier"
    }
    bias_filler {
      type: "constant"
      value: 0.2
    }
  }
}
layer {
  name: "inception_4c/relu_5x5"
  type: "ReLU"
  bottom: "inception_4c/5x5"
  top: "inception_4c/5x5"
}
layer {
  name: "inception_4c/pool"
  type: "Pooling"
  bottom: "inception_4b/output"
  top: "inception_4c/pool"
  pooling_param {
    pool: MAX
    kernel_size: 3
    stride: 1
    pad: 1
  }
}
layer {
  name: "inception_4c/pool_proj"
  type: "Convolution"
  bottom: "inception_4c/pool"
  top: "inception_4c/pool_proj"
  param {
    lr_mult: 1
    decay_mult: 1
  }
  param {
    lr_mult: 2
    decay_mult: 0
  }
  convolution_param {
    num_output: 64
    kernel_size: 1
    weight_filler {
      type: "xavier"
    }
    bias_filler {
      type: "constant"
      value: 0.2
    }
  }
}
layer {
  name: "inception_4c/relu_pool_proj"
  type: "ReLU"
  bottom: "inception_4c/pool_proj"
  top: "inception_4c/pool_proj"
}
layer {
  name: "inception_4c/output"
  type: "Concat"
  bottom: "inception_4c/1x1"
  bottom: "inception_4c/3x3"
  bottom: "inception_4c/5x5"
  bottom: "inception_4c/pool_proj"
  top: "inception_4c/output"
}
layer {
  name: "inception_4d/1x1"
  type: "Convolution"
  bottom: "inception_4c/output"
  top: "inception_4d/1x1"
  param {
    lr_mult: 1
    decay_mult: 1
  }
  param {
    lr_mult: 2
    decay_mult: 0
  }
  convolution_param {
    num_output: 112
    kernel_size: 1
    weight_filler {
      type: "xavier"
    }
    bias_filler {
      type: "constant"
      value: 0.2
    }
  }
}
layer {
  name: "inception_4d/relu_1x1"
  type: "ReLU"
  bottom: "inception_4d/1x1"
  top: "inception_4d/1x1"
}
layer {
  name: "inception_4d/3x3_reduce"
  type: "Convolution"
  bottom: "inception_4c/output"
  top: "inception_4d/3x3_reduce"
  param {
    lr_mult: 1
    decay_mult: 1
  }
  param {
    lr_mult: 2
    decay_mult: 0
  }
  convolution_param {
    num_output: 144
    kernel_size: 1
    weight_filler {
      type: "xavier"
    }
    bias_filler {
      type: "constant"
      value: 0.2
    }
  }
}
layer {
  name: "inception_4d/relu_3x3_reduce"
  type: "ReLU"
  bottom: "inception_4d/3x3_reduce"
  top: "inception_4d/3x3_reduce"
}
layer {
  name: "inception_4d/3x3"
  type: "Convolution"
  bottom: "inception_4d/3x3_reduce"
  top: "inception_4d/3x3"
  param {
    lr_mult: 1
    decay_mult: 1
  }
  param {
    lr_mult: 2
    decay_mult: 0
  }
  convolution_param {
    num_output: 288
    pad: 1
    kernel_size: 3
    weight_filler {
      type: "xavier"
    }
    bias_filler {
      type: "constant"
      value: 0.2
    }
  }
}
layer {
  name: "inception_4d/relu_3x3"
  type: "ReLU"
  bottom: "inception_4d/3x3"
  top: "inception_4d/3x3"
}
layer {
  name: "inception_4d/5x5_reduce"
  type: "Convolution"
  bottom: "inception_4c/output"
  top: "inception_4d/5x5_reduce"
  param {
    lr_mult: 1
    decay_mult: 1
  }
  param {
    lr_mult: 2
    decay_mult: 0
  }
  convolution_param {
    num_output: 32
    kernel_size: 1
    weight_filler {
      type: "xavier"
    }
    bias_filler {
      type: "constant"
      value: 0.2
    }
  }
}
layer {
  name: "inception_4d/relu_5x5_reduce"
  type: "ReLU"
  bottom: "inception_4d/5x5_reduce"
  top: "inception_4d/5x5_reduce"
}
layer {
  name: "inception_4d/5x5"
  type: "Convolution"
  bottom: "inception_4d/5x5_reduce"
  top: "inception_4d/5x5"
  param {
    lr_mult: 1
    decay_mult: 1
  }
  param {
    lr_mult: 2
    decay_mult: 0
  }
  convolution_param {
    num_output: 64
    pad: 2
    kernel_size: 5
    weight_filler {
      type: "xavier"
    }
    bias_filler {
      type: "constant"
      value: 0.2
    }
  }
}
layer {
  name: "inception_4d/relu_5x5"
  type: "ReLU"
  bottom: "inception_4d/5x5"
  top: "inception_4d/5x5"
}
layer {
  name: "inception_4d/pool"
  type: "Pooling"
  bottom: "inception_4c/output"
  top: "inception_4d/pool"
  pooling_param {
    pool: MAX
    kernel_size: 3
    stride: 1
    pad: 1
  }
}
layer {
  name: "inception_4d/pool_proj"
  type: "Convolution"
  bottom: "inception_4d/pool"
  top: "inception_4d/pool_proj"
  param {
    lr_mult: 1
    decay_mult: 1
  }
  param {
    lr_mult: 2
    decay_mult: 0
  }
  convolution_param {
    num_output: 64
    kernel_size: 1
    weight_filler {
      type: "xavier"
    }
    bias_filler {
      type: "constant"
      value: 0.2
    }
  }
}
layer {
  name: "inception_4d/relu_pool_proj"
  type: "ReLU"
  bottom: "inception_4d/pool_proj"
  top: "inception_4d/pool_proj"
}
layer {
  name: "inception_4d/output"
  type: "Concat"
  bottom: "inception_4d/1x1"
  bottom: "inception_4d/3x3"
  bottom: "inception_4d/5x5"
  bottom: "inception_4d/pool_proj"
  top: "inception_4d/output"
}
layer {
  name: "loss2/ave_pool"
  type: "Pooling"
  bottom: "inception_4d/output"
  top: "loss2/ave_pool"
  pooling_param {
    pool: AVE
    kernel_size: 5
    stride: 3
  }
}
layer {
  name: "loss2/conv"
  type: "Convolution"
  bottom: "loss2/ave_pool"
  top: "loss2/conv"
  param {
    lr_mult: 1
    decay_mult: 1
  }
  param {
    lr_mult: 2
    decay_mult: 0
  }
  convolution_param {
    num_output: 128
    kernel_size: 1
    weight_filler {
      type: "xavier"
    }
    bias_filler {
      type: "constant"
      value: 0.2
    }
  }
}
layer {
  name: "loss2/relu_conv"
  type: "ReLU"
  bottom: "loss2/conv"
  top: "loss2/conv"
}
layer {
  name: "loss2/fc"
  type: "InnerProduct"
  bottom: "loss2/conv"
  top: "loss2/fc"
  param {
    lr_mult: 1
    decay_mult: 1
  }
  param {
    lr_mult: 2
    decay_mult: 0
  }
  inner_product_param {
    num_output: 1024
    weight_filler {
      type: "xavier"
    }
    bias_filler {
      type: "constant"
      value: 0.2
    }
  }
}
layer {
  name: "loss2/relu_fc"
  type: "ReLU"
  bottom: "loss2/fc"
  top: "loss2/fc"
}
layer {
  name: "loss2/drop_fc"
  type: "Dropout"
  bottom: "loss2/fc"
  top: "loss2/fc"
  dropout_param {
    dropout_ratio: 0.7
  }
}
layer {
  name: "loss2/classifier"
  type: "InnerProduct"
  bottom: "loss2/fc"
  top: "loss2/classifier"
  param {
    lr_mult: 1
    decay_mult: 1
  }
  param {
    lr_mult: 2
    decay_mult: 0
  }
  inner_product_param {
    num_output: 2
    weight_filler {
      type: "xavier"
    }
    bias_filler {
      type: "constant"
      value: 0
    }
  }
}
layer {
  name: "loss2/loss"
  type: "SoftmaxWithLoss"
  bottom: "loss2/classifier"
  bottom: "label"
  top: "loss2/loss1"
  loss_weight: 0.3
}
layer {
  name: "inception_4e/1x1"
  type: "Convolution"
  bottom: "inception_4d/output"
  top: "inception_4e/1x1"
  param {
    lr_mult: 1
    decay_mult: 1
  }
  param {
    lr_mult: 2
    decay_mult: 0
  }
  convolution_param {
    num_output: 256
    kernel_size: 1
    weight_filler {
      type: "xavier"
    }
    bias_filler {
      type: "constant"
      value: 0.2
    }
  }
}
layer {
  name: "inception_4e/relu_1x1"
  type: "ReLU"
  bottom: "inception_4e/1x1"
  top: "inception_4e/1x1"
}
layer {
  name: "inception_4e/3x3_reduce"
  type: "Convolution"
  bottom: "inception_4d/output"
  top: "inception_4e/3x3_reduce"
  param {
    lr_mult: 1
    decay_mult: 1
  }
  param {
    lr_mult: 2
    decay_mult: 0
  }
  convolution_param {
    num_output: 160
    kernel_size: 1
    weight_filler {
      type: "xavier"
    }
    bias_filler {
      type: "constant"
      value: 0.2
    }
  }
}
layer {
  name: "inception_4e/relu_3x3_reduce"
  type: "ReLU"
  bottom: "inception_4e/3x3_reduce"
  top: "inception_4e/3x3_reduce"
}
layer {
  name: "inception_4e/3x3"
  type: "Convolution"
  bottom: "inception_4e/3x3_reduce"
  top: "inception_4e/3x3"
  param {
    lr_mult: 1
    decay_mult: 1
  }
  param {
    lr_mult: 2
    decay_mult: 0
  }
  convolution_param {
    num_output: 320
    pad: 1
    kernel_size: 3
    weight_filler {
      type: "xavier"
    }
    bias_filler {
      type: "constant"
      value: 0.2
    }
  }
}
layer {
  name: "inception_4e/relu_3x3"
  type: "ReLU"
  bottom: "inception_4e/3x3"
  top: "inception_4e/3x3"
}
layer {
  name: "inception_4e/5x5_reduce"
  type: "Convolution"
  bottom: "inception_4d/output"
  top: "inception_4e/5x5_reduce"
  param {
    lr_mult: 1
    decay_mult: 1
  }
  param {
    lr_mult: 2
    decay_mult: 0
  }
  convolution_param {
    num_output: 32
    kernel_size: 1
    weight_filler {
      type: "xavier"
    }
    bias_filler {
      type: "constant"
      value: 0.2
    }
  }
}
layer {
  name: "inception_4e/relu_5x5_reduce"
  type: "ReLU"
  bottom: "inception_4e/5x5_reduce"
  top: "inception_4e/5x5_reduce"
}
layer {
  name: "inception_4e/5x5"
  type: "Convolution"
  bottom: "inception_4e/5x5_reduce"
  top: "inception_4e/5x5"
  param {
    lr_mult: 1
    decay_mult: 1
  }
  param {
    lr_mult: 2
    decay_mult: 0
  }
  convolution_param {
    num_output: 128
    pad: 2
    kernel_size: 5
    weight_filler {
      type: "xavier"
    }
    bias_filler {
      type: "constant"
      value: 0.2
    }
  }
}
layer {
  name: "inception_4e/relu_5x5"
  type: "ReLU"
  bottom: "inception_4e/5x5"
  top: "inception_4e/5x5"
}
layer {
  name: "inception_4e/pool"
  type: "Pooling"
  bottom: "inception_4
I0711 10:14:08.798178 120388 layer_factory.hpp:76] Creating layer data
I0711 10:14:08.798243 120388 net.cpp:106] Creating Layer data
I0711 10:14:08.798272 120388 net.cpp:411] data -> data
I0711 10:14:08.798305 120388 net.cpp:411] data -> label
I0711 10:14:08.798831 120388 image_data_layer.cpp:36] Opening file /data/dywang/Database/Proliferation/libs/stage04_mitosisDetection/training_examples/train2.lst
I0711 10:14:08.827491 120388 image_data_layer.cpp:46] Shuffling data
I0711 10:14:08.833463 120388 image_data_layer.cpp:51] A total of 64722 images.
I0711 10:14:08.842545 120388 image_data_layer.cpp:78] output data size: 32,3,224,224
I0711 10:14:08.890815 120388 net.cpp:150] Setting up data
I0711 10:14:08.890863 120388 net.cpp:157] Top shape: 32 3 224 224 (4816896)
I0711 10:14:08.890874 120388 net.cpp:157] Top shape: 32 (32)
I0711 10:14:08.890882 120388 net.cpp:165] Memory required for data: 19267712
I0711 10:14:08.890893 120388 layer_factory.hpp:76] Creating layer label_data_1_split
I0711 10:14:08.890913 120388 net.cpp:106] Creating Layer label_data_1_split
I0711 10:14:08.890923 120388 net.cpp:454] label_data_1_split <- label
I0711 10:14:08.890938 120388 net.cpp:411] label_data_1_split -> label_data_1_split_0
I0711 10:14:08.890952 120388 net.cpp:411] label_data_1_split -> label_data_1_split_1
I0711 10:14:08.890964 120388 net.cpp:411] label_data_1_split -> label_data_1_split_2
I0711 10:14:08.891019 120388 net.cpp:150] Setting up label_data_1_split
I0711 10:14:08.891032 120388 net.cpp:157] Top shape: 32 (32)
I0711 10:14:08.891052 120388 net.cpp:157] Top shape: 32 (32)
I0711 10:14:08.891060 120388 net.cpp:157] Top shape: 32 (32)
I0711 10:14:08.891068 120388 net.cpp:165] Memory required for data: 19268096
I0711 10:14:08.891077 120388 layer_factory.hpp:76] Creating layer conv1/7x7_s2
I0711 10:14:08.891140 120388 net.cpp:106] Creating Layer conv1/7x7_s2
I0711 10:14:08.891151 120388 net.cpp:454] conv1/7x7_s2 <- data
I0711 10:14:08.891163 120388 net.cpp:411] conv1/7x7_s2 -> conv1/7x7_s2
I0711 10:14:09.006564 120388 net.cpp:150] Setting up conv1/7x7_s2
I0711 10:14:09.006603 120388 net.cpp:157] Top shape: 32 64 112 112 (25690112)
I0711 10:14:09.006610 120388 net.cpp:165] Memory required for data: 122028544
I0711 10:14:09.006651 120388 layer_factory.hpp:76] Creating layer conv1/relu_7x7
I0711 10:14:09.006669 120388 net.cpp:106] Creating Layer conv1/relu_7x7
I0711 10:14:09.006680 120388 net.cpp:454] conv1/relu_7x7 <- conv1/7x7_s2
I0711 10:14:09.006690 120388 net.cpp:397] conv1/relu_7x7 -> conv1/7x7_s2 (in-place)
I0711 10:14:09.006870 120388 net.cpp:150] Setting up conv1/relu_7x7
I0711 10:14:09.006885 120388 net.cpp:157] Top shape: 32 64 112 112 (25690112)
I0711 10:14:09.006891 120388 net.cpp:165] Memory required for data: 224788992
I0711 10:14:09.006913 120388 layer_factory.hpp:76] Creating layer pool1/3x3_s2
I0711 10:14:09.006927 120388 net.cpp:106] Creating Layer pool1/3x3_s2
I0711 10:14:09.006933 120388 net.cpp:454] pool1/3x3_s2 <- conv1/7x7_s2
I0711 10:14:09.006943 120388 net.cpp:411] pool1/3x3_s2 -> pool1/3x3_s2
I0711 10:14:09.007292 120388 net.cpp:150] Setting up pool1/3x3_s2
I0711 10:14:09.007309 120388 net.cpp:157] Top shape: 32 64 56 56 (6422528)
I0711 10:14:09.007333 120388 net.cpp:165] Memory required for data: 250479104
I0711 10:14:09.007341 120388 layer_factory.hpp:76] Creating layer pool1/norm1
I0711 10:14:09.007360 120388 net.cpp:106] Creating Layer pool1/norm1
I0711 10:14:09.007369 120388 net.cpp:454] pool1/norm1 <- pool1/3x3_s2
I0711 10:14:09.007378 120388 net.cpp:411] pool1/norm1 -> pool1/norm1
I0711 10:14:09.007575 120388 net.cpp:150] Setting up pool1/norm1
I0711 10:14:09.007601 120388 net.cpp:157] Top shape: 32 64 56 56 (6422528)
I0711 10:14:09.007608 120388 net.cpp:165] Memory required for data: 276169216
I0711 10:14:09.007628 120388 layer_factory.hpp:76] Creating layer conv2/3x3_reduce
I0711 10:14:09.007642 120388 net.cpp:106] Creating Layer conv2/3x3_reduce
I0711 10:14:09.007649 120388 net.cpp:454] conv2/3x3_reduce <- pool1/norm1
I0711 10:14:09.007658 120388 net.cpp:411] conv2/3x3_reduce -> conv2/3x3_reduce
I0711 10:14:09.009161 120388 cudnn_conv_layer.cpp:194] Reallocating workspace storage: 768
I0711 10:14:09.009191 120388 net.cpp:150] Setting up conv2/3x3_reduce
I0711 10:14:09.009202 120388 net.cpp:157] Top shape: 32 64 56 56 (6422528)
I0711 10:14:09.009209 120388 net.cpp:165] Memory required for data: 301859328
I0711 10:14:09.009220 120388 layer_factory.hpp:76] Creating layer conv2/relu_3x3_reduce
I0711 10:14:09.009230 120388 net.cpp:106] Creating Layer conv2/relu_3x3_reduce
I0711 10:14:09.009238 120388 net.cpp:454] conv2/relu_3x3_reduce <- conv2/3x3_reduce
I0711 10:14:09.009248 120388 net.cpp:397] conv2/relu_3x3_reduce -> conv2/3x3_reduce (in-place)
I0711 10:14:09.009543 120388 net.cpp:150] Setting up conv2/relu_3x3_reduce
I0711 10:14:09.009560 120388 net.cpp:157] Top shape: 32 64 56 56 (6422528)
I0711 10:14:09.009568 120388 net.cpp:165] Memory required for data: 327549440
I0711 10:14:09.009577 120388 layer_factory.hpp:76] Creating layer conv2/3x3
I0711 10:14:09.009589 120388 net.cpp:106] Creating Layer conv2/3x3
I0711 10:14:09.009598 120388 net.cpp:454] conv2/3x3 <- conv2/3x3_reduce
I0711 10:14:09.009608 120388 net.cpp:411] conv2/3x3 -> conv2/3x3
I0711 10:14:09.011886 120388 cudnn_conv_layer.cpp:194] Reallocating workspace storage: 6912
I0711 10:14:09.012189 120388 net.cpp:150] Setting up conv2/3x3
I0711 10:14:09.012218 120388 net.cpp:157] Top shape: 32 192 56 56 (19267584)
I0711 10:14:09.012226 120388 net.cpp:165] Memory required for data: 404619776
I0711 10:14:09.012239 120388 layer_factory.hpp:76] Creating layer conv2/relu_3x3
I0711 10:14:09.012250 120388 net.cpp:106] Creating Layer conv2/relu_3x3
I0711 10:14:09.012259 120388 net.cpp:454] conv2/relu_3x3 <- conv2/3x3
I0711 10:14:09.012269 120388 net.cpp:397] conv2/relu_3x3 -> conv2/3x3 (in-place)
I0711 10:14:09.012503 120388 net.cpp:150] Setting up conv2/relu_3x3
I0711 10:14:09.012531 120388 net.cpp:157] Top shape: 32 192 56 56 (19267584)
I0711 10:14:09.012549 120388 net.cpp:165] Memory required for data: 481690112
I0711 10:14:09.012559 120388 layer_factory.hpp:76] Creating layer conv2/norm2
I0711 10:14:09.012569 120388 net.cpp:106] Creating Layer conv2/norm2
I0711 10:14:09.012578 120388 net.cpp:454] conv2/norm2 <- conv2/3x3
I0711 10:14:09.012588 120388 net.cpp:411] conv2/norm2 -> conv2/norm2
I0711 10:14:09.013098 120388 net.cpp:150] Setting up conv2/norm2
I0711 10:14:09.013128 120388 net.cpp:157] Top shape: 32 192 56 56 (19267584)
I0711 10:14:09.013135 120388 net.cpp:165] Memory required for data: 558760448
I0711 10:14:09.013144 120388 layer_factory.hpp:76] Creating layer pool2/3x3_s2
I0711 10:14:09.013154 120388 net.cpp:106] Creating Layer pool2/3x3_s2
I0711 10:14:09.013162 120388 net.cpp:454] pool2/3x3_s2 <- conv2/norm2
I0711 10:14:09.013171 120388 net.cpp:411] pool2/3x3_s2 -> pool2/3x3_s2
I0711 10:14:09.013388 120388 net.cpp:150] Setting up pool2/3x3_s2
I0711 10:14:09.013416 120388 net.cpp:157] Top shape: 32 192 28 28 (4816896)
I0711 10:14:09.013434 120388 net.cpp:165] Memory required for data: 578028032
I0711 10:14:09.013442 120388 layer_factory.hpp:76] Creating layer pool2/3x3_s2_pool2/3x3_s2_0_split
I0711 10:14:09.013454 120388 net.cpp:106] Creating Layer pool2/3x3_s2_pool2/3x3_s2_0_split
I0711 10:14:09.013461 120388 net.cpp:454] pool2/3x3_s2_pool2/3x3_s2_0_split <- pool2/3x3_s2
I0711 10:14:09.013471 120388 net.cpp:411] pool2/3x3_s2_pool2/3x3_s2_0_split -> pool2/3x3_s2_pool2/3x3_s2_0_split_0
I0711 10:14:09.013481 120388 net.cpp:411] pool2/3x3_s2_pool2/3x3_s2_0_split -> pool2/3x3_s2_pool2/3x3_s2_0_split_1
I0711 10:14:09.013491 120388 net.cpp:411] pool2/3x3_s2_pool2/3x3_s2_0_split -> pool2/3x3_s2_pool2/3x3_s2_0_split_2
I0711 10:14:09.013500 120388 net.cpp:411] pool2/3x3_s2_pool2/3x3_s2_0_split -> pool2/3x3_s2_pool2/3x3_s2_0_split_3
I0711 10:14:09.013569 120388 net.cpp:150] Setting up pool2/3x3_s2_pool2/3x3_s2_0_split
I0711 10:14:09.013581 120388 net.cpp:157] Top shape: 32 192 28 28 (4816896)
I0711 10:14:09.013591 120388 net.cpp:157] Top shape: 32 192 28 28 (4816896)
I0711 10:14:09.013598 120388 net.cpp:157] Top shape: 32 192 28 28 (4816896)
I0711 10:14:09.013607 120388 net.cpp:157] Top shape: 32 192 28 28 (4816896)
I0711 10:14:09.013614 120388 net.cpp:165] Memory required for data: 655098368
I0711 10:14:09.013622 120388 layer_factory.hpp:76] Creating layer inception_3a/1x1
I0711 10:14:09.013636 120388 net.cpp:106] Creating Layer inception_3a/1x1
I0711 10:14:09.013658 120388 net.cpp:454] inception_3a/1x1 <- pool2/3x3_s2_pool2/3x3_s2_0_split_0
I0711 10:14:09.013669 120388 net.cpp:411] inception_3a/1x1 -> inception_3a/1x1
I0711 10:14:09.015311 120388 net.cpp:150] Setting up inception_3a/1x1
I0711 10:14:09.015329 120388 net.cpp:157] Top shape: 32 64 28 28 (1605632)
I0711 10:14:09.015337 120388 net.cpp:165] Memory required for data: 661520896
I0711 10:14:09.015347 120388 layer_factory.hpp:76] Creating layer inception_3a/relu_1x1
I0711 10:14:09.015357 120388 net.cpp:106] Creating Layer inception_3a/relu_1x1
I0711 10:14:09.015364 120388 net.cpp:454] inception_3a/relu_1x1 <- inception_3a/1x1
I0711 10:14:09.015374 120388 net.cpp:397] inception_3a/relu_1x1 -> inception_3a/1x1 (in-place)
I0711 10:14:09.015655 120388 net.cpp:150] Setting up inception_3a/relu_1x1
I0711 10:14:09.015671 120388 net.cpp:157] Top shape: 32 64 28 28 (1605632)
I0711 10:14:09.015678 120388 net.cpp:165] Memory required for data: 667943424
I0711 10:14:09.015686 120388 layer_factory.hpp:76] Creating layer inception_3a/3x3_reduce
I0711 10:14:09.015699 120388 net.cpp:106] Creating Layer inception_3a/3x3_reduce
I0711 10:14:09.015707 120388 net.cpp:454] inception_3a/3x3_reduce <- pool2/3x3_s2_pool2/3x3_s2_0_split_1
I0711 10:14:09.015718 120388 net.cpp:411] inception_3a/3x3_reduce -> inception_3a/3x3_reduce
I0711 10:14:09.017118 120388 cudnn_conv_layer.cpp:194] Reallocating workspace storage: 2304
I0711 10:14:09.017305 120388 net.cpp:150] Setting up inception_3a/3x3_reduce
I0711 10:14:09.017333 120388 net.cpp:157] Top shape: 32 96 28 28 (2408448)
I0711 10:14:09.017341 120388 net.cpp:165] Memory required for data: 677577216
I0711 10:14:09.017354 120388 layer_factory.hpp:76] Creating layer inception_3a/relu_3x3_reduce
I0711 10:14:09.017367 120388 net.cpp:106] Creating Layer inception_3a/relu_3x3_reduce
I0711 10:14:09.017375 120388 net.cpp:454] inception_3a/relu_3x3_reduce <- inception_3a/3x3_reduce
I0711 10:14:09.017385 120388 net.cpp:397] inception_3a/relu_3x3_reduce -> inception_3a/3x3_reduce (in-place)
I0711 10:14:09.017668 120388 net.cpp:150] Setting up inception_3a/relu_3x3_reduce
I0711 10:14:09.017684 120388 net.cpp:157] Top shape: 32 96 28 28 (2408448)
I0711 10:14:09.017691 120388 net.cpp:165] Memory required for data: 687211008
I0711 10:14:09.017699 120388 layer_factory.hpp:76] Creating layer inception_3a/3x3
I0711 10:14:09.017714 120388 net.cpp:106] Creating Layer inception_3a/3x3
I0711 10:14:09.017722 120388 net.cpp:454] inception_3a/3x3 <- inception_3a/3x3_reduce
I0711 10:14:09.017731 120388 net.cpp:411] inception_3a/3x3 -> inception_3a/3x3
I0711 10:14:09.019291 120388 net.cpp:150] Setting up inception_3a/3x3
I0711 10:14:09.019309 120388 net.cpp:157] Top shape: 32 128 28 28 (3211264)
I0711 10:14:09.019316 120388 net.cpp:165] Memory required for data: 700056064
I0711 10:14:09.019326 120388 layer_factory.hpp:76] Creating layer inception_3a/relu_3x3
I0711 10:14:09.019337 120388 net.cpp:106] Creating Layer inception_3a/relu_3x3
I0711 10:14:09.019345 120388 net.cpp:454] inception_3a/relu_3x3 <- inception_3a/3x3
I0711 10:14:09.019353 120388 net.cpp:397] inception_3a/relu_3x3 -> inception_3a/3x3 (in-place)
I0711 10:14:09.019500 120388 net.cpp:150] Setting up inception_3a/relu_3x3
I0711 10:14:09.019525 120388 net.cpp:157] Top shape: 32 128 28 28 (3211264)
I0711 10:14:09.019531 120388 net.cpp:165] Memory required for data: 712901120
I0711 10:14:09.019539 120388 layer_factory.hpp:76] Creating layer inception_3a/5x5_reduce
I0711 10:14:09.019564 120388 net.cpp:106] Creating Layer inception_3a/5x5_reduce
I0711 10:14:09.019572 120388 net.cpp:454] inception_3a/5x5_reduce <- pool2/3x3_s2_pool2/3x3_s2_0_split_2
I0711 10:14:09.019583 120388 net.cpp:411] inception_3a/5x5_reduce -> inception_3a/5x5_reduce
I0711 10:14:09.020650 120388 net.cpp:150] Setting up inception_3a/5x5_reduce
I0711 10:14:09.020669 120388 net.cpp:157] Top shape: 32 16 28 28 (401408)
I0711 10:14:09.020676 120388 net.cpp:165] Memory required for data: 714506752
I0711 10:14:09.020686 120388 layer_factory.hpp:76] Creating layer inception_3a/relu_5x5_reduce
I0711 10:14:09.020699 120388 net.cpp:106] Creating Layer inception_3a/relu_5x5_reduce
I0711 10:14:09.020705 120388 net.cpp:454] inception_3a/relu_5x5_reduce <- inception_3a/5x5_reduce
I0711 10:14:09.020715 120388 net.cpp:397] inception_3a/relu_5x5_reduce -> inception_3a/5x5_reduce (in-place)
I0711 10:14:09.021001 120388 net.cpp:150] Setting up inception_3a/relu_5x5_reduce
I0711 10:14:09.021020 120388 net.cpp:157] Top shape: 32 16 28 28 (401408)
I0711 10:14:09.021028 120388 net.cpp:165] Memory required for data: 716112384
I0711 10:14:09.021034 120388 layer_factory.hpp:76] Creating layer inception_3a/5x5
I0711 10:14:09.021045 120388 net.cpp:106] Creating Layer inception_3a/5x5
I0711 10:14:09.021052 120388 net.cpp:454] inception_3a/5x5 <- inception_3a/5x5_reduce
I0711 10:14:09.021064 120388 net.cpp:411] inception_3a/5x5 -> inception_3a/5x5
I0711 10:14:09.021904 120388 net.cpp:150] Setting up inception_3a/5x5
I0711 10:14:09.021922 120388 net.cpp:157] Top shape: 32 32 28 28 (802816)
I0711 10:14:09.021929 120388 net.cpp:165] Memory required for data: 719323648
I0711 10:14:09.021939 120388 layer_factory.hpp:76] Creating layer inception_3a/relu_5x5
I0711 10:14:09.021950 120388 net.cpp:106] Creating Layer inception_3a/relu_5x5
I0711 10:14:09.021958 120388 net.cpp:454] inception_3a/relu_5x5 <- inception_3a/5x5
I0711 10:14:09.021966 120388 net.cpp:397] inception_3a/relu_5x5 -> inception_3a/5x5 (in-place)
I0711 10:14:09.022246 120388 net.cpp:150] Setting up inception_3a/relu_5x5
I0711 10:14:09.022274 120388 net.cpp:157] Top shape: 32 32 28 28 (802816)
I0711 10:14:09.022284 120388 net.cpp:165] Memory required for data: 722534912
I0711 10:14:09.022290 120388 layer_factory.hpp:76] Creating layer inception_3a/pool
I0711 10:14:09.022300 120388 net.cpp:106] Creating Layer inception_3a/pool
I0711 10:14:09.022307 120388 net.cpp:454] inception_3a/pool <- pool2/3x3_s2_pool2/3x3_s2_0_split_3
I0711 10:14:09.022316 120388 net.cpp:411] inception_3a/pool -> inception_3a/pool
I0711 10:14:09.022506 120388 net.cpp:150] Setting up inception_3a/pool
I0711 10:14:09.022534 120388 net.cpp:157] Top shape: 32 192 28 28 (4816896)
I0711 10:14:09.022541 120388 net.cpp:165] Memory required for data: 741802496
I0711 10:14:09.022547 120388 layer_factory.hpp:76] Creating layer inception_3a/pool_proj
I0711 10:14:09.022560 120388 net.cpp:106] Creating Layer inception_3a/pool_proj
I0711 10:14:09.022568 120388 net.cpp:454] inception_3a/pool_proj <- inception_3a/pool
I0711 10:14:09.022578 120388 net.cpp:411] inception_3a/pool_proj -> inception_3a/pool_proj
I0711 10:14:09.023576 120388 net.cpp:150] Setting up inception_3a/pool_proj
I0711 10:14:09.023604 120388 net.cpp:157] Top shape: 32 32 28 28 (802816)
I0711 10:14:09.023613 120388 net.cpp:165] Memory required for data: 745013760
I0711 10:14:09.023633 120388 layer_factory.hpp:76] Creating layer inception_3a/relu_pool_proj
I0711 10:14:09.023644 120388 net.cpp:106] Creating Layer inception_3a/relu_pool_proj
I0711 10:14:09.023653 120388 net.cpp:454] inception_3a/relu_pool_proj <- inception_3a/pool_proj
I0711 10:14:09.023663 120388 net.cpp:397] inception_3a/relu_pool_proj -> inception_3a/pool_proj (in-place)
I0711 10:14:09.024003 120388 net.cpp:150] Setting up inception_3a/relu_pool_proj
I0711 10:14:09.024034 120388 net.cpp:157] Top shape: 32 32 28 28 (802816)
I0711 10:14:09.024041 120388 net.cpp:165] Memory required for data: 748225024
I0711 10:14:09.024049 120388 layer_factory.hpp:76] Creating layer inception_3a/output
I0711 10:14:09.024063 120388 net.cpp:106] Creating Layer inception_3a/output
I0711 10:14:09.024071 120388 net.cpp:454] inception_3a/output <- inception_3a/1x1
I0711 10:14:09.024080 120388 net.cpp:454] inception_3a/output <- inception_3a/3x3
I0711 10:14:09.024087 120388 net.cpp:454] inception_3a/output <- inception_3a/5x5
I0711 10:14:09.024096 120388 net.cpp:454] inception_3a/output <- inception_3a/pool_proj
I0711 10:14:09.024104 120388 net.cpp:411] inception_3a/output -> inception_3a/output
I0711 10:14:09.024142 120388 net.cpp:150] Setting up inception_3a/output
I0711 10:14:09.024153 120388 net.cpp:157] Top shape: 32 256 28 28 (6422528)
I0711 10:14:09.024160 120388 net.cpp:165] Memory required for data: 773915136
I0711 10:14:09.024168 120388 layer_factory.hpp:76] Creating layer inception_3a/output_inception_3a/output_0_split
I0711 10:14:09.024179 120388 net.cpp:106] Creating Layer inception_3a/output_inception_3a/output_0_split
I0711 10:14:09.024189 120388 net.cpp:454] inception_3a/output_inception_3a/output_0_split <- inception_3a/output
I0711 10:14:09.024200 120388 net.cpp:411] inception_3a/output_inception_3a/output_0_split -> inception_3a/output_inception_3a/output_0_split_0
I0711 10:14:09.024210 120388 net.cpp:411] inception_3a/output_inception_3a/output_0_split -> inception_3a/output_inception_3a/output_0_split_1
I0711 10:14:09.024220 120388 net.cpp:411] inception_3a/output_inception_3a/output_0_split -> inception_3a/output_inception_3a/output_0_split_2
I0711 10:14:09.024230 120388 net.cpp:411] inception_3a/output_inception_3a/output_0_split -> inception_3a/output_inception_3a/output_0_split_3
I0711 10:14:09.024302 120388 net.cpp:150] Setting up inception_3a/output_inception_3a/output_0_split
I0711 10:14:09.024325 120388 net.cpp:157] Top shape: 32 256 28 28 (6422528)
I0711 10:14:09.024334 120388 net.cpp:157] Top shape: 32 256 28 28 (6422528)
I0711 10:14:09.024341 120388 net.cpp:157] Top shape: 32 256 28 28 (6422528)
I0711 10:14:09.024349 120388 net.cpp:157] Top shape: 32 256 28 28 (6422528)
I0711 10:14:09.024356 120388 net.cpp:165] Memory required for data: 876675584
I0711 10:14:09.024379 120388 layer_factory.hpp:76] Creating layer inception_3b/1x1
I0711 10:14:09.024394 120388 net.cpp:106] Creating Layer inception_3b/1x1
I0711 10:14:09.024405 120388 net.cpp:454] inception_3b/1x1 <- inception_3a/output_inception_3a/output_0_split_0
I0711 10:14:09.024425 120388 net.cpp:411] inception_3b/1x1 -> inception_3b/1x1
I0711 10:14:09.025741 120388 cudnn_conv_layer.cpp:194] Reallocating workspace storage: 3072
I0711 10:14:09.025784 120388 net.cpp:150] Setting up inception_3b/1x1
I0711 10:14:09.025795 120388 net.cpp:157] Top shape: 32 128 28 28 (3211264)
I0711 10:14:09.025804 120388 net.cpp:165] Memory required for data: 889520640
I0711 10:14:09.025815 120388 layer_factory.hpp:76] Creating layer inception_3b/relu_1x1
I0711 10:14:09.025828 120388 net.cpp:106] Creating Layer inception_3b/relu_1x1
I0711 10:14:09.025837 120388 net.cpp:454] inception_3b/relu_1x1 <- inception_3b/1x1
I0711 10:14:09.025846 120388 net.cpp:397] inception_3b/relu_1x1 -> inception_3b/1x1 (in-place)
I0711 10:14:09.026034 120388 net.cpp:150] Setting up inception_3b/relu_1x1
I0711 10:14:09.026072 120388 net.cpp:157] Top shape: 32 128 28 28 (3211264)
I0711 10:14:09.026079 120388 net.cpp:165] Memory required for data: 902365696
I0711 10:14:09.026088 120388 layer_factory.hpp:76] Creating layer inception_3b/3x3_reduce
I0711 10:14:09.026103 120388 net.cpp:106] Creating Layer inception_3b/3x3_reduce
I0711 10:14:09.026113 120388 net.cpp:454] inception_3b/3x3_reduce <- inception_3a/output_inception_3a/output_0_split_1
I0711 10:14:09.026124 120388 net.cpp:411] inception_3b/3x3_reduce -> inception_3b/3x3_reduce
I0711 10:14:09.027346 120388 cudnn_conv_layer.cpp:194] Reallocating workspace storage: 3072
I0711 10:14:09.027371 120388 net.cpp:150] Setting up inception_3b/3x3_reduce
I0711 10:14:09.027382 120388 net.cpp:157] Top shape: 32 128 28 28 (3211264)
I0711 10:14:09.027389 120388 net.cpp:165] Memory required for data: 915210752
I0711 10:14:09.027398 120388 layer_factory.hpp:76] Creating layer inception_3b/relu_3x3_reduce
I0711 10:14:09.027413 120388 net.cpp:106] Creating Layer inception_3b/relu_3x3_reduce
I0711 10:14:09.027421 120388 net.cpp:454] inception_3b/relu_3x3_reduce <- inception_3b/3x3_reduce
I0711 10:14:09.027431 120388 net.cpp:397] inception_3b/relu_3x3_reduce -> inception_3b/3x3_reduce (in-place)
I0711 10:14:09.027604 120388 net.cpp:150] Setting up inception_3b/relu_3x3_reduce
I0711 10:14:09.027631 120388 net.cpp:157] Top shape: 32 128 28 28 (3211264)
I0711 10:14:09.027637 120388 net.cpp:165] Memory required for data: 928055808
I0711 10:14:09.027657 120388 layer_factory.hpp:76] Creating layer inception_3b/3x3
I0711 10:14:09.027674 120388 net.cpp:106] Creating Layer inception_3b/3x3
I0711 10:14:09.027683 120388 net.cpp:454] inception_3b/3x3 <- inception_3b/3x3_reduce
I0711 10:14:09.027690 120388 net.cpp:411] inception_3b/3x3 -> inception_3b/3x3
I0711 10:14:09.030412 120388 cudnn_conv_layer.cpp:194] Reallocating workspace storage: 13824
I0711 10:14:09.030444 120388 net.cpp:150] Setting up inception_3b/3x3
I0711 10:14:09.030455 120388 net.cpp:157] Top shape: 32 192 28 28 (4816896)
I0711 10:14:09.030462 120388 net.cpp:165] Memory required for data: 947323392
I0711 10:14:09.030472 120388 layer_factory.hpp:76] Creating layer inception_3b/relu_3x3
I0711 10:14:09.030483 120388 net.cpp:106] Creating Layer inception_3b/relu_3x3
I0711 10:14:09.030490 120388 net.cpp:454] inception_3b/relu_3x3 <- inception_3b/3x3
I0711 10:14:09.030499 120388 net.cpp:397] inception_3b/relu_3x3 -> inception_3b/3x3 (in-place)
I0711 10:14:09.030843 120388 net.cpp:150] Setting up inception_3b/relu_3x3
I0711 10:14:09.030860 120388 net.cpp:157] Top shape: 32 192 28 28 (4816896)
I0711 10:14:09.030867 120388 net.cpp:165] Memory required for data: 966590976
I0711 10:14:09.030874 120388 layer_factory.hpp:76] Creating layer inception_3b/5x5_reduce
I0711 10:14:09.030887 120388 net.cpp:106] Creating Layer inception_3b/5x5_reduce
I0711 10:14:09.030895 120388 net.cpp:454] inception_3b/5x5_reduce <- inception_3a/output_inception_3a/output_0_split_2
I0711 10:14:09.030918 120388 net.cpp:411] inception_3b/5x5_reduce -> inception_3b/5x5_reduce
I0711 10:14:09.032003 120388 net.cpp:150] Setting up inception_3b/5x5_reduce
I0711 10:14:09.032033 120388 net.cpp:157] Top shape: 32 32 28 28 (802816)
I0711 10:14:09.032042 120388 net.cpp:165] Memory required for data: 969802240
I0711 10:14:09.032052 120388 layer_factory.hpp:76] Creating layer inception_3b/relu_5x5_reduce
I0711 10:14:09.032063 120388 net.cpp:106] Creating Layer inception_3b/relu_5x5_reduce
I0711 10:14:09.032071 120388 net.cpp:454] inception_3b/relu_5x5_reduce <- inception_3b/5x5_reduce
I0711 10:14:09.032083 120388 net.cpp:397] inception_3b/relu_5x5_reduce -> inception_3b/5x5_reduce (in-place)
I0711 10:14:09.032289 120388 net.cpp:150] Setting up inception_3b/relu_5x5_reduce
I0711 10:14:09.032316 120388 net.cpp:157] Top shape: 32 32 28 28 (802816)
I0711 10:14:09.032335 120388 net.cpp:165] Memory required for data: 973013504
I0711 10:14:09.032342 120388 layer_factory.hpp:76] Creating layer inception_3b/5x5
I0711 10:14:09.032356 120388 net.cpp:106] Creating Layer inception_3b/5x5
I0711 10:14:09.032364 120388 net.cpp:454] inception_3b/5x5 <- inception_3b/5x5_reduce
I0711 10:14:09.032376 120388 net.cpp:411] inception_3b/5x5 -> inception_3b/5x5
I0711 10:14:09.034366 120388 cudnn_conv_layer.cpp:194] Reallocating workspace storage: 9600
I0711 10:14:09.034394 120388 net.cpp:150] Setting up inception_3b/5x5
I0711 10:14:09.034404 120388 net.cpp:157] Top shape: 32 96 28 28 (2408448)
I0711 10:14:09.034411 120388 net.cpp:165] Memory required for data: 982647296
I0711 10:14:09.034420 120388 layer_factory.hpp:76] Creating layer inception_3b/relu_5x5
I0711 10:14:09.034430 120388 net.cpp:106] Creating Layer inception_3b/relu_5x5
I0711 10:14:09.034437 120388 net.cpp:454] inception_3b/relu_5x5 <- inception_3b/5x5
I0711 10:14:09.034447 120388 net.cpp:397] inception_3b/relu_5x5 -> inception_3b/5x5 (in-place)
I0711 10:14:09.034621 120388 net.cpp:150] Setting up inception_3b/relu_5x5
I0711 10:14:09.034651 120388 net.cpp:157] Top shape: 32 96 28 28 (2408448)
I0711 10:14:09.034672 120388 net.cpp:165] Memory required for data: 992281088
I0711 10:14:09.034680 120388 layer_factory.hpp:76] Creating layer inception_3b/pool
I0711 10:14:09.034692 120388 net.cpp:106] Creating Layer inception_3b/pool
I0711 10:14:09.034699 120388 net.cpp:454] inception_3b/pool <- inception_3a/output_inception_3a/output_0_split_3
I0711 10:14:09.034708 120388 net.cpp:411] inception_3b/pool -> inception_3b/pool
I0711 10:14:09.035054 120388 net.cpp:150] Setting up inception_3b/pool
I0711 10:14:09.035073 120388 net.cpp:157] Top shape: 32 256 28 28 (6422528)
I0711 10:14:09.035080 120388 net.cpp:165] Memory required for data: 1017971200
I0711 10:14:09.035087 120388 layer_factory.hpp:76] Creating layer inception_3b/pool_proj
I0711 10:14:09.035099 120388 net.cpp:106] Creating Layer inception_3b/pool_proj
I0711 10:14:09.035105 120388 net.cpp:454] inception_3b/pool_proj <- inception_3b/pool
I0711 10:14:09.035127 120388 net.cpp:411] inception_3b/pool_proj -> inception_3b/pool_proj
I0711 10:14:09.036315 120388 cudnn_conv_layer.cpp:194] Reallocating workspace storage: 3072
I0711 10:14:09.036341 120388 net.cpp:150] Setting up inception_3b/pool_proj
I0711 10:14:09.036352 120388 net.cpp:157] Top shape: 32 64 28 28 (1605632)
I0711 10:14:09.036358 120388 net.cpp:165] Memory required for data: 1024393728
I0711 10:14:09.036367 120388 layer_factory.hpp:76] Creating layer inception_3b/relu_pool_proj
I0711 10:14:09.036381 120388 net.cpp:106] Creating Layer inception_3b/relu_pool_proj
I0711 10:14:09.036387 120388 net.cpp:454] inception_3b/relu_pool_proj <- inception_3b/pool_proj
I0711 10:14:09.036396 120388 net.cpp:397] inception_3b/relu_pool_proj -> inception_3b/pool_proj (in-place)
I0711 10:14:09.036572 120388 net.cpp:150] Setting up inception_3b/relu_pool_proj
I0711 10:14:09.036597 120388 net.cpp:157] Top shape: 32 64 28 28 (1605632)
I0711 10:14:09.036605 120388 net.cpp:165] Memory required for data: 1030816256
I0711 10:14:09.036625 120388 layer_factory.hpp:76] Creating layer inception_3b/output
I0711 10:14:09.036648 120388 net.cpp:106] Creating Layer inception_3b/output
I0711 10:14:09.036655 120388 net.cpp:454] inception_3b/output <- inception_3b/1x1
I0711 10:14:09.036664 120388 net.cpp:454] inception_3b/output <- inception_3b/3x3
I0711 10:14:09.036671 120388 net.cpp:454] inception_3b/output <- inception_3b/5x5
I0711 10:14:09.036679 120388 net.cpp:454] inception_3b/output <- inception_3b/pool_proj
I0711 10:14:09.036687 120388 net.cpp:411] inception_3b/output -> inception_3b/output
I0711 10:14:09.036730 120388 net.cpp:150] Setting up inception_3b/output
I0711 10:14:09.036742 120388 net.cpp:157] Top shape: 32 480 28 28 (12042240)
I0711 10:14:09.036749 120388 net.cpp:165] Memory required for data: 1078985216
I0711 10:14:09.036756 120388 layer_factory.hpp:76] Creating layer pool3/3x3_s2
I0711 10:14:09.036769 120388 net.cpp:106] Creating Layer pool3/3x3_s2
I0711 10:14:09.036777 120388 net.cpp:454] pool3/3x3_s2 <- inception_3b/output
I0711 10:14:09.036785 120388 net.cpp:411] pool3/3x3_s2 -> pool3/3x3_s2
I0711 10:14:09.037181 120388 net.cpp:150] Setting up pool3/3x3_s2
I0711 10:14:09.037199 120388 net.cpp:157] Top shape: 32 480 14 14 (3010560)
I0711 10:14:09.037204 120388 net.cpp:165] Memory required for data: 1091027456
I0711 10:14:09.037212 120388 layer_factory.hpp:76] Creating layer pool3/3x3_s2_pool3/3x3_s2_0_split
I0711 10:14:09.037225 120388 net.cpp:106] Creating Layer pool3/3x3_s2_pool3/3x3_s2_0_split
I0711 10:14:09.037231 120388 net.cpp:454] pool3/3x3_s2_pool3/3x3_s2_0_split <- pool3/3x3_s2
I0711 10:14:09.037240 120388 net.cpp:411] pool3/3x3_s2_pool3/3x3_s2_0_split -> pool3/3x3_s2_pool3/3x3_s2_0_split_0
I0711 10:14:09.037250 120388 net.cpp:411] pool3/3x3_s2_pool3/3x3_s2_0_split -> pool3/3x3_s2_pool3/3x3_s2_0_split_1
I0711 10:14:09.037259 120388 net.cpp:411] pool3/3x3_s2_pool3/3x3_s2_0_split -> pool3/3x3_s2_pool3/3x3_s2_0_split_2
I0711 10:14:09.037268 120388 net.cpp:411] pool3/3x3_s2_pool3/3x3_s2_0_split -> pool3/3x3_s2_pool3/3x3_s2_0_split_3
I0711 10:14:09.037339 120388 net.cpp:150] Setting up pool3/3x3_s2_pool3/3x3_s2_0_split
I0711 10:14:09.037353 120388 net.cpp:157] Top shape: 32 480 14 14 (3010560)
I0711 10:14:09.037360 120388 net.cpp:157] Top shape: 32 480 14 14 (3010560)
I0711 10:14:09.037369 120388 net.cpp:157] Top shape: 32 480 14 14 (3010560)
I0711 10:14:09.037376 120388 net.cpp:157] Top shape: 32 480 14 14 (3010560)
I0711 10:14:09.037384 120388 net.cpp:165] Memory required for data: 1139196416
I0711 10:14:09.037391 120388 layer_factory.hpp:76] Creating layer inception_4a/1x1
I0711 10:14:09.037416 120388 net.cpp:106] Creating Layer inception_4a/1x1
I0711 10:14:09.037423 120388 net.cpp:454] inception_4a/1x1 <- pool3/3x3_s2_pool3/3x3_s2_0_split_0
I0711 10:14:09.037446 120388 net.cpp:411] inception_4a/1x1 -> inception_4a/1x1
I0711 10:14:09.039028 120388 cudnn_conv_layer.cpp:194] Reallocating workspace storage: 5760
I0711 10:14:09.039067 120388 net.cpp:150] Setting up inception_4a/1x1
I0711 10:14:09.039078 120388 net.cpp:157] Top shape: 32 192 14 14 (1204224)
I0711 10:14:09.039084 120388 net.cpp:165] Memory required for data: 1144013312
I0711 10:14:09.039094 120388 layer_factory.hpp:76] Creating layer inception_4a/relu_1x1
I0711 10:14:09.039106 120388 net.cpp:106] Creating Layer inception_4a/relu_1x1
I0711 10:14:09.039114 120388 net.cpp:454] inception_4a/relu_1x1 <- inception_4a/1x1
I0711 10:14:09.039122 120388 net.cpp:397] inception_4a/relu_1x1 -> inception_4a/1x1 (in-place)
I0711 10:14:09.039296 120388 net.cpp:150] Setting up inception_4a/relu_1x1
I0711 10:14:09.039324 120388 net.cpp:157] Top shape: 32 192 14 14 (1204224)
I0711 10:14:09.039331 120388 net.cpp:165] Memory required for data: 1148830208
I0711 10:14:09.039351 120388 layer_factory.hpp:76] Creating layer inception_4a/3x3_reduce
I0711 10:14:09.039366 120388 net.cpp:106] Creating Layer inception_4a/3x3_reduce
I0711 10:14:09.039373 120388 net.cpp:454] inception_4a/3x3_reduce <- pool3/3x3_s2_pool3/3x3_s2_0_split_1
I0711 10:14:09.039384 120388 net.cpp:411] inception_4a/3x3_reduce -> inception_4a/3x3_reduce
I0711 10:14:09.040586 120388 cudnn_conv_layer.cpp:194] Reallocating workspace storage: 5760
I0711 10:14:09.040628 120388 net.cpp:150] Setting up inception_4a/3x3_reduce
I0711 10:14:09.040638 120388 net.cpp:157] Top shape: 32 96 14 14 (602112)
I0711 10:14:09.040645 120388 net.cpp:165] Memory required for data: 1151238656
I0711 10:14:09.040663 120388 layer_factory.hpp:76] Creating layer inception_4a/relu_3x3_reduce
I0711 10:14:09.040673 120388 net.cpp:106] Creating Layer inception_4a/relu_3x3_reduce
I0711 10:14:09.040679 120388 net.cpp:454] inception_4a/relu_3x3_reduce <- inception_4a/3x3_reduce
I0711 10:14:09.040688 120388 net.cpp:397] inception_4a/relu_3x3_reduce -> inception_4a/3x3_reduce (in-place)
I0711 10:14:09.040863 120388 net.cpp:150] Setting up inception_4a/relu_3x3_reduce
I0711 10:14:09.040887 120388 net.cpp:157] Top shape: 32 96 14 14 (602112)
I0711 10:14:09.040895 120388 net.cpp:165] Memory required for data: 1153647104
I0711 10:14:09.040915 120388 layer_factory.hpp:76] Creating layer inception_4a/3x3
I0711 10:14:09.040927 120388 net.cpp:106] Creating Layer inception_4a/3x3
I0711 10:14:09.040935 120388 net.cpp:454] inception_4a/3x3 <- inception_4a/3x3_reduce
I0711 10:14:09.040944 120388 net.cpp:411] inception_4a/3x3 -> inception_4a/3x3
I0711 10:14:09.043455 120388 cudnn_conv_layer.cpp:194] Reallocating workspace storage: 10368
I0711 10:14:09.043488 120388 net.cpp:150] Setting up inception_4a/3x3
I0711 10:14:09.043498 120388 net.cpp:157] Top shape: 32 208 14 14 (1304576)
I0711 10:14:09.043505 120388 net.cpp:165] Memory required for data: 1158865408
I0711 10:14:09.043514 120388 layer_factory.hpp:76] Creating layer inception_4a/relu_3x3
I0711 10:14:09.043524 120388 net.cpp:106] Creating Layer inception_4a/relu_3x3
I0711 10:14:09.043530 120388 net.cpp:454] inception_4a/relu_3x3 <- inception_4a/3x3
I0711 10:14:09.043541 120388 net.cpp:397] inception_4a/relu_3x3 -> inception_4a/3x3 (in-place)
I0711 10:14:09.043853 120388 net.cpp:150] Setting up inception_4a/relu_3x3
I0711 10:14:09.043869 120388 net.cpp:157] Top shape: 32 208 14 14 (1304576)
I0711 10:14:09.043876 120388 net.cpp:165] Memory required for data: 1164083712
I0711 10:14:09.043884 120388 layer_factory.hpp:76] Creating layer inception_4a/5x5_reduce
I0711 10:14:09.043896 120388 net.cpp:106] Creating Layer inception_4a/5x5_reduce
I0711 10:14:09.043905 120388 net.cpp:454] inception_4a/5x5_reduce <- pool3/3x3_s2_pool3/3x3_s2_0_split_2
I0711 10:14:09.043915 120388 net.cpp:411] inception_4a/5x5_reduce -> inception_4a/5x5_reduce
I0711 10:14:09.044910 120388 net.cpp:150] Setting up inception_4a/5x5_reduce
I0711 10:14:09.044929 120388 net.cpp:157] Top shape: 32 16 14 14 (100352)
I0711 10:14:09.044936 120388 net.cpp:165] Memory required for data: 1164485120
I0711 10:14:09.044946 120388 layer_factory.hpp:76] Creating layer inception_4a/relu_5x5_reduce
I0711 10:14:09.044956 120388 net.cpp:106] Creating Layer inception_4a/relu_5x5_reduce
I0711 10:14:09.044963 120388 net.cpp:454] inception_4a/relu_5x5_reduce <- inception_4a/5x5_reduce
I0711 10:14:09.044972 120388 net.cpp:397] inception_4a/relu_5x5_reduce -> inception_4a/5x5_reduce (in-place)
I0711 10:14:09.045145 120388 net.cpp:150] Setting up inception_4a/relu_5x5_reduce
I0711 10:14:09.045171 120388 net.cpp:157] Top shape: 32 16 14 14 (100352)
I0711 10:14:09.045178 120388 net.cpp:165] Memory required for data: 1164886528
I0711 10:14:09.045186 120388 layer_factory.hpp:76] Creating layer inception_4a/5x5
I0711 10:14:09.045212 120388 net.cpp:106] Creating Layer inception_4a/5x5
I0711 10:14:09.045219 120388 net.cpp:454] inception_4a/5x5 <- inception_4a/5x5_reduce
I0711 10:14:09.045229 120388 net.cpp:411] inception_4a/5x5 -> inception_4a/5x5
I0711 10:14:09.046355 120388 net.cpp:150] Setting up inception_4a/5x5
I0711 10:14:09.046385 120388 net.cpp:157] Top shape: 32 48 14 14 (301056)
I0711 10:14:09.046392 120388 net.cpp:165] Memory required for data: 1166090752
I0711 10:14:09.046402 120388 layer_factory.hpp:76] Creating layer inception_4a/relu_5x5
I0711 10:14:09.046416 120388 net.cpp:106] Creating Layer inception_4a/relu_5x5
I0711 10:14:09.046423 120388 net.cpp:454] inception_4a/relu_5x5 <- inception_4a/5x5
I0711 10:14:09.046445 120388 net.cpp:397] inception_4a/relu_5x5 -> inception_4a/5x5 (in-place)
I0711 10:14:09.046700 120388 net.cpp:150] Setting up inception_4a/relu_5x5
I0711 10:14:09.046727 120388 net.cpp:157] Top shape: 32 48 14 14 (301056)
I0711 10:14:09.046736 120388 net.cpp:165] Memory required for data: 1167294976
I0711 10:14:09.046756 120388 layer_factory.hpp:76] Creating layer inception_4a/pool
I0711 10:14:09.046768 120388 net.cpp:106] Creating Layer inception_4a/pool
I0711 10:14:09.046777 120388 net.cpp:454] inception_4a/pool <- pool3/3x3_s2_pool3/3x3_s2_0_split_3
I0711 10:14:09.046788 120388 net.cpp:411] inception_4a/pool -> inception_4a/pool
I0711 10:14:09.047178 120388 net.cpp:150] Setting up inception_4a/pool
I0711 10:14:09.047210 120388 net.cpp:157] Top shape: 32 480 14 14 (3010560)
I0711 10:14:09.047231 120388 net.cpp:165] Memory required for data: 1179337216
I0711 10:14:09.047238 120388 layer_factory.hpp:76] Creating layer inception_4a/pool_proj
I0711 10:14:09.047252 120388 net.cpp:106] Creating Layer inception_4a/pool_proj
I0711 10:14:09.047262 120388 net.cpp:454] inception_4a/pool_proj <- inception_4a/pool
I0711 10:14:09.047272 120388 net.cpp:411] inception_4a/pool_proj -> inception_4a/pool_proj
I0711 10:14:09.048506 120388 net.cpp:150] Setting up inception_4a/pool_proj
I0711 10:14:09.048537 120388 net.cpp:157] Top shape: 32 64 14 14 (401408)
I0711 10:14:09.048545 120388 net.cpp:165] Memory required for data: 1180942848
I0711 10:14:09.048557 120388 layer_factory.hpp:76] Creating layer inception_4a/relu_pool_proj
I0711 10:14:09.048568 120388 net.cpp:106] Creating Layer inception_4a/relu_pool_proj
I0711 10:14:09.048578 120388 net.cpp:454] inception_4a/relu_pool_proj <- inception_4a/pool_proj
I0711 10:14:09.048586 120388 net.cpp:397] inception_4a/relu_pool_proj -> inception_4a/pool_proj (in-place)
I0711 10:14:09.048804 120388 net.cpp:150] Setting up inception_4a/relu_pool_proj
I0711 10:14:09.048841 120388 net.cpp:157] Top shape: 32 64 14 14 (401408)
I0711 10:14:09.048848 120388 net.cpp:165] Memory required for data: 1182548480
I0711 10:14:09.048857 120388 layer_factory.hpp:76] Creating layer inception_4a/output
I0711 10:14:09.048868 120388 net.cpp:106] Creating Layer inception_4a/output
I0711 10:14:09.048877 120388 net.cpp:454] inception_4a/output <- inception_4a/1x1
I0711 10:14:09.048885 120388 net.cpp:454] inception_4a/output <- inception_4a/3x3
I0711 10:14:09.048893 120388 net.cpp:454] inception_4a/output <- inception_4a/5x5
I0711 10:14:09.048902 120388 net.cpp:454] inception_4a/output <- inception_4a/pool_proj
I0711 10:14:09.048912 120388 net.cpp:411] inception_4a/output -> inception_4a/output
I0711 10:14:09.048943 120388 net.cpp:150] Setting up inception_4a/output
I0711 10:14:09.048967 120388 net.cpp:157] Top shape: 32 512 14 14 (3211264)
I0711 10:14:09.048986 120388 net.cpp:165] Memory required for data: 1195393536
I0711 10:14:09.048995 120388 layer_factory.hpp:76] Creating layer inception_4a/output_inception_4a/output_0_split
I0711 10:14:09.049021 120388 net.cpp:106] Creating Layer inception_4a/output_inception_4a/output_0_split
I0711 10:14:09.049029 120388 net.cpp:454] inception_4a/output_inception_4a/output_0_split <- inception_4a/output
I0711 10:14:09.049041 120388 net.cpp:411] inception_4a/output_inception_4a/output_0_split -> inception_4a/output_inception_4a/output_0_split_0
I0711 10:14:09.049051 120388 net.cpp:411] inception_4a/output_inception_4a/output_0_split -> inception_4a/output_inception_4a/output_0_split_1
I0711 10:14:09.049060 120388 net.cpp:411] inception_4a/output_inception_4a/output_0_split -> inception_4a/output_inception_4a/output_0_split_2
I0711 10:14:09.049085 120388 net.cpp:411] inception_4a/output_inception_4a/output_0_split -> inception_4a/output_inception_4a/output_0_split_3
I0711 10:14:09.049094 120388 net.cpp:411] inception_4a/output_inception_4a/output_0_split -> inception_4a/output_inception_4a/output_0_split_4
I0711 10:14:09.049183 120388 net.cpp:150] Setting up inception_4a/output_inception_4a/output_0_split
I0711 10:14:09.049208 120388 net.cpp:157] Top shape: 32 512 14 14 (3211264)
I0711 10:14:09.049218 120388 net.cpp:157] Top shape: 32 512 14 14 (3211264)
I0711 10:14:09.049226 120388 net.cpp:157] Top shape: 32 512 14 14 (3211264)
I0711 10:14:09.049234 120388 net.cpp:157] Top shape: 32 512 14 14 (3211264)
I0711 10:14:09.049242 120388 net.cpp:157] Top shape: 32 512 14 14 (3211264)
I0711 10:14:09.049249 120388 net.cpp:165] Memory required for data: 1259618816
I0711 10:14:09.049269 120388 layer_factory.hpp:76] Creating layer loss1/ave_pool
I0711 10:14:09.049281 120388 net.cpp:106] Creating Layer loss1/ave_pool
I0711 10:14:09.049288 120388 net.cpp:454] loss1/ave_pool <- inception_4a/output_inception_4a/output_0_split_0
I0711 10:14:09.049300 120388 net.cpp:411] loss1/ave_pool -> loss1/ave_pool
I0711 10:14:09.049726 120388 net.cpp:150] Setting up loss1/ave_pool
I0711 10:14:09.049754 120388 net.cpp:157] Top shape: 32 512 4 4 (262144)
I0711 10:14:09.049762 120388 net.cpp:165] Memory required for data: 1260667392
I0711 10:14:09.049769 120388 layer_factory.hpp:76] Creating layer loss1/conv
I0711 10:14:09.049783 120388 net.cpp:106] Creating Layer loss1/conv
I0711 10:14:09.049793 120388 net.cpp:454] loss1/conv <- loss1/ave_pool
I0711 10:14:09.049803 120388 net.cpp:411] loss1/conv -> loss1/conv
I0711 10:14:09.051434 120388 cudnn_conv_layer.cpp:194] Reallocating workspace storage: 6144
I0711 10:14:09.051478 120388 net.cpp:150] Setting up loss1/conv
I0711 10:14:09.051491 120388 net.cpp:157] Top shape: 32 128 4 4 (65536)
I0711 10:14:09.051497 120388 net.cpp:165] Memory required for data: 1260929536
I0711 10:14:09.051508 120388 layer_factory.hpp:76] Creating layer loss1/relu_conv
I0711 10:14:09.051522 120388 net.cpp:106] Creating Layer loss1/relu_conv
I0711 10:14:09.051530 120388 net.cpp:454] loss1/relu_conv <- loss1/conv
I0711 10:14:09.051540 120388 net.cpp:397] loss1/relu_conv -> loss1/conv (in-place)
I0711 10:14:09.051764 120388 net.cpp:150] Setting up loss1/relu_conv
I0711 10:14:09.051789 120388 net.cpp:157] Top shape: 32 128 4 4 (65536)
I0711 10:14:09.051796 120388 net.cpp:165] Memory required for data: 1261191680
I0711 10:14:09.051805 120388 layer_factory.hpp:76] Creating layer loss1/fc
I0711 10:14:09.051816 120388 net.cpp:106] Creating Layer loss1/fc
I0711 10:14:09.051826 120388 net.cpp:454] loss1/fc <- loss1/conv
I0711 10:14:09.051836 120388 net.cpp:411] loss1/fc -> loss1/fc
I0711 10:14:09.067698 120388 net.cpp:150] Setting up loss1/fc
I0711 10:14:09.067744 120388 net.cpp:157] Top shape: 32 1024 (32768)
I0711 10:14:09.067752 120388 net.cpp:165] Memory required for data: 1261322752
I0711 10:14:09.067765 120388 layer_factory.hpp:76] Creating layer loss1/relu_fc
I0711 10:14:09.067778 120388 net.cpp:106] Creating Layer loss1/relu_fc
I0711 10:14:09.067790 120388 net.cpp:454] loss1/relu_fc <- loss1/fc
I0711 10:14:09.067800 120388 net.cpp:397] loss1/relu_fc -> loss1/fc (in-place)
I0711 10:14:09.068259 120388 net.cpp:150] Setting up loss1/relu_fc
I0711 10:14:09.068289 120388 net.cpp:157] Top shape: 32 1024 (32768)
I0711 10:14:09.068297 120388 net.cpp:165] Memory required for data: 1261453824
I0711 10:14:09.068305 120388 layer_factory.hpp:76] Creating layer loss1/drop_fc
I0711 10:14:09.068331 120388 net.cpp:106] Creating Layer loss1/drop_fc
I0711 10:14:09.068343 120388 net.cpp:454] loss1/drop_fc <- loss1/fc
I0711 10:14:09.068366 120388 net.cpp:397] loss1/drop_fc -> loss1/fc (in-place)
I0711 10:14:09.068420 120388 net.cpp:150] Setting up loss1/drop_fc
I0711 10:14:09.068434 120388 net.cpp:157] Top shape: 32 1024 (32768)
I0711 10:14:09.068454 120388 net.cpp:165] Memory required for data: 1261584896
I0711 10:14:09.068464 120388 layer_factory.hpp:76] Creating layer loss1/classifier
I0711 10:14:09.068487 120388 net.cpp:106] Creating Layer loss1/classifier
I0711 10:14:09.068495 120388 net.cpp:454] loss1/classifier <- loss1/fc
I0711 10:14:09.068532 120388 net.cpp:411] loss1/classifier -> loss1/classifier
I0711 10:14:09.068722 120388 net.cpp:150] Setting up loss1/classifier
I0711 10:14:09.068759 120388 net.cpp:157] Top shape: 32 2 (64)
I0711 10:14:09.068778 120388 net.cpp:165] Memory required for data: 1261585152
I0711 10:14:09.068819 120388 layer_factory.hpp:76] Creating layer loss1/loss
I0711 10:14:09.068833 120388 net.cpp:106] Creating Layer loss1/loss
I0711 10:14:09.068841 120388 net.cpp:454] loss1/loss <- loss1/classifier
I0711 10:14:09.068863 120388 net.cpp:454] loss1/loss <- label_data_1_split_0
I0711 10:14:09.068874 120388 net.cpp:411] loss1/loss -> loss1/loss1
I0711 10:14:09.068892 120388 layer_factory.hpp:76] Creating layer loss1/loss
I0711 10:14:09.069244 120388 net.cpp:150] Setting up loss1/loss
I0711 10:14:09.069272 120388 net.cpp:157] Top shape: (1)
I0711 10:14:09.069278 120388 net.cpp:160]     with loss weight 0.3
I0711 10:14:09.069314 120388 net.cpp:165] Memory required for data: 1261585156
I0711 10:14:09.069324 120388 layer_factory.hpp:76] Creating layer inception_4b/1x1
I0711 10:14:09.069339 120388 net.cpp:106] Creating Layer inception_4b/1x1
I0711 10:14:09.069360 120388 net.cpp:454] inception_4b/1x1 <- inception_4a/output_inception_4a/output_0_split_1
I0711 10:14:09.069373 120388 net.cpp:411] inception_4b/1x1 -> inception_4b/1x1
I0711 10:14:09.070960 120388 cudnn_conv_layer.cpp:194] Reallocating workspace storage: 6144
I0711 10:14:09.071007 120388 net.cpp:150] Setting up inception_4b/1x1
I0711 10:14:09.071018 120388 net.cpp:157] Top shape: 32 160 14 14 (1003520)
I0711 10:14:09.071027 120388 net.cpp:165] Memory required for data: 1265599236
I0711 10:14:09.071036 120388 layer_factory.hpp:76] Creating layer inception_4b/relu_1x1
I0711 10:14:09.071049 120388 net.cpp:106] Creating Layer inception_4b/relu_1x1
I0711 10:14:09.071075 120388 net.cpp:454] inception_4b/relu_1x1 <- inception_4b/1x1
I0711 10:14:09.071099 120388 net.cpp:397] inception_4b/relu_1x1 -> inception_4b/1x1 (in-place)
I0711 10:14:09.071497 120388 net.cpp:150] Setting up inception_4b/relu_1x1
I0711 10:14:09.071526 120388 net.cpp:157] Top shape: 32 160 14 14 (1003520)
I0711 10:14:09.071533 120388 net.cpp:165] Memory required for data: 1269613316
I0711 10:14:09.071542 120388 layer_factory.hpp:76] Creating layer inception_4b/3x3_reduce
I0711 10:14:09.071555 120388 net.cpp:106] Creating Layer inception_4b/3x3_reduce
I0711 10:14:09.071564 120388 net.cpp:454] inception_4b/3x3_reduce <- inception_4a/output_inception_4a/output_0_split_2
I0711 10:14:09.071576 120388 net.cpp:411] inception_4b/3x3_reduce -> inception_4b/3x3_reduce
I0711 10:14:09.073338 120388 cudnn_conv_layer.cpp:194] Reallocating workspace storage: 6144
I0711 10:14:09.073379 120388 net.cpp:150] Setting up inception_4b/3x3_reduce
I0711 10:14:09.073390 120388 net.cpp:157] Top shape: 32 112 14 14 (702464)
I0711 10:14:09.073398 120388 net.cpp:165] Memory required for data: 1272423172
I0711 10:14:09.073410 120388 layer_factory.hpp:76] Creating layer inception_4b/relu_3x3_reduce
I0711 10:14:09.073420 120388 net.cpp:106] Creating Layer inception_4b/relu_3x3_reduce
I0711 10:14:09.073428 120388 net.cpp:454] inception_4b/relu_3x3_reduce <- inception_4b/3x3_reduce
I0711 10:14:09.073439 120388 net.cpp:397] inception_4b/relu_3x3_reduce -> inception_4b/3x3_reduce (in-place)
I0711 10:14:09.073802 120388 net.cpp:150] Setting up inception_4b/relu_3x3_reduce
I0711 10:14:09.073819 120388 net.cpp:157] Top shape: 32 112 14 14 (702464)
I0711 10:14:09.073827 120388 net.cpp:165] Memory required for data: 1275233028
I0711 10:14:09.073833 120388 layer_factory.hpp:76] Creating layer inception_4b/3x3
I0711 10:14:09.073848 120388 net.cpp:106] Creating Layer inception_4b/3x3
I0711 10:14:09.073855 120388 net.cpp:454] inception_4b/3x3 <- inception_4b/3x3_reduce
I0711 10:14:09.073865 120388 net.cpp:411] inception_4b/3x3 -> inception_4b/3x3
I0711 10:14:09.076653 120388 cudnn_conv_layer.cpp:194] Reallocating workspace storage: 12096
I0711 10:14:09.076683 120388 net.cpp:150] Setting up inception_4b/3x3
I0711 10:14:09.076694 120388 net.cpp:157] Top shape: 32 224 14 14 (1404928)
I0711 10:14:09.076701 120388 net.cpp:165] Memory required for data: 1280852740
I0711 10:14:09.076711 120388 layer_factory.hpp:76] Creating layer inception_4b/relu_3x3
I0711 10:14:09.076721 120388 net.cpp:106] Creating Layer inception_4b/relu_3x3
I0711 10:14:09.076756 120388 net.cpp:454] inception_4b/relu_3x3 <- inception_4b/3x3
I0711 10:14:09.076766 120388 net.cpp:397] inception_4b/relu_3x3 -> inception_4b/3x3 (in-place)
I0711 10:14:09.076934 120388 net.cpp:150] Setting up inception_4b/relu_3x3
I0711 10:14:09.076961 120388 net.cpp:157] Top shape: 32 224 14 14 (1404928)
I0711 10:14:09.076967 120388 net.cpp:165] Memory required for data: 1286472452
I0711 10:14:09.076975 120388 layer_factory.hpp:76] Creating layer inception_4b/5x5_reduce
I0711 10:14:09.077000 120388 net.cpp:106] Creating Layer inception_4b/5x5_reduce
I0711 10:14:09.077008 120388 net.cpp:454] inception_4b/5x5_reduce <- inception_4a/output_inception_4a/output_0_split_3
I0711 10:14:09.077021 120388 net.cpp:411] inception_4b/5x5_reduce -> inception_4b/5x5_reduce
I0711 10:14:09.078060 120388 net.cpp:150] Setting up inception_4b/5x5_reduce
I0711 10:14:09.078078 120388 net.cpp:157] Top shape: 32 24 14 14 (150528)
I0711 10:14:09.078085 120388 net.cpp:165] Memory required for data: 1287074564
I0711 10:14:09.078095 120388 layer_factory.hpp:76] Creating layer inception_4b/relu_5x5_reduce
I0711 10:14:09.078105 120388 net.cpp:106] Creating Layer inception_4b/relu_5x5_reduce
I0711 10:14:09.078114 120388 net.cpp:454] inception_4b/relu_5x5_reduce <- inception_4b/5x5_reduce
I0711 10:14:09.078121 120388 net.cpp:397] inception_4b/relu_5x5_reduce -> inception_4b/5x5_reduce (in-place)
I0711 10:14:09.078472 120388 net.cpp:150] Setting up inception_4b/relu_5x5_reduce
I0711 10:14:09.078490 120388 net.cpp:157] Top shape: 32 24 14 14 (150528)
I0711 10:14:09.078497 120388 net.cpp:165] Memory required for data: 1287676676
I0711 10:14:09.078505 120388 layer_factory.hpp:76] Creating layer inception_4b/5x5
I0711 10:14:09.078517 120388 net.cpp:106] Creating Layer inception_4b/5x5
I0711 10:14:09.078527 120388 net.cpp:454] inception_4b/5x5 <- inception_4b/5x5_reduce
I0711 10:14:09.078536 120388 net.cpp:411] inception_4b/5x5 -> inception_4b/5x5
I0711 10:14:09.079614 120388 net.cpp:150] Setting up inception_4b/5x5
I0711 10:14:09.079634 120388 net.cpp:157] Top shape: 32 64 14 14 (401408)
I0711 10:14:09.079641 120388 net.cpp:165] Memory required for data: 1289282308
I0711 10:14:09.079650 120388 layer_factory.hpp:76] Creating layer inception_4b/relu_5x5
I0711 10:14:09.079660 120388 net.cpp:106] Creating Layer inception_4b/relu_5x5
I0711 10:14:09.079668 120388 net.cpp:454] inception_4b/relu_5x5 <- inception_4b/5x5
I0711 10:14:09.079676 120388 net.cpp:397] inception_4b/relu_5x5 -> inception_4b/5x5 (in-place)
I0711 10:14:09.079967 120388 net.cpp:150] Setting up inception_4b/relu_5x5
I0711 10:14:09.079983 120388 net.cpp:157] Top shape: 32 64 14 14 (401408)
I0711 10:14:09.079990 120388 net.cpp:165] Memory required for data: 1290887940
I0711 10:14:09.079998 120388 layer_factory.hpp:76] Creating layer inception_4b/pool
I0711 10:14:09.080008 120388 net.cpp:106] Creating Layer inception_4b/pool
I0711 10:14:09.080014 120388 net.cpp:454] inception_4b/pool <- inception_4a/output_inception_4a/output_0_split_4
I0711 10:14:09.080025 120388 net.cpp:411] inception_4b/pool -> inception_4b/pool
I0711 10:14:09.080219 120388 net.cpp:150] Setting up inception_4b/pool
I0711 10:14:09.080234 120388 net.cpp:157] Top shape: 32 512 14 14 (3211264)
I0711 10:14:09.080240 120388 net.cpp:165] Memory required for data: 1303732996
I0711 10:14:09.080247 120388 layer_factory.hpp:76] Creating layer inception_4b/pool_proj
I0711 10:14:09.080260 120388 net.cpp:106] Creating Layer inception_4b/pool_proj
I0711 10:14:09.080270 120388 net.cpp:454] inception_4b/pool_proj <- inception_4b/pool
I0711 10:14:09.080279 120388 net.cpp:411] inception_4b/pool_proj -> inception_4b/pool_proj
I0711 10:14:09.081426 120388 cudnn_conv_layer.cpp:194] Reallocating workspace storage: 6144
I0711 10:14:09.081468 120388 net.cpp:150] Setting up inception_4b/pool_proj
I0711 10:14:09.081480 120388 net.cpp:157] Top shape: 32 64 14 14 (401408)
I0711 10:14:09.081485 120388 net.cpp:165] Memory required for data: 1305338628
I0711 10:14:09.081496 120388 layer_factory.hpp:76] Creating layer inception_4b/relu_pool_proj
I0711 10:14:09.081531 120388 net.cpp:106] Creating Layer inception_4b/relu_pool_proj
I0711 10:14:09.081548 120388 net.cpp:454] inception_4b/relu_pool_proj <- inception_4b/pool_proj
I0711 10:14:09.081573 120388 net.cpp:397] inception_4b/relu_pool_proj -> inception_4b/pool_proj (in-place)
I0711 10:14:09.082082 120388 net.cpp:150] Setting up inception_4b/relu_pool_proj
I0711 10:14:09.082111 120388 net.cpp:157] Top shape: 32 64 14 14 (401408)
I0711 10:14:09.082119 120388 net.cpp:165] Memory required for data: 1306944260
I0711 10:14:09.082128 120388 layer_factory.hpp:76] Creating layer inception_4b/output
I0711 10:14:09.082139 120388 net.cpp:106] Creating Layer inception_4b/output
I0711 10:14:09.082147 120388 net.cpp:454] inception_4b/output <- inception_4b/1x1
I0711 10:14:09.082155 120388 net.cpp:454] inception_4b/output <- inception_4b/3x3
I0711 10:14:09.082164 120388 net.cpp:454] inception_4b/output <- inception_4b/5x5
I0711 10:14:09.082171 120388 net.cpp:454] inception_4b/output <- inception_4b/pool_proj
I0711 10:14:09.082182 120388 net.cpp:411] inception_4b/output -> inception_4b/output
I0711 10:14:09.082217 120388 net.cpp:150] Setting up inception_4b/output
I0711 10:14:09.082242 120388 net.cpp:157] Top shape: 32 512 14 14 (3211264)
I0711 10:14:09.082249 120388 net.cpp:165] Memory required for data: 1319789316
I0711 10:14:09.082257 120388 layer_factory.hpp:76] Creating layer inception_4b/output_inception_4b/output_0_split
I0711 10:14:09.082270 120388 net.cpp:106] Creating Layer inception_4b/output_inception_4b/output_0_split
I0711 10:14:09.082278 120388 net.cpp:454] inception_4b/output_inception_4b/output_0_split <- inception_4b/output
I0711 10:14:09.082288 120388 net.cpp:411] inception_4b/output_inception_4b/output_0_split -> inception_4b/output_inception_4b/output_0_split_0
I0711 10:14:09.082299 120388 net.cpp:411] inception_4b/output_inception_4b/output_0_split -> inception_4b/output_inception_4b/output_0_split_1
I0711 10:14:09.082324 120388 net.cpp:411] inception_4b/output_inception_4b/output_0_split -> inception_4b/output_inception_4b/output_0_split_2
I0711 10:14:09.082334 120388 net.cpp:411] inception_4b/output_inception_4b/output_0_split -> inception_4b/output_inception_4b/output_0_split_3
I0711 10:14:09.082451 120388 net.cpp:150] Setting up inception_4b/output_inception_4b/output_0_split
I0711 10:14:09.082464 120388 net.cpp:157] Top shape: 32 512 14 14 (3211264)
I0711 10:14:09.082484 120388 net.cpp:157] Top shape: 32 512 14 14 (3211264)
I0711 10:14:09.082494 120388 net.cpp:157] Top shape: 32 512 14 14 (3211264)
I0711 10:14:09.082501 120388 net.cpp:157] Top shape: 32 512 14 14 (3211264)
I0711 10:14:09.082509 120388 net.cpp:165] Memory required for data: 1371169540
I0711 10:14:09.082528 120388 layer_factory.hpp:76] Creating layer inception_4c/1x1
I0711 10:14:09.082553 120388 net.cpp:106] Creating Layer inception_4c/1x1
I0711 10:14:09.082562 120388 net.cpp:454] inception_4c/1x1 <- inception_4b/output_inception_4b/output_0_split_0
I0711 10:14:09.082586 120388 net.cpp:411] inception_4c/1x1 -> inception_4c/1x1
I0711 10:14:09.084246 120388 cudnn_conv_layer.cpp:194] Reallocating workspace storage: 6144
I0711 10:14:09.084275 120388 net.cpp:150] Setting up inception_4c/1x1
I0711 10:14:09.084286 120388 net.cpp:157] Top shape: 32 128 14 14 (802816)
I0711 10:14:09.084293 120388 net.cpp:165] Memory required for data: 1374380804
I0711 10:14:09.084302 120388 layer_factory.hpp:76] Creating layer inception_4c/relu_1x1
I0711 10:14:09.084314 120388 net.cpp:106] Creating Layer inception_4c/relu_1x1
I0711 10:14:09.084322 120388 net.cpp:454] inception_4c/relu_1x1 <- inception_4c/1x1
I0711 10:14:09.084331 120388 net.cpp:397] inception_4c/relu_1x1 -> inception_4c/1x1 (in-place)
I0711 10:14:09.084535 120388 net.cpp:150] Setting up inception_4c/relu_1x1
I0711 10:14:09.084549 120388 net.cpp:157] Top shape: 32 128 14 14 (802816)
I0711 10:14:09.084555 120388 net.cpp:165] Memory required for data: 1377592068
I0711 10:14:09.084563 120388 layer_factory.hpp:76] Creating layer inception_4c/3x3_reduce
I0711 10:14:09.084586 120388 net.cpp:106] Creating Layer inception_4c/3x3_reduce
I0711 10:14:09.084595 120388 net.cpp:454] inception_4c/3x3_reduce <- inception_4b/output_inception_4b/output_0_split_1
I0711 10:14:09.084606 120388 net.cpp:411] inception_4c/3x3_reduce -> inception_4c/3x3_reduce
I0711 10:14:09.085997 120388 cudnn_conv_layer.cpp:194] Reallocating workspace storage: 6144
I0711 10:14:09.086026 120388 net.cpp:150] Setting up inception_4c/3x3_reduce
I0711 10:14:09.086036 120388 net.cpp:157] Top shape: 32 128 14 14 (802816)
I0711 10:14:09.086043 120388 net.cpp:165] Memory required for data: 1380803332
I0711 10:14:09.086052 120388 layer_factory.hpp:76] Creating layer inception_4c/relu_3x3_reduce
I0711 10:14:09.086062 120388 net.cpp:106] Creating Layer inception_4c/relu_3x3_reduce
I0711 10:14:09.086069 120388 net.cpp:454] inception_4c/relu_3x3_reduce <- inception_4c/3x3_reduce
I0711 10:14:09.086091 120388 net.cpp:397] inception_4c/relu_3x3_reduce -> inception_4c/3x3_reduce (in-place)
I0711 10:14:09.086272 120388 net.cpp:150] Setting up inception_4c/relu_3x3_reduce
I0711 10:14:09.086287 120388 net.cpp:157] Top shape: 32 128 14 14 (802816)
I0711 10:14:09.086293 120388 net.cpp:165] Memory required for data: 1384014596
I0711 10:14:09.086300 120388 layer_factory.hpp:76] Creating layer inception_4c/3x3
I0711 10:14:09.086310 120388 net.cpp:106] Creating Layer inception_4c/3x3
I0711 10:14:09.086318 120388 net.cpp:454] inception_4c/3x3 <- inception_4c/3x3_reduce
I0711 10:14:09.086328 120388 net.cpp:411] inception_4c/3x3 -> inception_4c/3x3
I0711 10:14:09.089619 120388 net.cpp:150] Setting up inception_4c/3x3
I0711 10:14:09.089639 120388 net.cpp:157] Top shape: 32 256 14 14 (1605632)
I0711 10:14:09.089646 120388 net.cpp:165] Memory required for data: 1390437124
I0711 10:14:09.089668 120388 layer_factory.hpp:76] Creating layer inception_4c/relu_3x3
I0711 10:14:09.089680 120388 net.cpp:106] Creating Layer inception_4c/relu_3x3
I0711 10:14:09.089689 120388 net.cpp:454] inception_4c/relu_3x3 <- inception_4c/3x3
I0711 10:14:09.089696 120388 net.cpp:397] inception_4c/relu_3x3 -> inception_4c/3x3 (in-place)
I0711 10:14:09.090059 120388 net.cpp:150] Setting up inception_4c/relu_3x3
I0711 10:14:09.090088 120388 net.cpp:157] Top shape: 32 256 14 14 (1605632)
I0711 10:14:09.090109 120388 net.cpp:165] Memory required for data: 1396859652
I0711 10:14:09.090128 120388 layer_factory.hpp:76] Creating layer inception_4c/5x5_reduce
I0711 10:14:09.090143 120388 net.cpp:106] Creating Layer inception_4c/5x5_reduce
I0711 10:14:09.090152 120388 net.cpp:454] inception_4c/5x5_reduce <- inception_4b/output_inception_4b/output_0_split_2
I0711 10:14:09.090170 120388 net.cpp:411] inception_4c/5x5_reduce -> inception_4c/5x5_reduce
I0711 10:14:09.091505 120388 net.cpp:150] Setting up inception_4c/5x5_reduce
I0711 10:14:09.091536 120388 net.cpp:157] Top shape: 32 24 14 14 (150528)
I0711 10:14:09.091543 120388 net.cpp:165] Memory required for data: 1397461764
I0711 10:14:09.091553 120388 layer_factory.hpp:76] Creating layer inception_4c/relu_5x5_reduce
I0711 10:14:09.091564 120388 net.cpp:106] Creating Layer inception_4c/relu_5x5_reduce
I0711 10:14:09.091576 120388 net.cpp:454] inception_4c/relu_5x5_reduce <- inception_4c/5x5_reduce
I0711 10:14:09.091585 120388 net.cpp:397] inception_4c/relu_5x5_reduce -> inception_4c/5x5_reduce (in-place)
I0711 10:14:09.091821 120388 net.cpp:150] Setting up inception_4c/relu_5x5_reduce
I0711 10:14:09.091847 120388 net.cpp:157] Top shape: 32 24 14 14 (150528)
I0711 10:14:09.091855 120388 net.cpp:165] Memory required for data: 1398063876
I0711 10:14:09.091862 120388 layer_factory.hpp:76] Creating layer inception_4c/5x5
I0711 10:14:09.091878 120388 net.cpp:106] Creating Layer inception_4c/5x5
I0711 10:14:09.091886 120388 net.cpp:454] inception_4c/5x5 <- inception_4c/5x5_reduce
I0711 10:14:09.091897 120388 net.cpp:411] inception_4c/5x5 -> inception_4c/5x5
I0711 10:14:09.094033 120388 net.cpp:150] Setting up inception_4c/5x5
I0711 10:14:09.094064 120388 net.cpp:157] Top shape: 32 64 14 14 (401408)
I0711 10:14:09.094074 120388 net.cpp:165] Memory required for data: 1399669508
I0711 10:14:09.094096 120388 layer_factory.hpp:76] Creating layer inception_4c/relu_5x5
I0711 10:14:09.094112 120388 net.cpp:106] Creating Layer inception_4c/relu_5x5
I0711 10:14:09.094133 120388 net.cpp:454] inception_4c/relu_5x5 <- inception_4c/5x5
I0711 10:14:09.094143 120388 net.cpp:397] inception_4c/relu_5x5 -> inception_4c/5x5 (in-place)
I0711 10:14:09.094339 120388 net.cpp:150] Setting up inception_4c/relu_5x5
I0711 10:14:09.094353 120388 net.cpp:157] Top shape: 32 64 14 14 (401408)
I0711 10:14:09.094360 120388 net.cpp:165] Memory required for data: 1401275140
I0711 10:14:09.094367 120388 layer_factory.hpp:76] Creating layer inception_4c/pool
I0711 10:14:09.094380 120388 net.cpp:106] Creating Layer inception_4c/pool
I0711 10:14:09.094388 120388 net.cpp:454] inception_4c/pool <- inception_4b/output_inception_4b/output_0_split_3
I0711 10:14:09.094398 120388 net.cpp:411] inception_4c/pool -> inception_4c/pool
I0711 10:14:09.094758 120388 net.cpp:150] Setting up inception_4c/pool
I0711 10:14:09.094775 120388 net.cpp:157] Top shape: 32 512 14 14 (3211264)
I0711 10:14:09.094782 120388 net.cpp:165] Memory required for data: 1414120196
I0711 10:14:09.094808 120388 layer_factory.hpp:76] Creating layer inception_4c/pool_proj
I0711 10:14:09.094823 120388 net.cpp:106] Creating Layer inception_4c/pool_proj
I0711 10:14:09.094832 120388 net.cpp:454] inception_4c/pool_proj <- inception_4c/pool
I0711 10:14:09.094842 120388 net.cpp:411] inception_4c/pool_proj -> inception_4c/pool_proj
I0711 10:14:09.096009 120388 cudnn_conv_layer.cpp:194] Reallocating workspace storage: 6144
I0711 10:14:09.096040 120388 net.cpp:150] Setting up inception_4c/pool_proj
I0711 10:14:09.096050 120388 net.cpp:157] Top shape: 32 64 14 14 (401408)
I0711 10:14:09.096057 120388 net.cpp:165] Memory required for data: 1415725828
I0711 10:14:09.096067 120388 layer_factory.hpp:76] Creating layer inception_4c/relu_pool_proj
I0711 10:14:09.096076 120388 net.cpp:106] Creating Layer inception_4c/relu_pool_proj
I0711 10:14:09.096096 120388 net.cpp:454] inception_4c/relu_pool_proj <- inception_4c/pool_proj
I0711 10:14:09.096106 120388 net.cpp:397] inception_4c/relu_pool_proj -> inception_4c/pool_proj (in-place)
I0711 10:14:09.096287 120388 net.cpp:150] Setting up inception_4c/relu_pool_proj
I0711 10:14:09.096302 120388 net.cpp:157] Top shape: 32 64 14 14 (401408)
I0711 10:14:09.096308 120388 net.cpp:165] Memory required for data: 1417331460
I0711 10:14:09.096315 120388 layer_factory.hpp:76] Creating layer inception_4c/output
I0711 10:14:09.096328 120388 net.cpp:106] Creating Layer inception_4c/output
I0711 10:14:09.096335 120388 net.cpp:454] inception_4c/output <- inception_4c/1x1
I0711 10:14:09.096343 120388 net.cpp:454] inception_4c/output <- inception_4c/3x3
I0711 10:14:09.096350 120388 net.cpp:454] inception_4c/output <- inception_4c/5x5
I0711 10:14:09.096357 120388 net.cpp:454] inception_4c/output <- inception_4c/pool_proj
I0711 10:14:09.096364 120388 net.cpp:411] inception_4c/output -> inception_4c/output
I0711 10:14:09.096412 120388 net.cpp:150] Setting up inception_4c/output
I0711 10:14:09.096423 120388 net.cpp:157] Top shape: 32 512 14 14 (3211264)
I0711 10:14:09.096431 120388 net.cpp:165] Memory required for data: 1430176516
I0711 10:14:09.096438 120388 layer_factory.hpp:76] Creating layer inception_4c/output_inception_4c/output_0_split
I0711 10:14:09.096451 120388 net.cpp:106] Creating Layer inception_4c/output_inception_4c/output_0_split
I0711 10:14:09.096458 120388 net.cpp:454] inception_4c/output_inception_4c/output_0_split <- inception_4c/output
I0711 10:14:09.096469 120388 net.cpp:411] inception_4c/output_inception_4c/output_0_split -> inception_4c/output_inception_4c/output_0_split_0
I0711 10:14:09.096480 120388 net.cpp:411] inception_4c/output_inception_4c/output_0_split -> inception_4c/output_inception_4c/output_0_split_1
I0711 10:14:09.096490 120388 net.cpp:411] inception_4c/output_inception_4c/output_0_split -> inception_4c/output_inception_4c/output_0_split_2
I0711 10:14:09.096500 120388 net.cpp:411] inception_4c/output_inception_4c/output_0_split -> inception_4c/output_inception_4c/output_0_split_3
I0711 10:14:09.096596 120388 net.cpp:150] Setting up inception_4c/output_inception_4c/output_0_split
I0711 10:14:09.096609 120388 net.cpp:157] Top shape: 32 512 14 14 (3211264)
I0711 10:14:09.096617 120388 net.cpp:157] Top shape: 32 512 14 14 (3211264)
I0711 10:14:09.096626 120388 net.cpp:157] Top shape: 32 512 14 14 (3211264)
I0711 10:14:09.096632 120388 net.cpp:157] Top shape: 32 512 14 14 (3211264)
I0711 10:14:09.096649 120388 net.cpp:165] Memory required for data: 1481556740
I0711 10:14:09.096658 120388 layer_factory.hpp:76] Creating layer inception_4d/1x1
I0711 10:14:09.096669 120388 net.cpp:106] Creating Layer inception_4d/1x1
I0711 10:14:09.096678 120388 net.cpp:454] inception_4d/1x1 <- inception_4c/output_inception_4c/output_0_split_0
I0711 10:14:09.096701 120388 net.cpp:411] inception_4d/1x1 -> inception_4d/1x1
I0711 10:14:09.098157 120388 cudnn_conv_layer.cpp:194] Reallocating workspace storage: 6144
I0711 10:14:09.098199 120388 net.cpp:150] Setting up inception_4d/1x1
I0711 10:14:09.098211 120388 net.cpp:157] Top shape: 32 112 14 14 (702464)
I0711 10:14:09.098218 120388 net.cpp:165] Memory required for data: 1484366596
I0711 10:14:09.098228 120388 layer_factory.hpp:76] Creating layer inception_4d/relu_1x1
I0711 10:14:09.098242 120388 net.cpp:106] Creating Layer inception_4d/relu_1x1
I0711 10:14:09.098249 120388 net.cpp:454] inception_4d/relu_1x1 <- inception_4d/1x1
I0711 10:14:09.098258 120388 net.cpp:397] inception_4d/relu_1x1 -> inception_4d/1x1 (in-place)
I0711 10:14:09.098599 120388 net.cpp:150] Setting up inception_4d/relu_1x1
I0711 10:14:09.098633 120388 net.cpp:157] Top shape: 32 112 14 14 (702464)
I0711 10:14:09.098641 120388 net.cpp:165] Memory required for data: 1487176452
I0711 10:14:09.098661 120388 layer_factory.hpp:76] Creating layer inception_4d/3x3_reduce
I0711 10:14:09.098677 120388 net.cpp:106] Creating Layer inception_4d/3x3_reduce
I0711 10:14:09.098687 120388 net.cpp:454] inception_4d/3x3_reduce <- inception_4c/output_inception_4c/output_0_split_1
I0711 10:14:09.098697 120388 net.cpp:411] inception_4d/3x3_reduce -> inception_4d/3x3_reduce
I0711 10:14:09.100008 120388 cudnn_conv_layer.cpp:194] Reallocating workspace storage: 6144
I0711 10:14:09.100036 120388 net.cpp:150] Setting up inception_4d/3x3_reduce
I0711 10:14:09.100047 120388 net.cpp:157] Top shape: 32 144 14 14 (903168)
I0711 10:14:09.100054 120388 net.cpp:165] Memory required for data: 1490789124
I0711 10:14:09.100064 120388 layer_factory.hpp:76] Creating layer inception_4d/relu_3x3_reduce
I0711 10:14:09.100077 120388 net.cpp:106] Creating Layer inception_4d/relu_3x3_reduce
I0711 10:14:09.100085 120388 net.cpp:454] inception_4d/relu_3x3_reduce <- inception_4d/3x3_reduce
I0711 10:14:09.100106 120388 net.cpp:397] inception_4d/relu_3x3_reduce -> inception_4d/3x3_reduce (in-place)
I0711 10:14:09.100419 120388 net.cpp:150] Setting up inception_4d/relu_3x3_reduce
I0711 10:14:09.100435 120388 net.cpp:157] Top shape: 32 144 14 14 (903168)
I0711 10:14:09.100442 120388 net.cpp:165] Memory required for data: 1494401796
I0711 10:14:09.100450 120388 layer_factory.hpp:76] Creating layer inception_4d/3x3
I0711 10:14:09.100463 120388 net.cpp:106] Creating Layer inception_4d/3x3
I0711 10:14:09.100472 120388 net.cpp:454] inception_4d/3x3 <- inception_4d/3x3_reduce
I0711 10:14:09.100481 120388 net.cpp:411] inception_4d/3x3 -> inception_4d/3x3
I0711 10:14:09.104514 120388 cudnn_conv_layer.cpp:194] Reallocating workspace storage: 15552
I0711 10:14:09.104545 120388 net.cpp:150] Setting up inception_4d/3x3
I0711 10:14:09.104557 120388 net.cpp:157] Top shape: 32 288 14 14 (1806336)
I0711 10:14:09.104563 120388 net.cpp:165] Memory required for data: 1501627140
I0711 10:14:09.104573 120388 layer_factory.hpp:76] Creating layer inception_4d/relu_3x3
I0711 10:14:09.104584 120388 net.cpp:106] Creating Layer inception_4d/relu_3x3
I0711 10:14:09.104604 120388 net.cpp:454] inception_4d/relu_3x3 <- inception_4d/3x3
I0711 10:14:09.104614 120388 net.cpp:397] inception_4d/relu_3x3 -> inception_4d/3x3 (in-place)
I0711 10:14:09.104804 120388 net.cpp:150] Setting up inception_4d/relu_3x3
I0711 10:14:09.104820 120388 net.cpp:157] Top shape: 32 288 14 14 (1806336)
I0711 10:14:09.104825 120388 net.cpp:165] Memory required for data: 1508852484
I0711 10:14:09.104832 120388 layer_factory.hpp:76] Creating layer inception_4d/5x5_reduce
I0711 10:14:09.104847 120388 net.cpp:106] Creating Layer inception_4d/5x5_reduce
I0711 10:14:09.104856 120388 net.cpp:454] inception_4d/5x5_reduce <- inception_4c/output_inception_4c/output_0_split_2
I0711 10:14:09.104866 120388 net.cpp:411] inception_4d/5x5_reduce -> inception_4d/5x5_reduce
I0711 10:14:09.106003 120388 net.cpp:150] Setting up inception_4d/5x5_reduce
I0711 10:14:09.106022 120388 net.cpp:157] Top shape: 32 32 14 14 (200704)
I0711 10:14:09.106029 120388 net.cpp:165] Memory required for data: 1509655300
I0711 10:14:09.106040 120388 layer_factory.hpp:76] Creating layer inception_4d/relu_5x5_reduce
I0711 10:14:09.106048 120388 net.cpp:106] Creating Layer inception_4d/relu_5x5_reduce
I0711 10:14:09.106056 120388 net.cpp:454] inception_4d/relu_5x5_reduce <- inception_4d/5x5_reduce
I0711 10:14:09.106066 120388 net.cpp:397] inception_4d/relu_5x5_reduce -> inception_4d/5x5_reduce (in-place)
I0711 10:14:09.106395 120388 net.cpp:150] Setting up inception_4d/relu_5x5_reduce
I0711 10:14:09.106412 120388 net.cpp:157] Top shape: 32 32 14 14 (200704)
I0711 10:14:09.106420 120388 net.cpp:165] Memory required for data: 1510458116
I0711 10:14:09.106426 120388 layer_factory.hpp:76] Creating layer inception_4d/5x5
I0711 10:14:09.106442 120388 net.cpp:106] Creating Layer inception_4d/5x5
I0711 10:14:09.106451 120388 net.cpp:454] inception_4d/5x5 <- inception_4d/5x5_reduce
I0711 10:14:09.106462 120388 net.cpp:411] inception_4d/5x5 -> inception_4d/5x5
I0711 10:14:09.107758 120388 net.cpp:150] Setting up inception_4d/5x5
I0711 10:14:09.107776 120388 net.cpp:157] Top shape: 32 64 14 14 (401408)
I0711 10:14:09.107784 120388 net.cpp:165] Memory required for data: 1512063748
I0711 10:14:09.107794 120388 layer_factory.hpp:76] Creating layer inception_4d/relu_5x5
I0711 10:14:09.107803 120388 net.cpp:106] Creating Layer inception_4d/relu_5x5
I0711 10:14:09.107810 120388 net.cpp:454] inception_4d/relu_5x5 <- inception_4d/5x5
I0711 10:14:09.107820 120388 net.cpp:397] inception_4d/relu_5x5 -> inception_4d/5x5 (in-place)
I0711 10:14:09.108142 120388 net.cpp:150] Setting up inception_4d/relu_5x5
I0711 10:14:09.108158 120388 net.cpp:157] Top shape: 32 64 14 14 (401408)
I0711 10:14:09.108165 120388 net.cpp:165] Memory required for data: 1513669380
I0711 10:14:09.108172 120388 layer_factory.hpp:76] Creating layer inception_4d/pool
I0711 10:14:09.108186 120388 net.cpp:106] Creating Layer inception_4d/pool
I0711 10:14:09.108192 120388 net.cpp:454] inception_4d/pool <- inception_4c/output_inception_4c/output_0_split_3
I0711 10:14:09.108201 120388 net.cpp:411] inception_4d/pool -> inception_4d/pool
I0711 10:14:09.108554 120388 net.cpp:150] Setting up inception_4d/pool
I0711 10:14:09.108587 120388 net.cpp:157] Top shape: 32 512 14 14 (3211264)
I0711 10:14:09.108594 120388 net.cpp:165] Memory required for data: 1526514436
I0711 10:14:09.108602 120388 layer_factory.hpp:76] Creating layer inception_4d/pool_proj
I0711 10:14:09.108615 120388 net.cpp:106] Creating Layer inception_4d/pool_proj
I0711 10:14:09.108638 120388 net.cpp:454] inception_4d/pool_proj <- inception_4d/pool
I0711 10:14:09.108646 120388 net.cpp:411] inception_4d/pool_proj -> inception_4d/pool_proj
I0711 10:14:09.109695 120388 cudnn_conv_layer.cpp:194] Reallocating workspace storage: 6144
I0711 10:14:09.109732 120388 net.cpp:150] Setting up inception_4d/pool_proj
I0711 10:14:09.109742 120388 net.cpp:157] Top shape: 32 64 14 14 (401408)
I0711 10:14:09.109750 120388 net.cpp:165] Memory required for data: 1528120068
I0711 10:14:09.109758 120388 layer_factory.hpp:76] Creating layer inception_4d/relu_pool_proj
I0711 10:14:09.109779 120388 net.cpp:106] Creating Layer inception_4d/relu_pool_proj
I0711 10:14:09.109788 120388 net.cpp:454] inception_4d/relu_pool_proj <- inception_4d/pool_proj
I0711 10:14:09.109812 120388 net.cpp:397] inception_4d/relu_pool_proj -> inception_4d/pool_proj (in-place)
I0711 10:14:09.110143 120388 net.cpp:150] Setting up inception_4d/relu_pool_proj
I0711 10:14:09.110162 120388 net.cpp:157] Top shape: 32 64 14 14 (401408)
I0711 10:14:09.110168 120388 net.cpp:165] Memory required for data: 1529725700
I0711 10:14:09.110175 120388 layer_factory.hpp:76] Creating layer inception_4d/output
I0711 10:14:09.110186 120388 net.cpp:106] Creating Layer inception_4d/output
I0711 10:14:09.110193 120388 net.cpp:454] inception_4d/output <- inception_4d/1x1
I0711 10:14:09.110201 120388 net.cpp:454] inception_4d/output <- inception_4d/3x3
I0711 10:14:09.110210 120388 net.cpp:454] inception_4d/output <- inception_4d/5x5
I0711 10:14:09.110218 120388 net.cpp:454] inception_4d/output <- inception_4d/pool_proj
I0711 10:14:09.110225 120388 net.cpp:411] inception_4d/output -> inception_4d/output
I0711 10:14:09.110272 120388 net.cpp:150] Setting up inception_4d/output
I0711 10:14:09.110283 120388 net.cpp:157] Top shape: 32 528 14 14 (3311616)
I0711 10:14:09.110291 120388 net.cpp:165] Memory required for data: 1542972164
I0711 10:14:09.110298 120388 layer_factory.hpp:76] Creating layer inception_4d/output_inception_4d/output_0_split
I0711 10:14:09.110312 120388 net.cpp:106] Creating Layer inception_4d/output_inception_4d/output_0_split
I0711 10:14:09.110321 120388 net.cpp:454] inception_4d/output_inception_4d/output_0_split <- inception_4d/output
I0711 10:14:09.110329 120388 net.cpp:411] inception_4d/output_inception_4d/output_0_split -> inception_4d/output_inception_4d/output_0_split_0
I0711 10:14:09.110342 120388 net.cpp:411] inception_4d/output_inception_4d/output_0_split -> inception_4d/output_inception_4d/output_0_split_1
I0711 10:14:09.110352 120388 net.cpp:411] inception_4d/output_inception_4d/output_0_split -> inception_4d/output_inception_4d/output_0_split_2
I0711 10:14:09.110363 120388 net.cpp:411] inception_4d/output_inception_4d/output_0_split -> inception_4d/output_inception_4d/output_0_split_3
I0711 10:14:09.110371 120388 net.cpp:411] inception_4d/output_inception_4d/output_0_split -> inception_4d/output_inception_4d/output_0_split_4
I0711 10:14:09.110458 120388 net.cpp:150] Setting up inception_4d/output_inception_4d/output_0_split
I0711 10:14:09.110481 120388 net.cpp:157] Top shape: 32 528 14 14 (3311616)
I0711 10:14:09.110489 120388 net.cpp:157] Top shape: 32 528 14 14 (3311616)
I0711 10:14:09.110496 120388 net.cpp:157] Top shape: 32 528 14 14 (3311616)
I0711 10:14:09.110503 120388 net.cpp:157] Top shape: 32 528 14 14 (3311616)
I0711 10:14:09.110522 120388 net.cpp:157] Top shape: 32 528 14 14 (3311616)
I0711 10:14:09.110527 120388 net.cpp:165] Memory required for data: 1609204484
I0711 10:14:09.110535 120388 layer_factory.hpp:76] Creating layer loss2/ave_pool
I0711 10:14:09.110558 120388 net.cpp:106] Creating Layer loss2/ave_pool
I0711 10:14:09.110565 120388 net.cpp:454] loss2/ave_pool <- inception_4d/output_inception_4d/output_0_split_0
I0711 10:14:09.110585 120388 net.cpp:411] loss2/ave_pool -> loss2/ave_pool
I0711 10:14:09.110816 120388 net.cpp:150] Setting up loss2/ave_pool
I0711 10:14:09.110855 120388 net.cpp:157] Top shape: 32 528 4 4 (270336)
I0711 10:14:09.110863 120388 net.cpp:165] Memory required for data: 1610285828
I0711 10:14:09.110872 120388 layer_factory.hpp:76] Creating layer loss2/conv
I0711 10:14:09.110896 120388 net.cpp:106] Creating Layer loss2/conv
I0711 10:14:09.110905 120388 net.cpp:454] loss2/conv <- loss2/ave_pool
I0711 10:14:09.110916 120388 net.cpp:411] loss2/conv -> loss2/conv
I0711 10:14:09.113142 120388 cudnn_conv_layer.cpp:194] Reallocating workspace storage: 6336
I0711 10:14:09.113186 120388 net.cpp:150] Setting up loss2/conv
I0711 10:14:09.113198 120388 net.cpp:157] Top shape: 32 128 4 4 (65536)
I0711 10:14:09.113205 120388 net.cpp:165] Memory required for data: 1610547972
I0711 10:14:09.113216 120388 layer_factory.hpp:76] Creating layer loss2/relu_conv
I0711 10:14:09.113240 120388 net.cpp:106] Creating Layer loss2/relu_conv
I0711 10:14:09.113267 120388 net.cpp:454] loss2/relu_conv <- loss2/conv
I0711 10:14:09.113281 120388 net.cpp:397] loss2/relu_conv -> loss2/conv (in-place)
I0711 10:14:09.113653 120388 net.cpp:150] Setting up loss2/relu_conv
I0711 10:14:09.113683 120388 net.cpp:157] Top shape: 32 128 4 4 (65536)
I0711 10:14:09.113690 120388 net.cpp:165] Memory required for data: 1610810116
I0711 10:14:09.113698 120388 layer_factory.hpp:76] Creating layer loss2/fc
I0711 10:14:09.113713 120388 net.cpp:106] Creating Layer loss2/fc
I0711 10:14:09.113721 120388 net.cpp:454] loss2/fc <- loss2/conv
I0711 10:14:09.113730 120388 net.cpp:411] loss2/fc -> loss2/fc
I0711 10:14:09.129393 120388 net.cpp:150] Setting up loss2/fc
I0711 10:14:09.129420 120388 net.cpp:157] Top shape: 32 1024 (32768)
I0711 10:14:09.129426 120388 net.cpp:165] Memory required for data: 1610941188
I0711 10:14:09.129438 120388 layer_factory.hpp:76] Creating layer loss2/relu_fc
I0711 10:14:09.129449 120388 net.cpp:106] Creating Layer loss2/relu_fc
I0711 10:14:09.129458 120388 net.cpp:454] loss2/relu_fc <- loss2/fc
I0711 10:14:09.129469 120388 net.cpp:397] loss2/relu_fc -> loss2/fc (in-place)
I0711 10:14:09.129693 120388 net.cpp:150] Setting up loss2/relu_fc
I0711 10:14:09.129709 120388 net.cpp:157] Top shape: 32 1024 (32768)
I0711 10:14:09.129716 120388 net.cpp:165] Memory required for data: 1611072260
I0711 10:14:09.129724 120388 layer_factory.hpp:76] Creating layer loss2/drop_fc
I0711 10:14:09.129737 120388 net.cpp:106] Creating Layer loss2/drop_fc
I0711 10:14:09.129745 120388 net.cpp:454] loss2/drop_fc <- loss2/fc
I0711 10:14:09.129753 120388 net.cpp:397] loss2/drop_fc -> loss2/fc (in-place)
I0711 10:14:09.129804 120388 net.cpp:150] Setting up loss2/drop_fc
I0711 10:14:09.129819 120388 net.cpp:157] Top shape: 32 1024 (32768)
I0711 10:14:09.129827 120388 net.cpp:165] Memory required for data: 1611203332
I0711 10:14:09.129834 120388 layer_factory.hpp:76] Creating layer loss2/classifier
I0711 10:14:09.129848 120388 net.cpp:106] Creating Layer loss2/classifier
I0711 10:14:09.129856 120388 net.cpp:454] loss2/classifier <- loss2/fc
I0711 10:14:09.129865 120388 net.cpp:411] loss2/classifier -> loss2/classifier
I0711 10:14:09.130044 120388 net.cpp:150] Setting up loss2/classifier
I0711 10:14:09.130056 120388 net.cpp:157] Top shape: 32 2 (64)
I0711 10:14:09.130064 120388 net.cpp:165] Memory required for data: 1611203588
I0711 10:14:09.130072 120388 layer_factory.hpp:76] Creating layer loss2/loss
I0711 10:14:09.130084 120388 net.cpp:106] Creating Layer loss2/loss
I0711 10:14:09.130090 120388 net.cpp:454] loss2/loss <- loss2/classifier
I0711 10:14:09.130098 120388 net.cpp:454] loss2/loss <- label_data_1_split_1
I0711 10:14:09.130106 120388 net.cpp:411] loss2/loss -> loss2/loss1
I0711 10:14:09.130130 120388 layer_factory.hpp:76] Creating layer loss2/loss
I0711 10:14:09.131516 120388 net.cpp:150] Setting up loss2/loss
I0711 10:14:09.131537 120388 net.cpp:157] Top shape: (1)
I0711 10:14:09.131544 120388 net.cpp:160]     with loss weight 0.3
I0711 10:14:09.131559 120388 net.cpp:165] Memory required for data: 1611203592
I0711 10:14:09.131567 120388 layer_factory.hpp:76] Creating layer inception_4e/1x1
I0711 10:14:09.131583 120388 net.cpp:106] Creating Layer inception_4e/1x1
I0711 10:14:09.131592 120388 net.cpp:454] inception_4e/1x1 <- inception_4d/output_inception_4d/output_0_split_1
I0711 10:14:09.131615 120388 net.cpp:411] inception_4e/1x1 -> inception_4e/1x1
I0711 10:14:09.142377 120388 cudnn_conv_layer.cpp:194] Reallocating workspace storage: 6336
I0711 10:14:09.142427 120388 net.cpp:150] Setting up inception_4e/1x1
I0711 10:14:09.142439 120388 net.cpp:157] Top shape: 32 256 14 14 (1605632)
I0711 10:14:09.142447 120388 net.cpp:165] Memory required for data: 1617626120
I0711 10:14:09.142470 120388 layer_factory.hpp:76] Creating layer inception_4e/relu_1x1
I0711 10:14:09.142485 120388 net.cpp:106] Creating Layer inception_4e/relu_1x1
I0711 10:14:09.142495 120388 net.cpp:454] inception_4e/relu_1x1 <- inception_4e/1x1
I0711 10:14:09.142508 120388 net.cpp:397] inception_4e/relu_1x1 -> inception_4e/1x1 (in-place)
I0711 10:14:09.142781 120388 net.cpp:150] Setting up inception_4e/relu_1x1
I0711 10:14:09.142808 120388 net.cpp:157] Top shape: 32 256 14 14 (1605632)
I0711 10:14:09.142815 120388 net.cpp:165] Memory required for data: 1624048648
I0711 10:14:09.142824 120388 layer_factory.hpp:76] Creating layer inception_4e/3x3_reduce
I0711 10:14:09.142839 120388 net.cpp:106] Creating Layer inception_4e/3x3_reduce
I0711 10:14:09.142848 120388 net.cpp:454] inception_4e/3x3_reduce <- inception_4d/output_inception_4d/output_0_split_2
I0711 10:14:09.142861 120388 net.cpp:411] inception_4e/3x3_reduce -> inception_4e/3x3_reduce
I0711 10:14:09.149396 120388 cudnn_conv_layer.cpp:194] Reallocating workspace storage: 6336
I0711 10:14:09.149435 120388 net.cpp:150] Setting up inception_4e/3x3_reduce
I0711 10:14:09.149446 120388 net.cpp:157] Top shape: 32 160 14 14 (1003520)
I0711 10:14:09.149453 120388 net.cpp:165] Memory required for data: 1628062728
I0711 10:14:09.149463 120388 layer_factory.hpp:76] Creating layer inception_4e/relu_3x3_reduce
I0711 10:14:09.149485 120388 net.cpp:106] Creating Layer inception_4e/relu_3x3_reduce
I0711 10:14:09.149495 120388 net.cpp:454] inception_4e/relu_3x3_reduce <- inception_4e/3x3_reduce
I0711 10:14:09.149507 120388 net.cpp:397] inception_4e/relu_3x3_reduce -> inception_4e/3x3_reduce (in-place)
I0711 10:14:09.150698 120388 net.cpp:150] Setting up inception_4e/relu_3x3_reduce
I0711 10:14:09.150732 120388 net.cpp:157] Top shape: 32 160 14 14 (1003520)
I0711 10:14:09.150751 120388 net.cpp:165] Memory required for data: 1632076808
I0711 10:14:09.150758 120388 layer_factory.hpp:76] Creating layer inception_4e/3x3
I0711 10:14:09.150770 120388 net.cpp:106] Creating Layer inception_4e/3x3
I0711 10:14:09.150779 120388 net.cpp:454] inception_4e/3x3 <- inception_4e/3x3_reduce
I0711 10:14:09.150789 120388 net.cpp:411] inception_4e/3x3 -> inception_4e/3x3
I0711 10:14:09.158524 120388 cudnn_conv_layer.cpp:194] Reallocating workspace storage: 17280
I0711 10:14:09.158565 120388 net.cpp:150] Setting up inception_4e/3x3
I0711 10:14:09.158577 120388 net.cpp:157] Top shape: 32 320 14 14 (2007040)
I0711 10:14:09.158584 120388 net.cpp:165] Memory required for data: 1640104968
I0711 10:14:09.158596 120388 layer_factory.hpp:76] Creating layer inception_4e/relu_3x3
I0711 10:14:09.158619 120388 net.cpp:106] Creating Layer inception_4e/relu_3x3
I0711 10:14:09.158634 120388 net.cpp:454] inception_4e/relu_3x3 <- inception_4e/3x3
I0711 10:14:09.158656 120388 net.cpp:397] inception_4e/relu_3x3 -> inception_4e/3x3 (in-place)
I0711 10:14:09.160627 120388 net.cpp:150] Setting up inception_4e/relu_3x3
I0711 10:14:09.160658 120388 net.cpp:157] Top shape: 32 320 14 14 (2007040)
I0711 10:14:09.160666 120388 net.cpp:165] Memory required for data: 1648133128
I0711 10:14:09.160675 120388 layer_factory.hpp:76] Creating layer inception_4e/5x5_reduce
I0711 10:14:09.160686 120388 net.cpp:106] Creating Layer inception_4e/5x5_reduce
I0711 10:14:09.160696 120388 net.cpp:454] inception_4e/5x5_reduce <- inception_4d/output_inception_4d/output_0_split_3
I0711 10:14:09.160707 120388 net.cpp:411] inception_4e/5x5_reduce -> inception_4e/5x5_reduce
I0711 10:14:09.165344 120388 net.cpp:150] Setting up inception_4e/5x5_reduce
I0711 10:14:09.165364 120388 net.cpp:157] Top shape: 32 32 14 14 (200704)
I0711 10:14:09.165370 120388 net.cpp:165] Memory required for data: 1648935944
I0711 10:14:09.165380 120388 layer_factory.hpp:76] Creating layer inception_4e/relu_5x5_reduce
I0711 10:14:09.165390 120388 net.cpp:106] Creating Layer inception_4e/relu_5x5_reduce
I0711 10:14:09.165398 120388 net.cpp:454] inception_4e/relu_5x5_reduce <- inception_4e/5x5_reduce
I0711 10:14:09.165408 120388 net.cpp:397] inception_4e/relu_5x5_reduce -> inception_4e/5x5_reduce (in-place)
I0711 10:14:09.167462 120388 net.cpp:150] Setting up inception_4e/relu_5x5_reduce
I0711 10:14:09.167489 120388 net.cpp:157] Top shape: 32 32 14 14 (200704)
I0711 10:14:09.167498 120388 net.cpp:165] Memory required for data: 1649738760
I0711 10:14:09.167506 120388 layer_factory.hpp:76] Creating layer inception_4e/5x5
I0711 10:14:09.167567 120388 net.cpp:106] Creating Layer inception_4e/5x5
I0711 10:14:09.167579 120388 net.cpp:454] inception_4e/5x5 <- inception_4e/5x5_reduce
I0711 10:14:09.167592 120388 net.cpp:411] inception_4e/5x5 -> inception_4e/5x5
I0711 10:14:09.173014 120388 net.cpp:150] Setting up inception_4e/5x5
I0711 10:14:09.173032 120388 net.cpp:157] Top shape: 32 128 14 14 (802816)
I0711 10:14:09.173039 120388 net.cpp:165] Memory required for data: 1652950024
I0711 10:14:09.173051 120388 layer_factory.hpp:76] Creating layer inception_4e/relu_5x5
I0711 10:14:09.173061 120388 net.cpp:106] Creating Layer inception_4e/relu_5x5
I0711 10:14:09.173069 120388 net.cpp:454] inception_4e/relu_5x5 <- inception_4e/5x5
I0711 10:14:09.173081 120388 net.cpp:397] inception_4e/relu_5x5 -> inception_4e/5x5 (in-place)
I0711 10:14:09.175325 120388 net.cpp:150] Setting up inception_4e/relu_5x5
I0711 10:14:09.175340 120388 net.cpp:157] Top shape: 32 128 14 14 (802816)
I0711 10:14:09.175348 120388 net.cpp:165] Memory required for data: 1656161288
I0711 10:14:09.175354 120388 layer_factory.hpp:76] Creating layer inception_4e/pool
I0711 10:14:09.175365 120388 net.cpp:106] Creating Layer inception_4e/pool
I0711 10:14:09.175372 120388 net.cpp:454] inception_4e/pool <- inception_4d/output_inception_4d/output_0_split_4
I0711 10:14:09.175384 120388 net.cpp:411] inception_4e/pool -> inception_4e/pool
I0711 10:14:09.177983 120388 net.cpp:150] Setting up inception_4e/pool
I0711 10:14:09.177999 120388 net.cpp:157] Top shape: 32 528 14 14 (3311616)
I0711 10:14:09.178006 120388 net.cpp:165] Memory required for data: 1669407752
I0711 10:14:09.178014 120388 layer_factory.hpp:76] Creating layer inception_4e/pool_proj
I0711 10:14:09.178027 120388 net.cpp:106] Creating Layer inception_4e/pool_proj
I0711 10:14:09.178035 120388 net.cpp:454] inception_4e/pool_proj <- inception_4e/pool
I0711 10:14:09.178046 120388 net.cpp:411] inception_4e/pool_proj -> inception_4e/pool_proj
I0711 10:14:09.185467 120388 cudnn_conv_layer.cpp:194] Reallocating workspace storage: 6336
I0711 10:14:09.185503 120388 net.cpp:150] Setting up inception_4e/pool_proj
I0711 10:14:09.185513 120388 net.cpp:157] Top shape: 32 128 14 14 (802816)
I0711 10:14:09.185520 120388 net.cpp:165] Memory required for data: 1672619016
I0711 10:14:09.185529 120388 layer_factory.hpp:76] Creating layer inception_4e/relu_pool_proj
I0711 10:14:09.185552 120388 net.cpp:106] Creating Layer inception_4e/relu_pool_proj
I0711 10:14:09.185562 120388 net.cpp:454] inception_4e/relu_pool_proj <- inception_4e/pool_proj
I0711 10:14:09.185572 120388 net.cpp:397] inception_4e/relu_pool_proj -> inception_4e/pool_proj (in-place)
I0711 10:14:09.187912 120388 net.cpp:150] Setting up inception_4e/relu_pool_proj
I0711 10:14:09.187927 120388 net.cpp:157] Top shape: 32 128 14 14 (802816)
I0711 10:14:09.187934 120388 net.cpp:165] Memory required for data: 1675830280
I0711 10:14:09.187942 120388 layer_factory.hpp:76] Creating layer inception_4e/output
I0711 10:14:09.187953 120388 net.cpp:106] Creating Layer inception_4e/output
I0711 10:14:09.187961 120388 net.cpp:454] inception_4e/output <- inception_4e/1x1
I0711 10:14:09.187969 120388 net.cpp:454] inception_4e/output <- inception_4e/3x3
I0711 10:14:09.187976 120388 net.cpp:454] inception_4e/output <- inception_4e/5x5
I0711 10:14:09.187984 120388 net.cpp:454] inception_4e/output <- inception_4e/pool_proj
I0711 10:14:09.187993 120388 net.cpp:411] inception_4e/output -> inception_4e/output
I0711 10:14:09.188045 120388 net.cpp:150] Setting up inception_4e/output
I0711 10:14:09.188061 120388 net.cpp:157] Top shape: 32 832 14 14 (5218304)
I0711 10:14:09.188068 120388 net.cpp:165] Memory required for data: 1696703496
I0711 10:14:09.188076 120388 layer_factory.hpp:76] Creating layer pool4/3x3_s2
I0711 10:14:09.188087 120388 net.cpp:106] Creating Layer pool4/3x3_s2
I0711 10:14:09.188097 120388 net.cpp:454] pool4/3x3_s2 <- inception_4e/output
I0711 10:14:09.188107 120388 net.cpp:411] pool4/3x3_s2 -> pool4/3x3_s2
I0711 10:14:09.190456 120388 net.cpp:150] Setting up pool4/3x3_s2
I0711 10:14:09.190485 120388 net.cpp:157] Top shape: 32 832 7 7 (1304576)
I0711 10:14:09.190491 120388 net.cpp:165] Memory required for data: 1701921800
I0711 10:14:09.190500 120388 layer_factory.hpp:76] Creating layer pool4/3x3_s2_pool4/3x3_s2_0_split
I0711 10:14:09.190515 120388 net.cpp:106] Creating Layer pool4/3x3_s2_pool4/3x3_s2_0_split
I0711 10:14:09.190522 120388 net.cpp:454] pool4/3x3_s2_pool4/3x3_s2_0_split <- pool4/3x3_s2
I0711 10:14:09.190531 120388 net.cpp:411] pool4/3x3_s2_pool4/3x3_s2_0_split -> pool4/3x3_s2_pool4/3x3_s2_0_split_0
I0711 10:14:09.190541 120388 net.cpp:411] pool4/3x3_s2_pool4/3x3_s2_0_split -> pool4/3x3_s2_pool4/3x3_s2_0_split_1
I0711 10:14:09.190562 120388 net.cpp:411] pool4/3x3_s2_pool4/3x3_s2_0_split -> pool4/3x3_s2_pool4/3x3_s2_0_split_2
I0711 10:14:09.190572 120388 net.cpp:411] pool4/3x3_s2_pool4/3x3_s2_0_split -> pool4/3x3_s2_pool4/3x3_s2_0_split_3
I0711 10:14:09.190682 120388 net.cpp:150] Setting up pool4/3x3_s2_pool4/3x3_s2_0_split
I0711 10:14:09.190707 120388 net.cpp:157] Top shape: 32 832 7 7 (1304576)
I0711 10:14:09.190731 120388 net.cpp:157] Top shape: 32 832 7 7 (1304576)
I0711 10:14:09.190752 120388 net.cpp:157] Top shape: 32 832 7 7 (1304576)
I0711 10:14:09.190758 120388 net.cpp:157] Top shape: 32 832 7 7 (1304576)
I0711 10:14:09.190765 120388 net.cpp:165] Memory required for data: 1722795016
I0711 10:14:09.190773 120388 layer_factory.hpp:76] Creating layer inception_5a/1x1
I0711 10:14:09.190786 120388 net.cpp:106] Creating Layer inception_5a/1x1
I0711 10:14:09.190805 120388 net.cpp:454] inception_5a/1x1 <- pool4/3x3_s2_pool4/3x3_s2_0_split_0
I0711 10:14:09.190829 120388 net.cpp:411] inception_5a/1x1 -> inception_5a/1x1
I0711 10:14:09.197978 120388 cudnn_conv_layer.cpp:194] Reallocating workspace storage: 9984
I0711 10:14:09.198016 120388 net.cpp:150] Setting up inception_5a/1x1
I0711 10:14:09.198027 120388 net.cpp:157] Top shape: 32 256 7 7 (401408)
I0711 10:14:09.198034 120388 net.cpp:165] Memory required for data: 1724400648
I0711 10:14:09.198043 120388 layer_factory.hpp:76] Creating layer inception_5a/relu_1x1
I0711 10:14:09.198065 120388 net.cpp:106] Creating Layer inception_5a/relu_1x1
I0711 10:14:09.198073 120388 net.cpp:454] inception_5a/relu_1x1 <- inception_5a/1x1
I0711 10:14:09.198096 120388 net.cpp:397] inception_5a/relu_1x1 -> inception_5a/1x1 (in-place)
I0711 10:14:09.200367 120388 net.cpp:150] Setting up inception_5a/relu_1x1
I0711 10:14:09.200394 120388 net.cpp:157] Top shape: 32 256 7 7 (401408)
I0711 10:14:09.200402 120388 net.cpp:165] Memory required for data: 1726006280
I0711 10:14:09.200410 120388 layer_factory.hpp:76] Creating layer inception_5a/3x3_reduce
I0711 10:14:09.200424 120388 net.cpp:106] Creating Layer inception_5a/3x3_reduce
I0711 10:14:09.200433 120388 net.cpp:454] inception_5a/3x3_reduce <- pool4/3x3_s2_pool4/3x3_s2_0_split_1
I0711 10:14:09.200445 120388 net.cpp:411] inception_5a/3x3_reduce -> inception_5a/3x3_reduce
I0711 10:14:09.207978 120388 cudnn_conv_layer.cpp:194] Reallocating workspace storage: 9984
I0711 10:14:09.208016 120388 net.cpp:150] Setting up inception_5a/3x3_reduce
I0711 10:14:09.208026 120388 net.cpp:157] Top shape: 32 160 7 7 (250880)
I0711 10:14:09.208034 120388 net.cpp:165] Memory required for data: 1727009800
I0711 10:14:09.208044 120388 layer_factory.hpp:76] Creating layer inception_5a/relu_3x3_reduce
I0711 10:14:09.208065 120388 net.cpp:106] Creating Layer inception_5a/relu_3x3_reduce
I0711 10:14:09.208073 120388 net.cpp:454] inception_5a/relu_3x3_reduce <- inception_5a/3x3_reduce
I0711 10:14:09.208084 120388 net.cpp:397] inception_5a/relu_3x3_reduce -> inception_5a/3x3_reduce (in-place)
I0711 10:14:09.210376 120388 net.cpp:150] Setting up inception_5a/relu_3x3_reduce
I0711 10:14:09.210393 120388 net.cpp:157] Top shape: 32 160 7 7 (250880)
I0711 10:14:09.210400 120388 net.cpp:165] Memory required for data: 1728013320
I0711 10:14:09.210407 120388 layer_factory.hpp:76] Creating layer inception_5a/3x3
I0711 10:14:09.210422 120388 net.cpp:106] Creating Layer inception_5a/3x3
I0711 10:14:09.210429 120388 net.cpp:454] inception_5a/3x3 <- inception_5a/3x3_reduce
I0711 10:14:09.210453 120388 net.cpp:411] inception_5a/3x3 -> inception_5a/3x3
I0711 10:14:09.218987 120388 net.cpp:150] Setting up inception_5a/3x3
I0711 10:14:09.219007 120388 net.cpp:157] Top shape: 32 320 7 7 (501760)
I0711 10:14:09.219014 120388 net.cpp:165] Memory required for data: 1730020360
I0711 10:14:09.219023 120388 layer_factory.hpp:76] Creating layer inception_5a/relu_3x3
I0711 10:14:09.219033 120388 net.cpp:106] Creating Layer inception_5a/relu_3x3
I0711 10:14:09.219041 120388 net.cpp:454] inception_5a/relu_3x3 <- inception_5a/3x3
I0711 10:14:09.219051 120388 net.cpp:397] inception_5a/relu_3x3 -> inception_5a/3x3 (in-place)
I0711 10:14:09.221093 120388 net.cpp:150] Setting up inception_5a/relu_3x3
I0711 10:14:09.221112 120388 net.cpp:157] Top shape: 32 320 7 7 (501760)
I0711 10:14:09.221118 120388 net.cpp:165] Memory required for data: 1732027400
I0711 10:14:09.221125 120388 layer_factory.hpp:76] Creating layer inception_5a/5x5_reduce
I0711 10:14:09.221140 120388 net.cpp:106] Creating Layer inception_5a/5x5_reduce
I0711 10:14:09.221148 120388 net.cpp:454] inception_5a/5x5_reduce <- pool4/3x3_s2_pool4/3x3_s2_0_split_2
I0711 10:14:09.221158 120388 net.cpp:411] inception_5a/5x5_reduce -> inception_5a/5x5_reduce
I0711 10:14:09.227334 120388 cudnn_conv_layer.cpp:194] Reallocating workspace storage: 9984
I0711 10:14:09.227388 120388 net.cpp:150] Setting up inception_5a/5x5_reduce
I0711 10:14:09.227401 120388 net.cpp:157] Top shape: 32 32 7 7 (50176)
I0711 10:14:09.227421 120388 net.cpp:165] Memory required for data: 1732228104
I0711 10:14:09.227432 120388 layer_factory.hpp:76] Creating layer inception_5a/relu_5x5_reduce
I0711 10:14:09.227443 120388 net.cpp:106] Creating Layer inception_5a/relu_5x5_reduce
I0711 10:14:09.227452 120388 net.cpp:454] inception_5a/relu_5x5_reduce <- inception_5a/5x5_reduce
I0711 10:14:09.227463 120388 net.cpp:397] inception_5a/relu_5x5_reduce -> inception_5a/5x5_reduce (in-place)
I0711 10:14:09.229476 120388 net.cpp:150] Setting up inception_5a/relu_5x5_reduce
I0711 10:14:09.229490 120388 net.cpp:157] Top shape: 32 32 7 7 (50176)
I0711 10:14:09.229497 120388 net.cpp:165] Memory required for data: 1732428808
I0711 10:14:09.229504 120388 layer_factory.hpp:76] Creating layer inception_5a/5x5
I0711 10:14:09.229519 120388 net.cpp:106] Creating Layer inception_5a/5x5
I0711 10:14:09.229527 120388 net.cpp:454] inception_5a/5x5 <- inception_5a/5x5_reduce
I0711 10:14:09.229537 120388 net.cpp:411] inception_5a/5x5 -> inception_5a/5x5
I0711 10:14:09.235240 120388 net.cpp:150] Setting up inception_5a/5x5
I0711 10:14:09.235260 120388 net.cpp:157] Top shape: 32 128 7 7 (200704)
I0711 10:14:09.235266 120388 net.cpp:165] Memory required for data: 1733231624
I0711 10:14:09.235276 120388 layer_factory.hpp:76] Creating layer inception_5a/relu_5x5
I0711 10:14:09.235286 120388 net.cpp:106] Creating Layer inception_5a/relu_5x5
I0711 10:14:09.235294 120388 net.cpp:454] inception_5a/relu_5x5 <- inception_5a/5x5
I0711 10:14:09.235304 120388 net.cpp:397] inception_5a/relu_5x5 -> inception_5a/5x5 (in-place)
I0711 10:14:09.237417 120388 net.cpp:150] Setting up inception_5a/relu_5x5
I0711 10:14:09.237434 120388 net.cpp:157] Top shape: 32 128 7 7 (200704)
I0711 10:14:09.237442 120388 net.cpp:165] Memory required for data: 1734034440
I0711 10:14:09.237448 120388 layer_factory.hpp:76] Creating layer inception_5a/pool
I0711 10:14:09.237462 120388 net.cpp:106] Creating Layer inception_5a/pool
I0711 10:14:09.237468 120388 net.cpp:454] inception_5a/pool <- pool4/3x3_s2_pool4/3x3_s2_0_split_3
I0711 10:14:09.237478 120388 net.cpp:411] inception_5a/pool -> inception_5a/pool
I0711 10:14:09.238946 120388 net.cpp:150] Setting up inception_5a/pool
I0711 10:14:09.238961 120388 net.cpp:157] Top shape: 32 832 7 7 (1304576)
I0711 10:14:09.238968 120388 net.cpp:165] Memory required for data: 1739252744
I0711 10:14:09.238976 120388 layer_factory.hpp:76] Creating layer inception_5a/pool_proj
I0711 10:14:09.238989 120388 net.cpp:106] Creating Layer inception_5a/pool_proj
I0711 10:14:09.239011 120388 net.cpp:454] inception_5a/pool_proj <- inception_5a/pool
I0711 10:14:09.239022 120388 net.cpp:411] inception_5a/pool_proj -> inception_5a/pool_proj
I0711 10:14:09.246871 120388 cudnn_conv_layer.cpp:194] Reallocating workspace storage: 9984
I0711 10:14:09.246909 120388 net.cpp:150] Setting up inception_5a/pool_proj
I0711 10:14:09.246920 120388 net.cpp:157] Top shape: 32 128 7 7 (200704)
I0711 10:14:09.246927 120388 net.cpp:165] Memory required for data: 1740055560
I0711 10:14:09.246937 120388 layer_factory.hpp:76] Creating layer inception_5a/relu_pool_proj
I0711 10:14:09.246958 120388 net.cpp:106] Creating Layer inception_5a/relu_pool_proj
I0711 10:14:09.246968 120388 net.cpp:454] inception_5a/relu_pool_proj <- inception_5a/pool_proj
I0711 10:14:09.246978 120388 net.cpp:397] inception_5a/relu_pool_proj -> inception_5a/pool_proj (in-place)
I0711 10:14:09.249354 120388 net.cpp:150] Setting up inception_5a/relu_pool_proj
I0711 10:14:09.249369 120388 net.cpp:157] Top shape: 32 128 7 7 (200704)
I0711 10:14:09.249377 120388 net.cpp:165] Memory required for data: 1740858376
I0711 10:14:09.249382 120388 layer_factory.hpp:76] Creating layer inception_5a/output
I0711 10:14:09.249392 120388 net.cpp:106] Creating Layer inception_5a/output
I0711 10:14:09.249402 120388 net.cpp:454] inception_5a/output <- inception_5a/1x1
I0711 10:14:09.249410 120388 net.cpp:454] inception_5a/output <- inception_5a/3x3
I0711 10:14:09.249418 120388 net.cpp:454] inception_5a/output <- inception_5a/5x5
I0711 10:14:09.249424 120388 net.cpp:454] inception_5a/output <- inception_5a/pool_proj
I0711 10:14:09.249445 120388 net.cpp:411] inception_5a/output -> inception_5a/output
I0711 10:14:09.249483 120388 net.cpp:150] Setting up inception_5a/output
I0711 10:14:09.249495 120388 net.cpp:157] Top shape: 32 832 7 7 (1304576)
I0711 10:14:09.249501 120388 net.cpp:165] Memory required for data: 1746076680
I0711 10:14:09.249510 120388 layer_factory.hpp:76] Creating layer inception_5a/output_inception_5a/output_0_split
I0711 10:14:09.249522 120388 net.cpp:106] Creating Layer inception_5a/output_inception_5a/output_0_split
I0711 10:14:09.249531 120388 net.cpp:454] inception_5a/output_inception_5a/output_0_split <- inception_5a/output
I0711 10:14:09.249541 120388 net.cpp:411] inception_5a/output_inception_5a/output_0_split -> inception_5a/output_inception_5a/output_0_split_0
I0711 10:14:09.249553 120388 net.cpp:411] inception_5a/output_inception_5a/output_0_split -> inception_5a/output_inception_5a/output_0_split_1
I0711 10:14:09.249563 120388 net.cpp:411] inception_5a/output_inception_5a/output_0_split -> inception_5a/output_inception_5a/output_0_split_2
I0711 10:14:09.249573 120388 net.cpp:411] inception_5a/output_inception_5a/output_0_split -> inception_5a/output_inception_5a/output_0_split_3
I0711 10:14:09.249651 120388 net.cpp:150] Setting up inception_5a/output_inception_5a/output_0_split
I0711 10:14:09.249675 120388 net.cpp:157] Top shape: 32 832 7 7 (1304576)
I0711 10:14:09.249694 120388 net.cpp:157] Top shape: 32 832 7 7 (1304576)
I0711 10:14:09.249702 120388 net.cpp:157] Top shape: 32 832 7 7 (1304576)
I0711 10:14:09.249721 120388 net.cpp:157] Top shape: 32 832 7 7 (1304576)
I0711 10:14:09.249727 120388 net.cpp:165] Memory required for data: 1766949896
I0711 10:14:09.249735 120388 layer_factory.hpp:76] Creating layer inception_5b/1x1
I0711 10:14:09.249748 120388 net.cpp:106] Creating Layer inception_5b/1x1
I0711 10:14:09.249758 120388 net.cpp:454] inception_5b/1x1 <- inception_5a/output_inception_5a/output_0_split_0
I0711 10:14:09.249779 120388 net.cpp:411] inception_5b/1x1 -> inception_5b/1x1
I0711 10:14:09.257131 120388 cudnn_conv_layer.cpp:194] Reallocating workspace storage: 9984
I0711 10:14:09.257169 120388 net.cpp:150] Setting up inception_5b/1x1
I0711 10:14:09.257179 120388 net.cpp:157] Top shape: 32 384 7 7 (602112)
I0711 10:14:09.257187 120388 net.cpp:165] Memory required for data: 1769358344
I0711 10:14:09.257197 120388 layer_factory.hpp:76] Creating layer inception_5b/relu_1x1
I0711 10:14:09.257220 120388 net.cpp:106] Creating Layer inception_5b/relu_1x1
I0711 10:14:09.257241 120388 net.cpp:454] inception_5b/relu_1x1 <- inception_5b/1x1
I0711 10:14:09.257251 120388 net.cpp:397] inception_5b/relu_1x1 -> inception_5b/1x1 (in-place)
I0711 10:14:09.258903 120388 net.cpp:150] Setting up inception_5b/relu_1x1
I0711 10:14:09.258920 120388 net.cpp:157] Top shape: 32 384 7 7 (602112)
I0711 10:14:09.258927 120388 net.cpp:165] Memory required for data: 1771766792
I0711 10:14:09.258934 120388 layer_factory.hpp:76] Creating layer inception_5b/3x3_reduce
I0711 10:14:09.258946 120388 net.cpp:106] Creating Layer inception_5b/3x3_reduce
I0711 10:14:09.258955 120388 net.cpp:454] inception_5b/3x3_reduce <- inception_5a/output_inception_5a/output_0_split_1
I0711 10:14:09.258963 120388 net.cpp:411] inception_5b/3x3_reduce -> inception_5b/3x3_reduce
I0711 10:14:09.264087 120388 cudnn_conv_layer.cpp:194] Reallocating workspace storage: 9984
I0711 10:14:09.264140 120388 net.cpp:150] Setting up inception_5b/3x3_reduce
I0711 10:14:09.264153 120388 net.cpp:157] Top shape: 32 192 7 7 (301056)
I0711 10:14:09.264173 120388 net.cpp:165] Memory required for data: 1772971016
I0711 10:14:09.264183 120388 layer_factory.hpp:76] Creating layer inception_5b/relu_3x3_reduce
I0711 10:14:09.264197 120388 net.cpp:106] Creating Layer inception_5b/relu_3x3_reduce
I0711 10:14:09.264206 120388 net.cpp:454] inception_5b/relu_3x3_reduce <- inception_5b/3x3_reduce
I0711 10:14:09.264217 120388 net.cpp:397] inception_5b/relu_3x3_reduce -> inception_5b/3x3_reduce (in-place)
I0711 10:14:09.265596 120388 net.cpp:150] Setting up inception_5b/relu_3x3_reduce
I0711 10:14:09.265622 120388 net.cpp:157] Top shape: 32 192 7 7 (301056)
I0711 10:14:09.265630 120388 net.cpp:165] Memory required for data: 1774175240
I0711 10:14:09.265638 120388 layer_factory.hpp:76] Creating layer inception_5b/3x3
I0711 10:14:09.265655 120388 net.cpp:106] Creating Layer inception_5b/3x3
I0711 10:14:09.265663 120388 net.cpp:454] inception_5b/3x3 <- inception_5b/3x3_reduce
I0711 10:14:09.265673 120388 net.cpp:411] inception_5b/3x3 -> inception_5b/3x3
I0711 10:14:09.277259 120388 cudnn_conv_layer.cpp:194] Reallocating workspace storage: 20736
I0711 10:14:09.277287 120388 net.cpp:150] Setting up inception_5b/3x3
I0711 10:14:09.277300 120388 net.cpp:157] Top shape: 32 384 7 7 (602112)
I0711 10:14:09.277307 120388 net.cpp:165] Memory required for data: 1776583688
I0711 10:14:09.277317 120388 layer_factory.hpp:76] Creating layer inception_5b/relu_3x3
I0711 10:14:09.277326 120388 net.cpp:106] Creating Layer inception_5b/relu_3x3
I0711 10:14:09.277334 120388 net.cpp:454] inception_5b/relu_3x3 <- inception_5b/3x3
I0711 10:14:09.277355 120388 net.cpp:397] inception_5b/relu_3x3 -> inception_5b/3x3 (in-place)
I0711 10:14:09.279644 120388 net.cpp:150] Setting up inception_5b/relu_3x3
I0711 10:14:09.279659 120388 net.cpp:157] Top shape: 32 384 7 7 (602112)
I0711 10:14:09.279666 120388 net.cpp:165] Memory required for data: 1778992136
I0711 10:14:09.279675 120388 layer_factory.hpp:76] Creating layer inception_5b/5x5_reduce
I0711 10:14:09.279685 120388 net.cpp:106] Creating Layer inception_5b/5x5_reduce
I0711 10:14:09.279693 120388 net.cpp:454] inception_5b/5x5_reduce <- inception_5a/output_inception_5a/output_0_split_2
I0711 10:14:09.279703 120388 net.cpp:411] inception_5b/5x5_reduce -> inception_5b/5x5_reduce
I0711 10:14:09.287428 120388 net.cpp:150] Setting up inception_5b/5x5_reduce
I0711 10:14:09.287447 120388 net.cpp:157] Top shape: 32 48 7 7 (75264)
I0711 10:14:09.287454 120388 net.cpp:165] Memory required for data: 1779293192
I0711 10:14:09.287466 120388 layer_factory.hpp:76] Creating layer inception_5b/relu_5x5_reduce
I0711 10:14:09.287477 120388 net.cpp:106] Creating Layer inception_5b/relu_5x5_reduce
I0711 10:14:09.287484 120388 net.cpp:454] inception_5b/relu_5x5_reduce <- inception_5b/5x5_reduce
I0711 10:14:09.287494 120388 net.cpp:397] inception_5b/relu_5x5_reduce -> inception_5b/5x5_reduce (in-place)
I0711 10:14:09.289821 120388 net.cpp:150] Setting up inception_5b/relu_5x5_reduce
I0711 10:14:09.289839 120388 net.cpp:157] Top shape: 32 48 7 7 (75264)
I0711 10:14:09.289858 120388 net.cpp:165] Memory required for data: 1779594248
I0711 10:14:09.289866 120388 layer_factory.hpp:76] Creating layer inception_5b/5x5
I0711 10:14:09.289881 120388 net.cpp:106] Creating Layer inception_5b/5x5
I0711 10:14:09.289890 120388 net.cpp:454] inception_5b/5x5 <- inception_5b/5x5_reduce
I0711 10:14:09.289898 120388 net.cpp:411] inception_5b/5x5 -> inception_5b/5x5
I0711 10:14:09.295305 120388 net.cpp:150] Setting up inception_5b/5x5
I0711 10:14:09.295336 120388 net.cpp:157] Top shape: 32 128 7 7 (200704)
I0711 10:14:09.295343 120388 net.cpp:165] Memory required for data: 1780397064
I0711 10:14:09.295354 120388 layer_factory.hpp:76] Creating layer inception_5b/relu_5x5
I0711 10:14:09.295364 120388 net.cpp:106] Creating Layer inception_5b/relu_5x5
I0711 10:14:09.295373 120388 net.cpp:454] inception_5b/relu_5x5 <- inception_5b/5x5
I0711 10:14:09.295384 120388 net.cpp:397] inception_5b/relu_5x5 -> inception_5b/5x5 (in-place)
I0711 10:14:09.297830 120388 net.cpp:150] Setting up inception_5b/relu_5x5
I0711 10:14:09.297844 120388 net.cpp:157] Top shape: 32 128 7 7 (200704)
I0711 10:14:09.297852 120388 net.cpp:165] Memory required for data: 1781199880
I0711 10:14:09.297858 120388 layer_factory.hpp:76] Creating layer inception_5b/pool
I0711 10:14:09.297871 120388 net.cpp:106] Creating Layer inception_5b/pool
I0711 10:14:09.297878 120388 net.cpp:454] inception_5b/pool <- inception_5a/output_inception_5a/output_0_split_3
I0711 10:14:09.297888 120388 net.cpp:411] inception_5b/pool -> inception_5b/pool
I0711 10:14:09.300571 120388 net.cpp:150] Setting up inception_5b/pool
I0711 10:14:09.300593 120388 net.cpp:157] Top shape: 32 832 7 7 (1304576)
I0711 10:14:09.300601 120388 net.cpp:165] Memory required for data: 1786418184
I0711 10:14:09.300608 120388 layer_factory.hpp:76] Creating layer inception_5b/pool_proj
I0711 10:14:09.300619 120388 net.cpp:106] Creating Layer inception_5b/pool_proj
I0711 10:14:09.300627 120388 net.cpp:454] inception_5b/pool_proj <- inception_5b/pool
I0711 10:14:09.300638 120388 net.cpp:411] inception_5b/pool_proj -> inception_5b/pool_proj
I0711 10:14:09.306787 120388 cudnn_conv_layer.cpp:194] Reallocating workspace storage: 9984
I0711 10:14:09.306825 120388 net.cpp:150] Setting up inception_5b/pool_proj
I0711 10:14:09.306836 120388 net.cpp:157] Top shape: 32 128 7 7 (200704)
I0711 10:14:09.306843 120388 net.cpp:165] Memory required for data: 1787221000
I0711 10:14:09.306852 120388 layer_factory.hpp:76] Creating layer inception_5b/relu_pool_proj
I0711 10:14:09.306876 120388 net.cpp:106] Creating Layer inception_5b/relu_pool_proj
I0711 10:14:09.306885 120388 net.cpp:454] inception_5b/relu_pool_proj <- inception_5b/pool_proj
I0711 10:14:09.306895 120388 net.cpp:397] inception_5b/relu_pool_proj -> inception_5b/pool_proj (in-place)
I0711 10:14:09.308879 120388 net.cpp:150] Setting up inception_5b/relu_pool_proj
I0711 10:14:09.308897 120388 net.cpp:157] Top shape: 32 128 7 7 (200704)
I0711 10:14:09.308903 120388 net.cpp:165] Memory required for data: 1788023816
I0711 10:14:09.308912 120388 layer_factory.hpp:76] Creating layer inception_5b/output
I0711 10:14:09.308924 120388 net.cpp:106] Creating Layer inception_5b/output
I0711 10:14:09.308931 120388 net.cpp:454] inception_5b/output <- inception_5b/1x1
I0711 10:14:09.308939 120388 net.cpp:454] inception_5b/output <- inception_5b/3x3
I0711 10:14:09.308948 120388 net.cpp:454] inception_5b/output <- inception_5b/5x5
I0711 10:14:09.308954 120388 net.cpp:454] inception_5b/output <- inception_5b/pool_proj
I0711 10:14:09.308962 120388 net.cpp:411] inception_5b/output -> inception_5b/output
I0711 10:14:09.309017 120388 net.cpp:150] Setting up inception_5b/output
I0711 10:14:09.309032 120388 net.cpp:157] Top shape: 32 1024 7 7 (1605632)
I0711 10:14:09.309041 120388 net.cpp:165] Memory required for data: 1794446344
I0711 10:14:09.309047 120388 layer_factory.hpp:76] Creating layer pool5/7x7_s1
I0711 10:14:09.309061 120388 net.cpp:106] Creating Layer pool5/7x7_s1
I0711 10:14:09.309069 120388 net.cpp:454] pool5/7x7_s1 <- inception_5b/output
I0711 10:14:09.309092 120388 net.cpp:411] pool5/7x7_s1 -> pool5/7x7_s1
I0711 10:14:09.311096 120388 net.cpp:150] Setting up pool5/7x7_s1
I0711 10:14:09.311112 120388 net.cpp:157] Top shape: 32 1024 1 1 (32768)
I0711 10:14:09.311120 120388 net.cpp:165] Memory required for data: 1794577416
I0711 10:14:09.311126 120388 layer_factory.hpp:76] Creating layer pool5/drop_7x7_s1
I0711 10:14:09.311137 120388 net.cpp:106] Creating Layer pool5/drop_7x7_s1
I0711 10:14:09.311144 120388 net.cpp:454] pool5/drop_7x7_s1 <- pool5/7x7_s1
I0711 10:14:09.311154 120388 net.cpp:397] pool5/drop_7x7_s1 -> pool5/7x7_s1 (in-place)
I0711 10:14:09.311202 120388 net.cpp:150] Setting up pool5/drop_7x7_s1
I0711 10:14:09.311213 120388 net.cpp:157] Top shape: 32 1024 1 1 (32768)
I0711 10:14:09.311220 120388 net.cpp:165] Memory required for data: 1794708488
I0711 10:14:09.311228 120388 layer_factory.hpp:76] Creating layer loss3/classifier
I0711 10:14:09.311242 120388 net.cpp:106] Creating Layer loss3/classifier
I0711 10:14:09.311250 120388 net.cpp:454] loss3/classifier <- pool5/7x7_s1
I0711 10:14:09.311261 120388 net.cpp:411] loss3/classifier -> loss3/classifier
I0711 10:14:09.311424 120388 net.cpp:150] Setting up loss3/classifier
I0711 10:14:09.311435 120388 net.cpp:157] Top shape: 32 2 (64)
I0711 10:14:09.311441 120388 net.cpp:165] Memory required for data: 1794708744
I0711 10:14:09.311451 120388 layer_factory.hpp:76] Creating layer loss3/loss3
I0711 10:14:09.311465 120388 net.cpp:106] Creating Layer loss3/loss3
I0711 10:14:09.311471 120388 net.cpp:454] loss3/loss3 <- loss3/classifier
I0711 10:14:09.311480 120388 net.cpp:454] loss3/loss3 <- label_data_1_split_2
I0711 10:14:09.311487 120388 net.cpp:411] loss3/loss3 -> loss3/loss3
…
I0711 10:14:09.319494 120388 net.cpp:49] Initializing net from parameters: 
name: "GoogleNet"
state {
  phase: TEST
}
layer {
  name: "data"
  type: "ImageData"
  top: "data"
  top: "label"
  include {
    phase: TEST
  }
  transform_param {
    mirror: false
    crop_size: 224
    mean_value: 104
    mean_value: 117
    mean_value: 123
  }
  image_data_param {
    source: "/data/dywang/Database/Proliferation/libs/stage04_mitosisDetection/training_examples/val2.lst"
    batch_size: 100
    shuffle: true
    new_height: 256
    new_width: 256
  }
}
layer {
  name: "conv1/7x7_s2"
  type: "Convolution"
  bottom: "data"
  top: "conv1/7x7_s2"
  param {
    lr_mult: 1
    decay_mult: 1
  }
  param {
    lr_mult: 2
    decay_mult: 0
  }
  convolution_param {
    num_output: 64
    pad: 3
    kernel_size: 7
    stride: 2
    weight_filler {
      type: "xavier"
    }
    bias_filler {
      type: "constant"
      value: 0.2
    }
  }
}
layer {
  name: "conv1/relu_7x7"
  type: "ReLU"
  bottom: "conv1/7x7_s2"
  top: "conv1/7x7_s2"
}
layer {
  name: "pool1/3x3_s2"
  type: "Pooling"
  bottom: "conv1/7x7_s2"
  top: "pool1/3x3_s2"
  pooling_param {
    pool: MAX
    kernel_size: 3
    stride: 2
  }
}
layer {
  name: "pool1/norm1"
  type: "LRN"
  bottom: "pool1/3x3_s2"
  top: "pool1/norm1"
  lrn_param {
    local_size: 5
    alpha: 0.0001
    beta: 0.75
  }
}
layer {
  name: "conv2/3x3_reduce"
  type: "Convolution"
  bottom: "pool1/norm1"
  top: "conv2/3x3_reduce"
  param {
    lr_mult: 1
    decay_mult: 1
  }
  param {
    lr_mult: 2
    decay_mult: 0
  }
  convolution_param {
    num_output: 64
    kernel_size: 1
    weight_filler {
      type: "xavier"
    }
    bias_filler {
      type: "constant"
      value: 0.2
    }
  }
}
layer {
  name: "conv2/relu_3x3_reduce"
  type: "ReLU"
  bottom: "conv2/3x3_reduce"
  top: "conv2/3x3_reduce"
}
layer {
  name: "conv2/3x3"
  type: "Convolution"
  bottom: "conv2/3x3_reduce"
  top: "conv2/3x3"
  param {
    lr_mult: 1
    decay_mult: 1
  }
  param {
    lr_mult: 2
    decay_mult: 0
  }
  convolution_param {
    num_output: 192
    pad: 1
    kernel_size: 3
    weight_filler {
      type: "xavier"
    }
    bias_filler {
      type: "constant"
      value: 0.2
    }
  }
}
layer {
  name: "conv2/relu_3x3"
  type: "ReLU"
  bottom: "conv2/3x3"
  top: "conv2/3x3"
}
layer {
  name: "conv2/norm2"
  type: "LRN"
  bottom: "conv2/3x3"
  top: "conv2/norm2"
  lrn_param {
    local_size: 5
    alpha: 0.0001
    beta: 0.75
  }
}
layer {
  name: "pool2/3x3_s2"
  type: "Pooling"
  bottom: "conv2/norm2"
  top: "pool2/3x3_s2"
  pooling_param {
    pool: MAX
    kernel_size: 3
    stride: 2
  }
}
layer {
  name: "inception_3a/1x1"
  type: "Convolution"
  bottom: "pool2/3x3_s2"
  top: "inception_3a/1x1"
  param {
    lr_mult: 1
    decay_mult: 1
  }
  param {
    lr_mult: 2
    decay_mult: 0
  }
  convolution_param {
    num_output: 64
    kernel_size: 1
    weight_filler {
      type: "xavier"
    }
    bias_filler {
      type: "constant"
      value: 0.2
    }
  }
}
layer {
  name: "inception_3a/relu_1x1"
  type: "ReLU"
  bottom: "inception_3a/1x1"
  top: "inception_3a/1x1"
}
layer {
  name: "inception_3a/3x3_reduce"
  type: "Convolution"
  bottom: "pool2/3x3_s2"
  top: "inception_3a/3x3_reduce"
  param {
    lr_mult: 1
    decay_mult: 1
  }
  param {
    lr_mult: 2
    decay_mult: 0
  }
  convolution_param {
    num_output: 96
    kernel_size: 1
    weight_filler {
      type: "xavier"
    }
    bias_filler {
      type: "constant"
      value: 0.2
    }
  }
}
layer {
  name: "inception_3a/relu_3x3_reduce"
  type: "ReLU"
  bottom: "inception_3a/3x3_reduce"
  top: "inception_3a/3x3_reduce"
}
layer {
  name: "inception_3a/3x3"
  type: "Convolution"
  bottom: "inception_3a/3x3_reduce"
  top: "inception_3a/3x3"
  param {
    lr_mult: 1
    decay_mult: 1
  }
  param {
    lr_mult: 2
    decay_mult: 0
  }
  convolution_param {
    num_output: 128
    pad: 1
    kernel_size: 3
    weight_filler {
      type: "xavier"
    }
    bias_filler {
      type: "constant"
      value: 0.2
    }
  }
}
layer {
  name: "inception_3a/relu_3x3"
  type: "ReLU"
  bottom: "inception_3a/3x3"
  top: "inception_3a/3x3"
}
layer {
  name: "inception_3a/5x5_reduce"
  type: "Convolution"
  bottom: "pool2/3x3_s2"
  top: "inception_3a/5x5_reduce"
  param {
    lr_mult: 1
    decay_mult: 1
  }
  param {
    lr_mult: 2
    decay_mult: 0
  }
  convolution_param {
    num_output: 16
    kernel_size: 1
    weight_filler {
      type: "xavier"
    }
    bias_filler {
      type: "constant"
      value: 0.2
    }
  }
}
layer {
  name: "inception_3a/relu_5x5_reduce"
  type: "ReLU"
  bottom: "inception_3a/5x5_reduce"
  top: "inception_3a/5x5_reduce"
}
layer {
  name: "inception_3a/5x5"
  type: "Convolution"
  bottom: "inception_3a/5x5_reduce"
  top: "inception_3a/5x5"
  param {
    lr_mult: 1
    decay_mult: 1
  }
  param {
    lr_mult: 2
    decay_mult: 0
  }
  convolution_param {
    num_output: 32
    pad: 2
    kernel_size: 5
    weight_filler {
      type: "xavier"
    }
    bias_filler {
      type: "constant"
      value: 0.2
    }
  }
}
layer {
  name: "inception_3a/relu_5x5"
  type: "ReLU"
  bottom: "inception_3a/5x5"
  top: "inception_3a/5x5"
}
layer {
  name: "inception_3a/pool"
  type: "Pooling"
  bottom: "pool2/3x3_s2"
  top: "inception_3a/pool"
  pooling_param {
    pool: MAX
    kernel_size: 3
    stride: 1
    pad: 1
  }
}
layer {
  name: "inception_3a/pool_proj"
  type: "Convolution"
  bottom: "inception_3a/pool"
  top: "inception_3a/pool_proj"
  param {
    lr_mult: 1
    decay_mult: 1
  }
  param {
    lr_mult: 2
    decay_mult: 0
  }
  convolution_param {
    num_output: 32
    kernel_size: 1
    weight_filler {
      type: "xavier"
    }
    bias_filler {
      type: "constant"
      value: 0.2
    }
  }
}
layer {
  name: "inception_3a/relu_pool_proj"
  type: "ReLU"
  bottom: "inception_3a/pool_proj"
  top: "inception_3a/pool_proj"
}
layer {
  name: "inception_3a/output"
  type: "Concat"
  bottom: "inception_3a/1x1"
  bottom: "inception_3a/3x3"
  bottom: "inception_3a/5x5"
  bottom: "inception_3a/pool_proj"
  top: "inception_3a/output"
}
layer {
  name: "inception_3b/1x1"
  type: "Convolution"
  bottom: "inception_3a/output"
  top: "inception_3b/1x1"
  param {
    lr_mult: 1
    decay_mult: 1
  }
  param {
    lr_mult: 2
    decay_mult: 0
  }
  convolution_param {
    num_output: 128
    kernel_size: 1
    weight_filler {
      type: "xavier"
    }
    bias_filler {
      type: "constant"
      value: 0.2
    }
  }
}
layer {
  name: "inception_3b/relu_1x1"
  type: "ReLU"
  bottom: "inception_3b/1x1"
  top: "inception_3b/1x1"
}
layer {
  name: "inception_3b/3x3_reduce"
  type: "Convolution"
  bottom: "inception_3a/output"
  top: "inception_3b/3x3_reduce"
  param {
    lr_mult: 1
    decay_mult: 1
  }
  param {
    lr_mult: 2
    decay_mult: 0
  }
  convolution_param {
    num_output: 128
    kernel_size: 1
    weight_filler {
      type: "xavier"
    }
    bias_filler {
      type: "constant"
      value: 0.2
    }
  }
}
layer {
  name: "inception_3b/relu_3x3_reduce"
  type: "ReLU"
  bottom: "inception_3b/3x3_reduce"
  top: "inception_3b/3x3_reduce"
}
layer {
  name: "inception_3b/3x3"
  type: "Convolution"
  bottom: "inception_3b/3x3_reduce"
  top: "inception_3b/3x3"
  param {
    lr_mult: 1
    decay_mult: 1
  }
  param {
    lr_mult: 2
    decay_mult: 0
  }
  convolution_param {
    num_output: 192
    pad: 1
    kernel_size: 3
    weight_filler {
      type: "xavier"
    }
    bias_filler {
      type: "constant"
      value: 0.2
    }
  }
}
layer {
  name: "inception_3b/relu_3x3"
  type: "ReLU"
  bottom: "inception_3b/3x3"
  top: "inception_3b/3x3"
}
layer {
  name: "inception_3b/5x5_reduce"
  type: "Convolution"
  bottom: "inception_3a/output"
  top: "inception_3b/5x5_reduce"
  param {
    lr_mult: 1
    decay_mult: 1
  }
  param {
    lr_mult: 2
    decay_mult: 0
  }
  convolution_param {
    num_output: 32
    kernel_size: 1
    weight_filler {
      type: "xavier"
    }
    bias_filler {
      type: "constant"
      value: 0.2
    }
  }
}
layer {
  name: "inception_3b/relu_5x5_reduce"
  type: "ReLU"
  bottom: "inception_3b/5x5_reduce"
  top: "inception_3b/5x5_reduce"
}
layer {
  name: "inception_3b/5x5"
  type: "Convolution"
  bottom: "inception_3b/5x5_reduce"
  top: "inception_3b/5x5"
  param {
    lr_mult: 1
    decay_mult: 1
  }
  param {
    lr_mult: 2
    decay_mult: 0
  }
  convolution_param {
    num_output: 96
    pad: 2
    kernel_size: 5
    weight_filler {
      type: "xavier"
    }
    bias_filler {
      type: "constant"
      value: 0.2
    }
  }
}
layer {
  name: "inception_3b/relu_5x5"
  type: "ReLU"
  bottom: "inception_3b/5x5"
  top: "inception_3b/5x5"
}
layer {
  name: "inception_3b/pool"
  type: "Pooling"
  bottom: "inception_3a/output"
  top: "inception_3b/pool"
  pooling_param {
    pool: MAX
    kernel_size: 3
    stride: 1
    pad: 1
  }
}
layer {
  name: "inception_3b/pool_proj"
  type: "Convolution"
  bottom: "inception_3b/pool"
  top: "inception_3b/pool_proj"
  param {
    lr_mult: 1
    decay_mult: 1
  }
  param {
    lr_mult: 2
    decay_mult: 0
  }
  convolution_param {
    num_output: 64
    kernel_size: 1
    weight_filler {
      type: "xavier"
    }
    bias_filler {
      type: "constant"
      value: 0.2
    }
  }
}
layer {
  name: "inception_3b/relu_pool_proj"
  type: "ReLU"
  bottom: "inception_3b/pool_proj"
  top: "inception_3b/pool_proj"
}
layer {
  name: "inception_3b/output"
  type: "Concat"
  bottom: "inception_3b/1x1"
  bottom: "inception_3b/3x3"
  bottom: "inception_3b/5x5"
  bottom: "inception_3b/pool_proj"
  top: "inception_3b/output"
}
layer {
  name: "pool3/3x3_s2"
  type: "Pooling"
  bottom: "inception_3b/output"
  top: "pool3/3x3_s2"
  pooling_param {
    pool: MAX
    kernel_size: 3
    stride: 2
  }
}
layer {
  name: "inception_4a/1x1"
  type: "Convolution"
  bottom: "pool3/3x3_s2"
  top: "inception_4a/1x1"
  param {
    lr_mult: 1
…
I0711 10:14:09.604236 120388 net.cpp:157] Top shape: 100 64 14 14 (1254400)
I0711 10:14:09.604255 120388 net.cpp:165] Memory required for data: 4429163608
I0711 10:14:09.604271 120388 layer_factory.hpp:76] Creating layer inception_4c/output
I0711 10:14:09.604284 120388 net.cpp:106] Creating Layer inception_4c/output
I0711 10:14:09.604291 120388 net.cpp:454] inception_4c/output <- inception_4c/1x1
I0711 10:14:09.604300 120388 net.cpp:454] inception_4c/output <- inception_4c/3x3
I0711 10:14:09.604321 120388 net.cpp:454] inception_4c/output <- inception_4c/5x5
I0711 10:14:09.604328 120388 net.cpp:454] inception_4c/output <- inception_4c/pool_proj
I0711 10:14:09.604337 120388 net.cpp:411] inception_4c/output -> inception_4c/output
I0711 10:14:09.604387 120388 net.cpp:150] Setting up inception_4c/output
I0711 10:14:09.604401 120388 net.cpp:157] Top shape: 100 512 14 14 (10035200)
I0711 10:14:09.604408 120388 net.cpp:165] Memory required for data: 4469304408
I0711 10:14:09.604416 120388 layer_factory.hpp:76] Creating layer inception_4c/output_inception_4c/output_0_split
I0711 10:14:09.604426 120388 net.cpp:106] Creating Layer inception_4c/output_inception_4c/output_0_split
I0711 10:14:09.604434 120388 net.cpp:454] inception_4c/output_inception_4c/output_0_split <- inception_4c/output
I0711 10:14:09.604449 120388 net.cpp:411] inception_4c/output_inception_4c/output_0_split -> inception_4c/output_inception_4c/output_0_split_0
I0711 10:14:09.604460 120388 net.cpp:411] inception_4c/output_inception_4c/output_0_split -> inception_4c/output_inception_4c/output_0_split_1
I0711 10:14:09.604470 120388 net.cpp:411] inception_4c/output_inception_4c/output_0_split -> inception_4c/output_inception_4c/output_0_split_2
I0711 10:14:09.604481 120388 net.cpp:411] inception_4c/output_inception_4c/output_0_split -> inception_4c/output_inception_4c/output_0_split_3
I0711 10:14:09.604598 120388 net.cpp:150] Setting up inception_4c/output_inception_4c/output_0_split
I0711 10:14:09.604624 120388 net.cpp:157] Top shape: 100 512 14 14 (10035200)
I0711 10:14:09.604631 120388 net.cpp:157] Top shape: 100 512 14 14 (10035200)
I0711 10:14:09.604640 120388 net.cpp:157] Top shape: 100 512 14 14 (10035200)
I0711 10:14:09.604648 120388 net.cpp:157] Top shape: 100 512 14 14 (10035200)
I0711 10:14:09.604655 120388 net.cpp:165] Memory required for data: 4629867608
I0711 10:14:09.604663 120388 layer_factory.hpp:76] Creating layer inception_4d/1x1
I0711 10:14:09.604676 120388 net.cpp:106] Creating Layer inception_4d/1x1
I0711 10:14:09.604684 120388 net.cpp:454] inception_4d/1x1 <- inception_4c/output_inception_4c/output_0_split_0
I0711 10:14:09.604694 120388 net.cpp:411] inception_4d/1x1 -> inception_4d/1x1
I0711 10:14:09.606329 120388 cudnn_conv_layer.cpp:194] Reallocating workspace storage: 6144
I0711 10:14:09.606382 120388 net.cpp:150] Setting up inception_4d/1x1
I0711 10:14:09.606394 120388 net.cpp:157] Top shape: 100 112 14 14 (2195200)
I0711 10:14:09.606429 120388 net.cpp:165] Memory required for data: 4638648408
I0711 10:14:09.606441 120388 layer_factory.hpp:76] Creating layer inception_4d/relu_1x1
I0711 10:14:09.606454 120388 net.cpp:106] Creating Layer inception_4d/relu_1x1
I0711 10:14:09.606463 120388 net.cpp:454] inception_4d/relu_1x1 <- inception_4d/1x1
I0711 10:14:09.606472 120388 net.cpp:397] inception_4d/relu_1x1 -> inception_4d/1x1 (in-place)
I0711 10:14:09.607034 120388 net.cpp:150] Setting up inception_4d/relu_1x1
I0711 10:14:09.607064 120388 net.cpp:157] Top shape: 100 112 14 14 (2195200)
I0711 10:14:09.607071 120388 net.cpp:165] Memory required for data: 4647429208
I0711 10:14:09.607087 120388 layer_factory.hpp:76] Creating layer inception_4d/3x3_reduce
I0711 10:14:09.607102 120388 net.cpp:106] Creating Layer inception_4d/3x3_reduce
I0711 10:14:09.607111 120388 net.cpp:454] inception_4d/3x3_reduce <- inception_4c/output_inception_4c/output_0_split_1
I0711 10:14:09.607136 120388 net.cpp:411] inception_4d/3x3_reduce -> inception_4d/3x3_reduce
I0711 10:14:09.608701 120388 cudnn_conv_layer.cpp:194] Reallocating workspace storage: 6144
I0711 10:14:09.608752 120388 net.cpp:150] Setting up inception_4d/3x3_reduce
I0711 10:14:09.608764 120388 net.cpp:157] Top shape: 100 144 14 14 (2822400)
I0711 10:14:09.608783 120388 net.cpp:165] Memory required for data: 4658718808
I0711 10:14:09.608794 120388 layer_factory.hpp:76] Creating layer inception_4d/relu_3x3_reduce
I0711 10:14:09.608808 120388 net.cpp:106] Creating Layer inception_4d/relu_3x3_reduce
I0711 10:14:09.608816 120388 net.cpp:454] inception_4d/relu_3x3_reduce <- inception_4d/3x3_reduce
I0711 10:14:09.608825 120388 net.cpp:397] inception_4d/relu_3x3_reduce -> inception_4d/3x3_reduce (in-place)
I0711 10:14:09.609228 120388 net.cpp:150] Setting up inception_4d/relu_3x3_reduce
I0711 10:14:09.609257 120388 net.cpp:157] Top shape: 100 144 14 14 (2822400)
I0711 10:14:09.609266 120388 net.cpp:165] Memory required for data: 4670008408
I0711 10:14:09.609273 120388 layer_factory.hpp:76] Creating layer inception_4d/3x3
I0711 10:14:09.609292 120388 net.cpp:106] Creating Layer inception_4d/3x3
I0711 10:14:09.609299 120388 net.cpp:454] inception_4d/3x3 <- inception_4d/3x3_reduce
I0711 10:14:09.609309 120388 net.cpp:411] inception_4d/3x3 -> inception_4d/3x3
I0711 10:14:09.613493 120388 cudnn_conv_layer.cpp:194] Reallocating workspace storage: 15552
I0711 10:14:09.613549 120388 net.cpp:150] Setting up inception_4d/3x3
I0711 10:14:09.613561 120388 net.cpp:157] Top shape: 100 288 14 14 (5644800)
I0711 10:14:09.613580 120388 net.cpp:165] Memory required for data: 4692587608
I0711 10:14:09.613591 120388 layer_factory.hpp:76] Creating layer inception_4d/relu_3x3
I0711 10:14:09.613611 120388 net.cpp:106] Creating Layer inception_4d/relu_3x3
I0711 10:14:09.613621 120388 net.cpp:454] inception_4d/relu_3x3 <- inception_4d/3x3
I0711 10:14:09.613632 120388 net.cpp:397] inception_4d/relu_3x3 -> inception_4d/3x3 (in-place)
I0711 10:14:09.613855 120388 net.cpp:150] Setting up inception_4d/relu_3x3
I0711 10:14:09.613883 120388 net.cpp:157] Top shape: 100 288 14 14 (5644800)
I0711 10:14:09.613891 120388 net.cpp:165] Memory required for data: 4715166808
I0711 10:14:09.613909 120388 layer_factory.hpp:76] Creating layer inception_4d/5x5_reduce
I0711 10:14:09.613922 120388 net.cpp:106] Creating Layer inception_4d/5x5_reduce
I0711 10:14:09.613931 120388 net.cpp:454] inception_4d/5x5_reduce <- inception_4c/output_inception_4c/output_0_split_2
I0711 10:14:09.613943 120388 net.cpp:411] inception_4d/5x5_reduce -> inception_4d/5x5_reduce
I0711 10:14:09.615362 120388 net.cpp:150] Setting up inception_4d/5x5_reduce
I0711 10:14:09.615393 120388 net.cpp:157] Top shape: 100 32 14 14 (627200)
I0711 10:14:09.615401 120388 net.cpp:165] Memory required for data: 4717675608
I0711 10:14:09.615411 120388 layer_factory.hpp:76] Creating layer inception_4d/relu_5x5_reduce
I0711 10:14:09.615456 120388 net.cpp:106] Creating Layer inception_4d/relu_5x5_reduce
I0711 10:14:09.615466 120388 net.cpp:454] inception_4d/relu_5x5_reduce <- inception_4d/5x5_reduce
I0711 10:14:09.615494 120388 net.cpp:397] inception_4d/relu_5x5_reduce -> inception_4d/5x5_reduce (in-place)
I0711 10:14:09.615877 120388 net.cpp:150] Setting up inception_4d/relu_5x5_reduce
I0711 10:14:09.615908 120388 net.cpp:157] Top shape: 100 32 14 14 (627200)
I0711 10:14:09.615916 120388 net.cpp:165] Memory required for data: 4720184408
I0711 10:14:09.615926 120388 layer_factory.hpp:76] Creating layer inception_4d/5x5
I0711 10:14:09.615945 120388 net.cpp:106] Creating Layer inception_4d/5x5
I0711 10:14:09.615954 120388 net.cpp:454] inception_4d/5x5 <- inception_4d/5x5_reduce
I0711 10:14:09.615967 120388 net.cpp:411] inception_4d/5x5 -> inception_4d/5x5
I0711 10:14:09.617383 120388 cudnn_conv_layer.cpp:194] Reallocating workspace storage: 9600
I0711 10:14:09.617447 120388 net.cpp:150] Setting up inception_4d/5x5
I0711 10:14:09.617472 120388 net.cpp:157] Top shape: 100 64 14 14 (1254400)
I0711 10:14:09.617480 120388 net.cpp:165] Memory required for data: 4725202008
I0711 10:14:09.617491 120388 layer_factory.hpp:76] Creating layer inception_4d/relu_5x5
I0711 10:14:09.617501 120388 net.cpp:106] Creating Layer inception_4d/relu_5x5
I0711 10:14:09.617511 120388 net.cpp:454] inception_4d/relu_5x5 <- inception_4d/5x5
I0711 10:14:09.617522 120388 net.cpp:397] inception_4d/relu_5x5 -> inception_4d/5x5 (in-place)
I0711 10:14:09.617923 120388 net.cpp:150] Setting up inception_4d/relu_5x5
I0711 10:14:09.617952 120388 net.cpp:157] Top shape: 100 64 14 14 (1254400)
I0711 10:14:09.617960 120388 net.cpp:165] Memory required for data: 4730219608
I0711 10:14:09.617988 120388 layer_factory.hpp:76] Creating layer inception_4d/pool
I0711 10:14:09.618005 120388 net.cpp:106] Creating Layer inception_4d/pool
I0711 10:14:09.618026 120388 net.cpp:454] inception_4d/pool <- inception_4c/output_inception_4c/output_0_split_3
I0711 10:14:09.618037 120388 net.cpp:411] inception_4d/pool -> inception_4d/pool
I0711 10:14:09.618463 120388 net.cpp:150] Setting up inception_4d/pool
I0711 10:14:09.618499 120388 net.cpp:157] Top shape: 100 512 14 14 (10035200)
I0711 10:14:09.618506 120388 net.cpp:165] Memory required for data: 4770360408
I0711 10:14:09.618515 120388 layer_factory.hpp:76] Creating layer inception_4d/pool_proj
I0711 10:14:09.618527 120388 net.cpp:106] Creating Layer inception_4d/pool_proj
I0711 10:14:09.618536 120388 net.cpp:454] inception_4d/pool_proj <- inception_4d/pool
I0711 10:14:09.618561 120388 net.cpp:411] inception_4d/pool_proj -> inception_4d/pool_proj
I0711 10:14:09.619880 120388 net.cpp:150] Setting up inception_4d/pool_proj
I0711 10:14:09.619911 120388 net.cpp:157] Top shape: 100 64 14 14 (1254400)
I0711 10:14:09.619920 120388 net.cpp:165] Memory required for data: 4775378008
I0711 10:14:09.619930 120388 layer_factory.hpp:76] Creating layer inception_4d/relu_pool_proj
I0711 10:14:09.619940 120388 net.cpp:106] Creating Layer inception_4d/relu_pool_proj
I0711 10:14:09.619949 120388 net.cpp:454] inception_4d/relu_pool_proj <- inception_4d/pool_proj
I0711 10:14:09.619958 120388 net.cpp:397] inception_4d/relu_pool_proj -> inception_4d/pool_proj (in-place)
I0711 10:14:09.620369 120388 net.cpp:150] Setting up inception_4d/relu_pool_proj
I0711 10:14:09.620398 120388 net.cpp:157] Top shape: 100 64 14 14 (1254400)
I0711 10:14:09.620405 120388 net.cpp:165] Memory required for data: 4780395608
I0711 10:14:09.620414 120388 layer_factory.hpp:76] Creating layer inception_4d/output
I0711 10:14:09.620431 120388 net.cpp:106] Creating Layer inception_4d/output
I0711 10:14:09.620441 120388 net.cpp:454] inception_4d/output <- inception_4d/1x1
I0711 10:14:09.620450 120388 net.cpp:454] inception_4d/output <- inception_4d/3x3
I0711 10:14:09.620470 120388 net.cpp:454] inception_4d/output <- inception_4d/5x5
I0711 10:14:09.620477 120388 net.cpp:454] inception_4d/output <- inception_4d/pool_proj
I0711 10:14:09.620486 120388 net.cpp:411] inception_4d/output -> inception_4d/output
I0711 10:14:09.620538 120388 net.cpp:150] Setting up inception_4d/output
I0711 10:14:09.620553 120388 net.cpp:157] Top shape: 100 528 14 14 (10348800)
I0711 10:14:09.620573 120388 net.cpp:165] Memory required for data: 4821790808
I0711 10:14:09.620582 120388 layer_factory.hpp:76] Creating layer inception_4d/output_inception_4d/output_0_split
I0711 10:14:09.620602 120388 net.cpp:106] Creating Layer inception_4d/output_inception_4d/output_0_split
I0711 10:14:09.620611 120388 net.cpp:454] inception_4d/output_inception_4d/output_0_split <- inception_4d/output
I0711 10:14:09.620620 120388 net.cpp:411] inception_4d/output_inception_4d/output_0_split -> inception_4d/output_inception_4d/output_0_split_0
I0711 10:14:09.620632 120388 net.cpp:411] inception_4d/output_inception_4d/output_0_split -> inception_4d/output_inception_4d/output_0_split_1
I0711 10:14:09.620642 120388 net.cpp:411] inception_4d/output_inception_4d/output_0_split -> inception_4d/output_inception_4d/output_0_split_2
I0711 10:14:09.620652 120388 net.cpp:411] inception_4d/output_inception_4d/output_0_split -> inception_4d/output_inception_4d/output_0_split_3
I0711 10:14:09.620666 120388 net.cpp:411] inception_4d/output_inception_4d/output_0_split -> inception_4d/output_inception_4d/output_0_split_4
I0711 10:14:09.620816 120388 net.cpp:150] Setting up inception_4d/output_inception_4d/output_0_split
I0711 10:14:09.620841 120388 net.cpp:157] Top shape: 100 528 14 14 (10348800)
I0711 10:14:09.620851 120388 net.cpp:157] Top shape: 100 528 14 14 (10348800)
I0711 10:14:09.620858 120388 net.cpp:157] Top shape: 100 528 14 14 (10348800)
I0711 10:14:09.620867 120388 net.cpp:157] Top shape: 100 528 14 14 (10348800)
I0711 10:14:09.620874 120388 net.cpp:157] Top shape: 100 528 14 14 (10348800)
I0711 10:14:09.620882 120388 net.cpp:165] Memory required for data: 5028766808
I0711 10:14:09.620889 120388 layer_factory.hpp:76] Creating layer loss2/ave_pool
I0711 10:14:09.620901 120388 net.cpp:106] Creating Layer loss2/ave_pool
I0711 10:14:09.620910 120388 net.cpp:454] loss2/ave_pool <- inception_4d/output_inception_4d/output_0_split_0
I0711 10:14:09.620920 120388 net.cpp:411] loss2/ave_pool -> loss2/ave_pool
I0711 10:14:09.621163 120388 net.cpp:150] Setting up loss2/ave_pool
I0711 10:14:09.621191 120388 net.cpp:157] Top shape: 100 528 4 4 (844800)
I0711 10:14:09.621199 120388 net.cpp:165] Memory required for data: 5032146008
I0711 10:14:09.621207 120388 layer_factory.hpp:76] Creating layer loss2/conv
I0711 10:14:09.621219 120388 net.cpp:106] Creating Layer loss2/conv
I0711 10:14:09.621228 120388 net.cpp:454] loss2/conv <- loss2/ave_pool
I0711 10:14:09.621238 120388 net.cpp:411] loss2/conv -> loss2/conv
I0711 10:14:09.623559 120388 cudnn_conv_layer.cpp:194] Reallocating workspace storage: 6336
I0711 10:14:09.623752 120388 net.cpp:150] Setting up loss2/conv
I0711 10:14:09.623780 120388 net.cpp:157] Top shape: 100 128 4 4 (204800)
I0711 10:14:09.623787 120388 net.cpp:165] Memory required for data: 5032965208
I0711 10:14:09.623798 120388 layer_factory.hpp:76] Creating layer loss2/relu_conv
I0711 10:14:09.623808 120388 net.cpp:106] Creating Layer loss2/relu_conv
I0711 10:14:09.623816 120388 net.cpp:454] loss2/relu_conv <- loss2/conv
I0711 10:14:09.623826 120388 net.cpp:397] loss2/relu_conv -> loss2/conv (in-place)
I0711 10:14:09.624243 120388 net.cpp:150] Setting up loss2/relu_conv
I0711 10:14:09.624272 120388 net.cpp:157] Top shape: 100 128 4 4 (204800)
I0711 10:14:09.624279 120388 net.cpp:165] Memory required for data: 5033784408
I0711 10:14:09.624295 120388 layer_factory.hpp:76] Creating layer loss2/fc
I0711 10:14:09.624307 120388 net.cpp:106] Creating Layer loss2/fc
I0711 10:14:09.624316 120388 net.cpp:454] loss2/fc <- loss2/conv
I0711 10:14:09.624339 120388 net.cpp:411] loss2/fc -> loss2/fc
I0711 10:14:09.640172 120388 net.cpp:150] Setting up loss2/fc
I0711 10:14:09.640214 120388 net.cpp:157] Top shape: 100 1024 (102400)
I0711 10:14:09.640223 120388 net.cpp:165] Memory required for data: 5034194008
I0711 10:14:09.640238 120388 layer_factory.hpp:76] Creating layer loss2/relu_fc
I0711 10:14:09.640249 120388 net.cpp:106] Creating Layer loss2/relu_fc
I0711 10:14:09.640260 120388 net.cpp:454] loss2/relu_fc <- loss2/fc
I0711 10:14:09.640270 120388 net.cpp:397] loss2/relu_fc -> loss2/fc (in-place)
I0711 10:14:09.640568 120388 net.cpp:150] Setting up loss2/relu_fc
I0711 10:14:09.640596 120388 net.cpp:157] Top shape: 100 1024 (102400)
I0711 10:14:09.640604 120388 net.cpp:165] Memory required for data: 5034603608
I0711 10:14:09.640612 120388 layer_factory.hpp:76] Creating layer loss2/drop_fc
I0711 10:14:09.640622 120388 net.cpp:106] Creating Layer loss2/drop_fc
I0711 10:14:09.640631 120388 net.cpp:454] loss2/drop_fc <- loss2/fc
I0711 10:14:09.640641 120388 net.cpp:397] loss2/drop_fc -> loss2/fc (in-place)
I0711 10:14:09.640703 120388 net.cpp:150] Setting up loss2/drop_fc
I0711 10:14:09.640717 120388 net.cpp:157] Top shape: 100 1024 (102400)
I0711 10:14:09.640723 120388 net.cpp:165] Memory required for data: 5035013208
I0711 10:14:09.640732 120388 layer_factory.hpp:76] Creating layer loss2/classifier
I0711 10:14:09.640744 120388 net.cpp:106] Creating Layer loss2/classifier
I0711 10:14:09.640754 120388 net.cpp:454] loss2/classifier <- loss2/fc
I0711 10:14:09.640776 120388 net.cpp:411] loss2/classifier -> loss2/classifier
I0711 10:14:09.640995 120388 net.cpp:150] Setting up loss2/classifier
I0711 10:14:09.641021 120388 net.cpp:157] Top shape: 100 2 (200)
I0711 10:14:09.641028 120388 net.cpp:165] Memory required for data: 5035014008
I0711 10:14:09.641047 120388 layer_factory.hpp:76] Creating layer loss2/classifier_loss2/classifier_0_split
I0711 10:14:09.641058 120388 net.cpp:106] Creating Layer loss2/classifier_loss2/classifier_0_split
I0711 10:14:09.641068 120388 net.cpp:454] loss2/classifier_loss2/classifier_0_split <- loss2/classifier
I0711 10:14:09.641078 120388 net.cpp:411] loss2/classifier_loss2/classifier_0_split -> loss2/classifier_loss2/classifier_0_split_0
I0711 10:14:09.641089 120388 net.cpp:411] loss2/classifier_loss2/classifier_0_split -> loss2/classifier_loss2/classifier_0_split_1
I0711 10:14:09.641161 120388 net.cpp:150] Setting up loss2/classifier_loss2/classifier_0_split
I0711 10:14:09.641175 120388 net.cpp:157] Top shape: 100 2 (200)
I0711 10:14:09.641183 120388 net.cpp:157] Top shape: 100 2 (200)
I0711 10:14:09.641191 120388 net.cpp:165] Memory required for data: 5035015608
I0711 10:14:09.641197 120388 layer_factory.hpp:76] Creating layer loss2/loss
I0711 10:14:09.641207 120388 net.cpp:106] Creating Layer loss2/loss
I0711 10:14:09.641216 120388 net.cpp:454] loss2/loss <- loss2/classifier_loss2/classifier_0_split_0
I0711 10:14:09.641225 120388 net.cpp:454] loss2/loss <- label_data_1_split_2
…
I0711 10:14:09.641980 120388 net.cpp:165] Memory required for data: 5035015616
I0711 10:14:09.641988 120388 layer_factory.hpp:76] Creating layer inception_4e/1x1
I0711 10:14:09.642001 120388 net.cpp:106] Creating Layer inception_4e/1x1
I0711 10:14:09.642010 120388 net.cpp:454] inception_4e/1x1 <- inception_4d/output_inception_4d/output_0_split_1
I0711 10:14:09.642021 120388 net.cpp:411] inception_4e/1x1 -> inception_4e/1x1
I0711 10:14:09.644243 120388 cudnn_conv_layer.cpp:194] Reallocating workspace storage: 6336
I0711 10:14:09.644310 120388 net.cpp:150] Setting up inception_4e/1x1
I0711 10:14:09.644325 120388 net.cpp:157] Top shape: 100 256 14 14 (5017600)
I0711 10:14:09.644346 120388 net.cpp:165] Memory required for data: 5055086016
I0711 10:14:09.644366 120388 layer_factory.hpp:76] Creating layer inception_4e/relu_1x1
I0711 10:14:09.644381 120388 net.cpp:106] Creating Layer inception_4e/relu_1x1
I0711 10:14:09.644389 120388 net.cpp:454] inception_4e/relu_1x1 <- inception_4e/1x1
I0711 10:14:09.644399 120388 net.cpp:397] inception_4e/relu_1x1 -> inception_4e/1x1 (in-place)
I0711 10:14:09.644801 120388 net.cpp:150] Setting up inception_4e/relu_1x1
I0711 10:14:09.644831 120388 net.cpp:157] Top shape: 100 256 14 14 (5017600)
I0711 10:14:09.644840 120388 net.cpp:165] Memory required for data: 5075156416
I0711 10:14:09.644847 120388 layer_factory.hpp:76] Creating layer inception_4e/3x3_reduce
I0711 10:14:09.644858 120388 net.cpp:106] Creating Layer inception_4e/3x3_reduce
I0711 10:14:09.644868 120388 net.cpp:454] inception_4e/3x3_reduce <- inception_4d/output_inception_4d/output_0_split_2
I0711 10:14:09.644881 120388 net.cpp:411] inception_4e/3x3_reduce -> inception_4e/3x3_reduce
I0711 10:14:09.652377 120388 cudnn_conv_layer.cpp:194] Reallocating workspace storage: 6336
I0711 10:14:09.652437 120388 net.cpp:150] Setting up inception_4e/3x3_reduce
I0711 10:14:09.652467 120388 net.cpp:157] Top shape: 100 160 14 14 (3136000)
I0711 10:14:09.652475 120388 net.cpp:165] Memory required for data: 5087700416
I0711 10:14:09.652485 120388 layer_factory.hpp:76] Creating layer inception_4e/relu_3x3_reduce
I0711 10:14:09.652496 120388 net.cpp:106] Creating Layer inception_4e/relu_3x3_reduce
I0711 10:14:09.652509 120388 net.cpp:454] inception_4e/relu_3x3_reduce <- inception_4e/3x3_reduce
I0711 10:14:09.652519 120388 net.cpp:397] inception_4e/relu_3x3_reduce -> inception_4e/3x3_reduce (in-place)
I0711 10:14:09.652735 120388 net.cpp:150] Setting up inception_4e/relu_3x3_reduce
I0711 10:14:09.652761 120388 net.cpp:157] Top shape: 100 160 14 14 (3136000)
I0711 10:14:09.652770 120388 net.cpp:165] Memory required for data: 5100244416
I0711 10:14:09.652777 120388 layer_factory.hpp:76] Creating layer inception_4e/3x3
I0711 10:14:09.652807 120388 net.cpp:106] Creating Layer inception_4e/3x3
I0711 10:14:09.652817 120388 net.cpp:454] inception_4e/3x3 <- inception_4e/3x3_reduce
I0711 10:14:09.652840 120388 net.cpp:411] inception_4e/3x3 -> inception_4e/3x3
I0711 10:14:09.657714 120388 cudnn_conv_layer.cpp:194] Reallocating workspace storage: 17280
I0711 10:14:09.657755 120388 net.cpp:150] Setting up inception_4e/3x3
I0711 10:14:09.657768 120388 net.cpp:157] Top shape: 100 320 14 14 (6272000)
I0711 10:14:09.657776 120388 net.cpp:165] Memory required for data: 5125332416
I0711 10:14:09.657809 120388 layer_factory.hpp:76] Creating layer inception_4e/relu_3x3
I0711 10:14:09.657821 120388 net.cpp:106] Creating Layer inception_4e/relu_3x3
I0711 10:14:09.657829 120388 net.cpp:454] inception_4e/relu_3x3 <- inception_4e/3x3
I0711 10:14:09.657845 120388 net.cpp:397] inception_4e/relu_3x3 -> inception_4e/3x3 (in-place)
I0711 10:14:09.658234 120388 net.cpp:150] Setting up inception_4e/relu_3x3
I0711 10:14:09.658263 120388 net.cpp:157] Top shape: 100 320 14 14 (6272000)
I0711 10:14:09.658272 120388 net.cpp:165] Memory required for data: 5150420416
I0711 10:14:09.658279 120388 layer_factory.hpp:76] Creating layer inception_4e/5x5_reduce
I0711 10:14:09.658293 120388 net.cpp:106] Creating Layer inception_4e/5x5_reduce
I0711 10:14:09.658301 120388 net.cpp:454] inception_4e/5x5_reduce <- inception_4d/output_inception_4d/output_0_split_3
I0711 10:14:09.658313 120388 net.cpp:411] inception_4e/5x5_reduce -> inception_4e/5x5_reduce
I0711 10:14:09.659708 120388 cudnn_conv_layer.cpp:194] Reallocating workspace storage: 6336
I0711 10:14:09.659766 120388 net.cpp:150] Setting up inception_4e/5x5_reduce
I0711 10:14:09.659790 120388 net.cpp:157] Top shape: 100 32 14 14 (627200)
I0711 10:14:09.659798 120388 net.cpp:165] Memory required for data: 5152929216
I0711 10:14:09.659808 120388 layer_factory.hpp:76] Creating layer inception_4e/relu_5x5_reduce
I0711 10:14:09.659821 120388 net.cpp:106] Creating Layer inception_4e/relu_5x5_reduce
I0711 10:14:09.659847 120388 net.cpp:454] inception_4e/relu_5x5_reduce <- inception_4e/5x5_reduce
I0711 10:14:09.659859 120388 net.cpp:397] inception_4e/relu_5x5_reduce -> inception_4e/5x5_reduce (in-place)
I0711 10:14:09.660085 120388 net.cpp:150] Setting up inception_4e/relu_5x5_reduce
I0711 10:14:09.660111 120388 net.cpp:157] Top shape: 100 32 14 14 (627200)
I0711 10:14:09.660120 120388 net.cpp:165] Memory required for data: 5155438016
I0711 10:14:09.660127 120388 layer_factory.hpp:76] Creating layer inception_4e/5x5
I0711 10:14:09.660140 120388 net.cpp:106] Creating Layer inception_4e/5x5
I0711 10:14:09.660151 120388 net.cpp:454] inception_4e/5x5 <- inception_4e/5x5_reduce
I0711 10:14:09.660161 120388 net.cpp:411] inception_4e/5x5 -> inception_4e/5x5
I0711 10:14:09.662083 120388 net.cpp:150] Setting up inception_4e/5x5
I0711 10:14:09.662114 120388 net.cpp:157] Top shape: 100 128 14 14 (2508800)
I0711 10:14:09.662122 120388 net.cpp:165] Memory required for data: 5165473216
I0711 10:14:09.662132 120388 layer_factory.hpp:76] Creating layer inception_4e/relu_5x5
I0711 10:14:09.662153 120388 net.cpp:106] Creating Layer inception_4e/relu_5x5
I0711 10:14:09.662161 120388 net.cpp:454] inception_4e/relu_5x5 <- inception_4e/5x5
I0711 10:14:09.662187 120388 net.cpp:397] inception_4e/relu_5x5 -> inception_4e/5x5 (in-place)
I0711 10:14:09.662410 120388 net.cpp:150] Setting up inception_4e/relu_5x5
I0711 10:14:09.662436 120388 net.cpp:157] Top shape: 100 128 14 14 (2508800)
I0711 10:14:09.662444 120388 net.cpp:165] Memory required for data: 5175508416
I0711 10:14:09.662454 120388 layer_factory.hpp:76] Creating layer inception_4e/pool
I0711 10:14:09.662468 120388 net.cpp:106] Creating Layer inception_4e/pool
I0711 10:14:09.662477 120388 net.cpp:454] inception_4e/pool <- inception_4d/output_inception_4d/output_0_split_4
I0711 10:14:09.662487 120388 net.cpp:411] inception_4e/pool -> inception_4e/pool
I0711 10:14:09.662986 120388 net.cpp:150] Setting up inception_4e/pool
I0711 10:14:09.663018 120388 net.cpp:157] Top shape: 100 528 14 14 (10348800)
I0711 10:14:09.663027 120388 net.cpp:165] Memory required for data: 5216903616
I0711 10:14:09.663034 120388 layer_factory.hpp:76] Creating layer inception_4e/pool_proj
I0711 10:14:09.663045 120388 net.cpp:106] Creating Layer inception_4e/pool_proj
I0711 10:14:09.663053 120388 net.cpp:454] inception_4e/pool_proj <- inception_4e/pool
I0711 10:14:09.663065 120388 net.cpp:411] inception_4e/pool_proj -> inception_4e/pool_proj
I0711 10:14:09.664793 120388 cudnn_conv_layer.cpp:194] Reallocating workspace storage: 6336
I0711 10:14:09.664852 120388 net.cpp:150] Setting up inception_4e/pool_proj
I0711 10:14:09.664883 120388 net.cpp:157] Top shape: 100 128 14 14 (2508800)
I0711 10:14:09.664891 120388 net.cpp:165] Memory required for data: 5226938816
I0711 10:14:09.664903 120388 layer_factory.hpp:76] Creating layer inception_4e/relu_pool_proj
I0711 10:14:09.664916 120388 net.cpp:106] Creating Layer inception_4e/relu_pool_proj
I0711 10:14:09.664926 120388 net.cpp:454] inception_4e/relu_pool_proj <- inception_4e/pool_proj
I0711 10:14:09.664935 120388 net.cpp:397] inception_4e/relu_pool_proj -> inception_4e/pool_proj (in-place)
I0711 10:14:09.665165 120388 net.cpp:150] Setting up inception_4e/relu_pool_proj
I0711 10:14:09.665191 120388 net.cpp:157] Top shape: 100 128 14 14 (2508800)
I0711 10:14:09.665199 120388 net.cpp:165] Memory required for data: 5236974016
I0711 10:14:09.665207 120388 layer_factory.hpp:76] Creating layer inception_4e/output
I0711 10:14:09.665217 120388 net.cpp:106] Creating Layer inception_4e/output
I0711 10:14:09.665225 120388 net.cpp:454] inception_4e/output <- inception_4e/1x1
I0711 10:14:09.665233 120388 net.cpp:454] inception_4e/output <- inception_4e/3x3
I0711 10:14:09.665241 120388 net.cpp:454] inception_4e/output <- inception_4e/5x5
I0711 10:14:09.665249 120388 net.cpp:454] inception_4e/output <- inception_4e/pool_proj
I0711 10:14:09.665269 120388 net.cpp:411] inception_4e/output -> inception_4e/output
I0711 10:14:09.665323 120388 net.cpp:150] Setting up inception_4e/output
I0711 10:14:09.665352 120388 net.cpp:157] Top shape: 100 832 14 14 (16307200)
I0711 10:14:09.665360 120388 net.cpp:165] Memory required for data: 5302202816
I0711 10:14:09.665369 120388 layer_factory.hpp:76] Creating layer pool4/3x3_s2
I0711 10:14:09.665379 120388 net.cpp:106] Creating Layer pool4/3x3_s2
I0711 10:14:09.665387 120388 net.cpp:454] pool4/3x3_s2 <- inception_4e/output
I0711 10:14:09.665397 120388 net.cpp:411] pool4/3x3_s2 -> pool4/3x3_s2
I0711 10:14:09.665845 120388 net.cpp:150] Setting up pool4/3x3_s2
I0711 10:14:09.665876 120388 net.cpp:157] Top shape: 100 832 7 7 (4076800)
I0711 10:14:09.665884 120388 net.cpp:165] Memory required for data: 5318510016
I0711 10:14:09.665892 120388 layer_factory.hpp:76] Creating layer pool4/3x3_s2_pool4/3x3_s2_0_split
I0711 10:14:09.665902 120388 net.cpp:106] Creating Layer pool4/3x3_s2_pool4/3x3_s2_0_split
I0711 10:14:09.665911 120388 net.cpp:454] pool4/3x3_s2_pool4/3x3_s2_0_split <- pool4/3x3_s2
I0711 10:14:09.665920 120388 net.cpp:411] pool4/3x3_s2_pool4/3x3_s2_0_split -> pool4/3x3_s2_pool4/3x3_s2_0_split_0
I0711 10:14:09.665930 120388 net.cpp:411] pool4/3x3_s2_pool4/3x3_s2_0_split -> pool4/3x3_s2_pool4/3x3_s2_0_split_1
I0711 10:14:09.665956 120388 net.cpp:411] pool4/3x3_s2_pool4/3x3_s2_0_split -> pool4/3x3_s2_pool4/3x3_s2_0_split_2
I0711 10:14:09.665966 120388 net.cpp:411] pool4/3x3_s2_pool4/3x3_s2_0_split -> pool4/3x3_s2_pool4/3x3_s2_0_split_3
I0711 10:14:09.666100 120388 net.cpp:150] Setting up pool4/3x3_s2_pool4/3x3_s2_0_split
I0711 10:14:09.666111 120388 net.cpp:157] Top shape: 100 832 7 7 (4076800)
I0711 10:14:09.666131 120388 net.cpp:157] Top shape: 100 832 7 7 (4076800)
I0711 10:14:09.666139 120388 net.cpp:157] Top shape: 100 832 7 7 (4076800)
I0711 10:14:09.666146 120388 net.cpp:157] Top shape: 100 832 7 7 (4076800)
I0711 10:14:09.666153 120388 net.cpp:165] Memory required for data: 5383738816
I0711 10:14:09.666162 120388 layer_factory.hpp:76] Creating layer inception_5a/1x1
I0711 10:14:09.666174 120388 net.cpp:106] Creating Layer inception_5a/1x1
I0711 10:14:09.666183 120388 net.cpp:454] inception_5a/1x1 <- pool4/3x3_s2_pool4/3x3_s2_0_split_0
I0711 10:14:09.666208 120388 net.cpp:411] inception_5a/1x1 -> inception_5a/1x1
I0711 10:14:09.669314 120388 cudnn_conv_layer.cpp:194] Reallocating workspace storage: 9984
I0711 10:14:09.669376 120388 net.cpp:150] Setting up inception_5a/1x1
I0711 10:14:09.669405 120388 net.cpp:157] Top shape: 100 256 7 7 (1254400)
I0711 10:14:09.669414 120388 net.cpp:165] Memory required for data: 5388756416
I0711 10:14:09.669425 120388 layer_factory.hpp:76] Creating layer inception_5a/relu_1x1
I0711 10:14:09.669436 120388 net.cpp:106] Creating Layer inception_5a/relu_1x1
I0711 10:14:09.669445 120388 net.cpp:454] inception_5a/relu_1x1 <- inception_5a/1x1
I0711 10:14:09.669455 120388 net.cpp:397] inception_5a/relu_1x1 -> inception_5a/1x1 (in-place)
I0711 10:14:09.669677 120388 net.cpp:150] Setting up inception_5a/relu_1x1
I0711 10:14:09.669703 120388 net.cpp:157] Top shape: 100 256 7 7 (1254400)
I0711 10:14:09.669709 120388 net.cpp:165] Memory required for data: 5393774016
I0711 10:14:09.669718 120388 layer_factory.hpp:76] Creating layer inception_5a/3x3_reduce
I0711 10:14:09.669731 120388 net.cpp:106] Creating Layer inception_5a/3x3_reduce
I0711 10:14:09.669741 120388 net.cpp:454] inception_5a/3x3_reduce <- pool4/3x3_s2_pool4/3x3_s2_0_split_1
I0711 10:14:09.669766 120388 net.cpp:411] inception_5a/3x3_reduce -> inception_5a/3x3_reduce
I0711 10:14:09.672513 120388 cudnn_conv_layer.cpp:194] Reallocating workspace storage: 9984
I0711 10:14:09.672593 120388 net.cpp:150] Setting up inception_5a/3x3_reduce
I0711 10:14:09.672608 120388 net.cpp:157] Top shape: 100 160 7 7 (784000)
I0711 10:14:09.672616 120388 net.cpp:165] Memory required for data: 5396910016
I0711 10:14:09.672627 120388 layer_factory.hpp:76] Creating layer inception_5a/relu_3x3_reduce
I0711 10:14:09.672638 120388 net.cpp:106] Creating Layer inception_5a/relu_3x3_reduce
I0711 10:14:09.672648 120388 net.cpp:454] inception_5a/relu_3x3_reduce <- inception_5a/3x3_reduce
I0711 10:14:09.672672 120388 net.cpp:397] inception_5a/relu_3x3_reduce -> inception_5a/3x3_reduce (in-place)
I0711 10:14:09.673096 120388 net.cpp:150] Setting up inception_5a/relu_3x3_reduce
I0711 10:14:09.673126 120388 net.cpp:157] Top shape: 100 160 7 7 (784000)
I0711 10:14:09.673135 120388 net.cpp:165] Memory required for data: 5400046016
I0711 10:14:09.673143 120388 layer_factory.hpp:76] Creating layer inception_5a/3x3
I0711 10:14:09.673161 120388 net.cpp:106] Creating Layer inception_5a/3x3
I0711 10:14:09.673169 120388 net.cpp:454] inception_5a/3x3 <- inception_5a/3x3_reduce
I0711 10:14:09.673192 120388 net.cpp:411] inception_5a/3x3 -> inception_5a/3x3
I0711 10:14:09.678097 120388 net.cpp:150] Setting up inception_5a/3x3
I0711 10:14:09.678129 120388 net.cpp:157] Top shape: 100 320 7 7 (1568000)
I0711 10:14:09.678138 120388 net.cpp:165] Memory required for data: 5406318016
I0711 10:14:09.678148 120388 layer_factory.hpp:76] Creating layer inception_5a/relu_3x3
I0711 10:14:09.678158 120388 net.cpp:106] Creating Layer inception_5a/relu_3x3
I0711 10:14:09.678167 120388 net.cpp:454] inception_5a/relu_3x3 <- inception_5a/3x3
I0711 10:14:09.678179 120388 net.cpp:397] inception_5a/relu_3x3 -> inception_5a/3x3 (in-place)
I0711 10:14:09.678583 120388 net.cpp:150] Setting up inception_5a/relu_3x3
I0711 10:14:09.678612 120388 net.cpp:157] Top shape: 100 320 7 7 (1568000)
I0711 10:14:09.678620 120388 net.cpp:165] Memory required for data: 5412590016
I0711 10:14:09.678633 120388 layer_factory.hpp:76] Creating layer inception_5a/5x5_reduce
I0711 10:14:09.678673 120388 net.cpp:106] Creating Layer inception_5a/5x5_reduce
I0711 10:14:09.678681 120388 net.cpp:454] inception_5a/5x5_reduce <- pool4/3x3_s2_pool4/3x3_s2_0_split_2
I0711 10:14:09.678699 120388 net.cpp:411] inception_5a/5x5_reduce -> inception_5a/5x5_reduce
I0711 10:14:09.680687 120388 net.cpp:150] Setting up inception_5a/5x5_reduce
I0711 10:14:09.680718 120388 net.cpp:157] Top shape: 100 32 7 7 (156800)
I0711 10:14:09.680727 120388 net.cpp:165] Memory required for data: 5413217216
I0711 10:14:09.680737 120388 layer_factory.hpp:76] Creating layer inception_5a/relu_5x5_reduce
I0711 10:14:09.680757 120388 net.cpp:106] Creating Layer inception_5a/relu_5x5_reduce
I0711 10:14:09.680766 120388 net.cpp:454] inception_5a/relu_5x5_reduce <- inception_5a/5x5_reduce
I0711 10:14:09.680789 120388 net.cpp:397] inception_5a/relu_5x5_reduce -> inception_5a/5x5_reduce (in-place)
I0711 10:14:09.681015 120388 net.cpp:150] Setting up inception_5a/relu_5x5_reduce
I0711 10:14:09.681042 120388 net.cpp:157] Top shape: 100 32 7 7 (156800)
I0711 10:14:09.681051 120388 net.cpp:165] Memory required for data: 5413844416
I0711 10:14:09.681059 120388 layer_factory.hpp:76] Creating layer inception_5a/5x5
I0711 10:14:09.681071 120388 net.cpp:106] Creating Layer inception_5a/5x5
I0711 10:14:09.681079 120388 net.cpp:454] inception_5a/5x5 <- inception_5a/5x5_reduce
I0711 10:14:09.681090 120388 net.cpp:411] inception_5a/5x5 -> inception_5a/5x5
I0711 10:14:09.683110 120388 net.cpp:150] Setting up inception_5a/5x5
I0711 10:14:09.683140 120388 net.cpp:157] Top shape: 100 128 7 7 (627200)
I0711 10:14:09.683149 120388 net.cpp:165] Memory required for data: 5416353216
I0711 10:14:09.683159 120388 layer_factory.hpp:76] Creating layer inception_5a/relu_5x5
I0711 10:14:09.683169 120388 net.cpp:106] Creating Layer inception_5a/relu_5x5
I0711 10:14:09.683177 120388 net.cpp:454] inception_5a/relu_5x5 <- inception_5a/5x5
I0711 10:14:09.683187 120388 net.cpp:397] inception_5a/relu_5x5 -> inception_5a/5x5 (in-place)
I0711 10:14:09.683596 120388 net.cpp:150] Setting up inception_5a/relu_5x5
I0711 10:14:09.683639 120388 net.cpp:157] Top shape: 100 128 7 7 (627200)
I0711 10:14:09.683646 120388 net.cpp:165] Memory required for data: 5418862016
I0711 10:14:09.683655 120388 layer_factory.hpp:76] Creating layer inception_5a/pool
I0711 10:14:09.683665 120388 net.cpp:106] Creating Layer inception_5a/pool
I0711 10:14:09.683675 120388 net.cpp:454] inception_5a/pool <- pool4/3x3_s2_pool4/3x3_s2_0_split_3
I0711 10:14:09.683686 120388 net.cpp:411] inception_5a/pool -> inception_5a/pool
I0711 10:14:09.684025 120388 net.cpp:150] Setting up inception_5a/pool
I0711 10:14:09.684064 120388 net.cpp:157] Top shape: 100 832 7 7 (4076800)
I0711 10:14:09.684072 120388 net.cpp:165] Memory required for data: 5435169216
I0711 10:14:09.684080 120388 layer_factory.hpp:76] Creating layer inception_5a/pool_proj
I0711 10:14:09.684103 120388 net.cpp:106] Creating Layer inception_5a/pool_proj
I0711 10:14:09.684123 120388 net.cpp:454] inception_5a/pool_proj <- inception_5a/pool
I0711 10:14:09.684146 120388 net.cpp:411] inception_5a/pool_proj -> inception_5a/pool_proj
I0711 10:14:09.686602 120388 cudnn_conv_layer.cpp:194] Reallocating workspace storage: 9984
I0711 10:14:09.686684 120388 net.cpp:150] Setting up inception_5a/pool_proj
I0711 10:14:09.686698 120388 net.cpp:157] Top shape: 100 128 7 7 (627200)
I0711 10:14:09.686707 120388 net.cpp:165] Memory required for data: 5437678016
I0711 10:14:09.686717 120388 layer_factory.hpp:76] Creating layer inception_5a/relu_pool_proj
I0711 10:14:09.686729 120388 net.cpp:106] Creating Layer inception_5a/relu_pool_proj
I0711 10:14:09.686738 120388 net.cpp:454] inception_5a/relu_pool_proj <- inception_5a/pool_proj
I0711 10:14:09.686753 120388 net.cpp:397] inception_5a/relu_pool_proj -> inception_5a/pool_proj (in-place)
I0711 10:14:09.686990 120388 net.cpp:150] Setting up inception_5a/relu_pool_proj
I0711 10:14:09.687029 120388 net.cpp:157] Top shape: 100 128 7 7 (627200)
I0711 10:14:09.687036 120388 net.cpp:165] Memory required for data: 5440186816
I0711 10:14:09.687046 120388 layer_factory.hpp:76] Creating layer inception_5a/output
I0711 10:14:09.687057 120388 net.cpp:106] Creating Layer inception_5a/output
I0711 10:14:09.687067 120388 net.cpp:454] inception_5a/output <- inception_5a/1x1
I0711 10:14:09.687077 120388 net.cpp:454] inception_5a/output <- inception_5a/3x3
I0711 10:14:09.687095 120388 net.cpp:454] inception_5a/output <- inception_5a/5x5
I0711 10:14:09.687114 120388 net.cpp:454] inception_5a/output <- inception_5a/pool_proj
I0711 10:14:09.687124 120388 net.cpp:411] inception_5a/output -> inception_5a/output
I0711 10:14:09.687180 120388 net.cpp:150] Setting up inception_5a/output
I0711 10:14:09.687192 120388 net.cpp:157] Top shape: 100 832 7 7 (4076800)
I0711 10:14:09.687201 120388 net.cpp:165] Memory required for data: 5456494016
I0711 10:14:09.687207 120388 layer_factory.hpp:76] Creating layer inception_5a/output_inception_5a/output_0_split
I0711 10:14:09.687219 120388 net.cpp:106] Creating Layer inception_5a/output_inception_5a/output_0_split
I0711 10:14:09.687227 120388 net.cpp:454] inception_5a/output_inception_5a/output_0_split <- inception_5a/output
I0711 10:14:09.687242 120388 net.cpp:411] inception_5a/output_inception_5a/output_0_split -> inception_5a/output_inception_5a/output_0_split_0
I0711 10:14:09.687253 120388 net.cpp:411] inception_5a/output_inception_5a/output_0_split -> inception_5a/output_inception_5a/output_0_split_1
I0711 10:14:09.687264 120388 net.cpp:411] inception_5a/output_inception_5a/output_0_split -> inception_5a/output_inception_5a/output_0_split_2
I0711 10:14:09.687274 120388 net.cpp:411] inception_5a/output_inception_5a/output_0_split -> inception_5a/output_inception_5a/output_0_split_3
I0711 10:14:09.687407 120388 net.cpp:150] Setting up inception_5a/output_inception_5a/output_0_split
I0711 10:14:09.687419 120388 net.cpp:157] Top shape: 100 832 7 7 (4076800)
I0711 10:14:09.687440 120388 net.cpp:157] Top shape: 100 832 7 7 (4076800)
I0711 10:14:09.687449 120388 net.cpp:157] Top shape: 100 832 7 7 (4076800)
I0711 10:14:09.687456 120388 net.cpp:157] Top shape: 100 832 7 7 (4076800)
I0711 10:14:09.687463 120388 net.cpp:165] Memory required for data: 5521722816
I0711 10:14:09.687472 120388 layer_factory.hpp:76] Creating layer inception_5b/1x1
I0711 10:14:09.687487 120388 net.cpp:106] Creating Layer inception_5b/1x1
I0711 10:14:09.687496 120388 net.cpp:454] inception_5b/1x1 <- inception_5a/output_inception_5a/output_0_split_0
I0711 10:14:09.687506 120388 net.cpp:411] inception_5b/1x1 -> inception_5b/1x1
I0711 10:14:09.691340 120388 cudnn_conv_layer.cpp:194] Reallocating workspace storage: 9984
I0711 10:14:09.691402 120388 net.cpp:150] Setting up inception_5b/1x1
I0711 10:14:09.691431 120388 net.cpp:157] Top shape: 100 384 7 7 (1881600)
I0711 10:14:09.691439 120388 net.cpp:165] Memory required for data: 5529249216
I0711 10:14:09.691450 120388 layer_factory.hpp:76] Creating layer inception_5b/relu_1x1
I0711 10:14:09.691462 120388 net.cpp:106] Creating Layer inception_5b/relu_1x1
I0711 10:14:09.691470 120388 net.cpp:454] inception_5b/relu_1x1 <- inception_5b/1x1
I0711 10:14:09.691483 120388 net.cpp:397] inception_5b/relu_1x1 -> inception_5b/1x1 (in-place)
I0711 10:14:09.691903 120388 net.cpp:150] Setting up inception_5b/relu_1x1
I0711 10:14:09.691932 120388 net.cpp:157] Top shape: 100 384 7 7 (1881600)
I0711 10:14:09.691941 120388 net.cpp:165] Memory required for data: 5536775616
I0711 10:14:09.691948 120388 layer_factory.hpp:76] Creating layer inception_5b/3x3_reduce
I0711 10:14:09.691962 120388 net.cpp:106] Creating Layer inception_5b/3x3_reduce
I0711 10:14:09.691970 120388 net.cpp:454] inception_5b/3x3_reduce <- inception_5a/output_inception_5a/output_0_split_1
I0711 10:14:09.691984 120388 net.cpp:411] inception_5b/3x3_reduce -> inception_5b/3x3_reduce
I0711 10:14:09.694874 120388 cudnn_conv_layer.cpp:194] Reallocating workspace storage: 9984
I0711 10:14:09.694933 120388 net.cpp:150] Setting up inception_5b/3x3_reduce
I0711 10:14:09.694962 120388 net.cpp:157] Top shape: 100 192 7 7 (940800)
I0711 10:14:09.694970 120388 net.cpp:165] Memory required for data: 5540538816
I0711 10:14:09.694982 120388 layer_factory.hpp:76] Creating layer inception_5b/relu_3x3_reduce
I0711 10:14:09.694994 120388 net.cpp:106] Creating Layer inception_5b/relu_3x3_reduce
I0711 10:14:09.695003 120388 net.cpp:454] inception_5b/relu_3x3_reduce <- inception_5b/3x3_reduce
I0711 10:14:09.695013 120388 net.cpp:397] inception_5b/relu_3x3_reduce -> inception_5b/3x3_reduce (in-place)
I0711 10:14:09.695240 120388 net.cpp:150] Setting up inception_5b/relu_3x3_reduce
I0711 10:14:09.695267 120388 net.cpp:157] Top shape: 100 192 7 7 (940800)
I0711 10:14:09.695276 120388 net.cpp:165] Memory required for data: 5544302016
I0711 10:14:09.695284 120388 layer_factory.hpp:76] Creating layer inception_5b/3x3
I0711 10:14:09.695307 120388 net.cpp:106] Creating Layer inception_5b/3x3
I0711 10:14:09.695317 120388 net.cpp:454] inception_5b/3x3 <- inception_5b/3x3_reduce
I0711 10:14:09.695328 120388 net.cpp:411] inception_5b/3x3 -> inception_5b/3x3
I0711 10:14:09.702200 120388 net.cpp:150] Setting up inception_5b/3x3
I0711 10:14:09.702234 120388 net.cpp:157] Top shape: 100 384 7 7 (1881600)
I0711 10:14:09.702241 120388 net.cpp:165] Memory required for data: 5551828416
I0711 10:14:09.702252 120388 layer_factory.hpp:76] Creating layer inception_5b/relu_3x3
I0711 10:14:09.702265 120388 net.cpp:106] Creating Layer inception_5b/relu_3x3
I0711 10:14:09.702275 120388 net.cpp:454] inception_5b/relu_3x3 <- inception_5b/3x3
I0711 10:14:09.702283 120388 net.cpp:397] inception_5b/relu_3x3 -> inception_5b/3x3 (in-place)
I0711 10:14:09.702541 120388 net.cpp:150] Setting up inception_5b/relu_3x3
I0711 10:14:09.702569 120388 net.cpp:157] Top shape: 100 384 7 7 (1881600)
I0711 10:14:09.702575 120388 net.cpp:165] Memory required for data: 5559354816
I0711 10:14:09.702584 120388 layer_factory.hpp:76] Creating layer inception_5b/5x5_reduce
I0711 10:14:09.702607 120388 net.cpp:106] Creating Layer inception_5b/5x5_reduce
I0711 10:14:09.702617 120388 net.cpp:454] inception_5b/5x5_reduce <- inception_5a/output_inception_5a/output_0_split_2
I0711 10:14:09.702644 120388 net.cpp:411] inception_5b/5x5_reduce -> inception_5b/5x5_reduce
I0711 10:14:09.704061 120388 net.cpp:150] Setting up inception_5b/5x5_reduce
I0711 10:14:09.704092 120388 net.cpp:157] Top shape: 100 48 7 7 (235200)
I0711 10:14:09.704100 120388 net.cpp:165] Memory required for data: 5560295616
I0711 10:14:09.704111 120388 layer_factory.hpp:76] Creating layer inception_5b/relu_5x5_reduce
I0711 10:14:09.704123 120388 net.cpp:106] Creating Layer inception_5b/relu_5x5_reduce
I0711 10:14:09.704162 120388 net.cpp:454] inception_5b/relu_5x5_reduce <- inception_5b/5x5_reduce
I0711 10:14:09.704174 120388 net.cpp:397] inception_5b/relu_5x5_reduce -> inception_5b/5x5_reduce (in-place)
I0711 10:14:09.704749 120388 net.cpp:150] Setting up inception_5b/relu_5x5_reduce
I0711 10:14:09.704779 120388 net.cpp:157] Top shape: 100 48 7 7 (235200)
I0711 10:14:09.704787 120388 net.cpp:165] Memory required for data: 5561236416
I0711 10:14:09.704794 120388 layer_factory.hpp:76] Creating layer inception_5b/5x5
I0711 10:14:09.704808 120388 net.cpp:106] Creating Layer inception_5b/5x5
I0711 10:14:09.704818 120388 net.cpp:454] inception_5b/5x5 <- inception_5b/5x5_reduce
I0711 10:14:09.704826 120388 net.cpp:411] inception_5b/5x5 -> inception_5b/5x5
I0711 10:14:09.706989 120388 net.cpp:150] Setting up inception_5b/5x5
I0711 10:14:09.707018 120388 net.cpp:157] Top shape: 100 128 7 7 (627200)
I0711 10:14:09.707026 120388 net.cpp:165] Memory required for data: 5563745216
I0711 10:14:09.707037 120388 layer_factory.hpp:76] Creating layer inception_5b/relu_5x5
I0711 10:14:09.707047 120388 net.cpp:106] Creating Layer inception_5b/relu_5x5
I0711 10:14:09.707056 120388 net.cpp:454] inception_5b/relu_5x5 <- inception_5b/5x5
I0711 10:14:09.707070 120388 net.cpp:397] inception_5b/relu_5x5 -> inception_5b/5x5 (in-place)
I0711 10:14:09.707309 120388 net.cpp:150] Setting up inception_5b/relu_5x5
I0711 10:14:09.707336 120388 net.cpp:157] Top shape: 100 128 7 7 (627200)
I0711 10:14:09.707345 120388 net.cpp:165] Memory required for data: 5566254016
I0711 10:14:09.707351 120388 layer_factory.hpp:76] Creating layer inception_5b/pool
I0711 10:14:09.707361 120388 net.cpp:106] Creating Layer inception_5b/pool
I0711 10:14:09.707370 120388 net.cpp:454] inception_5b/pool <- inception_5a/output_inception_5a/output_0_split_3
I0711 10:14:09.707379 120388 net.cpp:411] inception_5b/pool -> inception_5b/pool
I0711 10:14:09.707859 120388 net.cpp:150] Setting up inception_5b/pool
I0711 10:14:09.707901 120388 net.cpp:157] Top shape: 100 832 7 7 (4076800)
I0711 10:14:09.707908 120388 net.cpp:165] Memory required for data: 5582561216
I0711 10:14:09.707916 120388 layer_factory.hpp:76] Creating layer inception_5b/pool_proj
I0711 10:14:09.707927 120388 net.cpp:106] Creating Layer inception_5b/pool_proj
I0711 10:14:09.707937 120388 net.cpp:454] inception_5b/pool_proj <- inception_5b/pool
I0711 10:14:09.707948 120388 net.cpp:411] inception_5b/pool_proj -> inception_5b/pool_proj
I0711 10:14:09.710213 120388 cudnn_conv_layer.cpp:194] Reallocating workspace storage: 9984
I0711 10:14:09.710291 120388 net.cpp:150] Setting up inception_5b/pool_proj
I0711 10:14:09.710305 120388 net.cpp:157] Top shape: 100 128 7 7 (627200)
I0711 10:14:09.710314 120388 net.cpp:165] Memory required for data: 5585070016
I0711 10:14:09.710325 120388 layer_factory.hpp:76] Creating layer inception_5b/relu_pool_proj
I0711 10:14:09.710337 120388 net.cpp:106] Creating Layer inception_5b/relu_pool_proj
I0711 10:14:09.710347 120388 net.cpp:454] inception_5b/relu_pool_proj <- inception_5b/pool_proj
I0711 10:14:09.710357 120388 net.cpp:397] inception_5b/relu_pool_proj -> inception_5b/pool_proj (in-place)
I0711 10:14:09.710783 120388 net.cpp:150] Setting up inception_5b/relu_pool_proj
I0711 10:14:09.710813 120388 net.cpp:157] Top shape: 100 128 7 7 (627200)
I0711 10:14:09.710820 120388 net.cpp:165] Memory required for data: 5587578816
I0711 10:14:09.710829 120388 layer_factory.hpp:76] Creating layer inception_5b/output
I0711 10:14:09.710840 120388 net.cpp:106] Creating Layer inception_5b/output
I0711 10:14:09.710849 120388 net.cpp:454] inception_5b/output <- inception_5b/1x1
I0711 10:14:09.710870 120388 net.cpp:454] inception_5b/output <- inception_5b/3x3
I0711 10:14:09.710877 120388 net.cpp:454] inception_5b/output <- inception_5b/5x5
I0711 10:14:09.710886 120388 net.cpp:454] inception_5b/output <- inception_5b/pool_proj
I0711 10:14:09.710894 120388 net.cpp:411] inception_5b/output -> inception_5b/output
I0711 10:14:09.710930 120388 net.cpp:150] Setting up inception_5b/output
I0711 10:14:09.710955 120388 net.cpp:157] Top shape: 100 1024 7 7 (5017600)
I0711 10:14:09.710964 120388 net.cpp:165] Memory required for data: 5607649216
I0711 10:14:09.710971 120388 layer_factory.hpp:76] Creating layer pool5/7x7_s1
I0711 10:14:09.710983 120388 net.cpp:106] Creating Layer pool5/7x7_s1
I0711 10:14:09.710991 120388 net.cpp:454] pool5/7x7_s1 <- inception_5b/output
I0711 10:14:09.711002 120388 net.cpp:411] pool5/7x7_s1 -> pool5/7x7_s1
I0711 10:14:09.711243 120388 net.cpp:150] Setting up pool5/7x7_s1
I0711 10:14:09.711275 120388 net.cpp:157] Top shape: 100 1024 1 1 (102400)
I0711 10:14:09.711293 120388 net.cpp:165] Memory required for data: 5608058816
I0711 10:14:09.711313 120388 layer_factory.hpp:76] Creating layer pool5/drop_7x7_s1
I0711 10:14:09.711328 120388 net.cpp:106] Creating Layer pool5/drop_7x7_s1
I0711 10:14:09.711336 120388 net.cpp:454] pool5/drop_7x7_s1 <- pool5/7x7_s1
I0711 10:14:09.711345 120388 net.cpp:397] pool5/drop_7x7_s1 -> pool5/7x7_s1 (in-place)
I0711 10:14:09.711375 120388 net.cpp:150] Setting up pool5/drop_7x7_s1
I0711 10:14:09.711386 120388 net.cpp:157] Top shape: 100 1024 1 1 (102400)
I0711 10:14:09.711393 120388 net.cpp:165] Memory required for data: 5608468416
I0711 10:14:09.711410 120388 layer_factory.hpp:76] Creating layer loss3/classifier
I0711 10:14:09.711424 120388 net.cpp:106] Creating Layer loss3/classifier
I0711 10:14:09.711432 120388 net.cpp:454] loss3/classifier <- pool5/7x7_s1
I0711 10:14:09.711443 120388 net.cpp:411] loss3/classifier -> loss3/classifier
I0711 10:14:09.711602 120388 net.cpp:150] Setting up loss3/classifier
I0711 10:14:09.711616 120388 net.cpp:157] Top shape: 100 2 (200)
I0711 10:14:09.711635 120388 net.cpp:165] Memory required for data: 5608469216
I0711 10:14:09.711647 120388 layer_factory.hpp:76] Creating layer loss3/classifier_loss3/classifier_0_split
I0711 10:14:09.711658 120388 net.cpp:106] Creating Layer loss3/classifier_loss3/classifier_0_split
I0711 10:14:09.711665 120388 net.cpp:454] loss3/classifier_loss3/classifier_0_split <- loss3/classifier
I0711 10:14:09.711676 120388 net.cpp:411] loss3/classifier_loss3/classifier_0_split -> loss3/classifier_loss3/classifier_0_split_0
I0711 10:14:09.711688 120388 net.cpp:411] loss3/classifier_loss3/classifier_0_split -> loss3/classifier_loss3/classifier_0_split_1
I0711 10:14:09.711729 120388 net.cpp:150] Setting up loss3/classifier_loss3/classifier_0_split
I0711 10:14:09.711750 120388 net.cpp:157] Top shape: 100 2 (200)
I0711 10:14:09.711760 120388 net.cpp:157] Top shape: 100 2 (200)
I0711 10:14:09.711766 120388 net.cpp:165] Memory required for data: 5608470816
I0711 10:14:09.711773 120388 layer_factory.hpp:76] Creating layer loss3/loss3
I0711 10:14:09.711783 120388 net.cpp:106] Creating Layer loss3/loss3
I0711 10:14:09.711792 120388 net.cpp:454] loss3/loss3 <- loss3/classifier_loss3/classifier_0_split_0
I0711 10:14:09.711801 120388 net.cpp:454] loss3/loss3 <- label_data_1_split_4
…
