…
I0714 15:37:04.085268 60340 net.cpp:50] Initializing net from parameters: 
name: "GoogleNet"
state {
  phase: TRAIN
}
layer {
  name: "data"
  type: "ImageData"
  top: "data"
  top: "label"
  include {
    phase: TRAIN
  }
  transform_param {
    mirror: true
    crop_size: 224
    mean_value: 163
    mean_value: 116
    mean_value: 181
    rotation_angle_interval: 90
  }
  image_data_param {
    source: "../../step01_generate_traing_data/list_stage1_tr.lst"
    batch_size: 32
    shuffle: true
    new_height: 256
    new_width: 256
    root_folder: "../../step01_generate_traing_data/training_examples/"
  }
}
layer {
  name: "conv1/7x7_s2"
  type: "Convolution"
  bottom: "data"
  top: "conv1/7x7_s2"
  param {
    lr_mult: 1
    decay_mult: 1
  }
  param {
    lr_mult: 2
    decay_mult: 0
  }
  convolution_param {
    num_output: 64
    pad: 3
    kernel_size: 7
    stride: 2
    weight_filler {
      type: "xavier"
    }
    bias_filler {
      type: "constant"
      value: 0.2
    }
  }
}
layer {
  name: "conv1/relu_7x7"
  type: "ReLU"
  bottom: "conv1/7x7_s2"
  top: "conv1/7x7_s2"
}
layer {
  name: "pool1/3x3_s2"
  type: "Pooling"
  bottom: "conv1/7x7_s2"
  top: "pool1/3x3_s2"
  pooling_param {
    pool: MAX
    kernel_size: 3
    stride: 2
  }
}
layer {
  name: "pool1/norm1"
  type: "LRN"
  bottom: "pool1/3x3_s2"
  top: "pool1/norm1"
  lrn_param {
    local_size: 5
    alpha: 0.0001
    beta: 0.75
  }
}
layer {
  name: "conv2/3x3_reduce"
  type: "Convolution"
  bottom: "pool1/norm1"
  top: "conv2/3x3_reduce"
  param {
    lr_mult: 1
    decay_mult: 1
  }
  param {
    lr_mult: 2
    decay_mult: 0
  }
  convolution_param {
    num_output: 64
    kernel_size: 1
    weight_filler {
      type: "xavier"
    }
    bias_filler {
      type: "constant"
      value: 0.2
    }
  }
}
layer {
  name: "conv2/relu_3x3_reduce"
  type: "ReLU"
  bottom: "conv2/3x3_reduce"
  top: "conv2/3x3_reduce"
}
layer {
  name: "conv2/3x3"
  type: "Convolution"
  bottom: "conv2/3x3_reduce"
  top: "conv2/3x3"
  param {
    lr_mult: 1
    decay_mult: 1
  }
  param {
    lr_mult: 2
    decay_mult: 0
  }
  convolution_param {
    num_output: 192
    pad: 1
    kernel_size: 3
    weight_filler {
      type: "xavier"
    }
    bias_filler {
      type: "constant"
      value: 0.2
    }
  }
}
layer {
  name: "conv2/relu_3x3"
  type: "ReLU"
  bottom: "conv2/3x3"
  top: "conv2/3x3"
}
layer {
  name: "conv2/norm2"
  type: "LRN"
  bottom: "conv2/3x3"
  top: "conv2/norm2"
  lrn_param {
    local_size: 5
    alpha: 0.0001
    beta: 0.75
  }
}
layer {
  name: "pool2/3x3_s2"
  type: "Pooling"
  bottom: "conv2/norm2"
  top: "pool2/3x3_s2"
  pooling_param {
    pool: MAX
    kernel_size: 3
    stride: 2
  }
}
layer {
  name: "inception_3a/1x1"
  type: "Convolution"
  bottom: "pool2/3x3_s2"
  top: "inception_3a/1x1"
  param {
    lr_mult: 1
    decay_mult: 1
  }
  param {
    lr_mult: 2
    decay_mult: 0
  }
  convolution_param {
    num_output: 64
    kernel_size: 1
    weight_filler {
      type: "xavier"
    }
    bias_filler {
      type: "constant"
      value: 0.2
    }
  }
}
layer {
  name: "inception_3a/relu_1x1"
  type: "ReLU"
  bottom: "inception_3a/1x1"
  top: "inception_3a/1x1"
}
layer {
  name: "inception_3a/3x3_reduce"
  type: "Convolution"
  bottom: "pool2/3x3_s2"
  top: "inception_3a/3x3_reduce"
  param {
    lr_mult: 1
    decay_mult: 1
  }
  param {
    lr_mult: 2
    decay_mult: 0
  }
  convolution_param {
    num_output: 96
    kernel_size: 1
    weight_filler {
      type: "xavier"
    }
    bias_filler {
      type: "constant"
      value: 0.2
    }
  }
}
layer {
  name: "inception_3a/relu_3x3_reduce"
  type: "ReLU"
  bottom: "inception_3a/3x3_reduce"
  top: "inception_3a/3x3_reduce"
}
layer {
  name: "inception_3a/3x3"
  type: "Convolution"
  bottom: "inception_3a/3x3_reduce"
  top: "inception_3a/3x3"
  param {
    lr_mult: 1
    decay_mult: 1
  }
  param {
    lr_mult: 2
    decay_mult: 0
  }
  convolution_param {
    num_output: 128
    pad: 1
    kernel_size: 3
    weight_filler {
      type: "xavier"
    }
    bias_filler {
      type: "constant"
      value: 0.2
    }
  }
}
layer {
  name: "inception_3a/relu_3x3"
  type: "ReLU"
  bottom: "inception_3a/3x3"
  top: "inception_3a/3x3"
}
layer {
  name: "inception_3a/5x5_reduce"
  type: "Convolution"
  bottom: "pool2/3x3_s2"
  top: "inception_3a/5x5_reduce"
  param {
    lr_mult: 1
    decay_mult: 1
  }
  param {
    lr_mult: 2
    decay_mult: 0
  }
  convolution_param {
    num_output: 16
    kernel_size: 1
    weight_filler {
      type: "xavier"
    }
    bias_filler {
      type: "constant"
      value: 0.2
    }
  }
}
layer {
  name: "inception_3a/relu_5x5_reduce"
  type: "ReLU"
  bottom: "inception_3a/5x5_reduce"
  top: "inception_3a/5x5_reduce"
}
layer {
  name: "inception_3a/5x5"
  type: "Convolution"
  bottom: "inception_3a/5x5_reduce"
  top: "inception_3a/5x5"
  param {
    lr_mult: 1
    decay_mult: 1
  }
  param {
    lr_mult: 2
    decay_mult: 0
  }
  convolution_param {
    num_output: 32
    pad: 2
    kernel_size: 5
    weight_filler {
      type: "xavier"
    }
    bias_filler {
      type: "constant"
      value: 0.2
    }
  }
}
layer {
  name: "inception_3a/relu_5x5"
  type: "ReLU"
  bottom: "inception_3a/5x5"
  top: "inception_3a/5x5"
}
layer {
  name: "inception_3a/pool"
  type: "Pooling"
  bottom: "pool2/3x3_s2"
  top: "inception_3a/pool"
  pooling_param {
    pool: MAX
    kernel_size: 3
    stride: 1
    pad: 1
  }
}
layer {
  name: "inception_3a/pool_proj"
  type: "Convolution"
  bottom: "inception_3a/pool"
  top: "inception_3a/pool_proj"
  param {
    lr_mult: 1
    decay_mult: 1
  }
  param {
    lr_mult: 2
    decay_mult: 0
  }
  convolution_param {
    num_output: 32
    kernel_size: 1
    weight_filler {
      type: "xavier"
    }
    bias_filler {
      type: "constant"
      value: 0.2
    }
  }
}
layer {
  name: "inception_3a/relu_pool_proj"
  type: "ReLU"
  bottom: "inception_3a/pool_proj"
  top: "inception_3a/pool_proj"
}
layer {
  name: "inception_3a/output"
  type: "Concat"
  bottom: "inception_3a/1x1"
  bottom: "inception_3a/3x3"
  bottom: "inception_3a/5x5"
  bottom: "inception_3a/pool_proj"
  top: "inception_3a/output"
}
layer {
  name: "inception_3b/1x1"
  type: "Convolution"
  bottom: "inception_3a/output"
  top: "inception_3b/1x1"
  param {
    lr_mult: 1
    decay_mult: 1
  }
  param {
    lr_mult: 2
    decay_mult: 0
  }
  convolution_param {
    num_output: 128
    kernel_size: 1
    weight_filler {
      type: "xavier"
    }
    bias_filler {
      type: "constant"
      value: 0.2
    }
  }
}
layer {
  name: "inception_3b/relu_1x1"
  type: "ReLU"
  bottom: "inception_3b/1x1"
  top: "inception_3b/1x1"
}
layer {
  name: "inception_3b/3x3_reduce"
  type: "Convolution"
  bottom: "inception_3a/output"
  top: "inception_3b/3x3_reduce"
  param {
    lr_mult: 1
    decay_mult: 1
  }
  param {
    lr_mult: 2
    decay_mult: 0
  }
  convolution_param {
    num_output: 128
    kernel_size: 1
    weight_filler {
      type: "xavier"
    }
    bias_filler {
      type: "constant"
      value: 0.2
    }
  }
}
layer {
  name: "inception_3b/relu_3x3_reduce"
  type: "ReLU"
  bottom: "inception_3b/3x3_reduce"
  top: "inception_3b/3x3_reduce"
}
layer {
  name: "inception_3b/3x3"
  type: "Convolution"
  bottom: "inception_3b/3x3_reduce"
  top: "inception_3b/3x3"
  param {
    lr_mult: 1
    decay_mult: 1
  }
  param {
    lr_mult: 2
    decay_mult: 0
  }
  convolution_param {
    num_output: 192
    pad: 1
    kernel_size: 3
    weight_filler {
      type: "xavier"
    }
    bias_filler {
      type: "constant"
      value: 0.2
    }
  }
}
layer {
  name: "inception_3b/relu_3x3"
  type: "ReLU"
  bottom: "inception_3b/3x3"
  top: "inception_3b/3x3"
}
layer {
  name: "inception_3b/5x5_reduce"
  type: "Convolution"
  bottom: "inception_3a/output"
  top: "inception_3b/5x5_reduce"
  param {
    lr_mult: 1
    decay_mult: 1
  }
  param {
    lr_mult: 2
    decay_mult: 0
  }
  convolution_param {
    num_output: 32
    kernel_size: 1
    weight_filler {
      type: "xavier"
    }
    bias_filler {
      type: "constant"
      value: 0.2
    }
  }
}
layer {
  name: "inception_3b/relu_5x5_reduce"
  type: "ReLU"
  bottom: "inception_3b/5x5_reduce"
  top: "inception_3b/5x5_reduce"
}
layer {
  name: "inception_3b/5x5"
  type: "Convolution"
  bottom: "inception_3b/5x5_reduce"
  top: "inception_3b/5x5"
  param {
    lr_mult: 1
    decay_mult: 1
  }
  param {
    lr_mult: 2
    decay_mult: 0
  }
  convolution_param {
    num_output: 96
    pad: 2
    kernel_size: 5
    weight_filler {
      type: "xavier"
    }
    bias_filler {
      type: "constant"
      value: 0.2
    }
  }
}
layer {
  name: "inception_3b/relu_5x5"
  type: "ReLU"
  bottom: "inception_3b/5x5"
  top: "inception_3b/5x5"
}
layer {
  name: "inception_3b/pool"
  type: "Pooling"
  bottom: "inception_3a/output"
  top: "inception_3b/pool"
  pooling_param {
    pool: MAX
    kernel_size: 3
    stride: 1
    pad: 1
  }
}
layer {
  name: "inception_3b/pool_proj"
  type: "Convolution"
  bottom: "inception_3b/pool"
  top: "inception_3b/pool_proj"
  param {
    lr_mult: 1
    decay_mult: 1
  }
  param {
    lr_mult: 2
    decay_mult: 0
  }
  convolution_param {
    num_output: 64
    kernel_size: 1
    weight_filler {
      type: "xavier"
    }
    bias_filler {
      type: "constant"
      value: 0.2
    }
  }
}
layer {
  name: "inception_3b/relu_pool_proj"
  type: "ReLU"
  bottom: "inception_3b/pool_proj"
  top: "inception_3b/pool_proj"
}
layer {
  name: "inception_3b/output"
  type: "Concat"
  bottom: "inception_3b/1x1"
  bottom: "inception_3b/3x3"
  bottom: "inception_3b/5x5"
  bottom: "inception_3b/pool_proj"
  top: "inception_3b/output"
}
layer {
  name: "pool3/3x3_s2"
  type: "Pooling"
  bottom: "inception_3b/output"
  top: "pool3/3x3_s2"
  pooling_param {
    pool: MAX
    kernel_size: 3
    stride: 2
  }
}
layer {
  name: "inception_4a/1x1"
  type: "Convolution"
  bottom: "pool3/3x3_s2"
  top: "inception_4a/1x1"
  param {
    lr_mult: 1
    decay_mult: 1
  }
  param {
    lr_mult: 2
    decay_mult: 0
  }
  convolution_param {
    num_output: 192
    kernel_size: 1
    weight_filler {
      type: "xavier"
    }
    bias_filler {
      type: "constant"
      value: 0.2
    }
  }
}
layer {
  name: "inception_4a/relu_1x1"
  type: "ReLU"
  bottom: "inception_4a/1x1"
  top: "inception_4a/1x1"
}
layer {
  name: "inception_4a/3x3_reduce"
  type: "Convolution"
  bottom: "pool3/3x3_s2"
  top: "inception_4a/3x3_reduce"
  param {
    lr_mult: 1
    decay_mult: 1
  }
  param {
    lr_mult: 2
    decay_mult: 0
  }
  convolution_param {
    num_output: 96
    kernel_size: 1
    weight_filler {
      type: "xavier"
    }
    bias_filler {
      type: "constant"
      value: 0.2
    }
  }
}
layer {
  name: "inception_4a/relu_3x3_reduce"
  type: "ReLU"
  bottom: "inception_4a/3x3_reduce"
  top: "inception_4a/3x3_reduce"
}
layer {
  name: "inception_4a/3x3"
  type: "Convolution"
  bottom: "inception_4a/3x3_reduce"
  top: "inception_4a/3x3"
  param {
    lr_mult: 1
    decay_mult: 1
  }
  param {
    lr_mult: 2
    decay_mult: 0
  }
  convolution_param {
    num_output: 208
    pad: 1
    kernel_size: 3
    weight_filler {
      type: "xavier"
    }
    bias_filler {
      type: "constant"
      value: 0.2
    }
  }
}
layer {
  name: "inception_4a/relu_3x3"
  type: "ReLU"
  bottom: "inception_4a/3x3"
  top: "inception_4a/3x3"
}
layer {
  name: "inception_4a/5x5_reduce"
  type: "Convolution"
  bottom: "pool3/3x3_s2"
  top: "inception_4a/5x5_reduce"
  param {
    lr_mult: 1
    decay_mult: 1
  }
  param {
    lr_mult: 2
    decay_mult: 0
  }
  convolution_param {
    num_output: 16
    kernel_size: 1
    weight_filler {
      type: "xavier"
    }
    bias_filler {
      type: "constant"
      value: 0.2
    }
  }
}
layer {
  name: "inception_4a/relu_5x5_reduce"
  type: "ReLU"
  bottom: "inception_4a/5x5_reduce"
  top: "inception_4a/5x5_reduce"
}
layer {
  name: "inception_4a/5x5"
  type: "Convolution"
  bottom: "inception_4a/5x5_reduce"
  top: "inception_4a/5x5"
  param {
    lr_mult: 1
    decay_mult: 1
  }
  param {
    lr_mult: 2
    decay_mult: 0
  }
  convolution_param {
    num_output: 48
    pad: 2
    kernel_size: 5
    weight_filler {
      type: "xavier"
    }
    bias_filler {
      type: "constant"
      value: 0.2
    }
  }
}
layer {
  name: "inception_4a/relu_5x5"
  type: "ReLU"
  bottom: "inception_4a/5x5"
  top: "inception_4a/5x5"
}
layer {
  name: "inception_4a/pool"
  type: "Pooling"
  bottom: "pool3/3x3_s2"
  top: "inception_4a/pool"
  pooling_param {
    pool: MAX
    kernel_size: 3
    stride: 1
    pad: 1
  }
}
layer {
  name: "inception_4a/pool_proj"
  type: "Convolution"
  bottom: "inception_4a/pool"
  top: "inception_4a/pool_proj"
  param {
    lr_mult: 1
    decay_mult: 1
  }
  param {
    lr_mult: 2
    decay_mult: 0
  }
  convolution_param {
    num_output: 64
    kernel_size: 1
    weight_filler {
      type: "xavier"
    }
    bias_filler {
      type: "constant"
      value: 0.2
    }
  }
}
layer {
  name: "inception_4a/relu_pool_proj"
  type: "ReLU"
  bottom: "inception_4a/pool_proj"
  top: "inception_4a/pool_proj"
}
layer {
  name: "inception_4a/output"
  type: "Concat"
  bottom: "inception_4a/1x1"
  bottom: "inception_4a/3x3"
  bottom: "inception_4a/5x5"
  bottom: "inception_4a/pool_proj"
  top: "inception_4a/output"
}
layer {
  name: "loss1/ave_pool"
  type: "Pooling"
  bottom: "inception_4a/output"
  top: "loss1/ave_pool"
  pooling_param {
    pool: AVE
    kernel_size: 5
    stride: 3
  }
}
layer {
  name: "loss1/conv"
  type: "Convolution"
  bottom: "loss1/ave_pool"
  top: "loss1/conv"
  param {
    lr_mult: 1
    decay_mult: 1
  }
  param {
    lr_mult: 2
    decay_mult: 0
  }
  convolution_param {
    num_output: 128
    kernel_size: 1
    weight_filler {
      type: "xavier"
    }
    bias_filler {
      type: "constant"
      value: 0.2
    }
  }
}
layer {
  name: "loss1/relu_conv"
  type: "ReLU"
  bottom: "loss1/conv"
  top: "loss1/conv"
}
layer {
  name: "loss1/fc"
  type: "InnerProduct"
  bottom: "loss1/conv"
  top: "loss1/fc"
  param {
    lr_mult: 1
    decay_mult: 1
  }
  param {
    lr_mult: 2
    decay_mult: 0
  }
  inner_product_param {
    num_output: 1024
    weight_filler {
      type: "xavier"
    }
    bias_filler {
      type: "constant"
      value: 0.2
    }
  }
}
layer {
  name: "loss1/relu_fc"
  type: "ReLU"
  bottom: "loss1/fc"
  top: "loss1/fc"
}
layer {
  name: "loss1/drop_fc"
  type: "Dropout"
  bottom: "loss1/fc"
  top: "loss1/fc"
  dropout_param {
    dropout_ratio: 0.7
  }
}
layer {
  name: "loss1/classifier"
  type: "InnerProduct"
  bottom: "loss1/fc"
  top: "loss1/classifier"
  param {
    lr_mult: 1
    decay_mult: 1
  }
  param {
    lr_mult: 2
    decay_mult: 0
  }
  inner_product_param {
    num_output: 2
    weight_filler {
      type: "xavier"
    }
    bias_filler {
      type: "constant"
      value: 0
    }
  }
}
layer {
  name: "loss1/loss"
  type: "SoftmaxWithLoss"
  bottom: "loss1/classifier"
  bottom: "label"
  top: "loss1/loss1"
  loss_weight: 0.3
}
layer {
  name: "inception_4b/1x1"
  type: "Convolution"
  bottom: "inception_4a/output"
  top: "inception_4b/1x1"
  param {
    lr_mult: 1
    decay_mult: 1
  }
  param {
    lr_mult: 2
    decay_mult: 0
  }
  convolution_param {
    num_output: 160
    kernel_size: 1
    weight_filler {
      type: "xavier"
    }
    bias_filler {
      type: "constant"
      value: 0.2
    }
  }
}
layer {
  name: "inception_4b/relu_1x1"
  type: "ReLU"
  bottom: "inception_4b/1x1"
  top: "inception_4b/1x1"
}
layer {
  name: "inception_4b/3x3_reduce"
  type: "Convolution"
  bottom: "inception_4a/output"
  top: "inception_4b/3x3_reduce"
  param {
    lr_mult: 1
    decay_mult: 1
  }
  param {
    lr_mult: 2
    decay_mult: 0
  }
  convolution_param {
    num_output: 112
    kernel_size: 1
    weight_filler {
      type: "xavier"
    }
    bias_filler {
      type: "constant"
      value: 0.2
    }
  }
}
layer {
  name: "inception_4b/relu_3x3_reduce"
  type: "ReLU"
  bottom: "inception_4b/3x3_reduce"
  top: "inception_4b/3x3_reduce"
}
layer {
  name: "inception_4b/3x3"
  type: "Convolution"
  bottom: "inception_4b/3x3_reduce"
  top: "inception_4b/3x3"
  param {
    lr_mult: 1
    decay_mult: 1
  }
  param {
    lr_mult: 2
    decay_mult: 0
  }
  convolution_param {
    num_output: 224
    pad: 1
    kernel_size: 3
    weight_filler {
      type: "xavier"
    }
    bias_filler {
      type: "constant"
      value: 0.2
    }
  }
}
layer {
  name: "inception_4b/relu_3x3"
  type: "ReLU"
  bottom: "inception_4b/3x3"
  top: "inception_4b/3x3"
}
layer {
  name: "inception_4b/5x5_reduce"
  type: "Convolution"
  bottom: "inception_4a/output"
  top: "inception_4b/5x5_reduce"
  param {
    lr_mult: 1
    decay_mult: 1
  }
  param {
    lr_mult: 2
    decay_mult: 0
  }
  convolution_param {
    num_output: 24
    kernel_size: 1
    weight_filler {
      type: "xavier"
    }
    bias_filler {
      type: "constant"
      value: 0.2
    }
  }
}
layer {
  name: "inception_4b/relu_5x5_reduce"
  type: "ReLU"
  bottom: "inception_4b/5x5_reduce"
  top: "inception_4b/5x5_reduce"
}
layer {
  name: "inception_4b/5x5"
  type: "Convolution"
  bottom: "inception_4b/5x5_reduce"
  top: "inception_4b/5x5"
  param {
    lr_mult: 1
    decay_mult: 1
  }
  param {
    lr_mult: 2
    decay_mult: 0
  }
  convolution_param {
    num_output: 64
    pad: 2
    kernel_size: 5
    weight_filler {
      type: "xavier"
    }
    bias_filler {
      type: "constant"
      value: 0.2
    }
  }
}
layer {
  name: "inception_4b/relu_5x5"
  type: "ReLU"
  bottom: "inception_4b/5x5"
  top: "inception_4b/5x5"
}
layer {
  name: "inception_4b/pool"
  type: "Pooling"
  bottom: "inception_4a/output"
  top: "inception_4b/pool"
  pooling_param {
    pool: MAX
    kernel_size: 3
    stride: 1
    pad: 1
  }
}
layer {
  name: "inception_4b/pool_proj"
  type: "Convolution"
  bottom: "inception_4b/pool"
  top: "inception_4b/pool_proj"
  param {
    lr_mult: 1
    decay_mult: 1
  }
  param {
    lr_mult: 2
    decay_mult: 0
  }
  convolution_param {
    num_output: 64
    kernel_size: 1
    weight_filler {
      type: "xavier"
    }
    bias_filler {
      type: "constant"
      value: 0.2
    }
  }
}
layer {
  name: "inception_4b/relu_pool_proj"
  type: "ReLU"
  bottom: "inception_4b/pool_proj"
  top: "inception_4b/pool_proj"
}
layer {
  name: "inception_4b/output"
  type: "Concat"
  bottom: "inception_4b/1x1"
  bottom: "inception_4b/3x3"
  bottom: "inception_4b/5x5"
  bottom: "inception_4b/pool_proj"
  top: "inception_4b/output"
}
layer {
  name: "inception_4c/1x1"
  type: "Convolution"
  bottom: "inception_4b/output"
  top: "inception_4c/1x1"
  param {
    lr_mult: 1
    decay_mult: 1
  }
  param {
    lr_mult: 2
    decay_mult: 0
  }
  convolution_param {
    num_output: 128
    kernel_size: 1
    weight_filler {
      type: "xavier"
    }
    bias_filler {
      type: "constant"
      value: 0.2
    }
  }
}
layer {
  name: "inception_4c/relu_1x1"
  type: "ReLU"
  bottom: "inception_4c/1x1"
  top: "inception_4c/1x1"
}
layer {
  name: "inception_4c/3x3_reduce"
  type: "Convolution"
  bottom: "inception_4b/output"
  top: "inception_4c/3x3_reduce"
  param {
    lr_mult: 1
    decay_mult: 1
  }
  param {
    lr_mult: 2
    decay_mult: 0
  }
  convolution_param {
    num_output: 128
    kernel_size: 1
    weight_filler {
      type: "xavier"
    }
    bias_filler {
      type: "constant"
      value: 0.2
    }
  }
}
layer {
  name: "inception_4c/relu_3x3_reduce"
  type: "ReLU"
  bottom: "inception_4c/3x3_reduce"
  top: "inception_4c/3x3_reduce"
}
layer {
  name: "inception_4c/3x3"
  type: "Convolution"
  bottom: "inception_4c/3x3_reduce"
  top: "inception_4c/3x3"
  param {
    lr_mult: 1
    decay_mult: 1
  }
  param {
    lr_mult: 2
    decay_mult: 0
  }
  convolution_param {
    num_output: 256
    pad: 1
    kernel_size: 3
    weight_filler {
      type: "xavier"
    }
    bias_filler {
      type: "constant"
      value: 0.2
    }
  }
}
layer {
  name: "inception_4c/relu_3x3"
  type: "ReLU"
  bottom: "inception_4c/3x3"
  top: "inception_4c/3x3"
}
layer {
  name: "inception_4c/5x5_reduce"
  type: "Convolution"
  bottom: "inception_4b/output"
  top: "inception_4c/5x5_reduce"
  param {
    lr_mult: 1
    decay_mult: 1
  }
  param {
    lr_mult: 2
    decay_mult: 0
  }
  convolution_param {
    num_output: 24
    kernel_size: 1
    weight_filler {
      type: "xavier"
    }
    bias_filler {
      type: "constant"
      value: 0.2
    }
  }
}
layer {
  name: "inception_4c/relu_5x5_reduce"
  type: "ReLU"
  bottom: "inception_4c/5x5_reduce"
  top: "inception_4c/5x5_reduce"
}
layer {
  name: "inception_4c/5x5"
  type: "Convolution"
  bottom: "inception_4c/5x5_reduce"
  top: "inception_4c/5x5"
  param {
    lr_mult: 1
    decay_mult: 1
  }
  param {
    lr_mult: 2
    decay_mult: 0
  }
  convolution_param {
    num_output: 64
    pad: 2
    kernel_size: 5
    weight_filler {
      type: "xavier"
    }
    bias_filler {
      type: "constant"
      value: 0.2
    }
  }
}
layer {
  name: "inception_4c/relu_5x5"
  type: "ReLU"
  bottom: "inception_4c/5x5"
  top: "inception_4c/5x5"
}
layer {
  name: "inception_4c/pool"
  type: "Pooling"
  bottom: "inception_4b/output"
  top: "inception_4c/pool"
  pooling_param {
    pool: MAX
    kernel_size: 3
    stride: 1
    pad: 1
  }
}
layer {
  name: "inception_4c/pool_proj"
  type: "Convolution"
  bottom: "inception_4c/pool"
  top: "inception_4c/pool_proj"
  param {
    lr_mult: 1
    decay_mult: 1
  }
  param {
    lr_mult: 2
    decay_mult: 0
  }
  convolution_param {
    num_output: 64
    kernel_size: 1
    weight_filler {
      type: "xavier"
    }
    bias_filler {
      type: "constant"
      value: 0.2
    }
  }
}
layer {
  name: "inception_4c/relu_pool_proj"
  type: "ReLU"
  bottom: "inception_4c/pool_proj"
  top: "inception_4c/pool_proj"
}
layer {
  name: "inception_4c/output"
  type: "Concat"
  bottom: "inception_4c/1x1"
  bottom: "inception_4c/3x3"
  bottom: "inception_4c/5x5"
  bottom: "inception_4c/pool_proj"
  top: "inception_4c/output"
}
layer {
  name: "inception_4d/1x1"
  type: "Convolution"
  bottom: "inception_4c/output"
  top: "inception_4d/1x1"
  param {
    lr_mult: 1
    decay_mult: 1
  }
  param {
    lr_mult: 2
    decay_mult: 0
  }
  convolution_param {
    num_output: 112
    kernel_size: 1
    weight_filler {
      type: "xavier"
    }
    bias_filler {
      type: "constant"
      value: 0.2
    }
  }
}
layer {
  name: "inception_4d/relu_1x1"
  type: "ReLU"
  bottom: "inception_4d/1x1"
  top: "inception_4d/1x1"
}
layer {
  name: "inception_4d/3x3_reduce"
  type: "Convolution"
  bottom: "inception_4c/output"
  top: "inception_4d/3x3_reduce"
  param {
    lr_mult: 1
    decay_mult: 1
  }
  param {
    lr_mult: 2
    decay_mult: 0
  }
  convolution_param {
    num_output: 144
    kernel_size: 1
    weight_filler {
      type: "xavier"
    }
    bias_filler {
      type: "constant"
      value: 0.2
    }
  }
}
layer {
  name: "inception_4d/relu_3x3_reduce"
  type: "ReLU"
  bottom: "inception_4d/3x3_reduce"
  top: "inception_4d/3x3_reduce"
}
layer {
  name: "inception_4d/3x3"
  type: "Convolution"
  bottom: "inception_4d/3x3_reduce"
  top: "inception_4d/3x3"
  param {
    lr_mult: 1
    decay_mult: 1
  }
  param {
    lr_mult: 2
    decay_mult: 0
  }
  convolution_param {
    num_output: 288
    pad: 1
    kernel_size: 3
    weight_filler {
      type: "xavier"
    }
    bias_filler {
      type: "constant"
      value: 0.2
    }
  }
}
layer {
  name: "inception_4d/relu_3x3"
  type: "ReLU"
  bottom: "inception_4d/3x3"
  top: "inception_4d/3x3"
}
layer {
  name: "inception_4d/5x5_reduce"
  type: "Convolution"
  bottom: "inception_4c/output"
  top: "inception_4d/5x5_reduce"
  param {
    lr_mult: 1
    decay_mult: 1
  }
  param {
    lr_mult: 2
    decay_mult: 0
  }
  convolution_param {
    num_output: 32
    kernel_size: 1
    weight_filler {
      type: "xavier"
    }
    bias_filler {
      type: "constant"
      value: 0.2
    }
  }
}
layer {
  name: "inception_4d/relu_5x5_reduce"
  type: "ReLU"
  bottom: "inception_4d/5x5_reduce"
  top: "inception_4d/5x5_reduce"
}
layer {
  name: "inception_4d/5x5"
  type: "Convolution"
  bottom: "inception_4d/5x5_reduce"
  top: "inception_4d/5x5"
  param {
    lr_mult: 1
    decay_mult: 1
  }
  param {
    lr_mult: 2
    decay_mult: 0
  }
  convolution_param {
    num_output: 64
    pad: 2
    kernel_size: 5
    weight_filler {
      type: "xavier"
    }
    bias_filler {
      type: "constant"
      value: 0.2
    }
  }
}
layer {
  name: "inception_4d/relu_5x5"
  type: "ReLU"
  bottom: "inception_4d/5x5"
  top: "inception_4d/5x5"
}
layer {
  name: "inception_4d/pool"
  type: "Pooling"
  bottom: "inception_4c/output"
  top: "inception_4d/pool"
  pooling_param {
    pool: MAX
    kernel_size: 3
    stride: 1
    pad: 1
  }
}
layer {
  name: "inception_4d/pool_proj"
  type: "Convolution"
  bottom: "inception_4d/pool"
  top: "inception_4d/pool_proj"
  param {
    lr_mult: 1
    decay_mult: 1
  }
  param {
    lr_mult: 2
    decay_mult: 0
  }
  convolution_param {
    num_output: 64
    kernel_size: 1
    weight_filler {
      type: "xavier"
    }
    bias_filler {
      type: "constant"
      value: 0.2
    }
  }
}
layer {
  name: "inception_4d/relu_pool_proj"
  type: "ReLU"
  bottom: "inception_4d/pool_proj"
  top: "inception_4d/pool_proj"
}
layer {
  name: "inception_4d/output"
  type: "Concat"
  bottom: "inception_4d/1x1"
  bottom: "inception_4d/3x3"
  bottom: "inception_4d/5x5"
  bottom: "inception_4d/pool_proj"
  top: "inception_4d/output"
}
layer {
  name: "loss2/ave_pool"
  type: "Pooling"
  bottom: "inception_4d/output"
  top: "loss2/ave_pool"
  pooling_param {
    pool: AVE
    kernel_size: 5
    stride: 3
  }
}
layer {
  name: "loss2/conv"
  type: "Convolution"
  bottom: "loss2/ave_pool"
  top: "loss2/conv"
  param {
    lr_mult: 1
    decay_mult: 1
  }
  param {
    lr_mult: 2
    decay_mult: 0
  }
  convolution_param {
    num_output: 128
    kernel_size: 1
    weight_filler {
      type: "xavier"
    }
    bias_filler {
      type: "constant"
      value: 0.2
    }
  }
}
layer {
  name: "loss2/relu_conv"
  type: "ReLU"
  bottom: "loss2/conv"
  top: "loss2/conv"
}
layer {
  name: "loss2/fc"
  type: "InnerProduct"
  bottom: "loss2/conv"
  top: "loss2/fc"
  param {
    lr_mult: 1
    decay_mult: 1
  }
  param {
    lr_mult: 2
    decay_mult: 0
  }
  inner_product_param {
    num_output: 1024
    weight_filler {
      type: "xavier"
    }
    bias_filler {
      type: "constant"
      value: 0.2
    }
  }
}
layer {
  name: "loss2/relu_fc"
  type: "ReLU"
  bottom: "loss2/fc"
  top: "loss2/fc"
}
layer {
  name: "loss2/drop_fc"
  type: "Dropout"
  bottom: "loss2/fc"
  top: "loss2/fc"
  dropout_param {
    dropout_ratio: 0.7
  }
}
layer {
  name: "loss2/classifier"
  type: "InnerProduct"
  bottom: "loss2/fc"
  top: "loss2/classifier"
  param {
    lr_mult: 1
    decay_mult: 1
  }
  param {
    lr_mult: 2
    decay_mult: 0
  }
  inner_product_param {
    num_output: 2
    weight_filler {
      type: "xavier"
    }
    bias_filler {
      type: "constant"
      value: 0
    }
  }
}
layer {
  name: "loss2/loss"
  type: "SoftmaxWithLoss"
  bottom: "loss2/classifier"
  bottom: "label"
  top: "loss2/loss1"
  loss_weight: 0.3
}
layer {
  name: "inception_4e/1x1"
  type: "Convolution"
  bottom: "inception_4d/output"
  top: "inception_4e/1x1"
  param {
    lr_mult: 1
    decay_mult: 1
  }
  param {
    lr_mult: 2
    decay_mult: 0
  }
  convolution_param {
    num_output: 256
    kernel_size: 1
    weight_filler {
      type: "xavier"
    }
    bias_filler {
      type: "constant"
      value: 0.2
    }
  }
}
layer {
  name: "inception_4e/relu_1x1"
  type: "ReLU"
  bottom: "inception_4e/1x1"
  top: "inception_4e/1x1"
}
layer {
  name: "inception_4e/3x3_reduce"
  type: "Convolution"
  bottom: "inception_4d/output"
  top: "inception_4e/3x3_reduce"
  param {
    lr_mult: 1
    decay_mult: 1
  }
  param {
    lr_mult: 2
    decay_mult: 0
  }
  convolution_param {
    num_output: 160
    kernel_size: 1
    weight_filler {
      type: "xavier"
    }
    bias_filler {
      type: "constant"
      value: 0.2
    }
  }
}
layer {
  name: "inception_4e/relu_3x3_reduce"
  type: "ReLU"
  bottom: "inception_4e/3x3_reduce"
  top: "inception_4e/3x3_reduce"
}
layer {
  name: "inception_4e/3x3"
  type: "Convolution"
  bottom: "inception_4e/3x3_reduce"
  top: "inception_4e/3x3"
  param {
    lr_mult: 1
    decay_mult: 1
  }
  param {
    lr_mult: 2
    decay_mult: 0
  }
  convolution_param {
    num_output: 320
    pad: 1
    kernel_size: 3
    weight_filler {
      type: "xavier"
    }
    bias_filler {
      type: "constant"
      value: 0.2
    }
  }
}
layer {
  name: "inception_4e/relu_3x3"
  type: "ReLU"
  bottom: "inception_4e/3x3"
  top: "inception_4e/3x3"
}
layer {
  name: "inception_4e/5x5_reduce"
  type: "Convolution"
  bottom: "inception_4d/output"
  top: "inception_4e/5x5_reduce"
  param {
    lr_mult: 1
    decay_mult: 1
  }
  param {
    lr_mult: 2
    decay_mult: 0
  }
  convolution_param {
    num_output: 32
    kernel_size: 1
    weight_filler {
      type: "xavier"
    }
    bias_filler {
      type: "constant"
      value: 0.2
    }
  }
}
layer {
  name: "inception_4e/relu_5x5_reduce"
  type: "ReLU"
  bottom: "inception_4e/5x5_reduce"
  top: "inception_4e/5x5_reduce"
}
layer {
  name: "inception_4e/5x5"
  type: "Convolution"
  bottom: "inception_4e/5x5_reduce"
  top: "inception_4e/5x5"
  param {
    lr_mult: 1
    decay_mult: 1
  }
  param {
    lr_mult: 2
    decay_mult: 0
  }
  convolution_param {
    num_output: 128
    pad: 2
    kernel_size: 5
    weight_filler {
      type: "xavier"
    }
    bias_filler {
      type: "constant"
      value: 0.2
    }
  }
}
layer {
  name: "inception_4e/relu_5x5"
  type: "ReLU"
  bottom: "inception_4e/5x5"
  top: "inception_4e/5x5"
}
layer {
  name:
I0714 15:37:04.091343 60340 layer_factory.hpp:76] Creating layer data
I0714 15:37:04.091398 60340 net.cpp:110] Creating Layer data
I0714 15:37:04.091413 60340 net.cpp:433] data -> data
I0714 15:37:04.091451 60340 net.cpp:433] data -> label
I0714 15:37:04.091907 60340 image_data_layer.cpp:36] Opening file ../../step01_generate_traing_data/list_stage1_tr.lst
I0714 15:37:04.109971 60340 image_data_layer.cpp:46] Shuffling data
I0714 15:37:04.113149 60340 image_data_layer.cpp:51] A total of 43224 images.
I0714 15:37:04.127709 60340 image_data_layer.cpp:78] output data size: 32,3,224,224
I0714 15:37:04.181390 60340 net.cpp:155] Setting up data
I0714 15:37:04.181524 60340 net.cpp:163] Top shape: 32 3 224 224 (4816896)
I0714 15:37:04.181622 60340 net.cpp:163] Top shape: 32 (32)
I0714 15:37:04.181661 60340 layer_factory.hpp:76] Creating layer label_data_1_split
I0714 15:37:04.181710 60340 net.cpp:110] Creating Layer label_data_1_split
I0714 15:37:04.181731 60340 net.cpp:477] label_data_1_split <- label
I0714 15:37:04.181778 60340 net.cpp:433] label_data_1_split -> label_data_1_split_0
I0714 15:37:04.181812 60340 net.cpp:433] label_data_1_split -> label_data_1_split_1
I0714 15:37:04.181834 60340 net.cpp:433] label_data_1_split -> label_data_1_split_2
I0714 15:37:04.181866 60340 net.cpp:155] Setting up label_data_1_split
I0714 15:37:04.181885 60340 net.cpp:163] Top shape: 32 (32)
I0714 15:37:04.181898 60340 net.cpp:163] Top shape: 32 (32)
I0714 15:37:04.181910 60340 net.cpp:163] Top shape: 32 (32)
I0714 15:37:04.181920 60340 layer_factory.hpp:76] Creating layer conv1/7x7_s2
I0714 15:37:04.181983 60340 net.cpp:110] Creating Layer conv1/7x7_s2
I0714 15:37:04.182000 60340 net.cpp:477] conv1/7x7_s2 <- data
I0714 15:37:04.182025 60340 net.cpp:433] conv1/7x7_s2 -> conv1/7x7_s2
I0714 15:37:04.470209 60340 net.cpp:155] Setting up conv1/7x7_s2
I0714 15:37:04.470367 60340 net.cpp:163] Top shape: 32 64 112 112 (25690112)
I0714 15:37:04.470480 60340 layer_factory.hpp:76] Creating layer conv1/relu_7x7
I0714 15:37:04.470548 60340 net.cpp:110] Creating Layer conv1/relu_7x7
I0714 15:37:04.470578 60340 net.cpp:477] conv1/relu_7x7 <- conv1/7x7_s2
I0714 15:37:04.470639 60340 net.cpp:419] conv1/relu_7x7 -> conv1/7x7_s2 (in-place)
I0714 15:37:04.471063 60340 net.cpp:155] Setting up conv1/relu_7x7
I0714 15:37:04.471101 60340 net.cpp:163] Top shape: 32 64 112 112 (25690112)
I0714 15:37:04.471120 60340 layer_factory.hpp:76] Creating layer pool1/3x3_s2
I0714 15:37:04.471170 60340 net.cpp:110] Creating Layer pool1/3x3_s2
I0714 15:37:04.471247 60340 net.cpp:477] pool1/3x3_s2 <- conv1/7x7_s2
I0714 15:37:04.471276 60340 net.cpp:433] pool1/3x3_s2 -> pool1/3x3_s2
I0714 15:37:04.471897 60340 net.cpp:155] Setting up pool1/3x3_s2
I0714 15:37:04.471951 60340 net.cpp:163] Top shape: 32 64 56 56 (6422528)
I0714 15:37:04.471992 60340 layer_factory.hpp:76] Creating layer pool1/norm1
I0714 15:37:04.472028 60340 net.cpp:110] Creating Layer pool1/norm1
I0714 15:37:04.472056 60340 net.cpp:477] pool1/norm1 <- pool1/3x3_s2
I0714 15:37:04.472074 60340 net.cpp:433] pool1/norm1 -> pool1/norm1
I0714 15:37:04.472108 60340 net.cpp:155] Setting up pool1/norm1
I0714 15:37:04.472124 60340 net.cpp:163] Top shape: 32 64 56 56 (6422528)
I0714 15:37:04.472138 60340 layer_factory.hpp:76] Creating layer conv2/3x3_reduce
I0714 15:37:04.472170 60340 net.cpp:110] Creating Layer conv2/3x3_reduce
I0714 15:37:04.472184 60340 net.cpp:477] conv2/3x3_reduce <- pool1/norm1
I0714 15:37:04.472209 60340 net.cpp:433] conv2/3x3_reduce -> conv2/3x3_reduce
I0714 15:37:04.475733 60340 net.cpp:155] Setting up conv2/3x3_reduce
I0714 15:37:04.475790 60340 net.cpp:163] Top shape: 32 64 56 56 (6422528)
I0714 15:37:04.475828 60340 layer_factory.hpp:76] Creating layer conv2/relu_3x3_reduce
I0714 15:37:04.475872 60340 net.cpp:110] Creating Layer conv2/relu_3x3_reduce
I0714 15:37:04.475896 60340 net.cpp:477] conv2/relu_3x3_reduce <- conv2/3x3_reduce
I0714 15:37:04.475929 60340 net.cpp:419] conv2/relu_3x3_reduce -> conv2/3x3_reduce (in-place)
I0714 15:37:04.476259 60340 net.cpp:155] Setting up conv2/relu_3x3_reduce
I0714 15:37:04.476289 60340 net.cpp:163] Top shape: 32 64 56 56 (6422528)
I0714 15:37:04.476302 60340 layer_factory.hpp:76] Creating layer conv2/3x3
I0714 15:37:04.476339 60340 net.cpp:110] Creating Layer conv2/3x3
I0714 15:37:04.476357 60340 net.cpp:477] conv2/3x3 <- conv2/3x3_reduce
I0714 15:37:04.476385 60340 net.cpp:433] conv2/3x3 -> conv2/3x3
I0714 15:37:04.481935 60340 net.cpp:155] Setting up conv2/3x3
I0714 15:37:04.482003 60340 net.cpp:163] Top shape: 32 192 56 56 (19267584)
I0714 15:37:04.482059 60340 layer_factory.hpp:76] Creating layer conv2/relu_3x3
I0714 15:37:04.482087 60340 net.cpp:110] Creating Layer conv2/relu_3x3
I0714 15:37:04.482113 60340 net.cpp:477] conv2/relu_3x3 <- conv2/3x3
I0714 15:37:04.482143 60340 net.cpp:419] conv2/relu_3x3 -> conv2/3x3 (in-place)
I0714 15:37:04.482837 60340 net.cpp:155] Setting up conv2/relu_3x3
I0714 15:37:04.482882 60340 net.cpp:163] Top shape: 32 192 56 56 (19267584)
I0714 15:37:04.482898 60340 layer_factory.hpp:76] Creating layer conv2/norm2
I0714 15:37:04.482925 60340 net.cpp:110] Creating Layer conv2/norm2
I0714 15:37:04.482964 60340 net.cpp:477] conv2/norm2 <- conv2/3x3
I0714 15:37:04.482996 60340 net.cpp:433] conv2/norm2 -> conv2/norm2
I0714 15:37:04.483031 60340 net.cpp:155] Setting up conv2/norm2
I0714 15:37:04.483054 60340 net.cpp:163] Top shape: 32 192 56 56 (19267584)
I0714 15:37:04.483075 60340 layer_factory.hpp:76] Creating layer pool2/3x3_s2
I0714 15:37:04.483120 60340 net.cpp:110] Creating Layer pool2/3x3_s2
I0714 15:37:04.483139 60340 net.cpp:477] pool2/3x3_s2 <- conv2/norm2
I0714 15:37:04.483173 60340 net.cpp:433] pool2/3x3_s2 -> pool2/3x3_s2
I0714 15:37:04.483543 60340 net.cpp:155] Setting up pool2/3x3_s2
I0714 15:37:04.483574 60340 net.cpp:163] Top shape: 32 192 28 28 (4816896)
I0714 15:37:04.483657 60340 layer_factory.hpp:76] Creating layer pool2/3x3_s2_pool2/3x3_s2_0_split
I0714 15:37:04.483696 60340 net.cpp:110] Creating Layer pool2/3x3_s2_pool2/3x3_s2_0_split
I0714 15:37:04.483726 60340 net.cpp:477] pool2/3x3_s2_pool2/3x3_s2_0_split <- pool2/3x3_s2
I0714 15:37:04.483762 60340 net.cpp:433] pool2/3x3_s2_pool2/3x3_s2_0_split -> pool2/3x3_s2_pool2/3x3_s2_0_split_0
I0714 15:37:04.483788 60340 net.cpp:433] pool2/3x3_s2_pool2/3x3_s2_0_split -> pool2/3x3_s2_pool2/3x3_s2_0_split_1
I0714 15:37:04.483815 60340 net.cpp:433] pool2/3x3_s2_pool2/3x3_s2_0_split -> pool2/3x3_s2_pool2/3x3_s2_0_split_2
I0714 15:37:04.483844 60340 net.cpp:433] pool2/3x3_s2_pool2/3x3_s2_0_split -> pool2/3x3_s2_pool2/3x3_s2_0_split_3
I0714 15:37:04.483880 60340 net.cpp:155] Setting up pool2/3x3_s2_pool2/3x3_s2_0_split
I0714 15:37:04.483907 60340 net.cpp:163] Top shape: 32 192 28 28 (4816896)
I0714 15:37:04.483943 60340 net.cpp:163] Top shape: 32 192 28 28 (4816896)
I0714 15:37:04.483981 60340 net.cpp:163] Top shape: 32 192 28 28 (4816896)
I0714 15:37:04.484021 60340 net.cpp:163] Top shape: 32 192 28 28 (4816896)
I0714 15:37:04.484047 60340 layer_factory.hpp:76] Creating layer inception_3a/1x1
I0714 15:37:04.484091 60340 net.cpp:110] Creating Layer inception_3a/1x1
I0714 15:37:04.484110 60340 net.cpp:477] inception_3a/1x1 <- pool2/3x3_s2_pool2/3x3_s2_0_split_0
I0714 15:37:04.484151 60340 net.cpp:433] inception_3a/1x1 -> inception_3a/1x1
I0714 15:37:04.488423 60340 net.cpp:155] Setting up inception_3a/1x1
I0714 15:37:04.488515 60340 net.cpp:163] Top shape: 32 64 28 28 (1605632)
I0714 15:37:04.488561 60340 layer_factory.hpp:76] Creating layer inception_3a/relu_1x1
I0714 15:37:04.488607 60340 net.cpp:110] Creating Layer inception_3a/relu_1x1
I0714 15:37:04.488634 60340 net.cpp:477] inception_3a/relu_1x1 <- inception_3a/1x1
I0714 15:37:04.488665 60340 net.cpp:419] inception_3a/relu_1x1 -> inception_3a/1x1 (in-place)
I0714 15:37:04.489063 60340 net.cpp:155] Setting up inception_3a/relu_1x1
I0714 15:37:04.489089 60340 net.cpp:163] Top shape: 32 64 28 28 (1605632)
I0714 15:37:04.489109 60340 layer_factory.hpp:76] Creating layer inception_3a/3x3_reduce
I0714 15:37:04.489152 60340 net.cpp:110] Creating Layer inception_3a/3x3_reduce
I0714 15:37:04.489173 60340 net.cpp:477] inception_3a/3x3_reduce <- pool2/3x3_s2_pool2/3x3_s2_0_split_1
I0714 15:37:04.489210 60340 net.cpp:433] inception_3a/3x3_reduce -> inception_3a/3x3_reduce
I0714 15:37:04.492393 60340 net.cpp:155] Setting up inception_3a/3x3_reduce
I0714 15:37:04.492426 60340 net.cpp:163] Top shape: 32 96 28 28 (2408448)
I0714 15:37:04.492455 60340 layer_factory.hpp:76] Creating layer inception_3a/relu_3x3_reduce
I0714 15:37:04.492487 60340 net.cpp:110] Creating Layer inception_3a/relu_3x3_reduce
I0714 15:37:04.492503 60340 net.cpp:477] inception_3a/relu_3x3_reduce <- inception_3a/3x3_reduce
I0714 15:37:04.492518 60340 net.cpp:419] inception_3a/relu_3x3_reduce -> inception_3a/3x3_reduce (in-place)
I0714 15:37:04.493005 60340 net.cpp:155] Setting up inception_3a/relu_3x3_reduce
I0714 15:37:04.493036 60340 net.cpp:163] Top shape: 32 96 28 28 (2408448)
I0714 15:37:04.493046 60340 layer_factory.hpp:76] Creating layer inception_3a/3x3
I0714 15:37:04.493075 60340 net.cpp:110] Creating Layer inception_3a/3x3
I0714 15:37:04.493089 60340 net.cpp:477] inception_3a/3x3 <- inception_3a/3x3_reduce
I0714 15:37:04.493109 60340 net.cpp:433] inception_3a/3x3 -> inception_3a/3x3
I0714 15:37:04.496227 60340 net.cpp:155] Setting up inception_3a/3x3
I0714 15:37:04.496268 60340 net.cpp:163] Top shape: 32 128 28 28 (3211264)
I0714 15:37:04.496315 60340 layer_factory.hpp:76] Creating layer inception_3a/relu_3x3
I0714 15:37:04.496357 60340 net.cpp:110] Creating Layer inception_3a/relu_3x3
I0714 15:37:04.496378 60340 net.cpp:477] inception_3a/relu_3x3 <- inception_3a/3x3
I0714 15:37:04.496434 60340 net.cpp:419] inception_3a/relu_3x3 -> inception_3a/3x3 (in-place)
I0714 15:37:04.496853 60340 net.cpp:155] Setting up inception_3a/relu_3x3
I0714 15:37:04.496886 60340 net.cpp:163] Top shape: 32 128 28 28 (3211264)
I0714 15:37:04.496943 60340 layer_factory.hpp:76] Creating layer inception_3a/5x5_reduce
I0714 15:37:04.496999 60340 net.cpp:110] Creating Layer inception_3a/5x5_reduce
I0714 15:37:04.497035 60340 net.cpp:477] inception_3a/5x5_reduce <- pool2/3x3_s2_pool2/3x3_s2_0_split_2
I0714 15:37:04.497092 60340 net.cpp:433] inception_3a/5x5_reduce -> inception_3a/5x5_reduce
I0714 15:37:04.499115 60340 net.cpp:155] Setting up inception_3a/5x5_reduce
I0714 15:37:04.499168 60340 net.cpp:163] Top shape: 32 16 28 28 (401408)
I0714 15:37:04.499197 60340 layer_factory.hpp:76] Creating layer inception_3a/relu_5x5_reduce
I0714 15:37:04.499222 60340 net.cpp:110] Creating Layer inception_3a/relu_5x5_reduce
I0714 15:37:04.499238 60340 net.cpp:477] inception_3a/relu_5x5_reduce <- inception_3a/5x5_reduce
I0714 15:37:04.499255 60340 net.cpp:419] inception_3a/relu_5x5_reduce -> inception_3a/5x5_reduce (in-place)
I0714 15:37:04.499671 60340 net.cpp:155] Setting up inception_3a/relu_5x5_reduce
I0714 15:37:04.499703 60340 net.cpp:163] Top shape: 32 16 28 28 (401408)
I0714 15:37:04.499723 60340 layer_factory.hpp:76] Creating layer inception_3a/5x5
I0714 15:37:04.499753 60340 net.cpp:110] Creating Layer inception_3a/5x5
I0714 15:37:04.499770 60340 net.cpp:477] inception_3a/5x5 <- inception_3a/5x5_reduce
I0714 15:37:04.499799 60340 net.cpp:433] inception_3a/5x5 -> inception_3a/5x5
I0714 15:37:04.501791 60340 net.cpp:155] Setting up inception_3a/5x5
I0714 15:37:04.501832 60340 net.cpp:163] Top shape: 32 32 28 28 (802816)
I0714 15:37:04.501863 60340 layer_factory.hpp:76] Creating layer inception_3a/relu_5x5
I0714 15:37:04.501884 60340 net.cpp:110] Creating Layer inception_3a/relu_5x5
I0714 15:37:04.501896 60340 net.cpp:477] inception_3a/relu_5x5 <- inception_3a/5x5
I0714 15:37:04.501924 60340 net.cpp:419] inception_3a/relu_5x5 -> inception_3a/5x5 (in-place)
I0714 15:37:04.502476 60340 net.cpp:155] Setting up inception_3a/relu_5x5
I0714 15:37:04.502511 60340 net.cpp:163] Top shape: 32 32 28 28 (802816)
I0714 15:37:04.502522 60340 layer_factory.hpp:76] Creating layer inception_3a/pool
I0714 15:37:04.502540 60340 layer_factory.cpp:60] CUDNN does not support padding or multiple tops. Using Caffe's own pooling layer.
I0714 15:37:04.502559 60340 net.cpp:110] Creating Layer inception_3a/pool
I0714 15:37:04.502578 60340 net.cpp:477] inception_3a/pool <- pool2/3x3_s2_pool2/3x3_s2_0_split_3
I0714 15:37:04.502595 60340 net.cpp:433] inception_3a/pool -> inception_3a/pool
I0714 15:37:04.502622 60340 net.cpp:155] Setting up inception_3a/pool
I0714 15:37:04.502665 60340 net.cpp:163] Top shape: 32 192 28 28 (4816896)
I0714 15:37:04.502684 60340 layer_factory.hpp:76] Creating layer inception_3a/pool_proj
I0714 15:37:04.502712 60340 net.cpp:110] Creating Layer inception_3a/pool_proj
I0714 15:37:04.502733 60340 net.cpp:477] inception_3a/pool_proj <- inception_3a/pool
I0714 15:37:04.502797 60340 net.cpp:433] inception_3a/pool_proj -> inception_3a/pool_proj
I0714 15:37:04.504297 60340 net.cpp:155] Setting up inception_3a/pool_proj
I0714 15:37:04.504336 60340 net.cpp:163] Top shape: 32 32 28 28 (802816)
I0714 15:37:04.504377 60340 layer_factory.hpp:76] Creating layer inception_3a/relu_pool_proj
I0714 15:37:04.504402 60340 net.cpp:110] Creating Layer inception_3a/relu_pool_proj
I0714 15:37:04.504425 60340 net.cpp:477] inception_3a/relu_pool_proj <- inception_3a/pool_proj
I0714 15:37:04.504439 60340 net.cpp:419] inception_3a/relu_pool_proj -> inception_3a/pool_proj (in-place)
I0714 15:37:04.504811 60340 net.cpp:155] Setting up inception_3a/relu_pool_proj
I0714 15:37:04.504830 60340 net.cpp:163] Top shape: 32 32 28 28 (802816)
I0714 15:37:04.504843 60340 layer_factory.hpp:76] Creating layer inception_3a/output
I0714 15:37:04.504868 60340 net.cpp:110] Creating Layer inception_3a/output
I0714 15:37:04.504883 60340 net.cpp:477] inception_3a/output <- inception_3a/1x1
I0714 15:37:04.504899 60340 net.cpp:477] inception_3a/output <- inception_3a/3x3
I0714 15:37:04.504911 60340 net.cpp:477] inception_3a/output <- inception_3a/5x5
I0714 15:37:04.504928 60340 net.cpp:477] inception_3a/output <- inception_3a/pool_proj
I0714 15:37:04.504998 60340 net.cpp:433] inception_3a/output -> inception_3a/output
I0714 15:37:04.505030 60340 net.cpp:155] Setting up inception_3a/output
I0714 15:37:04.505080 60340 net.cpp:163] Top shape: 32 256 28 28 (6422528)
I0714 15:37:04.505095 60340 layer_factory.hpp:76] Creating layer inception_3a/output_inception_3a/output_0_split
I0714 15:37:04.505118 60340 net.cpp:110] Creating Layer inception_3a/output_inception_3a/output_0_split
I0714 15:37:04.505138 60340 net.cpp:477] inception_3a/output_inception_3a/output_0_split <- inception_3a/output
I0714 15:37:04.505161 60340 net.cpp:433] inception_3a/output_inception_3a/output_0_split -> inception_3a/output_inception_3a/output_0_split_0
I0714 15:37:04.505208 60340 net.cpp:433] inception_3a/output_inception_3a/output_0_split -> inception_3a/output_inception_3a/output_0_split_1
I0714 15:37:04.505228 60340 net.cpp:433] inception_3a/output_inception_3a/output_0_split -> inception_3a/output_inception_3a/output_0_split_2
I0714 15:37:04.505246 60340 net.cpp:433] inception_3a/output_inception_3a/output_0_split -> inception_3a/output_inception_3a/output_0_split_3
I0714 15:37:04.505280 60340 net.cpp:155] Setting up inception_3a/output_inception_3a/output_0_split
I0714 15:37:04.505309 60340 net.cpp:163] Top shape: 32 256 28 28 (6422528)
I0714 15:37:04.505326 60340 net.cpp:163] Top shape: 32 256 28 28 (6422528)
I0714 15:37:04.505345 60340 net.cpp:163] Top shape: 32 256 28 28 (6422528)
I0714 15:37:04.505362 60340 net.cpp:163] Top shape: 32 256 28 28 (6422528)
I0714 15:37:04.505378 60340 layer_factory.hpp:76] Creating layer inception_3b/1x1
I0714 15:37:04.505409 60340 net.cpp:110] Creating Layer inception_3b/1x1
I0714 15:37:04.505451 60340 net.cpp:477] inception_3b/1x1 <- inception_3a/output_inception_3a/output_0_split_0
I0714 15:37:04.505480 60340 net.cpp:433] inception_3b/1x1 -> inception_3b/1x1
I0714 15:37:04.507596 60340 net.cpp:155] Setting up inception_3b/1x1
I0714 15:37:04.507640 60340 net.cpp:163] Top shape: 32 128 28 28 (3211264)
I0714 15:37:04.507683 60340 layer_factory.hpp:76] Creating layer inception_3b/relu_1x1
I0714 15:37:04.507730 60340 net.cpp:110] Creating Layer inception_3b/relu_1x1
I0714 15:37:04.507769 60340 net.cpp:477] inception_3b/relu_1x1 <- inception_3b/1x1
I0714 15:37:04.507835 60340 net.cpp:419] inception_3b/relu_1x1 -> inception_3b/1x1 (in-place)
I0714 15:37:04.508360 60340 net.cpp:155] Setting up inception_3b/relu_1x1
I0714 15:37:04.508399 60340 net.cpp:163] Top shape: 32 128 28 28 (3211264)
I0714 15:37:04.508425 60340 layer_factory.hpp:76] Creating layer inception_3b/3x3_reduce
I0714 15:37:04.508460 60340 net.cpp:110] Creating Layer inception_3b/3x3_reduce
I0714 15:37:04.508481 60340 net.cpp:477] inception_3b/3x3_reduce <- inception_3a/output_inception_3a/output_0_split_1
I0714 15:37:04.508514 60340 net.cpp:433] inception_3b/3x3_reduce -> inception_3b/3x3_reduce
I0714 15:37:04.511232 60340 net.cpp:155] Setting up inception_3b/3x3_reduce
I0714 15:37:04.511284 60340 net.cpp:163] Top shape: 32 128 28 28 (3211264)
I0714 15:37:04.511322 60340 layer_factory.hpp:76] Creating layer inception_3b/relu_3x3_reduce
I0714 15:37:04.511366 60340 net.cpp:110] Creating Layer inception_3b/relu_3x3_reduce
I0714 15:37:04.511389 60340 net.cpp:477] inception_3b/relu_3x3_reduce <- inception_3b/3x3_reduce
I0714 15:37:04.511414 60340 net.cpp:419] inception_3b/relu_3x3_reduce -> inception_3b/3x3_reduce (in-place)
I0714 15:37:04.511896 60340 net.cpp:155] Setting up inception_3b/relu_3x3_reduce
I0714 15:37:04.511932 60340 net.cpp:163] Top shape: 32 128 28 28 (3211264)
I0714 15:37:04.511952 60340 layer_factory.hpp:76] Creating layer inception_3b/3x3
I0714 15:37:04.511996 60340 net.cpp:110] Creating Layer inception_3b/3x3
I0714 15:37:04.512015 60340 net.cpp:477] inception_3b/3x3 <- inception_3b/3x3_reduce
I0714 15:37:04.512044 60340 net.cpp:433] inception_3b/3x3 -> inception_3b/3x3
I0714 15:37:04.518304 60340 net.cpp:155] Setting up inception_3b/3x3
I0714 15:37:04.518365 60340 net.cpp:163] Top shape: 32 192 28 28 (4816896)
I0714 15:37:04.518389 60340 layer_factory.hpp:76] Creating layer inception_3b/relu_3x3
I0714 15:37:04.518445 60340 net.cpp:110] Creating Layer inception_3b/relu_3x3
I0714 15:37:04.518465 60340 net.cpp:477] inception_3b/relu_3x3 <- inception_3b/3x3
I0714 15:37:04.518496 60340 net.cpp:419] inception_3b/relu_3x3 -> inception_3b/3x3 (in-place)
I0714 15:37:04.518718 60340 net.cpp:155] Setting up inception_3b/relu_3x3
I0714 15:37:04.518754 60340 net.cpp:163] Top shape: 32 192 28 28 (4816896)
I0714 15:37:04.518772 60340 layer_factory.hpp:76] Creating layer inception_3b/5x5_reduce
I0714 15:37:04.518798 60340 net.cpp:110] Creating Layer inception_3b/5x5_reduce
I0714 15:37:04.518810 60340 net.cpp:477] inception_3b/5x5_reduce <- inception_3a/output_inception_3a/output_0_split_2
I0714 15:37:04.518826 60340 net.cpp:433] inception_3b/5x5_reduce -> inception_3b/5x5_reduce
I0714 15:37:04.520285 60340 net.cpp:155] Setting up inception_3b/5x5_reduce
I0714 15:37:04.520308 60340 net.cpp:163] Top shape: 32 32 28 28 (802816)
I0714 15:37:04.520324 60340 layer_factory.hpp:76] Creating layer inception_3b/relu_5x5_reduce
I0714 15:37:04.520341 60340 net.cpp:110] Creating Layer inception_3b/relu_5x5_reduce
I0714 15:37:04.520350 60340 net.cpp:477] inception_3b/relu_5x5_reduce <- inception_3b/5x5_reduce
I0714 15:37:04.520370 60340 net.cpp:419] inception_3b/relu_5x5_reduce -> inception_3b/5x5_reduce (in-place)
I0714 15:37:04.520653 60340 net.cpp:155] Setting up inception_3b/relu_5x5_reduce
I0714 15:37:04.520671 60340 net.cpp:163] Top shape: 32 32 28 28 (802816)
I0714 15:37:04.520683 60340 layer_factory.hpp:76] Creating layer inception_3b/5x5
I0714 15:37:04.520711 60340 net.cpp:110] Creating Layer inception_3b/5x5
I0714 15:37:04.520725 60340 net.cpp:477] inception_3b/5x5 <- inception_3b/5x5_reduce
I0714 15:37:04.520746 60340 net.cpp:433] inception_3b/5x5 -> inception_3b/5x5
I0714 15:37:04.524229 60340 net.cpp:155] Setting up inception_3b/5x5
I0714 15:37:04.524272 60340 net.cpp:163] Top shape: 32 96 28 28 (2408448)
I0714 15:37:04.524307 60340 layer_factory.hpp:76] Creating layer inception_3b/relu_5x5
I0714 15:37:04.524341 60340 net.cpp:110] Creating Layer inception_3b/relu_5x5
I0714 15:37:04.524364 60340 net.cpp:477] inception_3b/relu_5x5 <- inception_3b/5x5
I0714 15:37:04.524392 60340 net.cpp:419] inception_3b/relu_5x5 -> inception_3b/5x5 (in-place)
I0714 15:37:04.524915 60340 net.cpp:155] Setting up inception_3b/relu_5x5
I0714 15:37:04.524941 60340 net.cpp:163] Top shape: 32 96 28 28 (2408448)
I0714 15:37:04.524955 60340 layer_factory.hpp:76] Creating layer inception_3b/pool
I0714 15:37:04.524971 60340 layer_factory.cpp:60] CUDNN does not support padding or multiple tops. Using Caffe's own pooling layer.
I0714 15:37:04.524986 60340 net.cpp:110] Creating Layer inception_3b/pool
I0714 15:37:04.524996 60340 net.cpp:477] inception_3b/pool <- inception_3a/output_inception_3a/output_0_split_3
I0714 15:37:04.525007 60340 net.cpp:433] inception_3b/pool -> inception_3b/pool
I0714 15:37:04.525034 60340 net.cpp:155] Setting up inception_3b/pool
I0714 15:37:04.525045 60340 net.cpp:163] Top shape: 32 256 28 28 (6422528)
I0714 15:37:04.525053 60340 layer_factory.hpp:76] Creating layer inception_3b/pool_proj
I0714 15:37:04.525070 60340 net.cpp:110] Creating Layer inception_3b/pool_proj
I0714 15:37:04.525079 60340 net.cpp:477] inception_3b/pool_proj <- inception_3b/pool
I0714 15:37:04.525099 60340 net.cpp:433] inception_3b/pool_proj -> inception_3b/pool_proj
I0714 15:37:04.526490 60340 net.cpp:155] Setting up inception_3b/pool_proj
I0714 15:37:04.526523 60340 net.cpp:163] Top shape: 32 64 28 28 (1605632)
I0714 15:37:04.526545 60340 layer_factory.hpp:76] Creating layer inception_3b/relu_pool_proj
I0714 15:37:04.526566 60340 net.cpp:110] Creating Layer inception_3b/relu_pool_proj
I0714 15:37:04.526581 60340 net.cpp:477] inception_3b/relu_pool_proj <- inception_3b/pool_proj
I0714 15:37:04.526602 60340 net.cpp:419] inception_3b/relu_pool_proj -> inception_3b/pool_proj (in-place)
I0714 15:37:04.526854 60340 net.cpp:155] Setting up inception_3b/relu_pool_proj
I0714 15:37:04.526881 60340 net.cpp:163] Top shape: 32 64 28 28 (1605632)
I0714 15:37:04.526938 60340 layer_factory.hpp:76] Creating layer inception_3b/output
I0714 15:37:04.526957 60340 net.cpp:110] Creating Layer inception_3b/output
I0714 15:37:04.526974 60340 net.cpp:477] inception_3b/output <- inception_3b/1x1
I0714 15:37:04.526985 60340 net.cpp:477] inception_3b/output <- inception_3b/3x3
I0714 15:37:04.526995 60340 net.cpp:477] inception_3b/output <- inception_3b/5x5
I0714 15:37:04.527010 60340 net.cpp:477] inception_3b/output <- inception_3b/pool_proj
I0714 15:37:04.527030 60340 net.cpp:433] inception_3b/output -> inception_3b/output
I0714 15:37:04.527060 60340 net.cpp:155] Setting up inception_3b/output
I0714 15:37:04.527076 60340 net.cpp:163] Top shape: 32 480 28 28 (12042240)
I0714 15:37:04.527088 60340 layer_factory.hpp:76] Creating layer pool3/3x3_s2
I0714 15:37:04.527112 60340 net.cpp:110] Creating Layer pool3/3x3_s2
I0714 15:37:04.527122 60340 net.cpp:477] pool3/3x3_s2 <- inception_3b/output
I0714 15:37:04.527151 60340 net.cpp:433] pool3/3x3_s2 -> pool3/3x3_s2
I0714 15:37:04.527946 60340 net.cpp:155] Setting up pool3/3x3_s2
I0714 15:37:04.527976 60340 net.cpp:163] Top shape: 32 480 14 14 (3010560)
I0714 15:37:04.527992 60340 layer_factory.hpp:76] Creating layer pool3/3x3_s2_pool3/3x3_s2_0_split
I0714 15:37:04.528010 60340 net.cpp:110] Creating Layer pool3/3x3_s2_pool3/3x3_s2_0_split
I0714 15:37:04.528025 60340 net.cpp:477] pool3/3x3_s2_pool3/3x3_s2_0_split <- pool3/3x3_s2
I0714 15:37:04.528048 60340 net.cpp:433] pool3/3x3_s2_pool3/3x3_s2_0_split -> pool3/3x3_s2_pool3/3x3_s2_0_split_0
I0714 15:37:04.528075 60340 net.cpp:433] pool3/3x3_s2_pool3/3x3_s2_0_split -> pool3/3x3_s2_pool3/3x3_s2_0_split_1
I0714 15:37:04.528089 60340 net.cpp:433] pool3/3x3_s2_pool3/3x3_s2_0_split -> pool3/3x3_s2_pool3/3x3_s2_0_split_2
I0714 15:37:04.528106 60340 net.cpp:433] pool3/3x3_s2_pool3/3x3_s2_0_split -> pool3/3x3_s2_pool3/3x3_s2_0_split_3
I0714 15:37:04.528132 60340 net.cpp:155] Setting up pool3/3x3_s2_pool3/3x3_s2_0_split
I0714 15:37:04.528147 60340 net.cpp:163] Top shape: 32 480 14 14 (3010560)
I0714 15:37:04.528159 60340 net.cpp:163] Top shape: 32 480 14 14 (3010560)
I0714 15:37:04.528168 60340 net.cpp:163] Top shape: 32 480 14 14 (3010560)
I0714 15:37:04.528189 60340 net.cpp:163] Top shape: 32 480 14 14 (3010560)
I0714 15:37:04.528203 60340 layer_factory.hpp:76] Creating layer inception_4a/1x1
I0714 15:37:04.528231 60340 net.cpp:110] Creating Layer inception_4a/1x1
I0714 15:37:04.528244 60340 net.cpp:477] inception_4a/1x1 <- pool3/3x3_s2_pool3/3x3_s2_0_split_0
I0714 15:37:04.528267 60340 net.cpp:433] inception_4a/1x1 -> inception_4a/1x1
I0714 15:37:04.530314 60340 net.cpp:155] Setting up inception_4a/1x1
I0714 15:37:04.530345 60340 net.cpp:163] Top shape: 32 192 14 14 (1204224)
I0714 15:37:04.530361 60340 layer_factory.hpp:76] Creating layer inception_4a/relu_1x1
I0714 15:37:04.530385 60340 net.cpp:110] Creating Layer inception_4a/relu_1x1
I0714 15:37:04.530395 60340 net.cpp:477] inception_4a/relu_1x1 <- inception_4a/1x1
I0714 15:37:04.530403 60340 net.cpp:419] inception_4a/relu_1x1 -> inception_4a/1x1 (in-place)
I0714 15:37:04.530947 60340 net.cpp:155] Setting up inception_4a/relu_1x1
I0714 15:37:04.530968 60340 net.cpp:163] Top shape: 32 192 14 14 (1204224)
I0714 15:37:04.530979 60340 layer_factory.hpp:76] Creating layer inception_4a/3x3_reduce
I0714 15:37:04.531002 60340 net.cpp:110] Creating Layer inception_4a/3x3_reduce
I0714 15:37:04.531013 60340 net.cpp:477] inception_4a/3x3_reduce <- pool3/3x3_s2_pool3/3x3_s2_0_split_1
I0714 15:37:04.531033 60340 net.cpp:433] inception_4a/3x3_reduce -> inception_4a/3x3_reduce
I0714 15:37:04.532740 60340 net.cpp:155] Setting up inception_4a/3x3_reduce
I0714 15:37:04.532766 60340 net.cpp:163] Top shape: 32 96 14 14 (602112)
I0714 15:37:04.532814 60340 layer_factory.hpp:76] Creating layer inception_4a/relu_3x3_reduce
I0714 15:37:04.532833 60340 net.cpp:110] Creating Layer inception_4a/relu_3x3_reduce
I0714 15:37:04.532847 60340 net.cpp:477] inception_4a/relu_3x3_reduce <- inception_4a/3x3_reduce
I0714 15:37:04.532858 60340 net.cpp:419] inception_4a/relu_3x3_reduce -> inception_4a/3x3_reduce (in-place)
I0714 15:37:04.533140 60340 net.cpp:155] Setting up inception_4a/relu_3x3_reduce
I0714 15:37:04.533164 60340 net.cpp:163] Top shape: 32 96 14 14 (602112)
I0714 15:37:04.533184 60340 layer_factory.hpp:76] Creating layer inception_4a/3x3
I0714 15:37:04.533203 60340 net.cpp:110] Creating Layer inception_4a/3x3
I0714 15:37:04.533220 60340 net.cpp:477] inception_4a/3x3 <- inception_4a/3x3_reduce
I0714 15:37:04.533237 60340 net.cpp:433] inception_4a/3x3 -> inception_4a/3x3
I0714 15:37:04.537693 60340 net.cpp:155] Setting up inception_4a/3x3
I0714 15:37:04.537750 60340 net.cpp:163] Top shape: 32 208 14 14 (1304576)
I0714 15:37:04.537775 60340 layer_factory.hpp:76] Creating layer inception_4a/relu_3x3
I0714 15:37:04.537796 60340 net.cpp:110] Creating Layer inception_4a/relu_3x3
I0714 15:37:04.537811 60340 net.cpp:477] inception_4a/relu_3x3 <- inception_4a/3x3
I0714 15:37:04.537827 60340 net.cpp:419] inception_4a/relu_3x3 -> inception_4a/3x3 (in-place)
I0714 15:37:04.538321 60340 net.cpp:155] Setting up inception_4a/relu_3x3
I0714 15:37:04.538341 60340 net.cpp:163] Top shape: 32 208 14 14 (1304576)
I0714 15:37:04.538362 60340 layer_factory.hpp:76] Creating layer inception_4a/5x5_reduce
I0714 15:37:04.538393 60340 net.cpp:110] Creating Layer inception_4a/5x5_reduce
I0714 15:37:04.538408 60340 net.cpp:477] inception_4a/5x5_reduce <- pool3/3x3_s2_pool3/3x3_s2_0_split_2
I0714 15:37:04.538421 60340 net.cpp:433] inception_4a/5x5_reduce -> inception_4a/5x5_reduce
I0714 15:37:04.539504 60340 net.cpp:155] Setting up inception_4a/5x5_reduce
I0714 15:37:04.539530 60340 net.cpp:163] Top shape: 32 16 14 14 (100352)
I0714 15:37:04.539556 60340 layer_factory.hpp:76] Creating layer inception_4a/relu_5x5_reduce
I0714 15:37:04.539571 60340 net.cpp:110] Creating Layer inception_4a/relu_5x5_reduce
I0714 15:37:04.539582 60340 net.cpp:477] inception_4a/relu_5x5_reduce <- inception_4a/5x5_reduce
I0714 15:37:04.539593 60340 net.cpp:419] inception_4a/relu_5x5_reduce -> inception_4a/5x5_reduce (in-place)
I0714 15:37:04.540072 60340 net.cpp:155] Setting up inception_4a/relu_5x5_reduce
I0714 15:37:04.540094 60340 net.cpp:163] Top shape: 32 16 14 14 (100352)
I0714 15:37:04.540108 60340 layer_factory.hpp:76] Creating layer inception_4a/5x5
I0714 15:37:04.540133 60340 net.cpp:110] Creating Layer inception_4a/5x5
I0714 15:37:04.540153 60340 net.cpp:477] inception_4a/5x5 <- inception_4a/5x5_reduce
I0714 15:37:04.540177 60340 net.cpp:433] inception_4a/5x5 -> inception_4a/5x5
I0714 15:37:04.541573 60340 net.cpp:155] Setting up inception_4a/5x5
I0714 15:37:04.541601 60340 net.cpp:163] Top shape: 32 48 14 14 (301056)
I0714 15:37:04.541616 60340 layer_factory.hpp:76] Creating layer inception_4a/relu_5x5
I0714 15:37:04.541637 60340 net.cpp:110] Creating Layer inception_4a/relu_5x5
I0714 15:37:04.541646 60340 net.cpp:477] inception_4a/relu_5x5 <- inception_4a/5x5
I0714 15:37:04.541657 60340 net.cpp:419] inception_4a/relu_5x5 -> inception_4a/5x5 (in-place)
I0714 15:37:04.541883 60340 net.cpp:155] Setting up inception_4a/relu_5x5
I0714 15:37:04.541911 60340 net.cpp:163] Top shape: 32 48 14 14 (301056)
I0714 15:37:04.541931 60340 layer_factory.hpp:76] Creating layer inception_4a/pool
I0714 15:37:04.541954 60340 layer_factory.cpp:60] CUDNN does not support padding or multiple tops. Using Caffe's own pooling layer.
I0714 15:37:04.541971 60340 net.cpp:110] Creating Layer inception_4a/pool
I0714 15:37:04.541980 60340 net.cpp:477] inception_4a/pool <- pool3/3x3_s2_pool3/3x3_s2_0_split_3
I0714 15:37:04.541999 60340 net.cpp:433] inception_4a/pool -> inception_4a/pool
I0714 15:37:04.542023 60340 net.cpp:155] Setting up inception_4a/pool
I0714 15:37:04.542039 60340 net.cpp:163] Top shape: 32 480 14 14 (3010560)
I0714 15:37:04.542047 60340 layer_factory.hpp:76] Creating layer inception_4a/pool_proj
I0714 15:37:04.542067 60340 net.cpp:110] Creating Layer inception_4a/pool_proj
I0714 15:37:04.542080 60340 net.cpp:477] inception_4a/pool_proj <- inception_4a/pool
I0714 15:37:04.542093 60340 net.cpp:433] inception_4a/pool_proj -> inception_4a/pool_proj
I0714 15:37:04.543725 60340 net.cpp:155] Setting up inception_4a/pool_proj
I0714 15:37:04.543757 60340 net.cpp:163] Top shape: 32 64 14 14 (401408)
I0714 15:37:04.543774 60340 layer_factory.hpp:76] Creating layer inception_4a/relu_pool_proj
I0714 15:37:04.543798 60340 net.cpp:110] Creating Layer inception_4a/relu_pool_proj
I0714 15:37:04.543808 60340 net.cpp:477] inception_4a/relu_pool_proj <- inception_4a/pool_proj
I0714 15:37:04.543822 60340 net.cpp:419] inception_4a/relu_pool_proj -> inception_4a/pool_proj (in-place)
I0714 15:37:04.544291 60340 net.cpp:155] Setting up inception_4a/relu_pool_proj
I0714 15:37:04.544318 60340 net.cpp:163] Top shape: 32 64 14 14 (401408)
I0714 15:37:04.544329 60340 layer_factory.hpp:76] Creating layer inception_4a/output
I0714 15:37:04.544347 60340 net.cpp:110] Creating Layer inception_4a/output
I0714 15:37:04.544363 60340 net.cpp:477] inception_4a/output <- inception_4a/1x1
I0714 15:37:04.544376 60340 net.cpp:477] inception_4a/output <- inception_4a/3x3
I0714 15:37:04.544386 60340 net.cpp:477] inception_4a/output <- inception_4a/5x5
I0714 15:37:04.544412 60340 net.cpp:477] inception_4a/output <- inception_4a/pool_proj
I0714 15:37:04.544423 60340 net.cpp:433] inception_4a/output -> inception_4a/output
I0714 15:37:04.544440 60340 net.cpp:155] Setting up inception_4a/output
I0714 15:37:04.544458 60340 net.cpp:163] Top shape: 32 512 14 14 (3211264)
I0714 15:37:04.544466 60340 layer_factory.hpp:76] Creating layer inception_4a/output_inception_4a/output_0_split
I0714 15:37:04.544483 60340 net.cpp:110] Creating Layer inception_4a/output_inception_4a/output_0_split
I0714 15:37:04.544492 60340 net.cpp:477] inception_4a/output_inception_4a/output_0_split <- inception_4a/output
I0714 15:37:04.544508 60340 net.cpp:433] inception_4a/output_inception_4a/output_0_split -> inception_4a/output_inception_4a/output_0_split_0
I0714 15:37:04.544523 60340 net.cpp:433] inception_4a/output_inception_4a/output_0_split -> inception_4a/output_inception_4a/output_0_split_1
I0714 15:37:04.544533 60340 net.cpp:433] inception_4a/output_inception_4a/output_0_split -> inception_4a/output_inception_4a/output_0_split_2
I0714 15:37:04.544548 60340 net.cpp:433] inception_4a/output_inception_4a/output_0_split -> inception_4a/output_inception_4a/output_0_split_3
I0714 15:37:04.544564 60340 net.cpp:433] inception_4a/output_inception_4a/output_0_split -> inception_4a/output_inception_4a/output_0_split_4
I0714 15:37:04.544579 60340 net.cpp:155] Setting up inception_4a/output_inception_4a/output_0_split
I0714 15:37:04.544592 60340 net.cpp:163] Top shape: 32 512 14 14 (3211264)
I0714 15:37:04.544601 60340 net.cpp:163] Top shape: 32 512 14 14 (3211264)
I0714 15:37:04.544610 60340 net.cpp:163] Top shape: 32 512 14 14 (3211264)
I0714 15:37:04.544621 60340 net.cpp:163] Top shape: 32 512 14 14 (3211264)
I0714 15:37:04.544634 60340 net.cpp:163] Top shape: 32 512 14 14 (3211264)
I0714 15:37:04.544642 60340 layer_factory.hpp:76] Creating layer loss1/ave_pool
I0714 15:37:04.544663 60340 net.cpp:110] Creating Layer loss1/ave_pool
I0714 15:37:04.544679 60340 net.cpp:477] loss1/ave_pool <- inception_4a/output_inception_4a/output_0_split_0
I0714 15:37:04.544714 60340 net.cpp:433] loss1/ave_pool -> loss1/ave_pool
I0714 15:37:04.544939 60340 net.cpp:155] Setting up loss1/ave_pool
I0714 15:37:04.544960 60340 net.cpp:163] Top shape: 32 512 4 4 (262144)
I0714 15:37:04.544971 60340 layer_factory.hpp:76] Creating layer loss1/conv
I0714 15:37:04.544986 60340 net.cpp:110] Creating Layer loss1/conv
I0714 15:37:04.545004 60340 net.cpp:477] loss1/conv <- loss1/ave_pool
I0714 15:37:04.545023 60340 net.cpp:433] loss1/conv -> loss1/conv
I0714 15:37:04.547230 60340 net.cpp:155] Setting up loss1/conv
I0714 15:37:04.547307 60340 net.cpp:163] Top shape: 32 128 4 4 (65536)
I0714 15:37:04.547355 60340 layer_factory.hpp:76] Creating layer loss1/relu_conv
I0714 15:37:04.547399 60340 net.cpp:110] Creating Layer loss1/relu_conv
I0714 15:37:04.547438 60340 net.cpp:477] loss1/relu_conv <- loss1/conv
I0714 15:37:04.547454 60340 net.cpp:419] loss1/relu_conv -> loss1/conv (in-place)
I0714 15:37:04.548018 60340 net.cpp:155] Setting up loss1/relu_conv
I0714 15:37:04.548041 60340 net.cpp:163] Top shape: 32 128 4 4 (65536)
I0714 15:37:04.548064 60340 layer_factory.hpp:76] Creating layer loss1/fc
I0714 15:37:04.548095 60340 net.cpp:110] Creating Layer loss1/fc
I0714 15:37:04.548107 60340 net.cpp:477] loss1/fc <- loss1/conv
I0714 15:37:04.548126 60340 net.cpp:433] loss1/fc -> loss1/fc
I0714 15:37:04.589695 60340 net.cpp:155] Setting up loss1/fc
I0714 15:37:04.589812 60340 net.cpp:163] Top shape: 32 1024 (32768)
I0714 15:37:04.589848 60340 layer_factory.hpp:76] Creating layer loss1/relu_fc
I0714 15:37:04.589880 60340 net.cpp:110] Creating Layer loss1/relu_fc
I0714 15:37:04.589900 60340 net.cpp:477] loss1/relu_fc <- loss1/fc
I0714 15:37:04.589918 60340 net.cpp:419] loss1/relu_fc -> loss1/fc (in-place)
I0714 15:37:04.590409 60340 net.cpp:155] Setting up loss1/relu_fc
I0714 15:37:04.590427 60340 net.cpp:163] Top shape: 32 1024 (32768)
I0714 15:37:04.590445 60340 layer_factory.hpp:76] Creating layer loss1/drop_fc
I0714 15:37:04.590523 60340 net.cpp:110] Creating Layer loss1/drop_fc
I0714 15:37:04.590545 60340 net.cpp:477] loss1/drop_fc <- loss1/fc
I0714 15:37:04.590562 60340 net.cpp:419] loss1/drop_fc -> loss1/fc (in-place)
I0714 15:37:04.590592 60340 net.cpp:155] Setting up loss1/drop_fc
I0714 15:37:04.590603 60340 net.cpp:163] Top shape: 32 1024 (32768)
I0714 15:37:04.590613 60340 layer_factory.hpp:76] Creating layer loss1/classifier
I0714 15:37:04.590639 60340 net.cpp:110] Creating Layer loss1/classifier
I0714 15:37:04.590648 60340 net.cpp:477] loss1/classifier <- loss1/fc
I0714 15:37:04.590668 60340 net.cpp:433] loss1/classifier -> loss1/classifier
I0714 15:37:04.590831 60340 net.cpp:155] Setting up loss1/classifier
I0714 15:37:04.590845 60340 net.cpp:163] Top shape: 32 2 (64)
I0714 15:37:04.590862 60340 layer_factory.hpp:76] Creating layer loss1/loss
I0714 15:37:04.590889 60340 net.cpp:110] Creating Layer loss1/loss
I0714 15:37:04.590900 60340 net.cpp:477] loss1/loss <- loss1/classifier
I0714 15:37:04.590910 60340 net.cpp:477] loss1/loss <- label_data_1_split_0
I0714 15:37:04.590922 60340 net.cpp:433] loss1/loss -> loss1/loss1
I0714 15:37:04.590955 60340 layer_factory.hpp:76] Creating layer loss1/loss
I0714 15:37:04.591714 60340 net.cpp:155] Setting up loss1/loss
I0714 15:37:04.591747 60340 net.cpp:163] Top shape: (1)
I0714 15:37:04.591755 60340 net.cpp:168]     with loss weight 0.3
I0714 15:37:04.591825 60340 layer_factory.hpp:76] Creating layer inception_4b/1x1
I0714 15:37:04.591861 60340 net.cpp:110] Creating Layer inception_4b/1x1
I0714 15:37:04.591879 60340 net.cpp:477] inception_4b/1x1 <- inception_4a/output_inception_4a/output_0_split_1
I0714 15:37:04.591907 60340 net.cpp:433] inception_4b/1x1 -> inception_4b/1x1
I0714 15:37:04.594146 60340 net.cpp:155] Setting up inception_4b/1x1
I0714 15:37:04.594184 60340 net.cpp:163] Top shape: 32 160 14 14 (1003520)
I0714 15:37:04.594200 60340 layer_factory.hpp:76] Creating layer inception_4b/relu_1x1
I0714 15:37:04.594218 60340 net.cpp:110] Creating Layer inception_4b/relu_1x1
I0714 15:37:04.594229 60340 net.cpp:477] inception_4b/relu_1x1 <- inception_4b/1x1
I0714 15:37:04.594251 60340 net.cpp:419] inception_4b/relu_1x1 -> inception_4b/1x1 (in-place)
I0714 15:37:04.594671 60340 net.cpp:155] Setting up inception_4b/relu_1x1
I0714 15:37:04.594696 60340 net.cpp:163] Top shape: 32 160 14 14 (1003520)
I0714 15:37:04.594713 60340 layer_factory.hpp:76] Creating layer inception_4b/3x3_reduce
I0714 15:37:04.594735 60340 net.cpp:110] Creating Layer inception_4b/3x3_reduce
I0714 15:37:04.594754 60340 net.cpp:477] inception_4b/3x3_reduce <- inception_4a/output_inception_4a/output_0_split_2
I0714 15:37:04.594775 60340 net.cpp:433] inception_4b/3x3_reduce -> inception_4b/3x3_reduce
I0714 15:37:04.598579 60340 net.cpp:155] Setting up inception_4b/3x3_reduce
I0714 15:37:04.598670 60340 net.cpp:163] Top shape: 32 112 14 14 (702464)
I0714 15:37:04.598701 60340 layer_factory.hpp:76] Creating layer inception_4b/relu_3x3_reduce
I0714 15:37:04.598754 60340 net.cpp:110] Creating Layer inception_4b/relu_3x3_reduce
I0714 15:37:04.598773 60340 net.cpp:477] inception_4b/relu_3x3_reduce <- inception_4b/3x3_reduce
I0714 15:37:04.598799 60340 net.cpp:419] inception_4b/relu_3x3_reduce -> inception_4b/3x3_reduce (in-place)
I0714 15:37:04.599035 60340 net.cpp:155] Setting up inception_4b/relu_3x3_reduce
I0714 15:37:04.599057 60340 net.cpp:163] Top shape: 32 112 14 14 (702464)
I0714 15:37:04.599067 60340 layer_factory.hpp:76] Creating layer inception_4b/3x3
I0714 15:37:04.599087 60340 net.cpp:110] Creating Layer inception_4b/3x3
I0714 15:37:04.599099 60340 net.cpp:477] inception_4b/3x3 <- inception_4b/3x3_reduce
I0714 15:37:04.599115 60340 net.cpp:433] inception_4b/3x3 -> inception_4b/3x3
I0714 15:37:04.604357 60340 net.cpp:155] Setting up inception_4b/3x3
I0714 15:37:04.604454 60340 net.cpp:163] Top shape: 32 224 14 14 (1404928)
I0714 15:37:04.604492 60340 layer_factory.hpp:76] Creating layer inception_4b/relu_3x3
I0714 15:37:04.604522 60340 net.cpp:110] Creating Layer inception_4b/relu_3x3
I0714 15:37:04.604543 60340 net.cpp:477] inception_4b/relu_3x3 <- inception_4b/3x3
I0714 15:37:04.604559 60340 net.cpp:419] inception_4b/relu_3x3 -> inception_4b/3x3 (in-place)
I0714 15:37:04.604989 60340 net.cpp:155] Setting up inception_4b/relu_3x3
I0714 15:37:04.605015 60340 net.cpp:163] Top shape: 32 224 14 14 (1404928)
I0714 15:37:04.605027 60340 layer_factory.hpp:76] Creating layer inception_4b/5x5_reduce
I0714 15:37:04.605047 60340 net.cpp:110] Creating Layer inception_4b/5x5_reduce
I0714 15:37:04.605059 60340 net.cpp:477] inception_4b/5x5_reduce <- inception_4a/output_inception_4a/output_0_split_3
I0714 15:37:04.605077 60340 net.cpp:433] inception_4b/5x5_reduce -> inception_4b/5x5_reduce
I0714 15:37:04.606168 60340 net.cpp:155] Setting up inception_4b/5x5_reduce
I0714 15:37:04.606191 60340 net.cpp:163] Top shape: 32 24 14 14 (150528)
I0714 15:37:04.606210 60340 layer_factory.hpp:76] Creating layer inception_4b/relu_5x5_reduce
I0714 15:37:04.606248 60340 net.cpp:110] Creating Layer inception_4b/relu_5x5_reduce
I0714 15:37:04.606264 60340 net.cpp:477] inception_4b/relu_5x5_reduce <- inception_4b/5x5_reduce
I0714 15:37:04.606293 60340 net.cpp:419] inception_4b/relu_5x5_reduce -> inception_4b/5x5_reduce (in-place)
I0714 15:37:04.606712 60340 net.cpp:155] Setting up inception_4b/relu_5x5_reduce
I0714 15:37:04.606734 60340 net.cpp:163] Top shape: 32 24 14 14 (150528)
I0714 15:37:04.606755 60340 layer_factory.hpp:76] Creating layer inception_4b/5x5
I0714 15:37:04.606780 60340 net.cpp:110] Creating Layer inception_4b/5x5
I0714 15:37:04.606791 60340 net.cpp:477] inception_4b/5x5 <- inception_4b/5x5_reduce
I0714 15:37:04.606806 60340 net.cpp:433] inception_4b/5x5 -> inception_4b/5x5
I0714 15:37:04.608353 60340 net.cpp:155] Setting up inception_4b/5x5
I0714 15:37:04.608386 60340 net.cpp:163] Top shape: 32 64 14 14 (401408)
I0714 15:37:04.608402 60340 layer_factory.hpp:76] Creating layer inception_4b/relu_5x5
I0714 15:37:04.608417 60340 net.cpp:110] Creating Layer inception_4b/relu_5x5
I0714 15:37:04.608428 60340 net.cpp:477] inception_4b/relu_5x5 <- inception_4b/5x5
I0714 15:37:04.608439 60340 net.cpp:419] inception_4b/relu_5x5 -> inception_4b/5x5 (in-place)
I0714 15:37:04.608646 60340 net.cpp:155] Setting up inception_4b/relu_5x5
I0714 15:37:04.608667 60340 net.cpp:163] Top shape: 32 64 14 14 (401408)
I0714 15:37:04.608687 60340 layer_factory.hpp:76] Creating layer inception_4b/pool
I0714 15:37:04.608701 60340 layer_factory.cpp:60] CUDNN does not support padding or multiple tops. Using Caffe's own pooling layer.
I0714 15:37:04.608713 60340 net.cpp:110] Creating Layer inception_4b/pool
I0714 15:37:04.608727 60340 net.cpp:477] inception_4b/pool <- inception_4a/output_inception_4a/output_0_split_4
I0714 15:37:04.608741 60340 net.cpp:433] inception_4b/pool -> inception_4b/pool
I0714 15:37:04.608796 60340 net.cpp:155] Setting up inception_4b/pool
I0714 15:37:04.608814 60340 net.cpp:163] Top shape: 32 512 14 14 (3211264)
I0714 15:37:04.608825 60340 layer_factory.hpp:76] Creating layer inception_4b/pool_proj
I0714 15:37:04.608886 60340 net.cpp:110] Creating Layer inception_4b/pool_proj
I0714 15:37:04.608898 60340 net.cpp:477] inception_4b/pool_proj <- inception_4b/pool
I0714 15:37:04.608913 60340 net.cpp:433] inception_4b/pool_proj -> inception_4b/pool_proj
I0714 15:37:04.610723 60340 net.cpp:155] Setting up inception_4b/pool_proj
I0714 15:37:04.610787 60340 net.cpp:163] Top shape: 32 64 14 14 (401408)
I0714 15:37:04.610819 60340 layer_factory.hpp:76] Creating layer inception_4b/relu_pool_proj
I0714 15:37:04.610846 60340 net.cpp:110] Creating Layer inception_4b/relu_pool_proj
I0714 15:37:04.610865 60340 net.cpp:477] inception_4b/relu_pool_proj <- inception_4b/pool_proj
I0714 15:37:04.610878 60340 net.cpp:419] inception_4b/relu_pool_proj -> inception_4b/pool_proj (in-place)
I0714 15:37:04.611307 60340 net.cpp:155] Setting up inception_4b/relu_pool_proj
I0714 15:37:04.611331 60340 net.cpp:163] Top shape: 32 64 14 14 (401408)
I0714 15:37:04.611353 60340 layer_factory.hpp:76] Creating layer inception_4b/output
I0714 15:37:04.611371 60340 net.cpp:110] Creating Layer inception_4b/output
I0714 15:37:04.611388 60340 net.cpp:477] inception_4b/output <- inception_4b/1x1
I0714 15:37:04.611398 60340 net.cpp:477] inception_4b/output <- inception_4b/3x3
I0714 15:37:04.611408 60340 net.cpp:477] inception_4b/output <- inception_4b/5x5
I0714 15:37:04.611419 60340 net.cpp:477] inception_4b/output <- inception_4b/pool_proj
I0714 15:37:04.611429 60340 net.cpp:433] inception_4b/output -> inception_4b/output
I0714 15:37:04.611452 60340 net.cpp:155] Setting up inception_4b/output
I0714 15:37:04.611462 60340 net.cpp:163] Top shape: 32 512 14 14 (3211264)
I0714 15:37:04.611491 60340 layer_factory.hpp:76] Creating layer inception_4b/output_inception_4b/output_0_split
I0714 15:37:04.611516 60340 net.cpp:110] Creating Layer inception_4b/output_inception_4b/output_0_split
I0714 15:37:04.611526 60340 net.cpp:477] inception_4b/output_inception_4b/output_0_split <- inception_4b/output
I0714 15:37:04.611536 60340 net.cpp:433] inception_4b/output_inception_4b/output_0_split -> inception_4b/output_inception_4b/output_0_split_0
I0714 15:37:04.611546 60340 net.cpp:433] inception_4b/output_inception_4b/output_0_split -> inception_4b/output_inception_4b/output_0_split_1
I0714 15:37:04.611560 60340 net.cpp:433] inception_4b/output_inception_4b/output_0_split -> inception_4b/output_inception_4b/output_0_split_2
I0714 15:37:04.611575 60340 net.cpp:433] inception_4b/output_inception_4b/output_0_split -> inception_4b/output_inception_4b/output_0_split_3
I0714 15:37:04.611588 60340 net.cpp:155] Setting up inception_4b/output_inception_4b/output_0_split
I0714 15:37:04.611596 60340 net.cpp:163] Top shape: 32 512 14 14 (3211264)
I0714 15:37:04.611605 60340 net.cpp:163] Top shape: 32 512 14 14 (3211264)
I0714 15:37:04.611613 60340 net.cpp:163] Top shape: 32 512 14 14 (3211264)
I0714 15:37:04.611623 60340 net.cpp:163] Top shape: 32 512 14 14 (3211264)
I0714 15:37:04.611630 60340 layer_factory.hpp:76] Creating layer inception_4c/1x1
I0714 15:37:04.611670 60340 net.cpp:110] Creating Layer inception_4c/1x1
I0714 15:37:04.611681 60340 net.cpp:477] inception_4c/1x1 <- inception_4b/output_inception_4b/output_0_split_0
I0714 15:37:04.611692 60340 net.cpp:433] inception_4c/1x1 -> inception_4c/1x1
I0714 15:37:04.613533 60340 net.cpp:155] Setting up inception_4c/1x1
I0714 15:37:04.613576 60340 net.cpp:163] Top shape: 32 128 14 14 (802816)
I0714 15:37:04.613596 60340 layer_factory.hpp:76] Creating layer inception_4c/relu_1x1
I0714 15:37:04.613625 60340 net.cpp:110] Creating Layer inception_4c/relu_1x1
I0714 15:37:04.613637 60340 net.cpp:477] inception_4c/relu_1x1 <- inception_4c/1x1
I0714 15:37:04.613651 60340 net.cpp:419] inception_4c/relu_1x1 -> inception_4c/1x1 (in-place)
I0714 15:37:04.614061 60340 net.cpp:155] Setting up inception_4c/relu_1x1
I0714 15:37:04.614089 60340 net.cpp:163] Top shape: 32 128 14 14 (802816)
I0714 15:37:04.614100 60340 layer_factory.hpp:76] Creating layer inception_4c/3x3_reduce
I0714 15:37:04.614126 60340 net.cpp:110] Creating Layer inception_4c/3x3_reduce
I0714 15:37:04.614181 60340 net.cpp:477] inception_4c/3x3_reduce <- inception_4b/output_inception_4b/output_0_split_1
I0714 15:37:04.614200 60340 net.cpp:433] inception_4c/3x3_reduce -> inception_4c/3x3_reduce
I0714 15:37:04.616436 60340 net.cpp:155] Setting up inception_4c/3x3_reduce
I0714 15:37:04.616492 60340 net.cpp:163] Top shape: 32 128 14 14 (802816)
I0714 15:37:04.616516 60340 layer_factory.hpp:76] Creating layer inception_4c/relu_3x3_reduce
I0714 15:37:04.616535 60340 net.cpp:110] Creating Layer inception_4c/relu_3x3_reduce
I0714 15:37:04.616554 60340 net.cpp:477] inception_4c/relu_3x3_reduce <- inception_4c/3x3_reduce
I0714 15:37:04.616572 60340 net.cpp:419] inception_4c/relu_3x3_reduce -> inception_4c/3x3_reduce (in-place)
I0714 15:37:04.616796 60340 net.cpp:155] Setting up inception_4c/relu_3x3_reduce
I0714 15:37:04.616817 60340 net.cpp:163] Top shape: 32 128 14 14 (802816)
I0714 15:37:04.616835 60340 layer_factory.hpp:76] Creating layer inception_4c/3x3
I0714 15:37:04.616860 60340 net.cpp:110] Creating Layer inception_4c/3x3
I0714 15:37:04.616871 60340 net.cpp:477] inception_4c/3x3 <- inception_4c/3x3_reduce
I0714 15:37:04.616888 60340 net.cpp:433] inception_4c/3x3 -> inception_4c/3x3
I0714 15:37:04.623766 60340 net.cpp:155] Setting up inception_4c/3x3
I0714 15:37:04.623862 60340 net.cpp:163] Top shape: 32 256 14 14 (1605632)
I0714 15:37:04.623944 60340 layer_factory.hpp:76] Creating layer inception_4c/relu_3x3
I0714 15:37:04.623986 60340 net.cpp:110] Creating Layer inception_4c/relu_3x3
I0714 15:37:04.624004 60340 net.cpp:477] inception_4c/relu_3x3 <- inception_4c/3x3
I0714 15:37:04.624029 60340 net.cpp:419] inception_4c/relu_3x3 -> inception_4c/3x3 (in-place)
I0714 15:37:04.624460 60340 net.cpp:155] Setting up inception_4c/relu_3x3
I0714 15:37:04.624483 60340 net.cpp:163] Top shape: 32 256 14 14 (1605632)
I0714 15:37:04.624502 60340 layer_factory.hpp:76] Creating layer inception_4c/5x5_reduce
I0714 15:37:04.624536 60340 net.cpp:110] Creating Layer inception_4c/5x5_reduce
I0714 15:37:04.624548 60340 net.cpp:477] inception_4c/5x5_reduce <- inception_4b/output_inception_4b/output_0_split_2
I0714 15:37:04.624562 60340 net.cpp:433] inception_4c/5x5_reduce -> inception_4c/5x5_reduce
I0714 15:37:04.625743 60340 net.cpp:155] Setting up inception_4c/5x5_reduce
I0714 15:37:04.625790 60340 net.cpp:163] Top shape: 32 24 14 14 (150528)
I0714 15:37:04.625813 60340 layer_factory.hpp:76] Creating layer inception_4c/relu_5x5_reduce
I0714 15:37:04.625830 60340 net.cpp:110] Creating Layer inception_4c/relu_5x5_reduce
I0714 15:37:04.625841 60340 net.cpp:477] inception_4c/relu_5x5_reduce <- inception_4c/5x5_reduce
I0714 15:37:04.625854 60340 net.cpp:419] inception_4c/relu_5x5_reduce -> inception_4c/5x5_reduce (in-place)
I0714 15:37:04.626281 60340 net.cpp:155] Setting up inception_4c/relu_5x5_reduce
I0714 15:37:04.626322 60340 net.cpp:163] Top shape: 32 24 14 14 (150528)
I0714 15:37:04.626337 60340 layer_factory.hpp:76] Creating layer inception_4c/5x5
I0714 15:37:04.626355 60340 net.cpp:110] Creating Layer inception_4c/5x5
I0714 15:37:04.626368 60340 net.cpp:477] inception_4c/5x5 <- inception_4c/5x5_reduce
I0714 15:37:04.626386 60340 net.cpp:433] inception_4c/5x5 -> inception_4c/5x5
I0714 15:37:04.630082 60340 net.cpp:155] Setting up inception_4c/5x5
I0714 15:37:04.630177 60340 net.cpp:163] Top shape: 32 64 14 14 (401408)
I0714 15:37:04.630209 60340 layer_factory.hpp:76] Creating layer inception_4c/relu_5x5
I0714 15:37:04.630259 60340 net.cpp:110] Creating Layer inception_4c/relu_5x5
I0714 15:37:04.630278 60340 net.cpp:477] inception_4c/relu_5x5 <- inception_4c/5x5
I0714 15:37:04.630296 60340 net.cpp:419] inception_4c/relu_5x5 -> inception_4c/5x5 (in-place)
I0714 15:37:04.630568 60340 net.cpp:155] Setting up inception_4c/relu_5x5
I0714 15:37:04.630590 60340 net.cpp:163] Top shape: 32 64 14 14 (401408)
I0714 15:37:04.630614 60340 layer_factory.hpp:76] Creating layer inception_4c/pool
I0714 15:37:04.630636 60340 layer_factory.cpp:60] CUDNN does not support padding or multiple tops. Using Caffe's own pooling layer.
I0714 15:37:04.630707 60340 net.cpp:110] Creating Layer inception_4c/pool
I0714 15:37:04.630720 60340 net.cpp:477] inception_4c/pool <- inception_4b/output_inception_4b/output_0_split_3
I0714 15:37:04.630734 60340 net.cpp:433] inception_4c/pool -> inception_4c/pool
I0714 15:37:04.630769 60340 net.cpp:155] Setting up inception_4c/pool
I0714 15:37:04.630789 60340 net.cpp:163] Top shape: 32 512 14 14 (3211264)
I0714 15:37:04.630800 60340 layer_factory.hpp:76] Creating layer inception_4c/pool_proj
I0714 15:37:04.630822 60340 net.cpp:110] Creating Layer inception_4c/pool_proj
I0714 15:37:04.630831 60340 net.cpp:477] inception_4c/pool_proj <- inception_4c/pool
I0714 15:37:04.630867 60340 net.cpp:433] inception_4c/pool_proj -> inception_4c/pool_proj
I0714 15:37:04.632601 60340 net.cpp:155] Setting up inception_4c/pool_proj
I0714 15:37:04.632633 60340 net.cpp:163] Top shape: 32 64 14 14 (401408)
I0714 15:37:04.632657 60340 layer_factory.hpp:76] Creating layer inception_4c/relu_pool_proj
I0714 15:37:04.632676 60340 net.cpp:110] Creating Layer inception_4c/relu_pool_proj
I0714 15:37:04.632689 60340 net.cpp:477] inception_4c/relu_pool_proj <- inception_4c/pool_proj
I0714 15:37:04.632711 60340 net.cpp:419] inception_4c/relu_pool_proj -> inception_4c/pool_proj (in-place)
I0714 15:37:04.633138 60340 net.cpp:155] Setting up inception_4c/relu_pool_proj
I0714 15:37:04.633167 60340 net.cpp:163] Top shape: 32 64 14 14 (401408)
I0714 15:37:04.633180 60340 layer_factory.hpp:76] Creating layer inception_4c/output
I0714 15:37:04.633199 60340 net.cpp:110] Creating Layer inception_4c/output
I0714 15:37:04.633218 60340 net.cpp:477] inception_4c/output <- inception_4c/1x1
I0714 15:37:04.633239 60340 net.cpp:477] inception_4c/output <- inception_4c/3x3
I0714 15:37:04.633252 60340 net.cpp:477] inception_4c/output <- inception_4c/5x5
I0714 15:37:04.633263 60340 net.cpp:477] inception_4c/output <- inception_4c/pool_proj
I0714 15:37:04.633285 60340 net.cpp:433] inception_4c/output -> inception_4c/output
I0714 15:37:04.633314 60340 net.cpp:155] Setting up inception_4c/output
I0714 15:37:04.633332 60340 net.cpp:163] Top shape: 32 512 14 14 (3211264)
I0714 15:37:04.633343 60340 layer_factory.hpp:76] Creating layer inception_4c/output_inception_4c/output_0_split
I0714 15:37:04.633368 60340 net.cpp:110] Creating Layer inception_4c/output_inception_4c/output_0_split
I0714 15:37:04.633381 60340 net.cpp:477] inception_4c/output_inception_4c/output_0_split <- inception_4c/output
I0714 15:37:04.633409 60340 net.cpp:433] inception_4c/output_inception_4c/output_0_split -> inception_4c/output_inception_4c/output_0_split_0
I0714 15:37:04.633426 60340 net.cpp:433] inception_4c/output_inception_4c/output_0_split -> inception_4c/output_inception_4c/output_0_split_1
I0714 15:37:04.633450 60340 net.cpp:433] inception_4c/output_inception_4c/output_0_split -> inception_4c/output_inception_4c/output_0_split_2
I0714 15:37:04.633471 60340 net.cpp:433] inception_4c/output_inception_4c/output_0_split -> inception_4c/output_inception_4c/output_0_split_3
I0714 15:37:04.633488 60340 net.cpp:155] Setting up inception_4c/output_inception_4c/output_0_split
I0714 15:37:04.633502 60340 net.cpp:163] Top shape: 32 512 14 14 (3211264)
I0714 15:37:04.633517 60340 net.cpp:163] Top shape: 32 512 14 14 (3211264)
I0714 15:37:04.633533 60340 net.cpp:163] Top shape: 32 512 14 14 (3211264)
I0714 15:37:04.633548 60340 net.cpp:163] Top shape: 32 512 14 14 (3211264)
I0714 15:37:04.633564 60340 layer_factory.hpp:76] Creating layer inception_4d/1x1
I0714 15:37:04.633586 60340 net.cpp:110] Creating Layer inception_4d/1x1
I0714 15:37:04.633612 60340 net.cpp:477] inception_4d/1x1 <- inception_4c/output_inception_4c/output_0_split_0
I0714 15:37:04.633626 60340 net.cpp:433] inception_4d/1x1 -> inception_4d/1x1
I0714 15:37:04.635315 60340 net.cpp:155] Setting up inception_4d/1x1
I0714 15:37:04.635356 60340 net.cpp:163] Top shape: 32 112 14 14 (702464)
I0714 15:37:04.635375 60340 layer_factory.hpp:76] Creating layer inception_4d/relu_1x1
I0714 15:37:04.635396 60340 net.cpp:110] Creating Layer inception_4d/relu_1x1
I0714 15:37:04.635443 60340 net.cpp:477] inception_4d/relu_1x1 <- inception_4d/1x1
I0714 15:37:04.635457 60340 net.cpp:419] inception_4d/relu_1x1 -> inception_4d/1x1 (in-place)
I0714 15:37:04.635895 60340 net.cpp:155] Setting up inception_4d/relu_1x1
I0714 15:37:04.635923 60340 net.cpp:163] Top shape: 32 112 14 14 (702464)
I0714 15:37:04.635944 60340 layer_factory.hpp:76] Creating layer inception_4d/3x3_reduce
I0714 15:37:04.635962 60340 net.cpp:110] Creating Layer inception_4d/3x3_reduce
I0714 15:37:04.635983 60340 net.cpp:477] inception_4d/3x3_reduce <- inception_4c/output_inception_4c/output_0_split_1
I0714 15:37:04.636003 60340 net.cpp:433] inception_4d/3x3_reduce -> inception_4d/3x3_reduce
I0714 15:37:04.638155 60340 net.cpp:155] Setting up inception_4d/3x3_reduce
I0714 15:37:04.638200 60340 net.cpp:163] Top shape: 32 144 14 14 (903168)
I0714 15:37:04.638223 60340 layer_factory.hpp:76] Creating layer inception_4d/relu_3x3_reduce
I0714 15:37:04.638244 60340 net.cpp:110] Creating Layer inception_4d/relu_3x3_reduce
I0714 15:37:04.638257 60340 net.cpp:477] inception_4d/relu_3x3_reduce <- inception_4d/3x3_reduce
I0714 15:37:04.638273 60340 net.cpp:419] inception_4d/relu_3x3_reduce -> inception_4d/3x3_reduce (in-place)
I0714 15:37:04.638483 60340 net.cpp:155] Setting up inception_4d/relu_3x3_reduce
I0714 15:37:04.638500 60340 net.cpp:163] Top shape: 32 144 14 14 (903168)
I0714 15:37:04.638510 60340 layer_factory.hpp:76] Creating layer inception_4d/3x3
I0714 15:37:04.638535 60340 net.cpp:110] Creating Layer inception_4d/3x3
I0714 15:37:04.638546 60340 net.cpp:477] inception_4d/3x3 <- inception_4d/3x3_reduce
I0714 15:37:04.638561 60340 net.cpp:433] inception_4d/3x3 -> inception_4d/3x3
I0714 15:37:04.645072 60340 net.cpp:155] Setting up inception_4d/3x3
I0714 15:37:04.645149 60340 net.cpp:163] Top shape: 32 288 14 14 (1806336)
I0714 15:37:04.645172 60340 layer_factory.hpp:76] Creating layer inception_4d/relu_3x3
I0714 15:37:04.645200 60340 net.cpp:110] Creating Layer inception_4d/relu_3x3
I0714 15:37:04.645215 60340 net.cpp:477] inception_4d/relu_3x3 <- inception_4d/3x3
I0714 15:37:04.645247 60340 net.cpp:419] inception_4d/relu_3x3 -> inception_4d/3x3 (in-place)
I0714 15:37:04.645659 60340 net.cpp:155] Setting up inception_4d/relu_3x3
I0714 15:37:04.645680 60340 net.cpp:163] Top shape: 32 288 14 14 (1806336)
I0714 15:37:04.645701 60340 layer_factory.hpp:76] Creating layer inception_4d/5x5_reduce
I0714 15:37:04.645730 60340 net.cpp:110] Creating Layer inception_4d/5x5_reduce
I0714 15:37:04.645745 60340 net.cpp:477] inception_4d/5x5_reduce <- inception_4c/output_inception_4c/output_0_split_2
I0714 15:37:04.645767 60340 net.cpp:433] inception_4d/5x5_reduce -> inception_4d/5x5_reduce
I0714 15:37:04.646904 60340 net.cpp:155] Setting up inception_4d/5x5_reduce
I0714 15:37:04.646929 60340 net.cpp:163] Top shape: 32 32 14 14 (200704)
I0714 15:37:04.646950 60340 layer_factory.hpp:76] Creating layer inception_4d/relu_5x5_reduce
I0714 15:37:04.646967 60340 net.cpp:110] Creating Layer inception_4d/relu_5x5_reduce
I0714 15:37:04.646980 60340 net.cpp:477] inception_4d/relu_5x5_reduce <- inception_4d/5x5_reduce
I0714 15:37:04.646989 60340 net.cpp:419] inception_4d/relu_5x5_reduce -> inception_4d/5x5_reduce (in-place)
I0714 15:37:04.647378 60340 net.cpp:155] Setting up inception_4d/relu_5x5_reduce
I0714 15:37:04.647403 60340 net.cpp:163] Top shape: 32 32 14 14 (200704)
I0714 15:37:04.647418 60340 layer_factory.hpp:76] Creating layer inception_4d/5x5
I0714 15:37:04.647435 60340 net.cpp:110] Creating Layer inception_4d/5x5
I0714 15:37:04.647446 60340 net.cpp:477] inception_4d/5x5 <- inception_4d/5x5_reduce
I0714 15:37:04.647461 60340 net.cpp:433] inception_4d/5x5 -> inception_4d/5x5
I0714 15:37:04.649538 60340 net.cpp:155] Setting up inception_4d/5x5
I0714 15:37:04.649598 60340 net.cpp:163] Top shape: 32 64 14 14 (401408)
I0714 15:37:04.649624 60340 layer_factory.hpp:76] Creating layer inception_4d/relu_5x5
I0714 15:37:04.649652 60340 net.cpp:110] Creating Layer inception_4d/relu_5x5
I0714 15:37:04.649682 60340 net.cpp:477] inception_4d/relu_5x5 <- inception_4d/5x5
I0714 15:37:04.649739 60340 net.cpp:419] inception_4d/relu_5x5 -> inception_4d/5x5 (in-place)
I0714 15:37:04.649967 60340 net.cpp:155] Setting up inception_4d/relu_5x5
I0714 15:37:04.649986 60340 net.cpp:163] Top shape: 32 64 14 14 (401408)
I0714 15:37:04.649998 60340 layer_factory.hpp:76] Creating layer inception_4d/pool
I0714 15:37:04.650008 60340 layer_factory.cpp:60] CUDNN does not support padding or multiple tops. Using Caffe's own pooling layer.
I0714 15:37:04.650019 60340 net.cpp:110] Creating Layer inception_4d/pool
I0714 15:37:04.650035 60340 net.cpp:477] inception_4d/pool <- inception_4c/output_inception_4c/output_0_split_3
I0714 15:37:04.650049 60340 net.cpp:433] inception_4d/pool -> inception_4d/pool
I0714 15:37:04.650069 60340 net.cpp:155] Setting up inception_4d/pool
I0714 15:37:04.650084 60340 net.cpp:163] Top shape: 32 512 14 14 (3211264)
I0714 15:37:04.650092 60340 layer_factory.hpp:76] Creating layer inception_4d/pool_proj
I0714 15:37:04.650112 60340 net.cpp:110] Creating Layer inception_4d/pool_proj
I0714 15:37:04.650121 60340 net.cpp:477] inception_4d/pool_proj <- inception_4d/pool
I0714 15:37:04.650131 60340 net.cpp:433] inception_4d/pool_proj -> inception_4d/pool_proj
I0714 15:37:04.651618 60340 net.cpp:155] Setting up inception_4d/pool_proj
I0714 15:37:04.651659 60340 net.cpp:163] Top shape: 32 64 14 14 (401408)
I0714 15:37:04.651682 60340 layer_factory.hpp:76] Creating layer inception_4d/relu_pool_proj
I0714 15:37:04.651701 60340 net.cpp:110] Creating Layer inception_4d/relu_pool_proj
I0714 15:37:04.651715 60340 net.cpp:477] inception_4d/relu_pool_proj <- inception_4d/pool_proj
I0714 15:37:04.651731 60340 net.cpp:419] inception_4d/relu_pool_proj -> inception_4d/pool_proj (in-place)
I0714 15:37:04.652158 60340 net.cpp:155] Setting up inception_4d/relu_pool_proj
I0714 15:37:04.652179 60340 net.cpp:163] Top shape: 32 64 14 14 (401408)
I0714 15:37:04.652194 60340 layer_factory.hpp:76] Creating layer inception_4d/output
I0714 15:37:04.652212 60340 net.cpp:110] Creating Layer inception_4d/output
I0714 15:37:04.652225 60340 net.cpp:477] inception_4d/output <- inception_4d/1x1
I0714 15:37:04.652235 60340 net.cpp:477] inception_4d/output <- inception_4d/3x3
I0714 15:37:04.652246 60340 net.cpp:477] inception_4d/output <- inception_4d/5x5
I0714 15:37:04.652257 60340 net.cpp:477] inception_4d/output <- inception_4d/pool_proj
I0714 15:37:04.652266 60340 net.cpp:433] inception_4d/output -> inception_4d/output
I0714 15:37:04.652283 60340 net.cpp:155] Setting up inception_4d/output
I0714 15:37:04.652293 60340 net.cpp:163] Top shape: 32 528 14 14 (3311616)
I0714 15:37:04.652308 60340 layer_factory.hpp:76] Creating layer inception_4d/output_inception_4d/output_0_split
I0714 15:37:04.652323 60340 net.cpp:110] Creating Layer inception_4d/output_inception_4d/output_0_split
I0714 15:37:04.652335 60340 net.cpp:477] inception_4d/output_inception_4d/output_0_split <- inception_4d/output
I0714 15:37:04.652346 60340 net.cpp:433] inception_4d/output_inception_4d/output_0_split -> inception_4d/output_inception_4d/output_0_split_0
I0714 15:37:04.652356 60340 net.cpp:433] inception_4d/output_inception_4d/output_0_split -> inception_4d/output_inception_4d/output_0_split_1
I0714 15:37:04.652369 60340 net.cpp:433] inception_4d/output_inception_4d/output_0_split -> inception_4d/output_inception_4d/output_0_split_2
I0714 15:37:04.652380 60340 net.cpp:433] inception_4d/output_inception_4d/output_0_split -> inception_4d/output_inception_4d/output_0_split_3
I0714 15:37:04.652390 60340 net.cpp:433] inception_4d/output_inception_4d/output_0_split -> inception_4d/output_inception_4d/output_0_split_4
I0714 15:37:04.652405 60340 net.cpp:155] Setting up inception_4d/output_inception_4d/output_0_split
I0714 15:37:04.652413 60340 net.cpp:163] Top shape: 32 528 14 14 (3311616)
I0714 15:37:04.652421 60340 net.cpp:163] Top shape: 32 528 14 14 (3311616)
I0714 15:37:04.652431 60340 net.cpp:163] Top shape: 32 528 14 14 (3311616)
I0714 15:37:04.652438 60340 net.cpp:163] Top shape: 32 528 14 14 (3311616)
I0714 15:37:04.652478 60340 net.cpp:163] Top shape: 32 528 14 14 (3311616)
I0714 15:37:04.652487 60340 layer_factory.hpp:76] Creating layer loss2/ave_pool
I0714 15:37:04.652505 60340 net.cpp:110] Creating Layer loss2/ave_pool
I0714 15:37:04.652515 60340 net.cpp:477] loss2/ave_pool <- inception_4d/output_inception_4d/output_0_split_0
I0714 15:37:04.652534 60340 net.cpp:433] loss2/ave_pool -> loss2/ave_pool
I0714 15:37:04.652760 60340 net.cpp:155] Setting up loss2/ave_pool
I0714 15:37:04.652797 60340 net.cpp:163] Top shape: 32 528 4 4 (270336)
I0714 15:37:04.652808 60340 layer_factory.hpp:76] Creating layer loss2/conv
I0714 15:37:04.652828 60340 net.cpp:110] Creating Layer loss2/conv
I0714 15:37:04.652840 60340 net.cpp:477] loss2/conv <- loss2/ave_pool
I0714 15:37:04.652856 60340 net.cpp:433] loss2/conv -> loss2/conv
I0714 15:37:04.656420 60340 net.cpp:155] Setting up loss2/conv
I0714 15:37:04.656491 60340 net.cpp:163] Top shape: 32 128 4 4 (65536)
I0714 15:37:04.656520 60340 layer_factory.hpp:76] Creating layer loss2/relu_conv
I0714 15:37:04.656544 60340 net.cpp:110] Creating Layer loss2/relu_conv
I0714 15:37:04.656560 60340 net.cpp:477] loss2/relu_conv <- loss2/conv
I0714 15:37:04.656582 60340 net.cpp:419] loss2/relu_conv -> loss2/conv (in-place)
I0714 15:37:04.656790 60340 net.cpp:155] Setting up loss2/relu_conv
I0714 15:37:04.656810 60340 net.cpp:163] Top shape: 32 128 4 4 (65536)
I0714 15:37:04.656826 60340 layer_factory.hpp:76] Creating layer loss2/fc
I0714 15:37:04.656843 60340 net.cpp:110] Creating Layer loss2/fc
I0714 15:37:04.656852 60340 net.cpp:477] loss2/fc <- loss2/conv
I0714 15:37:04.656867 60340 net.cpp:433] loss2/fc -> loss2/fc
I0714 15:37:04.685340 60340 net.cpp:155] Setting up loss2/fc
I0714 15:37:04.685422 60340 net.cpp:163] Top shape: 32 1024 (32768)
I0714 15:37:04.685446 60340 layer_factory.hpp:76] Creating layer loss2/relu_fc
I0714 15:37:04.685470 60340 net.cpp:110] Creating Layer loss2/relu_fc
I0714 15:37:04.685487 60340 net.cpp:477] loss2/relu_fc <- loss2/fc
I0714 15:37:04.685504 60340 net.cpp:419] loss2/relu_fc -> loss2/fc (in-place)
I0714 15:37:04.686415 60340 net.cpp:155] Setting up loss2/relu_fc
I0714 15:37:04.686455 60340 net.cpp:163] Top shape: 32 1024 (32768)
I0714 15:37:04.686465 60340 layer_factory.hpp:76] Creating layer loss2/drop_fc
I0714 15:37:04.686483 60340 net.cpp:110] Creating Layer loss2/drop_fc
I0714 15:37:04.686496 60340 net.cpp:477] loss2/drop_fc <- loss2/fc
I0714 15:37:04.686511 60340 net.cpp:419] loss2/drop_fc -> loss2/fc (in-place)
I0714 15:37:04.686528 60340 net.cpp:155] Setting up loss2/drop_fc
I0714 15:37:04.686538 60340 net.cpp:163] Top shape: 32 1024 (32768)
I0714 15:37:04.686547 60340 layer_factory.hpp:76] Creating layer loss2/classifier
I0714 15:37:04.686563 60340 net.cpp:110] Creating Layer loss2/classifier
I0714 15:37:04.686573 60340 net.cpp:477] loss2/classifier <- loss2/fc
I0714 15:37:04.686589 60340 net.cpp:433] loss2/classifier -> loss2/classifier
I0714 15:37:04.686811 60340 net.cpp:155] Setting up loss2/classifier
I0714 15:37:04.686828 60340 net.cpp:163] Top shape: 32 2 (64)
I0714 15:37:04.686841 60340 layer_factory.hpp:76] Creating layer loss2/loss
I0714 15:37:04.686858 60340 net.cpp:110] Creating Layer loss2/loss
I0714 15:37:04.686869 60340 net.cpp:477] loss2/loss <- loss2/classifier
I0714 15:37:04.686880 60340 net.cpp:477] loss2/loss <- label_data_1_split_1
I0714 15:37:04.686897 60340 net.cpp:433] loss2/loss -> loss2/loss1
I0714 15:37:04.686909 60340 layer_factory.hpp:76] Creating layer loss2/loss
I0714 15:37:04.687479 60340 net.cpp:155] Setting up loss2/loss
I0714 15:37:04.687501 60340 net.cpp:163] Top shape: (1)
I0714 15:37:04.687510 60340 net.cpp:168]     with loss weight 0.3
I0714 15:37:04.687543 60340 layer_factory.hpp:76] Creating layer inception_4e/1x1
I0714 15:37:04.687561 60340 net.cpp:110] Creating Layer inception_4e/1x1
I0714 15:37:04.687575 60340 net.cpp:477] inception_4e/1x1 <- inception_4d/output_inception_4d/output_0_split_1
I0714 15:37:04.687593 60340 net.cpp:433] inception_4e/1x1 -> inception_4e/1x1
I0714 15:37:04.690186 60340 net.cpp:155] Setting up inception_4e/1x1
I0714 15:37:04.690284 60340 net.cpp:163] Top shape: 32 256 14 14 (1605632)
I0714 15:37:04.690310 60340 layer_factory.hpp:76] Creating layer inception_4e/relu_1x1
I0714 15:37:04.690335 60340 net.cpp:110] Creating Layer inception_4e/relu_1x1
I0714 15:37:04.690352 60340 net.cpp:477] inception_4e/relu_1x1 <- inception_4e/1x1
I0714 15:37:04.690376 60340 net.cpp:419] inception_4e/relu_1x1 -> inception_4e/1x1 (in-place)
I0714 15:37:04.690856 60340 net.cpp:155] Setting up inception_4e/relu_1x1
I0714 15:37:04.690877 60340 net.cpp:163] Top shape: 32 256 14 14 (1605632)
I0714 15:37:04.690886 60340 layer_factory.hpp:76] Creating layer inception_4e/3x3_reduce
I0714 15:37:04.690907 60340 net.cpp:110] Creating Layer inception_4e/3x3_reduce
I0714 15:37:04.690917 60340 net.cpp:477] inception_4e/3x3_reduce <- inception_4d/output_inception_4d/output_0_split_2
I0714 15:37:04.690932 60340 net.cpp:433] inception_4e/3x3_reduce -> inception_4e/3x3_reduce
I0714 15:37:04.694300 60340 net.cpp:155] Setting up inception_4e/3x3_reduce
I0714 15:37:04.694381 60340 net.cpp:163] Top shape: 32 160 14 14 (1003520)
I0714 15:37:04.694409 60340 layer_factory.hpp:76] Creating layer inception_4e/relu_3x3_reduce
I0714 15:37:04.694455 60340 net.cpp:110] Creating Layer inception_4e/relu_3x3_reduce
I0714 15:37:04.694480 60340 net.cpp:477] inception_4e/relu_3x3_reduce <- inception_4e/3x3_reduce
I0714 15:37:04.694507 60340 net.cpp:419] inception_4e/relu_3x3_reduce -> inception_4e/3x3_reduce (in-place)
I0714 15:37:04.694787 60340 net.cpp:155] Setting up inception_4e/relu_3x3_reduce
I0714 15:37:04.694808 60340 net.cpp:163] Top shape: 32 160 14 14 (1003520)
I0714 15:37:04.694820 60340 layer_factory.hpp:76] Creating layer inception_4e/3x3
I0714 15:37:04.694841 60340 net.cpp:110] Creating Layer inception_4e/3x3
I0714 15:37:04.694850 60340 net.cpp:477] inception_4e/3x3 <- inception_4e/3x3_reduce
I0714 15:37:04.694870 60340 net.cpp:433] inception_4e/3x3 -> inception_4e/3x3
I0714 15:37:04.704120 60340 net.cpp:155] Setting up inception_4e/3x3
I0714 15:37:04.704200 60340 net.cpp:163] Top shape: 32 320 14 14 (2007040)
I0714 15:37:04.704224 60340 layer_factory.hpp:76] Creating layer inception_4e/relu_3x3
I0714 15:37:04.704253 60340 net.cpp:110] Creating Layer inception_4e/relu_3x3
I0714 15:37:04.704277 60340 net.cpp:477] inception_4e/relu_3x3 <- inception_4e/3x3
I0714 15:37:04.704324 60340 net.cpp:419] inception_4e/relu_3x3 -> inception_4e/3x3 (in-place)
I0714 15:37:04.704782 60340 net.cpp:155] Setting up inception_4e/relu_3x3
I0714 15:37:04.704807 60340 net.cpp:163] Top shape: 32 320 14 14 (2007040)
I0714 15:37:04.704819 60340 layer_factory.hpp:76] Creating layer inception_4e/5x5_reduce
I0714 15:37:04.704840 60340 net.cpp:110] Creating Layer inception_4e/5x5_reduce
I0714 15:37:04.704854 60340 net.cpp:477] inception_4e/5x5_reduce <- inception_4d/output_inception_4d/output_0_split_3
I0714 15:37:04.704871 60340 net.cpp:433] inception_4e/5x5_reduce -> inception_4e/5x5_reduce
I0714 15:37:04.706081 60340 net.cpp:155] Setting up inception_4e/5x5_reduce
I0714 15:37:04.706116 60340 net.cpp:163] Top shape: 32 32 14 14 (200704)
I0714 15:37:04.706133 60340 layer_factory.hpp:76] Creating layer inception_4e/relu_5x5_reduce
I0714 15:37:04.706151 60340 net.cpp:110] Creating Layer inception_4e/relu_5x5_reduce
I0714 15:37:04.706161 60340 net.cpp:477] inception_4e/relu_5x5_reduce <- inception_4e/5x5_reduce
I0714 15:37:04.706192 60340 net.cpp:419] inception_4e/relu_5x5_reduce -> inception_4e/5x5_reduce (in-place)
I0714 15:37:04.706619 60340 net.cpp:155] Setting up inception_4e/relu_5x5_reduce
I0714 15:37:04.706646 60340 net.cpp:163] Top shape: 32 32 14 14 (200704)
I0714 15:37:04.706677 60340 layer_factory.hpp:76] Creating layer inception_4e/5x5
I0714 15:37:04.706763 60340 net.cpp:110] Creating Layer inception_4e/5x5
I0714 15:37:04.706778 60340 net.cpp:477] inception_4e/5x5 <- inception_4e/5x5_reduce
I0714 15:37:04.706792 60340 net.cpp:433] inception_4e/5x5 -> inception_4e/5x5
I0714 15:37:04.709336 60340 net.cpp:155] Setting up inception_4e/5x5
I0714 15:37:04.709379 60340 net.cpp:163] Top shape: 32 128 14 14 (802816)
I0714 15:37:04.709470 60340 layer_factory.hpp:76] Creating layer inception_4e/relu_5x5
I0714 15:37:04.709496 60340 net.cpp:110] Creating Layer inception_4e/relu_5x5
I0714 15:37:04.709509 60340 net.cpp:477] inception_4e/relu_5x5 <- inception_4e/5x5
I0714 15:37:04.709524 60340 net.cpp:419] inception_4e/relu_5x5 -> inception_4e/5x5 (in-place)
I0714 15:37:04.709782 60340 net.cpp:155] Setting up inception_4e/relu_5x5
I0714 15:37:04.709802 60340 net.cpp:163] Top shape: 32 128 14 14 (802816)
I0714 15:37:04.709811 60340 layer_factory.hpp:76] Creating layer inception_4e/pool
I0714 15:37:04.709826 60340 layer_factory.cpp:60] CUDNN does not support padding or multiple tops. Using Caffe's own pooling layer.
I0714 15:37:04.709841 60340 net.cpp:110] Creating Layer inception_4e/pool
I0714 15:37:04.709851 60340 net.cpp:477] inception_4e/pool <- inception_4d/output_inception_4d/output_0_split_4
I0714 15:37:04.709864 60340 net.cpp:433] inception_4e/pool -> inception_4e/pool
I0714 15:37:04.709884 60340 net.cpp:155] Setting up inception_4e/pool
I0714 15:37:04.709893 60340 net.cpp:163] Top shape: 32 528 14 14 (3311616)
I0714 15:37:04.709904 60340 layer_factory.hpp:76] Creating layer inception_4e/pool_proj
I0714 15:37:04.709926 60340 net.cpp:110] Creating Layer inception_4e/pool_proj
I0714 15:37:04.709944 60340 net.cpp:477] inception_4e/pool_proj <- inception_4e/pool
I0714 15:37:04.709959 60340 net.cpp:433] inception_4e/pool_proj -> inception_4e/pool_proj
I0714 15:37:04.711865 60340 net.cpp:155] Setting up inception_4e/pool_proj
I0714 15:37:04.711905 60340 net.cpp:163] Top shape: 32 128 14 14 (802816)
I0714 15:37:04.711920 60340 layer_factory.hpp:76] Creating layer inception_4e/relu_pool_proj
I0714 15:37:04.711935 60340 net.cpp:110] Creating Layer inception_4e/relu_pool_proj
I0714 15:37:04.711947 60340 net.cpp:477] inception_4e/relu_pool_proj <- inception_4e/pool_proj
I0714 15:37:04.711962 60340 net.cpp:419] inception_4e/relu_pool_proj -> inception_4e/pool_proj (in-place)
I0714 15:37:04.712404 60340 net.cpp:155] Setting up inception_4e/relu_pool_proj
I0714 15:37:04.712426 60340 net.cpp:163] Top shape: 32 128 14 14 (802816)
I0714 15:37:04.712436 60340 layer_factory.hpp:76] Creating layer inception_4e/output
I0714 15:37:04.712456 60340 net.cpp:110] Creating Layer inception_4e/output
I0714 15:37:04.712468 60340 net.cpp:477] inception_4e/output <- inception_4e/1x1
I0714 15:37:04.712478 60340 net.cpp:477] inception_4e/output <- inception_4e/3x3
I0714 15:37:04.712491 60340 net.cpp:477] inception_4e/output <- inception_4e/5x5
I0714 15:37:04.712502 60340 net.cpp:477] inception_4e/output <- inception_4e/pool_proj
I0714 15:37:04.712512 60340 net.cpp:433] inception_4e/output -> inception_4e/output
I0714 15:37:04.712544 60340 net.cpp:155] Setting up inception_4e/output
I0714 15:37:04.712556 60340 net.cpp:163] Top shape: 32 832 14 14 (5218304)
I0714 15:37:04.712573 60340 layer_factory.hpp:76] Creating layer pool4/3x3_s2
I0714 15:37:04.712620 60340 net.cpp:110] Creating Layer pool4/3x3_s2
I0714 15:37:04.712635 60340 net.cpp:477] pool4/3x3_s2 <- inception_4e/output
I0714 15:37:04.712648 60340 net.cpp:433] pool4/3x3_s2 -> pool4/3x3_s2
I0714 15:37:04.712891 60340 net.cpp:155] Setting up pool4/3x3_s2
I0714 15:37:04.712909 60340 net.cpp:163] Top shape: 32 832 7 7 (1304576)
I0714 15:37:04.712919 60340 layer_factory.hpp:76] Creating layer pool4/3x3_s2_pool4/3x3_s2_0_split
I0714 15:37:04.712934 60340 net.cpp:110] Creating Layer pool4/3x3_s2_pool4/3x3_s2_0_split
I0714 15:37:04.712946 60340 net.cpp:477] pool4/3x3_s2_pool4/3x3_s2_0_split <- pool4/3x3_s2
I0714 15:37:04.712960 60340 net.cpp:433] pool4/3x3_s2_pool4/3x3_s2_0_split -> pool4/3x3_s2_pool4/3x3_s2_0_split_0
I0714 15:37:04.712972 60340 net.cpp:433] pool4/3x3_s2_pool4/3x3_s2_0_split -> pool4/3x3_s2_pool4/3x3_s2_0_split_1
I0714 15:37:04.712985 60340 net.cpp:433] pool4/3x3_s2_pool4/3x3_s2_0_split -> pool4/3x3_s2_pool4/3x3_s2_0_split_2
I0714 15:37:04.712995 60340 net.cpp:433] pool4/3x3_s2_pool4/3x3_s2_0_split -> pool4/3x3_s2_pool4/3x3_s2_0_split_3
I0714 15:37:04.713006 60340 net.cpp:155] Setting up pool4/3x3_s2_pool4/3x3_s2_0_split
I0714 15:37:04.713042 60340 net.cpp:163] Top shape: 32 832 7 7 (1304576)
I0714 15:37:04.713057 60340 net.cpp:163] Top shape: 32 832 7 7 (1304576)
I0714 15:37:04.713068 60340 net.cpp:163] Top shape: 32 832 7 7 (1304576)
I0714 15:37:04.713076 60340 net.cpp:163] Top shape: 32 832 7 7 (1304576)
I0714 15:37:04.713088 60340 layer_factory.hpp:76] Creating layer inception_5a/1x1
I0714 15:37:04.713109 60340 net.cpp:110] Creating Layer inception_5a/1x1
I0714 15:37:04.713119 60340 net.cpp:477] inception_5a/1x1 <- pool4/3x3_s2_pool4/3x3_s2_0_split_0
I0714 15:37:04.713135 60340 net.cpp:433] inception_5a/1x1 -> inception_5a/1x1
I0714 15:37:04.717615 60340 net.cpp:155] Setting up inception_5a/1x1
I0714 15:37:04.717685 60340 net.cpp:163] Top shape: 32 256 7 7 (401408)
I0714 15:37:04.717708 60340 layer_factory.hpp:76] Creating layer inception_5a/relu_1x1
I0714 15:37:04.717735 60340 net.cpp:110] Creating Layer inception_5a/relu_1x1
I0714 15:37:04.717751 60340 net.cpp:477] inception_5a/relu_1x1 <- inception_5a/1x1
I0714 15:37:04.717767 60340 net.cpp:419] inception_5a/relu_1x1 -> inception_5a/1x1 (in-place)
I0714 15:37:04.718004 60340 net.cpp:155] Setting up inception_5a/relu_1x1
I0714 15:37:04.718024 60340 net.cpp:163] Top shape: 32 256 7 7 (401408)
I0714 15:37:04.718046 60340 layer_factory.hpp:76] Creating layer inception_5a/3x3_reduce
I0714 15:37:04.718065 60340 net.cpp:110] Creating Layer inception_5a/3x3_reduce
I0714 15:37:04.718077 60340 net.cpp:477] inception_5a/3x3_reduce <- pool4/3x3_s2_pool4/3x3_s2_0_split_1
I0714 15:37:04.718092 60340 net.cpp:433] inception_5a/3x3_reduce -> inception_5a/3x3_reduce
I0714 15:37:04.721621 60340 net.cpp:155] Setting up inception_5a/3x3_reduce
I0714 15:37:04.721698 60340 net.cpp:163] Top shape: 32 160 7 7 (250880)
I0714 15:37:04.721717 60340 layer_factory.hpp:76] Creating layer inception_5a/relu_3x3_reduce
I0714 15:37:04.721740 60340 net.cpp:110] Creating Layer inception_5a/relu_3x3_reduce
I0714 15:37:04.721757 60340 net.cpp:477] inception_5a/relu_3x3_reduce <- inception_5a/3x3_reduce
I0714 15:37:04.721774 60340 net.cpp:419] inception_5a/relu_3x3_reduce -> inception_5a/3x3_reduce (in-place)
I0714 15:37:04.722199 60340 net.cpp:155] Setting up inception_5a/relu_3x3_reduce
I0714 15:37:04.722220 60340 net.cpp:163] Top shape: 32 160 7 7 (250880)
I0714 15:37:04.722229 60340 layer_factory.hpp:76] Creating layer inception_5a/3x3
I0714 15:37:04.722247 60340 net.cpp:110] Creating Layer inception_5a/3x3
I0714 15:37:04.722257 60340 net.cpp:477] inception_5a/3x3 <- inception_5a/3x3_reduce
I0714 15:37:04.722273 60340 net.cpp:433] inception_5a/3x3 -> inception_5a/3x3
I0714 15:37:04.729502 60340 net.cpp:155] Setting up inception_5a/3x3
I0714 15:37:04.729573 60340 net.cpp:163] Top shape: 32 320 7 7 (501760)
I0714 15:37:04.729599 60340 layer_factory.hpp:76] Creating layer inception_5a/relu_3x3
I0714 15:37:04.729626 60340 net.cpp:110] Creating Layer inception_5a/relu_3x3
I0714 15:37:04.729643 60340 net.cpp:477] inception_5a/relu_3x3 <- inception_5a/3x3
I0714 15:37:04.729662 60340 net.cpp:419] inception_5a/relu_3x3 -> inception_5a/3x3 (in-place)
I0714 15:37:04.729899 60340 net.cpp:155] Setting up inception_5a/relu_3x3
I0714 15:37:04.729918 60340 net.cpp:163] Top shape: 32 320 7 7 (501760)
I0714 15:37:04.729928 60340 layer_factory.hpp:76] Creating layer inception_5a/5x5_reduce
I0714 15:37:04.729949 60340 net.cpp:110] Creating Layer inception_5a/5x5_reduce
I0714 15:37:04.729961 60340 net.cpp:477] inception_5a/5x5_reduce <- pool4/3x3_s2_pool4/3x3_s2_0_split_2
I0714 15:37:04.729979 60340 net.cpp:433] inception_5a/5x5_reduce -> inception_5a/5x5_reduce
I0714 15:37:04.731506 60340 net.cpp:155] Setting up inception_5a/5x5_reduce
I0714 15:37:04.731531 60340 net.cpp:163] Top shape: 32 32 7 7 (50176)
I0714 15:37:04.731549 60340 layer_factory.hpp:76] Creating layer inception_5a/relu_5x5_reduce
I0714 15:37:04.731566 60340 net.cpp:110] Creating Layer inception_5a/relu_5x5_reduce
I0714 15:37:04.731577 60340 net.cpp:477] inception_5a/relu_5x5_reduce <- inception_5a/5x5_reduce
I0714 15:37:04.731623 60340 net.cpp:419] inception_5a/relu_5x5_reduce -> inception_5a/5x5_reduce (in-place)
I0714 15:37:04.731848 60340 net.cpp:155] Setting up inception_5a/relu_5x5_reduce
I0714 15:37:04.731873 60340 net.cpp:163] Top shape: 32 32 7 7 (50176)
I0714 15:37:04.731885 60340 layer_factory.hpp:76] Creating layer inception_5a/5x5
I0714 15:37:04.731906 60340 net.cpp:110] Creating Layer inception_5a/5x5
I0714 15:37:04.731920 60340 net.cpp:477] inception_5a/5x5 <- inception_5a/5x5_reduce
I0714 15:37:04.731933 60340 net.cpp:433] inception_5a/5x5 -> inception_5a/5x5
I0714 15:37:04.734993 60340 net.cpp:155] Setting up inception_5a/5x5
I0714 15:37:04.735049 60340 net.cpp:163] Top shape: 32 128 7 7 (200704)
I0714 15:37:04.735074 60340 layer_factory.hpp:76] Creating layer inception_5a/relu_5x5
I0714 15:37:04.735102 60340 net.cpp:110] Creating Layer inception_5a/relu_5x5
I0714 15:37:04.735122 60340 net.cpp:477] inception_5a/relu_5x5 <- inception_5a/5x5
I0714 15:37:04.735136 60340 net.cpp:419] inception_5a/relu_5x5 -> inception_5a/5x5 (in-place)
I0714 15:37:04.735738 60340 net.cpp:155] Setting up inception_5a/relu_5x5
I0714 15:37:04.735765 60340 net.cpp:163] Top shape: 32 128 7 7 (200704)
I0714 15:37:04.735781 60340 layer_factory.hpp:76] Creating layer inception_5a/pool
I0714 15:37:04.735802 60340 layer_factory.cpp:60] CUDNN does not support padding or multiple tops. Using Caffe's own pooling layer.
I0714 15:37:04.735816 60340 net.cpp:110] Creating Layer inception_5a/pool
I0714 15:37:04.735831 60340 net.cpp:477] inception_5a/pool <- pool4/3x3_s2_pool4/3x3_s2_0_split_3
I0714 15:37:04.735851 60340 net.cpp:433] inception_5a/pool -> inception_5a/pool
I0714 15:37:04.735878 60340 net.cpp:155] Setting up inception_5a/pool
I0714 15:37:04.735889 60340 net.cpp:163] Top shape: 32 832 7 7 (1304576)
I0714 15:37:04.735906 60340 layer_factory.hpp:76] Creating layer inception_5a/pool_proj
I0714 15:37:04.735949 60340 net.cpp:110] Creating Layer inception_5a/pool_proj
I0714 15:37:04.735966 60340 net.cpp:477] inception_5a/pool_proj <- inception_5a/pool
I0714 15:37:04.736006 60340 net.cpp:433] inception_5a/pool_proj -> inception_5a/pool_proj
I0714 15:37:04.743391 60340 net.cpp:155] Setting up inception_5a/pool_proj
I0714 15:37:04.743544 60340 net.cpp:163] Top shape: 32 128 7 7 (200704)
I0714 15:37:04.743574 60340 layer_factory.hpp:76] Creating layer inception_5a/relu_pool_proj
I0714 15:37:04.743603 60340 net.cpp:110] Creating Layer inception_5a/relu_pool_proj
I0714 15:37:04.743636 60340 net.cpp:477] inception_5a/relu_pool_proj <- inception_5a/pool_proj
I0714 15:37:04.743657 60340 net.cpp:419] inception_5a/relu_pool_proj -> inception_5a/pool_proj (in-place)
I0714 15:37:04.743976 60340 net.cpp:155] Setting up inception_5a/relu_pool_proj
I0714 15:37:04.744004 60340 net.cpp:163] Top shape: 32 128 7 7 (200704)
I0714 15:37:04.744021 60340 layer_factory.hpp:76] Creating layer inception_5a/output
I0714 15:37:04.744037 60340 net.cpp:110] Creating Layer inception_5a/output
I0714 15:37:04.744050 60340 net.cpp:477] inception_5a/output <- inception_5a/1x1
I0714 15:37:04.744062 60340 net.cpp:477] inception_5a/output <- inception_5a/3x3
I0714 15:37:04.744072 60340 net.cpp:477] inception_5a/output <- inception_5a/5x5
I0714 15:37:04.744081 60340 net.cpp:477] inception_5a/output <- inception_5a/pool_proj
I0714 15:37:04.744103 60340 net.cpp:433] inception_5a/output -> inception_5a/output
I0714 15:37:04.744122 60340 net.cpp:155] Setting up inception_5a/output
I0714 15:37:04.744132 60340 net.cpp:163] Top shape: 32 832 7 7 (1304576)
I0714 15:37:04.744141 60340 layer_factory.hpp:76] Creating layer inception_5a/output_inception_5a/output_0_split
I0714 15:37:04.744155 60340 net.cpp:110] Creating Layer inception_5a/output_inception_5a/output_0_split
I0714 15:37:04.744163 60340 net.cpp:477] inception_5a/output_inception_5a/output_0_split <- inception_5a/output
I0714 15:37:04.744182 60340 net.cpp:433] inception_5a/output_inception_5a/output_0_split -> inception_5a/output_inception_5a/output_0_split_0
I0714 15:37:04.744194 60340 net.cpp:433] inception_5a/output_inception_5a/output_0_split -> inception_5a/output_inception_5a/output_0_split_1
I0714 15:37:04.744251 60340 net.cpp:433] inception_5a/output_inception_5a/output_0_split -> inception_5a/output_inception_5a/output_0_split_2
I0714 15:37:04.744263 60340 net.cpp:433] inception_5a/output_inception_5a/output_0_split -> inception_5a/output_inception_5a/output_0_split_3
I0714 15:37:04.744276 60340 net.cpp:155] Setting up inception_5a/output_inception_5a/output_0_split
I0714 15:37:04.744284 60340 net.cpp:163] Top shape: 32 832 7 7 (1304576)
I0714 15:37:04.744293 60340 net.cpp:163] Top shape: 32 832 7 7 (1304576)
I0714 15:37:04.744302 60340 net.cpp:163] Top shape: 32 832 7 7 (1304576)
I0714 15:37:04.744312 60340 net.cpp:163] Top shape: 32 832 7 7 (1304576)
I0714 15:37:04.744323 60340 layer_factory.hpp:76] Creating layer inception_5b/1x1
I0714 15:37:04.744351 60340 net.cpp:110] Creating Layer inception_5b/1x1
I0714 15:37:04.744360 60340 net.cpp:477] inception_5b/1x1 <- inception_5a/output_inception_5a/output_0_split_0
I0714 15:37:04.744370 60340 net.cpp:433] inception_5b/1x1 -> inception_5b/1x1
I0714 15:37:04.753177 60340 net.cpp:155] Setting up inception_5b/1x1
I0714 15:37:04.753295 60340 net.cpp:163] Top shape: 32 384 7 7 (602112)
I0714 15:37:04.753341 60340 layer_factory.hpp:76] Creating layer inception_5b/relu_1x1
I0714 15:37:04.753378 60340 net.cpp:110] Creating Layer inception_5b/relu_1x1
I0714 15:37:04.753414 60340 net.cpp:477] inception_5b/relu_1x1 <- inception_5b/1x1
I0714 15:37:04.753446 60340 net.cpp:419] inception_5b/relu_1x1 -> inception_5b/1x1 (in-place)
I0714 15:37:04.753832 60340 net.cpp:155] Setting up inception_5b/relu_1x1
I0714 15:37:04.753864 60340 net.cpp:163] Top shape: 32 384 7 7 (602112)
I0714 15:37:04.753880 60340 layer_factory.hpp:76] Creating layer inception_5b/3x3_reduce
I0714 15:37:04.753921 60340 net.cpp:110] Creating Layer inception_5b/3x3_reduce
I0714 15:37:04.753940 60340 net.cpp:477] inception_5b/3x3_reduce <- inception_5a/output_inception_5a/output_0_split_1
I0714 15:37:04.753965 60340 net.cpp:433] inception_5b/3x3_reduce -> inception_5b/3x3_reduce
I0714 15:37:04.760504 60340 net.cpp:155] Setting up inception_5b/3x3_reduce
I0714 15:37:04.760614 60340 net.cpp:163] Top shape: 32 192 7 7 (301056)
I0714 15:37:04.760653 60340 layer_factory.hpp:76] Creating layer inception_5b/relu_3x3_reduce
I0714 15:37:04.760704 60340 net.cpp:110] Creating Layer inception_5b/relu_3x3_reduce
I0714 15:37:04.760733 60340 net.cpp:477] inception_5b/relu_3x3_reduce <- inception_5b/3x3_reduce
I0714 15:37:04.760764 60340 net.cpp:419] inception_5b/relu_3x3_reduce -> inception_5b/3x3_reduce (in-place)
I0714 15:37:04.761344 60340 net.cpp:155] Setting up inception_5b/relu_3x3_reduce
I0714 15:37:04.761389 60340 net.cpp:163] Top shape: 32 192 7 7 (301056)
I0714 15:37:04.761418 60340 layer_factory.hpp:76] Creating layer inception_5b/3x3
I0714 15:37:04.761448 60340 net.cpp:110] Creating Layer inception_5b/3x3
I0714 15:37:04.761471 60340 net.cpp:477] inception_5b/3x3 <- inception_5b/3x3_reduce
I0714 15:37:04.761497 60340 net.cpp:433] inception_5b/3x3 -> inception_5b/3x3
I0714 15:37:04.775907 60340 net.cpp:155] Setting up inception_5b/3x3
I0714 15:37:04.775995 60340 net.cpp:163] Top shape: 32 384 7 7 (602112)
I0714 15:37:04.776022 60340 layer_factory.hpp:76] Creating layer inception_5b/relu_3x3
I0714 15:37:04.776047 60340 net.cpp:110] Creating Layer inception_5b/relu_3x3
I0714 15:37:04.776072 60340 net.cpp:477] inception_5b/relu_3x3 <- inception_5b/3x3
I0714 15:37:04.776088 60340 net.cpp:419] inception_5b/relu_3x3 -> inception_5b/3x3 (in-place)
I0714 15:37:04.776307 60340 net.cpp:155] Setting up inception_5b/relu_3x3
I0714 15:37:04.776327 60340 net.cpp:163] Top shape: 32 384 7 7 (602112)
I0714 15:37:04.776338 60340 layer_factory.hpp:76] Creating layer inception_5b/5x5_reduce
I0714 15:37:04.776365 60340 net.cpp:110] Creating Layer inception_5b/5x5_reduce
I0714 15:37:04.776376 60340 net.cpp:477] inception_5b/5x5_reduce <- inception_5a/output_inception_5a/output_0_split_2
I0714 15:37:04.776391 60340 net.cpp:433] inception_5b/5x5_reduce -> inception_5b/5x5_reduce
I0714 15:37:04.779376 60340 net.cpp:155] Setting up inception_5b/5x5_reduce
I0714 15:37:04.779419 60340 net.cpp:163] Top shape: 32 48 7 7 (75264)
I0714 15:37:04.779438 60340 layer_factory.hpp:76] Creating layer inception_5b/relu_5x5_reduce
I0714 15:37:04.779466 60340 net.cpp:110] Creating Layer inception_5b/relu_5x5_reduce
I0714 15:37:04.779480 60340 net.cpp:477] inception_5b/relu_5x5_reduce <- inception_5b/5x5_reduce
I0714 15:37:04.779492 60340 net.cpp:419] inception_5b/relu_5x5_reduce -> inception_5b/5x5_reduce (in-place)
I0714 15:37:04.779728 60340 net.cpp:155] Setting up inception_5b/relu_5x5_reduce
I0714 15:37:04.779747 60340 net.cpp:163] Top shape: 32 48 7 7 (75264)
I0714 15:37:04.779767 60340 layer_factory.hpp:76] Creating layer inception_5b/5x5
I0714 15:37:04.779789 60340 net.cpp:110] Creating Layer inception_5b/5x5
I0714 15:37:04.779800 60340 net.cpp:477] inception_5b/5x5 <- inception_5b/5x5_reduce
I0714 15:37:04.779819 60340 net.cpp:433] inception_5b/5x5 -> inception_5b/5x5
I0714 15:37:04.782948 60340 net.cpp:155] Setting up inception_5b/5x5
I0714 15:37:04.783040 60340 net.cpp:163] Top shape: 32 128 7 7 (200704)
I0714 15:37:04.783071 60340 layer_factory.hpp:76] Creating layer inception_5b/relu_5x5
I0714 15:37:04.783107 60340 net.cpp:110] Creating Layer inception_5b/relu_5x5
I0714 15:37:04.783121 60340 net.cpp:477] inception_5b/relu_5x5 <- inception_5b/5x5
I0714 15:37:04.783145 60340 net.cpp:419] inception_5b/relu_5x5 -> inception_5b/5x5 (in-place)
I0714 15:37:04.783572 60340 net.cpp:155] Setting up inception_5b/relu_5x5
I0714 15:37:04.783594 60340 net.cpp:163] Top shape: 32 128 7 7 (200704)
I0714 15:37:04.783609 60340 layer_factory.hpp:76] Creating layer inception_5b/pool
I0714 15:37:04.783620 60340 layer_factory.cpp:60] CUDNN does not support padding or multiple tops. Using Caffe's own pooling layer.
I0714 15:37:04.783641 60340 net.cpp:110] Creating Layer inception_5b/pool
I0714 15:37:04.783651 60340 net.cpp:477] inception_5b/pool <- inception_5a/output_inception_5a/output_0_split_3
I0714 15:37:04.783668 60340 net.cpp:433] inception_5b/pool -> inception_5b/pool
I0714 15:37:04.783689 60340 net.cpp:155] Setting up inception_5b/pool
I0714 15:37:04.783699 60340 net.cpp:163] Top shape: 32 832 7 7 (1304576)
I0714 15:37:04.783707 60340 layer_factory.hpp:76] Creating layer inception_5b/pool_proj
I0714 15:37:04.783721 60340 net.cpp:110] Creating Layer inception_5b/pool_proj
I0714 15:37:04.783730 60340 net.cpp:477] inception_5b/pool_proj <- inception_5b/pool
I0714 15:37:04.783756 60340 net.cpp:433] inception_5b/pool_proj -> inception_5b/pool_proj
I0714 15:37:04.787396 60340 net.cpp:155] Setting up inception_5b/pool_proj
I0714 15:37:04.787454 60340 net.cpp:163] Top shape: 32 128 7 7 (200704)
I0714 15:37:04.787474 60340 layer_factory.hpp:76] Creating layer inception_5b/relu_pool_proj
I0714 15:37:04.787497 60340 net.cpp:110] Creating Layer inception_5b/relu_pool_proj
I0714 15:37:04.787509 60340 net.cpp:477] inception_5b/relu_pool_proj <- inception_5b/pool_proj
I0714 15:37:04.787523 60340 net.cpp:419] inception_5b/relu_pool_proj -> inception_5b/pool_proj (in-place)
I0714 15:37:04.787734 60340 net.cpp:155] Setting up inception_5b/relu_pool_proj
I0714 15:37:04.787753 60340 net.cpp:163] Top shape: 32 128 7 7 (200704)
I0714 15:37:04.787763 60340 layer_factory.hpp:76] Creating layer inception_5b/output
I0714 15:37:04.787782 60340 net.cpp:110] Creating Layer inception_5b/output
I0714 15:37:04.787796 60340 net.cpp:477] inception_5b/output <- inception_5b/1x1
I0714 15:37:04.787806 60340 net.cpp:477] inception_5b/output <- inception_5b/3x3
I0714 15:37:04.787816 60340 net.cpp:477] inception_5b/output <- inception_5b/5x5
I0714 15:37:04.787825 60340 net.cpp:477] inception_5b/output <- inception_5b/pool_proj
I0714 15:37:04.787837 60340 net.cpp:433] inception_5b/output -> inception_5b/output
I0714 15:37:04.787850 60340 net.cpp:155] Setting up inception_5b/output
I0714 15:37:04.787860 60340 net.cpp:163] Top shape: 32 1024 7 7 (1605632)
I0714 15:37:04.787870 60340 layer_factory.hpp:76] Creating layer pool5/7x7_s1
I0714 15:37:04.787915 60340 net.cpp:110] Creating Layer pool5/7x7_s1
I0714 15:37:04.787925 60340 net.cpp:477] pool5/7x7_s1 <- inception_5b/output
I0714 15:37:04.787938 60340 net.cpp:433] pool5/7x7_s1 -> pool5/7x7_s1
I0714 15:37:05.056553 60340 net.cpp:155] Setting up pool5/7x7_s1
I0714 15:37:05.056695 60340 net.cpp:163] Top shape: 32 512 1 1 (16384)
I0714 15:37:05.056736 60340 layer_factory.hpp:76] Creating layer pool5/drop_7x7_s1
I0714 15:37:05.056771 60340 net.cpp:110] Creating Layer pool5/drop_7x7_s1
I0714 15:37:05.056793 60340 net.cpp:477] pool5/drop_7x7_s1 <- pool5/7x7_s1
I0714 15:37:05.056821 60340 net.cpp:419] pool5/drop_7x7_s1 -> pool5/7x7_s1 (in-place)
I0714 15:37:05.056864 60340 net.cpp:155] Setting up pool5/drop_7x7_s1
I0714 15:37:05.056881 60340 net.cpp:163] Top shape: 32 512 1 1 (16384)
I0714 15:37:05.056895 60340 layer_factory.hpp:76] Creating layer loss3/classifier
I0714 15:37:05.056924 60340 net.cpp:110] Creating Layer loss3/classifier
I0714 15:37:05.056933 60340 net.cpp:477] loss3/classifier <- pool5/7x7_s1
I0714 15:37:05.056946 60340 net.cpp:433] loss3/classifier -> loss3/classifier
I0714 15:37:05.057140 60340 net.cpp:155] Setting up loss3/classifier
I0714 15:37:05.057163 60340 net.cpp:163] Top shape: 32 2 (64)
I0714 15:37:05.057286 60340 layer_factory.hpp:76] Creating layer loss3/loss3
I0714 15:37:05.057323 60340 net.cpp:110] Creating Layer loss3/loss3
I0714 15:37:05.057343 60340 net.cpp:477] loss3/loss3 <- loss3/classifier
I0714 15:37:05.057358 60340 net.cpp:477] loss3/loss3 <- label_data_1_split_2
I0714 15:37:05.057368 60340 net.cpp:433] loss3/loss3 -> loss3/loss3
I0714 15:37:05.057385 60340 layer_factory.hpp:76] Creating layer loss3/loss3
…
I0714 15:37:05.064920 60340 net.cpp:339] The NetState phase (1) differed from the phase (0) specified by a rule in layer data
I0714 15:37:05.066022 60340 net.cpp:50] Initializing net from parameters: 
name: "GoogleNet"
state {
  phase: TEST
}
layer {
  name: "data"
  type: "Data"
  top: "data"
  top: "label"
  include {
    phase: TEST
  }
  transform_param {
    mirror: false
    crop_size: 224
    mean_value: 163
    mean_value: 116
    mean_value: 181
  }
  data_param {
    source: "../../step01_generate_traing_data/00DB/TEDB_S256"
    batch_size: 32
    backend: LMDB
  }
}
layer {
  name: "conv1/7x7_s2"
  type: "Convolution"
  bottom: "data"
  top: "conv1/7x7_s2"
  param {
    lr_mult: 1
    decay_mult: 1
  }
  param {
    lr_mult: 2
    decay_mult: 0
  }
  convolution_param {
    num_output: 64
    pad: 3
    kernel_size: 7
    stride: 2
    weight_filler {
      type: "xavier"
    }
    bias_filler {
      type: "constant"
      value: 0.2
    }
  }
}
layer {
  name: "conv1/relu_7x7"
  type: "ReLU"
  bottom: "conv1/7x7_s2"
  top: "conv1/7x7_s2"
}
layer {
  name: "pool1/3x3_s2"
  type: "Pooling"
  bottom: "conv1/7x7_s2"
  top: "pool1/3x3_s2"
  pooling_param {
    pool: MAX
    kernel_size: 3
    stride: 2
  }
}
layer {
  name: "pool1/norm1"
  type: "LRN"
  bottom: "pool1/3x3_s2"
  top: "pool1/norm1"
  lrn_param {
    local_size: 5
    alpha: 0.0001
    beta: 0.75
  }
}
layer {
  name: "conv2/3x3_reduce"
  type: "Convolution"
  bottom: "pool1/norm1"
  top: "conv2/3x3_reduce"
  param {
    lr_mult: 1
    decay_mult: 1
  }
  param {
    lr_mult: 2
    decay_mult: 0
  }
  convolution_param {
    num_output: 64
    kernel_size: 1
    weight_filler {
      type: "xavier"
    }
    bias_filler {
      type: "constant"
      value: 0.2
    }
  }
}
layer {
  name: "conv2/relu_3x3_reduce"
  type: "ReLU"
  bottom: "conv2/3x3_reduce"
  top: "conv2/3x3_reduce"
}
layer {
  name: "conv2/3x3"
  type: "Convolution"
  bottom: "conv2/3x3_reduce"
  top: "conv2/3x3"
  param {
    lr_mult: 1
    decay_mult: 1
  }
  param {
    lr_mult: 2
    decay_mult: 0
  }
  convolution_param {
    num_output: 192
    pad: 1
    kernel_size: 3
    weight_filler {
      type: "xavier"
    }
    bias_filler {
      type: "constant"
      value: 0.2
    }
  }
}
layer {
  name: "conv2/relu_3x3"
  type: "ReLU"
  bottom: "conv2/3x3"
  top: "conv2/3x3"
}
layer {
  name: "conv2/norm2"
  type: "LRN"
  bottom: "conv2/3x3"
  top: "conv2/norm2"
  lrn_param {
    local_size: 5
    alpha: 0.0001
    beta: 0.75
  }
}
layer {
  name: "pool2/3x3_s2"
  type: "Pooling"
  bottom: "conv2/norm2"
  top: "pool2/3x3_s2"
  pooling_param {
    pool: MAX
    kernel_size: 3
    stride: 2
  }
}
layer {
  name: "inception_3a/1x1"
  type: "Convolution"
  bottom: "pool2/3x3_s2"
  top: "inception_3a/1x1"
  param {
    lr_mult: 1
    decay_mult: 1
  }
  param {
    lr_mult: 2
    decay_mult: 0
  }
  convolution_param {
    num_output: 64
    kernel_size: 1
    weight_filler {
      type: "xavier"
    }
    bias_filler {
      type: "constant"
      value: 0.2
    }
  }
}
layer {
  name: "inception_3a/relu_1x1"
  type: "ReLU"
  bottom: "inception_3a/1x1"
  top: "inception_3a/1x1"
}
layer {
  name: "inception_3a/3x3_reduce"
  type: "Convolution"
  bottom: "pool2/3x3_s2"
  top: "inception_3a/3x3_reduce"
  param {
    lr_mult: 1
    decay_mult: 1
  }
  param {
    lr_mult: 2
    decay_mult: 0
  }
  convolution_param {
    num_output: 96
    kernel_size: 1
    weight_filler {
      type: "xavier"
    }
    bias_filler {
      type: "constant"
      value: 0.2
    }
  }
}
layer {
  name: "inception_3a/relu_3x3_reduce"
  type: "ReLU"
  bottom: "inception_3a/3x3_reduce"
  top: "inception_3a/3x3_reduce"
}
layer {
  name: "inception_3a/3x3"
  type: "Convolution"
  bottom: "inception_3a/3x3_reduce"
  top: "inception_3a/3x3"
  param {
    lr_mult: 1
    decay_mult: 1
  }
  param {
    lr_mult: 2
    decay_mult: 0
  }
  convolution_param {
    num_output: 128
    pad: 1
    kernel_size: 3
    weight_filler {
      type: "xavier"
    }
    bias_filler {
      type: "constant"
      value: 0.2
    }
  }
}
layer {
  name: "inception_3a/relu_3x3"
  type: "ReLU"
  bottom: "inception_3a/3x3"
  top: "inception_3a/3x3"
}
layer {
  name: "inception_3a/5x5_reduce"
  type: "Convolution"
  bottom: "pool2/3x3_s2"
  top: "inception_3a/5x5_reduce"
  param {
    lr_mult: 1
    decay_mult: 1
  }
  param {
    lr_mult: 2
    decay_mult: 0
  }
  convolution_param {
    num_output: 16
    kernel_size: 1
    weight_filler {
      type: "xavier"
    }
    bias_filler {
      type: "constant"
      value: 0.2
    }
  }
}
layer {
  name: "inception_3a/relu_5x5_reduce"
  type: "ReLU"
  bottom: "inception_3a/5x5_reduce"
  top: "inception_3a/5x5_reduce"
}
layer {
  name: "inception_3a/5x5"
  type: "Convolution"
  bottom: "inception_3a/5x5_reduce"
  top: "inception_3a/5x5"
  param {
    lr_mult: 1
    decay_mult: 1
  }
  param {
    lr_mult: 2
    decay_mult: 0
  }
  convolution_param {
    num_output: 32
    pad: 2
    kernel_size: 5
    weight_filler {
      type: "xavier"
    }
    bias_filler {
      type: "constant"
      value: 0.2
    }
  }
}
layer {
  name: "inception_3a/relu_5x5"
  type: "ReLU"
  bottom: "inception_3a/5x5"
  top: "inception_3a/5x5"
}
layer {
  name: "inception_3a/pool"
  type: "Pooling"
  bottom: "pool2/3x3_s2"
  top: "inception_3a/pool"
  pooling_param {
    pool: MAX
    kernel_size: 3
    stride: 1
    pad: 1
  }
}
layer {
  name: "inception_3a/pool_proj"
  type: "Convolution"
  bottom: "inception_3a/pool"
  top: "inception_3a/pool_proj"
  param {
    lr_mult: 1
    decay_mult: 1
  }
  param {
    lr_mult: 2
    decay_mult: 0
  }
  convolution_param {
    num_output: 32
    kernel_size: 1
    weight_filler {
      type: "xavier"
    }
    bias_filler {
      type: "constant"
      value: 0.2
    }
  }
}
layer {
  name: "inception_3a/relu_pool_proj"
  type: "ReLU"
  bottom: "inception_3a/pool_proj"
  top: "inception_3a/pool_proj"
}
layer {
  name: "inception_3a/output"
  type: "Concat"
  bottom: "inception_3a/1x1"
  bottom: "inception_3a/3x3"
  bottom: "inception_3a/5x5"
  bottom: "inception_3a/pool_proj"
  top: "inception_3a/output"
}
layer {
  name: "inception_3b/1x1"
  type: "Convolution"
  bottom: "inception_3a/output"
  top: "inception_3b/1x1"
  param {
    lr_mult: 1
    decay_mult: 1
  }
  param {
    lr_mult: 2
    decay_mult: 0
  }
  convolution_param {
    num_output: 128
    kernel_size: 1
    weight_filler {
      type: "xavier"
    }
    bias_filler {
      type: "constant"
      value: 0.2
    }
  }
}
layer {
  name: "inception_3b/relu_1x1"
  type: "ReLU"
  bottom: "inception_3b/1x1"
  top: "inception_3b/1x1"
}
layer {
  name: "inception_3b/3x3_reduce"
  type: "Convolution"
  bottom: "inception_3a/output"
  top: "inception_3b/3x3_reduce"
  param {
    lr_mult: 1
    decay_mult: 1
  }
  param {
    lr_mult: 2
    decay_mult: 0
  }
  convolution_param {
    num_output: 128
    kernel_size: 1
    weight_filler {
      type: "xavier"
    }
    bias_filler {
      type: "constant"
      value: 0.2
    }
  }
}
layer {
  name: "inception_3b/relu_3x3_reduce"
  type: "ReLU"
  bottom: "inception_3b/3x3_reduce"
  top: "inception_3b/3x3_reduce"
}
layer {
  name: "inception_3b/3x3"
  type: "Convolution"
  bottom: "inception_3b/3x3_reduce"
  top: "inception_3b/3x3"
  param {
    lr_mult: 1
    decay_mult: 1
  }
  param {
    lr_mult: 2
    decay_mult: 0
  }
  convolution_param {
    num_output: 192
    pad: 1
    kernel_size: 3
    weight_filler {
      type: "xavier"
    }
    bias_filler {
      type: "constant"
      value: 0.2
    }
  }
}
layer {
  name: "inception_3b/relu_3x3"
  type: "ReLU"
  bottom: "inception_3b/3x3"
  top: "inception_3b/3x3"
}
layer {
  name: "inception_3b/5x5_reduce"
  type: "Convolution"
  bottom: "inception_3a/output"
  top: "inception_3b/5x5_reduce"
  param {
    lr_mult: 1
    decay_mult: 1
  }
  param {
    lr_mult: 2
    decay_mult: 0
  }
  convolution_param {
    num_output: 32
    kernel_size: 1
    weight_filler {
      type: "xavier"
    }
    bias_filler {
      type: "constant"
      value: 0.2
    }
  }
}
layer {
  name: "inception_3b/relu_5x5_reduce"
  type: "ReLU"
  bottom: "inception_3b/5x5_reduce"
  top: "inception_3b/5x5_reduce"
}
layer {
  name: "inception_3b/5x5"
  type: "Convolution"
  bottom: "inception_3b/5x5_reduce"
  top: "inception_3b/5x5"
  param {
    lr_mult: 1
    decay_mult: 1
  }
  param {
    lr_mult: 2
    decay_mult: 0
  }
  convolution_param {
    num_output: 96
    pad: 2
    kernel_size: 5
    weight_filler {
      type: "xavier"
    }
    bias_filler {
      type: "constant"
      value: 0.2
    }
  }
}
layer {
  name: "inception_3b/relu_5x5"
  type: "ReLU"
  bottom: "inception_3b/5x5"
  top: "inception_3b/5x5"
}
layer {
  name: "inception_3b/pool"
  type: "Pooling"
  bottom: "inception_3a/output"
  top: "inception_3b/pool"
  pooling_param {
    pool: MAX
    kernel_size: 3
    stride: 1
    pad: 1
  }
}
layer {
  name: "inception_3b/pool_proj"
  type: "Convolution"
  bottom: "inception_3b/pool"
  top: "inception_3b/pool_proj"
  param {
    lr_mult: 1
    decay_mult: 1
  }
  param {
    lr_mult: 2
    decay_mult: 0
  }
  convolution_param {
    num_output: 64
    kernel_size: 1
    weight_filler {
      type: "xavier"
    }
    bias_filler {
      type: "constant"
      value: 0.2
    }
  }
}
layer {
  name: "inception_3b/relu_pool_proj"
  type: "ReLU"
  bottom: "inception_3b/pool_proj"
  top: "inception_3b/pool_proj"
}
layer {
  name: "inception_3b/output"
  type: "Concat"
  bottom: "inception_3b/1x1"
  bottom: "inception_3b/3x3"
  bottom: "inception_3b/5x5"
  bottom: "inception_3b/pool_proj"
  top: "inception_3b/output"
}
layer {
  name: "pool3/3x3_s2"
  type: "Pooling"
  bottom: "inception_3b/output"
  top: "pool3/3x3_s2"
  pooling_param {
    pool: MAX
    kernel_size: 3
    stride: 2
  }
}
layer {
  name: "inception_4a/1x1"
  type: "Convolution"
  bottom: "pool3/3x3_s2"
  top: "inception_4a/1x1"
  param {
    lr_mult: 1
    decay_mult: 1
  }
  param {
    lr_mult: 2
    decay_mult: 0
  }
  convolution_param {
    num_output: 192
    kernel_size: 1
    weight_filler {
      type: "xavier"
    }
    bias_filler {
      type: "constant"
      value: 0.2
    }
  }
}
layer {
  name: "inception_4a/relu_1x1"
  type: "ReLU"
  bottom: "inception_4a/1x1"
  top: "inception_4a/1x1"
}
layer {
  name: "inception_4a/3x3_reduce"
  type: "Convolution"
  bottom: "pool3/3x3_s2"
  top: "inception_4a/3x3_reduce"
  param {
    lr_mult: 1
    decay_mult: 1
  }
  param {
    lr_mult: 2
    decay_mult: 0
  }
  convolution_param {
    num_output: 96
    kernel_size: 1
    weight_filler {
      type: "xavier"
    }
    bias_filler {
      type: "constant"
      value: 0.2
    }
  }
}
layer {
  name: "inception_4a/relu_3x3_reduce"
  type: "ReLU"
  bottom: "inception_4a/3x3_reduce"
  top: "inception_4a/3x3_reduce"
}
layer {
  name: "inception_4a/3x3"
  type: "Convolution"
  bottom: "inception_4a/3x3_reduce"
  top: "inception_4a/3x3"
  param {
    lr_mult: 1
    decay_mult: 1
  }
  param {
    lr_mult: 2
    decay_mult: 0
  }
  convolution_param {
    num_output: 208
    pad: 1
    kernel_size: 3
    weight_filler {
      type: "xavier"
    }
    bias_filler {
      type: "constant"
      value: 0.2
    }
  }
}
layer {
  name: "inception_4a/relu_3x3"
  type: "ReLU"
  bottom: "inception_4a/3x3"
  top: "inception_4a/3x3"
}
layer {
  name: "inception_4a/5x5_reduce"
  type: "Convolution"
  bottom: "pool3/3x3_s2"
  top: "inception_4a/5x5_reduce"
  param {
    lr_mult: 1
    decay_mult: 1
  }
  param {
    lr_mult: 2
    decay_mult: 0
  }
  convolution_param {
    num_output: 16
    kernel_size: 1
    weight_filler {
      type: "xavier"
    }
    bias_filler {
      type: "constant"
      value: 0.2
    }
  }
}
layer {
  name: "inception_4a/relu_5x5_reduce"
  type: "ReLU"
  bottom: "inception_4a/5x5_reduce"
  top: "inception_4a/5x5_reduce"
}
layer {
  name: "inception_4a/5x5"
  type: "Convolution"
  bottom: "inception_4a/5x5_reduce"
  top: "inception_4a/5x5"
  param {
    lr_mult: 1
    decay_mult: 1
  }
  param {
    lr_mult: 2
    decay_mult: 0
  }
  convolution_param {
    num_output: 48
    pad: 2
    kernel_size: 5
    weight_filler {
      type: "xavier"
    }
    bias_filler {
      type: "constant"
      value: 0.2
    }
  }
}
layer {
  name: "inception_4a/relu_5x5"
  type: "ReLU"
  bottom: "inception_4a/5x5"
  top: "inception_4a/5x5"
}
layer {
  name: "inception_4a/pool"
  type: "Pooling"
  bottom: "pool3/3x3_s2"
  top: "inception_4a/pool"
  pooling_param {
    pool: MAX
    kernel_size: 3
    stride: 1
    pad: 1
  }
}
layer {
  name: "inception_4a/pool_proj"
  type: "Convolution"
  bottom: "inception_4a/pool"
  top: "inception_4a/pool_proj"
  param {
    lr_mult: 1
    decay_mult: 1
  }
  param {
    lr_mult: 2
    decay_mult: 0
  }
  convolution_param {
    num_output: 64
    kernel_size: 1
    weight_filler {
      type: "xavier"
    }
    bias_filler {
      type: "constant"
      value: 0.2
    }
  }
}
layer {
  name: "inception_4a/relu_pool_proj"
  type: "ReLU"
  bottom: "inception_4a/pool_proj"
  top: "inception_4a/pool_proj"
}
layer {
  name: "inception_4a/output"
  type: "Concat"
  bottom: "inception_4a/1x1"
  bottom: "inception_4a/3x3"
  bottom: "inception_4a/5x5"
  bottom: "inception_4a/pool_proj"
  top: "inception_4a/output"
}
layer {
  name: "loss1/ave_pool"
  type: "Pooling"
  bottom: "inception_4a/output"
  top: "loss1/ave_pool"
  pooling_param {
    pool: AVE
    kernel_size: 5
    stride: 3
  }
}
layer {
  name: "loss1/conv"
  type: "Convolution"
  bottom: "loss1/ave_pool"
  top: "loss1/conv"
  param {
    lr_mult: 1
    decay_mult: 1
  }
  param {
    lr_mult: 2
    decay_mult: 0
  }
  convolution_param {
    num_output: 128
    kernel_size: 1
    weight_filler {
      type: "xavier"
    }
    bias_filler {
      type: "constant"
      value: 0.2
    }
  }
}
layer {
  name: "loss1/relu_conv"
  type: "ReLU"
  bottom: "loss1/conv"
  top: "loss1/conv"
}
layer {
  name: "loss1/fc"
  type: "InnerProduct"
  bottom: "loss1/conv"
  top: "loss1/fc"
  param {
    lr_mult: 1
    decay_mult: 1
  }
  param {
    lr_mult: 2
    decay_mult: 0
  }
  inner_product_param {
    num_output: 1024
    weight_filler {
      type: "xavier"
    }
    bias_filler {
      type: "constant"
      value: 0.2
    }
  }
}
layer {
  name: "loss1/relu_fc"
  type: "ReLU"
  bottom: "loss1/fc"
  top: "loss1/fc"
}
layer {
  name: "loss1/drop_fc"
  type: "Dropout"
  bottom: "loss1/fc"
  top: "loss1/fc"
  dropout_param {
    dropout_ratio: 0.7
  }
}
layer {
  name: "loss1/classifier"
  type: "InnerProduct"
  bottom: "loss1/fc"
  top: "loss1/classifier"
  param {
    lr_mult: 1
    decay_mult: 1
  }
  param {
    lr_mult: 2
    decay_mult: 0
  }
  inner_product_param {
    num_output: 2
    weight_filler {
      type: "xavier"
    }
    bias_filler {
      type: "constant"
      value: 0
    }
  }
}
layer {
  name: "loss1/loss"
  type: "SoftmaxWithLoss"
  bottom: "loss1/classifier"
  bottom: "label"
  top: "loss1/loss1"
  loss_weight: 0.3
}
layer {
  name: "loss1/top-1"
  type: "Accuracy"
  bottom: "loss1/classifier"
  bottom: "label"
  top: "loss1/top-1"
  include {
    phase: TEST
  }
}
layer {
  name: "inception_4b/1x1"
  type: "Convolution"
  bottom: "inception_4a/output"
  top: "inception_4b/1x1"
  param {
    lr_mult: 1
    decay_mult: 1
  }
  param {
    lr_mult: 2
    decay_mult: 0
  }
  convolution_param {
    num_output: 160
    kernel_size: 1
    weight_filler {
      type: "xavier"
    }
    bias_filler {
      type: "constant"
      value: 0.2
    }
  }
}
layer {
  name: "inception_4b/relu_1x1"
  type: "ReLU"
  bottom: "inception_4b/1x1"
  top: "inception_4b/1x1"
}
layer {
  name: "inception_4b/3x3_reduce"
  type: "Convolution"
  bottom: "inception_4a/output"
  top: "inception_4b/3x3_reduce"
  param {
    lr_mult: 1
    decay_mult: 1
  }
  param {
    lr_mult: 2
    decay_mult: 0
  }
  convolution_param {
    num_output: 112
    kernel_size: 1
    weight_filler {
      type: "xavier"
    }
    bias_filler {
      type: "constant"
      value: 0.2
    }
  }
}
layer {
  name: "inception_4b/relu_3x3_reduce"
  type: "ReLU"
  bottom: "inception_4b/3x3_reduce"
  top: "inception_4b/3x3_reduce"
}
layer {
  name: "inception_4b/3x3"
  type: "Convolution"
  bottom: "inception_4b/3x3_reduce"
  top: "inception_4b/3x3"
  param {
    lr_mult: 1
    decay_mult: 1
  }
  param {
    lr_mult: 2
    decay_mult: 0
  }
  convolution_param {
    num_output: 224
    pad: 1
    kernel_size: 3
    weight_filler {
      type: "xavier"
    }
    bias_filler {
      type: "constant"
      value: 0.2
    }
  }
}
layer {
  name: "inception_4b/relu_3x3"
  type: "ReLU"
  bottom: "inception_4b/3x3"
  top: "inception_4b/3x3"
}
layer {
  name: "inception_4b/5x5_reduce"
  type: "Convolution"
  bottom: "inception_4a/output"
  top: "inception_4b/5x5_reduce"
  param {
    lr_mult: 1
    decay_mult: 1
  }
  param {
    lr_mult: 2
    decay_mult: 0
  }
  convolution_param {
    num_output: 24
    kernel_size: 1
    weight_filler {
      type: "xavier"
    }
    bias_filler {
      type: "constant"
      value: 0.2
    }
  }
}
layer {
  name: "inception_4b/relu_5x5_reduce"
  type: "ReLU"
  bottom: "inception_4b/5x5_reduce"
  top: "inception_4b/5x5_reduce"
}
layer {
  name: "inception_4b/5x5"
  type: "Convolution"
  bottom: "inception_4b/5x5_reduce"
  top: "inception_4b/5x5"
  param {
    lr_mult: 1
    decay_mult: 1
  }
  param {
    lr_mult: 2
    decay_mult: 0
  }
  convolution_param {
    num_output: 64
    pad: 2
    kernel_size: 5
    weight_filler {
      type: "xavier"
    }
    bias_filler {
      type: "constant"
      value: 0.2
    }
  }
}
layer {
  name: "inception_4b/relu_5x5"
  type: "ReLU"
  bottom: "inception_4b/5x5"
  top: "inception_4b/5x5"
}
layer {
  name: "inception_4b/pool"
  type: "Pooling"
  bottom: "inception_4a/output"
  top: "inception_4b/pool"
  pooling_param {
    pool: MAX
    kernel_size: 3
    stride: 1
    pad: 1
  }
}
layer {
  name: "inception_4b/pool_proj"
  type: "Convolution"
  bottom: "inception_4b/pool"
  top: "inception_4b/pool_proj"
  param {
    lr_mult: 1
    decay_mult: 1
  }
  param {
    lr_mult: 2
    decay_mult: 0
  }
  convolution_param {
    num_output: 64
    kernel_size: 1
    weight_filler {
      type: "xavier"
    }
    bias_filler {
      type: "constant"
      value: 0.2
    }
  }
}
layer {
  name: "inception_4b/relu_pool_proj"
  type: "ReLU"
  bottom: "inception_4b/pool_proj"
  top: "inception_4b/pool_proj"
}
layer {
  name: "inception_4b/output"
  type: "Concat"
  bottom: "inception_4b/1x1"
  bottom: "inception_4b/3x3"
  bottom: "inception_4b/5x5"
  bottom: "inception_4b/pool_proj"
  top: "inception_4b/output"
}
layer {
  name: "inception_4c/1x1"
  type: "Convolution"
  bottom: "inception_4b/output"
  top: "inception_4c/1x1"
  param {
    lr_mult: 1
    decay_mult: 1
  }
  param {
    lr_mult: 2
    decay_mult: 0
  }
  convolution_param {
    num_output: 128
    kernel_size: 1
    weight_filler {
      type: "xavier"
    }
    bias_filler {
      type: "constant"
      value: 0.2
    }
  }
}
layer {
  name: "inception_4c/relu_1x1"
  type: "ReLU"
  bottom: "inception_4c/1x1"
  top: "inception_4c/1x1"
}
layer {
  name: "inception_4c/3x3_reduce"
  type: "Convolution"
  bottom: "inception_4b/output"
  top: "inception_4c/3x3_reduce"
  param {
    lr_mult: 1
    decay_mult: 1
  }
  param {
    lr_mult: 2
    decay_mult: 0
  }
  convolution_param {
    num_output: 128
    kernel_size: 1
    weight_filler {
      type: "xavier"
    }
    bias_filler {
      type: "constant"
      value: 0.2
    }
  }
}
layer {
  name: "inception_4c/relu_3x3_reduce"
  type: "ReLU"
  bottom: "inception_4c/3x3_reduce"
  top: "inception_4c/3x3_reduce"
}
layer {
  name: "inception_4c/3x3"
  type: "Convolution"
  bottom: "inception_4c/3x3_reduce"
  top: "inception_4c/3x3"
  param {
    lr_mult: 1
    decay_mult: 1
  }
  param {
    lr_mult: 2
    decay_mult: 0
  }
  convolution_param {
    num_output: 256
    pad: 1
    kernel_size: 3
    weight_filler {
      type: "xavier"
    }
    bias_filler {
      type: "constant"
      value: 0.2
    }
  }
}
layer {
  name: "inception_4c/relu_3x3"
  type: "ReLU"
  bottom: "inception_4c/3x3"
  top: "inception_4c/3x3"
}
layer {
  name: "inception_4c/5x5_reduce"
  type: "Convolution"
  bottom: "inception_4b/output"
  top: "inception_4c/5x5_reduce"
  param {
    lr_mult: 1
    decay_mult: 1
  }
  param {
    lr_mult: 2
    decay_mult: 0
  }
  convolution_param {
    num_output: 24
    kernel_size: 1
    weight_filler {
      type: "xavier"
    }
    bias_filler {
      type: "constant"
      value: 0.2
    }
  }
}
layer {
  name: "inception_4c/relu_5x5_reduce"
  type: "ReLU"
  bottom: "inception_4c/5x5_reduce"
  top: "inception_4c/5x5_reduce"
}
layer {
  name: "inception_4c/5x5"
  type: "Convolution"
  bottom: "inception_4c/5x5_reduce"
  top: "inception_4c/5x5"
  param {
    lr_mult: 1
    decay_mult: 1
  }
  param {
    lr_mult: 2
    decay_mult: 0
  }
  convolution_param {
    num_output: 64
    pad: 2
    kernel_size: 5
    weight_filler {
      type: "xavier"
    }
    bias_filler {
      type: "constant"
      value: 0.2
    }
  }
}
layer {
  name: "inception_4c/relu_5x5"
  type: "ReLU"
  bottom: "inception_4c/5x5"
  top: "inception_4c/5x5"
}
layer {
  name: "inception_4c/pool"
  type: "Pooling"
  bottom: "inception_4b/output"
  top: "inception_4c/pool"
  pooling_param {
    pool: MAX
    kernel_size: 3
    stride: 1
    pad: 1
  }
}
layer {
  name: "inception_4c/pool_proj"
  type: "Convolution"
  bottom: "inception_4c/pool"
  top: "inception_4c/pool_proj"
  param {
    lr_mult: 1
    decay_mult: 1
  }
  param {
    lr_mult: 2
    decay_mult: 0
  }
  convolution_param {
    num_output: 64
    kernel_size: 1
    weight_filler {
      type: "xavier"
    }
    bias_filler {
      type: "constant"
      value: 0.2
    }
  }
}
layer {
  name: "inception_4c/relu_pool_proj"
  type: "ReLU"
  bottom: "inception_4c/pool_proj"
  top: "inception_4c/pool_proj"
}
layer {
  name: "inception_4c/output"
  type: "Concat"
  bottom: "inception_4c/1x1"
  bottom: "inception_4c/3x3"
  bottom: "inception_4c/5x5"
  bottom: "inception_4c/pool_proj"
  top: "inception_4c/output"
}
layer {
  name: "inception_4d/1x1"
  type: "Convolution"
  bottom: "inception_4c/output"
  top: "inception_4d/1x1"
  param {
    lr_mult: 1
    decay_mult: 1
  }
  param {
    lr_mult: 2
    decay_mult: 0
  }
  convolution_param {
    num_output: 112
    kernel_size: 1
    weight_filler {
      type: "xavier"
    }
    bias_filler {
      type: "constant"
      value: 0.2
    }
  }
}
layer {
  name: "inception_4d/relu_1x1"
  type: "ReLU"
  bottom: "inception_4d/1x1"
  top: "inception_4d/1x1"
}
layer {
  name: "inception_4d/3x3_reduce"
  type: "Convolution"
  bottom: "inception_4c/output"
  top: "inception_4d/3x3_reduce"
  param {
    lr_mult: 1
    decay_mult: 1
  }
  param {
    lr_mult: 2
    decay_mult: 0
  }
  convolution_param {
    num_output: 144
    kernel_size: 1
    weight_filler {
      type: "xavier"
    }
    bias_filler {
      type: "constant"
      value: 0.2
    }
  }
}
layer {
  name: "inception_4d/relu_3x3_reduce"
  type: "ReLU"
  bottom: "inception_4d/3x3_reduce"
  top: "inception_4d/3x3_reduce"
}
layer {
  name: "inception_4d/3x3"
  type: "Convolution"
  bottom: "inception_4d/3x3_reduce"
  top: "inception_4d/3x3"
  param {
    lr_mult: 1
    decay_mult: 1
  }
  param {
    lr_mult: 2
    decay_mult: 0
  }
  convolution_param {
    num_output: 288
    pad: 1
    kernel_size: 3
    weight_filler {
      type: "xavier"
    }
    bias_filler {
      type: "constant"
      value: 0.2
    }
  }
}
layer {
  name: "inception_4d/relu_3x3"
  type: "ReLU"
  bottom: "inception_4d/3x3"
  top: "inception_4d/3x3"
}
layer {
  name: "inception_4d/5x5_reduce"
  type: "Convolution"
  bottom: "inception_4c/output"
  top: "inception_4d/5x5_reduce"
  param {
    lr_mult: 1
    decay_mult: 1
  }
  param {
    lr_mult: 2
    decay_mult: 0
  }
  convolution_param {
    num_output: 32
    kernel_size: 1
    weight_filler {
      type: "xavier"
    }
    bias_filler {
      type: "constant"
      value: 0.2
    }
  }
}
layer {
  name: "inception_4d/relu_5x5_reduce"
  type: "ReLU"
  bottom: "inception_4d/5x5_reduce"
  top: "inception_4d/5x5_reduce"
}
layer {
  name: "inception_4d/5x5"
  type: "Convolution"
  bottom: "inception_4d/5x5_reduce"
  top: "inception_4d/5x5"
  param {
    lr_mult: 1
    decay_mult: 1
  }
  param {
    lr_mult: 2
    decay_mult: 0
  }
  convolution_param {
    num_output: 64
    pad: 2
    kernel_size: 5
    weight_filler {
      type: "xavier"
    }
    bias_filler {
      type: "constant"
      value: 0.2
    }
  }
}
layer {
  name: "inception_4d/relu_5x5"
  type: "ReLU"
  bottom: "inception_4d/5x5"
  top: "inception_4d/5x5"
}
layer {
  name: "inception_4d/pool"
  type: "Pooling"
  bottom: "inception_4c/output"
  top: "inception_4d/pool"
  pooling_param {
    pool: MAX
    kernel_size: 3
    stride: 1
    pad: 1
  }
}
layer {
  name: "inception_4d/pool_proj"
  type: "Convolution"
  bottom: "inception_4d/pool"
  top: "inception_4d/pool_proj"
  param {
    lr_mult: 1
    decay_mult: 1
  }
  param {
    lr_mult: 2
    decay_mult: 0
  }
  convolution_param {
    num_output: 64
    kernel_size: 1
    weight_filler {
      type: "xavier"
    }
    bias_filler {
      type: "constant"
      value: 0.2
    }
  }
}
layer {
  name: "inception_4d/relu_pool_proj"
  type: "ReLU"
  bottom: "inception_4d/pool_proj"
  top: "inception_4d/pool_proj"
}
layer {
  name: "inception_4d/output"
  type: "Concat"
  bottom: "inception_4d/1x1"
  bottom: "inception_4d/3x3"
  bottom: "inception_4d/5x5"
  bottom: "inception_4d/pool_proj"
  top: "inception_4d/output"
}
layer {
  name: "loss2/ave_pool"
  type: "Pooling"
  bottom: "inception_4d/output"
  top: "loss2/ave_pool"
  pooling_param {
    pool: AVE
    kernel_size: 5
    stride: 3
  }
}
layer {
  name: "loss2/conv"
  type: "Convolution"
  bottom: "loss2/ave_pool"
  top: "loss2/conv"
  param {
    lr_mult: 1
    decay_mult: 1
  }
  param {
    lr_mult: 2
    decay_mult: 0
  }
  convolution_param {
    num_output: 128
    kernel_size: 1
    weight_filler {
      type: "xavier"
    }
    bias_filler {
      type: "constant"
      value: 0.2
    }
  }
}
layer {
  name: "loss2/relu_conv"
  type: "ReLU"
  bottom: "loss2/conv"
…
I0714 15:37:05.414575 60340 net.cpp:433] inception_4b/output_inception_4b/output_0_split -> inception_4b/output_inception_4b/output_0_split_3
I0714 15:37:05.414610 60340 net.cpp:155] Setting up inception_4b/output_inception_4b/output_0_split
I0714 15:37:05.414641 60340 net.cpp:163] Top shape: 32 512 14 14 (3211264)
I0714 15:37:05.414672 60340 net.cpp:163] Top shape: 32 512 14 14 (3211264)
I0714 15:37:05.414692 60340 net.cpp:163] Top shape: 32 512 14 14 (3211264)
I0714 15:37:05.414719 60340 net.cpp:163] Top shape: 32 512 14 14 (3211264)
I0714 15:37:05.414748 60340 layer_factory.hpp:76] Creating layer inception_4c/1x1
I0714 15:37:05.414788 60340 net.cpp:110] Creating Layer inception_4c/1x1
I0714 15:37:05.414813 60340 net.cpp:477] inception_4c/1x1 <- inception_4b/output_inception_4b/output_0_split_0
I0714 15:37:05.414849 60340 net.cpp:433] inception_4c/1x1 -> inception_4c/1x1
I0714 15:37:05.417973 60340 net.cpp:155] Setting up inception_4c/1x1
I0714 15:37:05.418030 60340 net.cpp:163] Top shape: 32 128 14 14 (802816)
I0714 15:37:05.418063 60340 layer_factory.hpp:76] Creating layer inception_4c/relu_1x1
I0714 15:37:05.418087 60340 net.cpp:110] Creating Layer inception_4c/relu_1x1
I0714 15:37:05.418103 60340 net.cpp:477] inception_4c/relu_1x1 <- inception_4c/1x1
I0714 15:37:05.418120 60340 net.cpp:419] inception_4c/relu_1x1 -> inception_4c/1x1 (in-place)
I0714 15:37:05.418578 60340 net.cpp:155] Setting up inception_4c/relu_1x1
I0714 15:37:05.421036 60340 net.cpp:163] Top shape: 32 128 14 14 (802816)
I0714 15:37:05.421394 60340 layer_factory.hpp:76] Creating layer inception_4c/3x3_reduce
I0714 15:37:05.421713 60340 net.cpp:110] Creating Layer inception_4c/3x3_reduce
I0714 15:37:05.421792 60340 net.cpp:477] inception_4c/3x3_reduce <- inception_4b/output_inception_4b/output_0_split_1
I0714 15:37:05.421926 60340 net.cpp:433] inception_4c/3x3_reduce -> inception_4c/3x3_reduce
I0714 15:37:05.436713 60340 net.cpp:155] Setting up inception_4c/3x3_reduce
I0714 15:37:05.436857 60340 net.cpp:163] Top shape: 32 128 14 14 (802816)
I0714 15:37:05.436914 60340 layer_factory.hpp:76] Creating layer inception_4c/relu_3x3_reduce
I0714 15:37:05.436990 60340 net.cpp:110] Creating Layer inception_4c/relu_3x3_reduce
I0714 15:37:05.437038 60340 net.cpp:477] inception_4c/relu_3x3_reduce <- inception_4c/3x3_reduce
I0714 15:37:05.437103 60340 net.cpp:419] inception_4c/relu_3x3_reduce -> inception_4c/3x3_reduce (in-place)
I0714 15:37:05.438220 60340 net.cpp:155] Setting up inception_4c/relu_3x3_reduce
I0714 15:37:05.438289 60340 net.cpp:163] Top shape: 32 128 14 14 (802816)
I0714 15:37:05.438325 60340 layer_factory.hpp:76] Creating layer inception_4c/3x3
I0714 15:37:05.438453 60340 net.cpp:110] Creating Layer inception_4c/3x3
I0714 15:37:05.438482 60340 net.cpp:477] inception_4c/3x3 <- inception_4c/3x3_reduce
I0714 15:37:05.438534 60340 net.cpp:433] inception_4c/3x3 -> inception_4c/3x3
I0714 15:37:05.448954 60340 net.cpp:155] Setting up inception_4c/3x3
I0714 15:37:05.449062 60340 net.cpp:163] Top shape: 32 256 14 14 (1605632)
I0714 15:37:05.449277 60340 layer_factory.hpp:76] Creating layer inception_4c/relu_3x3
I0714 15:37:05.449355 60340 net.cpp:110] Creating Layer inception_4c/relu_3x3
I0714 15:37:05.449389 60340 net.cpp:477] inception_4c/relu_3x3 <- inception_4c/3x3
I0714 15:37:05.449424 60340 net.cpp:419] inception_4c/relu_3x3 -> inception_4c/3x3 (in-place)
I0714 15:37:05.450397 60340 net.cpp:155] Setting up inception_4c/relu_3x3
I0714 15:37:05.450449 60340 net.cpp:163] Top shape: 32 256 14 14 (1605632)
I0714 15:37:05.450486 60340 layer_factory.hpp:76] Creating layer inception_4c/5x5_reduce
I0714 15:37:05.450688 60340 net.cpp:110] Creating Layer inception_4c/5x5_reduce
I0714 15:37:05.450741 60340 net.cpp:477] inception_4c/5x5_reduce <- inception_4b/output_inception_4b/output_0_split_2
I0714 15:37:05.450806 60340 net.cpp:433] inception_4c/5x5_reduce -> inception_4c/5x5_reduce
I0714 15:37:05.455040 60340 net.cpp:155] Setting up inception_4c/5x5_reduce
I0714 15:37:05.455162 60340 net.cpp:163] Top shape: 32 24 14 14 (150528)
I0714 15:37:05.455207 60340 layer_factory.hpp:76] Creating layer inception_4c/relu_5x5_reduce
I0714 15:37:05.455251 60340 net.cpp:110] Creating Layer inception_4c/relu_5x5_reduce
I0714 15:37:05.455292 60340 net.cpp:477] inception_4c/relu_5x5_reduce <- inception_4c/5x5_reduce
I0714 15:37:05.455338 60340 net.cpp:419] inception_4c/relu_5x5_reduce -> inception_4c/5x5_reduce (in-place)
I0714 15:37:05.456212 60340 net.cpp:155] Setting up inception_4c/relu_5x5_reduce
I0714 15:37:05.456257 60340 net.cpp:163] Top shape: 32 24 14 14 (150528)
I0714 15:37:05.456290 60340 layer_factory.hpp:76] Creating layer inception_4c/5x5
I0714 15:37:05.456400 60340 net.cpp:110] Creating Layer inception_4c/5x5
I0714 15:37:05.456436 60340 net.cpp:477] inception_4c/5x5 <- inception_4c/5x5_reduce
I0714 15:37:05.456490 60340 net.cpp:433] inception_4c/5x5 -> inception_4c/5x5
I0714 15:37:05.460352 60340 net.cpp:155] Setting up inception_4c/5x5
I0714 15:37:05.460451 60340 net.cpp:163] Top shape: 32 64 14 14 (401408)
I0714 15:37:05.460537 60340 layer_factory.hpp:76] Creating layer inception_4c/relu_5x5
I0714 15:37:05.460640 60340 net.cpp:110] Creating Layer inception_4c/relu_5x5
I0714 15:37:05.460681 60340 net.cpp:477] inception_4c/relu_5x5 <- inception_4c/5x5
I0714 15:37:05.460712 60340 net.cpp:419] inception_4c/relu_5x5 -> inception_4c/5x5 (in-place)
I0714 15:37:05.461875 60340 net.cpp:155] Setting up inception_4c/relu_5x5
I0714 15:37:05.461915 60340 net.cpp:163] Top shape: 32 64 14 14 (401408)
I0714 15:37:05.461944 60340 layer_factory.hpp:76] Creating layer inception_4c/pool
I0714 15:37:05.462007 60340 layer_factory.cpp:60] CUDNN does not support padding or multiple tops. Using Caffe's own pooling layer.
I0714 15:37:05.462046 60340 net.cpp:110] Creating Layer inception_4c/pool
I0714 15:37:05.462072 60340 net.cpp:477] inception_4c/pool <- inception_4b/output_inception_4b/output_0_split_3
I0714 15:37:05.462100 60340 net.cpp:433] inception_4c/pool -> inception_4c/pool
I0714 15:37:05.462136 60340 net.cpp:155] Setting up inception_4c/pool
I0714 15:37:05.462167 60340 net.cpp:163] Top shape: 32 512 14 14 (3211264)
I0714 15:37:05.462188 60340 layer_factory.hpp:76] Creating layer inception_4c/pool_proj
I0714 15:37:05.462296 60340 net.cpp:110] Creating Layer inception_4c/pool_proj
I0714 15:37:05.462342 60340 net.cpp:477] inception_4c/pool_proj <- inception_4c/pool
I0714 15:37:05.462393 60340 net.cpp:433] inception_4c/pool_proj -> inception_4c/pool_proj
I0714 15:37:05.465687 60340 net.cpp:155] Setting up inception_4c/pool_proj
I0714 15:37:05.465778 60340 net.cpp:163] Top shape: 32 64 14 14 (401408)
I0714 15:37:05.465819 60340 layer_factory.hpp:76] Creating layer inception_4c/relu_pool_proj
I0714 15:37:05.465891 60340 net.cpp:110] Creating Layer inception_4c/relu_pool_proj
I0714 15:37:05.465916 60340 net.cpp:477] inception_4c/relu_pool_proj <- inception_4c/pool_proj
I0714 15:37:05.465957 60340 net.cpp:419] inception_4c/relu_pool_proj -> inception_4c/pool_proj (in-place)
I0714 15:37:05.466927 60340 net.cpp:155] Setting up inception_4c/relu_pool_proj
I0714 15:37:05.466970 60340 net.cpp:163] Top shape: 32 64 14 14 (401408)
I0714 15:37:05.467025 60340 layer_factory.hpp:76] Creating layer inception_4c/output
I0714 15:37:05.467077 60340 net.cpp:110] Creating Layer inception_4c/output
I0714 15:37:05.467103 60340 net.cpp:477] inception_4c/output <- inception_4c/1x1
I0714 15:37:05.467121 60340 net.cpp:477] inception_4c/output <- inception_4c/3x3
I0714 15:37:05.467136 60340 net.cpp:477] inception_4c/output <- inception_4c/5x5
I0714 15:37:05.467151 60340 net.cpp:477] inception_4c/output <- inception_4c/pool_proj
I0714 15:37:05.467166 60340 net.cpp:433] inception_4c/output -> inception_4c/output
I0714 15:37:05.467226 60340 net.cpp:155] Setting up inception_4c/output
I0714 15:37:05.467257 60340 net.cpp:163] Top shape: 32 512 14 14 (3211264)
I0714 15:37:05.467284 60340 layer_factory.hpp:76] Creating layer inception_4c/output_inception_4c/output_0_split
I0714 15:37:05.467329 60340 net.cpp:110] Creating Layer inception_4c/output_inception_4c/output_0_split
I0714 15:37:05.467352 60340 net.cpp:477] inception_4c/output_inception_4c/output_0_split <- inception_4c/output
I0714 15:37:05.467391 60340 net.cpp:433] inception_4c/output_inception_4c/output_0_split -> inception_4c/output_inception_4c/output_0_split_0
I0714 15:37:05.467434 60340 net.cpp:433] inception_4c/output_inception_4c/output_0_split -> inception_4c/output_inception_4c/output_0_split_1
I0714 15:37:05.467461 60340 net.cpp:433] inception_4c/output_inception_4c/output_0_split -> inception_4c/output_inception_4c/output_0_split_2
I0714 15:37:05.467499 60340 net.cpp:433] inception_4c/output_inception_4c/output_0_split -> inception_4c/output_inception_4c/output_0_split_3
I0714 15:37:05.467536 60340 net.cpp:155] Setting up inception_4c/output_inception_4c/output_0_split
I0714 15:37:05.467591 60340 net.cpp:163] Top shape: 32 512 14 14 (3211264)
I0714 15:37:05.467628 60340 net.cpp:163] Top shape: 32 512 14 14 (3211264)
I0714 15:37:05.467669 60340 net.cpp:163] Top shape: 32 512 14 14 (3211264)
I0714 15:37:05.467752 60340 net.cpp:163] Top shape: 32 512 14 14 (3211264)
I0714 15:37:05.467794 60340 layer_factory.hpp:76] Creating layer inception_4d/1x1
I0714 15:37:05.467902 60340 net.cpp:110] Creating Layer inception_4d/1x1
I0714 15:37:05.467926 60340 net.cpp:477] inception_4d/1x1 <- inception_4c/output_inception_4c/output_0_split_0
I0714 15:37:05.467954 60340 net.cpp:433] inception_4d/1x1 -> inception_4d/1x1
I0714 15:37:05.471266 60340 net.cpp:155] Setting up inception_4d/1x1
I0714 15:37:05.471313 60340 net.cpp:163] Top shape: 32 112 14 14 (702464)
I0714 15:37:05.471369 60340 layer_factory.hpp:76] Creating layer inception_4d/relu_1x1
I0714 15:37:05.471400 60340 net.cpp:110] Creating Layer inception_4d/relu_1x1
I0714 15:37:05.471417 60340 net.cpp:477] inception_4d/relu_1x1 <- inception_4d/1x1
I0714 15:37:05.471438 60340 net.cpp:419] inception_4d/relu_1x1 -> inception_4d/1x1 (in-place)
I0714 15:37:05.471793 60340 net.cpp:155] Setting up inception_4d/relu_1x1
I0714 15:37:05.471820 60340 net.cpp:163] Top shape: 32 112 14 14 (702464)
I0714 15:37:05.471844 60340 layer_factory.hpp:76] Creating layer inception_4d/3x3_reduce
I0714 15:37:05.471889 60340 net.cpp:110] Creating Layer inception_4d/3x3_reduce
I0714 15:37:05.471915 60340 net.cpp:477] inception_4d/3x3_reduce <- inception_4c/output_inception_4c/output_0_split_1
I0714 15:37:05.471940 60340 net.cpp:433] inception_4d/3x3_reduce -> inception_4d/3x3_reduce
I0714 15:37:05.474835 60340 net.cpp:155] Setting up inception_4d/3x3_reduce
I0714 15:37:05.474879 60340 net.cpp:163] Top shape: 32 144 14 14 (903168)
I0714 15:37:05.474900 60340 layer_factory.hpp:76] Creating layer inception_4d/relu_3x3_reduce
I0714 15:37:05.474933 60340 net.cpp:110] Creating Layer inception_4d/relu_3x3_reduce
I0714 15:37:05.474951 60340 net.cpp:477] inception_4d/relu_3x3_reduce <- inception_4d/3x3_reduce
I0714 15:37:05.474964 60340 net.cpp:419] inception_4d/relu_3x3_reduce -> inception_4d/3x3_reduce (in-place)
I0714 15:37:05.475639 60340 net.cpp:155] Setting up inception_4d/relu_3x3_reduce
I0714 15:37:05.475670 60340 net.cpp:163] Top shape: 32 144 14 14 (903168)
I0714 15:37:05.475682 60340 layer_factory.hpp:76] Creating layer inception_4d/3x3
I0714 15:37:05.475741 60340 net.cpp:110] Creating Layer inception_4d/3x3
I0714 15:37:05.475765 60340 net.cpp:477] inception_4d/3x3 <- inception_4d/3x3_reduce
I0714 15:37:05.475795 60340 net.cpp:433] inception_4d/3x3 -> inception_4d/3x3
I0714 15:37:05.485235 60340 net.cpp:155] Setting up inception_4d/3x3
I0714 15:37:05.485379 60340 net.cpp:163] Top shape: 32 288 14 14 (1806336)
I0714 15:37:05.485414 60340 layer_factory.hpp:76] Creating layer inception_4d/relu_3x3
I0714 15:37:05.485569 60340 net.cpp:110] Creating Layer inception_4d/relu_3x3
I0714 15:37:05.485599 60340 net.cpp:477] inception_4d/relu_3x3 <- inception_4d/3x3
I0714 15:37:05.485622 60340 net.cpp:419] inception_4d/relu_3x3 -> inception_4d/3x3 (in-place)
I0714 15:37:05.486735 60340 net.cpp:155] Setting up inception_4d/relu_3x3
I0714 15:37:05.486809 60340 net.cpp:163] Top shape: 32 288 14 14 (1806336)
I0714 15:37:05.486889 60340 layer_factory.hpp:76] Creating layer inception_4d/5x5_reduce
I0714 15:37:05.487009 60340 net.cpp:110] Creating Layer inception_4d/5x5_reduce
I0714 15:37:05.487054 60340 net.cpp:477] inception_4d/5x5_reduce <- inception_4c/output_inception_4c/output_0_split_2
I0714 15:37:05.487115 60340 net.cpp:433] inception_4d/5x5_reduce -> inception_4d/5x5_reduce
I0714 15:37:05.491161 60340 net.cpp:155] Setting up inception_4d/5x5_reduce
I0714 15:37:05.491236 60340 net.cpp:163] Top shape: 32 32 14 14 (200704)
I0714 15:37:05.491291 60340 layer_factory.hpp:76] Creating layer inception_4d/relu_5x5_reduce
I0714 15:37:05.491366 60340 net.cpp:110] Creating Layer inception_4d/relu_5x5_reduce
I0714 15:37:05.491416 60340 net.cpp:477] inception_4d/relu_5x5_reduce <- inception_4d/5x5_reduce
I0714 15:37:05.491447 60340 net.cpp:419] inception_4d/relu_5x5_reduce -> inception_4d/5x5_reduce (in-place)
I0714 15:37:05.492036 60340 net.cpp:155] Setting up inception_4d/relu_5x5_reduce
I0714 15:37:05.492099 60340 net.cpp:163] Top shape: 32 32 14 14 (200704)
I0714 15:37:05.492117 60340 layer_factory.hpp:76] Creating layer inception_4d/5x5
I0714 15:37:05.492149 60340 net.cpp:110] Creating Layer inception_4d/5x5
I0714 15:37:05.492167 60340 net.cpp:477] inception_4d/5x5 <- inception_4d/5x5_reduce
I0714 15:37:05.492185 60340 net.cpp:433] inception_4d/5x5 -> inception_4d/5x5
I0714 15:37:05.494884 60340 net.cpp:155] Setting up inception_4d/5x5
I0714 15:37:05.494938 60340 net.cpp:163] Top shape: 32 64 14 14 (401408)
I0714 15:37:05.494966 60340 layer_factory.hpp:76] Creating layer inception_4d/relu_5x5
I0714 15:37:05.494989 60340 net.cpp:110] Creating Layer inception_4d/relu_5x5
I0714 15:37:05.495009 60340 net.cpp:477] inception_4d/relu_5x5 <- inception_4d/5x5
I0714 15:37:05.495048 60340 net.cpp:419] inception_4d/relu_5x5 -> inception_4d/5x5 (in-place)
I0714 15:37:05.495823 60340 net.cpp:155] Setting up inception_4d/relu_5x5
I0714 15:37:05.495854 60340 net.cpp:163] Top shape: 32 64 14 14 (401408)
I0714 15:37:05.495911 60340 layer_factory.hpp:76] Creating layer inception_4d/pool
I0714 15:37:05.495936 60340 layer_factory.cpp:60] CUDNN does not support padding or multiple tops. Using Caffe's own pooling layer.
I0714 15:37:05.495955 60340 net.cpp:110] Creating Layer inception_4d/pool
I0714 15:37:05.495975 60340 net.cpp:477] inception_4d/pool <- inception_4c/output_inception_4c/output_0_split_3
I0714 15:37:05.495995 60340 net.cpp:433] inception_4d/pool -> inception_4d/pool
I0714 15:37:05.496029 60340 net.cpp:155] Setting up inception_4d/pool
I0714 15:37:05.496045 60340 net.cpp:163] Top shape: 32 512 14 14 (3211264)
I0714 15:37:05.496057 60340 layer_factory.hpp:76] Creating layer inception_4d/pool_proj
I0714 15:37:05.496110 60340 net.cpp:110] Creating Layer inception_4d/pool_proj
I0714 15:37:05.496127 60340 net.cpp:477] inception_4d/pool_proj <- inception_4d/pool
I0714 15:37:05.496146 60340 net.cpp:433] inception_4d/pool_proj -> inception_4d/pool_proj
I0714 15:37:05.498566 60340 net.cpp:155] Setting up inception_4d/pool_proj
I0714 15:37:05.498610 60340 net.cpp:163] Top shape: 32 64 14 14 (401408)
I0714 15:37:05.498641 60340 layer_factory.hpp:76] Creating layer inception_4d/relu_pool_proj
I0714 15:37:05.498716 60340 net.cpp:110] Creating Layer inception_4d/relu_pool_proj
I0714 15:37:05.498744 60340 net.cpp:477] inception_4d/relu_pool_proj <- inception_4d/pool_proj
I0714 15:37:05.498769 60340 net.cpp:419] inception_4d/relu_pool_proj -> inception_4d/pool_proj (in-place)
I0714 15:37:05.499603 60340 net.cpp:155] Setting up inception_4d/relu_pool_proj
I0714 15:37:05.499632 60340 net.cpp:163] Top shape: 32 64 14 14 (401408)
I0714 15:37:05.499657 60340 layer_factory.hpp:76] Creating layer inception_4d/output
I0714 15:37:05.499730 60340 net.cpp:110] Creating Layer inception_4d/output
I0714 15:37:05.499763 60340 net.cpp:477] inception_4d/output <- inception_4d/1x1
I0714 15:37:05.499785 60340 net.cpp:477] inception_4d/output <- inception_4d/3x3
I0714 15:37:05.499806 60340 net.cpp:477] inception_4d/output <- inception_4d/5x5
I0714 15:37:05.499833 60340 net.cpp:477] inception_4d/output <- inception_4d/pool_proj
I0714 15:37:05.499856 60340 net.cpp:433] inception_4d/output -> inception_4d/output
I0714 15:37:05.499893 60340 net.cpp:155] Setting up inception_4d/output
I0714 15:37:05.499927 60340 net.cpp:163] Top shape: 32 528 14 14 (3311616)
I0714 15:37:05.499951 60340 layer_factory.hpp:76] Creating layer inception_4d/output_inception_4d/output_0_split
I0714 15:37:05.500036 60340 net.cpp:110] Creating Layer inception_4d/output_inception_4d/output_0_split
I0714 15:37:05.500083 60340 net.cpp:477] inception_4d/output_inception_4d/output_0_split <- inception_4d/output
I0714 15:37:05.500128 60340 net.cpp:433] inception_4d/output_inception_4d/output_0_split -> inception_4d/output_inception_4d/output_0_split_0
I0714 15:37:05.500200 60340 net.cpp:433] inception_4d/output_inception_4d/output_0_split -> inception_4d/output_inception_4d/output_0_split_1
I0714 15:37:05.500254 60340 net.cpp:433] inception_4d/output_inception_4d/output_0_split -> inception_4d/output_inception_4d/output_0_split_2
I0714 15:37:05.500273 60340 net.cpp:433] inception_4d/output_inception_4d/output_0_split -> inception_4d/output_inception_4d/output_0_split_3
I0714 15:37:05.500293 60340 net.cpp:433] inception_4d/output_inception_4d/output_0_split -> inception_4d/output_inception_4d/output_0_split_4
I0714 15:37:05.500311 60340 net.cpp:155] Setting up inception_4d/output_inception_4d/output_0_split
I0714 15:37:05.500332 60340 net.cpp:163] Top shape: 32 528 14 14 (3311616)
I0714 15:37:05.500357 60340 net.cpp:163] Top shape: 32 528 14 14 (3311616)
I0714 15:37:05.500399 60340 net.cpp:163] Top shape: 32 528 14 14 (3311616)
I0714 15:37:05.500447 60340 net.cpp:163] Top shape: 32 528 14 14 (3311616)
I0714 15:37:05.500488 60340 net.cpp:163] Top shape: 32 528 14 14 (3311616)
I0714 15:37:05.500522 60340 layer_factory.hpp:76] Creating layer loss2/ave_pool
I0714 15:37:05.500587 60340 net.cpp:110] Creating Layer loss2/ave_pool
I0714 15:37:05.500610 60340 net.cpp:477] loss2/ave_pool <- inception_4d/output_inception_4d/output_0_split_0
I0714 15:37:05.500684 60340 net.cpp:433] loss2/ave_pool -> loss2/ave_pool
I0714 15:37:05.501709 60340 net.cpp:155] Setting up loss2/ave_pool
I0714 15:37:05.501760 60340 net.cpp:163] Top shape: 32 528 4 4 (270336)
I0714 15:37:05.501785 60340 layer_factory.hpp:76] Creating layer loss2/conv
I0714 15:37:05.501865 60340 net.cpp:110] Creating Layer loss2/conv
I0714 15:37:05.501894 60340 net.cpp:477] loss2/conv <- loss2/ave_pool
I0714 15:37:05.501924 60340 net.cpp:433] loss2/conv -> loss2/conv
I0714 15:37:05.508093 60340 net.cpp:155] Setting up loss2/conv
I0714 15:37:05.508190 60340 net.cpp:163] Top shape: 32 128 4 4 (65536)
I0714 15:37:05.508242 60340 layer_factory.hpp:76] Creating layer loss2/relu_conv
I0714 15:37:05.508285 60340 net.cpp:110] Creating Layer loss2/relu_conv
I0714 15:37:05.508322 60340 net.cpp:477] loss2/relu_conv <- loss2/conv
I0714 15:37:05.508350 60340 net.cpp:419] loss2/relu_conv -> loss2/conv (in-place)
I0714 15:37:05.509131 60340 net.cpp:155] Setting up loss2/relu_conv
I0714 15:37:05.509167 60340 net.cpp:163] Top shape: 32 128 4 4 (65536)
I0714 15:37:05.509184 60340 layer_factory.hpp:76] Creating layer loss2/fc
I0714 15:37:05.509235 60340 net.cpp:110] Creating Layer loss2/fc
I0714 15:37:05.509256 60340 net.cpp:477] loss2/fc <- loss2/conv
I0714 15:37:05.509279 60340 net.cpp:433] loss2/fc -> loss2/fc
I0714 15:37:05.548095 60340 net.cpp:155] Setting up loss2/fc
I0714 15:37:05.548171 60340 net.cpp:163] Top shape: 32 1024 (32768)
I0714 15:37:05.548238 60340 layer_factory.hpp:76] Creating layer loss2/relu_fc
I0714 15:37:05.548365 60340 net.cpp:110] Creating Layer loss2/relu_fc
I0714 15:37:05.548396 60340 net.cpp:477] loss2/relu_fc <- loss2/fc
I0714 15:37:05.548470 60340 net.cpp:419] loss2/relu_fc -> loss2/fc (in-place)
I0714 15:37:05.549146 60340 net.cpp:155] Setting up loss2/relu_fc
I0714 15:37:05.549180 60340 net.cpp:163] Top shape: 32 1024 (32768)
I0714 15:37:05.549199 60340 layer_factory.hpp:76] Creating layer loss2/drop_fc
I0714 15:37:05.549266 60340 net.cpp:110] Creating Layer loss2/drop_fc
I0714 15:37:05.549291 60340 net.cpp:477] loss2/drop_fc <- loss2/fc
I0714 15:37:05.549309 60340 net.cpp:419] loss2/drop_fc -> loss2/fc (in-place)
I0714 15:37:05.549331 60340 net.cpp:155] Setting up loss2/drop_fc
I0714 15:37:05.549342 60340 net.cpp:163] Top shape: 32 1024 (32768)
I0714 15:37:05.549355 60340 layer_factory.hpp:76] Creating layer loss2/classifier
I0714 15:37:05.549391 60340 net.cpp:110] Creating Layer loss2/classifier
I0714 15:37:05.549414 60340 net.cpp:477] loss2/classifier <- loss2/fc
I0714 15:37:05.549443 60340 net.cpp:433] loss2/classifier -> loss2/classifier
I0714 15:37:05.549960 60340 net.cpp:155] Setting up loss2/classifier
I0714 15:37:05.549986 60340 net.cpp:163] Top shape: 32 2 (64)
I0714 15:37:05.550010 60340 layer_factory.hpp:76] Creating layer loss2/classifier_loss2/classifier_0_split
I0714 15:37:05.550058 60340 net.cpp:110] Creating Layer loss2/classifier_loss2/classifier_0_split
I0714 15:37:05.550081 60340 net.cpp:477] loss2/classifier_loss2/classifier_0_split <- loss2/classifier
I0714 15:37:05.550104 60340 net.cpp:433] loss2/classifier_loss2/classifier_0_split -> loss2/classifier_loss2/classifier_0_split_0
I0714 15:37:05.550132 60340 net.cpp:433] loss2/classifier_loss2/classifier_0_split -> loss2/classifier_loss2/classifier_0_split_1
I0714 15:37:05.550154 60340 net.cpp:155] Setting up loss2/classifier_loss2/classifier_0_split
I0714 15:37:05.550165 60340 net.cpp:163] Top shape: 32 2 (64)
I0714 15:37:05.550191 60340 net.cpp:163] Top shape: 32 2 (64)
I0714 15:37:05.550201 60340 layer_factory.hpp:76] Creating layer loss2/loss
I0714 15:37:05.550225 60340 net.cpp:110] Creating Layer loss2/loss
I0714 15:37:05.550241 60340 net.cpp:477] loss2/loss <- loss2/classifier_loss2/classifier_0_split_0
I0714 15:37:05.550259 60340 net.cpp:477] loss2/loss <- label_data_1_split_2
I0714 15:37:05.550276 60340 net.cpp:433] loss2/loss -> loss2/loss1
I0714 15:37:05.550297 60340 layer_factory.hpp:76] Creating layer loss2/loss
…
I0714 15:37:05.551621 60340 net.cpp:433] loss2/top-1 -> loss2/top-1
I0714 15:37:05.551664 60340 net.cpp:155] Setting up loss2/top-1
I0714 15:37:05.551682 60340 net.cpp:163] Top shape: (1)
I0714 15:37:05.551702 60340 layer_factory.hpp:76] Creating layer inception_4e/1x1
I0714 15:37:05.551739 60340 net.cpp:110] Creating Layer inception_4e/1x1
I0714 15:37:05.551780 60340 net.cpp:477] inception_4e/1x1 <- inception_4d/output_inception_4d/output_0_split_1
I0714 15:37:05.551811 60340 net.cpp:433] inception_4e/1x1 -> inception_4e/1x1
I0714 15:37:05.555745 60340 net.cpp:155] Setting up inception_4e/1x1
I0714 15:37:05.555780 60340 net.cpp:163] Top shape: 32 256 14 14 (1605632)
I0714 15:37:05.555819 60340 layer_factory.hpp:76] Creating layer inception_4e/relu_1x1
I0714 15:37:05.555847 60340 net.cpp:110] Creating Layer inception_4e/relu_1x1
I0714 15:37:05.555871 60340 net.cpp:477] inception_4e/relu_1x1 <- inception_4e/1x1
I0714 15:37:05.555893 60340 net.cpp:419] inception_4e/relu_1x1 -> inception_4e/1x1 (in-place)
I0714 15:37:05.556253 60340 net.cpp:155] Setting up inception_4e/relu_1x1
I0714 15:37:05.556293 60340 net.cpp:163] Top shape: 32 256 14 14 (1605632)
I0714 15:37:05.556340 60340 layer_factory.hpp:76] Creating layer inception_4e/3x3_reduce
I0714 15:37:05.556437 60340 net.cpp:110] Creating Layer inception_4e/3x3_reduce
I0714 15:37:05.556450 60340 net.cpp:477] inception_4e/3x3_reduce <- inception_4d/output_inception_4d/output_0_split_2
I0714 15:37:05.556463 60340 net.cpp:433] inception_4e/3x3_reduce -> inception_4e/3x3_reduce
I0714 15:37:05.567690 60340 net.cpp:155] Setting up inception_4e/3x3_reduce
I0714 15:37:05.567796 60340 net.cpp:163] Top shape: 32 160 14 14 (1003520)
I0714 15:37:05.567850 60340 layer_factory.hpp:76] Creating layer inception_4e/relu_3x3_reduce
I0714 15:37:05.567904 60340 net.cpp:110] Creating Layer inception_4e/relu_3x3_reduce
I0714 15:37:05.567942 60340 net.cpp:477] inception_4e/relu_3x3_reduce <- inception_4e/3x3_reduce
I0714 15:37:05.567984 60340 net.cpp:419] inception_4e/relu_3x3_reduce -> inception_4e/3x3_reduce (in-place)
I0714 15:37:05.569205 60340 net.cpp:155] Setting up inception_4e/relu_3x3_reduce
I0714 15:37:05.569257 60340 net.cpp:163] Top shape: 32 160 14 14 (1003520)
I0714 15:37:05.569283 60340 layer_factory.hpp:76] Creating layer inception_4e/3x3
I0714 15:37:05.569936 60340 net.cpp:110] Creating Layer inception_4e/3x3
I0714 15:37:05.570019 60340 net.cpp:477] inception_4e/3x3 <- inception_4e/3x3_reduce
I0714 15:37:05.570062 60340 net.cpp:433] inception_4e/3x3 -> inception_4e/3x3
I0714 15:37:05.583336 60340 net.cpp:155] Setting up inception_4e/3x3
I0714 15:37:05.583381 60340 net.cpp:163] Top shape: 32 320 14 14 (2007040)
I0714 15:37:05.583400 60340 layer_factory.hpp:76] Creating layer inception_4e/relu_3x3
I0714 15:37:05.583417 60340 net.cpp:110] Creating Layer inception_4e/relu_3x3
I0714 15:37:05.583430 60340 net.cpp:477] inception_4e/relu_3x3 <- inception_4e/3x3
I0714 15:37:05.583444 60340 net.cpp:419] inception_4e/relu_3x3 -> inception_4e/3x3 (in-place)
I0714 15:37:05.583842 60340 net.cpp:155] Setting up inception_4e/relu_3x3
I0714 15:37:05.583860 60340 net.cpp:163] Top shape: 32 320 14 14 (2007040)
I0714 15:37:05.583878 60340 layer_factory.hpp:76] Creating layer inception_4e/5x5_reduce
I0714 15:37:05.583895 60340 net.cpp:110] Creating Layer inception_4e/5x5_reduce
I0714 15:37:05.583905 60340 net.cpp:477] inception_4e/5x5_reduce <- inception_4d/output_inception_4d/output_0_split_3
I0714 15:37:05.583916 60340 net.cpp:433] inception_4e/5x5_reduce -> inception_4e/5x5_reduce
I0714 15:37:05.585170 60340 net.cpp:155] Setting up inception_4e/5x5_reduce
I0714 15:37:05.585204 60340 net.cpp:163] Top shape: 32 32 14 14 (200704)
I0714 15:37:05.585222 60340 layer_factory.hpp:76] Creating layer inception_4e/relu_5x5_reduce
I0714 15:37:05.585233 60340 net.cpp:110] Creating Layer inception_4e/relu_5x5_reduce
I0714 15:37:05.585243 60340 net.cpp:477] inception_4e/relu_5x5_reduce <- inception_4e/5x5_reduce
I0714 15:37:05.585255 60340 net.cpp:419] inception_4e/relu_5x5_reduce -> inception_4e/5x5_reduce (in-place)
I0714 15:37:05.585477 60340 net.cpp:155] Setting up inception_4e/relu_5x5_reduce
I0714 15:37:05.585492 60340 net.cpp:163] Top shape: 32 32 14 14 (200704)
I0714 15:37:05.585512 60340 layer_factory.hpp:76] Creating layer inception_4e/5x5
I0714 15:37:05.585528 60340 net.cpp:110] Creating Layer inception_4e/5x5
I0714 15:37:05.585538 60340 net.cpp:477] inception_4e/5x5 <- inception_4e/5x5_reduce
I0714 15:37:05.585548 60340 net.cpp:433] inception_4e/5x5 -> inception_4e/5x5
I0714 15:37:05.587576 60340 net.cpp:155] Setting up inception_4e/5x5
I0714 15:37:05.587635 60340 net.cpp:163] Top shape: 32 128 14 14 (802816)
I0714 15:37:05.587656 60340 layer_factory.hpp:76] Creating layer inception_4e/relu_5x5
I0714 15:37:05.587672 60340 net.cpp:110] Creating Layer inception_4e/relu_5x5
I0714 15:37:05.587687 60340 net.cpp:477] inception_4e/relu_5x5 <- inception_4e/5x5
I0714 15:37:05.587702 60340 net.cpp:419] inception_4e/relu_5x5 -> inception_4e/5x5 (in-place)
I0714 15:37:05.588120 60340 net.cpp:155] Setting up inception_4e/relu_5x5
I0714 15:37:05.588142 60340 net.cpp:163] Top shape: 32 128 14 14 (802816)
I0714 15:37:05.588165 60340 layer_factory.hpp:76] Creating layer inception_4e/pool
I0714 15:37:05.588179 60340 layer_factory.cpp:60] CUDNN does not support padding or multiple tops. Using Caffe's own pooling layer.
I0714 15:37:05.588218 60340 net.cpp:110] Creating Layer inception_4e/pool
I0714 15:37:05.588230 60340 net.cpp:477] inception_4e/pool <- inception_4d/output_inception_4d/output_0_split_4
I0714 15:37:05.588243 60340 net.cpp:433] inception_4e/pool -> inception_4e/pool
I0714 15:37:05.588263 60340 net.cpp:155] Setting up inception_4e/pool
I0714 15:37:05.588274 60340 net.cpp:163] Top shape: 32 528 14 14 (3311616)
I0714 15:37:05.588282 60340 layer_factory.hpp:76] Creating layer inception_4e/pool_proj
I0714 15:37:05.588299 60340 net.cpp:110] Creating Layer inception_4e/pool_proj
I0714 15:37:05.588307 60340 net.cpp:477] inception_4e/pool_proj <- inception_4e/pool
I0714 15:37:05.588317 60340 net.cpp:433] inception_4e/pool_proj -> inception_4e/pool_proj
I0714 15:37:05.590271 60340 net.cpp:155] Setting up inception_4e/pool_proj
I0714 15:37:05.590327 60340 net.cpp:163] Top shape: 32 128 14 14 (802816)
I0714 15:37:05.590343 60340 layer_factory.hpp:76] Creating layer inception_4e/relu_pool_proj
I0714 15:37:05.590359 60340 net.cpp:110] Creating Layer inception_4e/relu_pool_proj
I0714 15:37:05.590371 60340 net.cpp:477] inception_4e/relu_pool_proj <- inception_4e/pool_proj
I0714 15:37:05.590387 60340 net.cpp:419] inception_4e/relu_pool_proj -> inception_4e/pool_proj (in-place)
I0714 15:37:05.590844 60340 net.cpp:155] Setting up inception_4e/relu_pool_proj
I0714 15:37:05.590867 60340 net.cpp:163] Top shape: 32 128 14 14 (802816)
I0714 15:37:05.590878 60340 layer_factory.hpp:76] Creating layer inception_4e/output
I0714 15:37:05.590891 60340 net.cpp:110] Creating Layer inception_4e/output
I0714 15:37:05.590900 60340 net.cpp:477] inception_4e/output <- inception_4e/1x1
I0714 15:37:05.590912 60340 net.cpp:477] inception_4e/output <- inception_4e/3x3
I0714 15:37:05.590921 60340 net.cpp:477] inception_4e/output <- inception_4e/5x5
I0714 15:37:05.590930 60340 net.cpp:477] inception_4e/output <- inception_4e/pool_proj
I0714 15:37:05.590941 60340 net.cpp:433] inception_4e/output -> inception_4e/output
I0714 15:37:05.590957 60340 net.cpp:155] Setting up inception_4e/output
I0714 15:37:05.590967 60340 net.cpp:163] Top shape: 32 832 14 14 (5218304)
I0714 15:37:05.590976 60340 layer_factory.hpp:76] Creating layer pool4/3x3_s2
I0714 15:37:05.591006 60340 net.cpp:110] Creating Layer pool4/3x3_s2
I0714 15:37:05.591015 60340 net.cpp:477] pool4/3x3_s2 <- inception_4e/output
I0714 15:37:05.591027 60340 net.cpp:433] pool4/3x3_s2 -> pool4/3x3_s2
I0714 15:37:05.591256 60340 net.cpp:155] Setting up pool4/3x3_s2
I0714 15:37:05.591274 60340 net.cpp:163] Top shape: 32 832 7 7 (1304576)
I0714 15:37:05.591286 60340 layer_factory.hpp:76] Creating layer pool4/3x3_s2_pool4/3x3_s2_0_split
I0714 15:37:05.591301 60340 net.cpp:110] Creating Layer pool4/3x3_s2_pool4/3x3_s2_0_split
I0714 15:37:05.591311 60340 net.cpp:477] pool4/3x3_s2_pool4/3x3_s2_0_split <- pool4/3x3_s2
I0714 15:37:05.591321 60340 net.cpp:433] pool4/3x3_s2_pool4/3x3_s2_0_split -> pool4/3x3_s2_pool4/3x3_s2_0_split_0
I0714 15:37:05.591333 60340 net.cpp:433] pool4/3x3_s2_pool4/3x3_s2_0_split -> pool4/3x3_s2_pool4/3x3_s2_0_split_1
I0714 15:37:05.591344 60340 net.cpp:433] pool4/3x3_s2_pool4/3x3_s2_0_split -> pool4/3x3_s2_pool4/3x3_s2_0_split_2
I0714 15:37:05.591361 60340 net.cpp:433] pool4/3x3_s2_pool4/3x3_s2_0_split -> pool4/3x3_s2_pool4/3x3_s2_0_split_3
I0714 15:37:05.591374 60340 net.cpp:155] Setting up pool4/3x3_s2_pool4/3x3_s2_0_split
I0714 15:37:05.591383 60340 net.cpp:163] Top shape: 32 832 7 7 (1304576)
I0714 15:37:05.591392 60340 net.cpp:163] Top shape: 32 832 7 7 (1304576)
I0714 15:37:05.591401 60340 net.cpp:163] Top shape: 32 832 7 7 (1304576)
I0714 15:37:05.591409 60340 net.cpp:163] Top shape: 32 832 7 7 (1304576)
I0714 15:37:05.591418 60340 layer_factory.hpp:76] Creating layer inception_5a/1x1
I0714 15:37:05.591431 60340 net.cpp:110] Creating Layer inception_5a/1x1
I0714 15:37:05.591439 60340 net.cpp:477] inception_5a/1x1 <- pool4/3x3_s2_pool4/3x3_s2_0_split_0
I0714 15:37:05.591451 60340 net.cpp:433] inception_5a/1x1 -> inception_5a/1x1
I0714 15:37:05.595510 60340 net.cpp:155] Setting up inception_5a/1x1
I0714 15:37:05.595569 60340 net.cpp:163] Top shape: 32 256 7 7 (401408)
I0714 15:37:05.595752 60340 layer_factory.hpp:76] Creating layer inception_5a/relu_1x1
I0714 15:37:05.595775 60340 net.cpp:110] Creating Layer inception_5a/relu_1x1
I0714 15:37:05.595790 60340 net.cpp:477] inception_5a/relu_1x1 <- inception_5a/1x1
I0714 15:37:05.595803 60340 net.cpp:419] inception_5a/relu_1x1 -> inception_5a/1x1 (in-place)
I0714 15:37:05.596254 60340 net.cpp:155] Setting up inception_5a/relu_1x1
I0714 15:37:05.596277 60340 net.cpp:163] Top shape: 32 256 7 7 (401408)
I0714 15:37:05.596287 60340 layer_factory.hpp:76] Creating layer inception_5a/3x3_reduce
I0714 15:37:05.596303 60340 net.cpp:110] Creating Layer inception_5a/3x3_reduce
I0714 15:37:05.596319 60340 net.cpp:477] inception_5a/3x3_reduce <- pool4/3x3_s2_pool4/3x3_s2_0_split_1
I0714 15:37:05.596333 60340 net.cpp:433] inception_5a/3x3_reduce -> inception_5a/3x3_reduce
I0714 15:37:05.601162 60340 net.cpp:155] Setting up inception_5a/3x3_reduce
I0714 15:37:05.601233 60340 net.cpp:163] Top shape: 32 160 7 7 (250880)
I0714 15:37:05.601259 60340 layer_factory.hpp:76] Creating layer inception_5a/relu_3x3_reduce
I0714 15:37:05.601285 60340 net.cpp:110] Creating Layer inception_5a/relu_3x3_reduce
I0714 15:37:05.601299 60340 net.cpp:477] inception_5a/relu_3x3_reduce <- inception_5a/3x3_reduce
I0714 15:37:05.601316 60340 net.cpp:419] inception_5a/relu_3x3_reduce -> inception_5a/3x3_reduce (in-place)
I0714 15:37:05.601552 60340 net.cpp:155] Setting up inception_5a/relu_3x3_reduce
I0714 15:37:05.601572 60340 net.cpp:163] Top shape: 32 160 7 7 (250880)
I0714 15:37:05.601582 60340 layer_factory.hpp:76] Creating layer inception_5a/3x3
I0714 15:37:05.601598 60340 net.cpp:110] Creating Layer inception_5a/3x3
I0714 15:37:05.601608 60340 net.cpp:477] inception_5a/3x3 <- inception_5a/3x3_reduce
I0714 15:37:05.601621 60340 net.cpp:433] inception_5a/3x3 -> inception_5a/3x3
I0714 15:37:05.607810 60340 net.cpp:155] Setting up inception_5a/3x3
I0714 15:37:05.607872 60340 net.cpp:163] Top shape: 32 320 7 7 (501760)
I0714 15:37:05.607894 60340 layer_factory.hpp:76] Creating layer inception_5a/relu_3x3
I0714 15:37:05.607916 60340 net.cpp:110] Creating Layer inception_5a/relu_3x3
I0714 15:37:05.607929 60340 net.cpp:477] inception_5a/relu_3x3 <- inception_5a/3x3
I0714 15:37:05.607944 60340 net.cpp:419] inception_5a/relu_3x3 -> inception_5a/3x3 (in-place)
I0714 15:37:05.608177 60340 net.cpp:155] Setting up inception_5a/relu_3x3
I0714 15:37:05.608196 60340 net.cpp:163] Top shape: 32 320 7 7 (501760)
I0714 15:37:05.608209 60340 layer_factory.hpp:76] Creating layer inception_5a/5x5_reduce
I0714 15:37:05.608239 60340 net.cpp:110] Creating Layer inception_5a/5x5_reduce
I0714 15:37:05.608252 60340 net.cpp:477] inception_5a/5x5_reduce <- pool4/3x3_s2_pool4/3x3_s2_0_split_2
I0714 15:37:05.608266 60340 net.cpp:433] inception_5a/5x5_reduce -> inception_5a/5x5_reduce
I0714 15:37:05.610448 60340 net.cpp:155] Setting up inception_5a/5x5_reduce
I0714 15:37:05.610493 60340 net.cpp:163] Top shape: 32 32 7 7 (50176)
I0714 15:37:05.610512 60340 layer_factory.hpp:76] Creating layer inception_5a/relu_5x5_reduce
I0714 15:37:05.610528 60340 net.cpp:110] Creating Layer inception_5a/relu_5x5_reduce
I0714 15:37:05.610544 60340 net.cpp:477] inception_5a/relu_5x5_reduce <- inception_5a/5x5_reduce
I0714 15:37:05.610558 60340 net.cpp:419] inception_5a/relu_5x5_reduce -> inception_5a/5x5_reduce (in-place)
I0714 15:37:05.610983 60340 net.cpp:155] Setting up inception_5a/relu_5x5_reduce
I0714 15:37:05.611008 60340 net.cpp:163] Top shape: 32 32 7 7 (50176)
I0714 15:37:05.611018 60340 layer_factory.hpp:76] Creating layer inception_5a/5x5
I0714 15:37:05.611037 60340 net.cpp:110] Creating Layer inception_5a/5x5
I0714 15:37:05.611047 60340 net.cpp:477] inception_5a/5x5 <- inception_5a/5x5_reduce
I0714 15:37:05.611058 60340 net.cpp:433] inception_5a/5x5 -> inception_5a/5x5
I0714 15:37:05.613080 60340 net.cpp:155] Setting up inception_5a/5x5
I0714 15:37:05.613143 60340 net.cpp:163] Top shape: 32 128 7 7 (200704)
I0714 15:37:05.613174 60340 layer_factory.hpp:76] Creating layer inception_5a/relu_5x5
I0714 15:37:05.613190 60340 net.cpp:110] Creating Layer inception_5a/relu_5x5
I0714 15:37:05.613201 60340 net.cpp:477] inception_5a/relu_5x5 <- inception_5a/5x5
I0714 15:37:05.613215 60340 net.cpp:419] inception_5a/relu_5x5 -> inception_5a/5x5 (in-place)
I0714 15:37:05.613442 60340 net.cpp:155] Setting up inception_5a/relu_5x5
I0714 15:37:05.613462 60340 net.cpp:163] Top shape: 32 128 7 7 (200704)
I0714 15:37:05.613472 60340 layer_factory.hpp:76] Creating layer inception_5a/pool
I0714 15:37:05.613482 60340 layer_factory.cpp:60] CUDNN does not support padding or multiple tops. Using Caffe's own pooling layer.
I0714 15:37:05.613494 60340 net.cpp:110] Creating Layer inception_5a/pool
I0714 15:37:05.613504 60340 net.cpp:477] inception_5a/pool <- pool4/3x3_s2_pool4/3x3_s2_0_split_3
I0714 15:37:05.613515 60340 net.cpp:433] inception_5a/pool -> inception_5a/pool
I0714 15:37:05.613608 60340 net.cpp:155] Setting up inception_5a/pool
I0714 15:37:05.613625 60340 net.cpp:163] Top shape: 32 832 7 7 (1304576)
I0714 15:37:05.613633 60340 layer_factory.hpp:76] Creating layer inception_5a/pool_proj
I0714 15:37:05.613647 60340 net.cpp:110] Creating Layer inception_5a/pool_proj
I0714 15:37:05.613661 60340 net.cpp:477] inception_5a/pool_proj <- inception_5a/pool
I0714 15:37:05.613673 60340 net.cpp:433] inception_5a/pool_proj -> inception_5a/pool_proj
I0714 15:37:05.616580 60340 net.cpp:155] Setting up inception_5a/pool_proj
I0714 15:37:05.616626 60340 net.cpp:163] Top shape: 32 128 7 7 (200704)
I0714 15:37:05.616643 60340 layer_factory.hpp:76] Creating layer inception_5a/relu_pool_proj
I0714 15:37:05.616660 60340 net.cpp:110] Creating Layer inception_5a/relu_pool_proj
I0714 15:37:05.616672 60340 net.cpp:477] inception_5a/relu_pool_proj <- inception_5a/pool_proj
I0714 15:37:05.616685 60340 net.cpp:419] inception_5a/relu_pool_proj -> inception_5a/pool_proj (in-place)
I0714 15:37:05.616897 60340 net.cpp:155] Setting up inception_5a/relu_pool_proj
I0714 15:37:05.616915 60340 net.cpp:163] Top shape: 32 128 7 7 (200704)
I0714 15:37:05.616925 60340 layer_factory.hpp:76] Creating layer inception_5a/output
I0714 15:37:05.616937 60340 net.cpp:110] Creating Layer inception_5a/output
I0714 15:37:05.616946 60340 net.cpp:477] inception_5a/output <- inception_5a/1x1
I0714 15:37:05.616957 60340 net.cpp:477] inception_5a/output <- inception_5a/3x3
I0714 15:37:05.616967 60340 net.cpp:477] inception_5a/output <- inception_5a/5x5
I0714 15:37:05.616976 60340 net.cpp:477] inception_5a/output <- inception_5a/pool_proj
I0714 15:37:05.616987 60340 net.cpp:433] inception_5a/output -> inception_5a/output
I0714 15:37:05.617002 60340 net.cpp:155] Setting up inception_5a/output
I0714 15:37:05.617012 60340 net.cpp:163] Top shape: 32 832 7 7 (1304576)
I0714 15:37:05.617022 60340 layer_factory.hpp:76] Creating layer inception_5a/output_inception_5a/output_0_split
I0714 15:37:05.617034 60340 net.cpp:110] Creating Layer inception_5a/output_inception_5a/output_0_split
I0714 15:37:05.617043 60340 net.cpp:477] inception_5a/output_inception_5a/output_0_split <- inception_5a/output
I0714 15:37:05.617054 60340 net.cpp:433] inception_5a/output_inception_5a/output_0_split -> inception_5a/output_inception_5a/output_0_split_0
I0714 15:37:05.617065 60340 net.cpp:433] inception_5a/output_inception_5a/output_0_split -> inception_5a/output_inception_5a/output_0_split_1
I0714 15:37:05.617081 60340 net.cpp:433] inception_5a/output_inception_5a/output_0_split -> inception_5a/output_inception_5a/output_0_split_2
I0714 15:37:05.617094 60340 net.cpp:433] inception_5a/output_inception_5a/output_0_split -> inception_5a/output_inception_5a/output_0_split_3
I0714 15:37:05.617105 60340 net.cpp:155] Setting up inception_5a/output_inception_5a/output_0_split
I0714 15:37:05.617115 60340 net.cpp:163] Top shape: 32 832 7 7 (1304576)
I0714 15:37:05.617125 60340 net.cpp:163] Top shape: 32 832 7 7 (1304576)
I0714 15:37:05.617133 60340 net.cpp:163] Top shape: 32 832 7 7 (1304576)
I0714 15:37:05.617171 60340 net.cpp:163] Top shape: 32 832 7 7 (1304576)
I0714 15:37:05.617179 60340 layer_factory.hpp:76] Creating layer inception_5b/1x1
I0714 15:37:05.617197 60340 net.cpp:110] Creating Layer inception_5b/1x1
I0714 15:37:05.617205 60340 net.cpp:477] inception_5b/1x1 <- inception_5a/output_inception_5a/output_0_split_0
I0714 15:37:05.617220 60340 net.cpp:433] inception_5b/1x1 -> inception_5b/1x1
I0714 15:37:05.621655 60340 net.cpp:155] Setting up inception_5b/1x1
I0714 15:37:05.621704 60340 net.cpp:163] Top shape: 32 384 7 7 (602112)
I0714 15:37:05.621721 60340 layer_factory.hpp:76] Creating layer inception_5b/relu_1x1
I0714 15:37:05.621739 60340 net.cpp:110] Creating Layer inception_5b/relu_1x1
I0714 15:37:05.621752 60340 net.cpp:477] inception_5b/relu_1x1 <- inception_5b/1x1
I0714 15:37:05.621763 60340 net.cpp:419] inception_5b/relu_1x1 -> inception_5b/1x1 (in-place)
I0714 15:37:05.622162 60340 net.cpp:155] Setting up inception_5b/relu_1x1
I0714 15:37:05.622184 60340 net.cpp:163] Top shape: 32 384 7 7 (602112)
I0714 15:37:05.622194 60340 layer_factory.hpp:76] Creating layer inception_5b/3x3_reduce
I0714 15:37:05.622210 60340 net.cpp:110] Creating Layer inception_5b/3x3_reduce
I0714 15:37:05.622220 60340 net.cpp:477] inception_5b/3x3_reduce <- inception_5a/output_inception_5a/output_0_split_1
I0714 15:37:05.622234 60340 net.cpp:433] inception_5b/3x3_reduce -> inception_5b/3x3_reduce
I0714 15:37:05.625443 60340 net.cpp:155] Setting up inception_5b/3x3_reduce
I0714 15:37:05.625481 60340 net.cpp:163] Top shape: 32 192 7 7 (301056)
I0714 15:37:05.625496 60340 layer_factory.hpp:76] Creating layer inception_5b/relu_3x3_reduce
I0714 15:37:05.625510 60340 net.cpp:110] Creating Layer inception_5b/relu_3x3_reduce
I0714 15:37:05.625521 60340 net.cpp:477] inception_5b/relu_3x3_reduce <- inception_5b/3x3_reduce
I0714 15:37:05.625537 60340 net.cpp:419] inception_5b/relu_3x3_reduce -> inception_5b/3x3_reduce (in-place)
I0714 15:37:05.625758 60340 net.cpp:155] Setting up inception_5b/relu_3x3_reduce
I0714 15:37:05.625778 60340 net.cpp:163] Top shape: 32 192 7 7 (301056)
I0714 15:37:05.625787 60340 layer_factory.hpp:76] Creating layer inception_5b/3x3
I0714 15:37:05.625809 60340 net.cpp:110] Creating Layer inception_5b/3x3
I0714 15:37:05.625820 60340 net.cpp:477] inception_5b/3x3 <- inception_5b/3x3_reduce
I0714 15:37:05.625833 60340 net.cpp:433] inception_5b/3x3 -> inception_5b/3x3
I0714 15:37:05.633554 60340 net.cpp:155] Setting up inception_5b/3x3
I0714 15:37:05.633607 60340 net.cpp:163] Top shape: 32 384 7 7 (602112)
I0714 15:37:05.633625 60340 layer_factory.hpp:76] Creating layer inception_5b/relu_3x3
I0714 15:37:05.633648 60340 net.cpp:110] Creating Layer inception_5b/relu_3x3
I0714 15:37:05.633661 60340 net.cpp:477] inception_5b/relu_3x3 <- inception_5b/3x3
I0714 15:37:05.633673 60340 net.cpp:419] inception_5b/relu_3x3 -> inception_5b/3x3 (in-place)
I0714 15:37:05.633903 60340 net.cpp:155] Setting up inception_5b/relu_3x3
I0714 15:37:05.633919 60340 net.cpp:163] Top shape: 32 384 7 7 (602112)
I0714 15:37:05.633929 60340 layer_factory.hpp:76] Creating layer inception_5b/5x5_reduce
I0714 15:37:05.633947 60340 net.cpp:110] Creating Layer inception_5b/5x5_reduce
I0714 15:37:05.633958 60340 net.cpp:477] inception_5b/5x5_reduce <- inception_5a/output_inception_5a/output_0_split_2
I0714 15:37:05.633970 60340 net.cpp:433] inception_5b/5x5_reduce -> inception_5b/5x5_reduce
I0714 15:37:05.635488 60340 net.cpp:155] Setting up inception_5b/5x5_reduce
I0714 15:37:05.635512 60340 net.cpp:163] Top shape: 32 48 7 7 (75264)
I0714 15:37:05.635525 60340 layer_factory.hpp:76] Creating layer inception_5b/relu_5x5_reduce
I0714 15:37:05.635538 60340 net.cpp:110] Creating Layer inception_5b/relu_5x5_reduce
I0714 15:37:05.635550 60340 net.cpp:477] inception_5b/relu_5x5_reduce <- inception_5b/5x5_reduce
I0714 15:37:05.635562 60340 net.cpp:419] inception_5b/relu_5x5_reduce -> inception_5b/5x5_reduce (in-place)
I0714 15:37:05.635963 60340 net.cpp:155] Setting up inception_5b/relu_5x5_reduce
I0714 15:37:05.635984 60340 net.cpp:163] Top shape: 32 48 7 7 (75264)
I0714 15:37:05.636019 60340 layer_factory.hpp:76] Creating layer inception_5b/5x5
I0714 15:37:05.636039 60340 net.cpp:110] Creating Layer inception_5b/5x5
I0714 15:37:05.636049 60340 net.cpp:477] inception_5b/5x5 <- inception_5b/5x5_reduce
I0714 15:37:05.636065 60340 net.cpp:433] inception_5b/5x5 -> inception_5b/5x5
I0714 15:37:05.638357 60340 net.cpp:155] Setting up inception_5b/5x5
I0714 15:37:05.638386 60340 net.cpp:163] Top shape: 32 128 7 7 (200704)
I0714 15:37:05.638401 60340 layer_factory.hpp:76] Creating layer inception_5b/relu_5x5
I0714 15:37:05.638422 60340 net.cpp:110] Creating Layer inception_5b/relu_5x5
I0714 15:37:05.638433 60340 net.cpp:477] inception_5b/relu_5x5 <- inception_5b/5x5
I0714 15:37:05.638445 60340 net.cpp:419] inception_5b/relu_5x5 -> inception_5b/5x5 (in-place)
I0714 15:37:05.638679 60340 net.cpp:155] Setting up inception_5b/relu_5x5
I0714 15:37:05.638697 60340 net.cpp:163] Top shape: 32 128 7 7 (200704)
I0714 15:37:05.638715 60340 layer_factory.hpp:76] Creating layer inception_5b/pool
I0714 15:37:05.638725 60340 layer_factory.cpp:60] CUDNN does not support padding or multiple tops. Using Caffe's own pooling layer.
I0714 15:37:05.638738 60340 net.cpp:110] Creating Layer inception_5b/pool
I0714 15:37:05.638748 60340 net.cpp:477] inception_5b/pool <- inception_5a/output_inception_5a/output_0_split_3
I0714 15:37:05.638758 60340 net.cpp:433] inception_5b/pool -> inception_5b/pool
I0714 15:37:05.638775 60340 net.cpp:155] Setting up inception_5b/pool
I0714 15:37:05.638787 60340 net.cpp:163] Top shape: 32 832 7 7 (1304576)
I0714 15:37:05.638797 60340 layer_factory.hpp:76] Creating layer inception_5b/pool_proj
I0714 15:37:05.638808 60340 net.cpp:110] Creating Layer inception_5b/pool_proj
I0714 15:37:05.638818 60340 net.cpp:477] inception_5b/pool_proj <- inception_5b/pool
I0714 15:37:05.638828 60340 net.cpp:433] inception_5b/pool_proj -> inception_5b/pool_proj
I0714 15:37:05.641664 60340 net.cpp:155] Setting up inception_5b/pool_proj
I0714 15:37:05.641729 60340 net.cpp:163] Top shape: 32 128 7 7 (200704)
I0714 15:37:05.641757 60340 layer_factory.hpp:76] Creating layer inception_5b/relu_pool_proj
I0714 15:37:05.641784 60340 net.cpp:110] Creating Layer inception_5b/relu_pool_proj
I0714 15:37:05.641798 60340 net.cpp:477] inception_5b/relu_pool_proj <- inception_5b/pool_proj
I0714 15:37:05.641811 60340 net.cpp:419] inception_5b/relu_pool_proj -> inception_5b/pool_proj (in-place)
I0714 15:37:05.642056 60340 net.cpp:155] Setting up inception_5b/relu_pool_proj
I0714 15:37:05.642074 60340 net.cpp:163] Top shape: 32 128 7 7 (200704)
I0714 15:37:05.642091 60340 layer_factory.hpp:76] Creating layer inception_5b/output
I0714 15:37:05.642114 60340 net.cpp:110] Creating Layer inception_5b/output
I0714 15:37:05.642125 60340 net.cpp:477] inception_5b/output <- inception_5b/1x1
I0714 15:37:05.642137 60340 net.cpp:477] inception_5b/output <- inception_5b/3x3
I0714 15:37:05.642146 60340 net.cpp:477] inception_5b/output <- inception_5b/5x5
I0714 15:37:05.642156 60340 net.cpp:477] inception_5b/output <- inception_5b/pool_proj
I0714 15:37:05.642166 60340 net.cpp:433] inception_5b/output -> inception_5b/output
I0714 15:37:05.642185 60340 net.cpp:155] Setting up inception_5b/output
I0714 15:37:05.642196 60340 net.cpp:163] Top shape: 32 1024 7 7 (1605632)
I0714 15:37:05.642204 60340 layer_factory.hpp:76] Creating layer pool5/7x7_s1
I0714 15:37:05.642231 60340 net.cpp:110] Creating Layer pool5/7x7_s1
I0714 15:37:05.642241 60340 net.cpp:477] pool5/7x7_s1 <- inception_5b/output
I0714 15:37:05.642256 60340 net.cpp:433] pool5/7x7_s1 -> pool5/7x7_s1
I0714 15:37:05.986657 60340 net.cpp:155] Setting up pool5/7x7_s1
I0714 15:37:05.986763 60340 net.cpp:163] Top shape: 32 512 1 1 (16384)
I0714 15:37:05.986804 60340 layer_factory.hpp:76] Creating layer pool5/drop_7x7_s1
I0714 15:37:05.986840 60340 net.cpp:110] Creating Layer pool5/drop_7x7_s1
I0714 15:37:05.986863 60340 net.cpp:477] pool5/drop_7x7_s1 <- pool5/7x7_s1
I0714 15:37:05.986884 60340 net.cpp:419] pool5/drop_7x7_s1 -> pool5/7x7_s1 (in-place)
I0714 15:37:05.986961 60340 net.cpp:155] Setting up pool5/drop_7x7_s1
I0714 15:37:05.986975 60340 net.cpp:163] Top shape: 32 512 1 1 (16384)
I0714 15:37:05.986986 60340 layer_factory.hpp:76] Creating layer loss3/classifier
I0714 15:37:05.987010 60340 net.cpp:110] Creating Layer loss3/classifier
I0714 15:37:05.987020 60340 net.cpp:477] loss3/classifier <- pool5/7x7_s1
I0714 15:37:05.987043 60340 net.cpp:433] loss3/classifier -> loss3/classifier
I0714 15:37:05.987251 60340 net.cpp:155] Setting up loss3/classifier
I0714 15:37:05.987275 60340 net.cpp:163] Top shape: 32 2 (64)
I0714 15:37:05.987329 60340 layer_factory.hpp:76] Creating layer loss3/classifier_loss3/classifier_0_split
I0714 15:37:05.987347 60340 net.cpp:110] Creating Layer loss3/classifier_loss3/classifier_0_split
I0714 15:37:05.987357 60340 net.cpp:477] loss3/classifier_loss3/classifier_0_split <- loss3/classifier
I0714 15:37:05.987368 60340 net.cpp:433] loss3/classifier_loss3/classifier_0_split -> loss3/classifier_loss3/classifier_0_split_0
I0714 15:37:05.987381 60340 net.cpp:433] loss3/classifier_loss3/classifier_0_split -> loss3/classifier_loss3/classifier_0_split_1
I0714 15:37:05.987403 60340 net.cpp:155] Setting up loss3/classifier_loss3/classifier_0_split
I0714 15:37:05.987412 60340 net.cpp:163] Top shape: 32 2 (64)
I0714 15:37:05.987421 60340 net.cpp:163] Top shape: 32 2 (64)
I0714 15:37:05.987432 60340 layer_factory.hpp:76] Creating layer loss3/loss3
I0714 15:37:05.987449 60340 net.cpp:110] Creating Layer loss3/loss3
I0714 15:37:05.987457 60340 net.cpp:477] loss3/loss3 <- loss3/classifier_loss3/classifier_0_split_0
I0714 15:37:05.987468 60340 net.cpp:477] loss3/loss3 <- label_data_1_split_4
I0714 15:37:05.987478 60340 net.cpp:433] loss3/loss3 -> loss3/loss3
I0714 15:37:05.987493 60340 layer_factory.hpp:76] Creating layer loss3/loss3
…
