…
I0905 01:39:05.429177 90901 net.cpp:322] The NetState phase (0) differed from the phase (1) specified by a rule in layer Accuracy1
I0905 01:39:05.430105 90901 net.cpp:58] Initializing net from parameters: 
name: "DenseNN"
state {
  phase: TRAIN
  level: 0
  stage: ""
}
layer {
  name: "Data1"
  type: "ImageData"
  top: "Data1"
  top: "Data2"
  include {
    phase: TRAIN
  }
  transform_param {
    mirror: true
    mean_value: 150
    mean_value: 150
    mean_value: 150
  }
  image_data_param {
    source: "../list_bias-1_tr.lst"
    batch_size: 16
    shuffle: true
  }
}
layer {
  name: "Convolution1"
  type: "Convolution"
  bottom: "Data1"
  top: "Convolution1"
  convolution_param {
    num_output: 16
    bias_term: true
    pad: 1
    kernel_size: 3
    stride: 1
    weight_filler {
      type: "msra"
    }
    bias_filler {
      type: "constant"
    }
  }
}
layer {
  name: "Dropout1"
  type: "Dropout"
  bottom: "Convolution1"
  top: "Dropout1"
  dropout_param {
    dropout_ratio: 0.2
  }
}
layer {
  name: "BatchNorm1"
  type: "BatchNorm"
  bottom: "Dropout1"
  top: "BatchNorm1"
  param {
    lr_mult: 0
    decay_mult: 0
  }
  param {
    lr_mult: 0
    decay_mult: 0
  }
  param {
    lr_mult: 0
    decay_mult: 0
  }
}
layer {
  name: "Scale1"
  type: "Scale"
  bottom: "BatchNorm1"
  top: "BatchNorm1"
  scale_param {
    filler {
      value: 1
    }
    bias_term: false
    bias_filler {
      value: 0
    }
  }
}
layer {
  name: "ReLU1"
  type: "ReLU"
  bottom: "BatchNorm1"
  top: "BatchNorm1"
}
layer {
  name: "Convolution2"
  type: "Convolution"
  bottom: "BatchNorm1"
  top: "Convolution2"
  convolution_param {
    num_output: 12
    bias_term: true
    pad: 1
    kernel_size: 3
    stride: 1
    weight_filler {
      type: "msra"
    }
    bias_filler {
      type: "constant"
    }
  }
}
layer {
  name: "Dropout2"
  type: "Dropout"
  bottom: "Convolution2"
  top: "Dropout2"
  dropout_param {
    dropout_ratio: 0.2
  }
}
layer {
  name: "Concat1"
  type: "Concat"
  bottom: "Dropout1"
  bottom: "Dropout2"
  top: "Concat1"
  concat_param {
    axis: 1
  }
}
layer {
  name: "BatchNorm2"
  type: "BatchNorm"
  bottom: "Concat1"
  top: "BatchNorm2"
  param {
    lr_mult: 0
    decay_mult: 0
  }
  param {
    lr_mult: 0
    decay_mult: 0
  }
  param {
    lr_mult: 0
    decay_mult: 0
  }
}
layer {
  name: "Scale2"
  type: "Scale"
  bottom: "BatchNorm2"
  top: "BatchNorm2"
  scale_param {
    filler {
      value: 1
    }
    bias_term: false
    bias_filler {
      value: 0
    }
  }
}
layer {
  name: "ReLU2"
  type: "ReLU"
  bottom: "BatchNorm2"
  top: "BatchNorm2"
}
layer {
  name: "Convolution3"
  type: "Convolution"
  bottom: "BatchNorm2"
  top: "Convolution3"
  convolution_param {
    num_output: 12
    bias_term: true
    pad: 1
    kernel_size: 3
    stride: 1
    weight_filler {
      type: "msra"
    }
    bias_filler {
      type: "constant"
    }
  }
}
layer {
  name: "Dropout3"
  type: "Dropout"
  bottom: "Convolution3"
  top: "Dropout3"
  dropout_param {
    dropout_ratio: 0.2
  }
}
layer {
  name: "Concat2"
  type: "Concat"
  bottom: "Concat1"
  bottom: "Dropout3"
  top: "Concat2"
  concat_param {
    axis: 1
  }
}
layer {
  name: "BatchNorm3"
  type: "BatchNorm"
  bottom: "Concat2"
  top: "BatchNorm3"
  param {
    lr_mult: 0
    decay_mult: 0
  }
  param {
    lr_mult: 0
    decay_mult: 0
  }
  param {
    lr_mult: 0
    decay_mult: 0
  }
}
layer {
  name: "Scale3"
  type: "Scale"
  bottom: "BatchNorm3"
  top: "BatchNorm3"
  scale_param {
    filler {
      value: 1
    }
    bias_term: false
    bias_filler {
      value: 0
    }
  }
}
layer {
  name: "ReLU3"
  type: "ReLU"
  bottom: "BatchNorm3"
  top: "BatchNorm3"
}
layer {
  name: "Convolution4"
  type: "Convolution"
  bottom: "BatchNorm3"
  top: "Convolution4"
  convolution_param {
    num_output: 12
    bias_term: true
    pad: 1
    kernel_size: 3
    stride: 1
    weight_filler {
      type: "msra"
    }
    bias_filler {
      type: "constant"
    }
  }
}
layer {
  name: "Dropout4"
  type: "Dropout"
  bottom: "Convolution4"
  top: "Dropout4"
  dropout_param {
    dropout_ratio: 0.2
  }
}
layer {
  name: "Concat3"
  type: "Concat"
  bottom: "Concat2"
  bottom: "Dropout4"
  top: "Concat3"
  concat_param {
    axis: 1
  }
}
layer {
  name: "BatchNorm4"
  type: "BatchNorm"
  bottom: "Concat3"
  top: "BatchNorm4"
  param {
    lr_mult: 0
    decay_mult: 0
  }
  param {
    lr_mult: 0
    decay_mult: 0
  }
  param {
    lr_mult: 0
    decay_mult: 0
  }
}
layer {
  name: "Scale4"
  type: "Scale"
  bottom: "BatchNorm4"
  top: "BatchNorm4"
  scale_param {
    filler {
      value: 1
    }
    bias_term: false
    bias_filler {
      value: 0
    }
  }
}
layer {
  name: "ReLU4"
  type: "ReLU"
  bottom: "BatchNorm4"
  top: "BatchNorm4"
}
layer {
  name: "Convolution5"
  type: "Convolution"
  bottom: "BatchNorm4"
  top: "Convolution5"
  convolution_param {
    num_output: 12
    bias_term: true
    pad: 1
    kernel_size: 3
    stride: 1
    weight_filler {
      type: "msra"
    }
    bias_filler {
      type: "constant"
    }
  }
}
layer {
  name: "Dropout5"
  type: "Dropout"
  bottom: "Convolution5"
  top: "Dropout5"
  dropout_param {
    dropout_ratio: 0.2
  }
}
layer {
  name: "Concat4"
  type: "Concat"
  bottom: "Concat3"
  bottom: "Dropout5"
  top: "Concat4"
  concat_param {
    axis: 1
  }
}
layer {
  name: "BatchNorm5"
  type: "BatchNorm"
  bottom: "Concat4"
  top: "BatchNorm5"
  param {
    lr_mult: 0
    decay_mult: 0
  }
  param {
    lr_mult: 0
    decay_mult: 0
  }
  param {
    lr_mult: 0
    decay_mult: 0
  }
}
layer {
  name: "Scale5"
  type: "Scale"
  bottom: "BatchNorm5"
  top: "BatchNorm5"
  scale_param {
    filler {
      value: 1
    }
    bias_term: false
    bias_filler {
      value: 0
    }
  }
}
layer {
  name: "ReLU5"
  type: "ReLU"
  bottom: "BatchNorm5"
  top: "BatchNorm5"
}
layer {
  name: "Convolution6"
  type: "Convolution"
  bottom: "BatchNorm5"
  top: "Convolution6"
  convolution_param {
    num_output: 12
    bias_term: true
    pad: 1
    kernel_size: 3
    stride: 1
    weight_filler {
      type: "msra"
    }
    bias_filler {
      type: "constant"
    }
  }
}
layer {
  name: "Dropout6"
  type: "Dropout"
  bottom: "Convolution6"
  top: "Dropout6"
  dropout_param {
    dropout_ratio: 0.2
  }
}
layer {
  name: "Concat5"
  type: "Concat"
  bottom: "Concat4"
  bottom: "Dropout6"
  top: "Concat5"
  concat_param {
    axis: 1
  }
}
layer {
  name: "BatchNorm6"
  type: "BatchNorm"
  bottom: "Concat5"
  top: "BatchNorm6"
  param {
    lr_mult: 0
    decay_mult: 0
  }
  param {
    lr_mult: 0
    decay_mult: 0
  }
  param {
    lr_mult: 0
    decay_mult: 0
  }
}
layer {
  name: "Scale6"
  type: "Scale"
  bottom: "BatchNorm6"
  top: "BatchNorm6"
  scale_param {
    filler {
      value: 1
    }
    bias_term: false
    bias_filler {
      value: 0
    }
  }
}
layer {
  name: "ReLU6"
  type: "ReLU"
  bottom: "BatchNorm6"
  top: "BatchNorm6"
}
layer {
  name: "Convolution7"
  type: "Convolution"
  bottom: "BatchNorm6"
  top: "Convolution7"
  convolution_param {
    num_output: 12
    bias_term: true
    pad: 1
    kernel_size: 3
    stride: 1
    weight_filler {
      type: "msra"
    }
    bias_filler {
      type: "constant"
    }
  }
}
layer {
  name: "Dropout7"
  type: "Dropout"
  bottom: "Convolution7"
  top: "Dropout7"
  dropout_param {
    dropout_ratio: 0.2
  }
}
layer {
  name: "Concat6"
  type: "Concat"
  bottom: "Concat5"
  bottom: "Dropout7"
  top: "Concat6"
  concat_param {
    axis: 1
  }
}
layer {
  name: "BatchNorm7"
  type: "BatchNorm"
  bottom: "Concat6"
  top: "BatchNorm7"
  param {
    lr_mult: 0
    decay_mult: 0
  }
  param {
    lr_mult: 0
    decay_mult: 0
  }
  param {
    lr_mult: 0
    decay_mult: 0
  }
}
layer {
  name: "Scale7"
  type: "Scale"
  bottom: "BatchNorm7"
  top: "BatchNorm7"
  scale_param {
    filler {
      value: 1
    }
    bias_term: false
    bias_filler {
      value: 0
    }
  }
}
layer {
  name: "ReLU7"
  type: "ReLU"
  bottom: "BatchNorm7"
  top: "BatchNorm7"
}
layer {
  name: "Convolution8"
  type: "Convolution"
  bottom: "BatchNorm7"
  top: "Convolution8"
  convolution_param {
    num_output: 12
    bias_term: true
    pad: 1
    kernel_size: 3
    stride: 1
    weight_filler {
      type: "msra"
    }
    bias_filler {
      type: "constant"
    }
  }
}
layer {
  name: "Dropout8"
  type: "Dropout"
  bottom: "Convolution8"
  top: "Dropout8"
  dropout_param {
    dropout_ratio: 0.2
  }
}
layer {
  name: "Concat7"
  type: "Concat"
  bottom: "Concat6"
  bottom: "Dropout8"
  top: "Concat7"
  concat_param {
    axis: 1
  }
}
layer {
  name: "BatchNorm8"
  type: "BatchNorm"
  bottom: "Concat7"
  top: "BatchNorm8"
  param {
    lr_mult: 0
    decay_mult: 0
  }
  param {
    lr_mult: 0
    decay_mult: 0
  }
  param {
    lr_mult: 0
    decay_mult: 0
  }
}
layer {
  name: "Scale8"
  type: "Scale"
  bottom: "BatchNorm8"
  top: "BatchNorm8"
  scale_param {
    filler {
      value: 1
    }
    bias_term: false
    bias_filler {
      value: 0
    }
  }
}
layer {
  name: "ReLU8"
  type: "ReLU"
  bottom: "BatchNorm8"
  top: "BatchNorm8"
}
layer {
  name: "Convolution9"
  type: "Convolution"
  bottom: "BatchNorm8"
  top: "Convolution9"
  convolution_param {
    num_output: 12
    bias_term: true
    pad: 1
    kernel_size: 3
    stride: 1
    weight_filler {
      type: "msra"
    }
    bias_filler {
      type: "constant"
    }
  }
}
layer {
  name: "Dropout9"
  type: "Dropout"
  bottom: "Convolution9"
  top: "Dropout9"
  dropout_param {
    dropout_ratio: 0.2
  }
}
layer {
  name: "Concat8"
  type: "Concat"
  bottom: "Concat7"
  bottom: "Dropout9"
  top: "Concat8"
  concat_param {
    axis: 1
  }
}
layer {
  name: "BatchNorm9"
  type: "BatchNorm"
  bottom: "Concat8"
  top: "BatchNorm9"
  param {
    lr_mult: 0
    decay_mult: 0
  }
  param {
    lr_mult: 0
    decay_mult: 0
  }
  param {
    lr_mult: 0
    decay_mult: 0
  }
}
layer {
  name: "Scale9"
  type: "Scale"
  bottom: "BatchNorm9"
  top: "BatchNorm9"
  scale_param {
    filler {
      value: 1
    }
    bias_term: false
    bias_filler {
      value: 0
    }
  }
}
layer {
  name: "ReLU9"
  type: "ReLU"
  bottom: "BatchNorm9"
  top: "BatchNorm9"
}
layer {
  name: "Convolution10"
  type: "Convolution"
  bottom: "BatchNorm9"
  top: "Convolution10"
  convolution_param {
    num_output: 12
    bias_term: true
    pad: 1
    kernel_size: 3
    stride: 1
    weight_filler {
      type: "msra"
    }
    bias_filler {
      type: "constant"
    }
  }
}
layer {
  name: "Dropout10"
  type: "Dropout"
  bottom: "Convolution10"
  top: "Dropout10"
  dropout_param {
    dropout_ratio: 0.2
  }
}
layer {
  name: "Concat9"
  type: "Concat"
  bottom: "Concat8"
  bottom: "Dropout10"
  top: "Concat9"
  concat_param {
    axis: 1
  }
}
layer {
  name: "BatchNorm10"
  type: "BatchNorm"
  bottom: "Concat9"
  top: "BatchNorm10"
  param {
    lr_mult: 0
    decay_mult: 0
  }
  param {
    lr_mult: 0
    decay_mult: 0
  }
  param {
    lr_mult: 0
    decay_mult: 0
  }
}
layer {
  name: "Scale10"
  type: "Scale"
  bottom: "BatchNorm10"
  top: "BatchNorm10"
  scale_param {
    filler {
      value: 1
    }
    bias_term: false
    bias_filler {
      value: 0
    }
  }
}
layer {
  name: "ReLU10"
  type: "ReLU"
  bottom: "BatchNorm10"
  top: "BatchNorm10"
}
layer {
  name: "Convolution11"
  type: "Convolution"
  bottom: "BatchNorm10"
  top: "Convolution11"
  convolution_param {
    num_output: 12
    bias_term: true
    pad: 1
    kernel_size: 3
    stride: 1
    weight_filler {
      type: "msra"
    }
    bias_filler {
      type: "constant"
    }
  }
}
layer {
  name: "Dropout11"
  type: "Dropout"
  bottom: "Convolution11"
  top: "Dropout11"
  dropout_param {
    dropout_ratio: 0.2
  }
}
layer {
  name: "Concat10"
  type: "Concat"
  bottom: "Concat9"
  bottom: "Dropout11"
  top: "Concat10"
  concat_param {
    axis: 1
  }
}
layer {
  name: "BatchNorm11"
  type: "BatchNorm"
  bottom: "Concat10"
  top: "BatchNorm11"
  param {
    lr_mult: 0
    decay_mult: 0
  }
  param {
    lr_mult: 0
    decay_mult: 0
  }
  param {
    lr_mult: 0
    decay_mult: 0
  }
}
layer {
  name: "Scale11"
  type: "Scale"
  bottom: "BatchNorm11"
  top: "BatchNorm11"
  scale_param {
    filler {
      value: 1
    }
    bias_term: false
    bias_filler {
      value: 0
    }
  }
}
layer {
  name: "ReLU11"
  type: "ReLU"
  bottom: "BatchNorm11"
  top: "BatchNorm11"
}
layer {
  name: "Convolution12"
  type: "Convolution"
  bottom: "BatchNorm11"
  top: "Convolution12"
  convolution_param {
    num_output: 12
    bias_term: true
    pad: 1
    kernel_size: 3
    stride: 1
    weight_filler {
      type: "msra"
    }
    bias_filler {
      type: "constant"
    }
  }
}
layer {
  name: "Dropout12"
  type: "Dropout"
  bottom: "Convolution12"
  top: "Dropout12"
  dropout_param {
    dropout_ratio: 0.2
  }
}
layer {
  name: "Concat11"
  type: "Concat"
  bottom: "Concat10"
  bottom: "Dropout12"
  top: "Concat11"
  concat_param {
    axis: 1
  }
}
layer {
  name: "BatchNorm12"
  type: "BatchNorm"
  bottom: "Concat11"
  top: "BatchNorm12"
  param {
    lr_mult: 0
    decay_mult: 0
  }
  param {
    lr_mult: 0
    decay_mult: 0
  }
  param {
    lr_mult: 0
    decay_mult: 0
  }
}
layer {
  name: "Scale12"
  type: "Scale"
  bottom: "BatchNorm12"
  top: "BatchNorm12"
  scale_param {
    filler {
      value: 1
    }
    bias_term: false
    bias_filler {
      value: 0
    }
  }
}
layer {
  name: "ReLU12"
  type: "ReLU"
  bottom: "BatchNorm12"
  top: "BatchNorm12"
}
layer {
  name: "Convolution13"
  type: "Convolution"
  bottom: "BatchNorm12"
  top: "Convolution13"
  convolution_param {
    num_output: 12
    bias_term: true
    pad: 1
    kernel_size: 3
    stride: 1
    weight_filler {
      type: "msra"
    }
    bias_filler {
      type: "constant"
    }
  }
}
layer {
  name: "Dropout13"
  type: "Dropout"
  bottom: "Convolution13"
  top: "Dropout13"
  dropout_param {
    dropout_ratio: 0.2
  }
}
layer {
  name: "Concat12"
  type: "Concat"
  bottom: "Concat11"
  bottom: "Dropout13"
  top: "Concat12"
  concat_param {
    axis: 1
  }
}
layer {
  name: "BatchNorm13"
  type: "BatchNorm"
  bottom: "Concat12"
  top: "BatchNorm13"
  param {
    lr_mult: 0
    decay_mult: 0
  }
  param {
    lr_mult: 0
    decay_mult: 0
  }
  param {
    lr_mult: 0
    decay_mult: 0
  }
}
layer {
  name: "Scale13"
  type: "Scale"
  bottom: "BatchNorm13"
  top: "BatchNorm13"
  scale_param {
    filler {
      value: 1
    }
    bias_term: false
    bias_filler {
      value: 0
    }
  }
}
layer {
  name: "ReLU13"
  type: "ReLU"
  bottom: "BatchNorm13"
  top: "BatchNorm13"
}
layer {
  name: "Convolution14"
  type: "Convolution"
  bottom: "BatchNorm13"
  top: "Convolution14"
  convolution_param {
    num_output: 160
    bias_term: true
    pad: 0
    kernel_size: 1
    stride: 1
    weight_filler {
      type: "msra"
    }
    bias_filler {
      type: "constant"
    }
  }
}
layer {
  name: "Dropout14"
  type: "Dropout"
  bottom: "Convolution14"
  top: "Dropout14"
  dropout_param {
    dropout_ratio: 0.2
  }
}
layer {
  name: "Pooling1"
  type: "Pooling"
  bottom: "Dropout14"
  top: "Pooling1"
  pooling_param {
    pool: AVE
    kernel_size: 2
    stride: 2
  }
}
layer {
  name: "BatchNorm14"
  type: "BatchNorm"
  bottom: "Pooling1"
  top: "BatchNorm14"
  param {
    lr_mult: 0
    decay_mult: 0
  }
  param {
    lr_mult: 0
    decay_mult: 0
  }
  param {
    lr_mult: 0
    decay_mult: 0
  }
}
layer {
  name: "Scale14"
  type: "Scale"
  bottom: "BatchNorm14"
  top: "BatchNorm14"
  scale_param {
    filler {
      value: 1
    }
    bias_term: false
    bias_filler {
      value: 0
    }
  }
}
layer {
  name: "ReLU14"
  type: "ReLU"
  bottom: "BatchNorm14"
  top: "BatchNorm14"
}
layer {
  name: "Convolution15"
  type: "Convolution"
  bottom: "BatchNorm14"
  top: "Convolution15"
  convolution_param {
    num_output: 12
    bias_term: true
    pad: 1
    kernel_size: 3
    stride: 1
    weight_filler {
      type: "msra"
    }
    bias_filler {
      type: "constant"
    }
  }
}
layer {
  name: "Dropout15"
  type: "Dropout"
  bottom: "Convolution15"
  top: "Dropout15"
  dropout_param {
    dropout_ratio: 0.2
  }
}
layer {
  name: "Concat13"
  type: "Concat"
  bottom: "Pooling1"
  bottom: "Dropout15"
  top: "Concat13"
  concat_param {
    axis: 1
  }
}
layer {
  name: "BatchNorm15"
  type: "BatchNorm"
  bottom: "Concat13"
  top: "BatchNorm15"
  param {
    lr_mult: 0
    decay_mult: 0
  }
  param {
    lr_mult: 0
    decay_mult: 0
  }
  param {
    lr_mult: 0
    decay_mult: 0
  }
}
layer {
  name: "Scale15"
  type: "Scale"
  bottom: "BatchNorm15"
  top: "BatchNorm15"
  scale_param {
    filler {
      value: 1
    }
    bias_term: false
    bias_filler {
      value: 0
    }
  }
}
layer {
  name: "ReLU15"
  type: "ReLU"
  bottom: "BatchNorm15"
  top: "BatchNorm15"
}
layer {
  name: "Convolution16"
  type: "Convolution"
  bottom: "BatchNorm15"
  top: "Convolution16"
  convolution_param {
    num_output: 12
    bias_term: true
    pad: 1
    kernel_size: 3
    stride: 1
    weight_filler {
      type: "msra"
    }
    bias_filler {
      type: "constant"
    }
  }
}
layer {
  name: "Dropout16"
  type: "Dropout"
  bottom: "Convolution16"
  top: "Dropout16"
  dropout_param {
    dropout_ratio: 0.2
  }
}
layer {
  name: "Concat14"
  type: "Concat"
  bottom: "Concat13"
  bottom: "Dropout16"
  top: "Concat14"
  concat_param {
    axis: 1
  }
}
layer {
  name: "BatchNorm16"
  type: "BatchNorm"
  bottom: "Concat14"
  top: "BatchNorm16"
  param {
    lr_mult: 0
    decay_mult: 0
  }
  param {
    lr_mult: 0
    decay_mult: 0
  }
  param {
    lr_mult: 0
    decay_mult: 0
  }
}
layer {
  name: "Scale16"
  type: "Scale"
  bottom: "BatchNorm16"
  top: "BatchNorm16"
  scale_param {
    filler {
      value: 1
    }
    bias_term: false
    bias_filler {
      value: 0
    }
  }
}
layer {
  name: "ReLU16"
  type: "ReLU"
  bottom: "BatchNorm16"
  top: "BatchNorm16"
}
layer {
  name: "Convolution17"
  type: "Convolution"
  bottom: "BatchNorm16"
  top: "Convolution17"
  convolution_param {
    num_output: 12
    bias_term: true
    pad: 1
    kernel_size: 3
    stride: 1
    weight_filler {
      type: "msra"
    }
    bias_filler {
      type: "constant"
    }
  }
}
layer {
  name: "Dropout17"
  type: "Dropout"
  bottom: "Convolution17"
  top: "Dropout17"
  dropout_param {
    dropout_ratio: 0.2
  }
}
layer {
  name: "Concat15"
  type: "Concat"
  bottom: "Concat14"
  bottom: "Dropout17"
  top: "Concat15"
  concat_param {
    axis: 1
  }
}
layer {
  name: "BatchNorm17"
  type: "BatchNorm"
  bottom: "Concat15"
  top: "BatchNorm17"
  param {
    lr_mult: 0
    decay_mult: 0
  }
  param {
    lr_mult: 0
    decay_mult: 0
  }
  param {
    lr_mult: 0
    decay_mult: 0
  }
}
layer {
  name: "Scale17"
  type: "Scale"
  bottom: "BatchNorm17"
  top: "BatchNorm17"
  scale_param {
    filler {
      value: 1
    }
    bias_term: false
    bias_filler {
      value: 0
    }
  }
}
layer {
  name: "ReLU17"
  type: "ReLU"
  bottom: "BatchNorm17"
  top: "BatchNorm17"
}
layer {
  name: "Convolution18"
  type: "Convolution"
  bottom: "BatchNorm17"
  top: "Convolution18"
  convolution_param {
    num_output: 12
    bias_term: true
    pad: 1
    kernel_size: 3
    stride: 1
    weight_filler {
      type: "msra"
    }
    bias_filler {
      type: "constant"
    }
  }
}
layer {
  name: "Dropout18"
  type: "Dropout"
  bottom: "Convolution18"
  top: "Dropout18"
  dropout_param {
    dropout_ratio: 0.2
  }
}
layer {
  name: "Concat16"
  type: "Concat"
  bottom: "Concat15"
  bottom: "Dropout18"
  top: "Concat16"
  concat_param {
    axis: 1
  }
}
layer {
  name: "BatchNorm18"
  type: "BatchNorm"
  bottom: "Concat16"
  top: "BatchNorm18"
  param {
    lr_mult: 0
    decay_mult: 0
  }
  param {
    lr_mult: 0
    decay_mult: 0
  }
  param {
    lr_mult: 0
    decay_mult: 0
  }
}
layer {
  name: "Scale18"
  type: "Scale"
  bottom: "BatchNorm18"
  top: "BatchNorm18"
  scale_param {
    filler {
      value: 1
    }
    bias_term: false
    bias_filler {
      value: 0
    }
  }
}
layer {
  name: "ReLU18"
  type: "ReLU"
  bottom: "BatchNorm18"
  top: "BatchNorm18"
}
layer {
  name: "Convolution19"
  type: "Convolution"
  bottom: "BatchNorm18"
  top: "Convolution19"
  convolution_param {
    num_output: 12
    bias_term: true
    pad: 1
    kernel_size: 3
    stride: 1
    weight_filler {
      type: "msra"
    }
    bias_filler {
      type: "constant"
    }
  }
}
layer {
  name: "Dropout19"
  type: "Dropout"
  bottom: "Convolution19"
  top: "Dropout19"
  dropout_param {
    dropout_ratio: 0.2
  }
}
layer {
  name: "Concat17"
  type: "Concat"
  bottom: "Concat16"
  bottom: "Dropout19"
  top: "Concat17"
  concat_param {
    axis: 1
  }
}
layer {
  name: "BatchNorm19"
  type: "BatchNorm"
  bottom: "Concat17"
  top: "BatchNorm19"
  param {
    lr_mult: 0
    decay_mult: 0
  }
  param {
    lr_mult: 0
    decay_mult: 0
  }
  param {
    lr_mult: 0
    decay_mult: 0
  }
}
layer {
  name: "Scale19"
  type: "Scale"
  bottom: "BatchNorm19"
  top: "BatchNorm19"
  scale_param {
    filler {
      value: 1
    }
    bias_term: false
    bias_filler {
      value: 0
    }
  }
}
layer {
  name: "ReLU19"
  type: "ReLU"
  bottom: "BatchNorm19"
  top: "BatchNorm19"
}
layer {
  name: "Convolution20"
  type: "Convolution"
  bottom: "BatchNorm19"
  top: "Convolution20"
  convolution_param {
    num_output: 12
    bias_term: true
    pad: 1
    kernel_size: 3
    stride: 1
    weight_filler {
      type: "msra"
    }
    bias_filler {
      type: "constant"
    }
  }
}
layer {
  name: "Dropout20"
  type: "Dropout"
  bottom: "Convolution20"
  top: "Dropout20"
  dropout_param {
    dropout_ratio: 0.2
  }
}
layer {
  name: "Concat18"
  type: "Concat"
  bottom: "Concat17"
  bottom: "Dropout20"
  top: "Concat18"
  concat_param {
    axis: 1
  }
}
layer {
  name: "BatchNorm20"
  type: "BatchNorm"
  bottom: "Concat18"
  top: "BatchNorm20"
  param {
    lr_mult: 0
    decay_mult: 0
  }
  param {
    lr_mult: 0
    decay_mult: 0
  }
  param {
    lr_mult: 0
    decay_mult: 0
  }
}
layer {
  name: "Scale20"
  type: "Scale"
  bottom: "BatchNorm20"
  top: "BatchNorm20"
  scale_param {
    filler {
      value: 1
    }
    bias_term: false
    bias_filler {
      value: 0
    }
  }
}
layer {
  name: "ReLU20"
  type: "ReLU"
  bottom: "BatchNorm20"
  top: "BatchNorm20"
}
layer {
  name: "Convolution21"
  type: "Convolution"
  bottom: "BatchNorm20"
  top: "Convolution21"
  convolution_param {
    num_output: 12
    bias_term: true
    pad: 1
    kernel_size: 3
    stride: 1
    weight_filler {
      type: "msra"
    }
    bias_filler {
      type: "constant"
    }
  }
}
layer {
  name: "Dropout21"
  type: "Dropout"
  bottom: "Convolution21"
  top: "Dropout21"
  dropout_param {
    dropout_ratio: 0.2
  }
}
layer {
  name: "Concat19"
  type: "Concat"
  bottom: "Concat18"
  bottom: "Dropout21"
  top: "Concat19"
  concat_param {
    axis: 1
  }
}
layer {
  name: "BatchNorm21"
  type: "BatchNorm"
  bottom: "Concat19"
  top: "BatchNorm21"
  param {
    lr_mult: 0
    decay_mult: 0
  }
  param {
    lr_mult: 0
    decay_mult: 0
  }
  param {
    lr_mult: 0
    decay_mult: 0
  }
}
layer {
  name: "Scale21"
  type: "Scale"
  bottom: "BatchNorm21"
  top: "BatchNorm21"
  scale_param {
    filler {
      value: 1
    }
    bias_term: false
    bias_filler {
      value: 0
    }
  }
}
layer {
  name: "ReLU21"
  type: "ReLU"
  bottom: "BatchNorm21"
  top: "BatchNorm21"
}
layer {
  name: "Convolution22"
  type: "Convolution"
  bottom: "BatchNorm21"
  top: "Convolution22"
  convolution_param {
    num_output: 12
    bias_term: true
    pad: 1
    kernel_size: 3
    stride: 1
    weight_filler {
      type: "msra"
    }
    bias_filler {
      type: "constant"
    }
  }
}
layer {
  name: "Dropout22"
  type: "Dropout"
  bottom: "Convolution22"
  top: "Dropout22"
  dropout_param {
    dropout_ratio: 0.2
  }
}
layer {
  name: "Concat20"
  type: "Concat"
  bottom: "Concat19"
  bottom: "Dropout22"
  top: "Concat20"
  concat_param {
    axis: 1
  }
}
layer {
  name: "BatchNorm22"
  type: "BatchNorm"
  bottom: "Concat20"
  top: "BatchNorm22"
  param {
    lr_mult: 0
    decay_mult: 0
  }
  param {
    lr_mult: 0
    decay_mult: 0
  }
  param {
    lr_mult: 0
    decay_mult: 0
  }
}
layer {
  name: "Scale22"
  type: "Scale"
  bottom: "BatchNorm22"
  top: "BatchNorm22"
  scale_param {
    filler {
      value: 1
    }
    bias_term: false
    bias_filler {
      value: 0
    }
  }
}
layer {
  name: "ReLU22"
  type: "ReLU"
  bottom: "BatchNorm22"
  top: "BatchNorm22"
}
layer {
  name: "Convolution23"
  type: "Convolution"
  bottom: "BatchNorm22"
  top: "Convolution23"
  convolution_param {
    num_output: 12
    bias_term: true
    pad: 1
    kernel_size: 3
    stride: 1
    weight_filler {
      type: "msra"
    }
    bias_filler {
      type: "constant"
    }
  }
}
layer {
  name: "Dropout23"
  type: "Dropout"
  bottom: "Convolution23"
  top: "Dropout23"
  dropout_param {
    dropout_ratio: 0.2
  }
}
layer {
  name: "Concat21"
  type: "Concat"
  bottom: "Concat20"
  bottom: "Dropout23"
  top: "Concat21"
  concat_param {
    axis: 1
  }
}
layer {
  name: "BatchNorm23"
  type: "BatchNorm"
  bottom: "Concat21"
  top: "BatchNorm23"
  param {
    lr_mult: 0
    decay_mult: 0
  }
  param {
    lr_mult: 0
    decay_mult: 0
  }
  param {
    lr_mult: 0
    decay_mult: 0
  }
}
layer {
  name: "Scale23"
  type: "Scale"
  bottom: "BatchNorm23"
  top: "BatchNorm23"
  scale_param {
    filler {
      value: 1
    }
    bias_term: false
    bias_filler {
      value: 0
    }
  }
}
layer {
  name: "ReLU23"
  type: "ReLU"
  bottom: "BatchNorm23"
  top: "BatchNorm23"
}
layer {
  name: "Convolution24"
  type: "Convolution"
  bottom: "BatchNorm23"
  top: "Convolution24"
  convolution_param {
    num_output: 12
    bias_term: true
    pad: 1
    kernel_size: 3
    stride: 1
    weight_filler {
      type: "msra"
    }
    bias_filler {
      type: "constant"
    }
  }
}
layer {
  name: "Dropout24"
  type: "Dropout"
  bottom: "Convolution24"
  top: "Dropout24"
  dropout_param {
    dropout_ratio: 0.2
  }
}
layer {
  name: "Concat22"
  type: "Concat"
  bottom: "Concat21"
  bottom: "Dropout24"
  top: "Concat22"
  concat_param {
    axis: 1
  }
}
layer {
  name: "BatchNorm24"
  type: "BatchNorm"
  bottom: "Concat22"
  top: "BatchNorm24"
  param {
    lr_mult: 0
    decay_mult: 0
  }
  param {
    lr_mult: 0
    decay_mult: 0
  }
  param {
    lr_mult: 0
    decay_mult: 0
  }
}
layer {
  name: "Scale24"
  type: "Scale"
  bottom: "BatchNorm24"
  top: "BatchNorm24"
  scale_param {
    filler {
      value: 1
    }
    bias_term: false
    bias_filler {
      value: 0
    }
  }
}
layer {
  name: "ReLU24"
  type: "ReLU"
  bottom: "BatchNorm24"
  top: "BatchNorm24"
}
layer {
  name: "Convolution25"
  type: "Convolution"
  bottom: "BatchNorm24"
  top: "Convolution25"
  convolution_param {
    num_output: 12
    bias_term: true
    pad: 1
    kernel_size: 3
    stride: 1
    weight_filler {
      type: "msra"
    }
    bias_filler {
      type: "constant"
    }
  }
}
layer {
  name: "Dropout25"
  type: "Dropout"
  bottom: "Convolution25"
  top: "Dropout25"
  dropout_param {
    dropout_ratio: 0.2
  }
}
layer {
  name: "Concat23"
  type: "Concat"
  bottom: "Concat22"
  bottom: "Dropout25"
  top: "Concat23"
  concat_param {
    axis: 1
  }
}
layer {
  name: "BatchNorm25"
  type: "BatchNorm"
  bottom: "Concat23"
  top: "BatchNorm25"
  param {
    lr_mult: 0
    decay_mult: 0
  }
  param {
    lr_mult: 0
    decay_mult: 0
  }
  param {
    lr_mult: 0
    decay_mult: 0
  }
}
layer {
  name: "Scale25"
  type: "Scale"
  bottom: "BatchNorm25"
  top: "BatchNorm25"
  scale_param {
    filler {
      value: 1
    }
    bias_term: false
    bias_filler {
      value: 0
    }
  }
}
layer {
  name: "ReLU25"
  type: "ReLU"
  bottom: "BatchNorm25"
  top: "BatchNorm25"
}
layer {
  name: "Convolution26"
  type: "Convolution"
  bottom: "BatchNorm25"
  top: "Convolution26"
  convolution_param {
    num_output: 12
    bias_term: true
    pad: 1
    kernel_size: 3
    stride: 1
    weight_filler {
      type: "msra"
    }
    bias_filler {
      type: "constant"
    }
  }
}
layer {
  name: "Dropout26"
  type: "Dropout"
  bottom: "Convolution26"
  top: "Dropout26"
  dropout_param {
    dropout_ratio: 0.2
  }
}
layer {
  name: "Concat24"
  type: "Concat"
  bottom: "Concat23"
  bottom: "Dropout26"
  top: "Concat24"
  concat_param {
    axis: 1
  }
}
layer {
  name: "BatchNorm26"
  type: "BatchNorm"
  bottom: "Concat24"
  top: "BatchNorm26"
  param {
    lr_mult: 0
    decay_mult: 0
  }
  param {
    lr_mult: 0
    decay_mult: 0
  }
  param {
    lr_mult: 0
    decay_mult: 0
  }
}
layer {
  name: "Scale26"
  type: "Scale"
  bottom: "BatchNorm26"
  top: "BatchNorm26"
  scale_param {
    filler {
      value: 1
    }
    bias_term: false
    bias_filler {
      value: 0
    }
  }
}
layer {
  name: "ReLU26"
  type: "ReLU"
  bottom: "BatchNorm26"
  top: "BatchNorm26"
}
layer {
  name: "Convolution27"
  type: "Convolution"
  bottom: "BatchNorm26"
  top: "Convolution27"
  convolution_param {
    num_output: 304
    bias_term: true
    pad: 0
    kernel_size: 1
    stride: 1
    weight_filler {
      type: "msra"
    }
    bias_filler {
      type: "constant"
    }
  }
}
layer {
  name: "Dropout27"
  type: "Dropout"
  bottom: "Convolution27"
  top: "Dropout27"
  dropout_param {
    dropout_ratio: 0.2
  }
}
layer {
  name: "Pooling2"
  type: "Pooling"
  bottom: "Dropout27"
  top: "Pooling2"
  pooling_param {
    pool: AVE
    kernel_size: 2
    stride: 2
  }
}
layer {
  name: "BatchNorm27"
  type: "BatchNorm"
  bottom: "Pooling2"
  top: "BatchNorm27"
  param {
    lr_mult: 0
    decay_mult: 0
  }
  param {
    lr_mult: 0
    decay_mult: 0
  }
  param {
    lr_mult: 0
    decay_mult: 0
  }
}
layer {
  name: "Scale27"
  type: "Scale"
  bottom: "BatchNorm27"
  top: "BatchNorm27"
  scale_param {
    filler {
      value: 1
    }
    bias_term: false
    bias_filler {
      value: 0
    }
  }
}
layer {
  name: "ReLU27"
  type
I0905 01:39:05.435802 90901 layer_factory.hpp:77] Creating layer Data1
I0905 01:39:05.435850 90901 net.cpp:100] Creating Layer Data1
I0905 01:39:05.435863 90901 net.cpp:408] Data1 -> Data1
I0905 01:39:05.435896 90901 net.cpp:408] Data1 -> Data2
I0905 01:39:05.436303 90901 image_data_layer.cpp:38] Opening file ../list_bias-1_tr.lst
I0905 01:39:05.992410 90901 image_data_layer.cpp:53] Shuffling data
I0905 01:39:06.187783 90901 image_data_layer.cpp:58] A total of 1056600 images.
I0905 01:39:06.198362 90901 image_data_layer.cpp:85] output data size: 16,3,64,64
I0905 01:39:06.201557 90901 net.cpp:150] Setting up Data1
I0905 01:39:06.201678 90901 net.cpp:157] Top shape: 16 3 64 64 (196608)
I0905 01:39:06.201719 90901 net.cpp:157] Top shape: 16 (16)
I0905 01:39:06.201730 90901 net.cpp:165] Memory required for data: 786496
I0905 01:39:06.201743 90901 layer_factory.hpp:77] Creating layer Convolution1
I0905 01:39:06.201793 90901 net.cpp:100] Creating Layer Convolution1
I0905 01:39:06.201820 90901 net.cpp:434] Convolution1 <- Data1
I0905 01:39:06.201841 90901 net.cpp:408] Convolution1 -> Convolution1
I0905 01:39:06.399050 90901 net.cpp:150] Setting up Convolution1
I0905 01:39:06.399124 90901 net.cpp:157] Top shape: 16 16 64 64 (1048576)
I0905 01:39:06.399135 90901 net.cpp:165] Memory required for data: 4980800
I0905 01:39:06.399163 90901 layer_factory.hpp:77] Creating layer Dropout1
I0905 01:39:06.399183 90901 net.cpp:100] Creating Layer Dropout1
I0905 01:39:06.399194 90901 net.cpp:434] Dropout1 <- Convolution1
I0905 01:39:06.399221 90901 net.cpp:408] Dropout1 -> Dropout1
I0905 01:39:06.399296 90901 net.cpp:150] Setting up Dropout1
I0905 01:39:06.399312 90901 net.cpp:157] Top shape: 16 16 64 64 (1048576)
I0905 01:39:06.399322 90901 net.cpp:165] Memory required for data: 9175104
I0905 01:39:06.399333 90901 layer_factory.hpp:77] Creating layer Dropout1_Dropout1_0_split
I0905 01:39:06.399379 90901 net.cpp:100] Creating Layer Dropout1_Dropout1_0_split
I0905 01:39:06.399389 90901 net.cpp:434] Dropout1_Dropout1_0_split <- Dropout1
I0905 01:39:06.399446 90901 net.cpp:408] Dropout1_Dropout1_0_split -> Dropout1_Dropout1_0_split_0
I0905 01:39:06.399477 90901 net.cpp:408] Dropout1_Dropout1_0_split -> Dropout1_Dropout1_0_split_1
I0905 01:39:06.399564 90901 net.cpp:150] Setting up Dropout1_Dropout1_0_split
I0905 01:39:06.399590 90901 net.cpp:157] Top shape: 16 16 64 64 (1048576)
I0905 01:39:06.399600 90901 net.cpp:157] Top shape: 16 16 64 64 (1048576)
I0905 01:39:06.399619 90901 net.cpp:165] Memory required for data: 17563712
I0905 01:39:06.399628 90901 layer_factory.hpp:77] Creating layer BatchNorm1
I0905 01:39:06.399655 90901 net.cpp:100] Creating Layer BatchNorm1
I0905 01:39:06.399668 90901 net.cpp:434] BatchNorm1 <- Dropout1_Dropout1_0_split_0
I0905 01:39:06.399679 90901 net.cpp:408] BatchNorm1 -> BatchNorm1
I0905 01:39:06.399879 90901 net.cpp:150] Setting up BatchNorm1
I0905 01:39:06.399894 90901 net.cpp:157] Top shape: 16 16 64 64 (1048576)
I0905 01:39:06.399902 90901 net.cpp:165] Memory required for data: 21758016
I0905 01:39:06.399919 90901 layer_factory.hpp:77] Creating layer Scale1
I0905 01:39:06.399940 90901 net.cpp:100] Creating Layer Scale1
I0905 01:39:06.399948 90901 net.cpp:434] Scale1 <- BatchNorm1
I0905 01:39:06.399961 90901 net.cpp:395] Scale1 -> BatchNorm1 (in-place)
I0905 01:39:06.400060 90901 net.cpp:150] Setting up Scale1
I0905 01:39:06.400075 90901 net.cpp:157] Top shape: 16 16 64 64 (1048576)
I0905 01:39:06.400084 90901 net.cpp:165] Memory required for data: 25952320
I0905 01:39:06.400094 90901 layer_factory.hpp:77] Creating layer ReLU1
I0905 01:39:06.400112 90901 net.cpp:100] Creating Layer ReLU1
I0905 01:39:06.400121 90901 net.cpp:434] ReLU1 <- BatchNorm1
I0905 01:39:06.400140 90901 net.cpp:395] ReLU1 -> BatchNorm1 (in-place)
I0905 01:39:06.400332 90901 net.cpp:150] Setting up ReLU1
I0905 01:39:06.400360 90901 net.cpp:157] Top shape: 16 16 64 64 (1048576)
I0905 01:39:06.400368 90901 net.cpp:165] Memory required for data: 30146624
I0905 01:39:06.400378 90901 layer_factory.hpp:77] Creating layer Convolution2
I0905 01:39:06.400400 90901 net.cpp:100] Creating Layer Convolution2
I0905 01:39:06.400413 90901 net.cpp:434] Convolution2 <- BatchNorm1
I0905 01:39:06.400424 90901 net.cpp:408] Convolution2 -> Convolution2
I0905 01:39:06.401805 90901 net.cpp:150] Setting up Convolution2
I0905 01:39:06.401836 90901 net.cpp:157] Top shape: 16 12 64 64 (786432)
I0905 01:39:06.401846 90901 net.cpp:165] Memory required for data: 33292352
I0905 01:39:06.401859 90901 layer_factory.hpp:77] Creating layer Dropout2
I0905 01:39:06.401873 90901 net.cpp:100] Creating Layer Dropout2
I0905 01:39:06.401882 90901 net.cpp:434] Dropout2 <- Convolution2
I0905 01:39:06.401896 90901 net.cpp:408] Dropout2 -> Dropout2
I0905 01:39:06.401945 90901 net.cpp:150] Setting up Dropout2
I0905 01:39:06.401962 90901 net.cpp:157] Top shape: 16 12 64 64 (786432)
I0905 01:39:06.401971 90901 net.cpp:165] Memory required for data: 36438080
I0905 01:39:06.401980 90901 layer_factory.hpp:77] Creating layer Concat1
I0905 01:39:06.402004 90901 net.cpp:100] Creating Layer Concat1
I0905 01:39:06.402014 90901 net.cpp:434] Concat1 <- Dropout1_Dropout1_0_split_1
I0905 01:39:06.402027 90901 net.cpp:434] Concat1 <- Dropout2
I0905 01:39:06.402050 90901 net.cpp:408] Concat1 -> Concat1
I0905 01:39:06.402082 90901 net.cpp:150] Setting up Concat1
I0905 01:39:06.402096 90901 net.cpp:157] Top shape: 16 28 64 64 (1835008)
I0905 01:39:06.402107 90901 net.cpp:165] Memory required for data: 43778112
I0905 01:39:06.402122 90901 layer_factory.hpp:77] Creating layer Concat1_Concat1_0_split
I0905 01:39:06.402137 90901 net.cpp:100] Creating Layer Concat1_Concat1_0_split
I0905 01:39:06.402146 90901 net.cpp:434] Concat1_Concat1_0_split <- Concat1
I0905 01:39:06.402164 90901 net.cpp:408] Concat1_Concat1_0_split -> Concat1_Concat1_0_split_0
I0905 01:39:06.402178 90901 net.cpp:408] Concat1_Concat1_0_split -> Concat1_Concat1_0_split_1
I0905 01:39:06.402225 90901 net.cpp:150] Setting up Concat1_Concat1_0_split
I0905 01:39:06.402237 90901 net.cpp:157] Top shape: 16 28 64 64 (1835008)
I0905 01:39:06.402261 90901 net.cpp:157] Top shape: 16 28 64 64 (1835008)
I0905 01:39:06.402272 90901 net.cpp:165] Memory required for data: 58458176
I0905 01:39:06.402279 90901 layer_factory.hpp:77] Creating layer BatchNorm2
I0905 01:39:06.402290 90901 net.cpp:100] Creating Layer BatchNorm2
I0905 01:39:06.402298 90901 net.cpp:434] BatchNorm2 <- Concat1_Concat1_0_split_0
I0905 01:39:06.402309 90901 net.cpp:408] BatchNorm2 -> BatchNorm2
I0905 01:39:06.402477 90901 net.cpp:150] Setting up BatchNorm2
I0905 01:39:06.402490 90901 net.cpp:157] Top shape: 16 28 64 64 (1835008)
I0905 01:39:06.402498 90901 net.cpp:165] Memory required for data: 65798208
I0905 01:39:06.402516 90901 layer_factory.hpp:77] Creating layer Scale2
I0905 01:39:06.402529 90901 net.cpp:100] Creating Layer Scale2
I0905 01:39:06.402540 90901 net.cpp:434] Scale2 <- BatchNorm2
I0905 01:39:06.402554 90901 net.cpp:395] Scale2 -> BatchNorm2 (in-place)
I0905 01:39:06.402652 90901 net.cpp:150] Setting up Scale2
I0905 01:39:06.402667 90901 net.cpp:157] Top shape: 16 28 64 64 (1835008)
I0905 01:39:06.402675 90901 net.cpp:165] Memory required for data: 73138240
I0905 01:39:06.402688 90901 layer_factory.hpp:77] Creating layer ReLU2
I0905 01:39:06.402699 90901 net.cpp:100] Creating Layer ReLU2
I0905 01:39:06.402707 90901 net.cpp:434] ReLU2 <- BatchNorm2
I0905 01:39:06.402724 90901 net.cpp:395] ReLU2 -> BatchNorm2 (in-place)
I0905 01:39:06.403028 90901 net.cpp:150] Setting up ReLU2
I0905 01:39:06.403046 90901 net.cpp:157] Top shape: 16 28 64 64 (1835008)
I0905 01:39:06.403054 90901 net.cpp:165] Memory required for data: 80478272
I0905 01:39:06.403062 90901 layer_factory.hpp:77] Creating layer Convolution3
I0905 01:39:06.403079 90901 net.cpp:100] Creating Layer Convolution3
I0905 01:39:06.403087 90901 net.cpp:434] Convolution3 <- BatchNorm2
I0905 01:39:06.403100 90901 net.cpp:408] Convolution3 -> Convolution3
I0905 01:39:06.404070 90901 net.cpp:150] Setting up Convolution3
I0905 01:39:06.404090 90901 net.cpp:157] Top shape: 16 12 64 64 (786432)
I0905 01:39:06.404099 90901 net.cpp:165] Memory required for data: 83624000
I0905 01:39:06.404110 90901 layer_factory.hpp:77] Creating layer Dropout3
I0905 01:39:06.404124 90901 net.cpp:100] Creating Layer Dropout3
I0905 01:39:06.404134 90901 net.cpp:434] Dropout3 <- Convolution3
I0905 01:39:06.404144 90901 net.cpp:408] Dropout3 -> Dropout3
I0905 01:39:06.404186 90901 net.cpp:150] Setting up Dropout3
I0905 01:39:06.404196 90901 net.cpp:157] Top shape: 16 12 64 64 (786432)
I0905 01:39:06.404204 90901 net.cpp:165] Memory required for data: 86769728
I0905 01:39:06.404212 90901 layer_factory.hpp:77] Creating layer Concat2
I0905 01:39:06.404227 90901 net.cpp:100] Creating Layer Concat2
I0905 01:39:06.404235 90901 net.cpp:434] Concat2 <- Concat1_Concat1_0_split_1
I0905 01:39:06.404245 90901 net.cpp:434] Concat2 <- Dropout3
I0905 01:39:06.404256 90901 net.cpp:408] Concat2 -> Concat2
I0905 01:39:06.404284 90901 net.cpp:150] Setting up Concat2
I0905 01:39:06.404299 90901 net.cpp:157] Top shape: 16 40 64 64 (2621440)
I0905 01:39:06.404312 90901 net.cpp:165] Memory required for data: 97255488
I0905 01:39:06.404320 90901 layer_factory.hpp:77] Creating layer Concat2_Concat2_0_split
I0905 01:39:06.404331 90901 net.cpp:100] Creating Layer Concat2_Concat2_0_split
I0905 01:39:06.404340 90901 net.cpp:434] Concat2_Concat2_0_split <- Concat2
I0905 01:39:06.404348 90901 net.cpp:408] Concat2_Concat2_0_split -> Concat2_Concat2_0_split_0
I0905 01:39:06.404361 90901 net.cpp:408] Concat2_Concat2_0_split -> Concat2_Concat2_0_split_1
I0905 01:39:06.404397 90901 net.cpp:150] Setting up Concat2_Concat2_0_split
I0905 01:39:06.404408 90901 net.cpp:157] Top shape: 16 40 64 64 (2621440)
I0905 01:39:06.404417 90901 net.cpp:157] Top shape: 16 40 64 64 (2621440)
I0905 01:39:06.404424 90901 net.cpp:165] Memory required for data: 118227008
I0905 01:39:06.404431 90901 layer_factory.hpp:77] Creating layer BatchNorm3
I0905 01:39:06.404443 90901 net.cpp:100] Creating Layer BatchNorm3
I0905 01:39:06.404451 90901 net.cpp:434] BatchNorm3 <- Concat2_Concat2_0_split_0
I0905 01:39:06.404474 90901 net.cpp:408] BatchNorm3 -> BatchNorm3
I0905 01:39:06.404641 90901 net.cpp:150] Setting up BatchNorm3
I0905 01:39:06.404655 90901 net.cpp:157] Top shape: 16 40 64 64 (2621440)
I0905 01:39:06.404664 90901 net.cpp:165] Memory required for data: 128712768
I0905 01:39:06.404678 90901 layer_factory.hpp:77] Creating layer Scale3
I0905 01:39:06.404690 90901 net.cpp:100] Creating Layer Scale3
I0905 01:39:06.404701 90901 net.cpp:434] Scale3 <- BatchNorm3
I0905 01:39:06.404712 90901 net.cpp:395] Scale3 -> BatchNorm3 (in-place)
I0905 01:39:06.404793 90901 net.cpp:150] Setting up Scale3
I0905 01:39:06.404806 90901 net.cpp:157] Top shape: 16 40 64 64 (2621440)
I0905 01:39:06.404817 90901 net.cpp:165] Memory required for data: 139198528
I0905 01:39:06.404826 90901 layer_factory.hpp:77] Creating layer ReLU3
I0905 01:39:06.404837 90901 net.cpp:100] Creating Layer ReLU3
I0905 01:39:06.404845 90901 net.cpp:434] ReLU3 <- BatchNorm3
I0905 01:39:06.404853 90901 net.cpp:395] ReLU3 -> BatchNorm3 (in-place)
I0905 01:39:06.405005 90901 net.cpp:150] Setting up ReLU3
I0905 01:39:06.405020 90901 net.cpp:157] Top shape: 16 40 64 64 (2621440)
I0905 01:39:06.405030 90901 net.cpp:165] Memory required for data: 149684288
I0905 01:39:06.405037 90901 layer_factory.hpp:77] Creating layer Convolution4
I0905 01:39:06.405051 90901 net.cpp:100] Creating Layer Convolution4
I0905 01:39:06.405063 90901 net.cpp:434] Convolution4 <- BatchNorm3
I0905 01:39:06.405076 90901 net.cpp:408] Convolution4 -> Convolution4
I0905 01:39:06.406891 90901 net.cpp:150] Setting up Convolution4
I0905 01:39:06.406914 90901 net.cpp:157] Top shape: 16 12 64 64 (786432)
I0905 01:39:06.406924 90901 net.cpp:165] Memory required for data: 152830016
I0905 01:39:06.406936 90901 layer_factory.hpp:77] Creating layer Dropout4
I0905 01:39:06.406949 90901 net.cpp:100] Creating Layer Dropout4
I0905 01:39:06.406958 90901 net.cpp:434] Dropout4 <- Convolution4
I0905 01:39:06.406970 90901 net.cpp:408] Dropout4 -> Dropout4
I0905 01:39:06.407017 90901 net.cpp:150] Setting up Dropout4
I0905 01:39:06.407032 90901 net.cpp:157] Top shape: 16 12 64 64 (786432)
I0905 01:39:06.407053 90901 net.cpp:165] Memory required for data: 155975744
I0905 01:39:06.407063 90901 layer_factory.hpp:77] Creating layer Concat3
I0905 01:39:06.407078 90901 net.cpp:100] Creating Layer Concat3
I0905 01:39:06.407088 90901 net.cpp:434] Concat3 <- Concat2_Concat2_0_split_1
I0905 01:39:06.407097 90901 net.cpp:434] Concat3 <- Dropout4
I0905 01:39:06.407107 90901 net.cpp:408] Concat3 -> Concat3
I0905 01:39:06.407138 90901 net.cpp:150] Setting up Concat3
I0905 01:39:06.407151 90901 net.cpp:157] Top shape: 16 52 64 64 (3407872)
I0905 01:39:06.407160 90901 net.cpp:165] Memory required for data: 169607232
I0905 01:39:06.407168 90901 layer_factory.hpp:77] Creating layer Concat3_Concat3_0_split
I0905 01:39:06.407182 90901 net.cpp:100] Creating Layer Concat3_Concat3_0_split
I0905 01:39:06.407191 90901 net.cpp:434] Concat3_Concat3_0_split <- Concat3
I0905 01:39:06.407207 90901 net.cpp:408] Concat3_Concat3_0_split -> Concat3_Concat3_0_split_0
I0905 01:39:06.407228 90901 net.cpp:408] Concat3_Concat3_0_split -> Concat3_Concat3_0_split_1
I0905 01:39:06.407269 90901 net.cpp:150] Setting up Concat3_Concat3_0_split
I0905 01:39:06.407284 90901 net.cpp:157] Top shape: 16 52 64 64 (3407872)
I0905 01:39:06.407294 90901 net.cpp:157] Top shape: 16 52 64 64 (3407872)
I0905 01:39:06.407302 90901 net.cpp:165] Memory required for data: 196870208
I0905 01:39:06.407313 90901 layer_factory.hpp:77] Creating layer BatchNorm4
I0905 01:39:06.407328 90901 net.cpp:100] Creating Layer BatchNorm4
I0905 01:39:06.407338 90901 net.cpp:434] BatchNorm4 <- Concat3_Concat3_0_split_0
I0905 01:39:06.407351 90901 net.cpp:408] BatchNorm4 -> BatchNorm4
I0905 01:39:06.407590 90901 net.cpp:150] Setting up BatchNorm4
I0905 01:39:06.407606 90901 net.cpp:157] Top shape: 16 52 64 64 (3407872)
I0905 01:39:06.407614 90901 net.cpp:165] Memory required for data: 210501696
I0905 01:39:06.407627 90901 layer_factory.hpp:77] Creating layer Scale4
I0905 01:39:06.407656 90901 net.cpp:100] Creating Layer Scale4
I0905 01:39:06.407670 90901 net.cpp:434] Scale4 <- BatchNorm4
I0905 01:39:06.407680 90901 net.cpp:395] Scale4 -> BatchNorm4 (in-place)
I0905 01:39:06.407768 90901 net.cpp:150] Setting up Scale4
I0905 01:39:06.407783 90901 net.cpp:157] Top shape: 16 52 64 64 (3407872)
I0905 01:39:06.407793 90901 net.cpp:165] Memory required for data: 224133184
I0905 01:39:06.407802 90901 layer_factory.hpp:77] Creating layer ReLU4
I0905 01:39:06.407820 90901 net.cpp:100] Creating Layer ReLU4
I0905 01:39:06.407831 90901 net.cpp:434] ReLU4 <- BatchNorm4
I0905 01:39:06.407841 90901 net.cpp:395] ReLU4 -> BatchNorm4 (in-place)
I0905 01:39:06.408012 90901 net.cpp:150] Setting up ReLU4
I0905 01:39:06.408028 90901 net.cpp:157] Top shape: 16 52 64 64 (3407872)
I0905 01:39:06.408037 90901 net.cpp:165] Memory required for data: 237764672
I0905 01:39:06.408046 90901 layer_factory.hpp:77] Creating layer Convolution5
I0905 01:39:06.408061 90901 net.cpp:100] Creating Layer Convolution5
I0905 01:39:06.408071 90901 net.cpp:434] Convolution5 <- BatchNorm4
I0905 01:39:06.408083 90901 net.cpp:408] Convolution5 -> Convolution5
I0905 01:39:06.409610 90901 net.cpp:150] Setting up Convolution5
I0905 01:39:06.409633 90901 net.cpp:157] Top shape: 16 12 64 64 (786432)
I0905 01:39:06.409642 90901 net.cpp:165] Memory required for data: 240910400
I0905 01:39:06.409656 90901 layer_factory.hpp:77] Creating layer Dropout5
I0905 01:39:06.409673 90901 net.cpp:100] Creating Layer Dropout5
I0905 01:39:06.409683 90901 net.cpp:434] Dropout5 <- Convolution5
I0905 01:39:06.409694 90901 net.cpp:408] Dropout5 -> Dropout5
I0905 01:39:06.409744 90901 net.cpp:150] Setting up Dropout5
I0905 01:39:06.409759 90901 net.cpp:157] Top shape: 16 12 64 64 (786432)
I0905 01:39:06.409766 90901 net.cpp:165] Memory required for data: 244056128
I0905 01:39:06.409776 90901 layer_factory.hpp:77] Creating layer Concat4
I0905 01:39:06.409790 90901 net.cpp:100] Creating Layer Concat4
I0905 01:39:06.409799 90901 net.cpp:434] Concat4 <- Concat3_Concat3_0_split_1
I0905 01:39:06.409811 90901 net.cpp:434] Concat4 <- Dropout5
I0905 01:39:06.409821 90901 net.cpp:408] Concat4 -> Concat4
I0905 01:39:06.409852 90901 net.cpp:150] Setting up Concat4
I0905 01:39:06.409865 90901 net.cpp:157] Top shape: 16 64 64 64 (4194304)
I0905 01:39:06.409873 90901 net.cpp:165] Memory required for data: 260833344
I0905 01:39:06.409883 90901 layer_factory.hpp:77] Creating layer Concat4_Concat4_0_split
I0905 01:39:06.409895 90901 net.cpp:100] Creating Layer Concat4_Concat4_0_split
I0905 01:39:06.409904 90901 net.cpp:434] Concat4_Concat4_0_split <- Concat4
I0905 01:39:06.409916 90901 net.cpp:408] Concat4_Concat4_0_split -> Concat4_Concat4_0_split_0
I0905 01:39:06.409927 90901 net.cpp:408] Concat4_Concat4_0_split -> Concat4_Concat4_0_split_1
I0905 01:39:06.409967 90901 net.cpp:150] Setting up Concat4_Concat4_0_split
I0905 01:39:06.409981 90901 net.cpp:157] Top shape: 16 64 64 64 (4194304)
I0905 01:39:06.409992 90901 net.cpp:157] Top shape: 16 64 64 64 (4194304)
I0905 01:39:06.410002 90901 net.cpp:165] Memory required for data: 294387776
I0905 01:39:06.410012 90901 layer_factory.hpp:77] Creating layer BatchNorm5
I0905 01:39:06.410027 90901 net.cpp:100] Creating Layer BatchNorm5
I0905 01:39:06.410039 90901 net.cpp:434] BatchNorm5 <- Concat4_Concat4_0_split_0
I0905 01:39:06.410055 90901 net.cpp:408] BatchNorm5 -> BatchNorm5
I0905 01:39:06.410234 90901 net.cpp:150] Setting up BatchNorm5
I0905 01:39:06.410248 90901 net.cpp:157] Top shape: 16 64 64 64 (4194304)
I0905 01:39:06.410257 90901 net.cpp:165] Memory required for data: 311164992
I0905 01:39:06.410270 90901 layer_factory.hpp:77] Creating layer Scale5
I0905 01:39:06.410282 90901 net.cpp:100] Creating Layer Scale5
I0905 01:39:06.410291 90901 net.cpp:434] Scale5 <- BatchNorm5
I0905 01:39:06.410301 90901 net.cpp:395] Scale5 -> BatchNorm5 (in-place)
I0905 01:39:06.410392 90901 net.cpp:150] Setting up Scale5
I0905 01:39:06.410405 90901 net.cpp:157] Top shape: 16 64 64 64 (4194304)
I0905 01:39:06.410413 90901 net.cpp:165] Memory required for data: 327942208
I0905 01:39:06.410437 90901 layer_factory.hpp:77] Creating layer ReLU5
I0905 01:39:06.410454 90901 net.cpp:100] Creating Layer ReLU5
I0905 01:39:06.410462 90901 net.cpp:434] ReLU5 <- BatchNorm5
I0905 01:39:06.410480 90901 net.cpp:395] ReLU5 -> BatchNorm5 (in-place)
I0905 01:39:06.411073 90901 net.cpp:150] Setting up ReLU5
I0905 01:39:06.411097 90901 net.cpp:157] Top shape: 16 64 64 64 (4194304)
I0905 01:39:06.411106 90901 net.cpp:165] Memory required for data: 344719424
I0905 01:39:06.411115 90901 layer_factory.hpp:77] Creating layer Convolution6
I0905 01:39:06.411133 90901 net.cpp:100] Creating Layer Convolution6
I0905 01:39:06.411142 90901 net.cpp:434] Convolution6 <- BatchNorm5
I0905 01:39:06.411156 90901 net.cpp:408] Convolution6 -> Convolution6
I0905 01:39:06.412719 90901 net.cpp:150] Setting up Convolution6
I0905 01:39:06.412744 90901 net.cpp:157] Top shape: 16 12 64 64 (786432)
I0905 01:39:06.412753 90901 net.cpp:165] Memory required for data: 347865152
I0905 01:39:06.412765 90901 layer_factory.hpp:77] Creating layer Dropout6
I0905 01:39:06.412781 90901 net.cpp:100] Creating Layer Dropout6
I0905 01:39:06.412791 90901 net.cpp:434] Dropout6 <- Convolution6
I0905 01:39:06.412801 90901 net.cpp:408] Dropout6 -> Dropout6
I0905 01:39:06.412850 90901 net.cpp:150] Setting up Dropout6
I0905 01:39:06.412866 90901 net.cpp:157] Top shape: 16 12 64 64 (786432)
I0905 01:39:06.412874 90901 net.cpp:165] Memory required for data: 351010880
I0905 01:39:06.412886 90901 layer_factory.hpp:77] Creating layer Concat5
I0905 01:39:06.412899 90901 net.cpp:100] Creating Layer Concat5
I0905 01:39:06.412907 90901 net.cpp:434] Concat5 <- Concat4_Concat4_0_split_1
I0905 01:39:06.412917 90901 net.cpp:434] Concat5 <- Dropout6
I0905 01:39:06.412931 90901 net.cpp:408] Concat5 -> Concat5
I0905 01:39:06.412963 90901 net.cpp:150] Setting up Concat5
I0905 01:39:06.412977 90901 net.cpp:157] Top shape: 16 76 64 64 (4980736)
I0905 01:39:06.412986 90901 net.cpp:165] Memory required for data: 370933824
I0905 01:39:06.412994 90901 layer_factory.hpp:77] Creating layer Concat5_Concat5_0_split
I0905 01:39:06.413007 90901 net.cpp:100] Creating Layer Concat5_Concat5_0_split
I0905 01:39:06.413014 90901 net.cpp:434] Concat5_Concat5_0_split <- Concat5
I0905 01:39:06.413028 90901 net.cpp:408] Concat5_Concat5_0_split -> Concat5_Concat5_0_split_0
I0905 01:39:06.413039 90901 net.cpp:408] Concat5_Concat5_0_split -> Concat5_Concat5_0_split_1
I0905 01:39:06.413079 90901 net.cpp:150] Setting up Concat5_Concat5_0_split
I0905 01:39:06.413096 90901 net.cpp:157] Top shape: 16 76 64 64 (4980736)
I0905 01:39:06.413118 90901 net.cpp:157] Top shape: 16 76 64 64 (4980736)
I0905 01:39:06.413127 90901 net.cpp:165] Memory required for data: 410779712
I0905 01:39:06.413136 90901 layer_factory.hpp:77] Creating layer BatchNorm6
I0905 01:39:06.413153 90901 net.cpp:100] Creating Layer BatchNorm6
I0905 01:39:06.413163 90901 net.cpp:434] BatchNorm6 <- Concat5_Concat5_0_split_0
I0905 01:39:06.413177 90901 net.cpp:408] BatchNorm6 -> BatchNorm6
I0905 01:39:06.413373 90901 net.cpp:150] Setting up BatchNorm6
I0905 01:39:06.413389 90901 net.cpp:157] Top shape: 16 76 64 64 (4980736)
I0905 01:39:06.413403 90901 net.cpp:165] Memory required for data: 430702656
I0905 01:39:06.413419 90901 layer_factory.hpp:77] Creating layer Scale6
I0905 01:39:06.413434 90901 net.cpp:100] Creating Layer Scale6
I0905 01:39:06.413444 90901 net.cpp:434] Scale6 <- BatchNorm6
I0905 01:39:06.413453 90901 net.cpp:395] Scale6 -> BatchNorm6 (in-place)
I0905 01:39:06.413547 90901 net.cpp:150] Setting up Scale6
I0905 01:39:06.413561 90901 net.cpp:157] Top shape: 16 76 64 64 (4980736)
I0905 01:39:06.413569 90901 net.cpp:165] Memory required for data: 450625600
I0905 01:39:06.413580 90901 layer_factory.hpp:77] Creating layer ReLU6
I0905 01:39:06.413594 90901 net.cpp:100] Creating Layer ReLU6
I0905 01:39:06.413604 90901 net.cpp:434] ReLU6 <- BatchNorm6
I0905 01:39:06.413614 90901 net.cpp:395] ReLU6 -> BatchNorm6 (in-place)
I0905 01:39:06.413784 90901 net.cpp:150] Setting up ReLU6
I0905 01:39:06.413801 90901 net.cpp:157] Top shape: 16 76 64 64 (4980736)
I0905 01:39:06.413825 90901 net.cpp:165] Memory required for data: 470548544
I0905 01:39:06.413838 90901 layer_factory.hpp:77] Creating layer Convolution7
I0905 01:39:06.413856 90901 net.cpp:100] Creating Layer Convolution7
I0905 01:39:06.413866 90901 net.cpp:434] Convolution7 <- BatchNorm6
I0905 01:39:06.413878 90901 net.cpp:408] Convolution7 -> Convolution7
I0905 01:39:06.415592 90901 net.cpp:150] Setting up Convolution7
I0905 01:39:06.415618 90901 net.cpp:157] Top shape: 16 12 64 64 (786432)
I0905 01:39:06.415628 90901 net.cpp:165] Memory required for data: 473694272
I0905 01:39:06.415642 90901 layer_factory.hpp:77] Creating layer Dropout7
I0905 01:39:06.415653 90901 net.cpp:100] Creating Layer Dropout7
I0905 01:39:06.415663 90901 net.cpp:434] Dropout7 <- Convolution7
I0905 01:39:06.415676 90901 net.cpp:408] Dropout7 -> Dropout7
I0905 01:39:06.415724 90901 net.cpp:150] Setting up Dropout7
I0905 01:39:06.415737 90901 net.cpp:157] Top shape: 16 12 64 64 (786432)
I0905 01:39:06.415746 90901 net.cpp:165] Memory required for data: 476840000
I0905 01:39:06.415755 90901 layer_factory.hpp:77] Creating layer Concat6
I0905 01:39:06.415769 90901 net.cpp:100] Creating Layer Concat6
I0905 01:39:06.415778 90901 net.cpp:434] Concat6 <- Concat5_Concat5_0_split_1
I0905 01:39:06.415788 90901 net.cpp:434] Concat6 <- Dropout7
I0905 01:39:06.415801 90901 net.cpp:408] Concat6 -> Concat6
I0905 01:39:06.415830 90901 net.cpp:150] Setting up Concat6
I0905 01:39:06.415843 90901 net.cpp:157] Top shape: 16 88 64 64 (5767168)
I0905 01:39:06.415853 90901 net.cpp:165] Memory required for data: 499908672
I0905 01:39:06.415860 90901 layer_factory.hpp:77] Creating layer Concat6_Concat6_0_split
I0905 01:39:06.415871 90901 net.cpp:100] Creating Layer Concat6_Concat6_0_split
I0905 01:39:06.415880 90901 net.cpp:434] Concat6_Concat6_0_split <- Concat6
I0905 01:39:06.415890 90901 net.cpp:408] Concat6_Concat6_0_split -> Concat6_Concat6_0_split_0
I0905 01:39:06.415902 90901 net.cpp:408] Concat6_Concat6_0_split -> Concat6_Concat6_0_split_1
I0905 01:39:06.415942 90901 net.cpp:150] Setting up Concat6_Concat6_0_split
I0905 01:39:06.415956 90901 net.cpp:157] Top shape: 16 88 64 64 (5767168)
I0905 01:39:06.415966 90901 net.cpp:157] Top shape: 16 88 64 64 (5767168)
I0905 01:39:06.415973 90901 net.cpp:165] Memory required for data: 546046016
I0905 01:39:06.415984 90901 layer_factory.hpp:77] Creating layer BatchNorm7
I0905 01:39:06.416002 90901 net.cpp:100] Creating Layer BatchNorm7
I0905 01:39:06.416012 90901 net.cpp:434] BatchNorm7 <- Concat6_Concat6_0_split_0
I0905 01:39:06.416023 90901 net.cpp:408] BatchNorm7 -> BatchNorm7
I0905 01:39:06.416206 90901 net.cpp:150] Setting up BatchNorm7
I0905 01:39:06.416220 90901 net.cpp:157] Top shape: 16 88 64 64 (5767168)
I0905 01:39:06.416229 90901 net.cpp:165] Memory required for data: 569114688
I0905 01:39:06.416241 90901 layer_factory.hpp:77] Creating layer Scale7
I0905 01:39:06.416254 90901 net.cpp:100] Creating Layer Scale7
I0905 01:39:06.416263 90901 net.cpp:434] Scale7 <- BatchNorm7
I0905 01:39:06.416275 90901 net.cpp:395] Scale7 -> BatchNorm7 (in-place)
I0905 01:39:06.416359 90901 net.cpp:150] Setting up Scale7
I0905 01:39:06.416373 90901 net.cpp:157] Top shape: 16 88 64 64 (5767168)
I0905 01:39:06.416383 90901 net.cpp:165] Memory required for data: 592183360
I0905 01:39:06.416391 90901 layer_factory.hpp:77] Creating layer ReLU7
I0905 01:39:06.416405 90901 net.cpp:100] Creating Layer ReLU7
I0905 01:39:06.416415 90901 net.cpp:434] ReLU7 <- BatchNorm7
I0905 01:39:06.416425 90901 net.cpp:395] ReLU7 -> BatchNorm7 (in-place)
I0905 01:39:06.416601 90901 net.cpp:150] Setting up ReLU7
I0905 01:39:06.416617 90901 net.cpp:157] Top shape: 16 88 64 64 (5767168)
I0905 01:39:06.416626 90901 net.cpp:165] Memory required for data: 615252032
I0905 01:39:06.416636 90901 layer_factory.hpp:77] Creating layer Convolution8
I0905 01:39:06.416658 90901 net.cpp:100] Creating Layer Convolution8
I0905 01:39:06.416667 90901 net.cpp:434] Convolution8 <- BatchNorm7
I0905 01:39:06.416679 90901 net.cpp:408] Convolution8 -> Convolution8
I0905 01:39:06.418822 90901 net.cpp:150] Setting up Convolution8
I0905 01:39:06.418853 90901 net.cpp:157] Top shape: 16 12 64 64 (786432)
I0905 01:39:06.418864 90901 net.cpp:165] Memory required for data: 618397760
I0905 01:39:06.418876 90901 layer_factory.hpp:77] Creating layer Dropout8
I0905 01:39:06.418889 90901 net.cpp:100] Creating Layer Dropout8
I0905 01:39:06.418898 90901 net.cpp:434] Dropout8 <- Convolution8
I0905 01:39:06.418910 90901 net.cpp:408] Dropout8 -> Dropout8
I0905 01:39:06.418963 90901 net.cpp:150] Setting up Dropout8
I0905 01:39:06.418977 90901 net.cpp:157] Top shape: 16 12 64 64 (786432)
I0905 01:39:06.418987 90901 net.cpp:165] Memory required for data: 621543488
I0905 01:39:06.418995 90901 layer_factory.hpp:77] Creating layer Concat7
I0905 01:39:06.419015 90901 net.cpp:100] Creating Layer Concat7
I0905 01:39:06.419025 90901 net.cpp:434] Concat7 <- Concat6_Concat6_0_split_1
I0905 01:39:06.419039 90901 net.cpp:434] Concat7 <- Dropout8
I0905 01:39:06.419050 90901 net.cpp:408] Concat7 -> Concat7
I0905 01:39:06.419081 90901 net.cpp:150] Setting up Concat7
I0905 01:39:06.419103 90901 net.cpp:157] Top shape: 16 100 64 64 (6553600)
I0905 01:39:06.419116 90901 net.cpp:165] Memory required for data: 647757888
I0905 01:39:06.419126 90901 layer_factory.hpp:77] Creating layer Concat7_Concat7_0_split
I0905 01:39:06.419139 90901 net.cpp:100] Creating Layer Concat7_Concat7_0_split
I0905 01:39:06.419148 90901 net.cpp:434] Concat7_Concat7_0_split <- Concat7
I0905 01:39:06.419165 90901 net.cpp:408] Concat7_Concat7_0_split -> Concat7_Concat7_0_split_0
I0905 01:39:06.419176 90901 net.cpp:408] Concat7_Concat7_0_split -> Concat7_Concat7_0_split_1
I0905 01:39:06.419216 90901 net.cpp:150] Setting up Concat7_Concat7_0_split
I0905 01:39:06.419229 90901 net.cpp:157] Top shape: 16 100 64 64 (6553600)
I0905 01:39:06.419245 90901 net.cpp:157] Top shape: 16 100 64 64 (6553600)
I0905 01:39:06.419255 90901 net.cpp:165] Memory required for data: 700186688
I0905 01:39:06.419263 90901 layer_factory.hpp:77] Creating layer BatchNorm8
I0905 01:39:06.419275 90901 net.cpp:100] Creating Layer BatchNorm8
I0905 01:39:06.419284 90901 net.cpp:434] BatchNorm8 <- Concat7_Concat7_0_split_0
I0905 01:39:06.419296 90901 net.cpp:408] BatchNorm8 -> BatchNorm8
I0905 01:39:06.419483 90901 net.cpp:150] Setting up BatchNorm8
I0905 01:39:06.419502 90901 net.cpp:157] Top shape: 16 100 64 64 (6553600)
I0905 01:39:06.419509 90901 net.cpp:165] Memory required for data: 726401088
I0905 01:39:06.419523 90901 layer_factory.hpp:77] Creating layer Scale8
I0905 01:39:06.419535 90901 net.cpp:100] Creating Layer Scale8
I0905 01:39:06.419543 90901 net.cpp:434] Scale8 <- BatchNorm8
I0905 01:39:06.419554 90901 net.cpp:395] Scale8 -> BatchNorm8 (in-place)
I0905 01:39:06.419651 90901 net.cpp:150] Setting up Scale8
I0905 01:39:06.419672 90901 net.cpp:157] Top shape: 16 100 64 64 (6553600)
I0905 01:39:06.419682 90901 net.cpp:165] Memory required for data: 752615488
I0905 01:39:06.419692 90901 layer_factory.hpp:77] Creating layer ReLU8
I0905 01:39:06.419706 90901 net.cpp:100] Creating Layer ReLU8
I0905 01:39:06.419721 90901 net.cpp:434] ReLU8 <- BatchNorm8
I0905 01:39:06.419730 90901 net.cpp:395] ReLU8 -> BatchNorm8 (in-place)
I0905 01:39:06.420245 90901 net.cpp:150] Setting up ReLU8
I0905 01:39:06.420266 90901 net.cpp:157] Top shape: 16 100 64 64 (6553600)
I0905 01:39:06.420275 90901 net.cpp:165] Memory required for data: 778829888
I0905 01:39:06.420284 90901 layer_factory.hpp:77] Creating layer Convolution9
I0905 01:39:06.420305 90901 net.cpp:100] Creating Layer Convolution9
I0905 01:39:06.420315 90901 net.cpp:434] Convolution9 <- BatchNorm8
I0905 01:39:06.420328 90901 net.cpp:408] Convolution9 -> Convolution9
I0905 01:39:06.422067 90901 net.cpp:150] Setting up Convolution9
I0905 01:39:06.422088 90901 net.cpp:157] Top shape: 16 12 64 64 (786432)
I0905 01:39:06.422099 90901 net.cpp:165] Memory required for data: 781975616
I0905 01:39:06.422112 90901 layer_factory.hpp:77] Creating layer Dropout9
I0905 01:39:06.422127 90901 net.cpp:100] Creating Layer Dropout9
I0905 01:39:06.422150 90901 net.cpp:434] Dropout9 <- Convolution9
I0905 01:39:06.422163 90901 net.cpp:408] Dropout9 -> Dropout9
I0905 01:39:06.422209 90901 net.cpp:150] Setting up Dropout9
I0905 01:39:06.422225 90901 net.cpp:157] Top shape: 16 12 64 64 (786432)
I0905 01:39:06.422235 90901 net.cpp:165] Memory required for data: 785121344
I0905 01:39:06.422243 90901 layer_factory.hpp:77] Creating layer Concat8
I0905 01:39:06.422256 90901 net.cpp:100] Creating Layer Concat8
I0905 01:39:06.422266 90901 net.cpp:434] Concat8 <- Concat7_Concat7_0_split_1
I0905 01:39:06.422276 90901 net.cpp:434] Concat8 <- Dropout9
I0905 01:39:06.422286 90901 net.cpp:408] Concat8 -> Concat8
I0905 01:39:06.422319 90901 net.cpp:150] Setting up Concat8
I0905 01:39:06.422333 90901 net.cpp:157] Top shape: 16 112 64 64 (7340032)
I0905 01:39:06.422343 90901 net.cpp:165] Memory required for data: 814481472
I0905 01:39:06.422351 90901 layer_factory.hpp:77] Creating layer Concat8_Concat8_0_split
I0905 01:39:06.422363 90901 net.cpp:100] Creating Layer Concat8_Concat8_0_split
I0905 01:39:06.422374 90901 net.cpp:434] Concat8_Concat8_0_split <- Concat8
I0905 01:39:06.422384 90901 net.cpp:408] Concat8_Concat8_0_split -> Concat8_Concat8_0_split_0
I0905 01:39:06.422395 90901 net.cpp:408] Concat8_Concat8_0_split -> Concat8_Concat8_0_split_1
I0905 01:39:06.422441 90901 net.cpp:150] Setting up Concat8_Concat8_0_split
I0905 01:39:06.422454 90901 net.cpp:157] Top shape: 16 112 64 64 (7340032)
I0905 01:39:06.422464 90901 net.cpp:157] Top shape: 16 112 64 64 (7340032)
I0905 01:39:06.422475 90901 net.cpp:165] Memory required for data: 873201728
I0905 01:39:06.422483 90901 layer_factory.hpp:77] Creating layer BatchNorm9
I0905 01:39:06.422494 90901 net.cpp:100] Creating Layer BatchNorm9
I0905 01:39:06.422503 90901 net.cpp:434] BatchNorm9 <- Concat8_Concat8_0_split_0
I0905 01:39:06.422515 90901 net.cpp:408] BatchNorm9 -> BatchNorm9
I0905 01:39:06.422777 90901 net.cpp:150] Setting up BatchNorm9
I0905 01:39:06.422793 90901 net.cpp:157] Top shape: 16 112 64 64 (7340032)
I0905 01:39:06.422802 90901 net.cpp:165] Memory required for data: 902561856
I0905 01:39:06.422816 90901 layer_factory.hpp:77] Creating layer Scale9
I0905 01:39:06.422827 90901 net.cpp:100] Creating Layer Scale9
I0905 01:39:06.422837 90901 net.cpp:434] Scale9 <- BatchNorm9
I0905 01:39:06.422848 90901 net.cpp:395] Scale9 -> BatchNorm9 (in-place)
I0905 01:39:06.422945 90901 net.cpp:150] Setting up Scale9
I0905 01:39:06.422966 90901 net.cpp:157] Top shape: 16 112 64 64 (7340032)
I0905 01:39:06.422976 90901 net.cpp:165] Memory required for data: 931921984
I0905 01:39:06.422989 90901 layer_factory.hpp:77] Creating layer ReLU9
I0905 01:39:06.422999 90901 net.cpp:100] Creating Layer ReLU9
I0905 01:39:06.423008 90901 net.cpp:434] ReLU9 <- BatchNorm9
I0905 01:39:06.423025 90901 net.cpp:395] ReLU9 -> BatchNorm9 (in-place)
I0905 01:39:06.423441 90901 net.cpp:150] Setting up ReLU9
I0905 01:39:06.423458 90901 net.cpp:157] Top shape: 16 112 64 64 (7340032)
I0905 01:39:06.423466 90901 net.cpp:165] Memory required for data: 961282112
I0905 01:39:06.423475 90901 layer_factory.hpp:77] Creating layer Convolution10
I0905 01:39:06.423492 90901 net.cpp:100] Creating Layer Convolution10
I0905 01:39:06.423502 90901 net.cpp:434] Convolution10 <- BatchNorm9
I0905 01:39:06.423516 90901 net.cpp:408] Convolution10 -> Convolution10
I0905 01:39:06.426923 90901 net.cpp:150] Setting up Convolution10
I0905 01:39:06.426944 90901 net.cpp:157] Top shape: 16 12 64 64 (786432)
I0905 01:39:06.426954 90901 net.cpp:165] Memory required for data: 964427840
I0905 01:39:06.426965 90901 layer_factory.hpp:77] Creating layer Dropout10
I0905 01:39:06.426990 90901 net.cpp:100] Creating Layer Dropout10
I0905 01:39:06.427000 90901 net.cpp:434] Dropout10 <- Convolution10
I0905 01:39:06.427011 90901 net.cpp:408] Dropout10 -> Dropout10
I0905 01:39:06.427059 90901 net.cpp:150] Setting up Dropout10
I0905 01:39:06.427076 90901 net.cpp:157] Top shape: 16 12 64 64 (786432)
I0905 01:39:06.427085 90901 net.cpp:165] Memory required for data: 967573568
I0905 01:39:06.427098 90901 layer_factory.hpp:77] Creating layer Concat9
I0905 01:39:06.427124 90901 net.cpp:100] Creating Layer Concat9
I0905 01:39:06.427134 90901 net.cpp:434] Concat9 <- Concat8_Concat8_0_split_1
I0905 01:39:06.427144 90901 net.cpp:434] Concat9 <- Dropout10
I0905 01:39:06.427153 90901 net.cpp:408] Concat9 -> Concat9
I0905 01:39:06.427186 90901 net.cpp:150] Setting up Concat9
I0905 01:39:06.427198 90901 net.cpp:157] Top shape: 16 124 64 64 (8126464)
I0905 01:39:06.427211 90901 net.cpp:165] Memory required for data: 1000079424
I0905 01:39:06.427219 90901 layer_factory.hpp:77] Creating layer Concat9_Concat9_0_split
I0905 01:39:06.427232 90901 net.cpp:100] Creating Layer Concat9_Concat9_0_split
I0905 01:39:06.427242 90901 net.cpp:434] Concat9_Concat9_0_split <- Concat9
I0905 01:39:06.427251 90901 net.cpp:408] Concat9_Concat9_0_split -> Concat9_Concat9_0_split_0
I0905 01:39:06.427263 90901 net.cpp:408] Concat9_Concat9_0_split -> Concat9_Concat9_0_split_1
I0905 01:39:06.427312 90901 net.cpp:150] Setting up Concat9_Concat9_0_split
I0905 01:39:06.427326 90901 net.cpp:157] Top shape: 16 124 64 64 (8126464)
I0905 01:39:06.427335 90901 net.cpp:157] Top shape: 16 124 64 64 (8126464)
I0905 01:39:06.427347 90901 net.cpp:165] Memory required for data: 1065091136
I0905 01:39:06.427356 90901 layer_factory.hpp:77] Creating layer BatchNorm10
I0905 01:39:06.427372 90901 net.cpp:100] Creating Layer BatchNorm10
I0905 01:39:06.427381 90901 net.cpp:434] BatchNorm10 <- Concat9_Concat9_0_split_0
I0905 01:39:06.427392 90901 net.cpp:408] BatchNorm10 -> BatchNorm10
I0905 01:39:06.427582 90901 net.cpp:150] Setting up BatchNorm10
I0905 01:39:06.427595 90901 net.cpp:157] Top shape: 16 124 64 64 (8126464)
I0905 01:39:06.427604 90901 net.cpp:165] Memory required for data: 1097596992
I0905 01:39:06.427618 90901 layer_factory.hpp:77] Creating layer Scale10
I0905 01:39:06.427629 90901 net.cpp:100] Creating Layer Scale10
I0905 01:39:06.427639 90901 net.cpp:434] Scale10 <- BatchNorm10
I0905 01:39:06.427649 90901 net.cpp:395] Scale10 -> BatchNorm10 (in-place)
I0905 01:39:06.427738 90901 net.cpp:150] Setting up Scale10
I0905 01:39:06.427752 90901 net.cpp:157] Top shape: 16 124 64 64 (8126464)
I0905 01:39:06.427767 90901 net.cpp:165] Memory required for data: 1130102848
I0905 01:39:06.427778 90901 layer_factory.hpp:77] Creating layer ReLU10
I0905 01:39:06.427790 90901 net.cpp:100] Creating Layer ReLU10
I0905 01:39:06.427799 90901 net.cpp:434] ReLU10 <- BatchNorm10
I0905 01:39:06.427810 90901 net.cpp:395] ReLU10 -> BatchNorm10 (in-place)
I0905 01:39:06.427980 90901 net.cpp:150] Setting up ReLU10
I0905 01:39:06.427996 90901 net.cpp:157] Top shape: 16 124 64 64 (8126464)
I0905 01:39:06.428005 90901 net.cpp:165] Memory required for data: 1162608704
I0905 01:39:06.428016 90901 layer_factory.hpp:77] Creating layer Convolution11
I0905 01:39:06.428033 90901 net.cpp:100] Creating Layer Convolution11
I0905 01:39:06.428043 90901 net.cpp:434] Convolution11 <- BatchNorm10
I0905 01:39:06.428056 90901 net.cpp:408] Convolution11 -> Convolution11
I0905 01:39:06.433634 90901 net.cpp:150] Setting up Convolution11
I0905 01:39:06.433655 90901 net.cpp:157] Top shape: 16 12 64 64 (786432)
I0905 01:39:06.433663 90901 net.cpp:165] Memory required for data: 1165754432
I0905 01:39:06.433676 90901 layer_factory.hpp:77] Creating layer Dropout11
I0905 01:39:06.433691 90901 net.cpp:100] Creating Layer Dropout11
I0905 01:39:06.433699 90901 net.cpp:434] Dropout11 <- Convolution11
I0905 01:39:06.433712 90901 net.cpp:408] Dropout11 -> Dropout11
I0905 01:39:06.433760 90901 net.cpp:150] Setting up Dropout11
I0905 01:39:06.433774 90901 net.cpp:157] Top shape: 16 12 64 64 (786432)
I0905 01:39:06.433784 90901 net.cpp:165] Memory required for data: 1168900160
I0905 01:39:06.433792 90901 layer_factory.hpp:77] Creating layer Concat10
I0905 01:39:06.433809 90901 net.cpp:100] Creating Layer Concat10
I0905 01:39:06.433820 90901 net.cpp:434] Concat10 <- Concat9_Concat9_0_split_1
I0905 01:39:06.433830 90901 net.cpp:434] Concat10 <- Dropout11
I0905 01:39:06.433840 90901 net.cpp:408] Concat10 -> Concat10
I0905 01:39:06.433883 90901 net.cpp:150] Setting up Concat10
I0905 01:39:06.433904 90901 net.cpp:157] Top shape: 16 136 64 64 (8912896)
I0905 01:39:06.433912 90901 net.cpp:165] Memory required for data: 1204551744
I0905 01:39:06.433922 90901 layer_factory.hpp:77] Creating layer Concat10_Concat10_0_split
I0905 01:39:06.433935 90901 net.cpp:100] Creating Layer Concat10_Concat10_0_split
I0905 01:39:06.433946 90901 net.cpp:434] Concat10_Concat10_0_split <- Concat10
I0905 01:39:06.433959 90901 net.cpp:408] Concat10_Concat10_0_split -> Concat10_Concat10_0_split_0
I0905 01:39:06.433977 90901 net.cpp:408] Concat10_Concat10_0_split -> Concat10_Concat10_0_split_1
I0905 01:39:06.434020 90901 net.cpp:150] Setting up Concat10_Concat10_0_split
I0905 01:39:06.434042 90901 net.cpp:157] Top shape: 16 136 64 64 (8912896)
I0905 01:39:06.434052 90901 net.cpp:157] Top shape: 16 136 64 64 (8912896)
I0905 01:39:06.434061 90901 net.cpp:165] Memory required for data: 1275854912
I0905 01:39:06.434072 90901 layer_factory.hpp:77] Creating layer BatchNorm11
I0905 01:39:06.434085 90901 net.cpp:100] Creating Layer BatchNorm11
I0905 01:39:06.434098 90901 net.cpp:434] BatchNorm11 <- Concat10_Concat10_0_split_0
I0905 01:39:06.434110 90901 net.cpp:408] BatchNorm11 -> BatchNorm11
I0905 01:39:06.434293 90901 net.cpp:150] Setting up BatchNorm11
I0905 01:39:06.434308 90901 net.cpp:157] Top shape: 16 136 64 64 (8912896)
I0905 01:39:06.434316 90901 net.cpp:165] Memory required for data: 1311506496
I0905 01:39:06.434339 90901 layer_factory.hpp:77] Creating layer Scale11
I0905 01:39:06.434353 90901 net.cpp:100] Creating Layer Scale11
I0905 01:39:06.434365 90901 net.cpp:434] Scale11 <- BatchNorm11
I0905 01:39:06.434376 90901 net.cpp:395] Scale11 -> BatchNorm11 (in-place)
I0905 01:39:06.434469 90901 net.cpp:150] Setting up Scale11
I0905 01:39:06.434492 90901 net.cpp:157] Top shape: 16 136 64 64 (8912896)
I0905 01:39:06.434501 90901 net.cpp:165] Memory required for data: 1347158080
I0905 01:39:06.434514 90901 layer_factory.hpp:77] Creating layer ReLU11
I0905 01:39:06.434525 90901 net.cpp:100] Creating Layer ReLU11
I0905 01:39:06.434538 90901 net.cpp:434] ReLU11 <- BatchNorm11
I0905 01:39:06.434550 90901 net.cpp:395] ReLU11 -> BatchNorm11 (in-place)
I0905 01:39:06.440390 90901 net.cpp:150] Setting up ReLU11
I0905 01:39:06.440414 90901 net.cpp:157] Top shape: 16 136 64 64 (8912896)
I0905 01:39:06.440423 90901 net.cpp:165] Memory required for data: 1382809664
I0905 01:39:06.440433 90901 layer_factory.hpp:77] Creating layer Convolution12
I0905 01:39:06.440450 90901 net.cpp:100] Creating Layer Convolution12
I0905 01:39:06.440460 90901 net.cpp:434] Convolution12 <- BatchNorm11
I0905 01:39:06.440474 90901 net.cpp:408] Convolution12 -> Convolution12
I0905 01:39:06.458142 90901 net.cpp:150] Setting up Convolution12
I0905 01:39:06.458168 90901 net.cpp:157] Top shape: 16 12 64 64 (786432)
I0905 01:39:06.458178 90901 net.cpp:165] Memory required for data: 1385955392
I0905 01:39:06.458191 90901 layer_factory.hpp:77] Creating layer Dropout12
I0905 01:39:06.458204 90901 net.cpp:100] Creating Layer Dropout12
I0905 01:39:06.458212 90901 net.cpp:434] Dropout12 <- Convolution12
I0905 01:39:06.458226 90901 net.cpp:408] Dropout12 -> Dropout12
I0905 01:39:06.458273 90901 net.cpp:150] Setting up Dropout12
I0905 01:39:06.458288 90901 net.cpp:157] Top shape: 16 12 64 64 (786432)
I0905 01:39:06.458297 90901 net.cpp:165] Memory required for data: 1389101120
I0905 01:39:06.458307 90901 layer_factory.hpp:77] Creating layer Concat11
I0905 01:39:06.458319 90901 net.cpp:100] Creating Layer Concat11
I0905 01:39:06.458329 90901 net.cpp:434] Concat11 <- Concat10_Concat10_0_split_1
I0905 01:39:06.458338 90901 net.cpp:434] Concat11 <- Dropout12
I0905 01:39:06.458349 90901 net.cpp:408] Concat11 -> Concat11
I0905 01:39:06.458379 90901 net.cpp:150] Setting up Concat11
I0905 01:39:06.458392 90901 net.cpp:157] Top shape: 16 148 64 64 (9699328)
I0905 01:39:06.458401 90901 net.cpp:165] Memory required for data: 1427898432
I0905 01:39:06.458410 90901 layer_factory.hpp:77] Creating layer Concat11_Concat11_0_split
I0905 01:39:06.458437 90901 net.cpp:100] Creating Layer Concat11_Concat11_0_split
I0905 01:39:06.458451 90901 net.cpp:434] Concat11_Concat11_0_split <- Concat11
I0905 01:39:06.458472 90901 net.cpp:408] Concat11_Concat11_0_split -> Concat11_Concat11_0_split_0
I0905 01:39:06.458483 90901 net.cpp:408] Concat11_Concat11_0_split -> Concat11_Concat11_0_split_1
I0905 01:39:06.458533 90901 net.cpp:150] Setting up Concat11_Concat11_0_split
I0905 01:39:06.458547 90901 net.cpp:157] Top shape: 16 148 64 64 (9699328)
I0905 01:39:06.458560 90901 net.cpp:157] Top shape: 16 148 64 64 (9699328)
I0905 01:39:06.458571 90901 net.cpp:165] Memory required for data: 1505493056
I0905 01:39:06.458585 90901 layer_factory.hpp:77] Creating layer BatchNorm12
I0905 01:39:06.458595 90901 net.cpp:100] Creating Layer BatchNorm12
I0905 01:39:06.458605 90901 net.cpp:434] BatchNorm12 <- Concat11_Concat11_0_split_0
I0905 01:39:06.458619 90901 net.cpp:408] BatchNorm12 -> BatchNorm12
I0905 01:39:06.458889 90901 net.cpp:150] Setting up BatchNorm12
I0905 01:39:06.458904 90901 net.cpp:157] Top shape: 16 148 64 64 (9699328)
I0905 01:39:06.458914 90901 net.cpp:165] Memory required for data: 1544290368
I0905 01:39:06.458925 90901 layer_factory.hpp:77] Creating layer Scale12
I0905 01:39:06.458940 90901 net.cpp:100] Creating Layer Scale12
I0905 01:39:06.458951 90901 net.cpp:434] Scale12 <- BatchNorm12
I0905 01:39:06.458961 90901 net.cpp:395] Scale12 -> BatchNorm12 (in-place)
I0905 01:39:06.459050 90901 net.cpp:150] Setting up Scale12
I0905 01:39:06.459066 90901 net.cpp:157] Top shape: 16 148 64 64 (9699328)
I0905 01:39:06.459075 90901 net.cpp:165] Memory required for data: 1583087680
I0905 01:39:06.459090 90901 layer_factory.hpp:77] Creating layer ReLU12
I0905 01:39:06.459103 90901 net.cpp:100] Creating Layer ReLU12
I0905 01:39:06.459120 90901 net.cpp:434] ReLU12 <- BatchNorm12
I0905 01:39:06.459128 90901 net.cpp:395] ReLU12 -> BatchNorm12 (in-place)
I0905 01:39:06.459297 90901 net.cpp:150] Setting up ReLU12
I0905 01:39:06.459313 90901 net.cpp:157] Top shape: 16 148 64 64 (9699328)
I0905 01:39:06.459321 90901 net.cpp:165] Memory required for data: 1621884992
I0905 01:39:06.459331 90901 layer_factory.hpp:77] Creating layer Convolution13
I0905 01:39:06.459347 90901 net.cpp:100] Creating Layer Convolution13
I0905 01:39:06.459358 90901 net.cpp:434] Convolution13 <- BatchNorm12
I0905 01:39:06.459373 90901 net.cpp:408] Convolution13 -> Convolution13
I0905 01:39:06.467540 90901 net.cpp:150] Setting up Convolution13
I0905 01:39:06.467564 90901 net.cpp:157] Top shape: 16 12 64 64 (786432)
I0905 01:39:06.467577 90901 net.cpp:165] Memory required for data: 1625030720
I0905 01:39:06.467589 90901 layer_factory.hpp:77] Creating layer Dropout13
I0905 01:39:06.467602 90901 net.cpp:100] Creating Layer Dropout13
I0905 01:39:06.467612 90901 net.cpp:434] Dropout13 <- Convolution13
I0905 01:39:06.467625 90901 net.cpp:408] Dropout13 -> Dropout13
I0905 01:39:06.467674 90901 net.cpp:150] Setting up Dropout13
I0905 01:39:06.467689 90901 net.cpp:157] Top shape: 16 12 64 64 (786432)
I0905 01:39:06.467697 90901 net.cpp:165] Memory required for data: 1628176448
I0905 01:39:06.467706 90901 layer_factory.hpp:77] Creating layer Concat12
I0905 01:39:06.467722 90901 net.cpp:100] Creating Layer Concat12
I0905 01:39:06.467731 90901 net.cpp:434] Concat12 <- Concat11_Concat11_0_split_1
I0905 01:39:06.467741 90901 net.cpp:434] Concat12 <- Dropout13
I0905 01:39:06.467753 90901 net.cpp:408] Concat12 -> Concat12
I0905 01:39:06.467787 90901 net.cpp:150] Setting up Concat12
I0905 01:39:06.467803 90901 net.cpp:157] Top shape: 16 160 64 64 (10485760)
I0905 01:39:06.467819 90901 net.cpp:165] Memory required for data: 1670119488
I0905 01:39:06.467828 90901 layer_factory.hpp:77] Creating layer BatchNorm13
I0905 01:39:06.467841 90901 net.cpp:100] Creating Layer BatchNorm13
I0905 01:39:06.467850 90901 net.cpp:434] BatchNorm13 <- Concat12
I0905 01:39:06.467870 90901 net.cpp:408] BatchNorm13 -> BatchNorm13
I0905 01:39:06.468060 90901 net.cpp:150] Setting up BatchNorm13
I0905 01:39:06.468075 90901 net.cpp:157] Top shape: 16 160 64 64 (10485760)
I0905 01:39:06.468097 90901 net.cpp:165] Memory required for data: 1712062528
I0905 01:39:06.468111 90901 layer_factory.hpp:77] Creating layer Scale13
I0905 01:39:06.468123 90901 net.cpp:100] Creating Layer Scale13
I0905 01:39:06.468133 90901 net.cpp:434] Scale13 <- BatchNorm13
I0905 01:39:06.468143 90901 net.cpp:395] Scale13 -> BatchNorm13 (in-place)
I0905 01:39:06.468238 90901 net.cpp:150] Setting up Scale13
I0905 01:39:06.468262 90901 net.cpp:157] Top shape: 16 160 64 64 (10485760)
I0905 01:39:06.468271 90901 net.cpp:165] Memory required for data: 1754005568
I0905 01:39:06.468281 90901 layer_factory.hpp:77] Creating layer ReLU13
I0905 01:39:06.468297 90901 net.cpp:100] Creating Layer ReLU13
I0905 01:39:06.468307 90901 net.cpp:434] ReLU13 <- BatchNorm13
I0905 01:39:06.468317 90901 net.cpp:395] ReLU13 -> BatchNorm13 (in-place)
I0905 01:39:06.468487 90901 net.cpp:150] Setting up ReLU13
I0905 01:39:06.468510 90901 net.cpp:157] Top shape: 16 160 64 64 (10485760)
I0905 01:39:06.468520 90901 net.cpp:165] Memory required for data: 1795948608
I0905 01:39:06.468528 90901 layer_factory.hpp:77] Creating layer Convolution14
I0905 01:39:06.468546 90901 net.cpp:100] Creating Layer Convolution14
I0905 01:39:06.468556 90901 net.cpp:434] Convolution14 <- BatchNorm13
I0905 01:39:06.468569 90901 net.cpp:408] Convolution14 -> Convolution14
I0905 01:39:06.471146 90901 net.cpp:150] Setting up Convolution14
I0905 01:39:06.471168 90901 net.cpp:157] Top shape: 16 160 64 64 (10485760)
I0905 01:39:06.471177 90901 net.cpp:165] Memory required for data: 1837891648
I0905 01:39:06.471190 90901 layer_factory.hpp:77] Creating layer Dropout14
I0905 01:39:06.471205 90901 net.cpp:100] Creating Layer Dropout14
I0905 01:39:06.471215 90901 net.cpp:434] Dropout14 <- Convolution14
I0905 01:39:06.471225 90901 net.cpp:408] Dropout14 -> Dropout14
I0905 01:39:06.471276 90901 net.cpp:150] Setting up Dropout14
I0905 01:39:06.471292 90901 net.cpp:157] Top shape: 16 160 64 64 (10485760)
I0905 01:39:06.471302 90901 net.cpp:165] Memory required for data: 1879834688
I0905 01:39:06.471309 90901 layer_factory.hpp:77] Creating layer Pooling1
I0905 01:39:06.471324 90901 net.cpp:100] Creating Layer Pooling1
I0905 01:39:06.471333 90901 net.cpp:434] Pooling1 <- Dropout14
I0905 01:39:06.471343 90901 net.cpp:408] Pooling1 -> Pooling1
I0905 01:39:06.471699 90901 net.cpp:150] Setting up Pooling1
I0905 01:39:06.471719 90901 net.cpp:157] Top shape: 16 160 32 32 (2621440)
I0905 01:39:06.471729 90901 net.cpp:165] Memory required for data: 1890320448
I0905 01:39:06.471737 90901 layer_factory.hpp:77] Creating layer Pooling1_Pooling1_0_split
I0905 01:39:06.471750 90901 net.cpp:100] Creating Layer Pooling1_Pooling1_0_split
I0905 01:39:06.471760 90901 net.cpp:434] Pooling1_Pooling1_0_split <- Pooling1
I0905 01:39:06.471771 90901 net.cpp:408] Pooling1_Pooling1_0_split -> Pooling1_Pooling1_0_split_0
I0905 01:39:06.471781 90901 net.cpp:408] Pooling1_Pooling1_0_split -> Pooling1_Pooling1_0_split_1
I0905 01:39:06.471827 90901 net.cpp:150] Setting up Pooling1_Pooling1_0_split
I0905 01:39:06.471839 90901 net.cpp:157] Top shape: 16 160 32 32 (2621440)
I0905 01:39:06.471848 90901 net.cpp:157] Top shape: 16 160 32 32 (2621440)
I0905 01:39:06.471856 90901 net.cpp:165] Memory required for data: 1911291968
I0905 01:39:06.471865 90901 layer_factory.hpp:77] Creating layer BatchNorm14
I0905 01:39:06.471881 90901 net.cpp:100] Creating Layer BatchNorm14
I0905 01:39:06.471890 90901 net.cpp:434] BatchNorm14 <- Pooling1_Pooling1_0_split_0
I0905 01:39:06.471901 90901 net.cpp:408] BatchNorm14 -> BatchNorm14
I0905 01:39:06.472103 90901 net.cpp:150] Setting up BatchNorm14
I0905 01:39:06.472118 90901 net.cpp:157] Top shape: 16 160 32 32 (2621440)
I0905 01:39:06.472126 90901 net.cpp:165] Memory required for data: 1921777728
I0905 01:39:06.472139 90901 layer_factory.hpp:77] Creating layer Scale14
I0905 01:39:06.472154 90901 net.cpp:100] Creating Layer Scale14
I0905 01:39:06.472164 90901 net.cpp:434] Scale14 <- BatchNorm14
I0905 01:39:06.472174 90901 net.cpp:395] Scale14 -> BatchNorm14 (in-place)
I0905 01:39:06.472290 90901 net.cpp:150] Setting up Scale14
I0905 01:39:06.472311 90901 net.cpp:157] Top shape: 16 160 32 32 (2621440)
I0905 01:39:06.472321 90901 net.cpp:165] Memory required for data: 1932263488
I0905 01:39:06.472334 90901 layer_factory.hpp:77] Creating layer ReLU14
I0905 01:39:06.472345 90901 net.cpp:100] Creating Layer ReLU14
I0905 01:39:06.472365 90901 net.cpp:434] ReLU14 <- BatchNorm14
I0905 01:39:06.472378 90901 net.cpp:395] ReLU14 -> BatchNorm14 (in-place)
I0905 01:39:06.472542 90901 net.cpp:150] Setting up ReLU14
I0905 01:39:06.472559 90901 net.cpp:157] Top shape: 16 160 32 32 (2621440)
I0905 01:39:06.472568 90901 net.cpp:165] Memory required for data: 1942749248
I0905 01:39:06.472578 90901 layer_factory.hpp:77] Creating layer Convolution15
I0905 01:39:06.472594 90901 net.cpp:100] Creating Layer Convolution15
I0905 01:39:06.472604 90901 net.cpp:434] Convolution15 <- BatchNorm14
I0905 01:39:06.472615 90901 net.cpp:408] Convolution15 -> Convolution15
I0905 01:39:06.474166 90901 net.cpp:150] Setting up Convolution15
I0905 01:39:06.474187 90901 net.cpp:157] Top shape: 16 12 32 32 (196608)
I0905 01:39:06.474196 90901 net.cpp:165] Memory required for data: 1943535680
I0905 01:39:06.474208 90901 layer_factory.hpp:77] Creating layer Dropout15
I0905 01:39:06.474220 90901 net.cpp:100] Creating Layer Dropout15
I0905 01:39:06.474231 90901 net.cpp:434] Dropout15 <- Convolution15
I0905 01:39:06.474243 90901 net.cpp:408] Dropout15 -> Dropout15
I0905 01:39:06.474290 90901 net.cpp:150] Setting up Dropout15
I0905 01:39:06.474305 90901 net.cpp:157] Top shape: 16 12 32 32 (196608)
I0905 01:39:06.474314 90901 net.cpp:165] Memory required for data: 1944322112
I0905 01:39:06.474323 90901 layer_factory.hpp:77] Creating layer Concat13
I0905 01:39:06.474336 90901 net.cpp:100] Creating Layer Concat13
I0905 01:39:06.474346 90901 net.cpp:434] Concat13 <- Pooling1_Pooling1_0_split_1
I0905 01:39:06.474355 90901 net.cpp:434] Concat13 <- Dropout15
I0905 01:39:06.474370 90901 net.cpp:408] Concat13 -> Concat13
I0905 01:39:06.474401 90901 net.cpp:150] Setting up Concat13
I0905 01:39:06.474413 90901 net.cpp:157] Top shape: 16 172 32 32 (2818048)
I0905 01:39:06.474422 90901 net.cpp:165] Memory required for data: 1955594304
I0905 01:39:06.474431 90901 layer_factory.hpp:77] Creating layer Concat13_Concat13_0_split
I0905 01:39:06.474442 90901 net.cpp:100] Creating Layer Concat13_Concat13_0_split
I0905 01:39:06.474450 90901 net.cpp:434] Concat13_Concat13_0_split <- Concat13
I0905 01:39:06.474462 90901 net.cpp:408] Concat13_Concat13_0_split -> Concat13_Concat13_0_split_0
I0905 01:39:06.474473 90901 net.cpp:408] Concat13_Concat13_0_split -> Concat13_Concat13_0_split_1
I0905 01:39:06.474514 90901 net.cpp:150] Setting up Concat13_Concat13_0_split
I0905 01:39:06.474526 90901 net.cpp:157] Top shape: 16 172 32 32 (2818048)
I0905 01:39:06.474535 90901 net.cpp:157] Top shape: 16 172 32 32 (2818048)
I0905 01:39:06.474544 90901 net.cpp:165] Memory required for data: 1978138688
I0905 01:39:06.474552 90901 layer_factory.hpp:77] Creating layer BatchNorm15
I0905 01:39:06.474566 90901 net.cpp:100] Creating Layer BatchNorm15
I0905 01:39:06.474575 90901 net.cpp:434] BatchNorm15 <- Concat13_Concat13_0_split_0
I0905 01:39:06.474586 90901 net.cpp:408] BatchNorm15 -> BatchNorm15
I0905 01:39:06.474810 90901 net.cpp:150] Setting up BatchNorm15
I0905 01:39:06.474825 90901 net.cpp:157] Top shape: 16 172 32 32 (2818048)
I0905 01:39:06.474833 90901 net.cpp:165] Memory required for data: 1989410880
I0905 01:39:06.474846 90901 layer_factory.hpp:77] Creating layer Scale15
I0905 01:39:06.474858 90901 net.cpp:100] Creating Layer Scale15
I0905 01:39:06.474867 90901 net.cpp:434] Scale15 <- BatchNorm15
I0905 01:39:06.474879 90901 net.cpp:395] Scale15 -> BatchNorm15 (in-place)
I0905 01:39:06.474973 90901 net.cpp:150] Setting up Scale15
I0905 01:39:06.474988 90901 net.cpp:157] Top shape: 16 172 32 32 (2818048)
I0905 01:39:06.475000 90901 net.cpp:165] Memory required for data: 2000683072
I0905 01:39:06.475015 90901 layer_factory.hpp:77] Creating layer ReLU15
I0905 01:39:06.475039 90901 net.cpp:100] Creating Layer ReLU15
I0905 01:39:06.475049 90901 net.cpp:434] ReLU15 <- BatchNorm15
I0905 01:39:06.475059 90901 net.cpp:395] ReLU15 -> BatchNorm15 (in-place)
I0905 01:39:06.475381 90901 net.cpp:150] Setting up ReLU15
I0905 01:39:06.475399 90901 net.cpp:157] Top shape: 16 172 32 32 (2818048)
I0905 01:39:06.475409 90901 net.cpp:165] Memory required for data: 2011955264
I0905 01:39:06.475417 90901 layer_factory.hpp:77] Creating layer Convolution16
I0905 01:39:06.475436 90901 net.cpp:100] Creating Layer Convolution16
I0905 01:39:06.475446 90901 net.cpp:434] Convolution16 <- BatchNorm15
I0905 01:39:06.475461 90901 net.cpp:408] Convolution16 -> Convolution16
I0905 01:39:06.477046 90901 net.cpp:150] Setting up Convolution16
I0905 01:39:06.477067 90901 net.cpp:157] Top shape: 16 12 32 32 (196608)
I0905 01:39:06.477077 90901 net.cpp:165] Memory required for data: 2012741696
I0905 01:39:06.477089 90901 layer_factory.hpp:77] Creating layer Dropout16
I0905 01:39:06.477103 90901 net.cpp:100] Creating Layer Dropout16
I0905 01:39:06.477113 90901 net.cpp:434] Dropout16 <- Convolution16
I0905 01:39:06.477124 90901 net.cpp:408] Dropout16 -> Dropout16
I0905 01:39:06.477174 90901 net.cpp:150] Setting up Dropout16
I0905 01:39:06.477188 90901 net.cpp:157] Top shape: 16 12 32 32 (196608)
I0905 01:39:06.477200 90901 net.cpp:165] Memory required for data: 2013528128
I0905 01:39:06.477208 90901 layer_factory.hpp:77] Creating layer Concat14
I0905 01:39:06.477224 90901 net.cpp:100] Creating Layer Concat14
I0905 01:39:06.477233 90901 net.cpp:434] Concat14 <- Concat13_Concat13_0_split_1
I0905 01:39:06.477243 90901 net.cpp:434] Concat14 <- Dropout16
I0905 01:39:06.477264 90901 net.cpp:408] Concat14 -> Concat14
I0905 01:39:06.477293 90901 net.cpp:150] Setting up Concat14
I0905 01:39:06.477304 90901 net.cpp:157] Top shape: 16 184 32 32 (3014656)
I0905 01:39:06.477314 90901 net.cpp:165] Memory required for data: 2025586752
I0905 01:39:06.477322 90901 layer_factory.hpp:77] Creating layer Concat14_Concat14_0_split
I0905 01:39:06.477335 90901 net.cpp:100] Creating Layer Concat14_Concat14_0_split
I0905 01:39:06.477344 90901 net.cpp:434] Concat14_Concat14_0_split <- Concat14
I0905 01:39:06.477356 90901 net.cpp:408] Concat14_Concat14_0_split -> Concat14_Concat14_0_split_0
I0905 01:39:06.477367 90901 net.cpp:408] Concat14_Concat14_0_split -> Concat14_Concat14_0_split_1
I0905 01:39:06.477407 90901 net.cpp:150] Setting up Concat14_Concat14_0_split
I0905 01:39:06.477428 90901 net.cpp:157] Top shape: 16 184 32 32 (3014656)
I0905 01:39:06.477437 90901 net.cpp:157] Top shape: 16 184 32 32 (3014656)
I0905 01:39:06.477445 90901 net.cpp:165] Memory required for data: 2049704000
I0905 01:39:06.477454 90901 layer_factory.hpp:77] Creating layer BatchNorm16
I0905 01:39:06.477466 90901 net.cpp:100] Creating Layer BatchNorm16
I0905 01:39:06.477475 90901 net.cpp:434] BatchNorm16 <- Concat14_Concat14_0_split_0
I0905 01:39:06.477486 90901 net.cpp:408] BatchNorm16 -> BatchNorm16
I0905 01:39:06.477679 90901 net.cpp:150] Setting up BatchNorm16
I0905 01:39:06.477694 90901 net.cpp:157] Top shape: 16 184 32 32 (3014656)
I0905 01:39:06.477701 90901 net.cpp:165] Memory required for data: 2061762624
I0905 01:39:06.477713 90901 layer_factory.hpp:77] Creating layer Scale16
I0905 01:39:06.477728 90901 net.cpp:100] Creating Layer Scale16
I0905 01:39:06.477737 90901 net.cpp:434] Scale16 <- BatchNorm16
I0905 01:39:06.477751 90901 net.cpp:395] Scale16 -> BatchNorm16 (in-place)
I0905 01:39:06.477844 90901 net.cpp:150] Setting up Scale16
I0905 01:39:06.477867 90901 net.cpp:157] Top shape: 16 184 32 32 (3014656)
I0905 01:39:06.477877 90901 net.cpp:165] Memory required for data: 2073821248
I0905 01:39:06.477890 90901 layer_factory.hpp:77] Creating layer ReLU16
I0905 01:39:06.477900 90901 net.cpp:100] Creating Layer ReLU16
I0905 01:39:06.477919 90901 net.cpp:434] ReLU16 <- BatchNorm16
I0905 01:39:06.477931 90901 net.cpp:395] ReLU16 -> BatchNorm16 (in-place)
I0905 01:39:06.478241 90901 net.cpp:150] Setting up ReLU16
I0905 01:39:06.478260 90901 net.cpp:157] Top shape: 16 184 32 32 (3014656)
I0905 01:39:06.478281 90901 net.cpp:165] Memory required for data: 2085879872
I0905 01:39:06.478291 90901 layer_factory.hpp:77] Creating layer Convolution17
I0905 01:39:06.478309 90901 net.cpp:100] Creating Layer Convolution17
I0905 01:39:06.478319 90901 net.cpp:434] Convolution17 <- BatchNorm16
I0905 01:39:06.478340 90901 net.cpp:408] Convolution17 -> Convolution17
I0905 01:39:06.479976 90901 net.cpp:150] Setting up Convolution17
I0905 01:39:06.480005 90901 net.cpp:157] Top shape: 16 12 32 32 (196608)
I0905 01:39:06.480015 90901 net.cpp:165] Memory required for data: 2086666304
I0905 01:39:06.480026 90901 layer_factory.hpp:77] Creating layer Dropout17
I0905 01:39:06.480039 90901 net.cpp:100] Creating Layer Dropout17
I0905 01:39:06.480048 90901 net.cpp:434] Dropout17 <- Convolution17
I0905 01:39:06.480062 90901 net.cpp:408] Dropout17 -> Dropout17
I0905 01:39:06.480116 90901 net.cpp:150] Setting up Dropout17
I0905 01:39:06.480130 90901 net.cpp:157] Top shape: 16 12 32 32 (196608)
I0905 01:39:06.480139 90901 net.cpp:165] Memory required for data: 2087452736
I0905 01:39:06.480149 90901 layer_factory.hpp:77] Creating layer Concat15
I0905 01:39:06.480165 90901 net.cpp:100] Creating Layer Concat15
I0905 01:39:06.480175 90901 net.cpp:434] Concat15 <- Concat14_Concat14_0_split_1
I0905 01:39:06.480195 90901 net.cpp:434] Concat15 <- Dropout17
I0905 01:39:06.480204 90901 net.cpp:408] Concat15 -> Concat15
I0905 01:39:06.480237 90901 net.cpp:150] Setting up Concat15
I0905 01:39:06.480248 90901 net.cpp:157] Top shape: 16 196 32 32 (3211264)
I0905 01:39:06.480257 90901 net.cpp:165] Memory required for data: 2100297792
I0905 01:39:06.480265 90901 layer_factory.hpp:77] Creating layer Concat15_Concat15_0_split
I0905 01:39:06.480275 90901 net.cpp:100] Creating Layer Concat15_Concat15_0_split
I0905 01:39:06.480284 90901 net.cpp:434] Concat15_Concat15_0_split <- Concat15
I0905 01:39:06.480298 90901 net.cpp:408] Concat15_Concat15_0_split -> Concat15_Concat15_0_split_0
I0905 01:39:06.480309 90901 net.cpp:408] Concat15_Concat15_0_split -> Concat15_Concat15_0_split_1
I0905 01:39:06.480348 90901 net.cpp:150] Setting up Concat15_Concat15_0_split
I0905 01:39:06.480362 90901 net.cpp:157] Top shape: 16 196 32 32 (3211264)
I0905 01:39:06.480372 90901 net.cpp:157] Top shape: 16 196 32 32 (3211264)
I0905 01:39:06.480383 90901 net.cpp:165] Memory required for data: 2125987904
I0905 01:39:06.480391 90901 layer_factory.hpp:77] Creating layer BatchNorm17
I0905 01:39:06.480402 90901 net.cpp:100] Creating Layer BatchNorm17
I0905 01:39:06.480412 90901 net.cpp:434] BatchNorm17 <- Concat15_Concat15_0_split_0
I0905 01:39:06.480424 90901 net.cpp:408] BatchNorm17 -> BatchNorm17
I0905 01:39:06.480625 90901 net.cpp:150] Setting up BatchNorm17
I0905 01:39:06.480639 90901 net.cpp:157] Top shape: 16 196 32 32 (3211264)
I0905 01:39:06.480648 90901 net.cpp:165] Memory required for data: 2138832960
I0905 01:39:06.480660 90901 layer_factory.hpp:77] Creating layer Scale17
I0905 01:39:06.480674 90901 net.cpp:100] Creating Layer Scale17
I0905 01:39:06.480697 90901 net.cpp:434] Scale17 <- BatchNorm17
I0905 01:39:06.480707 90901 net.cpp:395] Scale17 -> BatchNorm17 (in-place)
I0905 01:39:06.480815 90901 net.cpp:150] Setting up Scale17
I0905 01:39:06.480836 90901 net.cpp:157] Top shape: 16 196 32 32 (3211264)
I0905 01:39:06.480845 90901 net.cpp:165] Memory required for data: 2151678016
I0905 01:39:06.480857 90901 layer_factory.hpp:77] Creating layer ReLU17
I0905 01:39:06.480870 90901 net.cpp:100] Creating Layer ReLU17
I0905 01:39:06.480880 90901 net.cpp:434] ReLU17 <- BatchNorm17
I0905 01:39:06.480890 90901 net.cpp:395] ReLU17 -> BatchNorm17 (in-place)
I0905 01:39:06.481068 90901 net.cpp:150] Setting up ReLU17
I0905 01:39:06.481084 90901 net.cpp:157] Top shape: 16 196 32 32 (3211264)
I0905 01:39:06.481097 90901 net.cpp:165] Memory required for data: 2164523072
I0905 01:39:06.481107 90901 layer_factory.hpp:77] Creating layer Convolution18
I0905 01:39:06.481123 90901 net.cpp:100] Creating Layer Convolution18
I0905 01:39:06.481133 90901 net.cpp:434] Convolution18 <- BatchNorm17
I0905 01:39:06.481163 90901 net.cpp:408] Convolution18 -> Convolution18
I0905 01:39:06.482882 90901 net.cpp:150] Setting up Convolution18
I0905 01:39:06.482905 90901 net.cpp:157] Top shape: 16 12 32 32 (196608)
I0905 01:39:06.482914 90901 net.cpp:165] Memory required for data: 2165309504
I0905 01:39:06.482928 90901 layer_factory.hpp:77] Creating layer Dropout18
I0905 01:39:06.482939 90901 net.cpp:100] Creating Layer Dropout18
I0905 01:39:06.482950 90901 net.cpp:434] Dropout18 <- Convolution18
I0905 01:39:06.482964 90901 net.cpp:408] Dropout18 -> Dropout18
I0905 01:39:06.483023 90901 net.cpp:150] Setting up Dropout18
I0905 01:39:06.483037 90901 net.cpp:157] Top shape: 16 12 32 32 (196608)
I0905 01:39:06.483047 90901 net.cpp:165] Memory required for data: 2166095936
I0905 01:39:06.483055 90901 layer_factory.hpp:77] Creating layer Concat16
I0905 01:39:06.483073 90901 net.cpp:100] Creating Layer Concat16
I0905 01:39:06.483083 90901 net.cpp:434] Concat16 <- Concat15_Concat15_0_split_1
I0905 01:39:06.483100 90901 net.cpp:434] Concat16 <- Dropout18
I0905 01:39:06.483109 90901 net.cpp:408] Concat16 -> Concat16
I0905 01:39:06.483142 90901 net.cpp:150] Setting up Concat16
I0905 01:39:06.483155 90901 net.cpp:157] Top shape: 16 208 32 32 (3407872)
I0905 01:39:06.483163 90901 net.cpp:165] Memory required for data: 2179727424
I0905 01:39:06.483171 90901 layer_factory.hpp:77] Creating layer Concat16_Concat16_0_split
I0905 01:39:06.483181 90901 net.cpp:100] Creating Layer Concat16_Concat16_0_split
I0905 01:39:06.483191 90901 net.cpp:434] Concat16_Concat16_0_split <- Concat16
I0905 01:39:06.483202 90901 net.cpp:408] Concat16_Concat16_0_split -> Concat16_Concat16_0_split_0
I0905 01:39:06.483214 90901 net.cpp:408] Concat16_Concat16_0_split -> Concat16_Concat16_0_split_1
I0905 01:39:06.483255 90901 net.cpp:150] Setting up Concat16_Concat16_0_split
I0905 01:39:06.483269 90901 net.cpp:157] Top shape: 16 208 32 32 (3407872)
I0905 01:39:06.483278 90901 net.cpp:157] Top shape: 16 208 32 32 (3407872)
I0905 01:39:06.483286 90901 net.cpp:165] Memory required for data: 2206990400
I0905 01:39:06.483294 90901 layer_factory.hpp:77] Creating layer BatchNorm18
I0905 01:39:06.483305 90901 net.cpp:100] Creating Layer BatchNorm18
I0905 01:39:06.483314 90901 net.cpp:434] BatchNorm18 <- Concat16_Concat16_0_split_0
I0905 01:39:06.483330 90901 net.cpp:408] BatchNorm18 -> BatchNorm18
I0905 01:39:06.483530 90901 net.cpp:150] Setting up BatchNorm18
I0905 01:39:06.483544 90901 net.cpp:157] Top shape: 16 208 32 32 (3407872)
I0905 01:39:06.483552 90901 net.cpp:165] Memory required for data: 2220621888
I0905 01:39:06.483566 90901 layer_factory.hpp:77] Creating layer Scale18
I0905 01:39:06.483579 90901 net.cpp:100] Creating Layer Scale18
I0905 01:39:06.483589 90901 net.cpp:434] Scale18 <- BatchNorm18
I0905 01:39:06.483599 90901 net.cpp:395] Scale18 -> BatchNorm18 (in-place)
I0905 01:39:06.483693 90901 net.cpp:150] Setting up Scale18
I0905 01:39:06.483716 90901 net.cpp:157] Top shape: 16 208 32 32 (3407872)
I0905 01:39:06.483723 90901 net.cpp:165] Memory required for data: 2234253376
I0905 01:39:06.483734 90901 layer_factory.hpp:77] Creating layer ReLU18
I0905 01:39:06.483747 90901 net.cpp:100] Creating Layer ReLU18
I0905 01:39:06.483757 90901 net.cpp:434] ReLU18 <- BatchNorm18
I0905 01:39:06.483767 90901 net.cpp:395] ReLU18 -> BatchNorm18 (in-place)
I0905 01:39:06.484088 90901 net.cpp:150] Setting up ReLU18
I0905 01:39:06.484107 90901 net.cpp:157] Top shape: 16 208 32 32 (3407872)
I0905 01:39:06.484117 90901 net.cpp:165] Memory required for data: 2247884864
I0905 01:39:06.484125 90901 layer_factory.hpp:77] Creating layer Convolution19
I0905 01:39:06.484144 90901 net.cpp:100] Creating Layer Convolution19
I0905 01:39:06.484153 90901 net.cpp:434] Convolution19 <- BatchNorm18
I0905 01:39:06.484166 90901 net.cpp:408] Convolution19 -> Convolution19
I0905 01:39:06.485740 90901 net.cpp:150] Setting up Convolution19
I0905 01:39:06.485762 90901 net.cpp:157] Top shape: 16 12 32 32 (196608)
I0905 01:39:06.485771 90901 net.cpp:165] Memory required for data: 2248671296
I0905 01:39:06.485800 90901 layer_factory.hpp:77] Creating layer Dropout19
I0905 01:39:06.485813 90901 net.cpp:100] Creating Layer Dropout19
I0905 01:39:06.485831 90901 net.cpp:434] Dropout19 <- Convolution19
I0905 01:39:06.485847 90901 net.cpp:408] Dropout19 -> Dropout19
I0905 01:39:06.485899 90901 net.cpp:150] Setting up Dropout19
I0905 01:39:06.485914 90901 net.cpp:157] Top shape: 16 12 32 32 (196608)
I0905 01:39:06.485923 90901 net.cpp:165] Memory required for data: 2249457728
I0905 01:39:06.485931 90901 layer_factory.hpp:77] Creating layer Concat17
I0905 01:39:06.485947 90901 net.cpp:100] Creating Layer Concat17
I0905 01:39:06.485956 90901 net.cpp:434] Concat17 <- Concat16_Concat16_0_split_1
I0905 01:39:06.485966 90901 net.cpp:434] Concat17 <- Dropout19
I0905 01:39:06.485987 90901 net.cpp:408] Concat17 -> Concat17
I0905 01:39:06.486019 90901 net.cpp:150] Setting up Concat17
I0905 01:39:06.486032 90901 net.cpp:157] Top shape: 16 220 32 32 (3604480)
I0905 01:39:06.486040 90901 net.cpp:165] Memory required for data: 2263875648
I0905 01:39:06.486048 90901 layer_factory.hpp:77] Creating layer Concat17_Concat17_0_split
I0905 01:39:06.486071 90901 net.cpp:100] Creating Layer Concat17_Concat17_0_split
I0905 01:39:06.486081 90901 net.cpp:434] Concat17_Concat17_0_split <- Concat17
I0905 01:39:06.486093 90901 net.cpp:408] Concat17_Concat17_0_split -> Concat17_Concat17_0_split_0
I0905 01:39:06.486104 90901 net.cpp:408] Concat17_Concat17_0_split -> Concat17_Concat17_0_split_1
I0905 01:39:06.486150 90901 net.cpp:150] Setting up Concat17_Concat17_0_split
I0905 01:39:06.486161 90901 net.cpp:157] Top shape: 16 220 32 32 (3604480)
I0905 01:39:06.486171 90901 net.cpp:157] Top shape: 16 220 32 32 (3604480)
I0905 01:39:06.486179 90901 net.cpp:165] Memory required for data: 2292711488
I0905 01:39:06.486187 90901 layer_factory.hpp:77] Creating layer BatchNorm19
I0905 01:39:06.486202 90901 net.cpp:100] Creating Layer BatchNorm19
I0905 01:39:06.486210 90901 net.cpp:434] BatchNorm19 <- Concat17_Concat17_0_split_0
I0905 01:39:06.486220 90901 net.cpp:408] BatchNorm19 -> BatchNorm19
I0905 01:39:06.486425 90901 net.cpp:150] Setting up BatchNorm19
I0905 01:39:06.486439 90901 net.cpp:157] Top shape: 16 220 32 32 (3604480)
I0905 01:39:06.486449 90901 net.cpp:165] Memory required for data: 2307129408
I0905 01:39:06.486461 90901 layer_factory.hpp:77] Creating layer Scale19
I0905 01:39:06.486475 90901 net.cpp:100] Creating Layer Scale19
I0905 01:39:06.486485 90901 net.cpp:434] Scale19 <- BatchNorm19
I0905 01:39:06.486495 90901 net.cpp:395] Scale19 -> BatchNorm19 (in-place)
I0905 01:39:06.486593 90901 net.cpp:150] Setting up Scale19
I0905 01:39:06.486613 90901 net.cpp:157] Top shape: 16 220 32 32 (3604480)
I0905 01:39:06.486621 90901 net.cpp:165] Memory required for data: 2321547328
I0905 01:39:06.486647 90901 layer_factory.hpp:77] Creating layer ReLU19
I0905 01:39:06.486661 90901 net.cpp:100] Creating Layer ReLU19
I0905 01:39:06.486685 90901 net.cpp:434] ReLU19 <- BatchNorm19
I0905 01:39:06.486697 90901 net.cpp:395] ReLU19 -> BatchNorm19 (in-place)
I0905 01:39:06.487025 90901 net.cpp:150] Setting up ReLU19
I0905 01:39:06.487045 90901 net.cpp:157] Top shape: 16 220 32 32 (3604480)
I0905 01:39:06.487053 90901 net.cpp:165] Memory required for data: 2335965248
I0905 01:39:06.487062 90901 layer_factory.hpp:77] Creating layer Convolution20
I0905 01:39:06.487079 90901 net.cpp:100] Creating Layer Convolution20
I0905 01:39:06.487090 90901 net.cpp:434] Convolution20 <- BatchNorm19
I0905 01:39:06.487103 90901 net.cpp:408] Convolution20 -> Convolution20
I0905 01:39:06.488829 90901 net.cpp:150] Setting up Convolution20
I0905 01:39:06.488849 90901 net.cpp:157] Top shape: 16 12 32 32 (196608)
I0905 01:39:06.488858 90901 net.cpp:165] Memory required for data: 2336751680
I0905 01:39:06.488870 90901 layer_factory.hpp:77] Creating layer Dropout20
I0905 01:39:06.488884 90901 net.cpp:100] Creating Layer Dropout20
I0905 01:39:06.488894 90901 net.cpp:434] Dropout20 <- Convolution20
I0905 01:39:06.488905 90901 net.cpp:408] Dropout20 -> Dropout20
I0905 01:39:06.488960 90901 net.cpp:150] Setting up Dropout20
I0905 01:39:06.488986 90901 net.cpp:157] Top shape: 16 12 32 32 (196608)
I0905 01:39:06.488994 90901 net.cpp:165] Memory required for data: 2337538112
I0905 01:39:06.489007 90901 layer_factory.hpp:77] Creating layer Concat18
I0905 01:39:06.489019 90901 net.cpp:100] Creating Layer Concat18
I0905 01:39:06.489030 90901 net.cpp:434] Concat18 <- Concat17_Concat17_0_split_1
I0905 01:39:06.489048 90901 net.cpp:434] Concat18 <- Dropout20
I0905 01:39:06.489058 90901 net.cpp:408] Concat18 -> Concat18
I0905 01:39:06.489089 90901 net.cpp:150] Setting up Concat18
I0905 01:39:06.489102 90901 net.cpp:157] Top shape: 16 232 32 32 (3801088)
I0905 01:39:06.489114 90901 net.cpp:165] Memory required for data: 2352742464
I0905 01:39:06.489122 90901 layer_factory.hpp:77] Creating layer Concat18_Concat18_0_split
I0905 01:39:06.489137 90901 net.cpp:100] Creating Layer Concat18_Concat18_0_split
I0905 01:39:06.489146 90901 net.cpp:434] Concat18_Concat18_0_split <- Concat18
I0905 01:39:06.489162 90901 net.cpp:408] Concat18_Concat18_0_split -> Concat18_Concat18_0_split_0
I0905 01:39:06.489181 90901 net.cpp:408] Concat18_Concat18_0_split -> Concat18_Concat18_0_split_1
I0905 01:39:06.489223 90901 net.cpp:150] Setting up Concat18_Concat18_0_split
I0905 01:39:06.489234 90901 net.cpp:157] Top shape: 16 232 32 32 (3801088)
I0905 01:39:06.489244 90901 net.cpp:157] Top shape: 16 232 32 32 (3801088)
I0905 01:39:06.489253 90901 net.cpp:165] Memory required for data: 2383151168
I0905 01:39:06.489261 90901 layer_factory.hpp:77] Creating layer BatchNorm20
I0905 01:39:06.489274 90901 net.cpp:100] Creating Layer BatchNorm20
I0905 01:39:06.489282 90901 net.cpp:434] BatchNorm20 <- Concat18_Concat18_0_split_0
I0905 01:39:06.489294 90901 net.cpp:408] BatchNorm20 -> BatchNorm20
I0905 01:39:06.489495 90901 net.cpp:150] Setting up BatchNorm20
I0905 01:39:06.489509 90901 net.cpp:157] Top shape: 16 232 32 32 (3801088)
I0905 01:39:06.489518 90901 net.cpp:165] Memory required for data: 2398355520
I0905 01:39:06.489531 90901 layer_factory.hpp:77] Creating layer Scale20
I0905 01:39:06.489545 90901 net.cpp:100] Creating Layer Scale20
I0905 01:39:06.489554 90901 net.cpp:434] Scale20 <- BatchNorm20
I0905 01:39:06.489565 90901 net.cpp:395] Scale20 -> BatchNorm20 (in-place)
I0905 01:39:06.489660 90901 net.cpp:150] Setting up Scale20
I0905 01:39:06.489675 90901 net.cpp:157] Top shape: 16 232 32 32 (3801088)
I0905 01:39:06.489684 90901 net.cpp:165] Memory required for data: 2413559872
I0905 01:39:06.489697 90901 layer_factory.hpp:77] Creating layer ReLU20
I0905 01:39:06.489708 90901 net.cpp:100] Creating Layer ReLU20
I0905 01:39:06.489719 90901 net.cpp:434] ReLU20 <- BatchNorm20
I0905 01:39:06.489732 90901 net.cpp:395] ReLU20 -> BatchNorm20 (in-place)
I0905 01:39:06.489914 90901 net.cpp:150] Setting up ReLU20
I0905 01:39:06.489930 90901 net.cpp:157] Top shape: 16 232 32 32 (3801088)
I0905 01:39:06.489938 90901 net.cpp:165] Memory required for data: 2428764224
I0905 01:39:06.489948 90901 layer_factory.hpp:77] Creating layer Convolution21
I0905 01:39:06.489966 90901 net.cpp:100] Creating Layer Convolution21
I0905 01:39:06.489975 90901 net.cpp:434] Convolution21 <- BatchNorm20
I0905 01:39:06.489989 90901 net.cpp:408] Convolution21 -> Convolution21
I0905 01:39:06.491788 90901 net.cpp:150] Setting up Convolution21
I0905 01:39:06.491809 90901 net.cpp:157] Top shape: 16 12 32 32 (196608)
I0905 01:39:06.491819 90901 net.cpp:165] Memory required for data: 2429550656
I0905 01:39:06.491832 90901 layer_factory.hpp:77] Creating layer Dropout21
I0905 01:39:06.491847 90901 net.cpp:100] Creating Layer Dropout21
I0905 01:39:06.491857 90901 net.cpp:434] Dropout21 <- Convolution21
I0905 01:39:06.491868 90901 net.cpp:408] Dropout21 -> Dropout21
I0905 01:39:06.491930 90901 net.cpp:150] Setting up Dropout21
I0905 01:39:06.491943 90901 net.cpp:157] Top shape: 16 12 32 32 (196608)
I0905 01:39:06.491955 90901 net.cpp:165] Memory required for data: 2430337088
I0905 01:39:06.491963 90901 layer_factory.hpp:77] Creating layer Concat19
I0905 01:39:06.491982 90901 net.cpp:100] Creating Layer Concat19
I0905 01:39:06.492012 90901 net.cpp:434] Concat19 <- Concat18_Concat18_0_split_1
I0905 01:39:06.492027 90901 net.cpp:434] Concat19 <- Dropout21
I0905 01:39:06.492036 90901 net.cpp:408] Concat19 -> Concat19
I0905 01:39:06.492069 90901 net.cpp:150] Setting up Concat19
I0905 01:39:06.492082 90901 net.cpp:157] Top shape: 16 244 32 32 (3997696)
I0905 01:39:06.492091 90901 net.cpp:165] Memory required for data: 2446327872
I0905 01:39:06.492103 90901 layer_factory.hpp:77] Creating layer Concat19_Concat19_0_split
I0905 01:39:06.492117 90901 net.cpp:100] Creating Layer Concat19_Concat19_0_split
I0905 01:39:06.492125 90901 net.cpp:434] Concat19_Concat19_0_split <- Concat19
I0905 01:39:06.492139 90901 net.cpp:408] Concat19_Concat19_0_split -> Concat19_Concat19_0_split_0
I0905 01:39:06.492152 90901 net.cpp:408] Concat19_Concat19_0_split -> Concat19_Concat19_0_split_1
I0905 01:39:06.492194 90901 net.cpp:150] Setting up Concat19_Concat19_0_split
I0905 01:39:06.492207 90901 net.cpp:157] Top shape: 16 244 32 32 (3997696)
I0905 01:39:06.492223 90901 net.cpp:157] Top shape: 16 244 32 32 (3997696)
I0905 01:39:06.492233 90901 net.cpp:165] Memory required for data: 2478309440
I0905 01:39:06.492240 90901 layer_factory.hpp:77] Creating layer BatchNorm21
I0905 01:39:06.492254 90901 net.cpp:100] Creating Layer BatchNorm21
I0905 01:39:06.492264 90901 net.cpp:434] BatchNorm21 <- Concat19_Concat19_0_split_0
I0905 01:39:06.492274 90901 net.cpp:408] BatchNorm21 -> BatchNorm21
I0905 01:39:06.492478 90901 net.cpp:150] Setting up BatchNorm21
I0905 01:39:06.492493 90901 net.cpp:157] Top shape: 16 244 32 32 (3997696)
I0905 01:39:06.492502 90901 net.cpp:165] Memory required for data: 2494300224
I0905 01:39:06.492514 90901 layer_factory.hpp:77] Creating layer Scale21
I0905 01:39:06.492532 90901 net.cpp:100] Creating Layer Scale21
I0905 01:39:06.492540 90901 net.cpp:434] Scale21 <- BatchNorm21
I0905 01:39:06.492550 90901 net.cpp:395] Scale21 -> BatchNorm21 (in-place)
I0905 01:39:06.492648 90901 net.cpp:150] Setting up Scale21
I0905 01:39:06.492671 90901 net.cpp:157] Top shape: 16 244 32 32 (3997696)
I0905 01:39:06.492681 90901 net.cpp:165] Memory required for data: 2510291008
I0905 01:39:06.492691 90901 layer_factory.hpp:77] Creating layer ReLU21
I0905 01:39:06.492703 90901 net.cpp:100] Creating Layer ReLU21
I0905 01:39:06.492712 90901 net.cpp:434] ReLU21 <- BatchNorm21
I0905 01:39:06.492723 90901 net.cpp:395] ReLU21 -> BatchNorm21 (in-place)
I0905 01:39:06.493051 90901 net.cpp:150] Setting up ReLU21
I0905 01:39:06.493069 90901 net.cpp:157] Top shape: 16 244 32 32 (3997696)
I0905 01:39:06.493077 90901 net.cpp:165] Memory required for data: 2526281792
I0905 01:39:06.493086 90901 layer_factory.hpp:77] Creating layer Convolution22
I0905 01:39:06.493108 90901 net.cpp:100] Creating Layer Convolution22
I0905 01:39:06.493118 90901 net.cpp:434] Convolution22 <- BatchNorm21
I0905 01:39:06.493129 90901 net.cpp:408] Convolution22 -> Convolution22
I0905 01:39:06.494838 90901 net.cpp:150] Setting up Convolution22
I0905 01:39:06.494859 90901 net.cpp:157] Top shape: 16 12 32 32 (196608)
I0905 01:39:06.494868 90901 net.cpp:165] Memory required for data: 2527068224
I0905 01:39:06.494880 90901 layer_factory.hpp:77] Creating layer Dropout22
I0905 01:39:06.494895 90901 net.cpp:100] Creating Layer Dropout22
I0905 01:39:06.494904 90901 net.cpp:434] Dropout22 <- Convolution22
I0905 01:39:06.494918 90901 net.cpp:408] Dropout22 -> Dropout22
I0905 01:39:06.494968 90901 net.cpp:150] Setting up Dropout22
I0905 01:39:06.494982 90901 net.cpp:157] Top shape: 16 12 32 32 (196608)
I0905 01:39:06.494992 90901 net.cpp:165] Memory required for data: 2527854656
I0905 01:39:06.494999 90901 layer_factory.hpp:77] Creating layer Concat20
I0905 01:39:06.495013 90901 net.cpp:100] Creating Layer Concat20
I0905 01:39:06.495023 90901 net.cpp:434] Concat20 <- Concat19_Concat19_0_split_1
I0905 01:39:06.495031 90901 net.cpp:434] Concat20 <- Dropout22
I0905 01:39:06.495043 90901 net.cpp:408] Concat20 -> Concat20
I0905 01:39:06.495088 90901 net.cpp:150] Setting up Concat20
I0905 01:39:06.495120 90901 net.cpp:157] Top shape: 16 256 32 32 (4194304)
I0905 01:39:06.495127 90901 net.cpp:165] Memory required for data: 2544631872
I0905 01:39:06.495139 90901 layer_factory.hpp:77] Creating layer Concat20_Concat20_0_split
I0905 01:39:06.495149 90901 net.cpp:100] Creating Layer Concat20_Concat20_0_split
I0905 01:39:06.495157 90901 net.cpp:434] Concat20_Concat20_0_split <- Concat20
I0905 01:39:06.495172 90901 net.cpp:408] Concat20_Concat20_0_split -> Concat20_Concat20_0_split_0
I0905 01:39:06.495196 90901 net.cpp:408] Concat20_Concat20_0_split -> Concat20_Concat20_0_split_1
I0905 01:39:06.495244 90901 net.cpp:150] Setting up Concat20_Concat20_0_split
I0905 01:39:06.495256 90901 net.cpp:157] Top shape: 16 256 32 32 (4194304)
I0905 01:39:06.495266 90901 net.cpp:157] Top shape: 16 256 32 32 (4194304)
I0905 01:39:06.495275 90901 net.cpp:165] Memory required for data: 2578186304
I0905 01:39:06.495282 90901 layer_factory.hpp:77] Creating layer BatchNorm22
I0905 01:39:06.495296 90901 net.cpp:100] Creating Layer BatchNorm22
I0905 01:39:06.495306 90901 net.cpp:434] BatchNorm22 <- Concat20_Concat20_0_split_0
I0905 01:39:06.495317 90901 net.cpp:408] BatchNorm22 -> BatchNorm22
I0905 01:39:06.495512 90901 net.cpp:150] Setting up BatchNorm22
I0905 01:39:06.495525 90901 net.cpp:157] Top shape: 16 256 32 32 (4194304)
I0905 01:39:06.495534 90901 net.cpp:165] Memory required for data: 2594963520
I0905 01:39:06.495564 90901 layer_factory.hpp:77] Creating layer Scale22
I0905 01:39:06.495579 90901 net.cpp:100] Creating Layer Scale22
I0905 01:39:06.495589 90901 net.cpp:434] Scale22 <- BatchNorm22
I0905 01:39:06.495599 90901 net.cpp:395] Scale22 -> BatchNorm22 (in-place)
I0905 01:39:06.495693 90901 net.cpp:150] Setting up Scale22
I0905 01:39:06.495707 90901 net.cpp:157] Top shape: 16 256 32 32 (4194304)
I0905 01:39:06.495718 90901 net.cpp:165] Memory required for data: 2611740736
I0905 01:39:06.495728 90901 layer_factory.hpp:77] Creating layer ReLU22
I0905 01:39:06.495740 90901 net.cpp:100] Creating Layer ReLU22
I0905 01:39:06.495749 90901 net.cpp:434] ReLU22 <- BatchNorm22
I0905 01:39:06.495764 90901 net.cpp:395] ReLU22 -> BatchNorm22 (in-place)
I0905 01:39:06.496248 90901 net.cpp:150] Setting up ReLU22
I0905 01:39:06.496266 90901 net.cpp:157] Top shape: 16 256 32 32 (4194304)
I0905 01:39:06.496275 90901 net.cpp:165] Memory required for data: 2628517952
I0905 01:39:06.496284 90901 layer_factory.hpp:77] Creating layer Convolution23
I0905 01:39:06.496304 90901 net.cpp:100] Creating Layer Convolution23
I0905 01:39:06.496312 90901 net.cpp:434] Convolution23 <- BatchNorm22
I0905 01:39:06.496327 90901 net.cpp:408] Convolution23 -> Convolution23
I0905 01:39:06.498193 90901 net.cpp:150] Setting up Convolution23
I0905 01:39:06.498214 90901 net.cpp:157] Top shape: 16 12 32 32 (196608)
I0905 01:39:06.498224 90901 net.cpp:165] Memory required for data: 2629304384
I0905 01:39:06.498235 90901 layer_factory.hpp:77] Creating layer Dropout23
I0905 01:39:06.498247 90901 net.cpp:100] Creating Layer Dropout23
I0905 01:39:06.498257 90901 net.cpp:434] Dropout23 <- Convolution23
I0905 01:39:06.498270 90901 net.cpp:408] Dropout23 -> Dropout23
I0905 01:39:06.498320 90901 net.cpp:150] Setting up Dropout23
I0905 01:39:06.498335 90901 net.cpp:157] Top shape: 16 12 32 32 (196608)
I0905 01:39:06.498347 90901 net.cpp:165] Memory required for data: 2630090816
I0905 01:39:06.498355 90901 layer_factory.hpp:77] Creating layer Concat21
I0905 01:39:06.498368 90901 net.cpp:100] Creating Layer Concat21
I0905 01:39:06.498378 90901 net.cpp:434] Concat21 <- Concat20_Concat20_0_split_1
I0905 01:39:06.498388 90901 net.cpp:434] Concat21 <- Dropout23
I0905 01:39:06.498412 90901 net.cpp:408] Concat21 -> Concat21
I0905 01:39:06.498447 90901 net.cpp:150] Setting up Concat21
I0905 01:39:06.498461 90901 net.cpp:157] Top shape: 16 268 32 32 (4390912)
I0905 01:39:06.498469 90901 net.cpp:165] Memory required for data: 2647654464
I0905 01:39:06.498478 90901 layer_factory.hpp:77] Creating layer Concat21_Concat21_0_split
I0905 01:39:06.498489 90901 net.cpp:100] Creating Layer Concat21_Concat21_0_split
I0905 01:39:06.498512 90901 net.cpp:434] Concat21_Concat21_0_split <- Concat21
I0905 01:39:06.498524 90901 net.cpp:408] Concat21_Concat21_0_split -> Concat21_Concat21_0_split_0
I0905 01:39:06.498538 90901 net.cpp:408] Concat21_Concat21_0_split -> Concat21_Concat21_0_split_1
I0905 01:39:06.498581 90901 net.cpp:150] Setting up Concat21_Concat21_0_split
I0905 01:39:06.498594 90901 net.cpp:157] Top shape: 16 268 32 32 (4390912)
I0905 01:39:06.498603 90901 net.cpp:157] Top shape: 16 268 32 32 (4390912)
I0905 01:39:06.498611 90901 net.cpp:165] Memory required for data: 2682781760
I0905 01:39:06.498620 90901 layer_factory.hpp:77] Creating layer BatchNorm23
I0905 01:39:06.498651 90901 net.cpp:100] Creating Layer BatchNorm23
I0905 01:39:06.498674 90901 net.cpp:434] BatchNorm23 <- Concat21_Concat21_0_split_0
I0905 01:39:06.498704 90901 net.cpp:408] BatchNorm23 -> BatchNorm23
I0905 01:39:06.498956 90901 net.cpp:150] Setting up BatchNorm23
I0905 01:39:06.498971 90901 net.cpp:157] Top shape: 16 268 32 32 (4390912)
I0905 01:39:06.498980 90901 net.cpp:165] Memory required for data: 2700345408
I0905 01:39:06.498996 90901 layer_factory.hpp:77] Creating layer Scale23
I0905 01:39:06.499009 90901 net.cpp:100] Creating Layer Scale23
I0905 01:39:06.499018 90901 net.cpp:434] Scale23 <- BatchNorm23
I0905 01:39:06.499030 90901 net.cpp:395] Scale23 -> BatchNorm23 (in-place)
I0905 01:39:06.499126 90901 net.cpp:150] Setting up Scale23
I0905 01:39:06.499142 90901 net.cpp:157] Top shape: 16 268 32 32 (4390912)
I0905 01:39:06.499151 90901 net.cpp:165] Memory required for data: 2717909056
I0905 01:39:06.499162 90901 layer_factory.hpp:77] Creating layer ReLU23
I0905 01:39:06.499173 90901 net.cpp:100] Creating Layer ReLU23
I0905 01:39:06.499182 90901 net.cpp:434] ReLU23 <- BatchNorm23
I0905 01:39:06.499191 90901 net.cpp:395] ReLU23 -> BatchNorm23 (in-place)
I0905 01:39:06.499369 90901 net.cpp:150] Setting up ReLU23
I0905 01:39:06.499387 90901 net.cpp:157] Top shape: 16 268 32 32 (4390912)
I0905 01:39:06.499395 90901 net.cpp:165] Memory required for data: 2735472704
I0905 01:39:06.499416 90901 layer_factory.hpp:77] Creating layer Convolution24
I0905 01:39:06.499433 90901 net.cpp:100] Creating Layer Convolution24
I0905 01:39:06.499444 90901 net.cpp:434] Convolution24 <- BatchNorm23
I0905 01:39:06.499457 90901 net.cpp:408] Convolution24 -> Convolution24
I0905 01:39:06.501377 90901 net.cpp:150] Setting up Convolution24
I0905 01:39:06.501399 90901 net.cpp:157] Top shape: 16 12 32 32 (196608)
I0905 01:39:06.501408 90901 net.cpp:165] Memory required for data: 2736259136
I0905 01:39:06.501420 90901 layer_factory.hpp:77] Creating layer Dropout24
I0905 01:39:06.501435 90901 net.cpp:100] Creating Layer Dropout24
I0905 01:39:06.501444 90901 net.cpp:434] Dropout24 <- Convolution24
I0905 01:39:06.501456 90901 net.cpp:408] Dropout24 -> Dropout24
I0905 01:39:06.501508 90901 net.cpp:150] Setting up Dropout24
I0905 01:39:06.501523 90901 net.cpp:157] Top shape: 16 12 32 32 (196608)
I0905 01:39:06.501533 90901 net.cpp:165] Memory required for data: 2737045568
I0905 01:39:06.501541 90901 layer_factory.hpp:77] Creating layer Concat22
I0905 01:39:06.501552 90901 net.cpp:100] Creating Layer Concat22
I0905 01:39:06.501561 90901 net.cpp:434] Concat22 <- Concat21_Concat21_0_split_1
I0905 01:39:06.501572 90901 net.cpp:434] Concat22 <- Dropout24
I0905 01:39:06.501596 90901 net.cpp:408] Concat22 -> Concat22
I0905 01:39:06.501626 90901 net.cpp:150] Setting up Concat22
I0905 01:39:06.501644 90901 net.cpp:157] Top shape: 16 280 32 32 (4587520)
I0905 01:39:06.501653 90901 net.cpp:165] Memory required for data: 2755395648
I0905 01:39:06.501662 90901 layer_factory.hpp:77] Creating layer Concat22_Concat22_0_split
I0905 01:39:06.501672 90901 net.cpp:100] Creating Layer Concat22_Concat22_0_split
I0905 01:39:06.501680 90901 net.cpp:434] Concat22_Concat22_0_split <- Concat22
I0905 01:39:06.501690 90901 net.cpp:408] Concat22_Concat22_0_split -> Concat22_Concat22_0_split_0
I0905 01:39:06.501701 90901 net.cpp:408] Concat22_Concat22_0_split -> Concat22_Concat22_0_split_1
I0905 01:39:06.501749 90901 net.cpp:150] Setting up Concat22_Concat22_0_split
I0905 01:39:06.501775 90901 net.cpp:157] Top shape: 16 280 32 32 (4587520)
I0905 01:39:06.501785 90901 net.cpp:157] Top shape: 16 280 32 32 (4587520)
I0905 01:39:06.501793 90901 net.cpp:165] Memory required for data: 2792095808
I0905 01:39:06.501802 90901 layer_factory.hpp:77] Creating layer BatchNorm24
I0905 01:39:06.501816 90901 net.cpp:100] Creating Layer BatchNorm24
I0905 01:39:06.501828 90901 net.cpp:434] BatchNorm24 <- Concat22_Concat22_0_split_0
I0905 01:39:06.501838 90901 net.cpp:408] BatchNorm24 -> BatchNorm24
I0905 01:39:06.502054 90901 net.cpp:150] Setting up BatchNorm24
I0905 01:39:06.502068 90901 net.cpp:157] Top shape: 16 280 32 32 (4587520)
I0905 01:39:06.502076 90901 net.cpp:165] Memory required for data: 2810445888
I0905 01:39:06.502089 90901 layer_factory.hpp:77] Creating layer Scale24
I0905 01:39:06.502101 90901 net.cpp:100] Creating Layer Scale24
I0905 01:39:06.502110 90901 net.cpp:434] Scale24 <- BatchNorm24
I0905 01:39:06.502121 90901 net.cpp:395] Scale24 -> BatchNorm24 (in-place)
I0905 01:39:06.502218 90901 net.cpp:150] Setting up Scale24
I0905 01:39:06.502233 90901 net.cpp:157] Top shape: 16 280 32 32 (4587520)
I0905 01:39:06.502240 90901 net.cpp:165] Memory required for data: 2828795968
I0905 01:39:06.502250 90901 layer_factory.hpp:77] Creating layer ReLU24
I0905 01:39:06.502261 90901 net.cpp:100] Creating Layer ReLU24
I0905 01:39:06.502270 90901 net.cpp:434] ReLU24 <- BatchNorm24
I0905 01:39:06.502282 90901 net.cpp:395] ReLU24 -> BatchNorm24 (in-place)
I0905 01:39:06.502605 90901 net.cpp:150] Setting up ReLU24
I0905 01:39:06.502624 90901 net.cpp:157] Top shape: 16 280 32 32 (4587520)
I0905 01:39:06.502637 90901 net.cpp:165] Memory required for data: 2847146048
I0905 01:39:06.502661 90901 layer_factory.hpp:77] Creating layer Convolution25
I0905 01:39:06.502678 90901 net.cpp:100] Creating Layer Convolution25
I0905 01:39:06.502688 90901 net.cpp:434] Convolution25 <- BatchNorm24
I0905 01:39:06.502714 90901 net.cpp:408] Convolution25 -> Convolution25
I0905 01:39:06.505252 90901 net.cpp:150] Setting up Convolution25
I0905 01:39:06.505276 90901 net.cpp:157] Top shape: 16 12 32 32 (196608)
I0905 01:39:06.505286 90901 net.cpp:165] Memory required for data: 2847932480
I0905 01:39:06.505298 90901 layer_factory.hpp:77] Creating layer Dropout25
I0905 01:39:06.505311 90901 net.cpp:100] Creating Layer Dropout25
I0905 01:39:06.505319 90901 net.cpp:434] Dropout25 <- Convolution25
I0905 01:39:06.505331 90901 net.cpp:408] Dropout25 -> Dropout25
I0905 01:39:06.505383 90901 net.cpp:150] Setting up Dropout25
I0905 01:39:06.505398 90901 net.cpp:157] Top shape: 16 12 32 32 (196608)
I0905 01:39:06.505409 90901 net.cpp:165] Memory required for data: 2848718912
I0905 01:39:06.505417 90901 layer_factory.hpp:77] Creating layer Concat23
I0905 01:39:06.505431 90901 net.cpp:100] Creating Layer Concat23
I0905 01:39:06.505440 90901 net.cpp:434] Concat23 <- Concat22_Concat22_0_split_1
I0905 01:39:06.505455 90901 net.cpp:434] Concat23 <- Dropout25
I0905 01:39:06.505466 90901 net.cpp:408] Concat23 -> Concat23
I0905 01:39:06.505499 90901 net.cpp:150] Setting up Concat23
I0905 01:39:06.505512 90901 net.cpp:157] Top shape: 16 292 32 32 (4784128)
I0905 01:39:06.505522 90901 net.cpp:165] Memory required for data: 2867855424
I0905 01:39:06.505532 90901 layer_factory.hpp:77] Creating layer Concat23_Concat23_0_split
I0905 01:39:06.505542 90901 net.cpp:100] Creating Layer Concat23_Concat23_0_split
I0905 01:39:06.505551 90901 net.cpp:434] Concat23_Concat23_0_split <- Concat23
I0905 01:39:06.505564 90901 net.cpp:408] Concat23_Concat23_0_split -> Concat23_Concat23_0_split_0
I0905 01:39:06.505578 90901 net.cpp:408] Concat23_Concat23_0_split -> Concat23_Concat23_0_split_1
I0905 01:39:06.505620 90901 net.cpp:150] Setting up Concat23_Concat23_0_split
I0905 01:39:06.505633 90901 net.cpp:157] Top shape: 16 292 32 32 (4784128)
I0905 01:39:06.505643 90901 net.cpp:157] Top shape: 16 292 32 32 (4784128)
I0905 01:39:06.505656 90901 net.cpp:165] Memory required for data: 2906128448
I0905 01:39:06.505679 90901 layer_factory.hpp:77] Creating layer BatchNorm25
I0905 01:39:06.505693 90901 net.cpp:100] Creating Layer BatchNorm25
I0905 01:39:06.505702 90901 net.cpp:434] BatchNorm25 <- Concat23_Concat23_0_split_0
I0905 01:39:06.505714 90901 net.cpp:408] BatchNorm25 -> BatchNorm25
I0905 01:39:06.505928 90901 net.cpp:150] Setting up BatchNorm25
I0905 01:39:06.505944 90901 net.cpp:157] Top shape: 16 292 32 32 (4784128)
I0905 01:39:06.505951 90901 net.cpp:165] Memory required for data: 2925264960
I0905 01:39:06.505964 90901 layer_factory.hpp:77] Creating layer Scale25
I0905 01:39:06.505976 90901 net.cpp:100] Creating Layer Scale25
I0905 01:39:06.505985 90901 net.cpp:434] Scale25 <- BatchNorm25
I0905 01:39:06.505998 90901 net.cpp:395] Scale25 -> BatchNorm25 (in-place)
I0905 01:39:06.506096 90901 net.cpp:150] Setting up Scale25
I0905 01:39:06.506119 90901 net.cpp:157] Top shape: 16 292 32 32 (4784128)
I0905 01:39:06.506127 90901 net.cpp:165] Memory required for data: 2944401472
I0905 01:39:06.506139 90901 layer_factory.hpp:77] Creating layer ReLU25
I0905 01:39:06.506151 90901 net.cpp:100] Creating Layer ReLU25
I0905 01:39:06.506161 90901 net.cpp:434] ReLU25 <- BatchNorm25
I0905 01:39:06.506171 90901 net.cpp:395] ReLU25 -> BatchNorm25 (in-place)
I0905 01:39:06.506494 90901 net.cpp:150] Setting up ReLU25
I0905 01:39:06.506515 90901 net.cpp:157] Top shape: 16 292 32 32 (4784128)
I0905 01:39:06.506525 90901 net.cpp:165] Memory required for data: 2963537984
I0905 01:39:06.506534 90901 layer_factory.hpp:77] Creating layer Convolution26
I0905 01:39:06.506551 90901 net.cpp:100] Creating Layer Convolution26
I0905 01:39:06.506574 90901 net.cpp:434] Convolution26 <- BatchNorm25
I0905 01:39:06.506587 90901 net.cpp:408] Convolution26 -> Convolution26
I0905 01:39:06.508699 90901 net.cpp:150] Setting up Convolution26
I0905 01:39:06.508720 90901 net.cpp:157] Top shape: 16 12 32 32 (196608)
I0905 01:39:06.508729 90901 net.cpp:165] Memory required for data: 2964324416
I0905 01:39:06.508741 90901 layer_factory.hpp:77] Creating layer Dropout26
I0905 01:39:06.508764 90901 net.cpp:100] Creating Layer Dropout26
I0905 01:39:06.508772 90901 net.cpp:434] Dropout26 <- Convolution26
I0905 01:39:06.508785 90901 net.cpp:408] Dropout26 -> Dropout26
I0905 01:39:06.508838 90901 net.cpp:150] Setting up Dropout26
I0905 01:39:06.508853 90901 net.cpp:157] Top shape: 16 12 32 32 (196608)
I0905 01:39:06.508862 90901 net.cpp:165] Memory required for data: 2965110848
I0905 01:39:06.508870 90901 layer_factory.hpp:77] Creating layer Concat24
I0905 01:39:06.508882 90901 net.cpp:100] Creating Layer Concat24
I0905 01:39:06.508898 90901 net.cpp:434] Concat24 <- Concat23_Concat23_0_split_1
I0905 01:39:06.508909 90901 net.cpp:434] Concat24 <- Dropout26
I0905 01:39:06.508921 90901 net.cpp:408] Concat24 -> Concat24
I0905 01:39:06.508952 90901 net.cpp:150] Setting up Concat24
I0905 01:39:06.508965 90901 net.cpp:157] Top shape: 16 304 32 32 (4980736)
I0905 01:39:06.508973 90901 net.cpp:165] Memory required for data: 2985033792
I0905 01:39:06.508983 90901 layer_factory.hpp:77] Creating layer BatchNorm26
I0905 01:39:06.508996 90901 net.cpp:100] Creating Layer BatchNorm26
I0905 01:39:06.509006 90901 net.cpp:434] BatchNorm26 <- Concat24
I0905 01:39:06.509018 90901 net.cpp:408] BatchNorm26 -> BatchNorm26
I0905 01:39:06.509232 90901 net.cpp:150] Setting up BatchNorm26
I0905 01:39:06.509245 90901 net.cpp:157] Top shape: 16 304 32 32 (4980736)
I0905 01:39:06.509254 90901 net.cpp:165] Memory required for data: 3004956736
I0905 01:39:06.509266 90901 layer_factory.hpp:77] Creating layer Scale26
I0905 01:39:06.509279 90901 net.cpp:100] Creating Layer Scale26
I0905 01:39:06.509289 90901 net.cpp:434] Scale26 <- BatchNorm26
I0905 01:39:06.509301 90901 net.cpp:395] Scale26 -> BatchNorm26 (in-place)
I0905 01:39:06.509400 90901 net.cpp:150] Setting up Scale26
I0905 01:39:06.509418 90901 net.cpp:157] Top shape: 16 304 32 32 (4980736)
I0905 01:39:06.509426 90901 net.cpp:165] Memory required for data: 3024879680
I0905 01:39:06.509438 90901 layer_factory.hpp:77] Creating layer ReLU26
I0905 01:39:06.509464 90901 net.cpp:100] Creating Layer ReLU26
I0905 01:39:06.509480 90901 net.cpp:434] ReLU26 <- BatchNorm26
I0905 01:39:06.509490 90901 net.cpp:395] ReLU26 -> BatchNorm26 (in-place)
I0905 01:39:06.509677 90901 net.cpp:150] Setting up ReLU26
I0905 01:39:06.509693 90901 net.cpp:157] Top shape: 16 304 32 32 (4980736)
I0905 01:39:06.509702 90901 net.cpp:165] Memory required for data: 3044802624
I0905 01:39:06.509711 90901 layer_factory.hpp:77] Creating layer Convolution27
I0905 01:39:06.509730 90901 net.cpp:100] Creating Layer Convolution27
I0905 01:39:06.509740 90901 net.cpp:434] Convolution27 <- BatchNorm26
I0905 01:39:06.509753 90901 net.cpp:408] Convolution27 -> Convolution27
I0905 01:39:06.514176 90901 net.cpp:150] Setting up Convolution27
I0905 01:39:06.514199 90901 net.cpp:157] Top shape: 16 304 32 32 (4980736)
I0905 01:39:06.514207 90901 net.cpp:165] Memory required for data: 3064725568
I0905 01:39:06.514219 90901 layer_factory.hpp:77] Creating layer Dropout27
I0905 01:39:06.514235 90901 net.cpp:100] Creating Layer Dropout27
I0905 01:39:06.514245 90901 net.cpp:434] Dropout27 <- Convolution27
I0905 01:39:06.514258 90901 net.cpp:408] Dropout27 -> Dropout27
I0905 01:39:06.514317 90901 net.cpp:150] Setting up Dropout27
I0905 01:39:06.514333 90901 net.cpp:157] Top shape: 16 304 32 32 (4980736)
I0905 01:39:06.514343 90901 net.cpp:165] Memory required for data: 3084648512
I0905 01:39:06.514351 90901 layer_factory.hpp:77] Creating layer Pooling2
I0905 01:39:06.514364 90901 net.cpp:100] Creating Layer Pooling2
I0905 01:39:06.514374 90901 net.cpp:434] Pooling2 <- Dropout27
I0905 01:39:06.514385 90901 net.cpp:408] Pooling2 -> Pooling2
I0905 01:39:06.514781 90901 net.cpp:150] Setting up Pooling2
I0905 01:39:06.514801 90901 net.cpp:157] Top shape: 16 304 16 16 (1245184)
I0905 01:39:06.514811 90901 net.cpp:165] Memory required for data: 3089629248
I0905 01:39:06.514819 90901 layer_factory.hpp:77] Creating layer Pooling2_Pooling2_0_split
I0905 01:39:06.514832 90901 net.cpp:100] Creating Layer Pooling2_Pooling2_0_split
I0905 01:39:06.514842 90901 net.cpp:434] Pooling2_Pooling2_0_split <- Pooling2
I0905 01:39:06.514854 90901 net.cpp:408] Pooling2_Pooling2_0_split -> Pooling2_Pooling2_0_split_0
I0905 01:39:06.514866 90901 net.cpp:408] Pooling2_Pooling2_0_split -> Pooling2_Pooling2_0_split_1
I0905 01:39:06.514926 90901 net.cpp:150] Setting up Pooling2_Pooling2_0_split
I0905 01:39:06.514940 90901 net.cpp:157] Top shape: 16 304 16 16 (1245184)
I0905 01:39:06.514955 90901 net.cpp:157] Top shape: 16 304 16 16 (1245184)
I0905 01:39:06.514962 90901 net.cpp:165] Memory required for data: 3099590720
I0905 01:39:06.514973 90901 layer_factory.hpp:77] Creating layer BatchNorm27
I0905 01:39:06.514986 90901 net.cpp:100] Creating Layer BatchNorm27
I0905 01:39:06.515002 90901 net.cpp:434] BatchNorm27 <- Pooling2_Pooling2_0_split_0
I0905 01:39:06.515013 90901 net.cpp:408] BatchNorm27 -> BatchNorm27
I0905 01:39:06.515242 90901 net.cpp:150] Setting up BatchNorm27
I0905 01:39:06.515257 90901 net.cpp:157] Top shape: 16 304 16 16 (1245184)
I0905 01:39:06.515266 90901 net.cpp:165] Memory required for data: 3104571456
I0905 01:39:06.515278 90901 layer_factory.hpp:77] Creating layer Scale27
I0905 01:39:06.515291 90901 net.cpp:100] Creating Layer Scale27
I0905 01:39:06.515300 90901 net.cpp:434] Scale27 <- BatchNorm27
I0905 01:39:06.515312 90901 net.cpp:395] Scale27 -> BatchNorm27 (in-place)
I0905 01:39:06.515419 90901 net.cpp:150] Setting up Scale27
I0905 01:39:06.515441 90901 net.cpp:157] Top shape: 16 304 16 16 (1245184)
I0905 01:39:06.515450 90901 net.cpp:165] Memory required for data: 3109552192
I0905 01:39:06.515460 90901 layer_factory.hpp:77] Creating layer ReLU27
I0905 01:39:06.515472 90901 net.cpp:100] Creating Layer ReLU27
I0905 01:39:06.515481 90901 net.cpp:434] ReLU27 <- BatchNorm27
I0905 01:39:06.515507 90901 net.cpp:395] ReLU27 -> BatchNorm27 (in-place)
I0905 01:39:06.515687 90901 net.cpp:150] Setting up ReLU27
I0905 01:39:06.515703 90901 net.cpp:157] Top shape: 16 304 16 16 (1245184)
I0905 01:39:06.515712 90901 net.cpp:165] Memory required for data: 3114532928
I0905 01:39:06.515734 90901 layer_factory.hpp:77] Creating layer Convolution28
I0905 01:39:06.515751 90901 net.cpp:100] Creating Layer Convolution28
I0905 01:39:06.515760 90901 net.cpp:434] Convolution28 <- BatchNorm27
I0905 01:39:06.515777 90901 net.cpp:408] Convolution28 -> Convolution28
I0905 01:39:06.517796 90901 net.cpp:150] Setting up Convolution28
I0905 01:39:06.517818 90901 net.cpp:157] Top shape: 16 12 16 16 (49152)
I0905 01:39:06.517828 90901 net.cpp:165] Memory required for data: 3114729536
I0905 01:39:06.517840 90901 layer_factory.hpp:77] Creating layer Dropout28
I0905 01:39:06.517853 90901 net.cpp:100] Creating Layer Dropout28
I0905 01:39:06.517865 90901 net.cpp:434] Dropout28 <- Convolution28
I0905 01:39:06.517876 90901 net.cpp:408] Dropout28 -> Dropout28
I0905 01:39:06.517925 90901 net.cpp:150] Setting up Dropout28
I0905 01:39:06.517940 90901 net.cpp:157] Top shape: 16 12 16 16 (49152)
I0905 01:39:06.517952 90901 net.cpp:165] Memory required for data: 3114926144
I0905 01:39:06.517961 90901 layer_factory.hpp:77] Creating layer Concat25
I0905 01:39:06.517972 90901 net.cpp:100] Creating Layer Concat25
I0905 01:39:06.517982 90901 net.cpp:434] Concat25 <- Pooling2_Pooling2_0_split_1
I0905 01:39:06.517992 90901 net.cpp:434] Concat25 <- Dropout28
I0905 01:39:06.518010 90901 net.cpp:408] Concat25 -> Concat25
I0905 01:39:06.518044 90901 net.cpp:150] Setting up Concat25
I0905 01:39:06.518059 90901 net.cpp:157] Top shape: 16 316 16 16 (1294336)
I0905 01:39:06.518069 90901 net.cpp:165] Memory required for data: 3120103488
I0905 01:39:06.518077 90901 layer_factory.hpp:77] Creating layer Concat25_Concat25_0_split
I0905 01:39:06.518088 90901 net.cpp:100] Creating Layer Concat25_Concat25_0_split
I0905 01:39:06.518100 90901 net.cpp:434] Concat25_Concat25_0_split <- Concat25
I0905 01:39:06.518110 90901 net.cpp:408] Concat25_Concat25_0_split -> Concat25_Concat25_0_split_0
I0905 01:39:06.518121 90901 net.cpp:408] Concat25_Concat25_0_split -> Concat25_Concat25_0_split_1
I0905 01:39:06.518167 90901 net.cpp:150] Setting up Concat25_Concat25_0_split
I0905 01:39:06.518179 90901 net.cpp:157] Top shape: 16 316 16 16 (1294336)
I0905 01:39:06.518195 90901 net.cpp:157] Top shape: 16 316 16 16 (1294336)
I0905 01:39:06.518204 90901 net.cpp:165] Memory required for data: 3130458176
I0905 01:39:06.518213 90901 layer_factory.hpp:77] Creating layer BatchNorm28
I0905 01:39:06.518225 90901 net.cpp:100] Creating Layer BatchNorm28
I0905 01:39:06.518235 90901 net.cpp:434] BatchNorm28 <- Concat25_Concat25_0_split_0
I0905 01:39:06.518246 90901 net.cpp:408] BatchNorm28 -> BatchNorm28
I0905 01:39:06.518462 90901 net.cpp:150] Setting up BatchNorm28
I0905 01:39:06.518477 90901 net.cpp:157] Top shape: 16 316 16 16 (1294336)
I0905 01:39:06.518486 90901 net.cpp:165] Memory required for data: 3135635520
I0905 01:39:06.518498 90901 layer_factory.hpp:77] Creating layer Scale28
I0905 01:39:06.518510 90901 net.cpp:100] Creating Layer Scale28
I0905 01:39:06.518520 90901 net.cpp:434] Scale28 <- BatchNorm28
I0905 01:39:06.518529 90901 net.cpp:395] Scale28 -> BatchNorm28 (in-place)
I0905 01:39:06.518661 90901 net.cpp:150] Setting up Scale28
I0905 01:39:06.518681 90901 net.cpp:157] Top shape: 16 316 16 16 (1294336)
I0905 01:39:06.518689 90901 net.cpp:165] Memory required for data: 3140812864
I0905 01:39:06.518700 90901 layer_factory.hpp:77] Creating layer ReLU28
I0905 01:39:06.518715 90901 net.cpp:100] Creating Layer ReLU28
I0905 01:39:06.518725 90901 net.cpp:434] ReLU28 <- BatchNorm28
I0905 01:39:06.518736 90901 net.cpp:395] ReLU28 -> BatchNorm28 (in-place)
I0905 01:39:06.519080 90901 net.cpp:150] Setting up ReLU28
I0905 01:39:06.519103 90901 net.cpp:157] Top shape: 16 316 16 16 (1294336)
I0905 01:39:06.519111 90901 net.cpp:165] Memory required for data: 3145990208
I0905 01:39:06.519121 90901 layer_factory.hpp:77] Creating layer Convolution29
I0905 01:39:06.519139 90901 net.cpp:100] Creating Layer Convolution29
I0905 01:39:06.519151 90901 net.cpp:434] Convolution29 <- BatchNorm28
I0905 01:39:06.519163 90901 net.cpp:408] Convolution29 -> Convolution29
I0905 01:39:06.521318 90901 net.cpp:150] Setting up Convolution29
I0905 01:39:06.521339 90901 net.cpp:157] Top shape: 16 12 16 16 (49152)
I0905 01:39:06.521349 90901 net.cpp:165] Memory required for data: 3146186816
I0905 01:39:06.521361 90901 layer_factory.hpp:77] Creating layer Dropout29
I0905 01:39:06.521376 90901 net.cpp:100] Creating Layer Dropout29
I0905 01:39:06.521386 90901 net.cpp:434] Dropout29 <- Convolution29
I0905 01:39:06.521397 90901 net.cpp:408] Dropout29 -> Dropout29
I0905 01:39:06.521456 90901 net.cpp:150] Setting up Dropout29
I0905 01:39:06.521469 90901 net.cpp:157] Top shape: 16 12 16 16 (49152)
I0905 01:39:06.521478 90901 net.cpp:165] Memory required for data: 3146383424
I0905 01:39:06.521487 90901 layer_factory.hpp:77] Creating layer Concat26
I0905 01:39:06.521502 90901 net.cpp:100] Creating Layer Concat26
I0905 01:39:06.521510 90901 net.cpp:434] Concat26 <- Concat25_Concat25_0_split_1
I0905 01:39:06.521520 90901 net.cpp:434] Concat26 <- Dropout29
I0905 01:39:06.521539 90901 net.cpp:408] Concat26 -> Concat26
I0905 01:39:06.521570 90901 net.cpp:150] Setting up Concat26
I0905 01:39:06.521590 90901 net.cpp:157] Top shape: 16 328 16 16 (1343488)
I0905 01:39:06.521600 90901 net.cpp:165] Memory required for data: 3151757376
I0905 01:39:06.521607 90901 layer_factory.hpp:77] Creating layer Concat26_Concat26_0_split
I0905 01:39:06.521620 90901 net.cpp:100] Creating Layer Concat26_Concat26_0_split
I0905 01:39:06.521628 90901 net.cpp:434] Concat26_Concat26_0_split <- Concat26
I0905 01:39:06.521644 90901 net.cpp:408] Concat26_Concat26_0_split -> Concat26_Concat26_0_split_0
I0905 01:39:06.521656 90901 net.cpp:408] Concat26_Concat26_0_split -> Concat26_Concat26_0_split_1
I0905 01:39:06.521702 90901 net.cpp:150] Setting up Concat26_Concat26_0_split
I0905 01:39:06.521714 90901 net.cpp:157] Top shape: 16 328 16 16 (1343488)
I0905 01:39:06.521724 90901 net.cpp:157] Top shape: 16 328 16 16 (1343488)
I0905 01:39:06.521731 90901 net.cpp:165] Memory required for data: 3162505280
I0905 01:39:06.521744 90901 layer_factory.hpp:77] Creating layer BatchNorm29
I0905 01:39:06.521756 90901 net.cpp:100] Creating Layer BatchNorm29
I0905 01:39:06.521765 90901 net.cpp:434] BatchNorm29 <- Concat26_Concat26_0_split_0
I0905 01:39:06.521785 90901 net.cpp:408] BatchNorm29 -> BatchNorm29
I0905 01:39:06.522003 90901 net.cpp:150] Setting up BatchNorm29
I0905 01:39:06.522018 90901 net.cpp:157] Top shape: 16 328 16 16 (1343488)
I0905 01:39:06.522027 90901 net.cpp:165] Memory required for data: 3167879232
I0905 01:39:06.522039 90901 layer_factory.hpp:77] Creating layer Scale29
I0905 01:39:06.522053 90901 net.cpp:100] Creating Layer Scale29
I0905 01:39:06.522061 90901 net.cpp:434] Scale29 <- BatchNorm29
I0905 01:39:06.522073 90901 net.cpp:395] Scale29 -> BatchNorm29 (in-place)
I0905 01:39:06.522184 90901 net.cpp:150] Setting up Scale29
I0905 01:39:06.522205 90901 net.cpp:157] Top shape: 16 328 16 16 (1343488)
I0905 01:39:06.522214 90901 net.cpp:165] Memory required for data: 3173253184
I0905 01:39:06.522224 90901 layer_factory.hpp:77] Creating layer ReLU29
I0905 01:39:06.522235 90901 net.cpp:100] Creating Layer ReLU29
I0905 01:39:06.522246 90901 net.cpp:434] ReLU29 <- BatchNorm29
I0905 01:39:06.522258 90901 net.cpp:395] ReLU29 -> BatchNorm29 (in-place)
I0905 01:39:06.522584 90901 net.cpp:150] Setting up ReLU29
I0905 01:39:06.522603 90901 net.cpp:157] Top shape: 16 328 16 16 (1343488)
I0905 01:39:06.522611 90901 net.cpp:165] Memory required for data: 3178627136
I0905 01:39:06.522620 90901 layer_factory.hpp:77] Creating layer Convolution30
I0905 01:39:06.522656 90901 net.cpp:100] Creating Layer Convolution30
I0905 01:39:06.522668 90901 net.cpp:434] Convolution30 <- BatchNorm29
I0905 01:39:06.522691 90901 net.cpp:408] Convolution30 -> Convolution30
I0905 01:39:06.524804 90901 net.cpp:150] Setting up Convolution30
I0905 01:39:06.524826 90901 net.cpp:157] Top shape: 16 12 16 16 (49152)
I0905 01:39:06.524834 90901 net.cpp:165] Memory required for data: 3178823744
I0905 01:39:06.524847 90901 layer_factory.hpp:77] Creating layer Dropout30
I0905 01:39:06.524873 90901 net.cpp:100] Creating Layer Dropout30
I0905 01:39:06.524884 90901 net.cpp:434] Dropout30 <- Convolution30
I0905 01:39:06.524898 90901 net.cpp:408] Dropout30 -> Dropout30
I0905 01:39:06.524950 90901 net.cpp:150] Setting up Dropout30
I0905 01:39:06.524966 90901 net.cpp:157] Top shape: 16 12 16 16 (49152)
I0905 01:39:06.524976 90901 net.cpp:165] Memory required for data: 3179020352
I0905 01:39:06.524983 90901 layer_factory.hpp:77] Creating layer Concat27
I0905 01:39:06.524996 90901 net.cpp:100] Creating Layer Concat27
I0905 01:39:06.525010 90901 net.cpp:434] Concat27 <- Concat26_Concat26_0_split_1
I0905 01:39:06.525019 90901 net.cpp:434] Concat27 <- Dropout30
I0905 01:39:06.525046 90901 net.cpp:408] Concat27 -> Concat27
I0905 01:39:06.525079 90901 net.cpp:150] Setting up Concat27
I0905 01:39:06.525097 90901 net.cpp:157] Top shape: 16 340 16 16 (1392640)
I0905 01:39:06.525106 90901 net.cpp:165] Memory required for data: 3184590912
I0905 01:39:06.525115 90901 layer_factory.hpp:77] Creating layer Concat27_Concat27_0_split
I0905 01:39:06.525127 90901 net.cpp:100] Creating Layer Concat27_Concat27_0_split
I0905 01:39:06.525136 90901 net.cpp:434] Concat27_Concat27_0_split <- Concat27
I0905 01:39:06.525153 90901 net.cpp:408] Concat27_Concat27_0_split -> Concat27_Concat27_0_split_0
I0905 01:39:06.525168 90901 net.cpp:408] Concat27_Concat27_0_split -> Concat27_Concat27_0_split_1
I0905 01:39:06.525213 90901 net.cpp:150] Setting up Concat27_Concat27_0_split
I0905 01:39:06.525225 90901 net.cpp:157] Top shape: 16 340 16 16 (1392640)
I0905 01:39:06.525234 90901 net.cpp:157] Top shape: 16 340 16 16 (1392640)
I0905 01:39:06.525243 90901 net.cpp:165] Memory required for data: 3195732032
I0905 01:39:06.525254 90901 layer_factory.hpp:77] Creating layer BatchNorm30
I0905 01:39:06.525267 90901 net.cpp:100] Creating Layer BatchNorm30
I0905 01:39:06.525276 90901 net.cpp:434] BatchNorm30 <- Concat27_Concat27_0_split_0
I0905 01:39:06.525296 90901 net.cpp:408] BatchNorm30 -> BatchNorm30
I0905 01:39:06.525530 90901 net.cpp:150] Setting up BatchNorm30
I0905 01:39:06.525545 90901 net.cpp:157] Top shape: 16 340 16 16 (1392640)
I0905 01:39:06.525553 90901 net.cpp:165] Memory required for data: 3201302592
I0905 01:39:06.525566 90901 layer_factory.hpp:77] Creating layer Scale30
I0905 01:39:06.525583 90901 net.cpp:100] Creating Layer Scale30
I0905 01:39:06.525593 90901 net.cpp:434] Scale30 <- BatchNorm30
I0905 01:39:06.525602 90901 net.cpp:395] Scale30 -> BatchNorm30 (in-place)
I0905 01:39:06.525713 90901 net.cpp:150] Setting up Scale30
I0905 01:39:06.525728 90901 net.cpp:157] Top shape: 16 340 16 16 (1392640)
I0905 01:39:06.525738 90901 net.cpp:165] Memory required for data: 3206873152
I0905 01:39:06.525748 90901 layer_factory.hpp:77] Creating layer ReLU30
I0905 01:39:06.525763 90901 net.cpp:100] Creating Layer ReLU30
I0905 01:39:06.525773 90901 net.cpp:434] ReLU30 <- BatchNorm30
I0905 01:39:06.525789 90901 net.cpp:395] ReLU30 -> BatchNorm30 (in-place)
I0905 01:39:06.525966 90901 net.cpp:150] Setting up ReLU30
I0905 01:39:06.525984 90901 net.cpp:157] Top shape: 16 340 16 16 (1392640)
I0905 01:39:06.525991 90901 net.cpp:165] Memory required for data: 3212443712
I0905 01:39:06.526000 90901 layer_factory.hpp:77] Creating layer Convolution31
I0905 01:39:06.526020 90901 net.cpp:100] Creating Layer Convolution31
I0905 01:39:06.526029 90901 net.cpp:434] Convolution31 <- BatchNorm30
I0905 01:39:06.526043 90901 net.cpp:408] Convolution31 -> Convolution31
I0905 01:39:06.528225 90901 net.cpp:150] Setting up Convolution31
I0905 01:39:06.528247 90901 net.cpp:157] Top shape: 16 12 16 16 (49152)
I0905 01:39:06.528256 90901 net.cpp:165] Memory required for data: 3212640320
I0905 01:39:06.528270 90901 layer_factory.hpp:77] Creating layer Dropout31
I0905 01:39:06.528283 90901 net.cpp:100] Creating Layer Dropout31
I0905 01:39:06.528293 90901 net.cpp:434] Dropout31 <- Convolution31
I0905 01:39:06.528307 90901 net.cpp:408] Dropout31 -> Dropout31
I0905 01:39:06.528368 90901 net.cpp:150] Setting up Dropout31
I0905 01:39:06.528383 90901 net.cpp:157] Top shape: 16 12 16 16 (49152)
I0905 01:39:06.528405 90901 net.cpp:165] Memory required for data: 3212836928
I0905 01:39:06.528414 90901 layer_factory.hpp:77] Creating layer Concat28
I0905 01:39:06.528429 90901 net.cpp:100] Creating Layer Concat28
I0905 01:39:06.528439 90901 net.cpp:434] Concat28 <- Concat27_Concat27_0_split_1
I0905 01:39:06.528451 90901 net.cpp:434] Concat28 <- Dropout31
I0905 01:39:06.528463 90901 net.cpp:408] Concat28 -> Concat28
I0905 01:39:06.528502 90901 net.cpp:150] Setting up Concat28
I0905 01:39:06.528514 90901 net.cpp:157] Top shape: 16 352 16 16 (1441792)
I0905 01:39:06.528523 90901 net.cpp:165] Memory required for data: 3218604096
I0905 01:39:06.528532 90901 layer_factory.hpp:77] Creating layer Concat28_Concat28_0_split
I0905 01:39:06.528545 90901 net.cpp:100] Creating Layer Concat28_Concat28_0_split
I0905 01:39:06.528556 90901 net.cpp:434] Concat28_Concat28_0_split <- Concat28
I0905 01:39:06.528566 90901 net.cpp:408] Concat28_Concat28_0_split -> Concat28_Concat28_0_split_0
I0905 01:39:06.528579 90901 net.cpp:408] Concat28_Concat28_0_split -> Concat28_Concat28_0_split_1
I0905 01:39:06.528622 90901 net.cpp:150] Setting up Concat28_Concat28_0_split
I0905 01:39:06.528635 90901 net.cpp:157] Top shape: 16 352 16 16 (1441792)
I0905 01:39:06.528655 90901 net.cpp:157] Top shape: 16 352 16 16 (1441792)
I0905 01:39:06.528662 90901 net.cpp:165] Memory required for data: 3230138432
I0905 01:39:06.528671 90901 layer_factory.hpp:77] Creating layer BatchNorm31
I0905 01:39:06.528686 90901 net.cpp:100] Creating Layer BatchNorm31
I0905 01:39:06.528694 90901 net.cpp:434] BatchNorm31 <- Concat28_Concat28_0_split_0
I0905 01:39:06.528705 90901 net.cpp:408] BatchNorm31 -> BatchNorm31
I0905 01:39:06.528928 90901 net.cpp:150] Setting up BatchNorm31
I0905 01:39:06.528942 90901 net.cpp:157] Top shape: 16 352 16 16 (1441792)
I0905 01:39:06.528951 90901 net.cpp:165] Memory required for data: 3235905600
I0905 01:39:06.528964 90901 layer_factory.hpp:77] Creating layer Scale31
I0905 01:39:06.528978 90901 net.cpp:100] Creating Layer Scale31
I0905 01:39:06.528988 90901 net.cpp:434] Scale31 <- BatchNorm31
I0905 01:39:06.529000 90901 net.cpp:395] Scale31 -> BatchNorm31 (in-place)
I0905 01:39:06.529117 90901 net.cpp:150] Setting up Scale31
I0905 01:39:06.529139 90901 net.cpp:157] Top shape: 16 352 16 16 (1441792)
I0905 01:39:06.529147 90901 net.cpp:165] Memory required for data: 3241672768
I0905 01:39:06.529160 90901 layer_factory.hpp:77] Creating layer ReLU31
I0905 01:39:06.529173 90901 net.cpp:100] Creating Layer ReLU31
I0905 01:39:06.529183 90901 net.cpp:434] ReLU31 <- BatchNorm31
I0905 01:39:06.529192 90901 net.cpp:395] ReLU31 -> BatchNorm31 (in-place)
I0905 01:39:06.529515 90901 net.cpp:150] Setting up ReLU31
I0905 01:39:06.529534 90901 net.cpp:157] Top shape: 16 352 16 16 (1441792)
I0905 01:39:06.529543 90901 net.cpp:165] Memory required for data: 3247439936
I0905 01:39:06.529552 90901 layer_factory.hpp:77] Creating layer Convolution32
I0905 01:39:06.529573 90901 net.cpp:100] Creating Layer Convolution32
I0905 01:39:06.529582 90901 net.cpp:434] Convolution32 <- BatchNorm31
I0905 01:39:06.529595 90901 net.cpp:408] Convolution32 -> Convolution32
I0905 01:39:06.531680 90901 net.cpp:150] Setting up Convolution32
I0905 01:39:06.531702 90901 net.cpp:157] Top shape: 16 12 16 16 (49152)
I0905 01:39:06.531710 90901 net.cpp:165] Memory required for data: 3247636544
I0905 01:39:06.531723 90901 layer_factory.hpp:77] Creating layer Dropout32
I0905 01:39:06.531738 90901 net.cpp:100] Creating Layer Dropout32
I0905 01:39:06.531747 90901 net.cpp:434] Dropout32 <- Convolution32
I0905 01:39:06.531760 90901 net.cpp:408] Dropout32 -> Dropout32
I0905 01:39:06.531808 90901 net.cpp:150] Setting up Dropout32
I0905 01:39:06.531823 90901 net.cpp:157] Top shape: 16 12 16 16 (49152)
I0905 01:39:06.531832 90901 net.cpp:165] Memory required for data: 3247833152
I0905 01:39:06.531841 90901 layer_factory.hpp:77] Creating layer Concat29
I0905 01:39:06.531855 90901 net.cpp:100] Creating Layer Concat29
I0905 01:39:06.531870 90901 net.cpp:434] Concat29 <- Concat28_Concat28_0_split_1
I0905 01:39:06.531893 90901 net.cpp:434] Concat29 <- Dropout32
I0905 01:39:06.531913 90901 net.cpp:408] Concat29 -> Concat29
I0905 01:39:06.531946 90901 net.cpp:150] Setting up Concat29
I0905 01:39:06.531958 90901 net.cpp:157] Top shape: 16 364 16 16 (1490944)
I0905 01:39:06.531967 90901 net.cpp:165] Memory required for data: 3253796928
I0905 01:39:06.531978 90901 layer_factory.hpp:77] Creating layer Concat29_Concat29_0_split
I0905 01:39:06.531991 90901 net.cpp:100] Creating Layer Concat29_Concat29_0_split
I0905 01:39:06.532001 90901 net.cpp:434] Concat29_Concat29_0_split <- Concat29
I0905 01:39:06.532014 90901 net.cpp:408] Concat29_Concat29_0_split -> Concat29_Concat29_0_split_0
I0905 01:39:06.532027 90901 net.cpp:408] Concat29_Concat29_0_split -> Concat29_Concat29_0_split_1
I0905 01:39:06.532073 90901 net.cpp:150] Setting up Concat29_Concat29_0_split
I0905 01:39:06.532086 90901 net.cpp:157] Top shape: 16 364 16 16 (1490944)
I0905 01:39:06.532099 90901 net.cpp:157] Top shape: 16 364 16 16 (1490944)
I0905 01:39:06.532106 90901 net.cpp:165] Memory required for data: 3265724480
I0905 01:39:06.532115 90901 layer_factory.hpp:77] Creating layer BatchNorm32
I0905 01:39:06.532129 90901 net.cpp:100] Creating Layer BatchNorm32
I0905 01:39:06.532137 90901 net.cpp:434] BatchNorm32 <- Concat29_Concat29_0_split_0
I0905 01:39:06.532147 90901 net.cpp:408] BatchNorm32 -> BatchNorm32
I0905 01:39:06.532371 90901 net.cpp:150] Setting up BatchNorm32
I0905 01:39:06.532385 90901 net.cpp:157] Top shape: 16 364 16 16 (1490944)
I0905 01:39:06.532394 90901 net.cpp:165] Memory required for data: 3271688256
I0905 01:39:06.532419 90901 layer_factory.hpp:77] Creating layer Scale32
I0905 01:39:06.532435 90901 net.cpp:100] Creating Layer Scale32
I0905 01:39:06.532445 90901 net.cpp:434] Scale32 <- BatchNorm32
I0905 01:39:06.532459 90901 net.cpp:395] Scale32 -> BatchNorm32 (in-place)
I0905 01:39:06.532579 90901 net.cpp:150] Setting up Scale32
I0905 01:39:06.532595 90901 net.cpp:157] Top shape: 16 364 16 16 (1490944)
I0905 01:39:06.532603 90901 net.cpp:165] Memory required for data: 3277652032
I0905 01:39:06.532614 90901 layer_factory.hpp:77] Creating layer ReLU32
I0905 01:39:06.532629 90901 net.cpp:100] Creating Layer ReLU32
I0905 01:39:06.532639 90901 net.cpp:434] ReLU32 <- BatchNorm32
I0905 01:39:06.532649 90901 net.cpp:395] ReLU32 -> BatchNorm32 (in-place)
I0905 01:39:06.532981 90901 net.cpp:150] Setting up ReLU32
I0905 01:39:06.533000 90901 net.cpp:157] Top shape: 16 364 16 16 (1490944)
I0905 01:39:06.533010 90901 net.cpp:165] Memory required for data: 3283615808
I0905 01:39:06.533018 90901 layer_factory.hpp:77] Creating layer Convolution33
I0905 01:39:06.533036 90901 net.cpp:100] Creating Layer Convolution33
I0905 01:39:06.533046 90901 net.cpp:434] Convolution33 <- BatchNorm32
I0905 01:39:06.533058 90901 net.cpp:408] Convolution33 -> Convolution33
I0905 01:39:06.535931 90901 net.cpp:150] Setting up Convolution33
I0905 01:39:06.535955 90901 net.cpp:157] Top shape: 16 12 16 16 (49152)
I0905 01:39:06.535965 90901 net.cpp:165] Memory required for data: 3283812416
I0905 01:39:06.535977 90901 layer_factory.hpp:77] Creating layer Dropout33
…
I0905 01:39:06.739367 90901 layer_factory.hpp:77] Creating layer Dropout27
I0905 01:39:06.739382 90901 net.cpp:100] Creating Layer Dropout27
I0905 01:39:06.739392 90901 net.cpp:434] Dropout27 <- Convolution27
I0905 01:39:06.739403 90901 net.cpp:408] Dropout27 -> Dropout27
I0905 01:39:06.739457 90901 net.cpp:150] Setting up Dropout27
I0905 01:39:06.739475 90901 net.cpp:157] Top shape: 16 304 32 32 (4980736)
I0905 01:39:06.739483 90901 net.cpp:165] Memory required for data: 3084648640
I0905 01:39:06.739495 90901 layer_factory.hpp:77] Creating layer Pooling2
I0905 01:39:06.739508 90901 net.cpp:100] Creating Layer Pooling2
I0905 01:39:06.739526 90901 net.cpp:434] Pooling2 <- Dropout27
I0905 01:39:06.739542 90901 net.cpp:408] Pooling2 -> Pooling2
I0905 01:39:06.739900 90901 net.cpp:150] Setting up Pooling2
I0905 01:39:06.739919 90901 net.cpp:157] Top shape: 16 304 16 16 (1245184)
I0905 01:39:06.739929 90901 net.cpp:165] Memory required for data: 3089629376
I0905 01:39:06.739938 90901 layer_factory.hpp:77] Creating layer Pooling2_Pooling2_0_split
I0905 01:39:06.739951 90901 net.cpp:100] Creating Layer Pooling2_Pooling2_0_split
I0905 01:39:06.739960 90901 net.cpp:434] Pooling2_Pooling2_0_split <- Pooling2
I0905 01:39:06.739970 90901 net.cpp:408] Pooling2_Pooling2_0_split -> Pooling2_Pooling2_0_split_0
I0905 01:39:06.739982 90901 net.cpp:408] Pooling2_Pooling2_0_split -> Pooling2_Pooling2_0_split_1
I0905 01:39:06.740028 90901 net.cpp:150] Setting up Pooling2_Pooling2_0_split
I0905 01:39:06.740041 90901 net.cpp:157] Top shape: 16 304 16 16 (1245184)
I0905 01:39:06.740054 90901 net.cpp:157] Top shape: 16 304 16 16 (1245184)
I0905 01:39:06.740062 90901 net.cpp:165] Memory required for data: 3099590848
I0905 01:39:06.740070 90901 layer_factory.hpp:77] Creating layer BatchNorm27
I0905 01:39:06.740083 90901 net.cpp:100] Creating Layer BatchNorm27
I0905 01:39:06.740093 90901 net.cpp:434] BatchNorm27 <- Pooling2_Pooling2_0_split_0
I0905 01:39:06.740104 90901 net.cpp:408] BatchNorm27 -> BatchNorm27
I0905 01:39:06.740335 90901 net.cpp:150] Setting up BatchNorm27
I0905 01:39:06.740350 90901 net.cpp:157] Top shape: 16 304 16 16 (1245184)
I0905 01:39:06.740360 90901 net.cpp:165] Memory required for data: 3104571584
I0905 01:39:06.740372 90901 layer_factory.hpp:77] Creating layer Scale27
I0905 01:39:06.740387 90901 net.cpp:100] Creating Layer Scale27
I0905 01:39:06.740396 90901 net.cpp:434] Scale27 <- BatchNorm27
I0905 01:39:06.740408 90901 net.cpp:395] Scale27 -> BatchNorm27 (in-place)
I0905 01:39:06.740525 90901 net.cpp:150] Setting up Scale27
I0905 01:39:06.740540 90901 net.cpp:157] Top shape: 16 304 16 16 (1245184)
I0905 01:39:06.740550 90901 net.cpp:165] Memory required for data: 3109552320
I0905 01:39:06.740561 90901 layer_factory.hpp:77] Creating layer ReLU27
I0905 01:39:06.740572 90901 net.cpp:100] Creating Layer ReLU27
I0905 01:39:06.740581 90901 net.cpp:434] ReLU27 <- BatchNorm27
I0905 01:39:06.740593 90901 net.cpp:395] ReLU27 -> BatchNorm27 (in-place)
I0905 01:39:06.740780 90901 net.cpp:150] Setting up ReLU27
I0905 01:39:06.740799 90901 net.cpp:157] Top shape: 16 304 16 16 (1245184)
I0905 01:39:06.740808 90901 net.cpp:165] Memory required for data: 3114533056
I0905 01:39:06.740816 90901 layer_factory.hpp:77] Creating layer Convolution28
I0905 01:39:06.740830 90901 net.cpp:100] Creating Layer Convolution28
I0905 01:39:06.740840 90901 net.cpp:434] Convolution28 <- BatchNorm27
I0905 01:39:06.740855 90901 net.cpp:408] Convolution28 -> Convolution28
I0905 01:39:06.742944 90901 net.cpp:150] Setting up Convolution28
I0905 01:39:06.742965 90901 net.cpp:157] Top shape: 16 12 16 16 (49152)
I0905 01:39:06.742974 90901 net.cpp:165] Memory required for data: 3114729664
I0905 01:39:06.742986 90901 layer_factory.hpp:77] Creating layer Dropout28
I0905 01:39:06.742998 90901 net.cpp:100] Creating Layer Dropout28
I0905 01:39:06.743007 90901 net.cpp:434] Dropout28 <- Convolution28
I0905 01:39:06.743019 90901 net.cpp:408] Dropout28 -> Dropout28
I0905 01:39:06.743067 90901 net.cpp:150] Setting up Dropout28
I0905 01:39:06.743093 90901 net.cpp:157] Top shape: 16 12 16 16 (49152)
I0905 01:39:06.743103 90901 net.cpp:165] Memory required for data: 3114926272
I0905 01:39:06.743111 90901 layer_factory.hpp:77] Creating layer Concat25
I0905 01:39:06.743127 90901 net.cpp:100] Creating Layer Concat25
I0905 01:39:06.743144 90901 net.cpp:434] Concat25 <- Pooling2_Pooling2_0_split_1
I0905 01:39:06.743160 90901 net.cpp:434] Concat25 <- Dropout28
I0905 01:39:06.743171 90901 net.cpp:408] Concat25 -> Concat25
I0905 01:39:06.743203 90901 net.cpp:150] Setting up Concat25
I0905 01:39:06.743221 90901 net.cpp:157] Top shape: 16 316 16 16 (1294336)
I0905 01:39:06.743229 90901 net.cpp:165] Memory required for data: 3120103616
I0905 01:39:06.743242 90901 layer_factory.hpp:77] Creating layer Concat25_Concat25_0_split
I0905 01:39:06.743252 90901 net.cpp:100] Creating Layer Concat25_Concat25_0_split
I0905 01:39:06.743264 90901 net.cpp:434] Concat25_Concat25_0_split <- Concat25
I0905 01:39:06.743278 90901 net.cpp:408] Concat25_Concat25_0_split -> Concat25_Concat25_0_split_0
I0905 01:39:06.743289 90901 net.cpp:408] Concat25_Concat25_0_split -> Concat25_Concat25_0_split_1
I0905 01:39:06.743333 90901 net.cpp:150] Setting up Concat25_Concat25_0_split
I0905 01:39:06.743348 90901 net.cpp:157] Top shape: 16 316 16 16 (1294336)
I0905 01:39:06.743358 90901 net.cpp:157] Top shape: 16 316 16 16 (1294336)
I0905 01:39:06.743366 90901 net.cpp:165] Memory required for data: 3130458304
I0905 01:39:06.743377 90901 layer_factory.hpp:77] Creating layer BatchNorm28
I0905 01:39:06.743391 90901 net.cpp:100] Creating Layer BatchNorm28
I0905 01:39:06.743402 90901 net.cpp:434] BatchNorm28 <- Concat25_Concat25_0_split_0
I0905 01:39:06.743414 90901 net.cpp:408] BatchNorm28 -> BatchNorm28
I0905 01:39:06.743636 90901 net.cpp:150] Setting up BatchNorm28
I0905 01:39:06.743651 90901 net.cpp:157] Top shape: 16 316 16 16 (1294336)
I0905 01:39:06.743659 90901 net.cpp:165] Memory required for data: 3135635648
I0905 01:39:06.743671 90901 layer_factory.hpp:77] Creating layer Scale28
I0905 01:39:06.743687 90901 net.cpp:100] Creating Layer Scale28
I0905 01:39:06.743696 90901 net.cpp:434] Scale28 <- BatchNorm28
I0905 01:39:06.743706 90901 net.cpp:395] Scale28 -> BatchNorm28 (in-place)
I0905 01:39:06.743813 90901 net.cpp:150] Setting up Scale28
I0905 01:39:06.743829 90901 net.cpp:157] Top shape: 16 316 16 16 (1294336)
I0905 01:39:06.743836 90901 net.cpp:165] Memory required for data: 3140812992
I0905 01:39:06.743846 90901 layer_factory.hpp:77] Creating layer ReLU28
I0905 01:39:06.743862 90901 net.cpp:100] Creating Layer ReLU28
I0905 01:39:06.743872 90901 net.cpp:434] ReLU28 <- BatchNorm28
I0905 01:39:06.743881 90901 net.cpp:395] ReLU28 -> BatchNorm28 (in-place)
I0905 01:39:06.744235 90901 net.cpp:150] Setting up ReLU28
I0905 01:39:06.744253 90901 net.cpp:157] Top shape: 16 316 16 16 (1294336)
I0905 01:39:06.744262 90901 net.cpp:165] Memory required for data: 3145990336
I0905 01:39:06.744272 90901 layer_factory.hpp:77] Creating layer Convolution29
I0905 01:39:06.744288 90901 net.cpp:100] Creating Layer Convolution29
I0905 01:39:06.744300 90901 net.cpp:434] Convolution29 <- BatchNorm28
I0905 01:39:06.744313 90901 net.cpp:408] Convolution29 -> Convolution29
I0905 01:39:06.746422 90901 net.cpp:150] Setting up Convolution29
I0905 01:39:06.746443 90901 net.cpp:157] Top shape: 16 12 16 16 (49152)
I0905 01:39:06.746451 90901 net.cpp:165] Memory required for data: 3146186944
I0905 01:39:06.746464 90901 layer_factory.hpp:77] Creating layer Dropout29
I0905 01:39:06.746479 90901 net.cpp:100] Creating Layer Dropout29
I0905 01:39:06.746491 90901 net.cpp:434] Dropout29 <- Convolution29
I0905 01:39:06.746502 90901 net.cpp:408] Dropout29 -> Dropout29
I0905 01:39:06.746547 90901 net.cpp:150] Setting up Dropout29
I0905 01:39:06.746562 90901 net.cpp:157] Top shape: 16 12 16 16 (49152)
I0905 01:39:06.746570 90901 net.cpp:165] Memory required for data: 3146383552
I0905 01:39:06.746579 90901 layer_factory.hpp:77] Creating layer Concat26
I0905 01:39:06.746595 90901 net.cpp:100] Creating Layer Concat26
I0905 01:39:06.746616 90901 net.cpp:434] Concat26 <- Concat25_Concat25_0_split_1
I0905 01:39:06.746634 90901 net.cpp:434] Concat26 <- Dropout29
I0905 01:39:06.746649 90901 net.cpp:408] Concat26 -> Concat26
I0905 01:39:06.746685 90901 net.cpp:150] Setting up Concat26
I0905 01:39:06.746700 90901 net.cpp:157] Top shape: 16 328 16 16 (1343488)
I0905 01:39:06.746708 90901 net.cpp:165] Memory required for data: 3151757504
I0905 01:39:06.746716 90901 layer_factory.hpp:77] Creating layer Concat26_Concat26_0_split
I0905 01:39:06.746731 90901 net.cpp:100] Creating Layer Concat26_Concat26_0_split
I0905 01:39:06.746739 90901 net.cpp:434] Concat26_Concat26_0_split <- Concat26
I0905 01:39:06.746752 90901 net.cpp:408] Concat26_Concat26_0_split -> Concat26_Concat26_0_split_0
I0905 01:39:06.746764 90901 net.cpp:408] Concat26_Concat26_0_split -> Concat26_Concat26_0_split_1
I0905 01:39:06.746808 90901 net.cpp:150] Setting up Concat26_Concat26_0_split
I0905 01:39:06.746821 90901 net.cpp:157] Top shape: 16 328 16 16 (1343488)
I0905 01:39:06.746831 90901 net.cpp:157] Top shape: 16 328 16 16 (1343488)
I0905 01:39:06.746840 90901 net.cpp:165] Memory required for data: 3162505408
I0905 01:39:06.746851 90901 layer_factory.hpp:77] Creating layer BatchNorm29
I0905 01:39:06.746863 90901 net.cpp:100] Creating Layer BatchNorm29
I0905 01:39:06.746873 90901 net.cpp:434] BatchNorm29 <- Concat26_Concat26_0_split_0
I0905 01:39:06.746887 90901 net.cpp:408] BatchNorm29 -> BatchNorm29
I0905 01:39:06.747117 90901 net.cpp:150] Setting up BatchNorm29
I0905 01:39:06.747133 90901 net.cpp:157] Top shape: 16 328 16 16 (1343488)
I0905 01:39:06.747140 90901 net.cpp:165] Memory required for data: 3167879360
I0905 01:39:06.747153 90901 layer_factory.hpp:77] Creating layer Scale29
I0905 01:39:06.747169 90901 net.cpp:100] Creating Layer Scale29
I0905 01:39:06.747177 90901 net.cpp:434] Scale29 <- BatchNorm29
I0905 01:39:06.747189 90901 net.cpp:395] Scale29 -> BatchNorm29 (in-place)
I0905 01:39:06.747301 90901 net.cpp:150] Setting up Scale29
I0905 01:39:06.747316 90901 net.cpp:157] Top shape: 16 328 16 16 (1343488)
I0905 01:39:06.747324 90901 net.cpp:165] Memory required for data: 3173253312
I0905 01:39:06.747334 90901 layer_factory.hpp:77] Creating layer ReLU29
I0905 01:39:06.747349 90901 net.cpp:100] Creating Layer ReLU29
I0905 01:39:06.747357 90901 net.cpp:434] ReLU29 <- BatchNorm29
I0905 01:39:06.747373 90901 net.cpp:395] ReLU29 -> BatchNorm29 (in-place)
I0905 01:39:06.747591 90901 net.cpp:150] Setting up ReLU29
I0905 01:39:06.747607 90901 net.cpp:157] Top shape: 16 328 16 16 (1343488)
I0905 01:39:06.747615 90901 net.cpp:165] Memory required for data: 3178627264
I0905 01:39:06.747624 90901 layer_factory.hpp:77] Creating layer Convolution30
I0905 01:39:06.747642 90901 net.cpp:100] Creating Layer Convolution30
I0905 01:39:06.747653 90901 net.cpp:434] Convolution30 <- BatchNorm29
I0905 01:39:06.747665 90901 net.cpp:408] Convolution30 -> Convolution30
I0905 01:39:06.749985 90901 net.cpp:150] Setting up Convolution30
I0905 01:39:06.750007 90901 net.cpp:157] Top shape: 16 12 16 16 (49152)
I0905 01:39:06.750016 90901 net.cpp:165] Memory required for data: 3178823872
I0905 01:39:06.750030 90901 layer_factory.hpp:77] Creating layer Dropout30
I0905 01:39:06.750044 90901 net.cpp:100] Creating Layer Dropout30
I0905 01:39:06.750054 90901 net.cpp:434] Dropout30 <- Convolution30
I0905 01:39:06.750066 90901 net.cpp:408] Dropout30 -> Dropout30
I0905 01:39:06.750110 90901 net.cpp:150] Setting up Dropout30
I0905 01:39:06.750126 90901 net.cpp:157] Top shape: 16 12 16 16 (49152)
I0905 01:39:06.750136 90901 net.cpp:165] Memory required for data: 3179020480
I0905 01:39:06.750144 90901 layer_factory.hpp:77] Creating layer Concat27
I0905 01:39:06.750155 90901 net.cpp:100] Creating Layer Concat27
I0905 01:39:06.750165 90901 net.cpp:434] Concat27 <- Concat26_Concat26_0_split_1
I0905 01:39:06.750179 90901 net.cpp:434] Concat27 <- Dropout30
I0905 01:39:06.750188 90901 net.cpp:408] Concat27 -> Concat27
I0905 01:39:06.750221 90901 net.cpp:150] Setting up Concat27
I0905 01:39:06.750247 90901 net.cpp:157] Top shape: 16 340 16 16 (1392640)
I0905 01:39:06.750257 90901 net.cpp:165] Memory required for data: 3184591040
I0905 01:39:06.750265 90901 layer_factory.hpp:77] Creating layer Concat27_Concat27_0_split
I0905 01:39:06.750284 90901 net.cpp:100] Creating Layer Concat27_Concat27_0_split
I0905 01:39:06.750294 90901 net.cpp:434] Concat27_Concat27_0_split <- Concat27
I0905 01:39:06.750313 90901 net.cpp:408] Concat27_Concat27_0_split -> Concat27_Concat27_0_split_0
I0905 01:39:06.750325 90901 net.cpp:408] Concat27_Concat27_0_split -> Concat27_Concat27_0_split_1
I0905 01:39:06.750375 90901 net.cpp:150] Setting up Concat27_Concat27_0_split
I0905 01:39:06.750388 90901 net.cpp:157] Top shape: 16 340 16 16 (1392640)
I0905 01:39:06.750399 90901 net.cpp:157] Top shape: 16 340 16 16 (1392640)
I0905 01:39:06.750408 90901 net.cpp:165] Memory required for data: 3195732160
I0905 01:39:06.750416 90901 layer_factory.hpp:77] Creating layer BatchNorm30
I0905 01:39:06.750427 90901 net.cpp:100] Creating Layer BatchNorm30
I0905 01:39:06.750440 90901 net.cpp:434] BatchNorm30 <- Concat27_Concat27_0_split_0
I0905 01:39:06.750452 90901 net.cpp:408] BatchNorm30 -> BatchNorm30
I0905 01:39:06.750725 90901 net.cpp:150] Setting up BatchNorm30
I0905 01:39:06.750741 90901 net.cpp:157] Top shape: 16 340 16 16 (1392640)
I0905 01:39:06.750749 90901 net.cpp:165] Memory required for data: 3201302720
I0905 01:39:06.750763 90901 layer_factory.hpp:77] Creating layer Scale30
I0905 01:39:06.750780 90901 net.cpp:100] Creating Layer Scale30
I0905 01:39:06.750789 90901 net.cpp:434] Scale30 <- BatchNorm30
I0905 01:39:06.750800 90901 net.cpp:395] Scale30 -> BatchNorm30 (in-place)
I0905 01:39:06.750911 90901 net.cpp:150] Setting up Scale30
I0905 01:39:06.750926 90901 net.cpp:157] Top shape: 16 340 16 16 (1392640)
I0905 01:39:06.750934 90901 net.cpp:165] Memory required for data: 3206873280
I0905 01:39:06.750944 90901 layer_factory.hpp:77] Creating layer ReLU30
I0905 01:39:06.750957 90901 net.cpp:100] Creating Layer ReLU30
I0905 01:39:06.750965 90901 net.cpp:434] ReLU30 <- BatchNorm30
I0905 01:39:06.750982 90901 net.cpp:395] ReLU30 -> BatchNorm30 (in-place)
I0905 01:39:06.751179 90901 net.cpp:150] Setting up ReLU30
I0905 01:39:06.751196 90901 net.cpp:157] Top shape: 16 340 16 16 (1392640)
I0905 01:39:06.751204 90901 net.cpp:165] Memory required for data: 3212443840
I0905 01:39:06.751214 90901 layer_factory.hpp:77] Creating layer Convolution31
I0905 01:39:06.751230 90901 net.cpp:100] Creating Layer Convolution31
I0905 01:39:06.751240 90901 net.cpp:434] Convolution31 <- BatchNorm30
I0905 01:39:06.751252 90901 net.cpp:408] Convolution31 -> Convolution31
I0905 01:39:06.753415 90901 net.cpp:150] Setting up Convolution31
I0905 01:39:06.753437 90901 net.cpp:157] Top shape: 16 12 16 16 (49152)
I0905 01:39:06.753445 90901 net.cpp:165] Memory required for data: 3212640448
I0905 01:39:06.753456 90901 layer_factory.hpp:77] Creating layer Dropout31
I0905 01:39:06.753468 90901 net.cpp:100] Creating Layer Dropout31
I0905 01:39:06.753478 90901 net.cpp:434] Dropout31 <- Convolution31
I0905 01:39:06.753490 90901 net.cpp:408] Dropout31 -> Dropout31
I0905 01:39:06.753533 90901 net.cpp:150] Setting up Dropout31
I0905 01:39:06.753547 90901 net.cpp:157] Top shape: 16 12 16 16 (49152)
I0905 01:39:06.753556 90901 net.cpp:165] Memory required for data: 3212837056
I0905 01:39:06.753564 90901 layer_factory.hpp:77] Creating layer Concat28
I0905 01:39:06.753576 90901 net.cpp:100] Creating Layer Concat28
I0905 01:39:06.753587 90901 net.cpp:434] Concat28 <- Concat27_Concat27_0_split_1
I0905 01:39:06.753597 90901 net.cpp:434] Concat28 <- Dropout31
I0905 01:39:06.753609 90901 net.cpp:408] Concat28 -> Concat28
I0905 01:39:06.753636 90901 net.cpp:150] Setting up Concat28
I0905 01:39:06.753649 90901 net.cpp:157] Top shape: 16 352 16 16 (1441792)
I0905 01:39:06.753657 90901 net.cpp:165] Memory required for data: 3218604224
I0905 01:39:06.753665 90901 layer_factory.hpp:77] Creating layer Concat28_Concat28_0_split
I0905 01:39:06.753676 90901 net.cpp:100] Creating Layer Concat28_Concat28_0_split
I0905 01:39:06.753698 90901 net.cpp:434] Concat28_Concat28_0_split <- Concat28
I0905 01:39:06.753715 90901 net.cpp:408] Concat28_Concat28_0_split -> Concat28_Concat28_0_split_0
I0905 01:39:06.753726 90901 net.cpp:408] Concat28_Concat28_0_split -> Concat28_Concat28_0_split_1
I0905 01:39:06.753768 90901 net.cpp:150] Setting up Concat28_Concat28_0_split
I0905 01:39:06.753782 90901 net.cpp:157] Top shape: 16 352 16 16 (1441792)
I0905 01:39:06.753790 90901 net.cpp:157] Top shape: 16 352 16 16 (1441792)
I0905 01:39:06.753798 90901 net.cpp:165] Memory required for data: 3230138560
I0905 01:39:06.753806 90901 layer_factory.hpp:77] Creating layer BatchNorm31
I0905 01:39:06.753818 90901 net.cpp:100] Creating Layer BatchNorm31
I0905 01:39:06.753829 90901 net.cpp:434] BatchNorm31 <- Concat28_Concat28_0_split_0
I0905 01:39:06.753839 90901 net.cpp:408] BatchNorm31 -> BatchNorm31
I0905 01:39:06.754045 90901 net.cpp:150] Setting up BatchNorm31
I0905 01:39:06.754057 90901 net.cpp:157] Top shape: 16 352 16 16 (1441792)
I0905 01:39:06.754065 90901 net.cpp:165] Memory required for data: 3235905728
I0905 01:39:06.754077 90901 layer_factory.hpp:77] Creating layer Scale31
I0905 01:39:06.754091 90901 net.cpp:100] Creating Layer Scale31
I0905 01:39:06.754099 90901 net.cpp:434] Scale31 <- BatchNorm31
I0905 01:39:06.754108 90901 net.cpp:395] Scale31 -> BatchNorm31 (in-place)
I0905 01:39:06.754214 90901 net.cpp:150] Setting up Scale31
I0905 01:39:06.754226 90901 net.cpp:157] Top shape: 16 352 16 16 (1441792)
I0905 01:39:06.754235 90901 net.cpp:165] Memory required for data: 3241672896
I0905 01:39:06.754245 90901 layer_factory.hpp:77] Creating layer ReLU31
I0905 01:39:06.754258 90901 net.cpp:100] Creating Layer ReLU31
I0905 01:39:06.754267 90901 net.cpp:434] ReLU31 <- BatchNorm31
I0905 01:39:06.754276 90901 net.cpp:395] ReLU31 -> BatchNorm31 (in-place)
I0905 01:39:06.754607 90901 net.cpp:150] Setting up ReLU31
I0905 01:39:06.754624 90901 net.cpp:157] Top shape: 16 352 16 16 (1441792)
I0905 01:39:06.754643 90901 net.cpp:165] Memory required for data: 3247440064
I0905 01:39:06.754663 90901 layer_factory.hpp:77] Creating layer Convolution32
I0905 01:39:06.754680 90901 net.cpp:100] Creating Layer Convolution32
I0905 01:39:06.754690 90901 net.cpp:434] Convolution32 <- BatchNorm31
I0905 01:39:06.754703 90901 net.cpp:408] Convolution32 -> Convolution32
I0905 01:39:06.757321 90901 net.cpp:150] Setting up Convolution32
I0905 01:39:06.757341 90901 net.cpp:157] Top shape: 16 12 16 16 (49152)
I0905 01:39:06.757349 90901 net.cpp:165] Memory required for data: 3247636672
I0905 01:39:06.757365 90901 layer_factory.hpp:77] Creating layer Dropout32
I0905 01:39:06.757376 90901 net.cpp:100] Creating Layer Dropout32
I0905 01:39:06.757385 90901 net.cpp:434] Dropout32 <- Convolution32
I0905 01:39:06.757397 90901 net.cpp:408] Dropout32 -> Dropout32
I0905 01:39:06.757438 90901 net.cpp:150] Setting up Dropout32
I0905 01:39:06.757457 90901 net.cpp:157] Top shape: 16 12 16 16 (49152)
I0905 01:39:06.757465 90901 net.cpp:165] Memory required for data: 3247833280
I0905 01:39:06.757474 90901 layer_factory.hpp:77] Creating layer Concat29
I0905 01:39:06.757485 90901 net.cpp:100] Creating Layer Concat29
I0905 01:39:06.757495 90901 net.cpp:434] Concat29 <- Concat28_Concat28_0_split_1
I0905 01:39:06.757504 90901 net.cpp:434] Concat29 <- Dropout32
I0905 01:39:06.757516 90901 net.cpp:408] Concat29 -> Concat29
I0905 01:39:06.757546 90901 net.cpp:150] Setting up Concat29
I0905 01:39:06.757560 90901 net.cpp:157] Top shape: 16 364 16 16 (1490944)
I0905 01:39:06.757568 90901 net.cpp:165] Memory required for data: 3253797056
I0905 01:39:06.757576 90901 layer_factory.hpp:77] Creating layer Concat29_Concat29_0_split
I0905 01:39:06.757588 90901 net.cpp:100] Creating Layer Concat29_Concat29_0_split
I0905 01:39:06.757597 90901 net.cpp:434] Concat29_Concat29_0_split <- Concat29
I0905 01:39:06.757611 90901 net.cpp:408] Concat29_Concat29_0_split -> Concat29_Concat29_0_split_0
I0905 01:39:06.757622 90901 net.cpp:408] Concat29_Concat29_0_split -> Concat29_Concat29_0_split_1
I0905 01:39:06.757675 90901 net.cpp:150] Setting up Concat29_Concat29_0_split
I0905 01:39:06.757689 90901 net.cpp:157] Top shape: 16 364 16 16 (1490944)
I0905 01:39:06.757699 90901 net.cpp:157] Top shape: 16 364 16 16 (1490944)
I0905 01:39:06.757706 90901 net.cpp:165] Memory required for data: 3265724608
I0905 01:39:06.757714 90901 layer_factory.hpp:77] Creating layer BatchNorm32
I0905 01:39:06.757726 90901 net.cpp:100] Creating Layer BatchNorm32
I0905 01:39:06.757735 90901 net.cpp:434] BatchNorm32 <- Concat29_Concat29_0_split_0
I0905 01:39:06.757747 90901 net.cpp:408] BatchNorm32 -> BatchNorm32
I0905 01:39:06.757967 90901 net.cpp:150] Setting up BatchNorm32
I0905 01:39:06.757982 90901 net.cpp:157] Top shape: 16 364 16 16 (1490944)
I0905 01:39:06.757988 90901 net.cpp:165] Memory required for data: 3271688384
I0905 01:39:06.758000 90901 layer_factory.hpp:77] Creating layer Scale32
I0905 01:39:06.758011 90901 net.cpp:100] Creating Layer Scale32
I0905 01:39:06.758019 90901 net.cpp:434] Scale32 <- BatchNorm32
I0905 01:39:06.758031 90901 net.cpp:395] Scale32 -> BatchNorm32 (in-place)
I0905 01:39:06.758134 90901 net.cpp:150] Setting up Scale32
I0905 01:39:06.758148 90901 net.cpp:157] Top shape: 16 364 16 16 (1490944)
I0905 01:39:06.758157 90901 net.cpp:165] Memory required for data: 3277652160
I0905 01:39:06.758164 90901 layer_factory.hpp:77] Creating layer ReLU32
I0905 01:39:06.758175 90901 net.cpp:100] Creating Layer ReLU32
I0905 01:39:06.758183 90901 net.cpp:434] ReLU32 <- BatchNorm32
I0905 01:39:06.758191 90901 net.cpp:395] ReLU32 -> BatchNorm32 (in-place)
I0905 01:39:06.758370 90901 net.cpp:150] Setting up ReLU32
I0905 01:39:06.758388 90901 net.cpp:157] Top shape: 16 364 16 16 (1490944)
I0905 01:39:06.758395 90901 net.cpp:165] Memory required for data: 3283615936
I0905 01:39:06.758404 90901 layer_factory.hpp:77] Creating layer Convolution33
I0905 01:39:06.758419 90901 net.cpp:100] Creating Layer Convolution33
I0905 01:39:06.758427 90901 net.cpp:434] Convolution33 <- BatchNorm32
I0905 01:39:06.758440 90901 net.cpp:408] Convolution33 -> Convolution33
I0905 01:39:06.760512 90901 net.cpp:150] Setting up Convolution33
I0905 01:39:06.760532 90901 net.cpp:157] Top shape: 16 12 16 16 (49152)
I0905 01:39:06.760541 90901 net.cpp:165] Memory required for data: 3283812544
I0905 01:39:06.760552 90901 layer_factory.hpp:77] Creating layer Dropout33
I0905 01:39:06.760563 90901 net.cpp:100] Creating Layer Dropout33
I0905 01:39:06.760571 90901 net.cpp:434] Dropout33 <- Convolution33
I0905 01:39:06.760584 90901 net.cpp:408] Dropout33 -> Dropout33
I0905 01:39:06.760625 90901 net.cpp:150] Setting up Dropout33
I0905 01:39:06.760638 90901 net.cpp:157] Top shape: 16 12 16 16 (49152)
I0905 01:39:06.760646 90901 net.cpp:165] Memory required for data: 3284009152
I0905 01:39:06.760654 90901 layer_factory.hpp:77] Creating layer Concat30
I0905 01:39:06.760664 90901 net.cpp:100] Creating Layer Concat30
I0905 01:39:06.760673 90901 net.cpp:434] Concat30 <- Concat29_Concat29_0_split_1
I0905 01:39:06.760685 90901 net.cpp:434] Concat30 <- Dropout33
I0905 01:39:06.760697 90901 net.cpp:408] Concat30 -> Concat30
I0905 01:39:06.760728 90901 net.cpp:150] Setting up Concat30
I0905 01:39:06.760741 90901 net.cpp:157] Top shape: 16 376 16 16 (1540096)
I0905 01:39:06.760749 90901 net.cpp:165] Memory required for data: 3290169536
I0905 01:39:06.760757 90901 layer_factory.hpp:77] Creating layer Concat30_Concat30_0_split
I0905 01:39:06.760767 90901 net.cpp:100] Creating Layer Concat30_Concat30_0_split
I0905 01:39:06.760776 90901 net.cpp:434] Concat30_Concat30_0_split <- Concat30
I0905 01:39:06.760789 90901 net.cpp:408] Concat30_Concat30_0_split -> Concat30_Concat30_0_split_0
I0905 01:39:06.760812 90901 net.cpp:408] Concat30_Concat30_0_split -> Concat30_Concat30_0_split_1
I0905 01:39:06.760850 90901 net.cpp:150] Setting up Concat30_Concat30_0_split
I0905 01:39:06.760864 90901 net.cpp:157] Top shape: 16 376 16 16 (1540096)
I0905 01:39:06.760872 90901 net.cpp:157] Top shape: 16 376 16 16 (1540096)
I0905 01:39:06.760879 90901 net.cpp:165] Memory required for data: 3302490304
I0905 01:39:06.760900 90901 layer_factory.hpp:77] Creating layer BatchNorm33
I0905 01:39:06.760913 90901 net.cpp:100] Creating Layer BatchNorm33
I0905 01:39:06.760922 90901 net.cpp:434] BatchNorm33 <- Concat30_Concat30_0_split_0
I0905 01:39:06.760936 90901 net.cpp:408] BatchNorm33 -> BatchNorm33
I0905 01:39:06.761147 90901 net.cpp:150] Setting up BatchNorm33
I0905 01:39:06.761162 90901 net.cpp:157] Top shape: 16 376 16 16 (1540096)
I0905 01:39:06.761168 90901 net.cpp:165] Memory required for data: 3308650688
I0905 01:39:06.761180 90901 layer_factory.hpp:77] Creating layer Scale33
I0905 01:39:06.761191 90901 net.cpp:100] Creating Layer Scale33
I0905 01:39:06.761199 90901 net.cpp:434] Scale33 <- BatchNorm33
I0905 01:39:06.761212 90901 net.cpp:395] Scale33 -> BatchNorm33 (in-place)
I0905 01:39:06.761322 90901 net.cpp:150] Setting up Scale33
I0905 01:39:06.761337 90901 net.cpp:157] Top shape: 16 376 16 16 (1540096)
I0905 01:39:06.761344 90901 net.cpp:165] Memory required for data: 3314811072
I0905 01:39:06.761353 90901 layer_factory.hpp:77] Creating layer ReLU33
I0905 01:39:06.761366 90901 net.cpp:100] Creating Layer ReLU33
I0905 01:39:06.761374 90901 net.cpp:434] ReLU33 <- BatchNorm33
I0905 01:39:06.761382 90901 net.cpp:395] ReLU33 -> BatchNorm33 (in-place)
I0905 01:39:06.761564 90901 net.cpp:150] Setting up ReLU33
I0905 01:39:06.761579 90901 net.cpp:157] Top shape: 16 376 16 16 (1540096)
I0905 01:39:06.761587 90901 net.cpp:165] Memory required for data: 3320971456
I0905 01:39:06.761595 90901 layer_factory.hpp:77] Creating layer Convolution34
I0905 01:39:06.761610 90901 net.cpp:100] Creating Layer Convolution34
I0905 01:39:06.761620 90901 net.cpp:434] Convolution34 <- BatchNorm33
I0905 01:39:06.761632 90901 net.cpp:408] Convolution34 -> Convolution34
I0905 01:39:06.763744 90901 net.cpp:150] Setting up Convolution34
I0905 01:39:06.763763 90901 net.cpp:157] Top shape: 16 12 16 16 (49152)
I0905 01:39:06.763779 90901 net.cpp:165] Memory required for data: 3321168064
I0905 01:39:06.763794 90901 layer_factory.hpp:77] Creating layer Dropout34
I0905 01:39:06.763809 90901 net.cpp:100] Creating Layer Dropout34
I0905 01:39:06.763821 90901 net.cpp:434] Dropout34 <- Convolution34
I0905 01:39:06.763833 90901 net.cpp:408] Dropout34 -> Dropout34
I0905 01:39:06.763873 90901 net.cpp:150] Setting up Dropout34
I0905 01:39:06.763896 90901 net.cpp:157] Top shape: 16 12 16 16 (49152)
I0905 01:39:06.763905 90901 net.cpp:165] Memory required for data: 3321364672
I0905 01:39:06.763912 90901 layer_factory.hpp:77] Creating layer Concat31
I0905 01:39:06.763922 90901 net.cpp:100] Creating Layer Concat31
I0905 01:39:06.763931 90901 net.cpp:434] Concat31 <- Concat30_Concat30_0_split_1
I0905 01:39:06.763942 90901 net.cpp:434] Concat31 <- Dropout34
I0905 01:39:06.763953 90901 net.cpp:408] Concat31 -> Concat31
I0905 01:39:06.763983 90901 net.cpp:150] Setting up Concat31
I0905 01:39:06.763996 90901 net.cpp:157] Top shape: 16 388 16 16 (1589248)
I0905 01:39:06.764004 90901 net.cpp:165] Memory required for data: 3327721664
I0905 01:39:06.764013 90901 layer_factory.hpp:77] Creating layer Concat31_Concat31_0_split
I0905 01:39:06.764039 90901 net.cpp:100] Creating Layer Concat31_Concat31_0_split
I0905 01:39:06.764048 90901 net.cpp:434] Concat31_Concat31_0_split <- Concat31
I0905 01:39:06.764062 90901 net.cpp:408] Concat31_Concat31_0_split -> Concat31_Concat31_0_split_0
I0905 01:39:06.764075 90901 net.cpp:408] Concat31_Concat31_0_split -> Concat31_Concat31_0_split_1
I0905 01:39:06.764128 90901 net.cpp:150] Setting up Concat31_Concat31_0_split
I0905 01:39:06.764142 90901 net.cpp:157] Top shape: 16 388 16 16 (1589248)
I0905 01:39:06.764149 90901 net.cpp:157] Top shape: 16 388 16 16 (1589248)
I0905 01:39:06.764158 90901 net.cpp:165] Memory required for data: 3340435648
I0905 01:39:06.764169 90901 layer_factory.hpp:77] Creating layer BatchNorm34
I0905 01:39:06.764181 90901 net.cpp:100] Creating Layer BatchNorm34
I0905 01:39:06.764190 90901 net.cpp:434] BatchNorm34 <- Concat31_Concat31_0_split_0
I0905 01:39:06.764200 90901 net.cpp:408] BatchNorm34 -> BatchNorm34
I0905 01:39:06.764410 90901 net.cpp:150] Setting up BatchNorm34
I0905 01:39:06.764436 90901 net.cpp:157] Top shape: 16 388 16 16 (1589248)
I0905 01:39:06.764444 90901 net.cpp:165] Memory required for data: 3346792640
I0905 01:39:06.764456 90901 layer_factory.hpp:77] Creating layer Scale34
I0905 01:39:06.764467 90901 net.cpp:100] Creating Layer Scale34
I0905 01:39:06.764475 90901 net.cpp:434] Scale34 <- BatchNorm34
I0905 01:39:06.764488 90901 net.cpp:395] Scale34 -> BatchNorm34 (in-place)
I0905 01:39:06.764595 90901 net.cpp:150] Setting up Scale34
I0905 01:39:06.764610 90901 net.cpp:157] Top shape: 16 388 16 16 (1589248)
I0905 01:39:06.764616 90901 net.cpp:165] Memory required for data: 3353149632
I0905 01:39:06.764626 90901 layer_factory.hpp:77] Creating layer ReLU34
I0905 01:39:06.764637 90901 net.cpp:100] Creating Layer ReLU34
I0905 01:39:06.764647 90901 net.cpp:434] ReLU34 <- BatchNorm34
I0905 01:39:06.764657 90901 net.cpp:395] ReLU34 -> BatchNorm34 (in-place)
I0905 01:39:06.765010 90901 net.cpp:150] Setting up ReLU34
I0905 01:39:06.765030 90901 net.cpp:157] Top shape: 16 388 16 16 (1589248)
I0905 01:39:06.765038 90901 net.cpp:165] Memory required for data: 3359506624
I0905 01:39:06.765048 90901 layer_factory.hpp:77] Creating layer Convolution35
I0905 01:39:06.765061 90901 net.cpp:100] Creating Layer Convolution35
I0905 01:39:06.765069 90901 net.cpp:434] Convolution35 <- BatchNorm34
I0905 01:39:06.765084 90901 net.cpp:408] Convolution35 -> Convolution35
I0905 01:39:06.767247 90901 net.cpp:150] Setting up Convolution35
I0905 01:39:06.767266 90901 net.cpp:157] Top shape: 16 12 16 16 (49152)
I0905 01:39:06.767276 90901 net.cpp:165] Memory required for data: 3359703232
I0905 01:39:06.767287 90901 layer_factory.hpp:77] Creating layer Dropout35
I0905 01:39:06.767297 90901 net.cpp:100] Creating Layer Dropout35
I0905 01:39:06.767307 90901 net.cpp:434] Dropout35 <- Convolution35
I0905 01:39:06.767319 90901 net.cpp:408] Dropout35 -> Dropout35
I0905 01:39:06.767360 90901 net.cpp:150] Setting up Dropout35
I0905 01:39:06.767374 90901 net.cpp:157] Top shape: 16 12 16 16 (49152)
I0905 01:39:06.767382 90901 net.cpp:165] Memory required for data: 3359899840
I0905 01:39:06.767390 90901 layer_factory.hpp:77] Creating layer Concat32
I0905 01:39:06.767402 90901 net.cpp:100] Creating Layer Concat32
I0905 01:39:06.767411 90901 net.cpp:434] Concat32 <- Concat31_Concat31_0_split_1
I0905 01:39:06.767421 90901 net.cpp:434] Concat32 <- Dropout35
I0905 01:39:06.767433 90901 net.cpp:408] Concat32 -> Concat32
I0905 01:39:06.767463 90901 net.cpp:150] Setting up Concat32
I0905 01:39:06.767477 90901 net.cpp:157] Top shape: 16 400 16 16 (1638400)
I0905 01:39:06.767484 90901 net.cpp:165] Memory required for data: 3366453440
I0905 01:39:06.767493 90901 layer_factory.hpp:77] Creating layer Concat32_Concat32_0_split
I0905 01:39:06.767501 90901 net.cpp:100] Creating Layer Concat32_Concat32_0_split
I0905 01:39:06.767510 90901 net.cpp:434] Concat32_Concat32_0_split <- Concat32
I0905 01:39:06.767521 90901 net.cpp:408] Concat32_Concat32_0_split -> Concat32_Concat32_0_split_0
I0905 01:39:06.767534 90901 net.cpp:408] Concat32_Concat32_0_split -> Concat32_Concat32_0_split_1
I0905 01:39:06.767577 90901 net.cpp:150] Setting up Concat32_Concat32_0_split
I0905 01:39:06.767588 90901 net.cpp:157] Top shape: 16 400 16 16 (1638400)
I0905 01:39:06.767598 90901 net.cpp:157] Top shape: 16 400 16 16 (1638400)
I0905 01:39:06.767606 90901 net.cpp:165] Memory required for data: 3379560640
I0905 01:39:06.767616 90901 layer_factory.hpp:77] Creating layer BatchNorm35
I0905 01:39:06.767632 90901 net.cpp:100] Creating Layer BatchNorm35
I0905 01:39:06.767642 90901 net.cpp:434] BatchNorm35 <- Concat32_Concat32_0_split_0
I0905 01:39:06.767654 90901 net.cpp:408] BatchNorm35 -> BatchNorm35
I0905 01:39:06.767868 90901 net.cpp:150] Setting up BatchNorm35
I0905 01:39:06.767882 90901 net.cpp:157] Top shape: 16 400 16 16 (1638400)
I0905 01:39:06.767889 90901 net.cpp:165] Memory required for data: 3386114240
I0905 01:39:06.767902 90901 layer_factory.hpp:77] Creating layer Scale35
I0905 01:39:06.767915 90901 net.cpp:100] Creating Layer Scale35
I0905 01:39:06.767935 90901 net.cpp:434] Scale35 <- BatchNorm35
I0905 01:39:06.767947 90901 net.cpp:395] Scale35 -> BatchNorm35 (in-place)
I0905 01:39:06.768059 90901 net.cpp:150] Setting up Scale35
I0905 01:39:06.768074 90901 net.cpp:157] Top shape: 16 400 16 16 (1638400)
I0905 01:39:06.768081 90901 net.cpp:165] Memory required for data: 3392667840
I0905 01:39:06.768090 90901 layer_factory.hpp:77] Creating layer ReLU35
I0905 01:39:06.768103 90901 net.cpp:100] Creating Layer ReLU35
I0905 01:39:06.768111 90901 net.cpp:434] ReLU35 <- BatchNorm35
I0905 01:39:06.768120 90901 net.cpp:395] ReLU35 -> BatchNorm35 (in-place)
I0905 01:39:06.768304 90901 net.cpp:150] Setting up ReLU35
I0905 01:39:06.768322 90901 net.cpp:157] Top shape: 16 400 16 16 (1638400)
I0905 01:39:06.768331 90901 net.cpp:165] Memory required for data: 3399221440
I0905 01:39:06.768338 90901 layer_factory.hpp:77] Creating layer Convolution36
I0905 01:39:06.768352 90901 net.cpp:100] Creating Layer Convolution36
I0905 01:39:06.768360 90901 net.cpp:434] Convolution36 <- BatchNorm35
I0905 01:39:06.768374 90901 net.cpp:408] Convolution36 -> Convolution36
I0905 01:39:06.770784 90901 net.cpp:150] Setting up Convolution36
I0905 01:39:06.770804 90901 net.cpp:157] Top shape: 16 12 16 16 (49152)
I0905 01:39:06.770812 90901 net.cpp:165] Memory required for data: 3399418048
I0905 01:39:06.770823 90901 layer_factory.hpp:77] Creating layer Dropout36
I0905 01:39:06.770838 90901 net.cpp:100] Creating Layer Dropout36
I0905 01:39:06.770846 90901 net.cpp:434] Dropout36 <- Convolution36
I0905 01:39:06.770858 90901 net.cpp:408] Dropout36 -> Dropout36
I0905 01:39:06.770900 90901 net.cpp:150] Setting up Dropout36
I0905 01:39:06.770915 90901 net.cpp:157] Top shape: 16 12 16 16 (49152)
I0905 01:39:06.770922 90901 net.cpp:165] Memory required for data: 3399614656
I0905 01:39:06.770931 90901 layer_factory.hpp:77] Creating layer Concat33
I0905 01:39:06.770941 90901 net.cpp:100] Creating Layer Concat33
I0905 01:39:06.770949 90901 net.cpp:434] Concat33 <- Concat32_Concat32_0_split_1
I0905 01:39:06.770961 90901 net.cpp:434] Concat33 <- Dropout36
I0905 01:39:06.770974 90901 net.cpp:408] Concat33 -> Concat33
I0905 01:39:06.771003 90901 net.cpp:150] Setting up Concat33
I0905 01:39:06.771014 90901 net.cpp:157] Top shape: 16 412 16 16 (1687552)
I0905 01:39:06.771023 90901 net.cpp:165] Memory required for data: 3406364864
I0905 01:39:06.771031 90901 layer_factory.hpp:77] Creating layer Concat33_Concat33_0_split
I0905 01:39:06.771042 90901 net.cpp:100] Creating Layer Concat33_Concat33_0_split
I0905 01:39:06.771051 90901 net.cpp:434] Concat33_Concat33_0_split <- Concat33
I0905 01:39:06.771066 90901 net.cpp:408] Concat33_Concat33_0_split -> Concat33_Concat33_0_split_0
I0905 01:39:06.771077 90901 net.cpp:408] Concat33_Concat33_0_split -> Concat33_Concat33_0_split_1
I0905 01:39:06.771117 90901 net.cpp:150] Setting up Concat33_Concat33_0_split
I0905 01:39:06.771131 90901 net.cpp:157] Top shape: 16 412 16 16 (1687552)
I0905 01:39:06.771139 90901 net.cpp:157] Top shape: 16 412 16 16 (1687552)
I0905 01:39:06.771147 90901 net.cpp:165] Memory required for data: 3419865280
I0905 01:39:06.771154 90901 layer_factory.hpp:77] Creating layer BatchNorm36
I0905 01:39:06.771167 90901 net.cpp:100] Creating Layer BatchNorm36
I0905 01:39:06.771176 90901 net.cpp:434] BatchNorm36 <- Concat33_Concat33_0_split_0
I0905 01:39:06.771185 90901 net.cpp:408] BatchNorm36 -> BatchNorm36
I0905 01:39:06.771401 90901 net.cpp:150] Setting up BatchNorm36
I0905 01:39:06.771416 90901 net.cpp:157] Top shape: 16 412 16 16 (1687552)
I0905 01:39:06.771425 90901 net.cpp:165] Memory required for data: 3426615488
I0905 01:39:06.771435 90901 layer_factory.hpp:77] Creating layer Scale36
I0905 01:39:06.771448 90901 net.cpp:100] Creating Layer Scale36
I0905 01:39:06.771458 90901 net.cpp:434] Scale36 <- BatchNorm36
I0905 01:39:06.771467 90901 net.cpp:395] Scale36 -> BatchNorm36 (in-place)
I0905 01:39:06.771575 90901 net.cpp:150] Setting up Scale36
I0905 01:39:06.771589 90901 net.cpp:157] Top shape: 16 412 16 16 (1687552)
I0905 01:39:06.771610 90901 net.cpp:165] Memory required for data: 3433365696
I0905 01:39:06.771620 90901 layer_factory.hpp:77] Creating layer ReLU36
I0905 01:39:06.771631 90901 net.cpp:100] Creating Layer ReLU36
I0905 01:39:06.771639 90901 net.cpp:434] ReLU36 <- BatchNorm36
I0905 01:39:06.771653 90901 net.cpp:395] ReLU36 -> BatchNorm36 (in-place)
I0905 01:39:06.771836 90901 net.cpp:150] Setting up ReLU36
I0905 01:39:06.771852 90901 net.cpp:157] Top shape: 16 412 16 16 (1687552)
I0905 01:39:06.771859 90901 net.cpp:165] Memory required for data: 3440115904
I0905 01:39:06.771867 90901 layer_factory.hpp:77] Creating layer Convolution37
I0905 01:39:06.771885 90901 net.cpp:100] Creating Layer Convolution37
I0905 01:39:06.771894 90901 net.cpp:434] Convolution37 <- BatchNorm36
I0905 01:39:06.771908 90901 net.cpp:408] Convolution37 -> Convolution37
I0905 01:39:06.774170 90901 net.cpp:150] Setting up Convolution37
I0905 01:39:06.774191 90901 net.cpp:157] Top shape: 16 12 16 16 (49152)
I0905 01:39:06.774201 90901 net.cpp:165] Memory required for data: 3440312512
I0905 01:39:06.774214 90901 layer_factory.hpp:77] Creating layer Dropout37
I0905 01:39:06.774229 90901 net.cpp:100] Creating Layer Dropout37
I0905 01:39:06.774240 90901 net.cpp:434] Dropout37 <- Convolution37
I0905 01:39:06.774252 90901 net.cpp:408] Dropout37 -> Dropout37
I0905 01:39:06.774299 90901 net.cpp:150] Setting up Dropout37
I0905 01:39:06.774314 90901 net.cpp:157] Top shape: 16 12 16 16 (49152)
I0905 01:39:06.774323 90901 net.cpp:165] Memory required for data: 3440509120
I0905 01:39:06.774333 90901 layer_factory.hpp:77] Creating layer Concat34
I0905 01:39:06.774348 90901 net.cpp:100] Creating Layer Concat34
I0905 01:39:06.774361 90901 net.cpp:434] Concat34 <- Concat33_Concat33_0_split_1
I0905 01:39:06.774387 90901 net.cpp:434] Concat34 <- Dropout37
I0905 01:39:06.774399 90901 net.cpp:408] Concat34 -> Concat34
I0905 01:39:06.774431 90901 net.cpp:150] Setting up Concat34
I0905 01:39:06.774446 90901 net.cpp:157] Top shape: 16 424 16 16 (1736704)
I0905 01:39:06.774454 90901 net.cpp:165] Memory required for data: 3447455936
I0905 01:39:06.774463 90901 layer_factory.hpp:77] Creating layer Concat34_Concat34_0_split
I0905 01:39:06.774479 90901 net.cpp:100] Creating Layer Concat34_Concat34_0_split
I0905 01:39:06.774495 90901 net.cpp:434] Concat34_Concat34_0_split <- Concat34
I0905 01:39:06.774507 90901 net.cpp:408] Concat34_Concat34_0_split -> Concat34_Concat34_0_split_0
I0905 01:39:06.774518 90901 net.cpp:408] Concat34_Concat34_0_split -> Concat34_Concat34_0_split_1
I0905 01:39:06.774564 90901 net.cpp:150] Setting up Concat34_Concat34_0_split
I0905 01:39:06.774579 90901 net.cpp:157] Top shape: 16 424 16 16 (1736704)
I0905 01:39:06.774588 90901 net.cpp:157] Top shape: 16 424 16 16 (1736704)
I0905 01:39:06.774597 90901 net.cpp:165] Memory required for data: 3461349568
I0905 01:39:06.774610 90901 layer_factory.hpp:77] Creating layer BatchNorm37
I0905 01:39:06.774623 90901 net.cpp:100] Creating Layer BatchNorm37
I0905 01:39:06.774641 90901 net.cpp:434] BatchNorm37 <- Concat34_Concat34_0_split_0
I0905 01:39:06.774654 90901 net.cpp:408] BatchNorm37 -> BatchNorm37
I0905 01:39:06.774893 90901 net.cpp:150] Setting up BatchNorm37
I0905 01:39:06.774909 90901 net.cpp:157] Top shape: 16 424 16 16 (1736704)
I0905 01:39:06.774919 90901 net.cpp:165] Memory required for data: 3468296384
I0905 01:39:06.774931 90901 layer_factory.hpp:77] Creating layer Scale37
I0905 01:39:06.774981 90901 net.cpp:100] Creating Layer Scale37
I0905 01:39:06.774992 90901 net.cpp:434] Scale37 <- BatchNorm37
I0905 01:39:06.775004 90901 net.cpp:395] Scale37 -> BatchNorm37 (in-place)
I0905 01:39:06.775121 90901 net.cpp:150] Setting up Scale37
I0905 01:39:06.775137 90901 net.cpp:157] Top shape: 16 424 16 16 (1736704)
I0905 01:39:06.775146 90901 net.cpp:165] Memory required for data: 3475243200
I0905 01:39:06.775157 90901 layer_factory.hpp:77] Creating layer ReLU37
I0905 01:39:06.775171 90901 net.cpp:100] Creating Layer ReLU37
I0905 01:39:06.775182 90901 net.cpp:434] ReLU37 <- BatchNorm37
I0905 01:39:06.775192 90901 net.cpp:395] ReLU37 -> BatchNorm37 (in-place)
I0905 01:39:06.775578 90901 net.cpp:150] Setting up ReLU37
I0905 01:39:06.775600 90901 net.cpp:157] Top shape: 16 424 16 16 (1736704)
I0905 01:39:06.775610 90901 net.cpp:165] Memory required for data: 3482190016
I0905 01:39:06.775620 90901 layer_factory.hpp:77] Creating layer Convolution38
I0905 01:39:06.775637 90901 net.cpp:100] Creating Layer Convolution38
I0905 01:39:06.775648 90901 net.cpp:434] Convolution38 <- BatchNorm37
I0905 01:39:06.775660 90901 net.cpp:408] Convolution38 -> Convolution38
I0905 01:39:06.778906 90901 net.cpp:150] Setting up Convolution38
I0905 01:39:06.778928 90901 net.cpp:157] Top shape: 16 12 16 16 (49152)
I0905 01:39:06.778939 90901 net.cpp:165] Memory required for data: 3482386624
I0905 01:39:06.778952 90901 layer_factory.hpp:77] Creating layer Dropout38
I0905 01:39:06.778965 90901 net.cpp:100] Creating Layer Dropout38
I0905 01:39:06.778975 90901 net.cpp:434] Dropout38 <- Convolution38
I0905 01:39:06.779002 90901 net.cpp:408] Dropout38 -> Dropout38
I0905 01:39:06.779048 90901 net.cpp:150] Setting up Dropout38
I0905 01:39:06.779063 90901 net.cpp:157] Top shape: 16 12 16 16 (49152)
I0905 01:39:06.779072 90901 net.cpp:165] Memory required for data: 3482583232
I0905 01:39:06.779081 90901 layer_factory.hpp:77] Creating layer Concat35
I0905 01:39:06.779095 90901 net.cpp:100] Creating Layer Concat35
I0905 01:39:06.779105 90901 net.cpp:434] Concat35 <- Concat34_Concat34_0_split_1
I0905 01:39:06.779115 90901 net.cpp:434] Concat35 <- Dropout38
I0905 01:39:06.779126 90901 net.cpp:408] Concat35 -> Concat35
I0905 01:39:06.779157 90901 net.cpp:150] Setting up Concat35
I0905 01:39:06.779171 90901 net.cpp:157] Top shape: 16 436 16 16 (1785856)
I0905 01:39:06.779181 90901 net.cpp:165] Memory required for data: 3489726656
I0905 01:39:06.779189 90901 layer_factory.hpp:77] Creating layer Concat35_Concat35_0_split
I0905 01:39:06.779201 90901 net.cpp:100] Creating Layer Concat35_Concat35_0_split
I0905 01:39:06.779213 90901 net.cpp:434] Concat35_Concat35_0_split <- Concat35
I0905 01:39:06.779228 90901 net.cpp:408] Concat35_Concat35_0_split -> Concat35_Concat35_0_split_0
I0905 01:39:06.779242 90901 net.cpp:408] Concat35_Concat35_0_split -> Concat35_Concat35_0_split_1
I0905 01:39:06.779284 90901 net.cpp:150] Setting up Concat35_Concat35_0_split
I0905 01:39:06.779301 90901 net.cpp:157] Top shape: 16 436 16 16 (1785856)
I0905 01:39:06.779312 90901 net.cpp:157] Top shape: 16 436 16 16 (1785856)
I0905 01:39:06.779320 90901 net.cpp:165] Memory required for data: 3504013504
I0905 01:39:06.779330 90901 layer_factory.hpp:77] Creating layer BatchNorm38
I0905 01:39:06.779340 90901 net.cpp:100] Creating Layer BatchNorm38
I0905 01:39:06.779355 90901 net.cpp:434] BatchNorm38 <- Concat35_Concat35_0_split_0
I0905 01:39:06.779367 90901 net.cpp:408] BatchNorm38 -> BatchNorm38
I0905 01:39:06.779605 90901 net.cpp:150] Setting up BatchNorm38
I0905 01:39:06.779620 90901 net.cpp:157] Top shape: 16 436 16 16 (1785856)
I0905 01:39:06.779628 90901 net.cpp:165] Memory required for data: 3511156928
I0905 01:39:06.779641 90901 layer_factory.hpp:77] Creating layer Scale38
I0905 01:39:06.779659 90901 net.cpp:100] Creating Layer Scale38
I0905 01:39:06.779670 90901 net.cpp:434] Scale38 <- BatchNorm38
I0905 01:39:06.779680 90901 net.cpp:395] Scale38 -> BatchNorm38 (in-place)
I0905 01:39:06.779794 90901 net.cpp:150] Setting up Scale38
I0905 01:39:06.779809 90901 net.cpp:157] Top shape: 16 436 16 16 (1785856)
I0905 01:39:06.779817 90901 net.cpp:165] Memory required for data: 3518300352
I0905 01:39:06.779827 90901 layer_factory.hpp:77] Creating layer ReLU38
I0905 01:39:06.779841 90901 net.cpp:100] Creating Layer ReLU38
I0905 01:39:06.779850 90901 net.cpp:434] ReLU38 <- BatchNorm38
I0905 01:39:06.779860 90901 net.cpp:395] ReLU38 -> BatchNorm38 (in-place)
I0905 01:39:06.780059 90901 net.cpp:150] Setting up ReLU38
I0905 01:39:06.780076 90901 net.cpp:157] Top shape: 16 436 16 16 (1785856)
I0905 01:39:06.780084 90901 net.cpp:165] Memory required for data: 3525443776
I0905 01:39:06.780092 90901 layer_factory.hpp:77] Creating layer Convolution39
I0905 01:39:06.780122 90901 net.cpp:100] Creating Layer Convolution39
I0905 01:39:06.780133 90901 net.cpp:434] Convolution39 <- BatchNorm38
I0905 01:39:06.780148 90901 net.cpp:408] Convolution39 -> Convolution39
I0905 01:39:06.782656 90901 net.cpp:150] Setting up Convolution39
I0905 01:39:06.782676 90901 net.cpp:157] Top shape: 16 12 16 16 (49152)
I0905 01:39:06.782686 90901 net.cpp:165] Memory required for data: 3525640384
I0905 01:39:06.782698 90901 layer_factory.hpp:77] Creating layer Dropout39
I0905 01:39:06.782712 90901 net.cpp:100] Creating Layer Dropout39
I0905 01:39:06.782723 90901 net.cpp:434] Dropout39 <- Convolution39
I0905 01:39:06.782735 90901 net.cpp:408] Dropout39 -> Dropout39
I0905 01:39:06.782781 90901 net.cpp:150] Setting up Dropout39
I0905 01:39:06.782796 90901 net.cpp:157] Top shape: 16 12 16 16 (49152)
I0905 01:39:06.782805 90901 net.cpp:165] Memory required for data: 3525836992
I0905 01:39:06.782817 90901 layer_factory.hpp:77] Creating layer Concat36
I0905 01:39:06.782831 90901 net.cpp:100] Creating Layer Concat36
I0905 01:39:06.782841 90901 net.cpp:434] Concat36 <- Concat35_Concat35_0_split_1
I0905 01:39:06.782851 90901 net.cpp:434] Concat36 <- Dropout39
I0905 01:39:06.782865 90901 net.cpp:408] Concat36 -> Concat36
I0905 01:39:06.782896 90901 net.cpp:150] Setting up Concat36
I0905 01:39:06.782909 90901 net.cpp:157] Top shape: 16 448 16 16 (1835008)
I0905 01:39:06.782918 90901 net.cpp:165] Memory required for data: 3533177024
I0905 01:39:06.782927 90901 layer_factory.hpp:77] Creating layer BatchNorm39
I0905 01:39:06.782946 90901 net.cpp:100] Creating Layer BatchNorm39
I0905 01:39:06.782958 90901 net.cpp:434] BatchNorm39 <- Concat36
I0905 01:39:06.782971 90901 net.cpp:408] BatchNorm39 -> BatchNorm39
I0905 01:39:06.783211 90901 net.cpp:150] Setting up BatchNorm39
I0905 01:39:06.783227 90901 net.cpp:157] Top shape: 16 448 16 16 (1835008)
I0905 01:39:06.783236 90901 net.cpp:165] Memory required for data: 3540517056
I0905 01:39:06.783248 90901 layer_factory.hpp:77] Creating layer Scale39
I0905 01:39:06.783262 90901 net.cpp:100] Creating Layer Scale39
I0905 01:39:06.783272 90901 net.cpp:434] Scale39 <- BatchNorm39
I0905 01:39:06.783280 90901 net.cpp:395] Scale39 -> BatchNorm39 (in-place)
I0905 01:39:06.783396 90901 net.cpp:150] Setting up Scale39
I0905 01:39:06.783412 90901 net.cpp:157] Top shape: 16 448 16 16 (1835008)
I0905 01:39:06.783421 90901 net.cpp:165] Memory required for data: 3547857088
I0905 01:39:06.783432 90901 layer_factory.hpp:77] Creating layer ReLU39
I0905 01:39:06.783442 90901 net.cpp:100] Creating Layer ReLU39
I0905 01:39:06.783458 90901 net.cpp:434] ReLU39 <- BatchNorm39
I0905 01:39:06.783468 90901 net.cpp:395] ReLU39 -> BatchNorm39 (in-place)
I0905 01:39:06.783676 90901 net.cpp:150] Setting up ReLU39
I0905 01:39:06.783694 90901 net.cpp:157] Top shape: 16 448 16 16 (1835008)
I0905 01:39:06.783702 90901 net.cpp:165] Memory required for data: 3555197120
I0905 01:39:06.783711 90901 layer_factory.hpp:77] Creating layer Pooling3
I0905 01:39:06.783725 90901 net.cpp:100] Creating Layer Pooling3
I0905 01:39:06.783735 90901 net.cpp:434] Pooling3 <- BatchNorm39
I0905 01:39:06.783746 90901 net.cpp:408] Pooling3 -> Pooling3
I0905 01:39:06.785228 90901 net.cpp:150] Setting up Pooling3
I0905 01:39:06.785248 90901 net.cpp:157] Top shape: 16 448 1 1 (7168)
I0905 01:39:06.785257 90901 net.cpp:165] Memory required for data: 3555225792
I0905 01:39:06.785266 90901 layer_factory.hpp:77] Creating layer InnerProduct1
I0905 01:39:06.785284 90901 net.cpp:100] Creating Layer InnerProduct1
I0905 01:39:06.785292 90901 net.cpp:434] InnerProduct1 <- Pooling3
I0905 01:39:06.785305 90901 net.cpp:408] InnerProduct1 -> InnerProduct1
I0905 01:39:06.785446 90901 net.cpp:150] Setting up InnerProduct1
I0905 01:39:06.785461 90901 net.cpp:157] Top shape: 16 2 (32)
I0905 01:39:06.785470 90901 net.cpp:165] Memory required for data: 3555225920
I0905 01:39:06.785481 90901 layer_factory.hpp:77] Creating layer InnerProduct1_InnerProduct1_0_split
I0905 01:39:06.785495 90901 net.cpp:100] Creating Layer InnerProduct1_InnerProduct1_0_split
I0905 01:39:06.785517 90901 net.cpp:434] InnerProduct1_InnerProduct1_0_split <- InnerProduct1
I0905 01:39:06.785528 90901 net.cpp:408] InnerProduct1_InnerProduct1_0_split -> InnerProduct1_InnerProduct1_0_split_0
I0905 01:39:06.785540 90901 net.cpp:408] InnerProduct1_InnerProduct1_0_split -> InnerProduct1_InnerProduct1_0_split_1
I0905 01:39:06.785590 90901 net.cpp:150] Setting up InnerProduct1_InnerProduct1_0_split
I0905 01:39:06.785604 90901 net.cpp:157] Top shape: 16 2 (32)
I0905 01:39:06.785614 90901 net.cpp:157] Top shape: 16 2 (32)
I0905 01:39:06.785624 90901 net.cpp:165] Memory required for data: 3555226176
I0905 01:39:06.785632 90901 layer_factory.hpp:77] Creating layer SoftmaxWithLoss1
I0905 01:39:06.785643 90901 net.cpp:100] Creating Layer SoftmaxWithLoss1
I0905 01:39:06.785652 90901 net.cpp:434] SoftmaxWithLoss1 <- InnerProduct1_InnerProduct1_0_split_0
I0905 01:39:06.785662 90901 net.cpp:434] SoftmaxWithLoss1 <- Data2_Data1_1_split_0
…
