…
I0905 01:04:49.248023 73306 net.cpp:322] The NetState phase (0) differed from the phase (1) specified by a rule in layer Accuracy1
I0905 01:04:49.248863 73306 net.cpp:58] Initializing net from parameters: 
name: "DenseNN"
state {
  phase: TRAIN
  level: 0
  stage: ""
}
layer {
  name: "Data1"
  type: "ImageData"
  top: "Data1"
  top: "Data2"
  include {
    phase: TRAIN
  }
  transform_param {
    mirror: true
    mean_value: 150
    mean_value: 150
    mean_value: 150
  }
  image_data_param {
    source: "../list_bias-1_tr.lst"
    batch_size: 16
    shuffle: true
  }
}
layer {
  name: "Convolution1"
  type: "Convolution"
  bottom: "Data1"
  top: "Convolution1"
  convolution_param {
    num_output: 16
    bias_term: true
    pad: 1
    kernel_size: 3
    stride: 1
    weight_filler {
      type: "msra"
    }
    bias_filler {
      type: "constant"
    }
  }
}
layer {
  name: "Dropout1"
  type: "Dropout"
  bottom: "Convolution1"
  top: "Dropout1"
  dropout_param {
    dropout_ratio: 0.2
  }
}
layer {
  name: "BatchNorm1"
  type: "BatchNorm"
  bottom: "Dropout1"
  top: "BatchNorm1"
  param {
    lr_mult: 0
    decay_mult: 0
  }
  param {
    lr_mult: 0
    decay_mult: 0
  }
  param {
    lr_mult: 0
    decay_mult: 0
  }
}
layer {
  name: "Scale1"
  type: "Scale"
  bottom: "BatchNorm1"
  top: "BatchNorm1"
  scale_param {
    filler {
      value: 1
    }
    bias_term: false
    bias_filler {
      value: 0
    }
  }
}
layer {
  name: "ReLU1"
  type: "ReLU"
  bottom: "BatchNorm1"
  top: "BatchNorm1"
}
layer {
  name: "Convolution2"
  type: "Convolution"
  bottom: "BatchNorm1"
  top: "Convolution2"
  convolution_param {
    num_output: 12
    bias_term: true
    pad: 1
    kernel_size: 3
    stride: 1
    weight_filler {
      type: "msra"
    }
    bias_filler {
      type: "constant"
    }
  }
}
layer {
  name: "Dropout2"
  type: "Dropout"
  bottom: "Convolution2"
  top: "Dropout2"
  dropout_param {
    dropout_ratio: 0.2
  }
}
layer {
  name: "Concat1"
  type: "Concat"
  bottom: "Dropout1"
  bottom: "Dropout2"
  top: "Concat1"
  concat_param {
    axis: 1
  }
}
layer {
  name: "BatchNorm2"
  type: "BatchNorm"
  bottom: "Concat1"
  top: "BatchNorm2"
  param {
    lr_mult: 0
    decay_mult: 0
  }
  param {
    lr_mult: 0
    decay_mult: 0
  }
  param {
    lr_mult: 0
    decay_mult: 0
  }
}
layer {
  name: "Scale2"
  type: "Scale"
  bottom: "BatchNorm2"
  top: "BatchNorm2"
  scale_param {
    filler {
      value: 1
    }
    bias_term: false
    bias_filler {
      value: 0
    }
  }
}
layer {
  name: "ReLU2"
  type: "ReLU"
  bottom: "BatchNorm2"
  top: "BatchNorm2"
}
layer {
  name: "Convolution3"
  type: "Convolution"
  bottom: "BatchNorm2"
  top: "Convolution3"
  convolution_param {
    num_output: 12
    bias_term: true
    pad: 1
    kernel_size: 3
    stride: 1
    weight_filler {
      type: "msra"
    }
    bias_filler {
      type: "constant"
    }
  }
}
layer {
  name: "Dropout3"
  type: "Dropout"
  bottom: "Convolution3"
  top: "Dropout3"
  dropout_param {
    dropout_ratio: 0.2
  }
}
layer {
  name: "Concat2"
  type: "Concat"
  bottom: "Concat1"
  bottom: "Dropout3"
  top: "Concat2"
  concat_param {
    axis: 1
  }
}
layer {
  name: "BatchNorm3"
  type: "BatchNorm"
  bottom: "Concat2"
  top: "BatchNorm3"
  param {
    lr_mult: 0
    decay_mult: 0
  }
  param {
    lr_mult: 0
    decay_mult: 0
  }
  param {
    lr_mult: 0
    decay_mult: 0
  }
}
layer {
  name: "Scale3"
  type: "Scale"
  bottom: "BatchNorm3"
  top: "BatchNorm3"
  scale_param {
    filler {
      value: 1
    }
    bias_term: false
    bias_filler {
      value: 0
    }
  }
}
layer {
  name: "ReLU3"
  type: "ReLU"
  bottom: "BatchNorm3"
  top: "BatchNorm3"
}
layer {
  name: "Convolution4"
  type: "Convolution"
  bottom: "BatchNorm3"
  top: "Convolution4"
  convolution_param {
    num_output: 12
    bias_term: true
    pad: 1
    kernel_size: 3
    stride: 1
    weight_filler {
      type: "msra"
    }
    bias_filler {
      type: "constant"
    }
  }
}
layer {
  name: "Dropout4"
  type: "Dropout"
  bottom: "Convolution4"
  top: "Dropout4"
  dropout_param {
    dropout_ratio: 0.2
  }
}
layer {
  name: "Concat3"
  type: "Concat"
  bottom: "Concat2"
  bottom: "Dropout4"
  top: "Concat3"
  concat_param {
    axis: 1
  }
}
layer {
  name: "BatchNorm4"
  type: "BatchNorm"
  bottom: "Concat3"
  top: "BatchNorm4"
  param {
    lr_mult: 0
    decay_mult: 0
  }
  param {
    lr_mult: 0
    decay_mult: 0
  }
  param {
    lr_mult: 0
    decay_mult: 0
  }
}
layer {
  name: "Scale4"
  type: "Scale"
  bottom: "BatchNorm4"
  top: "BatchNorm4"
  scale_param {
    filler {
      value: 1
    }
    bias_term: false
    bias_filler {
      value: 0
    }
  }
}
layer {
  name: "ReLU4"
  type: "ReLU"
  bottom: "BatchNorm4"
  top: "BatchNorm4"
}
layer {
  name: "Convolution5"
  type: "Convolution"
  bottom: "BatchNorm4"
  top: "Convolution5"
  convolution_param {
    num_output: 12
    bias_term: true
    pad: 1
    kernel_size: 3
    stride: 1
    weight_filler {
      type: "msra"
    }
    bias_filler {
      type: "constant"
    }
  }
}
layer {
  name: "Dropout5"
  type: "Dropout"
  bottom: "Convolution5"
  top: "Dropout5"
  dropout_param {
    dropout_ratio: 0.2
  }
}
layer {
  name: "Concat4"
  type: "Concat"
  bottom: "Concat3"
  bottom: "Dropout5"
  top: "Concat4"
  concat_param {
    axis: 1
  }
}
layer {
  name: "BatchNorm5"
  type: "BatchNorm"
  bottom: "Concat4"
  top: "BatchNorm5"
  param {
    lr_mult: 0
    decay_mult: 0
  }
  param {
    lr_mult: 0
    decay_mult: 0
  }
  param {
    lr_mult: 0
    decay_mult: 0
  }
}
layer {
  name: "Scale5"
  type: "Scale"
  bottom: "BatchNorm5"
  top: "BatchNorm5"
  scale_param {
    filler {
      value: 1
    }
    bias_term: false
    bias_filler {
      value: 0
    }
  }
}
layer {
  name: "ReLU5"
  type: "ReLU"
  bottom: "BatchNorm5"
  top: "BatchNorm5"
}
layer {
  name: "Convolution6"
  type: "Convolution"
  bottom: "BatchNorm5"
  top: "Convolution6"
  convolution_param {
    num_output: 12
    bias_term: true
    pad: 1
    kernel_size: 3
    stride: 1
    weight_filler {
      type: "msra"
    }
    bias_filler {
      type: "constant"
    }
  }
}
layer {
  name: "Dropout6"
  type: "Dropout"
  bottom: "Convolution6"
  top: "Dropout6"
  dropout_param {
    dropout_ratio: 0.2
  }
}
layer {
  name: "Concat5"
  type: "Concat"
  bottom: "Concat4"
  bottom: "Dropout6"
  top: "Concat5"
  concat_param {
    axis: 1
  }
}
layer {
  name: "BatchNorm6"
  type: "BatchNorm"
  bottom: "Concat5"
  top: "BatchNorm6"
  param {
    lr_mult: 0
    decay_mult: 0
  }
  param {
    lr_mult: 0
    decay_mult: 0
  }
  param {
    lr_mult: 0
    decay_mult: 0
  }
}
layer {
  name: "Scale6"
  type: "Scale"
  bottom: "BatchNorm6"
  top: "BatchNorm6"
  scale_param {
    filler {
      value: 1
    }
    bias_term: false
    bias_filler {
      value: 0
    }
  }
}
layer {
  name: "ReLU6"
  type: "ReLU"
  bottom: "BatchNorm6"
  top: "BatchNorm6"
}
layer {
  name: "Convolution7"
  type: "Convolution"
  bottom: "BatchNorm6"
  top: "Convolution7"
  convolution_param {
    num_output: 12
    bias_term: true
    pad: 1
    kernel_size: 3
    stride: 1
    weight_filler {
      type: "msra"
    }
    bias_filler {
      type: "constant"
    }
  }
}
layer {
  name: "Dropout7"
  type: "Dropout"
  bottom: "Convolution7"
  top: "Dropout7"
  dropout_param {
    dropout_ratio: 0.2
  }
}
layer {
  name: "Concat6"
  type: "Concat"
  bottom: "Concat5"
  bottom: "Dropout7"
  top: "Concat6"
  concat_param {
    axis: 1
  }
}
layer {
  name: "BatchNorm7"
  type: "BatchNorm"
  bottom: "Concat6"
  top: "BatchNorm7"
  param {
    lr_mult: 0
    decay_mult: 0
  }
  param {
    lr_mult: 0
    decay_mult: 0
  }
  param {
    lr_mult: 0
    decay_mult: 0
  }
}
layer {
  name: "Scale7"
  type: "Scale"
  bottom: "BatchNorm7"
  top: "BatchNorm7"
  scale_param {
    filler {
      value: 1
    }
    bias_term: false
    bias_filler {
      value: 0
    }
  }
}
layer {
  name: "ReLU7"
  type: "ReLU"
  bottom: "BatchNorm7"
  top: "BatchNorm7"
}
layer {
  name: "Convolution8"
  type: "Convolution"
  bottom: "BatchNorm7"
  top: "Convolution8"
  convolution_param {
    num_output: 12
    bias_term: true
    pad: 1
    kernel_size: 3
    stride: 1
    weight_filler {
      type: "msra"
    }
    bias_filler {
      type: "constant"
    }
  }
}
layer {
  name: "Dropout8"
  type: "Dropout"
  bottom: "Convolution8"
  top: "Dropout8"
  dropout_param {
    dropout_ratio: 0.2
  }
}
layer {
  name: "Concat7"
  type: "Concat"
  bottom: "Concat6"
  bottom: "Dropout8"
  top: "Concat7"
  concat_param {
    axis: 1
  }
}
layer {
  name: "BatchNorm8"
  type: "BatchNorm"
  bottom: "Concat7"
  top: "BatchNorm8"
  param {
    lr_mult: 0
    decay_mult: 0
  }
  param {
    lr_mult: 0
    decay_mult: 0
  }
  param {
    lr_mult: 0
    decay_mult: 0
  }
}
layer {
  name: "Scale8"
  type: "Scale"
  bottom: "BatchNorm8"
  top: "BatchNorm8"
  scale_param {
    filler {
      value: 1
    }
    bias_term: false
    bias_filler {
      value: 0
    }
  }
}
layer {
  name: "ReLU8"
  type: "ReLU"
  bottom: "BatchNorm8"
  top: "BatchNorm8"
}
layer {
  name: "Convolution9"
  type: "Convolution"
  bottom: "BatchNorm8"
  top: "Convolution9"
  convolution_param {
    num_output: 12
    bias_term: true
    pad: 1
    kernel_size: 3
    stride: 1
    weight_filler {
      type: "msra"
    }
    bias_filler {
      type: "constant"
    }
  }
}
layer {
  name: "Dropout9"
  type: "Dropout"
  bottom: "Convolution9"
  top: "Dropout9"
  dropout_param {
    dropout_ratio: 0.2
  }
}
layer {
  name: "Concat8"
  type: "Concat"
  bottom: "Concat7"
  bottom: "Dropout9"
  top: "Concat8"
  concat_param {
    axis: 1
  }
}
layer {
  name: "BatchNorm9"
  type: "BatchNorm"
  bottom: "Concat8"
  top: "BatchNorm9"
  param {
    lr_mult: 0
    decay_mult: 0
  }
  param {
    lr_mult: 0
    decay_mult: 0
  }
  param {
    lr_mult: 0
    decay_mult: 0
  }
}
layer {
  name: "Scale9"
  type: "Scale"
  bottom: "BatchNorm9"
  top: "BatchNorm9"
  scale_param {
    filler {
      value: 1
    }
    bias_term: false
    bias_filler {
      value: 0
    }
  }
}
layer {
  name: "ReLU9"
  type: "ReLU"
  bottom: "BatchNorm9"
  top: "BatchNorm9"
}
layer {
  name: "Convolution10"
  type: "Convolution"
  bottom: "BatchNorm9"
  top: "Convolution10"
  convolution_param {
    num_output: 12
    bias_term: true
    pad: 1
    kernel_size: 3
    stride: 1
    weight_filler {
      type: "msra"
    }
    bias_filler {
      type: "constant"
    }
  }
}
layer {
  name: "Dropout10"
  type: "Dropout"
  bottom: "Convolution10"
  top: "Dropout10"
  dropout_param {
    dropout_ratio: 0.2
  }
}
layer {
  name: "Concat9"
  type: "Concat"
  bottom: "Concat8"
  bottom: "Dropout10"
  top: "Concat9"
  concat_param {
    axis: 1
  }
}
layer {
  name: "BatchNorm10"
  type: "BatchNorm"
  bottom: "Concat9"
  top: "BatchNorm10"
  param {
    lr_mult: 0
    decay_mult: 0
  }
  param {
    lr_mult: 0
    decay_mult: 0
  }
  param {
    lr_mult: 0
    decay_mult: 0
  }
}
layer {
  name: "Scale10"
  type: "Scale"
  bottom: "BatchNorm10"
  top: "BatchNorm10"
  scale_param {
    filler {
      value: 1
    }
    bias_term: false
    bias_filler {
      value: 0
    }
  }
}
layer {
  name: "ReLU10"
  type: "ReLU"
  bottom: "BatchNorm10"
  top: "BatchNorm10"
}
layer {
  name: "Convolution11"
  type: "Convolution"
  bottom: "BatchNorm10"
  top: "Convolution11"
  convolution_param {
    num_output: 12
    bias_term: true
    pad: 1
    kernel_size: 3
    stride: 1
    weight_filler {
      type: "msra"
    }
    bias_filler {
      type: "constant"
    }
  }
}
layer {
  name: "Dropout11"
  type: "Dropout"
  bottom: "Convolution11"
  top: "Dropout11"
  dropout_param {
    dropout_ratio: 0.2
  }
}
layer {
  name: "Concat10"
  type: "Concat"
  bottom: "Concat9"
  bottom: "Dropout11"
  top: "Concat10"
  concat_param {
    axis: 1
  }
}
layer {
  name: "BatchNorm11"
  type: "BatchNorm"
  bottom: "Concat10"
  top: "BatchNorm11"
  param {
    lr_mult: 0
    decay_mult: 0
  }
  param {
    lr_mult: 0
    decay_mult: 0
  }
  param {
    lr_mult: 0
    decay_mult: 0
  }
}
layer {
  name: "Scale11"
  type: "Scale"
  bottom: "BatchNorm11"
  top: "BatchNorm11"
  scale_param {
    filler {
      value: 1
    }
    bias_term: false
    bias_filler {
      value: 0
    }
  }
}
layer {
  name: "ReLU11"
  type: "ReLU"
  bottom: "BatchNorm11"
  top: "BatchNorm11"
}
layer {
  name: "Convolution12"
  type: "Convolution"
  bottom: "BatchNorm11"
  top: "Convolution12"
  convolution_param {
    num_output: 12
    bias_term: true
    pad: 1
    kernel_size: 3
    stride: 1
    weight_filler {
      type: "msra"
    }
    bias_filler {
      type: "constant"
    }
  }
}
layer {
  name: "Dropout12"
  type: "Dropout"
  bottom: "Convolution12"
  top: "Dropout12"
  dropout_param {
    dropout_ratio: 0.2
  }
}
layer {
  name: "Concat11"
  type: "Concat"
  bottom: "Concat10"
  bottom: "Dropout12"
  top: "Concat11"
  concat_param {
    axis: 1
  }
}
layer {
  name: "BatchNorm12"
  type: "BatchNorm"
  bottom: "Concat11"
  top: "BatchNorm12"
  param {
    lr_mult: 0
    decay_mult: 0
  }
  param {
    lr_mult: 0
    decay_mult: 0
  }
  param {
    lr_mult: 0
    decay_mult: 0
  }
}
layer {
  name: "Scale12"
  type: "Scale"
  bottom: "BatchNorm12"
  top: "BatchNorm12"
  scale_param {
    filler {
      value: 1
    }
    bias_term: false
    bias_filler {
      value: 0
    }
  }
}
layer {
  name: "ReLU12"
  type: "ReLU"
  bottom: "BatchNorm12"
  top: "BatchNorm12"
}
layer {
  name: "Convolution13"
  type: "Convolution"
  bottom: "BatchNorm12"
  top: "Convolution13"
  convolution_param {
    num_output: 12
    bias_term: true
    pad: 1
    kernel_size: 3
    stride: 1
    weight_filler {
      type: "msra"
    }
    bias_filler {
      type: "constant"
    }
  }
}
layer {
  name: "Dropout13"
  type: "Dropout"
  bottom: "Convolution13"
  top: "Dropout13"
  dropout_param {
    dropout_ratio: 0.2
  }
}
layer {
  name: "Concat12"
  type: "Concat"
  bottom: "Concat11"
  bottom: "Dropout13"
  top: "Concat12"
  concat_param {
    axis: 1
  }
}
layer {
  name: "BatchNorm13"
  type: "BatchNorm"
  bottom: "Concat12"
  top: "BatchNorm13"
  param {
    lr_mult: 0
    decay_mult: 0
  }
  param {
    lr_mult: 0
    decay_mult: 0
  }
  param {
    lr_mult: 0
    decay_mult: 0
  }
}
layer {
  name: "Scale13"
  type: "Scale"
  bottom: "BatchNorm13"
  top: "BatchNorm13"
  scale_param {
    filler {
      value: 1
    }
    bias_term: false
    bias_filler {
      value: 0
    }
  }
}
layer {
  name: "ReLU13"
  type: "ReLU"
  bottom: "BatchNorm13"
  top: "BatchNorm13"
}
layer {
  name: "Convolution14"
  type: "Convolution"
  bottom: "BatchNorm13"
  top: "Convolution14"
  convolution_param {
    num_output: 160
    bias_term: true
    pad: 0
    kernel_size: 1
    stride: 1
    weight_filler {
      type: "msra"
    }
    bias_filler {
      type: "constant"
    }
  }
}
layer {
  name: "Dropout14"
  type: "Dropout"
  bottom: "Convolution14"
  top: "Dropout14"
  dropout_param {
    dropout_ratio: 0.2
  }
}
layer {
  name: "Pooling1"
  type: "Pooling"
  bottom: "Dropout14"
  top: "Pooling1"
  pooling_param {
    pool: AVE
    kernel_size: 2
    stride: 2
  }
}
layer {
  name: "BatchNorm14"
  type: "BatchNorm"
  bottom: "Pooling1"
  top: "BatchNorm14"
  param {
    lr_mult: 0
    decay_mult: 0
  }
  param {
    lr_mult: 0
    decay_mult: 0
  }
  param {
    lr_mult: 0
    decay_mult: 0
  }
}
layer {
  name: "Scale14"
  type: "Scale"
  bottom: "BatchNorm14"
  top: "BatchNorm14"
  scale_param {
    filler {
      value: 1
    }
    bias_term: false
    bias_filler {
      value: 0
    }
  }
}
layer {
  name: "ReLU14"
  type: "ReLU"
  bottom: "BatchNorm14"
  top: "BatchNorm14"
}
layer {
  name: "Convolution15"
  type: "Convolution"
  bottom: "BatchNorm14"
  top: "Convolution15"
  convolution_param {
    num_output: 12
    bias_term: true
    pad: 1
    kernel_size: 3
    stride: 1
    weight_filler {
      type: "msra"
    }
    bias_filler {
      type: "constant"
    }
  }
}
layer {
  name: "Dropout15"
  type: "Dropout"
  bottom: "Convolution15"
  top: "Dropout15"
  dropout_param {
    dropout_ratio: 0.2
  }
}
layer {
  name: "Concat13"
  type: "Concat"
  bottom: "Pooling1"
  bottom: "Dropout15"
  top: "Concat13"
  concat_param {
    axis: 1
  }
}
layer {
  name: "BatchNorm15"
  type: "BatchNorm"
  bottom: "Concat13"
  top: "BatchNorm15"
  param {
    lr_mult: 0
    decay_mult: 0
  }
  param {
    lr_mult: 0
    decay_mult: 0
  }
  param {
    lr_mult: 0
    decay_mult: 0
  }
}
layer {
  name: "Scale15"
  type: "Scale"
  bottom: "BatchNorm15"
  top: "BatchNorm15"
  scale_param {
    filler {
      value: 1
    }
    bias_term: false
    bias_filler {
      value: 0
    }
  }
}
layer {
  name: "ReLU15"
  type: "ReLU"
  bottom: "BatchNorm15"
  top: "BatchNorm15"
}
layer {
  name: "Convolution16"
  type: "Convolution"
  bottom: "BatchNorm15"
  top: "Convolution16"
  convolution_param {
    num_output: 12
    bias_term: true
    pad: 1
    kernel_size: 3
    stride: 1
    weight_filler {
      type: "msra"
    }
    bias_filler {
      type: "constant"
    }
  }
}
layer {
  name: "Dropout16"
  type: "Dropout"
  bottom: "Convolution16"
  top: "Dropout16"
  dropout_param {
    dropout_ratio: 0.2
  }
}
layer {
  name: "Concat14"
  type: "Concat"
  bottom: "Concat13"
  bottom: "Dropout16"
  top: "Concat14"
  concat_param {
    axis: 1
  }
}
layer {
  name: "BatchNorm16"
  type: "BatchNorm"
  bottom: "Concat14"
  top: "BatchNorm16"
  param {
    lr_mult: 0
    decay_mult: 0
  }
  param {
    lr_mult: 0
    decay_mult: 0
  }
  param {
    lr_mult: 0
    decay_mult: 0
  }
}
layer {
  name: "Scale16"
  type: "Scale"
  bottom: "BatchNorm16"
  top: "BatchNorm16"
  scale_param {
    filler {
      value: 1
    }
    bias_term: false
    bias_filler {
      value: 0
    }
  }
}
layer {
  name: "ReLU16"
  type: "ReLU"
  bottom: "BatchNorm16"
  top: "BatchNorm16"
}
layer {
  name: "Convolution17"
  type: "Convolution"
  bottom: "BatchNorm16"
  top: "Convolution17"
  convolution_param {
    num_output: 12
    bias_term: true
    pad: 1
    kernel_size: 3
    stride: 1
    weight_filler {
      type: "msra"
    }
    bias_filler {
      type: "constant"
    }
  }
}
layer {
  name: "Dropout17"
  type: "Dropout"
  bottom: "Convolution17"
  top: "Dropout17"
  dropout_param {
    dropout_ratio: 0.2
  }
}
layer {
  name: "Concat15"
  type: "Concat"
  bottom: "Concat14"
  bottom: "Dropout17"
  top: "Concat15"
  concat_param {
    axis: 1
  }
}
layer {
  name: "BatchNorm17"
  type: "BatchNorm"
  bottom: "Concat15"
  top: "BatchNorm17"
  param {
    lr_mult: 0
    decay_mult: 0
  }
  param {
    lr_mult: 0
    decay_mult: 0
  }
  param {
    lr_mult: 0
    decay_mult: 0
  }
}
layer {
  name: "Scale17"
  type: "Scale"
  bottom: "BatchNorm17"
  top: "BatchNorm17"
  scale_param {
    filler {
      value: 1
    }
    bias_term: false
    bias_filler {
      value: 0
    }
  }
}
layer {
  name: "ReLU17"
  type: "ReLU"
  bottom: "BatchNorm17"
  top: "BatchNorm17"
}
layer {
  name: "Convolution18"
  type: "Convolution"
  bottom: "BatchNorm17"
  top: "Convolution18"
  convolution_param {
    num_output: 12
    bias_term: true
    pad: 1
    kernel_size: 3
    stride: 1
    weight_filler {
      type: "msra"
    }
    bias_filler {
      type: "constant"
    }
  }
}
layer {
  name: "Dropout18"
  type: "Dropout"
  bottom: "Convolution18"
  top: "Dropout18"
  dropout_param {
    dropout_ratio: 0.2
  }
}
layer {
  name: "Concat16"
  type: "Concat"
  bottom: "Concat15"
  bottom: "Dropout18"
  top: "Concat16"
  concat_param {
    axis: 1
  }
}
layer {
  name: "BatchNorm18"
  type: "BatchNorm"
  bottom: "Concat16"
  top: "BatchNorm18"
  param {
    lr_mult: 0
    decay_mult: 0
  }
  param {
    lr_mult: 0
    decay_mult: 0
  }
  param {
    lr_mult: 0
    decay_mult: 0
  }
}
layer {
  name: "Scale18"
  type: "Scale"
  bottom: "BatchNorm18"
  top: "BatchNorm18"
  scale_param {
    filler {
      value: 1
    }
    bias_term: false
    bias_filler {
      value: 0
    }
  }
}
layer {
  name: "ReLU18"
  type: "ReLU"
  bottom: "BatchNorm18"
  top: "BatchNorm18"
}
layer {
  name: "Convolution19"
  type: "Convolution"
  bottom: "BatchNorm18"
  top: "Convolution19"
  convolution_param {
    num_output: 12
    bias_term: true
    pad: 1
    kernel_size: 3
    stride: 1
    weight_filler {
      type: "msra"
    }
    bias_filler {
      type: "constant"
    }
  }
}
layer {
  name: "Dropout19"
  type: "Dropout"
  bottom: "Convolution19"
  top: "Dropout19"
  dropout_param {
    dropout_ratio: 0.2
  }
}
layer {
  name: "Concat17"
  type: "Concat"
  bottom: "Concat16"
  bottom: "Dropout19"
  top: "Concat17"
  concat_param {
    axis: 1
  }
}
layer {
  name: "BatchNorm19"
  type: "BatchNorm"
  bottom: "Concat17"
  top: "BatchNorm19"
  param {
    lr_mult: 0
    decay_mult: 0
  }
  param {
    lr_mult: 0
    decay_mult: 0
  }
  param {
    lr_mult: 0
    decay_mult: 0
  }
}
layer {
  name: "Scale19"
  type: "Scale"
  bottom: "BatchNorm19"
  top: "BatchNorm19"
  scale_param {
    filler {
      value: 1
    }
    bias_term: false
    bias_filler {
      value: 0
    }
  }
}
layer {
  name: "ReLU19"
  type: "ReLU"
  bottom: "BatchNorm19"
  top: "BatchNorm19"
}
layer {
  name: "Convolution20"
  type: "Convolution"
  bottom: "BatchNorm19"
  top: "Convolution20"
  convolution_param {
    num_output: 12
    bias_term: true
    pad: 1
    kernel_size: 3
    stride: 1
    weight_filler {
      type: "msra"
    }
    bias_filler {
      type: "constant"
    }
  }
}
layer {
  name: "Dropout20"
  type: "Dropout"
  bottom: "Convolution20"
  top: "Dropout20"
  dropout_param {
    dropout_ratio: 0.2
  }
}
layer {
  name: "Concat18"
  type: "Concat"
  bottom: "Concat17"
  bottom: "Dropout20"
  top: "Concat18"
  concat_param {
    axis: 1
  }
}
layer {
  name: "BatchNorm20"
  type: "BatchNorm"
  bottom: "Concat18"
  top: "BatchNorm20"
  param {
    lr_mult: 0
    decay_mult: 0
  }
  param {
    lr_mult: 0
    decay_mult: 0
  }
  param {
    lr_mult: 0
    decay_mult: 0
  }
}
layer {
  name: "Scale20"
  type: "Scale"
  bottom: "BatchNorm20"
  top: "BatchNorm20"
  scale_param {
    filler {
      value: 1
    }
    bias_term: false
    bias_filler {
      value: 0
    }
  }
}
layer {
  name: "ReLU20"
  type: "ReLU"
  bottom: "BatchNorm20"
  top: "BatchNorm20"
}
layer {
  name: "Convolution21"
  type: "Convolution"
  bottom: "BatchNorm20"
  top: "Convolution21"
  convolution_param {
    num_output: 12
    bias_term: true
    pad: 1
    kernel_size: 3
    stride: 1
    weight_filler {
      type: "msra"
    }
    bias_filler {
      type: "constant"
    }
  }
}
layer {
  name: "Dropout21"
  type: "Dropout"
  bottom: "Convolution21"
  top: "Dropout21"
  dropout_param {
    dropout_ratio: 0.2
  }
}
layer {
  name: "Concat19"
  type: "Concat"
  bottom: "Concat18"
  bottom: "Dropout21"
  top: "Concat19"
  concat_param {
    axis: 1
  }
}
layer {
  name: "BatchNorm21"
  type: "BatchNorm"
  bottom: "Concat19"
  top: "BatchNorm21"
  param {
    lr_mult: 0
    decay_mult: 0
  }
  param {
    lr_mult: 0
    decay_mult: 0
  }
  param {
    lr_mult: 0
    decay_mult: 0
  }
}
layer {
  name: "Scale21"
  type: "Scale"
  bottom: "BatchNorm21"
  top: "BatchNorm21"
  scale_param {
    filler {
      value: 1
    }
    bias_term: false
    bias_filler {
      value: 0
    }
  }
}
layer {
  name: "ReLU21"
  type: "ReLU"
  bottom: "BatchNorm21"
  top: "BatchNorm21"
}
layer {
  name: "Convolution22"
  type: "Convolution"
  bottom: "BatchNorm21"
  top: "Convolution22"
  convolution_param {
    num_output: 12
    bias_term: true
    pad: 1
    kernel_size: 3
    stride: 1
    weight_filler {
      type: "msra"
    }
    bias_filler {
      type: "constant"
    }
  }
}
layer {
  name: "Dropout22"
  type: "Dropout"
  bottom: "Convolution22"
  top: "Dropout22"
  dropout_param {
    dropout_ratio: 0.2
  }
}
layer {
  name: "Concat20"
  type: "Concat"
  bottom: "Concat19"
  bottom: "Dropout22"
  top: "Concat20"
  concat_param {
    axis: 1
  }
}
layer {
  name: "BatchNorm22"
  type: "BatchNorm"
  bottom: "Concat20"
  top: "BatchNorm22"
  param {
    lr_mult: 0
    decay_mult: 0
  }
  param {
    lr_mult: 0
    decay_mult: 0
  }
  param {
    lr_mult: 0
    decay_mult: 0
  }
}
layer {
  name: "Scale22"
  type: "Scale"
  bottom: "BatchNorm22"
  top: "BatchNorm22"
  scale_param {
    filler {
      value: 1
    }
    bias_term: false
    bias_filler {
      value: 0
    }
  }
}
layer {
  name: "ReLU22"
  type: "ReLU"
  bottom: "BatchNorm22"
  top: "BatchNorm22"
}
layer {
  name: "Convolution23"
  type: "Convolution"
  bottom: "BatchNorm22"
  top: "Convolution23"
  convolution_param {
    num_output: 12
    bias_term: true
    pad: 1
    kernel_size: 3
    stride: 1
    weight_filler {
      type: "msra"
    }
    bias_filler {
      type: "constant"
    }
  }
}
layer {
  name: "Dropout23"
  type: "Dropout"
  bottom: "Convolution23"
  top: "Dropout23"
  dropout_param {
    dropout_ratio: 0.2
  }
}
layer {
  name: "Concat21"
  type: "Concat"
  bottom: "Concat20"
  bottom: "Dropout23"
  top: "Concat21"
  concat_param {
    axis: 1
  }
}
layer {
  name: "BatchNorm23"
  type: "BatchNorm"
  bottom: "Concat21"
  top: "BatchNorm23"
  param {
    lr_mult: 0
    decay_mult: 0
  }
  param {
    lr_mult: 0
    decay_mult: 0
  }
  param {
    lr_mult: 0
    decay_mult: 0
  }
}
layer {
  name: "Scale23"
  type: "Scale"
  bottom: "BatchNorm23"
  top: "BatchNorm23"
  scale_param {
    filler {
      value: 1
    }
    bias_term: false
    bias_filler {
      value: 0
    }
  }
}
layer {
  name: "ReLU23"
  type: "ReLU"
  bottom: "BatchNorm23"
  top: "BatchNorm23"
}
layer {
  name: "Convolution24"
  type: "Convolution"
  bottom: "BatchNorm23"
  top: "Convolution24"
  convolution_param {
    num_output: 12
    bias_term: true
    pad: 1
    kernel_size: 3
    stride: 1
    weight_filler {
      type: "msra"
    }
    bias_filler {
      type: "constant"
    }
  }
}
layer {
  name: "Dropout24"
  type: "Dropout"
  bottom: "Convolution24"
  top: "Dropout24"
  dropout_param {
    dropout_ratio: 0.2
  }
}
layer {
  name: "Concat22"
  type: "Concat"
  bottom: "Concat21"
  bottom: "Dropout24"
  top: "Concat22"
  concat_param {
    axis: 1
  }
}
layer {
  name: "BatchNorm24"
  type: "BatchNorm"
  bottom: "Concat22"
  top: "BatchNorm24"
  param {
    lr_mult: 0
    decay_mult: 0
  }
  param {
    lr_mult: 0
    decay_mult: 0
  }
  param {
    lr_mult: 0
    decay_mult: 0
  }
}
layer {
  name: "Scale24"
  type: "Scale"
  bottom: "BatchNorm24"
  top: "BatchNorm24"
  scale_param {
    filler {
      value: 1
    }
    bias_term: false
    bias_filler {
      value: 0
    }
  }
}
layer {
  name: "ReLU24"
  type: "ReLU"
  bottom: "BatchNorm24"
  top: "BatchNorm24"
}
layer {
  name: "Convolution25"
  type: "Convolution"
  bottom: "BatchNorm24"
  top: "Convolution25"
  convolution_param {
    num_output: 12
    bias_term: true
    pad: 1
    kernel_size: 3
    stride: 1
    weight_filler {
      type: "msra"
    }
    bias_filler {
      type: "constant"
    }
  }
}
layer {
  name: "Dropout25"
  type: "Dropout"
  bottom: "Convolution25"
  top: "Dropout25"
  dropout_param {
    dropout_ratio: 0.2
  }
}
layer {
  name: "Concat23"
  type: "Concat"
  bottom: "Concat22"
  bottom: "Dropout25"
  top: "Concat23"
  concat_param {
    axis: 1
  }
}
layer {
  name: "BatchNorm25"
  type: "BatchNorm"
  bottom: "Concat23"
  top: "BatchNorm25"
  param {
    lr_mult: 0
    decay_mult: 0
  }
  param {
    lr_mult: 0
    decay_mult: 0
  }
  param {
    lr_mult: 0
    decay_mult: 0
  }
}
layer {
  name: "Scale25"
  type: "Scale"
  bottom: "BatchNorm25"
  top: "BatchNorm25"
  scale_param {
    filler {
      value: 1
    }
    bias_term: false
    bias_filler {
      value: 0
    }
  }
}
layer {
  name: "ReLU25"
  type: "ReLU"
  bottom: "BatchNorm25"
  top: "BatchNorm25"
}
layer {
  name: "Convolution26"
  type: "Convolution"
  bottom: "BatchNorm25"
  top: "Convolution26"
  convolution_param {
    num_output: 12
    bias_term: true
    pad: 1
    kernel_size: 3
    stride: 1
    weight_filler {
      type: "msra"
    }
    bias_filler {
      type: "constant"
    }
  }
}
layer {
  name: "Dropout26"
  type: "Dropout"
  bottom: "Convolution26"
  top: "Dropout26"
  dropout_param {
    dropout_ratio: 0.2
  }
}
layer {
  name: "Concat24"
  type: "Concat"
  bottom: "Concat23"
  bottom: "Dropout26"
  top: "Concat24"
  concat_param {
    axis: 1
  }
}
layer {
  name: "BatchNorm26"
  type: "BatchNorm"
  bottom: "Concat24"
  top: "BatchNorm26"
  param {
    lr_mult: 0
    decay_mult: 0
  }
  param {
    lr_mult: 0
    decay_mult: 0
  }
  param {
    lr_mult: 0
    decay_mult: 0
  }
}
layer {
  name: "Scale26"
  type: "Scale"
  bottom: "BatchNorm26"
  top: "BatchNorm26"
  scale_param {
    filler {
      value: 1
    }
    bias_term: false
    bias_filler {
      value: 0
    }
  }
}
layer {
  name: "ReLU26"
  type: "ReLU"
  bottom: "BatchNorm26"
  top: "BatchNorm26"
}
layer {
  name: "Convolution27"
  type: "Convolution"
  bottom: "BatchNorm26"
  top: "Convolution27"
  convolution_param {
    num_output: 304
    bias_term: true
    pad: 0
    kernel_size: 1
    stride: 1
    weight_filler {
      type: "msra"
    }
    bias_filler {
      type: "constant"
    }
  }
}
layer {
  name: "Dropout27"
  type: "Dropout"
  bottom: "Convolution27"
  top: "Dropout27"
  dropout_param {
    dropout_ratio: 0.2
  }
}
layer {
  name: "Pooling2"
  type: "Pooling"
  bottom: "Dropout27"
  top: "Pooling2"
  pooling_param {
    pool: AVE
    kernel_size: 2
    stride: 2
  }
}
layer {
  name: "BatchNorm27"
  type: "BatchNorm"
  bottom: "Pooling2"
  top: "BatchNorm27"
  param {
    lr_mult: 0
    decay_mult: 0
  }
  param {
    lr_mult: 0
    decay_mult: 0
  }
  param {
    lr_mult: 0
    decay_mult: 0
  }
}
layer {
  name: "Scale27"
  type: "Scale"
  bottom: "BatchNorm27"
  top: "BatchNorm27"
  scale_param {
    filler {
      value: 1
    }
    bias_term: false
    bias_filler {
      value: 0
    }
  }
}
layer {
  name: "ReLU27"
  type
I0905 01:04:49.254493 73306 layer_factory.hpp:77] Creating layer Data1
I0905 01:04:49.254544 73306 net.cpp:100] Creating Layer Data1
I0905 01:04:49.254559 73306 net.cpp:408] Data1 -> Data1
I0905 01:04:49.254595 73306 net.cpp:408] Data1 -> Data2
I0905 01:04:49.255015 73306 image_data_layer.cpp:38] Opening file ../list_bias-1_tr.lst
I0905 01:04:49.776764 73306 image_data_layer.cpp:53] Shuffling data
I0905 01:04:50.014055 73306 image_data_layer.cpp:58] A total of 1056600 images.
I0905 01:04:50.110035 73306 image_data_layer.cpp:85] output data size: 16,3,64,64
I0905 01:04:50.120687 73306 net.cpp:150] Setting up Data1
I0905 01:04:50.120825 73306 net.cpp:157] Top shape: 16 3 64 64 (196608)
I0905 01:04:50.120862 73306 net.cpp:157] Top shape: 16 (16)
I0905 01:04:50.120867 73306 net.cpp:165] Memory required for data: 786496
I0905 01:04:50.120898 73306 layer_factory.hpp:77] Creating layer Convolution1
I0905 01:04:50.120959 73306 net.cpp:100] Creating Layer Convolution1
I0905 01:04:50.120970 73306 net.cpp:434] Convolution1 <- Data1
I0905 01:04:50.121032 73306 net.cpp:408] Convolution1 -> Convolution1
I0905 01:04:50.331912 73306 net.cpp:150] Setting up Convolution1
I0905 01:04:50.331965 73306 net.cpp:157] Top shape: 16 16 64 64 (1048576)
I0905 01:04:50.331979 73306 net.cpp:165] Memory required for data: 4980800
I0905 01:04:50.332008 73306 layer_factory.hpp:77] Creating layer Dropout1
I0905 01:04:50.332037 73306 net.cpp:100] Creating Layer Dropout1
I0905 01:04:50.332048 73306 net.cpp:434] Dropout1 <- Convolution1
I0905 01:04:50.332062 73306 net.cpp:408] Dropout1 -> Dropout1
I0905 01:04:50.332120 73306 net.cpp:150] Setting up Dropout1
I0905 01:04:50.332134 73306 net.cpp:157] Top shape: 16 16 64 64 (1048576)
I0905 01:04:50.332142 73306 net.cpp:165] Memory required for data: 9175104
I0905 01:04:50.332149 73306 layer_factory.hpp:77] Creating layer Dropout1_Dropout1_0_split
I0905 01:04:50.332162 73306 net.cpp:100] Creating Layer Dropout1_Dropout1_0_split
I0905 01:04:50.332170 73306 net.cpp:434] Dropout1_Dropout1_0_split <- Dropout1
I0905 01:04:50.332213 73306 net.cpp:408] Dropout1_Dropout1_0_split -> Dropout1_Dropout1_0_split_0
I0905 01:04:50.332226 73306 net.cpp:408] Dropout1_Dropout1_0_split -> Dropout1_Dropout1_0_split_1
I0905 01:04:50.332262 73306 net.cpp:150] Setting up Dropout1_Dropout1_0_split
I0905 01:04:50.332279 73306 net.cpp:157] Top shape: 16 16 64 64 (1048576)
I0905 01:04:50.332288 73306 net.cpp:157] Top shape: 16 16 64 64 (1048576)
I0905 01:04:50.332295 73306 net.cpp:165] Memory required for data: 17563712
I0905 01:04:50.332304 73306 layer_factory.hpp:77] Creating layer BatchNorm1
I0905 01:04:50.332324 73306 net.cpp:100] Creating Layer BatchNorm1
I0905 01:04:50.332332 73306 net.cpp:434] BatchNorm1 <- Dropout1_Dropout1_0_split_0
I0905 01:04:50.332341 73306 net.cpp:408] BatchNorm1 -> BatchNorm1
I0905 01:04:50.332500 73306 net.cpp:150] Setting up BatchNorm1
I0905 01:04:50.332516 73306 net.cpp:157] Top shape: 16 16 64 64 (1048576)
I0905 01:04:50.332525 73306 net.cpp:165] Memory required for data: 21758016
I0905 01:04:50.332538 73306 layer_factory.hpp:77] Creating layer Scale1
I0905 01:04:50.332562 73306 net.cpp:100] Creating Layer Scale1
I0905 01:04:50.332571 73306 net.cpp:434] Scale1 <- BatchNorm1
I0905 01:04:50.332579 73306 net.cpp:395] Scale1 -> BatchNorm1 (in-place)
I0905 01:04:50.332664 73306 net.cpp:150] Setting up Scale1
I0905 01:04:50.332679 73306 net.cpp:157] Top shape: 16 16 64 64 (1048576)
I0905 01:04:50.332690 73306 net.cpp:165] Memory required for data: 25952320
I0905 01:04:50.332698 73306 layer_factory.hpp:77] Creating layer ReLU1
I0905 01:04:50.332715 73306 net.cpp:100] Creating Layer ReLU1
I0905 01:04:50.332722 73306 net.cpp:434] ReLU1 <- BatchNorm1
I0905 01:04:50.332731 73306 net.cpp:395] ReLU1 -> BatchNorm1 (in-place)
I0905 01:04:50.332885 73306 net.cpp:150] Setting up ReLU1
I0905 01:04:50.332901 73306 net.cpp:157] Top shape: 16 16 64 64 (1048576)
I0905 01:04:50.332908 73306 net.cpp:165] Memory required for data: 30146624
I0905 01:04:50.332916 73306 layer_factory.hpp:77] Creating layer Convolution2
I0905 01:04:50.332937 73306 net.cpp:100] Creating Layer Convolution2
I0905 01:04:50.332944 73306 net.cpp:434] Convolution2 <- BatchNorm1
I0905 01:04:50.332954 73306 net.cpp:408] Convolution2 -> Convolution2
I0905 01:04:50.333807 73306 net.cpp:150] Setting up Convolution2
I0905 01:04:50.333827 73306 net.cpp:157] Top shape: 16 12 64 64 (786432)
I0905 01:04:50.333837 73306 net.cpp:165] Memory required for data: 33292352
I0905 01:04:50.333847 73306 layer_factory.hpp:77] Creating layer Dropout2
I0905 01:04:50.333861 73306 net.cpp:100] Creating Layer Dropout2
I0905 01:04:50.333869 73306 net.cpp:434] Dropout2 <- Convolution2
I0905 01:04:50.333878 73306 net.cpp:408] Dropout2 -> Dropout2
I0905 01:04:50.333925 73306 net.cpp:150] Setting up Dropout2
I0905 01:04:50.333936 73306 net.cpp:157] Top shape: 16 12 64 64 (786432)
I0905 01:04:50.333943 73306 net.cpp:165] Memory required for data: 36438080
I0905 01:04:50.333950 73306 layer_factory.hpp:77] Creating layer Concat1
I0905 01:04:50.333966 73306 net.cpp:100] Creating Layer Concat1
I0905 01:04:50.333973 73306 net.cpp:434] Concat1 <- Dropout1_Dropout1_0_split_1
I0905 01:04:50.333981 73306 net.cpp:434] Concat1 <- Dropout2
I0905 01:04:50.333989 73306 net.cpp:408] Concat1 -> Concat1
I0905 01:04:50.334020 73306 net.cpp:150] Setting up Concat1
I0905 01:04:50.334033 73306 net.cpp:157] Top shape: 16 28 64 64 (1835008)
I0905 01:04:50.334038 73306 net.cpp:165] Memory required for data: 43778112
I0905 01:04:50.334045 73306 layer_factory.hpp:77] Creating layer Concat1_Concat1_0_split
I0905 01:04:50.334056 73306 net.cpp:100] Creating Layer Concat1_Concat1_0_split
I0905 01:04:50.334064 73306 net.cpp:434] Concat1_Concat1_0_split <- Concat1
I0905 01:04:50.334072 73306 net.cpp:408] Concat1_Concat1_0_split -> Concat1_Concat1_0_split_0
I0905 01:04:50.334084 73306 net.cpp:408] Concat1_Concat1_0_split -> Concat1_Concat1_0_split_1
I0905 01:04:50.334115 73306 net.cpp:150] Setting up Concat1_Concat1_0_split
I0905 01:04:50.334127 73306 net.cpp:157] Top shape: 16 28 64 64 (1835008)
I0905 01:04:50.334147 73306 net.cpp:157] Top shape: 16 28 64 64 (1835008)
I0905 01:04:50.334154 73306 net.cpp:165] Memory required for data: 58458176
I0905 01:04:50.334162 73306 layer_factory.hpp:77] Creating layer BatchNorm2
I0905 01:04:50.334172 73306 net.cpp:100] Creating Layer BatchNorm2
I0905 01:04:50.334185 73306 net.cpp:434] BatchNorm2 <- Concat1_Concat1_0_split_0
I0905 01:04:50.334194 73306 net.cpp:408] BatchNorm2 -> BatchNorm2
I0905 01:04:50.334347 73306 net.cpp:150] Setting up BatchNorm2
I0905 01:04:50.334362 73306 net.cpp:157] Top shape: 16 28 64 64 (1835008)
I0905 01:04:50.334369 73306 net.cpp:165] Memory required for data: 65798208
I0905 01:04:50.334381 73306 layer_factory.hpp:77] Creating layer Scale2
I0905 01:04:50.334393 73306 net.cpp:100] Creating Layer Scale2
I0905 01:04:50.334405 73306 net.cpp:434] Scale2 <- BatchNorm2
I0905 01:04:50.334415 73306 net.cpp:395] Scale2 -> BatchNorm2 (in-place)
I0905 01:04:50.334492 73306 net.cpp:150] Setting up Scale2
I0905 01:04:50.334506 73306 net.cpp:157] Top shape: 16 28 64 64 (1835008)
I0905 01:04:50.334513 73306 net.cpp:165] Memory required for data: 73138240
I0905 01:04:50.334522 73306 layer_factory.hpp:77] Creating layer ReLU2
I0905 01:04:50.334532 73306 net.cpp:100] Creating Layer ReLU2
I0905 01:04:50.334540 73306 net.cpp:434] ReLU2 <- BatchNorm2
I0905 01:04:50.334547 73306 net.cpp:395] ReLU2 -> BatchNorm2 (in-place)
I0905 01:04:50.334867 73306 net.cpp:150] Setting up ReLU2
I0905 01:04:50.334885 73306 net.cpp:157] Top shape: 16 28 64 64 (1835008)
I0905 01:04:50.334893 73306 net.cpp:165] Memory required for data: 80478272
I0905 01:04:50.334900 73306 layer_factory.hpp:77] Creating layer Convolution3
I0905 01:04:50.334915 73306 net.cpp:100] Creating Layer Convolution3
I0905 01:04:50.334923 73306 net.cpp:434] Convolution3 <- BatchNorm2
I0905 01:04:50.334934 73306 net.cpp:408] Convolution3 -> Convolution3
I0905 01:04:50.335891 73306 net.cpp:150] Setting up Convolution3
I0905 01:04:50.335911 73306 net.cpp:157] Top shape: 16 12 64 64 (786432)
I0905 01:04:50.335919 73306 net.cpp:165] Memory required for data: 83624000
I0905 01:04:50.335929 73306 layer_factory.hpp:77] Creating layer Dropout3
I0905 01:04:50.335943 73306 net.cpp:100] Creating Layer Dropout3
I0905 01:04:50.335950 73306 net.cpp:434] Dropout3 <- Convolution3
I0905 01:04:50.335959 73306 net.cpp:408] Dropout3 -> Dropout3
I0905 01:04:50.336006 73306 net.cpp:150] Setting up Dropout3
I0905 01:04:50.336021 73306 net.cpp:157] Top shape: 16 12 64 64 (786432)
I0905 01:04:50.336028 73306 net.cpp:165] Memory required for data: 86769728
I0905 01:04:50.336035 73306 layer_factory.hpp:77] Creating layer Concat2
I0905 01:04:50.336051 73306 net.cpp:100] Creating Layer Concat2
I0905 01:04:50.336060 73306 net.cpp:434] Concat2 <- Concat1_Concat1_0_split_1
I0905 01:04:50.336068 73306 net.cpp:434] Concat2 <- Dropout3
I0905 01:04:50.336078 73306 net.cpp:408] Concat2 -> Concat2
I0905 01:04:50.336100 73306 net.cpp:150] Setting up Concat2
I0905 01:04:50.336112 73306 net.cpp:157] Top shape: 16 40 64 64 (2621440)
I0905 01:04:50.336117 73306 net.cpp:165] Memory required for data: 97255488
I0905 01:04:50.336124 73306 layer_factory.hpp:77] Creating layer Concat2_Concat2_0_split
I0905 01:04:50.336135 73306 net.cpp:100] Creating Layer Concat2_Concat2_0_split
I0905 01:04:50.336143 73306 net.cpp:434] Concat2_Concat2_0_split <- Concat2
I0905 01:04:50.336150 73306 net.cpp:408] Concat2_Concat2_0_split -> Concat2_Concat2_0_split_0
I0905 01:04:50.336163 73306 net.cpp:408] Concat2_Concat2_0_split -> Concat2_Concat2_0_split_1
I0905 01:04:50.336195 73306 net.cpp:150] Setting up Concat2_Concat2_0_split
I0905 01:04:50.336206 73306 net.cpp:157] Top shape: 16 40 64 64 (2621440)
I0905 01:04:50.336215 73306 net.cpp:157] Top shape: 16 40 64 64 (2621440)
I0905 01:04:50.336220 73306 net.cpp:165] Memory required for data: 118227008
I0905 01:04:50.336227 73306 layer_factory.hpp:77] Creating layer BatchNorm3
I0905 01:04:50.336236 73306 net.cpp:100] Creating Layer BatchNorm3
I0905 01:04:50.336243 73306 net.cpp:434] BatchNorm3 <- Concat2_Concat2_0_split_0
I0905 01:04:50.336266 73306 net.cpp:408] BatchNorm3 -> BatchNorm3
I0905 01:04:50.336426 73306 net.cpp:150] Setting up BatchNorm3
I0905 01:04:50.336438 73306 net.cpp:157] Top shape: 16 40 64 64 (2621440)
I0905 01:04:50.336448 73306 net.cpp:165] Memory required for data: 128712768
I0905 01:04:50.336463 73306 layer_factory.hpp:77] Creating layer Scale3
I0905 01:04:50.336474 73306 net.cpp:100] Creating Layer Scale3
I0905 01:04:50.336482 73306 net.cpp:434] Scale3 <- BatchNorm3
I0905 01:04:50.336489 73306 net.cpp:395] Scale3 -> BatchNorm3 (in-place)
I0905 01:04:50.336565 73306 net.cpp:150] Setting up Scale3
I0905 01:04:50.336580 73306 net.cpp:157] Top shape: 16 40 64 64 (2621440)
I0905 01:04:50.336590 73306 net.cpp:165] Memory required for data: 139198528
I0905 01:04:50.336597 73306 layer_factory.hpp:77] Creating layer ReLU3
I0905 01:04:50.336611 73306 net.cpp:100] Creating Layer ReLU3
I0905 01:04:50.336617 73306 net.cpp:434] ReLU3 <- BatchNorm3
I0905 01:04:50.336627 73306 net.cpp:395] ReLU3 -> BatchNorm3 (in-place)
I0905 01:04:50.336776 73306 net.cpp:150] Setting up ReLU3
I0905 01:04:50.336791 73306 net.cpp:157] Top shape: 16 40 64 64 (2621440)
I0905 01:04:50.336807 73306 net.cpp:165] Memory required for data: 149684288
I0905 01:04:50.336814 73306 layer_factory.hpp:77] Creating layer Convolution4
I0905 01:04:50.336827 73306 net.cpp:100] Creating Layer Convolution4
I0905 01:04:50.336835 73306 net.cpp:434] Convolution4 <- BatchNorm3
I0905 01:04:50.336846 73306 net.cpp:408] Convolution4 -> Convolution4
I0905 01:04:50.338429 73306 net.cpp:150] Setting up Convolution4
I0905 01:04:50.338451 73306 net.cpp:157] Top shape: 16 12 64 64 (786432)
I0905 01:04:50.338459 73306 net.cpp:165] Memory required for data: 152830016
I0905 01:04:50.338470 73306 layer_factory.hpp:77] Creating layer Dropout4
I0905 01:04:50.338484 73306 net.cpp:100] Creating Layer Dropout4
I0905 01:04:50.338491 73306 net.cpp:434] Dropout4 <- Convolution4
I0905 01:04:50.338501 73306 net.cpp:408] Dropout4 -> Dropout4
I0905 01:04:50.338547 73306 net.cpp:150] Setting up Dropout4
I0905 01:04:50.338558 73306 net.cpp:157] Top shape: 16 12 64 64 (786432)
I0905 01:04:50.338565 73306 net.cpp:165] Memory required for data: 155975744
I0905 01:04:50.338572 73306 layer_factory.hpp:77] Creating layer Concat3
I0905 01:04:50.338585 73306 net.cpp:100] Creating Layer Concat3
I0905 01:04:50.338593 73306 net.cpp:434] Concat3 <- Concat2_Concat2_0_split_1
I0905 01:04:50.338600 73306 net.cpp:434] Concat3 <- Dropout4
I0905 01:04:50.338608 73306 net.cpp:408] Concat3 -> Concat3
I0905 01:04:50.338639 73306 net.cpp:150] Setting up Concat3
I0905 01:04:50.338650 73306 net.cpp:157] Top shape: 16 52 64 64 (3407872)
I0905 01:04:50.338656 73306 net.cpp:165] Memory required for data: 169607232
I0905 01:04:50.338663 73306 layer_factory.hpp:77] Creating layer Concat3_Concat3_0_split
I0905 01:04:50.338671 73306 net.cpp:100] Creating Layer Concat3_Concat3_0_split
I0905 01:04:50.338678 73306 net.cpp:434] Concat3_Concat3_0_split <- Concat3
I0905 01:04:50.338688 73306 net.cpp:408] Concat3_Concat3_0_split -> Concat3_Concat3_0_split_0
I0905 01:04:50.338698 73306 net.cpp:408] Concat3_Concat3_0_split -> Concat3_Concat3_0_split_1
I0905 01:04:50.338739 73306 net.cpp:150] Setting up Concat3_Concat3_0_split
I0905 01:04:50.338752 73306 net.cpp:157] Top shape: 16 52 64 64 (3407872)
I0905 01:04:50.338759 73306 net.cpp:157] Top shape: 16 52 64 64 (3407872)
I0905 01:04:50.338765 73306 net.cpp:165] Memory required for data: 196870208
I0905 01:04:50.338773 73306 layer_factory.hpp:77] Creating layer BatchNorm4
I0905 01:04:50.338780 73306 net.cpp:100] Creating Layer BatchNorm4
I0905 01:04:50.338788 73306 net.cpp:434] BatchNorm4 <- Concat3_Concat3_0_split_0
I0905 01:04:50.338800 73306 net.cpp:408] BatchNorm4 -> BatchNorm4
I0905 01:04:50.338968 73306 net.cpp:150] Setting up BatchNorm4
I0905 01:04:50.338980 73306 net.cpp:157] Top shape: 16 52 64 64 (3407872)
I0905 01:04:50.338987 73306 net.cpp:165] Memory required for data: 210501696
I0905 01:04:50.338999 73306 layer_factory.hpp:77] Creating layer Scale4
I0905 01:04:50.339023 73306 net.cpp:100] Creating Layer Scale4
I0905 01:04:50.339032 73306 net.cpp:434] Scale4 <- BatchNorm4
I0905 01:04:50.339041 73306 net.cpp:395] Scale4 -> BatchNorm4 (in-place)
I0905 01:04:50.339123 73306 net.cpp:150] Setting up Scale4
I0905 01:04:50.339138 73306 net.cpp:157] Top shape: 16 52 64 64 (3407872)
I0905 01:04:50.339148 73306 net.cpp:165] Memory required for data: 224133184
I0905 01:04:50.339156 73306 layer_factory.hpp:77] Creating layer ReLU4
I0905 01:04:50.339169 73306 net.cpp:100] Creating Layer ReLU4
I0905 01:04:50.339175 73306 net.cpp:434] ReLU4 <- BatchNorm4
I0905 01:04:50.339182 73306 net.cpp:395] ReLU4 -> BatchNorm4 (in-place)
I0905 01:04:50.339334 73306 net.cpp:150] Setting up ReLU4
I0905 01:04:50.339350 73306 net.cpp:157] Top shape: 16 52 64 64 (3407872)
I0905 01:04:50.339365 73306 net.cpp:165] Memory required for data: 237764672
I0905 01:04:50.339373 73306 layer_factory.hpp:77] Creating layer Convolution5
I0905 01:04:50.339387 73306 net.cpp:100] Creating Layer Convolution5
I0905 01:04:50.339396 73306 net.cpp:434] Convolution5 <- BatchNorm4
I0905 01:04:50.339406 73306 net.cpp:408] Convolution5 -> Convolution5
I0905 01:04:50.340435 73306 net.cpp:150] Setting up Convolution5
I0905 01:04:50.340456 73306 net.cpp:157] Top shape: 16 12 64 64 (786432)
I0905 01:04:50.340464 73306 net.cpp:165] Memory required for data: 240910400
I0905 01:04:50.340474 73306 layer_factory.hpp:77] Creating layer Dropout5
I0905 01:04:50.340486 73306 net.cpp:100] Creating Layer Dropout5
I0905 01:04:50.340492 73306 net.cpp:434] Dropout5 <- Convolution5
I0905 01:04:50.340503 73306 net.cpp:408] Dropout5 -> Dropout5
I0905 01:04:50.340553 73306 net.cpp:150] Setting up Dropout5
I0905 01:04:50.340564 73306 net.cpp:157] Top shape: 16 12 64 64 (786432)
I0905 01:04:50.340570 73306 net.cpp:165] Memory required for data: 244056128
I0905 01:04:50.340576 73306 layer_factory.hpp:77] Creating layer Concat4
I0905 01:04:50.340590 73306 net.cpp:100] Creating Layer Concat4
I0905 01:04:50.340596 73306 net.cpp:434] Concat4 <- Concat3_Concat3_0_split_1
I0905 01:04:50.340605 73306 net.cpp:434] Concat4 <- Dropout5
I0905 01:04:50.340612 73306 net.cpp:408] Concat4 -> Concat4
I0905 01:04:50.340638 73306 net.cpp:150] Setting up Concat4
I0905 01:04:50.340649 73306 net.cpp:157] Top shape: 16 64 64 64 (4194304)
I0905 01:04:50.340656 73306 net.cpp:165] Memory required for data: 260833344
I0905 01:04:50.340662 73306 layer_factory.hpp:77] Creating layer Concat4_Concat4_0_split
I0905 01:04:50.340670 73306 net.cpp:100] Creating Layer Concat4_Concat4_0_split
I0905 01:04:50.340677 73306 net.cpp:434] Concat4_Concat4_0_split <- Concat4
I0905 01:04:50.340687 73306 net.cpp:408] Concat4_Concat4_0_split -> Concat4_Concat4_0_split_0
I0905 01:04:50.340700 73306 net.cpp:408] Concat4_Concat4_0_split -> Concat4_Concat4_0_split_1
I0905 01:04:50.340736 73306 net.cpp:150] Setting up Concat4_Concat4_0_split
I0905 01:04:50.340747 73306 net.cpp:157] Top shape: 16 64 64 64 (4194304)
I0905 01:04:50.340754 73306 net.cpp:157] Top shape: 16 64 64 64 (4194304)
I0905 01:04:50.340760 73306 net.cpp:165] Memory required for data: 294387776
I0905 01:04:50.340767 73306 layer_factory.hpp:77] Creating layer BatchNorm5
I0905 01:04:50.340781 73306 net.cpp:100] Creating Layer BatchNorm5
I0905 01:04:50.340790 73306 net.cpp:434] BatchNorm5 <- Concat4_Concat4_0_split_0
I0905 01:04:50.340797 73306 net.cpp:408] BatchNorm5 -> BatchNorm5
I0905 01:04:50.340961 73306 net.cpp:150] Setting up BatchNorm5
I0905 01:04:50.340973 73306 net.cpp:157] Top shape: 16 64 64 64 (4194304)
I0905 01:04:50.340981 73306 net.cpp:165] Memory required for data: 311164992
I0905 01:04:50.340991 73306 layer_factory.hpp:77] Creating layer Scale5
I0905 01:04:50.341006 73306 net.cpp:100] Creating Layer Scale5
I0905 01:04:50.341014 73306 net.cpp:434] Scale5 <- BatchNorm5
I0905 01:04:50.341023 73306 net.cpp:395] Scale5 -> BatchNorm5 (in-place)
I0905 01:04:50.341101 73306 net.cpp:150] Setting up Scale5
I0905 01:04:50.341112 73306 net.cpp:157] Top shape: 16 64 64 64 (4194304)
I0905 01:04:50.341120 73306 net.cpp:165] Memory required for data: 327942208
I0905 01:04:50.341145 73306 layer_factory.hpp:77] Creating layer ReLU5
I0905 01:04:50.341156 73306 net.cpp:100] Creating Layer ReLU5
I0905 01:04:50.341163 73306 net.cpp:434] ReLU5 <- BatchNorm5
I0905 01:04:50.341172 73306 net.cpp:395] ReLU5 -> BatchNorm5 (in-place)
I0905 01:04:50.341449 73306 net.cpp:150] Setting up ReLU5
I0905 01:04:50.341467 73306 net.cpp:157] Top shape: 16 64 64 64 (4194304)
I0905 01:04:50.341475 73306 net.cpp:165] Memory required for data: 344719424
I0905 01:04:50.341482 73306 layer_factory.hpp:77] Creating layer Convolution6
I0905 01:04:50.341497 73306 net.cpp:100] Creating Layer Convolution6
I0905 01:04:50.341505 73306 net.cpp:434] Convolution6 <- BatchNorm5
I0905 01:04:50.341516 73306 net.cpp:408] Convolution6 -> Convolution6
I0905 01:04:50.342600 73306 net.cpp:150] Setting up Convolution6
I0905 01:04:50.342620 73306 net.cpp:157] Top shape: 16 12 64 64 (786432)
I0905 01:04:50.342633 73306 net.cpp:165] Memory required for data: 347865152
I0905 01:04:50.342660 73306 layer_factory.hpp:77] Creating layer Dropout6
I0905 01:04:50.342675 73306 net.cpp:100] Creating Layer Dropout6
I0905 01:04:50.342684 73306 net.cpp:434] Dropout6 <- Convolution6
I0905 01:04:50.342700 73306 net.cpp:408] Dropout6 -> Dropout6
I0905 01:04:50.342756 73306 net.cpp:150] Setting up Dropout6
I0905 01:04:50.342772 73306 net.cpp:157] Top shape: 16 12 64 64 (786432)
I0905 01:04:50.342782 73306 net.cpp:165] Memory required for data: 351010880
I0905 01:04:50.342790 73306 layer_factory.hpp:77] Creating layer Concat5
I0905 01:04:50.342803 73306 net.cpp:100] Creating Layer Concat5
I0905 01:04:50.342810 73306 net.cpp:434] Concat5 <- Concat4_Concat4_0_split_1
I0905 01:04:50.342818 73306 net.cpp:434] Concat5 <- Dropout6
I0905 01:04:50.342828 73306 net.cpp:408] Concat5 -> Concat5
I0905 01:04:50.342855 73306 net.cpp:150] Setting up Concat5
I0905 01:04:50.342871 73306 net.cpp:157] Top shape: 16 76 64 64 (4980736)
I0905 01:04:50.342878 73306 net.cpp:165] Memory required for data: 370933824
I0905 01:04:50.342885 73306 layer_factory.hpp:77] Creating layer Concat5_Concat5_0_split
I0905 01:04:50.342895 73306 net.cpp:100] Creating Layer Concat5_Concat5_0_split
I0905 01:04:50.342902 73306 net.cpp:434] Concat5_Concat5_0_split <- Concat5
I0905 01:04:50.342912 73306 net.cpp:408] Concat5_Concat5_0_split -> Concat5_Concat5_0_split_0
I0905 01:04:50.342923 73306 net.cpp:408] Concat5_Concat5_0_split -> Concat5_Concat5_0_split_1
I0905 01:04:50.342957 73306 net.cpp:150] Setting up Concat5_Concat5_0_split
I0905 01:04:50.342967 73306 net.cpp:157] Top shape: 16 76 64 64 (4980736)
I0905 01:04:50.342974 73306 net.cpp:157] Top shape: 16 76 64 64 (4980736)
I0905 01:04:50.342980 73306 net.cpp:165] Memory required for data: 410779712
I0905 01:04:50.342986 73306 layer_factory.hpp:77] Creating layer BatchNorm6
I0905 01:04:50.343004 73306 net.cpp:100] Creating Layer BatchNorm6
I0905 01:04:50.343011 73306 net.cpp:434] BatchNorm6 <- Concat5_Concat5_0_split_0
I0905 01:04:50.343019 73306 net.cpp:408] BatchNorm6 -> BatchNorm6
I0905 01:04:50.343184 73306 net.cpp:150] Setting up BatchNorm6
I0905 01:04:50.343204 73306 net.cpp:157] Top shape: 16 76 64 64 (4980736)
I0905 01:04:50.343211 73306 net.cpp:165] Memory required for data: 430702656
I0905 01:04:50.343230 73306 layer_factory.hpp:77] Creating layer Scale6
I0905 01:04:50.343242 73306 net.cpp:100] Creating Layer Scale6
I0905 01:04:50.343251 73306 net.cpp:434] Scale6 <- BatchNorm6
I0905 01:04:50.343261 73306 net.cpp:395] Scale6 -> BatchNorm6 (in-place)
I0905 01:04:50.343348 73306 net.cpp:150] Setting up Scale6
I0905 01:04:50.343364 73306 net.cpp:157] Top shape: 16 76 64 64 (4980736)
I0905 01:04:50.343374 73306 net.cpp:165] Memory required for data: 450625600
I0905 01:04:50.343382 73306 layer_factory.hpp:77] Creating layer ReLU6
I0905 01:04:50.343392 73306 net.cpp:100] Creating Layer ReLU6
I0905 01:04:50.343400 73306 net.cpp:434] ReLU6 <- BatchNorm6
I0905 01:04:50.343410 73306 net.cpp:395] ReLU6 -> BatchNorm6 (in-place)
I0905 01:04:50.343562 73306 net.cpp:150] Setting up ReLU6
I0905 01:04:50.343578 73306 net.cpp:157] Top shape: 16 76 64 64 (4980736)
I0905 01:04:50.343598 73306 net.cpp:165] Memory required for data: 470548544
I0905 01:04:50.343606 73306 layer_factory.hpp:77] Creating layer Convolution7
I0905 01:04:50.343622 73306 net.cpp:100] Creating Layer Convolution7
I0905 01:04:50.343631 73306 net.cpp:434] Convolution7 <- BatchNorm6
I0905 01:04:50.343641 73306 net.cpp:408] Convolution7 -> Convolution7
I0905 01:04:50.344743 73306 net.cpp:150] Setting up Convolution7
I0905 01:04:50.344763 73306 net.cpp:157] Top shape: 16 12 64 64 (786432)
I0905 01:04:50.344770 73306 net.cpp:165] Memory required for data: 473694272
I0905 01:04:50.344780 73306 layer_factory.hpp:77] Creating layer Dropout7
I0905 01:04:50.344794 73306 net.cpp:100] Creating Layer Dropout7
I0905 01:04:50.344801 73306 net.cpp:434] Dropout7 <- Convolution7
I0905 01:04:50.344810 73306 net.cpp:408] Dropout7 -> Dropout7
I0905 01:04:50.344852 73306 net.cpp:150] Setting up Dropout7
I0905 01:04:50.344863 73306 net.cpp:157] Top shape: 16 12 64 64 (786432)
I0905 01:04:50.344871 73306 net.cpp:165] Memory required for data: 476840000
I0905 01:04:50.344882 73306 layer_factory.hpp:77] Creating layer Concat6
I0905 01:04:50.344892 73306 net.cpp:100] Creating Layer Concat6
I0905 01:04:50.344898 73306 net.cpp:434] Concat6 <- Concat5_Concat5_0_split_1
I0905 01:04:50.344907 73306 net.cpp:434] Concat6 <- Dropout7
I0905 01:04:50.344918 73306 net.cpp:408] Concat6 -> Concat6
I0905 01:04:50.344941 73306 net.cpp:150] Setting up Concat6
I0905 01:04:50.344951 73306 net.cpp:157] Top shape: 16 88 64 64 (5767168)
I0905 01:04:50.344957 73306 net.cpp:165] Memory required for data: 499908672
I0905 01:04:50.344964 73306 layer_factory.hpp:77] Creating layer Concat6_Concat6_0_split
I0905 01:04:50.344974 73306 net.cpp:100] Creating Layer Concat6_Concat6_0_split
I0905 01:04:50.344982 73306 net.cpp:434] Concat6_Concat6_0_split <- Concat6
I0905 01:04:50.344993 73306 net.cpp:408] Concat6_Concat6_0_split -> Concat6_Concat6_0_split_0
I0905 01:04:50.345010 73306 net.cpp:408] Concat6_Concat6_0_split -> Concat6_Concat6_0_split_1
I0905 01:04:50.345042 73306 net.cpp:150] Setting up Concat6_Concat6_0_split
I0905 01:04:50.345052 73306 net.cpp:157] Top shape: 16 88 64 64 (5767168)
I0905 01:04:50.345060 73306 net.cpp:157] Top shape: 16 88 64 64 (5767168)
I0905 01:04:50.345067 73306 net.cpp:165] Memory required for data: 546046016
I0905 01:04:50.345072 73306 layer_factory.hpp:77] Creating layer BatchNorm7
I0905 01:04:50.345084 73306 net.cpp:100] Creating Layer BatchNorm7
I0905 01:04:50.345098 73306 net.cpp:434] BatchNorm7 <- Concat6_Concat6_0_split_0
I0905 01:04:50.345108 73306 net.cpp:408] BatchNorm7 -> BatchNorm7
I0905 01:04:50.345276 73306 net.cpp:150] Setting up BatchNorm7
I0905 01:04:50.345288 73306 net.cpp:157] Top shape: 16 88 64 64 (5767168)
I0905 01:04:50.345296 73306 net.cpp:165] Memory required for data: 569114688
I0905 01:04:50.345306 73306 layer_factory.hpp:77] Creating layer Scale7
I0905 01:04:50.345319 73306 net.cpp:100] Creating Layer Scale7
I0905 01:04:50.345327 73306 net.cpp:434] Scale7 <- BatchNorm7
I0905 01:04:50.345335 73306 net.cpp:395] Scale7 -> BatchNorm7 (in-place)
I0905 01:04:50.345414 73306 net.cpp:150] Setting up Scale7
I0905 01:04:50.345427 73306 net.cpp:157] Top shape: 16 88 64 64 (5767168)
I0905 01:04:50.345437 73306 net.cpp:165] Memory required for data: 592183360
I0905 01:04:50.345445 73306 layer_factory.hpp:77] Creating layer ReLU7
I0905 01:04:50.345456 73306 net.cpp:100] Creating Layer ReLU7
I0905 01:04:50.345463 73306 net.cpp:434] ReLU7 <- BatchNorm7
I0905 01:04:50.345474 73306 net.cpp:395] ReLU7 -> BatchNorm7 (in-place)
I0905 01:04:50.345625 73306 net.cpp:150] Setting up ReLU7
I0905 01:04:50.345643 73306 net.cpp:157] Top shape: 16 88 64 64 (5767168)
I0905 01:04:50.345649 73306 net.cpp:165] Memory required for data: 615252032
I0905 01:04:50.345656 73306 layer_factory.hpp:77] Creating layer Convolution8
I0905 01:04:50.345670 73306 net.cpp:100] Creating Layer Convolution8
I0905 01:04:50.345679 73306 net.cpp:434] Convolution8 <- BatchNorm7
I0905 01:04:50.345687 73306 net.cpp:408] Convolution8 -> Convolution8
I0905 01:04:50.347028 73306 net.cpp:150] Setting up Convolution8
I0905 01:04:50.347048 73306 net.cpp:157] Top shape: 16 12 64 64 (786432)
I0905 01:04:50.347055 73306 net.cpp:165] Memory required for data: 618397760
I0905 01:04:50.347066 73306 layer_factory.hpp:77] Creating layer Dropout8
I0905 01:04:50.347079 73306 net.cpp:100] Creating Layer Dropout8
I0905 01:04:50.347086 73306 net.cpp:434] Dropout8 <- Convolution8
I0905 01:04:50.347095 73306 net.cpp:408] Dropout8 -> Dropout8
I0905 01:04:50.347138 73306 net.cpp:150] Setting up Dropout8
I0905 01:04:50.347151 73306 net.cpp:157] Top shape: 16 12 64 64 (786432)
I0905 01:04:50.347157 73306 net.cpp:165] Memory required for data: 621543488
I0905 01:04:50.347163 73306 layer_factory.hpp:77] Creating layer Concat7
I0905 01:04:50.347174 73306 net.cpp:100] Creating Layer Concat7
I0905 01:04:50.347182 73306 net.cpp:434] Concat7 <- Concat6_Concat6_0_split_1
I0905 01:04:50.347189 73306 net.cpp:434] Concat7 <- Dropout8
I0905 01:04:50.347199 73306 net.cpp:408] Concat7 -> Concat7
I0905 01:04:50.347223 73306 net.cpp:150] Setting up Concat7
I0905 01:04:50.347234 73306 net.cpp:157] Top shape: 16 100 64 64 (6553600)
I0905 01:04:50.347240 73306 net.cpp:165] Memory required for data: 647757888
I0905 01:04:50.347249 73306 layer_factory.hpp:77] Creating layer Concat7_Concat7_0_split
I0905 01:04:50.347259 73306 net.cpp:100] Creating Layer Concat7_Concat7_0_split
I0905 01:04:50.347265 73306 net.cpp:434] Concat7_Concat7_0_split <- Concat7
I0905 01:04:50.347275 73306 net.cpp:408] Concat7_Concat7_0_split -> Concat7_Concat7_0_split_0
I0905 01:04:50.347285 73306 net.cpp:408] Concat7_Concat7_0_split -> Concat7_Concat7_0_split_1
I0905 01:04:50.347321 73306 net.cpp:150] Setting up Concat7_Concat7_0_split
I0905 01:04:50.347329 73306 net.cpp:157] Top shape: 16 100 64 64 (6553600)
I0905 01:04:50.347337 73306 net.cpp:157] Top shape: 16 100 64 64 (6553600)
I0905 01:04:50.347343 73306 net.cpp:165] Memory required for data: 700186688
I0905 01:04:50.347350 73306 layer_factory.hpp:77] Creating layer BatchNorm8
I0905 01:04:50.347360 73306 net.cpp:100] Creating Layer BatchNorm8
I0905 01:04:50.347368 73306 net.cpp:434] BatchNorm8 <- Concat7_Concat7_0_split_0
I0905 01:04:50.347375 73306 net.cpp:408] BatchNorm8 -> BatchNorm8
I0905 01:04:50.347538 73306 net.cpp:150] Setting up BatchNorm8
I0905 01:04:50.347551 73306 net.cpp:157] Top shape: 16 100 64 64 (6553600)
I0905 01:04:50.347563 73306 net.cpp:165] Memory required for data: 726401088
I0905 01:04:50.347573 73306 layer_factory.hpp:77] Creating layer Scale8
I0905 01:04:50.347585 73306 net.cpp:100] Creating Layer Scale8
I0905 01:04:50.347594 73306 net.cpp:434] Scale8 <- BatchNorm8
I0905 01:04:50.347602 73306 net.cpp:395] Scale8 -> BatchNorm8 (in-place)
I0905 01:04:50.347688 73306 net.cpp:150] Setting up Scale8
I0905 01:04:50.347708 73306 net.cpp:157] Top shape: 16 100 64 64 (6553600)
I0905 01:04:50.347718 73306 net.cpp:165] Memory required for data: 752615488
I0905 01:04:50.347726 73306 layer_factory.hpp:77] Creating layer ReLU8
I0905 01:04:50.347739 73306 net.cpp:100] Creating Layer ReLU8
I0905 01:04:50.347746 73306 net.cpp:434] ReLU8 <- BatchNorm8
I0905 01:04:50.347756 73306 net.cpp:395] ReLU8 -> BatchNorm8 (in-place)
I0905 01:04:50.348047 73306 net.cpp:150] Setting up ReLU8
I0905 01:04:50.348065 73306 net.cpp:157] Top shape: 16 100 64 64 (6553600)
I0905 01:04:50.348073 73306 net.cpp:165] Memory required for data: 778829888
I0905 01:04:50.348081 73306 layer_factory.hpp:77] Creating layer Convolution9
I0905 01:04:50.348096 73306 net.cpp:100] Creating Layer Convolution9
I0905 01:04:50.348104 73306 net.cpp:434] Convolution9 <- BatchNorm8
I0905 01:04:50.348115 73306 net.cpp:408] Convolution9 -> Convolution9
I0905 01:04:50.349344 73306 net.cpp:150] Setting up Convolution9
I0905 01:04:50.349364 73306 net.cpp:157] Top shape: 16 12 64 64 (786432)
I0905 01:04:50.349371 73306 net.cpp:165] Memory required for data: 781975616
I0905 01:04:50.349382 73306 layer_factory.hpp:77] Creating layer Dropout9
I0905 01:04:50.349392 73306 net.cpp:100] Creating Layer Dropout9
I0905 01:04:50.349412 73306 net.cpp:434] Dropout9 <- Convolution9
I0905 01:04:50.349432 73306 net.cpp:408] Dropout9 -> Dropout9
I0905 01:04:50.349473 73306 net.cpp:150] Setting up Dropout9
I0905 01:04:50.349484 73306 net.cpp:157] Top shape: 16 12 64 64 (786432)
I0905 01:04:50.349493 73306 net.cpp:165] Memory required for data: 785121344
I0905 01:04:50.349499 73306 layer_factory.hpp:77] Creating layer Concat8
I0905 01:04:50.349511 73306 net.cpp:100] Creating Layer Concat8
I0905 01:04:50.349519 73306 net.cpp:434] Concat8 <- Concat7_Concat7_0_split_1
I0905 01:04:50.349527 73306 net.cpp:434] Concat8 <- Dropout9
I0905 01:04:50.349535 73306 net.cpp:408] Concat8 -> Concat8
I0905 01:04:50.349561 73306 net.cpp:150] Setting up Concat8
I0905 01:04:50.349572 73306 net.cpp:157] Top shape: 16 112 64 64 (7340032)
I0905 01:04:50.349582 73306 net.cpp:165] Memory required for data: 814481472
I0905 01:04:50.349589 73306 layer_factory.hpp:77] Creating layer Concat8_Concat8_0_split
I0905 01:04:50.349597 73306 net.cpp:100] Creating Layer Concat8_Concat8_0_split
I0905 01:04:50.349604 73306 net.cpp:434] Concat8_Concat8_0_split <- Concat8
I0905 01:04:50.349614 73306 net.cpp:408] Concat8_Concat8_0_split -> Concat8_Concat8_0_split_0
I0905 01:04:50.349632 73306 net.cpp:408] Concat8_Concat8_0_split -> Concat8_Concat8_0_split_1
I0905 01:04:50.349665 73306 net.cpp:150] Setting up Concat8_Concat8_0_split
I0905 01:04:50.349676 73306 net.cpp:157] Top shape: 16 112 64 64 (7340032)
I0905 01:04:50.349684 73306 net.cpp:157] Top shape: 16 112 64 64 (7340032)
I0905 01:04:50.349690 73306 net.cpp:165] Memory required for data: 873201728
I0905 01:04:50.349697 73306 layer_factory.hpp:77] Creating layer BatchNorm9
I0905 01:04:50.349714 73306 net.cpp:100] Creating Layer BatchNorm9
I0905 01:04:50.349721 73306 net.cpp:434] BatchNorm9 <- Concat8_Concat8_0_split_0
I0905 01:04:50.349740 73306 net.cpp:408] BatchNorm9 -> BatchNorm9
I0905 01:04:50.349912 73306 net.cpp:150] Setting up BatchNorm9
I0905 01:04:50.349925 73306 net.cpp:157] Top shape: 16 112 64 64 (7340032)
I0905 01:04:50.349932 73306 net.cpp:165] Memory required for data: 902561856
I0905 01:04:50.349942 73306 layer_factory.hpp:77] Creating layer Scale9
I0905 01:04:50.349953 73306 net.cpp:100] Creating Layer Scale9
I0905 01:04:50.349961 73306 net.cpp:434] Scale9 <- BatchNorm9
I0905 01:04:50.349970 73306 net.cpp:395] Scale9 -> BatchNorm9 (in-place)
I0905 01:04:50.350054 73306 net.cpp:150] Setting up Scale9
I0905 01:04:50.350066 73306 net.cpp:157] Top shape: 16 112 64 64 (7340032)
I0905 01:04:50.350075 73306 net.cpp:165] Memory required for data: 931921984
I0905 01:04:50.350083 73306 layer_factory.hpp:77] Creating layer ReLU9
I0905 01:04:50.350095 73306 net.cpp:100] Creating Layer ReLU9
I0905 01:04:50.350101 73306 net.cpp:434] ReLU9 <- BatchNorm9
I0905 01:04:50.350111 73306 net.cpp:395] ReLU9 -> BatchNorm9 (in-place)
I0905 01:04:50.350273 73306 net.cpp:150] Setting up ReLU9
I0905 01:04:50.350288 73306 net.cpp:157] Top shape: 16 112 64 64 (7340032)
I0905 01:04:50.350296 73306 net.cpp:165] Memory required for data: 961282112
I0905 01:04:50.350303 73306 layer_factory.hpp:77] Creating layer Convolution10
I0905 01:04:50.350320 73306 net.cpp:100] Creating Layer Convolution10
I0905 01:04:50.350327 73306 net.cpp:434] Convolution10 <- BatchNorm9
I0905 01:04:50.350339 73306 net.cpp:408] Convolution10 -> Convolution10
I0905 01:04:50.351600 73306 net.cpp:150] Setting up Convolution10
I0905 01:04:50.351620 73306 net.cpp:157] Top shape: 16 12 64 64 (786432)
I0905 01:04:50.351629 73306 net.cpp:165] Memory required for data: 964427840
I0905 01:04:50.351639 73306 layer_factory.hpp:77] Creating layer Dropout10
I0905 01:04:50.351657 73306 net.cpp:100] Creating Layer Dropout10
I0905 01:04:50.351666 73306 net.cpp:434] Dropout10 <- Convolution10
I0905 01:04:50.351675 73306 net.cpp:408] Dropout10 -> Dropout10
I0905 01:04:50.351717 73306 net.cpp:150] Setting up Dropout10
I0905 01:04:50.351729 73306 net.cpp:157] Top shape: 16 12 64 64 (786432)
I0905 01:04:50.351735 73306 net.cpp:165] Memory required for data: 967573568
I0905 01:04:50.351747 73306 layer_factory.hpp:77] Creating layer Concat9
I0905 01:04:50.351770 73306 net.cpp:100] Creating Layer Concat9
I0905 01:04:50.351779 73306 net.cpp:434] Concat9 <- Concat8_Concat8_0_split_1
I0905 01:04:50.351788 73306 net.cpp:434] Concat9 <- Dropout10
I0905 01:04:50.351799 73306 net.cpp:408] Concat9 -> Concat9
I0905 01:04:50.351824 73306 net.cpp:150] Setting up Concat9
I0905 01:04:50.351835 73306 net.cpp:157] Top shape: 16 124 64 64 (8126464)
I0905 01:04:50.351841 73306 net.cpp:165] Memory required for data: 1000079424
I0905 01:04:50.351853 73306 layer_factory.hpp:77] Creating layer Concat9_Concat9_0_split
I0905 01:04:50.351861 73306 net.cpp:100] Creating Layer Concat9_Concat9_0_split
I0905 01:04:50.351868 73306 net.cpp:434] Concat9_Concat9_0_split <- Concat9
I0905 01:04:50.351891 73306 net.cpp:408] Concat9_Concat9_0_split -> Concat9_Concat9_0_split_0
I0905 01:04:50.351902 73306 net.cpp:408] Concat9_Concat9_0_split -> Concat9_Concat9_0_split_1
I0905 01:04:50.351938 73306 net.cpp:150] Setting up Concat9_Concat9_0_split
I0905 01:04:50.351948 73306 net.cpp:157] Top shape: 16 124 64 64 (8126464)
I0905 01:04:50.351955 73306 net.cpp:157] Top shape: 16 124 64 64 (8126464)
I0905 01:04:50.351961 73306 net.cpp:165] Memory required for data: 1065091136
I0905 01:04:50.351974 73306 layer_factory.hpp:77] Creating layer BatchNorm10
I0905 01:04:50.351984 73306 net.cpp:100] Creating Layer BatchNorm10
I0905 01:04:50.351997 73306 net.cpp:434] BatchNorm10 <- Concat9_Concat9_0_split_0
I0905 01:04:50.352010 73306 net.cpp:408] BatchNorm10 -> BatchNorm10
I0905 01:04:50.352174 73306 net.cpp:150] Setting up BatchNorm10
I0905 01:04:50.352185 73306 net.cpp:157] Top shape: 16 124 64 64 (8126464)
I0905 01:04:50.352192 73306 net.cpp:165] Memory required for data: 1097596992
I0905 01:04:50.352203 73306 layer_factory.hpp:77] Creating layer Scale10
I0905 01:04:50.352217 73306 net.cpp:100] Creating Layer Scale10
I0905 01:04:50.352226 73306 net.cpp:434] Scale10 <- BatchNorm10
I0905 01:04:50.352236 73306 net.cpp:395] Scale10 -> BatchNorm10 (in-place)
I0905 01:04:50.352320 73306 net.cpp:150] Setting up Scale10
I0905 01:04:50.352334 73306 net.cpp:157] Top shape: 16 124 64 64 (8126464)
I0905 01:04:50.352344 73306 net.cpp:165] Memory required for data: 1130102848
I0905 01:04:50.352352 73306 layer_factory.hpp:77] Creating layer ReLU10
I0905 01:04:50.352365 73306 net.cpp:100] Creating Layer ReLU10
I0905 01:04:50.352372 73306 net.cpp:434] ReLU10 <- BatchNorm10
I0905 01:04:50.352380 73306 net.cpp:395] ReLU10 -> BatchNorm10 (in-place)
I0905 01:04:50.352530 73306 net.cpp:150] Setting up ReLU10
I0905 01:04:50.352545 73306 net.cpp:157] Top shape: 16 124 64 64 (8126464)
I0905 01:04:50.352552 73306 net.cpp:165] Memory required for data: 1162608704
I0905 01:04:50.352560 73306 layer_factory.hpp:77] Creating layer Convolution11
I0905 01:04:50.352579 73306 net.cpp:100] Creating Layer Convolution11
I0905 01:04:50.352587 73306 net.cpp:434] Convolution11 <- BatchNorm10
I0905 01:04:50.352598 73306 net.cpp:408] Convolution11 -> Convolution11
I0905 01:04:50.353852 73306 net.cpp:150] Setting up Convolution11
I0905 01:04:50.353874 73306 net.cpp:157] Top shape: 16 12 64 64 (786432)
I0905 01:04:50.353883 73306 net.cpp:165] Memory required for data: 1165754432
I0905 01:04:50.353893 73306 layer_factory.hpp:77] Creating layer Dropout11
I0905 01:04:50.353904 73306 net.cpp:100] Creating Layer Dropout11
I0905 01:04:50.353911 73306 net.cpp:434] Dropout11 <- Convolution11
I0905 01:04:50.353920 73306 net.cpp:408] Dropout11 -> Dropout11
I0905 01:04:50.353965 73306 net.cpp:150] Setting up Dropout11
I0905 01:04:50.353976 73306 net.cpp:157] Top shape: 16 12 64 64 (786432)
I0905 01:04:50.353982 73306 net.cpp:165] Memory required for data: 1168900160
I0905 01:04:50.353989 73306 layer_factory.hpp:77] Creating layer Concat10
I0905 01:04:50.354006 73306 net.cpp:100] Creating Layer Concat10
I0905 01:04:50.354012 73306 net.cpp:434] Concat10 <- Concat9_Concat9_0_split_1
I0905 01:04:50.354020 73306 net.cpp:434] Concat10 <- Dropout11
I0905 01:04:50.354030 73306 net.cpp:408] Concat10 -> Concat10
I0905 01:04:50.354073 73306 net.cpp:150] Setting up Concat10
I0905 01:04:50.354084 73306 net.cpp:157] Top shape: 16 136 64 64 (8912896)
I0905 01:04:50.354091 73306 net.cpp:165] Memory required for data: 1204551744
I0905 01:04:50.354099 73306 layer_factory.hpp:77] Creating layer Concat10_Concat10_0_split
I0905 01:04:50.354107 73306 net.cpp:100] Creating Layer Concat10_Concat10_0_split
I0905 01:04:50.354115 73306 net.cpp:434] Concat10_Concat10_0_split <- Concat10
I0905 01:04:50.354122 73306 net.cpp:408] Concat10_Concat10_0_split -> Concat10_Concat10_0_split_0
I0905 01:04:50.354137 73306 net.cpp:408] Concat10_Concat10_0_split -> Concat10_Concat10_0_split_1
I0905 01:04:50.354176 73306 net.cpp:150] Setting up Concat10_Concat10_0_split
I0905 01:04:50.354187 73306 net.cpp:157] Top shape: 16 136 64 64 (8912896)
I0905 01:04:50.354193 73306 net.cpp:157] Top shape: 16 136 64 64 (8912896)
I0905 01:04:50.354199 73306 net.cpp:165] Memory required for data: 1275854912
I0905 01:04:50.354207 73306 layer_factory.hpp:77] Creating layer BatchNorm11
I0905 01:04:50.354218 73306 net.cpp:100] Creating Layer BatchNorm11
I0905 01:04:50.354224 73306 net.cpp:434] BatchNorm11 <- Concat10_Concat10_0_split_0
I0905 01:04:50.354233 73306 net.cpp:408] BatchNorm11 -> BatchNorm11
I0905 01:04:50.354400 73306 net.cpp:150] Setting up BatchNorm11
I0905 01:04:50.354413 73306 net.cpp:157] Top shape: 16 136 64 64 (8912896)
I0905 01:04:50.354420 73306 net.cpp:165] Memory required for data: 1311506496
I0905 01:04:50.354440 73306 layer_factory.hpp:77] Creating layer Scale11
I0905 01:04:50.354454 73306 net.cpp:100] Creating Layer Scale11
I0905 01:04:50.354461 73306 net.cpp:434] Scale11 <- BatchNorm11
I0905 01:04:50.354473 73306 net.cpp:395] Scale11 -> BatchNorm11 (in-place)
I0905 01:04:50.354558 73306 net.cpp:150] Setting up Scale11
I0905 01:04:50.354571 73306 net.cpp:157] Top shape: 16 136 64 64 (8912896)
I0905 01:04:50.354580 73306 net.cpp:165] Memory required for data: 1347158080
I0905 01:04:50.354588 73306 layer_factory.hpp:77] Creating layer ReLU11
I0905 01:04:50.354599 73306 net.cpp:100] Creating Layer ReLU11
I0905 01:04:50.354606 73306 net.cpp:434] ReLU11 <- BatchNorm11
I0905 01:04:50.354614 73306 net.cpp:395] ReLU11 -> BatchNorm11 (in-place)
I0905 01:04:50.354900 73306 net.cpp:150] Setting up ReLU11
I0905 01:04:50.354918 73306 net.cpp:157] Top shape: 16 136 64 64 (8912896)
I0905 01:04:50.354926 73306 net.cpp:165] Memory required for data: 1382809664
I0905 01:04:50.354934 73306 layer_factory.hpp:77] Creating layer Convolution12
I0905 01:04:50.354954 73306 net.cpp:100] Creating Layer Convolution12
I0905 01:04:50.354961 73306 net.cpp:434] Convolution12 <- BatchNorm11
I0905 01:04:50.354974 73306 net.cpp:408] Convolution12 -> Convolution12
I0905 01:04:50.356277 73306 net.cpp:150] Setting up Convolution12
I0905 01:04:50.356297 73306 net.cpp:157] Top shape: 16 12 64 64 (786432)
I0905 01:04:50.356305 73306 net.cpp:165] Memory required for data: 1385955392
I0905 01:04:50.356317 73306 layer_factory.hpp:77] Creating layer Dropout12
I0905 01:04:50.356326 73306 net.cpp:100] Creating Layer Dropout12
I0905 01:04:50.356333 73306 net.cpp:434] Dropout12 <- Convolution12
I0905 01:04:50.356343 73306 net.cpp:408] Dropout12 -> Dropout12
I0905 01:04:50.356386 73306 net.cpp:150] Setting up Dropout12
I0905 01:04:50.356397 73306 net.cpp:157] Top shape: 16 12 64 64 (786432)
I0905 01:04:50.356405 73306 net.cpp:165] Memory required for data: 1389101120
I0905 01:04:50.356411 73306 layer_factory.hpp:77] Creating layer Concat11
I0905 01:04:50.356420 73306 net.cpp:100] Creating Layer Concat11
I0905 01:04:50.356428 73306 net.cpp:434] Concat11 <- Concat10_Concat10_0_split_1
I0905 01:04:50.356437 73306 net.cpp:434] Concat11 <- Dropout12
I0905 01:04:50.356446 73306 net.cpp:408] Concat11 -> Concat11
I0905 01:04:50.356472 73306 net.cpp:150] Setting up Concat11
I0905 01:04:50.356483 73306 net.cpp:157] Top shape: 16 148 64 64 (9699328)
I0905 01:04:50.356489 73306 net.cpp:165] Memory required for data: 1427898432
I0905 01:04:50.356497 73306 layer_factory.hpp:77] Creating layer Concat11_Concat11_0_split
I0905 01:04:50.356516 73306 net.cpp:100] Creating Layer Concat11_Concat11_0_split
I0905 01:04:50.356524 73306 net.cpp:434] Concat11_Concat11_0_split <- Concat11
I0905 01:04:50.356539 73306 net.cpp:408] Concat11_Concat11_0_split -> Concat11_Concat11_0_split_0
I0905 01:04:50.356559 73306 net.cpp:408] Concat11_Concat11_0_split -> Concat11_Concat11_0_split_1
I0905 01:04:50.356596 73306 net.cpp:150] Setting up Concat11_Concat11_0_split
I0905 01:04:50.356607 73306 net.cpp:157] Top shape: 16 148 64 64 (9699328)
I0905 01:04:50.356614 73306 net.cpp:157] Top shape: 16 148 64 64 (9699328)
I0905 01:04:50.356621 73306 net.cpp:165] Memory required for data: 1505493056
I0905 01:04:50.356628 73306 layer_factory.hpp:77] Creating layer BatchNorm12
I0905 01:04:50.356643 73306 net.cpp:100] Creating Layer BatchNorm12
I0905 01:04:50.356650 73306 net.cpp:434] BatchNorm12 <- Concat11_Concat11_0_split_0
I0905 01:04:50.356662 73306 net.cpp:408] BatchNorm12 -> BatchNorm12
I0905 01:04:50.356829 73306 net.cpp:150] Setting up BatchNorm12
I0905 01:04:50.356845 73306 net.cpp:157] Top shape: 16 148 64 64 (9699328)
I0905 01:04:50.356853 73306 net.cpp:165] Memory required for data: 1544290368
I0905 01:04:50.356864 73306 layer_factory.hpp:77] Creating layer Scale12
I0905 01:04:50.356875 73306 net.cpp:100] Creating Layer Scale12
I0905 01:04:50.356883 73306 net.cpp:434] Scale12 <- BatchNorm12
I0905 01:04:50.356891 73306 net.cpp:395] Scale12 -> BatchNorm12 (in-place)
I0905 01:04:50.356971 73306 net.cpp:150] Setting up Scale12
I0905 01:04:50.356988 73306 net.cpp:157] Top shape: 16 148 64 64 (9699328)
I0905 01:04:50.356995 73306 net.cpp:165] Memory required for data: 1583087680
I0905 01:04:50.357004 73306 layer_factory.hpp:77] Creating layer ReLU12
I0905 01:04:50.357015 73306 net.cpp:100] Creating Layer ReLU12
I0905 01:04:50.357023 73306 net.cpp:434] ReLU12 <- BatchNorm12
I0905 01:04:50.357030 73306 net.cpp:395] ReLU12 -> BatchNorm12 (in-place)
I0905 01:04:50.357187 73306 net.cpp:150] Setting up ReLU12
I0905 01:04:50.357203 73306 net.cpp:157] Top shape: 16 148 64 64 (9699328)
I0905 01:04:50.357210 73306 net.cpp:165] Memory required for data: 1621884992
I0905 01:04:50.357218 73306 layer_factory.hpp:77] Creating layer Convolution13
I0905 01:04:50.357236 73306 net.cpp:100] Creating Layer Convolution13
I0905 01:04:50.357244 73306 net.cpp:434] Convolution13 <- BatchNorm12
I0905 01:04:50.357254 73306 net.cpp:408] Convolution13 -> Convolution13
I0905 01:04:50.358587 73306 net.cpp:150] Setting up Convolution13
I0905 01:04:50.358605 73306 net.cpp:157] Top shape: 16 12 64 64 (786432)
I0905 01:04:50.358614 73306 net.cpp:165] Memory required for data: 1625030720
I0905 01:04:50.358624 73306 layer_factory.hpp:77] Creating layer Dropout13
I0905 01:04:50.358656 73306 net.cpp:100] Creating Layer Dropout13
I0905 01:04:50.358666 73306 net.cpp:434] Dropout13 <- Convolution13
I0905 01:04:50.358677 73306 net.cpp:408] Dropout13 -> Dropout13
I0905 01:04:50.358736 73306 net.cpp:150] Setting up Dropout13
I0905 01:04:50.358750 73306 net.cpp:157] Top shape: 16 12 64 64 (786432)
I0905 01:04:50.358759 73306 net.cpp:165] Memory required for data: 1628176448
I0905 01:04:50.358767 73306 layer_factory.hpp:77] Creating layer Concat12
I0905 01:04:50.358775 73306 net.cpp:100] Creating Layer Concat12
I0905 01:04:50.358783 73306 net.cpp:434] Concat12 <- Concat11_Concat11_0_split_1
I0905 01:04:50.358790 73306 net.cpp:434] Concat12 <- Dropout13
I0905 01:04:50.358799 73306 net.cpp:408] Concat12 -> Concat12
I0905 01:04:50.358831 73306 net.cpp:150] Setting up Concat12
I0905 01:04:50.358845 73306 net.cpp:157] Top shape: 16 160 64 64 (10485760)
I0905 01:04:50.358852 73306 net.cpp:165] Memory required for data: 1670119488
I0905 01:04:50.358860 73306 layer_factory.hpp:77] Creating layer BatchNorm13
I0905 01:04:50.358870 73306 net.cpp:100] Creating Layer BatchNorm13
I0905 01:04:50.358877 73306 net.cpp:434] BatchNorm13 <- Concat12
I0905 01:04:50.358886 73306 net.cpp:408] BatchNorm13 -> BatchNorm13
I0905 01:04:50.359055 73306 net.cpp:150] Setting up BatchNorm13
I0905 01:04:50.359068 73306 net.cpp:157] Top shape: 16 160 64 64 (10485760)
I0905 01:04:50.359087 73306 net.cpp:165] Memory required for data: 1712062528
I0905 01:04:50.359099 73306 layer_factory.hpp:77] Creating layer Scale13
I0905 01:04:50.359112 73306 net.cpp:100] Creating Layer Scale13
I0905 01:04:50.359122 73306 net.cpp:434] Scale13 <- BatchNorm13
I0905 01:04:50.359129 73306 net.cpp:395] Scale13 -> BatchNorm13 (in-place)
I0905 01:04:50.359215 73306 net.cpp:150] Setting up Scale13
I0905 01:04:50.359227 73306 net.cpp:157] Top shape: 16 160 64 64 (10485760)
I0905 01:04:50.359236 73306 net.cpp:165] Memory required for data: 1754005568
I0905 01:04:50.359244 73306 layer_factory.hpp:77] Creating layer ReLU13
I0905 01:04:50.359257 73306 net.cpp:100] Creating Layer ReLU13
I0905 01:04:50.359264 73306 net.cpp:434] ReLU13 <- BatchNorm13
I0905 01:04:50.359274 73306 net.cpp:395] ReLU13 -> BatchNorm13 (in-place)
I0905 01:04:50.359422 73306 net.cpp:150] Setting up ReLU13
I0905 01:04:50.359441 73306 net.cpp:157] Top shape: 16 160 64 64 (10485760)
I0905 01:04:50.359448 73306 net.cpp:165] Memory required for data: 1795948608
I0905 01:04:50.359457 73306 layer_factory.hpp:77] Creating layer Convolution14
I0905 01:04:50.359470 73306 net.cpp:100] Creating Layer Convolution14
I0905 01:04:50.359477 73306 net.cpp:434] Convolution14 <- BatchNorm13
I0905 01:04:50.359488 73306 net.cpp:408] Convolution14 -> Convolution14
I0905 01:04:50.361822 73306 net.cpp:150] Setting up Convolution14
I0905 01:04:50.361843 73306 net.cpp:157] Top shape: 16 160 64 64 (10485760)
I0905 01:04:50.361852 73306 net.cpp:165] Memory required for data: 1837891648
I0905 01:04:50.361865 73306 layer_factory.hpp:77] Creating layer Dropout14
I0905 01:04:50.361876 73306 net.cpp:100] Creating Layer Dropout14
I0905 01:04:50.361883 73306 net.cpp:434] Dropout14 <- Convolution14
I0905 01:04:50.361892 73306 net.cpp:408] Dropout14 -> Dropout14
I0905 01:04:50.361939 73306 net.cpp:150] Setting up Dropout14
I0905 01:04:50.361950 73306 net.cpp:157] Top shape: 16 160 64 64 (10485760)
I0905 01:04:50.361958 73306 net.cpp:165] Memory required for data: 1879834688
I0905 01:04:50.361965 73306 layer_factory.hpp:77] Creating layer Pooling1
I0905 01:04:50.361976 73306 net.cpp:100] Creating Layer Pooling1
I0905 01:04:50.361984 73306 net.cpp:434] Pooling1 <- Dropout14
I0905 01:04:50.361994 73306 net.cpp:408] Pooling1 -> Pooling1
I0905 01:04:50.362416 73306 net.cpp:150] Setting up Pooling1
I0905 01:04:50.362434 73306 net.cpp:157] Top shape: 16 160 32 32 (2621440)
I0905 01:04:50.362442 73306 net.cpp:165] Memory required for data: 1890320448
I0905 01:04:50.362450 73306 layer_factory.hpp:77] Creating layer Pooling1_Pooling1_0_split
I0905 01:04:50.362462 73306 net.cpp:100] Creating Layer Pooling1_Pooling1_0_split
I0905 01:04:50.362470 73306 net.cpp:434] Pooling1_Pooling1_0_split <- Pooling1
I0905 01:04:50.362478 73306 net.cpp:408] Pooling1_Pooling1_0_split -> Pooling1_Pooling1_0_split_0
I0905 01:04:50.362488 73306 net.cpp:408] Pooling1_Pooling1_0_split -> Pooling1_Pooling1_0_split_1
I0905 01:04:50.362530 73306 net.cpp:150] Setting up Pooling1_Pooling1_0_split
I0905 01:04:50.362541 73306 net.cpp:157] Top shape: 16 160 32 32 (2621440)
I0905 01:04:50.362548 73306 net.cpp:157] Top shape: 16 160 32 32 (2621440)
I0905 01:04:50.362562 73306 net.cpp:165] Memory required for data: 1911291968
I0905 01:04:50.362570 73306 layer_factory.hpp:77] Creating layer BatchNorm14
I0905 01:04:50.362586 73306 net.cpp:100] Creating Layer BatchNorm14
I0905 01:04:50.362593 73306 net.cpp:434] BatchNorm14 <- Pooling1_Pooling1_0_split_0
I0905 01:04:50.362604 73306 net.cpp:408] BatchNorm14 -> BatchNorm14
I0905 01:04:50.362797 73306 net.cpp:150] Setting up BatchNorm14
I0905 01:04:50.362812 73306 net.cpp:157] Top shape: 16 160 32 32 (2621440)
I0905 01:04:50.362818 73306 net.cpp:165] Memory required for data: 1921777728
I0905 01:04:50.362829 73306 layer_factory.hpp:77] Creating layer Scale14
I0905 01:04:50.362839 73306 net.cpp:100] Creating Layer Scale14
I0905 01:04:50.362848 73306 net.cpp:434] Scale14 <- BatchNorm14
I0905 01:04:50.362855 73306 net.cpp:395] Scale14 -> BatchNorm14 (in-place)
I0905 01:04:50.362965 73306 net.cpp:150] Setting up Scale14
I0905 01:04:50.362979 73306 net.cpp:157] Top shape: 16 160 32 32 (2621440)
I0905 01:04:50.362987 73306 net.cpp:165] Memory required for data: 1932263488
I0905 01:04:50.362994 73306 layer_factory.hpp:77] Creating layer ReLU14
I0905 01:04:50.363004 73306 net.cpp:100] Creating Layer ReLU14
I0905 01:04:50.363011 73306 net.cpp:434] ReLU14 <- BatchNorm14
I0905 01:04:50.363023 73306 net.cpp:395] ReLU14 -> BatchNorm14 (in-place)
I0905 01:04:50.363176 73306 net.cpp:150] Setting up ReLU14
I0905 01:04:50.363193 73306 net.cpp:157] Top shape: 16 160 32 32 (2621440)
I0905 01:04:50.363199 73306 net.cpp:165] Memory required for data: 1942749248
I0905 01:04:50.363207 73306 layer_factory.hpp:77] Creating layer Convolution15
I0905 01:04:50.363225 73306 net.cpp:100] Creating Layer Convolution15
I0905 01:04:50.363234 73306 net.cpp:434] Convolution15 <- BatchNorm14
I0905 01:04:50.363243 73306 net.cpp:408] Convolution15 -> Convolution15
I0905 01:04:50.364648 73306 net.cpp:150] Setting up Convolution15
I0905 01:04:50.364670 73306 net.cpp:157] Top shape: 16 12 32 32 (196608)
I0905 01:04:50.364677 73306 net.cpp:165] Memory required for data: 1943535680
I0905 01:04:50.364687 73306 layer_factory.hpp:77] Creating layer Dropout15
I0905 01:04:50.364698 73306 net.cpp:100] Creating Layer Dropout15
I0905 01:04:50.364706 73306 net.cpp:434] Dropout15 <- Convolution15
I0905 01:04:50.364717 73306 net.cpp:408] Dropout15 -> Dropout15
I0905 01:04:50.364759 73306 net.cpp:150] Setting up Dropout15
I0905 01:04:50.364773 73306 net.cpp:157] Top shape: 16 12 32 32 (196608)
I0905 01:04:50.364780 73306 net.cpp:165] Memory required for data: 1944322112
I0905 01:04:50.364787 73306 layer_factory.hpp:77] Creating layer Concat13
I0905 01:04:50.364804 73306 net.cpp:100] Creating Layer Concat13
I0905 01:04:50.364810 73306 net.cpp:434] Concat13 <- Pooling1_Pooling1_0_split_1
I0905 01:04:50.364820 73306 net.cpp:434] Concat13 <- Dropout15
I0905 01:04:50.364827 73306 net.cpp:408] Concat13 -> Concat13
I0905 01:04:50.364856 73306 net.cpp:150] Setting up Concat13
I0905 01:04:50.364866 73306 net.cpp:157] Top shape: 16 172 32 32 (2818048)
I0905 01:04:50.364872 73306 net.cpp:165] Memory required for data: 1955594304
I0905 01:04:50.364879 73306 layer_factory.hpp:77] Creating layer Concat13_Concat13_0_split
I0905 01:04:50.364887 73306 net.cpp:100] Creating Layer Concat13_Concat13_0_split
I0905 01:04:50.364894 73306 net.cpp:434] Concat13_Concat13_0_split <- Concat13
I0905 01:04:50.364904 73306 net.cpp:408] Concat13_Concat13_0_split -> Concat13_Concat13_0_split_0
I0905 01:04:50.364913 73306 net.cpp:408] Concat13_Concat13_0_split -> Concat13_Concat13_0_split_1
I0905 01:04:50.364951 73306 net.cpp:150] Setting up Concat13_Concat13_0_split
I0905 01:04:50.364962 73306 net.cpp:157] Top shape: 16 172 32 32 (2818048)
I0905 01:04:50.364969 73306 net.cpp:157] Top shape: 16 172 32 32 (2818048)
I0905 01:04:50.364976 73306 net.cpp:165] Memory required for data: 1978138688
I0905 01:04:50.364984 73306 layer_factory.hpp:77] Creating layer BatchNorm15
I0905 01:04:50.364992 73306 net.cpp:100] Creating Layer BatchNorm15
I0905 01:04:50.365000 73306 net.cpp:434] BatchNorm15 <- Concat13_Concat13_0_split_0
I0905 01:04:50.365010 73306 net.cpp:408] BatchNorm15 -> BatchNorm15
I0905 01:04:50.365191 73306 net.cpp:150] Setting up BatchNorm15
I0905 01:04:50.365203 73306 net.cpp:157] Top shape: 16 172 32 32 (2818048)
I0905 01:04:50.365211 73306 net.cpp:165] Memory required for data: 1989410880
I0905 01:04:50.365221 73306 layer_factory.hpp:77] Creating layer Scale15
I0905 01:04:50.365237 73306 net.cpp:100] Creating Layer Scale15
I0905 01:04:50.365247 73306 net.cpp:434] Scale15 <- BatchNorm15
I0905 01:04:50.365255 73306 net.cpp:395] Scale15 -> BatchNorm15 (in-place)
I0905 01:04:50.365342 73306 net.cpp:150] Setting up Scale15
I0905 01:04:50.365355 73306 net.cpp:157] Top shape: 16 172 32 32 (2818048)
I0905 01:04:50.365361 73306 net.cpp:165] Memory required for data: 2000683072
I0905 01:04:50.365370 73306 layer_factory.hpp:77] Creating layer ReLU15
I0905 01:04:50.365393 73306 net.cpp:100] Creating Layer ReLU15
I0905 01:04:50.365401 73306 net.cpp:434] ReLU15 <- BatchNorm15
I0905 01:04:50.365408 73306 net.cpp:395] ReLU15 -> BatchNorm15 (in-place)
I0905 01:04:50.365701 73306 net.cpp:150] Setting up ReLU15
I0905 01:04:50.365720 73306 net.cpp:157] Top shape: 16 172 32 32 (2818048)
I0905 01:04:50.365727 73306 net.cpp:165] Memory required for data: 2011955264
I0905 01:04:50.365734 73306 layer_factory.hpp:77] Creating layer Convolution16
I0905 01:04:50.365751 73306 net.cpp:100] Creating Layer Convolution16
I0905 01:04:50.365758 73306 net.cpp:434] Convolution16 <- BatchNorm15
I0905 01:04:50.365768 73306 net.cpp:408] Convolution16 -> Convolution16
I0905 01:04:50.367246 73306 net.cpp:150] Setting up Convolution16
I0905 01:04:50.367269 73306 net.cpp:157] Top shape: 16 12 32 32 (196608)
I0905 01:04:50.367276 73306 net.cpp:165] Memory required for data: 2012741696
I0905 01:04:50.367290 73306 layer_factory.hpp:77] Creating layer Dropout16
I0905 01:04:50.367300 73306 net.cpp:100] Creating Layer Dropout16
I0905 01:04:50.367307 73306 net.cpp:434] Dropout16 <- Convolution16
I0905 01:04:50.367316 73306 net.cpp:408] Dropout16 -> Dropout16
I0905 01:04:50.367364 73306 net.cpp:150] Setting up Dropout16
I0905 01:04:50.367377 73306 net.cpp:157] Top shape: 16 12 32 32 (196608)
I0905 01:04:50.367383 73306 net.cpp:165] Memory required for data: 2013528128
I0905 01:04:50.367390 73306 layer_factory.hpp:77] Creating layer Concat14
I0905 01:04:50.367400 73306 net.cpp:100] Creating Layer Concat14
I0905 01:04:50.367408 73306 net.cpp:434] Concat14 <- Concat13_Concat13_0_split_1
I0905 01:04:50.367415 73306 net.cpp:434] Concat14 <- Dropout16
I0905 01:04:50.367425 73306 net.cpp:408] Concat14 -> Concat14
I0905 01:04:50.367452 73306 net.cpp:150] Setting up Concat14
I0905 01:04:50.367463 73306 net.cpp:157] Top shape: 16 184 32 32 (3014656)
I0905 01:04:50.367470 73306 net.cpp:165] Memory required for data: 2025586752
I0905 01:04:50.367476 73306 layer_factory.hpp:77] Creating layer Concat14_Concat14_0_split
I0905 01:04:50.367485 73306 net.cpp:100] Creating Layer Concat14_Concat14_0_split
I0905 01:04:50.367491 73306 net.cpp:434] Concat14_Concat14_0_split <- Concat14
I0905 01:04:50.367499 73306 net.cpp:408] Concat14_Concat14_0_split -> Concat14_Concat14_0_split_0
I0905 01:04:50.367508 73306 net.cpp:408] Concat14_Concat14_0_split -> Concat14_Concat14_0_split_1
I0905 01:04:50.367547 73306 net.cpp:150] Setting up Concat14_Concat14_0_split
I0905 01:04:50.367558 73306 net.cpp:157] Top shape: 16 184 32 32 (3014656)
I0905 01:04:50.367564 73306 net.cpp:157] Top shape: 16 184 32 32 (3014656)
I0905 01:04:50.367570 73306 net.cpp:165] Memory required for data: 2049704000
I0905 01:04:50.367578 73306 layer_factory.hpp:77] Creating layer BatchNorm16
I0905 01:04:50.367588 73306 net.cpp:100] Creating Layer BatchNorm16
I0905 01:04:50.367594 73306 net.cpp:434] BatchNorm16 <- Concat14_Concat14_0_split_0
I0905 01:04:50.367605 73306 net.cpp:408] BatchNorm16 -> BatchNorm16
I0905 01:04:50.367779 73306 net.cpp:150] Setting up BatchNorm16
I0905 01:04:50.367791 73306 net.cpp:157] Top shape: 16 184 32 32 (3014656)
I0905 01:04:50.367799 73306 net.cpp:165] Memory required for data: 2061762624
I0905 01:04:50.367810 73306 layer_factory.hpp:77] Creating layer Scale16
I0905 01:04:50.367822 73306 net.cpp:100] Creating Layer Scale16
I0905 01:04:50.367830 73306 net.cpp:434] Scale16 <- BatchNorm16
I0905 01:04:50.367838 73306 net.cpp:395] Scale16 -> BatchNorm16 (in-place)
I0905 01:04:50.367925 73306 net.cpp:150] Setting up Scale16
I0905 01:04:50.367939 73306 net.cpp:157] Top shape: 16 184 32 32 (3014656)
I0905 01:04:50.367949 73306 net.cpp:165] Memory required for data: 2073821248
I0905 01:04:50.367956 73306 layer_factory.hpp:77] Creating layer ReLU16
I0905 01:04:50.367970 73306 net.cpp:100] Creating Layer ReLU16
I0905 01:04:50.367977 73306 net.cpp:434] ReLU16 <- BatchNorm16
I0905 01:04:50.367985 73306 net.cpp:395] ReLU16 -> BatchNorm16 (in-place)
I0905 01:04:50.368275 73306 net.cpp:150] Setting up ReLU16
I0905 01:04:50.368296 73306 net.cpp:157] Top shape: 16 184 32 32 (3014656)
I0905 01:04:50.368315 73306 net.cpp:165] Memory required for data: 2085879872
I0905 01:04:50.368326 73306 layer_factory.hpp:77] Creating layer Convolution17
I0905 01:04:50.368342 73306 net.cpp:100] Creating Layer Convolution17
I0905 01:04:50.368350 73306 net.cpp:434] Convolution17 <- BatchNorm16
I0905 01:04:50.368360 73306 net.cpp:408] Convolution17 -> Convolution17
I0905 01:04:50.369846 73306 net.cpp:150] Setting up Convolution17
I0905 01:04:50.369865 73306 net.cpp:157] Top shape: 16 12 32 32 (196608)
I0905 01:04:50.369874 73306 net.cpp:165] Memory required for data: 2086666304
I0905 01:04:50.369884 73306 layer_factory.hpp:77] Creating layer Dropout17
I0905 01:04:50.369894 73306 net.cpp:100] Creating Layer Dropout17
I0905 01:04:50.369902 73306 net.cpp:434] Dropout17 <- Convolution17
I0905 01:04:50.369910 73306 net.cpp:408] Dropout17 -> Dropout17
I0905 01:04:50.369957 73306 net.cpp:150] Setting up Dropout17
I0905 01:04:50.369969 73306 net.cpp:157] Top shape: 16 12 32 32 (196608)
I0905 01:04:50.369976 73306 net.cpp:165] Memory required for data: 2087452736
I0905 01:04:50.369988 73306 layer_factory.hpp:77] Creating layer Concat15
I0905 01:04:50.369998 73306 net.cpp:100] Creating Layer Concat15
I0905 01:04:50.370005 73306 net.cpp:434] Concat15 <- Concat14_Concat14_0_split_1
I0905 01:04:50.370015 73306 net.cpp:434] Concat15 <- Dropout17
I0905 01:04:50.370024 73306 net.cpp:408] Concat15 -> Concat15
I0905 01:04:50.370054 73306 net.cpp:150] Setting up Concat15
I0905 01:04:50.370064 73306 net.cpp:157] Top shape: 16 196 32 32 (3211264)
I0905 01:04:50.370071 73306 net.cpp:165] Memory required for data: 2100297792
I0905 01:04:50.370077 73306 layer_factory.hpp:77] Creating layer Concat15_Concat15_0_split
I0905 01:04:50.370086 73306 net.cpp:100] Creating Layer Concat15_Concat15_0_split
I0905 01:04:50.370092 73306 net.cpp:434] Concat15_Concat15_0_split <- Concat15
I0905 01:04:50.370103 73306 net.cpp:408] Concat15_Concat15_0_split -> Concat15_Concat15_0_split_0
I0905 01:04:50.370113 73306 net.cpp:408] Concat15_Concat15_0_split -> Concat15_Concat15_0_split_1
I0905 01:04:50.370149 73306 net.cpp:150] Setting up Concat15_Concat15_0_split
I0905 01:04:50.370159 73306 net.cpp:157] Top shape: 16 196 32 32 (3211264)
I0905 01:04:50.370167 73306 net.cpp:157] Top shape: 16 196 32 32 (3211264)
I0905 01:04:50.370173 73306 net.cpp:165] Memory required for data: 2125987904
I0905 01:04:50.370179 73306 layer_factory.hpp:77] Creating layer BatchNorm17
I0905 01:04:50.370190 73306 net.cpp:100] Creating Layer BatchNorm17
I0905 01:04:50.370198 73306 net.cpp:434] BatchNorm17 <- Concat15_Concat15_0_split_0
I0905 01:04:50.370211 73306 net.cpp:408] BatchNorm17 -> BatchNorm17
I0905 01:04:50.370390 73306 net.cpp:150] Setting up BatchNorm17
I0905 01:04:50.370404 73306 net.cpp:157] Top shape: 16 196 32 32 (3211264)
I0905 01:04:50.370411 73306 net.cpp:165] Memory required for data: 2138832960
I0905 01:04:50.370422 73306 layer_factory.hpp:77] Creating layer Scale17
I0905 01:04:50.370434 73306 net.cpp:100] Creating Layer Scale17
I0905 01:04:50.370441 73306 net.cpp:434] Scale17 <- BatchNorm17
I0905 01:04:50.370450 73306 net.cpp:395] Scale17 -> BatchNorm17 (in-place)
I0905 01:04:50.370539 73306 net.cpp:150] Setting up Scale17
I0905 01:04:50.370553 73306 net.cpp:157] Top shape: 16 196 32 32 (3211264)
I0905 01:04:50.370560 73306 net.cpp:165] Memory required for data: 2151678016
I0905 01:04:50.370569 73306 layer_factory.hpp:77] Creating layer ReLU17
I0905 01:04:50.370581 73306 net.cpp:100] Creating Layer ReLU17
I0905 01:04:50.370589 73306 net.cpp:434] ReLU17 <- BatchNorm17
I0905 01:04:50.370596 73306 net.cpp:395] ReLU17 -> BatchNorm17 (in-place)
I0905 01:04:50.370766 73306 net.cpp:150] Setting up ReLU17
I0905 01:04:50.370782 73306 net.cpp:157] Top shape: 16 196 32 32 (3211264)
I0905 01:04:50.370790 73306 net.cpp:165] Memory required for data: 2164523072
I0905 01:04:50.370797 73306 layer_factory.hpp:77] Creating layer Convolution18
I0905 01:04:50.370815 73306 net.cpp:100] Creating Layer Convolution18
I0905 01:04:50.370822 73306 net.cpp:434] Convolution18 <- BatchNorm17
I0905 01:04:50.370846 73306 net.cpp:408] Convolution18 -> Convolution18
I0905 01:04:50.372351 73306 net.cpp:150] Setting up Convolution18
I0905 01:04:50.372371 73306 net.cpp:157] Top shape: 16 12 32 32 (196608)
I0905 01:04:50.372380 73306 net.cpp:165] Memory required for data: 2165309504
I0905 01:04:50.372390 73306 layer_factory.hpp:77] Creating layer Dropout18
I0905 01:04:50.372400 73306 net.cpp:100] Creating Layer Dropout18
I0905 01:04:50.372408 73306 net.cpp:434] Dropout18 <- Convolution18
I0905 01:04:50.372416 73306 net.cpp:408] Dropout18 -> Dropout18
I0905 01:04:50.372463 73306 net.cpp:150] Setting up Dropout18
I0905 01:04:50.372474 73306 net.cpp:157] Top shape: 16 12 32 32 (196608)
I0905 01:04:50.372481 73306 net.cpp:165] Memory required for data: 2166095936
I0905 01:04:50.372488 73306 layer_factory.hpp:77] Creating layer Concat16
I0905 01:04:50.372501 73306 net.cpp:100] Creating Layer Concat16
I0905 01:04:50.372509 73306 net.cpp:434] Concat16 <- Concat15_Concat15_0_split_1
I0905 01:04:50.372517 73306 net.cpp:434] Concat16 <- Dropout18
I0905 01:04:50.372525 73306 net.cpp:408] Concat16 -> Concat16
I0905 01:04:50.372555 73306 net.cpp:150] Setting up Concat16
I0905 01:04:50.372565 73306 net.cpp:157] Top shape: 16 208 32 32 (3407872)
I0905 01:04:50.372571 73306 net.cpp:165] Memory required for data: 2179727424
I0905 01:04:50.372580 73306 layer_factory.hpp:77] Creating layer Concat16_Concat16_0_split
I0905 01:04:50.372588 73306 net.cpp:100] Creating Layer Concat16_Concat16_0_split
I0905 01:04:50.372596 73306 net.cpp:434] Concat16_Concat16_0_split <- Concat16
I0905 01:04:50.372606 73306 net.cpp:408] Concat16_Concat16_0_split -> Concat16_Concat16_0_split_0
I0905 01:04:50.372619 73306 net.cpp:408] Concat16_Concat16_0_split -> Concat16_Concat16_0_split_1
I0905 01:04:50.372655 73306 net.cpp:150] Setting up Concat16_Concat16_0_split
I0905 01:04:50.372665 73306 net.cpp:157] Top shape: 16 208 32 32 (3407872)
I0905 01:04:50.372673 73306 net.cpp:157] Top shape: 16 208 32 32 (3407872)
I0905 01:04:50.372679 73306 net.cpp:165] Memory required for data: 2206990400
I0905 01:04:50.372686 73306 layer_factory.hpp:77] Creating layer BatchNorm18
I0905 01:04:50.372696 73306 net.cpp:100] Creating Layer BatchNorm18
I0905 01:04:50.372704 73306 net.cpp:434] BatchNorm18 <- Concat16_Concat16_0_split_0
I0905 01:04:50.372716 73306 net.cpp:408] BatchNorm18 -> BatchNorm18
I0905 01:04:50.372897 73306 net.cpp:150] Setting up BatchNorm18
I0905 01:04:50.372910 73306 net.cpp:157] Top shape: 16 208 32 32 (3407872)
I0905 01:04:50.372918 73306 net.cpp:165] Memory required for data: 2220621888
I0905 01:04:50.372928 73306 layer_factory.hpp:77] Creating layer Scale18
I0905 01:04:50.372939 73306 net.cpp:100] Creating Layer Scale18
I0905 01:04:50.372946 73306 net.cpp:434] Scale18 <- BatchNorm18
I0905 01:04:50.372958 73306 net.cpp:395] Scale18 -> BatchNorm18 (in-place)
I0905 01:04:50.373044 73306 net.cpp:150] Setting up Scale18
I0905 01:04:50.373056 73306 net.cpp:157] Top shape: 16 208 32 32 (3407872)
I0905 01:04:50.373065 73306 net.cpp:165] Memory required for data: 2234253376
I0905 01:04:50.373073 73306 layer_factory.hpp:77] Creating layer ReLU18
I0905 01:04:50.373085 73306 net.cpp:100] Creating Layer ReLU18
I0905 01:04:50.373092 73306 net.cpp:434] ReLU18 <- BatchNorm18
I0905 01:04:50.373101 73306 net.cpp:395] ReLU18 -> BatchNorm18 (in-place)
I0905 01:04:50.373400 73306 net.cpp:150] Setting up ReLU18
I0905 01:04:50.373419 73306 net.cpp:157] Top shape: 16 208 32 32 (3407872)
I0905 01:04:50.373426 73306 net.cpp:165] Memory required for data: 2247884864
I0905 01:04:50.373435 73306 layer_factory.hpp:77] Creating layer Convolution19
I0905 01:04:50.373450 73306 net.cpp:100] Creating Layer Convolution19
I0905 01:04:50.373457 73306 net.cpp:434] Convolution19 <- BatchNorm18
I0905 01:04:50.373467 73306 net.cpp:408] Convolution19 -> Convolution19
I0905 01:04:50.374889 73306 net.cpp:150] Setting up Convolution19
I0905 01:04:50.374909 73306 net.cpp:157] Top shape: 16 12 32 32 (196608)
I0905 01:04:50.374917 73306 net.cpp:165] Memory required for data: 2248671296
I0905 01:04:50.374940 73306 layer_factory.hpp:77] Creating layer Dropout19
I0905 01:04:50.374956 73306 net.cpp:100] Creating Layer Dropout19
I0905 01:04:50.374965 73306 net.cpp:434] Dropout19 <- Convolution19
I0905 01:04:50.374974 73306 net.cpp:408] Dropout19 -> Dropout19
I0905 01:04:50.375020 73306 net.cpp:150] Setting up Dropout19
I0905 01:04:50.375031 73306 net.cpp:157] Top shape: 16 12 32 32 (196608)
I0905 01:04:50.375039 73306 net.cpp:165] Memory required for data: 2249457728
I0905 01:04:50.375046 73306 layer_factory.hpp:77] Creating layer Concat17
I0905 01:04:50.375058 73306 net.cpp:100] Creating Layer Concat17
I0905 01:04:50.375067 73306 net.cpp:434] Concat17 <- Concat16_Concat16_0_split_1
I0905 01:04:50.375075 73306 net.cpp:434] Concat17 <- Dropout19
I0905 01:04:50.375083 73306 net.cpp:408] Concat17 -> Concat17
I0905 01:04:50.375111 73306 net.cpp:150] Setting up Concat17
I0905 01:04:50.375121 73306 net.cpp:157] Top shape: 16 220 32 32 (3604480)
I0905 01:04:50.375130 73306 net.cpp:165] Memory required for data: 2263875648
I0905 01:04:50.375136 73306 layer_factory.hpp:77] Creating layer Concat17_Concat17_0_split
I0905 01:04:50.375156 73306 net.cpp:100] Creating Layer Concat17_Concat17_0_split
I0905 01:04:50.375165 73306 net.cpp:434] Concat17_Concat17_0_split <- Concat17
I0905 01:04:50.375180 73306 net.cpp:408] Concat17_Concat17_0_split -> Concat17_Concat17_0_split_0
I0905 01:04:50.375190 73306 net.cpp:408] Concat17_Concat17_0_split -> Concat17_Concat17_0_split_1
I0905 01:04:50.375229 73306 net.cpp:150] Setting up Concat17_Concat17_0_split
I0905 01:04:50.375241 73306 net.cpp:157] Top shape: 16 220 32 32 (3604480)
I0905 01:04:50.375247 73306 net.cpp:157] Top shape: 16 220 32 32 (3604480)
I0905 01:04:50.375262 73306 net.cpp:165] Memory required for data: 2292711488
I0905 01:04:50.375269 73306 layer_factory.hpp:77] Creating layer BatchNorm19
I0905 01:04:50.375285 73306 net.cpp:100] Creating Layer BatchNorm19
I0905 01:04:50.375293 73306 net.cpp:434] BatchNorm19 <- Concat17_Concat17_0_split_0
I0905 01:04:50.375303 73306 net.cpp:408] BatchNorm19 -> BatchNorm19
I0905 01:04:50.375493 73306 net.cpp:150] Setting up BatchNorm19
I0905 01:04:50.375506 73306 net.cpp:157] Top shape: 16 220 32 32 (3604480)
I0905 01:04:50.375514 73306 net.cpp:165] Memory required for data: 2307129408
I0905 01:04:50.375524 73306 layer_factory.hpp:77] Creating layer Scale19
I0905 01:04:50.375535 73306 net.cpp:100] Creating Layer Scale19
I0905 01:04:50.375541 73306 net.cpp:434] Scale19 <- BatchNorm19
I0905 01:04:50.375550 73306 net.cpp:395] Scale19 -> BatchNorm19 (in-place)
I0905 01:04:50.375644 73306 net.cpp:150] Setting up Scale19
I0905 01:04:50.375658 73306 net.cpp:157] Top shape: 16 220 32 32 (3604480)
I0905 01:04:50.375669 73306 net.cpp:165] Memory required for data: 2321547328
I0905 01:04:50.375676 73306 layer_factory.hpp:77] Creating layer ReLU19
I0905 01:04:50.375689 73306 net.cpp:100] Creating Layer ReLU19
I0905 01:04:50.375695 73306 net.cpp:434] ReLU19 <- BatchNorm19
I0905 01:04:50.375707 73306 net.cpp:395] ReLU19 -> BatchNorm19 (in-place)
I0905 01:04:50.375998 73306 net.cpp:150] Setting up ReLU19
I0905 01:04:50.376016 73306 net.cpp:157] Top shape: 16 220 32 32 (3604480)
I0905 01:04:50.376024 73306 net.cpp:165] Memory required for data: 2335965248
I0905 01:04:50.376031 73306 layer_factory.hpp:77] Creating layer Convolution20
I0905 01:04:50.376047 73306 net.cpp:100] Creating Layer Convolution20
I0905 01:04:50.376055 73306 net.cpp:434] Convolution20 <- BatchNorm19
I0905 01:04:50.376066 73306 net.cpp:408] Convolution20 -> Convolution20
I0905 01:04:50.377650 73306 net.cpp:150] Setting up Convolution20
I0905 01:04:50.377672 73306 net.cpp:157] Top shape: 16 12 32 32 (196608)
I0905 01:04:50.377681 73306 net.cpp:165] Memory required for data: 2336751680
I0905 01:04:50.377692 73306 layer_factory.hpp:77] Creating layer Dropout20
I0905 01:04:50.377702 73306 net.cpp:100] Creating Layer Dropout20
I0905 01:04:50.377710 73306 net.cpp:434] Dropout20 <- Convolution20
I0905 01:04:50.377718 73306 net.cpp:408] Dropout20 -> Dropout20
I0905 01:04:50.377774 73306 net.cpp:150] Setting up Dropout20
I0905 01:04:50.377795 73306 net.cpp:157] Top shape: 16 12 32 32 (196608)
I0905 01:04:50.377804 73306 net.cpp:165] Memory required for data: 2337538112
I0905 01:04:50.377810 73306 layer_factory.hpp:77] Creating layer Concat18
I0905 01:04:50.377823 73306 net.cpp:100] Creating Layer Concat18
I0905 01:04:50.377830 73306 net.cpp:434] Concat18 <- Concat17_Concat17_0_split_1
I0905 01:04:50.377840 73306 net.cpp:434] Concat18 <- Dropout20
I0905 01:04:50.377849 73306 net.cpp:408] Concat18 -> Concat18
I0905 01:04:50.377877 73306 net.cpp:150] Setting up Concat18
I0905 01:04:50.377897 73306 net.cpp:157] Top shape: 16 232 32 32 (3801088)
I0905 01:04:50.377902 73306 net.cpp:165] Memory required for data: 2352742464
I0905 01:04:50.377909 73306 layer_factory.hpp:77] Creating layer Concat18_Concat18_0_split
I0905 01:04:50.377918 73306 net.cpp:100] Creating Layer Concat18_Concat18_0_split
I0905 01:04:50.377924 73306 net.cpp:434] Concat18_Concat18_0_split <- Concat18
I0905 01:04:50.377943 73306 net.cpp:408] Concat18_Concat18_0_split -> Concat18_Concat18_0_split_0
I0905 01:04:50.377953 73306 net.cpp:408] Concat18_Concat18_0_split -> Concat18_Concat18_0_split_1
I0905 01:04:50.377991 73306 net.cpp:150] Setting up Concat18_Concat18_0_split
I0905 01:04:50.378000 73306 net.cpp:157] Top shape: 16 232 32 32 (3801088)
I0905 01:04:50.378008 73306 net.cpp:157] Top shape: 16 232 32 32 (3801088)
I0905 01:04:50.378015 73306 net.cpp:165] Memory required for data: 2383151168
I0905 01:04:50.378024 73306 layer_factory.hpp:77] Creating layer BatchNorm20
I0905 01:04:50.378036 73306 net.cpp:100] Creating Layer BatchNorm20
I0905 01:04:50.378046 73306 net.cpp:434] BatchNorm20 <- Concat18_Concat18_0_split_0
I0905 01:04:50.378058 73306 net.cpp:408] BatchNorm20 -> BatchNorm20
I0905 01:04:50.378242 73306 net.cpp:150] Setting up BatchNorm20
I0905 01:04:50.378257 73306 net.cpp:157] Top shape: 16 232 32 32 (3801088)
I0905 01:04:50.378267 73306 net.cpp:165] Memory required for data: 2398355520
I0905 01:04:50.378278 73306 layer_factory.hpp:77] Creating layer Scale20
I0905 01:04:50.378288 73306 net.cpp:100] Creating Layer Scale20
I0905 01:04:50.378296 73306 net.cpp:434] Scale20 <- BatchNorm20
I0905 01:04:50.378304 73306 net.cpp:395] Scale20 -> BatchNorm20 (in-place)
I0905 01:04:50.378391 73306 net.cpp:150] Setting up Scale20
I0905 01:04:50.378403 73306 net.cpp:157] Top shape: 16 232 32 32 (3801088)
I0905 01:04:50.378412 73306 net.cpp:165] Memory required for data: 2413559872
I0905 01:04:50.378419 73306 layer_factory.hpp:77] Creating layer ReLU20
I0905 01:04:50.378429 73306 net.cpp:100] Creating Layer ReLU20
I0905 01:04:50.378437 73306 net.cpp:434] ReLU20 <- BatchNorm20
I0905 01:04:50.378445 73306 net.cpp:395] ReLU20 -> BatchNorm20 (in-place)
I0905 01:04:50.378618 73306 net.cpp:150] Setting up ReLU20
I0905 01:04:50.378649 73306 net.cpp:157] Top shape: 16 232 32 32 (3801088)
I0905 01:04:50.378659 73306 net.cpp:165] Memory required for data: 2428764224
I0905 01:04:50.378672 73306 layer_factory.hpp:77] Creating layer Convolution21
I0905 01:04:50.378686 73306 net.cpp:100] Creating Layer Convolution21
I0905 01:04:50.378695 73306 net.cpp:434] Convolution21 <- BatchNorm20
I0905 01:04:50.378705 73306 net.cpp:408] Convolution21 -> Convolution21
I0905 01:04:50.380422 73306 net.cpp:150] Setting up Convolution21
I0905 01:04:50.380441 73306 net.cpp:157] Top shape: 16 12 32 32 (196608)
I0905 01:04:50.380452 73306 net.cpp:165] Memory required for data: 2429550656
I0905 01:04:50.380462 73306 layer_factory.hpp:77] Creating layer Dropout21
I0905 01:04:50.380473 73306 net.cpp:100] Creating Layer Dropout21
I0905 01:04:50.380481 73306 net.cpp:434] Dropout21 <- Convolution21
I0905 01:04:50.380489 73306 net.cpp:408] Dropout21 -> Dropout21
I0905 01:04:50.380535 73306 net.cpp:150] Setting up Dropout21
I0905 01:04:50.380548 73306 net.cpp:157] Top shape: 16 12 32 32 (196608)
I0905 01:04:50.380554 73306 net.cpp:165] Memory required for data: 2430337088
I0905 01:04:50.380561 73306 layer_factory.hpp:77] Creating layer Concat19
I0905 01:04:50.380573 73306 net.cpp:100] Creating Layer Concat19
I0905 01:04:50.380591 73306 net.cpp:434] Concat19 <- Concat18_Concat18_0_split_1
I0905 01:04:50.380600 73306 net.cpp:434] Concat19 <- Dropout21
I0905 01:04:50.380611 73306 net.cpp:408] Concat19 -> Concat19
I0905 01:04:50.380640 73306 net.cpp:150] Setting up Concat19
I0905 01:04:50.380653 73306 net.cpp:157] Top shape: 16 244 32 32 (3997696)
I0905 01:04:50.380661 73306 net.cpp:165] Memory required for data: 2446327872
I0905 01:04:50.380666 73306 layer_factory.hpp:77] Creating layer Concat19_Concat19_0_split
I0905 01:04:50.380676 73306 net.cpp:100] Creating Layer Concat19_Concat19_0_split
I0905 01:04:50.380687 73306 net.cpp:434] Concat19_Concat19_0_split <- Concat19
I0905 01:04:50.380697 73306 net.cpp:408] Concat19_Concat19_0_split -> Concat19_Concat19_0_split_0
I0905 01:04:50.380707 73306 net.cpp:408] Concat19_Concat19_0_split -> Concat19_Concat19_0_split_1
I0905 01:04:50.380744 73306 net.cpp:150] Setting up Concat19_Concat19_0_split
I0905 01:04:50.380756 73306 net.cpp:157] Top shape: 16 244 32 32 (3997696)
I0905 01:04:50.380764 73306 net.cpp:157] Top shape: 16 244 32 32 (3997696)
I0905 01:04:50.380769 73306 net.cpp:165] Memory required for data: 2478309440
I0905 01:04:50.380776 73306 layer_factory.hpp:77] Creating layer BatchNorm21
I0905 01:04:50.380787 73306 net.cpp:100] Creating Layer BatchNorm21
I0905 01:04:50.380795 73306 net.cpp:434] BatchNorm21 <- Concat19_Concat19_0_split_0
I0905 01:04:50.380805 73306 net.cpp:408] BatchNorm21 -> BatchNorm21
I0905 01:04:50.380988 73306 net.cpp:150] Setting up BatchNorm21
I0905 01:04:50.381002 73306 net.cpp:157] Top shape: 16 244 32 32 (3997696)
I0905 01:04:50.381012 73306 net.cpp:165] Memory required for data: 2494300224
I0905 01:04:50.381022 73306 layer_factory.hpp:77] Creating layer Scale21
I0905 01:04:50.381034 73306 net.cpp:100] Creating Layer Scale21
I0905 01:04:50.381042 73306 net.cpp:434] Scale21 <- BatchNorm21
I0905 01:04:50.381050 73306 net.cpp:395] Scale21 -> BatchNorm21 (in-place)
I0905 01:04:50.381136 73306 net.cpp:150] Setting up Scale21
I0905 01:04:50.381158 73306 net.cpp:157] Top shape: 16 244 32 32 (3997696)
I0905 01:04:50.381168 73306 net.cpp:165] Memory required for data: 2510291008
I0905 01:04:50.381178 73306 layer_factory.hpp:77] Creating layer ReLU21
I0905 01:04:50.381187 73306 net.cpp:100] Creating Layer ReLU21
I0905 01:04:50.381194 73306 net.cpp:434] ReLU21 <- BatchNorm21
I0905 01:04:50.381204 73306 net.cpp:395] ReLU21 -> BatchNorm21 (in-place)
I0905 01:04:50.381506 73306 net.cpp:150] Setting up ReLU21
I0905 01:04:50.381526 73306 net.cpp:157] Top shape: 16 244 32 32 (3997696)
I0905 01:04:50.381534 73306 net.cpp:165] Memory required for data: 2526281792
I0905 01:04:50.381542 73306 layer_factory.hpp:77] Creating layer Convolution22
I0905 01:04:50.381556 73306 net.cpp:100] Creating Layer Convolution22
I0905 01:04:50.381564 73306 net.cpp:434] Convolution22 <- BatchNorm21
I0905 01:04:50.381577 73306 net.cpp:408] Convolution22 -> Convolution22
I0905 01:04:50.383121 73306 net.cpp:150] Setting up Convolution22
I0905 01:04:50.383141 73306 net.cpp:157] Top shape: 16 12 32 32 (196608)
I0905 01:04:50.383148 73306 net.cpp:165] Memory required for data: 2527068224
I0905 01:04:50.383158 73306 layer_factory.hpp:77] Creating layer Dropout22
I0905 01:04:50.383169 73306 net.cpp:100] Creating Layer Dropout22
I0905 01:04:50.383179 73306 net.cpp:434] Dropout22 <- Convolution22
I0905 01:04:50.383188 73306 net.cpp:408] Dropout22 -> Dropout22
I0905 01:04:50.383235 73306 net.cpp:150] Setting up Dropout22
I0905 01:04:50.383255 73306 net.cpp:157] Top shape: 16 12 32 32 (196608)
I0905 01:04:50.383262 73306 net.cpp:165] Memory required for data: 2527854656
I0905 01:04:50.383270 73306 layer_factory.hpp:77] Creating layer Concat20
I0905 01:04:50.383285 73306 net.cpp:100] Creating Layer Concat20
I0905 01:04:50.383291 73306 net.cpp:434] Concat20 <- Concat19_Concat19_0_split_1
I0905 01:04:50.383308 73306 net.cpp:434] Concat20 <- Dropout22
I0905 01:04:50.383317 73306 net.cpp:408] Concat20 -> Concat20
I0905 01:04:50.383345 73306 net.cpp:150] Setting up Concat20
I0905 01:04:50.383366 73306 net.cpp:157] Top shape: 16 256 32 32 (4194304)
I0905 01:04:50.383373 73306 net.cpp:165] Memory required for data: 2544631872
I0905 01:04:50.383379 73306 layer_factory.hpp:77] Creating layer Concat20_Concat20_0_split
I0905 01:04:50.383391 73306 net.cpp:100] Creating Layer Concat20_Concat20_0_split
I0905 01:04:50.383400 73306 net.cpp:434] Concat20_Concat20_0_split <- Concat20
I0905 01:04:50.383409 73306 net.cpp:408] Concat20_Concat20_0_split -> Concat20_Concat20_0_split_0
I0905 01:04:50.383430 73306 net.cpp:408] Concat20_Concat20_0_split -> Concat20_Concat20_0_split_1
I0905 01:04:50.383471 73306 net.cpp:150] Setting up Concat20_Concat20_0_split
I0905 01:04:50.383482 73306 net.cpp:157] Top shape: 16 256 32 32 (4194304)
I0905 01:04:50.383491 73306 net.cpp:157] Top shape: 16 256 32 32 (4194304)
I0905 01:04:50.383496 73306 net.cpp:165] Memory required for data: 2578186304
I0905 01:04:50.383504 73306 layer_factory.hpp:77] Creating layer BatchNorm22
I0905 01:04:50.383513 73306 net.cpp:100] Creating Layer BatchNorm22
I0905 01:04:50.383520 73306 net.cpp:434] BatchNorm22 <- Concat20_Concat20_0_split_0
I0905 01:04:50.383532 73306 net.cpp:408] BatchNorm22 -> BatchNorm22
I0905 01:04:50.383702 73306 net.cpp:150] Setting up BatchNorm22
I0905 01:04:50.383715 73306 net.cpp:157] Top shape: 16 256 32 32 (4194304)
I0905 01:04:50.383725 73306 net.cpp:165] Memory required for data: 2594963520
I0905 01:04:50.383749 73306 layer_factory.hpp:77] Creating layer Scale22
I0905 01:04:50.383764 73306 net.cpp:100] Creating Layer Scale22
I0905 01:04:50.383771 73306 net.cpp:434] Scale22 <- BatchNorm22
I0905 01:04:50.383780 73306 net.cpp:395] Scale22 -> BatchNorm22 (in-place)
I0905 01:04:50.383865 73306 net.cpp:150] Setting up Scale22
I0905 01:04:50.383878 73306 net.cpp:157] Top shape: 16 256 32 32 (4194304)
I0905 01:04:50.383885 73306 net.cpp:165] Memory required for data: 2611740736
I0905 01:04:50.383893 73306 layer_factory.hpp:77] Creating layer ReLU22
I0905 01:04:50.383904 73306 net.cpp:100] Creating Layer ReLU22
I0905 01:04:50.383911 73306 net.cpp:434] ReLU22 <- BatchNorm22
I0905 01:04:50.383921 73306 net.cpp:395] ReLU22 -> BatchNorm22 (in-place)
I0905 01:04:50.384366 73306 net.cpp:150] Setting up ReLU22
I0905 01:04:50.384384 73306 net.cpp:157] Top shape: 16 256 32 32 (4194304)
I0905 01:04:50.384392 73306 net.cpp:165] Memory required for data: 2628517952
I0905 01:04:50.384400 73306 layer_factory.hpp:77] Creating layer Convolution23
I0905 01:04:50.384418 73306 net.cpp:100] Creating Layer Convolution23
I0905 01:04:50.384425 73306 net.cpp:434] Convolution23 <- BatchNorm22
I0905 01:04:50.384438 73306 net.cpp:408] Convolution23 -> Convolution23
I0905 01:04:50.386183 73306 net.cpp:150] Setting up Convolution23
I0905 01:04:50.386203 73306 net.cpp:157] Top shape: 16 12 32 32 (196608)
I0905 01:04:50.386210 73306 net.cpp:165] Memory required for data: 2629304384
I0905 01:04:50.386220 73306 layer_factory.hpp:77] Creating layer Dropout23
I0905 01:04:50.386232 73306 net.cpp:100] Creating Layer Dropout23
I0905 01:04:50.386240 73306 net.cpp:434] Dropout23 <- Convolution23
I0905 01:04:50.386251 73306 net.cpp:408] Dropout23 -> Dropout23
I0905 01:04:50.386298 73306 net.cpp:150] Setting up Dropout23
I0905 01:04:50.386309 73306 net.cpp:157] Top shape: 16 12 32 32 (196608)
I0905 01:04:50.386317 73306 net.cpp:165] Memory required for data: 2630090816
I0905 01:04:50.386324 73306 layer_factory.hpp:77] Creating layer Concat21
I0905 01:04:50.386335 73306 net.cpp:100] Creating Layer Concat21
I0905 01:04:50.386343 73306 net.cpp:434] Concat21 <- Concat20_Concat20_0_split_1
I0905 01:04:50.386350 73306 net.cpp:434] Concat21 <- Dropout23
I0905 01:04:50.386359 73306 net.cpp:408] Concat21 -> Concat21
I0905 01:04:50.386387 73306 net.cpp:150] Setting up Concat21
I0905 01:04:50.386397 73306 net.cpp:157] Top shape: 16 268 32 32 (4390912)
I0905 01:04:50.386404 73306 net.cpp:165] Memory required for data: 2647654464
I0905 01:04:50.386410 73306 layer_factory.hpp:77] Creating layer Concat21_Concat21_0_split
I0905 01:04:50.386420 73306 net.cpp:100] Creating Layer Concat21_Concat21_0_split
I0905 01:04:50.386440 73306 net.cpp:434] Concat21_Concat21_0_split <- Concat21
I0905 01:04:50.386451 73306 net.cpp:408] Concat21_Concat21_0_split -> Concat21_Concat21_0_split_0
I0905 01:04:50.386461 73306 net.cpp:408] Concat21_Concat21_0_split -> Concat21_Concat21_0_split_1
I0905 01:04:50.386500 73306 net.cpp:150] Setting up Concat21_Concat21_0_split
I0905 01:04:50.386513 73306 net.cpp:157] Top shape: 16 268 32 32 (4390912)
I0905 01:04:50.386521 73306 net.cpp:157] Top shape: 16 268 32 32 (4390912)
I0905 01:04:50.386528 73306 net.cpp:165] Memory required for data: 2682781760
I0905 01:04:50.386533 73306 layer_factory.hpp:77] Creating layer BatchNorm23
I0905 01:04:50.386544 73306 net.cpp:100] Creating Layer BatchNorm23
I0905 01:04:50.386551 73306 net.cpp:434] BatchNorm23 <- Concat21_Concat21_0_split_0
I0905 01:04:50.386561 73306 net.cpp:408] BatchNorm23 -> BatchNorm23
I0905 01:04:50.386754 73306 net.cpp:150] Setting up BatchNorm23
I0905 01:04:50.386767 73306 net.cpp:157] Top shape: 16 268 32 32 (4390912)
I0905 01:04:50.386776 73306 net.cpp:165] Memory required for data: 2700345408
I0905 01:04:50.386787 73306 layer_factory.hpp:77] Creating layer Scale23
I0905 01:04:50.386801 73306 net.cpp:100] Creating Layer Scale23
I0905 01:04:50.386808 73306 net.cpp:434] Scale23 <- BatchNorm23
I0905 01:04:50.386817 73306 net.cpp:395] Scale23 -> BatchNorm23 (in-place)
I0905 01:04:50.386905 73306 net.cpp:150] Setting up Scale23
I0905 01:04:50.386919 73306 net.cpp:157] Top shape: 16 268 32 32 (4390912)
I0905 01:04:50.386925 73306 net.cpp:165] Memory required for data: 2717909056
I0905 01:04:50.386934 73306 layer_factory.hpp:77] Creating layer ReLU23
I0905 01:04:50.386947 73306 net.cpp:100] Creating Layer ReLU23
I0905 01:04:50.386955 73306 net.cpp:434] ReLU23 <- BatchNorm23
I0905 01:04:50.386962 73306 net.cpp:395] ReLU23 -> BatchNorm23 (in-place)
I0905 01:04:50.387126 73306 net.cpp:150] Setting up ReLU23
I0905 01:04:50.387142 73306 net.cpp:157] Top shape: 16 268 32 32 (4390912)
I0905 01:04:50.387150 73306 net.cpp:165] Memory required for data: 2735472704
I0905 01:04:50.387156 73306 layer_factory.hpp:77] Creating layer Convolution24
I0905 01:04:50.387171 73306 net.cpp:100] Creating Layer Convolution24
I0905 01:04:50.387178 73306 net.cpp:434] Convolution24 <- BatchNorm23
I0905 01:04:50.387190 73306 net.cpp:408] Convolution24 -> Convolution24
I0905 01:04:50.388957 73306 net.cpp:150] Setting up Convolution24
I0905 01:04:50.388978 73306 net.cpp:157] Top shape: 16 12 32 32 (196608)
I0905 01:04:50.388985 73306 net.cpp:165] Memory required for data: 2736259136
I0905 01:04:50.388995 73306 layer_factory.hpp:77] Creating layer Dropout24
I0905 01:04:50.389009 73306 net.cpp:100] Creating Layer Dropout24
I0905 01:04:50.389017 73306 net.cpp:434] Dropout24 <- Convolution24
I0905 01:04:50.389026 73306 net.cpp:408] Dropout24 -> Dropout24
I0905 01:04:50.389078 73306 net.cpp:150] Setting up Dropout24
I0905 01:04:50.389089 73306 net.cpp:157] Top shape: 16 12 32 32 (196608)
I0905 01:04:50.389096 73306 net.cpp:165] Memory required for data: 2737045568
I0905 01:04:50.389104 73306 layer_factory.hpp:77] Creating layer Concat22
I0905 01:04:50.389114 73306 net.cpp:100] Creating Layer Concat22
I0905 01:04:50.389122 73306 net.cpp:434] Concat22 <- Concat21_Concat21_0_split_1
I0905 01:04:50.389129 73306 net.cpp:434] Concat22 <- Dropout24
I0905 01:04:50.389140 73306 net.cpp:408] Concat22 -> Concat22
I0905 01:04:50.389168 73306 net.cpp:150] Setting up Concat22
I0905 01:04:50.389178 73306 net.cpp:157] Top shape: 16 280 32 32 (4587520)
I0905 01:04:50.389184 73306 net.cpp:165] Memory required for data: 2755395648
I0905 01:04:50.389191 73306 layer_factory.hpp:77] Creating layer Concat22_Concat22_0_split
I0905 01:04:50.389201 73306 net.cpp:100] Creating Layer Concat22_Concat22_0_split
I0905 01:04:50.389209 73306 net.cpp:434] Concat22_Concat22_0_split <- Concat22
I0905 01:04:50.389217 73306 net.cpp:408] Concat22_Concat22_0_split -> Concat22_Concat22_0_split_0
I0905 01:04:50.389228 73306 net.cpp:408] Concat22_Concat22_0_split -> Concat22_Concat22_0_split_1
I0905 01:04:50.389267 73306 net.cpp:150] Setting up Concat22_Concat22_0_split
I0905 01:04:50.389289 73306 net.cpp:157] Top shape: 16 280 32 32 (4587520)
I0905 01:04:50.389297 73306 net.cpp:157] Top shape: 16 280 32 32 (4587520)
I0905 01:04:50.389303 73306 net.cpp:165] Memory required for data: 2792095808
I0905 01:04:50.389310 73306 layer_factory.hpp:77] Creating layer BatchNorm24
I0905 01:04:50.389322 73306 net.cpp:100] Creating Layer BatchNorm24
I0905 01:04:50.389330 73306 net.cpp:434] BatchNorm24 <- Concat22_Concat22_0_split_0
I0905 01:04:50.389339 73306 net.cpp:408] BatchNorm24 -> BatchNorm24
I0905 01:04:50.389529 73306 net.cpp:150] Setting up BatchNorm24
I0905 01:04:50.389544 73306 net.cpp:157] Top shape: 16 280 32 32 (4587520)
I0905 01:04:50.389552 73306 net.cpp:165] Memory required for data: 2810445888
I0905 01:04:50.389564 73306 layer_factory.hpp:77] Creating layer Scale24
I0905 01:04:50.389575 73306 net.cpp:100] Creating Layer Scale24
I0905 01:04:50.389582 73306 net.cpp:434] Scale24 <- BatchNorm24
I0905 01:04:50.389590 73306 net.cpp:395] Scale24 -> BatchNorm24 (in-place)
I0905 01:04:50.389683 73306 net.cpp:150] Setting up Scale24
I0905 01:04:50.389695 73306 net.cpp:157] Top shape: 16 280 32 32 (4587520)
I0905 01:04:50.389704 73306 net.cpp:165] Memory required for data: 2828795968
I0905 01:04:50.389714 73306 layer_factory.hpp:77] Creating layer ReLU24
I0905 01:04:50.389724 73306 net.cpp:100] Creating Layer ReLU24
I0905 01:04:50.389731 73306 net.cpp:434] ReLU24 <- BatchNorm24
I0905 01:04:50.389750 73306 net.cpp:395] ReLU24 -> BatchNorm24 (in-place)
I0905 01:04:50.390058 73306 net.cpp:150] Setting up ReLU24
I0905 01:04:50.390075 73306 net.cpp:157] Top shape: 16 280 32 32 (4587520)
I0905 01:04:50.390084 73306 net.cpp:165] Memory required for data: 2847146048
I0905 01:04:50.390090 73306 layer_factory.hpp:77] Creating layer Convolution25
I0905 01:04:50.390105 73306 net.cpp:100] Creating Layer Convolution25
I0905 01:04:50.390113 73306 net.cpp:434] Convolution25 <- BatchNorm24
I0905 01:04:50.390125 73306 net.cpp:408] Convolution25 -> Convolution25
I0905 01:04:50.392345 73306 net.cpp:150] Setting up Convolution25
I0905 01:04:50.392366 73306 net.cpp:157] Top shape: 16 12 32 32 (196608)
I0905 01:04:50.392375 73306 net.cpp:165] Memory required for data: 2847932480
I0905 01:04:50.392385 73306 layer_factory.hpp:77] Creating layer Dropout25
I0905 01:04:50.392398 73306 net.cpp:100] Creating Layer Dropout25
I0905 01:04:50.392406 73306 net.cpp:434] Dropout25 <- Convolution25
I0905 01:04:50.392416 73306 net.cpp:408] Dropout25 -> Dropout25
I0905 01:04:50.392473 73306 net.cpp:150] Setting up Dropout25
I0905 01:04:50.392484 73306 net.cpp:157] Top shape: 16 12 32 32 (196608)
I0905 01:04:50.392495 73306 net.cpp:165] Memory required for data: 2848718912
I0905 01:04:50.392501 73306 layer_factory.hpp:77] Creating layer Concat23
I0905 01:04:50.392511 73306 net.cpp:100] Creating Layer Concat23
I0905 01:04:50.392519 73306 net.cpp:434] Concat23 <- Concat22_Concat22_0_split_1
I0905 01:04:50.392527 73306 net.cpp:434] Concat23 <- Dropout25
I0905 01:04:50.392539 73306 net.cpp:408] Concat23 -> Concat23
I0905 01:04:50.392565 73306 net.cpp:150] Setting up Concat23
I0905 01:04:50.392575 73306 net.cpp:157] Top shape: 16 292 32 32 (4784128)
I0905 01:04:50.392582 73306 net.cpp:165] Memory required for data: 2867855424
I0905 01:04:50.392590 73306 layer_factory.hpp:77] Creating layer Concat23_Concat23_0_split
I0905 01:04:50.392601 73306 net.cpp:100] Creating Layer Concat23_Concat23_0_split
I0905 01:04:50.392608 73306 net.cpp:434] Concat23_Concat23_0_split <- Concat23
I0905 01:04:50.392617 73306 net.cpp:408] Concat23_Concat23_0_split -> Concat23_Concat23_0_split_0
I0905 01:04:50.392628 73306 net.cpp:408] Concat23_Concat23_0_split -> Concat23_Concat23_0_split_1
I0905 01:04:50.392665 73306 net.cpp:150] Setting up Concat23_Concat23_0_split
I0905 01:04:50.392676 73306 net.cpp:157] Top shape: 16 292 32 32 (4784128)
I0905 01:04:50.392683 73306 net.cpp:157] Top shape: 16 292 32 32 (4784128)
I0905 01:04:50.392690 73306 net.cpp:165] Memory required for data: 2906128448
I0905 01:04:50.392709 73306 layer_factory.hpp:77] Creating layer BatchNorm25
I0905 01:04:50.392720 73306 net.cpp:100] Creating Layer BatchNorm25
I0905 01:04:50.392729 73306 net.cpp:434] BatchNorm25 <- Concat23_Concat23_0_split_0
I0905 01:04:50.392736 73306 net.cpp:408] BatchNorm25 -> BatchNorm25
I0905 01:04:50.392930 73306 net.cpp:150] Setting up BatchNorm25
I0905 01:04:50.392945 73306 net.cpp:157] Top shape: 16 292 32 32 (4784128)
I0905 01:04:50.392952 73306 net.cpp:165] Memory required for data: 2925264960
I0905 01:04:50.392962 73306 layer_factory.hpp:77] Creating layer Scale25
I0905 01:04:50.392976 73306 net.cpp:100] Creating Layer Scale25
I0905 01:04:50.392982 73306 net.cpp:434] Scale25 <- BatchNorm25
I0905 01:04:50.392992 73306 net.cpp:395] Scale25 -> BatchNorm25 (in-place)
I0905 01:04:50.393085 73306 net.cpp:150] Setting up Scale25
I0905 01:04:50.393098 73306 net.cpp:157] Top shape: 16 292 32 32 (4784128)
I0905 01:04:50.393108 73306 net.cpp:165] Memory required for data: 2944401472
I0905 01:04:50.393116 73306 layer_factory.hpp:77] Creating layer ReLU25
I0905 01:04:50.393127 73306 net.cpp:100] Creating Layer ReLU25
I0905 01:04:50.393134 73306 net.cpp:434] ReLU25 <- BatchNorm25
I0905 01:04:50.393144 73306 net.cpp:395] ReLU25 -> BatchNorm25 (in-place)
I0905 01:04:50.393435 73306 net.cpp:150] Setting up ReLU25
I0905 01:04:50.393452 73306 net.cpp:157] Top shape: 16 292 32 32 (4784128)
I0905 01:04:50.393460 73306 net.cpp:165] Memory required for data: 2963537984
I0905 01:04:50.393470 73306 layer_factory.hpp:77] Creating layer Convolution26
I0905 01:04:50.393486 73306 net.cpp:100] Creating Layer Convolution26
I0905 01:04:50.393493 73306 net.cpp:434] Convolution26 <- BatchNorm25
I0905 01:04:50.393503 73306 net.cpp:408] Convolution26 -> Convolution26
I0905 01:04:50.395357 73306 net.cpp:150] Setting up Convolution26
I0905 01:04:50.395376 73306 net.cpp:157] Top shape: 16 12 32 32 (196608)
I0905 01:04:50.395385 73306 net.cpp:165] Memory required for data: 2964324416
I0905 01:04:50.395395 73306 layer_factory.hpp:77] Creating layer Dropout26
I0905 01:04:50.395407 73306 net.cpp:100] Creating Layer Dropout26
I0905 01:04:50.395416 73306 net.cpp:434] Dropout26 <- Convolution26
I0905 01:04:50.395424 73306 net.cpp:408] Dropout26 -> Dropout26
I0905 01:04:50.395472 73306 net.cpp:150] Setting up Dropout26
I0905 01:04:50.395483 73306 net.cpp:157] Top shape: 16 12 32 32 (196608)
I0905 01:04:50.395489 73306 net.cpp:165] Memory required for data: 2965110848
I0905 01:04:50.395498 73306 layer_factory.hpp:77] Creating layer Concat24
I0905 01:04:50.395508 73306 net.cpp:100] Creating Layer Concat24
I0905 01:04:50.395515 73306 net.cpp:434] Concat24 <- Concat23_Concat23_0_split_1
I0905 01:04:50.395522 73306 net.cpp:434] Concat24 <- Dropout26
I0905 01:04:50.395535 73306 net.cpp:408] Concat24 -> Concat24
I0905 01:04:50.395566 73306 net.cpp:150] Setting up Concat24
I0905 01:04:50.395576 73306 net.cpp:157] Top shape: 16 304 32 32 (4980736)
I0905 01:04:50.395583 73306 net.cpp:165] Memory required for data: 2985033792
I0905 01:04:50.395591 73306 layer_factory.hpp:77] Creating layer BatchNorm26
I0905 01:04:50.395604 73306 net.cpp:100] Creating Layer BatchNorm26
I0905 01:04:50.395612 73306 net.cpp:434] BatchNorm26 <- Concat24
I0905 01:04:50.395620 73306 net.cpp:408] BatchNorm26 -> BatchNorm26
I0905 01:04:50.395815 73306 net.cpp:150] Setting up BatchNorm26
I0905 01:04:50.395828 73306 net.cpp:157] Top shape: 16 304 32 32 (4980736)
I0905 01:04:50.395838 73306 net.cpp:165] Memory required for data: 3004956736
I0905 01:04:50.395849 73306 layer_factory.hpp:77] Creating layer Scale26
I0905 01:04:50.395862 73306 net.cpp:100] Creating Layer Scale26
I0905 01:04:50.395869 73306 net.cpp:434] Scale26 <- BatchNorm26
I0905 01:04:50.395877 73306 net.cpp:395] Scale26 -> BatchNorm26 (in-place)
I0905 01:04:50.395970 73306 net.cpp:150] Setting up Scale26
I0905 01:04:50.395983 73306 net.cpp:157] Top shape: 16 304 32 32 (4980736)
I0905 01:04:50.395990 73306 net.cpp:165] Memory required for data: 3024879680
I0905 01:04:50.395998 73306 layer_factory.hpp:77] Creating layer ReLU26
I0905 01:04:50.396019 73306 net.cpp:100] Creating Layer ReLU26
I0905 01:04:50.396028 73306 net.cpp:434] ReLU26 <- BatchNorm26
I0905 01:04:50.396037 73306 net.cpp:395] ReLU26 -> BatchNorm26 (in-place)
I0905 01:04:50.396214 73306 net.cpp:150] Setting up ReLU26
I0905 01:04:50.396229 73306 net.cpp:157] Top shape: 16 304 32 32 (4980736)
I0905 01:04:50.396236 73306 net.cpp:165] Memory required for data: 3044802624
I0905 01:04:50.396244 73306 layer_factory.hpp:77] Creating layer Convolution27
I0905 01:04:50.396260 73306 net.cpp:100] Creating Layer Convolution27
I0905 01:04:50.396267 73306 net.cpp:434] Convolution27 <- BatchNorm26
I0905 01:04:50.396278 73306 net.cpp:408] Convolution27 -> Convolution27
I0905 01:04:50.400319 73306 net.cpp:150] Setting up Convolution27
I0905 01:04:50.400339 73306 net.cpp:157] Top shape: 16 304 32 32 (4980736)
I0905 01:04:50.400353 73306 net.cpp:165] Memory required for data: 3064725568
I0905 01:04:50.400364 73306 layer_factory.hpp:77] Creating layer Dropout27
I0905 01:04:50.400374 73306 net.cpp:100] Creating Layer Dropout27
I0905 01:04:50.400382 73306 net.cpp:434] Dropout27 <- Convolution27
I0905 01:04:50.400391 73306 net.cpp:408] Dropout27 -> Dropout27
I0905 01:04:50.400439 73306 net.cpp:150] Setting up Dropout27
I0905 01:04:50.400451 73306 net.cpp:157] Top shape: 16 304 32 32 (4980736)
I0905 01:04:50.400459 73306 net.cpp:165] Memory required for data: 3084648512
I0905 01:04:50.400466 73306 layer_factory.hpp:77] Creating layer Pooling2
I0905 01:04:50.400476 73306 net.cpp:100] Creating Layer Pooling2
I0905 01:04:50.400485 73306 net.cpp:434] Pooling2 <- Dropout27
I0905 01:04:50.400496 73306 net.cpp:408] Pooling2 -> Pooling2
I0905 01:04:50.400807 73306 net.cpp:150] Setting up Pooling2
I0905 01:04:50.400826 73306 net.cpp:157] Top shape: 16 304 16 16 (1245184)
I0905 01:04:50.400835 73306 net.cpp:165] Memory required for data: 3089629248
I0905 01:04:50.400842 73306 layer_factory.hpp:77] Creating layer Pooling2_Pooling2_0_split
I0905 01:04:50.400853 73306 net.cpp:100] Creating Layer Pooling2_Pooling2_0_split
I0905 01:04:50.400861 73306 net.cpp:434] Pooling2_Pooling2_0_split <- Pooling2
I0905 01:04:50.400869 73306 net.cpp:408] Pooling2_Pooling2_0_split -> Pooling2_Pooling2_0_split_0
I0905 01:04:50.400879 73306 net.cpp:408] Pooling2_Pooling2_0_split -> Pooling2_Pooling2_0_split_1
I0905 01:04:50.400928 73306 net.cpp:150] Setting up Pooling2_Pooling2_0_split
I0905 01:04:50.400938 73306 net.cpp:157] Top shape: 16 304 16 16 (1245184)
I0905 01:04:50.400946 73306 net.cpp:157] Top shape: 16 304 16 16 (1245184)
I0905 01:04:50.400957 73306 net.cpp:165] Memory required for data: 3099590720
I0905 01:04:50.400964 73306 layer_factory.hpp:77] Creating layer BatchNorm27
I0905 01:04:50.400985 73306 net.cpp:100] Creating Layer BatchNorm27
I0905 01:04:50.400991 73306 net.cpp:434] BatchNorm27 <- Pooling2_Pooling2_0_split_0
I0905 01:04:50.401000 73306 net.cpp:408] BatchNorm27 -> BatchNorm27
I0905 01:04:50.401198 73306 net.cpp:150] Setting up BatchNorm27
I0905 01:04:50.401211 73306 net.cpp:157] Top shape: 16 304 16 16 (1245184)
I0905 01:04:50.401221 73306 net.cpp:165] Memory required for data: 3104571456
I0905 01:04:50.401240 73306 layer_factory.hpp:77] Creating layer Scale27
I0905 01:04:50.401257 73306 net.cpp:100] Creating Layer Scale27
I0905 01:04:50.401265 73306 net.cpp:434] Scale27 <- BatchNorm27
I0905 01:04:50.401273 73306 net.cpp:395] Scale27 -> BatchNorm27 (in-place)
I0905 01:04:50.401371 73306 net.cpp:150] Setting up Scale27
I0905 01:04:50.401383 73306 net.cpp:157] Top shape: 16 304 16 16 (1245184)
I0905 01:04:50.401393 73306 net.cpp:165] Memory required for data: 3109552192
I0905 01:04:50.401402 73306 layer_factory.hpp:77] Creating layer ReLU27
I0905 01:04:50.401412 73306 net.cpp:100] Creating Layer ReLU27
I0905 01:04:50.401419 73306 net.cpp:434] ReLU27 <- BatchNorm27
I0905 01:04:50.401428 73306 net.cpp:395] ReLU27 -> BatchNorm27 (in-place)
I0905 01:04:50.401590 73306 net.cpp:150] Setting up ReLU27
I0905 01:04:50.401613 73306 net.cpp:157] Top shape: 16 304 16 16 (1245184)
I0905 01:04:50.401620 73306 net.cpp:165] Memory required for data: 3114532928
I0905 01:04:50.401640 73306 layer_factory.hpp:77] Creating layer Convolution28
I0905 01:04:50.401660 73306 net.cpp:100] Creating Layer Convolution28
I0905 01:04:50.401669 73306 net.cpp:434] Convolution28 <- BatchNorm27
I0905 01:04:50.401680 73306 net.cpp:408] Convolution28 -> Convolution28
I0905 01:04:50.403578 73306 net.cpp:150] Setting up Convolution28
I0905 01:04:50.403599 73306 net.cpp:157] Top shape: 16 12 16 16 (49152)
I0905 01:04:50.403606 73306 net.cpp:165] Memory required for data: 3114729536
I0905 01:04:50.403617 73306 layer_factory.hpp:77] Creating layer Dropout28
I0905 01:04:50.403630 73306 net.cpp:100] Creating Layer Dropout28
I0905 01:04:50.403637 73306 net.cpp:434] Dropout28 <- Convolution28
I0905 01:04:50.403646 73306 net.cpp:408] Dropout28 -> Dropout28
I0905 01:04:50.403688 73306 net.cpp:150] Setting up Dropout28
I0905 01:04:50.403700 73306 net.cpp:157] Top shape: 16 12 16 16 (49152)
I0905 01:04:50.403707 73306 net.cpp:165] Memory required for data: 3114926144
I0905 01:04:50.403713 73306 layer_factory.hpp:77] Creating layer Concat25
I0905 01:04:50.403724 73306 net.cpp:100] Creating Layer Concat25
I0905 01:04:50.403735 73306 net.cpp:434] Concat25 <- Pooling2_Pooling2_0_split_1
I0905 01:04:50.403743 73306 net.cpp:434] Concat25 <- Dropout28
I0905 01:04:50.403753 73306 net.cpp:408] Concat25 -> Concat25
I0905 01:04:50.403780 73306 net.cpp:150] Setting up Concat25
I0905 01:04:50.403790 73306 net.cpp:157] Top shape: 16 316 16 16 (1294336)
I0905 01:04:50.403796 73306 net.cpp:165] Memory required for data: 3120103488
I0905 01:04:50.403812 73306 layer_factory.hpp:77] Creating layer Concat25_Concat25_0_split
I0905 01:04:50.403828 73306 net.cpp:100] Creating Layer Concat25_Concat25_0_split
I0905 01:04:50.403836 73306 net.cpp:434] Concat25_Concat25_0_split <- Concat25
I0905 01:04:50.403844 73306 net.cpp:408] Concat25_Concat25_0_split -> Concat25_Concat25_0_split_0
I0905 01:04:50.403853 73306 net.cpp:408] Concat25_Concat25_0_split -> Concat25_Concat25_0_split_1
I0905 01:04:50.403897 73306 net.cpp:150] Setting up Concat25_Concat25_0_split
I0905 01:04:50.403908 73306 net.cpp:157] Top shape: 16 316 16 16 (1294336)
I0905 01:04:50.403923 73306 net.cpp:157] Top shape: 16 316 16 16 (1294336)
I0905 01:04:50.403930 73306 net.cpp:165] Memory required for data: 3130458176
I0905 01:04:50.403944 73306 layer_factory.hpp:77] Creating layer BatchNorm28
I0905 01:04:50.403956 73306 net.cpp:100] Creating Layer BatchNorm28
I0905 01:04:50.403964 73306 net.cpp:434] BatchNorm28 <- Concat25_Concat25_0_split_0
I0905 01:04:50.403973 73306 net.cpp:408] BatchNorm28 -> BatchNorm28
I0905 01:04:50.404165 73306 net.cpp:150] Setting up BatchNorm28
I0905 01:04:50.404177 73306 net.cpp:157] Top shape: 16 316 16 16 (1294336)
I0905 01:04:50.404183 73306 net.cpp:165] Memory required for data: 3135635520
I0905 01:04:50.404197 73306 layer_factory.hpp:77] Creating layer Scale28
I0905 01:04:50.404209 73306 net.cpp:100] Creating Layer Scale28
I0905 01:04:50.404217 73306 net.cpp:434] Scale28 <- BatchNorm28
I0905 01:04:50.404227 73306 net.cpp:395] Scale28 -> BatchNorm28 (in-place)
I0905 01:04:50.404323 73306 net.cpp:150] Setting up Scale28
I0905 01:04:50.404335 73306 net.cpp:157] Top shape: 16 316 16 16 (1294336)
I0905 01:04:50.404342 73306 net.cpp:165] Memory required for data: 3140812864
I0905 01:04:50.404350 73306 layer_factory.hpp:77] Creating layer ReLU28
I0905 01:04:50.404361 73306 net.cpp:100] Creating Layer ReLU28
I0905 01:04:50.404367 73306 net.cpp:434] ReLU28 <- BatchNorm28
I0905 01:04:50.404376 73306 net.cpp:395] ReLU28 -> BatchNorm28 (in-place)
I0905 01:04:50.404680 73306 net.cpp:150] Setting up ReLU28
I0905 01:04:50.404700 73306 net.cpp:157] Top shape: 16 316 16 16 (1294336)
I0905 01:04:50.404708 73306 net.cpp:165] Memory required for data: 3145990208
I0905 01:04:50.404716 73306 layer_factory.hpp:77] Creating layer Convolution29
I0905 01:04:50.404733 73306 net.cpp:100] Creating Layer Convolution29
I0905 01:04:50.404742 73306 net.cpp:434] Convolution29 <- BatchNorm28
I0905 01:04:50.404752 73306 net.cpp:408] Convolution29 -> Convolution29
I0905 01:04:50.406744 73306 net.cpp:150] Setting up Convolution29
I0905 01:04:50.406764 73306 net.cpp:157] Top shape: 16 12 16 16 (49152)
I0905 01:04:50.406771 73306 net.cpp:165] Memory required for data: 3146186816
I0905 01:04:50.406782 73306 layer_factory.hpp:77] Creating layer Dropout29
I0905 01:04:50.406795 73306 net.cpp:100] Creating Layer Dropout29
I0905 01:04:50.406803 73306 net.cpp:434] Dropout29 <- Convolution29
I0905 01:04:50.406812 73306 net.cpp:408] Dropout29 -> Dropout29
I0905 01:04:50.406857 73306 net.cpp:150] Setting up Dropout29
I0905 01:04:50.406867 73306 net.cpp:157] Top shape: 16 12 16 16 (49152)
I0905 01:04:50.406874 73306 net.cpp:165] Memory required for data: 3146383424
I0905 01:04:50.406882 73306 layer_factory.hpp:77] Creating layer Concat26
I0905 01:04:50.406890 73306 net.cpp:100] Creating Layer Concat26
I0905 01:04:50.406898 73306 net.cpp:434] Concat26 <- Concat25_Concat25_0_split_1
I0905 01:04:50.406905 73306 net.cpp:434] Concat26 <- Dropout29
I0905 01:04:50.406913 73306 net.cpp:408] Concat26 -> Concat26
I0905 01:04:50.406942 73306 net.cpp:150] Setting up Concat26
I0905 01:04:50.406954 73306 net.cpp:157] Top shape: 16 328 16 16 (1343488)
I0905 01:04:50.406960 73306 net.cpp:165] Memory required for data: 3151757376
I0905 01:04:50.406966 73306 layer_factory.hpp:77] Creating layer Concat26_Concat26_0_split
I0905 01:04:50.406977 73306 net.cpp:100] Creating Layer Concat26_Concat26_0_split
I0905 01:04:50.406985 73306 net.cpp:434] Concat26_Concat26_0_split <- Concat26
I0905 01:04:50.406992 73306 net.cpp:408] Concat26_Concat26_0_split -> Concat26_Concat26_0_split_0
I0905 01:04:50.407001 73306 net.cpp:408] Concat26_Concat26_0_split -> Concat26_Concat26_0_split_1
I0905 01:04:50.407047 73306 net.cpp:150] Setting up Concat26_Concat26_0_split
I0905 01:04:50.407058 73306 net.cpp:157] Top shape: 16 328 16 16 (1343488)
I0905 01:04:50.407064 73306 net.cpp:157] Top shape: 16 328 16 16 (1343488)
I0905 01:04:50.407071 73306 net.cpp:165] Memory required for data: 3162505280
I0905 01:04:50.407078 73306 layer_factory.hpp:77] Creating layer BatchNorm29
I0905 01:04:50.407088 73306 net.cpp:100] Creating Layer BatchNorm29
I0905 01:04:50.407094 73306 net.cpp:434] BatchNorm29 <- Concat26_Concat26_0_split_0
I0905 01:04:50.407105 73306 net.cpp:408] BatchNorm29 -> BatchNorm29
I0905 01:04:50.407313 73306 net.cpp:150] Setting up BatchNorm29
I0905 01:04:50.407333 73306 net.cpp:157] Top shape: 16 328 16 16 (1343488)
I0905 01:04:50.407341 73306 net.cpp:165] Memory required for data: 3167879232
I0905 01:04:50.407352 73306 layer_factory.hpp:77] Creating layer Scale29
I0905 01:04:50.407362 73306 net.cpp:100] Creating Layer Scale29
I0905 01:04:50.407369 73306 net.cpp:434] Scale29 <- BatchNorm29
I0905 01:04:50.407377 73306 net.cpp:395] Scale29 -> BatchNorm29 (in-place)
I0905 01:04:50.407471 73306 net.cpp:150] Setting up Scale29
I0905 01:04:50.407485 73306 net.cpp:157] Top shape: 16 328 16 16 (1343488)
I0905 01:04:50.407495 73306 net.cpp:165] Memory required for data: 3173253184
I0905 01:04:50.407502 73306 layer_factory.hpp:77] Creating layer ReLU29
I0905 01:04:50.407517 73306 net.cpp:100] Creating Layer ReLU29
I0905 01:04:50.407524 73306 net.cpp:434] ReLU29 <- BatchNorm29
I0905 01:04:50.407542 73306 net.cpp:395] ReLU29 -> BatchNorm29 (in-place)
I0905 01:04:50.407847 73306 net.cpp:150] Setting up ReLU29
I0905 01:04:50.407866 73306 net.cpp:157] Top shape: 16 328 16 16 (1343488)
I0905 01:04:50.407876 73306 net.cpp:165] Memory required for data: 3178627136
I0905 01:04:50.407884 73306 layer_factory.hpp:77] Creating layer Convolution30
I0905 01:04:50.407897 73306 net.cpp:100] Creating Layer Convolution30
I0905 01:04:50.407905 73306 net.cpp:434] Convolution30 <- BatchNorm29
I0905 01:04:50.407917 73306 net.cpp:408] Convolution30 -> Convolution30
I0905 01:04:50.412047 73306 net.cpp:150] Setting up Convolution30
I0905 01:04:50.412070 73306 net.cpp:157] Top shape: 16 12 16 16 (49152)
I0905 01:04:50.412078 73306 net.cpp:165] Memory required for data: 3178823744
I0905 01:04:50.412089 73306 layer_factory.hpp:77] Creating layer Dropout30
I0905 01:04:50.412116 73306 net.cpp:100] Creating Layer Dropout30
I0905 01:04:50.412124 73306 net.cpp:434] Dropout30 <- Convolution30
I0905 01:04:50.412139 73306 net.cpp:408] Dropout30 -> Dropout30
I0905 01:04:50.412185 73306 net.cpp:150] Setting up Dropout30
I0905 01:04:50.412197 73306 net.cpp:157] Top shape: 16 12 16 16 (49152)
I0905 01:04:50.412206 73306 net.cpp:165] Memory required for data: 3179020352
I0905 01:04:50.412214 73306 layer_factory.hpp:77] Creating layer Concat27
I0905 01:04:50.412225 73306 net.cpp:100] Creating Layer Concat27
I0905 01:04:50.412233 73306 net.cpp:434] Concat27 <- Concat26_Concat26_0_split_1
I0905 01:04:50.412243 73306 net.cpp:434] Concat27 <- Dropout30
I0905 01:04:50.412253 73306 net.cpp:408] Concat27 -> Concat27
I0905 01:04:50.412281 73306 net.cpp:150] Setting up Concat27
I0905 01:04:50.412294 73306 net.cpp:157] Top shape: 16 340 16 16 (1392640)
I0905 01:04:50.412302 73306 net.cpp:165] Memory required for data: 3184590912
I0905 01:04:50.412309 73306 layer_factory.hpp:77] Creating layer Concat27_Concat27_0_split
I0905 01:04:50.412318 73306 net.cpp:100] Creating Layer Concat27_Concat27_0_split
I0905 01:04:50.412325 73306 net.cpp:434] Concat27_Concat27_0_split <- Concat27
I0905 01:04:50.412333 73306 net.cpp:408] Concat27_Concat27_0_split -> Concat27_Concat27_0_split_0
I0905 01:04:50.412343 73306 net.cpp:408] Concat27_Concat27_0_split -> Concat27_Concat27_0_split_1
I0905 01:04:50.412384 73306 net.cpp:150] Setting up Concat27_Concat27_0_split
I0905 01:04:50.412395 73306 net.cpp:157] Top shape: 16 340 16 16 (1392640)
I0905 01:04:50.412402 73306 net.cpp:157] Top shape: 16 340 16 16 (1392640)
I0905 01:04:50.412408 73306 net.cpp:165] Memory required for data: 3195732032
I0905 01:04:50.412415 73306 layer_factory.hpp:77] Creating layer BatchNorm30
I0905 01:04:50.412425 73306 net.cpp:100] Creating Layer BatchNorm30
I0905 01:04:50.412432 73306 net.cpp:434] BatchNorm30 <- Concat27_Concat27_0_split_0
I0905 01:04:50.412441 73306 net.cpp:408] BatchNorm30 -> BatchNorm30
I0905 01:04:50.412643 73306 net.cpp:150] Setting up BatchNorm30
I0905 01:04:50.412658 73306 net.cpp:157] Top shape: 16 340 16 16 (1392640)
I0905 01:04:50.412667 73306 net.cpp:165] Memory required for data: 3201302592
I0905 01:04:50.412678 73306 layer_factory.hpp:77] Creating layer Scale30
I0905 01:04:50.412689 73306 net.cpp:100] Creating Layer Scale30
I0905 01:04:50.412696 73306 net.cpp:434] Scale30 <- BatchNorm30
I0905 01:04:50.412705 73306 net.cpp:395] Scale30 -> BatchNorm30 (in-place)
I0905 01:04:50.412806 73306 net.cpp:150] Setting up Scale30
I0905 01:04:50.412819 73306 net.cpp:157] Top shape: 16 340 16 16 (1392640)
I0905 01:04:50.412827 73306 net.cpp:165] Memory required for data: 3206873152
I0905 01:04:50.412835 73306 layer_factory.hpp:77] Creating layer ReLU30
I0905 01:04:50.412848 73306 net.cpp:100] Creating Layer ReLU30
I0905 01:04:50.412855 73306 net.cpp:434] ReLU30 <- BatchNorm30
I0905 01:04:50.412863 73306 net.cpp:395] ReLU30 -> BatchNorm30 (in-place)
I0905 01:04:50.413030 73306 net.cpp:150] Setting up ReLU30
I0905 01:04:50.413051 73306 net.cpp:157] Top shape: 16 340 16 16 (1392640)
I0905 01:04:50.413058 73306 net.cpp:165] Memory required for data: 3212443712
I0905 01:04:50.413065 73306 layer_factory.hpp:77] Creating layer Convolution31
I0905 01:04:50.413080 73306 net.cpp:100] Creating Layer Convolution31
I0905 01:04:50.413089 73306 net.cpp:434] Convolution31 <- BatchNorm30
I0905 01:04:50.413097 73306 net.cpp:408] Convolution31 -> Convolution31
I0905 01:04:50.419018 73306 net.cpp:150] Setting up Convolution31
I0905 01:04:50.419040 73306 net.cpp:157] Top shape: 16 12 16 16 (49152)
I0905 01:04:50.419052 73306 net.cpp:165] Memory required for data: 3212640320
I0905 01:04:50.419062 73306 layer_factory.hpp:77] Creating layer Dropout31
I0905 01:04:50.419073 73306 net.cpp:100] Creating Layer Dropout31
I0905 01:04:50.419081 73306 net.cpp:434] Dropout31 <- Convolution31
I0905 01:04:50.419090 73306 net.cpp:408] Dropout31 -> Dropout31
I0905 01:04:50.419136 73306 net.cpp:150] Setting up Dropout31
I0905 01:04:50.419147 73306 net.cpp:157] Top shape: 16 12 16 16 (49152)
I0905 01:04:50.419169 73306 net.cpp:165] Memory required for data: 3212836928
I0905 01:04:50.419176 73306 layer_factory.hpp:77] Creating layer Concat28
I0905 01:04:50.419189 73306 net.cpp:100] Creating Layer Concat28
I0905 01:04:50.419198 73306 net.cpp:434] Concat28 <- Concat27_Concat27_0_split_1
I0905 01:04:50.419205 73306 net.cpp:434] Concat28 <- Dropout31
I0905 01:04:50.419215 73306 net.cpp:408] Concat28 -> Concat28
I0905 01:04:50.419247 73306 net.cpp:150] Setting up Concat28
I0905 01:04:50.419260 73306 net.cpp:157] Top shape: 16 352 16 16 (1441792)
I0905 01:04:50.419266 73306 net.cpp:165] Memory required for data: 3218604096
I0905 01:04:50.419273 73306 layer_factory.hpp:77] Creating layer Concat28_Concat28_0_split
I0905 01:04:50.419282 73306 net.cpp:100] Creating Layer Concat28_Concat28_0_split
I0905 01:04:50.419298 73306 net.cpp:434] Concat28_Concat28_0_split <- Concat28
I0905 01:04:50.419306 73306 net.cpp:408] Concat28_Concat28_0_split -> Concat28_Concat28_0_split_0
I0905 01:04:50.419315 73306 net.cpp:408] Concat28_Concat28_0_split -> Concat28_Concat28_0_split_1
I0905 01:04:50.419355 73306 net.cpp:150] Setting up Concat28_Concat28_0_split
I0905 01:04:50.419365 73306 net.cpp:157] Top shape: 16 352 16 16 (1441792)
I0905 01:04:50.419373 73306 net.cpp:157] Top shape: 16 352 16 16 (1441792)
I0905 01:04:50.419383 73306 net.cpp:165] Memory required for data: 3230138432
I0905 01:04:50.419389 73306 layer_factory.hpp:77] Creating layer BatchNorm31
I0905 01:04:50.419400 73306 net.cpp:100] Creating Layer BatchNorm31
I0905 01:04:50.419407 73306 net.cpp:434] BatchNorm31 <- Concat28_Concat28_0_split_0
I0905 01:04:50.419416 73306 net.cpp:408] BatchNorm31 -> BatchNorm31
I0905 01:04:50.419617 73306 net.cpp:150] Setting up BatchNorm31
I0905 01:04:50.419632 73306 net.cpp:157] Top shape: 16 352 16 16 (1441792)
I0905 01:04:50.419643 73306 net.cpp:165] Memory required for data: 3235905600
I0905 01:04:50.419653 73306 layer_factory.hpp:77] Creating layer Scale31
I0905 01:04:50.419663 73306 net.cpp:100] Creating Layer Scale31
I0905 01:04:50.419673 73306 net.cpp:434] Scale31 <- BatchNorm31
I0905 01:04:50.419682 73306 net.cpp:395] Scale31 -> BatchNorm31 (in-place)
I0905 01:04:50.419783 73306 net.cpp:150] Setting up Scale31
I0905 01:04:50.419797 73306 net.cpp:157] Top shape: 16 352 16 16 (1441792)
I0905 01:04:50.419807 73306 net.cpp:165] Memory required for data: 3241672768
I0905 01:04:50.419816 73306 layer_factory.hpp:77] Creating layer ReLU31
I0905 01:04:50.419831 73306 net.cpp:100] Creating Layer ReLU31
I0905 01:04:50.419837 73306 net.cpp:434] ReLU31 <- BatchNorm31
I0905 01:04:50.419845 73306 net.cpp:395] ReLU31 -> BatchNorm31 (in-place)
I0905 01:04:50.421831 73306 net.cpp:150] Setting up ReLU31
I0905 01:04:50.421851 73306 net.cpp:157] Top shape: 16 352 16 16 (1441792)
I0905 01:04:50.421862 73306 net.cpp:165] Memory required for data: 3247439936
I0905 01:04:50.421869 73306 layer_factory.hpp:77] Creating layer Convolution32
I0905 01:04:50.421885 73306 net.cpp:100] Creating Layer Convolution32
I0905 01:04:50.421893 73306 net.cpp:434] Convolution32 <- BatchNorm31
I0905 01:04:50.421903 73306 net.cpp:408] Convolution32 -> Convolution32
I0905 01:04:50.423784 73306 net.cpp:150] Setting up Convolution32
I0905 01:04:50.423806 73306 net.cpp:157] Top shape: 16 12 16 16 (49152)
I0905 01:04:50.423816 73306 net.cpp:165] Memory required for data: 3247636544
I0905 01:04:50.423826 73306 layer_factory.hpp:77] Creating layer Dropout32
I0905 01:04:50.423840 73306 net.cpp:100] Creating Layer Dropout32
I0905 01:04:50.423847 73306 net.cpp:434] Dropout32 <- Convolution32
I0905 01:04:50.423856 73306 net.cpp:408] Dropout32 -> Dropout32
I0905 01:04:50.423907 73306 net.cpp:150] Setting up Dropout32
I0905 01:04:50.423918 73306 net.cpp:157] Top shape: 16 12 16 16 (49152)
I0905 01:04:50.423925 73306 net.cpp:165] Memory required for data: 3247833152
I0905 01:04:50.423933 73306 layer_factory.hpp:77] Creating layer Concat29
I0905 01:04:50.423941 73306 net.cpp:100] Creating Layer Concat29
I0905 01:04:50.423949 73306 net.cpp:434] Concat29 <- Concat28_Concat28_0_split_1
I0905 01:04:50.423969 73306 net.cpp:434] Concat29 <- Dropout32
I0905 01:04:50.423980 73306 net.cpp:408] Concat29 -> Concat29
I0905 01:04:50.424013 73306 net.cpp:150] Setting up Concat29
I0905 01:04:50.424029 73306 net.cpp:157] Top shape: 16 364 16 16 (1490944)
I0905 01:04:50.424036 73306 net.cpp:165] Memory required for data: 3253796928
I0905 01:04:50.424042 73306 layer_factory.hpp:77] Creating layer Concat29_Concat29_0_split
I0905 01:04:50.424052 73306 net.cpp:100] Creating Layer Concat29_Concat29_0_split
I0905 01:04:50.424060 73306 net.cpp:434] Concat29_Concat29_0_split <- Concat29
I0905 01:04:50.424068 73306 net.cpp:408] Concat29_Concat29_0_split -> Concat29_Concat29_0_split_0
I0905 01:04:50.424078 73306 net.cpp:408] Concat29_Concat29_0_split -> Concat29_Concat29_0_split_1
I0905 01:04:50.424120 73306 net.cpp:150] Setting up Concat29_Concat29_0_split
I0905 01:04:50.424130 73306 net.cpp:157] Top shape: 16 364 16 16 (1490944)
I0905 01:04:50.424139 73306 net.cpp:157] Top shape: 16 364 16 16 (1490944)
I0905 01:04:50.424145 73306 net.cpp:165] Memory required for data: 3265724480
I0905 01:04:50.424152 73306 layer_factory.hpp:77] Creating layer BatchNorm32
I0905 01:04:50.424175 73306 net.cpp:100] Creating Layer BatchNorm32
I0905 01:04:50.424181 73306 net.cpp:434] BatchNorm32 <- Concat29_Concat29_0_split_0
I0905 01:04:50.424190 73306 net.cpp:408] BatchNorm32 -> BatchNorm32
I0905 01:04:50.424394 73306 net.cpp:150] Setting up BatchNorm32
I0905 01:04:50.424408 73306 net.cpp:157] Top shape: 16 364 16 16 (1490944)
I0905 01:04:50.424417 73306 net.cpp:165] Memory required for data: 3271688256
I0905 01:04:50.424427 73306 layer_factory.hpp:77] Creating layer Scale32
I0905 01:04:50.424438 73306 net.cpp:100] Creating Layer Scale32
I0905 01:04:50.424445 73306 net.cpp:434] Scale32 <- BatchNorm32
I0905 01:04:50.424456 73306 net.cpp:395] Scale32 -> BatchNorm32 (in-place)
I0905 01:04:50.424556 73306 net.cpp:150] Setting up Scale32
I0905 01:04:50.424568 73306 net.cpp:157] Top shape: 16 364 16 16 (1490944)
I0905 01:04:50.424577 73306 net.cpp:165] Memory required for data: 3277652032
I0905 01:04:50.424585 73306 layer_factory.hpp:77] Creating layer ReLU32
I0905 01:04:50.424597 73306 net.cpp:100] Creating Layer ReLU32
I0905 01:04:50.424604 73306 net.cpp:434] ReLU32 <- BatchNorm32
I0905 01:04:50.424612 73306 net.cpp:395] ReLU32 -> BatchNorm32 (in-place)
I0905 01:04:50.424948 73306 net.cpp:150] Setting up ReLU32
I0905 01:04:50.424967 73306 net.cpp:157] Top shape: 16 364 16 16 (1490944)
I0905 01:04:50.424978 73306 net.cpp:165] Memory required for data: 3283615808
I0905 01:04:50.424984 73306 layer_factory.hpp:77] Creating layer Convolution33
I0905 01:04:50.425003 73306 net.cpp:100] Creating Layer Convolution33
I0905 01:04:50.425011 73306 net.cpp:434] Convolution33 <- BatchNorm32
I0905 01:04:50.425021 73306 net.cpp:408] Convolution33 -> Convolution33
I0905 01:04:50.427633 73306 net.cpp:150] Setting up Convolution33
I0905 01:04:50.427654 73306 net.cpp:157] Top shape: 16 12 16 16 (49152)
I0905 01:04:50.427665 73306 net.cpp:165] Memory required for data: 3283812416
I0905 01:04:50.427676 73306 layer_factory.hpp:77] Creating layer Dropout33
…
I0905 01:04:50.610900 73306 layer_factory.hpp:77] Creating layer Dropout27
I0905 01:04:50.610914 73306 net.cpp:100] Creating Layer Dropout27
I0905 01:04:50.610924 73306 net.cpp:434] Dropout27 <- Convolution27
I0905 01:04:50.610945 73306 net.cpp:408] Dropout27 -> Dropout27
I0905 01:04:50.610999 73306 net.cpp:150] Setting up Dropout27
I0905 01:04:50.611029 73306 net.cpp:157] Top shape: 16 304 32 32 (4980736)
I0905 01:04:50.611037 73306 net.cpp:165] Memory required for data: 3084648640
I0905 01:04:50.611045 73306 layer_factory.hpp:77] Creating layer Pooling2
I0905 01:04:50.611068 73306 net.cpp:100] Creating Layer Pooling2
I0905 01:04:50.611075 73306 net.cpp:434] Pooling2 <- Dropout27
I0905 01:04:50.611086 73306 net.cpp:408] Pooling2 -> Pooling2
I0905 01:04:50.611500 73306 net.cpp:150] Setting up Pooling2
I0905 01:04:50.611529 73306 net.cpp:157] Top shape: 16 304 16 16 (1245184)
I0905 01:04:50.611538 73306 net.cpp:165] Memory required for data: 3089629376
I0905 01:04:50.611546 73306 layer_factory.hpp:77] Creating layer Pooling2_Pooling2_0_split
I0905 01:04:50.611557 73306 net.cpp:100] Creating Layer Pooling2_Pooling2_0_split
I0905 01:04:50.611564 73306 net.cpp:434] Pooling2_Pooling2_0_split <- Pooling2
I0905 01:04:50.611577 73306 net.cpp:408] Pooling2_Pooling2_0_split -> Pooling2_Pooling2_0_split_0
I0905 01:04:50.611588 73306 net.cpp:408] Pooling2_Pooling2_0_split -> Pooling2_Pooling2_0_split_1
I0905 01:04:50.611644 73306 net.cpp:150] Setting up Pooling2_Pooling2_0_split
I0905 01:04:50.611668 73306 net.cpp:157] Top shape: 16 304 16 16 (1245184)
I0905 01:04:50.611678 73306 net.cpp:157] Top shape: 16 304 16 16 (1245184)
I0905 01:04:50.611686 73306 net.cpp:165] Memory required for data: 3099590848
I0905 01:04:50.611695 73306 layer_factory.hpp:77] Creating layer BatchNorm27
I0905 01:04:50.611708 73306 net.cpp:100] Creating Layer BatchNorm27
I0905 01:04:50.611717 73306 net.cpp:434] BatchNorm27 <- Pooling2_Pooling2_0_split_0
I0905 01:04:50.611728 73306 net.cpp:408] BatchNorm27 -> BatchNorm27
I0905 01:04:50.611996 73306 net.cpp:150] Setting up BatchNorm27
I0905 01:04:50.612022 73306 net.cpp:157] Top shape: 16 304 16 16 (1245184)
I0905 01:04:50.612030 73306 net.cpp:165] Memory required for data: 3104571584
I0905 01:04:50.612042 73306 layer_factory.hpp:77] Creating layer Scale27
I0905 01:04:50.612054 73306 net.cpp:100] Creating Layer Scale27
I0905 01:04:50.612062 73306 net.cpp:434] Scale27 <- BatchNorm27
I0905 01:04:50.612083 73306 net.cpp:395] Scale27 -> BatchNorm27 (in-place)
I0905 01:04:50.612244 73306 net.cpp:150] Setting up Scale27
I0905 01:04:50.612258 73306 net.cpp:157] Top shape: 16 304 16 16 (1245184)
I0905 01:04:50.612277 73306 net.cpp:165] Memory required for data: 3109552320
I0905 01:04:50.612287 73306 layer_factory.hpp:77] Creating layer ReLU27
I0905 01:04:50.612296 73306 net.cpp:100] Creating Layer ReLU27
I0905 01:04:50.612304 73306 net.cpp:434] ReLU27 <- BatchNorm27
I0905 01:04:50.612313 73306 net.cpp:395] ReLU27 -> BatchNorm27 (in-place)
I0905 01:04:50.612565 73306 net.cpp:150] Setting up ReLU27
I0905 01:04:50.612592 73306 net.cpp:157] Top shape: 16 304 16 16 (1245184)
I0905 01:04:50.612601 73306 net.cpp:165] Memory required for data: 3114533056
I0905 01:04:50.612608 73306 layer_factory.hpp:77] Creating layer Convolution28
I0905 01:04:50.612623 73306 net.cpp:100] Creating Layer Convolution28
I0905 01:04:50.612632 73306 net.cpp:434] Convolution28 <- BatchNorm27
I0905 01:04:50.612658 73306 net.cpp:408] Convolution28 -> Convolution28
I0905 01:04:50.614789 73306 net.cpp:150] Setting up Convolution28
I0905 01:04:50.614820 73306 net.cpp:157] Top shape: 16 12 16 16 (49152)
I0905 01:04:50.614827 73306 net.cpp:165] Memory required for data: 3114729664
I0905 01:04:50.614838 73306 layer_factory.hpp:77] Creating layer Dropout28
I0905 01:04:50.614851 73306 net.cpp:100] Creating Layer Dropout28
I0905 01:04:50.614873 73306 net.cpp:434] Dropout28 <- Convolution28
I0905 01:04:50.614884 73306 net.cpp:408] Dropout28 -> Dropout28
I0905 01:04:50.614940 73306 net.cpp:150] Setting up Dropout28
I0905 01:04:50.614979 73306 net.cpp:157] Top shape: 16 12 16 16 (49152)
I0905 01:04:50.615001 73306 net.cpp:165] Memory required for data: 3114926272
I0905 01:04:50.615023 73306 layer_factory.hpp:77] Creating layer Concat25
I0905 01:04:50.615046 73306 net.cpp:100] Creating Layer Concat25
I0905 01:04:50.615053 73306 net.cpp:434] Concat25 <- Pooling2_Pooling2_0_split_1
I0905 01:04:50.615062 73306 net.cpp:434] Concat25 <- Dropout28
I0905 01:04:50.615073 73306 net.cpp:408] Concat25 -> Concat25
I0905 01:04:50.615116 73306 net.cpp:150] Setting up Concat25
I0905 01:04:50.615128 73306 net.cpp:157] Top shape: 16 316 16 16 (1294336)
I0905 01:04:50.615136 73306 net.cpp:165] Memory required for data: 3120103616
I0905 01:04:50.615144 73306 layer_factory.hpp:77] Creating layer Concat25_Concat25_0_split
I0905 01:04:50.615169 73306 net.cpp:100] Creating Layer Concat25_Concat25_0_split
I0905 01:04:50.615177 73306 net.cpp:434] Concat25_Concat25_0_split <- Concat25
I0905 01:04:50.615187 73306 net.cpp:408] Concat25_Concat25_0_split -> Concat25_Concat25_0_split_0
I0905 01:04:50.615198 73306 net.cpp:408] Concat25_Concat25_0_split -> Concat25_Concat25_0_split_1
I0905 01:04:50.615242 73306 net.cpp:150] Setting up Concat25_Concat25_0_split
I0905 01:04:50.615255 73306 net.cpp:157] Top shape: 16 316 16 16 (1294336)
I0905 01:04:50.615264 73306 net.cpp:157] Top shape: 16 316 16 16 (1294336)
I0905 01:04:50.615272 73306 net.cpp:165] Memory required for data: 3130458304
I0905 01:04:50.615280 73306 layer_factory.hpp:77] Creating layer BatchNorm28
I0905 01:04:50.615290 73306 net.cpp:100] Creating Layer BatchNorm28
I0905 01:04:50.615310 73306 net.cpp:434] BatchNorm28 <- Concat25_Concat25_0_split_0
I0905 01:04:50.615336 73306 net.cpp:408] BatchNorm28 -> BatchNorm28
I0905 01:04:50.615599 73306 net.cpp:150] Setting up BatchNorm28
I0905 01:04:50.615623 73306 net.cpp:157] Top shape: 16 316 16 16 (1294336)
I0905 01:04:50.615631 73306 net.cpp:165] Memory required for data: 3135635648
I0905 01:04:50.615645 73306 layer_factory.hpp:77] Creating layer Scale28
I0905 01:04:50.615656 73306 net.cpp:100] Creating Layer Scale28
I0905 01:04:50.615664 73306 net.cpp:434] Scale28 <- BatchNorm28
I0905 01:04:50.615674 73306 net.cpp:395] Scale28 -> BatchNorm28 (in-place)
I0905 01:04:50.615838 73306 net.cpp:150] Setting up Scale28
I0905 01:04:50.615864 73306 net.cpp:157] Top shape: 16 316 16 16 (1294336)
I0905 01:04:50.615871 73306 net.cpp:165] Memory required for data: 3140812992
I0905 01:04:50.615892 73306 layer_factory.hpp:77] Creating layer ReLU28
I0905 01:04:50.615902 73306 net.cpp:100] Creating Layer ReLU28
I0905 01:04:50.615909 73306 net.cpp:434] ReLU28 <- BatchNorm28
I0905 01:04:50.615921 73306 net.cpp:395] ReLU28 -> BatchNorm28 (in-place)
I0905 01:04:50.616333 73306 net.cpp:150] Setting up ReLU28
I0905 01:04:50.616363 73306 net.cpp:157] Top shape: 16 316 16 16 (1294336)
I0905 01:04:50.616370 73306 net.cpp:165] Memory required for data: 3145990336
I0905 01:04:50.616379 73306 layer_factory.hpp:77] Creating layer Convolution29
I0905 01:04:50.616394 73306 net.cpp:100] Creating Layer Convolution29
I0905 01:04:50.616402 73306 net.cpp:434] Convolution29 <- BatchNorm28
I0905 01:04:50.616415 73306 net.cpp:408] Convolution29 -> Convolution29
I0905 01:04:50.618568 73306 net.cpp:150] Setting up Convolution29
I0905 01:04:50.618599 73306 net.cpp:157] Top shape: 16 12 16 16 (49152)
I0905 01:04:50.618608 73306 net.cpp:165] Memory required for data: 3146186944
I0905 01:04:50.618619 73306 layer_factory.hpp:77] Creating layer Dropout29
I0905 01:04:50.618635 73306 net.cpp:100] Creating Layer Dropout29
I0905 01:04:50.618657 73306 net.cpp:434] Dropout29 <- Convolution29
I0905 01:04:50.618670 73306 net.cpp:408] Dropout29 -> Dropout29
I0905 01:04:50.618729 73306 net.cpp:150] Setting up Dropout29
I0905 01:04:50.618743 73306 net.cpp:157] Top shape: 16 12 16 16 (49152)
I0905 01:04:50.618752 73306 net.cpp:165] Memory required for data: 3146383552
I0905 01:04:50.618759 73306 layer_factory.hpp:77] Creating layer Concat26
I0905 01:04:50.618770 73306 net.cpp:100] Creating Layer Concat26
I0905 01:04:50.618793 73306 net.cpp:434] Concat26 <- Concat25_Concat25_0_split_1
I0905 01:04:50.618806 73306 net.cpp:434] Concat26 <- Dropout29
I0905 01:04:50.618818 73306 net.cpp:408] Concat26 -> Concat26
I0905 01:04:50.618852 73306 net.cpp:150] Setting up Concat26
I0905 01:04:50.618865 73306 net.cpp:157] Top shape: 16 328 16 16 (1343488)
I0905 01:04:50.618873 73306 net.cpp:165] Memory required for data: 3151757504
I0905 01:04:50.618881 73306 layer_factory.hpp:77] Creating layer Concat26_Concat26_0_split
I0905 01:04:50.618904 73306 net.cpp:100] Creating Layer Concat26_Concat26_0_split
I0905 01:04:50.618912 73306 net.cpp:434] Concat26_Concat26_0_split <- Concat26
I0905 01:04:50.618924 73306 net.cpp:408] Concat26_Concat26_0_split -> Concat26_Concat26_0_split_0
I0905 01:04:50.618937 73306 net.cpp:408] Concat26_Concat26_0_split -> Concat26_Concat26_0_split_1
I0905 01:04:50.618989 73306 net.cpp:150] Setting up Concat26_Concat26_0_split
I0905 01:04:50.619002 73306 net.cpp:157] Top shape: 16 328 16 16 (1343488)
I0905 01:04:50.619011 73306 net.cpp:157] Top shape: 16 328 16 16 (1343488)
I0905 01:04:50.619019 73306 net.cpp:165] Memory required for data: 3162505408
I0905 01:04:50.619027 73306 layer_factory.hpp:77] Creating layer BatchNorm29
I0905 01:04:50.619040 73306 net.cpp:100] Creating Layer BatchNorm29
I0905 01:04:50.619048 73306 net.cpp:434] BatchNorm29 <- Concat26_Concat26_0_split_0
I0905 01:04:50.619061 73306 net.cpp:408] BatchNorm29 -> BatchNorm29
I0905 01:04:50.619349 73306 net.cpp:150] Setting up BatchNorm29
I0905 01:04:50.619364 73306 net.cpp:157] Top shape: 16 328 16 16 (1343488)
I0905 01:04:50.619384 73306 net.cpp:165] Memory required for data: 3167879360
I0905 01:04:50.619396 73306 layer_factory.hpp:77] Creating layer Scale29
I0905 01:04:50.619407 73306 net.cpp:100] Creating Layer Scale29
I0905 01:04:50.619416 73306 net.cpp:434] Scale29 <- BatchNorm29
I0905 01:04:50.619427 73306 net.cpp:395] Scale29 -> BatchNorm29 (in-place)
I0905 01:04:50.619556 73306 net.cpp:150] Setting up Scale29
I0905 01:04:50.619570 73306 net.cpp:157] Top shape: 16 328 16 16 (1343488)
I0905 01:04:50.619590 73306 net.cpp:165] Memory required for data: 3173253312
I0905 01:04:50.619598 73306 layer_factory.hpp:77] Creating layer ReLU29
I0905 01:04:50.619609 73306 net.cpp:100] Creating Layer ReLU29
I0905 01:04:50.619617 73306 net.cpp:434] ReLU29 <- BatchNorm29
I0905 01:04:50.619626 73306 net.cpp:395] ReLU29 -> BatchNorm29 (in-place)
I0905 01:04:50.619871 73306 net.cpp:150] Setting up ReLU29
I0905 01:04:50.619887 73306 net.cpp:157] Top shape: 16 328 16 16 (1343488)
I0905 01:04:50.619906 73306 net.cpp:165] Memory required for data: 3178627264
I0905 01:04:50.619915 73306 layer_factory.hpp:77] Creating layer Convolution30
I0905 01:04:50.619930 73306 net.cpp:100] Creating Layer Convolution30
I0905 01:04:50.619938 73306 net.cpp:434] Convolution30 <- BatchNorm29
I0905 01:04:50.619951 73306 net.cpp:408] Convolution30 -> Convolution30
I0905 01:04:50.622318 73306 net.cpp:150] Setting up Convolution30
I0905 01:04:50.622349 73306 net.cpp:157] Top shape: 16 12 16 16 (49152)
I0905 01:04:50.622359 73306 net.cpp:165] Memory required for data: 3178823872
I0905 01:04:50.622370 73306 layer_factory.hpp:77] Creating layer Dropout30
I0905 01:04:50.622381 73306 net.cpp:100] Creating Layer Dropout30
I0905 01:04:50.622401 73306 net.cpp:434] Dropout30 <- Convolution30
I0905 01:04:50.622414 73306 net.cpp:408] Dropout30 -> Dropout30
I0905 01:04:50.622473 73306 net.cpp:150] Setting up Dropout30
I0905 01:04:50.622488 73306 net.cpp:157] Top shape: 16 12 16 16 (49152)
I0905 01:04:50.622495 73306 net.cpp:165] Memory required for data: 3179020480
I0905 01:04:50.622503 73306 layer_factory.hpp:77] Creating layer Concat27
I0905 01:04:50.622531 73306 net.cpp:100] Creating Layer Concat27
I0905 01:04:50.622541 73306 net.cpp:434] Concat27 <- Concat26_Concat26_0_split_1
I0905 01:04:50.622550 73306 net.cpp:434] Concat27 <- Dropout30
I0905 01:04:50.622560 73306 net.cpp:408] Concat27 -> Concat27
I0905 01:04:50.622601 73306 net.cpp:150] Setting up Concat27
I0905 01:04:50.622634 73306 net.cpp:157] Top shape: 16 340 16 16 (1392640)
I0905 01:04:50.622645 73306 net.cpp:165] Memory required for data: 3184591040
I0905 01:04:50.622653 73306 layer_factory.hpp:77] Creating layer Concat27_Concat27_0_split
I0905 01:04:50.622663 73306 net.cpp:100] Creating Layer Concat27_Concat27_0_split
I0905 01:04:50.622673 73306 net.cpp:434] Concat27_Concat27_0_split <- Concat27
I0905 01:04:50.622685 73306 net.cpp:408] Concat27_Concat27_0_split -> Concat27_Concat27_0_split_0
I0905 01:04:50.622697 73306 net.cpp:408] Concat27_Concat27_0_split -> Concat27_Concat27_0_split_1
I0905 01:04:50.622743 73306 net.cpp:150] Setting up Concat27_Concat27_0_split
I0905 01:04:50.622757 73306 net.cpp:157] Top shape: 16 340 16 16 (1392640)
I0905 01:04:50.622768 73306 net.cpp:157] Top shape: 16 340 16 16 (1392640)
I0905 01:04:50.622776 73306 net.cpp:165] Memory required for data: 3195732160
I0905 01:04:50.622784 73306 layer_factory.hpp:77] Creating layer BatchNorm30
I0905 01:04:50.622807 73306 net.cpp:100] Creating Layer BatchNorm30
I0905 01:04:50.622828 73306 net.cpp:434] BatchNorm30 <- Concat27_Concat27_0_split_0
I0905 01:04:50.622843 73306 net.cpp:408] BatchNorm30 -> BatchNorm30
I0905 01:04:50.623109 73306 net.cpp:150] Setting up BatchNorm30
I0905 01:04:50.623136 73306 net.cpp:157] Top shape: 16 340 16 16 (1392640)
I0905 01:04:50.623144 73306 net.cpp:165] Memory required for data: 3201302720
I0905 01:04:50.623157 73306 layer_factory.hpp:77] Creating layer Scale30
I0905 01:04:50.623170 73306 net.cpp:100] Creating Layer Scale30
I0905 01:04:50.623179 73306 net.cpp:434] Scale30 <- BatchNorm30
I0905 01:04:50.623189 73306 net.cpp:395] Scale30 -> BatchNorm30 (in-place)
I0905 01:04:50.623328 73306 net.cpp:150] Setting up Scale30
I0905 01:04:50.623342 73306 net.cpp:157] Top shape: 16 340 16 16 (1392640)
I0905 01:04:50.623363 73306 net.cpp:165] Memory required for data: 3206873280
I0905 01:04:50.623373 73306 layer_factory.hpp:77] Creating layer ReLU30
I0905 01:04:50.623386 73306 net.cpp:100] Creating Layer ReLU30
I0905 01:04:50.623395 73306 net.cpp:434] ReLU30 <- BatchNorm30
I0905 01:04:50.623405 73306 net.cpp:395] ReLU30 -> BatchNorm30 (in-place)
I0905 01:04:50.623631 73306 net.cpp:150] Setting up ReLU30
I0905 01:04:50.623657 73306 net.cpp:157] Top shape: 16 340 16 16 (1392640)
I0905 01:04:50.623666 73306 net.cpp:165] Memory required for data: 3212443840
I0905 01:04:50.623673 73306 layer_factory.hpp:77] Creating layer Convolution31
I0905 01:04:50.623689 73306 net.cpp:100] Creating Layer Convolution31
I0905 01:04:50.623697 73306 net.cpp:434] Convolution31 <- BatchNorm30
I0905 01:04:50.623710 73306 net.cpp:408] Convolution31 -> Convolution31
I0905 01:04:50.626009 73306 net.cpp:150] Setting up Convolution31
I0905 01:04:50.626041 73306 net.cpp:157] Top shape: 16 12 16 16 (49152)
I0905 01:04:50.626050 73306 net.cpp:165] Memory required for data: 3212640448
I0905 01:04:50.626062 73306 layer_factory.hpp:77] Creating layer Dropout31
I0905 01:04:50.626075 73306 net.cpp:100] Creating Layer Dropout31
I0905 01:04:50.626085 73306 net.cpp:434] Dropout31 <- Convolution31
I0905 01:04:50.626096 73306 net.cpp:408] Dropout31 -> Dropout31
I0905 01:04:50.626152 73306 net.cpp:150] Setting up Dropout31
I0905 01:04:50.626166 73306 net.cpp:157] Top shape: 16 12 16 16 (49152)
I0905 01:04:50.626174 73306 net.cpp:165] Memory required for data: 3212837056
I0905 01:04:50.626183 73306 layer_factory.hpp:77] Creating layer Concat28
I0905 01:04:50.626195 73306 net.cpp:100] Creating Layer Concat28
I0905 01:04:50.626204 73306 net.cpp:434] Concat28 <- Concat27_Concat27_0_split_1
I0905 01:04:50.626214 73306 net.cpp:434] Concat28 <- Dropout31
I0905 01:04:50.626227 73306 net.cpp:408] Concat28 -> Concat28
I0905 01:04:50.626257 73306 net.cpp:150] Setting up Concat28
I0905 01:04:50.626269 73306 net.cpp:157] Top shape: 16 352 16 16 (1441792)
I0905 01:04:50.626278 73306 net.cpp:165] Memory required for data: 3218604224
I0905 01:04:50.626286 73306 layer_factory.hpp:77] Creating layer Concat28_Concat28_0_split
I0905 01:04:50.626298 73306 net.cpp:100] Creating Layer Concat28_Concat28_0_split
I0905 01:04:50.626320 73306 net.cpp:434] Concat28_Concat28_0_split <- Concat28
I0905 01:04:50.626332 73306 net.cpp:408] Concat28_Concat28_0_split -> Concat28_Concat28_0_split_0
I0905 01:04:50.626344 73306 net.cpp:408] Concat28_Concat28_0_split -> Concat28_Concat28_0_split_1
I0905 01:04:50.626391 73306 net.cpp:150] Setting up Concat28_Concat28_0_split
I0905 01:04:50.626405 73306 net.cpp:157] Top shape: 16 352 16 16 (1441792)
I0905 01:04:50.626415 73306 net.cpp:157] Top shape: 16 352 16 16 (1441792)
I0905 01:04:50.626421 73306 net.cpp:165] Memory required for data: 3230138560
I0905 01:04:50.626430 73306 layer_factory.hpp:77] Creating layer BatchNorm31
I0905 01:04:50.626442 73306 net.cpp:100] Creating Layer BatchNorm31
I0905 01:04:50.626451 73306 net.cpp:434] BatchNorm31 <- Concat28_Concat28_0_split_0
I0905 01:04:50.626462 73306 net.cpp:408] BatchNorm31 -> BatchNorm31
I0905 01:04:50.626720 73306 net.cpp:150] Setting up BatchNorm31
I0905 01:04:50.626734 73306 net.cpp:157] Top shape: 16 352 16 16 (1441792)
I0905 01:04:50.626755 73306 net.cpp:165] Memory required for data: 3235905728
I0905 01:04:50.626768 73306 layer_factory.hpp:77] Creating layer Scale31
I0905 01:04:50.626780 73306 net.cpp:100] Creating Layer Scale31
I0905 01:04:50.626788 73306 net.cpp:434] Scale31 <- BatchNorm31
I0905 01:04:50.626802 73306 net.cpp:395] Scale31 -> BatchNorm31 (in-place)
I0905 01:04:50.626932 73306 net.cpp:150] Setting up Scale31
I0905 01:04:50.626946 73306 net.cpp:157] Top shape: 16 352 16 16 (1441792)
I0905 01:04:50.626966 73306 net.cpp:165] Memory required for data: 3241672896
I0905 01:04:50.626976 73306 layer_factory.hpp:77] Creating layer ReLU31
I0905 01:04:50.626987 73306 net.cpp:100] Creating Layer ReLU31
I0905 01:04:50.626996 73306 net.cpp:434] ReLU31 <- BatchNorm31
I0905 01:04:50.627007 73306 net.cpp:395] ReLU31 -> BatchNorm31 (in-place)
I0905 01:04:50.627384 73306 net.cpp:150] Setting up ReLU31
I0905 01:04:50.627416 73306 net.cpp:157] Top shape: 16 352 16 16 (1441792)
I0905 01:04:50.627425 73306 net.cpp:165] Memory required for data: 3247440064
I0905 01:04:50.627435 73306 layer_factory.hpp:77] Creating layer Convolution32
I0905 01:04:50.627454 73306 net.cpp:100] Creating Layer Convolution32
I0905 01:04:50.627463 73306 net.cpp:434] Convolution32 <- BatchNorm31
I0905 01:04:50.627475 73306 net.cpp:408] Convolution32 -> Convolution32
I0905 01:04:50.631675 73306 net.cpp:150] Setting up Convolution32
I0905 01:04:50.631708 73306 net.cpp:157] Top shape: 16 12 16 16 (49152)
I0905 01:04:50.631717 73306 net.cpp:165] Memory required for data: 3247636672
I0905 01:04:50.631729 73306 layer_factory.hpp:77] Creating layer Dropout32
I0905 01:04:50.631741 73306 net.cpp:100] Creating Layer Dropout32
I0905 01:04:50.631749 73306 net.cpp:434] Dropout32 <- Convolution32
I0905 01:04:50.631759 73306 net.cpp:408] Dropout32 -> Dropout32
I0905 01:04:50.631819 73306 net.cpp:150] Setting up Dropout32
I0905 01:04:50.631834 73306 net.cpp:157] Top shape: 16 12 16 16 (49152)
I0905 01:04:50.631841 73306 net.cpp:165] Memory required for data: 3247833280
I0905 01:04:50.631850 73306 layer_factory.hpp:77] Creating layer Concat29
I0905 01:04:50.631860 73306 net.cpp:100] Creating Layer Concat29
I0905 01:04:50.631870 73306 net.cpp:434] Concat29 <- Concat28_Concat28_0_split_1
I0905 01:04:50.631880 73306 net.cpp:434] Concat29 <- Dropout32
I0905 01:04:50.631892 73306 net.cpp:408] Concat29 -> Concat29
I0905 01:04:50.631928 73306 net.cpp:150] Setting up Concat29
I0905 01:04:50.631942 73306 net.cpp:157] Top shape: 16 364 16 16 (1490944)
I0905 01:04:50.631949 73306 net.cpp:165] Memory required for data: 3253797056
I0905 01:04:50.631958 73306 layer_factory.hpp:77] Creating layer Concat29_Concat29_0_split
I0905 01:04:50.631968 73306 net.cpp:100] Creating Layer Concat29_Concat29_0_split
I0905 01:04:50.631976 73306 net.cpp:434] Concat29_Concat29_0_split <- Concat29
I0905 01:04:50.631988 73306 net.cpp:408] Concat29_Concat29_0_split -> Concat29_Concat29_0_split_0
I0905 01:04:50.631999 73306 net.cpp:408] Concat29_Concat29_0_split -> Concat29_Concat29_0_split_1
I0905 01:04:50.632060 73306 net.cpp:150] Setting up Concat29_Concat29_0_split
I0905 01:04:50.632073 73306 net.cpp:157] Top shape: 16 364 16 16 (1490944)
I0905 01:04:50.632083 73306 net.cpp:157] Top shape: 16 364 16 16 (1490944)
I0905 01:04:50.632091 73306 net.cpp:165] Memory required for data: 3265724608
I0905 01:04:50.632099 73306 layer_factory.hpp:77] Creating layer BatchNorm32
I0905 01:04:50.632113 73306 net.cpp:100] Creating Layer BatchNorm32
I0905 01:04:50.632122 73306 net.cpp:434] BatchNorm32 <- Concat29_Concat29_0_split_0
I0905 01:04:50.632135 73306 net.cpp:408] BatchNorm32 -> BatchNorm32
I0905 01:04:50.632395 73306 net.cpp:150] Setting up BatchNorm32
I0905 01:04:50.632410 73306 net.cpp:157] Top shape: 16 364 16 16 (1490944)
I0905 01:04:50.632429 73306 net.cpp:165] Memory required for data: 3271688384
I0905 01:04:50.632441 73306 layer_factory.hpp:77] Creating layer Scale32
I0905 01:04:50.632452 73306 net.cpp:100] Creating Layer Scale32
I0905 01:04:50.632462 73306 net.cpp:434] Scale32 <- BatchNorm32
I0905 01:04:50.632472 73306 net.cpp:395] Scale32 -> BatchNorm32 (in-place)
I0905 01:04:50.632596 73306 net.cpp:150] Setting up Scale32
I0905 01:04:50.632622 73306 net.cpp:157] Top shape: 16 364 16 16 (1490944)
I0905 01:04:50.632630 73306 net.cpp:165] Memory required for data: 3277652160
I0905 01:04:50.632640 73306 layer_factory.hpp:77] Creating layer ReLU32
I0905 01:04:50.632650 73306 net.cpp:100] Creating Layer ReLU32
I0905 01:04:50.632658 73306 net.cpp:434] ReLU32 <- BatchNorm32
I0905 01:04:50.632668 73306 net.cpp:395] ReLU32 -> BatchNorm32 (in-place)
I0905 01:04:50.632894 73306 net.cpp:150] Setting up ReLU32
I0905 01:04:50.632920 73306 net.cpp:157] Top shape: 16 364 16 16 (1490944)
I0905 01:04:50.632927 73306 net.cpp:165] Memory required for data: 3283615936
I0905 01:04:50.632936 73306 layer_factory.hpp:77] Creating layer Convolution33
I0905 01:04:50.632951 73306 net.cpp:100] Creating Layer Convolution33
I0905 01:04:50.632958 73306 net.cpp:434] Convolution33 <- BatchNorm32
I0905 01:04:50.632972 73306 net.cpp:408] Convolution33 -> Convolution33
I0905 01:04:50.638422 73306 net.cpp:150] Setting up Convolution33
I0905 01:04:50.638454 73306 net.cpp:157] Top shape: 16 12 16 16 (49152)
I0905 01:04:50.638463 73306 net.cpp:165] Memory required for data: 3283812544
I0905 01:04:50.638474 73306 layer_factory.hpp:77] Creating layer Dropout33
I0905 01:04:50.638485 73306 net.cpp:100] Creating Layer Dropout33
I0905 01:04:50.638494 73306 net.cpp:434] Dropout33 <- Convolution33
I0905 01:04:50.638504 73306 net.cpp:408] Dropout33 -> Dropout33
I0905 01:04:50.638561 73306 net.cpp:150] Setting up Dropout33
I0905 01:04:50.638574 73306 net.cpp:157] Top shape: 16 12 16 16 (49152)
I0905 01:04:50.638582 73306 net.cpp:165] Memory required for data: 3284009152
I0905 01:04:50.638592 73306 layer_factory.hpp:77] Creating layer Concat30
I0905 01:04:50.638602 73306 net.cpp:100] Creating Layer Concat30
I0905 01:04:50.638609 73306 net.cpp:434] Concat30 <- Concat29_Concat29_0_split_1
I0905 01:04:50.638618 73306 net.cpp:434] Concat30 <- Dropout33
I0905 01:04:50.638633 73306 net.cpp:408] Concat30 -> Concat30
I0905 01:04:50.638667 73306 net.cpp:150] Setting up Concat30
I0905 01:04:50.638680 73306 net.cpp:157] Top shape: 16 376 16 16 (1540096)
I0905 01:04:50.638691 73306 net.cpp:165] Memory required for data: 3290169536
I0905 01:04:50.638700 73306 layer_factory.hpp:77] Creating layer Concat30_Concat30_0_split
I0905 01:04:50.638710 73306 net.cpp:100] Creating Layer Concat30_Concat30_0_split
I0905 01:04:50.638718 73306 net.cpp:434] Concat30_Concat30_0_split <- Concat30
I0905 01:04:50.638728 73306 net.cpp:408] Concat30_Concat30_0_split -> Concat30_Concat30_0_split_0
I0905 01:04:50.638738 73306 net.cpp:408] Concat30_Concat30_0_split -> Concat30_Concat30_0_split_1
I0905 01:04:50.638787 73306 net.cpp:150] Setting up Concat30_Concat30_0_split
I0905 01:04:50.638798 73306 net.cpp:157] Top shape: 16 376 16 16 (1540096)
I0905 01:04:50.638808 73306 net.cpp:157] Top shape: 16 376 16 16 (1540096)
I0905 01:04:50.638814 73306 net.cpp:165] Memory required for data: 3302490304
I0905 01:04:50.638835 73306 layer_factory.hpp:77] Creating layer BatchNorm33
I0905 01:04:50.638849 73306 net.cpp:100] Creating Layer BatchNorm33
I0905 01:04:50.638856 73306 net.cpp:434] BatchNorm33 <- Concat30_Concat30_0_split_0
I0905 01:04:50.638866 73306 net.cpp:408] BatchNorm33 -> BatchNorm33
I0905 01:04:50.639147 73306 net.cpp:150] Setting up BatchNorm33
I0905 01:04:50.639173 73306 net.cpp:157] Top shape: 16 376 16 16 (1540096)
I0905 01:04:50.639183 73306 net.cpp:165] Memory required for data: 3308650688
I0905 01:04:50.639194 73306 layer_factory.hpp:77] Creating layer Scale33
I0905 01:04:50.639205 73306 net.cpp:100] Creating Layer Scale33
I0905 01:04:50.639214 73306 net.cpp:434] Scale33 <- BatchNorm33
I0905 01:04:50.639225 73306 net.cpp:395] Scale33 -> BatchNorm33 (in-place)
I0905 01:04:50.639348 73306 net.cpp:150] Setting up Scale33
I0905 01:04:50.639374 73306 net.cpp:157] Top shape: 16 376 16 16 (1540096)
I0905 01:04:50.639381 73306 net.cpp:165] Memory required for data: 3314811072
I0905 01:04:50.639391 73306 layer_factory.hpp:77] Creating layer ReLU33
I0905 01:04:50.639405 73306 net.cpp:100] Creating Layer ReLU33
I0905 01:04:50.639412 73306 net.cpp:434] ReLU33 <- BatchNorm33
I0905 01:04:50.639421 73306 net.cpp:395] ReLU33 -> BatchNorm33 (in-place)
I0905 01:04:50.641264 73306 net.cpp:150] Setting up ReLU33
I0905 01:04:50.641293 73306 net.cpp:157] Top shape: 16 376 16 16 (1540096)
I0905 01:04:50.641301 73306 net.cpp:165] Memory required for data: 3320971456
I0905 01:04:50.641310 73306 layer_factory.hpp:77] Creating layer Convolution34
I0905 01:04:50.641325 73306 net.cpp:100] Creating Layer Convolution34
I0905 01:04:50.641335 73306 net.cpp:434] Convolution34 <- BatchNorm33
I0905 01:04:50.641345 73306 net.cpp:408] Convolution34 -> Convolution34
I0905 01:04:50.643699 73306 net.cpp:150] Setting up Convolution34
I0905 01:04:50.643731 73306 net.cpp:157] Top shape: 16 12 16 16 (49152)
I0905 01:04:50.643740 73306 net.cpp:165] Memory required for data: 3321168064
I0905 01:04:50.643751 73306 layer_factory.hpp:77] Creating layer Dropout34
I0905 01:04:50.643764 73306 net.cpp:100] Creating Layer Dropout34
I0905 01:04:50.643774 73306 net.cpp:434] Dropout34 <- Convolution34
I0905 01:04:50.643784 73306 net.cpp:408] Dropout34 -> Dropout34
I0905 01:04:50.643843 73306 net.cpp:150] Setting up Dropout34
I0905 01:04:50.643857 73306 net.cpp:157] Top shape: 16 12 16 16 (49152)
I0905 01:04:50.643865 73306 net.cpp:165] Memory required for data: 3321364672
I0905 01:04:50.643873 73306 layer_factory.hpp:77] Creating layer Concat31
I0905 01:04:50.643885 73306 net.cpp:100] Creating Layer Concat31
I0905 01:04:50.643894 73306 net.cpp:434] Concat31 <- Concat30_Concat30_0_split_1
I0905 01:04:50.643904 73306 net.cpp:434] Concat31 <- Dropout34
I0905 01:04:50.643914 73306 net.cpp:408] Concat31 -> Concat31
I0905 01:04:50.643945 73306 net.cpp:150] Setting up Concat31
I0905 01:04:50.643959 73306 net.cpp:157] Top shape: 16 388 16 16 (1589248)
I0905 01:04:50.643966 73306 net.cpp:165] Memory required for data: 3327721664
I0905 01:04:50.643975 73306 layer_factory.hpp:77] Creating layer Concat31_Concat31_0_split
I0905 01:04:50.643985 73306 net.cpp:100] Creating Layer Concat31_Concat31_0_split
I0905 01:04:50.643992 73306 net.cpp:434] Concat31_Concat31_0_split <- Concat31
I0905 01:04:50.644004 73306 net.cpp:408] Concat31_Concat31_0_split -> Concat31_Concat31_0_split_0
I0905 01:04:50.644016 73306 net.cpp:408] Concat31_Concat31_0_split -> Concat31_Concat31_0_split_1
I0905 01:04:50.644057 73306 net.cpp:150] Setting up Concat31_Concat31_0_split
I0905 01:04:50.644071 73306 net.cpp:157] Top shape: 16 388 16 16 (1589248)
I0905 01:04:50.644081 73306 net.cpp:157] Top shape: 16 388 16 16 (1589248)
I0905 01:04:50.644088 73306 net.cpp:165] Memory required for data: 3340435648
I0905 01:04:50.644098 73306 layer_factory.hpp:77] Creating layer BatchNorm34
I0905 01:04:50.644109 73306 net.cpp:100] Creating Layer BatchNorm34
I0905 01:04:50.644116 73306 net.cpp:434] BatchNorm34 <- Concat31_Concat31_0_split_0
I0905 01:04:50.644129 73306 net.cpp:408] BatchNorm34 -> BatchNorm34
I0905 01:04:50.644369 73306 net.cpp:150] Setting up BatchNorm34
I0905 01:04:50.644407 73306 net.cpp:157] Top shape: 16 388 16 16 (1589248)
I0905 01:04:50.644415 73306 net.cpp:165] Memory required for data: 3346792640
I0905 01:04:50.644428 73306 layer_factory.hpp:77] Creating layer Scale34
I0905 01:04:50.644441 73306 net.cpp:100] Creating Layer Scale34
I0905 01:04:50.644450 73306 net.cpp:434] Scale34 <- BatchNorm34
I0905 01:04:50.644460 73306 net.cpp:395] Scale34 -> BatchNorm34 (in-place)
I0905 01:04:50.644588 73306 net.cpp:150] Setting up Scale34
I0905 01:04:50.644614 73306 net.cpp:157] Top shape: 16 388 16 16 (1589248)
I0905 01:04:50.644623 73306 net.cpp:165] Memory required for data: 3353149632
I0905 01:04:50.644632 73306 layer_factory.hpp:77] Creating layer ReLU34
I0905 01:04:50.644642 73306 net.cpp:100] Creating Layer ReLU34
I0905 01:04:50.644650 73306 net.cpp:434] ReLU34 <- BatchNorm34
I0905 01:04:50.644661 73306 net.cpp:395] ReLU34 -> BatchNorm34 (in-place)
I0905 01:04:50.645057 73306 net.cpp:150] Setting up ReLU34
I0905 01:04:50.645089 73306 net.cpp:157] Top shape: 16 388 16 16 (1589248)
I0905 01:04:50.645098 73306 net.cpp:165] Memory required for data: 3359506624
I0905 01:04:50.645107 73306 layer_factory.hpp:77] Creating layer Convolution35
I0905 01:04:50.645123 73306 net.cpp:100] Creating Layer Convolution35
I0905 01:04:50.645131 73306 net.cpp:434] Convolution35 <- BatchNorm34
I0905 01:04:50.645145 73306 net.cpp:408] Convolution35 -> Convolution35
I0905 01:04:50.647610 73306 net.cpp:150] Setting up Convolution35
I0905 01:04:50.647642 73306 net.cpp:157] Top shape: 16 12 16 16 (49152)
I0905 01:04:50.647652 73306 net.cpp:165] Memory required for data: 3359703232
I0905 01:04:50.647663 73306 layer_factory.hpp:77] Creating layer Dropout35
I0905 01:04:50.647675 73306 net.cpp:100] Creating Layer Dropout35
I0905 01:04:50.647683 73306 net.cpp:434] Dropout35 <- Convolution35
I0905 01:04:50.647693 73306 net.cpp:408] Dropout35 -> Dropout35
I0905 01:04:50.647754 73306 net.cpp:150] Setting up Dropout35
I0905 01:04:50.647768 73306 net.cpp:157] Top shape: 16 12 16 16 (49152)
I0905 01:04:50.647776 73306 net.cpp:165] Memory required for data: 3359899840
I0905 01:04:50.647784 73306 layer_factory.hpp:77] Creating layer Concat32
I0905 01:04:50.647794 73306 net.cpp:100] Creating Layer Concat32
I0905 01:04:50.647804 73306 net.cpp:434] Concat32 <- Concat31_Concat31_0_split_1
I0905 01:04:50.647825 73306 net.cpp:434] Concat32 <- Dropout35
I0905 01:04:50.647853 73306 net.cpp:408] Concat32 -> Concat32
I0905 01:04:50.647887 73306 net.cpp:150] Setting up Concat32
I0905 01:04:50.647900 73306 net.cpp:157] Top shape: 16 400 16 16 (1638400)
I0905 01:04:50.647908 73306 net.cpp:165] Memory required for data: 3366453440
I0905 01:04:50.647917 73306 layer_factory.hpp:77] Creating layer Concat32_Concat32_0_split
I0905 01:04:50.647925 73306 net.cpp:100] Creating Layer Concat32_Concat32_0_split
I0905 01:04:50.647934 73306 net.cpp:434] Concat32_Concat32_0_split <- Concat32
I0905 01:04:50.647945 73306 net.cpp:408] Concat32_Concat32_0_split -> Concat32_Concat32_0_split_0
I0905 01:04:50.647955 73306 net.cpp:408] Concat32_Concat32_0_split -> Concat32_Concat32_0_split_1
I0905 01:04:50.648001 73306 net.cpp:150] Setting up Concat32_Concat32_0_split
I0905 01:04:50.648015 73306 net.cpp:157] Top shape: 16 400 16 16 (1638400)
I0905 01:04:50.648023 73306 net.cpp:157] Top shape: 16 400 16 16 (1638400)
I0905 01:04:50.648030 73306 net.cpp:165] Memory required for data: 3379560640
I0905 01:04:50.648038 73306 layer_factory.hpp:77] Creating layer BatchNorm35
I0905 01:04:50.648051 73306 net.cpp:100] Creating Layer BatchNorm35
I0905 01:04:50.648061 73306 net.cpp:434] BatchNorm35 <- Concat32_Concat32_0_split_0
I0905 01:04:50.648072 73306 net.cpp:408] BatchNorm35 -> BatchNorm35
I0905 01:04:50.648326 73306 net.cpp:150] Setting up BatchNorm35
I0905 01:04:50.648340 73306 net.cpp:157] Top shape: 16 400 16 16 (1638400)
I0905 01:04:50.648361 73306 net.cpp:165] Memory required for data: 3386114240
I0905 01:04:50.648375 73306 layer_factory.hpp:77] Creating layer Scale35
I0905 01:04:50.648386 73306 net.cpp:100] Creating Layer Scale35
I0905 01:04:50.648408 73306 net.cpp:434] Scale35 <- BatchNorm35
I0905 01:04:50.648419 73306 net.cpp:395] Scale35 -> BatchNorm35 (in-place)
I0905 01:04:50.648550 73306 net.cpp:150] Setting up Scale35
I0905 01:04:50.648579 73306 net.cpp:157] Top shape: 16 400 16 16 (1638400)
I0905 01:04:50.648587 73306 net.cpp:165] Memory required for data: 3392667840
I0905 01:04:50.648598 73306 layer_factory.hpp:77] Creating layer ReLU35
I0905 01:04:50.648609 73306 net.cpp:100] Creating Layer ReLU35
I0905 01:04:50.648617 73306 net.cpp:434] ReLU35 <- BatchNorm35
I0905 01:04:50.648627 73306 net.cpp:395] ReLU35 -> BatchNorm35 (in-place)
I0905 01:04:50.648869 73306 net.cpp:150] Setting up ReLU35
I0905 01:04:50.648896 73306 net.cpp:157] Top shape: 16 400 16 16 (1638400)
I0905 01:04:50.648905 73306 net.cpp:165] Memory required for data: 3399221440
I0905 01:04:50.648912 73306 layer_factory.hpp:77] Creating layer Convolution36
I0905 01:04:50.648927 73306 net.cpp:100] Creating Layer Convolution36
I0905 01:04:50.648936 73306 net.cpp:434] Convolution36 <- BatchNorm35
I0905 01:04:50.648952 73306 net.cpp:408] Convolution36 -> Convolution36
I0905 01:04:50.651599 73306 net.cpp:150] Setting up Convolution36
I0905 01:04:50.651633 73306 net.cpp:157] Top shape: 16 12 16 16 (49152)
I0905 01:04:50.651643 73306 net.cpp:165] Memory required for data: 3399418048
I0905 01:04:50.651654 73306 layer_factory.hpp:77] Creating layer Dropout36
I0905 01:04:50.651665 73306 net.cpp:100] Creating Layer Dropout36
I0905 01:04:50.651674 73306 net.cpp:434] Dropout36 <- Convolution36
I0905 01:04:50.651687 73306 net.cpp:408] Dropout36 -> Dropout36
I0905 01:04:50.651733 73306 net.cpp:150] Setting up Dropout36
I0905 01:04:50.651749 73306 net.cpp:157] Top shape: 16 12 16 16 (49152)
I0905 01:04:50.651758 73306 net.cpp:165] Memory required for data: 3399614656
I0905 01:04:50.651765 73306 layer_factory.hpp:77] Creating layer Concat33
I0905 01:04:50.651778 73306 net.cpp:100] Creating Layer Concat33
I0905 01:04:50.651787 73306 net.cpp:434] Concat33 <- Concat32_Concat32_0_split_1
I0905 01:04:50.651798 73306 net.cpp:434] Concat33 <- Dropout36
I0905 01:04:50.651808 73306 net.cpp:408] Concat33 -> Concat33
I0905 01:04:50.651842 73306 net.cpp:150] Setting up Concat33
I0905 01:04:50.651856 73306 net.cpp:157] Top shape: 16 412 16 16 (1687552)
I0905 01:04:50.651865 73306 net.cpp:165] Memory required for data: 3406364864
I0905 01:04:50.651872 73306 layer_factory.hpp:77] Creating layer Concat33_Concat33_0_split
I0905 01:04:50.651882 73306 net.cpp:100] Creating Layer Concat33_Concat33_0_split
I0905 01:04:50.651891 73306 net.cpp:434] Concat33_Concat33_0_split <- Concat33
I0905 01:04:50.651904 73306 net.cpp:408] Concat33_Concat33_0_split -> Concat33_Concat33_0_split_0
I0905 01:04:50.651916 73306 net.cpp:408] Concat33_Concat33_0_split -> Concat33_Concat33_0_split_1
I0905 01:04:50.651962 73306 net.cpp:150] Setting up Concat33_Concat33_0_split
I0905 01:04:50.651974 73306 net.cpp:157] Top shape: 16 412 16 16 (1687552)
I0905 01:04:50.651983 73306 net.cpp:157] Top shape: 16 412 16 16 (1687552)
I0905 01:04:50.651991 73306 net.cpp:165] Memory required for data: 3419865280
I0905 01:04:50.651999 73306 layer_factory.hpp:77] Creating layer BatchNorm36
I0905 01:04:50.652011 73306 net.cpp:100] Creating Layer BatchNorm36
I0905 01:04:50.652020 73306 net.cpp:434] BatchNorm36 <- Concat33_Concat33_0_split_0
I0905 01:04:50.652032 73306 net.cpp:408] BatchNorm36 -> BatchNorm36
I0905 01:04:50.652278 73306 net.cpp:150] Setting up BatchNorm36
I0905 01:04:50.652293 73306 net.cpp:157] Top shape: 16 412 16 16 (1687552)
I0905 01:04:50.652313 73306 net.cpp:165] Memory required for data: 3426615488
I0905 01:04:50.652325 73306 layer_factory.hpp:77] Creating layer Scale36
I0905 01:04:50.652338 73306 net.cpp:100] Creating Layer Scale36
I0905 01:04:50.652346 73306 net.cpp:434] Scale36 <- BatchNorm36
I0905 01:04:50.652359 73306 net.cpp:395] Scale36 -> BatchNorm36 (in-place)
I0905 01:04:50.652489 73306 net.cpp:150] Setting up Scale36
I0905 01:04:50.652503 73306 net.cpp:157] Top shape: 16 412 16 16 (1687552)
I0905 01:04:50.652535 73306 net.cpp:165] Memory required for data: 3433365696
I0905 01:04:50.652546 73306 layer_factory.hpp:77] Creating layer ReLU36
I0905 01:04:50.652557 73306 net.cpp:100] Creating Layer ReLU36
I0905 01:04:50.652565 73306 net.cpp:434] ReLU36 <- BatchNorm36
I0905 01:04:50.652575 73306 net.cpp:395] ReLU36 -> BatchNorm36 (in-place)
I0905 01:04:50.652791 73306 net.cpp:150] Setting up ReLU36
I0905 01:04:50.652822 73306 net.cpp:157] Top shape: 16 412 16 16 (1687552)
I0905 01:04:50.652829 73306 net.cpp:165] Memory required for data: 3440115904
I0905 01:04:50.652837 73306 layer_factory.hpp:77] Creating layer Convolution37
I0905 01:04:50.652854 73306 net.cpp:100] Creating Layer Convolution37
I0905 01:04:50.652863 73306 net.cpp:434] Convolution37 <- BatchNorm36
I0905 01:04:50.652874 73306 net.cpp:408] Convolution37 -> Convolution37
I0905 01:04:50.655432 73306 net.cpp:150] Setting up Convolution37
I0905 01:04:50.655454 73306 net.cpp:157] Top shape: 16 12 16 16 (49152)
I0905 01:04:50.655463 73306 net.cpp:165] Memory required for data: 3440312512
I0905 01:04:50.655474 73306 layer_factory.hpp:77] Creating layer Dropout37
I0905 01:04:50.655488 73306 net.cpp:100] Creating Layer Dropout37
I0905 01:04:50.655498 73306 net.cpp:434] Dropout37 <- Convolution37
I0905 01:04:50.655508 73306 net.cpp:408] Dropout37 -> Dropout37
I0905 01:04:50.655553 73306 net.cpp:150] Setting up Dropout37
I0905 01:04:50.655565 73306 net.cpp:157] Top shape: 16 12 16 16 (49152)
I0905 01:04:50.655573 73306 net.cpp:165] Memory required for data: 3440509120
I0905 01:04:50.655581 73306 layer_factory.hpp:77] Creating layer Concat34
I0905 01:04:50.655593 73306 net.cpp:100] Creating Layer Concat34
I0905 01:04:50.655602 73306 net.cpp:434] Concat34 <- Concat33_Concat33_0_split_1
I0905 01:04:50.655611 73306 net.cpp:434] Concat34 <- Dropout37
I0905 01:04:50.655621 73306 net.cpp:408] Concat34 -> Concat34
I0905 01:04:50.655652 73306 net.cpp:150] Setting up Concat34
I0905 01:04:50.655663 73306 net.cpp:157] Top shape: 16 424 16 16 (1736704)
I0905 01:04:50.655671 73306 net.cpp:165] Memory required for data: 3447455936
I0905 01:04:50.655678 73306 layer_factory.hpp:77] Creating layer Concat34_Concat34_0_split
I0905 01:04:50.655689 73306 net.cpp:100] Creating Layer Concat34_Concat34_0_split
I0905 01:04:50.655696 73306 net.cpp:434] Concat34_Concat34_0_split <- Concat34
I0905 01:04:50.655709 73306 net.cpp:408] Concat34_Concat34_0_split -> Concat34_Concat34_0_split_0
I0905 01:04:50.655719 73306 net.cpp:408] Concat34_Concat34_0_split -> Concat34_Concat34_0_split_1
I0905 01:04:50.655771 73306 net.cpp:150] Setting up Concat34_Concat34_0_split
I0905 01:04:50.655782 73306 net.cpp:157] Top shape: 16 424 16 16 (1736704)
I0905 01:04:50.655791 73306 net.cpp:157] Top shape: 16 424 16 16 (1736704)
I0905 01:04:50.655798 73306 net.cpp:165] Memory required for data: 3461349568
I0905 01:04:50.655805 73306 layer_factory.hpp:77] Creating layer BatchNorm37
I0905 01:04:50.655818 73306 net.cpp:100] Creating Layer BatchNorm37
I0905 01:04:50.655827 73306 net.cpp:434] BatchNorm37 <- Concat34_Concat34_0_split_0
I0905 01:04:50.655839 73306 net.cpp:408] BatchNorm37 -> BatchNorm37
I0905 01:04:50.656078 73306 net.cpp:150] Setting up BatchNorm37
I0905 01:04:50.656092 73306 net.cpp:157] Top shape: 16 424 16 16 (1736704)
I0905 01:04:50.656100 73306 net.cpp:165] Memory required for data: 3468296384
I0905 01:04:50.656112 73306 layer_factory.hpp:77] Creating layer Scale37
I0905 01:04:50.656152 73306 net.cpp:100] Creating Layer Scale37
I0905 01:04:50.656162 73306 net.cpp:434] Scale37 <- BatchNorm37
I0905 01:04:50.656173 73306 net.cpp:395] Scale37 -> BatchNorm37 (in-place)
I0905 01:04:50.656294 73306 net.cpp:150] Setting up Scale37
I0905 01:04:50.656308 73306 net.cpp:157] Top shape: 16 424 16 16 (1736704)
I0905 01:04:50.656316 73306 net.cpp:165] Memory required for data: 3475243200
I0905 01:04:50.656325 73306 layer_factory.hpp:77] Creating layer ReLU37
I0905 01:04:50.656337 73306 net.cpp:100] Creating Layer ReLU37
I0905 01:04:50.656344 73306 net.cpp:434] ReLU37 <- BatchNorm37
I0905 01:04:50.656355 73306 net.cpp:395] ReLU37 -> BatchNorm37 (in-place)
I0905 01:04:50.656734 73306 net.cpp:150] Setting up ReLU37
I0905 01:04:50.656754 73306 net.cpp:157] Top shape: 16 424 16 16 (1736704)
I0905 01:04:50.656764 73306 net.cpp:165] Memory required for data: 3482190016
I0905 01:04:50.656772 73306 layer_factory.hpp:77] Creating layer Convolution38
I0905 01:04:50.656788 73306 net.cpp:100] Creating Layer Convolution38
I0905 01:04:50.656797 73306 net.cpp:434] Convolution38 <- BatchNorm37
I0905 01:04:50.656811 73306 net.cpp:408] Convolution38 -> Convolution38
I0905 01:04:50.660004 73306 net.cpp:150] Setting up Convolution38
I0905 01:04:50.660025 73306 net.cpp:157] Top shape: 16 12 16 16 (49152)
I0905 01:04:50.660034 73306 net.cpp:165] Memory required for data: 3482386624
I0905 01:04:50.660045 73306 layer_factory.hpp:77] Creating layer Dropout38
I0905 01:04:50.660058 73306 net.cpp:100] Creating Layer Dropout38
I0905 01:04:50.660068 73306 net.cpp:434] Dropout38 <- Convolution38
I0905 01:04:50.660079 73306 net.cpp:408] Dropout38 -> Dropout38
I0905 01:04:50.660125 73306 net.cpp:150] Setting up Dropout38
I0905 01:04:50.660136 73306 net.cpp:157] Top shape: 16 12 16 16 (49152)
I0905 01:04:50.660145 73306 net.cpp:165] Memory required for data: 3482583232
I0905 01:04:50.660152 73306 layer_factory.hpp:77] Creating layer Concat35
I0905 01:04:50.660162 73306 net.cpp:100] Creating Layer Concat35
I0905 01:04:50.660171 73306 net.cpp:434] Concat35 <- Concat34_Concat34_0_split_1
I0905 01:04:50.660181 73306 net.cpp:434] Concat35 <- Dropout38
I0905 01:04:50.660192 73306 net.cpp:408] Concat35 -> Concat35
I0905 01:04:50.660221 73306 net.cpp:150] Setting up Concat35
I0905 01:04:50.660233 73306 net.cpp:157] Top shape: 16 436 16 16 (1785856)
I0905 01:04:50.660239 73306 net.cpp:165] Memory required for data: 3489726656
I0905 01:04:50.660246 73306 layer_factory.hpp:77] Creating layer Concat35_Concat35_0_split
I0905 01:04:50.660259 73306 net.cpp:100] Creating Layer Concat35_Concat35_0_split
I0905 01:04:50.660266 73306 net.cpp:434] Concat35_Concat35_0_split <- Concat35
I0905 01:04:50.660275 73306 net.cpp:408] Concat35_Concat35_0_split -> Concat35_Concat35_0_split_0
I0905 01:04:50.660286 73306 net.cpp:408] Concat35_Concat35_0_split -> Concat35_Concat35_0_split_1
I0905 01:04:50.660328 73306 net.cpp:150] Setting up Concat35_Concat35_0_split
I0905 01:04:50.660339 73306 net.cpp:157] Top shape: 16 436 16 16 (1785856)
I0905 01:04:50.660348 73306 net.cpp:157] Top shape: 16 436 16 16 (1785856)
I0905 01:04:50.660356 73306 net.cpp:165] Memory required for data: 3504013504
I0905 01:04:50.660362 73306 layer_factory.hpp:77] Creating layer BatchNorm38
I0905 01:04:50.660375 73306 net.cpp:100] Creating Layer BatchNorm38
I0905 01:04:50.660383 73306 net.cpp:434] BatchNorm38 <- Concat35_Concat35_0_split_0
I0905 01:04:50.660393 73306 net.cpp:408] BatchNorm38 -> BatchNorm38
I0905 01:04:50.660625 73306 net.cpp:150] Setting up BatchNorm38
I0905 01:04:50.660640 73306 net.cpp:157] Top shape: 16 436 16 16 (1785856)
I0905 01:04:50.660647 73306 net.cpp:165] Memory required for data: 3511156928
I0905 01:04:50.660658 73306 layer_factory.hpp:77] Creating layer Scale38
I0905 01:04:50.660671 73306 net.cpp:100] Creating Layer Scale38
I0905 01:04:50.660681 73306 net.cpp:434] Scale38 <- BatchNorm38
I0905 01:04:50.660689 73306 net.cpp:395] Scale38 -> BatchNorm38 (in-place)
I0905 01:04:50.660805 73306 net.cpp:150] Setting up Scale38
I0905 01:04:50.660820 73306 net.cpp:157] Top shape: 16 436 16 16 (1785856)
I0905 01:04:50.660826 73306 net.cpp:165] Memory required for data: 3518300352
I0905 01:04:50.660835 73306 layer_factory.hpp:77] Creating layer ReLU38
I0905 01:04:50.660845 73306 net.cpp:100] Creating Layer ReLU38
I0905 01:04:50.660853 73306 net.cpp:434] ReLU38 <- BatchNorm38
I0905 01:04:50.660863 73306 net.cpp:395] ReLU38 -> BatchNorm38 (in-place)
I0905 01:04:50.661064 73306 net.cpp:150] Setting up ReLU38
I0905 01:04:50.661080 73306 net.cpp:157] Top shape: 16 436 16 16 (1785856)
I0905 01:04:50.661088 73306 net.cpp:165] Memory required for data: 3525443776
I0905 01:04:50.661095 73306 layer_factory.hpp:77] Creating layer Convolution39
I0905 01:04:50.661123 73306 net.cpp:100] Creating Layer Convolution39
I0905 01:04:50.661133 73306 net.cpp:434] Convolution39 <- BatchNorm38
I0905 01:04:50.661146 73306 net.cpp:408] Convolution39 -> Convolution39
I0905 01:04:50.663761 73306 net.cpp:150] Setting up Convolution39
I0905 01:04:50.663782 73306 net.cpp:157] Top shape: 16 12 16 16 (49152)
I0905 01:04:50.663790 73306 net.cpp:165] Memory required for data: 3525640384
I0905 01:04:50.663801 73306 layer_factory.hpp:77] Creating layer Dropout39
I0905 01:04:50.663812 73306 net.cpp:100] Creating Layer Dropout39
I0905 01:04:50.663821 73306 net.cpp:434] Dropout39 <- Convolution39
I0905 01:04:50.663833 73306 net.cpp:408] Dropout39 -> Dropout39
I0905 01:04:50.663878 73306 net.cpp:150] Setting up Dropout39
I0905 01:04:50.663889 73306 net.cpp:157] Top shape: 16 12 16 16 (49152)
I0905 01:04:50.663897 73306 net.cpp:165] Memory required for data: 3525836992
I0905 01:04:50.663904 73306 layer_factory.hpp:77] Creating layer Concat36
I0905 01:04:50.663918 73306 net.cpp:100] Creating Layer Concat36
I0905 01:04:50.663926 73306 net.cpp:434] Concat36 <- Concat35_Concat35_0_split_1
I0905 01:04:50.663934 73306 net.cpp:434] Concat36 <- Dropout39
I0905 01:04:50.663944 73306 net.cpp:408] Concat36 -> Concat36
I0905 01:04:50.663975 73306 net.cpp:150] Setting up Concat36
I0905 01:04:50.663986 73306 net.cpp:157] Top shape: 16 448 16 16 (1835008)
I0905 01:04:50.663993 73306 net.cpp:165] Memory required for data: 3533177024
I0905 01:04:50.664000 73306 layer_factory.hpp:77] Creating layer BatchNorm39
I0905 01:04:50.664012 73306 net.cpp:100] Creating Layer BatchNorm39
I0905 01:04:50.664021 73306 net.cpp:434] BatchNorm39 <- Concat36
I0905 01:04:50.664031 73306 net.cpp:408] BatchNorm39 -> BatchNorm39
I0905 01:04:50.664299 73306 net.cpp:150] Setting up BatchNorm39
I0905 01:04:50.664314 73306 net.cpp:157] Top shape: 16 448 16 16 (1835008)
I0905 01:04:50.664322 73306 net.cpp:165] Memory required for data: 3540517056
I0905 01:04:50.664333 73306 layer_factory.hpp:77] Creating layer Scale39
I0905 01:04:50.664345 73306 net.cpp:100] Creating Layer Scale39
I0905 01:04:50.664353 73306 net.cpp:434] Scale39 <- BatchNorm39
I0905 01:04:50.664361 73306 net.cpp:395] Scale39 -> BatchNorm39 (in-place)
I0905 01:04:50.664474 73306 net.cpp:150] Setting up Scale39
I0905 01:04:50.664489 73306 net.cpp:157] Top shape: 16 448 16 16 (1835008)
I0905 01:04:50.664496 73306 net.cpp:165] Memory required for data: 3547857088
I0905 01:04:50.664505 73306 layer_factory.hpp:77] Creating layer ReLU39
I0905 01:04:50.664517 73306 net.cpp:100] Creating Layer ReLU39
I0905 01:04:50.664525 73306 net.cpp:434] ReLU39 <- BatchNorm39
I0905 01:04:50.664533 73306 net.cpp:395] ReLU39 -> BatchNorm39 (in-place)
I0905 01:04:50.664741 73306 net.cpp:150] Setting up ReLU39
I0905 01:04:50.664757 73306 net.cpp:157] Top shape: 16 448 16 16 (1835008)
I0905 01:04:50.664764 73306 net.cpp:165] Memory required for data: 3555197120
I0905 01:04:50.664772 73306 layer_factory.hpp:77] Creating layer Pooling3
I0905 01:04:50.664783 73306 net.cpp:100] Creating Layer Pooling3
I0905 01:04:50.664791 73306 net.cpp:434] Pooling3 <- BatchNorm39
I0905 01:04:50.664803 73306 net.cpp:408] Pooling3 -> Pooling3
I0905 01:04:50.665166 73306 net.cpp:150] Setting up Pooling3
I0905 01:04:50.665185 73306 net.cpp:157] Top shape: 16 448 1 1 (7168)
I0905 01:04:50.665194 73306 net.cpp:165] Memory required for data: 3555225792
I0905 01:04:50.665202 73306 layer_factory.hpp:77] Creating layer InnerProduct1
I0905 01:04:50.665215 73306 net.cpp:100] Creating Layer InnerProduct1
I0905 01:04:50.665222 73306 net.cpp:434] InnerProduct1 <- Pooling3
I0905 01:04:50.665235 73306 net.cpp:408] InnerProduct1 -> InnerProduct1
I0905 01:04:50.665379 73306 net.cpp:150] Setting up InnerProduct1
I0905 01:04:50.665392 73306 net.cpp:157] Top shape: 16 2 (32)
I0905 01:04:50.665400 73306 net.cpp:165] Memory required for data: 3555225920
I0905 01:04:50.665410 73306 layer_factory.hpp:77] Creating layer InnerProduct1_InnerProduct1_0_split
I0905 01:04:50.665421 73306 net.cpp:100] Creating Layer InnerProduct1_InnerProduct1_0_split
I0905 01:04:50.665441 73306 net.cpp:434] InnerProduct1_InnerProduct1_0_split <- InnerProduct1
I0905 01:04:50.665454 73306 net.cpp:408] InnerProduct1_InnerProduct1_0_split -> InnerProduct1_InnerProduct1_0_split_0
I0905 01:04:50.665467 73306 net.cpp:408] InnerProduct1_InnerProduct1_0_split -> InnerProduct1_InnerProduct1_0_split_1
I0905 01:04:50.665513 73306 net.cpp:150] Setting up InnerProduct1_InnerProduct1_0_split
I0905 01:04:50.665526 73306 net.cpp:157] Top shape: 16 2 (32)
I0905 01:04:50.665534 73306 net.cpp:157] Top shape: 16 2 (32)
I0905 01:04:50.665541 73306 net.cpp:165] Memory required for data: 3555226176
I0905 01:04:50.665549 73306 layer_factory.hpp:77] Creating layer SoftmaxWithLoss1
I0905 01:04:50.665558 73306 net.cpp:100] Creating Layer SoftmaxWithLoss1
I0905 01:04:50.665567 73306 net.cpp:434] SoftmaxWithLoss1 <- InnerProduct1_InnerProduct1_0_split_0
I0905 01:04:50.665576 73306 net.cpp:434] SoftmaxWithLoss1 <- Data2_Data1_1_split_0
…
