…
I0714 15:07:42.067432 58699 net.cpp:50] Initializing net from parameters: 
name: "FaceNN"
state {
  phase: TRAIN
}
layer {
  name: "data"
  type: "ImageData"
  top: "data"
  top: "label"
  include {
    phase: TRAIN
  }
  transform_param {
    mirror: true
    mean_value: 163
    mean_value: 116
    mean_value: 181
    rotation_angle_interval: 90
  }
  image_data_param {
    source: "../../step01_generate_traing_data/list_stage1_tr.lst"
    batch_size: 128
    shuffle: true
    root_folder: "../../step01_generate_traing_data/training_examples/"
  }
}
layer {
  name: "conv11"
  type: "Convolution"
  bottom: "data"
  top: "conv11"
  param {
    lr_mult: 1
    decay_mult: 1
  }
  param {
    lr_mult: 2
    decay_mult: 0
  }
  convolution_param {
    num_output: 32
    pad: 1
    stride: 1
    weight_filler {
      type: "xavier"
    }
    bias_filler {
      type: "constant"
    }
    kernel_h: 3
    kernel_w: 3
  }
}
layer {
  name: "relu11"
  type: "ReLU"
  bottom: "conv11"
  top: "conv11"
}
layer {
  name: "conv12"
  type: "Convolution"
  bottom: "conv11"
  top: "conv12"
  param {
    lr_mult: 1
    decay_mult: 1
  }
  param {
    lr_mult: 2
    decay_mult: 0
  }
  convolution_param {
    num_output: 64
    pad: 1
    stride: 1
    weight_filler {
      type: "xavier"
    }
    bias_filler {
      type: "constant"
    }
    kernel_h: 3
    kernel_w: 3
  }
}
layer {
  name: "relu12"
  type: "ReLU"
  bottom: "conv12"
  top: "conv12"
}
layer {
  name: "pool1"
  type: "Pooling"
  bottom: "conv12"
  top: "pool1"
  pooling_param {
    pool: MAX
    kernel_size: 2
    stride: 2
  }
}
layer {
  name: "conv21"
  type: "Convolution"
  bottom: "pool1"
  top: "conv21"
  param {
    lr_mult: 1
    decay_mult: 1
  }
  param {
    lr_mult: 2
    decay_mult: 0
  }
  convolution_param {
    num_output: 64
    pad: 1
    stride: 1
    weight_filler {
      type: "xavier"
    }
    bias_filler {
      type: "constant"
    }
    kernel_h: 3
    kernel_w: 3
  }
}
layer {
  name: "relu21"
  type: "ReLU"
  bottom: "conv21"
  top: "conv21"
}
layer {
  name: "conv22"
  type: "Convolution"
  bottom: "conv21"
  top: "conv22"
  param {
    lr_mult: 1
    decay_mult: 1
  }
  param {
    lr_mult: 2
    decay_mult: 0
  }
  convolution_param {
    num_output: 128
    pad: 1
    stride: 1
    weight_filler {
      type: "xavier"
    }
    bias_filler {
      type: "constant"
    }
    kernel_h: 3
    kernel_w: 3
  }
}
layer {
  name: "relu22"
  type: "ReLU"
  bottom: "conv22"
  top: "conv22"
}
layer {
  name: "pool2"
  type: "Pooling"
  bottom: "conv22"
  top: "pool2"
  pooling_param {
    pool: MAX
    kernel_size: 2
    stride: 2
  }
}
layer {
  name: "conv31"
  type: "Convolution"
  bottom: "pool2"
  top: "conv31"
  param {
    lr_mult: 1
    decay_mult: 1
  }
  param {
    lr_mult: 2
    decay_mult: 0
  }
  convolution_param {
    num_output: 96
    pad: 1
    stride: 1
    weight_filler {
      type: "xavier"
    }
    bias_filler {
      type: "constant"
    }
    kernel_h: 3
    kernel_w: 3
  }
}
layer {
  name: "relu31"
  type: "ReLU"
  bottom: "conv31"
  top: "conv31"
}
layer {
  name: "conv32"
  type: "Convolution"
  bottom: "conv31"
  top: "conv32"
  param {
    lr_mult: 1
    decay_mult: 1
  }
  param {
    lr_mult: 2
    decay_mult: 0
  }
  convolution_param {
    num_output: 192
    pad: 1
    stride: 1
    weight_filler {
      type: "xavier"
    }
    bias_filler {
      type: "constant"
    }
    kernel_h: 3
    kernel_w: 3
  }
}
layer {
  name: "relu32"
  type: "ReLU"
  bottom: "conv32"
  top: "conv32"
}
layer {
  name: "pool3"
  type: "Pooling"
  bottom: "conv32"
  top: "pool3"
  pooling_param {
    pool: MAX
    kernel_size: 2
    stride: 2
  }
}
layer {
  name: "conv41"
  type: "Convolution"
  bottom: "pool3"
  top: "conv41"
  param {
    lr_mult: 1
    decay_mult: 1
  }
  param {
    lr_mult: 2
    decay_mult: 0
  }
  convolution_param {
    num_output: 128
    pad: 1
    stride: 1
    weight_filler {
      type: "xavier"
    }
    bias_filler {
      type: "constant"
    }
    kernel_h: 3
    kernel_w: 3
  }
}
layer {
  name: "relu41"
  type: "ReLU"
  bottom: "conv41"
  top: "conv41"
}
layer {
  name: "conv42"
  type: "Convolution"
  bottom: "conv41"
  top: "conv42"
  param {
    lr_mult: 1
    decay_mult: 1
  }
  param {
    lr_mult: 2
    decay_mult: 0
  }
  convolution_param {
    num_output: 256
    pad: 1
    stride: 1
    weight_filler {
      type: "xavier"
    }
    bias_filler {
      type: "constant"
    }
    kernel_h: 3
    kernel_w: 3
  }
}
layer {
  name: "relu42"
  type: "ReLU"
  bottom: "conv42"
  top: "conv42"
}
layer {
  name: "pool4"
  type: "Pooling"
  bottom: "conv42"
  top: "pool4"
  pooling_param {
    pool: MAX
    kernel_size: 2
    stride: 2
  }
}
layer {
  name: "conv51"
  type: "Convolution"
  bottom: "pool4"
  top: "conv51"
  param {
    lr_mult: 1
    decay_mult: 1
  }
  param {
    lr_mult: 2
    decay_mult: 0
  }
  convolution_param {
    num_output: 256
    pad: 1
    stride: 1
    weight_filler {
      type: "xavier"
    }
    bias_filler {
      type: "constant"
    }
    kernel_h: 3
    kernel_w: 3
  }
}
layer {
  name: "relu51"
  type: "ReLU"
  bottom: "conv51"
  top: "conv51"
}
layer {
  name: "conv52"
  type: "Convolution"
  bottom: "conv51"
  top: "conv52"
  param {
    lr_mult: 1
    decay_mult: 1
  }
  param {
    lr_mult: 2
    decay_mult: 0
  }
  convolution_param {
    num_output: 256
    pad: 1
    stride: 1
    weight_filler {
      type: "xavier"
    }
    bias_filler {
      type: "constant"
    }
    kernel_h: 3
    kernel_w: 3
  }
}
layer {
  name: "relu52"
  type: "ReLU"
  bottom: "conv52"
  top: "conv52"
}
layer {
  name: "conv53"
  type: "Convolution"
  bottom: "conv52"
  top: "conv53"
  param {
    lr_mult: 1
    decay_mult: 1
  }
  param {
    lr_mult: 2
    decay_mult: 0
  }
  convolution_param {
    num_output: 256
    pad: 0
    stride: 1
    weight_filler {
      type: "xavier"
    }
    bias_filler {
      type: "constant"
    }
    kernel_h: 7
    kernel_w: 7
  }
}
layer {
  name: "relu53"
  type: "ReLU"
  bottom: "conv53"
  top: "conv53"
}
layer {
  name: "drop6"
  type: "Dropout"
  bottom: "conv53"
  top: "conv53"
  dropout_param {
    dropout_ratio: 0.5
  }
}
layer {
  name: "conv_c"
  type: "Convolution"
  bottom: "conv53"
  top: "conv_c"
  param {
    lr_mult: 1
    decay_mult: 1
  }
  param {
    lr_mult: 2
    decay_mult: 0
  }
  convolution_param {
    num_output: 2
    pad: 0
    stride: 1
    weight_filler {
      type: "xavier"
    }
    bias_filler {
      type: "constant"
    }
    kernel_h: 1
    kernel_w: 1
  }
}
layer {
  name: "loss"
  type: "SoftmaxWithLoss"
  bottom: "conv_c"
  bottom: "label"
  top: "loss"
}
I0714 15:07:42.068806 58699 layer_factory.hpp:76] Creating layer data
I0714 15:07:42.068863 58699 net.cpp:110] Creating Layer data
I0714 15:07:42.068879 58699 net.cpp:433] data -> data
I0714 15:07:42.068914 58699 net.cpp:433] data -> label
I0714 15:07:42.069298 58699 image_data_layer.cpp:36] Opening file ../../step01_generate_traing_data/list_stage1_tr.lst
I0714 15:07:42.083870 58699 image_data_layer.cpp:46] Shuffling data
I0714 15:07:42.086501 58699 image_data_layer.cpp:51] A total of 43224 images.
I0714 15:07:42.087245 58699 image_data_layer.cpp:78] output data size: 128,3,100,100
I0714 15:07:42.133710 58699 net.cpp:155] Setting up data
I0714 15:07:42.133805 58699 net.cpp:163] Top shape: 128 3 100 100 (3840000)
I0714 15:07:42.133827 58699 net.cpp:163] Top shape: 128 (128)
I0714 15:07:42.133899 58699 layer_factory.hpp:76] Creating layer conv11
I0714 15:07:42.133937 58699 net.cpp:110] Creating Layer conv11
I0714 15:07:42.133955 58699 net.cpp:477] conv11 <- data
I0714 15:07:42.133975 58699 net.cpp:433] conv11 -> conv11
I0714 15:07:42.325966 58699 net.cpp:155] Setting up conv11
I0714 15:07:42.326014 58699 net.cpp:163] Top shape: 128 32 100 100 (40960000)
I0714 15:07:42.326045 58699 layer_factory.hpp:76] Creating layer relu11
I0714 15:07:42.326064 58699 net.cpp:110] Creating Layer relu11
I0714 15:07:42.326073 58699 net.cpp:477] relu11 <- conv11
I0714 15:07:42.326084 58699 net.cpp:419] relu11 -> conv11 (in-place)
I0714 15:07:42.326258 58699 net.cpp:155] Setting up relu11
I0714 15:07:42.326274 58699 net.cpp:163] Top shape: 128 32 100 100 (40960000)
I0714 15:07:42.326283 58699 layer_factory.hpp:76] Creating layer conv12
I0714 15:07:42.326300 58699 net.cpp:110] Creating Layer conv12
I0714 15:07:42.326313 58699 net.cpp:477] conv12 <- conv11
I0714 15:07:42.326321 58699 net.cpp:433] conv12 -> conv12
I0714 15:07:42.328197 58699 net.cpp:155] Setting up conv12
I0714 15:07:42.328219 58699 net.cpp:163] Top shape: 128 64 100 100 (81920000)
I0714 15:07:42.328238 58699 layer_factory.hpp:76] Creating layer relu12
I0714 15:07:42.328256 58699 net.cpp:110] Creating Layer relu12
I0714 15:07:42.328264 58699 net.cpp:477] relu12 <- conv12
I0714 15:07:42.328274 58699 net.cpp:419] relu12 -> conv12 (in-place)
I0714 15:07:42.328661 58699 net.cpp:155] Setting up relu12
I0714 15:07:42.328681 58699 net.cpp:163] Top shape: 128 64 100 100 (81920000)
I0714 15:07:42.328691 58699 layer_factory.hpp:76] Creating layer pool1
I0714 15:07:42.328711 58699 net.cpp:110] Creating Layer pool1
I0714 15:07:42.328719 58699 net.cpp:477] pool1 <- conv12
I0714 15:07:42.328728 58699 net.cpp:433] pool1 -> pool1
I0714 15:07:42.328907 58699 net.cpp:155] Setting up pool1
I0714 15:07:42.328923 58699 net.cpp:163] Top shape: 128 64 50 50 (20480000)
I0714 15:07:42.328933 58699 layer_factory.hpp:76] Creating layer conv21
I0714 15:07:42.328948 58699 net.cpp:110] Creating Layer conv21
I0714 15:07:42.328955 58699 net.cpp:477] conv21 <- pool1
I0714 15:07:42.328968 58699 net.cpp:433] conv21 -> conv21
I0714 15:07:42.330765 58699 net.cpp:155] Setting up conv21
I0714 15:07:42.330786 58699 net.cpp:163] Top shape: 128 64 50 50 (20480000)
I0714 15:07:42.330806 58699 layer_factory.hpp:76] Creating layer relu21
I0714 15:07:42.330821 58699 net.cpp:110] Creating Layer relu21
I0714 15:07:42.330828 58699 net.cpp:477] relu21 <- conv21
I0714 15:07:42.330837 58699 net.cpp:419] relu21 -> conv21 (in-place)
I0714 15:07:42.331241 58699 net.cpp:155] Setting up relu21
I0714 15:07:42.331260 58699 net.cpp:163] Top shape: 128 64 50 50 (20480000)
I0714 15:07:42.331270 58699 layer_factory.hpp:76] Creating layer conv22
I0714 15:07:42.331285 58699 net.cpp:110] Creating Layer conv22
I0714 15:07:42.331295 58699 net.cpp:477] conv22 <- conv21
I0714 15:07:42.331306 58699 net.cpp:433] conv22 -> conv22
I0714 15:07:42.333137 58699 net.cpp:155] Setting up conv22
I0714 15:07:42.333159 58699 net.cpp:163] Top shape: 128 128 50 50 (40960000)
I0714 15:07:42.333171 58699 layer_factory.hpp:76] Creating layer relu22
I0714 15:07:42.333183 58699 net.cpp:110] Creating Layer relu22
I0714 15:07:42.333191 58699 net.cpp:477] relu22 <- conv22
I0714 15:07:42.333200 58699 net.cpp:419] relu22 -> conv22 (in-place)
I0714 15:07:42.333600 58699 net.cpp:155] Setting up relu22
I0714 15:07:42.333617 58699 net.cpp:163] Top shape: 128 128 50 50 (40960000)
I0714 15:07:42.333627 58699 layer_factory.hpp:76] Creating layer pool2
I0714 15:07:42.333638 58699 net.cpp:110] Creating Layer pool2
I0714 15:07:42.333647 58699 net.cpp:477] pool2 <- conv22
I0714 15:07:42.333658 58699 net.cpp:433] pool2 -> pool2
I0714 15:07:42.333816 58699 net.cpp:155] Setting up pool2
I0714 15:07:42.333832 58699 net.cpp:163] Top shape: 128 128 25 25 (10240000)
I0714 15:07:42.333840 58699 layer_factory.hpp:76] Creating layer conv31
I0714 15:07:42.333853 58699 net.cpp:110] Creating Layer conv31
I0714 15:07:42.333860 58699 net.cpp:477] conv31 <- pool2
I0714 15:07:42.333901 58699 net.cpp:433] conv31 -> conv31
I0714 15:07:42.335538 58699 net.cpp:155] Setting up conv31
I0714 15:07:42.335559 58699 net.cpp:163] Top shape: 128 96 25 25 (7680000)
I0714 15:07:42.335573 58699 layer_factory.hpp:76] Creating layer relu31
I0714 15:07:42.335584 58699 net.cpp:110] Creating Layer relu31
I0714 15:07:42.335592 58699 net.cpp:477] relu31 <- conv31
I0714 15:07:42.335603 58699 net.cpp:419] relu31 -> conv31 (in-place)
I0714 15:07:42.335994 58699 net.cpp:155] Setting up relu31
I0714 15:07:42.336014 58699 net.cpp:163] Top shape: 128 96 25 25 (7680000)
I0714 15:07:42.336022 58699 layer_factory.hpp:76] Creating layer conv32
I0714 15:07:42.336038 58699 net.cpp:110] Creating Layer conv32
I0714 15:07:42.336047 58699 net.cpp:477] conv32 <- conv31
I0714 15:07:42.336056 58699 net.cpp:433] conv32 -> conv32
I0714 15:07:42.338734 58699 net.cpp:155] Setting up conv32
I0714 15:07:42.338753 58699 net.cpp:163] Top shape: 128 192 25 25 (15360000)
I0714 15:07:42.338764 58699 layer_factory.hpp:76] Creating layer relu32
I0714 15:07:42.338774 58699 net.cpp:110] Creating Layer relu32
I0714 15:07:42.338784 58699 net.cpp:477] relu32 <- conv32
I0714 15:07:42.338794 58699 net.cpp:419] relu32 -> conv32 (in-place)
I0714 15:07:42.338937 58699 net.cpp:155] Setting up relu32
I0714 15:07:42.338959 58699 net.cpp:163] Top shape: 128 192 25 25 (15360000)
I0714 15:07:42.338968 58699 layer_factory.hpp:76] Creating layer pool3
I0714 15:07:42.338981 58699 net.cpp:110] Creating Layer pool3
I0714 15:07:42.338989 58699 net.cpp:477] pool3 <- conv32
I0714 15:07:42.338997 58699 net.cpp:433] pool3 -> pool3
I0714 15:07:42.339404 58699 net.cpp:155] Setting up pool3
I0714 15:07:42.339421 58699 net.cpp:163] Top shape: 128 192 13 13 (4153344)
I0714 15:07:42.339429 58699 layer_factory.hpp:76] Creating layer conv41
I0714 15:07:42.339443 58699 net.cpp:110] Creating Layer conv41
I0714 15:07:42.339454 58699 net.cpp:477] conv41 <- pool3
I0714 15:07:42.339462 58699 net.cpp:433] conv41 -> conv41
I0714 15:07:42.342100 58699 net.cpp:155] Setting up conv41
I0714 15:07:42.342120 58699 net.cpp:163] Top shape: 128 128 13 13 (2768896)
I0714 15:07:42.342131 58699 layer_factory.hpp:76] Creating layer relu41
I0714 15:07:42.342141 58699 net.cpp:110] Creating Layer relu41
I0714 15:07:42.342149 58699 net.cpp:477] relu41 <- conv41
I0714 15:07:42.342159 58699 net.cpp:419] relu41 -> conv41 (in-place)
I0714 15:07:42.342753 58699 net.cpp:155] Setting up relu41
I0714 15:07:42.342772 58699 net.cpp:163] Top shape: 128 128 13 13 (2768896)
I0714 15:07:42.342780 58699 layer_factory.hpp:76] Creating layer conv42
I0714 15:07:42.342792 58699 net.cpp:110] Creating Layer conv42
I0714 15:07:42.342800 58699 net.cpp:477] conv42 <- conv41
I0714 15:07:42.342809 58699 net.cpp:433] conv42 -> conv42
I0714 15:07:42.346204 58699 net.cpp:155] Setting up conv42
I0714 15:07:42.346223 58699 net.cpp:163] Top shape: 128 256 13 13 (5537792)
I0714 15:07:42.346235 58699 layer_factory.hpp:76] Creating layer relu42
I0714 15:07:42.346245 58699 net.cpp:110] Creating Layer relu42
I0714 15:07:42.346252 58699 net.cpp:477] relu42 <- conv42
I0714 15:07:42.346262 58699 net.cpp:419] relu42 -> conv42 (in-place)
I0714 15:07:42.346405 58699 net.cpp:155] Setting up relu42
I0714 15:07:42.346427 58699 net.cpp:163] Top shape: 128 256 13 13 (5537792)
I0714 15:07:42.346436 58699 layer_factory.hpp:76] Creating layer pool4
I0714 15:07:42.346451 58699 net.cpp:110] Creating Layer pool4
I0714 15:07:42.346457 58699 net.cpp:477] pool4 <- conv42
I0714 15:07:42.346465 58699 net.cpp:433] pool4 -> pool4
I0714 15:07:42.346899 58699 net.cpp:155] Setting up pool4
I0714 15:07:42.346916 58699 net.cpp:163] Top shape: 128 256 7 7 (1605632)
I0714 15:07:42.346925 58699 layer_factory.hpp:76] Creating layer conv51
I0714 15:07:42.346937 58699 net.cpp:110] Creating Layer conv51
I0714 15:07:42.346946 58699 net.cpp:477] conv51 <- pool4
I0714 15:07:42.346954 58699 net.cpp:433] conv51 -> conv51
I0714 15:07:42.352419 58699 net.cpp:155] Setting up conv51
I0714 15:07:42.352438 58699 net.cpp:163] Top shape: 128 256 7 7 (1605632)
I0714 15:07:42.352454 58699 layer_factory.hpp:76] Creating layer relu51
I0714 15:07:42.352485 58699 net.cpp:110] Creating Layer relu51
I0714 15:07:42.352494 58699 net.cpp:477] relu51 <- conv51
I0714 15:07:42.352504 58699 net.cpp:419] relu51 -> conv51 (in-place)
I0714 15:07:42.352650 58699 net.cpp:155] Setting up relu51
I0714 15:07:42.352665 58699 net.cpp:163] Top shape: 128 256 7 7 (1605632)
I0714 15:07:42.352674 58699 layer_factory.hpp:76] Creating layer conv52
I0714 15:07:42.352686 58699 net.cpp:110] Creating Layer conv52
I0714 15:07:42.352694 58699 net.cpp:477] conv52 <- conv51
I0714 15:07:42.352705 58699 net.cpp:433] conv52 -> conv52
I0714 15:07:42.358198 58699 net.cpp:155] Setting up conv52
I0714 15:07:42.358217 58699 net.cpp:163] Top shape: 128 256 7 7 (1605632)
I0714 15:07:42.358228 58699 layer_factory.hpp:76] Creating layer relu52
I0714 15:07:42.358239 58699 net.cpp:110] Creating Layer relu52
I0714 15:07:42.358247 58699 net.cpp:477] relu52 <- conv52
I0714 15:07:42.358255 58699 net.cpp:419] relu52 -> conv52 (in-place)
I0714 15:07:42.358700 58699 net.cpp:155] Setting up relu52
I0714 15:07:42.358731 58699 net.cpp:163] Top shape: 128 256 7 7 (1605632)
I0714 15:07:42.358737 58699 layer_factory.hpp:76] Creating layer conv53
I0714 15:07:42.358748 58699 net.cpp:110] Creating Layer conv53
I0714 15:07:42.358757 58699 net.cpp:477] conv53 <- conv52
I0714 15:07:42.358770 58699 net.cpp:433] conv53 -> conv53
I0714 15:07:42.384230 58699 net.cpp:155] Setting up conv53
I0714 15:07:42.384271 58699 net.cpp:163] Top shape: 128 256 1 1 (32768)
I0714 15:07:42.384284 58699 layer_factory.hpp:76] Creating layer relu53
I0714 15:07:42.384299 58699 net.cpp:110] Creating Layer relu53
I0714 15:07:42.384308 58699 net.cpp:477] relu53 <- conv53
I0714 15:07:42.384318 58699 net.cpp:419] relu53 -> conv53 (in-place)
I0714 15:07:42.384699 58699 net.cpp:155] Setting up relu53
I0714 15:07:42.384717 58699 net.cpp:163] Top shape: 128 256 1 1 (32768)
I0714 15:07:42.384732 58699 layer_factory.hpp:76] Creating layer drop6
I0714 15:07:42.384748 58699 net.cpp:110] Creating Layer drop6
I0714 15:07:42.384757 58699 net.cpp:477] drop6 <- conv53
I0714 15:07:42.384764 58699 net.cpp:419] drop6 -> conv53 (in-place)
I0714 15:07:42.384783 58699 net.cpp:155] Setting up drop6
I0714 15:07:42.384793 58699 net.cpp:163] Top shape: 128 256 1 1 (32768)
I0714 15:07:42.384799 58699 layer_factory.hpp:76] Creating layer conv_c
I0714 15:07:42.384810 58699 net.cpp:110] Creating Layer conv_c
I0714 15:07:42.384820 58699 net.cpp:477] conv_c <- conv53
I0714 15:07:42.384830 58699 net.cpp:433] conv_c -> conv_c
I0714 15:07:42.385704 58699 net.cpp:155] Setting up conv_c
I0714 15:07:42.385723 58699 net.cpp:163] Top shape: 128 2 1 1 (256)
I0714 15:07:42.385740 58699 layer_factory.hpp:76] Creating layer loss
I0714 15:07:42.385754 58699 net.cpp:110] Creating Layer loss
I0714 15:07:42.385762 58699 net.cpp:477] loss <- conv_c
I0714 15:07:42.385772 58699 net.cpp:477] loss <- label
I0714 15:07:42.385782 58699 net.cpp:433] loss -> loss
I0714 15:07:42.385800 58699 layer_factory.hpp:76] Creating layer loss
I0714 15:07:42.386005 58699 net.cpp:155] Setting up loss
…
I0714 15:07:42.387053 58699 solver.cpp:186] Creating test net (#0) specified by net file: train_val.prototxt
I0714 15:07:42.387111 58699 net.cpp:339] The NetState phase (1) differed from the phase (0) specified by a rule in layer data
I0714 15:07:42.387317 58699 net.cpp:50] Initializing net from parameters: 
name: "FaceNN"
state {
  phase: TEST
}
layer {
  name: "data"
  type: "Data"
  top: "data"
  top: "label"
  include {
    phase: TEST
  }
  transform_param {
    mirror: false
    mean_value: 163
    mean_value: 116
    mean_value: 181
  }
  data_param {
    source: "../../step01_generate_traing_data/TEDB"
    batch_size: 32
    backend: LMDB
  }
}
layer {
  name: "conv11"
  type: "Convolution"
  bottom: "data"
  top: "conv11"
  param {
    lr_mult: 1
    decay_mult: 1
  }
  param {
    lr_mult: 2
    decay_mult: 0
  }
  convolution_param {
    num_output: 32
    pad: 1
    stride: 1
    weight_filler {
      type: "xavier"
    }
    bias_filler {
      type: "constant"
    }
    kernel_h: 3
    kernel_w: 3
  }
}
layer {
  name: "relu11"
  type: "ReLU"
  bottom: "conv11"
  top: "conv11"
}
layer {
  name: "conv12"
  type: "Convolution"
  bottom: "conv11"
  top: "conv12"
  param {
    lr_mult: 1
    decay_mult: 1
  }
  param {
    lr_mult: 2
    decay_mult: 0
  }
  convolution_param {
    num_output: 64
    pad: 1
    stride: 1
    weight_filler {
      type: "xavier"
    }
    bias_filler {
      type: "constant"
    }
    kernel_h: 3
    kernel_w: 3
  }
}
layer {
  name: "relu12"
  type: "ReLU"
  bottom: "conv12"
  top: "conv12"
}
layer {
  name: "pool1"
  type: "Pooling"
  bottom: "conv12"
  top: "pool1"
  pooling_param {
    pool: MAX
    kernel_size: 2
    stride: 2
  }
}
layer {
  name: "conv21"
  type: "Convolution"
  bottom: "pool1"
  top: "conv21"
  param {
    lr_mult: 1
    decay_mult: 1
  }
  param {
    lr_mult: 2
    decay_mult: 0
  }
  convolution_param {
    num_output: 64
    pad: 1
    stride: 1
    weight_filler {
      type: "xavier"
    }
    bias_filler {
      type: "constant"
    }
    kernel_h: 3
    kernel_w: 3
  }
}
layer {
  name: "relu21"
  type: "ReLU"
  bottom: "conv21"
  top: "conv21"
}
layer {
  name: "conv22"
  type: "Convolution"
  bottom: "conv21"
  top: "conv22"
  param {
    lr_mult: 1
    decay_mult: 1
  }
  param {
    lr_mult: 2
    decay_mult: 0
  }
  convolution_param {
    num_output: 128
    pad: 1
    stride: 1
    weight_filler {
      type: "xavier"
    }
    bias_filler {
      type: "constant"
    }
    kernel_h: 3
    kernel_w: 3
  }
}
layer {
  name: "relu22"
  type: "ReLU"
  bottom: "conv22"
  top: "conv22"
}
layer {
  name: "pool2"
  type: "Pooling"
  bottom: "conv22"
  top: "pool2"
  pooling_param {
    pool: MAX
    kernel_size: 2
    stride: 2
  }
}
layer {
  name: "conv31"
  type: "Convolution"
  bottom: "pool2"
  top: "conv31"
  param {
    lr_mult: 1
    decay_mult: 1
  }
  param {
    lr_mult: 2
    decay_mult: 0
  }
  convolution_param {
    num_output: 96
    pad: 1
    stride: 1
    weight_filler {
      type: "xavier"
    }
    bias_filler {
      type: "constant"
    }
    kernel_h: 3
    kernel_w: 3
  }
}
layer {
  name: "relu31"
  type: "ReLU"
  bottom: "conv31"
  top: "conv31"
}
layer {
  name: "conv32"
  type: "Convolution"
  bottom: "conv31"
  top: "conv32"
  param {
    lr_mult: 1
    decay_mult: 1
  }
  param {
    lr_mult: 2
    decay_mult: 0
  }
  convolution_param {
    num_output: 192
    pad: 1
    stride: 1
    weight_filler {
      type: "xavier"
    }
    bias_filler {
      type: "constant"
    }
    kernel_h: 3
    kernel_w: 3
  }
}
layer {
  name: "relu32"
  type: "ReLU"
  bottom: "conv32"
  top: "conv32"
}
layer {
  name: "pool3"
  type: "Pooling"
  bottom: "conv32"
  top: "pool3"
  pooling_param {
    pool: MAX
    kernel_size: 2
    stride: 2
  }
}
layer {
  name: "conv41"
  type: "Convolution"
  bottom: "pool3"
  top: "conv41"
  param {
    lr_mult: 1
    decay_mult: 1
  }
  param {
    lr_mult: 2
    decay_mult: 0
  }
  convolution_param {
    num_output: 128
    pad: 1
    stride: 1
    weight_filler {
      type: "xavier"
    }
    bias_filler {
      type: "constant"
    }
    kernel_h: 3
    kernel_w: 3
  }
}
layer {
  name: "relu41"
  type: "ReLU"
  bottom: "conv41"
  top: "conv41"
}
layer {
  name: "conv42"
  type: "Convolution"
  bottom: "conv41"
  top: "conv42"
  param {
    lr_mult: 1
    decay_mult: 1
  }
  param {
    lr_mult: 2
    decay_mult: 0
  }
  convolution_param {
    num_output: 256
    pad: 1
    stride: 1
    weight_filler {
      type: "xavier"
    }
    bias_filler {
      type: "constant"
    }
    kernel_h: 3
    kernel_w: 3
  }
}
layer {
  name: "relu42"
  type: "ReLU"
  bottom: "conv42"
  top: "conv42"
}
layer {
  name: "pool4"
  type: "Pooling"
  bottom: "conv42"
  top: "pool4"
  pooling_param {
    pool: MAX
    kernel_size: 2
    stride: 2
  }
}
layer {
  name: "conv51"
  type: "Convolution"
  bottom: "pool4"
  top: "conv51"
  param {
    lr_mult: 1
    decay_mult: 1
  }
  param {
    lr_mult: 2
    decay_mult: 0
  }
  convolution_param {
    num_output: 256
    pad: 1
    stride: 1
    weight_filler {
      type: "xavier"
    }
    bias_filler {
      type: "constant"
    }
    kernel_h: 3
    kernel_w: 3
  }
}
layer {
  name: "relu51"
  type: "ReLU"
  bottom: "conv51"
  top: "conv51"
}
layer {
  name: "conv52"
  type: "Convolution"
  bottom: "conv51"
  top: "conv52"
  param {
    lr_mult: 1
    decay_mult: 1
  }
  param {
    lr_mult: 2
    decay_mult: 0
  }
  convolution_param {
    num_output: 256
    pad: 1
    stride: 1
    weight_filler {
      type: "xavier"
    }
    bias_filler {
      type: "constant"
    }
    kernel_h: 3
    kernel_w: 3
  }
}
layer {
  name: "relu52"
  type: "ReLU"
  bottom: "conv52"
  top: "conv52"
}
layer {
  name: "conv53"
  type: "Convolution"
  bottom: "conv52"
  top: "conv53"
  param {
    lr_mult: 1
    decay_mult: 1
  }
  param {
    lr_mult: 2
    decay_mult: 0
  }
  convolution_param {
    num_output: 256
    pad: 0
    stride: 1
    weight_filler {
      type: "xavier"
    }
    bias_filler {
      type: "constant"
    }
    kernel_h: 7
    kernel_w: 7
  }
}
layer {
  name: "relu53"
  type: "ReLU"
  bottom: "conv53"
  top: "conv53"
}
layer {
  name: "drop6"
  type: "Dropout"
  bottom: "conv53"
  top: "conv53"
  dropout_param {
    dropout_ratio: 0.5
  }
}
layer {
  name: "conv_c"
  type: "Convolution"
  bottom: "conv53"
  top: "conv_c"
  param {
    lr_mult: 1
    decay_mult: 1
  }
  param {
    lr_mult: 2
    decay_mult: 0
  }
  convolution_param {
    num_output: 2
    pad: 0
    stride: 1
    weight_filler {
      type: "xavier"
    }
    bias_filler {
      type: "constant"
    }
    kernel_h: 1
    kernel_w: 1
  }
}
layer {
  name: "accuracy"
  type: "Accuracy"
  bottom: "conv_c"
  bottom: "label"
  top: "accuracy"
  include {
    phase: TEST
  }
}
layer {
  name: "loss"
  type: "SoftmaxWithLoss"
  bottom: "conv_c"
  bottom: "label"
  top: "loss"
}
I0714 15:07:42.388737 58699 layer_factory.hpp:76] Creating layer data
I0714 15:07:42.487756 58699 net.cpp:110] Creating Layer data
I0714 15:07:42.487830 58699 net.cpp:433] data -> data
I0714 15:07:42.487870 58699 net.cpp:433] data -> label
I0714 15:07:42.489614 58702 db_lmdb.cpp:22] Opened lmdb ../../step01_generate_traing_data/TEDB
I0714 15:07:42.489842 58699 data_layer.cpp:44] output data size: 32,3,100,100
I0714 15:07:42.504962 58699 net.cpp:155] Setting up data
I0714 15:07:42.505009 58699 net.cpp:163] Top shape: 32 3 100 100 (960000)
I0714 15:07:42.505030 58699 net.cpp:163] Top shape: 32 (32)
I0714 15:07:42.505049 58699 layer_factory.hpp:76] Creating layer label_data_1_split
I0714 15:07:42.505085 58699 net.cpp:110] Creating Layer label_data_1_split
I0714 15:07:42.505097 58699 net.cpp:477] label_data_1_split <- label
I0714 15:07:42.505116 58699 net.cpp:433] label_data_1_split -> label_data_1_split_0
I0714 15:07:42.505149 58699 net.cpp:433] label_data_1_split -> label_data_1_split_1
I0714 15:07:42.505169 58699 net.cpp:155] Setting up label_data_1_split
I0714 15:07:42.505185 58699 net.cpp:163] Top shape: 32 (32)
I0714 15:07:42.505194 58699 net.cpp:163] Top shape: 32 (32)
I0714 15:07:42.505206 58699 layer_factory.hpp:76] Creating layer conv11
I0714 15:07:42.505221 58699 net.cpp:110] Creating Layer conv11
I0714 15:07:42.505235 58699 net.cpp:477] conv11 <- data
I0714 15:07:42.505252 58699 net.cpp:433] conv11 -> conv11
I0714 15:07:42.507073 58699 net.cpp:155] Setting up conv11
I0714 15:07:42.507103 58699 net.cpp:163] Top shape: 32 32 100 100 (10240000)
I0714 15:07:42.507133 58699 layer_factory.hpp:76] Creating layer relu11
I0714 15:07:42.507164 58699 net.cpp:110] Creating Layer relu11
I0714 15:07:42.507184 58699 net.cpp:477] relu11 <- conv11
I0714 15:07:42.507206 58699 net.cpp:419] relu11 -> conv11 (in-place)
I0714 15:07:42.509112 58699 net.cpp:155] Setting up relu11
I0714 15:07:42.509153 58699 net.cpp:163] Top shape: 32 32 100 100 (10240000)
I0714 15:07:42.509171 58699 layer_factory.hpp:76] Creating layer conv12
I0714 15:07:42.509223 58699 net.cpp:110] Creating Layer conv12
I0714 15:07:42.509246 58699 net.cpp:477] conv12 <- conv11
I0714 15:07:42.509274 58699 net.cpp:433] conv12 -> conv12
I0714 15:07:42.511114 58699 net.cpp:155] Setting up conv12
I0714 15:07:42.511143 58699 net.cpp:163] Top shape: 32 64 100 100 (20480000)
I0714 15:07:42.511173 58699 layer_factory.hpp:76] Creating layer relu12
I0714 15:07:42.511206 58699 net.cpp:110] Creating Layer relu12
I0714 15:07:42.511225 58699 net.cpp:477] relu12 <- conv12
I0714 15:07:42.511250 58699 net.cpp:419] relu12 -> conv12 (in-place)
I0714 15:07:42.511958 58699 net.cpp:155] Setting up relu12
I0714 15:07:42.512001 58699 net.cpp:163] Top shape: 32 64 100 100 (20480000)
I0714 15:07:42.512013 58699 layer_factory.hpp:76] Creating layer pool1
I0714 15:07:42.512037 58699 net.cpp:110] Creating Layer pool1
I0714 15:07:42.512049 58699 net.cpp:477] pool1 <- conv12
I0714 15:07:42.512071 58699 net.cpp:433] pool1 -> pool1
I0714 15:07:42.512645 58699 net.cpp:155] Setting up pool1
I0714 15:07:42.512676 58699 net.cpp:163] Top shape: 32 64 50 50 (5120000)
I0714 15:07:42.512686 58699 layer_factory.hpp:76] Creating layer conv21
I0714 15:07:42.512699 58699 net.cpp:110] Creating Layer conv21
I0714 15:07:42.512708 58699 net.cpp:477] conv21 <- pool1
I0714 15:07:42.512720 58699 net.cpp:433] conv21 -> conv21
I0714 15:07:42.514308 58699 net.cpp:155] Setting up conv21
I0714 15:07:42.514329 58699 net.cpp:163] Top shape: 32 64 50 50 (5120000)
I0714 15:07:42.514358 58699 layer_factory.hpp:76] Creating layer relu21
I0714 15:07:42.514370 58699 net.cpp:110] Creating Layer relu21
I0714 15:07:42.514379 58699 net.cpp:477] relu21 <- conv21
I0714 15:07:42.514437 58699 net.cpp:419] relu21 -> conv21 (in-place)
I0714 15:07:42.515213 58699 net.cpp:155] Setting up relu21
I0714 15:07:42.515233 58699 net.cpp:163] Top shape: 32 64 50 50 (5120000)
I0714 15:07:42.515242 58699 layer_factory.hpp:76] Creating layer conv22
I0714 15:07:42.515256 58699 net.cpp:110] Creating Layer conv22
I0714 15:07:42.515264 58699 net.cpp:477] conv22 <- conv21
I0714 15:07:42.515275 58699 net.cpp:433] conv22 -> conv22
I0714 15:07:42.517953 58699 net.cpp:155] Setting up conv22
I0714 15:07:42.517992 58699 net.cpp:163] Top shape: 32 128 50 50 (10240000)
I0714 15:07:42.518004 58699 layer_factory.hpp:76] Creating layer relu22
I0714 15:07:42.518019 58699 net.cpp:110] Creating Layer relu22
I0714 15:07:42.518028 58699 net.cpp:477] relu22 <- conv22
I0714 15:07:42.518050 58699 net.cpp:419] relu22 -> conv22 (in-place)
I0714 15:07:42.518244 58699 net.cpp:155] Setting up relu22
I0714 15:07:42.518272 58699 net.cpp:163] Top shape: 32 128 50 50 (10240000)
I0714 15:07:42.518281 58699 layer_factory.hpp:76] Creating layer pool2
I0714 15:07:42.518292 58699 net.cpp:110] Creating Layer pool2
I0714 15:07:42.518301 58699 net.cpp:477] pool2 <- conv22
I0714 15:07:42.518312 58699 net.cpp:433] pool2 -> pool2
I0714 15:07:42.518815 58699 net.cpp:155] Setting up pool2
I0714 15:07:42.518834 58699 net.cpp:163] Top shape: 32 128 25 25 (2560000)
I0714 15:07:42.518856 58699 layer_factory.hpp:76] Creating layer conv31
I0714 15:07:42.518873 58699 net.cpp:110] Creating Layer conv31
I0714 15:07:42.518882 58699 net.cpp:477] conv31 <- pool2
I0714 15:07:42.518895 58699 net.cpp:433] conv31 -> conv31
I0714 15:07:42.521427 58699 net.cpp:155] Setting up conv31
I0714 15:07:42.521448 58699 net.cpp:163] Top shape: 32 96 25 25 (1920000)
I0714 15:07:42.521463 58699 layer_factory.hpp:76] Creating layer relu31
I0714 15:07:42.521477 58699 net.cpp:110] Creating Layer relu31
I0714 15:07:42.521486 58699 net.cpp:477] relu31 <- conv31
I0714 15:07:42.521507 58699 net.cpp:419] relu31 -> conv31 (in-place)
I0714 15:07:42.522277 58699 net.cpp:155] Setting up relu31
I0714 15:07:42.522296 58699 net.cpp:163] Top shape: 32 96 25 25 (1920000)
I0714 15:07:42.522305 58699 layer_factory.hpp:76] Creating layer conv32
I0714 15:07:42.522320 58699 net.cpp:110] Creating Layer conv32
I0714 15:07:42.522328 58699 net.cpp:477] conv32 <- conv31
I0714 15:07:42.522338 58699 net.cpp:433] conv32 -> conv32
I0714 15:07:42.525516 58699 net.cpp:155] Setting up conv32
I0714 15:07:42.525552 58699 net.cpp:163] Top shape: 32 192 25 25 (3840000)
I0714 15:07:42.525565 58699 layer_factory.hpp:76] Creating layer relu32
I0714 15:07:42.525580 58699 net.cpp:110] Creating Layer relu32
I0714 15:07:42.525593 58699 net.cpp:477] relu32 <- conv32
I0714 15:07:42.525602 58699 net.cpp:419] relu32 -> conv32 (in-place)
I0714 15:07:42.525821 58699 net.cpp:155] Setting up relu32
I0714 15:07:42.525847 58699 net.cpp:163] Top shape: 32 192 25 25 (3840000)
I0714 15:07:42.525856 58699 layer_factory.hpp:76] Creating layer pool3
I0714 15:07:42.525882 58699 net.cpp:110] Creating Layer pool3
I0714 15:07:42.525892 58699 net.cpp:477] pool3 <- conv32
I0714 15:07:42.525902 58699 net.cpp:433] pool3 -> pool3
I0714 15:07:42.526388 58699 net.cpp:155] Setting up pool3
I0714 15:07:42.526410 58699 net.cpp:163] Top shape: 32 192 13 13 (1038336)
I0714 15:07:42.526419 58699 layer_factory.hpp:76] Creating layer conv41
I0714 15:07:42.526443 58699 net.cpp:110] Creating Layer conv41
I0714 15:07:42.526451 58699 net.cpp:477] conv41 <- pool3
I0714 15:07:42.526463 58699 net.cpp:433] conv41 -> conv41
I0714 15:07:42.531098 58699 net.cpp:155] Setting up conv41
I0714 15:07:42.531131 58699 net.cpp:163] Top shape: 32 128 13 13 (692224)
I0714 15:07:42.531143 58699 layer_factory.hpp:76] Creating layer relu41
I0714 15:07:42.531155 58699 net.cpp:110] Creating Layer relu41
I0714 15:07:42.531167 58699 net.cpp:477] relu41 <- conv41
I0714 15:07:42.531177 58699 net.cpp:419] relu41 -> conv41 (in-place)
I0714 15:07:42.531338 58699 net.cpp:155] Setting up relu41
I0714 15:07:42.531355 58699 net.cpp:163] Top shape: 32 128 13 13 (692224)
I0714 15:07:42.531391 58699 layer_factory.hpp:76] Creating layer conv42
I0714 15:07:42.531406 58699 net.cpp:110] Creating Layer conv42
I0714 15:07:42.531452 58699 net.cpp:477] conv42 <- conv41
I0714 15:07:42.531466 58699 net.cpp:433] conv42 -> conv42
I0714 15:07:42.535040 58699 net.cpp:155] Setting up conv42
I0714 15:07:42.535060 58699 net.cpp:163] Top shape: 32 256 13 13 (1384448)
I0714 15:07:42.535071 58699 layer_factory.hpp:76] Creating layer relu42
I0714 15:07:42.535084 58699 net.cpp:110] Creating Layer relu42
I0714 15:07:42.535091 58699 net.cpp:477] relu42 <- conv42
I0714 15:07:42.535099 58699 net.cpp:419] relu42 -> conv42 (in-place)
I0714 15:07:42.535512 58699 net.cpp:155] Setting up relu42
I0714 15:07:42.535531 58699 net.cpp:163] Top shape: 32 256 13 13 (1384448)
I0714 15:07:42.535538 58699 layer_factory.hpp:76] Creating layer pool4
I0714 15:07:42.535550 58699 net.cpp:110] Creating Layer pool4
I0714 15:07:42.535558 58699 net.cpp:477] pool4 <- conv42
I0714 15:07:42.535567 58699 net.cpp:433] pool4 -> pool4
I0714 15:07:42.535717 58699 net.cpp:155] Setting up pool4
I0714 15:07:42.535732 58699 net.cpp:163] Top shape: 32 256 7 7 (401408)
I0714 15:07:42.535739 58699 layer_factory.hpp:76] Creating layer conv51
I0714 15:07:42.535753 58699 net.cpp:110] Creating Layer conv51
I0714 15:07:42.535760 58699 net.cpp:477] conv51 <- pool4
I0714 15:07:42.535774 58699 net.cpp:433] conv51 -> conv51
I0714 15:07:42.541388 58699 net.cpp:155] Setting up conv51
I0714 15:07:42.541410 58699 net.cpp:163] Top shape: 32 256 7 7 (401408)
I0714 15:07:42.541440 58699 layer_factory.hpp:76] Creating layer relu51
I0714 15:07:42.541450 58699 net.cpp:110] Creating Layer relu51
I0714 15:07:42.541457 58699 net.cpp:477] relu51 <- conv51
I0714 15:07:42.541466 58699 net.cpp:419] relu51 -> conv51 (in-place)
I0714 15:07:42.541613 58699 net.cpp:155] Setting up relu51
I0714 15:07:42.541630 58699 net.cpp:163] Top shape: 32 256 7 7 (401408)
I0714 15:07:42.541637 58699 layer_factory.hpp:76] Creating layer conv52
I0714 15:07:42.541648 58699 net.cpp:110] Creating Layer conv52
I0714 15:07:42.541656 58699 net.cpp:477] conv52 <- conv51
I0714 15:07:42.541667 58699 net.cpp:433] conv52 -> conv52
I0714 15:07:42.547569 58699 net.cpp:155] Setting up conv52
I0714 15:07:42.547590 58699 net.cpp:163] Top shape: 32 256 7 7 (401408)
I0714 15:07:42.547601 58699 layer_factory.hpp:76] Creating layer relu52
I0714 15:07:42.547624 58699 net.cpp:110] Creating Layer relu52
I0714 15:07:42.547632 58699 net.cpp:477] relu52 <- conv52
I0714 15:07:42.547643 58699 net.cpp:419] relu52 -> conv52 (in-place)
I0714 15:07:42.548072 58699 net.cpp:155] Setting up relu52
I0714 15:07:42.548090 58699 net.cpp:163] Top shape: 32 256 7 7 (401408)
I0714 15:07:42.548099 58699 layer_factory.hpp:76] Creating layer conv53
I0714 15:07:42.548111 58699 net.cpp:110] Creating Layer conv53
I0714 15:07:42.548121 58699 net.cpp:477] conv53 <- conv52
I0714 15:07:42.548130 58699 net.cpp:433] conv53 -> conv53
I0714 15:07:42.573604 58699 net.cpp:155] Setting up conv53
I0714 15:07:42.573638 58699 net.cpp:163] Top shape: 32 256 1 1 (8192)
I0714 15:07:42.573652 58699 layer_factory.hpp:76] Creating layer relu53
I0714 15:07:42.573665 58699 net.cpp:110] Creating Layer relu53
I0714 15:07:42.573674 58699 net.cpp:477] relu53 <- conv53
I0714 15:07:42.573683 58699 net.cpp:419] relu53 -> conv53 (in-place)
I0714 15:07:42.573837 58699 net.cpp:155] Setting up relu53
I0714 15:07:42.573853 58699 net.cpp:163] Top shape: 32 256 1 1 (8192)
I0714 15:07:42.573860 58699 layer_factory.hpp:76] Creating layer drop6
I0714 15:07:42.573870 58699 net.cpp:110] Creating Layer drop6
I0714 15:07:42.573878 58699 net.cpp:477] drop6 <- conv53
I0714 15:07:42.573889 58699 net.cpp:419] drop6 -> conv53 (in-place)
I0714 15:07:42.573899 58699 net.cpp:155] Setting up drop6
I0714 15:07:42.573907 58699 net.cpp:163] Top shape: 32 256 1 1 (8192)
I0714 15:07:42.573915 58699 layer_factory.hpp:76] Creating layer conv_c
I0714 15:07:42.573925 58699 net.cpp:110] Creating Layer conv_c
I0714 15:07:42.573932 58699 net.cpp:477] conv_c <- conv53
I0714 15:07:42.573943 58699 net.cpp:433] conv_c -> conv_c
I0714 15:07:42.575016 58699 net.cpp:155] Setting up conv_c
I0714 15:07:42.575036 58699 net.cpp:163] Top shape: 32 2 1 1 (64)
I0714 15:07:42.575047 58699 layer_factory.hpp:76] Creating layer conv_c_conv_c_0_split
I0714 15:07:42.575058 58699 net.cpp:110] Creating Layer conv_c_conv_c_0_split
I0714 15:07:42.575067 58699 net.cpp:477] conv_c_conv_c_0_split <- conv_c
I0714 15:07:42.575075 58699 net.cpp:433] conv_c_conv_c_0_split -> conv_c_conv_c_0_split_0
I0714 15:07:42.575084 58699 net.cpp:433] conv_c_conv_c_0_split -> conv_c_conv_c_0_split_1
I0714 15:07:42.575095 58699 net.cpp:155] Setting up conv_c_conv_c_0_split
I0714 15:07:42.575103 58699 net.cpp:163] Top shape: 32 2 1 1 (64)
I0714 15:07:42.575111 58699 net.cpp:163] Top shape: 32 2 1 1 (64)
I0714 15:07:42.575119 58699 layer_factory.hpp:76] Creating layer accuracy
I0714 15:07:42.575134 58699 net.cpp:110] Creating Layer accuracy
I0714 15:07:42.575144 58699 net.cpp:477] accuracy <- conv_c_conv_c_0_split_0
I0714 15:07:42.575150 58699 net.cpp:477] accuracy <- label_data_1_split_0
I0714 15:07:42.575160 58699 net.cpp:433] accuracy -> accuracy
I0714 15:07:42.575173 58699 net.cpp:155] Setting up accuracy
…
