…
I0705 17:08:34.849273 51717 net.cpp:322] The NetState phase (0) differed from the phase (1) specified by a rule in layer acc/top-1
I0705 17:08:34.849767 51717 net.cpp:49] Initializing net from parameters: 
name: "ResNet-18"
state {
  phase: TRAIN
}
layer {
  name: "data"
  type: "ImageData"
  top: "data"
  top: "label"
  include {
    phase: TRAIN
  }
  transform_param {
    mirror: true
    crop_size: 224
    mean_value: 104
    mean_value: 117
    mean_value: 123
  }
  image_data_param {
    source: "../lists/roi-train-L0.lst"
    batch_size: 32
    shuffle: true
    new_height: 256
    new_width: 256
  }
}
layer {
  name: "conv1"
  type: "Convolution"
  bottom: "data"
  top: "conv1"
  param {
    lr_mult: 1
    decay_mult: 1
  }
  param {
    lr_mult: 2
    decay_mult: 0
  }
  convolution_param {
    num_output: 64
    pad: 0
    kernel_size: 7
    stride: 2
    weight_filler {
      type: "msra"
    }
    bias_filler {
      type: "constant"
      value: 0
    }
  }
}
layer {
  name: "conv1_bn"
  type: "BatchNorm"
  bottom: "conv1"
  top: "conv1_bn"
  param {
    lr_mult: 0
  }
  param {
    lr_mult: 0
  }
  param {
    lr_mult: 0
  }
}
layer {
  name: "conv1_relu"
  type: "ReLU"
  bottom: "conv1_bn"
  top: "conv1_bn"
}
layer {
  name: "pool1"
  type: "Pooling"
  bottom: "conv1_bn"
  top: "pool1"
  pooling_param {
    pool: MAX
    kernel_size: 3
    stride: 2
  }
}
layer {
  name: "conv1_output"
  type: "Convolution"
  bottom: "pool1"
  top: "conv1_output"
  param {
    lr_mult: 1
    decay_mult: 1
  }
  param {
    lr_mult: 2
    decay_mult: 0
  }
  convolution_param {
    num_output: 256
    pad: 0
    kernel_size: 1
    stride: 1
    weight_filler {
      type: "msra"
    }
    bias_filler {
      type: "constant"
      value: 0
    }
  }
}
layer {
  name: "conv2_1_1"
  type: "Convolution"
  bottom: "pool1"
  top: "conv2_1_1"
  param {
    lr_mult: 1
    decay_mult: 1
  }
  param {
    lr_mult: 2
    decay_mult: 0
  }
  convolution_param {
    num_output: 64
    pad: 0
    kernel_size: 1
    stride: 1
    weight_filler {
      type: "msra"
    }
    bias_filler {
      type: "constant"
      value: 0
    }
  }
}
layer {
  name: "conv2_1_1_bn"
  type: "BatchNorm"
  bottom: "conv2_1_1"
  top: "conv2_1_1_bn"
  param {
    lr_mult: 0
  }
  param {
    lr_mult: 0
  }
  param {
    lr_mult: 0
  }
}
layer {
  name: "conv2_1_1_relu"
  type: "ReLU"
  bottom: "conv2_1_1_bn"
  top: "conv2_1_1_bn"
}
layer {
  name: "conv2_1_2"
  type: "Convolution"
  bottom: "conv2_1_1_bn"
  top: "conv2_1_2"
  param {
    lr_mult: 1
    decay_mult: 1
  }
  param {
    lr_mult: 2
    decay_mult: 0
  }
  convolution_param {
    num_output: 64
    pad: 1
    kernel_size: 3
    stride: 1
    weight_filler {
      type: "msra"
    }
    bias_filler {
      type: "constant"
      value: 0
    }
  }
}
layer {
  name: "conv2_1_2_bn"
  type: "BatchNorm"
  bottom: "conv2_1_2"
  top: "conv2_1_2_bn"
  param {
    lr_mult: 0
  }
  param {
    lr_mult: 0
  }
  param {
    lr_mult: 0
  }
}
layer {
  name: "conv2_1_2_relu"
  type: "ReLU"
  bottom: "conv2_1_2_bn"
  top: "conv2_1_2_bn"
}
layer {
  name: "conv2_1_3"
  type: "Convolution"
  bottom: "conv2_1_2_bn"
  top: "conv2_1_3"
  param {
    lr_mult: 1
    decay_mult: 1
  }
  param {
    lr_mult: 2
    decay_mult: 0
  }
  convolution_param {
    num_output: 256
    pad: 0
    kernel_size: 1
    stride: 1
    weight_filler {
      type: "msra"
    }
    bias_filler {
      type: "constant"
      value: 0
    }
  }
}
layer {
  name: "conv2_1_sum"
  type: "Eltwise"
  bottom: "conv1_output"
  bottom: "conv2_1_3"
  top: "conv2_1_sum"
  eltwise_param {
    operation: SUM
  }
}
layer {
  name: "conv2_1_sum_bn"
  type: "BatchNorm"
  bottom: "conv2_1_sum"
  top: "conv2_1_sum_bn"
  param {
    lr_mult: 0
  }
  param {
    lr_mult: 0
  }
  param {
    lr_mult: 0
  }
}
layer {
  name: "conv2_1_sum_relu"
  type: "ReLU"
  bottom: "conv2_1_sum_bn"
  top: "conv2_1_sum_bn"
}
layer {
  name: "conv2_2_1"
  type: "Convolution"
  bottom: "conv2_1_sum_bn"
  top: "conv2_2_1"
  param {
    lr_mult: 1
    decay_mult: 1
  }
  param {
    lr_mult: 2
    decay_mult: 0
  }
  convolution_param {
    num_output: 64
    pad: 0
    kernel_size: 1
    stride: 1
    weight_filler {
      type: "msra"
    }
    bias_filler {
      type: "constant"
      value: 0
    }
  }
}
layer {
  name: "conv2_2_1_bn"
  type: "BatchNorm"
  bottom: "conv2_2_1"
  top: "conv2_2_1_bn"
  param {
    lr_mult: 0
  }
  param {
    lr_mult: 0
  }
  param {
    lr_mult: 0
  }
}
layer {
  name: "conv2_2_1_relu"
  type: "ReLU"
  bottom: "conv2_2_1_bn"
  top: "conv2_2_1_bn"
}
layer {
  name: "conv2_2_2"
  type: "Convolution"
  bottom: "conv2_2_1_bn"
  top: "conv2_2_2"
  param {
    lr_mult: 1
    decay_mult: 1
  }
  param {
    lr_mult: 2
    decay_mult: 0
  }
  convolution_param {
    num_output: 64
    pad: 1
    kernel_size: 3
    stride: 1
    weight_filler {
      type: "msra"
    }
    bias_filler {
      type: "constant"
      value: 0
    }
  }
}
layer {
  name: "conv2_2_2_bn"
  type: "BatchNorm"
  bottom: "conv2_2_2"
  top: "conv2_2_2_bn"
  param {
    lr_mult: 0
  }
  param {
    lr_mult: 0
  }
  param {
    lr_mult: 0
  }
}
layer {
  name: "conv2_2_2_relu"
  type: "ReLU"
  bottom: "conv2_2_2_bn"
  top: "conv2_2_2_bn"
}
layer {
  name: "conv2_2_3"
  type: "Convolution"
  bottom: "conv2_2_2_bn"
  top: "conv2_2_3"
  param {
    lr_mult: 1
    decay_mult: 1
  }
  param {
    lr_mult: 2
    decay_mult: 0
  }
  convolution_param {
    num_output: 256
    pad: 0
    kernel_size: 1
    stride: 1
    weight_filler {
      type: "msra"
    }
    bias_filler {
      type: "constant"
      value: 0
    }
  }
}
layer {
  name: "conv2_2_sum"
  type: "Eltwise"
  bottom: "conv2_1_sum_bn"
  bottom: "conv2_2_3"
  top: "conv2_2_sum"
  eltwise_param {
    operation: SUM
  }
}
layer {
  name: "conv2_2_sum_bn"
  type: "BatchNorm"
  bottom: "conv2_2_sum"
  top: "conv2_2_sum_bn"
  param {
    lr_mult: 0
  }
  param {
    lr_mult: 0
  }
  param {
    lr_mult: 0
  }
}
layer {
  name: "conv2_2_sum_relu"
  type: "ReLU"
  bottom: "conv2_2_sum_bn"
  top: "conv2_2_sum_bn"
}
layer {
  name: "conv2_output"
  type: "Convolution"
  bottom: "conv2_2_sum_bn"
  top: "conv2_output"
  param {
    lr_mult: 1
    decay_mult: 1
  }
  param {
    lr_mult: 2
    decay_mult: 0
  }
  convolution_param {
    num_output: 512
    pad: 0
    kernel_size: 1
    stride: 2
    weight_filler {
      type: "msra"
    }
    bias_filler {
      type: "constant"
      value: 0
    }
  }
}
layer {
  name: "conv3_1_1"
  type: "Convolution"
  bottom: "conv2_2_sum_bn"
  top: "conv3_1_1"
  param {
    lr_mult: 1
    decay_mult: 1
  }
  param {
    lr_mult: 2
    decay_mult: 0
  }
  convolution_param {
    num_output: 128
    pad: 0
    kernel_size: 1
    stride: 2
    weight_filler {
      type: "msra"
    }
    bias_filler {
      type: "constant"
      value: 0
    }
  }
}
layer {
  name: "conv3_1_1_bn"
  type: "BatchNorm"
  bottom: "conv3_1_1"
  top: "conv3_1_1_bn"
  param {
    lr_mult: 0
  }
  param {
    lr_mult: 0
  }
  param {
    lr_mult: 0
  }
}
layer {
  name: "conv3_1_1_relu"
  type: "ReLU"
  bottom: "conv3_1_1_bn"
  top: "conv3_1_1_bn"
}
layer {
  name: "conv3_1_2"
  type: "Convolution"
  bottom: "conv3_1_1_bn"
  top: "conv3_1_2"
  param {
    lr_mult: 1
    decay_mult: 1
  }
  param {
    lr_mult: 2
    decay_mult: 0
  }
  convolution_param {
    num_output: 128
    pad: 1
    kernel_size: 3
    stride: 1
    weight_filler {
      type: "msra"
    }
    bias_filler {
      type: "constant"
      value: 0
    }
  }
}
layer {
  name: "conv3_1_2_bn"
  type: "BatchNorm"
  bottom: "conv3_1_2"
  top: "conv3_1_2_bn"
  param {
    lr_mult: 0
  }
  param {
    lr_mult: 0
  }
  param {
    lr_mult: 0
  }
}
layer {
  name: "conv3_1_2_relu"
  type: "ReLU"
  bottom: "conv3_1_2_bn"
  top: "conv3_1_2_bn"
}
layer {
  name: "conv3_1_3"
  type: "Convolution"
  bottom: "conv3_1_2_bn"
  top: "conv3_1_3"
  param {
    lr_mult: 1
    decay_mult: 1
  }
  param {
    lr_mult: 2
    decay_mult: 0
  }
  convolution_param {
    num_output: 512
    pad: 0
    kernel_size: 1
    stride: 1
    weight_filler {
      type: "msra"
    }
    bias_filler {
      type: "constant"
      value: 0
    }
  }
}
layer {
  name: "conv3_1_sum"
  type: "Eltwise"
  bottom: "conv2_output"
  bottom: "conv3_1_3"
  top: "conv3_1_sum"
  eltwise_param {
    operation: SUM
  }
}
layer {
  name: "conv3_1_sum_bn"
  type: "BatchNorm"
  bottom: "conv3_1_sum"
  top: "conv3_1_sum_bn"
  param {
    lr_mult: 0
  }
  param {
    lr_mult: 0
  }
  param {
    lr_mult: 0
  }
}
layer {
  name: "conv3_1_sum_relu"
  type: "ReLU"
  bottom: "conv3_1_sum_bn"
  top: "conv3_1_sum_bn"
}
layer {
  name: "conv3_2_1"
  type: "Convolution"
  bottom: "conv3_1_sum_bn"
  top: "conv3_2_1"
  param {
    lr_mult: 1
    decay_mult: 1
  }
  param {
    lr_mult: 2
    decay_mult: 0
  }
  convolution_param {
    num_output: 128
    pad: 0
    kernel_size: 1
    stride: 1
    weight_filler {
      type: "msra"
    }
    bias_filler {
      type: "constant"
      value: 0
    }
  }
}
layer {
  name: "conv3_2_1_bn"
  type: "BatchNorm"
  bottom: "conv3_2_1"
  top: "conv3_2_1_bn"
  param {
    lr_mult: 0
  }
  param {
    lr_mult: 0
  }
  param {
    lr_mult: 0
  }
}
layer {
  name: "conv3_2_1_relu"
  type: "ReLU"
  bottom: "conv3_2_1_bn"
  top: "conv3_2_1_bn"
}
layer {
  name: "conv3_2_2"
  type: "Convolution"
  bottom: "conv3_2_1_bn"
  top: "conv3_2_2"
  param {
    lr_mult: 1
    decay_mult: 1
  }
  param {
    lr_mult: 2
    decay_mult: 0
  }
  convolution_param {
    num_output: 128
    pad: 1
    kernel_size: 3
    stride: 1
    weight_filler {
      type: "msra"
    }
    bias_filler {
      type: "constant"
      value: 0
    }
  }
}
layer {
  name: "conv3_2_2_bn"
  type: "BatchNorm"
  bottom: "conv3_2_2"
  top: "conv3_2_2_bn"
  param {
    lr_mult: 0
  }
  param {
    lr_mult: 0
  }
  param {
    lr_mult: 0
  }
}
layer {
  name: "conv3_2_2_relu"
  type: "ReLU"
  bottom: "conv3_2_2_bn"
  top: "conv3_2_2_bn"
}
layer {
  name: "conv3_2_3"
  type: "Convolution"
  bottom: "conv3_2_2_bn"
  top: "conv3_2_3"
  param {
    lr_mult: 1
    decay_mult: 1
  }
  param {
    lr_mult: 2
    decay_mult: 0
  }
  convolution_param {
    num_output: 512
    pad: 0
    kernel_size: 1
    stride: 1
    weight_filler {
      type: "msra"
    }
    bias_filler {
      type: "constant"
      value: 0
    }
  }
}
layer {
  name: "conv3_2_sum"
  type: "Eltwise"
  bottom: "conv3_1_sum_bn"
  bottom: "conv3_2_3"
  top: "conv3_2_sum"
  eltwise_param {
    operation: SUM
  }
}
layer {
  name: "conv3_2_sum_bn"
  type: "BatchNorm"
  bottom: "conv3_2_sum"
  top: "conv3_2_sum_bn"
  param {
    lr_mult: 0
  }
  param {
    lr_mult: 0
  }
  param {
    lr_mult: 0
  }
}
layer {
  name: "conv3_2_sum_relu"
  type: "ReLU"
  bottom: "conv3_2_sum_bn"
  top: "conv3_2_sum_bn"
}
layer {
  name: "conv3_output"
  type: "Convolution"
  bottom: "conv3_2_sum_bn"
  top: "conv3_output"
  param {
    lr_mult: 1
    decay_mult: 1
  }
  param {
    lr_mult: 2
    decay_mult: 0
  }
  convolution_param {
    num_output: 1024
    pad: 0
    kernel_size: 1
    stride: 2
    weight_filler {
      type: "msra"
    }
    bias_filler {
      type: "constant"
      value: 0
    }
  }
}
layer {
  name: "conv4_1_1"
  type: "Convolution"
  bottom: "conv3_2_sum_bn"
  top: "conv4_1_1"
  param {
    lr_mult: 1
    decay_mult: 1
  }
  param {
    lr_mult: 2
    decay_mult: 0
  }
  convolution_param {
    num_output: 256
    pad: 0
    kernel_size: 1
    stride: 2
    weight_filler {
      type: "msra"
    }
    bias_filler {
      type: "constant"
      value: 0
    }
  }
}
layer {
  name: "conv4_1_1_bn"
  type: "BatchNorm"
  bottom: "conv4_1_1"
  top: "conv4_1_1_bn"
  param {
    lr_mult: 0
  }
  param {
    lr_mult: 0
  }
  param {
    lr_mult: 0
  }
}
layer {
  name: "conv4_1_1_relu"
  type: "ReLU"
  bottom: "conv4_1_1_bn"
  top: "conv4_1_1_bn"
}
layer {
  name: "conv4_1_2"
  type: "Convolution"
  bottom: "conv4_1_1_bn"
  top: "conv4_1_2"
  param {
    lr_mult: 1
    decay_mult: 1
  }
  param {
    lr_mult: 2
    decay_mult: 0
  }
  convolution_param {
    num_output: 256
    pad: 1
    kernel_size: 3
    stride: 1
    weight_filler {
      type: "msra"
    }
    bias_filler {
      type: "constant"
      value: 0
    }
  }
}
layer {
  name: "conv4_1_2_bn"
  type: "BatchNorm"
  bottom: "conv4_1_2"
  top: "conv4_1_2_bn"
  param {
    lr_mult: 0
  }
  param {
    lr_mult: 0
  }
  param {
    lr_mult: 0
  }
}
layer {
  name: "conv4_1_2_relu"
  type: "ReLU"
  bottom: "conv4_1_2_bn"
  top: "conv4_1_2_bn"
}
layer {
  name: "conv4_1_3"
  type: "Convolution"
  bottom: "conv4_1_2_bn"
  top: "conv4_1_3"
  param {
    lr_mult: 1
    decay_mult: 1
  }
  param {
    lr_mult: 2
    decay_mult: 0
  }
  convolution_param {
    num_output: 1024
    pad: 0
    kernel_size: 1
    stride: 1
    weight_filler {
      type: "msra"
    }
    bias_filler {
      type: "constant"
      value: 0
    }
  }
}
layer {
  name: "conv4_1_sum"
  type: "Eltwise"
  bottom: "conv3_output"
  bottom: "conv4_1_3"
  top: "conv4_1_sum"
  eltwise_param {
    operation: SUM
  }
}
layer {
  name: "conv4_1_sum_bn"
  type: "BatchNorm"
  bottom: "conv4_1_sum"
  top: "conv4_1_sum_bn"
  param {
    lr_mult: 0
  }
  param {
    lr_mult: 0
  }
  param {
    lr_mult: 0
  }
}
layer {
  name: "conv4_1_sum_relu"
  type: "ReLU"
  bottom: "conv4_1_sum_bn"
  top: "conv4_1_sum_bn"
}
layer {
  name: "conv4_2_1"
  type: "Convolution"
  bottom: "conv4_1_sum_bn"
  top: "conv4_2_1"
  param {
    lr_mult: 1
    decay_mult: 1
  }
  param {
    lr_mult: 2
    decay_mult: 0
  }
  convolution_param {
    num_output: 256
    pad: 0
    kernel_size: 1
    stride: 1
    weight_filler {
      type: "msra"
    }
    bias_filler {
      type: "constant"
      value: 0
    }
  }
}
layer {
  name: "conv4_2_1_bn"
  type: "BatchNorm"
  bottom: "conv4_2_1"
  top: "conv4_2_1_bn"
  param {
    lr_mult: 0
  }
  param {
    lr_mult: 0
  }
  param {
    lr_mult: 0
  }
}
layer {
  name: "conv4_2_1_relu"
  type: "ReLU"
  bottom: "conv4_2_1_bn"
  top: "conv4_2_1_bn"
}
layer {
  name: "conv4_2_2"
  type: "Convolution"
  bottom: "conv4_2_1_bn"
  top: "conv4_2_2"
  param {
    lr_mult: 1
    decay_mult: 1
  }
  param {
    lr_mult: 2
    decay_mult: 0
  }
  convolution_param {
    num_output: 256
    pad: 1
    kernel_size: 3
    stride: 1
    weight_filler {
      type: "msra"
    }
    bias_filler {
      type: "constant"
      value: 0
    }
  }
}
layer {
  name: "conv4_2_2_bn"
  type: "BatchNorm"
  bottom: "conv4_2_2"
  top: "conv4_2_2_bn"
  param {
    lr_mult: 0
  }
  param {
    lr_mult: 0
  }
  param {
    lr_mult: 0
  }
}
layer {
  name: "conv4_2_2_relu"
  type: "ReLU"
  bottom: "conv4_2_2_bn"
  top: "conv4_2_2_bn"
}
layer {
  name: "conv4_2_3"
  type: "Convolution"
  bottom: "conv4_2_2_bn"
  top: "conv4_2_3"
  param {
    lr_mult: 1
    decay_mult: 1
  }
  param {
    lr_mult: 2
    decay_mult: 0
  }
  convolution_param {
    num_output: 1024
    pad: 0
    kernel_size: 1
    stride: 1
    weight_filler {
      type: "msra"
    }
    bias_filler {
      type: "constant"
      value: 0
    }
  }
}
layer {
  name: "conv4_2_sum"
  type: "Eltwise"
  bottom: "conv4_1_sum_bn"
  bottom: "conv4_2_3"
  top: "conv4_2_sum"
  eltwise_param {
    operation: SUM
  }
}
layer {
  name: "conv4_2_sum_bn"
  type: "BatchNorm"
  bottom: "conv4_2_sum"
  top: "conv4_2_sum_bn"
  param {
    lr_mult: 0
  }
  param {
    lr_mult: 0
  }
  param {
    lr_mult: 0
  }
}
layer {
  name: "conv4_2_sum_relu"
  type: "ReLU"
  bottom: "conv4_2_sum_bn"
  top: "conv4_2_sum_bn"
}
layer {
  name: "conv4_output"
  type: "Convolution"
  bottom: "conv4_2_sum_bn"
  top: "conv4_output"
  param {
    lr_mult: 1
    decay_mult: 1
  }
  param {
    lr_mult: 2
    decay_mult: 0
  }
  convolution_param {
    num_output: 2048
    pad: 0
    kernel_size: 1
    stride: 2
    weight_filler {
      type: "msra"
    }
    bias_filler {
      type: "constant"
      value: 0
    }
  }
}
layer {
  name: "conv5_1_1"
  type: "Convolution"
  bottom: "conv4_2_sum_bn"
  top: "conv5_1_1"
  param {
    lr_mult: 1
    decay_mult: 1
  }
  param {
    lr_mult: 2
    decay_mult: 0
  }
  convolution_param {
    num_output: 512
    pad: 0
    kernel_size: 1
    stride: 2
    weight_filler {
      type: "msra"
    }
    bias_filler {
      type: "constant"
      value: 0
    }
  }
}
layer {
  name: "conv5_1_1_bn"
  type: "BatchNorm"
  bottom: "conv5_1_1"
  top: "conv5_1_1_bn"
  param {
    lr_mult: 0
  }
  param {
    lr_mult: 0
  }
  param {
    lr_mult: 0
  }
}
layer {
  name: "conv5_1_1_relu"
  type: "ReLU"
  bottom: "conv5_1_1_bn"
  top: "conv5_1_1_bn"
}
layer {
  name: "conv5_1_2"
  type: "Convolution"
  bottom: "conv5_1_1_bn"
  top: "conv5_1_2"
  param {
    lr_mult: 1
    decay_mult: 1
  }
  param {
    lr_mult: 2
    decay_mult: 0
  }
  convolution_param {
    num_output: 512
    pad: 1
    kernel_size: 3
    stride: 1
    weight_filler {
      type: "msra"
    }
    bias_filler {
      type: "constant"
      value: 0
    }
  }
}
layer {
  name: "conv5_1_2_bn"
  type: "BatchNorm"
  bottom: "conv5_1_2"
  top: "conv5_1_2_bn"
  param {
    lr_mult: 0
  }
  param {
    lr_mult: 0
  }
  param {
    lr_mult: 0
  }
}
layer {
  name: "conv5_1_2_relu"
  type: "ReLU"
  bottom: "conv5_1_2_bn"
  top: "conv5_1_2_bn"
}
layer {
  name: "conv5_1_3"
  type: "Convolution"
  bottom: "conv5_1_2_bn"
  top: "conv5_1_3"
  param {
    lr_mult: 1
    decay_mult: 1
  }
  param {
    lr_mult: 2
    decay_mult: 0
  }
  convolution_param {
    num_output: 2048
    pad: 0
    kernel_size: 1
    stride: 1
    weight_filler {
      type: "msra"
    }
    bias_filler {
      type: "constant"
      value: 0
    }
  }
}
layer {
  name: "conv5_1_sum"
  type: "Eltwise"
  bottom: "conv4_output"
  bottom: "conv5_1_3"
  top: "conv5_1_sum"
  eltwise_param {
    operation: SUM
  }
}
layer {
  name: "conv5_1_sum_bn"
  type: "BatchNorm"
  bottom: "conv5_1_sum"
  top: "conv5_1_sum_bn"
  param {
    lr_mult: 0
  }
  param {
    lr_mult: 0
  }
  param {
    lr_mult: 0
  }
}
layer {
  name: "conv5_1_sum_relu"
  type: "ReLU"
  bottom: "conv5_1_sum_bn"
  top: "conv5_1_sum_bn"
}
layer {
  name: "conv5_2_1"
  type: "Convolution"
  bottom: "conv5_1_sum_bn"
  top: "conv5_2_1"
  param {
    lr_mult: 1
    decay_mult: 1
  }
  param {
    lr_mult: 2
    decay_mult: 0
  }
  convolution_param {
    num_output: 512
    pad: 0
    kernel_size: 1
    stride: 1
    weight_filler {
      type: "msra"
    }
    bias_filler {
      type: "constant"
      value: 0
    }
  }
}
layer {
  name: "conv5_2_1_bn"
  type: "BatchNorm"
  bottom: "conv5_2_1"
  top: "conv5_2_1_bn"
  param {
    lr_mult: 0
  }
  param {
    lr_mult: 0
  }
  param {
    lr_mult: 0
  }
}
layer {
  name: "conv5_2_1_relu"
  type: "ReLU"
  bottom: "conv5_2_1_bn"
  top: "conv5_2_1_bn"
}
layer {
  name: "conv5_2_2"
  type: "Convolution"
  bottom: "conv5_2_1_bn"
  top: "conv5_2_2"
  param {
    lr_mult: 1
    decay_mult: 1
  }
  param {
    lr_mult: 2
    decay_mult: 0
  }
  convolution_param {
    num_output: 512
    pad: 1
    kernel_size: 3
    stride: 1
    weight_filler {
      type: "msra"
    }
    bias_filler {
      type: "constant"
      value: 0
    }
  }
}
layer {
  name: "conv5_2_2_bn"
  type: "BatchNorm"
  bottom: "conv5_2_2"
  top: "conv5_2_2_bn"
  param {
    lr_mult: 0
  }
  param {
    lr_mult: 0
  }
  param {
    lr_mult: 0
  }
}
layer {
  name: "conv5_2_2_relu"
  type: "ReLU"
  bottom: "conv5_2_2_bn"
  top: "conv5_2_2_bn"
}
layer {
  name: "conv5_2_3"
  type: "Convolution"
  bottom: "conv5_2_2_bn"
  top: "conv5_2_3"
  param {
    lr_mult: 1
    decay_mult: 1
  }
  param {
    lr_mult: 2
    decay_mult: 0
  }
  convolution_param {
    num_output: 2048
    pad: 0
    kernel_size: 1
    stride: 1
    weight_filler {
      type: "msra"
    }
    bias_filler {
      type: "constant"
      value: 0
    }
  }
}
layer {
  name: "conv5_2_sum"
  type: "Eltwise"
  bottom: "conv5_1_sum_bn"
  bottom: "conv5_2_3"
  top: "conv5_2_sum"
  eltwise_param {
    operation: SUM
  }
}
layer {
  name: "conv5_2_sum_bn"
  type: "BatchNorm"
  bottom: "conv5_2_sum"
  top: "conv5_2_sum_bn"
  param {
    lr_mult: 0
  }
  param {
    lr_mult: 0
  }
  param {
    lr_mult: 0
  }
}
layer {
  name: "conv5_2_sum_relu"
  type: "ReLU"
  bottom: "conv5_2_sum_bn"
  top: "conv5_2_sum_bn"
}
layer {
  name: "pool2"
  type: "Pooling"
  bottom: "conv5_2_sum_bn"
  top: "pool2"
  pooling_param {
    pool: AVE
    kernel_size: 7
    stride: 1
  }
}
layer {
  name: "fc"
  type: "InnerProduct"
  bottom: "pool2"
  top: "fc"
  param {
    lr_mult: 1
    decay_mult: 1
  }
  param {
    lr_mult: 2
    decay_mult: 0
  }
  inner_product_param {
    num_output: 2
    weight_filler {
      type: "gaussian"
      std: 0.001
    }
    bias_filler {
      type: "constant"
      value: 0
    }
  }
}
layer {
  name: "loss"
  type: "SoftmaxWithLoss"
  bottom: "fc"
  bottom: "label"
  top: "loss"
}
I0705 17:08:34.855064 51717 layer_factory.hpp:76] Creating layer data
I0705 17:08:34.855146 51717 net.cpp:106] Creating Layer data
I0705 17:08:34.855170 51717 net.cpp:411] data -> data
I0705 17:08:34.855211 51717 net.cpp:411] data -> label
I0705 17:08:34.855651 51717 image_data_layer.cpp:36] Opening file ../lists/roi-train-L0.lst
I0705 17:08:34.964489 51717 image_data_layer.cpp:46] Shuffling data
I0705 17:08:35.004056 51717 image_data_layer.cpp:51] A total of 211680 images.
I0705 17:08:35.091516 51717 image_data_layer.cpp:78] output data size: 32,3,224,224
I0705 17:08:35.141242 51717 net.cpp:150] Setting up data
I0705 17:08:35.141317 51717 net.cpp:157] Top shape: 32 3 224 224 (4816896)
I0705 17:08:35.141330 51717 net.cpp:157] Top shape: 32 (32)
I0705 17:08:35.141340 51717 net.cpp:165] Memory required for data: 19267712
I0705 17:08:35.141353 51717 layer_factory.hpp:76] Creating layer conv1
I0705 17:08:35.141382 51717 net.cpp:106] Creating Layer conv1
I0705 17:08:35.141393 51717 net.cpp:454] conv1 <- data
I0705 17:08:35.141419 51717 net.cpp:411] conv1 -> conv1
I0705 17:08:35.433163 51717 net.cpp:150] Setting up conv1
I0705 17:08:35.433218 51717 net.cpp:157] Top shape: 32 64 109 109 (24332288)
I0705 17:08:35.433228 51717 net.cpp:165] Memory required for data: 116596864
I0705 17:08:35.433255 51717 layer_factory.hpp:76] Creating layer conv1_bn
I0705 17:08:35.433276 51717 net.cpp:106] Creating Layer conv1_bn
I0705 17:08:35.433286 51717 net.cpp:454] conv1_bn <- conv1
I0705 17:08:35.433297 51717 net.cpp:411] conv1_bn -> conv1_bn
I0705 17:08:35.433526 51717 net.cpp:150] Setting up conv1_bn
I0705 17:08:35.433553 51717 net.cpp:157] Top shape: 32 64 109 109 (24332288)
I0705 17:08:35.433562 51717 net.cpp:165] Memory required for data: 213926016
I0705 17:08:35.433578 51717 layer_factory.hpp:76] Creating layer conv1_relu
I0705 17:08:35.433593 51717 net.cpp:106] Creating Layer conv1_relu
I0705 17:08:35.433600 51717 net.cpp:454] conv1_relu <- conv1_bn
I0705 17:08:35.433609 51717 net.cpp:397] conv1_relu -> conv1_bn (in-place)
I0705 17:08:35.433804 51717 net.cpp:150] Setting up conv1_relu
I0705 17:08:35.433830 51717 net.cpp:157] Top shape: 32 64 109 109 (24332288)
I0705 17:08:35.433838 51717 net.cpp:165] Memory required for data: 311255168
I0705 17:08:35.433847 51717 layer_factory.hpp:76] Creating layer pool1
I0705 17:08:35.433861 51717 net.cpp:106] Creating Layer pool1
I0705 17:08:35.433868 51717 net.cpp:454] pool1 <- conv1_bn
I0705 17:08:35.433877 51717 net.cpp:411] pool1 -> pool1
I0705 17:08:35.434240 51717 net.cpp:150] Setting up pool1
I0705 17:08:35.434272 51717 net.cpp:157] Top shape: 32 64 54 54 (5971968)
I0705 17:08:35.434291 51717 net.cpp:165] Memory required for data: 335143040
I0705 17:08:35.434300 51717 layer_factory.hpp:76] Creating layer pool1_pool1_0_split
I0705 17:08:35.434314 51717 net.cpp:106] Creating Layer pool1_pool1_0_split
I0705 17:08:35.434321 51717 net.cpp:454] pool1_pool1_0_split <- pool1
I0705 17:08:35.434330 51717 net.cpp:411] pool1_pool1_0_split -> pool1_pool1_0_split_0
I0705 17:08:35.434389 51717 net.cpp:411] pool1_pool1_0_split -> pool1_pool1_0_split_1
I0705 17:08:35.434429 51717 net.cpp:150] Setting up pool1_pool1_0_split
I0705 17:08:35.434442 51717 net.cpp:157] Top shape: 32 64 54 54 (5971968)
I0705 17:08:35.434451 51717 net.cpp:157] Top shape: 32 64 54 54 (5971968)
I0705 17:08:35.434459 51717 net.cpp:165] Memory required for data: 382918784
I0705 17:08:35.434468 51717 layer_factory.hpp:76] Creating layer conv1_output
I0705 17:08:35.434483 51717 net.cpp:106] Creating Layer conv1_output
I0705 17:08:35.434490 51717 net.cpp:454] conv1_output <- pool1_pool1_0_split_0
I0705 17:08:35.434501 51717 net.cpp:411] conv1_output -> conv1_output
I0705 17:08:35.436599 51717 cudnn_conv_layer.cpp:194] Reallocating workspace storage: 768
I0705 17:08:35.436645 51717 net.cpp:150] Setting up conv1_output
I0705 17:08:35.436656 51717 net.cpp:157] Top shape: 32 256 54 54 (23887872)
I0705 17:08:35.436666 51717 net.cpp:165] Memory required for data: 478470272
I0705 17:08:35.436676 51717 layer_factory.hpp:76] Creating layer conv2_1_1
I0705 17:08:35.436691 51717 net.cpp:106] Creating Layer conv2_1_1
I0705 17:08:35.436698 51717 net.cpp:454] conv2_1_1 <- pool1_pool1_0_split_1
I0705 17:08:35.436709 51717 net.cpp:411] conv2_1_1 -> conv2_1_1
I0705 17:08:35.437723 51717 cudnn_conv_layer.cpp:194] Reallocating workspace storage: 768
I0705 17:08:35.437762 51717 net.cpp:150] Setting up conv2_1_1
I0705 17:08:35.437774 51717 net.cpp:157] Top shape: 32 64 54 54 (5971968)
I0705 17:08:35.437782 51717 net.cpp:165] Memory required for data: 502358144
I0705 17:08:35.437794 51717 layer_factory.hpp:76] Creating layer conv2_1_1_bn
I0705 17:08:35.437808 51717 net.cpp:106] Creating Layer conv2_1_1_bn
I0705 17:08:35.437827 51717 net.cpp:454] conv2_1_1_bn <- conv2_1_1
I0705 17:08:35.437837 51717 net.cpp:411] conv2_1_1_bn -> conv2_1_1_bn
I0705 17:08:35.438056 51717 net.cpp:150] Setting up conv2_1_1_bn
I0705 17:08:35.438081 51717 net.cpp:157] Top shape: 32 64 54 54 (5971968)
I0705 17:08:35.438088 51717 net.cpp:165] Memory required for data: 526246016
I0705 17:08:35.438100 51717 layer_factory.hpp:76] Creating layer conv2_1_1_relu
I0705 17:08:35.438110 51717 net.cpp:106] Creating Layer conv2_1_1_relu
I0705 17:08:35.438118 51717 net.cpp:454] conv2_1_1_relu <- conv2_1_1_bn
I0705 17:08:35.438127 51717 net.cpp:397] conv2_1_1_relu -> conv2_1_1_bn (in-place)
I0705 17:08:35.438344 51717 net.cpp:150] Setting up conv2_1_1_relu
I0705 17:08:35.438369 51717 net.cpp:157] Top shape: 32 64 54 54 (5971968)
I0705 17:08:35.438377 51717 net.cpp:165] Memory required for data: 550133888
I0705 17:08:35.438398 51717 layer_factory.hpp:76] Creating layer conv2_1_2
I0705 17:08:35.438410 51717 net.cpp:106] Creating Layer conv2_1_2
I0705 17:08:35.438419 51717 net.cpp:454] conv2_1_2 <- conv2_1_1_bn
I0705 17:08:35.438428 51717 net.cpp:411] conv2_1_2 -> conv2_1_2
I0705 17:08:35.440978 51717 net.cpp:150] Setting up conv2_1_2
I0705 17:08:35.441009 51717 net.cpp:157] Top shape: 32 64 54 54 (5971968)
I0705 17:08:35.441017 51717 net.cpp:165] Memory required for data: 574021760
I0705 17:08:35.441028 51717 layer_factory.hpp:76] Creating layer conv2_1_2_bn
I0705 17:08:35.441040 51717 net.cpp:106] Creating Layer conv2_1_2_bn
I0705 17:08:35.441047 51717 net.cpp:454] conv2_1_2_bn <- conv2_1_2
I0705 17:08:35.441057 51717 net.cpp:411] conv2_1_2_bn -> conv2_1_2_bn
I0705 17:08:35.441298 51717 net.cpp:150] Setting up conv2_1_2_bn
I0705 17:08:35.441321 51717 net.cpp:157] Top shape: 32 64 54 54 (5971968)
I0705 17:08:35.441329 51717 net.cpp:165] Memory required for data: 597909632
I0705 17:08:35.441345 51717 layer_factory.hpp:76] Creating layer conv2_1_2_relu
I0705 17:08:35.441355 51717 net.cpp:106] Creating Layer conv2_1_2_relu
I0705 17:08:35.441364 51717 net.cpp:454] conv2_1_2_relu <- conv2_1_2_bn
I0705 17:08:35.441372 51717 net.cpp:397] conv2_1_2_relu -> conv2_1_2_bn (in-place)
I0705 17:08:35.441588 51717 net.cpp:150] Setting up conv2_1_2_relu
I0705 17:08:35.441627 51717 net.cpp:157] Top shape: 32 64 54 54 (5971968)
I0705 17:08:35.441633 51717 net.cpp:165] Memory required for data: 621797504
I0705 17:08:35.441654 51717 layer_factory.hpp:76] Creating layer conv2_1_3
I0705 17:08:35.441669 51717 net.cpp:106] Creating Layer conv2_1_3
I0705 17:08:35.441689 51717 net.cpp:454] conv2_1_3 <- conv2_1_2_bn
I0705 17:08:35.441700 51717 net.cpp:411] conv2_1_3 -> conv2_1_3
I0705 17:08:35.443078 51717 cudnn_conv_layer.cpp:194] Reallocating workspace storage: 768
I0705 17:08:35.443115 51717 net.cpp:150] Setting up conv2_1_3
I0705 17:08:35.443130 51717 net.cpp:157] Top shape: 32 256 54 54 (23887872)
I0705 17:08:35.443138 51717 net.cpp:165] Memory required for data: 717348992
I0705 17:08:35.443148 51717 layer_factory.hpp:76] Creating layer conv2_1_sum
I0705 17:08:35.443176 51717 net.cpp:106] Creating Layer conv2_1_sum
I0705 17:08:35.443183 51717 net.cpp:454] conv2_1_sum <- conv1_output
I0705 17:08:35.443192 51717 net.cpp:454] conv2_1_sum <- conv2_1_3
I0705 17:08:35.443202 51717 net.cpp:411] conv2_1_sum -> conv2_1_sum
I0705 17:08:35.443239 51717 net.cpp:150] Setting up conv2_1_sum
I0705 17:08:35.443253 51717 net.cpp:157] Top shape: 32 256 54 54 (23887872)
I0705 17:08:35.443259 51717 net.cpp:165] Memory required for data: 812900480
I0705 17:08:35.443267 51717 layer_factory.hpp:76] Creating layer conv2_1_sum_bn
I0705 17:08:35.443281 51717 net.cpp:106] Creating Layer conv2_1_sum_bn
I0705 17:08:35.443289 51717 net.cpp:454] conv2_1_sum_bn <- conv2_1_sum
I0705 17:08:35.443298 51717 net.cpp:411] conv2_1_sum_bn -> conv2_1_sum_bn
I0705 17:08:35.443517 51717 net.cpp:150] Setting up conv2_1_sum_bn
I0705 17:08:35.443541 51717 net.cpp:157] Top shape: 32 256 54 54 (23887872)
I0705 17:08:35.443548 51717 net.cpp:165] Memory required for data: 908451968
I0705 17:08:35.443559 51717 layer_factory.hpp:76] Creating layer conv2_1_sum_relu
I0705 17:08:35.443570 51717 net.cpp:106] Creating Layer conv2_1_sum_relu
I0705 17:08:35.443578 51717 net.cpp:454] conv2_1_sum_relu <- conv2_1_sum_bn
I0705 17:08:35.443588 51717 net.cpp:397] conv2_1_sum_relu -> conv2_1_sum_bn (in-place)
I0705 17:08:35.443967 51717 net.cpp:150] Setting up conv2_1_sum_relu
I0705 17:08:35.443996 51717 net.cpp:157] Top shape: 32 256 54 54 (23887872)
I0705 17:08:35.444016 51717 net.cpp:165] Memory required for data: 1004003456
I0705 17:08:35.444025 51717 layer_factory.hpp:76] Creating layer conv2_1_sum_bn_conv2_1_sum_relu_0_split
I0705 17:08:35.444036 51717 net.cpp:106] Creating Layer conv2_1_sum_bn_conv2_1_sum_relu_0_split
I0705 17:08:35.444044 51717 net.cpp:454] conv2_1_sum_bn_conv2_1_sum_relu_0_split <- conv2_1_sum_bn
I0705 17:08:35.444053 51717 net.cpp:411] conv2_1_sum_bn_conv2_1_sum_relu_0_split -> conv2_1_sum_bn_conv2_1_sum_relu_0_split_0
I0705 17:08:35.444077 51717 net.cpp:411] conv2_1_sum_bn_conv2_1_sum_relu_0_split -> conv2_1_sum_bn_conv2_1_sum_relu_0_split_1
I0705 17:08:35.444133 51717 net.cpp:150] Setting up conv2_1_sum_bn_conv2_1_sum_relu_0_split
I0705 17:08:35.444144 51717 net.cpp:157] Top shape: 32 256 54 54 (23887872)
I0705 17:08:35.444154 51717 net.cpp:157] Top shape: 32 256 54 54 (23887872)
I0705 17:08:35.444162 51717 net.cpp:165] Memory required for data: 1195106432
I0705 17:08:35.444169 51717 layer_factory.hpp:76] Creating layer conv2_2_1
I0705 17:08:35.444182 51717 net.cpp:106] Creating Layer conv2_2_1
I0705 17:08:35.444190 51717 net.cpp:454] conv2_2_1 <- conv2_1_sum_bn_conv2_1_sum_relu_0_split_0
I0705 17:08:35.444201 51717 net.cpp:411] conv2_2_1 -> conv2_2_1
I0705 17:08:35.445639 51717 net.cpp:150] Setting up conv2_2_1
I0705 17:08:35.445672 51717 net.cpp:157] Top shape: 32 64 54 54 (5971968)
I0705 17:08:35.445680 51717 net.cpp:165] Memory required for data: 1218994304
I0705 17:08:35.445691 51717 layer_factory.hpp:76] Creating layer conv2_2_1_bn
I0705 17:08:35.445704 51717 net.cpp:106] Creating Layer conv2_2_1_bn
I0705 17:08:35.445713 51717 net.cpp:454] conv2_2_1_bn <- conv2_2_1
I0705 17:08:35.445721 51717 net.cpp:411] conv2_2_1_bn -> conv2_2_1_bn
I0705 17:08:35.445973 51717 net.cpp:150] Setting up conv2_2_1_bn
I0705 17:08:35.445986 51717 net.cpp:157] Top shape: 32 64 54 54 (5971968)
I0705 17:08:35.446005 51717 net.cpp:165] Memory required for data: 1242882176
I0705 17:08:35.446029 51717 layer_factory.hpp:76] Creating layer conv2_2_1_relu
I0705 17:08:35.446043 51717 net.cpp:106] Creating Layer conv2_2_1_relu
I0705 17:08:35.446063 51717 net.cpp:454] conv2_2_1_relu <- conv2_2_1_bn
I0705 17:08:35.446074 51717 net.cpp:397] conv2_2_1_relu -> conv2_2_1_bn (in-place)
I0705 17:08:35.446303 51717 net.cpp:150] Setting up conv2_2_1_relu
I0705 17:08:35.446331 51717 net.cpp:157] Top shape: 32 64 54 54 (5971968)
I0705 17:08:35.446339 51717 net.cpp:165] Memory required for data: 1266770048
I0705 17:08:35.446360 51717 layer_factory.hpp:76] Creating layer conv2_2_2
I0705 17:08:35.446388 51717 net.cpp:106] Creating Layer conv2_2_2
I0705 17:08:35.446395 51717 net.cpp:454] conv2_2_2 <- conv2_2_1_bn
I0705 17:08:35.446408 51717 net.cpp:411] conv2_2_2 -> conv2_2_2
I0705 17:08:35.448566 51717 net.cpp:150] Setting up conv2_2_2
I0705 17:08:35.448597 51717 net.cpp:157] Top shape: 32 64 54 54 (5971968)
I0705 17:08:35.448606 51717 net.cpp:165] Memory required for data: 1290657920
I0705 17:08:35.448617 51717 layer_factory.hpp:76] Creating layer conv2_2_2_bn
I0705 17:08:35.448631 51717 net.cpp:106] Creating Layer conv2_2_2_bn
I0705 17:08:35.448638 51717 net.cpp:454] conv2_2_2_bn <- conv2_2_2
I0705 17:08:35.448649 51717 net.cpp:411] conv2_2_2_bn -> conv2_2_2_bn
I0705 17:08:35.448896 51717 net.cpp:150] Setting up conv2_2_2_bn
I0705 17:08:35.448920 51717 net.cpp:157] Top shape: 32 64 54 54 (5971968)
I0705 17:08:35.448928 51717 net.cpp:165] Memory required for data: 1314545792
I0705 17:08:35.448940 51717 layer_factory.hpp:76] Creating layer conv2_2_2_relu
I0705 17:08:35.448951 51717 net.cpp:106] Creating Layer conv2_2_2_relu
I0705 17:08:35.448958 51717 net.cpp:454] conv2_2_2_relu <- conv2_2_2_bn
I0705 17:08:35.448966 51717 net.cpp:397] conv2_2_2_relu -> conv2_2_2_bn (in-place)
I0705 17:08:35.449199 51717 net.cpp:150] Setting up conv2_2_2_relu
I0705 17:08:35.449226 51717 net.cpp:157] Top shape: 32 64 54 54 (5971968)
I0705 17:08:35.449246 51717 net.cpp:165] Memory required for data: 1338433664
I0705 17:08:35.449255 51717 layer_factory.hpp:76] Creating layer conv2_2_3
I0705 17:08:35.449270 51717 net.cpp:106] Creating Layer conv2_2_3
I0705 17:08:35.449278 51717 net.cpp:454] conv2_2_3 <- conv2_2_2_bn
I0705 17:08:35.449290 51717 net.cpp:411] conv2_2_3 -> conv2_2_3
I0705 17:08:35.451030 51717 cudnn_conv_layer.cpp:194] Reallocating workspace storage: 768
I0705 17:08:35.451071 51717 net.cpp:150] Setting up conv2_2_3
I0705 17:08:35.451082 51717 net.cpp:157] Top shape: 32 256 54 54 (23887872)
I0705 17:08:35.451092 51717 net.cpp:165] Memory required for data: 1433985152
I0705 17:08:35.451122 51717 layer_factory.hpp:76] Creating layer conv2_2_sum
I0705 17:08:35.451134 51717 net.cpp:106] Creating Layer conv2_2_sum
I0705 17:08:35.451143 51717 net.cpp:454] conv2_2_sum <- conv2_1_sum_bn_conv2_1_sum_relu_0_split_1
I0705 17:08:35.451153 51717 net.cpp:454] conv2_2_sum <- conv2_2_3
I0705 17:08:35.451162 51717 net.cpp:411] conv2_2_sum -> conv2_2_sum
I0705 17:08:35.451194 51717 net.cpp:150] Setting up conv2_2_sum
I0705 17:08:35.451206 51717 net.cpp:157] Top shape: 32 256 54 54 (23887872)
I0705 17:08:35.451213 51717 net.cpp:165] Memory required for data: 1529536640
I0705 17:08:35.451221 51717 layer_factory.hpp:76] Creating layer conv2_2_sum_bn
I0705 17:08:35.451234 51717 net.cpp:106] Creating Layer conv2_2_sum_bn
I0705 17:08:35.451242 51717 net.cpp:454] conv2_2_sum_bn <- conv2_2_sum
I0705 17:08:35.451251 51717 net.cpp:411] conv2_2_sum_bn -> conv2_2_sum_bn
I0705 17:08:35.451467 51717 net.cpp:150] Setting up conv2_2_sum_bn
I0705 17:08:35.451480 51717 net.cpp:157] Top shape: 32 256 54 54 (23887872)
I0705 17:08:35.451499 51717 net.cpp:165] Memory required for data: 1625088128
I0705 17:08:35.451511 51717 layer_factory.hpp:76] Creating layer conv2_2_sum_relu
I0705 17:08:35.451522 51717 net.cpp:106] Creating Layer conv2_2_sum_relu
I0705 17:08:35.451529 51717 net.cpp:454] conv2_2_sum_relu <- conv2_2_sum_bn
I0705 17:08:35.451539 51717 net.cpp:397] conv2_2_sum_relu -> conv2_2_sum_bn (in-place)
I0705 17:08:35.451905 51717 net.cpp:150] Setting up conv2_2_sum_relu
I0705 17:08:35.451936 51717 net.cpp:157] Top shape: 32 256 54 54 (23887872)
I0705 17:08:35.451946 51717 net.cpp:165] Memory required for data: 1720639616
I0705 17:08:35.451953 51717 layer_factory.hpp:76] Creating layer conv2_2_sum_bn_conv2_2_sum_relu_0_split
I0705 17:08:35.451964 51717 net.cpp:106] Creating Layer conv2_2_sum_bn_conv2_2_sum_relu_0_split
I0705 17:08:35.451972 51717 net.cpp:454] conv2_2_sum_bn_conv2_2_sum_relu_0_split <- conv2_2_sum_bn
I0705 17:08:35.451984 51717 net.cpp:411] conv2_2_sum_bn_conv2_2_sum_relu_0_split -> conv2_2_sum_bn_conv2_2_sum_relu_0_split_0
I0705 17:08:35.451995 51717 net.cpp:411] conv2_2_sum_bn_conv2_2_sum_relu_0_split -> conv2_2_sum_bn_conv2_2_sum_relu_0_split_1
I0705 17:08:35.452040 51717 net.cpp:150] Setting up conv2_2_sum_bn_conv2_2_sum_relu_0_split
I0705 17:08:35.452054 51717 net.cpp:157] Top shape: 32 256 54 54 (23887872)
I0705 17:08:35.452062 51717 net.cpp:157] Top shape: 32 256 54 54 (23887872)
I0705 17:08:35.452069 51717 net.cpp:165] Memory required for data: 1911742592
I0705 17:08:35.452077 51717 layer_factory.hpp:76] Creating layer conv2_output
I0705 17:08:35.452093 51717 net.cpp:106] Creating Layer conv2_output
I0705 17:08:35.452102 51717 net.cpp:454] conv2_output <- conv2_2_sum_bn_conv2_2_sum_relu_0_split_0
I0705 17:08:35.452112 51717 net.cpp:411] conv2_output -> conv2_output
I0705 17:08:35.458354 51717 cudnn_conv_layer.cpp:194] Reallocating workspace storage: 3072
I0705 17:08:35.458616 51717 net.cpp:150] Setting up conv2_output
I0705 17:08:35.458642 51717 net.cpp:157] Top shape: 32 512 27 27 (11943936)
I0705 17:08:35.458652 51717 net.cpp:165] Memory required for data: 1959518336
I0705 17:08:35.458664 51717 layer_factory.hpp:76] Creating layer conv3_1_1
I0705 17:08:35.458678 51717 net.cpp:106] Creating Layer conv3_1_1
I0705 17:08:35.458698 51717 net.cpp:454] conv3_1_1 <- conv2_2_sum_bn_conv2_2_sum_relu_0_split_1
I0705 17:08:35.458711 51717 net.cpp:411] conv3_1_1 -> conv3_1_1
I0705 17:08:35.460510 51717 cudnn_conv_layer.cpp:194] Reallocating workspace storage: 3072
I0705 17:08:35.460574 51717 net.cpp:150] Setting up conv3_1_1
I0705 17:08:35.460585 51717 net.cpp:157] Top shape: 32 128 27 27 (2985984)
I0705 17:08:35.460593 51717 net.cpp:165] Memory required for data: 1971462272
I0705 17:08:35.460603 51717 layer_factory.hpp:76] Creating layer conv3_1_1_bn
I0705 17:08:35.460631 51717 net.cpp:106] Creating Layer conv3_1_1_bn
I0705 17:08:35.460639 51717 net.cpp:454] conv3_1_1_bn <- conv3_1_1
I0705 17:08:35.460650 51717 net.cpp:411] conv3_1_1_bn -> conv3_1_1_bn
I0705 17:08:35.460885 51717 net.cpp:150] Setting up conv3_1_1_bn
I0705 17:08:35.460908 51717 net.cpp:157] Top shape: 32 128 27 27 (2985984)
I0705 17:08:35.460916 51717 net.cpp:165] Memory required for data: 1983406208
I0705 17:08:35.460927 51717 layer_factory.hpp:76] Creating layer conv3_1_1_relu
I0705 17:08:35.460944 51717 net.cpp:106] Creating Layer conv3_1_1_relu
I0705 17:08:35.460965 51717 net.cpp:454] conv3_1_1_relu <- conv3_1_1_bn
I0705 17:08:35.460974 51717 net.cpp:397] conv3_1_1_relu -> conv3_1_1_bn (in-place)
I0705 17:08:35.461364 51717 net.cpp:150] Setting up conv3_1_1_relu
I0705 17:08:35.461392 51717 net.cpp:157] Top shape: 32 128 27 27 (2985984)
I0705 17:08:35.461401 51717 net.cpp:165] Memory required for data: 1995350144
I0705 17:08:35.461410 51717 layer_factory.hpp:76] Creating layer conv3_1_2
I0705 17:08:35.461426 51717 net.cpp:106] Creating Layer conv3_1_2
I0705 17:08:35.461447 51717 net.cpp:454] conv3_1_2 <- conv3_1_1_bn
I0705 17:08:35.461457 51717 net.cpp:411] conv3_1_2 -> conv3_1_2
I0705 17:08:35.467440 51717 cudnn_conv_layer.cpp:194] Reallocating workspace storage: 13824
I0705 17:08:35.467739 51717 net.cpp:150] Setting up conv3_1_2
I0705 17:08:35.467772 51717 net.cpp:157] Top shape: 32 128 27 27 (2985984)
I0705 17:08:35.467793 51717 net.cpp:165] Memory required for data: 2007294080
I0705 17:08:35.467808 51717 layer_factory.hpp:76] Creating layer conv3_1_2_bn
I0705 17:08:35.467839 51717 net.cpp:106] Creating Layer conv3_1_2_bn
I0705 17:08:35.467852 51717 net.cpp:454] conv3_1_2_bn <- conv3_1_2
I0705 17:08:35.467888 51717 net.cpp:411] conv3_1_2_bn -> conv3_1_2_bn
I0705 17:08:35.468153 51717 net.cpp:150] Setting up conv3_1_2_bn
I0705 17:08:35.468178 51717 net.cpp:157] Top shape: 32 128 27 27 (2985984)
I0705 17:08:35.468186 51717 net.cpp:165] Memory required for data: 2019238016
I0705 17:08:35.468210 51717 layer_factory.hpp:76] Creating layer conv3_1_2_relu
I0705 17:08:35.468222 51717 net.cpp:106] Creating Layer conv3_1_2_relu
I0705 17:08:35.468230 51717 net.cpp:454] conv3_1_2_relu <- conv3_1_2_bn
I0705 17:08:35.468240 51717 net.cpp:397] conv3_1_2_relu -> conv3_1_2_bn (in-place)
I0705 17:08:35.468513 51717 net.cpp:150] Setting up conv3_1_2_relu
I0705 17:08:35.468530 51717 net.cpp:157] Top shape: 32 128 27 27 (2985984)
I0705 17:08:35.468549 51717 net.cpp:165] Memory required for data: 2031181952
I0705 17:08:35.468570 51717 layer_factory.hpp:76] Creating layer conv3_1_3
I0705 17:08:35.468587 51717 net.cpp:106] Creating Layer conv3_1_3
I0705 17:08:35.468596 51717 net.cpp:454] conv3_1_3 <- conv3_1_2_bn
I0705 17:08:35.468608 51717 net.cpp:411] conv3_1_3 -> conv3_1_3
I0705 17:08:35.471429 51717 cudnn_conv_layer.cpp:194] Reallocating workspace storage: 1536
I0705 17:08:35.471472 51717 net.cpp:150] Setting up conv3_1_3
I0705 17:08:35.471483 51717 net.cpp:157] Top shape: 32 512 27 27 (11943936)
I0705 17:08:35.471490 51717 net.cpp:165] Memory required for data: 2078957696
I0705 17:08:35.471513 51717 layer_factory.hpp:76] Creating layer conv3_1_sum
I0705 17:08:35.471529 51717 net.cpp:106] Creating Layer conv3_1_sum
I0705 17:08:35.471537 51717 net.cpp:454] conv3_1_sum <- conv2_output
I0705 17:08:35.471547 51717 net.cpp:454] conv3_1_sum <- conv3_1_3
I0705 17:08:35.471557 51717 net.cpp:411] conv3_1_sum -> conv3_1_sum
I0705 17:08:35.471598 51717 net.cpp:150] Setting up conv3_1_sum
I0705 17:08:35.471614 51717 net.cpp:157] Top shape: 32 512 27 27 (11943936)
I0705 17:08:35.471621 51717 net.cpp:165] Memory required for data: 2126733440
I0705 17:08:35.471629 51717 layer_factory.hpp:76] Creating layer conv3_1_sum_bn
I0705 17:08:35.471642 51717 net.cpp:106] Creating Layer conv3_1_sum_bn
I0705 17:08:35.471649 51717 net.cpp:454] conv3_1_sum_bn <- conv3_1_sum
I0705 17:08:35.471662 51717 net.cpp:411] conv3_1_sum_bn -> conv3_1_sum_bn
I0705 17:08:35.471910 51717 net.cpp:150] Setting up conv3_1_sum_bn
I0705 17:08:35.471935 51717 net.cpp:157] Top shape: 32 512 27 27 (11943936)
I0705 17:08:35.471952 51717 net.cpp:165] Memory required for data: 2174509184
I0705 17:08:35.471964 51717 layer_factory.hpp:76] Creating layer conv3_1_sum_relu
I0705 17:08:35.471976 51717 net.cpp:106] Creating Layer conv3_1_sum_relu
I0705 17:08:35.471983 51717 net.cpp:454] conv3_1_sum_relu <- conv3_1_sum_bn
I0705 17:08:35.471994 51717 net.cpp:397] conv3_1_sum_relu -> conv3_1_sum_bn (in-place)
I0705 17:08:35.472349 51717 net.cpp:150] Setting up conv3_1_sum_relu
I0705 17:08:35.472379 51717 net.cpp:157] Top shape: 32 512 27 27 (11943936)
I0705 17:08:35.472399 51717 net.cpp:165] Memory required for data: 2222284928
I0705 17:08:35.472407 51717 layer_factory.hpp:76] Creating layer conv3_1_sum_bn_conv3_1_sum_relu_0_split
I0705 17:08:35.472419 51717 net.cpp:106] Creating Layer conv3_1_sum_bn_conv3_1_sum_relu_0_split
I0705 17:08:35.472434 51717 net.cpp:454] conv3_1_sum_bn_conv3_1_sum_relu_0_split <- conv3_1_sum_bn
I0705 17:08:35.472457 51717 net.cpp:411] conv3_1_sum_bn_conv3_1_sum_relu_0_split -> conv3_1_sum_bn_conv3_1_sum_relu_0_split_0
I0705 17:08:35.472470 51717 net.cpp:411] conv3_1_sum_bn_conv3_1_sum_relu_0_split -> conv3_1_sum_bn_conv3_1_sum_relu_0_split_1
I0705 17:08:35.472520 51717 net.cpp:150] Setting up conv3_1_sum_bn_conv3_1_sum_relu_0_split
I0705 17:08:35.472532 51717 net.cpp:157] Top shape: 32 512 27 27 (11943936)
I0705 17:08:35.472542 51717 net.cpp:157] Top shape: 32 512 27 27 (11943936)
I0705 17:08:35.472549 51717 net.cpp:165] Memory required for data: 2317836416
I0705 17:08:35.472568 51717 layer_factory.hpp:76] Creating layer conv3_2_1
I0705 17:08:35.472599 51717 net.cpp:106] Creating Layer conv3_2_1
I0705 17:08:35.472631 51717 net.cpp:454] conv3_2_1 <- conv3_1_sum_bn_conv3_1_sum_relu_0_split_0
I0705 17:08:35.472653 51717 net.cpp:411] conv3_2_1 -> conv3_2_1
I0705 17:08:35.475544 51717 cudnn_conv_layer.cpp:194] Reallocating workspace storage: 6144
I0705 17:08:35.475589 51717 net.cpp:150] Setting up conv3_2_1
I0705 17:08:35.475601 51717 net.cpp:157] Top shape: 32 128 27 27 (2985984)
I0705 17:08:35.475610 51717 net.cpp:165] Memory required for data: 2329780352
I0705 17:08:35.475632 51717 layer_factory.hpp:76] Creating layer conv3_2_1_bn
I0705 17:08:35.475647 51717 net.cpp:106] Creating Layer conv3_2_1_bn
I0705 17:08:35.475656 51717 net.cpp:454] conv3_2_1_bn <- conv3_2_1
I0705 17:08:35.475667 51717 net.cpp:411] conv3_2_1_bn -> conv3_2_1_bn
I0705 17:08:35.475906 51717 net.cpp:150] Setting up conv3_2_1_bn
I0705 17:08:35.475944 51717 net.cpp:157] Top shape: 32 128 27 27 (2985984)
I0705 17:08:35.475952 51717 net.cpp:165] Memory required for data: 2341724288
I0705 17:08:35.475965 51717 layer_factory.hpp:76] Creating layer conv3_2_1_relu
I0705 17:08:35.475975 51717 net.cpp:106] Creating Layer conv3_2_1_relu
I0705 17:08:35.475983 51717 net.cpp:454] conv3_2_1_relu <- conv3_2_1_bn
I0705 17:08:35.475992 51717 net.cpp:397] conv3_2_1_relu -> conv3_2_1_bn (in-place)
I0705 17:08:35.476372 51717 net.cpp:150] Setting up conv3_2_1_relu
I0705 17:08:35.476403 51717 net.cpp:157] Top shape: 32 128 27 27 (2985984)
I0705 17:08:35.476413 51717 net.cpp:165] Memory required for data: 2353668224
I0705 17:08:35.476425 51717 layer_factory.hpp:76] Creating layer conv3_2_2
I0705 17:08:35.476454 51717 net.cpp:106] Creating Layer conv3_2_2
I0705 17:08:35.476464 51717 net.cpp:454] conv3_2_2 <- conv3_2_1_bn
I0705 17:08:35.476476 51717 net.cpp:411] conv3_2_2 -> conv3_2_2
I0705 17:08:35.483044 51717 cudnn_conv_layer.cpp:194] Reallocating workspace storage: 13824
I0705 17:08:35.483111 51717 net.cpp:150] Setting up conv3_2_2
I0705 17:08:35.483129 51717 net.cpp:157] Top shape: 32 128 27 27 (2985984)
I0705 17:08:35.483137 51717 net.cpp:165] Memory required for data: 2365612160
I0705 17:08:35.483152 51717 layer_factory.hpp:76] Creating layer conv3_2_2_bn
I0705 17:08:35.483170 51717 net.cpp:106] Creating Layer conv3_2_2_bn
I0705 17:08:35.483180 51717 net.cpp:454] conv3_2_2_bn <- conv3_2_2
I0705 17:08:35.483203 51717 net.cpp:411] conv3_2_2_bn -> conv3_2_2_bn
I0705 17:08:35.483448 51717 net.cpp:150] Setting up conv3_2_2_bn
I0705 17:08:35.483472 51717 net.cpp:157] Top shape: 32 128 27 27 (2985984)
I0705 17:08:35.483480 51717 net.cpp:165] Memory required for data: 2377556096
I0705 17:08:35.483492 51717 layer_factory.hpp:76] Creating layer conv3_2_2_relu
I0705 17:08:35.483503 51717 net.cpp:106] Creating Layer conv3_2_2_relu
I0705 17:08:35.483511 51717 net.cpp:454] conv3_2_2_relu <- conv3_2_2_bn
I0705 17:08:35.483520 51717 net.cpp:397] conv3_2_2_relu -> conv3_2_2_bn (in-place)
I0705 17:08:35.483754 51717 net.cpp:150] Setting up conv3_2_2_relu
I0705 17:08:35.483793 51717 net.cpp:157] Top shape: 32 128 27 27 (2985984)
I0705 17:08:35.483800 51717 net.cpp:165] Memory required for data: 2389500032
I0705 17:08:35.483809 51717 layer_factory.hpp:76] Creating layer conv3_2_3
I0705 17:08:35.483827 51717 net.cpp:106] Creating Layer conv3_2_3
I0705 17:08:35.483835 51717 net.cpp:454] conv3_2_3 <- conv3_2_2_bn
I0705 17:08:35.483845 51717 net.cpp:411] conv3_2_3 -> conv3_2_3
I0705 17:08:35.487678 51717 cudnn_conv_layer.cpp:194] Reallocating workspace storage: 1536
I0705 17:08:35.487737 51717 net.cpp:150] Setting up conv3_2_3
I0705 17:08:35.487753 51717 net.cpp:157] Top shape: 32 512 27 27 (11943936)
I0705 17:08:35.487761 51717 net.cpp:165] Memory required for data: 2437275776
I0705 17:08:35.487790 51717 layer_factory.hpp:76] Creating layer conv3_2_sum
I0705 17:08:35.487808 51717 net.cpp:106] Creating Layer conv3_2_sum
I0705 17:08:35.487830 51717 net.cpp:454] conv3_2_sum <- conv3_1_sum_bn_conv3_1_sum_relu_0_split_1
I0705 17:08:35.487840 51717 net.cpp:454] conv3_2_sum <- conv3_2_3
I0705 17:08:35.487851 51717 net.cpp:411] conv3_2_sum -> conv3_2_sum
I0705 17:08:35.487889 51717 net.cpp:150] Setting up conv3_2_sum
I0705 17:08:35.487925 51717 net.cpp:157] Top shape: 32 512 27 27 (11943936)
I0705 17:08:35.487932 51717 net.cpp:165] Memory required for data: 2485051520
I0705 17:08:35.487953 51717 layer_factory.hpp:76] Creating layer conv3_2_sum_bn
I0705 17:08:35.487979 51717 net.cpp:106] Creating Layer conv3_2_sum_bn
I0705 17:08:35.487999 51717 net.cpp:454] conv3_2_sum_bn <- conv3_2_sum
I0705 17:08:35.488009 51717 net.cpp:411] conv3_2_sum_bn -> conv3_2_sum_bn
I0705 17:08:35.488248 51717 net.cpp:150] Setting up conv3_2_sum_bn
I0705 17:08:35.488261 51717 net.cpp:157] Top shape: 32 512 27 27 (11943936)
I0705 17:08:35.488281 51717 net.cpp:165] Memory required for data: 2532827264
I0705 17:08:35.488292 51717 layer_factory.hpp:76] Creating layer conv3_2_sum_relu
I0705 17:08:35.488308 51717 net.cpp:106] Creating Layer conv3_2_sum_relu
I0705 17:08:35.488317 51717 net.cpp:454] conv3_2_sum_relu <- conv3_2_sum_bn
I0705 17:08:35.488327 51717 net.cpp:397] conv3_2_sum_relu -> conv3_2_sum_bn (in-place)
I0705 17:08:35.488770 51717 net.cpp:150] Setting up conv3_2_sum_relu
I0705 17:08:35.488800 51717 net.cpp:157] Top shape: 32 512 27 27 (11943936)
I0705 17:08:35.488807 51717 net.cpp:165] Memory required for data: 2580603008
I0705 17:08:35.488816 51717 layer_factory.hpp:76] Creating layer conv3_2_sum_bn_conv3_2_sum_relu_0_split
I0705 17:08:35.488828 51717 net.cpp:106] Creating Layer conv3_2_sum_bn_conv3_2_sum_relu_0_split
I0705 17:08:35.488837 51717 net.cpp:454] conv3_2_sum_bn_conv3_2_sum_relu_0_split <- conv3_2_sum_bn
I0705 17:08:35.488845 51717 net.cpp:411] conv3_2_sum_bn_conv3_2_sum_relu_0_split -> conv3_2_sum_bn_conv3_2_sum_relu_0_split_0
I0705 17:08:35.488869 51717 net.cpp:411] conv3_2_sum_bn_conv3_2_sum_relu_0_split -> conv3_2_sum_bn_conv3_2_sum_relu_0_split_1
I0705 17:08:35.488919 51717 net.cpp:150] Setting up conv3_2_sum_bn_conv3_2_sum_relu_0_split
I0705 17:08:35.488932 51717 net.cpp:157] Top shape: 32 512 27 27 (11943936)
I0705 17:08:35.488940 51717 net.cpp:157] Top shape: 32 512 27 27 (11943936)
I0705 17:08:35.488947 51717 net.cpp:165] Memory required for data: 2676154496
I0705 17:08:35.488955 51717 layer_factory.hpp:76] Creating layer conv3_output
I0705 17:08:35.488971 51717 net.cpp:106] Creating Layer conv3_output
I0705 17:08:35.488979 51717 net.cpp:454] conv3_output <- conv3_2_sum_bn_conv3_2_sum_relu_0_split_0
I0705 17:08:35.488991 51717 net.cpp:411] conv3_output -> conv3_output
I0705 17:08:35.505380 51717 cudnn_conv_layer.cpp:194] Reallocating workspace storage: 6144
I0705 17:08:35.505421 51717 net.cpp:150] Setting up conv3_output
I0705 17:08:35.505434 51717 net.cpp:157] Top shape: 32 1024 14 14 (6422528)
I0705 17:08:35.505441 51717 net.cpp:165] Memory required for data: 2701844608
I0705 17:08:35.505451 51717 layer_factory.hpp:76] Creating layer conv4_1_1
I0705 17:08:35.505481 51717 net.cpp:106] Creating Layer conv4_1_1
I0705 17:08:35.505489 51717 net.cpp:454] conv4_1_1 <- conv3_2_sum_bn_conv3_2_sum_relu_0_split_1
I0705 17:08:35.505501 51717 net.cpp:411] conv4_1_1 -> conv4_1_1
I0705 17:08:35.510362 51717 cudnn_conv_layer.cpp:194] Reallocating workspace storage: 6144
I0705 17:08:35.510403 51717 net.cpp:150] Setting up conv4_1_1
I0705 17:08:35.510416 51717 net.cpp:157] Top shape: 32 256 14 14 (1605632)
I0705 17:08:35.510422 51717 net.cpp:165] Memory required for data: 2708267136
I0705 17:08:35.510433 51717 layer_factory.hpp:76] Creating layer conv4_1_1_bn
I0705 17:08:35.510458 51717 net.cpp:106] Creating Layer conv4_1_1_bn
I0705 17:08:35.510467 51717 net.cpp:454] conv4_1_1_bn <- conv4_1_1
I0705 17:08:35.510476 51717 net.cpp:411] conv4_1_1_bn -> conv4_1_1_bn
I0705 17:08:35.510707 51717 net.cpp:150] Setting up conv4_1_1_bn
I0705 17:08:35.510730 51717 net.cpp:157] Top shape: 32 256 14 14 (1605632)
I0705 17:08:35.510737 51717 net.cpp:165] Memory required for data: 2714689664
I0705 17:08:35.510749 51717 layer_factory.hpp:76] Creating layer conv4_1_1_relu
I0705 17:08:35.510759 51717 net.cpp:106] Creating Layer conv4_1_1_relu
I0705 17:08:35.510766 51717 net.cpp:454] conv4_1_1_relu <- conv4_1_1_bn
I0705 17:08:35.510776 51717 net.cpp:397] conv4_1_1_relu -> conv4_1_1_bn (in-place)
I0705 17:08:35.511189 51717 net.cpp:150] Setting up conv4_1_1_relu
I0705 17:08:35.511224 51717 net.cpp:157] Top shape: 32 256 14 14 (1605632)
I0705 17:08:35.511246 51717 net.cpp:165] Memory required for data: 2721112192
I0705 17:08:35.511255 51717 layer_factory.hpp:76] Creating layer conv4_1_2
I0705 17:08:35.511272 51717 net.cpp:106] Creating Layer conv4_1_2
I0705 17:08:35.511281 51717 net.cpp:454] conv4_1_2 <- conv4_1_1_bn
I0705 17:08:35.511291 51717 net.cpp:411] conv4_1_2 -> conv4_1_2
I0705 17:08:35.530594 51717 net.cpp:150] Setting up conv4_1_2
I0705 17:08:35.530666 51717 net.cpp:157] Top shape: 32 256 14 14 (1605632)
I0705 17:08:35.530675 51717 net.cpp:165] Memory required for data: 2727534720
I0705 17:08:35.530696 51717 layer_factory.hpp:76] Creating layer conv4_1_2_bn
I0705 17:08:35.530725 51717 net.cpp:106] Creating Layer conv4_1_2_bn
I0705 17:08:35.530736 51717 net.cpp:454] conv4_1_2_bn <- conv4_1_2
I0705 17:08:35.530747 51717 net.cpp:411] conv4_1_2_bn -> conv4_1_2_bn
I0705 17:08:35.531038 51717 net.cpp:150] Setting up conv4_1_2_bn
I0705 17:08:35.531075 51717 net.cpp:157] Top shape: 32 256 14 14 (1605632)
I0705 17:08:35.531082 51717 net.cpp:165] Memory required for data: 2733957248
I0705 17:08:35.531095 51717 layer_factory.hpp:76] Creating layer conv4_1_2_relu
I0705 17:08:35.531111 51717 net.cpp:106] Creating Layer conv4_1_2_relu
I0705 17:08:35.531121 51717 net.cpp:454] conv4_1_2_relu <- conv4_1_2_bn
I0705 17:08:35.531129 51717 net.cpp:397] conv4_1_2_relu -> conv4_1_2_bn (in-place)
I0705 17:08:35.531714 51717 net.cpp:150] Setting up conv4_1_2_relu
I0705 17:08:35.531744 51717 net.cpp:157] Top shape: 32 256 14 14 (1605632)
I0705 17:08:35.531751 51717 net.cpp:165] Memory required for data: 2740379776
I0705 17:08:35.531759 51717 layer_factory.hpp:76] Creating layer conv4_1_3
I0705 17:08:35.531782 51717 net.cpp:106] Creating Layer conv4_1_3
I0705 17:08:35.531790 51717 net.cpp:454] conv4_1_3 <- conv4_1_2_bn
I0705 17:08:35.531800 51717 net.cpp:411] conv4_1_3 -> conv4_1_3
I0705 17:08:35.541293 51717 cudnn_conv_layer.cpp:194] Reallocating workspace storage: 3072
I0705 17:08:35.541368 51717 net.cpp:150] Setting up conv4_1_3
I0705 17:08:35.541383 51717 net.cpp:157] Top shape: 32 1024 14 14 (6422528)
I0705 17:08:35.541391 51717 net.cpp:165] Memory required for data: 2766069888
I0705 17:08:35.541409 51717 layer_factory.hpp:76] Creating layer conv4_1_sum
I0705 17:08:35.541427 51717 net.cpp:106] Creating Layer conv4_1_sum
I0705 17:08:35.541437 51717 net.cpp:454] conv4_1_sum <- conv3_output
I0705 17:08:35.541447 51717 net.cpp:454] conv4_1_sum <- conv4_1_3
I0705 17:08:35.541465 51717 net.cpp:411] conv4_1_sum -> conv4_1_sum
I0705 17:08:35.541522 51717 net.cpp:150] Setting up conv4_1_sum
I0705 17:08:35.541533 51717 net.cpp:157] Top shape: 32 1024 14 14 (6422528)
I0705 17:08:35.541541 51717 net.cpp:165] Memory required for data: 2791760000
I0705 17:08:35.541549 51717 layer_factory.hpp:76] Creating layer conv4_1_sum_bn
I0705 17:08:35.541561 51717 net.cpp:106] Creating Layer conv4_1_sum_bn
I0705 17:08:35.541569 51717 net.cpp:454] conv4_1_sum_bn <- conv4_1_sum
I0705 17:08:35.541581 51717 net.cpp:411] conv4_1_sum_bn -> conv4_1_sum_bn
I0705 17:08:35.541856 51717 net.cpp:150] Setting up conv4_1_sum_bn
I0705 17:08:35.541867 51717 net.cpp:157] Top shape: 32 1024 14 14 (6422528)
I0705 17:08:35.541887 51717 net.cpp:165] Memory required for data: 2817450112
I0705 17:08:35.541898 51717 layer_factory.hpp:76] Creating layer conv4_1_sum_relu
I0705 17:08:35.541913 51717 net.cpp:106] Creating Layer conv4_1_sum_relu
I0705 17:08:35.541920 51717 net.cpp:454] conv4_1_sum_relu <- conv4_1_sum_bn
I0705 17:08:35.541929 51717 net.cpp:397] conv4_1_sum_relu -> conv4_1_sum_bn (in-place)
I0705 17:08:35.542189 51717 net.cpp:150] Setting up conv4_1_sum_relu
I0705 17:08:35.542215 51717 net.cpp:157] Top shape: 32 1024 14 14 (6422528)
I0705 17:08:35.542223 51717 net.cpp:165] Memory required for data: 2843140224
I0705 17:08:35.542232 51717 layer_factory.hpp:76] Creating layer conv4_1_sum_bn_conv4_1_sum_relu_0_split
I0705 17:08:35.542268 51717 net.cpp:106] Creating Layer conv4_1_sum_bn_conv4_1_sum_relu_0_split
I0705 17:08:35.542275 51717 net.cpp:454] conv4_1_sum_bn_conv4_1_sum_relu_0_split <- conv4_1_sum_bn
I0705 17:08:35.542284 51717 net.cpp:411] conv4_1_sum_bn_conv4_1_sum_relu_0_split -> conv4_1_sum_bn_conv4_1_sum_relu_0_split_0
I0705 17:08:35.542295 51717 net.cpp:411] conv4_1_sum_bn_conv4_1_sum_relu_0_split -> conv4_1_sum_bn_conv4_1_sum_relu_0_split_1
I0705 17:08:35.542364 51717 net.cpp:150] Setting up conv4_1_sum_bn_conv4_1_sum_relu_0_split
I0705 17:08:35.542377 51717 net.cpp:157] Top shape: 32 1024 14 14 (6422528)
I0705 17:08:35.542387 51717 net.cpp:157] Top shape: 32 1024 14 14 (6422528)
I0705 17:08:35.542404 51717 net.cpp:165] Memory required for data: 2894520448
I0705 17:08:35.542412 51717 layer_factory.hpp:76] Creating layer conv4_2_1
I0705 17:08:35.542441 51717 net.cpp:106] Creating Layer conv4_2_1
I0705 17:08:35.542464 51717 net.cpp:454] conv4_2_1 <- conv4_1_sum_bn_conv4_1_sum_relu_0_split_0
I0705 17:08:35.542477 51717 net.cpp:411] conv4_2_1 -> conv4_2_1
I0705 17:08:35.552469 51717 cudnn_conv_layer.cpp:194] Reallocating workspace storage: 12288
I0705 17:08:35.552546 51717 net.cpp:150] Setting up conv4_2_1
I0705 17:08:35.552577 51717 net.cpp:157] Top shape: 32 256 14 14 (1605632)
I0705 17:08:35.552585 51717 net.cpp:165] Memory required for data: 2900942976
I0705 17:08:35.552605 51717 layer_factory.hpp:76] Creating layer conv4_2_1_bn
I0705 17:08:35.552634 51717 net.cpp:106] Creating Layer conv4_2_1_bn
I0705 17:08:35.552647 51717 net.cpp:454] conv4_2_1_bn <- conv4_2_1
I0705 17:08:35.552659 51717 net.cpp:411] conv4_2_1_bn -> conv4_2_1_bn
I0705 17:08:35.552942 51717 net.cpp:150] Setting up conv4_2_1_bn
I0705 17:08:35.552956 51717 net.cpp:157] Top shape: 32 256 14 14 (1605632)
I0705 17:08:35.552963 51717 net.cpp:165] Memory required for data: 2907365504
I0705 17:08:35.552975 51717 layer_factory.hpp:76] Creating layer conv4_2_1_relu
I0705 17:08:35.552994 51717 net.cpp:106] Creating Layer conv4_2_1_relu
I0705 17:08:35.553001 51717 net.cpp:454] conv4_2_1_relu <- conv4_2_1_bn
I0705 17:08:35.553010 51717 net.cpp:397] conv4_2_1_relu -> conv4_2_1_bn (in-place)
I0705 17:08:35.553386 51717 net.cpp:150] Setting up conv4_2_1_relu
I0705 17:08:35.553406 51717 net.cpp:157] Top shape: 32 256 14 14 (1605632)
I0705 17:08:35.553412 51717 net.cpp:165] Memory required for data: 2913788032
I0705 17:08:35.553421 51717 layer_factory.hpp:76] Creating layer conv4_2_2
I0705 17:08:35.553449 51717 net.cpp:106] Creating Layer conv4_2_2
I0705 17:08:35.553458 51717 net.cpp:454] conv4_2_2 <- conv4_2_1_bn
I0705 17:08:35.553469 51717 net.cpp:411] conv4_2_2 -> conv4_2_2
I0705 17:08:35.574569 51717 net.cpp:150] Setting up conv4_2_2
I0705 17:08:35.574623 51717 net.cpp:157] Top shape: 32 256 14 14 (1605632)
I0705 17:08:35.574632 51717 net.cpp:165] Memory required for data: 2920210560
I0705 17:08:35.574648 51717 layer_factory.hpp:76] Creating layer conv4_2_2_bn
I0705 17:08:35.574671 51717 net.cpp:106] Creating Layer conv4_2_2_bn
I0705 17:08:35.574682 51717 net.cpp:454] conv4_2_2_bn <- conv4_2_2
I0705 17:08:35.574694 51717 net.cpp:411] conv4_2_2_bn -> conv4_2_2_bn
I0705 17:08:35.574965 51717 net.cpp:150] Setting up conv4_2_2_bn
I0705 17:08:35.575001 51717 net.cpp:157] Top shape: 32 256 14 14 (1605632)
I0705 17:08:35.575009 51717 net.cpp:165] Memory required for data: 2926633088
I0705 17:08:35.575021 51717 layer_factory.hpp:76] Creating layer conv4_2_2_relu
I0705 17:08:35.575033 51717 net.cpp:106] Creating Layer conv4_2_2_relu
I0705 17:08:35.575040 51717 net.cpp:454] conv4_2_2_relu <- conv4_2_2_bn
I0705 17:08:35.575049 51717 net.cpp:397] conv4_2_2_relu -> conv4_2_2_bn (in-place)
I0705 17:08:35.575443 51717 net.cpp:150] Setting up conv4_2_2_relu
I0705 17:08:35.575476 51717 net.cpp:157] Top shape: 32 256 14 14 (1605632)
I0705 17:08:35.575484 51717 net.cpp:165] Memory required for data: 2933055616
I0705 17:08:35.575503 51717 layer_factory.hpp:76] Creating layer conv4_2_3
I0705 17:08:35.575520 51717 net.cpp:106] Creating Layer conv4_2_3
I0705 17:08:35.575527 51717 net.cpp:454] conv4_2_3 <- conv4_2_2_bn
I0705 17:08:35.575577 51717 net.cpp:411] conv4_2_3 -> conv4_2_3
I0705 17:08:35.585114 51717 cudnn_conv_layer.cpp:194] Reallocating workspace storage: 3072
I0705 17:08:35.585168 51717 net.cpp:150] Setting up conv4_2_3
I0705 17:08:35.585181 51717 net.cpp:157] Top shape: 32 1024 14 14 (6422528)
I0705 17:08:35.585189 51717 net.cpp:165] Memory required for data: 2958745728
I0705 17:08:35.585202 51717 layer_factory.hpp:76] Creating layer conv4_2_sum
I0705 17:08:35.585233 51717 net.cpp:106] Creating Layer conv4_2_sum
I0705 17:08:35.585242 51717 net.cpp:454] conv4_2_sum <- conv4_1_sum_bn_conv4_1_sum_relu_0_split_1
I0705 17:08:35.585253 51717 net.cpp:454] conv4_2_sum <- conv4_2_3
I0705 17:08:35.585264 51717 net.cpp:411] conv4_2_sum -> conv4_2_sum
I0705 17:08:35.585309 51717 net.cpp:150] Setting up conv4_2_sum
I0705 17:08:35.585321 51717 net.cpp:157] Top shape: 32 1024 14 14 (6422528)
I0705 17:08:35.585330 51717 net.cpp:165] Memory required for data: 2984435840
I0705 17:08:35.585337 51717 layer_factory.hpp:76] Creating layer conv4_2_sum_bn
I0705 17:08:35.585351 51717 net.cpp:106] Creating Layer conv4_2_sum_bn
I0705 17:08:35.585361 51717 net.cpp:454] conv4_2_sum_bn <- conv4_2_sum
I0705 17:08:35.585371 51717 net.cpp:411] conv4_2_sum_bn -> conv4_2_sum_bn
I0705 17:08:35.585635 51717 net.cpp:150] Setting up conv4_2_sum_bn
I0705 17:08:35.585660 51717 net.cpp:157] Top shape: 32 1024 14 14 (6422528)
I0705 17:08:35.585669 51717 net.cpp:165] Memory required for data: 3010125952
I0705 17:08:35.585680 51717 layer_factory.hpp:76] Creating layer conv4_2_sum_relu
I0705 17:08:35.585693 51717 net.cpp:106] Creating Layer conv4_2_sum_relu
I0705 17:08:35.585701 51717 net.cpp:454] conv4_2_sum_relu <- conv4_2_sum_bn
I0705 17:08:35.585711 51717 net.cpp:397] conv4_2_sum_relu -> conv4_2_sum_bn (in-place)
I0705 17:08:35.585924 51717 net.cpp:150] Setting up conv4_2_sum_relu
I0705 17:08:35.585952 51717 net.cpp:157] Top shape: 32 1024 14 14 (6422528)
I0705 17:08:35.585959 51717 net.cpp:165] Memory required for data: 3035816064
I0705 17:08:35.585968 51717 layer_factory.hpp:76] Creating layer conv4_2_sum_bn_conv4_2_sum_relu_0_split
I0705 17:08:35.585978 51717 net.cpp:106] Creating Layer conv4_2_sum_bn_conv4_2_sum_relu_0_split
I0705 17:08:35.585986 51717 net.cpp:454] conv4_2_sum_bn_conv4_2_sum_relu_0_split <- conv4_2_sum_bn
I0705 17:08:35.585997 51717 net.cpp:411] conv4_2_sum_bn_conv4_2_sum_relu_0_split -> conv4_2_sum_bn_conv4_2_sum_relu_0_split_0
I0705 17:08:35.586009 51717 net.cpp:411] conv4_2_sum_bn_conv4_2_sum_relu_0_split -> conv4_2_sum_bn_conv4_2_sum_relu_0_split_1
I0705 17:08:35.586061 51717 net.cpp:150] Setting up conv4_2_sum_bn_conv4_2_sum_relu_0_split
I0705 17:08:35.586076 51717 net.cpp:157] Top shape: 32 1024 14 14 (6422528)
I0705 17:08:35.586084 51717 net.cpp:157] Top shape: 32 1024 14 14 (6422528)
I0705 17:08:35.586091 51717 net.cpp:165] Memory required for data: 3087196288
I0705 17:08:35.586098 51717 layer_factory.hpp:76] Creating layer conv4_output
I0705 17:08:35.586117 51717 net.cpp:106] Creating Layer conv4_output
I0705 17:08:35.586125 51717 net.cpp:454] conv4_output <- conv4_2_sum_bn_conv4_2_sum_relu_0_split_0
I0705 17:08:35.586135 51717 net.cpp:411] conv4_output -> conv4_output
I0705 17:08:35.652843 51717 net.cpp:150] Setting up conv4_output
I0705 17:08:35.652911 51717 net.cpp:157] Top shape: 32 2048 7 7 (3211264)
I0705 17:08:35.652920 51717 net.cpp:165] Memory required for data: 3100041344
I0705 17:08:35.652936 51717 layer_factory.hpp:76] Creating layer conv5_1_1
I0705 17:08:35.652971 51717 net.cpp:106] Creating Layer conv5_1_1
I0705 17:08:35.652982 51717 net.cpp:454] conv5_1_1 <- conv4_2_sum_bn_conv4_2_sum_relu_0_split_1
I0705 17:08:35.652994 51717 net.cpp:411] conv5_1_1 -> conv5_1_1
I0705 17:08:35.671540 51717 net.cpp:150] Setting up conv5_1_1
I0705 17:08:35.671604 51717 net.cpp:157] Top shape: 32 512 7 7 (802816)
I0705 17:08:35.671613 51717 net.cpp:165] Memory required for data: 3103252608
I0705 17:08:35.671628 51717 layer_factory.hpp:76] Creating layer conv5_1_1_bn
I0705 17:08:35.671645 51717 net.cpp:106] Creating Layer conv5_1_1_bn
I0705 17:08:35.671682 51717 net.cpp:454] conv5_1_1_bn <- conv5_1_1
I0705 17:08:35.671710 51717 net.cpp:411] conv5_1_1_bn -> conv5_1_1_bn
I0705 17:08:35.671980 51717 net.cpp:150] Setting up conv5_1_1_bn
I0705 17:08:35.672005 51717 net.cpp:157] Top shape: 32 512 7 7 (802816)
I0705 17:08:35.672013 51717 net.cpp:165] Memory required for data: 3106463872
I0705 17:08:35.672025 51717 layer_factory.hpp:76] Creating layer conv5_1_1_relu
I0705 17:08:35.672039 51717 net.cpp:106] Creating Layer conv5_1_1_relu
I0705 17:08:35.672047 51717 net.cpp:454] conv5_1_1_relu <- conv5_1_1_bn
I0705 17:08:35.672056 51717 net.cpp:397] conv5_1_1_relu -> conv5_1_1_bn (in-place)
I0705 17:08:35.672323 51717 net.cpp:150] Setting up conv5_1_1_relu
I0705 17:08:35.672350 51717 net.cpp:157] Top shape: 32 512 7 7 (802816)
I0705 17:08:35.672358 51717 net.cpp:165] Memory required for data: 3109675136
I0705 17:08:35.672379 51717 layer_factory.hpp:76] Creating layer conv5_1_2
I0705 17:08:35.672397 51717 net.cpp:106] Creating Layer conv5_1_2
I0705 17:08:35.672406 51717 net.cpp:454] conv5_1_2 <- conv5_1_1_bn
I0705 17:08:35.672416 51717 net.cpp:411] conv5_1_2 -> conv5_1_2
I0705 17:08:35.748878 51717 net.cpp:150] Setting up conv5_1_2
I0705 17:08:35.748939 51717 net.cpp:157] Top shape: 32 512 7 7 (802816)
I0705 17:08:35.748949 51717 net.cpp:165] Memory required for data: 3112886400
I0705 17:08:35.748975 51717 layer_factory.hpp:76] Creating layer conv5_1_2_bn
I0705 17:08:35.749001 51717 net.cpp:106] Creating Layer conv5_1_2_bn
I0705 17:08:35.749042 51717 net.cpp:454] conv5_1_2_bn <- conv5_1_2
I0705 17:08:35.749055 51717 net.cpp:411] conv5_1_2_bn -> conv5_1_2_bn
I0705 17:08:35.749354 51717 net.cpp:150] Setting up conv5_1_2_bn
I0705 17:08:35.749367 51717 net.cpp:157] Top shape: 32 512 7 7 (802816)
I0705 17:08:35.749387 51717 net.cpp:165] Memory required for data: 3116097664
I0705 17:08:35.749398 51717 layer_factory.hpp:76] Creating layer conv5_1_2_relu
I0705 17:08:35.749411 51717 net.cpp:106] Creating Layer conv5_1_2_relu
I0705 17:08:35.749420 51717 net.cpp:454] conv5_1_2_relu <- conv5_1_2_bn
I0705 17:08:35.749429 51717 net.cpp:397] conv5_1_2_relu -> conv5_1_2_bn (in-place)
I0705 17:08:35.749821 51717 net.cpp:150] Setting up conv5_1_2_relu
I0705 17:08:35.749855 51717 net.cpp:157] Top shape: 32 512 7 7 (802816)
I0705 17:08:35.749862 51717 net.cpp:165] Memory required for data: 3119308928
I0705 17:08:35.749882 51717 layer_factory.hpp:76] Creating layer conv5_1_3
I0705 17:08:35.749900 51717 net.cpp:106] Creating Layer conv5_1_3
I0705 17:08:35.749909 51717 net.cpp:454] conv5_1_3 <- conv5_1_2_bn
I0705 17:08:35.749933 51717 net.cpp:411] conv5_1_3 -> conv5_1_3
I0705 17:08:35.783411 51717 cudnn_conv_layer.cpp:194] Reallocating workspace storage: 6144
I0705 17:08:35.783480 51717 net.cpp:150] Setting up conv5_1_3
I0705 17:08:35.783496 51717 net.cpp:157] Top shape: 32 2048 7 7 (3211264)
I0705 17:08:35.783504 51717 net.cpp:165] Memory required for data: 3132153984
I0705 17:08:35.783529 51717 layer_factory.hpp:76] Creating layer conv5_1_sum
I0705 17:08:35.783546 51717 net.cpp:106] Creating Layer conv5_1_sum
I0705 17:08:35.783557 51717 net.cpp:454] conv5_1_sum <- conv4_output
I0705 17:08:35.783567 51717 net.cpp:454] conv5_1_sum <- conv5_1_3
I0705 17:08:35.783579 51717 net.cpp:411] conv5_1_sum -> conv5_1_sum
I0705 17:08:35.783623 51717 net.cpp:150] Setting up conv5_1_sum
I0705 17:08:35.783637 51717 net.cpp:157] Top shape: 32 2048 7 7 (3211264)
I0705 17:08:35.783644 51717 net.cpp:165] Memory required for data: 3144999040
I0705 17:08:35.783651 51717 layer_factory.hpp:76] Creating layer conv5_1_sum_bn
I0705 17:08:35.783694 51717 net.cpp:106] Creating Layer conv5_1_sum_bn
I0705 17:08:35.783713 51717 net.cpp:454] conv5_1_sum_bn <- conv5_1_sum
I0705 17:08:35.783725 51717 net.cpp:411] conv5_1_sum_bn -> conv5_1_sum_bn
I0705 17:08:35.784001 51717 net.cpp:150] Setting up conv5_1_sum_bn
I0705 17:08:35.784014 51717 net.cpp:157] Top shape: 32 2048 7 7 (3211264)
I0705 17:08:35.784034 51717 net.cpp:165] Memory required for data: 3157844096
I0705 17:08:35.784045 51717 layer_factory.hpp:76] Creating layer conv5_1_sum_relu
I0705 17:08:35.784075 51717 net.cpp:106] Creating Layer conv5_1_sum_relu
I0705 17:08:35.784096 51717 net.cpp:454] conv5_1_sum_relu <- conv5_1_sum_bn
I0705 17:08:35.784106 51717 net.cpp:397] conv5_1_sum_relu -> conv5_1_sum_bn (in-place)
I0705 17:08:35.784337 51717 net.cpp:150] Setting up conv5_1_sum_relu
I0705 17:08:35.784363 51717 net.cpp:157] Top shape: 32 2048 7 7 (3211264)
I0705 17:08:35.784371 51717 net.cpp:165] Memory required for data: 3170689152
I0705 17:08:35.784380 51717 layer_factory.hpp:76] Creating layer conv5_1_sum_bn_conv5_1_sum_relu_0_split
I0705 17:08:35.784392 51717 net.cpp:106] Creating Layer conv5_1_sum_bn_conv5_1_sum_relu_0_split
I0705 17:08:35.784401 51717 net.cpp:454] conv5_1_sum_bn_conv5_1_sum_relu_0_split <- conv5_1_sum_bn
I0705 17:08:35.784410 51717 net.cpp:411] conv5_1_sum_bn_conv5_1_sum_relu_0_split -> conv5_1_sum_bn_conv5_1_sum_relu_0_split_0
I0705 17:08:35.784437 51717 net.cpp:411] conv5_1_sum_bn_conv5_1_sum_relu_0_split -> conv5_1_sum_bn_conv5_1_sum_relu_0_split_1
I0705 17:08:35.784499 51717 net.cpp:150] Setting up conv5_1_sum_bn_conv5_1_sum_relu_0_split
I0705 17:08:35.784512 51717 net.cpp:157] Top shape: 32 2048 7 7 (3211264)
I0705 17:08:35.784520 51717 net.cpp:157] Top shape: 32 2048 7 7 (3211264)
I0705 17:08:35.784528 51717 net.cpp:165] Memory required for data: 3196379264
I0705 17:08:35.784535 51717 layer_factory.hpp:76] Creating layer conv5_2_1
I0705 17:08:35.784551 51717 net.cpp:106] Creating Layer conv5_2_1
I0705 17:08:35.784560 51717 net.cpp:454] conv5_2_1 <- conv5_1_sum_bn_conv5_1_sum_relu_0_split_0
I0705 17:08:35.784571 51717 net.cpp:411] conv5_2_1 -> conv5_2_1
I0705 17:08:35.816928 51717 cudnn_conv_layer.cpp:194] Reallocating workspace storage: 24576
I0705 17:08:35.816984 51717 net.cpp:150] Setting up conv5_2_1
I0705 17:08:35.816998 51717 net.cpp:157] Top shape: 32 512 7 7 (802816)
I0705 17:08:35.817006 51717 net.cpp:165] Memory required for data: 3199590528
I0705 17:08:35.817023 51717 layer_factory.hpp:76] Creating layer conv5_2_1_bn
I0705 17:08:35.817041 51717 net.cpp:106] Creating Layer conv5_2_1_bn
I0705 17:08:35.817051 51717 net.cpp:454] conv5_2_1_bn <- conv5_2_1
I0705 17:08:35.817077 51717 net.cpp:411] conv5_2_1_bn -> conv5_2_1_bn
I0705 17:08:35.817345 51717 net.cpp:150] Setting up conv5_2_1_bn
I0705 17:08:35.817369 51717 net.cpp:157] Top shape: 32 512 7 7 (802816)
I0705 17:08:35.817378 51717 net.cpp:165] Memory required for data: 3202801792
I0705 17:08:35.817389 51717 layer_factory.hpp:76] Creating layer conv5_2_1_relu
I0705 17:08:35.817400 51717 net.cpp:106] Creating Layer conv5_2_1_relu
I0705 17:08:35.817407 51717 net.cpp:454] conv5_2_1_relu <- conv5_2_1_bn
I0705 17:08:35.817416 51717 net.cpp:397] conv5_2_1_relu -> conv5_2_1_bn (in-place)
I0705 17:08:35.817667 51717 net.cpp:150] Setting up conv5_2_1_relu
I0705 17:08:35.817694 51717 net.cpp:157] Top shape: 32 512 7 7 (802816)
I0705 17:08:35.817703 51717 net.cpp:165] Memory required for data: 3206013056
I0705 17:08:35.817723 51717 layer_factory.hpp:76] Creating layer conv5_2_2
I0705 17:08:35.817744 51717 net.cpp:106] Creating Layer conv5_2_2
I0705 17:08:35.817764 51717 net.cpp:454] conv5_2_2 <- conv5_2_1_bn
I0705 17:08:35.817775 51717 net.cpp:411] conv5_2_2 -> conv5_2_2
I0705 17:08:35.890239 51717 net.cpp:150] Setting up conv5_2_2
I0705 17:08:35.890297 51717 net.cpp:157] Top shape: 32 512 7 7 (802816)
I0705 17:08:35.890307 51717 net.cpp:165] Memory required for data: 3209224320
I0705 17:08:35.890322 51717 layer_factory.hpp:76] Creating layer conv5_2_2_bn
I0705 17:08:35.890341 51717 net.cpp:106] Creating Layer conv5_2_2_bn
I0705 17:08:35.890352 51717 net.cpp:454] conv5_2_2_bn <- conv5_2_2
I0705 17:08:35.890363 51717 net.cpp:411] conv5_2_2_bn -> conv5_2_2_bn
I0705 17:08:35.890635 51717 net.cpp:150] Setting up conv5_2_2_bn
I0705 17:08:35.890648 51717 net.cpp:157] Top shape: 32 512 7 7 (802816)
I0705 17:08:35.890668 51717 net.cpp:165] Memory required for data: 3212435584
I0705 17:08:35.890681 51717 layer_factory.hpp:76] Creating layer conv5_2_2_relu
I0705 17:08:35.890692 51717 net.cpp:106] Creating Layer conv5_2_2_relu
I0705 17:08:35.890717 51717 net.cpp:454] conv5_2_2_relu <- conv5_2_2_bn
I0705 17:08:35.890740 51717 net.cpp:397] conv5_2_2_relu -> conv5_2_2_bn (in-place)
I0705 17:08:35.891154 51717 net.cpp:150] Setting up conv5_2_2_relu
I0705 17:08:35.891183 51717 net.cpp:157] Top shape: 32 512 7 7 (802816)
I0705 17:08:35.891191 51717 net.cpp:165] Memory required for data: 3215646848
I0705 17:08:35.891206 51717 layer_factory.hpp:76] Creating layer conv5_2_3
I0705 17:08:35.891224 51717 net.cpp:106] Creating Layer conv5_2_3
I0705 17:08:35.891233 51717 net.cpp:454] conv5_2_3 <- conv5_2_2_bn
I0705 17:08:35.891255 51717 net.cpp:411] conv5_2_3 -> conv5_2_3
I0705 17:08:35.925052 51717 cudnn_conv_layer.cpp:194] Reallocating workspace storage: 6144
I0705 17:08:35.925114 51717 net.cpp:150] Setting up conv5_2_3
I0705 17:08:35.925129 51717 net.cpp:157] Top shape: 32 2048 7 7 (3211264)
I0705 17:08:35.925137 51717 net.cpp:165] Memory required for data: 3228491904
I0705 17:08:35.925269 51717 layer_factory.hpp:76] Creating layer conv5_2_sum
I0705 17:08:35.925302 51717 net.cpp:106] Creating Layer conv5_2_sum
I0705 17:08:35.925326 51717 net.cpp:454] conv5_2_sum <- conv5_1_sum_bn_conv5_1_sum_relu_0_split_1
I0705 17:08:35.925336 51717 net.cpp:454] conv5_2_sum <- conv5_2_3
I0705 17:08:35.925359 51717 net.cpp:411] conv5_2_sum -> conv5_2_sum
I0705 17:08:35.925429 51717 net.cpp:150] Setting up conv5_2_sum
I0705 17:08:35.925441 51717 net.cpp:157] Top shape: 32 2048 7 7 (3211264)
I0705 17:08:35.925451 51717 net.cpp:165] Memory required for data: 3241336960
I0705 17:08:35.925458 51717 layer_factory.hpp:76] Creating layer conv5_2_sum_bn
I0705 17:08:35.925472 51717 net.cpp:106] Creating Layer conv5_2_sum_bn
I0705 17:08:35.925482 51717 net.cpp:454] conv5_2_sum_bn <- conv5_2_sum
I0705 17:08:35.925492 51717 net.cpp:411] conv5_2_sum_bn -> conv5_2_sum_bn
I0705 17:08:35.925822 51717 net.cpp:150] Setting up conv5_2_sum_bn
I0705 17:08:35.925849 51717 net.cpp:157] Top shape: 32 2048 7 7 (3211264)
I0705 17:08:35.925858 51717 net.cpp:165] Memory required for data: 3254182016
I0705 17:08:35.925885 51717 layer_factory.hpp:76] Creating layer conv5_2_sum_relu
I0705 17:08:35.925911 51717 net.cpp:106] Creating Layer conv5_2_sum_relu
I0705 17:08:35.925920 51717 net.cpp:454] conv5_2_sum_relu <- conv5_2_sum_bn
I0705 17:08:35.925928 51717 net.cpp:397] conv5_2_sum_relu -> conv5_2_sum_bn (in-place)
I0705 17:08:35.926183 51717 net.cpp:150] Setting up conv5_2_sum_relu
I0705 17:08:35.926209 51717 net.cpp:157] Top shape: 32 2048 7 7 (3211264)
I0705 17:08:35.926218 51717 net.cpp:165] Memory required for data: 3267027072
I0705 17:08:35.926225 51717 layer_factory.hpp:76] Creating layer pool2
I0705 17:08:35.926239 51717 net.cpp:106] Creating Layer pool2
I0705 17:08:35.926246 51717 net.cpp:454] pool2 <- conv5_2_sum_bn
I0705 17:08:35.926257 51717 net.cpp:411] pool2 -> pool2
I0705 17:08:35.926666 51717 net.cpp:150] Setting up pool2
I0705 17:08:35.926699 51717 net.cpp:157] Top shape: 32 2048 1 1 (65536)
I0705 17:08:35.926708 51717 net.cpp:165] Memory required for data: 3267289216
I0705 17:08:35.926728 51717 layer_factory.hpp:76] Creating layer fc
I0705 17:08:35.926740 51717 net.cpp:106] Creating Layer fc
I0705 17:08:35.926748 51717 net.cpp:454] fc <- pool2
I0705 17:08:35.926759 51717 net.cpp:411] fc -> fc
I0705 17:08:35.927104 51717 net.cpp:150] Setting up fc
I0705 17:08:35.927129 51717 net.cpp:157] Top shape: 32 2 (64)
I0705 17:08:35.927136 51717 net.cpp:165] Memory required for data: 3267289472
I0705 17:08:35.927147 51717 layer_factory.hpp:76] Creating layer loss
I0705 17:08:35.927166 51717 net.cpp:106] Creating Layer loss
I0705 17:08:35.927187 51717 net.cpp:454] loss <- fc
I0705 17:08:35.927196 51717 net.cpp:454] loss <- label
I0705 17:08:35.927207 51717 net.cpp:411] loss -> loss
I0705 17:08:35.927224 51717 layer_factory.hpp:76] Creating layer loss
…
I0705 17:08:35.931370 51717 net.cpp:322] The NetState phase (1) differed from the phase (0) specified by a rule in layer data
I0705 17:08:35.932015 51717 net.cpp:49] Initializing net from parameters: 
name: "ResNet-18"
state {
  phase: TEST
}
layer {
  name: "data"
  type: "ImageData"
  top: "data"
  top: "label"
  include {
    phase: TEST
  }
  transform_param {
    mirror: false
    crop_size: 224
    mean_value: 104
    mean_value: 117
    mean_value: 123
  }
  image_data_param {
    source: "../lists/roi-val-L0.lst"
    batch_size: 16
    shuffle: true
    new_height: 256
    new_width: 256
  }
}
layer {
  name: "conv1"
  type: "Convolution"
  bottom: "data"
  top: "conv1"
  param {
    lr_mult: 1
    decay_mult: 1
  }
  param {
    lr_mult: 2
    decay_mult: 0
  }
  convolution_param {
    num_output: 64
    pad: 0
    kernel_size: 7
    stride: 2
    weight_filler {
      type: "msra"
    }
    bias_filler {
      type: "constant"
      value: 0
    }
  }
}
layer {
  name: "conv1_bn"
  type: "BatchNorm"
  bottom: "conv1"
  top: "conv1_bn"
  param {
    lr_mult: 0
  }
  param {
    lr_mult: 0
  }
  param {
    lr_mult: 0
  }
}
layer {
  name: "conv1_relu"
  type: "ReLU"
  bottom: "conv1_bn"
  top: "conv1_bn"
}
layer {
  name: "pool1"
  type: "Pooling"
  bottom: "conv1_bn"
  top: "pool1"
  pooling_param {
    pool: MAX
    kernel_size: 3
    stride: 2
  }
}
layer {
  name: "conv1_output"
  type: "Convolution"
  bottom: "pool1"
  top: "conv1_output"
  param {
    lr_mult: 1
    decay_mult: 1
  }
  param {
    lr_mult: 2
    decay_mult: 0
  }
  convolution_param {
    num_output: 256
    pad: 0
    kernel_size: 1
    stride: 1
    weight_filler {
      type: "msra"
    }
    bias_filler {
      type: "constant"
      value: 0
    }
  }
}
layer {
  name: "conv2_1_1"
  type: "Convolution"
  bottom: "pool1"
  top: "conv2_1_1"
  param {
    lr_mult: 1
    decay_mult: 1
  }
  param {
    lr_mult: 2
    decay_mult: 0
  }
  convolution_param {
    num_output: 64
    pad: 0
    kernel_size: 1
    stride: 1
    weight_filler {
      type: "msra"
    }
    bias_filler {
      type: "constant"
      value: 0
    }
  }
}
layer {
  name: "conv2_1_1_bn"
  type: "BatchNorm"
  bottom: "conv2_1_1"
  top: "conv2_1_1_bn"
  param {
    lr_mult: 0
  }
  param {
    lr_mult: 0
  }
  param {
    lr_mult: 0
  }
}
layer {
  name: "conv2_1_1_relu"
  type: "ReLU"
  bottom: "conv2_1_1_bn"
  top: "conv2_1_1_bn"
}
layer {
  name: "conv2_1_2"
  type: "Convolution"
  bottom: "conv2_1_1_bn"
  top: "conv2_1_2"
  param {
    lr_mult: 1
    decay_mult: 1
  }
  param {
    lr_mult: 2
    decay_mult: 0
  }
  convolution_param {
    num_output: 64
    pad: 1
    kernel_size: 3
    stride: 1
    weight_filler {
      type: "msra"
    }
    bias_filler {
      type: "constant"
      value: 0
    }
  }
}
layer {
  name: "conv2_1_2_bn"
  type: "BatchNorm"
  bottom: "conv2_1_2"
  top: "conv2_1_2_bn"
  param {
    lr_mult: 0
  }
  param {
    lr_mult: 0
  }
  param {
    lr_mult: 0
  }
}
layer {
  name: "conv2_1_2_relu"
  type: "ReLU"
  bottom: "conv2_1_2_bn"
  top: "conv2_1_2_bn"
}
layer {
  name: "conv2_1_3"
  type: "Convolution"
  bottom: "conv2_1_2_bn"
  top: "conv2_1_3"
  param {
    lr_mult: 1
    decay_mult: 1
  }
  param {
    lr_mult: 2
    decay_mult: 0
  }
  convolution_param {
    num_output: 256
    pad: 0
    kernel_size: 1
    stride: 1
    weight_filler {
      type: "msra"
    }
    bias_filler {
      type: "constant"
      value: 0
    }
  }
}
layer {
  name: "conv2_1_sum"
  type: "Eltwise"
  bottom: "conv1_output"
  bottom: "conv2_1_3"
  top: "conv2_1_sum"
  eltwise_param {
    operation: SUM
  }
}
layer {
  name: "conv2_1_sum_bn"
  type: "BatchNorm"
  bottom: "conv2_1_sum"
  top: "conv2_1_sum_bn"
  param {
    lr_mult: 0
  }
  param {
    lr_mult: 0
  }
  param {
    lr_mult: 0
  }
}
layer {
  name: "conv2_1_sum_relu"
  type: "ReLU"
  bottom: "conv2_1_sum_bn"
  top: "conv2_1_sum_bn"
}
layer {
  name: "conv2_2_1"
  type: "Convolution"
  bottom: "conv2_1_sum_bn"
  top: "conv2_2_1"
  param {
    lr_mult: 1
    decay_mult: 1
  }
  param {
    lr_mult: 2
    decay_mult: 0
  }
  convolution_param {
    num_output: 64
    pad: 0
    kernel_size: 1
    stride: 1
    weight_filler {
      type: "msra"
    }
    bias_filler {
      type: "constant"
      value: 0
    }
  }
}
layer {
  name: "conv2_2_1_bn"
  type: "BatchNorm"
  bottom: "conv2_2_1"
  top: "conv2_2_1_bn"
  param {
    lr_mult: 0
  }
  param {
    lr_mult: 0
  }
  param {
    lr_mult: 0
  }
}
layer {
  name: "conv2_2_1_relu"
  type: "ReLU"
  bottom: "conv2_2_1_bn"
  top: "conv2_2_1_bn"
}
layer {
  name: "conv2_2_2"
  type: "Convolution"
  bottom: "conv2_2_1_bn"
  top: "conv2_2_2"
  param {
    lr_mult: 1
    decay_mult: 1
  }
  param {
    lr_mult: 2
    decay_mult: 0
  }
  convolution_param {
    num_output: 64
    pad: 1
    kernel_size: 3
    stride: 1
    weight_filler {
      type: "msra"
    }
    bias_filler {
      type: "constant"
      value: 0
    }
  }
}
layer {
  name: "conv2_2_2_bn"
  type: "BatchNorm"
  bottom: "conv2_2_2"
  top: "conv2_2_2_bn"
  param {
    lr_mult: 0
  }
  param {
    lr_mult: 0
  }
  param {
    lr_mult: 0
  }
}
layer {
  name: "conv2_2_2_relu"
  type: "ReLU"
  bottom: "conv2_2_2_bn"
  top: "conv2_2_2_bn"
}
layer {
  name: "conv2_2_3"
  type: "Convolution"
  bottom: "conv2_2_2_bn"
  top: "conv2_2_3"
  param {
    lr_mult: 1
    decay_mult: 1
  }
  param {
    lr_mult: 2
    decay_mult: 0
  }
  convolution_param {
    num_output: 256
    pad: 0
    kernel_size: 1
    stride: 1
    weight_filler {
      type: "msra"
    }
    bias_filler {
      type: "constant"
      value: 0
    }
  }
}
layer {
  name: "conv2_2_sum"
  type: "Eltwise"
  bottom: "conv2_1_sum_bn"
  bottom: "conv2_2_3"
  top: "conv2_2_sum"
  eltwise_param {
    operation: SUM
  }
}
layer {
  name: "conv2_2_sum_bn"
  type: "BatchNorm"
  bottom: "conv2_2_sum"
  top: "conv2_2_sum_bn"
  param {
    lr_mult: 0
  }
  param {
    lr_mult: 0
  }
  param {
    lr_mult: 0
  }
}
layer {
  name: "conv2_2_sum_relu"
  type: "ReLU"
  bottom: "conv2_2_sum_bn"
  top: "conv2_2_sum_bn"
}
layer {
  name: "conv2_output"
  type: "Convolution"
  bottom: "conv2_2_sum_bn"
  top: "conv2_output"
  param {
    lr_mult: 1
    decay_mult: 1
  }
  param {
    lr_mult: 2
    decay_mult: 0
  }
  convolution_param {
    num_output: 512
    pad: 0
    kernel_size: 1
    stride: 2
    weight_filler {
      type: "msra"
    }
    bias_filler {
      type: "constant"
      value: 0
    }
  }
}
layer {
  name: "conv3_1_1"
  type: "Convolution"
  bottom: "conv2_2_sum_bn"
  top: "conv3_1_1"
  param {
    lr_mult: 1
    decay_mult: 1
  }
  param {
    lr_mult: 2
    decay_mult: 0
  }
  convolution_param {
    num_output: 128
    pad: 0
    kernel_size: 1
    stride: 2
    weight_filler {
      type: "msra"
    }
    bias_filler {
      type: "constant"
      value: 0
    }
  }
}
layer {
  name: "conv3_1_1_bn"
  type: "BatchNorm"
  bottom: "conv3_1_1"
  top: "conv3_1_1_bn"
  param {
    lr_mult: 0
  }
  param {
    lr_mult: 0
  }
  param {
    lr_mult: 0
  }
}
layer {
  name: "conv3_1_1_relu"
  type: "ReLU"
  bottom: "conv3_1_1_bn"
  top: "conv3_1_1_bn"
}
layer {
  name: "conv3_1_2"
  type: "Convolution"
  bottom: "conv3_1_1_bn"
  top: "conv3_1_2"
  param {
    lr_mult: 1
    decay_mult: 1
  }
  param {
    lr_mult: 2
    decay_mult: 0
  }
  convolution_param {
    num_output: 128
    pad: 1
    kernel_size: 3
    stride: 1
    weight_filler {
      type: "msra"
    }
    bias_filler {
      type: "constant"
      value: 0
    }
  }
}
layer {
  name: "conv3_1_2_bn"
  type: "BatchNorm"
  bottom: "conv3_1_2"
  top: "conv3_1_2_bn"
  param {
    lr_mult: 0
  }
  param {
    lr_mult: 0
  }
  param {
    lr_mult: 0
  }
}
layer {
  name: "conv3_1_2_relu"
  type: "ReLU"
  bottom: "conv3_1_2_bn"
  top: "conv3_1_2_bn"
}
layer {
  name: "conv3_1_3"
  type: "Convolution"
  bottom: "conv3_1_2_bn"
  top: "conv3_1_3"
  param {
    lr_mult: 1
    decay_mult: 1
  }
  param {
    lr_mult: 2
    decay_mult: 0
  }
  convolution_param {
    num_output: 512
    pad: 0
    kernel_size: 1
    stride: 1
    weight_filler {
      type: "msra"
    }
    bias_filler {
      type: "constant"
      value: 0
    }
  }
}
layer {
  name: "conv3_1_sum"
  type: "Eltwise"
  bottom: "conv2_output"
  bottom: "conv3_1_3"
  top: "conv3_1_sum"
  eltwise_param {
    operation: SUM
  }
}
layer {
  name: "conv3_1_sum_bn"
  type: "BatchNorm"
  bottom: "conv3_1_sum"
  top: "conv3_1_sum_bn"
  param {
    lr_mult: 0
  }
  param {
    lr_mult: 0
  }
  param {
    lr_mult: 0
  }
}
layer {
  name: "conv3_1_sum_relu"
  type: "ReLU"
  bottom: "conv3_1_sum_bn"
  top: "conv3_1_sum_bn"
}
layer {
  name: "conv3_2_1"
  type: "Convolution"
  bottom: "conv3_1_sum_bn"
  top: "conv3_2_1"
  param {
    lr_mult: 1
    decay_mult: 1
  }
  param {
    lr_mult: 2
    decay_mult: 0
  }
  convolution_param {
    num_output: 128
    pad: 0
    kernel_size: 1
    stride: 1
    weight_filler {
      type: "msra"
    }
    bias_filler {
      type: "constant"
      value: 0
    }
  }
}
layer {
  name: "conv3_2_1_bn"
  type: "BatchNorm"
  bottom: "conv3_2_1"
  top: "conv3_2_1_bn"
  param {
    lr_mult: 0
  }
  param {
    lr_mult: 0
  }
  param {
    lr_mult: 0
  }
}
layer {
  name: "conv3_2_1_relu"
  type: "ReLU"
  bottom: "conv3_2_1_bn"
  top: "conv3_2_1_bn"
}
layer {
  name: "conv3_2_2"
  type: "Convolution"
  bottom: "conv3_2_1_bn"
  top: "conv3_2_2"
  param {
    lr_mult: 1
    decay_mult: 1
  }
  param {
    lr_mult: 2
    decay_mult: 0
  }
  convolution_param {
    num_output: 128
    pad: 1
    kernel_size: 3
    stride: 1
    weight_filler {
      type: "msra"
    }
    bias_filler {
      type: "constant"
      value: 0
    }
  }
}
layer {
  name: "conv3_2_2_bn"
  type: "BatchNorm"
  bottom: "conv3_2_2"
  top: "conv3_2_2_bn"
  param {
    lr_mult: 0
  }
  param {
    lr_mult: 0
  }
  param {
    lr_mult: 0
  }
}
layer {
  name: "conv3_2_2_relu"
  type: "ReLU"
  bottom: "conv3_2_2_bn"
  top: "conv3_2_2_bn"
}
layer {
  name: "conv3_2_3"
  type: "Convolution"
  bottom: "conv3_2_2_bn"
  top: "conv3_2_3"
  param {
    lr_mult: 1
    decay_mult: 1
  }
  param {
    lr_mult: 2
    decay_mult: 0
  }
  convolution_param {
    num_output: 512
    pad: 0
    kernel_size: 1
    stride: 1
    weight_filler {
      type: "msra"
    }
    bias_filler {
      type: "constant"
      value: 0
    }
  }
}
layer {
  name: "conv3_2_sum"
  type: "Eltwise"
  bottom: "conv3_1_sum_bn"
  bottom: "conv3_2_3"
  top: "conv3_2_sum"
  eltwise_param {
    operation: SUM
  }
}
layer {
  name: "conv3_2_sum_bn"
  type: "BatchNorm"
  bottom: "conv3_2_sum"
  top: "conv3_2_sum_bn"
  param {
    lr_mult: 0
  }
  param {
    lr_mult: 0
  }
  param {
    lr_mult: 0
  }
}
layer {
  name: "conv3_2_sum_relu"
  type: "ReLU"
  bottom: "conv3_2_sum_bn"
  top: "conv3_2_sum_bn"
}
layer {
  name: "conv3_output"
  type: "Convolution"
  bottom: "conv3_2_sum_bn"
  top: "conv3_output"
  param {
    lr_mult: 1
    decay_mult: 1
  }
  param {
    lr_mult: 2
    decay_mult: 0
  }
  convolution_param {
    num_output: 1024
    pad: 0
    kernel_size: 1
    stride: 2
    weight_filler {
      type: "msra"
    }
    bias_filler {
      type: "constant"
      value: 0
    }
  }
}
layer {
  name: "conv4_1_1"
  type: "Convolution"
  bottom: "conv3_2_sum_bn"
  top: "conv4_1_1"
  param {
    lr_mult: 1
    decay_mult: 1
  }
  param {
    lr_mult: 2
    decay_mult: 0
  }
  convolution_param {
    num_output: 256
    pad: 0
    kernel_size: 1
    stride: 2
    weight_filler {
      type: "msra"
    }
    bias_filler {
      type: "constant"
      value: 0
    }
  }
}
layer {
  name: "conv4_1_1_bn"
  type: "BatchNorm"
  bottom: "conv4_1_1"
  top: "conv4_1_1_bn"
  param {
    lr_mult: 0
  }
  param {
    lr_mult: 0
  }
  param {
    lr_mult: 0
  }
}
layer {
  name: "conv4_1_1_relu"
  type: "ReLU"
  bottom: "conv4_1_1_bn"
  top: "conv4_1_1_bn"
}
layer {
  name: "conv4_1_2"
  type: "Convolution"
  bottom: "conv4_1_1_bn"
  top: "conv4_1_2"
  param {
    lr_mult: 1
    decay_mult: 1
  }
  param {
    lr_mult: 2
    decay_mult: 0
  }
  convolution_param {
    num_output: 256
    pad: 1
    kernel_size: 3
    stride: 1
    weight_filler {
      type: "msra"
    }
    bias_filler {
      type: "constant"
      value: 0
    }
  }
}
layer {
  name: "conv4_1_2_bn"
  type: "BatchNorm"
  bottom: "conv4_1_2"
  top: "conv4_1_2_bn"
  param {
    lr_mult: 0
  }
  param {
    lr_mult: 0
  }
  param {
    lr_mult: 0
  }
}
layer {
  name: "conv4_1_2_relu"
  type: "ReLU"
  bottom: "conv4_1_2_bn"
  top: "conv4_1_2_bn"
}
layer {
  name: "conv4_1_3"
  type: "Convolution"
  bottom: "conv4_1_2_bn"
  top: "conv4_1_3"
  param {
    lr_mult: 1
    decay_mult: 1
  }
  param {
    lr_mult: 2
    decay_mult: 0
  }
  convolution_param {
    num_output: 1024
    pad: 0
    kernel_size: 1
    stride: 1
    weight_filler {
      type: "msra"
    }
    bias_filler {
      type: "constant"
      value: 0
    }
  }
}
layer {
  name: "conv4_1_sum"
  type: "Eltwise"
  bottom: "conv3_output"
  bottom: "conv4_1_3"
  top: "conv4_1_sum"
  eltwise_param {
    operation: SUM
  }
}
layer {
  name: "conv4_1_sum_bn"
  type: "BatchNorm"
  bottom: "conv4_1_sum"
  top: "conv4_1_sum_bn"
  param {
    lr_mult: 0
  }
  param {
    lr_mult: 0
  }
  param {
    lr_mult: 0
  }
}
layer {
  name: "conv4_1_sum_relu"
  type: "ReLU"
  bottom: "conv4_1_sum_bn"
  top: "conv4_1_sum_bn"
}
layer {
  name: "conv4_2_1"
  type: "Convolution"
  bottom: "conv4_1_sum_bn"
  top: "conv4_2_1"
  param {
    lr_mult: 1
    decay_mult: 1
  }
  param {
    lr_mult: 2
    decay_mult: 0
  }
  convolution_param {
    num_output: 256
    pad: 0
    kernel_size: 1
    stride: 1
    weight_filler {
      type: "msra"
    }
    bias_filler {
      type: "constant"
      value: 0
    }
  }
}
layer {
  name: "conv4_2_1_bn"
  type: "BatchNorm"
  bottom: "conv4_2_1"
  top: "conv4_2_1_bn"
  param {
    lr_mult: 0
  }
  param {
    lr_mult: 0
  }
  param {
    lr_mult: 0
  }
}
layer {
  name: "conv4_2_1_relu"
  type: "ReLU"
  bottom: "conv4_2_1_bn"
  top: "conv4_2_1_bn"
}
layer {
  name: "conv4_2_2"
  type: "Convolution"
  bottom: "conv4_2_1_bn"
  top: "conv4_2_2"
  param {
    lr_mult: 1
    decay_mult: 1
  }
  param {
    lr_mult: 2
    decay_mult: 0
  }
  convolution_param {
    num_output: 256
    pad: 1
    kernel_size: 3
    stride: 1
    weight_filler {
      type: "msra"
    }
    bias_filler {
      type: "constant"
      value: 0
    }
  }
}
layer {
  name: "conv4_2_2_bn"
  type: "BatchNorm"
  bottom: "conv4_2_2"
  top: "conv4_2_2_bn"
  param {
    lr_mult: 0
  }
  param {
    lr_mult: 0
  }
  param {
    lr_mult: 0
  }
}
layer {
  name: "conv4_2_2_relu"
  type: "ReLU"
  bottom: "conv4_2_2_bn"
  top: "conv4_2_2_bn"
}
layer {
  name: "conv4_2_3"
  type: "Convolution"
  bottom: "conv4_2_2_bn"
  top: "conv4_2_3"
  param {
    lr_mult: 1
    decay_mult: 1
  }
  param {
    lr_mult: 2
    decay_mult: 0
  }
  convolution_param {
    num_output: 1024
    pad: 0
    kernel_size: 1
    stride: 1
    weight_filler {
      type: "msra"
    }
    bias_filler {
      type: "constant"
      value: 0
    }
  }
}
layer {
  name: "conv4_2_sum"
  type: "Eltwise"
  bottom: "conv4_1_sum_bn"
  bottom: "conv4_2_3"
  top: "conv4_2_sum"
  eltwise_param {
    operation: SUM
  }
}
layer {
  name: "conv4_2_sum_bn"
  type: "BatchNorm"
  bottom: "conv4_2_sum"
  top: "conv4_2_sum_bn"
  param {
    lr_mult: 0
  }
  param {
    lr_mult: 0
  }
  param {
    lr_mult: 0
  }
}
layer {
  name: "conv4_2_sum_relu"
  type: "ReLU"
  bottom: "conv4_2_sum_bn"
  top: "conv4_2_sum_bn"
}
layer {
  name: "conv4_output"
  type: "Convolution"
  bottom: "conv4_2_sum_bn"
  top: "conv4_output"
  param {
    lr_mult: 1
    decay_mult: 1
  }
  param {
    lr_mult: 2
    decay_mult: 0
  }
  convolution_param {
    num_output: 2048
    pad: 0
    kernel_size: 1
    stride: 2
    weight_filler {
      type: "msra"
    }
    bias_filler {
      type: "constant"
      value: 0
    }
  }
}
layer {
  name: "conv5_1_1"
  type: "Convolution"
  bottom: "conv4_2_sum_bn"
  top: "conv5_1_1"
  param {
    lr_mult: 1
    decay_mult: 1
  }
  param {
    lr_mult: 2
    decay_mult: 0
  }
  convolution_param {
    num_output: 512
    pad: 0
    kernel_size: 1
    stride: 2
    weight_filler {
      type: "msra"
    }
    bias_filler {
      type: "constant"
      value: 0
    }
  }
}
layer {
  name: "conv5_1_1_bn"
  type: "BatchNorm"
  bottom: "conv5_1_1"
  top: "conv5_1_1_bn"
  param {
    lr_mult: 0
  }
  param {
    lr_mult: 0
  }
  param {
    lr_mult: 0
  }
}
layer {
  name: "conv5_1_1_relu"
  type: "ReLU"
  bottom: "conv5_1_1_bn"
  top: "conv5_1_1_bn"
}
layer {
  name: "conv5_1_2"
  type: "Convolution"
  bottom: "conv5_1_1_bn"
  top: "conv5_1_2"
  param {
    lr_mult: 1
    decay_mult: 1
  }
  param {
    lr_mult: 2
    decay_mult: 0
  }
  convolution_param {
    num_output: 512
    pad: 1
    kernel_size: 3
    stride: 1
    weight_filler {
      type: "msra"
    }
    bias_filler {
      type: "constant"
      value: 0
    }
  }
}
layer {
  name: "conv5_1_2_bn"
  type: "BatchNorm"
  bottom: "conv5_1_2"
  top: "conv5_1_2_bn"
  param {
    lr_mult: 0
  }
  param {
    lr_mult: 0
  }
  param {
    lr_mult: 0
  }
}
layer {
  name: "conv5_1_2_relu"
  type: "ReLU"
  bottom: "conv5_1_2_bn"
  top: "conv5_1_2_bn"
}
layer {
  name: "conv5_1_3"
  type: "Convolution"
  bottom: "conv5_1_2_bn"
  top: "conv5_1_3"
  param {
    lr_mult: 1
    decay_mult: 1
  }
  param {
    lr_mult: 2
    decay_mult: 0
  }
  convolution_param {
    num_output: 2048
    pad: 0
    kernel_size: 1
    stride: 1
    weight_filler {
      type: "msra"
    }
    bias_filler {
      type: "constant"
      value: 0
    }
  }
}
layer {
  name: "conv5_1_sum"
  type: "Eltwise"
  bottom: "conv4_output"
  bottom: "conv5_1_3"
  top: "conv5_1_sum"
  eltwise_param {
    operation: SUM
  }
}
layer {
  name: "conv5_1_sum_bn"
  type: "BatchNorm"
  bottom: "conv5_1_sum"
  top: "conv5_1_sum_bn"
  param {
    lr_mult: 0
  }
  param {
    lr_mult: 0
  }
  param {
    lr_mult: 0
  }
}
layer {
  name: "conv5_1_sum_relu"
  type: "ReLU"
  bottom: "conv5_1_sum_bn"
  top: "conv5_1_sum_bn"
}
layer {
  name: "conv5_2_1"
  type: "Convolution"
  bottom: "conv5_1_sum_bn"
  top: "conv5_2_1"
  param {
    lr_mult: 1
    decay_mult: 1
  }
  param {
    lr_mult: 2
    decay_mult: 0
  }
  convolution_param {
    num_output: 512
    pad: 0
    kernel_size: 1
    stride: 1
    weight_filler {
      type: "msra"
    }
    bias_filler {
      type: "constant"
      value: 0
    }
  }
}
layer {
  name: "conv5_2_1_bn"
  type: "BatchNorm"
  bottom: "conv5_2_1"
  top: "conv5_2_1_bn"
  param {
    lr_mult: 0
  }
  param {
    lr_mult: 0
  }
  param {
    lr_mult: 0
  }
}
layer {
  name: "conv5_2_1_relu"
  type: "ReLU"
  bottom: "conv5_2_1_bn"
  top: "conv5_2_1_bn"
}
layer {
  name: "conv5_2_2"
  type: "Convolution"
  bottom: "conv5_2_1_bn"
  top: "conv5_2_2"
  param {
    lr_mult: 1
    decay_mult: 1
  }
  param {
    lr_mult: 2
    decay_mult: 0
  }
  convolution_param {
    num_output: 512
    pad: 1
    kernel_size: 3
    stride: 1
    weight_filler {
      type: "msra"
    }
    bias_filler {
      type: "constant"
      value: 0
    }
  }
}
layer {
  name: "conv5_2_2_bn"
  type: "BatchNorm"
  bottom: "conv5_2_2"
  top: "conv5_2_2_bn"
  param {
    lr_mult: 0
  }
  param {
    lr_mult: 0
  }
  param {
    lr_mult: 0
  }
}
layer {
  name: "conv5_2_2_relu"
  type: "ReLU"
  bottom: "conv5_2_2_bn"
  top: "conv5_2_2_bn"
}
layer {
  name: "conv5_2_3"
  type: "Convolution"
  bottom: "conv5_2_2_bn"
  top: "conv5_2_3"
  param {
    lr_mult: 1
    decay_mult: 1
  }
  param {
    lr_mult: 2
    decay_mult: 0
  }
  convolution_param {
    num_output: 2048
    pad: 0
    kernel_size: 1
    stride: 1
    weight_filler {
      type: "msra"
    }
    bias_filler {
      type: "constant"
      value: 0
    }
  }
}
layer {
  name: "conv5_2_sum"
  type: "Eltwise"
  bottom: "conv5_1_sum_bn"
  bottom: "conv5_2_3"
  top: "conv5_2_sum"
  eltwise_param {
    operation: SUM
  }
}
layer {
  name: "conv5_2_sum_bn"
  type: "BatchNorm"
  bottom: "conv5_2_sum"
  top: "conv5_2_sum_bn"
  param {
    lr_mult: 0
  }
  param {
    lr_mult: 0
  }
  param {
    lr_mult: 0
  }
}
layer {
  name: "conv5_2_sum_relu"
  type: "ReLU"
  bottom: "conv5_2_sum_bn"
  top: "conv5_2_sum_bn"
}
layer {
  name: "pool2"
  type: "Pooling"
  bottom: "conv5_2_sum_bn"
  top: "pool2"
  pooling_param {
    pool: AVE
    kernel_size: 7
    stride: 1
  }
}
layer {
  name: "fc"
  type: "InnerProduct"
  bottom: "pool2"
  top: "fc"
  param {
    lr_mult: 1
    decay_mult: 1
  }
  param {
    lr_mult: 2
    decay_mult: 0
  }
  inner_product_param {
    num_output: 2
    weight_filler {
      type: "gaussian"
      std: 0.001
    }
    bias_filler {
      type: "constant"
      value: 0
    }
  }
}
layer {
  name: "loss"
  type: "SoftmaxWithLoss"
  bottom: "fc"
  bottom: "label"
  top: "loss"
}
layer {
  name: "acc/top-1"
  type: "Accuracy"
  bottom: "fc"
  bottom: "label"
  top: "acc/top-1"
  include {
    phase: TEST
  }
}
I0705 17:08:35.936844 51717 layer_factory.hpp:76] Creating layer data
I0705 17:08:35.936882 51717 net.cpp:106] Creating Layer data
I0705 17:08:35.936890 51717 net.cpp:411] data -> data
I0705 17:08:35.936918 51717 net.cpp:411] data -> label
I0705 17:08:35.936935 51717 image_data_layer.cpp:36] Opening file ../lists/roi-val-L0.lst
I0705 17:08:35.948298 51717 image_data_layer.cpp:46] Shuffling data
I0705 17:08:35.951244 51717 image_data_layer.cpp:51] A total of 23520 images.
I0705 17:08:35.955341 51717 image_data_layer.cpp:78] output data size: 16,3,224,224
I0705 17:08:35.981994 51717 net.cpp:150] Setting up data
I0705 17:08:35.982054 51717 net.cpp:157] Top shape: 16 3 224 224 (2408448)
I0705 17:08:35.982071 51717 net.cpp:157] Top shape: 16 (16)
I0705 17:08:35.982081 51717 net.cpp:165] Memory required for data: 9633856
I0705 17:08:35.982095 51717 layer_factory.hpp:76] Creating layer label_data_1_split
I0705 17:08:35.982120 51717 net.cpp:106] Creating Layer label_data_1_split
I0705 17:08:35.982130 51717 net.cpp:454] label_data_1_split <- label
I0705 17:08:35.982154 51717 net.cpp:411] label_data_1_split -> label_data_1_split_0
I0705 17:08:35.982169 51717 net.cpp:411] label_data_1_split -> label_data_1_split_1
I0705 17:08:35.982373 51717 net.cpp:150] Setting up label_data_1_split
I0705 17:08:35.982420 51717 net.cpp:157] Top shape: 16 (16)
I0705 17:08:35.982432 51717 net.cpp:157] Top shape: 16 (16)
I0705 17:08:35.982441 51717 net.cpp:165] Memory required for data: 9633984
I0705 17:08:35.982453 51717 layer_factory.hpp:76] Creating layer conv1
I0705 17:08:35.982475 51717 net.cpp:106] Creating Layer conv1
I0705 17:08:35.982486 51717 net.cpp:454] conv1 <- data
I0705 17:08:35.982497 51717 net.cpp:411] conv1 -> conv1
I0705 17:08:35.984081 51717 net.cpp:150] Setting up conv1
I0705 17:08:35.984103 51717 net.cpp:157] Top shape: 16 64 109 109 (12166144)
I0705 17:08:35.984117 51717 net.cpp:165] Memory required for data: 58298560
I0705 17:08:35.984133 51717 layer_factory.hpp:76] Creating layer conv1_bn
I0705 17:08:35.984144 51717 net.cpp:106] Creating Layer conv1_bn
I0705 17:08:35.984153 51717 net.cpp:454] conv1_bn <- conv1
I0705 17:08:35.984163 51717 net.cpp:411] conv1_bn -> conv1_bn
I0705 17:08:35.984453 51717 net.cpp:150] Setting up conv1_bn
I0705 17:08:35.984469 51717 net.cpp:157] Top shape: 16 64 109 109 (12166144)
I0705 17:08:35.984484 51717 net.cpp:165] Memory required for data: 106963136
I0705 17:08:35.984499 51717 layer_factory.hpp:76] Creating layer conv1_relu
I0705 17:08:35.984513 51717 net.cpp:106] Creating Layer conv1_relu
I0705 17:08:35.984521 51717 net.cpp:454] conv1_relu <- conv1_bn
I0705 17:08:35.984530 51717 net.cpp:397] conv1_relu -> conv1_bn (in-place)
I0705 17:08:35.984841 51717 net.cpp:150] Setting up conv1_relu
I0705 17:08:35.984860 51717 net.cpp:157] Top shape: 16 64 109 109 (12166144)
I0705 17:08:35.984869 51717 net.cpp:165] Memory required for data: 155627712
I0705 17:08:35.984876 51717 layer_factory.hpp:76] Creating layer pool1
I0705 17:08:35.984889 51717 net.cpp:106] Creating Layer pool1
I0705 17:08:35.984927 51717 net.cpp:454] pool1 <- conv1_bn
I0705 17:08:35.984938 51717 net.cpp:411] pool1 -> pool1
I0705 17:08:35.985146 51717 net.cpp:150] Setting up pool1
I0705 17:08:35.985163 51717 net.cpp:157] Top shape: 16 64 54 54 (2985984)
I0705 17:08:35.985170 51717 net.cpp:165] Memory required for data: 167571648
I0705 17:08:35.985178 51717 layer_factory.hpp:76] Creating layer pool1_pool1_0_split
I0705 17:08:35.985189 51717 net.cpp:106] Creating Layer pool1_pool1_0_split
I0705 17:08:35.985198 51717 net.cpp:454] pool1_pool1_0_split <- pool1
I0705 17:08:35.985206 51717 net.cpp:411] pool1_pool1_0_split -> pool1_pool1_0_split_0
I0705 17:08:35.985216 51717 net.cpp:411] pool1_pool1_0_split -> pool1_pool1_0_split_1
I0705 17:08:35.985260 51717 net.cpp:150] Setting up pool1_pool1_0_split
I0705 17:08:35.985271 51717 net.cpp:157] Top shape: 16 64 54 54 (2985984)
I0705 17:08:35.985281 51717 net.cpp:157] Top shape: 16 64 54 54 (2985984)
I0705 17:08:35.985288 51717 net.cpp:165] Memory required for data: 191459520
I0705 17:08:35.985296 51717 layer_factory.hpp:76] Creating layer conv1_output
I0705 17:08:35.985311 51717 net.cpp:106] Creating Layer conv1_output
I0705 17:08:35.985319 51717 net.cpp:454] conv1_output <- pool1_pool1_0_split_0
I0705 17:08:35.985329 51717 net.cpp:411] conv1_output -> conv1_output
I0705 17:08:35.986826 51717 cudnn_conv_layer.cpp:194] Reallocating workspace storage: 768
I0705 17:08:35.986871 51717 net.cpp:150] Setting up conv1_output
I0705 17:08:35.986883 51717 net.cpp:157] Top shape: 16 256 54 54 (11943936)
I0705 17:08:35.986891 51717 net.cpp:165] Memory required for data: 239235264
I0705 17:08:35.986901 51717 layer_factory.hpp:76] Creating layer conv2_1_1
I0705 17:08:35.986918 51717 net.cpp:106] Creating Layer conv2_1_1
I0705 17:08:35.986929 51717 net.cpp:454] conv2_1_1 <- pool1_pool1_0_split_1
I0705 17:08:35.986943 51717 net.cpp:411] conv2_1_1 -> conv2_1_1
I0705 17:08:35.989713 51717 net.cpp:150] Setting up conv2_1_1
I0705 17:08:35.989738 51717 net.cpp:157] Top shape: 16 64 54 54 (2985984)
I0705 17:08:35.989748 51717 net.cpp:165] Memory required for data: 251179200
I0705 17:08:35.989761 51717 layer_factory.hpp:76] Creating layer conv2_1_1_bn
I0705 17:08:35.989775 51717 net.cpp:106] Creating Layer conv2_1_1_bn
I0705 17:08:35.989784 51717 net.cpp:454] conv2_1_1_bn <- conv2_1_1
I0705 17:08:35.989796 51717 net.cpp:411] conv2_1_1_bn -> conv2_1_1_bn
I0705 17:08:35.990046 51717 net.cpp:150] Setting up conv2_1_1_bn
I0705 17:08:35.990061 51717 net.cpp:157] Top shape: 16 64 54 54 (2985984)
I0705 17:08:35.990069 51717 net.cpp:165] Memory required for data: 263123136
I0705 17:08:35.990080 51717 layer_factory.hpp:76] Creating layer conv2_1_1_relu
I0705 17:08:35.990092 51717 net.cpp:106] Creating Layer conv2_1_1_relu
I0705 17:08:35.990099 51717 net.cpp:454] conv2_1_1_relu <- conv2_1_1_bn
I0705 17:08:35.990108 51717 net.cpp:397] conv2_1_1_relu -> conv2_1_1_bn (in-place)
I0705 17:08:35.990290 51717 net.cpp:150] Setting up conv2_1_1_relu
I0705 17:08:35.990308 51717 net.cpp:157] Top shape: 16 64 54 54 (2985984)
I0705 17:08:35.990314 51717 net.cpp:165] Memory required for data: 275067072
I0705 17:08:35.990322 51717 layer_factory.hpp:76] Creating layer conv2_1_2
I0705 17:08:35.990337 51717 net.cpp:106] Creating Layer conv2_1_2
I0705 17:08:35.990348 51717 net.cpp:454] conv2_1_2 <- conv2_1_1_bn
I0705 17:08:35.990363 51717 net.cpp:411] conv2_1_2 -> conv2_1_2
I0705 17:08:35.992537 51717 net.cpp:150] Setting up conv2_1_2
I0705 17:08:35.992558 51717 net.cpp:157] Top shape: 16 64 54 54 (2985984)
I0705 17:08:35.992565 51717 net.cpp:165] Memory required for data: 287011008
I0705 17:08:35.992576 51717 layer_factory.hpp:76] Creating layer conv2_1_2_bn
I0705 17:08:35.992593 51717 net.cpp:106] Creating Layer conv2_1_2_bn
I0705 17:08:35.992600 51717 net.cpp:454] conv2_1_2_bn <- conv2_1_2
I0705 17:08:35.992609 51717 net.cpp:411] conv2_1_2_bn -> conv2_1_2_bn
I0705 17:08:35.992849 51717 net.cpp:150] Setting up conv2_1_2_bn
I0705 17:08:35.992863 51717 net.cpp:157] Top shape: 16 64 54 54 (2985984)
I0705 17:08:35.992871 51717 net.cpp:165] Memory required for data: 298954944
I0705 17:08:35.992907 51717 layer_factory.hpp:76] Creating layer conv2_1_2_relu
I0705 17:08:35.992921 51717 net.cpp:106] Creating Layer conv2_1_2_relu
I0705 17:08:35.992929 51717 net.cpp:454] conv2_1_2_relu <- conv2_1_2_bn
I0705 17:08:35.992939 51717 net.cpp:397] conv2_1_2_relu -> conv2_1_2_bn (in-place)
I0705 17:08:35.993382 51717 net.cpp:150] Setting up conv2_1_2_relu
I0705 17:08:35.993407 51717 net.cpp:157] Top shape: 16 64 54 54 (2985984)
I0705 17:08:35.993414 51717 net.cpp:165] Memory required for data: 310898880
I0705 17:08:35.993423 51717 layer_factory.hpp:76] Creating layer conv2_1_3
I0705 17:08:35.993438 51717 net.cpp:106] Creating Layer conv2_1_3
I0705 17:08:35.993448 51717 net.cpp:454] conv2_1_3 <- conv2_1_2_bn
I0705 17:08:35.993460 51717 net.cpp:411] conv2_1_3 -> conv2_1_3
I0705 17:08:35.994856 51717 cudnn_conv_layer.cpp:194] Reallocating workspace storage: 768
I0705 17:08:35.994894 51717 net.cpp:150] Setting up conv2_1_3
I0705 17:08:35.994905 51717 net.cpp:157] Top shape: 16 256 54 54 (11943936)
I0705 17:08:35.994913 51717 net.cpp:165] Memory required for data: 358674624
I0705 17:08:35.994923 51717 layer_factory.hpp:76] Creating layer conv2_1_sum
I0705 17:08:35.994935 51717 net.cpp:106] Creating Layer conv2_1_sum
I0705 17:08:35.994946 51717 net.cpp:454] conv2_1_sum <- conv1_output
I0705 17:08:35.994957 51717 net.cpp:454] conv2_1_sum <- conv2_1_3
I0705 17:08:35.994967 51717 net.cpp:411] conv2_1_sum -> conv2_1_sum
I0705 17:08:35.995004 51717 net.cpp:150] Setting up conv2_1_sum
I0705 17:08:35.995018 51717 net.cpp:157] Top shape: 16 256 54 54 (11943936)
I0705 17:08:35.995025 51717 net.cpp:165] Memory required for data: 406450368
I0705 17:08:35.995033 51717 layer_factory.hpp:76] Creating layer conv2_1_sum_bn
I0705 17:08:35.995048 51717 net.cpp:106] Creating Layer conv2_1_sum_bn
I0705 17:08:35.995056 51717 net.cpp:454] conv2_1_sum_bn <- conv2_1_sum
I0705 17:08:35.995066 51717 net.cpp:411] conv2_1_sum_bn -> conv2_1_sum_bn
I0705 17:08:35.995298 51717 net.cpp:150] Setting up conv2_1_sum_bn
I0705 17:08:35.995312 51717 net.cpp:157] Top shape: 16 256 54 54 (11943936)
I0705 17:08:35.995321 51717 net.cpp:165] Memory required for data: 454226112
I0705 17:08:35.995332 51717 layer_factory.hpp:76] Creating layer conv2_1_sum_relu
I0705 17:08:35.995342 51717 net.cpp:106] Creating Layer conv2_1_sum_relu
I0705 17:08:35.995348 51717 net.cpp:454] conv2_1_sum_relu <- conv2_1_sum_bn
I0705 17:08:35.995357 51717 net.cpp:397] conv2_1_sum_relu -> conv2_1_sum_bn (in-place)
I0705 17:08:35.995688 51717 net.cpp:150] Setting up conv2_1_sum_relu
I0705 17:08:35.995707 51717 net.cpp:157] Top shape: 16 256 54 54 (11943936)
I0705 17:08:35.995715 51717 net.cpp:165] Memory required for data: 502001856
I0705 17:08:35.995723 51717 layer_factory.hpp:76] Creating layer conv2_1_sum_bn_conv2_1_sum_relu_0_split
I0705 17:08:35.995733 51717 net.cpp:106] Creating Layer conv2_1_sum_bn_conv2_1_sum_relu_0_split
I0705 17:08:35.995740 51717 net.cpp:454] conv2_1_sum_bn_conv2_1_sum_relu_0_split <- conv2_1_sum_bn
I0705 17:08:35.995753 51717 net.cpp:411] conv2_1_sum_bn_conv2_1_sum_relu_0_split -> conv2_1_sum_bn_conv2_1_sum_relu_0_split_0
I0705 17:08:35.995764 51717 net.cpp:411] conv2_1_sum_bn_conv2_1_sum_relu_0_split -> conv2_1_sum_bn_conv2_1_sum_relu_0_split_1
I0705 17:08:35.995815 51717 net.cpp:150] Setting up conv2_1_sum_bn_conv2_1_sum_relu_0_split
I0705 17:08:35.995826 51717 net.cpp:157] Top shape: 16 256 54 54 (11943936)
I0705 17:08:35.995834 51717 net.cpp:157] Top shape: 16 256 54 54 (11943936)
I0705 17:08:35.995842 51717 net.cpp:165] Memory required for data: 597553344
I0705 17:08:35.995849 51717 layer_factory.hpp:76] Creating layer conv2_2_1
I0705 17:08:35.995864 51717 net.cpp:106] Creating Layer conv2_2_1
I0705 17:08:35.995872 51717 net.cpp:454] conv2_2_1 <- conv2_1_sum_bn_conv2_1_sum_relu_0_split_0
I0705 17:08:35.995882 51717 net.cpp:411] conv2_2_1 -> conv2_2_1
I0705 17:08:35.997445 51717 cudnn_conv_layer.cpp:194] Reallocating workspace storage: 3072
I0705 17:08:35.997556 51717 net.cpp:150] Setting up conv2_2_1
I0705 17:08:35.997584 51717 net.cpp:157] Top shape: 16 64 54 54 (2985984)
I0705 17:08:35.997592 51717 net.cpp:165] Memory required for data: 609497280
I0705 17:08:35.997602 51717 layer_factory.hpp:76] Creating layer conv2_2_1_bn
I0705 17:08:35.997620 51717 net.cpp:106] Creating Layer conv2_2_1_bn
I0705 17:08:35.997632 51717 net.cpp:454] conv2_2_1_bn <- conv2_2_1
I0705 17:08:35.997642 51717 net.cpp:411] conv2_2_1_bn -> conv2_2_1_bn
I0705 17:08:35.997880 51717 net.cpp:150] Setting up conv2_2_1_bn
I0705 17:08:35.997895 51717 net.cpp:157] Top shape: 16 64 54 54 (2985984)
I0705 17:08:35.997901 51717 net.cpp:165] Memory required for data: 621441216
I0705 17:08:35.997912 51717 layer_factory.hpp:76] Creating layer conv2_2_1_relu
I0705 17:08:35.997927 51717 net.cpp:106] Creating Layer conv2_2_1_relu
I0705 17:08:35.997936 51717 net.cpp:454] conv2_2_1_relu <- conv2_2_1_bn
I0705 17:08:35.997944 51717 net.cpp:397] conv2_2_1_relu -> conv2_2_1_bn (in-place)
I0705 17:08:35.998134 51717 net.cpp:150] Setting up conv2_2_1_relu
I0705 17:08:35.998160 51717 net.cpp:157] Top shape: 16 64 54 54 (2985984)
I0705 17:08:35.998168 51717 net.cpp:165] Memory required for data: 633385152
I0705 17:08:35.998175 51717 layer_factory.hpp:76] Creating layer conv2_2_2
I0705 17:08:35.998189 51717 net.cpp:106] Creating Layer conv2_2_2
I0705 17:08:35.998198 51717 net.cpp:454] conv2_2_2 <- conv2_2_1_bn
I0705 17:08:35.998209 51717 net.cpp:411] conv2_2_2 -> conv2_2_2
I0705 17:08:36.000344 51717 net.cpp:150] Setting up conv2_2_2
I0705 17:08:36.000365 51717 net.cpp:157] Top shape: 16 64 54 54 (2985984)
I0705 17:08:36.000372 51717 net.cpp:165] Memory required for data: 645329088
I0705 17:08:36.000382 51717 layer_factory.hpp:76] Creating layer conv2_2_2_bn
I0705 17:08:36.000398 51717 net.cpp:106] Creating Layer conv2_2_2_bn
I0705 17:08:36.000407 51717 net.cpp:454] conv2_2_2_bn <- conv2_2_2
I0705 17:08:36.000419 51717 net.cpp:411] conv2_2_2_bn -> conv2_2_2_bn
I0705 17:08:36.000659 51717 net.cpp:150] Setting up conv2_2_2_bn
I0705 17:08:36.000674 51717 net.cpp:157] Top shape: 16 64 54 54 (2985984)
I0705 17:08:36.000681 51717 net.cpp:165] Memory required for data: 657273024
I0705 17:08:36.000692 51717 layer_factory.hpp:76] Creating layer conv2_2_2_relu
I0705 17:08:36.000704 51717 net.cpp:106] Creating Layer conv2_2_2_relu
I0705 17:08:36.000710 51717 net.cpp:454] conv2_2_2_relu <- conv2_2_2_bn
I0705 17:08:36.000722 51717 net.cpp:397] conv2_2_2_relu -> conv2_2_2_bn (in-place)
I0705 17:08:36.001049 51717 net.cpp:150] Setting up conv2_2_2_relu
I0705 17:08:36.001067 51717 net.cpp:157] Top shape: 16 64 54 54 (2985984)
I0705 17:08:36.001075 51717 net.cpp:165] Memory required for data: 669216960
I0705 17:08:36.001083 51717 layer_factory.hpp:76] Creating layer conv2_2_3
I0705 17:08:36.001097 51717 net.cpp:106] Creating Layer conv2_2_3
I0705 17:08:36.001106 51717 net.cpp:454] conv2_2_3 <- conv2_2_2_bn
I0705 17:08:36.001116 51717 net.cpp:411] conv2_2_3 -> conv2_2_3
I0705 17:08:36.002512 51717 cudnn_conv_layer.cpp:194] Reallocating workspace storage: 768
I0705 17:08:36.002548 51717 net.cpp:150] Setting up conv2_2_3
I0705 17:08:36.002559 51717 net.cpp:157] Top shape: 16 256 54 54 (11943936)
I0705 17:08:36.002570 51717 net.cpp:165] Memory required for data: 716992704
I0705 17:08:36.002585 51717 layer_factory.hpp:76] Creating layer conv2_2_sum
I0705 17:08:36.002599 51717 net.cpp:106] Creating Layer conv2_2_sum
I0705 17:08:36.002606 51717 net.cpp:454] conv2_2_sum <- conv2_1_sum_bn_conv2_1_sum_relu_0_split_1
I0705 17:08:36.002615 51717 net.cpp:454] conv2_2_sum <- conv2_2_3
I0705 17:08:36.002625 51717 net.cpp:411] conv2_2_sum -> conv2_2_sum
I0705 17:08:36.002665 51717 net.cpp:150] Setting up conv2_2_sum
I0705 17:08:36.002677 51717 net.cpp:157] Top shape: 16 256 54 54 (11943936)
I0705 17:08:36.002686 51717 net.cpp:165] Memory required for data: 764768448
I0705 17:08:36.002693 51717 layer_factory.hpp:76] Creating layer conv2_2_sum_bn
I0705 17:08:36.002709 51717 net.cpp:106] Creating Layer conv2_2_sum_bn
I0705 17:08:36.002720 51717 net.cpp:454] conv2_2_sum_bn <- conv2_2_sum
I0705 17:08:36.002743 51717 net.cpp:411] conv2_2_sum_bn -> conv2_2_sum_bn
I0705 17:08:36.002988 51717 net.cpp:150] Setting up conv2_2_sum_bn
I0705 17:08:36.003002 51717 net.cpp:157] Top shape: 16 256 54 54 (11943936)
I0705 17:08:36.003010 51717 net.cpp:165] Memory required for data: 812544192
I0705 17:08:36.003021 51717 layer_factory.hpp:76] Creating layer conv2_2_sum_relu
I0705 17:08:36.003031 51717 net.cpp:106] Creating Layer conv2_2_sum_relu
I0705 17:08:36.003038 51717 net.cpp:454] conv2_2_sum_relu <- conv2_2_sum_bn
I0705 17:08:36.003046 51717 net.cpp:397] conv2_2_sum_relu -> conv2_2_sum_bn (in-place)
I0705 17:08:36.003367 51717 net.cpp:150] Setting up conv2_2_sum_relu
I0705 17:08:36.003386 51717 net.cpp:157] Top shape: 16 256 54 54 (11943936)
I0705 17:08:36.003394 51717 net.cpp:165] Memory required for data: 860319936
I0705 17:08:36.003402 51717 layer_factory.hpp:76] Creating layer conv2_2_sum_bn_conv2_2_sum_relu_0_split
I0705 17:08:36.003413 51717 net.cpp:106] Creating Layer conv2_2_sum_bn_conv2_2_sum_relu_0_split
I0705 17:08:36.003422 51717 net.cpp:454] conv2_2_sum_bn_conv2_2_sum_relu_0_split <- conv2_2_sum_bn
I0705 17:08:36.003432 51717 net.cpp:411] conv2_2_sum_bn_conv2_2_sum_relu_0_split -> conv2_2_sum_bn_conv2_2_sum_relu_0_split_0
I0705 17:08:36.003443 51717 net.cpp:411] conv2_2_sum_bn_conv2_2_sum_relu_0_split -> conv2_2_sum_bn_conv2_2_sum_relu_0_split_1
I0705 17:08:36.003497 51717 net.cpp:150] Setting up conv2_2_sum_bn_conv2_2_sum_relu_0_split
I0705 17:08:36.003511 51717 net.cpp:157] Top shape: 16 256 54 54 (11943936)
I0705 17:08:36.003520 51717 net.cpp:157] Top shape: 16 256 54 54 (11943936)
I0705 17:08:36.003526 51717 net.cpp:165] Memory required for data: 955871424
I0705 17:08:36.003533 51717 layer_factory.hpp:76] Creating layer conv2_output
I0705 17:08:36.003547 51717 net.cpp:106] Creating Layer conv2_output
I0705 17:08:36.003558 51717 net.cpp:454] conv2_output <- conv2_2_sum_bn_conv2_2_sum_relu_0_split_0
I0705 17:08:36.003569 51717 net.cpp:411] conv2_output -> conv2_output
I0705 17:08:36.009084 51717 cudnn_conv_layer.cpp:194] Reallocating workspace storage: 3072
I0705 17:08:36.009117 51717 net.cpp:150] Setting up conv2_output
I0705 17:08:36.009130 51717 net.cpp:157] Top shape: 16 512 27 27 (5971968)
I0705 17:08:36.009137 51717 net.cpp:165] Memory required for data: 979759296
I0705 17:08:36.009148 51717 layer_factory.hpp:76] Creating layer conv3_1_1
I0705 17:08:36.009165 51717 net.cpp:106] Creating Layer conv3_1_1
I0705 17:08:36.009174 51717 net.cpp:454] conv3_1_1 <- conv2_2_sum_bn_conv2_2_sum_relu_0_split_1
I0705 17:08:36.009186 51717 net.cpp:411] conv3_1_1 -> conv3_1_1
I0705 17:08:36.011232 51717 cudnn_conv_layer.cpp:194] Reallocating workspace storage: 3072
I0705 17:08:36.011265 51717 net.cpp:150] Setting up conv3_1_1
I0705 17:08:36.011277 51717 net.cpp:157] Top shape: 16 128 27 27 (1492992)
I0705 17:08:36.011287 51717 net.cpp:165] Memory required for data: 985731264
I0705 17:08:36.011297 51717 layer_factory.hpp:76] Creating layer conv3_1_1_bn
I0705 17:08:36.011312 51717 net.cpp:106] Creating Layer conv3_1_1_bn
I0705 17:08:36.011319 51717 net.cpp:454] conv3_1_1_bn <- conv3_1_1
I0705 17:08:36.011332 51717 net.cpp:411] conv3_1_1_bn -> conv3_1_1_bn
I0705 17:08:36.011567 51717 net.cpp:150] Setting up conv3_1_1_bn
I0705 17:08:36.011581 51717 net.cpp:157] Top shape: 16 128 27 27 (1492992)
I0705 17:08:36.011589 51717 net.cpp:165] Memory required for data: 991703232
I0705 17:08:36.011600 51717 layer_factory.hpp:76] Creating layer conv3_1_1_relu
I0705 17:08:36.011610 51717 net.cpp:106] Creating Layer conv3_1_1_relu
I0705 17:08:36.011620 51717 net.cpp:454] conv3_1_1_relu <- conv3_1_1_bn
I0705 17:08:36.011629 51717 net.cpp:397] conv3_1_1_relu -> conv3_1_1_bn (in-place)
I0705 17:08:36.011806 51717 net.cpp:150] Setting up conv3_1_1_relu
I0705 17:08:36.011821 51717 net.cpp:157] Top shape: 16 128 27 27 (1492992)
I0705 17:08:36.011829 51717 net.cpp:165] Memory required for data: 997675200
I0705 17:08:36.011837 51717 layer_factory.hpp:76] Creating layer conv3_1_2
I0705 17:08:36.011860 51717 net.cpp:106] Creating Layer conv3_1_2
I0705 17:08:36.011880 51717 net.cpp:454] conv3_1_2 <- conv3_1_1_bn
I0705 17:08:36.011893 51717 net.cpp:411] conv3_1_2 -> conv3_1_2
I0705 17:08:36.018008 51717 cudnn_conv_layer.cpp:194] Reallocating workspace storage: 13824
I0705 17:08:36.018046 51717 net.cpp:150] Setting up conv3_1_2
I0705 17:08:36.018060 51717 net.cpp:157] Top shape: 16 128 27 27 (1492992)
I0705 17:08:36.018069 51717 net.cpp:165] Memory required for data: 1003647168
I0705 17:08:36.018079 51717 layer_factory.hpp:76] Creating layer conv3_1_2_bn
I0705 17:08:36.018092 51717 net.cpp:106] Creating Layer conv3_1_2_bn
I0705 17:08:36.018100 51717 net.cpp:454] conv3_1_2_bn <- conv3_1_2
I0705 17:08:36.018110 51717 net.cpp:411] conv3_1_2_bn -> conv3_1_2_bn
I0705 17:08:36.018352 51717 net.cpp:150] Setting up conv3_1_2_bn
I0705 17:08:36.018367 51717 net.cpp:157] Top shape: 16 128 27 27 (1492992)
I0705 17:08:36.018373 51717 net.cpp:165] Memory required for data: 1009619136
I0705 17:08:36.018384 51717 layer_factory.hpp:76] Creating layer conv3_1_2_relu
I0705 17:08:36.018394 51717 net.cpp:106] Creating Layer conv3_1_2_relu
I0705 17:08:36.018402 51717 net.cpp:454] conv3_1_2_relu <- conv3_1_2_bn
I0705 17:08:36.018410 51717 net.cpp:397] conv3_1_2_relu -> conv3_1_2_bn (in-place)
I0705 17:08:36.018601 51717 net.cpp:150] Setting up conv3_1_2_relu
I0705 17:08:36.018618 51717 net.cpp:157] Top shape: 16 128 27 27 (1492992)
I0705 17:08:36.018625 51717 net.cpp:165] Memory required for data: 1015591104
I0705 17:08:36.018633 51717 layer_factory.hpp:76] Creating layer conv3_1_3
I0705 17:08:36.018653 51717 net.cpp:106] Creating Layer conv3_1_3
I0705 17:08:36.018663 51717 net.cpp:454] conv3_1_3 <- conv3_1_2_bn
I0705 17:08:36.018673 51717 net.cpp:411] conv3_1_3 -> conv3_1_3
I0705 17:08:36.021679 51717 cudnn_conv_layer.cpp:194] Reallocating workspace storage: 1536
I0705 17:08:36.021714 51717 net.cpp:150] Setting up conv3_1_3
I0705 17:08:36.021726 51717 net.cpp:157] Top shape: 16 512 27 27 (5971968)
I0705 17:08:36.021734 51717 net.cpp:165] Memory required for data: 1039478976
I0705 17:08:36.021744 51717 layer_factory.hpp:76] Creating layer conv3_1_sum
I0705 17:08:36.021755 51717 net.cpp:106] Creating Layer conv3_1_sum
I0705 17:08:36.021764 51717 net.cpp:454] conv3_1_sum <- conv2_output
I0705 17:08:36.021772 51717 net.cpp:454] conv3_1_sum <- conv3_1_3
I0705 17:08:36.021790 51717 net.cpp:411] conv3_1_sum -> conv3_1_sum
I0705 17:08:36.021823 51717 net.cpp:150] Setting up conv3_1_sum
I0705 17:08:36.021841 51717 net.cpp:157] Top shape: 16 512 27 27 (5971968)
I0705 17:08:36.021849 51717 net.cpp:165] Memory required for data: 1063366848
I0705 17:08:36.021857 51717 layer_factory.hpp:76] Creating layer conv3_1_sum_bn
I0705 17:08:36.021872 51717 net.cpp:106] Creating Layer conv3_1_sum_bn
I0705 17:08:36.021883 51717 net.cpp:454] conv3_1_sum_bn <- conv3_1_sum
I0705 17:08:36.021896 51717 net.cpp:411] conv3_1_sum_bn -> conv3_1_sum_bn
I0705 17:08:36.022121 51717 net.cpp:150] Setting up conv3_1_sum_bn
I0705 17:08:36.022135 51717 net.cpp:157] Top shape: 16 512 27 27 (5971968)
I0705 17:08:36.022143 51717 net.cpp:165] Memory required for data: 1087254720
I0705 17:08:36.022155 51717 layer_factory.hpp:76] Creating layer conv3_1_sum_relu
I0705 17:08:36.022163 51717 net.cpp:106] Creating Layer conv3_1_sum_relu
I0705 17:08:36.022172 51717 net.cpp:454] conv3_1_sum_relu <- conv3_1_sum_bn
I0705 17:08:36.022181 51717 net.cpp:397] conv3_1_sum_relu -> conv3_1_sum_bn (in-place)
I0705 17:08:36.022508 51717 net.cpp:150] Setting up conv3_1_sum_relu
I0705 17:08:36.022527 51717 net.cpp:157] Top shape: 16 512 27 27 (5971968)
I0705 17:08:36.022537 51717 net.cpp:165] Memory required for data: 1111142592
I0705 17:08:36.022545 51717 layer_factory.hpp:76] Creating layer conv3_1_sum_bn_conv3_1_sum_relu_0_split
I0705 17:08:36.022557 51717 net.cpp:106] Creating Layer conv3_1_sum_bn_conv3_1_sum_relu_0_split
I0705 17:08:36.022565 51717 net.cpp:454] conv3_1_sum_bn_conv3_1_sum_relu_0_split <- conv3_1_sum_bn
I0705 17:08:36.022574 51717 net.cpp:411] conv3_1_sum_bn_conv3_1_sum_relu_0_split -> conv3_1_sum_bn_conv3_1_sum_relu_0_split_0
I0705 17:08:36.022598 51717 net.cpp:411] conv3_1_sum_bn_conv3_1_sum_relu_0_split -> conv3_1_sum_bn_conv3_1_sum_relu_0_split_1
I0705 17:08:36.022655 51717 net.cpp:150] Setting up conv3_1_sum_bn_conv3_1_sum_relu_0_split
I0705 17:08:36.022667 51717 net.cpp:157] Top shape: 16 512 27 27 (5971968)
I0705 17:08:36.022676 51717 net.cpp:157] Top shape: 16 512 27 27 (5971968)
I0705 17:08:36.022686 51717 net.cpp:165] Memory required for data: 1158918336
I0705 17:08:36.022693 51717 layer_factory.hpp:76] Creating layer conv3_2_1
I0705 17:08:36.022707 51717 net.cpp:106] Creating Layer conv3_2_1
I0705 17:08:36.022718 51717 net.cpp:454] conv3_2_1 <- conv3_1_sum_bn_conv3_1_sum_relu_0_split_0
I0705 17:08:36.022730 51717 net.cpp:411] conv3_2_1 -> conv3_2_1
I0705 17:08:36.026284 51717 cudnn_conv_layer.cpp:194] Reallocating workspace storage: 6144
I0705 17:08:36.026316 51717 net.cpp:150] Setting up conv3_2_1
I0705 17:08:36.026330 51717 net.cpp:157] Top shape: 16 128 27 27 (1492992)
I0705 17:08:36.026338 51717 net.cpp:165] Memory required for data: 1164890304
I0705 17:08:36.026350 51717 layer_factory.hpp:76] Creating layer conv3_2_1_bn
I0705 17:08:36.026360 51717 net.cpp:106] Creating Layer conv3_2_1_bn
I0705 17:08:36.026370 51717 net.cpp:454] conv3_2_1_bn <- conv3_2_1
I0705 17:08:36.026387 51717 net.cpp:411] conv3_2_1_bn -> conv3_2_1_bn
I0705 17:08:36.026623 51717 net.cpp:150] Setting up conv3_2_1_bn
I0705 17:08:36.026635 51717 net.cpp:157] Top shape: 16 128 27 27 (1492992)
I0705 17:08:36.026643 51717 net.cpp:165] Memory required for data: 1170862272
I0705 17:08:36.026654 51717 layer_factory.hpp:76] Creating layer conv3_2_1_relu
I0705 17:08:36.026664 51717 net.cpp:106] Creating Layer conv3_2_1_relu
I0705 17:08:36.026672 51717 net.cpp:454] conv3_2_1_relu <- conv3_2_1_bn
I0705 17:08:36.026684 51717 net.cpp:397] conv3_2_1_relu -> conv3_2_1_bn (in-place)
I0705 17:08:36.026870 51717 net.cpp:150] Setting up conv3_2_1_relu
I0705 17:08:36.026887 51717 net.cpp:157] Top shape: 16 128 27 27 (1492992)
I0705 17:08:36.026895 51717 net.cpp:165] Memory required for data: 1176834240
I0705 17:08:36.026903 51717 layer_factory.hpp:76] Creating layer conv3_2_2
I0705 17:08:36.026914 51717 net.cpp:106] Creating Layer conv3_2_2
I0705 17:08:36.026922 51717 net.cpp:454] conv3_2_2 <- conv3_2_1_bn
I0705 17:08:36.026934 51717 net.cpp:411] conv3_2_2 -> conv3_2_2
I0705 17:08:36.032877 51717 cudnn_conv_layer.cpp:194] Reallocating workspace storage: 13824
I0705 17:08:36.032912 51717 net.cpp:150] Setting up conv3_2_2
I0705 17:08:36.032925 51717 net.cpp:157] Top shape: 16 128 27 27 (1492992)
I0705 17:08:36.032933 51717 net.cpp:165] Memory required for data: 1182806208
I0705 17:08:36.032943 51717 layer_factory.hpp:76] Creating layer conv3_2_2_bn
I0705 17:08:36.032963 51717 net.cpp:106] Creating Layer conv3_2_2_bn
I0705 17:08:36.032975 51717 net.cpp:454] conv3_2_2_bn <- conv3_2_2
I0705 17:08:36.032984 51717 net.cpp:411] conv3_2_2_bn -> conv3_2_2_bn
I0705 17:08:36.033223 51717 net.cpp:150] Setting up conv3_2_2_bn
I0705 17:08:36.033237 51717 net.cpp:157] Top shape: 16 128 27 27 (1492992)
I0705 17:08:36.033244 51717 net.cpp:165] Memory required for data: 1188778176
I0705 17:08:36.033255 51717 layer_factory.hpp:76] Creating layer conv3_2_2_relu
I0705 17:08:36.033267 51717 net.cpp:106] Creating Layer conv3_2_2_relu
I0705 17:08:36.033274 51717 net.cpp:454] conv3_2_2_relu <- conv3_2_2_bn
I0705 17:08:36.033283 51717 net.cpp:397] conv3_2_2_relu -> conv3_2_2_bn (in-place)
I0705 17:08:36.033473 51717 net.cpp:150] Setting up conv3_2_2_relu
I0705 17:08:36.033489 51717 net.cpp:157] Top shape: 16 128 27 27 (1492992)
I0705 17:08:36.033496 51717 net.cpp:165] Memory required for data: 1194750144
I0705 17:08:36.033504 51717 layer_factory.hpp:76] Creating layer conv3_2_3
I0705 17:08:36.033519 51717 net.cpp:106] Creating Layer conv3_2_3
I0705 17:08:36.033532 51717 net.cpp:454] conv3_2_3 <- conv3_2_2_bn
I0705 17:08:36.033541 51717 net.cpp:411] conv3_2_3 -> conv3_2_3
I0705 17:08:36.036535 51717 cudnn_conv_layer.cpp:194] Reallocating workspace storage: 1536
I0705 17:08:36.036567 51717 net.cpp:150] Setting up conv3_2_3
I0705 17:08:36.036593 51717 net.cpp:157] Top shape: 16 512 27 27 (5971968)
I0705 17:08:36.036602 51717 net.cpp:165] Memory required for data: 1218638016
I0705 17:08:36.036628 51717 layer_factory.hpp:76] Creating layer conv3_2_sum
I0705 17:08:36.036639 51717 net.cpp:106] Creating Layer conv3_2_sum
I0705 17:08:36.036648 51717 net.cpp:454] conv3_2_sum <- conv3_1_sum_bn_conv3_1_sum_relu_0_split_1
I0705 17:08:36.036658 51717 net.cpp:454] conv3_2_sum <- conv3_2_3
I0705 17:08:36.036667 51717 net.cpp:411] conv3_2_sum -> conv3_2_sum
I0705 17:08:36.036705 51717 net.cpp:150] Setting up conv3_2_sum
I0705 17:08:36.036718 51717 net.cpp:157] Top shape: 16 512 27 27 (5971968)
I0705 17:08:36.036726 51717 net.cpp:165] Memory required for data: 1242525888
I0705 17:08:36.036734 51717 layer_factory.hpp:76] Creating layer conv3_2_sum_bn
I0705 17:08:36.036746 51717 net.cpp:106] Creating Layer conv3_2_sum_bn
I0705 17:08:36.036753 51717 net.cpp:454] conv3_2_sum_bn <- conv3_2_sum
I0705 17:08:36.036767 51717 net.cpp:411] conv3_2_sum_bn -> conv3_2_sum_bn
I0705 17:08:36.036999 51717 net.cpp:150] Setting up conv3_2_sum_bn
I0705 17:08:36.037012 51717 net.cpp:157] Top shape: 16 512 27 27 (5971968)
I0705 17:08:36.037019 51717 net.cpp:165] Memory required for data: 1266413760
I0705 17:08:36.037030 51717 layer_factory.hpp:76] Creating layer conv3_2_sum_relu
I0705 17:08:36.037040 51717 net.cpp:106] Creating Layer conv3_2_sum_relu
I0705 17:08:36.037048 51717 net.cpp:454] conv3_2_sum_relu <- conv3_2_sum_bn
I0705 17:08:36.037057 51717 net.cpp:397] conv3_2_sum_relu -> conv3_2_sum_bn (in-place)
I0705 17:08:36.037390 51717 net.cpp:150] Setting up conv3_2_sum_relu
I0705 17:08:36.037413 51717 net.cpp:157] Top shape: 16 512 27 27 (5971968)
I0705 17:08:36.037421 51717 net.cpp:165] Memory required for data: 1290301632
I0705 17:08:36.037430 51717 layer_factory.hpp:76] Creating layer conv3_2_sum_bn_conv3_2_sum_relu_0_split
I0705 17:08:36.037442 51717 net.cpp:106] Creating Layer conv3_2_sum_bn_conv3_2_sum_relu_0_split
I0705 17:08:36.037451 51717 net.cpp:454] conv3_2_sum_bn_conv3_2_sum_relu_0_split <- conv3_2_sum_bn
I0705 17:08:36.037459 51717 net.cpp:411] conv3_2_sum_bn_conv3_2_sum_relu_0_split -> conv3_2_sum_bn_conv3_2_sum_relu_0_split_0
I0705 17:08:36.037472 51717 net.cpp:411] conv3_2_sum_bn_conv3_2_sum_relu_0_split -> conv3_2_sum_bn_conv3_2_sum_relu_0_split_1
I0705 17:08:36.037528 51717 net.cpp:150] Setting up conv3_2_sum_bn_conv3_2_sum_relu_0_split
I0705 17:08:36.037546 51717 net.cpp:157] Top shape: 16 512 27 27 (5971968)
I0705 17:08:36.037555 51717 net.cpp:157] Top shape: 16 512 27 27 (5971968)
I0705 17:08:36.037562 51717 net.cpp:165] Memory required for data: 1338077376
I0705 17:08:36.037569 51717 layer_factory.hpp:76] Creating layer conv3_output
I0705 17:08:36.037583 51717 net.cpp:106] Creating Layer conv3_output
I0705 17:08:36.037591 51717 net.cpp:454] conv3_output <- conv3_2_sum_bn_conv3_2_sum_relu_0_split_0
I0705 17:08:36.037602 51717 net.cpp:411] conv3_output -> conv3_output
I0705 17:08:36.055065 51717 cudnn_conv_layer.cpp:194] Reallocating workspace storage: 6144
I0705 17:08:36.055101 51717 net.cpp:150] Setting up conv3_output
I0705 17:08:36.055114 51717 net.cpp:157] Top shape: 16 1024 14 14 (3211264)
I0705 17:08:36.055122 51717 net.cpp:165] Memory required for data: 1350922432
I0705 17:08:36.055133 51717 layer_factory.hpp:76] Creating layer conv4_1_1
I0705 17:08:36.055155 51717 net.cpp:106] Creating Layer conv4_1_1
I0705 17:08:36.055166 51717 net.cpp:454] conv4_1_1 <- conv3_2_sum_bn_conv3_2_sum_relu_0_split_1
I0705 17:08:36.055179 51717 net.cpp:411] conv4_1_1 -> conv4_1_1
I0705 17:08:36.059988 51717 cudnn_conv_layer.cpp:194] Reallocating workspace storage: 6144
I0705 17:08:36.060020 51717 net.cpp:150] Setting up conv4_1_1
I0705 17:08:36.060037 51717 net.cpp:157] Top shape: 16 256 14 14 (802816)
I0705 17:08:36.060045 51717 net.cpp:165] Memory required for data: 1354133696
I0705 17:08:36.060056 51717 layer_factory.hpp:76] Creating layer conv4_1_1_bn
I0705 17:08:36.060067 51717 net.cpp:106] Creating Layer conv4_1_1_bn
I0705 17:08:36.060080 51717 net.cpp:454] conv4_1_1_bn <- conv4_1_1
I0705 17:08:36.060106 51717 net.cpp:411] conv4_1_1_bn -> conv4_1_1_bn
I0705 17:08:36.060343 51717 net.cpp:150] Setting up conv4_1_1_bn
I0705 17:08:36.060358 51717 net.cpp:157] Top shape: 16 256 14 14 (802816)
I0705 17:08:36.060364 51717 net.cpp:165] Memory required for data: 1357344960
I0705 17:08:36.060376 51717 layer_factory.hpp:76] Creating layer conv4_1_1_relu
I0705 17:08:36.060386 51717 net.cpp:106] Creating Layer conv4_1_1_relu
I0705 17:08:36.060395 51717 net.cpp:454] conv4_1_1_relu <- conv4_1_1_bn
I0705 17:08:36.060405 51717 net.cpp:397] conv4_1_1_relu -> conv4_1_1_bn (in-place)
I0705 17:08:36.060739 51717 net.cpp:150] Setting up conv4_1_1_relu
I0705 17:08:36.060757 51717 net.cpp:157] Top shape: 16 256 14 14 (802816)
I0705 17:08:36.060765 51717 net.cpp:165] Memory required for data: 1360556224
I0705 17:08:36.060773 51717 layer_factory.hpp:76] Creating layer conv4_1_2
I0705 17:08:36.060787 51717 net.cpp:106] Creating Layer conv4_1_2
I0705 17:08:36.060796 51717 net.cpp:454] conv4_1_2 <- conv4_1_1_bn
I0705 17:08:36.060807 51717 net.cpp:411] conv4_1_2 -> conv4_1_2
I0705 17:08:36.078562 51717 cudnn_conv_layer.cpp:194] Reallocating workspace storage: 27648
I0705 17:08:36.078590 51717 net.cpp:150] Setting up conv4_1_2
I0705 17:08:36.078603 51717 net.cpp:157] Top shape: 16 256 14 14 (802816)
I0705 17:08:36.078611 51717 net.cpp:165] Memory required for data: 1363767488
I0705 17:08:36.078620 51717 layer_factory.hpp:76] Creating layer conv4_1_2_bn
I0705 17:08:36.078630 51717 net.cpp:106] Creating Layer conv4_1_2_bn
I0705 17:08:36.078637 51717 net.cpp:454] conv4_1_2_bn <- conv4_1_2
I0705 17:08:36.078662 51717 net.cpp:411] conv4_1_2_bn -> conv4_1_2_bn
I0705 17:08:36.078879 51717 net.cpp:150] Setting up conv4_1_2_bn
I0705 17:08:36.078892 51717 net.cpp:157] Top shape: 16 256 14 14 (802816)
I0705 17:08:36.078899 51717 net.cpp:165] Memory required for data: 1366978752
I0705 17:08:36.078909 51717 layer_factory.hpp:76] Creating layer conv4_1_2_relu
I0705 17:08:36.078919 51717 net.cpp:106] Creating Layer conv4_1_2_relu
I0705 17:08:36.078927 51717 net.cpp:454] conv4_1_2_relu <- conv4_1_2_bn
I0705 17:08:36.078935 51717 net.cpp:397] conv4_1_2_relu -> conv4_1_2_bn (in-place)
I0705 17:08:36.079109 51717 net.cpp:150] Setting up conv4_1_2_relu
I0705 17:08:36.079134 51717 net.cpp:157] Top shape: 16 256 14 14 (802816)
I0705 17:08:36.079141 51717 net.cpp:165] Memory required for data: 1370190016
I0705 17:08:36.079149 51717 layer_factory.hpp:76] Creating layer conv4_1_3
I0705 17:08:36.079165 51717 net.cpp:106] Creating Layer conv4_1_3
I0705 17:08:36.079172 51717 net.cpp:454] conv4_1_3 <- conv4_1_2_bn
I0705 17:08:36.079185 51717 net.cpp:411] conv4_1_3 -> conv4_1_3
I0705 17:08:36.087818 51717 cudnn_conv_layer.cpp:194] Reallocating workspace storage: 3072
I0705 17:08:36.087852 51717 net.cpp:150] Setting up conv4_1_3
I0705 17:08:36.087864 51717 net.cpp:157] Top shape: 16 1024 14 14 (3211264)
I0705 17:08:36.087872 51717 net.cpp:165] Memory required for data: 1383035072
I0705 17:08:36.087882 51717 layer_factory.hpp:76] Creating layer conv4_1_sum
I0705 17:08:36.087891 51717 net.cpp:106] Creating Layer conv4_1_sum
I0705 17:08:36.087908 51717 net.cpp:454] conv4_1_sum <- conv3_output
I0705 17:08:36.087915 51717 net.cpp:454] conv4_1_sum <- conv4_1_3
I0705 17:08:36.087926 51717 net.cpp:411] conv4_1_sum -> conv4_1_sum
I0705 17:08:36.087961 51717 net.cpp:150] Setting up conv4_1_sum
I0705 17:08:36.087975 51717 net.cpp:157] Top shape: 16 1024 14 14 (3211264)
I0705 17:08:36.087981 51717 net.cpp:165] Memory required for data: 1395880128
I0705 17:08:36.087988 51717 layer_factory.hpp:76] Creating layer conv4_1_sum_bn
I0705 17:08:36.087999 51717 net.cpp:106] Creating Layer conv4_1_sum_bn
I0705 17:08:36.088007 51717 net.cpp:454] conv4_1_sum_bn <- conv4_1_sum
I0705 17:08:36.088016 51717 net.cpp:411] conv4_1_sum_bn -> conv4_1_sum_bn
I0705 17:08:36.088234 51717 net.cpp:150] Setting up conv4_1_sum_bn
I0705 17:08:36.088248 51717 net.cpp:157] Top shape: 16 1024 14 14 (3211264)
I0705 17:08:36.088254 51717 net.cpp:165] Memory required for data: 1408725184
I0705 17:08:36.088279 51717 layer_factory.hpp:76] Creating layer conv4_1_sum_relu
I0705 17:08:36.088289 51717 net.cpp:106] Creating Layer conv4_1_sum_relu
I0705 17:08:36.088297 51717 net.cpp:454] conv4_1_sum_relu <- conv4_1_sum_bn
I0705 17:08:36.088307 51717 net.cpp:397] conv4_1_sum_relu -> conv4_1_sum_bn (in-place)
I0705 17:08:36.088627 51717 net.cpp:150] Setting up conv4_1_sum_relu
I0705 17:08:36.088645 51717 net.cpp:157] Top shape: 16 1024 14 14 (3211264)
I0705 17:08:36.088652 51717 net.cpp:165] Memory required for data: 1421570240
I0705 17:08:36.088660 51717 layer_factory.hpp:76] Creating layer conv4_1_sum_bn_conv4_1_sum_relu_0_split
I0705 17:08:36.088680 51717 net.cpp:106] Creating Layer conv4_1_sum_bn_conv4_1_sum_relu_0_split
I0705 17:08:36.088686 51717 net.cpp:454] conv4_1_sum_bn_conv4_1_sum_relu_0_split <- conv4_1_sum_bn
I0705 17:08:36.088697 51717 net.cpp:411] conv4_1_sum_bn_conv4_1_sum_relu_0_split -> conv4_1_sum_bn_conv4_1_sum_relu_0_split_0
I0705 17:08:36.088707 51717 net.cpp:411] conv4_1_sum_bn_conv4_1_sum_relu_0_split -> conv4_1_sum_bn_conv4_1_sum_relu_0_split_1
I0705 17:08:36.088760 51717 net.cpp:150] Setting up conv4_1_sum_bn_conv4_1_sum_relu_0_split
I0705 17:08:36.088774 51717 net.cpp:157] Top shape: 16 1024 14 14 (3211264)
I0705 17:08:36.088785 51717 net.cpp:157] Top shape: 16 1024 14 14 (3211264)
I0705 17:08:36.088791 51717 net.cpp:165] Memory required for data: 1447260352
I0705 17:08:36.088798 51717 layer_factory.hpp:76] Creating layer conv4_2_1
I0705 17:08:36.088809 51717 net.cpp:106] Creating Layer conv4_2_1
I0705 17:08:36.088816 51717 net.cpp:454] conv4_2_1 <- conv4_1_sum_bn_conv4_1_sum_relu_0_split_0
I0705 17:08:36.088827 51717 net.cpp:411] conv4_2_1 -> conv4_2_1
I0705 17:08:36.097182 51717 cudnn_conv_layer.cpp:194] Reallocating workspace storage: 12288
I0705 17:08:36.097216 51717 net.cpp:150] Setting up conv4_2_1
I0705 17:08:36.097228 51717 net.cpp:157] Top shape: 16 256 14 14 (802816)
I0705 17:08:36.097234 51717 net.cpp:165] Memory required for data: 1450471616
I0705 17:08:36.097244 51717 layer_factory.hpp:76] Creating layer conv4_2_1_bn
I0705 17:08:36.097257 51717 net.cpp:106] Creating Layer conv4_2_1_bn
I0705 17:08:36.097265 51717 net.cpp:454] conv4_2_1_bn <- conv4_2_1
I0705 17:08:36.097275 51717 net.cpp:411] conv4_2_1_bn -> conv4_2_1_bn
I0705 17:08:36.097496 51717 net.cpp:150] Setting up conv4_2_1_bn
I0705 17:08:36.097509 51717 net.cpp:157] Top shape: 16 256 14 14 (802816)
I0705 17:08:36.097517 51717 net.cpp:165] Memory required for data: 1453682880
I0705 17:08:36.097525 51717 layer_factory.hpp:76] Creating layer conv4_2_1_relu
I0705 17:08:36.097542 51717 net.cpp:106] Creating Layer conv4_2_1_relu
I0705 17:08:36.097548 51717 net.cpp:454] conv4_2_1_relu <- conv4_2_1_bn
I0705 17:08:36.097556 51717 net.cpp:397] conv4_2_1_relu -> conv4_2_1_bn (in-place)
I0705 17:08:36.097859 51717 net.cpp:150] Setting up conv4_2_1_relu
I0705 17:08:36.097877 51717 net.cpp:157] Top shape: 16 256 14 14 (802816)
I0705 17:08:36.097883 51717 net.cpp:165] Memory required for data: 1456894144
I0705 17:08:36.097890 51717 layer_factory.hpp:76] Creating layer conv4_2_2
I0705 17:08:36.097903 51717 net.cpp:106] Creating Layer conv4_2_2
I0705 17:08:36.097915 51717 net.cpp:454] conv4_2_2 <- conv4_2_1_bn
I0705 17:08:36.097925 51717 net.cpp:411] conv4_2_2 -> conv4_2_2
I0705 17:08:36.115492 51717 cudnn_conv_layer.cpp:194] Reallocating workspace storage: 27648
I0705 17:08:36.115521 51717 net.cpp:150] Setting up conv4_2_2
I0705 17:08:36.115532 51717 net.cpp:157] Top shape: 16 256 14 14 (802816)
I0705 17:08:36.115540 51717 net.cpp:165] Memory required for data: 1460105408
I0705 17:08:36.115550 51717 layer_factory.hpp:76] Creating layer conv4_2_2_bn
I0705 17:08:36.115559 51717 net.cpp:106] Creating Layer conv4_2_2_bn
I0705 17:08:36.115566 51717 net.cpp:454] conv4_2_2_bn <- conv4_2_2
I0705 17:08:36.115587 51717 net.cpp:411] conv4_2_2_bn -> conv4_2_2_bn
I0705 17:08:36.115813 51717 net.cpp:150] Setting up conv4_2_2_bn
I0705 17:08:36.115826 51717 net.cpp:157] Top shape: 16 256 14 14 (802816)
I0705 17:08:36.115833 51717 net.cpp:165] Memory required for data: 1463316672
I0705 17:08:36.115859 51717 layer_factory.hpp:76] Creating layer conv4_2_2_relu
I0705 17:08:36.115871 51717 net.cpp:106] Creating Layer conv4_2_2_relu
I0705 17:08:36.115880 51717 net.cpp:454] conv4_2_2_relu <- conv4_2_2_bn
I0705 17:08:36.115887 51717 net.cpp:397] conv4_2_2_relu -> conv4_2_2_bn (in-place)
I0705 17:08:36.116072 51717 net.cpp:150] Setting up conv4_2_2_relu
I0705 17:08:36.116087 51717 net.cpp:157] Top shape: 16 256 14 14 (802816)
I0705 17:08:36.116094 51717 net.cpp:165] Memory required for data: 1466527936
I0705 17:08:36.116101 51717 layer_factory.hpp:76] Creating layer conv4_2_3
I0705 17:08:36.116114 51717 net.cpp:106] Creating Layer conv4_2_3
I0705 17:08:36.116122 51717 net.cpp:454] conv4_2_3 <- conv4_2_2_bn
I0705 17:08:36.116133 51717 net.cpp:411] conv4_2_3 -> conv4_2_3
I0705 17:08:36.124616 51717 cudnn_conv_layer.cpp:194] Reallocating workspace storage: 3072
I0705 17:08:36.124649 51717 net.cpp:150] Setting up conv4_2_3
I0705 17:08:36.124660 51717 net.cpp:157] Top shape: 16 1024 14 14 (3211264)
I0705 17:08:36.124667 51717 net.cpp:165] Memory required for data: 1479372992
I0705 17:08:36.124678 51717 layer_factory.hpp:76] Creating layer conv4_2_sum
I0705 17:08:36.124691 51717 net.cpp:106] Creating Layer conv4_2_sum
I0705 17:08:36.124697 51717 net.cpp:454] conv4_2_sum <- conv4_1_sum_bn_conv4_1_sum_relu_0_split_1
I0705 17:08:36.124714 51717 net.cpp:454] conv4_2_sum <- conv4_2_3
I0705 17:08:36.124722 51717 net.cpp:411] conv4_2_sum -> conv4_2_sum
I0705 17:08:36.124760 51717 net.cpp:150] Setting up conv4_2_sum
I0705 17:08:36.124773 51717 net.cpp:157] Top shape: 16 1024 14 14 (3211264)
I0705 17:08:36.124780 51717 net.cpp:165] Memory required for data: 1492218048
I0705 17:08:36.124788 51717 layer_factory.hpp:76] Creating layer conv4_2_sum_bn
I0705 17:08:36.124799 51717 net.cpp:106] Creating Layer conv4_2_sum_bn
I0705 17:08:36.124806 51717 net.cpp:454] conv4_2_sum_bn <- conv4_2_sum
I0705 17:08:36.124820 51717 net.cpp:411] conv4_2_sum_bn -> conv4_2_sum_bn
I0705 17:08:36.125046 51717 net.cpp:150] Setting up conv4_2_sum_bn
I0705 17:08:36.125058 51717 net.cpp:157] Top shape: 16 1024 14 14 (3211264)
I0705 17:08:36.125064 51717 net.cpp:165] Memory required for data: 1505063104
I0705 17:08:36.125074 51717 layer_factory.hpp:76] Creating layer conv4_2_sum_relu
I0705 17:08:36.125084 51717 net.cpp:106] Creating Layer conv4_2_sum_relu
I0705 17:08:36.125092 51717 net.cpp:454] conv4_2_sum_relu <- conv4_2_sum_bn
I0705 17:08:36.125099 51717 net.cpp:397] conv4_2_sum_relu -> conv4_2_sum_bn (in-place)
I0705 17:08:36.125401 51717 net.cpp:150] Setting up conv4_2_sum_relu
I0705 17:08:36.125419 51717 net.cpp:157] Top shape: 16 1024 14 14 (3211264)
I0705 17:08:36.125427 51717 net.cpp:165] Memory required for data: 1517908160
I0705 17:08:36.125434 51717 layer_factory.hpp:76] Creating layer conv4_2_sum_bn_conv4_2_sum_relu_0_split
I0705 17:08:36.125444 51717 net.cpp:106] Creating Layer conv4_2_sum_bn_conv4_2_sum_relu_0_split
I0705 17:08:36.125452 51717 net.cpp:454] conv4_2_sum_bn_conv4_2_sum_relu_0_split <- conv4_2_sum_bn
I0705 17:08:36.125461 51717 net.cpp:411] conv4_2_sum_bn_conv4_2_sum_relu_0_split -> conv4_2_sum_bn_conv4_2_sum_relu_0_split_0
I0705 17:08:36.125479 51717 net.cpp:411] conv4_2_sum_bn_conv4_2_sum_relu_0_split -> conv4_2_sum_bn_conv4_2_sum_relu_0_split_1
I0705 17:08:36.125540 51717 net.cpp:150] Setting up conv4_2_sum_bn_conv4_2_sum_relu_0_split
I0705 17:08:36.125555 51717 net.cpp:157] Top shape: 16 1024 14 14 (3211264)
I0705 17:08:36.125562 51717 net.cpp:157] Top shape: 16 1024 14 14 (3211264)
I0705 17:08:36.125571 51717 net.cpp:165] Memory required for data: 1543598272
I0705 17:08:36.125578 51717 layer_factory.hpp:76] Creating layer conv4_output
I0705 17:08:36.125593 51717 net.cpp:106] Creating Layer conv4_output
I0705 17:08:36.125602 51717 net.cpp:454] conv4_output <- conv4_2_sum_bn_conv4_2_sum_relu_0_split_0
I0705 17:08:36.125610 51717 net.cpp:411] conv4_output -> conv4_output
I0705 17:08:36.185317 51717 cudnn_conv_layer.cpp:194] Reallocating workspace storage: 12288
I0705 17:08:36.185375 51717 net.cpp:150] Setting up conv4_output
I0705 17:08:36.185389 51717 net.cpp:157] Top shape: 16 2048 7 7 (1605632)
I0705 17:08:36.185398 51717 net.cpp:165] Memory required for data: 1550020800
I0705 17:08:36.185408 51717 layer_factory.hpp:76] Creating layer conv5_1_1
I0705 17:08:36.185421 51717 net.cpp:106] Creating Layer conv5_1_1
I0705 17:08:36.185432 51717 net.cpp:454] conv5_1_1 <- conv4_2_sum_bn_conv4_2_sum_relu_0_split_1
I0705 17:08:36.185443 51717 net.cpp:411] conv5_1_1 -> conv5_1_1
I0705 17:08:36.201218 51717 cudnn_conv_layer.cpp:194] Reallocating workspace storage: 12288
I0705 17:08:36.201251 51717 net.cpp:150] Setting up conv5_1_1
I0705 17:08:36.201266 51717 net.cpp:157] Top shape: 16 512 7 7 (401408)
I0705 17:08:36.201272 51717 net.cpp:165] Memory required for data: 1551626432
I0705 17:08:36.201282 51717 layer_factory.hpp:76] Creating layer conv5_1_1_bn
I0705 17:08:36.201295 51717 net.cpp:106] Creating Layer conv5_1_1_bn
I0705 17:08:36.201306 51717 net.cpp:454] conv5_1_1_bn <- conv5_1_1
I0705 17:08:36.201315 51717 net.cpp:411] conv5_1_1_bn -> conv5_1_1_bn
I0705 17:08:36.201551 51717 net.cpp:150] Setting up conv5_1_1_bn
I0705 17:08:36.201565 51717 net.cpp:157] Top shape: 16 512 7 7 (401408)
I0705 17:08:36.201571 51717 net.cpp:165] Memory required for data: 1553232064
I0705 17:08:36.201581 51717 layer_factory.hpp:76] Creating layer conv5_1_1_relu
I0705 17:08:36.201594 51717 net.cpp:106] Creating Layer conv5_1_1_relu
I0705 17:08:36.201601 51717 net.cpp:454] conv5_1_1_relu <- conv5_1_1_bn
I0705 17:08:36.201609 51717 net.cpp:397] conv5_1_1_relu -> conv5_1_1_bn (in-place)
I0705 17:08:36.201915 51717 net.cpp:150] Setting up conv5_1_1_relu
I0705 17:08:36.201934 51717 net.cpp:157] Top shape: 16 512 7 7 (401408)
I0705 17:08:36.201941 51717 net.cpp:165] Memory required for data: 1554837696
I0705 17:08:36.201949 51717 layer_factory.hpp:76] Creating layer conv5_1_2
I0705 17:08:36.201963 51717 net.cpp:106] Creating Layer conv5_1_2
I0705 17:08:36.201970 51717 net.cpp:454] conv5_1_2 <- conv5_1_1_bn
I0705 17:08:36.201982 51717 net.cpp:411] conv5_1_2 -> conv5_1_2
I0705 17:08:36.268856 51717 cudnn_conv_layer.cpp:194] Reallocating workspace storage: 55296
I0705 17:08:36.268889 51717 net.cpp:150] Setting up conv5_1_2
I0705 17:08:36.268903 51717 net.cpp:157] Top shape: 16 512 7 7 (401408)
I0705 17:08:36.268910 51717 net.cpp:165] Memory required for data: 1556443328
I0705 17:08:36.268920 51717 layer_factory.hpp:76] Creating layer conv5_1_2_bn
I0705 17:08:36.268931 51717 net.cpp:106] Creating Layer conv5_1_2_bn
I0705 17:08:36.268940 51717 net.cpp:454] conv5_1_2_bn <- conv5_1_2
I0705 17:08:36.268951 51717 net.cpp:411] conv5_1_2_bn -> conv5_1_2_bn
I0705 17:08:36.269192 51717 net.cpp:150] Setting up conv5_1_2_bn
I0705 17:08:36.269206 51717 net.cpp:157] Top shape: 16 512 7 7 (401408)
I0705 17:08:36.269212 51717 net.cpp:165] Memory required for data: 1558048960
I0705 17:08:36.269222 51717 layer_factory.hpp:76] Creating layer conv5_1_2_relu
I0705 17:08:36.269237 51717 net.cpp:106] Creating Layer conv5_1_2_relu
I0705 17:08:36.269243 51717 net.cpp:454] conv5_1_2_relu <- conv5_1_2_bn
I0705 17:08:36.269250 51717 net.cpp:397] conv5_1_2_relu -> conv5_1_2_bn (in-place)
I0705 17:08:36.269551 51717 net.cpp:150] Setting up conv5_1_2_relu
I0705 17:08:36.269569 51717 net.cpp:157] Top shape: 16 512 7 7 (401408)
I0705 17:08:36.269577 51717 net.cpp:165] Memory required for data: 1559654592
I0705 17:08:36.269584 51717 layer_factory.hpp:76] Creating layer conv5_1_3
I0705 17:08:36.269598 51717 net.cpp:106] Creating Layer conv5_1_3
I0705 17:08:36.269613 51717 net.cpp:454] conv5_1_3 <- conv5_1_2_bn
I0705 17:08:36.269623 51717 net.cpp:411] conv5_1_3 -> conv5_1_3
I0705 17:08:36.300128 51717 cudnn_conv_layer.cpp:194] Reallocating workspace storage: 6144
I0705 17:08:36.300168 51717 net.cpp:150] Setting up conv5_1_3
I0705 17:08:36.300180 51717 net.cpp:157] Top shape: 16 2048 7 7 (1605632)
I0705 17:08:36.300187 51717 net.cpp:165] Memory required for data: 1566077120
I0705 17:08:36.300199 51717 layer_factory.hpp:76] Creating layer conv5_1_sum
I0705 17:08:36.300240 51717 net.cpp:106] Creating Layer conv5_1_sum
I0705 17:08:36.300249 51717 net.cpp:454] conv5_1_sum <- conv4_output
I0705 17:08:36.300258 51717 net.cpp:454] conv5_1_sum <- conv5_1_3
I0705 17:08:36.300267 51717 net.cpp:411] conv5_1_sum -> conv5_1_sum
I0705 17:08:36.300307 51717 net.cpp:150] Setting up conv5_1_sum
I0705 17:08:36.300320 51717 net.cpp:157] Top shape: 16 2048 7 7 (1605632)
I0705 17:08:36.300326 51717 net.cpp:165] Memory required for data: 1572499648
I0705 17:08:36.300336 51717 layer_factory.hpp:76] Creating layer conv5_1_sum_bn
I0705 17:08:36.300348 51717 net.cpp:106] Creating Layer conv5_1_sum_bn
I0705 17:08:36.300355 51717 net.cpp:454] conv5_1_sum_bn <- conv5_1_sum
I0705 17:08:36.300364 51717 net.cpp:411] conv5_1_sum_bn -> conv5_1_sum_bn
I0705 17:08:36.300604 51717 net.cpp:150] Setting up conv5_1_sum_bn
I0705 17:08:36.300618 51717 net.cpp:157] Top shape: 16 2048 7 7 (1605632)
I0705 17:08:36.300631 51717 net.cpp:165] Memory required for data: 1578922176
I0705 17:08:36.300642 51717 layer_factory.hpp:76] Creating layer conv5_1_sum_relu
I0705 17:08:36.300652 51717 net.cpp:106] Creating Layer conv5_1_sum_relu
I0705 17:08:36.300658 51717 net.cpp:454] conv5_1_sum_relu <- conv5_1_sum_bn
I0705 17:08:36.300668 51717 net.cpp:397] conv5_1_sum_relu -> conv5_1_sum_bn (in-place)
I0705 17:08:36.300844 51717 net.cpp:150] Setting up conv5_1_sum_relu
I0705 17:08:36.300859 51717 net.cpp:157] Top shape: 16 2048 7 7 (1605632)
I0705 17:08:36.300868 51717 net.cpp:165] Memory required for data: 1585344704
I0705 17:08:36.300875 51717 layer_factory.hpp:76] Creating layer conv5_1_sum_bn_conv5_1_sum_relu_0_split
I0705 17:08:36.300885 51717 net.cpp:106] Creating Layer conv5_1_sum_bn_conv5_1_sum_relu_0_split
I0705 17:08:36.300892 51717 net.cpp:454] conv5_1_sum_bn_conv5_1_sum_relu_0_split <- conv5_1_sum_bn
I0705 17:08:36.300904 51717 net.cpp:411] conv5_1_sum_bn_conv5_1_sum_relu_0_split -> conv5_1_sum_bn_conv5_1_sum_relu_0_split_0
I0705 17:08:36.300912 51717 net.cpp:411] conv5_1_sum_bn_conv5_1_sum_relu_0_split -> conv5_1_sum_bn_conv5_1_sum_relu_0_split_1
I0705 17:08:36.300966 51717 net.cpp:150] Setting up conv5_1_sum_bn_conv5_1_sum_relu_0_split
I0705 17:08:36.300977 51717 net.cpp:157] Top shape: 16 2048 7 7 (1605632)
I0705 17:08:36.300988 51717 net.cpp:157] Top shape: 16 2048 7 7 (1605632)
I0705 17:08:36.300999 51717 net.cpp:165] Memory required for data: 1598189760
I0705 17:08:36.301009 51717 layer_factory.hpp:76] Creating layer conv5_2_1
I0705 17:08:36.301028 51717 net.cpp:106] Creating Layer conv5_2_1
I0705 17:08:36.301035 51717 net.cpp:454] conv5_2_1 <- conv5_1_sum_bn_conv5_1_sum_relu_0_split_0
I0705 17:08:36.301046 51717 net.cpp:411] conv5_2_1 -> conv5_2_1
I0705 17:08:36.331647 51717 cudnn_conv_layer.cpp:194] Reallocating workspace storage: 19267584
I0705 17:08:36.331956 51717 net.cpp:150] Setting up conv5_2_1
I0705 17:08:36.331977 51717 net.cpp:157] Top shape: 16 512 7 7 (401408)
I0705 17:08:36.331985 51717 net.cpp:165] Memory required for data: 1599795392
I0705 17:08:36.331996 51717 layer_factory.hpp:76] Creating layer conv5_2_1_bn
I0705 17:08:36.332010 51717 net.cpp:106] Creating Layer conv5_2_1_bn
I0705 17:08:36.332017 51717 net.cpp:454] conv5_2_1_bn <- conv5_2_1
I0705 17:08:36.332026 51717 net.cpp:411] conv5_2_1_bn -> conv5_2_1_bn
I0705 17:08:36.332276 51717 net.cpp:150] Setting up conv5_2_1_bn
I0705 17:08:36.332290 51717 net.cpp:157] Top shape: 16 512 7 7 (401408)
I0705 17:08:36.332298 51717 net.cpp:165] Memory required for data: 1601401024
I0705 17:08:36.332307 51717 layer_factory.hpp:76] Creating layer conv5_2_1_relu
I0705 17:08:36.332317 51717 net.cpp:106] Creating Layer conv5_2_1_relu
I0705 17:08:36.332330 51717 net.cpp:454] conv5_2_1_relu <- conv5_2_1_bn
I0705 17:08:36.332341 51717 net.cpp:397] conv5_2_1_relu -> conv5_2_1_bn (in-place)
I0705 17:08:36.332667 51717 net.cpp:150] Setting up conv5_2_1_relu
I0705 17:08:36.332687 51717 net.cpp:157] Top shape: 16 512 7 7 (401408)
I0705 17:08:36.332695 51717 net.cpp:165] Memory required for data: 1603006656
I0705 17:08:36.332702 51717 layer_factory.hpp:76] Creating layer conv5_2_2
I0705 17:08:36.332726 51717 net.cpp:106] Creating Layer conv5_2_2
I0705 17:08:36.332737 51717 net.cpp:454] conv5_2_2 <- conv5_2_1_bn
I0705 17:08:36.332748 51717 net.cpp:411] conv5_2_2 -> conv5_2_2
I0705 17:08:36.399801 51717 cudnn_conv_layer.cpp:194] Reallocating workspace storage: 55296
I0705 17:08:36.399838 51717 net.cpp:150] Setting up conv5_2_2
I0705 17:08:36.399852 51717 net.cpp:157] Top shape: 16 512 7 7 (401408)
I0705 17:08:36.399858 51717 net.cpp:165] Memory required for data: 1604612288
I0705 17:08:36.399878 51717 layer_factory.hpp:76] Creating layer conv5_2_2_bn
I0705 17:08:36.399891 51717 net.cpp:106] Creating Layer conv5_2_2_bn
I0705 17:08:36.399904 51717 net.cpp:454] conv5_2_2_bn <- conv5_2_2
I0705 17:08:36.399916 51717 net.cpp:411] conv5_2_2_bn -> conv5_2_2_bn
I0705 17:08:36.400166 51717 net.cpp:150] Setting up conv5_2_2_bn
I0705 17:08:36.400178 51717 net.cpp:157] Top shape: 16 512 7 7 (401408)
I0705 17:08:36.400184 51717 net.cpp:165] Memory required for data: 1606217920
I0705 17:08:36.400195 51717 layer_factory.hpp:76] Creating layer conv5_2_2_relu
I0705 17:08:36.400207 51717 net.cpp:106] Creating Layer conv5_2_2_relu
I0705 17:08:36.400218 51717 net.cpp:454] conv5_2_2_relu <- conv5_2_2_bn
I0705 17:08:36.400229 51717 net.cpp:397] conv5_2_2_relu -> conv5_2_2_bn (in-place)
I0705 17:08:36.400545 51717 net.cpp:150] Setting up conv5_2_2_relu
I0705 17:08:36.400563 51717 net.cpp:157] Top shape: 16 512 7 7 (401408)
I0705 17:08:36.400570 51717 net.cpp:165] Memory required for data: 1607823552
I0705 17:08:36.400578 51717 layer_factory.hpp:76] Creating layer conv5_2_3
I0705 17:08:36.400596 51717 net.cpp:106] Creating Layer conv5_2_3
I0705 17:08:36.400607 51717 net.cpp:454] conv5_2_3 <- conv5_2_2_bn
I0705 17:08:36.400619 51717 net.cpp:411] conv5_2_3 -> conv5_2_3
I0705 17:08:36.430919 51717 cudnn_conv_layer.cpp:194] Reallocating workspace storage: 6144
I0705 17:08:36.430960 51717 net.cpp:150] Setting up conv5_2_3
I0705 17:08:36.430979 51717 net.cpp:157] Top shape: 16 2048 7 7 (1605632)
I0705 17:08:36.430989 51717 net.cpp:165] Memory required for data: 1614246080
I0705 17:08:36.431025 51717 layer_factory.hpp:76] Creating layer conv5_2_sum
I0705 17:08:36.431040 51717 net.cpp:106] Creating Layer conv5_2_sum
I0705 17:08:36.431047 51717 net.cpp:454] conv5_2_sum <- conv5_1_sum_bn_conv5_1_sum_relu_0_split_1
I0705 17:08:36.431057 51717 net.cpp:454] conv5_2_sum <- conv5_2_3
I0705 17:08:36.431067 51717 net.cpp:411] conv5_2_sum -> conv5_2_sum
I0705 17:08:36.431110 51717 net.cpp:150] Setting up conv5_2_sum
I0705 17:08:36.431123 51717 net.cpp:157] Top shape: 16 2048 7 7 (1605632)
I0705 17:08:36.431129 51717 net.cpp:165] Memory required for data: 1620668608
I0705 17:08:36.431136 51717 layer_factory.hpp:76] Creating layer conv5_2_sum_bn
I0705 17:08:36.431148 51717 net.cpp:106] Creating Layer conv5_2_sum_bn
I0705 17:08:36.431155 51717 net.cpp:454] conv5_2_sum_bn <- conv5_2_sum
I0705 17:08:36.431164 51717 net.cpp:411] conv5_2_sum_bn -> conv5_2_sum_bn
I0705 17:08:36.431402 51717 net.cpp:150] Setting up conv5_2_sum_bn
I0705 17:08:36.431416 51717 net.cpp:157] Top shape: 16 2048 7 7 (1605632)
I0705 17:08:36.431424 51717 net.cpp:165] Memory required for data: 1627091136
I0705 17:08:36.431434 51717 layer_factory.hpp:76] Creating layer conv5_2_sum_relu
I0705 17:08:36.431445 51717 net.cpp:106] Creating Layer conv5_2_sum_relu
I0705 17:08:36.431454 51717 net.cpp:454] conv5_2_sum_relu <- conv5_2_sum_bn
I0705 17:08:36.431463 51717 net.cpp:397] conv5_2_sum_relu -> conv5_2_sum_bn (in-place)
I0705 17:08:36.431643 51717 net.cpp:150] Setting up conv5_2_sum_relu
I0705 17:08:36.431658 51717 net.cpp:157] Top shape: 16 2048 7 7 (1605632)
I0705 17:08:36.431665 51717 net.cpp:165] Memory required for data: 1633513664
I0705 17:08:36.431674 51717 layer_factory.hpp:76] Creating layer pool2
I0705 17:08:36.431686 51717 net.cpp:106] Creating Layer pool2
I0705 17:08:36.431697 51717 net.cpp:454] pool2 <- conv5_2_sum_bn
I0705 17:08:36.431706 51717 net.cpp:411] pool2 -> pool2
I0705 17:08:36.432037 51717 net.cpp:150] Setting up pool2
I0705 17:08:36.432055 51717 net.cpp:157] Top shape: 16 2048 1 1 (32768)
I0705 17:08:36.432088 51717 net.cpp:165] Memory required for data: 1633644736
I0705 17:08:36.432097 51717 layer_factory.hpp:76] Creating layer fc
I0705 17:08:36.432112 51717 net.cpp:106] Creating Layer fc
I0705 17:08:36.432121 51717 net.cpp:454] fc <- pool2
I0705 17:08:36.432133 51717 net.cpp:411] fc -> fc
I0705 17:08:36.432379 51717 net.cpp:150] Setting up fc
I0705 17:08:36.432394 51717 net.cpp:157] Top shape: 16 2 (32)
I0705 17:08:36.432404 51717 net.cpp:165] Memory required for data: 1633644864
I0705 17:08:36.432413 51717 layer_factory.hpp:76] Creating layer fc_fc_0_split
I0705 17:08:36.432430 51717 net.cpp:106] Creating Layer fc_fc_0_split
I0705 17:08:36.432447 51717 net.cpp:454] fc_fc_0_split <- fc
I0705 17:08:36.432457 51717 net.cpp:411] fc_fc_0_split -> fc_fc_0_split_0
I0705 17:08:36.432467 51717 net.cpp:411] fc_fc_0_split -> fc_fc_0_split_1
I0705 17:08:36.432523 51717 net.cpp:150] Setting up fc_fc_0_split
I0705 17:08:36.432534 51717 net.cpp:157] Top shape: 16 2 (32)
I0705 17:08:36.432543 51717 net.cpp:157] Top shape: 16 2 (32)
I0705 17:08:36.432551 51717 net.cpp:165] Memory required for data: 1633645120
I0705 17:08:36.432564 51717 layer_factory.hpp:76] Creating layer loss
I0705 17:08:36.432574 51717 net.cpp:106] Creating Layer loss
I0705 17:08:36.432581 51717 net.cpp:454] loss <- fc_fc_0_split_0
I0705 17:08:36.432590 51717 net.cpp:454] loss <- label_data_1_split_0
I0705 17:08:36.432600 51717 net.cpp:411] loss -> loss
…
