…
I0705 15:55:53.667728 50380 net.cpp:322] The NetState phase (0) differed from the phase (1) specified by a rule in layer acc/top-1
I0705 15:55:53.668231 50380 net.cpp:49] Initializing net from parameters: 
name: "ResNet-18"
state {
  phase: TRAIN
}
layer {
  name: "data"
  type: "ImageData"
  top: "data"
  top: "label"
  include {
    phase: TRAIN
  }
  transform_param {
    mirror: true
    crop_size: 224
    mean_value: 104
    mean_value: 117
    mean_value: 123
  }
  image_data_param {
    source: "../lists/roi-train-L0.lst"
    batch_size: 32
    shuffle: true
    new_height: 256
    new_width: 256
  }
}
layer {
  name: "conv1"
  type: "Convolution"
  bottom: "data"
  top: "conv1"
  param {
    lr_mult: 1
    decay_mult: 1
  }
  param {
    lr_mult: 2
    decay_mult: 0
  }
  convolution_param {
    num_output: 64
    pad: 0
    kernel_size: 7
    stride: 2
    weight_filler {
      type: "msra"
    }
    bias_filler {
      type: "constant"
      value: 0
    }
  }
}
layer {
  name: "conv1_bn"
  type: "BatchNorm"
  bottom: "conv1"
  top: "conv1_bn"
  param {
    lr_mult: 0
  }
  param {
    lr_mult: 0
  }
  param {
    lr_mult: 0
  }
}
layer {
  name: "conv1_relu"
  type: "ReLU"
  bottom: "conv1_bn"
  top: "conv1_bn"
}
layer {
  name: "pool1"
  type: "Pooling"
  bottom: "conv1_bn"
  top: "pool1"
  pooling_param {
    pool: MAX
    kernel_size: 3
    stride: 2
  }
}
layer {
  name: "conv1_output"
  type: "Convolution"
  bottom: "pool1"
  top: "conv1_output"
  param {
    lr_mult: 1
    decay_mult: 1
  }
  param {
    lr_mult: 2
    decay_mult: 0
  }
  convolution_param {
    num_output: 256
    pad: 0
    kernel_size: 1
    stride: 1
    weight_filler {
      type: "msra"
    }
    bias_filler {
      type: "constant"
      value: 0
    }
  }
}
layer {
  name: "conv2_1_1"
  type: "Convolution"
  bottom: "pool1"
  top: "conv2_1_1"
  param {
    lr_mult: 1
    decay_mult: 1
  }
  param {
    lr_mult: 2
    decay_mult: 0
  }
  convolution_param {
    num_output: 64
    pad: 0
    kernel_size: 1
    stride: 1
    weight_filler {
      type: "msra"
    }
    bias_filler {
      type: "constant"
      value: 0
    }
  }
}
layer {
  name: "conv2_1_1_bn"
  type: "BatchNorm"
  bottom: "conv2_1_1"
  top: "conv2_1_1_bn"
  param {
    lr_mult: 0
  }
  param {
    lr_mult: 0
  }
  param {
    lr_mult: 0
  }
}
layer {
  name: "conv2_1_1_relu"
  type: "ReLU"
  bottom: "conv2_1_1_bn"
  top: "conv2_1_1_bn"
}
layer {
  name: "conv2_1_2"
  type: "Convolution"
  bottom: "conv2_1_1_bn"
  top: "conv2_1_2"
  param {
    lr_mult: 1
    decay_mult: 1
  }
  param {
    lr_mult: 2
    decay_mult: 0
  }
  convolution_param {
    num_output: 64
    pad: 1
    kernel_size: 3
    stride: 1
    weight_filler {
      type: "msra"
    }
    bias_filler {
      type: "constant"
      value: 0
    }
  }
}
layer {
  name: "conv2_1_2_bn"
  type: "BatchNorm"
  bottom: "conv2_1_2"
  top: "conv2_1_2_bn"
  param {
    lr_mult: 0
  }
  param {
    lr_mult: 0
  }
  param {
    lr_mult: 0
  }
}
layer {
  name: "conv2_1_2_relu"
  type: "ReLU"
  bottom: "conv2_1_2_bn"
  top: "conv2_1_2_bn"
}
layer {
  name: "conv2_1_3"
  type: "Convolution"
  bottom: "conv2_1_2_bn"
  top: "conv2_1_3"
  param {
    lr_mult: 1
    decay_mult: 1
  }
  param {
    lr_mult: 2
    decay_mult: 0
  }
  convolution_param {
    num_output: 256
    pad: 0
    kernel_size: 1
    stride: 1
    weight_filler {
      type: "msra"
    }
    bias_filler {
      type: "constant"
      value: 0
    }
  }
}
layer {
  name: "conv2_1_sum"
  type: "Eltwise"
  bottom: "conv1_output"
  bottom: "conv2_1_3"
  top: "conv2_1_sum"
  eltwise_param {
    operation: SUM
  }
}
layer {
  name: "conv2_1_sum_bn"
  type: "BatchNorm"
  bottom: "conv2_1_sum"
  top: "conv2_1_sum_bn"
  param {
    lr_mult: 0
  }
  param {
    lr_mult: 0
  }
  param {
    lr_mult: 0
  }
}
layer {
  name: "conv2_1_sum_relu"
  type: "ReLU"
  bottom: "conv2_1_sum_bn"
  top: "conv2_1_sum_bn"
}
layer {
  name: "conv2_2_1"
  type: "Convolution"
  bottom: "conv2_1_sum_bn"
  top: "conv2_2_1"
  param {
    lr_mult: 1
    decay_mult: 1
  }
  param {
    lr_mult: 2
    decay_mult: 0
  }
  convolution_param {
    num_output: 64
    pad: 0
    kernel_size: 1
    stride: 1
    weight_filler {
      type: "msra"
    }
    bias_filler {
      type: "constant"
      value: 0
    }
  }
}
layer {
  name: "conv2_2_1_bn"
  type: "BatchNorm"
  bottom: "conv2_2_1"
  top: "conv2_2_1_bn"
  param {
    lr_mult: 0
  }
  param {
    lr_mult: 0
  }
  param {
    lr_mult: 0
  }
}
layer {
  name: "conv2_2_1_relu"
  type: "ReLU"
  bottom: "conv2_2_1_bn"
  top: "conv2_2_1_bn"
}
layer {
  name: "conv2_2_2"
  type: "Convolution"
  bottom: "conv2_2_1_bn"
  top: "conv2_2_2"
  param {
    lr_mult: 1
    decay_mult: 1
  }
  param {
    lr_mult: 2
    decay_mult: 0
  }
  convolution_param {
    num_output: 64
    pad: 1
    kernel_size: 3
    stride: 1
    weight_filler {
      type: "msra"
    }
    bias_filler {
      type: "constant"
      value: 0
    }
  }
}
layer {
  name: "conv2_2_2_bn"
  type: "BatchNorm"
  bottom: "conv2_2_2"
  top: "conv2_2_2_bn"
  param {
    lr_mult: 0
  }
  param {
    lr_mult: 0
  }
  param {
    lr_mult: 0
  }
}
layer {
  name: "conv2_2_2_relu"
  type: "ReLU"
  bottom: "conv2_2_2_bn"
  top: "conv2_2_2_bn"
}
layer {
  name: "conv2_2_3"
  type: "Convolution"
  bottom: "conv2_2_2_bn"
  top: "conv2_2_3"
  param {
    lr_mult: 1
    decay_mult: 1
  }
  param {
    lr_mult: 2
    decay_mult: 0
  }
  convolution_param {
    num_output: 256
    pad: 0
    kernel_size: 1
    stride: 1
    weight_filler {
      type: "msra"
    }
    bias_filler {
      type: "constant"
      value: 0
    }
  }
}
layer {
  name: "conv2_2_sum"
  type: "Eltwise"
  bottom: "conv2_1_sum_bn"
  bottom: "conv2_2_3"
  top: "conv2_2_sum"
  eltwise_param {
    operation: SUM
  }
}
layer {
  name: "conv2_2_sum_bn"
  type: "BatchNorm"
  bottom: "conv2_2_sum"
  top: "conv2_2_sum_bn"
  param {
    lr_mult: 0
  }
  param {
    lr_mult: 0
  }
  param {
    lr_mult: 0
  }
}
layer {
  name: "conv2_2_sum_relu"
  type: "ReLU"
  bottom: "conv2_2_sum_bn"
  top: "conv2_2_sum_bn"
}
layer {
  name: "conv2_output"
  type: "Convolution"
  bottom: "conv2_2_sum_bn"
  top: "conv2_output"
  param {
    lr_mult: 1
    decay_mult: 1
  }
  param {
    lr_mult: 2
    decay_mult: 0
  }
  convolution_param {
    num_output: 512
    pad: 0
    kernel_size: 1
    stride: 2
    weight_filler {
      type: "msra"
    }
    bias_filler {
      type: "constant"
      value: 0
    }
  }
}
layer {
  name: "conv3_1_1"
  type: "Convolution"
  bottom: "conv2_2_sum_bn"
  top: "conv3_1_1"
  param {
    lr_mult: 1
    decay_mult: 1
  }
  param {
    lr_mult: 2
    decay_mult: 0
  }
  convolution_param {
    num_output: 128
    pad: 0
    kernel_size: 1
    stride: 2
    weight_filler {
      type: "msra"
    }
    bias_filler {
      type: "constant"
      value: 0
    }
  }
}
layer {
  name: "conv3_1_1_bn"
  type: "BatchNorm"
  bottom: "conv3_1_1"
  top: "conv3_1_1_bn"
  param {
    lr_mult: 0
  }
  param {
    lr_mult: 0
  }
  param {
    lr_mult: 0
  }
}
layer {
  name: "conv3_1_1_relu"
  type: "ReLU"
  bottom: "conv3_1_1_bn"
  top: "conv3_1_1_bn"
}
layer {
  name: "conv3_1_2"
  type: "Convolution"
  bottom: "conv3_1_1_bn"
  top: "conv3_1_2"
  param {
    lr_mult: 1
    decay_mult: 1
  }
  param {
    lr_mult: 2
    decay_mult: 0
  }
  convolution_param {
    num_output: 128
    pad: 1
    kernel_size: 3
    stride: 1
    weight_filler {
      type: "msra"
    }
    bias_filler {
      type: "constant"
      value: 0
    }
  }
}
layer {
  name: "conv3_1_2_bn"
  type: "BatchNorm"
  bottom: "conv3_1_2"
  top: "conv3_1_2_bn"
  param {
    lr_mult: 0
  }
  param {
    lr_mult: 0
  }
  param {
    lr_mult: 0
  }
}
layer {
  name: "conv3_1_2_relu"
  type: "ReLU"
  bottom: "conv3_1_2_bn"
  top: "conv3_1_2_bn"
}
layer {
  name: "conv3_1_3"
  type: "Convolution"
  bottom: "conv3_1_2_bn"
  top: "conv3_1_3"
  param {
    lr_mult: 1
    decay_mult: 1
  }
  param {
    lr_mult: 2
    decay_mult: 0
  }
  convolution_param {
    num_output: 512
    pad: 0
    kernel_size: 1
    stride: 1
    weight_filler {
      type: "msra"
    }
    bias_filler {
      type: "constant"
      value: 0
    }
  }
}
layer {
  name: "conv3_1_sum"
  type: "Eltwise"
  bottom: "conv2_output"
  bottom: "conv3_1_3"
  top: "conv3_1_sum"
  eltwise_param {
    operation: SUM
  }
}
layer {
  name: "conv3_1_sum_bn"
  type: "BatchNorm"
  bottom: "conv3_1_sum"
  top: "conv3_1_sum_bn"
  param {
    lr_mult: 0
  }
  param {
    lr_mult: 0
  }
  param {
    lr_mult: 0
  }
}
layer {
  name: "conv3_1_sum_relu"
  type: "ReLU"
  bottom: "conv3_1_sum_bn"
  top: "conv3_1_sum_bn"
}
layer {
  name: "conv3_2_1"
  type: "Convolution"
  bottom: "conv3_1_sum_bn"
  top: "conv3_2_1"
  param {
    lr_mult: 1
    decay_mult: 1
  }
  param {
    lr_mult: 2
    decay_mult: 0
  }
  convolution_param {
    num_output: 128
    pad: 0
    kernel_size: 1
    stride: 1
    weight_filler {
      type: "msra"
    }
    bias_filler {
      type: "constant"
      value: 0
    }
  }
}
layer {
  name: "conv3_2_1_bn"
  type: "BatchNorm"
  bottom: "conv3_2_1"
  top: "conv3_2_1_bn"
  param {
    lr_mult: 0
  }
  param {
    lr_mult: 0
  }
  param {
    lr_mult: 0
  }
}
layer {
  name: "conv3_2_1_relu"
  type: "ReLU"
  bottom: "conv3_2_1_bn"
  top: "conv3_2_1_bn"
}
layer {
  name: "conv3_2_2"
  type: "Convolution"
  bottom: "conv3_2_1_bn"
  top: "conv3_2_2"
  param {
    lr_mult: 1
    decay_mult: 1
  }
  param {
    lr_mult: 2
    decay_mult: 0
  }
  convolution_param {
    num_output: 128
    pad: 1
    kernel_size: 3
    stride: 1
    weight_filler {
      type: "msra"
    }
    bias_filler {
      type: "constant"
      value: 0
    }
  }
}
layer {
  name: "conv3_2_2_bn"
  type: "BatchNorm"
  bottom: "conv3_2_2"
  top: "conv3_2_2_bn"
  param {
    lr_mult: 0
  }
  param {
    lr_mult: 0
  }
  param {
    lr_mult: 0
  }
}
layer {
  name: "conv3_2_2_relu"
  type: "ReLU"
  bottom: "conv3_2_2_bn"
  top: "conv3_2_2_bn"
}
layer {
  name: "conv3_2_3"
  type: "Convolution"
  bottom: "conv3_2_2_bn"
  top: "conv3_2_3"
  param {
    lr_mult: 1
    decay_mult: 1
  }
  param {
    lr_mult: 2
    decay_mult: 0
  }
  convolution_param {
    num_output: 512
    pad: 0
    kernel_size: 1
    stride: 1
    weight_filler {
      type: "msra"
    }
    bias_filler {
      type: "constant"
      value: 0
    }
  }
}
layer {
  name: "conv3_2_sum"
  type: "Eltwise"
  bottom: "conv3_1_sum_bn"
  bottom: "conv3_2_3"
  top: "conv3_2_sum"
  eltwise_param {
    operation: SUM
  }
}
layer {
  name: "conv3_2_sum_bn"
  type: "BatchNorm"
  bottom: "conv3_2_sum"
  top: "conv3_2_sum_bn"
  param {
    lr_mult: 0
  }
  param {
    lr_mult: 0
  }
  param {
    lr_mult: 0
  }
}
layer {
  name: "conv3_2_sum_relu"
  type: "ReLU"
  bottom: "conv3_2_sum_bn"
  top: "conv3_2_sum_bn"
}
layer {
  name: "conv3_output"
  type: "Convolution"
  bottom: "conv3_2_sum_bn"
  top: "conv3_output"
  param {
    lr_mult: 1
    decay_mult: 1
  }
  param {
    lr_mult: 2
    decay_mult: 0
  }
  convolution_param {
    num_output: 1024
    pad: 0
    kernel_size: 1
    stride: 2
    weight_filler {
      type: "msra"
    }
    bias_filler {
      type: "constant"
      value: 0
    }
  }
}
layer {
  name: "conv4_1_1"
  type: "Convolution"
  bottom: "conv3_2_sum_bn"
  top: "conv4_1_1"
  param {
    lr_mult: 1
    decay_mult: 1
  }
  param {
    lr_mult: 2
    decay_mult: 0
  }
  convolution_param {
    num_output: 256
    pad: 0
    kernel_size: 1
    stride: 2
    weight_filler {
      type: "msra"
    }
    bias_filler {
      type: "constant"
      value: 0
    }
  }
}
layer {
  name: "conv4_1_1_bn"
  type: "BatchNorm"
  bottom: "conv4_1_1"
  top: "conv4_1_1_bn"
  param {
    lr_mult: 0
  }
  param {
    lr_mult: 0
  }
  param {
    lr_mult: 0
  }
}
layer {
  name: "conv4_1_1_relu"
  type: "ReLU"
  bottom: "conv4_1_1_bn"
  top: "conv4_1_1_bn"
}
layer {
  name: "conv4_1_2"
  type: "Convolution"
  bottom: "conv4_1_1_bn"
  top: "conv4_1_2"
  param {
    lr_mult: 1
    decay_mult: 1
  }
  param {
    lr_mult: 2
    decay_mult: 0
  }
  convolution_param {
    num_output: 256
    pad: 1
    kernel_size: 3
    stride: 1
    weight_filler {
      type: "msra"
    }
    bias_filler {
      type: "constant"
      value: 0
    }
  }
}
layer {
  name: "conv4_1_2_bn"
  type: "BatchNorm"
  bottom: "conv4_1_2"
  top: "conv4_1_2_bn"
  param {
    lr_mult: 0
  }
  param {
    lr_mult: 0
  }
  param {
    lr_mult: 0
  }
}
layer {
  name: "conv4_1_2_relu"
  type: "ReLU"
  bottom: "conv4_1_2_bn"
  top: "conv4_1_2_bn"
}
layer {
  name: "conv4_1_3"
  type: "Convolution"
  bottom: "conv4_1_2_bn"
  top: "conv4_1_3"
  param {
    lr_mult: 1
    decay_mult: 1
  }
  param {
    lr_mult: 2
    decay_mult: 0
  }
  convolution_param {
    num_output: 1024
    pad: 0
    kernel_size: 1
    stride: 1
    weight_filler {
      type: "msra"
    }
    bias_filler {
      type: "constant"
      value: 0
    }
  }
}
layer {
  name: "conv4_1_sum"
  type: "Eltwise"
  bottom: "conv3_output"
  bottom: "conv4_1_3"
  top: "conv4_1_sum"
  eltwise_param {
    operation: SUM
  }
}
layer {
  name: "conv4_1_sum_bn"
  type: "BatchNorm"
  bottom: "conv4_1_sum"
  top: "conv4_1_sum_bn"
  param {
    lr_mult: 0
  }
  param {
    lr_mult: 0
  }
  param {
    lr_mult: 0
  }
}
layer {
  name: "conv4_1_sum_relu"
  type: "ReLU"
  bottom: "conv4_1_sum_bn"
  top: "conv4_1_sum_bn"
}
layer {
  name: "conv4_2_1"
  type: "Convolution"
  bottom: "conv4_1_sum_bn"
  top: "conv4_2_1"
  param {
    lr_mult: 1
    decay_mult: 1
  }
  param {
    lr_mult: 2
    decay_mult: 0
  }
  convolution_param {
    num_output: 256
    pad: 0
    kernel_size: 1
    stride: 1
    weight_filler {
      type: "msra"
    }
    bias_filler {
      type: "constant"
      value: 0
    }
  }
}
layer {
  name: "conv4_2_1_bn"
  type: "BatchNorm"
  bottom: "conv4_2_1"
  top: "conv4_2_1_bn"
  param {
    lr_mult: 0
  }
  param {
    lr_mult: 0
  }
  param {
    lr_mult: 0
  }
}
layer {
  name: "conv4_2_1_relu"
  type: "ReLU"
  bottom: "conv4_2_1_bn"
  top: "conv4_2_1_bn"
}
layer {
  name: "conv4_2_2"
  type: "Convolution"
  bottom: "conv4_2_1_bn"
  top: "conv4_2_2"
  param {
    lr_mult: 1
    decay_mult: 1
  }
  param {
    lr_mult: 2
    decay_mult: 0
  }
  convolution_param {
    num_output: 256
    pad: 1
    kernel_size: 3
    stride: 1
    weight_filler {
      type: "msra"
    }
    bias_filler {
      type: "constant"
      value: 0
    }
  }
}
layer {
  name: "conv4_2_2_bn"
  type: "BatchNorm"
  bottom: "conv4_2_2"
  top: "conv4_2_2_bn"
  param {
    lr_mult: 0
  }
  param {
    lr_mult: 0
  }
  param {
    lr_mult: 0
  }
}
layer {
  name: "conv4_2_2_relu"
  type: "ReLU"
  bottom: "conv4_2_2_bn"
  top: "conv4_2_2_bn"
}
layer {
  name: "conv4_2_3"
  type: "Convolution"
  bottom: "conv4_2_2_bn"
  top: "conv4_2_3"
  param {
    lr_mult: 1
    decay_mult: 1
  }
  param {
    lr_mult: 2
    decay_mult: 0
  }
  convolution_param {
    num_output: 1024
    pad: 0
    kernel_size: 1
    stride: 1
    weight_filler {
      type: "msra"
    }
    bias_filler {
      type: "constant"
      value: 0
    }
  }
}
layer {
  name: "conv4_2_sum"
  type: "Eltwise"
  bottom: "conv4_1_sum_bn"
  bottom: "conv4_2_3"
  top: "conv4_2_sum"
  eltwise_param {
    operation: SUM
  }
}
layer {
  name: "conv4_2_sum_bn"
  type: "BatchNorm"
  bottom: "conv4_2_sum"
  top: "conv4_2_sum_bn"
  param {
    lr_mult: 0
  }
  param {
    lr_mult: 0
  }
  param {
    lr_mult: 0
  }
}
layer {
  name: "conv4_2_sum_relu"
  type: "ReLU"
  bottom: "conv4_2_sum_bn"
  top: "conv4_2_sum_bn"
}
layer {
  name: "conv4_output"
  type: "Convolution"
  bottom: "conv4_2_sum_bn"
  top: "conv4_output"
  param {
    lr_mult: 1
    decay_mult: 1
  }
  param {
    lr_mult: 2
    decay_mult: 0
  }
  convolution_param {
    num_output: 2048
    pad: 0
    kernel_size: 1
    stride: 2
    weight_filler {
      type: "msra"
    }
    bias_filler {
      type: "constant"
      value: 0
    }
  }
}
layer {
  name: "conv5_1_1"
  type: "Convolution"
  bottom: "conv4_2_sum_bn"
  top: "conv5_1_1"
  param {
    lr_mult: 1
    decay_mult: 1
  }
  param {
    lr_mult: 2
    decay_mult: 0
  }
  convolution_param {
    num_output: 512
    pad: 0
    kernel_size: 1
    stride: 2
    weight_filler {
      type: "msra"
    }
    bias_filler {
      type: "constant"
      value: 0
    }
  }
}
layer {
  name: "conv5_1_1_bn"
  type: "BatchNorm"
  bottom: "conv5_1_1"
  top: "conv5_1_1_bn"
  param {
    lr_mult: 0
  }
  param {
    lr_mult: 0
  }
  param {
    lr_mult: 0
  }
}
layer {
  name: "conv5_1_1_relu"
  type: "ReLU"
  bottom: "conv5_1_1_bn"
  top: "conv5_1_1_bn"
}
layer {
  name: "conv5_1_2"
  type: "Convolution"
  bottom: "conv5_1_1_bn"
  top: "conv5_1_2"
  param {
    lr_mult: 1
    decay_mult: 1
  }
  param {
    lr_mult: 2
    decay_mult: 0
  }
  convolution_param {
    num_output: 512
    pad: 1
    kernel_size: 3
    stride: 1
    weight_filler {
      type: "msra"
    }
    bias_filler {
      type: "constant"
      value: 0
    }
  }
}
layer {
  name: "conv5_1_2_bn"
  type: "BatchNorm"
  bottom: "conv5_1_2"
  top: "conv5_1_2_bn"
  param {
    lr_mult: 0
  }
  param {
    lr_mult: 0
  }
  param {
    lr_mult: 0
  }
}
layer {
  name: "conv5_1_2_relu"
  type: "ReLU"
  bottom: "conv5_1_2_bn"
  top: "conv5_1_2_bn"
}
layer {
  name: "conv5_1_3"
  type: "Convolution"
  bottom: "conv5_1_2_bn"
  top: "conv5_1_3"
  param {
    lr_mult: 1
    decay_mult: 1
  }
  param {
    lr_mult: 2
    decay_mult: 0
  }
  convolution_param {
    num_output: 2048
    pad: 0
    kernel_size: 1
    stride: 1
    weight_filler {
      type: "msra"
    }
    bias_filler {
      type: "constant"
      value: 0
    }
  }
}
layer {
  name: "conv5_1_sum"
  type: "Eltwise"
  bottom: "conv4_output"
  bottom: "conv5_1_3"
  top: "conv5_1_sum"
  eltwise_param {
    operation: SUM
  }
}
layer {
  name: "conv5_1_sum_bn"
  type: "BatchNorm"
  bottom: "conv5_1_sum"
  top: "conv5_1_sum_bn"
  param {
    lr_mult: 0
  }
  param {
    lr_mult: 0
  }
  param {
    lr_mult: 0
  }
}
layer {
  name: "conv5_1_sum_relu"
  type: "ReLU"
  bottom: "conv5_1_sum_bn"
  top: "conv5_1_sum_bn"
}
layer {
  name: "conv5_2_1"
  type: "Convolution"
  bottom: "conv5_1_sum_bn"
  top: "conv5_2_1"
  param {
    lr_mult: 1
    decay_mult: 1
  }
  param {
    lr_mult: 2
    decay_mult: 0
  }
  convolution_param {
    num_output: 512
    pad: 0
    kernel_size: 1
    stride: 1
    weight_filler {
      type: "msra"
    }
    bias_filler {
      type: "constant"
      value: 0
    }
  }
}
layer {
  name: "conv5_2_1_bn"
  type: "BatchNorm"
  bottom: "conv5_2_1"
  top: "conv5_2_1_bn"
  param {
    lr_mult: 0
  }
  param {
    lr_mult: 0
  }
  param {
    lr_mult: 0
  }
}
layer {
  name: "conv5_2_1_relu"
  type: "ReLU"
  bottom: "conv5_2_1_bn"
  top: "conv5_2_1_bn"
}
layer {
  name: "conv5_2_2"
  type: "Convolution"
  bottom: "conv5_2_1_bn"
  top: "conv5_2_2"
  param {
    lr_mult: 1
    decay_mult: 1
  }
  param {
    lr_mult: 2
    decay_mult: 0
  }
  convolution_param {
    num_output: 512
    pad: 1
    kernel_size: 3
    stride: 1
    weight_filler {
      type: "msra"
    }
    bias_filler {
      type: "constant"
      value: 0
    }
  }
}
layer {
  name: "conv5_2_2_bn"
  type: "BatchNorm"
  bottom: "conv5_2_2"
  top: "conv5_2_2_bn"
  param {
    lr_mult: 0
  }
  param {
    lr_mult: 0
  }
  param {
    lr_mult: 0
  }
}
layer {
  name: "conv5_2_2_relu"
  type: "ReLU"
  bottom: "conv5_2_2_bn"
  top: "conv5_2_2_bn"
}
layer {
  name: "conv5_2_3"
  type: "Convolution"
  bottom: "conv5_2_2_bn"
  top: "conv5_2_3"
  param {
    lr_mult: 1
    decay_mult: 1
  }
  param {
    lr_mult: 2
    decay_mult: 0
  }
  convolution_param {
    num_output: 2048
    pad: 0
    kernel_size: 1
    stride: 1
    weight_filler {
      type: "msra"
    }
    bias_filler {
      type: "constant"
      value: 0
    }
  }
}
layer {
  name: "conv5_2_sum"
  type: "Eltwise"
  bottom: "conv5_1_sum_bn"
  bottom: "conv5_2_3"
  top: "conv5_2_sum"
  eltwise_param {
    operation: SUM
  }
}
layer {
  name: "conv5_2_sum_bn"
  type: "BatchNorm"
  bottom: "conv5_2_sum"
  top: "conv5_2_sum_bn"
  param {
    lr_mult: 0
  }
  param {
    lr_mult: 0
  }
  param {
    lr_mult: 0
  }
}
layer {
  name: "conv5_2_sum_relu"
  type: "ReLU"
  bottom: "conv5_2_sum_bn"
  top: "conv5_2_sum_bn"
}
layer {
  name: "pool2"
  type: "Pooling"
  bottom: "conv5_2_sum_bn"
  top: "pool2"
  pooling_param {
    pool: AVE
    kernel_size: 7
    stride: 1
  }
}
layer {
  name: "fc"
  type: "InnerProduct"
  bottom: "pool2"
  top: "fc"
  param {
    lr_mult: 1
    decay_mult: 1
  }
  param {
    lr_mult: 2
    decay_mult: 0
  }
  inner_product_param {
    num_output: 2
    weight_filler {
      type: "gaussian"
      std: 0.001
    }
    bias_filler {
      type: "constant"
      value: 0
    }
  }
}
layer {
  name: "loss"
  type: "SoftmaxWithLoss"
  bottom: "fc"
  bottom: "label"
  top: "loss"
}
I0705 15:55:53.672922 50380 layer_factory.hpp:76] Creating layer data
I0705 15:55:53.672977 50380 net.cpp:106] Creating Layer data
I0705 15:55:53.673003 50380 net.cpp:411] data -> data
I0705 15:55:53.673034 50380 net.cpp:411] data -> label
I0705 15:55:53.673492 50380 image_data_layer.cpp:36] Opening file ../lists/roi-train-L0.lst
I0705 15:55:53.777447 50380 image_data_layer.cpp:46] Shuffling data
I0705 15:55:53.805460 50380 image_data_layer.cpp:51] A total of 211680 images.
I0705 15:55:53.879194 50380 image_data_layer.cpp:78] output data size: 32,3,224,224
I0705 15:55:53.932601 50380 net.cpp:150] Setting up data
I0705 15:55:53.932742 50380 net.cpp:157] Top shape: 32 3 224 224 (4816896)
I0705 15:55:53.932776 50380 net.cpp:157] Top shape: 32 (32)
I0705 15:55:53.932782 50380 net.cpp:165] Memory required for data: 19267712
I0705 15:55:53.932796 50380 layer_factory.hpp:76] Creating layer conv1
I0705 15:55:53.932832 50380 net.cpp:106] Creating Layer conv1
I0705 15:55:53.932842 50380 net.cpp:454] conv1 <- data
I0705 15:55:53.932863 50380 net.cpp:411] conv1 -> conv1
I0705 15:55:54.063109 50380 net.cpp:150] Setting up conv1
I0705 15:55:54.063174 50380 net.cpp:157] Top shape: 32 64 109 109 (24332288)
I0705 15:55:54.063185 50380 net.cpp:165] Memory required for data: 116596864
I0705 15:55:54.063218 50380 layer_factory.hpp:76] Creating layer conv1_bn
I0705 15:55:54.063241 50380 net.cpp:106] Creating Layer conv1_bn
I0705 15:55:54.063254 50380 net.cpp:454] conv1_bn <- conv1
I0705 15:55:54.063266 50380 net.cpp:411] conv1_bn -> conv1_bn
I0705 15:55:54.063477 50380 net.cpp:150] Setting up conv1_bn
I0705 15:55:54.063493 50380 net.cpp:157] Top shape: 32 64 109 109 (24332288)
I0705 15:55:54.063505 50380 net.cpp:165] Memory required for data: 213926016
I0705 15:55:54.063524 50380 layer_factory.hpp:76] Creating layer conv1_relu
I0705 15:55:54.063539 50380 net.cpp:106] Creating Layer conv1_relu
I0705 15:55:54.063552 50380 net.cpp:454] conv1_relu <- conv1_bn
I0705 15:55:54.063563 50380 net.cpp:397] conv1_relu -> conv1_bn (in-place)
I0705 15:55:54.063737 50380 net.cpp:150] Setting up conv1_relu
I0705 15:55:54.063755 50380 net.cpp:157] Top shape: 32 64 109 109 (24332288)
I0705 15:55:54.063763 50380 net.cpp:165] Memory required for data: 311255168
I0705 15:55:54.063772 50380 layer_factory.hpp:76] Creating layer pool1
I0705 15:55:54.063788 50380 net.cpp:106] Creating Layer pool1
I0705 15:55:54.063797 50380 net.cpp:454] pool1 <- conv1_bn
I0705 15:55:54.063809 50380 net.cpp:411] pool1 -> pool1
I0705 15:55:54.064158 50380 net.cpp:150] Setting up pool1
I0705 15:55:54.064179 50380 net.cpp:157] Top shape: 32 64 54 54 (5971968)
I0705 15:55:54.064188 50380 net.cpp:165] Memory required for data: 335143040
I0705 15:55:54.064196 50380 layer_factory.hpp:76] Creating layer pool1_pool1_0_split
I0705 15:55:54.064210 50380 net.cpp:106] Creating Layer pool1_pool1_0_split
I0705 15:55:54.064221 50380 net.cpp:454] pool1_pool1_0_split <- pool1
I0705 15:55:54.064240 50380 net.cpp:411] pool1_pool1_0_split -> pool1_pool1_0_split_0
I0705 15:55:54.064306 50380 net.cpp:411] pool1_pool1_0_split -> pool1_pool1_0_split_1
I0705 15:55:54.064345 50380 net.cpp:150] Setting up pool1_pool1_0_split
I0705 15:55:54.064360 50380 net.cpp:157] Top shape: 32 64 54 54 (5971968)
I0705 15:55:54.064370 50380 net.cpp:157] Top shape: 32 64 54 54 (5971968)
I0705 15:55:54.064378 50380 net.cpp:165] Memory required for data: 382918784
I0705 15:55:54.064390 50380 layer_factory.hpp:76] Creating layer conv1_output
I0705 15:55:54.064412 50380 net.cpp:106] Creating Layer conv1_output
I0705 15:55:54.064451 50380 net.cpp:454] conv1_output <- pool1_pool1_0_split_0
I0705 15:55:54.064465 50380 net.cpp:411] conv1_output -> conv1_output
I0705 15:55:54.066514 50380 cudnn_conv_layer.cpp:194] Reallocating workspace storage: 768
I0705 15:55:54.066563 50380 net.cpp:150] Setting up conv1_output
I0705 15:55:54.066577 50380 net.cpp:157] Top shape: 32 256 54 54 (23887872)
I0705 15:55:54.066586 50380 net.cpp:165] Memory required for data: 478470272
I0705 15:55:54.066598 50380 layer_factory.hpp:76] Creating layer conv2_1_1
I0705 15:55:54.066617 50380 net.cpp:106] Creating Layer conv2_1_1
I0705 15:55:54.066627 50380 net.cpp:454] conv2_1_1 <- pool1_pool1_0_split_1
I0705 15:55:54.066640 50380 net.cpp:411] conv2_1_1 -> conv2_1_1
I0705 15:55:54.067760 50380 cudnn_conv_layer.cpp:194] Reallocating workspace storage: 768
I0705 15:55:54.067791 50380 net.cpp:150] Setting up conv2_1_1
I0705 15:55:54.067805 50380 net.cpp:157] Top shape: 32 64 54 54 (5971968)
I0705 15:55:54.067813 50380 net.cpp:165] Memory required for data: 502358144
I0705 15:55:54.067831 50380 layer_factory.hpp:76] Creating layer conv2_1_1_bn
I0705 15:55:54.067850 50380 net.cpp:106] Creating Layer conv2_1_1_bn
I0705 15:55:54.067875 50380 net.cpp:454] conv2_1_1_bn <- conv2_1_1
I0705 15:55:54.067885 50380 net.cpp:411] conv2_1_1_bn -> conv2_1_1_bn
I0705 15:55:54.068075 50380 net.cpp:150] Setting up conv2_1_1_bn
I0705 15:55:54.068090 50380 net.cpp:157] Top shape: 32 64 54 54 (5971968)
I0705 15:55:54.068097 50380 net.cpp:165] Memory required for data: 526246016
I0705 15:55:54.068110 50380 layer_factory.hpp:76] Creating layer conv2_1_1_relu
I0705 15:55:54.068125 50380 net.cpp:106] Creating Layer conv2_1_1_relu
I0705 15:55:54.068132 50380 net.cpp:454] conv2_1_1_relu <- conv2_1_1_bn
I0705 15:55:54.068146 50380 net.cpp:397] conv2_1_1_relu -> conv2_1_1_bn (in-place)
I0705 15:55:54.068322 50380 net.cpp:150] Setting up conv2_1_1_relu
I0705 15:55:54.068344 50380 net.cpp:157] Top shape: 32 64 54 54 (5971968)
I0705 15:55:54.068353 50380 net.cpp:165] Memory required for data: 550133888
I0705 15:55:54.068366 50380 layer_factory.hpp:76] Creating layer conv2_1_2
I0705 15:55:54.068384 50380 net.cpp:106] Creating Layer conv2_1_2
I0705 15:55:54.068393 50380 net.cpp:454] conv2_1_2 <- conv2_1_1_bn
I0705 15:55:54.068409 50380 net.cpp:411] conv2_1_2 -> conv2_1_2
I0705 15:55:54.071285 50380 net.cpp:150] Setting up conv2_1_2
I0705 15:55:54.071326 50380 net.cpp:157] Top shape: 32 64 54 54 (5971968)
I0705 15:55:54.071336 50380 net.cpp:165] Memory required for data: 574021760
I0705 15:55:54.071352 50380 layer_factory.hpp:76] Creating layer conv2_1_2_bn
I0705 15:55:54.071369 50380 net.cpp:106] Creating Layer conv2_1_2_bn
I0705 15:55:54.071378 50380 net.cpp:454] conv2_1_2_bn <- conv2_1_2
I0705 15:55:54.071389 50380 net.cpp:411] conv2_1_2_bn -> conv2_1_2_bn
I0705 15:55:54.071590 50380 net.cpp:150] Setting up conv2_1_2_bn
I0705 15:55:54.071606 50380 net.cpp:157] Top shape: 32 64 54 54 (5971968)
I0705 15:55:54.071619 50380 net.cpp:165] Memory required for data: 597909632
I0705 15:55:54.071636 50380 layer_factory.hpp:76] Creating layer conv2_1_2_relu
I0705 15:55:54.071651 50380 net.cpp:106] Creating Layer conv2_1_2_relu
I0705 15:55:54.071666 50380 net.cpp:454] conv2_1_2_relu <- conv2_1_2_bn
I0705 15:55:54.071679 50380 net.cpp:397] conv2_1_2_relu -> conv2_1_2_bn (in-place)
I0705 15:55:54.071848 50380 net.cpp:150] Setting up conv2_1_2_relu
I0705 15:55:54.071866 50380 net.cpp:157] Top shape: 32 64 54 54 (5971968)
I0705 15:55:54.071873 50380 net.cpp:165] Memory required for data: 621797504
I0705 15:55:54.071926 50380 layer_factory.hpp:76] Creating layer conv2_1_3
I0705 15:55:54.071945 50380 net.cpp:106] Creating Layer conv2_1_3
I0705 15:55:54.071960 50380 net.cpp:454] conv2_1_3 <- conv2_1_2_bn
I0705 15:55:54.071974 50380 net.cpp:411] conv2_1_3 -> conv2_1_3
I0705 15:55:54.073441 50380 cudnn_conv_layer.cpp:194] Reallocating workspace storage: 768
I0705 15:55:54.073472 50380 net.cpp:150] Setting up conv2_1_3
I0705 15:55:54.073484 50380 net.cpp:157] Top shape: 32 256 54 54 (23887872)
I0705 15:55:54.073494 50380 net.cpp:165] Memory required for data: 717348992
I0705 15:55:54.073505 50380 layer_factory.hpp:76] Creating layer conv2_1_sum
I0705 15:55:54.073529 50380 net.cpp:106] Creating Layer conv2_1_sum
I0705 15:55:54.073539 50380 net.cpp:454] conv2_1_sum <- conv1_output
I0705 15:55:54.073562 50380 net.cpp:454] conv2_1_sum <- conv2_1_3
I0705 15:55:54.073575 50380 net.cpp:411] conv2_1_sum -> conv2_1_sum
I0705 15:55:54.073616 50380 net.cpp:150] Setting up conv2_1_sum
I0705 15:55:54.073632 50380 net.cpp:157] Top shape: 32 256 54 54 (23887872)
I0705 15:55:54.073639 50380 net.cpp:165] Memory required for data: 812900480
I0705 15:55:54.073648 50380 layer_factory.hpp:76] Creating layer conv2_1_sum_bn
I0705 15:55:54.073668 50380 net.cpp:106] Creating Layer conv2_1_sum_bn
I0705 15:55:54.073684 50380 net.cpp:454] conv2_1_sum_bn <- conv2_1_sum
I0705 15:55:54.073696 50380 net.cpp:411] conv2_1_sum_bn -> conv2_1_sum_bn
I0705 15:55:54.073879 50380 net.cpp:150] Setting up conv2_1_sum_bn
I0705 15:55:54.073894 50380 net.cpp:157] Top shape: 32 256 54 54 (23887872)
I0705 15:55:54.073901 50380 net.cpp:165] Memory required for data: 908451968
I0705 15:55:54.073914 50380 layer_factory.hpp:76] Creating layer conv2_1_sum_relu
I0705 15:55:54.073930 50380 net.cpp:106] Creating Layer conv2_1_sum_relu
I0705 15:55:54.073938 50380 net.cpp:454] conv2_1_sum_relu <- conv2_1_sum_bn
I0705 15:55:54.073950 50380 net.cpp:397] conv2_1_sum_relu -> conv2_1_sum_bn (in-place)
I0705 15:55:54.074250 50380 net.cpp:150] Setting up conv2_1_sum_relu
I0705 15:55:54.074272 50380 net.cpp:157] Top shape: 32 256 54 54 (23887872)
I0705 15:55:54.074280 50380 net.cpp:165] Memory required for data: 1004003456
I0705 15:55:54.074290 50380 layer_factory.hpp:76] Creating layer conv2_1_sum_bn_conv2_1_sum_relu_0_split
I0705 15:55:54.074303 50380 net.cpp:106] Creating Layer conv2_1_sum_bn_conv2_1_sum_relu_0_split
I0705 15:55:54.074312 50380 net.cpp:454] conv2_1_sum_bn_conv2_1_sum_relu_0_split <- conv2_1_sum_bn
I0705 15:55:54.074321 50380 net.cpp:411] conv2_1_sum_bn_conv2_1_sum_relu_0_split -> conv2_1_sum_bn_conv2_1_sum_relu_0_split_0
I0705 15:55:54.074332 50380 net.cpp:411] conv2_1_sum_bn_conv2_1_sum_relu_0_split -> conv2_1_sum_bn_conv2_1_sum_relu_0_split_1
I0705 15:55:54.074383 50380 net.cpp:150] Setting up conv2_1_sum_bn_conv2_1_sum_relu_0_split
I0705 15:55:54.074394 50380 net.cpp:157] Top shape: 32 256 54 54 (23887872)
I0705 15:55:54.074404 50380 net.cpp:157] Top shape: 32 256 54 54 (23887872)
I0705 15:55:54.074414 50380 net.cpp:165] Memory required for data: 1195106432
I0705 15:55:54.074421 50380 layer_factory.hpp:76] Creating layer conv2_2_1
I0705 15:55:54.074439 50380 net.cpp:106] Creating Layer conv2_2_1
I0705 15:55:54.074447 50380 net.cpp:454] conv2_2_1 <- conv2_1_sum_bn_conv2_1_sum_relu_0_split_0
I0705 15:55:54.074460 50380 net.cpp:411] conv2_2_1 -> conv2_2_1
I0705 15:55:54.075881 50380 net.cpp:150] Setting up conv2_2_1
I0705 15:55:54.075903 50380 net.cpp:157] Top shape: 32 64 54 54 (5971968)
I0705 15:55:54.075911 50380 net.cpp:165] Memory required for data: 1218994304
I0705 15:55:54.075924 50380 layer_factory.hpp:76] Creating layer conv2_2_1_bn
I0705 15:55:54.075942 50380 net.cpp:106] Creating Layer conv2_2_1_bn
I0705 15:55:54.075949 50380 net.cpp:454] conv2_2_1_bn <- conv2_2_1
I0705 15:55:54.075961 50380 net.cpp:411] conv2_2_1_bn -> conv2_2_1_bn
I0705 15:55:54.076155 50380 net.cpp:150] Setting up conv2_2_1_bn
I0705 15:55:54.076170 50380 net.cpp:157] Top shape: 32 64 54 54 (5971968)
I0705 15:55:54.076177 50380 net.cpp:165] Memory required for data: 1242882176
I0705 15:55:54.076244 50380 layer_factory.hpp:76] Creating layer conv2_2_1_relu
I0705 15:55:54.076259 50380 net.cpp:106] Creating Layer conv2_2_1_relu
I0705 15:55:54.076268 50380 net.cpp:454] conv2_2_1_relu <- conv2_2_1_bn
I0705 15:55:54.076279 50380 net.cpp:397] conv2_2_1_relu -> conv2_2_1_bn (in-place)
I0705 15:55:54.076484 50380 net.cpp:150] Setting up conv2_2_1_relu
I0705 15:55:54.076503 50380 net.cpp:157] Top shape: 32 64 54 54 (5971968)
I0705 15:55:54.076511 50380 net.cpp:165] Memory required for data: 1266770048
I0705 15:55:54.076534 50380 layer_factory.hpp:76] Creating layer conv2_2_2
I0705 15:55:54.076553 50380 net.cpp:106] Creating Layer conv2_2_2
I0705 15:55:54.076565 50380 net.cpp:454] conv2_2_2 <- conv2_2_1_bn
I0705 15:55:54.076576 50380 net.cpp:411] conv2_2_2 -> conv2_2_2
I0705 15:55:54.078666 50380 net.cpp:150] Setting up conv2_2_2
I0705 15:55:54.078703 50380 net.cpp:157] Top shape: 32 64 54 54 (5971968)
I0705 15:55:54.078711 50380 net.cpp:165] Memory required for data: 1290657920
I0705 15:55:54.078724 50380 layer_factory.hpp:76] Creating layer conv2_2_2_bn
I0705 15:55:54.078738 50380 net.cpp:106] Creating Layer conv2_2_2_bn
I0705 15:55:54.078747 50380 net.cpp:454] conv2_2_2_bn <- conv2_2_2
I0705 15:55:54.078759 50380 net.cpp:411] conv2_2_2_bn -> conv2_2_2_bn
I0705 15:55:54.078953 50380 net.cpp:150] Setting up conv2_2_2_bn
I0705 15:55:54.078969 50380 net.cpp:157] Top shape: 32 64 54 54 (5971968)
I0705 15:55:54.078975 50380 net.cpp:165] Memory required for data: 1314545792
I0705 15:55:54.078987 50380 layer_factory.hpp:76] Creating layer conv2_2_2_relu
I0705 15:55:54.078999 50380 net.cpp:106] Creating Layer conv2_2_2_relu
I0705 15:55:54.079008 50380 net.cpp:454] conv2_2_2_relu <- conv2_2_2_bn
I0705 15:55:54.079020 50380 net.cpp:397] conv2_2_2_relu -> conv2_2_2_bn (in-place)
I0705 15:55:54.079186 50380 net.cpp:150] Setting up conv2_2_2_relu
I0705 15:55:54.079205 50380 net.cpp:157] Top shape: 32 64 54 54 (5971968)
I0705 15:55:54.079213 50380 net.cpp:165] Memory required for data: 1338433664
I0705 15:55:54.079231 50380 layer_factory.hpp:76] Creating layer conv2_2_3
I0705 15:55:54.079252 50380 net.cpp:106] Creating Layer conv2_2_3
I0705 15:55:54.079259 50380 net.cpp:454] conv2_2_3 <- conv2_2_2_bn
I0705 15:55:54.079272 50380 net.cpp:411] conv2_2_3 -> conv2_2_3
I0705 15:55:54.080931 50380 cudnn_conv_layer.cpp:194] Reallocating workspace storage: 768
I0705 15:55:54.080965 50380 net.cpp:150] Setting up conv2_2_3
I0705 15:55:54.080981 50380 net.cpp:157] Top shape: 32 256 54 54 (23887872)
I0705 15:55:54.080989 50380 net.cpp:165] Memory required for data: 1433985152
I0705 15:55:54.081008 50380 layer_factory.hpp:76] Creating layer conv2_2_sum
I0705 15:55:54.081027 50380 net.cpp:106] Creating Layer conv2_2_sum
I0705 15:55:54.081039 50380 net.cpp:454] conv2_2_sum <- conv2_1_sum_bn_conv2_1_sum_relu_0_split_1
I0705 15:55:54.081051 50380 net.cpp:454] conv2_2_sum <- conv2_2_3
I0705 15:55:54.081061 50380 net.cpp:411] conv2_2_sum -> conv2_2_sum
I0705 15:55:54.081095 50380 net.cpp:150] Setting up conv2_2_sum
I0705 15:55:54.081111 50380 net.cpp:157] Top shape: 32 256 54 54 (23887872)
I0705 15:55:54.081120 50380 net.cpp:165] Memory required for data: 1529536640
I0705 15:55:54.081130 50380 layer_factory.hpp:76] Creating layer conv2_2_sum_bn
I0705 15:55:54.081154 50380 net.cpp:106] Creating Layer conv2_2_sum_bn
I0705 15:55:54.081171 50380 net.cpp:454] conv2_2_sum_bn <- conv2_2_sum
I0705 15:55:54.081182 50380 net.cpp:411] conv2_2_sum_bn -> conv2_2_sum_bn
I0705 15:55:54.081367 50380 net.cpp:150] Setting up conv2_2_sum_bn
I0705 15:55:54.081382 50380 net.cpp:157] Top shape: 32 256 54 54 (23887872)
I0705 15:55:54.081389 50380 net.cpp:165] Memory required for data: 1625088128
I0705 15:55:54.081401 50380 layer_factory.hpp:76] Creating layer conv2_2_sum_relu
I0705 15:55:54.081416 50380 net.cpp:106] Creating Layer conv2_2_sum_relu
I0705 15:55:54.081424 50380 net.cpp:454] conv2_2_sum_relu <- conv2_2_sum_bn
I0705 15:55:54.081437 50380 net.cpp:397] conv2_2_sum_relu -> conv2_2_sum_bn (in-place)
I0705 15:55:54.081823 50380 net.cpp:150] Setting up conv2_2_sum_relu
I0705 15:55:54.081846 50380 net.cpp:157] Top shape: 32 256 54 54 (23887872)
I0705 15:55:54.081854 50380 net.cpp:165] Memory required for data: 1720639616
I0705 15:55:54.081863 50380 layer_factory.hpp:76] Creating layer conv2_2_sum_bn_conv2_2_sum_relu_0_split
I0705 15:55:54.081877 50380 net.cpp:106] Creating Layer conv2_2_sum_bn_conv2_2_sum_relu_0_split
I0705 15:55:54.081895 50380 net.cpp:454] conv2_2_sum_bn_conv2_2_sum_relu_0_split <- conv2_2_sum_bn
I0705 15:55:54.081907 50380 net.cpp:411] conv2_2_sum_bn_conv2_2_sum_relu_0_split -> conv2_2_sum_bn_conv2_2_sum_relu_0_split_0
I0705 15:55:54.081924 50380 net.cpp:411] conv2_2_sum_bn_conv2_2_sum_relu_0_split -> conv2_2_sum_bn_conv2_2_sum_relu_0_split_1
I0705 15:55:54.081974 50380 net.cpp:150] Setting up conv2_2_sum_bn_conv2_2_sum_relu_0_split
I0705 15:55:54.081987 50380 net.cpp:157] Top shape: 32 256 54 54 (23887872)
I0705 15:55:54.081997 50380 net.cpp:157] Top shape: 32 256 54 54 (23887872)
I0705 15:55:54.082008 50380 net.cpp:165] Memory required for data: 1911742592
I0705 15:55:54.082021 50380 layer_factory.hpp:76] Creating layer conv2_output
I0705 15:55:54.082037 50380 net.cpp:106] Creating Layer conv2_output
I0705 15:55:54.082047 50380 net.cpp:454] conv2_output <- conv2_2_sum_bn_conv2_2_sum_relu_0_split_0
I0705 15:55:54.082058 50380 net.cpp:411] conv2_output -> conv2_output
I0705 15:55:54.088646 50380 cudnn_conv_layer.cpp:194] Reallocating workspace storage: 3072
I0705 15:55:54.088891 50380 net.cpp:150] Setting up conv2_output
I0705 15:55:54.088917 50380 net.cpp:157] Top shape: 32 512 27 27 (11943936)
I0705 15:55:54.088927 50380 net.cpp:165] Memory required for data: 1959518336
I0705 15:55:54.088946 50380 layer_factory.hpp:76] Creating layer conv3_1_1
I0705 15:55:54.088971 50380 net.cpp:106] Creating Layer conv3_1_1
I0705 15:55:54.088986 50380 net.cpp:454] conv3_1_1 <- conv2_2_sum_bn_conv2_2_sum_relu_0_split_1
I0705 15:55:54.089005 50380 net.cpp:411] conv3_1_1 -> conv3_1_1
I0705 15:55:54.090845 50380 cudnn_conv_layer.cpp:194] Reallocating workspace storage: 3072
I0705 15:55:54.090879 50380 net.cpp:150] Setting up conv3_1_1
I0705 15:55:54.090896 50380 net.cpp:157] Top shape: 32 128 27 27 (2985984)
I0705 15:55:54.090909 50380 net.cpp:165] Memory required for data: 1971462272
I0705 15:55:54.090924 50380 layer_factory.hpp:76] Creating layer conv3_1_1_bn
I0705 15:55:54.090941 50380 net.cpp:106] Creating Layer conv3_1_1_bn
I0705 15:55:54.090956 50380 net.cpp:454] conv3_1_1_bn <- conv3_1_1
I0705 15:55:54.090973 50380 net.cpp:411] conv3_1_1_bn -> conv3_1_1_bn
I0705 15:55:54.091171 50380 net.cpp:150] Setting up conv3_1_1_bn
I0705 15:55:54.091186 50380 net.cpp:157] Top shape: 32 128 27 27 (2985984)
I0705 15:55:54.091193 50380 net.cpp:165] Memory required for data: 1983406208
I0705 15:55:54.091209 50380 layer_factory.hpp:76] Creating layer conv3_1_1_relu
I0705 15:55:54.091231 50380 net.cpp:106] Creating Layer conv3_1_1_relu
I0705 15:55:54.091240 50380 net.cpp:454] conv3_1_1_relu <- conv3_1_1_bn
I0705 15:55:54.091250 50380 net.cpp:397] conv3_1_1_relu -> conv3_1_1_bn (in-place)
I0705 15:55:54.091558 50380 net.cpp:150] Setting up conv3_1_1_relu
I0705 15:55:54.091581 50380 net.cpp:157] Top shape: 32 128 27 27 (2985984)
I0705 15:55:54.091590 50380 net.cpp:165] Memory required for data: 1995350144
I0705 15:55:54.091599 50380 layer_factory.hpp:76] Creating layer conv3_1_2
I0705 15:55:54.091629 50380 net.cpp:106] Creating Layer conv3_1_2
I0705 15:55:54.091639 50380 net.cpp:454] conv3_1_2 <- conv3_1_1_bn
I0705 15:55:54.091655 50380 net.cpp:411] conv3_1_2 -> conv3_1_2
I0705 15:55:54.097882 50380 cudnn_conv_layer.cpp:194] Reallocating workspace storage: 13824
I0705 15:55:54.098158 50380 net.cpp:150] Setting up conv3_1_2
I0705 15:55:54.098183 50380 net.cpp:157] Top shape: 32 128 27 27 (2985984)
I0705 15:55:54.098194 50380 net.cpp:165] Memory required for data: 2007294080
I0705 15:55:54.098215 50380 layer_factory.hpp:76] Creating layer conv3_1_2_bn
I0705 15:55:54.098243 50380 net.cpp:106] Creating Layer conv3_1_2_bn
I0705 15:55:54.098258 50380 net.cpp:454] conv3_1_2_bn <- conv3_1_2
I0705 15:55:54.098315 50380 net.cpp:411] conv3_1_2_bn -> conv3_1_2_bn
I0705 15:55:54.098529 50380 net.cpp:150] Setting up conv3_1_2_bn
I0705 15:55:54.098554 50380 net.cpp:157] Top shape: 32 128 27 27 (2985984)
I0705 15:55:54.098564 50380 net.cpp:165] Memory required for data: 2019238016
I0705 15:55:54.098579 50380 layer_factory.hpp:76] Creating layer conv3_1_2_relu
I0705 15:55:54.098605 50380 net.cpp:106] Creating Layer conv3_1_2_relu
I0705 15:55:54.098613 50380 net.cpp:454] conv3_1_2_relu <- conv3_1_2_bn
I0705 15:55:54.098623 50380 net.cpp:397] conv3_1_2_relu -> conv3_1_2_bn (in-place)
I0705 15:55:54.098810 50380 net.cpp:150] Setting up conv3_1_2_relu
I0705 15:55:54.098829 50380 net.cpp:157] Top shape: 32 128 27 27 (2985984)
I0705 15:55:54.098837 50380 net.cpp:165] Memory required for data: 2031181952
I0705 15:55:54.098848 50380 layer_factory.hpp:76] Creating layer conv3_1_3
I0705 15:55:54.098870 50380 net.cpp:106] Creating Layer conv3_1_3
I0705 15:55:54.098881 50380 net.cpp:454] conv3_1_3 <- conv3_1_2_bn
I0705 15:55:54.098892 50380 net.cpp:411] conv3_1_3 -> conv3_1_3
I0705 15:55:54.101924 50380 cudnn_conv_layer.cpp:194] Reallocating workspace storage: 1536
I0705 15:55:54.101982 50380 net.cpp:150] Setting up conv3_1_3
I0705 15:55:54.102000 50380 net.cpp:157] Top shape: 32 512 27 27 (11943936)
I0705 15:55:54.102010 50380 net.cpp:165] Memory required for data: 2078957696
I0705 15:55:54.102027 50380 layer_factory.hpp:76] Creating layer conv3_1_sum
I0705 15:55:54.102047 50380 net.cpp:106] Creating Layer conv3_1_sum
I0705 15:55:54.102057 50380 net.cpp:454] conv3_1_sum <- conv2_output
I0705 15:55:54.102072 50380 net.cpp:454] conv3_1_sum <- conv3_1_3
I0705 15:55:54.102098 50380 net.cpp:411] conv3_1_sum -> conv3_1_sum
I0705 15:55:54.102149 50380 net.cpp:150] Setting up conv3_1_sum
I0705 15:55:54.102167 50380 net.cpp:157] Top shape: 32 512 27 27 (11943936)
I0705 15:55:54.102176 50380 net.cpp:165] Memory required for data: 2126733440
I0705 15:55:54.102186 50380 layer_factory.hpp:76] Creating layer conv3_1_sum_bn
I0705 15:55:54.102205 50380 net.cpp:106] Creating Layer conv3_1_sum_bn
I0705 15:55:54.102221 50380 net.cpp:454] conv3_1_sum_bn <- conv3_1_sum
I0705 15:55:54.102233 50380 net.cpp:411] conv3_1_sum_bn -> conv3_1_sum_bn
I0705 15:55:54.102435 50380 net.cpp:150] Setting up conv3_1_sum_bn
I0705 15:55:54.102454 50380 net.cpp:157] Top shape: 32 512 27 27 (11943936)
I0705 15:55:54.102468 50380 net.cpp:165] Memory required for data: 2174509184
I0705 15:55:54.102485 50380 layer_factory.hpp:76] Creating layer conv3_1_sum_relu
I0705 15:55:54.102514 50380 net.cpp:106] Creating Layer conv3_1_sum_relu
I0705 15:55:54.102522 50380 net.cpp:454] conv3_1_sum_relu <- conv3_1_sum_bn
I0705 15:55:54.102532 50380 net.cpp:397] conv3_1_sum_relu -> conv3_1_sum_bn (in-place)
I0705 15:55:54.102931 50380 net.cpp:150] Setting up conv3_1_sum_relu
I0705 15:55:54.102957 50380 net.cpp:157] Top shape: 32 512 27 27 (11943936)
I0705 15:55:54.102975 50380 net.cpp:165] Memory required for data: 2222284928
I0705 15:55:54.102988 50380 layer_factory.hpp:76] Creating layer conv3_1_sum_bn_conv3_1_sum_relu_0_split
I0705 15:55:54.103001 50380 net.cpp:106] Creating Layer conv3_1_sum_bn_conv3_1_sum_relu_0_split
I0705 15:55:54.103011 50380 net.cpp:454] conv3_1_sum_bn_conv3_1_sum_relu_0_split <- conv3_1_sum_bn
I0705 15:55:54.103021 50380 net.cpp:411] conv3_1_sum_bn_conv3_1_sum_relu_0_split -> conv3_1_sum_bn_conv3_1_sum_relu_0_split_0
I0705 15:55:54.103049 50380 net.cpp:411] conv3_1_sum_bn_conv3_1_sum_relu_0_split -> conv3_1_sum_bn_conv3_1_sum_relu_0_split_1
I0705 15:55:54.103106 50380 net.cpp:150] Setting up conv3_1_sum_bn_conv3_1_sum_relu_0_split
I0705 15:55:54.103122 50380 net.cpp:157] Top shape: 32 512 27 27 (11943936)
I0705 15:55:54.103132 50380 net.cpp:157] Top shape: 32 512 27 27 (11943936)
I0705 15:55:54.103149 50380 net.cpp:165] Memory required for data: 2317836416
I0705 15:55:54.103158 50380 layer_factory.hpp:76] Creating layer conv3_2_1
I0705 15:55:54.103188 50380 net.cpp:106] Creating Layer conv3_2_1
I0705 15:55:54.103199 50380 net.cpp:454] conv3_2_1 <- conv3_1_sum_bn_conv3_1_sum_relu_0_split_0
I0705 15:55:54.103266 50380 net.cpp:411] conv3_2_1 -> conv3_2_1
I0705 15:55:54.106215 50380 cudnn_conv_layer.cpp:194] Reallocating workspace storage: 6144
I0705 15:55:54.106250 50380 net.cpp:150] Setting up conv3_2_1
I0705 15:55:54.106262 50380 net.cpp:157] Top shape: 32 128 27 27 (2985984)
I0705 15:55:54.106271 50380 net.cpp:165] Memory required for data: 2329780352
I0705 15:55:54.106286 50380 layer_factory.hpp:76] Creating layer conv3_2_1_bn
I0705 15:55:54.106300 50380 net.cpp:106] Creating Layer conv3_2_1_bn
I0705 15:55:54.106312 50380 net.cpp:454] conv3_2_1_bn <- conv3_2_1
I0705 15:55:54.106322 50380 net.cpp:411] conv3_2_1_bn -> conv3_2_1_bn
I0705 15:55:54.106530 50380 net.cpp:150] Setting up conv3_2_1_bn
I0705 15:55:54.106557 50380 net.cpp:157] Top shape: 32 128 27 27 (2985984)
I0705 15:55:54.106566 50380 net.cpp:165] Memory required for data: 2341724288
I0705 15:55:54.106590 50380 layer_factory.hpp:76] Creating layer conv3_2_1_relu
I0705 15:55:54.106613 50380 net.cpp:106] Creating Layer conv3_2_1_relu
I0705 15:55:54.106637 50380 net.cpp:454] conv3_2_1_relu <- conv3_2_1_bn
I0705 15:55:54.106647 50380 net.cpp:397] conv3_2_1_relu -> conv3_2_1_bn (in-place)
I0705 15:55:54.107034 50380 net.cpp:150] Setting up conv3_2_1_relu
I0705 15:55:54.107053 50380 net.cpp:157] Top shape: 32 128 27 27 (2985984)
I0705 15:55:54.107069 50380 net.cpp:165] Memory required for data: 2353668224
I0705 15:55:54.107086 50380 layer_factory.hpp:76] Creating layer conv3_2_2
I0705 15:55:54.107113 50380 net.cpp:106] Creating Layer conv3_2_2
I0705 15:55:54.107123 50380 net.cpp:454] conv3_2_2 <- conv3_2_1_bn
I0705 15:55:54.107134 50380 net.cpp:411] conv3_2_2 -> conv3_2_2
I0705 15:55:54.113430 50380 cudnn_conv_layer.cpp:194] Reallocating workspace storage: 13824
I0705 15:55:54.113482 50380 net.cpp:150] Setting up conv3_2_2
I0705 15:55:54.113497 50380 net.cpp:157] Top shape: 32 128 27 27 (2985984)
I0705 15:55:54.113507 50380 net.cpp:165] Memory required for data: 2365612160
I0705 15:55:54.113538 50380 layer_factory.hpp:76] Creating layer conv3_2_2_bn
I0705 15:55:54.113554 50380 net.cpp:106] Creating Layer conv3_2_2_bn
I0705 15:55:54.113569 50380 net.cpp:454] conv3_2_2_bn <- conv3_2_2
I0705 15:55:54.113584 50380 net.cpp:411] conv3_2_2_bn -> conv3_2_2_bn
I0705 15:55:54.113778 50380 net.cpp:150] Setting up conv3_2_2_bn
I0705 15:55:54.113792 50380 net.cpp:157] Top shape: 32 128 27 27 (2985984)
I0705 15:55:54.113801 50380 net.cpp:165] Memory required for data: 2377556096
I0705 15:55:54.113812 50380 layer_factory.hpp:76] Creating layer conv3_2_2_relu
I0705 15:55:54.113829 50380 net.cpp:106] Creating Layer conv3_2_2_relu
I0705 15:55:54.113838 50380 net.cpp:454] conv3_2_2_relu <- conv3_2_2_bn
I0705 15:55:54.113847 50380 net.cpp:397] conv3_2_2_relu -> conv3_2_2_bn (in-place)
I0705 15:55:54.114015 50380 net.cpp:150] Setting up conv3_2_2_relu
I0705 15:55:54.114032 50380 net.cpp:157] Top shape: 32 128 27 27 (2985984)
I0705 15:55:54.114039 50380 net.cpp:165] Memory required for data: 2389500032
I0705 15:55:54.114051 50380 layer_factory.hpp:76] Creating layer conv3_2_3
I0705 15:55:54.114068 50380 net.cpp:106] Creating Layer conv3_2_3
I0705 15:55:54.114076 50380 net.cpp:454] conv3_2_3 <- conv3_2_2_bn
I0705 15:55:54.114089 50380 net.cpp:411] conv3_2_3 -> conv3_2_3
I0705 15:55:54.117768 50380 cudnn_conv_layer.cpp:194] Reallocating workspace storage: 1536
I0705 15:55:54.117828 50380 net.cpp:150] Setting up conv3_2_3
I0705 15:55:54.117846 50380 net.cpp:157] Top shape: 32 512 27 27 (11943936)
I0705 15:55:54.117856 50380 net.cpp:165] Memory required for data: 2437275776
I0705 15:55:54.117888 50380 layer_factory.hpp:76] Creating layer conv3_2_sum
I0705 15:55:54.117904 50380 net.cpp:106] Creating Layer conv3_2_sum
I0705 15:55:54.117915 50380 net.cpp:454] conv3_2_sum <- conv3_1_sum_bn_conv3_1_sum_relu_0_split_1
I0705 15:55:54.117925 50380 net.cpp:454] conv3_2_sum <- conv3_2_3
I0705 15:55:54.117936 50380 net.cpp:411] conv3_2_sum -> conv3_2_sum
I0705 15:55:54.117972 50380 net.cpp:150] Setting up conv3_2_sum
I0705 15:55:54.118022 50380 net.cpp:157] Top shape: 32 512 27 27 (11943936)
I0705 15:55:54.118031 50380 net.cpp:165] Memory required for data: 2485051520
I0705 15:55:54.118038 50380 layer_factory.hpp:76] Creating layer conv3_2_sum_bn
I0705 15:55:54.118053 50380 net.cpp:106] Creating Layer conv3_2_sum_bn
I0705 15:55:54.118063 50380 net.cpp:454] conv3_2_sum_bn <- conv3_2_sum
I0705 15:55:54.118072 50380 net.cpp:411] conv3_2_sum_bn -> conv3_2_sum_bn
I0705 15:55:54.118265 50380 net.cpp:150] Setting up conv3_2_sum_bn
I0705 15:55:54.118279 50380 net.cpp:157] Top shape: 32 512 27 27 (11943936)
I0705 15:55:54.118288 50380 net.cpp:165] Memory required for data: 2532827264
I0705 15:55:54.118299 50380 layer_factory.hpp:76] Creating layer conv3_2_sum_relu
I0705 15:55:54.118314 50380 net.cpp:106] Creating Layer conv3_2_sum_relu
I0705 15:55:54.118327 50380 net.cpp:454] conv3_2_sum_relu <- conv3_2_sum_bn
I0705 15:55:54.118336 50380 net.cpp:397] conv3_2_sum_relu -> conv3_2_sum_bn (in-place)
I0705 15:55:54.118654 50380 net.cpp:150] Setting up conv3_2_sum_relu
I0705 15:55:54.118674 50380 net.cpp:157] Top shape: 32 512 27 27 (11943936)
I0705 15:55:54.118686 50380 net.cpp:165] Memory required for data: 2580603008
I0705 15:55:54.118696 50380 layer_factory.hpp:76] Creating layer conv3_2_sum_bn_conv3_2_sum_relu_0_split
I0705 15:55:54.118711 50380 net.cpp:106] Creating Layer conv3_2_sum_bn_conv3_2_sum_relu_0_split
I0705 15:55:54.118719 50380 net.cpp:454] conv3_2_sum_bn_conv3_2_sum_relu_0_split <- conv3_2_sum_bn
I0705 15:55:54.118728 50380 net.cpp:411] conv3_2_sum_bn_conv3_2_sum_relu_0_split -> conv3_2_sum_bn_conv3_2_sum_relu_0_split_0
I0705 15:55:54.118744 50380 net.cpp:411] conv3_2_sum_bn_conv3_2_sum_relu_0_split -> conv3_2_sum_bn_conv3_2_sum_relu_0_split_1
I0705 15:55:54.118798 50380 net.cpp:150] Setting up conv3_2_sum_bn_conv3_2_sum_relu_0_split
I0705 15:55:54.118809 50380 net.cpp:157] Top shape: 32 512 27 27 (11943936)
I0705 15:55:54.118818 50380 net.cpp:157] Top shape: 32 512 27 27 (11943936)
I0705 15:55:54.118826 50380 net.cpp:165] Memory required for data: 2676154496
I0705 15:55:54.118834 50380 layer_factory.hpp:76] Creating layer conv3_output
I0705 15:55:54.118850 50380 net.cpp:106] Creating Layer conv3_output
I0705 15:55:54.118859 50380 net.cpp:454] conv3_output <- conv3_2_sum_bn_conv3_2_sum_relu_0_split_0
I0705 15:55:54.118870 50380 net.cpp:411] conv3_output -> conv3_output
I0705 15:55:54.137070 50380 cudnn_conv_layer.cpp:194] Reallocating workspace storage: 6144
I0705 15:55:54.137138 50380 net.cpp:150] Setting up conv3_output
I0705 15:55:54.137154 50380 net.cpp:157] Top shape: 32 1024 14 14 (6422528)
I0705 15:55:54.137168 50380 net.cpp:165] Memory required for data: 2701844608
I0705 15:55:54.137183 50380 layer_factory.hpp:76] Creating layer conv4_1_1
I0705 15:55:54.137204 50380 net.cpp:106] Creating Layer conv4_1_1
I0705 15:55:54.137218 50380 net.cpp:454] conv4_1_1 <- conv3_2_sum_bn_conv3_2_sum_relu_0_split_1
I0705 15:55:54.137231 50380 net.cpp:411] conv4_1_1 -> conv4_1_1
I0705 15:55:54.142856 50380 cudnn_conv_layer.cpp:194] Reallocating workspace storage: 6144
I0705 15:55:54.142905 50380 net.cpp:150] Setting up conv4_1_1
I0705 15:55:54.142920 50380 net.cpp:157] Top shape: 32 256 14 14 (1605632)
I0705 15:55:54.142930 50380 net.cpp:165] Memory required for data: 2708267136
I0705 15:55:54.142942 50380 layer_factory.hpp:76] Creating layer conv4_1_1_bn
I0705 15:55:54.142959 50380 net.cpp:106] Creating Layer conv4_1_1_bn
I0705 15:55:54.142971 50380 net.cpp:454] conv4_1_1_bn <- conv4_1_1
I0705 15:55:54.142982 50380 net.cpp:411] conv4_1_1_bn -> conv4_1_1_bn
I0705 15:55:54.143188 50380 net.cpp:150] Setting up conv4_1_1_bn
I0705 15:55:54.143203 50380 net.cpp:157] Top shape: 32 256 14 14 (1605632)
I0705 15:55:54.143209 50380 net.cpp:165] Memory required for data: 2714689664
I0705 15:55:54.143223 50380 layer_factory.hpp:76] Creating layer conv4_1_1_relu
I0705 15:55:54.143236 50380 net.cpp:106] Creating Layer conv4_1_1_relu
I0705 15:55:54.143244 50380 net.cpp:454] conv4_1_1_relu <- conv4_1_1_bn
I0705 15:55:54.143259 50380 net.cpp:397] conv4_1_1_relu -> conv4_1_1_bn (in-place)
I0705 15:55:54.143587 50380 net.cpp:150] Setting up conv4_1_1_relu
I0705 15:55:54.143610 50380 net.cpp:157] Top shape: 32 256 14 14 (1605632)
I0705 15:55:54.143617 50380 net.cpp:165] Memory required for data: 2721112192
I0705 15:55:54.143625 50380 layer_factory.hpp:76] Creating layer conv4_1_2
I0705 15:55:54.143642 50380 net.cpp:106] Creating Layer conv4_1_2
I0705 15:55:54.143651 50380 net.cpp:454] conv4_1_2 <- conv4_1_1_bn
I0705 15:55:54.143661 50380 net.cpp:411] conv4_1_2 -> conv4_1_2
I0705 15:55:54.163393 50380 net.cpp:150] Setting up conv4_1_2
I0705 15:55:54.163432 50380 net.cpp:157] Top shape: 32 256 14 14 (1605632)
I0705 15:55:54.163442 50380 net.cpp:165] Memory required for data: 2727534720
I0705 15:55:54.163456 50380 layer_factory.hpp:76] Creating layer conv4_1_2_bn
I0705 15:55:54.163475 50380 net.cpp:106] Creating Layer conv4_1_2_bn
I0705 15:55:54.163486 50380 net.cpp:454] conv4_1_2_bn <- conv4_1_2
I0705 15:55:54.163496 50380 net.cpp:411] conv4_1_2_bn -> conv4_1_2_bn
I0705 15:55:54.163702 50380 net.cpp:150] Setting up conv4_1_2_bn
I0705 15:55:54.163714 50380 net.cpp:157] Top shape: 32 256 14 14 (1605632)
I0705 15:55:54.163722 50380 net.cpp:165] Memory required for data: 2733957248
I0705 15:55:54.163735 50380 layer_factory.hpp:76] Creating layer conv4_1_2_relu
I0705 15:55:54.163748 50380 net.cpp:106] Creating Layer conv4_1_2_relu
I0705 15:55:54.163755 50380 net.cpp:454] conv4_1_2_relu <- conv4_1_2_bn
I0705 15:55:54.163765 50380 net.cpp:397] conv4_1_2_relu -> conv4_1_2_bn (in-place)
I0705 15:55:54.164063 50380 net.cpp:150] Setting up conv4_1_2_relu
I0705 15:55:54.164082 50380 net.cpp:157] Top shape: 32 256 14 14 (1605632)
I0705 15:55:54.164089 50380 net.cpp:165] Memory required for data: 2740379776
I0705 15:55:54.164098 50380 layer_factory.hpp:76] Creating layer conv4_1_3
I0705 15:55:54.164118 50380 net.cpp:106] Creating Layer conv4_1_3
I0705 15:55:54.164125 50380 net.cpp:454] conv4_1_3 <- conv4_1_2_bn
I0705 15:55:54.164141 50380 net.cpp:411] conv4_1_3 -> conv4_1_3
I0705 15:55:54.173523 50380 cudnn_conv_layer.cpp:194] Reallocating workspace storage: 3072
I0705 15:55:54.173559 50380 net.cpp:150] Setting up conv4_1_3
I0705 15:55:54.173571 50380 net.cpp:157] Top shape: 32 1024 14 14 (6422528)
I0705 15:55:54.173584 50380 net.cpp:165] Memory required for data: 2766069888
I0705 15:55:54.173599 50380 layer_factory.hpp:76] Creating layer conv4_1_sum
I0705 15:55:54.173611 50380 net.cpp:106] Creating Layer conv4_1_sum
I0705 15:55:54.173624 50380 net.cpp:454] conv4_1_sum <- conv3_output
I0705 15:55:54.173634 50380 net.cpp:454] conv4_1_sum <- conv4_1_3
I0705 15:55:54.173643 50380 net.cpp:411] conv4_1_sum -> conv4_1_sum
I0705 15:55:54.173681 50380 net.cpp:150] Setting up conv4_1_sum
I0705 15:55:54.173698 50380 net.cpp:157] Top shape: 32 1024 14 14 (6422528)
I0705 15:55:54.173707 50380 net.cpp:165] Memory required for data: 2791760000
I0705 15:55:54.173714 50380 layer_factory.hpp:76] Creating layer conv4_1_sum_bn
I0705 15:55:54.173728 50380 net.cpp:106] Creating Layer conv4_1_sum_bn
I0705 15:55:54.173738 50380 net.cpp:454] conv4_1_sum_bn <- conv4_1_sum
I0705 15:55:54.173749 50380 net.cpp:411] conv4_1_sum_bn -> conv4_1_sum_bn
I0705 15:55:54.173949 50380 net.cpp:150] Setting up conv4_1_sum_bn
I0705 15:55:54.173964 50380 net.cpp:157] Top shape: 32 1024 14 14 (6422528)
I0705 15:55:54.173971 50380 net.cpp:165] Memory required for data: 2817450112
I0705 15:55:54.173984 50380 layer_factory.hpp:76] Creating layer conv4_1_sum_relu
I0705 15:55:54.173995 50380 net.cpp:106] Creating Layer conv4_1_sum_relu
I0705 15:55:54.174003 50380 net.cpp:454] conv4_1_sum_relu <- conv4_1_sum_bn
I0705 15:55:54.174015 50380 net.cpp:397] conv4_1_sum_relu -> conv4_1_sum_bn (in-place)
I0705 15:55:54.174190 50380 net.cpp:150] Setting up conv4_1_sum_relu
I0705 15:55:54.174207 50380 net.cpp:157] Top shape: 32 1024 14 14 (6422528)
I0705 15:55:54.174218 50380 net.cpp:165] Memory required for data: 2843140224
I0705 15:55:54.174226 50380 layer_factory.hpp:76] Creating layer conv4_1_sum_bn_conv4_1_sum_relu_0_split
I0705 15:55:54.174278 50380 net.cpp:106] Creating Layer conv4_1_sum_bn_conv4_1_sum_relu_0_split
I0705 15:55:54.174286 50380 net.cpp:454] conv4_1_sum_bn_conv4_1_sum_relu_0_split <- conv4_1_sum_bn
I0705 15:55:54.174299 50380 net.cpp:411] conv4_1_sum_bn_conv4_1_sum_relu_0_split -> conv4_1_sum_bn_conv4_1_sum_relu_0_split_0
I0705 15:55:54.174310 50380 net.cpp:411] conv4_1_sum_bn_conv4_1_sum_relu_0_split -> conv4_1_sum_bn_conv4_1_sum_relu_0_split_1
I0705 15:55:54.174360 50380 net.cpp:150] Setting up conv4_1_sum_bn_conv4_1_sum_relu_0_split
I0705 15:55:54.174376 50380 net.cpp:157] Top shape: 32 1024 14 14 (6422528)
I0705 15:55:54.174384 50380 net.cpp:157] Top shape: 32 1024 14 14 (6422528)
I0705 15:55:54.174396 50380 net.cpp:165] Memory required for data: 2894520448
I0705 15:55:54.174404 50380 layer_factory.hpp:76] Creating layer conv4_2_1
I0705 15:55:54.174429 50380 net.cpp:106] Creating Layer conv4_2_1
I0705 15:55:54.174451 50380 net.cpp:454] conv4_2_1 <- conv4_1_sum_bn_conv4_1_sum_relu_0_split_0
I0705 15:55:54.174463 50380 net.cpp:411] conv4_2_1 -> conv4_2_1
I0705 15:55:54.183655 50380 cudnn_conv_layer.cpp:194] Reallocating workspace storage: 12288
I0705 15:55:54.183688 50380 net.cpp:150] Setting up conv4_2_1
I0705 15:55:54.183701 50380 net.cpp:157] Top shape: 32 256 14 14 (1605632)
I0705 15:55:54.183709 50380 net.cpp:165] Memory required for data: 2900942976
I0705 15:55:54.183719 50380 layer_factory.hpp:76] Creating layer conv4_2_1_bn
I0705 15:55:54.183733 50380 net.cpp:106] Creating Layer conv4_2_1_bn
I0705 15:55:54.183742 50380 net.cpp:454] conv4_2_1_bn <- conv4_2_1
I0705 15:55:54.183756 50380 net.cpp:411] conv4_2_1_bn -> conv4_2_1_bn
I0705 15:55:54.183951 50380 net.cpp:150] Setting up conv4_2_1_bn
I0705 15:55:54.183965 50380 net.cpp:157] Top shape: 32 256 14 14 (1605632)
I0705 15:55:54.183976 50380 net.cpp:165] Memory required for data: 2907365504
I0705 15:55:54.183987 50380 layer_factory.hpp:76] Creating layer conv4_2_1_relu
I0705 15:55:54.183998 50380 net.cpp:106] Creating Layer conv4_2_1_relu
I0705 15:55:54.184006 50380 net.cpp:454] conv4_2_1_relu <- conv4_2_1_bn
I0705 15:55:54.184025 50380 net.cpp:397] conv4_2_1_relu -> conv4_2_1_bn (in-place)
I0705 15:55:54.184327 50380 net.cpp:150] Setting up conv4_2_1_relu
I0705 15:55:54.184346 50380 net.cpp:157] Top shape: 32 256 14 14 (1605632)
I0705 15:55:54.184355 50380 net.cpp:165] Memory required for data: 2913788032
I0705 15:55:54.184362 50380 layer_factory.hpp:76] Creating layer conv4_2_2
I0705 15:55:54.184377 50380 net.cpp:106] Creating Layer conv4_2_2
I0705 15:55:54.184386 50380 net.cpp:454] conv4_2_2 <- conv4_2_1_bn
I0705 15:55:54.184398 50380 net.cpp:411] conv4_2_2 -> conv4_2_2
I0705 15:55:54.203881 50380 net.cpp:150] Setting up conv4_2_2
I0705 15:55:54.203909 50380 net.cpp:157] Top shape: 32 256 14 14 (1605632)
I0705 15:55:54.203918 50380 net.cpp:165] Memory required for data: 2920210560
I0705 15:55:54.203930 50380 layer_factory.hpp:76] Creating layer conv4_2_2_bn
I0705 15:55:54.203945 50380 net.cpp:106] Creating Layer conv4_2_2_bn
I0705 15:55:54.203955 50380 net.cpp:454] conv4_2_2_bn <- conv4_2_2
I0705 15:55:54.203965 50380 net.cpp:411] conv4_2_2_bn -> conv4_2_2_bn
I0705 15:55:54.204167 50380 net.cpp:150] Setting up conv4_2_2_bn
I0705 15:55:54.204182 50380 net.cpp:157] Top shape: 32 256 14 14 (1605632)
I0705 15:55:54.204190 50380 net.cpp:165] Memory required for data: 2926633088
I0705 15:55:54.204201 50380 layer_factory.hpp:76] Creating layer conv4_2_2_relu
I0705 15:55:54.204215 50380 net.cpp:106] Creating Layer conv4_2_2_relu
I0705 15:55:54.204222 50380 net.cpp:454] conv4_2_2_relu <- conv4_2_2_bn
I0705 15:55:54.204231 50380 net.cpp:397] conv4_2_2_relu -> conv4_2_2_bn (in-place)
I0705 15:55:54.204548 50380 net.cpp:150] Setting up conv4_2_2_relu
I0705 15:55:54.204566 50380 net.cpp:157] Top shape: 32 256 14 14 (1605632)
I0705 15:55:54.204574 50380 net.cpp:165] Memory required for data: 2933055616
I0705 15:55:54.204583 50380 layer_factory.hpp:76] Creating layer conv4_2_3
I0705 15:55:54.204608 50380 net.cpp:106] Creating Layer conv4_2_3
I0705 15:55:54.204617 50380 net.cpp:454] conv4_2_3 <- conv4_2_2_bn
I0705 15:55:54.204649 50380 net.cpp:411] conv4_2_3 -> conv4_2_3
I0705 15:55:54.214013 50380 cudnn_conv_layer.cpp:194] Reallocating workspace storage: 3072
I0705 15:55:54.214047 50380 net.cpp:150] Setting up conv4_2_3
I0705 15:55:54.214062 50380 net.cpp:157] Top shape: 32 1024 14 14 (6422528)
I0705 15:55:54.214072 50380 net.cpp:165] Memory required for data: 2958745728
I0705 15:55:54.214083 50380 layer_factory.hpp:76] Creating layer conv4_2_sum
I0705 15:55:54.214097 50380 net.cpp:106] Creating Layer conv4_2_sum
I0705 15:55:54.214104 50380 net.cpp:454] conv4_2_sum <- conv4_1_sum_bn_conv4_1_sum_relu_0_split_1
I0705 15:55:54.214114 50380 net.cpp:454] conv4_2_sum <- conv4_2_3
I0705 15:55:54.214123 50380 net.cpp:411] conv4_2_sum -> conv4_2_sum
I0705 15:55:54.214159 50380 net.cpp:150] Setting up conv4_2_sum
I0705 15:55:54.214170 50380 net.cpp:157] Top shape: 32 1024 14 14 (6422528)
I0705 15:55:54.214186 50380 net.cpp:165] Memory required for data: 2984435840
I0705 15:55:54.214195 50380 layer_factory.hpp:76] Creating layer conv4_2_sum_bn
I0705 15:55:54.214206 50380 net.cpp:106] Creating Layer conv4_2_sum_bn
I0705 15:55:54.214220 50380 net.cpp:454] conv4_2_sum_bn <- conv4_2_sum
I0705 15:55:54.214228 50380 net.cpp:411] conv4_2_sum_bn -> conv4_2_sum_bn
I0705 15:55:54.214426 50380 net.cpp:150] Setting up conv4_2_sum_bn
I0705 15:55:54.214439 50380 net.cpp:157] Top shape: 32 1024 14 14 (6422528)
I0705 15:55:54.214447 50380 net.cpp:165] Memory required for data: 3010125952
I0705 15:55:54.214458 50380 layer_factory.hpp:76] Creating layer conv4_2_sum_relu
I0705 15:55:54.214469 50380 net.cpp:106] Creating Layer conv4_2_sum_relu
I0705 15:55:54.214478 50380 net.cpp:454] conv4_2_sum_relu <- conv4_2_sum_bn
I0705 15:55:54.214485 50380 net.cpp:397] conv4_2_sum_relu -> conv4_2_sum_bn (in-place)
I0705 15:55:54.214655 50380 net.cpp:150] Setting up conv4_2_sum_relu
I0705 15:55:54.214679 50380 net.cpp:157] Top shape: 32 1024 14 14 (6422528)
I0705 15:55:54.214691 50380 net.cpp:165] Memory required for data: 3035816064
I0705 15:55:54.214699 50380 layer_factory.hpp:76] Creating layer conv4_2_sum_bn_conv4_2_sum_relu_0_split
I0705 15:55:54.214712 50380 net.cpp:106] Creating Layer conv4_2_sum_bn_conv4_2_sum_relu_0_split
I0705 15:55:54.214721 50380 net.cpp:454] conv4_2_sum_bn_conv4_2_sum_relu_0_split <- conv4_2_sum_bn
I0705 15:55:54.214730 50380 net.cpp:411] conv4_2_sum_bn_conv4_2_sum_relu_0_split -> conv4_2_sum_bn_conv4_2_sum_relu_0_split_0
I0705 15:55:54.214756 50380 net.cpp:411] conv4_2_sum_bn_conv4_2_sum_relu_0_split -> conv4_2_sum_bn_conv4_2_sum_relu_0_split_1
I0705 15:55:54.214803 50380 net.cpp:150] Setting up conv4_2_sum_bn_conv4_2_sum_relu_0_split
I0705 15:55:54.214814 50380 net.cpp:157] Top shape: 32 1024 14 14 (6422528)
I0705 15:55:54.214823 50380 net.cpp:157] Top shape: 32 1024 14 14 (6422528)
I0705 15:55:54.214831 50380 net.cpp:165] Memory required for data: 3087196288
I0705 15:55:54.214844 50380 layer_factory.hpp:76] Creating layer conv4_output
I0705 15:55:54.214861 50380 net.cpp:106] Creating Layer conv4_output
I0705 15:55:54.214870 50380 net.cpp:454] conv4_output <- conv4_2_sum_bn_conv4_2_sum_relu_0_split_0
I0705 15:55:54.214886 50380 net.cpp:411] conv4_output -> conv4_output
I0705 15:55:54.281509 50380 net.cpp:150] Setting up conv4_output
I0705 15:55:54.281548 50380 net.cpp:157] Top shape: 32 2048 7 7 (3211264)
I0705 15:55:54.281556 50380 net.cpp:165] Memory required for data: 3100041344
I0705 15:55:54.281569 50380 layer_factory.hpp:76] Creating layer conv5_1_1
I0705 15:55:54.281590 50380 net.cpp:106] Creating Layer conv5_1_1
I0705 15:55:54.281602 50380 net.cpp:454] conv5_1_1 <- conv4_2_sum_bn_conv4_2_sum_relu_0_split_1
I0705 15:55:54.281616 50380 net.cpp:411] conv5_1_1 -> conv5_1_1
I0705 15:55:54.299329 50380 net.cpp:150] Setting up conv5_1_1
I0705 15:55:54.299353 50380 net.cpp:157] Top shape: 32 512 7 7 (802816)
I0705 15:55:54.299362 50380 net.cpp:165] Memory required for data: 3103252608
I0705 15:55:54.299374 50380 layer_factory.hpp:76] Creating layer conv5_1_1_bn
I0705 15:55:54.299391 50380 net.cpp:106] Creating Layer conv5_1_1_bn
I0705 15:55:54.299428 50380 net.cpp:454] conv5_1_1_bn <- conv5_1_1
I0705 15:55:54.299440 50380 net.cpp:411] conv5_1_1_bn -> conv5_1_1_bn
I0705 15:55:54.299652 50380 net.cpp:150] Setting up conv5_1_1_bn
I0705 15:55:54.299666 50380 net.cpp:157] Top shape: 32 512 7 7 (802816)
I0705 15:55:54.299674 50380 net.cpp:165] Memory required for data: 3106463872
I0705 15:55:54.299686 50380 layer_factory.hpp:76] Creating layer conv5_1_1_relu
I0705 15:55:54.299698 50380 net.cpp:106] Creating Layer conv5_1_1_relu
I0705 15:55:54.299706 50380 net.cpp:454] conv5_1_1_relu <- conv5_1_1_bn
I0705 15:55:54.299716 50380 net.cpp:397] conv5_1_1_relu -> conv5_1_1_bn (in-place)
I0705 15:55:54.299890 50380 net.cpp:150] Setting up conv5_1_1_relu
I0705 15:55:54.299908 50380 net.cpp:157] Top shape: 32 512 7 7 (802816)
I0705 15:55:54.299917 50380 net.cpp:165] Memory required for data: 3109675136
I0705 15:55:54.299926 50380 layer_factory.hpp:76] Creating layer conv5_1_2
I0705 15:55:54.299940 50380 net.cpp:106] Creating Layer conv5_1_2
I0705 15:55:54.299950 50380 net.cpp:454] conv5_1_2 <- conv5_1_1_bn
I0705 15:55:54.299959 50380 net.cpp:411] conv5_1_2 -> conv5_1_2
I0705 15:55:54.376158 50380 net.cpp:150] Setting up conv5_1_2
I0705 15:55:54.376195 50380 net.cpp:157] Top shape: 32 512 7 7 (802816)
I0705 15:55:54.376204 50380 net.cpp:165] Memory required for data: 3112886400
I0705 15:55:54.376217 50380 layer_factory.hpp:76] Creating layer conv5_1_2_bn
I0705 15:55:54.376232 50380 net.cpp:106] Creating Layer conv5_1_2_bn
I0705 15:55:54.376245 50380 net.cpp:454] conv5_1_2_bn <- conv5_1_2
I0705 15:55:54.376260 50380 net.cpp:411] conv5_1_2_bn -> conv5_1_2_bn
I0705 15:55:54.376577 50380 net.cpp:150] Setting up conv5_1_2_bn
I0705 15:55:54.376592 50380 net.cpp:157] Top shape: 32 512 7 7 (802816)
I0705 15:55:54.376600 50380 net.cpp:165] Memory required for data: 3116097664
I0705 15:55:54.376612 50380 layer_factory.hpp:76] Creating layer conv5_1_2_relu
I0705 15:55:54.376641 50380 net.cpp:106] Creating Layer conv5_1_2_relu
I0705 15:55:54.376654 50380 net.cpp:454] conv5_1_2_relu <- conv5_1_2_bn
I0705 15:55:54.376664 50380 net.cpp:397] conv5_1_2_relu -> conv5_1_2_bn (in-place)
I0705 15:55:54.377079 50380 net.cpp:150] Setting up conv5_1_2_relu
I0705 15:55:54.377110 50380 net.cpp:157] Top shape: 32 512 7 7 (802816)
I0705 15:55:54.377120 50380 net.cpp:165] Memory required for data: 3119308928
I0705 15:55:54.377128 50380 layer_factory.hpp:76] Creating layer conv5_1_3
I0705 15:55:54.377151 50380 net.cpp:106] Creating Layer conv5_1_3
I0705 15:55:54.377159 50380 net.cpp:454] conv5_1_3 <- conv5_1_2_bn
I0705 15:55:54.377169 50380 net.cpp:411] conv5_1_3 -> conv5_1_3
I0705 15:55:54.410712 50380 cudnn_conv_layer.cpp:194] Reallocating workspace storage: 6144
I0705 15:55:54.410749 50380 net.cpp:150] Setting up conv5_1_3
I0705 15:55:54.410763 50380 net.cpp:157] Top shape: 32 2048 7 7 (3211264)
I0705 15:55:54.410771 50380 net.cpp:165] Memory required for data: 3132153984
I0705 15:55:54.410784 50380 layer_factory.hpp:76] Creating layer conv5_1_sum
I0705 15:55:54.410804 50380 net.cpp:106] Creating Layer conv5_1_sum
I0705 15:55:54.410814 50380 net.cpp:454] conv5_1_sum <- conv4_output
I0705 15:55:54.410825 50380 net.cpp:454] conv5_1_sum <- conv5_1_3
I0705 15:55:54.410835 50380 net.cpp:411] conv5_1_sum -> conv5_1_sum
I0705 15:55:54.410871 50380 net.cpp:150] Setting up conv5_1_sum
I0705 15:55:54.410887 50380 net.cpp:157] Top shape: 32 2048 7 7 (3211264)
I0705 15:55:54.410897 50380 net.cpp:165] Memory required for data: 3144999040
I0705 15:55:54.410904 50380 layer_factory.hpp:76] Creating layer conv5_1_sum_bn
I0705 15:55:54.410919 50380 net.cpp:106] Creating Layer conv5_1_sum_bn
I0705 15:55:54.410934 50380 net.cpp:454] conv5_1_sum_bn <- conv5_1_sum
I0705 15:55:54.410946 50380 net.cpp:411] conv5_1_sum_bn -> conv5_1_sum_bn
I0705 15:55:54.411181 50380 net.cpp:150] Setting up conv5_1_sum_bn
I0705 15:55:54.411195 50380 net.cpp:157] Top shape: 32 2048 7 7 (3211264)
I0705 15:55:54.411203 50380 net.cpp:165] Memory required for data: 3157844096
I0705 15:55:54.411216 50380 layer_factory.hpp:76] Creating layer conv5_1_sum_relu
I0705 15:55:54.411248 50380 net.cpp:106] Creating Layer conv5_1_sum_relu
I0705 15:55:54.411263 50380 net.cpp:454] conv5_1_sum_relu <- conv5_1_sum_bn
I0705 15:55:54.411281 50380 net.cpp:397] conv5_1_sum_relu -> conv5_1_sum_bn (in-place)
I0705 15:55:54.411468 50380 net.cpp:150] Setting up conv5_1_sum_relu
I0705 15:55:54.411485 50380 net.cpp:157] Top shape: 32 2048 7 7 (3211264)
I0705 15:55:54.411494 50380 net.cpp:165] Memory required for data: 3170689152
I0705 15:55:54.411502 50380 layer_factory.hpp:76] Creating layer conv5_1_sum_bn_conv5_1_sum_relu_0_split
I0705 15:55:54.411517 50380 net.cpp:106] Creating Layer conv5_1_sum_bn_conv5_1_sum_relu_0_split
I0705 15:55:54.411525 50380 net.cpp:454] conv5_1_sum_bn_conv5_1_sum_relu_0_split <- conv5_1_sum_bn
I0705 15:55:54.411535 50380 net.cpp:411] conv5_1_sum_bn_conv5_1_sum_relu_0_split -> conv5_1_sum_bn_conv5_1_sum_relu_0_split_0
I0705 15:55:54.411546 50380 net.cpp:411] conv5_1_sum_bn_conv5_1_sum_relu_0_split -> conv5_1_sum_bn_conv5_1_sum_relu_0_split_1
I0705 15:55:54.411612 50380 net.cpp:150] Setting up conv5_1_sum_bn_conv5_1_sum_relu_0_split
I0705 15:55:54.411641 50380 net.cpp:157] Top shape: 32 2048 7 7 (3211264)
I0705 15:55:54.411650 50380 net.cpp:157] Top shape: 32 2048 7 7 (3211264)
I0705 15:55:54.411659 50380 net.cpp:165] Memory required for data: 3196379264
I0705 15:55:54.411666 50380 layer_factory.hpp:76] Creating layer conv5_2_1
I0705 15:55:54.411682 50380 net.cpp:106] Creating Layer conv5_2_1
I0705 15:55:54.411700 50380 net.cpp:454] conv5_2_1 <- conv5_1_sum_bn_conv5_1_sum_relu_0_split_0
I0705 15:55:54.411712 50380 net.cpp:411] conv5_2_1 -> conv5_2_1
I0705 15:55:54.447331 50380 cudnn_conv_layer.cpp:194] Reallocating workspace storage: 24576
I0705 15:55:54.447373 50380 net.cpp:150] Setting up conv5_2_1
I0705 15:55:54.447396 50380 net.cpp:157] Top shape: 32 512 7 7 (802816)
I0705 15:55:54.447407 50380 net.cpp:165] Memory required for data: 3199590528
I0705 15:55:54.447453 50380 layer_factory.hpp:76] Creating layer conv5_2_1_bn
I0705 15:55:54.447481 50380 net.cpp:106] Creating Layer conv5_2_1_bn
I0705 15:55:54.447533 50380 net.cpp:454] conv5_2_1_bn <- conv5_2_1
I0705 15:55:54.447556 50380 net.cpp:411] conv5_2_1_bn -> conv5_2_1_bn
I0705 15:55:54.447862 50380 net.cpp:150] Setting up conv5_2_1_bn
I0705 15:55:54.447878 50380 net.cpp:157] Top shape: 32 512 7 7 (802816)
I0705 15:55:54.447886 50380 net.cpp:165] Memory required for data: 3202801792
I0705 15:55:54.447898 50380 layer_factory.hpp:76] Creating layer conv5_2_1_relu
I0705 15:55:54.447919 50380 net.cpp:106] Creating Layer conv5_2_1_relu
I0705 15:55:54.447927 50380 net.cpp:454] conv5_2_1_relu <- conv5_2_1_bn
I0705 15:55:54.447939 50380 net.cpp:397] conv5_2_1_relu -> conv5_2_1_bn (in-place)
I0705 15:55:54.448129 50380 net.cpp:150] Setting up conv5_2_1_relu
I0705 15:55:54.448148 50380 net.cpp:157] Top shape: 32 512 7 7 (802816)
I0705 15:55:54.448156 50380 net.cpp:165] Memory required for data: 3206013056
I0705 15:55:54.448164 50380 layer_factory.hpp:76] Creating layer conv5_2_2
I0705 15:55:54.448177 50380 net.cpp:106] Creating Layer conv5_2_2
I0705 15:55:54.448185 50380 net.cpp:454] conv5_2_2 <- conv5_2_1_bn
I0705 15:55:54.448199 50380 net.cpp:411] conv5_2_2 -> conv5_2_2
I0705 15:55:54.522948 50380 net.cpp:150] Setting up conv5_2_2
I0705 15:55:54.522984 50380 net.cpp:157] Top shape: 32 512 7 7 (802816)
I0705 15:55:54.522992 50380 net.cpp:165] Memory required for data: 3209224320
I0705 15:55:54.523005 50380 layer_factory.hpp:76] Creating layer conv5_2_2_bn
I0705 15:55:54.523027 50380 net.cpp:106] Creating Layer conv5_2_2_bn
I0705 15:55:54.523038 50380 net.cpp:454] conv5_2_2_bn <- conv5_2_2
I0705 15:55:54.523051 50380 net.cpp:411] conv5_2_2_bn -> conv5_2_2_bn
I0705 15:55:54.523278 50380 net.cpp:150] Setting up conv5_2_2_bn
I0705 15:55:54.523293 50380 net.cpp:157] Top shape: 32 512 7 7 (802816)
I0705 15:55:54.523301 50380 net.cpp:165] Memory required for data: 3212435584
I0705 15:55:54.523320 50380 layer_factory.hpp:76] Creating layer conv5_2_2_relu
I0705 15:55:54.523339 50380 net.cpp:106] Creating Layer conv5_2_2_relu
I0705 15:55:54.523372 50380 net.cpp:454] conv5_2_2_relu <- conv5_2_2_bn
I0705 15:55:54.523388 50380 net.cpp:397] conv5_2_2_relu -> conv5_2_2_bn (in-place)
I0705 15:55:54.523720 50380 net.cpp:150] Setting up conv5_2_2_relu
I0705 15:55:54.523738 50380 net.cpp:157] Top shape: 32 512 7 7 (802816)
I0705 15:55:54.523746 50380 net.cpp:165] Memory required for data: 3215646848
I0705 15:55:54.523762 50380 layer_factory.hpp:76] Creating layer conv5_2_3
I0705 15:55:54.523789 50380 net.cpp:106] Creating Layer conv5_2_3
I0705 15:55:54.523798 50380 net.cpp:454] conv5_2_3 <- conv5_2_2_bn
I0705 15:55:54.523811 50380 net.cpp:411] conv5_2_3 -> conv5_2_3
I0705 15:55:54.557477 50380 cudnn_conv_layer.cpp:194] Reallocating workspace storage: 6144
I0705 15:55:54.557533 50380 net.cpp:150] Setting up conv5_2_3
I0705 15:55:54.557546 50380 net.cpp:157] Top shape: 32 2048 7 7 (3211264)
I0705 15:55:54.557559 50380 net.cpp:165] Memory required for data: 3228491904
I0705 15:55:54.557651 50380 layer_factory.hpp:76] Creating layer conv5_2_sum
I0705 15:55:54.557669 50380 net.cpp:106] Creating Layer conv5_2_sum
I0705 15:55:54.557678 50380 net.cpp:454] conv5_2_sum <- conv5_1_sum_bn_conv5_1_sum_relu_0_split_1
I0705 15:55:54.557688 50380 net.cpp:454] conv5_2_sum <- conv5_2_3
I0705 15:55:54.557699 50380 net.cpp:411] conv5_2_sum -> conv5_2_sum
I0705 15:55:54.557735 50380 net.cpp:150] Setting up conv5_2_sum
I0705 15:55:54.557752 50380 net.cpp:157] Top shape: 32 2048 7 7 (3211264)
I0705 15:55:54.557761 50380 net.cpp:165] Memory required for data: 3241336960
I0705 15:55:54.557770 50380 layer_factory.hpp:76] Creating layer conv5_2_sum_bn
I0705 15:55:54.557792 50380 net.cpp:106] Creating Layer conv5_2_sum_bn
I0705 15:55:54.557803 50380 net.cpp:454] conv5_2_sum_bn <- conv5_2_sum
I0705 15:55:54.557813 50380 net.cpp:411] conv5_2_sum_bn -> conv5_2_sum_bn
I0705 15:55:54.558033 50380 net.cpp:150] Setting up conv5_2_sum_bn
I0705 15:55:54.558048 50380 net.cpp:157] Top shape: 32 2048 7 7 (3211264)
I0705 15:55:54.558054 50380 net.cpp:165] Memory required for data: 3254182016
I0705 15:55:54.558068 50380 layer_factory.hpp:76] Creating layer conv5_2_sum_relu
I0705 15:55:54.558079 50380 net.cpp:106] Creating Layer conv5_2_sum_relu
I0705 15:55:54.558086 50380 net.cpp:454] conv5_2_sum_relu <- conv5_2_sum_bn
I0705 15:55:54.558095 50380 net.cpp:397] conv5_2_sum_relu -> conv5_2_sum_bn (in-place)
I0705 15:55:54.558275 50380 net.cpp:150] Setting up conv5_2_sum_relu
I0705 15:55:54.558291 50380 net.cpp:157] Top shape: 32 2048 7 7 (3211264)
I0705 15:55:54.558298 50380 net.cpp:165] Memory required for data: 3267027072
I0705 15:55:54.558306 50380 layer_factory.hpp:76] Creating layer pool2
I0705 15:55:54.558320 50380 net.cpp:106] Creating Layer pool2
I0705 15:55:54.558328 50380 net.cpp:454] pool2 <- conv5_2_sum_bn
I0705 15:55:54.558349 50380 net.cpp:411] pool2 -> pool2
I0705 15:55:54.558697 50380 net.cpp:150] Setting up pool2
I0705 15:55:54.558715 50380 net.cpp:157] Top shape: 32 2048 1 1 (65536)
I0705 15:55:54.558723 50380 net.cpp:165] Memory required for data: 3267289216
I0705 15:55:54.558734 50380 layer_factory.hpp:76] Creating layer fc
I0705 15:55:54.558756 50380 net.cpp:106] Creating Layer fc
I0705 15:55:54.558766 50380 net.cpp:454] fc <- pool2
I0705 15:55:54.558779 50380 net.cpp:411] fc -> fc
I0705 15:55:54.559043 50380 net.cpp:150] Setting up fc
I0705 15:55:54.559059 50380 net.cpp:157] Top shape: 32 2 (64)
I0705 15:55:54.559067 50380 net.cpp:165] Memory required for data: 3267289472
I0705 15:55:54.559078 50380 layer_factory.hpp:76] Creating layer loss
I0705 15:55:54.559093 50380 net.cpp:106] Creating Layer loss
I0705 15:55:54.559101 50380 net.cpp:454] loss <- fc
I0705 15:55:54.559111 50380 net.cpp:454] loss <- label
I0705 15:55:54.559121 50380 net.cpp:411] loss -> loss
I0705 15:55:54.559147 50380 layer_factory.hpp:76] Creating layer loss
…
I0705 15:55:54.563004 50380 net.cpp:322] The NetState phase (1) differed from the phase (0) specified by a rule in layer data
I0705 15:55:54.563488 50380 net.cpp:49] Initializing net from parameters: 
name: "ResNet-18"
state {
  phase: TEST
}
layer {
  name: "data"
  type: "ImageData"
  top: "data"
  top: "label"
  include {
    phase: TEST
  }
  transform_param {
    mirror: false
    crop_size: 224
    mean_value: 104
    mean_value: 117
    mean_value: 123
  }
  image_data_param {
    source: "../lists/roi-val-L0.lst"
    batch_size: 16
    shuffle: true
    new_height: 256
    new_width: 256
  }
}
layer {
  name: "conv1"
  type: "Convolution"
  bottom: "data"
  top: "conv1"
  param {
    lr_mult: 1
    decay_mult: 1
  }
  param {
    lr_mult: 2
    decay_mult: 0
  }
  convolution_param {
    num_output: 64
    pad: 0
    kernel_size: 7
    stride: 2
    weight_filler {
      type: "msra"
    }
    bias_filler {
      type: "constant"
      value: 0
    }
  }
}
layer {
  name: "conv1_bn"
  type: "BatchNorm"
  bottom: "conv1"
  top: "conv1_bn"
  param {
    lr_mult: 0
  }
  param {
    lr_mult: 0
  }
  param {
    lr_mult: 0
  }
}
layer {
  name: "conv1_relu"
  type: "ReLU"
  bottom: "conv1_bn"
  top: "conv1_bn"
}
layer {
  name: "pool1"
  type: "Pooling"
  bottom: "conv1_bn"
  top: "pool1"
  pooling_param {
    pool: MAX
    kernel_size: 3
    stride: 2
  }
}
layer {
  name: "conv1_output"
  type: "Convolution"
  bottom: "pool1"
  top: "conv1_output"
  param {
    lr_mult: 1
    decay_mult: 1
  }
  param {
    lr_mult: 2
    decay_mult: 0
  }
  convolution_param {
    num_output: 256
    pad: 0
    kernel_size: 1
    stride: 1
    weight_filler {
      type: "msra"
    }
    bias_filler {
      type: "constant"
      value: 0
    }
  }
}
layer {
  name: "conv2_1_1"
  type: "Convolution"
  bottom: "pool1"
  top: "conv2_1_1"
  param {
    lr_mult: 1
    decay_mult: 1
  }
  param {
    lr_mult: 2
    decay_mult: 0
  }
  convolution_param {
    num_output: 64
    pad: 0
    kernel_size: 1
    stride: 1
    weight_filler {
      type: "msra"
    }
    bias_filler {
      type: "constant"
      value: 0
    }
  }
}
layer {
  name: "conv2_1_1_bn"
  type: "BatchNorm"
  bottom: "conv2_1_1"
  top: "conv2_1_1_bn"
  param {
    lr_mult: 0
  }
  param {
    lr_mult: 0
  }
  param {
    lr_mult: 0
  }
}
layer {
  name: "conv2_1_1_relu"
  type: "ReLU"
  bottom: "conv2_1_1_bn"
  top: "conv2_1_1_bn"
}
layer {
  name: "conv2_1_2"
  type: "Convolution"
  bottom: "conv2_1_1_bn"
  top: "conv2_1_2"
  param {
    lr_mult: 1
    decay_mult: 1
  }
  param {
    lr_mult: 2
    decay_mult: 0
  }
  convolution_param {
    num_output: 64
    pad: 1
    kernel_size: 3
    stride: 1
    weight_filler {
      type: "msra"
    }
    bias_filler {
      type: "constant"
      value: 0
    }
  }
}
layer {
  name: "conv2_1_2_bn"
  type: "BatchNorm"
  bottom: "conv2_1_2"
  top: "conv2_1_2_bn"
  param {
    lr_mult: 0
  }
  param {
    lr_mult: 0
  }
  param {
    lr_mult: 0
  }
}
layer {
  name: "conv2_1_2_relu"
  type: "ReLU"
  bottom: "conv2_1_2_bn"
  top: "conv2_1_2_bn"
}
layer {
  name: "conv2_1_3"
  type: "Convolution"
  bottom: "conv2_1_2_bn"
  top: "conv2_1_3"
  param {
    lr_mult: 1
    decay_mult: 1
  }
  param {
    lr_mult: 2
    decay_mult: 0
  }
  convolution_param {
    num_output: 256
    pad: 0
    kernel_size: 1
    stride: 1
    weight_filler {
      type: "msra"
    }
    bias_filler {
      type: "constant"
      value: 0
    }
  }
}
layer {
  name: "conv2_1_sum"
  type: "Eltwise"
  bottom: "conv1_output"
  bottom: "conv2_1_3"
  top: "conv2_1_sum"
  eltwise_param {
    operation: SUM
  }
}
layer {
  name: "conv2_1_sum_bn"
  type: "BatchNorm"
  bottom: "conv2_1_sum"
  top: "conv2_1_sum_bn"
  param {
    lr_mult: 0
  }
  param {
    lr_mult: 0
  }
  param {
    lr_mult: 0
  }
}
layer {
  name: "conv2_1_sum_relu"
  type: "ReLU"
  bottom: "conv2_1_sum_bn"
  top: "conv2_1_sum_bn"
}
layer {
  name: "conv2_2_1"
  type: "Convolution"
  bottom: "conv2_1_sum_bn"
  top: "conv2_2_1"
  param {
    lr_mult: 1
    decay_mult: 1
  }
  param {
    lr_mult: 2
    decay_mult: 0
  }
  convolution_param {
    num_output: 64
    pad: 0
    kernel_size: 1
    stride: 1
    weight_filler {
      type: "msra"
    }
    bias_filler {
      type: "constant"
      value: 0
    }
  }
}
layer {
  name: "conv2_2_1_bn"
  type: "BatchNorm"
  bottom: "conv2_2_1"
  top: "conv2_2_1_bn"
  param {
    lr_mult: 0
  }
  param {
    lr_mult: 0
  }
  param {
    lr_mult: 0
  }
}
layer {
  name: "conv2_2_1_relu"
  type: "ReLU"
  bottom: "conv2_2_1_bn"
  top: "conv2_2_1_bn"
}
layer {
  name: "conv2_2_2"
  type: "Convolution"
  bottom: "conv2_2_1_bn"
  top: "conv2_2_2"
  param {
    lr_mult: 1
    decay_mult: 1
  }
  param {
    lr_mult: 2
    decay_mult: 0
  }
  convolution_param {
    num_output: 64
    pad: 1
    kernel_size: 3
    stride: 1
    weight_filler {
      type: "msra"
    }
    bias_filler {
      type: "constant"
      value: 0
    }
  }
}
layer {
  name: "conv2_2_2_bn"
  type: "BatchNorm"
  bottom: "conv2_2_2"
  top: "conv2_2_2_bn"
  param {
    lr_mult: 0
  }
  param {
    lr_mult: 0
  }
  param {
    lr_mult: 0
  }
}
layer {
  name: "conv2_2_2_relu"
  type: "ReLU"
  bottom: "conv2_2_2_bn"
  top: "conv2_2_2_bn"
}
layer {
  name: "conv2_2_3"
  type: "Convolution"
  bottom: "conv2_2_2_bn"
  top: "conv2_2_3"
  param {
    lr_mult: 1
    decay_mult: 1
  }
  param {
    lr_mult: 2
    decay_mult: 0
  }
  convolution_param {
    num_output: 256
    pad: 0
    kernel_size: 1
    stride: 1
    weight_filler {
      type: "msra"
    }
    bias_filler {
      type: "constant"
      value: 0
    }
  }
}
layer {
  name: "conv2_2_sum"
  type: "Eltwise"
  bottom: "conv2_1_sum_bn"
  bottom: "conv2_2_3"
  top: "conv2_2_sum"
  eltwise_param {
    operation: SUM
  }
}
layer {
  name: "conv2_2_sum_bn"
  type: "BatchNorm"
  bottom: "conv2_2_sum"
  top: "conv2_2_sum_bn"
  param {
    lr_mult: 0
  }
  param {
    lr_mult: 0
  }
  param {
    lr_mult: 0
  }
}
layer {
  name: "conv2_2_sum_relu"
  type: "ReLU"
  bottom: "conv2_2_sum_bn"
  top: "conv2_2_sum_bn"
}
layer {
  name: "conv2_output"
  type: "Convolution"
  bottom: "conv2_2_sum_bn"
  top: "conv2_output"
  param {
    lr_mult: 1
    decay_mult: 1
  }
  param {
    lr_mult: 2
    decay_mult: 0
  }
  convolution_param {
    num_output: 512
    pad: 0
    kernel_size: 1
    stride: 2
    weight_filler {
      type: "msra"
    }
    bias_filler {
      type: "constant"
      value: 0
    }
  }
}
layer {
  name: "conv3_1_1"
  type: "Convolution"
  bottom: "conv2_2_sum_bn"
  top: "conv3_1_1"
  param {
    lr_mult: 1
    decay_mult: 1
  }
  param {
    lr_mult: 2
    decay_mult: 0
  }
  convolution_param {
    num_output: 128
    pad: 0
    kernel_size: 1
    stride: 2
    weight_filler {
      type: "msra"
    }
    bias_filler {
      type: "constant"
      value: 0
    }
  }
}
layer {
  name: "conv3_1_1_bn"
  type: "BatchNorm"
  bottom: "conv3_1_1"
  top: "conv3_1_1_bn"
  param {
    lr_mult: 0
  }
  param {
    lr_mult: 0
  }
  param {
    lr_mult: 0
  }
}
layer {
  name: "conv3_1_1_relu"
  type: "ReLU"
  bottom: "conv3_1_1_bn"
  top: "conv3_1_1_bn"
}
layer {
  name: "conv3_1_2"
  type: "Convolution"
  bottom: "conv3_1_1_bn"
  top: "conv3_1_2"
  param {
    lr_mult: 1
    decay_mult: 1
  }
  param {
    lr_mult: 2
    decay_mult: 0
  }
  convolution_param {
    num_output: 128
    pad: 1
    kernel_size: 3
    stride: 1
    weight_filler {
      type: "msra"
    }
    bias_filler {
      type: "constant"
      value: 0
    }
  }
}
layer {
  name: "conv3_1_2_bn"
  type: "BatchNorm"
  bottom: "conv3_1_2"
  top: "conv3_1_2_bn"
  param {
    lr_mult: 0
  }
  param {
    lr_mult: 0
  }
  param {
    lr_mult: 0
  }
}
layer {
  name: "conv3_1_2_relu"
  type: "ReLU"
  bottom: "conv3_1_2_bn"
  top: "conv3_1_2_bn"
}
layer {
  name: "conv3_1_3"
  type: "Convolution"
  bottom: "conv3_1_2_bn"
  top: "conv3_1_3"
  param {
    lr_mult: 1
    decay_mult: 1
  }
  param {
    lr_mult: 2
    decay_mult: 0
  }
  convolution_param {
    num_output: 512
    pad: 0
    kernel_size: 1
    stride: 1
    weight_filler {
      type: "msra"
    }
    bias_filler {
      type: "constant"
      value: 0
    }
  }
}
layer {
  name: "conv3_1_sum"
  type: "Eltwise"
  bottom: "conv2_output"
  bottom: "conv3_1_3"
  top: "conv3_1_sum"
  eltwise_param {
    operation: SUM
  }
}
layer {
  name: "conv3_1_sum_bn"
  type: "BatchNorm"
  bottom: "conv3_1_sum"
  top: "conv3_1_sum_bn"
  param {
    lr_mult: 0
  }
  param {
    lr_mult: 0
  }
  param {
    lr_mult: 0
  }
}
layer {
  name: "conv3_1_sum_relu"
  type: "ReLU"
  bottom: "conv3_1_sum_bn"
  top: "conv3_1_sum_bn"
}
layer {
  name: "conv3_2_1"
  type: "Convolution"
  bottom: "conv3_1_sum_bn"
  top: "conv3_2_1"
  param {
    lr_mult: 1
    decay_mult: 1
  }
  param {
    lr_mult: 2
    decay_mult: 0
  }
  convolution_param {
    num_output: 128
    pad: 0
    kernel_size: 1
    stride: 1
    weight_filler {
      type: "msra"
    }
    bias_filler {
      type: "constant"
      value: 0
    }
  }
}
layer {
  name: "conv3_2_1_bn"
  type: "BatchNorm"
  bottom: "conv3_2_1"
  top: "conv3_2_1_bn"
  param {
    lr_mult: 0
  }
  param {
    lr_mult: 0
  }
  param {
    lr_mult: 0
  }
}
layer {
  name: "conv3_2_1_relu"
  type: "ReLU"
  bottom: "conv3_2_1_bn"
  top: "conv3_2_1_bn"
}
layer {
  name: "conv3_2_2"
  type: "Convolution"
  bottom: "conv3_2_1_bn"
  top: "conv3_2_2"
  param {
    lr_mult: 1
    decay_mult: 1
  }
  param {
    lr_mult: 2
    decay_mult: 0
  }
  convolution_param {
    num_output: 128
    pad: 1
    kernel_size: 3
    stride: 1
    weight_filler {
      type: "msra"
    }
    bias_filler {
      type: "constant"
      value: 0
    }
  }
}
layer {
  name: "conv3_2_2_bn"
  type: "BatchNorm"
  bottom: "conv3_2_2"
  top: "conv3_2_2_bn"
  param {
    lr_mult: 0
  }
  param {
    lr_mult: 0
  }
  param {
    lr_mult: 0
  }
}
layer {
  name: "conv3_2_2_relu"
  type: "ReLU"
  bottom: "conv3_2_2_bn"
  top: "conv3_2_2_bn"
}
layer {
  name: "conv3_2_3"
  type: "Convolution"
  bottom: "conv3_2_2_bn"
  top: "conv3_2_3"
  param {
    lr_mult: 1
    decay_mult: 1
  }
  param {
    lr_mult: 2
    decay_mult: 0
  }
  convolution_param {
    num_output: 512
    pad: 0
    kernel_size: 1
    stride: 1
    weight_filler {
      type: "msra"
    }
    bias_filler {
      type: "constant"
      value: 0
    }
  }
}
layer {
  name: "conv3_2_sum"
  type: "Eltwise"
  bottom: "conv3_1_sum_bn"
  bottom: "conv3_2_3"
  top: "conv3_2_sum"
  eltwise_param {
    operation: SUM
  }
}
layer {
  name: "conv3_2_sum_bn"
  type: "BatchNorm"
  bottom: "conv3_2_sum"
  top: "conv3_2_sum_bn"
  param {
    lr_mult: 0
  }
  param {
    lr_mult: 0
  }
  param {
    lr_mult: 0
  }
}
layer {
  name: "conv3_2_sum_relu"
  type: "ReLU"
  bottom: "conv3_2_sum_bn"
  top: "conv3_2_sum_bn"
}
layer {
  name: "conv3_output"
  type: "Convolution"
  bottom: "conv3_2_sum_bn"
  top: "conv3_output"
  param {
    lr_mult: 1
    decay_mult: 1
  }
  param {
    lr_mult: 2
    decay_mult: 0
  }
  convolution_param {
    num_output: 1024
    pad: 0
    kernel_size: 1
    stride: 2
    weight_filler {
      type: "msra"
    }
    bias_filler {
      type: "constant"
      value: 0
    }
  }
}
layer {
  name: "conv4_1_1"
  type: "Convolution"
  bottom: "conv3_2_sum_bn"
  top: "conv4_1_1"
  param {
    lr_mult: 1
    decay_mult: 1
  }
  param {
    lr_mult: 2
    decay_mult: 0
  }
  convolution_param {
    num_output: 256
    pad: 0
    kernel_size: 1
    stride: 2
    weight_filler {
      type: "msra"
    }
    bias_filler {
      type: "constant"
      value: 0
    }
  }
}
layer {
  name: "conv4_1_1_bn"
  type: "BatchNorm"
  bottom: "conv4_1_1"
  top: "conv4_1_1_bn"
  param {
    lr_mult: 0
  }
  param {
    lr_mult: 0
  }
  param {
    lr_mult: 0
  }
}
layer {
  name: "conv4_1_1_relu"
  type: "ReLU"
  bottom: "conv4_1_1_bn"
  top: "conv4_1_1_bn"
}
layer {
  name: "conv4_1_2"
  type: "Convolution"
  bottom: "conv4_1_1_bn"
  top: "conv4_1_2"
  param {
    lr_mult: 1
    decay_mult: 1
  }
  param {
    lr_mult: 2
    decay_mult: 0
  }
  convolution_param {
    num_output: 256
    pad: 1
    kernel_size: 3
    stride: 1
    weight_filler {
      type: "msra"
    }
    bias_filler {
      type: "constant"
      value: 0
    }
  }
}
layer {
  name: "conv4_1_2_bn"
  type: "BatchNorm"
  bottom: "conv4_1_2"
  top: "conv4_1_2_bn"
  param {
    lr_mult: 0
  }
  param {
    lr_mult: 0
  }
  param {
    lr_mult: 0
  }
}
layer {
  name: "conv4_1_2_relu"
  type: "ReLU"
  bottom: "conv4_1_2_bn"
  top: "conv4_1_2_bn"
}
layer {
  name: "conv4_1_3"
  type: "Convolution"
  bottom: "conv4_1_2_bn"
  top: "conv4_1_3"
  param {
    lr_mult: 1
    decay_mult: 1
  }
  param {
    lr_mult: 2
    decay_mult: 0
  }
  convolution_param {
    num_output: 1024
    pad: 0
    kernel_size: 1
    stride: 1
    weight_filler {
      type: "msra"
    }
    bias_filler {
      type: "constant"
      value: 0
    }
  }
}
layer {
  name: "conv4_1_sum"
  type: "Eltwise"
  bottom: "conv3_output"
  bottom: "conv4_1_3"
  top: "conv4_1_sum"
  eltwise_param {
    operation: SUM
  }
}
layer {
  name: "conv4_1_sum_bn"
  type: "BatchNorm"
  bottom: "conv4_1_sum"
  top: "conv4_1_sum_bn"
  param {
    lr_mult: 0
  }
  param {
    lr_mult: 0
  }
  param {
    lr_mult: 0
  }
}
layer {
  name: "conv4_1_sum_relu"
  type: "ReLU"
  bottom: "conv4_1_sum_bn"
  top: "conv4_1_sum_bn"
}
layer {
  name: "conv4_2_1"
  type: "Convolution"
  bottom: "conv4_1_sum_bn"
  top: "conv4_2_1"
  param {
    lr_mult: 1
    decay_mult: 1
  }
  param {
    lr_mult: 2
    decay_mult: 0
  }
  convolution_param {
    num_output: 256
    pad: 0
    kernel_size: 1
    stride: 1
    weight_filler {
      type: "msra"
    }
    bias_filler {
      type: "constant"
      value: 0
    }
  }
}
layer {
  name: "conv4_2_1_bn"
  type: "BatchNorm"
  bottom: "conv4_2_1"
  top: "conv4_2_1_bn"
  param {
    lr_mult: 0
  }
  param {
    lr_mult: 0
  }
  param {
    lr_mult: 0
  }
}
layer {
  name: "conv4_2_1_relu"
  type: "ReLU"
  bottom: "conv4_2_1_bn"
  top: "conv4_2_1_bn"
}
layer {
  name: "conv4_2_2"
  type: "Convolution"
  bottom: "conv4_2_1_bn"
  top: "conv4_2_2"
  param {
    lr_mult: 1
    decay_mult: 1
  }
  param {
    lr_mult: 2
    decay_mult: 0
  }
  convolution_param {
    num_output: 256
    pad: 1
    kernel_size: 3
    stride: 1
    weight_filler {
      type: "msra"
    }
    bias_filler {
      type: "constant"
      value: 0
    }
  }
}
layer {
  name: "conv4_2_2_bn"
  type: "BatchNorm"
  bottom: "conv4_2_2"
  top: "conv4_2_2_bn"
  param {
    lr_mult: 0
  }
  param {
    lr_mult: 0
  }
  param {
    lr_mult: 0
  }
}
layer {
  name: "conv4_2_2_relu"
  type: "ReLU"
  bottom: "conv4_2_2_bn"
  top: "conv4_2_2_bn"
}
layer {
  name: "conv4_2_3"
  type: "Convolution"
  bottom: "conv4_2_2_bn"
  top: "conv4_2_3"
  param {
    lr_mult: 1
    decay_mult: 1
  }
  param {
    lr_mult: 2
    decay_mult: 0
  }
  convolution_param {
    num_output: 1024
    pad: 0
    kernel_size: 1
    stride: 1
    weight_filler {
      type: "msra"
    }
    bias_filler {
      type: "constant"
      value: 0
    }
  }
}
layer {
  name: "conv4_2_sum"
  type: "Eltwise"
  bottom: "conv4_1_sum_bn"
  bottom: "conv4_2_3"
  top: "conv4_2_sum"
  eltwise_param {
    operation: SUM
  }
}
layer {
  name: "conv4_2_sum_bn"
  type: "BatchNorm"
  bottom: "conv4_2_sum"
  top: "conv4_2_sum_bn"
  param {
    lr_mult: 0
  }
  param {
    lr_mult: 0
  }
  param {
    lr_mult: 0
  }
}
layer {
  name: "conv4_2_sum_relu"
  type: "ReLU"
  bottom: "conv4_2_sum_bn"
  top: "conv4_2_sum_bn"
}
layer {
  name: "conv4_output"
  type: "Convolution"
  bottom: "conv4_2_sum_bn"
  top: "conv4_output"
  param {
    lr_mult: 1
    decay_mult: 1
  }
  param {
    lr_mult: 2
    decay_mult: 0
  }
  convolution_param {
    num_output: 2048
    pad: 0
    kernel_size: 1
    stride: 2
    weight_filler {
      type: "msra"
    }
    bias_filler {
      type: "constant"
      value: 0
    }
  }
}
layer {
  name: "conv5_1_1"
  type: "Convolution"
  bottom: "conv4_2_sum_bn"
  top: "conv5_1_1"
  param {
    lr_mult: 1
    decay_mult: 1
  }
  param {
    lr_mult: 2
    decay_mult: 0
  }
  convolution_param {
    num_output: 512
    pad: 0
    kernel_size: 1
    stride: 2
    weight_filler {
      type: "msra"
    }
    bias_filler {
      type: "constant"
      value: 0
    }
  }
}
layer {
  name: "conv5_1_1_bn"
  type: "BatchNorm"
  bottom: "conv5_1_1"
  top: "conv5_1_1_bn"
  param {
    lr_mult: 0
  }
  param {
    lr_mult: 0
  }
  param {
    lr_mult: 0
  }
}
layer {
  name: "conv5_1_1_relu"
  type: "ReLU"
  bottom: "conv5_1_1_bn"
  top: "conv5_1_1_bn"
}
layer {
  name: "conv5_1_2"
  type: "Convolution"
  bottom: "conv5_1_1_bn"
  top: "conv5_1_2"
  param {
    lr_mult: 1
    decay_mult: 1
  }
  param {
    lr_mult: 2
    decay_mult: 0
  }
  convolution_param {
    num_output: 512
    pad: 1
    kernel_size: 3
    stride: 1
    weight_filler {
      type: "msra"
    }
    bias_filler {
      type: "constant"
      value: 0
    }
  }
}
layer {
  name: "conv5_1_2_bn"
  type: "BatchNorm"
  bottom: "conv5_1_2"
  top: "conv5_1_2_bn"
  param {
    lr_mult: 0
  }
  param {
    lr_mult: 0
  }
  param {
    lr_mult: 0
  }
}
layer {
  name: "conv5_1_2_relu"
  type: "ReLU"
  bottom: "conv5_1_2_bn"
  top: "conv5_1_2_bn"
}
layer {
  name: "conv5_1_3"
  type: "Convolution"
  bottom: "conv5_1_2_bn"
  top: "conv5_1_3"
  param {
    lr_mult: 1
    decay_mult: 1
  }
  param {
    lr_mult: 2
    decay_mult: 0
  }
  convolution_param {
    num_output: 2048
    pad: 0
    kernel_size: 1
    stride: 1
    weight_filler {
      type: "msra"
    }
    bias_filler {
      type: "constant"
      value: 0
    }
  }
}
layer {
  name: "conv5_1_sum"
  type: "Eltwise"
  bottom: "conv4_output"
  bottom: "conv5_1_3"
  top: "conv5_1_sum"
  eltwise_param {
    operation: SUM
  }
}
layer {
  name: "conv5_1_sum_bn"
  type: "BatchNorm"
  bottom: "conv5_1_sum"
  top: "conv5_1_sum_bn"
  param {
    lr_mult: 0
  }
  param {
    lr_mult: 0
  }
  param {
    lr_mult: 0
  }
}
layer {
  name: "conv5_1_sum_relu"
  type: "ReLU"
  bottom: "conv5_1_sum_bn"
  top: "conv5_1_sum_bn"
}
layer {
  name: "conv5_2_1"
  type: "Convolution"
  bottom: "conv5_1_sum_bn"
  top: "conv5_2_1"
  param {
    lr_mult: 1
    decay_mult: 1
  }
  param {
    lr_mult: 2
    decay_mult: 0
  }
  convolution_param {
    num_output: 512
    pad: 0
    kernel_size: 1
    stride: 1
    weight_filler {
      type: "msra"
    }
    bias_filler {
      type: "constant"
      value: 0
    }
  }
}
layer {
  name: "conv5_2_1_bn"
  type: "BatchNorm"
  bottom: "conv5_2_1"
  top: "conv5_2_1_bn"
  param {
    lr_mult: 0
  }
  param {
    lr_mult: 0
  }
  param {
    lr_mult: 0
  }
}
layer {
  name: "conv5_2_1_relu"
  type: "ReLU"
  bottom: "conv5_2_1_bn"
  top: "conv5_2_1_bn"
}
layer {
  name: "conv5_2_2"
  type: "Convolution"
  bottom: "conv5_2_1_bn"
  top: "conv5_2_2"
  param {
    lr_mult: 1
    decay_mult: 1
  }
  param {
    lr_mult: 2
    decay_mult: 0
  }
  convolution_param {
    num_output: 512
    pad: 1
    kernel_size: 3
    stride: 1
    weight_filler {
      type: "msra"
    }
    bias_filler {
      type: "constant"
      value: 0
    }
  }
}
layer {
  name: "conv5_2_2_bn"
  type: "BatchNorm"
  bottom: "conv5_2_2"
  top: "conv5_2_2_bn"
  param {
    lr_mult: 0
  }
  param {
    lr_mult: 0
  }
  param {
    lr_mult: 0
  }
}
layer {
  name: "conv5_2_2_relu"
  type: "ReLU"
  bottom: "conv5_2_2_bn"
  top: "conv5_2_2_bn"
}
layer {
  name: "conv5_2_3"
  type: "Convolution"
  bottom: "conv5_2_2_bn"
  top: "conv5_2_3"
  param {
    lr_mult: 1
    decay_mult: 1
  }
  param {
    lr_mult: 2
    decay_mult: 0
  }
  convolution_param {
    num_output: 2048
    pad: 0
    kernel_size: 1
    stride: 1
    weight_filler {
      type: "msra"
    }
    bias_filler {
      type: "constant"
      value: 0
    }
  }
}
layer {
  name: "conv5_2_sum"
  type: "Eltwise"
  bottom: "conv5_1_sum_bn"
  bottom: "conv5_2_3"
  top: "conv5_2_sum"
  eltwise_param {
    operation: SUM
  }
}
layer {
  name: "conv5_2_sum_bn"
  type: "BatchNorm"
  bottom: "conv5_2_sum"
  top: "conv5_2_sum_bn"
  param {
    lr_mult: 0
  }
  param {
    lr_mult: 0
  }
  param {
    lr_mult: 0
  }
}
layer {
  name: "conv5_2_sum_relu"
  type: "ReLU"
  bottom: "conv5_2_sum_bn"
  top: "conv5_2_sum_bn"
}
layer {
  name: "pool2"
  type: "Pooling"
  bottom: "conv5_2_sum_bn"
  top: "pool2"
  pooling_param {
    pool: AVE
    kernel_size: 7
    stride: 1
  }
}
layer {
  name: "fc"
  type: "InnerProduct"
  bottom: "pool2"
  top: "fc"
  param {
    lr_mult: 1
    decay_mult: 1
  }
  param {
    lr_mult: 2
    decay_mult: 0
  }
  inner_product_param {
    num_output: 2
    weight_filler {
      type: "gaussian"
      std: 0.001
    }
    bias_filler {
      type: "constant"
      value: 0
    }
  }
}
layer {
  name: "loss"
  type: "SoftmaxWithLoss"
  bottom: "fc"
  bottom: "label"
  top: "loss"
}
layer {
  name: "acc/top-1"
  type: "Accuracy"
  bottom: "fc"
  bottom: "label"
  top: "acc/top-1"
  include {
    phase: TEST
  }
}
I0705 15:55:54.568249 50380 layer_factory.hpp:76] Creating layer data
I0705 15:55:54.568289 50380 net.cpp:106] Creating Layer data
I0705 15:55:54.568300 50380 net.cpp:411] data -> data
I0705 15:55:54.568313 50380 net.cpp:411] data -> label
I0705 15:55:54.568327 50380 image_data_layer.cpp:36] Opening file ../lists/roi-val-L0.lst
I0705 15:55:54.580127 50380 image_data_layer.cpp:46] Shuffling data
I0705 15:55:54.581742 50380 image_data_layer.cpp:51] A total of 23520 images.
I0705 15:55:54.603831 50380 image_data_layer.cpp:78] output data size: 16,3,224,224
I0705 15:55:54.621852 50380 net.cpp:150] Setting up data
I0705 15:55:54.621906 50380 net.cpp:157] Top shape: 16 3 224 224 (2408448)
I0705 15:55:54.621917 50380 net.cpp:157] Top shape: 16 (16)
I0705 15:55:54.621927 50380 net.cpp:165] Memory required for data: 9633856
I0705 15:55:54.621938 50380 layer_factory.hpp:76] Creating layer label_data_1_split
I0705 15:55:54.621960 50380 net.cpp:106] Creating Layer label_data_1_split
I0705 15:55:54.621970 50380 net.cpp:454] label_data_1_split <- label
I0705 15:55:54.621984 50380 net.cpp:411] label_data_1_split -> label_data_1_split_0
I0705 15:55:54.622001 50380 net.cpp:411] label_data_1_split -> label_data_1_split_1
I0705 15:55:54.622223 50380 net.cpp:150] Setting up label_data_1_split
I0705 15:55:54.622258 50380 net.cpp:157] Top shape: 16 (16)
I0705 15:55:54.622269 50380 net.cpp:157] Top shape: 16 (16)
I0705 15:55:54.622277 50380 net.cpp:165] Memory required for data: 9633984
I0705 15:55:54.622287 50380 layer_factory.hpp:76] Creating layer conv1
I0705 15:55:54.622304 50380 net.cpp:106] Creating Layer conv1
I0705 15:55:54.622313 50380 net.cpp:454] conv1 <- data
I0705 15:55:54.622328 50380 net.cpp:411] conv1 -> conv1
I0705 15:55:54.624228 50380 net.cpp:150] Setting up conv1
I0705 15:55:54.624264 50380 net.cpp:157] Top shape: 16 64 109 109 (12166144)
I0705 15:55:54.624274 50380 net.cpp:165] Memory required for data: 58298560
I0705 15:55:54.624292 50380 layer_factory.hpp:76] Creating layer conv1_bn
I0705 15:55:54.624305 50380 net.cpp:106] Creating Layer conv1_bn
I0705 15:55:54.624315 50380 net.cpp:454] conv1_bn <- conv1
I0705 15:55:54.624325 50380 net.cpp:411] conv1_bn -> conv1_bn
I0705 15:55:54.624651 50380 net.cpp:150] Setting up conv1_bn
I0705 15:55:54.624686 50380 net.cpp:157] Top shape: 16 64 109 109 (12166144)
I0705 15:55:54.624694 50380 net.cpp:165] Memory required for data: 106963136
I0705 15:55:54.624723 50380 layer_factory.hpp:76] Creating layer conv1_relu
I0705 15:55:54.624737 50380 net.cpp:106] Creating Layer conv1_relu
I0705 15:55:54.624745 50380 net.cpp:454] conv1_relu <- conv1_bn
I0705 15:55:54.624755 50380 net.cpp:397] conv1_relu -> conv1_bn (in-place)
I0705 15:55:54.625120 50380 net.cpp:150] Setting up conv1_relu
I0705 15:55:54.625152 50380 net.cpp:157] Top shape: 16 64 109 109 (12166144)
I0705 15:55:54.625161 50380 net.cpp:165] Memory required for data: 155627712
I0705 15:55:54.625170 50380 layer_factory.hpp:76] Creating layer pool1
I0705 15:55:54.625183 50380 net.cpp:106] Creating Layer pool1
I0705 15:55:54.625232 50380 net.cpp:454] pool1 <- conv1_bn
I0705 15:55:54.625244 50380 net.cpp:411] pool1 -> pool1
I0705 15:55:54.625463 50380 net.cpp:150] Setting up pool1
I0705 15:55:54.625497 50380 net.cpp:157] Top shape: 16 64 54 54 (2985984)
I0705 15:55:54.625506 50380 net.cpp:165] Memory required for data: 167571648
I0705 15:55:54.625515 50380 layer_factory.hpp:76] Creating layer pool1_pool1_0_split
I0705 15:55:54.625526 50380 net.cpp:106] Creating Layer pool1_pool1_0_split
I0705 15:55:54.625535 50380 net.cpp:454] pool1_pool1_0_split <- pool1
I0705 15:55:54.625545 50380 net.cpp:411] pool1_pool1_0_split -> pool1_pool1_0_split_0
I0705 15:55:54.625556 50380 net.cpp:411] pool1_pool1_0_split -> pool1_pool1_0_split_1
I0705 15:55:54.625604 50380 net.cpp:150] Setting up pool1_pool1_0_split
I0705 15:55:54.625617 50380 net.cpp:157] Top shape: 16 64 54 54 (2985984)
I0705 15:55:54.625627 50380 net.cpp:157] Top shape: 16 64 54 54 (2985984)
I0705 15:55:54.625634 50380 net.cpp:165] Memory required for data: 191459520
I0705 15:55:54.625643 50380 layer_factory.hpp:76] Creating layer conv1_output
I0705 15:55:54.625654 50380 net.cpp:106] Creating Layer conv1_output
I0705 15:55:54.625663 50380 net.cpp:454] conv1_output <- pool1_pool1_0_split_0
I0705 15:55:54.625674 50380 net.cpp:411] conv1_output -> conv1_output
I0705 15:55:54.627250 50380 cudnn_conv_layer.cpp:194] Reallocating workspace storage: 768
I0705 15:55:54.627300 50380 net.cpp:150] Setting up conv1_output
I0705 15:55:54.627312 50380 net.cpp:157] Top shape: 16 256 54 54 (11943936)
I0705 15:55:54.627321 50380 net.cpp:165] Memory required for data: 239235264
I0705 15:55:54.627333 50380 layer_factory.hpp:76] Creating layer conv2_1_1
I0705 15:55:54.627349 50380 net.cpp:106] Creating Layer conv2_1_1
I0705 15:55:54.627360 50380 net.cpp:454] conv2_1_1 <- pool1_pool1_0_split_1
I0705 15:55:54.627388 50380 net.cpp:411] conv2_1_1 -> conv2_1_1
I0705 15:55:54.630179 50380 net.cpp:150] Setting up conv2_1_1
I0705 15:55:54.630218 50380 net.cpp:157] Top shape: 16 64 54 54 (2985984)
I0705 15:55:54.630228 50380 net.cpp:165] Memory required for data: 251179200
I0705 15:55:54.630244 50380 layer_factory.hpp:76] Creating layer conv2_1_1_bn
I0705 15:55:54.630259 50380 net.cpp:106] Creating Layer conv2_1_1_bn
I0705 15:55:54.630269 50380 net.cpp:454] conv2_1_1_bn <- conv2_1_1
I0705 15:55:54.630280 50380 net.cpp:411] conv2_1_1_bn -> conv2_1_1_bn
I0705 15:55:54.630537 50380 net.cpp:150] Setting up conv2_1_1_bn
I0705 15:55:54.630564 50380 net.cpp:157] Top shape: 16 64 54 54 (2985984)
I0705 15:55:54.630573 50380 net.cpp:165] Memory required for data: 263123136
I0705 15:55:54.630585 50380 layer_factory.hpp:76] Creating layer conv2_1_1_relu
I0705 15:55:54.630600 50380 net.cpp:106] Creating Layer conv2_1_1_relu
I0705 15:55:54.630609 50380 net.cpp:454] conv2_1_1_relu <- conv2_1_1_bn
I0705 15:55:54.630619 50380 net.cpp:397] conv2_1_1_relu -> conv2_1_1_bn (in-place)
I0705 15:55:54.634487 50380 net.cpp:150] Setting up conv2_1_1_relu
I0705 15:55:54.634523 50380 net.cpp:157] Top shape: 16 64 54 54 (2985984)
I0705 15:55:54.634532 50380 net.cpp:165] Memory required for data: 275067072
I0705 15:55:54.634541 50380 layer_factory.hpp:76] Creating layer conv2_1_2
I0705 15:55:54.634557 50380 net.cpp:106] Creating Layer conv2_1_2
I0705 15:55:54.634567 50380 net.cpp:454] conv2_1_2 <- conv2_1_1_bn
I0705 15:55:54.634580 50380 net.cpp:411] conv2_1_2 -> conv2_1_2
I0705 15:55:54.636824 50380 net.cpp:150] Setting up conv2_1_2
I0705 15:55:54.636858 50380 net.cpp:157] Top shape: 16 64 54 54 (2985984)
I0705 15:55:54.636870 50380 net.cpp:165] Memory required for data: 287011008
I0705 15:55:54.636883 50380 layer_factory.hpp:76] Creating layer conv2_1_2_bn
I0705 15:55:54.636894 50380 net.cpp:106] Creating Layer conv2_1_2_bn
I0705 15:55:54.636903 50380 net.cpp:454] conv2_1_2_bn <- conv2_1_2
I0705 15:55:54.636915 50380 net.cpp:411] conv2_1_2_bn -> conv2_1_2_bn
I0705 15:55:54.637172 50380 net.cpp:150] Setting up conv2_1_2_bn
I0705 15:55:54.637198 50380 net.cpp:157] Top shape: 16 64 54 54 (2985984)
I0705 15:55:54.637207 50380 net.cpp:165] Memory required for data: 298954944
I0705 15:55:54.637238 50380 layer_factory.hpp:76] Creating layer conv2_1_2_relu
I0705 15:55:54.637254 50380 net.cpp:106] Creating Layer conv2_1_2_relu
I0705 15:55:54.637275 50380 net.cpp:454] conv2_1_2_relu <- conv2_1_2_bn
I0705 15:55:54.637286 50380 net.cpp:397] conv2_1_2_relu -> conv2_1_2_bn (in-place)
I0705 15:55:54.637639 50380 net.cpp:150] Setting up conv2_1_2_relu
I0705 15:55:54.637671 50380 net.cpp:157] Top shape: 16 64 54 54 (2985984)
I0705 15:55:54.637681 50380 net.cpp:165] Memory required for data: 310898880
I0705 15:55:54.637689 50380 layer_factory.hpp:76] Creating layer conv2_1_3
I0705 15:55:54.637703 50380 net.cpp:106] Creating Layer conv2_1_3
I0705 15:55:54.637712 50380 net.cpp:454] conv2_1_3 <- conv2_1_2_bn
I0705 15:55:54.637723 50380 net.cpp:411] conv2_1_3 -> conv2_1_3
I0705 15:55:54.639189 50380 cudnn_conv_layer.cpp:194] Reallocating workspace storage: 768
I0705 15:55:54.639238 50380 net.cpp:150] Setting up conv2_1_3
I0705 15:55:54.639251 50380 net.cpp:157] Top shape: 16 256 54 54 (11943936)
I0705 15:55:54.639259 50380 net.cpp:165] Memory required for data: 358674624
I0705 15:55:54.639271 50380 layer_factory.hpp:76] Creating layer conv2_1_sum
I0705 15:55:54.639283 50380 net.cpp:106] Creating Layer conv2_1_sum
I0705 15:55:54.639292 50380 net.cpp:454] conv2_1_sum <- conv1_output
I0705 15:55:54.639302 50380 net.cpp:454] conv2_1_sum <- conv2_1_3
I0705 15:55:54.639313 50380 net.cpp:411] conv2_1_sum -> conv2_1_sum
I0705 15:55:54.639351 50380 net.cpp:150] Setting up conv2_1_sum
I0705 15:55:54.639365 50380 net.cpp:157] Top shape: 16 256 54 54 (11943936)
I0705 15:55:54.639374 50380 net.cpp:165] Memory required for data: 406450368
I0705 15:55:54.639381 50380 layer_factory.hpp:76] Creating layer conv2_1_sum_bn
I0705 15:55:54.639396 50380 net.cpp:106] Creating Layer conv2_1_sum_bn
I0705 15:55:54.639407 50380 net.cpp:454] conv2_1_sum_bn <- conv2_1_sum
I0705 15:55:54.639434 50380 net.cpp:411] conv2_1_sum_bn -> conv2_1_sum_bn
I0705 15:55:54.639690 50380 net.cpp:150] Setting up conv2_1_sum_bn
I0705 15:55:54.639716 50380 net.cpp:157] Top shape: 16 256 54 54 (11943936)
I0705 15:55:54.639724 50380 net.cpp:165] Memory required for data: 454226112
I0705 15:55:54.639737 50380 layer_factory.hpp:76] Creating layer conv2_1_sum_relu
I0705 15:55:54.639750 50380 net.cpp:106] Creating Layer conv2_1_sum_relu
I0705 15:55:54.639758 50380 net.cpp:454] conv2_1_sum_relu <- conv2_1_sum_bn
I0705 15:55:54.639767 50380 net.cpp:397] conv2_1_sum_relu -> conv2_1_sum_bn (in-place)
I0705 15:55:54.640112 50380 net.cpp:150] Setting up conv2_1_sum_relu
I0705 15:55:54.640143 50380 net.cpp:157] Top shape: 16 256 54 54 (11943936)
I0705 15:55:54.640151 50380 net.cpp:165] Memory required for data: 502001856
I0705 15:55:54.640161 50380 layer_factory.hpp:76] Creating layer conv2_1_sum_bn_conv2_1_sum_relu_0_split
I0705 15:55:54.640172 50380 net.cpp:106] Creating Layer conv2_1_sum_bn_conv2_1_sum_relu_0_split
I0705 15:55:54.640182 50380 net.cpp:454] conv2_1_sum_bn_conv2_1_sum_relu_0_split <- conv2_1_sum_bn
I0705 15:55:54.640192 50380 net.cpp:411] conv2_1_sum_bn_conv2_1_sum_relu_0_split -> conv2_1_sum_bn_conv2_1_sum_relu_0_split_0
I0705 15:55:54.640205 50380 net.cpp:411] conv2_1_sum_bn_conv2_1_sum_relu_0_split -> conv2_1_sum_bn_conv2_1_sum_relu_0_split_1
I0705 15:55:54.640259 50380 net.cpp:150] Setting up conv2_1_sum_bn_conv2_1_sum_relu_0_split
I0705 15:55:54.640272 50380 net.cpp:157] Top shape: 16 256 54 54 (11943936)
I0705 15:55:54.640281 50380 net.cpp:157] Top shape: 16 256 54 54 (11943936)
I0705 15:55:54.640290 50380 net.cpp:165] Memory required for data: 597553344
I0705 15:55:54.640298 50380 layer_factory.hpp:76] Creating layer conv2_2_1
I0705 15:55:54.640312 50380 net.cpp:106] Creating Layer conv2_2_1
I0705 15:55:54.640321 50380 net.cpp:454] conv2_2_1 <- conv2_1_sum_bn_conv2_1_sum_relu_0_split_0
I0705 15:55:54.640332 50380 net.cpp:411] conv2_2_1 -> conv2_2_1
I0705 15:55:54.641993 50380 cudnn_conv_layer.cpp:194] Reallocating workspace storage: 3072
I0705 15:55:54.642058 50380 net.cpp:150] Setting up conv2_2_1
I0705 15:55:54.642084 50380 net.cpp:157] Top shape: 16 64 54 54 (2985984)
I0705 15:55:54.642093 50380 net.cpp:165] Memory required for data: 609497280
I0705 15:55:54.642105 50380 layer_factory.hpp:76] Creating layer conv2_2_1_bn
I0705 15:55:54.642117 50380 net.cpp:106] Creating Layer conv2_2_1_bn
I0705 15:55:54.642127 50380 net.cpp:454] conv2_2_1_bn <- conv2_2_1
I0705 15:55:54.642140 50380 net.cpp:411] conv2_2_1_bn -> conv2_2_1_bn
I0705 15:55:54.642436 50380 net.cpp:150] Setting up conv2_2_1_bn
I0705 15:55:54.642449 50380 net.cpp:157] Top shape: 16 64 54 54 (2985984)
I0705 15:55:54.642469 50380 net.cpp:165] Memory required for data: 621441216
I0705 15:55:54.642482 50380 layer_factory.hpp:76] Creating layer conv2_2_1_relu
I0705 15:55:54.642493 50380 net.cpp:106] Creating Layer conv2_2_1_relu
I0705 15:55:54.642500 50380 net.cpp:454] conv2_2_1_relu <- conv2_2_1_bn
I0705 15:55:54.642510 50380 net.cpp:397] conv2_2_1_relu -> conv2_2_1_bn (in-place)
I0705 15:55:54.642724 50380 net.cpp:150] Setting up conv2_2_1_relu
I0705 15:55:54.642750 50380 net.cpp:157] Top shape: 16 64 54 54 (2985984)
I0705 15:55:54.642758 50380 net.cpp:165] Memory required for data: 633385152
I0705 15:55:54.642768 50380 layer_factory.hpp:76] Creating layer conv2_2_2
I0705 15:55:54.642783 50380 net.cpp:106] Creating Layer conv2_2_2
I0705 15:55:54.642792 50380 net.cpp:454] conv2_2_2 <- conv2_2_1_bn
I0705 15:55:54.642803 50380 net.cpp:411] conv2_2_2 -> conv2_2_2
I0705 15:55:54.645076 50380 net.cpp:150] Setting up conv2_2_2
I0705 15:55:54.645109 50380 net.cpp:157] Top shape: 16 64 54 54 (2985984)
I0705 15:55:54.645118 50380 net.cpp:165] Memory required for data: 645329088
I0705 15:55:54.645130 50380 layer_factory.hpp:76] Creating layer conv2_2_2_bn
I0705 15:55:54.645143 50380 net.cpp:106] Creating Layer conv2_2_2_bn
I0705 15:55:54.645153 50380 net.cpp:454] conv2_2_2_bn <- conv2_2_2
I0705 15:55:54.645162 50380 net.cpp:411] conv2_2_2_bn -> conv2_2_2_bn
I0705 15:55:54.645434 50380 net.cpp:150] Setting up conv2_2_2_bn
I0705 15:55:54.645449 50380 net.cpp:157] Top shape: 16 64 54 54 (2985984)
I0705 15:55:54.645469 50380 net.cpp:165] Memory required for data: 657273024
I0705 15:55:54.645483 50380 layer_factory.hpp:76] Creating layer conv2_2_2_relu
I0705 15:55:54.645493 50380 net.cpp:106] Creating Layer conv2_2_2_relu
I0705 15:55:54.645501 50380 net.cpp:454] conv2_2_2_relu <- conv2_2_2_bn
I0705 15:55:54.645512 50380 net.cpp:397] conv2_2_2_relu -> conv2_2_2_bn (in-place)
I0705 15:55:54.645853 50380 net.cpp:150] Setting up conv2_2_2_relu
I0705 15:55:54.645884 50380 net.cpp:157] Top shape: 16 64 54 54 (2985984)
I0705 15:55:54.645892 50380 net.cpp:165] Memory required for data: 669216960
I0705 15:55:54.645901 50380 layer_factory.hpp:76] Creating layer conv2_2_3
I0705 15:55:54.645921 50380 net.cpp:106] Creating Layer conv2_2_3
I0705 15:55:54.645931 50380 net.cpp:454] conv2_2_3 <- conv2_2_2_bn
I0705 15:55:54.645943 50380 net.cpp:411] conv2_2_3 -> conv2_2_3
I0705 15:55:54.647402 50380 cudnn_conv_layer.cpp:194] Reallocating workspace storage: 768
I0705 15:55:54.647449 50380 net.cpp:150] Setting up conv2_2_3
I0705 15:55:54.647461 50380 net.cpp:157] Top shape: 16 256 54 54 (11943936)
I0705 15:55:54.647470 50380 net.cpp:165] Memory required for data: 716992704
I0705 15:55:54.647490 50380 layer_factory.hpp:76] Creating layer conv2_2_sum
I0705 15:55:54.647516 50380 net.cpp:106] Creating Layer conv2_2_sum
I0705 15:55:54.647526 50380 net.cpp:454] conv2_2_sum <- conv2_1_sum_bn_conv2_1_sum_relu_0_split_1
I0705 15:55:54.647536 50380 net.cpp:454] conv2_2_sum <- conv2_2_3
I0705 15:55:54.647547 50380 net.cpp:411] conv2_2_sum -> conv2_2_sum
I0705 15:55:54.647598 50380 net.cpp:150] Setting up conv2_2_sum
I0705 15:55:54.647610 50380 net.cpp:157] Top shape: 16 256 54 54 (11943936)
I0705 15:55:54.647619 50380 net.cpp:165] Memory required for data: 764768448
I0705 15:55:54.647627 50380 layer_factory.hpp:76] Creating layer conv2_2_sum_bn
I0705 15:55:54.647639 50380 net.cpp:106] Creating Layer conv2_2_sum_bn
I0705 15:55:54.647650 50380 net.cpp:454] conv2_2_sum_bn <- conv2_2_sum
I0705 15:55:54.647680 50380 net.cpp:411] conv2_2_sum_bn -> conv2_2_sum_bn
I0705 15:55:54.647929 50380 net.cpp:150] Setting up conv2_2_sum_bn
I0705 15:55:54.647955 50380 net.cpp:157] Top shape: 16 256 54 54 (11943936)
I0705 15:55:54.647964 50380 net.cpp:165] Memory required for data: 812544192
I0705 15:55:54.647981 50380 layer_factory.hpp:76] Creating layer conv2_2_sum_relu
I0705 15:55:54.647992 50380 net.cpp:106] Creating Layer conv2_2_sum_relu
I0705 15:55:54.648000 50380 net.cpp:454] conv2_2_sum_relu <- conv2_2_sum_bn
I0705 15:55:54.648011 50380 net.cpp:397] conv2_2_sum_relu -> conv2_2_sum_bn (in-place)
I0705 15:55:54.648371 50380 net.cpp:150] Setting up conv2_2_sum_relu
I0705 15:55:54.648407 50380 net.cpp:157] Top shape: 16 256 54 54 (11943936)
I0705 15:55:54.648416 50380 net.cpp:165] Memory required for data: 860319936
I0705 15:55:54.648434 50380 layer_factory.hpp:76] Creating layer conv2_2_sum_bn_conv2_2_sum_relu_0_split
I0705 15:55:54.648476 50380 net.cpp:106] Creating Layer conv2_2_sum_bn_conv2_2_sum_relu_0_split
I0705 15:55:54.648488 50380 net.cpp:454] conv2_2_sum_bn_conv2_2_sum_relu_0_split <- conv2_2_sum_bn
I0705 15:55:54.648500 50380 net.cpp:411] conv2_2_sum_bn_conv2_2_sum_relu_0_split -> conv2_2_sum_bn_conv2_2_sum_relu_0_split_0
I0705 15:55:54.648515 50380 net.cpp:411] conv2_2_sum_bn_conv2_2_sum_relu_0_split -> conv2_2_sum_bn_conv2_2_sum_relu_0_split_1
I0705 15:55:54.648584 50380 net.cpp:150] Setting up conv2_2_sum_bn_conv2_2_sum_relu_0_split
I0705 15:55:54.648598 50380 net.cpp:157] Top shape: 16 256 54 54 (11943936)
I0705 15:55:54.648607 50380 net.cpp:157] Top shape: 16 256 54 54 (11943936)
I0705 15:55:54.648615 50380 net.cpp:165] Memory required for data: 955871424
I0705 15:55:54.648624 50380 layer_factory.hpp:76] Creating layer conv2_output
I0705 15:55:54.648638 50380 net.cpp:106] Creating Layer conv2_output
I0705 15:55:54.648649 50380 net.cpp:454] conv2_output <- conv2_2_sum_bn_conv2_2_sum_relu_0_split_0
I0705 15:55:54.648660 50380 net.cpp:411] conv2_output -> conv2_output
I0705 15:55:54.654505 50380 cudnn_conv_layer.cpp:194] Reallocating workspace storage: 3072
I0705 15:55:54.654574 50380 net.cpp:150] Setting up conv2_output
I0705 15:55:54.654592 50380 net.cpp:157] Top shape: 16 512 27 27 (5971968)
I0705 15:55:54.654600 50380 net.cpp:165] Memory required for data: 979759296
I0705 15:55:54.654614 50380 layer_factory.hpp:76] Creating layer conv3_1_1
I0705 15:55:54.654635 50380 net.cpp:106] Creating Layer conv3_1_1
I0705 15:55:54.654646 50380 net.cpp:454] conv3_1_1 <- conv2_2_sum_bn_conv2_2_sum_relu_0_split_1
I0705 15:55:54.654661 50380 net.cpp:411] conv3_1_1 -> conv3_1_1
I0705 15:55:54.656860 50380 cudnn_conv_layer.cpp:194] Reallocating workspace storage: 3072
I0705 15:55:54.656899 50380 net.cpp:150] Setting up conv3_1_1
I0705 15:55:54.656914 50380 net.cpp:157] Top shape: 16 128 27 27 (1492992)
I0705 15:55:54.656922 50380 net.cpp:165] Memory required for data: 985731264
I0705 15:55:54.656934 50380 layer_factory.hpp:76] Creating layer conv3_1_1_bn
I0705 15:55:54.656955 50380 net.cpp:106] Creating Layer conv3_1_1_bn
I0705 15:55:54.656965 50380 net.cpp:454] conv3_1_1_bn <- conv3_1_1
I0705 15:55:54.656978 50380 net.cpp:411] conv3_1_1_bn -> conv3_1_1_bn
I0705 15:55:54.657227 50380 net.cpp:150] Setting up conv3_1_1_bn
I0705 15:55:54.657243 50380 net.cpp:157] Top shape: 16 128 27 27 (1492992)
I0705 15:55:54.657250 50380 net.cpp:165] Memory required for data: 991703232
I0705 15:55:54.657263 50380 layer_factory.hpp:76] Creating layer conv3_1_1_relu
I0705 15:55:54.657274 50380 net.cpp:106] Creating Layer conv3_1_1_relu
I0705 15:55:54.657282 50380 net.cpp:454] conv3_1_1_relu <- conv3_1_1_bn
I0705 15:55:54.657291 50380 net.cpp:397] conv3_1_1_relu -> conv3_1_1_bn (in-place)
I0705 15:55:54.657513 50380 net.cpp:150] Setting up conv3_1_1_relu
I0705 15:55:54.657531 50380 net.cpp:157] Top shape: 16 128 27 27 (1492992)
I0705 15:55:54.657538 50380 net.cpp:165] Memory required for data: 997675200
I0705 15:55:54.657547 50380 layer_factory.hpp:76] Creating layer conv3_1_2
I0705 15:55:54.657563 50380 net.cpp:106] Creating Layer conv3_1_2
I0705 15:55:54.657601 50380 net.cpp:454] conv3_1_2 <- conv3_1_1_bn
I0705 15:55:54.657625 50380 net.cpp:411] conv3_1_2 -> conv3_1_2
I0705 15:55:54.664093 50380 cudnn_conv_layer.cpp:194] Reallocating workspace storage: 13824
I0705 15:55:54.664167 50380 net.cpp:150] Setting up conv3_1_2
I0705 15:55:54.664182 50380 net.cpp:157] Top shape: 16 128 27 27 (1492992)
I0705 15:55:54.664191 50380 net.cpp:165] Memory required for data: 1003647168
I0705 15:55:54.664207 50380 layer_factory.hpp:76] Creating layer conv3_1_2_bn
I0705 15:55:54.664224 50380 net.cpp:106] Creating Layer conv3_1_2_bn
I0705 15:55:54.664235 50380 net.cpp:454] conv3_1_2_bn <- conv3_1_2
I0705 15:55:54.664248 50380 net.cpp:411] conv3_1_2_bn -> conv3_1_2_bn
I0705 15:55:54.664574 50380 net.cpp:150] Setting up conv3_1_2_bn
I0705 15:55:54.664604 50380 net.cpp:157] Top shape: 16 128 27 27 (1492992)
I0705 15:55:54.664613 50380 net.cpp:165] Memory required for data: 1009619136
I0705 15:55:54.664625 50380 layer_factory.hpp:76] Creating layer conv3_1_2_relu
I0705 15:55:54.664638 50380 net.cpp:106] Creating Layer conv3_1_2_relu
I0705 15:55:54.664645 50380 net.cpp:454] conv3_1_2_relu <- conv3_1_2_bn
I0705 15:55:54.664654 50380 net.cpp:397] conv3_1_2_relu -> conv3_1_2_bn (in-place)
I0705 15:55:54.664880 50380 net.cpp:150] Setting up conv3_1_2_relu
I0705 15:55:54.664908 50380 net.cpp:157] Top shape: 16 128 27 27 (1492992)
I0705 15:55:54.664916 50380 net.cpp:165] Memory required for data: 1015591104
I0705 15:55:54.664924 50380 layer_factory.hpp:76] Creating layer conv3_1_3
I0705 15:55:54.664939 50380 net.cpp:106] Creating Layer conv3_1_3
I0705 15:55:54.664948 50380 net.cpp:454] conv3_1_3 <- conv3_1_2_bn
I0705 15:55:54.664960 50380 net.cpp:411] conv3_1_3 -> conv3_1_3
I0705 15:55:54.667927 50380 cudnn_conv_layer.cpp:194] Reallocating workspace storage: 1536
I0705 15:55:54.667973 50380 net.cpp:150] Setting up conv3_1_3
I0705 15:55:54.667986 50380 net.cpp:157] Top shape: 16 512 27 27 (5971968)
I0705 15:55:54.667994 50380 net.cpp:165] Memory required for data: 1039478976
I0705 15:55:54.668005 50380 layer_factory.hpp:76] Creating layer conv3_1_sum
I0705 15:55:54.668017 50380 net.cpp:106] Creating Layer conv3_1_sum
I0705 15:55:54.668026 50380 net.cpp:454] conv3_1_sum <- conv2_output
I0705 15:55:54.668035 50380 net.cpp:454] conv3_1_sum <- conv3_1_3
I0705 15:55:54.668046 50380 net.cpp:411] conv3_1_sum -> conv3_1_sum
I0705 15:55:54.668084 50380 net.cpp:150] Setting up conv3_1_sum
I0705 15:55:54.668097 50380 net.cpp:157] Top shape: 16 512 27 27 (5971968)
I0705 15:55:54.668104 50380 net.cpp:165] Memory required for data: 1063366848
I0705 15:55:54.668112 50380 layer_factory.hpp:76] Creating layer conv3_1_sum_bn
I0705 15:55:54.668124 50380 net.cpp:106] Creating Layer conv3_1_sum_bn
I0705 15:55:54.668133 50380 net.cpp:454] conv3_1_sum_bn <- conv3_1_sum
I0705 15:55:54.668141 50380 net.cpp:411] conv3_1_sum_bn -> conv3_1_sum_bn
I0705 15:55:54.668367 50380 net.cpp:150] Setting up conv3_1_sum_bn
I0705 15:55:54.668391 50380 net.cpp:157] Top shape: 16 512 27 27 (5971968)
I0705 15:55:54.668400 50380 net.cpp:165] Memory required for data: 1087254720
I0705 15:55:54.668411 50380 layer_factory.hpp:76] Creating layer conv3_1_sum_relu
I0705 15:55:54.668428 50380 net.cpp:106] Creating Layer conv3_1_sum_relu
I0705 15:55:54.668450 50380 net.cpp:454] conv3_1_sum_relu <- conv3_1_sum_bn
I0705 15:55:54.668478 50380 net.cpp:397] conv3_1_sum_relu -> conv3_1_sum_bn (in-place)
I0705 15:55:54.668833 50380 net.cpp:150] Setting up conv3_1_sum_relu
I0705 15:55:54.668864 50380 net.cpp:157] Top shape: 16 512 27 27 (5971968)
I0705 15:55:54.668871 50380 net.cpp:165] Memory required for data: 1111142592
I0705 15:55:54.668879 50380 layer_factory.hpp:76] Creating layer conv3_1_sum_bn_conv3_1_sum_relu_0_split
I0705 15:55:54.668891 50380 net.cpp:106] Creating Layer conv3_1_sum_bn_conv3_1_sum_relu_0_split
I0705 15:55:54.668900 50380 net.cpp:454] conv3_1_sum_bn_conv3_1_sum_relu_0_split <- conv3_1_sum_bn
I0705 15:55:54.668911 50380 net.cpp:411] conv3_1_sum_bn_conv3_1_sum_relu_0_split -> conv3_1_sum_bn_conv3_1_sum_relu_0_split_0
I0705 15:55:54.668963 50380 net.cpp:411] conv3_1_sum_bn_conv3_1_sum_relu_0_split -> conv3_1_sum_bn_conv3_1_sum_relu_0_split_1
I0705 15:55:54.669034 50380 net.cpp:150] Setting up conv3_1_sum_bn_conv3_1_sum_relu_0_split
I0705 15:55:54.669059 50380 net.cpp:157] Top shape: 16 512 27 27 (5971968)
I0705 15:55:54.669069 50380 net.cpp:157] Top shape: 16 512 27 27 (5971968)
I0705 15:55:54.669076 50380 net.cpp:165] Memory required for data: 1158918336
I0705 15:55:54.669085 50380 layer_factory.hpp:76] Creating layer conv3_2_1
I0705 15:55:54.669100 50380 net.cpp:106] Creating Layer conv3_2_1
I0705 15:55:54.669109 50380 net.cpp:454] conv3_2_1 <- conv3_1_sum_bn_conv3_1_sum_relu_0_split_0
I0705 15:55:54.669119 50380 net.cpp:411] conv3_2_1 -> conv3_2_1
I0705 15:55:54.672482 50380 cudnn_conv_layer.cpp:194] Reallocating workspace storage: 6144
I0705 15:55:54.672524 50380 net.cpp:150] Setting up conv3_2_1
I0705 15:55:54.672536 50380 net.cpp:157] Top shape: 16 128 27 27 (1492992)
I0705 15:55:54.672544 50380 net.cpp:165] Memory required for data: 1164890304
I0705 15:55:54.672554 50380 layer_factory.hpp:76] Creating layer conv3_2_1_bn
I0705 15:55:54.672567 50380 net.cpp:106] Creating Layer conv3_2_1_bn
I0705 15:55:54.672576 50380 net.cpp:454] conv3_2_1_bn <- conv3_2_1
I0705 15:55:54.672586 50380 net.cpp:411] conv3_2_1_bn -> conv3_2_1_bn
I0705 15:55:54.672847 50380 net.cpp:150] Setting up conv3_2_1_bn
I0705 15:55:54.672870 50380 net.cpp:157] Top shape: 16 128 27 27 (1492992)
I0705 15:55:54.672878 50380 net.cpp:165] Memory required for data: 1170862272
I0705 15:55:54.672890 50380 layer_factory.hpp:76] Creating layer conv3_2_1_relu
I0705 15:55:54.672900 50380 net.cpp:106] Creating Layer conv3_2_1_relu
I0705 15:55:54.672909 50380 net.cpp:454] conv3_2_1_relu <- conv3_2_1_bn
I0705 15:55:54.672917 50380 net.cpp:397] conv3_2_1_relu -> conv3_2_1_bn (in-place)
I0705 15:55:54.673130 50380 net.cpp:150] Setting up conv3_2_1_relu
I0705 15:55:54.673156 50380 net.cpp:157] Top shape: 16 128 27 27 (1492992)
I0705 15:55:54.673164 50380 net.cpp:165] Memory required for data: 1176834240
I0705 15:55:54.673172 50380 layer_factory.hpp:76] Creating layer conv3_2_2
I0705 15:55:54.673187 50380 net.cpp:106] Creating Layer conv3_2_2
I0705 15:55:54.673194 50380 net.cpp:454] conv3_2_2 <- conv3_2_1_bn
I0705 15:55:54.673207 50380 net.cpp:411] conv3_2_2 -> conv3_2_2
I0705 15:55:54.678701 50380 cudnn_conv_layer.cpp:194] Reallocating workspace storage: 13824
I0705 15:55:54.678745 50380 net.cpp:150] Setting up conv3_2_2
I0705 15:55:54.678760 50380 net.cpp:157] Top shape: 16 128 27 27 (1492992)
I0705 15:55:54.678767 50380 net.cpp:165] Memory required for data: 1182806208
I0705 15:55:54.678778 50380 layer_factory.hpp:76] Creating layer conv3_2_2_bn
I0705 15:55:54.678789 50380 net.cpp:106] Creating Layer conv3_2_2_bn
I0705 15:55:54.678797 50380 net.cpp:454] conv3_2_2_bn <- conv3_2_2
I0705 15:55:54.678809 50380 net.cpp:411] conv3_2_2_bn -> conv3_2_2_bn
I0705 15:55:54.679103 50380 net.cpp:150] Setting up conv3_2_2_bn
I0705 15:55:54.679127 50380 net.cpp:157] Top shape: 16 128 27 27 (1492992)
I0705 15:55:54.679136 50380 net.cpp:165] Memory required for data: 1188778176
I0705 15:55:54.679148 50380 layer_factory.hpp:76] Creating layer conv3_2_2_relu
I0705 15:55:54.679158 50380 net.cpp:106] Creating Layer conv3_2_2_relu
I0705 15:55:54.679167 50380 net.cpp:454] conv3_2_2_relu <- conv3_2_2_bn
I0705 15:55:54.679177 50380 net.cpp:397] conv3_2_2_relu -> conv3_2_2_bn (in-place)
I0705 15:55:54.679388 50380 net.cpp:150] Setting up conv3_2_2_relu
I0705 15:55:54.679415 50380 net.cpp:157] Top shape: 16 128 27 27 (1492992)
I0705 15:55:54.679425 50380 net.cpp:165] Memory required for data: 1194750144
I0705 15:55:54.679431 50380 layer_factory.hpp:76] Creating layer conv3_2_3
I0705 15:55:54.679443 50380 net.cpp:106] Creating Layer conv3_2_3
I0705 15:55:54.679451 50380 net.cpp:454] conv3_2_3 <- conv3_2_2_bn
I0705 15:55:54.679462 50380 net.cpp:411] conv3_2_3 -> conv3_2_3
I0705 15:55:54.682334 50380 cudnn_conv_layer.cpp:194] Reallocating workspace storage: 1536
I0705 15:55:54.682379 50380 net.cpp:150] Setting up conv3_2_3
I0705 15:55:54.682420 50380 net.cpp:157] Top shape: 16 512 27 27 (5971968)
I0705 15:55:54.682428 50380 net.cpp:165] Memory required for data: 1218638016
I0705 15:55:54.682453 50380 layer_factory.hpp:76] Creating layer conv3_2_sum
I0705 15:55:54.682477 50380 net.cpp:106] Creating Layer conv3_2_sum
I0705 15:55:54.682485 50380 net.cpp:454] conv3_2_sum <- conv3_1_sum_bn_conv3_1_sum_relu_0_split_1
I0705 15:55:54.682494 50380 net.cpp:454] conv3_2_sum <- conv3_2_3
I0705 15:55:54.682507 50380 net.cpp:411] conv3_2_sum -> conv3_2_sum
I0705 15:55:54.682546 50380 net.cpp:150] Setting up conv3_2_sum
I0705 15:55:54.682571 50380 net.cpp:157] Top shape: 16 512 27 27 (5971968)
I0705 15:55:54.682579 50380 net.cpp:165] Memory required for data: 1242525888
I0705 15:55:54.682588 50380 layer_factory.hpp:76] Creating layer conv3_2_sum_bn
I0705 15:55:54.682600 50380 net.cpp:106] Creating Layer conv3_2_sum_bn
I0705 15:55:54.682607 50380 net.cpp:454] conv3_2_sum_bn <- conv3_2_sum
I0705 15:55:54.682620 50380 net.cpp:411] conv3_2_sum_bn -> conv3_2_sum_bn
I0705 15:55:54.682869 50380 net.cpp:150] Setting up conv3_2_sum_bn
I0705 15:55:54.682894 50380 net.cpp:157] Top shape: 16 512 27 27 (5971968)
I0705 15:55:54.682903 50380 net.cpp:165] Memory required for data: 1266413760
I0705 15:55:54.682915 50380 layer_factory.hpp:76] Creating layer conv3_2_sum_relu
I0705 15:55:54.682929 50380 net.cpp:106] Creating Layer conv3_2_sum_relu
I0705 15:55:54.682939 50380 net.cpp:454] conv3_2_sum_relu <- conv3_2_sum_bn
I0705 15:55:54.682947 50380 net.cpp:397] conv3_2_sum_relu -> conv3_2_sum_bn (in-place)
I0705 15:55:54.683301 50380 net.cpp:150] Setting up conv3_2_sum_relu
I0705 15:55:54.683331 50380 net.cpp:157] Top shape: 16 512 27 27 (5971968)
I0705 15:55:54.683341 50380 net.cpp:165] Memory required for data: 1290301632
I0705 15:55:54.683348 50380 layer_factory.hpp:76] Creating layer conv3_2_sum_bn_conv3_2_sum_relu_0_split
I0705 15:55:54.683362 50380 net.cpp:106] Creating Layer conv3_2_sum_bn_conv3_2_sum_relu_0_split
I0705 15:55:54.683369 50380 net.cpp:454] conv3_2_sum_bn_conv3_2_sum_relu_0_split <- conv3_2_sum_bn
I0705 15:55:54.683379 50380 net.cpp:411] conv3_2_sum_bn_conv3_2_sum_relu_0_split -> conv3_2_sum_bn_conv3_2_sum_relu_0_split_0
I0705 15:55:54.683392 50380 net.cpp:411] conv3_2_sum_bn_conv3_2_sum_relu_0_split -> conv3_2_sum_bn_conv3_2_sum_relu_0_split_1
I0705 15:55:54.683462 50380 net.cpp:150] Setting up conv3_2_sum_bn_conv3_2_sum_relu_0_split
I0705 15:55:54.683476 50380 net.cpp:157] Top shape: 16 512 27 27 (5971968)
I0705 15:55:54.683486 50380 net.cpp:157] Top shape: 16 512 27 27 (5971968)
I0705 15:55:54.683493 50380 net.cpp:165] Memory required for data: 1338077376
I0705 15:55:54.683502 50380 layer_factory.hpp:76] Creating layer conv3_output
I0705 15:55:54.683516 50380 net.cpp:106] Creating Layer conv3_output
I0705 15:55:54.683526 50380 net.cpp:454] conv3_output <- conv3_2_sum_bn_conv3_2_sum_relu_0_split_0
I0705 15:55:54.683550 50380 net.cpp:411] conv3_output -> conv3_output
I0705 15:55:54.699594 50380 cudnn_conv_layer.cpp:194] Reallocating workspace storage: 6144
I0705 15:55:54.699641 50380 net.cpp:150] Setting up conv3_output
I0705 15:55:54.699653 50380 net.cpp:157] Top shape: 16 1024 14 14 (3211264)
I0705 15:55:54.699661 50380 net.cpp:165] Memory required for data: 1350922432
I0705 15:55:54.699672 50380 layer_factory.hpp:76] Creating layer conv4_1_1
I0705 15:55:54.699687 50380 net.cpp:106] Creating Layer conv4_1_1
I0705 15:55:54.699699 50380 net.cpp:454] conv4_1_1 <- conv3_2_sum_bn_conv3_2_sum_relu_0_split_1
I0705 15:55:54.699723 50380 net.cpp:411] conv4_1_1 -> conv4_1_1
I0705 15:55:54.704190 50380 cudnn_conv_layer.cpp:194] Reallocating workspace storage: 6144
I0705 15:55:54.704232 50380 net.cpp:150] Setting up conv4_1_1
I0705 15:55:54.704244 50380 net.cpp:157] Top shape: 16 256 14 14 (802816)
I0705 15:55:54.704252 50380 net.cpp:165] Memory required for data: 1354133696
I0705 15:55:54.704263 50380 layer_factory.hpp:76] Creating layer conv4_1_1_bn
I0705 15:55:54.704277 50380 net.cpp:106] Creating Layer conv4_1_1_bn
I0705 15:55:54.704287 50380 net.cpp:454] conv4_1_1_bn <- conv4_1_1
I0705 15:55:54.704335 50380 net.cpp:411] conv4_1_1_bn -> conv4_1_1_bn
I0705 15:55:54.704649 50380 net.cpp:150] Setting up conv4_1_1_bn
I0705 15:55:54.704677 50380 net.cpp:157] Top shape: 16 256 14 14 (802816)
I0705 15:55:54.704685 50380 net.cpp:165] Memory required for data: 1357344960
I0705 15:55:54.704699 50380 layer_factory.hpp:76] Creating layer conv4_1_1_relu
I0705 15:55:54.704710 50380 net.cpp:106] Creating Layer conv4_1_1_relu
I0705 15:55:54.704720 50380 net.cpp:454] conv4_1_1_relu <- conv4_1_1_bn
I0705 15:55:54.704730 50380 net.cpp:397] conv4_1_1_relu -> conv4_1_1_bn (in-place)
I0705 15:55:54.705066 50380 net.cpp:150] Setting up conv4_1_1_relu
I0705 15:55:54.705096 50380 net.cpp:157] Top shape: 16 256 14 14 (802816)
I0705 15:55:54.705104 50380 net.cpp:165] Memory required for data: 1360556224
I0705 15:55:54.705112 50380 layer_factory.hpp:76] Creating layer conv4_1_2
I0705 15:55:54.705129 50380 net.cpp:106] Creating Layer conv4_1_2
I0705 15:55:54.705138 50380 net.cpp:454] conv4_1_2 <- conv4_1_1_bn
I0705 15:55:54.705148 50380 net.cpp:411] conv4_1_2 -> conv4_1_2
I0705 15:55:54.723140 50380 cudnn_conv_layer.cpp:194] Reallocating workspace storage: 27648
I0705 15:55:54.723181 50380 net.cpp:150] Setting up conv4_1_2
I0705 15:55:54.723192 50380 net.cpp:157] Top shape: 16 256 14 14 (802816)
I0705 15:55:54.723201 50380 net.cpp:165] Memory required for data: 1363767488
I0705 15:55:54.723212 50380 layer_factory.hpp:76] Creating layer conv4_1_2_bn
I0705 15:55:54.723225 50380 net.cpp:106] Creating Layer conv4_1_2_bn
I0705 15:55:54.723234 50380 net.cpp:454] conv4_1_2_bn <- conv4_1_2
I0705 15:55:54.723244 50380 net.cpp:411] conv4_1_2_bn -> conv4_1_2_bn
I0705 15:55:54.723511 50380 net.cpp:150] Setting up conv4_1_2_bn
I0705 15:55:54.723523 50380 net.cpp:157] Top shape: 16 256 14 14 (802816)
I0705 15:55:54.723543 50380 net.cpp:165] Memory required for data: 1366978752
I0705 15:55:54.723556 50380 layer_factory.hpp:76] Creating layer conv4_1_2_relu
I0705 15:55:54.723567 50380 net.cpp:106] Creating Layer conv4_1_2_relu
I0705 15:55:54.723575 50380 net.cpp:454] conv4_1_2_relu <- conv4_1_2_bn
I0705 15:55:54.723584 50380 net.cpp:397] conv4_1_2_relu -> conv4_1_2_bn (in-place)
I0705 15:55:54.723804 50380 net.cpp:150] Setting up conv4_1_2_relu
I0705 15:55:54.723836 50380 net.cpp:157] Top shape: 16 256 14 14 (802816)
I0705 15:55:54.723845 50380 net.cpp:165] Memory required for data: 1370190016
I0705 15:55:54.723853 50380 layer_factory.hpp:76] Creating layer conv4_1_3
I0705 15:55:54.723866 50380 net.cpp:106] Creating Layer conv4_1_3
I0705 15:55:54.723875 50380 net.cpp:454] conv4_1_3 <- conv4_1_2_bn
I0705 15:55:54.723886 50380 net.cpp:411] conv4_1_3 -> conv4_1_3
I0705 15:55:54.732693 50380 cudnn_conv_layer.cpp:194] Reallocating workspace storage: 3072
I0705 15:55:54.732739 50380 net.cpp:150] Setting up conv4_1_3
I0705 15:55:54.732753 50380 net.cpp:157] Top shape: 16 1024 14 14 (3211264)
I0705 15:55:54.732760 50380 net.cpp:165] Memory required for data: 1383035072
I0705 15:55:54.732770 50380 layer_factory.hpp:76] Creating layer conv4_1_sum
I0705 15:55:54.732784 50380 net.cpp:106] Creating Layer conv4_1_sum
I0705 15:55:54.732796 50380 net.cpp:454] conv4_1_sum <- conv3_output
I0705 15:55:54.732828 50380 net.cpp:454] conv4_1_sum <- conv4_1_3
I0705 15:55:54.732841 50380 net.cpp:411] conv4_1_sum -> conv4_1_sum
I0705 15:55:54.732892 50380 net.cpp:150] Setting up conv4_1_sum
I0705 15:55:54.732904 50380 net.cpp:157] Top shape: 16 1024 14 14 (3211264)
I0705 15:55:54.732913 50380 net.cpp:165] Memory required for data: 1395880128
I0705 15:55:54.732920 50380 layer_factory.hpp:76] Creating layer conv4_1_sum_bn
I0705 15:55:54.732933 50380 net.cpp:106] Creating Layer conv4_1_sum_bn
I0705 15:55:54.732941 50380 net.cpp:454] conv4_1_sum_bn <- conv4_1_sum
I0705 15:55:54.732950 50380 net.cpp:411] conv4_1_sum_bn -> conv4_1_sum_bn
I0705 15:55:54.733204 50380 net.cpp:150] Setting up conv4_1_sum_bn
I0705 15:55:54.733229 50380 net.cpp:157] Top shape: 16 1024 14 14 (3211264)
I0705 15:55:54.733237 50380 net.cpp:165] Memory required for data: 1408725184
I0705 15:55:54.733263 50380 layer_factory.hpp:76] Creating layer conv4_1_sum_relu
I0705 15:55:54.733275 50380 net.cpp:106] Creating Layer conv4_1_sum_relu
I0705 15:55:54.733284 50380 net.cpp:454] conv4_1_sum_relu <- conv4_1_sum_bn
I0705 15:55:54.733294 50380 net.cpp:397] conv4_1_sum_relu -> conv4_1_sum_bn (in-place)
I0705 15:55:54.733640 50380 net.cpp:150] Setting up conv4_1_sum_relu
I0705 15:55:54.733671 50380 net.cpp:157] Top shape: 16 1024 14 14 (3211264)
I0705 15:55:54.733680 50380 net.cpp:165] Memory required for data: 1421570240
I0705 15:55:54.733687 50380 layer_factory.hpp:76] Creating layer conv4_1_sum_bn_conv4_1_sum_relu_0_split
I0705 15:55:54.733707 50380 net.cpp:106] Creating Layer conv4_1_sum_bn_conv4_1_sum_relu_0_split
I0705 15:55:54.733716 50380 net.cpp:454] conv4_1_sum_bn_conv4_1_sum_relu_0_split <- conv4_1_sum_bn
I0705 15:55:54.733726 50380 net.cpp:411] conv4_1_sum_bn_conv4_1_sum_relu_0_split -> conv4_1_sum_bn_conv4_1_sum_relu_0_split_0
I0705 15:55:54.733738 50380 net.cpp:411] conv4_1_sum_bn_conv4_1_sum_relu_0_split -> conv4_1_sum_bn_conv4_1_sum_relu_0_split_1
I0705 15:55:54.733810 50380 net.cpp:150] Setting up conv4_1_sum_bn_conv4_1_sum_relu_0_split
I0705 15:55:54.733824 50380 net.cpp:157] Top shape: 16 1024 14 14 (3211264)
I0705 15:55:54.733832 50380 net.cpp:157] Top shape: 16 1024 14 14 (3211264)
I0705 15:55:54.733840 50380 net.cpp:165] Memory required for data: 1447260352
I0705 15:55:54.733849 50380 layer_factory.hpp:76] Creating layer conv4_2_1
I0705 15:55:54.733862 50380 net.cpp:106] Creating Layer conv4_2_1
I0705 15:55:54.733882 50380 net.cpp:454] conv4_2_1 <- conv4_1_sum_bn_conv4_1_sum_relu_0_split_0
I0705 15:55:54.733894 50380 net.cpp:411] conv4_2_1 -> conv4_2_1
I0705 15:55:54.743072 50380 cudnn_conv_layer.cpp:194] Reallocating workspace storage: 12288
I0705 15:55:54.743119 50380 net.cpp:150] Setting up conv4_2_1
I0705 15:55:54.743131 50380 net.cpp:157] Top shape: 16 256 14 14 (802816)
I0705 15:55:54.743139 50380 net.cpp:165] Memory required for data: 1450471616
I0705 15:55:54.743150 50380 layer_factory.hpp:76] Creating layer conv4_2_1_bn
I0705 15:55:54.743165 50380 net.cpp:106] Creating Layer conv4_2_1_bn
I0705 15:55:54.743173 50380 net.cpp:454] conv4_2_1_bn <- conv4_2_1
I0705 15:55:54.743198 50380 net.cpp:411] conv4_2_1_bn -> conv4_2_1_bn
I0705 15:55:54.743468 50380 net.cpp:150] Setting up conv4_2_1_bn
I0705 15:55:54.743492 50380 net.cpp:157] Top shape: 16 256 14 14 (802816)
I0705 15:55:54.743499 50380 net.cpp:165] Memory required for data: 1453682880
I0705 15:55:54.743511 50380 layer_factory.hpp:76] Creating layer conv4_2_1_relu
I0705 15:55:54.743521 50380 net.cpp:106] Creating Layer conv4_2_1_relu
I0705 15:55:54.743530 50380 net.cpp:454] conv4_2_1_relu <- conv4_2_1_bn
I0705 15:55:54.743538 50380 net.cpp:397] conv4_2_1_relu -> conv4_2_1_bn (in-place)
I0705 15:55:54.743893 50380 net.cpp:150] Setting up conv4_2_1_relu
I0705 15:55:54.743921 50380 net.cpp:157] Top shape: 16 256 14 14 (802816)
I0705 15:55:54.743930 50380 net.cpp:165] Memory required for data: 1456894144
I0705 15:55:54.743938 50380 layer_factory.hpp:76] Creating layer conv4_2_2
I0705 15:55:54.743952 50380 net.cpp:106] Creating Layer conv4_2_2
I0705 15:55:54.743960 50380 net.cpp:454] conv4_2_2 <- conv4_2_1_bn
I0705 15:55:54.743973 50380 net.cpp:411] conv4_2_2 -> conv4_2_2
I0705 15:55:54.762677 50380 cudnn_conv_layer.cpp:194] Reallocating workspace storage: 27648
I0705 15:55:54.762718 50380 net.cpp:150] Setting up conv4_2_2
I0705 15:55:54.762730 50380 net.cpp:157] Top shape: 16 256 14 14 (802816)
I0705 15:55:54.762739 50380 net.cpp:165] Memory required for data: 1460105408
I0705 15:55:54.762750 50380 layer_factory.hpp:76] Creating layer conv4_2_2_bn
I0705 15:55:54.762778 50380 net.cpp:106] Creating Layer conv4_2_2_bn
I0705 15:55:54.762789 50380 net.cpp:454] conv4_2_2_bn <- conv4_2_2
I0705 15:55:54.762801 50380 net.cpp:411] conv4_2_2_bn -> conv4_2_2_bn
I0705 15:55:54.763080 50380 net.cpp:150] Setting up conv4_2_2_bn
I0705 15:55:54.763094 50380 net.cpp:157] Top shape: 16 256 14 14 (802816)
I0705 15:55:54.763113 50380 net.cpp:165] Memory required for data: 1463316672
I0705 15:55:54.763139 50380 layer_factory.hpp:76] Creating layer conv4_2_2_relu
I0705 15:55:54.763150 50380 net.cpp:106] Creating Layer conv4_2_2_relu
I0705 15:55:54.763159 50380 net.cpp:454] conv4_2_2_relu <- conv4_2_2_bn
I0705 15:55:54.763180 50380 net.cpp:397] conv4_2_2_relu -> conv4_2_2_bn (in-place)
I0705 15:55:54.763401 50380 net.cpp:150] Setting up conv4_2_2_relu
I0705 15:55:54.763427 50380 net.cpp:157] Top shape: 16 256 14 14 (802816)
I0705 15:55:54.763434 50380 net.cpp:165] Memory required for data: 1466527936
I0705 15:55:54.763444 50380 layer_factory.hpp:76] Creating layer conv4_2_3
I0705 15:55:54.763458 50380 net.cpp:106] Creating Layer conv4_2_3
I0705 15:55:54.763468 50380 net.cpp:454] conv4_2_3 <- conv4_2_2_bn
I0705 15:55:54.763478 50380 net.cpp:411] conv4_2_3 -> conv4_2_3
I0705 15:55:54.772945 50380 cudnn_conv_layer.cpp:194] Reallocating workspace storage: 3072
I0705 15:55:54.772995 50380 net.cpp:150] Setting up conv4_2_3
I0705 15:55:54.773007 50380 net.cpp:157] Top shape: 16 1024 14 14 (3211264)
I0705 15:55:54.773016 50380 net.cpp:165] Memory required for data: 1479372992
I0705 15:55:54.773027 50380 layer_factory.hpp:76] Creating layer conv4_2_sum
I0705 15:55:54.773046 50380 net.cpp:106] Creating Layer conv4_2_sum
I0705 15:55:54.773057 50380 net.cpp:454] conv4_2_sum <- conv4_1_sum_bn_conv4_1_sum_relu_0_split_1
I0705 15:55:54.773079 50380 net.cpp:454] conv4_2_sum <- conv4_2_3
I0705 15:55:54.773090 50380 net.cpp:411] conv4_2_sum -> conv4_2_sum
I0705 15:55:54.773144 50380 net.cpp:150] Setting up conv4_2_sum
I0705 15:55:54.773169 50380 net.cpp:157] Top shape: 16 1024 14 14 (3211264)
I0705 15:55:54.773177 50380 net.cpp:165] Memory required for data: 1492218048
I0705 15:55:54.773186 50380 layer_factory.hpp:76] Creating layer conv4_2_sum_bn
I0705 15:55:54.773198 50380 net.cpp:106] Creating Layer conv4_2_sum_bn
I0705 15:55:54.773207 50380 net.cpp:454] conv4_2_sum_bn <- conv4_2_sum
I0705 15:55:54.773217 50380 net.cpp:411] conv4_2_sum_bn -> conv4_2_sum_bn
I0705 15:55:54.773515 50380 net.cpp:150] Setting up conv4_2_sum_bn
I0705 15:55:54.773530 50380 net.cpp:157] Top shape: 16 1024 14 14 (3211264)
I0705 15:55:54.773550 50380 net.cpp:165] Memory required for data: 1505063104
I0705 15:55:54.773562 50380 layer_factory.hpp:76] Creating layer conv4_2_sum_relu
I0705 15:55:54.773572 50380 net.cpp:106] Creating Layer conv4_2_sum_relu
I0705 15:55:54.773581 50380 net.cpp:454] conv4_2_sum_relu <- conv4_2_sum_bn
I0705 15:55:54.773591 50380 net.cpp:397] conv4_2_sum_relu -> conv4_2_sum_bn (in-place)
I0705 15:55:54.773964 50380 net.cpp:150] Setting up conv4_2_sum_relu
I0705 15:55:54.773995 50380 net.cpp:157] Top shape: 16 1024 14 14 (3211264)
I0705 15:55:54.774003 50380 net.cpp:165] Memory required for data: 1517908160
I0705 15:55:54.774013 50380 layer_factory.hpp:76] Creating layer conv4_2_sum_bn_conv4_2_sum_relu_0_split
I0705 15:55:54.774022 50380 net.cpp:106] Creating Layer conv4_2_sum_bn_conv4_2_sum_relu_0_split
I0705 15:55:54.774032 50380 net.cpp:454] conv4_2_sum_bn_conv4_2_sum_relu_0_split <- conv4_2_sum_bn
I0705 15:55:54.774041 50380 net.cpp:411] conv4_2_sum_bn_conv4_2_sum_relu_0_split -> conv4_2_sum_bn_conv4_2_sum_relu_0_split_0
I0705 15:55:54.774063 50380 net.cpp:411] conv4_2_sum_bn_conv4_2_sum_relu_0_split -> conv4_2_sum_bn_conv4_2_sum_relu_0_split_1
I0705 15:55:54.774138 50380 net.cpp:150] Setting up conv4_2_sum_bn_conv4_2_sum_relu_0_split
I0705 15:55:54.774164 50380 net.cpp:157] Top shape: 16 1024 14 14 (3211264)
I0705 15:55:54.774185 50380 net.cpp:157] Top shape: 16 1024 14 14 (3211264)
I0705 15:55:54.774194 50380 net.cpp:165] Memory required for data: 1543598272
I0705 15:55:54.774201 50380 layer_factory.hpp:76] Creating layer conv4_output
I0705 15:55:54.774226 50380 net.cpp:106] Creating Layer conv4_output
I0705 15:55:54.774235 50380 net.cpp:454] conv4_output <- conv4_2_sum_bn_conv4_2_sum_relu_0_split_0
I0705 15:55:54.774247 50380 net.cpp:411] conv4_output -> conv4_output
I0705 15:55:54.835845 50380 cudnn_conv_layer.cpp:194] Reallocating workspace storage: 12288
I0705 15:55:54.835923 50380 net.cpp:150] Setting up conv4_output
I0705 15:55:54.835937 50380 net.cpp:157] Top shape: 16 2048 7 7 (1605632)
I0705 15:55:54.835947 50380 net.cpp:165] Memory required for data: 1550020800
I0705 15:55:54.835958 50380 layer_factory.hpp:76] Creating layer conv5_1_1
I0705 15:55:54.835975 50380 net.cpp:106] Creating Layer conv5_1_1
I0705 15:55:54.835988 50380 net.cpp:454] conv5_1_1 <- conv4_2_sum_bn_conv4_2_sum_relu_0_split_1
I0705 15:55:54.836025 50380 net.cpp:411] conv5_1_1 -> conv5_1_1
I0705 15:55:54.851980 50380 cudnn_conv_layer.cpp:194] Reallocating workspace storage: 12288
I0705 15:55:54.852026 50380 net.cpp:150] Setting up conv5_1_1
I0705 15:55:54.852038 50380 net.cpp:157] Top shape: 16 512 7 7 (401408)
I0705 15:55:54.852046 50380 net.cpp:165] Memory required for data: 1551626432
I0705 15:55:54.852068 50380 layer_factory.hpp:76] Creating layer conv5_1_1_bn
I0705 15:55:54.852082 50380 net.cpp:106] Creating Layer conv5_1_1_bn
I0705 15:55:54.852092 50380 net.cpp:454] conv5_1_1_bn <- conv5_1_1
I0705 15:55:54.852102 50380 net.cpp:411] conv5_1_1_bn -> conv5_1_1_bn
I0705 15:55:54.852385 50380 net.cpp:150] Setting up conv5_1_1_bn
I0705 15:55:54.852411 50380 net.cpp:157] Top shape: 16 512 7 7 (401408)
I0705 15:55:54.852418 50380 net.cpp:165] Memory required for data: 1553232064
I0705 15:55:54.852448 50380 layer_factory.hpp:76] Creating layer conv5_1_1_relu
I0705 15:55:54.852463 50380 net.cpp:106] Creating Layer conv5_1_1_relu
I0705 15:55:54.852471 50380 net.cpp:454] conv5_1_1_relu <- conv5_1_1_bn
I0705 15:55:54.852505 50380 net.cpp:397] conv5_1_1_relu -> conv5_1_1_bn (in-place)
I0705 15:55:54.852857 50380 net.cpp:150] Setting up conv5_1_1_relu
I0705 15:55:54.852887 50380 net.cpp:157] Top shape: 16 512 7 7 (401408)
I0705 15:55:54.852895 50380 net.cpp:165] Memory required for data: 1554837696
I0705 15:55:54.852903 50380 layer_factory.hpp:76] Creating layer conv5_1_2
I0705 15:55:54.852918 50380 net.cpp:106] Creating Layer conv5_1_2
I0705 15:55:54.852927 50380 net.cpp:454] conv5_1_2 <- conv5_1_1_bn
I0705 15:55:54.852941 50380 net.cpp:411] conv5_1_2 -> conv5_1_2
I0705 15:55:54.922551 50380 cudnn_conv_layer.cpp:194] Reallocating workspace storage: 55296
I0705 15:55:54.922605 50380 net.cpp:150] Setting up conv5_1_2
I0705 15:55:54.922619 50380 net.cpp:157] Top shape: 16 512 7 7 (401408)
I0705 15:55:54.922628 50380 net.cpp:165] Memory required for data: 1556443328
I0705 15:55:54.922641 50380 layer_factory.hpp:76] Creating layer conv5_1_2_bn
I0705 15:55:54.922659 50380 net.cpp:106] Creating Layer conv5_1_2_bn
I0705 15:55:54.922683 50380 net.cpp:454] conv5_1_2_bn <- conv5_1_2
I0705 15:55:54.922696 50380 net.cpp:411] conv5_1_2_bn -> conv5_1_2_bn
I0705 15:55:54.923013 50380 net.cpp:150] Setting up conv5_1_2_bn
I0705 15:55:54.923040 50380 net.cpp:157] Top shape: 16 512 7 7 (401408)
I0705 15:55:54.923048 50380 net.cpp:165] Memory required for data: 1558048960
I0705 15:55:54.923068 50380 layer_factory.hpp:76] Creating layer conv5_1_2_relu
I0705 15:55:54.923079 50380 net.cpp:106] Creating Layer conv5_1_2_relu
I0705 15:55:54.923087 50380 net.cpp:454] conv5_1_2_relu <- conv5_1_2_bn
I0705 15:55:54.923096 50380 net.cpp:397] conv5_1_2_relu -> conv5_1_2_bn (in-place)
I0705 15:55:54.923491 50380 net.cpp:150] Setting up conv5_1_2_relu
I0705 15:55:54.923521 50380 net.cpp:157] Top shape: 16 512 7 7 (401408)
I0705 15:55:54.923530 50380 net.cpp:165] Memory required for data: 1559654592
I0705 15:55:54.923538 50380 layer_factory.hpp:76] Creating layer conv5_1_3
I0705 15:55:54.923554 50380 net.cpp:106] Creating Layer conv5_1_3
I0705 15:55:54.923563 50380 net.cpp:454] conv5_1_3 <- conv5_1_2_bn
I0705 15:55:54.923578 50380 net.cpp:411] conv5_1_3 -> conv5_1_3
I0705 15:55:54.955052 50380 cudnn_conv_layer.cpp:194] Reallocating workspace storage: 6144
I0705 15:55:54.955102 50380 net.cpp:150] Setting up conv5_1_3
I0705 15:55:54.955116 50380 net.cpp:157] Top shape: 16 2048 7 7 (1605632)
I0705 15:55:54.955123 50380 net.cpp:165] Memory required for data: 1566077120
I0705 15:55:54.955147 50380 layer_factory.hpp:76] Creating layer conv5_1_sum
I0705 15:55:54.955184 50380 net.cpp:106] Creating Layer conv5_1_sum
I0705 15:55:54.955194 50380 net.cpp:454] conv5_1_sum <- conv4_output
I0705 15:55:54.955204 50380 net.cpp:454] conv5_1_sum <- conv5_1_3
I0705 15:55:54.955214 50380 net.cpp:411] conv5_1_sum -> conv5_1_sum
I0705 15:55:54.955257 50380 net.cpp:150] Setting up conv5_1_sum
I0705 15:55:54.955271 50380 net.cpp:157] Top shape: 16 2048 7 7 (1605632)
I0705 15:55:54.955279 50380 net.cpp:165] Memory required for data: 1572499648
I0705 15:55:54.955301 50380 layer_factory.hpp:76] Creating layer conv5_1_sum_bn
I0705 15:55:54.955312 50380 net.cpp:106] Creating Layer conv5_1_sum_bn
I0705 15:55:54.955320 50380 net.cpp:454] conv5_1_sum_bn <- conv5_1_sum
I0705 15:55:54.955343 50380 net.cpp:411] conv5_1_sum_bn -> conv5_1_sum_bn
I0705 15:55:54.955621 50380 net.cpp:150] Setting up conv5_1_sum_bn
I0705 15:55:54.955644 50380 net.cpp:157] Top shape: 16 2048 7 7 (1605632)
I0705 15:55:54.955651 50380 net.cpp:165] Memory required for data: 1578922176
I0705 15:55:54.955664 50380 layer_factory.hpp:76] Creating layer conv5_1_sum_relu
I0705 15:55:54.955682 50380 net.cpp:106] Creating Layer conv5_1_sum_relu
I0705 15:55:54.955690 50380 net.cpp:454] conv5_1_sum_relu <- conv5_1_sum_bn
I0705 15:55:54.955699 50380 net.cpp:397] conv5_1_sum_relu -> conv5_1_sum_bn (in-place)
I0705 15:55:54.955920 50380 net.cpp:150] Setting up conv5_1_sum_relu
I0705 15:55:54.955945 50380 net.cpp:157] Top shape: 16 2048 7 7 (1605632)
I0705 15:55:54.955953 50380 net.cpp:165] Memory required for data: 1585344704
I0705 15:55:54.955962 50380 layer_factory.hpp:76] Creating layer conv5_1_sum_bn_conv5_1_sum_relu_0_split
I0705 15:55:54.955972 50380 net.cpp:106] Creating Layer conv5_1_sum_bn_conv5_1_sum_relu_0_split
I0705 15:55:54.955981 50380 net.cpp:454] conv5_1_sum_bn_conv5_1_sum_relu_0_split <- conv5_1_sum_bn
I0705 15:55:54.955991 50380 net.cpp:411] conv5_1_sum_bn_conv5_1_sum_relu_0_split -> conv5_1_sum_bn_conv5_1_sum_relu_0_split_0
I0705 15:55:54.956002 50380 net.cpp:411] conv5_1_sum_bn_conv5_1_sum_relu_0_split -> conv5_1_sum_bn_conv5_1_sum_relu_0_split_1
I0705 15:55:54.956073 50380 net.cpp:150] Setting up conv5_1_sum_bn_conv5_1_sum_relu_0_split
I0705 15:55:54.956086 50380 net.cpp:157] Top shape: 16 2048 7 7 (1605632)
I0705 15:55:54.956095 50380 net.cpp:157] Top shape: 16 2048 7 7 (1605632)
I0705 15:55:54.956102 50380 net.cpp:165] Memory required for data: 1598189760
I0705 15:55:54.956110 50380 layer_factory.hpp:76] Creating layer conv5_2_1
I0705 15:55:54.956125 50380 net.cpp:106] Creating Layer conv5_2_1
I0705 15:55:54.956135 50380 net.cpp:454] conv5_2_1 <- conv5_1_sum_bn_conv5_1_sum_relu_0_split_0
I0705 15:55:54.956145 50380 net.cpp:411] conv5_2_1 -> conv5_2_1
I0705 15:55:54.987529 50380 cudnn_conv_layer.cpp:194] Reallocating workspace storage: 19267584
I0705 15:55:54.987779 50380 net.cpp:150] Setting up conv5_2_1
I0705 15:55:54.987809 50380 net.cpp:157] Top shape: 16 512 7 7 (401408)
I0705 15:55:54.987818 50380 net.cpp:165] Memory required for data: 1599795392
I0705 15:55:54.987829 50380 layer_factory.hpp:76] Creating layer conv5_2_1_bn
I0705 15:55:54.987840 50380 net.cpp:106] Creating Layer conv5_2_1_bn
I0705 15:55:54.987849 50380 net.cpp:454] conv5_2_1_bn <- conv5_2_1
I0705 15:55:54.987874 50380 net.cpp:411] conv5_2_1_bn -> conv5_2_1_bn
I0705 15:55:54.988152 50380 net.cpp:150] Setting up conv5_2_1_bn
I0705 15:55:54.988176 50380 net.cpp:157] Top shape: 16 512 7 7 (401408)
I0705 15:55:54.988184 50380 net.cpp:165] Memory required for data: 1601401024
I0705 15:55:54.988196 50380 layer_factory.hpp:76] Creating layer conv5_2_1_relu
I0705 15:55:54.988209 50380 net.cpp:106] Creating Layer conv5_2_1_relu
I0705 15:55:54.988217 50380 net.cpp:454] conv5_2_1_relu <- conv5_2_1_bn
I0705 15:55:54.988226 50380 net.cpp:397] conv5_2_1_relu -> conv5_2_1_bn (in-place)
I0705 15:55:54.988600 50380 net.cpp:150] Setting up conv5_2_1_relu
I0705 15:55:54.988628 50380 net.cpp:157] Top shape: 16 512 7 7 (401408)
I0705 15:55:54.988637 50380 net.cpp:165] Memory required for data: 1603006656
I0705 15:55:54.988646 50380 layer_factory.hpp:76] Creating layer conv5_2_2
I0705 15:55:54.988672 50380 net.cpp:106] Creating Layer conv5_2_2
I0705 15:55:54.988694 50380 net.cpp:454] conv5_2_2 <- conv5_2_1_bn
I0705 15:55:54.988706 50380 net.cpp:411] conv5_2_2 -> conv5_2_2
I0705 15:55:55.057083 50380 cudnn_conv_layer.cpp:194] Reallocating workspace storage: 55296
I0705 15:55:55.057134 50380 net.cpp:150] Setting up conv5_2_2
I0705 15:55:55.057149 50380 net.cpp:157] Top shape: 16 512 7 7 (401408)
I0705 15:55:55.057158 50380 net.cpp:165] Memory required for data: 1604612288
I0705 15:55:55.057170 50380 layer_factory.hpp:76] Creating layer conv5_2_2_bn
I0705 15:55:55.057188 50380 net.cpp:106] Creating Layer conv5_2_2_bn
I0705 15:55:55.057198 50380 net.cpp:454] conv5_2_2_bn <- conv5_2_2
I0705 15:55:55.057224 50380 net.cpp:411] conv5_2_2_bn -> conv5_2_2_bn
I0705 15:55:55.057540 50380 net.cpp:150] Setting up conv5_2_2_bn
I0705 15:55:55.057554 50380 net.cpp:157] Top shape: 16 512 7 7 (401408)
I0705 15:55:55.057574 50380 net.cpp:165] Memory required for data: 1606217920
I0705 15:55:55.057587 50380 layer_factory.hpp:76] Creating layer conv5_2_2_relu
I0705 15:55:55.057598 50380 net.cpp:106] Creating Layer conv5_2_2_relu
I0705 15:55:55.057607 50380 net.cpp:454] conv5_2_2_relu <- conv5_2_2_bn
I0705 15:55:55.057616 50380 net.cpp:397] conv5_2_2_relu -> conv5_2_2_bn (in-place)
I0705 15:55:55.057976 50380 net.cpp:150] Setting up conv5_2_2_relu
I0705 15:55:55.058006 50380 net.cpp:157] Top shape: 16 512 7 7 (401408)
I0705 15:55:55.058014 50380 net.cpp:165] Memory required for data: 1607823552
I0705 15:55:55.058022 50380 layer_factory.hpp:76] Creating layer conv5_2_3
I0705 15:55:55.058037 50380 net.cpp:106] Creating Layer conv5_2_3
I0705 15:55:55.058046 50380 net.cpp:454] conv5_2_3 <- conv5_2_2_bn
I0705 15:55:55.058079 50380 net.cpp:411] conv5_2_3 -> conv5_2_3
I0705 15:55:55.089398 50380 cudnn_conv_layer.cpp:194] Reallocating workspace storage: 6144
I0705 15:55:55.089450 50380 net.cpp:150] Setting up conv5_2_3
I0705 15:55:55.089462 50380 net.cpp:157] Top shape: 16 2048 7 7 (1605632)
I0705 15:55:55.089471 50380 net.cpp:165] Memory required for data: 1614246080
I0705 15:55:55.089519 50380 layer_factory.hpp:76] Creating layer conv5_2_sum
I0705 15:55:55.089535 50380 net.cpp:106] Creating Layer conv5_2_sum
I0705 15:55:55.089545 50380 net.cpp:454] conv5_2_sum <- conv5_1_sum_bn_conv5_1_sum_relu_0_split_1
I0705 15:55:55.089555 50380 net.cpp:454] conv5_2_sum <- conv5_2_3
I0705 15:55:55.089565 50380 net.cpp:411] conv5_2_sum -> conv5_2_sum
I0705 15:55:55.089608 50380 net.cpp:150] Setting up conv5_2_sum
I0705 15:55:55.089622 50380 net.cpp:157] Top shape: 16 2048 7 7 (1605632)
I0705 15:55:55.089629 50380 net.cpp:165] Memory required for data: 1620668608
I0705 15:55:55.089637 50380 layer_factory.hpp:76] Creating layer conv5_2_sum_bn
I0705 15:55:55.089674 50380 net.cpp:106] Creating Layer conv5_2_sum_bn
I0705 15:55:55.089682 50380 net.cpp:454] conv5_2_sum_bn <- conv5_2_sum
I0705 15:55:55.089700 50380 net.cpp:411] conv5_2_sum_bn -> conv5_2_sum_bn
I0705 15:55:55.089987 50380 net.cpp:150] Setting up conv5_2_sum_bn
I0705 15:55:55.090010 50380 net.cpp:157] Top shape: 16 2048 7 7 (1605632)
I0705 15:55:55.090018 50380 net.cpp:165] Memory required for data: 1627091136
I0705 15:55:55.090030 50380 layer_factory.hpp:76] Creating layer conv5_2_sum_relu
I0705 15:55:55.090042 50380 net.cpp:106] Creating Layer conv5_2_sum_relu
I0705 15:55:55.090051 50380 net.cpp:454] conv5_2_sum_relu <- conv5_2_sum_bn
I0705 15:55:55.090061 50380 net.cpp:397] conv5_2_sum_relu -> conv5_2_sum_bn (in-place)
I0705 15:55:55.090301 50380 net.cpp:150] Setting up conv5_2_sum_relu
I0705 15:55:55.090325 50380 net.cpp:157] Top shape: 16 2048 7 7 (1605632)
I0705 15:55:55.090333 50380 net.cpp:165] Memory required for data: 1633513664
I0705 15:55:55.090342 50380 layer_factory.hpp:76] Creating layer pool2
I0705 15:55:55.090353 50380 net.cpp:106] Creating Layer pool2
I0705 15:55:55.090361 50380 net.cpp:454] pool2 <- conv5_2_sum_bn
I0705 15:55:55.090371 50380 net.cpp:411] pool2 -> pool2
I0705 15:55:55.090754 50380 net.cpp:150] Setting up pool2
I0705 15:55:55.090783 50380 net.cpp:157] Top shape: 16 2048 1 1 (32768)
I0705 15:55:55.090837 50380 net.cpp:165] Memory required for data: 1633644736
I0705 15:55:55.090847 50380 layer_factory.hpp:76] Creating layer fc
I0705 15:55:55.090860 50380 net.cpp:106] Creating Layer fc
I0705 15:55:55.090869 50380 net.cpp:454] fc <- pool2
I0705 15:55:55.090879 50380 net.cpp:411] fc -> fc
I0705 15:55:55.091158 50380 net.cpp:150] Setting up fc
I0705 15:55:55.091171 50380 net.cpp:157] Top shape: 16 2 (32)
I0705 15:55:55.091190 50380 net.cpp:165] Memory required for data: 1633644864
I0705 15:55:55.091200 50380 layer_factory.hpp:76] Creating layer fc_fc_0_split
I0705 15:55:55.091210 50380 net.cpp:106] Creating Layer fc_fc_0_split
I0705 15:55:55.091218 50380 net.cpp:454] fc_fc_0_split <- fc
I0705 15:55:55.091228 50380 net.cpp:411] fc_fc_0_split -> fc_fc_0_split_0
I0705 15:55:55.091259 50380 net.cpp:411] fc_fc_0_split -> fc_fc_0_split_1
I0705 15:55:55.091315 50380 net.cpp:150] Setting up fc_fc_0_split
I0705 15:55:55.091326 50380 net.cpp:157] Top shape: 16 2 (32)
I0705 15:55:55.091336 50380 net.cpp:157] Top shape: 16 2 (32)
I0705 15:55:55.091342 50380 net.cpp:165] Memory required for data: 1633645120
I0705 15:55:55.091363 50380 layer_factory.hpp:76] Creating layer loss
I0705 15:55:55.091377 50380 net.cpp:106] Creating Layer loss
I0705 15:55:55.091385 50380 net.cpp:454] loss <- fc_fc_0_split_0
I0705 15:55:55.091393 50380 net.cpp:454] loss <- label_data_1_split_0
I0705 15:55:55.091415 50380 net.cpp:411] loss -> loss
…
