…
I0703 18:47:50.957579 37365 net.cpp:322] The NetState phase (0) differed from the phase (1) specified by a rule in layer acc/top-1
I0703 18:47:50.958444 37365 net.cpp:49] Initializing net from parameters: 
name: "ResNet-34"
state {
  phase: TRAIN
}
layer {
  name: "data"
  type: "ImageData"
  top: "data"
  top: "label"
  include {
    phase: TRAIN
  }
  transform_param {
    mirror: true
    crop_size: 224
    mean_value: 104
    mean_value: 117
    mean_value: 123
  }
  image_data_param {
    source: "../lists/roi-train.lst"
    batch_size: 16
    shuffle: true
    new_height: 256
    new_width: 256
  }
}
layer {
  name: "conv1"
  type: "Convolution"
  bottom: "data"
  top: "conv1"
  param {
    lr_mult: 1
    decay_mult: 1
  }
  param {
    lr_mult: 2
    decay_mult: 0
  }
  convolution_param {
    num_output: 64
    pad: 0
    kernel_size: 7
    stride: 2
    weight_filler {
      type: "msra"
    }
    bias_filler {
      type: "constant"
      value: 0
    }
  }
}
layer {
  name: "conv1_bn"
  type: "BatchNorm"
  bottom: "conv1"
  top: "conv1_bn"
  param {
    lr_mult: 0
  }
  param {
    lr_mult: 0
  }
  param {
    lr_mult: 0
  }
}
layer {
  name: "conv1_relu"
  type: "ReLU"
  bottom: "conv1_bn"
  top: "conv1_bn"
}
layer {
  name: "pool1"
  type: "Pooling"
  bottom: "conv1_bn"
  top: "pool1"
  pooling_param {
    pool: MAX
    kernel_size: 3
    stride: 2
  }
}
layer {
  name: "conv1_output"
  type: "Convolution"
  bottom: "pool1"
  top: "conv1_output"
  param {
    lr_mult: 1
    decay_mult: 1
  }
  param {
    lr_mult: 2
    decay_mult: 0
  }
  convolution_param {
    num_output: 256
    pad: 0
    kernel_size: 1
    stride: 1
    weight_filler {
      type: "msra"
    }
    bias_filler {
      type: "constant"
      value: 0
    }
  }
}
layer {
  name: "conv2_1_1"
  type: "Convolution"
  bottom: "pool1"
  top: "conv2_1_1"
  param {
    lr_mult: 1
    decay_mult: 1
  }
  param {
    lr_mult: 2
    decay_mult: 0
  }
  convolution_param {
    num_output: 64
    pad: 0
    kernel_size: 1
    stride: 1
    weight_filler {
      type: "msra"
    }
    bias_filler {
      type: "constant"
      value: 0
    }
  }
}
layer {
  name: "conv2_1_1_bn"
  type: "BatchNorm"
  bottom: "conv2_1_1"
  top: "conv2_1_1_bn"
  param {
    lr_mult: 0
  }
  param {
    lr_mult: 0
  }
  param {
    lr_mult: 0
  }
}
layer {
  name: "conv2_1_1_relu"
  type: "ReLU"
  bottom: "conv2_1_1_bn"
  top: "conv2_1_1_bn"
}
layer {
  name: "conv2_1_2"
  type: "Convolution"
  bottom: "conv2_1_1_bn"
  top: "conv2_1_2"
  param {
    lr_mult: 1
    decay_mult: 1
  }
  param {
    lr_mult: 2
    decay_mult: 0
  }
  convolution_param {
    num_output: 64
    pad: 1
    kernel_size: 3
    stride: 1
    weight_filler {
      type: "msra"
    }
    bias_filler {
      type: "constant"
      value: 0
    }
  }
}
layer {
  name: "conv2_1_2_bn"
  type: "BatchNorm"
  bottom: "conv2_1_2"
  top: "conv2_1_2_bn"
  param {
    lr_mult: 0
  }
  param {
    lr_mult: 0
  }
  param {
    lr_mult: 0
  }
}
layer {
  name: "conv2_1_2_relu"
  type: "ReLU"
  bottom: "conv2_1_2_bn"
  top: "conv2_1_2_bn"
}
layer {
  name: "conv2_1_3"
  type: "Convolution"
  bottom: "conv2_1_2_bn"
  top: "conv2_1_3"
  param {
    lr_mult: 1
    decay_mult: 1
  }
  param {
    lr_mult: 2
    decay_mult: 0
  }
  convolution_param {
    num_output: 256
    pad: 0
    kernel_size: 1
    stride: 1
    weight_filler {
      type: "msra"
    }
    bias_filler {
      type: "constant"
      value: 0
    }
  }
}
layer {
  name: "conv2_1_sum"
  type: "Eltwise"
  bottom: "conv1_output"
  bottom: "conv2_1_3"
  top: "conv2_1_sum"
  eltwise_param {
    operation: SUM
  }
}
layer {
  name: "conv2_1_sum_bn"
  type: "BatchNorm"
  bottom: "conv2_1_sum"
  top: "conv2_1_sum_bn"
  param {
    lr_mult: 0
  }
  param {
    lr_mult: 0
  }
  param {
    lr_mult: 0
  }
}
layer {
  name: "conv2_1_sum_relu"
  type: "ReLU"
  bottom: "conv2_1_sum_bn"
  top: "conv2_1_sum_bn"
}
layer {
  name: "conv2_2_1"
  type: "Convolution"
  bottom: "conv2_1_sum_bn"
  top: "conv2_2_1"
  param {
    lr_mult: 1
    decay_mult: 1
  }
  param {
    lr_mult: 2
    decay_mult: 0
  }
  convolution_param {
    num_output: 64
    pad: 0
    kernel_size: 1
    stride: 1
    weight_filler {
      type: "msra"
    }
    bias_filler {
      type: "constant"
      value: 0
    }
  }
}
layer {
  name: "conv2_2_1_bn"
  type: "BatchNorm"
  bottom: "conv2_2_1"
  top: "conv2_2_1_bn"
  param {
    lr_mult: 0
  }
  param {
    lr_mult: 0
  }
  param {
    lr_mult: 0
  }
}
layer {
  name: "conv2_2_1_relu"
  type: "ReLU"
  bottom: "conv2_2_1_bn"
  top: "conv2_2_1_bn"
}
layer {
  name: "conv2_2_2"
  type: "Convolution"
  bottom: "conv2_2_1_bn"
  top: "conv2_2_2"
  param {
    lr_mult: 1
    decay_mult: 1
  }
  param {
    lr_mult: 2
    decay_mult: 0
  }
  convolution_param {
    num_output: 64
    pad: 1
    kernel_size: 3
    stride: 1
    weight_filler {
      type: "msra"
    }
    bias_filler {
      type: "constant"
      value: 0
    }
  }
}
layer {
  name: "conv2_2_2_bn"
  type: "BatchNorm"
  bottom: "conv2_2_2"
  top: "conv2_2_2_bn"
  param {
    lr_mult: 0
  }
  param {
    lr_mult: 0
  }
  param {
    lr_mult: 0
  }
}
layer {
  name: "conv2_2_2_relu"
  type: "ReLU"
  bottom: "conv2_2_2_bn"
  top: "conv2_2_2_bn"
}
layer {
  name: "conv2_2_3"
  type: "Convolution"
  bottom: "conv2_2_2_bn"
  top: "conv2_2_3"
  param {
    lr_mult: 1
    decay_mult: 1
  }
  param {
    lr_mult: 2
    decay_mult: 0
  }
  convolution_param {
    num_output: 256
    pad: 0
    kernel_size: 1
    stride: 1
    weight_filler {
      type: "msra"
    }
    bias_filler {
      type: "constant"
      value: 0
    }
  }
}
layer {
  name: "conv2_2_sum"
  type: "Eltwise"
  bottom: "conv2_1_sum_bn"
  bottom: "conv2_2_3"
  top: "conv2_2_sum"
  eltwise_param {
    operation: SUM
  }
}
layer {
  name: "conv2_2_sum_bn"
  type: "BatchNorm"
  bottom: "conv2_2_sum"
  top: "conv2_2_sum_bn"
  param {
    lr_mult: 0
  }
  param {
    lr_mult: 0
  }
  param {
    lr_mult: 0
  }
}
layer {
  name: "conv2_2_sum_relu"
  type: "ReLU"
  bottom: "conv2_2_sum_bn"
  top: "conv2_2_sum_bn"
}
layer {
  name: "conv2_3_1"
  type: "Convolution"
  bottom: "conv2_2_sum_bn"
  top: "conv2_3_1"
  param {
    lr_mult: 1
    decay_mult: 1
  }
  param {
    lr_mult: 2
    decay_mult: 0
  }
  convolution_param {
    num_output: 64
    pad: 0
    kernel_size: 1
    stride: 1
    weight_filler {
      type: "msra"
    }
    bias_filler {
      type: "constant"
      value: 0
    }
  }
}
layer {
  name: "conv2_3_1_bn"
  type: "BatchNorm"
  bottom: "conv2_3_1"
  top: "conv2_3_1_bn"
  param {
    lr_mult: 0
  }
  param {
    lr_mult: 0
  }
  param {
    lr_mult: 0
  }
}
layer {
  name: "conv2_3_1_relu"
  type: "ReLU"
  bottom: "conv2_3_1_bn"
  top: "conv2_3_1_bn"
}
layer {
  name: "conv2_3_2"
  type: "Convolution"
  bottom: "conv2_3_1_bn"
  top: "conv2_3_2"
  param {
    lr_mult: 1
    decay_mult: 1
  }
  param {
    lr_mult: 2
    decay_mult: 0
  }
  convolution_param {
    num_output: 64
    pad: 1
    kernel_size: 3
    stride: 1
    weight_filler {
      type: "msra"
    }
    bias_filler {
      type: "constant"
      value: 0
    }
  }
}
layer {
  name: "conv2_3_2_bn"
  type: "BatchNorm"
  bottom: "conv2_3_2"
  top: "conv2_3_2_bn"
  param {
    lr_mult: 0
  }
  param {
    lr_mult: 0
  }
  param {
    lr_mult: 0
  }
}
layer {
  name: "conv2_3_2_relu"
  type: "ReLU"
  bottom: "conv2_3_2_bn"
  top: "conv2_3_2_bn"
}
layer {
  name: "conv2_3_3"
  type: "Convolution"
  bottom: "conv2_3_2_bn"
  top: "conv2_3_3"
  param {
    lr_mult: 1
    decay_mult: 1
  }
  param {
    lr_mult: 2
    decay_mult: 0
  }
  convolution_param {
    num_output: 256
    pad: 0
    kernel_size: 1
    stride: 1
    weight_filler {
      type: "msra"
    }
    bias_filler {
      type: "constant"
      value: 0
    }
  }
}
layer {
  name: "conv2_3_sum"
  type: "Eltwise"
  bottom: "conv2_2_sum_bn"
  bottom: "conv2_3_3"
  top: "conv2_3_sum"
  eltwise_param {
    operation: SUM
  }
}
layer {
  name: "conv2_3_sum_bn"
  type: "BatchNorm"
  bottom: "conv2_3_sum"
  top: "conv2_3_sum_bn"
  param {
    lr_mult: 0
  }
  param {
    lr_mult: 0
  }
  param {
    lr_mult: 0
  }
}
layer {
  name: "conv2_3_sum_relu"
  type: "ReLU"
  bottom: "conv2_3_sum_bn"
  top: "conv2_3_sum_bn"
}
layer {
  name: "conv2_output"
  type: "Convolution"
  bottom: "conv2_3_sum_bn"
  top: "conv2_output"
  param {
    lr_mult: 1
    decay_mult: 1
  }
  param {
    lr_mult: 2
    decay_mult: 0
  }
  convolution_param {
    num_output: 512
    pad: 0
    kernel_size: 1
    stride: 2
    weight_filler {
      type: "msra"
    }
    bias_filler {
      type: "constant"
      value: 0
    }
  }
}
layer {
  name: "conv3_1_1"
  type: "Convolution"
  bottom: "conv2_3_sum_bn"
  top: "conv3_1_1"
  param {
    lr_mult: 1
    decay_mult: 1
  }
  param {
    lr_mult: 2
    decay_mult: 0
  }
  convolution_param {
    num_output: 128
    pad: 0
    kernel_size: 1
    stride: 2
    weight_filler {
      type: "msra"
    }
    bias_filler {
      type: "constant"
      value: 0
    }
  }
}
layer {
  name: "conv3_1_1_bn"
  type: "BatchNorm"
  bottom: "conv3_1_1"
  top: "conv3_1_1_bn"
  param {
    lr_mult: 0
  }
  param {
    lr_mult: 0
  }
  param {
    lr_mult: 0
  }
}
layer {
  name: "conv3_1_1_relu"
  type: "ReLU"
  bottom: "conv3_1_1_bn"
  top: "conv3_1_1_bn"
}
layer {
  name: "conv3_1_2"
  type: "Convolution"
  bottom: "conv3_1_1_bn"
  top: "conv3_1_2"
  param {
    lr_mult: 1
    decay_mult: 1
  }
  param {
    lr_mult: 2
    decay_mult: 0
  }
  convolution_param {
    num_output: 128
    pad: 1
    kernel_size: 3
    stride: 1
    weight_filler {
      type: "msra"
    }
    bias_filler {
      type: "constant"
      value: 0
    }
  }
}
layer {
  name: "conv3_1_2_bn"
  type: "BatchNorm"
  bottom: "conv3_1_2"
  top: "conv3_1_2_bn"
  param {
    lr_mult: 0
  }
  param {
    lr_mult: 0
  }
  param {
    lr_mult: 0
  }
}
layer {
  name: "conv3_1_2_relu"
  type: "ReLU"
  bottom: "conv3_1_2_bn"
  top: "conv3_1_2_bn"
}
layer {
  name: "conv3_1_3"
  type: "Convolution"
  bottom: "conv3_1_2_bn"
  top: "conv3_1_3"
  param {
    lr_mult: 1
    decay_mult: 1
  }
  param {
    lr_mult: 2
    decay_mult: 0
  }
  convolution_param {
    num_output: 512
    pad: 0
    kernel_size: 1
    stride: 1
    weight_filler {
      type: "msra"
    }
    bias_filler {
      type: "constant"
      value: 0
    }
  }
}
layer {
  name: "conv3_1_sum"
  type: "Eltwise"
  bottom: "conv2_output"
  bottom: "conv3_1_3"
  top: "conv3_1_sum"
  eltwise_param {
    operation: SUM
  }
}
layer {
  name: "conv3_1_sum_bn"
  type: "BatchNorm"
  bottom: "conv3_1_sum"
  top: "conv3_1_sum_bn"
  param {
    lr_mult: 0
  }
  param {
    lr_mult: 0
  }
  param {
    lr_mult: 0
  }
}
layer {
  name: "conv3_1_sum_relu"
  type: "ReLU"
  bottom: "conv3_1_sum_bn"
  top: "conv3_1_sum_bn"
}
layer {
  name: "conv3_2_1"
  type: "Convolution"
  bottom: "conv3_1_sum_bn"
  top: "conv3_2_1"
  param {
    lr_mult: 1
    decay_mult: 1
  }
  param {
    lr_mult: 2
    decay_mult: 0
  }
  convolution_param {
    num_output: 128
    pad: 0
    kernel_size: 1
    stride: 1
    weight_filler {
      type: "msra"
    }
    bias_filler {
      type: "constant"
      value: 0
    }
  }
}
layer {
  name: "conv3_2_1_bn"
  type: "BatchNorm"
  bottom: "conv3_2_1"
  top: "conv3_2_1_bn"
  param {
    lr_mult: 0
  }
  param {
    lr_mult: 0
  }
  param {
    lr_mult: 0
  }
}
layer {
  name: "conv3_2_1_relu"
  type: "ReLU"
  bottom: "conv3_2_1_bn"
  top: "conv3_2_1_bn"
}
layer {
  name: "conv3_2_2"
  type: "Convolution"
  bottom: "conv3_2_1_bn"
  top: "conv3_2_2"
  param {
    lr_mult: 1
    decay_mult: 1
  }
  param {
    lr_mult: 2
    decay_mult: 0
  }
  convolution_param {
    num_output: 128
    pad: 1
    kernel_size: 3
    stride: 1
    weight_filler {
      type: "msra"
    }
    bias_filler {
      type: "constant"
      value: 0
    }
  }
}
layer {
  name: "conv3_2_2_bn"
  type: "BatchNorm"
  bottom: "conv3_2_2"
  top: "conv3_2_2_bn"
  param {
    lr_mult: 0
  }
  param {
    lr_mult: 0
  }
  param {
    lr_mult: 0
  }
}
layer {
  name: "conv3_2_2_relu"
  type: "ReLU"
  bottom: "conv3_2_2_bn"
  top: "conv3_2_2_bn"
}
layer {
  name: "conv3_2_3"
  type: "Convolution"
  bottom: "conv3_2_2_bn"
  top: "conv3_2_3"
  param {
    lr_mult: 1
    decay_mult: 1
  }
  param {
    lr_mult: 2
    decay_mult: 0
  }
  convolution_param {
    num_output: 512
    pad: 0
    kernel_size: 1
    stride: 1
    weight_filler {
      type: "msra"
    }
    bias_filler {
      type: "constant"
      value: 0
    }
  }
}
layer {
  name: "conv3_2_sum"
  type: "Eltwise"
  bottom: "conv3_1_sum_bn"
  bottom: "conv3_2_3"
  top: "conv3_2_sum"
  eltwise_param {
    operation: SUM
  }
}
layer {
  name: "conv3_2_sum_bn"
  type: "BatchNorm"
  bottom: "conv3_2_sum"
  top: "conv3_2_sum_bn"
  param {
    lr_mult: 0
  }
  param {
    lr_mult: 0
  }
  param {
    lr_mult: 0
  }
}
layer {
  name: "conv3_2_sum_relu"
  type: "ReLU"
  bottom: "conv3_2_sum_bn"
  top: "conv3_2_sum_bn"
}
layer {
  name: "conv3_3_1"
  type: "Convolution"
  bottom: "conv3_2_sum_bn"
  top: "conv3_3_1"
  param {
    lr_mult: 1
    decay_mult: 1
  }
  param {
    lr_mult: 2
    decay_mult: 0
  }
  convolution_param {
    num_output: 128
    pad: 0
    kernel_size: 1
    stride: 1
    weight_filler {
      type: "msra"
    }
    bias_filler {
      type: "constant"
      value: 0
    }
  }
}
layer {
  name: "conv3_3_1_bn"
  type: "BatchNorm"
  bottom: "conv3_3_1"
  top: "conv3_3_1_bn"
  param {
    lr_mult: 0
  }
  param {
    lr_mult: 0
  }
  param {
    lr_mult: 0
  }
}
layer {
  name: "conv3_3_1_relu"
  type: "ReLU"
  bottom: "conv3_3_1_bn"
  top: "conv3_3_1_bn"
}
layer {
  name: "conv3_3_2"
  type: "Convolution"
  bottom: "conv3_3_1_bn"
  top: "conv3_3_2"
  param {
    lr_mult: 1
    decay_mult: 1
  }
  param {
    lr_mult: 2
    decay_mult: 0
  }
  convolution_param {
    num_output: 128
    pad: 1
    kernel_size: 3
    stride: 1
    weight_filler {
      type: "msra"
    }
    bias_filler {
      type: "constant"
      value: 0
    }
  }
}
layer {
  name: "conv3_3_2_bn"
  type: "BatchNorm"
  bottom: "conv3_3_2"
  top: "conv3_3_2_bn"
  param {
    lr_mult: 0
  }
  param {
    lr_mult: 0
  }
  param {
    lr_mult: 0
  }
}
layer {
  name: "conv3_3_2_relu"
  type: "ReLU"
  bottom: "conv3_3_2_bn"
  top: "conv3_3_2_bn"
}
layer {
  name: "conv3_3_3"
  type: "Convolution"
  bottom: "conv3_3_2_bn"
  top: "conv3_3_3"
  param {
    lr_mult: 1
    decay_mult: 1
  }
  param {
    lr_mult: 2
    decay_mult: 0
  }
  convolution_param {
    num_output: 512
    pad: 0
    kernel_size: 1
    stride: 1
    weight_filler {
      type: "msra"
    }
    bias_filler {
      type: "constant"
      value: 0
    }
  }
}
layer {
  name: "conv3_3_sum"
  type: "Eltwise"
  bottom: "conv3_2_sum_bn"
  bottom: "conv3_3_3"
  top: "conv3_3_sum"
  eltwise_param {
    operation: SUM
  }
}
layer {
  name: "conv3_3_sum_bn"
  type: "BatchNorm"
  bottom: "conv3_3_sum"
  top: "conv3_3_sum_bn"
  param {
    lr_mult: 0
  }
  param {
    lr_mult: 0
  }
  param {
    lr_mult: 0
  }
}
layer {
  name: "conv3_3_sum_relu"
  type: "ReLU"
  bottom: "conv3_3_sum_bn"
  top: "conv3_3_sum_bn"
}
layer {
  name: "conv3_4_1"
  type: "Convolution"
  bottom: "conv3_3_sum_bn"
  top: "conv3_4_1"
  param {
    lr_mult: 1
    decay_mult: 1
  }
  param {
    lr_mult: 2
    decay_mult: 0
  }
  convolution_param {
    num_output: 128
    pad: 0
    kernel_size: 1
    stride: 1
    weight_filler {
      type: "msra"
    }
    bias_filler {
      type: "constant"
      value: 0
    }
  }
}
layer {
  name: "conv3_4_1_bn"
  type: "BatchNorm"
  bottom: "conv3_4_1"
  top: "conv3_4_1_bn"
  param {
    lr_mult: 0
  }
  param {
    lr_mult: 0
  }
  param {
    lr_mult: 0
  }
}
layer {
  name: "conv3_4_1_relu"
  type: "ReLU"
  bottom: "conv3_4_1_bn"
  top: "conv3_4_1_bn"
}
layer {
  name: "conv3_4_2"
  type: "Convolution"
  bottom: "conv3_4_1_bn"
  top: "conv3_4_2"
  param {
    lr_mult: 1
    decay_mult: 1
  }
  param {
    lr_mult: 2
    decay_mult: 0
  }
  convolution_param {
    num_output: 128
    pad: 1
    kernel_size: 3
    stride: 1
    weight_filler {
      type: "msra"
    }
    bias_filler {
      type: "constant"
      value: 0
    }
  }
}
layer {
  name: "conv3_4_2_bn"
  type: "BatchNorm"
  bottom: "conv3_4_2"
  top: "conv3_4_2_bn"
  param {
    lr_mult: 0
  }
  param {
    lr_mult: 0
  }
  param {
    lr_mult: 0
  }
}
layer {
  name: "conv3_4_2_relu"
  type: "ReLU"
  bottom: "conv3_4_2_bn"
  top: "conv3_4_2_bn"
}
layer {
  name: "conv3_4_3"
  type: "Convolution"
  bottom: "conv3_4_2_bn"
  top: "conv3_4_3"
  param {
    lr_mult: 1
    decay_mult: 1
  }
  param {
    lr_mult: 2
    decay_mult: 0
  }
  convolution_param {
    num_output: 512
    pad: 0
    kernel_size: 1
    stride: 1
    weight_filler {
      type: "msra"
    }
    bias_filler {
      type: "constant"
      value: 0
    }
  }
}
layer {
  name: "conv3_4_sum"
  type: "Eltwise"
  bottom: "conv3_3_sum_bn"
  bottom: "conv3_4_3"
  top: "conv3_4_sum"
  eltwise_param {
    operation: SUM
  }
}
layer {
  name: "conv3_4_sum_bn"
  type: "BatchNorm"
  bottom: "conv3_4_sum"
  top: "conv3_4_sum_bn"
  param {
    lr_mult: 0
  }
  param {
    lr_mult: 0
  }
  param {
    lr_mult: 0
  }
}
layer {
  name: "conv3_4_sum_relu"
  type: "ReLU"
  bottom: "conv3_4_sum_bn"
  top: "conv3_4_sum_bn"
}
layer {
  name: "conv3_output"
  type: "Convolution"
  bottom: "conv3_4_sum_bn"
  top: "conv3_output"
  param {
    lr_mult: 1
    decay_mult: 1
  }
  param {
    lr_mult: 2
    decay_mult: 0
  }
  convolution_param {
    num_output: 1024
    pad: 0
    kernel_size: 1
    stride: 2
    weight_filler {
      type: "msra"
    }
    bias_filler {
      type: "constant"
      value: 0
    }
  }
}
layer {
  name: "conv4_1_1"
  type: "Convolution"
  bottom: "conv3_4_sum_bn"
  top: "conv4_1_1"
  param {
    lr_mult: 1
    decay_mult: 1
  }
  param {
    lr_mult: 2
    decay_mult: 0
  }
  convolution_param {
    num_output: 256
    pad: 0
    kernel_size: 1
    stride: 2
    weight_filler {
      type: "msra"
    }
    bias_filler {
      type: "constant"
      value: 0
    }
  }
}
layer {
  name: "conv4_1_1_bn"
  type: "BatchNorm"
  bottom: "conv4_1_1"
  top: "conv4_1_1_bn"
  param {
    lr_mult: 0
  }
  param {
    lr_mult: 0
  }
  param {
    lr_mult: 0
  }
}
layer {
  name: "conv4_1_1_relu"
  type: "ReLU"
  bottom: "conv4_1_1_bn"
  top: "conv4_1_1_bn"
}
layer {
  name: "conv4_1_2"
  type: "Convolution"
  bottom: "conv4_1_1_bn"
  top: "conv4_1_2"
  param {
    lr_mult: 1
    decay_mult: 1
  }
  param {
    lr_mult: 2
    decay_mult: 0
  }
  convolution_param {
    num_output: 256
    pad: 1
    kernel_size: 3
    stride: 1
    weight_filler {
      type: "msra"
    }
    bias_filler {
      type: "constant"
      value: 0
    }
  }
}
layer {
  name: "conv4_1_2_bn"
  type: "BatchNorm"
  bottom: "conv4_1_2"
  top: "conv4_1_2_bn"
  param {
    lr_mult: 0
  }
  param {
    lr_mult: 0
  }
  param {
    lr_mult: 0
  }
}
layer {
  name: "conv4_1_2_relu"
  type: "ReLU"
  bottom: "conv4_1_2_bn"
  top: "conv4_1_2_bn"
}
layer {
  name: "conv4_1_3"
  type: "Convolution"
  bottom: "conv4_1_2_bn"
  top: "conv4_1_3"
  param {
    lr_mult: 1
    decay_mult: 1
  }
  param {
    lr_mult: 2
    decay_mult: 0
  }
  convolution_param {
    num_output: 1024
    pad: 0
    kernel_size: 1
    stride: 1
    weight_filler {
      type: "msra"
    }
    bias_filler {
      type: "constant"
      value: 0
    }
  }
}
layer {
  name: "conv4_1_sum"
  type: "Eltwise"
  bottom: "conv3_output"
  bottom: "conv4_1_3"
  top: "conv4_1_sum"
  eltwise_param {
    operation: SUM
  }
}
layer {
  name: "conv4_1_sum_bn"
  type: "BatchNorm"
  bottom: "conv4_1_sum"
  top: "conv4_1_sum_bn"
  param {
    lr_mult: 0
  }
  param {
    lr_mult: 0
  }
  param {
    lr_mult: 0
  }
}
layer {
  name: "conv4_1_sum_relu"
  type: "ReLU"
  bottom: "conv4_1_sum_bn"
  top: "conv4_1_sum_bn"
}
layer {
  name: "conv4_2_1"
  type: "Convolution"
  bottom: "conv4_1_sum_bn"
  top: "conv4_2_1"
  param {
    lr_mult: 1
    decay_mult: 1
  }
  param {
    lr_mult: 2
    decay_mult: 0
  }
  convolution_param {
    num_output: 256
    pad: 0
    kernel_size: 1
    stride: 1
    weight_filler {
      type: "msra"
    }
    bias_filler {
      type: "constant"
      value: 0
    }
  }
}
layer {
  name: "conv4_2_1_bn"
  type: "BatchNorm"
  bottom: "conv4_2_1"
  top: "conv4_2_1_bn"
  param {
    lr_mult: 0
  }
  param {
    lr_mult: 0
  }
  param {
    lr_mult: 0
  }
}
layer {
  name: "conv4_2_1_relu"
  type: "ReLU"
  bottom: "conv4_2_1_bn"
  top: "conv4_2_1_bn"
}
layer {
  name: "conv4_2_2"
  type: "Convolution"
  bottom: "conv4_2_1_bn"
  top: "conv4_2_2"
  param {
    lr_mult: 1
    decay_mult: 1
  }
  param {
    lr_mult: 2
    decay_mult: 0
  }
  convolution_param {
    num_output: 256
    pad: 1
    kernel_size: 3
    stride: 1
    weight_filler {
      type: "msra"
    }
    bias_filler {
      type: "constant"
      value: 0
    }
  }
}
layer {
  name: "conv4_2_2_bn"
  type: "BatchNorm"
  bottom: "conv4_2_2"
  top: "conv4_2_2_bn"
  param {
    lr_mult: 0
  }
  param {
    lr_mult: 0
  }
  param {
    lr_mult: 0
  }
}
layer {
  name: "conv4_2_2_relu"
  type: "ReLU"
  bottom: "conv4_2_2_bn"
  top: "conv4_2_2_bn"
}
layer {
  name: "conv4_2_3"
  type: "Convolution"
  bottom: "conv4_2_2_bn"
  top: "conv4_2_3"
  param {
    lr_mult: 1
    decay_mult: 1
  }
  param {
    lr_mult: 2
    decay_mult: 0
  }
  convolution_param {
    num_output: 1024
    pad: 0
    kernel_size: 1
    stride: 1
    weight_filler {
      type: "msra"
    }
    bias_filler {
      type: "constant"
      value: 0
    }
  }
}
layer {
  name: "conv4_2_sum"
  type: "Eltwise"
  bottom: "conv4_1_sum_bn"
  bottom: "conv4_2_3"
  top: "conv4_2_sum"
  eltwise_param {
    operation: SUM
  }
}
layer {
  name: "conv4_2_sum_bn"
  type: "BatchNorm"
  bottom: "conv4_2_sum"
  top: "conv4_2_sum_bn"
  param {
    lr_mult: 0
  }
  param {
    lr_mult: 0
  }
  param {
    lr_mult: 0
  }
}
layer {
  name: "conv4_2_sum_relu"
  type: "ReLU"
  bottom: "conv4_2_sum_bn"
  top: "conv4_2_sum_bn"
}
layer {
  name: "conv4_3_1"
  type: "Convolution"
  bottom: "conv4_2_sum_bn"
  top: "conv4_3_1"
  param {
    lr_mult: 1
    decay_mult: 1
  }
  param {
    lr_mult: 2
    decay_mult: 0
  }
  convolution_param {
    num_output: 256
    pad: 0
    kernel_size: 1
    stride: 1
    weight_filler {
      type: "msra"
    }
    bias_filler {
      type: "constant"
      value: 0
    }
  }
}
layer {
  name: "conv4_3_1_bn"
  type: "BatchNorm"
  bottom: "conv4_3_1"
  top: "conv4_3_1_bn"
  param {
    lr_mult: 0
  }
  param {
    lr_mult: 0
  }
  param {
    lr_mult: 0
  }
}
layer {
  name: "conv4_3_1_relu"
  type: "ReLU"
  bottom: "conv4_3_1_bn"
  top: "conv4_3_1_bn"
}
layer {
  name: "conv4_3_2"
  type: "Convolution"
  bottom: "conv4_3_1_bn"
  top: "conv4_3_2"
  param {
    lr_mult: 1
    decay_mult: 1
  }
  param {
    lr_mult: 2
    decay_mult: 0
  }
  convolution_param {
    num_output: 256
    pad: 1
    kernel_size: 3
    stride: 1
    weight_filler {
      type: "msra"
    }
    bias_filler {
      type: "constant"
      value: 0
    }
  }
}
layer {
  name: "conv4_3_2_bn"
  type: "BatchNorm"
  bottom: "conv4_3_2"
  top: "conv4_3_2_bn"
  param {
    lr_mult: 0
  }
  param {
    lr_mult: 0
  }
  param {
    lr_mult: 0
  }
}
layer {
  name: "conv4_3_2_relu"
  type: "ReLU"
  bottom: "conv4_3_2_bn"
  top: "conv4_3_2_bn"
}
layer {
  name: "conv4_3_3"
  type: "Convolution"
  bottom: "conv4_3_2_bn"
  top: "conv4_3_3"
  param {
    lr_mult: 1
    decay_mult: 1
  }
  param {
    lr_mult: 2
    decay_mult: 0
  }
  convolution_param {
    num_output: 1024
    pad: 0
    kernel_size: 1
    stride: 1
    weight_filler {
      type: "msra"
    }
    bias_filler {
      type: "constant"
      value: 0
    }
  }
}
layer {
  name: "conv4_3_sum"
  type: "Eltwise"
  bottom: "conv4_2_sum_bn"
  bottom: "conv4_3_3"
  top: "conv4_3_sum"
  eltwise_param {
    operation: SUM
  }
}
layer {
  name: "conv4_3_sum_bn"
  type: "BatchNorm"
  bottom: "conv4_3_sum"
  top: "conv4_3_sum_bn"
  param {
    lr_mult: 0
  }
  param {
    lr_mult: 0
  }
  param {
    lr_mult: 0
  }
}
layer {
  name: "conv4_3_sum_relu"
  type: "ReLU"
  bottom: "conv4_3_sum_bn"
  top: "conv4_3_sum_bn"
}
layer {
  name: "conv4_4_1"
  type: "Convolution"
  bottom: "conv4_3_sum_bn"
  top: "conv4_4_1"
  param {
    lr_mult: 1
    decay_mult: 1
  }
  param {
    lr_mult: 2
    decay_mult: 0
  }
  convolution_param {
    num_output: 256
    pad: 0
    kernel_size: 1
    stride: 1
    weight_filler {
      type: "msra"
    }
    bias_filler {
      type: "constant"
      value: 0
    }
  }
}
layer {
  name: "conv4_4_1_bn"
  type: "BatchNorm"
  bottom: "conv4_4_1"
  top: "conv4_4_1_bn"
  param {
    lr_mult: 0
  }
  param {
    lr_mult: 0
  }
  param {
    lr_mult: 0
  }
}
layer {
  name: "conv4_4_1_relu"
  type: "ReLU"
  bottom: "conv4_4_1_bn"
  top: "conv4_4_1_bn"
}
layer {
  name: "conv4_4_2"
  type: "Convolution"
  bottom: "conv4_4_1_bn"
  top: "conv4_4_2"
  param {
    lr_mult: 1
    decay_mult: 1
  }
  param {
    lr_mult: 2
    decay_mult: 0
  }
  convolution_param {
    num_output: 256
    pad: 1
    kernel_size: 3
    stride: 1
    weight_filler {
      type: "msra"
    }
    bias_filler {
      type: "constant"
      value: 0
    }
  }
}
layer {
  name: "conv4_4_2_bn"
  type: "BatchNorm"
  bottom: "conv4_4_2"
  top: "conv4_4_2_bn"
  param {
    lr_mult: 0
  }
  param {
    lr_mult: 0
  }
  param {
    lr_mult: 0
  }
}
layer {
  name: "conv4_4_2_relu"
  type: "ReLU"
  bottom: "conv4_4_2_bn"
  top: "conv4_4_2_bn"
}
layer {
  name: "conv4_4_3"
  type: "Convolution"
  bottom: "conv4_4_2_bn"
  top: "conv4_4_3"
  param {
    lr_mult: 1
    decay_mult: 1
  }
  param {
    lr_mult: 2
    decay_mult: 0
  }
  convolution_param {
    num_output: 1024
    pad: 0
    kernel_size: 1
    stride: 1
    weight_filler {
      type: "msra"
    }
    bias_filler {
      type: "constant"
      value: 0
    }
  }
}
layer {
  name: "conv4_4_sum"
  type: "Eltwise"
  bottom: "conv4_3_sum_bn"
  bottom: "conv4_4_3"
  top: "conv4_4_sum"
  eltwise_param {
    operation: SUM
  }
}
layer {
  name: "conv4_4_sum_bn"
  type: "BatchNorm"
  bottom: "conv4_4_sum"
  top: "conv4_4_sum_bn"
  param {
    lr_mult: 0
  }
  param {
    lr_mult: 0
  }
  param {
    lr_mult: 0
  }
}
layer {
  name: "conv4_4_sum_relu"
  type: "ReLU"
  bottom: "conv4_4_sum_bn"
  top: "conv4_4_sum_bn"
}
layer {
  name: "conv4_5_1"
  type: "Convolution"
  bottom: "conv4_4_sum_bn"
  top: "conv4_5_1"
  param {
    lr_mult: 1
    decay_mult: 1
  }
  param {
    lr_mult: 2
    decay_mult: 0
  }
  convolution_param {
    num_output: 256
    pad: 0
    kernel_size: 1
    stride: 1
    weight_filler {
      type: "msra"
    }
    bias_filler {
      type: "constant"
      value: 0
    }
  }
}
layer {
  name: "conv4_5_1_bn"
  type: "BatchNorm"
  bottom: "conv4_5_1"
  top: "conv4_5_1_bn"
  param {
    lr_mult: 0
  }
  param {
    lr_mult: 0
  }
  param {
    lr_mult: 0
  }
}
layer {
  name: "conv4_5_1_relu"
  type: "ReLU"
  bottom: "conv4_5_1_bn"
  top: "conv4_5_1_bn"
}
layer {
  name: "conv4_5_2"
  type: "Convolution"
  bottom: "conv4_5_1_bn"
  top: "conv4_5_2"
  param {
    lr_mult: 1
    decay_mult: 1
  }
  param {
    lr_mult: 2
    decay_mult: 0
  }
  convolution_param {
    num_output: 256
    pad: 1
    kernel_size: 3
    stride: 1
    weight_filler {
      type: "msra"
    }
    bias_filler {
      type: "constant"
      value: 0
    }
  }
}
layer {
  name: "conv4_5_2_bn"
  type: "BatchNorm"
  bottom: "conv4_5_2"
  top: "conv4_5_2_bn"
  param {
    lr_mult: 0
  }
  param {
    lr_mult: 0
  }
  param {
    lr_mult: 0
  }
}
layer {
  name: "conv4_5_2_relu"
  type: "ReLU"
  bottom: "conv4_5_2_bn"
  top: "conv4_5_2_bn"
}
layer {
  name: "conv4_5_3"
  type: "Convolution"
  bottom: "conv4_5_2_bn"
  top: "conv4_5_3"
  param {
    lr_mult: 1
    decay_mult: 1
  }
  param {
    lr_mult: 2
    decay_mult: 0
  }
  convolution_param {
    num_output: 1024
    pad: 0
    kernel_size: 1
    stride: 1
    weight_filler {
      type: "msra"
    }
    bias_filler {
      type: "constant"
      value: 0
    }
  }
}
layer {
  name: "conv4_5_sum"
  type: "Eltwise"
  bottom: "conv4_4_sum_bn"
  bottom: "conv4_5_3"
  top: "conv4_5_sum"
  eltwise_param {
    operation: SUM
  }
}
layer {
  name: "conv4_5_sum_bn"
  type: "BatchNorm"
  bottom: "conv4_5_sum"
  top: "conv4_5_sum_bn"
  param {
    lr_mult: 0
  }
  param {
    lr_mult: 0
  }
  param {
    lr_mult: 0
  }
}
layer {
  name: "conv4_5_sum_relu"
  type: "ReLU"
  bottom: "conv4_5_sum_bn"
  top: "conv4_5_sum_bn"
}
layer {
  name: "conv4_6_1"
  type: "Convolution"
  bottom: "conv4_5_sum_bn"
  top: "conv4_6_1"
  param {
    lr_mult: 1
    decay_mult: 1
  }
  param {
    lr_mult: 2
    decay_mult: 0
  }
  convolution_param {
    num_output: 256
    pad: 0
    kernel_size: 1
    stride: 1
    weight_filler {
      type: "msra"
    }
    bias_filler {
      type: "constant"
      value: 0
    }
  }
}
layer {
  name: "conv4_6_1_bn"
  type: "BatchNorm"
  bottom: "conv4_6_1"
  top: "conv4_6_1_bn"
  param {
    lr_mult: 0
  }
  param {
    lr_mult: 0
  }
  param {
    lr_mult: 0
  }
}
layer {
  name: "conv4_6_1_relu"
  type: "ReLU"
  bottom: "conv4_6_1_bn"
  top: "conv4_6_1_bn"
}
layer {
  name: "conv4_6_2"
  type: "Convolution"
  bottom: "conv4_6_1_bn"
  top: "conv4_6_2"
  param {
    lr_mult: 1
    decay_mult: 1
  }
  param {
    lr_mult: 2
    decay_mult: 0
  }
  convolution_param {
    num_output: 256
    pad: 1
    kernel_size: 3
    stride: 1
    weight_filler {
      type: "msra"
    }
    bias_filler {
      type: "constant"
      value: 0
    }
  }
}
layer {
  name: "conv4_6_2_bn"
  type: "BatchNorm"
  bottom: "conv4_6_2"
  top: "conv4_6_2_bn"
  param {
    lr_mult: 0
  }
  param {
    lr_mult: 0
  }
  param {
    lr_mult: 0
  }
}
layer {
  name: "conv4_6_2_relu"
  type: "ReLU"
  bottom: "conv4_6_2_bn"
  top: "conv4_6_2_bn"
}
layer {
  name: "conv4_6_3"
  type: "Convolution"
  bottom: "conv4_6_2_bn"
  top: "conv4_6_3
I0703 18:47:50.969786 37365 layer_factory.hpp:76] Creating layer data
I0703 18:47:50.969872 37365 net.cpp:106] Creating Layer data
I0703 18:47:50.969898 37365 net.cpp:411] data -> data
I0703 18:47:50.969955 37365 net.cpp:411] data -> label
I0703 18:47:50.970432 37365 image_data_layer.cpp:36] Opening file ../lists/roi-train.lst
I0703 18:47:51.091634 37365 image_data_layer.cpp:46] Shuffling data
I0703 18:47:51.129523 37365 image_data_layer.cpp:51] A total of 211680 images.
I0703 18:47:51.203651 37365 image_data_layer.cpp:78] output data size: 16,3,224,224
I0703 18:47:51.231521 37365 net.cpp:150] Setting up data
I0703 18:47:51.231583 37365 net.cpp:157] Top shape: 16 3 224 224 (2408448)
I0703 18:47:51.231600 37365 net.cpp:157] Top shape: 16 (16)
I0703 18:47:51.231611 37365 net.cpp:165] Memory required for data: 9633856
I0703 18:47:51.231631 37365 layer_factory.hpp:76] Creating layer conv1
I0703 18:47:51.231688 37365 net.cpp:106] Creating Layer conv1
I0703 18:47:51.231708 37365 net.cpp:454] conv1 <- data
I0703 18:47:51.231736 37365 net.cpp:411] conv1 -> conv1
I0703 18:47:51.512887 37365 net.cpp:150] Setting up conv1
I0703 18:47:51.512938 37365 net.cpp:157] Top shape: 16 64 109 109 (12166144)
I0703 18:47:51.512953 37365 net.cpp:165] Memory required for data: 58298432
I0703 18:47:51.512989 37365 layer_factory.hpp:76] Creating layer conv1_bn
I0703 18:47:51.513021 37365 net.cpp:106] Creating Layer conv1_bn
I0703 18:47:51.513051 37365 net.cpp:454] conv1_bn <- conv1
I0703 18:47:51.513070 37365 net.cpp:411] conv1_bn -> conv1_bn
I0703 18:47:51.513324 37365 net.cpp:150] Setting up conv1_bn
I0703 18:47:51.513345 37365 net.cpp:157] Top shape: 16 64 109 109 (12166144)
I0703 18:47:51.513357 37365 net.cpp:165] Memory required for data: 106963008
I0703 18:47:51.513394 37365 layer_factory.hpp:76] Creating layer conv1_relu
I0703 18:47:51.513418 37365 net.cpp:106] Creating Layer conv1_relu
I0703 18:47:51.513433 37365 net.cpp:454] conv1_relu <- conv1_bn
I0703 18:47:51.513450 37365 net.cpp:397] conv1_relu -> conv1_bn (in-place)
I0703 18:47:51.514017 37365 net.cpp:150] Setting up conv1_relu
I0703 18:47:51.514039 37365 net.cpp:157] Top shape: 16 64 109 109 (12166144)
I0703 18:47:51.514052 37365 net.cpp:165] Memory required for data: 155627584
I0703 18:47:51.514078 37365 layer_factory.hpp:76] Creating layer pool1
I0703 18:47:51.514111 37365 net.cpp:106] Creating Layer pool1
I0703 18:47:51.514127 37365 net.cpp:454] pool1 <- conv1_bn
I0703 18:47:51.514144 37365 net.cpp:411] pool1 -> pool1
I0703 18:47:51.515445 37365 net.cpp:150] Setting up pool1
I0703 18:47:51.515470 37365 net.cpp:157] Top shape: 16 64 54 54 (2985984)
I0703 18:47:51.515483 37365 net.cpp:165] Memory required for data: 167571520
I0703 18:47:51.515497 37365 layer_factory.hpp:76] Creating layer pool1_pool1_0_split
I0703 18:47:51.515529 37365 net.cpp:106] Creating Layer pool1_pool1_0_split
I0703 18:47:51.515543 37365 net.cpp:454] pool1_pool1_0_split <- pool1
I0703 18:47:51.515559 37365 net.cpp:411] pool1_pool1_0_split -> pool1_pool1_0_split_0
I0703 18:47:51.515578 37365 net.cpp:411] pool1_pool1_0_split -> pool1_pool1_0_split_1
I0703 18:47:51.515637 37365 net.cpp:150] Setting up pool1_pool1_0_split
I0703 18:47:51.515657 37365 net.cpp:157] Top shape: 16 64 54 54 (2985984)
I0703 18:47:51.515672 37365 net.cpp:157] Top shape: 16 64 54 54 (2985984)
I0703 18:47:51.515697 37365 net.cpp:165] Memory required for data: 191459392
I0703 18:47:51.515722 37365 layer_factory.hpp:76] Creating layer conv1_output
I0703 18:47:51.515758 37365 net.cpp:106] Creating Layer conv1_output
I0703 18:47:51.515771 37365 net.cpp:454] conv1_output <- pool1_pool1_0_split_0
I0703 18:47:51.515800 37365 net.cpp:411] conv1_output -> conv1_output
I0703 18:47:51.518362 37365 cudnn_conv_layer.cpp:194] Reallocating workspace storage: 768
I0703 18:47:51.518404 37365 net.cpp:150] Setting up conv1_output
I0703 18:47:51.518424 37365 net.cpp:157] Top shape: 16 256 54 54 (11943936)
I0703 18:47:51.518437 37365 net.cpp:165] Memory required for data: 239235136
I0703 18:47:51.518471 37365 layer_factory.hpp:76] Creating layer conv2_1_1
I0703 18:47:51.518497 37365 net.cpp:106] Creating Layer conv2_1_1
I0703 18:47:51.518513 37365 net.cpp:454] conv2_1_1 <- pool1_pool1_0_split_1
I0703 18:47:51.518532 37365 net.cpp:411] conv2_1_1 -> conv2_1_1
I0703 18:47:51.519732 37365 net.cpp:150] Setting up conv2_1_1
I0703 18:47:51.519762 37365 net.cpp:157] Top shape: 16 64 54 54 (2985984)
I0703 18:47:51.519774 37365 net.cpp:165] Memory required for data: 251179072
I0703 18:47:51.519799 37365 layer_factory.hpp:76] Creating layer conv2_1_1_bn
I0703 18:47:51.519834 37365 net.cpp:106] Creating Layer conv2_1_1_bn
I0703 18:47:51.519850 37365 net.cpp:454] conv2_1_1_bn <- conv2_1_1
I0703 18:47:51.519872 37365 net.cpp:411] conv2_1_1_bn -> conv2_1_1_bn
I0703 18:47:51.520122 37365 net.cpp:150] Setting up conv2_1_1_bn
I0703 18:47:51.520141 37365 net.cpp:157] Top shape: 16 64 54 54 (2985984)
I0703 18:47:51.520154 37365 net.cpp:165] Memory required for data: 263123008
I0703 18:47:51.520174 37365 layer_factory.hpp:76] Creating layer conv2_1_1_relu
I0703 18:47:51.520205 37365 net.cpp:106] Creating Layer conv2_1_1_relu
I0703 18:47:51.520220 37365 net.cpp:454] conv2_1_1_relu <- conv2_1_1_bn
I0703 18:47:51.520234 37365 net.cpp:397] conv2_1_1_relu -> conv2_1_1_bn (in-place)
I0703 18:47:51.520541 37365 net.cpp:150] Setting up conv2_1_1_relu
I0703 18:47:51.520562 37365 net.cpp:157] Top shape: 16 64 54 54 (2985984)
I0703 18:47:51.520586 37365 net.cpp:165] Memory required for data: 275066944
I0703 18:47:51.520601 37365 layer_factory.hpp:76] Creating layer conv2_1_2
I0703 18:47:51.520634 37365 net.cpp:106] Creating Layer conv2_1_2
I0703 18:47:51.520650 37365 net.cpp:454] conv2_1_2 <- conv2_1_1_bn
I0703 18:47:51.520670 37365 net.cpp:411] conv2_1_2 -> conv2_1_2
I0703 18:47:51.523529 37365 net.cpp:150] Setting up conv2_1_2
I0703 18:47:51.523572 37365 net.cpp:157] Top shape: 16 64 54 54 (2985984)
I0703 18:47:51.523587 37365 net.cpp:165] Memory required for data: 287010880
I0703 18:47:51.523605 37365 layer_factory.hpp:76] Creating layer conv2_1_2_bn
I0703 18:47:51.523629 37365 net.cpp:106] Creating Layer conv2_1_2_bn
I0703 18:47:51.523692 37365 net.cpp:454] conv2_1_2_bn <- conv2_1_2
I0703 18:47:51.523713 37365 net.cpp:411] conv2_1_2_bn -> conv2_1_2_bn
I0703 18:47:51.523969 37365 net.cpp:150] Setting up conv2_1_2_bn
I0703 18:47:51.523989 37365 net.cpp:157] Top shape: 16 64 54 54 (2985984)
I0703 18:47:51.524001 37365 net.cpp:165] Memory required for data: 298954816
I0703 18:47:51.524044 37365 layer_factory.hpp:76] Creating layer conv2_1_2_relu
I0703 18:47:51.524065 37365 net.cpp:106] Creating Layer conv2_1_2_relu
I0703 18:47:51.524080 37365 net.cpp:454] conv2_1_2_relu <- conv2_1_2_bn
I0703 18:47:51.524098 37365 net.cpp:397] conv2_1_2_relu -> conv2_1_2_bn (in-place)
I0703 18:47:51.524333 37365 net.cpp:150] Setting up conv2_1_2_relu
I0703 18:47:51.524366 37365 net.cpp:157] Top shape: 16 64 54 54 (2985984)
I0703 18:47:51.524379 37365 net.cpp:165] Memory required for data: 310898752
I0703 18:47:51.524392 37365 layer_factory.hpp:76] Creating layer conv2_1_3
I0703 18:47:51.524462 37365 net.cpp:106] Creating Layer conv2_1_3
I0703 18:47:51.524482 37365 net.cpp:454] conv2_1_3 <- conv2_1_2_bn
I0703 18:47:51.524499 37365 net.cpp:411] conv2_1_3 -> conv2_1_3
I0703 18:47:51.526108 37365 cudnn_conv_layer.cpp:194] Reallocating workspace storage: 768
I0703 18:47:51.526154 37365 net.cpp:150] Setting up conv2_1_3
I0703 18:47:51.526175 37365 net.cpp:157] Top shape: 16 256 54 54 (11943936)
I0703 18:47:51.526190 37365 net.cpp:165] Memory required for data: 358674496
I0703 18:47:51.526209 37365 layer_factory.hpp:76] Creating layer conv2_1_sum
I0703 18:47:51.526239 37365 net.cpp:106] Creating Layer conv2_1_sum
I0703 18:47:51.526255 37365 net.cpp:454] conv2_1_sum <- conv1_output
I0703 18:47:51.526271 37365 net.cpp:454] conv2_1_sum <- conv2_1_3
I0703 18:47:51.526289 37365 net.cpp:411] conv2_1_sum -> conv2_1_sum
I0703 18:47:51.526350 37365 net.cpp:150] Setting up conv2_1_sum
I0703 18:47:51.526370 37365 net.cpp:157] Top shape: 16 256 54 54 (11943936)
I0703 18:47:51.526383 37365 net.cpp:165] Memory required for data: 406450240
I0703 18:47:51.526396 37365 layer_factory.hpp:76] Creating layer conv2_1_sum_bn
I0703 18:47:51.526417 37365 net.cpp:106] Creating Layer conv2_1_sum_bn
I0703 18:47:51.526432 37365 net.cpp:454] conv2_1_sum_bn <- conv2_1_sum
I0703 18:47:51.526449 37365 net.cpp:411] conv2_1_sum_bn -> conv2_1_sum_bn
I0703 18:47:51.526662 37365 net.cpp:150] Setting up conv2_1_sum_bn
I0703 18:47:51.526684 37365 net.cpp:157] Top shape: 16 256 54 54 (11943936)
I0703 18:47:51.526695 37365 net.cpp:165] Memory required for data: 454225984
I0703 18:47:51.526716 37365 layer_factory.hpp:76] Creating layer conv2_1_sum_relu
I0703 18:47:51.526739 37365 net.cpp:106] Creating Layer conv2_1_sum_relu
I0703 18:47:51.526754 37365 net.cpp:454] conv2_1_sum_relu <- conv2_1_sum_bn
I0703 18:47:51.526770 37365 net.cpp:397] conv2_1_sum_relu -> conv2_1_sum_bn (in-place)
I0703 18:47:51.527120 37365 net.cpp:150] Setting up conv2_1_sum_relu
I0703 18:47:51.527143 37365 net.cpp:157] Top shape: 16 256 54 54 (11943936)
I0703 18:47:51.527158 37365 net.cpp:165] Memory required for data: 502001728
I0703 18:47:51.527171 37365 layer_factory.hpp:76] Creating layer conv2_1_sum_bn_conv2_1_sum_relu_0_split
I0703 18:47:51.527190 37365 net.cpp:106] Creating Layer conv2_1_sum_bn_conv2_1_sum_relu_0_split
I0703 18:47:51.527205 37365 net.cpp:454] conv2_1_sum_bn_conv2_1_sum_relu_0_split <- conv2_1_sum_bn
I0703 18:47:51.527225 37365 net.cpp:411] conv2_1_sum_bn_conv2_1_sum_relu_0_split -> conv2_1_sum_bn_conv2_1_sum_relu_0_split_0
I0703 18:47:51.527245 37365 net.cpp:411] conv2_1_sum_bn_conv2_1_sum_relu_0_split -> conv2_1_sum_bn_conv2_1_sum_relu_0_split_1
I0703 18:47:51.527315 37365 net.cpp:150] Setting up conv2_1_sum_bn_conv2_1_sum_relu_0_split
I0703 18:47:51.527338 37365 net.cpp:157] Top shape: 16 256 54 54 (11943936)
I0703 18:47:51.527354 37365 net.cpp:157] Top shape: 16 256 54 54 (11943936)
I0703 18:47:51.527369 37365 net.cpp:165] Memory required for data: 597553216
I0703 18:47:51.527382 37365 layer_factory.hpp:76] Creating layer conv2_2_1
I0703 18:47:51.527410 37365 net.cpp:106] Creating Layer conv2_2_1
I0703 18:47:51.527456 37365 net.cpp:454] conv2_2_1 <- conv2_1_sum_bn_conv2_1_sum_relu_0_split_0
I0703 18:47:51.527477 37365 net.cpp:411] conv2_2_1 -> conv2_2_1
I0703 18:47:51.529064 37365 cudnn_conv_layer.cpp:194] Reallocating workspace storage: 3072
I0703 18:47:51.529294 37365 net.cpp:150] Setting up conv2_2_1
I0703 18:47:51.529319 37365 net.cpp:157] Top shape: 16 64 54 54 (2985984)
I0703 18:47:51.529333 37365 net.cpp:165] Memory required for data: 609497152
I0703 18:47:51.529352 37365 layer_factory.hpp:76] Creating layer conv2_2_1_bn
I0703 18:47:51.529376 37365 net.cpp:106] Creating Layer conv2_2_1_bn
I0703 18:47:51.529392 37365 net.cpp:454] conv2_2_1_bn <- conv2_2_1
I0703 18:47:51.529409 37365 net.cpp:411] conv2_2_1_bn -> conv2_2_1_bn
I0703 18:47:51.529639 37365 net.cpp:150] Setting up conv2_2_1_bn
I0703 18:47:51.529659 37365 net.cpp:157] Top shape: 16 64 54 54 (2985984)
I0703 18:47:51.529672 37365 net.cpp:165] Memory required for data: 621441088
I0703 18:47:51.529693 37365 layer_factory.hpp:76] Creating layer conv2_2_1_relu
I0703 18:47:51.529711 37365 net.cpp:106] Creating Layer conv2_2_1_relu
I0703 18:47:51.529726 37365 net.cpp:454] conv2_2_1_relu <- conv2_2_1_bn
I0703 18:47:51.529742 37365 net.cpp:397] conv2_2_1_relu -> conv2_2_1_bn (in-place)
I0703 18:47:51.529952 37365 net.cpp:150] Setting up conv2_2_1_relu
I0703 18:47:51.529973 37365 net.cpp:157] Top shape: 16 64 54 54 (2985984)
I0703 18:47:51.529986 37365 net.cpp:165] Memory required for data: 633385024
I0703 18:47:51.530000 37365 layer_factory.hpp:76] Creating layer conv2_2_2
I0703 18:47:51.530024 37365 net.cpp:106] Creating Layer conv2_2_2
I0703 18:47:51.530040 37365 net.cpp:454] conv2_2_2 <- conv2_2_1_bn
I0703 18:47:51.530056 37365 net.cpp:411] conv2_2_2 -> conv2_2_2
I0703 18:47:51.532335 37365 net.cpp:150] Setting up conv2_2_2
I0703 18:47:51.532377 37365 net.cpp:157] Top shape: 16 64 54 54 (2985984)
I0703 18:47:51.532390 37365 net.cpp:165] Memory required for data: 645328960
I0703 18:47:51.532409 37365 layer_factory.hpp:76] Creating layer conv2_2_2_bn
I0703 18:47:51.532449 37365 net.cpp:106] Creating Layer conv2_2_2_bn
I0703 18:47:51.532465 37365 net.cpp:454] conv2_2_2_bn <- conv2_2_2
I0703 18:47:51.532490 37365 net.cpp:411] conv2_2_2_bn -> conv2_2_2_bn
I0703 18:47:51.532734 37365 net.cpp:150] Setting up conv2_2_2_bn
I0703 18:47:51.532755 37365 net.cpp:157] Top shape: 16 64 54 54 (2985984)
I0703 18:47:51.532768 37365 net.cpp:165] Memory required for data: 657272896
I0703 18:47:51.532789 37365 layer_factory.hpp:76] Creating layer conv2_2_2_relu
I0703 18:47:51.532812 37365 net.cpp:106] Creating Layer conv2_2_2_relu
I0703 18:47:51.532827 37365 net.cpp:454] conv2_2_2_relu <- conv2_2_2_bn
I0703 18:47:51.532845 37365 net.cpp:397] conv2_2_2_relu -> conv2_2_2_bn (in-place)
I0703 18:47:51.533046 37365 net.cpp:150] Setting up conv2_2_2_relu
I0703 18:47:51.533066 37365 net.cpp:157] Top shape: 16 64 54 54 (2985984)
I0703 18:47:51.533079 37365 net.cpp:165] Memory required for data: 669216832
I0703 18:47:51.533093 37365 layer_factory.hpp:76] Creating layer conv2_2_3
I0703 18:47:51.533118 37365 net.cpp:106] Creating Layer conv2_2_3
I0703 18:47:51.533135 37365 net.cpp:454] conv2_2_3 <- conv2_2_2_bn
I0703 18:47:51.533162 37365 net.cpp:411] conv2_2_3 -> conv2_2_3
I0703 18:47:51.534935 37365 cudnn_conv_layer.cpp:194] Reallocating workspace storage: 768
I0703 18:47:51.534981 37365 net.cpp:150] Setting up conv2_2_3
I0703 18:47:51.535003 37365 net.cpp:157] Top shape: 16 256 54 54 (11943936)
I0703 18:47:51.535017 37365 net.cpp:165] Memory required for data: 716992576
I0703 18:47:51.535053 37365 layer_factory.hpp:76] Creating layer conv2_2_sum
I0703 18:47:51.535079 37365 net.cpp:106] Creating Layer conv2_2_sum
I0703 18:47:51.535094 37365 net.cpp:454] conv2_2_sum <- conv2_1_sum_bn_conv2_1_sum_relu_0_split_1
I0703 18:47:51.535111 37365 net.cpp:454] conv2_2_sum <- conv2_2_3
I0703 18:47:51.535128 37365 net.cpp:411] conv2_2_sum -> conv2_2_sum
I0703 18:47:51.535181 37365 net.cpp:150] Setting up conv2_2_sum
I0703 18:47:51.535202 37365 net.cpp:157] Top shape: 16 256 54 54 (11943936)
I0703 18:47:51.535248 37365 net.cpp:165] Memory required for data: 764768320
I0703 18:47:51.535262 37365 layer_factory.hpp:76] Creating layer conv2_2_sum_bn
I0703 18:47:51.535280 37365 net.cpp:106] Creating Layer conv2_2_sum_bn
I0703 18:47:51.535296 37365 net.cpp:454] conv2_2_sum_bn <- conv2_2_sum
I0703 18:47:51.535315 37365 net.cpp:411] conv2_2_sum_bn -> conv2_2_sum_bn
I0703 18:47:51.535536 37365 net.cpp:150] Setting up conv2_2_sum_bn
I0703 18:47:51.535557 37365 net.cpp:157] Top shape: 16 256 54 54 (11943936)
I0703 18:47:51.535569 37365 net.cpp:165] Memory required for data: 812544064
I0703 18:47:51.535589 37365 layer_factory.hpp:76] Creating layer conv2_2_sum_relu
I0703 18:47:51.535612 37365 net.cpp:106] Creating Layer conv2_2_sum_relu
I0703 18:47:51.535627 37365 net.cpp:454] conv2_2_sum_relu <- conv2_2_sum_bn
I0703 18:47:51.535645 37365 net.cpp:397] conv2_2_sum_relu -> conv2_2_sum_bn (in-place)
I0703 18:47:51.536011 37365 net.cpp:150] Setting up conv2_2_sum_relu
I0703 18:47:51.536034 37365 net.cpp:157] Top shape: 16 256 54 54 (11943936)
I0703 18:47:51.536048 37365 net.cpp:165] Memory required for data: 860319808
I0703 18:47:51.536062 37365 layer_factory.hpp:76] Creating layer conv2_2_sum_bn_conv2_2_sum_relu_0_split
I0703 18:47:51.536080 37365 net.cpp:106] Creating Layer conv2_2_sum_bn_conv2_2_sum_relu_0_split
I0703 18:47:51.536097 37365 net.cpp:454] conv2_2_sum_bn_conv2_2_sum_relu_0_split <- conv2_2_sum_bn
I0703 18:47:51.536116 37365 net.cpp:411] conv2_2_sum_bn_conv2_2_sum_relu_0_split -> conv2_2_sum_bn_conv2_2_sum_relu_0_split_0
I0703 18:47:51.536135 37365 net.cpp:411] conv2_2_sum_bn_conv2_2_sum_relu_0_split -> conv2_2_sum_bn_conv2_2_sum_relu_0_split_1
I0703 18:47:51.536204 37365 net.cpp:150] Setting up conv2_2_sum_bn_conv2_2_sum_relu_0_split
I0703 18:47:51.536226 37365 net.cpp:157] Top shape: 16 256 54 54 (11943936)
I0703 18:47:51.536242 37365 net.cpp:157] Top shape: 16 256 54 54 (11943936)
I0703 18:47:51.536257 37365 net.cpp:165] Memory required for data: 955871296
I0703 18:47:51.536270 37365 layer_factory.hpp:76] Creating layer conv2_3_1
I0703 18:47:51.536290 37365 net.cpp:106] Creating Layer conv2_3_1
I0703 18:47:51.536304 37365 net.cpp:454] conv2_3_1 <- conv2_2_sum_bn_conv2_2_sum_relu_0_split_0
I0703 18:47:51.536325 37365 net.cpp:411] conv2_3_1 -> conv2_3_1
I0703 18:47:51.537919 37365 cudnn_conv_layer.cpp:194] Reallocating workspace storage: 3072
I0703 18:47:51.537961 37365 net.cpp:150] Setting up conv2_3_1
I0703 18:47:51.537981 37365 net.cpp:157] Top shape: 16 64 54 54 (2985984)
I0703 18:47:51.537995 37365 net.cpp:165] Memory required for data: 967815232
I0703 18:47:51.538014 37365 layer_factory.hpp:76] Creating layer conv2_3_1_bn
I0703 18:47:51.538038 37365 net.cpp:106] Creating Layer conv2_3_1_bn
I0703 18:47:51.538054 37365 net.cpp:454] conv2_3_1_bn <- conv2_3_1
I0703 18:47:51.538072 37365 net.cpp:411] conv2_3_1_bn -> conv2_3_1_bn
I0703 18:47:51.538300 37365 net.cpp:150] Setting up conv2_3_1_bn
I0703 18:47:51.538321 37365 net.cpp:157] Top shape: 16 64 54 54 (2985984)
I0703 18:47:51.538333 37365 net.cpp:165] Memory required for data: 979759168
I0703 18:47:51.538354 37365 layer_factory.hpp:76] Creating layer conv2_3_1_relu
I0703 18:47:51.538373 37365 net.cpp:106] Creating Layer conv2_3_1_relu
I0703 18:47:51.538388 37365 net.cpp:454] conv2_3_1_relu <- conv2_3_1_bn
I0703 18:47:51.538403 37365 net.cpp:397] conv2_3_1_relu -> conv2_3_1_bn (in-place)
I0703 18:47:51.538607 37365 net.cpp:150] Setting up conv2_3_1_relu
I0703 18:47:51.538628 37365 net.cpp:157] Top shape: 16 64 54 54 (2985984)
I0703 18:47:51.538641 37365 net.cpp:165] Memory required for data: 991703104
I0703 18:47:51.538655 37365 layer_factory.hpp:76] Creating layer conv2_3_2
I0703 18:47:51.538687 37365 net.cpp:106] Creating Layer conv2_3_2
I0703 18:47:51.538704 37365 net.cpp:454] conv2_3_2 <- conv2_3_1_bn
I0703 18:47:51.538725 37365 net.cpp:411] conv2_3_2 -> conv2_3_2
I0703 18:47:51.541038 37365 net.cpp:150] Setting up conv2_3_2
I0703 18:47:51.541075 37365 net.cpp:157] Top shape: 16 64 54 54 (2985984)
I0703 18:47:51.541090 37365 net.cpp:165] Memory required for data: 1003647040
I0703 18:47:51.541141 37365 layer_factory.hpp:76] Creating layer conv2_3_2_bn
I0703 18:47:51.541163 37365 net.cpp:106] Creating Layer conv2_3_2_bn
I0703 18:47:51.541180 37365 net.cpp:454] conv2_3_2_bn <- conv2_3_2
I0703 18:47:51.541203 37365 net.cpp:411] conv2_3_2_bn -> conv2_3_2_bn
I0703 18:47:51.541432 37365 net.cpp:150] Setting up conv2_3_2_bn
I0703 18:47:51.541452 37365 net.cpp:157] Top shape: 16 64 54 54 (2985984)
I0703 18:47:51.541465 37365 net.cpp:165] Memory required for data: 1015590976
I0703 18:47:51.541489 37365 layer_factory.hpp:76] Creating layer conv2_3_2_relu
I0703 18:47:51.541510 37365 net.cpp:106] Creating Layer conv2_3_2_relu
I0703 18:47:51.541525 37365 net.cpp:454] conv2_3_2_relu <- conv2_3_2_bn
I0703 18:47:51.541541 37365 net.cpp:397] conv2_3_2_relu -> conv2_3_2_bn (in-place)
I0703 18:47:51.541754 37365 net.cpp:150] Setting up conv2_3_2_relu
I0703 18:47:51.541775 37365 net.cpp:157] Top shape: 16 64 54 54 (2985984)
I0703 18:47:51.541790 37365 net.cpp:165] Memory required for data: 1027534912
I0703 18:47:51.541803 37365 layer_factory.hpp:76] Creating layer conv2_3_3
I0703 18:47:51.541827 37365 net.cpp:106] Creating Layer conv2_3_3
I0703 18:47:51.541844 37365 net.cpp:454] conv2_3_3 <- conv2_3_2_bn
I0703 18:47:51.541867 37365 net.cpp:411] conv2_3_3 -> conv2_3_3
I0703 18:47:51.543479 37365 cudnn_conv_layer.cpp:194] Reallocating workspace storage: 768
I0703 18:47:51.543531 37365 net.cpp:150] Setting up conv2_3_3
I0703 18:47:51.543552 37365 net.cpp:157] Top shape: 16 256 54 54 (11943936)
I0703 18:47:51.543566 37365 net.cpp:165] Memory required for data: 1075310656
I0703 18:47:51.543586 37365 layer_factory.hpp:76] Creating layer conv2_3_sum
I0703 18:47:51.543607 37365 net.cpp:106] Creating Layer conv2_3_sum
I0703 18:47:51.543622 37365 net.cpp:454] conv2_3_sum <- conv2_2_sum_bn_conv2_2_sum_relu_0_split_1
I0703 18:47:51.543638 37365 net.cpp:454] conv2_3_sum <- conv2_3_3
I0703 18:47:51.543660 37365 net.cpp:411] conv2_3_sum -> conv2_3_sum
I0703 18:47:51.543707 37365 net.cpp:150] Setting up conv2_3_sum
I0703 18:47:51.543735 37365 net.cpp:157] Top shape: 16 256 54 54 (11943936)
I0703 18:47:51.543748 37365 net.cpp:165] Memory required for data: 1123086400
I0703 18:47:51.543761 37365 layer_factory.hpp:76] Creating layer conv2_3_sum_bn
I0703 18:47:51.543782 37365 net.cpp:106] Creating Layer conv2_3_sum_bn
I0703 18:47:51.543797 37365 net.cpp:454] conv2_3_sum_bn <- conv2_3_sum
I0703 18:47:51.543817 37365 net.cpp:411] conv2_3_sum_bn -> conv2_3_sum_bn
I0703 18:47:51.544044 37365 net.cpp:150] Setting up conv2_3_sum_bn
I0703 18:47:51.544065 37365 net.cpp:157] Top shape: 16 256 54 54 (11943936)
I0703 18:47:51.544078 37365 net.cpp:165] Memory required for data: 1170862144
I0703 18:47:51.544098 37365 layer_factory.hpp:76] Creating layer conv2_3_sum_relu
I0703 18:47:51.544117 37365 net.cpp:106] Creating Layer conv2_3_sum_relu
I0703 18:47:51.544132 37365 net.cpp:454] conv2_3_sum_relu <- conv2_3_sum_bn
I0703 18:47:51.544147 37365 net.cpp:397] conv2_3_sum_relu -> conv2_3_sum_bn (in-place)
I0703 18:47:51.544522 37365 net.cpp:150] Setting up conv2_3_sum_relu
I0703 18:47:51.544556 37365 net.cpp:157] Top shape: 16 256 54 54 (11943936)
I0703 18:47:51.544570 37365 net.cpp:165] Memory required for data: 1218637888
I0703 18:47:51.544584 37365 layer_factory.hpp:76] Creating layer conv2_3_sum_bn_conv2_3_sum_relu_0_split
I0703 18:47:51.544602 37365 net.cpp:106] Creating Layer conv2_3_sum_bn_conv2_3_sum_relu_0_split
I0703 18:47:51.544617 37365 net.cpp:454] conv2_3_sum_bn_conv2_3_sum_relu_0_split <- conv2_3_sum_bn
I0703 18:47:51.544637 37365 net.cpp:411] conv2_3_sum_bn_conv2_3_sum_relu_0_split -> conv2_3_sum_bn_conv2_3_sum_relu_0_split_0
I0703 18:47:51.544657 37365 net.cpp:411] conv2_3_sum_bn_conv2_3_sum_relu_0_split -> conv2_3_sum_bn_conv2_3_sum_relu_0_split_1
I0703 18:47:51.544728 37365 net.cpp:150] Setting up conv2_3_sum_bn_conv2_3_sum_relu_0_split
I0703 18:47:51.544747 37365 net.cpp:157] Top shape: 16 256 54 54 (11943936)
I0703 18:47:51.544764 37365 net.cpp:157] Top shape: 16 256 54 54 (11943936)
I0703 18:47:51.544809 37365 net.cpp:165] Memory required for data: 1314189376
I0703 18:47:51.544824 37365 layer_factory.hpp:76] Creating layer conv2_output
I0703 18:47:51.544852 37365 net.cpp:106] Creating Layer conv2_output
I0703 18:47:51.544867 37365 net.cpp:454] conv2_output <- conv2_3_sum_bn_conv2_3_sum_relu_0_split_0
I0703 18:47:51.544885 37365 net.cpp:411] conv2_output -> conv2_output
I0703 18:47:51.551599 37365 cudnn_conv_layer.cpp:194] Reallocating workspace storage: 3072
I0703 18:47:51.551658 37365 net.cpp:150] Setting up conv2_output
I0703 18:47:51.551682 37365 net.cpp:157] Top shape: 16 512 27 27 (5971968)
I0703 18:47:51.551697 37365 net.cpp:165] Memory required for data: 1338077248
I0703 18:47:51.551717 37365 layer_factory.hpp:76] Creating layer conv3_1_1
I0703 18:47:51.551751 37365 net.cpp:106] Creating Layer conv3_1_1
I0703 18:47:51.551770 37365 net.cpp:454] conv3_1_1 <- conv2_3_sum_bn_conv2_3_sum_relu_0_split_1
I0703 18:47:51.551792 37365 net.cpp:411] conv3_1_1 -> conv3_1_1
I0703 18:47:51.553781 37365 cudnn_conv_layer.cpp:194] Reallocating workspace storage: 3072
I0703 18:47:51.553820 37365 net.cpp:150] Setting up conv3_1_1
I0703 18:47:51.553839 37365 net.cpp:157] Top shape: 16 128 27 27 (1492992)
I0703 18:47:51.553853 37365 net.cpp:165] Memory required for data: 1344049216
I0703 18:47:51.553877 37365 layer_factory.hpp:76] Creating layer conv3_1_1_bn
I0703 18:47:51.553901 37365 net.cpp:106] Creating Layer conv3_1_1_bn
I0703 18:47:51.553916 37365 net.cpp:454] conv3_1_1_bn <- conv3_1_1
I0703 18:47:51.553939 37365 net.cpp:411] conv3_1_1_bn -> conv3_1_1_bn
I0703 18:47:51.554162 37365 net.cpp:150] Setting up conv3_1_1_bn
I0703 18:47:51.554183 37365 net.cpp:157] Top shape: 16 128 27 27 (1492992)
I0703 18:47:51.554196 37365 net.cpp:165] Memory required for data: 1350021184
I0703 18:47:51.554217 37365 layer_factory.hpp:76] Creating layer conv3_1_1_relu
I0703 18:47:51.554237 37365 net.cpp:106] Creating Layer conv3_1_1_relu
I0703 18:47:51.554252 37365 net.cpp:454] conv3_1_1_relu <- conv3_1_1_bn
I0703 18:47:51.554268 37365 net.cpp:397] conv3_1_1_relu -> conv3_1_1_bn (in-place)
I0703 18:47:51.554617 37365 net.cpp:150] Setting up conv3_1_1_relu
I0703 18:47:51.554641 37365 net.cpp:157] Top shape: 16 128 27 27 (1492992)
I0703 18:47:51.554653 37365 net.cpp:165] Memory required for data: 1355993152
I0703 18:47:51.554667 37365 layer_factory.hpp:76] Creating layer conv3_1_2
I0703 18:47:51.554692 37365 net.cpp:106] Creating Layer conv3_1_2
I0703 18:47:51.554709 37365 net.cpp:454] conv3_1_2 <- conv3_1_1_bn
I0703 18:47:51.554730 37365 net.cpp:411] conv3_1_2 -> conv3_1_2
I0703 18:47:51.561357 37365 cudnn_conv_layer.cpp:194] Reallocating workspace storage: 13824
I0703 18:47:51.561614 37365 net.cpp:150] Setting up conv3_1_2
I0703 18:47:51.561642 37365 net.cpp:157] Top shape: 16 128 27 27 (1492992)
I0703 18:47:51.561658 37365 net.cpp:165] Memory required for data: 1361965120
I0703 18:47:51.561686 37365 layer_factory.hpp:76] Creating layer conv3_1_2_bn
I0703 18:47:51.561712 37365 net.cpp:106] Creating Layer conv3_1_2_bn
I0703 18:47:51.561730 37365 net.cpp:454] conv3_1_2_bn <- conv3_1_2
I0703 18:47:51.561751 37365 net.cpp:411] conv3_1_2_bn -> conv3_1_2_bn
I0703 18:47:51.561983 37365 net.cpp:150] Setting up conv3_1_2_bn
I0703 18:47:51.562005 37365 net.cpp:157] Top shape: 16 128 27 27 (1492992)
I0703 18:47:51.562017 37365 net.cpp:165] Memory required for data: 1367937088
I0703 18:47:51.562039 37365 layer_factory.hpp:76] Creating layer conv3_1_2_relu
I0703 18:47:51.562059 37365 net.cpp:106] Creating Layer conv3_1_2_relu
I0703 18:47:51.562074 37365 net.cpp:454] conv3_1_2_relu <- conv3_1_2_bn
I0703 18:47:51.562093 37365 net.cpp:397] conv3_1_2_relu -> conv3_1_2_bn (in-place)
I0703 18:47:51.562304 37365 net.cpp:150] Setting up conv3_1_2_relu
I0703 18:47:51.562325 37365 net.cpp:157] Top shape: 16 128 27 27 (1492992)
I0703 18:47:51.562341 37365 net.cpp:165] Memory required for data: 1373909056
I0703 18:47:51.562356 37365 layer_factory.hpp:76] Creating layer conv3_1_3
I0703 18:47:51.562379 37365 net.cpp:106] Creating Layer conv3_1_3
I0703 18:47:51.562427 37365 net.cpp:454] conv3_1_3 <- conv3_1_2_bn
I0703 18:47:51.562451 37365 net.cpp:411] conv3_1_3 -> conv3_1_3
I0703 18:47:51.565707 37365 cudnn_conv_layer.cpp:194] Reallocating workspace storage: 1536
I0703 18:47:51.565755 37365 net.cpp:150] Setting up conv3_1_3
I0703 18:47:51.565775 37365 net.cpp:157] Top shape: 16 512 27 27 (5971968)
I0703 18:47:51.565789 37365 net.cpp:165] Memory required for data: 1397796928
I0703 18:47:51.565831 37365 layer_factory.hpp:76] Creating layer conv3_1_sum
I0703 18:47:51.565855 37365 net.cpp:106] Creating Layer conv3_1_sum
I0703 18:47:51.565871 37365 net.cpp:454] conv3_1_sum <- conv2_output
I0703 18:47:51.565888 37365 net.cpp:454] conv3_1_sum <- conv3_1_3
I0703 18:47:51.565909 37365 net.cpp:411] conv3_1_sum -> conv3_1_sum
I0703 18:47:51.565959 37365 net.cpp:150] Setting up conv3_1_sum
I0703 18:47:51.565984 37365 net.cpp:157] Top shape: 16 512 27 27 (5971968)
I0703 18:47:51.565997 37365 net.cpp:165] Memory required for data: 1421684800
I0703 18:47:51.566010 37365 layer_factory.hpp:76] Creating layer conv3_1_sum_bn
I0703 18:47:51.566030 37365 net.cpp:106] Creating Layer conv3_1_sum_bn
I0703 18:47:51.566045 37365 net.cpp:454] conv3_1_sum_bn <- conv3_1_sum
I0703 18:47:51.566063 37365 net.cpp:411] conv3_1_sum_bn -> conv3_1_sum_bn
I0703 18:47:51.566288 37365 net.cpp:150] Setting up conv3_1_sum_bn
I0703 18:47:51.566309 37365 net.cpp:157] Top shape: 16 512 27 27 (5971968)
I0703 18:47:51.566321 37365 net.cpp:165] Memory required for data: 1445572672
I0703 18:47:51.566342 37365 layer_factory.hpp:76] Creating layer conv3_1_sum_relu
I0703 18:47:51.566362 37365 net.cpp:106] Creating Layer conv3_1_sum_relu
I0703 18:47:51.566377 37365 net.cpp:454] conv3_1_sum_relu <- conv3_1_sum_bn
I0703 18:47:51.566396 37365 net.cpp:397] conv3_1_sum_relu -> conv3_1_sum_bn (in-place)
I0703 18:47:51.566742 37365 net.cpp:150] Setting up conv3_1_sum_relu
I0703 18:47:51.566766 37365 net.cpp:157] Top shape: 16 512 27 27 (5971968)
I0703 18:47:51.566779 37365 net.cpp:165] Memory required for data: 1469460544
I0703 18:47:51.566793 37365 layer_factory.hpp:76] Creating layer conv3_1_sum_bn_conv3_1_sum_relu_0_split
I0703 18:47:51.566810 37365 net.cpp:106] Creating Layer conv3_1_sum_bn_conv3_1_sum_relu_0_split
I0703 18:47:51.566826 37365 net.cpp:454] conv3_1_sum_bn_conv3_1_sum_relu_0_split <- conv3_1_sum_bn
I0703 18:47:51.566846 37365 net.cpp:411] conv3_1_sum_bn_conv3_1_sum_relu_0_split -> conv3_1_sum_bn_conv3_1_sum_relu_0_split_0
I0703 18:47:51.566866 37365 net.cpp:411] conv3_1_sum_bn_conv3_1_sum_relu_0_split -> conv3_1_sum_bn_conv3_1_sum_relu_0_split_1
I0703 18:47:51.566943 37365 net.cpp:150] Setting up conv3_1_sum_bn_conv3_1_sum_relu_0_split
I0703 18:47:51.566963 37365 net.cpp:157] Top shape: 16 512 27 27 (5971968)
I0703 18:47:51.566978 37365 net.cpp:157] Top shape: 16 512 27 27 (5971968)
I0703 18:47:51.566992 37365 net.cpp:165] Memory required for data: 1517236288
I0703 18:47:51.567004 37365 layer_factory.hpp:76] Creating layer conv3_2_1
I0703 18:47:51.567029 37365 net.cpp:106] Creating Layer conv3_2_1
I0703 18:47:51.567044 37365 net.cpp:454] conv3_2_1 <- conv3_1_sum_bn_conv3_1_sum_relu_0_split_0
I0703 18:47:51.567061 37365 net.cpp:411] conv3_2_1 -> conv3_2_1
I0703 18:47:51.570786 37365 cudnn_conv_layer.cpp:194] Reallocating workspace storage: 6144
I0703 18:47:51.570840 37365 net.cpp:150] Setting up conv3_2_1
I0703 18:47:51.570864 37365 net.cpp:157] Top shape: 16 128 27 27 (1492992)
I0703 18:47:51.570879 37365 net.cpp:165] Memory required for data: 1523208256
I0703 18:47:51.570899 37365 layer_factory.hpp:76] Creating layer conv3_2_1_bn
I0703 18:47:51.570924 37365 net.cpp:106] Creating Layer conv3_2_1_bn
I0703 18:47:51.570938 37365 net.cpp:454] conv3_2_1_bn <- conv3_2_1
I0703 18:47:51.570960 37365 net.cpp:411] conv3_2_1_bn -> conv3_2_1_bn
I0703 18:47:51.571194 37365 net.cpp:150] Setting up conv3_2_1_bn
I0703 18:47:51.571214 37365 net.cpp:157] Top shape: 16 128 27 27 (1492992)
I0703 18:47:51.571228 37365 net.cpp:165] Memory required for data: 1529180224
I0703 18:47:51.571249 37365 layer_factory.hpp:76] Creating layer conv3_2_1_relu
I0703 18:47:51.571303 37365 net.cpp:106] Creating Layer conv3_2_1_relu
I0703 18:47:51.571319 37365 net.cpp:454] conv3_2_1_relu <- conv3_2_1_bn
I0703 18:47:51.571338 37365 net.cpp:397] conv3_2_1_relu -> conv3_2_1_bn (in-place)
I0703 18:47:51.571858 37365 net.cpp:150] Setting up conv3_2_1_relu
I0703 18:47:51.571882 37365 net.cpp:157] Top shape: 16 128 27 27 (1492992)
I0703 18:47:51.571897 37365 net.cpp:165] Memory required for data: 1535152192
I0703 18:47:51.571910 37365 layer_factory.hpp:76] Creating layer conv3_2_2
I0703 18:47:51.571935 37365 net.cpp:106] Creating Layer conv3_2_2
I0703 18:47:51.571954 37365 net.cpp:454] conv3_2_2 <- conv3_2_1_bn
I0703 18:47:51.571974 37365 net.cpp:411] conv3_2_2 -> conv3_2_2
I0703 18:47:51.578549 37365 cudnn_conv_layer.cpp:194] Reallocating workspace storage: 13824
I0703 18:47:51.578609 37365 net.cpp:150] Setting up conv3_2_2
I0703 18:47:51.578631 37365 net.cpp:157] Top shape: 16 128 27 27 (1492992)
I0703 18:47:51.578650 37365 net.cpp:165] Memory required for data: 1541124160
I0703 18:47:51.578671 37365 layer_factory.hpp:76] Creating layer conv3_2_2_bn
I0703 18:47:51.578703 37365 net.cpp:106] Creating Layer conv3_2_2_bn
I0703 18:47:51.578722 37365 net.cpp:454] conv3_2_2_bn <- conv3_2_2
I0703 18:47:51.578744 37365 net.cpp:411] conv3_2_2_bn -> conv3_2_2_bn
I0703 18:47:51.578977 37365 net.cpp:150] Setting up conv3_2_2_bn
I0703 18:47:51.578999 37365 net.cpp:157] Top shape: 16 128 27 27 (1492992)
I0703 18:47:51.579012 37365 net.cpp:165] Memory required for data: 1547096128
I0703 18:47:51.579038 37365 layer_factory.hpp:76] Creating layer conv3_2_2_relu
I0703 18:47:51.579059 37365 net.cpp:106] Creating Layer conv3_2_2_relu
I0703 18:47:51.579076 37365 net.cpp:454] conv3_2_2_relu <- conv3_2_2_bn
I0703 18:47:51.579092 37365 net.cpp:397] conv3_2_2_relu -> conv3_2_2_bn (in-place)
I0703 18:47:51.579293 37365 net.cpp:150] Setting up conv3_2_2_relu
I0703 18:47:51.579314 37365 net.cpp:157] Top shape: 16 128 27 27 (1492992)
I0703 18:47:51.579327 37365 net.cpp:165] Memory required for data: 1553068096
I0703 18:47:51.579341 37365 layer_factory.hpp:76] Creating layer conv3_2_3
I0703 18:47:51.579367 37365 net.cpp:106] Creating Layer conv3_2_3
I0703 18:47:51.579385 37365 net.cpp:454] conv3_2_3 <- conv3_2_2_bn
I0703 18:47:51.579403 37365 net.cpp:411] conv3_2_3 -> conv3_2_3
I0703 18:47:51.582571 37365 cudnn_conv_layer.cpp:194] Reallocating workspace storage: 1536
I0703 18:47:51.582615 37365 net.cpp:150] Setting up conv3_2_3
I0703 18:47:51.582635 37365 net.cpp:157] Top shape: 16 512 27 27 (5971968)
I0703 18:47:51.582650 37365 net.cpp:165] Memory required for data: 1576955968
I0703 18:47:51.582669 37365 layer_factory.hpp:76] Creating layer conv3_2_sum
I0703 18:47:51.582693 37365 net.cpp:106] Creating Layer conv3_2_sum
I0703 18:47:51.582710 37365 net.cpp:454] conv3_2_sum <- conv3_1_sum_bn_conv3_1_sum_relu_0_split_1
I0703 18:47:51.582726 37365 net.cpp:454] conv3_2_sum <- conv3_2_3
I0703 18:47:51.582743 37365 net.cpp:411] conv3_2_sum -> conv3_2_sum
I0703 18:47:51.582794 37365 net.cpp:150] Setting up conv3_2_sum
I0703 18:47:51.582816 37365 net.cpp:157] Top shape: 16 512 27 27 (5971968)
I0703 18:47:51.582829 37365 net.cpp:165] Memory required for data: 1600843840
I0703 18:47:51.582844 37365 layer_factory.hpp:76] Creating layer conv3_2_sum_bn
I0703 18:47:51.582864 37365 net.cpp:106] Creating Layer conv3_2_sum_bn
I0703 18:47:51.582880 37365 net.cpp:454] conv3_2_sum_bn <- conv3_2_sum
I0703 18:47:51.582895 37365 net.cpp:411] conv3_2_sum_bn -> conv3_2_sum_bn
I0703 18:47:51.583124 37365 net.cpp:150] Setting up conv3_2_sum_bn
I0703 18:47:51.583144 37365 net.cpp:157] Top shape: 16 512 27 27 (5971968)
I0703 18:47:51.583158 37365 net.cpp:165] Memory required for data: 1624731712
I0703 18:47:51.583178 37365 layer_factory.hpp:76] Creating layer conv3_2_sum_relu
I0703 18:47:51.583196 37365 net.cpp:106] Creating Layer conv3_2_sum_relu
I0703 18:47:51.583210 37365 net.cpp:454] conv3_2_sum_relu <- conv3_2_sum_bn
I0703 18:47:51.583226 37365 net.cpp:397] conv3_2_sum_relu -> conv3_2_sum_bn (in-place)
I0703 18:47:51.583613 37365 net.cpp:150] Setting up conv3_2_sum_relu
I0703 18:47:51.583641 37365 net.cpp:157] Top shape: 16 512 27 27 (5971968)
I0703 18:47:51.583653 37365 net.cpp:165] Memory required for data: 1648619584
I0703 18:47:51.583668 37365 layer_factory.hpp:76] Creating layer conv3_2_sum_bn_conv3_2_sum_relu_0_split
I0703 18:47:51.583686 37365 net.cpp:106] Creating Layer conv3_2_sum_bn_conv3_2_sum_relu_0_split
I0703 18:47:51.583701 37365 net.cpp:454] conv3_2_sum_bn_conv3_2_sum_relu_0_split <- conv3_2_sum_bn
I0703 18:47:51.583719 37365 net.cpp:411] conv3_2_sum_bn_conv3_2_sum_relu_0_split -> conv3_2_sum_bn_conv3_2_sum_relu_0_split_0
I0703 18:47:51.583737 37365 net.cpp:411] conv3_2_sum_bn_conv3_2_sum_relu_0_split -> conv3_2_sum_bn_conv3_2_sum_relu_0_split_1
I0703 18:47:51.583813 37365 net.cpp:150] Setting up conv3_2_sum_bn_conv3_2_sum_relu_0_split
I0703 18:47:51.583833 37365 net.cpp:157] Top shape: 16 512 27 27 (5971968)
I0703 18:47:51.583848 37365 net.cpp:157] Top shape: 16 512 27 27 (5971968)
I0703 18:47:51.583864 37365 net.cpp:165] Memory required for data: 1696395328
I0703 18:47:51.583878 37365 layer_factory.hpp:76] Creating layer conv3_3_1
I0703 18:47:51.583902 37365 net.cpp:106] Creating Layer conv3_3_1
I0703 18:47:51.583919 37365 net.cpp:454] conv3_3_1 <- conv3_2_sum_bn_conv3_2_sum_relu_0_split_0
I0703 18:47:51.583938 37365 net.cpp:411] conv3_3_1 -> conv3_3_1
I0703 18:47:51.587044 37365 cudnn_conv_layer.cpp:194] Reallocating workspace storage: 6144
I0703 18:47:51.587097 37365 net.cpp:150] Setting up conv3_3_1
I0703 18:47:51.587118 37365 net.cpp:157] Top shape: 16 128 27 27 (1492992)
I0703 18:47:51.587132 37365 net.cpp:165] Memory required for data: 1702367296
I0703 18:47:51.587153 37365 layer_factory.hpp:76] Creating layer conv3_3_1_bn
I0703 18:47:51.587198 37365 net.cpp:106] Creating Layer conv3_3_1_bn
I0703 18:47:51.587219 37365 net.cpp:454] conv3_3_1_bn <- conv3_3_1
I0703 18:47:51.587239 37365 net.cpp:411] conv3_3_1_bn -> conv3_3_1_bn
I0703 18:47:51.587468 37365 net.cpp:150] Setting up conv3_3_1_bn
I0703 18:47:51.587489 37365 net.cpp:157] Top shape: 16 128 27 27 (1492992)
I0703 18:47:51.587502 37365 net.cpp:165] Memory required for data: 1708339264
I0703 18:47:51.587529 37365 layer_factory.hpp:76] Creating layer conv3_3_1_relu
I0703 18:47:51.587548 37365 net.cpp:106] Creating Layer conv3_3_1_relu
I0703 18:47:51.587563 37365 net.cpp:454] conv3_3_1_relu <- conv3_3_1_bn
I0703 18:47:51.587579 37365 net.cpp:397] conv3_3_1_relu -> conv3_3_1_bn (in-place)
I0703 18:47:51.587930 37365 net.cpp:150] Setting up conv3_3_1_relu
I0703 18:47:51.587954 37365 net.cpp:157] Top shape: 16 128 27 27 (1492992)
I0703 18:47:51.587967 37365 net.cpp:165] Memory required for data: 1714311232
I0703 18:47:51.587981 37365 layer_factory.hpp:76] Creating layer conv3_3_2
I0703 18:47:51.588006 37365 net.cpp:106] Creating Layer conv3_3_2
I0703 18:47:51.588023 37365 net.cpp:454] conv3_3_2 <- conv3_3_1_bn
I0703 18:47:51.588042 37365 net.cpp:411] conv3_3_2 -> conv3_3_2
I0703 18:47:51.594578 37365 cudnn_conv_layer.cpp:194] Reallocating workspace storage: 13824
I0703 18:47:51.594642 37365 net.cpp:150] Setting up conv3_3_2
I0703 18:47:51.594666 37365 net.cpp:157] Top shape: 16 128 27 27 (1492992)
I0703 18:47:51.594679 37365 net.cpp:165] Memory required for data: 1720283200
I0703 18:47:51.594702 37365 layer_factory.hpp:76] Creating layer conv3_3_2_bn
I0703 18:47:51.594728 37365 net.cpp:106] Creating Layer conv3_3_2_bn
I0703 18:47:51.594748 37365 net.cpp:454] conv3_3_2_bn <- conv3_3_2
I0703 18:47:51.594766 37365 net.cpp:411] conv3_3_2_bn -> conv3_3_2_bn
I0703 18:47:51.595016 37365 net.cpp:150] Setting up conv3_3_2_bn
I0703 18:47:51.595048 37365 net.cpp:157] Top shape: 16 128 27 27 (1492992)
I0703 18:47:51.595062 37365 net.cpp:165] Memory required for data: 1726255168
I0703 18:47:51.595084 37365 layer_factory.hpp:76] Creating layer conv3_3_2_relu
I0703 18:47:51.595105 37365 net.cpp:106] Creating Layer conv3_3_2_relu
I0703 18:47:51.595132 37365 net.cpp:454] conv3_3_2_relu <- conv3_3_2_bn
I0703 18:47:51.595149 37365 net.cpp:397] conv3_3_2_relu -> conv3_3_2_bn (in-place)
I0703 18:47:51.595389 37365 net.cpp:150] Setting up conv3_3_2_relu
I0703 18:47:51.595412 37365 net.cpp:157] Top shape: 16 128 27 27 (1492992)
I0703 18:47:51.595424 37365 net.cpp:165] Memory required for data: 1732227136
I0703 18:47:51.595438 37365 layer_factory.hpp:76] Creating layer conv3_3_3
I0703 18:47:51.595464 37365 net.cpp:106] Creating Layer conv3_3_3
I0703 18:47:51.595481 37365 net.cpp:454] conv3_3_3 <- conv3_3_2_bn
I0703 18:47:51.595501 37365 net.cpp:411] conv3_3_3 -> conv3_3_3
I0703 18:47:51.598753 37365 cudnn_conv_layer.cpp:194] Reallocating workspace storage: 1536
I0703 18:47:51.598800 37365 net.cpp:150] Setting up conv3_3_3
I0703 18:47:51.598819 37365 net.cpp:157] Top shape: 16 512 27 27 (5971968)
I0703 18:47:51.598834 37365 net.cpp:165] Memory required for data: 1756115008
I0703 18:47:51.598853 37365 layer_factory.hpp:76] Creating layer conv3_3_sum
I0703 18:47:51.598877 37365 net.cpp:106] Creating Layer conv3_3_sum
I0703 18:47:51.598894 37365 net.cpp:454] conv3_3_sum <- conv3_2_sum_bn_conv3_2_sum_relu_0_split_1
I0703 18:47:51.598912 37365 net.cpp:454] conv3_3_sum <- conv3_3_3
I0703 18:47:51.598929 37365 net.cpp:411] conv3_3_sum -> conv3_3_sum
I0703 18:47:51.598981 37365 net.cpp:150] Setting up conv3_3_sum
I0703 18:47:51.599004 37365 net.cpp:157] Top shape: 16 512 27 27 (5971968)
I0703 18:47:51.599016 37365 net.cpp:165] Memory required for data: 1780002880
I0703 18:47:51.599030 37365 layer_factory.hpp:76] Creating layer conv3_3_sum_bn
I0703 18:47:51.599052 37365 net.cpp:106] Creating Layer conv3_3_sum_bn
I0703 18:47:51.599067 37365 net.cpp:454] conv3_3_sum_bn <- conv3_3_sum
I0703 18:47:51.599083 37365 net.cpp:411] conv3_3_sum_bn -> conv3_3_sum_bn
I0703 18:47:51.599320 37365 net.cpp:150] Setting up conv3_3_sum_bn
I0703 18:47:51.599340 37365 net.cpp:157] Top shape: 16 512 27 27 (5971968)
I0703 18:47:51.599352 37365 net.cpp:165] Memory required for data: 1803890752
I0703 18:47:51.599373 37365 layer_factory.hpp:76] Creating layer conv3_3_sum_relu
I0703 18:47:51.599391 37365 net.cpp:106] Creating Layer conv3_3_sum_relu
I0703 18:47:51.599406 37365 net.cpp:454] conv3_3_sum_relu <- conv3_3_sum_bn
I0703 18:47:51.599422 37365 net.cpp:397] conv3_3_sum_relu -> conv3_3_sum_bn (in-place)
I0703 18:47:51.599777 37365 net.cpp:150] Setting up conv3_3_sum_relu
I0703 18:47:51.599802 37365 net.cpp:157] Top shape: 16 512 27 27 (5971968)
I0703 18:47:51.599815 37365 net.cpp:165] Memory required for data: 1827778624
I0703 18:47:51.599829 37365 layer_factory.hpp:76] Creating layer conv3_3_sum_bn_conv3_3_sum_relu_0_split
I0703 18:47:51.599848 37365 net.cpp:106] Creating Layer conv3_3_sum_bn_conv3_3_sum_relu_0_split
I0703 18:47:51.599864 37365 net.cpp:454] conv3_3_sum_bn_conv3_3_sum_relu_0_split <- conv3_3_sum_bn
I0703 18:47:51.599879 37365 net.cpp:411] conv3_3_sum_bn_conv3_3_sum_relu_0_split -> conv3_3_sum_bn_conv3_3_sum_relu_0_split_0
I0703 18:47:51.599898 37365 net.cpp:411] conv3_3_sum_bn_conv3_3_sum_relu_0_split -> conv3_3_sum_bn_conv3_3_sum_relu_0_split_1
I0703 18:47:51.599977 37365 net.cpp:150] Setting up conv3_3_sum_bn_conv3_3_sum_relu_0_split
I0703 18:47:51.599997 37365 net.cpp:157] Top shape: 16 512 27 27 (5971968)
I0703 18:47:51.600013 37365 net.cpp:157] Top shape: 16 512 27 27 (5971968)
I0703 18:47:51.600025 37365 net.cpp:165] Memory required for data: 1875554368
I0703 18:47:51.600039 37365 layer_factory.hpp:76] Creating layer conv3_4_1
I0703 18:47:51.600061 37365 net.cpp:106] Creating Layer conv3_4_1
I0703 18:47:51.600076 37365 net.cpp:454] conv3_4_1 <- conv3_3_sum_bn_conv3_3_sum_relu_0_split_0
I0703 18:47:51.600096 37365 net.cpp:411] conv3_4_1 -> conv3_4_1
I0703 18:47:51.603835 37365 cudnn_conv_layer.cpp:194] Reallocating workspace storage: 6144
I0703 18:47:51.603898 37365 net.cpp:150] Setting up conv3_4_1
I0703 18:47:51.603916 37365 net.cpp:157] Top shape: 16 128 27 27 (1492992)
I0703 18:47:51.603931 37365 net.cpp:165] Memory required for data: 1881526336
I0703 18:47:51.603950 37365 layer_factory.hpp:76] Creating layer conv3_4_1_bn
I0703 18:47:51.603976 37365 net.cpp:106] Creating Layer conv3_4_1_bn
I0703 18:47:51.603993 37365 net.cpp:454] conv3_4_1_bn <- conv3_4_1
I0703 18:47:51.604054 37365 net.cpp:411] conv3_4_1_bn -> conv3_4_1_bn
I0703 18:47:51.604301 37365 net.cpp:150] Setting up conv3_4_1_bn
I0703 18:47:51.604323 37365 net.cpp:157] Top shape: 16 128 27 27 (1492992)
I0703 18:47:51.604336 37365 net.cpp:165] Memory required for data: 1887498304
I0703 18:47:51.604357 37365 layer_factory.hpp:76] Creating layer conv3_4_1_relu
I0703 18:47:51.604380 37365 net.cpp:106] Creating Layer conv3_4_1_relu
I0703 18:47:51.604395 37365 net.cpp:454] conv3_4_1_relu <- conv3_4_1_bn
I0703 18:47:51.604411 37365 net.cpp:397] conv3_4_1_relu -> conv3_4_1_bn (in-place)
I0703 18:47:51.604804 37365 net.cpp:150] Setting up conv3_4_1_relu
I0703 18:47:51.604827 37365 net.cpp:157] Top shape: 16 128 27 27 (1492992)
I0703 18:47:51.604840 37365 net.cpp:165] Memory required for data: 1893470272
I0703 18:47:51.604854 37365 layer_factory.hpp:76] Creating layer conv3_4_2
I0703 18:47:51.604887 37365 net.cpp:106] Creating Layer conv3_4_2
I0703 18:47:51.604904 37365 net.cpp:454] conv3_4_2 <- conv3_4_1_bn
I0703 18:47:51.604923 37365 net.cpp:411] conv3_4_2 -> conv3_4_2
I0703 18:47:51.611450 37365 cudnn_conv_layer.cpp:194] Reallocating workspace storage: 13824
I0703 18:47:51.611511 37365 net.cpp:150] Setting up conv3_4_2
I0703 18:47:51.611533 37365 net.cpp:157] Top shape: 16 128 27 27 (1492992)
I0703 18:47:51.611551 37365 net.cpp:165] Memory required for data: 1899442240
I0703 18:47:51.611570 37365 layer_factory.hpp:76] Creating layer conv3_4_2_bn
I0703 18:47:51.611598 37365 net.cpp:106] Creating Layer conv3_4_2_bn
I0703 18:47:51.611616 37365 net.cpp:454] conv3_4_2_bn <- conv3_4_2
I0703 18:47:51.611635 37365 net.cpp:411] conv3_4_2_bn -> conv3_4_2_bn
I0703 18:47:51.611882 37365 net.cpp:150] Setting up conv3_4_2_bn
I0703 18:47:51.611902 37365 net.cpp:157] Top shape: 16 128 27 27 (1492992)
I0703 18:47:51.611915 37365 net.cpp:165] Memory required for data: 1905414208
I0703 18:47:51.611937 37365 layer_factory.hpp:76] Creating layer conv3_4_2_relu
I0703 18:47:51.611973 37365 net.cpp:106] Creating Layer conv3_4_2_relu
I0703 18:47:51.611989 37365 net.cpp:454] conv3_4_2_relu <- conv3_4_2_bn
I0703 18:47:51.612006 37365 net.cpp:397] conv3_4_2_relu -> conv3_4_2_bn (in-place)
I0703 18:47:51.612226 37365 net.cpp:150] Setting up conv3_4_2_relu
I0703 18:47:51.612247 37365 net.cpp:157] Top shape: 16 128 27 27 (1492992)
I0703 18:47:51.612262 37365 net.cpp:165] Memory required for data: 1911386176
I0703 18:47:51.612275 37365 layer_factory.hpp:76] Creating layer conv3_4_3
I0703 18:47:51.612300 37365 net.cpp:106] Creating Layer conv3_4_3
I0703 18:47:51.612318 37365 net.cpp:454] conv3_4_3 <- conv3_4_2_bn
I0703 18:47:51.612337 37365 net.cpp:411] conv3_4_3 -> conv3_4_3
I0703 18:47:51.615614 37365 cudnn_conv_layer.cpp:194] Reallocating workspace storage: 1536
I0703 18:47:51.615664 37365 net.cpp:150] Setting up conv3_4_3
I0703 18:47:51.615684 37365 net.cpp:157] Top shape: 16 512 27 27 (5971968)
I0703 18:47:51.615697 37365 net.cpp:165] Memory required for data: 1935274048
I0703 18:47:51.615718 37365 layer_factory.hpp:76] Creating layer conv3_4_sum
I0703 18:47:51.615743 37365 net.cpp:106] Creating Layer conv3_4_sum
I0703 18:47:51.615761 37365 net.cpp:454] conv3_4_sum <- conv3_3_sum_bn_conv3_3_sum_relu_0_split_1
I0703 18:47:51.615777 37365 net.cpp:454] conv3_4_sum <- conv3_4_3
I0703 18:47:51.615795 37365 net.cpp:411] conv3_4_sum -> conv3_4_sum
I0703 18:47:51.615849 37365 net.cpp:150] Setting up conv3_4_sum
I0703 18:47:51.615870 37365 net.cpp:157] Top shape: 16 512 27 27 (5971968)
I0703 18:47:51.615883 37365 net.cpp:165] Memory required for data: 1959161920
I0703 18:47:51.615897 37365 layer_factory.hpp:76] Creating layer conv3_4_sum_bn
I0703 18:47:51.615919 37365 net.cpp:106] Creating Layer conv3_4_sum_bn
I0703 18:47:51.615934 37365 net.cpp:454] conv3_4_sum_bn <- conv3_4_sum
I0703 18:47:51.615954 37365 net.cpp:411] conv3_4_sum_bn -> conv3_4_sum_bn
I0703 18:47:51.616192 37365 net.cpp:150] Setting up conv3_4_sum_bn
I0703 18:47:51.616212 37365 net.cpp:157] Top shape: 16 512 27 27 (5971968)
I0703 18:47:51.616258 37365 net.cpp:165] Memory required for data: 1983049792
I0703 18:47:51.616281 37365 layer_factory.hpp:76] Creating layer conv3_4_sum_relu
I0703 18:47:51.616300 37365 net.cpp:106] Creating Layer conv3_4_sum_relu
I0703 18:47:51.616315 37365 net.cpp:454] conv3_4_sum_relu <- conv3_4_sum_bn
I0703 18:47:51.616333 37365 net.cpp:397] conv3_4_sum_relu -> conv3_4_sum_bn (in-place)
I0703 18:47:51.616896 37365 net.cpp:150] Setting up conv3_4_sum_relu
I0703 18:47:51.616920 37365 net.cpp:157] Top shape: 16 512 27 27 (5971968)
I0703 18:47:51.616933 37365 net.cpp:165] Memory required for data: 2006937664
I0703 18:47:51.616948 37365 layer_factory.hpp:76] Creating layer conv3_4_sum_bn_conv3_4_sum_relu_0_split
I0703 18:47:51.616966 37365 net.cpp:106] Creating Layer conv3_4_sum_bn_conv3_4_sum_relu_0_split
I0703 18:47:51.616981 37365 net.cpp:454] conv3_4_sum_bn_conv3_4_sum_relu_0_split <- conv3_4_sum_bn
I0703 18:47:51.616997 37365 net.cpp:411] conv3_4_sum_bn_conv3_4_sum_relu_0_split -> conv3_4_sum_bn_conv3_4_sum_relu_0_split_0
I0703 18:47:51.617020 37365 net.cpp:411] conv3_4_sum_bn_conv3_4_sum_relu_0_split -> conv3_4_sum_bn_conv3_4_sum_relu_0_split_1
I0703 18:47:51.617100 37365 net.cpp:150] Setting up conv3_4_sum_bn_conv3_4_sum_relu_0_split
I0703 18:47:51.617120 37365 net.cpp:157] Top shape: 16 512 27 27 (5971968)
I0703 18:47:51.617136 37365 net.cpp:157] Top shape: 16 512 27 27 (5971968)
I0703 18:47:51.617147 37365 net.cpp:165] Memory required for data: 2054713408
I0703 18:47:51.617162 37365 layer_factory.hpp:76] Creating layer conv3_output
I0703 18:47:51.617193 37365 net.cpp:106] Creating Layer conv3_output
I0703 18:47:51.617208 37365 net.cpp:454] conv3_output <- conv3_4_sum_bn_conv3_4_sum_relu_0_split_0
I0703 18:47:51.617228 37365 net.cpp:411] conv3_output -> conv3_output
I0703 18:47:51.636083 37365 cudnn_conv_layer.cpp:194] Reallocating workspace storage: 6144
I0703 18:47:51.636149 37365 net.cpp:150] Setting up conv3_output
I0703 18:47:51.636173 37365 net.cpp:157] Top shape: 16 1024 14 14 (3211264)
I0703 18:47:51.636186 37365 net.cpp:165] Memory required for data: 2067558464
I0703 18:47:51.636209 37365 layer_factory.hpp:76] Creating layer conv4_1_1
I0703 18:47:51.636240 37365 net.cpp:106] Creating Layer conv4_1_1
I0703 18:47:51.636260 37365 net.cpp:454] conv4_1_1 <- conv3_4_sum_bn_conv3_4_sum_relu_0_split_1
I0703 18:47:51.636283 37365 net.cpp:411] conv4_1_1 -> conv4_1_1
I0703 18:47:51.641820 37365 cudnn_conv_layer.cpp:194] Reallocating workspace storage: 6144
I0703 18:47:51.641880 37365 net.cpp:150] Setting up conv4_1_1
I0703 18:47:51.641904 37365 net.cpp:157] Top shape: 16 256 14 14 (802816)
I0703 18:47:51.641918 37365 net.cpp:165] Memory required for data: 2070769728
I0703 18:47:51.641938 37365 layer_factory.hpp:76] Creating layer conv4_1_1_bn
I0703 18:47:51.641964 37365 net.cpp:106] Creating Layer conv4_1_1_bn
I0703 18:47:51.641981 37365 net.cpp:454] conv4_1_1_bn <- conv4_1_1
I0703 18:47:51.642004 37365 net.cpp:411] conv4_1_1_bn -> conv4_1_1_bn
I0703 18:47:51.642253 37365 net.cpp:150] Setting up conv4_1_1_bn
I0703 18:47:51.642274 37365 net.cpp:157] Top shape: 16 256 14 14 (802816)
I0703 18:47:51.642287 37365 net.cpp:165] Memory required for data: 2073980992
I0703 18:47:51.642308 37365 layer_factory.hpp:76] Creating layer conv4_1_1_relu
I0703 18:47:51.642329 37365 net.cpp:106] Creating Layer conv4_1_1_relu
I0703 18:47:51.642357 37365 net.cpp:454] conv4_1_1_relu <- conv4_1_1_bn
I0703 18:47:51.642379 37365 net.cpp:397] conv4_1_1_relu -> conv4_1_1_bn (in-place)
I0703 18:47:51.642743 37365 net.cpp:150] Setting up conv4_1_1_relu
I0703 18:47:51.642767 37365 net.cpp:157] Top shape: 16 256 14 14 (802816)
I0703 18:47:51.642781 37365 net.cpp:165] Memory required for data: 2077192256
I0703 18:47:51.642794 37365 layer_factory.hpp:76] Creating layer conv4_1_2
I0703 18:47:51.642820 37365 net.cpp:106] Creating Layer conv4_1_2
I0703 18:47:51.642838 37365 net.cpp:454] conv4_1_2 <- conv4_1_1_bn
I0703 18:47:51.642858 37365 net.cpp:411] conv4_1_2 -> conv4_1_2
I0703 18:47:51.663851 37365 cudnn_conv_layer.cpp:194] Reallocating workspace storage: 27648
I0703 18:47:51.663941 37365 net.cpp:150] Setting up conv4_1_2
I0703 18:47:51.663965 37365 net.cpp:157] Top shape: 16 256 14 14 (802816)
I0703 18:47:51.663978 37365 net.cpp:165] Memory required for data: 2080403520
I0703 18:47:51.664000 37365 layer_factory.hpp:76] Creating layer conv4_1_2_bn
I0703 18:47:51.664027 37365 net.cpp:106] Creating Layer conv4_1_2_bn
I0703 18:47:51.664046 37365 net.cpp:454] conv4_1_2_bn <- conv4_1_2
I0703 18:47:51.664064 37365 net.cpp:411] conv4_1_2_bn -> conv4_1_2_bn
I0703 18:47:51.664316 37365 net.cpp:150] Setting up conv4_1_2_bn
I0703 18:47:51.664337 37365 net.cpp:157] Top shape: 16 256 14 14 (802816)
I0703 18:47:51.664350 37365 net.cpp:165] Memory required for data: 2083614784
I0703 18:47:51.664372 37365 layer_factory.hpp:76] Creating layer conv4_1_2_relu
I0703 18:47:51.664393 37365 net.cpp:106] Creating Layer conv4_1_2_relu
I0703 18:47:51.664408 37365 net.cpp:454] conv4_1_2_relu <- conv4_1_2_bn
I0703 18:47:51.664430 37365 net.cpp:397] conv4_1_2_relu -> conv4_1_2_bn (in-place)
I0703 18:47:51.664856 37365 net.cpp:150] Setting up conv4_1_2_relu
I0703 18:47:51.664880 37365 net.cpp:157] Top shape: 16 256 14 14 (802816)
I0703 18:47:51.664893 37365 net.cpp:165] Memory required for data: 2086826048
I0703 18:47:51.664908 37365 layer_factory.hpp:76] Creating layer conv4_1_3
I0703 18:47:51.664934 37365 net.cpp:106] Creating Layer conv4_1_3
I0703 18:47:51.664952 37365 net.cpp:454] conv4_1_3 <- conv4_1_2_bn
I0703 18:47:51.664969 37365 net.cpp:411] conv4_1_3 -> conv4_1_3
I0703 18:47:51.675258 37365 cudnn_conv_layer.cpp:194] Reallocating workspace storage: 3072
I0703 18:47:51.675326 37365 net.cpp:150] Setting up conv4_1_3
I0703 18:47:51.675351 37365 net.cpp:157] Top shape: 16 1024 14 14 (3211264)
I0703 18:47:51.675365 37365 net.cpp:165] Memory required for data: 2099671104
I0703 18:47:51.675387 37365 layer_factory.hpp:76] Creating layer conv4_1_sum
I0703 18:47:51.675417 37365 net.cpp:106] Creating Layer conv4_1_sum
I0703 18:47:51.675436 37365 net.cpp:454] conv4_1_sum <- conv3_output
I0703 18:47:51.675453 37365 net.cpp:454] conv4_1_sum <- conv4_1_3
I0703 18:47:51.675472 37365 net.cpp:411] conv4_1_sum -> conv4_1_sum
I0703 18:47:51.675536 37365 net.cpp:150] Setting up conv4_1_sum
I0703 18:47:51.675556 37365 net.cpp:157] Top shape: 16 1024 14 14 (3211264)
I0703 18:47:51.675570 37365 net.cpp:165] Memory required for data: 2112516160
I0703 18:47:51.675583 37365 layer_factory.hpp:76] Creating layer conv4_1_sum_bn
I0703 18:47:51.675606 37365 net.cpp:106] Creating Layer conv4_1_sum_bn
I0703 18:47:51.675621 37365 net.cpp:454] conv4_1_sum_bn <- conv4_1_sum
I0703 18:47:51.675637 37365 net.cpp:411] conv4_1_sum_bn -> conv4_1_sum_bn
I0703 18:47:51.675889 37365 net.cpp:150] Setting up conv4_1_sum_bn
I0703 18:47:51.675909 37365 net.cpp:157] Top shape: 16 1024 14 14 (3211264)
I0703 18:47:51.675922 37365 net.cpp:165] Memory required for data: 2125361216
I0703 18:47:51.675976 37365 layer_factory.hpp:76] Creating layer conv4_1_sum_relu
I0703 18:47:51.676000 37365 net.cpp:106] Creating Layer conv4_1_sum_relu
I0703 18:47:51.676017 37365 net.cpp:454] conv4_1_sum_relu <- conv4_1_sum_bn
I0703 18:47:51.676033 37365 net.cpp:397] conv4_1_sum_relu -> conv4_1_sum_bn (in-place)
I0703 18:47:51.676244 37365 net.cpp:150] Setting up conv4_1_sum_relu
I0703 18:47:51.676265 37365 net.cpp:157] Top shape: 16 1024 14 14 (3211264)
I0703 18:47:51.676278 37365 net.cpp:165] Memory required for data: 2138206272
I0703 18:47:51.676292 37365 layer_factory.hpp:76] Creating layer conv4_1_sum_bn_conv4_1_sum_relu_0_split
I0703 18:47:51.676311 37365 net.cpp:106] Creating Layer conv4_1_sum_bn_conv4_1_sum_relu_0_split
I0703 18:47:51.676326 37365 net.cpp:454] conv4_1_sum_bn_conv4_1_sum_relu_0_split <- conv4_1_sum_bn
I0703 18:47:51.676342 37365 net.cpp:411] conv4_1_sum_bn_conv4_1_sum_relu_0_split -> conv4_1_sum_bn_conv4_1_sum_relu_0_split_0
I0703 18:47:51.676364 37365 net.cpp:411] conv4_1_sum_bn_conv4_1_sum_relu_0_split -> conv4_1_sum_bn_conv4_1_sum_relu_0_split_1
I0703 18:47:51.676465 37365 net.cpp:150] Setting up conv4_1_sum_bn_conv4_1_sum_relu_0_split
I0703 18:47:51.676515 37365 net.cpp:157] Top shape: 16 1024 14 14 (3211264)
I0703 18:47:51.676532 37365 net.cpp:157] Top shape: 16 1024 14 14 (3211264)
I0703 18:47:51.676555 37365 net.cpp:165] Memory required for data: 2163896384
I0703 18:47:51.676569 37365 layer_factory.hpp:76] Creating layer conv4_2_1
I0703 18:47:51.676594 37365 net.cpp:106] Creating Layer conv4_2_1
I0703 18:47:51.676610 37365 net.cpp:454] conv4_2_1 <- conv4_1_sum_bn_conv4_1_sum_relu_0_split_0
I0703 18:47:51.676630 37365 net.cpp:411] conv4_2_1 -> conv4_2_1
I0703 18:47:51.686831 37365 cudnn_conv_layer.cpp:194] Reallocating workspace storage: 12288
I0703 18:47:51.686897 37365 net.cpp:150] Setting up conv4_2_1
I0703 18:47:51.686919 37365 net.cpp:157] Top shape: 16 256 14 14 (802816)
I0703 18:47:51.686934 37365 net.cpp:165] Memory required for data: 2167107648
I0703 18:47:51.686955 37365 layer_factory.hpp:76] Creating layer conv4_2_1_bn
I0703 18:47:51.686981 37365 net.cpp:106] Creating Layer conv4_2_1_bn
I0703 18:47:51.686998 37365 net.cpp:454] conv4_2_1_bn <- conv4_2_1
I0703 18:47:51.687021 37365 net.cpp:411] conv4_2_1_bn -> conv4_2_1_bn
I0703 18:47:51.687274 37365 net.cpp:150] Setting up conv4_2_1_bn
I0703 18:47:51.687294 37365 net.cpp:157] Top shape: 16 256 14 14 (802816)
I0703 18:47:51.687307 37365 net.cpp:165] Memory required for data: 2170318912
I0703 18:47:51.687330 37365 layer_factory.hpp:76] Creating layer conv4_2_1_relu
I0703 18:47:51.687353 37365 net.cpp:106] Creating Layer conv4_2_1_relu
I0703 18:47:51.687369 37365 net.cpp:454] conv4_2_1_relu <- conv4_2_1_bn
I0703 18:47:51.687386 37365 net.cpp:397] conv4_2_1_relu -> conv4_2_1_bn (in-place)
I0703 18:47:51.687743 37365 net.cpp:150] Setting up conv4_2_1_relu
I0703 18:47:51.687767 37365 net.cpp:157] Top shape: 16 256 14 14 (802816)
I0703 18:47:51.687780 37365 net.cpp:165] Memory required for data: 2173530176
I0703 18:47:51.687794 37365 layer_factory.hpp:76] Creating layer conv4_2_2
I0703 18:47:51.687819 37365 net.cpp:106] Creating Layer conv4_2_2
I0703 18:47:51.687839 37365 net.cpp:454] conv4_2_2 <- conv4_2_1_bn
I0703 18:47:51.687857 37365 net.cpp:411] conv4_2_2 -> conv4_2_2
I0703 18:47:51.708922 37365 cudnn_conv_layer.cpp:194] Reallocating workspace storage: 27648
I0703 18:47:51.708981 37365 net.cpp:150] Setting up conv4_2_2
I0703 18:47:51.709005 37365 net.cpp:157] Top shape: 16 256 14 14 (802816)
I0703 18:47:51.709017 37365 net.cpp:165] Memory required for data: 2176741440
I0703 18:47:51.709038 37365 layer_factory.hpp:76] Creating layer conv4_2_2_bn
I0703 18:47:51.709066 37365 net.cpp:106] Creating Layer conv4_2_2_bn
I0703 18:47:51.709085 37365 net.cpp:454] conv4_2_2_bn <- conv4_2_2
I0703 18:47:51.709110 37365 net.cpp:411] conv4_2_2_bn -> conv4_2_2_bn
I0703 18:47:51.709367 37365 net.cpp:150] Setting up conv4_2_2_bn
I0703 18:47:51.709388 37365 net.cpp:157] Top shape: 16 256 14 14 (802816)
I0703 18:47:51.709400 37365 net.cpp:165] Memory required for data: 2179952704
I0703 18:47:51.709422 37365 layer_factory.hpp:76] Creating layer conv4_2_2_relu
I0703 18:47:51.709442 37365 net.cpp:106] Creating Layer conv4_2_2_relu
I0703 18:47:51.709457 37365 net.cpp:454] conv4_2_2_relu <- conv4_2_2_bn
I0703 18:47:51.709473 37365 net.cpp:397] conv4_2_2_relu -> conv4_2_2_bn (in-place)
I0703 18:47:51.709835 37365 net.cpp:150] Setting up conv4_2_2_relu
I0703 18:47:51.709858 37365 net.cpp:157] Top shape: 16 256 14 14 (802816)
I0703 18:47:51.709872 37365 net.cpp:165] Memory required for data: 2183163968
I0703 18:47:51.709887 37365 layer_factory.hpp:76] Creating layer conv4_2_3
I0703 18:47:51.709913 37365 net.cpp:106] Creating Layer conv4_2_3
I0703 18:47:51.709929 37365 net.cpp:454] conv4_2_3 <- conv4_2_2_bn
I0703 18:47:51.709950 37365 net.cpp:411] conv4_2_3 -> conv4_2_3
I0703 18:47:51.720182 37365 cudnn_conv_layer.cpp:194] Reallocating workspace storage: 3072
I0703 18:47:51.720244 37365 net.cpp:150] Setting up conv4_2_3
I0703 18:47:51.720266 37365 net.cpp:157] Top shape: 16 1024 14 14 (3211264)
I0703 18:47:51.720281 37365 net.cpp:165] Memory required for data: 2196009024
I0703 18:47:51.720305 37365 layer_factory.hpp:76] Creating layer conv4_2_sum
I0703 18:47:51.720371 37365 net.cpp:106] Creating Layer conv4_2_sum
I0703 18:47:51.720391 37365 net.cpp:454] conv4_2_sum <- conv4_1_sum_bn_conv4_1_sum_relu_0_split_1
I0703 18:47:51.720410 37365 net.cpp:454] conv4_2_sum <- conv4_2_3
I0703 18:47:51.720448 37365 net.cpp:411] conv4_2_sum -> conv4_2_sum
I0703 18:47:51.720515 37365 net.cpp:150] Setting up conv4_2_sum
I0703 18:47:51.720546 37365 net.cpp:157] Top shape: 16 1024 14 14 (3211264)
I0703 18:47:51.720557 37365 net.cpp:165] Memory required for data: 2208854080
I0703 18:47:51.720571 37365 layer_factory.hpp:76] Creating layer conv4_2_sum_bn
I0703 18:47:51.720593 37365 net.cpp:106] Creating Layer conv4_2_sum_bn
I0703 18:47:51.720609 37365 net.cpp:454] conv4_2_sum_bn <- conv4_2_sum
I0703 18:47:51.720628 37365 net.cpp:411] conv4_2_sum_bn -> conv4_2_sum_bn
I0703 18:47:51.720893 37365 net.cpp:150] Setting up conv4_2_sum_bn
I0703 18:47:51.720913 37365 net.cpp:157] Top shape: 16 1024 14 14 (3211264)
I0703 18:47:51.720927 37365 net.cpp:165] Memory required for data: 2221699136
I0703 18:47:51.720948 37365 layer_factory.hpp:76] Creating layer conv4_2_sum_relu
I0703 18:47:51.720968 37365 net.cpp:106] Creating Layer conv4_2_sum_relu
I0703 18:47:51.720983 37365 net.cpp:454] conv4_2_sum_relu <- conv4_2_sum_bn
I0703 18:47:51.720999 37365 net.cpp:397] conv4_2_sum_relu -> conv4_2_sum_bn (in-place)
I0703 18:47:51.721217 37365 net.cpp:150] Setting up conv4_2_sum_relu
I0703 18:47:51.721240 37365 net.cpp:157] Top shape: 16 1024 14 14 (3211264)
I0703 18:47:51.721252 37365 net.cpp:165] Memory required for data: 2234544192
I0703 18:47:51.721266 37365 layer_factory.hpp:76] Creating layer conv4_2_sum_bn_conv4_2_sum_relu_0_split
I0703 18:47:51.721287 37365 net.cpp:106] Creating Layer conv4_2_sum_bn_conv4_2_sum_relu_0_split
I0703 18:47:51.721303 37365 net.cpp:454] conv4_2_sum_bn_conv4_2_sum_relu_0_split <- conv4_2_sum_bn
I0703 18:47:51.721319 37365 net.cpp:411] conv4_2_sum_bn_conv4_2_sum_relu_0_split -> conv4_2_sum_bn_conv4_2_sum_relu_0_split_0
I0703 18:47:51.721338 37365 net.cpp:411] conv4_2_sum_bn_conv4_2_sum_relu_0_split -> conv4_2_sum_bn_conv4_2_sum_relu_0_split_1
I0703 18:47:51.721422 37365 net.cpp:150] Setting up conv4_2_sum_bn_conv4_2_sum_relu_0_split
I0703 18:47:51.721446 37365 net.cpp:157] Top shape: 16 1024 14 14 (3211264)
I0703 18:47:51.721462 37365 net.cpp:157] Top shape: 16 1024 14 14 (3211264)
I0703 18:47:51.721475 37365 net.cpp:165] Memory required for data: 2260234304
I0703 18:47:51.721488 37365 layer_factory.hpp:76] Creating layer conv4_3_1
I0703 18:47:51.721515 37365 net.cpp:106] Creating Layer conv4_3_1
I0703 18:47:51.721530 37365 net.cpp:454] conv4_3_1 <- conv4_2_sum_bn_conv4_2_sum_relu_0_split_0
I0703 18:47:51.721551 37365 net.cpp:411] conv4_3_1 -> conv4_3_1
I0703 18:47:51.731935 37365 cudnn_conv_layer.cpp:194] Reallocating workspace storage: 12288
I0703 18:47:51.732000 37365 net.cpp:150] Setting up conv4_3_1
I0703 18:47:51.732023 37365 net.cpp:157] Top shape: 16 256 14 14 (802816)
I0703 18:47:51.732038 37365 net.cpp:165] Memory required for data: 2263445568
I0703 18:47:51.732059 37365 layer_factory.hpp:76] Creating layer conv4_3_1_bn
I0703 18:47:51.732085 37365 net.cpp:106] Creating Layer conv4_3_1_bn
I0703 18:47:51.732103 37365 net.cpp:454] conv4_3_1_bn <- conv4_3_1
I0703 18:47:51.732125 37365 net.cpp:411] conv4_3_1_bn -> conv4_3_1_bn
I0703 18:47:51.732383 37365 net.cpp:150] Setting up conv4_3_1_bn
I0703 18:47:51.732403 37365 net.cpp:157] Top shape: 16 256 14 14 (802816)
I0703 18:47:51.732416 37365 net.cpp:165] Memory required for data: 2266656832
I0703 18:47:51.732460 37365 layer_factory.hpp:76] Creating layer conv4_3_1_relu
I0703 18:47:51.732483 37365 net.cpp:106] Creating Layer conv4_3_1_relu
I0703 18:47:51.732499 37365 net.cpp:454] conv4_3_1_relu <- conv4_3_1_bn
I0703 18:47:51.732517 37365 net.cpp:397] conv4_3_1_relu -> conv4_3_1_bn (in-place)
I0703 18:47:51.732899 37365 net.cpp:150] Setting up conv4_3_1_relu
I0703 18:47:51.732923 37365 net.cpp:157] Top shape: 16 256 14 14 (802816)
I0703 18:47:51.732938 37365 net.cpp:165] Memory required for data: 2269868096
I0703 18:47:51.732985 37365 layer_factory.hpp:76] Creating layer conv4_3_2
I0703 18:47:51.733011 37365 net.cpp:106] Creating Layer conv4_3_2
I0703 18:47:51.733027 37365 net.cpp:454] conv4_3_2 <- conv4_3_1_bn
I0703 18:47:51.733048 37365 net.cpp:411] conv4_3_2 -> conv4_3_2
I0703 18:47:51.754057 37365 cudnn_conv_layer.cpp:194] Reallocating workspace storage: 27648
I0703 18:47:51.754117 37365 net.cpp:150] Setting up conv4_3_2
I0703 18:47:51.754142 37365 net.cpp:157] Top shape: 16 256 14 14 (802816)
I0703 18:47:51.754154 37365 net.cpp:165] Memory required for data: 2273079360
I0703 18:47:51.754179 37365 layer_factory.hpp:76] Creating layer conv4_3_2_bn
I0703 18:47:51.754209 37365 net.cpp:106] Creating Layer conv4_3_2_bn
I0703 18:47:51.754227 37365 net.cpp:454] conv4_3_2_bn <- conv4_3_2
I0703 18:47:51.754247 37365 net.cpp:411] conv4_3_2_bn -> conv4_3_2_bn
I0703 18:47:51.754514 37365 net.cpp:150] Setting up conv4_3_2_bn
I0703 18:47:51.754535 37365 net.cpp:157] Top shape: 16 256 14 14 (802816)
I0703 18:47:51.754549 37365 net.cpp:165] Memory required for data: 2276290624
I0703 18:47:51.754570 37365 layer_factory.hpp:76] Creating layer conv4_3_2_relu
I0703 18:47:51.754595 37365 net.cpp:106] Creating Layer conv4_3_2_relu
I0703 18:47:51.754611 37365 net.cpp:454] conv4_3_2_relu <- conv4_3_2_bn
I0703 18:47:51.754626 37365 net.cpp:397] conv4_3_2_relu -> conv4_3_2_bn (in-place)
I0703 18:47:51.754997 37365 net.cpp:150] Setting up conv4_3_2_relu
I0703 18:47:51.755023 37365 net.cpp:157] Top shape: 16 256 14 14 (802816)
I0703 18:47:51.755036 37365 net.cpp:165] Memory required for data: 2279501888
I0703 18:47:51.755050 37365 layer_factory.hpp:76] Creating layer conv4_3_3
I0703 18:47:51.755075 37365 net.cpp:106] Creating Layer conv4_3_3
I0703 18:47:51.755094 37365 net.cpp:454] conv4_3_3 <- conv4_3_2_bn
I0703 18:47:51.755111 37365 net.cpp:411] conv4_3_3 -> conv4_3_3
I0703 18:47:51.765329 37365 cudnn_conv_layer.cpp:194] Reallocating workspace storage: 3072
I0703 18:47:51.765391 37365 net.cpp:150] Setting up conv4_3_3
I0703 18:47:51.765413 37365 net.cpp:157] Top shape: 16 1024 14 14 (3211264)
I0703 18:47:51.765429 37365 net.cpp:165] Memory required for data: 2292346944
I0703 18:47:51.765449 37365 layer_factory.hpp:76] Creating layer conv4_3_sum
I0703 18:47:51.765473 37365 net.cpp:106] Creating Layer conv4_3_sum
I0703 18:47:51.765489 37365 net.cpp:454] conv4_3_sum <- conv4_2_sum_bn_conv4_2_sum_relu_0_split_1
I0703 18:47:51.765511 37365 net.cpp:454] conv4_3_sum <- conv4_3_3
I0703 18:47:51.765530 37365 net.cpp:411] conv4_3_sum -> conv4_3_sum
I0703 18:47:51.765595 37365 net.cpp:150] Setting up conv4_3_sum
I0703 18:47:51.765615 37365 net.cpp:157] Top shape: 16 1024 14 14 (3211264)
I0703 18:47:51.765628 37365 net.cpp:165] Memory required for data: 2305192000
I0703 18:47:51.765642 37365 layer_factory.hpp:76] Creating layer conv4_3_sum_bn
I0703 18:47:51.765661 37365 net.cpp:106] Creating Layer conv4_3_sum_bn
I0703 18:47:51.765676 37365 net.cpp:454] conv4_3_sum_bn <- conv4_3_sum
I0703 18:47:51.765696 37365 net.cpp:411] conv4_3_sum_bn -> conv4_3_sum_bn
I0703 18:47:51.765961 37365 net.cpp:150] Setting up conv4_3_sum_bn
I0703 18:47:51.765981 37365 net.cpp:157] Top shape: 16 1024 14 14 (3211264)
I0703 18:47:51.765995 37365 net.cpp:165] Memory required for data: 2318037056
I0703 18:47:51.766016 37365 layer_factory.hpp:76] Creating layer conv4_3_sum_relu
I0703 18:47:51.766038 37365 net.cpp:106] Creating Layer conv4_3_sum_relu
I0703 18:47:51.766054 37365 net.cpp:454] conv4_3_sum_relu <- conv4_3_sum_bn
I0703 18:47:51.766070 37365 net.cpp:397] conv4_3_sum_relu -> conv4_3_sum_bn (in-place)
I0703 18:47:51.766283 37365 net.cpp:150] Setting up conv4_3_sum_relu
I0703 18:47:51.766305 37365 net.cpp:157] Top shape: 16 1024 14 14 (3211264)
I0703 18:47:51.766319 37365 net.cpp:165] Memory required for data: 2330882112
I0703 18:47:51.766332 37365 layer_factory.hpp:76] Creating layer conv4_3_sum_bn_conv4_3_sum_relu_0_split
I0703 18:47:51.766350 37365 net.cpp:106] Creating Layer conv4_3_sum_bn_conv4_3_sum_relu_0_split
I0703 18:47:51.766366 37365 net.cpp:454] conv4_3_sum_bn_conv4_3_sum_relu_0_split <- conv4_3_sum_bn
I0703 18:47:51.766413 37365 net.cpp:411] conv4_3_sum_bn_conv4_3_sum_relu_0_split -> conv4_3_sum_bn_conv4_3_sum_relu_0_split_0
I0703 18:47:51.766438 37365 net.cpp:411] conv4_3_sum_bn_conv4_3_sum_relu_0_split -> conv4_3_sum_bn_conv4_3_sum_relu_0_split_1
I0703 18:47:51.766521 37365 net.cpp:150] Setting up conv4_3_sum_bn_conv4_3_sum_relu_0_split
I0703 18:47:51.766541 37365 net.cpp:157] Top shape: 16 1024 14 14 (3211264)
I0703 18:47:51.766556 37365 net.cpp:157] Top shape: 16 1024 14 14 (3211264)
I0703 18:47:51.766569 37365 net.cpp:165] Memory required for data: 2356572224
I0703 18:47:51.766582 37365 layer_factory.hpp:76] Creating layer conv4_4_1
I0703 18:47:51.766607 37365 net.cpp:106] Creating Layer conv4_4_1
I0703 18:47:51.766626 37365 net.cpp:454] conv4_4_1 <- conv4_3_sum_bn_conv4_3_sum_relu_0_split_0
I0703 18:47:51.766644 37365 net.cpp:411] conv4_4_1 -> conv4_4_1
I0703 18:47:51.776836 37365 cudnn_conv_layer.cpp:194] Reallocating workspace storage: 12288
I0703 18:47:51.776899 37365 net.cpp:150] Setting up conv4_4_1
I0703 18:47:51.776921 37365 net.cpp:157] Top shape: 16 256 14 14 (802816)
I0703 18:47:51.776937 37365 net.cpp:165] Memory required for data: 2359783488
I0703 18:47:51.776957 37365 layer_factory.hpp:76] Creating layer conv4_4_1_bn
I0703 18:47:51.776980 37365 net.cpp:106] Creating Layer conv4_4_1_bn
I0703 18:47:51.776998 37365 net.cpp:454] conv4_4_1_bn <- conv4_4_1
I0703 18:47:51.777019 37365 net.cpp:411] conv4_4_1_bn -> conv4_4_1_bn
I0703 18:47:51.777283 37365 net.cpp:150] Setting up conv4_4_1_bn
I0703 18:47:51.777304 37365 net.cpp:157] Top shape: 16 256 14 14 (802816)
I0703 18:47:51.777318 37365 net.cpp:165] Memory required for data: 2362994752
I0703 18:47:51.777338 37365 layer_factory.hpp:76] Creating layer conv4_4_1_relu
I0703 18:47:51.777365 37365 net.cpp:106] Creating Layer conv4_4_1_relu
I0703 18:47:51.777380 37365 net.cpp:454] conv4_4_1_relu <- conv4_4_1_bn
I0703 18:47:51.777397 37365 net.cpp:397] conv4_4_1_relu -> conv4_4_1_bn (in-place)
I0703 18:47:51.777760 37365 net.cpp:150] Setting up conv4_4_1_relu
I0703 18:47:51.777784 37365 net.cpp:157] Top shape: 16 256 14 14 (802816)
I0703 18:47:51.777797 37365 net.cpp:165] Memory required for data: 2366206016
I0703 18:47:51.777812 37365 layer_factory.hpp:76] Creating layer conv4_4_2
I0703 18:47:51.777839 37365 net.cpp:106] Creating Layer conv4_4_2
I0703 18:47:51.777856 37365 net.cpp:454] conv4_4_2 <- conv4_4_1_bn
I0703 18:47:51.777874 37365 net.cpp:411] conv4_4_2 -> conv4_4_2
I0703 18:47:51.798832 37365 cudnn_conv_layer.cpp:194] Reallocating workspace storage: 27648
I0703 18:47:51.798890 37365 net.cpp:150] Setting up conv4_4_2
I0703 18:47:51.798913 37365 net.cpp:157] Top shape: 16 256 14 14 (802816)
I0703 18:47:51.798925 37365 net.cpp:165] Memory required for data: 2369417280
I0703 18:47:51.798946 37365 layer_factory.hpp:76] Creating layer conv4_4_2_bn
I0703 18:47:51.798974 37365 net.cpp:106] Creating Layer conv4_4_2_bn
I0703 18:47:51.798992 37365 net.cpp:454] conv4_4_2_bn <- conv4_4_2
I0703 18:47:51.799015 37365 net.cpp:411] conv4_4_2_bn -> conv4_4_2_bn
I0703 18:47:51.799286 37365 net.cpp:150] Setting up conv4_4_2_bn
I0703 18:47:51.799306 37365 net.cpp:157] Top shape: 16 256 14 14 (802816)
I0703 18:47:51.799319 37365 net.cpp:165] Memory required for data: 2372628544
I0703 18:47:51.799340 37365 layer_factory.hpp:76] Creating layer conv4_4_2_relu
I0703 18:47:51.799361 37365 net.cpp:106] Creating Layer conv4_4_2_relu
I0703 18:47:51.799376 37365 net.cpp:454] conv4_4_2_relu <- conv4_4_2_bn
I0703 18:47:51.799392 37365 net.cpp:397] conv4_4_2_relu -> conv4_4_2_bn (in-place)
I0703 18:47:51.799762 37365 net.cpp:150] Setting up conv4_4_2_relu
I0703 18:47:51.799785 37365 net.cpp:157] Top shape: 16 256 14 14 (802816)
I0703 18:47:51.799803 37365 net.cpp:165] Memory required for data: 2375839808
I0703 18:47:51.799816 37365 layer_factory.hpp:76] Creating layer conv4_4_3
I0703 18:47:51.799841 37365 net.cpp:106] Creating Layer conv4_4_3
I0703 18:47:51.799859 37365 net.cpp:454] conv4_4_3 <- conv4_4_2_bn
I0703 18:47:51.799880 37365 net.cpp:411] conv4_4_3 -> conv4_4_3
I0703 18:47:51.810124 37365 cudnn_conv_layer.cpp:194] Reallocating workspace storage: 3072
I0703 18:47:51.810189 37365 net.cpp:150] Setting up conv4_4_3
I0703 18:47:51.810210 37365 net.cpp:157] Top shape: 16 1024 14 14 (3211264)
I0703 18:47:51.810230 37365 net.cpp:165] Memory required for data: 2388684864
I0703 18:47:51.810251 37365 layer_factory.hpp:76] Creating layer conv4_4_sum
I0703 18:47:51.810284 37365 net.cpp:106] Creating Layer conv4_4_sum
I0703 18:47:51.810302 37365 net.cpp:454] conv4_4_sum <- conv4_3_sum_bn_conv4_3_sum_relu_0_split_1
I0703 18:47:51.810322 37365 net.cpp:454] conv4_4_sum <- conv4_4_3
I0703 18:47:51.810343 37365 net.cpp:411] conv4_4_sum -> conv4_4_sum
I0703 18:47:51.810405 37365 net.cpp:150] Setting up conv4_4_sum
I0703 18:47:51.810425 37365 net.cpp:157] Top shape: 16 1024 14 14 (3211264)
I0703 18:47:51.810437 37365 net.cpp:165] Memory required for data: 2401529920
I0703 18:47:51.810451 37365 layer_factory.hpp:76] Creating layer conv4_4_sum_bn
I0703 18:47:51.810473 37365 net.cpp:106] Creating Layer conv4_4_sum_bn
I0703 18:47:51.810489 37365 net.cpp:454] conv4_4_sum_bn <- conv4_4_sum
I0703 18:47:51.810508 37365 net.cpp:411] conv4_4_sum_bn -> conv4_4_sum_bn
I0703 18:47:51.810775 37365 net.cpp:150] Setting up conv4_4_sum_bn
I0703 18:47:51.810796 37365 net.cpp:157] Top shape: 16 1024 14 14 (3211264)
I0703 18:47:51.810808 37365 net.cpp:165] Memory required for data: 2414374976
I0703 18:47:51.810829 37365 layer_factory.hpp:76] Creating layer conv4_4_sum_relu
I0703 18:47:51.810871 37365 net.cpp:106] Creating Layer conv4_4_sum_relu
I0703 18:47:51.810894 37365 net.cpp:454] conv4_4_sum_relu <- conv4_4_sum_bn
I0703 18:47:51.810911 37365 net.cpp:397] conv4_4_sum_relu -> conv4_4_sum_bn (in-place)
I0703 18:47:51.811122 37365 net.cpp:150] Setting up conv4_4_sum_relu
I0703 18:47:51.811143 37365 net.cpp:157] Top shape: 16 1024 14 14 (3211264)
I0703 18:47:51.811156 37365 net.cpp:165] Memory required for data: 2427220032
I0703 18:47:51.811172 37365 layer_factory.hpp:76] Creating layer conv4_4_sum_bn_conv4_4_sum_relu_0_split
I0703 18:47:51.811189 37365 net.cpp:106] Creating Layer conv4_4_sum_bn_conv4_4_sum_relu_0_split
I0703 18:47:51.811204 37365 net.cpp:454] conv4_4_sum_bn_conv4_4_sum_relu_0_split <- conv4_4_sum_bn
I0703 18:47:51.811223 37365 net.cpp:411] conv4_4_sum_bn_conv4_4_sum_relu_0_split -> conv4_4_sum_bn_conv4_4_sum_relu_0_split_0
I0703 18:47:51.811244 37365 net.cpp:411] conv4_4_sum_bn_conv4_4_sum_relu_0_split -> conv4_4_sum_bn_conv4_4_sum_relu_0_split_1
I0703 18:47:51.811344 37365 net.cpp:150] Setting up conv4_4_sum_bn_conv4_4_sum_relu_0_split
I0703 18:47:51.811367 37365 net.cpp:157] Top shape: 16 1024 14 14 (3211264)
I0703 18:47:51.811383 37365 net.cpp:157] Top shape: 16 1024 14 14 (3211264)
I0703 18:47:51.811396 37365 net.cpp:165] Memory required for data: 2452910144
I0703 18:47:51.811420 37365 layer_factory.hpp:76] Creating layer conv4_5_1
I0703 18:47:51.811450 37365 net.cpp:106] Creating Layer conv4_5_1
I0703 18:47:51.811465 37365 net.cpp:454] conv4_5_1 <- conv4_4_sum_bn_conv4_4_sum_relu_0_split_0
I0703 18:47:51.811482 37365 net.cpp:411] conv4_5_1 -> conv4_5_1
I0703 18:47:51.821713 37365 cudnn_conv_layer.cpp:194] Reallocating workspace storage: 12288
I0703 18:47:51.821773 37365 net.cpp:150] Setting up conv4_5_1
I0703 18:47:51.821794 37365 net.cpp:157] Top shape: 16 256 14 14 (802816)
I0703 18:47:51.821808 37365 net.cpp:165] Memory required for data: 2456121408
I0703 18:47:51.821830 37365 layer_factory.hpp:76] Creating layer conv4_5_1_bn
I0703 18:47:51.821856 37365 net.cpp:106] Creating Layer conv4_5_1_bn
I0703 18:47:51.821874 37365 net.cpp:454] conv4_5_1_bn <- conv4_5_1
I0703 18:47:51.821894 37365 net.cpp:411] conv4_5_1_bn -> conv4_5_1_bn
I0703 18:47:51.822162 37365 net.cpp:150] Setting up conv4_5_1_bn
I0703 18:47:51.822183 37365 net.cpp:157] Top shape: 16 256 14 14 (802816)
I0703 18:47:51.822196 37365 net.cpp:165] Memory required for data: 2459332672
I0703 18:47:51.822217 37365 layer_factory.hpp:76] Creating layer conv4_5_1_relu
I0703 18:47:51.822237 37365 net.cpp:106] Creating Layer conv4_5_1_relu
I0703 18:47:51.822285 37365 net.cpp:454] conv4_5_1_relu <- conv4_5_1_bn
I0703 18:47:51.822306 37365 net.cpp:397] conv4_5_1_relu -> conv4_5_1_bn (in-place)
I0703 18:47:51.822674 37365 net.cpp:150] Setting up conv4_5_1_relu
I0703 18:47:51.822697 37365 net.cpp:157] Top shape: 16 256 14 14 (802816)
I0703 18:47:51.822710 37365 net.cpp:165] Memory required for data: 2462543936
I0703 18:47:51.822724 37365 layer_factory.hpp:76] Creating layer conv4_5_2
I0703 18:47:51.822751 37365 net.cpp:106] Creating Layer conv4_5_2
I0703 18:47:51.822767 37365 net.cpp:454] conv4_5_2 <- conv4_5_1_bn
I0703 18:47:51.822788 37365 net.cpp:411] conv4_5_2 -> conv4_5_2
I0703 18:47:51.843989 37365 cudnn_conv_layer.cpp:194] Reallocating workspace storage: 27648
I0703 18:47:51.844049 37365 net.cpp:150] Setting up conv4_5_2
I0703 18:47:51.844074 37365 net.cpp:157] Top shape: 16 256 14 14 (802816)
I0703 18:47:51.844086 37365 net.cpp:165] Memory required for data: 2465755200
I0703 18:47:51.844108 37365 layer_factory.hpp:76] Creating layer conv4_5_2_bn
I0703 18:47:51.844138 37365 net.cpp:106] Creating Layer conv4_5_2_bn
I0703 18:47:51.844158 37365 net.cpp:454] conv4_5_2_bn <- conv4_5_2
I0703 18:47:51.844179 37365 net.cpp:411] conv4_5_2_bn -> conv4_5_2_bn
I0703 18:47:51.844480 37365 net.cpp:150] Setting up conv4_5_2_bn
I0703 18:47:51.844501 37365 net.cpp:157] Top shape: 16 256 14 14 (802816)
I0703 18:47:51.844516 37365 net.cpp:165] Memory required for data: 2468966464
I0703 18:47:51.844548 37365 layer_factory.hpp:76] Creating layer conv4_5_2_relu
I0703 18:47:51.844569 37365 net.cpp:106] Creating Layer conv4_5_2_relu
I0703 18:47:51.844584 37365 net.cpp:454] conv4_5_2_relu <- conv4_5_2_bn
I0703 18:47:51.844600 37365 net.cpp:397] conv4_5_2_relu -> conv4_5_2_bn (in-place)
I0703 18:47:51.845144 37365 net.cpp:150] Setting up conv4_5_2_relu
I0703 18:47:51.845168 37365 net.cpp:157] Top shape: 16 256 14 14 (802816)
I0703 18:47:51.845182 37365 net.cpp:165] Memory required for data: 2472177728
I0703 18:47:51.845197 37365 layer_factory.hpp:76] Creating layer conv4_5_3
I0703 18:47:51.845222 37365 net.cpp:106] Creating Layer conv4_5_3
I0703 18:47:51.845239 37365 net.cpp:454] conv4_5_3 <- conv4_5_2_bn
I0703 18:47:51.845260 37365 net.cpp:411] conv4_5_3 -> conv4_5_3
I0703 18:47:51.855506 37365 cudnn_conv_layer.cpp:194] Reallocating workspace storage: 3072
I0703 18:47:51.855574 37365 net.cpp:150] Setting up conv4_5_3
I0703 18:47:51.855598 37365 net.cpp:157] Top shape: 16 1024 14 14 (3211264)
I0703 18:47:51.855612 37365 net.cpp:165] Memory required for data: 2485022784
I0703 18:47:51.855634 37365 layer_factory.hpp:76] Creating layer conv4_5_sum
I0703 18:47:51.855659 37365 net.cpp:106] Creating Layer conv4_5_sum
I0703 18:47:51.855677 37365 net.cpp:454] conv4_5_sum <- conv4_4_sum_bn_conv4_4_sum_relu_0_split_1
I0703 18:47:51.855696 37365 net.cpp:454] conv4_5_sum <- conv4_5_3
I0703 18:47:51.855715 37365 net.cpp:411] conv4_5_sum -> conv4_5_sum
I0703 18:47:51.855779 37365 net.cpp:150] Setting up conv4_5_sum
I0703 18:47:51.855799 37365 net.cpp:157] Top shape: 16 1024 14 14 (3211264)
I0703 18:47:51.855813 37365 net.cpp:165] Memory required for data: 2497867840
I0703 18:47:51.855826 37365 layer_factory.hpp:76] Creating layer conv4_5_sum_bn
I0703 18:47:51.855847 37365 net.cpp:106] Creating Layer conv4_5_sum_bn
I0703 18:47:51.855864 37365 net.cpp:454] conv4_5_sum_bn <- conv4_5_sum
I0703 18:47:51.855880 37365 net.cpp:411] conv4_5_sum_bn -> conv4_5_sum_bn
I0703 18:47:51.856155 37365 net.cpp:150] Setting up conv4_5_sum_bn
I0703 18:47:51.856175 37365 net.cpp:157] Top shape: 16 1024 14 14 (3211264)
I0703 18:47:51.856189 37365 net.cpp:165] Memory required for data: 2510712896
I0703 18:47:51.856210 37365 layer_factory.hpp:76] Creating layer conv4_5_sum_relu
I0703 18:47:51.856230 37365 net.cpp:106] Creating Layer conv4_5_sum_relu
I0703 18:47:51.856245 37365 net.cpp:454] conv4_5_sum_relu <- conv4_5_sum_bn
I0703 18:47:51.856266 37365 net.cpp:397] conv4_5_sum_relu -> conv4_5_sum_bn (in-place)
I0703 18:47:51.856509 37365 net.cpp:150] Setting up conv4_5_sum_relu
I0703 18:47:51.856570 37365 net.cpp:157] Top shape: 16 1024 14 14 (3211264)
I0703 18:47:51.856588 37365 net.cpp:165] Memory required for data: 2523557952
I0703 18:47:51.856602 37365 layer_factory.hpp:76] Creating layer conv4_5_sum_bn_conv4_5_sum_relu_0_split
I0703 18:47:51.856621 37365 net.cpp:106] Creating Layer conv4_5_sum_bn_conv4_5_sum_relu_0_split
I0703 18:47:51.856634 37365 net.cpp:454] conv4_5_sum_bn_conv4_5_sum_relu_0_split <- conv4_5_sum_bn
I0703 18:47:51.856652 37365 net.cpp:411] conv4_5_sum_bn_conv4_5_sum_relu_0_split -> conv4_5_sum_bn_conv4_5_sum_relu_0_split_0
I0703 18:47:51.856669 37365 net.cpp:411] conv4_5_sum_bn_conv4_5_sum_relu_0_split -> conv4_5_sum_bn_conv4_5_sum_relu_0_split_1
I0703 18:47:51.856758 37365 net.cpp:150] Setting up conv4_5_sum_bn_conv4_5_sum_relu_0_split
I0703 18:47:51.856781 37365 net.cpp:157] Top shape: 16 1024 14 14 (3211264)
I0703 18:47:51.856796 37365 net.cpp:157] Top shape: 16 1024 14 14 (3211264)
I0703 18:47:51.856808 37365 net.cpp:165] Memory required for data: 2549248064
I0703 18:47:51.856822 37365 layer_factory.hpp:76] Creating layer conv4_6_1
I0703 18:47:51.856847 37365 net.cpp:106] Creating Layer conv4_6_1
I0703 18:47:51.856863 37365 net.cpp:454] conv4_6_1 <- conv4_5_sum_bn_conv4_5_sum_relu_0_split_0
I0703 18:47:51.856884 37365 net.cpp:411] conv4_6_1 -> conv4_6_1
I0703 18:47:51.867144 37365 cudnn_conv_layer.cpp:194] Reallocating workspace storage: 12288
I0703 18:47:51.867210 37365 net.cpp:150] Setting up conv4_6_1
I0703 18:47:51.867233 37365 net.cpp:157] Top shape: 16 256 14 14 (802816)
I0703 18:47:51.867247 37365 net.cpp:165] Memory required for data: 2552459328
I0703 18:47:51.867267 37365 layer_factory.hpp:76] Creating layer conv4_6_1_bn
I0703 18:47:51.867295 37365 net.cpp:106] Creating Layer conv4_6_1_bn
I0703 18:47:51.867311 37365 net.cpp:454] conv4_6_1_bn <- conv4_6_1
I0703 18:47:51.867331 37365 net.cpp:411] conv4_6_1_bn -> conv4_6_1_bn
I0703 18:47:51.867604 37365 net.cpp:150] Setting up conv4_6_1_bn
I0703 18:47:51.867624 37365 net.cpp:157] Top shape: 16 256 14 14 (802816)
I0703 18:47:51.867636 37365 net.cpp:165] Memory required for data: 2555670592
I0703 18:47:51.867657 37365 layer_factory.hpp:76] Creating layer conv4_6_1_relu
I0703 18:47:51.867677 37365 net.cpp:106] Creating Layer conv4_6_1_relu
I0703 18:47:51.867692 37365 net.cpp:454] conv4_6_1_relu <- conv4_6_1_bn
I0703 18:47:51.867708 37365 net.cpp:397] conv4_6_1_relu -> conv4_6_1_bn (in-place)
I0703 18:47:51.868085 37365 net.cpp:150] Setting up conv4_6_1_relu
I0703 18:47:51.868113 37365 net.cpp:157] Top shape: 16 256 14 14 (802816)
I0703 18:47:51.868126 37365 net.cpp:165] Memory required for data: 2558881856
I0703 18:47:51.868140 37365 layer_factory.hpp:76] Creating layer conv4_6_2
I0703 18:47:51.868162 37365 net.cpp:106] Creating Layer conv4_6_2
I0703 18:47:51.868177 37365 net.cpp:454] conv4_6_2 <- conv4_6_1_bn
I0703 18:47:51.868199 37365 net.cpp:411] conv4_6_2 -> conv4_6_2
I0703 18:47:51.889276 37365 cudnn_conv_layer.cpp:194] Reallocating workspace storage: 27648
I0703 18:47:51.889336 37365 net.cpp:150] Setting up conv4_6_2
I0703 18:47:51.889359 37365 net.cpp:157] Top shape: 16 256 14 14 (802816)
I0703 18:47:51.889372 37365 net.cpp:165] Memory required for data: 2562093120
I0703 18:47:51.889394 37365 layer_factory.hpp:76] Creating layer conv4_6_2_bn
I0703 18:47:51.889425 37365 net.cpp:106] Creating Layer conv4_6_2_bn
I0703 18:47:51.889446 37365 net.cpp:454] conv4_6_2_bn <- conv4_6_2
I0703 18:47:51.889466 37365 net.cpp:411] conv4_6_2_bn -> conv4_6_2_bn
I0703 18:47:51.889751 37365 net.cpp:150] Setting up conv4_6_2_bn
I0703 18:47:51.889772 37365 net.cpp:157] Top shape: 16 256 14 14 (802816)
I0703 18:47:51.889786 37365 net.cpp:165] Memory required for data: 2565304384
I0703 18:47:51.889806 37365 layer_factory.hpp:76] Creating layer conv4_6_2_relu
I0703 18:47:51.889827 37365 net.cpp:106] Creating Layer conv4_6_2_relu
I0703 18:47:51.889843 37365 net.cpp:454] conv4_6_2_relu <- conv4_6_2_bn
I0703 18:47:51.889859 37365 net.cpp:397] conv4_6_2_relu -> conv4_6_2_bn (in-place)
I0703 18:47:51.890228 37365 net.cpp:150] Setting up conv4_6_2_relu
I0703 18:47:51.890275 37365 net.cpp:157] Top shape: 16 256 14 14 (802816)
I0703 18:47:51.890288 37365 net.cpp:165] Memory required for data: 2568515648
I0703 18:47:51.890302 37365 layer_factory.hpp:76] Creating layer conv4_6_3
I0703 18:47:51.890328 37365 net.cpp:106] Creating Layer conv4_6_3
I0703 18:47:51.890346 37365 net.cpp:454] conv4_6_3 <- conv4_6_2_bn
I0703 18:47:51.890367 37365 net.cpp:411] conv4_6_3 -> conv4_6_3
I0703 18:47:51.900627 37365 cudnn_conv_layer.cpp:194] Reallocating workspace storage: 3072
I0703 18:47:51.900689 37365 net.cpp:150] Setting up conv4_6_3
I0703 18:47:51.900710 37365 net.cpp:157] Top shape: 16 1024 14 14 (3211264)
I0703 18:47:51.900725 37365 net.cpp:165] Memory required for data: 2581360704
I0703 18:47:51.900744 37365 layer_factory.hpp:76] Creating layer conv4_6_sum
I0703 18:47:51.900774 37365 net.cpp:106] Creating Layer conv4_6_sum
I0703 18:47:51.900790 37365 net.cpp:454] conv4_6_sum <- conv4_5_sum_bn_conv4_5_sum_relu_0_split_1
I0703 18:47:51.900810 37365 net.cpp:454] conv4_6_sum <- conv4_6_3
I0703 18:47:51.900827 37365 net.cpp:411] conv4_6_sum -> conv4_6_sum
I0703 18:47:51.900897 37365 net.cpp:150] Setting up conv4_6_sum
I0703 18:47:51.900918 37365 net.cpp:157] Top shape: 16 1024 14 14 (3211264)
I0703 18:47:51.900930 37365 net.cpp:165] Memory required for data: 2594205760
I0703 18:47:51.900943 37365 layer_factory.hpp:76] Creating layer conv4_6_sum_bn
I0703 18:47:51.900962 37365 net.cpp:106] Creating Layer conv4_6_sum_bn
I0703 18:47:51.900979 37365 net.cpp:454] conv4_6_sum_bn <- conv4_6_sum
I0703 18:47:51.900997 37365 net.cpp:411] conv4_6_sum_bn -> conv4_6_sum_bn
I0703 18:47:51.901274 37365 net.cpp:150] Setting up conv4_6_sum_bn
I0703 18:47:51.901294 37365 net.cpp:157] Top shape: 16 1024 14 14 (3211264)
I0703 18:47:51.901309 37365 net.cpp:165] Memory required for data: 2607050816
I0703 18:47:51.901329 37365 layer_factory.hpp:76] Creating layer conv4_6_sum_relu
I0703 18:47:51.901351 37365 net.cpp:106] Creating Layer conv4_6_sum_relu
I0703 18:47:51.901366 37365 net.cpp:454] conv4_6_sum_relu <- conv4_6_sum_bn
I0703 18:47:51.901382 37365 net.cpp:397] conv4_6_sum_relu -> conv4_6_sum_bn (in-place)
I0703 18:47:51.901597 37365 net.cpp:150] Setting up conv4_6_sum_relu
I0703 18:47:51.901619 37365 net.cpp:157] Top shape: 16 1024 14 14 (3211264)
I0703 18:47:51.901633 37365 net.cpp:165] Memory required for data: 2619895872
I0703 18:47:51.901646 37365 layer_factory.hpp:76] Creating layer conv4_6_sum_bn_conv4_6_sum_relu_0_split
I0703 18:47:51.901665 37365 net.cpp:106] Creating Layer conv4_6_sum_bn_conv4_6_sum_relu_0_split
I0703 18:47:51.901680 37365 net.cpp:454] conv4_6_sum_bn_conv4_6_sum_relu_0_split <- conv4_6_sum_bn
I0703 18:47:51.901700 37365 net.cpp:411] conv4_6_sum_bn_conv4_6_sum_relu_0_split -> conv4_6_sum_bn_conv4_6_sum_relu_0_split_0
I0703 18:47:51.901720 37365 net.cpp:411] conv4_6_sum_bn_conv4_6_sum_relu_0_split -> conv4_6_sum_bn_conv4_6_sum_relu_0_split_1
I0703 18:47:51.901804 37365 net.cpp:150] Setting up conv4_6_sum_bn_conv4_6_sum_relu_0_split
I0703 18:47:51.901826 37365 net.cpp:157] Top shape: 16 1024 14 14 (3211264)
I0703 18:47:51.901841 37365 net.cpp:157] Top shape: 16 1024 14 14 (3211264)
I0703 18:47:51.901854 37365 net.cpp:165] Memory required for data: 2645585984
I0703 18:47:51.901868 37365 layer_factory.hpp:76] Creating layer conv4_output
I0703 18:47:51.901896 37365 net.cpp:106] Creating Layer conv4_output
I0703 18:47:51.901911 37365 net.cpp:454] conv4_output <- conv4_6_sum_bn_conv4_6_sum_relu_0_split_0
I0703 18:47:51.901929 37365 net.cpp:411] conv4_output -> conv4_output
I0703 18:47:51.973567 37365 cudnn_conv_layer.cpp:194] Reallocating workspace storage: 12288
I0703 18:47:51.973636 37365 net.cpp:150] Setting up conv4_output
I0703 18:47:51.973660 37365 net.cpp:157] Top shape: 16 2048 7 7 (1605632)
I0703 18:47:51.973675 37365 net.cpp:165] Memory required for data: 2652008512
I0703 18:47:51.973697 37365 layer_factory.hpp:76] Creating layer conv5_1_1
I0703 18:47:51.973732 37365 net.cpp:106] Creating Layer conv5_1_1
I0703 18:47:51.973750 37365 net.cpp:454] conv5_1_1 <- conv4_6_sum_bn_conv4_6_sum_relu_0_split_1
I0703 18:47:51.973809 37365 net.cpp:411] conv5_1_1 -> conv5_1_1
I0703 18:47:51.992808 37365 cudnn_conv_layer.cpp:194] Reallocating workspace storage: 12288
I0703 18:47:51.992875 37365 net.cpp:150] Setting up conv5_1_1
I0703 18:47:51.992904 37365 net.cpp:157] Top shape: 16 512 7 7 (401408)
I0703 18:47:51.992919 37365 net.cpp:165] Memory required for data: 2653614144
I0703 18:47:51.992943 37365 layer_factory.hpp:76] Creating layer conv5_1_1_bn
I0703 18:47:51.992975 37365 net.cpp:106] Creating Layer conv5_1_1_bn
I0703 18:47:51.992993 37365 net.cpp:454] conv5_1_1_bn <- conv5_1_1
I0703 18:47:51.993015 37365 net.cpp:411] conv5_1_1_bn -> conv5_1_1_bn
I0703 18:47:51.993301 37365 net.cpp:150] Setting up conv5_1_1_bn
I0703 18:47:51.993322 37365 net.cpp:157] Top shape: 16 512 7 7 (401408)
I0703 18:47:51.993335 37365 net.cpp:165] Memory required for data: 2655219776
I0703 18:47:51.993356 37365 layer_factory.hpp:76] Creating layer conv5_1_1_relu
I0703 18:47:51.993377 37365 net.cpp:106] Creating Layer conv5_1_1_relu
I0703 18:47:51.993393 37365 net.cpp:454] conv5_1_1_relu <- conv5_1_1_bn
I0703 18:47:51.993409 37365 net.cpp:397] conv5_1_1_relu -> conv5_1_1_bn (in-place)
I0703 18:47:51.993631 37365 net.cpp:150] Setting up conv5_1_1_relu
I0703 18:47:51.993652 37365 net.cpp:157] Top shape: 16 512 7 7 (401408)
I0703 18:47:51.993665 37365 net.cpp:165] Memory required for data: 2656825408
I0703 18:47:51.993680 37365 layer_factory.hpp:76] Creating layer conv5_1_2
I0703 18:47:51.993705 37365 net.cpp:106] Creating Layer conv5_1_2
I0703 18:47:51.993722 37365 net.cpp:454] conv5_1_2 <- conv5_1_1_bn
I0703 18:47:51.993741 37365 net.cpp:411] conv5_1_2 -> conv5_1_2
I0703 18:47:52.074100 37365 cudnn_conv_layer.cpp:194] Reallocating workspace storage: 55296
I0703 18:47:52.074164 37365 net.cpp:150] Setting up conv5_1_2
I0703 18:47:52.074187 37365 net.cpp:157] Top shape: 16 512 7 7 (401408)
I0703 18:47:52.074201 37365 net.cpp:165] Memory required for data: 2658431040
I0703 18:47:52.074223 37365 layer_factory.hpp:76] Creating layer conv5_1_2_bn
I0703 18:47:52.074249 37365 net.cpp:106] Creating Layer conv5_1_2_bn
I0703 18:47:52.074266 37365 net.cpp:454] conv5_1_2_bn <- conv5_1_2
I0703 18:47:52.074295 37365 net.cpp:411] conv5_1_2_bn -> conv5_1_2_bn
I0703 18:47:52.074582 37365 net.cpp:150] Setting up conv5_1_2_bn
I0703 18:47:52.074604 37365 net.cpp:157] Top shape: 16 512 7 7 (401408)
I0703 18:47:52.074616 37365 net.cpp:165] Memory required for data: 2660036672
I0703 18:47:52.074638 37365 layer_factory.hpp:76] Creating layer conv5_1_2_relu
I0703 18:47:52.074661 37365 net.cpp:106] Creating Layer conv5_1_2_relu
I0703 18:47:52.074676 37365 net.cpp:454] conv5_1_2_relu <- conv5_1_2_bn
I0703 18:47:52.074693 37365 net.cpp:397] conv5_1_2_relu -> conv5_1_2_bn (in-place)
I0703 18:47:52.075062 37365 net.cpp:150] Setting up conv5_1_2_relu
I0703 18:47:52.075086 37365 net.cpp:157] Top shape: 16 512 7 7 (401408)
I0703 18:47:52.075099 37365 net.cpp:165] Memory required for data: 2661642304
I0703 18:47:52.075114 37365 layer_factory.hpp:76] Creating layer conv5_1_3
I0703 18:47:52.075140 37365 net.cpp:106] Creating Layer conv5_1_3
I0703 18:47:52.075160 37365 net.cpp:454] conv5_1_3 <- conv5_1_2_bn
I0703 18:47:52.075178 37365 net.cpp:411] conv5_1_3 -> conv5_1_3
I0703 18:47:52.116109 37365 cudnn_conv_layer.cpp:194] Reallocating workspace storage: 6144
I0703 18:47:52.116178 37365 net.cpp:150] Setting up conv5_1_3
I0703 18:47:52.116202 37365 net.cpp:157] Top shape: 16 2048 7 7 (1605632)
I0703 18:47:52.116217 37365 net.cpp:165] Memory required for data: 2668064832
I0703 18:47:52.116240 37365 layer_factory.hpp:76] Creating layer conv5_1_sum
I0703 18:47:52.116269 37365 net.cpp:106] Creating Layer conv5_1_sum
I0703 18:47:52.116288 37365 net.cpp:454] conv5_1_sum <- conv4_output
I0703 18:47:52.116307 37365 net.cpp:454] conv5_1_sum <- conv5_1_3
I0703 18:47:52.116325 37365 net.cpp:411] conv5_1_sum -> conv5_1_sum
I0703 18:47:52.116394 37365 net.cpp:150] Setting up conv5_1_sum
I0703 18:47:52.116415 37365 net.cpp:157] Top shape: 16 2048 7 7 (1605632)
I0703 18:47:52.116482 37365 net.cpp:165] Memory required for data: 2674487360
I0703 18:47:52.116497 37365 layer_factory.hpp:76] Creating layer conv5_1_sum_bn
I0703 18:47:52.116525 37365 net.cpp:106] Creating Layer conv5_1_sum_bn
I0703 18:47:52.116544 37365 net.cpp:454] conv5_1_sum_bn <- conv5_1_sum
I0703 18:47:52.116564 37365 net.cpp:411] conv5_1_sum_bn -> conv5_1_sum_bn
I0703 18:47:52.116873 37365 net.cpp:150] Setting up conv5_1_sum_bn
I0703 18:47:52.116894 37365 net.cpp:157] Top shape: 16 2048 7 7 (1605632)
I0703 18:47:52.116906 37365 net.cpp:165] Memory required for data: 2680909888
I0703 18:47:52.116928 37365 layer_factory.hpp:76] Creating layer conv5_1_sum_relu
I0703 18:47:52.116948 37365 net.cpp:106] Creating Layer conv5_1_sum_relu
I0703 18:47:52.116964 37365 net.cpp:454] conv5_1_sum_relu <- conv5_1_sum_bn
I0703 18:47:52.116981 37365 net.cpp:397] conv5_1_sum_relu -> conv5_1_sum_bn (in-place)
I0703 18:47:52.117199 37365 net.cpp:150] Setting up conv5_1_sum_relu
I0703 18:47:52.117221 37365 net.cpp:157] Top shape: 16 2048 7 7 (1605632)
I0703 18:47:52.117234 37365 net.cpp:165] Memory required for data: 2687332416
I0703 18:47:52.117247 37365 layer_factory.hpp:76] Creating layer conv5_1_sum_bn_conv5_1_sum_relu_0_split
I0703 18:47:52.117269 37365 net.cpp:106] Creating Layer conv5_1_sum_bn_conv5_1_sum_relu_0_split
I0703 18:47:52.117285 37365 net.cpp:454] conv5_1_sum_bn_conv5_1_sum_relu_0_split <- conv5_1_sum_bn
I0703 18:47:52.117300 37365 net.cpp:411] conv5_1_sum_bn_conv5_1_sum_relu_0_split -> conv5_1_sum_bn_conv5_1_sum_relu_0_split_0
I0703 18:47:52.117319 37365 net.cpp:411] conv5_1_sum_bn_conv5_1_sum_relu_0_split -> conv5_1_sum_bn_conv5_1_sum_relu_0_split_1
I0703 18:47:52.117411 37365 net.cpp:150] Setting up conv5_1_sum_bn_conv5_1_sum_relu_0_split
I0703 18:47:52.117432 37365 net.cpp:157] Top shape: 16 2048 7 7 (1605632)
I0703 18:47:52.117446 37365 net.cpp:157] Top shape: 16 2048 7 7 (1605632)
I0703 18:47:52.117460 37365 net.cpp:165] Memory required for data: 2700177472
I0703 18:47:52.117472 37365 layer_factory.hpp:76] Creating layer conv5_2_1
I0703 18:47:52.117498 37365 net.cpp:106] Creating Layer conv5_2_1
I0703 18:47:52.117513 37365 net.cpp:454] conv5_2_1 <- conv5_1_sum_bn_conv5_1_sum_relu_0_split_0
I0703 18:47:52.117533 37365 net.cpp:411] conv5_2_1 -> conv5_2_1
I0703 18:47:52.153875 37365 cudnn_conv_layer.cpp:194] Reallocating workspace storage: 19267584
I0703 18:47:52.154142 37365 net.cpp:150] Setting up conv5_2_1
I0703 18:47:52.154170 37365 net.cpp:157] Top shape: 16 512 7 7 (401408)
I0703 18:47:52.154186 37365 net.cpp:165] Memory required for data: 2701783104
I0703 18:47:52.154211 37365 layer_factory.hpp:76] Creating layer conv5_2_1_bn
I0703 18:47:52.154240 37365 net.cpp:106] Creating Layer conv5_2_1_bn
I0703 18:47:52.154259 37365 net.cpp:454] conv5_2_1_bn <- conv5_2_1
I0703 18:47:52.154280 37365 net.cpp:411] conv5_2_1_bn -> conv5_2_1_bn
I0703 18:47:52.154582 37365 net.cpp:150] Setting up conv5_2_1_bn
I0703 18:47:52.154603 37365 net.cpp:157] Top shape: 16 512 7 7 (401408)
I0703 18:47:52.154615 37365 net.cpp:165] Memory required for data: 2703388736
I0703 18:47:52.154638 37365 layer_factory.hpp:76] Creating layer conv5_2_1_relu
I0703 18:47:52.154657 37365 net.cpp:106] Creating Layer conv5_2_1_relu
I0703 18:47:52.154673 37365 net.cpp:454] conv5_2_1_relu <- conv5_2_1_bn
I0703 18:47:52.154690 37365 net.cpp:397] conv5_2_1_relu -> conv5_2_1_bn (in-place)
I0703 18:47:52.154925 37365 net.cpp:150] Setting up conv5_2_1_relu
I0703 18:47:52.154947 37365 net.cpp:157] Top shape: 16 512 7 7 (401408)
I0703 18:47:52.154961 37365 net.cpp:165] Memory required for data: 2704994368
I0703 18:47:52.154975 37365 layer_factory.hpp:76] Creating layer conv5_2_2
I0703 18:47:52.155000 37365 net.cpp:106] Creating Layer conv5_2_2
I0703 18:47:52.155017 37365 net.cpp:454] conv5_2_2 <- conv5_2_1_bn
I0703 18:47:52.155038 37365 net.cpp:411] conv5_2_2 -> conv5_2_2
I0703 18:47:52.236867 37365 cudnn_conv_layer.cpp:194] Reallocating workspace storage: 55296
I0703 18:47:52.236953 37365 net.cpp:150] Setting up conv5_2_2
I0703 18:47:52.236980 37365 net.cpp:157] Top shape: 16 512 7 7 (401408)
I0703 18:47:52.237032 37365 net.cpp:165] Memory required for data: 2706600000
I0703 18:47:52.237082 37365 layer_factory.hpp:76] Creating layer conv5_2_2_bn
I0703 18:47:52.237123 37365 net.cpp:106] Creating Layer conv5_2_2_bn
I0703 18:47:52.237164 37365 net.cpp:454] conv5_2_2_bn <- conv5_2_2
I0703 18:47:52.237192 37365 net.cpp:411] conv5_2_2_bn -> conv5_2_2_bn
I0703 18:47:52.237532 37365 net.cpp:150] Setting up conv5_2_2_bn
I0703 18:47:52.237553 37365 net.cpp:157] Top shape: 16 512 7 7 (401408)
I0703 18:47:52.237567 37365 net.cpp:165] Memory required for data: 2708205632
I0703 18:47:52.237588 37365 layer_factory.hpp:76] Creating layer conv5_2_2_relu
I0703 18:47:52.237628 37365 net.cpp:106] Creating Layer conv5_2_2_relu
I0703 18:47:52.237646 37365 net.cpp:454] conv5_2_2_relu <- conv5_2_2_bn
I0703 18:47:52.237663 37365 net.cpp:397] conv5_2_2_relu -> conv5_2_2_bn (in-place)
I0703 18:47:52.238039 37365 net.cpp:150] Setting up conv5_2_2_relu
I0703 18:47:52.238062 37365 net.cpp:157] Top shape: 16 512 7 7 (401408)
I0703 18:47:52.238075 37365 net.cpp:165] Memory required for data: 2709811264
I0703 18:47:52.238090 37365 layer_factory.hpp:76] Creating layer conv5_2_3
I0703 18:47:52.238118 37365 net.cpp:106] Creating Layer conv5_2_3
I0703 18:47:52.238135 37365 net.cpp:454] conv5_2_3 <- conv5_2_2_bn
I0703 18:47:52.238153 37365 net.cpp:411] conv5_2_3 -> conv5_2_3
I0703 18:47:52.274785 37365 cudnn_conv_layer.cpp:194] Reallocating workspace storage: 6144
I0703 18:47:52.274901 37365 net.cpp:150] Setting up conv5_2_3
I0703 18:47:52.274929 37365 net.cpp:157] Top shape: 16 2048 7 7 (1605632)
I0703 18:47:52.274945 37365 net.cpp:165] Memory required for data: 2716233792
I0703 18:47:52.274967 37365 layer_factory.hpp:76] Creating layer conv5_2_sum
I0703 18:47:52.275004 37365 net.cpp:106] Creating Layer conv5_2_sum
I0703 18:47:52.275030 37365 net.cpp:454] conv5_2_sum <- conv5_1_sum_bn_conv5_1_sum_relu_0_split_1
I0703 18:47:52.275049 37365 net.cpp:454] conv5_2_sum <- conv5_2_3
I0703 18:47:52.275068 37365 net.cpp:411] conv5_2_sum -> conv5_2_sum
I0703 18:47:52.275140 37365 net.cpp:150] Setting up conv5_2_sum
I0703 18:47:52.275166 37365 net.cpp:157] Top shape: 16 2048 7 7 (1605632)
I0703 18:47:52.275179 37365 net.cpp:165] Memory required for data: 2722656320
I0703 18:47:52.275194 37365 layer_factory.hpp:76] Creating layer conv5_2_sum_bn
I0703 18:47:52.275216 37365 net.cpp:106] Creating Layer conv5_2_sum_bn
I0703 18:47:52.275233 37365 net.cpp:454] conv5_2_sum_bn <- conv5_2_sum
I0703 18:47:52.275251 37365 net.cpp:411] conv5_2_sum_bn -> conv5_2_sum_bn
I0703 18:47:52.275557 37365 net.cpp:150] Setting up conv5_2_sum_bn
I0703 18:47:52.275578 37365 net.cpp:157] Top shape: 16 2048 7 7 (1605632)
I0703 18:47:52.275591 37365 net.cpp:165] Memory required for data: 2729078848
I0703 18:47:52.275612 37365 layer_factory.hpp:76] Creating layer conv5_2_sum_relu
I0703 18:47:52.275635 37365 net.cpp:106] Creating Layer conv5_2_sum_relu
I0703 18:47:52.275651 37365 net.cpp:454] conv5_2_sum_relu <- conv5_2_sum_bn
I0703 18:47:52.275671 37365 net.cpp:397] conv5_2_sum_relu -> conv5_2_sum_bn (in-place)
I0703 18:47:52.275892 37365 net.cpp:150] Setting up conv5_2_sum_relu
I0703 18:47:52.275916 37365 net.cpp:157] Top shape: 16 2048 7 7 (1605632)
I0703 18:47:52.275929 37365 net.cpp:165] Memory required for data: 2735501376
I0703 18:47:52.275943 37365 layer_factory.hpp:76] Creating layer conv5_2_sum_bn_conv5_2_sum_relu_0_split
I0703 18:47:52.275962 37365 net.cpp:106] Creating Layer conv5_2_sum_bn_conv5_2_sum_relu_0_split
I0703 18:47:52.275979 37365 net.cpp:454] conv5_2_sum_bn_conv5_2_sum_relu_0_split <- conv5_2_sum_bn
I0703 18:47:52.275993 37365 net.cpp:411] conv5_2_sum_bn_conv5_2_sum_relu_0_split -> conv5_2_sum_bn_conv5_2_sum_relu_0_split_0
I0703 18:47:52.276012 37365 net.cpp:411] conv5_2_sum_bn_conv5_2_sum_relu_0_split -> conv5_2_sum_bn_conv5_2_sum_relu_0_split_1
I0703 18:47:52.276108 37365 net.cpp:150] Setting up conv5_2_sum_bn_conv5_2_sum_relu_0_split
I0703 18:47:52.276127 37365 net.cpp:157] Top shape: 16 2048 7 7 (1605632)
I0703 18:47:52.276142 37365 net.cpp:157] Top shape: 16 2048 7 7 (1605632)
I0703 18:47:52.276188 37365 net.cpp:165] Memory required for data: 2748346432
I0703 18:47:52.276202 37365 layer_factory.hpp:76] Creating layer conv5_3_1
I0703 18:47:52.276228 37365 net.cpp:106] Creating Layer conv5_3_1
I0703 18:47:52.276244 37365 net.cpp:454] conv5_3_1 <- conv5_2_sum_bn_conv5_2_sum_relu_0_split_0
I0703 18:47:52.276265 37365 net.cpp:411] conv5_3_1 -> conv5_3_1
I0703 18:47:52.312785 37365 cudnn_conv_layer.cpp:194] Reallocating workspace storage: 19267584
I0703 18:47:52.313100 37365 net.cpp:150] Setting up conv5_3_1
I0703 18:47:52.313128 37365 net.cpp:157] Top shape: 16 512 7 7 (401408)
I0703 18:47:52.313144 37365 net.cpp:165] Memory required for data: 2749952064
I0703 18:47:52.313179 37365 layer_factory.hpp:76] Creating layer conv5_3_1_bn
I0703 18:47:52.313210 37365 net.cpp:106] Creating Layer conv5_3_1_bn
I0703 18:47:52.313228 37365 net.cpp:454] conv5_3_1_bn <- conv5_3_1
I0703 18:47:52.313261 37365 net.cpp:411] conv5_3_1_bn -> conv5_3_1_bn
I0703 18:47:52.313580 37365 net.cpp:150] Setting up conv5_3_1_bn
I0703 18:47:52.313601 37365 net.cpp:157] Top shape: 16 512 7 7 (401408)
I0703 18:47:52.313613 37365 net.cpp:165] Memory required for data: 2751557696
I0703 18:47:52.313634 37365 layer_factory.hpp:76] Creating layer conv5_3_1_relu
I0703 18:47:52.313654 37365 net.cpp:106] Creating Layer conv5_3_1_relu
I0703 18:47:52.313670 37365 net.cpp:454] conv5_3_1_relu <- conv5_3_1_bn
I0703 18:47:52.313686 37365 net.cpp:397] conv5_3_1_relu -> conv5_3_1_bn (in-place)
I0703 18:47:52.313925 37365 net.cpp:150] Setting up conv5_3_1_relu
I0703 18:47:52.313946 37365 net.cpp:157] Top shape: 16 512 7 7 (401408)
I0703 18:47:52.313959 37365 net.cpp:165] Memory required for data: 2753163328
I0703 18:47:52.313973 37365 layer_factory.hpp:76] Creating layer conv5_3_2
I0703 18:47:52.314000 37365 net.cpp:106] Creating Layer conv5_3_2
I0703 18:47:52.314018 37365 net.cpp:454] conv5_3_2 <- conv5_3_1_bn
I0703 18:47:52.314038 37365 net.cpp:411] conv5_3_2 -> conv5_3_2
I0703 18:47:52.394495 37365 cudnn_conv_layer.cpp:194] Reallocating workspace storage: 55296
I0703 18:47:52.394558 37365 net.cpp:150] Setting up conv5_3_2
I0703 18:47:52.394584 37365 net.cpp:157] Top shape: 16 512 7 7 (401408)
I0703 18:47:52.394598 37365 net.cpp:165] Memory required for data: 2754768960
I0703 18:47:52.394620 37365 layer_factory.hpp:76] Creating layer conv5_3_2_bn
I0703 18:47:52.394651 37365 net.cpp:106] Creating Layer conv5_3_2_bn
I0703 18:47:52.394670 37365 net.cpp:454] conv5_3_2_bn <- conv5_3_2
I0703 18:47:52.394691 37365 net.cpp:411] conv5_3_2_bn -> conv5_3_2_bn
I0703 18:47:52.395001 37365 net.cpp:150] Setting up conv5_3_2_bn
I0703 18:47:52.395022 37365 net.cpp:157] Top shape: 16 512 7 7 (401408)
I0703 18:47:52.395035 37365 net.cpp:165] Memory required for data: 2756374592
I0703 18:47:52.395056 37365 layer_factory.hpp:76] Creating layer conv5_3_2_relu
I0703 18:47:52.395076 37365 net.cpp:106] Creating Layer conv5_3_2_relu
I0703 18:47:52.395090 37365 net.cpp:454] conv5_3_2_relu <- conv5_3_2_bn
I0703 18:47:52.395107 37365 net.cpp:397] conv5_3_2_relu -> conv5_3_2_bn (in-place)
I0703 18:47:52.395515 37365 net.cpp:150] Setting up conv5_3_2_relu
I0703 18:47:52.395545 37365 net.cpp:157] Top shape: 16 512 7 7 (401408)
I0703 18:47:52.395560 37365 net.cpp:165] Memory required for data: 2757980224
I0703 18:47:52.395573 37365 layer_factory.hpp:76] Creating layer conv5_3_3
I0703 18:47:52.395602 37365 net.cpp:106] Creating Layer conv5_3_3
I0703 18:47:52.395620 37365 net.cpp:454] conv5_3_3 <- conv5_3_2_bn
I0703 18:47:52.395638 37365 net.cpp:411] conv5_3_3 -> conv5_3_3
I0703 18:47:52.435032 37365 cudnn_conv_layer.cpp:194] Reallocating workspace storage: 6144
I0703 18:47:52.435106 37365 net.cpp:150] Setting up conv5_3_3
I0703 18:47:52.435127 37365 net.cpp:157] Top shape: 16 2048 7 7 (1605632)
I0703 18:47:52.435142 37365 net.cpp:165] Memory required for data: 2764402752
I0703 18:47:52.435163 37365 layer_factory.hpp:76] Creating layer conv5_3_sum
I0703 18:47:52.435189 37365 net.cpp:106] Creating Layer conv5_3_sum
I0703 18:47:52.435206 37365 net.cpp:454] conv5_3_sum <- conv5_2_sum_bn_conv5_2_sum_relu_0_split_1
I0703 18:47:52.435261 37365 net.cpp:454] conv5_3_sum <- conv5_3_3
I0703 18:47:52.435281 37365 net.cpp:411] conv5_3_sum -> conv5_3_sum
I0703 18:47:52.435346 37365 net.cpp:150] Setting up conv5_3_sum
I0703 18:47:52.435366 37365 net.cpp:157] Top shape: 16 2048 7 7 (1605632)
I0703 18:47:52.435379 37365 net.cpp:165] Memory required for data: 2770825280
I0703 18:47:52.435392 37365 layer_factory.hpp:76] Creating layer conv5_3_sum_bn
I0703 18:47:52.435415 37365 net.cpp:106] Creating Layer conv5_3_sum_bn
I0703 18:47:52.435431 37365 net.cpp:454] conv5_3_sum_bn <- conv5_3_sum
I0703 18:47:52.435451 37365 net.cpp:411] conv5_3_sum_bn -> conv5_3_sum_bn
I0703 18:47:52.435745 37365 net.cpp:150] Setting up conv5_3_sum_bn
I0703 18:47:52.435765 37365 net.cpp:157] Top shape: 16 2048 7 7 (1605632)
I0703 18:47:52.435777 37365 net.cpp:165] Memory required for data: 2777247808
I0703 18:47:52.435798 37365 layer_factory.hpp:76] Creating layer conv5_3_sum_relu
I0703 18:47:52.435822 37365 net.cpp:106] Creating Layer conv5_3_sum_relu
I0703 18:47:52.435837 37365 net.cpp:454] conv5_3_sum_relu <- conv5_3_sum_bn
I0703 18:47:52.435853 37365 net.cpp:397] conv5_3_sum_relu -> conv5_3_sum_bn (in-place)
I0703 18:47:52.437163 37365 net.cpp:150] Setting up conv5_3_sum_relu
I0703 18:47:52.437186 37365 net.cpp:157] Top shape: 16 2048 7 7 (1605632)
I0703 18:47:52.437199 37365 net.cpp:165] Memory required for data: 2783670336
I0703 18:47:52.437212 37365 layer_factory.hpp:76] Creating layer pool2
I0703 18:47:52.437233 37365 net.cpp:106] Creating Layer pool2
I0703 18:47:52.437249 37365 net.cpp:454] pool2 <- conv5_3_sum_bn
I0703 18:47:52.437273 37365 net.cpp:411] pool2 -> pool2
I0703 18:47:52.439481 37365 net.cpp:150] Setting up pool2
I0703 18:47:52.439504 37365 net.cpp:157] Top shape: 16 2048 1 1 (32768)
I0703 18:47:52.439518 37365 net.cpp:165] Memory required for data: 2783801408
I0703 18:47:52.439532 37365 layer_factory.hpp:76] Creating layer fc
I0703 18:47:52.439553 37365 net.cpp:106] Creating Layer fc
I0703 18:47:52.439568 37365 net.cpp:454] fc <- pool2
I0703 18:47:52.439591 37365 net.cpp:411] fc -> fc
I0703 18:47:52.505981 37365 net.cpp:150] Setting up fc
I0703 18:47:52.506021 37365 net.cpp:157] Top shape: 16 1000 (16000)
I0703 18:47:52.506034 37365 net.cpp:165] Memory required for data: 2783865408
I0703 18:47:52.506052 37365 layer_factory.hpp:76] Creating layer loss
I0703 18:47:52.506086 37365 net.cpp:106] Creating Layer loss
I0703 18:47:52.506114 37365 net.cpp:454] loss <- fc
I0703 18:47:52.506130 37365 net.cpp:454] loss <- label
I0703 18:47:52.506151 37365 net.cpp:411] loss -> loss
I0703 18:47:52.506184 37365 layer_factory.hpp:76] Creating layer loss
…
I0703 18:47:52.514608 37365 net.cpp:322] The NetState phase (1) differed from the phase (0) specified by a rule in layer data
I0703 18:47:52.515513 37365 net.cpp:49] Initializing net from parameters: 
name: "ResNet-34"
state {
  phase: TEST
}
layer {
  name: "data"
  type: "ImageData"
  top: "data"
  top: "label"
  include {
    phase: TEST
  }
  transform_param {
    mirror: false
    crop_size: 224
    mean_value: 104
    mean_value: 117
    mean_value: 123
  }
  image_data_param {
    source: "../lists/roi-train.lst"
    batch_size: 16
    shuffle: true
    new_height: 256
    new_width: 256
  }
}
layer {
  name: "conv1"
  type: "Convolution"
  bottom: "data"
  top: "conv1"
  param {
    lr_mult: 1
    decay_mult: 1
  }
  param {
    lr_mult: 2
    decay_mult: 0
  }
  convolution_param {
    num_output: 64
    pad: 0
    kernel_size: 7
    stride: 2
    weight_filler {
      type: "msra"
    }
    bias_filler {
      type: "constant"
      value: 0
    }
  }
}
layer {
  name: "conv1_bn"
  type: "BatchNorm"
  bottom: "conv1"
  top: "conv1_bn"
  param {
    lr_mult: 0
  }
  param {
    lr_mult: 0
  }
  param {
    lr_mult: 0
  }
}
layer {
  name: "conv1_relu"
  type: "ReLU"
  bottom: "conv1_bn"
  top: "conv1_bn"
}
layer {
  name: "pool1"
  type: "Pooling"
  bottom: "conv1_bn"
  top: "pool1"
  pooling_param {
    pool: MAX
    kernel_size: 3
    stride: 2
  }
}
layer {
  name: "conv1_output"
  type: "Convolution"
  bottom: "pool1"
  top: "conv1_output"
  param {
    lr_mult: 1
    decay_mult: 1
  }
  param {
    lr_mult: 2
    decay_mult: 0
  }
  convolution_param {
    num_output: 256
    pad: 0
    kernel_size: 1
    stride: 1
    weight_filler {
      type: "msra"
    }
    bias_filler {
      type: "constant"
      value: 0
    }
  }
}
layer {
  name: "conv2_1_1"
  type: "Convolution"
  bottom: "pool1"
  top: "conv2_1_1"
  param {
    lr_mult: 1
    decay_mult: 1
  }
  param {
    lr_mult: 2
    decay_mult: 0
  }
  convolution_param {
    num_output: 64
    pad: 0
    kernel_size: 1
    stride: 1
    weight_filler {
      type: "msra"
    }
    bias_filler {
      type: "constant"
      value: 0
    }
  }
}
layer {
  name: "conv2_1_1_bn"
  type: "BatchNorm"
  bottom: "conv2_1_1"
  top: "conv2_1_1_bn"
  param {
    lr_mult: 0
  }
  param {
    lr_mult: 0
  }
  param {
    lr_mult: 0
  }
}
layer {
  name: "conv2_1_1_relu"
  type: "ReLU"
  bottom: "conv2_1_1_bn"
  top: "conv2_1_1_bn"
}
layer {
  name: "conv2_1_2"
  type: "Convolution"
  bottom: "conv2_1_1_bn"
  top: "conv2_1_2"
  param {
    lr_mult: 1
    decay_mult: 1
  }
  param {
    lr_mult: 2
    decay_mult: 0
  }
  convolution_param {
    num_output: 64
    pad: 1
    kernel_size: 3
    stride: 1
    weight_filler {
      type: "msra"
    }
    bias_filler {
      type: "constant"
      value: 0
    }
  }
}
layer {
  name: "conv2_1_2_bn"
  type: "BatchNorm"
  bottom: "conv2_1_2"
  top: "conv2_1_2_bn"
  param {
    lr_mult: 0
  }
  param {
    lr_mult: 0
  }
  param {
    lr_mult: 0
  }
}
layer {
  name: "conv2_1_2_relu"
  type: "ReLU"
  bottom: "conv2_1_2_bn"
  top: "conv2_1_2_bn"
}
layer {
  name: "conv2_1_3"
  type: "Convolution"
  bottom: "conv2_1_2_bn"
  top: "conv2_1_3"
  param {
    lr_mult: 1
    decay_mult: 1
  }
  param {
    lr_mult: 2
    decay_mult: 0
  }
  convolution_param {
    num_output: 256
    pad: 0
    kernel_size: 1
    stride: 1
    weight_filler {
      type: "msra"
    }
    bias_filler {
      type: "constant"
      value: 0
    }
  }
}
layer {
  name: "conv2_1_sum"
  type: "Eltwise"
  bottom: "conv1_output"
  bottom: "conv2_1_3"
  top: "conv2_1_sum"
  eltwise_param {
    operation: SUM
  }
}
layer {
  name: "conv2_1_sum_bn"
  type: "BatchNorm"
  bottom: "conv2_1_sum"
  top: "conv2_1_sum_bn"
  param {
    lr_mult: 0
  }
  param {
    lr_mult: 0
  }
  param {
    lr_mult: 0
  }
}
layer {
  name: "conv2_1_sum_relu"
  type: "ReLU"
  bottom: "conv2_1_sum_bn"
  top: "conv2_1_sum_bn"
}
layer {
  name: "conv2_2_1"
  type: "Convolution"
  bottom: "conv2_1_sum_bn"
  top: "conv2_2_1"
  param {
    lr_mult: 1
    decay_mult: 1
  }
  param {
    lr_mult: 2
    decay_mult: 0
  }
  convolution_param {
    num_output: 64
    pad: 0
    kernel_size: 1
    stride: 1
    weight_filler {
      type: "msra"
    }
    bias_filler {
      type: "constant"
      value: 0
    }
  }
}
layer {
  name: "conv2_2_1_bn"
  type: "BatchNorm"
  bottom: "conv2_2_1"
  top: "conv2_2_1_bn"
  param {
    lr_mult: 0
  }
  param {
    lr_mult: 0
  }
  param {
    lr_mult: 0
  }
}
layer {
  name: "conv2_2_1_relu"
  type: "ReLU"
  bottom: "conv2_2_1_bn"
  top: "conv2_2_1_bn"
}
layer {
  name: "conv2_2_2"
  type: "Convolution"
  bottom: "conv2_2_1_bn"
  top: "conv2_2_2"
  param {
    lr_mult: 1
    decay_mult: 1
  }
  param {
    lr_mult: 2
    decay_mult: 0
  }
  convolution_param {
    num_output: 64
    pad: 1
    kernel_size: 3
    stride: 1
    weight_filler {
      type: "msra"
    }
    bias_filler {
      type: "constant"
      value: 0
    }
  }
}
layer {
  name: "conv2_2_2_bn"
  type: "BatchNorm"
  bottom: "conv2_2_2"
  top: "conv2_2_2_bn"
  param {
    lr_mult: 0
  }
  param {
    lr_mult: 0
  }
  param {
    lr_mult: 0
  }
}
layer {
  name: "conv2_2_2_relu"
  type: "ReLU"
  bottom: "conv2_2_2_bn"
  top: "conv2_2_2_bn"
}
layer {
  name: "conv2_2_3"
  type: "Convolution"
  bottom: "conv2_2_2_bn"
  top: "conv2_2_3"
  param {
    lr_mult: 1
    decay_mult: 1
  }
  param {
    lr_mult: 2
    decay_mult: 0
  }
  convolution_param {
    num_output: 256
    pad: 0
    kernel_size: 1
    stride: 1
    weight_filler {
      type: "msra"
    }
    bias_filler {
      type: "constant"
      value: 0
    }
  }
}
layer {
  name: "conv2_2_sum"
  type: "Eltwise"
  bottom: "conv2_1_sum_bn"
  bottom: "conv2_2_3"
  top: "conv2_2_sum"
  eltwise_param {
    operation: SUM
  }
}
layer {
  name: "conv2_2_sum_bn"
  type: "BatchNorm"
  bottom: "conv2_2_sum"
  top: "conv2_2_sum_bn"
  param {
    lr_mult: 0
  }
  param {
    lr_mult: 0
  }
  param {
    lr_mult: 0
  }
}
layer {
  name: "conv2_2_sum_relu"
  type: "ReLU"
  bottom: "conv2_2_sum_bn"
  top: "conv2_2_sum_bn"
}
layer {
  name: "conv2_3_1"
  type: "Convolution"
  bottom: "conv2_2_sum_bn"
  top: "conv2_3_1"
  param {
    lr_mult: 1
    decay_mult: 1
  }
  param {
    lr_mult: 2
    decay_mult: 0
  }
  convolution_param {
    num_output: 64
    pad: 0
    kernel_size: 1
    stride: 1
    weight_filler {
      type: "msra"
    }
    bias_filler {
      type: "constant"
      value: 0
    }
  }
}
layer {
  name: "conv2_3_1_bn"
  type: "BatchNorm"
  bottom: "conv2_3_1"
  top: "conv2_3_1_bn"
  param {
    lr_mult: 0
  }
  param {
    lr_mult: 0
  }
  param {
    lr_mult: 0
  }
}
layer {
  name: "conv2_3_1_relu"
  type: "ReLU"
  bottom: "conv2_3_1_bn"
  top: "conv2_3_1_bn"
}
layer {
  name: "conv2_3_2"
  type: "Convolution"
  bottom: "conv2_3_1_bn"
  top: "conv2_3_2"
  param {
    lr_mult: 1
    decay_mult: 1
  }
  param {
    lr_mult: 2
    decay_mult: 0
  }
  convolution_param {
    num_output: 64
    pad: 1
    kernel_size: 3
    stride: 1
    weight_filler {
      type: "msra"
    }
    bias_filler {
      type: "constant"
      value: 0
    }
  }
}
layer {
  name: "conv2_3_2_bn"
  type: "BatchNorm"
  bottom: "conv2_3_2"
  top: "conv2_3_2_bn"
  param {
    lr_mult: 0
  }
  param {
    lr_mult: 0
  }
  param {
    lr_mult: 0
  }
}
layer {
  name: "conv2_3_2_relu"
  type: "ReLU"
  bottom: "conv2_3_2_bn"
  top: "conv2_3_2_bn"
}
layer {
  name: "conv2_3_3"
  type: "Convolution"
  bottom: "conv2_3_2_bn"
  top: "conv2_3_3"
  param {
    lr_mult: 1
    decay_mult: 1
  }
  param {
    lr_mult: 2
    decay_mult: 0
  }
  convolution_param {
    num_output: 256
    pad: 0
    kernel_size: 1
    stride: 1
    weight_filler {
      type: "msra"
    }
    bias_filler {
      type: "constant"
      value: 0
    }
  }
}
layer {
  name: "conv2_3_sum"
  type: "Eltwise"
  bottom: "conv2_2_sum_bn"
  bottom: "conv2_3_3"
  top: "conv2_3_sum"
  eltwise_param {
    operation: SUM
  }
}
layer {
  name: "conv2_3_sum_bn"
  type: "BatchNorm"
  bottom: "conv2_3_sum"
  top: "conv2_3_sum_bn"
  param {
    lr_mult: 0
  }
  param {
    lr_mult: 0
  }
  param {
    lr_mult: 0
  }
}
layer {
  name: "conv2_3_sum_relu"
  type: "ReLU"
  bottom: "conv2_3_sum_bn"
  top: "conv2_3_sum_bn"
}
layer {
  name: "conv2_output"
  type: "Convolution"
  bottom: "conv2_3_sum_bn"
  top: "conv2_output"
  param {
    lr_mult: 1
    decay_mult: 1
  }
  param {
    lr_mult: 2
    decay_mult: 0
  }
  convolution_param {
    num_output: 512
    pad: 0
    kernel_size: 1
    stride: 2
    weight_filler {
      type: "msra"
    }
    bias_filler {
      type: "constant"
      value: 0
    }
  }
}
layer {
  name: "conv3_1_1"
  type: "Convolution"
  bottom: "conv2_3_sum_bn"
  top: "conv3_1_1"
  param {
    lr_mult: 1
    decay_mult: 1
  }
  param {
    lr_mult: 2
    decay_mult: 0
  }
  convolution_param {
    num_output: 128
    pad: 0
    kernel_size: 1
    stride: 2
    weight_filler {
      type: "msra"
    }
    bias_filler {
      type: "constant"
      value: 0
    }
  }
}
layer {
  name: "conv3_1_1_bn"
  type: "BatchNorm"
  bottom: "conv3_1_1"
  top: "conv3_1_1_bn"
  param {
    lr_mult: 0
  }
  param {
    lr_mult: 0
  }
  param {
    lr_mult: 0
  }
}
layer {
  name: "conv3_1_1_relu"
  type: "ReLU"
  bottom: "conv3_1_1_bn"
  top: "conv3_1_1_bn"
}
layer {
  name: "conv3_1_2"
  type: "Convolution"
  bottom: "conv3_1_1_bn"
  top: "conv3_1_2"
  param {
    lr_mult: 1
    decay_mult: 1
  }
  param {
    lr_mult: 2
    decay_mult: 0
  }
  convolution_param {
    num_output: 128
    pad: 1
    kernel_size: 3
    stride: 1
    weight_filler {
      type: "msra"
    }
    bias_filler {
      type: "constant"
      value: 0
    }
  }
}
layer {
  name: "conv3_1_2_bn"
  type: "BatchNorm"
  bottom: "conv3_1_2"
  top: "conv3_1_2_bn"
  param {
    lr_mult: 0
  }
  param {
    lr_mult: 0
  }
  param {
    lr_mult: 0
  }
}
layer {
  name: "conv3_1_2_relu"
  type: "ReLU"
  bottom: "conv3_1_2_bn"
  top: "conv3_1_2_bn"
}
layer {
  name: "conv3_1_3"
  type: "Convolution"
  bottom: "conv3_1_2_bn"
  top: "conv3_1_3"
  param {
    lr_mult: 1
    decay_mult: 1
  }
  param {
    lr_mult: 2
    decay_mult: 0
  }
  convolution_param {
    num_output: 512
    pad: 0
    kernel_size: 1
    stride: 1
    weight_filler {
      type: "msra"
    }
    bias_filler {
      type: "constant"
      value: 0
    }
  }
}
layer {
  name: "conv3_1_sum"
  type: "Eltwise"
  bottom: "conv2_output"
  bottom: "conv3_1_3"
  top: "conv3_1_sum"
  eltwise_param {
    operation: SUM
  }
}
layer {
  name: "conv3_1_sum_bn"
  type: "BatchNorm"
  bottom: "conv3_1_sum"
  top: "conv3_1_sum_bn"
  param {
    lr_mult: 0
  }
  param {
    lr_mult: 0
  }
  param {
    lr_mult: 0
  }
}
layer {
  name: "conv3_1_sum_relu"
  type: "ReLU"
  bottom: "conv3_1_sum_bn"
  top: "conv3_1_sum_bn"
}
layer {
  name: "conv3_2_1"
  type: "Convolution"
  bottom: "conv3_1_sum_bn"
  top: "conv3_2_1"
  param {
    lr_mult: 1
    decay_mult: 1
  }
  param {
    lr_mult: 2
    decay_mult: 0
  }
  convolution_param {
    num_output: 128
    pad: 0
    kernel_size: 1
    stride: 1
    weight_filler {
      type: "msra"
    }
    bias_filler {
      type: "constant"
      value: 0
    }
  }
}
layer {
  name: "conv3_2_1_bn"
  type: "BatchNorm"
  bottom: "conv3_2_1"
  top: "conv3_2_1_bn"
  param {
    lr_mult: 0
  }
  param {
    lr_mult: 0
  }
  param {
    lr_mult: 0
  }
}
layer {
  name: "conv3_2_1_relu"
  type: "ReLU"
  bottom: "conv3_2_1_bn"
  top: "conv3_2_1_bn"
}
layer {
  name: "conv3_2_2"
  type: "Convolution"
  bottom: "conv3_2_1_bn"
  top: "conv3_2_2"
  param {
    lr_mult: 1
    decay_mult: 1
  }
  param {
    lr_mult: 2
    decay_mult: 0
  }
  convolution_param {
    num_output: 128
    pad: 1
    kernel_size: 3
    stride: 1
    weight_filler {
      type: "msra"
    }
    bias_filler {
      type: "constant"
      value: 0
    }
  }
}
layer {
  name: "conv3_2_2_bn"
  type: "BatchNorm"
  bottom: "conv3_2_2"
  top: "conv3_2_2_bn"
  param {
    lr_mult: 0
  }
  param {
    lr_mult: 0
  }
  param {
    lr_mult: 0
  }
}
layer {
  name: "conv3_2_2_relu"
  type: "ReLU"
  bottom: "conv3_2_2_bn"
  top: "conv3_2_2_bn"
}
layer {
  name: "conv3_2_3"
  type: "Convolution"
  bottom: "conv3_2_2_bn"
  top: "conv3_2_3"
  param {
    lr_mult: 1
    decay_mult: 1
  }
  param {
    lr_mult: 2
    decay_mult: 0
  }
  convolution_param {
    num_output: 512
    pad: 0
    kernel_size: 1
    stride: 1
    weight_filler {
      type: "msra"
    }
    bias_filler {
      type: "constant"
      value: 0
    }
  }
}
layer {
  name: "conv3_2_sum"
  type: "Eltwise"
  bottom: "conv3_1_sum_bn"
  bottom: "conv3_2_3"
  top: "conv3_2_sum"
…
I0703 18:47:53.210530 37365 layer_factory.hpp:76] Creating layer conv4_2_2_bn
I0703 18:47:53.210558 37365 net.cpp:106] Creating Layer conv4_2_2_bn
I0703 18:47:53.210577 37365 net.cpp:454] conv4_2_2_bn <- conv4_2_2
I0703 18:47:53.210600 37365 net.cpp:411] conv4_2_2_bn -> conv4_2_2_bn
I0703 18:47:53.210855 37365 net.cpp:150] Setting up conv4_2_2_bn
I0703 18:47:53.210876 37365 net.cpp:157] Top shape: 16 256 14 14 (802816)
I0703 18:47:53.210891 37365 net.cpp:165] Memory required for data: 2179952832
I0703 18:47:53.210916 37365 layer_factory.hpp:76] Creating layer conv4_2_2_relu
I0703 18:47:53.210943 37365 net.cpp:106] Creating Layer conv4_2_2_relu
I0703 18:47:53.210959 37365 net.cpp:454] conv4_2_2_relu <- conv4_2_2_bn
I0703 18:47:53.210978 37365 net.cpp:397] conv4_2_2_relu -> conv4_2_2_bn (in-place)
I0703 18:47:53.214833 37365 net.cpp:150] Setting up conv4_2_2_relu
I0703 18:47:53.214857 37365 net.cpp:157] Top shape: 16 256 14 14 (802816)
I0703 18:47:53.214870 37365 net.cpp:165] Memory required for data: 2183164096
I0703 18:47:53.214884 37365 layer_factory.hpp:76] Creating layer conv4_2_3
I0703 18:47:53.214910 37365 net.cpp:106] Creating Layer conv4_2_3
I0703 18:47:53.214926 37365 net.cpp:454] conv4_2_3 <- conv4_2_2_bn
I0703 18:47:53.214947 37365 net.cpp:411] conv4_2_3 -> conv4_2_3
I0703 18:47:53.231037 37365 cudnn_conv_layer.cpp:194] Reallocating workspace storage: 3072
I0703 18:47:53.231112 37365 net.cpp:150] Setting up conv4_2_3
I0703 18:47:53.231135 37365 net.cpp:157] Top shape: 16 1024 14 14 (3211264)
I0703 18:47:53.231149 37365 net.cpp:165] Memory required for data: 2196009152
I0703 18:47:53.231173 37365 layer_factory.hpp:76] Creating layer conv4_2_sum
I0703 18:47:53.231199 37365 net.cpp:106] Creating Layer conv4_2_sum
I0703 18:47:53.231218 37365 net.cpp:454] conv4_2_sum <- conv4_1_sum_bn_conv4_1_sum_relu_0_split_1
I0703 18:47:53.231237 37365 net.cpp:454] conv4_2_sum <- conv4_2_3
I0703 18:47:53.231256 37365 net.cpp:411] conv4_2_sum -> conv4_2_sum
I0703 18:47:53.231324 37365 net.cpp:150] Setting up conv4_2_sum
I0703 18:47:53.231345 37365 net.cpp:157] Top shape: 16 1024 14 14 (3211264)
I0703 18:47:53.231359 37365 net.cpp:165] Memory required for data: 2208854208
I0703 18:47:53.231372 37365 layer_factory.hpp:76] Creating layer conv4_2_sum_bn
I0703 18:47:53.231394 37365 net.cpp:106] Creating Layer conv4_2_sum_bn
I0703 18:47:53.231410 37365 net.cpp:454] conv4_2_sum_bn <- conv4_2_sum
I0703 18:47:53.231426 37365 net.cpp:411] conv4_2_sum_bn -> conv4_2_sum_bn
I0703 18:47:53.231689 37365 net.cpp:150] Setting up conv4_2_sum_bn
I0703 18:47:53.231710 37365 net.cpp:157] Top shape: 16 1024 14 14 (3211264)
I0703 18:47:53.231724 37365 net.cpp:165] Memory required for data: 2221699264
I0703 18:47:53.231745 37365 layer_factory.hpp:76] Creating layer conv4_2_sum_relu
I0703 18:47:53.231763 37365 net.cpp:106] Creating Layer conv4_2_sum_relu
I0703 18:47:53.231778 37365 net.cpp:454] conv4_2_sum_relu <- conv4_2_sum_bn
I0703 18:47:53.231793 37365 net.cpp:397] conv4_2_sum_relu -> conv4_2_sum_bn (in-place)
I0703 18:47:53.233638 37365 net.cpp:150] Setting up conv4_2_sum_relu
I0703 18:47:53.233683 37365 net.cpp:157] Top shape: 16 1024 14 14 (3211264)
I0703 18:47:53.233697 37365 net.cpp:165] Memory required for data: 2234544320
I0703 18:47:53.233711 37365 layer_factory.hpp:76] Creating layer conv4_2_sum_bn_conv4_2_sum_relu_0_split
I0703 18:47:53.233729 37365 net.cpp:106] Creating Layer conv4_2_sum_bn_conv4_2_sum_relu_0_split
I0703 18:47:53.233746 37365 net.cpp:454] conv4_2_sum_bn_conv4_2_sum_relu_0_split <- conv4_2_sum_bn
I0703 18:47:53.233762 37365 net.cpp:411] conv4_2_sum_bn_conv4_2_sum_relu_0_split -> conv4_2_sum_bn_conv4_2_sum_relu_0_split_0
I0703 18:47:53.233780 37365 net.cpp:411] conv4_2_sum_bn_conv4_2_sum_relu_0_split -> conv4_2_sum_bn_conv4_2_sum_relu_0_split_1
I0703 18:47:53.233862 37365 net.cpp:150] Setting up conv4_2_sum_bn_conv4_2_sum_relu_0_split
I0703 18:47:53.233881 37365 net.cpp:157] Top shape: 16 1024 14 14 (3211264)
I0703 18:47:53.233897 37365 net.cpp:157] Top shape: 16 1024 14 14 (3211264)
I0703 18:47:53.233911 37365 net.cpp:165] Memory required for data: 2260234432
I0703 18:47:53.233923 37365 layer_factory.hpp:76] Creating layer conv4_3_1
I0703 18:47:53.233948 37365 net.cpp:106] Creating Layer conv4_3_1
I0703 18:47:53.233963 37365 net.cpp:454] conv4_3_1 <- conv4_2_sum_bn_conv4_2_sum_relu_0_split_0
I0703 18:47:53.233999 37365 net.cpp:411] conv4_3_1 -> conv4_3_1
I0703 18:47:53.248877 37365 cudnn_conv_layer.cpp:194] Reallocating workspace storage: 12288
I0703 18:47:53.248950 37365 net.cpp:150] Setting up conv4_3_1
I0703 18:47:53.248975 37365 net.cpp:157] Top shape: 16 256 14 14 (802816)
I0703 18:47:53.248991 37365 net.cpp:165] Memory required for data: 2263445696
I0703 18:47:53.249023 37365 layer_factory.hpp:76] Creating layer conv4_3_1_bn
I0703 18:47:53.249047 37365 net.cpp:106] Creating Layer conv4_3_1_bn
I0703 18:47:53.249063 37365 net.cpp:454] conv4_3_1_bn <- conv4_3_1
I0703 18:47:53.249085 37365 net.cpp:411] conv4_3_1_bn -> conv4_3_1_bn
I0703 18:47:53.249336 37365 net.cpp:150] Setting up conv4_3_1_bn
I0703 18:47:53.249357 37365 net.cpp:157] Top shape: 16 256 14 14 (802816)
I0703 18:47:53.249371 37365 net.cpp:165] Memory required for data: 2266656960
I0703 18:47:53.249392 37365 layer_factory.hpp:76] Creating layer conv4_3_1_relu
I0703 18:47:53.249415 37365 net.cpp:106] Creating Layer conv4_3_1_relu
I0703 18:47:53.249431 37365 net.cpp:454] conv4_3_1_relu <- conv4_3_1_bn
I0703 18:47:53.249447 37365 net.cpp:397] conv4_3_1_relu -> conv4_3_1_bn (in-place)
I0703 18:47:53.251260 37365 net.cpp:150] Setting up conv4_3_1_relu
I0703 18:47:53.251283 37365 net.cpp:157] Top shape: 16 256 14 14 (802816)
I0703 18:47:53.251297 37365 net.cpp:165] Memory required for data: 2269868224
I0703 18:47:53.251312 37365 layer_factory.hpp:76] Creating layer conv4_3_2
I0703 18:47:53.251338 37365 net.cpp:106] Creating Layer conv4_3_2
I0703 18:47:53.251356 37365 net.cpp:454] conv4_3_2 <- conv4_3_1_bn
I0703 18:47:53.251374 37365 net.cpp:411] conv4_3_2 -> conv4_3_2
I0703 18:47:53.275535 37365 cudnn_conv_layer.cpp:194] Reallocating workspace storage: 27648
I0703 18:47:53.275590 37365 net.cpp:150] Setting up conv4_3_2
I0703 18:47:53.275614 37365 net.cpp:157] Top shape: 16 256 14 14 (802816)
I0703 18:47:53.275626 37365 net.cpp:165] Memory required for data: 2273079488
I0703 18:47:53.275648 37365 layer_factory.hpp:76] Creating layer conv4_3_2_bn
I0703 18:47:53.275674 37365 net.cpp:106] Creating Layer conv4_3_2_bn
I0703 18:47:53.275694 37365 net.cpp:454] conv4_3_2_bn <- conv4_3_2
I0703 18:47:53.275713 37365 net.cpp:411] conv4_3_2_bn -> conv4_3_2_bn
I0703 18:47:53.275964 37365 net.cpp:150] Setting up conv4_3_2_bn
I0703 18:47:53.275985 37365 net.cpp:157] Top shape: 16 256 14 14 (802816)
I0703 18:47:53.275997 37365 net.cpp:165] Memory required for data: 2276290752
I0703 18:47:53.276018 37365 layer_factory.hpp:76] Creating layer conv4_3_2_relu
I0703 18:47:53.276038 37365 net.cpp:106] Creating Layer conv4_3_2_relu
I0703 18:47:53.276054 37365 net.cpp:454] conv4_3_2_relu <- conv4_3_2_bn
I0703 18:47:53.276073 37365 net.cpp:397] conv4_3_2_relu -> conv4_3_2_bn (in-place)
I0703 18:47:53.277680 37365 net.cpp:150] Setting up conv4_3_2_relu
I0703 18:47:53.277734 37365 net.cpp:157] Top shape: 16 256 14 14 (802816)
I0703 18:47:53.277748 37365 net.cpp:165] Memory required for data: 2279502016
I0703 18:47:53.277763 37365 layer_factory.hpp:76] Creating layer conv4_3_3
I0703 18:47:53.277787 37365 net.cpp:106] Creating Layer conv4_3_3
I0703 18:47:53.277806 37365 net.cpp:454] conv4_3_3 <- conv4_3_2_bn
I0703 18:47:53.277827 37365 net.cpp:411] conv4_3_3 -> conv4_3_3
I0703 18:47:53.291892 37365 cudnn_conv_layer.cpp:194] Reallocating workspace storage: 3072
I0703 18:47:53.292008 37365 net.cpp:150] Setting up conv4_3_3
I0703 18:47:53.292042 37365 net.cpp:157] Top shape: 16 1024 14 14 (3211264)
I0703 18:47:53.292058 37365 net.cpp:165] Memory required for data: 2292347072
I0703 18:47:53.292081 37365 layer_factory.hpp:76] Creating layer conv4_3_sum
I0703 18:47:53.292110 37365 net.cpp:106] Creating Layer conv4_3_sum
I0703 18:47:53.292131 37365 net.cpp:454] conv4_3_sum <- conv4_2_sum_bn_conv4_2_sum_relu_0_split_1
I0703 18:47:53.292151 37365 net.cpp:454] conv4_3_sum <- conv4_3_3
I0703 18:47:53.292172 37365 net.cpp:411] conv4_3_sum -> conv4_3_sum
I0703 18:47:53.292234 37365 net.cpp:150] Setting up conv4_3_sum
I0703 18:47:53.292254 37365 net.cpp:157] Top shape: 16 1024 14 14 (3211264)
I0703 18:47:53.292268 37365 net.cpp:165] Memory required for data: 2305192128
I0703 18:47:53.292282 37365 layer_factory.hpp:76] Creating layer conv4_3_sum_bn
I0703 18:47:53.292304 37365 net.cpp:106] Creating Layer conv4_3_sum_bn
I0703 18:47:53.292321 37365 net.cpp:454] conv4_3_sum_bn <- conv4_3_sum
I0703 18:47:53.292341 37365 net.cpp:411] conv4_3_sum_bn -> conv4_3_sum_bn
I0703 18:47:53.292659 37365 net.cpp:150] Setting up conv4_3_sum_bn
I0703 18:47:53.292680 37365 net.cpp:157] Top shape: 16 1024 14 14 (3211264)
I0703 18:47:53.292692 37365 net.cpp:165] Memory required for data: 2318037184
I0703 18:47:53.292713 37365 layer_factory.hpp:76] Creating layer conv4_3_sum_relu
I0703 18:47:53.292732 37365 net.cpp:106] Creating Layer conv4_3_sum_relu
I0703 18:47:53.292747 37365 net.cpp:454] conv4_3_sum_relu <- conv4_3_sum_bn
I0703 18:47:53.292763 37365 net.cpp:397] conv4_3_sum_relu -> conv4_3_sum_bn (in-place)
I0703 18:47:53.293303 37365 net.cpp:150] Setting up conv4_3_sum_relu
I0703 18:47:53.293328 37365 net.cpp:157] Top shape: 16 1024 14 14 (3211264)
I0703 18:47:53.293341 37365 net.cpp:165] Memory required for data: 2330882240
I0703 18:47:53.293356 37365 layer_factory.hpp:76] Creating layer conv4_3_sum_bn_conv4_3_sum_relu_0_split
I0703 18:47:53.293375 37365 net.cpp:106] Creating Layer conv4_3_sum_bn_conv4_3_sum_relu_0_split
I0703 18:47:53.293395 37365 net.cpp:454] conv4_3_sum_bn_conv4_3_sum_relu_0_split <- conv4_3_sum_bn
I0703 18:47:53.293411 37365 net.cpp:411] conv4_3_sum_bn_conv4_3_sum_relu_0_split -> conv4_3_sum_bn_conv4_3_sum_relu_0_split_0
I0703 18:47:53.293431 37365 net.cpp:411] conv4_3_sum_bn_conv4_3_sum_relu_0_split -> conv4_3_sum_bn_conv4_3_sum_relu_0_split_1
I0703 18:47:53.293515 37365 net.cpp:150] Setting up conv4_3_sum_bn_conv4_3_sum_relu_0_split
I0703 18:47:53.293536 37365 net.cpp:157] Top shape: 16 1024 14 14 (3211264)
I0703 18:47:53.293551 37365 net.cpp:157] Top shape: 16 1024 14 14 (3211264)
I0703 18:47:53.293565 37365 net.cpp:165] Memory required for data: 2356572352
I0703 18:47:53.293581 37365 layer_factory.hpp:76] Creating layer conv4_4_1
I0703 18:47:53.293606 37365 net.cpp:106] Creating Layer conv4_4_1
I0703 18:47:53.293620 37365 net.cpp:454] conv4_4_1 <- conv4_3_sum_bn_conv4_3_sum_relu_0_split_0
I0703 18:47:53.293639 37365 net.cpp:411] conv4_4_1 -> conv4_4_1
I0703 18:47:53.308073 37365 cudnn_conv_layer.cpp:194] Reallocating workspace storage: 12288
I0703 18:47:53.308148 37365 net.cpp:150] Setting up conv4_4_1
I0703 18:47:53.308172 37365 net.cpp:157] Top shape: 16 256 14 14 (802816)
I0703 18:47:53.308187 37365 net.cpp:165] Memory required for data: 2359783616
I0703 18:47:53.308209 37365 layer_factory.hpp:76] Creating layer conv4_4_1_bn
I0703 18:47:53.308238 37365 net.cpp:106] Creating Layer conv4_4_1_bn
I0703 18:47:53.308256 37365 net.cpp:454] conv4_4_1_bn <- conv4_4_1
I0703 18:47:53.308310 37365 net.cpp:411] conv4_4_1_bn -> conv4_4_1_bn
I0703 18:47:53.308598 37365 net.cpp:150] Setting up conv4_4_1_bn
I0703 18:47:53.308619 37365 net.cpp:157] Top shape: 16 256 14 14 (802816)
I0703 18:47:53.308631 37365 net.cpp:165] Memory required for data: 2362994880
I0703 18:47:53.308653 37365 layer_factory.hpp:76] Creating layer conv4_4_1_relu
I0703 18:47:53.308673 37365 net.cpp:106] Creating Layer conv4_4_1_relu
I0703 18:47:53.308688 37365 net.cpp:454] conv4_4_1_relu <- conv4_4_1_bn
I0703 18:47:53.308704 37365 net.cpp:397] conv4_4_1_relu -> conv4_4_1_bn (in-place)
I0703 18:47:53.310442 37365 net.cpp:150] Setting up conv4_4_1_relu
I0703 18:47:53.310467 37365 net.cpp:157] Top shape: 16 256 14 14 (802816)
I0703 18:47:53.310482 37365 net.cpp:165] Memory required for data: 2366206144
I0703 18:47:53.310497 37365 layer_factory.hpp:76] Creating layer conv4_4_2
I0703 18:47:53.310523 37365 net.cpp:106] Creating Layer conv4_4_2
I0703 18:47:53.310540 37365 net.cpp:454] conv4_4_2 <- conv4_4_1_bn
I0703 18:47:53.310562 37365 net.cpp:411] conv4_4_2 -> conv4_4_2
I0703 18:47:53.348577 37365 cudnn_conv_layer.cpp:194] Reallocating workspace storage: 27648
I0703 18:47:53.348637 37365 net.cpp:150] Setting up conv4_4_2
I0703 18:47:53.348661 37365 net.cpp:157] Top shape: 16 256 14 14 (802816)
I0703 18:47:53.348675 37365 net.cpp:165] Memory required for data: 2369417408
I0703 18:47:53.348697 37365 layer_factory.hpp:76] Creating layer conv4_4_2_bn
I0703 18:47:53.348727 37365 net.cpp:106] Creating Layer conv4_4_2_bn
I0703 18:47:53.348747 37365 net.cpp:454] conv4_4_2_bn <- conv4_4_2
I0703 18:47:53.348767 37365 net.cpp:411] conv4_4_2_bn -> conv4_4_2_bn
I0703 18:47:53.349022 37365 net.cpp:150] Setting up conv4_4_2_bn
I0703 18:47:53.349043 37365 net.cpp:157] Top shape: 16 256 14 14 (802816)
I0703 18:47:53.349056 37365 net.cpp:165] Memory required for data: 2372628672
I0703 18:47:53.349078 37365 layer_factory.hpp:76] Creating layer conv4_4_2_relu
I0703 18:47:53.349103 37365 net.cpp:106] Creating Layer conv4_4_2_relu
I0703 18:47:53.349118 37365 net.cpp:454] conv4_4_2_relu <- conv4_4_2_bn
I0703 18:47:53.349135 37365 net.cpp:397] conv4_4_2_relu -> conv4_4_2_bn (in-place)
I0703 18:47:53.358880 37365 net.cpp:150] Setting up conv4_4_2_relu
I0703 18:47:53.358916 37365 net.cpp:157] Top shape: 16 256 14 14 (802816)
I0703 18:47:53.358928 37365 net.cpp:165] Memory required for data: 2375839936
I0703 18:47:53.358942 37365 layer_factory.hpp:76] Creating layer conv4_4_3
I0703 18:47:53.358973 37365 net.cpp:106] Creating Layer conv4_4_3
I0703 18:47:53.358996 37365 net.cpp:454] conv4_4_3 <- conv4_4_2_bn
I0703 18:47:53.359020 37365 net.cpp:411] conv4_4_3 -> conv4_4_3
I0703 18:47:53.377169 37365 cudnn_conv_layer.cpp:194] Reallocating workspace storage: 3072
I0703 18:47:53.377243 37365 net.cpp:150] Setting up conv4_4_3
I0703 18:47:53.377267 37365 net.cpp:157] Top shape: 16 1024 14 14 (3211264)
I0703 18:47:53.377282 37365 net.cpp:165] Memory required for data: 2388684992
I0703 18:47:53.377305 37365 layer_factory.hpp:76] Creating layer conv4_4_sum
I0703 18:47:53.377331 37365 net.cpp:106] Creating Layer conv4_4_sum
I0703 18:47:53.377351 37365 net.cpp:454] conv4_4_sum <- conv4_3_sum_bn_conv4_3_sum_relu_0_split_1
I0703 18:47:53.377368 37365 net.cpp:454] conv4_4_sum <- conv4_4_3
I0703 18:47:53.377387 37365 net.cpp:411] conv4_4_sum -> conv4_4_sum
I0703 18:47:53.377449 37365 net.cpp:150] Setting up conv4_4_sum
I0703 18:47:53.377470 37365 net.cpp:157] Top shape: 16 1024 14 14 (3211264)
I0703 18:47:53.377481 37365 net.cpp:165] Memory required for data: 2401530048
I0703 18:47:53.377496 37365 layer_factory.hpp:76] Creating layer conv4_4_sum_bn
I0703 18:47:53.377540 37365 net.cpp:106] Creating Layer conv4_4_sum_bn
I0703 18:47:53.377560 37365 net.cpp:454] conv4_4_sum_bn <- conv4_4_sum
I0703 18:47:53.377578 37365 net.cpp:411] conv4_4_sum_bn -> conv4_4_sum_bn
I0703 18:47:53.377852 37365 net.cpp:150] Setting up conv4_4_sum_bn
I0703 18:47:53.377872 37365 net.cpp:157] Top shape: 16 1024 14 14 (3211264)
I0703 18:47:53.377885 37365 net.cpp:165] Memory required for data: 2414375104
I0703 18:47:53.377938 37365 layer_factory.hpp:76] Creating layer conv4_4_sum_relu
I0703 18:47:53.377957 37365 net.cpp:106] Creating Layer conv4_4_sum_relu
I0703 18:47:53.377974 37365 net.cpp:454] conv4_4_sum_relu <- conv4_4_sum_bn
I0703 18:47:53.377990 37365 net.cpp:397] conv4_4_sum_relu -> conv4_4_sum_bn (in-place)
I0703 18:47:53.378432 37365 net.cpp:150] Setting up conv4_4_sum_relu
I0703 18:47:53.378455 37365 net.cpp:157] Top shape: 16 1024 14 14 (3211264)
I0703 18:47:53.378469 37365 net.cpp:165] Memory required for data: 2427220160
I0703 18:47:53.378484 37365 layer_factory.hpp:76] Creating layer conv4_4_sum_bn_conv4_4_sum_relu_0_split
I0703 18:47:53.378504 37365 net.cpp:106] Creating Layer conv4_4_sum_bn_conv4_4_sum_relu_0_split
I0703 18:47:53.378520 37365 net.cpp:454] conv4_4_sum_bn_conv4_4_sum_relu_0_split <- conv4_4_sum_bn
I0703 18:47:53.378537 37365 net.cpp:411] conv4_4_sum_bn_conv4_4_sum_relu_0_split -> conv4_4_sum_bn_conv4_4_sum_relu_0_split_0
I0703 18:47:53.378556 37365 net.cpp:411] conv4_4_sum_bn_conv4_4_sum_relu_0_split -> conv4_4_sum_bn_conv4_4_sum_relu_0_split_1
I0703 18:47:53.378639 37365 net.cpp:150] Setting up conv4_4_sum_bn_conv4_4_sum_relu_0_split
I0703 18:47:53.378662 37365 net.cpp:157] Top shape: 16 1024 14 14 (3211264)
I0703 18:47:53.378679 37365 net.cpp:157] Top shape: 16 1024 14 14 (3211264)
I0703 18:47:53.378691 37365 net.cpp:165] Memory required for data: 2452910272
I0703 18:47:53.378705 37365 layer_factory.hpp:76] Creating layer conv4_5_1
I0703 18:47:53.378731 37365 net.cpp:106] Creating Layer conv4_5_1
I0703 18:47:53.378746 37365 net.cpp:454] conv4_5_1 <- conv4_4_sum_bn_conv4_4_sum_relu_0_split_0
I0703 18:47:53.378767 37365 net.cpp:411] conv4_5_1 -> conv4_5_1
I0703 18:47:53.389109 37365 cudnn_conv_layer.cpp:194] Reallocating workspace storage: 12288
I0703 18:47:53.389183 37365 net.cpp:150] Setting up conv4_5_1
I0703 18:47:53.389204 37365 net.cpp:157] Top shape: 16 256 14 14 (802816)
I0703 18:47:53.389219 37365 net.cpp:165] Memory required for data: 2456121536
I0703 18:47:53.389240 37365 layer_factory.hpp:76] Creating layer conv4_5_1_bn
I0703 18:47:53.389268 37365 net.cpp:106] Creating Layer conv4_5_1_bn
I0703 18:47:53.389286 37365 net.cpp:454] conv4_5_1_bn <- conv4_5_1
I0703 18:47:53.389305 37365 net.cpp:411] conv4_5_1_bn -> conv4_5_1_bn
I0703 18:47:53.389566 37365 net.cpp:150] Setting up conv4_5_1_bn
I0703 18:47:53.389587 37365 net.cpp:157] Top shape: 16 256 14 14 (802816)
I0703 18:47:53.389600 37365 net.cpp:165] Memory required for data: 2459332800
I0703 18:47:53.389622 37365 layer_factory.hpp:76] Creating layer conv4_5_1_relu
I0703 18:47:53.389647 37365 net.cpp:106] Creating Layer conv4_5_1_relu
I0703 18:47:53.389662 37365 net.cpp:454] conv4_5_1_relu <- conv4_5_1_bn
I0703 18:47:53.389679 37365 net.cpp:397] conv4_5_1_relu -> conv4_5_1_bn (in-place)
I0703 18:47:53.390102 37365 net.cpp:150] Setting up conv4_5_1_relu
I0703 18:47:53.390125 37365 net.cpp:157] Top shape: 16 256 14 14 (802816)
I0703 18:47:53.390139 37365 net.cpp:165] Memory required for data: 2462544064
I0703 18:47:53.390153 37365 layer_factory.hpp:76] Creating layer conv4_5_2
I0703 18:47:53.390182 37365 net.cpp:106] Creating Layer conv4_5_2
I0703 18:47:53.390199 37365 net.cpp:454] conv4_5_2 <- conv4_5_1_bn
I0703 18:47:53.390218 37365 net.cpp:411] conv4_5_2 -> conv4_5_2
I0703 18:47:53.412006 37365 cudnn_conv_layer.cpp:194] Reallocating workspace storage: 27648
I0703 18:47:53.412070 37365 net.cpp:150] Setting up conv4_5_2
I0703 18:47:53.412094 37365 net.cpp:157] Top shape: 16 256 14 14 (802816)
I0703 18:47:53.412107 37365 net.cpp:165] Memory required for data: 2465755328
I0703 18:47:53.412128 37365 layer_factory.hpp:76] Creating layer conv4_5_2_bn
I0703 18:47:53.412156 37365 net.cpp:106] Creating Layer conv4_5_2_bn
I0703 18:47:53.412175 37365 net.cpp:454] conv4_5_2_bn <- conv4_5_2
I0703 18:47:53.412195 37365 net.cpp:411] conv4_5_2_bn -> conv4_5_2_bn
I0703 18:47:53.412482 37365 net.cpp:150] Setting up conv4_5_2_bn
I0703 18:47:53.412504 37365 net.cpp:157] Top shape: 16 256 14 14 (802816)
I0703 18:47:53.412562 37365 net.cpp:165] Memory required for data: 2468966592
I0703 18:47:53.412586 37365 layer_factory.hpp:76] Creating layer conv4_5_2_relu
I0703 18:47:53.412611 37365 net.cpp:106] Creating Layer conv4_5_2_relu
I0703 18:47:53.412627 37365 net.cpp:454] conv4_5_2_relu <- conv4_5_2_bn
I0703 18:47:53.412644 37365 net.cpp:397] conv4_5_2_relu -> conv4_5_2_bn (in-place)
I0703 18:47:53.413096 37365 net.cpp:150] Setting up conv4_5_2_relu
I0703 18:47:53.413120 37365 net.cpp:157] Top shape: 16 256 14 14 (802816)
I0703 18:47:53.413133 37365 net.cpp:165] Memory required for data: 2472177856
I0703 18:47:53.413147 37365 layer_factory.hpp:76] Creating layer conv4_5_3
I0703 18:47:53.413173 37365 net.cpp:106] Creating Layer conv4_5_3
I0703 18:47:53.413189 37365 net.cpp:454] conv4_5_3 <- conv4_5_2_bn
I0703 18:47:53.413210 37365 net.cpp:411] conv4_5_3 -> conv4_5_3
I0703 18:47:53.423887 37365 cudnn_conv_layer.cpp:194] Reallocating workspace storage: 3072
I0703 18:47:53.423969 37365 net.cpp:150] Setting up conv4_5_3
I0703 18:47:53.423995 37365 net.cpp:157] Top shape: 16 1024 14 14 (3211264)
I0703 18:47:53.424011 37365 net.cpp:165] Memory required for data: 2485022912
I0703 18:47:53.424036 37365 layer_factory.hpp:76] Creating layer conv4_5_sum
I0703 18:47:53.424064 37365 net.cpp:106] Creating Layer conv4_5_sum
I0703 18:47:53.424084 37365 net.cpp:454] conv4_5_sum <- conv4_4_sum_bn_conv4_4_sum_relu_0_split_1
I0703 18:47:53.424105 37365 net.cpp:454] conv4_5_sum <- conv4_5_3
I0703 18:47:53.424124 37365 net.cpp:411] conv4_5_sum -> conv4_5_sum
I0703 18:47:53.424191 37365 net.cpp:150] Setting up conv4_5_sum
I0703 18:47:53.424212 37365 net.cpp:157] Top shape: 16 1024 14 14 (3211264)
I0703 18:47:53.424226 37365 net.cpp:165] Memory required for data: 2497867968
I0703 18:47:53.424239 37365 layer_factory.hpp:76] Creating layer conv4_5_sum_bn
I0703 18:47:53.424262 37365 net.cpp:106] Creating Layer conv4_5_sum_bn
I0703 18:47:53.424278 37365 net.cpp:454] conv4_5_sum_bn <- conv4_5_sum
I0703 18:47:53.424295 37365 net.cpp:411] conv4_5_sum_bn -> conv4_5_sum_bn
I0703 18:47:53.424612 37365 net.cpp:150] Setting up conv4_5_sum_bn
I0703 18:47:53.424634 37365 net.cpp:157] Top shape: 16 1024 14 14 (3211264)
I0703 18:47:53.424649 37365 net.cpp:165] Memory required for data: 2510713024
I0703 18:47:53.424670 37365 layer_factory.hpp:76] Creating layer conv4_5_sum_relu
I0703 18:47:53.424693 37365 net.cpp:106] Creating Layer conv4_5_sum_relu
I0703 18:47:53.424710 37365 net.cpp:454] conv4_5_sum_relu <- conv4_5_sum_bn
I0703 18:47:53.424726 37365 net.cpp:397] conv4_5_sum_relu -> conv4_5_sum_bn (in-place)
I0703 18:47:53.425151 37365 net.cpp:150] Setting up conv4_5_sum_relu
I0703 18:47:53.425176 37365 net.cpp:157] Top shape: 16 1024 14 14 (3211264)
I0703 18:47:53.425190 37365 net.cpp:165] Memory required for data: 2523558080
I0703 18:47:53.425204 37365 layer_factory.hpp:76] Creating layer conv4_5_sum_bn_conv4_5_sum_relu_0_split
I0703 18:47:53.425226 37365 net.cpp:106] Creating Layer conv4_5_sum_bn_conv4_5_sum_relu_0_split
I0703 18:47:53.425242 37365 net.cpp:454] conv4_5_sum_bn_conv4_5_sum_relu_0_split <- conv4_5_sum_bn
I0703 18:47:53.425259 37365 net.cpp:411] conv4_5_sum_bn_conv4_5_sum_relu_0_split -> conv4_5_sum_bn_conv4_5_sum_relu_0_split_0
I0703 18:47:53.425283 37365 net.cpp:411] conv4_5_sum_bn_conv4_5_sum_relu_0_split -> conv4_5_sum_bn_conv4_5_sum_relu_0_split_1
I0703 18:47:53.425369 37365 net.cpp:150] Setting up conv4_5_sum_bn_conv4_5_sum_relu_0_split
I0703 18:47:53.425392 37365 net.cpp:157] Top shape: 16 1024 14 14 (3211264)
I0703 18:47:53.425408 37365 net.cpp:157] Top shape: 16 1024 14 14 (3211264)
I0703 18:47:53.425421 37365 net.cpp:165] Memory required for data: 2549248192
I0703 18:47:53.425436 37365 layer_factory.hpp:76] Creating layer conv4_6_1
I0703 18:47:53.425462 37365 net.cpp:106] Creating Layer conv4_6_1
I0703 18:47:53.425478 37365 net.cpp:454] conv4_6_1 <- conv4_5_sum_bn_conv4_5_sum_relu_0_split_0
I0703 18:47:53.425501 37365 net.cpp:411] conv4_6_1 -> conv4_6_1
I0703 18:47:53.435840 37365 cudnn_conv_layer.cpp:194] Reallocating workspace storage: 12288
I0703 18:47:53.435940 37365 net.cpp:150] Setting up conv4_6_1
I0703 18:47:53.435969 37365 net.cpp:157] Top shape: 16 256 14 14 (802816)
I0703 18:47:53.435986 37365 net.cpp:165] Memory required for data: 2552459456
I0703 18:47:53.436007 37365 layer_factory.hpp:76] Creating layer conv4_6_1_bn
I0703 18:47:53.436031 37365 net.cpp:106] Creating Layer conv4_6_1_bn
I0703 18:47:53.436049 37365 net.cpp:454] conv4_6_1_bn <- conv4_6_1
I0703 18:47:53.436072 37365 net.cpp:411] conv4_6_1_bn -> conv4_6_1_bn
I0703 18:47:53.436336 37365 net.cpp:150] Setting up conv4_6_1_bn
I0703 18:47:53.436357 37365 net.cpp:157] Top shape: 16 256 14 14 (802816)
I0703 18:47:53.436369 37365 net.cpp:165] Memory required for data: 2555670720
I0703 18:47:53.436390 37365 layer_factory.hpp:76] Creating layer conv4_6_1_relu
I0703 18:47:53.436410 37365 net.cpp:106] Creating Layer conv4_6_1_relu
I0703 18:47:53.436444 37365 net.cpp:454] conv4_6_1_relu <- conv4_6_1_bn
I0703 18:47:53.436465 37365 net.cpp:397] conv4_6_1_relu -> conv4_6_1_bn (in-place)
I0703 18:47:53.436906 37365 net.cpp:150] Setting up conv4_6_1_relu
I0703 18:47:53.436929 37365 net.cpp:157] Top shape: 16 256 14 14 (802816)
I0703 18:47:53.436944 37365 net.cpp:165] Memory required for data: 2558881984
I0703 18:47:53.436957 37365 layer_factory.hpp:76] Creating layer conv4_6_2
I0703 18:47:53.436982 37365 net.cpp:106] Creating Layer conv4_6_2
I0703 18:47:53.437000 37365 net.cpp:454] conv4_6_2 <- conv4_6_1_bn
I0703 18:47:53.437021 37365 net.cpp:411] conv4_6_2 -> conv4_6_2
I0703 18:47:53.458523 37365 cudnn_conv_layer.cpp:194] Reallocating workspace storage: 27648
I0703 18:47:53.458580 37365 net.cpp:150] Setting up conv4_6_2
I0703 18:47:53.458605 37365 net.cpp:157] Top shape: 16 256 14 14 (802816)
I0703 18:47:53.458618 37365 net.cpp:165] Memory required for data: 2562093248
I0703 18:47:53.458639 37365 layer_factory.hpp:76] Creating layer conv4_6_2_bn
I0703 18:47:53.458665 37365 net.cpp:106] Creating Layer conv4_6_2_bn
I0703 18:47:53.458683 37365 net.cpp:454] conv4_6_2_bn <- conv4_6_2
I0703 18:47:53.458706 37365 net.cpp:411] conv4_6_2_bn -> conv4_6_2_bn
I0703 18:47:53.458981 37365 net.cpp:150] Setting up conv4_6_2_bn
I0703 18:47:53.459002 37365 net.cpp:157] Top shape: 16 256 14 14 (802816)
I0703 18:47:53.459015 37365 net.cpp:165] Memory required for data: 2565304512
I0703 18:47:53.459038 37365 layer_factory.hpp:76] Creating layer conv4_6_2_relu
I0703 18:47:53.459058 37365 net.cpp:106] Creating Layer conv4_6_2_relu
I0703 18:47:53.459072 37365 net.cpp:454] conv4_6_2_relu <- conv4_6_2_bn
I0703 18:47:53.459091 37365 net.cpp:397] conv4_6_2_relu -> conv4_6_2_bn (in-place)
I0703 18:47:53.459334 37365 net.cpp:150] Setting up conv4_6_2_relu
I0703 18:47:53.459357 37365 net.cpp:157] Top shape: 16 256 14 14 (802816)
I0703 18:47:53.459372 37365 net.cpp:165] Memory required for data: 2568515776
I0703 18:47:53.459385 37365 layer_factory.hpp:76] Creating layer conv4_6_3
I0703 18:47:53.459408 37365 net.cpp:106] Creating Layer conv4_6_3
I0703 18:47:53.459424 37365 net.cpp:454] conv4_6_3 <- conv4_6_2_bn
I0703 18:47:53.459444 37365 net.cpp:411] conv4_6_3 -> conv4_6_3
I0703 18:47:53.470010 37365 cudnn_conv_layer.cpp:194] Reallocating workspace storage: 3072
I0703 18:47:53.470093 37365 net.cpp:150] Setting up conv4_6_3
I0703 18:47:53.470118 37365 net.cpp:157] Top shape: 16 1024 14 14 (3211264)
I0703 18:47:53.470134 37365 net.cpp:165] Memory required for data: 2581360832
I0703 18:47:53.470155 37365 layer_factory.hpp:76] Creating layer conv4_6_sum
I0703 18:47:53.470180 37365 net.cpp:106] Creating Layer conv4_6_sum
I0703 18:47:53.470198 37365 net.cpp:454] conv4_6_sum <- conv4_5_sum_bn_conv4_5_sum_relu_0_split_1
I0703 18:47:53.470218 37365 net.cpp:454] conv4_6_sum <- conv4_6_3
I0703 18:47:53.470239 37365 net.cpp:411] conv4_6_sum -> conv4_6_sum
I0703 18:47:53.470301 37365 net.cpp:150] Setting up conv4_6_sum
I0703 18:47:53.470320 37365 net.cpp:157] Top shape: 16 1024 14 14 (3211264)
I0703 18:47:53.470333 37365 net.cpp:165] Memory required for data: 2594205888
I0703 18:47:53.470347 37365 layer_factory.hpp:76] Creating layer conv4_6_sum_bn
I0703 18:47:53.470408 37365 net.cpp:106] Creating Layer conv4_6_sum_bn
I0703 18:47:53.470425 37365 net.cpp:454] conv4_6_sum_bn <- conv4_6_sum
I0703 18:47:53.470445 37365 net.cpp:411] conv4_6_sum_bn -> conv4_6_sum_bn
I0703 18:47:53.470731 37365 net.cpp:150] Setting up conv4_6_sum_bn
I0703 18:47:53.470752 37365 net.cpp:157] Top shape: 16 1024 14 14 (3211264)
I0703 18:47:53.470764 37365 net.cpp:165] Memory required for data: 2607050944
I0703 18:47:53.470785 37365 layer_factory.hpp:76] Creating layer conv4_6_sum_relu
I0703 18:47:53.470805 37365 net.cpp:106] Creating Layer conv4_6_sum_relu
I0703 18:47:53.470819 37365 net.cpp:454] conv4_6_sum_relu <- conv4_6_sum_bn
I0703 18:47:53.470835 37365 net.cpp:397] conv4_6_sum_relu -> conv4_6_sum_bn (in-place)
I0703 18:47:53.471457 37365 net.cpp:150] Setting up conv4_6_sum_relu
I0703 18:47:53.471485 37365 net.cpp:157] Top shape: 16 1024 14 14 (3211264)
I0703 18:47:53.471500 37365 net.cpp:165] Memory required for data: 2619896000
I0703 18:47:53.471514 37365 layer_factory.hpp:76] Creating layer conv4_6_sum_bn_conv4_6_sum_relu_0_split
I0703 18:47:53.471535 37365 net.cpp:106] Creating Layer conv4_6_sum_bn_conv4_6_sum_relu_0_split
I0703 18:47:53.471552 37365 net.cpp:454] conv4_6_sum_bn_conv4_6_sum_relu_0_split <- conv4_6_sum_bn
I0703 18:47:53.471570 37365 net.cpp:411] conv4_6_sum_bn_conv4_6_sum_relu_0_split -> conv4_6_sum_bn_conv4_6_sum_relu_0_split_0
I0703 18:47:53.471590 37365 net.cpp:411] conv4_6_sum_bn_conv4_6_sum_relu_0_split -> conv4_6_sum_bn_conv4_6_sum_relu_0_split_1
I0703 18:47:53.471700 37365 net.cpp:150] Setting up conv4_6_sum_bn_conv4_6_sum_relu_0_split
I0703 18:47:53.471720 37365 net.cpp:157] Top shape: 16 1024 14 14 (3211264)
I0703 18:47:53.471741 37365 net.cpp:157] Top shape: 16 1024 14 14 (3211264)
I0703 18:47:53.471755 37365 net.cpp:165] Memory required for data: 2645586112
I0703 18:47:53.471770 37365 layer_factory.hpp:76] Creating layer conv4_output
I0703 18:47:53.471794 37365 net.cpp:106] Creating Layer conv4_output
I0703 18:47:53.471810 37365 net.cpp:454] conv4_output <- conv4_6_sum_bn_conv4_6_sum_relu_0_split_0
I0703 18:47:53.471828 37365 net.cpp:411] conv4_output -> conv4_output
I0703 18:47:53.543828 37365 cudnn_conv_layer.cpp:194] Reallocating workspace storage: 12288
I0703 18:47:53.543910 37365 net.cpp:150] Setting up conv4_output
I0703 18:47:53.543934 37365 net.cpp:157] Top shape: 16 2048 7 7 (1605632)
I0703 18:47:53.543951 37365 net.cpp:165] Memory required for data: 2652008640
I0703 18:47:53.543973 37365 layer_factory.hpp:76] Creating layer conv5_1_1
I0703 18:47:53.544006 37365 net.cpp:106] Creating Layer conv5_1_1
I0703 18:47:53.544025 37365 net.cpp:454] conv5_1_1 <- conv4_6_sum_bn_conv4_6_sum_relu_0_split_1
I0703 18:47:53.544050 37365 net.cpp:411] conv5_1_1 -> conv5_1_1
I0703 18:47:53.563246 37365 cudnn_conv_layer.cpp:194] Reallocating workspace storage: 12288
I0703 18:47:53.563328 37365 net.cpp:150] Setting up conv5_1_1
I0703 18:47:53.563354 37365 net.cpp:157] Top shape: 16 512 7 7 (401408)
I0703 18:47:53.563369 37365 net.cpp:165] Memory required for data: 2653614272
I0703 18:47:53.563392 37365 layer_factory.hpp:76] Creating layer conv5_1_1_bn
I0703 18:47:53.563421 37365 net.cpp:106] Creating Layer conv5_1_1_bn
I0703 18:47:53.563439 37365 net.cpp:454] conv5_1_1_bn <- conv5_1_1
I0703 18:47:53.563462 37365 net.cpp:411] conv5_1_1_bn -> conv5_1_1_bn
I0703 18:47:53.563755 37365 net.cpp:150] Setting up conv5_1_1_bn
I0703 18:47:53.563776 37365 net.cpp:157] Top shape: 16 512 7 7 (401408)
I0703 18:47:53.563791 37365 net.cpp:165] Memory required for data: 2655219904
I0703 18:47:53.563812 37365 layer_factory.hpp:76] Creating layer conv5_1_1_relu
I0703 18:47:53.563832 37365 net.cpp:106] Creating Layer conv5_1_1_relu
I0703 18:47:53.563848 37365 net.cpp:454] conv5_1_1_relu <- conv5_1_1_bn
I0703 18:47:53.563866 37365 net.cpp:397] conv5_1_1_relu -> conv5_1_1_bn (in-place)
I0703 18:47:53.564280 37365 net.cpp:150] Setting up conv5_1_1_relu
I0703 18:47:53.564303 37365 net.cpp:157] Top shape: 16 512 7 7 (401408)
I0703 18:47:53.564317 37365 net.cpp:165] Memory required for data: 2656825536
I0703 18:47:53.564365 37365 layer_factory.hpp:76] Creating layer conv5_1_2
I0703 18:47:53.564399 37365 net.cpp:106] Creating Layer conv5_1_2
I0703 18:47:53.564419 37365 net.cpp:454] conv5_1_2 <- conv5_1_1_bn
I0703 18:47:53.564460 37365 net.cpp:411] conv5_1_2 -> conv5_1_2
I0703 18:47:53.644852 37365 cudnn_conv_layer.cpp:194] Reallocating workspace storage: 55296
I0703 18:47:53.644911 37365 net.cpp:150] Setting up conv5_1_2
I0703 18:47:53.644933 37365 net.cpp:157] Top shape: 16 512 7 7 (401408)
I0703 18:47:53.644948 37365 net.cpp:165] Memory required for data: 2658431168
I0703 18:47:53.644969 37365 layer_factory.hpp:76] Creating layer conv5_1_2_bn
I0703 18:47:53.644997 37365 net.cpp:106] Creating Layer conv5_1_2_bn
I0703 18:47:53.645017 37365 net.cpp:454] conv5_1_2_bn <- conv5_1_2
I0703 18:47:53.645041 37365 net.cpp:411] conv5_1_2_bn -> conv5_1_2_bn
I0703 18:47:53.645354 37365 net.cpp:150] Setting up conv5_1_2_bn
I0703 18:47:53.645376 37365 net.cpp:157] Top shape: 16 512 7 7 (401408)
I0703 18:47:53.645390 37365 net.cpp:165] Memory required for data: 2660036800
I0703 18:47:53.645412 37365 layer_factory.hpp:76] Creating layer conv5_1_2_relu
I0703 18:47:53.645432 37365 net.cpp:106] Creating Layer conv5_1_2_relu
I0703 18:47:53.645448 37365 net.cpp:454] conv5_1_2_relu <- conv5_1_2_bn
I0703 18:47:53.645464 37365 net.cpp:397] conv5_1_2_relu -> conv5_1_2_bn (in-place)
I0703 18:47:53.645903 37365 net.cpp:150] Setting up conv5_1_2_relu
I0703 18:47:53.645927 37365 net.cpp:157] Top shape: 16 512 7 7 (401408)
I0703 18:47:53.645941 37365 net.cpp:165] Memory required for data: 2661642432
I0703 18:47:53.645956 37365 layer_factory.hpp:76] Creating layer conv5_1_3
I0703 18:47:53.645983 37365 net.cpp:106] Creating Layer conv5_1_3
I0703 18:47:53.646001 37365 net.cpp:454] conv5_1_3 <- conv5_1_2_bn
I0703 18:47:53.646024 37365 net.cpp:411] conv5_1_3 -> conv5_1_3
I0703 18:47:53.683120 37365 cudnn_conv_layer.cpp:194] Reallocating workspace storage: 6144
I0703 18:47:53.683205 37365 net.cpp:150] Setting up conv5_1_3
I0703 18:47:53.683233 37365 net.cpp:157] Top shape: 16 2048 7 7 (1605632)
I0703 18:47:53.683248 37365 net.cpp:165] Memory required for data: 2668064960
I0703 18:47:53.683270 37365 layer_factory.hpp:76] Creating layer conv5_1_sum
I0703 18:47:53.683300 37365 net.cpp:106] Creating Layer conv5_1_sum
I0703 18:47:53.683328 37365 net.cpp:454] conv5_1_sum <- conv4_output
I0703 18:47:53.683347 37365 net.cpp:454] conv5_1_sum <- conv5_1_3
I0703 18:47:53.683367 37365 net.cpp:411] conv5_1_sum -> conv5_1_sum
I0703 18:47:53.683432 37365 net.cpp:150] Setting up conv5_1_sum
I0703 18:47:53.683452 37365 net.cpp:157] Top shape: 16 2048 7 7 (1605632)
I0703 18:47:53.683465 37365 net.cpp:165] Memory required for data: 2674487488
I0703 18:47:53.683480 37365 layer_factory.hpp:76] Creating layer conv5_1_sum_bn
I0703 18:47:53.683501 37365 net.cpp:106] Creating Layer conv5_1_sum_bn
I0703 18:47:53.683517 37365 net.cpp:454] conv5_1_sum_bn <- conv5_1_sum
I0703 18:47:53.683533 37365 net.cpp:411] conv5_1_sum_bn -> conv5_1_sum_bn
I0703 18:47:53.683840 37365 net.cpp:150] Setting up conv5_1_sum_bn
I0703 18:47:53.683861 37365 net.cpp:157] Top shape: 16 2048 7 7 (1605632)
I0703 18:47:53.683873 37365 net.cpp:165] Memory required for data: 2680910016
I0703 18:47:53.683895 37365 layer_factory.hpp:76] Creating layer conv5_1_sum_relu
I0703 18:47:53.683915 37365 net.cpp:106] Creating Layer conv5_1_sum_relu
I0703 18:47:53.683930 37365 net.cpp:454] conv5_1_sum_relu <- conv5_1_sum_bn
I0703 18:47:53.683946 37365 net.cpp:397] conv5_1_sum_relu -> conv5_1_sum_bn (in-place)
I0703 18:47:53.684198 37365 net.cpp:150] Setting up conv5_1_sum_relu
I0703 18:47:53.684219 37365 net.cpp:157] Top shape: 16 2048 7 7 (1605632)
I0703 18:47:53.684233 37365 net.cpp:165] Memory required for data: 2687332544
I0703 18:47:53.684247 37365 layer_factory.hpp:76] Creating layer conv5_1_sum_bn_conv5_1_sum_relu_0_split
I0703 18:47:53.684264 37365 net.cpp:106] Creating Layer conv5_1_sum_bn_conv5_1_sum_relu_0_split
I0703 18:47:53.684280 37365 net.cpp:454] conv5_1_sum_bn_conv5_1_sum_relu_0_split <- conv5_1_sum_bn
I0703 18:47:53.684331 37365 net.cpp:411] conv5_1_sum_bn_conv5_1_sum_relu_0_split -> conv5_1_sum_bn_conv5_1_sum_relu_0_split_0
I0703 18:47:53.684353 37365 net.cpp:411] conv5_1_sum_bn_conv5_1_sum_relu_0_split -> conv5_1_sum_bn_conv5_1_sum_relu_0_split_1
I0703 18:47:53.684456 37365 net.cpp:150] Setting up conv5_1_sum_bn_conv5_1_sum_relu_0_split
I0703 18:47:53.684481 37365 net.cpp:157] Top shape: 16 2048 7 7 (1605632)
I0703 18:47:53.684499 37365 net.cpp:157] Top shape: 16 2048 7 7 (1605632)
I0703 18:47:53.684511 37365 net.cpp:165] Memory required for data: 2700177600
I0703 18:47:53.684525 37365 layer_factory.hpp:76] Creating layer conv5_2_1
I0703 18:47:53.684559 37365 net.cpp:106] Creating Layer conv5_2_1
I0703 18:47:53.684574 37365 net.cpp:454] conv5_2_1 <- conv5_1_sum_bn_conv5_1_sum_relu_0_split_0
I0703 18:47:53.684595 37365 net.cpp:411] conv5_2_1 -> conv5_2_1
I0703 18:47:53.721276 37365 cudnn_conv_layer.cpp:194] Reallocating workspace storage: 19267584
I0703 18:47:53.721557 37365 net.cpp:150] Setting up conv5_2_1
I0703 18:47:53.721590 37365 net.cpp:157] Top shape: 16 512 7 7 (401408)
I0703 18:47:53.721606 37365 net.cpp:165] Memory required for data: 2701783232
I0703 18:47:53.721628 37365 layer_factory.hpp:76] Creating layer conv5_2_1_bn
I0703 18:47:53.721653 37365 net.cpp:106] Creating Layer conv5_2_1_bn
I0703 18:47:53.721673 37365 net.cpp:454] conv5_2_1_bn <- conv5_2_1
I0703 18:47:53.721696 37365 net.cpp:411] conv5_2_1_bn -> conv5_2_1_bn
I0703 18:47:53.722000 37365 net.cpp:150] Setting up conv5_2_1_bn
I0703 18:47:53.722021 37365 net.cpp:157] Top shape: 16 512 7 7 (401408)
I0703 18:47:53.722035 37365 net.cpp:165] Memory required for data: 2703388864
I0703 18:47:53.722055 37365 layer_factory.hpp:76] Creating layer conv5_2_1_relu
I0703 18:47:53.722079 37365 net.cpp:106] Creating Layer conv5_2_1_relu
I0703 18:47:53.722095 37365 net.cpp:454] conv5_2_1_relu <- conv5_2_1_bn
I0703 18:47:53.722111 37365 net.cpp:397] conv5_2_1_relu -> conv5_2_1_bn (in-place)
I0703 18:47:53.722532 37365 net.cpp:150] Setting up conv5_2_1_relu
I0703 18:47:53.722555 37365 net.cpp:157] Top shape: 16 512 7 7 (401408)
I0703 18:47:53.722569 37365 net.cpp:165] Memory required for data: 2704994496
I0703 18:47:53.722584 37365 layer_factory.hpp:76] Creating layer conv5_2_2
I0703 18:47:53.722609 37365 net.cpp:106] Creating Layer conv5_2_2
I0703 18:47:53.722626 37365 net.cpp:454] conv5_2_2 <- conv5_2_1_bn
I0703 18:47:53.722646 37365 net.cpp:411] conv5_2_2 -> conv5_2_2
I0703 18:47:53.802808 37365 cudnn_conv_layer.cpp:194] Reallocating workspace storage: 55296
I0703 18:47:53.802870 37365 net.cpp:150] Setting up conv5_2_2
I0703 18:47:53.802892 37365 net.cpp:157] Top shape: 16 512 7 7 (401408)
I0703 18:47:53.802906 37365 net.cpp:165] Memory required for data: 2706600128
I0703 18:47:53.802927 37365 layer_factory.hpp:76] Creating layer conv5_2_2_bn
I0703 18:47:53.802959 37365 net.cpp:106] Creating Layer conv5_2_2_bn
I0703 18:47:53.802979 37365 net.cpp:454] conv5_2_2_bn <- conv5_2_2
I0703 18:47:53.803001 37365 net.cpp:411] conv5_2_2_bn -> conv5_2_2_bn
I0703 18:47:53.803313 37365 net.cpp:150] Setting up conv5_2_2_bn
I0703 18:47:53.803333 37365 net.cpp:157] Top shape: 16 512 7 7 (401408)
I0703 18:47:53.803346 37365 net.cpp:165] Memory required for data: 2708205760
I0703 18:47:53.803369 37365 layer_factory.hpp:76] Creating layer conv5_2_2_relu
I0703 18:47:53.803388 37365 net.cpp:106] Creating Layer conv5_2_2_relu
I0703 18:47:53.803403 37365 net.cpp:454] conv5_2_2_relu <- conv5_2_2_bn
I0703 18:47:53.803421 37365 net.cpp:397] conv5_2_2_relu -> conv5_2_2_bn (in-place)
I0703 18:47:53.803889 37365 net.cpp:150] Setting up conv5_2_2_relu
I0703 18:47:53.803912 37365 net.cpp:157] Top shape: 16 512 7 7 (401408)
I0703 18:47:53.803926 37365 net.cpp:165] Memory required for data: 2709811392
I0703 18:47:53.803941 37365 layer_factory.hpp:76] Creating layer conv5_2_3
I0703 18:47:53.803966 37365 net.cpp:106] Creating Layer conv5_2_3
I0703 18:47:53.803983 37365 net.cpp:454] conv5_2_3 <- conv5_2_2_bn
I0703 18:47:53.804006 37365 net.cpp:411] conv5_2_3 -> conv5_2_3
I0703 18:47:53.840723 37365 cudnn_conv_layer.cpp:194] Reallocating workspace storage: 6144
I0703 18:47:53.840826 37365 net.cpp:150] Setting up conv5_2_3
I0703 18:47:53.840852 37365 net.cpp:157] Top shape: 16 2048 7 7 (1605632)
I0703 18:47:53.840867 37365 net.cpp:165] Memory required for data: 2716233920
I0703 18:47:53.840889 37365 layer_factory.hpp:76] Creating layer conv5_2_sum
I0703 18:47:53.840919 37365 net.cpp:106] Creating Layer conv5_2_sum
I0703 18:47:53.840939 37365 net.cpp:454] conv5_2_sum <- conv5_1_sum_bn_conv5_1_sum_relu_0_split_1
I0703 18:47:53.840957 37365 net.cpp:454] conv5_2_sum <- conv5_2_3
I0703 18:47:53.840976 37365 net.cpp:411] conv5_2_sum -> conv5_2_sum
I0703 18:47:53.841047 37365 net.cpp:150] Setting up conv5_2_sum
I0703 18:47:53.841065 37365 net.cpp:157] Top shape: 16 2048 7 7 (1605632)
I0703 18:47:53.841078 37365 net.cpp:165] Memory required for data: 2722656448
I0703 18:47:53.841092 37365 layer_factory.hpp:76] Creating layer conv5_2_sum_bn
I0703 18:47:53.841114 37365 net.cpp:106] Creating Layer conv5_2_sum_bn
I0703 18:47:53.841130 37365 net.cpp:454] conv5_2_sum_bn <- conv5_2_sum
I0703 18:47:53.841146 37365 net.cpp:411] conv5_2_sum_bn -> conv5_2_sum_bn
I0703 18:47:53.841451 37365 net.cpp:150] Setting up conv5_2_sum_bn
I0703 18:47:53.841472 37365 net.cpp:157] Top shape: 16 2048 7 7 (1605632)
I0703 18:47:53.841485 37365 net.cpp:165] Memory required for data: 2729078976
I0703 18:47:53.841506 37365 layer_factory.hpp:76] Creating layer conv5_2_sum_relu
I0703 18:47:53.841529 37365 net.cpp:106] Creating Layer conv5_2_sum_relu
I0703 18:47:53.841544 37365 net.cpp:454] conv5_2_sum_relu <- conv5_2_sum_bn
I0703 18:47:53.841560 37365 net.cpp:397] conv5_2_sum_relu -> conv5_2_sum_bn (in-place)
I0703 18:47:53.841811 37365 net.cpp:150] Setting up conv5_2_sum_relu
I0703 18:47:53.841833 37365 net.cpp:157] Top shape: 16 2048 7 7 (1605632)
I0703 18:47:53.841846 37365 net.cpp:165] Memory required for data: 2735501504
I0703 18:47:53.841859 37365 layer_factory.hpp:76] Creating layer conv5_2_sum_bn_conv5_2_sum_relu_0_split
I0703 18:47:53.841877 37365 net.cpp:106] Creating Layer conv5_2_sum_bn_conv5_2_sum_relu_0_split
I0703 18:47:53.841892 37365 net.cpp:454] conv5_2_sum_bn_conv5_2_sum_relu_0_split <- conv5_2_sum_bn
I0703 18:47:53.841912 37365 net.cpp:411] conv5_2_sum_bn_conv5_2_sum_relu_0_split -> conv5_2_sum_bn_conv5_2_sum_relu_0_split_0
I0703 18:47:53.841933 37365 net.cpp:411] conv5_2_sum_bn_conv5_2_sum_relu_0_split -> conv5_2_sum_bn_conv5_2_sum_relu_0_split_1
I0703 18:47:53.842025 37365 net.cpp:150] Setting up conv5_2_sum_bn_conv5_2_sum_relu_0_split
I0703 18:47:53.842046 37365 net.cpp:157] Top shape: 16 2048 7 7 (1605632)
I0703 18:47:53.842061 37365 net.cpp:157] Top shape: 16 2048 7 7 (1605632)
I0703 18:47:53.842073 37365 net.cpp:165] Memory required for data: 2748346560
I0703 18:47:53.842087 37365 layer_factory.hpp:76] Creating layer conv5_3_1
I0703 18:47:53.842113 37365 net.cpp:106] Creating Layer conv5_3_1
I0703 18:47:53.842129 37365 net.cpp:454] conv5_3_1 <- conv5_2_sum_bn_conv5_2_sum_relu_0_split_0
I0703 18:47:53.842147 37365 net.cpp:411] conv5_3_1 -> conv5_3_1
I0703 18:47:53.878953 37365 cudnn_conv_layer.cpp:194] Reallocating workspace storage: 19267584
I0703 18:47:53.879250 37365 net.cpp:150] Setting up conv5_3_1
I0703 18:47:53.879288 37365 net.cpp:157] Top shape: 16 512 7 7 (401408)
I0703 18:47:53.879305 37365 net.cpp:165] Memory required for data: 2749952192
I0703 18:47:53.879329 37365 layer_factory.hpp:76] Creating layer conv5_3_1_bn
I0703 18:47:53.879359 37365 net.cpp:106] Creating Layer conv5_3_1_bn
I0703 18:47:53.879377 37365 net.cpp:454] conv5_3_1_bn <- conv5_3_1
I0703 18:47:53.879398 37365 net.cpp:411] conv5_3_1_bn -> conv5_3_1_bn
I0703 18:47:53.879714 37365 net.cpp:150] Setting up conv5_3_1_bn
I0703 18:47:53.879735 37365 net.cpp:157] Top shape: 16 512 7 7 (401408)
I0703 18:47:53.879748 37365 net.cpp:165] Memory required for data: 2751557824
I0703 18:47:53.879770 37365 layer_factory.hpp:76] Creating layer conv5_3_1_relu
I0703 18:47:53.879791 37365 net.cpp:106] Creating Layer conv5_3_1_relu
I0703 18:47:53.879806 37365 net.cpp:454] conv5_3_1_relu <- conv5_3_1_bn
I0703 18:47:53.879863 37365 net.cpp:397] conv5_3_1_relu -> conv5_3_1_bn (in-place)
I0703 18:47:53.880295 37365 net.cpp:150] Setting up conv5_3_1_relu
I0703 18:47:53.880319 37365 net.cpp:157] Top shape: 16 512 7 7 (401408)
I0703 18:47:53.880333 37365 net.cpp:165] Memory required for data: 2753163456
I0703 18:47:53.880347 37365 layer_factory.hpp:76] Creating layer conv5_3_2
I0703 18:47:53.880373 37365 net.cpp:106] Creating Layer conv5_3_2
I0703 18:47:53.880389 37365 net.cpp:454] conv5_3_2 <- conv5_3_1_bn
I0703 18:47:53.880410 37365 net.cpp:411] conv5_3_2 -> conv5_3_2
I0703 18:47:53.963855 37365 cudnn_conv_layer.cpp:194] Reallocating workspace storage: 55296
I0703 18:47:53.963913 37365 net.cpp:150] Setting up conv5_3_2
I0703 18:47:53.963940 37365 net.cpp:157] Top shape: 16 512 7 7 (401408)
I0703 18:47:53.963954 37365 net.cpp:165] Memory required for data: 2754769088
I0703 18:47:53.963974 37365 layer_factory.hpp:76] Creating layer conv5_3_2_bn
I0703 18:47:53.963999 37365 net.cpp:106] Creating Layer conv5_3_2_bn
I0703 18:47:53.964017 37365 net.cpp:454] conv5_3_2_bn <- conv5_3_2
I0703 18:47:53.964040 37365 net.cpp:411] conv5_3_2_bn -> conv5_3_2_bn
I0703 18:47:53.964349 37365 net.cpp:150] Setting up conv5_3_2_bn
I0703 18:47:53.964370 37365 net.cpp:157] Top shape: 16 512 7 7 (401408)
I0703 18:47:53.964382 37365 net.cpp:165] Memory required for data: 2756374720
I0703 18:47:53.964403 37365 layer_factory.hpp:76] Creating layer conv5_3_2_relu
I0703 18:47:53.964442 37365 net.cpp:106] Creating Layer conv5_3_2_relu
I0703 18:47:53.964458 37365 net.cpp:454] conv5_3_2_relu <- conv5_3_2_bn
I0703 18:47:53.964478 37365 net.cpp:397] conv5_3_2_relu -> conv5_3_2_bn (in-place)
I0703 18:47:53.966017 37365 net.cpp:150] Setting up conv5_3_2_relu
I0703 18:47:53.966039 37365 net.cpp:157] Top shape: 16 512 7 7 (401408)
I0703 18:47:53.966053 37365 net.cpp:165] Memory required for data: 2757980352
I0703 18:47:53.966068 37365 layer_factory.hpp:76] Creating layer conv5_3_3
I0703 18:47:53.966094 37365 net.cpp:106] Creating Layer conv5_3_3
I0703 18:47:53.966111 37365 net.cpp:454] conv5_3_3 <- conv5_3_2_bn
I0703 18:47:53.966132 37365 net.cpp:411] conv5_3_3 -> conv5_3_3
I0703 18:47:54.006299 37365 cudnn_conv_layer.cpp:194] Reallocating workspace storage: 6144
I0703 18:47:54.006369 37365 net.cpp:150] Setting up conv5_3_3
I0703 18:47:54.006407 37365 net.cpp:157] Top shape: 16 2048 7 7 (1605632)
I0703 18:47:54.006420 37365 net.cpp:165] Memory required for data: 2764402880
I0703 18:47:54.006440 37365 layer_factory.hpp:76] Creating layer conv5_3_sum
I0703 18:47:54.006463 37365 net.cpp:106] Creating Layer conv5_3_sum
I0703 18:47:54.006479 37365 net.cpp:454] conv5_3_sum <- conv5_2_sum_bn_conv5_2_sum_relu_0_split_1
I0703 18:47:54.006495 37365 net.cpp:454] conv5_3_sum <- conv5_3_3
I0703 18:47:54.006512 37365 net.cpp:411] conv5_3_sum -> conv5_3_sum
I0703 18:47:54.006575 37365 net.cpp:150] Setting up conv5_3_sum
I0703 18:47:54.006594 37365 net.cpp:157] Top shape: 16 2048 7 7 (1605632)
I0703 18:47:54.006606 37365 net.cpp:165] Memory required for data: 2770825408
I0703 18:47:54.006619 37365 layer_factory.hpp:76] Creating layer conv5_3_sum_bn
I0703 18:47:54.006640 37365 net.cpp:106] Creating Layer conv5_3_sum_bn
I0703 18:47:54.006655 37365 net.cpp:454] conv5_3_sum_bn <- conv5_3_sum
I0703 18:47:54.006671 37365 net.cpp:411] conv5_3_sum_bn -> conv5_3_sum_bn
I0703 18:47:54.006966 37365 net.cpp:150] Setting up conv5_3_sum_bn
I0703 18:47:54.006986 37365 net.cpp:157] Top shape: 16 2048 7 7 (1605632)
I0703 18:47:54.006999 37365 net.cpp:165] Memory required for data: 2777247936
I0703 18:47:54.007019 37365 layer_factory.hpp:76] Creating layer conv5_3_sum_relu
I0703 18:47:54.007037 37365 net.cpp:106] Creating Layer conv5_3_sum_relu
I0703 18:47:54.007051 37365 net.cpp:454] conv5_3_sum_relu <- conv5_3_sum_bn
I0703 18:47:54.007069 37365 net.cpp:397] conv5_3_sum_relu -> conv5_3_sum_bn (in-place)
I0703 18:47:54.008817 37365 net.cpp:150] Setting up conv5_3_sum_relu
I0703 18:47:54.008839 37365 net.cpp:157] Top shape: 16 2048 7 7 (1605632)
I0703 18:47:54.008884 37365 net.cpp:165] Memory required for data: 2783670464
I0703 18:47:54.008899 37365 layer_factory.hpp:76] Creating layer pool2
I0703 18:47:54.008920 37365 net.cpp:106] Creating Layer pool2
I0703 18:47:54.008936 37365 net.cpp:454] pool2 <- conv5_3_sum_bn
I0703 18:47:54.008954 37365 net.cpp:411] pool2 -> pool2
I0703 18:47:54.011513 37365 net.cpp:150] Setting up pool2
I0703 18:47:54.011536 37365 net.cpp:157] Top shape: 16 2048 1 1 (32768)
I0703 18:47:54.011549 37365 net.cpp:165] Memory required for data: 2783801536
I0703 18:47:54.011562 37365 layer_factory.hpp:76] Creating layer fc
I0703 18:47:54.011595 37365 net.cpp:106] Creating Layer fc
I0703 18:47:54.011610 37365 net.cpp:454] fc <- pool2
I0703 18:47:54.011631 37365 net.cpp:411] fc -> fc
I0703 18:47:54.075573 37365 net.cpp:150] Setting up fc
I0703 18:47:54.075618 37365 net.cpp:157] Top shape: 16 1000 (16000)
I0703 18:47:54.075631 37365 net.cpp:165] Memory required for data: 2783865536
I0703 18:47:54.075649 37365 layer_factory.hpp:76] Creating layer fc_fc_0_split
I0703 18:47:54.075670 37365 net.cpp:106] Creating Layer fc_fc_0_split
I0703 18:47:54.075687 37365 net.cpp:454] fc_fc_0_split <- fc
I0703 18:47:54.075717 37365 net.cpp:411] fc_fc_0_split -> fc_fc_0_split_0
I0703 18:47:54.075743 37365 net.cpp:411] fc_fc_0_split -> fc_fc_0_split_1
I0703 18:47:54.075829 37365 net.cpp:150] Setting up fc_fc_0_split
I0703 18:47:54.075847 37365 net.cpp:157] Top shape: 16 1000 (16000)
I0703 18:47:54.075861 37365 net.cpp:157] Top shape: 16 1000 (16000)
I0703 18:47:54.075875 37365 net.cpp:165] Memory required for data: 2783993536
I0703 18:47:54.075887 37365 layer_factory.hpp:76] Creating layer loss
I0703 18:47:54.075907 37365 net.cpp:106] Creating Layer loss
I0703 18:47:54.075922 37365 net.cpp:454] loss <- fc_fc_0_split_0
I0703 18:47:54.075937 37365 net.cpp:454] loss <- label_data_1_split_0
I0703 18:47:54.075951 37365 net.cpp:411] loss -> loss
…
