…
I0721 09:17:34.590114 146637 net.cpp:322] The NetState phase (0) differed from the phase (1) specified by a rule in layer data
I0721 09:17:34.590385 146637 net.cpp:49] Initializing net from parameters: 
name: "Result Layer 3 Stack"
state {
  phase: TRAIN
}
layer {
  name: "data"
  type: "ImageData"
  top: "data"
  top: "label"
  include {
    phase: TRAIN
  }
  transform_param {
    mirror: true
    mean_value: 150
    mean_value: 150
    mean_value: 150
  }
  image_data_param {
    source: "../lists/mitosis_train.lst"
    batch_size: 16
    shuffle: true
    new_height: 1000
    new_width: 1000
  }
}
layer {
  name: "conv1"
  type: "Convolution"
  bottom: "data"
  top: "conv1"
  param {
    lr_mult: 0
    decay_mult: 0
  }
  param {
    lr_mult: 0
    decay_mult: 0
  }
  convolution_param {
    num_output: 16
    pad: 0
    kernel_size: 4
    stride: 1
  }
}
layer {
  name: "nonlin1"
  type: "ReLU"
  bottom: "conv1"
  top: "conv1"
}
layer {
  name: "pool1"
  type: "Pooling"
  bottom: "conv1"
  top: "pool1"
  pooling_param {
    pool: MAX
    kernel_size: 2
    stride: 2
  }
}
layer {
  name: "conv2"
  type: "Convolution"
  bottom: "pool1"
  top: "conv2"
  param {
    lr_mult: 0
    decay_mult: 0
  }
  param {
    lr_mult: 0
    decay_mult: 0
  }
  convolution_param {
    num_output: 16
    pad: 0
    kernel_size: 3
    stride: 1
  }
}
layer {
  name: "nonlin2"
  type: "ReLU"
  bottom: "conv2"
  top: "conv2"
}
layer {
  name: "pool2"
  type: "Pooling"
  bottom: "conv2"
  top: "pool2"
  pooling_param {
    pool: MAX
    kernel_size: 2
    stride: 2
  }
}
layer {
  name: "conv3"
  type: "Convolution"
  bottom: "pool2"
  top: "conv3"
  param {
    lr_mult: 0
    decay_mult: 0
  }
  param {
    lr_mult: 0
    decay_mult: 0
  }
  convolution_param {
    num_output: 16
    pad: 0
    kernel_size: 3
    stride: 1
  }
}
layer {
  name: "nonlin3"
  type: "ReLU"
  bottom: "conv3"
  top: "conv3"
}
layer {
  name: "pool3"
  type: "Pooling"
  bottom: "conv3"
  top: "pool3"
  pooling_param {
    pool: MAX
    kernel_size: 2
    stride: 2
  }
}
layer {
  name: "conv4"
  type: "Convolution"
  bottom: "pool3"
  top: "conv4"
  param {
    lr_mult: 0
    decay_mult: 0
  }
  param {
    lr_mult: 0
    decay_mult: 0
  }
  convolution_param {
    num_output: 16
    pad: 0
    kernel_size: 3
    stride: 1
  }
}
layer {
  name: "nonlin4"
  type: "ReLU"
  bottom: "conv4"
  top: "conv4"
}
layer {
  name: "pool4"
  type: "Pooling"
  bottom: "conv4"
  top: "pool4"
  pooling_param {
    pool: MAX
    kernel_size: 2
    stride: 2
  }
}
layer {
  name: "ip1_c"
  type: "Convolution"
  bottom: "pool4"
  top: "ip1"
  convolution_param {
    num_output: 200
    pad: 0
    kernel_size: 2
    stride: 1
  }
}
layer {
  name: "nonlin_ip1"
  type: "ReLU"
  bottom: "ip1"
  top: "ip1"
}
layer {
  name: "ip2_c"
  type: "Convolution"
  bottom: "ip1"
  top: "ip2"
  convolution_param {
    num_output: 2
    pad: 0
    kernel_size: 1
    stride: 1
  }
}
layer {
  name: "interloss"
  type: "Softmax"
  bottom: "ip2"
  top: "interloss"
}
layer {
  name: "conv61"
  type: "Convolution"
  bottom: "interloss"
  top: "conv61"
  param {
    lr_mult: 1
    decay_mult: 1
  }
  param {
    lr_mult: 2
    decay_mult: 0
  }
  convolution_param {
    num_output: 64
    pad: 1
    stride: 1
    weight_filler {
      type: "xavier"
    }
    bias_filler {
      type: "constant"
    }
    kernel_h: 3
    kernel_w: 3
  }
}
layer {
  name: "relu61"
  type: "ReLU"
  bottom: "conv61"
  top: "conv61"
}
layer {
  name: "conv62"
  type: "Convolution"
  bottom: "conv61"
  top: "conv62"
  param {
    lr_mult: 1
    decay_mult: 1
  }
  param {
    lr_mult: 2
    decay_mult: 0
  }
  convolution_param {
    num_output: 64
    pad: 1
    stride: 1
    weight_filler {
      type: "xavier"
    }
    bias_filler {
      type: "constant"
    }
    kernel_h: 3
    kernel_w: 3
  }
}
layer {
  name: "relu62"
  type: "ReLU"
  bottom: "conv62"
  top: "conv62"
}
layer {
  name: "pool5"
  type: "Pooling"
  bottom: "conv62"
  top: "pool5"
  pooling_param {
    pool: MAX
    kernel_size: 2
    stride: 2
  }
}
layer {
  name: "conv71"
  type: "Convolution"
  bottom: "pool5"
  top: "conv71"
  param {
    lr_mult: 1
    decay_mult: 1
  }
  param {
    lr_mult: 2
    decay_mult: 0
  }
  convolution_param {
    num_output: 96
    pad: 1
    stride: 1
    weight_filler {
      type: "xavier"
    }
    bias_filler {
      type: "constant"
    }
    kernel_h: 3
    kernel_w: 3
  }
}
layer {
  name: "relu71"
  type: "ReLU"
  bottom: "conv71"
  top: "conv71"
}
layer {
  name: "conv72"
  type: "Convolution"
  bottom: "conv71"
  top: "conv72"
  param {
    lr_mult: 1
    decay_mult: 1
  }
  param {
    lr_mult: 2
    decay_mult: 0
  }
  convolution_param {
    num_output: 96
    pad: 1
    stride: 1
    weight_filler {
      type: "xavier"
    }
    bias_filler {
      type: "constant"
    }
    kernel_h: 3
    kernel_w: 3
  }
}
layer {
  name: "relu72"
  type: "ReLU"
  bottom: "conv72"
  top: "conv72"
}
layer {
  name: "pool6"
  type: "Pooling"
  bottom: "conv72"
  top: "pool6"
  pooling_param {
    pool: MAX
    kernel_size: 2
    stride: 2
  }
}
layer {
  name: "conv81"
  type: "Convolution"
  bottom: "pool6"
  top: "conv81"
  param {
    lr_mult: 1
    decay_mult: 1
  }
  param {
    lr_mult: 2
    decay_mult: 0
  }
  convolution_param {
    num_output: 128
    pad: 1
    stride: 1
    weight_filler {
      type: "xavier"
    }
    bias_filler {
      type: "constant"
    }
    kernel_h: 3
    kernel_w: 3
  }
}
layer {
  name: "relu81"
  type: "ReLU"
  bottom: "conv81"
  top: "conv81"
}
layer {
  name: "conv82"
  type: "Convolution"
  bottom: "conv81"
  top: "conv82"
  param {
    lr_mult: 1
    decay_mult: 1
  }
  param {
    lr_mult: 2
    decay_mult: 0
  }
  convolution_param {
    num_output: 128
    pad: 1
    stride: 1
    weight_filler {
      type: "xavier"
    }
    bias_filler {
      type: "constant"
    }
    kernel_h: 3
    kernel_w: 3
  }
}
layer {
  name: "relu82"
  type: "ReLU"
  bottom: "conv82"
  top: "conv82"
}
layer {
  name: "pool7"
  type: "Pooling"
  bottom: "conv82"
  top: "pool7"
  pooling_param {
    pool: AVE
    kernel_size: 2
    stride: 2
  }
}
layer {
  name: "drop0"
  type: "Dropout"
  bottom: "pool7"
  top: "pool7"
  dropout_param {
    dropout_ratio: 0.4
  }
}
layer {
  name: "conv91"
  type: "Convolution"
  bottom: "pool7"
  top: "conv91"
  param {
    lr_mult: 1
    decay_mult: 1
  }
  param {
    lr_mult: 2
    decay_mult: 0
  }
  convolution_param {
    num_output: 3
    stride: 1
    weight_filler {
      type: "xavier"
    }
    bias_filler {
      type: "constant"
    }
    kernel_h: 8
    kernel_w: 8
  }
}
layer {
  name: "accuracy"
  type: "Accuracy"
  bottom: "conv91"
  bottom: "label"
  top: "accuracy"
}
layer {
  name: "loss"
  type: "SoftmaxWithLoss"
  bottom: "conv91"
  bottom: "label"
  top: "loss"
}
I0721 09:17:34.592020 146637 layer_factory.hpp:76] Creating layer data
I0721 09:17:34.592089 146637 net.cpp:106] Creating Layer data
I0721 09:17:34.592133 146637 net.cpp:411] data -> data
I0721 09:17:34.592173 146637 net.cpp:411] data -> label
I0721 09:17:34.592658 146637 image_data_layer.cpp:36] Opening file ../lists/mitosis_train.lst
I0721 09:17:34.603775 146637 image_data_layer.cpp:46] Shuffling data
I0721 09:17:34.605108 146637 image_data_layer.cpp:51] A total of 21366 images.
I0721 09:17:34.743880 146637 image_data_layer.cpp:78] output data size: 16,3,1000,1000
I0721 09:17:35.184231 146637 net.cpp:150] Setting up data
I0721 09:17:35.184340 146637 net.cpp:157] Top shape: 16 3 1000 1000 (48000000)
I0721 09:17:35.184386 146637 net.cpp:157] Top shape: 16 (16)
I0721 09:17:35.184397 146637 net.cpp:165] Memory required for data: 192000064
I0721 09:17:35.184448 146637 layer_factory.hpp:76] Creating layer label_data_1_split
I0721 09:17:35.184473 146637 net.cpp:106] Creating Layer label_data_1_split
I0721 09:17:35.184500 146637 net.cpp:454] label_data_1_split <- label
I0721 09:17:35.184533 146637 net.cpp:411] label_data_1_split -> label_data_1_split_0
I0721 09:17:35.184551 146637 net.cpp:411] label_data_1_split -> label_data_1_split_1
I0721 09:17:35.184643 146637 net.cpp:150] Setting up label_data_1_split
I0721 09:17:35.184679 146637 net.cpp:157] Top shape: 16 (16)
I0721 09:17:35.184689 146637 net.cpp:157] Top shape: 16 (16)
I0721 09:17:35.184700 146637 net.cpp:165] Memory required for data: 192000192
I0721 09:17:35.184708 146637 layer_factory.hpp:76] Creating layer conv1
I0721 09:17:35.184734 146637 net.cpp:106] Creating Layer conv1
I0721 09:17:35.184756 146637 net.cpp:454] conv1 <- data
I0721 09:17:35.184769 146637 net.cpp:411] conv1 -> conv1
I0721 09:17:35.340514 146637 net.cpp:150] Setting up conv1
I0721 09:17:35.340575 146637 net.cpp:157] Top shape: 16 16 997 997 (254466304)
I0721 09:17:35.340586 146637 net.cpp:165] Memory required for data: 1209865408
I0721 09:17:35.340620 146637 layer_factory.hpp:76] Creating layer nonlin1
I0721 09:17:35.340641 146637 net.cpp:106] Creating Layer nonlin1
I0721 09:17:35.340652 146637 net.cpp:454] nonlin1 <- conv1
I0721 09:17:35.340663 146637 net.cpp:397] nonlin1 -> conv1 (in-place)
I0721 09:17:35.340869 146637 net.cpp:150] Setting up nonlin1
I0721 09:17:35.340896 146637 net.cpp:157] Top shape: 16 16 997 997 (254466304)
I0721 09:17:35.340905 146637 net.cpp:165] Memory required for data: 2227730624
I0721 09:17:35.340914 146637 layer_factory.hpp:76] Creating layer pool1
I0721 09:17:35.340929 146637 net.cpp:106] Creating Layer pool1
I0721 09:17:35.340936 146637 net.cpp:454] pool1 <- conv1
I0721 09:17:35.340945 146637 net.cpp:411] pool1 -> pool1
I0721 09:17:35.341516 146637 net.cpp:150] Setting up pool1
I0721 09:17:35.341549 146637 net.cpp:157] Top shape: 16 16 499 499 (63744256)
I0721 09:17:35.341570 146637 net.cpp:165] Memory required for data: 2482707648
I0721 09:17:35.341580 146637 layer_factory.hpp:76] Creating layer conv2
I0721 09:17:35.341595 146637 net.cpp:106] Creating Layer conv2
I0721 09:17:35.341604 146637 net.cpp:454] conv2 <- pool1
I0721 09:17:35.341614 146637 net.cpp:411] conv2 -> conv2
I0721 09:17:35.344491 146637 cudnn_conv_layer.cpp:194] Reallocating workspace storage: 1728
I0721 09:17:35.344956 146637 net.cpp:150] Setting up conv2
I0721 09:17:35.344990 146637 net.cpp:157] Top shape: 16 16 497 497 (63234304)
I0721 09:17:35.344998 146637 net.cpp:165] Memory required for data: 2735644864
I0721 09:17:35.345012 146637 layer_factory.hpp:76] Creating layer nonlin2
I0721 09:17:35.345023 146637 net.cpp:106] Creating Layer nonlin2
I0721 09:17:35.345032 146637 net.cpp:454] nonlin2 <- conv2
I0721 09:17:35.345041 146637 net.cpp:397] nonlin2 -> conv2 (in-place)
I0721 09:17:35.345234 146637 net.cpp:150] Setting up nonlin2
I0721 09:17:35.345260 146637 net.cpp:157] Top shape: 16 16 497 497 (63234304)
I0721 09:17:35.345269 146637 net.cpp:165] Memory required for data: 2988582080
I0721 09:17:35.345278 146637 layer_factory.hpp:76] Creating layer pool2
I0721 09:17:35.345289 146637 net.cpp:106] Creating Layer pool2
I0721 09:17:35.345298 146637 net.cpp:454] pool2 <- conv2
I0721 09:17:35.345306 146637 net.cpp:411] pool2 -> pool2
I0721 09:17:35.345810 146637 net.cpp:150] Setting up pool2
I0721 09:17:35.345844 146637 net.cpp:157] Top shape: 16 16 249 249 (15872256)
I0721 09:17:35.345854 146637 net.cpp:165] Memory required for data: 3052071104
I0721 09:17:35.345862 146637 layer_factory.hpp:76] Creating layer conv3
I0721 09:17:35.345876 146637 net.cpp:106] Creating Layer conv3
I0721 09:17:35.345885 146637 net.cpp:454] conv3 <- pool2
I0721 09:17:35.345896 146637 net.cpp:411] conv3 -> conv3
I0721 09:17:35.347954 146637 net.cpp:150] Setting up conv3
I0721 09:17:35.347988 146637 net.cpp:157] Top shape: 16 16 247 247 (15618304)
I0721 09:17:35.347997 146637 net.cpp:165] Memory required for data: 3114544320
I0721 09:17:35.348067 146637 layer_factory.hpp:76] Creating layer nonlin3
I0721 09:17:35.348080 146637 net.cpp:106] Creating Layer nonlin3
I0721 09:17:35.348099 146637 net.cpp:454] nonlin3 <- conv3
I0721 09:17:35.348110 146637 net.cpp:397] nonlin3 -> conv3 (in-place)
I0721 09:17:35.348316 146637 net.cpp:150] Setting up nonlin3
I0721 09:17:35.348343 146637 net.cpp:157] Top shape: 16 16 247 247 (15618304)
I0721 09:17:35.348351 146637 net.cpp:165] Memory required for data: 3177017536
I0721 09:17:35.348359 146637 layer_factory.hpp:76] Creating layer pool3
I0721 09:17:35.348371 146637 net.cpp:106] Creating Layer pool3
I0721 09:17:35.348379 146637 net.cpp:454] pool3 <- conv3
I0721 09:17:35.348389 146637 net.cpp:411] pool3 -> pool3
I0721 09:17:35.348884 146637 net.cpp:150] Setting up pool3
I0721 09:17:35.348917 146637 net.cpp:157] Top shape: 16 16 124 124 (3936256)
I0721 09:17:35.348927 146637 net.cpp:165] Memory required for data: 3192762560
I0721 09:17:35.348935 146637 layer_factory.hpp:76] Creating layer conv4
I0721 09:17:35.348948 146637 net.cpp:106] Creating Layer conv4
I0721 09:17:35.348958 146637 net.cpp:454] conv4 <- pool3
I0721 09:17:35.348968 146637 net.cpp:411] conv4 -> conv4
I0721 09:17:35.350662 146637 net.cpp:150] Setting up conv4
I0721 09:17:35.350685 146637 net.cpp:157] Top shape: 16 16 122 122 (3810304)
I0721 09:17:35.350694 146637 net.cpp:165] Memory required for data: 3208003776
I0721 09:17:35.350706 146637 layer_factory.hpp:76] Creating layer nonlin4
I0721 09:17:35.350729 146637 net.cpp:106] Creating Layer nonlin4
I0721 09:17:35.350738 146637 net.cpp:454] nonlin4 <- conv4
I0721 09:17:35.350749 146637 net.cpp:397] nonlin4 -> conv4 (in-place)
I0721 09:17:35.351200 146637 net.cpp:150] Setting up nonlin4
I0721 09:17:35.351238 146637 net.cpp:157] Top shape: 16 16 122 122 (3810304)
I0721 09:17:35.351246 146637 net.cpp:165] Memory required for data: 3223244992
I0721 09:17:35.351258 146637 layer_factory.hpp:76] Creating layer pool4
I0721 09:17:35.351269 146637 net.cpp:106] Creating Layer pool4
I0721 09:17:35.351276 146637 net.cpp:454] pool4 <- conv4
I0721 09:17:35.351289 146637 net.cpp:411] pool4 -> pool4
I0721 09:17:35.351799 146637 net.cpp:150] Setting up pool4
I0721 09:17:35.351829 146637 net.cpp:157] Top shape: 16 16 61 61 (952576)
I0721 09:17:35.351836 146637 net.cpp:165] Memory required for data: 3227055296
I0721 09:17:35.351845 146637 layer_factory.hpp:76] Creating layer ip1_c
I0721 09:17:35.351857 146637 net.cpp:106] Creating Layer ip1_c
I0721 09:17:35.351867 146637 net.cpp:454] ip1_c <- pool4
I0721 09:17:35.351878 146637 net.cpp:411] ip1_c -> ip1
I0721 09:17:35.352807 146637 cudnn_conv_layer.cpp:194] Reallocating workspace storage: 768
I0721 09:17:35.352835 146637 net.cpp:150] Setting up ip1_c
I0721 09:17:35.352846 146637 net.cpp:157] Top shape: 16 200 60 60 (11520000)
I0721 09:17:35.352854 146637 net.cpp:165] Memory required for data: 3273135296
I0721 09:17:35.352869 146637 layer_factory.hpp:76] Creating layer nonlin_ip1
I0721 09:17:35.352882 146637 net.cpp:106] Creating Layer nonlin_ip1
I0721 09:17:35.352890 146637 net.cpp:454] nonlin_ip1 <- ip1
I0721 09:17:35.352898 146637 net.cpp:397] nonlin_ip1 -> ip1 (in-place)
I0721 09:17:35.353310 146637 net.cpp:150] Setting up nonlin_ip1
I0721 09:17:35.353329 146637 net.cpp:157] Top shape: 16 200 60 60 (11520000)
I0721 09:17:35.353337 146637 net.cpp:165] Memory required for data: 3319215296
I0721 09:17:35.353345 146637 layer_factory.hpp:76] Creating layer ip2_c
I0721 09:17:35.353361 146637 net.cpp:106] Creating Layer ip2_c
I0721 09:17:35.353369 146637 net.cpp:454] ip2_c <- ip1
I0721 09:17:35.353379 146637 net.cpp:411] ip2_c -> ip2
I0721 09:17:35.354622 146637 net.cpp:150] Setting up ip2_c
I0721 09:17:35.354660 146637 net.cpp:157] Top shape: 16 2 60 60 (115200)
I0721 09:17:35.354682 146637 net.cpp:165] Memory required for data: 3319676096
I0721 09:17:35.354696 146637 layer_factory.hpp:76] Creating layer interloss
I0721 09:17:35.354712 146637 net.cpp:106] Creating Layer interloss
I0721 09:17:35.354732 146637 net.cpp:454] interloss <- ip2
I0721 09:17:35.354756 146637 net.cpp:411] interloss -> interloss
I0721 09:17:35.355047 146637 net.cpp:150] Setting up interloss
I0721 09:17:35.355073 146637 net.cpp:157] Top shape: 16 2 60 60 (115200)
I0721 09:17:35.355082 146637 net.cpp:165] Memory required for data: 3320136896
I0721 09:17:35.355090 146637 layer_factory.hpp:76] Creating layer conv61
I0721 09:17:35.355108 146637 net.cpp:106] Creating Layer conv61
I0721 09:17:35.355116 146637 net.cpp:454] conv61 <- interloss
I0721 09:17:35.355129 146637 net.cpp:411] conv61 -> conv61
I0721 09:17:35.356564 146637 net.cpp:150] Setting up conv61
I0721 09:17:35.356592 146637 net.cpp:157] Top shape: 16 64 60 60 (3686400)
I0721 09:17:35.356603 146637 net.cpp:165] Memory required for data: 3334882496
I0721 09:17:35.356614 146637 layer_factory.hpp:76] Creating layer relu61
I0721 09:17:35.356628 146637 net.cpp:106] Creating Layer relu61
I0721 09:17:35.356637 146637 net.cpp:454] relu61 <- conv61
I0721 09:17:35.356647 146637 net.cpp:397] relu61 -> conv61 (in-place)
I0721 09:17:35.357517 146637 net.cpp:150] Setting up relu61
I0721 09:17:35.357544 146637 net.cpp:157] Top shape: 16 64 60 60 (3686400)
I0721 09:17:35.357553 146637 net.cpp:165] Memory required for data: 3349628096
I0721 09:17:35.357561 146637 layer_factory.hpp:76] Creating layer conv62
I0721 09:17:35.357576 146637 net.cpp:106] Creating Layer conv62
I0721 09:17:35.357584 146637 net.cpp:454] conv62 <- conv61
I0721 09:17:35.357595 146637 net.cpp:411] conv62 -> conv62
I0721 09:17:35.358860 146637 net.cpp:150] Setting up conv62
I0721 09:17:35.358891 146637 net.cpp:157] Top shape: 16 64 60 60 (3686400)
I0721 09:17:35.358899 146637 net.cpp:165] Memory required for data: 3364373696
I0721 09:17:35.358911 146637 layer_factory.hpp:76] Creating layer relu62
I0721 09:17:35.358922 146637 net.cpp:106] Creating Layer relu62
I0721 09:17:35.358929 146637 net.cpp:454] relu62 <- conv62
I0721 09:17:35.358937 146637 net.cpp:397] relu62 -> conv62 (in-place)
I0721 09:17:35.359423 146637 net.cpp:150] Setting up relu62
I0721 09:17:35.359452 146637 net.cpp:157] Top shape: 16 64 60 60 (3686400)
I0721 09:17:35.359459 146637 net.cpp:165] Memory required for data: 3379119296
I0721 09:17:35.359467 146637 layer_factory.hpp:76] Creating layer pool5
I0721 09:17:35.359478 146637 net.cpp:106] Creating Layer pool5
I0721 09:17:35.359486 146637 net.cpp:454] pool5 <- conv62
I0721 09:17:35.359498 146637 net.cpp:411] pool5 -> pool5
I0721 09:17:35.359726 146637 net.cpp:150] Setting up pool5
I0721 09:17:35.359755 146637 net.cpp:157] Top shape: 16 64 30 30 (921600)
I0721 09:17:35.359764 146637 net.cpp:165] Memory required for data: 3382805696
I0721 09:17:35.359772 146637 layer_factory.hpp:76] Creating layer conv71
I0721 09:17:35.359784 146637 net.cpp:106] Creating Layer conv71
I0721 09:17:35.359792 146637 net.cpp:454] conv71 <- pool5
I0721 09:17:35.359804 146637 net.cpp:411] conv71 -> conv71
I0721 09:17:35.377753 146637 cudnn_conv_layer.cpp:194] Reallocating workspace storage: 6912
I0721 09:17:35.388468 146637 net.cpp:150] Setting up conv71
I0721 09:17:35.388501 146637 net.cpp:157] Top shape: 16 96 30 30 (1382400)
I0721 09:17:35.388510 146637 net.cpp:165] Memory required for data: 3388335296
I0721 09:17:35.388531 146637 layer_factory.hpp:76] Creating layer relu71
I0721 09:17:35.388546 146637 net.cpp:106] Creating Layer relu71
I0721 09:17:35.388556 146637 net.cpp:454] relu71 <- conv71
I0721 09:17:35.388566 146637 net.cpp:397] relu71 -> conv71 (in-place)
I0721 09:17:35.397478 146637 net.cpp:150] Setting up relu71
I0721 09:17:35.397513 146637 net.cpp:157] Top shape: 16 96 30 30 (1382400)
I0721 09:17:35.397522 146637 net.cpp:165] Memory required for data: 3393864896
I0721 09:17:35.397534 146637 layer_factory.hpp:76] Creating layer conv72
I0721 09:17:35.397567 146637 net.cpp:106] Creating Layer conv72
I0721 09:17:35.397583 146637 net.cpp:454] conv72 <- conv71
I0721 09:17:35.397603 146637 net.cpp:411] conv72 -> conv72
I0721 09:17:35.400348 146637 net.cpp:150] Setting up conv72
I0721 09:17:35.400400 146637 net.cpp:157] Top shape: 16 96 30 30 (1382400)
I0721 09:17:35.400411 146637 net.cpp:165] Memory required for data: 3399394496
I0721 09:17:35.400449 146637 layer_factory.hpp:76] Creating layer relu72
I0721 09:17:35.400473 146637 net.cpp:106] Creating Layer relu72
I0721 09:17:35.400483 146637 net.cpp:454] relu72 <- conv72
I0721 09:17:35.400497 146637 net.cpp:397] relu72 -> conv72 (in-place)
I0721 09:17:35.400696 146637 net.cpp:150] Setting up relu72
I0721 09:17:35.400713 146637 net.cpp:157] Top shape: 16 96 30 30 (1382400)
I0721 09:17:35.400722 146637 net.cpp:165] Memory required for data: 3404924096
I0721 09:17:35.400729 146637 layer_factory.hpp:76] Creating layer pool6
I0721 09:17:35.400743 146637 net.cpp:106] Creating Layer pool6
I0721 09:17:35.400753 146637 net.cpp:454] pool6 <- conv72
I0721 09:17:35.400761 146637 net.cpp:411] pool6 -> pool6
I0721 09:17:35.401104 146637 net.cpp:150] Setting up pool6
I0721 09:17:35.401124 146637 net.cpp:157] Top shape: 16 96 15 15 (345600)
I0721 09:17:35.401134 146637 net.cpp:165] Memory required for data: 3406306496
I0721 09:17:35.401141 146637 layer_factory.hpp:76] Creating layer conv81
I0721 09:17:35.401157 146637 net.cpp:106] Creating Layer conv81
I0721 09:17:35.401166 146637 net.cpp:454] conv81 <- pool6
I0721 09:17:35.401180 146637 net.cpp:411] conv81 -> conv81
I0721 09:17:35.402798 146637 cudnn_conv_layer.cpp:194] Reallocating workspace storage: 10368
I0721 09:17:35.402833 146637 net.cpp:150] Setting up conv81
I0721 09:17:35.402845 146637 net.cpp:157] Top shape: 16 128 15 15 (460800)
I0721 09:17:35.402854 146637 net.cpp:165] Memory required for data: 3408149696
I0721 09:17:35.402865 146637 layer_factory.hpp:76] Creating layer relu81
I0721 09:17:35.402884 146637 net.cpp:106] Creating Layer relu81
I0721 09:17:35.402894 146637 net.cpp:454] relu81 <- conv81
I0721 09:17:35.402902 146637 net.cpp:397] relu81 -> conv81 (in-place)
I0721 09:17:35.403241 146637 net.cpp:150] Setting up relu81
I0721 09:17:35.403260 146637 net.cpp:157] Top shape: 16 128 15 15 (460800)
I0721 09:17:35.403270 146637 net.cpp:165] Memory required for data: 3409992896
I0721 09:17:35.403277 146637 layer_factory.hpp:76] Creating layer conv82
I0721 09:17:35.403296 146637 net.cpp:106] Creating Layer conv82
I0721 09:17:35.403307 146637 net.cpp:454] conv82 <- conv81
I0721 09:17:35.403317 146637 net.cpp:411] conv82 -> conv82
I0721 09:17:35.405825 146637 cudnn_conv_layer.cpp:194] Reallocating workspace storage: 13824
I0721 09:17:35.405867 146637 net.cpp:150] Setting up conv82
I0721 09:17:35.405882 146637 net.cpp:157] Top shape: 16 128 15 15 (460800)
I0721 09:17:35.405890 146637 net.cpp:165] Memory required for data: 3411836096
I0721 09:17:35.405903 146637 layer_factory.hpp:76] Creating layer relu82
I0721 09:17:35.405915 146637 net.cpp:106] Creating Layer relu82
I0721 09:17:35.405922 146637 net.cpp:454] relu82 <- conv82
I0721 09:17:35.405937 146637 net.cpp:397] relu82 -> conv82 (in-place)
I0721 09:17:35.406116 146637 net.cpp:150] Setting up relu82
I0721 09:17:35.406133 146637 net.cpp:157] Top shape: 16 128 15 15 (460800)
I0721 09:17:35.406141 146637 net.cpp:165] Memory required for data: 3413679296
I0721 09:17:35.406150 146637 layer_factory.hpp:76] Creating layer pool7
I0721 09:17:35.406178 146637 net.cpp:106] Creating Layer pool7
I0721 09:17:35.406186 146637 net.cpp:454] pool7 <- conv82
I0721 09:17:35.406196 146637 net.cpp:411] pool7 -> pool7
I0721 09:17:35.406534 146637 net.cpp:150] Setting up pool7
I0721 09:17:35.406553 146637 net.cpp:157] Top shape: 16 128 8 8 (131072)
I0721 09:17:35.406560 146637 net.cpp:165] Memory required for data: 3414203584
I0721 09:17:35.406569 146637 layer_factory.hpp:76] Creating layer drop0
I0721 09:17:35.406585 146637 net.cpp:106] Creating Layer drop0
I0721 09:17:35.406594 146637 net.cpp:454] drop0 <- pool7
I0721 09:17:35.406604 146637 net.cpp:397] drop0 -> pool7 (in-place)
I0721 09:17:35.406646 146637 net.cpp:150] Setting up drop0
I0721 09:17:35.406671 146637 net.cpp:157] Top shape: 16 128 8 8 (131072)
I0721 09:17:35.406677 146637 net.cpp:165] Memory required for data: 3414727872
I0721 09:17:35.406688 146637 layer_factory.hpp:76] Creating layer conv91
I0721 09:17:35.406702 146637 net.cpp:106] Creating Layer conv91
I0721 09:17:35.406734 146637 net.cpp:454] conv91 <- pool7
I0721 09:17:35.406744 146637 net.cpp:411] conv91 -> conv91
I0721 09:17:35.407922 146637 cudnn_conv_layer.cpp:194] Reallocating workspace storage: 98304
I0721 09:17:35.408136 146637 net.cpp:150] Setting up conv91
I0721 09:17:35.408154 146637 net.cpp:157] Top shape: 16 3 1 1 (48)
I0721 09:17:35.408164 146637 net.cpp:165] Memory required for data: 3414728064
I0721 09:17:35.408186 146637 layer_factory.hpp:76] Creating layer conv91_conv91_0_split
I0721 09:17:35.408200 146637 net.cpp:106] Creating Layer conv91_conv91_0_split
I0721 09:17:35.408207 146637 net.cpp:454] conv91_conv91_0_split <- conv91
I0721 09:17:35.408217 146637 net.cpp:411] conv91_conv91_0_split -> conv91_conv91_0_split_0
I0721 09:17:35.408231 146637 net.cpp:411] conv91_conv91_0_split -> conv91_conv91_0_split_1
I0721 09:17:35.408273 146637 net.cpp:150] Setting up conv91_conv91_0_split
I0721 09:17:35.408288 146637 net.cpp:157] Top shape: 16 3 1 1 (48)
I0721 09:17:35.408295 146637 net.cpp:157] Top shape: 16 3 1 1 (48)
I0721 09:17:35.408306 146637 net.cpp:165] Memory required for data: 3414728448
I0721 09:17:35.408318 146637 layer_factory.hpp:76] Creating layer accuracy
I0721 09:17:35.408334 146637 net.cpp:106] Creating Layer accuracy
I0721 09:17:35.408342 146637 net.cpp:454] accuracy <- conv91_conv91_0_split_0
I0721 09:17:35.408351 146637 net.cpp:454] accuracy <- label_data_1_split_0
I0721 09:17:35.408361 146637 net.cpp:411] accuracy -> accuracy
…
I0721 09:17:35.410048 146637 net.cpp:322] The NetState phase (1) differed from the phase (0) specified by a rule in layer data
I0721 09:17:35.410259 146637 net.cpp:49] Initializing net from parameters: 
name: "Result Layer 3 Stack"
state {
  phase: TEST
}
layer {
  name: "data"
  type: "ImageData"
  top: "data"
  top: "label"
  include {
    phase: TEST
  }
  transform_param {
    mirror: false
    mean_value: 150
    mean_value: 150
    mean_value: 150
  }
  image_data_param {
    source: "../lists/mitosis_val.lst"
    batch_size: 8
    shuffle: true
    new_height: 1000
    new_width: 1000
  }
}
layer {
  name: "conv1"
  type: "Convolution"
  bottom: "data"
  top: "conv1"
  param {
    lr_mult: 0
    decay_mult: 0
  }
  param {
    lr_mult: 0
    decay_mult: 0
  }
  convolution_param {
    num_output: 16
    pad: 0
    kernel_size: 4
    stride: 1
  }
}
layer {
  name: "nonlin1"
  type: "ReLU"
  bottom: "conv1"
  top: "conv1"
}
layer {
  name: "pool1"
  type: "Pooling"
  bottom: "conv1"
  top: "pool1"
  pooling_param {
    pool: MAX
    kernel_size: 2
    stride: 2
  }
}
layer {
  name: "conv2"
  type: "Convolution"
  bottom: "pool1"
  top: "conv2"
  param {
    lr_mult: 0
    decay_mult: 0
  }
  param {
    lr_mult: 0
    decay_mult: 0
  }
  convolution_param {
    num_output: 16
    pad: 0
    kernel_size: 3
    stride: 1
  }
}
layer {
  name: "nonlin2"
  type: "ReLU"
  bottom: "conv2"
  top: "conv2"
}
layer {
  name: "pool2"
  type: "Pooling"
  bottom: "conv2"
  top: "pool2"
  pooling_param {
    pool: MAX
    kernel_size: 2
    stride: 2
  }
}
layer {
  name: "conv3"
  type: "Convolution"
  bottom: "pool2"
  top: "conv3"
  param {
    lr_mult: 0
    decay_mult: 0
  }
  param {
    lr_mult: 0
    decay_mult: 0
  }
  convolution_param {
    num_output: 16
    pad: 0
    kernel_size: 3
    stride: 1
  }
}
layer {
  name: "nonlin3"
  type: "ReLU"
  bottom: "conv3"
  top: "conv3"
}
layer {
  name: "pool3"
  type: "Pooling"
  bottom: "conv3"
  top: "pool3"
  pooling_param {
    pool: MAX
    kernel_size: 2
    stride: 2
  }
}
layer {
  name: "conv4"
  type: "Convolution"
  bottom: "pool3"
  top: "conv4"
  param {
    lr_mult: 0
    decay_mult: 0
  }
  param {
    lr_mult: 0
    decay_mult: 0
  }
  convolution_param {
    num_output: 16
    pad: 0
    kernel_size: 3
    stride: 1
  }
}
layer {
  name: "nonlin4"
  type: "ReLU"
  bottom: "conv4"
  top: "conv4"
}
layer {
  name: "pool4"
  type: "Pooling"
  bottom: "conv4"
  top: "pool4"
  pooling_param {
    pool: MAX
    kernel_size: 2
    stride: 2
  }
}
layer {
  name: "ip1_c"
  type: "Convolution"
  bottom: "pool4"
  top: "ip1"
  convolution_param {
    num_output: 200
    pad: 0
    kernel_size: 2
    stride: 1
  }
}
layer {
  name: "nonlin_ip1"
  type: "ReLU"
  bottom: "ip1"
  top: "ip1"
}
layer {
  name: "ip2_c"
  type: "Convolution"
  bottom: "ip1"
  top: "ip2"
  convolution_param {
    num_output: 2
    pad: 0
    kernel_size: 1
    stride: 1
  }
}
layer {
  name: "interloss"
  type: "Softmax"
  bottom: "ip2"
  top: "interloss"
}
layer {
  name: "conv61"
  type: "Convolution"
  bottom: "interloss"
  top: "conv61"
  param {
    lr_mult: 1
    decay_mult: 1
  }
  param {
    lr_mult: 2
    decay_mult: 0
  }
  convolution_param {
    num_output: 64
    pad: 1
    stride: 1
    weight_filler {
      type: "xavier"
    }
    bias_filler {
      type: "constant"
    }
    kernel_h: 3
    kernel_w: 3
  }
}
layer {
  name: "relu61"
  type: "ReLU"
  bottom: "conv61"
  top: "conv61"
}
layer {
  name: "conv62"
  type: "Convolution"
  bottom: "conv61"
  top: "conv62"
  param {
    lr_mult: 1
    decay_mult: 1
  }
  param {
    lr_mult: 2
    decay_mult: 0
  }
  convolution_param {
    num_output: 64
    pad: 1
    stride: 1
    weight_filler {
      type: "xavier"
    }
    bias_filler {
      type: "constant"
    }
    kernel_h: 3
    kernel_w: 3
  }
}
layer {
  name: "relu62"
  type: "ReLU"
  bottom: "conv62"
  top: "conv62"
}
layer {
  name: "pool5"
  type: "Pooling"
  bottom: "conv62"
  top: "pool5"
  pooling_param {
    pool: MAX
    kernel_size: 2
    stride: 2
  }
}
layer {
  name: "conv71"
  type: "Convolution"
  bottom: "pool5"
  top: "conv71"
  param {
    lr_mult: 1
    decay_mult: 1
  }
  param {
    lr_mult: 2
    decay_mult: 0
  }
  convolution_param {
    num_output: 96
    pad: 1
    stride: 1
    weight_filler {
      type: "xavier"
    }
    bias_filler {
      type: "constant"
    }
    kernel_h: 3
    kernel_w: 3
  }
}
layer {
  name: "relu71"
  type: "ReLU"
  bottom: "conv71"
  top: "conv71"
}
layer {
  name: "conv72"
  type: "Convolution"
  bottom: "conv71"
  top: "conv72"
  param {
    lr_mult: 1
    decay_mult: 1
  }
  param {
    lr_mult: 2
    decay_mult: 0
  }
  convolution_param {
    num_output: 96
    pad: 1
    stride: 1
    weight_filler {
      type: "xavier"
    }
    bias_filler {
      type: "constant"
    }
    kernel_h: 3
    kernel_w: 3
  }
}
layer {
  name: "relu72"
  type: "ReLU"
  bottom: "conv72"
  top: "conv72"
}
layer {
  name: "pool6"
  type: "Pooling"
  bottom: "conv72"
  top: "pool6"
  pooling_param {
    pool: MAX
    kernel_size: 2
    stride: 2
  }
}
layer {
  name: "conv81"
  type: "Convolution"
  bottom: "pool6"
  top: "conv81"
  param {
    lr_mult: 1
    decay_mult: 1
  }
  param {
    lr_mult: 2
    decay_mult: 0
  }
  convolution_param {
    num_output: 128
    pad: 1
    stride: 1
    weight_filler {
      type: "xavier"
    }
    bias_filler {
      type: "constant"
    }
    kernel_h: 3
    kernel_w: 3
  }
}
layer {
  name: "relu81"
  type: "ReLU"
  bottom: "conv81"
  top: "conv81"
}
layer {
  name: "conv82"
  type: "Convolution"
  bottom: "conv81"
  top: "conv82"
  param {
    lr_mult: 1
    decay_mult: 1
  }
  param {
    lr_mult: 2
    decay_mult: 0
  }
  convolution_param {
    num_output: 128
    pad: 1
    stride: 1
    weight_filler {
      type: "xavier"
    }
    bias_filler {
      type: "constant"
    }
    kernel_h: 3
    kernel_w: 3
  }
}
layer {
  name: "relu82"
  type: "ReLU"
  bottom: "conv82"
  top: "conv82"
}
layer {
  name: "pool7"
  type: "Pooling"
  bottom: "conv82"
  top: "pool7"
  pooling_param {
    pool: AVE
    kernel_size: 2
    stride: 2
  }
}
layer {
  name: "drop0"
  type: "Dropout"
  bottom: "pool7"
  top: "pool7"
  dropout_param {
    dropout_ratio: 0.4
  }
}
layer {
  name: "conv91"
  type: "Convolution"
  bottom: "pool7"
  top: "conv91"
  param {
    lr_mult: 1
    decay_mult: 1
  }
  param {
    lr_mult: 2
    decay_mult: 0
  }
  convolution_param {
    num_output: 3
    stride: 1
    weight_filler {
      type: "xavier"
    }
    bias_filler {
      type: "constant"
    }
    kernel_h: 8
    kernel_w: 8
  }
}
layer {
  name: "accuracy"
  type: "Accuracy"
  bottom: "conv91"
  bottom: "label"
  top: "accuracy"
}
layer {
  name: "loss"
  type: "SoftmaxWithLoss"
  bottom: "conv91"
  bottom: "label"
  top: "loss"
}
I0721 09:17:35.411986 146637 layer_factory.hpp:76] Creating layer data
I0721 09:17:35.412012 146637 net.cpp:106] Creating Layer data
I0721 09:17:35.412021 146637 net.cpp:411] data -> data
I0721 09:17:35.412034 146637 net.cpp:411] data -> label
I0721 09:17:35.412055 146637 image_data_layer.cpp:36] Opening file ../lists/mitosis_val.lst
I0721 09:17:35.440238 146637 image_data_layer.cpp:46] Shuffling data
I0721 09:17:35.440428 146637 image_data_layer.cpp:51] A total of 2375 images.
I0721 09:17:35.537856 146637 image_data_layer.cpp:78] output data size: 8,3,1000,1000
I0721 09:17:35.741346 146637 net.cpp:150] Setting up data
I0721 09:17:35.741399 146637 net.cpp:157] Top shape: 8 3 1000 1000 (24000000)
I0721 09:17:35.741410 146637 net.cpp:157] Top shape: 8 (8)
I0721 09:17:35.741417 146637 net.cpp:165] Memory required for data: 96000032
I0721 09:17:35.741431 146637 layer_factory.hpp:76] Creating layer label_data_1_split
I0721 09:17:35.741458 146637 net.cpp:106] Creating Layer label_data_1_split
I0721 09:17:35.741466 146637 net.cpp:454] label_data_1_split <- label
I0721 09:17:35.741477 146637 net.cpp:411] label_data_1_split -> label_data_1_split_0
I0721 09:17:35.741492 146637 net.cpp:411] label_data_1_split -> label_data_1_split_1
I0721 09:17:35.741650 146637 net.cpp:150] Setting up label_data_1_split
I0721 09:17:35.741677 146637 net.cpp:157] Top shape: 8 (8)
I0721 09:17:35.741683 146637 net.cpp:157] Top shape: 8 (8)
I0721 09:17:35.741688 146637 net.cpp:165] Memory required for data: 96000096
I0721 09:17:35.741694 146637 layer_factory.hpp:76] Creating layer conv1
I0721 09:17:35.741719 146637 net.cpp:106] Creating Layer conv1
I0721 09:17:35.741724 146637 net.cpp:454] conv1 <- data
I0721 09:17:35.741735 146637 net.cpp:411] conv1 -> conv1
I0721 09:17:35.745980 146637 net.cpp:150] Setting up conv1
I0721 09:17:35.746021 146637 net.cpp:157] Top shape: 8 16 997 997 (127233152)
I0721 09:17:35.746031 146637 net.cpp:165] Memory required for data: 604932704
I0721 09:17:35.746048 146637 layer_factory.hpp:76] Creating layer nonlin1
I0721 09:17:35.746067 146637 net.cpp:106] Creating Layer nonlin1
I0721 09:17:35.746076 146637 net.cpp:454] nonlin1 <- conv1
I0721 09:17:35.746088 146637 net.cpp:397] nonlin1 -> conv1 (in-place)
I0721 09:17:35.746456 146637 net.cpp:150] Setting up nonlin1
I0721 09:17:35.746490 146637 net.cpp:157] Top shape: 8 16 997 997 (127233152)
I0721 09:17:35.746498 146637 net.cpp:165] Memory required for data: 1113865312
I0721 09:17:35.746507 146637 layer_factory.hpp:76] Creating layer pool1
I0721 09:17:35.746525 146637 net.cpp:106] Creating Layer pool1
I0721 09:17:35.746534 146637 net.cpp:454] pool1 <- conv1
I0721 09:17:35.746546 146637 net.cpp:411] pool1 -> pool1
I0721 09:17:35.746785 146637 net.cpp:150] Setting up pool1
I0721 09:17:35.746819 146637 net.cpp:157] Top shape: 8 16 499 499 (31872128)
I0721 09:17:35.746829 146637 net.cpp:165] Memory required for data: 1241353824
I0721 09:17:35.746839 146637 layer_factory.hpp:76] Creating layer conv2
I0721 09:17:35.746855 146637 net.cpp:106] Creating Layer conv2
I0721 09:17:35.746862 146637 net.cpp:454] conv2 <- pool1
I0721 09:17:35.746876 146637 net.cpp:411] conv2 -> conv2
I0721 09:17:35.748720 146637 net.cpp:150] Setting up conv2
I0721 09:17:35.748755 146637 net.cpp:157] Top shape: 8 16 497 497 (31617152)
I0721 09:17:35.748765 146637 net.cpp:165] Memory required for data: 1367822432
I0721 09:17:35.748780 146637 layer_factory.hpp:76] Creating layer nonlin2
I0721 09:17:35.748795 146637 net.cpp:106] Creating Layer nonlin2
I0721 09:17:35.748803 146637 net.cpp:454] nonlin2 <- conv2
I0721 09:17:35.748816 146637 net.cpp:397] nonlin2 -> conv2 (in-place)
I0721 09:17:35.749017 146637 net.cpp:150] Setting up nonlin2
I0721 09:17:35.749070 146637 net.cpp:157] Top shape: 8 16 497 497 (31617152)
I0721 09:17:35.749080 146637 net.cpp:165] Memory required for data: 1494291040
I0721 09:17:35.749089 146637 layer_factory.hpp:76] Creating layer pool2
I0721 09:17:35.749104 146637 net.cpp:106] Creating Layer pool2
I0721 09:17:35.749112 146637 net.cpp:454] pool2 <- conv2
I0721 09:17:35.749122 146637 net.cpp:411] pool2 -> pool2
I0721 09:17:35.749500 146637 net.cpp:150] Setting up pool2
I0721 09:17:35.749531 146637 net.cpp:157] Top shape: 8 16 249 249 (7936128)
I0721 09:17:35.749541 146637 net.cpp:165] Memory required for data: 1526035552
I0721 09:17:35.749550 146637 layer_factory.hpp:76] Creating layer conv3
I0721 09:17:35.749568 146637 net.cpp:106] Creating Layer conv3
I0721 09:17:35.749577 146637 net.cpp:454] conv3 <- pool2
I0721 09:17:35.749588 146637 net.cpp:411] conv3 -> conv3
I0721 09:17:35.750743 146637 net.cpp:150] Setting up conv3
I0721 09:17:35.750777 146637 net.cpp:157] Top shape: 8 16 247 247 (7809152)
I0721 09:17:35.750787 146637 net.cpp:165] Memory required for data: 1557272160
I0721 09:17:35.750800 146637 layer_factory.hpp:76] Creating layer nonlin3
I0721 09:17:35.750818 146637 net.cpp:106] Creating Layer nonlin3
I0721 09:17:35.750826 146637 net.cpp:454] nonlin3 <- conv3
I0721 09:17:35.750836 146637 net.cpp:397] nonlin3 -> conv3 (in-place)
I0721 09:17:35.751022 146637 net.cpp:150] Setting up nonlin3
I0721 09:17:35.751050 146637 net.cpp:157] Top shape: 8 16 247 247 (7809152)
I0721 09:17:35.751058 146637 net.cpp:165] Memory required for data: 1588508768
I0721 09:17:35.751068 146637 layer_factory.hpp:76] Creating layer pool3
I0721 09:17:35.751080 146637 net.cpp:106] Creating Layer pool3
I0721 09:17:35.751090 146637 net.cpp:454] pool3 <- conv3
I0721 09:17:35.751098 146637 net.cpp:411] pool3 -> pool3
I0721 09:17:35.751476 146637 net.cpp:150] Setting up pool3
I0721 09:17:35.751505 146637 net.cpp:157] Top shape: 8 16 124 124 (1968128)
I0721 09:17:35.751514 146637 net.cpp:165] Memory required for data: 1596381280
I0721 09:17:35.751523 146637 layer_factory.hpp:76] Creating layer conv4
I0721 09:17:35.751539 146637 net.cpp:106] Creating Layer conv4
I0721 09:17:35.751549 146637 net.cpp:454] conv4 <- pool3
I0721 09:17:35.751559 146637 net.cpp:411] conv4 -> conv4
I0721 09:17:35.752635 146637 net.cpp:150] Setting up conv4
I0721 09:17:35.752668 146637 net.cpp:157] Top shape: 8 16 122 122 (1905152)
I0721 09:17:35.752678 146637 net.cpp:165] Memory required for data: 1604001888
I0721 09:17:35.752691 146637 layer_factory.hpp:76] Creating layer nonlin4
I0721 09:17:35.752704 146637 net.cpp:106] Creating Layer nonlin4
I0721 09:17:35.752714 146637 net.cpp:454] nonlin4 <- conv4
I0721 09:17:35.752723 146637 net.cpp:397] nonlin4 -> conv4 (in-place)
I0721 09:17:35.752915 146637 net.cpp:150] Setting up nonlin4
I0721 09:17:35.752944 146637 net.cpp:157] Top shape: 8 16 122 122 (1905152)
I0721 09:17:35.752953 146637 net.cpp:165] Memory required for data: 1611622496
I0721 09:17:35.752962 146637 layer_factory.hpp:76] Creating layer pool4
I0721 09:17:35.752974 146637 net.cpp:106] Creating Layer pool4
I0721 09:17:35.752981 146637 net.cpp:454] pool4 <- conv4
I0721 09:17:35.752996 146637 net.cpp:411] pool4 -> pool4
I0721 09:17:35.753370 146637 net.cpp:150] Setting up pool4
I0721 09:17:35.753401 146637 net.cpp:157] Top shape: 8 16 61 61 (476288)
I0721 09:17:35.753410 146637 net.cpp:165] Memory required for data: 1613527648
I0721 09:17:35.753422 146637 layer_factory.hpp:76] Creating layer ip1_c
I0721 09:17:35.753437 146637 net.cpp:106] Creating Layer ip1_c
I0721 09:17:35.753446 146637 net.cpp:454] ip1_c <- pool4
I0721 09:17:35.753456 146637 net.cpp:411] ip1_c -> ip1
I0721 09:17:35.754443 146637 cudnn_conv_layer.cpp:194] Reallocating workspace storage: 22118400
I0721 09:17:35.754706 146637 net.cpp:150] Setting up ip1_c
I0721 09:17:35.754739 146637 net.cpp:157] Top shape: 8 200 60 60 (5760000)
I0721 09:17:35.754747 146637 net.cpp:165] Memory required for data: 1636567648
I0721 09:17:35.754762 146637 layer_factory.hpp:76] Creating layer nonlin_ip1
I0721 09:17:35.754792 146637 net.cpp:106] Creating Layer nonlin_ip1
I0721 09:17:35.754807 146637 net.cpp:454] nonlin_ip1 <- ip1
I0721 09:17:35.754817 146637 net.cpp:397] nonlin_ip1 -> ip1 (in-place)
I0721 09:17:35.755156 146637 net.cpp:150] Setting up nonlin_ip1
I0721 09:17:35.755187 146637 net.cpp:157] Top shape: 8 200 60 60 (5760000)
I0721 09:17:35.755198 146637 net.cpp:165] Memory required for data: 1659607648
I0721 09:17:35.755206 146637 layer_factory.hpp:76] Creating layer ip2_c
I0721 09:17:35.755223 146637 net.cpp:106] Creating Layer ip2_c
I0721 09:17:35.755233 146637 net.cpp:454] ip2_c <- ip1
I0721 09:17:35.755244 146637 net.cpp:411] ip2_c -> ip2
I0721 09:17:35.756326 146637 net.cpp:150] Setting up ip2_c
I0721 09:17:35.756359 146637 net.cpp:157] Top shape: 8 2 60 60 (57600)
I0721 09:17:35.756371 146637 net.cpp:165] Memory required for data: 1659838048
I0721 09:17:35.756383 146637 layer_factory.hpp:76] Creating layer interloss
I0721 09:17:35.756398 146637 net.cpp:106] Creating Layer interloss
I0721 09:17:35.756407 146637 net.cpp:454] interloss <- ip2
I0721 09:17:35.756417 146637 net.cpp:411] interloss -> interloss
I0721 09:17:35.756676 146637 net.cpp:150] Setting up interloss
I0721 09:17:35.756705 146637 net.cpp:157] Top shape: 8 2 60 60 (57600)
I0721 09:17:35.756714 146637 net.cpp:165] Memory required for data: 1660068448
I0721 09:17:35.756726 146637 layer_factory.hpp:76] Creating layer conv61
I0721 09:17:35.756743 146637 net.cpp:106] Creating Layer conv61
I0721 09:17:35.756752 146637 net.cpp:454] conv61 <- interloss
I0721 09:17:35.756762 146637 net.cpp:411] conv61 -> conv61
I0721 09:17:35.757844 146637 cudnn_conv_layer.cpp:194] Reallocating workspace storage: 6220800
I0721 09:17:35.758081 146637 net.cpp:150] Setting up conv61
I0721 09:17:35.758111 146637 net.cpp:157] Top shape: 8 64 60 60 (1843200)
I0721 09:17:35.758119 146637 net.cpp:165] Memory required for data: 1667441248
I0721 09:17:35.758133 146637 layer_factory.hpp:76] Creating layer relu61
I0721 09:17:35.758144 146637 net.cpp:106] Creating Layer relu61
I0721 09:17:35.758153 146637 net.cpp:454] relu61 <- conv61
I0721 09:17:35.758165 146637 net.cpp:397] relu61 -> conv61 (in-place)
I0721 09:17:35.758514 146637 net.cpp:150] Setting up relu61
I0721 09:17:35.758545 146637 net.cpp:157] Top shape: 8 64 60 60 (1843200)
I0721 09:17:35.758554 146637 net.cpp:165] Memory required for data: 1674814048
I0721 09:17:35.758563 146637 layer_factory.hpp:76] Creating layer conv62
I0721 09:17:35.758579 146637 net.cpp:106] Creating Layer conv62
I0721 09:17:35.758589 146637 net.cpp:454] conv62 <- conv61
I0721 09:17:35.758600 146637 net.cpp:411] conv62 -> conv62
I0721 09:17:35.760555 146637 net.cpp:150] Setting up conv62
I0721 09:17:35.760589 146637 net.cpp:157] Top shape: 8 64 60 60 (1843200)
I0721 09:17:35.760598 146637 net.cpp:165] Memory required for data: 1682186848
I0721 09:17:35.760610 146637 layer_factory.hpp:76] Creating layer relu62
I0721 09:17:35.760622 146637 net.cpp:106] Creating Layer relu62
I0721 09:17:35.760630 146637 net.cpp:454] relu62 <- conv62
I0721 09:17:35.760643 146637 net.cpp:397] relu62 -> conv62 (in-place)
I0721 09:17:35.760972 146637 net.cpp:150] Setting up relu62
I0721 09:17:35.761003 146637 net.cpp:157] Top shape: 8 64 60 60 (1843200)
I0721 09:17:35.761011 146637 net.cpp:165] Memory required for data: 1689559648
I0721 09:17:35.761021 146637 layer_factory.hpp:76] Creating layer pool5
I0721 09:17:35.761034 146637 net.cpp:106] Creating Layer pool5
I0721 09:17:35.761041 146637 net.cpp:454] pool5 <- conv62
I0721 09:17:35.761054 146637 net.cpp:411] pool5 -> pool5
I0721 09:17:35.761423 146637 net.cpp:150] Setting up pool5
I0721 09:17:35.761453 146637 net.cpp:157] Top shape: 8 64 30 30 (460800)
I0721 09:17:35.761462 146637 net.cpp:165] Memory required for data: 1691402848
I0721 09:17:35.761471 146637 layer_factory.hpp:76] Creating layer conv71
I0721 09:17:35.761488 146637 net.cpp:106] Creating Layer conv71
I0721 09:17:35.761497 146637 net.cpp:454] conv71 <- pool5
I0721 09:17:35.761509 146637 net.cpp:411] conv71 -> conv71
I0721 09:17:35.762861 146637 cudnn_conv_layer.cpp:194] Reallocating workspace storage: 6912
I0721 09:17:35.762931 146637 net.cpp:150] Setting up conv71
I0721 09:17:35.762945 146637 net.cpp:157] Top shape: 8 96 30 30 (691200)
I0721 09:17:35.762953 146637 net.cpp:165] Memory required for data: 1694167648
I0721 09:17:35.762971 146637 layer_factory.hpp:76] Creating layer relu71
I0721 09:17:35.763000 146637 net.cpp:106] Creating Layer relu71
I0721 09:17:35.763008 146637 net.cpp:454] relu71 <- conv71
I0721 09:17:35.763020 146637 net.cpp:397] relu71 -> conv71 (in-place)
I0721 09:17:35.763376 146637 net.cpp:150] Setting up relu71
I0721 09:17:35.763406 146637 net.cpp:157] Top shape: 8 96 30 30 (691200)
I0721 09:17:35.763416 146637 net.cpp:165] Memory required for data: 1696932448
I0721 09:17:35.763423 146637 layer_factory.hpp:76] Creating layer conv72
I0721 09:17:35.763442 146637 net.cpp:106] Creating Layer conv72
I0721 09:17:35.763451 146637 net.cpp:454] conv72 <- conv71
I0721 09:17:35.763461 146637 net.cpp:411] conv72 -> conv72
I0721 09:17:35.765257 146637 cudnn_conv_layer.cpp:194] Reallocating workspace storage: 10368
I0721 09:17:35.765311 146637 net.cpp:150] Setting up conv72
I0721 09:17:35.765323 146637 net.cpp:157] Top shape: 8 96 30 30 (691200)
I0721 09:17:35.765332 146637 net.cpp:165] Memory required for data: 1699697248
I0721 09:17:35.765348 146637 layer_factory.hpp:76] Creating layer relu72
I0721 09:17:35.765362 146637 net.cpp:106] Creating Layer relu72
I0721 09:17:35.765370 146637 net.cpp:454] relu72 <- conv72
I0721 09:17:35.765383 146637 net.cpp:397] relu72 -> conv72 (in-place)
I0721 09:17:35.765585 146637 net.cpp:150] Setting up relu72
I0721 09:17:35.765614 146637 net.cpp:157] Top shape: 8 96 30 30 (691200)
I0721 09:17:35.765622 146637 net.cpp:165] Memory required for data: 1702462048
I0721 09:17:35.765632 146637 layer_factory.hpp:76] Creating layer pool6
I0721 09:17:35.765657 146637 net.cpp:106] Creating Layer pool6
I0721 09:17:35.765666 146637 net.cpp:454] pool6 <- conv72
I0721 09:17:35.765677 146637 net.cpp:411] pool6 -> pool6
I0721 09:17:35.766062 146637 net.cpp:150] Setting up pool6
I0721 09:17:35.766098 146637 net.cpp:157] Top shape: 8 96 15 15 (172800)
I0721 09:17:35.766108 146637 net.cpp:165] Memory required for data: 1703153248
I0721 09:17:35.766118 146637 layer_factory.hpp:76] Creating layer conv81
I0721 09:17:35.766134 146637 net.cpp:106] Creating Layer conv81
I0721 09:17:35.766142 146637 net.cpp:454] conv81 <- pool6
I0721 09:17:35.766156 146637 net.cpp:411] conv81 -> conv81
I0721 09:17:35.768457 146637 net.cpp:150] Setting up conv81
I0721 09:17:35.768491 146637 net.cpp:157] Top shape: 8 128 15 15 (230400)
I0721 09:17:35.768501 146637 net.cpp:165] Memory required for data: 1704074848
I0721 09:17:35.768512 146637 layer_factory.hpp:76] Creating layer relu81
I0721 09:17:35.768525 146637 net.cpp:106] Creating Layer relu81
I0721 09:17:35.768534 146637 net.cpp:454] relu81 <- conv81
I0721 09:17:35.768546 146637 net.cpp:397] relu81 -> conv81 (in-place)
I0721 09:17:35.768733 146637 net.cpp:150] Setting up relu81
I0721 09:17:35.768748 146637 net.cpp:157] Top shape: 8 128 15 15 (230400)
I0721 09:17:35.768769 146637 net.cpp:165] Memory required for data: 1704996448
I0721 09:17:35.768780 146637 layer_factory.hpp:76] Creating layer conv82
I0721 09:17:35.768795 146637 net.cpp:106] Creating Layer conv82
I0721 09:17:35.768805 146637 net.cpp:454] conv82 <- conv81
I0721 09:17:35.768815 146637 net.cpp:411] conv82 -> conv82
I0721 09:17:35.770923 146637 net.cpp:150] Setting up conv82
I0721 09:17:35.770956 146637 net.cpp:157] Top shape: 8 128 15 15 (230400)
I0721 09:17:35.770965 146637 net.cpp:165] Memory required for data: 1705918048
I0721 09:17:35.770977 146637 layer_factory.hpp:76] Creating layer relu82
I0721 09:17:35.770988 146637 net.cpp:106] Creating Layer relu82
I0721 09:17:35.770998 146637 net.cpp:454] relu82 <- conv82
I0721 09:17:35.771010 146637 net.cpp:397] relu82 -> conv82 (in-place)
I0721 09:17:35.771205 146637 net.cpp:150] Setting up relu82
I0721 09:17:35.771232 146637 net.cpp:157] Top shape: 8 128 15 15 (230400)
I0721 09:17:35.771245 146637 net.cpp:165] Memory required for data: 1706839648
I0721 09:17:35.771280 146637 layer_factory.hpp:76] Creating layer pool7
I0721 09:17:35.771309 146637 net.cpp:106] Creating Layer pool7
I0721 09:17:35.771319 146637 net.cpp:454] pool7 <- conv82
I0721 09:17:35.771343 146637 net.cpp:411] pool7 -> pool7
I0721 09:17:35.771719 146637 net.cpp:150] Setting up pool7
I0721 09:17:35.771750 146637 net.cpp:157] Top shape: 8 128 8 8 (65536)
I0721 09:17:35.771759 146637 net.cpp:165] Memory required for data: 1707101792
I0721 09:17:35.771767 146637 layer_factory.hpp:76] Creating layer drop0
I0721 09:17:35.771778 146637 net.cpp:106] Creating Layer drop0
I0721 09:17:35.771802 146637 net.cpp:454] drop0 <- pool7
I0721 09:17:35.771811 146637 net.cpp:397] drop0 -> pool7 (in-place)
I0721 09:17:35.771847 146637 net.cpp:150] Setting up drop0
I0721 09:17:35.771859 146637 net.cpp:157] Top shape: 8 128 8 8 (65536)
I0721 09:17:35.771867 146637 net.cpp:165] Memory required for data: 1707363936
I0721 09:17:35.771875 146637 layer_factory.hpp:76] Creating layer conv91
I0721 09:17:35.771896 146637 net.cpp:106] Creating Layer conv91
I0721 09:17:35.771908 146637 net.cpp:454] conv91 <- pool7
I0721 09:17:35.771930 146637 net.cpp:411] conv91 -> conv91
I0721 09:17:35.773221 146637 cudnn_conv_layer.cpp:194] Reallocating workspace storage: 98304
I0721 09:17:35.773267 146637 net.cpp:150] Setting up conv91
I0721 09:17:35.773283 146637 net.cpp:157] Top shape: 8 3 1 1 (24)
I0721 09:17:35.773291 146637 net.cpp:165] Memory required for data: 1707364032
I0721 09:17:35.773304 146637 layer_factory.hpp:76] Creating layer conv91_conv91_0_split
I0721 09:17:35.773316 146637 net.cpp:106] Creating Layer conv91_conv91_0_split
I0721 09:17:35.773325 146637 net.cpp:454] conv91_conv91_0_split <- conv91
I0721 09:17:35.773335 146637 net.cpp:411] conv91_conv91_0_split -> conv91_conv91_0_split_0
I0721 09:17:35.773347 146637 net.cpp:411] conv91_conv91_0_split -> conv91_conv91_0_split_1
I0721 09:17:35.773399 146637 net.cpp:150] Setting up conv91_conv91_0_split
I0721 09:17:35.773412 146637 net.cpp:157] Top shape: 8 3 1 1 (24)
I0721 09:17:35.773422 146637 net.cpp:157] Top shape: 8 3 1 1 (24)
I0721 09:17:35.773429 146637 net.cpp:165] Memory required for data: 1707364224
I0721 09:17:35.773437 146637 layer_factory.hpp:76] Creating layer accuracy
I0721 09:17:35.773448 146637 net.cpp:106] Creating Layer accuracy
I0721 09:17:35.773457 146637 net.cpp:454] accuracy <- conv91_conv91_0_split_0
I0721 09:17:35.773465 146637 net.cpp:454] accuracy <- label_data_1_split_0
I0721 09:17:35.773478 146637 net.cpp:411] accuracy -> accuracy
…
