…
I0721 08:34:37.709683 131090 net.cpp:49] Initializing net from parameters: 
name: "Net"
state {
  phase: TRAIN
}
layer {
  name: "data"
  type: "Python"
  top: "data"
  top: "label"
  include {
    phase: TRAIN
  }
  python_param {
    module: "mask_image_layer"
    layer: "random_patches_from_images_withlabel"
    param_str: "{\'root_folder\': \'/home/dywang/Proliferation/data/mitoses\', \'image_list\': \'/home/dywang/Proliferation/data/mitoses/all_image_withlabel_mc13_tr.lst\', \'seed\': 8899, \'mean\': (128, 128, 128), \'size\': 64, \'batch\': 256, \'scale\':0.1, \'colorn\':10}"
  }
}
layer {
  name: "conv11"
  type: "Convolution"
  bottom: "data"
  top: "conv11"
  param {
    lr_mult: 1
    decay_mult: 1
  }
  param {
    lr_mult: 2
    decay_mult: 0
  }
  convolution_param {
    num_output: 32
    pad: 0
    stride: 1
    weight_filler {
      type: "xavier"
    }
    bias_filler {
      type: "constant"
    }
    kernel_h: 3
    kernel_w: 3
  }
}
layer {
  name: "relu11"
  type: "ReLU"
  bottom: "conv11"
  top: "conv11"
}
layer {
  name: "conv12"
  type: "Convolution"
  bottom: "conv11"
  top: "conv12"
  param {
    lr_mult: 1
    decay_mult: 1
  }
  param {
    lr_mult: 2
    decay_mult: 0
  }
  convolution_param {
    num_output: 32
    pad: 0
    stride: 1
    weight_filler {
      type: "xavier"
    }
    bias_filler {
      type: "constant"
    }
    kernel_h: 3
    kernel_w: 3
  }
}
layer {
  name: "relu12"
  type: "ReLU"
  bottom: "conv12"
  top: "conv12"
}
layer {
  name: "pool1"
  type: "Pooling"
  bottom: "conv12"
  top: "pool1"
  pooling_param {
    pool: MAX
    kernel_size: 2
    stride: 2
  }
}
layer {
  name: "conv21"
  type: "Convolution"
  bottom: "pool1"
  top: "conv21"
  param {
    lr_mult: 1
    decay_mult: 1
  }
  param {
    lr_mult: 2
    decay_mult: 0
  }
  convolution_param {
    num_output: 64
    pad: 0
    stride: 1
    weight_filler {
      type: "xavier"
    }
    bias_filler {
      type: "constant"
    }
    kernel_h: 3
    kernel_w: 3
  }
}
layer {
  name: "relu21"
  type: "ReLU"
  bottom: "conv21"
  top: "conv21"
}
layer {
  name: "conv22"
  type: "Convolution"
  bottom: "conv21"
  top: "conv22"
  param {
    lr_mult: 1
    decay_mult: 1
  }
  param {
    lr_mult: 2
    decay_mult: 0
  }
  convolution_param {
    num_output: 64
    pad: 0
    stride: 1
    weight_filler {
      type: "xavier"
    }
    bias_filler {
      type: "constant"
    }
    kernel_h: 3
    kernel_w: 3
  }
}
layer {
  name: "relu22"
  type: "ReLU"
  bottom: "conv22"
  top: "conv22"
}
layer {
  name: "pool2"
  type: "Pooling"
  bottom: "conv22"
  top: "pool2"
  pooling_param {
    pool: MAX
    kernel_size: 2
    stride: 2
  }
}
layer {
  name: "conv31"
  type: "Convolution"
  bottom: "pool2"
  top: "conv31"
  param {
    lr_mult: 1
    decay_mult: 1
  }
  param {
    lr_mult: 2
    decay_mult: 0
  }
  convolution_param {
    num_output: 128
    pad: 0
    stride: 1
    weight_filler {
      type: "xavier"
    }
    bias_filler {
      type: "constant"
    }
    kernel_h: 3
    kernel_w: 3
  }
}
layer {
  name: "relu31"
  type: "ReLU"
  bottom: "conv31"
  top: "conv31"
}
layer {
  name: "conv32"
  type: "Convolution"
  bottom: "conv31"
  top: "conv32"
  param {
    lr_mult: 1
    decay_mult: 1
  }
  param {
    lr_mult: 2
    decay_mult: 0
  }
  convolution_param {
    num_output: 128
    pad: 0
    stride: 1
    weight_filler {
      type: "xavier"
    }
    bias_filler {
      type: "constant"
    }
    kernel_h: 3
    kernel_w: 3
  }
}
layer {
  name: "relu32"
  type: "ReLU"
  bottom: "conv32"
  top: "conv32"
}
layer {
  name: "pool3"
  type: "Pooling"
  bottom: "conv32"
  top: "pool3"
  pooling_param {
    pool: MAX
    kernel_size: 3
    stride: 3
  }
}
layer {
  name: "conv4"
  type: "Convolution"
  bottom: "pool3"
  top: "conv4"
  param {
    lr_mult: 1
    decay_mult: 1
  }
  param {
    lr_mult: 2
    decay_mult: 0
  }
  convolution_param {
    num_output: 256
    pad: 0
    stride: 1
    weight_filler {
      type: "xavier"
    }
    bias_filler {
      type: "constant"
    }
    kernel_h: 3
    kernel_w: 3
  }
}
layer {
  name: "relu4"
  type: "ReLU"
  bottom: "conv4"
  top: "conv4"
}
layer {
  name: "drop"
  type: "Dropout"
  bottom: "conv4"
  top: "conv4"
  dropout_param {
    dropout_ratio: 0.5
  }
}
layer {
  name: "conv_c"
  type: "Convolution"
  bottom: "conv4"
  top: "conv_c"
  param {
    lr_mult: 1
    decay_mult: 1
  }
  param {
    lr_mult: 2
    decay_mult: 0
  }
  convolution_param {
    num_output: 256
    pad: 0
    stride: 1
    weight_filler {
      type: "xavier"
    }
    bias_filler {
      type: "constant"
    }
    kernel_h: 1
    kernel_w: 1
  }
}
layer {
  name: "loss"
  type: "SoftmaxWithLoss"
  bottom: "conv_c"
  bottom: "label"
  top: "loss"
}
I0721 08:34:37.710829 131090 layer_factory.hpp:76] Creating layer data
I0721 08:34:39.657048 131090 net.cpp:106] Creating Layer data
I0721 08:34:39.657095 131090 net.cpp:411] data -> data
I0721 08:34:39.657122 131090 net.cpp:411] data -> label
I0721 08:34:42.080996 131090 net.cpp:150] Setting up data
I0721 08:34:42.081068 131090 net.cpp:157] Top shape: 256 3 64 64 (3145728)
I0721 08:34:42.081082 131090 net.cpp:157] Top shape: 256 1 1 1 (256)
I0721 08:34:42.081090 131090 net.cpp:165] Memory required for data: 12583936
I0721 08:34:42.081109 131090 layer_factory.hpp:76] Creating layer conv11
I0721 08:34:42.081161 131090 net.cpp:106] Creating Layer conv11
I0721 08:34:42.081174 131090 net.cpp:454] conv11 <- data
I0721 08:34:42.081212 131090 net.cpp:411] conv11 -> conv11
I0721 08:34:42.346987 131090 net.cpp:150] Setting up conv11
I0721 08:34:42.347028 131090 net.cpp:157] Top shape: 256 32 62 62 (31490048)
I0721 08:34:42.347038 131090 net.cpp:165] Memory required for data: 138544128
I0721 08:34:42.347062 131090 layer_factory.hpp:76] Creating layer relu11
I0721 08:34:42.347091 131090 net.cpp:106] Creating Layer relu11
I0721 08:34:42.347102 131090 net.cpp:454] relu11 <- conv11
I0721 08:34:42.347112 131090 net.cpp:397] relu11 -> conv11 (in-place)
I0721 08:34:42.347326 131090 net.cpp:150] Setting up relu11
I0721 08:34:42.347352 131090 net.cpp:157] Top shape: 256 32 62 62 (31490048)
I0721 08:34:42.347359 131090 net.cpp:165] Memory required for data: 264504320
I0721 08:34:42.347380 131090 layer_factory.hpp:76] Creating layer conv12
I0721 08:34:42.347404 131090 net.cpp:106] Creating Layer conv12
I0721 08:34:42.347411 131090 net.cpp:454] conv12 <- conv11
I0721 08:34:42.347421 131090 net.cpp:411] conv12 -> conv12
I0721 08:34:42.348937 131090 net.cpp:150] Setting up conv12
I0721 08:34:42.348956 131090 net.cpp:157] Top shape: 256 32 60 60 (29491200)
I0721 08:34:42.348963 131090 net.cpp:165] Memory required for data: 382469120
I0721 08:34:42.348979 131090 layer_factory.hpp:76] Creating layer relu12
I0721 08:34:42.348990 131090 net.cpp:106] Creating Layer relu12
I0721 08:34:42.348997 131090 net.cpp:454] relu12 <- conv12
I0721 08:34:42.349006 131090 net.cpp:397] relu12 -> conv12 (in-place)
I0721 08:34:42.349319 131090 net.cpp:150] Setting up relu12
I0721 08:34:42.349336 131090 net.cpp:157] Top shape: 256 32 60 60 (29491200)
I0721 08:34:42.349344 131090 net.cpp:165] Memory required for data: 500433920
I0721 08:34:42.349351 131090 layer_factory.hpp:76] Creating layer pool1
I0721 08:34:42.349364 131090 net.cpp:106] Creating Layer pool1
I0721 08:34:42.349372 131090 net.cpp:454] pool1 <- conv12
I0721 08:34:42.349380 131090 net.cpp:411] pool1 -> pool1
I0721 08:34:42.364193 131090 net.cpp:150] Setting up pool1
I0721 08:34:42.364246 131090 net.cpp:157] Top shape: 256 32 30 30 (7372800)
I0721 08:34:42.364262 131090 net.cpp:165] Memory required for data: 529925120
I0721 08:34:42.364271 131090 layer_factory.hpp:76] Creating layer conv21
I0721 08:34:42.364287 131090 net.cpp:106] Creating Layer conv21
I0721 08:34:42.364296 131090 net.cpp:454] conv21 <- pool1
I0721 08:34:42.364306 131090 net.cpp:411] conv21 -> conv21
I0721 08:34:42.365964 131090 net.cpp:150] Setting up conv21
I0721 08:34:42.365984 131090 net.cpp:157] Top shape: 256 64 28 28 (12845056)
I0721 08:34:42.365993 131090 net.cpp:165] Memory required for data: 581305344
I0721 08:34:42.366005 131090 layer_factory.hpp:76] Creating layer relu21
I0721 08:34:42.366019 131090 net.cpp:106] Creating Layer relu21
I0721 08:34:42.366026 131090 net.cpp:454] relu21 <- conv21
I0721 08:34:42.366034 131090 net.cpp:397] relu21 -> conv21 (in-place)
I0721 08:34:42.366360 131090 net.cpp:150] Setting up relu21
I0721 08:34:42.366377 131090 net.cpp:157] Top shape: 256 64 28 28 (12845056)
I0721 08:34:42.366384 131090 net.cpp:165] Memory required for data: 632685568
I0721 08:34:42.366391 131090 layer_factory.hpp:76] Creating layer conv22
I0721 08:34:42.366408 131090 net.cpp:106] Creating Layer conv22
I0721 08:34:42.366417 131090 net.cpp:454] conv22 <- conv21
I0721 08:34:42.366426 131090 net.cpp:411] conv22 -> conv22
I0721 08:34:42.367454 131090 net.cpp:150] Setting up conv22
I0721 08:34:42.367472 131090 net.cpp:157] Top shape: 256 64 26 26 (11075584)
I0721 08:34:42.367480 131090 net.cpp:165] Memory required for data: 676987904
I0721 08:34:42.367491 131090 layer_factory.hpp:76] Creating layer relu22
I0721 08:34:42.367499 131090 net.cpp:106] Creating Layer relu22
I0721 08:34:42.367507 131090 net.cpp:454] relu22 <- conv22
I0721 08:34:42.367517 131090 net.cpp:397] relu22 -> conv22 (in-place)
I0721 08:34:42.367858 131090 net.cpp:150] Setting up relu22
I0721 08:34:42.367877 131090 net.cpp:157] Top shape: 256 64 26 26 (11075584)
I0721 08:34:42.367883 131090 net.cpp:165] Memory required for data: 721290240
I0721 08:34:42.367890 131090 layer_factory.hpp:76] Creating layer pool2
I0721 08:34:42.367904 131090 net.cpp:106] Creating Layer pool2
I0721 08:34:42.367911 131090 net.cpp:454] pool2 <- conv22
I0721 08:34:42.367920 131090 net.cpp:411] pool2 -> pool2
I0721 08:34:42.368144 131090 net.cpp:150] Setting up pool2
I0721 08:34:42.368162 131090 net.cpp:157] Top shape: 256 64 13 13 (2768896)
I0721 08:34:42.368170 131090 net.cpp:165] Memory required for data: 732365824
I0721 08:34:42.368176 131090 layer_factory.hpp:76] Creating layer conv31
I0721 08:34:42.368191 131090 net.cpp:106] Creating Layer conv31
I0721 08:34:42.368198 131090 net.cpp:454] conv31 <- pool2
I0721 08:34:42.368208 131090 net.cpp:411] conv31 -> conv31
I0721 08:34:42.370105 131090 cudnn_conv_layer.cpp:194] Reallocating workspace storage: 6912
I0721 08:34:42.370362 131090 net.cpp:150] Setting up conv31
I0721 08:34:42.370378 131090 net.cpp:157] Top shape: 256 128 11 11 (3964928)
I0721 08:34:42.370385 131090 net.cpp:165] Memory required for data: 748225536
I0721 08:34:42.370398 131090 layer_factory.hpp:76] Creating layer relu31
I0721 08:34:42.370411 131090 net.cpp:106] Creating Layer relu31
I0721 08:34:42.370419 131090 net.cpp:454] relu31 <- conv31
I0721 08:34:42.370426 131090 net.cpp:397] relu31 -> conv31 (in-place)
I0721 08:34:42.370775 131090 net.cpp:150] Setting up relu31
I0721 08:34:42.370792 131090 net.cpp:157] Top shape: 256 128 11 11 (3964928)
I0721 08:34:42.370800 131090 net.cpp:165] Memory required for data: 764085248
I0721 08:34:42.370807 131090 layer_factory.hpp:76] Creating layer conv32
I0721 08:34:42.370825 131090 net.cpp:106] Creating Layer conv32
I0721 08:34:42.370831 131090 net.cpp:454] conv32 <- conv31
I0721 08:34:42.370841 131090 net.cpp:411] conv32 -> conv32
I0721 08:34:42.372632 131090 cudnn_conv_layer.cpp:194] Reallocating workspace storage: 13824
I0721 08:34:42.372660 131090 net.cpp:150] Setting up conv32
I0721 08:34:42.372673 131090 net.cpp:157] Top shape: 256 128 9 9 (2654208)
I0721 08:34:42.372679 131090 net.cpp:165] Memory required for data: 774702080
I0721 08:34:42.372705 131090 layer_factory.hpp:76] Creating layer relu32
I0721 08:34:42.372715 131090 net.cpp:106] Creating Layer relu32
I0721 08:34:42.372723 131090 net.cpp:454] relu32 <- conv32
I0721 08:34:42.372732 131090 net.cpp:397] relu32 -> conv32 (in-place)
I0721 08:34:42.372937 131090 net.cpp:150] Setting up relu32
I0721 08:34:42.372954 131090 net.cpp:157] Top shape: 256 128 9 9 (2654208)
I0721 08:34:42.372962 131090 net.cpp:165] Memory required for data: 785318912
I0721 08:34:42.372969 131090 layer_factory.hpp:76] Creating layer pool3
I0721 08:34:42.372980 131090 net.cpp:106] Creating Layer pool3
I0721 08:34:42.372987 131090 net.cpp:454] pool3 <- conv32
I0721 08:34:42.372995 131090 net.cpp:411] pool3 -> pool3
I0721 08:34:42.373359 131090 net.cpp:150] Setting up pool3
I0721 08:34:42.373376 131090 net.cpp:157] Top shape: 256 128 3 3 (294912)
I0721 08:34:42.373383 131090 net.cpp:165] Memory required for data: 786498560
I0721 08:34:42.373390 131090 layer_factory.hpp:76] Creating layer conv4
I0721 08:34:42.373406 131090 net.cpp:106] Creating Layer conv4
I0721 08:34:42.373414 131090 net.cpp:454] conv4 <- pool3
I0721 08:34:42.373426 131090 net.cpp:411] conv4 -> conv4
I0721 08:34:42.376602 131090 cudnn_conv_layer.cpp:194] Reallocating workspace storage: 3538944
I0721 08:34:42.376879 131090 net.cpp:150] Setting up conv4
I0721 08:34:42.376907 131090 net.cpp:157] Top shape: 256 256 1 1 (65536)
I0721 08:34:42.376915 131090 net.cpp:165] Memory required for data: 786760704
I0721 08:34:42.376930 131090 layer_factory.hpp:76] Creating layer relu4
I0721 08:34:42.376941 131090 net.cpp:106] Creating Layer relu4
I0721 08:34:42.376950 131090 net.cpp:454] relu4 <- conv4
I0721 08:34:42.376960 131090 net.cpp:397] relu4 -> conv4 (in-place)
I0721 08:34:42.377306 131090 net.cpp:150] Setting up relu4
I0721 08:34:42.377334 131090 net.cpp:157] Top shape: 256 256 1 1 (65536)
I0721 08:34:42.377343 131090 net.cpp:165] Memory required for data: 787022848
I0721 08:34:42.377351 131090 layer_factory.hpp:76] Creating layer drop
I0721 08:34:42.377365 131090 net.cpp:106] Creating Layer drop
I0721 08:34:42.377374 131090 net.cpp:454] drop <- conv4
I0721 08:34:42.377383 131090 net.cpp:397] drop -> conv4 (in-place)
I0721 08:34:42.377418 131090 net.cpp:150] Setting up drop
I0721 08:34:42.377442 131090 net.cpp:157] Top shape: 256 256 1 1 (65536)
I0721 08:34:42.377450 131090 net.cpp:165] Memory required for data: 787284992
I0721 08:34:42.377459 131090 layer_factory.hpp:76] Creating layer conv_c
I0721 08:34:42.377485 131090 net.cpp:106] Creating Layer conv_c
I0721 08:34:42.377495 131090 net.cpp:454] conv_c <- conv4
I0721 08:34:42.377506 131090 net.cpp:411] conv_c -> conv_c
I0721 08:34:42.379063 131090 cudnn_conv_layer.cpp:194] Reallocating workspace storage: 3072
I0721 08:34:42.379359 131090 net.cpp:150] Setting up conv_c
I0721 08:34:42.379386 131090 net.cpp:157] Top shape: 256 256 1 1 (65536)
I0721 08:34:42.379395 131090 net.cpp:165] Memory required for data: 787547136
I0721 08:34:42.379405 131090 layer_factory.hpp:76] Creating layer loss
I0721 08:34:42.379422 131090 net.cpp:106] Creating Layer loss
I0721 08:34:42.379431 131090 net.cpp:454] loss <- conv_c
I0721 08:34:42.379441 131090 net.cpp:454] loss <- label
I0721 08:34:42.379451 131090 net.cpp:411] loss -> loss
I0721 08:34:42.379470 131090 layer_factory.hpp:76] Creating layer loss
…
I0721 08:34:42.380874 131090 net.cpp:49] Initializing net from parameters: 
name: "Net"
state {
  phase: TEST
}
layer {
  name: "data"
  type: "Python"
  top: "data"
  top: "label"
  include {
    phase: TEST
  }
  python_param {
    module: "mask_image_layer"
    layer: "random_patches_from_images_withlabel"
    param_str: "{\'root_folder\': \'/home/dywang/Proliferation/data/mitoses\', \'image_list\': \'/home/dywang/Proliferation/data/mitoses/all_image_withlabel_mc13_te.lst\', \'seed\': 8899, \'mean\': (128, 128, 128), \'size\': 64, \'batch\': 256, \'scale\':0.1, \'colorn\':10}"
  }
}
layer {
  name: "conv11"
  type: "Convolution"
  bottom: "data"
  top: "conv11"
  param {
    lr_mult: 1
    decay_mult: 1
  }
  param {
    lr_mult: 2
    decay_mult: 0
  }
  convolution_param {
    num_output: 32
    pad: 0
    stride: 1
    weight_filler {
      type: "xavier"
    }
    bias_filler {
      type: "constant"
    }
    kernel_h: 3
    kernel_w: 3
  }
}
layer {
  name: "relu11"
  type: "ReLU"
  bottom: "conv11"
  top: "conv11"
}
layer {
  name: "conv12"
  type: "Convolution"
  bottom: "conv11"
  top: "conv12"
  param {
    lr_mult: 1
    decay_mult: 1
  }
  param {
    lr_mult: 2
    decay_mult: 0
  }
  convolution_param {
    num_output: 32
    pad: 0
    stride: 1
    weight_filler {
      type: "xavier"
    }
    bias_filler {
      type: "constant"
    }
    kernel_h: 3
    kernel_w: 3
  }
}
layer {
  name: "relu12"
  type: "ReLU"
  bottom: "conv12"
  top: "conv12"
}
layer {
  name: "pool1"
  type: "Pooling"
  bottom: "conv12"
  top: "pool1"
  pooling_param {
    pool: MAX
    kernel_size: 2
    stride: 2
  }
}
layer {
  name: "conv21"
  type: "Convolution"
  bottom: "pool1"
  top: "conv21"
  param {
    lr_mult: 1
    decay_mult: 1
  }
  param {
    lr_mult: 2
    decay_mult: 0
  }
  convolution_param {
    num_output: 64
    pad: 0
    stride: 1
    weight_filler {
      type: "xavier"
    }
    bias_filler {
      type: "constant"
    }
    kernel_h: 3
    kernel_w: 3
  }
}
layer {
  name: "relu21"
  type: "ReLU"
  bottom: "conv21"
  top: "conv21"
}
layer {
  name: "conv22"
  type: "Convolution"
  bottom: "conv21"
  top: "conv22"
  param {
    lr_mult: 1
    decay_mult: 1
  }
  param {
    lr_mult: 2
    decay_mult: 0
  }
  convolution_param {
    num_output: 64
    pad: 0
    stride: 1
    weight_filler {
      type: "xavier"
    }
    bias_filler {
      type: "constant"
    }
    kernel_h: 3
    kernel_w: 3
  }
}
layer {
  name: "relu22"
  type: "ReLU"
  bottom: "conv22"
  top: "conv22"
}
layer {
  name: "pool2"
  type: "Pooling"
  bottom: "conv22"
  top: "pool2"
  pooling_param {
    pool: MAX
    kernel_size: 2
    stride: 2
  }
}
layer {
  name: "conv31"
  type: "Convolution"
  bottom: "pool2"
  top: "conv31"
  param {
    lr_mult: 1
    decay_mult: 1
  }
  param {
    lr_mult: 2
    decay_mult: 0
  }
  convolution_param {
    num_output: 128
    pad: 0
    stride: 1
    weight_filler {
      type: "xavier"
    }
    bias_filler {
      type: "constant"
    }
    kernel_h: 3
    kernel_w: 3
  }
}
layer {
  name: "relu31"
  type: "ReLU"
  bottom: "conv31"
  top: "conv31"
}
layer {
  name: "conv32"
  type: "Convolution"
  bottom: "conv31"
  top: "conv32"
  param {
    lr_mult: 1
    decay_mult: 1
  }
  param {
    lr_mult: 2
    decay_mult: 0
  }
  convolution_param {
    num_output: 128
    pad: 0
    stride: 1
    weight_filler {
      type: "xavier"
    }
    bias_filler {
      type: "constant"
    }
    kernel_h: 3
    kernel_w: 3
  }
}
layer {
  name: "relu32"
  type: "ReLU"
  bottom: "conv32"
  top: "conv32"
}
layer {
  name: "pool3"
  type: "Pooling"
  bottom: "conv32"
  top: "pool3"
  pooling_param {
    pool: MAX
    kernel_size: 3
    stride: 3
  }
}
layer {
  name: "conv4"
  type: "Convolution"
  bottom: "pool3"
  top: "conv4"
  param {
    lr_mult: 1
    decay_mult: 1
  }
  param {
    lr_mult: 2
    decay_mult: 0
  }
  convolution_param {
    num_output: 256
    pad: 0
    stride: 1
    weight_filler {
      type: "xavier"
    }
    bias_filler {
      type: "constant"
    }
    kernel_h: 3
    kernel_w: 3
  }
}
layer {
  name: "relu4"
  type: "ReLU"
  bottom: "conv4"
  top: "conv4"
}
layer {
  name: "drop"
  type: "Dropout"
  bottom: "conv4"
  top: "conv4"
  dropout_param {
    dropout_ratio: 0.5
  }
}
layer {
  name: "conv_c"
  type: "Convolution"
  bottom: "conv4"
  top: "conv_c"
  param {
    lr_mult: 1
    decay_mult: 1
  }
  param {
    lr_mult: 2
    decay_mult: 0
  }
  convolution_param {
    num_output: 256
    pad: 0
    stride: 1
    weight_filler {
      type: "xavier"
    }
    bias_filler {
      type: "constant"
    }
    kernel_h: 1
    kernel_w: 1
  }
}
layer {
  name: "accuracy"
  type: "Accuracy"
  bottom: "conv_c"
  bottom: "label"
  top: "accuracy"
  include {
    phase: TEST
  }
}
layer {
  name: "loss"
  type: "SoftmaxWithLoss"
  bottom: "conv_c"
  bottom: "label"
  top: "loss"
}
I0721 08:34:42.381857 131090 layer_factory.hpp:76] Creating layer data
I0721 08:34:42.382037 131090 net.cpp:106] Creating Layer data
I0721 08:34:42.382052 131090 net.cpp:411] data -> data
I0721 08:34:42.382092 131090 net.cpp:411] data -> label
I0721 08:34:43.719104 131090 net.cpp:150] Setting up data
I0721 08:34:43.719151 131090 net.cpp:157] Top shape: 256 3 64 64 (3145728)
I0721 08:34:43.719161 131090 net.cpp:157] Top shape: 256 1 1 1 (256)
I0721 08:34:43.719169 131090 net.cpp:165] Memory required for data: 12583936
I0721 08:34:43.719180 131090 layer_factory.hpp:76] Creating layer label_data_1_split
I0721 08:34:43.738346 131090 net.cpp:106] Creating Layer label_data_1_split
I0721 08:34:43.738394 131090 net.cpp:454] label_data_1_split <- label
I0721 08:34:43.738432 131090 net.cpp:411] label_data_1_split -> label_data_1_split_0
I0721 08:34:43.738447 131090 net.cpp:411] label_data_1_split -> label_data_1_split_1
I0721 08:34:43.738509 131090 net.cpp:150] Setting up label_data_1_split
I0721 08:34:43.738523 131090 net.cpp:157] Top shape: 256 1 1 1 (256)
I0721 08:34:43.738533 131090 net.cpp:157] Top shape: 256 1 1 1 (256)
I0721 08:34:43.738553 131090 net.cpp:165] Memory required for data: 12585984
I0721 08:34:43.738560 131090 layer_factory.hpp:76] Creating layer conv11
I0721 08:34:43.738577 131090 net.cpp:106] Creating Layer conv11
I0721 08:34:43.738603 131090 net.cpp:454] conv11 <- data
I0721 08:34:43.738626 131090 net.cpp:411] conv11 -> conv11
I0721 08:34:43.739748 131090 net.cpp:150] Setting up conv11
I0721 08:34:43.739768 131090 net.cpp:157] Top shape: 256 32 62 62 (31490048)
I0721 08:34:43.739778 131090 net.cpp:165] Memory required for data: 138546176
I0721 08:34:43.739792 131090 layer_factory.hpp:76] Creating layer relu11
I0721 08:34:43.739841 131090 net.cpp:106] Creating Layer relu11
I0721 08:34:43.739851 131090 net.cpp:454] relu11 <- conv11
I0721 08:34:43.739861 131090 net.cpp:397] relu11 -> conv11 (in-place)
I0721 08:34:43.740217 131090 net.cpp:150] Setting up relu11
I0721 08:34:43.740236 131090 net.cpp:157] Top shape: 256 32 62 62 (31490048)
I0721 08:34:43.740243 131090 net.cpp:165] Memory required for data: 264506368
I0721 08:34:43.740250 131090 layer_factory.hpp:76] Creating layer conv12
I0721 08:34:43.740263 131090 net.cpp:106] Creating Layer conv12
I0721 08:34:43.740270 131090 net.cpp:454] conv12 <- conv11
I0721 08:34:43.740281 131090 net.cpp:411] conv12 -> conv12
I0721 08:34:43.741119 131090 net.cpp:150] Setting up conv12
I0721 08:34:43.741138 131090 net.cpp:157] Top shape: 256 32 60 60 (29491200)
I0721 08:34:43.741145 131090 net.cpp:165] Memory required for data: 382471168
I0721 08:34:43.741158 131090 layer_factory.hpp:76] Creating layer relu12
I0721 08:34:43.741168 131090 net.cpp:106] Creating Layer relu12
I0721 08:34:43.741175 131090 net.cpp:454] relu12 <- conv12
I0721 08:34:43.741185 131090 net.cpp:397] relu12 -> conv12 (in-place)
I0721 08:34:43.741493 131090 net.cpp:150] Setting up relu12
I0721 08:34:43.741511 131090 net.cpp:157] Top shape: 256 32 60 60 (29491200)
I0721 08:34:43.741518 131090 net.cpp:165] Memory required for data: 500435968
I0721 08:34:43.741526 131090 layer_factory.hpp:76] Creating layer pool1
I0721 08:34:43.741538 131090 net.cpp:106] Creating Layer pool1
I0721 08:34:43.741544 131090 net.cpp:454] pool1 <- conv12
I0721 08:34:43.741554 131090 net.cpp:411] pool1 -> pool1
I0721 08:34:43.741771 131090 net.cpp:150] Setting up pool1
I0721 08:34:43.741786 131090 net.cpp:157] Top shape: 256 32 30 30 (7372800)
I0721 08:34:43.741796 131090 net.cpp:165] Memory required for data: 529927168
I0721 08:34:43.741803 131090 layer_factory.hpp:76] Creating layer conv21
I0721 08:34:43.741814 131090 net.cpp:106] Creating Layer conv21
I0721 08:34:43.741822 131090 net.cpp:454] conv21 <- pool1
I0721 08:34:43.741832 131090 net.cpp:411] conv21 -> conv21
I0721 08:34:43.742863 131090 net.cpp:150] Setting up conv21
I0721 08:34:43.742883 131090 net.cpp:157] Top shape: 256 64 28 28 (12845056)
I0721 08:34:43.742892 131090 net.cpp:165] Memory required for data: 581307392
I0721 08:34:43.742904 131090 layer_factory.hpp:76] Creating layer relu21
I0721 08:34:43.742916 131090 net.cpp:106] Creating Layer relu21
I0721 08:34:43.742923 131090 net.cpp:454] relu21 <- conv21
I0721 08:34:43.742933 131090 net.cpp:397] relu21 -> conv21 (in-place)
I0721 08:34:43.743264 131090 net.cpp:150] Setting up relu21
I0721 08:34:43.743281 131090 net.cpp:157] Top shape: 256 64 28 28 (12845056)
I0721 08:34:43.743288 131090 net.cpp:165] Memory required for data: 632687616
I0721 08:34:43.743296 131090 layer_factory.hpp:76] Creating layer conv22
I0721 08:34:43.743309 131090 net.cpp:106] Creating Layer conv22
I0721 08:34:43.743316 131090 net.cpp:454] conv22 <- conv21
I0721 08:34:43.743326 131090 net.cpp:411] conv22 -> conv22
I0721 08:34:43.744470 131090 net.cpp:150] Setting up conv22
I0721 08:34:43.744490 131090 net.cpp:157] Top shape: 256 64 26 26 (11075584)
I0721 08:34:43.744498 131090 net.cpp:165] Memory required for data: 676989952
I0721 08:34:43.744508 131090 layer_factory.hpp:76] Creating layer relu22
I0721 08:34:43.744518 131090 net.cpp:106] Creating Layer relu22
I0721 08:34:43.744525 131090 net.cpp:454] relu22 <- conv22
I0721 08:34:43.744534 131090 net.cpp:397] relu22 -> conv22 (in-place)
I0721 08:34:43.744727 131090 net.cpp:150] Setting up relu22
I0721 08:34:43.744741 131090 net.cpp:157] Top shape: 256 64 26 26 (11075584)
I0721 08:34:43.744748 131090 net.cpp:165] Memory required for data: 721292288
I0721 08:34:43.744755 131090 layer_factory.hpp:76] Creating layer pool2
I0721 08:34:43.744765 131090 net.cpp:106] Creating Layer pool2
I0721 08:34:43.744772 131090 net.cpp:454] pool2 <- conv22
I0721 08:34:43.744781 131090 net.cpp:411] pool2 -> pool2
I0721 08:34:43.745112 131090 net.cpp:150] Setting up pool2
I0721 08:34:43.745144 131090 net.cpp:157] Top shape: 256 64 13 13 (2768896)
I0721 08:34:43.745152 131090 net.cpp:165] Memory required for data: 732367872
I0721 08:34:43.745160 131090 layer_factory.hpp:76] Creating layer conv31
I0721 08:34:43.745172 131090 net.cpp:106] Creating Layer conv31
I0721 08:34:43.745179 131090 net.cpp:454] conv31 <- pool2
I0721 08:34:43.745189 131090 net.cpp:411] conv31 -> conv31
I0721 08:34:43.746997 131090 cudnn_conv_layer.cpp:194] Reallocating workspace storage: 6912
I0721 08:34:43.747028 131090 net.cpp:150] Setting up conv31
I0721 08:34:43.747040 131090 net.cpp:157] Top shape: 256 128 11 11 (3964928)
I0721 08:34:43.747046 131090 net.cpp:165] Memory required for data: 748227584
I0721 08:34:43.747059 131090 layer_factory.hpp:76] Creating layer relu31
I0721 08:34:43.747071 131090 net.cpp:106] Creating Layer relu31
I0721 08:34:43.747077 131090 net.cpp:454] relu31 <- conv31
I0721 08:34:43.747087 131090 net.cpp:397] relu31 -> conv31 (in-place)
I0721 08:34:43.747390 131090 net.cpp:150] Setting up relu31
I0721 08:34:43.747407 131090 net.cpp:157] Top shape: 256 128 11 11 (3964928)
I0721 08:34:43.747416 131090 net.cpp:165] Memory required for data: 764087296
I0721 08:34:43.747422 131090 layer_factory.hpp:76] Creating layer conv32
I0721 08:34:43.747436 131090 net.cpp:106] Creating Layer conv32
I0721 08:34:43.747442 131090 net.cpp:454] conv32 <- conv31
I0721 08:34:43.747452 131090 net.cpp:411] conv32 -> conv32
I0721 08:34:43.749243 131090 cudnn_conv_layer.cpp:194] Reallocating workspace storage: 13824
I0721 08:34:43.749272 131090 net.cpp:150] Setting up conv32
I0721 08:34:43.749282 131090 net.cpp:157] Top shape: 256 128 9 9 (2654208)
I0721 08:34:43.749289 131090 net.cpp:165] Memory required for data: 774704128
I0721 08:34:43.749300 131090 layer_factory.hpp:76] Creating layer relu32
I0721 08:34:43.749310 131090 net.cpp:106] Creating Layer relu32
I0721 08:34:43.749317 131090 net.cpp:454] relu32 <- conv32
I0721 08:34:43.749326 131090 net.cpp:397] relu32 -> conv32 (in-place)
I0721 08:34:43.749521 131090 net.cpp:150] Setting up relu32
I0721 08:34:43.749534 131090 net.cpp:157] Top shape: 256 128 9 9 (2654208)
I0721 08:34:43.749541 131090 net.cpp:165] Memory required for data: 785320960
I0721 08:34:43.749548 131090 layer_factory.hpp:76] Creating layer pool3
I0721 08:34:43.749560 131090 net.cpp:106] Creating Layer pool3
I0721 08:34:43.749567 131090 net.cpp:454] pool3 <- conv32
I0721 08:34:43.749575 131090 net.cpp:411] pool3 -> pool3
I0721 08:34:43.749932 131090 net.cpp:150] Setting up pool3
I0721 08:34:43.749948 131090 net.cpp:157] Top shape: 256 128 3 3 (294912)
I0721 08:34:43.749956 131090 net.cpp:165] Memory required for data: 786500608
I0721 08:34:43.749963 131090 layer_factory.hpp:76] Creating layer conv4
I0721 08:34:43.749976 131090 net.cpp:106] Creating Layer conv4
I0721 08:34:43.749984 131090 net.cpp:454] conv4 <- pool3
I0721 08:34:43.749994 131090 net.cpp:411] conv4 -> conv4
I0721 08:34:43.753433 131090 cudnn_conv_layer.cpp:194] Reallocating workspace storage: 3538944
I0721 08:34:43.753677 131090 net.cpp:150] Setting up conv4
I0721 08:34:43.753693 131090 net.cpp:157] Top shape: 256 256 1 1 (65536)
I0721 08:34:43.753700 131090 net.cpp:165] Memory required for data: 786762752
I0721 08:34:43.753711 131090 layer_factory.hpp:76] Creating layer relu4
I0721 08:34:43.753721 131090 net.cpp:106] Creating Layer relu4
I0721 08:34:43.753728 131090 net.cpp:454] relu4 <- conv4
I0721 08:34:43.753737 131090 net.cpp:397] relu4 -> conv4 (in-place)
I0721 08:34:43.753916 131090 net.cpp:150] Setting up relu4
I0721 08:34:43.753942 131090 net.cpp:157] Top shape: 256 256 1 1 (65536)
I0721 08:34:43.753962 131090 net.cpp:165] Memory required for data: 787024896
I0721 08:34:43.753969 131090 layer_factory.hpp:76] Creating layer drop
I0721 08:34:43.753983 131090 net.cpp:106] Creating Layer drop
I0721 08:34:43.753990 131090 net.cpp:454] drop <- conv4
I0721 08:34:43.754000 131090 net.cpp:397] drop -> conv4 (in-place)
I0721 08:34:43.754042 131090 net.cpp:150] Setting up drop
I0721 08:34:43.754067 131090 net.cpp:157] Top shape: 256 256 1 1 (65536)
I0721 08:34:43.754091 131090 net.cpp:165] Memory required for data: 787287040
I0721 08:34:43.754099 131090 layer_factory.hpp:76] Creating layer conv_c
I0721 08:34:43.754112 131090 net.cpp:106] Creating Layer conv_c
I0721 08:34:43.754120 131090 net.cpp:454] conv_c <- conv4
I0721 08:34:43.754132 131090 net.cpp:411] conv_c -> conv_c
I0721 08:34:43.756062 131090 cudnn_conv_layer.cpp:194] Reallocating workspace storage: 3072
I0721 08:34:43.756090 131090 net.cpp:150] Setting up conv_c
I0721 08:34:43.756100 131090 net.cpp:157] Top shape: 256 256 1 1 (65536)
I0721 08:34:43.756108 131090 net.cpp:165] Memory required for data: 787549184
I0721 08:34:43.756117 131090 layer_factory.hpp:76] Creating layer conv_c_conv_c_0_split
I0721 08:34:43.756129 131090 net.cpp:106] Creating Layer conv_c_conv_c_0_split
I0721 08:34:43.756139 131090 net.cpp:454] conv_c_conv_c_0_split <- conv_c
I0721 08:34:43.756150 131090 net.cpp:411] conv_c_conv_c_0_split -> conv_c_conv_c_0_split_0
I0721 08:34:43.756160 131090 net.cpp:411] conv_c_conv_c_0_split -> conv_c_conv_c_0_split_1
I0721 08:34:43.756212 131090 net.cpp:150] Setting up conv_c_conv_c_0_split
I0721 08:34:43.756224 131090 net.cpp:157] Top shape: 256 256 1 1 (65536)
I0721 08:34:43.756233 131090 net.cpp:157] Top shape: 256 256 1 1 (65536)
I0721 08:34:43.756242 131090 net.cpp:165] Memory required for data: 788073472
I0721 08:34:43.756260 131090 layer_factory.hpp:76] Creating layer accuracy
I0721 08:34:43.756276 131090 net.cpp:106] Creating Layer accuracy
I0721 08:34:43.756286 131090 net.cpp:454] accuracy <- conv_c_conv_c_0_split_0
I0721 08:34:43.756306 131090 net.cpp:454] accuracy <- label_data_1_split_0
I0721 08:34:43.756316 131090 net.cpp:411] accuracy -> accuracy
…
