…
I0726 18:10:32.088670 81524 net.cpp:322] The NetState phase (0) differed from the phase (1) specified by a rule in layer data
I0726 18:10:32.088953 81524 net.cpp:49] Initializing net from parameters: 
name: "Result Layer 3 Stack"
state {
  phase: TRAIN
}
layer {
  name: "data"
  type: "ImageData"
  top: "data"
  top: "label"
  include {
    phase: TRAIN
  }
  transform_param {
    mirror: true
    mean_value: 150
    mean_value: 150
    mean_value: 150
  }
  image_data_param {
    source: "../lists/mitosis_train-norm.lst"
    batch_size: 16
    shuffle: true
    new_height: 1000
    new_width: 1000
  }
}
layer {
  name: "conv1"
  type: "Convolution"
  bottom: "data"
  top: "conv1"
  param {
    lr_mult: 0
    decay_mult: 0
  }
  param {
    lr_mult: 0
    decay_mult: 0
  }
  convolution_param {
    num_output: 16
    pad: 0
    kernel_size: 4
    stride: 1
  }
}
layer {
  name: "nonlin1"
  type: "ReLU"
  bottom: "conv1"
  top: "conv1"
}
layer {
  name: "pool1"
  type: "Pooling"
  bottom: "conv1"
  top: "pool1"
  pooling_param {
    pool: MAX
    kernel_size: 2
    stride: 2
  }
}
layer {
  name: "conv2"
  type: "Convolution"
  bottom: "pool1"
  top: "conv2"
  param {
    lr_mult: 0
    decay_mult: 0
  }
  param {
    lr_mult: 0
    decay_mult: 0
  }
  convolution_param {
    num_output: 16
    pad: 0
    kernel_size: 3
    stride: 1
  }
}
layer {
  name: "nonlin2"
  type: "ReLU"
  bottom: "conv2"
  top: "conv2"
}
layer {
  name: "pool2"
  type: "Pooling"
  bottom: "conv2"
  top: "pool2"
  pooling_param {
    pool: MAX
    kernel_size: 2
    stride: 2
  }
}
layer {
  name: "conv3"
  type: "Convolution"
  bottom: "pool2"
  top: "conv3"
  param {
    lr_mult: 0
    decay_mult: 0
  }
  param {
    lr_mult: 0
    decay_mult: 0
  }
  convolution_param {
    num_output: 16
    pad: 0
    kernel_size: 3
    stride: 1
  }
}
layer {
  name: "nonlin3"
  type: "ReLU"
  bottom: "conv3"
  top: "conv3"
}
layer {
  name: "pool3"
  type: "Pooling"
  bottom: "conv3"
  top: "pool3"
  pooling_param {
    pool: MAX
    kernel_size: 2
    stride: 2
  }
}
layer {
  name: "conv4"
  type: "Convolution"
  bottom: "pool3"
  top: "conv4"
  param {
    lr_mult: 0
    decay_mult: 0
  }
  param {
    lr_mult: 0
    decay_mult: 0
  }
  convolution_param {
    num_output: 16
    pad: 0
    kernel_size: 3
    stride: 1
  }
}
layer {
  name: "nonlin4"
  type: "ReLU"
  bottom: "conv4"
  top: "conv4"
}
layer {
  name: "pool4"
  type: "Pooling"
  bottom: "conv4"
  top: "pool4"
  pooling_param {
    pool: MAX
    kernel_size: 2
    stride: 2
  }
}
layer {
  name: "ip1_c"
  type: "Convolution"
  bottom: "pool4"
  top: "ip1"
  convolution_param {
    num_output: 200
    pad: 0
    kernel_size: 2
    stride: 1
  }
}
layer {
  name: "nonlin_ip1"
  type: "ReLU"
  bottom: "ip1"
  top: "ip1"
}
layer {
  name: "conv61"
  type: "Convolution"
  bottom: "ip1"
  top: "conv61"
  param {
    lr_mult: 1
    decay_mult: 1
  }
  param {
    lr_mult: 2
    decay_mult: 0
  }
  convolution_param {
    num_output: 64
    pad: 1
    stride: 1
    weight_filler {
      type: "xavier"
    }
    bias_filler {
      type: "constant"
    }
    kernel_h: 3
    kernel_w: 3
  }
}
layer {
  name: "relu61"
  type: "ReLU"
  bottom: "conv61"
  top: "conv61"
}
layer {
  name: "conv62"
  type: "Convolution"
  bottom: "conv61"
  top: "conv62"
  param {
    lr_mult: 1
    decay_mult: 1
  }
  param {
    lr_mult: 2
    decay_mult: 0
  }
  convolution_param {
    num_output: 64
    pad: 1
    stride: 1
    weight_filler {
      type: "xavier"
    }
    bias_filler {
      type: "constant"
    }
    kernel_h: 3
    kernel_w: 3
  }
}
layer {
  name: "relu62"
  type: "ReLU"
  bottom: "conv62"
  top: "conv62"
}
layer {
  name: "pool5"
  type: "Pooling"
  bottom: "conv62"
  top: "pool5"
  pooling_param {
    pool: MAX
    kernel_size: 2
    stride: 2
  }
}
layer {
  name: "conv71"
  type: "Convolution"
  bottom: "pool5"
  top: "conv71"
  param {
    lr_mult: 1
    decay_mult: 1
  }
  param {
    lr_mult: 2
    decay_mult: 0
  }
  convolution_param {
    num_output: 96
    pad: 1
    stride: 1
    weight_filler {
      type: "xavier"
    }
    bias_filler {
      type: "constant"
    }
    kernel_h: 3
    kernel_w: 3
  }
}
layer {
  name: "relu71"
  type: "ReLU"
  bottom: "conv71"
  top: "conv71"
}
layer {
  name: "conv72"
  type: "Convolution"
  bottom: "conv71"
  top: "conv72"
  param {
    lr_mult: 1
    decay_mult: 1
  }
  param {
    lr_mult: 2
    decay_mult: 0
  }
  convolution_param {
    num_output: 96
    pad: 1
    stride: 1
    weight_filler {
      type: "xavier"
    }
    bias_filler {
      type: "constant"
    }
    kernel_h: 3
    kernel_w: 3
  }
}
layer {
  name: "relu72"
  type: "ReLU"
  bottom: "conv72"
  top: "conv72"
}
layer {
  name: "pool6"
  type: "Pooling"
  bottom: "conv72"
  top: "pool6"
  pooling_param {
    pool: MAX
    kernel_size: 2
    stride: 2
  }
}
layer {
  name: "conv81"
  type: "Convolution"
  bottom: "pool6"
  top: "conv81"
  param {
    lr_mult: 1
    decay_mult: 1
  }
  param {
    lr_mult: 2
    decay_mult: 0
  }
  convolution_param {
    num_output: 128
    pad: 1
    stride: 1
    weight_filler {
      type: "xavier"
    }
    bias_filler {
      type: "constant"
    }
    kernel_h: 3
    kernel_w: 3
  }
}
layer {
  name: "relu81"
  type: "ReLU"
  bottom: "conv81"
  top: "conv81"
}
layer {
  name: "conv82"
  type: "Convolution"
  bottom: "conv81"
  top: "conv82"
  param {
    lr_mult: 1
    decay_mult: 1
  }
  param {
    lr_mult: 2
    decay_mult: 0
  }
  convolution_param {
    num_output: 128
    pad: 1
    stride: 1
    weight_filler {
      type: "xavier"
    }
    bias_filler {
      type: "constant"
    }
    kernel_h: 3
    kernel_w: 3
  }
}
layer {
  name: "relu82"
  type: "ReLU"
  bottom: "conv82"
  top: "conv82"
}
layer {
  name: "pool7"
  type: "Pooling"
  bottom: "conv82"
  top: "pool7"
  pooling_param {
    pool: AVE
    kernel_size: 2
    stride: 2
  }
}
layer {
  name: "drop0"
  type: "Dropout"
  bottom: "pool7"
  top: "pool7"
  dropout_param {
    dropout_ratio: 0.4
  }
}
layer {
  name: "conv91"
  type: "Convolution"
  bottom: "pool7"
  top: "conv91"
  param {
    lr_mult: 1
    decay_mult: 1
  }
  param {
    lr_mult: 2
    decay_mult: 0
  }
  convolution_param {
    num_output: 3
    stride: 1
    weight_filler {
      type: "xavier"
    }
    bias_filler {
      type: "constant"
    }
    kernel_h: 8
    kernel_w: 8
  }
}
layer {
  name: "accuracy"
  type: "Accuracy"
  bottom: "conv91"
  bottom: "label"
  top: "accuracy"
}
layer {
  name: "loss"
  type: "SoftmaxWithLoss"
  bottom: "conv91"
  bottom: "label"
  top: "loss"
}
I0726 18:10:32.090574 81524 layer_factory.hpp:76] Creating layer data
I0726 18:10:32.090652 81524 net.cpp:106] Creating Layer data
I0726 18:10:32.090679 81524 net.cpp:411] data -> data
I0726 18:10:32.090718 81524 net.cpp:411] data -> label
I0726 18:10:32.091215 81524 image_data_layer.cpp:36] Opening file ../lists/mitosis_train-norm.lst
I0726 18:10:32.102470 81524 image_data_layer.cpp:46] Shuffling data
I0726 18:10:32.105108 81524 image_data_layer.cpp:51] A total of 21360 images.
I0726 18:10:32.164692 81524 image_data_layer.cpp:78] output data size: 16,3,1000,1000
I0726 18:10:32.716553 81524 net.cpp:150] Setting up data
I0726 18:10:32.716604 81524 net.cpp:157] Top shape: 16 3 1000 1000 (48000000)
I0726 18:10:32.716615 81524 net.cpp:157] Top shape: 16 (16)
I0726 18:10:32.716624 81524 net.cpp:165] Memory required for data: 192000064
I0726 18:10:32.716637 81524 layer_factory.hpp:76] Creating layer label_data_1_split
I0726 18:10:32.716660 81524 net.cpp:106] Creating Layer label_data_1_split
I0726 18:10:32.716670 81524 net.cpp:454] label_data_1_split <- label
I0726 18:10:32.716718 81524 net.cpp:411] label_data_1_split -> label_data_1_split_0
I0726 18:10:32.716735 81524 net.cpp:411] label_data_1_split -> label_data_1_split_1
I0726 18:10:32.716804 81524 net.cpp:150] Setting up label_data_1_split
I0726 18:10:32.716819 81524 net.cpp:157] Top shape: 16 (16)
I0726 18:10:32.716826 81524 net.cpp:157] Top shape: 16 (16)
I0726 18:10:32.716833 81524 net.cpp:165] Memory required for data: 192000192
I0726 18:10:32.716841 81524 layer_factory.hpp:76] Creating layer conv1
I0726 18:10:32.716861 81524 net.cpp:106] Creating Layer conv1
I0726 18:10:32.716869 81524 net.cpp:454] conv1 <- data
I0726 18:10:32.716879 81524 net.cpp:411] conv1 -> conv1
I0726 18:10:32.959614 81524 net.cpp:150] Setting up conv1
I0726 18:10:32.959678 81524 net.cpp:157] Top shape: 16 16 997 997 (254466304)
I0726 18:10:32.959688 81524 net.cpp:165] Memory required for data: 1209865408
I0726 18:10:32.959727 81524 layer_factory.hpp:76] Creating layer nonlin1
I0726 18:10:32.959758 81524 net.cpp:106] Creating Layer nonlin1
I0726 18:10:32.959769 81524 net.cpp:454] nonlin1 <- conv1
I0726 18:10:32.959781 81524 net.cpp:397] nonlin1 -> conv1 (in-place)
I0726 18:10:32.960074 81524 net.cpp:150] Setting up nonlin1
I0726 18:10:32.960091 81524 net.cpp:157] Top shape: 16 16 997 997 (254466304)
I0726 18:10:32.960100 81524 net.cpp:165] Memory required for data: 2227730624
I0726 18:10:32.960111 81524 layer_factory.hpp:76] Creating layer pool1
I0726 18:10:32.960129 81524 net.cpp:106] Creating Layer pool1
I0726 18:10:32.960136 81524 net.cpp:454] pool1 <- conv1
I0726 18:10:32.960149 81524 net.cpp:411] pool1 -> pool1
I0726 18:10:32.960690 81524 net.cpp:150] Setting up pool1
I0726 18:10:32.960711 81524 net.cpp:157] Top shape: 16 16 499 499 (63744256)
I0726 18:10:32.960718 81524 net.cpp:165] Memory required for data: 2482707648
I0726 18:10:32.960727 81524 layer_factory.hpp:76] Creating layer conv2
I0726 18:10:32.960746 81524 net.cpp:106] Creating Layer conv2
I0726 18:10:32.960754 81524 net.cpp:454] conv2 <- pool1
I0726 18:10:32.960767 81524 net.cpp:411] conv2 -> conv2
I0726 18:10:32.964263 81524 cudnn_conv_layer.cpp:194] Reallocating workspace storage: 1728
I0726 18:10:32.964637 81524 net.cpp:150] Setting up conv2
I0726 18:10:32.964658 81524 net.cpp:157] Top shape: 16 16 497 497 (63234304)
I0726 18:10:32.964666 81524 net.cpp:165] Memory required for data: 2735644864
I0726 18:10:32.964686 81524 layer_factory.hpp:76] Creating layer nonlin2
I0726 18:10:32.964701 81524 net.cpp:106] Creating Layer nonlin2
I0726 18:10:32.964710 81524 net.cpp:454] nonlin2 <- conv2
I0726 18:10:32.964720 81524 net.cpp:397] nonlin2 -> conv2 (in-place)
I0726 18:10:32.964929 81524 net.cpp:150] Setting up nonlin2
I0726 18:10:32.964947 81524 net.cpp:157] Top shape: 16 16 497 497 (63234304)
I0726 18:10:32.964956 81524 net.cpp:165] Memory required for data: 2988582080
I0726 18:10:32.964975 81524 layer_factory.hpp:76] Creating layer pool2
I0726 18:10:32.964993 81524 net.cpp:106] Creating Layer pool2
I0726 18:10:32.965003 81524 net.cpp:454] pool2 <- conv2
I0726 18:10:32.965013 81524 net.cpp:411] pool2 -> pool2
I0726 18:10:32.965515 81524 net.cpp:150] Setting up pool2
I0726 18:10:32.965533 81524 net.cpp:157] Top shape: 16 16 249 249 (15872256)
I0726 18:10:32.965541 81524 net.cpp:165] Memory required for data: 3052071104
I0726 18:10:32.965551 81524 layer_factory.hpp:76] Creating layer conv3
I0726 18:10:32.965569 81524 net.cpp:106] Creating Layer conv3
I0726 18:10:32.965579 81524 net.cpp:454] conv3 <- pool2
I0726 18:10:32.965590 81524 net.cpp:411] conv3 -> conv3
I0726 18:10:32.967823 81524 net.cpp:150] Setting up conv3
I0726 18:10:32.967862 81524 net.cpp:157] Top shape: 16 16 247 247 (15618304)
I0726 18:10:32.967871 81524 net.cpp:165] Memory required for data: 3114544320
I0726 18:10:32.967890 81524 layer_factory.hpp:76] Creating layer nonlin3
I0726 18:10:32.967902 81524 net.cpp:106] Creating Layer nonlin3
I0726 18:10:32.967911 81524 net.cpp:454] nonlin3 <- conv3
I0726 18:10:32.967933 81524 net.cpp:397] nonlin3 -> conv3 (in-place)
I0726 18:10:32.968134 81524 net.cpp:150] Setting up nonlin3
I0726 18:10:32.968204 81524 net.cpp:157] Top shape: 16 16 247 247 (15618304)
I0726 18:10:32.968214 81524 net.cpp:165] Memory required for data: 3177017536
I0726 18:10:32.968222 81524 layer_factory.hpp:76] Creating layer pool3
I0726 18:10:32.968238 81524 net.cpp:106] Creating Layer pool3
I0726 18:10:32.968257 81524 net.cpp:454] pool3 <- conv3
I0726 18:10:32.968269 81524 net.cpp:411] pool3 -> pool3
I0726 18:10:32.968775 81524 net.cpp:150] Setting up pool3
I0726 18:10:32.968796 81524 net.cpp:157] Top shape: 16 16 124 124 (3936256)
I0726 18:10:32.968806 81524 net.cpp:165] Memory required for data: 3192762560
I0726 18:10:32.968816 81524 layer_factory.hpp:76] Creating layer conv4
I0726 18:10:32.968832 81524 net.cpp:106] Creating Layer conv4
I0726 18:10:32.968840 81524 net.cpp:454] conv4 <- pool3
I0726 18:10:32.968852 81524 net.cpp:411] conv4 -> conv4
I0726 18:10:32.970794 81524 net.cpp:150] Setting up conv4
I0726 18:10:32.970818 81524 net.cpp:157] Top shape: 16 16 122 122 (3810304)
I0726 18:10:32.970830 81524 net.cpp:165] Memory required for data: 3208003776
I0726 18:10:32.970842 81524 layer_factory.hpp:76] Creating layer nonlin4
I0726 18:10:32.970854 81524 net.cpp:106] Creating Layer nonlin4
I0726 18:10:32.970862 81524 net.cpp:454] nonlin4 <- conv4
I0726 18:10:32.970872 81524 net.cpp:397] nonlin4 -> conv4 (in-place)
I0726 18:10:32.971297 81524 net.cpp:150] Setting up nonlin4
I0726 18:10:32.971320 81524 net.cpp:157] Top shape: 16 16 122 122 (3810304)
I0726 18:10:32.971328 81524 net.cpp:165] Memory required for data: 3223244992
I0726 18:10:32.971336 81524 layer_factory.hpp:76] Creating layer pool4
I0726 18:10:32.971349 81524 net.cpp:106] Creating Layer pool4
I0726 18:10:32.971357 81524 net.cpp:454] pool4 <- conv4
I0726 18:10:32.971366 81524 net.cpp:411] pool4 -> pool4
I0726 18:10:32.971868 81524 net.cpp:150] Setting up pool4
I0726 18:10:32.971887 81524 net.cpp:157] Top shape: 16 16 61 61 (952576)
I0726 18:10:32.971895 81524 net.cpp:165] Memory required for data: 3227055296
I0726 18:10:32.971904 81524 layer_factory.hpp:76] Creating layer ip1_c
I0726 18:10:32.971915 81524 net.cpp:106] Creating Layer ip1_c
I0726 18:10:32.971923 81524 net.cpp:454] ip1_c <- pool4
I0726 18:10:32.971935 81524 net.cpp:411] ip1_c -> ip1
I0726 18:10:32.972892 81524 cudnn_conv_layer.cpp:194] Reallocating workspace storage: 768
I0726 18:10:32.972924 81524 net.cpp:150] Setting up ip1_c
I0726 18:10:32.972936 81524 net.cpp:157] Top shape: 16 200 60 60 (11520000)
I0726 18:10:32.972944 81524 net.cpp:165] Memory required for data: 3273135296
I0726 18:10:32.972960 81524 layer_factory.hpp:76] Creating layer nonlin_ip1
I0726 18:10:32.972971 81524 net.cpp:106] Creating Layer nonlin_ip1
I0726 18:10:32.972978 81524 net.cpp:454] nonlin_ip1 <- ip1
I0726 18:10:32.972990 81524 net.cpp:397] nonlin_ip1 -> ip1 (in-place)
I0726 18:10:32.973429 81524 net.cpp:150] Setting up nonlin_ip1
I0726 18:10:32.973448 81524 net.cpp:157] Top shape: 16 200 60 60 (11520000)
I0726 18:10:32.973455 81524 net.cpp:165] Memory required for data: 3319215296
I0726 18:10:32.973465 81524 layer_factory.hpp:76] Creating layer conv61
I0726 18:10:32.973486 81524 net.cpp:106] Creating Layer conv61
I0726 18:10:32.973495 81524 net.cpp:454] conv61 <- ip1
I0726 18:10:32.973506 81524 net.cpp:411] conv61 -> conv61
I0726 18:10:32.976229 81524 cudnn_conv_layer.cpp:194] Reallocating workspace storage: 21600
I0726 18:10:32.976263 81524 net.cpp:150] Setting up conv61
I0726 18:10:32.976275 81524 net.cpp:157] Top shape: 16 64 60 60 (3686400)
I0726 18:10:32.976284 81524 net.cpp:165] Memory required for data: 3333960896
I0726 18:10:32.976294 81524 layer_factory.hpp:76] Creating layer relu61
I0726 18:10:32.976305 81524 net.cpp:106] Creating Layer relu61
I0726 18:10:32.976313 81524 net.cpp:454] relu61 <- conv61
I0726 18:10:32.976336 81524 net.cpp:397] relu61 -> conv61 (in-place)
I0726 18:10:32.976550 81524 net.cpp:150] Setting up relu61
I0726 18:10:32.976569 81524 net.cpp:157] Top shape: 16 64 60 60 (3686400)
I0726 18:10:32.976577 81524 net.cpp:165] Memory required for data: 3348706496
I0726 18:10:32.976634 81524 layer_factory.hpp:76] Creating layer conv62
I0726 18:10:32.976657 81524 net.cpp:106] Creating Layer conv62
I0726 18:10:32.976667 81524 net.cpp:454] conv62 <- conv61
I0726 18:10:32.976680 81524 net.cpp:411] conv62 -> conv62
I0726 18:10:32.978440 81524 net.cpp:150] Setting up conv62
I0726 18:10:32.978472 81524 net.cpp:157] Top shape: 16 64 60 60 (3686400)
I0726 18:10:32.978482 81524 net.cpp:165] Memory required for data: 3363452096
I0726 18:10:32.978493 81524 layer_factory.hpp:76] Creating layer relu62
I0726 18:10:32.978507 81524 net.cpp:106] Creating Layer relu62
I0726 18:10:32.978516 81524 net.cpp:454] relu62 <- conv62
I0726 18:10:32.978525 81524 net.cpp:397] relu62 -> conv62 (in-place)
I0726 18:10:32.978982 81524 net.cpp:150] Setting up relu62
I0726 18:10:32.979012 81524 net.cpp:157] Top shape: 16 64 60 60 (3686400)
I0726 18:10:32.979024 81524 net.cpp:165] Memory required for data: 3378197696
I0726 18:10:32.979033 81524 layer_factory.hpp:76] Creating layer pool5
I0726 18:10:32.979045 81524 net.cpp:106] Creating Layer pool5
I0726 18:10:32.979054 81524 net.cpp:454] pool5 <- conv62
I0726 18:10:32.979064 81524 net.cpp:411] pool5 -> pool5
I0726 18:10:32.979302 81524 net.cpp:150] Setting up pool5
I0726 18:10:32.979331 81524 net.cpp:157] Top shape: 16 64 30 30 (921600)
I0726 18:10:32.979338 81524 net.cpp:165] Memory required for data: 3381884096
I0726 18:10:32.979348 81524 layer_factory.hpp:76] Creating layer conv71
I0726 18:10:32.979362 81524 net.cpp:106] Creating Layer conv71
I0726 18:10:32.979372 81524 net.cpp:454] conv71 <- pool5
I0726 18:10:32.979383 81524 net.cpp:411] conv71 -> conv71
I0726 18:10:32.980981 81524 cudnn_conv_layer.cpp:194] Reallocating workspace storage: 6912
I0726 18:10:32.981411 81524 net.cpp:150] Setting up conv71
I0726 18:10:32.981441 81524 net.cpp:157] Top shape: 16 96 30 30 (1382400)
I0726 18:10:32.981451 81524 net.cpp:165] Memory required for data: 3387413696
I0726 18:10:32.981465 81524 layer_factory.hpp:76] Creating layer relu71
I0726 18:10:32.981477 81524 net.cpp:106] Creating Layer relu71
I0726 18:10:32.981484 81524 net.cpp:454] relu71 <- conv71
I0726 18:10:32.981497 81524 net.cpp:397] relu71 -> conv71 (in-place)
I0726 18:10:32.981726 81524 net.cpp:150] Setting up relu71
I0726 18:10:32.981753 81524 net.cpp:157] Top shape: 16 96 30 30 (1382400)
I0726 18:10:32.981761 81524 net.cpp:165] Memory required for data: 3392943296
I0726 18:10:32.981772 81524 layer_factory.hpp:76] Creating layer conv72
I0726 18:10:32.981787 81524 net.cpp:106] Creating Layer conv72
I0726 18:10:32.981796 81524 net.cpp:454] conv72 <- conv71
I0726 18:10:32.981808 81524 net.cpp:411] conv72 -> conv72
I0726 18:10:32.983536 81524 net.cpp:150] Setting up conv72
I0726 18:10:32.983566 81524 net.cpp:157] Top shape: 16 96 30 30 (1382400)
I0726 18:10:32.983575 81524 net.cpp:165] Memory required for data: 3398472896
I0726 18:10:32.983593 81524 layer_factory.hpp:76] Creating layer relu72
I0726 18:10:32.983606 81524 net.cpp:106] Creating Layer relu72
I0726 18:10:32.983615 81524 net.cpp:454] relu72 <- conv72
I0726 18:10:32.983624 81524 net.cpp:397] relu72 -> conv72 (in-place)
I0726 18:10:32.984128 81524 net.cpp:150] Setting up relu72
I0726 18:10:32.984158 81524 net.cpp:157] Top shape: 16 96 30 30 (1382400)
I0726 18:10:32.984166 81524 net.cpp:165] Memory required for data: 3404002496
I0726 18:10:32.984174 81524 layer_factory.hpp:76] Creating layer pool6
I0726 18:10:32.984185 81524 net.cpp:106] Creating Layer pool6
I0726 18:10:32.984194 81524 net.cpp:454] pool6 <- conv72
I0726 18:10:32.984206 81524 net.cpp:411] pool6 -> pool6
I0726 18:10:32.984458 81524 net.cpp:150] Setting up pool6
I0726 18:10:32.984485 81524 net.cpp:157] Top shape: 16 96 15 15 (345600)
I0726 18:10:32.984493 81524 net.cpp:165] Memory required for data: 3405384896
I0726 18:10:32.984503 81524 layer_factory.hpp:76] Creating layer conv81
I0726 18:10:32.984519 81524 net.cpp:106] Creating Layer conv81
I0726 18:10:32.984526 81524 net.cpp:454] conv81 <- pool6
I0726 18:10:32.984539 81524 net.cpp:411] conv81 -> conv81
I0726 18:10:32.987274 81524 cudnn_conv_layer.cpp:194] Reallocating workspace storage: 10368
I0726 18:10:32.987341 81524 net.cpp:150] Setting up conv81
I0726 18:10:32.987354 81524 net.cpp:157] Top shape: 16 128 15 15 (460800)
I0726 18:10:32.987362 81524 net.cpp:165] Memory required for data: 3407228096
I0726 18:10:32.987375 81524 layer_factory.hpp:76] Creating layer relu81
I0726 18:10:32.987387 81524 net.cpp:106] Creating Layer relu81
I0726 18:10:32.987396 81524 net.cpp:454] relu81 <- conv81
I0726 18:10:32.987408 81524 net.cpp:397] relu81 -> conv81 (in-place)
I0726 18:10:32.987889 81524 net.cpp:150] Setting up relu81
I0726 18:10:32.987918 81524 net.cpp:157] Top shape: 16 128 15 15 (460800)
I0726 18:10:32.987926 81524 net.cpp:165] Memory required for data: 3409071296
I0726 18:10:32.987936 81524 layer_factory.hpp:76] Creating layer conv82
I0726 18:10:32.987951 81524 net.cpp:106] Creating Layer conv82
I0726 18:10:32.987959 81524 net.cpp:454] conv82 <- conv81
I0726 18:10:32.987972 81524 net.cpp:411] conv82 -> conv82
I0726 18:10:32.989912 81524 cudnn_conv_layer.cpp:194] Reallocating workspace storage: 13824
I0726 18:10:32.989956 81524 net.cpp:150] Setting up conv82
I0726 18:10:32.989967 81524 net.cpp:157] Top shape: 16 128 15 15 (460800)
I0726 18:10:32.989975 81524 net.cpp:165] Memory required for data: 3410914496
I0726 18:10:32.989987 81524 layer_factory.hpp:76] Creating layer relu82
I0726 18:10:32.990000 81524 net.cpp:106] Creating Layer relu82
I0726 18:10:32.990010 81524 net.cpp:454] relu82 <- conv82
I0726 18:10:32.990020 81524 net.cpp:397] relu82 -> conv82 (in-place)
I0726 18:10:32.990475 81524 net.cpp:150] Setting up relu82
I0726 18:10:32.990504 81524 net.cpp:157] Top shape: 16 128 15 15 (460800)
I0726 18:10:32.990514 81524 net.cpp:165] Memory required for data: 3412757696
I0726 18:10:32.990521 81524 layer_factory.hpp:76] Creating layer pool7
I0726 18:10:32.990536 81524 net.cpp:106] Creating Layer pool7
I0726 18:10:32.990545 81524 net.cpp:454] pool7 <- conv82
I0726 18:10:32.990556 81524 net.cpp:411] pool7 -> pool7
I0726 18:10:32.990792 81524 net.cpp:150] Setting up pool7
I0726 18:10:32.990818 81524 net.cpp:157] Top shape: 16 128 8 8 (131072)
I0726 18:10:32.990839 81524 net.cpp:165] Memory required for data: 3413281984
I0726 18:10:32.990847 81524 layer_factory.hpp:76] Creating layer drop0
I0726 18:10:32.990865 81524 net.cpp:106] Creating Layer drop0
I0726 18:10:32.990875 81524 net.cpp:454] drop0 <- pool7
I0726 18:10:32.990883 81524 net.cpp:397] drop0 -> pool7 (in-place)
I0726 18:10:32.990932 81524 net.cpp:150] Setting up drop0
I0726 18:10:32.990945 81524 net.cpp:157] Top shape: 16 128 8 8 (131072)
I0726 18:10:32.990954 81524 net.cpp:165] Memory required for data: 3413806272
I0726 18:10:32.990962 81524 layer_factory.hpp:76] Creating layer conv91
I0726 18:10:32.990984 81524 net.cpp:106] Creating Layer conv91
I0726 18:10:32.990995 81524 net.cpp:454] conv91 <- pool7
I0726 18:10:32.991020 81524 net.cpp:411] conv91 -> conv91
I0726 18:10:32.992435 81524 cudnn_conv_layer.cpp:194] Reallocating workspace storage: 98304
I0726 18:10:32.992830 81524 net.cpp:150] Setting up conv91
I0726 18:10:32.992859 81524 net.cpp:157] Top shape: 16 3 1 1 (48)
I0726 18:10:32.992867 81524 net.cpp:165] Memory required for data: 3413806464
I0726 18:10:32.992880 81524 layer_factory.hpp:76] Creating layer conv91_conv91_0_split
I0726 18:10:32.992895 81524 net.cpp:106] Creating Layer conv91_conv91_0_split
I0726 18:10:32.992904 81524 net.cpp:454] conv91_conv91_0_split <- conv91
I0726 18:10:32.992914 81524 net.cpp:411] conv91_conv91_0_split -> conv91_conv91_0_split_0
I0726 18:10:32.992925 81524 net.cpp:411] conv91_conv91_0_split -> conv91_conv91_0_split_1
I0726 18:10:32.992985 81524 net.cpp:150] Setting up conv91_conv91_0_split
I0726 18:10:32.992998 81524 net.cpp:157] Top shape: 16 3 1 1 (48)
I0726 18:10:32.993007 81524 net.cpp:157] Top shape: 16 3 1 1 (48)
I0726 18:10:32.993016 81524 net.cpp:165] Memory required for data: 3413806848
I0726 18:10:32.993023 81524 layer_factory.hpp:76] Creating layer accuracy
I0726 18:10:32.993041 81524 net.cpp:106] Creating Layer accuracy
I0726 18:10:32.993049 81524 net.cpp:454] accuracy <- conv91_conv91_0_split_0
I0726 18:10:32.993083 81524 net.cpp:454] accuracy <- label_data_1_split_0
I0726 18:10:32.993093 81524 net.cpp:411] accuracy -> accuracy
…
I0726 18:10:32.995198 81524 net.cpp:322] The NetState phase (1) differed from the phase (0) specified by a rule in layer data
I0726 18:10:32.995470 81524 net.cpp:49] Initializing net from parameters: 
name: "Result Layer 3 Stack"
state {
  phase: TEST
}
layer {
  name: "data"
  type: "ImageData"
  top: "data"
  top: "label"
  include {
    phase: TEST
  }
  transform_param {
    mirror: false
    mean_value: 150
    mean_value: 150
    mean_value: 150
  }
  image_data_param {
    source: "../lists/mitosis_val-norm.lst"
    batch_size: 8
    shuffle: true
    new_height: 1000
    new_width: 1000
  }
}
layer {
  name: "conv1"
  type: "Convolution"
  bottom: "data"
  top: "conv1"
  param {
    lr_mult: 0
    decay_mult: 0
  }
  param {
    lr_mult: 0
    decay_mult: 0
  }
  convolution_param {
    num_output: 16
    pad: 0
    kernel_size: 4
    stride: 1
  }
}
layer {
  name: "nonlin1"
  type: "ReLU"
  bottom: "conv1"
  top: "conv1"
}
layer {
  name: "pool1"
  type: "Pooling"
  bottom: "conv1"
  top: "pool1"
  pooling_param {
    pool: MAX
    kernel_size: 2
    stride: 2
  }
}
layer {
  name: "conv2"
  type: "Convolution"
  bottom: "pool1"
  top: "conv2"
  param {
    lr_mult: 0
    decay_mult: 0
  }
  param {
    lr_mult: 0
    decay_mult: 0
  }
  convolution_param {
    num_output: 16
    pad: 0
    kernel_size: 3
    stride: 1
  }
}
layer {
  name: "nonlin2"
  type: "ReLU"
  bottom: "conv2"
  top: "conv2"
}
layer {
  name: "pool2"
  type: "Pooling"
  bottom: "conv2"
  top: "pool2"
  pooling_param {
    pool: MAX
    kernel_size: 2
    stride: 2
  }
}
layer {
  name: "conv3"
  type: "Convolution"
  bottom: "pool2"
  top: "conv3"
  param {
    lr_mult: 0
    decay_mult: 0
  }
  param {
    lr_mult: 0
    decay_mult: 0
  }
  convolution_param {
    num_output: 16
    pad: 0
    kernel_size: 3
    stride: 1
  }
}
layer {
  name: "nonlin3"
  type: "ReLU"
  bottom: "conv3"
  top: "conv3"
}
layer {
  name: "pool3"
  type: "Pooling"
  bottom: "conv3"
  top: "pool3"
  pooling_param {
    pool: MAX
    kernel_size: 2
    stride: 2
  }
}
layer {
  name: "conv4"
  type: "Convolution"
  bottom: "pool3"
  top: "conv4"
  param {
    lr_mult: 0
    decay_mult: 0
  }
  param {
    lr_mult: 0
    decay_mult: 0
  }
  convolution_param {
    num_output: 16
    pad: 0
    kernel_size: 3
    stride: 1
  }
}
layer {
  name: "nonlin4"
  type: "ReLU"
  bottom: "conv4"
  top: "conv4"
}
layer {
  name: "pool4"
  type: "Pooling"
  bottom: "conv4"
  top: "pool4"
  pooling_param {
    pool: MAX
    kernel_size: 2
    stride: 2
  }
}
layer {
  name: "ip1_c"
  type: "Convolution"
  bottom: "pool4"
  top: "ip1"
  convolution_param {
    num_output: 200
    pad: 0
    kernel_size: 2
    stride: 1
  }
}
layer {
  name: "nonlin_ip1"
  type: "ReLU"
  bottom: "ip1"
  top: "ip1"
}
layer {
  name: "conv61"
  type: "Convolution"
  bottom: "ip1"
  top: "conv61"
  param {
    lr_mult: 1
    decay_mult: 1
  }
  param {
    lr_mult: 2
    decay_mult: 0
  }
  convolution_param {
    num_output: 64
    pad: 1
    stride: 1
    weight_filler {
      type: "xavier"
    }
    bias_filler {
      type: "constant"
    }
    kernel_h: 3
    kernel_w: 3
  }
}
layer {
  name: "relu61"
  type: "ReLU"
  bottom: "conv61"
  top: "conv61"
}
layer {
  name: "conv62"
  type: "Convolution"
  bottom: "conv61"
  top: "conv62"
  param {
    lr_mult: 1
    decay_mult: 1
  }
  param {
    lr_mult: 2
    decay_mult: 0
  }
  convolution_param {
    num_output: 64
    pad: 1
    stride: 1
    weight_filler {
      type: "xavier"
    }
    bias_filler {
      type: "constant"
    }
    kernel_h: 3
    kernel_w: 3
  }
}
layer {
  name: "relu62"
  type: "ReLU"
  bottom: "conv62"
  top: "conv62"
}
layer {
  name: "pool5"
  type: "Pooling"
  bottom: "conv62"
  top: "pool5"
  pooling_param {
    pool: MAX
    kernel_size: 2
    stride: 2
  }
}
layer {
  name: "conv71"
  type: "Convolution"
  bottom: "pool5"
  top: "conv71"
  param {
    lr_mult: 1
    decay_mult: 1
  }
  param {
    lr_mult: 2
    decay_mult: 0
  }
  convolution_param {
    num_output: 96
    pad: 1
    stride: 1
    weight_filler {
      type: "xavier"
    }
    bias_filler {
      type: "constant"
    }
    kernel_h: 3
    kernel_w: 3
  }
}
layer {
  name: "relu71"
  type: "ReLU"
  bottom: "conv71"
  top: "conv71"
}
layer {
  name: "conv72"
  type: "Convolution"
  bottom: "conv71"
  top: "conv72"
  param {
    lr_mult: 1
    decay_mult: 1
  }
  param {
    lr_mult: 2
    decay_mult: 0
  }
  convolution_param {
    num_output: 96
    pad: 1
    stride: 1
    weight_filler {
      type: "xavier"
    }
    bias_filler {
      type: "constant"
    }
    kernel_h: 3
    kernel_w: 3
  }
}
layer {
  name: "relu72"
  type: "ReLU"
  bottom: "conv72"
  top: "conv72"
}
layer {
  name: "pool6"
  type: "Pooling"
  bottom: "conv72"
  top: "pool6"
  pooling_param {
    pool: MAX
    kernel_size: 2
    stride: 2
  }
}
layer {
  name: "conv81"
  type: "Convolution"
  bottom: "pool6"
  top: "conv81"
  param {
    lr_mult: 1
    decay_mult: 1
  }
  param {
    lr_mult: 2
    decay_mult: 0
  }
  convolution_param {
    num_output: 128
    pad: 1
    stride: 1
    weight_filler {
      type: "xavier"
    }
    bias_filler {
      type: "constant"
    }
    kernel_h: 3
    kernel_w: 3
  }
}
layer {
  name: "relu81"
  type: "ReLU"
  bottom: "conv81"
  top: "conv81"
}
layer {
  name: "conv82"
  type: "Convolution"
  bottom: "conv81"
  top: "conv82"
  param {
    lr_mult: 1
    decay_mult: 1
  }
  param {
    lr_mult: 2
    decay_mult: 0
  }
  convolution_param {
    num_output: 128
    pad: 1
    stride: 1
    weight_filler {
      type: "xavier"
    }
    bias_filler {
      type: "constant"
    }
    kernel_h: 3
    kernel_w: 3
  }
}
layer {
  name: "relu82"
  type: "ReLU"
  bottom: "conv82"
  top: "conv82"
}
layer {
  name: "pool7"
  type: "Pooling"
  bottom: "conv82"
  top: "pool7"
  pooling_param {
    pool: AVE
    kernel_size: 2
    stride: 2
  }
}
layer {
  name: "drop0"
  type: "Dropout"
  bottom: "pool7"
  top: "pool7"
  dropout_param {
    dropout_ratio: 0.4
  }
}
layer {
  name: "conv91"
  type: "Convolution"
  bottom: "pool7"
  top: "conv91"
  param {
    lr_mult: 1
    decay_mult: 1
  }
  param {
    lr_mult: 2
    decay_mult: 0
  }
  convolution_param {
    num_output: 3
    stride: 1
    weight_filler {
      type: "xavier"
    }
    bias_filler {
      type: "constant"
    }
    kernel_h: 8
    kernel_w: 8
  }
}
layer {
  name: "accuracy"
  type: "Accuracy"
  bottom: "conv91"
  bottom: "label"
  top: "accuracy"
}
layer {
  name: "loss"
  type: "SoftmaxWithLoss"
  bottom: "conv91"
  bottom: "label"
  top: "loss"
}
I0726 18:10:32.996997 81524 layer_factory.hpp:76] Creating layer data
I0726 18:10:32.997046 81524 net.cpp:106] Creating Layer data
I0726 18:10:32.997057 81524 net.cpp:411] data -> data
I0726 18:10:32.997071 81524 net.cpp:411] data -> label
I0726 18:10:32.997097 81524 image_data_layer.cpp:36] Opening file ../lists/mitosis_val-norm.lst
I0726 18:10:32.998438 81524 image_data_layer.cpp:46] Shuffling data
I0726 18:10:32.998670 81524 image_data_layer.cpp:51] A total of 2374 images.
I0726 18:10:33.045675 81524 image_data_layer.cpp:78] output data size: 8,3,1000,1000
I0726 18:10:33.339386 81524 net.cpp:150] Setting up data
I0726 18:10:33.339440 81524 net.cpp:157] Top shape: 8 3 1000 1000 (24000000)
I0726 18:10:33.339455 81524 net.cpp:157] Top shape: 8 (8)
I0726 18:10:33.339464 81524 net.cpp:165] Memory required for data: 96000032
I0726 18:10:33.339479 81524 layer_factory.hpp:76] Creating layer label_data_1_split
I0726 18:10:33.339499 81524 net.cpp:106] Creating Layer label_data_1_split
I0726 18:10:33.339510 81524 net.cpp:454] label_data_1_split <- label
I0726 18:10:33.339524 81524 net.cpp:411] label_data_1_split -> label_data_1_split_0
I0726 18:10:33.339552 81524 net.cpp:411] label_data_1_split -> label_data_1_split_1
I0726 18:10:33.339643 81524 net.cpp:150] Setting up label_data_1_split
I0726 18:10:33.339658 81524 net.cpp:157] Top shape: 8 (8)
I0726 18:10:33.339666 81524 net.cpp:157] Top shape: 8 (8)
I0726 18:10:33.339720 81524 net.cpp:165] Memory required for data: 96000096
I0726 18:10:33.339731 81524 layer_factory.hpp:76] Creating layer conv1
I0726 18:10:33.339756 81524 net.cpp:106] Creating Layer conv1
I0726 18:10:33.339766 81524 net.cpp:454] conv1 <- data
I0726 18:10:33.339779 81524 net.cpp:411] conv1 -> conv1
I0726 18:10:33.343698 81524 net.cpp:150] Setting up conv1
I0726 18:10:33.343727 81524 net.cpp:157] Top shape: 8 16 997 997 (127233152)
I0726 18:10:33.343737 81524 net.cpp:165] Memory required for data: 604932704
I0726 18:10:33.343755 81524 layer_factory.hpp:76] Creating layer nonlin1
I0726 18:10:33.343771 81524 net.cpp:106] Creating Layer nonlin1
I0726 18:10:33.343791 81524 net.cpp:454] nonlin1 <- conv1
I0726 18:10:33.343802 81524 net.cpp:397] nonlin1 -> conv1 (in-place)
I0726 18:10:33.344020 81524 net.cpp:150] Setting up nonlin1
I0726 18:10:33.344038 81524 net.cpp:157] Top shape: 8 16 997 997 (127233152)
I0726 18:10:33.344050 81524 net.cpp:165] Memory required for data: 1113865312
I0726 18:10:33.344060 81524 layer_factory.hpp:76] Creating layer pool1
I0726 18:10:33.344079 81524 net.cpp:106] Creating Layer pool1
I0726 18:10:33.344089 81524 net.cpp:454] pool1 <- conv1
I0726 18:10:33.344102 81524 net.cpp:411] pool1 -> pool1
I0726 18:10:33.344573 81524 net.cpp:150] Setting up pool1
I0726 18:10:33.344594 81524 net.cpp:157] Top shape: 8 16 499 499 (31872128)
I0726 18:10:33.344604 81524 net.cpp:165] Memory required for data: 1241353824
I0726 18:10:33.344614 81524 layer_factory.hpp:76] Creating layer conv2
I0726 18:10:33.344631 81524 net.cpp:106] Creating Layer conv2
I0726 18:10:33.344641 81524 net.cpp:454] conv2 <- pool1
I0726 18:10:33.344653 81524 net.cpp:411] conv2 -> conv2
I0726 18:10:33.346892 81524 net.cpp:150] Setting up conv2
I0726 18:10:33.346915 81524 net.cpp:157] Top shape: 8 16 497 497 (31617152)
I0726 18:10:33.346927 81524 net.cpp:165] Memory required for data: 1367822432
I0726 18:10:33.346942 81524 layer_factory.hpp:76] Creating layer nonlin2
I0726 18:10:33.346956 81524 net.cpp:106] Creating Layer nonlin2
I0726 18:10:33.346966 81524 net.cpp:454] nonlin2 <- conv2
I0726 18:10:33.346976 81524 net.cpp:397] nonlin2 -> conv2 (in-place)
I0726 18:10:33.347158 81524 net.cpp:150] Setting up nonlin2
I0726 18:10:33.347175 81524 net.cpp:157] Top shape: 8 16 497 497 (31617152)
I0726 18:10:33.347185 81524 net.cpp:165] Memory required for data: 1494291040
I0726 18:10:33.347194 81524 layer_factory.hpp:76] Creating layer pool2
I0726 18:10:33.347211 81524 net.cpp:106] Creating Layer pool2
I0726 18:10:33.347221 81524 net.cpp:454] pool2 <- conv2
I0726 18:10:33.347234 81524 net.cpp:411] pool2 -> pool2
I0726 18:10:33.347692 81524 net.cpp:150] Setting up pool2
I0726 18:10:33.347712 81524 net.cpp:157] Top shape: 8 16 249 249 (7936128)
I0726 18:10:33.347723 81524 net.cpp:165] Memory required for data: 1526035552
I0726 18:10:33.347733 81524 layer_factory.hpp:76] Creating layer conv3
I0726 18:10:33.347750 81524 net.cpp:106] Creating Layer conv3
I0726 18:10:33.347761 81524 net.cpp:454] conv3 <- pool2
I0726 18:10:33.347774 81524 net.cpp:411] conv3 -> conv3
I0726 18:10:33.348706 81524 net.cpp:150] Setting up conv3
I0726 18:10:33.348727 81524 net.cpp:157] Top shape: 8 16 247 247 (7809152)
I0726 18:10:33.348738 81524 net.cpp:165] Memory required for data: 1557272160
I0726 18:10:33.348754 81524 layer_factory.hpp:76] Creating layer nonlin3
I0726 18:10:33.348770 81524 net.cpp:106] Creating Layer nonlin3
I0726 18:10:33.348781 81524 net.cpp:454] nonlin3 <- conv3
I0726 18:10:33.348793 81524 net.cpp:397] nonlin3 -> conv3 (in-place)
I0726 18:10:33.349210 81524 net.cpp:150] Setting up nonlin3
I0726 18:10:33.349230 81524 net.cpp:157] Top shape: 8 16 247 247 (7809152)
I0726 18:10:33.349241 81524 net.cpp:165] Memory required for data: 1588508768
I0726 18:10:33.349251 81524 layer_factory.hpp:76] Creating layer pool3
I0726 18:10:33.349266 81524 net.cpp:106] Creating Layer pool3
I0726 18:10:33.349275 81524 net.cpp:454] pool3 <- conv3
I0726 18:10:33.349287 81524 net.cpp:411] pool3 -> pool3
I0726 18:10:33.349493 81524 net.cpp:150] Setting up pool3
I0726 18:10:33.349542 81524 net.cpp:157] Top shape: 8 16 124 124 (1968128)
I0726 18:10:33.349553 81524 net.cpp:165] Memory required for data: 1596381280
I0726 18:10:33.349563 81524 layer_factory.hpp:76] Creating layer conv4
I0726 18:10:33.349581 81524 net.cpp:106] Creating Layer conv4
I0726 18:10:33.349591 81524 net.cpp:454] conv4 <- pool3
I0726 18:10:33.349602 81524 net.cpp:411] conv4 -> conv4
I0726 18:10:33.350745 81524 net.cpp:150] Setting up conv4
I0726 18:10:33.350767 81524 net.cpp:157] Top shape: 8 16 122 122 (1905152)
I0726 18:10:33.350777 81524 net.cpp:165] Memory required for data: 1604001888
I0726 18:10:33.350790 81524 layer_factory.hpp:76] Creating layer nonlin4
I0726 18:10:33.350803 81524 net.cpp:106] Creating Layer nonlin4
I0726 18:10:33.350813 81524 net.cpp:454] nonlin4 <- conv4
I0726 18:10:33.350826 81524 net.cpp:397] nonlin4 -> conv4 (in-place)
I0726 18:10:33.351241 81524 net.cpp:150] Setting up nonlin4
I0726 18:10:33.351259 81524 net.cpp:157] Top shape: 8 16 122 122 (1905152)
I0726 18:10:33.351269 81524 net.cpp:165] Memory required for data: 1611622496
I0726 18:10:33.351279 81524 layer_factory.hpp:76] Creating layer pool4
I0726 18:10:33.351295 81524 net.cpp:106] Creating Layer pool4
I0726 18:10:33.351305 81524 net.cpp:454] pool4 <- conv4
I0726 18:10:33.351316 81524 net.cpp:411] pool4 -> pool4
I0726 18:10:33.351522 81524 net.cpp:150] Setting up pool4
I0726 18:10:33.351539 81524 net.cpp:157] Top shape: 8 16 61 61 (476288)
I0726 18:10:33.351549 81524 net.cpp:165] Memory required for data: 1613527648
I0726 18:10:33.351558 81524 layer_factory.hpp:76] Creating layer ip1_c
I0726 18:10:33.351573 81524 net.cpp:106] Creating Layer ip1_c
I0726 18:10:33.351584 81524 net.cpp:454] ip1_c <- pool4
I0726 18:10:33.351598 81524 net.cpp:411] ip1_c -> ip1
I0726 18:10:33.352754 81524 cudnn_conv_layer.cpp:194] Reallocating workspace storage: 22118400
I0726 18:10:33.353001 81524 net.cpp:150] Setting up ip1_c
I0726 18:10:33.353019 81524 net.cpp:157] Top shape: 8 200 60 60 (5760000)
I0726 18:10:33.353030 81524 net.cpp:165] Memory required for data: 1636567648
I0726 18:10:33.353046 81524 layer_factory.hpp:76] Creating layer nonlin_ip1
I0726 18:10:33.353060 81524 net.cpp:106] Creating Layer nonlin_ip1
I0726 18:10:33.353070 81524 net.cpp:454] nonlin_ip1 <- ip1
I0726 18:10:33.353083 81524 net.cpp:397] nonlin_ip1 -> ip1 (in-place)
I0726 18:10:33.353513 81524 net.cpp:150] Setting up nonlin_ip1
I0726 18:10:33.353533 81524 net.cpp:157] Top shape: 8 200 60 60 (5760000)
I0726 18:10:33.353543 81524 net.cpp:165] Memory required for data: 1659607648
I0726 18:10:33.353551 81524 layer_factory.hpp:76] Creating layer conv61
I0726 18:10:33.353574 81524 net.cpp:106] Creating Layer conv61
I0726 18:10:33.353585 81524 net.cpp:454] conv61 <- ip1
I0726 18:10:33.353597 81524 net.cpp:411] conv61 -> conv61
I0726 18:10:33.355991 81524 cudnn_conv_layer.cpp:194] Reallocating workspace storage: 21600
I0726 18:10:33.356021 81524 net.cpp:150] Setting up conv61
I0726 18:10:33.356040 81524 net.cpp:157] Top shape: 8 64 60 60 (1843200)
I0726 18:10:33.356050 81524 net.cpp:165] Memory required for data: 1666980448
I0726 18:10:33.356062 81524 layer_factory.hpp:76] Creating layer relu61
I0726 18:10:33.356076 81524 net.cpp:106] Creating Layer relu61
I0726 18:10:33.356086 81524 net.cpp:454] relu61 <- conv61
I0726 18:10:33.356101 81524 net.cpp:397] relu61 -> conv61 (in-place)
I0726 18:10:33.356511 81524 net.cpp:150] Setting up relu61
I0726 18:10:33.356530 81524 net.cpp:157] Top shape: 8 64 60 60 (1843200)
I0726 18:10:33.356540 81524 net.cpp:165] Memory required for data: 1674353248
I0726 18:10:33.356549 81524 layer_factory.hpp:76] Creating layer conv62
I0726 18:10:33.356565 81524 net.cpp:106] Creating Layer conv62
I0726 18:10:33.356575 81524 net.cpp:454] conv62 <- conv61
I0726 18:10:33.356588 81524 net.cpp:411] conv62 -> conv62
I0726 18:10:33.358688 81524 net.cpp:150] Setting up conv62
I0726 18:10:33.358711 81524 net.cpp:157] Top shape: 8 64 60 60 (1843200)
I0726 18:10:33.358721 81524 net.cpp:165] Memory required for data: 1681726048
I0726 18:10:33.358734 81524 layer_factory.hpp:76] Creating layer relu62
I0726 18:10:33.358767 81524 net.cpp:106] Creating Layer relu62
I0726 18:10:33.358778 81524 net.cpp:454] relu62 <- conv62
I0726 18:10:33.358791 81524 net.cpp:397] relu62 -> conv62 (in-place)
I0726 18:10:33.358964 81524 net.cpp:150] Setting up relu62
I0726 18:10:33.358980 81524 net.cpp:157] Top shape: 8 64 60 60 (1843200)
I0726 18:10:33.358990 81524 net.cpp:165] Memory required for data: 1689098848
I0726 18:10:33.358999 81524 layer_factory.hpp:76] Creating layer pool5
I0726 18:10:33.359014 81524 net.cpp:106] Creating Layer pool5
I0726 18:10:33.359024 81524 net.cpp:454] pool5 <- conv62
I0726 18:10:33.359035 81524 net.cpp:411] pool5 -> pool5
I0726 18:10:33.359513 81524 net.cpp:150] Setting up pool5
I0726 18:10:33.359531 81524 net.cpp:157] Top shape: 8 64 30 30 (460800)
I0726 18:10:33.359541 81524 net.cpp:165] Memory required for data: 1690942048
I0726 18:10:33.359551 81524 layer_factory.hpp:76] Creating layer conv71
I0726 18:10:33.359568 81524 net.cpp:106] Creating Layer conv71
I0726 18:10:33.359581 81524 net.cpp:454] conv71 <- pool5
I0726 18:10:33.359593 81524 net.cpp:411] conv71 -> conv71
I0726 18:10:33.361037 81524 cudnn_conv_layer.cpp:194] Reallocating workspace storage: 6912
I0726 18:10:33.361071 81524 net.cpp:150] Setting up conv71
I0726 18:10:33.361085 81524 net.cpp:157] Top shape: 8 96 30 30 (691200)
I0726 18:10:33.361098 81524 net.cpp:165] Memory required for data: 1693706848
I0726 18:10:33.361109 81524 layer_factory.hpp:76] Creating layer relu71
I0726 18:10:33.361122 81524 net.cpp:106] Creating Layer relu71
I0726 18:10:33.361132 81524 net.cpp:454] relu71 <- conv71
I0726 18:10:33.361143 81524 net.cpp:397] relu71 -> conv71 (in-place)
I0726 18:10:33.361563 81524 net.cpp:150] Setting up relu71
I0726 18:10:33.361582 81524 net.cpp:157] Top shape: 8 96 30 30 (691200)
I0726 18:10:33.361593 81524 net.cpp:165] Memory required for data: 1696471648
I0726 18:10:33.361603 81524 layer_factory.hpp:76] Creating layer conv72
I0726 18:10:33.361620 81524 net.cpp:106] Creating Layer conv72
I0726 18:10:33.361630 81524 net.cpp:454] conv72 <- conv71
I0726 18:10:33.361641 81524 net.cpp:411] conv72 -> conv72
I0726 18:10:33.363508 81524 cudnn_conv_layer.cpp:194] Reallocating workspace storage: 10368
I0726 18:10:33.363546 81524 net.cpp:150] Setting up conv72
I0726 18:10:33.363559 81524 net.cpp:157] Top shape: 8 96 30 30 (691200)
I0726 18:10:33.363569 81524 net.cpp:165] Memory required for data: 1699236448
I0726 18:10:33.363590 81524 layer_factory.hpp:76] Creating layer relu72
I0726 18:10:33.363603 81524 net.cpp:106] Creating Layer relu72
I0726 18:10:33.363613 81524 net.cpp:454] relu72 <- conv72
I0726 18:10:33.363625 81524 net.cpp:397] relu72 -> conv72 (in-place)
I0726 18:10:33.364032 81524 net.cpp:150] Setting up relu72
I0726 18:10:33.364050 81524 net.cpp:157] Top shape: 8 96 30 30 (691200)
I0726 18:10:33.364060 81524 net.cpp:165] Memory required for data: 1702001248
I0726 18:10:33.364070 81524 layer_factory.hpp:76] Creating layer pool6
I0726 18:10:33.364085 81524 net.cpp:106] Creating Layer pool6
I0726 18:10:33.364095 81524 net.cpp:454] pool6 <- conv72
I0726 18:10:33.364106 81524 net.cpp:411] pool6 -> pool6
I0726 18:10:33.364308 81524 net.cpp:150] Setting up pool6
I0726 18:10:33.364325 81524 net.cpp:157] Top shape: 8 96 15 15 (172800)
I0726 18:10:33.364333 81524 net.cpp:165] Memory required for data: 1702692448
I0726 18:10:33.364342 81524 layer_factory.hpp:76] Creating layer conv81
I0726 18:10:33.364359 81524 net.cpp:106] Creating Layer conv81
I0726 18:10:33.364368 81524 net.cpp:454] conv81 <- pool6
I0726 18:10:33.364379 81524 net.cpp:411] conv81 -> conv81
I0726 18:10:33.366976 81524 net.cpp:150] Setting up conv81
I0726 18:10:33.366997 81524 net.cpp:157] Top shape: 8 128 15 15 (230400)
I0726 18:10:33.367007 81524 net.cpp:165] Memory required for data: 1703614048
I0726 18:10:33.367022 81524 layer_factory.hpp:76] Creating layer relu81
I0726 18:10:33.367034 81524 net.cpp:106] Creating Layer relu81
I0726 18:10:33.367044 81524 net.cpp:454] relu81 <- conv81
I0726 18:10:33.367055 81524 net.cpp:397] relu81 -> conv81 (in-place)
I0726 18:10:33.367240 81524 net.cpp:150] Setting up relu81
I0726 18:10:33.367256 81524 net.cpp:157] Top shape: 8 128 15 15 (230400)
I0726 18:10:33.367266 81524 net.cpp:165] Memory required for data: 1704535648
I0726 18:10:33.367275 81524 layer_factory.hpp:76] Creating layer conv82
I0726 18:10:33.367292 81524 net.cpp:106] Creating Layer conv82
I0726 18:10:33.367302 81524 net.cpp:454] conv82 <- conv81
I0726 18:10:33.367316 81524 net.cpp:411] conv82 -> conv82
I0726 18:10:33.369400 81524 net.cpp:150] Setting up conv82
I0726 18:10:33.369421 81524 net.cpp:157] Top shape: 8 128 15 15 (230400)
I0726 18:10:33.369431 81524 net.cpp:165] Memory required for data: 1705457248
I0726 18:10:33.369443 81524 layer_factory.hpp:76] Creating layer relu82
I0726 18:10:33.369457 81524 net.cpp:106] Creating Layer relu82
I0726 18:10:33.369468 81524 net.cpp:454] relu82 <- conv82
I0726 18:10:33.369479 81524 net.cpp:397] relu82 -> conv82 (in-place)
I0726 18:10:33.369889 81524 net.cpp:150] Setting up relu82
I0726 18:10:33.369910 81524 net.cpp:157] Top shape: 8 128 15 15 (230400)
I0726 18:10:33.369920 81524 net.cpp:165] Memory required for data: 1706378848
I0726 18:10:33.369930 81524 layer_factory.hpp:76] Creating layer pool7
I0726 18:10:33.369942 81524 net.cpp:106] Creating Layer pool7
I0726 18:10:33.369951 81524 net.cpp:454] pool7 <- conv82
I0726 18:10:33.369962 81524 net.cpp:411] pool7 -> pool7
I0726 18:10:33.370151 81524 net.cpp:150] Setting up pool7
I0726 18:10:33.370167 81524 net.cpp:157] Top shape: 8 128 8 8 (65536)
I0726 18:10:33.370177 81524 net.cpp:165] Memory required for data: 1706640992
I0726 18:10:33.370187 81524 layer_factory.hpp:76] Creating layer drop0
I0726 18:10:33.370198 81524 net.cpp:106] Creating Layer drop0
I0726 18:10:33.370208 81524 net.cpp:454] drop0 <- pool7
I0726 18:10:33.370220 81524 net.cpp:397] drop0 -> pool7 (in-place)
I0726 18:10:33.370255 81524 net.cpp:150] Setting up drop0
I0726 18:10:33.370268 81524 net.cpp:157] Top shape: 8 128 8 8 (65536)
I0726 18:10:33.370277 81524 net.cpp:165] Memory required for data: 1706903136
I0726 18:10:33.370286 81524 layer_factory.hpp:76] Creating layer conv91
I0726 18:10:33.370306 81524 net.cpp:106] Creating Layer conv91
I0726 18:10:33.370316 81524 net.cpp:454] conv91 <- pool7
I0726 18:10:33.370327 81524 net.cpp:411] conv91 -> conv91
I0726 18:10:33.371733 81524 cudnn_conv_layer.cpp:194] Reallocating workspace storage: 98304
I0726 18:10:33.371773 81524 net.cpp:150] Setting up conv91
I0726 18:10:33.371788 81524 net.cpp:157] Top shape: 8 3 1 1 (24)
I0726 18:10:33.371798 81524 net.cpp:165] Memory required for data: 1706903232
I0726 18:10:33.371810 81524 layer_factory.hpp:76] Creating layer conv91_conv91_0_split
I0726 18:10:33.371824 81524 net.cpp:106] Creating Layer conv91_conv91_0_split
I0726 18:10:33.371834 81524 net.cpp:454] conv91_conv91_0_split <- conv91
I0726 18:10:33.371848 81524 net.cpp:411] conv91_conv91_0_split -> conv91_conv91_0_split_0
I0726 18:10:33.371862 81524 net.cpp:411] conv91_conv91_0_split -> conv91_conv91_0_split_1
I0726 18:10:33.371912 81524 net.cpp:150] Setting up conv91_conv91_0_split
I0726 18:10:33.371927 81524 net.cpp:157] Top shape: 8 3 1 1 (24)
I0726 18:10:33.371938 81524 net.cpp:157] Top shape: 8 3 1 1 (24)
I0726 18:10:33.371948 81524 net.cpp:165] Memory required for data: 1706903424
I0726 18:10:33.371960 81524 layer_factory.hpp:76] Creating layer accuracy
I0726 18:10:33.371976 81524 net.cpp:106] Creating Layer accuracy
I0726 18:10:33.371986 81524 net.cpp:454] accuracy <- conv91_conv91_0_split_0
I0726 18:10:33.371997 81524 net.cpp:454] accuracy <- label_data_1_split_0
I0726 18:10:33.372009 81524 net.cpp:411] accuracy -> accuracy
…
