…
I0726 17:14:06.531826 60917 net.cpp:322] The NetState phase (0) differed from the phase (1) specified by a rule in layer data
I0726 17:14:06.532083 60917 net.cpp:49] Initializing net from parameters: 
name: "Result Layer 3 Stack"
state {
  phase: TRAIN
}
layer {
  name: "data"
  type: "ImageData"
  top: "data"
  top: "label"
  include {
    phase: TRAIN
  }
  transform_param {
    mirror: true
    mean_value: 150
    mean_value: 150
    mean_value: 150
  }
  image_data_param {
    source: "../lists/mitosis_train-norm.lst"
    batch_size: 16
    shuffle: true
    new_height: 1000
    new_width: 1000
  }
}
layer {
  name: "conv1"
  type: "Convolution"
  bottom: "data"
  top: "conv1"
  param {
    lr_mult: 0
    decay_mult: 0
  }
  param {
    lr_mult: 0
    decay_mult: 0
  }
  convolution_param {
    num_output: 16
    pad: 0
    kernel_size: 4
    stride: 1
  }
}
layer {
  name: "nonlin1"
  type: "ReLU"
  bottom: "conv1"
  top: "conv1"
}
layer {
  name: "pool1"
  type: "Pooling"
  bottom: "conv1"
  top: "pool1"
  pooling_param {
    pool: MAX
    kernel_size: 2
    stride: 2
  }
}
layer {
  name: "conv2"
  type: "Convolution"
  bottom: "pool1"
  top: "conv2"
  param {
    lr_mult: 0
    decay_mult: 0
  }
  param {
    lr_mult: 0
    decay_mult: 0
  }
  convolution_param {
    num_output: 16
    pad: 0
    kernel_size: 3
    stride: 1
  }
}
layer {
  name: "nonlin2"
  type: "ReLU"
  bottom: "conv2"
  top: "conv2"
}
layer {
  name: "pool2"
  type: "Pooling"
  bottom: "conv2"
  top: "pool2"
  pooling_param {
    pool: MAX
    kernel_size: 2
    stride: 2
  }
}
layer {
  name: "conv3"
  type: "Convolution"
  bottom: "pool2"
  top: "conv3"
  param {
    lr_mult: 0
    decay_mult: 0
  }
  param {
    lr_mult: 0
    decay_mult: 0
  }
  convolution_param {
    num_output: 16
    pad: 0
    kernel_size: 3
    stride: 1
  }
}
layer {
  name: "nonlin3"
  type: "ReLU"
  bottom: "conv3"
  top: "conv3"
}
layer {
  name: "pool3"
  type: "Pooling"
  bottom: "conv3"
  top: "pool3"
  pooling_param {
    pool: MAX
    kernel_size: 2
    stride: 2
  }
}
layer {
  name: "conv4"
  type: "Convolution"
  bottom: "pool3"
  top: "conv4"
  param {
    lr_mult: 0
    decay_mult: 0
  }
  param {
    lr_mult: 0
    decay_mult: 0
  }
  convolution_param {
    num_output: 16
    pad: 0
    kernel_size: 3
    stride: 1
  }
}
layer {
  name: "nonlin4"
  type: "ReLU"
  bottom: "conv4"
  top: "conv4"
}
layer {
  name: "pool4"
  type: "Pooling"
  bottom: "conv4"
  top: "pool4"
  pooling_param {
    pool: MAX
    kernel_size: 2
    stride: 2
  }
}
layer {
  name: "ip1_c"
  type: "Convolution"
  bottom: "pool4"
  top: "ip1"
  convolution_param {
    num_output: 200
    pad: 0
    kernel_size: 2
    stride: 1
  }
}
layer {
  name: "nonlin_ip1"
  type: "ReLU"
  bottom: "ip1"
  top: "ip1"
}
layer {
  name: "ip2_c"
  type: "Convolution"
  bottom: "ip1"
  top: "ip2"
  convolution_param {
    num_output: 2
    pad: 0
    kernel_size: 1
    stride: 1
  }
}
layer {
  name: "interloss"
  type: "Softmax"
  bottom: "ip2"
  top: "interloss"
}
layer {
  name: "conv61"
  type: "Convolution"
  bottom: "interloss"
  top: "conv61"
  param {
    lr_mult: 1
    decay_mult: 1
  }
  param {
    lr_mult: 2
    decay_mult: 0
  }
  convolution_param {
    num_output: 64
    pad: 1
    stride: 1
    weight_filler {
      type: "xavier"
    }
    bias_filler {
      type: "constant"
    }
    kernel_h: 3
    kernel_w: 3
  }
}
layer {
  name: "relu61"
  type: "ReLU"
  bottom: "conv61"
  top: "conv61"
}
layer {
  name: "conv62"
  type: "Convolution"
  bottom: "conv61"
  top: "conv62"
  param {
    lr_mult: 1
    decay_mult: 1
  }
  param {
    lr_mult: 2
    decay_mult: 0
  }
  convolution_param {
    num_output: 64
    pad: 1
    stride: 1
    weight_filler {
      type: "xavier"
    }
    bias_filler {
      type: "constant"
    }
    kernel_h: 3
    kernel_w: 3
  }
}
layer {
  name: "relu62"
  type: "ReLU"
  bottom: "conv62"
  top: "conv62"
}
layer {
  name: "pool5"
  type: "Pooling"
  bottom: "conv62"
  top: "pool5"
  pooling_param {
    pool: MAX
    kernel_size: 2
    stride: 2
  }
}
layer {
  name: "conv71"
  type: "Convolution"
  bottom: "pool5"
  top: "conv71"
  param {
    lr_mult: 1
    decay_mult: 1
  }
  param {
    lr_mult: 2
    decay_mult: 0
  }
  convolution_param {
    num_output: 96
    pad: 1
    stride: 1
    weight_filler {
      type: "xavier"
    }
    bias_filler {
      type: "constant"
    }
    kernel_h: 3
    kernel_w: 3
  }
}
layer {
  name: "relu71"
  type: "ReLU"
  bottom: "conv71"
  top: "conv71"
}
layer {
  name: "conv72"
  type: "Convolution"
  bottom: "conv71"
  top: "conv72"
  param {
    lr_mult: 1
    decay_mult: 1
  }
  param {
    lr_mult: 2
    decay_mult: 0
  }
  convolution_param {
    num_output: 96
    pad: 1
    stride: 1
    weight_filler {
      type: "xavier"
    }
    bias_filler {
      type: "constant"
    }
    kernel_h: 3
    kernel_w: 3
  }
}
layer {
  name: "relu72"
  type: "ReLU"
  bottom: "conv72"
  top: "conv72"
}
layer {
  name: "pool6"
  type: "Pooling"
  bottom: "conv72"
  top: "pool6"
  pooling_param {
    pool: MAX
    kernel_size: 2
    stride: 2
  }
}
layer {
  name: "conv81"
  type: "Convolution"
  bottom: "pool6"
  top: "conv81"
  param {
    lr_mult: 1
    decay_mult: 1
  }
  param {
    lr_mult: 2
    decay_mult: 0
  }
  convolution_param {
    num_output: 128
    pad: 1
    stride: 1
    weight_filler {
      type: "xavier"
    }
    bias_filler {
      type: "constant"
    }
    kernel_h: 3
    kernel_w: 3
  }
}
layer {
  name: "relu81"
  type: "ReLU"
  bottom: "conv81"
  top: "conv81"
}
layer {
  name: "conv82"
  type: "Convolution"
  bottom: "conv81"
  top: "conv82"
  param {
    lr_mult: 1
    decay_mult: 1
  }
  param {
    lr_mult: 2
    decay_mult: 0
  }
  convolution_param {
    num_output: 128
    pad: 1
    stride: 1
    weight_filler {
      type: "xavier"
    }
    bias_filler {
      type: "constant"
    }
    kernel_h: 3
    kernel_w: 3
  }
}
layer {
  name: "relu82"
  type: "ReLU"
  bottom: "conv82"
  top: "conv82"
}
layer {
  name: "pool7"
  type: "Pooling"
  bottom: "conv82"
  top: "pool7"
  pooling_param {
    pool: AVE
    kernel_size: 2
    stride: 2
  }
}
layer {
  name: "drop0"
  type: "Dropout"
  bottom: "pool7"
  top: "pool7"
  dropout_param {
    dropout_ratio: 0.4
  }
}
layer {
  name: "conv91"
  type: "Convolution"
  bottom: "pool7"
  top: "conv91"
  param {
    lr_mult: 1
    decay_mult: 1
  }
  param {
    lr_mult: 2
    decay_mult: 0
  }
  convolution_param {
    num_output: 3
    stride: 1
    weight_filler {
      type: "xavier"
    }
    bias_filler {
      type: "constant"
    }
    kernel_h: 8
    kernel_w: 8
  }
}
layer {
  name: "accuracy"
  type: "Accuracy"
  bottom: "conv91"
  bottom: "label"
  top: "accuracy"
}
layer {
  name: "loss"
  type: "SoftmaxWithLoss"
  bottom: "conv91"
  bottom: "label"
  top: "loss"
}
I0726 17:14:06.533740 60917 layer_factory.hpp:76] Creating layer data
I0726 17:14:06.533797 60917 net.cpp:106] Creating Layer data
I0726 17:14:06.533828 60917 net.cpp:411] data -> data
I0726 17:14:06.533864 60917 net.cpp:411] data -> label
I0726 17:14:06.534322 60917 image_data_layer.cpp:36] Opening file ../lists/mitosis_train-norm.lst
I0726 17:14:06.572110 60917 image_data_layer.cpp:46] Shuffling data
I0726 17:14:06.573629 60917 image_data_layer.cpp:51] A total of 21360 images.
I0726 17:14:06.676944 60917 image_data_layer.cpp:78] output data size: 16,3,1000,1000
I0726 17:14:07.147315 60917 net.cpp:150] Setting up data
I0726 17:14:07.147392 60917 net.cpp:157] Top shape: 16 3 1000 1000 (48000000)
I0726 17:14:07.147405 60917 net.cpp:157] Top shape: 16 (16)
I0726 17:14:07.147414 60917 net.cpp:165] Memory required for data: 192000064
I0726 17:14:07.147469 60917 layer_factory.hpp:76] Creating layer label_data_1_split
I0726 17:14:07.147493 60917 net.cpp:106] Creating Layer label_data_1_split
I0726 17:14:07.147505 60917 net.cpp:454] label_data_1_split <- label
I0726 17:14:07.147524 60917 net.cpp:411] label_data_1_split -> label_data_1_split_0
I0726 17:14:07.147539 60917 net.cpp:411] label_data_1_split -> label_data_1_split_1
I0726 17:14:07.147796 60917 net.cpp:150] Setting up label_data_1_split
I0726 17:14:07.147848 60917 net.cpp:157] Top shape: 16 (16)
I0726 17:14:07.147855 60917 net.cpp:157] Top shape: 16 (16)
I0726 17:14:07.147861 60917 net.cpp:165] Memory required for data: 192000192
I0726 17:14:07.147871 60917 layer_factory.hpp:76] Creating layer conv1
I0726 17:14:07.147919 60917 net.cpp:106] Creating Layer conv1
I0726 17:14:07.147925 60917 net.cpp:454] conv1 <- data
I0726 17:14:07.147936 60917 net.cpp:411] conv1 -> conv1
I0726 17:14:07.390543 60917 net.cpp:150] Setting up conv1
I0726 17:14:07.390589 60917 net.cpp:157] Top shape: 16 16 997 997 (254466304)
I0726 17:14:07.390599 60917 net.cpp:165] Memory required for data: 1209865408
I0726 17:14:07.390627 60917 layer_factory.hpp:76] Creating layer nonlin1
I0726 17:14:07.390664 60917 net.cpp:106] Creating Layer nonlin1
I0726 17:14:07.390674 60917 net.cpp:454] nonlin1 <- conv1
I0726 17:14:07.390689 60917 net.cpp:397] nonlin1 -> conv1 (in-place)
I0726 17:14:07.390872 60917 net.cpp:150] Setting up nonlin1
I0726 17:14:07.390888 60917 net.cpp:157] Top shape: 16 16 997 997 (254466304)
I0726 17:14:07.390897 60917 net.cpp:165] Memory required for data: 2227730624
I0726 17:14:07.390905 60917 layer_factory.hpp:76] Creating layer pool1
I0726 17:14:07.390918 60917 net.cpp:106] Creating Layer pool1
I0726 17:14:07.390926 60917 net.cpp:454] pool1 <- conv1
I0726 17:14:07.390936 60917 net.cpp:411] pool1 -> pool1
I0726 17:14:07.391427 60917 net.cpp:150] Setting up pool1
I0726 17:14:07.391445 60917 net.cpp:157] Top shape: 16 16 499 499 (63744256)
I0726 17:14:07.391454 60917 net.cpp:165] Memory required for data: 2482707648
I0726 17:14:07.391463 60917 layer_factory.hpp:76] Creating layer conv2
I0726 17:14:07.391476 60917 net.cpp:106] Creating Layer conv2
I0726 17:14:07.391484 60917 net.cpp:454] conv2 <- pool1
I0726 17:14:07.391494 60917 net.cpp:411] conv2 -> conv2
I0726 17:14:07.394105 60917 cudnn_conv_layer.cpp:194] Reallocating workspace storage: 1728
I0726 17:14:07.394433 60917 net.cpp:150] Setting up conv2
I0726 17:14:07.394451 60917 net.cpp:157] Top shape: 16 16 497 497 (63234304)
I0726 17:14:07.394459 60917 net.cpp:165] Memory required for data: 2735644864
I0726 17:14:07.394474 60917 layer_factory.hpp:76] Creating layer nonlin2
I0726 17:14:07.394484 60917 net.cpp:106] Creating Layer nonlin2
I0726 17:14:07.394492 60917 net.cpp:454] nonlin2 <- conv2
I0726 17:14:07.394501 60917 net.cpp:397] nonlin2 -> conv2 (in-place)
I0726 17:14:07.394703 60917 net.cpp:150] Setting up nonlin2
I0726 17:14:07.394721 60917 net.cpp:157] Top shape: 16 16 497 497 (63234304)
I0726 17:14:07.394728 60917 net.cpp:165] Memory required for data: 2988582080
I0726 17:14:07.394737 60917 layer_factory.hpp:76] Creating layer pool2
I0726 17:14:07.394758 60917 net.cpp:106] Creating Layer pool2
I0726 17:14:07.394767 60917 net.cpp:454] pool2 <- conv2
I0726 17:14:07.394776 60917 net.cpp:411] pool2 -> pool2
I0726 17:14:07.395215 60917 net.cpp:150] Setting up pool2
I0726 17:14:07.395234 60917 net.cpp:157] Top shape: 16 16 249 249 (15872256)
I0726 17:14:07.395242 60917 net.cpp:165] Memory required for data: 3052071104
I0726 17:14:07.395251 60917 layer_factory.hpp:76] Creating layer conv3
I0726 17:14:07.395263 60917 net.cpp:106] Creating Layer conv3
I0726 17:14:07.395272 60917 net.cpp:454] conv3 <- pool2
I0726 17:14:07.395282 60917 net.cpp:411] conv3 -> conv3
I0726 17:14:07.397032 60917 net.cpp:150] Setting up conv3
I0726 17:14:07.397053 60917 net.cpp:157] Top shape: 16 16 247 247 (15618304)
I0726 17:14:07.397061 60917 net.cpp:165] Memory required for data: 3114544320
I0726 17:14:07.397075 60917 layer_factory.hpp:76] Creating layer nonlin3
I0726 17:14:07.397109 60917 net.cpp:106] Creating Layer nonlin3
I0726 17:14:07.397119 60917 net.cpp:454] nonlin3 <- conv3
I0726 17:14:07.397131 60917 net.cpp:397] nonlin3 -> conv3 (in-place)
I0726 17:14:07.397313 60917 net.cpp:150] Setting up nonlin3
I0726 17:14:07.397330 60917 net.cpp:157] Top shape: 16 16 247 247 (15618304)
I0726 17:14:07.397336 60917 net.cpp:165] Memory required for data: 3177017536
I0726 17:14:07.397344 60917 layer_factory.hpp:76] Creating layer pool3
I0726 17:14:07.397356 60917 net.cpp:106] Creating Layer pool3
I0726 17:14:07.397363 60917 net.cpp:454] pool3 <- conv3
I0726 17:14:07.397373 60917 net.cpp:411] pool3 -> pool3
I0726 17:14:07.397817 60917 net.cpp:150] Setting up pool3
I0726 17:14:07.397836 60917 net.cpp:157] Top shape: 16 16 124 124 (3936256)
I0726 17:14:07.397845 60917 net.cpp:165] Memory required for data: 3192762560
I0726 17:14:07.397853 60917 layer_factory.hpp:76] Creating layer conv4
I0726 17:14:07.397879 60917 net.cpp:106] Creating Layer conv4
I0726 17:14:07.397887 60917 net.cpp:454] conv4 <- pool3
I0726 17:14:07.397898 60917 net.cpp:411] conv4 -> conv4
I0726 17:14:07.400670 60917 net.cpp:150] Setting up conv4
I0726 17:14:07.400701 60917 net.cpp:157] Top shape: 16 16 122 122 (3810304)
I0726 17:14:07.400708 60917 net.cpp:165] Memory required for data: 3208003776
I0726 17:14:07.400727 60917 layer_factory.hpp:76] Creating layer nonlin4
I0726 17:14:07.400744 60917 net.cpp:106] Creating Layer nonlin4
I0726 17:14:07.400754 60917 net.cpp:454] nonlin4 <- conv4
I0726 17:14:07.400766 60917 net.cpp:397] nonlin4 -> conv4 (in-place)
I0726 17:14:07.401347 60917 net.cpp:150] Setting up nonlin4
I0726 17:14:07.401366 60917 net.cpp:157] Top shape: 16 16 122 122 (3810304)
I0726 17:14:07.401374 60917 net.cpp:165] Memory required for data: 3223244992
I0726 17:14:07.401382 60917 layer_factory.hpp:76] Creating layer pool4
I0726 17:14:07.401392 60917 net.cpp:106] Creating Layer pool4
I0726 17:14:07.401401 60917 net.cpp:454] pool4 <- conv4
I0726 17:14:07.401414 60917 net.cpp:411] pool4 -> pool4
I0726 17:14:07.401861 60917 net.cpp:150] Setting up pool4
I0726 17:14:07.401880 60917 net.cpp:157] Top shape: 16 16 61 61 (952576)
I0726 17:14:07.401888 60917 net.cpp:165] Memory required for data: 3227055296
I0726 17:14:07.401896 60917 layer_factory.hpp:76] Creating layer ip1_c
I0726 17:14:07.401911 60917 net.cpp:106] Creating Layer ip1_c
I0726 17:14:07.401919 60917 net.cpp:454] ip1_c <- pool4
I0726 17:14:07.401934 60917 net.cpp:411] ip1_c -> ip1
I0726 17:14:07.402884 60917 cudnn_conv_layer.cpp:194] Reallocating workspace storage: 768
I0726 17:14:07.402914 60917 net.cpp:150] Setting up ip1_c
I0726 17:14:07.402925 60917 net.cpp:157] Top shape: 16 200 60 60 (11520000)
I0726 17:14:07.402935 60917 net.cpp:165] Memory required for data: 3273135296
I0726 17:14:07.402951 60917 layer_factory.hpp:76] Creating layer nonlin_ip1
I0726 17:14:07.402963 60917 net.cpp:106] Creating Layer nonlin_ip1
I0726 17:14:07.402971 60917 net.cpp:454] nonlin_ip1 <- ip1
I0726 17:14:07.402981 60917 net.cpp:397] nonlin_ip1 -> ip1 (in-place)
I0726 17:14:07.403412 60917 net.cpp:150] Setting up nonlin_ip1
I0726 17:14:07.403431 60917 net.cpp:157] Top shape: 16 200 60 60 (11520000)
I0726 17:14:07.403439 60917 net.cpp:165] Memory required for data: 3319215296
I0726 17:14:07.403448 60917 layer_factory.hpp:76] Creating layer ip2_c
I0726 17:14:07.403465 60917 net.cpp:106] Creating Layer ip2_c
I0726 17:14:07.403475 60917 net.cpp:454] ip2_c <- ip1
I0726 17:14:07.403483 60917 net.cpp:411] ip2_c -> ip2
I0726 17:14:07.404541 60917 net.cpp:150] Setting up ip2_c
I0726 17:14:07.404559 60917 net.cpp:157] Top shape: 16 2 60 60 (115200)
I0726 17:14:07.404567 60917 net.cpp:165] Memory required for data: 3319676096
I0726 17:14:07.404578 60917 layer_factory.hpp:76] Creating layer interloss
I0726 17:14:07.404593 60917 net.cpp:106] Creating Layer interloss
I0726 17:14:07.404603 60917 net.cpp:454] interloss <- ip2
I0726 17:14:07.404611 60917 net.cpp:411] interloss -> interloss
I0726 17:14:07.404866 60917 net.cpp:150] Setting up interloss
I0726 17:14:07.404896 60917 net.cpp:157] Top shape: 16 2 60 60 (115200)
I0726 17:14:07.404903 60917 net.cpp:165] Memory required for data: 3320136896
I0726 17:14:07.404911 60917 layer_factory.hpp:76] Creating layer conv61
I0726 17:14:07.404925 60917 net.cpp:106] Creating Layer conv61
I0726 17:14:07.404934 60917 net.cpp:454] conv61 <- interloss
I0726 17:14:07.404945 60917 net.cpp:411] conv61 -> conv61
I0726 17:14:07.406772 60917 net.cpp:150] Setting up conv61
I0726 17:14:07.406793 60917 net.cpp:157] Top shape: 16 64 60 60 (3686400)
I0726 17:14:07.406801 60917 net.cpp:165] Memory required for data: 3334882496
I0726 17:14:07.406812 60917 layer_factory.hpp:76] Creating layer relu61
I0726 17:14:07.406829 60917 net.cpp:106] Creating Layer relu61
I0726 17:14:07.406837 60917 net.cpp:454] relu61 <- conv61
I0726 17:14:07.406847 60917 net.cpp:397] relu61 -> conv61 (in-place)
I0726 17:14:07.407266 60917 net.cpp:150] Setting up relu61
I0726 17:14:07.407287 60917 net.cpp:157] Top shape: 16 64 60 60 (3686400)
I0726 17:14:07.407296 60917 net.cpp:165] Memory required for data: 3349628096
I0726 17:14:07.407306 60917 layer_factory.hpp:76] Creating layer conv62
I0726 17:14:07.407322 60917 net.cpp:106] Creating Layer conv62
I0726 17:14:07.407331 60917 net.cpp:454] conv62 <- conv61
I0726 17:14:07.407343 60917 net.cpp:411] conv62 -> conv62
I0726 17:14:07.408519 60917 net.cpp:150] Setting up conv62
I0726 17:14:07.408540 60917 net.cpp:157] Top shape: 16 64 60 60 (3686400)
I0726 17:14:07.408548 60917 net.cpp:165] Memory required for data: 3364373696
I0726 17:14:07.408560 60917 layer_factory.hpp:76] Creating layer relu62
I0726 17:14:07.408573 60917 net.cpp:106] Creating Layer relu62
I0726 17:14:07.408581 60917 net.cpp:454] relu62 <- conv62
I0726 17:14:07.408591 60917 net.cpp:397] relu62 -> conv62 (in-place)
I0726 17:14:07.409015 60917 net.cpp:150] Setting up relu62
I0726 17:14:07.409034 60917 net.cpp:157] Top shape: 16 64 60 60 (3686400)
I0726 17:14:07.409042 60917 net.cpp:165] Memory required for data: 3379119296
I0726 17:14:07.409050 60917 layer_factory.hpp:76] Creating layer pool5
I0726 17:14:07.409061 60917 net.cpp:106] Creating Layer pool5
I0726 17:14:07.409070 60917 net.cpp:454] pool5 <- conv62
I0726 17:14:07.409081 60917 net.cpp:411] pool5 -> pool5
I0726 17:14:07.409276 60917 net.cpp:150] Setting up pool5
I0726 17:14:07.409293 60917 net.cpp:157] Top shape: 16 64 30 30 (921600)
I0726 17:14:07.409301 60917 net.cpp:165] Memory required for data: 3382805696
I0726 17:14:07.409309 60917 layer_factory.hpp:76] Creating layer conv71
I0726 17:14:07.409322 60917 net.cpp:106] Creating Layer conv71
I0726 17:14:07.409343 60917 net.cpp:454] conv71 <- pool5
I0726 17:14:07.409355 60917 net.cpp:411] conv71 -> conv71
I0726 17:14:07.410945 60917 cudnn_conv_layer.cpp:194] Reallocating workspace storage: 6912
I0726 17:14:07.411285 60917 net.cpp:150] Setting up conv71
I0726 17:14:07.411306 60917 net.cpp:157] Top shape: 16 96 30 30 (1382400)
I0726 17:14:07.411314 60917 net.cpp:165] Memory required for data: 3388335296
I0726 17:14:07.411330 60917 layer_factory.hpp:76] Creating layer relu71
I0726 17:14:07.411345 60917 net.cpp:106] Creating Layer relu71
I0726 17:14:07.411353 60917 net.cpp:454] relu71 <- conv71
I0726 17:14:07.411363 60917 net.cpp:397] relu71 -> conv71 (in-place)
I0726 17:14:07.411785 60917 net.cpp:150] Setting up relu71
I0726 17:14:07.411804 60917 net.cpp:157] Top shape: 16 96 30 30 (1382400)
I0726 17:14:07.411814 60917 net.cpp:165] Memory required for data: 3393864896
I0726 17:14:07.411823 60917 layer_factory.hpp:76] Creating layer conv72
I0726 17:14:07.411836 60917 net.cpp:106] Creating Layer conv72
I0726 17:14:07.411845 60917 net.cpp:454] conv72 <- conv71
I0726 17:14:07.411856 60917 net.cpp:411] conv72 -> conv72
I0726 17:14:07.414167 60917 net.cpp:150] Setting up conv72
I0726 17:14:07.414189 60917 net.cpp:157] Top shape: 16 96 30 30 (1382400)
I0726 17:14:07.414197 60917 net.cpp:165] Memory required for data: 3399394496
I0726 17:14:07.414208 60917 layer_factory.hpp:76] Creating layer relu72
I0726 17:14:07.414219 60917 net.cpp:106] Creating Layer relu72
I0726 17:14:07.414242 60917 net.cpp:454] relu72 <- conv72
I0726 17:14:07.414254 60917 net.cpp:397] relu72 -> conv72 (in-place)
I0726 17:14:07.414433 60917 net.cpp:150] Setting up relu72
I0726 17:14:07.414449 60917 net.cpp:157] Top shape: 16 96 30 30 (1382400)
I0726 17:14:07.414458 60917 net.cpp:165] Memory required for data: 3404924096
I0726 17:14:07.414465 60917 layer_factory.hpp:76] Creating layer pool6
I0726 17:14:07.414479 60917 net.cpp:106] Creating Layer pool6
I0726 17:14:07.414489 60917 net.cpp:454] pool6 <- conv72
I0726 17:14:07.414497 60917 net.cpp:411] pool6 -> pool6
I0726 17:14:07.414968 60917 net.cpp:150] Setting up pool6
I0726 17:14:07.414988 60917 net.cpp:157] Top shape: 16 96 15 15 (345600)
I0726 17:14:07.414995 60917 net.cpp:165] Memory required for data: 3406306496
I0726 17:14:07.415005 60917 layer_factory.hpp:76] Creating layer conv81
I0726 17:14:07.415022 60917 net.cpp:106] Creating Layer conv81
I0726 17:14:07.415031 60917 net.cpp:454] conv81 <- pool6
I0726 17:14:07.415041 60917 net.cpp:411] conv81 -> conv81
I0726 17:14:07.416635 60917 cudnn_conv_layer.cpp:194] Reallocating workspace storage: 10368
I0726 17:14:07.416666 60917 net.cpp:150] Setting up conv81
I0726 17:14:07.416678 60917 net.cpp:157] Top shape: 16 128 15 15 (460800)
I0726 17:14:07.416687 60917 net.cpp:165] Memory required for data: 3408149696
I0726 17:14:07.416697 60917 layer_factory.hpp:76] Creating layer relu81
I0726 17:14:07.416713 60917 net.cpp:106] Creating Layer relu81
I0726 17:14:07.416721 60917 net.cpp:454] relu81 <- conv81
I0726 17:14:07.416733 60917 net.cpp:397] relu81 -> conv81 (in-place)
I0726 17:14:07.417150 60917 net.cpp:150] Setting up relu81
I0726 17:14:07.417170 60917 net.cpp:157] Top shape: 16 128 15 15 (460800)
I0726 17:14:07.417177 60917 net.cpp:165] Memory required for data: 3409992896
I0726 17:14:07.417186 60917 layer_factory.hpp:76] Creating layer conv82
I0726 17:14:07.417201 60917 net.cpp:106] Creating Layer conv82
I0726 17:14:07.417210 60917 net.cpp:454] conv82 <- conv81
I0726 17:14:07.417220 60917 net.cpp:411] conv82 -> conv82
I0726 17:14:07.420087 60917 cudnn_conv_layer.cpp:194] Reallocating workspace storage: 13824
I0726 17:14:07.420122 60917 net.cpp:150] Setting up conv82
I0726 17:14:07.420135 60917 net.cpp:157] Top shape: 16 128 15 15 (460800)
I0726 17:14:07.420142 60917 net.cpp:165] Memory required for data: 3411836096
I0726 17:14:07.420153 60917 layer_factory.hpp:76] Creating layer relu82
I0726 17:14:07.420164 60917 net.cpp:106] Creating Layer relu82
I0726 17:14:07.420172 60917 net.cpp:454] relu82 <- conv82
I0726 17:14:07.420186 60917 net.cpp:397] relu82 -> conv82 (in-place)
I0726 17:14:07.420358 60917 net.cpp:150] Setting up relu82
I0726 17:14:07.420374 60917 net.cpp:157] Top shape: 16 128 15 15 (460800)
I0726 17:14:07.420382 60917 net.cpp:165] Memory required for data: 3413679296
I0726 17:14:07.420390 60917 layer_factory.hpp:76] Creating layer pool7
I0726 17:14:07.420404 60917 net.cpp:106] Creating Layer pool7
I0726 17:14:07.420413 60917 net.cpp:454] pool7 <- conv82
I0726 17:14:07.420424 60917 net.cpp:411] pool7 -> pool7
I0726 17:14:07.420868 60917 net.cpp:150] Setting up pool7
I0726 17:14:07.420888 60917 net.cpp:157] Top shape: 16 128 8 8 (131072)
I0726 17:14:07.420897 60917 net.cpp:165] Memory required for data: 3414203584
I0726 17:14:07.420904 60917 layer_factory.hpp:76] Creating layer drop0
I0726 17:14:07.420920 60917 net.cpp:106] Creating Layer drop0
I0726 17:14:07.420929 60917 net.cpp:454] drop0 <- pool7
I0726 17:14:07.420938 60917 net.cpp:397] drop0 -> pool7 (in-place)
I0726 17:14:07.420976 60917 net.cpp:150] Setting up drop0
I0726 17:14:07.420989 60917 net.cpp:157] Top shape: 16 128 8 8 (131072)
I0726 17:14:07.420997 60917 net.cpp:165] Memory required for data: 3414727872
I0726 17:14:07.421008 60917 layer_factory.hpp:76] Creating layer conv91
I0726 17:14:07.421023 60917 net.cpp:106] Creating Layer conv91
I0726 17:14:07.421033 60917 net.cpp:454] conv91 <- pool7
I0726 17:14:07.421043 60917 net.cpp:411] conv91 -> conv91
I0726 17:14:07.422266 60917 cudnn_conv_layer.cpp:194] Reallocating workspace storage: 98304
I0726 17:14:07.422582 60917 net.cpp:150] Setting up conv91
I0726 17:14:07.422600 60917 net.cpp:157] Top shape: 16 3 1 1 (48)
I0726 17:14:07.422608 60917 net.cpp:165] Memory required for data: 3414728064
I0726 17:14:07.422622 60917 layer_factory.hpp:76] Creating layer conv91_conv91_0_split
I0726 17:14:07.422652 60917 net.cpp:106] Creating Layer conv91_conv91_0_split
I0726 17:14:07.422662 60917 net.cpp:454] conv91_conv91_0_split <- conv91
I0726 17:14:07.422672 60917 net.cpp:411] conv91_conv91_0_split -> conv91_conv91_0_split_0
I0726 17:14:07.422688 60917 net.cpp:411] conv91_conv91_0_split -> conv91_conv91_0_split_1
I0726 17:14:07.422744 60917 net.cpp:150] Setting up conv91_conv91_0_split
I0726 17:14:07.422758 60917 net.cpp:157] Top shape: 16 3 1 1 (48)
I0726 17:14:07.422768 60917 net.cpp:157] Top shape: 16 3 1 1 (48)
I0726 17:14:07.422775 60917 net.cpp:165] Memory required for data: 3414728448
I0726 17:14:07.422785 60917 layer_factory.hpp:76] Creating layer accuracy
I0726 17:14:07.422802 60917 net.cpp:106] Creating Layer accuracy
I0726 17:14:07.422812 60917 net.cpp:454] accuracy <- conv91_conv91_0_split_0
I0726 17:14:07.422821 60917 net.cpp:454] accuracy <- label_data_1_split_0
I0726 17:14:07.422832 60917 net.cpp:411] accuracy -> accuracy
…
I0726 17:14:07.424599 60917 net.cpp:322] The NetState phase (1) differed from the phase (0) specified by a rule in layer data
I0726 17:14:07.424815 60917 net.cpp:49] Initializing net from parameters: 
name: "Result Layer 3 Stack"
state {
  phase: TEST
}
layer {
  name: "data"
  type: "ImageData"
  top: "data"
  top: "label"
  include {
    phase: TEST
  }
  transform_param {
    mirror: false
    mean_value: 150
    mean_value: 150
    mean_value: 150
  }
  image_data_param {
    source: "../lists/mitosis_val-norm.lst"
    batch_size: 8
    shuffle: true
    new_height: 1000
    new_width: 1000
  }
}
layer {
  name: "conv1"
  type: "Convolution"
  bottom: "data"
  top: "conv1"
  param {
    lr_mult: 0
    decay_mult: 0
  }
  param {
    lr_mult: 0
    decay_mult: 0
  }
  convolution_param {
    num_output: 16
    pad: 0
    kernel_size: 4
    stride: 1
  }
}
layer {
  name: "nonlin1"
  type: "ReLU"
  bottom: "conv1"
  top: "conv1"
}
layer {
  name: "pool1"
  type: "Pooling"
  bottom: "conv1"
  top: "pool1"
  pooling_param {
    pool: MAX
    kernel_size: 2
    stride: 2
  }
}
layer {
  name: "conv2"
  type: "Convolution"
  bottom: "pool1"
  top: "conv2"
  param {
    lr_mult: 0
    decay_mult: 0
  }
  param {
    lr_mult: 0
    decay_mult: 0
  }
  convolution_param {
    num_output: 16
    pad: 0
    kernel_size: 3
    stride: 1
  }
}
layer {
  name: "nonlin2"
  type: "ReLU"
  bottom: "conv2"
  top: "conv2"
}
layer {
  name: "pool2"
  type: "Pooling"
  bottom: "conv2"
  top: "pool2"
  pooling_param {
    pool: MAX
    kernel_size: 2
    stride: 2
  }
}
layer {
  name: "conv3"
  type: "Convolution"
  bottom: "pool2"
  top: "conv3"
  param {
    lr_mult: 0
    decay_mult: 0
  }
  param {
    lr_mult: 0
    decay_mult: 0
  }
  convolution_param {
    num_output: 16
    pad: 0
    kernel_size: 3
    stride: 1
  }
}
layer {
  name: "nonlin3"
  type: "ReLU"
  bottom: "conv3"
  top: "conv3"
}
layer {
  name: "pool3"
  type: "Pooling"
  bottom: "conv3"
  top: "pool3"
  pooling_param {
    pool: MAX
    kernel_size: 2
    stride: 2
  }
}
layer {
  name: "conv4"
  type: "Convolution"
  bottom: "pool3"
  top: "conv4"
  param {
    lr_mult: 0
    decay_mult: 0
  }
  param {
    lr_mult: 0
    decay_mult: 0
  }
  convolution_param {
    num_output: 16
    pad: 0
    kernel_size: 3
    stride: 1
  }
}
layer {
  name: "nonlin4"
  type: "ReLU"
  bottom: "conv4"
  top: "conv4"
}
layer {
  name: "pool4"
  type: "Pooling"
  bottom: "conv4"
  top: "pool4"
  pooling_param {
    pool: MAX
    kernel_size: 2
    stride: 2
  }
}
layer {
  name: "ip1_c"
  type: "Convolution"
  bottom: "pool4"
  top: "ip1"
  convolution_param {
    num_output: 200
    pad: 0
    kernel_size: 2
    stride: 1
  }
}
layer {
  name: "nonlin_ip1"
  type: "ReLU"
  bottom: "ip1"
  top: "ip1"
}
layer {
  name: "ip2_c"
  type: "Convolution"
  bottom: "ip1"
  top: "ip2"
  convolution_param {
    num_output: 2
    pad: 0
    kernel_size: 1
    stride: 1
  }
}
layer {
  name: "interloss"
  type: "Softmax"
  bottom: "ip2"
  top: "interloss"
}
layer {
  name: "conv61"
  type: "Convolution"
  bottom: "interloss"
  top: "conv61"
  param {
    lr_mult: 1
    decay_mult: 1
  }
  param {
    lr_mult: 2
    decay_mult: 0
  }
  convolution_param {
    num_output: 64
    pad: 1
    stride: 1
    weight_filler {
      type: "xavier"
    }
    bias_filler {
      type: "constant"
    }
    kernel_h: 3
    kernel_w: 3
  }
}
layer {
  name: "relu61"
  type: "ReLU"
  bottom: "conv61"
  top: "conv61"
}
layer {
  name: "conv62"
  type: "Convolution"
  bottom: "conv61"
  top: "conv62"
  param {
    lr_mult: 1
    decay_mult: 1
  }
  param {
    lr_mult: 2
    decay_mult: 0
  }
  convolution_param {
    num_output: 64
    pad: 1
    stride: 1
    weight_filler {
      type: "xavier"
    }
    bias_filler {
      type: "constant"
    }
    kernel_h: 3
    kernel_w: 3
  }
}
layer {
  name: "relu62"
  type: "ReLU"
  bottom: "conv62"
  top: "conv62"
}
layer {
  name: "pool5"
  type: "Pooling"
  bottom: "conv62"
  top: "pool5"
  pooling_param {
    pool: MAX
    kernel_size: 2
    stride: 2
  }
}
layer {
  name: "conv71"
  type: "Convolution"
  bottom: "pool5"
  top: "conv71"
  param {
    lr_mult: 1
    decay_mult: 1
  }
  param {
    lr_mult: 2
    decay_mult: 0
  }
  convolution_param {
    num_output: 96
    pad: 1
    stride: 1
    weight_filler {
      type: "xavier"
    }
    bias_filler {
      type: "constant"
    }
    kernel_h: 3
    kernel_w: 3
  }
}
layer {
  name: "relu71"
  type: "ReLU"
  bottom: "conv71"
  top: "conv71"
}
layer {
  name: "conv72"
  type: "Convolution"
  bottom: "conv71"
  top: "conv72"
  param {
    lr_mult: 1
    decay_mult: 1
  }
  param {
    lr_mult: 2
    decay_mult: 0
  }
  convolution_param {
    num_output: 96
    pad: 1
    stride: 1
    weight_filler {
      type: "xavier"
    }
    bias_filler {
      type: "constant"
    }
    kernel_h: 3
    kernel_w: 3
  }
}
layer {
  name: "relu72"
  type: "ReLU"
  bottom: "conv72"
  top: "conv72"
}
layer {
  name: "pool6"
  type: "Pooling"
  bottom: "conv72"
  top: "pool6"
  pooling_param {
    pool: MAX
    kernel_size: 2
    stride: 2
  }
}
layer {
  name: "conv81"
  type: "Convolution"
  bottom: "pool6"
  top: "conv81"
  param {
    lr_mult: 1
    decay_mult: 1
  }
  param {
    lr_mult: 2
    decay_mult: 0
  }
  convolution_param {
    num_output: 128
    pad: 1
    stride: 1
    weight_filler {
      type: "xavier"
    }
    bias_filler {
      type: "constant"
    }
    kernel_h: 3
    kernel_w: 3
  }
}
layer {
  name: "relu81"
  type: "ReLU"
  bottom: "conv81"
  top: "conv81"
}
layer {
  name: "conv82"
  type: "Convolution"
  bottom: "conv81"
  top: "conv82"
  param {
    lr_mult: 1
    decay_mult: 1
  }
  param {
    lr_mult: 2
    decay_mult: 0
  }
  convolution_param {
    num_output: 128
    pad: 1
    stride: 1
    weight_filler {
      type: "xavier"
    }
    bias_filler {
      type: "constant"
    }
    kernel_h: 3
    kernel_w: 3
  }
}
layer {
  name: "relu82"
  type: "ReLU"
  bottom: "conv82"
  top: "conv82"
}
layer {
  name: "pool7"
  type: "Pooling"
  bottom: "conv82"
  top: "pool7"
  pooling_param {
    pool: AVE
    kernel_size: 2
    stride: 2
  }
}
layer {
  name: "drop0"
  type: "Dropout"
  bottom: "pool7"
  top: "pool7"
  dropout_param {
    dropout_ratio: 0.4
  }
}
layer {
  name: "conv91"
  type: "Convolution"
  bottom: "pool7"
  top: "conv91"
  param {
    lr_mult: 1
    decay_mult: 1
  }
  param {
    lr_mult: 2
    decay_mult: 0
  }
  convolution_param {
    num_output: 3
    stride: 1
    weight_filler {
      type: "xavier"
    }
    bias_filler {
      type: "constant"
    }
    kernel_h: 8
    kernel_w: 8
  }
}
layer {
  name: "accuracy"
  type: "Accuracy"
  bottom: "conv91"
  bottom: "label"
  top: "accuracy"
}
layer {
  name: "loss"
  type: "SoftmaxWithLoss"
  bottom: "conv91"
  bottom: "label"
  top: "loss"
}
I0726 17:14:07.426527 60917 layer_factory.hpp:76] Creating layer data
I0726 17:14:07.426551 60917 net.cpp:106] Creating Layer data
I0726 17:14:07.426561 60917 net.cpp:411] data -> data
I0726 17:14:07.426574 60917 net.cpp:411] data -> label
I0726 17:14:07.426587 60917 image_data_layer.cpp:36] Opening file ../lists/mitosis_val-norm.lst
I0726 17:14:07.455755 60917 image_data_layer.cpp:46] Shuffling data
I0726 17:14:07.455943 60917 image_data_layer.cpp:51] A total of 2374 images.
I0726 17:14:07.600791 60917 image_data_layer.cpp:78] output data size: 8,3,1000,1000
I0726 17:14:07.834861 60917 net.cpp:150] Setting up data
I0726 17:14:07.834903 60917 net.cpp:157] Top shape: 8 3 1000 1000 (24000000)
I0726 17:14:07.834913 60917 net.cpp:157] Top shape: 8 (8)
I0726 17:14:07.834921 60917 net.cpp:165] Memory required for data: 96000032
I0726 17:14:07.834933 60917 layer_factory.hpp:76] Creating layer label_data_1_split
I0726 17:14:07.834952 60917 net.cpp:106] Creating Layer label_data_1_split
I0726 17:14:07.834962 60917 net.cpp:454] label_data_1_split <- label
I0726 17:14:07.834975 60917 net.cpp:411] label_data_1_split -> label_data_1_split_0
I0726 17:14:07.834990 60917 net.cpp:411] label_data_1_split -> label_data_1_split_1
I0726 17:14:07.835083 60917 net.cpp:150] Setting up label_data_1_split
I0726 17:14:07.835098 60917 net.cpp:157] Top shape: 8 (8)
I0726 17:14:07.835108 60917 net.cpp:157] Top shape: 8 (8)
I0726 17:14:07.835116 60917 net.cpp:165] Memory required for data: 96000096
I0726 17:14:07.835124 60917 layer_factory.hpp:76] Creating layer conv1
I0726 17:14:07.835140 60917 net.cpp:106] Creating Layer conv1
I0726 17:14:07.835150 60917 net.cpp:454] conv1 <- data
I0726 17:14:07.835162 60917 net.cpp:411] conv1 -> conv1
I0726 17:14:07.839725 60917 net.cpp:150] Setting up conv1
I0726 17:14:07.839757 60917 net.cpp:157] Top shape: 8 16 997 997 (127233152)
I0726 17:14:07.839766 60917 net.cpp:165] Memory required for data: 604932704
I0726 17:14:07.839782 60917 layer_factory.hpp:76] Creating layer nonlin1
I0726 17:14:07.839797 60917 net.cpp:106] Creating Layer nonlin1
I0726 17:14:07.839805 60917 net.cpp:454] nonlin1 <- conv1
I0726 17:14:07.839818 60917 net.cpp:397] nonlin1 -> conv1 (in-place)
I0726 17:14:07.840319 60917 net.cpp:150] Setting up nonlin1
I0726 17:14:07.840339 60917 net.cpp:157] Top shape: 8 16 997 997 (127233152)
I0726 17:14:07.840348 60917 net.cpp:165] Memory required for data: 1113865312
I0726 17:14:07.840356 60917 layer_factory.hpp:76] Creating layer pool1
I0726 17:14:07.840371 60917 net.cpp:106] Creating Layer pool1
I0726 17:14:07.840380 60917 net.cpp:454] pool1 <- conv1
I0726 17:14:07.840390 60917 net.cpp:411] pool1 -> pool1
I0726 17:14:07.840656 60917 net.cpp:150] Setting up pool1
I0726 17:14:07.840673 60917 net.cpp:157] Top shape: 8 16 499 499 (31872128)
I0726 17:14:07.840682 60917 net.cpp:165] Memory required for data: 1241353824
I0726 17:14:07.840689 60917 layer_factory.hpp:76] Creating layer conv2
I0726 17:14:07.840705 60917 net.cpp:106] Creating Layer conv2
I0726 17:14:07.840714 60917 net.cpp:454] conv2 <- pool1
I0726 17:14:07.840724 60917 net.cpp:411] conv2 -> conv2
I0726 17:14:07.842857 60917 net.cpp:150] Setting up conv2
I0726 17:14:07.842880 60917 net.cpp:157] Top shape: 8 16 497 497 (31617152)
I0726 17:14:07.842887 60917 net.cpp:165] Memory required for data: 1367822432
I0726 17:14:07.842901 60917 layer_factory.hpp:76] Creating layer nonlin2
I0726 17:14:07.842912 60917 net.cpp:106] Creating Layer nonlin2
I0726 17:14:07.842921 60917 net.cpp:454] nonlin2 <- conv2
I0726 17:14:07.842933 60917 net.cpp:397] nonlin2 -> conv2 (in-place)
I0726 17:14:07.843152 60917 net.cpp:150] Setting up nonlin2
I0726 17:14:07.843171 60917 net.cpp:157] Top shape: 8 16 497 497 (31617152)
I0726 17:14:07.843190 60917 net.cpp:165] Memory required for data: 1494291040
I0726 17:14:07.843199 60917 layer_factory.hpp:76] Creating layer pool2
I0726 17:14:07.843209 60917 net.cpp:106] Creating Layer pool2
I0726 17:14:07.843217 60917 net.cpp:454] pool2 <- conv2
I0726 17:14:07.843250 60917 net.cpp:411] pool2 -> pool2
I0726 17:14:07.843756 60917 net.cpp:150] Setting up pool2
I0726 17:14:07.843775 60917 net.cpp:157] Top shape: 8 16 249 249 (7936128)
I0726 17:14:07.843783 60917 net.cpp:165] Memory required for data: 1526035552
I0726 17:14:07.843791 60917 layer_factory.hpp:76] Creating layer conv3
I0726 17:14:07.843807 60917 net.cpp:106] Creating Layer conv3
I0726 17:14:07.843816 60917 net.cpp:454] conv3 <- pool2
I0726 17:14:07.843825 60917 net.cpp:411] conv3 -> conv3
I0726 17:14:07.845041 60917 net.cpp:150] Setting up conv3
I0726 17:14:07.845062 60917 net.cpp:157] Top shape: 8 16 247 247 (7809152)
I0726 17:14:07.845070 60917 net.cpp:165] Memory required for data: 1557272160
I0726 17:14:07.845083 60917 layer_factory.hpp:76] Creating layer nonlin3
I0726 17:14:07.845094 60917 net.cpp:106] Creating Layer nonlin3
I0726 17:14:07.845103 60917 net.cpp:454] nonlin3 <- conv3
I0726 17:14:07.845113 60917 net.cpp:397] nonlin3 -> conv3 (in-place)
I0726 17:14:07.845325 60917 net.cpp:150] Setting up nonlin3
I0726 17:14:07.845343 60917 net.cpp:157] Top shape: 8 16 247 247 (7809152)
I0726 17:14:07.845362 60917 net.cpp:165] Memory required for data: 1588508768
I0726 17:14:07.845371 60917 layer_factory.hpp:76] Creating layer pool3
I0726 17:14:07.845393 60917 net.cpp:106] Creating Layer pool3
I0726 17:14:07.845402 60917 net.cpp:454] pool3 <- conv3
I0726 17:14:07.845412 60917 net.cpp:411] pool3 -> pool3
I0726 17:14:07.845939 60917 net.cpp:150] Setting up pool3
I0726 17:14:07.845958 60917 net.cpp:157] Top shape: 8 16 124 124 (1968128)
I0726 17:14:07.845968 60917 net.cpp:165] Memory required for data: 1596381280
I0726 17:14:07.845975 60917 layer_factory.hpp:76] Creating layer conv4
I0726 17:14:07.845989 60917 net.cpp:106] Creating Layer conv4
I0726 17:14:07.845998 60917 net.cpp:454] conv4 <- pool3
I0726 17:14:07.846007 60917 net.cpp:411] conv4 -> conv4
I0726 17:14:07.847138 60917 net.cpp:150] Setting up conv4
I0726 17:14:07.847162 60917 net.cpp:157] Top shape: 8 16 122 122 (1905152)
I0726 17:14:07.847169 60917 net.cpp:165] Memory required for data: 1604001888
I0726 17:14:07.847180 60917 layer_factory.hpp:76] Creating layer nonlin4
I0726 17:14:07.847192 60917 net.cpp:106] Creating Layer nonlin4
I0726 17:14:07.847200 60917 net.cpp:454] nonlin4 <- conv4
I0726 17:14:07.847209 60917 net.cpp:397] nonlin4 -> conv4 (in-place)
I0726 17:14:07.847426 60917 net.cpp:150] Setting up nonlin4
I0726 17:14:07.847453 60917 net.cpp:157] Top shape: 8 16 122 122 (1905152)
I0726 17:14:07.847461 60917 net.cpp:165] Memory required for data: 1611622496
I0726 17:14:07.847470 60917 layer_factory.hpp:76] Creating layer pool4
I0726 17:14:07.847479 60917 net.cpp:106] Creating Layer pool4
I0726 17:14:07.847488 60917 net.cpp:454] pool4 <- conv4
I0726 17:14:07.847499 60917 net.cpp:411] pool4 -> pool4
I0726 17:14:07.847993 60917 net.cpp:150] Setting up pool4
I0726 17:14:07.848011 60917 net.cpp:157] Top shape: 8 16 61 61 (476288)
I0726 17:14:07.848019 60917 net.cpp:165] Memory required for data: 1613527648
I0726 17:14:07.848028 60917 layer_factory.hpp:76] Creating layer ip1_c
I0726 17:14:07.848042 60917 net.cpp:106] Creating Layer ip1_c
I0726 17:14:07.848050 60917 net.cpp:454] ip1_c <- pool4
I0726 17:14:07.848059 60917 net.cpp:411] ip1_c -> ip1
I0726 17:14:07.849040 60917 cudnn_conv_layer.cpp:194] Reallocating workspace storage: 22118400
I0726 17:14:07.849436 60917 net.cpp:150] Setting up ip1_c
I0726 17:14:07.849453 60917 net.cpp:157] Top shape: 8 200 60 60 (5760000)
I0726 17:14:07.849462 60917 net.cpp:165] Memory required for data: 1636567648
I0726 17:14:07.849475 60917 layer_factory.hpp:76] Creating layer nonlin_ip1
I0726 17:14:07.849488 60917 net.cpp:106] Creating Layer nonlin_ip1
I0726 17:14:07.849494 60917 net.cpp:454] nonlin_ip1 <- ip1
I0726 17:14:07.849506 60917 net.cpp:397] nonlin_ip1 -> ip1 (in-place)
I0726 17:14:07.849938 60917 net.cpp:150] Setting up nonlin_ip1
I0726 17:14:07.849957 60917 net.cpp:157] Top shape: 8 200 60 60 (5760000)
I0726 17:14:07.849966 60917 net.cpp:165] Memory required for data: 1659607648
I0726 17:14:07.849973 60917 layer_factory.hpp:76] Creating layer ip2_c
I0726 17:14:07.850004 60917 net.cpp:106] Creating Layer ip2_c
I0726 17:14:07.850018 60917 net.cpp:454] ip2_c <- ip1
I0726 17:14:07.850028 60917 net.cpp:411] ip2_c -> ip2
I0726 17:14:07.851289 60917 net.cpp:150] Setting up ip2_c
I0726 17:14:07.851310 60917 net.cpp:157] Top shape: 8 2 60 60 (57600)
I0726 17:14:07.851318 60917 net.cpp:165] Memory required for data: 1659838048
I0726 17:14:07.851330 60917 layer_factory.hpp:76] Creating layer interloss
I0726 17:14:07.851343 60917 net.cpp:106] Creating Layer interloss
I0726 17:14:07.851352 60917 net.cpp:454] interloss <- ip2
I0726 17:14:07.851361 60917 net.cpp:411] interloss -> interloss
I0726 17:14:07.851656 60917 net.cpp:150] Setting up interloss
I0726 17:14:07.851685 60917 net.cpp:157] Top shape: 8 2 60 60 (57600)
I0726 17:14:07.851691 60917 net.cpp:165] Memory required for data: 1660068448
I0726 17:14:07.851699 60917 layer_factory.hpp:76] Creating layer conv61
I0726 17:14:07.851712 60917 net.cpp:106] Creating Layer conv61
I0726 17:14:07.851722 60917 net.cpp:454] conv61 <- interloss
I0726 17:14:07.851732 60917 net.cpp:411] conv61 -> conv61
I0726 17:14:07.852951 60917 cudnn_conv_layer.cpp:194] Reallocating workspace storage: 6220800
I0726 17:14:07.853206 60917 net.cpp:150] Setting up conv61
I0726 17:14:07.853224 60917 net.cpp:157] Top shape: 8 64 60 60 (1843200)
I0726 17:14:07.853232 60917 net.cpp:165] Memory required for data: 1667441248
I0726 17:14:07.853246 60917 layer_factory.hpp:76] Creating layer relu61
I0726 17:14:07.853262 60917 net.cpp:106] Creating Layer relu61
I0726 17:14:07.853271 60917 net.cpp:454] relu61 <- conv61
I0726 17:14:07.853281 60917 net.cpp:397] relu61 -> conv61 (in-place)
I0726 17:14:07.853726 60917 net.cpp:150] Setting up relu61
I0726 17:14:07.853747 60917 net.cpp:157] Top shape: 8 64 60 60 (1843200)
I0726 17:14:07.853755 60917 net.cpp:165] Memory required for data: 1674814048
I0726 17:14:07.853765 60917 layer_factory.hpp:76] Creating layer conv62
I0726 17:14:07.853777 60917 net.cpp:106] Creating Layer conv62
I0726 17:14:07.853786 60917 net.cpp:454] conv62 <- conv61
I0726 17:14:07.853798 60917 net.cpp:411] conv62 -> conv62
I0726 17:14:07.856106 60917 net.cpp:150] Setting up conv62
I0726 17:14:07.856128 60917 net.cpp:157] Top shape: 8 64 60 60 (1843200)
I0726 17:14:07.856137 60917 net.cpp:165] Memory required for data: 1682186848
I0726 17:14:07.856148 60917 layer_factory.hpp:76] Creating layer relu62
I0726 17:14:07.856164 60917 net.cpp:106] Creating Layer relu62
I0726 17:14:07.856173 60917 net.cpp:454] relu62 <- conv62
I0726 17:14:07.856183 60917 net.cpp:397] relu62 -> conv62 (in-place)
I0726 17:14:07.856639 60917 net.cpp:150] Setting up relu62
I0726 17:14:07.856659 60917 net.cpp:157] Top shape: 8 64 60 60 (1843200)
I0726 17:14:07.856667 60917 net.cpp:165] Memory required for data: 1689559648
I0726 17:14:07.856675 60917 layer_factory.hpp:76] Creating layer pool5
I0726 17:14:07.856689 60917 net.cpp:106] Creating Layer pool5
I0726 17:14:07.856698 60917 net.cpp:454] pool5 <- conv62
I0726 17:14:07.856708 60917 net.cpp:411] pool5 -> pool5
I0726 17:14:07.857218 60917 net.cpp:150] Setting up pool5
I0726 17:14:07.857250 60917 net.cpp:157] Top shape: 8 64 30 30 (460800)
I0726 17:14:07.857261 60917 net.cpp:165] Memory required for data: 1691402848
I0726 17:14:07.857270 60917 layer_factory.hpp:76] Creating layer conv71
I0726 17:14:07.857309 60917 net.cpp:106] Creating Layer conv71
I0726 17:14:07.857317 60917 net.cpp:454] conv71 <- pool5
I0726 17:14:07.857333 60917 net.cpp:411] conv71 -> conv71
I0726 17:14:07.858729 60917 cudnn_conv_layer.cpp:194] Reallocating workspace storage: 6912
I0726 17:14:07.858762 60917 net.cpp:150] Setting up conv71
I0726 17:14:07.858773 60917 net.cpp:157] Top shape: 8 96 30 30 (691200)
I0726 17:14:07.858783 60917 net.cpp:165] Memory required for data: 1694167648
I0726 17:14:07.858799 60917 layer_factory.hpp:76] Creating layer relu71
I0726 17:14:07.858811 60917 net.cpp:106] Creating Layer relu71
I0726 17:14:07.858819 60917 net.cpp:454] relu71 <- conv71
I0726 17:14:07.858841 60917 net.cpp:397] relu71 -> conv71 (in-place)
I0726 17:14:07.859366 60917 net.cpp:150] Setting up relu71
I0726 17:14:07.859386 60917 net.cpp:157] Top shape: 8 96 30 30 (691200)
I0726 17:14:07.859395 60917 net.cpp:165] Memory required for data: 1696932448
I0726 17:14:07.859402 60917 layer_factory.hpp:76] Creating layer conv72
I0726 17:14:07.859417 60917 net.cpp:106] Creating Layer conv72
I0726 17:14:07.859426 60917 net.cpp:454] conv72 <- conv71
I0726 17:14:07.859438 60917 net.cpp:411] conv72 -> conv72
I0726 17:14:07.861201 60917 cudnn_conv_layer.cpp:194] Reallocating workspace storage: 10368
I0726 17:14:07.861238 60917 net.cpp:150] Setting up conv72
I0726 17:14:07.861253 60917 net.cpp:157] Top shape: 8 96 30 30 (691200)
I0726 17:14:07.861260 60917 net.cpp:165] Memory required for data: 1699697248
I0726 17:14:07.861271 60917 layer_factory.hpp:76] Creating layer relu72
I0726 17:14:07.861281 60917 net.cpp:106] Creating Layer relu72
I0726 17:14:07.861290 60917 net.cpp:454] relu72 <- conv72
I0726 17:14:07.861315 60917 net.cpp:397] relu72 -> conv72 (in-place)
I0726 17:14:07.861541 60917 net.cpp:150] Setting up relu72
I0726 17:14:07.861557 60917 net.cpp:157] Top shape: 8 96 30 30 (691200)
I0726 17:14:07.861564 60917 net.cpp:165] Memory required for data: 1702462048
I0726 17:14:07.861572 60917 layer_factory.hpp:76] Creating layer pool6
I0726 17:14:07.861587 60917 net.cpp:106] Creating Layer pool6
I0726 17:14:07.861594 60917 net.cpp:454] pool6 <- conv72
I0726 17:14:07.861603 60917 net.cpp:411] pool6 -> pool6
I0726 17:14:07.862076 60917 net.cpp:150] Setting up pool6
I0726 17:14:07.862097 60917 net.cpp:157] Top shape: 8 96 15 15 (172800)
I0726 17:14:07.862104 60917 net.cpp:165] Memory required for data: 1703153248
I0726 17:14:07.862112 60917 layer_factory.hpp:76] Creating layer conv81
I0726 17:14:07.862129 60917 net.cpp:106] Creating Layer conv81
I0726 17:14:07.862138 60917 net.cpp:454] conv81 <- pool6
I0726 17:14:07.862149 60917 net.cpp:411] conv81 -> conv81
I0726 17:14:07.864822 60917 net.cpp:150] Setting up conv81
I0726 17:14:07.864845 60917 net.cpp:157] Top shape: 8 128 15 15 (230400)
I0726 17:14:07.864852 60917 net.cpp:165] Memory required for data: 1704074848
I0726 17:14:07.864863 60917 layer_factory.hpp:76] Creating layer relu81
I0726 17:14:07.864877 60917 net.cpp:106] Creating Layer relu81
I0726 17:14:07.864886 60917 net.cpp:454] relu81 <- conv81
I0726 17:14:07.864895 60917 net.cpp:397] relu81 -> conv81 (in-place)
I0726 17:14:07.865119 60917 net.cpp:150] Setting up relu81
I0726 17:14:07.865136 60917 net.cpp:157] Top shape: 8 128 15 15 (230400)
I0726 17:14:07.865144 60917 net.cpp:165] Memory required for data: 1704996448
I0726 17:14:07.865152 60917 layer_factory.hpp:76] Creating layer conv82
I0726 17:14:07.865166 60917 net.cpp:106] Creating Layer conv82
I0726 17:14:07.865175 60917 net.cpp:454] conv82 <- conv81
I0726 17:14:07.865186 60917 net.cpp:411] conv82 -> conv82
I0726 17:14:07.867492 60917 net.cpp:150] Setting up conv82
I0726 17:14:07.867518 60917 net.cpp:157] Top shape: 8 128 15 15 (230400)
I0726 17:14:07.867527 60917 net.cpp:165] Memory required for data: 1705918048
I0726 17:14:07.867537 60917 layer_factory.hpp:76] Creating layer relu82
I0726 17:14:07.867552 60917 net.cpp:106] Creating Layer relu82
I0726 17:14:07.867563 60917 net.cpp:454] relu82 <- conv82
I0726 17:14:07.867573 60917 net.cpp:397] relu82 -> conv82 (in-place)
I0726 17:14:07.867807 60917 net.cpp:150] Setting up relu82
I0726 17:14:07.867823 60917 net.cpp:157] Top shape: 8 128 15 15 (230400)
I0726 17:14:07.867831 60917 net.cpp:165] Memory required for data: 1706839648
I0726 17:14:07.867840 60917 layer_factory.hpp:76] Creating layer pool7
I0726 17:14:07.867856 60917 net.cpp:106] Creating Layer pool7
I0726 17:14:07.867866 60917 net.cpp:454] pool7 <- conv82
I0726 17:14:07.867877 60917 net.cpp:411] pool7 -> pool7
I0726 17:14:07.868383 60917 net.cpp:150] Setting up pool7
I0726 17:14:07.868402 60917 net.cpp:157] Top shape: 8 128 8 8 (65536)
I0726 17:14:07.868412 60917 net.cpp:165] Memory required for data: 1707101792
I0726 17:14:07.868419 60917 layer_factory.hpp:76] Creating layer drop0
I0726 17:14:07.868464 60917 net.cpp:106] Creating Layer drop0
I0726 17:14:07.868487 60917 net.cpp:454] drop0 <- pool7
I0726 17:14:07.868500 60917 net.cpp:397] drop0 -> pool7 (in-place)
I0726 17:14:07.868540 60917 net.cpp:150] Setting up drop0
I0726 17:14:07.868552 60917 net.cpp:157] Top shape: 8 128 8 8 (65536)
I0726 17:14:07.868561 60917 net.cpp:165] Memory required for data: 1707363936
I0726 17:14:07.868569 60917 layer_factory.hpp:76] Creating layer conv91
I0726 17:14:07.868584 60917 net.cpp:106] Creating Layer conv91
I0726 17:14:07.868592 60917 net.cpp:454] conv91 <- pool7
I0726 17:14:07.868603 60917 net.cpp:411] conv91 -> conv91
I0726 17:14:07.870069 60917 cudnn_conv_layer.cpp:194] Reallocating workspace storage: 98304
I0726 17:14:07.870100 60917 net.cpp:150] Setting up conv91
I0726 17:14:07.870111 60917 net.cpp:157] Top shape: 8 3 1 1 (24)
I0726 17:14:07.870121 60917 net.cpp:165] Memory required for data: 1707364032
I0726 17:14:07.870131 60917 layer_factory.hpp:76] Creating layer conv91_conv91_0_split
I0726 17:14:07.870148 60917 net.cpp:106] Creating Layer conv91_conv91_0_split
I0726 17:14:07.870157 60917 net.cpp:454] conv91_conv91_0_split <- conv91
I0726 17:14:07.870179 60917 net.cpp:411] conv91_conv91_0_split -> conv91_conv91_0_split_0
I0726 17:14:07.870193 60917 net.cpp:411] conv91_conv91_0_split -> conv91_conv91_0_split_1
I0726 17:14:07.870244 60917 net.cpp:150] Setting up conv91_conv91_0_split
I0726 17:14:07.870257 60917 net.cpp:157] Top shape: 8 3 1 1 (24)
I0726 17:14:07.870266 60917 net.cpp:157] Top shape: 8 3 1 1 (24)
I0726 17:14:07.870277 60917 net.cpp:165] Memory required for data: 1707364224
I0726 17:14:07.870296 60917 layer_factory.hpp:76] Creating layer accuracy
I0726 17:14:07.870337 60917 net.cpp:106] Creating Layer accuracy
I0726 17:14:07.870347 60917 net.cpp:454] accuracy <- conv91_conv91_0_split_0
I0726 17:14:07.870357 60917 net.cpp:454] accuracy <- label_data_1_split_0
I0726 17:14:07.870368 60917 net.cpp:411] accuracy -> accuracy
…
