…
I0727 09:57:34.979828 110285 net.cpp:322] The NetState phase (0) differed from the phase (1) specified by a rule in layer data
I0727 09:57:34.980012 110285 net.cpp:49] Initializing net from parameters: 
name: "Result Layer 3 Stack"
state {
  phase: TRAIN
}
layer {
  name: "data"
  type: "ImageData"
  top: "data"
  top: "label"
  include {
    phase: TRAIN
  }
  transform_param {
    mirror: true
    mean_value: 150
    mean_value: 150
    mean_value: 150
  }
  image_data_param {
    source: "../lists/mitosis_train-norm.lst"
    batch_size: 16
    shuffle: true
    new_height: 1000
    new_width: 1000
  }
}
layer {
  name: "conv1"
  type: "Convolution"
  bottom: "data"
  top: "conv1"
  param {
    lr_mult: 0
    decay_mult: 0
  }
  param {
    lr_mult: 0
    decay_mult: 0
  }
  convolution_param {
    num_output: 16
    pad: 0
    kernel_size: 4
    stride: 1
  }
}
layer {
  name: "nonlin1"
  type: "ReLU"
  bottom: "conv1"
  top: "conv1"
}
layer {
  name: "pool1"
  type: "Pooling"
  bottom: "conv1"
  top: "pool1"
  pooling_param {
    pool: MAX
    kernel_size: 2
    stride: 2
  }
}
layer {
  name: "conv2"
  type: "Convolution"
  bottom: "pool1"
  top: "conv2"
  param {
    lr_mult: 0
    decay_mult: 0
  }
  param {
    lr_mult: 0
    decay_mult: 0
  }
  convolution_param {
    num_output: 16
    pad: 0
    kernel_size: 3
    stride: 1
  }
}
layer {
  name: "nonlin2"
  type: "ReLU"
  bottom: "conv2"
  top: "conv2"
}
layer {
  name: "pool2"
  type: "Pooling"
  bottom: "conv2"
  top: "pool2"
  pooling_param {
    pool: MAX
    kernel_size: 2
    stride: 2
  }
}
layer {
  name: "conv3"
  type: "Convolution"
  bottom: "pool2"
  top: "conv3"
  param {
    lr_mult: 0
    decay_mult: 0
  }
  param {
    lr_mult: 0
    decay_mult: 0
  }
  convolution_param {
    num_output: 16
    pad: 0
    kernel_size: 3
    stride: 1
  }
}
layer {
  name: "nonlin3"
  type: "ReLU"
  bottom: "conv3"
  top: "conv3"
}
layer {
  name: "pool3"
  type: "Pooling"
  bottom: "conv3"
  top: "pool3"
  pooling_param {
    pool: MAX
    kernel_size: 2
    stride: 2
  }
}
layer {
  name: "conv4"
  type: "Convolution"
  bottom: "pool3"
  top: "conv4"
  param {
    lr_mult: 0
    decay_mult: 0
  }
  param {
    lr_mult: 0
    decay_mult: 0
  }
  convolution_param {
    num_output: 16
    pad: 0
    kernel_size: 3
    stride: 1
  }
}
layer {
  name: "nonlin4"
  type: "ReLU"
  bottom: "conv4"
  top: "conv4"
}
layer {
  name: "pool4"
  type: "Pooling"
  bottom: "conv4"
  top: "pool4"
  pooling_param {
    pool: MAX
    kernel_size: 2
    stride: 2
  }
}
layer {
  name: "ip1_c"
  type: "Convolution"
  bottom: "pool4"
  top: "ip1"
  convolution_param {
    num_output: 200
    pad: 0
    kernel_size: 2
    stride: 1
  }
}
layer {
  name: "nonlin_ip1"
  type: "ReLU"
  bottom: "ip1"
  top: "ip1"
}
layer {
  name: "conv61"
  type: "Convolution"
  bottom: "ip1"
  top: "conv61"
  param {
    lr_mult: 1
    decay_mult: 1
  }
  param {
    lr_mult: 2
    decay_mult: 0
  }
  convolution_param {
    num_output: 64
    pad: 1
    stride: 1
    weight_filler {
      type: "xavier"
    }
    bias_filler {
      type: "constant"
    }
    kernel_h: 3
    kernel_w: 3
  }
}
layer {
  name: "relu61"
  type: "ReLU"
  bottom: "conv61"
  top: "conv61"
}
layer {
  name: "conv62"
  type: "Convolution"
  bottom: "conv61"
  top: "conv62"
  param {
    lr_mult: 1
    decay_mult: 1
  }
  param {
    lr_mult: 2
    decay_mult: 0
  }
  convolution_param {
    num_output: 64
    pad: 1
    stride: 1
    weight_filler {
      type: "xavier"
    }
    bias_filler {
      type: "constant"
    }
    kernel_h: 3
    kernel_w: 3
  }
}
layer {
  name: "relu62"
  type: "ReLU"
  bottom: "conv62"
  top: "conv62"
}
layer {
  name: "pool5"
  type: "Pooling"
  bottom: "conv62"
  top: "pool5"
  pooling_param {
    pool: MAX
    kernel_size: 2
    stride: 2
  }
}
layer {
  name: "conv71"
  type: "Convolution"
  bottom: "pool5"
  top: "conv71"
  param {
    lr_mult: 1
    decay_mult: 1
  }
  param {
    lr_mult: 2
    decay_mult: 0
  }
  convolution_param {
    num_output: 96
    pad: 1
    stride: 1
    weight_filler {
      type: "xavier"
    }
    bias_filler {
      type: "constant"
    }
    kernel_h: 3
    kernel_w: 3
  }
}
layer {
  name: "relu71"
  type: "ReLU"
  bottom: "conv71"
  top: "conv71"
}
layer {
  name: "conv72"
  type: "Convolution"
  bottom: "conv71"
  top: "conv72"
  param {
    lr_mult: 1
    decay_mult: 1
  }
  param {
    lr_mult: 2
    decay_mult: 0
  }
  convolution_param {
    num_output: 96
    pad: 1
    stride: 1
    weight_filler {
      type: "xavier"
    }
    bias_filler {
      type: "constant"
    }
    kernel_h: 3
    kernel_w: 3
  }
}
layer {
  name: "relu72"
  type: "ReLU"
  bottom: "conv72"
  top: "conv72"
}
layer {
  name: "pool6"
  type: "Pooling"
  bottom: "conv72"
  top: "pool6"
  pooling_param {
    pool: MAX
    kernel_size: 2
    stride: 2
  }
}
layer {
  name: "conv81"
  type: "Convolution"
  bottom: "pool6"
  top: "conv81"
  param {
    lr_mult: 1
    decay_mult: 1
  }
  param {
    lr_mult: 2
    decay_mult: 0
  }
  convolution_param {
    num_output: 128
    pad: 1
    stride: 1
    weight_filler {
      type: "xavier"
    }
    bias_filler {
      type: "constant"
    }
    kernel_h: 3
    kernel_w: 3
  }
}
layer {
  name: "relu81"
  type: "ReLU"
  bottom: "conv81"
  top: "conv81"
}
layer {
  name: "conv82"
  type: "Convolution"
  bottom: "conv81"
  top: "conv82"
  param {
    lr_mult: 1
    decay_mult: 1
  }
  param {
    lr_mult: 2
    decay_mult: 0
  }
  convolution_param {
    num_output: 128
    pad: 1
    stride: 1
    weight_filler {
      type: "xavier"
    }
    bias_filler {
      type: "constant"
    }
    kernel_h: 3
    kernel_w: 3
  }
}
layer {
  name: "relu82"
  type: "ReLU"
  bottom: "conv82"
  top: "conv82"
}
layer {
  name: "pool7"
  type: "Pooling"
  bottom: "conv82"
  top: "pool7"
  pooling_param {
    pool: AVE
    kernel_size: 2
    stride: 2
  }
}
layer {
  name: "drop0"
  type: "Dropout"
  bottom: "pool7"
  top: "pool7"
  dropout_param {
    dropout_ratio: 0.4
  }
}
layer {
  name: "conv91"
  type: "Convolution"
  bottom: "pool7"
  top: "conv91"
  param {
    lr_mult: 1
    decay_mult: 1
  }
  param {
    lr_mult: 2
    decay_mult: 0
  }
  convolution_param {
    num_output: 3
    stride: 1
    weight_filler {
      type: "xavier"
    }
    bias_filler {
      type: "constant"
    }
    kernel_h: 8
    kernel_w: 8
  }
}
layer {
  name: "accuracy"
  type: "Accuracy"
  bottom: "conv91"
  bottom: "label"
  top: "accuracy"
}
layer {
  name: "loss"
  type: "SoftmaxWithLoss"
  bottom: "conv91"
  bottom: "label"
  top: "loss"
}
I0727 09:57:34.981389 110285 layer_factory.hpp:76] Creating layer data
I0727 09:57:34.981431 110285 net.cpp:106] Creating Layer data
I0727 09:57:34.981446 110285 net.cpp:411] data -> data
I0727 09:57:34.981477 110285 net.cpp:411] data -> label
I0727 09:57:34.981849 110285 image_data_layer.cpp:36] Opening file ../lists/mitosis_train-norm.lst
I0727 09:57:34.992416 110285 image_data_layer.cpp:46] Shuffling data
I0727 09:57:34.993702 110285 image_data_layer.cpp:51] A total of 21360 images.
I0727 09:57:35.073328 110285 image_data_layer.cpp:78] output data size: 16,3,1000,1000
I0727 09:57:35.567965 110285 net.cpp:150] Setting up data
I0727 09:57:35.568035 110285 net.cpp:157] Top shape: 16 3 1000 1000 (48000000)
I0727 09:57:35.568048 110285 net.cpp:157] Top shape: 16 (16)
I0727 09:57:35.568055 110285 net.cpp:165] Memory required for data: 192000064
I0727 09:57:35.568069 110285 layer_factory.hpp:76] Creating layer label_data_1_split
I0727 09:57:35.568090 110285 net.cpp:106] Creating Layer label_data_1_split
I0727 09:57:35.568100 110285 net.cpp:454] label_data_1_split <- label
I0727 09:57:35.568161 110285 net.cpp:411] label_data_1_split -> label_data_1_split_0
I0727 09:57:35.568177 110285 net.cpp:411] label_data_1_split -> label_data_1_split_1
I0727 09:57:35.568234 110285 net.cpp:150] Setting up label_data_1_split
I0727 09:57:35.568248 110285 net.cpp:157] Top shape: 16 (16)
I0727 09:57:35.568256 110285 net.cpp:157] Top shape: 16 (16)
I0727 09:57:35.568264 110285 net.cpp:165] Memory required for data: 192000192
I0727 09:57:35.568271 110285 layer_factory.hpp:76] Creating layer conv1
I0727 09:57:35.568294 110285 net.cpp:106] Creating Layer conv1
I0727 09:57:35.568301 110285 net.cpp:454] conv1 <- data
I0727 09:57:35.568313 110285 net.cpp:411] conv1 -> conv1
I0727 09:57:35.775327 110285 net.cpp:150] Setting up conv1
I0727 09:57:35.775378 110285 net.cpp:157] Top shape: 16 16 997 997 (254466304)
I0727 09:57:35.775388 110285 net.cpp:165] Memory required for data: 1209865408
I0727 09:57:35.775419 110285 layer_factory.hpp:76] Creating layer nonlin1
I0727 09:57:35.775440 110285 net.cpp:106] Creating Layer nonlin1
I0727 09:57:35.775449 110285 net.cpp:454] nonlin1 <- conv1
I0727 09:57:35.775460 110285 net.cpp:397] nonlin1 -> conv1 (in-place)
I0727 09:57:35.775611 110285 net.cpp:150] Setting up nonlin1
I0727 09:57:35.775629 110285 net.cpp:157] Top shape: 16 16 997 997 (254466304)
I0727 09:57:35.775636 110285 net.cpp:165] Memory required for data: 2227730624
I0727 09:57:35.775648 110285 layer_factory.hpp:76] Creating layer pool1
I0727 09:57:35.775661 110285 net.cpp:106] Creating Layer pool1
I0727 09:57:35.775674 110285 net.cpp:454] pool1 <- conv1
I0727 09:57:35.775682 110285 net.cpp:411] pool1 -> pool1
I0727 09:57:35.776144 110285 net.cpp:150] Setting up pool1
I0727 09:57:35.776163 110285 net.cpp:157] Top shape: 16 16 499 499 (63744256)
I0727 09:57:35.776171 110285 net.cpp:165] Memory required for data: 2482707648
I0727 09:57:35.776180 110285 layer_factory.hpp:76] Creating layer conv2
I0727 09:57:35.776196 110285 net.cpp:106] Creating Layer conv2
I0727 09:57:35.776206 110285 net.cpp:454] conv2 <- pool1
I0727 09:57:35.776216 110285 net.cpp:411] conv2 -> conv2
I0727 09:57:35.778594 110285 cudnn_conv_layer.cpp:194] Reallocating workspace storage: 1728
I0727 09:57:35.778920 110285 net.cpp:150] Setting up conv2
I0727 09:57:35.778939 110285 net.cpp:157] Top shape: 16 16 497 497 (63234304)
I0727 09:57:35.778947 110285 net.cpp:165] Memory required for data: 2735644864
I0727 09:57:35.778960 110285 layer_factory.hpp:76] Creating layer nonlin2
I0727 09:57:35.778972 110285 net.cpp:106] Creating Layer nonlin2
I0727 09:57:35.778980 110285 net.cpp:454] nonlin2 <- conv2
I0727 09:57:35.778997 110285 net.cpp:397] nonlin2 -> conv2 (in-place)
I0727 09:57:35.779148 110285 net.cpp:150] Setting up nonlin2
I0727 09:57:35.779163 110285 net.cpp:157] Top shape: 16 16 497 497 (63234304)
I0727 09:57:35.779171 110285 net.cpp:165] Memory required for data: 2988582080
I0727 09:57:35.779180 110285 layer_factory.hpp:76] Creating layer pool2
I0727 09:57:35.779189 110285 net.cpp:106] Creating Layer pool2
I0727 09:57:35.779196 110285 net.cpp:454] pool2 <- conv2
I0727 09:57:35.779217 110285 net.cpp:411] pool2 -> pool2
I0727 09:57:35.779664 110285 net.cpp:150] Setting up pool2
I0727 09:57:35.779682 110285 net.cpp:157] Top shape: 16 16 249 249 (15872256)
I0727 09:57:35.779690 110285 net.cpp:165] Memory required for data: 3052071104
I0727 09:57:35.779698 110285 layer_factory.hpp:76] Creating layer conv3
I0727 09:57:35.779711 110285 net.cpp:106] Creating Layer conv3
I0727 09:57:35.779719 110285 net.cpp:454] conv3 <- pool2
I0727 09:57:35.779736 110285 net.cpp:411] conv3 -> conv3
I0727 09:57:35.781404 110285 net.cpp:150] Setting up conv3
I0727 09:57:35.781425 110285 net.cpp:157] Top shape: 16 16 247 247 (15618304)
I0727 09:57:35.781433 110285 net.cpp:165] Memory required for data: 3114544320
I0727 09:57:35.781451 110285 layer_factory.hpp:76] Creating layer nonlin3
I0727 09:57:35.781463 110285 net.cpp:106] Creating Layer nonlin3
I0727 09:57:35.781472 110285 net.cpp:454] nonlin3 <- conv3
I0727 09:57:35.781481 110285 net.cpp:397] nonlin3 -> conv3 (in-place)
I0727 09:57:35.781652 110285 net.cpp:150] Setting up nonlin3
I0727 09:57:35.781668 110285 net.cpp:157] Top shape: 16 16 247 247 (15618304)
I0727 09:57:35.781675 110285 net.cpp:165] Memory required for data: 3177017536
I0727 09:57:35.781683 110285 layer_factory.hpp:76] Creating layer pool3
I0727 09:57:35.781693 110285 net.cpp:106] Creating Layer pool3
I0727 09:57:35.781700 110285 net.cpp:454] pool3 <- conv3
I0727 09:57:35.781710 110285 net.cpp:411] pool3 -> pool3
I0727 09:57:35.782136 110285 net.cpp:150] Setting up pool3
I0727 09:57:35.782155 110285 net.cpp:157] Top shape: 16 16 124 124 (3936256)
I0727 09:57:35.782163 110285 net.cpp:165] Memory required for data: 3192762560
I0727 09:57:35.782174 110285 layer_factory.hpp:76] Creating layer conv4
I0727 09:57:35.782186 110285 net.cpp:106] Creating Layer conv4
I0727 09:57:35.782192 110285 net.cpp:454] conv4 <- pool3
I0727 09:57:35.782202 110285 net.cpp:411] conv4 -> conv4
I0727 09:57:35.783676 110285 net.cpp:150] Setting up conv4
I0727 09:57:35.783700 110285 net.cpp:157] Top shape: 16 16 122 122 (3810304)
I0727 09:57:35.783709 110285 net.cpp:165] Memory required for data: 3208003776
I0727 09:57:35.783725 110285 layer_factory.hpp:76] Creating layer nonlin4
I0727 09:57:35.783735 110285 net.cpp:106] Creating Layer nonlin4
I0727 09:57:35.783742 110285 net.cpp:454] nonlin4 <- conv4
I0727 09:57:35.783766 110285 net.cpp:397] nonlin4 -> conv4 (in-place)
I0727 09:57:35.784153 110285 net.cpp:150] Setting up nonlin4
I0727 09:57:35.784173 110285 net.cpp:157] Top shape: 16 16 122 122 (3810304)
I0727 09:57:35.784179 110285 net.cpp:165] Memory required for data: 3223244992
I0727 09:57:35.784190 110285 layer_factory.hpp:76] Creating layer pool4
I0727 09:57:35.784201 110285 net.cpp:106] Creating Layer pool4
I0727 09:57:35.784209 110285 net.cpp:454] pool4 <- conv4
I0727 09:57:35.784227 110285 net.cpp:411] pool4 -> pool4
I0727 09:57:35.784680 110285 net.cpp:150] Setting up pool4
I0727 09:57:35.784698 110285 net.cpp:157] Top shape: 16 16 61 61 (952576)
I0727 09:57:35.784705 110285 net.cpp:165] Memory required for data: 3227055296
I0727 09:57:35.784713 110285 layer_factory.hpp:76] Creating layer ip1_c
I0727 09:57:35.784734 110285 net.cpp:106] Creating Layer ip1_c
I0727 09:57:35.784741 110285 net.cpp:454] ip1_c <- pool4
I0727 09:57:35.784751 110285 net.cpp:411] ip1_c -> ip1
I0727 09:57:35.785554 110285 cudnn_conv_layer.cpp:194] Reallocating workspace storage: 768
I0727 09:57:35.785583 110285 net.cpp:150] Setting up ip1_c
I0727 09:57:35.785594 110285 net.cpp:157] Top shape: 16 200 60 60 (11520000)
I0727 09:57:35.785604 110285 net.cpp:165] Memory required for data: 3273135296
I0727 09:57:35.785619 110285 layer_factory.hpp:76] Creating layer nonlin_ip1
I0727 09:57:35.785632 110285 net.cpp:106] Creating Layer nonlin_ip1
I0727 09:57:35.785640 110285 net.cpp:454] nonlin_ip1 <- ip1
I0727 09:57:35.785648 110285 net.cpp:397] nonlin_ip1 -> ip1 (in-place)
I0727 09:57:35.786049 110285 net.cpp:150] Setting up nonlin_ip1
I0727 09:57:35.786067 110285 net.cpp:157] Top shape: 16 200 60 60 (11520000)
I0727 09:57:35.786074 110285 net.cpp:165] Memory required for data: 3319215296
I0727 09:57:35.786082 110285 layer_factory.hpp:76] Creating layer conv61
I0727 09:57:35.786098 110285 net.cpp:106] Creating Layer conv61
I0727 09:57:35.786108 110285 net.cpp:454] conv61 <- ip1
I0727 09:57:35.786125 110285 net.cpp:411] conv61 -> conv61
I0727 09:57:35.788543 110285 cudnn_conv_layer.cpp:194] Reallocating workspace storage: 21600
I0727 09:57:35.788575 110285 net.cpp:150] Setting up conv61
I0727 09:57:35.788588 110285 net.cpp:157] Top shape: 16 64 60 60 (3686400)
I0727 09:57:35.788604 110285 net.cpp:165] Memory required for data: 3333960896
I0727 09:57:35.788614 110285 layer_factory.hpp:76] Creating layer relu61
I0727 09:57:35.788630 110285 net.cpp:106] Creating Layer relu61
I0727 09:57:35.788640 110285 net.cpp:454] relu61 <- conv61
I0727 09:57:35.788651 110285 net.cpp:397] relu61 -> conv61 (in-place)
I0727 09:57:35.788818 110285 net.cpp:150] Setting up relu61
I0727 09:57:35.788835 110285 net.cpp:157] Top shape: 16 64 60 60 (3686400)
I0727 09:57:35.788873 110285 net.cpp:165] Memory required for data: 3348706496
I0727 09:57:35.788887 110285 layer_factory.hpp:76] Creating layer conv62
I0727 09:57:35.788902 110285 net.cpp:106] Creating Layer conv62
I0727 09:57:35.788910 110285 net.cpp:454] conv62 <- conv61
I0727 09:57:35.788926 110285 net.cpp:411] conv62 -> conv62
I0727 09:57:35.790740 110285 net.cpp:150] Setting up conv62
I0727 09:57:35.790761 110285 net.cpp:157] Top shape: 16 64 60 60 (3686400)
I0727 09:57:35.790771 110285 net.cpp:165] Memory required for data: 3363452096
I0727 09:57:35.790782 110285 layer_factory.hpp:76] Creating layer relu62
I0727 09:57:35.790794 110285 net.cpp:106] Creating Layer relu62
I0727 09:57:35.790802 110285 net.cpp:454] relu62 <- conv62
I0727 09:57:35.790812 110285 net.cpp:397] relu62 -> conv62 (in-place)
I0727 09:57:35.791230 110285 net.cpp:150] Setting up relu62
I0727 09:57:35.791249 110285 net.cpp:157] Top shape: 16 64 60 60 (3686400)
I0727 09:57:35.791261 110285 net.cpp:165] Memory required for data: 3378197696
I0727 09:57:35.791270 110285 layer_factory.hpp:76] Creating layer pool5
I0727 09:57:35.791280 110285 net.cpp:106] Creating Layer pool5
I0727 09:57:35.791287 110285 net.cpp:454] pool5 <- conv62
I0727 09:57:35.791299 110285 net.cpp:411] pool5 -> pool5
I0727 09:57:35.791496 110285 net.cpp:150] Setting up pool5
I0727 09:57:35.791515 110285 net.cpp:157] Top shape: 16 64 30 30 (921600)
I0727 09:57:35.791538 110285 net.cpp:165] Memory required for data: 3381884096
I0727 09:57:35.791545 110285 layer_factory.hpp:76] Creating layer conv71
I0727 09:57:35.791556 110285 net.cpp:106] Creating Layer conv71
I0727 09:57:35.791564 110285 net.cpp:454] conv71 <- pool5
I0727 09:57:35.791575 110285 net.cpp:411] conv71 -> conv71
I0727 09:57:35.793118 110285 cudnn_conv_layer.cpp:194] Reallocating workspace storage: 6912
I0727 09:57:35.793465 110285 net.cpp:150] Setting up conv71
I0727 09:57:35.793485 110285 net.cpp:157] Top shape: 16 96 30 30 (1382400)
I0727 09:57:35.793494 110285 net.cpp:165] Memory required for data: 3387413696
I0727 09:57:35.793504 110285 layer_factory.hpp:76] Creating layer relu71
I0727 09:57:35.793519 110285 net.cpp:106] Creating Layer relu71
I0727 09:57:35.793529 110285 net.cpp:454] relu71 <- conv71
I0727 09:57:35.793536 110285 net.cpp:397] relu71 -> conv71 (in-place)
I0727 09:57:35.793710 110285 net.cpp:150] Setting up relu71
I0727 09:57:35.793727 110285 net.cpp:157] Top shape: 16 96 30 30 (1382400)
I0727 09:57:35.793738 110285 net.cpp:165] Memory required for data: 3392943296
I0727 09:57:35.793745 110285 layer_factory.hpp:76] Creating layer conv72
I0727 09:57:35.793762 110285 net.cpp:106] Creating Layer conv72
I0727 09:57:35.793771 110285 net.cpp:454] conv72 <- conv71
I0727 09:57:35.793781 110285 net.cpp:411] conv72 -> conv72
I0727 09:57:35.795441 110285 net.cpp:150] Setting up conv72
I0727 09:57:35.795462 110285 net.cpp:157] Top shape: 16 96 30 30 (1382400)
I0727 09:57:35.795474 110285 net.cpp:165] Memory required for data: 3398472896
I0727 09:57:35.795491 110285 layer_factory.hpp:76] Creating layer relu72
I0727 09:57:35.795506 110285 net.cpp:106] Creating Layer relu72
I0727 09:57:35.795513 110285 net.cpp:454] relu72 <- conv72
I0727 09:57:35.795522 110285 net.cpp:397] relu72 -> conv72 (in-place)
I0727 09:57:35.795930 110285 net.cpp:150] Setting up relu72
I0727 09:57:35.795950 110285 net.cpp:157] Top shape: 16 96 30 30 (1382400)
I0727 09:57:35.795961 110285 net.cpp:165] Memory required for data: 3404002496
I0727 09:57:35.795969 110285 layer_factory.hpp:76] Creating layer pool6
I0727 09:57:35.795984 110285 net.cpp:106] Creating Layer pool6
I0727 09:57:35.795992 110285 net.cpp:454] pool6 <- conv72
I0727 09:57:35.796001 110285 net.cpp:411] pool6 -> pool6
I0727 09:57:35.796196 110285 net.cpp:150] Setting up pool6
I0727 09:57:35.796213 110285 net.cpp:157] Top shape: 16 96 15 15 (345600)
I0727 09:57:35.796224 110285 net.cpp:165] Memory required for data: 3405384896
I0727 09:57:35.796232 110285 layer_factory.hpp:76] Creating layer conv81
I0727 09:57:35.796250 110285 net.cpp:106] Creating Layer conv81
I0727 09:57:35.796272 110285 net.cpp:454] conv81 <- pool6
I0727 09:57:35.796283 110285 net.cpp:411] conv81 -> conv81
I0727 09:57:35.798805 110285 cudnn_conv_layer.cpp:194] Reallocating workspace storage: 10368
I0727 09:57:35.798840 110285 net.cpp:150] Setting up conv81
I0727 09:57:35.798852 110285 net.cpp:157] Top shape: 16 128 15 15 (460800)
I0727 09:57:35.798863 110285 net.cpp:165] Memory required for data: 3407228096
I0727 09:57:35.798873 110285 layer_factory.hpp:76] Creating layer relu81
I0727 09:57:35.798887 110285 net.cpp:106] Creating Layer relu81
I0727 09:57:35.798895 110285 net.cpp:454] relu81 <- conv81
I0727 09:57:35.798904 110285 net.cpp:397] relu81 -> conv81 (in-place)
I0727 09:57:35.799319 110285 net.cpp:150] Setting up relu81
I0727 09:57:35.799338 110285 net.cpp:157] Top shape: 16 128 15 15 (460800)
I0727 09:57:35.799350 110285 net.cpp:165] Memory required for data: 3409071296
I0727 09:57:35.799357 110285 layer_factory.hpp:76] Creating layer conv82
I0727 09:57:35.799374 110285 net.cpp:106] Creating Layer conv82
I0727 09:57:35.799383 110285 net.cpp:454] conv82 <- conv81
I0727 09:57:35.799393 110285 net.cpp:411] conv82 -> conv82
I0727 09:57:35.801193 110285 cudnn_conv_layer.cpp:194] Reallocating workspace storage: 13824
I0727 09:57:35.801228 110285 net.cpp:150] Setting up conv82
I0727 09:57:35.801239 110285 net.cpp:157] Top shape: 16 128 15 15 (460800)
I0727 09:57:35.801247 110285 net.cpp:165] Memory required for data: 3410914496
I0727 09:57:35.801259 110285 layer_factory.hpp:76] Creating layer relu82
I0727 09:57:35.801268 110285 net.cpp:106] Creating Layer relu82
I0727 09:57:35.801277 110285 net.cpp:454] relu82 <- conv82
I0727 09:57:35.801288 110285 net.cpp:397] relu82 -> conv82 (in-place)
I0727 09:57:35.801703 110285 net.cpp:150] Setting up relu82
I0727 09:57:35.801723 110285 net.cpp:157] Top shape: 16 128 15 15 (460800)
I0727 09:57:35.801733 110285 net.cpp:165] Memory required for data: 3412757696
I0727 09:57:35.801740 110285 layer_factory.hpp:76] Creating layer pool7
I0727 09:57:35.801753 110285 net.cpp:106] Creating Layer pool7
I0727 09:57:35.801761 110285 net.cpp:454] pool7 <- conv82
I0727 09:57:35.801770 110285 net.cpp:411] pool7 -> pool7
I0727 09:57:35.801949 110285 net.cpp:150] Setting up pool7
I0727 09:57:35.801966 110285 net.cpp:157] Top shape: 16 128 8 8 (131072)
I0727 09:57:35.801976 110285 net.cpp:165] Memory required for data: 3413281984
I0727 09:57:35.801985 110285 layer_factory.hpp:76] Creating layer drop0
I0727 09:57:35.801997 110285 net.cpp:106] Creating Layer drop0
I0727 09:57:35.802006 110285 net.cpp:454] drop0 <- pool7
I0727 09:57:35.802013 110285 net.cpp:397] drop0 -> pool7 (in-place)
I0727 09:57:35.802049 110285 net.cpp:150] Setting up drop0
I0727 09:57:35.802062 110285 net.cpp:157] Top shape: 16 128 8 8 (131072)
I0727 09:57:35.802068 110285 net.cpp:165] Memory required for data: 3413806272
I0727 09:57:35.802076 110285 layer_factory.hpp:76] Creating layer conv91
I0727 09:57:35.802091 110285 net.cpp:106] Creating Layer conv91
I0727 09:57:35.802103 110285 net.cpp:454] conv91 <- pool7
I0727 09:57:35.802114 110285 net.cpp:411] conv91 -> conv91
I0727 09:57:35.803499 110285 cudnn_conv_layer.cpp:194] Reallocating workspace storage: 98304
I0727 09:57:35.803725 110285 net.cpp:150] Setting up conv91
I0727 09:57:35.803743 110285 net.cpp:157] Top shape: 16 3 1 1 (48)
I0727 09:57:35.803753 110285 net.cpp:165] Memory required for data: 3413806464
I0727 09:57:35.803764 110285 layer_factory.hpp:76] Creating layer conv91_conv91_0_split
I0727 09:57:35.803776 110285 net.cpp:106] Creating Layer conv91_conv91_0_split
I0727 09:57:35.803783 110285 net.cpp:454] conv91_conv91_0_split <- conv91
I0727 09:57:35.803795 110285 net.cpp:411] conv91_conv91_0_split -> conv91_conv91_0_split_0
I0727 09:57:35.803807 110285 net.cpp:411] conv91_conv91_0_split -> conv91_conv91_0_split_1
I0727 09:57:35.803850 110285 net.cpp:150] Setting up conv91_conv91_0_split
I0727 09:57:35.803864 110285 net.cpp:157] Top shape: 16 3 1 1 (48)
I0727 09:57:35.803871 110285 net.cpp:157] Top shape: 16 3 1 1 (48)
I0727 09:57:35.803894 110285 net.cpp:165] Memory required for data: 3413806848
I0727 09:57:35.803901 110285 layer_factory.hpp:76] Creating layer accuracy
I0727 09:57:35.803915 110285 net.cpp:106] Creating Layer accuracy
I0727 09:57:35.803922 110285 net.cpp:454] accuracy <- conv91_conv91_0_split_0
I0727 09:57:35.803930 110285 net.cpp:454] accuracy <- label_data_1_split_0
I0727 09:57:35.803939 110285 net.cpp:411] accuracy -> accuracy
…
I0727 09:57:35.805760 110285 net.cpp:322] The NetState phase (1) differed from the phase (0) specified by a rule in layer data
I0727 09:57:35.805959 110285 net.cpp:49] Initializing net from parameters: 
name: "Result Layer 3 Stack"
state {
  phase: TEST
}
layer {
  name: "data"
  type: "ImageData"
  top: "data"
  top: "label"
  include {
    phase: TEST
  }
  transform_param {
    mirror: false
    mean_value: 150
    mean_value: 150
    mean_value: 150
  }
  image_data_param {
    source: "../lists/mitosis_val-norm.lst"
    batch_size: 8
    shuffle: true
    new_height: 1000
    new_width: 1000
  }
}
layer {
  name: "conv1"
  type: "Convolution"
  bottom: "data"
  top: "conv1"
  param {
    lr_mult: 0
    decay_mult: 0
  }
  param {
    lr_mult: 0
    decay_mult: 0
  }
  convolution_param {
    num_output: 16
    pad: 0
    kernel_size: 4
    stride: 1
  }
}
layer {
  name: "nonlin1"
  type: "ReLU"
  bottom: "conv1"
  top: "conv1"
}
layer {
  name: "pool1"
  type: "Pooling"
  bottom: "conv1"
  top: "pool1"
  pooling_param {
    pool: MAX
    kernel_size: 2
    stride: 2
  }
}
layer {
  name: "conv2"
  type: "Convolution"
  bottom: "pool1"
  top: "conv2"
  param {
    lr_mult: 0
    decay_mult: 0
  }
  param {
    lr_mult: 0
    decay_mult: 0
  }
  convolution_param {
    num_output: 16
    pad: 0
    kernel_size: 3
    stride: 1
  }
}
layer {
  name: "nonlin2"
  type: "ReLU"
  bottom: "conv2"
  top: "conv2"
}
layer {
  name: "pool2"
  type: "Pooling"
  bottom: "conv2"
  top: "pool2"
  pooling_param {
    pool: MAX
    kernel_size: 2
    stride: 2
  }
}
layer {
  name: "conv3"
  type: "Convolution"
  bottom: "pool2"
  top: "conv3"
  param {
    lr_mult: 0
    decay_mult: 0
  }
  param {
    lr_mult: 0
    decay_mult: 0
  }
  convolution_param {
    num_output: 16
    pad: 0
    kernel_size: 3
    stride: 1
  }
}
layer {
  name: "nonlin3"
  type: "ReLU"
  bottom: "conv3"
  top: "conv3"
}
layer {
  name: "pool3"
  type: "Pooling"
  bottom: "conv3"
  top: "pool3"
  pooling_param {
    pool: MAX
    kernel_size: 2
    stride: 2
  }
}
layer {
  name: "conv4"
  type: "Convolution"
  bottom: "pool3"
  top: "conv4"
  param {
    lr_mult: 0
    decay_mult: 0
  }
  param {
    lr_mult: 0
    decay_mult: 0
  }
  convolution_param {
    num_output: 16
    pad: 0
    kernel_size: 3
    stride: 1
  }
}
layer {
  name: "nonlin4"
  type: "ReLU"
  bottom: "conv4"
  top: "conv4"
}
layer {
  name: "pool4"
  type: "Pooling"
  bottom: "conv4"
  top: "pool4"
  pooling_param {
    pool: MAX
    kernel_size: 2
    stride: 2
  }
}
layer {
  name: "ip1_c"
  type: "Convolution"
  bottom: "pool4"
  top: "ip1"
  convolution_param {
    num_output: 200
    pad: 0
    kernel_size: 2
    stride: 1
  }
}
layer {
  name: "nonlin_ip1"
  type: "ReLU"
  bottom: "ip1"
  top: "ip1"
}
layer {
  name: "conv61"
  type: "Convolution"
  bottom: "ip1"
  top: "conv61"
  param {
    lr_mult: 1
    decay_mult: 1
  }
  param {
    lr_mult: 2
    decay_mult: 0
  }
  convolution_param {
    num_output: 64
    pad: 1
    stride: 1
    weight_filler {
      type: "xavier"
    }
    bias_filler {
      type: "constant"
    }
    kernel_h: 3
    kernel_w: 3
  }
}
layer {
  name: "relu61"
  type: "ReLU"
  bottom: "conv61"
  top: "conv61"
}
layer {
  name: "conv62"
  type: "Convolution"
  bottom: "conv61"
  top: "conv62"
  param {
    lr_mult: 1
    decay_mult: 1
  }
  param {
    lr_mult: 2
    decay_mult: 0
  }
  convolution_param {
    num_output: 64
    pad: 1
    stride: 1
    weight_filler {
      type: "xavier"
    }
    bias_filler {
      type: "constant"
    }
    kernel_h: 3
    kernel_w: 3
  }
}
layer {
  name: "relu62"
  type: "ReLU"
  bottom: "conv62"
  top: "conv62"
}
layer {
  name: "pool5"
  type: "Pooling"
  bottom: "conv62"
  top: "pool5"
  pooling_param {
    pool: MAX
    kernel_size: 2
    stride: 2
  }
}
layer {
  name: "conv71"
  type: "Convolution"
  bottom: "pool5"
  top: "conv71"
  param {
    lr_mult: 1
    decay_mult: 1
  }
  param {
    lr_mult: 2
    decay_mult: 0
  }
  convolution_param {
    num_output: 96
    pad: 1
    stride: 1
    weight_filler {
      type: "xavier"
    }
    bias_filler {
      type: "constant"
    }
    kernel_h: 3
    kernel_w: 3
  }
}
layer {
  name: "relu71"
  type: "ReLU"
  bottom: "conv71"
  top: "conv71"
}
layer {
  name: "conv72"
  type: "Convolution"
  bottom: "conv71"
  top: "conv72"
  param {
    lr_mult: 1
    decay_mult: 1
  }
  param {
    lr_mult: 2
    decay_mult: 0
  }
  convolution_param {
    num_output: 96
    pad: 1
    stride: 1
    weight_filler {
      type: "xavier"
    }
    bias_filler {
      type: "constant"
    }
    kernel_h: 3
    kernel_w: 3
  }
}
layer {
  name: "relu72"
  type: "ReLU"
  bottom: "conv72"
  top: "conv72"
}
layer {
  name: "pool6"
  type: "Pooling"
  bottom: "conv72"
  top: "pool6"
  pooling_param {
    pool: MAX
    kernel_size: 2
    stride: 2
  }
}
layer {
  name: "conv81"
  type: "Convolution"
  bottom: "pool6"
  top: "conv81"
  param {
    lr_mult: 1
    decay_mult: 1
  }
  param {
    lr_mult: 2
    decay_mult: 0
  }
  convolution_param {
    num_output: 128
    pad: 1
    stride: 1
    weight_filler {
      type: "xavier"
    }
    bias_filler {
      type: "constant"
    }
    kernel_h: 3
    kernel_w: 3
  }
}
layer {
  name: "relu81"
  type: "ReLU"
  bottom: "conv81"
  top: "conv81"
}
layer {
  name: "conv82"
  type: "Convolution"
  bottom: "conv81"
  top: "conv82"
  param {
    lr_mult: 1
    decay_mult: 1
  }
  param {
    lr_mult: 2
    decay_mult: 0
  }
  convolution_param {
    num_output: 128
    pad: 1
    stride: 1
    weight_filler {
      type: "xavier"
    }
    bias_filler {
      type: "constant"
    }
    kernel_h: 3
    kernel_w: 3
  }
}
layer {
  name: "relu82"
  type: "ReLU"
  bottom: "conv82"
  top: "conv82"
}
layer {
  name: "pool7"
  type: "Pooling"
  bottom: "conv82"
  top: "pool7"
  pooling_param {
    pool: AVE
    kernel_size: 2
    stride: 2
  }
}
layer {
  name: "drop0"
  type: "Dropout"
  bottom: "pool7"
  top: "pool7"
  dropout_param {
    dropout_ratio: 0.4
  }
}
layer {
  name: "conv91"
  type: "Convolution"
  bottom: "pool7"
  top: "conv91"
  param {
    lr_mult: 1
    decay_mult: 1
  }
  param {
    lr_mult: 2
    decay_mult: 0
  }
  convolution_param {
    num_output: 3
    stride: 1
    weight_filler {
      type: "xavier"
    }
    bias_filler {
      type: "constant"
    }
    kernel_h: 8
    kernel_w: 8
  }
}
layer {
  name: "accuracy"
  type: "Accuracy"
  bottom: "conv91"
  bottom: "label"
  top: "accuracy"
}
layer {
  name: "loss"
  type: "SoftmaxWithLoss"
  bottom: "conv91"
  bottom: "label"
  top: "loss"
}
I0727 09:57:35.807400 110285 layer_factory.hpp:76] Creating layer data
I0727 09:57:35.807422 110285 net.cpp:106] Creating Layer data
I0727 09:57:35.807431 110285 net.cpp:411] data -> data
I0727 09:57:35.807445 110285 net.cpp:411] data -> label
I0727 09:57:35.807457 110285 image_data_layer.cpp:36] Opening file ../lists/mitosis_val-norm.lst
I0727 09:57:35.808748 110285 image_data_layer.cpp:46] Shuffling data
I0727 09:57:35.808922 110285 image_data_layer.cpp:51] A total of 2374 images.
I0727 09:57:35.860097 110285 image_data_layer.cpp:78] output data size: 8,3,1000,1000
I0727 09:57:36.331607 110285 net.cpp:150] Setting up data
I0727 09:57:36.331667 110285 net.cpp:157] Top shape: 8 3 1000 1000 (24000000)
I0727 09:57:36.331694 110285 net.cpp:157] Top shape: 8 (8)
I0727 09:57:36.331703 110285 net.cpp:165] Memory required for data: 96000032
I0727 09:57:36.331720 110285 layer_factory.hpp:76] Creating layer label_data_1_split
I0727 09:57:36.331738 110285 net.cpp:106] Creating Layer label_data_1_split
I0727 09:57:36.331748 110285 net.cpp:454] label_data_1_split <- label
I0727 09:57:36.331758 110285 net.cpp:411] label_data_1_split -> label_data_1_split_0
I0727 09:57:36.331827 110285 net.cpp:411] label_data_1_split -> label_data_1_split_1
I0727 09:57:36.332105 110285 net.cpp:150] Setting up label_data_1_split
I0727 09:57:36.332136 110285 net.cpp:157] Top shape: 8 (8)
I0727 09:57:36.332142 110285 net.cpp:157] Top shape: 8 (8)
I0727 09:57:36.332147 110285 net.cpp:165] Memory required for data: 96000096
I0727 09:57:36.332155 110285 layer_factory.hpp:76] Creating layer conv1
I0727 09:57:36.332175 110285 net.cpp:106] Creating Layer conv1
I0727 09:57:36.332181 110285 net.cpp:454] conv1 <- data
I0727 09:57:36.332195 110285 net.cpp:411] conv1 -> conv1
I0727 09:57:36.336546 110285 net.cpp:150] Setting up conv1
I0727 09:57:36.336587 110285 net.cpp:157] Top shape: 8 16 997 997 (127233152)
I0727 09:57:36.336601 110285 net.cpp:165] Memory required for data: 604932704
I0727 09:57:36.336634 110285 layer_factory.hpp:76] Creating layer nonlin1
I0727 09:57:36.336659 110285 net.cpp:106] Creating Layer nonlin1
I0727 09:57:36.336678 110285 net.cpp:454] nonlin1 <- conv1
I0727 09:57:36.336699 110285 net.cpp:397] nonlin1 -> conv1 (in-place)
I0727 09:57:36.336952 110285 net.cpp:150] Setting up nonlin1
I0727 09:57:36.336976 110285 net.cpp:157] Top shape: 8 16 997 997 (127233152)
I0727 09:57:36.336989 110285 net.cpp:165] Memory required for data: 1113865312
I0727 09:57:36.337003 110285 layer_factory.hpp:76] Creating layer pool1
I0727 09:57:36.337029 110285 net.cpp:106] Creating Layer pool1
I0727 09:57:36.337045 110285 net.cpp:454] pool1 <- conv1
I0727 09:57:36.337062 110285 net.cpp:411] pool1 -> pool1
I0727 09:57:36.337585 110285 net.cpp:150] Setting up pool1
I0727 09:57:36.337610 110285 net.cpp:157] Top shape: 8 16 499 499 (31872128)
I0727 09:57:36.337625 110285 net.cpp:165] Memory required for data: 1241353824
I0727 09:57:36.337638 110285 layer_factory.hpp:76] Creating layer conv2
I0727 09:57:36.337664 110285 net.cpp:106] Creating Layer conv2
I0727 09:57:36.337682 110285 net.cpp:454] conv2 <- pool1
I0727 09:57:36.337702 110285 net.cpp:411] conv2 -> conv2
I0727 09:57:36.340459 110285 net.cpp:150] Setting up conv2
I0727 09:57:36.340479 110285 net.cpp:157] Top shape: 8 16 497 497 (31617152)
I0727 09:57:36.340484 110285 net.cpp:165] Memory required for data: 1367822432
I0727 09:57:36.340497 110285 layer_factory.hpp:76] Creating layer nonlin2
I0727 09:57:36.340504 110285 net.cpp:106] Creating Layer nonlin2
I0727 09:57:36.340509 110285 net.cpp:454] nonlin2 <- conv2
I0727 09:57:36.340517 110285 net.cpp:397] nonlin2 -> conv2 (in-place)
I0727 09:57:36.340744 110285 net.cpp:150] Setting up nonlin2
I0727 09:57:36.340754 110285 net.cpp:157] Top shape: 8 16 497 497 (31617152)
I0727 09:57:36.340759 110285 net.cpp:165] Memory required for data: 1494291040
I0727 09:57:36.340762 110285 layer_factory.hpp:76] Creating layer pool2
I0727 09:57:36.340770 110285 net.cpp:106] Creating Layer pool2
I0727 09:57:36.340773 110285 net.cpp:454] pool2 <- conv2
I0727 09:57:36.340778 110285 net.cpp:411] pool2 -> pool2
I0727 09:57:36.341259 110285 net.cpp:150] Setting up pool2
I0727 09:57:36.341269 110285 net.cpp:157] Top shape: 8 16 249 249 (7936128)
I0727 09:57:36.341274 110285 net.cpp:165] Memory required for data: 1526035552
I0727 09:57:36.341279 110285 layer_factory.hpp:76] Creating layer conv3
I0727 09:57:36.341291 110285 net.cpp:106] Creating Layer conv3
I0727 09:57:36.341295 110285 net.cpp:454] conv3 <- pool2
I0727 09:57:36.341301 110285 net.cpp:411] conv3 -> conv3
I0727 09:57:36.342170 110285 net.cpp:150] Setting up conv3
I0727 09:57:36.342185 110285 net.cpp:157] Top shape: 8 16 247 247 (7809152)
I0727 09:57:36.342188 110285 net.cpp:165] Memory required for data: 1557272160
I0727 09:57:36.342197 110285 layer_factory.hpp:76] Creating layer nonlin3
I0727 09:57:36.342205 110285 net.cpp:106] Creating Layer nonlin3
I0727 09:57:36.342208 110285 net.cpp:454] nonlin3 <- conv3
I0727 09:57:36.342213 110285 net.cpp:397] nonlin3 -> conv3 (in-place)
I0727 09:57:36.342607 110285 net.cpp:150] Setting up nonlin3
I0727 09:57:36.342618 110285 net.cpp:157] Top shape: 8 16 247 247 (7809152)
I0727 09:57:36.342666 110285 net.cpp:165] Memory required for data: 1588508768
I0727 09:57:36.342674 110285 layer_factory.hpp:76] Creating layer pool3
I0727 09:57:36.342680 110285 net.cpp:106] Creating Layer pool3
I0727 09:57:36.342684 110285 net.cpp:454] pool3 <- conv3
I0727 09:57:36.342691 110285 net.cpp:411] pool3 -> pool3
I0727 09:57:36.342891 110285 net.cpp:150] Setting up pool3
I0727 09:57:36.342900 110285 net.cpp:157] Top shape: 8 16 124 124 (1968128)
I0727 09:57:36.342903 110285 net.cpp:165] Memory required for data: 1596381280
I0727 09:57:36.342907 110285 layer_factory.hpp:76] Creating layer conv4
I0727 09:57:36.342916 110285 net.cpp:106] Creating Layer conv4
I0727 09:57:36.342921 110285 net.cpp:454] conv4 <- pool3
I0727 09:57:36.342928 110285 net.cpp:411] conv4 -> conv4
I0727 09:57:36.343999 110285 net.cpp:150] Setting up conv4
I0727 09:57:36.344010 110285 net.cpp:157] Top shape: 8 16 122 122 (1905152)
I0727 09:57:36.344014 110285 net.cpp:165] Memory required for data: 1604001888
I0727 09:57:36.344022 110285 layer_factory.hpp:76] Creating layer nonlin4
I0727 09:57:36.344030 110285 net.cpp:106] Creating Layer nonlin4
I0727 09:57:36.344034 110285 net.cpp:454] nonlin4 <- conv4
I0727 09:57:36.344040 110285 net.cpp:397] nonlin4 -> conv4 (in-place)
I0727 09:57:36.344429 110285 net.cpp:150] Setting up nonlin4
I0727 09:57:36.344440 110285 net.cpp:157] Top shape: 8 16 122 122 (1905152)
I0727 09:57:36.344444 110285 net.cpp:165] Memory required for data: 1611622496
I0727 09:57:36.344449 110285 layer_factory.hpp:76] Creating layer pool4
I0727 09:57:36.344455 110285 net.cpp:106] Creating Layer pool4
I0727 09:57:36.344460 110285 net.cpp:454] pool4 <- conv4
I0727 09:57:36.344465 110285 net.cpp:411] pool4 -> pool4
I0727 09:57:36.344645 110285 net.cpp:150] Setting up pool4
I0727 09:57:36.344652 110285 net.cpp:157] Top shape: 8 16 61 61 (476288)
I0727 09:57:36.344656 110285 net.cpp:165] Memory required for data: 1613527648
I0727 09:57:36.344660 110285 layer_factory.hpp:76] Creating layer ip1_c
I0727 09:57:36.344667 110285 net.cpp:106] Creating Layer ip1_c
I0727 09:57:36.344672 110285 net.cpp:454] ip1_c <- pool4
I0727 09:57:36.344677 110285 net.cpp:411] ip1_c -> ip1
I0727 09:57:36.345839 110285 cudnn_conv_layer.cpp:194] Reallocating workspace storage: 22118400
I0727 09:57:36.346079 110285 net.cpp:150] Setting up ip1_c
I0727 09:57:36.346089 110285 net.cpp:157] Top shape: 8 200 60 60 (5760000)
I0727 09:57:36.346093 110285 net.cpp:165] Memory required for data: 1636567648
I0727 09:57:36.346104 110285 layer_factory.hpp:76] Creating layer nonlin_ip1
I0727 09:57:36.346113 110285 net.cpp:106] Creating Layer nonlin_ip1
I0727 09:57:36.346117 110285 net.cpp:454] nonlin_ip1 <- ip1
I0727 09:57:36.346122 110285 net.cpp:397] nonlin_ip1 -> ip1 (in-place)
I0727 09:57:36.346518 110285 net.cpp:150] Setting up nonlin_ip1
I0727 09:57:36.346529 110285 net.cpp:157] Top shape: 8 200 60 60 (5760000)
I0727 09:57:36.346534 110285 net.cpp:165] Memory required for data: 1659607648
I0727 09:57:36.346537 110285 layer_factory.hpp:76] Creating layer conv61
I0727 09:57:36.346550 110285 net.cpp:106] Creating Layer conv61
I0727 09:57:36.346554 110285 net.cpp:454] conv61 <- ip1
I0727 09:57:36.346560 110285 net.cpp:411] conv61 -> conv61
I0727 09:57:36.348904 110285 cudnn_conv_layer.cpp:194] Reallocating workspace storage: 21600
I0727 09:57:36.348939 110285 net.cpp:150] Setting up conv61
I0727 09:57:36.348951 110285 net.cpp:157] Top shape: 8 64 60 60 (1843200)
I0727 09:57:36.348959 110285 net.cpp:165] Memory required for data: 1666980448
I0727 09:57:36.348973 110285 layer_factory.hpp:76] Creating layer relu61
I0727 09:57:36.348983 110285 net.cpp:106] Creating Layer relu61
I0727 09:57:36.348990 110285 net.cpp:454] relu61 <- conv61
I0727 09:57:36.349001 110285 net.cpp:397] relu61 -> conv61 (in-place)
I0727 09:57:36.349406 110285 net.cpp:150] Setting up relu61
I0727 09:57:36.349424 110285 net.cpp:157] Top shape: 8 64 60 60 (1843200)
I0727 09:57:36.349431 110285 net.cpp:165] Memory required for data: 1674353248
I0727 09:57:36.349439 110285 layer_factory.hpp:76] Creating layer conv62
I0727 09:57:36.349478 110285 net.cpp:106] Creating Layer conv62
I0727 09:57:36.349488 110285 net.cpp:454] conv62 <- conv61
I0727 09:57:36.349499 110285 net.cpp:411] conv62 -> conv62
I0727 09:57:36.351577 110285 net.cpp:150] Setting up conv62
I0727 09:57:36.351599 110285 net.cpp:157] Top shape: 8 64 60 60 (1843200)
I0727 09:57:36.351608 110285 net.cpp:165] Memory required for data: 1681726048
I0727 09:57:36.351618 110285 layer_factory.hpp:76] Creating layer relu62
I0727 09:57:36.351631 110285 net.cpp:106] Creating Layer relu62
I0727 09:57:36.351639 110285 net.cpp:454] relu62 <- conv62
I0727 09:57:36.351649 110285 net.cpp:397] relu62 -> conv62 (in-place)
I0727 09:57:36.351835 110285 net.cpp:150] Setting up relu62
I0727 09:57:36.351850 110285 net.cpp:157] Top shape: 8 64 60 60 (1843200)
I0727 09:57:36.351861 110285 net.cpp:165] Memory required for data: 1689098848
I0727 09:57:36.351868 110285 layer_factory.hpp:76] Creating layer pool5
I0727 09:57:36.351881 110285 net.cpp:106] Creating Layer pool5
I0727 09:57:36.351889 110285 net.cpp:454] pool5 <- conv62
I0727 09:57:36.351900 110285 net.cpp:411] pool5 -> pool5
I0727 09:57:36.352387 110285 net.cpp:150] Setting up pool5
I0727 09:57:36.352406 110285 net.cpp:157] Top shape: 8 64 30 30 (460800)
I0727 09:57:36.352414 110285 net.cpp:165] Memory required for data: 1690942048
I0727 09:57:36.352421 110285 layer_factory.hpp:76] Creating layer conv71
I0727 09:57:36.352434 110285 net.cpp:106] Creating Layer conv71
I0727 09:57:36.352442 110285 net.cpp:454] conv71 <- pool5
I0727 09:57:36.352452 110285 net.cpp:411] conv71 -> conv71
I0727 09:57:36.353874 110285 cudnn_conv_layer.cpp:194] Reallocating workspace storage: 6912
I0727 09:57:36.353922 110285 net.cpp:150] Setting up conv71
I0727 09:57:36.353935 110285 net.cpp:157] Top shape: 8 96 30 30 (691200)
I0727 09:57:36.353946 110285 net.cpp:165] Memory required for data: 1693706848
I0727 09:57:36.353956 110285 layer_factory.hpp:76] Creating layer relu71
I0727 09:57:36.353966 110285 net.cpp:106] Creating Layer relu71
I0727 09:57:36.353974 110285 net.cpp:454] relu71 <- conv71
I0727 09:57:36.353983 110285 net.cpp:397] relu71 -> conv71 (in-place)
I0727 09:57:36.354400 110285 net.cpp:150] Setting up relu71
I0727 09:57:36.354418 110285 net.cpp:157] Top shape: 8 96 30 30 (691200)
I0727 09:57:36.354426 110285 net.cpp:165] Memory required for data: 1696471648
I0727 09:57:36.354434 110285 layer_factory.hpp:76] Creating layer conv72
I0727 09:57:36.354447 110285 net.cpp:106] Creating Layer conv72
I0727 09:57:36.354455 110285 net.cpp:454] conv72 <- conv71
I0727 09:57:36.354467 110285 net.cpp:411] conv72 -> conv72
I0727 09:57:36.356297 110285 cudnn_conv_layer.cpp:194] Reallocating workspace storage: 10368
I0727 09:57:36.356338 110285 net.cpp:150] Setting up conv72
I0727 09:57:36.356351 110285 net.cpp:157] Top shape: 8 96 30 30 (691200)
I0727 09:57:36.356359 110285 net.cpp:165] Memory required for data: 1699236448
I0727 09:57:36.356374 110285 layer_factory.hpp:76] Creating layer relu72
I0727 09:57:36.356384 110285 net.cpp:106] Creating Layer relu72
I0727 09:57:36.356392 110285 net.cpp:454] relu72 <- conv72
I0727 09:57:36.356405 110285 net.cpp:397] relu72 -> conv72 (in-place)
I0727 09:57:36.356811 110285 net.cpp:150] Setting up relu72
I0727 09:57:36.356828 110285 net.cpp:157] Top shape: 8 96 30 30 (691200)
I0727 09:57:36.356835 110285 net.cpp:165] Memory required for data: 1702001248
I0727 09:57:36.356843 110285 layer_factory.hpp:76] Creating layer pool6
I0727 09:57:36.356853 110285 net.cpp:106] Creating Layer pool6
I0727 09:57:36.356861 110285 net.cpp:454] pool6 <- conv72
I0727 09:57:36.356873 110285 net.cpp:411] pool6 -> pool6
I0727 09:57:36.357059 110285 net.cpp:150] Setting up pool6
I0727 09:57:36.357074 110285 net.cpp:157] Top shape: 8 96 15 15 (172800)
I0727 09:57:36.357082 110285 net.cpp:165] Memory required for data: 1702692448
I0727 09:57:36.357089 110285 layer_factory.hpp:76] Creating layer conv81
I0727 09:57:36.357102 110285 net.cpp:106] Creating Layer conv81
I0727 09:57:36.357110 110285 net.cpp:454] conv81 <- pool6
I0727 09:57:36.357146 110285 net.cpp:411] conv81 -> conv81
I0727 09:57:36.359701 110285 net.cpp:150] Setting up conv81
I0727 09:57:36.359724 110285 net.cpp:157] Top shape: 8 128 15 15 (230400)
I0727 09:57:36.359731 110285 net.cpp:165] Memory required for data: 1703614048
I0727 09:57:36.359741 110285 layer_factory.hpp:76] Creating layer relu81
I0727 09:57:36.359755 110285 net.cpp:106] Creating Layer relu81
I0727 09:57:36.359761 110285 net.cpp:454] relu81 <- conv81
I0727 09:57:36.359773 110285 net.cpp:397] relu81 -> conv81 (in-place)
I0727 09:57:36.359935 110285 net.cpp:150] Setting up relu81
I0727 09:57:36.359951 110285 net.cpp:157] Top shape: 8 128 15 15 (230400)
I0727 09:57:36.359959 110285 net.cpp:165] Memory required for data: 1704535648
I0727 09:57:36.359967 110285 layer_factory.hpp:76] Creating layer conv82
I0727 09:57:36.359978 110285 net.cpp:106] Creating Layer conv82
I0727 09:57:36.359985 110285 net.cpp:454] conv82 <- conv81
I0727 09:57:36.359999 110285 net.cpp:411] conv82 -> conv82
I0727 09:57:36.361987 110285 net.cpp:150] Setting up conv82
I0727 09:57:36.362010 110285 net.cpp:157] Top shape: 8 128 15 15 (230400)
I0727 09:57:36.362018 110285 net.cpp:165] Memory required for data: 1705457248
I0727 09:57:36.362028 110285 layer_factory.hpp:76] Creating layer relu82
I0727 09:57:36.362040 110285 net.cpp:106] Creating Layer relu82
I0727 09:57:36.362049 110285 net.cpp:454] relu82 <- conv82
I0727 09:57:36.362058 110285 net.cpp:397] relu82 -> conv82 (in-place)
I0727 09:57:36.362465 110285 net.cpp:150] Setting up relu82
I0727 09:57:36.362484 110285 net.cpp:157] Top shape: 8 128 15 15 (230400)
I0727 09:57:36.362491 110285 net.cpp:165] Memory required for data: 1706378848
I0727 09:57:36.362499 110285 layer_factory.hpp:76] Creating layer pool7
I0727 09:57:36.362510 110285 net.cpp:106] Creating Layer pool7
I0727 09:57:36.362517 110285 net.cpp:454] pool7 <- conv82
I0727 09:57:36.362531 110285 net.cpp:411] pool7 -> pool7
I0727 09:57:36.362732 110285 net.cpp:150] Setting up pool7
I0727 09:57:36.362761 110285 net.cpp:157] Top shape: 8 128 8 8 (65536)
I0727 09:57:36.362768 110285 net.cpp:165] Memory required for data: 1706640992
I0727 09:57:36.362776 110285 layer_factory.hpp:76] Creating layer drop0
I0727 09:57:36.362787 110285 net.cpp:106] Creating Layer drop0
I0727 09:57:36.362797 110285 net.cpp:454] drop0 <- pool7
I0727 09:57:36.362804 110285 net.cpp:397] drop0 -> pool7 (in-place)
I0727 09:57:36.362835 110285 net.cpp:150] Setting up drop0
I0727 09:57:36.362848 110285 net.cpp:157] Top shape: 8 128 8 8 (65536)
I0727 09:57:36.362855 110285 net.cpp:165] Memory required for data: 1706903136
I0727 09:57:36.362864 110285 layer_factory.hpp:76] Creating layer conv91
I0727 09:57:36.362880 110285 net.cpp:106] Creating Layer conv91
I0727 09:57:36.362890 110285 net.cpp:454] conv91 <- pool7
I0727 09:57:36.362900 110285 net.cpp:411] conv91 -> conv91
I0727 09:57:36.364275 110285 cudnn_conv_layer.cpp:194] Reallocating workspace storage: 98304
I0727 09:57:36.364310 110285 net.cpp:150] Setting up conv91
I0727 09:57:36.364326 110285 net.cpp:157] Top shape: 8 3 1 1 (24)
I0727 09:57:36.364333 110285 net.cpp:165] Memory required for data: 1706903232
I0727 09:57:36.364346 110285 layer_factory.hpp:76] Creating layer conv91_conv91_0_split
I0727 09:57:36.364361 110285 net.cpp:106] Creating Layer conv91_conv91_0_split
I0727 09:57:36.364369 110285 net.cpp:454] conv91_conv91_0_split <- conv91
I0727 09:57:36.364379 110285 net.cpp:411] conv91_conv91_0_split -> conv91_conv91_0_split_0
I0727 09:57:36.364389 110285 net.cpp:411] conv91_conv91_0_split -> conv91_conv91_0_split_1
I0727 09:57:36.364439 110285 net.cpp:150] Setting up conv91_conv91_0_split
I0727 09:57:36.364451 110285 net.cpp:157] Top shape: 8 3 1 1 (24)
I0727 09:57:36.364460 110285 net.cpp:157] Top shape: 8 3 1 1 (24)
I0727 09:57:36.364469 110285 net.cpp:165] Memory required for data: 1706903424
I0727 09:57:36.364475 110285 layer_factory.hpp:76] Creating layer accuracy
I0727 09:57:36.364485 110285 net.cpp:106] Creating Layer accuracy
I0727 09:57:36.364493 110285 net.cpp:454] accuracy <- conv91_conv91_0_split_0
I0727 09:57:36.364528 110285 net.cpp:454] accuracy <- label_data_1_split_0
I0727 09:57:36.364542 110285 net.cpp:411] accuracy -> accuracy
…
