…
I0803 22:56:18.182557 131580 net.cpp:322] The NetState phase (0) differed from the phase (1) specified by a rule in layer loss3/top-1
I0803 22:56:18.183429 131580 net.cpp:49] Initializing net from parameters: 
name: "GoogleNet"
state {
  phase: TRAIN
}
layer {
  name: "data"
  type: "ImageData"
  top: "data"
  top: "label"
  include {
    phase: TRAIN
  }
  transform_param {
    mirror: true
    crop_size: 224
    mean_value: 185
    mean_value: 150
    mean_value: 186
  }
  image_data_param {
    source: "../imglist_level0.lst"
    batch_size: 32
    shuffle: true
  }
}
layer {
  name: "conv1/7x7_s2"
  type: "Convolution"
  bottom: "data"
  top: "conv1/7x7_s2"
  param {
    lr_mult: 1
    decay_mult: 1
  }
  param {
    lr_mult: 2
    decay_mult: 0
  }
  convolution_param {
    num_output: 64
    pad: 3
    kernel_size: 7
    stride: 2
    weight_filler {
      type: "xavier"
    }
    bias_filler {
      type: "constant"
      value: 0.2
    }
  }
}
layer {
  name: "conv1/relu_7x7"
  type: "ReLU"
  bottom: "conv1/7x7_s2"
  top: "conv1/7x7_s2"
}
layer {
  name: "pool1/3x3_s2"
  type: "Pooling"
  bottom: "conv1/7x7_s2"
  top: "pool1/3x3_s2"
  pooling_param {
    pool: MAX
    kernel_size: 3
    stride: 2
  }
}
layer {
  name: "pool1/norm1"
  type: "LRN"
  bottom: "pool1/3x3_s2"
  top: "pool1/norm1"
  lrn_param {
    local_size: 5
    alpha: 0.0001
    beta: 0.75
  }
}
layer {
  name: "conv2/3x3_reduce"
  type: "Convolution"
  bottom: "pool1/norm1"
  top: "conv2/3x3_reduce"
  param {
    lr_mult: 1
    decay_mult: 1
  }
  param {
    lr_mult: 2
    decay_mult: 0
  }
  convolution_param {
    num_output: 64
    kernel_size: 1
    weight_filler {
      type: "xavier"
    }
    bias_filler {
      type: "constant"
      value: 0.2
    }
  }
}
layer {
  name: "conv2/relu_3x3_reduce"
  type: "ReLU"
  bottom: "conv2/3x3_reduce"
  top: "conv2/3x3_reduce"
}
layer {
  name: "conv2/3x3"
  type: "Convolution"
  bottom: "conv2/3x3_reduce"
  top: "conv2/3x3"
  param {
    lr_mult: 1
    decay_mult: 1
  }
  param {
    lr_mult: 2
    decay_mult: 0
  }
  convolution_param {
    num_output: 192
    pad: 1
    kernel_size: 3
    weight_filler {
      type: "xavier"
    }
    bias_filler {
      type: "constant"
      value: 0.2
    }
  }
}
layer {
  name: "conv2/relu_3x3"
  type: "ReLU"
  bottom: "conv2/3x3"
  top: "conv2/3x3"
}
layer {
  name: "conv2/norm2"
  type: "LRN"
  bottom: "conv2/3x3"
  top: "conv2/norm2"
  lrn_param {
    local_size: 5
    alpha: 0.0001
    beta: 0.75
  }
}
layer {
  name: "pool2/3x3_s2"
  type: "Pooling"
  bottom: "conv2/norm2"
  top: "pool2/3x3_s2"
  pooling_param {
    pool: MAX
    kernel_size: 3
    stride: 2
  }
}
layer {
  name: "inception_3a/1x1"
  type: "Convolution"
  bottom: "pool2/3x3_s2"
  top: "inception_3a/1x1"
  param {
    lr_mult: 1
    decay_mult: 1
  }
  param {
    lr_mult: 2
    decay_mult: 0
  }
  convolution_param {
    num_output: 64
    kernel_size: 1
    weight_filler {
      type: "xavier"
    }
    bias_filler {
      type: "constant"
      value: 0.2
    }
  }
}
layer {
  name: "inception_3a/relu_1x1"
  type: "ReLU"
  bottom: "inception_3a/1x1"
  top: "inception_3a/1x1"
}
layer {
  name: "inception_3a/3x3_reduce"
  type: "Convolution"
  bottom: "pool2/3x3_s2"
  top: "inception_3a/3x3_reduce"
  param {
    lr_mult: 1
    decay_mult: 1
  }
  param {
    lr_mult: 2
    decay_mult: 0
  }
  convolution_param {
    num_output: 96
    kernel_size: 1
    weight_filler {
      type: "xavier"
    }
    bias_filler {
      type: "constant"
      value: 0.2
    }
  }
}
layer {
  name: "inception_3a/relu_3x3_reduce"
  type: "ReLU"
  bottom: "inception_3a/3x3_reduce"
  top: "inception_3a/3x3_reduce"
}
layer {
  name: "inception_3a/3x3"
  type: "Convolution"
  bottom: "inception_3a/3x3_reduce"
  top: "inception_3a/3x3"
  param {
    lr_mult: 1
    decay_mult: 1
  }
  param {
    lr_mult: 2
    decay_mult: 0
  }
  convolution_param {
    num_output: 128
    pad: 1
    kernel_size: 3
    weight_filler {
      type: "xavier"
    }
    bias_filler {
      type: "constant"
      value: 0.2
    }
  }
}
layer {
  name: "inception_3a/relu_3x3"
  type: "ReLU"
  bottom: "inception_3a/3x3"
  top: "inception_3a/3x3"
}
layer {
  name: "inception_3a/5x5_reduce"
  type: "Convolution"
  bottom: "pool2/3x3_s2"
  top: "inception_3a/5x5_reduce"
  param {
    lr_mult: 1
    decay_mult: 1
  }
  param {
    lr_mult: 2
    decay_mult: 0
  }
  convolution_param {
    num_output: 16
    kernel_size: 1
    weight_filler {
      type: "xavier"
    }
    bias_filler {
      type: "constant"
      value: 0.2
    }
  }
}
layer {
  name: "inception_3a/relu_5x5_reduce"
  type: "ReLU"
  bottom: "inception_3a/5x5_reduce"
  top: "inception_3a/5x5_reduce"
}
layer {
  name: "inception_3a/5x5"
  type: "Convolution"
  bottom: "inception_3a/5x5_reduce"
  top: "inception_3a/5x5"
  param {
    lr_mult: 1
    decay_mult: 1
  }
  param {
    lr_mult: 2
    decay_mult: 0
  }
  convolution_param {
    num_output: 32
    pad: 2
    kernel_size: 5
    weight_filler {
      type: "xavier"
    }
    bias_filler {
      type: "constant"
      value: 0.2
    }
  }
}
layer {
  name: "inception_3a/relu_5x5"
  type: "ReLU"
  bottom: "inception_3a/5x5"
  top: "inception_3a/5x5"
}
layer {
  name: "inception_3a/pool"
  type: "Pooling"
  bottom: "pool2/3x3_s2"
  top: "inception_3a/pool"
  pooling_param {
    pool: MAX
    kernel_size: 3
    stride: 1
    pad: 1
  }
}
layer {
  name: "inception_3a/pool_proj"
  type: "Convolution"
  bottom: "inception_3a/pool"
  top: "inception_3a/pool_proj"
  param {
    lr_mult: 1
    decay_mult: 1
  }
  param {
    lr_mult: 2
    decay_mult: 0
  }
  convolution_param {
    num_output: 32
    kernel_size: 1
    weight_filler {
      type: "xavier"
    }
    bias_filler {
      type: "constant"
      value: 0.2
    }
  }
}
layer {
  name: "inception_3a/relu_pool_proj"
  type: "ReLU"
  bottom: "inception_3a/pool_proj"
  top: "inception_3a/pool_proj"
}
layer {
  name: "inception_3a/output"
  type: "Concat"
  bottom: "inception_3a/1x1"
  bottom: "inception_3a/3x3"
  bottom: "inception_3a/5x5"
  bottom: "inception_3a/pool_proj"
  top: "inception_3a/output"
}
layer {
  name: "inception_3b/1x1"
  type: "Convolution"
  bottom: "inception_3a/output"
  top: "inception_3b/1x1"
  param {
    lr_mult: 1
    decay_mult: 1
  }
  param {
    lr_mult: 2
    decay_mult: 0
  }
  convolution_param {
    num_output: 128
    kernel_size: 1
    weight_filler {
      type: "xavier"
    }
    bias_filler {
      type: "constant"
      value: 0.2
    }
  }
}
layer {
  name: "inception_3b/relu_1x1"
  type: "ReLU"
  bottom: "inception_3b/1x1"
  top: "inception_3b/1x1"
}
layer {
  name: "inception_3b/3x3_reduce"
  type: "Convolution"
  bottom: "inception_3a/output"
  top: "inception_3b/3x3_reduce"
  param {
    lr_mult: 1
    decay_mult: 1
  }
  param {
    lr_mult: 2
    decay_mult: 0
  }
  convolution_param {
    num_output: 128
    kernel_size: 1
    weight_filler {
      type: "xavier"
    }
    bias_filler {
      type: "constant"
      value: 0.2
    }
  }
}
layer {
  name: "inception_3b/relu_3x3_reduce"
  type: "ReLU"
  bottom: "inception_3b/3x3_reduce"
  top: "inception_3b/3x3_reduce"
}
layer {
  name: "inception_3b/3x3"
  type: "Convolution"
  bottom: "inception_3b/3x3_reduce"
  top: "inception_3b/3x3"
  param {
    lr_mult: 1
    decay_mult: 1
  }
  param {
    lr_mult: 2
    decay_mult: 0
  }
  convolution_param {
    num_output: 192
    pad: 1
    kernel_size: 3
    weight_filler {
      type: "xavier"
    }
    bias_filler {
      type: "constant"
      value: 0.2
    }
  }
}
layer {
  name: "inception_3b/relu_3x3"
  type: "ReLU"
  bottom: "inception_3b/3x3"
  top: "inception_3b/3x3"
}
layer {
  name: "inception_3b/5x5_reduce"
  type: "Convolution"
  bottom: "inception_3a/output"
  top: "inception_3b/5x5_reduce"
  param {
    lr_mult: 1
    decay_mult: 1
  }
  param {
    lr_mult: 2
    decay_mult: 0
  }
  convolution_param {
    num_output: 32
    kernel_size: 1
    weight_filler {
      type: "xavier"
    }
    bias_filler {
      type: "constant"
      value: 0.2
    }
  }
}
layer {
  name: "inception_3b/relu_5x5_reduce"
  type: "ReLU"
  bottom: "inception_3b/5x5_reduce"
  top: "inception_3b/5x5_reduce"
}
layer {
  name: "inception_3b/5x5"
  type: "Convolution"
  bottom: "inception_3b/5x5_reduce"
  top: "inception_3b/5x5"
  param {
    lr_mult: 1
    decay_mult: 1
  }
  param {
    lr_mult: 2
    decay_mult: 0
  }
  convolution_param {
    num_output: 96
    pad: 2
    kernel_size: 5
    weight_filler {
      type: "xavier"
    }
    bias_filler {
      type: "constant"
      value: 0.2
    }
  }
}
layer {
  name: "inception_3b/relu_5x5"
  type: "ReLU"
  bottom: "inception_3b/5x5"
  top: "inception_3b/5x5"
}
layer {
  name: "inception_3b/pool"
  type: "Pooling"
  bottom: "inception_3a/output"
  top: "inception_3b/pool"
  pooling_param {
    pool: MAX
    kernel_size: 3
    stride: 1
    pad: 1
  }
}
layer {
  name: "inception_3b/pool_proj"
  type: "Convolution"
  bottom: "inception_3b/pool"
  top: "inception_3b/pool_proj"
  param {
    lr_mult: 1
    decay_mult: 1
  }
  param {
    lr_mult: 2
    decay_mult: 0
  }
  convolution_param {
    num_output: 64
    kernel_size: 1
    weight_filler {
      type: "xavier"
    }
    bias_filler {
      type: "constant"
      value: 0.2
    }
  }
}
layer {
  name: "inception_3b/relu_pool_proj"
  type: "ReLU"
  bottom: "inception_3b/pool_proj"
  top: "inception_3b/pool_proj"
}
layer {
  name: "inception_3b/output"
  type: "Concat"
  bottom: "inception_3b/1x1"
  bottom: "inception_3b/3x3"
  bottom: "inception_3b/5x5"
  bottom: "inception_3b/pool_proj"
  top: "inception_3b/output"
}
layer {
  name: "pool3/3x3_s2"
  type: "Pooling"
  bottom: "inception_3b/output"
  top: "pool3/3x3_s2"
  pooling_param {
    pool: MAX
    kernel_size: 3
    stride: 2
  }
}
layer {
  name: "inception_4a/1x1"
  type: "Convolution"
  bottom: "pool3/3x3_s2"
  top: "inception_4a/1x1"
  param {
    lr_mult: 1
    decay_mult: 1
  }
  param {
    lr_mult: 2
    decay_mult: 0
  }
  convolution_param {
    num_output: 192
    kernel_size: 1
    weight_filler {
      type: "xavier"
    }
    bias_filler {
      type: "constant"
      value: 0.2
    }
  }
}
layer {
  name: "inception_4a/relu_1x1"
  type: "ReLU"
  bottom: "inception_4a/1x1"
  top: "inception_4a/1x1"
}
layer {
  name: "inception_4a/3x3_reduce"
  type: "Convolution"
  bottom: "pool3/3x3_s2"
  top: "inception_4a/3x3_reduce"
  param {
    lr_mult: 1
    decay_mult: 1
  }
  param {
    lr_mult: 2
    decay_mult: 0
  }
  convolution_param {
    num_output: 96
    kernel_size: 1
    weight_filler {
      type: "xavier"
    }
    bias_filler {
      type: "constant"
      value: 0.2
    }
  }
}
layer {
  name: "inception_4a/relu_3x3_reduce"
  type: "ReLU"
  bottom: "inception_4a/3x3_reduce"
  top: "inception_4a/3x3_reduce"
}
layer {
  name: "inception_4a/3x3"
  type: "Convolution"
  bottom: "inception_4a/3x3_reduce"
  top: "inception_4a/3x3"
  param {
    lr_mult: 1
    decay_mult: 1
  }
  param {
    lr_mult: 2
    decay_mult: 0
  }
  convolution_param {
    num_output: 208
    pad: 1
    kernel_size: 3
    weight_filler {
      type: "xavier"
    }
    bias_filler {
      type: "constant"
      value: 0.2
    }
  }
}
layer {
  name: "inception_4a/relu_3x3"
  type: "ReLU"
  bottom: "inception_4a/3x3"
  top: "inception_4a/3x3"
}
layer {
  name: "inception_4a/5x5_reduce"
  type: "Convolution"
  bottom: "pool3/3x3_s2"
  top: "inception_4a/5x5_reduce"
  param {
    lr_mult: 1
    decay_mult: 1
  }
  param {
    lr_mult: 2
    decay_mult: 0
  }
  convolution_param {
    num_output: 16
    kernel_size: 1
    weight_filler {
      type: "xavier"
    }
    bias_filler {
      type: "constant"
      value: 0.2
    }
  }
}
layer {
  name: "inception_4a/relu_5x5_reduce"
  type: "ReLU"
  bottom: "inception_4a/5x5_reduce"
  top: "inception_4a/5x5_reduce"
}
layer {
  name: "inception_4a/5x5"
  type: "Convolution"
  bottom: "inception_4a/5x5_reduce"
  top: "inception_4a/5x5"
  param {
    lr_mult: 1
    decay_mult: 1
  }
  param {
    lr_mult: 2
    decay_mult: 0
  }
  convolution_param {
    num_output: 48
    pad: 2
    kernel_size: 5
    weight_filler {
      type: "xavier"
    }
    bias_filler {
      type: "constant"
      value: 0.2
    }
  }
}
layer {
  name: "inception_4a/relu_5x5"
  type: "ReLU"
  bottom: "inception_4a/5x5"
  top: "inception_4a/5x5"
}
layer {
  name: "inception_4a/pool"
  type: "Pooling"
  bottom: "pool3/3x3_s2"
  top: "inception_4a/pool"
  pooling_param {
    pool: MAX
    kernel_size: 3
    stride: 1
    pad: 1
  }
}
layer {
  name: "inception_4a/pool_proj"
  type: "Convolution"
  bottom: "inception_4a/pool"
  top: "inception_4a/pool_proj"
  param {
    lr_mult: 1
    decay_mult: 1
  }
  param {
    lr_mult: 2
    decay_mult: 0
  }
  convolution_param {
    num_output: 64
    kernel_size: 1
    weight_filler {
      type: "xavier"
    }
    bias_filler {
      type: "constant"
      value: 0.2
    }
  }
}
layer {
  name: "inception_4a/relu_pool_proj"
  type: "ReLU"
  bottom: "inception_4a/pool_proj"
  top: "inception_4a/pool_proj"
}
layer {
  name: "inception_4a/output"
  type: "Concat"
  bottom: "inception_4a/1x1"
  bottom: "inception_4a/3x3"
  bottom: "inception_4a/5x5"
  bottom: "inception_4a/pool_proj"
  top: "inception_4a/output"
}
layer {
  name: "loss1/ave_pool"
  type: "Pooling"
  bottom: "inception_4a/output"
  top: "loss1/ave_pool"
  pooling_param {
    pool: AVE
    kernel_size: 5
    stride: 3
  }
}
layer {
  name: "loss1/conv"
  type: "Convolution"
  bottom: "loss1/ave_pool"
  top: "loss1/conv"
  param {
    lr_mult: 1
    decay_mult: 1
  }
  param {
    lr_mult: 2
    decay_mult: 0
  }
  convolution_param {
    num_output: 128
    kernel_size: 1
    weight_filler {
      type: "xavier"
    }
    bias_filler {
      type: "constant"
      value: 0.2
    }
  }
}
layer {
  name: "loss1/relu_conv"
  type: "ReLU"
  bottom: "loss1/conv"
  top: "loss1/conv"
}
layer {
  name: "loss1/fc"
  type: "InnerProduct"
  bottom: "loss1/conv"
  top: "loss1/fc"
  param {
    lr_mult: 1
    decay_mult: 1
  }
  param {
    lr_mult: 2
    decay_mult: 0
  }
  inner_product_param {
    num_output: 1024
    weight_filler {
      type: "xavier"
    }
    bias_filler {
      type: "constant"
      value: 0.2
    }
  }
}
layer {
  name: "loss1/relu_fc"
  type: "ReLU"
  bottom: "loss1/fc"
  top: "loss1/fc"
}
layer {
  name: "loss1/drop_fc"
  type: "Dropout"
  bottom: "loss1/fc"
  top: "loss1/fc"
  dropout_param {
    dropout_ratio: 0.7
  }
}
layer {
  name: "loss1/classifier"
  type: "InnerProduct"
  bottom: "loss1/fc"
  top: "loss1/classifier"
  param {
    lr_mult: 1
    decay_mult: 1
  }
  param {
    lr_mult: 2
    decay_mult: 0
  }
  inner_product_param {
    num_output: 2
    weight_filler {
      type: "xavier"
    }
    bias_filler {
      type: "constant"
      value: 0
    }
  }
}
layer {
  name: "loss1/loss"
  type: "SoftmaxWithLoss"
  bottom: "loss1/classifier"
  bottom: "label"
  top: "loss1/loss1"
  loss_weight: 0.3
}
layer {
  name: "inception_4b/1x1"
  type: "Convolution"
  bottom: "inception_4a/output"
  top: "inception_4b/1x1"
  param {
    lr_mult: 1
    decay_mult: 1
  }
  param {
    lr_mult: 2
    decay_mult: 0
  }
  convolution_param {
    num_output: 160
    kernel_size: 1
    weight_filler {
      type: "xavier"
    }
    bias_filler {
      type: "constant"
      value: 0.2
    }
  }
}
layer {
  name: "inception_4b/relu_1x1"
  type: "ReLU"
  bottom: "inception_4b/1x1"
  top: "inception_4b/1x1"
}
layer {
  name: "inception_4b/3x3_reduce"
  type: "Convolution"
  bottom: "inception_4a/output"
  top: "inception_4b/3x3_reduce"
  param {
    lr_mult: 1
    decay_mult: 1
  }
  param {
    lr_mult: 2
    decay_mult: 0
  }
  convolution_param {
    num_output: 112
    kernel_size: 1
    weight_filler {
      type: "xavier"
    }
    bias_filler {
      type: "constant"
      value: 0.2
    }
  }
}
layer {
  name: "inception_4b/relu_3x3_reduce"
  type: "ReLU"
  bottom: "inception_4b/3x3_reduce"
  top: "inception_4b/3x3_reduce"
}
layer {
  name: "inception_4b/3x3"
  type: "Convolution"
  bottom: "inception_4b/3x3_reduce"
  top: "inception_4b/3x3"
  param {
    lr_mult: 1
    decay_mult: 1
  }
  param {
    lr_mult: 2
    decay_mult: 0
  }
  convolution_param {
    num_output: 224
    pad: 1
    kernel_size: 3
    weight_filler {
      type: "xavier"
    }
    bias_filler {
      type: "constant"
      value: 0.2
    }
  }
}
layer {
  name: "inception_4b/relu_3x3"
  type: "ReLU"
  bottom: "inception_4b/3x3"
  top: "inception_4b/3x3"
}
layer {
  name: "inception_4b/5x5_reduce"
  type: "Convolution"
  bottom: "inception_4a/output"
  top: "inception_4b/5x5_reduce"
  param {
    lr_mult: 1
    decay_mult: 1
  }
  param {
    lr_mult: 2
    decay_mult: 0
  }
  convolution_param {
    num_output: 24
    kernel_size: 1
    weight_filler {
      type: "xavier"
    }
    bias_filler {
      type: "constant"
      value: 0.2
    }
  }
}
layer {
  name: "inception_4b/relu_5x5_reduce"
  type: "ReLU"
  bottom: "inception_4b/5x5_reduce"
  top: "inception_4b/5x5_reduce"
}
layer {
  name: "inception_4b/5x5"
  type: "Convolution"
  bottom: "inception_4b/5x5_reduce"
  top: "inception_4b/5x5"
  param {
    lr_mult: 1
    decay_mult: 1
  }
  param {
    lr_mult: 2
    decay_mult: 0
  }
  convolution_param {
    num_output: 64
    pad: 2
    kernel_size: 5
    weight_filler {
      type: "xavier"
    }
    bias_filler {
      type: "constant"
      value: 0.2
    }
  }
}
layer {
  name: "inception_4b/relu_5x5"
  type: "ReLU"
  bottom: "inception_4b/5x5"
  top: "inception_4b/5x5"
}
layer {
  name: "inception_4b/pool"
  type: "Pooling"
  bottom: "inception_4a/output"
  top: "inception_4b/pool"
  pooling_param {
    pool: MAX
    kernel_size: 3
    stride: 1
    pad: 1
  }
}
layer {
  name: "inception_4b/pool_proj"
  type: "Convolution"
  bottom: "inception_4b/pool"
  top: "inception_4b/pool_proj"
  param {
    lr_mult: 1
    decay_mult: 1
  }
  param {
    lr_mult: 2
    decay_mult: 0
  }
  convolution_param {
    num_output: 64
    kernel_size: 1
    weight_filler {
      type: "xavier"
    }
    bias_filler {
      type: "constant"
      value: 0.2
    }
  }
}
layer {
  name: "inception_4b/relu_pool_proj"
  type: "ReLU"
  bottom: "inception_4b/pool_proj"
  top: "inception_4b/pool_proj"
}
layer {
  name: "inception_4b/output"
  type: "Concat"
  bottom: "inception_4b/1x1"
  bottom: "inception_4b/3x3"
  bottom: "inception_4b/5x5"
  bottom: "inception_4b/pool_proj"
  top: "inception_4b/output"
}
layer {
  name: "inception_4c/1x1"
  type: "Convolution"
  bottom: "inception_4b/output"
  top: "inception_4c/1x1"
  param {
    lr_mult: 1
    decay_mult: 1
  }
  param {
    lr_mult: 2
    decay_mult: 0
  }
  convolution_param {
    num_output: 128
    kernel_size: 1
    weight_filler {
      type: "xavier"
    }
    bias_filler {
      type: "constant"
      value: 0.2
    }
  }
}
layer {
  name: "inception_4c/relu_1x1"
  type: "ReLU"
  bottom: "inception_4c/1x1"
  top: "inception_4c/1x1"
}
layer {
  name: "inception_4c/3x3_reduce"
  type: "Convolution"
  bottom: "inception_4b/output"
  top: "inception_4c/3x3_reduce"
  param {
    lr_mult: 1
    decay_mult: 1
  }
  param {
    lr_mult: 2
    decay_mult: 0
  }
  convolution_param {
    num_output: 128
    kernel_size: 1
    weight_filler {
      type: "xavier"
    }
    bias_filler {
      type: "constant"
      value: 0.2
    }
  }
}
layer {
  name: "inception_4c/relu_3x3_reduce"
  type: "ReLU"
  bottom: "inception_4c/3x3_reduce"
  top: "inception_4c/3x3_reduce"
}
layer {
  name: "inception_4c/3x3"
  type: "Convolution"
  bottom: "inception_4c/3x3_reduce"
  top: "inception_4c/3x3"
  param {
    lr_mult: 1
    decay_mult: 1
  }
  param {
    lr_mult: 2
    decay_mult: 0
  }
  convolution_param {
    num_output: 256
    pad: 1
    kernel_size: 3
    weight_filler {
      type: "xavier"
    }
    bias_filler {
      type: "constant"
      value: 0.2
    }
  }
}
layer {
  name: "inception_4c/relu_3x3"
  type: "ReLU"
  bottom: "inception_4c/3x3"
  top: "inception_4c/3x3"
}
layer {
  name: "inception_4c/5x5_reduce"
  type: "Convolution"
  bottom: "inception_4b/output"
  top: "inception_4c/5x5_reduce"
  param {
    lr_mult: 1
    decay_mult: 1
  }
  param {
    lr_mult: 2
    decay_mult: 0
  }
  convolution_param {
    num_output: 24
    kernel_size: 1
    weight_filler {
      type: "xavier"
    }
    bias_filler {
      type: "constant"
      value: 0.2
    }
  }
}
layer {
  name: "inception_4c/relu_5x5_reduce"
  type: "ReLU"
  bottom: "inception_4c/5x5_reduce"
  top: "inception_4c/5x5_reduce"
}
layer {
  name: "inception_4c/5x5"
  type: "Convolution"
  bottom: "inception_4c/5x5_reduce"
  top: "inception_4c/5x5"
  param {
    lr_mult: 1
    decay_mult: 1
  }
  param {
    lr_mult: 2
    decay_mult: 0
  }
  convolution_param {
    num_output: 64
    pad: 2
    kernel_size: 5
    weight_filler {
      type: "xavier"
    }
    bias_filler {
      type: "constant"
      value: 0.2
    }
  }
}
layer {
  name: "inception_4c/relu_5x5"
  type: "ReLU"
  bottom: "inception_4c/5x5"
  top: "inception_4c/5x5"
}
layer {
  name: "inception_4c/pool"
  type: "Pooling"
  bottom: "inception_4b/output"
  top: "inception_4c/pool"
  pooling_param {
    pool: MAX
    kernel_size: 3
    stride: 1
    pad: 1
  }
}
layer {
  name: "inception_4c/pool_proj"
  type: "Convolution"
  bottom: "inception_4c/pool"
  top: "inception_4c/pool_proj"
  param {
    lr_mult: 1
    decay_mult: 1
  }
  param {
    lr_mult: 2
    decay_mult: 0
  }
  convolution_param {
    num_output: 64
    kernel_size: 1
    weight_filler {
      type: "xavier"
    }
    bias_filler {
      type: "constant"
      value: 0.2
    }
  }
}
layer {
  name: "inception_4c/relu_pool_proj"
  type: "ReLU"
  bottom: "inception_4c/pool_proj"
  top: "inception_4c/pool_proj"
}
layer {
  name: "inception_4c/output"
  type: "Concat"
  bottom: "inception_4c/1x1"
  bottom: "inception_4c/3x3"
  bottom: "inception_4c/5x5"
  bottom: "inception_4c/pool_proj"
  top: "inception_4c/output"
}
layer {
  name: "inception_4d/1x1"
  type: "Convolution"
  bottom: "inception_4c/output"
  top: "inception_4d/1x1"
  param {
    lr_mult: 1
    decay_mult: 1
  }
  param {
    lr_mult: 2
    decay_mult: 0
  }
  convolution_param {
    num_output: 112
    kernel_size: 1
    weight_filler {
      type: "xavier"
    }
    bias_filler {
      type: "constant"
      value: 0.2
    }
  }
}
layer {
  name: "inception_4d/relu_1x1"
  type: "ReLU"
  bottom: "inception_4d/1x1"
  top: "inception_4d/1x1"
}
layer {
  name: "inception_4d/3x3_reduce"
  type: "Convolution"
  bottom: "inception_4c/output"
  top: "inception_4d/3x3_reduce"
  param {
    lr_mult: 1
    decay_mult: 1
  }
  param {
    lr_mult: 2
    decay_mult: 0
  }
  convolution_param {
    num_output: 144
    kernel_size: 1
    weight_filler {
      type: "xavier"
    }
    bias_filler {
      type: "constant"
      value: 0.2
    }
  }
}
layer {
  name: "inception_4d/relu_3x3_reduce"
  type: "ReLU"
  bottom: "inception_4d/3x3_reduce"
  top: "inception_4d/3x3_reduce"
}
layer {
  name: "inception_4d/3x3"
  type: "Convolution"
  bottom: "inception_4d/3x3_reduce"
  top: "inception_4d/3x3"
  param {
    lr_mult: 1
    decay_mult: 1
  }
  param {
    lr_mult: 2
    decay_mult: 0
  }
  convolution_param {
    num_output: 288
    pad: 1
    kernel_size: 3
    weight_filler {
      type: "xavier"
    }
    bias_filler {
      type: "constant"
      value: 0.2
    }
  }
}
layer {
  name: "inception_4d/relu_3x3"
  type: "ReLU"
  bottom: "inception_4d/3x3"
  top: "inception_4d/3x3"
}
layer {
  name: "inception_4d/5x5_reduce"
  type: "Convolution"
  bottom: "inception_4c/output"
  top: "inception_4d/5x5_reduce"
  param {
    lr_mult: 1
    decay_mult: 1
  }
  param {
    lr_mult: 2
    decay_mult: 0
  }
  convolution_param {
    num_output: 32
    kernel_size: 1
    weight_filler {
      type: "xavier"
    }
    bias_filler {
      type: "constant"
      value: 0.2
    }
  }
}
layer {
  name: "inception_4d/relu_5x5_reduce"
  type: "ReLU"
  bottom: "inception_4d/5x5_reduce"
  top: "inception_4d/5x5_reduce"
}
layer {
  name: "inception_4d/5x5"
  type: "Convolution"
  bottom: "inception_4d/5x5_reduce"
  top: "inception_4d/5x5"
  param {
    lr_mult: 1
    decay_mult: 1
  }
  param {
    lr_mult: 2
    decay_mult: 0
  }
  convolution_param {
    num_output: 64
    pad: 2
    kernel_size: 5
    weight_filler {
      type: "xavier"
    }
    bias_filler {
      type: "constant"
      value: 0.2
    }
  }
}
layer {
  name: "inception_4d/relu_5x5"
  type: "ReLU"
  bottom: "inception_4d/5x5"
  top: "inception_4d/5x5"
}
layer {
  name: "inception_4d/pool"
  type: "Pooling"
  bottom: "inception_4c/output"
  top: "inception_4d/pool"
  pooling_param {
    pool: MAX
    kernel_size: 3
    stride: 1
    pad: 1
  }
}
layer {
  name: "inception_4d/pool_proj"
  type: "Convolution"
  bottom: "inception_4d/pool"
  top: "inception_4d/pool_proj"
  param {
    lr_mult: 1
    decay_mult: 1
  }
  param {
    lr_mult: 2
    decay_mult: 0
  }
  convolution_param {
    num_output: 64
    kernel_size: 1
    weight_filler {
      type: "xavier"
    }
    bias_filler {
      type: "constant"
      value: 0.2
    }
  }
}
layer {
  name: "inception_4d/relu_pool_proj"
  type: "ReLU"
  bottom: "inception_4d/pool_proj"
  top: "inception_4d/pool_proj"
}
layer {
  name: "inception_4d/output"
  type: "Concat"
  bottom: "inception_4d/1x1"
  bottom: "inception_4d/3x3"
  bottom: "inception_4d/5x5"
  bottom: "inception_4d/pool_proj"
  top: "inception_4d/output"
}
layer {
  name: "loss2/ave_pool"
  type: "Pooling"
  bottom: "inception_4d/output"
  top: "loss2/ave_pool"
  pooling_param {
    pool: AVE
    kernel_size: 5
    stride: 3
  }
}
layer {
  name: "loss2/conv"
  type: "Convolution"
  bottom: "loss2/ave_pool"
  top: "loss2/conv"
  param {
    lr_mult: 1
    decay_mult: 1
  }
  param {
    lr_mult: 2
    decay_mult: 0
  }
  convolution_param {
    num_output: 128
    kernel_size: 1
    weight_filler {
      type: "xavier"
    }
    bias_filler {
      type: "constant"
      value: 0.2
    }
  }
}
layer {
  name: "loss2/relu_conv"
  type: "ReLU"
  bottom: "loss2/conv"
  top: "loss2/conv"
}
layer {
  name: "loss2/fc"
  type: "InnerProduct"
  bottom: "loss2/conv"
  top: "loss2/fc"
  param {
    lr_mult: 1
    decay_mult: 1
  }
  param {
    lr_mult: 2
    decay_mult: 0
  }
  inner_product_param {
    num_output: 1024
    weight_filler {
      type: "xavier"
    }
    bias_filler {
      type: "constant"
      value: 0.2
    }
  }
}
layer {
  name: "loss2/relu_fc"
  type: "ReLU"
  bottom: "loss2/fc"
  top: "loss2/fc"
}
layer {
  name: "loss2/drop_fc"
  type: "Dropout"
  bottom: "loss2/fc"
  top: "loss2/fc"
  dropout_param {
    dropout_ratio: 0.7
  }
}
layer {
  name: "loss2/classifier"
  type: "InnerProduct"
  bottom: "loss2/fc"
  top: "loss2/classifier"
  param {
    lr_mult: 1
    decay_mult: 1
  }
  param {
    lr_mult: 2
    decay_mult: 0
  }
  inner_product_param {
    num_output: 2
    weight_filler {
      type: "xavier"
    }
    bias_filler {
      type: "constant"
      value: 0
    }
  }
}
layer {
  name: "loss2/loss"
  type: "SoftmaxWithLoss"
  bottom: "loss2/classifier"
  bottom: "label"
  top: "loss2/loss1"
  loss_weight: 0.3
}
layer {
  name: "inception_4e/1x1"
  type: "Convolution"
  bottom: "inception_4d/output"
  top: "inception_4e/1x1"
  param {
    lr_mult: 1
    decay_mult: 1
  }
  param {
    lr_mult: 2
    decay_mult: 0
  }
  convolution_param {
    num_output: 256
    kernel_size: 1
    weight_filler {
      type: "xavier"
    }
    bias_filler {
      type: "constant"
      value: 0.2
    }
  }
}
layer {
  name: "inception_4e/relu_1x1"
  type: "ReLU"
  bottom: "inception_4e/1x1"
  top: "inception_4e/1x1"
}
layer {
  name: "inception_4e/3x3_reduce"
  type: "Convolution"
  bottom: "inception_4d/output"
  top: "inception_4e/3x3_reduce"
  param {
    lr_mult: 1
    decay_mult: 1
  }
  param {
    lr_mult: 2
    decay_mult: 0
  }
  convolution_param {
    num_output: 160
    kernel_size: 1
    weight_filler {
      type: "xavier"
    }
    bias_filler {
      type: "constant"
      value: 0.2
    }
  }
}
layer {
  name: "inception_4e/relu_3x3_reduce"
  type: "ReLU"
  bottom: "inception_4e/3x3_reduce"
  top: "inception_4e/3x3_reduce"
}
layer {
  name: "inception_4e/3x3"
  type: "Convolution"
  bottom: "inception_4e/3x3_reduce"
  top: "inception_4e/3x3"
  param {
    lr_mult: 1
    decay_mult: 1
  }
  param {
    lr_mult: 2
    decay_mult: 0
  }
  convolution_param {
    num_output: 320
    pad: 1
    kernel_size: 3
    weight_filler {
      type: "xavier"
    }
    bias_filler {
      type: "constant"
      value: 0.2
    }
  }
}
layer {
  name: "inception_4e/relu_3x3"
  type: "ReLU"
  bottom: "inception_4e/3x3"
  top: "inception_4e/3x3"
}
layer {
  name: "inception_4e/5x5_reduce"
  type: "Convolution"
  bottom: "inception_4d/output"
  top: "inception_4e/5x5_reduce"
  param {
    lr_mult: 1
    decay_mult: 1
  }
  param {
    lr_mult: 2
    decay_mult: 0
  }
  convolution_param {
    num_output: 32
    kernel_size: 1
    weight_filler {
      type: "xavier"
    }
    bias_filler {
      type: "constant"
      value: 0.2
    }
  }
}
layer {
  name: "inception_4e/relu_5x5_reduce"
  type: "ReLU"
  bottom: "inception_4e/5x5_reduce"
  top: "inception_4e/5x5_reduce"
}
layer {
  name: "inception_4e/5x5"
  type: "Convolution"
  bottom: "inception_4e/5x5_reduce"
  top: "inception_4e/5x5"
  param {
    lr_mult: 1
    decay_mult: 1
  }
  param {
    lr_mult: 2
    decay_mult: 0
  }
  convolution_param {
    num_output: 128
    pad: 2
    kernel_size: 5
    weight_filler {
      type: "xavier"
    }
    bias_filler {
      type: "constant"
      value: 0.2
    }
  }
}
layer {
  name: "inception_4e/relu_5x5"
  type: "ReLU"
  bottom: "inception_4e/5x5"
  top: "inception_4e/5x5"
}
layer {
  name: "inception_4e/pool"
  type: "Pooling"
  bottom: "inception_4d/output"
  top: "inception_4e/pool"
  pooling_param {
    pool: MAX
    kernel_size: 3
    stride: 1
    pad: 1
I0803 22:56:18.189523 131580 layer_factory.hpp:76] Creating layer data
I0803 22:56:18.189592 131580 net.cpp:106] Creating Layer data
I0803 22:56:18.189620 131580 net.cpp:411] data -> data
I0803 22:56:18.189654 131580 net.cpp:411] data -> label
I0803 22:56:18.190127 131580 image_data_layer.cpp:36] Opening file ../imglist_level0.lst
I0803 22:56:18.712910 131580 image_data_layer.cpp:46] Shuffling data
I0803 22:56:18.766460 131580 image_data_layer.cpp:51] A total of 294000 images.
I0803 22:56:18.841337 131580 image_data_layer.cpp:78] output data size: 32,3,224,224
I0803 22:56:18.889083 131580 net.cpp:150] Setting up data
I0803 22:56:18.889137 131580 net.cpp:157] Top shape: 32 3 224 224 (4816896)
I0803 22:56:18.889154 131580 net.cpp:157] Top shape: 32 (32)
I0803 22:56:18.889165 131580 net.cpp:165] Memory required for data: 19267712
I0803 22:56:18.889183 131580 layer_factory.hpp:76] Creating layer label_data_1_split
I0803 22:56:18.889210 131580 net.cpp:106] Creating Layer label_data_1_split
I0803 22:56:18.889227 131580 net.cpp:454] label_data_1_split <- label
I0803 22:56:18.889255 131580 net.cpp:411] label_data_1_split -> label_data_1_split_0
I0803 22:56:18.889278 131580 net.cpp:411] label_data_1_split -> label_data_1_split_1
I0803 22:56:18.889297 131580 net.cpp:411] label_data_1_split -> label_data_1_split_2
I0803 22:56:18.889394 131580 net.cpp:150] Setting up label_data_1_split
I0803 22:56:18.889416 131580 net.cpp:157] Top shape: 32 (32)
I0803 22:56:18.889431 131580 net.cpp:157] Top shape: 32 (32)
I0803 22:56:18.889447 131580 net.cpp:157] Top shape: 32 (32)
I0803 22:56:18.889461 131580 net.cpp:165] Memory required for data: 19268096
I0803 22:56:18.889475 131580 layer_factory.hpp:76] Creating layer conv1/7x7_s2
I0803 22:56:18.889503 131580 net.cpp:106] Creating Layer conv1/7x7_s2
I0803 22:56:18.889554 131580 net.cpp:454] conv1/7x7_s2 <- data
I0803 22:56:18.889576 131580 net.cpp:411] conv1/7x7_s2 -> conv1/7x7_s2
I0803 22:56:19.026372 131580 net.cpp:150] Setting up conv1/7x7_s2
I0803 22:56:19.026433 131580 net.cpp:157] Top shape: 32 64 112 112 (25690112)
I0803 22:56:19.026448 131580 net.cpp:165] Memory required for data: 122028544
I0803 22:56:19.026494 131580 layer_factory.hpp:76] Creating layer conv1/relu_7x7
I0803 22:56:19.026530 131580 net.cpp:106] Creating Layer conv1/relu_7x7
I0803 22:56:19.026548 131580 net.cpp:454] conv1/relu_7x7 <- conv1/7x7_s2
I0803 22:56:19.026568 131580 net.cpp:397] conv1/relu_7x7 -> conv1/7x7_s2 (in-place)
I0803 22:56:19.026823 131580 net.cpp:150] Setting up conv1/relu_7x7
I0803 22:56:19.026859 131580 net.cpp:157] Top shape: 32 64 112 112 (25690112)
I0803 22:56:19.026873 131580 net.cpp:165] Memory required for data: 224788992
I0803 22:56:19.026901 131580 layer_factory.hpp:76] Creating layer pool1/3x3_s2
I0803 22:56:19.026922 131580 net.cpp:106] Creating Layer pool1/3x3_s2
I0803 22:56:19.026948 131580 net.cpp:454] pool1/3x3_s2 <- conv1/7x7_s2
I0803 22:56:19.026968 131580 net.cpp:411] pool1/3x3_s2 -> pool1/3x3_s2
I0803 22:56:19.027398 131580 net.cpp:150] Setting up pool1/3x3_s2
I0803 22:56:19.027431 131580 net.cpp:157] Top shape: 32 64 56 56 (6422528)
I0803 22:56:19.027446 131580 net.cpp:165] Memory required for data: 250479104
I0803 22:56:19.027459 131580 layer_factory.hpp:76] Creating layer pool1/norm1
I0803 22:56:19.027495 131580 net.cpp:106] Creating Layer pool1/norm1
I0803 22:56:19.027510 131580 net.cpp:454] pool1/norm1 <- pool1/3x3_s2
I0803 22:56:19.027529 131580 net.cpp:411] pool1/norm1 -> pool1/norm1
I0803 22:56:19.027788 131580 net.cpp:150] Setting up pool1/norm1
I0803 22:56:19.027824 131580 net.cpp:157] Top shape: 32 64 56 56 (6422528)
I0803 22:56:19.027838 131580 net.cpp:165] Memory required for data: 276169216
I0803 22:56:19.027851 131580 layer_factory.hpp:76] Creating layer conv2/3x3_reduce
I0803 22:56:19.027876 131580 net.cpp:106] Creating Layer conv2/3x3_reduce
I0803 22:56:19.027890 131580 net.cpp:454] conv2/3x3_reduce <- pool1/norm1
I0803 22:56:19.027911 131580 net.cpp:411] conv2/3x3_reduce -> conv2/3x3_reduce
I0803 22:56:19.029659 131580 cudnn_conv_layer.cpp:194] Reallocating workspace storage: 768
I0803 22:56:19.029697 131580 net.cpp:150] Setting up conv2/3x3_reduce
I0803 22:56:19.029718 131580 net.cpp:157] Top shape: 32 64 56 56 (6422528)
I0803 22:56:19.029731 131580 net.cpp:165] Memory required for data: 301859328
I0803 22:56:19.029754 131580 layer_factory.hpp:76] Creating layer conv2/relu_3x3_reduce
I0803 22:56:19.029778 131580 net.cpp:106] Creating Layer conv2/relu_3x3_reduce
I0803 22:56:19.029791 131580 net.cpp:454] conv2/relu_3x3_reduce <- conv2/3x3_reduce
I0803 22:56:19.029808 131580 net.cpp:397] conv2/relu_3x3_reduce -> conv2/3x3_reduce (in-place)
I0803 22:56:19.030205 131580 net.cpp:150] Setting up conv2/relu_3x3_reduce
I0803 22:56:19.030227 131580 net.cpp:157] Top shape: 32 64 56 56 (6422528)
I0803 22:56:19.030241 131580 net.cpp:165] Memory required for data: 327549440
I0803 22:56:19.030256 131580 layer_factory.hpp:76] Creating layer conv2/3x3
I0803 22:56:19.030283 131580 net.cpp:106] Creating Layer conv2/3x3
I0803 22:56:19.030299 131580 net.cpp:454] conv2/3x3 <- conv2/3x3_reduce
I0803 22:56:19.030319 131580 net.cpp:411] conv2/3x3 -> conv2/3x3
I0803 22:56:19.032963 131580 cudnn_conv_layer.cpp:194] Reallocating workspace storage: 6912
I0803 22:56:19.033267 131580 net.cpp:150] Setting up conv2/3x3
I0803 22:56:19.033296 131580 net.cpp:157] Top shape: 32 192 56 56 (19267584)
I0803 22:56:19.033323 131580 net.cpp:165] Memory required for data: 404619776
I0803 22:56:19.033349 131580 layer_factory.hpp:76] Creating layer conv2/relu_3x3
I0803 22:56:19.033371 131580 net.cpp:106] Creating Layer conv2/relu_3x3
I0803 22:56:19.033386 131580 net.cpp:454] conv2/relu_3x3 <- conv2/3x3
I0803 22:56:19.033403 131580 net.cpp:397] conv2/relu_3x3 -> conv2/3x3 (in-place)
I0803 22:56:19.033639 131580 net.cpp:150] Setting up conv2/relu_3x3
I0803 22:56:19.033697 131580 net.cpp:157] Top shape: 32 192 56 56 (19267584)
I0803 22:56:19.033711 131580 net.cpp:165] Memory required for data: 481690112
I0803 22:56:19.033725 131580 layer_factory.hpp:76] Creating layer conv2/norm2
I0803 22:56:19.033747 131580 net.cpp:106] Creating Layer conv2/norm2
I0803 22:56:19.033763 131580 net.cpp:454] conv2/norm2 <- conv2/3x3
I0803 22:56:19.033781 131580 net.cpp:411] conv2/norm2 -> conv2/norm2
I0803 22:56:19.034222 131580 net.cpp:150] Setting up conv2/norm2
I0803 22:56:19.034250 131580 net.cpp:157] Top shape: 32 192 56 56 (19267584)
I0803 22:56:19.034265 131580 net.cpp:165] Memory required for data: 558760448
I0803 22:56:19.034278 131580 layer_factory.hpp:76] Creating layer pool2/3x3_s2
I0803 22:56:19.034296 131580 net.cpp:106] Creating Layer pool2/3x3_s2
I0803 22:56:19.034309 131580 net.cpp:454] pool2/3x3_s2 <- conv2/norm2
I0803 22:56:19.034325 131580 net.cpp:411] pool2/3x3_s2 -> pool2/3x3_s2
I0803 22:56:19.034591 131580 net.cpp:150] Setting up pool2/3x3_s2
I0803 22:56:19.034624 131580 net.cpp:157] Top shape: 32 192 28 28 (4816896)
I0803 22:56:19.034657 131580 net.cpp:165] Memory required for data: 578028032
I0803 22:56:19.034672 131580 layer_factory.hpp:76] Creating layer pool2/3x3_s2_pool2/3x3_s2_0_split
I0803 22:56:19.034690 131580 net.cpp:106] Creating Layer pool2/3x3_s2_pool2/3x3_s2_0_split
I0803 22:56:19.034704 131580 net.cpp:454] pool2/3x3_s2_pool2/3x3_s2_0_split <- pool2/3x3_s2
I0803 22:56:19.034725 131580 net.cpp:411] pool2/3x3_s2_pool2/3x3_s2_0_split -> pool2/3x3_s2_pool2/3x3_s2_0_split_0
I0803 22:56:19.034746 131580 net.cpp:411] pool2/3x3_s2_pool2/3x3_s2_0_split -> pool2/3x3_s2_pool2/3x3_s2_0_split_1
I0803 22:56:19.034765 131580 net.cpp:411] pool2/3x3_s2_pool2/3x3_s2_0_split -> pool2/3x3_s2_pool2/3x3_s2_0_split_2
I0803 22:56:19.034793 131580 net.cpp:411] pool2/3x3_s2_pool2/3x3_s2_0_split -> pool2/3x3_s2_pool2/3x3_s2_0_split_3
I0803 22:56:19.034906 131580 net.cpp:150] Setting up pool2/3x3_s2_pool2/3x3_s2_0_split
I0803 22:56:19.034927 131580 net.cpp:157] Top shape: 32 192 28 28 (4816896)
I0803 22:56:19.034943 131580 net.cpp:157] Top shape: 32 192 28 28 (4816896)
I0803 22:56:19.034958 131580 net.cpp:157] Top shape: 32 192 28 28 (4816896)
I0803 22:56:19.034973 131580 net.cpp:157] Top shape: 32 192 28 28 (4816896)
I0803 22:56:19.034986 131580 net.cpp:165] Memory required for data: 655098368
I0803 22:56:19.035004 131580 layer_factory.hpp:76] Creating layer inception_3a/1x1
I0803 22:56:19.035060 131580 net.cpp:106] Creating Layer inception_3a/1x1
I0803 22:56:19.035090 131580 net.cpp:454] inception_3a/1x1 <- pool2/3x3_s2_pool2/3x3_s2_0_split_0
I0803 22:56:19.035117 131580 net.cpp:411] inception_3a/1x1 -> inception_3a/1x1
I0803 22:56:19.036872 131580 net.cpp:150] Setting up inception_3a/1x1
I0803 22:56:19.036916 131580 net.cpp:157] Top shape: 32 64 28 28 (1605632)
I0803 22:56:19.036926 131580 net.cpp:165] Memory required for data: 661520896
I0803 22:56:19.036939 131580 layer_factory.hpp:76] Creating layer inception_3a/relu_1x1
I0803 22:56:19.036954 131580 net.cpp:106] Creating Layer inception_3a/relu_1x1
I0803 22:56:19.036964 131580 net.cpp:454] inception_3a/relu_1x1 <- inception_3a/1x1
I0803 22:56:19.036978 131580 net.cpp:397] inception_3a/relu_1x1 -> inception_3a/1x1 (in-place)
I0803 22:56:19.037348 131580 net.cpp:150] Setting up inception_3a/relu_1x1
I0803 22:56:19.037379 131580 net.cpp:157] Top shape: 32 64 28 28 (1605632)
I0803 22:56:19.037387 131580 net.cpp:165] Memory required for data: 667943424
I0803 22:56:19.037396 131580 layer_factory.hpp:76] Creating layer inception_3a/3x3_reduce
I0803 22:56:19.037412 131580 net.cpp:106] Creating Layer inception_3a/3x3_reduce
I0803 22:56:19.037422 131580 net.cpp:454] inception_3a/3x3_reduce <- pool2/3x3_s2_pool2/3x3_s2_0_split_1
I0803 22:56:19.037433 131580 net.cpp:411] inception_3a/3x3_reduce -> inception_3a/3x3_reduce
I0803 22:56:19.039121 131580 cudnn_conv_layer.cpp:194] Reallocating workspace storage: 2304
I0803 22:56:19.039402 131580 net.cpp:150] Setting up inception_3a/3x3_reduce
I0803 22:56:19.039433 131580 net.cpp:157] Top shape: 32 96 28 28 (2408448)
I0803 22:56:19.039468 131580 net.cpp:165] Memory required for data: 677577216
I0803 22:56:19.039485 131580 layer_factory.hpp:76] Creating layer inception_3a/relu_3x3_reduce
I0803 22:56:19.039505 131580 net.cpp:106] Creating Layer inception_3a/relu_3x3_reduce
I0803 22:56:19.039517 131580 net.cpp:454] inception_3a/relu_3x3_reduce <- inception_3a/3x3_reduce
I0803 22:56:19.039542 131580 net.cpp:397] inception_3a/relu_3x3_reduce -> inception_3a/3x3_reduce (in-place)
I0803 22:56:19.039898 131580 net.cpp:150] Setting up inception_3a/relu_3x3_reduce
I0803 22:56:19.039929 131580 net.cpp:157] Top shape: 32 96 28 28 (2408448)
I0803 22:56:19.039939 131580 net.cpp:165] Memory required for data: 687211008
I0803 22:56:19.039948 131580 layer_factory.hpp:76] Creating layer inception_3a/3x3
I0803 22:56:19.039963 131580 net.cpp:106] Creating Layer inception_3a/3x3
I0803 22:56:19.039970 131580 net.cpp:454] inception_3a/3x3 <- inception_3a/3x3_reduce
I0803 22:56:19.039983 131580 net.cpp:411] inception_3a/3x3 -> inception_3a/3x3
I0803 22:56:19.041970 131580 net.cpp:150] Setting up inception_3a/3x3
I0803 22:56:19.042011 131580 net.cpp:157] Top shape: 32 128 28 28 (3211264)
I0803 22:56:19.042021 131580 net.cpp:165] Memory required for data: 700056064
I0803 22:56:19.042035 131580 layer_factory.hpp:76] Creating layer inception_3a/relu_3x3
I0803 22:56:19.042052 131580 net.cpp:106] Creating Layer inception_3a/relu_3x3
I0803 22:56:19.042062 131580 net.cpp:454] inception_3a/relu_3x3 <- inception_3a/3x3
I0803 22:56:19.042071 131580 net.cpp:397] inception_3a/relu_3x3 -> inception_3a/3x3 (in-place)
I0803 22:56:19.042289 131580 net.cpp:150] Setting up inception_3a/relu_3x3
I0803 22:56:19.042318 131580 net.cpp:157] Top shape: 32 128 28 28 (3211264)
I0803 22:56:19.042326 131580 net.cpp:165] Memory required for data: 712901120
I0803 22:56:19.042335 131580 layer_factory.hpp:76] Creating layer inception_3a/5x5_reduce
I0803 22:56:19.042352 131580 net.cpp:106] Creating Layer inception_3a/5x5_reduce
I0803 22:56:19.042362 131580 net.cpp:454] inception_3a/5x5_reduce <- pool2/3x3_s2_pool2/3x3_s2_0_split_2
I0803 22:56:19.042373 131580 net.cpp:411] inception_3a/5x5_reduce -> inception_3a/5x5_reduce
I0803 22:56:19.043736 131580 net.cpp:150] Setting up inception_3a/5x5_reduce
I0803 22:56:19.043769 131580 net.cpp:157] Top shape: 32 16 28 28 (401408)
I0803 22:56:19.043777 131580 net.cpp:165] Memory required for data: 714506752
I0803 22:56:19.043792 131580 layer_factory.hpp:76] Creating layer inception_3a/relu_5x5_reduce
I0803 22:56:19.043803 131580 net.cpp:106] Creating Layer inception_3a/relu_5x5_reduce
I0803 22:56:19.043812 131580 net.cpp:454] inception_3a/relu_5x5_reduce <- inception_3a/5x5_reduce
I0803 22:56:19.043824 131580 net.cpp:397] inception_3a/relu_5x5_reduce -> inception_3a/5x5_reduce (in-place)
I0803 22:56:19.044245 131580 net.cpp:150] Setting up inception_3a/relu_5x5_reduce
I0803 22:56:19.044275 131580 net.cpp:157] Top shape: 32 16 28 28 (401408)
I0803 22:56:19.044283 131580 net.cpp:165] Memory required for data: 716112384
I0803 22:56:19.044293 131580 layer_factory.hpp:76] Creating layer inception_3a/5x5
I0803 22:56:19.044308 131580 net.cpp:106] Creating Layer inception_3a/5x5
I0803 22:56:19.044318 131580 net.cpp:454] inception_3a/5x5 <- inception_3a/5x5_reduce
I0803 22:56:19.044332 131580 net.cpp:411] inception_3a/5x5 -> inception_3a/5x5
I0803 22:56:19.045408 131580 net.cpp:150] Setting up inception_3a/5x5
I0803 22:56:19.045439 131580 net.cpp:157] Top shape: 32 32 28 28 (802816)
I0803 22:56:19.045449 131580 net.cpp:165] Memory required for data: 719323648
I0803 22:56:19.045460 131580 layer_factory.hpp:76] Creating layer inception_3a/relu_5x5
I0803 22:56:19.045472 131580 net.cpp:106] Creating Layer inception_3a/relu_5x5
I0803 22:56:19.045481 131580 net.cpp:454] inception_3a/relu_5x5 <- inception_3a/5x5
I0803 22:56:19.045493 131580 net.cpp:397] inception_3a/relu_5x5 -> inception_3a/5x5 (in-place)
I0803 22:56:19.045891 131580 net.cpp:150] Setting up inception_3a/relu_5x5
I0803 22:56:19.045920 131580 net.cpp:157] Top shape: 32 32 28 28 (802816)
I0803 22:56:19.045954 131580 net.cpp:165] Memory required for data: 722534912
I0803 22:56:19.045965 131580 layer_factory.hpp:76] Creating layer inception_3a/pool
I0803 22:56:19.045984 131580 net.cpp:106] Creating Layer inception_3a/pool
I0803 22:56:19.045994 131580 net.cpp:454] inception_3a/pool <- pool2/3x3_s2_pool2/3x3_s2_0_split_3
I0803 22:56:19.046006 131580 net.cpp:411] inception_3a/pool -> inception_3a/pool
I0803 22:56:19.046293 131580 net.cpp:150] Setting up inception_3a/pool
I0803 22:56:19.046321 131580 net.cpp:157] Top shape: 32 192 28 28 (4816896)
I0803 22:56:19.046342 131580 net.cpp:165] Memory required for data: 741802496
I0803 22:56:19.046350 131580 layer_factory.hpp:76] Creating layer inception_3a/pool_proj
I0803 22:56:19.046365 131580 net.cpp:106] Creating Layer inception_3a/pool_proj
I0803 22:56:19.046373 131580 net.cpp:454] inception_3a/pool_proj <- inception_3a/pool
I0803 22:56:19.046385 131580 net.cpp:411] inception_3a/pool_proj -> inception_3a/pool_proj
I0803 22:56:19.047559 131580 net.cpp:150] Setting up inception_3a/pool_proj
I0803 22:56:19.047595 131580 net.cpp:157] Top shape: 32 32 28 28 (802816)
I0803 22:56:19.047616 131580 net.cpp:165] Memory required for data: 745013760
I0803 22:56:19.047634 131580 layer_factory.hpp:76] Creating layer inception_3a/relu_pool_proj
I0803 22:56:19.047647 131580 net.cpp:106] Creating Layer inception_3a/relu_pool_proj
I0803 22:56:19.047657 131580 net.cpp:454] inception_3a/relu_pool_proj <- inception_3a/pool_proj
I0803 22:56:19.047668 131580 net.cpp:397] inception_3a/relu_pool_proj -> inception_3a/pool_proj (in-place)
I0803 22:56:19.048070 131580 net.cpp:150] Setting up inception_3a/relu_pool_proj
I0803 22:56:19.048101 131580 net.cpp:157] Top shape: 32 32 28 28 (802816)
I0803 22:56:19.048110 131580 net.cpp:165] Memory required for data: 748225024
I0803 22:56:19.048120 131580 layer_factory.hpp:76] Creating layer inception_3a/output
I0803 22:56:19.048142 131580 net.cpp:106] Creating Layer inception_3a/output
I0803 22:56:19.048151 131580 net.cpp:454] inception_3a/output <- inception_3a/1x1
I0803 22:56:19.048161 131580 net.cpp:454] inception_3a/output <- inception_3a/3x3
I0803 22:56:19.048169 131580 net.cpp:454] inception_3a/output <- inception_3a/5x5
I0803 22:56:19.048177 131580 net.cpp:454] inception_3a/output <- inception_3a/pool_proj
I0803 22:56:19.048187 131580 net.cpp:411] inception_3a/output -> inception_3a/output
I0803 22:56:19.048228 131580 net.cpp:150] Setting up inception_3a/output
I0803 22:56:19.048254 131580 net.cpp:157] Top shape: 32 256 28 28 (6422528)
I0803 22:56:19.048262 131580 net.cpp:165] Memory required for data: 773915136
I0803 22:56:19.048272 131580 layer_factory.hpp:76] Creating layer inception_3a/output_inception_3a/output_0_split
I0803 22:56:19.048283 131580 net.cpp:106] Creating Layer inception_3a/output_inception_3a/output_0_split
I0803 22:56:19.048292 131580 net.cpp:454] inception_3a/output_inception_3a/output_0_split <- inception_3a/output
I0803 22:56:19.048303 131580 net.cpp:411] inception_3a/output_inception_3a/output_0_split -> inception_3a/output_inception_3a/output_0_split_0
I0803 22:56:19.048317 131580 net.cpp:411] inception_3a/output_inception_3a/output_0_split -> inception_3a/output_inception_3a/output_0_split_1
I0803 22:56:19.048329 131580 net.cpp:411] inception_3a/output_inception_3a/output_0_split -> inception_3a/output_inception_3a/output_0_split_2
I0803 22:56:19.048341 131580 net.cpp:411] inception_3a/output_inception_3a/output_0_split -> inception_3a/output_inception_3a/output_0_split_3
I0803 22:56:19.048434 131580 net.cpp:150] Setting up inception_3a/output_inception_3a/output_0_split
I0803 22:56:19.048458 131580 net.cpp:157] Top shape: 32 256 28 28 (6422528)
I0803 22:56:19.048480 131580 net.cpp:157] Top shape: 32 256 28 28 (6422528)
I0803 22:56:19.048490 131580 net.cpp:157] Top shape: 32 256 28 28 (6422528)
I0803 22:56:19.048497 131580 net.cpp:157] Top shape: 32 256 28 28 (6422528)
I0803 22:56:19.048506 131580 net.cpp:165] Memory required for data: 876675584
I0803 22:56:19.048513 131580 layer_factory.hpp:76] Creating layer inception_3b/1x1
I0803 22:56:19.048552 131580 net.cpp:106] Creating Layer inception_3b/1x1
I0803 22:56:19.048565 131580 net.cpp:454] inception_3b/1x1 <- inception_3a/output_inception_3a/output_0_split_0
I0803 22:56:19.048576 131580 net.cpp:411] inception_3b/1x1 -> inception_3b/1x1
I0803 22:56:19.049942 131580 cudnn_conv_layer.cpp:194] Reallocating workspace storage: 3072
I0803 22:56:19.049995 131580 net.cpp:150] Setting up inception_3b/1x1
I0803 22:56:19.050024 131580 net.cpp:157] Top shape: 32 128 28 28 (3211264)
I0803 22:56:19.050034 131580 net.cpp:165] Memory required for data: 889520640
I0803 22:56:19.050045 131580 layer_factory.hpp:76] Creating layer inception_3b/relu_1x1
I0803 22:56:19.050072 131580 net.cpp:106] Creating Layer inception_3b/relu_1x1
I0803 22:56:19.050081 131580 net.cpp:454] inception_3b/relu_1x1 <- inception_3b/1x1
I0803 22:56:19.050091 131580 net.cpp:397] inception_3b/relu_1x1 -> inception_3b/1x1 (in-place)
I0803 22:56:19.050299 131580 net.cpp:150] Setting up inception_3b/relu_1x1
I0803 22:56:19.050318 131580 net.cpp:157] Top shape: 32 128 28 28 (3211264)
I0803 22:56:19.050325 131580 net.cpp:165] Memory required for data: 902365696
I0803 22:56:19.050333 131580 layer_factory.hpp:76] Creating layer inception_3b/3x3_reduce
I0803 22:56:19.050349 131580 net.cpp:106] Creating Layer inception_3b/3x3_reduce
I0803 22:56:19.050359 131580 net.cpp:454] inception_3b/3x3_reduce <- inception_3a/output_inception_3a/output_0_split_1
I0803 22:56:19.050369 131580 net.cpp:411] inception_3b/3x3_reduce -> inception_3b/3x3_reduce
I0803 22:56:19.051713 131580 cudnn_conv_layer.cpp:194] Reallocating workspace storage: 3072
I0803 22:56:19.051769 131580 net.cpp:150] Setting up inception_3b/3x3_reduce
I0803 22:56:19.051791 131580 net.cpp:157] Top shape: 32 128 28 28 (3211264)
I0803 22:56:19.051805 131580 net.cpp:165] Memory required for data: 915210752
I0803 22:56:19.051816 131580 layer_factory.hpp:76] Creating layer inception_3b/relu_3x3_reduce
I0803 22:56:19.051827 131580 net.cpp:106] Creating Layer inception_3b/relu_3x3_reduce
I0803 22:56:19.051837 131580 net.cpp:454] inception_3b/relu_3x3_reduce <- inception_3b/3x3_reduce
I0803 22:56:19.051847 131580 net.cpp:397] inception_3b/relu_3x3_reduce -> inception_3b/3x3_reduce (in-place)
I0803 22:56:19.052093 131580 net.cpp:150] Setting up inception_3b/relu_3x3_reduce
I0803 22:56:19.052122 131580 net.cpp:157] Top shape: 32 128 28 28 (3211264)
I0803 22:56:19.052131 131580 net.cpp:165] Memory required for data: 928055808
I0803 22:56:19.052140 131580 layer_factory.hpp:76] Creating layer inception_3b/3x3
I0803 22:56:19.052165 131580 net.cpp:106] Creating Layer inception_3b/3x3
I0803 22:56:19.052175 131580 net.cpp:454] inception_3b/3x3 <- inception_3b/3x3_reduce
I0803 22:56:19.052187 131580 net.cpp:411] inception_3b/3x3 -> inception_3b/3x3
I0803 22:56:19.055884 131580 cudnn_conv_layer.cpp:194] Reallocating workspace storage: 13824
I0803 22:56:19.055932 131580 net.cpp:150] Setting up inception_3b/3x3
I0803 22:56:19.055943 131580 net.cpp:157] Top shape: 32 192 28 28 (4816896)
I0803 22:56:19.055953 131580 net.cpp:165] Memory required for data: 947323392
I0803 22:56:19.055964 131580 layer_factory.hpp:76] Creating layer inception_3b/relu_3x3
I0803 22:56:19.055976 131580 net.cpp:106] Creating Layer inception_3b/relu_3x3
I0803 22:56:19.055985 131580 net.cpp:454] inception_3b/relu_3x3 <- inception_3b/3x3
I0803 22:56:19.055999 131580 net.cpp:397] inception_3b/relu_3x3 -> inception_3b/3x3 (in-place)
I0803 22:56:19.056406 131580 net.cpp:150] Setting up inception_3b/relu_3x3
I0803 22:56:19.056437 131580 net.cpp:157] Top shape: 32 192 28 28 (4816896)
I0803 22:56:19.056445 131580 net.cpp:165] Memory required for data: 966590976
I0803 22:56:19.056457 131580 layer_factory.hpp:76] Creating layer inception_3b/5x5_reduce
I0803 22:56:19.056471 131580 net.cpp:106] Creating Layer inception_3b/5x5_reduce
I0803 22:56:19.056480 131580 net.cpp:454] inception_3b/5x5_reduce <- inception_3a/output_inception_3a/output_0_split_2
I0803 22:56:19.056493 131580 net.cpp:411] inception_3b/5x5_reduce -> inception_3b/5x5_reduce
I0803 22:56:19.057762 131580 net.cpp:150] Setting up inception_3b/5x5_reduce
I0803 22:56:19.057786 131580 net.cpp:157] Top shape: 32 32 28 28 (802816)
I0803 22:56:19.057796 131580 net.cpp:165] Memory required for data: 969802240
I0803 22:56:19.057806 131580 layer_factory.hpp:76] Creating layer inception_3b/relu_5x5_reduce
I0803 22:56:19.057821 131580 net.cpp:106] Creating Layer inception_3b/relu_5x5_reduce
I0803 22:56:19.057829 131580 net.cpp:454] inception_3b/relu_5x5_reduce <- inception_3b/5x5_reduce
I0803 22:56:19.057839 131580 net.cpp:397] inception_3b/relu_5x5_reduce -> inception_3b/5x5_reduce (in-place)
I0803 22:56:19.058034 131580 net.cpp:150] Setting up inception_3b/relu_5x5_reduce
I0803 22:56:19.058064 131580 net.cpp:157] Top shape: 32 32 28 28 (802816)
I0803 22:56:19.058073 131580 net.cpp:165] Memory required for data: 973013504
I0803 22:56:19.058080 131580 layer_factory.hpp:76] Creating layer inception_3b/5x5
I0803 22:56:19.058094 131580 net.cpp:106] Creating Layer inception_3b/5x5
I0803 22:56:19.058104 131580 net.cpp:454] inception_3b/5x5 <- inception_3b/5x5_reduce
I0803 22:56:19.058115 131580 net.cpp:411] inception_3b/5x5 -> inception_3b/5x5
I0803 22:56:19.060576 131580 cudnn_conv_layer.cpp:194] Reallocating workspace storage: 9600
I0803 22:56:19.060631 131580 net.cpp:150] Setting up inception_3b/5x5
I0803 22:56:19.060645 131580 net.cpp:157] Top shape: 32 96 28 28 (2408448)
I0803 22:56:19.060654 131580 net.cpp:165] Memory required for data: 982647296
I0803 22:56:19.060667 131580 layer_factory.hpp:76] Creating layer inception_3b/relu_5x5
I0803 22:56:19.060684 131580 net.cpp:106] Creating Layer inception_3b/relu_5x5
I0803 22:56:19.060695 131580 net.cpp:454] inception_3b/relu_5x5 <- inception_3b/5x5
I0803 22:56:19.060708 131580 net.cpp:397] inception_3b/relu_5x5 -> inception_3b/5x5 (in-place)
I0803 22:56:19.062520 131580 net.cpp:150] Setting up inception_3b/relu_5x5
I0803 22:56:19.062546 131580 net.cpp:157] Top shape: 32 96 28 28 (2408448)
I0803 22:56:19.062572 131580 net.cpp:165] Memory required for data: 992281088
I0803 22:56:19.062583 131580 layer_factory.hpp:76] Creating layer inception_3b/pool
I0803 22:56:19.062608 131580 net.cpp:106] Creating Layer inception_3b/pool
I0803 22:56:19.062618 131580 net.cpp:454] inception_3b/pool <- inception_3a/output_inception_3a/output_0_split_3
I0803 22:56:19.062636 131580 net.cpp:411] inception_3b/pool -> inception_3b/pool
I0803 22:56:19.063860 131580 net.cpp:150] Setting up inception_3b/pool
I0803 22:56:19.063892 131580 net.cpp:157] Top shape: 32 256 28 28 (6422528)
I0803 22:56:19.063901 131580 net.cpp:165] Memory required for data: 1017971200
I0803 22:56:19.063910 131580 layer_factory.hpp:76] Creating layer inception_3b/pool_proj
I0803 22:56:19.063928 131580 net.cpp:106] Creating Layer inception_3b/pool_proj
I0803 22:56:19.063937 131580 net.cpp:454] inception_3b/pool_proj <- inception_3b/pool
I0803 22:56:19.063951 131580 net.cpp:411] inception_3b/pool_proj -> inception_3b/pool_proj
I0803 22:56:19.066679 131580 cudnn_conv_layer.cpp:194] Reallocating workspace storage: 3072
I0803 22:56:19.066737 131580 net.cpp:150] Setting up inception_3b/pool_proj
I0803 22:56:19.066752 131580 net.cpp:157] Top shape: 32 64 28 28 (1605632)
I0803 22:56:19.066762 131580 net.cpp:165] Memory required for data: 1024393728
I0803 22:56:19.066788 131580 layer_factory.hpp:76] Creating layer inception_3b/relu_pool_proj
I0803 22:56:19.066803 131580 net.cpp:106] Creating Layer inception_3b/relu_pool_proj
I0803 22:56:19.066814 131580 net.cpp:454] inception_3b/relu_pool_proj <- inception_3b/pool_proj
I0803 22:56:19.066828 131580 net.cpp:397] inception_3b/relu_pool_proj -> inception_3b/pool_proj (in-place)
I0803 22:56:19.067430 131580 net.cpp:150] Setting up inception_3b/relu_pool_proj
I0803 22:56:19.067461 131580 net.cpp:157] Top shape: 32 64 28 28 (1605632)
I0803 22:56:19.067471 131580 net.cpp:165] Memory required for data: 1030816256
I0803 22:56:19.067479 131580 layer_factory.hpp:76] Creating layer inception_3b/output
I0803 22:56:19.067493 131580 net.cpp:106] Creating Layer inception_3b/output
I0803 22:56:19.067534 131580 net.cpp:454] inception_3b/output <- inception_3b/1x1
I0803 22:56:19.067558 131580 net.cpp:454] inception_3b/output <- inception_3b/3x3
I0803 22:56:19.067569 131580 net.cpp:454] inception_3b/output <- inception_3b/5x5
I0803 22:56:19.067577 131580 net.cpp:454] inception_3b/output <- inception_3b/pool_proj
I0803 22:56:19.067587 131580 net.cpp:411] inception_3b/output -> inception_3b/output
I0803 22:56:19.067638 131580 net.cpp:150] Setting up inception_3b/output
I0803 22:56:19.067667 131580 net.cpp:157] Top shape: 32 480 28 28 (12042240)
I0803 22:56:19.067675 131580 net.cpp:165] Memory required for data: 1078985216
I0803 22:56:19.067683 131580 layer_factory.hpp:76] Creating layer pool3/3x3_s2
I0803 22:56:19.067699 131580 net.cpp:106] Creating Layer pool3/3x3_s2
I0803 22:56:19.067708 131580 net.cpp:454] pool3/3x3_s2 <- inception_3b/output
I0803 22:56:19.067729 131580 net.cpp:411] pool3/3x3_s2 -> pool3/3x3_s2
I0803 22:56:19.068677 131580 net.cpp:150] Setting up pool3/3x3_s2
I0803 22:56:19.068709 131580 net.cpp:157] Top shape: 32 480 14 14 (3010560)
I0803 22:56:19.068717 131580 net.cpp:165] Memory required for data: 1091027456
I0803 22:56:19.068727 131580 layer_factory.hpp:76] Creating layer pool3/3x3_s2_pool3/3x3_s2_0_split
I0803 22:56:19.068740 131580 net.cpp:106] Creating Layer pool3/3x3_s2_pool3/3x3_s2_0_split
I0803 22:56:19.068749 131580 net.cpp:454] pool3/3x3_s2_pool3/3x3_s2_0_split <- pool3/3x3_s2
I0803 22:56:19.068761 131580 net.cpp:411] pool3/3x3_s2_pool3/3x3_s2_0_split -> pool3/3x3_s2_pool3/3x3_s2_0_split_0
I0803 22:56:19.068773 131580 net.cpp:411] pool3/3x3_s2_pool3/3x3_s2_0_split -> pool3/3x3_s2_pool3/3x3_s2_0_split_1
I0803 22:56:19.068785 131580 net.cpp:411] pool3/3x3_s2_pool3/3x3_s2_0_split -> pool3/3x3_s2_pool3/3x3_s2_0_split_2
I0803 22:56:19.068796 131580 net.cpp:411] pool3/3x3_s2_pool3/3x3_s2_0_split -> pool3/3x3_s2_pool3/3x3_s2_0_split_3
I0803 22:56:19.068869 131580 net.cpp:150] Setting up pool3/3x3_s2_pool3/3x3_s2_0_split
I0803 22:56:19.068883 131580 net.cpp:157] Top shape: 32 480 14 14 (3010560)
I0803 22:56:19.068892 131580 net.cpp:157] Top shape: 32 480 14 14 (3010560)
I0803 22:56:19.068902 131580 net.cpp:157] Top shape: 32 480 14 14 (3010560)
I0803 22:56:19.068909 131580 net.cpp:157] Top shape: 32 480 14 14 (3010560)
I0803 22:56:19.068917 131580 net.cpp:165] Memory required for data: 1139196416
I0803 22:56:19.068925 131580 layer_factory.hpp:76] Creating layer inception_4a/1x1
I0803 22:56:19.068944 131580 net.cpp:106] Creating Layer inception_4a/1x1
I0803 22:56:19.068953 131580 net.cpp:454] inception_4a/1x1 <- pool3/3x3_s2_pool3/3x3_s2_0_split_0
I0803 22:56:19.068965 131580 net.cpp:411] inception_4a/1x1 -> inception_4a/1x1
I0803 22:56:19.074815 131580 cudnn_conv_layer.cpp:194] Reallocating workspace storage: 5760
I0803 22:56:19.074901 131580 net.cpp:150] Setting up inception_4a/1x1
I0803 22:56:19.074918 131580 net.cpp:157] Top shape: 32 192 14 14 (1204224)
I0803 22:56:19.074928 131580 net.cpp:165] Memory required for data: 1144013312
I0803 22:56:19.074944 131580 layer_factory.hpp:76] Creating layer inception_4a/relu_1x1
I0803 22:56:19.074966 131580 net.cpp:106] Creating Layer inception_4a/relu_1x1
I0803 22:56:19.074978 131580 net.cpp:454] inception_4a/relu_1x1 <- inception_4a/1x1
I0803 22:56:19.074990 131580 net.cpp:397] inception_4a/relu_1x1 -> inception_4a/1x1 (in-place)
I0803 22:56:19.077986 131580 net.cpp:150] Setting up inception_4a/relu_1x1
I0803 22:56:19.078050 131580 net.cpp:157] Top shape: 32 192 14 14 (1204224)
I0803 22:56:19.078060 131580 net.cpp:165] Memory required for data: 1148830208
I0803 22:56:19.078071 131580 layer_factory.hpp:76] Creating layer inception_4a/3x3_reduce
I0803 22:56:19.078099 131580 net.cpp:106] Creating Layer inception_4a/3x3_reduce
I0803 22:56:19.078111 131580 net.cpp:454] inception_4a/3x3_reduce <- pool3/3x3_s2_pool3/3x3_s2_0_split_1
I0803 22:56:19.078125 131580 net.cpp:411] inception_4a/3x3_reduce -> inception_4a/3x3_reduce
I0803 22:56:19.079877 131580 cudnn_conv_layer.cpp:194] Reallocating workspace storage: 5760
I0803 22:56:19.079944 131580 net.cpp:150] Setting up inception_4a/3x3_reduce
I0803 22:56:19.079987 131580 net.cpp:157] Top shape: 32 96 14 14 (602112)
I0803 22:56:19.079996 131580 net.cpp:165] Memory required for data: 1151238656
I0803 22:56:19.080050 131580 layer_factory.hpp:76] Creating layer inception_4a/relu_3x3_reduce
I0803 22:56:19.080068 131580 net.cpp:106] Creating Layer inception_4a/relu_3x3_reduce
I0803 22:56:19.080080 131580 net.cpp:454] inception_4a/relu_3x3_reduce <- inception_4a/3x3_reduce
I0803 22:56:19.080094 131580 net.cpp:397] inception_4a/relu_3x3_reduce -> inception_4a/3x3_reduce (in-place)
I0803 22:56:19.080314 131580 net.cpp:150] Setting up inception_4a/relu_3x3_reduce
I0803 22:56:19.080355 131580 net.cpp:157] Top shape: 32 96 14 14 (602112)
I0803 22:56:19.080364 131580 net.cpp:165] Memory required for data: 1153647104
I0803 22:56:19.080374 131580 layer_factory.hpp:76] Creating layer inception_4a/3x3
I0803 22:56:19.080390 131580 net.cpp:106] Creating Layer inception_4a/3x3
I0803 22:56:19.080399 131580 net.cpp:454] inception_4a/3x3 <- inception_4a/3x3_reduce
I0803 22:56:19.080411 131580 net.cpp:411] inception_4a/3x3 -> inception_4a/3x3
I0803 22:56:19.083611 131580 cudnn_conv_layer.cpp:194] Reallocating workspace storage: 10368
I0803 22:56:19.083688 131580 net.cpp:150] Setting up inception_4a/3x3
I0803 22:56:19.083705 131580 net.cpp:157] Top shape: 32 208 14 14 (1304576)
I0803 22:56:19.083714 131580 net.cpp:165] Memory required for data: 1158865408
I0803 22:56:19.083727 131580 layer_factory.hpp:76] Creating layer inception_4a/relu_3x3
I0803 22:56:19.083744 131580 net.cpp:106] Creating Layer inception_4a/relu_3x3
I0803 22:56:19.083753 131580 net.cpp:454] inception_4a/relu_3x3 <- inception_4a/3x3
I0803 22:56:19.083767 131580 net.cpp:397] inception_4a/relu_3x3 -> inception_4a/3x3 (in-place)
I0803 22:56:19.084209 131580 net.cpp:150] Setting up inception_4a/relu_3x3
I0803 22:56:19.084242 131580 net.cpp:157] Top shape: 32 208 14 14 (1304576)
I0803 22:56:19.084251 131580 net.cpp:165] Memory required for data: 1164083712
I0803 22:56:19.084262 131580 layer_factory.hpp:76] Creating layer inception_4a/5x5_reduce
I0803 22:56:19.084280 131580 net.cpp:106] Creating Layer inception_4a/5x5_reduce
I0803 22:56:19.084290 131580 net.cpp:454] inception_4a/5x5_reduce <- pool3/3x3_s2_pool3/3x3_s2_0_split_2
I0803 22:56:19.084302 131580 net.cpp:411] inception_4a/5x5_reduce -> inception_4a/5x5_reduce
I0803 22:56:19.085491 131580 net.cpp:150] Setting up inception_4a/5x5_reduce
I0803 22:56:19.085525 131580 net.cpp:157] Top shape: 32 16 14 14 (100352)
I0803 22:56:19.085533 131580 net.cpp:165] Memory required for data: 1164485120
I0803 22:56:19.085546 131580 layer_factory.hpp:76] Creating layer inception_4a/relu_5x5_reduce
I0803 22:56:19.085561 131580 net.cpp:106] Creating Layer inception_4a/relu_5x5_reduce
I0803 22:56:19.085571 131580 net.cpp:454] inception_4a/relu_5x5_reduce <- inception_4a/5x5_reduce
I0803 22:56:19.085580 131580 net.cpp:397] inception_4a/relu_5x5_reduce -> inception_4a/5x5_reduce (in-place)
I0803 22:56:19.085810 131580 net.cpp:150] Setting up inception_4a/relu_5x5_reduce
I0803 22:56:19.085850 131580 net.cpp:157] Top shape: 32 16 14 14 (100352)
I0803 22:56:19.085858 131580 net.cpp:165] Memory required for data: 1164886528
I0803 22:56:19.085866 131580 layer_factory.hpp:76] Creating layer inception_4a/5x5
I0803 22:56:19.085880 131580 net.cpp:106] Creating Layer inception_4a/5x5
I0803 22:56:19.085889 131580 net.cpp:454] inception_4a/5x5 <- inception_4a/5x5_reduce
I0803 22:56:19.085899 131580 net.cpp:411] inception_4a/5x5 -> inception_4a/5x5
I0803 22:56:19.087218 131580 net.cpp:150] Setting up inception_4a/5x5
I0803 22:56:19.087255 131580 net.cpp:157] Top shape: 32 48 14 14 (301056)
I0803 22:56:19.087263 131580 net.cpp:165] Memory required for data: 1166090752
I0803 22:56:19.087277 131580 layer_factory.hpp:76] Creating layer inception_4a/relu_5x5
I0803 22:56:19.087288 131580 net.cpp:106] Creating Layer inception_4a/relu_5x5
I0803 22:56:19.087298 131580 net.cpp:454] inception_4a/relu_5x5 <- inception_4a/5x5
I0803 22:56:19.087311 131580 net.cpp:397] inception_4a/relu_5x5 -> inception_4a/5x5 (in-place)
I0803 22:56:19.087569 131580 net.cpp:150] Setting up inception_4a/relu_5x5
I0803 22:56:19.087609 131580 net.cpp:157] Top shape: 32 48 14 14 (301056)
I0803 22:56:19.087617 131580 net.cpp:165] Memory required for data: 1167294976
I0803 22:56:19.087625 131580 layer_factory.hpp:76] Creating layer inception_4a/pool
I0803 22:56:19.087642 131580 net.cpp:106] Creating Layer inception_4a/pool
I0803 22:56:19.087651 131580 net.cpp:454] inception_4a/pool <- pool3/3x3_s2_pool3/3x3_s2_0_split_3
I0803 22:56:19.087662 131580 net.cpp:411] inception_4a/pool -> inception_4a/pool
I0803 22:56:19.088115 131580 net.cpp:150] Setting up inception_4a/pool
I0803 22:56:19.088150 131580 net.cpp:157] Top shape: 32 480 14 14 (3010560)
I0803 22:56:19.088158 131580 net.cpp:165] Memory required for data: 1179337216
I0803 22:56:19.088166 131580 layer_factory.hpp:76] Creating layer inception_4a/pool_proj
I0803 22:56:19.088179 131580 net.cpp:106] Creating Layer inception_4a/pool_proj
I0803 22:56:19.088188 131580 net.cpp:454] inception_4a/pool_proj <- inception_4a/pool
I0803 22:56:19.088201 131580 net.cpp:411] inception_4a/pool_proj -> inception_4a/pool_proj
I0803 22:56:19.089550 131580 net.cpp:150] Setting up inception_4a/pool_proj
I0803 22:56:19.089586 131580 net.cpp:157] Top shape: 32 64 14 14 (401408)
I0803 22:56:19.089594 131580 net.cpp:165] Memory required for data: 1180942848
I0803 22:56:19.089607 131580 layer_factory.hpp:76] Creating layer inception_4a/relu_pool_proj
I0803 22:56:19.089618 131580 net.cpp:106] Creating Layer inception_4a/relu_pool_proj
I0803 22:56:19.089629 131580 net.cpp:454] inception_4a/relu_pool_proj <- inception_4a/pool_proj
I0803 22:56:19.089642 131580 net.cpp:397] inception_4a/relu_pool_proj -> inception_4a/pool_proj (in-place)
I0803 22:56:19.089871 131580 net.cpp:150] Setting up inception_4a/relu_pool_proj
I0803 22:56:19.089905 131580 net.cpp:157] Top shape: 32 64 14 14 (401408)
I0803 22:56:19.089925 131580 net.cpp:165] Memory required for data: 1182548480
I0803 22:56:19.089933 131580 layer_factory.hpp:76] Creating layer inception_4a/output
I0803 22:56:19.089946 131580 net.cpp:106] Creating Layer inception_4a/output
I0803 22:56:19.089954 131580 net.cpp:454] inception_4a/output <- inception_4a/1x1
I0803 22:56:19.089964 131580 net.cpp:454] inception_4a/output <- inception_4a/3x3
I0803 22:56:19.089973 131580 net.cpp:454] inception_4a/output <- inception_4a/5x5
I0803 22:56:19.089982 131580 net.cpp:454] inception_4a/output <- inception_4a/pool_proj
I0803 22:56:19.089992 131580 net.cpp:411] inception_4a/output -> inception_4a/output
I0803 22:56:19.090030 131580 net.cpp:150] Setting up inception_4a/output
I0803 22:56:19.090056 131580 net.cpp:157] Top shape: 32 512 14 14 (3211264)
I0803 22:56:19.090065 131580 net.cpp:165] Memory required for data: 1195393536
I0803 22:56:19.090075 131580 layer_factory.hpp:76] Creating layer inception_4a/output_inception_4a/output_0_split
I0803 22:56:19.090087 131580 net.cpp:106] Creating Layer inception_4a/output_inception_4a/output_0_split
I0803 22:56:19.090095 131580 net.cpp:454] inception_4a/output_inception_4a/output_0_split <- inception_4a/output
I0803 22:56:19.090108 131580 net.cpp:411] inception_4a/output_inception_4a/output_0_split -> inception_4a/output_inception_4a/output_0_split_0
I0803 22:56:19.090121 131580 net.cpp:411] inception_4a/output_inception_4a/output_0_split -> inception_4a/output_inception_4a/output_0_split_1
I0803 22:56:19.090132 131580 net.cpp:411] inception_4a/output_inception_4a/output_0_split -> inception_4a/output_inception_4a/output_0_split_2
I0803 22:56:19.090155 131580 net.cpp:411] inception_4a/output_inception_4a/output_0_split -> inception_4a/output_inception_4a/output_0_split_3
I0803 22:56:19.090165 131580 net.cpp:411] inception_4a/output_inception_4a/output_0_split -> inception_4a/output_inception_4a/output_0_split_4
I0803 22:56:19.090262 131580 net.cpp:150] Setting up inception_4a/output_inception_4a/output_0_split
I0803 22:56:19.090276 131580 net.cpp:157] Top shape: 32 512 14 14 (3211264)
I0803 22:56:19.090311 131580 net.cpp:157] Top shape: 32 512 14 14 (3211264)
I0803 22:56:19.090319 131580 net.cpp:157] Top shape: 32 512 14 14 (3211264)
I0803 22:56:19.090327 131580 net.cpp:157] Top shape: 32 512 14 14 (3211264)
I0803 22:56:19.090337 131580 net.cpp:157] Top shape: 32 512 14 14 (3211264)
I0803 22:56:19.090344 131580 net.cpp:165] Memory required for data: 1259618816
I0803 22:56:19.090353 131580 layer_factory.hpp:76] Creating layer loss1/ave_pool
I0803 22:56:19.090378 131580 net.cpp:106] Creating Layer loss1/ave_pool
I0803 22:56:19.090386 131580 net.cpp:454] loss1/ave_pool <- inception_4a/output_inception_4a/output_0_split_0
I0803 22:56:19.090399 131580 net.cpp:411] loss1/ave_pool -> loss1/ave_pool
I0803 22:56:19.090872 131580 net.cpp:150] Setting up loss1/ave_pool
I0803 22:56:19.090903 131580 net.cpp:157] Top shape: 32 512 4 4 (262144)
I0803 22:56:19.090911 131580 net.cpp:165] Memory required for data: 1260667392
I0803 22:56:19.090919 131580 layer_factory.hpp:76] Creating layer loss1/conv
I0803 22:56:19.090935 131580 net.cpp:106] Creating Layer loss1/conv
I0803 22:56:19.090945 131580 net.cpp:454] loss1/conv <- loss1/ave_pool
I0803 22:56:19.090957 131580 net.cpp:411] loss1/conv -> loss1/conv
I0803 22:56:19.093422 131580 cudnn_conv_layer.cpp:194] Reallocating workspace storage: 6144
I0803 22:56:19.093507 131580 net.cpp:150] Setting up loss1/conv
I0803 22:56:19.093525 131580 net.cpp:157] Top shape: 32 128 4 4 (65536)
I0803 22:56:19.093534 131580 net.cpp:165] Memory required for data: 1260929536
I0803 22:56:19.093549 131580 layer_factory.hpp:76] Creating layer loss1/relu_conv
I0803 22:56:19.093569 131580 net.cpp:106] Creating Layer loss1/relu_conv
I0803 22:56:19.093583 131580 net.cpp:454] loss1/relu_conv <- loss1/conv
I0803 22:56:19.093607 131580 net.cpp:397] loss1/relu_conv -> loss1/conv (in-place)
I0803 22:56:19.093833 131580 net.cpp:150] Setting up loss1/relu_conv
I0803 22:56:19.093873 131580 net.cpp:157] Top shape: 32 128 4 4 (65536)
I0803 22:56:19.093894 131580 net.cpp:165] Memory required for data: 1261191680
I0803 22:56:19.093904 131580 layer_factory.hpp:76] Creating layer loss1/fc
I0803 22:56:19.093921 131580 net.cpp:106] Creating Layer loss1/fc
I0803 22:56:19.093930 131580 net.cpp:454] loss1/fc <- loss1/conv
I0803 22:56:19.093943 131580 net.cpp:411] loss1/fc -> loss1/fc
I0803 22:56:19.112862 131580 net.cpp:150] Setting up loss1/fc
I0803 22:56:19.112923 131580 net.cpp:157] Top shape: 32 1024 (32768)
I0803 22:56:19.112932 131580 net.cpp:165] Memory required for data: 1261322752
I0803 22:56:19.112947 131580 layer_factory.hpp:76] Creating layer loss1/relu_fc
I0803 22:56:19.112962 131580 net.cpp:106] Creating Layer loss1/relu_fc
I0803 22:56:19.112972 131580 net.cpp:454] loss1/relu_fc <- loss1/fc
I0803 22:56:19.112987 131580 net.cpp:397] loss1/relu_fc -> loss1/fc (in-place)
I0803 22:56:19.113656 131580 net.cpp:150] Setting up loss1/relu_fc
I0803 22:56:19.113698 131580 net.cpp:157] Top shape: 32 1024 (32768)
I0803 22:56:19.113713 131580 net.cpp:165] Memory required for data: 1261453824
I0803 22:56:19.113723 131580 layer_factory.hpp:76] Creating layer loss1/drop_fc
I0803 22:56:19.113754 131580 net.cpp:106] Creating Layer loss1/drop_fc
I0803 22:56:19.113764 131580 net.cpp:454] loss1/drop_fc <- loss1/fc
I0803 22:56:19.113775 131580 net.cpp:397] loss1/drop_fc -> loss1/fc (in-place)
I0803 22:56:19.113831 131580 net.cpp:150] Setting up loss1/drop_fc
I0803 22:56:19.113847 131580 net.cpp:157] Top shape: 32 1024 (32768)
I0803 22:56:19.113854 131580 net.cpp:165] Memory required for data: 1261584896
I0803 22:56:19.113863 131580 layer_factory.hpp:76] Creating layer loss1/classifier
I0803 22:56:19.113881 131580 net.cpp:106] Creating Layer loss1/classifier
I0803 22:56:19.113891 131580 net.cpp:454] loss1/classifier <- loss1/fc
I0803 22:56:19.113904 131580 net.cpp:411] loss1/classifier -> loss1/classifier
I0803 22:56:19.114083 131580 net.cpp:150] Setting up loss1/classifier
I0803 22:56:19.114116 131580 net.cpp:157] Top shape: 32 2 (64)
I0803 22:56:19.114125 131580 net.cpp:165] Memory required for data: 1261585152
I0803 22:56:19.114135 131580 layer_factory.hpp:76] Creating layer loss1/loss
I0803 22:56:19.114197 131580 net.cpp:106] Creating Layer loss1/loss
I0803 22:56:19.114207 131580 net.cpp:454] loss1/loss <- loss1/classifier
I0803 22:56:19.114229 131580 net.cpp:454] loss1/loss <- label_data_1_split_0
I0803 22:56:19.114239 131580 net.cpp:411] loss1/loss -> loss1/loss1
I0803 22:56:19.114259 131580 layer_factory.hpp:76] Creating layer loss1/loss
I0803 22:56:19.114979 131580 net.cpp:150] Setting up loss1/loss
I0803 22:56:19.115010 131580 net.cpp:157] Top shape: (1)
I0803 22:56:19.115018 131580 net.cpp:160]     with loss weight 0.3
I0803 22:56:19.115046 131580 net.cpp:165] Memory required for data: 1261585156
I0803 22:56:19.115053 131580 layer_factory.hpp:76] Creating layer inception_4b/1x1
I0803 22:56:19.115070 131580 net.cpp:106] Creating Layer inception_4b/1x1
I0803 22:56:19.115080 131580 net.cpp:454] inception_4b/1x1 <- inception_4a/output_inception_4a/output_0_split_1
I0803 22:56:19.115090 131580 net.cpp:411] inception_4b/1x1 -> inception_4b/1x1
I0803 22:56:19.117578 131580 cudnn_conv_layer.cpp:194] Reallocating workspace storage: 6144
I0803 22:56:19.117630 131580 net.cpp:150] Setting up inception_4b/1x1
I0803 22:56:19.117643 131580 net.cpp:157] Top shape: 32 160 14 14 (1003520)
I0803 22:56:19.117651 131580 net.cpp:165] Memory required for data: 1265599236
I0803 22:56:19.117663 131580 layer_factory.hpp:76] Creating layer inception_4b/relu_1x1
I0803 22:56:19.117688 131580 net.cpp:106] Creating Layer inception_4b/relu_1x1
I0803 22:56:19.117698 131580 net.cpp:454] inception_4b/relu_1x1 <- inception_4b/1x1
I0803 22:56:19.117708 131580 net.cpp:397] inception_4b/relu_1x1 -> inception_4b/1x1 (in-place)
I0803 22:56:19.118963 131580 net.cpp:150] Setting up inception_4b/relu_1x1
I0803 22:56:19.118999 131580 net.cpp:157] Top shape: 32 160 14 14 (1003520)
I0803 22:56:19.119009 131580 net.cpp:165] Memory required for data: 1269613316
I0803 22:56:19.119017 131580 layer_factory.hpp:76] Creating layer inception_4b/3x3_reduce
I0803 22:56:19.119032 131580 net.cpp:106] Creating Layer inception_4b/3x3_reduce
I0803 22:56:19.119041 131580 net.cpp:454] inception_4b/3x3_reduce <- inception_4a/output_inception_4a/output_0_split_2
I0803 22:56:19.119055 131580 net.cpp:411] inception_4b/3x3_reduce -> inception_4b/3x3_reduce
I0803 22:56:19.124979 131580 cudnn_conv_layer.cpp:194] Reallocating workspace storage: 6144
I0803 22:56:19.125026 131580 net.cpp:150] Setting up inception_4b/3x3_reduce
I0803 22:56:19.125039 131580 net.cpp:157] Top shape: 32 112 14 14 (702464)
I0803 22:56:19.125048 131580 net.cpp:165] Memory required for data: 1272423172
I0803 22:56:19.125061 131580 layer_factory.hpp:76] Creating layer inception_4b/relu_3x3_reduce
I0803 22:56:19.125073 131580 net.cpp:106] Creating Layer inception_4b/relu_3x3_reduce
I0803 22:56:19.125082 131580 net.cpp:454] inception_4b/relu_3x3_reduce <- inception_4b/3x3_reduce
I0803 22:56:19.125095 131580 net.cpp:397] inception_4b/relu_3x3_reduce -> inception_4b/3x3_reduce (in-place)
I0803 22:56:19.127655 131580 net.cpp:150] Setting up inception_4b/relu_3x3_reduce
I0803 22:56:19.127691 131580 net.cpp:157] Top shape: 32 112 14 14 (702464)
I0803 22:56:19.127701 131580 net.cpp:165] Memory required for data: 1275233028
I0803 22:56:19.127709 131580 layer_factory.hpp:76] Creating layer inception_4b/3x3
I0803 22:56:19.127724 131580 net.cpp:106] Creating Layer inception_4b/3x3
I0803 22:56:19.127733 131580 net.cpp:454] inception_4b/3x3 <- inception_4b/3x3_reduce
I0803 22:56:19.127746 131580 net.cpp:411] inception_4b/3x3 -> inception_4b/3x3
I0803 22:56:19.132678 131580 cudnn_conv_layer.cpp:194] Reallocating workspace storage: 12096
I0803 22:56:19.132726 131580 net.cpp:150] Setting up inception_4b/3x3
I0803 22:56:19.132740 131580 net.cpp:157] Top shape: 32 224 14 14 (1404928)
I0803 22:56:19.132748 131580 net.cpp:165] Memory required for data: 1280852740
I0803 22:56:19.132761 131580 layer_factory.hpp:76] Creating layer inception_4b/relu_3x3
I0803 22:56:19.132774 131580 net.cpp:106] Creating Layer inception_4b/relu_3x3
I0803 22:56:19.132784 131580 net.cpp:454] inception_4b/relu_3x3 <- inception_4b/3x3
I0803 22:56:19.132824 131580 net.cpp:397] inception_4b/relu_3x3 -> inception_4b/3x3 (in-place)
I0803 22:56:19.133052 131580 net.cpp:150] Setting up inception_4b/relu_3x3
I0803 22:56:19.133092 131580 net.cpp:157] Top shape: 32 224 14 14 (1404928)
I0803 22:56:19.133100 131580 net.cpp:165] Memory required for data: 1286472452
I0803 22:56:19.133110 131580 layer_factory.hpp:76] Creating layer inception_4b/5x5_reduce
I0803 22:56:19.133128 131580 net.cpp:106] Creating Layer inception_4b/5x5_reduce
I0803 22:56:19.133138 131580 net.cpp:454] inception_4b/5x5_reduce <- inception_4a/output_inception_4a/output_0_split_3
I0803 22:56:19.133152 131580 net.cpp:411] inception_4b/5x5_reduce -> inception_4b/5x5_reduce
I0803 22:56:19.134397 131580 net.cpp:150] Setting up inception_4b/5x5_reduce
I0803 22:56:19.134430 131580 net.cpp:157] Top shape: 32 24 14 14 (150528)
I0803 22:56:19.134439 131580 net.cpp:165] Memory required for data: 1287074564
I0803 22:56:19.134454 131580 layer_factory.hpp:76] Creating layer inception_4b/relu_5x5_reduce
I0803 22:56:19.134466 131580 net.cpp:106] Creating Layer inception_4b/relu_5x5_reduce
I0803 22:56:19.134476 131580 net.cpp:454] inception_4b/relu_5x5_reduce <- inception_4b/5x5_reduce
I0803 22:56:19.134485 131580 net.cpp:397] inception_4b/relu_5x5_reduce -> inception_4b/5x5_reduce (in-place)
I0803 22:56:19.134879 131580 net.cpp:150] Setting up inception_4b/relu_5x5_reduce
I0803 22:56:19.134912 131580 net.cpp:157] Top shape: 32 24 14 14 (150528)
I0803 22:56:19.134920 131580 net.cpp:165] Memory required for data: 1287676676
I0803 22:56:19.134929 131580 layer_factory.hpp:76] Creating layer inception_4b/5x5
I0803 22:56:19.134945 131580 net.cpp:106] Creating Layer inception_4b/5x5
I0803 22:56:19.134954 131580 net.cpp:454] inception_4b/5x5 <- inception_4b/5x5_reduce
I0803 22:56:19.134964 131580 net.cpp:411] inception_4b/5x5 -> inception_4b/5x5
I0803 22:56:19.136229 131580 net.cpp:150] Setting up inception_4b/5x5
I0803 22:56:19.136261 131580 net.cpp:157] Top shape: 32 64 14 14 (401408)
I0803 22:56:19.136270 131580 net.cpp:165] Memory required for data: 1289282308
I0803 22:56:19.136282 131580 layer_factory.hpp:76] Creating layer inception_4b/relu_5x5
I0803 22:56:19.136297 131580 net.cpp:106] Creating Layer inception_4b/relu_5x5
I0803 22:56:19.136307 131580 net.cpp:454] inception_4b/relu_5x5 <- inception_4b/5x5
I0803 22:56:19.136317 131580 net.cpp:397] inception_4b/relu_5x5 -> inception_4b/5x5 (in-place)
I0803 22:56:19.136703 131580 net.cpp:150] Setting up inception_4b/relu_5x5
I0803 22:56:19.136732 131580 net.cpp:157] Top shape: 32 64 14 14 (401408)
I0803 22:56:19.136740 131580 net.cpp:165] Memory required for data: 1290887940
I0803 22:56:19.136749 131580 layer_factory.hpp:76] Creating layer inception_4b/pool
I0803 22:56:19.136764 131580 net.cpp:106] Creating Layer inception_4b/pool
I0803 22:56:19.136772 131580 net.cpp:454] inception_4b/pool <- inception_4a/output_inception_4a/output_0_split_4
I0803 22:56:19.136783 131580 net.cpp:411] inception_4b/pool -> inception_4b/pool
I0803 22:56:19.137068 131580 net.cpp:150] Setting up inception_4b/pool
I0803 22:56:19.137099 131580 net.cpp:157] Top shape: 32 512 14 14 (3211264)
I0803 22:56:19.137107 131580 net.cpp:165] Memory required for data: 1303732996
I0803 22:56:19.137117 131580 layer_factory.hpp:76] Creating layer inception_4b/pool_proj
I0803 22:56:19.137131 131580 net.cpp:106] Creating Layer inception_4b/pool_proj
I0803 22:56:19.137141 131580 net.cpp:454] inception_4b/pool_proj <- inception_4b/pool
I0803 22:56:19.137151 131580 net.cpp:411] inception_4b/pool_proj -> inception_4b/pool_proj
I0803 22:56:19.138479 131580 cudnn_conv_layer.cpp:194] Reallocating workspace storage: 6144
I0803 22:56:19.138532 131580 net.cpp:150] Setting up inception_4b/pool_proj
I0803 22:56:19.138547 131580 net.cpp:157] Top shape: 32 64 14 14 (401408)
I0803 22:56:19.138556 131580 net.cpp:165] Memory required for data: 1305338628
I0803 22:56:19.138567 131580 layer_factory.hpp:76] Creating layer inception_4b/relu_pool_proj
I0803 22:56:19.138592 131580 net.cpp:106] Creating Layer inception_4b/relu_pool_proj
I0803 22:56:19.138615 131580 net.cpp:454] inception_4b/relu_pool_proj <- inception_4b/pool_proj
I0803 22:56:19.138633 131580 net.cpp:397] inception_4b/relu_pool_proj -> inception_4b/pool_proj (in-place)
I0803 22:56:19.139039 131580 net.cpp:150] Setting up inception_4b/relu_pool_proj
I0803 22:56:19.139070 131580 net.cpp:157] Top shape: 32 64 14 14 (401408)
I0803 22:56:19.139080 131580 net.cpp:165] Memory required for data: 1306944260
I0803 22:56:19.139087 131580 layer_factory.hpp:76] Creating layer inception_4b/output
I0803 22:56:19.139098 131580 net.cpp:106] Creating Layer inception_4b/output
I0803 22:56:19.139107 131580 net.cpp:454] inception_4b/output <- inception_4b/1x1
I0803 22:56:19.139117 131580 net.cpp:454] inception_4b/output <- inception_4b/3x3
I0803 22:56:19.139125 131580 net.cpp:454] inception_4b/output <- inception_4b/5x5
I0803 22:56:19.139133 131580 net.cpp:454] inception_4b/output <- inception_4b/pool_proj
I0803 22:56:19.139143 131580 net.cpp:411] inception_4b/output -> inception_4b/output
I0803 22:56:19.139195 131580 net.cpp:150] Setting up inception_4b/output
I0803 22:56:19.139209 131580 net.cpp:157] Top shape: 32 512 14 14 (3211264)
I0803 22:56:19.139217 131580 net.cpp:165] Memory required for data: 1319789316
I0803 22:56:19.139225 131580 layer_factory.hpp:76] Creating layer inception_4b/output_inception_4b/output_0_split
I0803 22:56:19.139238 131580 net.cpp:106] Creating Layer inception_4b/output_inception_4b/output_0_split
I0803 22:56:19.139246 131580 net.cpp:454] inception_4b/output_inception_4b/output_0_split <- inception_4b/output
I0803 22:56:19.139257 131580 net.cpp:411] inception_4b/output_inception_4b/output_0_split -> inception_4b/output_inception_4b/output_0_split_0
I0803 22:56:19.139269 131580 net.cpp:411] inception_4b/output_inception_4b/output_0_split -> inception_4b/output_inception_4b/output_0_split_1
I0803 22:56:19.139304 131580 net.cpp:411] inception_4b/output_inception_4b/output_0_split -> inception_4b/output_inception_4b/output_0_split_2
I0803 22:56:19.139317 131580 net.cpp:411] inception_4b/output_inception_4b/output_0_split -> inception_4b/output_inception_4b/output_0_split_3
I0803 22:56:19.139431 131580 net.cpp:150] Setting up inception_4b/output_inception_4b/output_0_split
I0803 22:56:19.139444 131580 net.cpp:157] Top shape: 32 512 14 14 (3211264)
I0803 22:56:19.139454 131580 net.cpp:157] Top shape: 32 512 14 14 (3211264)
I0803 22:56:19.139474 131580 net.cpp:157] Top shape: 32 512 14 14 (3211264)
I0803 22:56:19.139495 131580 net.cpp:157] Top shape: 32 512 14 14 (3211264)
I0803 22:56:19.139503 131580 net.cpp:165] Memory required for data: 1371169540
I0803 22:56:19.139513 131580 layer_factory.hpp:76] Creating layer inception_4c/1x1
I0803 22:56:19.139528 131580 net.cpp:106] Creating Layer inception_4c/1x1
I0803 22:56:19.139536 131580 net.cpp:454] inception_4c/1x1 <- inception_4b/output_inception_4b/output_0_split_0
I0803 22:56:19.139549 131580 net.cpp:411] inception_4c/1x1 -> inception_4c/1x1
I0803 22:56:19.141281 131580 cudnn_conv_layer.cpp:194] Reallocating workspace storage: 6144
I0803 22:56:19.141319 131580 net.cpp:150] Setting up inception_4c/1x1
I0803 22:56:19.141332 131580 net.cpp:157] Top shape: 32 128 14 14 (802816)
I0803 22:56:19.141340 131580 net.cpp:165] Memory required for data: 1374380804
I0803 22:56:19.141353 131580 layer_factory.hpp:76] Creating layer inception_4c/relu_1x1
I0803 22:56:19.141381 131580 net.cpp:106] Creating Layer inception_4c/relu_1x1
I0803 22:56:19.141391 131580 net.cpp:454] inception_4c/relu_1x1 <- inception_4c/1x1
I0803 22:56:19.141402 131580 net.cpp:397] inception_4c/relu_1x1 -> inception_4c/1x1 (in-place)
I0803 22:56:19.141630 131580 net.cpp:150] Setting up inception_4c/relu_1x1
I0803 22:56:19.141647 131580 net.cpp:157] Top shape: 32 128 14 14 (802816)
I0803 22:56:19.141655 131580 net.cpp:165] Memory required for data: 1377592068
I0803 22:56:19.141664 131580 layer_factory.hpp:76] Creating layer inception_4c/3x3_reduce
I0803 22:56:19.141680 131580 net.cpp:106] Creating Layer inception_4c/3x3_reduce
I0803 22:56:19.141716 131580 net.cpp:454] inception_4c/3x3_reduce <- inception_4b/output_inception_4b/output_0_split_1
I0803 22:56:19.141728 131580 net.cpp:411] inception_4c/3x3_reduce -> inception_4c/3x3_reduce
I0803 22:56:19.143421 131580 cudnn_conv_layer.cpp:194] Reallocating workspace storage: 6144
I0803 22:56:19.143484 131580 net.cpp:150] Setting up inception_4c/3x3_reduce
I0803 22:56:19.143499 131580 net.cpp:157] Top shape: 32 128 14 14 (802816)
I0803 22:56:19.143507 131580 net.cpp:165] Memory required for data: 1380803332
I0803 22:56:19.143522 131580 layer_factory.hpp:76] Creating layer inception_4c/relu_3x3_reduce
I0803 22:56:19.143537 131580 net.cpp:106] Creating Layer inception_4c/relu_3x3_reduce
I0803 22:56:19.143548 131580 net.cpp:454] inception_4c/relu_3x3_reduce <- inception_4c/3x3_reduce
I0803 22:56:19.143561 131580 net.cpp:397] inception_4c/relu_3x3_reduce -> inception_4c/3x3_reduce (in-place)
I0803 22:56:19.143803 131580 net.cpp:150] Setting up inception_4c/relu_3x3_reduce
I0803 22:56:19.143832 131580 net.cpp:157] Top shape: 32 128 14 14 (802816)
I0803 22:56:19.143853 131580 net.cpp:165] Memory required for data: 1384014596
I0803 22:56:19.143862 131580 layer_factory.hpp:76] Creating layer inception_4c/3x3
I0803 22:56:19.143878 131580 net.cpp:106] Creating Layer inception_4c/3x3
I0803 22:56:19.143887 131580 net.cpp:454] inception_4c/3x3 <- inception_4c/3x3_reduce
I0803 22:56:19.143900 131580 net.cpp:411] inception_4c/3x3 -> inception_4c/3x3
I0803 22:56:19.148108 131580 net.cpp:150] Setting up inception_4c/3x3
I0803 22:56:19.148170 131580 net.cpp:157] Top shape: 32 256 14 14 (1605632)
I0803 22:56:19.148182 131580 net.cpp:165] Memory required for data: 1390437124
I0803 22:56:19.148213 131580 layer_factory.hpp:76] Creating layer inception_4c/relu_3x3
I0803 22:56:19.148232 131580 net.cpp:106] Creating Layer inception_4c/relu_3x3
I0803 22:56:19.148244 131580 net.cpp:454] inception_4c/relu_3x3 <- inception_4c/3x3
I0803 22:56:19.148254 131580 net.cpp:397] inception_4c/relu_3x3 -> inception_4c/3x3 (in-place)
I0803 22:56:19.148665 131580 net.cpp:150] Setting up inception_4c/relu_3x3
I0803 22:56:19.148697 131580 net.cpp:157] Top shape: 32 256 14 14 (1605632)
I0803 22:56:19.148706 131580 net.cpp:165] Memory required for data: 1396859652
I0803 22:56:19.148715 131580 layer_factory.hpp:76] Creating layer inception_4c/5x5_reduce
I0803 22:56:19.148732 131580 net.cpp:106] Creating Layer inception_4c/5x5_reduce
I0803 22:56:19.148742 131580 net.cpp:454] inception_4c/5x5_reduce <- inception_4b/output_inception_4b/output_0_split_2
I0803 22:56:19.148758 131580 net.cpp:411] inception_4c/5x5_reduce -> inception_4c/5x5_reduce
I0803 22:56:19.150104 131580 net.cpp:150] Setting up inception_4c/5x5_reduce
I0803 22:56:19.150151 131580 net.cpp:157] Top shape: 32 24 14 14 (150528)
I0803 22:56:19.150161 131580 net.cpp:165] Memory required for data: 1397461764
I0803 22:56:19.150174 131580 layer_factory.hpp:76] Creating layer inception_4c/relu_5x5_reduce
I0803 22:56:19.150190 131580 net.cpp:106] Creating Layer inception_4c/relu_5x5_reduce
I0803 22:56:19.150202 131580 net.cpp:454] inception_4c/relu_5x5_reduce <- inception_4c/5x5_reduce
I0803 22:56:19.150212 131580 net.cpp:397] inception_4c/relu_5x5_reduce -> inception_4c/5x5_reduce (in-place)
I0803 22:56:19.150459 131580 net.cpp:150] Setting up inception_4c/relu_5x5_reduce
I0803 22:56:19.150475 131580 net.cpp:157] Top shape: 32 24 14 14 (150528)
I0803 22:56:19.150482 131580 net.cpp:165] Memory required for data: 1398063876
I0803 22:56:19.150492 131580 layer_factory.hpp:76] Creating layer inception_4c/5x5
I0803 22:56:19.150509 131580 net.cpp:106] Creating Layer inception_4c/5x5
I0803 22:56:19.150518 131580 net.cpp:454] inception_4c/5x5 <- inception_4c/5x5_reduce
I0803 22:56:19.150530 131580 net.cpp:411] inception_4c/5x5 -> inception_4c/5x5
I0803 22:56:19.152801 131580 net.cpp:150] Setting up inception_4c/5x5
I0803 22:56:19.152860 131580 net.cpp:157] Top shape: 32 64 14 14 (401408)
I0803 22:56:19.152870 131580 net.cpp:165] Memory required for data: 1399669508
I0803 22:56:19.152885 131580 layer_factory.hpp:76] Creating layer inception_4c/relu_5x5
I0803 22:56:19.152928 131580 net.cpp:106] Creating Layer inception_4c/relu_5x5
I0803 22:56:19.152941 131580 net.cpp:454] inception_4c/relu_5x5 <- inception_4c/5x5
I0803 22:56:19.152954 131580 net.cpp:397] inception_4c/relu_5x5 -> inception_4c/5x5 (in-place)
I0803 22:56:19.153206 131580 net.cpp:150] Setting up inception_4c/relu_5x5
I0803 22:56:19.153235 131580 net.cpp:157] Top shape: 32 64 14 14 (401408)
I0803 22:56:19.153246 131580 net.cpp:165] Memory required for data: 1401275140
I0803 22:56:19.153256 131580 layer_factory.hpp:76] Creating layer inception_4c/pool
I0803 22:56:19.153282 131580 net.cpp:106] Creating Layer inception_4c/pool
I0803 22:56:19.153291 131580 net.cpp:454] inception_4c/pool <- inception_4b/output_inception_4b/output_0_split_3
I0803 22:56:19.153302 131580 net.cpp:411] inception_4c/pool -> inception_4c/pool
I0803 22:56:19.153753 131580 net.cpp:150] Setting up inception_4c/pool
I0803 22:56:19.153787 131580 net.cpp:157] Top shape: 32 512 14 14 (3211264)
I0803 22:56:19.153796 131580 net.cpp:165] Memory required for data: 1414120196
I0803 22:56:19.153805 131580 layer_factory.hpp:76] Creating layer inception_4c/pool_proj
I0803 22:56:19.153821 131580 net.cpp:106] Creating Layer inception_4c/pool_proj
I0803 22:56:19.153831 131580 net.cpp:454] inception_4c/pool_proj <- inception_4c/pool
I0803 22:56:19.153844 131580 net.cpp:411] inception_4c/pool_proj -> inception_4c/pool_proj
I0803 22:56:19.155364 131580 cudnn_conv_layer.cpp:194] Reallocating workspace storage: 6144
I0803 22:56:19.155429 131580 net.cpp:150] Setting up inception_4c/pool_proj
I0803 22:56:19.155444 131580 net.cpp:157] Top shape: 32 64 14 14 (401408)
I0803 22:56:19.155453 131580 net.cpp:165] Memory required for data: 1415725828
I0803 22:56:19.155467 131580 layer_factory.hpp:76] Creating layer inception_4c/relu_pool_proj
I0803 22:56:19.155484 131580 net.cpp:106] Creating Layer inception_4c/relu_pool_proj
I0803 22:56:19.155496 131580 net.cpp:454] inception_4c/relu_pool_proj <- inception_4c/pool_proj
I0803 22:56:19.155506 131580 net.cpp:397] inception_4c/relu_pool_proj -> inception_4c/pool_proj (in-place)
I0803 22:56:19.155746 131580 net.cpp:150] Setting up inception_4c/relu_pool_proj
I0803 22:56:19.155763 131580 net.cpp:157] Top shape: 32 64 14 14 (401408)
I0803 22:56:19.155771 131580 net.cpp:165] Memory required for data: 1417331460
I0803 22:56:19.155779 131580 layer_factory.hpp:76] Creating layer inception_4c/output
I0803 22:56:19.155796 131580 net.cpp:106] Creating Layer inception_4c/output
I0803 22:56:19.155804 131580 net.cpp:454] inception_4c/output <- inception_4c/1x1
I0803 22:56:19.155813 131580 net.cpp:454] inception_4c/output <- inception_4c/3x3
I0803 22:56:19.155824 131580 net.cpp:454] inception_4c/output <- inception_4c/5x5
I0803 22:56:19.155833 131580 net.cpp:454] inception_4c/output <- inception_4c/pool_proj
I0803 22:56:19.155844 131580 net.cpp:411] inception_4c/output -> inception_4c/output
I0803 22:56:19.155902 131580 net.cpp:150] Setting up inception_4c/output
I0803 22:56:19.155917 131580 net.cpp:157] Top shape: 32 512 14 14 (3211264)
I0803 22:56:19.155925 131580 net.cpp:165] Memory required for data: 1430176516
I0803 22:56:19.155933 131580 layer_factory.hpp:76] Creating layer inception_4c/output_inception_4c/output_0_split
I0803 22:56:19.155946 131580 net.cpp:106] Creating Layer inception_4c/output_inception_4c/output_0_split
I0803 22:56:19.155954 131580 net.cpp:454] inception_4c/output_inception_4c/output_0_split <- inception_4c/output
I0803 22:56:19.155964 131580 net.cpp:411] inception_4c/output_inception_4c/output_0_split -> inception_4c/output_inception_4c/output_0_split_0
I0803 22:56:19.155999 131580 net.cpp:411] inception_4c/output_inception_4c/output_0_split -> inception_4c/output_inception_4c/output_0_split_1
I0803 22:56:19.156011 131580 net.cpp:411] inception_4c/output_inception_4c/output_0_split -> inception_4c/output_inception_4c/output_0_split_2
I0803 22:56:19.156024 131580 net.cpp:411] inception_4c/output_inception_4c/output_0_split -> inception_4c/output_inception_4c/output_0_split_3
I0803 22:56:19.156159 131580 net.cpp:150] Setting up inception_4c/output_inception_4c/output_0_split
I0803 22:56:19.156173 131580 net.cpp:157] Top shape: 32 512 14 14 (3211264)
I0803 22:56:19.156183 131580 net.cpp:157] Top shape: 32 512 14 14 (3211264)
I0803 22:56:19.156191 131580 net.cpp:157] Top shape: 32 512 14 14 (3211264)
I0803 22:56:19.156200 131580 net.cpp:157] Top shape: 32 512 14 14 (3211264)
I0803 22:56:19.156208 131580 net.cpp:165] Memory required for data: 1481556740
I0803 22:56:19.156218 131580 layer_factory.hpp:76] Creating layer inception_4d/1x1
I0803 22:56:19.156234 131580 net.cpp:106] Creating Layer inception_4d/1x1
I0803 22:56:19.156242 131580 net.cpp:454] inception_4d/1x1 <- inception_4c/output_inception_4c/output_0_split_0
I0803 22:56:19.156255 131580 net.cpp:411] inception_4d/1x1 -> inception_4d/1x1
I0803 22:56:19.157963 131580 cudnn_conv_layer.cpp:194] Reallocating workspace storage: 6144
I0803 22:56:19.158016 131580 net.cpp:150] Setting up inception_4d/1x1
I0803 22:56:19.158030 131580 net.cpp:157] Top shape: 32 112 14 14 (702464)
I0803 22:56:19.158040 131580 net.cpp:165] Memory required for data: 1484366596
I0803 22:56:19.158052 131580 layer_factory.hpp:76] Creating layer inception_4d/relu_1x1
I0803 22:56:19.158069 131580 net.cpp:106] Creating Layer inception_4d/relu_1x1
I0803 22:56:19.158079 131580 net.cpp:454] inception_4d/relu_1x1 <- inception_4d/1x1
I0803 22:56:19.158103 131580 net.cpp:397] inception_4d/relu_1x1 -> inception_4d/1x1 (in-place)
I0803 22:56:19.158484 131580 net.cpp:150] Setting up inception_4d/relu_1x1
I0803 22:56:19.158504 131580 net.cpp:157] Top shape: 32 112 14 14 (702464)
I0803 22:56:19.158514 131580 net.cpp:165] Memory required for data: 1487176452
I0803 22:56:19.158522 131580 layer_factory.hpp:76] Creating layer inception_4d/3x3_reduce
I0803 22:56:19.158540 131580 net.cpp:106] Creating Layer inception_4d/3x3_reduce
I0803 22:56:19.158550 131580 net.cpp:454] inception_4d/3x3_reduce <- inception_4c/output_inception_4c/output_0_split_1
I0803 22:56:19.158576 131580 net.cpp:411] inception_4d/3x3_reduce -> inception_4d/3x3_reduce
I0803 22:56:19.160197 131580 cudnn_conv_layer.cpp:194] Reallocating workspace storage: 6144
I0803 22:56:19.160257 131580 net.cpp:150] Setting up inception_4d/3x3_reduce
I0803 22:56:19.160270 131580 net.cpp:157] Top shape: 32 144 14 14 (903168)
I0803 22:56:19.160279 131580 net.cpp:165] Memory required for data: 1490789124
I0803 22:56:19.160291 131580 layer_factory.hpp:76] Creating layer inception_4d/relu_3x3_reduce
I0803 22:56:19.160305 131580 net.cpp:106] Creating Layer inception_4d/relu_3x3_reduce
I0803 22:56:19.160316 131580 net.cpp:454] inception_4d/relu_3x3_reduce <- inception_4d/3x3_reduce
I0803 22:56:19.160326 131580 net.cpp:397] inception_4d/relu_3x3_reduce -> inception_4d/3x3_reduce (in-place)
I0803 22:56:19.160720 131580 net.cpp:150] Setting up inception_4d/relu_3x3_reduce
I0803 22:56:19.160751 131580 net.cpp:157] Top shape: 32 144 14 14 (903168)
I0803 22:56:19.160760 131580 net.cpp:165] Memory required for data: 1494401796
I0803 22:56:19.160769 131580 layer_factory.hpp:76] Creating layer inception_4d/3x3
I0803 22:56:19.160785 131580 net.cpp:106] Creating Layer inception_4d/3x3
I0803 22:56:19.160795 131580 net.cpp:454] inception_4d/3x3 <- inception_4d/3x3_reduce
I0803 22:56:19.160807 131580 net.cpp:411] inception_4d/3x3 -> inception_4d/3x3
I0803 22:56:19.166856 131580 cudnn_conv_layer.cpp:194] Reallocating workspace storage: 15552
I0803 22:56:19.166918 131580 net.cpp:150] Setting up inception_4d/3x3
I0803 22:56:19.166934 131580 net.cpp:157] Top shape: 32 288 14 14 (1806336)
I0803 22:56:19.166945 131580 net.cpp:165] Memory required for data: 1501627140
I0803 22:56:19.166960 131580 layer_factory.hpp:76] Creating layer inception_4d/relu_3x3
I0803 22:56:19.166975 131580 net.cpp:106] Creating Layer inception_4d/relu_3x3
I0803 22:56:19.166988 131580 net.cpp:454] inception_4d/relu_3x3 <- inception_4d/3x3
I0803 22:56:19.166999 131580 net.cpp:397] inception_4d/relu_3x3 -> inception_4d/3x3 (in-place)
I0803 22:56:19.167867 131580 net.cpp:150] Setting up inception_4d/relu_3x3
I0803 22:56:19.167910 131580 net.cpp:157] Top shape: 32 288 14 14 (1806336)
I0803 22:56:19.167919 131580 net.cpp:165] Memory required for data: 1508852484
I0803 22:56:19.167927 131580 layer_factory.hpp:76] Creating layer inception_4d/5x5_reduce
I0803 22:56:19.167944 131580 net.cpp:106] Creating Layer inception_4d/5x5_reduce
I0803 22:56:19.167953 131580 net.cpp:454] inception_4d/5x5_reduce <- inception_4c/output_inception_4c/output_0_split_2
I0803 22:56:19.167965 131580 net.cpp:411] inception_4d/5x5_reduce -> inception_4d/5x5_reduce
I0803 22:56:19.170514 131580 net.cpp:150] Setting up inception_4d/5x5_reduce
I0803 22:56:19.170549 131580 net.cpp:157] Top shape: 32 32 14 14 (200704)
I0803 22:56:19.170558 131580 net.cpp:165] Memory required for data: 1509655300
I0803 22:56:19.170572 131580 layer_factory.hpp:76] Creating layer inception_4d/relu_5x5_reduce
I0803 22:56:19.170584 131580 net.cpp:106] Creating Layer inception_4d/relu_5x5_reduce
I0803 22:56:19.170594 131580 net.cpp:454] inception_4d/relu_5x5_reduce <- inception_4d/5x5_reduce
I0803 22:56:19.170606 131580 net.cpp:397] inception_4d/relu_5x5_reduce -> inception_4d/5x5_reduce (in-place)
I0803 22:56:19.172732 131580 net.cpp:150] Setting up inception_4d/relu_5x5_reduce
I0803 22:56:19.172765 131580 net.cpp:157] Top shape: 32 32 14 14 (200704)
I0803 22:56:19.172777 131580 net.cpp:165] Memory required for data: 1510458116
I0803 22:56:19.172786 131580 layer_factory.hpp:76] Creating layer inception_4d/5x5
I0803 22:56:19.172816 131580 net.cpp:106] Creating Layer inception_4d/5x5
I0803 22:56:19.172828 131580 net.cpp:454] inception_4d/5x5 <- inception_4d/5x5_reduce
I0803 22:56:19.172842 131580 net.cpp:411] inception_4d/5x5 -> inception_4d/5x5
I0803 22:56:19.179873 131580 net.cpp:150] Setting up inception_4d/5x5
I0803 22:56:19.179925 131580 net.cpp:157] Top shape: 32 64 14 14 (401408)
I0803 22:56:19.179935 131580 net.cpp:165] Memory required for data: 1512063748
I0803 22:56:19.179950 131580 layer_factory.hpp:76] Creating layer inception_4d/relu_5x5
I0803 22:56:19.179966 131580 net.cpp:106] Creating Layer inception_4d/relu_5x5
I0803 22:56:19.179978 131580 net.cpp:454] inception_4d/relu_5x5 <- inception_4d/5x5
I0803 22:56:19.179992 131580 net.cpp:397] inception_4d/relu_5x5 -> inception_4d/5x5 (in-place)
I0803 22:56:19.180466 131580 net.cpp:150] Setting up inception_4d/relu_5x5
I0803 22:56:19.180498 131580 net.cpp:157] Top shape: 32 64 14 14 (401408)
I0803 22:56:19.180506 131580 net.cpp:165] Memory required for data: 1513669380
I0803 22:56:19.180516 131580 layer_factory.hpp:76] Creating layer inception_4d/pool
I0803 22:56:19.180527 131580 net.cpp:106] Creating Layer inception_4d/pool
I0803 22:56:19.180539 131580 net.cpp:454] inception_4d/pool <- inception_4c/output_inception_4c/output_0_split_3
I0803 22:56:19.180549 131580 net.cpp:411] inception_4d/pool -> inception_4d/pool
I0803 22:56:19.180995 131580 net.cpp:150] Setting up inception_4d/pool
I0803 22:56:19.181026 131580 net.cpp:157] Top shape: 32 512 14 14 (3211264)
I0803 22:56:19.181035 131580 net.cpp:165] Memory required for data: 1526514436
I0803 22:56:19.181044 131580 layer_factory.hpp:76] Creating layer inception_4d/pool_proj
I0803 22:56:19.181063 131580 net.cpp:106] Creating Layer inception_4d/pool_proj
I0803 22:56:19.181073 131580 net.cpp:454] inception_4d/pool_proj <- inception_4d/pool
I0803 22:56:19.181087 131580 net.cpp:411] inception_4d/pool_proj -> inception_4d/pool_proj
I0803 22:56:19.182370 131580 cudnn_conv_layer.cpp:194] Reallocating workspace storage: 6144
I0803 22:56:19.182428 131580 net.cpp:150] Setting up inception_4d/pool_proj
I0803 22:56:19.182441 131580 net.cpp:157] Top shape: 32 64 14 14 (401408)
I0803 22:56:19.182451 131580 net.cpp:165] Memory required for data: 1528120068
I0803 22:56:19.182461 131580 layer_factory.hpp:76] Creating layer inception_4d/relu_pool_proj
I0803 22:56:19.182472 131580 net.cpp:106] Creating Layer inception_4d/relu_pool_proj
I0803 22:56:19.182493 131580 net.cpp:454] inception_4d/relu_pool_proj <- inception_4d/pool_proj
I0803 22:56:19.182529 131580 net.cpp:397] inception_4d/relu_pool_proj -> inception_4d/pool_proj (in-place)
I0803 22:56:19.182953 131580 net.cpp:150] Setting up inception_4d/relu_pool_proj
I0803 22:56:19.182986 131580 net.cpp:157] Top shape: 32 64 14 14 (401408)
I0803 22:56:19.182993 131580 net.cpp:165] Memory required for data: 1529725700
I0803 22:56:19.183003 131580 layer_factory.hpp:76] Creating layer inception_4d/output
I0803 22:56:19.183015 131580 net.cpp:106] Creating Layer inception_4d/output
I0803 22:56:19.183024 131580 net.cpp:454] inception_4d/output <- inception_4d/1x1
I0803 22:56:19.183033 131580 net.cpp:454] inception_4d/output <- inception_4d/3x3
I0803 22:56:19.183044 131580 net.cpp:454] inception_4d/output <- inception_4d/5x5
I0803 22:56:19.183053 131580 net.cpp:454] inception_4d/output <- inception_4d/pool_proj
I0803 22:56:19.183061 131580 net.cpp:411] inception_4d/output -> inception_4d/output
I0803 22:56:19.183120 131580 net.cpp:150] Setting up inception_4d/output
I0803 22:56:19.183132 131580 net.cpp:157] Top shape: 32 528 14 14 (3311616)
I0803 22:56:19.183140 131580 net.cpp:165] Memory required for data: 1542972164
I0803 22:56:19.183149 131580 layer_factory.hpp:76] Creating layer inception_4d/output_inception_4d/output_0_split
I0803 22:56:19.183163 131580 net.cpp:106] Creating Layer inception_4d/output_inception_4d/output_0_split
I0803 22:56:19.183172 131580 net.cpp:454] inception_4d/output_inception_4d/output_0_split <- inception_4d/output
I0803 22:56:19.183183 131580 net.cpp:411] inception_4d/output_inception_4d/output_0_split -> inception_4d/output_inception_4d/output_0_split_0
I0803 22:56:19.183195 131580 net.cpp:411] inception_4d/output_inception_4d/output_0_split -> inception_4d/output_inception_4d/output_0_split_1
I0803 22:56:19.183207 131580 net.cpp:411] inception_4d/output_inception_4d/output_0_split -> inception_4d/output_inception_4d/output_0_split_2
I0803 22:56:19.183218 131580 net.cpp:411] inception_4d/output_inception_4d/output_0_split -> inception_4d/output_inception_4d/output_0_split_3
I0803 22:56:19.183234 131580 net.cpp:411] inception_4d/output_inception_4d/output_0_split -> inception_4d/output_inception_4d/output_0_split_4
I0803 22:56:19.183373 131580 net.cpp:150] Setting up inception_4d/output_inception_4d/output_0_split
I0803 22:56:19.183385 131580 net.cpp:157] Top shape: 32 528 14 14 (3311616)
I0803 22:56:19.183408 131580 net.cpp:157] Top shape: 32 528 14 14 (3311616)
I0803 22:56:19.183416 131580 net.cpp:157] Top shape: 32 528 14 14 (3311616)
I0803 22:56:19.183425 131580 net.cpp:157] Top shape: 32 528 14 14 (3311616)
I0803 22:56:19.183434 131580 net.cpp:157] Top shape: 32 528 14 14 (3311616)
I0803 22:56:19.183441 131580 net.cpp:165] Memory required for data: 1609204484
I0803 22:56:19.183449 131580 layer_factory.hpp:76] Creating layer loss2/ave_pool
I0803 22:56:19.183462 131580 net.cpp:106] Creating Layer loss2/ave_pool
I0803 22:56:19.183471 131580 net.cpp:454] loss2/ave_pool <- inception_4d/output_inception_4d/output_0_split_0
I0803 22:56:19.183493 131580 net.cpp:411] loss2/ave_pool -> loss2/ave_pool
I0803 22:56:19.183734 131580 net.cpp:150] Setting up loss2/ave_pool
I0803 22:56:19.183751 131580 net.cpp:157] Top shape: 32 528 4 4 (270336)
I0803 22:56:19.183759 131580 net.cpp:165] Memory required for data: 1610285828
I0803 22:56:19.183768 131580 layer_factory.hpp:76] Creating layer loss2/conv
I0803 22:56:19.183784 131580 net.cpp:106] Creating Layer loss2/conv
I0803 22:56:19.183794 131580 net.cpp:454] loss2/conv <- loss2/ave_pool
I0803 22:56:19.183816 131580 net.cpp:411] loss2/conv -> loss2/conv
I0803 22:56:19.186095 131580 cudnn_conv_layer.cpp:194] Reallocating workspace storage: 6336
I0803 22:56:19.186141 131580 net.cpp:150] Setting up loss2/conv
I0803 22:56:19.186163 131580 net.cpp:157] Top shape: 32 128 4 4 (65536)
I0803 22:56:19.186172 131580 net.cpp:165] Memory required for data: 1610547972
I0803 22:56:19.186197 131580 layer_factory.hpp:76] Creating layer loss2/relu_conv
I0803 22:56:19.186209 131580 net.cpp:106] Creating Layer loss2/relu_conv
I0803 22:56:19.186219 131580 net.cpp:454] loss2/relu_conv <- loss2/conv
I0803 22:56:19.186251 131580 net.cpp:397] loss2/relu_conv -> loss2/conv (in-place)
I0803 22:56:19.186704 131580 net.cpp:150] Setting up loss2/relu_conv
I0803 22:56:19.186738 131580 net.cpp:157] Top shape: 32 128 4 4 (65536)
I0803 22:56:19.186758 131580 net.cpp:165] Memory required for data: 1610810116
I0803 22:56:19.186769 131580 layer_factory.hpp:76] Creating layer loss2/fc
I0803 22:56:19.186782 131580 net.cpp:106] Creating Layer loss2/fc
I0803 22:56:19.186792 131580 net.cpp:454] loss2/fc <- loss2/conv
I0803 22:56:19.186815 131580 net.cpp:411] loss2/fc -> loss2/fc
I0803 22:56:19.205819 131580 net.cpp:150] Setting up loss2/fc
I0803 22:56:19.205902 131580 net.cpp:157] Top shape: 32 1024 (32768)
I0803 22:56:19.205912 131580 net.cpp:165] Memory required for data: 1610941188
I0803 22:56:19.205929 131580 layer_factory.hpp:76] Creating layer loss2/relu_fc
I0803 22:56:19.205946 131580 net.cpp:106] Creating Layer loss2/relu_fc
I0803 22:56:19.205960 131580 net.cpp:454] loss2/relu_fc <- loss2/fc
I0803 22:56:19.205971 131580 net.cpp:397] loss2/relu_fc -> loss2/fc (in-place)
I0803 22:56:19.206334 131580 net.cpp:150] Setting up loss2/relu_fc
I0803 22:56:19.206357 131580 net.cpp:157] Top shape: 32 1024 (32768)
I0803 22:56:19.206365 131580 net.cpp:165] Memory required for data: 1611072260
I0803 22:56:19.206377 131580 layer_factory.hpp:76] Creating layer loss2/drop_fc
I0803 22:56:19.206389 131580 net.cpp:106] Creating Layer loss2/drop_fc
I0803 22:56:19.206398 131580 net.cpp:454] loss2/drop_fc <- loss2/fc
I0803 22:56:19.206410 131580 net.cpp:397] loss2/drop_fc -> loss2/fc (in-place)
I0803 22:56:19.206478 131580 net.cpp:150] Setting up loss2/drop_fc
I0803 22:56:19.206492 131580 net.cpp:157] Top shape: 32 1024 (32768)
I0803 22:56:19.206501 131580 net.cpp:165] Memory required for data: 1611203332
I0803 22:56:19.206509 131580 layer_factory.hpp:76] Creating layer loss2/classifier
I0803 22:56:19.206524 131580 net.cpp:106] Creating Layer loss2/classifier
I0803 22:56:19.206533 131580 net.cpp:454] loss2/classifier <- loss2/fc
I0803 22:56:19.206557 131580 net.cpp:411] loss2/classifier -> loss2/classifier
I0803 22:56:19.206789 131580 net.cpp:150] Setting up loss2/classifier
I0803 22:56:19.206816 131580 net.cpp:157] Top shape: 32 2 (64)
I0803 22:56:19.206836 131580 net.cpp:165] Memory required for data: 1611203588
I0803 22:56:19.206847 131580 layer_factory.hpp:76] Creating layer loss2/loss
I0803 22:56:19.206863 131580 net.cpp:106] Creating Layer loss2/loss
I0803 22:56:19.206872 131580 net.cpp:454] loss2/loss <- loss2/classifier
I0803 22:56:19.206883 131580 net.cpp:454] loss2/loss <- label_data_1_split_1
I0803 22:56:19.206892 131580 net.cpp:411] loss2/loss -> loss2/loss1
I0803 22:56:19.206919 131580 layer_factory.hpp:76] Creating layer loss2/loss
I0803 22:56:19.207582 131580 net.cpp:150] Setting up loss2/loss
I0803 22:56:19.207622 131580 net.cpp:157] Top shape: (1)
I0803 22:56:19.207630 131580 net.cpp:160]     with loss weight 0.3
I0803 22:56:19.207645 131580 net.cpp:165] Memory required for data: 1611203592
I0803 22:56:19.207653 131580 layer_factory.hpp:76] Creating layer inception_4e/1x1
I0803 22:56:19.207675 131580 net.cpp:106] Creating Layer inception_4e/1x1
I0803 22:56:19.207686 131580 net.cpp:454] inception_4e/1x1 <- inception_4d/output_inception_4d/output_0_split_1
I0803 22:56:19.207710 131580 net.cpp:411] inception_4e/1x1 -> inception_4e/1x1
I0803 22:56:19.211859 131580 cudnn_conv_layer.cpp:194] Reallocating workspace storage: 6336
I0803 22:56:19.211951 131580 net.cpp:150] Setting up inception_4e/1x1
I0803 22:56:19.211973 131580 net.cpp:157] Top shape: 32 256 14 14 (1605632)
I0803 22:56:19.211982 131580 net.cpp:165] Memory required for data: 1617626120
I0803 22:56:19.212002 131580 layer_factory.hpp:76] Creating layer inception_4e/relu_1x1
I0803 22:56:19.212035 131580 net.cpp:106] Creating Layer inception_4e/relu_1x1
I0803 22:56:19.212049 131580 net.cpp:454] inception_4e/relu_1x1 <- inception_4e/1x1
I0803 22:56:19.212064 131580 net.cpp:397] inception_4e/relu_1x1 -> inception_4e/1x1 (in-place)
I0803 22:56:19.213126 131580 net.cpp:150] Setting up inception_4e/relu_1x1
I0803 22:56:19.213188 131580 net.cpp:157] Top shape: 32 256 14 14 (1605632)
I0803 22:56:19.213197 131580 net.cpp:165] Memory required for data: 1624048648
I0803 22:56:19.213207 131580 layer_factory.hpp:76] Creating layer inception_4e/3x3_reduce
I0803 22:56:19.213229 131580 net.cpp:106] Creating Layer inception_4e/3x3_reduce
I0803 22:56:19.213243 131580 net.cpp:454] inception_4e/3x3_reduce <- inception_4d/output_inception_4d/output_0_split_2
I0803 22:56:19.213259 131580 net.cpp:411] inception_4e/3x3_reduce -> inception_4e/3x3_reduce
I0803 22:56:19.218139 131580 cudnn_conv_layer.cpp:194] Reallocating workspace storage: 6336
I0803 22:56:19.218296 131580 net.cpp:150] Setting up inception_4e/3x3_reduce
I0803 22:56:19.218356 131580 net.cpp:157] Top shape: 32 160 14 14 (1003520)
I0803 22:56:19.218376 131580 net.cpp:165] Memory required for data: 1628062728
I0803 22:56:19.218394 131580 layer_factory.hpp:76] Creating layer inception_4e/relu_3x3_reduce
I0803 22:56:19.218420 131580 net.cpp:106] Creating Layer inception_4e/relu_3x3_reduce
I0803 22:56:19.218449 131580 net.cpp:454] inception_4e/relu_3x3_reduce <- inception_4e/3x3_reduce
I0803 22:56:19.218484 131580 net.cpp:397] inception_4e/relu_3x3_reduce -> inception_4e/3x3_reduce (in-place)
I0803 22:56:19.220252 131580 net.cpp:150] Setting up inception_4e/relu_3x3_reduce
I0803 22:56:19.220340 131580 net.cpp:157] Top shape: 32 160 14 14 (1003520)
I0803 22:56:19.220350 131580 net.cpp:165] Memory required for data: 1632076808
I0803 22:56:19.220363 131580 layer_factory.hpp:76] Creating layer inception_4e/3x3
I0803 22:56:19.220427 131580 net.cpp:106] Creating Layer inception_4e/3x3
I0803 22:56:19.220466 131580 net.cpp:454] inception_4e/3x3 <- inception_4e/3x3_reduce
I0803 22:56:19.220496 131580 net.cpp:411] inception_4e/3x3 -> inception_4e/3x3
I0803 22:56:19.227740 131580 cudnn_conv_layer.cpp:194] Reallocating workspace storage: 17280
I0803 22:56:19.227816 131580 net.cpp:150] Setting up inception_4e/3x3
I0803 22:56:19.227834 131580 net.cpp:157] Top shape: 32 320 14 14 (2007040)
I0803 22:56:19.227843 131580 net.cpp:165] Memory required for data: 1640104968
I0803 22:56:19.227859 131580 layer_factory.hpp:76] Creating layer inception_4e/relu_3x3
I0803 22:56:19.227880 131580 net.cpp:106] Creating Layer inception_4e/relu_3x3
I0803 22:56:19.227892 131580 net.cpp:454] inception_4e/relu_3x3 <- inception_4e/3x3
I0803 22:56:19.227905 131580 net.cpp:397] inception_4e/relu_3x3 -> inception_4e/3x3 (in-place)
I0803 22:56:19.228528 131580 net.cpp:150] Setting up inception_4e/relu_3x3
I0803 22:56:19.228574 131580 net.cpp:157] Top shape: 32 320 14 14 (2007040)
I0803 22:56:19.228584 131580 net.cpp:165] Memory required for data: 1648133128
I0803 22:56:19.228595 131580 layer_factory.hpp:76] Creating layer inception_4e/5x5_reduce
I0803 22:56:19.228616 131580 net.cpp:106] Creating Layer inception_4e/5x5_reduce
I0803 22:56:19.228627 131580 net.cpp:454] inception_4e/5x5_reduce <- inception_4d/output_inception_4d/output_0_split_3
I0803 22:56:19.228644 131580 net.cpp:411] inception_4e/5x5_reduce -> inception_4e/5x5_reduce
I0803 22:56:19.230437 131580 net.cpp:150] Setting up inception_4e/5x5_reduce
I0803 22:56:19.230512 131580 net.cpp:157] Top shape: 32 32 14 14 (200704)
I0803 22:56:19.230522 131580 net.cpp:165] Memory required for data: 1648935944
I0803 22:56:19.230540 131580 layer_factory.hpp:76] Creating layer inception_4e/relu_5x5_reduce
I0803 22:56:19.230562 131580 net.cpp:106] Creating Layer inception_4e/relu_5x5_reduce
I0803 22:56:19.230574 131580 net.cpp:454] inception_4e/relu_5x5_reduce <- inception_4e/5x5_reduce
I0803 22:56:19.230587 131580 net.cpp:397] inception_4e/relu_5x5_reduce -> inception_4e/5x5_reduce (in-place)
I0803 22:56:19.230842 131580 net.cpp:150] Setting up inception_4e/relu_5x5_reduce
I0803 22:56:19.230880 131580 net.cpp:157] Top shape: 32 32 14 14 (200704)
I0803 22:56:19.230887 131580 net.cpp:165] Memory required for data: 1649738760
I0803 22:56:19.230897 131580 layer_factory.hpp:76] Creating layer inception_4e/5x5
I0803 22:56:19.230947 131580 net.cpp:106] Creating Layer inception_4e/5x5
I0803 22:56:19.230988 131580 net.cpp:454] inception_4e/5x5 <- inception_4e/5x5_reduce
I0803 22:56:19.231003 131580 net.cpp:411] inception_4e/5x5 -> inception_4e/5x5
I0803 22:56:19.233575 131580 net.cpp:150] Setting up inception_4e/5x5
I0803 22:56:19.233659 131580 net.cpp:157] Top shape: 32 128 14 14 (802816)
I0803 22:56:19.233670 131580 net.cpp:165] Memory required for data: 1652950024
I0803 22:56:19.233691 131580 layer_factory.hpp:76] Creating layer inception_4e/relu_5x5
I0803 22:56:19.233716 131580 net.cpp:106] Creating Layer inception_4e/relu_5x5
I0803 22:56:19.233731 131580 net.cpp:454] inception_4e/relu_5x5 <- inception_4e/5x5
I0803 22:56:19.233744 131580 net.cpp:397] inception_4e/relu_5x5 -> inception_4e/5x5 (in-place)
I0803 22:56:19.234060 131580 net.cpp:150] Setting up inception_4e/relu_5x5
I0803 22:56:19.234086 131580 net.cpp:157] Top shape: 32 128 14 14 (802816)
I0803 22:56:19.234094 131580 net.cpp:165] Memory required for data: 1656161288
I0803 22:56:19.234103 131580 layer_factory.hpp:76] Creating layer inception_4e/pool
I0803 22:56:19.234118 131580 net.cpp:106] Creating Layer inception_4e/pool
I0803 22:56:19.234129 131580 net.cpp:454] inception_4e/pool <- inception_4d/output_inception_4d/output_0_split_4
I0803 22:56:19.234156 131580 net.cpp:411] inception_4e/pool -> inception_4e/pool
I0803 22:56:19.234827 131580 net.cpp:150] Setting up inception_4e/pool
I0803 22:56:19.234870 131580 net.cpp:157] Top shape: 32 528 14 14 (3311616)
I0803 22:56:19.234880 131580 net.cpp:165] Memory required for data: 1669407752
I0803 22:56:19.234890 131580 layer_factory.hpp:76] Creating layer inception_4e/pool_proj
I0803 22:56:19.234911 131580 net.cpp:106] Creating Layer inception_4e/pool_proj
I0803 22:56:19.234921 131580 net.cpp:454] inception_4e/pool_proj <- inception_4e/pool
I0803 22:56:19.234936 131580 net.cpp:411] inception_4e/pool_proj -> inception_4e/pool_proj
I0803 22:56:19.237188 131580 cudnn_conv_layer.cpp:194] Reallocating workspace storage: 6336
I0803 22:56:19.237298 131580 net.cpp:150] Setting up inception_4e/pool_proj
I0803 22:56:19.237315 131580 net.cpp:157] Top shape: 32 128 14 14 (802816)
I0803 22:56:19.237324 131580 net.cpp:165] Memory required for data: 1672619016
I0803 22:56:19.237340 131580 layer_factory.hpp:76] Creating layer inception_4e/relu_pool_proj
I0803 22:56:19.237368 131580 net.cpp:106] Creating Layer inception_4e/relu_pool_proj
I0803 22:56:19.237380 131580 net.cpp:454] inception_4e/relu_pool_proj <- inception_4e/pool_proj
I0803 22:56:19.237396 131580 net.cpp:397] inception_4e/relu_pool_proj -> inception_4e/pool_proj (in-place)
I0803 22:56:19.237645 131580 net.cpp:150] Setting up inception_4e/relu_pool_proj
I0803 22:56:19.237685 131580 net.cpp:157] Top shape: 32 128 14 14 (802816)
I0803 22:56:19.237694 131580 net.cpp:165] Memory required for data: 1675830280
I0803 22:56:19.237704 131580 layer_factory.hpp:76] Creating layer inception_4e/output
I0803 22:56:19.237718 131580 net.cpp:106] Creating Layer inception_4e/output
I0803 22:56:19.237727 131580 net.cpp:454] inception_4e/output <- inception_4e/1x1
I0803 22:56:19.237737 131580 net.cpp:454] inception_4e/output <- inception_4e/3x3
I0803 22:56:19.237746 131580 net.cpp:454] inception_4e/output <- inception_4e/5x5
I0803 22:56:19.237756 131580 net.cpp:454] inception_4e/output <- inception_4e/pool_proj
I0803 22:56:19.237777 131580 net.cpp:411] inception_4e/output -> inception_4e/output
I0803 22:56:19.237833 131580 net.cpp:150] Setting up inception_4e/output
I0803 22:56:19.237846 131580 net.cpp:157] Top shape: 32 832 14 14 (5218304)
I0803 22:56:19.237854 131580 net.cpp:165] Memory required for data: 1696703496
I0803 22:56:19.237862 131580 layer_factory.hpp:76] Creating layer pool4/3x3_s2
I0803 22:56:19.237875 131580 net.cpp:106] Creating Layer pool4/3x3_s2
I0803 22:56:19.237884 131580 net.cpp:454] pool4/3x3_s2 <- inception_4e/output
I0803 22:56:19.237896 131580 net.cpp:411] pool4/3x3_s2 -> pool4/3x3_s2
I0803 22:56:19.238454 131580 net.cpp:150] Setting up pool4/3x3_s2
I0803 22:56:19.238487 131580 net.cpp:157] Top shape: 32 832 7 7 (1304576)
I0803 22:56:19.238523 131580 net.cpp:165] Memory required for data: 1701921800
I0803 22:56:19.238531 131580 layer_factory.hpp:76] Creating layer pool4/3x3_s2_pool4/3x3_s2_0_split
I0803 22:56:19.238557 131580 net.cpp:106] Creating Layer pool4/3x3_s2_pool4/3x3_s2_0_split
I0803 22:56:19.238567 131580 net.cpp:454] pool4/3x3_s2_pool4/3x3_s2_0_split <- pool4/3x3_s2
I0803 22:56:19.238584 131580 net.cpp:411] pool4/3x3_s2_pool4/3x3_s2_0_split -> pool4/3x3_s2_pool4/3x3_s2_0_split_0
I0803 22:56:19.238596 131580 net.cpp:411] pool4/3x3_s2_pool4/3x3_s2_0_split -> pool4/3x3_s2_pool4/3x3_s2_0_split_1
I0803 22:56:19.238607 131580 net.cpp:411] pool4/3x3_s2_pool4/3x3_s2_0_split -> pool4/3x3_s2_pool4/3x3_s2_0_split_2
I0803 22:56:19.238618 131580 net.cpp:411] pool4/3x3_s2_pool4/3x3_s2_0_split -> pool4/3x3_s2_pool4/3x3_s2_0_split_3
I0803 22:56:19.238752 131580 net.cpp:150] Setting up pool4/3x3_s2_pool4/3x3_s2_0_split
I0803 22:56:19.238768 131580 net.cpp:157] Top shape: 32 832 7 7 (1304576)
I0803 22:56:19.238778 131580 net.cpp:157] Top shape: 32 832 7 7 (1304576)
I0803 22:56:19.238787 131580 net.cpp:157] Top shape: 32 832 7 7 (1304576)
I0803 22:56:19.238796 131580 net.cpp:157] Top shape: 32 832 7 7 (1304576)
I0803 22:56:19.238804 131580 net.cpp:165] Memory required for data: 1722795016
I0803 22:56:19.238812 131580 layer_factory.hpp:76] Creating layer inception_5a/1x1
I0803 22:56:19.238833 131580 net.cpp:106] Creating Layer inception_5a/1x1
I0803 22:56:19.238842 131580 net.cpp:454] inception_5a/1x1 <- pool4/3x3_s2_pool4/3x3_s2_0_split_0
I0803 22:56:19.238855 131580 net.cpp:411] inception_5a/1x1 -> inception_5a/1x1
I0803 22:56:19.243623 131580 cudnn_conv_layer.cpp:194] Reallocating workspace storage: 9984
I0803 22:56:19.243746 131580 net.cpp:150] Setting up inception_5a/1x1
I0803 22:56:19.243774 131580 net.cpp:157] Top shape: 32 256 7 7 (401408)
I0803 22:56:19.243789 131580 net.cpp:165] Memory required for data: 1724400648
I0803 22:56:19.243813 131580 layer_factory.hpp:76] Creating layer inception_5a/relu_1x1
I0803 22:56:19.243832 131580 net.cpp:106] Creating Layer inception_5a/relu_1x1
I0803 22:56:19.243852 131580 net.cpp:454] inception_5a/relu_1x1 <- inception_5a/1x1
I0803 22:56:19.243868 131580 net.cpp:397] inception_5a/relu_1x1 -> inception_5a/1x1 (in-place)
I0803 22:56:19.244158 131580 net.cpp:150] Setting up inception_5a/relu_1x1
I0803 22:56:19.244194 131580 net.cpp:157] Top shape: 32 256 7 7 (401408)
I0803 22:56:19.244205 131580 net.cpp:165] Memory required for data: 1726006280
I0803 22:56:19.244216 131580 layer_factory.hpp:76] Creating layer inception_5a/3x3_reduce
I0803 22:56:19.244236 131580 net.cpp:106] Creating Layer inception_5a/3x3_reduce
I0803 22:56:19.244251 131580 net.cpp:454] inception_5a/3x3_reduce <- pool4/3x3_s2_pool4/3x3_s2_0_split_1
I0803 22:56:19.244271 131580 net.cpp:411] inception_5a/3x3_reduce -> inception_5a/3x3_reduce
I0803 22:56:19.248374 131580 cudnn_conv_layer.cpp:194] Reallocating workspace storage: 9984
I0803 22:56:19.248486 131580 net.cpp:150] Setting up inception_5a/3x3_reduce
I0803 22:56:19.248505 131580 net.cpp:157] Top shape: 32 160 7 7 (250880)
I0803 22:56:19.248515 131580 net.cpp:165] Memory required for data: 1727009800
I0803 22:56:19.248548 131580 layer_factory.hpp:76] Creating layer inception_5a/relu_3x3_reduce
I0803 22:56:19.248600 131580 net.cpp:106] Creating Layer inception_5a/relu_3x3_reduce
I0803 22:56:19.248615 131580 net.cpp:454] inception_5a/relu_3x3_reduce <- inception_5a/3x3_reduce
I0803 22:56:19.248647 131580 net.cpp:397] inception_5a/relu_3x3_reduce -> inception_5a/3x3_reduce (in-place)
I0803 22:56:19.249421 131580 net.cpp:150] Setting up inception_5a/relu_3x3_reduce
I0803 22:56:19.249469 131580 net.cpp:157] Top shape: 32 160 7 7 (250880)
I0803 22:56:19.249483 131580 net.cpp:165] Memory required for data: 1728013320
I0803 22:56:19.249505 131580 layer_factory.hpp:76] Creating layer inception_5a/3x3
I0803 22:56:19.249539 131580 net.cpp:106] Creating Layer inception_5a/3x3
I0803 22:56:19.249563 131580 net.cpp:454] inception_5a/3x3 <- inception_5a/3x3_reduce
I0803 22:56:19.249608 131580 net.cpp:411] inception_5a/3x3 -> inception_5a/3x3
I0803 22:56:19.256088 131580 net.cpp:150] Setting up inception_5a/3x3
I0803 22:56:19.256157 131580 net.cpp:157] Top shape: 32 320 7 7 (501760)
I0803 22:56:19.256168 131580 net.cpp:165] Memory required for data: 1730020360
I0803 22:56:19.256186 131580 layer_factory.hpp:76] Creating layer inception_5a/relu_3x3
I0803 22:56:19.256206 131580 net.cpp:106] Creating Layer inception_5a/relu_3x3
I0803 22:56:19.256217 131580 net.cpp:454] inception_5a/relu_3x3 <- inception_5a/3x3
I0803 22:56:19.256229 131580 net.cpp:397] inception_5a/relu_3x3 -> inception_5a/3x3 (in-place)
I0803 22:56:19.256880 131580 net.cpp:150] Setting up inception_5a/relu_3x3
I0803 22:56:19.256925 131580 net.cpp:157] Top shape: 32 320 7 7 (501760)
I0803 22:56:19.256934 131580 net.cpp:165] Memory required for data: 1732027400
I0803 22:56:19.256945 131580 layer_factory.hpp:76] Creating layer inception_5a/5x5_reduce
I0803 22:56:19.256969 131580 net.cpp:106] Creating Layer inception_5a/5x5_reduce
I0803 22:56:19.256981 131580 net.cpp:454] inception_5a/5x5_reduce <- pool4/3x3_s2_pool4/3x3_s2_0_split_2
I0803 22:56:19.256996 131580 net.cpp:411] inception_5a/5x5_reduce -> inception_5a/5x5_reduce
I0803 22:56:19.259176 131580 cudnn_conv_layer.cpp:194] Reallocating workspace storage: 9984
I0803 22:56:19.259270 131580 net.cpp:150] Setting up inception_5a/5x5_reduce
I0803 22:56:19.259289 131580 net.cpp:157] Top shape: 32 32 7 7 (50176)
I0803 22:56:19.259299 131580 net.cpp:165] Memory required for data: 1732228104
I0803 22:56:19.259315 131580 layer_factory.hpp:76] Creating layer inception_5a/relu_5x5_reduce
I0803 22:56:19.259346 131580 net.cpp:106] Creating Layer inception_5a/relu_5x5_reduce
I0803 22:56:19.259359 131580 net.cpp:454] inception_5a/relu_5x5_reduce <- inception_5a/5x5_reduce
I0803 22:56:19.259371 131580 net.cpp:397] inception_5a/relu_5x5_reduce -> inception_5a/5x5_reduce (in-place)
I0803 22:56:19.259678 131580 net.cpp:150] Setting up inception_5a/relu_5x5_reduce
I0803 22:56:19.259712 131580 net.cpp:157] Top shape: 32 32 7 7 (50176)
I0803 22:56:19.259721 131580 net.cpp:165] Memory required for data: 1732428808
I0803 22:56:19.259730 131580 layer_factory.hpp:76] Creating layer inception_5a/5x5
I0803 22:56:19.259749 131580 net.cpp:106] Creating Layer inception_5a/5x5
I0803 22:56:19.259759 131580 net.cpp:454] inception_5a/5x5 <- inception_5a/5x5_reduce
I0803 22:56:19.259773 131580 net.cpp:411] inception_5a/5x5 -> inception_5a/5x5
I0803 22:56:19.262501 131580 net.cpp:150] Setting up inception_5a/5x5
I0803 22:56:19.262576 131580 net.cpp:157] Top shape: 32 128 7 7 (200704)
I0803 22:56:19.262593 131580 net.cpp:165] Memory required for data: 1733231624
I0803 22:56:19.262622 131580 layer_factory.hpp:76] Creating layer inception_5a/relu_5x5
I0803 22:56:19.262665 131580 net.cpp:106] Creating Layer inception_5a/relu_5x5
I0803 22:56:19.262688 131580 net.cpp:454] inception_5a/relu_5x5 <- inception_5a/5x5
I0803 22:56:19.262715 131580 net.cpp:397] inception_5a/relu_5x5 -> inception_5a/5x5 (in-place)
I0803 22:56:19.263336 131580 net.cpp:150] Setting up inception_5a/relu_5x5
I0803 22:56:19.263371 131580 net.cpp:157] Top shape: 32 128 7 7 (200704)
I0803 22:56:19.263386 131580 net.cpp:165] Memory required for data: 1734034440
I0803 22:56:19.263398 131580 layer_factory.hpp:76] Creating layer inception_5a/pool
I0803 22:56:19.263417 131580 net.cpp:106] Creating Layer inception_5a/pool
I0803 22:56:19.263429 131580 net.cpp:454] inception_5a/pool <- pool4/3x3_s2_pool4/3x3_s2_0_split_3
I0803 22:56:19.263453 131580 net.cpp:411] inception_5a/pool -> inception_5a/pool
I0803 22:56:19.263828 131580 net.cpp:150] Setting up inception_5a/pool
I0803 22:56:19.263864 131580 net.cpp:157] Top shape: 32 832 7 7 (1304576)
I0803 22:56:19.263873 131580 net.cpp:165] Memory required for data: 1739252744
I0803 22:56:19.263885 131580 layer_factory.hpp:76] Creating layer inception_5a/pool_proj
I0803 22:56:19.263912 131580 net.cpp:106] Creating Layer inception_5a/pool_proj
I0803 22:56:19.263922 131580 net.cpp:454] inception_5a/pool_proj <- inception_5a/pool
I0803 22:56:19.263978 131580 net.cpp:411] inception_5a/pool_proj -> inception_5a/pool_proj
I0803 22:56:19.269531 131580 cudnn_conv_layer.cpp:194] Reallocating workspace storage: 9984
I0803 22:56:19.269654 131580 net.cpp:150] Setting up inception_5a/pool_proj
I0803 22:56:19.269700 131580 net.cpp:157] Top shape: 32 128 7 7 (200704)
I0803 22:56:19.269716 131580 net.cpp:165] Memory required for data: 1740055560
I0803 22:56:19.269740 131580 layer_factory.hpp:76] Creating layer inception_5a/relu_pool_proj
I0803 22:56:19.269776 131580 net.cpp:106] Creating Layer inception_5a/relu_pool_proj
I0803 22:56:19.269803 131580 net.cpp:454] inception_5a/relu_pool_proj <- inception_5a/pool_proj
I0803 22:56:19.269826 131580 net.cpp:397] inception_5a/relu_pool_proj -> inception_5a/pool_proj (in-place)
I0803 22:56:19.270531 131580 net.cpp:150] Setting up inception_5a/relu_pool_proj
I0803 22:56:19.270576 131580 net.cpp:157] Top shape: 32 128 7 7 (200704)
I0803 22:56:19.270592 131580 net.cpp:165] Memory required for data: 1740858376
I0803 22:56:19.270612 131580 layer_factory.hpp:76] Creating layer inception_5a/output
I0803 22:56:19.270650 131580 net.cpp:106] Creating Layer inception_5a/output
I0803 22:56:19.270663 131580 net.cpp:454] inception_5a/output <- inception_5a/1x1
I0803 22:56:19.270675 131580 net.cpp:454] inception_5a/output <- inception_5a/3x3
I0803 22:56:19.270695 131580 net.cpp:454] inception_5a/output <- inception_5a/5x5
I0803 22:56:19.270711 131580 net.cpp:454] inception_5a/output <- inception_5a/pool_proj
I0803 22:56:19.270730 131580 net.cpp:411] inception_5a/output -> inception_5a/output
I0803 22:56:19.270853 131580 net.cpp:150] Setting up inception_5a/output
I0803 22:56:19.270882 131580 net.cpp:157] Top shape: 32 832 7 7 (1304576)
I0803 22:56:19.270898 131580 net.cpp:165] Memory required for data: 1746076680
I0803 22:56:19.270936 131580 layer_factory.hpp:76] Creating layer inception_5a/output_inception_5a/output_0_split
I0803 22:56:19.270959 131580 net.cpp:106] Creating Layer inception_5a/output_inception_5a/output_0_split
I0803 22:56:19.270977 131580 net.cpp:454] inception_5a/output_inception_5a/output_0_split <- inception_5a/output
I0803 22:56:19.270999 131580 net.cpp:411] inception_5a/output_inception_5a/output_0_split -> inception_5a/output_inception_5a/output_0_split_0
I0803 22:56:19.271021 131580 net.cpp:411] inception_5a/output_inception_5a/output_0_split -> inception_5a/output_inception_5a/output_0_split_1
I0803 22:56:19.271075 131580 net.cpp:411] inception_5a/output_inception_5a/output_0_split -> inception_5a/output_inception_5a/output_0_split_2
I0803 22:56:19.271095 131580 net.cpp:411] inception_5a/output_inception_5a/output_0_split -> inception_5a/output_inception_5a/output_0_split_3
I0803 22:56:19.271337 131580 net.cpp:150] Setting up inception_5a/output_inception_5a/output_0_split
I0803 22:56:19.271386 131580 net.cpp:157] Top shape: 32 832 7 7 (1304576)
I0803 22:56:19.271404 131580 net.cpp:157] Top shape: 32 832 7 7 (1304576)
I0803 22:56:19.271416 131580 net.cpp:157] Top shape: 32 832 7 7 (1304576)
I0803 22:56:19.271425 131580 net.cpp:157] Top shape: 32 832 7 7 (1304576)
I0803 22:56:19.271456 131580 net.cpp:165] Memory required for data: 1766949896
I0803 22:56:19.271479 131580 layer_factory.hpp:76] Creating layer inception_5b/1x1
I0803 22:56:19.271519 131580 net.cpp:106] Creating Layer inception_5b/1x1
I0803 22:56:19.271533 131580 net.cpp:454] inception_5b/1x1 <- inception_5a/output_inception_5a/output_0_split_0
I0803 22:56:19.271570 131580 net.cpp:411] inception_5b/1x1 -> inception_5b/1x1
I0803 22:56:19.282971 131580 cudnn_conv_layer.cpp:194] Reallocating workspace storage: 9984
I0803 22:56:19.283046 131580 net.cpp:150] Setting up inception_5b/1x1
I0803 22:56:19.283087 131580 net.cpp:157] Top shape: 32 384 7 7 (602112)
I0803 22:56:19.283104 131580 net.cpp:165] Memory required for data: 1769358344
I0803 22:56:19.283126 131580 layer_factory.hpp:76] Creating layer inception_5b/relu_1x1
I0803 22:56:19.283145 131580 net.cpp:106] Creating Layer inception_5b/relu_1x1
I0803 22:56:19.283159 131580 net.cpp:454] inception_5b/relu_1x1 <- inception_5b/1x1
I0803 22:56:19.283202 131580 net.cpp:397] inception_5b/relu_1x1 -> inception_5b/1x1 (in-place)
I0803 22:56:19.283730 131580 net.cpp:150] Setting up inception_5b/relu_1x1
I0803 22:56:19.283772 131580 net.cpp:157] Top shape: 32 384 7 7 (602112)
I0803 22:56:19.283783 131580 net.cpp:165] Memory required for data: 1771766792
I0803 22:56:19.283798 131580 layer_factory.hpp:76] Creating layer inception_5b/3x3_reduce
I0803 22:56:19.283833 131580 net.cpp:106] Creating Layer inception_5b/3x3_reduce
I0803 22:56:19.283850 131580 net.cpp:454] inception_5b/3x3_reduce <- inception_5a/output_inception_5a/output_0_split_1
I0803 22:56:19.283881 131580 net.cpp:411] inception_5b/3x3_reduce -> inception_5b/3x3_reduce
I0803 22:56:19.289391 131580 cudnn_conv_layer.cpp:194] Reallocating workspace storage: 9984
I0803 22:56:19.289523 131580 net.cpp:150] Setting up inception_5b/3x3_reduce
I0803 22:56:19.289557 131580 net.cpp:157] Top shape: 32 192 7 7 (301056)
I0803 22:56:19.289578 131580 net.cpp:165] Memory required for data: 1772971016
I0803 22:56:19.289631 131580 layer_factory.hpp:76] Creating layer inception_5b/relu_3x3_reduce
I0803 22:56:19.289665 131580 net.cpp:106] Creating Layer inception_5b/relu_3x3_reduce
I0803 22:56:19.289692 131580 net.cpp:454] inception_5b/relu_3x3_reduce <- inception_5b/3x3_reduce
I0803 22:56:19.289716 131580 net.cpp:397] inception_5b/relu_3x3_reduce -> inception_5b/3x3_reduce (in-place)
I0803 22:56:19.290309 131580 net.cpp:150] Setting up inception_5b/relu_3x3_reduce
I0803 22:56:19.290362 131580 net.cpp:157] Top shape: 32 192 7 7 (301056)
I0803 22:56:19.290400 131580 net.cpp:165] Memory required for data: 1774175240
I0803 22:56:19.290433 131580 layer_factory.hpp:76] Creating layer inception_5b/3x3
I0803 22:56:19.290477 131580 net.cpp:106] Creating Layer inception_5b/3x3
I0803 22:56:19.290508 131580 net.cpp:454] inception_5b/3x3 <- inception_5b/3x3_reduce
I0803 22:56:19.290545 131580 net.cpp:411] inception_5b/3x3 -> inception_5b/3x3
I0803 22:56:19.299733 131580 cudnn_conv_layer.cpp:194] Reallocating workspace storage: 20736
I0803 22:56:19.299798 131580 net.cpp:150] Setting up inception_5b/3x3
I0803 22:56:19.299816 131580 net.cpp:157] Top shape: 32 384 7 7 (602112)
I0803 22:56:19.299825 131580 net.cpp:165] Memory required for data: 1776583688
I0803 22:56:19.299839 131580 layer_factory.hpp:76] Creating layer inception_5b/relu_3x3
I0803 22:56:19.299860 131580 net.cpp:106] Creating Layer inception_5b/relu_3x3
I0803 22:56:19.299872 131580 net.cpp:454] inception_5b/relu_3x3 <- inception_5b/3x3
I0803 22:56:19.299883 131580 net.cpp:397] inception_5b/relu_3x3 -> inception_5b/3x3 (in-place)
I0803 22:56:19.300149 131580 net.cpp:150] Setting up inception_5b/relu_3x3
I0803 22:56:19.300166 131580 net.cpp:157] Top shape: 32 384 7 7 (602112)
I0803 22:56:19.300174 131580 net.cpp:165] Memory required for data: 1778992136
I0803 22:56:19.300184 131580 layer_factory.hpp:76] Creating layer inception_5b/5x5_reduce
I0803 22:56:19.300199 131580 net.cpp:106] Creating Layer inception_5b/5x5_reduce
I0803 22:56:19.300209 131580 net.cpp:454] inception_5b/5x5_reduce <- inception_5a/output_inception_5a/output_0_split_2
I0803 22:56:19.300236 131580 net.cpp:411] inception_5b/5x5_reduce -> inception_5b/5x5_reduce
I0803 22:56:19.302471 131580 net.cpp:150] Setting up inception_5b/5x5_reduce
I0803 22:56:19.302522 131580 net.cpp:157] Top shape: 32 48 7 7 (75264)
I0803 22:56:19.302532 131580 net.cpp:165] Memory required for data: 1779293192
I0803 22:56:19.302546 131580 layer_factory.hpp:76] Creating layer inception_5b/relu_5x5_reduce
I0803 22:56:19.302562 131580 net.cpp:106] Creating Layer inception_5b/relu_5x5_reduce
I0803 22:56:19.302574 131580 net.cpp:454] inception_5b/relu_5x5_reduce <- inception_5b/5x5_reduce
I0803 22:56:19.302585 131580 net.cpp:397] inception_5b/relu_5x5_reduce -> inception_5b/5x5_reduce (in-place)
I0803 22:56:19.303012 131580 net.cpp:150] Setting up inception_5b/relu_5x5_reduce
I0803 22:56:19.303045 131580 net.cpp:157] Top shape: 32 48 7 7 (75264)
I0803 22:56:19.303053 131580 net.cpp:165] Memory required for data: 1779594248
I0803 22:56:19.303086 131580 layer_factory.hpp:76] Creating layer inception_5b/5x5
I0803 22:56:19.303117 131580 net.cpp:106] Creating Layer inception_5b/5x5
I0803 22:56:19.303128 131580 net.cpp:454] inception_5b/5x5 <- inception_5b/5x5_reduce
I0803 22:56:19.303141 131580 net.cpp:411] inception_5b/5x5 -> inception_5b/5x5
I0803 22:56:19.305580 131580 net.cpp:150] Setting up inception_5b/5x5
I0803 22:56:19.305625 131580 net.cpp:157] Top shape: 32 128 7 7 (200704)
I0803 22:56:19.305634 131580 net.cpp:165] Memory required for data: 1780397064
I0803 22:56:19.305649 131580 layer_factory.hpp:76] Creating layer inception_5b/relu_5x5
I0803 22:56:19.305661 131580 net.cpp:106] Creating Layer inception_5b/relu_5x5
I0803 22:56:19.305672 131580 net.cpp:454] inception_5b/relu_5x5 <- inception_5b/5x5
I0803 22:56:19.305683 131580 net.cpp:397] inception_5b/relu_5x5 -> inception_5b/5x5 (in-place)
I0803 22:56:19.305956 131580 net.cpp:150] Setting up inception_5b/relu_5x5
I0803 22:56:19.305984 131580 net.cpp:157] Top shape: 32 128 7 7 (200704)
I0803 22:56:19.305994 131580 net.cpp:165] Memory required for data: 1781199880
I0803 22:56:19.306001 131580 layer_factory.hpp:76] Creating layer inception_5b/pool
I0803 22:56:19.306016 131580 net.cpp:106] Creating Layer inception_5b/pool
I0803 22:56:19.306025 131580 net.cpp:454] inception_5b/pool <- inception_5a/output_inception_5a/output_0_split_3
I0803 22:56:19.306036 131580 net.cpp:411] inception_5b/pool -> inception_5b/pool
I0803 22:56:19.306727 131580 net.cpp:150] Setting up inception_5b/pool
I0803 22:56:19.306761 131580 net.cpp:157] Top shape: 32 832 7 7 (1304576)
I0803 22:56:19.306769 131580 net.cpp:165] Memory required for data: 1786418184
I0803 22:56:19.306778 131580 layer_factory.hpp:76] Creating layer inception_5b/pool_proj
I0803 22:56:19.306797 131580 net.cpp:106] Creating Layer inception_5b/pool_proj
I0803 22:56:19.306807 131580 net.cpp:454] inception_5b/pool_proj <- inception_5b/pool
I0803 22:56:19.306819 131580 net.cpp:411] inception_5b/pool_proj -> inception_5b/pool_proj
I0803 22:56:19.309734 131580 cudnn_conv_layer.cpp:194] Reallocating workspace storage: 9984
I0803 22:56:19.309854 131580 net.cpp:150] Setting up inception_5b/pool_proj
I0803 22:56:19.309880 131580 net.cpp:157] Top shape: 32 128 7 7 (200704)
I0803 22:56:19.309895 131580 net.cpp:165] Memory required for data: 1787221000
I0803 22:56:19.309916 131580 layer_factory.hpp:76] Creating layer inception_5b/relu_pool_proj
I0803 22:56:19.309931 131580 net.cpp:106] Creating Layer inception_5b/relu_pool_proj
I0803 22:56:19.309942 131580 net.cpp:454] inception_5b/relu_pool_proj <- inception_5b/pool_proj
I0803 22:56:19.309954 131580 net.cpp:397] inception_5b/relu_pool_proj -> inception_5b/pool_proj (in-place)
I0803 22:56:19.310528 131580 net.cpp:150] Setting up inception_5b/relu_pool_proj
I0803 22:56:19.310559 131580 net.cpp:157] Top shape: 32 128 7 7 (200704)
I0803 22:56:19.310570 131580 net.cpp:165] Memory required for data: 1788023816
I0803 22:56:19.310578 131580 layer_factory.hpp:76] Creating layer inception_5b/output
I0803 22:56:19.310590 131580 net.cpp:106] Creating Layer inception_5b/output
I0803 22:56:19.310600 131580 net.cpp:454] inception_5b/output <- inception_5b/1x1
I0803 22:56:19.310609 131580 net.cpp:454] inception_5b/output <- inception_5b/3x3
I0803 22:56:19.310619 131580 net.cpp:454] inception_5b/output <- inception_5b/5x5
I0803 22:56:19.310633 131580 net.cpp:454] inception_5b/output <- inception_5b/pool_proj
I0803 22:56:19.310741 131580 net.cpp:411] inception_5b/output -> inception_5b/output
I0803 22:56:19.310796 131580 net.cpp:150] Setting up inception_5b/output
I0803 22:56:19.310809 131580 net.cpp:157] Top shape: 32 1024 7 7 (1605632)
I0803 22:56:19.310817 131580 net.cpp:165] Memory required for data: 1794446344
I0803 22:56:19.310825 131580 layer_factory.hpp:76] Creating layer pool5/7x7_s1
I0803 22:56:19.310845 131580 net.cpp:106] Creating Layer pool5/7x7_s1
I0803 22:56:19.310854 131580 net.cpp:454] pool5/7x7_s1 <- inception_5b/output
I0803 22:56:19.310868 131580 net.cpp:411] pool5/7x7_s1 -> pool5/7x7_s1
I0803 22:56:19.311234 131580 net.cpp:150] Setting up pool5/7x7_s1
I0803 22:56:19.311349 131580 net.cpp:157] Top shape: 32 1024 1 1 (32768)
I0803 22:56:19.311358 131580 net.cpp:165] Memory required for data: 1794577416
I0803 22:56:19.311367 131580 layer_factory.hpp:76] Creating layer pool5/drop_7x7_s1
I0803 22:56:19.311381 131580 net.cpp:106] Creating Layer pool5/drop_7x7_s1
I0803 22:56:19.311390 131580 net.cpp:454] pool5/drop_7x7_s1 <- pool5/7x7_s1
I0803 22:56:19.311399 131580 net.cpp:397] pool5/drop_7x7_s1 -> pool5/7x7_s1 (in-place)
I0803 22:56:19.311457 131580 net.cpp:150] Setting up pool5/drop_7x7_s1
I0803 22:56:19.311475 131580 net.cpp:157] Top shape: 32 1024 1 1 (32768)
I0803 22:56:19.311483 131580 net.cpp:165] Memory required for data: 1794708488
I0803 22:56:19.311492 131580 layer_factory.hpp:76] Creating layer loss3/classifier
I0803 22:56:19.311511 131580 net.cpp:106] Creating Layer loss3/classifier
I0803 22:56:19.311519 131580 net.cpp:454] loss3/classifier <- pool5/7x7_s1
I0803 22:56:19.311529 131580 net.cpp:411] loss3/classifier -> loss3/classifier
I0803 22:56:19.311781 131580 net.cpp:150] Setting up loss3/classifier
I0803 22:56:19.311807 131580 net.cpp:157] Top shape: 32 2 (64)
I0803 22:56:19.311827 131580 net.cpp:165] Memory required for data: 1794708744
I0803 22:56:19.311839 131580 layer_factory.hpp:76] Creating layer loss3/loss3
I0803 22:56:19.311851 131580 net.cpp:106] Creating Layer loss3/loss3
I0803 22:56:19.311859 131580 net.cpp:454] loss3/loss3 <- loss3/classifier
I0803 22:56:19.311868 131580 net.cpp:454] loss3/loss3 <- label_data_1_split_2
I0803 22:56:19.311880 131580 net.cpp:411] loss3/loss3 -> loss3/loss3
…
I0803 22:56:19.318931 131580 net.cpp:322] The NetState phase (1) differed from the phase (0) specified by a rule in layer data
I0803 22:56:19.319859 131580 net.cpp:49] Initializing net from parameters: 
name: "GoogleNet"
state {
  phase: TEST
}
layer {
  name: "data"
  type: "ImageData"
  top: "data"
  top: "label"
  include {
    phase: TEST
  }
  transform_param {
    mirror: false
    crop_size: 224
    mean_value: 185
    mean_value: 150
    mean_value: 186
  }
  image_data_param {
    source: "../imglist_level0.lst"
    batch_size: 100
    shuffle: true
  }
}
layer {
  name: "conv1/7x7_s2"
  type: "Convolution"
  bottom: "data"
  top: "conv1/7x7_s2"
  param {
    lr_mult: 1
    decay_mult: 1
  }
  param {
    lr_mult: 2
    decay_mult: 0
  }
  convolution_param {
    num_output: 64
    pad: 3
    kernel_size: 7
    stride: 2
    weight_filler {
      type: "xavier"
    }
    bias_filler {
      type: "constant"
      value: 0.2
    }
  }
}
layer {
  name: "conv1/relu_7x7"
  type: "ReLU"
  bottom: "conv1/7x7_s2"
  top: "conv1/7x7_s2"
}
layer {
  name: "pool1/3x3_s2"
  type: "Pooling"
  bottom: "conv1/7x7_s2"
  top: "pool1/3x3_s2"
  pooling_param {
    pool: MAX
    kernel_size: 3
    stride: 2
  }
}
layer {
  name: "pool1/norm1"
  type: "LRN"
  bottom: "pool1/3x3_s2"
  top: "pool1/norm1"
  lrn_param {
    local_size: 5
    alpha: 0.0001
    beta: 0.75
  }
}
layer {
  name: "conv2/3x3_reduce"
  type: "Convolution"
  bottom: "pool1/norm1"
  top: "conv2/3x3_reduce"
  param {
    lr_mult: 1
    decay_mult: 1
  }
  param {
    lr_mult: 2
    decay_mult: 0
  }
  convolution_param {
    num_output: 64
    kernel_size: 1
    weight_filler {
      type: "xavier"
    }
    bias_filler {
      type: "constant"
      value: 0.2
    }
  }
}
layer {
  name: "conv2/relu_3x3_reduce"
  type: "ReLU"
  bottom: "conv2/3x3_reduce"
  top: "conv2/3x3_reduce"
}
layer {
  name: "conv2/3x3"
  type: "Convolution"
  bottom: "conv2/3x3_reduce"
  top: "conv2/3x3"
  param {
    lr_mult: 1
    decay_mult: 1
  }
  param {
    lr_mult: 2
    decay_mult: 0
  }
  convolution_param {
    num_output: 192
    pad: 1
    kernel_size: 3
    weight_filler {
      type: "xavier"
    }
    bias_filler {
      type: "constant"
      value: 0.2
    }
  }
}
layer {
  name: "conv2/relu_3x3"
  type: "ReLU"
  bottom: "conv2/3x3"
  top: "conv2/3x3"
}
layer {
  name: "conv2/norm2"
  type: "LRN"
  bottom: "conv2/3x3"
  top: "conv2/norm2"
  lrn_param {
    local_size: 5
    alpha: 0.0001
    beta: 0.75
  }
}
layer {
  name: "pool2/3x3_s2"
  type: "Pooling"
  bottom: "conv2/norm2"
  top: "pool2/3x3_s2"
  pooling_param {
    pool: MAX
    kernel_size: 3
    stride: 2
  }
}
layer {
  name: "inception_3a/1x1"
  type: "Convolution"
  bottom: "pool2/3x3_s2"
  top: "inception_3a/1x1"
  param {
    lr_mult: 1
    decay_mult: 1
  }
  param {
    lr_mult: 2
    decay_mult: 0
  }
  convolution_param {
    num_output: 64
    kernel_size: 1
    weight_filler {
      type: "xavier"
    }
    bias_filler {
      type: "constant"
      value: 0.2
    }
  }
}
layer {
  name: "inception_3a/relu_1x1"
  type: "ReLU"
  bottom: "inception_3a/1x1"
  top: "inception_3a/1x1"
}
layer {
  name: "inception_3a/3x3_reduce"
  type: "Convolution"
  bottom: "pool2/3x3_s2"
  top: "inception_3a/3x3_reduce"
  param {
    lr_mult: 1
    decay_mult: 1
  }
  param {
    lr_mult: 2
    decay_mult: 0
  }
  convolution_param {
    num_output: 96
    kernel_size: 1
    weight_filler {
      type: "xavier"
    }
    bias_filler {
      type: "constant"
      value: 0.2
    }
  }
}
layer {
  name: "inception_3a/relu_3x3_reduce"
  type: "ReLU"
  bottom: "inception_3a/3x3_reduce"
  top: "inception_3a/3x3_reduce"
}
layer {
  name: "inception_3a/3x3"
  type: "Convolution"
  bottom: "inception_3a/3x3_reduce"
  top: "inception_3a/3x3"
  param {
    lr_mult: 1
    decay_mult: 1
  }
  param {
    lr_mult: 2
    decay_mult: 0
  }
  convolution_param {
    num_output: 128
    pad: 1
    kernel_size: 3
    weight_filler {
      type: "xavier"
    }
    bias_filler {
      type: "constant"
      value: 0.2
    }
  }
}
layer {
  name: "inception_3a/relu_3x3"
  type: "ReLU"
  bottom: "inception_3a/3x3"
  top: "inception_3a/3x3"
}
layer {
  name: "inception_3a/5x5_reduce"
  type: "Convolution"
  bottom: "pool2/3x3_s2"
  top: "inception_3a/5x5_reduce"
  param {
    lr_mult: 1
    decay_mult: 1
  }
  param {
    lr_mult: 2
    decay_mult: 0
  }
  convolution_param {
    num_output: 16
    kernel_size: 1
    weight_filler {
      type: "xavier"
    }
    bias_filler {
      type: "constant"
      value: 0.2
    }
  }
}
layer {
  name: "inception_3a/relu_5x5_reduce"
  type: "ReLU"
  bottom: "inception_3a/5x5_reduce"
  top: "inception_3a/5x5_reduce"
}
layer {
  name: "inception_3a/5x5"
  type: "Convolution"
  bottom: "inception_3a/5x5_reduce"
  top: "inception_3a/5x5"
  param {
    lr_mult: 1
    decay_mult: 1
  }
  param {
    lr_mult: 2
    decay_mult: 0
  }
  convolution_param {
    num_output: 32
    pad: 2
    kernel_size: 5
    weight_filler {
      type: "xavier"
    }
    bias_filler {
      type: "constant"
      value: 0.2
    }
  }
}
layer {
  name: "inception_3a/relu_5x5"
  type: "ReLU"
  bottom: "inception_3a/5x5"
  top: "inception_3a/5x5"
}
layer {
  name: "inception_3a/pool"
  type: "Pooling"
  bottom: "pool2/3x3_s2"
  top: "inception_3a/pool"
  pooling_param {
    pool: MAX
    kernel_size: 3
    stride: 1
    pad: 1
  }
}
layer {
  name: "inception_3a/pool_proj"
  type: "Convolution"
  bottom: "inception_3a/pool"
  top: "inception_3a/pool_proj"
  param {
    lr_mult: 1
    decay_mult: 1
  }
  param {
    lr_mult: 2
    decay_mult: 0
  }
  convolution_param {
    num_output: 32
    kernel_size: 1
    weight_filler {
      type: "xavier"
    }
    bias_filler {
      type: "constant"
      value: 0.2
    }
  }
}
layer {
  name: "inception_3a/relu_pool_proj"
  type: "ReLU"
  bottom: "inception_3a/pool_proj"
  top: "inception_3a/pool_proj"
}
layer {
  name: "inception_3a/output"
  type: "Concat"
  bottom: "inception_3a/1x1"
  bottom: "inception_3a/3x3"
  bottom: "inception_3a/5x5"
  bottom: "inception_3a/pool_proj"
  top: "inception_3a/output"
}
layer {
  name: "inception_3b/1x1"
  type: "Convolution"
  bottom: "inception_3a/output"
  top: "inception_3b/1x1"
  param {
    lr_mult: 1
    decay_mult: 1
  }
  param {
    lr_mult: 2
    decay_mult: 0
  }
  convolution_param {
    num_output: 128
    kernel_size: 1
    weight_filler {
      type: "xavier"
    }
    bias_filler {
      type: "constant"
      value: 0.2
    }
  }
}
layer {
  name: "inception_3b/relu_1x1"
  type: "ReLU"
  bottom: "inception_3b/1x1"
  top: "inception_3b/1x1"
}
layer {
  name: "inception_3b/3x3_reduce"
  type: "Convolution"
  bottom: "inception_3a/output"
  top: "inception_3b/3x3_reduce"
  param {
    lr_mult: 1
    decay_mult: 1
  }
  param {
    lr_mult: 2
    decay_mult: 0
  }
  convolution_param {
    num_output: 128
    kernel_size: 1
    weight_filler {
      type: "xavier"
    }
    bias_filler {
      type: "constant"
      value: 0.2
    }
  }
}
layer {
  name: "inception_3b/relu_3x3_reduce"
  type: "ReLU"
  bottom: "inception_3b/3x3_reduce"
  top: "inception_3b/3x3_reduce"
}
layer {
  name: "inception_3b/3x3"
  type: "Convolution"
  bottom: "inception_3b/3x3_reduce"
  top: "inception_3b/3x3"
  param {
    lr_mult: 1
    decay_mult: 1
  }
  param {
    lr_mult: 2
    decay_mult: 0
  }
  convolution_param {
    num_output: 192
    pad: 1
    kernel_size: 3
    weight_filler {
      type: "xavier"
    }
    bias_filler {
      type: "constant"
      value: 0.2
    }
  }
}
layer {
  name: "inception_3b/relu_3x3"
  type: "ReLU"
  bottom: "inception_3b/3x3"
  top: "inception_3b/3x3"
}
layer {
  name: "inception_3b/5x5_reduce"
  type: "Convolution"
  bottom: "inception_3a/output"
  top: "inception_3b/5x5_reduce"
  param {
    lr_mult: 1
    decay_mult: 1
  }
  param {
    lr_mult: 2
    decay_mult: 0
  }
  convolution_param {
    num_output: 32
    kernel_size: 1
    weight_filler {
      type: "xavier"
    }
    bias_filler {
      type: "constant"
      value: 0.2
    }
  }
}
layer {
  name: "inception_3b/relu_5x5_reduce"
  type: "ReLU"
  bottom: "inception_3b/5x5_reduce"
  top: "inception_3b/5x5_reduce"
}
layer {
  name: "inception_3b/5x5"
  type: "Convolution"
  bottom: "inception_3b/5x5_reduce"
  top: "inception_3b/5x5"
  param {
    lr_mult: 1
    decay_mult: 1
  }
  param {
    lr_mult: 2
    decay_mult: 0
  }
  convolution_param {
    num_output: 96
    pad: 2
    kernel_size: 5
    weight_filler {
      type: "xavier"
    }
    bias_filler {
      type: "constant"
      value: 0.2
    }
  }
}
layer {
  name: "inception_3b/relu_5x5"
  type: "ReLU"
  bottom: "inception_3b/5x5"
  top: "inception_3b/5x5"
}
layer {
  name: "inception_3b/pool"
  type: "Pooling"
  bottom: "inception_3a/output"
  top: "inception_3b/pool"
  pooling_param {
    pool: MAX
    kernel_size: 3
    stride: 1
    pad: 1
  }
}
layer {
  name: "inception_3b/pool_proj"
  type: "Convolution"
  bottom: "inception_3b/pool"
  top: "inception_3b/pool_proj"
  param {
    lr_mult: 1
    decay_mult: 1
  }
  param {
    lr_mult: 2
    decay_mult: 0
  }
  convolution_param {
    num_output: 64
    kernel_size: 1
    weight_filler {
      type: "xavier"
    }
    bias_filler {
      type: "constant"
      value: 0.2
    }
  }
}
layer {
  name: "inception_3b/relu_pool_proj"
  type: "ReLU"
  bottom: "inception_3b/pool_proj"
  top: "inception_3b/pool_proj"
}
layer {
  name: "inception_3b/output"
  type: "Concat"
  bottom: "inception_3b/1x1"
  bottom: "inception_3b/3x3"
  bottom: "inception_3b/5x5"
  bottom: "inception_3b/pool_proj"
  top: "inception_3b/output"
}
layer {
  name: "pool3/3x3_s2"
  type: "Pooling"
  bottom: "inception_3b/output"
  top: "pool3/3x3_s2"
  pooling_param {
    pool: MAX
    kernel_size: 3
    stride: 2
  }
}
layer {
  name: "inception_4a/1x1"
  type: "Convolution"
…
I0803 22:56:20.093718 131580 net.cpp:157] Top shape: 100 64 14 14 (1254400)
I0803 22:56:20.093725 131580 net.cpp:165] Memory required for data: 4429163608
I0803 22:56:20.093734 131580 layer_factory.hpp:76] Creating layer inception_4c/output
I0803 22:56:20.093756 131580 net.cpp:106] Creating Layer inception_4c/output
I0803 22:56:20.093766 131580 net.cpp:454] inception_4c/output <- inception_4c/1x1
I0803 22:56:20.093775 131580 net.cpp:454] inception_4c/output <- inception_4c/3x3
I0803 22:56:20.093785 131580 net.cpp:454] inception_4c/output <- inception_4c/5x5
I0803 22:56:20.093793 131580 net.cpp:454] inception_4c/output <- inception_4c/pool_proj
I0803 22:56:20.093803 131580 net.cpp:411] inception_4c/output -> inception_4c/output
I0803 22:56:20.093860 131580 net.cpp:150] Setting up inception_4c/output
I0803 22:56:20.093874 131580 net.cpp:157] Top shape: 100 512 14 14 (10035200)
I0803 22:56:20.093883 131580 net.cpp:165] Memory required for data: 4469304408
I0803 22:56:20.093890 131580 layer_factory.hpp:76] Creating layer inception_4c/output_inception_4c/output_0_split
I0803 22:56:20.093904 131580 net.cpp:106] Creating Layer inception_4c/output_inception_4c/output_0_split
I0803 22:56:20.093912 131580 net.cpp:454] inception_4c/output_inception_4c/output_0_split <- inception_4c/output
I0803 22:56:20.093924 131580 net.cpp:411] inception_4c/output_inception_4c/output_0_split -> inception_4c/output_inception_4c/output_0_split_0
I0803 22:56:20.093936 131580 net.cpp:411] inception_4c/output_inception_4c/output_0_split -> inception_4c/output_inception_4c/output_0_split_1
I0803 22:56:20.093948 131580 net.cpp:411] inception_4c/output_inception_4c/output_0_split -> inception_4c/output_inception_4c/output_0_split_2
I0803 22:56:20.093962 131580 net.cpp:411] inception_4c/output_inception_4c/output_0_split -> inception_4c/output_inception_4c/output_0_split_3
I0803 22:56:20.094079 131580 net.cpp:150] Setting up inception_4c/output_inception_4c/output_0_split
I0803 22:56:20.094092 131580 net.cpp:157] Top shape: 100 512 14 14 (10035200)
I0803 22:56:20.094107 131580 net.cpp:157] Top shape: 100 512 14 14 (10035200)
I0803 22:56:20.094116 131580 net.cpp:157] Top shape: 100 512 14 14 (10035200)
I0803 22:56:20.094125 131580 net.cpp:157] Top shape: 100 512 14 14 (10035200)
I0803 22:56:20.094132 131580 net.cpp:165] Memory required for data: 4629867608
I0803 22:56:20.094139 131580 layer_factory.hpp:76] Creating layer inception_4d/1x1
I0803 22:56:20.094161 131580 net.cpp:106] Creating Layer inception_4d/1x1
I0803 22:56:20.094169 131580 net.cpp:454] inception_4d/1x1 <- inception_4c/output_inception_4c/output_0_split_0
I0803 22:56:20.094180 131580 net.cpp:411] inception_4d/1x1 -> inception_4d/1x1
I0803 22:56:20.098217 131580 cudnn_conv_layer.cpp:194] Reallocating workspace storage: 6144
I0803 22:56:20.098269 131580 net.cpp:150] Setting up inception_4d/1x1
I0803 22:56:20.098283 131580 net.cpp:157] Top shape: 100 112 14 14 (2195200)
I0803 22:56:20.098291 131580 net.cpp:165] Memory required for data: 4638648408
I0803 22:56:20.098302 131580 layer_factory.hpp:76] Creating layer inception_4d/relu_1x1
I0803 22:56:20.098335 131580 net.cpp:106] Creating Layer inception_4d/relu_1x1
I0803 22:56:20.098345 131580 net.cpp:454] inception_4d/relu_1x1 <- inception_4d/1x1
I0803 22:56:20.098366 131580 net.cpp:397] inception_4d/relu_1x1 -> inception_4d/1x1 (in-place)
I0803 22:56:20.099715 131580 net.cpp:150] Setting up inception_4d/relu_1x1
I0803 22:56:20.099736 131580 net.cpp:157] Top shape: 100 112 14 14 (2195200)
I0803 22:56:20.099745 131580 net.cpp:165] Memory required for data: 4647429208
I0803 22:56:20.099752 131580 layer_factory.hpp:76] Creating layer inception_4d/3x3_reduce
I0803 22:56:20.099768 131580 net.cpp:106] Creating Layer inception_4d/3x3_reduce
I0803 22:56:20.099777 131580 net.cpp:454] inception_4d/3x3_reduce <- inception_4c/output_inception_4c/output_0_split_1
I0803 22:56:20.099788 131580 net.cpp:411] inception_4d/3x3_reduce -> inception_4d/3x3_reduce
I0803 22:56:20.105829 131580 cudnn_conv_layer.cpp:194] Reallocating workspace storage: 6144
I0803 22:56:20.105903 131580 net.cpp:150] Setting up inception_4d/3x3_reduce
I0803 22:56:20.105919 131580 net.cpp:157] Top shape: 100 144 14 14 (2822400)
I0803 22:56:20.105927 131580 net.cpp:165] Memory required for data: 4658718808
I0803 22:56:20.105945 131580 layer_factory.hpp:76] Creating layer inception_4d/relu_3x3_reduce
I0803 22:56:20.105962 131580 net.cpp:106] Creating Layer inception_4d/relu_3x3_reduce
I0803 22:56:20.105974 131580 net.cpp:454] inception_4d/relu_3x3_reduce <- inception_4d/3x3_reduce
I0803 22:56:20.105988 131580 net.cpp:397] inception_4d/relu_3x3_reduce -> inception_4d/3x3_reduce (in-place)
I0803 22:56:20.106490 131580 net.cpp:150] Setting up inception_4d/relu_3x3_reduce
I0803 22:56:20.106510 131580 net.cpp:157] Top shape: 100 144 14 14 (2822400)
I0803 22:56:20.106518 131580 net.cpp:165] Memory required for data: 4670008408
I0803 22:56:20.106528 131580 layer_factory.hpp:76] Creating layer inception_4d/3x3
I0803 22:56:20.106545 131580 net.cpp:106] Creating Layer inception_4d/3x3
I0803 22:56:20.106555 131580 net.cpp:454] inception_4d/3x3 <- inception_4d/3x3_reduce
I0803 22:56:20.106569 131580 net.cpp:411] inception_4d/3x3 -> inception_4d/3x3
I0803 22:56:20.113382 131580 cudnn_conv_layer.cpp:194] Reallocating workspace storage: 15552
I0803 22:56:20.113548 131580 net.cpp:150] Setting up inception_4d/3x3
I0803 22:56:20.113587 131580 net.cpp:157] Top shape: 100 288 14 14 (5644800)
I0803 22:56:20.113605 131580 net.cpp:165] Memory required for data: 4692587608
I0803 22:56:20.113636 131580 layer_factory.hpp:76] Creating layer inception_4d/relu_3x3
I0803 22:56:20.113672 131580 net.cpp:106] Creating Layer inception_4d/relu_3x3
I0803 22:56:20.113695 131580 net.cpp:454] inception_4d/relu_3x3 <- inception_4d/3x3
I0803 22:56:20.113719 131580 net.cpp:397] inception_4d/relu_3x3 -> inception_4d/3x3 (in-place)
I0803 22:56:20.114048 131580 net.cpp:150] Setting up inception_4d/relu_3x3
I0803 22:56:20.114073 131580 net.cpp:157] Top shape: 100 288 14 14 (5644800)
I0803 22:56:20.114085 131580 net.cpp:165] Memory required for data: 4715166808
I0803 22:56:20.114099 131580 layer_factory.hpp:76] Creating layer inception_4d/5x5_reduce
I0803 22:56:20.114125 131580 net.cpp:106] Creating Layer inception_4d/5x5_reduce
I0803 22:56:20.114141 131580 net.cpp:454] inception_4d/5x5_reduce <- inception_4c/output_inception_4c/output_0_split_2
I0803 22:56:20.114161 131580 net.cpp:411] inception_4d/5x5_reduce -> inception_4d/5x5_reduce
I0803 22:56:20.116348 131580 net.cpp:150] Setting up inception_4d/5x5_reduce
I0803 22:56:20.116377 131580 net.cpp:157] Top shape: 100 32 14 14 (627200)
I0803 22:56:20.116389 131580 net.cpp:165] Memory required for data: 4717675608
I0803 22:56:20.116408 131580 layer_factory.hpp:76] Creating layer inception_4d/relu_5x5_reduce
I0803 22:56:20.116425 131580 net.cpp:106] Creating Layer inception_4d/relu_5x5_reduce
I0803 22:56:20.116442 131580 net.cpp:454] inception_4d/relu_5x5_reduce <- inception_4d/5x5_reduce
I0803 22:56:20.116461 131580 net.cpp:397] inception_4d/relu_5x5_reduce -> inception_4d/5x5_reduce (in-place)
I0803 22:56:20.116931 131580 net.cpp:150] Setting up inception_4d/relu_5x5_reduce
I0803 22:56:20.116952 131580 net.cpp:157] Top shape: 100 32 14 14 (627200)
I0803 22:56:20.116961 131580 net.cpp:165] Memory required for data: 4720184408
I0803 22:56:20.116969 131580 layer_factory.hpp:76] Creating layer inception_4d/5x5
I0803 22:56:20.116984 131580 net.cpp:106] Creating Layer inception_4d/5x5
I0803 22:56:20.116996 131580 net.cpp:454] inception_4d/5x5 <- inception_4d/5x5_reduce
I0803 22:56:20.117007 131580 net.cpp:411] inception_4d/5x5 -> inception_4d/5x5
I0803 22:56:20.118592 131580 cudnn_conv_layer.cpp:194] Reallocating workspace storage: 9600
I0803 22:56:20.118654 131580 net.cpp:150] Setting up inception_4d/5x5
I0803 22:56:20.118670 131580 net.cpp:157] Top shape: 100 64 14 14 (1254400)
I0803 22:56:20.118680 131580 net.cpp:165] Memory required for data: 4725202008
I0803 22:56:20.118691 131580 layer_factory.hpp:76] Creating layer inception_4d/relu_5x5
I0803 22:56:20.118703 131580 net.cpp:106] Creating Layer inception_4d/relu_5x5
I0803 22:56:20.118712 131580 net.cpp:454] inception_4d/relu_5x5 <- inception_4d/5x5
I0803 22:56:20.118731 131580 net.cpp:397] inception_4d/relu_5x5 -> inception_4d/5x5 (in-place)
I0803 22:56:20.119099 131580 net.cpp:150] Setting up inception_4d/relu_5x5
I0803 22:56:20.119120 131580 net.cpp:157] Top shape: 100 64 14 14 (1254400)
I0803 22:56:20.119128 131580 net.cpp:165] Memory required for data: 4730219608
I0803 22:56:20.119138 131580 layer_factory.hpp:76] Creating layer inception_4d/pool
I0803 22:56:20.119151 131580 net.cpp:106] Creating Layer inception_4d/pool
I0803 22:56:20.119160 131580 net.cpp:454] inception_4d/pool <- inception_4c/output_inception_4c/output_0_split_3
I0803 22:56:20.119171 131580 net.cpp:411] inception_4d/pool -> inception_4d/pool
I0803 22:56:20.119617 131580 net.cpp:150] Setting up inception_4d/pool
I0803 22:56:20.119638 131580 net.cpp:157] Top shape: 100 512 14 14 (10035200)
I0803 22:56:20.119647 131580 net.cpp:165] Memory required for data: 4770360408
I0803 22:56:20.119655 131580 layer_factory.hpp:76] Creating layer inception_4d/pool_proj
I0803 22:56:20.119673 131580 net.cpp:106] Creating Layer inception_4d/pool_proj
I0803 22:56:20.119683 131580 net.cpp:454] inception_4d/pool_proj <- inception_4d/pool
I0803 22:56:20.119694 131580 net.cpp:411] inception_4d/pool_proj -> inception_4d/pool_proj
I0803 22:56:20.121220 131580 net.cpp:150] Setting up inception_4d/pool_proj
I0803 22:56:20.121261 131580 net.cpp:157] Top shape: 100 64 14 14 (1254400)
I0803 22:56:20.121271 131580 net.cpp:165] Memory required for data: 4775378008
I0803 22:56:20.121287 131580 layer_factory.hpp:76] Creating layer inception_4d/relu_pool_proj
I0803 22:56:20.121307 131580 net.cpp:106] Creating Layer inception_4d/relu_pool_proj
I0803 22:56:20.121320 131580 net.cpp:454] inception_4d/relu_pool_proj <- inception_4d/pool_proj
I0803 22:56:20.121331 131580 net.cpp:397] inception_4d/relu_pool_proj -> inception_4d/pool_proj (in-place)
I0803 22:56:20.121711 131580 net.cpp:150] Setting up inception_4d/relu_pool_proj
I0803 22:56:20.121731 131580 net.cpp:157] Top shape: 100 64 14 14 (1254400)
I0803 22:56:20.121740 131580 net.cpp:165] Memory required for data: 4780395608
I0803 22:56:20.121748 131580 layer_factory.hpp:76] Creating layer inception_4d/output
I0803 22:56:20.121764 131580 net.cpp:106] Creating Layer inception_4d/output
I0803 22:56:20.121775 131580 net.cpp:454] inception_4d/output <- inception_4d/1x1
I0803 22:56:20.121785 131580 net.cpp:454] inception_4d/output <- inception_4d/3x3
I0803 22:56:20.121796 131580 net.cpp:454] inception_4d/output <- inception_4d/5x5
I0803 22:56:20.121804 131580 net.cpp:454] inception_4d/output <- inception_4d/pool_proj
I0803 22:56:20.121824 131580 net.cpp:411] inception_4d/output -> inception_4d/output
I0803 22:56:20.121887 131580 net.cpp:150] Setting up inception_4d/output
I0803 22:56:20.121906 131580 net.cpp:157] Top shape: 100 528 14 14 (10348800)
I0803 22:56:20.121914 131580 net.cpp:165] Memory required for data: 4821790808
I0803 22:56:20.121925 131580 layer_factory.hpp:76] Creating layer inception_4d/output_inception_4d/output_0_split
I0803 22:56:20.121985 131580 net.cpp:106] Creating Layer inception_4d/output_inception_4d/output_0_split
I0803 22:56:20.121997 131580 net.cpp:454] inception_4d/output_inception_4d/output_0_split <- inception_4d/output
I0803 22:56:20.122011 131580 net.cpp:411] inception_4d/output_inception_4d/output_0_split -> inception_4d/output_inception_4d/output_0_split_0
I0803 22:56:20.122035 131580 net.cpp:411] inception_4d/output_inception_4d/output_0_split -> inception_4d/output_inception_4d/output_0_split_1
I0803 22:56:20.122048 131580 net.cpp:411] inception_4d/output_inception_4d/output_0_split -> inception_4d/output_inception_4d/output_0_split_2
I0803 22:56:20.122058 131580 net.cpp:411] inception_4d/output_inception_4d/output_0_split -> inception_4d/output_inception_4d/output_0_split_3
I0803 22:56:20.122068 131580 net.cpp:411] inception_4d/output_inception_4d/output_0_split -> inception_4d/output_inception_4d/output_0_split_4
I0803 22:56:20.122222 131580 net.cpp:150] Setting up inception_4d/output_inception_4d/output_0_split
I0803 22:56:20.122237 131580 net.cpp:157] Top shape: 100 528 14 14 (10348800)
I0803 22:56:20.122246 131580 net.cpp:157] Top shape: 100 528 14 14 (10348800)
I0803 22:56:20.122256 131580 net.cpp:157] Top shape: 100 528 14 14 (10348800)
I0803 22:56:20.122263 131580 net.cpp:157] Top shape: 100 528 14 14 (10348800)
I0803 22:56:20.122272 131580 net.cpp:157] Top shape: 100 528 14 14 (10348800)
I0803 22:56:20.122279 131580 net.cpp:165] Memory required for data: 5028766808
I0803 22:56:20.122292 131580 layer_factory.hpp:76] Creating layer loss2/ave_pool
I0803 22:56:20.122309 131580 net.cpp:106] Creating Layer loss2/ave_pool
I0803 22:56:20.122319 131580 net.cpp:454] loss2/ave_pool <- inception_4d/output_inception_4d/output_0_split_0
I0803 22:56:20.122334 131580 net.cpp:411] loss2/ave_pool -> loss2/ave_pool
I0803 22:56:20.122583 131580 net.cpp:150] Setting up loss2/ave_pool
I0803 22:56:20.122602 131580 net.cpp:157] Top shape: 100 528 4 4 (844800)
I0803 22:56:20.122609 131580 net.cpp:165] Memory required for data: 5032146008
I0803 22:56:20.122618 131580 layer_factory.hpp:76] Creating layer loss2/conv
I0803 22:56:20.122648 131580 net.cpp:106] Creating Layer loss2/conv
I0803 22:56:20.122691 131580 net.cpp:454] loss2/conv <- loss2/ave_pool
I0803 22:56:20.122705 131580 net.cpp:411] loss2/conv -> loss2/conv
I0803 22:56:20.125669 131580 cudnn_conv_layer.cpp:194] Reallocating workspace storage: 6336
I0803 22:56:20.125797 131580 net.cpp:150] Setting up loss2/conv
I0803 22:56:20.125819 131580 net.cpp:157] Top shape: 100 128 4 4 (204800)
I0803 22:56:20.125833 131580 net.cpp:165] Memory required for data: 5032965208
I0803 22:56:20.125854 131580 layer_factory.hpp:76] Creating layer loss2/relu_conv
I0803 22:56:20.125879 131580 net.cpp:106] Creating Layer loss2/relu_conv
I0803 22:56:20.125895 131580 net.cpp:454] loss2/relu_conv <- loss2/conv
I0803 22:56:20.125910 131580 net.cpp:397] loss2/relu_conv -> loss2/conv (in-place)
I0803 22:56:20.126305 131580 net.cpp:150] Setting up loss2/relu_conv
I0803 22:56:20.126325 131580 net.cpp:157] Top shape: 100 128 4 4 (204800)
I0803 22:56:20.126334 131580 net.cpp:165] Memory required for data: 5033784408
I0803 22:56:20.126343 131580 layer_factory.hpp:76] Creating layer loss2/fc
I0803 22:56:20.126363 131580 net.cpp:106] Creating Layer loss2/fc
I0803 22:56:20.126374 131580 net.cpp:454] loss2/fc <- loss2/conv
I0803 22:56:20.126384 131580 net.cpp:411] loss2/fc -> loss2/fc
I0803 22:56:20.148094 131580 net.cpp:150] Setting up loss2/fc
I0803 22:56:20.148169 131580 net.cpp:157] Top shape: 100 1024 (102400)
I0803 22:56:20.148178 131580 net.cpp:165] Memory required for data: 5034194008
I0803 22:56:20.148197 131580 layer_factory.hpp:76] Creating layer loss2/relu_fc
I0803 22:56:20.148218 131580 net.cpp:106] Creating Layer loss2/relu_fc
I0803 22:56:20.148231 131580 net.cpp:454] loss2/relu_fc <- loss2/fc
I0803 22:56:20.148247 131580 net.cpp:397] loss2/relu_fc -> loss2/fc (in-place)
I0803 22:56:20.148596 131580 net.cpp:150] Setting up loss2/relu_fc
I0803 22:56:20.148658 131580 net.cpp:157] Top shape: 100 1024 (102400)
I0803 22:56:20.148666 131580 net.cpp:165] Memory required for data: 5034603608
I0803 22:56:20.148675 131580 layer_factory.hpp:76] Creating layer loss2/drop_fc
I0803 22:56:20.148696 131580 net.cpp:106] Creating Layer loss2/drop_fc
I0803 22:56:20.148706 131580 net.cpp:454] loss2/drop_fc <- loss2/fc
I0803 22:56:20.148717 131580 net.cpp:397] loss2/drop_fc -> loss2/fc (in-place)
I0803 22:56:20.148784 131580 net.cpp:150] Setting up loss2/drop_fc
I0803 22:56:20.148800 131580 net.cpp:157] Top shape: 100 1024 (102400)
I0803 22:56:20.148809 131580 net.cpp:165] Memory required for data: 5035013208
I0803 22:56:20.148821 131580 layer_factory.hpp:76] Creating layer loss2/classifier
I0803 22:56:20.148835 131580 net.cpp:106] Creating Layer loss2/classifier
I0803 22:56:20.148844 131580 net.cpp:454] loss2/classifier <- loss2/fc
I0803 22:56:20.148861 131580 net.cpp:411] loss2/classifier -> loss2/classifier
I0803 22:56:20.149102 131580 net.cpp:150] Setting up loss2/classifier
I0803 22:56:20.149119 131580 net.cpp:157] Top shape: 100 2 (200)
I0803 22:56:20.149127 131580 net.cpp:165] Memory required for data: 5035014008
I0803 22:56:20.149139 131580 layer_factory.hpp:76] Creating layer loss2/classifier_loss2/classifier_0_split
I0803 22:56:20.149153 131580 net.cpp:106] Creating Layer loss2/classifier_loss2/classifier_0_split
I0803 22:56:20.149164 131580 net.cpp:454] loss2/classifier_loss2/classifier_0_split <- loss2/classifier
I0803 22:56:20.149174 131580 net.cpp:411] loss2/classifier_loss2/classifier_0_split -> loss2/classifier_loss2/classifier_0_split_0
I0803 22:56:20.149189 131580 net.cpp:411] loss2/classifier_loss2/classifier_0_split -> loss2/classifier_loss2/classifier_0_split_1
I0803 22:56:20.149261 131580 net.cpp:150] Setting up loss2/classifier_loss2/classifier_0_split
I0803 22:56:20.149276 131580 net.cpp:157] Top shape: 100 2 (200)
I0803 22:56:20.149286 131580 net.cpp:157] Top shape: 100 2 (200)
I0803 22:56:20.149293 131580 net.cpp:165] Memory required for data: 5035015608
I0803 22:56:20.149302 131580 layer_factory.hpp:76] Creating layer loss2/loss
I0803 22:56:20.149317 131580 net.cpp:106] Creating Layer loss2/loss
I0803 22:56:20.149327 131580 net.cpp:454] loss2/loss <- loss2/classifier_loss2/classifier_0_split_0
I0803 22:56:20.149338 131580 net.cpp:454] loss2/loss <- label_data_1_split_2
…
I0803 22:56:20.150714 131580 net.cpp:165] Memory required for data: 5035015616
I0803 22:56:20.150727 131580 layer_factory.hpp:76] Creating layer inception_4e/1x1
I0803 22:56:20.150748 131580 net.cpp:106] Creating Layer inception_4e/1x1
I0803 22:56:20.150760 131580 net.cpp:454] inception_4e/1x1 <- inception_4d/output_inception_4d/output_0_split_1
I0803 22:56:20.150774 131580 net.cpp:411] inception_4e/1x1 -> inception_4e/1x1
I0803 22:56:20.156836 131580 cudnn_conv_layer.cpp:194] Reallocating workspace storage: 6336
I0803 22:56:20.156931 131580 net.cpp:150] Setting up inception_4e/1x1
I0803 22:56:20.156951 131580 net.cpp:157] Top shape: 100 256 14 14 (5017600)
I0803 22:56:20.156960 131580 net.cpp:165] Memory required for data: 5055086016
I0803 22:56:20.156976 131580 layer_factory.hpp:76] Creating layer inception_4e/relu_1x1
I0803 22:56:20.157027 131580 net.cpp:106] Creating Layer inception_4e/relu_1x1
I0803 22:56:20.157042 131580 net.cpp:454] inception_4e/relu_1x1 <- inception_4e/1x1
I0803 22:56:20.157058 131580 net.cpp:397] inception_4e/relu_1x1 -> inception_4e/1x1 (in-place)
I0803 22:56:20.158619 131580 net.cpp:150] Setting up inception_4e/relu_1x1
I0803 22:56:20.158661 131580 net.cpp:157] Top shape: 100 256 14 14 (5017600)
I0803 22:56:20.158675 131580 net.cpp:165] Memory required for data: 5075156416
I0803 22:56:20.158685 131580 layer_factory.hpp:76] Creating layer inception_4e/3x3_reduce
I0803 22:56:20.158716 131580 net.cpp:106] Creating Layer inception_4e/3x3_reduce
I0803 22:56:20.158730 131580 net.cpp:454] inception_4e/3x3_reduce <- inception_4d/output_inception_4d/output_0_split_2
I0803 22:56:20.158746 131580 net.cpp:411] inception_4e/3x3_reduce -> inception_4e/3x3_reduce
I0803 22:56:20.161685 131580 cudnn_conv_layer.cpp:194] Reallocating workspace storage: 6336
I0803 22:56:20.161761 131580 net.cpp:150] Setting up inception_4e/3x3_reduce
I0803 22:56:20.161778 131580 net.cpp:157] Top shape: 100 160 14 14 (3136000)
I0803 22:56:20.161787 131580 net.cpp:165] Memory required for data: 5087700416
I0803 22:56:20.161803 131580 layer_factory.hpp:76] Creating layer inception_4e/relu_3x3_reduce
I0803 22:56:20.161823 131580 net.cpp:106] Creating Layer inception_4e/relu_3x3_reduce
I0803 22:56:20.161835 131580 net.cpp:454] inception_4e/relu_3x3_reduce <- inception_4e/3x3_reduce
I0803 22:56:20.161856 131580 net.cpp:397] inception_4e/relu_3x3_reduce -> inception_4e/3x3_reduce (in-place)
I0803 22:56:20.162080 131580 net.cpp:150] Setting up inception_4e/relu_3x3_reduce
I0803 22:56:20.162096 131580 net.cpp:157] Top shape: 100 160 14 14 (3136000)
I0803 22:56:20.162106 131580 net.cpp:165] Memory required for data: 5100244416
I0803 22:56:20.162113 131580 layer_factory.hpp:76] Creating layer inception_4e/3x3
I0803 22:56:20.162155 131580 net.cpp:106] Creating Layer inception_4e/3x3
I0803 22:56:20.162165 131580 net.cpp:454] inception_4e/3x3 <- inception_4e/3x3_reduce
I0803 22:56:20.162178 131580 net.cpp:411] inception_4e/3x3 -> inception_4e/3x3
I0803 22:56:20.170450 131580 cudnn_conv_layer.cpp:194] Reallocating workspace storage: 17280
I0803 22:56:20.170521 131580 net.cpp:150] Setting up inception_4e/3x3
I0803 22:56:20.170542 131580 net.cpp:157] Top shape: 100 320 14 14 (6272000)
I0803 22:56:20.170555 131580 net.cpp:165] Memory required for data: 5125332416
I0803 22:56:20.170578 131580 layer_factory.hpp:76] Creating layer inception_4e/relu_3x3
I0803 22:56:20.170609 131580 net.cpp:106] Creating Layer inception_4e/relu_3x3
I0803 22:56:20.170627 131580 net.cpp:454] inception_4e/relu_3x3 <- inception_4e/3x3
I0803 22:56:20.170657 131580 net.cpp:397] inception_4e/relu_3x3 -> inception_4e/3x3 (in-place)
I0803 22:56:20.171114 131580 net.cpp:150] Setting up inception_4e/relu_3x3
I0803 22:56:20.171136 131580 net.cpp:157] Top shape: 100 320 14 14 (6272000)
I0803 22:56:20.171154 131580 net.cpp:165] Memory required for data: 5150420416
I0803 22:56:20.171162 131580 layer_factory.hpp:76] Creating layer inception_4e/5x5_reduce
I0803 22:56:20.171178 131580 net.cpp:106] Creating Layer inception_4e/5x5_reduce
I0803 22:56:20.171188 131580 net.cpp:454] inception_4e/5x5_reduce <- inception_4d/output_inception_4d/output_0_split_3
I0803 22:56:20.171205 131580 net.cpp:411] inception_4e/5x5_reduce -> inception_4e/5x5_reduce
I0803 22:56:20.172701 131580 cudnn_conv_layer.cpp:194] Reallocating workspace storage: 6336
I0803 22:56:20.172763 131580 net.cpp:150] Setting up inception_4e/5x5_reduce
I0803 22:56:20.172776 131580 net.cpp:157] Top shape: 100 32 14 14 (627200)
I0803 22:56:20.172794 131580 net.cpp:165] Memory required for data: 5152929216
I0803 22:56:20.172806 131580 layer_factory.hpp:76] Creating layer inception_4e/relu_5x5_reduce
I0803 22:56:20.172818 131580 net.cpp:106] Creating Layer inception_4e/relu_5x5_reduce
I0803 22:56:20.172832 131580 net.cpp:454] inception_4e/relu_5x5_reduce <- inception_4e/5x5_reduce
I0803 22:56:20.172843 131580 net.cpp:397] inception_4e/relu_5x5_reduce -> inception_4e/5x5_reduce (in-place)
I0803 22:56:20.173104 131580 net.cpp:150] Setting up inception_4e/relu_5x5_reduce
I0803 22:56:20.173121 131580 net.cpp:157] Top shape: 100 32 14 14 (627200)
I0803 22:56:20.173130 131580 net.cpp:165] Memory required for data: 5155438016
I0803 22:56:20.173137 131580 layer_factory.hpp:76] Creating layer inception_4e/5x5
I0803 22:56:20.173154 131580 net.cpp:106] Creating Layer inception_4e/5x5
I0803 22:56:20.173164 131580 net.cpp:454] inception_4e/5x5 <- inception_4e/5x5_reduce
I0803 22:56:20.173174 131580 net.cpp:411] inception_4e/5x5 -> inception_4e/5x5
I0803 22:56:20.175459 131580 net.cpp:150] Setting up inception_4e/5x5
I0803 22:56:20.175501 131580 net.cpp:157] Top shape: 100 128 14 14 (2508800)
I0803 22:56:20.175511 131580 net.cpp:165] Memory required for data: 5165473216
I0803 22:56:20.175525 131580 layer_factory.hpp:76] Creating layer inception_4e/relu_5x5
I0803 22:56:20.175541 131580 net.cpp:106] Creating Layer inception_4e/relu_5x5
I0803 22:56:20.175552 131580 net.cpp:454] inception_4e/relu_5x5 <- inception_4e/5x5
I0803 22:56:20.175565 131580 net.cpp:397] inception_4e/relu_5x5 -> inception_4e/5x5 (in-place)
I0803 22:56:20.175789 131580 net.cpp:150] Setting up inception_4e/relu_5x5
I0803 22:56:20.175812 131580 net.cpp:157] Top shape: 100 128 14 14 (2508800)
I0803 22:56:20.175822 131580 net.cpp:165] Memory required for data: 5175508416
I0803 22:56:20.175837 131580 layer_factory.hpp:76] Creating layer inception_4e/pool
I0803 22:56:20.175849 131580 net.cpp:106] Creating Layer inception_4e/pool
I0803 22:56:20.175859 131580 net.cpp:454] inception_4e/pool <- inception_4d/output_inception_4d/output_0_split_4
I0803 22:56:20.175873 131580 net.cpp:411] inception_4e/pool -> inception_4e/pool
I0803 22:56:20.176321 131580 net.cpp:150] Setting up inception_4e/pool
I0803 22:56:20.176340 131580 net.cpp:157] Top shape: 100 528 14 14 (10348800)
I0803 22:56:20.176349 131580 net.cpp:165] Memory required for data: 5216903616
I0803 22:56:20.176357 131580 layer_factory.hpp:76] Creating layer inception_4e/pool_proj
I0803 22:56:20.176375 131580 net.cpp:106] Creating Layer inception_4e/pool_proj
I0803 22:56:20.176384 131580 net.cpp:454] inception_4e/pool_proj <- inception_4e/pool
I0803 22:56:20.176401 131580 net.cpp:411] inception_4e/pool_proj -> inception_4e/pool_proj
I0803 22:56:20.178581 131580 cudnn_conv_layer.cpp:194] Reallocating workspace storage: 6336
I0803 22:56:20.178666 131580 net.cpp:150] Setting up inception_4e/pool_proj
I0803 22:56:20.178683 131580 net.cpp:157] Top shape: 100 128 14 14 (2508800)
I0803 22:56:20.178690 131580 net.cpp:165] Memory required for data: 5226938816
I0803 22:56:20.178704 131580 layer_factory.hpp:76] Creating layer inception_4e/relu_pool_proj
I0803 22:56:20.178719 131580 net.cpp:106] Creating Layer inception_4e/relu_pool_proj
I0803 22:56:20.178727 131580 net.cpp:454] inception_4e/relu_pool_proj <- inception_4e/pool_proj
I0803 22:56:20.178740 131580 net.cpp:397] inception_4e/relu_pool_proj -> inception_4e/pool_proj (in-place)
I0803 22:56:20.178962 131580 net.cpp:150] Setting up inception_4e/relu_pool_proj
I0803 22:56:20.178980 131580 net.cpp:157] Top shape: 100 128 14 14 (2508800)
I0803 22:56:20.178992 131580 net.cpp:165] Memory required for data: 5236974016
I0803 22:56:20.178999 131580 layer_factory.hpp:76] Creating layer inception_4e/output
I0803 22:56:20.179018 131580 net.cpp:106] Creating Layer inception_4e/output
I0803 22:56:20.179028 131580 net.cpp:454] inception_4e/output <- inception_4e/1x1
I0803 22:56:20.179039 131580 net.cpp:454] inception_4e/output <- inception_4e/3x3
I0803 22:56:20.179047 131580 net.cpp:454] inception_4e/output <- inception_4e/5x5
I0803 22:56:20.179055 131580 net.cpp:454] inception_4e/output <- inception_4e/pool_proj
I0803 22:56:20.179065 131580 net.cpp:411] inception_4e/output -> inception_4e/output
I0803 22:56:20.179124 131580 net.cpp:150] Setting up inception_4e/output
I0803 22:56:20.179137 131580 net.cpp:157] Top shape: 100 832 14 14 (16307200)
I0803 22:56:20.179146 131580 net.cpp:165] Memory required for data: 5302202816
I0803 22:56:20.179183 131580 layer_factory.hpp:76] Creating layer pool4/3x3_s2
I0803 22:56:20.179198 131580 net.cpp:106] Creating Layer pool4/3x3_s2
I0803 22:56:20.179208 131580 net.cpp:454] pool4/3x3_s2 <- inception_4e/output
I0803 22:56:20.179224 131580 net.cpp:411] pool4/3x3_s2 -> pool4/3x3_s2
I0803 22:56:20.179673 131580 net.cpp:150] Setting up pool4/3x3_s2
I0803 22:56:20.179693 131580 net.cpp:157] Top shape: 100 832 7 7 (4076800)
I0803 22:56:20.179702 131580 net.cpp:165] Memory required for data: 5318510016
I0803 22:56:20.179710 131580 layer_factory.hpp:76] Creating layer pool4/3x3_s2_pool4/3x3_s2_0_split
I0803 22:56:20.179725 131580 net.cpp:106] Creating Layer pool4/3x3_s2_pool4/3x3_s2_0_split
I0803 22:56:20.179734 131580 net.cpp:454] pool4/3x3_s2_pool4/3x3_s2_0_split <- pool4/3x3_s2
I0803 22:56:20.179744 131580 net.cpp:411] pool4/3x3_s2_pool4/3x3_s2_0_split -> pool4/3x3_s2_pool4/3x3_s2_0_split_0
I0803 22:56:20.179755 131580 net.cpp:411] pool4/3x3_s2_pool4/3x3_s2_0_split -> pool4/3x3_s2_pool4/3x3_s2_0_split_1
I0803 22:56:20.179766 131580 net.cpp:411] pool4/3x3_s2_pool4/3x3_s2_0_split -> pool4/3x3_s2_pool4/3x3_s2_0_split_2
I0803 22:56:20.179787 131580 net.cpp:411] pool4/3x3_s2_pool4/3x3_s2_0_split -> pool4/3x3_s2_pool4/3x3_s2_0_split_3
I0803 22:56:20.179903 131580 net.cpp:150] Setting up pool4/3x3_s2_pool4/3x3_s2_0_split
I0803 22:56:20.179924 131580 net.cpp:157] Top shape: 100 832 7 7 (4076800)
I0803 22:56:20.179934 131580 net.cpp:157] Top shape: 100 832 7 7 (4076800)
I0803 22:56:20.179941 131580 net.cpp:157] Top shape: 100 832 7 7 (4076800)
I0803 22:56:20.179949 131580 net.cpp:157] Top shape: 100 832 7 7 (4076800)
I0803 22:56:20.179957 131580 net.cpp:165] Memory required for data: 5383738816
I0803 22:56:20.179965 131580 layer_factory.hpp:76] Creating layer inception_5a/1x1
I0803 22:56:20.179982 131580 net.cpp:106] Creating Layer inception_5a/1x1
I0803 22:56:20.179991 131580 net.cpp:454] inception_5a/1x1 <- pool4/3x3_s2_pool4/3x3_s2_0_split_0
I0803 22:56:20.180003 131580 net.cpp:411] inception_5a/1x1 -> inception_5a/1x1
I0803 22:56:20.184301 131580 cudnn_conv_layer.cpp:194] Reallocating workspace storage: 9984
I0803 22:56:20.184407 131580 net.cpp:150] Setting up inception_5a/1x1
I0803 22:56:20.184427 131580 net.cpp:157] Top shape: 100 256 7 7 (1254400)
I0803 22:56:20.184437 131580 net.cpp:165] Memory required for data: 5388756416
I0803 22:56:20.184453 131580 layer_factory.hpp:76] Creating layer inception_5a/relu_1x1
I0803 22:56:20.184473 131580 net.cpp:106] Creating Layer inception_5a/relu_1x1
I0803 22:56:20.184487 131580 net.cpp:454] inception_5a/relu_1x1 <- inception_5a/1x1
I0803 22:56:20.184499 131580 net.cpp:397] inception_5a/relu_1x1 -> inception_5a/1x1 (in-place)
I0803 22:56:20.184748 131580 net.cpp:150] Setting up inception_5a/relu_1x1
I0803 22:56:20.184767 131580 net.cpp:157] Top shape: 100 256 7 7 (1254400)
I0803 22:56:20.184775 131580 net.cpp:165] Memory required for data: 5393774016
I0803 22:56:20.184783 131580 layer_factory.hpp:76] Creating layer inception_5a/3x3_reduce
I0803 22:56:20.184805 131580 net.cpp:106] Creating Layer inception_5a/3x3_reduce
I0803 22:56:20.184816 131580 net.cpp:454] inception_5a/3x3_reduce <- pool4/3x3_s2_pool4/3x3_s2_0_split_1
I0803 22:56:20.184828 131580 net.cpp:411] inception_5a/3x3_reduce -> inception_5a/3x3_reduce
I0803 22:56:20.188257 131580 cudnn_conv_layer.cpp:194] Reallocating workspace storage: 9984
I0803 22:56:20.188352 131580 net.cpp:150] Setting up inception_5a/3x3_reduce
I0803 22:56:20.188370 131580 net.cpp:157] Top shape: 100 160 7 7 (784000)
I0803 22:56:20.188379 131580 net.cpp:165] Memory required for data: 5396910016
I0803 22:56:20.188393 131580 layer_factory.hpp:76] Creating layer inception_5a/relu_3x3_reduce
I0803 22:56:20.188410 131580 net.cpp:106] Creating Layer inception_5a/relu_3x3_reduce
I0803 22:56:20.188423 131580 net.cpp:454] inception_5a/relu_3x3_reduce <- inception_5a/3x3_reduce
I0803 22:56:20.188433 131580 net.cpp:397] inception_5a/relu_3x3_reduce -> inception_5a/3x3_reduce (in-place)
I0803 22:56:20.188832 131580 net.cpp:150] Setting up inception_5a/relu_3x3_reduce
I0803 22:56:20.188889 131580 net.cpp:157] Top shape: 100 160 7 7 (784000)
I0803 22:56:20.188904 131580 net.cpp:165] Memory required for data: 5400046016
I0803 22:56:20.188915 131580 layer_factory.hpp:76] Creating layer inception_5a/3x3
I0803 22:56:20.188946 131580 net.cpp:106] Creating Layer inception_5a/3x3
I0803 22:56:20.188959 131580 net.cpp:454] inception_5a/3x3 <- inception_5a/3x3_reduce
I0803 22:56:20.188977 131580 net.cpp:411] inception_5a/3x3 -> inception_5a/3x3
I0803 22:56:20.196434 131580 net.cpp:150] Setting up inception_5a/3x3
I0803 22:56:20.196475 131580 net.cpp:157] Top shape: 100 320 7 7 (1568000)
I0803 22:56:20.196488 131580 net.cpp:165] Memory required for data: 5406318016
I0803 22:56:20.196509 131580 layer_factory.hpp:76] Creating layer inception_5a/relu_3x3
I0803 22:56:20.196532 131580 net.cpp:106] Creating Layer inception_5a/relu_3x3
I0803 22:56:20.196548 131580 net.cpp:454] inception_5a/relu_3x3 <- inception_5a/3x3
I0803 22:56:20.196565 131580 net.cpp:397] inception_5a/relu_3x3 -> inception_5a/3x3 (in-place)
I0803 22:56:20.197085 131580 net.cpp:150] Setting up inception_5a/relu_3x3
I0803 22:56:20.197113 131580 net.cpp:157] Top shape: 100 320 7 7 (1568000)
I0803 22:56:20.197127 131580 net.cpp:165] Memory required for data: 5412590016
I0803 22:56:20.197144 131580 layer_factory.hpp:76] Creating layer inception_5a/5x5_reduce
I0803 22:56:20.197172 131580 net.cpp:106] Creating Layer inception_5a/5x5_reduce
I0803 22:56:20.197188 131580 net.cpp:454] inception_5a/5x5_reduce <- pool4/3x3_s2_pool4/3x3_s2_0_split_2
I0803 22:56:20.197213 131580 net.cpp:411] inception_5a/5x5_reduce -> inception_5a/5x5_reduce
I0803 22:56:20.202805 131580 net.cpp:150] Setting up inception_5a/5x5_reduce
I0803 22:56:20.202834 131580 net.cpp:157] Top shape: 100 32 7 7 (156800)
I0803 22:56:20.202850 131580 net.cpp:165] Memory required for data: 5413217216
I0803 22:56:20.202872 131580 layer_factory.hpp:76] Creating layer inception_5a/relu_5x5_reduce
I0803 22:56:20.202893 131580 net.cpp:106] Creating Layer inception_5a/relu_5x5_reduce
I0803 22:56:20.202906 131580 net.cpp:454] inception_5a/relu_5x5_reduce <- inception_5a/5x5_reduce
I0803 22:56:20.202927 131580 net.cpp:397] inception_5a/relu_5x5_reduce -> inception_5a/5x5_reduce (in-place)
I0803 22:56:20.204684 131580 net.cpp:150] Setting up inception_5a/relu_5x5_reduce
I0803 22:56:20.204702 131580 net.cpp:157] Top shape: 100 32 7 7 (156800)
I0803 22:56:20.204711 131580 net.cpp:165] Memory required for data: 5413844416
I0803 22:56:20.204720 131580 layer_factory.hpp:76] Creating layer inception_5a/5x5
I0803 22:56:20.204736 131580 net.cpp:106] Creating Layer inception_5a/5x5
I0803 22:56:20.204756 131580 net.cpp:454] inception_5a/5x5 <- inception_5a/5x5_reduce
I0803 22:56:20.204777 131580 net.cpp:411] inception_5a/5x5 -> inception_5a/5x5
I0803 22:56:20.209192 131580 net.cpp:150] Setting up inception_5a/5x5
I0803 22:56:20.209223 131580 net.cpp:157] Top shape: 100 128 7 7 (627200)
I0803 22:56:20.209235 131580 net.cpp:165] Memory required for data: 5416353216
I0803 22:56:20.209254 131580 layer_factory.hpp:76] Creating layer inception_5a/relu_5x5
I0803 22:56:20.209273 131580 net.cpp:106] Creating Layer inception_5a/relu_5x5
I0803 22:56:20.209291 131580 net.cpp:454] inception_5a/relu_5x5 <- inception_5a/5x5
I0803 22:56:20.209306 131580 net.cpp:397] inception_5a/relu_5x5 -> inception_5a/5x5 (in-place)
I0803 22:56:20.209813 131580 net.cpp:150] Setting up inception_5a/relu_5x5
I0803 22:56:20.209842 131580 net.cpp:157] Top shape: 100 128 7 7 (627200)
I0803 22:56:20.209856 131580 net.cpp:165] Memory required for data: 5418862016
I0803 22:56:20.209868 131580 layer_factory.hpp:76] Creating layer inception_5a/pool
I0803 22:56:20.209893 131580 net.cpp:106] Creating Layer inception_5a/pool
I0803 22:56:20.209908 131580 net.cpp:454] inception_5a/pool <- pool4/3x3_s2_pool4/3x3_s2_0_split_3
I0803 22:56:20.209934 131580 net.cpp:411] inception_5a/pool -> inception_5a/pool
I0803 22:56:20.210383 131580 net.cpp:150] Setting up inception_5a/pool
I0803 22:56:20.210412 131580 net.cpp:157] Top shape: 100 832 7 7 (4076800)
I0803 22:56:20.210445 131580 net.cpp:165] Memory required for data: 5435169216
I0803 22:56:20.210459 131580 layer_factory.hpp:76] Creating layer inception_5a/pool_proj
I0803 22:56:20.210481 131580 net.cpp:106] Creating Layer inception_5a/pool_proj
I0803 22:56:20.210495 131580 net.cpp:454] inception_5a/pool_proj <- inception_5a/pool
I0803 22:56:20.210512 131580 net.cpp:411] inception_5a/pool_proj -> inception_5a/pool_proj
I0803 22:56:20.214242 131580 cudnn_conv_layer.cpp:194] Reallocating workspace storage: 9984
I0803 22:56:20.214325 131580 net.cpp:150] Setting up inception_5a/pool_proj
I0803 22:56:20.214346 131580 net.cpp:157] Top shape: 100 128 7 7 (627200)
I0803 22:56:20.214360 131580 net.cpp:165] Memory required for data: 5437678016
I0803 22:56:20.214380 131580 layer_factory.hpp:76] Creating layer inception_5a/relu_pool_proj
I0803 22:56:20.214411 131580 net.cpp:106] Creating Layer inception_5a/relu_pool_proj
I0803 22:56:20.214426 131580 net.cpp:454] inception_5a/relu_pool_proj <- inception_5a/pool_proj
I0803 22:56:20.214443 131580 net.cpp:397] inception_5a/relu_pool_proj -> inception_5a/pool_proj (in-place)
I0803 22:56:20.214769 131580 net.cpp:150] Setting up inception_5a/relu_pool_proj
I0803 22:56:20.214795 131580 net.cpp:157] Top shape: 100 128 7 7 (627200)
I0803 22:56:20.214808 131580 net.cpp:165] Memory required for data: 5440186816
I0803 22:56:20.214821 131580 layer_factory.hpp:76] Creating layer inception_5a/output
I0803 22:56:20.214839 131580 net.cpp:106] Creating Layer inception_5a/output
I0803 22:56:20.214853 131580 net.cpp:454] inception_5a/output <- inception_5a/1x1
I0803 22:56:20.214867 131580 net.cpp:454] inception_5a/output <- inception_5a/3x3
I0803 22:56:20.214880 131580 net.cpp:454] inception_5a/output <- inception_5a/5x5
I0803 22:56:20.214897 131580 net.cpp:454] inception_5a/output <- inception_5a/pool_proj
I0803 22:56:20.214915 131580 net.cpp:411] inception_5a/output -> inception_5a/output
I0803 22:56:20.214989 131580 net.cpp:150] Setting up inception_5a/output
I0803 22:56:20.215029 131580 net.cpp:157] Top shape: 100 832 7 7 (4076800)
I0803 22:56:20.215042 131580 net.cpp:165] Memory required for data: 5456494016
I0803 22:56:20.215055 131580 layer_factory.hpp:76] Creating layer inception_5a/output_inception_5a/output_0_split
I0803 22:56:20.215072 131580 net.cpp:106] Creating Layer inception_5a/output_inception_5a/output_0_split
I0803 22:56:20.215086 131580 net.cpp:454] inception_5a/output_inception_5a/output_0_split <- inception_5a/output
I0803 22:56:20.215102 131580 net.cpp:411] inception_5a/output_inception_5a/output_0_split -> inception_5a/output_inception_5a/output_0_split_0
I0803 22:56:20.215119 131580 net.cpp:411] inception_5a/output_inception_5a/output_0_split -> inception_5a/output_inception_5a/output_0_split_1
I0803 22:56:20.215138 131580 net.cpp:411] inception_5a/output_inception_5a/output_0_split -> inception_5a/output_inception_5a/output_0_split_2
I0803 22:56:20.215162 131580 net.cpp:411] inception_5a/output_inception_5a/output_0_split -> inception_5a/output_inception_5a/output_0_split_3
I0803 22:56:20.215348 131580 net.cpp:150] Setting up inception_5a/output_inception_5a/output_0_split
I0803 22:56:20.215369 131580 net.cpp:157] Top shape: 100 832 7 7 (4076800)
I0803 22:56:20.215384 131580 net.cpp:157] Top shape: 100 832 7 7 (4076800)
I0803 22:56:20.215397 131580 net.cpp:157] Top shape: 100 832 7 7 (4076800)
I0803 22:56:20.215412 131580 net.cpp:157] Top shape: 100 832 7 7 (4076800)
I0803 22:56:20.215423 131580 net.cpp:165] Memory required for data: 5521722816
I0803 22:56:20.215436 131580 layer_factory.hpp:76] Creating layer inception_5b/1x1
I0803 22:56:20.215458 131580 net.cpp:106] Creating Layer inception_5b/1x1
I0803 22:56:20.215471 131580 net.cpp:454] inception_5b/1x1 <- inception_5a/output_inception_5a/output_0_split_0
I0803 22:56:20.215499 131580 net.cpp:411] inception_5b/1x1 -> inception_5b/1x1
I0803 22:56:20.220180 131580 cudnn_conv_layer.cpp:194] Reallocating workspace storage: 9984
I0803 22:56:20.220237 131580 net.cpp:150] Setting up inception_5b/1x1
I0803 22:56:20.220266 131580 net.cpp:157] Top shape: 100 384 7 7 (1881600)
I0803 22:56:20.220278 131580 net.cpp:165] Memory required for data: 5529249216
I0803 22:56:20.220293 131580 layer_factory.hpp:76] Creating layer inception_5b/relu_1x1
I0803 22:56:20.220304 131580 net.cpp:106] Creating Layer inception_5b/relu_1x1
I0803 22:56:20.220314 131580 net.cpp:454] inception_5b/relu_1x1 <- inception_5b/1x1
I0803 22:56:20.220324 131580 net.cpp:397] inception_5b/relu_1x1 -> inception_5b/1x1 (in-place)
I0803 22:56:20.220712 131580 net.cpp:150] Setting up inception_5b/relu_1x1
I0803 22:56:20.220732 131580 net.cpp:157] Top shape: 100 384 7 7 (1881600)
I0803 22:56:20.220741 131580 net.cpp:165] Memory required for data: 5536775616
I0803 22:56:20.220748 131580 layer_factory.hpp:76] Creating layer inception_5b/3x3_reduce
I0803 22:56:20.220770 131580 net.cpp:106] Creating Layer inception_5b/3x3_reduce
I0803 22:56:20.220790 131580 net.cpp:454] inception_5b/3x3_reduce <- inception_5a/output_inception_5a/output_0_split_1
I0803 22:56:20.220803 131580 net.cpp:411] inception_5b/3x3_reduce -> inception_5b/3x3_reduce
I0803 22:56:20.224030 131580 cudnn_conv_layer.cpp:194] Reallocating workspace storage: 9984
I0803 22:56:20.224102 131580 net.cpp:150] Setting up inception_5b/3x3_reduce
I0803 22:56:20.224143 131580 net.cpp:157] Top shape: 100 192 7 7 (940800)
I0803 22:56:20.224155 131580 net.cpp:165] Memory required for data: 5540538816
I0803 22:56:20.224176 131580 layer_factory.hpp:76] Creating layer inception_5b/relu_3x3_reduce
I0803 22:56:20.224195 131580 net.cpp:106] Creating Layer inception_5b/relu_3x3_reduce
I0803 22:56:20.224210 131580 net.cpp:454] inception_5b/relu_3x3_reduce <- inception_5b/3x3_reduce
I0803 22:56:20.224231 131580 net.cpp:397] inception_5b/relu_3x3_reduce -> inception_5b/3x3_reduce (in-place)
I0803 22:56:20.224552 131580 net.cpp:150] Setting up inception_5b/relu_3x3_reduce
I0803 22:56:20.224577 131580 net.cpp:157] Top shape: 100 192 7 7 (940800)
I0803 22:56:20.224591 131580 net.cpp:165] Memory required for data: 5544302016
I0803 22:56:20.224603 131580 layer_factory.hpp:76] Creating layer inception_5b/3x3
I0803 22:56:20.224625 131580 net.cpp:106] Creating Layer inception_5b/3x3
I0803 22:56:20.224643 131580 net.cpp:454] inception_5b/3x3 <- inception_5b/3x3_reduce
I0803 22:56:20.224663 131580 net.cpp:411] inception_5b/3x3 -> inception_5b/3x3
I0803 22:56:20.234068 131580 net.cpp:150] Setting up inception_5b/3x3
I0803 22:56:20.234127 131580 net.cpp:157] Top shape: 100 384 7 7 (1881600)
I0803 22:56:20.234141 131580 net.cpp:165] Memory required for data: 5551828416
I0803 22:56:20.234163 131580 layer_factory.hpp:76] Creating layer inception_5b/relu_3x3
I0803 22:56:20.234191 131580 net.cpp:106] Creating Layer inception_5b/relu_3x3
I0803 22:56:20.234208 131580 net.cpp:454] inception_5b/relu_3x3 <- inception_5b/3x3
I0803 22:56:20.234226 131580 net.cpp:397] inception_5b/relu_3x3 -> inception_5b/3x3 (in-place)
I0803 22:56:20.234555 131580 net.cpp:150] Setting up inception_5b/relu_3x3
I0803 22:56:20.234580 131580 net.cpp:157] Top shape: 100 384 7 7 (1881600)
I0803 22:56:20.234592 131580 net.cpp:165] Memory required for data: 5559354816
I0803 22:56:20.234606 131580 layer_factory.hpp:76] Creating layer inception_5b/5x5_reduce
I0803 22:56:20.234638 131580 net.cpp:106] Creating Layer inception_5b/5x5_reduce
I0803 22:56:20.234668 131580 net.cpp:454] inception_5b/5x5_reduce <- inception_5a/output_inception_5a/output_0_split_2
I0803 22:56:20.234701 131580 net.cpp:411] inception_5b/5x5_reduce -> inception_5b/5x5_reduce
I0803 22:56:20.236595 131580 net.cpp:150] Setting up inception_5b/5x5_reduce
I0803 22:56:20.236618 131580 net.cpp:157] Top shape: 100 48 7 7 (235200)
I0803 22:56:20.236627 131580 net.cpp:165] Memory required for data: 5560295616
I0803 22:56:20.236639 131580 layer_factory.hpp:76] Creating layer inception_5b/relu_5x5_reduce
I0803 22:56:20.236654 131580 net.cpp:106] Creating Layer inception_5b/relu_5x5_reduce
I0803 22:56:20.236663 131580 net.cpp:454] inception_5b/relu_5x5_reduce <- inception_5b/5x5_reduce
I0803 22:56:20.236701 131580 net.cpp:397] inception_5b/relu_5x5_reduce -> inception_5b/5x5_reduce (in-place)
I0803 22:56:20.237268 131580 net.cpp:150] Setting up inception_5b/relu_5x5_reduce
I0803 22:56:20.237288 131580 net.cpp:157] Top shape: 100 48 7 7 (235200)
I0803 22:56:20.237296 131580 net.cpp:165] Memory required for data: 5561236416
I0803 22:56:20.237304 131580 layer_factory.hpp:76] Creating layer inception_5b/5x5
I0803 22:56:20.237321 131580 net.cpp:106] Creating Layer inception_5b/5x5
I0803 22:56:20.237330 131580 net.cpp:454] inception_5b/5x5 <- inception_5b/5x5_reduce
I0803 22:56:20.237344 131580 net.cpp:411] inception_5b/5x5 -> inception_5b/5x5
I0803 22:56:20.239635 131580 net.cpp:150] Setting up inception_5b/5x5
I0803 22:56:20.239658 131580 net.cpp:157] Top shape: 100 128 7 7 (627200)
I0803 22:56:20.239667 131580 net.cpp:165] Memory required for data: 5563745216
I0803 22:56:20.239680 131580 layer_factory.hpp:76] Creating layer inception_5b/relu_5x5
I0803 22:56:20.239691 131580 net.cpp:106] Creating Layer inception_5b/relu_5x5
I0803 22:56:20.239701 131580 net.cpp:454] inception_5b/relu_5x5 <- inception_5b/5x5
I0803 22:56:20.239711 131580 net.cpp:397] inception_5b/relu_5x5 -> inception_5b/5x5 (in-place)
I0803 22:56:20.239930 131580 net.cpp:150] Setting up inception_5b/relu_5x5
I0803 22:56:20.239948 131580 net.cpp:157] Top shape: 100 128 7 7 (627200)
I0803 22:56:20.239955 131580 net.cpp:165] Memory required for data: 5566254016
I0803 22:56:20.239964 131580 layer_factory.hpp:76] Creating layer inception_5b/pool
I0803 22:56:20.239975 131580 net.cpp:106] Creating Layer inception_5b/pool
I0803 22:56:20.239987 131580 net.cpp:454] inception_5b/pool <- inception_5a/output_inception_5a/output_0_split_3
I0803 22:56:20.239998 131580 net.cpp:411] inception_5b/pool -> inception_5b/pool
I0803 22:56:20.240424 131580 net.cpp:150] Setting up inception_5b/pool
I0803 22:56:20.240443 131580 net.cpp:157] Top shape: 100 832 7 7 (4076800)
I0803 22:56:20.240452 131580 net.cpp:165] Memory required for data: 5582561216
I0803 22:56:20.240460 131580 layer_factory.hpp:76] Creating layer inception_5b/pool_proj
I0803 22:56:20.240476 131580 net.cpp:106] Creating Layer inception_5b/pool_proj
I0803 22:56:20.240486 131580 net.cpp:454] inception_5b/pool_proj <- inception_5b/pool
I0803 22:56:20.240499 131580 net.cpp:411] inception_5b/pool_proj -> inception_5b/pool_proj
I0803 22:56:20.245770 131580 cudnn_conv_layer.cpp:194] Reallocating workspace storage: 9984
I0803 22:56:20.245857 131580 net.cpp:150] Setting up inception_5b/pool_proj
I0803 22:56:20.245872 131580 net.cpp:157] Top shape: 100 128 7 7 (627200)
I0803 22:56:20.245880 131580 net.cpp:165] Memory required for data: 5585070016
I0803 22:56:20.245899 131580 layer_factory.hpp:76] Creating layer inception_5b/relu_pool_proj
I0803 22:56:20.245913 131580 net.cpp:106] Creating Layer inception_5b/relu_pool_proj
I0803 22:56:20.245923 131580 net.cpp:454] inception_5b/relu_pool_proj <- inception_5b/pool_proj
I0803 22:56:20.245950 131580 net.cpp:397] inception_5b/relu_pool_proj -> inception_5b/pool_proj (in-place)
I0803 22:56:20.246953 131580 net.cpp:150] Setting up inception_5b/relu_pool_proj
I0803 22:56:20.246974 131580 net.cpp:157] Top shape: 100 128 7 7 (627200)
I0803 22:56:20.246984 131580 net.cpp:165] Memory required for data: 5587578816
I0803 22:56:20.246992 131580 layer_factory.hpp:76] Creating layer inception_5b/output
I0803 22:56:20.247005 131580 net.cpp:106] Creating Layer inception_5b/output
I0803 22:56:20.247020 131580 net.cpp:454] inception_5b/output <- inception_5b/1x1
I0803 22:56:20.247030 131580 net.cpp:454] inception_5b/output <- inception_5b/3x3
I0803 22:56:20.247038 131580 net.cpp:454] inception_5b/output <- inception_5b/5x5
I0803 22:56:20.247047 131580 net.cpp:454] inception_5b/output <- inception_5b/pool_proj
I0803 22:56:20.247061 131580 net.cpp:411] inception_5b/output -> inception_5b/output
I0803 22:56:20.247102 131580 net.cpp:150] Setting up inception_5b/output
I0803 22:56:20.247115 131580 net.cpp:157] Top shape: 100 1024 7 7 (5017600)
I0803 22:56:20.247123 131580 net.cpp:165] Memory required for data: 5607649216
I0803 22:56:20.247160 131580 layer_factory.hpp:76] Creating layer pool5/7x7_s1
I0803 22:56:20.247176 131580 net.cpp:106] Creating Layer pool5/7x7_s1
I0803 22:56:20.247186 131580 net.cpp:454] pool5/7x7_s1 <- inception_5b/output
I0803 22:56:20.247197 131580 net.cpp:411] pool5/7x7_s1 -> pool5/7x7_s1
I0803 22:56:20.248123 131580 net.cpp:150] Setting up pool5/7x7_s1
I0803 22:56:20.248143 131580 net.cpp:157] Top shape: 100 1024 1 1 (102400)
I0803 22:56:20.248152 131580 net.cpp:165] Memory required for data: 5608058816
I0803 22:56:20.248160 131580 layer_factory.hpp:76] Creating layer pool5/drop_7x7_s1
I0803 22:56:20.248173 131580 net.cpp:106] Creating Layer pool5/drop_7x7_s1
I0803 22:56:20.248183 131580 net.cpp:454] pool5/drop_7x7_s1 <- pool5/7x7_s1
I0803 22:56:20.248196 131580 net.cpp:397] pool5/drop_7x7_s1 -> pool5/7x7_s1 (in-place)
I0803 22:56:20.248229 131580 net.cpp:150] Setting up pool5/drop_7x7_s1
I0803 22:56:20.248246 131580 net.cpp:157] Top shape: 100 1024 1 1 (102400)
I0803 22:56:20.248255 131580 net.cpp:165] Memory required for data: 5608468416
I0803 22:56:20.248262 131580 layer_factory.hpp:76] Creating layer loss3/classifier
I0803 22:56:20.248278 131580 net.cpp:106] Creating Layer loss3/classifier
I0803 22:56:20.248287 131580 net.cpp:454] loss3/classifier <- pool5/7x7_s1
I0803 22:56:20.248304 131580 net.cpp:411] loss3/classifier -> loss3/classifier
I0803 22:56:20.248538 131580 net.cpp:150] Setting up loss3/classifier
I0803 22:56:20.248565 131580 net.cpp:157] Top shape: 100 2 (200)
I0803 22:56:20.248579 131580 net.cpp:165] Memory required for data: 5608469216
I0803 22:56:20.248600 131580 layer_factory.hpp:76] Creating layer loss3/classifier_loss3/classifier_0_split
I0803 22:56:20.248623 131580 net.cpp:106] Creating Layer loss3/classifier_loss3/classifier_0_split
I0803 22:56:20.248639 131580 net.cpp:454] loss3/classifier_loss3/classifier_0_split <- loss3/classifier
I0803 22:56:20.248664 131580 net.cpp:411] loss3/classifier_loss3/classifier_0_split -> loss3/classifier_loss3/classifier_0_split_0
I0803 22:56:20.248684 131580 net.cpp:411] loss3/classifier_loss3/classifier_0_split -> loss3/classifier_loss3/classifier_0_split_1
I0803 22:56:20.248752 131580 net.cpp:150] Setting up loss3/classifier_loss3/classifier_0_split
I0803 22:56:20.248775 131580 net.cpp:157] Top shape: 100 2 (200)
I0803 22:56:20.248788 131580 net.cpp:157] Top shape: 100 2 (200)
I0803 22:56:20.248801 131580 net.cpp:165] Memory required for data: 5608470816
I0803 22:56:20.248814 131580 layer_factory.hpp:76] Creating layer loss3/loss3
I0803 22:56:20.248836 131580 net.cpp:106] Creating Layer loss3/loss3
I0803 22:56:20.248850 131580 net.cpp:454] loss3/loss3 <- loss3/classifier_loss3/classifier_0_split_0
I0803 22:56:20.248878 131580 net.cpp:454] loss3/loss3 <- label_data_1_split_4
…
