…
  phase: TRAIN
}
layer {
  name: "data"
  type: "Python"
  top: "data"
  top: "label"
  include {
    phase: TRAIN
  }
  python_param {
    module: "mask_image_layer"
    layer: "random_patches_from_images_withlabel"
    param_str: "{\'root_folder\': \'/home/dywang/Proliferation/data/mitoses/mitoses_image_data_cn2\', \'image_list\': \'/home/dywang/Proliferation/data/mitoses/all_image_new_withlabel.lst\', \'seed\': 8899, \'mean\': (150, 150, 150), \'size\': 63, \'batch\': 64, \'scale\':0.1, \'colorn\':20, \'classes\':\'1:0 2:1\', \'DEBUG\': True}"
  }
}
layer {
  name: "conv1"
  type: "Convolution"
  bottom: "data"
  top: "conv1"
  param {
    lr_mult: 1
    decay_mult: 1
  }
  param {
    lr_mult: 2
    decay_mult: 0
  }
  convolution_param {
    num_output: 16
    pad: 0
    kernel_size: 4
    stride: 1
    weight_filler {
      type: "gaussian"
      std: 0.07
    }
    bias_filler {
      type: "constant"
      value: 0.1
    }
  }
}
layer {
  name: "nonlin1"
  type: "ReLU"
  bottom: "conv1"
  top: "conv1"
}
layer {
  name: "pool1"
  type: "Pooling"
  bottom: "conv1"
  top: "pool1"
  pooling_param {
    pool: MAX
    kernel_size: 2
    stride: 2
    engine: CAFFE
  }
}
layer {
  name: "conv2"
  type: "Convolution"
  bottom: "pool1"
  top: "conv2"
  param {
    lr_mult: 1
    decay_mult: 1
  }
  param {
    lr_mult: 2
    decay_mult: 0
  }
  convolution_param {
    num_output: 16
    pad: 0
    kernel_size: 3
    stride: 1
    weight_filler {
      type: "gaussian"
      std: 0.04
    }
    bias_filler {
      type: "constant"
      value: 0.1
    }
  }
}
layer {
  name: "nonlin2"
  type: "ReLU"
  bottom: "conv2"
  top: "conv2"
}
layer {
  name: "pool2"
  type: "Pooling"
  bottom: "conv2"
  top: "pool2"
  pooling_param {
    pool: MAX
    kernel_size: 2
    stride: 2
    engine: CAFFE
  }
}
layer {
  name: "conv3"
  type: "Convolution"
  bottom: "pool2"
  top: "conv3"
  param {
    lr_mult: 1
    decay_mult: 1
  }
  param {
    lr_mult: 2
    decay_mult: 0
  }
  convolution_param {
    num_output: 16
    pad: 0
    kernel_size: 3
    stride: 1
    weight_filler {
      type: "gaussian"
      std: 0.04
    }
    bias_filler {
      type: "constant"
      value: 0.1
    }
  }
}
layer {
  name: "nonlin3"
  type: "ReLU"
  bottom: "conv3"
  top: "conv3"
}
layer {
  name: "pool3"
  type: "Pooling"
  bottom: "conv3"
  top: "pool3"
  pooling_param {
    pool: MAX
    kernel_size: 2
    stride: 2
    engine: CAFFE
  }
}
layer {
  name: "conv4"
  type: "Convolution"
  bottom: "pool3"
  top: "conv4"
  param {
    lr_mult: 1
    decay_mult: 1
  }
  param {
    lr_mult: 2
    decay_mult: 0
  }
  convolution_param {
    num_output: 16
    pad: 0
    kernel_size: 3
    stride: 1
    weight_filler {
      type: "gaussian"
      std: 0.04
    }
    bias_filler {
      type: "constant"
      value: 0.1
    }
  }
}
layer {
  name: "nonlin4"
  type: "ReLU"
  bottom: "conv4"
  top: "conv4"
}
layer {
  name: "pool4"
  type: "Pooling"
  bottom: "conv4"
  top: "pool4"
  pooling_param {
    pool: MAX
    kernel_size: 2
    stride: 2
    engine: CAFFE
  }
}
layer {
  name: "ip1_c"
  type: "Convolution"
  bottom: "pool4"
  top: "ip1"
  convolution_param {
    num_output: 200
    pad: 0
    kernel_size: 2
    stride: 1
    weight_filler {
      type: "gaussian"
      std: 0.03
    }
    bias_filler {
      type: "constant"
      value: 0.1
    }
  }
}
layer {
  name: "nonlin_ip1"
  type: "ReLU"
  bottom: "ip1"
  top: "ip1"
}
layer {
  name: "ip2_c"
  type: "Convolution"
  bottom: "ip1"
  top: "ip2"
  convolution_param {
    num_output: 2
    pad: 0
    kernel_size: 1
    stride: 1
    weight_filler {
      type: "gaussian"
      std: 0.06
    }
    bias_filler {
      type: "constant"
      value: 0.1
    }
  }
}
layer {
  name: "loss"
  type: "SoftmaxWithLoss"
  bottom: "ip2"
  bottom: "label"
  top: "loss"
}
I0728 12:43:09.547013 113707 layer_factory.hpp:76] Creating layer data
I0728 12:43:12.472132 113707 net.cpp:106] Creating Layer data
I0728 12:43:12.472213 113707 net.cpp:411] data -> data
I0728 12:43:12.472254 113707 net.cpp:411] data -> label
I0728 12:43:14.105274 113707 net.cpp:150] Setting up data
I0728 12:43:14.105336 113707 net.cpp:157] Top shape: 64 3 63 63 (762048)
I0728 12:43:14.105355 113707 net.cpp:157] Top shape: 64 1 1 1 (64)
I0728 12:43:14.105368 113707 net.cpp:165] Memory required for data: 3048448
I0728 12:43:14.105397 113707 layer_factory.hpp:76] Creating layer conv1
I0728 12:43:14.105432 113707 net.cpp:106] Creating Layer conv1
I0728 12:43:14.105453 113707 net.cpp:454] conv1 <- data
I0728 12:43:14.105481 113707 net.cpp:411] conv1 -> conv1
I0728 12:43:14.430958 113707 net.cpp:150] Setting up conv1
I0728 12:43:14.431035 113707 net.cpp:157] Top shape: 64 16 60 60 (3686400)
I0728 12:43:14.431046 113707 net.cpp:165] Memory required for data: 17794048
I0728 12:43:14.431099 113707 layer_factory.hpp:76] Creating layer nonlin1
I0728 12:43:14.431157 113707 net.cpp:106] Creating Layer nonlin1
I0728 12:43:14.431180 113707 net.cpp:454] nonlin1 <- conv1
I0728 12:43:14.431193 113707 net.cpp:397] nonlin1 -> conv1 (in-place)
I0728 12:43:14.431437 113707 net.cpp:150] Setting up nonlin1
I0728 12:43:14.431468 113707 net.cpp:157] Top shape: 64 16 60 60 (3686400)
I0728 12:43:14.431476 113707 net.cpp:165] Memory required for data: 32539648
I0728 12:43:14.431485 113707 layer_factory.hpp:76] Creating layer pool1
I0728 12:43:14.431500 113707 net.cpp:106] Creating Layer pool1
I0728 12:43:14.431509 113707 net.cpp:454] pool1 <- conv1
I0728 12:43:14.431527 113707 net.cpp:411] pool1 -> pool1
I0728 12:43:14.431607 113707 net.cpp:150] Setting up pool1
I0728 12:43:14.431622 113707 net.cpp:157] Top shape: 64 16 30 30 (921600)
I0728 12:43:14.431630 113707 net.cpp:165] Memory required for data: 36226048
I0728 12:43:14.431639 113707 layer_factory.hpp:76] Creating layer conv2
I0728 12:43:14.431658 113707 net.cpp:106] Creating Layer conv2
I0728 12:43:14.431668 113707 net.cpp:454] conv2 <- pool1
I0728 12:43:14.431691 113707 net.cpp:411] conv2 -> conv2
I0728 12:43:14.438863 113707 net.cpp:150] Setting up conv2
I0728 12:43:14.438886 113707 net.cpp:157] Top shape: 64 16 28 28 (802816)
I0728 12:43:14.438895 113707 net.cpp:165] Memory required for data: 39437312
I0728 12:43:14.438910 113707 layer_factory.hpp:76] Creating layer nonlin2
I0728 12:43:14.438921 113707 net.cpp:106] Creating Layer nonlin2
I0728 12:43:14.438932 113707 net.cpp:454] nonlin2 <- conv2
I0728 12:43:14.438942 113707 net.cpp:397] nonlin2 -> conv2 (in-place)
I0728 12:43:14.441141 113707 net.cpp:150] Setting up nonlin2
I0728 12:43:14.441161 113707 net.cpp:157] Top shape: 64 16 28 28 (802816)
I0728 12:43:14.441169 113707 net.cpp:165] Memory required for data: 42648576
I0728 12:43:14.441179 113707 layer_factory.hpp:76] Creating layer pool2
I0728 12:43:14.441192 113707 net.cpp:106] Creating Layer pool2
I0728 12:43:14.441201 113707 net.cpp:454] pool2 <- conv2
I0728 12:43:14.441212 113707 net.cpp:411] pool2 -> pool2
I0728 12:43:14.441258 113707 net.cpp:150] Setting up pool2
I0728 12:43:14.441284 113707 net.cpp:157] Top shape: 64 16 14 14 (200704)
I0728 12:43:14.441293 113707 net.cpp:165] Memory required for data: 43451392
I0728 12:43:14.441301 113707 layer_factory.hpp:76] Creating layer conv3
I0728 12:43:14.441315 113707 net.cpp:106] Creating Layer conv3
I0728 12:43:14.441323 113707 net.cpp:454] conv3 <- pool2
I0728 12:43:14.441367 113707 net.cpp:411] conv3 -> conv3
I0728 12:43:14.455889 113707 net.cpp:150] Setting up conv3
I0728 12:43:14.455911 113707 net.cpp:157] Top shape: 64 16 12 12 (147456)
I0728 12:43:14.455920 113707 net.cpp:165] Memory required for data: 44041216
I0728 12:43:14.455934 113707 layer_factory.hpp:76] Creating layer nonlin3
I0728 12:43:14.455946 113707 net.cpp:106] Creating Layer nonlin3
I0728 12:43:14.455955 113707 net.cpp:454] nonlin3 <- conv3
I0728 12:43:14.455963 113707 net.cpp:397] nonlin3 -> conv3 (in-place)
I0728 12:43:14.458173 113707 net.cpp:150] Setting up nonlin3
I0728 12:43:14.458194 113707 net.cpp:157] Top shape: 64 16 12 12 (147456)
I0728 12:43:14.458202 113707 net.cpp:165] Memory required for data: 44631040
I0728 12:43:14.458211 113707 layer_factory.hpp:76] Creating layer pool3
I0728 12:43:14.458223 113707 net.cpp:106] Creating Layer pool3
I0728 12:43:14.458231 113707 net.cpp:454] pool3 <- conv3
I0728 12:43:14.458245 113707 net.cpp:411] pool3 -> pool3
I0728 12:43:14.458289 113707 net.cpp:150] Setting up pool3
I0728 12:43:14.458315 113707 net.cpp:157] Top shape: 64 16 6 6 (36864)
I0728 12:43:14.458323 113707 net.cpp:165] Memory required for data: 44778496
I0728 12:43:14.458331 113707 layer_factory.hpp:76] Creating layer conv4
I0728 12:43:14.458348 113707 net.cpp:106] Creating Layer conv4
I0728 12:43:14.458356 113707 net.cpp:454] conv4 <- pool3
I0728 12:43:14.458366 113707 net.cpp:411] conv4 -> conv4
I0728 12:43:14.459484 113707 cudnn_conv_layer.cpp:194] Reallocating workspace storage: 1728
I0728 12:43:14.459755 113707 net.cpp:150] Setting up conv4
I0728 12:43:14.459775 113707 net.cpp:157] Top shape: 64 16 4 4 (16384)
I0728 12:43:14.459784 113707 net.cpp:165] Memory required for data: 44844032
I0728 12:43:14.459795 113707 layer_factory.hpp:76] Creating layer nonlin4
I0728 12:43:14.459806 113707 net.cpp:106] Creating Layer nonlin4
I0728 12:43:14.459815 113707 net.cpp:454] nonlin4 <- conv4
I0728 12:43:14.459827 113707 net.cpp:397] nonlin4 -> conv4 (in-place)
I0728 12:43:14.460049 113707 net.cpp:150] Setting up nonlin4
I0728 12:43:14.460070 113707 net.cpp:157] Top shape: 64 16 4 4 (16384)
I0728 12:43:14.460079 113707 net.cpp:165] Memory required for data: 44909568
I0728 12:43:14.460098 113707 layer_factory.hpp:76] Creating layer pool4
I0728 12:43:14.460109 113707 net.cpp:106] Creating Layer pool4
I0728 12:43:14.460117 113707 net.cpp:454] pool4 <- conv4
I0728 12:43:14.460127 113707 net.cpp:411] pool4 -> pool4
I0728 12:43:14.460175 113707 net.cpp:150] Setting up pool4
I0728 12:43:14.460201 113707 net.cpp:157] Top shape: 64 16 2 2 (4096)
I0728 12:43:14.460208 113707 net.cpp:165] Memory required for data: 44925952
I0728 12:43:14.460218 113707 layer_factory.hpp:76] Creating layer ip1_c
I0728 12:43:14.460234 113707 net.cpp:106] Creating Layer ip1_c
I0728 12:43:14.460243 113707 net.cpp:454] ip1_c <- pool4
I0728 12:43:14.460256 113707 net.cpp:411] ip1_c -> ip1
I0728 12:43:14.462503 113707 cudnn_conv_layer.cpp:194] Reallocating workspace storage: 768
I0728 12:43:14.462564 113707 net.cpp:150] Setting up ip1_c
I0728 12:43:14.462582 113707 net.cpp:157] Top shape: 64 200 1 1 (12800)
I0728 12:43:14.462591 113707 net.cpp:165] Memory required for data: 44977152
I0728 12:43:14.462612 113707 layer_factory.hpp:76] Creating layer nonlin_ip1
I0728 12:43:14.462636 113707 net.cpp:106] Creating Layer nonlin_ip1
I0728 12:43:14.462647 113707 net.cpp:454] nonlin_ip1 <- ip1
I0728 12:43:14.462662 113707 net.cpp:397] nonlin_ip1 -> ip1 (in-place)
I0728 12:43:14.463042 113707 net.cpp:150] Setting up nonlin_ip1
I0728 12:43:14.463063 113707 net.cpp:157] Top shape: 64 200 1 1 (12800)
I0728 12:43:14.463071 113707 net.cpp:165] Memory required for data: 45028352
I0728 12:43:14.463080 113707 layer_factory.hpp:76] Creating layer ip2_c
I0728 12:43:14.463096 113707 net.cpp:106] Creating Layer ip2_c
I0728 12:43:14.463107 113707 net.cpp:454] ip2_c <- ip1
I0728 12:43:14.463117 113707 net.cpp:411] ip2_c -> ip2
I0728 12:43:14.464092 113707 cudnn_conv_layer.cpp:194] Reallocating workspace storage: 2400
I0728 12:43:14.464130 113707 net.cpp:150] Setting up ip2_c
I0728 12:43:14.464172 113707 net.cpp:157] Top shape: 64 2 1 1 (128)
I0728 12:43:14.464182 113707 net.cpp:165] Memory required for data: 45028864
I0728 12:43:14.464195 113707 layer_factory.hpp:76] Creating layer loss
I0728 12:43:14.464220 113707 net.cpp:106] Creating Layer loss
I0728 12:43:14.464231 113707 net.cpp:454] loss <- ip2
I0728 12:43:14.464242 113707 net.cpp:454] loss <- label
I0728 12:43:14.464256 113707 net.cpp:411] loss -> loss
I0728 12:43:14.464275 113707 layer_factory.hpp:76] Creating layer loss
…
  phase: TEST
}
layer {
  name: "data"
  type: "Python"
  top: "data"
  top: "label"
  include {
    phase: TEST
  }
  python_param {
    module: "mask_image_layer"
    layer: "random_patches_from_images_withlabel"
    param_str: "{\'root_folder\': \'/home/dywang/Proliferation/data/mitoses/mitoses_image_data_cn2\', \'image_list\': \'/home/dywang/Proliferation/data/mitoses/all_image_new_withlabel.lst\', \'seed\': 8899, \'mean\': (150, 150, 150), \'size\': 63, \'batch\': 64, \'scale\':0.1, \'colorn\':20, \'classes\':\'1:0 2:1\', \'DEBUG\': True}"
  }
}
layer {
  name: "conv1"
  type: "Convolution"
  bottom: "data"
  top: "conv1"
  param {
    lr_mult: 1
    decay_mult: 1
  }
  param {
    lr_mult: 2
    decay_mult: 0
  }
  convolution_param {
    num_output: 16
    pad: 0
    kernel_size: 4
    stride: 1
    weight_filler {
      type: "gaussian"
      std: 0.07
    }
    bias_filler {
      type: "constant"
      value: 0.1
    }
  }
}
layer {
  name: "nonlin1"
  type: "ReLU"
  bottom: "conv1"
  top: "conv1"
}
layer {
  name: "pool1"
  type: "Pooling"
  bottom: "conv1"
  top: "pool1"
  pooling_param {
    pool: MAX
    kernel_size: 2
    stride: 2
    engine: CAFFE
  }
}
layer {
  name: "conv2"
  type: "Convolution"
  bottom: "pool1"
  top: "conv2"
  param {
    lr_mult: 1
    decay_mult: 1
  }
  param {
    lr_mult: 2
    decay_mult: 0
  }
  convolution_param {
    num_output: 16
    pad: 0
    kernel_size: 3
    stride: 1
    weight_filler {
      type: "gaussian"
      std: 0.04
    }
    bias_filler {
      type: "constant"
      value: 0.1
    }
  }
}
layer {
  name: "nonlin2"
  type: "ReLU"
  bottom: "conv2"
  top: "conv2"
}
layer {
  name: "pool2"
  type: "Pooling"
  bottom: "conv2"
  top: "pool2"
  pooling_param {
    pool: MAX
    kernel_size: 2
    stride: 2
    engine: CAFFE
  }
}
layer {
  name: "conv3"
  type: "Convolution"
  bottom: "pool2"
  top: "conv3"
  param {
    lr_mult: 1
    decay_mult: 1
  }
  param {
    lr_mult: 2
    decay_mult: 0
  }
  convolution_param {
    num_output: 16
    pad: 0
    kernel_size: 3
    stride: 1
    weight_filler {
      type: "gaussian"
      std: 0.04
    }
    bias_filler {
      type: "constant"
      value: 0.1
    }
  }
}
layer {
  name: "nonlin3"
  type: "ReLU"
  bottom: "conv3"
  top: "conv3"
}
layer {
  name: "pool3"
  type: "Pooling"
  bottom: "conv3"
  top: "pool3"
  pooling_param {
    pool: MAX
    kernel_size: 2
    stride: 2
    engine: CAFFE
  }
}
layer {
  name: "conv4"
  type: "Convolution"
  bottom: "pool3"
  top: "conv4"
  param {
    lr_mult: 1
    decay_mult: 1
  }
  param {
    lr_mult: 2
    decay_mult: 0
  }
  convolution_param {
    num_output: 16
    pad: 0
    kernel_size: 3
    stride: 1
    weight_filler {
      type: "gaussian"
      std: 0.04
    }
    bias_filler {
      type: "constant"
      value: 0.1
    }
  }
}
layer {
  name: "nonlin4"
  type: "ReLU"
  bottom: "conv4"
  top: "conv4"
}
layer {
  name: "pool4"
  type: "Pooling"
  bottom: "conv4"
  top: "pool4"
  pooling_param {
    pool: MAX
    kernel_size: 2
    stride: 2
    engine: CAFFE
  }
}
layer {
  name: "ip1_c"
  type: "Convolution"
  bottom: "pool4"
  top: "ip1"
  convolution_param {
    num_output: 200
    pad: 0
    kernel_size: 2
    stride: 1
    weight_filler {
      type: "gaussian"
      std: 0.03
    }
    bias_filler {
      type: "constant"
      value: 0.1
    }
  }
}
layer {
  name: "nonlin_ip1"
  type: "ReLU"
  bottom: "ip1"
  top: "ip1"
}
layer {
  name: "ip2_c"
  type: "Convolution"
  bottom: "ip1"
  top: "ip2"
  convolution_param {
    num_output: 2
    pad: 0
    kernel_size: 1
    stride: 1
    weight_filler {
      type: "gaussian"
      std: 0.06
    }
    bias_filler {
      type: "constant"
      value: 0.1
    }
  }
}
layer {
  name: "accuracy"
  type: "Accuracy"
  bottom: "ip2"
  bottom: "label"
  top: "accuracy"
  include {
    phase: TEST
  }
}
layer {
  name: "loss"
  type: "SoftmaxWithLoss"
  bottom: "ip2"
  bottom: "label"
  top: "loss"
}
I0728 12:43:14.466801 113707 layer_factory.hpp:76] Creating layer data
I0728 12:43:14.466997 113707 net.cpp:106] Creating Layer data
I0728 12:43:14.467015 113707 net.cpp:411] data -> data
I0728 12:43:14.467030 113707 net.cpp:411] data -> label
I0728 12:43:17.794594 113707 net.cpp:150] Setting up data
I0728 12:43:17.794684 113707 net.cpp:157] Top shape: 64 3 63 63 (762048)
I0728 12:43:17.794699 113707 net.cpp:157] Top shape: 64 1 1 1 (64)
I0728 12:43:17.794708 113707 net.cpp:165] Memory required for data: 3048448
I0728 12:43:17.794726 113707 layer_factory.hpp:76] Creating layer label_data_1_split
I0728 12:43:17.794795 113707 net.cpp:106] Creating Layer label_data_1_split
I0728 12:43:17.794807 113707 net.cpp:454] label_data_1_split <- label
I0728 12:43:17.794821 113707 net.cpp:411] label_data_1_split -> label_data_1_split_0
I0728 12:43:17.794837 113707 net.cpp:411] label_data_1_split -> label_data_1_split_1
I0728 12:43:17.794886 113707 net.cpp:150] Setting up label_data_1_split
I0728 12:43:17.794901 113707 net.cpp:157] Top shape: 64 1 1 1 (64)
I0728 12:43:17.794911 113707 net.cpp:157] Top shape: 64 1 1 1 (64)
I0728 12:43:17.794919 113707 net.cpp:165] Memory required for data: 3048960
I0728 12:43:17.794929 113707 layer_factory.hpp:76] Creating layer conv1
I0728 12:43:17.794950 113707 net.cpp:106] Creating Layer conv1
I0728 12:43:17.794960 113707 net.cpp:454] conv1 <- data
I0728 12:43:17.794971 113707 net.cpp:411] conv1 -> conv1
I0728 12:43:17.796731 113707 net.cpp:150] Setting up conv1
I0728 12:43:17.796768 113707 net.cpp:157] Top shape: 64 16 60 60 (3686400)
I0728 12:43:17.796778 113707 net.cpp:165] Memory required for data: 17794560
I0728 12:43:17.796823 113707 layer_factory.hpp:76] Creating layer nonlin1
I0728 12:43:17.796854 113707 net.cpp:106] Creating Layer nonlin1
I0728 12:43:17.796865 113707 net.cpp:454] nonlin1 <- conv1
I0728 12:43:17.796880 113707 net.cpp:397] nonlin1 -> conv1 (in-place)
I0728 12:43:17.797062 113707 net.cpp:150] Setting up nonlin1
I0728 12:43:17.797080 113707 net.cpp:157] Top shape: 64 16 60 60 (3686400)
I0728 12:43:17.797089 113707 net.cpp:165] Memory required for data: 32540160
I0728 12:43:17.797099 113707 layer_factory.hpp:76] Creating layer pool1
I0728 12:43:17.797114 113707 net.cpp:106] Creating Layer pool1
I0728 12:43:17.797122 113707 net.cpp:454] pool1 <- conv1
I0728 12:43:17.797133 113707 net.cpp:411] pool1 -> pool1
I0728 12:43:17.797184 113707 net.cpp:150] Setting up pool1
I0728 12:43:17.797199 113707 net.cpp:157] Top shape: 64 16 30 30 (921600)
I0728 12:43:17.797206 113707 net.cpp:165] Memory required for data: 36226560
I0728 12:43:17.797214 113707 layer_factory.hpp:76] Creating layer conv2
I0728 12:43:17.797230 113707 net.cpp:106] Creating Layer conv2
I0728 12:43:17.797240 113707 net.cpp:454] conv2 <- pool1
I0728 12:43:17.797251 113707 net.cpp:411] conv2 -> conv2
I0728 12:43:17.798414 113707 net.cpp:150] Setting up conv2
I0728 12:43:17.798437 113707 net.cpp:157] Top shape: 64 16 28 28 (802816)
I0728 12:43:17.798447 113707 net.cpp:165] Memory required for data: 39437824
I0728 12:43:17.798461 113707 layer_factory.hpp:76] Creating layer nonlin2
I0728 12:43:17.798475 113707 net.cpp:106] Creating Layer nonlin2
I0728 12:43:17.798483 113707 net.cpp:454] nonlin2 <- conv2
I0728 12:43:17.798493 113707 net.cpp:397] nonlin2 -> conv2 (in-place)
I0728 12:43:17.799016 113707 net.cpp:150] Setting up nonlin2
I0728 12:43:17.799039 113707 net.cpp:157] Top shape: 64 16 28 28 (802816)
I0728 12:43:17.799048 113707 net.cpp:165] Memory required for data: 42649088
I0728 12:43:17.799057 113707 layer_factory.hpp:76] Creating layer pool2
I0728 12:43:17.799070 113707 net.cpp:106] Creating Layer pool2
I0728 12:43:17.799078 113707 net.cpp:454] pool2 <- conv2
I0728 12:43:17.799088 113707 net.cpp:411] pool2 -> pool2
I0728 12:43:17.799140 113707 net.cpp:150] Setting up pool2
I0728 12:43:17.799154 113707 net.cpp:157] Top shape: 64 16 14 14 (200704)
I0728 12:43:17.799163 113707 net.cpp:165] Memory required for data: 43451904
I0728 12:43:17.799172 113707 layer_factory.hpp:76] Creating layer conv3
I0728 12:43:17.799187 113707 net.cpp:106] Creating Layer conv3
I0728 12:43:17.799196 113707 net.cpp:454] conv3 <- pool2
I0728 12:43:17.799208 113707 net.cpp:411] conv3 -> conv3
I0728 12:43:17.800174 113707 net.cpp:150] Setting up conv3
I0728 12:43:17.800197 113707 net.cpp:157] Top shape: 64 16 12 12 (147456)
I0728 12:43:17.800206 113707 net.cpp:165] Memory required for data: 44041728
I0728 12:43:17.800221 113707 layer_factory.hpp:76] Creating layer nonlin3
I0728 12:43:17.800233 113707 net.cpp:106] Creating Layer nonlin3
I0728 12:43:17.800241 113707 net.cpp:454] nonlin3 <- conv3
I0728 12:43:17.800252 113707 net.cpp:397] nonlin3 -> conv3 (in-place)
I0728 12:43:17.800570 113707 net.cpp:150] Setting up nonlin3
I0728 12:43:17.800591 113707 net.cpp:157] Top shape: 64 16 12 12 (147456)
I0728 12:43:17.800600 113707 net.cpp:165] Memory required for data: 44631552
I0728 12:43:17.800609 113707 layer_factory.hpp:76] Creating layer pool3
I0728 12:43:17.800621 113707 net.cpp:106] Creating Layer pool3
I0728 12:43:17.800629 113707 net.cpp:454] pool3 <- conv3
I0728 12:43:17.800642 113707 net.cpp:411] pool3 -> pool3
I0728 12:43:17.800691 113707 net.cpp:150] Setting up pool3
I0728 12:43:17.800706 113707 net.cpp:157] Top shape: 64 16 6 6 (36864)
I0728 12:43:17.800714 113707 net.cpp:165] Memory required for data: 44779008
I0728 12:43:17.800724 113707 layer_factory.hpp:76] Creating layer conv4
I0728 12:43:17.800740 113707 net.cpp:106] Creating Layer conv4
I0728 12:43:17.800748 113707 net.cpp:454] conv4 <- pool3
I0728 12:43:17.800760 113707 net.cpp:411] conv4 -> conv4
I0728 12:43:17.801831 113707 cudnn_conv_layer.cpp:194] Reallocating workspace storage: 1728
I0728 12:43:17.801942 113707 net.cpp:150] Setting up conv4
I0728 12:43:17.801959 113707 net.cpp:157] Top shape: 64 16 4 4 (16384)
I0728 12:43:17.801967 113707 net.cpp:165] Memory required for data: 44844544
I0728 12:43:17.801980 113707 layer_factory.hpp:76] Creating layer nonlin4
I0728 12:43:17.801992 113707 net.cpp:106] Creating Layer nonlin4
I0728 12:43:17.802000 113707 net.cpp:454] nonlin4 <- conv4
I0728 12:43:17.802011 113707 net.cpp:397] nonlin4 -> conv4 (in-place)
I0728 12:43:17.802186 113707 net.cpp:150] Setting up nonlin4
I0728 12:43:17.802203 113707 net.cpp:157] Top shape: 64 16 4 4 (16384)
I0728 12:43:17.802211 113707 net.cpp:165] Memory required for data: 44910080
I0728 12:43:17.802219 113707 layer_factory.hpp:76] Creating layer pool4
I0728 12:43:17.802232 113707 net.cpp:106] Creating Layer pool4
I0728 12:43:17.802240 113707 net.cpp:454] pool4 <- conv4
I0728 12:43:17.802251 113707 net.cpp:411] pool4 -> pool4
I0728 12:43:17.802299 113707 net.cpp:150] Setting up pool4
I0728 12:43:17.802311 113707 net.cpp:157] Top shape: 64 16 2 2 (4096)
I0728 12:43:17.802320 113707 net.cpp:165] Memory required for data: 44926464
I0728 12:43:17.802328 113707 layer_factory.hpp:76] Creating layer ip1_c
I0728 12:43:17.802341 113707 net.cpp:106] Creating Layer ip1_c
I0728 12:43:17.802350 113707 net.cpp:454] ip1_c <- pool4
I0728 12:43:17.802361 113707 net.cpp:411] ip1_c -> ip1
I0728 12:43:17.803835 113707 cudnn_conv_layer.cpp:194] Reallocating workspace storage: 768
I0728 12:43:17.803869 113707 net.cpp:150] Setting up ip1_c
I0728 12:43:17.803880 113707 net.cpp:157] Top shape: 64 200 1 1 (12800)
I0728 12:43:17.803889 113707 net.cpp:165] Memory required for data: 44977664
I0728 12:43:17.803905 113707 layer_factory.hpp:76] Creating layer nonlin_ip1
I0728 12:43:17.803916 113707 net.cpp:106] Creating Layer nonlin_ip1
I0728 12:43:17.803925 113707 net.cpp:454] nonlin_ip1 <- ip1
I0728 12:43:17.803936 113707 net.cpp:397] nonlin_ip1 -> ip1 (in-place)
I0728 12:43:17.804255 113707 net.cpp:150] Setting up nonlin_ip1
I0728 12:43:17.804275 113707 net.cpp:157] Top shape: 64 200 1 1 (12800)
I0728 12:43:17.804285 113707 net.cpp:165] Memory required for data: 45028864
I0728 12:43:17.804293 113707 layer_factory.hpp:76] Creating layer ip2_c
I0728 12:43:17.804309 113707 net.cpp:106] Creating Layer ip2_c
I0728 12:43:17.804318 113707 net.cpp:454] ip2_c <- ip1
I0728 12:43:17.804330 113707 net.cpp:411] ip2_c -> ip2
I0728 12:43:17.805197 113707 cudnn_conv_layer.cpp:194] Reallocating workspace storage: 2400
I0728 12:43:17.805234 113707 net.cpp:150] Setting up ip2_c
I0728 12:43:17.805248 113707 net.cpp:157] Top shape: 64 2 1 1 (128)
I0728 12:43:17.805255 113707 net.cpp:165] Memory required for data: 45029376
I0728 12:43:17.805268 113707 layer_factory.hpp:76] Creating layer ip2_ip2_c_0_split
I0728 12:43:17.805279 113707 net.cpp:106] Creating Layer ip2_ip2_c_0_split
I0728 12:43:17.805289 113707 net.cpp:454] ip2_ip2_c_0_split <- ip2
I0728 12:43:17.805299 113707 net.cpp:411] ip2_ip2_c_0_split -> ip2_ip2_c_0_split_0
I0728 12:43:17.805311 113707 net.cpp:411] ip2_ip2_c_0_split -> ip2_ip2_c_0_split_1
I0728 12:43:17.805354 113707 net.cpp:150] Setting up ip2_ip2_c_0_split
I0728 12:43:17.805366 113707 net.cpp:157] Top shape: 64 2 1 1 (128)
I0728 12:43:17.805374 113707 net.cpp:157] Top shape: 64 2 1 1 (128)
I0728 12:43:17.805382 113707 net.cpp:165] Memory required for data: 45030400
I0728 12:43:17.805390 113707 layer_factory.hpp:76] Creating layer accuracy
I0728 12:43:17.805411 113707 net.cpp:106] Creating Layer accuracy
I0728 12:43:17.805420 113707 net.cpp:454] accuracy <- ip2_ip2_c_0_split_0
I0728 12:43:17.805429 113707 net.cpp:454] accuracy <- label_data_1_split_0
I0728 12:43:17.805440 113707 net.cpp:411] accuracy -> accuracy
…
