…
    }
  }
  layer {
    name: "data"
    type: "ImageData"
    top: "data"
    top: "label"
    include {
      phase: TEST
    }
    transform_param {
      mirror: true
      mean_value: 150
      mean_value: 150
      mean_value: 150
      rotation_angle_interval: 90
    }
    image_data_param {
      source: "../../step01_generate_traing_data/training_examples/list_stage1_te.lst"
      batch_size: 128
      shuffle: true
      new_height: 63
      new_width: 63
      root_folder: "../../step01_generate_traing_data/training_examples/"
    }
  }
  layer {
    name: "conv1"
    type: "Convolution"
    bottom: "data"
    top: "conv1"
    param {
      lr_mult: 1
      decay_mult: 1
    }
    param {
      lr_mult: 2
      decay_mult: 0
    }
    convolution_param {
      num_output: 16
      pad: 0
      kernel_size: 4
      stride: 1
      weight_filler {
        type: "gaussian"
        std: 0.07
      }
      bias_filler {
        type: "constant"
        value: 0.1
      }
    }
  }
  layer {
    name: "nonlin1"
    type: "ReLU"
    bottom: "conv1"
    top: "conv1"
  }
  layer {
    name: "pool1"
    type: "Pooling"
    bottom: "conv1"
    top: "pool1"
    pooling_param {
      pool: MAX
      kernel_size: 2
      stride: 2
      engine: CAFFE
    }
  }
  layer {
    name: "conv2"
    type: "Convolution"
    bottom: "pool1"
    top: "conv2"
    param {
      lr_mult: 1
      decay_mult: 1
    }
    param {
      lr_mult: 2
      decay_mult: 0
    }
    convolution_param {
      num_output: 16
      pad: 0
      kernel_size: 3
      stride: 1
      weight_filler {
        type: "gaussian"
        std: 0.04
      }
      bias_filler {
        type: "constant"
        value: 0.1
      }
    }
  }
  layer {
    name: "nonlin2"
    type: "ReLU"
    bottom: "conv2"
    top: "conv2"
  }
  layer {
    name: "pool2"
    type: "Pooling"
    bottom: "conv2"
    top: "pool2"
    pooling_param {
      pool: MAX
      kernel_size: 2
      stride: 2
      engine: CAFFE
    }
  }
  layer {
    name: "conv3"
    type: "Convolution"
    bottom: "pool2"
    top: "conv3"
    param {
      lr_mult: 1
      decay_mult: 1
    }
    param {
      lr_mult: 2
      decay_mult: 0
    }
    convolution_param {
      num_output: 16
      pad: 0
      kernel_size: 3
      stride: 1
      weight_filler {
        type: "gaussian"
        std: 0.04
      }
      bias_filler {
        type: "constant"
        value: 0.1
      }
    }
  }
  layer {
    name: "nonlin3"
    type: "ReLU"
    bottom: "conv3"
    top: "conv3"
  }
  layer {
    name: "pool3"
    type: "Pooling"
    bottom: "conv3"
    top: "pool3"
    pooling_param {
      pool: MAX
      kernel_size: 2
      stride: 2
      engine: CAFFE
    }
  }
  layer {
    name: "conv4"
    type: "Convolution"
    bottom: "pool3"
    top: "conv4"
    param {
      lr_mult: 1
      decay_mult: 1
    }
    param {
      lr_mult: 2
      decay_mult: 0
    }
    convolution_param {
      num_output: 16
      pad: 0
      kernel_size: 3
      stride: 1
      weight_filler {
        type: "gaussian"
        std: 0.04
      }
      bias_filler {
        type: "constant"
        value: 0.1
      }
    }
  }
  layer {
    name: "nonlin4"
    type: "ReLU"
    bottom: "conv4"
    top: "conv4"
  }
  layer {
    name: "pool4"
    type: "Pooling"
    bottom: "conv4"
    top: "pool4"
    pooling_param {
      pool: MAX
      kernel_size: 2
      stride: 2
      engine: CAFFE
    }
  }
  layer {
    name: "ip1_c"
    type: "Convolution"
    bottom: "pool4"
    top: "ip1"
    convolution_param {
      num_output: 200
      pad: 0
      kernel_size: 2
      stride: 1
      weight_filler {
        type: "gaussian"
        std: 0.03
      }
      bias_filler {
        type: "constant"
        value: 0.1
      }
    }
  }
  layer {
    name: "nonlin_ip1"
    type: "ReLU"
    bottom: "ip1"
    top: "ip1"
  }
  layer {
    name: "ip2_c"
    type: "Convolution"
    bottom: "ip1"
    top: "ip2"
    convolution_param {
      num_output: 2
      pad: 0
      kernel_size: 1
      stride: 1
      weight_filler {
        type: "gaussian"
        std: 0.06
      }
      bias_filler {
        type: "constant"
        value: 0.1
      }
    }
  }
  layer {
    name: "accuracy"
    type: "Accuracy"
    bottom: "ip2"
    bottom: "label"
    top: "accuracy"
    include {
      phase: TEST
    }
  }
  layer {
    name: "loss"
    type: "SoftmaxWithLoss"
    bottom: "ip2"
    bottom: "label"
    top: "loss"
  }
}
test_initialization: true
average_loss: 100
I0801 17:19:10.025888 125500 solver.cpp:91] Creating training net specified in net_param.
I0801 17:19:10.026067 125500 net.cpp:339] The NetState phase (0) differed from the phase (1) specified by a rule in layer data
I0801 17:19:10.026104 125500 net.cpp:339] The NetState phase (0) differed from the phase (1) specified by a rule in layer accuracy
I0801 17:19:10.026278 125500 net.cpp:50] Initializing net from parameters: 
name: "Net"
state {
  phase: TRAIN
}
layer {
  name: "data"
  type: "ImageData"
  top: "data"
  top: "label"
  include {
    phase: TRAIN
  }
  transform_param {
    mirror: true
    mean_value: 150
    mean_value: 150
    mean_value: 150
    rotation_angle_interval: 90
    contrast_adjustment: true
    color_noise: 10
  }
  image_data_param {
    source: "../../step01_generate_traing_data/training_examples/list_stage1_tr.lst"
    batch_size: 64
    shuffle: true
    new_height: 63
    new_width: 63
    root_folder: "../../step01_generate_traing_data/training_examples/"
  }
}
layer {
  name: "conv1"
  type: "Convolution"
  bottom: "data"
  top: "conv1"
  param {
    lr_mult: 1
    decay_mult: 1
  }
  param {
    lr_mult: 2
    decay_mult: 0
  }
  convolution_param {
    num_output: 16
    pad: 0
    kernel_size: 4
    stride: 1
    weight_filler {
      type: "gaussian"
      std: 0.07
    }
    bias_filler {
      type: "constant"
      value: 0.1
    }
  }
}
layer {
  name: "nonlin1"
  type: "ReLU"
  bottom: "conv1"
  top: "conv1"
}
layer {
  name: "pool1"
  type: "Pooling"
  bottom: "conv1"
  top: "pool1"
  pooling_param {
    pool: MAX
    kernel_size: 2
    stride: 2
    engine: CAFFE
  }
}
layer {
  name: "conv2"
  type: "Convolution"
  bottom: "pool1"
  top: "conv2"
  param {
    lr_mult: 1
    decay_mult: 1
  }
  param {
    lr_mult: 2
    decay_mult: 0
  }
  convolution_param {
    num_output: 16
    pad: 0
    kernel_size: 3
    stride: 1
    weight_filler {
      type: "gaussian"
      std: 0.04
    }
    bias_filler {
      type: "constant"
      value: 0.1
    }
  }
}
layer {
  name: "nonlin2"
  type: "ReLU"
  bottom: "conv2"
  top: "conv2"
}
layer {
  name: "pool2"
  type: "Pooling"
  bottom: "conv2"
  top: "pool2"
  pooling_param {
    pool: MAX
    kernel_size: 2
    stride: 2
    engine: CAFFE
  }
}
layer {
  name: "conv3"
  type: "Convolution"
  bottom: "pool2"
  top: "conv3"
  param {
    lr_mult: 1
    decay_mult: 1
  }
  param {
    lr_mult: 2
    decay_mult: 0
  }
  convolution_param {
    num_output: 16
    pad: 0
    kernel_size: 3
    stride: 1
    weight_filler {
      type: "gaussian"
      std: 0.04
    }
    bias_filler {
      type: "constant"
      value: 0.1
    }
  }
}
layer {
  name: "nonlin3"
  type: "ReLU"
  bottom: "conv3"
  top: "conv3"
}
layer {
  name: "pool3"
  type: "Pooling"
  bottom: "conv3"
  top: "pool3"
  pooling_param {
    pool: MAX
    kernel_size: 2
    stride: 2
    engine: CAFFE
  }
}
layer {
  name: "conv4"
  type: "Convolution"
  bottom: "pool3"
  top: "conv4"
  param {
    lr_mult: 1
    decay_mult: 1
  }
  param {
    lr_mult: 2
    decay_mult: 0
  }
  convolution_param {
    num_output: 16
    pad: 0
    kernel_size: 3
    stride: 1
    weight_filler {
      type: "gaussian"
      std: 0.04
    }
    bias_filler {
      type: "constant"
      value: 0.1
    }
  }
}
layer {
  name: "nonlin4"
  type: "ReLU"
  bottom: "conv4"
  top: "conv4"
}
layer {
  name: "pool4"
  type: "Pooling"
  bottom: "conv4"
  top: "pool4"
  pooling_param {
    pool: MAX
    kernel_size: 2
    stride: 2
    engine: CAFFE
  }
}
layer {
  name: "ip1_c"
  type: "Convolution"
  bottom: "pool4"
  top: "ip1"
  convolution_param {
    num_output: 200
    pad: 0
    kernel_size: 2
    stride: 1
    weight_filler {
      type: "gaussian"
      std: 0.03
    }
    bias_filler {
      type: "constant"
      value: 0.1
    }
  }
}
layer {
  name: "nonlin_ip1"
  type: "ReLU"
  bottom: "ip1"
  top: "ip1"
}
layer {
  name: "ip2_c"
  type: "Convolution"
  bottom: "ip1"
  top: "ip2"
  convolution_param {
    num_output: 2
    pad: 0
    kernel_size: 1
    stride: 1
    weight_filler {
      type: "gaussian"
      std: 0.06
    }
    bias_filler {
      type: "constant"
      value: 0.1
    }
  }
}
layer {
  name: "loss"
  type: "SoftmaxWithLoss"
  bottom: "ip2"
  bottom: "label"
  top: "loss"
}
I0801 17:19:10.027402 125500 layer_factory.hpp:76] Creating layer data
I0801 17:19:10.027490 125500 net.cpp:110] Creating Layer data
I0801 17:19:10.027518 125500 net.cpp:433] data -> data
I0801 17:19:10.027559 125500 net.cpp:433] data -> label
I0801 17:19:10.027957 125500 image_data_layer.cpp:36] Opening file ../../step01_generate_traing_data/training_examples/list_stage1_tr.lst
I0801 17:19:10.045120 125500 image_data_layer.cpp:46] Shuffling data
I0801 17:19:10.050034 125500 image_data_layer.cpp:51] A total of 43298 images.
I0801 17:19:10.050611 125500 image_data_layer.cpp:78] output data size: 64,3,63,63
I0801 17:19:10.065196 125500 net.cpp:155] Setting up data
I0801 17:19:10.065274 125500 net.cpp:163] Top shape: 64 3 63 63 (762048)
I0801 17:19:10.065286 125500 net.cpp:163] Top shape: 64 (64)
I0801 17:19:10.065300 125500 layer_factory.hpp:76] Creating layer conv1
I0801 17:19:10.065333 125500 net.cpp:110] Creating Layer conv1
I0801 17:19:10.065358 125500 net.cpp:477] conv1 <- data
I0801 17:19:10.065382 125500 net.cpp:433] conv1 -> conv1
I0801 17:19:10.201511 125500 net.cpp:155] Setting up conv1
I0801 17:19:10.201576 125500 net.cpp:163] Top shape: 64 16 60 60 (3686400)
I0801 17:19:10.201612 125500 layer_factory.hpp:76] Creating layer nonlin1
I0801 17:19:10.201634 125500 net.cpp:110] Creating Layer nonlin1
I0801 17:19:10.201647 125500 net.cpp:477] nonlin1 <- conv1
I0801 17:19:10.201658 125500 net.cpp:419] nonlin1 -> conv1 (in-place)
I0801 17:19:10.201830 125500 net.cpp:155] Setting up nonlin1
I0801 17:19:10.201856 125500 net.cpp:163] Top shape: 64 16 60 60 (3686400)
I0801 17:19:10.201865 125500 layer_factory.hpp:76] Creating layer pool1
I0801 17:19:10.201879 125500 net.cpp:110] Creating Layer pool1
I0801 17:19:10.201887 125500 net.cpp:477] pool1 <- conv1
I0801 17:19:10.201897 125500 net.cpp:433] pool1 -> pool1
I0801 17:19:10.201927 125500 net.cpp:155] Setting up pool1
I0801 17:19:10.201941 125500 net.cpp:163] Top shape: 64 16 30 30 (921600)
I0801 17:19:10.201961 125500 layer_factory.hpp:76] Creating layer conv2
I0801 17:19:10.201977 125500 net.cpp:110] Creating Layer conv2
I0801 17:19:10.201985 125500 net.cpp:477] conv2 <- pool1
I0801 17:19:10.201994 125500 net.cpp:433] conv2 -> conv2
I0801 17:19:10.203002 125500 net.cpp:155] Setting up conv2
I0801 17:19:10.203042 125500 net.cpp:163] Top shape: 64 16 28 28 (802816)
I0801 17:19:10.203073 125500 layer_factory.hpp:76] Creating layer nonlin2
I0801 17:19:10.203086 125500 net.cpp:110] Creating Layer nonlin2
I0801 17:19:10.203095 125500 net.cpp:477] nonlin2 <- conv2
I0801 17:19:10.203142 125500 net.cpp:419] nonlin2 -> conv2 (in-place)
I0801 17:19:10.203438 125500 net.cpp:155] Setting up nonlin2
I0801 17:19:10.203469 125500 net.cpp:163] Top shape: 64 16 28 28 (802816)
I0801 17:19:10.203477 125500 layer_factory.hpp:76] Creating layer pool2
I0801 17:19:10.203493 125500 net.cpp:110] Creating Layer pool2
I0801 17:19:10.203502 125500 net.cpp:477] pool2 <- conv2
I0801 17:19:10.203511 125500 net.cpp:433] pool2 -> pool2
I0801 17:19:10.203524 125500 net.cpp:155] Setting up pool2
I0801 17:19:10.203533 125500 net.cpp:163] Top shape: 64 16 14 14 (200704)
I0801 17:19:10.203542 125500 layer_factory.hpp:76] Creating layer conv3
I0801 17:19:10.203553 125500 net.cpp:110] Creating Layer conv3
I0801 17:19:10.203562 125500 net.cpp:477] conv3 <- pool2
I0801 17:19:10.203572 125500 net.cpp:433] conv3 -> conv3
I0801 17:19:10.204583 125500 net.cpp:155] Setting up conv3
I0801 17:19:10.204634 125500 net.cpp:163] Top shape: 64 16 12 12 (147456)
I0801 17:19:10.204654 125500 layer_factory.hpp:76] Creating layer nonlin3
I0801 17:19:10.204670 125500 net.cpp:110] Creating Layer nonlin3
I0801 17:19:10.204679 125500 net.cpp:477] nonlin3 <- conv3
I0801 17:19:10.204689 125500 net.cpp:419] nonlin3 -> conv3 (in-place)
I0801 17:19:10.204911 125500 net.cpp:155] Setting up nonlin3
I0801 17:19:10.204938 125500 net.cpp:163] Top shape: 64 16 12 12 (147456)
I0801 17:19:10.204947 125500 layer_factory.hpp:76] Creating layer pool3
I0801 17:19:10.204959 125500 net.cpp:110] Creating Layer pool3
I0801 17:19:10.204967 125500 net.cpp:477] pool3 <- conv3
I0801 17:19:10.204978 125500 net.cpp:433] pool3 -> pool3
I0801 17:19:10.204990 125500 net.cpp:155] Setting up pool3
I0801 17:19:10.204999 125500 net.cpp:163] Top shape: 64 16 6 6 (36864)
I0801 17:19:10.205006 125500 layer_factory.hpp:76] Creating layer conv4
I0801 17:19:10.205020 125500 net.cpp:110] Creating Layer conv4
I0801 17:19:10.205029 125500 net.cpp:477] conv4 <- pool3
I0801 17:19:10.205037 125500 net.cpp:433] conv4 -> conv4
I0801 17:19:10.206008 125500 net.cpp:155] Setting up conv4
I0801 17:19:10.206046 125500 net.cpp:163] Top shape: 64 16 4 4 (16384)
I0801 17:19:10.206065 125500 layer_factory.hpp:76] Creating layer nonlin4
I0801 17:19:10.206086 125500 net.cpp:110] Creating Layer nonlin4
I0801 17:19:10.206099 125500 net.cpp:477] nonlin4 <- conv4
I0801 17:19:10.206120 125500 net.cpp:419] nonlin4 -> conv4 (in-place)
I0801 17:19:10.206400 125500 net.cpp:155] Setting up nonlin4
I0801 17:19:10.206432 125500 net.cpp:163] Top shape: 64 16 4 4 (16384)
I0801 17:19:10.206454 125500 layer_factory.hpp:76] Creating layer pool4
I0801 17:19:10.206468 125500 net.cpp:110] Creating Layer pool4
I0801 17:19:10.206477 125500 net.cpp:477] pool4 <- conv4
I0801 17:19:10.206486 125500 net.cpp:433] pool4 -> pool4
I0801 17:19:10.206499 125500 net.cpp:155] Setting up pool4
I0801 17:19:10.206508 125500 net.cpp:163] Top shape: 64 16 2 2 (4096)
I0801 17:19:10.206517 125500 layer_factory.hpp:76] Creating layer ip1_c
I0801 17:19:10.206539 125500 net.cpp:110] Creating Layer ip1_c
I0801 17:19:10.206570 125500 net.cpp:477] ip1_c <- pool4
I0801 17:19:10.206584 125500 net.cpp:433] ip1_c -> ip1
I0801 17:19:10.208724 125500 net.cpp:155] Setting up ip1_c
I0801 17:19:10.208755 125500 net.cpp:163] Top shape: 64 200 1 1 (12800)
I0801 17:19:10.208773 125500 layer_factory.hpp:76] Creating layer nonlin_ip1
I0801 17:19:10.208784 125500 net.cpp:110] Creating Layer nonlin_ip1
I0801 17:19:10.208793 125500 net.cpp:477] nonlin_ip1 <- ip1
I0801 17:19:10.208802 125500 net.cpp:419] nonlin_ip1 -> ip1 (in-place)
I0801 17:19:10.209148 125500 net.cpp:155] Setting up nonlin_ip1
I0801 17:19:10.209184 125500 net.cpp:163] Top shape: 64 200 1 1 (12800)
I0801 17:19:10.209197 125500 layer_factory.hpp:76] Creating layer ip2_c
I0801 17:19:10.209208 125500 net.cpp:110] Creating Layer ip2_c
I0801 17:19:10.209224 125500 net.cpp:477] ip2_c <- ip1
I0801 17:19:10.209241 125500 net.cpp:433] ip2_c -> ip2
I0801 17:19:10.210258 125500 net.cpp:155] Setting up ip2_c
I0801 17:19:10.210289 125500 net.cpp:163] Top shape: 64 2 1 1 (128)
I0801 17:19:10.210301 125500 layer_factory.hpp:76] Creating layer loss
I0801 17:19:10.210336 125500 net.cpp:110] Creating Layer loss
I0801 17:19:10.210348 125500 net.cpp:477] loss <- ip2
I0801 17:19:10.210369 125500 net.cpp:477] loss <- label
I0801 17:19:10.210384 125500 net.cpp:433] loss -> loss
I0801 17:19:10.210404 125500 layer_factory.hpp:76] Creating layer loss
I0801 17:19:10.210685 125500 net.cpp:155] Setting up loss
…
I0801 17:19:10.211297 125500 net.cpp:50] Initializing net from parameters: 
name: "Net"
state {
  phase: TEST
}
layer {
  name: "data"
  type: "ImageData"
  top: "data"
  top: "label"
  include {
    phase: TEST
  }
  transform_param {
    mirror: true
    mean_value: 150
    mean_value: 150
    mean_value: 150
    rotation_angle_interval: 90
  }
  image_data_param {
    source: "../../step01_generate_traing_data/training_examples/list_stage1_te.lst"
    batch_size: 128
    shuffle: true
    new_height: 63
    new_width: 63
    root_folder: "../../step01_generate_traing_data/training_examples/"
  }
}
layer {
  name: "conv1"
  type: "Convolution"
  bottom: "data"
  top: "conv1"
  param {
    lr_mult: 1
    decay_mult: 1
  }
  param {
    lr_mult: 2
    decay_mult: 0
  }
  convolution_param {
    num_output: 16
    pad: 0
    kernel_size: 4
    stride: 1
    weight_filler {
      type: "gaussian"
      std: 0.07
    }
    bias_filler {
      type: "constant"
      value: 0.1
    }
  }
}
layer {
  name: "nonlin1"
  type: "ReLU"
  bottom: "conv1"
  top: "conv1"
}
layer {
  name: "pool1"
  type: "Pooling"
  bottom: "conv1"
  top: "pool1"
  pooling_param {
    pool: MAX
    kernel_size: 2
    stride: 2
    engine: CAFFE
  }
}
layer {
  name: "conv2"
  type: "Convolution"
  bottom: "pool1"
  top: "conv2"
  param {
    lr_mult: 1
    decay_mult: 1
  }
  param {
    lr_mult: 2
    decay_mult: 0
  }
  convolution_param {
    num_output: 16
    pad: 0
    kernel_size: 3
    stride: 1
    weight_filler {
      type: "gaussian"
      std: 0.04
    }
    bias_filler {
      type: "constant"
      value: 0.1
    }
  }
}
layer {
  name: "nonlin2"
  type: "ReLU"
  bottom: "conv2"
  top: "conv2"
}
layer {
  name: "pool2"
  type: "Pooling"
  bottom: "conv2"
  top: "pool2"
  pooling_param {
    pool: MAX
    kernel_size: 2
    stride: 2
    engine: CAFFE
  }
}
layer {
  name: "conv3"
  type: "Convolution"
  bottom: "pool2"
  top: "conv3"
  param {
    lr_mult: 1
    decay_mult: 1
  }
  param {
    lr_mult: 2
    decay_mult: 0
  }
  convolution_param {
    num_output: 16
    pad: 0
    kernel_size: 3
    stride: 1
    weight_filler {
      type: "gaussian"
      std: 0.04
    }
    bias_filler {
      type: "constant"
      value: 0.1
    }
  }
}
layer {
  name: "nonlin3"
  type: "ReLU"
  bottom: "conv3"
  top: "conv3"
}
layer {
  name: "pool3"
  type: "Pooling"
  bottom: "conv3"
  top: "pool3"
  pooling_param {
    pool: MAX
    kernel_size: 2
    stride: 2
    engine: CAFFE
  }
}
layer {
  name: "conv4"
  type: "Convolution"
  bottom: "pool3"
  top: "conv4"
  param {
    lr_mult: 1
    decay_mult: 1
  }
  param {
    lr_mult: 2
    decay_mult: 0
  }
  convolution_param {
    num_output: 16
    pad: 0
    kernel_size: 3
    stride: 1
    weight_filler {
      type: "gaussian"
      std: 0.04
    }
    bias_filler {
      type: "constant"
      value: 0.1
    }
  }
}
layer {
  name: "nonlin4"
  type: "ReLU"
  bottom: "conv4"
  top: "conv4"
}
layer {
  name: "pool4"
  type: "Pooling"
  bottom: "conv4"
  top: "pool4"
  pooling_param {
    pool: MAX
    kernel_size: 2
    stride: 2
    engine: CAFFE
  }
}
layer {
  name: "ip1_c"
  type: "Convolution"
  bottom: "pool4"
  top: "ip1"
  convolution_param {
    num_output: 200
    pad: 0
    kernel_size: 2
    stride: 1
    weight_filler {
      type: "gaussian"
      std: 0.03
    }
    bias_filler {
      type: "constant"
      value: 0.1
    }
  }
}
layer {
  name: "nonlin_ip1"
  type: "ReLU"
  bottom: "ip1"
  top: "ip1"
}
layer {
  name: "ip2_c"
  type: "Convolution"
  bottom: "ip1"
  top: "ip2"
  convolution_param {
    num_output: 2
    pad: 0
    kernel_size: 1
    stride: 1
    weight_filler {
      type: "gaussian"
      std: 0.06
    }
    bias_filler {
      type: "constant"
      value: 0.1
    }
  }
}
layer {
  name: "accuracy"
  type: "Accuracy"
  bottom: "ip2"
  bottom: "label"
  top: "accuracy"
  include {
    phase: TEST
  }
}
layer {
  name: "loss"
  type: "SoftmaxWithLoss"
  bottom: "ip2"
  bottom: "label"
  top: "loss"
}
I0801 17:19:10.212476 125500 layer_factory.hpp:76] Creating layer data
I0801 17:19:10.212538 125500 net.cpp:110] Creating Layer data
I0801 17:19:10.212550 125500 net.cpp:433] data -> data
I0801 17:19:10.212563 125500 net.cpp:433] data -> label
I0801 17:19:10.212581 125500 image_data_layer.cpp:36] Opening file ../../step01_generate_traing_data/training_examples/list_stage1_te.lst
I0801 17:19:10.214802 125500 image_data_layer.cpp:46] Shuffling data
I0801 17:19:10.215178 125500 image_data_layer.cpp:51] A total of 4810 images.
I0801 17:19:10.215597 125500 image_data_layer.cpp:78] output data size: 128,3,63,63
I0801 17:19:10.231328 125500 net.cpp:155] Setting up data
I0801 17:19:10.231428 125500 net.cpp:163] Top shape: 128 3 63 63 (1524096)
I0801 17:19:10.231444 125500 net.cpp:163] Top shape: 128 (128)
I0801 17:19:10.231462 125500 layer_factory.hpp:76] Creating layer label_data_1_split
I0801 17:19:10.231495 125500 net.cpp:110] Creating Layer label_data_1_split
I0801 17:19:10.231511 125500 net.cpp:477] label_data_1_split <- label
I0801 17:19:10.231528 125500 net.cpp:433] label_data_1_split -> label_data_1_split_0
I0801 17:19:10.231550 125500 net.cpp:433] label_data_1_split -> label_data_1_split_1
I0801 17:19:10.231601 125500 net.cpp:155] Setting up label_data_1_split
I0801 17:19:10.231612 125500 net.cpp:163] Top shape: 128 (128)
I0801 17:19:10.231632 125500 net.cpp:163] Top shape: 128 (128)
I0801 17:19:10.231640 125500 layer_factory.hpp:76] Creating layer conv1
I0801 17:19:10.231662 125500 net.cpp:110] Creating Layer conv1
I0801 17:19:10.231672 125500 net.cpp:477] conv1 <- data
I0801 17:19:10.231699 125500 net.cpp:433] conv1 -> conv1
I0801 17:19:10.233003 125500 net.cpp:155] Setting up conv1
I0801 17:19:10.233037 125500 net.cpp:163] Top shape: 128 16 60 60 (7372800)
I0801 17:19:10.233057 125500 layer_factory.hpp:76] Creating layer nonlin1
I0801 17:19:10.233103 125500 net.cpp:110] Creating Layer nonlin1
I0801 17:19:10.233117 125500 net.cpp:477] nonlin1 <- conv1
I0801 17:19:10.233129 125500 net.cpp:419] nonlin1 -> conv1 (in-place)
I0801 17:19:10.233986 125500 net.cpp:155] Setting up nonlin1
I0801 17:19:10.234016 125500 net.cpp:163] Top shape: 128 16 60 60 (7372800)
I0801 17:19:10.234032 125500 layer_factory.hpp:76] Creating layer pool1
I0801 17:19:10.234055 125500 net.cpp:110] Creating Layer pool1
I0801 17:19:10.234086 125500 net.cpp:477] pool1 <- conv1
I0801 17:19:10.234103 125500 net.cpp:433] pool1 -> pool1
I0801 17:19:10.234136 125500 net.cpp:155] Setting up pool1
I0801 17:19:10.234163 125500 net.cpp:163] Top shape: 128 16 30 30 (1843200)
I0801 17:19:10.234177 125500 layer_factory.hpp:76] Creating layer conv2
I0801 17:19:10.234195 125500 net.cpp:110] Creating Layer conv2
I0801 17:19:10.234221 125500 net.cpp:477] conv2 <- pool1
I0801 17:19:10.234241 125500 net.cpp:433] conv2 -> conv2
I0801 17:19:10.235435 125500 net.cpp:155] Setting up conv2
I0801 17:19:10.235466 125500 net.cpp:163] Top shape: 128 16 28 28 (1605632)
I0801 17:19:10.235482 125500 layer_factory.hpp:76] Creating layer nonlin2
I0801 17:19:10.235494 125500 net.cpp:110] Creating Layer nonlin2
I0801 17:19:10.235505 125500 net.cpp:477] nonlin2 <- conv2
I0801 17:19:10.235517 125500 net.cpp:419] nonlin2 -> conv2 (in-place)
I0801 17:19:10.235872 125500 net.cpp:155] Setting up nonlin2
I0801 17:19:10.235905 125500 net.cpp:163] Top shape: 128 16 28 28 (1605632)
I0801 17:19:10.235918 125500 layer_factory.hpp:76] Creating layer pool2
I0801 17:19:10.235934 125500 net.cpp:110] Creating Layer pool2
I0801 17:19:10.235949 125500 net.cpp:477] pool2 <- conv2
I0801 17:19:10.235960 125500 net.cpp:433] pool2 -> pool2
I0801 17:19:10.235972 125500 net.cpp:155] Setting up pool2
I0801 17:19:10.235982 125500 net.cpp:163] Top shape: 128 16 14 14 (401408)
I0801 17:19:10.235992 125500 layer_factory.hpp:76] Creating layer conv3
I0801 17:19:10.236032 125500 net.cpp:110] Creating Layer conv3
I0801 17:19:10.236045 125500 net.cpp:477] conv3 <- pool2
I0801 17:19:10.236076 125500 net.cpp:433] conv3 -> conv3
I0801 17:19:10.237105 125500 net.cpp:155] Setting up conv3
I0801 17:19:10.237140 125500 net.cpp:163] Top shape: 128 16 12 12 (294912)
I0801 17:19:10.237155 125500 layer_factory.hpp:76] Creating layer nonlin3
I0801 17:19:10.237166 125500 net.cpp:110] Creating Layer nonlin3
I0801 17:19:10.237174 125500 net.cpp:477] nonlin3 <- conv3
I0801 17:19:10.237185 125500 net.cpp:419] nonlin3 -> conv3 (in-place)
I0801 17:19:10.237360 125500 net.cpp:155] Setting up nonlin3
I0801 17:19:10.237386 125500 net.cpp:163] Top shape: 128 16 12 12 (294912)
I0801 17:19:10.237395 125500 layer_factory.hpp:76] Creating layer pool3
I0801 17:19:10.237406 125500 net.cpp:110] Creating Layer pool3
I0801 17:19:10.237413 125500 net.cpp:477] pool3 <- conv3
I0801 17:19:10.237427 125500 net.cpp:433] pool3 -> pool3
I0801 17:19:10.237442 125500 net.cpp:155] Setting up pool3
I0801 17:19:10.237452 125500 net.cpp:163] Top shape: 128 16 6 6 (73728)
I0801 17:19:10.237458 125500 layer_factory.hpp:76] Creating layer conv4
I0801 17:19:10.237474 125500 net.cpp:110] Creating Layer conv4
I0801 17:19:10.237483 125500 net.cpp:477] conv4 <- pool3
I0801 17:19:10.237493 125500 net.cpp:433] conv4 -> conv4
I0801 17:19:10.238371 125500 net.cpp:155] Setting up conv4
I0801 17:19:10.238401 125500 net.cpp:163] Top shape: 128 16 4 4 (32768)
I0801 17:19:10.238414 125500 layer_factory.hpp:76] Creating layer nonlin4
I0801 17:19:10.238426 125500 net.cpp:110] Creating Layer nonlin4
I0801 17:19:10.238435 125500 net.cpp:477] nonlin4 <- conv4
I0801 17:19:10.238443 125500 net.cpp:419] nonlin4 -> conv4 (in-place)
I0801 17:19:10.238651 125500 net.cpp:155] Setting up nonlin4
I0801 17:19:10.238687 125500 net.cpp:163] Top shape: 128 16 4 4 (32768)
I0801 17:19:10.238700 125500 layer_factory.hpp:76] Creating layer pool4
I0801 17:19:10.238737 125500 net.cpp:110] Creating Layer pool4
I0801 17:19:10.238749 125500 net.cpp:477] pool4 <- conv4
I0801 17:19:10.238765 125500 net.cpp:433] pool4 -> pool4
I0801 17:19:10.238800 125500 net.cpp:155] Setting up pool4
I0801 17:19:10.238829 125500 net.cpp:163] Top shape: 128 16 2 2 (8192)
I0801 17:19:10.238860 125500 layer_factory.hpp:76] Creating layer ip1_c
I0801 17:19:10.238879 125500 net.cpp:110] Creating Layer ip1_c
I0801 17:19:10.238893 125500 net.cpp:477] ip1_c <- pool4
I0801 17:19:10.238939 125500 net.cpp:433] ip1_c -> ip1
I0801 17:19:10.240312 125500 net.cpp:155] Setting up ip1_c
I0801 17:19:10.240344 125500 net.cpp:163] Top shape: 128 200 1 1 (25600)
I0801 17:19:10.240360 125500 layer_factory.hpp:76] Creating layer nonlin_ip1
I0801 17:19:10.240371 125500 net.cpp:110] Creating Layer nonlin_ip1
I0801 17:19:10.240381 125500 net.cpp:477] nonlin_ip1 <- ip1
I0801 17:19:10.240389 125500 net.cpp:419] nonlin_ip1 -> ip1 (in-place)
I0801 17:19:10.240754 125500 net.cpp:155] Setting up nonlin_ip1
I0801 17:19:10.240792 125500 net.cpp:163] Top shape: 128 200 1 1 (25600)
I0801 17:19:10.240808 125500 layer_factory.hpp:76] Creating layer ip2_c
I0801 17:19:10.240831 125500 net.cpp:110] Creating Layer ip2_c
I0801 17:19:10.240859 125500 net.cpp:477] ip2_c <- ip1
I0801 17:19:10.240892 125500 net.cpp:433] ip2_c -> ip2
I0801 17:19:10.241864 125500 net.cpp:155] Setting up ip2_c
I0801 17:19:10.241894 125500 net.cpp:163] Top shape: 128 2 1 1 (256)
I0801 17:19:10.241906 125500 layer_factory.hpp:76] Creating layer ip2_ip2_c_0_split
I0801 17:19:10.241919 125500 net.cpp:110] Creating Layer ip2_ip2_c_0_split
I0801 17:19:10.241927 125500 net.cpp:477] ip2_ip2_c_0_split <- ip2
I0801 17:19:10.241936 125500 net.cpp:433] ip2_ip2_c_0_split -> ip2_ip2_c_0_split_0
I0801 17:19:10.241947 125500 net.cpp:433] ip2_ip2_c_0_split -> ip2_ip2_c_0_split_1
I0801 17:19:10.241958 125500 net.cpp:155] Setting up ip2_ip2_c_0_split
I0801 17:19:10.241969 125500 net.cpp:163] Top shape: 128 2 1 1 (256)
I0801 17:19:10.241977 125500 net.cpp:163] Top shape: 128 2 1 1 (256)
I0801 17:19:10.241986 125500 layer_factory.hpp:76] Creating layer accuracy
I0801 17:19:10.242000 125500 net.cpp:110] Creating Layer accuracy
I0801 17:19:10.242008 125500 net.cpp:477] accuracy <- ip2_ip2_c_0_split_0
I0801 17:19:10.242017 125500 net.cpp:477] accuracy <- label_data_1_split_0
I0801 17:19:10.242027 125500 net.cpp:433] accuracy -> accuracy
I0801 17:19:10.242046 125500 net.cpp:155] Setting up accuracy
…
