…
I0701 18:55:40.454077 14975 net.cpp:322] The NetState phase (0) differed from the phase (1) specified by a rule in layer accuracy
I0701 18:55:40.454375 14975 net.cpp:49] Initializing net from parameters: 
name: "VGG-13 Fully Convolutional"
state {
  phase: TRAIN
}
layer {
  name: "data"
  type: "ImageData"
  top: "data"
  top: "label"
  include {
    phase: TRAIN
  }
  transform_param {
    mirror: true
    crop_size: 224
    mean_value: 104
    mean_value: 117
    mean_value: 123
  }
  image_data_param {
    source: "../lists/roi-train.lst"
    batch_size: 128
    shuffle: true
    new_height: 256
    new_width: 256
  }
}
layer {
  name: "conv1_1"
  type: "Convolution"
  bottom: "data"
  top: "conv1_1"
  param {
    lr_mult: 1
    decay_mult: 1
  }
  param {
    lr_mult: 2
    decay_mult: 0
  }
  convolution_param {
    num_output: 64
    pad: 1
    kernel_size: 3
    weight_filler {
      type: "msra"
      std: 0.1
    }
    bias_filler {
      type: "constant"
      value: 0.2
    }
  }
}
layer {
  name: "relu1_1"
  type: "ReLU"
  bottom: "conv1_1"
  top: "conv1_1"
}
layer {
  name: "conv1_2"
  type: "Convolution"
  bottom: "conv1_1"
  top: "conv1_2"
  param {
    lr_mult: 1
    decay_mult: 1
  }
  param {
    lr_mult: 2
    decay_mult: 0
  }
  convolution_param {
    num_output: 64
    pad: 1
    kernel_size: 3
    weight_filler {
      type: "msra"
      std: 0.1
    }
    bias_filler {
      type: "constant"
      value: 0.2
    }
  }
}
layer {
  name: "relu1_2"
  type: "ReLU"
  bottom: "conv1_2"
  top: "conv1_2"
}
layer {
  name: "pool1"
  type: "Pooling"
  bottom: "conv1_2"
  top: "pool1"
  pooling_param {
    pool: MAX
    kernel_size: 2
    stride: 2
  }
}
layer {
  name: "conv2_1"
  type: "Convolution"
  bottom: "pool1"
  top: "conv2_1"
  param {
    lr_mult: 1
    decay_mult: 1
  }
  param {
    lr_mult: 2
    decay_mult: 0
  }
  convolution_param {
    num_output: 128
    pad: 1
    kernel_size: 3
    weight_filler {
      type: "msra"
      std: 0.1
    }
    bias_filler {
      type: "constant"
      value: 0.2
    }
  }
}
layer {
  name: "relu2_1"
  type: "ReLU"
  bottom: "conv2_1"
  top: "conv2_1"
}
layer {
  name: "conv2_2"
  type: "Convolution"
  bottom: "conv2_1"
  top: "conv2_2"
  param {
    lr_mult: 1
    decay_mult: 1
  }
  param {
    lr_mult: 2
    decay_mult: 0
  }
  convolution_param {
    num_output: 128
    pad: 1
    kernel_size: 3
    weight_filler {
      type: "msra"
      std: 0.1
    }
    bias_filler {
      type: "constant"
      value: 0.2
    }
  }
}
layer {
  name: "relu2_2"
  type: "ReLU"
  bottom: "conv2_2"
  top: "conv2_2"
}
layer {
  name: "pool2"
  type: "Pooling"
  bottom: "conv2_2"
  top: "pool2"
  pooling_param {
    pool: MAX
    kernel_size: 2
    stride: 2
  }
}
layer {
  name: "conv3_1"
  type: "Convolution"
  bottom: "pool2"
  top: "conv3_1"
  param {
    lr_mult: 1
    decay_mult: 1
  }
  param {
    lr_mult: 2
    decay_mult: 0
  }
  convolution_param {
    num_output: 256
    pad: 1
    kernel_size: 3
    weight_filler {
      type: "msra"
      std: 0.1
    }
    bias_filler {
      type: "constant"
      value: 0.2
    }
  }
}
layer {
  name: "relu3_1"
  type: "ReLU"
  bottom: "conv3_1"
  top: "conv3_1"
}
layer {
  name: "conv3_2"
  type: "Convolution"
  bottom: "conv3_1"
  top: "conv3_2"
  param {
    lr_mult: 1
    decay_mult: 1
  }
  param {
    lr_mult: 2
    decay_mult: 0
  }
  convolution_param {
    num_output: 256
    pad: 1
    kernel_size: 3
    weight_filler {
      type: "msra"
      std: 0.1
    }
    bias_filler {
      type: "constant"
      value: 0.2
    }
  }
}
layer {
  name: "relu3_2"
  type: "ReLU"
  bottom: "conv3_2"
  top: "conv3_2"
}
layer {
  name: "conv3_3"
  type: "Convolution"
  bottom: "conv3_2"
  top: "conv3_3"
  param {
    lr_mult: 1
    decay_mult: 1
  }
  param {
    lr_mult: 2
    decay_mult: 0
  }
  convolution_param {
    num_output: 256
    pad: 1
    kernel_size: 3
    weight_filler {
      type: "msra"
      std: 0.1
    }
    bias_filler {
      type: "constant"
      value: 0.2
    }
  }
}
layer {
  name: "relu3_3"
  type: "ReLU"
  bottom: "conv3_3"
  top: "conv3_3"
}
layer {
  name: "pool3"
  type: "Pooling"
  bottom: "conv3_3"
  top: "pool3"
  pooling_param {
    pool: MAX
    kernel_size: 2
    stride: 2
  }
}
layer {
  name: "conv4_1"
  type: "Convolution"
  bottom: "pool3"
  top: "conv4_1"
  param {
    lr_mult: 1
    decay_mult: 1
  }
  param {
    lr_mult: 2
    decay_mult: 0
  }
  convolution_param {
    num_output: 512
    pad: 1
    kernel_size: 3
    weight_filler {
      type: "msra"
      std: 0.1
    }
    bias_filler {
      type: "constant"
      value: 0.2
    }
  }
}
layer {
  name: "relu4_1"
  type: "ReLU"
  bottom: "conv4_1"
  top: "conv4_1"
}
layer {
  name: "conv4_2"
  type: "Convolution"
  bottom: "conv4_1"
  top: "conv4_2"
  param {
    lr_mult: 1
    decay_mult: 1
  }
  param {
    lr_mult: 2
    decay_mult: 0
  }
  convolution_param {
    num_output: 512
    pad: 1
    kernel_size: 3
    weight_filler {
      type: "msra"
      std: 0.1
    }
    bias_filler {
      type: "constant"
      value: 0.2
    }
  }
}
layer {
  name: "relu4_2"
  type: "ReLU"
  bottom: "conv4_2"
  top: "conv4_2"
}
layer {
  name: "conv4_3"
  type: "Convolution"
  bottom: "conv4_2"
  top: "conv4_3"
  param {
    lr_mult: 1
    decay_mult: 1
  }
  param {
    lr_mult: 2
    decay_mult: 0
  }
  convolution_param {
    num_output: 512
    pad: 1
    kernel_size: 3
    weight_filler {
      type: "msra"
      std: 0.1
    }
    bias_filler {
      type: "constant"
      value: 0.2
    }
  }
}
layer {
  name: "relu4_3"
  type: "ReLU"
  bottom: "conv4_3"
  top: "conv4_3"
}
layer {
  name: "pool4"
  type: "Pooling"
  bottom: "conv4_3"
  top: "pool4"
  pooling_param {
    pool: MAX
    kernel_size: 2
    stride: 2
  }
}
layer {
  name: "conv5_1"
  type: "Convolution"
  bottom: "pool4"
  top: "conv5_1"
  param {
    lr_mult: 1
    decay_mult: 1
  }
  param {
    lr_mult: 2
    decay_mult: 0
  }
  convolution_param {
    num_output: 512
    pad: 1
    kernel_size: 3
    weight_filler {
      type: "msra"
      std: 0.1
    }
    bias_filler {
      type: "constant"
      value: 0.2
    }
  }
}
layer {
  name: "relu5_1"
  type: "ReLU"
  bottom: "conv5_1"
  top: "conv5_1"
}
layer {
  name: "conv5_2"
  type: "Convolution"
  bottom: "conv5_1"
  top: "conv5_2"
  param {
    lr_mult: 1
    decay_mult: 1
  }
  param {
    lr_mult: 2
    decay_mult: 0
  }
  convolution_param {
    num_output: 512
    pad: 1
    kernel_size: 3
    weight_filler {
      type: "msra"
      std: 0.1
    }
    bias_filler {
      type: "constant"
      value: 0.2
    }
  }
}
layer {
  name: "relu5_2"
  type: "ReLU"
  bottom: "conv5_2"
  top: "conv5_2"
}
layer {
  name: "conv5_3"
  type: "Convolution"
  bottom: "conv5_2"
  top: "conv5_3"
  param {
    lr_mult: 1
    decay_mult: 1
  }
  param {
    lr_mult: 2
    decay_mult: 0
  }
  convolution_param {
    num_output: 512
    pad: 1
    kernel_size: 3
    weight_filler {
      type: "msra"
      std: 0.1
    }
    bias_filler {
      type: "constant"
      value: 0.2
    }
  }
}
layer {
  name: "relu5_3"
  type: "ReLU"
  bottom: "conv5_3"
  top: "conv5_3"
}
layer {
  name: "pool5"
  type: "Pooling"
  bottom: "conv5_3"
  top: "pool5"
  pooling_param {
    pool: MAX
    kernel_size: 2
    stride: 2
  }
}
layer {
  name: "conv6_1"
  type: "Convolution"
  bottom: "pool5"
  top: "conv6_1"
  param {
    lr_mult: 1
    decay_mult: 1
  }
  param {
    lr_mult: 2
    decay_mult: 0
  }
  convolution_param {
    num_output: 4096
    pad: 0
    kernel_size: 7
    weight_filler {
      type: "msra"
      std: 0.1
    }
    bias_filler {
      type: "constant"
      value: 0.2
    }
  }
}
layer {
  name: "relu6_1"
  type: "ReLU"
  bottom: "conv6_1"
  top: "conv6_1"
}
layer {
  name: "drop6_1"
  type: "Dropout"
  bottom: "conv6_1"
  top: "drop6_1"
  dropout_param {
    dropout_ratio: 0.4
  }
}
layer {
  name: "conv6_2"
  type: "Convolution"
  bottom: "drop6_1"
  top: "conv6_2"
  param {
    lr_mult: 1
    decay_mult: 1
  }
  param {
    lr_mult: 2
    decay_mult: 0
  }
  convolution_param {
    num_output: 4096
    pad: 0
    kernel_size: 1
    weight_filler {
      type: "msra"
      std: 0.1
    }
    bias_filler {
      type: "constant"
      value: 0.2
    }
  }
}
layer {
  name: "relu6_2"
  type: "ReLU"
  bottom: "conv6_2"
  top: "conv6_2"
}
layer {
  name: "drop6_2"
  type: "Dropout"
  bottom: "conv6_2"
  top: "drop6_2"
  dropout_param {
    dropout_ratio: 0.4
  }
}
layer {
  name: "conv6_3"
  type: "Convolution"
  bottom: "drop6_2"
  top: "conv6_3"
  param {
    lr_mult: 1
    decay_mult: 1
  }
  param {
    lr_mult: 2
    decay_mult: 0
  }
  convolution_param {
    num_output: 2
    kernel_size: 1
    weight_filler {
      type: "msra"
      std: 0.1
    }
    bias_filler {
      type: "constant"
      value: 0.2
    }
  }
}
layer {
  name: "loss"
  type: "SoftmaxWithLoss"
  bottom: "conv6_3"
  bottom: "label"
  include {
    phase: TRAIN
  }
}
I0701 18:55:40.456442 14975 layer_factory.hpp:76] Creating layer data
I0701 18:55:40.456521 14975 net.cpp:106] Creating Layer data
I0701 18:55:40.456535 14975 net.cpp:411] data -> data
I0701 18:55:40.456588 14975 net.cpp:411] data -> label
I0701 18:55:40.457080 14975 image_data_layer.cpp:36] Opening file ../lists/roi-train.lst
I0701 18:55:40.561547 14975 image_data_layer.cpp:46] Shuffling data
I0701 18:55:40.589610 14975 image_data_layer.cpp:51] A total of 211680 images.
I0701 18:55:40.616678 14975 image_data_layer.cpp:78] output data size: 128,3,224,224
I0701 18:55:40.797799 14975 net.cpp:150] Setting up data
I0701 18:55:40.797855 14975 net.cpp:157] Top shape: 128 3 224 224 (19267584)
I0701 18:55:40.797868 14975 net.cpp:157] Top shape: 128 (128)
I0701 18:55:40.797876 14975 net.cpp:165] Memory required for data: 77070848
I0701 18:55:40.797890 14975 layer_factory.hpp:76] Creating layer conv1_1
I0701 18:55:40.797921 14975 net.cpp:106] Creating Layer conv1_1
I0701 18:55:40.797935 14975 net.cpp:454] conv1_1 <- data
I0701 18:55:40.797952 14975 net.cpp:411] conv1_1 -> conv1_1
I0701 18:55:41.039149 14975 net.cpp:150] Setting up conv1_1
I0701 18:55:41.039209 14975 net.cpp:157] Top shape: 128 64 224 224 (411041792)
I0701 18:55:41.039219 14975 net.cpp:165] Memory required for data: 1721238016
I0701 18:55:41.039247 14975 layer_factory.hpp:76] Creating layer relu1_1
I0701 18:55:41.039268 14975 net.cpp:106] Creating Layer relu1_1
I0701 18:55:41.039278 14975 net.cpp:454] relu1_1 <- conv1_1
I0701 18:55:41.039289 14975 net.cpp:397] relu1_1 -> conv1_1 (in-place)
I0701 18:55:41.039491 14975 net.cpp:150] Setting up relu1_1
I0701 18:55:41.039521 14975 net.cpp:157] Top shape: 128 64 224 224 (411041792)
I0701 18:55:41.039530 14975 net.cpp:165] Memory required for data: 3365405184
I0701 18:55:41.039540 14975 layer_factory.hpp:76] Creating layer conv1_2
I0701 18:55:41.039554 14975 net.cpp:106] Creating Layer conv1_2
I0701 18:55:41.039563 14975 net.cpp:454] conv1_2 <- conv1_1
I0701 18:55:41.039574 14975 net.cpp:411] conv1_2 -> conv1_2
I0701 18:55:41.041745 14975 net.cpp:150] Setting up conv1_2
I0701 18:55:41.041781 14975 net.cpp:157] Top shape: 128 64 224 224 (411041792)
I0701 18:55:41.041791 14975 net.cpp:165] Memory required for data: 5009572352
I0701 18:55:41.041806 14975 layer_factory.hpp:76] Creating layer relu1_2
I0701 18:55:41.041820 14975 net.cpp:106] Creating Layer relu1_2
I0701 18:55:41.041829 14975 net.cpp:454] relu1_2 <- conv1_2
I0701 18:55:41.041841 14975 net.cpp:397] relu1_2 -> conv1_2 (in-place)
I0701 18:55:41.042145 14975 net.cpp:150] Setting up relu1_2
I0701 18:55:41.042176 14975 net.cpp:157] Top shape: 128 64 224 224 (411041792)
I0701 18:55:41.042210 14975 net.cpp:165] Memory required for data: 6653739520
I0701 18:55:41.042220 14975 layer_factory.hpp:76] Creating layer pool1
I0701 18:55:41.042234 14975 net.cpp:106] Creating Layer pool1
I0701 18:55:41.042243 14975 net.cpp:454] pool1 <- conv1_2
I0701 18:55:41.042253 14975 net.cpp:411] pool1 -> pool1
I0701 18:55:41.042498 14975 net.cpp:150] Setting up pool1
I0701 18:55:41.042541 14975 net.cpp:157] Top shape: 128 64 112 112 (102760448)
I0701 18:55:41.042549 14975 net.cpp:165] Memory required for data: 7064781312
I0701 18:55:41.042558 14975 layer_factory.hpp:76] Creating layer conv2_1
I0701 18:55:41.042573 14975 net.cpp:106] Creating Layer conv2_1
I0701 18:55:41.042582 14975 net.cpp:454] conv2_1 <- pool1
I0701 18:55:41.042595 14975 net.cpp:411] conv2_1 -> conv2_1
I0701 18:55:41.047044 14975 cudnn_conv_layer.cpp:194] Reallocating workspace storage: 6912
I0701 18:55:41.047292 14975 net.cpp:150] Setting up conv2_1
I0701 18:55:41.047322 14975 net.cpp:157] Top shape: 128 128 112 112 (205520896)
I0701 18:55:41.047333 14975 net.cpp:165] Memory required for data: 7886864896
I0701 18:55:41.047349 14975 layer_factory.hpp:76] Creating layer relu2_1
I0701 18:55:41.047363 14975 net.cpp:106] Creating Layer relu2_1
I0701 18:55:41.047371 14975 net.cpp:454] relu2_1 <- conv2_1
I0701 18:55:41.047382 14975 net.cpp:397] relu2_1 -> conv2_1 (in-place)
I0701 18:55:41.047749 14975 net.cpp:150] Setting up relu2_1
I0701 18:55:41.047782 14975 net.cpp:157] Top shape: 128 128 112 112 (205520896)
I0701 18:55:41.047804 14975 net.cpp:165] Memory required for data: 8708948480
I0701 18:55:41.047813 14975 layer_factory.hpp:76] Creating layer conv2_2
I0701 18:55:41.047830 14975 net.cpp:106] Creating Layer conv2_2
I0701 18:55:41.047840 14975 net.cpp:454] conv2_2 <- conv2_1
I0701 18:55:41.047852 14975 net.cpp:411] conv2_2 -> conv2_2
I0701 18:55:41.053268 14975 cudnn_conv_layer.cpp:194] Reallocating workspace storage: 13824
I0701 18:55:41.053316 14975 net.cpp:150] Setting up conv2_2
I0701 18:55:41.053329 14975 net.cpp:157] Top shape: 128 128 112 112 (205520896)
I0701 18:55:41.053339 14975 net.cpp:165] Memory required for data: 9531032064
I0701 18:55:41.053349 14975 layer_factory.hpp:76] Creating layer relu2_2
I0701 18:55:41.053364 14975 net.cpp:106] Creating Layer relu2_2
I0701 18:55:41.053371 14975 net.cpp:454] relu2_2 <- conv2_2
I0701 18:55:41.053381 14975 net.cpp:397] relu2_2 -> conv2_2 (in-place)
I0701 18:55:41.053709 14975 net.cpp:150] Setting up relu2_2
I0701 18:55:41.053740 14975 net.cpp:157] Top shape: 128 128 112 112 (205520896)
I0701 18:55:41.053747 14975 net.cpp:165] Memory required for data: 10353115648
I0701 18:55:41.053756 14975 layer_factory.hpp:76] Creating layer pool2
I0701 18:55:41.053772 14975 net.cpp:106] Creating Layer pool2
I0701 18:55:41.053781 14975 net.cpp:454] pool2 <- conv2_2
I0701 18:55:41.053791 14975 net.cpp:411] pool2 -> pool2
I0701 18:55:41.054018 14975 net.cpp:150] Setting up pool2
I0701 18:55:41.054049 14975 net.cpp:157] Top shape: 128 128 56 56 (51380224)
I0701 18:55:41.054059 14975 net.cpp:165] Memory required for data: 10558636544
I0701 18:55:41.054066 14975 layer_factory.hpp:76] Creating layer conv3_1
I0701 18:55:41.054080 14975 net.cpp:106] Creating Layer conv3_1
I0701 18:55:41.054090 14975 net.cpp:454] conv3_1 <- pool2
I0701 18:55:41.054100 14975 net.cpp:411] conv3_1 -> conv3_1
I0701 18:55:41.065084 14975 cudnn_conv_layer.cpp:194] Reallocating workspace storage: 13824
I0701 18:55:41.065140 14975 net.cpp:150] Setting up conv3_1
I0701 18:55:41.065153 14975 net.cpp:157] Top shape: 128 256 56 56 (102760448)
I0701 18:55:41.065163 14975 net.cpp:165] Memory required for data: 10969678336
I0701 18:55:41.065179 14975 layer_factory.hpp:76] Creating layer relu3_1
I0701 18:55:41.065194 14975 net.cpp:106] Creating Layer relu3_1
I0701 18:55:41.065204 14975 net.cpp:454] relu3_1 <- conv3_1
I0701 18:55:41.065214 14975 net.cpp:397] relu3_1 -> conv3_1 (in-place)
I0701 18:55:41.065556 14975 net.cpp:150] Setting up relu3_1
I0701 18:55:41.065587 14975 net.cpp:157] Top shape: 128 256 56 56 (102760448)
I0701 18:55:41.065596 14975 net.cpp:165] Memory required for data: 11380720128
I0701 18:55:41.065644 14975 layer_factory.hpp:76] Creating layer conv3_2
I0701 18:55:41.065663 14975 net.cpp:106] Creating Layer conv3_2
I0701 18:55:41.065672 14975 net.cpp:454] conv3_2 <- conv3_1
I0701 18:55:41.065685 14975 net.cpp:411] conv3_2 -> conv3_2
I0701 18:55:41.086267 14975 cudnn_conv_layer.cpp:194] Reallocating workspace storage: 27648
I0701 18:55:41.086325 14975 net.cpp:150] Setting up conv3_2
I0701 18:55:41.086343 14975 net.cpp:157] Top shape: 128 256 56 56 (102760448)
I0701 18:55:41.086352 14975 net.cpp:165] Memory required for data: 11791761920
I0701 18:55:41.086365 14975 layer_factory.hpp:76] Creating layer relu3_2
I0701 18:55:41.086380 14975 net.cpp:106] Creating Layer relu3_2
I0701 18:55:41.086390 14975 net.cpp:454] relu3_2 <- conv3_2
I0701 18:55:41.086400 14975 net.cpp:397] relu3_2 -> conv3_2 (in-place)
I0701 18:55:41.086617 14975 net.cpp:150] Setting up relu3_2
I0701 18:55:41.086647 14975 net.cpp:157] Top shape: 128 256 56 56 (102760448)
I0701 18:55:41.086655 14975 net.cpp:165] Memory required for data: 12202803712
I0701 18:55:41.086664 14975 layer_factory.hpp:76] Creating layer conv3_3
I0701 18:55:41.086680 14975 net.cpp:106] Creating Layer conv3_3
I0701 18:55:41.086689 14975 net.cpp:454] conv3_3 <- conv3_2
I0701 18:55:41.086701 14975 net.cpp:411] conv3_3 -> conv3_3
I0701 18:55:41.107743 14975 cudnn_conv_layer.cpp:194] Reallocating workspace storage: 27648
I0701 18:55:41.107975 14975 net.cpp:150] Setting up conv3_3
I0701 18:55:41.108000 14975 net.cpp:157] Top shape: 128 256 56 56 (102760448)
I0701 18:55:41.108011 14975 net.cpp:165] Memory required for data: 12613845504
I0701 18:55:41.108026 14975 layer_factory.hpp:76] Creating layer relu3_3
I0701 18:55:41.108047 14975 net.cpp:106] Creating Layer relu3_3
I0701 18:55:41.108057 14975 net.cpp:454] relu3_3 <- conv3_3
I0701 18:55:41.108067 14975 net.cpp:397] relu3_3 -> conv3_3 (in-place)
I0701 18:55:41.108268 14975 net.cpp:150] Setting up relu3_3
I0701 18:55:41.108288 14975 net.cpp:157] Top shape: 128 256 56 56 (102760448)
I0701 18:55:41.108297 14975 net.cpp:165] Memory required for data: 13024887296
I0701 18:55:41.108305 14975 layer_factory.hpp:76] Creating layer pool3
I0701 18:55:41.108319 14975 net.cpp:106] Creating Layer pool3
I0701 18:55:41.108327 14975 net.cpp:454] pool3 <- conv3_3
I0701 18:55:41.108340 14975 net.cpp:411] pool3 -> pool3
I0701 18:55:41.108702 14975 net.cpp:150] Setting up pool3
I0701 18:55:41.108723 14975 net.cpp:157] Top shape: 128 256 28 28 (25690112)
I0701 18:55:41.108732 14975 net.cpp:165] Memory required for data: 13127647744
I0701 18:55:41.108741 14975 layer_factory.hpp:76] Creating layer conv4_1
I0701 18:55:41.108760 14975 net.cpp:106] Creating Layer conv4_1
I0701 18:55:41.108769 14975 net.cpp:454] conv4_1 <- pool3
I0701 18:55:41.108783 14975 net.cpp:411] conv4_1 -> conv4_1
I0701 18:55:41.149045 14975 cudnn_conv_layer.cpp:194] Reallocating workspace storage: 27648
I0701 18:55:41.149104 14975 net.cpp:150] Setting up conv4_1
I0701 18:55:41.149119 14975 net.cpp:157] Top shape: 128 512 28 28 (51380224)
I0701 18:55:41.149129 14975 net.cpp:165] Memory required for data: 13333168640
I0701 18:55:41.149143 14975 layer_factory.hpp:76] Creating layer relu4_1
I0701 18:55:41.149161 14975 net.cpp:106] Creating Layer relu4_1
I0701 18:55:41.149173 14975 net.cpp:454] relu4_1 <- conv4_1
I0701 18:55:41.149184 14975 net.cpp:397] relu4_1 -> conv4_1 (in-place)
I0701 18:55:41.149406 14975 net.cpp:150] Setting up relu4_1
I0701 18:55:41.149435 14975 net.cpp:157] Top shape: 128 512 28 28 (51380224)
I0701 18:55:41.149444 14975 net.cpp:165] Memory required for data: 13538689536
I0701 18:55:41.149452 14975 layer_factory.hpp:76] Creating layer conv4_2
I0701 18:55:41.149469 14975 net.cpp:106] Creating Layer conv4_2
I0701 18:55:41.149478 14975 net.cpp:454] conv4_2 <- conv4_1
I0701 18:55:41.149490 14975 net.cpp:411] conv4_2 -> conv4_2
I0701 18:55:41.228700 14975 cudnn_conv_layer.cpp:194] Reallocating workspace storage: 55296
I0701 18:55:41.228767 14975 net.cpp:150] Setting up conv4_2
I0701 18:55:41.228785 14975 net.cpp:157] Top shape: 128 512 28 28 (51380224)
I0701 18:55:41.228814 14975 net.cpp:165] Memory required for data: 13744210432
I0701 18:55:41.228847 14975 layer_factory.hpp:76] Creating layer relu4_2
I0701 18:55:41.228881 14975 net.cpp:106] Creating Layer relu4_2
I0701 18:55:41.228896 14975 net.cpp:454] relu4_2 <- conv4_2
I0701 18:55:41.228909 14975 net.cpp:397] relu4_2 -> conv4_2 (in-place)
I0701 18:55:41.229245 14975 net.cpp:150] Setting up relu4_2
I0701 18:55:41.229276 14975 net.cpp:157] Top shape: 128 512 28 28 (51380224)
I0701 18:55:41.229286 14975 net.cpp:165] Memory required for data: 13949731328
I0701 18:55:41.229296 14975 layer_factory.hpp:76] Creating layer conv4_3
I0701 18:55:41.229313 14975 net.cpp:106] Creating Layer conv4_3
I0701 18:55:41.229323 14975 net.cpp:454] conv4_3 <- conv4_2
I0701 18:55:41.229334 14975 net.cpp:411] conv4_3 -> conv4_3
I0701 18:55:41.307560 14975 cudnn_conv_layer.cpp:194] Reallocating workspace storage: 55296
I0701 18:55:41.307620 14975 net.cpp:150] Setting up conv4_3
I0701 18:55:41.307634 14975 net.cpp:157] Top shape: 128 512 28 28 (51380224)
I0701 18:55:41.307643 14975 net.cpp:165] Memory required for data: 14155252224
I0701 18:55:41.307657 14975 layer_factory.hpp:76] Creating layer relu4_3
I0701 18:55:41.307674 14975 net.cpp:106] Creating Layer relu4_3
I0701 18:55:41.307685 14975 net.cpp:454] relu4_3 <- conv4_3
I0701 18:55:41.307698 14975 net.cpp:397] relu4_3 -> conv4_3 (in-place)
I0701 18:55:41.308025 14975 net.cpp:150] Setting up relu4_3
I0701 18:55:41.308056 14975 net.cpp:157] Top shape: 128 512 28 28 (51380224)
I0701 18:55:41.308065 14975 net.cpp:165] Memory required for data: 14360773120
I0701 18:55:41.308074 14975 layer_factory.hpp:76] Creating layer pool4
I0701 18:55:41.308090 14975 net.cpp:106] Creating Layer pool4
I0701 18:55:41.308100 14975 net.cpp:454] pool4 <- conv4_3
I0701 18:55:41.308112 14975 net.cpp:411] pool4 -> pool4
I0701 18:55:41.308509 14975 net.cpp:150] Setting up pool4
I0701 18:55:41.308542 14975 net.cpp:157] Top shape: 128 512 14 14 (12845056)
I0701 18:55:41.308562 14975 net.cpp:165] Memory required for data: 14412153344
I0701 18:55:41.308571 14975 layer_factory.hpp:76] Creating layer conv5_1
I0701 18:55:41.308589 14975 net.cpp:106] Creating Layer conv5_1
I0701 18:55:41.308599 14975 net.cpp:454] conv5_1 <- pool4
I0701 18:55:41.308610 14975 net.cpp:411] conv5_1 -> conv5_1
I0701 18:55:41.386780 14975 cudnn_conv_layer.cpp:194] Reallocating workspace storage: 55296
I0701 18:55:41.386840 14975 net.cpp:150] Setting up conv5_1
I0701 18:55:41.386858 14975 net.cpp:157] Top shape: 128 512 14 14 (12845056)
I0701 18:55:41.386868 14975 net.cpp:165] Memory required for data: 14463533568
I0701 18:55:41.386883 14975 layer_factory.hpp:76] Creating layer relu5_1
I0701 18:55:41.386898 14975 net.cpp:106] Creating Layer relu5_1
I0701 18:55:41.386909 14975 net.cpp:454] relu5_1 <- conv5_1
I0701 18:55:41.386920 14975 net.cpp:397] relu5_1 -> conv5_1 (in-place)
I0701 18:55:41.387250 14975 net.cpp:150] Setting up relu5_1
I0701 18:55:41.387282 14975 net.cpp:157] Top shape: 128 512 14 14 (12845056)
I0701 18:55:41.387291 14975 net.cpp:165] Memory required for data: 14514913792
I0701 18:55:41.387300 14975 layer_factory.hpp:76] Creating layer conv5_2
I0701 18:55:41.387318 14975 net.cpp:106] Creating Layer conv5_2
I0701 18:55:41.387328 14975 net.cpp:454] conv5_2 <- conv5_1
I0701 18:55:41.387341 14975 net.cpp:411] conv5_2 -> conv5_2
I0701 18:55:41.466030 14975 cudnn_conv_layer.cpp:194] Reallocating workspace storage: 55296
I0701 18:55:41.466100 14975 net.cpp:150] Setting up conv5_2
I0701 18:55:41.466116 14975 net.cpp:157] Top shape: 128 512 14 14 (12845056)
I0701 18:55:41.466125 14975 net.cpp:165] Memory required for data: 14566294016
I0701 18:55:41.466140 14975 layer_factory.hpp:76] Creating layer relu5_2
I0701 18:55:41.466156 14975 net.cpp:106] Creating Layer relu5_2
I0701 18:55:41.466167 14975 net.cpp:454] relu5_2 <- conv5_2
I0701 18:55:41.466179 14975 net.cpp:397] relu5_2 -> conv5_2 (in-place)
I0701 18:55:41.466378 14975 net.cpp:150] Setting up relu5_2
I0701 18:55:41.466410 14975 net.cpp:157] Top shape: 128 512 14 14 (12845056)
I0701 18:55:41.466440 14975 net.cpp:165] Memory required for data: 14617674240
I0701 18:55:41.466450 14975 layer_factory.hpp:76] Creating layer conv5_3
I0701 18:55:41.466469 14975 net.cpp:106] Creating Layer conv5_3
I0701 18:55:41.466478 14975 net.cpp:454] conv5_3 <- conv5_2
I0701 18:55:41.466491 14975 net.cpp:411] conv5_3 -> conv5_3
I0701 18:55:41.544945 14975 cudnn_conv_layer.cpp:194] Reallocating workspace storage: 55296
I0701 18:55:41.545004 14975 net.cpp:150] Setting up conv5_3
I0701 18:55:41.545020 14975 net.cpp:157] Top shape: 128 512 14 14 (12845056)
I0701 18:55:41.545029 14975 net.cpp:165] Memory required for data: 14669054464
I0701 18:55:41.545043 14975 layer_factory.hpp:76] Creating layer relu5_3
I0701 18:55:41.545063 14975 net.cpp:106] Creating Layer relu5_3
I0701 18:55:41.545073 14975 net.cpp:454] relu5_3 <- conv5_3
I0701 18:55:41.545085 14975 net.cpp:397] relu5_3 -> conv5_3 (in-place)
I0701 18:55:41.545414 14975 net.cpp:150] Setting up relu5_3
I0701 18:55:41.545445 14975 net.cpp:157] Top shape: 128 512 14 14 (12845056)
I0701 18:55:41.545455 14975 net.cpp:165] Memory required for data: 14720434688
I0701 18:55:41.545464 14975 layer_factory.hpp:76] Creating layer pool5
I0701 18:55:41.545478 14975 net.cpp:106] Creating Layer pool5
I0701 18:55:41.545488 14975 net.cpp:454] pool5 <- conv5_3
I0701 18:55:41.545498 14975 net.cpp:411] pool5 -> pool5
I0701 18:55:41.545727 14975 net.cpp:150] Setting up pool5
I0701 18:55:41.545756 14975 net.cpp:157] Top shape: 128 512 7 7 (3211264)
I0701 18:55:41.545765 14975 net.cpp:165] Memory required for data: 14733279744
I0701 18:55:41.545775 14975 layer_factory.hpp:76] Creating layer conv6_1
I0701 18:55:41.545799 14975 net.cpp:106] Creating Layer conv6_1
I0701 18:55:41.545809 14975 net.cpp:454] conv6_1 <- pool5
I0701 18:55:41.545822 14975 net.cpp:411] conv6_1 -> conv6_1
I0701 18:55:44.905099 14975 net.cpp:150] Setting up conv6_1
I0701 18:55:44.905158 14975 net.cpp:157] Top shape: 128 4096 1 1 (524288)
I0701 18:55:44.905167 14975 net.cpp:165] Memory required for data: 14735376896
I0701 18:55:44.905186 14975 layer_factory.hpp:76] Creating layer relu6_1
I0701 18:55:44.905207 14975 net.cpp:106] Creating Layer relu6_1
I0701 18:55:44.905221 14975 net.cpp:454] relu6_1 <- conv6_1
I0701 18:55:44.905236 14975 net.cpp:397] relu6_1 -> conv6_1 (in-place)
I0701 18:55:44.905421 14975 net.cpp:150] Setting up relu6_1
I0701 18:55:44.905447 14975 net.cpp:157] Top shape: 128 4096 1 1 (524288)
I0701 18:55:44.905457 14975 net.cpp:165] Memory required for data: 14737474048
I0701 18:55:44.905467 14975 layer_factory.hpp:76] Creating layer drop6_1
I0701 18:55:44.905485 14975 net.cpp:106] Creating Layer drop6_1
I0701 18:55:44.905494 14975 net.cpp:454] drop6_1 <- conv6_1
I0701 18:55:44.905506 14975 net.cpp:411] drop6_1 -> drop6_1
I0701 18:55:44.905565 14975 net.cpp:150] Setting up drop6_1
I0701 18:55:44.905580 14975 net.cpp:157] Top shape: 128 4096 1 1 (524288)
I0701 18:55:44.905587 14975 net.cpp:165] Memory required for data: 14739571200
I0701 18:55:44.905596 14975 layer_factory.hpp:76] Creating layer conv6_2
I0701 18:55:44.905611 14975 net.cpp:106] Creating Layer conv6_2
I0701 18:55:44.905621 14975 net.cpp:454] conv6_2 <- drop6_1
I0701 18:55:44.905632 14975 net.cpp:411] conv6_2 -> conv6_2
I0701 18:55:45.469282 14975 net.cpp:150] Setting up conv6_2
I0701 18:55:45.469326 14975 net.cpp:157] Top shape: 128 4096 1 1 (524288)
I0701 18:55:45.469337 14975 net.cpp:165] Memory required for data: 14741668352
I0701 18:55:45.469352 14975 layer_factory.hpp:76] Creating layer relu6_2
I0701 18:55:45.469368 14975 net.cpp:106] Creating Layer relu6_2
I0701 18:55:45.469379 14975 net.cpp:454] relu6_2 <- conv6_2
I0701 18:55:45.469391 14975 net.cpp:397] relu6_2 -> conv6_2 (in-place)
I0701 18:55:45.469733 14975 net.cpp:150] Setting up relu6_2
I0701 18:55:45.469754 14975 net.cpp:157] Top shape: 128 4096 1 1 (524288)
I0701 18:55:45.469763 14975 net.cpp:165] Memory required for data: 14743765504
I0701 18:55:45.469771 14975 layer_factory.hpp:76] Creating layer drop6_2
I0701 18:55:45.469784 14975 net.cpp:106] Creating Layer drop6_2
I0701 18:55:45.469816 14975 net.cpp:454] drop6_2 <- conv6_2
I0701 18:55:45.469832 14975 net.cpp:411] drop6_2 -> drop6_2
I0701 18:55:45.469897 14975 net.cpp:150] Setting up drop6_2
I0701 18:55:45.469912 14975 net.cpp:157] Top shape: 128 4096 1 1 (524288)
I0701 18:55:45.469919 14975 net.cpp:165] Memory required for data: 14745862656
I0701 18:55:45.469928 14975 layer_factory.hpp:76] Creating layer conv6_3
I0701 18:55:45.469944 14975 net.cpp:106] Creating Layer conv6_3
I0701 18:55:45.469952 14975 net.cpp:454] conv6_3 <- drop6_2
I0701 18:55:45.469969 14975 net.cpp:411] conv6_3 -> conv6_3
I0701 18:55:45.471279 14975 cudnn_conv_layer.cpp:194] Reallocating workspace storage: 6291456
I0701 18:55:45.471511 14975 net.cpp:150] Setting up conv6_3
I0701 18:55:45.471530 14975 net.cpp:157] Top shape: 128 2 1 1 (256)
I0701 18:55:45.471539 14975 net.cpp:165] Memory required for data: 14745863680
I0701 18:55:45.471551 14975 layer_factory.hpp:76] Creating layer loss
I0701 18:55:45.471572 14975 net.cpp:106] Creating Layer loss
I0701 18:55:45.471583 14975 net.cpp:454] loss <- conv6_3
I0701 18:55:45.471592 14975 net.cpp:454] loss <- label
I0701 18:55:45.471606 14975 net.cpp:411] loss -> (automatic)
I0701 18:55:45.471622 14975 layer_factory.hpp:76] Creating layer loss
…
