…
I0701 19:41:03.992194 22713 net.cpp:322] The NetState phase (0) differed from the phase (1) specified by a rule in layer data
I0701 19:41:03.992429 22713 net.cpp:49] Initializing net from parameters: 
name: "FaceNN"
state {
  phase: TRAIN
}
layer {
  name: "data"
  type: "ImageData"
  top: "data"
  top: "label"
  include {
    phase: TRAIN
  }
  transform_param {
    mirror: true
    crop_size: 100
    mean_value: 104
    mean_value: 117
    mean_value: 123
  }
  image_data_param {
    source: "../lists/roi-train.lst"
    batch_size: 128
    shuffle: true
    new_height: 110
    new_width: 110
  }
}
layer {
  name: "conv11"
  type: "Convolution"
  bottom: "data"
  top: "conv11"
  param {
    lr_mult: 1
    decay_mult: 1
  }
  param {
    lr_mult: 2
    decay_mult: 0
  }
  convolution_param {
    num_output: 32
    pad: 1
    stride: 1
    weight_filler {
      type: "xavier"
    }
    bias_filler {
      type: "constant"
    }
    kernel_h: 3
    kernel_w: 3
  }
}
layer {
  name: "relu11"
  type: "ReLU"
  bottom: "conv11"
  top: "conv11"
}
layer {
  name: "conv12"
  type: "Convolution"
  bottom: "conv11"
  top: "conv12"
  param {
    lr_mult: 1
    decay_mult: 1
  }
  param {
    lr_mult: 2
    decay_mult: 0
  }
  convolution_param {
    num_output: 32
    pad: 1
    stride: 1
    weight_filler {
      type: "xavier"
    }
    bias_filler {
      type: "constant"
    }
    kernel_h: 3
    kernel_w: 3
  }
}
layer {
  name: "relu12"
  type: "ReLU"
  bottom: "conv12"
  top: "conv12"
}
layer {
  name: "pool1"
  type: "Pooling"
  bottom: "conv12"
  top: "pool1"
  pooling_param {
    pool: MAX
    kernel_size: 2
    stride: 2
  }
}
layer {
  name: "conv21"
  type: "Convolution"
  bottom: "pool1"
  top: "conv21"
  param {
    lr_mult: 1
    decay_mult: 1
  }
  param {
    lr_mult: 2
    decay_mult: 0
  }
  convolution_param {
    num_output: 64
    pad: 1
    stride: 1
    weight_filler {
      type: "xavier"
    }
    bias_filler {
      type: "constant"
    }
    kernel_h: 3
    kernel_w: 3
  }
}
layer {
  name: "relu21"
  type: "ReLU"
  bottom: "conv21"
  top: "conv21"
}
layer {
  name: "conv22"
  type: "Convolution"
  bottom: "conv21"
  top: "conv22"
  param {
    lr_mult: 1
    decay_mult: 1
  }
  param {
    lr_mult: 2
    decay_mult: 0
  }
  convolution_param {
    num_output: 64
    pad: 1
    stride: 1
    weight_filler {
      type: "xavier"
    }
    bias_filler {
      type: "constant"
    }
    kernel_h: 3
    kernel_w: 3
  }
}
layer {
  name: "relu22"
  type: "ReLU"
  bottom: "conv22"
  top: "conv22"
}
layer {
  name: "pool2"
  type: "Pooling"
  bottom: "conv22"
  top: "pool2"
  pooling_param {
    pool: MAX
    kernel_size: 2
    stride: 2
  }
}
layer {
  name: "conv31"
  type: "Convolution"
  bottom: "pool2"
  top: "conv31"
  param {
    lr_mult: 1
    decay_mult: 1
  }
  param {
    lr_mult: 2
    decay_mult: 0
  }
  convolution_param {
    num_output: 96
    pad: 1
    stride: 1
    weight_filler {
      type: "xavier"
    }
    bias_filler {
      type: "constant"
    }
    kernel_h: 3
    kernel_w: 3
  }
}
layer {
  name: "relu31"
  type: "ReLU"
  bottom: "conv31"
  top: "conv31"
}
layer {
  name: "conv32"
  type: "Convolution"
  bottom: "conv31"
  top: "conv32"
  param {
    lr_mult: 1
    decay_mult: 1
  }
  param {
    lr_mult: 2
    decay_mult: 0
  }
  convolution_param {
    num_output: 96
    pad: 1
    stride: 1
    weight_filler {
      type: "xavier"
    }
    bias_filler {
      type: "constant"
    }
    kernel_h: 3
    kernel_w: 3
  }
}
layer {
  name: "relu32"
  type: "ReLU"
  bottom: "conv32"
  top: "conv32"
}
layer {
  name: "pool3"
  type: "Pooling"
  bottom: "conv32"
  top: "pool3"
  pooling_param {
    pool: MAX
    kernel_size: 2
    stride: 2
  }
}
layer {
  name: "conv41"
  type: "Convolution"
  bottom: "pool3"
  top: "conv41"
  param {
    lr_mult: 1
    decay_mult: 1
  }
  param {
    lr_mult: 2
    decay_mult: 0
  }
  convolution_param {
    num_output: 128
    pad: 1
    stride: 1
    weight_filler {
      type: "xavier"
    }
    bias_filler {
      type: "constant"
    }
    kernel_h: 3
    kernel_w: 3
  }
}
layer {
  name: "relu41"
  type: "ReLU"
  bottom: "conv41"
  top: "conv41"
}
layer {
  name: "conv42"
  type: "Convolution"
  bottom: "conv41"
  top: "conv42"
  param {
    lr_mult: 1
    decay_mult: 1
  }
  param {
    lr_mult: 2
    decay_mult: 0
  }
  convolution_param {
    num_output: 128
    pad: 1
    stride: 1
    weight_filler {
      type: "xavier"
    }
    bias_filler {
      type: "constant"
    }
    kernel_h: 3
    kernel_w: 3
  }
}
layer {
  name: "relu42"
  type: "ReLU"
  bottom: "conv42"
  top: "conv42"
}
layer {
  name: "pool4"
  type: "Pooling"
  bottom: "conv42"
  top: "pool4"
  pooling_param {
    pool: MAX
    kernel_size: 2
    stride: 2
  }
}
layer {
  name: "conv51"
  type: "Convolution"
  bottom: "pool4"
  top: "conv51"
  param {
    lr_mult: 1
    decay_mult: 1
  }
  param {
    lr_mult: 2
    decay_mult: 0
  }
  convolution_param {
    num_output: 256
    pad: 1
    stride: 1
    weight_filler {
      type: "xavier"
    }
    bias_filler {
      type: "constant"
    }
    kernel_h: 3
    kernel_w: 3
  }
}
layer {
  name: "relu51"
  type: "ReLU"
  bottom: "conv51"
  top: "conv51"
}
layer {
  name: "conv52"
  type: "Convolution"
  bottom: "conv51"
  top: "conv52"
  param {
    lr_mult: 1
    decay_mult: 1
  }
  param {
    lr_mult: 2
    decay_mult: 0
  }
  convolution_param {
    num_output: 256
    pad: 1
    stride: 1
    weight_filler {
      type: "xavier"
    }
    bias_filler {
      type: "constant"
    }
    kernel_h: 3
    kernel_w: 3
  }
}
layer {
  name: "relu52"
  type: "ReLU"
  bottom: "conv52"
  top: "conv52"
}
layer {
  name: "conv53"
  type: "Convolution"
  bottom: "conv52"
  top: "conv53"
  param {
    lr_mult: 1
    decay_mult: 1
  }
  param {
    lr_mult: 2
    decay_mult: 0
  }
  convolution_param {
    num_output: 256
    stride: 1
    weight_filler {
      type: "xavier"
    }
    bias_filler {
      type: "constant"
    }
    kernel_h: 7
    kernel_w: 7
  }
}
layer {
  name: "relu53"
  type: "ReLU"
  bottom: "conv53"
  top: "conv53"
}
layer {
  name: "drop6"
  type: "Dropout"
  bottom: "conv53"
  top: "drop6"
  dropout_param {
    dropout_ratio: 0.4
  }
}
layer {
  name: "conv54"
  type: "Convolution"
  bottom: "drop6"
  top: "conv54"
  param {
    lr_mult: 1
    decay_mult: 1
  }
  param {
    lr_mult: 2
    decay_mult: 0
  }
  convolution_param {
    num_output: 2
    stride: 1
    weight_filler {
      type: "xavier"
    }
    bias_filler {
      type: "constant"
    }
    kernel_h: 1
    kernel_w: 1
  }
}
layer {
  name: "accuracy"
  type: "Accuracy"
  bottom: "conv54"
  bottom: "label"
  top: "accuracy"
}
layer {
  name: "loss"
  type: "SoftmaxWithLoss"
  bottom: "conv54"
  bottom: "label"
  top: "loss"
}
I0701 19:41:03.994352 22713 layer_factory.hpp:76] Creating layer data
I0701 19:41:03.994417 22713 net.cpp:106] Creating Layer data
I0701 19:41:03.994457 22713 net.cpp:411] data -> data
I0701 19:41:03.994488 22713 net.cpp:411] data -> label
I0701 19:41:03.994945 22713 image_data_layer.cpp:36] Opening file ../lists/roi-train.lst
I0701 19:41:04.141402 22713 image_data_layer.cpp:46] Shuffling data
I0701 19:41:04.170157 22713 image_data_layer.cpp:51] A total of 211680 images.
I0701 19:41:04.240149 22713 image_data_layer.cpp:78] output data size: 128,3,100,100
I0701 19:41:04.273588 22713 net.cpp:150] Setting up data
I0701 19:41:04.273675 22713 net.cpp:157] Top shape: 128 3 100 100 (3840000)
I0701 19:41:04.273689 22713 net.cpp:157] Top shape: 128 (128)
I0701 19:41:04.273699 22713 net.cpp:165] Memory required for data: 15360512
I0701 19:41:04.273713 22713 layer_factory.hpp:76] Creating layer label_data_1_split
I0701 19:41:04.273736 22713 net.cpp:106] Creating Layer label_data_1_split
I0701 19:41:04.273749 22713 net.cpp:454] label_data_1_split <- label
I0701 19:41:04.273774 22713 net.cpp:411] label_data_1_split -> label_data_1_split_0
I0701 19:41:04.273792 22713 net.cpp:411] label_data_1_split -> label_data_1_split_1
I0701 19:41:04.273857 22713 net.cpp:150] Setting up label_data_1_split
I0701 19:41:04.273871 22713 net.cpp:157] Top shape: 128 (128)
I0701 19:41:04.273880 22713 net.cpp:157] Top shape: 128 (128)
I0701 19:41:04.273890 22713 net.cpp:165] Memory required for data: 15361536
I0701 19:41:04.273898 22713 layer_factory.hpp:76] Creating layer conv11
I0701 19:41:04.273919 22713 net.cpp:106] Creating Layer conv11
I0701 19:41:04.273932 22713 net.cpp:454] conv11 <- data
I0701 19:41:04.273947 22713 net.cpp:411] conv11 -> conv11
I0701 19:41:04.503365 22713 net.cpp:150] Setting up conv11
I0701 19:41:04.503427 22713 net.cpp:157] Top shape: 128 32 100 100 (40960000)
I0701 19:41:04.503437 22713 net.cpp:165] Memory required for data: 179201536
I0701 19:41:04.503468 22713 layer_factory.hpp:76] Creating layer relu11
I0701 19:41:04.503500 22713 net.cpp:106] Creating Layer relu11
I0701 19:41:04.503520 22713 net.cpp:454] relu11 <- conv11
I0701 19:41:04.503532 22713 net.cpp:397] relu11 -> conv11 (in-place)
I0701 19:41:04.503726 22713 net.cpp:150] Setting up relu11
I0701 19:41:04.503748 22713 net.cpp:157] Top shape: 128 32 100 100 (40960000)
I0701 19:41:04.503757 22713 net.cpp:165] Memory required for data: 343041536
I0701 19:41:04.503767 22713 layer_factory.hpp:76] Creating layer conv12
I0701 19:41:04.503787 22713 net.cpp:106] Creating Layer conv12
I0701 19:41:04.503795 22713 net.cpp:454] conv12 <- conv11
I0701 19:41:04.503808 22713 net.cpp:411] conv12 -> conv12
I0701 19:41:04.504844 22713 net.cpp:150] Setting up conv12
I0701 19:41:04.504868 22713 net.cpp:157] Top shape: 128 32 100 100 (40960000)
I0701 19:41:04.504879 22713 net.cpp:165] Memory required for data: 506881536
I0701 19:41:04.504894 22713 layer_factory.hpp:76] Creating layer relu12
I0701 19:41:04.504907 22713 net.cpp:106] Creating Layer relu12
I0701 19:41:04.504916 22713 net.cpp:454] relu12 <- conv12
I0701 19:41:04.504927 22713 net.cpp:397] relu12 -> conv12 (in-place)
I0701 19:41:04.505242 22713 net.cpp:150] Setting up relu12
I0701 19:41:04.505264 22713 net.cpp:157] Top shape: 128 32 100 100 (40960000)
I0701 19:41:04.505272 22713 net.cpp:165] Memory required for data: 670721536
I0701 19:41:04.505281 22713 layer_factory.hpp:76] Creating layer pool1
I0701 19:41:04.505296 22713 net.cpp:106] Creating Layer pool1
I0701 19:41:04.505306 22713 net.cpp:454] pool1 <- conv12
I0701 19:41:04.505316 22713 net.cpp:411] pool1 -> pool1
I0701 19:41:04.505550 22713 net.cpp:150] Setting up pool1
I0701 19:41:04.505568 22713 net.cpp:157] Top shape: 128 32 50 50 (10240000)
I0701 19:41:04.505578 22713 net.cpp:165] Memory required for data: 711681536
I0701 19:41:04.505586 22713 layer_factory.hpp:76] Creating layer conv21
I0701 19:41:04.505604 22713 net.cpp:106] Creating Layer conv21
I0701 19:41:04.505614 22713 net.cpp:454] conv21 <- pool1
I0701 19:41:04.505626 22713 net.cpp:411] conv21 -> conv21
I0701 19:41:04.507948 22713 net.cpp:150] Setting up conv21
I0701 19:41:04.507975 22713 net.cpp:157] Top shape: 128 64 50 50 (20480000)
I0701 19:41:04.507984 22713 net.cpp:165] Memory required for data: 793601536
I0701 19:41:04.508003 22713 layer_factory.hpp:76] Creating layer relu21
I0701 19:41:04.508018 22713 net.cpp:106] Creating Layer relu21
I0701 19:41:04.508030 22713 net.cpp:454] relu21 <- conv21
I0701 19:41:04.508041 22713 net.cpp:397] relu21 -> conv21 (in-place)
I0701 19:41:04.508378 22713 net.cpp:150] Setting up relu21
I0701 19:41:04.508399 22713 net.cpp:157] Top shape: 128 64 50 50 (20480000)
I0701 19:41:04.508451 22713 net.cpp:165] Memory required for data: 875521536
I0701 19:41:04.508461 22713 layer_factory.hpp:76] Creating layer conv22
I0701 19:41:04.508481 22713 net.cpp:106] Creating Layer conv22
I0701 19:41:04.508492 22713 net.cpp:454] conv22 <- conv21
I0701 19:41:04.508504 22713 net.cpp:411] conv22 -> conv22
I0701 19:41:04.509667 22713 cudnn_conv_layer.cpp:194] Reallocating workspace storage: 6912
I0701 19:41:04.509874 22713 net.cpp:150] Setting up conv22
I0701 19:41:04.509894 22713 net.cpp:157] Top shape: 128 64 50 50 (20480000)
I0701 19:41:04.509905 22713 net.cpp:165] Memory required for data: 957441536
I0701 19:41:04.509917 22713 layer_factory.hpp:76] Creating layer relu22
I0701 19:41:04.509932 22713 net.cpp:106] Creating Layer relu22
I0701 19:41:04.509943 22713 net.cpp:454] relu22 <- conv22
I0701 19:41:04.509953 22713 net.cpp:397] relu22 -> conv22 (in-place)
I0701 19:41:04.510265 22713 net.cpp:150] Setting up relu22
I0701 19:41:04.510287 22713 net.cpp:157] Top shape: 128 64 50 50 (20480000)
I0701 19:41:04.510294 22713 net.cpp:165] Memory required for data: 1039361536
I0701 19:41:04.510303 22713 layer_factory.hpp:76] Creating layer pool2
I0701 19:41:04.510324 22713 net.cpp:106] Creating Layer pool2
I0701 19:41:04.510339 22713 net.cpp:454] pool2 <- conv22
I0701 19:41:04.510351 22713 net.cpp:411] pool2 -> pool2
I0701 19:41:04.510557 22713 net.cpp:150] Setting up pool2
I0701 19:41:04.510574 22713 net.cpp:157] Top shape: 128 64 25 25 (5120000)
I0701 19:41:04.510583 22713 net.cpp:165] Memory required for data: 1059841536
I0701 19:41:04.510591 22713 layer_factory.hpp:76] Creating layer conv31
I0701 19:41:04.510609 22713 net.cpp:106] Creating Layer conv31
I0701 19:41:04.510619 22713 net.cpp:454] conv31 <- pool2
I0701 19:41:04.510637 22713 net.cpp:411] conv31 -> conv31
I0701 19:41:04.512073 22713 cudnn_conv_layer.cpp:194] Reallocating workspace storage: 6912
I0701 19:41:04.512109 22713 net.cpp:150] Setting up conv31
I0701 19:41:04.512122 22713 net.cpp:157] Top shape: 128 96 25 25 (7680000)
I0701 19:41:04.512131 22713 net.cpp:165] Memory required for data: 1090561536
I0701 19:41:04.512148 22713 layer_factory.hpp:76] Creating layer relu31
I0701 19:41:04.512161 22713 net.cpp:106] Creating Layer relu31
I0701 19:41:04.512171 22713 net.cpp:454] relu31 <- conv31
I0701 19:41:04.512184 22713 net.cpp:397] relu31 -> conv31 (in-place)
I0701 19:41:04.512511 22713 net.cpp:150] Setting up relu31
I0701 19:41:04.512531 22713 net.cpp:157] Top shape: 128 96 25 25 (7680000)
I0701 19:41:04.512540 22713 net.cpp:165] Memory required for data: 1121281536
I0701 19:41:04.512549 22713 layer_factory.hpp:76] Creating layer conv32
I0701 19:41:04.512564 22713 net.cpp:106] Creating Layer conv32
I0701 19:41:04.512575 22713 net.cpp:454] conv32 <- conv31
I0701 19:41:04.512585 22713 net.cpp:411] conv32 -> conv32
I0701 19:41:04.514837 22713 cudnn_conv_layer.cpp:194] Reallocating workspace storage: 10368
I0701 19:41:04.514886 22713 net.cpp:150] Setting up conv32
I0701 19:41:04.514904 22713 net.cpp:157] Top shape: 128 96 25 25 (7680000)
I0701 19:41:04.514912 22713 net.cpp:165] Memory required for data: 1152001536
I0701 19:41:04.514925 22713 layer_factory.hpp:76] Creating layer relu32
I0701 19:41:04.514945 22713 net.cpp:106] Creating Layer relu32
I0701 19:41:04.514967 22713 net.cpp:454] relu32 <- conv32
I0701 19:41:04.514981 22713 net.cpp:397] relu32 -> conv32 (in-place)
I0701 19:41:04.515171 22713 net.cpp:150] Setting up relu32
I0701 19:41:04.515187 22713 net.cpp:157] Top shape: 128 96 25 25 (7680000)
I0701 19:41:04.515195 22713 net.cpp:165] Memory required for data: 1182721536
I0701 19:41:04.515204 22713 layer_factory.hpp:76] Creating layer pool3
I0701 19:41:04.515223 22713 net.cpp:106] Creating Layer pool3
I0701 19:41:04.515233 22713 net.cpp:454] pool3 <- conv32
I0701 19:41:04.515244 22713 net.cpp:411] pool3 -> pool3
I0701 19:41:04.515635 22713 net.cpp:150] Setting up pool3
I0701 19:41:04.515660 22713 net.cpp:157] Top shape: 128 96 13 13 (2076672)
I0701 19:41:04.515671 22713 net.cpp:165] Memory required for data: 1191028224
I0701 19:41:04.515679 22713 layer_factory.hpp:76] Creating layer conv41
I0701 19:41:04.515724 22713 net.cpp:106] Creating Layer conv41
I0701 19:41:04.515735 22713 net.cpp:454] conv41 <- pool3
I0701 19:41:04.515750 22713 net.cpp:411] conv41 -> conv41
I0701 19:41:04.517483 22713 net.cpp:150] Setting up conv41
I0701 19:41:04.517508 22713 net.cpp:157] Top shape: 128 128 13 13 (2768896)
I0701 19:41:04.517516 22713 net.cpp:165] Memory required for data: 1202103808
I0701 19:41:04.517529 22713 layer_factory.hpp:76] Creating layer relu41
I0701 19:41:04.517542 22713 net.cpp:106] Creating Layer relu41
I0701 19:41:04.517552 22713 net.cpp:454] relu41 <- conv41
I0701 19:41:04.517565 22713 net.cpp:397] relu41 -> conv41 (in-place)
I0701 19:41:04.518046 22713 net.cpp:150] Setting up relu41
I0701 19:41:04.518069 22713 net.cpp:157] Top shape: 128 128 13 13 (2768896)
I0701 19:41:04.518079 22713 net.cpp:165] Memory required for data: 1213179392
I0701 19:41:04.518087 22713 layer_factory.hpp:76] Creating layer conv42
I0701 19:41:04.518101 22713 net.cpp:106] Creating Layer conv42
I0701 19:41:04.518110 22713 net.cpp:454] conv42 <- conv41
I0701 19:41:04.518126 22713 net.cpp:411] conv42 -> conv42
I0701 19:41:04.520848 22713 cudnn_conv_layer.cpp:194] Reallocating workspace storage: 13824
I0701 19:41:04.520889 22713 net.cpp:150] Setting up conv42
I0701 19:41:04.520905 22713 net.cpp:157] Top shape: 128 128 13 13 (2768896)
I0701 19:41:04.520912 22713 net.cpp:165] Memory required for data: 1224254976
I0701 19:41:04.520925 22713 layer_factory.hpp:76] Creating layer relu42
I0701 19:41:04.520941 22713 net.cpp:106] Creating Layer relu42
I0701 19:41:04.520952 22713 net.cpp:454] relu42 <- conv42
I0701 19:41:04.520964 22713 net.cpp:397] relu42 -> conv42 (in-place)
I0701 19:41:04.521144 22713 net.cpp:150] Setting up relu42
I0701 19:41:04.521162 22713 net.cpp:157] Top shape: 128 128 13 13 (2768896)
I0701 19:41:04.521169 22713 net.cpp:165] Memory required for data: 1235330560
I0701 19:41:04.521178 22713 layer_factory.hpp:76] Creating layer pool4
I0701 19:41:04.521193 22713 net.cpp:106] Creating Layer pool4
I0701 19:41:04.521203 22713 net.cpp:454] pool4 <- conv42
I0701 19:41:04.521214 22713 net.cpp:411] pool4 -> pool4
I0701 19:41:04.521559 22713 net.cpp:150] Setting up pool4
I0701 19:41:04.521579 22713 net.cpp:157] Top shape: 128 128 7 7 (802816)
I0701 19:41:04.521589 22713 net.cpp:165] Memory required for data: 1238541824
I0701 19:41:04.521597 22713 layer_factory.hpp:76] Creating layer conv51
I0701 19:41:04.521613 22713 net.cpp:106] Creating Layer conv51
I0701 19:41:04.521623 22713 net.cpp:454] conv51 <- pool4
I0701 19:41:04.521634 22713 net.cpp:411] conv51 -> conv51
I0701 19:41:04.525497 22713 net.cpp:150] Setting up conv51
I0701 19:41:04.525545 22713 net.cpp:157] Top shape: 128 256 7 7 (1605632)
I0701 19:41:04.525555 22713 net.cpp:165] Memory required for data: 1244964352
I0701 19:41:04.525575 22713 layer_factory.hpp:76] Creating layer relu51
I0701 19:41:04.525599 22713 net.cpp:106] Creating Layer relu51
I0701 19:41:04.525610 22713 net.cpp:454] relu51 <- conv51
I0701 19:41:04.525624 22713 net.cpp:397] relu51 -> conv51 (in-place)
I0701 19:41:04.525812 22713 net.cpp:150] Setting up relu51
I0701 19:41:04.525830 22713 net.cpp:157] Top shape: 128 256 7 7 (1605632)
I0701 19:41:04.525838 22713 net.cpp:165] Memory required for data: 1251386880
I0701 19:41:04.525847 22713 layer_factory.hpp:76] Creating layer conv52
I0701 19:41:04.525864 22713 net.cpp:106] Creating Layer conv52
I0701 19:41:04.525874 22713 net.cpp:454] conv52 <- conv51
I0701 19:41:04.525884 22713 net.cpp:411] conv52 -> conv52
I0701 19:41:04.532394 22713 net.cpp:150] Setting up conv52
I0701 19:41:04.532443 22713 net.cpp:157] Top shape: 128 256 7 7 (1605632)
I0701 19:41:04.532460 22713 net.cpp:165] Memory required for data: 1257809408
I0701 19:41:04.532475 22713 layer_factory.hpp:76] Creating layer relu52
I0701 19:41:04.532492 22713 net.cpp:106] Creating Layer relu52
I0701 19:41:04.532505 22713 net.cpp:454] relu52 <- conv52
I0701 19:41:04.532516 22713 net.cpp:397] relu52 -> conv52 (in-place)
I0701 19:41:04.532840 22713 net.cpp:150] Setting up relu52
I0701 19:41:04.532888 22713 net.cpp:157] Top shape: 128 256 7 7 (1605632)
I0701 19:41:04.532898 22713 net.cpp:165] Memory required for data: 1264231936
I0701 19:41:04.532907 22713 layer_factory.hpp:76] Creating layer conv53
I0701 19:41:04.532928 22713 net.cpp:106] Creating Layer conv53
I0701 19:41:04.532938 22713 net.cpp:454] conv53 <- conv52
I0701 19:41:04.532953 22713 net.cpp:411] conv53 -> conv53
I0701 19:41:04.563551 22713 cudnn_conv_layer.cpp:194] Reallocating workspace storage: 150528
I0701 19:41:04.563793 22713 net.cpp:150] Setting up conv53
I0701 19:41:04.563817 22713 net.cpp:157] Top shape: 128 256 1 1 (32768)
I0701 19:41:04.563829 22713 net.cpp:165] Memory required for data: 1264363008
I0701 19:41:04.563846 22713 layer_factory.hpp:76] Creating layer relu53
I0701 19:41:04.563863 22713 net.cpp:106] Creating Layer relu53
I0701 19:41:04.563874 22713 net.cpp:454] relu53 <- conv53
I0701 19:41:04.563891 22713 net.cpp:397] relu53 -> conv53 (in-place)
I0701 19:41:04.564218 22713 net.cpp:150] Setting up relu53
I0701 19:41:04.564242 22713 net.cpp:157] Top shape: 128 256 1 1 (32768)
I0701 19:41:04.564252 22713 net.cpp:165] Memory required for data: 1264494080
I0701 19:41:04.564261 22713 layer_factory.hpp:76] Creating layer drop6
I0701 19:41:04.564280 22713 net.cpp:106] Creating Layer drop6
I0701 19:41:04.564290 22713 net.cpp:454] drop6 <- conv53
I0701 19:41:04.564306 22713 net.cpp:411] drop6 -> drop6
I0701 19:41:04.564364 22713 net.cpp:150] Setting up drop6
I0701 19:41:04.564379 22713 net.cpp:157] Top shape: 128 256 1 1 (32768)
I0701 19:41:04.564388 22713 net.cpp:165] Memory required for data: 1264625152
I0701 19:41:04.564395 22713 layer_factory.hpp:76] Creating layer conv54
I0701 19:41:04.564414 22713 net.cpp:106] Creating Layer conv54
I0701 19:41:04.564442 22713 net.cpp:454] conv54 <- drop6
I0701 19:41:04.564453 22713 net.cpp:411] conv54 -> conv54
I0701 19:41:04.565495 22713 cudnn_conv_layer.cpp:194] Reallocating workspace storage: 3072
I0701 19:41:04.565692 22713 net.cpp:150] Setting up conv54
I0701 19:41:04.565712 22713 net.cpp:157] Top shape: 128 2 1 1 (256)
I0701 19:41:04.565721 22713 net.cpp:165] Memory required for data: 1264626176
I0701 19:41:04.565734 22713 layer_factory.hpp:76] Creating layer conv54_conv54_0_split
I0701 19:41:04.565749 22713 net.cpp:106] Creating Layer conv54_conv54_0_split
I0701 19:41:04.565758 22713 net.cpp:454] conv54_conv54_0_split <- conv54
I0701 19:41:04.565773 22713 net.cpp:411] conv54_conv54_0_split -> conv54_conv54_0_split_0
I0701 19:41:04.565784 22713 net.cpp:411] conv54_conv54_0_split -> conv54_conv54_0_split_1
I0701 19:41:04.565835 22713 net.cpp:150] Setting up conv54_conv54_0_split
I0701 19:41:04.565850 22713 net.cpp:157] Top shape: 128 2 1 1 (256)
I0701 19:41:04.565860 22713 net.cpp:157] Top shape: 128 2 1 1 (256)
I0701 19:41:04.565871 22713 net.cpp:165] Memory required for data: 1264628224
I0701 19:41:04.565883 22713 layer_factory.hpp:76] Creating layer accuracy
I0701 19:41:04.565898 22713 net.cpp:106] Creating Layer accuracy
I0701 19:41:04.565912 22713 net.cpp:454] accuracy <- conv54_conv54_0_split_0
I0701 19:41:04.565930 22713 net.cpp:454] accuracy <- label_data_1_split_0
I0701 19:41:04.565944 22713 net.cpp:411] accuracy -> accuracy
…
I0701 19:41:04.567644 22713 net.cpp:322] The NetState phase (1) differed from the phase (0) specified by a rule in layer data
I0701 19:41:04.567821 22713 net.cpp:49] Initializing net from parameters: 
name: "FaceNN"
state {
  phase: TEST
}
layer {
  name: "data"
  type: "ImageData"
  top: "data"
  top: "label"
  include {
    phase: TEST
  }
  transform_param {
    mirror: false
    crop_size: 100
    mean_value: 104
    mean_value: 117
    mean_value: 123
  }
  image_data_param {
    source: "../lists/roi-val.lst"
    batch_size: 32
    shuffle: true
    new_height: 110
    new_width: 110
  }
}
layer {
  name: "conv11"
  type: "Convolution"
  bottom: "data"
  top: "conv11"
  param {
    lr_mult: 1
    decay_mult: 1
  }
  param {
    lr_mult: 2
    decay_mult: 0
  }
  convolution_param {
    num_output: 32
    pad: 1
    stride: 1
    weight_filler {
      type: "xavier"
    }
    bias_filler {
      type: "constant"
    }
    kernel_h: 3
    kernel_w: 3
  }
}
layer {
  name: "relu11"
  type: "ReLU"
  bottom: "conv11"
  top: "conv11"
}
layer {
  name: "conv12"
  type: "Convolution"
  bottom: "conv11"
  top: "conv12"
  param {
    lr_mult: 1
    decay_mult: 1
  }
  param {
    lr_mult: 2
    decay_mult: 0
  }
  convolution_param {
    num_output: 32
    pad: 1
    stride: 1
    weight_filler {
      type: "xavier"
    }
    bias_filler {
      type: "constant"
    }
    kernel_h: 3
    kernel_w: 3
  }
}
layer {
  name: "relu12"
  type: "ReLU"
  bottom: "conv12"
  top: "conv12"
}
layer {
  name: "pool1"
  type: "Pooling"
  bottom: "conv12"
  top: "pool1"
  pooling_param {
    pool: MAX
    kernel_size: 2
    stride: 2
  }
}
layer {
  name: "conv21"
  type: "Convolution"
  bottom: "pool1"
  top: "conv21"
  param {
    lr_mult: 1
    decay_mult: 1
  }
  param {
    lr_mult: 2
    decay_mult: 0
  }
  convolution_param {
    num_output: 64
    pad: 1
    stride: 1
    weight_filler {
      type: "xavier"
    }
    bias_filler {
      type: "constant"
    }
    kernel_h: 3
    kernel_w: 3
  }
}
layer {
  name: "relu21"
  type: "ReLU"
  bottom: "conv21"
  top: "conv21"
}
layer {
  name: "conv22"
  type: "Convolution"
  bottom: "conv21"
  top: "conv22"
  param {
    lr_mult: 1
    decay_mult: 1
  }
  param {
    lr_mult: 2
    decay_mult: 0
  }
  convolution_param {
    num_output: 64
    pad: 1
    stride: 1
    weight_filler {
      type: "xavier"
    }
    bias_filler {
      type: "constant"
    }
    kernel_h: 3
    kernel_w: 3
  }
}
layer {
  name: "relu22"
  type: "ReLU"
  bottom: "conv22"
  top: "conv22"
}
layer {
  name: "pool2"
  type: "Pooling"
  bottom: "conv22"
  top: "pool2"
  pooling_param {
    pool: MAX
    kernel_size: 2
    stride: 2
  }
}
layer {
  name: "conv31"
  type: "Convolution"
  bottom: "pool2"
  top: "conv31"
  param {
    lr_mult: 1
    decay_mult: 1
  }
  param {
    lr_mult: 2
    decay_mult: 0
  }
  convolution_param {
    num_output: 96
    pad: 1
    stride: 1
    weight_filler {
      type: "xavier"
    }
    bias_filler {
      type: "constant"
    }
    kernel_h: 3
    kernel_w: 3
  }
}
layer {
  name: "relu31"
  type: "ReLU"
  bottom: "conv31"
  top: "conv31"
}
layer {
  name: "conv32"
  type: "Convolution"
  bottom: "conv31"
  top: "conv32"
  param {
    lr_mult: 1
    decay_mult: 1
  }
  param {
    lr_mult: 2
    decay_mult: 0
  }
  convolution_param {
    num_output: 96
    pad: 1
    stride: 1
    weight_filler {
      type: "xavier"
    }
    bias_filler {
      type: "constant"
    }
    kernel_h: 3
    kernel_w: 3
  }
}
layer {
  name: "relu32"
  type: "ReLU"
  bottom: "conv32"
  top: "conv32"
}
layer {
  name: "pool3"
  type: "Pooling"
  bottom: "conv32"
  top: "pool3"
  pooling_param {
    pool: MAX
    kernel_size: 2
    stride: 2
  }
}
layer {
  name: "conv41"
  type: "Convolution"
  bottom: "pool3"
  top: "conv41"
  param {
    lr_mult: 1
    decay_mult: 1
  }
  param {
    lr_mult: 2
    decay_mult: 0
  }
  convolution_param {
    num_output: 128
    pad: 1
    stride: 1
    weight_filler {
      type: "xavier"
    }
    bias_filler {
      type: "constant"
    }
    kernel_h: 3
    kernel_w: 3
  }
}
layer {
  name: "relu41"
  type: "ReLU"
  bottom: "conv41"
  top: "conv41"
}
layer {
  name: "conv42"
  type: "Convolution"
  bottom: "conv41"
  top: "conv42"
  param {
    lr_mult: 1
    decay_mult: 1
  }
  param {
    lr_mult: 2
    decay_mult: 0
  }
  convolution_param {
    num_output: 128
    pad: 1
    stride: 1
    weight_filler {
      type: "xavier"
    }
    bias_filler {
      type: "constant"
    }
    kernel_h: 3
    kernel_w: 3
  }
}
layer {
  name: "relu42"
  type: "ReLU"
  bottom: "conv42"
  top: "conv42"
}
layer {
  name: "pool4"
  type: "Pooling"
  bottom: "conv42"
  top: "pool4"
  pooling_param {
    pool: MAX
    kernel_size: 2
    stride: 2
  }
}
layer {
  name: "conv51"
  type: "Convolution"
  bottom: "pool4"
  top: "conv51"
  param {
    lr_mult: 1
    decay_mult: 1
  }
  param {
    lr_mult: 2
    decay_mult: 0
  }
  convolution_param {
    num_output: 256
    pad: 1
    stride: 1
    weight_filler {
      type: "xavier"
    }
    bias_filler {
      type: "constant"
    }
    kernel_h: 3
    kernel_w: 3
  }
}
layer {
  name: "relu51"
  type: "ReLU"
  bottom: "conv51"
  top: "conv51"
}
layer {
  name: "conv52"
  type: "Convolution"
  bottom: "conv51"
  top: "conv52"
  param {
    lr_mult: 1
    decay_mult: 1
  }
  param {
    lr_mult: 2
    decay_mult: 0
  }
  convolution_param {
    num_output: 256
    pad: 1
    stride: 1
    weight_filler {
      type: "xavier"
    }
    bias_filler {
      type: "constant"
    }
    kernel_h: 3
    kernel_w: 3
  }
}
layer {
  name: "relu52"
  type: "ReLU"
  bottom: "conv52"
  top: "conv52"
}
layer {
  name: "conv53"
  type: "Convolution"
  bottom: "conv52"
  top: "conv53"
  param {
    lr_mult: 1
    decay_mult: 1
  }
  param {
    lr_mult: 2
    decay_mult: 0
  }
  convolution_param {
    num_output: 256
    stride: 1
    weight_filler {
      type: "xavier"
    }
    bias_filler {
      type: "constant"
    }
    kernel_h: 7
    kernel_w: 7
  }
}
layer {
  name: "relu53"
  type: "ReLU"
  bottom: "conv53"
  top: "conv53"
}
layer {
  name: "drop6"
  type: "Dropout"
  bottom: "conv53"
  top: "drop6"
  dropout_param {
    dropout_ratio: 0.4
  }
}
layer {
  name: "conv54"
  type: "Convolution"
  bottom: "drop6"
  top: "conv54"
  param {
    lr_mult: 1
    decay_mult: 1
  }
  param {
    lr_mult: 2
    decay_mult: 0
  }
  convolution_param {
    num_output: 2
    stride: 1
    weight_filler {
      type: "xavier"
    }
    bias_filler {
      type: "constant"
    }
    kernel_h: 1
    kernel_w: 1
  }
}
layer {
  name: "accuracy"
  type: "Accuracy"
  bottom: "conv54"
  bottom: "label"
  top: "accuracy"
}
layer {
  name: "loss"
  type: "SoftmaxWithLoss"
  bottom: "conv54"
  bottom: "label"
  top: "loss"
}
I0701 19:41:04.568074 22713 layer_factory.hpp:76] Creating layer data
I0701 19:41:04.568089 22713 net.cpp:106] Creating Layer data
I0701 19:41:04.568095 22713 net.cpp:411] data -> data
I0701 19:41:04.568104 22713 net.cpp:411] data -> label
I0701 19:41:04.568114 22713 image_data_layer.cpp:36] Opening file ../lists/roi-val.lst
I0701 19:41:04.579824 22713 image_data_layer.cpp:46] Shuffling data
I0701 19:41:04.581437 22713 image_data_layer.cpp:51] A total of 23520 images.
I0701 19:41:04.600580 22713 image_data_layer.cpp:78] output data size: 32,3,100,100
I0701 19:41:04.608541 22713 net.cpp:150] Setting up data
I0701 19:41:04.608585 22713 net.cpp:157] Top shape: 32 3 100 100 (960000)
I0701 19:41:04.608597 22713 net.cpp:157] Top shape: 32 (32)
I0701 19:41:04.608605 22713 net.cpp:165] Memory required for data: 3840128
I0701 19:41:04.608615 22713 layer_factory.hpp:76] Creating layer label_data_1_split
I0701 19:41:04.608633 22713 net.cpp:106] Creating Layer label_data_1_split
I0701 19:41:04.608644 22713 net.cpp:454] label_data_1_split <- label
I0701 19:41:04.608654 22713 net.cpp:411] label_data_1_split -> label_data_1_split_0
I0701 19:41:04.608670 22713 net.cpp:411] label_data_1_split -> label_data_1_split_1
I0701 19:41:04.608737 22713 net.cpp:150] Setting up label_data_1_split
I0701 19:41:04.608762 22713 net.cpp:157] Top shape: 32 (32)
I0701 19:41:04.608783 22713 net.cpp:157] Top shape: 32 (32)
I0701 19:41:04.608790 22713 net.cpp:165] Memory required for data: 3840384
I0701 19:41:04.608798 22713 layer_factory.hpp:76] Creating layer conv11
I0701 19:41:04.608816 22713 net.cpp:106] Creating Layer conv11
I0701 19:41:04.608824 22713 net.cpp:454] conv11 <- data
I0701 19:41:04.608835 22713 net.cpp:411] conv11 -> conv11
I0701 19:41:04.610510 22713 net.cpp:150] Setting up conv11
I0701 19:41:04.610560 22713 net.cpp:157] Top shape: 32 32 100 100 (10240000)
I0701 19:41:04.610576 22713 net.cpp:165] Memory required for data: 44800384
I0701 19:41:04.610605 22713 layer_factory.hpp:76] Creating layer relu11
I0701 19:41:04.610636 22713 net.cpp:106] Creating Layer relu11
I0701 19:41:04.610653 22713 net.cpp:454] relu11 <- conv11
I0701 19:41:04.610678 22713 net.cpp:397] relu11 -> conv11 (in-place)
I0701 19:41:04.611130 22713 net.cpp:150] Setting up relu11
I0701 19:41:04.611161 22713 net.cpp:157] Top shape: 32 32 100 100 (10240000)
I0701 19:41:04.611224 22713 net.cpp:165] Memory required for data: 85760384
I0701 19:41:04.611243 22713 layer_factory.hpp:76] Creating layer conv12
I0701 19:41:04.611269 22713 net.cpp:106] Creating Layer conv12
I0701 19:41:04.611289 22713 net.cpp:454] conv12 <- conv11
I0701 19:41:04.611310 22713 net.cpp:411] conv12 -> conv12
I0701 19:41:04.612813 22713 net.cpp:150] Setting up conv12
I0701 19:41:04.612849 22713 net.cpp:157] Top shape: 32 32 100 100 (10240000)
I0701 19:41:04.612867 22713 net.cpp:165] Memory required for data: 126720384
I0701 19:41:04.612895 22713 layer_factory.hpp:76] Creating layer relu12
I0701 19:41:04.612915 22713 net.cpp:106] Creating Layer relu12
I0701 19:41:04.612931 22713 net.cpp:454] relu12 <- conv12
I0701 19:41:04.612947 22713 net.cpp:397] relu12 -> conv12 (in-place)
I0701 19:41:04.613396 22713 net.cpp:150] Setting up relu12
I0701 19:41:04.613427 22713 net.cpp:157] Top shape: 32 32 100 100 (10240000)
I0701 19:41:04.613443 22713 net.cpp:165] Memory required for data: 167680384
I0701 19:41:04.613458 22713 layer_factory.hpp:76] Creating layer pool1
I0701 19:41:04.613478 22713 net.cpp:106] Creating Layer pool1
I0701 19:41:04.613495 22713 net.cpp:454] pool1 <- conv12
I0701 19:41:04.613513 22713 net.cpp:411] pool1 -> pool1
I0701 19:41:04.613836 22713 net.cpp:150] Setting up pool1
I0701 19:41:04.613862 22713 net.cpp:157] Top shape: 32 32 50 50 (2560000)
I0701 19:41:04.613878 22713 net.cpp:165] Memory required for data: 177920384
I0701 19:41:04.613891 22713 layer_factory.hpp:76] Creating layer conv21
I0701 19:41:04.613916 22713 net.cpp:106] Creating Layer conv21
I0701 19:41:04.613934 22713 net.cpp:454] conv21 <- pool1
I0701 19:41:04.613953 22713 net.cpp:411] conv21 -> conv21
I0701 19:41:04.615944 22713 net.cpp:150] Setting up conv21
I0701 19:41:04.615980 22713 net.cpp:157] Top shape: 32 64 50 50 (5120000)
I0701 19:41:04.615996 22713 net.cpp:165] Memory required for data: 198400384
I0701 19:41:04.616022 22713 layer_factory.hpp:76] Creating layer relu21
I0701 19:41:04.616049 22713 net.cpp:106] Creating Layer relu21
I0701 19:41:04.616065 22713 net.cpp:454] relu21 <- conv21
I0701 19:41:04.616081 22713 net.cpp:397] relu21 -> conv21 (in-place)
I0701 19:41:04.617229 22713 net.cpp:150] Setting up relu21
I0701 19:41:04.617262 22713 net.cpp:157] Top shape: 32 64 50 50 (5120000)
I0701 19:41:04.617279 22713 net.cpp:165] Memory required for data: 218880384
I0701 19:41:04.617293 22713 layer_factory.hpp:76] Creating layer conv22
I0701 19:41:04.617322 22713 net.cpp:106] Creating Layer conv22
I0701 19:41:04.617341 22713 net.cpp:454] conv22 <- conv21
I0701 19:41:04.617359 22713 net.cpp:411] conv22 -> conv22
I0701 19:41:04.619321 22713 net.cpp:150] Setting up conv22
I0701 19:41:04.619359 22713 net.cpp:157] Top shape: 32 64 50 50 (5120000)
I0701 19:41:04.619376 22713 net.cpp:165] Memory required for data: 239360384
I0701 19:41:04.619397 22713 layer_factory.hpp:76] Creating layer relu22
I0701 19:41:04.619421 22713 net.cpp:106] Creating Layer relu22
I0701 19:41:04.619439 22713 net.cpp:454] relu22 <- conv22
I0701 19:41:04.619456 22713 net.cpp:397] relu22 -> conv22 (in-place)
I0701 19:41:04.619724 22713 net.cpp:150] Setting up relu22
I0701 19:41:04.619750 22713 net.cpp:157] Top shape: 32 64 50 50 (5120000)
I0701 19:41:04.619766 22713 net.cpp:165] Memory required for data: 259840384
I0701 19:41:04.619781 22713 layer_factory.hpp:76] Creating layer pool2
I0701 19:41:04.619803 22713 net.cpp:106] Creating Layer pool2
I0701 19:41:04.619820 22713 net.cpp:454] pool2 <- conv22
I0701 19:41:04.619839 22713 net.cpp:411] pool2 -> pool2
I0701 19:41:04.620328 22713 net.cpp:150] Setting up pool2
I0701 19:41:04.620357 22713 net.cpp:157] Top shape: 32 64 25 25 (1280000)
I0701 19:41:04.620373 22713 net.cpp:165] Memory required for data: 264960384
I0701 19:41:04.620388 22713 layer_factory.hpp:76] Creating layer conv31
I0701 19:41:04.620414 22713 net.cpp:106] Creating Layer conv31
I0701 19:41:04.620448 22713 net.cpp:454] conv31 <- pool2
I0701 19:41:04.620474 22713 net.cpp:411] conv31 -> conv31
I0701 19:41:04.622452 22713 cudnn_conv_layer.cpp:194] Reallocating workspace storage: 6912
I0701 19:41:04.622493 22713 net.cpp:150] Setting up conv31
I0701 19:41:04.622505 22713 net.cpp:157] Top shape: 32 96 25 25 (1920000)
I0701 19:41:04.622514 22713 net.cpp:165] Memory required for data: 272640384
I0701 19:41:04.622534 22713 layer_factory.hpp:76] Creating layer relu31
I0701 19:41:04.622546 22713 net.cpp:106] Creating Layer relu31
I0701 19:41:04.622555 22713 net.cpp:454] relu31 <- conv31
I0701 19:41:04.622568 22713 net.cpp:397] relu31 -> conv31 (in-place)
I0701 19:41:04.622993 22713 net.cpp:150] Setting up relu31
I0701 19:41:04.623014 22713 net.cpp:157] Top shape: 32 96 25 25 (1920000)
I0701 19:41:04.623023 22713 net.cpp:165] Memory required for data: 280320384
I0701 19:41:04.623030 22713 layer_factory.hpp:76] Creating layer conv32
I0701 19:41:04.623049 22713 net.cpp:106] Creating Layer conv32
I0701 19:41:04.623056 22713 net.cpp:454] conv32 <- conv31
I0701 19:41:04.623070 22713 net.cpp:411] conv32 -> conv32
I0701 19:41:04.625746 22713 net.cpp:150] Setting up conv32
I0701 19:41:04.625782 22713 net.cpp:157] Top shape: 32 96 25 25 (1920000)
I0701 19:41:04.625794 22713 net.cpp:165] Memory required for data: 288000384
I0701 19:41:04.625813 22713 layer_factory.hpp:76] Creating layer relu32
I0701 19:41:04.625829 22713 net.cpp:106] Creating Layer relu32
I0701 19:41:04.625843 22713 net.cpp:454] relu32 <- conv32
I0701 19:41:04.625860 22713 net.cpp:397] relu32 -> conv32 (in-place)
I0701 19:41:04.626137 22713 net.cpp:150] Setting up relu32
I0701 19:41:04.626152 22713 net.cpp:157] Top shape: 32 96 25 25 (1920000)
I0701 19:41:04.626159 22713 net.cpp:165] Memory required for data: 295680384
I0701 19:41:04.626168 22713 layer_factory.hpp:76] Creating layer pool3
I0701 19:41:04.626185 22713 net.cpp:106] Creating Layer pool3
I0701 19:41:04.626194 22713 net.cpp:454] pool3 <- conv32
I0701 19:41:04.626204 22713 net.cpp:411] pool3 -> pool3
I0701 19:41:04.627133 22713 net.cpp:150] Setting up pool3
I0701 19:41:04.628484 22713 net.cpp:157] Top shape: 32 96 13 13 (519168)
I0701 19:41:04.628492 22713 net.cpp:165] Memory required for data: 297757056
I0701 19:41:04.628497 22713 layer_factory.hpp:76] Creating layer conv41
I0701 19:41:04.628511 22713 net.cpp:106] Creating Layer conv41
I0701 19:41:04.628516 22713 net.cpp:454] conv41 <- pool3
I0701 19:41:04.628526 22713 net.cpp:411] conv41 -> conv41
I0701 19:41:04.631482 22713 cudnn_conv_layer.cpp:194] Reallocating workspace storage: 10368
I0701 19:41:04.631525 22713 net.cpp:150] Setting up conv41
I0701 19:41:04.631532 22713 net.cpp:157] Top shape: 32 128 13 13 (692224)
I0701 19:41:04.631536 22713 net.cpp:165] Memory required for data: 300525952
I0701 19:41:04.631546 22713 layer_factory.hpp:76] Creating layer relu41
I0701 19:41:04.631554 22713 net.cpp:106] Creating Layer relu41
I0701 19:41:04.631558 22713 net.cpp:454] relu41 <- conv41
I0701 19:41:04.631567 22713 net.cpp:397] relu41 -> conv41 (in-place)
I0701 19:41:04.631743 22713 net.cpp:150] Setting up relu41
I0701 19:41:04.631752 22713 net.cpp:157] Top shape: 32 128 13 13 (692224)
I0701 19:41:04.631757 22713 net.cpp:165] Memory required for data: 303294848
I0701 19:41:04.631762 22713 layer_factory.hpp:76] Creating layer conv42
I0701 19:41:04.631772 22713 net.cpp:106] Creating Layer conv42
I0701 19:41:04.631777 22713 net.cpp:454] conv42 <- conv41
I0701 19:41:04.631784 22713 net.cpp:411] conv42 -> conv42
I0701 19:41:04.633872 22713 cudnn_conv_layer.cpp:194] Reallocating workspace storage: 13824
I0701 19:41:04.633900 22713 net.cpp:150] Setting up conv42
I0701 19:41:04.633908 22713 net.cpp:157] Top shape: 32 128 13 13 (692224)
I0701 19:41:04.633913 22713 net.cpp:165] Memory required for data: 306063744
I0701 19:41:04.633920 22713 layer_factory.hpp:76] Creating layer relu42
I0701 19:41:04.633930 22713 net.cpp:106] Creating Layer relu42
I0701 19:41:04.633935 22713 net.cpp:454] relu42 <- conv42
I0701 19:41:04.633941 22713 net.cpp:397] relu42 -> conv42 (in-place)
I0701 19:41:04.634256 22713 net.cpp:150] Setting up relu42
I0701 19:41:04.634268 22713 net.cpp:157] Top shape: 32 128 13 13 (692224)
I0701 19:41:04.634292 22713 net.cpp:165] Memory required for data: 308832640
I0701 19:41:04.634297 22713 layer_factory.hpp:76] Creating layer pool4
I0701 19:41:04.634307 22713 net.cpp:106] Creating Layer pool4
I0701 19:41:04.634312 22713 net.cpp:454] pool4 <- conv42
I0701 19:41:04.634318 22713 net.cpp:411] pool4 -> pool4
I0701 19:41:04.634526 22713 net.cpp:150] Setting up pool4
I0701 19:41:04.634536 22713 net.cpp:157] Top shape: 32 128 7 7 (200704)
I0701 19:41:04.634539 22713 net.cpp:165] Memory required for data: 309635456
I0701 19:41:04.634544 22713 layer_factory.hpp:76] Creating layer conv51
I0701 19:41:04.634555 22713 net.cpp:106] Creating Layer conv51
I0701 19:41:04.634560 22713 net.cpp:454] conv51 <- pool4
I0701 19:41:04.634567 22713 net.cpp:411] conv51 -> conv51
I0701 19:41:04.638439 22713 cudnn_conv_layer.cpp:194] Reallocating workspace storage: 21676032
I0701 19:41:04.638700 22713 net.cpp:150] Setting up conv51
I0701 19:41:04.638731 22713 net.cpp:157] Top shape: 32 256 7 7 (401408)
I0701 19:41:04.638742 22713 net.cpp:165] Memory required for data: 311241088
I0701 19:41:04.638759 22713 layer_factory.hpp:76] Creating layer relu51
I0701 19:41:04.638772 22713 net.cpp:106] Creating Layer relu51
I0701 19:41:04.638780 22713 net.cpp:454] relu51 <- conv51
I0701 19:41:04.638793 22713 net.cpp:397] relu51 -> conv51 (in-place)
I0701 19:41:04.639024 22713 net.cpp:150] Setting up relu51
I0701 19:41:04.639052 22713 net.cpp:157] Top shape: 32 256 7 7 (401408)
I0701 19:41:04.639061 22713 net.cpp:165] Memory required for data: 312846720
I0701 19:41:04.639070 22713 layer_factory.hpp:76] Creating layer conv52
I0701 19:41:04.639086 22713 net.cpp:106] Creating Layer conv52
I0701 19:41:04.639094 22713 net.cpp:454] conv52 <- conv51
I0701 19:41:04.639107 22713 net.cpp:411] conv52 -> conv52
I0701 19:41:04.645424 22713 net.cpp:150] Setting up conv52
I0701 19:41:04.645459 22713 net.cpp:157] Top shape: 32 256 7 7 (401408)
I0701 19:41:04.645468 22713 net.cpp:165] Memory required for data: 314452352
I0701 19:41:04.645480 22713 layer_factory.hpp:76] Creating layer relu52
I0701 19:41:04.645493 22713 net.cpp:106] Creating Layer relu52
I0701 19:41:04.645503 22713 net.cpp:454] relu52 <- conv52
I0701 19:41:04.645514 22713 net.cpp:397] relu52 -> conv52 (in-place)
I0701 19:41:04.645882 22713 net.cpp:150] Setting up relu52
I0701 19:41:04.645913 22713 net.cpp:157] Top shape: 32 256 7 7 (401408)
I0701 19:41:04.645922 22713 net.cpp:165] Memory required for data: 316057984
I0701 19:41:04.645931 22713 layer_factory.hpp:76] Creating layer conv53
I0701 19:41:04.645946 22713 net.cpp:106] Creating Layer conv53
I0701 19:41:04.645956 22713 net.cpp:454] conv53 <- conv52
I0701 19:41:04.645967 22713 net.cpp:411] conv53 -> conv53
I0701 19:41:04.674052 22713 cudnn_conv_layer.cpp:194] Reallocating workspace storage: 150528
I0701 19:41:04.674118 22713 net.cpp:150] Setting up conv53
I0701 19:41:04.674134 22713 net.cpp:157] Top shape: 32 256 1 1 (8192)
I0701 19:41:04.674141 22713 net.cpp:165] Memory required for data: 316090752
I0701 19:41:04.674155 22713 layer_factory.hpp:76] Creating layer relu53
I0701 19:41:04.674170 22713 net.cpp:106] Creating Layer relu53
I0701 19:41:04.674180 22713 net.cpp:454] relu53 <- conv53
I0701 19:41:04.674190 22713 net.cpp:397] relu53 -> conv53 (in-place)
I0701 19:41:04.674438 22713 net.cpp:150] Setting up relu53
I0701 19:41:04.674468 22713 net.cpp:157] Top shape: 32 256 1 1 (8192)
I0701 19:41:04.674475 22713 net.cpp:165] Memory required for data: 316123520
I0701 19:41:04.674484 22713 layer_factory.hpp:76] Creating layer drop6
I0701 19:41:04.674499 22713 net.cpp:106] Creating Layer drop6
I0701 19:41:04.674507 22713 net.cpp:454] drop6 <- conv53
I0701 19:41:04.674517 22713 net.cpp:411] drop6 -> drop6
I0701 19:41:04.674571 22713 net.cpp:150] Setting up drop6
I0701 19:41:04.674584 22713 net.cpp:157] Top shape: 32 256 1 1 (8192)
I0701 19:41:04.674592 22713 net.cpp:165] Memory required for data: 316156288
I0701 19:41:04.674600 22713 layer_factory.hpp:76] Creating layer conv54
I0701 19:41:04.674614 22713 net.cpp:106] Creating Layer conv54
I0701 19:41:04.674643 22713 net.cpp:454] conv54 <- drop6
I0701 19:41:04.674670 22713 net.cpp:411] conv54 -> conv54
I0701 19:41:04.675793 22713 cudnn_conv_layer.cpp:194] Reallocating workspace storage: 3072
I0701 19:41:04.675842 22713 net.cpp:150] Setting up conv54
I0701 19:41:04.675854 22713 net.cpp:157] Top shape: 32 2 1 1 (64)
I0701 19:41:04.675863 22713 net.cpp:165] Memory required for data: 316156544
I0701 19:41:04.675874 22713 layer_factory.hpp:76] Creating layer conv54_conv54_0_split
I0701 19:41:04.675886 22713 net.cpp:106] Creating Layer conv54_conv54_0_split
I0701 19:41:04.675894 22713 net.cpp:454] conv54_conv54_0_split <- conv54
I0701 19:41:04.675907 22713 net.cpp:411] conv54_conv54_0_split -> conv54_conv54_0_split_0
I0701 19:41:04.675920 22713 net.cpp:411] conv54_conv54_0_split -> conv54_conv54_0_split_1
I0701 19:41:04.675967 22713 net.cpp:150] Setting up conv54_conv54_0_split
I0701 19:41:04.675982 22713 net.cpp:157] Top shape: 32 2 1 1 (64)
I0701 19:41:04.675992 22713 net.cpp:157] Top shape: 32 2 1 1 (64)
I0701 19:41:04.675999 22713 net.cpp:165] Memory required for data: 316157056
I0701 19:41:04.676007 22713 layer_factory.hpp:76] Creating layer accuracy
I0701 19:41:04.676018 22713 net.cpp:106] Creating Layer accuracy
I0701 19:41:04.676026 22713 net.cpp:454] accuracy <- conv54_conv54_0_split_0
I0701 19:41:04.676035 22713 net.cpp:454] accuracy <- label_data_1_split_0
I0701 19:41:04.676045 22713 net.cpp:411] accuracy -> accuracy
…
