…
I0701 11:44:35.841655  2788 net.cpp:322] The NetState phase (0) differed from the phase (1) specified by a rule in layer accuracy
I0701 11:44:35.841845  2788 net.cpp:49] Initializing net from parameters: 
name: "FaceNN"
state {
  phase: TRAIN
}
layer {
  name: "data"
  type: "ImageData"
  top: "data"
  top: "label"
  include {
    phase: TRAIN
  }
  transform_param {
    mirror: true
    crop_size: 100
    mean_value: 104
    mean_value: 117
    mean_value: 123
  }
  image_data_param {
    source: "../lists/roi-train.lst"
    batch_size: 128
    shuffle: true
    new_height: 110
    new_width: 110
  }
}
layer {
  name: "conv11"
  type: "Convolution"
  bottom: "data"
  top: "conv11"
  param {
    lr_mult: 1
    decay_mult: 1
  }
  param {
    lr_mult: 2
    decay_mult: 0
  }
  convolution_param {
    num_output: 32
    pad: 1
    stride: 1
    weight_filler {
      type: "xavier"
    }
    bias_filler {
      type: "constant"
    }
    kernel_h: 3
    kernel_w: 3
  }
}
layer {
  name: "relu11"
  type: "ReLU"
  bottom: "conv11"
  top: "conv11"
}
layer {
  name: "conv12"
  type: "Convolution"
  bottom: "conv11"
  top: "conv12"
  param {
    lr_mult: 1
    decay_mult: 1
  }
  param {
    lr_mult: 2
    decay_mult: 0
  }
  convolution_param {
    num_output: 64
    pad: 1
    stride: 1
    weight_filler {
      type: "xavier"
    }
    bias_filler {
      type: "constant"
    }
    kernel_h: 3
    kernel_w: 3
  }
}
layer {
  name: "relu12"
  type: "ReLU"
  bottom: "conv12"
  top: "conv12"
}
layer {
  name: "pool1"
  type: "Pooling"
  bottom: "conv12"
  top: "pool1"
  pooling_param {
    pool: MAX
    kernel_size: 2
    stride: 2
  }
}
layer {
  name: "conv21"
  type: "Convolution"
  bottom: "pool1"
  top: "conv21"
  param {
    lr_mult: 1
    decay_mult: 1
  }
  param {
    lr_mult: 2
    decay_mult: 0
  }
  convolution_param {
    num_output: 64
    pad: 1
    stride: 1
    weight_filler {
      type: "xavier"
    }
    bias_filler {
      type: "constant"
    }
    kernel_h: 3
    kernel_w: 3
  }
}
layer {
  name: "relu21"
  type: "ReLU"
  bottom: "conv21"
  top: "conv21"
}
layer {
  name: "conv22"
  type: "Convolution"
  bottom: "conv21"
  top: "conv22"
  param {
    lr_mult: 1
    decay_mult: 1
  }
  param {
    lr_mult: 2
    decay_mult: 0
  }
  convolution_param {
    num_output: 128
    pad: 1
    stride: 1
    weight_filler {
      type: "xavier"
    }
    bias_filler {
      type: "constant"
    }
    kernel_h: 3
    kernel_w: 3
  }
}
layer {
  name: "relu22"
  type: "ReLU"
  bottom: "conv22"
  top: "conv22"
}
layer {
  name: "pool2"
  type: "Pooling"
  bottom: "conv22"
  top: "pool2"
  pooling_param {
    pool: MAX
    kernel_size: 2
    stride: 2
  }
}
layer {
  name: "conv31"
  type: "Convolution"
  bottom: "pool2"
  top: "conv31"
  param {
    lr_mult: 1
    decay_mult: 1
  }
  param {
    lr_mult: 2
    decay_mult: 0
  }
  convolution_param {
    num_output: 96
    pad: 1
    stride: 1
    weight_filler {
      type: "xavier"
    }
    bias_filler {
      type: "constant"
    }
    kernel_h: 3
    kernel_w: 3
  }
}
layer {
  name: "relu31"
  type: "ReLU"
  bottom: "conv31"
  top: "conv31"
}
layer {
  name: "conv32"
  type: "Convolution"
  bottom: "conv31"
  top: "conv32"
  param {
    lr_mult: 1
    decay_mult: 1
  }
  param {
    lr_mult: 2
    decay_mult: 0
  }
  convolution_param {
    num_output: 192
    pad: 1
    stride: 1
    weight_filler {
      type: "xavier"
    }
    bias_filler {
      type: "constant"
    }
    kernel_h: 3
    kernel_w: 3
  }
}
layer {
  name: "relu32"
  type: "ReLU"
  bottom: "conv32"
  top: "conv32"
}
layer {
  name: "pool3"
  type: "Pooling"
  bottom: "conv32"
  top: "pool3"
  pooling_param {
    pool: MAX
    kernel_size: 2
    stride: 2
  }
}
layer {
  name: "conv41"
  type: "Convolution"
  bottom: "pool3"
  top: "conv41"
  param {
    lr_mult: 1
    decay_mult: 1
  }
  param {
    lr_mult: 2
    decay_mult: 0
  }
  convolution_param {
    num_output: 128
    pad: 1
    stride: 1
    weight_filler {
      type: "xavier"
    }
    bias_filler {
      type: "constant"
    }
    kernel_h: 3
    kernel_w: 3
  }
}
layer {
  name: "relu41"
  type: "ReLU"
  bottom: "conv41"
  top: "conv41"
}
layer {
  name: "conv42"
  type: "Convolution"
  bottom: "conv41"
  top: "conv42"
  param {
    lr_mult: 1
    decay_mult: 1
  }
  param {
    lr_mult: 2
    decay_mult: 0
  }
  convolution_param {
    num_output: 256
    pad: 1
    stride: 1
    weight_filler {
      type: "xavier"
    }
    bias_filler {
      type: "constant"
    }
    kernel_h: 3
    kernel_w: 3
  }
}
layer {
  name: "relu42"
  type: "ReLU"
  bottom: "conv42"
  top: "conv42"
}
layer {
  name: "pool4"
  type: "Pooling"
  bottom: "conv42"
  top: "pool4"
  pooling_param {
    pool: MAX
    kernel_size: 2
    stride: 2
  }
}
layer {
  name: "conv51"
  type: "Convolution"
  bottom: "pool4"
  top: "conv51"
  param {
    lr_mult: 1
    decay_mult: 1
  }
  param {
    lr_mult: 2
    decay_mult: 0
  }
  convolution_param {
    num_output: 160
    pad: 1
    stride: 1
    weight_filler {
      type: "xavier"
    }
    bias_filler {
      type: "constant"
    }
    kernel_h: 3
    kernel_w: 3
  }
}
layer {
  name: "relu51"
  type: "ReLU"
  bottom: "conv51"
  top: "conv51"
}
layer {
  name: "conv52"
  type: "Convolution"
  bottom: "conv51"
  top: "conv52"
  param {
    lr_mult: 1
    decay_mult: 1
  }
  param {
    lr_mult: 2
    decay_mult: 0
  }
  convolution_param {
    num_output: 320
    pad: 1
    stride: 1
    weight_filler {
      type: "xavier"
    }
    bias_filler {
      type: "constant"
    }
    kernel_h: 3
    kernel_w: 3
  }
}
layer {
  name: "relu52"
  type: "ReLU"
  bottom: "conv52"
  top: "conv52"
}
layer {
  name: "conv53"
  type: "Convolution"
  bottom: "conv52"
  top: "conv53"
  param {
    lr_mult: 1
    decay_mult: 1
  }
  param {
    lr_mult: 2
    decay_mult: 0
  }
  convolution_param {
    num_output: 320
    stride: 1
    weight_filler {
      type: "xavier"
    }
    bias_filler {
      type: "constant"
    }
    kernel_h: 7
    kernel_w: 7
  }
}
layer {
  name: "relu53"
  type: "ReLU"
  bottom: "conv53"
  top: "conv53"
}
layer {
  name: "drop6"
  type: "Dropout"
  bottom: "conv53"
  top: "drop6"
  dropout_param {
    dropout_ratio: 0.4
  }
}
layer {
  name: "conv54"
  type: "Convolution"
  bottom: "drop6"
  top: "conv54"
  param {
    lr_mult: 1
    decay_mult: 1
  }
  param {
    lr_mult: 2
    decay_mult: 0
  }
  convolution_param {
    num_output: 2
    stride: 1
    weight_filler {
      type: "xavier"
    }
    bias_filler {
      type: "constant"
    }
    kernel_h: 1
    kernel_w: 1
  }
}
layer {
  name: "loss"
  type: "SoftmaxWithLoss"
  bottom: "conv54"
  bottom: "label"
  top: "loss"
}
I0701 11:44:35.843587  2788 layer_factory.hpp:76] Creating layer data
I0701 11:44:35.843636  2788 net.cpp:106] Creating Layer data
I0701 11:44:35.843652  2788 net.cpp:411] data -> data
I0701 11:44:35.843677  2788 net.cpp:411] data -> label
I0701 11:44:35.844105  2788 image_data_layer.cpp:36] Opening file ../lists/roi-train.lst
I0701 11:44:36.017283  2788 image_data_layer.cpp:46] Shuffling data
I0701 11:44:36.051539  2788 image_data_layer.cpp:51] A total of 211680 images.
I0701 11:44:36.205286  2788 image_data_layer.cpp:78] output data size: 128,3,100,100
I0701 11:44:36.234609  2788 net.cpp:150] Setting up data
I0701 11:44:36.234701  2788 net.cpp:157] Top shape: 128 3 100 100 (3840000)
I0701 11:44:36.234717  2788 net.cpp:157] Top shape: 128 (128)
I0701 11:44:36.234725  2788 net.cpp:165] Memory required for data: 15360512
I0701 11:44:36.234742  2788 layer_factory.hpp:76] Creating layer conv11
I0701 11:44:36.234772  2788 net.cpp:106] Creating Layer conv11
I0701 11:44:36.234788  2788 net.cpp:454] conv11 <- data
I0701 11:44:36.234805  2788 net.cpp:411] conv11 -> conv11
I0701 11:44:36.361101  2788 net.cpp:150] Setting up conv11
I0701 11:44:36.361160  2788 net.cpp:157] Top shape: 128 32 100 100 (40960000)
I0701 11:44:36.361169  2788 net.cpp:165] Memory required for data: 179200512
I0701 11:44:36.361198  2788 layer_factory.hpp:76] Creating layer relu11
I0701 11:44:36.361219  2788 net.cpp:106] Creating Layer relu11
I0701 11:44:36.361229  2788 net.cpp:454] relu11 <- conv11
I0701 11:44:36.361241  2788 net.cpp:397] relu11 -> conv11 (in-place)
I0701 11:44:36.361431  2788 net.cpp:150] Setting up relu11
I0701 11:44:36.361459  2788 net.cpp:157] Top shape: 128 32 100 100 (40960000)
I0701 11:44:36.361469  2788 net.cpp:165] Memory required for data: 343040512
I0701 11:44:36.361477  2788 layer_factory.hpp:76] Creating layer conv12
I0701 11:44:36.361495  2788 net.cpp:106] Creating Layer conv12
I0701 11:44:36.361503  2788 net.cpp:454] conv12 <- conv11
I0701 11:44:36.361513  2788 net.cpp:411] conv12 -> conv12
I0701 11:44:36.363293  2788 net.cpp:150] Setting up conv12
I0701 11:44:36.363332  2788 net.cpp:157] Top shape: 128 64 100 100 (81920000)
I0701 11:44:36.363342  2788 net.cpp:165] Memory required for data: 670720512
I0701 11:44:36.363356  2788 layer_factory.hpp:76] Creating layer relu12
I0701 11:44:36.363370  2788 net.cpp:106] Creating Layer relu12
I0701 11:44:36.363380  2788 net.cpp:454] relu12 <- conv12
I0701 11:44:36.363390  2788 net.cpp:397] relu12 -> conv12 (in-place)
I0701 11:44:36.363711  2788 net.cpp:150] Setting up relu12
I0701 11:44:36.363742  2788 net.cpp:157] Top shape: 128 64 100 100 (81920000)
I0701 11:44:36.363751  2788 net.cpp:165] Memory required for data: 998400512
I0701 11:44:36.363765  2788 layer_factory.hpp:76] Creating layer pool1
I0701 11:44:36.363778  2788 net.cpp:106] Creating Layer pool1
I0701 11:44:36.363787  2788 net.cpp:454] pool1 <- conv12
I0701 11:44:36.363797  2788 net.cpp:411] pool1 -> pool1
I0701 11:44:36.364033  2788 net.cpp:150] Setting up pool1
I0701 11:44:36.364063  2788 net.cpp:157] Top shape: 128 64 50 50 (20480000)
I0701 11:44:36.364073  2788 net.cpp:165] Memory required for data: 1080320512
I0701 11:44:36.364081  2788 layer_factory.hpp:76] Creating layer conv21
I0701 11:44:36.364099  2788 net.cpp:106] Creating Layer conv21
I0701 11:44:36.364107  2788 net.cpp:454] conv21 <- pool1
I0701 11:44:36.364120  2788 net.cpp:411] conv21 -> conv21
I0701 11:44:36.365900  2788 cudnn_conv_layer.cpp:194] Reallocating workspace storage: 6912
I0701 11:44:36.366127  2788 net.cpp:150] Setting up conv21
I0701 11:44:36.366158  2788 net.cpp:157] Top shape: 128 64 50 50 (20480000)
I0701 11:44:36.366166  2788 net.cpp:165] Memory required for data: 1162240512
I0701 11:44:36.366181  2788 layer_factory.hpp:76] Creating layer relu21
I0701 11:44:36.366196  2788 net.cpp:106] Creating Layer relu21
I0701 11:44:36.366205  2788 net.cpp:454] relu21 <- conv21
I0701 11:44:36.366215  2788 net.cpp:397] relu21 -> conv21 (in-place)
I0701 11:44:36.366544  2788 net.cpp:150] Setting up relu21
I0701 11:44:36.366575  2788 net.cpp:157] Top shape: 128 64 50 50 (20480000)
I0701 11:44:36.366585  2788 net.cpp:165] Memory required for data: 1244160512
I0701 11:44:36.366593  2788 layer_factory.hpp:76] Creating layer conv22
I0701 11:44:36.366612  2788 net.cpp:106] Creating Layer conv22
I0701 11:44:36.366621  2788 net.cpp:454] conv22 <- conv21
I0701 11:44:36.366632  2788 net.cpp:411] conv22 -> conv22
I0701 11:44:36.368631  2788 cudnn_conv_layer.cpp:194] Reallocating workspace storage: 6912
I0701 11:44:36.368677  2788 net.cpp:150] Setting up conv22
I0701 11:44:36.368692  2788 net.cpp:157] Top shape: 128 128 50 50 (40960000)
I0701 11:44:36.368724  2788 net.cpp:165] Memory required for data: 1408000512
I0701 11:44:36.368737  2788 layer_factory.hpp:76] Creating layer relu22
I0701 11:44:36.368749  2788 net.cpp:106] Creating Layer relu22
I0701 11:44:36.368758  2788 net.cpp:454] relu22 <- conv22
I0701 11:44:36.368768  2788 net.cpp:397] relu22 -> conv22 (in-place)
I0701 11:44:36.369094  2788 net.cpp:150] Setting up relu22
I0701 11:44:36.369125  2788 net.cpp:157] Top shape: 128 128 50 50 (40960000)
I0701 11:44:36.369134  2788 net.cpp:165] Memory required for data: 1571840512
I0701 11:44:36.369144  2788 layer_factory.hpp:76] Creating layer pool2
I0701 11:44:36.369155  2788 net.cpp:106] Creating Layer pool2
I0701 11:44:36.369164  2788 net.cpp:454] pool2 <- conv22
I0701 11:44:36.369174  2788 net.cpp:411] pool2 -> pool2
I0701 11:44:36.369386  2788 net.cpp:150] Setting up pool2
I0701 11:44:36.369415  2788 net.cpp:157] Top shape: 128 128 25 25 (10240000)
I0701 11:44:36.369423  2788 net.cpp:165] Memory required for data: 1612800512
I0701 11:44:36.369432  2788 layer_factory.hpp:76] Creating layer conv31
I0701 11:44:36.369448  2788 net.cpp:106] Creating Layer conv31
I0701 11:44:36.369457  2788 net.cpp:454] conv31 <- pool2
I0701 11:44:36.369469  2788 net.cpp:411] conv31 -> conv31
I0701 11:44:36.371222  2788 cudnn_conv_layer.cpp:194] Reallocating workspace storage: 13824
I0701 11:44:36.371268  2788 net.cpp:150] Setting up conv31
I0701 11:44:36.371280  2788 net.cpp:157] Top shape: 128 96 25 25 (7680000)
I0701 11:44:36.371289  2788 net.cpp:165] Memory required for data: 1643520512
I0701 11:44:36.371306  2788 layer_factory.hpp:76] Creating layer relu31
I0701 11:44:36.371318  2788 net.cpp:106] Creating Layer relu31
I0701 11:44:36.371326  2788 net.cpp:454] relu31 <- conv31
I0701 11:44:36.371336  2788 net.cpp:397] relu31 -> conv31 (in-place)
I0701 11:44:36.371664  2788 net.cpp:150] Setting up relu31
I0701 11:44:36.371695  2788 net.cpp:157] Top shape: 128 96 25 25 (7680000)
I0701 11:44:36.371702  2788 net.cpp:165] Memory required for data: 1674240512
I0701 11:44:36.371711  2788 layer_factory.hpp:76] Creating layer conv32
I0701 11:44:36.371726  2788 net.cpp:106] Creating Layer conv32
I0701 11:44:36.371737  2788 net.cpp:454] conv32 <- conv31
I0701 11:44:36.371747  2788 net.cpp:411] conv32 -> conv32
I0701 11:44:36.374469  2788 cudnn_conv_layer.cpp:194] Reallocating workspace storage: 10368
I0701 11:44:36.374511  2788 net.cpp:150] Setting up conv32
I0701 11:44:36.374523  2788 net.cpp:157] Top shape: 128 192 25 25 (15360000)
I0701 11:44:36.374532  2788 net.cpp:165] Memory required for data: 1735680512
I0701 11:44:36.374543  2788 layer_factory.hpp:76] Creating layer relu32
I0701 11:44:36.374557  2788 net.cpp:106] Creating Layer relu32
I0701 11:44:36.374567  2788 net.cpp:454] relu32 <- conv32
I0701 11:44:36.374577  2788 net.cpp:397] relu32 -> conv32 (in-place)
I0701 11:44:36.374768  2788 net.cpp:150] Setting up relu32
I0701 11:44:36.374795  2788 net.cpp:157] Top shape: 128 192 25 25 (15360000)
I0701 11:44:36.374804  2788 net.cpp:165] Memory required for data: 1797120512
I0701 11:44:36.374812  2788 layer_factory.hpp:76] Creating layer pool3
I0701 11:44:36.374824  2788 net.cpp:106] Creating Layer pool3
I0701 11:44:36.374831  2788 net.cpp:454] pool3 <- conv32
I0701 11:44:36.374841  2788 net.cpp:411] pool3 -> pool3
I0701 11:44:36.375224  2788 net.cpp:150] Setting up pool3
I0701 11:44:36.375255  2788 net.cpp:157] Top shape: 128 192 13 13 (4153344)
I0701 11:44:36.375264  2788 net.cpp:165] Memory required for data: 1813733888
I0701 11:44:36.375274  2788 layer_factory.hpp:76] Creating layer conv41
I0701 11:44:36.375291  2788 net.cpp:106] Creating Layer conv41
I0701 11:44:36.375301  2788 net.cpp:454] conv41 <- pool3
I0701 11:44:36.375314  2788 net.cpp:411] conv41 -> conv41
I0701 11:44:36.378476  2788 cudnn_conv_layer.cpp:194] Reallocating workspace storage: 20736
I0701 11:44:36.378717  2788 net.cpp:150] Setting up conv41
I0701 11:44:36.378751  2788 net.cpp:157] Top shape: 128 128 13 13 (2768896)
I0701 11:44:36.378759  2788 net.cpp:165] Memory required for data: 1824809472
I0701 11:44:36.378787  2788 layer_factory.hpp:76] Creating layer relu41
I0701 11:44:36.378800  2788 net.cpp:106] Creating Layer relu41
I0701 11:44:36.378809  2788 net.cpp:454] relu41 <- conv41
I0701 11:44:36.378820  2788 net.cpp:397] relu41 -> conv41 (in-place)
I0701 11:44:36.379206  2788 net.cpp:150] Setting up relu41
I0701 11:44:36.379238  2788 net.cpp:157] Top shape: 128 128 13 13 (2768896)
I0701 11:44:36.379247  2788 net.cpp:165] Memory required for data: 1835885056
I0701 11:44:36.379256  2788 layer_factory.hpp:76] Creating layer conv42
I0701 11:44:36.379273  2788 net.cpp:106] Creating Layer conv42
I0701 11:44:36.379282  2788 net.cpp:454] conv42 <- conv41
I0701 11:44:36.379295  2788 net.cpp:411] conv42 -> conv42
I0701 11:44:36.382979  2788 net.cpp:150] Setting up conv42
I0701 11:44:36.383014  2788 net.cpp:157] Top shape: 128 256 13 13 (5537792)
I0701 11:44:36.383023  2788 net.cpp:165] Memory required for data: 1858036224
I0701 11:44:36.383035  2788 layer_factory.hpp:76] Creating layer relu42
I0701 11:44:36.383049  2788 net.cpp:106] Creating Layer relu42
I0701 11:44:36.383057  2788 net.cpp:454] relu42 <- conv42
I0701 11:44:36.383067  2788 net.cpp:397] relu42 -> conv42 (in-place)
I0701 11:44:36.383256  2788 net.cpp:150] Setting up relu42
I0701 11:44:36.383285  2788 net.cpp:157] Top shape: 128 256 13 13 (5537792)
I0701 11:44:36.383293  2788 net.cpp:165] Memory required for data: 1880187392
I0701 11:44:36.383302  2788 layer_factory.hpp:76] Creating layer pool4
I0701 11:44:36.383316  2788 net.cpp:106] Creating Layer pool4
I0701 11:44:36.383324  2788 net.cpp:454] pool4 <- conv42
I0701 11:44:36.383334  2788 net.cpp:411] pool4 -> pool4
I0701 11:44:36.383689  2788 net.cpp:150] Setting up pool4
I0701 11:44:36.383720  2788 net.cpp:157] Top shape: 128 256 7 7 (1605632)
I0701 11:44:36.383728  2788 net.cpp:165] Memory required for data: 1886609920
I0701 11:44:36.383738  2788 layer_factory.hpp:76] Creating layer conv51
I0701 11:44:36.383754  2788 net.cpp:106] Creating Layer conv51
I0701 11:44:36.383764  2788 net.cpp:454] conv51 <- pool4
I0701 11:44:36.383775  2788 net.cpp:411] conv51 -> conv51
I0701 11:44:36.388133  2788 net.cpp:150] Setting up conv51
I0701 11:44:36.388173  2788 net.cpp:157] Top shape: 128 160 7 7 (1003520)
I0701 11:44:36.388185  2788 net.cpp:165] Memory required for data: 1890624000
I0701 11:44:36.388202  2788 layer_factory.hpp:76] Creating layer relu51
I0701 11:44:36.388214  2788 net.cpp:106] Creating Layer relu51
I0701 11:44:36.388222  2788 net.cpp:454] relu51 <- conv51
I0701 11:44:36.388233  2788 net.cpp:397] relu51 -> conv51 (in-place)
I0701 11:44:36.388445  2788 net.cpp:150] Setting up relu51
I0701 11:44:36.388463  2788 net.cpp:157] Top shape: 128 160 7 7 (1003520)
I0701 11:44:36.388473  2788 net.cpp:165] Memory required for data: 1894638080
I0701 11:44:36.388480  2788 layer_factory.hpp:76] Creating layer conv52
I0701 11:44:36.388495  2788 net.cpp:106] Creating Layer conv52
I0701 11:44:36.388509  2788 net.cpp:454] conv52 <- conv51
I0701 11:44:36.388522  2788 net.cpp:411] conv52 -> conv52
I0701 11:44:36.393635  2788 cudnn_conv_layer.cpp:194] Reallocating workspace storage: 17280
I0701 11:44:36.393682  2788 net.cpp:150] Setting up conv52
I0701 11:44:36.393694  2788 net.cpp:157] Top shape: 128 320 7 7 (2007040)
I0701 11:44:36.393702  2788 net.cpp:165] Memory required for data: 1902666240
I0701 11:44:36.393714  2788 layer_factory.hpp:76] Creating layer relu52
I0701 11:44:36.393728  2788 net.cpp:106] Creating Layer relu52
I0701 11:44:36.393738  2788 net.cpp:454] relu52 <- conv52
I0701 11:44:36.393748  2788 net.cpp:397] relu52 -> conv52 (in-place)
I0701 11:44:36.394079  2788 net.cpp:150] Setting up relu52
I0701 11:44:36.394114  2788 net.cpp:157] Top shape: 128 320 7 7 (2007040)
I0701 11:44:36.394124  2788 net.cpp:165] Memory required for data: 1910694400
I0701 11:44:36.394131  2788 layer_factory.hpp:76] Creating layer conv53
I0701 11:44:36.394145  2788 net.cpp:106] Creating Layer conv53
I0701 11:44:36.394155  2788 net.cpp:454] conv53 <- conv52
I0701 11:44:36.394166  2788 net.cpp:411] conv53 -> conv53
I0701 11:44:36.441193  2788 cudnn_conv_layer.cpp:194] Reallocating workspace storage: 188160
I0701 11:44:36.441476  2788 net.cpp:150] Setting up conv53
I0701 11:44:36.441514  2788 net.cpp:157] Top shape: 128 320 1 1 (40960)
I0701 11:44:36.441524  2788 net.cpp:165] Memory required for data: 1910858240
I0701 11:44:36.441540  2788 layer_factory.hpp:76] Creating layer relu53
I0701 11:44:36.441556  2788 net.cpp:106] Creating Layer relu53
I0701 11:44:36.441566  2788 net.cpp:454] relu53 <- conv53
I0701 11:44:36.441578  2788 net.cpp:397] relu53 -> conv53 (in-place)
I0701 11:44:36.441917  2788 net.cpp:150] Setting up relu53
I0701 11:44:36.441948  2788 net.cpp:157] Top shape: 128 320 1 1 (40960)
I0701 11:44:36.441956  2788 net.cpp:165] Memory required for data: 1911022080
I0701 11:44:36.441967  2788 layer_factory.hpp:76] Creating layer drop6
I0701 11:44:36.441982  2788 net.cpp:106] Creating Layer drop6
I0701 11:44:36.441992  2788 net.cpp:454] drop6 <- conv53
I0701 11:44:36.442004  2788 net.cpp:411] drop6 -> drop6
I0701 11:44:36.442062  2788 net.cpp:150] Setting up drop6
I0701 11:44:36.442075  2788 net.cpp:157] Top shape: 128 320 1 1 (40960)
I0701 11:44:36.442085  2788 net.cpp:165] Memory required for data: 1911185920
I0701 11:44:36.442092  2788 layer_factory.hpp:76] Creating layer conv54
I0701 11:44:36.442109  2788 net.cpp:106] Creating Layer conv54
I0701 11:44:36.442118  2788 net.cpp:454] conv54 <- drop6
I0701 11:44:36.442131  2788 net.cpp:411] conv54 -> conv54
I0701 11:44:36.443161  2788 cudnn_conv_layer.cpp:194] Reallocating workspace storage: 3840
I0701 11:44:36.443389  2788 net.cpp:150] Setting up conv54
I0701 11:44:36.443420  2788 net.cpp:157] Top shape: 128 2 1 1 (256)
I0701 11:44:36.443429  2788 net.cpp:165] Memory required for data: 1911186944
I0701 11:44:36.443441  2788 layer_factory.hpp:76] Creating layer loss
I0701 11:44:36.443456  2788 net.cpp:106] Creating Layer loss
I0701 11:44:36.443465  2788 net.cpp:454] loss <- conv54
I0701 11:44:36.443475  2788 net.cpp:454] loss <- label
I0701 11:44:36.443490  2788 net.cpp:411] loss -> loss
I0701 11:44:36.469101  2788 layer_factory.hpp:76] Creating layer loss
…
I0701 11:44:36.470790  2788 net.cpp:322] The NetState phase (1) differed from the phase (0) specified by a rule in layer data
I0701 11:44:36.471000  2788 net.cpp:49] Initializing net from parameters: 
name: "FaceNN"
state {
  phase: TEST
}
layer {
  name: "data"
  type: "ImageData"
  top: "data"
  top: "label"
  include {
    phase: TEST
  }
  transform_param {
    mirror: false
    crop_size: 100
    mean_value: 104
    mean_value: 117
    mean_value: 123
  }
  image_data_param {
    source: "../lists/roi-val.lst"
    batch_size: 32
    shuffle: true
    new_height: 110
    new_width: 110
  }
}
layer {
  name: "conv11"
  type: "Convolution"
  bottom: "data"
  top: "conv11"
  param {
    lr_mult: 1
    decay_mult: 1
  }
  param {
    lr_mult: 2
    decay_mult: 0
  }
  convolution_param {
    num_output: 32
    pad: 1
    stride: 1
    weight_filler {
      type: "xavier"
    }
    bias_filler {
      type: "constant"
    }
    kernel_h: 3
    kernel_w: 3
  }
}
layer {
  name: "relu11"
  type: "ReLU"
  bottom: "conv11"
  top: "conv11"
}
layer {
  name: "conv12"
  type: "Convolution"
  bottom: "conv11"
  top: "conv12"
  param {
    lr_mult: 1
    decay_mult: 1
  }
  param {
    lr_mult: 2
    decay_mult: 0
  }
  convolution_param {
    num_output: 64
    pad: 1
    stride: 1
    weight_filler {
      type: "xavier"
    }
    bias_filler {
      type: "constant"
    }
    kernel_h: 3
    kernel_w: 3
  }
}
layer {
  name: "relu12"
  type: "ReLU"
  bottom: "conv12"
  top: "conv12"
}
layer {
  name: "pool1"
  type: "Pooling"
  bottom: "conv12"
  top: "pool1"
  pooling_param {
    pool: MAX
    kernel_size: 2
    stride: 2
  }
}
layer {
  name: "conv21"
  type: "Convolution"
  bottom: "pool1"
  top: "conv21"
  param {
    lr_mult: 1
    decay_mult: 1
  }
  param {
    lr_mult: 2
    decay_mult: 0
  }
  convolution_param {
    num_output: 64
    pad: 1
    stride: 1
    weight_filler {
      type: "xavier"
    }
    bias_filler {
      type: "constant"
    }
    kernel_h: 3
    kernel_w: 3
  }
}
layer {
  name: "relu21"
  type: "ReLU"
  bottom: "conv21"
  top: "conv21"
}
layer {
  name: "conv22"
  type: "Convolution"
  bottom: "conv21"
  top: "conv22"
  param {
    lr_mult: 1
    decay_mult: 1
  }
  param {
    lr_mult: 2
    decay_mult: 0
  }
  convolution_param {
    num_output: 128
    pad: 1
    stride: 1
    weight_filler {
      type: "xavier"
    }
    bias_filler {
      type: "constant"
    }
    kernel_h: 3
    kernel_w: 3
  }
}
layer {
  name: "relu22"
  type: "ReLU"
  bottom: "conv22"
  top: "conv22"
}
layer {
  name: "pool2"
  type: "Pooling"
  bottom: "conv22"
  top: "pool2"
  pooling_param {
    pool: MAX
    kernel_size: 2
    stride: 2
  }
}
layer {
  name: "conv31"
  type: "Convolution"
  bottom: "pool2"
  top: "conv31"
  param {
    lr_mult: 1
    decay_mult: 1
  }
  param {
    lr_mult: 2
    decay_mult: 0
  }
  convolution_param {
    num_output: 96
    pad: 1
    stride: 1
    weight_filler {
      type: "xavier"
    }
    bias_filler {
      type: "constant"
    }
    kernel_h: 3
    kernel_w: 3
  }
}
layer {
  name: "relu31"
  type: "ReLU"
  bottom: "conv31"
  top: "conv31"
}
layer {
  name: "conv32"
  type: "Convolution"
  bottom: "conv31"
  top: "conv32"
  param {
    lr_mult: 1
    decay_mult: 1
  }
  param {
    lr_mult: 2
    decay_mult: 0
  }
  convolution_param {
    num_output: 192
    pad: 1
    stride: 1
    weight_filler {
      type: "xavier"
    }
    bias_filler {
      type: "constant"
    }
    kernel_h: 3
    kernel_w: 3
  }
}
layer {
  name: "relu32"
  type: "ReLU"
  bottom: "conv32"
  top: "conv32"
}
layer {
  name: "pool3"
  type: "Pooling"
  bottom: "conv32"
  top: "pool3"
  pooling_param {
    pool: MAX
    kernel_size: 2
    stride: 2
  }
}
layer {
  name: "conv41"
  type: "Convolution"
  bottom: "pool3"
  top: "conv41"
  param {
    lr_mult: 1
    decay_mult: 1
  }
  param {
    lr_mult: 2
    decay_mult: 0
  }
  convolution_param {
    num_output: 128
    pad: 1
    stride: 1
    weight_filler {
      type: "xavier"
    }
    bias_filler {
      type: "constant"
    }
    kernel_h: 3
    kernel_w: 3
  }
}
layer {
  name: "relu41"
  type: "ReLU"
  bottom: "conv41"
  top: "conv41"
}
layer {
  name: "conv42"
  type: "Convolution"
  bottom: "conv41"
  top: "conv42"
  param {
    lr_mult: 1
    decay_mult: 1
  }
  param {
    lr_mult: 2
    decay_mult: 0
  }
  convolution_param {
    num_output: 256
    pad: 1
    stride: 1
    weight_filler {
      type: "xavier"
    }
    bias_filler {
      type: "constant"
    }
    kernel_h: 3
    kernel_w: 3
  }
}
layer {
  name: "relu42"
  type: "ReLU"
  bottom: "conv42"
  top: "conv42"
}
layer {
  name: "pool4"
  type: "Pooling"
  bottom: "conv42"
  top: "pool4"
  pooling_param {
    pool: MAX
    kernel_size: 2
    stride: 2
  }
}
layer {
  name: "conv51"
  type: "Convolution"
  bottom: "pool4"
  top: "conv51"
  param {
    lr_mult: 1
    decay_mult: 1
  }
  param {
    lr_mult: 2
    decay_mult: 0
  }
  convolution_param {
    num_output: 160
    pad: 1
    stride: 1
    weight_filler {
      type: "xavier"
    }
    bias_filler {
      type: "constant"
    }
    kernel_h: 3
    kernel_w: 3
  }
}
layer {
  name: "relu51"
  type: "ReLU"
  bottom: "conv51"
  top: "conv51"
}
layer {
  name: "conv52"
  type: "Convolution"
  bottom: "conv51"
  top: "conv52"
  param {
    lr_mult: 1
    decay_mult: 1
  }
  param {
    lr_mult: 2
    decay_mult: 0
  }
  convolution_param {
    num_output: 320
    pad: 1
    stride: 1
    weight_filler {
      type: "xavier"
    }
    bias_filler {
      type: "constant"
    }
    kernel_h: 3
    kernel_w: 3
  }
}
layer {
  name: "relu52"
  type: "ReLU"
  bottom: "conv52"
  top: "conv52"
}
layer {
  name: "conv53"
  type: "Convolution"
  bottom: "conv52"
  top: "conv53"
  param {
    lr_mult: 1
    decay_mult: 1
  }
  param {
    lr_mult: 2
    decay_mult: 0
  }
  convolution_param {
    num_output: 320
    stride: 1
    weight_filler {
      type: "xavier"
    }
    bias_filler {
      type: "constant"
    }
    kernel_h: 7
    kernel_w: 7
  }
}
layer {
  name: "relu53"
  type: "ReLU"
  bottom: "conv53"
  top: "conv53"
}
layer {
  name: "drop6"
  type: "Dropout"
  bottom: "conv53"
  top: "drop6"
  dropout_param {
    dropout_ratio: 0.4
  }
}
layer {
  name: "conv54"
  type: "Convolution"
  bottom: "drop6"
  top: "conv54"
  param {
    lr_mult: 1
    decay_mult: 1
  }
  param {
    lr_mult: 2
    decay_mult: 0
  }
  convolution_param {
    num_output: 2
    stride: 1
    weight_filler {
      type: "xavier"
    }
    bias_filler {
      type: "constant"
    }
    kernel_h: 1
    kernel_w: 1
  }
}
layer {
  name: "accuracy"
  type: "Accuracy"
  bottom: "conv54"
  bottom: "label"
  top: "accuracy"
  include {
    phase: TEST
  }
}
layer {
  name: "loss"
  type: "SoftmaxWithLoss"
  bottom: "conv54"
  bottom: "label"
  top: "loss"
}
I0701 11:44:36.472674  2788 layer_factory.hpp:76] Creating layer data
I0701 11:44:36.472710  2788 net.cpp:106] Creating Layer data
I0701 11:44:36.472721  2788 net.cpp:411] data -> data
I0701 11:44:36.472735  2788 net.cpp:411] data -> label
I0701 11:44:36.472767  2788 image_data_layer.cpp:36] Opening file ../lists/roi-val.lst
I0701 11:44:36.576623  2788 image_data_layer.cpp:46] Shuffling data
I0701 11:44:36.578320  2788 image_data_layer.cpp:51] A total of 23520 images.
I0701 11:44:36.638490  2788 image_data_layer.cpp:78] output data size: 32,3,100,100
I0701 11:44:36.646257  2788 net.cpp:150] Setting up data
I0701 11:44:36.646301  2788 net.cpp:157] Top shape: 32 3 100 100 (960000)
I0701 11:44:36.646312  2788 net.cpp:157] Top shape: 32 (32)
I0701 11:44:36.646320  2788 net.cpp:165] Memory required for data: 3840128
I0701 11:44:36.646332  2788 layer_factory.hpp:76] Creating layer label_data_1_split
I0701 11:44:36.646366  2788 net.cpp:106] Creating Layer label_data_1_split
I0701 11:44:36.646376  2788 net.cpp:454] label_data_1_split <- label
I0701 11:44:36.646389  2788 net.cpp:411] label_data_1_split -> label_data_1_split_0
I0701 11:44:36.646404  2788 net.cpp:411] label_data_1_split -> label_data_1_split_1
I0701 11:44:36.646464  2788 net.cpp:150] Setting up label_data_1_split
I0701 11:44:36.646477  2788 net.cpp:157] Top shape: 32 (32)
I0701 11:44:36.646502  2788 net.cpp:157] Top shape: 32 (32)
I0701 11:44:36.646510  2788 net.cpp:165] Memory required for data: 3840384
I0701 11:44:36.646522  2788 layer_factory.hpp:76] Creating layer conv11
I0701 11:44:36.646540  2788 net.cpp:106] Creating Layer conv11
I0701 11:44:36.646549  2788 net.cpp:454] conv11 <- data
I0701 11:44:36.646559  2788 net.cpp:411] conv11 -> conv11
I0701 11:44:36.647966  2788 net.cpp:150] Setting up conv11
I0701 11:44:36.648001  2788 net.cpp:157] Top shape: 32 32 100 100 (10240000)
I0701 11:44:36.648011  2788 net.cpp:165] Memory required for data: 44800384
I0701 11:44:36.648027  2788 layer_factory.hpp:76] Creating layer relu11
I0701 11:44:36.648041  2788 net.cpp:106] Creating Layer relu11
I0701 11:44:36.648062  2788 net.cpp:454] relu11 <- conv11
I0701 11:44:36.648072  2788 net.cpp:397] relu11 -> conv11 (in-place)
I0701 11:44:36.648404  2788 net.cpp:150] Setting up relu11
I0701 11:44:36.648442  2788 net.cpp:157] Top shape: 32 32 100 100 (10240000)
I0701 11:44:36.648452  2788 net.cpp:165] Memory required for data: 85760384
I0701 11:44:36.648459  2788 layer_factory.hpp:76] Creating layer conv12
I0701 11:44:36.648474  2788 net.cpp:106] Creating Layer conv12
I0701 11:44:36.648483  2788 net.cpp:454] conv12 <- conv11
I0701 11:44:36.648510  2788 net.cpp:411] conv12 -> conv12
I0701 11:44:36.649691  2788 net.cpp:150] Setting up conv12
I0701 11:44:36.649713  2788 net.cpp:157] Top shape: 32 64 100 100 (20480000)
I0701 11:44:36.649722  2788 net.cpp:165] Memory required for data: 167680384
I0701 11:44:36.649736  2788 layer_factory.hpp:76] Creating layer relu12
I0701 11:44:36.649749  2788 net.cpp:106] Creating Layer relu12
I0701 11:44:36.649768  2788 net.cpp:454] relu12 <- conv12
I0701 11:44:36.649781  2788 net.cpp:397] relu12 -> conv12 (in-place)
I0701 11:44:36.650321  2788 net.cpp:150] Setting up relu12
I0701 11:44:36.650341  2788 net.cpp:157] Top shape: 32 64 100 100 (20480000)
I0701 11:44:36.650351  2788 net.cpp:165] Memory required for data: 249600384
I0701 11:44:36.650358  2788 layer_factory.hpp:76] Creating layer pool1
I0701 11:44:36.650382  2788 net.cpp:106] Creating Layer pool1
I0701 11:44:36.650390  2788 net.cpp:454] pool1 <- conv12
I0701 11:44:36.650403  2788 net.cpp:411] pool1 -> pool1
I0701 11:44:36.650648  2788 net.cpp:150] Setting up pool1
I0701 11:44:36.650665  2788 net.cpp:157] Top shape: 32 64 50 50 (5120000)
I0701 11:44:36.650676  2788 net.cpp:165] Memory required for data: 270080384
I0701 11:44:36.650684  2788 layer_factory.hpp:76] Creating layer conv21
I0701 11:44:36.650709  2788 net.cpp:106] Creating Layer conv21
I0701 11:44:36.650717  2788 net.cpp:454] conv21 <- pool1
I0701 11:44:36.650730  2788 net.cpp:411] conv21 -> conv21
I0701 11:44:36.652848  2788 net.cpp:150] Setting up conv21
I0701 11:44:36.652871  2788 net.cpp:157] Top shape: 32 64 50 50 (5120000)
I0701 11:44:36.652880  2788 net.cpp:165] Memory required for data: 290560384
I0701 11:44:36.652895  2788 layer_factory.hpp:76] Creating layer relu21
I0701 11:44:36.652943  2788 net.cpp:106] Creating Layer relu21
I0701 11:44:36.652952  2788 net.cpp:454] relu21 <- conv21
I0701 11:44:36.652966  2788 net.cpp:397] relu21 -> conv21 (in-place)
I0701 11:44:36.653324  2788 net.cpp:150] Setting up relu21
I0701 11:44:36.653345  2788 net.cpp:157] Top shape: 32 64 50 50 (5120000)
I0701 11:44:36.653353  2788 net.cpp:165] Memory required for data: 311040384
I0701 11:44:36.653362  2788 layer_factory.hpp:76] Creating layer conv22
I0701 11:44:36.653388  2788 net.cpp:106] Creating Layer conv22
I0701 11:44:36.653398  2788 net.cpp:454] conv22 <- conv21
I0701 11:44:36.653411  2788 net.cpp:411] conv22 -> conv22
I0701 11:44:36.655001  2788 cudnn_conv_layer.cpp:194] Reallocating workspace storage: 6912
I0701 11:44:36.655053  2788 net.cpp:150] Setting up conv22
I0701 11:44:36.655066  2788 net.cpp:157] Top shape: 32 128 50 50 (10240000)
I0701 11:44:36.655086  2788 net.cpp:165] Memory required for data: 352000384
I0701 11:44:36.655098  2788 layer_factory.hpp:76] Creating layer relu22
I0701 11:44:36.655112  2788 net.cpp:106] Creating Layer relu22
I0701 11:44:36.655122  2788 net.cpp:454] relu22 <- conv22
I0701 11:44:36.655131  2788 net.cpp:397] relu22 -> conv22 (in-place)
I0701 11:44:36.655331  2788 net.cpp:150] Setting up relu22
I0701 11:44:36.655359  2788 net.cpp:157] Top shape: 32 128 50 50 (10240000)
I0701 11:44:36.655367  2788 net.cpp:165] Memory required for data: 392960384
I0701 11:44:36.655376  2788 layer_factory.hpp:76] Creating layer pool2
I0701 11:44:36.655390  2788 net.cpp:106] Creating Layer pool2
I0701 11:44:36.655397  2788 net.cpp:454] pool2 <- conv22
I0701 11:44:36.655421  2788 net.cpp:411] pool2 -> pool2
I0701 11:44:36.655843  2788 net.cpp:150] Setting up pool2
I0701 11:44:36.655874  2788 net.cpp:157] Top shape: 32 128 25 25 (2560000)
I0701 11:44:36.655882  2788 net.cpp:165] Memory required for data: 403200384
I0701 11:44:36.655890  2788 layer_factory.hpp:76] Creating layer conv31
I0701 11:44:36.655906  2788 net.cpp:106] Creating Layer conv31
I0701 11:44:36.655915  2788 net.cpp:454] conv31 <- pool2
I0701 11:44:36.655937  2788 net.cpp:411] conv31 -> conv31
I0701 11:44:36.658187  2788 cudnn_conv_layer.cpp:194] Reallocating workspace storage: 13824
I0701 11:44:36.658237  2788 net.cpp:150] Setting up conv31
I0701 11:44:36.658249  2788 net.cpp:157] Top shape: 32 96 25 25 (1920000)
I0701 11:44:36.658257  2788 net.cpp:165] Memory required for data: 410880384
I0701 11:44:36.658284  2788 layer_factory.hpp:76] Creating layer relu31
I0701 11:44:36.658296  2788 net.cpp:106] Creating Layer relu31
I0701 11:44:36.658305  2788 net.cpp:454] relu31 <- conv31
I0701 11:44:36.658318  2788 net.cpp:397] relu31 -> conv31 (in-place)
I0701 11:44:36.658660  2788 net.cpp:150] Setting up relu31
I0701 11:44:36.658690  2788 net.cpp:157] Top shape: 32 96 25 25 (1920000)
I0701 11:44:36.658699  2788 net.cpp:165] Memory required for data: 418560384
I0701 11:44:36.658706  2788 layer_factory.hpp:76] Creating layer conv32
I0701 11:44:36.658722  2788 net.cpp:106] Creating Layer conv32
I0701 11:44:36.658730  2788 net.cpp:454] conv32 <- conv31
I0701 11:44:36.658756  2788 net.cpp:411] conv32 -> conv32
I0701 11:44:36.661707  2788 net.cpp:150] Setting up conv32
I0701 11:44:36.661752  2788 net.cpp:157] Top shape: 32 192 25 25 (3840000)
I0701 11:44:36.661761  2788 net.cpp:165] Memory required for data: 433920384
I0701 11:44:36.661773  2788 layer_factory.hpp:76] Creating layer relu32
I0701 11:44:36.661785  2788 net.cpp:106] Creating Layer relu32
I0701 11:44:36.661805  2788 net.cpp:454] relu32 <- conv32
I0701 11:44:36.661826  2788 net.cpp:397] relu32 -> conv32 (in-place)
I0701 11:44:36.662032  2788 net.cpp:150] Setting up relu32
I0701 11:44:36.662060  2788 net.cpp:157] Top shape: 32 192 25 25 (3840000)
I0701 11:44:36.662080  2788 net.cpp:165] Memory required for data: 449280384
I0701 11:44:36.662089  2788 layer_factory.hpp:76] Creating layer pool3
I0701 11:44:36.662104  2788 net.cpp:106] Creating Layer pool3
I0701 11:44:36.662113  2788 net.cpp:454] pool3 <- conv32
I0701 11:44:36.662123  2788 net.cpp:411] pool3 -> pool3
I0701 11:44:36.662591  2788 net.cpp:150] Setting up pool3
I0701 11:44:36.662624  2788 net.cpp:157] Top shape: 32 192 13 13 (1038336)
I0701 11:44:36.662645  2788 net.cpp:165] Memory required for data: 453433728
I0701 11:44:36.662653  2788 layer_factory.hpp:76] Creating layer conv41
I0701 11:44:36.662667  2788 net.cpp:106] Creating Layer conv41
I0701 11:44:36.662675  2788 net.cpp:454] conv41 <- pool3
I0701 11:44:36.662699  2788 net.cpp:411] conv41 -> conv41
I0701 11:44:36.665841  2788 net.cpp:150] Setting up conv41
I0701 11:44:36.665874  2788 net.cpp:157] Top shape: 32 128 13 13 (692224)
I0701 11:44:36.665882  2788 net.cpp:165] Memory required for data: 456202624
I0701 11:44:36.665894  2788 layer_factory.hpp:76] Creating layer relu41
I0701 11:44:36.665907  2788 net.cpp:106] Creating Layer relu41
I0701 11:44:36.665916  2788 net.cpp:454] relu41 <- conv41
I0701 11:44:36.665938  2788 net.cpp:397] relu41 -> conv41 (in-place)
I0701 11:44:36.666144  2788 net.cpp:150] Setting up relu41
I0701 11:44:36.666172  2788 net.cpp:157] Top shape: 32 128 13 13 (692224)
I0701 11:44:36.666180  2788 net.cpp:165] Memory required for data: 458971520
I0701 11:44:36.666189  2788 layer_factory.hpp:76] Creating layer conv42
I0701 11:44:36.666204  2788 net.cpp:106] Creating Layer conv42
I0701 11:44:36.666213  2788 net.cpp:454] conv42 <- conv41
I0701 11:44:36.666234  2788 net.cpp:411] conv42 -> conv42
I0701 11:44:36.670020  2788 cudnn_conv_layer.cpp:194] Reallocating workspace storage: 13824
I0701 11:44:36.670075  2788 net.cpp:150] Setting up conv42
I0701 11:44:36.670088  2788 net.cpp:157] Top shape: 32 256 13 13 (1384448)
I0701 11:44:36.670096  2788 net.cpp:165] Memory required for data: 464509312
I0701 11:44:36.670107  2788 layer_factory.hpp:76] Creating layer relu42
I0701 11:44:36.670121  2788 net.cpp:106] Creating Layer relu42
I0701 11:44:36.670130  2788 net.cpp:454] relu42 <- conv42
I0701 11:44:36.670140  2788 net.cpp:397] relu42 -> conv42 (in-place)
I0701 11:44:36.670482  2788 net.cpp:150] Setting up relu42
I0701 11:44:36.670512  2788 net.cpp:157] Top shape: 32 256 13 13 (1384448)
I0701 11:44:36.670521  2788 net.cpp:165] Memory required for data: 470047104
I0701 11:44:36.670529  2788 layer_factory.hpp:76] Creating layer pool4
I0701 11:44:36.670543  2788 net.cpp:106] Creating Layer pool4
I0701 11:44:36.670552  2788 net.cpp:454] pool4 <- conv42
I0701 11:44:36.670573  2788 net.cpp:411] pool4 -> pool4
I0701 11:44:36.670837  2788 net.cpp:150] Setting up pool4
I0701 11:44:36.670866  2788 net.cpp:157] Top shape: 32 256 7 7 (401408)
I0701 11:44:36.670873  2788 net.cpp:165] Memory required for data: 471652736
I0701 11:44:36.670882  2788 layer_factory.hpp:76] Creating layer conv51
I0701 11:44:36.670897  2788 net.cpp:106] Creating Layer conv51
I0701 11:44:36.670918  2788 net.cpp:454] conv51 <- pool4
I0701 11:44:36.670928  2788 net.cpp:411] conv51 -> conv51
I0701 11:44:36.675343  2788 net.cpp:150] Setting up conv51
I0701 11:44:36.675377  2788 net.cpp:157] Top shape: 32 160 7 7 (250880)
I0701 11:44:36.675386  2788 net.cpp:165] Memory required for data: 472656256
I0701 11:44:36.675401  2788 layer_factory.hpp:76] Creating layer relu51
I0701 11:44:36.675415  2788 net.cpp:106] Creating Layer relu51
I0701 11:44:36.675426  2788 net.cpp:454] relu51 <- conv51
I0701 11:44:36.675436  2788 net.cpp:397] relu51 -> conv51 (in-place)
I0701 11:44:36.675806  2788 net.cpp:150] Setting up relu51
I0701 11:44:36.675837  2788 net.cpp:157] Top shape: 32 160 7 7 (250880)
I0701 11:44:36.675845  2788 net.cpp:165] Memory required for data: 473659776
I0701 11:44:36.675854  2788 layer_factory.hpp:76] Creating layer conv52
I0701 11:44:36.675871  2788 net.cpp:106] Creating Layer conv52
I0701 11:44:36.675881  2788 net.cpp:454] conv52 <- conv51
I0701 11:44:36.675891  2788 net.cpp:411] conv52 -> conv52
I0701 11:44:36.681077  2788 net.cpp:150] Setting up conv52
I0701 11:44:36.681114  2788 net.cpp:157] Top shape: 32 320 7 7 (501760)
I0701 11:44:36.681124  2788 net.cpp:165] Memory required for data: 475666816
I0701 11:44:36.681136  2788 layer_factory.hpp:76] Creating layer relu52
I0701 11:44:36.681164  2788 net.cpp:106] Creating Layer relu52
I0701 11:44:36.681174  2788 net.cpp:454] relu52 <- conv52
I0701 11:44:36.681185  2788 net.cpp:397] relu52 -> conv52 (in-place)
I0701 11:44:36.681547  2788 net.cpp:150] Setting up relu52
I0701 11:44:36.681579  2788 net.cpp:157] Top shape: 32 320 7 7 (501760)
I0701 11:44:36.681588  2788 net.cpp:165] Memory required for data: 477673856
I0701 11:44:36.681597  2788 layer_factory.hpp:76] Creating layer conv53
I0701 11:44:36.681612  2788 net.cpp:106] Creating Layer conv53
I0701 11:44:36.681627  2788 net.cpp:454] conv53 <- conv52
I0701 11:44:36.681638  2788 net.cpp:411] conv53 -> conv53
I0701 11:44:36.726768  2788 cudnn_conv_layer.cpp:194] Reallocating workspace storage: 188160
I0701 11:44:36.726838  2788 net.cpp:150] Setting up conv53
I0701 11:44:36.726853  2788 net.cpp:157] Top shape: 32 320 1 1 (10240)
I0701 11:44:36.726862  2788 net.cpp:165] Memory required for data: 477714816
I0701 11:44:36.726888  2788 layer_factory.hpp:76] Creating layer relu53
I0701 11:44:36.726904  2788 net.cpp:106] Creating Layer relu53
I0701 11:44:36.726914  2788 net.cpp:454] relu53 <- conv53
I0701 11:44:36.726928  2788 net.cpp:397] relu53 -> conv53 (in-place)
I0701 11:44:36.727146  2788 net.cpp:150] Setting up relu53
I0701 11:44:36.727174  2788 net.cpp:157] Top shape: 32 320 1 1 (10240)
I0701 11:44:36.727182  2788 net.cpp:165] Memory required for data: 477755776
I0701 11:44:36.727191  2788 layer_factory.hpp:76] Creating layer drop6
I0701 11:44:36.727205  2788 net.cpp:106] Creating Layer drop6
I0701 11:44:36.727213  2788 net.cpp:454] drop6 <- conv53
I0701 11:44:36.727236  2788 net.cpp:411] drop6 -> drop6
I0701 11:44:36.727291  2788 net.cpp:150] Setting up drop6
I0701 11:44:36.727305  2788 net.cpp:157] Top shape: 32 320 1 1 (10240)
I0701 11:44:36.727313  2788 net.cpp:165] Memory required for data: 477796736
I0701 11:44:36.727322  2788 layer_factory.hpp:76] Creating layer conv54
I0701 11:44:36.727339  2788 net.cpp:106] Creating Layer conv54
I0701 11:44:36.727349  2788 net.cpp:454] conv54 <- drop6
I0701 11:44:36.727360  2788 net.cpp:411] conv54 -> conv54
I0701 11:44:36.728485  2788 cudnn_conv_layer.cpp:194] Reallocating workspace storage: 3840
I0701 11:44:36.728548  2788 net.cpp:150] Setting up conv54
I0701 11:44:36.728559  2788 net.cpp:157] Top shape: 32 2 1 1 (64)
I0701 11:44:36.728567  2788 net.cpp:165] Memory required for data: 477796992
I0701 11:44:36.728590  2788 layer_factory.hpp:76] Creating layer conv54_conv54_0_split
I0701 11:44:36.728605  2788 net.cpp:106] Creating Layer conv54_conv54_0_split
I0701 11:44:36.728613  2788 net.cpp:454] conv54_conv54_0_split <- conv54
I0701 11:44:36.728624  2788 net.cpp:411] conv54_conv54_0_split -> conv54_conv54_0_split_0
I0701 11:44:36.728636  2788 net.cpp:411] conv54_conv54_0_split -> conv54_conv54_0_split_1
I0701 11:44:36.728687  2788 net.cpp:150] Setting up conv54_conv54_0_split
I0701 11:44:36.728699  2788 net.cpp:157] Top shape: 32 2 1 1 (64)
I0701 11:44:36.728708  2788 net.cpp:157] Top shape: 32 2 1 1 (64)
I0701 11:44:36.728718  2788 net.cpp:165] Memory required for data: 477797504
I0701 11:44:36.728725  2788 layer_factory.hpp:76] Creating layer accuracy
I0701 11:44:36.728742  2788 net.cpp:106] Creating Layer accuracy
I0701 11:44:36.728751  2788 net.cpp:454] accuracy <- conv54_conv54_0_split_0
I0701 11:44:36.728760  2788 net.cpp:454] accuracy <- label_data_1_split_0
I0701 11:44:36.728773  2788 net.cpp:411] accuracy -> accuracy
…
