…
I0701 18:54:22.641552 14700 net.cpp:322] The NetState phase (0) differed from the phase (1) specified by a rule in layer accuracy
I0701 18:54:22.641749 14700 net.cpp:49] Initializing net from parameters: 
name: "FaceNN"
state {
  phase: TRAIN
}
layer {
  name: "data"
  type: "ImageData"
  top: "data"
  top: "label"
  include {
    phase: TRAIN
  }
  transform_param {
    mirror: true
    crop_size: 100
    mean_value: 104
    mean_value: 117
    mean_value: 123
  }
  image_data_param {
    source: "../lists/roi-train.lst"
    batch_size: 128
    shuffle: true
    new_height: 110
    new_width: 110
  }
}
layer {
  name: "conv11"
  type: "Convolution"
  bottom: "data"
  top: "conv11"
  param {
    lr_mult: 1
    decay_mult: 1
  }
  param {
    lr_mult: 2
    decay_mult: 0
  }
  convolution_param {
    num_output: 32
    pad: 1
    stride: 1
    weight_filler {
      type: "xavier"
    }
    bias_filler {
      type: "constant"
    }
    kernel_h: 3
    kernel_w: 3
  }
}
layer {
  name: "relu11"
  type: "ReLU"
  bottom: "conv11"
  top: "conv11"
}
layer {
  name: "conv12"
  type: "Convolution"
  bottom: "conv11"
  top: "conv12"
  param {
    lr_mult: 1
    decay_mult: 1
  }
  param {
    lr_mult: 2
    decay_mult: 0
  }
  convolution_param {
    num_output: 32
    pad: 1
    stride: 1
    weight_filler {
      type: "xavier"
    }
    bias_filler {
      type: "constant"
    }
    kernel_h: 3
    kernel_w: 3
  }
}
layer {
  name: "relu12"
  type: "ReLU"
  bottom: "conv12"
  top: "conv12"
}
layer {
  name: "pool1"
  type: "Pooling"
  bottom: "conv12"
  top: "pool1"
  pooling_param {
    pool: MAX
    kernel_size: 2
    stride: 2
  }
}
layer {
  name: "conv21"
  type: "Convolution"
  bottom: "pool1"
  top: "conv21"
  param {
    lr_mult: 1
    decay_mult: 1
  }
  param {
    lr_mult: 2
    decay_mult: 0
  }
  convolution_param {
    num_output: 64
    pad: 1
    stride: 1
    weight_filler {
      type: "xavier"
    }
    bias_filler {
      type: "constant"
    }
    kernel_h: 3
    kernel_w: 3
  }
}
layer {
  name: "relu21"
  type: "ReLU"
  bottom: "conv21"
  top: "conv21"
}
layer {
  name: "conv22"
  type: "Convolution"
  bottom: "conv21"
  top: "conv22"
  param {
    lr_mult: 1
    decay_mult: 1
  }
  param {
    lr_mult: 2
    decay_mult: 0
  }
  convolution_param {
    num_output: 64
    pad: 1
    stride: 1
    weight_filler {
      type: "xavier"
    }
    bias_filler {
      type: "constant"
    }
    kernel_h: 3
    kernel_w: 3
  }
}
layer {
  name: "relu22"
  type: "ReLU"
  bottom: "conv22"
  top: "conv22"
}
layer {
  name: "pool2"
  type: "Pooling"
  bottom: "conv22"
  top: "pool2"
  pooling_param {
    pool: MAX
    kernel_size: 2
    stride: 2
  }
}
layer {
  name: "conv31"
  type: "Convolution"
  bottom: "pool2"
  top: "conv31"
  param {
    lr_mult: 1
    decay_mult: 1
  }
  param {
    lr_mult: 2
    decay_mult: 0
  }
  convolution_param {
    num_output: 96
    pad: 1
    stride: 1
    weight_filler {
      type: "xavier"
    }
    bias_filler {
      type: "constant"
    }
    kernel_h: 3
    kernel_w: 3
  }
}
layer {
  name: "relu31"
  type: "ReLU"
  bottom: "conv31"
  top: "conv31"
}
layer {
  name: "conv32"
  type: "Convolution"
  bottom: "conv31"
  top: "conv32"
  param {
    lr_mult: 1
    decay_mult: 1
  }
  param {
    lr_mult: 2
    decay_mult: 0
  }
  convolution_param {
    num_output: 96
    pad: 1
    stride: 1
    weight_filler {
      type: "xavier"
    }
    bias_filler {
      type: "constant"
    }
    kernel_h: 3
    kernel_w: 3
  }
}
layer {
  name: "relu32"
  type: "ReLU"
  bottom: "conv32"
  top: "conv32"
}
layer {
  name: "pool3"
  type: "Pooling"
  bottom: "conv32"
  top: "pool3"
  pooling_param {
    pool: MAX
    kernel_size: 2
    stride: 2
  }
}
layer {
  name: "conv41"
  type: "Convolution"
  bottom: "pool3"
  top: "conv41"
  param {
    lr_mult: 1
    decay_mult: 1
  }
  param {
    lr_mult: 2
    decay_mult: 0
  }
  convolution_param {
    num_output: 128
    pad: 1
    stride: 1
    weight_filler {
      type: "xavier"
    }
    bias_filler {
      type: "constant"
    }
    kernel_h: 3
    kernel_w: 3
  }
}
layer {
  name: "relu41"
  type: "ReLU"
  bottom: "conv41"
  top: "conv41"
}
layer {
  name: "conv42"
  type: "Convolution"
  bottom: "conv41"
  top: "conv42"
  param {
    lr_mult: 1
    decay_mult: 1
  }
  param {
    lr_mult: 2
    decay_mult: 0
  }
  convolution_param {
    num_output: 128
    pad: 1
    stride: 1
    weight_filler {
      type: "xavier"
    }
    bias_filler {
      type: "constant"
    }
    kernel_h: 3
    kernel_w: 3
  }
}
layer {
  name: "relu42"
  type: "ReLU"
  bottom: "conv42"
  top: "conv42"
}
layer {
  name: "pool4"
  type: "Pooling"
  bottom: "conv42"
  top: "pool4"
  pooling_param {
    pool: MAX
    kernel_size: 2
    stride: 2
  }
}
layer {
  name: "conv51"
  type: "Convolution"
  bottom: "pool4"
  top: "conv51"
  param {
    lr_mult: 1
    decay_mult: 1
  }
  param {
    lr_mult: 2
    decay_mult: 0
  }
  convolution_param {
    num_output: 256
    pad: 1
    stride: 1
    weight_filler {
      type: "xavier"
    }
    bias_filler {
      type: "constant"
    }
    kernel_h: 3
    kernel_w: 3
  }
}
layer {
  name: "relu51"
  type: "ReLU"
  bottom: "conv51"
  top: "conv51"
}
layer {
  name: "conv52"
  type: "Convolution"
  bottom: "conv51"
  top: "conv52"
  param {
    lr_mult: 1
    decay_mult: 1
  }
  param {
    lr_mult: 2
    decay_mult: 0
  }
  convolution_param {
    num_output: 256
    pad: 1
    stride: 1
    weight_filler {
      type: "xavier"
    }
    bias_filler {
      type: "constant"
    }
    kernel_h: 3
    kernel_w: 3
  }
}
layer {
  name: "relu52"
  type: "ReLU"
  bottom: "conv52"
  top: "conv52"
}
layer {
  name: "conv53"
  type: "Convolution"
  bottom: "conv52"
  top: "conv53"
  param {
    lr_mult: 1
    decay_mult: 1
  }
  param {
    lr_mult: 2
    decay_mult: 0
  }
  convolution_param {
    num_output: 256
    stride: 1
    weight_filler {
      type: "xavier"
    }
    bias_filler {
      type: "constant"
    }
    kernel_h: 7
    kernel_w: 7
  }
}
layer {
  name: "relu53"
  type: "ReLU"
  bottom: "conv53"
  top: "conv53"
}
layer {
  name: "drop6"
  type: "Dropout"
  bottom: "conv53"
  top: "drop6"
  dropout_param {
    dropout_ratio: 0.4
  }
}
layer {
  name: "conv54"
  type: "Convolution"
  bottom: "drop6"
  top: "conv54"
  param {
    lr_mult: 1
    decay_mult: 1
  }
  param {
    lr_mult: 2
    decay_mult: 0
  }
  convolution_param {
    num_output: 2
    stride: 1
    weight_filler {
      type: "xavier"
    }
    bias_filler {
      type: "constant"
    }
    kernel_h: 1
    kernel_w: 1
  }
}
layer {
  name: "loss"
  type: "SoftmaxWithLoss"
  bottom: "conv54"
  bottom: "label"
  top: "loss"
}
I0701 18:54:22.643368 14700 layer_factory.hpp:76] Creating layer data
I0701 18:54:22.643435 14700 net.cpp:106] Creating Layer data
I0701 18:54:22.643450 14700 net.cpp:411] data -> data
I0701 18:54:22.643478 14700 net.cpp:411] data -> label
I0701 18:54:22.643918 14700 image_data_layer.cpp:36] Opening file ../lists/roi-train.lst
I0701 18:54:22.752308 14700 image_data_layer.cpp:46] Shuffling data
I0701 18:54:22.781018 14700 image_data_layer.cpp:51] A total of 211680 images.
I0701 18:54:22.892722 14700 image_data_layer.cpp:78] output data size: 128,3,100,100
I0701 18:54:22.935973 14700 net.cpp:150] Setting up data
I0701 18:54:22.936084 14700 net.cpp:157] Top shape: 128 3 100 100 (3840000)
I0701 18:54:22.936105 14700 net.cpp:157] Top shape: 128 (128)
I0701 18:54:22.936117 14700 net.cpp:165] Memory required for data: 15360512
I0701 18:54:22.936134 14700 layer_factory.hpp:76] Creating layer conv11
I0701 18:54:22.936184 14700 net.cpp:106] Creating Layer conv11
I0701 18:54:22.936199 14700 net.cpp:454] conv11 <- data
I0701 18:54:22.936218 14700 net.cpp:411] conv11 -> conv11
I0701 18:54:23.094449 14700 net.cpp:150] Setting up conv11
I0701 18:54:23.094508 14700 net.cpp:157] Top shape: 128 32 100 100 (40960000)
I0701 18:54:23.094519 14700 net.cpp:165] Memory required for data: 179200512
I0701 18:54:23.094548 14700 layer_factory.hpp:76] Creating layer relu11
I0701 18:54:23.094569 14700 net.cpp:106] Creating Layer relu11
I0701 18:54:23.094578 14700 net.cpp:454] relu11 <- conv11
I0701 18:54:23.094589 14700 net.cpp:397] relu11 -> conv11 (in-place)
I0701 18:54:23.094796 14700 net.cpp:150] Setting up relu11
I0701 18:54:23.094825 14700 net.cpp:157] Top shape: 128 32 100 100 (40960000)
I0701 18:54:23.094835 14700 net.cpp:165] Memory required for data: 343040512
I0701 18:54:23.094843 14700 layer_factory.hpp:76] Creating layer conv12
I0701 18:54:23.094859 14700 net.cpp:106] Creating Layer conv12
I0701 18:54:23.094868 14700 net.cpp:454] conv12 <- conv11
I0701 18:54:23.094879 14700 net.cpp:411] conv12 -> conv12
I0701 18:54:23.095870 14700 net.cpp:150] Setting up conv12
I0701 18:54:23.095904 14700 net.cpp:157] Top shape: 128 32 100 100 (40960000)
I0701 18:54:23.095913 14700 net.cpp:165] Memory required for data: 506880512
I0701 18:54:23.095928 14700 layer_factory.hpp:76] Creating layer relu12
I0701 18:54:23.095940 14700 net.cpp:106] Creating Layer relu12
I0701 18:54:23.095949 14700 net.cpp:454] relu12 <- conv12
I0701 18:54:23.095959 14700 net.cpp:397] relu12 -> conv12 (in-place)
I0701 18:54:23.096283 14700 net.cpp:150] Setting up relu12
I0701 18:54:23.096315 14700 net.cpp:157] Top shape: 128 32 100 100 (40960000)
I0701 18:54:23.096323 14700 net.cpp:165] Memory required for data: 670720512
I0701 18:54:23.096333 14700 layer_factory.hpp:76] Creating layer pool1
I0701 18:54:23.096344 14700 net.cpp:106] Creating Layer pool1
I0701 18:54:23.096354 14700 net.cpp:454] pool1 <- conv12
I0701 18:54:23.096364 14700 net.cpp:411] pool1 -> pool1
I0701 18:54:23.096604 14700 net.cpp:150] Setting up pool1
I0701 18:54:23.096633 14700 net.cpp:157] Top shape: 128 32 50 50 (10240000)
I0701 18:54:23.096642 14700 net.cpp:165] Memory required for data: 711680512
I0701 18:54:23.096652 14700 layer_factory.hpp:76] Creating layer conv21
I0701 18:54:23.096664 14700 net.cpp:106] Creating Layer conv21
I0701 18:54:23.096673 14700 net.cpp:454] conv21 <- pool1
I0701 18:54:23.096683 14700 net.cpp:411] conv21 -> conv21
I0701 18:54:23.098821 14700 net.cpp:150] Setting up conv21
I0701 18:54:23.098856 14700 net.cpp:157] Top shape: 128 64 50 50 (20480000)
I0701 18:54:23.098866 14700 net.cpp:165] Memory required for data: 793600512
I0701 18:54:23.098881 14700 layer_factory.hpp:76] Creating layer relu21
I0701 18:54:23.098892 14700 net.cpp:106] Creating Layer relu21
I0701 18:54:23.098901 14700 net.cpp:454] relu21 <- conv21
I0701 18:54:23.098912 14700 net.cpp:397] relu21 -> conv21 (in-place)
I0701 18:54:23.099244 14700 net.cpp:150] Setting up relu21
I0701 18:54:23.099275 14700 net.cpp:157] Top shape: 128 64 50 50 (20480000)
I0701 18:54:23.099284 14700 net.cpp:165] Memory required for data: 875520512
I0701 18:54:23.099293 14700 layer_factory.hpp:76] Creating layer conv22
I0701 18:54:23.099308 14700 net.cpp:106] Creating Layer conv22
I0701 18:54:23.099318 14700 net.cpp:454] conv22 <- conv21
I0701 18:54:23.099329 14700 net.cpp:411] conv22 -> conv22
I0701 18:54:23.100389 14700 cudnn_conv_layer.cpp:194] Reallocating workspace storage: 6912
I0701 18:54:23.100643 14700 net.cpp:150] Setting up conv22
I0701 18:54:23.100673 14700 net.cpp:157] Top shape: 128 64 50 50 (20480000)
I0701 18:54:23.100682 14700 net.cpp:165] Memory required for data: 957440512
I0701 18:54:23.100695 14700 layer_factory.hpp:76] Creating layer relu22
I0701 18:54:23.100744 14700 net.cpp:106] Creating Layer relu22
I0701 18:54:23.100754 14700 net.cpp:454] relu22 <- conv22
I0701 18:54:23.100766 14700 net.cpp:397] relu22 -> conv22 (in-place)
I0701 18:54:23.101089 14700 net.cpp:150] Setting up relu22
I0701 18:54:23.101120 14700 net.cpp:157] Top shape: 128 64 50 50 (20480000)
I0701 18:54:23.101130 14700 net.cpp:165] Memory required for data: 1039360512
I0701 18:54:23.101137 14700 layer_factory.hpp:76] Creating layer pool2
I0701 18:54:23.101150 14700 net.cpp:106] Creating Layer pool2
I0701 18:54:23.101158 14700 net.cpp:454] pool2 <- conv22
I0701 18:54:23.101168 14700 net.cpp:411] pool2 -> pool2
I0701 18:54:23.101387 14700 net.cpp:150] Setting up pool2
I0701 18:54:23.101416 14700 net.cpp:157] Top shape: 128 64 25 25 (5120000)
I0701 18:54:23.101425 14700 net.cpp:165] Memory required for data: 1059840512
I0701 18:54:23.101433 14700 layer_factory.hpp:76] Creating layer conv31
I0701 18:54:23.101446 14700 net.cpp:106] Creating Layer conv31
I0701 18:54:23.101455 14700 net.cpp:454] conv31 <- pool2
I0701 18:54:23.101466 14700 net.cpp:411] conv31 -> conv31
I0701 18:54:23.102823 14700 cudnn_conv_layer.cpp:194] Reallocating workspace storage: 6912
I0701 18:54:23.102881 14700 net.cpp:150] Setting up conv31
I0701 18:54:23.102897 14700 net.cpp:157] Top shape: 128 96 25 25 (7680000)
I0701 18:54:23.102918 14700 net.cpp:165] Memory required for data: 1090560512
I0701 18:54:23.102933 14700 layer_factory.hpp:76] Creating layer relu31
I0701 18:54:23.102947 14700 net.cpp:106] Creating Layer relu31
I0701 18:54:23.102968 14700 net.cpp:454] relu31 <- conv31
I0701 18:54:23.102978 14700 net.cpp:397] relu31 -> conv31 (in-place)
I0701 18:54:23.103308 14700 net.cpp:150] Setting up relu31
I0701 18:54:23.103328 14700 net.cpp:157] Top shape: 128 96 25 25 (7680000)
I0701 18:54:23.103339 14700 net.cpp:165] Memory required for data: 1121280512
I0701 18:54:23.103348 14700 layer_factory.hpp:76] Creating layer conv32
I0701 18:54:23.103360 14700 net.cpp:106] Creating Layer conv32
I0701 18:54:23.103369 14700 net.cpp:454] conv32 <- conv31
I0701 18:54:23.103381 14700 net.cpp:411] conv32 -> conv32
I0701 18:54:23.105540 14700 cudnn_conv_layer.cpp:194] Reallocating workspace storage: 10368
I0701 18:54:23.105588 14700 net.cpp:150] Setting up conv32
I0701 18:54:23.105602 14700 net.cpp:157] Top shape: 128 96 25 25 (7680000)
I0701 18:54:23.105609 14700 net.cpp:165] Memory required for data: 1152000512
I0701 18:54:23.105623 14700 layer_factory.hpp:76] Creating layer relu32
I0701 18:54:23.105648 14700 net.cpp:106] Creating Layer relu32
I0701 18:54:23.105662 14700 net.cpp:454] relu32 <- conv32
I0701 18:54:23.105674 14700 net.cpp:397] relu32 -> conv32 (in-place)
I0701 18:54:23.105875 14700 net.cpp:150] Setting up relu32
I0701 18:54:23.105890 14700 net.cpp:157] Top shape: 128 96 25 25 (7680000)
I0701 18:54:23.105911 14700 net.cpp:165] Memory required for data: 1182720512
I0701 18:54:23.105919 14700 layer_factory.hpp:76] Creating layer pool3
I0701 18:54:23.105932 14700 net.cpp:106] Creating Layer pool3
I0701 18:54:23.105942 14700 net.cpp:454] pool3 <- conv32
I0701 18:54:23.105950 14700 net.cpp:411] pool3 -> pool3
I0701 18:54:23.106351 14700 net.cpp:150] Setting up pool3
I0701 18:54:23.106384 14700 net.cpp:157] Top shape: 128 96 13 13 (2076672)
I0701 18:54:23.106391 14700 net.cpp:165] Memory required for data: 1191027200
I0701 18:54:23.106400 14700 layer_factory.hpp:76] Creating layer conv41
I0701 18:54:23.106420 14700 net.cpp:106] Creating Layer conv41
I0701 18:54:23.106429 14700 net.cpp:454] conv41 <- pool3
I0701 18:54:23.106441 14700 net.cpp:411] conv41 -> conv41
I0701 18:54:23.108054 14700 net.cpp:150] Setting up conv41
I0701 18:54:23.108088 14700 net.cpp:157] Top shape: 128 128 13 13 (2768896)
I0701 18:54:23.108096 14700 net.cpp:165] Memory required for data: 1202102784
I0701 18:54:23.108108 14700 layer_factory.hpp:76] Creating layer relu41
I0701 18:54:23.108119 14700 net.cpp:106] Creating Layer relu41
I0701 18:54:23.108127 14700 net.cpp:454] relu41 <- conv41
I0701 18:54:23.108175 14700 net.cpp:397] relu41 -> conv41 (in-place)
I0701 18:54:23.108698 14700 net.cpp:150] Setting up relu41
I0701 18:54:23.108729 14700 net.cpp:157] Top shape: 128 128 13 13 (2768896)
I0701 18:54:23.108738 14700 net.cpp:165] Memory required for data: 1213178368
I0701 18:54:23.108747 14700 layer_factory.hpp:76] Creating layer conv42
I0701 18:54:23.108762 14700 net.cpp:106] Creating Layer conv42
I0701 18:54:23.108770 14700 net.cpp:454] conv42 <- conv41
I0701 18:54:23.108783 14700 net.cpp:411] conv42 -> conv42
I0701 18:54:23.111302 14700 cudnn_conv_layer.cpp:194] Reallocating workspace storage: 13824
I0701 18:54:23.111351 14700 net.cpp:150] Setting up conv42
I0701 18:54:23.111363 14700 net.cpp:157] Top shape: 128 128 13 13 (2768896)
I0701 18:54:23.111372 14700 net.cpp:165] Memory required for data: 1224253952
I0701 18:54:23.111384 14700 layer_factory.hpp:76] Creating layer relu42
I0701 18:54:23.111395 14700 net.cpp:106] Creating Layer relu42
I0701 18:54:23.111404 14700 net.cpp:454] relu42 <- conv42
I0701 18:54:23.111415 14700 net.cpp:397] relu42 -> conv42 (in-place)
I0701 18:54:23.111598 14700 net.cpp:150] Setting up relu42
I0701 18:54:23.111624 14700 net.cpp:157] Top shape: 128 128 13 13 (2768896)
I0701 18:54:23.111634 14700 net.cpp:165] Memory required for data: 1235329536
I0701 18:54:23.111642 14700 layer_factory.hpp:76] Creating layer pool4
I0701 18:54:23.111657 14700 net.cpp:106] Creating Layer pool4
I0701 18:54:23.111665 14700 net.cpp:454] pool4 <- conv42
I0701 18:54:23.111675 14700 net.cpp:411] pool4 -> pool4
I0701 18:54:23.112017 14700 net.cpp:150] Setting up pool4
I0701 18:54:23.112047 14700 net.cpp:157] Top shape: 128 128 7 7 (802816)
I0701 18:54:23.112056 14700 net.cpp:165] Memory required for data: 1238540800
I0701 18:54:23.112064 14700 layer_factory.hpp:76] Creating layer conv51
I0701 18:54:23.112081 14700 net.cpp:106] Creating Layer conv51
I0701 18:54:23.112089 14700 net.cpp:454] conv51 <- pool4
I0701 18:54:23.112099 14700 net.cpp:411] conv51 -> conv51
I0701 18:54:23.115687 14700 net.cpp:150] Setting up conv51
I0701 18:54:23.115723 14700 net.cpp:157] Top shape: 128 256 7 7 (1605632)
I0701 18:54:23.115733 14700 net.cpp:165] Memory required for data: 1244963328
I0701 18:54:23.115751 14700 layer_factory.hpp:76] Creating layer relu51
I0701 18:54:23.115763 14700 net.cpp:106] Creating Layer relu51
I0701 18:54:23.115772 14700 net.cpp:454] relu51 <- conv51
I0701 18:54:23.115782 14700 net.cpp:397] relu51 -> conv51 (in-place)
I0701 18:54:23.115968 14700 net.cpp:150] Setting up relu51
I0701 18:54:23.115995 14700 net.cpp:157] Top shape: 128 256 7 7 (1605632)
I0701 18:54:23.116003 14700 net.cpp:165] Memory required for data: 1251385856
I0701 18:54:23.116014 14700 layer_factory.hpp:76] Creating layer conv52
I0701 18:54:23.116027 14700 net.cpp:106] Creating Layer conv52
I0701 18:54:23.116036 14700 net.cpp:454] conv52 <- conv51
I0701 18:54:23.116049 14700 net.cpp:411] conv52 -> conv52
I0701 18:54:23.122084 14700 net.cpp:150] Setting up conv52
I0701 18:54:23.122113 14700 net.cpp:157] Top shape: 128 256 7 7 (1605632)
I0701 18:54:23.122138 14700 net.cpp:165] Memory required for data: 1257808384
I0701 18:54:23.122151 14700 layer_factory.hpp:76] Creating layer relu52
I0701 18:54:23.122162 14700 net.cpp:106] Creating Layer relu52
I0701 18:54:23.122170 14700 net.cpp:454] relu52 <- conv52
I0701 18:54:23.122182 14700 net.cpp:397] relu52 -> conv52 (in-place)
I0701 18:54:23.122503 14700 net.cpp:150] Setting up relu52
I0701 18:54:23.122534 14700 net.cpp:157] Top shape: 128 256 7 7 (1605632)
I0701 18:54:23.122544 14700 net.cpp:165] Memory required for data: 1264230912
I0701 18:54:23.122552 14700 layer_factory.hpp:76] Creating layer conv53
I0701 18:54:23.122568 14700 net.cpp:106] Creating Layer conv53
I0701 18:54:23.122577 14700 net.cpp:454] conv53 <- conv52
I0701 18:54:23.122589 14700 net.cpp:411] conv53 -> conv53
I0701 18:54:23.151202 14700 cudnn_conv_layer.cpp:194] Reallocating workspace storage: 150528
I0701 18:54:23.151473 14700 net.cpp:150] Setting up conv53
I0701 18:54:23.151505 14700 net.cpp:157] Top shape: 128 256 1 1 (32768)
I0701 18:54:23.151541 14700 net.cpp:165] Memory required for data: 1264361984
I0701 18:54:23.151568 14700 layer_factory.hpp:76] Creating layer relu53
I0701 18:54:23.151583 14700 net.cpp:106] Creating Layer relu53
I0701 18:54:23.151593 14700 net.cpp:454] relu53 <- conv53
I0701 18:54:23.151605 14700 net.cpp:397] relu53 -> conv53 (in-place)
I0701 18:54:23.151973 14700 net.cpp:150] Setting up relu53
I0701 18:54:23.152004 14700 net.cpp:157] Top shape: 128 256 1 1 (32768)
I0701 18:54:23.152012 14700 net.cpp:165] Memory required for data: 1264493056
I0701 18:54:23.152021 14700 layer_factory.hpp:76] Creating layer drop6
I0701 18:54:23.152036 14700 net.cpp:106] Creating Layer drop6
I0701 18:54:23.152045 14700 net.cpp:454] drop6 <- conv53
I0701 18:54:23.152058 14700 net.cpp:411] drop6 -> drop6
I0701 18:54:23.152123 14700 net.cpp:150] Setting up drop6
I0701 18:54:23.152137 14700 net.cpp:157] Top shape: 128 256 1 1 (32768)
I0701 18:54:23.152148 14700 net.cpp:165] Memory required for data: 1264624128
I0701 18:54:23.152155 14700 layer_factory.hpp:76] Creating layer conv54
I0701 18:54:23.152173 14700 net.cpp:106] Creating Layer conv54
I0701 18:54:23.152194 14700 net.cpp:454] conv54 <- drop6
I0701 18:54:23.152204 14700 net.cpp:411] conv54 -> conv54
I0701 18:54:23.153283 14700 cudnn_conv_layer.cpp:194] Reallocating workspace storage: 3072
I0701 18:54:23.153533 14700 net.cpp:150] Setting up conv54
I0701 18:54:23.153563 14700 net.cpp:157] Top shape: 128 2 1 1 (256)
I0701 18:54:23.153571 14700 net.cpp:165] Memory required for data: 1264625152
I0701 18:54:23.153584 14700 layer_factory.hpp:76] Creating layer loss
I0701 18:54:23.153599 14700 net.cpp:106] Creating Layer loss
I0701 18:54:23.153607 14700 net.cpp:454] loss <- conv54
I0701 18:54:23.153619 14700 net.cpp:454] loss <- label
I0701 18:54:23.153630 14700 net.cpp:411] loss -> loss
I0701 18:54:23.153650 14700 layer_factory.hpp:76] Creating layer loss
…
I0701 18:54:23.155277 14700 net.cpp:322] The NetState phase (1) differed from the phase (0) specified by a rule in layer data
I0701 18:54:23.155515 14700 net.cpp:49] Initializing net from parameters: 
name: "FaceNN"
state {
  phase: TEST
}
layer {
  name: "data"
  type: "ImageData"
  top: "data"
  top: "label"
  include {
    phase: TEST
  }
  transform_param {
    mirror: false
    crop_size: 100
    mean_value: 104
    mean_value: 117
    mean_value: 123
  }
  image_data_param {
    source: "../lists/roi-val.lst"
    batch_size: 32
    shuffle: true
    new_height: 110
    new_width: 110
  }
}
layer {
  name: "conv11"
  type: "Convolution"
  bottom: "data"
  top: "conv11"
  param {
    lr_mult: 1
    decay_mult: 1
  }
  param {
    lr_mult: 2
    decay_mult: 0
  }
  convolution_param {
    num_output: 32
    pad: 1
    stride: 1
    weight_filler {
      type: "xavier"
    }
    bias_filler {
      type: "constant"
    }
    kernel_h: 3
    kernel_w: 3
  }
}
layer {
  name: "relu11"
  type: "ReLU"
  bottom: "conv11"
  top: "conv11"
}
layer {
  name: "conv12"
  type: "Convolution"
  bottom: "conv11"
  top: "conv12"
  param {
    lr_mult: 1
    decay_mult: 1
  }
  param {
    lr_mult: 2
    decay_mult: 0
  }
  convolution_param {
    num_output: 32
    pad: 1
    stride: 1
    weight_filler {
      type: "xavier"
    }
    bias_filler {
      type: "constant"
    }
    kernel_h: 3
    kernel_w: 3
  }
}
layer {
  name: "relu12"
  type: "ReLU"
  bottom: "conv12"
  top: "conv12"
}
layer {
  name: "pool1"
  type: "Pooling"
  bottom: "conv12"
  top: "pool1"
  pooling_param {
    pool: MAX
    kernel_size: 2
    stride: 2
  }
}
layer {
  name: "conv21"
  type: "Convolution"
  bottom: "pool1"
  top: "conv21"
  param {
    lr_mult: 1
    decay_mult: 1
  }
  param {
    lr_mult: 2
    decay_mult: 0
  }
  convolution_param {
    num_output: 64
    pad: 1
    stride: 1
    weight_filler {
      type: "xavier"
    }
    bias_filler {
      type: "constant"
    }
    kernel_h: 3
    kernel_w: 3
  }
}
layer {
  name: "relu21"
  type: "ReLU"
  bottom: "conv21"
  top: "conv21"
}
layer {
  name: "conv22"
  type: "Convolution"
  bottom: "conv21"
  top: "conv22"
  param {
    lr_mult: 1
    decay_mult: 1
  }
  param {
    lr_mult: 2
    decay_mult: 0
  }
  convolution_param {
    num_output: 64
    pad: 1
    stride: 1
    weight_filler {
      type: "xavier"
    }
    bias_filler {
      type: "constant"
    }
    kernel_h: 3
    kernel_w: 3
  }
}
layer {
  name: "relu22"
  type: "ReLU"
  bottom: "conv22"
  top: "conv22"
}
layer {
  name: "pool2"
  type: "Pooling"
  bottom: "conv22"
  top: "pool2"
  pooling_param {
    pool: MAX
    kernel_size: 2
    stride: 2
  }
}
layer {
  name: "conv31"
  type: "Convolution"
  bottom: "pool2"
  top: "conv31"
  param {
    lr_mult: 1
    decay_mult: 1
  }
  param {
    lr_mult: 2
    decay_mult: 0
  }
  convolution_param {
    num_output: 96
    pad: 1
    stride: 1
    weight_filler {
      type: "xavier"
    }
    bias_filler {
      type: "constant"
    }
    kernel_h: 3
    kernel_w: 3
  }
}
layer {
  name: "relu31"
  type: "ReLU"
  bottom: "conv31"
  top: "conv31"
}
layer {
  name: "conv32"
  type: "Convolution"
  bottom: "conv31"
  top: "conv32"
  param {
    lr_mult: 1
    decay_mult: 1
  }
  param {
    lr_mult: 2
    decay_mult: 0
  }
  convolution_param {
    num_output: 96
    pad: 1
    stride: 1
    weight_filler {
      type: "xavier"
    }
    bias_filler {
      type: "constant"
    }
    kernel_h: 3
    kernel_w: 3
  }
}
layer {
  name: "relu32"
  type: "ReLU"
  bottom: "conv32"
  top: "conv32"
}
layer {
  name: "pool3"
  type: "Pooling"
  bottom: "conv32"
  top: "pool3"
  pooling_param {
    pool: MAX
    kernel_size: 2
    stride: 2
  }
}
layer {
  name: "conv41"
  type: "Convolution"
  bottom: "pool3"
  top: "conv41"
  param {
    lr_mult: 1
    decay_mult: 1
  }
  param {
    lr_mult: 2
    decay_mult: 0
  }
  convolution_param {
    num_output: 128
    pad: 1
    stride: 1
    weight_filler {
      type: "xavier"
    }
    bias_filler {
      type: "constant"
    }
    kernel_h: 3
    kernel_w: 3
  }
}
layer {
  name: "relu41"
  type: "ReLU"
  bottom: "conv41"
  top: "conv41"
}
layer {
  name: "conv42"
  type: "Convolution"
  bottom: "conv41"
  top: "conv42"
  param {
    lr_mult: 1
    decay_mult: 1
  }
  param {
    lr_mult: 2
    decay_mult: 0
  }
  convolution_param {
    num_output: 128
    pad: 1
    stride: 1
    weight_filler {
      type: "xavier"
    }
    bias_filler {
      type: "constant"
    }
    kernel_h: 3
    kernel_w: 3
  }
}
layer {
  name: "relu42"
  type: "ReLU"
  bottom: "conv42"
  top: "conv42"
}
layer {
  name: "pool4"
  type: "Pooling"
  bottom: "conv42"
  top: "pool4"
  pooling_param {
    pool: MAX
    kernel_size: 2
    stride: 2
  }
}
layer {
  name: "conv51"
  type: "Convolution"
  bottom: "pool4"
  top: "conv51"
  param {
    lr_mult: 1
    decay_mult: 1
  }
  param {
    lr_mult: 2
    decay_mult: 0
  }
  convolution_param {
    num_output: 256
    pad: 1
    stride: 1
    weight_filler {
      type: "xavier"
    }
    bias_filler {
      type: "constant"
    }
    kernel_h: 3
    kernel_w: 3
  }
}
layer {
  name: "relu51"
  type: "ReLU"
  bottom: "conv51"
  top: "conv51"
}
layer {
  name: "conv52"
  type: "Convolution"
  bottom: "conv51"
  top: "conv52"
  param {
    lr_mult: 1
    decay_mult: 1
  }
  param {
    lr_mult: 2
    decay_mult: 0
  }
  convolution_param {
    num_output: 256
    pad: 1
    stride: 1
    weight_filler {
      type: "xavier"
    }
    bias_filler {
      type: "constant"
    }
    kernel_h: 3
    kernel_w: 3
  }
}
layer {
  name: "relu52"
  type: "ReLU"
  bottom: "conv52"
  top: "conv52"
}
layer {
  name: "conv53"
  type: "Convolution"
  bottom: "conv52"
  top: "conv53"
  param {
    lr_mult: 1
    decay_mult: 1
  }
  param {
    lr_mult: 2
    decay_mult: 0
  }
  convolution_param {
    num_output: 256
    stride: 1
    weight_filler {
      type: "xavier"
    }
    bias_filler {
      type: "constant"
    }
    kernel_h: 7
    kernel_w: 7
  }
}
layer {
  name: "relu53"
  type: "ReLU"
  bottom: "conv53"
  top: "conv53"
}
layer {
  name: "drop6"
  type: "Dropout"
  bottom: "conv53"
  top: "drop6"
  dropout_param {
    dropout_ratio: 0.4
  }
}
layer {
  name: "conv54"
  type: "Convolution"
  bottom: "drop6"
  top: "conv54"
  param {
    lr_mult: 1
    decay_mult: 1
  }
  param {
    lr_mult: 2
    decay_mult: 0
  }
  convolution_param {
    num_output: 2
    stride: 1
    weight_filler {
      type: "xavier"
    }
    bias_filler {
      type: "constant"
    }
    kernel_h: 1
    kernel_w: 1
  }
}
layer {
  name: "accuracy"
  type: "Accuracy"
  bottom: "conv54"
  bottom: "label"
  top: "accuracy"
  include {
    phase: TEST
  }
}
layer {
  name: "loss"
  type: "SoftmaxWithLoss"
  bottom: "conv54"
  bottom: "label"
  top: "loss"
}
I0701 18:54:23.157161 14700 layer_factory.hpp:76] Creating layer data
I0701 18:54:23.157196 14700 net.cpp:106] Creating Layer data
I0701 18:54:23.157207 14700 net.cpp:411] data -> data
I0701 18:54:23.157219 14700 net.cpp:411] data -> label
I0701 18:54:23.157233 14700 image_data_layer.cpp:36] Opening file ../lists/roi-val.lst
I0701 18:54:23.168900 14700 image_data_layer.cpp:46] Shuffling data
I0701 18:54:23.170658 14700 image_data_layer.cpp:51] A total of 23520 images.
I0701 18:54:23.209589 14700 image_data_layer.cpp:78] output data size: 32,3,100,100
I0701 18:54:23.217934 14700 net.cpp:150] Setting up data
I0701 18:54:23.217993 14700 net.cpp:157] Top shape: 32 3 100 100 (960000)
I0701 18:54:23.218006 14700 net.cpp:157] Top shape: 32 (32)
I0701 18:54:23.218015 14700 net.cpp:165] Memory required for data: 3840128
I0701 18:54:23.218029 14700 layer_factory.hpp:76] Creating layer label_data_1_split
I0701 18:54:23.218051 14700 net.cpp:106] Creating Layer label_data_1_split
I0701 18:54:23.218061 14700 net.cpp:454] label_data_1_split <- label
I0701 18:54:23.218073 14700 net.cpp:411] label_data_1_split -> label_data_1_split_0
I0701 18:54:23.218088 14700 net.cpp:411] label_data_1_split -> label_data_1_split_1
I0701 18:54:23.218149 14700 net.cpp:150] Setting up label_data_1_split
I0701 18:54:23.218163 14700 net.cpp:157] Top shape: 32 (32)
I0701 18:54:23.218173 14700 net.cpp:157] Top shape: 32 (32)
I0701 18:54:23.218181 14700 net.cpp:165] Memory required for data: 3840384
I0701 18:54:23.218190 14700 layer_factory.hpp:76] Creating layer conv11
I0701 18:54:23.218206 14700 net.cpp:106] Creating Layer conv11
I0701 18:54:23.218215 14700 net.cpp:454] conv11 <- data
I0701 18:54:23.218227 14700 net.cpp:411] conv11 -> conv11
I0701 18:54:23.219622 14700 net.cpp:150] Setting up conv11
I0701 18:54:23.219660 14700 net.cpp:157] Top shape: 32 32 100 100 (10240000)
I0701 18:54:23.219669 14700 net.cpp:165] Memory required for data: 44800384
I0701 18:54:23.219686 14700 layer_factory.hpp:76] Creating layer relu11
I0701 18:54:23.219701 14700 net.cpp:106] Creating Layer relu11
I0701 18:54:23.219709 14700 net.cpp:454] relu11 <- conv11
I0701 18:54:23.219720 14700 net.cpp:397] relu11 -> conv11 (in-place)
I0701 18:54:23.220053 14700 net.cpp:150] Setting up relu11
I0701 18:54:23.220073 14700 net.cpp:157] Top shape: 32 32 100 100 (10240000)
I0701 18:54:23.220098 14700 net.cpp:165] Memory required for data: 85760384
I0701 18:54:23.220108 14700 layer_factory.hpp:76] Creating layer conv12
I0701 18:54:23.220123 14700 net.cpp:106] Creating Layer conv12
I0701 18:54:23.220132 14700 net.cpp:454] conv12 <- conv11
I0701 18:54:23.220149 14700 net.cpp:411] conv12 -> conv12
I0701 18:54:23.221182 14700 net.cpp:150] Setting up conv12
I0701 18:54:23.221217 14700 net.cpp:157] Top shape: 32 32 100 100 (10240000)
I0701 18:54:23.221227 14700 net.cpp:165] Memory required for data: 126720384
I0701 18:54:23.221246 14700 layer_factory.hpp:76] Creating layer relu12
I0701 18:54:23.221258 14700 net.cpp:106] Creating Layer relu12
I0701 18:54:23.221267 14700 net.cpp:454] relu12 <- conv12
I0701 18:54:23.221281 14700 net.cpp:397] relu12 -> conv12 (in-place)
I0701 18:54:23.221618 14700 net.cpp:150] Setting up relu12
I0701 18:54:23.221650 14700 net.cpp:157] Top shape: 32 32 100 100 (10240000)
I0701 18:54:23.221659 14700 net.cpp:165] Memory required for data: 167680384
I0701 18:54:23.221668 14700 layer_factory.hpp:76] Creating layer pool1
I0701 18:54:23.221680 14700 net.cpp:106] Creating Layer pool1
I0701 18:54:23.221688 14700 net.cpp:454] pool1 <- conv12
I0701 18:54:23.221701 14700 net.cpp:411] pool1 -> pool1
I0701 18:54:23.221922 14700 net.cpp:150] Setting up pool1
I0701 18:54:23.221951 14700 net.cpp:157] Top shape: 32 32 50 50 (2560000)
I0701 18:54:23.221959 14700 net.cpp:165] Memory required for data: 177920384
I0701 18:54:23.221969 14700 layer_factory.hpp:76] Creating layer conv21
I0701 18:54:23.221984 14700 net.cpp:106] Creating Layer conv21
I0701 18:54:23.221993 14700 net.cpp:454] conv21 <- pool1
I0701 18:54:23.222007 14700 net.cpp:411] conv21 -> conv21
I0701 18:54:23.223359 14700 net.cpp:150] Setting up conv21
I0701 18:54:23.223395 14700 net.cpp:157] Top shape: 32 64 50 50 (5120000)
I0701 18:54:23.223404 14700 net.cpp:165] Memory required for data: 198400384
I0701 18:54:23.223419 14700 layer_factory.hpp:76] Creating layer relu21
I0701 18:54:23.223433 14700 net.cpp:106] Creating Layer relu21
I0701 18:54:23.223443 14700 net.cpp:454] relu21 <- conv21
I0701 18:54:23.223453 14700 net.cpp:397] relu21 -> conv21 (in-place)
I0701 18:54:23.224443 14700 net.cpp:150] Setting up relu21
I0701 18:54:23.224480 14700 net.cpp:157] Top shape: 32 64 50 50 (5120000)
I0701 18:54:23.224490 14700 net.cpp:165] Memory required for data: 218880384
I0701 18:54:23.224499 14700 layer_factory.hpp:76] Creating layer conv22
I0701 18:54:23.224515 14700 net.cpp:106] Creating Layer conv22
I0701 18:54:23.224525 14700 net.cpp:454] conv22 <- conv21
I0701 18:54:23.224539 14700 net.cpp:411] conv22 -> conv22
I0701 18:54:23.225865 14700 net.cpp:150] Setting up conv22
I0701 18:54:23.225900 14700 net.cpp:157] Top shape: 32 64 50 50 (5120000)
I0701 18:54:23.225910 14700 net.cpp:165] Memory required for data: 239360384
I0701 18:54:23.225922 14700 layer_factory.hpp:76] Creating layer relu22
I0701 18:54:23.225936 14700 net.cpp:106] Creating Layer relu22
I0701 18:54:23.225945 14700 net.cpp:454] relu22 <- conv22
I0701 18:54:23.225956 14700 net.cpp:397] relu22 -> conv22 (in-place)
I0701 18:54:23.226151 14700 net.cpp:150] Setting up relu22
I0701 18:54:23.226179 14700 net.cpp:157] Top shape: 32 64 50 50 (5120000)
I0701 18:54:23.226188 14700 net.cpp:165] Memory required for data: 259840384
I0701 18:54:23.226197 14700 layer_factory.hpp:76] Creating layer pool2
I0701 18:54:23.226208 14700 net.cpp:106] Creating Layer pool2
I0701 18:54:23.226217 14700 net.cpp:454] pool2 <- conv22
I0701 18:54:23.226229 14700 net.cpp:411] pool2 -> pool2
I0701 18:54:23.226593 14700 net.cpp:150] Setting up pool2
I0701 18:54:23.226624 14700 net.cpp:157] Top shape: 32 64 25 25 (1280000)
I0701 18:54:23.226634 14700 net.cpp:165] Memory required for data: 264960384
I0701 18:54:23.226642 14700 layer_factory.hpp:76] Creating layer conv31
I0701 18:54:23.226660 14700 net.cpp:106] Creating Layer conv31
I0701 18:54:23.226670 14700 net.cpp:454] conv31 <- pool2
I0701 18:54:23.226681 14700 net.cpp:411] conv31 -> conv31
I0701 18:54:23.228011 14700 cudnn_conv_layer.cpp:194] Reallocating workspace storage: 6912
I0701 18:54:23.228060 14700 net.cpp:150] Setting up conv31
I0701 18:54:23.228073 14700 net.cpp:157] Top shape: 32 96 25 25 (1920000)
I0701 18:54:23.228082 14700 net.cpp:165] Memory required for data: 272640384
I0701 18:54:23.228097 14700 layer_factory.hpp:76] Creating layer relu31
I0701 18:54:23.228109 14700 net.cpp:106] Creating Layer relu31
I0701 18:54:23.228117 14700 net.cpp:454] relu31 <- conv31
I0701 18:54:23.228140 14700 net.cpp:397] relu31 -> conv31 (in-place)
I0701 18:54:23.228487 14700 net.cpp:150] Setting up relu31
I0701 18:54:23.228519 14700 net.cpp:157] Top shape: 32 96 25 25 (1920000)
I0701 18:54:23.228528 14700 net.cpp:165] Memory required for data: 280320384
I0701 18:54:23.228549 14700 layer_factory.hpp:76] Creating layer conv32
I0701 18:54:23.228564 14700 net.cpp:106] Creating Layer conv32
I0701 18:54:23.228572 14700 net.cpp:454] conv32 <- conv31
I0701 18:54:23.228585 14700 net.cpp:411] conv32 -> conv32
I0701 18:54:23.230190 14700 net.cpp:150] Setting up conv32
I0701 18:54:23.230224 14700 net.cpp:157] Top shape: 32 96 25 25 (1920000)
I0701 18:54:23.230233 14700 net.cpp:165] Memory required for data: 288000384
I0701 18:54:23.230248 14700 layer_factory.hpp:76] Creating layer relu32
I0701 18:54:23.230259 14700 net.cpp:106] Creating Layer relu32
I0701 18:54:23.230268 14700 net.cpp:454] relu32 <- conv32
I0701 18:54:23.230280 14700 net.cpp:397] relu32 -> conv32 (in-place)
I0701 18:54:23.230468 14700 net.cpp:150] Setting up relu32
I0701 18:54:23.230495 14700 net.cpp:157] Top shape: 32 96 25 25 (1920000)
I0701 18:54:23.230504 14700 net.cpp:165] Memory required for data: 295680384
I0701 18:54:23.230514 14700 layer_factory.hpp:76] Creating layer pool3
I0701 18:54:23.230527 14700 net.cpp:106] Creating Layer pool3
I0701 18:54:23.230536 14700 net.cpp:454] pool3 <- conv32
I0701 18:54:23.230545 14700 net.cpp:411] pool3 -> pool3
I0701 18:54:23.230902 14700 net.cpp:150] Setting up pool3
I0701 18:54:23.230932 14700 net.cpp:157] Top shape: 32 96 13 13 (519168)
I0701 18:54:23.230942 14700 net.cpp:165] Memory required for data: 297757056
I0701 18:54:23.230952 14700 layer_factory.hpp:76] Creating layer conv41
I0701 18:54:23.230967 14700 net.cpp:106] Creating Layer conv41
I0701 18:54:23.230995 14700 net.cpp:454] conv41 <- pool3
I0701 18:54:23.231007 14700 net.cpp:411] conv41 -> conv41
I0701 18:54:23.233402 14700 cudnn_conv_layer.cpp:194] Reallocating workspace storage: 10368
I0701 18:54:23.233458 14700 net.cpp:150] Setting up conv41
I0701 18:54:23.233470 14700 net.cpp:157] Top shape: 32 128 13 13 (692224)
I0701 18:54:23.233479 14700 net.cpp:165] Memory required for data: 300525952
I0701 18:54:23.233491 14700 layer_factory.hpp:76] Creating layer relu41
I0701 18:54:23.233502 14700 net.cpp:106] Creating Layer relu41
I0701 18:54:23.233511 14700 net.cpp:454] relu41 <- conv41
I0701 18:54:23.233522 14700 net.cpp:397] relu41 -> conv41 (in-place)
I0701 18:54:23.233712 14700 net.cpp:150] Setting up relu41
I0701 18:54:23.233741 14700 net.cpp:157] Top shape: 32 128 13 13 (692224)
I0701 18:54:23.233750 14700 net.cpp:165] Memory required for data: 303294848
I0701 18:54:23.233759 14700 layer_factory.hpp:76] Creating layer conv42
I0701 18:54:23.233772 14700 net.cpp:106] Creating Layer conv42
I0701 18:54:23.233780 14700 net.cpp:454] conv42 <- conv41
I0701 18:54:23.233793 14700 net.cpp:411] conv42 -> conv42
I0701 18:54:23.235824 14700 cudnn_conv_layer.cpp:194] Reallocating workspace storage: 13824
I0701 18:54:23.235873 14700 net.cpp:150] Setting up conv42
I0701 18:54:23.235885 14700 net.cpp:157] Top shape: 32 128 13 13 (692224)
I0701 18:54:23.235893 14700 net.cpp:165] Memory required for data: 306063744
I0701 18:54:23.235905 14700 layer_factory.hpp:76] Creating layer relu42
I0701 18:54:23.235918 14700 net.cpp:106] Creating Layer relu42
I0701 18:54:23.235927 14700 net.cpp:454] relu42 <- conv42
I0701 18:54:23.235936 14700 net.cpp:397] relu42 -> conv42 (in-place)
I0701 18:54:23.236264 14700 net.cpp:150] Setting up relu42
I0701 18:54:23.236294 14700 net.cpp:157] Top shape: 32 128 13 13 (692224)
I0701 18:54:23.236304 14700 net.cpp:165] Memory required for data: 308832640
I0701 18:54:23.236312 14700 layer_factory.hpp:76] Creating layer pool4
I0701 18:54:23.236325 14700 net.cpp:106] Creating Layer pool4
I0701 18:54:23.236333 14700 net.cpp:454] pool4 <- conv42
I0701 18:54:23.236343 14700 net.cpp:411] pool4 -> pool4
I0701 18:54:23.236630 14700 net.cpp:150] Setting up pool4
I0701 18:54:23.236660 14700 net.cpp:157] Top shape: 32 128 7 7 (200704)
I0701 18:54:23.236668 14700 net.cpp:165] Memory required for data: 309635456
I0701 18:54:23.236676 14700 layer_factory.hpp:76] Creating layer conv51
I0701 18:54:23.236691 14700 net.cpp:106] Creating Layer conv51
I0701 18:54:23.236701 14700 net.cpp:454] conv51 <- pool4
I0701 18:54:23.236712 14700 net.cpp:411] conv51 -> conv51
I0701 18:54:23.240447 14700 cudnn_conv_layer.cpp:194] Reallocating workspace storage: 21676032
I0701 18:54:23.240700 14700 net.cpp:150] Setting up conv51
I0701 18:54:23.240731 14700 net.cpp:157] Top shape: 32 256 7 7 (401408)
I0701 18:54:23.240739 14700 net.cpp:165] Memory required for data: 311241088
I0701 18:54:23.240758 14700 layer_factory.hpp:76] Creating layer relu51
I0701 18:54:23.240772 14700 net.cpp:106] Creating Layer relu51
I0701 18:54:23.240782 14700 net.cpp:454] relu51 <- conv51
I0701 18:54:23.240792 14700 net.cpp:397] relu51 -> conv51 (in-place)
I0701 18:54:23.240990 14700 net.cpp:150] Setting up relu51
I0701 18:54:23.241019 14700 net.cpp:157] Top shape: 32 256 7 7 (401408)
I0701 18:54:23.241026 14700 net.cpp:165] Memory required for data: 312846720
I0701 18:54:23.241035 14700 layer_factory.hpp:76] Creating layer conv52
I0701 18:54:23.241051 14700 net.cpp:106] Creating Layer conv52
I0701 18:54:23.241061 14700 net.cpp:454] conv52 <- conv51
I0701 18:54:23.241071 14700 net.cpp:411] conv52 -> conv52
I0701 18:54:23.247418 14700 net.cpp:150] Setting up conv52
I0701 18:54:23.247464 14700 net.cpp:157] Top shape: 32 256 7 7 (401408)
I0701 18:54:23.247474 14700 net.cpp:165] Memory required for data: 314452352
I0701 18:54:23.247488 14700 layer_factory.hpp:76] Creating layer relu52
I0701 18:54:23.247499 14700 net.cpp:106] Creating Layer relu52
I0701 18:54:23.247509 14700 net.cpp:454] relu52 <- conv52
I0701 18:54:23.247540 14700 net.cpp:397] relu52 -> conv52 (in-place)
I0701 18:54:23.247887 14700 net.cpp:150] Setting up relu52
I0701 18:54:23.247918 14700 net.cpp:157] Top shape: 32 256 7 7 (401408)
I0701 18:54:23.247927 14700 net.cpp:165] Memory required for data: 316057984
I0701 18:54:23.247936 14700 layer_factory.hpp:76] Creating layer conv53
I0701 18:54:23.247949 14700 net.cpp:106] Creating Layer conv53
I0701 18:54:23.247958 14700 net.cpp:454] conv53 <- conv52
I0701 18:54:23.247970 14700 net.cpp:411] conv53 -> conv53
I0701 18:54:23.277209 14700 cudnn_conv_layer.cpp:194] Reallocating workspace storage: 150528
I0701 18:54:23.277276 14700 net.cpp:150] Setting up conv53
I0701 18:54:23.277290 14700 net.cpp:157] Top shape: 32 256 1 1 (8192)
I0701 18:54:23.277299 14700 net.cpp:165] Memory required for data: 316090752
I0701 18:54:23.277313 14700 layer_factory.hpp:76] Creating layer relu53
I0701 18:54:23.277328 14700 net.cpp:106] Creating Layer relu53
I0701 18:54:23.277339 14700 net.cpp:454] relu53 <- conv53
I0701 18:54:23.277353 14700 net.cpp:397] relu53 -> conv53 (in-place)
I0701 18:54:23.277544 14700 net.cpp:150] Setting up relu53
I0701 18:54:23.277570 14700 net.cpp:157] Top shape: 32 256 1 1 (8192)
I0701 18:54:23.277580 14700 net.cpp:165] Memory required for data: 316123520
I0701 18:54:23.277588 14700 layer_factory.hpp:76] Creating layer drop6
I0701 18:54:23.277601 14700 net.cpp:106] Creating Layer drop6
I0701 18:54:23.277611 14700 net.cpp:454] drop6 <- conv53
I0701 18:54:23.277621 14700 net.cpp:411] drop6 -> drop6
I0701 18:54:23.277675 14700 net.cpp:150] Setting up drop6
I0701 18:54:23.277689 14700 net.cpp:157] Top shape: 32 256 1 1 (8192)
I0701 18:54:23.277698 14700 net.cpp:165] Memory required for data: 316156288
I0701 18:54:23.277705 14700 layer_factory.hpp:76] Creating layer conv54
I0701 18:54:23.277720 14700 net.cpp:106] Creating Layer conv54
I0701 18:54:23.277730 14700 net.cpp:454] conv54 <- drop6
I0701 18:54:23.277740 14700 net.cpp:411] conv54 -> conv54
I0701 18:54:23.278779 14700 cudnn_conv_layer.cpp:194] Reallocating workspace storage: 3072
I0701 18:54:23.278822 14700 net.cpp:150] Setting up conv54
I0701 18:54:23.278834 14700 net.cpp:157] Top shape: 32 2 1 1 (64)
I0701 18:54:23.278843 14700 net.cpp:165] Memory required for data: 316156544
I0701 18:54:23.278856 14700 layer_factory.hpp:76] Creating layer conv54_conv54_0_split
I0701 18:54:23.278867 14700 net.cpp:106] Creating Layer conv54_conv54_0_split
I0701 18:54:23.278875 14700 net.cpp:454] conv54_conv54_0_split <- conv54
I0701 18:54:23.278887 14700 net.cpp:411] conv54_conv54_0_split -> conv54_conv54_0_split_0
I0701 18:54:23.278900 14700 net.cpp:411] conv54_conv54_0_split -> conv54_conv54_0_split_1
I0701 18:54:23.278947 14700 net.cpp:150] Setting up conv54_conv54_0_split
I0701 18:54:23.278959 14700 net.cpp:157] Top shape: 32 2 1 1 (64)
I0701 18:54:23.278970 14700 net.cpp:157] Top shape: 32 2 1 1 (64)
I0701 18:54:23.278976 14700 net.cpp:165] Memory required for data: 316157056
I0701 18:54:23.278985 14700 layer_factory.hpp:76] Creating layer accuracy
I0701 18:54:23.279003 14700 net.cpp:106] Creating Layer accuracy
I0701 18:54:23.279012 14700 net.cpp:454] accuracy <- conv54_conv54_0_split_0
I0701 18:54:23.279021 14700 net.cpp:454] accuracy <- label_data_1_split_0
I0701 18:54:23.279033 14700 net.cpp:411] accuracy -> accuracy
…
