…
I0701 10:57:54.662751 53357 net.cpp:322] The NetState phase (0) differed from the phase (1) specified by a rule in layer accuracy
I0701 10:57:54.662938 53357 net.cpp:49] Initializing net from parameters: 
name: "FaceNN"
state {
  phase: TRAIN
}
layer {
  name: "data"
  type: "ImageData"
  top: "data"
  top: "label"
  include {
    phase: TRAIN
  }
  transform_param {
    mirror: true
    crop_size: 100
    mean_value: 104
    mean_value: 117
    mean_value: 123
  }
  image_data_param {
    source: "../lists/roi-train.lst"
    batch_size: 128
    shuffle: true
    new_height: 110
    new_width: 110
  }
}
layer {
  name: "conv11"
  type: "Convolution"
  bottom: "data"
  top: "conv11"
  param {
    lr_mult: 1
    decay_mult: 1
  }
  param {
    lr_mult: 2
    decay_mult: 0
  }
  convolution_param {
    num_output: 32
    pad: 1
    stride: 1
    weight_filler {
      type: "xavier"
    }
    bias_filler {
      type: "constant"
    }
    kernel_h: 3
    kernel_w: 3
  }
}
layer {
  name: "relu11"
  type: "ReLU"
  bottom: "conv11"
  top: "conv11"
}
layer {
  name: "conv12"
  type: "Convolution"
  bottom: "conv11"
  top: "conv12"
  param {
    lr_mult: 1
    decay_mult: 1
  }
  param {
    lr_mult: 2
    decay_mult: 0
  }
  convolution_param {
    num_output: 64
    pad: 1
    stride: 1
    weight_filler {
      type: "xavier"
    }
    bias_filler {
      type: "constant"
    }
    kernel_h: 3
    kernel_w: 3
  }
}
layer {
  name: "relu12"
  type: "ReLU"
  bottom: "conv12"
  top: "conv12"
}
layer {
  name: "pool1"
  type: "Pooling"
  bottom: "conv12"
  top: "pool1"
  pooling_param {
    pool: MAX
    kernel_size: 2
    stride: 2
  }
}
layer {
  name: "conv21"
  type: "Convolution"
  bottom: "pool1"
  top: "conv21"
  param {
    lr_mult: 1
    decay_mult: 1
  }
  param {
    lr_mult: 2
    decay_mult: 0
  }
  convolution_param {
    num_output: 64
    pad: 1
    stride: 1
    weight_filler {
      type: "xavier"
    }
    bias_filler {
      type: "constant"
    }
    kernel_h: 3
    kernel_w: 3
  }
}
layer {
  name: "relu21"
  type: "ReLU"
  bottom: "conv21"
  top: "conv21"
}
layer {
  name: "conv22"
  type: "Convolution"
  bottom: "conv21"
  top: "conv22"
  param {
    lr_mult: 1
    decay_mult: 1
  }
  param {
    lr_mult: 2
    decay_mult: 0
  }
  convolution_param {
    num_output: 128
    pad: 1
    stride: 1
    weight_filler {
      type: "xavier"
    }
    bias_filler {
      type: "constant"
    }
    kernel_h: 3
    kernel_w: 3
  }
}
layer {
  name: "relu22"
  type: "ReLU"
  bottom: "conv22"
  top: "conv22"
}
layer {
  name: "pool2"
  type: "Pooling"
  bottom: "conv22"
  top: "pool2"
  pooling_param {
    pool: MAX
    kernel_size: 2
    stride: 2
  }
}
layer {
  name: "conv31"
  type: "Convolution"
  bottom: "pool2"
  top: "conv31"
  param {
    lr_mult: 1
    decay_mult: 1
  }
  param {
    lr_mult: 2
    decay_mult: 0
  }
  convolution_param {
    num_output: 96
    pad: 1
    stride: 1
    weight_filler {
      type: "xavier"
    }
    bias_filler {
      type: "constant"
    }
    kernel_h: 3
    kernel_w: 3
  }
}
layer {
  name: "relu31"
  type: "ReLU"
  bottom: "conv31"
  top: "conv31"
}
layer {
  name: "conv32"
  type: "Convolution"
  bottom: "conv31"
  top: "conv32"
  param {
    lr_mult: 1
    decay_mult: 1
  }
  param {
    lr_mult: 2
    decay_mult: 0
  }
  convolution_param {
    num_output: 192
    pad: 1
    stride: 1
    weight_filler {
      type: "xavier"
    }
    bias_filler {
      type: "constant"
    }
    kernel_h: 3
    kernel_w: 3
  }
}
layer {
  name: "relu32"
  type: "ReLU"
  bottom: "conv32"
  top: "conv32"
}
layer {
  name: "pool3"
  type: "Pooling"
  bottom: "conv32"
  top: "pool3"
  pooling_param {
    pool: MAX
    kernel_size: 2
    stride: 2
  }
}
layer {
  name: "conv41"
  type: "Convolution"
  bottom: "pool3"
  top: "conv41"
  param {
    lr_mult: 1
    decay_mult: 1
  }
  param {
    lr_mult: 2
    decay_mult: 0
  }
  convolution_param {
    num_output: 128
    pad: 1
    stride: 1
    weight_filler {
      type: "xavier"
    }
    bias_filler {
      type: "constant"
    }
    kernel_h: 3
    kernel_w: 3
  }
}
layer {
  name: "relu41"
  type: "ReLU"
  bottom: "conv41"
  top: "conv41"
}
layer {
  name: "conv42"
  type: "Convolution"
  bottom: "conv41"
  top: "conv42"
  param {
    lr_mult: 1
    decay_mult: 1
  }
  param {
    lr_mult: 2
    decay_mult: 0
  }
  convolution_param {
    num_output: 256
    pad: 1
    stride: 1
    weight_filler {
      type: "xavier"
    }
    bias_filler {
      type: "constant"
    }
    kernel_h: 3
    kernel_w: 3
  }
}
layer {
  name: "relu42"
  type: "ReLU"
  bottom: "conv42"
  top: "conv42"
}
layer {
  name: "pool4"
  type: "Pooling"
  bottom: "conv42"
  top: "pool4"
  pooling_param {
    pool: MAX
    kernel_size: 2
    stride: 2
  }
}
layer {
  name: "conv51"
  type: "Convolution"
  bottom: "pool4"
  top: "conv51"
  param {
    lr_mult: 1
    decay_mult: 1
  }
  param {
    lr_mult: 2
    decay_mult: 0
  }
  convolution_param {
    num_output: 160
    pad: 1
    stride: 1
    weight_filler {
      type: "xavier"
    }
    bias_filler {
      type: "constant"
    }
    kernel_h: 3
    kernel_w: 3
  }
}
layer {
  name: "relu51"
  type: "ReLU"
  bottom: "conv51"
  top: "conv51"
}
layer {
  name: "conv52"
  type: "Convolution"
  bottom: "conv51"
  top: "conv52"
  param {
    lr_mult: 1
    decay_mult: 1
  }
  param {
    lr_mult: 2
    decay_mult: 0
  }
  convolution_param {
    num_output: 320
    pad: 1
    stride: 1
    weight_filler {
      type: "xavier"
    }
    bias_filler {
      type: "constant"
    }
    kernel_h: 3
    kernel_w: 3
  }
}
layer {
  name: "relu52"
  type: "ReLU"
  bottom: "conv52"
  top: "conv52"
}
layer {
  name: "conv53"
  type: "Convolution"
  bottom: "conv52"
  top: "conv53"
  param {
    lr_mult: 1
    decay_mult: 1
  }
  param {
    lr_mult: 2
    decay_mult: 0
  }
  convolution_param {
    num_output: 320
    stride: 1
    weight_filler {
      type: "xavier"
    }
    bias_filler {
      type: "constant"
    }
    kernel_h: 7
    kernel_w: 7
  }
}
layer {
  name: "relu53"
  type: "ReLU"
  bottom: "conv53"
  top: "conv53"
}
layer {
  name: "drop6"
  type: "Dropout"
  bottom: "conv53"
  top: "drop6"
  dropout_param {
    dropout_ratio: 0.4
  }
}
layer {
  name: "conv54"
  type: "Convolution"
  bottom: "drop6"
  top: "conv54"
  param {
    lr_mult: 1
    decay_mult: 1
  }
  param {
    lr_mult: 2
    decay_mult: 0
  }
  convolution_param {
    num_output: 2
    stride: 1
    weight_filler {
      type: "xavier"
    }
    bias_filler {
      type: "constant"
    }
    kernel_h: 1
    kernel_w: 1
  }
}
layer {
  name: "loss"
  type: "SoftmaxWithLoss"
  bottom: "conv54"
  bottom: "label"
  top: "loss"
}
I0701 10:57:54.664669 53357 layer_factory.hpp:76] Creating layer data
I0701 10:57:54.664727 53357 net.cpp:106] Creating Layer data
I0701 10:57:54.664746 53357 net.cpp:411] data -> data
I0701 10:57:54.664780 53357 net.cpp:411] data -> label
I0701 10:57:54.665216 53357 image_data_layer.cpp:36] Opening file ../lists/roi-train.lst
I0701 10:57:54.782269 53357 image_data_layer.cpp:46] Shuffling data
I0701 10:57:54.818055 53357 image_data_layer.cpp:51] A total of 211680 images.
I0701 10:57:54.830884 53357 image_data_layer.cpp:78] output data size: 128,3,100,100
I0701 10:57:54.861698 53357 net.cpp:150] Setting up data
I0701 10:57:54.861781 53357 net.cpp:157] Top shape: 128 3 100 100 (3840000)
I0701 10:57:54.861804 53357 net.cpp:157] Top shape: 128 (128)
I0701 10:57:54.861811 53357 net.cpp:165] Memory required for data: 15360512
I0701 10:57:54.861825 53357 layer_factory.hpp:76] Creating layer conv11
I0701 10:57:54.861855 53357 net.cpp:106] Creating Layer conv11
I0701 10:57:54.861868 53357 net.cpp:454] conv11 <- data
I0701 10:57:54.861887 53357 net.cpp:411] conv11 -> conv11
I0701 10:57:55.017441 53357 net.cpp:150] Setting up conv11
I0701 10:57:55.017499 53357 net.cpp:157] Top shape: 128 32 100 100 (40960000)
I0701 10:57:55.017510 53357 net.cpp:165] Memory required for data: 179200512
I0701 10:57:55.017537 53357 layer_factory.hpp:76] Creating layer relu11
I0701 10:57:55.017557 53357 net.cpp:106] Creating Layer relu11
I0701 10:57:55.017568 53357 net.cpp:454] relu11 <- conv11
I0701 10:57:55.017580 53357 net.cpp:397] relu11 -> conv11 (in-place)
I0701 10:57:55.017771 53357 net.cpp:150] Setting up relu11
I0701 10:57:55.017802 53357 net.cpp:157] Top shape: 128 32 100 100 (40960000)
I0701 10:57:55.017810 53357 net.cpp:165] Memory required for data: 343040512
I0701 10:57:55.017819 53357 layer_factory.hpp:76] Creating layer conv12
I0701 10:57:55.017837 53357 net.cpp:106] Creating Layer conv12
I0701 10:57:55.017845 53357 net.cpp:454] conv12 <- conv11
I0701 10:57:55.017856 53357 net.cpp:411] conv12 -> conv12
I0701 10:57:55.019585 53357 net.cpp:150] Setting up conv12
I0701 10:57:55.019621 53357 net.cpp:157] Top shape: 128 64 100 100 (81920000)
I0701 10:57:55.019631 53357 net.cpp:165] Memory required for data: 670720512
I0701 10:57:55.019646 53357 layer_factory.hpp:76] Creating layer relu12
I0701 10:57:55.019659 53357 net.cpp:106] Creating Layer relu12
I0701 10:57:55.019668 53357 net.cpp:454] relu12 <- conv12
I0701 10:57:55.019680 53357 net.cpp:397] relu12 -> conv12 (in-place)
I0701 10:57:55.020011 53357 net.cpp:150] Setting up relu12
I0701 10:57:55.020043 53357 net.cpp:157] Top shape: 128 64 100 100 (81920000)
I0701 10:57:55.020053 53357 net.cpp:165] Memory required for data: 998400512
I0701 10:57:55.020062 53357 layer_factory.hpp:76] Creating layer pool1
I0701 10:57:55.020076 53357 net.cpp:106] Creating Layer pool1
I0701 10:57:55.020083 53357 net.cpp:454] pool1 <- conv12
I0701 10:57:55.020097 53357 net.cpp:411] pool1 -> pool1
I0701 10:57:55.020324 53357 net.cpp:150] Setting up pool1
I0701 10:57:55.020356 53357 net.cpp:157] Top shape: 128 64 50 50 (20480000)
I0701 10:57:55.020366 53357 net.cpp:165] Memory required for data: 1080320512
I0701 10:57:55.020375 53357 layer_factory.hpp:76] Creating layer conv21
I0701 10:57:55.020390 53357 net.cpp:106] Creating Layer conv21
I0701 10:57:55.020398 53357 net.cpp:454] conv21 <- pool1
I0701 10:57:55.020411 53357 net.cpp:411] conv21 -> conv21
I0701 10:57:55.022276 53357 cudnn_conv_layer.cpp:194] Reallocating workspace storage: 6912
I0701 10:57:55.022532 53357 net.cpp:150] Setting up conv21
I0701 10:57:55.022562 53357 net.cpp:157] Top shape: 128 64 50 50 (20480000)
I0701 10:57:55.022572 53357 net.cpp:165] Memory required for data: 1162240512
I0701 10:57:55.022588 53357 layer_factory.hpp:76] Creating layer relu21
I0701 10:57:55.022600 53357 net.cpp:106] Creating Layer relu21
I0701 10:57:55.022609 53357 net.cpp:454] relu21 <- conv21
I0701 10:57:55.022622 53357 net.cpp:397] relu21 -> conv21 (in-place)
I0701 10:57:55.022959 53357 net.cpp:150] Setting up relu21
I0701 10:57:55.022991 53357 net.cpp:157] Top shape: 128 64 50 50 (20480000)
I0701 10:57:55.023001 53357 net.cpp:165] Memory required for data: 1244160512
I0701 10:57:55.023010 53357 layer_factory.hpp:76] Creating layer conv22
I0701 10:57:55.023028 53357 net.cpp:106] Creating Layer conv22
I0701 10:57:55.023037 53357 net.cpp:454] conv22 <- conv21
I0701 10:57:55.023051 53357 net.cpp:411] conv22 -> conv22
I0701 10:57:55.025063 53357 cudnn_conv_layer.cpp:194] Reallocating workspace storage: 6912
I0701 10:57:55.025111 53357 net.cpp:150] Setting up conv22
I0701 10:57:55.025125 53357 net.cpp:157] Top shape: 128 128 50 50 (40960000)
I0701 10:57:55.025162 53357 net.cpp:165] Memory required for data: 1408000512
I0701 10:57:55.025177 53357 layer_factory.hpp:76] Creating layer relu22
I0701 10:57:55.025187 53357 net.cpp:106] Creating Layer relu22
I0701 10:57:55.025197 53357 net.cpp:454] relu22 <- conv22
I0701 10:57:55.025209 53357 net.cpp:397] relu22 -> conv22 (in-place)
I0701 10:57:55.025539 53357 net.cpp:150] Setting up relu22
I0701 10:57:55.025571 53357 net.cpp:157] Top shape: 128 128 50 50 (40960000)
I0701 10:57:55.025581 53357 net.cpp:165] Memory required for data: 1571840512
I0701 10:57:55.025590 53357 layer_factory.hpp:76] Creating layer pool2
I0701 10:57:55.025604 53357 net.cpp:106] Creating Layer pool2
I0701 10:57:55.025614 53357 net.cpp:454] pool2 <- conv22
I0701 10:57:55.025624 53357 net.cpp:411] pool2 -> pool2
I0701 10:57:55.025882 53357 net.cpp:150] Setting up pool2
I0701 10:57:55.025913 53357 net.cpp:157] Top shape: 128 128 25 25 (10240000)
I0701 10:57:55.025921 53357 net.cpp:165] Memory required for data: 1612800512
I0701 10:57:55.025930 53357 layer_factory.hpp:76] Creating layer conv31
I0701 10:57:55.025952 53357 net.cpp:106] Creating Layer conv31
I0701 10:57:55.025962 53357 net.cpp:454] conv31 <- pool2
I0701 10:57:55.025974 53357 net.cpp:411] conv31 -> conv31
I0701 10:57:55.027755 53357 cudnn_conv_layer.cpp:194] Reallocating workspace storage: 13824
I0701 10:57:55.027807 53357 net.cpp:150] Setting up conv31
I0701 10:57:55.027822 53357 net.cpp:157] Top shape: 128 96 25 25 (7680000)
I0701 10:57:55.027830 53357 net.cpp:165] Memory required for data: 1643520512
I0701 10:57:55.027847 53357 layer_factory.hpp:76] Creating layer relu31
I0701 10:57:55.027859 53357 net.cpp:106] Creating Layer relu31
I0701 10:57:55.027869 53357 net.cpp:454] relu31 <- conv31
I0701 10:57:55.027882 53357 net.cpp:397] relu31 -> conv31 (in-place)
I0701 10:57:55.028211 53357 net.cpp:150] Setting up relu31
I0701 10:57:55.028244 53357 net.cpp:157] Top shape: 128 96 25 25 (7680000)
I0701 10:57:55.028254 53357 net.cpp:165] Memory required for data: 1674240512
I0701 10:57:55.028261 53357 layer_factory.hpp:76] Creating layer conv32
I0701 10:57:55.028278 53357 net.cpp:106] Creating Layer conv32
I0701 10:57:55.028287 53357 net.cpp:454] conv32 <- conv31
I0701 10:57:55.028301 53357 net.cpp:411] conv32 -> conv32
I0701 10:57:55.031119 53357 cudnn_conv_layer.cpp:194] Reallocating workspace storage: 10368
I0701 10:57:55.031164 53357 net.cpp:150] Setting up conv32
I0701 10:57:55.031178 53357 net.cpp:157] Top shape: 128 192 25 25 (15360000)
I0701 10:57:55.031186 53357 net.cpp:165] Memory required for data: 1735680512
I0701 10:57:55.031199 53357 layer_factory.hpp:76] Creating layer relu32
I0701 10:57:55.031211 53357 net.cpp:106] Creating Layer relu32
I0701 10:57:55.031220 53357 net.cpp:454] relu32 <- conv32
I0701 10:57:55.031230 53357 net.cpp:397] relu32 -> conv32 (in-place)
I0701 10:57:55.031445 53357 net.cpp:150] Setting up relu32
I0701 10:57:55.031473 53357 net.cpp:157] Top shape: 128 192 25 25 (15360000)
I0701 10:57:55.031482 53357 net.cpp:165] Memory required for data: 1797120512
I0701 10:57:55.031491 53357 layer_factory.hpp:76] Creating layer pool3
I0701 10:57:55.031505 53357 net.cpp:106] Creating Layer pool3
I0701 10:57:55.031513 53357 net.cpp:454] pool3 <- conv32
I0701 10:57:55.031523 53357 net.cpp:411] pool3 -> pool3
I0701 10:57:55.031906 53357 net.cpp:150] Setting up pool3
I0701 10:57:55.031939 53357 net.cpp:157] Top shape: 128 192 13 13 (4153344)
I0701 10:57:55.031949 53357 net.cpp:165] Memory required for data: 1813733888
I0701 10:57:55.031958 53357 layer_factory.hpp:76] Creating layer conv41
I0701 10:57:55.031975 53357 net.cpp:106] Creating Layer conv41
I0701 10:57:55.031985 53357 net.cpp:454] conv41 <- pool3
I0701 10:57:55.032001 53357 net.cpp:411] conv41 -> conv41
I0701 10:57:55.035004 53357 cudnn_conv_layer.cpp:194] Reallocating workspace storage: 20736
I0701 10:57:55.035233 53357 net.cpp:150] Setting up conv41
I0701 10:57:55.035264 53357 net.cpp:157] Top shape: 128 128 13 13 (2768896)
I0701 10:57:55.035274 53357 net.cpp:165] Memory required for data: 1824809472
I0701 10:57:55.035308 53357 layer_factory.hpp:76] Creating layer relu41
I0701 10:57:55.035323 53357 net.cpp:106] Creating Layer relu41
I0701 10:57:55.035344 53357 net.cpp:454] relu41 <- conv41
I0701 10:57:55.035357 53357 net.cpp:397] relu41 -> conv41 (in-place)
I0701 10:57:55.035684 53357 net.cpp:150] Setting up relu41
I0701 10:57:55.035717 53357 net.cpp:157] Top shape: 128 128 13 13 (2768896)
I0701 10:57:55.035728 53357 net.cpp:165] Memory required for data: 1835885056
I0701 10:57:55.035737 53357 layer_factory.hpp:76] Creating layer conv42
I0701 10:57:55.035751 53357 net.cpp:106] Creating Layer conv42
I0701 10:57:55.035760 53357 net.cpp:454] conv42 <- conv41
I0701 10:57:55.035773 53357 net.cpp:411] conv42 -> conv42
I0701 10:57:55.039517 53357 net.cpp:150] Setting up conv42
I0701 10:57:55.039553 53357 net.cpp:157] Top shape: 128 256 13 13 (5537792)
I0701 10:57:55.039563 53357 net.cpp:165] Memory required for data: 1858036224
I0701 10:57:55.039575 53357 layer_factory.hpp:76] Creating layer relu42
I0701 10:57:55.039588 53357 net.cpp:106] Creating Layer relu42
I0701 10:57:55.039598 53357 net.cpp:454] relu42 <- conv42
I0701 10:57:55.039609 53357 net.cpp:397] relu42 -> conv42 (in-place)
I0701 10:57:55.039795 53357 net.cpp:150] Setting up relu42
I0701 10:57:55.039824 53357 net.cpp:157] Top shape: 128 256 13 13 (5537792)
I0701 10:57:55.039834 53357 net.cpp:165] Memory required for data: 1880187392
I0701 10:57:55.039842 53357 layer_factory.hpp:76] Creating layer pool4
I0701 10:57:55.039855 53357 net.cpp:106] Creating Layer pool4
I0701 10:57:55.039863 53357 net.cpp:454] pool4 <- conv42
I0701 10:57:55.039875 53357 net.cpp:411] pool4 -> pool4
I0701 10:57:55.040226 53357 net.cpp:150] Setting up pool4
I0701 10:57:55.040258 53357 net.cpp:157] Top shape: 128 256 7 7 (1605632)
I0701 10:57:55.040268 53357 net.cpp:165] Memory required for data: 1886609920
I0701 10:57:55.040277 53357 layer_factory.hpp:76] Creating layer conv51
I0701 10:57:55.040292 53357 net.cpp:106] Creating Layer conv51
I0701 10:57:55.040302 53357 net.cpp:454] conv51 <- pool4
I0701 10:57:55.040313 53357 net.cpp:411] conv51 -> conv51
I0701 10:57:55.044610 53357 net.cpp:150] Setting up conv51
I0701 10:57:55.044646 53357 net.cpp:157] Top shape: 128 160 7 7 (1003520)
I0701 10:57:55.044656 53357 net.cpp:165] Memory required for data: 1890624000
I0701 10:57:55.044677 53357 layer_factory.hpp:76] Creating layer relu51
I0701 10:57:55.044689 53357 net.cpp:106] Creating Layer relu51
I0701 10:57:55.044698 53357 net.cpp:454] relu51 <- conv51
I0701 10:57:55.044709 53357 net.cpp:397] relu51 -> conv51 (in-place)
I0701 10:57:55.044888 53357 net.cpp:150] Setting up relu51
I0701 10:57:55.044916 53357 net.cpp:157] Top shape: 128 160 7 7 (1003520)
I0701 10:57:55.044924 53357 net.cpp:165] Memory required for data: 1894638080
I0701 10:57:55.044934 53357 layer_factory.hpp:76] Creating layer conv52
I0701 10:57:55.044951 53357 net.cpp:106] Creating Layer conv52
I0701 10:57:55.044960 53357 net.cpp:454] conv52 <- conv51
I0701 10:57:55.044970 53357 net.cpp:411] conv52 -> conv52
I0701 10:57:55.050199 53357 cudnn_conv_layer.cpp:194] Reallocating workspace storage: 17280
I0701 10:57:55.050251 53357 net.cpp:150] Setting up conv52
I0701 10:57:55.050266 53357 net.cpp:157] Top shape: 128 320 7 7 (2007040)
I0701 10:57:55.050274 53357 net.cpp:165] Memory required for data: 1902666240
I0701 10:57:55.050288 53357 layer_factory.hpp:76] Creating layer relu52
I0701 10:57:55.050304 53357 net.cpp:106] Creating Layer relu52
I0701 10:57:55.050314 53357 net.cpp:454] relu52 <- conv52
I0701 10:57:55.050325 53357 net.cpp:397] relu52 -> conv52 (in-place)
I0701 10:57:55.050662 53357 net.cpp:150] Setting up relu52
I0701 10:57:55.050693 53357 net.cpp:157] Top shape: 128 320 7 7 (2007040)
I0701 10:57:55.050703 53357 net.cpp:165] Memory required for data: 1910694400
I0701 10:57:55.050711 53357 layer_factory.hpp:76] Creating layer conv53
I0701 10:57:55.050727 53357 net.cpp:106] Creating Layer conv53
I0701 10:57:55.050737 53357 net.cpp:454] conv53 <- conv52
I0701 10:57:55.050748 53357 net.cpp:411] conv53 -> conv53
I0701 10:57:55.103883 53357 cudnn_conv_layer.cpp:194] Reallocating workspace storage: 188160
I0701 10:57:55.121037 53357 net.cpp:150] Setting up conv53
I0701 10:57:55.121091 53357 net.cpp:157] Top shape: 128 320 1 1 (40960)
I0701 10:57:55.121103 53357 net.cpp:165] Memory required for data: 1910858240
I0701 10:57:55.121119 53357 layer_factory.hpp:76] Creating layer relu53
I0701 10:57:55.121137 53357 net.cpp:106] Creating Layer relu53
I0701 10:57:55.121148 53357 net.cpp:454] relu53 <- conv53
I0701 10:57:55.121160 53357 net.cpp:397] relu53 -> conv53 (in-place)
I0701 10:57:55.130295 53357 net.cpp:150] Setting up relu53
I0701 10:57:55.130332 53357 net.cpp:157] Top shape: 128 320 1 1 (40960)
I0701 10:57:55.130342 53357 net.cpp:165] Memory required for data: 1911022080
I0701 10:57:55.130352 53357 layer_factory.hpp:76] Creating layer drop6
I0701 10:57:55.130370 53357 net.cpp:106] Creating Layer drop6
I0701 10:57:55.130379 53357 net.cpp:454] drop6 <- conv53
I0701 10:57:55.130391 53357 net.cpp:411] drop6 -> drop6
I0701 10:57:55.130492 53357 net.cpp:150] Setting up drop6
I0701 10:57:55.130519 53357 net.cpp:157] Top shape: 128 320 1 1 (40960)
I0701 10:57:55.130528 53357 net.cpp:165] Memory required for data: 1911185920
I0701 10:57:55.130549 53357 layer_factory.hpp:76] Creating layer conv54
I0701 10:57:55.130565 53357 net.cpp:106] Creating Layer conv54
I0701 10:57:55.130574 53357 net.cpp:454] conv54 <- drop6
I0701 10:57:55.130585 53357 net.cpp:411] conv54 -> conv54
I0701 10:57:55.131649 53357 cudnn_conv_layer.cpp:194] Reallocating workspace storage: 3840
I0701 10:57:55.131903 53357 net.cpp:150] Setting up conv54
I0701 10:57:55.131934 53357 net.cpp:157] Top shape: 128 2 1 1 (256)
I0701 10:57:55.131943 53357 net.cpp:165] Memory required for data: 1911186944
I0701 10:57:55.131958 53357 layer_factory.hpp:76] Creating layer loss
I0701 10:57:55.131973 53357 net.cpp:106] Creating Layer loss
I0701 10:57:55.131983 53357 net.cpp:454] loss <- conv54
I0701 10:57:55.131992 53357 net.cpp:454] loss <- label
I0701 10:57:55.132004 53357 net.cpp:411] loss -> loss
I0701 10:57:55.132024 53357 layer_factory.hpp:76] Creating layer loss
…
I0701 10:57:55.133716 53357 net.cpp:322] The NetState phase (1) differed from the phase (0) specified by a rule in layer data
I0701 10:57:55.133931 53357 net.cpp:49] Initializing net from parameters: 
name: "FaceNN"
state {
  phase: TEST
}
layer {
  name: "data"
  type: "ImageData"
  top: "data"
  top: "label"
  include {
    phase: TEST
  }
  transform_param {
    mirror: false
    crop_size: 100
    mean_value: 104
    mean_value: 117
    mean_value: 123
  }
  image_data_param {
    source: "../lists/roi-val.lst"
    batch_size: 32
    shuffle: true
    new_height: 110
    new_width: 110
  }
}
layer {
  name: "conv11"
  type: "Convolution"
  bottom: "data"
  top: "conv11"
  param {
    lr_mult: 1
    decay_mult: 1
  }
  param {
    lr_mult: 2
    decay_mult: 0
  }
  convolution_param {
    num_output: 32
    pad: 1
    stride: 1
    weight_filler {
      type: "xavier"
    }
    bias_filler {
      type: "constant"
    }
    kernel_h: 3
    kernel_w: 3
  }
}
layer {
  name: "relu11"
  type: "ReLU"
  bottom: "conv11"
  top: "conv11"
}
layer {
  name: "conv12"
  type: "Convolution"
  bottom: "conv11"
  top: "conv12"
  param {
    lr_mult: 1
    decay_mult: 1
  }
  param {
    lr_mult: 2
    decay_mult: 0
  }
  convolution_param {
    num_output: 64
    pad: 1
    stride: 1
    weight_filler {
      type: "xavier"
    }
    bias_filler {
      type: "constant"
    }
    kernel_h: 3
    kernel_w: 3
  }
}
layer {
  name: "relu12"
  type: "ReLU"
  bottom: "conv12"
  top: "conv12"
}
layer {
  name: "pool1"
  type: "Pooling"
  bottom: "conv12"
  top: "pool1"
  pooling_param {
    pool: MAX
    kernel_size: 2
    stride: 2
  }
}
layer {
  name: "conv21"
  type: "Convolution"
  bottom: "pool1"
  top: "conv21"
  param {
    lr_mult: 1
    decay_mult: 1
  }
  param {
    lr_mult: 2
    decay_mult: 0
  }
  convolution_param {
    num_output: 64
    pad: 1
    stride: 1
    weight_filler {
      type: "xavier"
    }
    bias_filler {
      type: "constant"
    }
    kernel_h: 3
    kernel_w: 3
  }
}
layer {
  name: "relu21"
  type: "ReLU"
  bottom: "conv21"
  top: "conv21"
}
layer {
  name: "conv22"
  type: "Convolution"
  bottom: "conv21"
  top: "conv22"
  param {
    lr_mult: 1
    decay_mult: 1
  }
  param {
    lr_mult: 2
    decay_mult: 0
  }
  convolution_param {
    num_output: 128
    pad: 1
    stride: 1
    weight_filler {
      type: "xavier"
    }
    bias_filler {
      type: "constant"
    }
    kernel_h: 3
    kernel_w: 3
  }
}
layer {
  name: "relu22"
  type: "ReLU"
  bottom: "conv22"
  top: "conv22"
}
layer {
  name: "pool2"
  type: "Pooling"
  bottom: "conv22"
  top: "pool2"
  pooling_param {
    pool: MAX
    kernel_size: 2
    stride: 2
  }
}
layer {
  name: "conv31"
  type: "Convolution"
  bottom: "pool2"
  top: "conv31"
  param {
    lr_mult: 1
    decay_mult: 1
  }
  param {
    lr_mult: 2
    decay_mult: 0
  }
  convolution_param {
    num_output: 96
    pad: 1
    stride: 1
    weight_filler {
      type: "xavier"
    }
    bias_filler {
      type: "constant"
    }
    kernel_h: 3
    kernel_w: 3
  }
}
layer {
  name: "relu31"
  type: "ReLU"
  bottom: "conv31"
  top: "conv31"
}
layer {
  name: "conv32"
  type: "Convolution"
  bottom: "conv31"
  top: "conv32"
  param {
    lr_mult: 1
    decay_mult: 1
  }
  param {
    lr_mult: 2
    decay_mult: 0
  }
  convolution_param {
    num_output: 192
    pad: 1
    stride: 1
    weight_filler {
      type: "xavier"
    }
    bias_filler {
      type: "constant"
    }
    kernel_h: 3
    kernel_w: 3
  }
}
layer {
  name: "relu32"
  type: "ReLU"
  bottom: "conv32"
  top: "conv32"
}
layer {
  name: "pool3"
  type: "Pooling"
  bottom: "conv32"
  top: "pool3"
  pooling_param {
    pool: MAX
    kernel_size: 2
    stride: 2
  }
}
layer {
  name: "conv41"
  type: "Convolution"
  bottom: "pool3"
  top: "conv41"
  param {
    lr_mult: 1
    decay_mult: 1
  }
  param {
    lr_mult: 2
    decay_mult: 0
  }
  convolution_param {
    num_output: 128
    pad: 1
    stride: 1
    weight_filler {
      type: "xavier"
    }
    bias_filler {
      type: "constant"
    }
    kernel_h: 3
    kernel_w: 3
  }
}
layer {
  name: "relu41"
  type: "ReLU"
  bottom: "conv41"
  top: "conv41"
}
layer {
  name: "conv42"
  type: "Convolution"
  bottom: "conv41"
  top: "conv42"
  param {
    lr_mult: 1
    decay_mult: 1
  }
  param {
    lr_mult: 2
    decay_mult: 0
  }
  convolution_param {
    num_output: 256
    pad: 1
    stride: 1
    weight_filler {
      type: "xavier"
    }
    bias_filler {
      type: "constant"
    }
    kernel_h: 3
    kernel_w: 3
  }
}
layer {
  name: "relu42"
  type: "ReLU"
  bottom: "conv42"
  top: "conv42"
}
layer {
  name: "pool4"
  type: "Pooling"
  bottom: "conv42"
  top: "pool4"
  pooling_param {
    pool: MAX
    kernel_size: 2
    stride: 2
  }
}
layer {
  name: "conv51"
  type: "Convolution"
  bottom: "pool4"
  top: "conv51"
  param {
    lr_mult: 1
    decay_mult: 1
  }
  param {
    lr_mult: 2
    decay_mult: 0
  }
  convolution_param {
    num_output: 160
    pad: 1
    stride: 1
    weight_filler {
      type: "xavier"
    }
    bias_filler {
      type: "constant"
    }
    kernel_h: 3
    kernel_w: 3
  }
}
layer {
  name: "relu51"
  type: "ReLU"
  bottom: "conv51"
  top: "conv51"
}
layer {
  name: "conv52"
  type: "Convolution"
  bottom: "conv51"
  top: "conv52"
  param {
    lr_mult: 1
    decay_mult: 1
  }
  param {
    lr_mult: 2
    decay_mult: 0
  }
  convolution_param {
    num_output: 320
    pad: 1
    stride: 1
    weight_filler {
      type: "xavier"
    }
    bias_filler {
      type: "constant"
    }
    kernel_h: 3
    kernel_w: 3
  }
}
layer {
  name: "relu52"
  type: "ReLU"
  bottom: "conv52"
  top: "conv52"
}
layer {
  name: "conv53"
  type: "Convolution"
  bottom: "conv52"
  top: "conv53"
  param {
    lr_mult: 1
    decay_mult: 1
  }
  param {
    lr_mult: 2
    decay_mult: 0
  }
  convolution_param {
    num_output: 320
    stride: 1
    weight_filler {
      type: "xavier"
    }
    bias_filler {
      type: "constant"
    }
    kernel_h: 7
    kernel_w: 7
  }
}
layer {
  name: "relu53"
  type: "ReLU"
  bottom: "conv53"
  top: "conv53"
}
layer {
  name: "drop6"
  type: "Dropout"
  bottom: "conv53"
  top: "drop6"
  dropout_param {
    dropout_ratio: 0.4
  }
}
layer {
  name: "conv54"
  type: "Convolution"
  bottom: "drop6"
  top: "conv54"
  param {
    lr_mult: 1
    decay_mult: 1
  }
  param {
    lr_mult: 2
    decay_mult: 0
  }
  convolution_param {
    num_output: 2
    stride: 1
    weight_filler {
      type: "xavier"
    }
    bias_filler {
      type: "constant"
    }
    kernel_h: 1
    kernel_w: 1
  }
}
layer {
  name: "accuracy"
  type: "Accuracy"
  bottom: "conv54"
  bottom: "label"
  top: "accuracy"
  include {
    phase: TEST
  }
}
layer {
  name: "loss"
  type: "SoftmaxWithLoss"
  bottom: "conv54"
  bottom: "label"
  top: "loss"
}
I0701 10:57:55.135591 53357 layer_factory.hpp:76] Creating layer data
I0701 10:57:55.135625 53357 net.cpp:106] Creating Layer data
I0701 10:57:55.135648 53357 net.cpp:411] data -> data
I0701 10:57:55.135663 53357 net.cpp:411] data -> label
I0701 10:57:55.135687 53357 image_data_layer.cpp:36] Opening file ../lists/roi-val.lst
I0701 10:57:55.148008 53357 image_data_layer.cpp:46] Shuffling data
I0701 10:57:55.149734 53357 image_data_layer.cpp:51] A total of 23520 images.
I0701 10:57:55.153486 53357 image_data_layer.cpp:78] output data size: 32,3,100,100
I0701 10:57:55.162328 53357 net.cpp:150] Setting up data
I0701 10:57:55.162381 53357 net.cpp:157] Top shape: 32 3 100 100 (960000)
I0701 10:57:55.162394 53357 net.cpp:157] Top shape: 32 (32)
I0701 10:57:55.162402 53357 net.cpp:165] Memory required for data: 3840128
I0701 10:57:55.162415 53357 layer_factory.hpp:76] Creating layer label_data_1_split
I0701 10:57:55.162488 53357 net.cpp:106] Creating Layer label_data_1_split
I0701 10:57:55.162541 53357 net.cpp:454] label_data_1_split <- label
I0701 10:57:55.162564 53357 net.cpp:411] label_data_1_split -> label_data_1_split_0
I0701 10:57:55.162598 53357 net.cpp:411] label_data_1_split -> label_data_1_split_1
I0701 10:57:55.162740 53357 net.cpp:150] Setting up label_data_1_split
I0701 10:57:55.162770 53357 net.cpp:157] Top shape: 32 (32)
I0701 10:57:55.162784 53357 net.cpp:157] Top shape: 32 (32)
I0701 10:57:55.162801 53357 net.cpp:165] Memory required for data: 3840384
I0701 10:57:55.162814 53357 layer_factory.hpp:76] Creating layer conv11
I0701 10:57:55.162842 53357 net.cpp:106] Creating Layer conv11
I0701 10:57:55.162868 53357 net.cpp:454] conv11 <- data
I0701 10:57:55.162891 53357 net.cpp:411] conv11 -> conv11
I0701 10:57:55.164618 53357 net.cpp:150] Setting up conv11
I0701 10:57:55.164652 53357 net.cpp:157] Top shape: 32 32 100 100 (10240000)
I0701 10:57:55.164669 53357 net.cpp:165] Memory required for data: 44800384
I0701 10:57:55.164693 53357 layer_factory.hpp:76] Creating layer relu11
I0701 10:57:55.164716 53357 net.cpp:106] Creating Layer relu11
I0701 10:57:55.164733 53357 net.cpp:454] relu11 <- conv11
I0701 10:57:55.164752 53357 net.cpp:397] relu11 -> conv11 (in-place)
I0701 10:57:55.165201 53357 net.cpp:150] Setting up relu11
I0701 10:57:55.165231 53357 net.cpp:157] Top shape: 32 32 100 100 (10240000)
I0701 10:57:55.165246 53357 net.cpp:165] Memory required for data: 85760384
I0701 10:57:55.165263 53357 layer_factory.hpp:76] Creating layer conv12
I0701 10:57:55.165287 53357 net.cpp:106] Creating Layer conv12
I0701 10:57:55.165302 53357 net.cpp:454] conv12 <- conv11
I0701 10:57:55.165323 53357 net.cpp:411] conv12 -> conv12
I0701 10:57:55.166945 53357 net.cpp:150] Setting up conv12
I0701 10:57:55.166980 53357 net.cpp:157] Top shape: 32 64 100 100 (20480000)
I0701 10:57:55.166995 53357 net.cpp:165] Memory required for data: 167680384
I0701 10:57:55.167018 53357 layer_factory.hpp:76] Creating layer relu12
I0701 10:57:55.167039 53357 net.cpp:106] Creating Layer relu12
I0701 10:57:55.167057 53357 net.cpp:454] relu12 <- conv12
I0701 10:57:55.167075 53357 net.cpp:397] relu12 -> conv12 (in-place)
I0701 10:57:55.167734 53357 net.cpp:150] Setting up relu12
I0701 10:57:55.167765 53357 net.cpp:157] Top shape: 32 64 100 100 (20480000)
I0701 10:57:55.167779 53357 net.cpp:165] Memory required for data: 249600384
I0701 10:57:55.167798 53357 layer_factory.hpp:76] Creating layer pool1
I0701 10:57:55.167821 53357 net.cpp:106] Creating Layer pool1
I0701 10:57:55.167837 53357 net.cpp:454] pool1 <- conv12
I0701 10:57:55.167856 53357 net.cpp:411] pool1 -> pool1
I0701 10:57:55.168249 53357 net.cpp:150] Setting up pool1
I0701 10:57:55.168277 53357 net.cpp:157] Top shape: 32 64 50 50 (5120000)
I0701 10:57:55.168292 53357 net.cpp:165] Memory required for data: 270080384
I0701 10:57:55.168309 53357 layer_factory.hpp:76] Creating layer conv21
I0701 10:57:55.168335 53357 net.cpp:106] Creating Layer conv21
I0701 10:57:55.168350 53357 net.cpp:454] conv21 <- pool1
I0701 10:57:55.168371 53357 net.cpp:411] conv21 -> conv21
I0701 10:57:55.171223 53357 net.cpp:150] Setting up conv21
I0701 10:57:55.171270 53357 net.cpp:157] Top shape: 32 64 50 50 (5120000)
I0701 10:57:55.171286 53357 net.cpp:165] Memory required for data: 290560384
I0701 10:57:55.171317 53357 layer_factory.hpp:76] Creating layer relu21
I0701 10:57:55.171383 53357 net.cpp:106] Creating Layer relu21
I0701 10:57:55.171406 53357 net.cpp:454] relu21 <- conv21
I0701 10:57:55.171423 53357 net.cpp:397] relu21 -> conv21 (in-place)
I0701 10:57:55.171921 53357 net.cpp:150] Setting up relu21
I0701 10:57:55.171949 53357 net.cpp:157] Top shape: 32 64 50 50 (5120000)
I0701 10:57:55.171964 53357 net.cpp:165] Memory required for data: 311040384
I0701 10:57:55.171983 53357 layer_factory.hpp:76] Creating layer conv22
I0701 10:57:55.172009 53357 net.cpp:106] Creating Layer conv22
I0701 10:57:55.172040 53357 net.cpp:454] conv22 <- conv21
I0701 10:57:55.172068 53357 net.cpp:411] conv22 -> conv22
I0701 10:57:55.174408 53357 cudnn_conv_layer.cpp:194] Reallocating workspace storage: 6912
I0701 10:57:55.174471 53357 net.cpp:150] Setting up conv22
I0701 10:57:55.174494 53357 net.cpp:157] Top shape: 32 128 50 50 (10240000)
I0701 10:57:55.174511 53357 net.cpp:165] Memory required for data: 352000384
I0701 10:57:55.174532 53357 layer_factory.hpp:76] Creating layer relu22
I0701 10:57:55.174552 53357 net.cpp:106] Creating Layer relu22
I0701 10:57:55.174567 53357 net.cpp:454] relu22 <- conv22
I0701 10:57:55.174584 53357 net.cpp:397] relu22 -> conv22 (in-place)
I0701 10:57:55.174856 53357 net.cpp:150] Setting up relu22
I0701 10:57:55.174881 53357 net.cpp:157] Top shape: 32 128 50 50 (10240000)
I0701 10:57:55.174896 53357 net.cpp:165] Memory required for data: 392960384
I0701 10:57:55.174912 53357 layer_factory.hpp:76] Creating layer pool2
I0701 10:57:55.174931 53357 net.cpp:106] Creating Layer pool2
I0701 10:57:55.174944 53357 net.cpp:454] pool2 <- conv22
I0701 10:57:55.174973 53357 net.cpp:411] pool2 -> pool2
I0701 10:57:55.175494 53357 net.cpp:150] Setting up pool2
I0701 10:57:55.175524 53357 net.cpp:157] Top shape: 32 128 25 25 (2560000)
I0701 10:57:55.175542 53357 net.cpp:165] Memory required for data: 403200384
I0701 10:57:55.175556 53357 layer_factory.hpp:76] Creating layer conv31
I0701 10:57:55.175585 53357 net.cpp:106] Creating Layer conv31
I0701 10:57:55.175603 53357 net.cpp:454] conv31 <- pool2
I0701 10:57:55.175624 53357 net.cpp:411] conv31 -> conv31
I0701 10:57:55.179059 53357 cudnn_conv_layer.cpp:194] Reallocating workspace storage: 13824
I0701 10:57:55.179152 53357 net.cpp:150] Setting up conv31
I0701 10:57:55.179188 53357 net.cpp:157] Top shape: 32 96 25 25 (1920000)
I0701 10:57:55.179203 53357 net.cpp:165] Memory required for data: 410880384
I0701 10:57:55.179236 53357 layer_factory.hpp:76] Creating layer relu31
I0701 10:57:55.179261 53357 net.cpp:106] Creating Layer relu31
I0701 10:57:55.179277 53357 net.cpp:454] relu31 <- conv31
I0701 10:57:55.179296 53357 net.cpp:397] relu31 -> conv31 (in-place)
I0701 10:57:55.179769 53357 net.cpp:150] Setting up relu31
I0701 10:57:55.179797 53357 net.cpp:157] Top shape: 32 96 25 25 (1920000)
I0701 10:57:55.179812 53357 net.cpp:165] Memory required for data: 418560384
I0701 10:57:55.179829 53357 layer_factory.hpp:76] Creating layer conv32
I0701 10:57:55.179855 53357 net.cpp:106] Creating Layer conv32
I0701 10:57:55.179872 53357 net.cpp:454] conv32 <- conv31
I0701 10:57:55.179894 53357 net.cpp:411] conv32 -> conv32
I0701 10:57:55.183481 53357 net.cpp:150] Setting up conv32
I0701 10:57:55.183521 53357 net.cpp:157] Top shape: 32 192 25 25 (3840000)
I0701 10:57:55.183531 53357 net.cpp:165] Memory required for data: 433920384
I0701 10:57:55.183543 53357 layer_factory.hpp:76] Creating layer relu32
I0701 10:57:55.183562 53357 net.cpp:106] Creating Layer relu32
I0701 10:57:55.183571 53357 net.cpp:454] relu32 <- conv32
I0701 10:57:55.183583 53357 net.cpp:397] relu32 -> conv32 (in-place)
I0701 10:57:55.183784 53357 net.cpp:150] Setting up relu32
I0701 10:57:55.183802 53357 net.cpp:157] Top shape: 32 192 25 25 (3840000)
I0701 10:57:55.183811 53357 net.cpp:165] Memory required for data: 449280384
I0701 10:57:55.183820 53357 layer_factory.hpp:76] Creating layer pool3
I0701 10:57:55.183851 53357 net.cpp:106] Creating Layer pool3
I0701 10:57:55.183861 53357 net.cpp:454] pool3 <- conv32
I0701 10:57:55.183876 53357 net.cpp:411] pool3 -> pool3
I0701 10:57:55.184278 53357 net.cpp:150] Setting up pool3
I0701 10:57:55.184298 53357 net.cpp:157] Top shape: 32 192 13 13 (1038336)
I0701 10:57:55.184310 53357 net.cpp:165] Memory required for data: 453433728
I0701 10:57:55.184319 53357 layer_factory.hpp:76] Creating layer conv41
I0701 10:57:55.184342 53357 net.cpp:106] Creating Layer conv41
I0701 10:57:55.184351 53357 net.cpp:454] conv41 <- pool3
I0701 10:57:55.184370 53357 net.cpp:411] conv41 -> conv41
I0701 10:57:55.188850 53357 net.cpp:150] Setting up conv41
I0701 10:57:55.188905 53357 net.cpp:157] Top shape: 32 128 13 13 (692224)
I0701 10:57:55.188920 53357 net.cpp:165] Memory required for data: 456202624
I0701 10:57:55.188941 53357 layer_factory.hpp:76] Creating layer relu41
I0701 10:57:55.188962 53357 net.cpp:106] Creating Layer relu41
I0701 10:57:55.188994 53357 net.cpp:454] relu41 <- conv41
I0701 10:57:55.189018 53357 net.cpp:397] relu41 -> conv41 (in-place)
I0701 10:57:55.189280 53357 net.cpp:150] Setting up relu41
I0701 10:57:55.189306 53357 net.cpp:157] Top shape: 32 128 13 13 (692224)
I0701 10:57:55.189322 53357 net.cpp:165] Memory required for data: 458971520
I0701 10:57:55.189335 53357 layer_factory.hpp:76] Creating layer conv42
I0701 10:57:55.189360 53357 net.cpp:106] Creating Layer conv42
I0701 10:57:55.189378 53357 net.cpp:454] conv42 <- conv41
I0701 10:57:55.189409 53357 net.cpp:411] conv42 -> conv42
I0701 10:57:55.194924 53357 cudnn_conv_layer.cpp:194] Reallocating workspace storage: 13824
I0701 10:57:55.194999 53357 net.cpp:150] Setting up conv42
I0701 10:57:55.195025 53357 net.cpp:157] Top shape: 32 256 13 13 (1384448)
I0701 10:57:55.195057 53357 net.cpp:165] Memory required for data: 464509312
I0701 10:57:55.195080 53357 layer_factory.hpp:76] Creating layer relu42
I0701 10:57:55.195116 53357 net.cpp:106] Creating Layer relu42
I0701 10:57:55.195135 53357 net.cpp:454] relu42 <- conv42
I0701 10:57:55.195153 53357 net.cpp:397] relu42 -> conv42 (in-place)
I0701 10:57:55.195602 53357 net.cpp:150] Setting up relu42
I0701 10:57:55.195633 53357 net.cpp:157] Top shape: 32 256 13 13 (1384448)
I0701 10:57:55.195648 53357 net.cpp:165] Memory required for data: 470047104
I0701 10:57:55.195662 53357 layer_factory.hpp:76] Creating layer pool4
I0701 10:57:55.195680 53357 net.cpp:106] Creating Layer pool4
I0701 10:57:55.195694 53357 net.cpp:454] pool4 <- conv42
I0701 10:57:55.195718 53357 net.cpp:411] pool4 -> pool4
I0701 10:57:55.196065 53357 net.cpp:150] Setting up pool4
I0701 10:57:55.196094 53357 net.cpp:157] Top shape: 32 256 7 7 (401408)
I0701 10:57:55.196107 53357 net.cpp:165] Memory required for data: 471652736
I0701 10:57:55.196125 53357 layer_factory.hpp:76] Creating layer conv51
I0701 10:57:55.196151 53357 net.cpp:106] Creating Layer conv51
I0701 10:57:55.196169 53357 net.cpp:454] conv51 <- pool4
I0701 10:57:55.196192 53357 net.cpp:411] conv51 -> conv51
I0701 10:57:55.202599 53357 net.cpp:150] Setting up conv51
I0701 10:57:55.202658 53357 net.cpp:157] Top shape: 32 160 7 7 (250880)
I0701 10:57:55.202678 53357 net.cpp:165] Memory required for data: 472656256
I0701 10:57:55.202708 53357 layer_factory.hpp:76] Creating layer relu51
I0701 10:57:55.202744 53357 net.cpp:106] Creating Layer relu51
I0701 10:57:55.202764 53357 net.cpp:454] relu51 <- conv51
I0701 10:57:55.202782 53357 net.cpp:397] relu51 -> conv51 (in-place)
I0701 10:57:55.203305 53357 net.cpp:150] Setting up relu51
I0701 10:57:55.203333 53357 net.cpp:157] Top shape: 32 160 7 7 (250880)
I0701 10:57:55.203347 53357 net.cpp:165] Memory required for data: 473659776
I0701 10:57:55.203364 53357 layer_factory.hpp:76] Creating layer conv52
I0701 10:57:55.203392 53357 net.cpp:106] Creating Layer conv52
I0701 10:57:55.203423 53357 net.cpp:454] conv52 <- conv51
I0701 10:57:55.203452 53357 net.cpp:411] conv52 -> conv52
I0701 10:57:55.211148 53357 net.cpp:150] Setting up conv52
I0701 10:57:55.211205 53357 net.cpp:157] Top shape: 32 320 7 7 (501760)
I0701 10:57:55.211221 53357 net.cpp:165] Memory required for data: 475666816
I0701 10:57:55.211244 53357 layer_factory.hpp:76] Creating layer relu52
I0701 10:57:55.211308 53357 net.cpp:106] Creating Layer relu52
I0701 10:57:55.211330 53357 net.cpp:454] relu52 <- conv52
I0701 10:57:55.211349 53357 net.cpp:397] relu52 -> conv52 (in-place)
I0701 10:57:55.211827 53357 net.cpp:150] Setting up relu52
I0701 10:57:55.211854 53357 net.cpp:157] Top shape: 32 320 7 7 (501760)
I0701 10:57:55.211868 53357 net.cpp:165] Memory required for data: 477673856
I0701 10:57:55.211880 53357 layer_factory.hpp:76] Creating layer conv53
I0701 10:57:55.211905 53357 net.cpp:106] Creating Layer conv53
I0701 10:57:55.211920 53357 net.cpp:454] conv53 <- conv52
I0701 10:57:55.211942 53357 net.cpp:411] conv53 -> conv53
I0701 10:57:55.283052 53357 cudnn_conv_layer.cpp:194] Reallocating workspace storage: 188160
I0701 10:57:55.283157 53357 net.cpp:150] Setting up conv53
I0701 10:57:55.283182 53357 net.cpp:157] Top shape: 32 320 1 1 (10240)
I0701 10:57:55.283202 53357 net.cpp:165] Memory required for data: 477714816
I0701 10:57:55.283232 53357 layer_factory.hpp:76] Creating layer relu53
I0701 10:57:55.283264 53357 net.cpp:106] Creating Layer relu53
I0701 10:57:55.283282 53357 net.cpp:454] relu53 <- conv53
I0701 10:57:55.283306 53357 net.cpp:397] relu53 -> conv53 (in-place)
I0701 10:57:55.283615 53357 net.cpp:150] Setting up relu53
I0701 10:57:55.283641 53357 net.cpp:157] Top shape: 32 320 1 1 (10240)
I0701 10:57:55.283655 53357 net.cpp:165] Memory required for data: 477755776
I0701 10:57:55.283674 53357 layer_factory.hpp:76] Creating layer drop6
I0701 10:57:55.283694 53357 net.cpp:106] Creating Layer drop6
I0701 10:57:55.283710 53357 net.cpp:454] drop6 <- conv53
I0701 10:57:55.283733 53357 net.cpp:411] drop6 -> drop6
I0701 10:57:55.283813 53357 net.cpp:150] Setting up drop6
I0701 10:57:55.283838 53357 net.cpp:157] Top shape: 32 320 1 1 (10240)
I0701 10:57:55.283850 53357 net.cpp:165] Memory required for data: 477796736
I0701 10:57:55.283864 53357 layer_factory.hpp:76] Creating layer conv54
I0701 10:57:55.283898 53357 net.cpp:106] Creating Layer conv54
I0701 10:57:55.283913 53357 net.cpp:454] conv54 <- drop6
I0701 10:57:55.283933 53357 net.cpp:411] conv54 -> conv54
I0701 10:57:55.285506 53357 cudnn_conv_layer.cpp:194] Reallocating workspace storage: 3840
I0701 10:57:55.285558 53357 net.cpp:150] Setting up conv54
I0701 10:57:55.285578 53357 net.cpp:157] Top shape: 32 2 1 1 (64)
I0701 10:57:55.285595 53357 net.cpp:165] Memory required for data: 477796992
I0701 10:57:55.285619 53357 layer_factory.hpp:76] Creating layer conv54_conv54_0_split
I0701 10:57:55.285640 53357 net.cpp:106] Creating Layer conv54_conv54_0_split
I0701 10:57:55.285655 53357 net.cpp:454] conv54_conv54_0_split <- conv54
I0701 10:57:55.285673 53357 net.cpp:411] conv54_conv54_0_split -> conv54_conv54_0_split_0
I0701 10:57:55.285704 53357 net.cpp:411] conv54_conv54_0_split -> conv54_conv54_0_split_1
I0701 10:57:55.285778 53357 net.cpp:150] Setting up conv54_conv54_0_split
I0701 10:57:55.285800 53357 net.cpp:157] Top shape: 32 2 1 1 (64)
I0701 10:57:55.285816 53357 net.cpp:157] Top shape: 32 2 1 1 (64)
I0701 10:57:55.285832 53357 net.cpp:165] Memory required for data: 477797504
I0701 10:57:55.285863 53357 layer_factory.hpp:76] Creating layer accuracy
I0701 10:57:55.285892 53357 net.cpp:106] Creating Layer accuracy
I0701 10:57:55.285905 53357 net.cpp:454] accuracy <- conv54_conv54_0_split_0
I0701 10:57:55.285938 53357 net.cpp:454] accuracy <- label_data_1_split_0
I0701 10:57:55.285967 53357 net.cpp:411] accuracy -> accuracy
…
