…
I0824 16:24:09.855453 15387 net.cpp:58] Initializing net from parameters: 
name: "FaceNN"
state {
  phase: TRAIN
  level: 0
  stage: ""
}
layer {
  name: "data"
  type: "ImageData"
  top: "data"
  top: "label"
  include {
    phase: TRAIN
  }
  transform_param {
    mirror: true
    mean_value: 150
    mean_value: 150
    mean_value: 150
  }
  image_data_param {
    source: "../../step01_generate_traing_data/training_examples/list_stage2_tr_top12.lst"
    batch_size: 64
    shuffle: true
    root_folder: "../../step01_generate_traing_data/training_examples/"
  }
}
layer {
  name: "conv11"
  type: "Convolution"
  bottom: "data"
  top: "conv11"
  param {
    lr_mult: 1
    decay_mult: 1
  }
  param {
    lr_mult: 2
    decay_mult: 0
  }
  convolution_param {
    num_output: 32
    pad: 1
    stride: 1
    weight_filler {
      type: "xavier"
    }
    bias_filler {
      type: "constant"
    }
    kernel_h: 3
    kernel_w: 3
  }
}
layer {
  name: "relu11"
  type: "ReLU"
  bottom: "conv11"
  top: "conv11"
}
layer {
  name: "conv12"
  type: "Convolution"
  bottom: "conv11"
  top: "conv12"
  param {
    lr_mult: 1
    decay_mult: 1
  }
  param {
    lr_mult: 2
    decay_mult: 0
  }
  convolution_param {
    num_output: 64
    pad: 1
    stride: 1
    weight_filler {
      type: "xavier"
    }
    bias_filler {
      type: "constant"
    }
    kernel_h: 3
    kernel_w: 3
  }
}
layer {
  name: "relu12"
  type: "ReLU"
  bottom: "conv12"
  top: "conv12"
}
layer {
  name: "pool1"
  type: "Pooling"
  bottom: "conv12"
  top: "pool1"
  pooling_param {
    pool: MAX
    kernel_size: 2
    stride: 2
  }
}
layer {
  name: "conv21"
  type: "Convolution"
  bottom: "pool1"
  top: "conv21"
  param {
    lr_mult: 1
    decay_mult: 1
  }
  param {
    lr_mult: 2
    decay_mult: 0
  }
  convolution_param {
    num_output: 64
    pad: 1
    stride: 1
    weight_filler {
      type: "xavier"
    }
    bias_filler {
      type: "constant"
    }
    kernel_h: 3
    kernel_w: 3
  }
}
layer {
  name: "relu21"
  type: "ReLU"
  bottom: "conv21"
  top: "conv21"
}
layer {
  name: "conv22"
  type: "Convolution"
  bottom: "conv21"
  top: "conv22"
  param {
    lr_mult: 1
    decay_mult: 1
  }
  param {
    lr_mult: 2
    decay_mult: 0
  }
  convolution_param {
    num_output: 128
    pad: 1
    stride: 1
    weight_filler {
      type: "xavier"
    }
    bias_filler {
      type: "constant"
    }
    kernel_h: 3
    kernel_w: 3
  }
}
layer {
  name: "relu22"
  type: "ReLU"
  bottom: "conv22"
  top: "conv22"
}
layer {
  name: "pool2"
  type: "Pooling"
  bottom: "conv22"
  top: "pool2"
  pooling_param {
    pool: MAX
    kernel_size: 2
    stride: 2
  }
}
layer {
  name: "conv31"
  type: "Convolution"
  bottom: "pool2"
  top: "conv31"
  param {
    lr_mult: 1
    decay_mult: 1
  }
  param {
    lr_mult: 2
    decay_mult: 0
  }
  convolution_param {
    num_output: 96
    pad: 1
    stride: 1
    weight_filler {
      type: "xavier"
    }
    bias_filler {
      type: "constant"
    }
    kernel_h: 3
    kernel_w: 3
  }
}
layer {
  name: "relu31"
  type: "ReLU"
  bottom: "conv31"
  top: "conv31"
}
layer {
  name: "conv32"
  type: "Convolution"
  bottom: "conv31"
  top: "conv32"
  param {
    lr_mult: 1
    decay_mult: 1
  }
  param {
    lr_mult: 2
    decay_mult: 0
  }
  convolution_param {
    num_output: 192
    pad: 1
    stride: 1
    weight_filler {
      type: "xavier"
    }
    bias_filler {
      type: "constant"
    }
    kernel_h: 3
    kernel_w: 3
  }
}
layer {
  name: "relu32"
  type: "ReLU"
  bottom: "conv32"
  top: "conv32"
}
layer {
  name: "pool3"
  type: "Pooling"
  bottom: "conv32"
  top: "pool3"
  pooling_param {
    pool: MAX
    kernel_size: 2
    stride: 2
  }
}
layer {
  name: "conv41"
  type: "Convolution"
  bottom: "pool3"
  top: "conv41"
  param {
    lr_mult: 1
    decay_mult: 1
  }
  param {
    lr_mult: 2
    decay_mult: 0
  }
  convolution_param {
    num_output: 128
    pad: 1
    stride: 1
    weight_filler {
      type: "xavier"
    }
    bias_filler {
      type: "constant"
    }
    kernel_h: 3
    kernel_w: 3
  }
}
layer {
  name: "relu41"
  type: "ReLU"
  bottom: "conv41"
  top: "conv41"
}
layer {
  name: "conv42"
  type: "Convolution"
  bottom: "conv41"
  top: "conv42"
  param {
    lr_mult: 1
    decay_mult: 1
  }
  param {
    lr_mult: 2
    decay_mult: 0
  }
  convolution_param {
    num_output: 256
    pad: 1
    stride: 1
    weight_filler {
      type: "xavier"
    }
    bias_filler {
      type: "constant"
    }
    kernel_h: 3
    kernel_w: 3
  }
}
layer {
  name: "relu42"
  type: "ReLU"
  bottom: "conv42"
  top: "conv42"
}
layer {
  name: "pool4"
  type: "Pooling"
  bottom: "conv42"
  top: "pool4"
  pooling_param {
    pool: MAX
    kernel_size: 2
    stride: 2
  }
}
layer {
  name: "conv51"
  type: "Convolution"
  bottom: "pool4"
  top: "conv51"
  param {
    lr_mult: 1
    decay_mult: 1
  }
  param {
    lr_mult: 2
    decay_mult: 0
  }
  convolution_param {
    num_output: 512
    pad: 0
    stride: 1
    weight_filler {
      type: "xavier"
    }
    bias_filler {
      type: "constant"
    }
    kernel_h: 4
    kernel_w: 4
  }
}
layer {
  name: "relu51"
  type: "ReLU"
  bottom: "conv51"
  top: "conv51"
}
layer {
  name: "conv52"
  type: "Convolution"
  bottom: "conv51"
  top: "conv52"
  param {
    lr_mult: 1
    decay_mult: 1
  }
  param {
    lr_mult: 2
    decay_mult: 0
  }
  convolution_param {
    num_output: 512
    pad: 0
    stride: 1
    weight_filler {
      type: "xavier"
    }
    bias_filler {
      type: "constant"
    }
    kernel_h: 1
    kernel_w: 1
  }
}
layer {
  name: "relu52"
  type: "ReLU"
  bottom: "conv52"
  top: "conv52"
}
layer {
  name: "drop6"
  type: "Dropout"
  bottom: "conv52"
  top: "conv52"
  dropout_param {
    dropout_ratio: 0.5
  }
}
layer {
  name: "conv_c"
  type: "Convolution"
  bottom: "conv52"
  top: "conv_c"
  param {
    lr_mult: 1
    decay_mult: 1
  }
  param {
    lr_mult: 2
    decay_mult: 0
  }
  convolution_param {
    num_output: 2
    pad: 0
    stride: 1
    weight_filler {
      type: "xavier"
    }
    bias_filler {
      type: "constant"
    }
    kernel_h: 1
    kernel_w: 1
  }
}
layer {
  name: "loss"
  type: "SoftmaxWithLoss"
  bottom: "conv_c"
  bottom: "label"
  top: "loss"
}
I0824 16:24:09.855742 15387 layer_factory.hpp:77] Creating layer data
I0824 16:24:09.855789 15387 net.cpp:100] Creating Layer data
I0824 16:24:09.855800 15387 net.cpp:408] data -> data
I0824 16:24:09.855849 15387 net.cpp:408] data -> label
I0824 16:24:09.856343 15387 image_data_layer.cpp:38] Opening file ../../step01_generate_traing_data/training_examples/list_stage2_tr_top12.lst
I0824 16:24:10.939069 15387 image_data_layer.cpp:53] Shuffling data
I0824 16:24:11.156448 15387 image_data_layer.cpp:58] A total of 1124598 images.
I0824 16:24:11.168550 15387 image_data_layer.cpp:85] output data size: 64,3,64,64
I0824 16:24:11.176851 15387 net.cpp:150] Setting up data
I0824 16:24:11.177005 15387 net.cpp:157] Top shape: 64 3 64 64 (786432)
I0824 16:24:11.177038 15387 net.cpp:157] Top shape: 64 (64)
I0824 16:24:11.177043 15387 net.cpp:165] Memory required for data: 3145984
I0824 16:24:11.177054 15387 layer_factory.hpp:77] Creating layer conv11
I0824 16:24:11.177086 15387 net.cpp:100] Creating Layer conv11
I0824 16:24:11.177093 15387 net.cpp:434] conv11 <- data
I0824 16:24:11.177112 15387 net.cpp:408] conv11 -> conv11
I0824 16:24:11.380461 15387 net.cpp:150] Setting up conv11
I0824 16:24:11.380497 15387 net.cpp:157] Top shape: 64 32 64 64 (8388608)
I0824 16:24:11.380506 15387 net.cpp:165] Memory required for data: 36700416
I0824 16:24:11.380537 15387 layer_factory.hpp:77] Creating layer relu11
I0824 16:24:11.380563 15387 net.cpp:100] Creating Layer relu11
I0824 16:24:11.380575 15387 net.cpp:434] relu11 <- conv11
I0824 16:24:11.380585 15387 net.cpp:395] relu11 -> conv11 (in-place)
I0824 16:24:11.380754 15387 net.cpp:150] Setting up relu11
I0824 16:24:11.380770 15387 net.cpp:157] Top shape: 64 32 64 64 (8388608)
I0824 16:24:11.380779 15387 net.cpp:165] Memory required for data: 70254848
I0824 16:24:11.380786 15387 layer_factory.hpp:77] Creating layer conv12
I0824 16:24:11.380805 15387 net.cpp:100] Creating Layer conv12
I0824 16:24:11.380815 15387 net.cpp:434] conv12 <- conv11
I0824 16:24:11.380825 15387 net.cpp:408] conv12 -> conv12
I0824 16:24:11.382697 15387 net.cpp:150] Setting up conv12
I0824 16:24:11.382720 15387 net.cpp:157] Top shape: 64 64 64 64 (16777216)
I0824 16:24:11.382730 15387 net.cpp:165] Memory required for data: 137363712
I0824 16:24:11.382755 15387 layer_factory.hpp:77] Creating layer relu12
I0824 16:24:11.382771 15387 net.cpp:100] Creating Layer relu12
I0824 16:24:11.382779 15387 net.cpp:434] relu12 <- conv12
I0824 16:24:11.382788 15387 net.cpp:395] relu12 -> conv12 (in-place)
I0824 16:24:11.383167 15387 net.cpp:150] Setting up relu12
I0824 16:24:11.383185 15387 net.cpp:157] Top shape: 64 64 64 64 (16777216)
I0824 16:24:11.383193 15387 net.cpp:165] Memory required for data: 204472576
I0824 16:24:11.383201 15387 layer_factory.hpp:77] Creating layer pool1
I0824 16:24:11.383219 15387 net.cpp:100] Creating Layer pool1
I0824 16:24:11.383229 15387 net.cpp:434] pool1 <- conv12
I0824 16:24:11.383239 15387 net.cpp:408] pool1 -> pool1
I0824 16:24:11.383293 15387 net.cpp:150] Setting up pool1
I0824 16:24:11.383308 15387 net.cpp:157] Top shape: 64 64 32 32 (4194304)
I0824 16:24:11.383316 15387 net.cpp:165] Memory required for data: 221249792
I0824 16:24:11.383325 15387 layer_factory.hpp:77] Creating layer conv21
I0824 16:24:11.383338 15387 net.cpp:100] Creating Layer conv21
I0824 16:24:11.383347 15387 net.cpp:434] conv21 <- pool1
I0824 16:24:11.383358 15387 net.cpp:408] conv21 -> conv21
I0824 16:24:11.384655 15387 net.cpp:150] Setting up conv21
I0824 16:24:11.384676 15387 net.cpp:157] Top shape: 64 64 32 32 (4194304)
I0824 16:24:11.384690 15387 net.cpp:165] Memory required for data: 238027008
I0824 16:24:11.384704 15387 layer_factory.hpp:77] Creating layer relu21
I0824 16:24:11.384717 15387 net.cpp:100] Creating Layer relu21
I0824 16:24:11.384726 15387 net.cpp:434] relu21 <- conv21
I0824 16:24:11.384735 15387 net.cpp:395] relu21 -> conv21 (in-place)
I0824 16:24:11.384883 15387 net.cpp:150] Setting up relu21
I0824 16:24:11.384901 15387 net.cpp:157] Top shape: 64 64 32 32 (4194304)
I0824 16:24:11.384907 15387 net.cpp:165] Memory required for data: 254804224
I0824 16:24:11.384915 15387 layer_factory.hpp:77] Creating layer conv22
I0824 16:24:11.384932 15387 net.cpp:100] Creating Layer conv22
I0824 16:24:11.384940 15387 net.cpp:434] conv22 <- conv21
I0824 16:24:11.384950 15387 net.cpp:408] conv22 -> conv22
I0824 16:24:11.387493 15387 net.cpp:150] Setting up conv22
I0824 16:24:11.387518 15387 net.cpp:157] Top shape: 64 128 32 32 (8388608)
I0824 16:24:11.387527 15387 net.cpp:165] Memory required for data: 288358656
I0824 16:24:11.387538 15387 layer_factory.hpp:77] Creating layer relu22
I0824 16:24:11.387549 15387 net.cpp:100] Creating Layer relu22
I0824 16:24:11.387558 15387 net.cpp:434] relu22 <- conv22
I0824 16:24:11.387567 15387 net.cpp:395] relu22 -> conv22 (in-place)
I0824 16:24:11.387737 15387 net.cpp:150] Setting up relu22
I0824 16:24:11.387753 15387 net.cpp:157] Top shape: 64 128 32 32 (8388608)
I0824 16:24:11.387760 15387 net.cpp:165] Memory required for data: 321913088
I0824 16:24:11.387768 15387 layer_factory.hpp:77] Creating layer pool2
I0824 16:24:11.387783 15387 net.cpp:100] Creating Layer pool2
I0824 16:24:11.387791 15387 net.cpp:434] pool2 <- conv22
I0824 16:24:11.387833 15387 net.cpp:408] pool2 -> pool2
I0824 16:24:11.387882 15387 net.cpp:150] Setting up pool2
I0824 16:24:11.387895 15387 net.cpp:157] Top shape: 64 128 16 16 (2097152)
I0824 16:24:11.387903 15387 net.cpp:165] Memory required for data: 330301696
I0824 16:24:11.387913 15387 layer_factory.hpp:77] Creating layer conv31
I0824 16:24:11.387928 15387 net.cpp:100] Creating Layer conv31
I0824 16:24:11.387936 15387 net.cpp:434] conv31 <- pool2
I0824 16:24:11.387948 15387 net.cpp:408] conv31 -> conv31
I0824 16:24:11.389761 15387 net.cpp:150] Setting up conv31
I0824 16:24:11.389785 15387 net.cpp:157] Top shape: 64 96 16 16 (1572864)
I0824 16:24:11.389794 15387 net.cpp:165] Memory required for data: 336593152
I0824 16:24:11.389809 15387 layer_factory.hpp:77] Creating layer relu31
I0824 16:24:11.389821 15387 net.cpp:100] Creating Layer relu31
I0824 16:24:11.389827 15387 net.cpp:434] relu31 <- conv31
I0824 16:24:11.389838 15387 net.cpp:395] relu31 -> conv31 (in-place)
I0824 16:24:11.390229 15387 net.cpp:150] Setting up relu31
I0824 16:24:11.390249 15387 net.cpp:157] Top shape: 64 96 16 16 (1572864)
I0824 16:24:11.390256 15387 net.cpp:165] Memory required for data: 342884608
I0824 16:24:11.390264 15387 layer_factory.hpp:77] Creating layer conv32
I0824 16:24:11.390280 15387 net.cpp:100] Creating Layer conv32
I0824 16:24:11.390290 15387 net.cpp:434] conv32 <- conv31
I0824 16:24:11.390301 15387 net.cpp:408] conv32 -> conv32
I0824 16:24:11.393168 15387 net.cpp:150] Setting up conv32
I0824 16:24:11.393190 15387 net.cpp:157] Top shape: 64 192 16 16 (3145728)
I0824 16:24:11.393203 15387 net.cpp:165] Memory required for data: 355467520
I0824 16:24:11.393213 15387 layer_factory.hpp:77] Creating layer relu32
I0824 16:24:11.393226 15387 net.cpp:100] Creating Layer relu32
I0824 16:24:11.393234 15387 net.cpp:434] relu32 <- conv32
I0824 16:24:11.393245 15387 net.cpp:395] relu32 -> conv32 (in-place)
I0824 16:24:11.393412 15387 net.cpp:150] Setting up relu32
I0824 16:24:11.393429 15387 net.cpp:157] Top shape: 64 192 16 16 (3145728)
I0824 16:24:11.393443 15387 net.cpp:165] Memory required for data: 368050432
I0824 16:24:11.393451 15387 layer_factory.hpp:77] Creating layer pool3
I0824 16:24:11.393462 15387 net.cpp:100] Creating Layer pool3
I0824 16:24:11.393471 15387 net.cpp:434] pool3 <- conv32
I0824 16:24:11.393479 15387 net.cpp:408] pool3 -> pool3
I0824 16:24:11.393519 15387 net.cpp:150] Setting up pool3
I0824 16:24:11.393534 15387 net.cpp:157] Top shape: 64 192 8 8 (786432)
I0824 16:24:11.393543 15387 net.cpp:165] Memory required for data: 371196160
I0824 16:24:11.393553 15387 layer_factory.hpp:77] Creating layer conv41
I0824 16:24:11.393569 15387 net.cpp:100] Creating Layer conv41
I0824 16:24:11.393578 15387 net.cpp:434] conv41 <- pool3
I0824 16:24:11.393591 15387 net.cpp:408] conv41 -> conv41
I0824 16:24:11.396828 15387 net.cpp:150] Setting up conv41
I0824 16:24:11.396852 15387 net.cpp:157] Top shape: 64 128 8 8 (524288)
I0824 16:24:11.396862 15387 net.cpp:165] Memory required for data: 373293312
I0824 16:24:11.396872 15387 layer_factory.hpp:77] Creating layer relu41
I0824 16:24:11.396885 15387 net.cpp:100] Creating Layer relu41
I0824 16:24:11.396893 15387 net.cpp:434] relu41 <- conv41
I0824 16:24:11.396901 15387 net.cpp:395] relu41 -> conv41 (in-place)
I0824 16:24:11.397081 15387 net.cpp:150] Setting up relu41
I0824 16:24:11.397096 15387 net.cpp:157] Top shape: 64 128 8 8 (524288)
I0824 16:24:11.397104 15387 net.cpp:165] Memory required for data: 375390464
I0824 16:24:11.397111 15387 layer_factory.hpp:77] Creating layer conv42
I0824 16:24:11.397126 15387 net.cpp:100] Creating Layer conv42
I0824 16:24:11.397136 15387 net.cpp:434] conv42 <- conv41
I0824 16:24:11.397147 15387 net.cpp:408] conv42 -> conv42
I0824 16:24:11.401065 15387 net.cpp:150] Setting up conv42
I0824 16:24:11.401093 15387 net.cpp:157] Top shape: 64 256 8 8 (1048576)
I0824 16:24:11.401100 15387 net.cpp:165] Memory required for data: 379584768
I0824 16:24:11.401111 15387 layer_factory.hpp:77] Creating layer relu42
I0824 16:24:11.401137 15387 net.cpp:100] Creating Layer relu42
I0824 16:24:11.401149 15387 net.cpp:434] relu42 <- conv42
I0824 16:24:11.401157 15387 net.cpp:395] relu42 -> conv42 (in-place)
I0824 16:24:11.401574 15387 net.cpp:150] Setting up relu42
I0824 16:24:11.401594 15387 net.cpp:157] Top shape: 64 256 8 8 (1048576)
I0824 16:24:11.401602 15387 net.cpp:165] Memory required for data: 383779072
I0824 16:24:11.401612 15387 layer_factory.hpp:77] Creating layer pool4
I0824 16:24:11.401623 15387 net.cpp:100] Creating Layer pool4
I0824 16:24:11.401630 15387 net.cpp:434] pool4 <- conv42
I0824 16:24:11.401641 15387 net.cpp:408] pool4 -> pool4
I0824 16:24:11.401687 15387 net.cpp:150] Setting up pool4
I0824 16:24:11.401710 15387 net.cpp:157] Top shape: 64 256 4 4 (262144)
I0824 16:24:11.401720 15387 net.cpp:165] Memory required for data: 384827648
I0824 16:24:11.401728 15387 layer_factory.hpp:77] Creating layer conv51
I0824 16:24:11.401743 15387 net.cpp:100] Creating Layer conv51
I0824 16:24:11.401754 15387 net.cpp:434] conv51 <- pool4
I0824 16:24:11.401764 15387 net.cpp:408] conv51 -> conv51
I0824 16:24:11.419610 15387 net.cpp:150] Setting up conv51
I0824 16:24:11.419636 15387 net.cpp:157] Top shape: 64 512 1 1 (32768)
I0824 16:24:11.419643 15387 net.cpp:165] Memory required for data: 384958720
I0824 16:24:11.419661 15387 layer_factory.hpp:77] Creating layer relu51
I0824 16:24:11.419674 15387 net.cpp:100] Creating Layer relu51
I0824 16:24:11.419683 15387 net.cpp:434] relu51 <- conv51
I0824 16:24:11.419692 15387 net.cpp:395] relu51 -> conv51 (in-place)
I0824 16:24:11.419864 15387 net.cpp:150] Setting up relu51
I0824 16:24:11.419880 15387 net.cpp:157] Top shape: 64 512 1 1 (32768)
I0824 16:24:11.419888 15387 net.cpp:165] Memory required for data: 385089792
I0824 16:24:11.419895 15387 layer_factory.hpp:77] Creating layer conv52
I0824 16:24:11.419910 15387 net.cpp:100] Creating Layer conv52
I0824 16:24:11.419920 15387 net.cpp:434] conv52 <- conv51
I0824 16:24:11.419934 15387 net.cpp:408] conv52 -> conv52
I0824 16:24:11.423528 15387 net.cpp:150] Setting up conv52
I0824 16:24:11.423549 15387 net.cpp:157] Top shape: 64 512 1 1 (32768)
I0824 16:24:11.423557 15387 net.cpp:165] Memory required for data: 385220864
I0824 16:24:11.423568 15387 layer_factory.hpp:77] Creating layer relu52
I0824 16:24:11.423578 15387 net.cpp:100] Creating Layer relu52
I0824 16:24:11.423588 15387 net.cpp:434] relu52 <- conv52
I0824 16:24:11.423598 15387 net.cpp:395] relu52 -> conv52 (in-place)
I0824 16:24:11.423764 15387 net.cpp:150] Setting up relu52
I0824 16:24:11.423782 15387 net.cpp:157] Top shape: 64 512 1 1 (32768)
I0824 16:24:11.423794 15387 net.cpp:165] Memory required for data: 385351936
I0824 16:24:11.423800 15387 layer_factory.hpp:77] Creating layer drop6
I0824 16:24:11.423816 15387 net.cpp:100] Creating Layer drop6
I0824 16:24:11.423825 15387 net.cpp:434] drop6 <- conv52
I0824 16:24:11.423833 15387 net.cpp:395] drop6 -> conv52 (in-place)
I0824 16:24:11.423869 15387 net.cpp:150] Setting up drop6
I0824 16:24:11.423893 15387 net.cpp:157] Top shape: 64 512 1 1 (32768)
I0824 16:24:11.423900 15387 net.cpp:165] Memory required for data: 385483008
I0824 16:24:11.423909 15387 layer_factory.hpp:77] Creating layer conv_c
I0824 16:24:11.423923 15387 net.cpp:100] Creating Layer conv_c
I0824 16:24:11.423933 15387 net.cpp:434] conv_c <- conv52
I0824 16:24:11.423948 15387 net.cpp:408] conv_c -> conv_c
I0824 16:24:11.425055 15387 net.cpp:150] Setting up conv_c
I0824 16:24:11.425076 15387 net.cpp:157] Top shape: 64 2 1 1 (128)
I0824 16:24:11.425084 15387 net.cpp:165] Memory required for data: 385483520
I0824 16:24:11.425096 15387 layer_factory.hpp:77] Creating layer loss
I0824 16:24:11.425112 15387 net.cpp:100] Creating Layer loss
I0824 16:24:11.425122 15387 net.cpp:434] loss <- conv_c
I0824 16:24:11.425129 15387 net.cpp:434] loss <- label
I0824 16:24:11.425142 15387 net.cpp:408] loss -> loss
I0824 16:24:11.425163 15387 layer_factory.hpp:77] Creating layer loss
…
I0824 16:24:11.426785 15387 net.cpp:322] The NetState phase (1) differed from the phase (0) specified by a rule in layer data
I0824 16:24:11.426975 15387 net.cpp:58] Initializing net from parameters: 
name: "FaceNN"
state {
  phase: TEST
}
layer {
  name: "data"
  type: "ImageData"
  top: "data"
  top: "label"
  include {
    phase: TEST
  }
  transform_param {
    mirror: true
    mean_value: 150
    mean_value: 150
    mean_value: 150
  }
  image_data_param {
    source: "../../step01_generate_traing_data/training_examples/list_stage2_te_top12.lst"
    batch_size: 32
    shuffle: true
    root_folder: "../../step01_generate_traing_data/training_examples/"
  }
}
layer {
  name: "conv11"
  type: "Convolution"
  bottom: "data"
  top: "conv11"
  param {
    lr_mult: 1
    decay_mult: 1
  }
  param {
    lr_mult: 2
    decay_mult: 0
  }
  convolution_param {
    num_output: 32
    pad: 1
    stride: 1
    weight_filler {
      type: "xavier"
    }
    bias_filler {
      type: "constant"
    }
    kernel_h: 3
    kernel_w: 3
  }
}
layer {
  name: "relu11"
  type: "ReLU"
  bottom: "conv11"
  top: "conv11"
}
layer {
  name: "conv12"
  type: "Convolution"
  bottom: "conv11"
  top: "conv12"
  param {
    lr_mult: 1
    decay_mult: 1
  }
  param {
    lr_mult: 2
    decay_mult: 0
  }
  convolution_param {
    num_output: 64
    pad: 1
    stride: 1
    weight_filler {
      type: "xavier"
    }
    bias_filler {
      type: "constant"
    }
    kernel_h: 3
    kernel_w: 3
  }
}
layer {
  name: "relu12"
  type: "ReLU"
  bottom: "conv12"
  top: "conv12"
}
layer {
  name: "pool1"
  type: "Pooling"
  bottom: "conv12"
  top: "pool1"
  pooling_param {
    pool: MAX
    kernel_size: 2
    stride: 2
  }
}
layer {
  name: "conv21"
  type: "Convolution"
  bottom: "pool1"
  top: "conv21"
  param {
    lr_mult: 1
    decay_mult: 1
  }
  param {
    lr_mult: 2
    decay_mult: 0
  }
  convolution_param {
    num_output: 64
    pad: 1
    stride: 1
    weight_filler {
      type: "xavier"
    }
    bias_filler {
      type: "constant"
    }
    kernel_h: 3
    kernel_w: 3
  }
}
layer {
  name: "relu21"
  type: "ReLU"
  bottom: "conv21"
  top: "conv21"
}
layer {
  name: "conv22"
  type: "Convolution"
  bottom: "conv21"
  top: "conv22"
  param {
    lr_mult: 1
    decay_mult: 1
  }
  param {
    lr_mult: 2
    decay_mult: 0
  }
  convolution_param {
    num_output: 128
    pad: 1
    stride: 1
    weight_filler {
      type: "xavier"
    }
    bias_filler {
      type: "constant"
    }
    kernel_h: 3
    kernel_w: 3
  }
}
layer {
  name: "relu22"
  type: "ReLU"
  bottom: "conv22"
  top: "conv22"
}
layer {
  name: "pool2"
  type: "Pooling"
  bottom: "conv22"
  top: "pool2"
  pooling_param {
    pool: MAX
    kernel_size: 2
    stride: 2
  }
}
layer {
  name: "conv31"
  type: "Convolution"
  bottom: "pool2"
  top: "conv31"
  param {
    lr_mult: 1
    decay_mult: 1
  }
  param {
    lr_mult: 2
    decay_mult: 0
  }
  convolution_param {
    num_output: 96
    pad: 1
    stride: 1
    weight_filler {
      type: "xavier"
    }
    bias_filler {
      type: "constant"
    }
    kernel_h: 3
    kernel_w: 3
  }
}
layer {
  name: "relu31"
  type: "ReLU"
  bottom: "conv31"
  top: "conv31"
}
layer {
  name: "conv32"
  type: "Convolution"
  bottom: "conv31"
  top: "conv32"
  param {
    lr_mult: 1
    decay_mult: 1
  }
  param {
    lr_mult: 2
    decay_mult: 0
  }
  convolution_param {
    num_output: 192
    pad: 1
    stride: 1
    weight_filler {
      type: "xavier"
    }
    bias_filler {
      type: "constant"
    }
    kernel_h: 3
    kernel_w: 3
  }
}
layer {
  name: "relu32"
  type: "ReLU"
  bottom: "conv32"
  top: "conv32"
}
layer {
  name: "pool3"
  type: "Pooling"
  bottom: "conv32"
  top: "pool3"
  pooling_param {
    pool: MAX
    kernel_size: 2
    stride: 2
  }
}
layer {
  name: "conv41"
  type: "Convolution"
  bottom: "pool3"
  top: "conv41"
  param {
    lr_mult: 1
    decay_mult: 1
  }
  param {
    lr_mult: 2
    decay_mult: 0
  }
  convolution_param {
    num_output: 128
    pad: 1
    stride: 1
    weight_filler {
      type: "xavier"
    }
    bias_filler {
      type: "constant"
    }
    kernel_h: 3
    kernel_w: 3
  }
}
layer {
  name: "relu41"
  type: "ReLU"
  bottom: "conv41"
  top: "conv41"
}
layer {
  name: "conv42"
  type: "Convolution"
  bottom: "conv41"
  top: "conv42"
  param {
    lr_mult: 1
    decay_mult: 1
  }
  param {
    lr_mult: 2
    decay_mult: 0
  }
  convolution_param {
    num_output: 256
    pad: 1
    stride: 1
    weight_filler {
      type: "xavier"
    }
    bias_filler {
      type: "constant"
    }
    kernel_h: 3
    kernel_w: 3
  }
}
layer {
  name: "relu42"
  type: "ReLU"
  bottom: "conv42"
  top: "conv42"
}
layer {
  name: "pool4"
  type: "Pooling"
  bottom: "conv42"
  top: "pool4"
  pooling_param {
    pool: MAX
    kernel_size: 2
    stride: 2
  }
}
layer {
  name: "conv51"
  type: "Convolution"
  bottom: "pool4"
  top: "conv51"
  param {
    lr_mult: 1
    decay_mult: 1
  }
  param {
    lr_mult: 2
    decay_mult: 0
  }
  convolution_param {
    num_output: 512
    pad: 0
    stride: 1
    weight_filler {
      type: "xavier"
    }
    bias_filler {
      type: "constant"
    }
    kernel_h: 4
    kernel_w: 4
  }
}
layer {
  name: "relu51"
  type: "ReLU"
  bottom: "conv51"
  top: "conv51"
}
layer {
  name: "conv52"
  type: "Convolution"
  bottom: "conv51"
  top: "conv52"
  param {
    lr_mult: 1
    decay_mult: 1
  }
  param {
    lr_mult: 2
    decay_mult: 0
  }
  convolution_param {
    num_output: 512
    pad: 0
    stride: 1
    weight_filler {
      type: "xavier"
    }
    bias_filler {
      type: "constant"
    }
    kernel_h: 1
    kernel_w: 1
  }
}
layer {
  name: "relu52"
  type: "ReLU"
  bottom: "conv52"
  top: "conv52"
}
layer {
  name: "drop6"
  type: "Dropout"
  bottom: "conv52"
  top: "conv52"
  dropout_param {
    dropout_ratio: 0.5
  }
}
layer {
  name: "conv_c"
  type: "Convolution"
  bottom: "conv52"
  top: "conv_c"
  param {
    lr_mult: 1
    decay_mult: 1
  }
  param {
    lr_mult: 2
    decay_mult: 0
  }
  convolution_param {
    num_output: 2
    pad: 0
    stride: 1
    weight_filler {
      type: "xavier"
    }
    bias_filler {
      type: "constant"
    }
    kernel_h: 1
    kernel_w: 1
  }
}
layer {
  name: "accuracy"
  type: "Accuracy"
  bottom: "conv_c"
  bottom: "label"
  top: "accuracy"
  include {
    phase: TEST
  }
}
layer {
  name: "loss"
  type: "SoftmaxWithLoss"
  bottom: "conv_c"
  bottom: "label"
  top: "loss"
}
I0824 16:24:11.428442 15387 layer_factory.hpp:77] Creating layer data
I0824 16:24:11.428465 15387 net.cpp:100] Creating Layer data
I0824 16:24:11.428475 15387 net.cpp:408] data -> data
I0824 16:24:11.428488 15387 net.cpp:408] data -> label
I0824 16:24:11.428504 15387 image_data_layer.cpp:38] Opening file ../../step01_generate_traing_data/training_examples/list_stage2_te_top12.lst
I0824 16:24:11.544528 15387 image_data_layer.cpp:53] Shuffling data
I0824 16:24:11.559546 15387 image_data_layer.cpp:58] A total of 124954 images.
I0824 16:24:11.560113 15387 image_data_layer.cpp:85] output data size: 32,3,64,64
I0824 16:24:11.565343 15387 net.cpp:150] Setting up data
I0824 16:24:11.565376 15387 net.cpp:157] Top shape: 32 3 64 64 (393216)
I0824 16:24:11.565387 15387 net.cpp:157] Top shape: 32 (32)
I0824 16:24:11.565397 15387 net.cpp:165] Memory required for data: 1572992
I0824 16:24:11.565408 15387 layer_factory.hpp:77] Creating layer label_data_1_split
I0824 16:24:11.565429 15387 net.cpp:100] Creating Layer label_data_1_split
I0824 16:24:11.565439 15387 net.cpp:434] label_data_1_split <- label
I0824 16:24:11.565453 15387 net.cpp:408] label_data_1_split -> label_data_1_split_0
I0824 16:24:11.565469 15387 net.cpp:408] label_data_1_split -> label_data_1_split_1
I0824 16:24:11.565534 15387 net.cpp:150] Setting up label_data_1_split
I0824 16:24:11.565556 15387 net.cpp:157] Top shape: 32 (32)
I0824 16:24:11.565567 15387 net.cpp:157] Top shape: 32 (32)
I0824 16:24:11.565574 15387 net.cpp:165] Memory required for data: 1573248
I0824 16:24:11.565583 15387 layer_factory.hpp:77] Creating layer conv11
I0824 16:24:11.565600 15387 net.cpp:100] Creating Layer conv11
I0824 16:24:11.565614 15387 net.cpp:434] conv11 <- data
I0824 16:24:11.565631 15387 net.cpp:408] conv11 -> conv11
I0824 16:24:11.567205 15387 net.cpp:150] Setting up conv11
I0824 16:24:11.567232 15387 net.cpp:157] Top shape: 32 32 64 64 (4194304)
I0824 16:24:11.567241 15387 net.cpp:165] Memory required for data: 18350464
I0824 16:24:11.567257 15387 layer_factory.hpp:77] Creating layer relu11
I0824 16:24:11.567270 15387 net.cpp:100] Creating Layer relu11
I0824 16:24:11.567278 15387 net.cpp:434] relu11 <- conv11
I0824 16:24:11.567291 15387 net.cpp:395] relu11 -> conv11 (in-place)
I0824 16:24:11.567468 15387 net.cpp:150] Setting up relu11
I0824 16:24:11.567486 15387 net.cpp:157] Top shape: 32 32 64 64 (4194304)
I0824 16:24:11.567493 15387 net.cpp:165] Memory required for data: 35127680
I0824 16:24:11.567502 15387 layer_factory.hpp:77] Creating layer conv12
I0824 16:24:11.567522 15387 net.cpp:100] Creating Layer conv12
I0824 16:24:11.567531 15387 net.cpp:434] conv12 <- conv11
I0824 16:24:11.567543 15387 net.cpp:408] conv12 -> conv12
I0824 16:24:11.569500 15387 net.cpp:150] Setting up conv12
I0824 16:24:11.569525 15387 net.cpp:157] Top shape: 32 64 64 64 (8388608)
I0824 16:24:11.569535 15387 net.cpp:165] Memory required for data: 68682112
I0824 16:24:11.569548 15387 layer_factory.hpp:77] Creating layer relu12
I0824 16:24:11.569562 15387 net.cpp:100] Creating Layer relu12
I0824 16:24:11.569571 15387 net.cpp:434] relu12 <- conv12
I0824 16:24:11.569581 15387 net.cpp:395] relu12 -> conv12 (in-place)
I0824 16:24:11.569998 15387 net.cpp:150] Setting up relu12
I0824 16:24:11.570017 15387 net.cpp:157] Top shape: 32 64 64 64 (8388608)
I0824 16:24:11.570057 15387 net.cpp:165] Memory required for data: 102236544
I0824 16:24:11.570066 15387 layer_factory.hpp:77] Creating layer pool1
I0824 16:24:11.570082 15387 net.cpp:100] Creating Layer pool1
I0824 16:24:11.570096 15387 net.cpp:434] pool1 <- conv12
I0824 16:24:11.570106 15387 net.cpp:408] pool1 -> pool1
I0824 16:24:11.570163 15387 net.cpp:150] Setting up pool1
I0824 16:24:11.570175 15387 net.cpp:157] Top shape: 32 64 32 32 (2097152)
I0824 16:24:11.570193 15387 net.cpp:165] Memory required for data: 110625152
I0824 16:24:11.570200 15387 layer_factory.hpp:77] Creating layer conv21
I0824 16:24:11.570215 15387 net.cpp:100] Creating Layer conv21
I0824 16:24:11.570225 15387 net.cpp:434] conv21 <- pool1
I0824 16:24:11.570237 15387 net.cpp:408] conv21 -> conv21
I0824 16:24:11.571446 15387 net.cpp:150] Setting up conv21
I0824 16:24:11.571468 15387 net.cpp:157] Top shape: 32 64 32 32 (2097152)
I0824 16:24:11.571476 15387 net.cpp:165] Memory required for data: 119013760
I0824 16:24:11.571491 15387 layer_factory.hpp:77] Creating layer relu21
I0824 16:24:11.571508 15387 net.cpp:100] Creating Layer relu21
I0824 16:24:11.571516 15387 net.cpp:434] relu21 <- conv21
I0824 16:24:11.571528 15387 net.cpp:395] relu21 -> conv21 (in-place)
I0824 16:24:11.571970 15387 net.cpp:150] Setting up relu21
I0824 16:24:11.571990 15387 net.cpp:157] Top shape: 32 64 32 32 (2097152)
I0824 16:24:11.571997 15387 net.cpp:165] Memory required for data: 127402368
I0824 16:24:11.572005 15387 layer_factory.hpp:77] Creating layer conv22
I0824 16:24:11.572021 15387 net.cpp:100] Creating Layer conv22
I0824 16:24:11.572031 15387 net.cpp:434] conv22 <- conv21
I0824 16:24:11.572043 15387 net.cpp:408] conv22 -> conv22
I0824 16:24:11.573926 15387 net.cpp:150] Setting up conv22
I0824 16:24:11.573948 15387 net.cpp:157] Top shape: 32 128 32 32 (4194304)
I0824 16:24:11.573957 15387 net.cpp:165] Memory required for data: 144179584
I0824 16:24:11.573968 15387 layer_factory.hpp:77] Creating layer relu22
I0824 16:24:11.573979 15387 net.cpp:100] Creating Layer relu22
I0824 16:24:11.573987 15387 net.cpp:434] relu22 <- conv22
I0824 16:24:11.573999 15387 net.cpp:395] relu22 -> conv22 (in-place)
I0824 16:24:11.574178 15387 net.cpp:150] Setting up relu22
I0824 16:24:11.574196 15387 net.cpp:157] Top shape: 32 128 32 32 (4194304)
I0824 16:24:11.574204 15387 net.cpp:165] Memory required for data: 160956800
I0824 16:24:11.574213 15387 layer_factory.hpp:77] Creating layer pool2
I0824 16:24:11.574223 15387 net.cpp:100] Creating Layer pool2
I0824 16:24:11.574232 15387 net.cpp:434] pool2 <- conv22
I0824 16:24:11.574242 15387 net.cpp:408] pool2 -> pool2
I0824 16:24:11.574291 15387 net.cpp:150] Setting up pool2
I0824 16:24:11.574306 15387 net.cpp:157] Top shape: 32 128 16 16 (1048576)
I0824 16:24:11.574316 15387 net.cpp:165] Memory required for data: 165151104
I0824 16:24:11.574323 15387 layer_factory.hpp:77] Creating layer conv31
I0824 16:24:11.574339 15387 net.cpp:100] Creating Layer conv31
I0824 16:24:11.574348 15387 net.cpp:434] conv31 <- pool2
I0824 16:24:11.574360 15387 net.cpp:408] conv31 -> conv31
I0824 16:24:11.577123 15387 net.cpp:150] Setting up conv31
I0824 16:24:11.577148 15387 net.cpp:157] Top shape: 32 96 16 16 (786432)
I0824 16:24:11.577159 15387 net.cpp:165] Memory required for data: 168296832
I0824 16:24:11.577173 15387 layer_factory.hpp:77] Creating layer relu31
I0824 16:24:11.577185 15387 net.cpp:100] Creating Layer relu31
I0824 16:24:11.577193 15387 net.cpp:434] relu31 <- conv31
I0824 16:24:11.577204 15387 net.cpp:395] relu31 -> conv31 (in-place)
I0824 16:24:11.577626 15387 net.cpp:150] Setting up relu31
I0824 16:24:11.577646 15387 net.cpp:157] Top shape: 32 96 16 16 (786432)
I0824 16:24:11.577653 15387 net.cpp:165] Memory required for data: 171442560
I0824 16:24:11.577661 15387 layer_factory.hpp:77] Creating layer conv32
I0824 16:24:11.577677 15387 net.cpp:100] Creating Layer conv32
I0824 16:24:11.577687 15387 net.cpp:434] conv32 <- conv31
I0824 16:24:11.577698 15387 net.cpp:408] conv32 -> conv32
I0824 16:24:11.581061 15387 net.cpp:150] Setting up conv32
I0824 16:24:11.581084 15387 net.cpp:157] Top shape: 32 192 16 16 (1572864)
I0824 16:24:11.581095 15387 net.cpp:165] Memory required for data: 177734016
I0824 16:24:11.581109 15387 layer_factory.hpp:77] Creating layer relu32
I0824 16:24:11.581122 15387 net.cpp:100] Creating Layer relu32
I0824 16:24:11.581130 15387 net.cpp:434] relu32 <- conv32
I0824 16:24:11.581140 15387 net.cpp:395] relu32 -> conv32 (in-place)
I0824 16:24:11.581562 15387 net.cpp:150] Setting up relu32
I0824 16:24:11.581580 15387 net.cpp:157] Top shape: 32 192 16 16 (1572864)
I0824 16:24:11.581593 15387 net.cpp:165] Memory required for data: 184025472
I0824 16:24:11.581601 15387 layer_factory.hpp:77] Creating layer pool3
I0824 16:24:11.581616 15387 net.cpp:100] Creating Layer pool3
I0824 16:24:11.581626 15387 net.cpp:434] pool3 <- conv32
I0824 16:24:11.581637 15387 net.cpp:408] pool3 -> pool3
I0824 16:24:11.581683 15387 net.cpp:150] Setting up pool3
I0824 16:24:11.581697 15387 net.cpp:157] Top shape: 32 192 8 8 (393216)
I0824 16:24:11.581707 15387 net.cpp:165] Memory required for data: 185598336
I0824 16:24:11.581717 15387 layer_factory.hpp:77] Creating layer conv41
I0824 16:24:11.581733 15387 net.cpp:100] Creating Layer conv41
I0824 16:24:11.581743 15387 net.cpp:434] conv41 <- pool3
I0824 16:24:11.581756 15387 net.cpp:408] conv41 -> conv41
I0824 16:24:11.585068 15387 net.cpp:150] Setting up conv41
I0824 16:24:11.585090 15387 net.cpp:157] Top shape: 32 128 8 8 (262144)
I0824 16:24:11.585098 15387 net.cpp:165] Memory required for data: 186646912
I0824 16:24:11.585110 15387 layer_factory.hpp:77] Creating layer relu41
I0824 16:24:11.585124 15387 net.cpp:100] Creating Layer relu41
I0824 16:24:11.585134 15387 net.cpp:434] relu41 <- conv41
I0824 16:24:11.585144 15387 net.cpp:395] relu41 -> conv41 (in-place)
I0824 16:24:11.585319 15387 net.cpp:150] Setting up relu41
I0824 16:24:11.585335 15387 net.cpp:157] Top shape: 32 128 8 8 (262144)
I0824 16:24:11.585343 15387 net.cpp:165] Memory required for data: 187695488
I0824 16:24:11.585351 15387 layer_factory.hpp:77] Creating layer conv42
I0824 16:24:11.585367 15387 net.cpp:100] Creating Layer conv42
I0824 16:24:11.585376 15387 net.cpp:434] conv42 <- conv41
I0824 16:24:11.585388 15387 net.cpp:408] conv42 -> conv42
I0824 16:24:11.589335 15387 net.cpp:150] Setting up conv42
I0824 16:24:11.589359 15387 net.cpp:157] Top shape: 32 256 8 8 (524288)
I0824 16:24:11.589366 15387 net.cpp:165] Memory required for data: 189792640
I0824 16:24:11.589377 15387 layer_factory.hpp:77] Creating layer relu42
I0824 16:24:11.589391 15387 net.cpp:100] Creating Layer relu42
I0824 16:24:11.589399 15387 net.cpp:434] relu42 <- conv42
I0824 16:24:11.589409 15387 net.cpp:395] relu42 -> conv42 (in-place)
I0824 16:24:11.589838 15387 net.cpp:150] Setting up relu42
I0824 16:24:11.589859 15387 net.cpp:157] Top shape: 32 256 8 8 (524288)
I0824 16:24:11.589869 15387 net.cpp:165] Memory required for data: 191889792
I0824 16:24:11.589877 15387 layer_factory.hpp:77] Creating layer pool4
I0824 16:24:11.589890 15387 net.cpp:100] Creating Layer pool4
I0824 16:24:11.589898 15387 net.cpp:434] pool4 <- conv42
I0824 16:24:11.589907 15387 net.cpp:408] pool4 -> pool4
I0824 16:24:11.589962 15387 net.cpp:150] Setting up pool4
I0824 16:24:11.589980 15387 net.cpp:157] Top shape: 32 256 4 4 (131072)
I0824 16:24:11.589988 15387 net.cpp:165] Memory required for data: 192414080
I0824 16:24:11.589995 15387 layer_factory.hpp:77] Creating layer conv51
I0824 16:24:11.590010 15387 net.cpp:100] Creating Layer conv51
I0824 16:24:11.590019 15387 net.cpp:434] conv51 <- pool4
I0824 16:24:11.590034 15387 net.cpp:408] conv51 -> conv51
I0824 16:24:11.608724 15387 net.cpp:150] Setting up conv51
I0824 16:24:11.608764 15387 net.cpp:157] Top shape: 32 512 1 1 (16384)
I0824 16:24:11.608772 15387 net.cpp:165] Memory required for data: 192479616
I0824 16:24:11.608793 15387 layer_factory.hpp:77] Creating layer relu51
I0824 16:24:11.608810 15387 net.cpp:100] Creating Layer relu51
I0824 16:24:11.608822 15387 net.cpp:434] relu51 <- conv51
I0824 16:24:11.608852 15387 net.cpp:395] relu51 -> conv51 (in-place)
I0824 16:24:11.609274 15387 net.cpp:150] Setting up relu51
I0824 16:24:11.609293 15387 net.cpp:157] Top shape: 32 512 1 1 (16384)
I0824 16:24:11.609302 15387 net.cpp:165] Memory required for data: 192545152
I0824 16:24:11.609309 15387 layer_factory.hpp:77] Creating layer conv52
I0824 16:24:11.609328 15387 net.cpp:100] Creating Layer conv52
I0824 16:24:11.609336 15387 net.cpp:434] conv52 <- conv51
I0824 16:24:11.609349 15387 net.cpp:408] conv52 -> conv52
I0824 16:24:11.612866 15387 net.cpp:150] Setting up conv52
I0824 16:24:11.612887 15387 net.cpp:157] Top shape: 32 512 1 1 (16384)
I0824 16:24:11.612895 15387 net.cpp:165] Memory required for data: 192610688
I0824 16:24:11.612906 15387 layer_factory.hpp:77] Creating layer relu52
I0824 16:24:11.612920 15387 net.cpp:100] Creating Layer relu52
I0824 16:24:11.612927 15387 net.cpp:434] relu52 <- conv52
I0824 16:24:11.612937 15387 net.cpp:395] relu52 -> conv52 (in-place)
I0824 16:24:11.613106 15387 net.cpp:150] Setting up relu52
I0824 16:24:11.613122 15387 net.cpp:157] Top shape: 32 512 1 1 (16384)
I0824 16:24:11.613131 15387 net.cpp:165] Memory required for data: 192676224
I0824 16:24:11.613137 15387 layer_factory.hpp:77] Creating layer drop6
I0824 16:24:11.613148 15387 net.cpp:100] Creating Layer drop6
I0824 16:24:11.613157 15387 net.cpp:434] drop6 <- conv52
I0824 16:24:11.613165 15387 net.cpp:395] drop6 -> conv52 (in-place)
I0824 16:24:11.613199 15387 net.cpp:150] Setting up drop6
I0824 16:24:11.613220 15387 net.cpp:157] Top shape: 32 512 1 1 (16384)
I0824 16:24:11.613229 15387 net.cpp:165] Memory required for data: 192741760
I0824 16:24:11.613236 15387 layer_factory.hpp:77] Creating layer conv_c
I0824 16:24:11.613252 15387 net.cpp:100] Creating Layer conv_c
I0824 16:24:11.613265 15387 net.cpp:434] conv_c <- conv52
I0824 16:24:11.613277 15387 net.cpp:408] conv_c -> conv_c
I0824 16:24:11.614506 15387 net.cpp:150] Setting up conv_c
I0824 16:24:11.614528 15387 net.cpp:157] Top shape: 32 2 1 1 (64)
I0824 16:24:11.614539 15387 net.cpp:165] Memory required for data: 192742016
I0824 16:24:11.614549 15387 layer_factory.hpp:77] Creating layer conv_c_conv_c_0_split
I0824 16:24:11.614564 15387 net.cpp:100] Creating Layer conv_c_conv_c_0_split
I0824 16:24:11.614573 15387 net.cpp:434] conv_c_conv_c_0_split <- conv_c
I0824 16:24:11.614581 15387 net.cpp:408] conv_c_conv_c_0_split -> conv_c_conv_c_0_split_0
I0824 16:24:11.614593 15387 net.cpp:408] conv_c_conv_c_0_split -> conv_c_conv_c_0_split_1
I0824 16:24:11.614646 15387 net.cpp:150] Setting up conv_c_conv_c_0_split
I0824 16:24:11.614658 15387 net.cpp:157] Top shape: 32 2 1 1 (64)
I0824 16:24:11.614666 15387 net.cpp:157] Top shape: 32 2 1 1 (64)
I0824 16:24:11.614673 15387 net.cpp:165] Memory required for data: 192742528
I0824 16:24:11.614681 15387 layer_factory.hpp:77] Creating layer accuracy
I0824 16:24:11.614699 15387 net.cpp:100] Creating Layer accuracy
I0824 16:24:11.614707 15387 net.cpp:434] accuracy <- conv_c_conv_c_0_split_0
I0824 16:24:11.614717 15387 net.cpp:434] accuracy <- label_data_1_split_0
I0824 16:24:11.614724 15387 net.cpp:408] accuracy -> accuracy
…
