…
I0705 13:34:13.098235 44772 net.cpp:322] The NetState phase (0) differed from the phase (1) specified by a rule in layer data
I0705 13:34:13.098413 44772 net.cpp:49] Initializing net from parameters: 
name: "FaceNN"
state {
  phase: TRAIN
}
layer {
  name: "data"
  type: "ImageData"
  top: "data"
  top: "label"
  include {
    phase: TRAIN
  }
  transform_param {
    mirror: true
    crop_size: 100
    mean_value: 104
    mean_value: 117
    mean_value: 123
  }
  image_data_param {
    source: "../lists/roi-train-L0.lst"
    batch_size: 128
    shuffle: true
    new_height: 110
    new_width: 110
  }
}
layer {
  name: "conv11"
  type: "Convolution"
  bottom: "data"
  top: "conv11"
  param {
    lr_mult: 1
    decay_mult: 1
  }
  param {
    lr_mult: 2
    decay_mult: 0
  }
  convolution_param {
    num_output: 32
    pad: 1
    stride: 1
    weight_filler {
      type: "xavier"
    }
    bias_filler {
      type: "constant"
    }
    kernel_h: 3
    kernel_w: 3
  }
}
layer {
  name: "relu11"
  type: "ReLU"
  bottom: "conv11"
  top: "conv11"
}
layer {
  name: "conv12"
  type: "Convolution"
  bottom: "conv11"
  top: "conv12"
  param {
    lr_mult: 1
    decay_mult: 1
  }
  param {
    lr_mult: 2
    decay_mult: 0
  }
  convolution_param {
    num_output: 32
    pad: 1
    stride: 1
    weight_filler {
      type: "xavier"
    }
    bias_filler {
      type: "constant"
    }
    kernel_h: 3
    kernel_w: 3
  }
}
layer {
  name: "relu12"
  type: "ReLU"
  bottom: "conv12"
  top: "conv12"
}
layer {
  name: "pool1"
  type: "Pooling"
  bottom: "conv12"
  top: "pool1"
  pooling_param {
    pool: MAX
    kernel_size: 2
    stride: 2
  }
}
layer {
  name: "conv21"
  type: "Convolution"
  bottom: "pool1"
  top: "conv21"
  param {
    lr_mult: 1
    decay_mult: 1
  }
  param {
    lr_mult: 2
    decay_mult: 0
  }
  convolution_param {
    num_output: 64
    pad: 1
    stride: 1
    weight_filler {
      type: "xavier"
    }
    bias_filler {
      type: "constant"
    }
    kernel_h: 3
    kernel_w: 3
  }
}
layer {
  name: "relu21"
  type: "ReLU"
  bottom: "conv21"
  top: "conv21"
}
layer {
  name: "conv22"
  type: "Convolution"
  bottom: "conv21"
  top: "conv22"
  param {
    lr_mult: 1
    decay_mult: 1
  }
  param {
    lr_mult: 2
    decay_mult: 0
  }
  convolution_param {
    num_output: 64
    pad: 1
    stride: 1
    weight_filler {
      type: "xavier"
    }
    bias_filler {
      type: "constant"
    }
    kernel_h: 3
    kernel_w: 3
  }
}
layer {
  name: "relu22"
  type: "ReLU"
  bottom: "conv22"
  top: "conv22"
}
layer {
  name: "pool2"
  type: "Pooling"
  bottom: "conv22"
  top: "pool2"
  pooling_param {
    pool: MAX
    kernel_size: 2
    stride: 2
  }
}
layer {
  name: "conv31"
  type: "Convolution"
  bottom: "pool2"
  top: "conv31"
  param {
    lr_mult: 1
    decay_mult: 1
  }
  param {
    lr_mult: 2
    decay_mult: 0
  }
  convolution_param {
    num_output: 96
    pad: 1
    stride: 1
    weight_filler {
      type: "xavier"
    }
    bias_filler {
      type: "constant"
    }
    kernel_h: 3
    kernel_w: 3
  }
}
layer {
  name: "relu31"
  type: "ReLU"
  bottom: "conv31"
  top: "conv31"
}
layer {
  name: "conv32"
  type: "Convolution"
  bottom: "conv31"
  top: "conv32"
  param {
    lr_mult: 1
    decay_mult: 1
  }
  param {
    lr_mult: 2
    decay_mult: 0
  }
  convolution_param {
    num_output: 96
    pad: 1
    stride: 1
    weight_filler {
      type: "xavier"
    }
    bias_filler {
      type: "constant"
    }
    kernel_h: 3
    kernel_w: 3
  }
}
layer {
  name: "relu32"
  type: "ReLU"
  bottom: "conv32"
  top: "conv32"
}
layer {
  name: "pool3"
  type: "Pooling"
  bottom: "conv32"
  top: "pool3"
  pooling_param {
    pool: MAX
    kernel_size: 2
    stride: 2
  }
}
layer {
  name: "conv41"
  type: "Convolution"
  bottom: "pool3"
  top: "conv41"
  param {
    lr_mult: 1
    decay_mult: 1
  }
  param {
    lr_mult: 2
    decay_mult: 0
  }
  convolution_param {
    num_output: 128
    pad: 1
    stride: 1
    weight_filler {
      type: "xavier"
    }
    bias_filler {
      type: "constant"
    }
    kernel_h: 3
    kernel_w: 3
  }
}
layer {
  name: "relu41"
  type: "ReLU"
  bottom: "conv41"
  top: "conv41"
}
layer {
  name: "conv42"
  type: "Convolution"
  bottom: "conv41"
  top: "conv42"
  param {
    lr_mult: 1
    decay_mult: 1
  }
  param {
    lr_mult: 2
    decay_mult: 0
  }
  convolution_param {
    num_output: 128
    pad: 1
    stride: 1
    weight_filler {
      type: "xavier"
    }
    bias_filler {
      type: "constant"
    }
    kernel_h: 3
    kernel_w: 3
  }
}
layer {
  name: "relu42"
  type: "ReLU"
  bottom: "conv42"
  top: "conv42"
}
layer {
  name: "pool4"
  type: "Pooling"
  bottom: "conv42"
  top: "pool4"
  pooling_param {
    pool: MAX
    kernel_size: 2
    stride: 2
  }
}
layer {
  name: "conv51"
  type: "Convolution"
  bottom: "pool4"
  top: "conv51"
  param {
    lr_mult: 1
    decay_mult: 1
  }
  param {
    lr_mult: 2
    decay_mult: 0
  }
  convolution_param {
    num_output: 256
    pad: 1
    stride: 1
    weight_filler {
      type: "xavier"
    }
    bias_filler {
      type: "constant"
    }
    kernel_h: 3
    kernel_w: 3
  }
}
layer {
  name: "relu51"
  type: "ReLU"
  bottom: "conv51"
  top: "conv51"
}
layer {
  name: "conv52"
  type: "Convolution"
  bottom: "conv51"
  top: "conv52"
  param {
    lr_mult: 1
    decay_mult: 1
  }
  param {
    lr_mult: 2
    decay_mult: 0
  }
  convolution_param {
    num_output: 256
    pad: 1
    stride: 1
    weight_filler {
      type: "xavier"
    }
    bias_filler {
      type: "constant"
    }
    kernel_h: 3
    kernel_w: 3
  }
}
layer {
  name: "relu52"
  type: "ReLU"
  bottom: "conv52"
  top: "conv52"
}
layer {
  name: "conv53"
  type: "Convolution"
  bottom: "conv52"
  top: "conv53"
  param {
    lr_mult: 1
    decay_mult: 1
  }
  param {
    lr_mult: 2
    decay_mult: 0
  }
  convolution_param {
    num_output: 256
    stride: 1
    weight_filler {
      type: "xavier"
    }
    bias_filler {
      type: "constant"
    }
    kernel_h: 7
    kernel_w: 7
  }
}
layer {
  name: "relu53"
  type: "ReLU"
  bottom: "conv53"
  top: "conv53"
}
layer {
  name: "drop6"
  type: "Dropout"
  bottom: "conv53"
  top: "drop6"
  dropout_param {
    dropout_ratio: 0.4
  }
}
layer {
  name: "conv54"
  type: "Convolution"
  bottom: "drop6"
  top: "conv54"
  param {
    lr_mult: 1
    decay_mult: 1
  }
  param {
    lr_mult: 2
    decay_mult: 0
  }
  convolution_param {
    num_output: 2
    stride: 1
    weight_filler {
      type: "xavier"
    }
    bias_filler {
      type: "constant"
    }
    kernel_h: 1
    kernel_w: 1
  }
}
layer {
  name: "accuracy"
  type: "Accuracy"
  bottom: "conv54"
  bottom: "label"
  top: "accuracy"
}
layer {
  name: "loss"
  type: "SoftmaxWithLoss"
  bottom: "conv54"
  bottom: "label"
  top: "loss"
}
I0705 13:34:13.099845 44772 layer_factory.hpp:76] Creating layer data
I0705 13:34:13.099894 44772 net.cpp:106] Creating Layer data
I0705 13:34:13.099908 44772 net.cpp:411] data -> data
I0705 13:34:13.099936 44772 net.cpp:411] data -> label
I0705 13:34:13.100327 44772 image_data_layer.cpp:36] Opening file ../lists/roi-train-L0.lst
I0705 13:34:13.198076 44772 image_data_layer.cpp:46] Shuffling data
I0705 13:34:13.226172 44772 image_data_layer.cpp:51] A total of 211680 images.
I0705 13:34:13.260175 44772 image_data_layer.cpp:78] output data size: 128,3,100,100
I0705 13:34:13.289118 44772 net.cpp:150] Setting up data
I0705 13:34:13.289199 44772 net.cpp:157] Top shape: 128 3 100 100 (3840000)
I0705 13:34:13.289211 44772 net.cpp:157] Top shape: 128 (128)
I0705 13:34:13.289222 44772 net.cpp:165] Memory required for data: 15360512
I0705 13:34:13.289235 44772 layer_factory.hpp:76] Creating layer label_data_1_split
I0705 13:34:13.289253 44772 net.cpp:106] Creating Layer label_data_1_split
I0705 13:34:13.289268 44772 net.cpp:454] label_data_1_split <- label
I0705 13:34:13.289283 44772 net.cpp:411] label_data_1_split -> label_data_1_split_0
I0705 13:34:13.289299 44772 net.cpp:411] label_data_1_split -> label_data_1_split_1
I0705 13:34:13.289355 44772 net.cpp:150] Setting up label_data_1_split
I0705 13:34:13.289371 44772 net.cpp:157] Top shape: 128 (128)
I0705 13:34:13.289377 44772 net.cpp:157] Top shape: 128 (128)
I0705 13:34:13.289384 44772 net.cpp:165] Memory required for data: 15361536
I0705 13:34:13.289392 44772 layer_factory.hpp:76] Creating layer conv11
I0705 13:34:13.289412 44772 net.cpp:106] Creating Layer conv11
I0705 13:34:13.289422 44772 net.cpp:454] conv11 <- data
I0705 13:34:13.289430 44772 net.cpp:411] conv11 -> conv11
I0705 13:34:13.398530 44772 net.cpp:150] Setting up conv11
I0705 13:34:13.398576 44772 net.cpp:157] Top shape: 128 32 100 100 (40960000)
I0705 13:34:13.398586 44772 net.cpp:165] Memory required for data: 179201536
I0705 13:34:13.398612 44772 layer_factory.hpp:76] Creating layer relu11
I0705 13:34:13.398632 44772 net.cpp:106] Creating Layer relu11
I0705 13:34:13.398640 44772 net.cpp:454] relu11 <- conv11
I0705 13:34:13.398650 44772 net.cpp:397] relu11 -> conv11 (in-place)
I0705 13:34:13.398797 44772 net.cpp:150] Setting up relu11
I0705 13:34:13.398813 44772 net.cpp:157] Top shape: 128 32 100 100 (40960000)
I0705 13:34:13.398819 44772 net.cpp:165] Memory required for data: 343041536
I0705 13:34:13.398828 44772 layer_factory.hpp:76] Creating layer conv12
I0705 13:34:13.398844 44772 net.cpp:106] Creating Layer conv12
I0705 13:34:13.398851 44772 net.cpp:454] conv12 <- conv11
I0705 13:34:13.398864 44772 net.cpp:411] conv12 -> conv12
I0705 13:34:13.399720 44772 net.cpp:150] Setting up conv12
I0705 13:34:13.399740 44772 net.cpp:157] Top shape: 128 32 100 100 (40960000)
I0705 13:34:13.399749 44772 net.cpp:165] Memory required for data: 506881536
I0705 13:34:13.399760 44772 layer_factory.hpp:76] Creating layer relu12
I0705 13:34:13.399775 44772 net.cpp:106] Creating Layer relu12
I0705 13:34:13.399783 44772 net.cpp:454] relu12 <- conv12
I0705 13:34:13.399791 44772 net.cpp:397] relu12 -> conv12 (in-place)
I0705 13:34:13.400061 44772 net.cpp:150] Setting up relu12
I0705 13:34:13.400079 44772 net.cpp:157] Top shape: 128 32 100 100 (40960000)
I0705 13:34:13.400087 44772 net.cpp:165] Memory required for data: 670721536
I0705 13:34:13.400094 44772 layer_factory.hpp:76] Creating layer pool1
I0705 13:34:13.400107 44772 net.cpp:106] Creating Layer pool1
I0705 13:34:13.400115 44772 net.cpp:454] pool1 <- conv12
I0705 13:34:13.400125 44772 net.cpp:411] pool1 -> pool1
I0705 13:34:13.400313 44772 net.cpp:150] Setting up pool1
I0705 13:34:13.400329 44772 net.cpp:157] Top shape: 128 32 50 50 (10240000)
I0705 13:34:13.400336 44772 net.cpp:165] Memory required for data: 711681536
I0705 13:34:13.400343 44772 layer_factory.hpp:76] Creating layer conv21
I0705 13:34:13.400357 44772 net.cpp:106] Creating Layer conv21
I0705 13:34:13.400365 44772 net.cpp:454] conv21 <- pool1
I0705 13:34:13.400375 44772 net.cpp:411] conv21 -> conv21
I0705 13:34:13.402395 44772 net.cpp:150] Setting up conv21
I0705 13:34:13.402415 44772 net.cpp:157] Top shape: 128 64 50 50 (20480000)
I0705 13:34:13.402422 44772 net.cpp:165] Memory required for data: 793601536
I0705 13:34:13.402436 44772 layer_factory.hpp:76] Creating layer relu21
I0705 13:34:13.402452 44772 net.cpp:106] Creating Layer relu21
I0705 13:34:13.402461 44772 net.cpp:454] relu21 <- conv21
I0705 13:34:13.402469 44772 net.cpp:397] relu21 -> conv21 (in-place)
I0705 13:34:13.402771 44772 net.cpp:150] Setting up relu21
I0705 13:34:13.402789 44772 net.cpp:157] Top shape: 128 64 50 50 (20480000)
I0705 13:34:13.402825 44772 net.cpp:165] Memory required for data: 875521536
I0705 13:34:13.402833 44772 layer_factory.hpp:76] Creating layer conv22
I0705 13:34:13.402849 44772 net.cpp:106] Creating Layer conv22
I0705 13:34:13.402858 44772 net.cpp:454] conv22 <- conv21
I0705 13:34:13.402869 44772 net.cpp:411] conv22 -> conv22
I0705 13:34:13.403848 44772 cudnn_conv_layer.cpp:194] Reallocating workspace storage: 6912
I0705 13:34:13.404036 44772 net.cpp:150] Setting up conv22
I0705 13:34:13.404054 44772 net.cpp:157] Top shape: 128 64 50 50 (20480000)
I0705 13:34:13.404062 44772 net.cpp:165] Memory required for data: 957441536
I0705 13:34:13.404074 44772 layer_factory.hpp:76] Creating layer relu22
I0705 13:34:13.404085 44772 net.cpp:106] Creating Layer relu22
I0705 13:34:13.404093 44772 net.cpp:454] relu22 <- conv22
I0705 13:34:13.404101 44772 net.cpp:397] relu22 -> conv22 (in-place)
I0705 13:34:13.404373 44772 net.cpp:150] Setting up relu22
I0705 13:34:13.404393 44772 net.cpp:157] Top shape: 128 64 50 50 (20480000)
I0705 13:34:13.404400 44772 net.cpp:165] Memory required for data: 1039361536
I0705 13:34:13.404408 44772 layer_factory.hpp:76] Creating layer pool2
I0705 13:34:13.404418 44772 net.cpp:106] Creating Layer pool2
I0705 13:34:13.404430 44772 net.cpp:454] pool2 <- conv22
I0705 13:34:13.404453 44772 net.cpp:411] pool2 -> pool2
I0705 13:34:13.404650 44772 net.cpp:150] Setting up pool2
I0705 13:34:13.404666 44772 net.cpp:157] Top shape: 128 64 25 25 (5120000)
I0705 13:34:13.404673 44772 net.cpp:165] Memory required for data: 1059841536
I0705 13:34:13.404680 44772 layer_factory.hpp:76] Creating layer conv31
I0705 13:34:13.404695 44772 net.cpp:106] Creating Layer conv31
I0705 13:34:13.404703 44772 net.cpp:454] conv31 <- pool2
I0705 13:34:13.404713 44772 net.cpp:411] conv31 -> conv31
I0705 13:34:13.405905 44772 cudnn_conv_layer.cpp:194] Reallocating workspace storage: 6912
I0705 13:34:13.405936 44772 net.cpp:150] Setting up conv31
I0705 13:34:13.405946 44772 net.cpp:157] Top shape: 128 96 25 25 (7680000)
I0705 13:34:13.405953 44772 net.cpp:165] Memory required for data: 1090561536
I0705 13:34:13.405966 44772 layer_factory.hpp:76] Creating layer relu31
I0705 13:34:13.405978 44772 net.cpp:106] Creating Layer relu31
I0705 13:34:13.405987 44772 net.cpp:454] relu31 <- conv31
I0705 13:34:13.405995 44772 net.cpp:397] relu31 -> conv31 (in-place)
I0705 13:34:13.406275 44772 net.cpp:150] Setting up relu31
I0705 13:34:13.406291 44772 net.cpp:157] Top shape: 128 96 25 25 (7680000)
I0705 13:34:13.406298 44772 net.cpp:165] Memory required for data: 1121281536
I0705 13:34:13.406306 44772 layer_factory.hpp:76] Creating layer conv32
I0705 13:34:13.406334 44772 net.cpp:106] Creating Layer conv32
I0705 13:34:13.406342 44772 net.cpp:454] conv32 <- conv31
I0705 13:34:13.406352 44772 net.cpp:411] conv32 -> conv32
I0705 13:34:13.408326 44772 cudnn_conv_layer.cpp:194] Reallocating workspace storage: 10368
I0705 13:34:13.408357 44772 net.cpp:150] Setting up conv32
I0705 13:34:13.408368 44772 net.cpp:157] Top shape: 128 96 25 25 (7680000)
I0705 13:34:13.408376 44772 net.cpp:165] Memory required for data: 1152001536
I0705 13:34:13.408386 44772 layer_factory.hpp:76] Creating layer relu32
I0705 13:34:13.408398 44772 net.cpp:106] Creating Layer relu32
I0705 13:34:13.408406 44772 net.cpp:454] relu32 <- conv32
I0705 13:34:13.408416 44772 net.cpp:397] relu32 -> conv32 (in-place)
I0705 13:34:13.408610 44772 net.cpp:150] Setting up relu32
I0705 13:34:13.408625 44772 net.cpp:157] Top shape: 128 96 25 25 (7680000)
I0705 13:34:13.408632 44772 net.cpp:165] Memory required for data: 1182721536
I0705 13:34:13.408640 44772 layer_factory.hpp:76] Creating layer pool3
I0705 13:34:13.408651 44772 net.cpp:106] Creating Layer pool3
I0705 13:34:13.408658 44772 net.cpp:454] pool3 <- conv32
I0705 13:34:13.408669 44772 net.cpp:411] pool3 -> pool3
I0705 13:34:13.409003 44772 net.cpp:150] Setting up pool3
I0705 13:34:13.409023 44772 net.cpp:157] Top shape: 128 96 13 13 (2076672)
I0705 13:34:13.409029 44772 net.cpp:165] Memory required for data: 1191028224
I0705 13:34:13.409036 44772 layer_factory.hpp:76] Creating layer conv41
I0705 13:34:13.409065 44772 net.cpp:106] Creating Layer conv41
I0705 13:34:13.409075 44772 net.cpp:454] conv41 <- pool3
I0705 13:34:13.409086 44772 net.cpp:411] conv41 -> conv41
I0705 13:34:13.410490 44772 net.cpp:150] Setting up conv41
I0705 13:34:13.410511 44772 net.cpp:157] Top shape: 128 128 13 13 (2768896)
I0705 13:34:13.410519 44772 net.cpp:165] Memory required for data: 1202103808
I0705 13:34:13.410531 44772 layer_factory.hpp:76] Creating layer relu41
I0705 13:34:13.410540 44772 net.cpp:106] Creating Layer relu41
I0705 13:34:13.410547 44772 net.cpp:454] relu41 <- conv41
I0705 13:34:13.410557 44772 net.cpp:397] relu41 -> conv41 (in-place)
I0705 13:34:13.410984 44772 net.cpp:150] Setting up relu41
I0705 13:34:13.411001 44772 net.cpp:157] Top shape: 128 128 13 13 (2768896)
I0705 13:34:13.411008 44772 net.cpp:165] Memory required for data: 1213179392
I0705 13:34:13.411016 44772 layer_factory.hpp:76] Creating layer conv42
I0705 13:34:13.411031 44772 net.cpp:106] Creating Layer conv42
I0705 13:34:13.411038 44772 net.cpp:454] conv42 <- conv41
I0705 13:34:13.411049 44772 net.cpp:411] conv42 -> conv42
I0705 13:34:13.413415 44772 cudnn_conv_layer.cpp:194] Reallocating workspace storage: 13824
I0705 13:34:13.413447 44772 net.cpp:150] Setting up conv42
I0705 13:34:13.413460 44772 net.cpp:157] Top shape: 128 128 13 13 (2768896)
I0705 13:34:13.413466 44772 net.cpp:165] Memory required for data: 1224254976
I0705 13:34:13.413477 44772 layer_factory.hpp:76] Creating layer relu42
I0705 13:34:13.413487 44772 net.cpp:106] Creating Layer relu42
I0705 13:34:13.413497 44772 net.cpp:454] relu42 <- conv42
I0705 13:34:13.413508 44772 net.cpp:397] relu42 -> conv42 (in-place)
I0705 13:34:13.413661 44772 net.cpp:150] Setting up relu42
I0705 13:34:13.413676 44772 net.cpp:157] Top shape: 128 128 13 13 (2768896)
I0705 13:34:13.413683 44772 net.cpp:165] Memory required for data: 1235330560
I0705 13:34:13.413691 44772 layer_factory.hpp:76] Creating layer pool4
I0705 13:34:13.413699 44772 net.cpp:106] Creating Layer pool4
I0705 13:34:13.413707 44772 net.cpp:454] pool4 <- conv42
I0705 13:34:13.413715 44772 net.cpp:411] pool4 -> pool4
I0705 13:34:13.414017 44772 net.cpp:150] Setting up pool4
I0705 13:34:13.414036 44772 net.cpp:157] Top shape: 128 128 7 7 (802816)
I0705 13:34:13.414042 44772 net.cpp:165] Memory required for data: 1238541824
I0705 13:34:13.414049 44772 layer_factory.hpp:76] Creating layer conv51
I0705 13:34:13.414063 44772 net.cpp:106] Creating Layer conv51
I0705 13:34:13.414072 44772 net.cpp:454] conv51 <- pool4
I0705 13:34:13.414083 44772 net.cpp:411] conv51 -> conv51
I0705 13:34:13.417462 44772 net.cpp:150] Setting up conv51
I0705 13:34:13.417487 44772 net.cpp:157] Top shape: 128 256 7 7 (1605632)
I0705 13:34:13.417500 44772 net.cpp:165] Memory required for data: 1244964352
I0705 13:34:13.417511 44772 layer_factory.hpp:76] Creating layer relu51
I0705 13:34:13.417524 44772 net.cpp:106] Creating Layer relu51
I0705 13:34:13.417536 44772 net.cpp:454] relu51 <- conv51
I0705 13:34:13.417544 44772 net.cpp:397] relu51 -> conv51 (in-place)
I0705 13:34:13.417696 44772 net.cpp:150] Setting up relu51
I0705 13:34:13.417711 44772 net.cpp:157] Top shape: 128 256 7 7 (1605632)
I0705 13:34:13.417718 44772 net.cpp:165] Memory required for data: 1251386880
I0705 13:34:13.417726 44772 layer_factory.hpp:76] Creating layer conv52
I0705 13:34:13.417740 44772 net.cpp:106] Creating Layer conv52
I0705 13:34:13.417748 44772 net.cpp:454] conv52 <- conv51
I0705 13:34:13.417757 44772 net.cpp:411] conv52 -> conv52
I0705 13:34:13.423341 44772 net.cpp:150] Setting up conv52
I0705 13:34:13.423363 44772 net.cpp:157] Top shape: 128 256 7 7 (1605632)
I0705 13:34:13.423372 44772 net.cpp:165] Memory required for data: 1257809408
I0705 13:34:13.423382 44772 layer_factory.hpp:76] Creating layer relu52
I0705 13:34:13.423393 44772 net.cpp:106] Creating Layer relu52
I0705 13:34:13.423399 44772 net.cpp:454] relu52 <- conv52
I0705 13:34:13.423409 44772 net.cpp:397] relu52 -> conv52 (in-place)
I0705 13:34:13.423687 44772 net.cpp:150] Setting up relu52
I0705 13:34:13.423719 44772 net.cpp:157] Top shape: 128 256 7 7 (1605632)
I0705 13:34:13.423727 44772 net.cpp:165] Memory required for data: 1264231936
I0705 13:34:13.423735 44772 layer_factory.hpp:76] Creating layer conv53
I0705 13:34:13.423748 44772 net.cpp:106] Creating Layer conv53
I0705 13:34:13.423754 44772 net.cpp:454] conv53 <- conv52
I0705 13:34:13.423766 44772 net.cpp:411] conv53 -> conv53
I0705 13:34:13.450821 44772 cudnn_conv_layer.cpp:194] Reallocating workspace storage: 150528
I0705 13:34:13.451028 44772 net.cpp:150] Setting up conv53
I0705 13:34:13.451048 44772 net.cpp:157] Top shape: 128 256 1 1 (32768)
I0705 13:34:13.451057 44772 net.cpp:165] Memory required for data: 1264363008
I0705 13:34:13.451072 44772 layer_factory.hpp:76] Creating layer relu53
I0705 13:34:13.451086 44772 net.cpp:106] Creating Layer relu53
I0705 13:34:13.451094 44772 net.cpp:454] relu53 <- conv53
I0705 13:34:13.451105 44772 net.cpp:397] relu53 -> conv53 (in-place)
I0705 13:34:13.451391 44772 net.cpp:150] Setting up relu53
I0705 13:34:13.451411 44772 net.cpp:157] Top shape: 128 256 1 1 (32768)
I0705 13:34:13.451417 44772 net.cpp:165] Memory required for data: 1264494080
I0705 13:34:13.451424 44772 layer_factory.hpp:76] Creating layer drop6
I0705 13:34:13.451442 44772 net.cpp:106] Creating Layer drop6
I0705 13:34:13.451452 44772 net.cpp:454] drop6 <- conv53
I0705 13:34:13.451459 44772 net.cpp:411] drop6 -> drop6
I0705 13:34:13.451509 44772 net.cpp:150] Setting up drop6
I0705 13:34:13.451524 44772 net.cpp:157] Top shape: 128 256 1 1 (32768)
I0705 13:34:13.451530 44772 net.cpp:165] Memory required for data: 1264625152
I0705 13:34:13.451539 44772 layer_factory.hpp:76] Creating layer conv54
I0705 13:34:13.451553 44772 net.cpp:106] Creating Layer conv54
I0705 13:34:13.451561 44772 net.cpp:454] conv54 <- drop6
I0705 13:34:13.451571 44772 net.cpp:411] conv54 -> conv54
I0705 13:34:13.452469 44772 cudnn_conv_layer.cpp:194] Reallocating workspace storage: 3072
I0705 13:34:13.452653 44772 net.cpp:150] Setting up conv54
I0705 13:34:13.452669 44772 net.cpp:157] Top shape: 128 2 1 1 (256)
I0705 13:34:13.452677 44772 net.cpp:165] Memory required for data: 1264626176
I0705 13:34:13.452689 44772 layer_factory.hpp:76] Creating layer conv54_conv54_0_split
I0705 13:34:13.452702 44772 net.cpp:106] Creating Layer conv54_conv54_0_split
I0705 13:34:13.452709 44772 net.cpp:454] conv54_conv54_0_split <- conv54
I0705 13:34:13.452718 44772 net.cpp:411] conv54_conv54_0_split -> conv54_conv54_0_split_0
I0705 13:34:13.452728 44772 net.cpp:411] conv54_conv54_0_split -> conv54_conv54_0_split_1
I0705 13:34:13.452770 44772 net.cpp:150] Setting up conv54_conv54_0_split
I0705 13:34:13.452793 44772 net.cpp:157] Top shape: 128 2 1 1 (256)
I0705 13:34:13.452801 44772 net.cpp:157] Top shape: 128 2 1 1 (256)
I0705 13:34:13.452807 44772 net.cpp:165] Memory required for data: 1264628224
I0705 13:34:13.452816 44772 layer_factory.hpp:76] Creating layer accuracy
I0705 13:34:13.452828 44772 net.cpp:106] Creating Layer accuracy
I0705 13:34:13.452836 44772 net.cpp:454] accuracy <- conv54_conv54_0_split_0
I0705 13:34:13.452847 44772 net.cpp:454] accuracy <- label_data_1_split_0
I0705 13:34:13.452860 44772 net.cpp:411] accuracy -> accuracy
…
I0705 13:34:13.454419 44772 net.cpp:322] The NetState phase (1) differed from the phase (0) specified by a rule in layer data
I0705 13:34:13.454591 44772 net.cpp:49] Initializing net from parameters: 
name: "FaceNN"
state {
  phase: TEST
}
layer {
  name: "data"
  type: "ImageData"
  top: "data"
  top: "label"
  include {
    phase: TEST
  }
  transform_param {
    mirror: false
    crop_size: 100
    mean_value: 104
    mean_value: 117
    mean_value: 123
  }
  image_data_param {
    source: "../lists/roi-val-L0.lst"
    batch_size: 32
    shuffle: true
    new_height: 110
    new_width: 110
  }
}
layer {
  name: "conv11"
  type: "Convolution"
  bottom: "data"
  top: "conv11"
  param {
    lr_mult: 1
    decay_mult: 1
  }
  param {
    lr_mult: 2
    decay_mult: 0
  }
  convolution_param {
    num_output: 32
    pad: 1
    stride: 1
    weight_filler {
      type: "xavier"
    }
    bias_filler {
      type: "constant"
    }
    kernel_h: 3
    kernel_w: 3
  }
}
layer {
  name: "relu11"
  type: "ReLU"
  bottom: "conv11"
  top: "conv11"
}
layer {
  name: "conv12"
  type: "Convolution"
  bottom: "conv11"
  top: "conv12"
  param {
    lr_mult: 1
    decay_mult: 1
  }
  param {
    lr_mult: 2
    decay_mult: 0
  }
  convolution_param {
    num_output: 32
    pad: 1
    stride: 1
    weight_filler {
      type: "xavier"
    }
    bias_filler {
      type: "constant"
    }
    kernel_h: 3
    kernel_w: 3
  }
}
layer {
  name: "relu12"
  type: "ReLU"
  bottom: "conv12"
  top: "conv12"
}
layer {
  name: "pool1"
  type: "Pooling"
  bottom: "conv12"
  top: "pool1"
  pooling_param {
    pool: MAX
    kernel_size: 2
    stride: 2
  }
}
layer {
  name: "conv21"
  type: "Convolution"
  bottom: "pool1"
  top: "conv21"
  param {
    lr_mult: 1
    decay_mult: 1
  }
  param {
    lr_mult: 2
    decay_mult: 0
  }
  convolution_param {
    num_output: 64
    pad: 1
    stride: 1
    weight_filler {
      type: "xavier"
    }
    bias_filler {
      type: "constant"
    }
    kernel_h: 3
    kernel_w: 3
  }
}
layer {
  name: "relu21"
  type: "ReLU"
  bottom: "conv21"
  top: "conv21"
}
layer {
  name: "conv22"
  type: "Convolution"
  bottom: "conv21"
  top: "conv22"
  param {
    lr_mult: 1
    decay_mult: 1
  }
  param {
    lr_mult: 2
    decay_mult: 0
  }
  convolution_param {
    num_output: 64
    pad: 1
    stride: 1
    weight_filler {
      type: "xavier"
    }
    bias_filler {
      type: "constant"
    }
    kernel_h: 3
    kernel_w: 3
  }
}
layer {
  name: "relu22"
  type: "ReLU"
  bottom: "conv22"
  top: "conv22"
}
layer {
  name: "pool2"
  type: "Pooling"
  bottom: "conv22"
  top: "pool2"
  pooling_param {
    pool: MAX
    kernel_size: 2
    stride: 2
  }
}
layer {
  name: "conv31"
  type: "Convolution"
  bottom: "pool2"
  top: "conv31"
  param {
    lr_mult: 1
    decay_mult: 1
  }
  param {
    lr_mult: 2
    decay_mult: 0
  }
  convolution_param {
    num_output: 96
    pad: 1
    stride: 1
    weight_filler {
      type: "xavier"
    }
    bias_filler {
      type: "constant"
    }
    kernel_h: 3
    kernel_w: 3
  }
}
layer {
  name: "relu31"
  type: "ReLU"
  bottom: "conv31"
  top: "conv31"
}
layer {
  name: "conv32"
  type: "Convolution"
  bottom: "conv31"
  top: "conv32"
  param {
    lr_mult: 1
    decay_mult: 1
  }
  param {
    lr_mult: 2
    decay_mult: 0
  }
  convolution_param {
    num_output: 96
    pad: 1
    stride: 1
    weight_filler {
      type: "xavier"
    }
    bias_filler {
      type: "constant"
    }
    kernel_h: 3
    kernel_w: 3
  }
}
layer {
  name: "relu32"
  type: "ReLU"
  bottom: "conv32"
  top: "conv32"
}
layer {
  name: "pool3"
  type: "Pooling"
  bottom: "conv32"
  top: "pool3"
  pooling_param {
    pool: MAX
    kernel_size: 2
    stride: 2
  }
}
layer {
  name: "conv41"
  type: "Convolution"
  bottom: "pool3"
  top: "conv41"
  param {
    lr_mult: 1
    decay_mult: 1
  }
  param {
    lr_mult: 2
    decay_mult: 0
  }
  convolution_param {
    num_output: 128
    pad: 1
    stride: 1
    weight_filler {
      type: "xavier"
    }
    bias_filler {
      type: "constant"
    }
    kernel_h: 3
    kernel_w: 3
  }
}
layer {
  name: "relu41"
  type: "ReLU"
  bottom: "conv41"
  top: "conv41"
}
layer {
  name: "conv42"
  type: "Convolution"
  bottom: "conv41"
  top: "conv42"
  param {
    lr_mult: 1
    decay_mult: 1
  }
  param {
    lr_mult: 2
    decay_mult: 0
  }
  convolution_param {
    num_output: 128
    pad: 1
    stride: 1
    weight_filler {
      type: "xavier"
    }
    bias_filler {
      type: "constant"
    }
    kernel_h: 3
    kernel_w: 3
  }
}
layer {
  name: "relu42"
  type: "ReLU"
  bottom: "conv42"
  top: "conv42"
}
layer {
  name: "pool4"
  type: "Pooling"
  bottom: "conv42"
  top: "pool4"
  pooling_param {
    pool: MAX
    kernel_size: 2
    stride: 2
  }
}
layer {
  name: "conv51"
  type: "Convolution"
  bottom: "pool4"
  top: "conv51"
  param {
    lr_mult: 1
    decay_mult: 1
  }
  param {
    lr_mult: 2
    decay_mult: 0
  }
  convolution_param {
    num_output: 256
    pad: 1
    stride: 1
    weight_filler {
      type: "xavier"
    }
    bias_filler {
      type: "constant"
    }
    kernel_h: 3
    kernel_w: 3
  }
}
layer {
  name: "relu51"
  type: "ReLU"
  bottom: "conv51"
  top: "conv51"
}
layer {
  name: "conv52"
  type: "Convolution"
  bottom: "conv51"
  top: "conv52"
  param {
    lr_mult: 1
    decay_mult: 1
  }
  param {
    lr_mult: 2
    decay_mult: 0
  }
  convolution_param {
    num_output: 256
    pad: 1
    stride: 1
    weight_filler {
      type: "xavier"
    }
    bias_filler {
      type: "constant"
    }
    kernel_h: 3
    kernel_w: 3
  }
}
layer {
  name: "relu52"
  type: "ReLU"
  bottom: "conv52"
  top: "conv52"
}
layer {
  name: "conv53"
  type: "Convolution"
  bottom: "conv52"
  top: "conv53"
  param {
    lr_mult: 1
    decay_mult: 1
  }
  param {
    lr_mult: 2
    decay_mult: 0
  }
  convolution_param {
    num_output: 256
    stride: 1
    weight_filler {
      type: "xavier"
    }
    bias_filler {
      type: "constant"
    }
    kernel_h: 7
    kernel_w: 7
  }
}
layer {
  name: "relu53"
  type: "ReLU"
  bottom: "conv53"
  top: "conv53"
}
layer {
  name: "drop6"
  type: "Dropout"
  bottom: "conv53"
  top: "drop6"
  dropout_param {
    dropout_ratio: 0.4
  }
}
layer {
  name: "conv54"
  type: "Convolution"
  bottom: "drop6"
  top: "conv54"
  param {
    lr_mult: 1
    decay_mult: 1
  }
  param {
    lr_mult: 2
    decay_mult: 0
  }
  convolution_param {
    num_output: 2
    stride: 1
    weight_filler {
      type: "xavier"
    }
    bias_filler {
      type: "constant"
    }
    kernel_h: 1
    kernel_w: 1
  }
}
layer {
  name: "accuracy"
  type: "Accuracy"
  bottom: "conv54"
  bottom: "label"
  top: "accuracy"
}
layer {
  name: "loss"
  type: "SoftmaxWithLoss"
  bottom: "conv54"
  bottom: "label"
  top: "loss"
}
I0705 13:34:13.455963 44772 layer_factory.hpp:76] Creating layer data
I0705 13:34:13.455984 44772 net.cpp:106] Creating Layer data
I0705 13:34:13.455992 44772 net.cpp:411] data -> data
I0705 13:34:13.456004 44772 net.cpp:411] data -> label
I0705 13:34:13.456027 44772 image_data_layer.cpp:36] Opening file ../lists/roi-val-L0.lst
I0705 13:34:13.466756 44772 image_data_layer.cpp:46] Shuffling data
I0705 13:34:13.468168 44772 image_data_layer.cpp:51] A total of 23520 images.
I0705 13:34:13.516320 44772 image_data_layer.cpp:78] output data size: 32,3,100,100
I0705 13:34:13.523591 44772 net.cpp:150] Setting up data
I0705 13:34:13.523625 44772 net.cpp:157] Top shape: 32 3 100 100 (960000)
I0705 13:34:13.523635 44772 net.cpp:157] Top shape: 32 (32)
I0705 13:34:13.523643 44772 net.cpp:165] Memory required for data: 3840128
I0705 13:34:13.523656 44772 layer_factory.hpp:76] Creating layer label_data_1_split
I0705 13:34:13.523672 44772 net.cpp:106] Creating Layer label_data_1_split
I0705 13:34:13.523680 44772 net.cpp:454] label_data_1_split <- label
I0705 13:34:13.523690 44772 net.cpp:411] label_data_1_split -> label_data_1_split_0
I0705 13:34:13.523704 44772 net.cpp:411] label_data_1_split -> label_data_1_split_1
I0705 13:34:13.523809 44772 net.cpp:150] Setting up label_data_1_split
I0705 13:34:13.523824 44772 net.cpp:157] Top shape: 32 (32)
I0705 13:34:13.523833 44772 net.cpp:157] Top shape: 32 (32)
I0705 13:34:13.523838 44772 net.cpp:165] Memory required for data: 3840384
I0705 13:34:13.523845 44772 layer_factory.hpp:76] Creating layer conv11
I0705 13:34:13.523862 44772 net.cpp:106] Creating Layer conv11
I0705 13:34:13.523869 44772 net.cpp:454] conv11 <- data
I0705 13:34:13.523880 44772 net.cpp:411] conv11 -> conv11
I0705 13:34:13.525178 44772 net.cpp:150] Setting up conv11
I0705 13:34:13.525202 44772 net.cpp:157] Top shape: 32 32 100 100 (10240000)
I0705 13:34:13.525209 44772 net.cpp:165] Memory required for data: 44800384
I0705 13:34:13.525223 44772 layer_factory.hpp:76] Creating layer relu11
I0705 13:34:13.525236 44772 net.cpp:106] Creating Layer relu11
I0705 13:34:13.525243 44772 net.cpp:454] relu11 <- conv11
I0705 13:34:13.525262 44772 net.cpp:397] relu11 -> conv11 (in-place)
I0705 13:34:13.525656 44772 net.cpp:150] Setting up relu11
I0705 13:34:13.525699 44772 net.cpp:157] Top shape: 32 32 100 100 (10240000)
I0705 13:34:13.525708 44772 net.cpp:165] Memory required for data: 85760384
I0705 13:34:13.525717 44772 layer_factory.hpp:76] Creating layer conv12
I0705 13:34:13.525729 44772 net.cpp:106] Creating Layer conv12
I0705 13:34:13.525738 44772 net.cpp:454] conv12 <- conv11
I0705 13:34:13.525751 44772 net.cpp:411] conv12 -> conv12
I0705 13:34:13.526618 44772 net.cpp:150] Setting up conv12
I0705 13:34:13.526638 44772 net.cpp:157] Top shape: 32 32 100 100 (10240000)
I0705 13:34:13.526646 44772 net.cpp:165] Memory required for data: 126720384
I0705 13:34:13.526659 44772 layer_factory.hpp:76] Creating layer relu12
I0705 13:34:13.526674 44772 net.cpp:106] Creating Layer relu12
I0705 13:34:13.526681 44772 net.cpp:454] relu12 <- conv12
I0705 13:34:13.526690 44772 net.cpp:397] relu12 -> conv12 (in-place)
I0705 13:34:13.526974 44772 net.cpp:150] Setting up relu12
I0705 13:34:13.526993 44772 net.cpp:157] Top shape: 32 32 100 100 (10240000)
I0705 13:34:13.526999 44772 net.cpp:165] Memory required for data: 167680384
I0705 13:34:13.527007 44772 layer_factory.hpp:76] Creating layer pool1
I0705 13:34:13.527019 44772 net.cpp:106] Creating Layer pool1
I0705 13:34:13.527027 44772 net.cpp:454] pool1 <- conv12
I0705 13:34:13.527037 44772 net.cpp:411] pool1 -> pool1
I0705 13:34:13.527214 44772 net.cpp:150] Setting up pool1
I0705 13:34:13.527230 44772 net.cpp:157] Top shape: 32 32 50 50 (2560000)
I0705 13:34:13.527236 44772 net.cpp:165] Memory required for data: 177920384
I0705 13:34:13.527243 44772 layer_factory.hpp:76] Creating layer conv21
I0705 13:34:13.527256 44772 net.cpp:106] Creating Layer conv21
I0705 13:34:13.527266 44772 net.cpp:454] conv21 <- pool1
I0705 13:34:13.527276 44772 net.cpp:411] conv21 -> conv21
I0705 13:34:13.528479 44772 net.cpp:150] Setting up conv21
I0705 13:34:13.528502 44772 net.cpp:157] Top shape: 32 64 50 50 (5120000)
I0705 13:34:13.528511 44772 net.cpp:165] Memory required for data: 198400384
I0705 13:34:13.528527 44772 layer_factory.hpp:76] Creating layer relu21
I0705 13:34:13.528542 44772 net.cpp:106] Creating Layer relu21
I0705 13:34:13.528549 44772 net.cpp:454] relu21 <- conv21
I0705 13:34:13.528558 44772 net.cpp:397] relu21 -> conv21 (in-place)
I0705 13:34:13.528895 44772 net.cpp:150] Setting up relu21
I0705 13:34:13.528918 44772 net.cpp:157] Top shape: 32 64 50 50 (5120000)
I0705 13:34:13.528928 44772 net.cpp:165] Memory required for data: 218880384
I0705 13:34:13.528936 44772 layer_factory.hpp:76] Creating layer conv22
I0705 13:34:13.528949 44772 net.cpp:106] Creating Layer conv22
I0705 13:34:13.528957 44772 net.cpp:454] conv22 <- conv21
I0705 13:34:13.528970 44772 net.cpp:411] conv22 -> conv22
I0705 13:34:13.530568 44772 net.cpp:150] Setting up conv22
I0705 13:34:13.530596 44772 net.cpp:157] Top shape: 32 64 50 50 (5120000)
I0705 13:34:13.530606 44772 net.cpp:165] Memory required for data: 239360384
I0705 13:34:13.530617 44772 layer_factory.hpp:76] Creating layer relu22
I0705 13:34:13.530630 44772 net.cpp:106] Creating Layer relu22
I0705 13:34:13.530639 44772 net.cpp:454] relu22 <- conv22
I0705 13:34:13.530648 44772 net.cpp:397] relu22 -> conv22 (in-place)
I0705 13:34:13.530820 44772 net.cpp:150] Setting up relu22
I0705 13:34:13.530838 44772 net.cpp:157] Top shape: 32 64 50 50 (5120000)
I0705 13:34:13.530845 44772 net.cpp:165] Memory required for data: 259840384
I0705 13:34:13.530853 44772 layer_factory.hpp:76] Creating layer pool2
I0705 13:34:13.530864 44772 net.cpp:106] Creating Layer pool2
I0705 13:34:13.530872 44772 net.cpp:454] pool2 <- conv22
I0705 13:34:13.530881 44772 net.cpp:411] pool2 -> pool2
I0705 13:34:13.531224 44772 net.cpp:150] Setting up pool2
I0705 13:34:13.531242 44772 net.cpp:157] Top shape: 32 64 25 25 (1280000)
I0705 13:34:13.531250 44772 net.cpp:165] Memory required for data: 264960384
I0705 13:34:13.531256 44772 layer_factory.hpp:76] Creating layer conv31
I0705 13:34:13.531271 44772 net.cpp:106] Creating Layer conv31
I0705 13:34:13.531280 44772 net.cpp:454] conv31 <- pool2
I0705 13:34:13.531291 44772 net.cpp:411] conv31 -> conv31
I0705 13:34:13.532447 44772 cudnn_conv_layer.cpp:194] Reallocating workspace storage: 6912
I0705 13:34:13.532491 44772 net.cpp:150] Setting up conv31
I0705 13:34:13.532503 44772 net.cpp:157] Top shape: 32 96 25 25 (1920000)
I0705 13:34:13.532510 44772 net.cpp:165] Memory required for data: 272640384
I0705 13:34:13.532526 44772 layer_factory.hpp:76] Creating layer relu31
I0705 13:34:13.532534 44772 net.cpp:106] Creating Layer relu31
I0705 13:34:13.532546 44772 net.cpp:454] relu31 <- conv31
I0705 13:34:13.532558 44772 net.cpp:397] relu31 -> conv31 (in-place)
I0705 13:34:13.532840 44772 net.cpp:150] Setting up relu31
I0705 13:34:13.532860 44772 net.cpp:157] Top shape: 32 96 25 25 (1920000)
I0705 13:34:13.532866 44772 net.cpp:165] Memory required for data: 280320384
I0705 13:34:13.532873 44772 layer_factory.hpp:76] Creating layer conv32
I0705 13:34:13.532886 44772 net.cpp:106] Creating Layer conv32
I0705 13:34:13.532894 44772 net.cpp:454] conv32 <- conv31
I0705 13:34:13.532905 44772 net.cpp:411] conv32 -> conv32
I0705 13:34:13.534358 44772 net.cpp:150] Setting up conv32
I0705 13:34:13.534378 44772 net.cpp:157] Top shape: 32 96 25 25 (1920000)
I0705 13:34:13.534385 44772 net.cpp:165] Memory required for data: 288000384
I0705 13:34:13.534395 44772 layer_factory.hpp:76] Creating layer relu32
I0705 13:34:13.534407 44772 net.cpp:106] Creating Layer relu32
I0705 13:34:13.534415 44772 net.cpp:454] relu32 <- conv32
I0705 13:34:13.534423 44772 net.cpp:397] relu32 -> conv32 (in-place)
I0705 13:34:13.534577 44772 net.cpp:150] Setting up relu32
I0705 13:34:13.534592 44772 net.cpp:157] Top shape: 32 96 25 25 (1920000)
I0705 13:34:13.534600 44772 net.cpp:165] Memory required for data: 295680384
I0705 13:34:13.534606 44772 layer_factory.hpp:76] Creating layer pool3
I0705 13:34:13.534618 44772 net.cpp:106] Creating Layer pool3
I0705 13:34:13.534626 44772 net.cpp:454] pool3 <- conv32
I0705 13:34:13.534634 44772 net.cpp:411] pool3 -> pool3
I0705 13:34:13.534945 44772 net.cpp:150] Setting up pool3
I0705 13:34:13.534963 44772 net.cpp:157] Top shape: 32 96 13 13 (519168)
I0705 13:34:13.534970 44772 net.cpp:165] Memory required for data: 297757056
I0705 13:34:13.534978 44772 layer_factory.hpp:76] Creating layer conv41
I0705 13:34:13.534991 44772 net.cpp:106] Creating Layer conv41
I0705 13:34:13.534999 44772 net.cpp:454] conv41 <- pool3
I0705 13:34:13.535010 44772 net.cpp:411] conv41 -> conv41
I0705 13:34:13.537093 44772 cudnn_conv_layer.cpp:194] Reallocating workspace storage: 10368
I0705 13:34:13.537129 44772 net.cpp:150] Setting up conv41
I0705 13:34:13.537142 44772 net.cpp:157] Top shape: 32 128 13 13 (692224)
I0705 13:34:13.537149 44772 net.cpp:165] Memory required for data: 300525952
I0705 13:34:13.537159 44772 layer_factory.hpp:76] Creating layer relu41
I0705 13:34:13.537168 44772 net.cpp:106] Creating Layer relu41
I0705 13:34:13.537176 44772 net.cpp:454] relu41 <- conv41
I0705 13:34:13.537184 44772 net.cpp:397] relu41 -> conv41 (in-place)
I0705 13:34:13.537343 44772 net.cpp:150] Setting up relu41
I0705 13:34:13.537358 44772 net.cpp:157] Top shape: 32 128 13 13 (692224)
I0705 13:34:13.537365 44772 net.cpp:165] Memory required for data: 303294848
I0705 13:34:13.537372 44772 layer_factory.hpp:76] Creating layer conv42
I0705 13:34:13.537385 44772 net.cpp:106] Creating Layer conv42
I0705 13:34:13.537394 44772 net.cpp:454] conv42 <- conv41
I0705 13:34:13.537405 44772 net.cpp:411] conv42 -> conv42
I0705 13:34:13.539199 44772 cudnn_conv_layer.cpp:194] Reallocating workspace storage: 13824
I0705 13:34:13.539242 44772 net.cpp:150] Setting up conv42
I0705 13:34:13.539255 44772 net.cpp:157] Top shape: 32 128 13 13 (692224)
I0705 13:34:13.539263 44772 net.cpp:165] Memory required for data: 306063744
I0705 13:34:13.539273 44772 layer_factory.hpp:76] Creating layer relu42
I0705 13:34:13.539288 44772 net.cpp:106] Creating Layer relu42
I0705 13:34:13.539296 44772 net.cpp:454] relu42 <- conv42
I0705 13:34:13.539306 44772 net.cpp:397] relu42 -> conv42 (in-place)
I0705 13:34:13.539590 44772 net.cpp:150] Setting up relu42
I0705 13:34:13.539608 44772 net.cpp:157] Top shape: 32 128 13 13 (692224)
I0705 13:34:13.539633 44772 net.cpp:165] Memory required for data: 308832640
I0705 13:34:13.539640 44772 layer_factory.hpp:76] Creating layer pool4
I0705 13:34:13.539651 44772 net.cpp:106] Creating Layer pool4
I0705 13:34:13.539659 44772 net.cpp:454] pool4 <- conv42
I0705 13:34:13.539669 44772 net.cpp:411] pool4 -> pool4
I0705 13:34:13.539851 44772 net.cpp:150] Setting up pool4
I0705 13:34:13.539867 44772 net.cpp:157] Top shape: 32 128 7 7 (200704)
I0705 13:34:13.539875 44772 net.cpp:165] Memory required for data: 309635456
I0705 13:34:13.539881 44772 layer_factory.hpp:76] Creating layer conv51
I0705 13:34:13.539894 44772 net.cpp:106] Creating Layer conv51
I0705 13:34:13.539902 44772 net.cpp:454] conv51 <- pool4
I0705 13:34:13.539911 44772 net.cpp:411] conv51 -> conv51
I0705 13:34:13.543162 44772 cudnn_conv_layer.cpp:194] Reallocating workspace storage: 21676032
I0705 13:34:13.543356 44772 net.cpp:150] Setting up conv51
I0705 13:34:13.543375 44772 net.cpp:157] Top shape: 32 256 7 7 (401408)
I0705 13:34:13.543382 44772 net.cpp:165] Memory required for data: 311241088
I0705 13:34:13.543396 44772 layer_factory.hpp:76] Creating layer relu51
I0705 13:34:13.543407 44772 net.cpp:106] Creating Layer relu51
I0705 13:34:13.543414 44772 net.cpp:454] relu51 <- conv51
I0705 13:34:13.543424 44772 net.cpp:397] relu51 -> conv51 (in-place)
I0705 13:34:13.543593 44772 net.cpp:150] Setting up relu51
I0705 13:34:13.543614 44772 net.cpp:157] Top shape: 32 256 7 7 (401408)
I0705 13:34:13.543630 44772 net.cpp:165] Memory required for data: 312846720
I0705 13:34:13.543637 44772 layer_factory.hpp:76] Creating layer conv52
I0705 13:34:13.543653 44772 net.cpp:106] Creating Layer conv52
I0705 13:34:13.543663 44772 net.cpp:454] conv52 <- conv51
I0705 13:34:13.543673 44772 net.cpp:411] conv52 -> conv52
I0705 13:34:13.549232 44772 net.cpp:150] Setting up conv52
I0705 13:34:13.549252 44772 net.cpp:157] Top shape: 32 256 7 7 (401408)
I0705 13:34:13.549259 44772 net.cpp:165] Memory required for data: 314452352
I0705 13:34:13.549268 44772 layer_factory.hpp:76] Creating layer relu52
I0705 13:34:13.549281 44772 net.cpp:106] Creating Layer relu52
I0705 13:34:13.549289 44772 net.cpp:454] relu52 <- conv52
I0705 13:34:13.549298 44772 net.cpp:397] relu52 -> conv52 (in-place)
I0705 13:34:13.549594 44772 net.cpp:150] Setting up relu52
I0705 13:34:13.549612 44772 net.cpp:157] Top shape: 32 256 7 7 (401408)
I0705 13:34:13.549619 44772 net.cpp:165] Memory required for data: 316057984
I0705 13:34:13.549626 44772 layer_factory.hpp:76] Creating layer conv53
I0705 13:34:13.549641 44772 net.cpp:106] Creating Layer conv53
I0705 13:34:13.549649 44772 net.cpp:454] conv53 <- conv52
I0705 13:34:13.549660 44772 net.cpp:411] conv53 -> conv53
I0705 13:34:13.574568 44772 cudnn_conv_layer.cpp:194] Reallocating workspace storage: 150528
I0705 13:34:13.574618 44772 net.cpp:150] Setting up conv53
I0705 13:34:13.574632 44772 net.cpp:157] Top shape: 32 256 1 1 (8192)
I0705 13:34:13.574640 44772 net.cpp:165] Memory required for data: 316090752
I0705 13:34:13.574652 44772 layer_factory.hpp:76] Creating layer relu53
I0705 13:34:13.574667 44772 net.cpp:106] Creating Layer relu53
I0705 13:34:13.574679 44772 net.cpp:454] relu53 <- conv53
I0705 13:34:13.574688 44772 net.cpp:397] relu53 -> conv53 (in-place)
I0705 13:34:13.574852 44772 net.cpp:150] Setting up relu53
I0705 13:34:13.574868 44772 net.cpp:157] Top shape: 32 256 1 1 (8192)
I0705 13:34:13.574875 44772 net.cpp:165] Memory required for data: 316123520
I0705 13:34:13.574882 44772 layer_factory.hpp:76] Creating layer drop6
I0705 13:34:13.574893 44772 net.cpp:106] Creating Layer drop6
I0705 13:34:13.574901 44772 net.cpp:454] drop6 <- conv53
I0705 13:34:13.574911 44772 net.cpp:411] drop6 -> drop6
I0705 13:34:13.574957 44772 net.cpp:150] Setting up drop6
I0705 13:34:13.574980 44772 net.cpp:157] Top shape: 32 256 1 1 (8192)
I0705 13:34:13.574986 44772 net.cpp:165] Memory required for data: 316156288
I0705 13:34:13.574993 44772 layer_factory.hpp:76] Creating layer conv54
I0705 13:34:13.575011 44772 net.cpp:106] Creating Layer conv54
I0705 13:34:13.575045 44772 net.cpp:454] conv54 <- drop6
I0705 13:34:13.575055 44772 net.cpp:411] conv54 -> conv54
I0705 13:34:13.576002 44772 cudnn_conv_layer.cpp:194] Reallocating workspace storage: 3072
I0705 13:34:13.576033 44772 net.cpp:150] Setting up conv54
I0705 13:34:13.576045 44772 net.cpp:157] Top shape: 32 2 1 1 (64)
I0705 13:34:13.576052 44772 net.cpp:165] Memory required for data: 316156544
I0705 13:34:13.576062 44772 layer_factory.hpp:76] Creating layer conv54_conv54_0_split
I0705 13:34:13.576073 44772 net.cpp:106] Creating Layer conv54_conv54_0_split
I0705 13:34:13.576092 44772 net.cpp:454] conv54_conv54_0_split <- conv54
I0705 13:34:13.576100 44772 net.cpp:411] conv54_conv54_0_split -> conv54_conv54_0_split_0
I0705 13:34:13.576112 44772 net.cpp:411] conv54_conv54_0_split -> conv54_conv54_0_split_1
I0705 13:34:13.576154 44772 net.cpp:150] Setting up conv54_conv54_0_split
I0705 13:34:13.576174 44772 net.cpp:157] Top shape: 32 2 1 1 (64)
I0705 13:34:13.576182 44772 net.cpp:157] Top shape: 32 2 1 1 (64)
I0705 13:34:13.576192 44772 net.cpp:165] Memory required for data: 316157056
I0705 13:34:13.576200 44772 layer_factory.hpp:76] Creating layer accuracy
I0705 13:34:13.576211 44772 net.cpp:106] Creating Layer accuracy
I0705 13:34:13.576218 44772 net.cpp:454] accuracy <- conv54_conv54_0_split_0
I0705 13:34:13.576226 44772 net.cpp:454] accuracy <- label_data_1_split_0
I0705 13:34:13.576236 44772 net.cpp:411] accuracy -> accuracy
…
