…
  type: "Python"
  top: "data"
  top: "label"
  include {
    phase: TRAIN
  }
  python_param {
    module: "mask_image_layer"
    layer: "random_patches_from_images_withlabel"
    param_str: "{\'root_folder\': \'/home/dywang/Proliferation/data/mitoses\', \'image_list\': \'/home/dywang/00exp_wdy/stage04_mitosisDetection/step02_train_mitosis_detecotor/heatmap_mc13_tr/all_image_withlabel_mc13_tr.lst\', \'seed\': 8899, \'mean\': (128, 128, 128), \'size\': 64, \'batch\': 128, \'scale\':0.1, \'colorn\':20, \'classes\':\'1:0 2:1 3:0\', \'DEBUG\': True}"
  }
}
layer {
  name: "conv11"
  type: "Convolution"
  bottom: "data"
  top: "conv11"
  param {
    lr_mult: 1
    decay_mult: 1
  }
  param {
    lr_mult: 2
    decay_mult: 0
  }
  convolution_param {
    num_output: 32
    pad: 0
    stride: 1
    weight_filler {
      type: "xavier"
    }
    bias_filler {
      type: "constant"
    }
    kernel_h: 3
    kernel_w: 3
  }
}
layer {
  name: "relu11"
  type: "ReLU"
  bottom: "conv11"
  top: "conv11"
}
layer {
  name: "conv12"
  type: "Convolution"
  bottom: "conv11"
  top: "conv12"
  param {
    lr_mult: 1
    decay_mult: 1
  }
  param {
    lr_mult: 2
    decay_mult: 0
  }
  convolution_param {
    num_output: 32
    pad: 0
    stride: 1
    weight_filler {
      type: "xavier"
    }
    bias_filler {
      type: "constant"
    }
    kernel_h: 3
    kernel_w: 3
  }
}
layer {
  name: "relu12"
  type: "ReLU"
  bottom: "conv12"
  top: "conv12"
}
layer {
  name: "pool1"
  type: "Pooling"
  bottom: "conv12"
  top: "pool1"
  pooling_param {
    pool: MAX
    kernel_size: 2
    stride: 2
  }
}
layer {
  name: "conv21"
  type: "Convolution"
  bottom: "pool1"
  top: "conv21"
  param {
    lr_mult: 1
    decay_mult: 1
  }
  param {
    lr_mult: 2
    decay_mult: 0
  }
  convolution_param {
    num_output: 64
    pad: 0
    stride: 1
    weight_filler {
      type: "xavier"
    }
    bias_filler {
      type: "constant"
    }
    kernel_h: 3
    kernel_w: 3
  }
}
layer {
  name: "relu21"
  type: "ReLU"
  bottom: "conv21"
  top: "conv21"
}
layer {
  name: "conv22"
  type: "Convolution"
  bottom: "conv21"
  top: "conv22"
  param {
    lr_mult: 1
    decay_mult: 1
  }
  param {
    lr_mult: 2
    decay_mult: 0
  }
  convolution_param {
    num_output: 64
    pad: 0
    stride: 1
    weight_filler {
      type: "xavier"
    }
    bias_filler {
      type: "constant"
    }
    kernel_h: 3
    kernel_w: 3
  }
}
layer {
  name: "relu22"
  type: "ReLU"
  bottom: "conv22"
  top: "conv22"
}
layer {
  name: "pool2"
  type: "Pooling"
  bottom: "conv22"
  top: "pool2"
  pooling_param {
    pool: MAX
    kernel_size: 2
    stride: 2
  }
}
layer {
  name: "conv31"
  type: "Convolution"
  bottom: "pool2"
  top: "conv31"
  param {
    lr_mult: 1
    decay_mult: 1
  }
  param {
    lr_mult: 2
    decay_mult: 0
  }
  convolution_param {
    num_output: 128
    pad: 0
    stride: 1
    weight_filler {
      type: "xavier"
    }
    bias_filler {
      type: "constant"
    }
    kernel_h: 3
    kernel_w: 3
  }
}
layer {
  name: "relu31"
  type: "ReLU"
  bottom: "conv31"
  top: "conv31"
}
layer {
  name: "conv32"
  type: "Convolution"
  bottom: "conv31"
  top: "conv32"
  param {
    lr_mult: 1
    decay_mult: 1
  }
  param {
    lr_mult: 2
    decay_mult: 0
  }
  convolution_param {
    num_output: 128
    pad: 0
    stride: 1
    weight_filler {
      type: "xavier"
    }
    bias_filler {
      type: "constant"
    }
    kernel_h: 3
    kernel_w: 3
  }
}
layer {
  name: "relu32"
  type: "ReLU"
  bottom: "conv32"
  top: "conv32"
}
layer {
  name: "pool3"
  type: "Pooling"
  bottom: "conv32"
  top: "pool3"
  pooling_param {
    pool: MAX
    kernel_size: 3
    stride: 3
  }
}
layer {
  name: "conv4"
  type: "Convolution"
  bottom: "pool3"
  top: "conv4"
  param {
    lr_mult: 1
    decay_mult: 1
  }
  param {
    lr_mult: 2
    decay_mult: 0
  }
  convolution_param {
    num_output: 256
    pad: 0
    stride: 1
    weight_filler {
      type: "xavier"
    }
    bias_filler {
      type: "constant"
    }
    kernel_h: 3
    kernel_w: 3
  }
}
layer {
  name: "relu4"
  type: "ReLU"
  bottom: "conv4"
  top: "conv4"
}
layer {
  name: "drop"
  type: "Dropout"
  bottom: "conv4"
  top: "conv4"
  dropout_param {
    dropout_ratio: 0.5
  }
}
layer {
  name: "conv_c"
  type: "Convolution"
  bottom: "conv4"
  top: "conv_c"
  param {
    lr_mult: 1
    decay_mult: 1
  }
  param {
    lr_mult: 2
    decay_mult: 0
  }
  convolution_param {
    num_output: 256
    pad: 0
    stride: 1
    weight_filler {
      type: "xavier"
    }
    bias_filler {
      type: "constant"
    }
    kernel_h: 1
    kernel_w: 1
  }
}
layer {
  name: "loss"
  type: "SoftmaxWithLoss"
  bottom: "conv_c"
  bottom: "label"
  top: "loss"
}
I0728 10:31:47.987407 65336 layer_factory.hpp:76] Creating layer data
I0728 10:31:50.633921 65336 net.cpp:106] Creating Layer data
I0728 10:31:50.633994 65336 net.cpp:411] data -> data
I0728 10:31:50.634027 65336 net.cpp:411] data -> label
I0728 10:32:01.578439 65336 net.cpp:150] Setting up data
I0728 10:32:01.578537 65336 net.cpp:157] Top shape: 128 3 64 64 (1572864)
I0728 10:32:01.578559 65336 net.cpp:157] Top shape: 128 1 1 1 (128)
I0728 10:32:01.578573 65336 net.cpp:165] Memory required for data: 6291968
I0728 10:32:01.578603 65336 layer_factory.hpp:76] Creating layer conv11
I0728 10:32:01.578662 65336 net.cpp:106] Creating Layer conv11
I0728 10:32:01.578677 65336 net.cpp:454] conv11 <- data
I0728 10:32:01.578706 65336 net.cpp:411] conv11 -> conv11
I0728 10:32:01.863445 65336 net.cpp:150] Setting up conv11
I0728 10:32:01.863503 65336 net.cpp:157] Top shape: 128 32 62 62 (15745024)
I0728 10:32:01.863514 65336 net.cpp:165] Memory required for data: 69272064
I0728 10:32:01.863557 65336 layer_factory.hpp:76] Creating layer relu11
I0728 10:32:01.863582 65336 net.cpp:106] Creating Layer relu11
I0728 10:32:01.863593 65336 net.cpp:454] relu11 <- conv11
I0728 10:32:01.863605 65336 net.cpp:397] relu11 -> conv11 (in-place)
I0728 10:32:01.864009 65336 net.cpp:150] Setting up relu11
I0728 10:32:01.864028 65336 net.cpp:157] Top shape: 128 32 62 62 (15745024)
I0728 10:32:01.864037 65336 net.cpp:165] Memory required for data: 132252160
I0728 10:32:01.864048 65336 layer_factory.hpp:76] Creating layer conv12
I0728 10:32:01.864064 65336 net.cpp:106] Creating Layer conv12
I0728 10:32:01.864073 65336 net.cpp:454] conv12 <- conv11
I0728 10:32:01.864086 65336 net.cpp:411] conv12 -> conv12
I0728 10:32:01.871001 65336 net.cpp:150] Setting up conv12
I0728 10:32:01.871042 65336 net.cpp:157] Top shape: 128 32 60 60 (14745600)
I0728 10:32:01.871052 65336 net.cpp:165] Memory required for data: 191234560
I0728 10:32:01.871073 65336 layer_factory.hpp:76] Creating layer relu12
I0728 10:32:01.871090 65336 net.cpp:106] Creating Layer relu12
I0728 10:32:01.871100 65336 net.cpp:454] relu12 <- conv12
I0728 10:32:01.871111 65336 net.cpp:397] relu12 -> conv12 (in-place)
I0728 10:32:01.873191 65336 net.cpp:150] Setting up relu12
I0728 10:32:01.873216 65336 net.cpp:157] Top shape: 128 32 60 60 (14745600)
I0728 10:32:01.873229 65336 net.cpp:165] Memory required for data: 250216960
I0728 10:32:01.873239 65336 layer_factory.hpp:76] Creating layer pool1
I0728 10:32:01.873267 65336 net.cpp:106] Creating Layer pool1
I0728 10:32:01.873278 65336 net.cpp:454] pool1 <- conv12
I0728 10:32:01.873291 65336 net.cpp:411] pool1 -> pool1
I0728 10:32:01.875577 65336 net.cpp:150] Setting up pool1
I0728 10:32:01.875613 65336 net.cpp:157] Top shape: 128 32 30 30 (3686400)
I0728 10:32:01.875623 65336 net.cpp:165] Memory required for data: 264962560
I0728 10:32:01.875633 65336 layer_factory.hpp:76] Creating layer conv21
I0728 10:32:01.875653 65336 net.cpp:106] Creating Layer conv21
I0728 10:32:01.875663 65336 net.cpp:454] conv21 <- pool1
I0728 10:32:01.875674 65336 net.cpp:411] conv21 -> conv21
I0728 10:32:01.881250 65336 net.cpp:150] Setting up conv21
I0728 10:32:01.881306 65336 net.cpp:157] Top shape: 128 64 28 28 (6422528)
I0728 10:32:01.881317 65336 net.cpp:165] Memory required for data: 290652672
I0728 10:32:01.881338 65336 layer_factory.hpp:76] Creating layer relu21
I0728 10:32:01.881371 65336 net.cpp:106] Creating Layer relu21
I0728 10:32:01.881383 65336 net.cpp:454] relu21 <- conv21
I0728 10:32:01.881395 65336 net.cpp:397] relu21 -> conv21 (in-place)
I0728 10:32:01.882534 65336 net.cpp:150] Setting up relu21
I0728 10:32:01.882561 65336 net.cpp:157] Top shape: 128 64 28 28 (6422528)
I0728 10:32:01.882571 65336 net.cpp:165] Memory required for data: 316342784
I0728 10:32:01.882581 65336 layer_factory.hpp:76] Creating layer conv22
I0728 10:32:01.882616 65336 net.cpp:106] Creating Layer conv22
I0728 10:32:01.882634 65336 net.cpp:454] conv22 <- conv21
I0728 10:32:01.882650 65336 net.cpp:411] conv22 -> conv22
I0728 10:32:01.889611 65336 net.cpp:150] Setting up conv22
I0728 10:32:01.889665 65336 net.cpp:157] Top shape: 128 64 26 26 (5537792)
I0728 10:32:01.889677 65336 net.cpp:165] Memory required for data: 338493952
I0728 10:32:01.889693 65336 layer_factory.hpp:76] Creating layer relu22
I0728 10:32:01.889713 65336 net.cpp:106] Creating Layer relu22
I0728 10:32:01.889724 65336 net.cpp:454] relu22 <- conv22
I0728 10:32:01.889736 65336 net.cpp:397] relu22 -> conv22 (in-place)
I0728 10:32:01.891264 65336 net.cpp:150] Setting up relu22
I0728 10:32:01.891299 65336 net.cpp:157] Top shape: 128 64 26 26 (5537792)
I0728 10:32:01.891309 65336 net.cpp:165] Memory required for data: 360645120
I0728 10:32:01.891320 65336 layer_factory.hpp:76] Creating layer pool2
I0728 10:32:01.891338 65336 net.cpp:106] Creating Layer pool2
I0728 10:32:01.891347 65336 net.cpp:454] pool2 <- conv22
I0728 10:32:01.891360 65336 net.cpp:411] pool2 -> pool2
I0728 10:32:01.892781 65336 net.cpp:150] Setting up pool2
I0728 10:32:01.892810 65336 net.cpp:157] Top shape: 128 64 13 13 (1384448)
I0728 10:32:01.892819 65336 net.cpp:165] Memory required for data: 366182912
I0728 10:32:01.892829 65336 layer_factory.hpp:76] Creating layer conv31
I0728 10:32:01.892869 65336 net.cpp:106] Creating Layer conv31
I0728 10:32:01.892881 65336 net.cpp:454] conv31 <- pool2
I0728 10:32:01.892896 65336 net.cpp:411] conv31 -> conv31
I0728 10:32:01.900046 65336 cudnn_conv_layer.cpp:194] Reallocating workspace storage: 6912
I0728 10:32:01.900446 65336 net.cpp:150] Setting up conv31
I0728 10:32:01.900481 65336 net.cpp:157] Top shape: 128 128 11 11 (1982464)
I0728 10:32:01.900499 65336 net.cpp:165] Memory required for data: 374112768
I0728 10:32:01.900532 65336 layer_factory.hpp:76] Creating layer relu31
I0728 10:32:01.900559 65336 net.cpp:106] Creating Layer relu31
I0728 10:32:01.900578 65336 net.cpp:454] relu31 <- conv31
I0728 10:32:01.900602 65336 net.cpp:397] relu31 -> conv31 (in-place)
I0728 10:32:01.902258 65336 net.cpp:150] Setting up relu31
I0728 10:32:01.902288 65336 net.cpp:157] Top shape: 128 128 11 11 (1982464)
I0728 10:32:01.902298 65336 net.cpp:165] Memory required for data: 382042624
I0728 10:32:01.902307 65336 layer_factory.hpp:76] Creating layer conv32
I0728 10:32:01.902326 65336 net.cpp:106] Creating Layer conv32
I0728 10:32:01.902336 65336 net.cpp:454] conv32 <- conv31
I0728 10:32:01.902349 65336 net.cpp:411] conv32 -> conv32
I0728 10:32:01.908726 65336 cudnn_conv_layer.cpp:194] Reallocating workspace storage: 13824
I0728 10:32:01.908787 65336 net.cpp:150] Setting up conv32
I0728 10:32:01.908799 65336 net.cpp:157] Top shape: 128 128 9 9 (1327104)
I0728 10:32:01.908805 65336 net.cpp:165] Memory required for data: 387351040
I0728 10:32:01.908849 65336 layer_factory.hpp:76] Creating layer relu32
I0728 10:32:01.908875 65336 net.cpp:106] Creating Layer relu32
I0728 10:32:01.908885 65336 net.cpp:454] relu32 <- conv32
I0728 10:32:01.908893 65336 net.cpp:397] relu32 -> conv32 (in-place)
I0728 10:32:01.909832 65336 net.cpp:150] Setting up relu32
I0728 10:32:01.909849 65336 net.cpp:157] Top shape: 128 128 9 9 (1327104)
I0728 10:32:01.909855 65336 net.cpp:165] Memory required for data: 392659456
I0728 10:32:01.909862 65336 layer_factory.hpp:76] Creating layer pool3
I0728 10:32:01.909883 65336 net.cpp:106] Creating Layer pool3
I0728 10:32:01.909888 65336 net.cpp:454] pool3 <- conv32
I0728 10:32:01.909895 65336 net.cpp:411] pool3 -> pool3
I0728 10:32:01.912410 65336 net.cpp:150] Setting up pool3
I0728 10:32:01.912446 65336 net.cpp:157] Top shape: 128 128 3 3 (147456)
I0728 10:32:01.912451 65336 net.cpp:165] Memory required for data: 393249280
I0728 10:32:01.912459 65336 layer_factory.hpp:76] Creating layer conv4
I0728 10:32:01.912490 65336 net.cpp:106] Creating Layer conv4
I0728 10:32:01.912497 65336 net.cpp:454] conv4 <- pool3
I0728 10:32:01.912508 65336 net.cpp:411] conv4 -> conv4
I0728 10:32:01.921607 65336 cudnn_conv_layer.cpp:194] Reallocating workspace storage: 1769472
I0728 10:32:01.921973 65336 net.cpp:150] Setting up conv4
I0728 10:32:01.922000 65336 net.cpp:157] Top shape: 128 256 1 1 (32768)
I0728 10:32:01.922011 65336 net.cpp:165] Memory required for data: 393380352
I0728 10:32:01.922032 65336 layer_factory.hpp:76] Creating layer relu4
I0728 10:32:01.922050 65336 net.cpp:106] Creating Layer relu4
I0728 10:32:01.922061 65336 net.cpp:454] relu4 <- conv4
I0728 10:32:01.922080 65336 net.cpp:397] relu4 -> conv4 (in-place)
I0728 10:32:01.922574 65336 net.cpp:150] Setting up relu4
I0728 10:32:01.922596 65336 net.cpp:157] Top shape: 128 256 1 1 (32768)
I0728 10:32:01.922608 65336 net.cpp:165] Memory required for data: 393511424
I0728 10:32:01.922617 65336 layer_factory.hpp:76] Creating layer drop
I0728 10:32:01.922662 65336 net.cpp:106] Creating Layer drop
I0728 10:32:01.922673 65336 net.cpp:454] drop <- conv4
I0728 10:32:01.922693 65336 net.cpp:397] drop -> conv4 (in-place)
I0728 10:32:01.922737 65336 net.cpp:150] Setting up drop
I0728 10:32:01.922760 65336 net.cpp:157] Top shape: 128 256 1 1 (32768)
I0728 10:32:01.922775 65336 net.cpp:165] Memory required for data: 393642496
I0728 10:32:01.922817 65336 layer_factory.hpp:76] Creating layer conv_c
I0728 10:32:01.922848 65336 net.cpp:106] Creating Layer conv_c
I0728 10:32:01.922855 65336 net.cpp:454] conv_c <- conv4
I0728 10:32:01.922871 65336 net.cpp:411] conv_c -> conv_c
I0728 10:32:01.930378 65336 cudnn_conv_layer.cpp:194] Reallocating workspace storage: 3072
I0728 10:32:01.930586 65336 net.cpp:150] Setting up conv_c
I0728 10:32:01.930603 65336 net.cpp:157] Top shape: 128 256 1 1 (32768)
I0728 10:32:01.930608 65336 net.cpp:165] Memory required for data: 393773568
I0728 10:32:01.930619 65336 layer_factory.hpp:76] Creating layer loss
I0728 10:32:01.930644 65336 net.cpp:106] Creating Layer loss
I0728 10:32:01.930650 65336 net.cpp:454] loss <- conv_c
I0728 10:32:01.930658 65336 net.cpp:454] loss <- label
I0728 10:32:01.930671 65336 net.cpp:411] loss -> loss
I0728 10:32:01.930690 65336 layer_factory.hpp:76] Creating layer loss
…
  type: "Python"
  top: "data"
  top: "label"
  include {
    phase: TEST
  }
  python_param {
    module: "mask_image_layer"
    layer: "random_patches_from_images_withlabel"
    param_str: "{\'root_folder\': \'/home/dywang/Proliferation/data/mitoses\', \'image_list\': \'/home/dywang/00exp_wdy/stage04_mitosisDetection/step02_train_mitosis_detecotor/heatmap_mc13_tr/all_image_withlabel_mc13_tr.lst\', \'seed\': 8899, \'mean\': (128, 128, 128), \'size\': 64, \'batch\': 128, \'scale\':0.1, \'colorn\':20, \'classes\':\'1:0 2:1 3:0\', \'DEBUG\': True}"
  }
}
layer {
  name: "conv11"
  type: "Convolution"
  bottom: "data"
  top: "conv11"
  param {
    lr_mult: 1
    decay_mult: 1
  }
  param {
    lr_mult: 2
    decay_mult: 0
  }
  convolution_param {
    num_output: 32
    pad: 0
    stride: 1
    weight_filler {
      type: "xavier"
    }
    bias_filler {
      type: "constant"
    }
    kernel_h: 3
    kernel_w: 3
  }
}
layer {
  name: "relu11"
  type: "ReLU"
  bottom: "conv11"
  top: "conv11"
}
layer {
  name: "conv12"
  type: "Convolution"
  bottom: "conv11"
  top: "conv12"
  param {
    lr_mult: 1
    decay_mult: 1
  }
  param {
    lr_mult: 2
    decay_mult: 0
  }
  convolution_param {
    num_output: 32
    pad: 0
    stride: 1
    weight_filler {
      type: "xavier"
    }
    bias_filler {
      type: "constant"
    }
    kernel_h: 3
    kernel_w: 3
  }
}
layer {
  name: "relu12"
  type: "ReLU"
  bottom: "conv12"
  top: "conv12"
}
layer {
  name: "pool1"
  type: "Pooling"
  bottom: "conv12"
  top: "pool1"
  pooling_param {
    pool: MAX
    kernel_size: 2
    stride: 2
  }
}
layer {
  name: "conv21"
  type: "Convolution"
  bottom: "pool1"
  top: "conv21"
  param {
    lr_mult: 1
    decay_mult: 1
  }
  param {
    lr_mult: 2
    decay_mult: 0
  }
  convolution_param {
    num_output: 64
    pad: 0
    stride: 1
    weight_filler {
      type: "xavier"
    }
    bias_filler {
      type: "constant"
    }
    kernel_h: 3
    kernel_w: 3
  }
}
layer {
  name: "relu21"
  type: "ReLU"
  bottom: "conv21"
  top: "conv21"
}
layer {
  name: "conv22"
  type: "Convolution"
  bottom: "conv21"
  top: "conv22"
  param {
    lr_mult: 1
    decay_mult: 1
  }
  param {
    lr_mult: 2
    decay_mult: 0
  }
  convolution_param {
    num_output: 64
    pad: 0
    stride: 1
    weight_filler {
      type: "xavier"
    }
    bias_filler {
      type: "constant"
    }
    kernel_h: 3
    kernel_w: 3
  }
}
layer {
  name: "relu22"
  type: "ReLU"
  bottom: "conv22"
  top: "conv22"
}
layer {
  name: "pool2"
  type: "Pooling"
  bottom: "conv22"
  top: "pool2"
  pooling_param {
    pool: MAX
    kernel_size: 2
    stride: 2
  }
}
layer {
  name: "conv31"
  type: "Convolution"
  bottom: "pool2"
  top: "conv31"
  param {
    lr_mult: 1
    decay_mult: 1
  }
  param {
    lr_mult: 2
    decay_mult: 0
  }
  convolution_param {
    num_output: 128
    pad: 0
    stride: 1
    weight_filler {
      type: "xavier"
    }
    bias_filler {
      type: "constant"
    }
    kernel_h: 3
    kernel_w: 3
  }
}
layer {
  name: "relu31"
  type: "ReLU"
  bottom: "conv31"
  top: "conv31"
}
layer {
  name: "conv32"
  type: "Convolution"
  bottom: "conv31"
  top: "conv32"
  param {
    lr_mult: 1
    decay_mult: 1
  }
  param {
    lr_mult: 2
    decay_mult: 0
  }
  convolution_param {
    num_output: 128
    pad: 0
    stride: 1
    weight_filler {
      type: "xavier"
    }
    bias_filler {
      type: "constant"
    }
    kernel_h: 3
    kernel_w: 3
  }
}
layer {
  name: "relu32"
  type: "ReLU"
  bottom: "conv32"
  top: "conv32"
}
layer {
  name: "pool3"
  type: "Pooling"
  bottom: "conv32"
  top: "pool3"
  pooling_param {
    pool: MAX
    kernel_size: 3
    stride: 3
  }
}
layer {
  name: "conv4"
  type: "Convolution"
  bottom: "pool3"
  top: "conv4"
  param {
    lr_mult: 1
    decay_mult: 1
  }
  param {
    lr_mult: 2
    decay_mult: 0
  }
  convolution_param {
    num_output: 256
    pad: 0
    stride: 1
    weight_filler {
      type: "xavier"
    }
    bias_filler {
      type: "constant"
    }
    kernel_h: 3
    kernel_w: 3
  }
}
layer {
  name: "relu4"
  type: "ReLU"
  bottom: "conv4"
  top: "conv4"
}
layer {
  name: "drop"
  type: "Dropout"
  bottom: "conv4"
  top: "conv4"
  dropout_param {
    dropout_ratio: 0.5
  }
}
layer {
  name: "conv_c"
  type: "Convolution"
  bottom: "conv4"
  top: "conv_c"
  param {
    lr_mult: 1
    decay_mult: 1
  }
  param {
    lr_mult: 2
    decay_mult: 0
  }
  convolution_param {
    num_output: 256
    pad: 0
    stride: 1
    weight_filler {
      type: "xavier"
    }
    bias_filler {
      type: "constant"
    }
    kernel_h: 1
    kernel_w: 1
  }
}
layer {
  name: "accuracy"
  type: "Accuracy"
  bottom: "conv_c"
  bottom: "label"
  top: "accuracy"
  include {
    phase: TEST
  }
}
layer {
  name: "loss"
  type: "SoftmaxWithLoss"
  bottom: "conv_c"
  bottom: "label"
  top: "loss"
}
I0728 10:32:01.935108 65336 layer_factory.hpp:76] Creating layer data
I0728 10:32:01.935223 65336 net.cpp:106] Creating Layer data
I0728 10:32:01.935235 65336 net.cpp:411] data -> data
I0728 10:32:01.935248 65336 net.cpp:411] data -> label
I0728 10:32:09.103513 65336 net.cpp:150] Setting up data
I0728 10:32:09.103576 65336 net.cpp:157] Top shape: 128 3 64 64 (1572864)
I0728 10:32:09.103590 65336 net.cpp:157] Top shape: 128 1 1 1 (128)
I0728 10:32:09.103600 65336 net.cpp:165] Memory required for data: 6291968
I0728 10:32:09.103612 65336 layer_factory.hpp:76] Creating layer label_data_1_split
I0728 10:32:09.103647 65336 net.cpp:106] Creating Layer label_data_1_split
I0728 10:32:09.103657 65336 net.cpp:454] label_data_1_split <- label
I0728 10:32:09.103672 65336 net.cpp:411] label_data_1_split -> label_data_1_split_0
I0728 10:32:09.103688 65336 net.cpp:411] label_data_1_split -> label_data_1_split_1
I0728 10:32:09.103740 65336 net.cpp:150] Setting up label_data_1_split
I0728 10:32:09.103754 65336 net.cpp:157] Top shape: 128 1 1 1 (128)
I0728 10:32:09.103763 65336 net.cpp:157] Top shape: 128 1 1 1 (128)
I0728 10:32:09.103771 65336 net.cpp:165] Memory required for data: 6292992
I0728 10:32:09.103780 65336 layer_factory.hpp:76] Creating layer conv11
I0728 10:32:09.103803 65336 net.cpp:106] Creating Layer conv11
I0728 10:32:09.103812 65336 net.cpp:454] conv11 <- data
I0728 10:32:09.103824 65336 net.cpp:411] conv11 -> conv11
I0728 10:32:09.109561 65336 net.cpp:150] Setting up conv11
I0728 10:32:09.109586 65336 net.cpp:157] Top shape: 128 32 62 62 (15745024)
I0728 10:32:09.109596 65336 net.cpp:165] Memory required for data: 69273088
I0728 10:32:09.109612 65336 layer_factory.hpp:76] Creating layer relu11
I0728 10:32:09.109663 65336 net.cpp:106] Creating Layer relu11
I0728 10:32:09.109673 65336 net.cpp:454] relu11 <- conv11
I0728 10:32:09.109683 65336 net.cpp:397] relu11 -> conv11 (in-place)
I0728 10:32:09.112480 65336 net.cpp:150] Setting up relu11
I0728 10:32:09.112504 65336 net.cpp:157] Top shape: 128 32 62 62 (15745024)
I0728 10:32:09.112512 65336 net.cpp:165] Memory required for data: 132253184
I0728 10:32:09.112520 65336 layer_factory.hpp:76] Creating layer conv12
I0728 10:32:09.112540 65336 net.cpp:106] Creating Layer conv12
I0728 10:32:09.112548 65336 net.cpp:454] conv12 <- conv11
I0728 10:32:09.112561 65336 net.cpp:411] conv12 -> conv12
I0728 10:32:09.119390 65336 net.cpp:150] Setting up conv12
I0728 10:32:09.119413 65336 net.cpp:157] Top shape: 128 32 60 60 (14745600)
I0728 10:32:09.119422 65336 net.cpp:165] Memory required for data: 191235584
I0728 10:32:09.119436 65336 layer_factory.hpp:76] Creating layer relu12
I0728 10:32:09.119449 65336 net.cpp:106] Creating Layer relu12
I0728 10:32:09.119458 65336 net.cpp:454] relu12 <- conv12
I0728 10:32:09.119469 65336 net.cpp:397] relu12 -> conv12 (in-place)
I0728 10:32:09.121533 65336 net.cpp:150] Setting up relu12
I0728 10:32:09.121554 65336 net.cpp:157] Top shape: 128 32 60 60 (14745600)
I0728 10:32:09.121563 65336 net.cpp:165] Memory required for data: 250217984
I0728 10:32:09.121572 65336 layer_factory.hpp:76] Creating layer pool1
I0728 10:32:09.121587 65336 net.cpp:106] Creating Layer pool1
I0728 10:32:09.121595 65336 net.cpp:454] pool1 <- conv12
I0728 10:32:09.121605 65336 net.cpp:411] pool1 -> pool1
I0728 10:32:09.130204 65336 net.cpp:150] Setting up pool1
I0728 10:32:09.130223 65336 net.cpp:157] Top shape: 128 32 30 30 (3686400)
I0728 10:32:09.130231 65336 net.cpp:165] Memory required for data: 264963584
I0728 10:32:09.130241 65336 layer_factory.hpp:76] Creating layer conv21
I0728 10:32:09.130257 65336 net.cpp:106] Creating Layer conv21
I0728 10:32:09.130266 65336 net.cpp:454] conv21 <- pool1
I0728 10:32:09.130280 65336 net.cpp:411] conv21 -> conv21
I0728 10:32:09.136643 65336 net.cpp:150] Setting up conv21
I0728 10:32:09.136667 65336 net.cpp:157] Top shape: 128 64 28 28 (6422528)
I0728 10:32:09.136675 65336 net.cpp:165] Memory required for data: 290653696
I0728 10:32:09.136690 65336 layer_factory.hpp:76] Creating layer relu21
I0728 10:32:09.136704 65336 net.cpp:106] Creating Layer relu21
I0728 10:32:09.136713 65336 net.cpp:454] relu21 <- conv21
I0728 10:32:09.136725 65336 net.cpp:397] relu21 -> conv21 (in-place)
I0728 10:32:09.137048 65336 net.cpp:150] Setting up relu21
I0728 10:32:09.137068 65336 net.cpp:157] Top shape: 128 64 28 28 (6422528)
I0728 10:32:09.137078 65336 net.cpp:165] Memory required for data: 316343808
I0728 10:32:09.137086 65336 layer_factory.hpp:76] Creating layer conv22
I0728 10:32:09.137104 65336 net.cpp:106] Creating Layer conv22
I0728 10:32:09.137112 65336 net.cpp:454] conv22 <- conv21
I0728 10:32:09.137126 65336 net.cpp:411] conv22 -> conv22
I0728 10:32:09.138460 65336 net.cpp:150] Setting up conv22
I0728 10:32:09.138505 65336 net.cpp:157] Top shape: 128 64 26 26 (5537792)
I0728 10:32:09.138515 65336 net.cpp:165] Memory required for data: 338494976
I0728 10:32:09.138530 65336 layer_factory.hpp:76] Creating layer relu22
I0728 10:32:09.138545 65336 net.cpp:106] Creating Layer relu22
I0728 10:32:09.138555 65336 net.cpp:454] relu22 <- conv22
I0728 10:32:09.138567 65336 net.cpp:397] relu22 -> conv22 (in-place)
I0728 10:32:09.138756 65336 net.cpp:150] Setting up relu22
I0728 10:32:09.138774 65336 net.cpp:157] Top shape: 128 64 26 26 (5537792)
I0728 10:32:09.138783 65336 net.cpp:165] Memory required for data: 360646144
I0728 10:32:09.138792 65336 layer_factory.hpp:76] Creating layer pool2
I0728 10:32:09.138805 65336 net.cpp:106] Creating Layer pool2
I0728 10:32:09.138814 65336 net.cpp:454] pool2 <- conv22
I0728 10:32:09.138824 65336 net.cpp:411] pool2 -> pool2
I0728 10:32:09.139189 65336 net.cpp:150] Setting up pool2
I0728 10:32:09.139211 65336 net.cpp:157] Top shape: 128 64 13 13 (1384448)
I0728 10:32:09.139220 65336 net.cpp:165] Memory required for data: 366183936
I0728 10:32:09.139264 65336 layer_factory.hpp:76] Creating layer conv31
I0728 10:32:09.139284 65336 net.cpp:106] Creating Layer conv31
I0728 10:32:09.139295 65336 net.cpp:454] conv31 <- pool2
I0728 10:32:09.139308 65336 net.cpp:411] conv31 -> conv31
I0728 10:32:09.141449 65336 cudnn_conv_layer.cpp:194] Reallocating workspace storage: 6912
I0728 10:32:09.141585 65336 net.cpp:150] Setting up conv31
I0728 10:32:09.141604 65336 net.cpp:157] Top shape: 128 128 11 11 (1982464)
I0728 10:32:09.141614 65336 net.cpp:165] Memory required for data: 374113792
I0728 10:32:09.141638 65336 layer_factory.hpp:76] Creating layer relu31
I0728 10:32:09.141664 65336 net.cpp:106] Creating Layer relu31
I0728 10:32:09.141679 65336 net.cpp:454] relu31 <- conv31
I0728 10:32:09.141691 65336 net.cpp:397] relu31 -> conv31 (in-place)
I0728 10:32:09.142026 65336 net.cpp:150] Setting up relu31
I0728 10:32:09.142048 65336 net.cpp:157] Top shape: 128 128 11 11 (1982464)
I0728 10:32:09.142057 65336 net.cpp:165] Memory required for data: 382043648
I0728 10:32:09.142066 65336 layer_factory.hpp:76] Creating layer conv32
I0728 10:32:09.142086 65336 net.cpp:106] Creating Layer conv32
I0728 10:32:09.142096 65336 net.cpp:454] conv32 <- conv31
I0728 10:32:09.142109 65336 net.cpp:411] conv32 -> conv32
I0728 10:32:09.144412 65336 cudnn_conv_layer.cpp:194] Reallocating workspace storage: 13824
I0728 10:32:09.144484 65336 net.cpp:150] Setting up conv32
I0728 10:32:09.144502 65336 net.cpp:157] Top shape: 128 128 9 9 (1327104)
I0728 10:32:09.144512 65336 net.cpp:165] Memory required for data: 387352064
I0728 10:32:09.144527 65336 layer_factory.hpp:76] Creating layer relu32
I0728 10:32:09.144542 65336 net.cpp:106] Creating Layer relu32
I0728 10:32:09.144553 65336 net.cpp:454] relu32 <- conv32
I0728 10:32:09.144564 65336 net.cpp:397] relu32 -> conv32 (in-place)
I0728 10:32:09.144742 65336 net.cpp:150] Setting up relu32
I0728 10:32:09.144759 65336 net.cpp:157] Top shape: 128 128 9 9 (1327104)
I0728 10:32:09.144768 65336 net.cpp:165] Memory required for data: 392660480
I0728 10:32:09.144781 65336 layer_factory.hpp:76] Creating layer pool3
I0728 10:32:09.144798 65336 net.cpp:106] Creating Layer pool3
I0728 10:32:09.144809 65336 net.cpp:454] pool3 <- conv32
I0728 10:32:09.144819 65336 net.cpp:411] pool3 -> pool3
I0728 10:32:09.145225 65336 net.cpp:150] Setting up pool3
I0728 10:32:09.145246 65336 net.cpp:157] Top shape: 128 128 3 3 (147456)
I0728 10:32:09.145256 65336 net.cpp:165] Memory required for data: 393250304
I0728 10:32:09.145264 65336 layer_factory.hpp:76] Creating layer conv4
I0728 10:32:09.145280 65336 net.cpp:106] Creating Layer conv4
I0728 10:32:09.145290 65336 net.cpp:454] conv4 <- pool3
I0728 10:32:09.145303 65336 net.cpp:411] conv4 -> conv4
I0728 10:32:09.151160 65336 cudnn_conv_layer.cpp:194] Reallocating workspace storage: 1769472
I0728 10:32:09.151374 65336 net.cpp:150] Setting up conv4
I0728 10:32:09.151396 65336 net.cpp:157] Top shape: 128 256 1 1 (32768)
I0728 10:32:09.151404 65336 net.cpp:165] Memory required for data: 393381376
I0728 10:32:09.151417 65336 layer_factory.hpp:76] Creating layer relu4
I0728 10:32:09.151432 65336 net.cpp:106] Creating Layer relu4
I0728 10:32:09.151442 65336 net.cpp:454] relu4 <- conv4
I0728 10:32:09.151453 65336 net.cpp:397] relu4 -> conv4 (in-place)
I0728 10:32:09.153370 65336 net.cpp:150] Setting up relu4
I0728 10:32:09.153389 65336 net.cpp:157] Top shape: 128 256 1 1 (32768)
I0728 10:32:09.153398 65336 net.cpp:165] Memory required for data: 393512448
I0728 10:32:09.153408 65336 layer_factory.hpp:76] Creating layer drop
I0728 10:32:09.153421 65336 net.cpp:106] Creating Layer drop
I0728 10:32:09.153430 65336 net.cpp:454] drop <- conv4
I0728 10:32:09.153442 65336 net.cpp:397] drop -> conv4 (in-place)
I0728 10:32:09.153477 65336 net.cpp:150] Setting up drop
I0728 10:32:09.153492 65336 net.cpp:157] Top shape: 128 256 1 1 (32768)
I0728 10:32:09.153504 65336 net.cpp:165] Memory required for data: 393643520
I0728 10:32:09.153513 65336 layer_factory.hpp:76] Creating layer conv_c
I0728 10:32:09.153563 65336 net.cpp:106] Creating Layer conv_c
I0728 10:32:09.153575 65336 net.cpp:454] conv_c <- conv4
I0728 10:32:09.153589 65336 net.cpp:411] conv_c -> conv_c
I0728 10:32:09.160382 65336 cudnn_conv_layer.cpp:194] Reallocating workspace storage: 3072
I0728 10:32:09.160419 65336 net.cpp:150] Setting up conv_c
I0728 10:32:09.160434 65336 net.cpp:157] Top shape: 128 256 1 1 (32768)
I0728 10:32:09.160442 65336 net.cpp:165] Memory required for data: 393774592
I0728 10:32:09.160454 65336 layer_factory.hpp:76] Creating layer conv_c_conv_c_0_split
I0728 10:32:09.160470 65336 net.cpp:106] Creating Layer conv_c_conv_c_0_split
I0728 10:32:09.160482 65336 net.cpp:454] conv_c_conv_c_0_split <- conv_c
I0728 10:32:09.160493 65336 net.cpp:411] conv_c_conv_c_0_split -> conv_c_conv_c_0_split_0
I0728 10:32:09.160507 65336 net.cpp:411] conv_c_conv_c_0_split -> conv_c_conv_c_0_split_1
I0728 10:32:09.160560 65336 net.cpp:150] Setting up conv_c_conv_c_0_split
I0728 10:32:09.160575 65336 net.cpp:157] Top shape: 128 256 1 1 (32768)
I0728 10:32:09.160591 65336 net.cpp:157] Top shape: 128 256 1 1 (32768)
I0728 10:32:09.160599 65336 net.cpp:165] Memory required for data: 394036736
I0728 10:32:09.160609 65336 layer_factory.hpp:76] Creating layer accuracy
I0728 10:32:09.160630 65336 net.cpp:106] Creating Layer accuracy
I0728 10:32:09.160641 65336 net.cpp:454] accuracy <- conv_c_conv_c_0_split_0
I0728 10:32:09.160651 65336 net.cpp:454] accuracy <- label_data_1_split_0
I0728 10:32:09.160662 65336 net.cpp:411] accuracy -> accuracy
…
