…
I0705 16:41:46.705768 51079 net.cpp:322] The NetState phase (0) differed from the phase (1) specified by a rule in layer data
I0705 16:41:46.705968 51079 net.cpp:49] Initializing net from parameters: 
name: "FaceNN"
state {
  phase: TRAIN
}
layer {
  name: "data"
  type: "ImageData"
  top: "data"
  top: "label"
  include {
    phase: TRAIN
  }
  transform_param {
    mirror: true
    crop_size: 100
    mean_value: 104
    mean_value: 117
    mean_value: 123
  }
  image_data_param {
    source: "../lists/roi-train-L0.lst"
    batch_size: 256
    shuffle: true
    new_height: 110
    new_width: 110
  }
}
layer {
  name: "conv11"
  type: "Convolution"
  bottom: "data"
  top: "conv11"
  param {
    lr_mult: 1
    decay_mult: 1
  }
  param {
    lr_mult: 2
    decay_mult: 0
  }
  convolution_param {
    num_output: 32
    pad: 1
    stride: 1
    weight_filler {
      type: "xavier"
    }
    bias_filler {
      type: "constant"
    }
    kernel_h: 3
    kernel_w: 3
  }
}
layer {
  name: "relu11"
  type: "ReLU"
  bottom: "conv11"
  top: "conv11"
}
layer {
  name: "conv12"
  type: "Convolution"
  bottom: "conv11"
  top: "conv12"
  param {
    lr_mult: 1
    decay_mult: 1
  }
  param {
    lr_mult: 2
    decay_mult: 0
  }
  convolution_param {
    num_output: 32
    pad: 1
    stride: 1
    weight_filler {
      type: "xavier"
    }
    bias_filler {
      type: "constant"
    }
    kernel_h: 3
    kernel_w: 3
  }
}
layer {
  name: "relu12"
  type: "ReLU"
  bottom: "conv12"
  top: "conv12"
}
layer {
  name: "pool1"
  type: "Pooling"
  bottom: "conv12"
  top: "pool1"
  pooling_param {
    pool: MAX
    kernel_size: 2
    stride: 2
  }
}
layer {
  name: "conv21"
  type: "Convolution"
  bottom: "pool1"
  top: "conv21"
  param {
    lr_mult: 1
    decay_mult: 1
  }
  param {
    lr_mult: 2
    decay_mult: 0
  }
  convolution_param {
    num_output: 64
    pad: 1
    stride: 1
    weight_filler {
      type: "xavier"
    }
    bias_filler {
      type: "constant"
    }
    kernel_h: 3
    kernel_w: 3
  }
}
layer {
  name: "relu21"
  type: "ReLU"
  bottom: "conv21"
  top: "conv21"
}
layer {
  name: "conv22"
  type: "Convolution"
  bottom: "conv21"
  top: "conv22"
  param {
    lr_mult: 1
    decay_mult: 1
  }
  param {
    lr_mult: 2
    decay_mult: 0
  }
  convolution_param {
    num_output: 64
    pad: 1
    stride: 1
    weight_filler {
      type: "xavier"
    }
    bias_filler {
      type: "constant"
    }
    kernel_h: 3
    kernel_w: 3
  }
}
layer {
  name: "relu22"
  type: "ReLU"
  bottom: "conv22"
  top: "conv22"
}
layer {
  name: "pool2"
  type: "Pooling"
  bottom: "conv22"
  top: "pool2"
  pooling_param {
    pool: MAX
    kernel_size: 2
    stride: 2
  }
}
layer {
  name: "conv31"
  type: "Convolution"
  bottom: "pool2"
  top: "conv31"
  param {
    lr_mult: 1
    decay_mult: 1
  }
  param {
    lr_mult: 2
    decay_mult: 0
  }
  convolution_param {
    num_output: 96
    pad: 1
    stride: 1
    weight_filler {
      type: "xavier"
    }
    bias_filler {
      type: "constant"
    }
    kernel_h: 3
    kernel_w: 3
  }
}
layer {
  name: "relu31"
  type: "ReLU"
  bottom: "conv31"
  top: "conv31"
}
layer {
  name: "conv32"
  type: "Convolution"
  bottom: "conv31"
  top: "conv32"
  param {
    lr_mult: 1
    decay_mult: 1
  }
  param {
    lr_mult: 2
    decay_mult: 0
  }
  convolution_param {
    num_output: 96
    pad: 1
    stride: 1
    weight_filler {
      type: "xavier"
    }
    bias_filler {
      type: "constant"
    }
    kernel_h: 3
    kernel_w: 3
  }
}
layer {
  name: "relu32"
  type: "ReLU"
  bottom: "conv32"
  top: "conv32"
}
layer {
  name: "pool3"
  type: "Pooling"
  bottom: "conv32"
  top: "pool3"
  pooling_param {
    pool: MAX
    kernel_size: 2
    stride: 2
  }
}
layer {
  name: "conv41"
  type: "Convolution"
  bottom: "pool3"
  top: "conv41"
  param {
    lr_mult: 1
    decay_mult: 1
  }
  param {
    lr_mult: 2
    decay_mult: 0
  }
  convolution_param {
    num_output: 128
    pad: 1
    stride: 1
    weight_filler {
      type: "xavier"
    }
    bias_filler {
      type: "constant"
    }
    kernel_h: 3
    kernel_w: 3
  }
}
layer {
  name: "relu41"
  type: "ReLU"
  bottom: "conv41"
  top: "conv41"
}
layer {
  name: "conv42"
  type: "Convolution"
  bottom: "conv41"
  top: "conv42"
  param {
    lr_mult: 1
    decay_mult: 1
  }
  param {
    lr_mult: 2
    decay_mult: 0
  }
  convolution_param {
    num_output: 128
    pad: 1
    stride: 1
    weight_filler {
      type: "xavier"
    }
    bias_filler {
      type: "constant"
    }
    kernel_h: 3
    kernel_w: 3
  }
}
layer {
  name: "relu42"
  type: "ReLU"
  bottom: "conv42"
  top: "conv42"
}
layer {
  name: "pool4"
  type: "Pooling"
  bottom: "conv42"
  top: "pool4"
  pooling_param {
    pool: MAX
    kernel_size: 2
    stride: 2
  }
}
layer {
  name: "conv51"
  type: "Convolution"
  bottom: "pool4"
  top: "conv51"
  param {
    lr_mult: 1
    decay_mult: 1
  }
  param {
    lr_mult: 2
    decay_mult: 0
  }
  convolution_param {
    num_output: 256
    pad: 1
    stride: 1
    weight_filler {
      type: "xavier"
    }
    bias_filler {
      type: "constant"
    }
    kernel_h: 3
    kernel_w: 3
  }
}
layer {
  name: "relu51"
  type: "ReLU"
  bottom: "conv51"
  top: "conv51"
}
layer {
  name: "conv52"
  type: "Convolution"
  bottom: "conv51"
  top: "conv52"
  param {
    lr_mult: 1
    decay_mult: 1
  }
  param {
    lr_mult: 2
    decay_mult: 0
  }
  convolution_param {
    num_output: 256
    pad: 1
    stride: 1
    weight_filler {
      type: "xavier"
    }
    bias_filler {
      type: "constant"
    }
    kernel_h: 3
    kernel_w: 3
  }
}
layer {
  name: "relu52"
  type: "ReLU"
  bottom: "conv52"
  top: "conv52"
}
layer {
  name: "conv53"
  type: "Convolution"
  bottom: "conv52"
  top: "conv53"
  param {
    lr_mult: 1
    decay_mult: 1
  }
  param {
    lr_mult: 2
    decay_mult: 0
  }
  convolution_param {
    num_output: 256
    stride: 1
    weight_filler {
      type: "xavier"
    }
    bias_filler {
      type: "constant"
    }
    kernel_h: 7
    kernel_w: 7
  }
}
layer {
  name: "relu53"
  type: "ReLU"
  bottom: "conv53"
  top: "conv53"
}
layer {
  name: "drop6"
  type: "Dropout"
  bottom: "conv53"
  top: "drop6"
  dropout_param {
    dropout_ratio: 0.4
  }
}
layer {
  name: "conv54"
  type: "Convolution"
  bottom: "drop6"
  top: "conv54"
  param {
    lr_mult: 1
    decay_mult: 1
  }
  param {
    lr_mult: 2
    decay_mult: 0
  }
  convolution_param {
    num_output: 2
    stride: 1
    weight_filler {
      type: "xavier"
    }
    bias_filler {
      type: "constant"
    }
    kernel_h: 1
    kernel_w: 1
  }
}
layer {
  name: "accuracy"
  type: "Accuracy"
  bottom: "conv54"
  bottom: "label"
  top: "accuracy"
}
layer {
  name: "loss"
  type: "SoftmaxWithLoss"
  bottom: "conv54"
  bottom: "label"
  top: "loss"
}
I0705 16:41:46.707808 51079 layer_factory.hpp:76] Creating layer data
I0705 16:41:46.707857 51079 net.cpp:106] Creating Layer data
I0705 16:41:46.707888 51079 net.cpp:411] data -> data
I0705 16:41:46.707921 51079 net.cpp:411] data -> label
I0705 16:41:46.708354 51079 image_data_layer.cpp:36] Opening file ../lists/roi-train-L0.lst
I0705 16:41:46.837932 51079 image_data_layer.cpp:46] Shuffling data
I0705 16:41:46.895491 51079 image_data_layer.cpp:51] A total of 211680 images.
I0705 16:41:46.906935 51079 image_data_layer.cpp:78] output data size: 256,3,100,100
I0705 16:41:46.967767 51079 net.cpp:150] Setting up data
I0705 16:41:46.967887 51079 net.cpp:157] Top shape: 256 3 100 100 (7680000)
I0705 16:41:46.967901 51079 net.cpp:157] Top shape: 256 (256)
I0705 16:41:46.967910 51079 net.cpp:165] Memory required for data: 30721024
I0705 16:41:46.967928 51079 layer_factory.hpp:76] Creating layer label_data_1_split
I0705 16:41:46.967957 51079 net.cpp:106] Creating Layer label_data_1_split
I0705 16:41:46.967969 51079 net.cpp:454] label_data_1_split <- label
I0705 16:41:46.967996 51079 net.cpp:411] label_data_1_split -> label_data_1_split_0
I0705 16:41:46.968015 51079 net.cpp:411] label_data_1_split -> label_data_1_split_1
I0705 16:41:46.968098 51079 net.cpp:150] Setting up label_data_1_split
I0705 16:41:46.968113 51079 net.cpp:157] Top shape: 256 (256)
I0705 16:41:46.968123 51079 net.cpp:157] Top shape: 256 (256)
I0705 16:41:46.968130 51079 net.cpp:165] Memory required for data: 30723072
I0705 16:41:46.968139 51079 layer_factory.hpp:76] Creating layer conv11
I0705 16:41:46.968163 51079 net.cpp:106] Creating Layer conv11
I0705 16:41:46.968173 51079 net.cpp:454] conv11 <- data
I0705 16:41:46.968183 51079 net.cpp:411] conv11 -> conv11
I0705 16:41:47.112880 51079 net.cpp:150] Setting up conv11
I0705 16:41:47.112951 51079 net.cpp:157] Top shape: 256 32 100 100 (81920000)
I0705 16:41:47.112962 51079 net.cpp:165] Memory required for data: 358403072
I0705 16:41:47.112994 51079 layer_factory.hpp:76] Creating layer relu11
I0705 16:41:47.113019 51079 net.cpp:106] Creating Layer relu11
I0705 16:41:47.113032 51079 net.cpp:454] relu11 <- conv11
I0705 16:41:47.113044 51079 net.cpp:397] relu11 -> conv11 (in-place)
I0705 16:41:47.113270 51079 net.cpp:150] Setting up relu11
I0705 16:41:47.113297 51079 net.cpp:157] Top shape: 256 32 100 100 (81920000)
I0705 16:41:47.113306 51079 net.cpp:165] Memory required for data: 686083072
I0705 16:41:47.113314 51079 layer_factory.hpp:76] Creating layer conv12
I0705 16:41:47.113339 51079 net.cpp:106] Creating Layer conv12
I0705 16:41:47.113348 51079 net.cpp:454] conv12 <- conv11
I0705 16:41:47.113361 51079 net.cpp:411] conv12 -> conv12
I0705 16:41:47.114498 51079 net.cpp:150] Setting up conv12
I0705 16:41:47.114529 51079 net.cpp:157] Top shape: 256 32 100 100 (81920000)
I0705 16:41:47.114538 51079 net.cpp:165] Memory required for data: 1013763072
I0705 16:41:47.114555 51079 layer_factory.hpp:76] Creating layer relu12
I0705 16:41:47.114569 51079 net.cpp:106] Creating Layer relu12
I0705 16:41:47.114578 51079 net.cpp:454] relu12 <- conv12
I0705 16:41:47.114588 51079 net.cpp:397] relu12 -> conv12 (in-place)
I0705 16:41:47.114939 51079 net.cpp:150] Setting up relu12
I0705 16:41:47.114971 51079 net.cpp:157] Top shape: 256 32 100 100 (81920000)
I0705 16:41:47.114979 51079 net.cpp:165] Memory required for data: 1341443072
I0705 16:41:47.114987 51079 layer_factory.hpp:76] Creating layer pool1
I0705 16:41:47.115001 51079 net.cpp:106] Creating Layer pool1
I0705 16:41:47.115010 51079 net.cpp:454] pool1 <- conv12
I0705 16:41:47.115022 51079 net.cpp:411] pool1 -> pool1
I0705 16:41:47.115298 51079 net.cpp:150] Setting up pool1
I0705 16:41:47.115325 51079 net.cpp:157] Top shape: 256 32 50 50 (20480000)
I0705 16:41:47.115332 51079 net.cpp:165] Memory required for data: 1423363072
I0705 16:41:47.115341 51079 layer_factory.hpp:76] Creating layer conv21
I0705 16:41:47.115360 51079 net.cpp:106] Creating Layer conv21
I0705 16:41:47.115367 51079 net.cpp:454] conv21 <- pool1
I0705 16:41:47.115381 51079 net.cpp:411] conv21 -> conv21
I0705 16:41:47.118533 51079 net.cpp:150] Setting up conv21
I0705 16:41:47.118582 51079 net.cpp:157] Top shape: 256 64 50 50 (40960000)
I0705 16:41:47.118592 51079 net.cpp:165] Memory required for data: 1587203072
I0705 16:41:47.118613 51079 layer_factory.hpp:76] Creating layer relu21
I0705 16:41:47.118635 51079 net.cpp:106] Creating Layer relu21
I0705 16:41:47.118646 51079 net.cpp:454] relu21 <- conv21
I0705 16:41:47.118656 51079 net.cpp:397] relu21 -> conv21 (in-place)
I0705 16:41:47.119027 51079 net.cpp:150] Setting up relu21
I0705 16:41:47.119060 51079 net.cpp:157] Top shape: 256 64 50 50 (40960000)
I0705 16:41:47.119112 51079 net.cpp:165] Memory required for data: 1751043072
I0705 16:41:47.119133 51079 layer_factory.hpp:76] Creating layer conv22
I0705 16:41:47.119166 51079 net.cpp:106] Creating Layer conv22
I0705 16:41:47.119175 51079 net.cpp:454] conv22 <- conv21
I0705 16:41:47.119186 51079 net.cpp:411] conv22 -> conv22
I0705 16:41:47.120512 51079 cudnn_conv_layer.cpp:194] Reallocating workspace storage: 6912
I0705 16:41:47.120815 51079 net.cpp:150] Setting up conv22
I0705 16:41:47.120847 51079 net.cpp:157] Top shape: 256 64 50 50 (40960000)
I0705 16:41:47.120857 51079 net.cpp:165] Memory required for data: 1914883072
I0705 16:41:47.120869 51079 layer_factory.hpp:76] Creating layer relu22
I0705 16:41:47.120882 51079 net.cpp:106] Creating Layer relu22
I0705 16:41:47.120892 51079 net.cpp:454] relu22 <- conv22
I0705 16:41:47.120903 51079 net.cpp:397] relu22 -> conv22 (in-place)
I0705 16:41:47.121279 51079 net.cpp:150] Setting up relu22
I0705 16:41:47.121320 51079 net.cpp:157] Top shape: 256 64 50 50 (40960000)
I0705 16:41:47.121328 51079 net.cpp:165] Memory required for data: 2078723072
I0705 16:41:47.121337 51079 layer_factory.hpp:76] Creating layer pool2
I0705 16:41:47.121351 51079 net.cpp:106] Creating Layer pool2
I0705 16:41:47.121361 51079 net.cpp:454] pool2 <- conv22
I0705 16:41:47.121381 51079 net.cpp:411] pool2 -> pool2
I0705 16:41:47.121616 51079 net.cpp:150] Setting up pool2
I0705 16:41:47.121649 51079 net.cpp:157] Top shape: 256 64 25 25 (10240000)
I0705 16:41:47.121657 51079 net.cpp:165] Memory required for data: 2119683072
I0705 16:41:47.121666 51079 layer_factory.hpp:76] Creating layer conv31
I0705 16:41:47.121683 51079 net.cpp:106] Creating Layer conv31
I0705 16:41:47.121692 51079 net.cpp:454] conv31 <- pool2
I0705 16:41:47.121704 51079 net.cpp:411] conv31 -> conv31
I0705 16:41:47.123251 51079 cudnn_conv_layer.cpp:194] Reallocating workspace storage: 6912
I0705 16:41:47.123299 51079 net.cpp:150] Setting up conv31
I0705 16:41:47.123311 51079 net.cpp:157] Top shape: 256 96 25 25 (15360000)
I0705 16:41:47.123320 51079 net.cpp:165] Memory required for data: 2181123072
I0705 16:41:47.123338 51079 layer_factory.hpp:76] Creating layer relu31
I0705 16:41:47.123353 51079 net.cpp:106] Creating Layer relu31
I0705 16:41:47.123376 51079 net.cpp:454] relu31 <- conv31
I0705 16:41:47.123396 51079 net.cpp:397] relu31 -> conv31 (in-place)
I0705 16:41:47.123739 51079 net.cpp:150] Setting up relu31
I0705 16:41:47.123767 51079 net.cpp:157] Top shape: 256 96 25 25 (15360000)
I0705 16:41:47.123776 51079 net.cpp:165] Memory required for data: 2242563072
I0705 16:41:47.123785 51079 layer_factory.hpp:76] Creating layer conv32
I0705 16:41:47.123802 51079 net.cpp:106] Creating Layer conv32
I0705 16:41:47.123811 51079 net.cpp:454] conv32 <- conv31
I0705 16:41:47.123821 51079 net.cpp:411] conv32 -> conv32
I0705 16:41:47.126121 51079 cudnn_conv_layer.cpp:194] Reallocating workspace storage: 10368
I0705 16:41:47.126181 51079 net.cpp:150] Setting up conv32
I0705 16:41:47.126195 51079 net.cpp:157] Top shape: 256 96 25 25 (15360000)
I0705 16:41:47.126204 51079 net.cpp:165] Memory required for data: 2304003072
I0705 16:41:47.126217 51079 layer_factory.hpp:76] Creating layer relu32
I0705 16:41:47.126235 51079 net.cpp:106] Creating Layer relu32
I0705 16:41:47.126245 51079 net.cpp:454] relu32 <- conv32
I0705 16:41:47.126255 51079 net.cpp:397] relu32 -> conv32 (in-place)
I0705 16:41:47.126459 51079 net.cpp:150] Setting up relu32
I0705 16:41:47.126485 51079 net.cpp:157] Top shape: 256 96 25 25 (15360000)
I0705 16:41:47.126493 51079 net.cpp:165] Memory required for data: 2365443072
I0705 16:41:47.126514 51079 layer_factory.hpp:76] Creating layer pool3
I0705 16:41:47.126533 51079 net.cpp:106] Creating Layer pool3
I0705 16:41:47.126541 51079 net.cpp:454] pool3 <- conv32
I0705 16:41:47.126554 51079 net.cpp:411] pool3 -> pool3
I0705 16:41:47.126938 51079 net.cpp:150] Setting up pool3
I0705 16:41:47.126967 51079 net.cpp:157] Top shape: 256 96 13 13 (4153344)
I0705 16:41:47.126987 51079 net.cpp:165] Memory required for data: 2382056448
I0705 16:41:47.127033 51079 layer_factory.hpp:76] Creating layer conv41
I0705 16:41:47.127069 51079 net.cpp:106] Creating Layer conv41
I0705 16:41:47.127092 51079 net.cpp:454] conv41 <- pool3
I0705 16:41:47.127116 51079 net.cpp:411] conv41 -> conv41
I0705 16:41:47.128777 51079 cudnn_conv_layer.cpp:194] Reallocating workspace storage: 10368
I0705 16:41:47.128825 51079 net.cpp:150] Setting up conv41
I0705 16:41:47.128837 51079 net.cpp:157] Top shape: 256 128 13 13 (5537792)
I0705 16:41:47.128844 51079 net.cpp:165] Memory required for data: 2404207616
I0705 16:41:47.128855 51079 layer_factory.hpp:76] Creating layer relu41
I0705 16:41:47.128867 51079 net.cpp:106] Creating Layer relu41
I0705 16:41:47.128875 51079 net.cpp:454] relu41 <- conv41
I0705 16:41:47.128886 51079 net.cpp:397] relu41 -> conv41 (in-place)
I0705 16:41:47.129386 51079 net.cpp:150] Setting up relu41
I0705 16:41:47.129415 51079 net.cpp:157] Top shape: 256 128 13 13 (5537792)
I0705 16:41:47.129423 51079 net.cpp:165] Memory required for data: 2426358784
I0705 16:41:47.129442 51079 layer_factory.hpp:76] Creating layer conv42
I0705 16:41:47.129459 51079 net.cpp:106] Creating Layer conv42
I0705 16:41:47.129468 51079 net.cpp:454] conv42 <- conv41
I0705 16:41:47.129480 51079 net.cpp:411] conv42 -> conv42
I0705 16:41:47.131947 51079 cudnn_conv_layer.cpp:194] Reallocating workspace storage: 13824
I0705 16:41:47.132011 51079 net.cpp:150] Setting up conv42
I0705 16:41:47.132025 51079 net.cpp:157] Top shape: 256 128 13 13 (5537792)
I0705 16:41:47.132032 51079 net.cpp:165] Memory required for data: 2448509952
I0705 16:41:47.132045 51079 layer_factory.hpp:76] Creating layer relu42
I0705 16:41:47.132058 51079 net.cpp:106] Creating Layer relu42
I0705 16:41:47.132067 51079 net.cpp:454] relu42 <- conv42
I0705 16:41:47.132079 51079 net.cpp:397] relu42 -> conv42 (in-place)
I0705 16:41:47.132277 51079 net.cpp:150] Setting up relu42
I0705 16:41:47.132302 51079 net.cpp:157] Top shape: 256 128 13 13 (5537792)
I0705 16:41:47.132310 51079 net.cpp:165] Memory required for data: 2470661120
I0705 16:41:47.132318 51079 layer_factory.hpp:76] Creating layer pool4
I0705 16:41:47.132331 51079 net.cpp:106] Creating Layer pool4
I0705 16:41:47.132339 51079 net.cpp:454] pool4 <- conv42
I0705 16:41:47.132349 51079 net.cpp:411] pool4 -> pool4
I0705 16:41:47.132771 51079 net.cpp:150] Setting up pool4
I0705 16:41:47.132802 51079 net.cpp:157] Top shape: 256 128 7 7 (1605632)
I0705 16:41:47.132820 51079 net.cpp:165] Memory required for data: 2477083648
I0705 16:41:47.132828 51079 layer_factory.hpp:76] Creating layer conv51
I0705 16:41:47.132846 51079 net.cpp:106] Creating Layer conv51
I0705 16:41:47.132855 51079 net.cpp:454] conv51 <- pool4
I0705 16:41:47.132865 51079 net.cpp:411] conv51 -> conv51
I0705 16:41:47.136818 51079 cudnn_conv_layer.cpp:194] Reallocating workspace storage: 13824
I0705 16:41:47.136885 51079 net.cpp:150] Setting up conv51
I0705 16:41:47.136901 51079 net.cpp:157] Top shape: 256 256 7 7 (3211264)
I0705 16:41:47.136910 51079 net.cpp:165] Memory required for data: 2489928704
I0705 16:41:47.136931 51079 layer_factory.hpp:76] Creating layer relu51
I0705 16:41:47.136950 51079 net.cpp:106] Creating Layer relu51
I0705 16:41:47.136961 51079 net.cpp:454] relu51 <- conv51
I0705 16:41:47.136972 51079 net.cpp:397] relu51 -> conv51 (in-place)
I0705 16:41:47.137183 51079 net.cpp:150] Setting up relu51
I0705 16:41:47.137212 51079 net.cpp:157] Top shape: 256 256 7 7 (3211264)
I0705 16:41:47.137218 51079 net.cpp:165] Memory required for data: 2502773760
I0705 16:41:47.137228 51079 layer_factory.hpp:76] Creating layer conv52
I0705 16:41:47.137244 51079 net.cpp:106] Creating Layer conv52
I0705 16:41:47.137253 51079 net.cpp:454] conv52 <- conv51
I0705 16:41:47.137264 51079 net.cpp:411] conv52 -> conv52
I0705 16:41:47.143821 51079 cudnn_conv_layer.cpp:194] Reallocating workspace storage: 27648
I0705 16:41:47.143892 51079 net.cpp:150] Setting up conv52
I0705 16:41:47.143908 51079 net.cpp:157] Top shape: 256 256 7 7 (3211264)
I0705 16:41:47.143918 51079 net.cpp:165] Memory required for data: 2515618816
I0705 16:41:47.143955 51079 layer_factory.hpp:76] Creating layer relu52
I0705 16:41:47.143973 51079 net.cpp:106] Creating Layer relu52
I0705 16:41:47.143999 51079 net.cpp:454] relu52 <- conv52
I0705 16:41:47.144011 51079 net.cpp:397] relu52 -> conv52 (in-place)
I0705 16:41:47.144397 51079 net.cpp:150] Setting up relu52
I0705 16:41:47.144440 51079 net.cpp:157] Top shape: 256 256 7 7 (3211264)
I0705 16:41:47.144449 51079 net.cpp:165] Memory required for data: 2528463872
I0705 16:41:47.144459 51079 layer_factory.hpp:76] Creating layer conv53
I0705 16:41:47.144490 51079 net.cpp:106] Creating Layer conv53
I0705 16:41:47.144502 51079 net.cpp:454] conv53 <- conv52
I0705 16:41:47.144515 51079 net.cpp:411] conv53 -> conv53
I0705 16:41:47.174593 51079 cudnn_conv_layer.cpp:194] Reallocating workspace storage: 150528
I0705 16:41:47.174899 51079 net.cpp:150] Setting up conv53
I0705 16:41:47.174932 51079 net.cpp:157] Top shape: 256 256 1 1 (65536)
I0705 16:41:47.174942 51079 net.cpp:165] Memory required for data: 2528726016
I0705 16:41:47.174959 51079 layer_factory.hpp:76] Creating layer relu53
I0705 16:41:47.174976 51079 net.cpp:106] Creating Layer relu53
I0705 16:41:47.174986 51079 net.cpp:454] relu53 <- conv53
I0705 16:41:47.174998 51079 net.cpp:397] relu53 -> conv53 (in-place)
I0705 16:41:47.175387 51079 net.cpp:150] Setting up relu53
I0705 16:41:47.175422 51079 net.cpp:157] Top shape: 256 256 1 1 (65536)
I0705 16:41:47.175432 51079 net.cpp:165] Memory required for data: 2528988160
I0705 16:41:47.175452 51079 layer_factory.hpp:76] Creating layer drop6
I0705 16:41:47.175472 51079 net.cpp:106] Creating Layer drop6
I0705 16:41:47.175480 51079 net.cpp:454] drop6 <- conv53
I0705 16:41:47.175493 51079 net.cpp:411] drop6 -> drop6
I0705 16:41:47.175559 51079 net.cpp:150] Setting up drop6
I0705 16:41:47.175585 51079 net.cpp:157] Top shape: 256 256 1 1 (65536)
I0705 16:41:47.175591 51079 net.cpp:165] Memory required for data: 2529250304
I0705 16:41:47.175611 51079 layer_factory.hpp:76] Creating layer conv54
I0705 16:41:47.175640 51079 net.cpp:106] Creating Layer conv54
I0705 16:41:47.175652 51079 net.cpp:454] conv54 <- drop6
I0705 16:41:47.175663 51079 net.cpp:411] conv54 -> conv54
I0705 16:41:47.176731 51079 cudnn_conv_layer.cpp:194] Reallocating workspace storage: 3072
I0705 16:41:47.176985 51079 net.cpp:150] Setting up conv54
I0705 16:41:47.177016 51079 net.cpp:157] Top shape: 256 2 1 1 (512)
I0705 16:41:47.177024 51079 net.cpp:165] Memory required for data: 2529252352
I0705 16:41:47.177037 51079 layer_factory.hpp:76] Creating layer conv54_conv54_0_split
I0705 16:41:47.177052 51079 net.cpp:106] Creating Layer conv54_conv54_0_split
I0705 16:41:47.177062 51079 net.cpp:454] conv54_conv54_0_split <- conv54
I0705 16:41:47.177073 51079 net.cpp:411] conv54_conv54_0_split -> conv54_conv54_0_split_0
I0705 16:41:47.177085 51079 net.cpp:411] conv54_conv54_0_split -> conv54_conv54_0_split_1
I0705 16:41:47.177130 51079 net.cpp:150] Setting up conv54_conv54_0_split
I0705 16:41:47.177156 51079 net.cpp:157] Top shape: 256 2 1 1 (512)
I0705 16:41:47.177165 51079 net.cpp:157] Top shape: 256 2 1 1 (512)
I0705 16:41:47.177184 51079 net.cpp:165] Memory required for data: 2529256448
I0705 16:41:47.177192 51079 layer_factory.hpp:76] Creating layer accuracy
I0705 16:41:47.177211 51079 net.cpp:106] Creating Layer accuracy
I0705 16:41:47.177234 51079 net.cpp:454] accuracy <- conv54_conv54_0_split_0
I0705 16:41:47.177255 51079 net.cpp:454] accuracy <- label_data_1_split_0
I0705 16:41:47.177280 51079 net.cpp:411] accuracy -> accuracy
…
I0705 16:41:47.179230 51079 net.cpp:322] The NetState phase (1) differed from the phase (0) specified by a rule in layer data
I0705 16:41:47.179482 51079 net.cpp:49] Initializing net from parameters: 
name: "FaceNN"
state {
  phase: TEST
}
layer {
  name: "data"
  type: "ImageData"
  top: "data"
  top: "label"
  include {
    phase: TEST
  }
  transform_param {
    mirror: false
    crop_size: 100
    mean_value: 104
    mean_value: 117
    mean_value: 123
  }
  image_data_param {
    source: "../lists/roi-val-L0.lst"
    batch_size: 32
    shuffle: true
    new_height: 110
    new_width: 110
  }
}
layer {
  name: "conv11"
  type: "Convolution"
  bottom: "data"
  top: "conv11"
  param {
    lr_mult: 1
    decay_mult: 1
  }
  param {
    lr_mult: 2
    decay_mult: 0
  }
  convolution_param {
    num_output: 32
    pad: 1
    stride: 1
    weight_filler {
      type: "xavier"
    }
    bias_filler {
      type: "constant"
    }
    kernel_h: 3
    kernel_w: 3
  }
}
layer {
  name: "relu11"
  type: "ReLU"
  bottom: "conv11"
  top: "conv11"
}
layer {
  name: "conv12"
  type: "Convolution"
  bottom: "conv11"
  top: "conv12"
  param {
    lr_mult: 1
    decay_mult: 1
  }
  param {
    lr_mult: 2
    decay_mult: 0
  }
  convolution_param {
    num_output: 32
    pad: 1
    stride: 1
    weight_filler {
      type: "xavier"
    }
    bias_filler {
      type: "constant"
    }
    kernel_h: 3
    kernel_w: 3
  }
}
layer {
  name: "relu12"
  type: "ReLU"
  bottom: "conv12"
  top: "conv12"
}
layer {
  name: "pool1"
  type: "Pooling"
  bottom: "conv12"
  top: "pool1"
  pooling_param {
    pool: MAX
    kernel_size: 2
    stride: 2
  }
}
layer {
  name: "conv21"
  type: "Convolution"
  bottom: "pool1"
  top: "conv21"
  param {
    lr_mult: 1
    decay_mult: 1
  }
  param {
    lr_mult: 2
    decay_mult: 0
  }
  convolution_param {
    num_output: 64
    pad: 1
    stride: 1
    weight_filler {
      type: "xavier"
    }
    bias_filler {
      type: "constant"
    }
    kernel_h: 3
    kernel_w: 3
  }
}
layer {
  name: "relu21"
  type: "ReLU"
  bottom: "conv21"
  top: "conv21"
}
layer {
  name: "conv22"
  type: "Convolution"
  bottom: "conv21"
  top: "conv22"
  param {
    lr_mult: 1
    decay_mult: 1
  }
  param {
    lr_mult: 2
    decay_mult: 0
  }
  convolution_param {
    num_output: 64
    pad: 1
    stride: 1
    weight_filler {
      type: "xavier"
    }
    bias_filler {
      type: "constant"
    }
    kernel_h: 3
    kernel_w: 3
  }
}
layer {
  name: "relu22"
  type: "ReLU"
  bottom: "conv22"
  top: "conv22"
}
layer {
  name: "pool2"
  type: "Pooling"
  bottom: "conv22"
  top: "pool2"
  pooling_param {
    pool: MAX
    kernel_size: 2
    stride: 2
  }
}
layer {
  name: "conv31"
  type: "Convolution"
  bottom: "pool2"
  top: "conv31"
  param {
    lr_mult: 1
    decay_mult: 1
  }
  param {
    lr_mult: 2
    decay_mult: 0
  }
  convolution_param {
    num_output: 96
    pad: 1
    stride: 1
    weight_filler {
      type: "xavier"
    }
    bias_filler {
      type: "constant"
    }
    kernel_h: 3
    kernel_w: 3
  }
}
layer {
  name: "relu31"
  type: "ReLU"
  bottom: "conv31"
  top: "conv31"
}
layer {
  name: "conv32"
  type: "Convolution"
  bottom: "conv31"
  top: "conv32"
  param {
    lr_mult: 1
    decay_mult: 1
  }
  param {
    lr_mult: 2
    decay_mult: 0
  }
  convolution_param {
    num_output: 96
    pad: 1
    stride: 1
    weight_filler {
      type: "xavier"
    }
    bias_filler {
      type: "constant"
    }
    kernel_h: 3
    kernel_w: 3
  }
}
layer {
  name: "relu32"
  type: "ReLU"
  bottom: "conv32"
  top: "conv32"
}
layer {
  name: "pool3"
  type: "Pooling"
  bottom: "conv32"
  top: "pool3"
  pooling_param {
    pool: MAX
    kernel_size: 2
    stride: 2
  }
}
layer {
  name: "conv41"
  type: "Convolution"
  bottom: "pool3"
  top: "conv41"
  param {
    lr_mult: 1
    decay_mult: 1
  }
  param {
    lr_mult: 2
    decay_mult: 0
  }
  convolution_param {
    num_output: 128
    pad: 1
    stride: 1
    weight_filler {
      type: "xavier"
    }
    bias_filler {
      type: "constant"
    }
    kernel_h: 3
    kernel_w: 3
  }
}
layer {
  name: "relu41"
  type: "ReLU"
  bottom: "conv41"
  top: "conv41"
}
layer {
  name: "conv42"
  type: "Convolution"
  bottom: "conv41"
  top: "conv42"
  param {
    lr_mult: 1
    decay_mult: 1
  }
  param {
    lr_mult: 2
    decay_mult: 0
  }
  convolution_param {
    num_output: 128
    pad: 1
    stride: 1
    weight_filler {
      type: "xavier"
    }
    bias_filler {
      type: "constant"
    }
    kernel_h: 3
    kernel_w: 3
  }
}
layer {
  name: "relu42"
  type: "ReLU"
  bottom: "conv42"
  top: "conv42"
}
layer {
  name: "pool4"
  type: "Pooling"
  bottom: "conv42"
  top: "pool4"
  pooling_param {
    pool: MAX
    kernel_size: 2
    stride: 2
  }
}
layer {
  name: "conv51"
  type: "Convolution"
  bottom: "pool4"
  top: "conv51"
  param {
    lr_mult: 1
    decay_mult: 1
  }
  param {
    lr_mult: 2
    decay_mult: 0
  }
  convolution_param {
    num_output: 256
    pad: 1
    stride: 1
    weight_filler {
      type: "xavier"
    }
    bias_filler {
      type: "constant"
    }
    kernel_h: 3
    kernel_w: 3
  }
}
layer {
  name: "relu51"
  type: "ReLU"
  bottom: "conv51"
  top: "conv51"
}
layer {
  name: "conv52"
  type: "Convolution"
  bottom: "conv51"
  top: "conv52"
  param {
    lr_mult: 1
    decay_mult: 1
  }
  param {
    lr_mult: 2
    decay_mult: 0
  }
  convolution_param {
    num_output: 256
    pad: 1
    stride: 1
    weight_filler {
      type: "xavier"
    }
    bias_filler {
      type: "constant"
    }
    kernel_h: 3
    kernel_w: 3
  }
}
layer {
  name: "relu52"
  type: "ReLU"
  bottom: "conv52"
  top: "conv52"
}
layer {
  name: "conv53"
  type: "Convolution"
  bottom: "conv52"
  top: "conv53"
  param {
    lr_mult: 1
    decay_mult: 1
  }
  param {
    lr_mult: 2
    decay_mult: 0
  }
  convolution_param {
    num_output: 256
    stride: 1
    weight_filler {
      type: "xavier"
    }
    bias_filler {
      type: "constant"
    }
    kernel_h: 7
    kernel_w: 7
  }
}
layer {
  name: "relu53"
  type: "ReLU"
  bottom: "conv53"
  top: "conv53"
}
layer {
  name: "drop6"
  type: "Dropout"
  bottom: "conv53"
  top: "drop6"
  dropout_param {
    dropout_ratio: 0.4
  }
}
layer {
  name: "conv54"
  type: "Convolution"
  bottom: "drop6"
  top: "conv54"
  param {
    lr_mult: 1
    decay_mult: 1
  }
  param {
    lr_mult: 2
    decay_mult: 0
  }
  convolution_param {
    num_output: 2
    stride: 1
    weight_filler {
      type: "xavier"
    }
    bias_filler {
      type: "constant"
    }
    kernel_h: 1
    kernel_w: 1
  }
}
layer {
  name: "accuracy"
  type: "Accuracy"
  bottom: "conv54"
  bottom: "label"
  top: "accuracy"
}
layer {
  name: "loss"
  type: "SoftmaxWithLoss"
  bottom: "conv54"
  bottom: "label"
  top: "loss"
}
I0705 16:41:47.181072 51079 layer_factory.hpp:76] Creating layer data
I0705 16:41:47.181095 51079 net.cpp:106] Creating Layer data
I0705 16:41:47.181105 51079 net.cpp:411] data -> data
I0705 16:41:47.181120 51079 net.cpp:411] data -> label
I0705 16:41:47.181144 51079 image_data_layer.cpp:36] Opening file ../lists/roi-val-L0.lst
I0705 16:41:47.192289 51079 image_data_layer.cpp:46] Shuffling data
I0705 16:41:47.195228 51079 image_data_layer.cpp:51] A total of 23520 images.
I0705 16:41:47.198863 51079 image_data_layer.cpp:78] output data size: 32,3,100,100
I0705 16:41:47.208879 51079 net.cpp:150] Setting up data
I0705 16:41:47.208936 51079 net.cpp:157] Top shape: 32 3 100 100 (960000)
I0705 16:41:47.208948 51079 net.cpp:157] Top shape: 32 (32)
I0705 16:41:47.208956 51079 net.cpp:165] Memory required for data: 3840128
I0705 16:41:47.208967 51079 layer_factory.hpp:76] Creating layer label_data_1_split
I0705 16:41:47.208988 51079 net.cpp:106] Creating Layer label_data_1_split
I0705 16:41:47.208999 51079 net.cpp:454] label_data_1_split <- label
I0705 16:41:47.209010 51079 net.cpp:411] label_data_1_split -> label_data_1_split_0
I0705 16:41:47.209024 51079 net.cpp:411] label_data_1_split -> label_data_1_split_1
I0705 16:41:47.209098 51079 net.cpp:150] Setting up label_data_1_split
I0705 16:41:47.209122 51079 net.cpp:157] Top shape: 32 (32)
I0705 16:41:47.209142 51079 net.cpp:157] Top shape: 32 (32)
I0705 16:41:47.209149 51079 net.cpp:165] Memory required for data: 3840384
I0705 16:41:47.209161 51079 layer_factory.hpp:76] Creating layer conv11
I0705 16:41:47.209177 51079 net.cpp:106] Creating Layer conv11
I0705 16:41:47.209185 51079 net.cpp:454] conv11 <- data
I0705 16:41:47.209195 51079 net.cpp:411] conv11 -> conv11
I0705 16:41:47.210682 51079 net.cpp:150] Setting up conv11
I0705 16:41:47.210721 51079 net.cpp:157] Top shape: 32 32 100 100 (10240000)
I0705 16:41:47.210731 51079 net.cpp:165] Memory required for data: 44800384
I0705 16:41:47.210746 51079 layer_factory.hpp:76] Creating layer relu11
I0705 16:41:47.210785 51079 net.cpp:106] Creating Layer relu11
I0705 16:41:47.210798 51079 net.cpp:454] relu11 <- conv11
I0705 16:41:47.210819 51079 net.cpp:397] relu11 -> conv11 (in-place)
I0705 16:41:47.211153 51079 net.cpp:150] Setting up relu11
I0705 16:41:47.211184 51079 net.cpp:157] Top shape: 32 32 100 100 (10240000)
I0705 16:41:47.211194 51079 net.cpp:165] Memory required for data: 85760384
I0705 16:41:47.211201 51079 layer_factory.hpp:76] Creating layer conv12
I0705 16:41:47.211217 51079 net.cpp:106] Creating Layer conv12
I0705 16:41:47.211226 51079 net.cpp:454] conv12 <- conv11
I0705 16:41:47.211236 51079 net.cpp:411] conv12 -> conv12
I0705 16:41:47.212230 51079 net.cpp:150] Setting up conv12
I0705 16:41:47.212265 51079 net.cpp:157] Top shape: 32 32 100 100 (10240000)
I0705 16:41:47.212273 51079 net.cpp:165] Memory required for data: 126720384
I0705 16:41:47.212287 51079 layer_factory.hpp:76] Creating layer relu12
I0705 16:41:47.212299 51079 net.cpp:106] Creating Layer relu12
I0705 16:41:47.212308 51079 net.cpp:454] relu12 <- conv12
I0705 16:41:47.212321 51079 net.cpp:397] relu12 -> conv12 (in-place)
I0705 16:41:47.212693 51079 net.cpp:150] Setting up relu12
I0705 16:41:47.212724 51079 net.cpp:157] Top shape: 32 32 100 100 (10240000)
I0705 16:41:47.212733 51079 net.cpp:165] Memory required for data: 167680384
I0705 16:41:47.212741 51079 layer_factory.hpp:76] Creating layer pool1
I0705 16:41:47.212756 51079 net.cpp:106] Creating Layer pool1
I0705 16:41:47.212764 51079 net.cpp:454] pool1 <- conv12
I0705 16:41:47.212775 51079 net.cpp:411] pool1 -> pool1
I0705 16:41:47.213184 51079 net.cpp:150] Setting up pool1
I0705 16:41:47.213215 51079 net.cpp:157] Top shape: 32 32 50 50 (2560000)
I0705 16:41:47.213224 51079 net.cpp:165] Memory required for data: 177920384
I0705 16:41:47.213233 51079 layer_factory.hpp:76] Creating layer conv21
I0705 16:41:47.213254 51079 net.cpp:106] Creating Layer conv21
I0705 16:41:47.213265 51079 net.cpp:454] conv21 <- pool1
I0705 16:41:47.213287 51079 net.cpp:411] conv21 -> conv21
I0705 16:41:47.215148 51079 net.cpp:150] Setting up conv21
I0705 16:41:47.215189 51079 net.cpp:157] Top shape: 32 64 50 50 (5120000)
I0705 16:41:47.215198 51079 net.cpp:165] Memory required for data: 198400384
I0705 16:41:47.215216 51079 layer_factory.hpp:76] Creating layer relu21
I0705 16:41:47.215230 51079 net.cpp:106] Creating Layer relu21
I0705 16:41:47.215240 51079 net.cpp:454] relu21 <- conv21
I0705 16:41:47.215248 51079 net.cpp:397] relu21 -> conv21 (in-place)
I0705 16:41:47.215584 51079 net.cpp:150] Setting up relu21
I0705 16:41:47.215616 51079 net.cpp:157] Top shape: 32 64 50 50 (5120000)
I0705 16:41:47.215626 51079 net.cpp:165] Memory required for data: 218880384
I0705 16:41:47.215633 51079 layer_factory.hpp:76] Creating layer conv22
I0705 16:41:47.215647 51079 net.cpp:106] Creating Layer conv22
I0705 16:41:47.215656 51079 net.cpp:454] conv22 <- conv21
I0705 16:41:47.215668 51079 net.cpp:411] conv22 -> conv22
I0705 16:41:47.217059 51079 net.cpp:150] Setting up conv22
I0705 16:41:47.217094 51079 net.cpp:157] Top shape: 32 64 50 50 (5120000)
I0705 16:41:47.217103 51079 net.cpp:165] Memory required for data: 239360384
I0705 16:41:47.217115 51079 layer_factory.hpp:76] Creating layer relu22
I0705 16:41:47.217128 51079 net.cpp:106] Creating Layer relu22
I0705 16:41:47.217135 51079 net.cpp:454] relu22 <- conv22
I0705 16:41:47.217147 51079 net.cpp:397] relu22 -> conv22 (in-place)
I0705 16:41:47.217330 51079 net.cpp:150] Setting up relu22
I0705 16:41:47.217360 51079 net.cpp:157] Top shape: 32 64 50 50 (5120000)
I0705 16:41:47.217367 51079 net.cpp:165] Memory required for data: 259840384
I0705 16:41:47.217375 51079 layer_factory.hpp:76] Creating layer pool2
I0705 16:41:47.217387 51079 net.cpp:106] Creating Layer pool2
I0705 16:41:47.217396 51079 net.cpp:454] pool2 <- conv22
I0705 16:41:47.217406 51079 net.cpp:411] pool2 -> pool2
I0705 16:41:47.217763 51079 net.cpp:150] Setting up pool2
I0705 16:41:47.217794 51079 net.cpp:157] Top shape: 32 64 25 25 (1280000)
I0705 16:41:47.217803 51079 net.cpp:165] Memory required for data: 264960384
I0705 16:41:47.217839 51079 layer_factory.hpp:76] Creating layer conv31
I0705 16:41:47.217874 51079 net.cpp:106] Creating Layer conv31
I0705 16:41:47.217882 51079 net.cpp:454] conv31 <- pool2
I0705 16:41:47.217906 51079 net.cpp:411] conv31 -> conv31
I0705 16:41:47.219225 51079 cudnn_conv_layer.cpp:194] Reallocating workspace storage: 6912
I0705 16:41:47.219280 51079 net.cpp:150] Setting up conv31
I0705 16:41:47.219295 51079 net.cpp:157] Top shape: 32 96 25 25 (1920000)
I0705 16:41:47.219305 51079 net.cpp:165] Memory required for data: 272640384
I0705 16:41:47.219321 51079 layer_factory.hpp:76] Creating layer relu31
I0705 16:41:47.219333 51079 net.cpp:106] Creating Layer relu31
I0705 16:41:47.219347 51079 net.cpp:454] relu31 <- conv31
I0705 16:41:47.219368 51079 net.cpp:397] relu31 -> conv31 (in-place)
I0705 16:41:47.219717 51079 net.cpp:150] Setting up relu31
I0705 16:41:47.219745 51079 net.cpp:157] Top shape: 32 96 25 25 (1920000)
I0705 16:41:47.219754 51079 net.cpp:165] Memory required for data: 280320384
I0705 16:41:47.219763 51079 layer_factory.hpp:76] Creating layer conv32
I0705 16:41:47.219779 51079 net.cpp:106] Creating Layer conv32
I0705 16:41:47.219787 51079 net.cpp:454] conv32 <- conv31
I0705 16:41:47.219800 51079 net.cpp:411] conv32 -> conv32
I0705 16:41:47.221546 51079 net.cpp:150] Setting up conv32
I0705 16:41:47.221580 51079 net.cpp:157] Top shape: 32 96 25 25 (1920000)
I0705 16:41:47.221588 51079 net.cpp:165] Memory required for data: 288000384
I0705 16:41:47.221601 51079 layer_factory.hpp:76] Creating layer relu32
I0705 16:41:47.221614 51079 net.cpp:106] Creating Layer relu32
I0705 16:41:47.221624 51079 net.cpp:454] relu32 <- conv32
I0705 16:41:47.221633 51079 net.cpp:397] relu32 -> conv32 (in-place)
I0705 16:41:47.221848 51079 net.cpp:150] Setting up relu32
I0705 16:41:47.221873 51079 net.cpp:157] Top shape: 32 96 25 25 (1920000)
I0705 16:41:47.221880 51079 net.cpp:165] Memory required for data: 295680384
I0705 16:41:47.221889 51079 layer_factory.hpp:76] Creating layer pool3
I0705 16:41:47.221905 51079 net.cpp:106] Creating Layer pool3
I0705 16:41:47.221913 51079 net.cpp:454] pool3 <- conv32
I0705 16:41:47.221922 51079 net.cpp:411] pool3 -> pool3
I0705 16:41:47.222362 51079 net.cpp:150] Setting up pool3
I0705 16:41:47.222393 51079 net.cpp:157] Top shape: 32 96 13 13 (519168)
I0705 16:41:47.222400 51079 net.cpp:165] Memory required for data: 297757056
I0705 16:41:47.222410 51079 layer_factory.hpp:76] Creating layer conv41
I0705 16:41:47.222425 51079 net.cpp:106] Creating Layer conv41
I0705 16:41:47.222434 51079 net.cpp:454] conv41 <- pool3
I0705 16:41:47.222445 51079 net.cpp:411] conv41 -> conv41
I0705 16:41:47.225034 51079 cudnn_conv_layer.cpp:194] Reallocating workspace storage: 10368
I0705 16:41:47.225095 51079 net.cpp:150] Setting up conv41
I0705 16:41:47.225106 51079 net.cpp:157] Top shape: 32 128 13 13 (692224)
I0705 16:41:47.225114 51079 net.cpp:165] Memory required for data: 300525952
I0705 16:41:47.225126 51079 layer_factory.hpp:76] Creating layer relu41
I0705 16:41:47.225138 51079 net.cpp:106] Creating Layer relu41
I0705 16:41:47.225150 51079 net.cpp:454] relu41 <- conv41
I0705 16:41:47.225172 51079 net.cpp:397] relu41 -> conv41 (in-place)
I0705 16:41:47.225375 51079 net.cpp:150] Setting up relu41
I0705 16:41:47.225402 51079 net.cpp:157] Top shape: 32 128 13 13 (692224)
I0705 16:41:47.225410 51079 net.cpp:165] Memory required for data: 303294848
I0705 16:41:47.225419 51079 layer_factory.hpp:76] Creating layer conv42
I0705 16:41:47.225435 51079 net.cpp:106] Creating Layer conv42
I0705 16:41:47.225442 51079 net.cpp:454] conv42 <- conv41
I0705 16:41:47.225455 51079 net.cpp:411] conv42 -> conv42
I0705 16:41:47.227452 51079 cudnn_conv_layer.cpp:194] Reallocating workspace storage: 13824
I0705 16:41:47.227504 51079 net.cpp:150] Setting up conv42
I0705 16:41:47.227514 51079 net.cpp:157] Top shape: 32 128 13 13 (692224)
I0705 16:41:47.227522 51079 net.cpp:165] Memory required for data: 306063744
I0705 16:41:47.227533 51079 layer_factory.hpp:76] Creating layer relu42
I0705 16:41:47.227573 51079 net.cpp:106] Creating Layer relu42
I0705 16:41:47.227583 51079 net.cpp:454] relu42 <- conv42
I0705 16:41:47.227594 51079 net.cpp:397] relu42 -> conv42 (in-place)
I0705 16:41:47.227972 51079 net.cpp:150] Setting up relu42
I0705 16:41:47.227999 51079 net.cpp:157] Top shape: 32 128 13 13 (692224)
I0705 16:41:47.228008 51079 net.cpp:165] Memory required for data: 308832640
I0705 16:41:47.228015 51079 layer_factory.hpp:76] Creating layer pool4
I0705 16:41:47.228026 51079 net.cpp:106] Creating Layer pool4
I0705 16:41:47.228034 51079 net.cpp:454] pool4 <- conv42
I0705 16:41:47.228045 51079 net.cpp:411] pool4 -> pool4
I0705 16:41:47.228279 51079 net.cpp:150] Setting up pool4
I0705 16:41:47.228305 51079 net.cpp:157] Top shape: 32 128 7 7 (200704)
I0705 16:41:47.228313 51079 net.cpp:165] Memory required for data: 309635456
I0705 16:41:47.228322 51079 layer_factory.hpp:76] Creating layer conv51
I0705 16:41:47.228337 51079 net.cpp:106] Creating Layer conv51
I0705 16:41:47.228344 51079 net.cpp:454] conv51 <- pool4
I0705 16:41:47.228353 51079 net.cpp:411] conv51 -> conv51
I0705 16:41:47.231817 51079 cudnn_conv_layer.cpp:194] Reallocating workspace storage: 21676032
I0705 16:41:47.232100 51079 net.cpp:150] Setting up conv51
I0705 16:41:47.232131 51079 net.cpp:157] Top shape: 32 256 7 7 (401408)
I0705 16:41:47.232139 51079 net.cpp:165] Memory required for data: 311241088
I0705 16:41:47.232161 51079 layer_factory.hpp:76] Creating layer relu51
I0705 16:41:47.232177 51079 net.cpp:106] Creating Layer relu51
I0705 16:41:47.232187 51079 net.cpp:454] relu51 <- conv51
I0705 16:41:47.232198 51079 net.cpp:397] relu51 -> conv51 (in-place)
I0705 16:41:47.232542 51079 net.cpp:150] Setting up relu51
I0705 16:41:47.232581 51079 net.cpp:157] Top shape: 32 256 7 7 (401408)
I0705 16:41:47.232600 51079 net.cpp:165] Memory required for data: 312846720
I0705 16:41:47.232609 51079 layer_factory.hpp:76] Creating layer conv52
I0705 16:41:47.232625 51079 net.cpp:106] Creating Layer conv52
I0705 16:41:47.232633 51079 net.cpp:454] conv52 <- conv51
I0705 16:41:47.232645 51079 net.cpp:411] conv52 -> conv52
I0705 16:41:47.240156 51079 net.cpp:150] Setting up conv52
I0705 16:41:47.240209 51079 net.cpp:157] Top shape: 32 256 7 7 (401408)
I0705 16:41:47.240218 51079 net.cpp:165] Memory required for data: 314452352
I0705 16:41:47.240233 51079 layer_factory.hpp:76] Creating layer relu52
I0705 16:41:47.240262 51079 net.cpp:106] Creating Layer relu52
I0705 16:41:47.240280 51079 net.cpp:454] relu52 <- conv52
I0705 16:41:47.240296 51079 net.cpp:397] relu52 -> conv52 (in-place)
I0705 16:41:47.240743 51079 net.cpp:150] Setting up relu52
I0705 16:41:47.240773 51079 net.cpp:157] Top shape: 32 256 7 7 (401408)
I0705 16:41:47.240782 51079 net.cpp:165] Memory required for data: 316057984
I0705 16:41:47.240790 51079 layer_factory.hpp:76] Creating layer conv53
I0705 16:41:47.240809 51079 net.cpp:106] Creating Layer conv53
I0705 16:41:47.240818 51079 net.cpp:454] conv53 <- conv52
I0705 16:41:47.240830 51079 net.cpp:411] conv53 -> conv53
I0705 16:41:47.272738 51079 cudnn_conv_layer.cpp:194] Reallocating workspace storage: 150528
I0705 16:41:47.272801 51079 net.cpp:150] Setting up conv53
I0705 16:41:47.272816 51079 net.cpp:157] Top shape: 32 256 1 1 (8192)
I0705 16:41:47.272825 51079 net.cpp:165] Memory required for data: 316090752
I0705 16:41:47.272838 51079 layer_factory.hpp:76] Creating layer relu53
I0705 16:41:47.272860 51079 net.cpp:106] Creating Layer relu53
I0705 16:41:47.272871 51079 net.cpp:454] relu53 <- conv53
I0705 16:41:47.272882 51079 net.cpp:397] relu53 -> conv53 (in-place)
I0705 16:41:47.273097 51079 net.cpp:150] Setting up relu53
I0705 16:41:47.273123 51079 net.cpp:157] Top shape: 32 256 1 1 (8192)
I0705 16:41:47.273130 51079 net.cpp:165] Memory required for data: 316123520
I0705 16:41:47.273139 51079 layer_factory.hpp:76] Creating layer drop6
I0705 16:41:47.273150 51079 net.cpp:106] Creating Layer drop6
I0705 16:41:47.273159 51079 net.cpp:454] drop6 <- conv53
I0705 16:41:47.273169 51079 net.cpp:411] drop6 -> drop6
I0705 16:41:47.273231 51079 net.cpp:150] Setting up drop6
I0705 16:41:47.273272 51079 net.cpp:157] Top shape: 32 256 1 1 (8192)
I0705 16:41:47.273291 51079 net.cpp:165] Memory required for data: 316156288
I0705 16:41:47.273299 51079 layer_factory.hpp:76] Creating layer conv54
I0705 16:41:47.273329 51079 net.cpp:106] Creating Layer conv54
I0705 16:41:47.273340 51079 net.cpp:454] conv54 <- drop6
I0705 16:41:47.273350 51079 net.cpp:411] conv54 -> conv54
I0705 16:41:47.274487 51079 cudnn_conv_layer.cpp:194] Reallocating workspace storage: 3072
I0705 16:41:47.274530 51079 net.cpp:150] Setting up conv54
I0705 16:41:47.274543 51079 net.cpp:157] Top shape: 32 2 1 1 (64)
I0705 16:41:47.274550 51079 net.cpp:165] Memory required for data: 316156544
I0705 16:41:47.274561 51079 layer_factory.hpp:76] Creating layer conv54_conv54_0_split
I0705 16:41:47.274571 51079 net.cpp:106] Creating Layer conv54_conv54_0_split
I0705 16:41:47.274580 51079 net.cpp:454] conv54_conv54_0_split <- conv54
I0705 16:41:47.274590 51079 net.cpp:411] conv54_conv54_0_split -> conv54_conv54_0_split_0
I0705 16:41:47.274600 51079 net.cpp:411] conv54_conv54_0_split -> conv54_conv54_0_split_1
I0705 16:41:47.274658 51079 net.cpp:150] Setting up conv54_conv54_0_split
I0705 16:41:47.274670 51079 net.cpp:157] Top shape: 32 2 1 1 (64)
I0705 16:41:47.274678 51079 net.cpp:157] Top shape: 32 2 1 1 (64)
I0705 16:41:47.274685 51079 net.cpp:165] Memory required for data: 316157056
I0705 16:41:47.274693 51079 layer_factory.hpp:76] Creating layer accuracy
I0705 16:41:47.274705 51079 net.cpp:106] Creating Layer accuracy
I0705 16:41:47.274714 51079 net.cpp:454] accuracy <- conv54_conv54_0_split_0
I0705 16:41:47.274722 51079 net.cpp:454] accuracy <- label_data_1_split_0
I0705 16:41:47.274744 51079 net.cpp:411] accuracy -> accuracy
…
