…
I0711 14:16:35.988997 126720 net.cpp:322] The NetState phase (0) differed from the phase (1) specified by a rule in layer data
I0711 14:16:35.989495 126720 net.cpp:49] Initializing net from parameters: 
name: "FaceNN"
state {
  phase: TRAIN
}
layer {
  name: "data"
  type: "ImageData"
  top: "data"
  top: "label"
  include {
    phase: TRAIN
  }
  transform_param {
    mirror: true
    crop_size: 100
    mean_value: 104
    mean_value: 117
    mean_value: 123
  }
  image_data_param {
    source: "../lists/roi-train-L0.lst"
    batch_size: 128
    shuffle: true
    new_height: 110
    new_width: 110
  }
}
layer {
  name: "conv11"
  type: "Convolution"
  bottom: "data"
  top: "conv11"
  param {
    lr_mult: 1
    decay_mult: 1
  }
  param {
    lr_mult: 2
    decay_mult: 0
  }
  convolution_param {
    num_output: 32
    pad: 1
    stride: 1
    weight_filler {
      type: "xavier"
    }
    bias_filler {
      type: "constant"
    }
    kernel_h: 3
    kernel_w: 3
  }
}
layer {
  name: "relu11"
  type: "ReLU"
  bottom: "conv11"
  top: "conv11"
}
layer {
  name: "conv12"
  type: "Convolution"
  bottom: "conv11"
  top: "conv12"
  param {
    lr_mult: 1
    decay_mult: 1
  }
  param {
    lr_mult: 2
    decay_mult: 0
  }
  convolution_param {
    num_output: 32
    pad: 1
    stride: 1
    weight_filler {
      type: "xavier"
    }
    bias_filler {
      type: "constant"
    }
    kernel_h: 3
    kernel_w: 3
  }
}
layer {
  name: "relu12"
  type: "ReLU"
  bottom: "conv12"
  top: "conv12"
}
layer {
  name: "pool1"
  type: "Pooling"
  bottom: "conv12"
  top: "pool1"
  pooling_param {
    pool: MAX
    kernel_size: 2
    stride: 2
  }
}
layer {
  name: "conv21"
  type: "Convolution"
  bottom: "pool1"
  top: "conv21"
  param {
    lr_mult: 1
    decay_mult: 1
  }
  param {
    lr_mult: 2
    decay_mult: 0
  }
  convolution_param {
    num_output: 64
    pad: 1
    stride: 1
    weight_filler {
      type: "xavier"
    }
    bias_filler {
      type: "constant"
    }
    kernel_h: 3
    kernel_w: 3
  }
}
layer {
  name: "relu21"
  type: "ReLU"
  bottom: "conv21"
  top: "conv21"
}
layer {
  name: "conv22"
  type: "Convolution"
  bottom: "conv21"
  top: "conv22"
  param {
    lr_mult: 1
    decay_mult: 1
  }
  param {
    lr_mult: 2
    decay_mult: 0
  }
  convolution_param {
    num_output: 64
    pad: 1
    stride: 1
    weight_filler {
      type: "xavier"
    }
    bias_filler {
      type: "constant"
    }
    kernel_h: 3
    kernel_w: 3
  }
}
layer {
  name: "relu22"
  type: "ReLU"
  bottom: "conv22"
  top: "conv22"
}
layer {
  name: "pool2"
  type: "Pooling"
  bottom: "conv22"
  top: "pool2"
  pooling_param {
    pool: MAX
    kernel_size: 2
    stride: 2
  }
}
layer {
  name: "conv31"
  type: "Convolution"
  bottom: "pool2"
  top: "conv31"
  param {
    lr_mult: 1
    decay_mult: 1
  }
  param {
    lr_mult: 2
    decay_mult: 0
  }
  convolution_param {
    num_output: 96
    pad: 1
    stride: 1
    weight_filler {
      type: "xavier"
    }
    bias_filler {
      type: "constant"
    }
    kernel_h: 3
    kernel_w: 3
  }
}
layer {
  name: "relu31"
  type: "ReLU"
  bottom: "conv31"
  top: "conv31"
}
layer {
  name: "conv32"
  type: "Convolution"
  bottom: "conv31"
  top: "conv32"
  param {
    lr_mult: 1
    decay_mult: 1
  }
  param {
    lr_mult: 2
    decay_mult: 0
  }
  convolution_param {
    num_output: 96
    pad: 1
    stride: 1
    weight_filler {
      type: "xavier"
    }
    bias_filler {
      type: "constant"
    }
    kernel_h: 3
    kernel_w: 3
  }
}
layer {
  name: "relu32"
  type: "ReLU"
  bottom: "conv32"
  top: "conv32"
}
layer {
  name: "pool3"
  type: "Pooling"
  bottom: "conv32"
  top: "pool3"
  pooling_param {
    pool: MAX
    kernel_size: 2
    stride: 2
  }
}
layer {
  name: "conv41"
  type: "Convolution"
  bottom: "pool3"
  top: "conv41"
  param {
    lr_mult: 1
    decay_mult: 1
  }
  param {
    lr_mult: 2
    decay_mult: 0
  }
  convolution_param {
    num_output: 128
    pad: 1
    stride: 1
    weight_filler {
      type: "xavier"
    }
    bias_filler {
      type: "constant"
    }
    kernel_h: 3
    kernel_w: 3
  }
}
layer {
  name: "relu41"
  type: "ReLU"
  bottom: "conv41"
  top: "conv41"
}
layer {
  name: "conv42"
  type: "Convolution"
  bottom: "conv41"
  top: "conv42"
  param {
    lr_mult: 1
    decay_mult: 1
  }
  param {
    lr_mult: 2
    decay_mult: 0
  }
  convolution_param {
    num_output: 128
    pad: 1
    stride: 1
    weight_filler {
      type: "xavier"
    }
    bias_filler {
      type: "constant"
    }
    kernel_h: 3
    kernel_w: 3
  }
}
layer {
  name: "relu42"
  type: "ReLU"
  bottom: "conv42"
  top: "conv42"
}
layer {
  name: "pool4"
  type: "Pooling"
  bottom: "conv42"
  top: "pool4"
  pooling_param {
    pool: MAX
    kernel_size: 2
    stride: 2
  }
}
layer {
  name: "conv51"
  type: "Convolution"
  bottom: "pool4"
  top: "conv51"
  param {
    lr_mult: 1
    decay_mult: 1
  }
  param {
    lr_mult: 2
    decay_mult: 0
  }
  convolution_param {
    num_output: 256
    pad: 1
    stride: 1
    weight_filler {
      type: "xavier"
    }
    bias_filler {
      type: "constant"
    }
    kernel_h: 3
    kernel_w: 3
  }
}
layer {
  name: "relu51"
  type: "ReLU"
  bottom: "conv51"
  top: "conv51"
}
layer {
  name: "conv52"
  type: "Convolution"
  bottom: "conv51"
  top: "conv52"
  param {
    lr_mult: 1
    decay_mult: 1
  }
  param {
    lr_mult: 2
    decay_mult: 0
  }
  convolution_param {
    num_output: 256
    pad: 1
    stride: 1
    weight_filler {
      type: "xavier"
    }
    bias_filler {
      type: "constant"
    }
    kernel_h: 3
    kernel_w: 3
  }
}
layer {
  name: "relu52"
  type: "ReLU"
  bottom: "conv52"
  top: "conv52"
}
layer {
  name: "conv53"
  type: "Convolution"
  bottom: "conv52"
  top: "conv53"
  param {
    lr_mult: 1
    decay_mult: 1
  }
  param {
    lr_mult: 2
    decay_mult: 0
  }
  convolution_param {
    num_output: 256
    stride: 1
    weight_filler {
      type: "xavier"
    }
    bias_filler {
      type: "constant"
    }
    kernel_h: 7
    kernel_w: 7
  }
}
layer {
  name: "relu53"
  type: "ReLU"
  bottom: "conv53"
  top: "conv53"
}
layer {
  name: "drop6"
  type: "Dropout"
  bottom: "conv53"
  top: "drop6"
  dropout_param {
    dropout_ratio: 0.4
  }
}
layer {
  name: "conv54"
  type: "Convolution"
  bottom: "drop6"
  top: "conv54"
  param {
    lr_mult: 1
    decay_mult: 1
  }
  param {
    lr_mult: 2
    decay_mult: 0
  }
  convolution_param {
    num_output: 2
    stride: 1
    weight_filler {
      type: "xavier"
    }
    bias_filler {
      type: "constant"
    }
    kernel_h: 1
    kernel_w: 1
  }
}
layer {
  name: "accuracy"
  type: "Accuracy"
  bottom: "conv54"
  bottom: "label"
  top: "accuracy"
}
layer {
  name: "loss"
  type: "SoftmaxWithLoss"
  bottom: "conv54"
  bottom: "label"
  top: "loss"
}
I0711 14:16:35.992151 126720 layer_factory.hpp:76] Creating layer data
I0711 14:16:35.992234 126720 net.cpp:106] Creating Layer data
I0711 14:16:35.992259 126720 net.cpp:411] data -> data
I0711 14:16:35.992298 126720 net.cpp:411] data -> label
I0711 14:16:35.993008 126720 image_data_layer.cpp:36] Opening file ../lists/roi-train-L0.lst
I0711 14:16:36.128535 126720 image_data_layer.cpp:46] Shuffling data
I0711 14:16:36.159615 126720 image_data_layer.cpp:51] A total of 180262 images.
I0711 14:16:36.191612 126720 image_data_layer.cpp:78] output data size: 128,3,100,100
I0711 14:16:36.228337 126720 net.cpp:150] Setting up data
I0711 14:16:36.228500 126720 net.cpp:157] Top shape: 128 3 100 100 (3840000)
I0711 14:16:36.228544 126720 net.cpp:157] Top shape: 128 (128)
I0711 14:16:36.228550 126720 net.cpp:165] Memory required for data: 15360512
I0711 14:16:36.228564 126720 layer_factory.hpp:76] Creating layer label_data_1_split
I0711 14:16:36.228590 126720 net.cpp:106] Creating Layer label_data_1_split
I0711 14:16:36.228598 126720 net.cpp:454] label_data_1_split <- label
I0711 14:16:36.228617 126720 net.cpp:411] label_data_1_split -> label_data_1_split_0
I0711 14:16:36.228631 126720 net.cpp:411] label_data_1_split -> label_data_1_split_1
I0711 14:16:36.228689 126720 net.cpp:150] Setting up label_data_1_split
I0711 14:16:36.228696 126720 net.cpp:157] Top shape: 128 (128)
I0711 14:16:36.228701 126720 net.cpp:157] Top shape: 128 (128)
I0711 14:16:36.228706 126720 net.cpp:165] Memory required for data: 15361536
I0711 14:16:36.228711 126720 layer_factory.hpp:76] Creating layer conv11
I0711 14:16:36.228730 126720 net.cpp:106] Creating Layer conv11
I0711 14:16:36.228735 126720 net.cpp:454] conv11 <- data
I0711 14:16:36.228744 126720 net.cpp:411] conv11 -> conv11
I0711 14:16:36.365442 126720 net.cpp:150] Setting up conv11
I0711 14:16:36.365500 126720 net.cpp:157] Top shape: 128 32 100 100 (40960000)
I0711 14:16:36.365511 126720 net.cpp:165] Memory required for data: 179201536
I0711 14:16:36.365541 126720 layer_factory.hpp:76] Creating layer relu11
I0711 14:16:36.365562 126720 net.cpp:106] Creating Layer relu11
I0711 14:16:36.365574 126720 net.cpp:454] relu11 <- conv11
I0711 14:16:36.365589 126720 net.cpp:397] relu11 -> conv11 (in-place)
I0711 14:16:36.365784 126720 net.cpp:150] Setting up relu11
I0711 14:16:36.365803 126720 net.cpp:157] Top shape: 128 32 100 100 (40960000)
I0711 14:16:36.365810 126720 net.cpp:165] Memory required for data: 343041536
I0711 14:16:36.365819 126720 layer_factory.hpp:76] Creating layer conv12
I0711 14:16:36.365839 126720 net.cpp:106] Creating Layer conv12
I0711 14:16:36.365847 126720 net.cpp:454] conv12 <- conv11
I0711 14:16:36.365860 126720 net.cpp:411] conv12 -> conv12
I0711 14:16:36.368490 126720 net.cpp:150] Setting up conv12
I0711 14:16:36.368517 126720 net.cpp:157] Top shape: 128 32 100 100 (40960000)
I0711 14:16:36.368527 126720 net.cpp:165] Memory required for data: 506881536
I0711 14:16:36.368543 126720 layer_factory.hpp:76] Creating layer relu12
I0711 14:16:36.368559 126720 net.cpp:106] Creating Layer relu12
I0711 14:16:36.368569 126720 net.cpp:454] relu12 <- conv12
I0711 14:16:36.368580 126720 net.cpp:397] relu12 -> conv12 (in-place)
I0711 14:16:36.370173 126720 net.cpp:150] Setting up relu12
I0711 14:16:36.370194 126720 net.cpp:157] Top shape: 128 32 100 100 (40960000)
I0711 14:16:36.370203 126720 net.cpp:165] Memory required for data: 670721536
I0711 14:16:36.370213 126720 layer_factory.hpp:76] Creating layer pool1
I0711 14:16:36.370229 126720 net.cpp:106] Creating Layer pool1
I0711 14:16:36.370237 126720 net.cpp:454] pool1 <- conv12
I0711 14:16:36.370250 126720 net.cpp:411] pool1 -> pool1
I0711 14:16:36.371024 126720 net.cpp:150] Setting up pool1
I0711 14:16:36.371042 126720 net.cpp:157] Top shape: 128 32 50 50 (10240000)
I0711 14:16:36.371052 126720 net.cpp:165] Memory required for data: 711681536
I0711 14:16:36.371060 126720 layer_factory.hpp:76] Creating layer conv21
I0711 14:16:36.371089 126720 net.cpp:106] Creating Layer conv21
I0711 14:16:36.371098 126720 net.cpp:454] conv21 <- pool1
I0711 14:16:36.371111 126720 net.cpp:411] conv21 -> conv21
I0711 14:16:36.374048 126720 net.cpp:150] Setting up conv21
I0711 14:16:36.374081 126720 net.cpp:157] Top shape: 128 64 50 50 (20480000)
I0711 14:16:36.374091 126720 net.cpp:165] Memory required for data: 793601536
I0711 14:16:36.374110 126720 layer_factory.hpp:76] Creating layer relu21
I0711 14:16:36.374127 126720 net.cpp:106] Creating Layer relu21
I0711 14:16:36.374138 126720 net.cpp:454] relu21 <- conv21
I0711 14:16:36.374150 126720 net.cpp:397] relu21 -> conv21 (in-place)
I0711 14:16:36.374471 126720 net.cpp:150] Setting up relu21
I0711 14:16:36.374523 126720 net.cpp:157] Top shape: 128 64 50 50 (20480000)
I0711 14:16:36.374532 126720 net.cpp:165] Memory required for data: 875521536
I0711 14:16:36.374541 126720 layer_factory.hpp:76] Creating layer conv22
I0711 14:16:36.374559 126720 net.cpp:106] Creating Layer conv22
I0711 14:16:36.374572 126720 net.cpp:454] conv22 <- conv21
I0711 14:16:36.374583 126720 net.cpp:411] conv22 -> conv22
I0711 14:16:36.376682 126720 cudnn_conv_layer.cpp:194] Reallocating workspace storage: 6912
I0711 14:16:36.377077 126720 net.cpp:150] Setting up conv22
I0711 14:16:36.377099 126720 net.cpp:157] Top shape: 128 64 50 50 (20480000)
I0711 14:16:36.377109 126720 net.cpp:165] Memory required for data: 957441536
I0711 14:16:36.377121 126720 layer_factory.hpp:76] Creating layer relu22
I0711 14:16:36.377135 126720 net.cpp:106] Creating Layer relu22
I0711 14:16:36.377143 126720 net.cpp:454] relu22 <- conv22
I0711 14:16:36.377153 126720 net.cpp:397] relu22 -> conv22 (in-place)
I0711 14:16:36.377614 126720 net.cpp:150] Setting up relu22
I0711 14:16:36.377641 126720 net.cpp:157] Top shape: 128 64 50 50 (20480000)
I0711 14:16:36.377650 126720 net.cpp:165] Memory required for data: 1039361536
I0711 14:16:36.377661 126720 layer_factory.hpp:76] Creating layer pool2
I0711 14:16:36.377674 126720 net.cpp:106] Creating Layer pool2
I0711 14:16:36.377682 126720 net.cpp:454] pool2 <- conv22
I0711 14:16:36.377693 126720 net.cpp:411] pool2 -> pool2
I0711 14:16:36.377897 126720 net.cpp:150] Setting up pool2
I0711 14:16:36.377914 126720 net.cpp:157] Top shape: 128 64 25 25 (5120000)
I0711 14:16:36.377923 126720 net.cpp:165] Memory required for data: 1059841536
I0711 14:16:36.377931 126720 layer_factory.hpp:76] Creating layer conv31
I0711 14:16:36.377948 126720 net.cpp:106] Creating Layer conv31
I0711 14:16:36.377956 126720 net.cpp:454] conv31 <- pool2
I0711 14:16:36.377969 126720 net.cpp:411] conv31 -> conv31
I0711 14:16:36.379626 126720 cudnn_conv_layer.cpp:194] Reallocating workspace storage: 6912
I0711 14:16:36.379663 126720 net.cpp:150] Setting up conv31
I0711 14:16:36.379679 126720 net.cpp:157] Top shape: 128 96 25 25 (7680000)
I0711 14:16:36.379688 126720 net.cpp:165] Memory required for data: 1090561536
I0711 14:16:36.379703 126720 layer_factory.hpp:76] Creating layer relu31
I0711 14:16:36.379719 126720 net.cpp:106] Creating Layer relu31
I0711 14:16:36.379731 126720 net.cpp:454] relu31 <- conv31
I0711 14:16:36.379746 126720 net.cpp:397] relu31 -> conv31 (in-place)
I0711 14:16:36.380081 126720 net.cpp:150] Setting up relu31
I0711 14:16:36.380102 126720 net.cpp:157] Top shape: 128 96 25 25 (7680000)
I0711 14:16:36.380111 126720 net.cpp:165] Memory required for data: 1121281536
I0711 14:16:36.380120 126720 layer_factory.hpp:76] Creating layer conv32
I0711 14:16:36.380138 126720 net.cpp:106] Creating Layer conv32
I0711 14:16:36.380147 126720 net.cpp:454] conv32 <- conv31
I0711 14:16:36.380158 126720 net.cpp:411] conv32 -> conv32
I0711 14:16:36.382525 126720 cudnn_conv_layer.cpp:194] Reallocating workspace storage: 10368
I0711 14:16:36.382566 126720 net.cpp:150] Setting up conv32
I0711 14:16:36.382582 126720 net.cpp:157] Top shape: 128 96 25 25 (7680000)
I0711 14:16:36.382596 126720 net.cpp:165] Memory required for data: 1152001536
I0711 14:16:36.382607 126720 layer_factory.hpp:76] Creating layer relu32
I0711 14:16:36.382623 126720 net.cpp:106] Creating Layer relu32
I0711 14:16:36.382650 126720 net.cpp:454] relu32 <- conv32
I0711 14:16:36.382670 126720 net.cpp:397] relu32 -> conv32 (in-place)
I0711 14:16:36.382848 126720 net.cpp:150] Setting up relu32
I0711 14:16:36.382865 126720 net.cpp:157] Top shape: 128 96 25 25 (7680000)
I0711 14:16:36.382874 126720 net.cpp:165] Memory required for data: 1182721536
I0711 14:16:36.382884 126720 layer_factory.hpp:76] Creating layer pool3
I0711 14:16:36.382899 126720 net.cpp:106] Creating Layer pool3
I0711 14:16:36.382906 126720 net.cpp:454] pool3 <- conv32
I0711 14:16:36.382920 126720 net.cpp:411] pool3 -> pool3
I0711 14:16:36.383457 126720 net.cpp:150] Setting up pool3
I0711 14:16:36.383482 126720 net.cpp:157] Top shape: 128 96 13 13 (2076672)
I0711 14:16:36.383527 126720 net.cpp:165] Memory required for data: 1191028224
I0711 14:16:36.383536 126720 layer_factory.hpp:76] Creating layer conv41
I0711 14:16:36.383554 126720 net.cpp:106] Creating Layer conv41
I0711 14:16:36.383565 126720 net.cpp:454] conv41 <- pool3
I0711 14:16:36.383577 126720 net.cpp:411] conv41 -> conv41
I0711 14:16:36.388180 126720 net.cpp:150] Setting up conv41
I0711 14:16:36.388211 126720 net.cpp:157] Top shape: 128 128 13 13 (2768896)
I0711 14:16:36.388221 126720 net.cpp:165] Memory required for data: 1202103808
I0711 14:16:36.388237 126720 layer_factory.hpp:76] Creating layer relu41
I0711 14:16:36.388250 126720 net.cpp:106] Creating Layer relu41
I0711 14:16:36.388260 126720 net.cpp:454] relu41 <- conv41
I0711 14:16:36.388272 126720 net.cpp:397] relu41 -> conv41 (in-place)
I0711 14:16:36.388926 126720 net.cpp:150] Setting up relu41
I0711 14:16:36.388947 126720 net.cpp:157] Top shape: 128 128 13 13 (2768896)
I0711 14:16:36.388954 126720 net.cpp:165] Memory required for data: 1213179392
I0711 14:16:36.388963 126720 layer_factory.hpp:76] Creating layer conv42
I0711 14:16:36.388981 126720 net.cpp:106] Creating Layer conv42
I0711 14:16:36.388990 126720 net.cpp:454] conv42 <- conv41
I0711 14:16:36.389003 126720 net.cpp:411] conv42 -> conv42
I0711 14:16:36.391875 126720 cudnn_conv_layer.cpp:194] Reallocating workspace storage: 13824
I0711 14:16:36.391922 126720 net.cpp:150] Setting up conv42
I0711 14:16:36.391937 126720 net.cpp:157] Top shape: 128 128 13 13 (2768896)
I0711 14:16:36.391945 126720 net.cpp:165] Memory required for data: 1224254976
I0711 14:16:36.391959 126720 layer_factory.hpp:76] Creating layer relu42
I0711 14:16:36.391983 126720 net.cpp:106] Creating Layer relu42
I0711 14:16:36.391993 126720 net.cpp:454] relu42 <- conv42
I0711 14:16:36.392005 126720 net.cpp:397] relu42 -> conv42 (in-place)
I0711 14:16:36.393493 126720 net.cpp:150] Setting up relu42
I0711 14:16:36.393510 126720 net.cpp:157] Top shape: 128 128 13 13 (2768896)
I0711 14:16:36.393519 126720 net.cpp:165] Memory required for data: 1235330560
I0711 14:16:36.393527 126720 layer_factory.hpp:76] Creating layer pool4
I0711 14:16:36.393544 126720 net.cpp:106] Creating Layer pool4
I0711 14:16:36.393553 126720 net.cpp:454] pool4 <- conv42
I0711 14:16:36.393563 126720 net.cpp:411] pool4 -> pool4
I0711 14:16:36.393920 126720 net.cpp:150] Setting up pool4
I0711 14:16:36.393940 126720 net.cpp:157] Top shape: 128 128 7 7 (802816)
I0711 14:16:36.393949 126720 net.cpp:165] Memory required for data: 1238541824
I0711 14:16:36.393959 126720 layer_factory.hpp:76] Creating layer conv51
I0711 14:16:36.393975 126720 net.cpp:106] Creating Layer conv51
I0711 14:16:36.393985 126720 net.cpp:454] conv51 <- pool4
I0711 14:16:36.394001 126720 net.cpp:411] conv51 -> conv51
I0711 14:16:36.399826 126720 net.cpp:150] Setting up conv51
I0711 14:16:36.399863 126720 net.cpp:157] Top shape: 128 256 7 7 (1605632)
I0711 14:16:36.399873 126720 net.cpp:165] Memory required for data: 1244964352
I0711 14:16:36.399896 126720 layer_factory.hpp:76] Creating layer relu51
I0711 14:16:36.399911 126720 net.cpp:106] Creating Layer relu51
I0711 14:16:36.399925 126720 net.cpp:454] relu51 <- conv51
I0711 14:16:36.399943 126720 net.cpp:397] relu51 -> conv51 (in-place)
I0711 14:16:36.400395 126720 net.cpp:150] Setting up relu51
I0711 14:16:36.400413 126720 net.cpp:157] Top shape: 128 256 7 7 (1605632)
I0711 14:16:36.400420 126720 net.cpp:165] Memory required for data: 1251386880
I0711 14:16:36.400429 126720 layer_factory.hpp:76] Creating layer conv52
I0711 14:16:36.400449 126720 net.cpp:106] Creating Layer conv52
I0711 14:16:36.400457 126720 net.cpp:454] conv52 <- conv51
I0711 14:16:36.400467 126720 net.cpp:411] conv52 -> conv52
I0711 14:16:36.407112 126720 net.cpp:150] Setting up conv52
I0711 14:16:36.407157 126720 net.cpp:157] Top shape: 128 256 7 7 (1605632)
I0711 14:16:36.407168 126720 net.cpp:165] Memory required for data: 1257809408
I0711 14:16:36.407183 126720 layer_factory.hpp:76] Creating layer relu52
I0711 14:16:36.407202 126720 net.cpp:106] Creating Layer relu52
I0711 14:16:36.407251 126720 net.cpp:454] relu52 <- conv52
I0711 14:16:36.407265 126720 net.cpp:397] relu52 -> conv52 (in-place)
I0711 14:16:36.407598 126720 net.cpp:150] Setting up relu52
I0711 14:16:36.407623 126720 net.cpp:157] Top shape: 128 256 7 7 (1605632)
I0711 14:16:36.407631 126720 net.cpp:165] Memory required for data: 1264231936
I0711 14:16:36.407640 126720 layer_factory.hpp:76] Creating layer conv53
I0711 14:16:36.407656 126720 net.cpp:106] Creating Layer conv53
I0711 14:16:36.407665 126720 net.cpp:454] conv53 <- conv52
I0711 14:16:36.407678 126720 net.cpp:411] conv53 -> conv53
I0711 14:16:36.437551 126720 cudnn_conv_layer.cpp:194] Reallocating workspace storage: 150528
I0711 14:16:36.437803 126720 net.cpp:150] Setting up conv53
I0711 14:16:36.437827 126720 net.cpp:157] Top shape: 128 256 1 1 (32768)
I0711 14:16:36.437837 126720 net.cpp:165] Memory required for data: 1264363008
I0711 14:16:36.437855 126720 layer_factory.hpp:76] Creating layer relu53
I0711 14:16:36.437875 126720 net.cpp:106] Creating Layer relu53
I0711 14:16:36.437885 126720 net.cpp:454] relu53 <- conv53
I0711 14:16:36.437901 126720 net.cpp:397] relu53 -> conv53 (in-place)
I0711 14:16:36.438230 126720 net.cpp:150] Setting up relu53
I0711 14:16:36.438262 126720 net.cpp:157] Top shape: 128 256 1 1 (32768)
I0711 14:16:36.438274 126720 net.cpp:165] Memory required for data: 1264494080
I0711 14:16:36.438283 126720 layer_factory.hpp:76] Creating layer drop6
I0711 14:16:36.438308 126720 net.cpp:106] Creating Layer drop6
I0711 14:16:36.438321 126720 net.cpp:454] drop6 <- conv53
I0711 14:16:36.438341 126720 net.cpp:411] drop6 -> drop6
I0711 14:16:36.438416 126720 net.cpp:150] Setting up drop6
I0711 14:16:36.438429 126720 net.cpp:157] Top shape: 128 256 1 1 (32768)
I0711 14:16:36.438438 126720 net.cpp:165] Memory required for data: 1264625152
I0711 14:16:36.438446 126720 layer_factory.hpp:76] Creating layer conv54
I0711 14:16:36.438478 126720 net.cpp:106] Creating Layer conv54
I0711 14:16:36.438496 126720 net.cpp:454] conv54 <- drop6
I0711 14:16:36.438506 126720 net.cpp:411] conv54 -> conv54
I0711 14:16:36.439810 126720 cudnn_conv_layer.cpp:194] Reallocating workspace storage: 3072
I0711 14:16:36.440026 126720 net.cpp:150] Setting up conv54
I0711 14:16:36.440044 126720 net.cpp:157] Top shape: 128 2 1 1 (256)
I0711 14:16:36.440055 126720 net.cpp:165] Memory required for data: 1264626176
I0711 14:16:36.440070 126720 layer_factory.hpp:76] Creating layer conv54_conv54_0_split
I0711 14:16:36.440084 126720 net.cpp:106] Creating Layer conv54_conv54_0_split
I0711 14:16:36.440093 126720 net.cpp:454] conv54_conv54_0_split <- conv54
I0711 14:16:36.440104 126720 net.cpp:411] conv54_conv54_0_split -> conv54_conv54_0_split_0
I0711 14:16:36.440115 126720 net.cpp:411] conv54_conv54_0_split -> conv54_conv54_0_split_1
I0711 14:16:36.440165 126720 net.cpp:150] Setting up conv54_conv54_0_split
I0711 14:16:36.440179 126720 net.cpp:157] Top shape: 128 2 1 1 (256)
I0711 14:16:36.440188 126720 net.cpp:157] Top shape: 128 2 1 1 (256)
I0711 14:16:36.440197 126720 net.cpp:165] Memory required for data: 1264628224
I0711 14:16:36.440207 126720 layer_factory.hpp:76] Creating layer accuracy
I0711 14:16:36.440222 126720 net.cpp:106] Creating Layer accuracy
I0711 14:16:36.440230 126720 net.cpp:454] accuracy <- conv54_conv54_0_split_0
I0711 14:16:36.440240 126720 net.cpp:454] accuracy <- label_data_1_split_0
I0711 14:16:36.440261 126720 net.cpp:411] accuracy -> accuracy
…
I0711 14:16:36.442068 126720 net.cpp:322] The NetState phase (1) differed from the phase (0) specified by a rule in layer data
I0711 14:16:36.442283 126720 net.cpp:49] Initializing net from parameters: 
name: "FaceNN"
state {
  phase: TEST
}
layer {
  name: "data"
  type: "ImageData"
  top: "data"
  top: "label"
  include {
    phase: TEST
  }
  transform_param {
    mirror: false
    crop_size: 100
    mean_value: 104
    mean_value: 117
    mean_value: 123
  }
  image_data_param {
    source: "../lists/roi-val-L0.lst"
    batch_size: 100
    shuffle: true
    new_height: 110
    new_width: 110
  }
}
layer {
  name: "conv11"
  type: "Convolution"
  bottom: "data"
  top: "conv11"
  param {
    lr_mult: 1
    decay_mult: 1
  }
  param {
    lr_mult: 2
    decay_mult: 0
  }
  convolution_param {
    num_output: 32
    pad: 1
    stride: 1
    weight_filler {
      type: "xavier"
    }
    bias_filler {
      type: "constant"
    }
    kernel_h: 3
    kernel_w: 3
  }
}
layer {
  name: "relu11"
  type: "ReLU"
  bottom: "conv11"
  top: "conv11"
}
layer {
  name: "conv12"
  type: "Convolution"
  bottom: "conv11"
  top: "conv12"
  param {
    lr_mult: 1
    decay_mult: 1
  }
  param {
    lr_mult: 2
    decay_mult: 0
  }
  convolution_param {
    num_output: 32
    pad: 1
    stride: 1
    weight_filler {
      type: "xavier"
    }
    bias_filler {
      type: "constant"
    }
    kernel_h: 3
    kernel_w: 3
  }
}
layer {
  name: "relu12"
  type: "ReLU"
  bottom: "conv12"
  top: "conv12"
}
layer {
  name: "pool1"
  type: "Pooling"
  bottom: "conv12"
  top: "pool1"
  pooling_param {
    pool: MAX
    kernel_size: 2
    stride: 2
  }
}
layer {
  name: "conv21"
  type: "Convolution"
  bottom: "pool1"
  top: "conv21"
  param {
    lr_mult: 1
    decay_mult: 1
  }
  param {
    lr_mult: 2
    decay_mult: 0
  }
  convolution_param {
    num_output: 64
    pad: 1
    stride: 1
    weight_filler {
      type: "xavier"
    }
    bias_filler {
      type: "constant"
    }
    kernel_h: 3
    kernel_w: 3
  }
}
layer {
  name: "relu21"
  type: "ReLU"
  bottom: "conv21"
  top: "conv21"
}
layer {
  name: "conv22"
  type: "Convolution"
  bottom: "conv21"
  top: "conv22"
  param {
    lr_mult: 1
    decay_mult: 1
  }
  param {
    lr_mult: 2
    decay_mult: 0
  }
  convolution_param {
    num_output: 64
    pad: 1
    stride: 1
    weight_filler {
      type: "xavier"
    }
    bias_filler {
      type: "constant"
    }
    kernel_h: 3
    kernel_w: 3
  }
}
layer {
  name: "relu22"
  type: "ReLU"
  bottom: "conv22"
  top: "conv22"
}
layer {
  name: "pool2"
  type: "Pooling"
  bottom: "conv22"
  top: "pool2"
  pooling_param {
    pool: MAX
    kernel_size: 2
    stride: 2
  }
}
layer {
  name: "conv31"
  type: "Convolution"
  bottom: "pool2"
  top: "conv31"
  param {
    lr_mult: 1
    decay_mult: 1
  }
  param {
    lr_mult: 2
    decay_mult: 0
  }
  convolution_param {
    num_output: 96
    pad: 1
    stride: 1
    weight_filler {
      type: "xavier"
    }
    bias_filler {
      type: "constant"
    }
    kernel_h: 3
    kernel_w: 3
  }
}
layer {
  name: "relu31"
  type: "ReLU"
  bottom: "conv31"
  top: "conv31"
}
layer {
  name: "conv32"
  type: "Convolution"
  bottom: "conv31"
  top: "conv32"
  param {
    lr_mult: 1
    decay_mult: 1
  }
  param {
    lr_mult: 2
    decay_mult: 0
  }
  convolution_param {
    num_output: 96
    pad: 1
    stride: 1
    weight_filler {
      type: "xavier"
    }
    bias_filler {
      type: "constant"
    }
    kernel_h: 3
    kernel_w: 3
  }
}
layer {
  name: "relu32"
  type: "ReLU"
  bottom: "conv32"
  top: "conv32"
}
layer {
  name: "pool3"
  type: "Pooling"
  bottom: "conv32"
  top: "pool3"
  pooling_param {
    pool: MAX
    kernel_size: 2
    stride: 2
  }
}
layer {
  name: "conv41"
  type: "Convolution"
  bottom: "pool3"
  top: "conv41"
  param {
    lr_mult: 1
    decay_mult: 1
  }
  param {
    lr_mult: 2
    decay_mult: 0
  }
  convolution_param {
    num_output: 128
    pad: 1
    stride: 1
    weight_filler {
      type: "xavier"
    }
    bias_filler {
      type: "constant"
    }
    kernel_h: 3
    kernel_w: 3
  }
}
layer {
  name: "relu41"
  type: "ReLU"
  bottom: "conv41"
  top: "conv41"
}
layer {
  name: "conv42"
  type: "Convolution"
  bottom: "conv41"
  top: "conv42"
  param {
    lr_mult: 1
    decay_mult: 1
  }
  param {
    lr_mult: 2
    decay_mult: 0
  }
  convolution_param {
    num_output: 128
    pad: 1
    stride: 1
    weight_filler {
      type: "xavier"
    }
    bias_filler {
      type: "constant"
    }
    kernel_h: 3
    kernel_w: 3
  }
}
layer {
  name: "relu42"
  type: "ReLU"
  bottom: "conv42"
  top: "conv42"
}
layer {
  name: "pool4"
  type: "Pooling"
  bottom: "conv42"
  top: "pool4"
  pooling_param {
    pool: MAX
    kernel_size: 2
    stride: 2
  }
}
layer {
  name: "conv51"
  type: "Convolution"
  bottom: "pool4"
  top: "conv51"
  param {
    lr_mult: 1
    decay_mult: 1
  }
  param {
    lr_mult: 2
    decay_mult: 0
  }
  convolution_param {
    num_output: 256
    pad: 1
    stride: 1
    weight_filler {
      type: "xavier"
    }
    bias_filler {
      type: "constant"
    }
    kernel_h: 3
    kernel_w: 3
  }
}
layer {
  name: "relu51"
  type: "ReLU"
  bottom: "conv51"
  top: "conv51"
}
layer {
  name: "conv52"
  type: "Convolution"
  bottom: "conv51"
  top: "conv52"
  param {
    lr_mult: 1
    decay_mult: 1
  }
  param {
    lr_mult: 2
    decay_mult: 0
  }
  convolution_param {
    num_output: 256
    pad: 1
    stride: 1
    weight_filler {
      type: "xavier"
    }
    bias_filler {
      type: "constant"
    }
    kernel_h: 3
    kernel_w: 3
  }
}
layer {
  name: "relu52"
  type: "ReLU"
  bottom: "conv52"
  top: "conv52"
}
layer {
  name: "conv53"
  type: "Convolution"
  bottom: "conv52"
  top: "conv53"
  param {
    lr_mult: 1
    decay_mult: 1
  }
  param {
    lr_mult: 2
    decay_mult: 0
  }
  convolution_param {
    num_output: 256
    stride: 1
    weight_filler {
      type: "xavier"
    }
    bias_filler {
      type: "constant"
    }
    kernel_h: 7
    kernel_w: 7
  }
}
layer {
  name: "relu53"
  type: "ReLU"
  bottom: "conv53"
  top: "conv53"
}
layer {
  name: "drop6"
  type: "Dropout"
  bottom: "conv53"
  top: "drop6"
  dropout_param {
    dropout_ratio: 0.4
  }
}
layer {
  name: "conv54"
  type: "Convolution"
  bottom: "drop6"
  top: "conv54"
  param {
    lr_mult: 1
    decay_mult: 1
  }
  param {
    lr_mult: 2
    decay_mult: 0
  }
  convolution_param {
    num_output: 2
    stride: 1
    weight_filler {
      type: "xavier"
    }
    bias_filler {
      type: "constant"
    }
    kernel_h: 1
    kernel_w: 1
  }
}
layer {
  name: "accuracy"
  type: "Accuracy"
  bottom: "conv54"
  bottom: "label"
  top: "accuracy"
}
layer {
  name: "loss"
  type: "SoftmaxWithLoss"
  bottom: "conv54"
  bottom: "label"
  top: "loss"
}
I0711 14:16:36.444015 126720 layer_factory.hpp:76] Creating layer data
I0711 14:16:36.444038 126720 net.cpp:106] Creating Layer data
I0711 14:16:36.444044 126720 net.cpp:411] data -> data
I0711 14:16:36.444057 126720 net.cpp:411] data -> label
I0711 14:16:36.444067 126720 image_data_layer.cpp:36] Opening file ../lists/roi-val-L0.lst
I0711 14:16:36.453863 126720 image_data_layer.cpp:46] Shuffling data
I0711 14:16:36.455127 126720 image_data_layer.cpp:51] A total of 20030 images.
I0711 14:16:36.470337 126720 image_data_layer.cpp:78] output data size: 100,3,100,100
I0711 14:16:36.506163 126720 net.cpp:150] Setting up data
I0711 14:16:36.506206 126720 net.cpp:157] Top shape: 100 3 100 100 (3000000)
I0711 14:16:36.506218 126720 net.cpp:157] Top shape: 100 (100)
I0711 14:16:36.506227 126720 net.cpp:165] Memory required for data: 12000400
I0711 14:16:36.506238 126720 layer_factory.hpp:76] Creating layer label_data_1_split
I0711 14:16:36.506256 126720 net.cpp:106] Creating Layer label_data_1_split
I0711 14:16:36.506265 126720 net.cpp:454] label_data_1_split <- label
I0711 14:16:36.506279 126720 net.cpp:411] label_data_1_split -> label_data_1_split_0
I0711 14:16:36.506294 126720 net.cpp:411] label_data_1_split -> label_data_1_split_1
I0711 14:16:36.506364 126720 net.cpp:150] Setting up label_data_1_split
I0711 14:16:36.506392 126720 net.cpp:157] Top shape: 100 (100)
I0711 14:16:36.506400 126720 net.cpp:157] Top shape: 100 (100)
I0711 14:16:36.506407 126720 net.cpp:165] Memory required for data: 12001200
I0711 14:16:36.506415 126720 layer_factory.hpp:76] Creating layer conv11
I0711 14:16:36.506433 126720 net.cpp:106] Creating Layer conv11
I0711 14:16:36.506443 126720 net.cpp:454] conv11 <- data
I0711 14:16:36.506454 126720 net.cpp:411] conv11 -> conv11
I0711 14:16:36.508023 126720 net.cpp:150] Setting up conv11
I0711 14:16:36.508059 126720 net.cpp:157] Top shape: 100 32 100 100 (32000000)
I0711 14:16:36.508069 126720 net.cpp:165] Memory required for data: 140001200
I0711 14:16:36.508110 126720 layer_factory.hpp:76] Creating layer relu11
I0711 14:16:36.508136 126720 net.cpp:106] Creating Layer relu11
I0711 14:16:36.508157 126720 net.cpp:454] relu11 <- conv11
I0711 14:16:36.508169 126720 net.cpp:397] relu11 -> conv11 (in-place)
I0711 14:16:36.508564 126720 net.cpp:150] Setting up relu11
I0711 14:16:36.508595 126720 net.cpp:157] Top shape: 100 32 100 100 (32000000)
I0711 14:16:36.508605 126720 net.cpp:165] Memory required for data: 268001200
I0711 14:16:36.508612 126720 layer_factory.hpp:76] Creating layer conv12
I0711 14:16:36.508635 126720 net.cpp:106] Creating Layer conv12
I0711 14:16:36.508644 126720 net.cpp:454] conv12 <- conv11
I0711 14:16:36.508656 126720 net.cpp:411] conv12 -> conv12
I0711 14:16:36.509768 126720 net.cpp:150] Setting up conv12
I0711 14:16:36.509799 126720 net.cpp:157] Top shape: 100 32 100 100 (32000000)
I0711 14:16:36.509817 126720 net.cpp:165] Memory required for data: 396001200
I0711 14:16:36.509848 126720 layer_factory.hpp:76] Creating layer relu12
I0711 14:16:36.509860 126720 net.cpp:106] Creating Layer relu12
I0711 14:16:36.509870 126720 net.cpp:454] relu12 <- conv12
I0711 14:16:36.509878 126720 net.cpp:397] relu12 -> conv12 (in-place)
I0711 14:16:36.510288 126720 net.cpp:150] Setting up relu12
I0711 14:16:36.510318 126720 net.cpp:157] Top shape: 100 32 100 100 (32000000)
I0711 14:16:36.510331 126720 net.cpp:165] Memory required for data: 524001200
I0711 14:16:36.510340 126720 layer_factory.hpp:76] Creating layer pool1
I0711 14:16:36.510356 126720 net.cpp:106] Creating Layer pool1
I0711 14:16:36.510365 126720 net.cpp:454] pool1 <- conv12
I0711 14:16:36.510375 126720 net.cpp:411] pool1 -> pool1
I0711 14:16:36.510659 126720 net.cpp:150] Setting up pool1
I0711 14:16:36.510687 126720 net.cpp:157] Top shape: 100 32 50 50 (8000000)
I0711 14:16:36.510696 126720 net.cpp:165] Memory required for data: 556001200
I0711 14:16:36.510704 126720 layer_factory.hpp:76] Creating layer conv21
I0711 14:16:36.510722 126720 net.cpp:106] Creating Layer conv21
I0711 14:16:36.510731 126720 net.cpp:454] conv21 <- pool1
I0711 14:16:36.510740 126720 net.cpp:411] conv21 -> conv21
I0711 14:16:36.513641 126720 net.cpp:150] Setting up conv21
I0711 14:16:36.513675 126720 net.cpp:157] Top shape: 100 64 50 50 (16000000)
I0711 14:16:36.513685 126720 net.cpp:165] Memory required for data: 620001200
I0711 14:16:36.513700 126720 layer_factory.hpp:76] Creating layer relu21
I0711 14:16:36.513716 126720 net.cpp:106] Creating Layer relu21
I0711 14:16:36.513727 126720 net.cpp:454] relu21 <- conv21
I0711 14:16:36.513762 126720 net.cpp:397] relu21 -> conv21 (in-place)
I0711 14:16:36.514165 126720 net.cpp:150] Setting up relu21
I0711 14:16:36.514195 126720 net.cpp:157] Top shape: 100 64 50 50 (16000000)
I0711 14:16:36.514204 126720 net.cpp:165] Memory required for data: 684001200
I0711 14:16:36.514212 126720 layer_factory.hpp:76] Creating layer conv22
I0711 14:16:36.514228 126720 net.cpp:106] Creating Layer conv22
I0711 14:16:36.514237 126720 net.cpp:454] conv22 <- conv21
I0711 14:16:36.514256 126720 net.cpp:411] conv22 -> conv22
I0711 14:16:36.515720 126720 net.cpp:150] Setting up conv22
I0711 14:16:36.515753 126720 net.cpp:157] Top shape: 100 64 50 50 (16000000)
I0711 14:16:36.515763 126720 net.cpp:165] Memory required for data: 748001200
I0711 14:16:36.515774 126720 layer_factory.hpp:76] Creating layer relu22
I0711 14:16:36.515784 126720 net.cpp:106] Creating Layer relu22
I0711 14:16:36.515792 126720 net.cpp:454] relu22 <- conv22
I0711 14:16:36.515806 126720 net.cpp:397] relu22 -> conv22 (in-place)
I0711 14:16:36.516041 126720 net.cpp:150] Setting up relu22
I0711 14:16:36.516055 126720 net.cpp:157] Top shape: 100 64 50 50 (16000000)
I0711 14:16:36.516074 126720 net.cpp:165] Memory required for data: 812001200
I0711 14:16:36.516083 126720 layer_factory.hpp:76] Creating layer pool2
I0711 14:16:36.516095 126720 net.cpp:106] Creating Layer pool2
I0711 14:16:36.516103 126720 net.cpp:454] pool2 <- conv22
I0711 14:16:36.516113 126720 net.cpp:411] pool2 -> pool2
I0711 14:16:36.516546 126720 net.cpp:150] Setting up pool2
I0711 14:16:36.516590 126720 net.cpp:157] Top shape: 100 64 25 25 (4000000)
I0711 14:16:36.516599 126720 net.cpp:165] Memory required for data: 828001200
I0711 14:16:36.516607 126720 layer_factory.hpp:76] Creating layer conv31
I0711 14:16:36.516625 126720 net.cpp:106] Creating Layer conv31
I0711 14:16:36.516634 126720 net.cpp:454] conv31 <- pool2
I0711 14:16:36.516645 126720 net.cpp:411] conv31 -> conv31
I0711 14:16:36.518074 126720 cudnn_conv_layer.cpp:194] Reallocating workspace storage: 6912
I0711 14:16:36.518121 126720 net.cpp:150] Setting up conv31
I0711 14:16:36.518132 126720 net.cpp:157] Top shape: 100 96 25 25 (6000000)
I0711 14:16:36.518141 126720 net.cpp:165] Memory required for data: 852001200
I0711 14:16:36.518154 126720 layer_factory.hpp:76] Creating layer relu31
I0711 14:16:36.518183 126720 net.cpp:106] Creating Layer relu31
I0711 14:16:36.518193 126720 net.cpp:454] relu31 <- conv31
I0711 14:16:36.518203 126720 net.cpp:397] relu31 -> conv31 (in-place)
I0711 14:16:36.518591 126720 net.cpp:150] Setting up relu31
I0711 14:16:36.518621 126720 net.cpp:157] Top shape: 100 96 25 25 (6000000)
I0711 14:16:36.518635 126720 net.cpp:165] Memory required for data: 876001200
I0711 14:16:36.518643 126720 layer_factory.hpp:76] Creating layer conv32
I0711 14:16:36.518661 126720 net.cpp:106] Creating Layer conv32
I0711 14:16:36.518671 126720 net.cpp:454] conv32 <- conv31
I0711 14:16:36.518681 126720 net.cpp:411] conv32 -> conv32
I0711 14:16:36.520398 126720 cudnn_conv_layer.cpp:194] Reallocating workspace storage: 10368
I0711 14:16:36.520447 126720 net.cpp:150] Setting up conv32
I0711 14:16:36.520459 126720 net.cpp:157] Top shape: 100 96 25 25 (6000000)
I0711 14:16:36.520467 126720 net.cpp:165] Memory required for data: 900001200
I0711 14:16:36.520479 126720 layer_factory.hpp:76] Creating layer relu32
I0711 14:16:36.520493 126720 net.cpp:106] Creating Layer relu32
I0711 14:16:36.520504 126720 net.cpp:454] relu32 <- conv32
I0711 14:16:36.520529 126720 net.cpp:397] relu32 -> conv32 (in-place)
I0711 14:16:36.520763 126720 net.cpp:150] Setting up relu32
I0711 14:16:36.520789 126720 net.cpp:157] Top shape: 100 96 25 25 (6000000)
I0711 14:16:36.520798 126720 net.cpp:165] Memory required for data: 924001200
I0711 14:16:36.520818 126720 layer_factory.hpp:76] Creating layer pool3
I0711 14:16:36.520833 126720 net.cpp:106] Creating Layer pool3
I0711 14:16:36.520841 126720 net.cpp:454] pool3 <- conv32
I0711 14:16:36.520851 126720 net.cpp:411] pool3 -> pool3
I0711 14:16:36.521275 126720 net.cpp:150] Setting up pool3
I0711 14:16:36.521304 126720 net.cpp:157] Top shape: 100 96 13 13 (1622400)
I0711 14:16:36.521312 126720 net.cpp:165] Memory required for data: 930490800
I0711 14:16:36.521322 126720 layer_factory.hpp:76] Creating layer conv41
I0711 14:16:36.521342 126720 net.cpp:106] Creating Layer conv41
I0711 14:16:36.521350 126720 net.cpp:454] conv41 <- pool3
I0711 14:16:36.521360 126720 net.cpp:411] conv41 -> conv41
I0711 14:16:36.523946 126720 net.cpp:150] Setting up conv41
I0711 14:16:36.523977 126720 net.cpp:157] Top shape: 100 128 13 13 (2163200)
I0711 14:16:36.523985 126720 net.cpp:165] Memory required for data: 939143600
I0711 14:16:36.523996 126720 layer_factory.hpp:76] Creating layer relu41
I0711 14:16:36.524009 126720 net.cpp:106] Creating Layer relu41
I0711 14:16:36.524019 126720 net.cpp:454] relu41 <- conv41
I0711 14:16:36.524029 126720 net.cpp:397] relu41 -> conv41 (in-place)
I0711 14:16:36.524257 126720 net.cpp:150] Setting up relu41
I0711 14:16:36.524283 126720 net.cpp:157] Top shape: 100 128 13 13 (2163200)
I0711 14:16:36.524291 126720 net.cpp:165] Memory required for data: 947796400
I0711 14:16:36.524299 126720 layer_factory.hpp:76] Creating layer conv42
I0711 14:16:36.524313 126720 net.cpp:106] Creating Layer conv42
I0711 14:16:36.524322 126720 net.cpp:454] conv42 <- conv41
I0711 14:16:36.524334 126720 net.cpp:411] conv42 -> conv42
I0711 14:16:36.526269 126720 cudnn_conv_layer.cpp:194] Reallocating workspace storage: 13824
I0711 14:16:36.526317 126720 net.cpp:150] Setting up conv42
I0711 14:16:36.526329 126720 net.cpp:157] Top shape: 100 128 13 13 (2163200)
I0711 14:16:36.526365 126720 net.cpp:165] Memory required for data: 956449200
I0711 14:16:36.526378 126720 layer_factory.hpp:76] Creating layer relu42
I0711 14:16:36.526388 126720 net.cpp:106] Creating Layer relu42
I0711 14:16:36.526397 126720 net.cpp:454] relu42 <- conv42
I0711 14:16:36.526410 126720 net.cpp:397] relu42 -> conv42 (in-place)
I0711 14:16:36.526811 126720 net.cpp:150] Setting up relu42
I0711 14:16:36.526830 126720 net.cpp:157] Top shape: 100 128 13 13 (2163200)
I0711 14:16:36.526839 126720 net.cpp:165] Memory required for data: 965102000
I0711 14:16:36.526845 126720 layer_factory.hpp:76] Creating layer pool4
I0711 14:16:36.526856 126720 net.cpp:106] Creating Layer pool4
I0711 14:16:36.526865 126720 net.cpp:454] pool4 <- conv42
I0711 14:16:36.526876 126720 net.cpp:411] pool4 -> pool4
I0711 14:16:36.527138 126720 net.cpp:150] Setting up pool4
I0711 14:16:36.527164 126720 net.cpp:157] Top shape: 100 128 7 7 (627200)
I0711 14:16:36.527173 126720 net.cpp:165] Memory required for data: 967610800
I0711 14:16:36.527180 126720 layer_factory.hpp:76] Creating layer conv51
I0711 14:16:36.527194 126720 net.cpp:106] Creating Layer conv51
I0711 14:16:36.527205 126720 net.cpp:454] conv51 <- pool4
I0711 14:16:36.527215 126720 net.cpp:411] conv51 -> conv51
I0711 14:16:36.531116 126720 cudnn_conv_layer.cpp:194] Reallocating workspace storage: 13824
I0711 14:16:36.531164 126720 net.cpp:150] Setting up conv51
I0711 14:16:36.531177 126720 net.cpp:157] Top shape: 100 256 7 7 (1254400)
I0711 14:16:36.531185 126720 net.cpp:165] Memory required for data: 972628400
I0711 14:16:36.531205 126720 layer_factory.hpp:76] Creating layer relu51
I0711 14:16:36.531231 126720 net.cpp:106] Creating Layer relu51
I0711 14:16:36.531252 126720 net.cpp:454] relu51 <- conv51
I0711 14:16:36.531265 126720 net.cpp:397] relu51 -> conv51 (in-place)
I0711 14:16:36.531493 126720 net.cpp:150] Setting up relu51
I0711 14:16:36.531520 126720 net.cpp:157] Top shape: 100 256 7 7 (1254400)
I0711 14:16:36.531528 126720 net.cpp:165] Memory required for data: 977646000
I0711 14:16:36.531538 126720 layer_factory.hpp:76] Creating layer conv52
I0711 14:16:36.531553 126720 net.cpp:106] Creating Layer conv52
I0711 14:16:36.531561 126720 net.cpp:454] conv52 <- conv51
I0711 14:16:36.531574 126720 net.cpp:411] conv52 -> conv52
I0711 14:16:36.538157 126720 net.cpp:150] Setting up conv52
I0711 14:16:36.538193 126720 net.cpp:157] Top shape: 100 256 7 7 (1254400)
I0711 14:16:36.538203 126720 net.cpp:165] Memory required for data: 982663600
I0711 14:16:36.538214 126720 layer_factory.hpp:76] Creating layer relu52
I0711 14:16:36.538228 126720 net.cpp:106] Creating Layer relu52
I0711 14:16:36.538239 126720 net.cpp:454] relu52 <- conv52
I0711 14:16:36.538249 126720 net.cpp:397] relu52 -> conv52 (in-place)
I0711 14:16:36.538655 126720 net.cpp:150] Setting up relu52
I0711 14:16:36.538684 126720 net.cpp:157] Top shape: 100 256 7 7 (1254400)
I0711 14:16:36.538693 126720 net.cpp:165] Memory required for data: 987681200
I0711 14:16:36.538702 126720 layer_factory.hpp:76] Creating layer conv53
I0711 14:16:36.538718 126720 net.cpp:106] Creating Layer conv53
I0711 14:16:36.538727 126720 net.cpp:454] conv53 <- conv52
I0711 14:16:36.538740 126720 net.cpp:411] conv53 -> conv53
I0711 14:16:36.573452 126720 cudnn_conv_layer.cpp:194] Reallocating workspace storage: 150528
I0711 14:16:36.573536 126720 net.cpp:150] Setting up conv53
I0711 14:16:36.573552 126720 net.cpp:157] Top shape: 100 256 1 1 (25600)
I0711 14:16:36.573561 126720 net.cpp:165] Memory required for data: 987783600
I0711 14:16:36.573576 126720 layer_factory.hpp:76] Creating layer relu53
I0711 14:16:36.573596 126720 net.cpp:106] Creating Layer relu53
I0711 14:16:36.573609 126720 net.cpp:454] relu53 <- conv53
I0711 14:16:36.573622 126720 net.cpp:397] relu53 -> conv53 (in-place)
I0711 14:16:36.573860 126720 net.cpp:150] Setting up relu53
I0711 14:16:36.573886 126720 net.cpp:157] Top shape: 100 256 1 1 (25600)
I0711 14:16:36.573906 126720 net.cpp:165] Memory required for data: 987886000
I0711 14:16:36.573940 126720 layer_factory.hpp:76] Creating layer drop6
I0711 14:16:36.573953 126720 net.cpp:106] Creating Layer drop6
I0711 14:16:36.573961 126720 net.cpp:454] drop6 <- conv53
I0711 14:16:36.573976 126720 net.cpp:411] drop6 -> drop6
I0711 14:16:36.574069 126720 net.cpp:150] Setting up drop6
I0711 14:16:36.574084 126720 net.cpp:157] Top shape: 100 256 1 1 (25600)
I0711 14:16:36.574090 126720 net.cpp:165] Memory required for data: 987988400
I0711 14:16:36.574098 126720 layer_factory.hpp:76] Creating layer conv54
I0711 14:16:36.574115 126720 net.cpp:106] Creating Layer conv54
I0711 14:16:36.574139 126720 net.cpp:454] conv54 <- drop6
I0711 14:16:36.574165 126720 net.cpp:411] conv54 -> conv54
I0711 14:16:36.588831 126720 cudnn_conv_layer.cpp:194] Reallocating workspace storage: 3072
I0711 14:16:36.588878 126720 net.cpp:150] Setting up conv54
I0711 14:16:36.588891 126720 net.cpp:157] Top shape: 100 2 1 1 (200)
I0711 14:16:36.588898 126720 net.cpp:165] Memory required for data: 987989200
I0711 14:16:36.588912 126720 layer_factory.hpp:76] Creating layer conv54_conv54_0_split
I0711 14:16:36.588924 126720 net.cpp:106] Creating Layer conv54_conv54_0_split
I0711 14:16:36.588933 126720 net.cpp:454] conv54_conv54_0_split <- conv54
I0711 14:16:36.588943 126720 net.cpp:411] conv54_conv54_0_split -> conv54_conv54_0_split_0
I0711 14:16:36.588968 126720 net.cpp:411] conv54_conv54_0_split -> conv54_conv54_0_split_1
I0711 14:16:36.589027 126720 net.cpp:150] Setting up conv54_conv54_0_split
I0711 14:16:36.589040 126720 net.cpp:157] Top shape: 100 2 1 1 (200)
I0711 14:16:36.589048 126720 net.cpp:157] Top shape: 100 2 1 1 (200)
I0711 14:16:36.589056 126720 net.cpp:165] Memory required for data: 987990800
I0711 14:16:36.589064 126720 layer_factory.hpp:76] Creating layer accuracy
I0711 14:16:36.589076 126720 net.cpp:106] Creating Layer accuracy
I0711 14:16:36.589085 126720 net.cpp:454] accuracy <- conv54_conv54_0_split_0
I0711 14:16:36.589094 126720 net.cpp:454] accuracy <- label_data_1_split_0
I0711 14:16:36.589103 126720 net.cpp:411] accuracy -> accuracy
…
