…
I0705 12:40:50.012666 43744 net.cpp:322] The NetState phase (0) differed from the phase (1) specified by a rule in layer data
I0705 12:40:50.012954 43744 net.cpp:49] Initializing net from parameters: 
name: "FaceNN"
state {
  phase: TRAIN
}
layer {
  name: "data"
  type: "ImageData"
  top: "data"
  top: "label"
  include {
    phase: TRAIN
  }
  transform_param {
    mirror: true
    crop_size: 100
    mean_value: 104
    mean_value: 117
    mean_value: 123
  }
  image_data_param {
    source: "../lists/roi-train-L0.lst"
    batch_size: 128
    shuffle: true
    new_height: 110
    new_width: 110
  }
}
layer {
  name: "conv11"
  type: "Convolution"
  bottom: "data"
  top: "conv11"
  param {
    lr_mult: 1
    decay_mult: 1
  }
  param {
    lr_mult: 2
    decay_mult: 0
  }
  convolution_param {
    num_output: 32
    pad: 1
    stride: 1
    weight_filler {
      type: "xavier"
    }
    bias_filler {
      type: "constant"
    }
    kernel_h: 3
    kernel_w: 3
  }
}
layer {
  name: "relu11"
  type: "ReLU"
  bottom: "conv11"
  top: "conv11"
}
layer {
  name: "conv12"
  type: "Convolution"
  bottom: "conv11"
  top: "conv12"
  param {
    lr_mult: 1
    decay_mult: 1
  }
  param {
    lr_mult: 2
    decay_mult: 0
  }
  convolution_param {
    num_output: 32
    pad: 1
    stride: 1
    weight_filler {
      type: "xavier"
    }
    bias_filler {
      type: "constant"
    }
    kernel_h: 3
    kernel_w: 3
  }
}
layer {
  name: "relu12"
  type: "ReLU"
  bottom: "conv12"
  top: "conv12"
}
layer {
  name: "pool1"
  type: "Pooling"
  bottom: "conv12"
  top: "pool1"
  pooling_param {
    pool: MAX
    kernel_size: 2
    stride: 2
  }
}
layer {
  name: "conv21"
  type: "Convolution"
  bottom: "pool1"
  top: "conv21"
  param {
    lr_mult: 1
    decay_mult: 1
  }
  param {
    lr_mult: 2
    decay_mult: 0
  }
  convolution_param {
    num_output: 64
    pad: 1
    stride: 1
    weight_filler {
      type: "xavier"
    }
    bias_filler {
      type: "constant"
    }
    kernel_h: 3
    kernel_w: 3
  }
}
layer {
  name: "relu21"
  type: "ReLU"
  bottom: "conv21"
  top: "conv21"
}
layer {
  name: "conv22"
  type: "Convolution"
  bottom: "conv21"
  top: "conv22"
  param {
    lr_mult: 1
    decay_mult: 1
  }
  param {
    lr_mult: 2
    decay_mult: 0
  }
  convolution_param {
    num_output: 64
    pad: 1
    stride: 1
    weight_filler {
      type: "xavier"
    }
    bias_filler {
      type: "constant"
    }
    kernel_h: 3
    kernel_w: 3
  }
}
layer {
  name: "relu22"
  type: "ReLU"
  bottom: "conv22"
  top: "conv22"
}
layer {
  name: "pool2"
  type: "Pooling"
  bottom: "conv22"
  top: "pool2"
  pooling_param {
    pool: MAX
    kernel_size: 2
    stride: 2
  }
}
layer {
  name: "conv31"
  type: "Convolution"
  bottom: "pool2"
  top: "conv31"
  param {
    lr_mult: 1
    decay_mult: 1
  }
  param {
    lr_mult: 2
    decay_mult: 0
  }
  convolution_param {
    num_output: 96
    pad: 1
    stride: 1
    weight_filler {
      type: "xavier"
    }
    bias_filler {
      type: "constant"
    }
    kernel_h: 3
    kernel_w: 3
  }
}
layer {
  name: "relu31"
  type: "ReLU"
  bottom: "conv31"
  top: "conv31"
}
layer {
  name: "conv32"
  type: "Convolution"
  bottom: "conv31"
  top: "conv32"
  param {
    lr_mult: 1
    decay_mult: 1
  }
  param {
    lr_mult: 2
    decay_mult: 0
  }
  convolution_param {
    num_output: 96
    pad: 1
    stride: 1
    weight_filler {
      type: "xavier"
    }
    bias_filler {
      type: "constant"
    }
    kernel_h: 3
    kernel_w: 3
  }
}
layer {
  name: "relu32"
  type: "ReLU"
  bottom: "conv32"
  top: "conv32"
}
layer {
  name: "pool3"
  type: "Pooling"
  bottom: "conv32"
  top: "pool3"
  pooling_param {
    pool: MAX
    kernel_size: 2
    stride: 2
  }
}
layer {
  name: "conv41"
  type: "Convolution"
  bottom: "pool3"
  top: "conv41"
  param {
    lr_mult: 1
    decay_mult: 1
  }
  param {
    lr_mult: 2
    decay_mult: 0
  }
  convolution_param {
    num_output: 128
    pad: 1
    stride: 1
    weight_filler {
      type: "xavier"
    }
    bias_filler {
      type: "constant"
    }
    kernel_h: 3
    kernel_w: 3
  }
}
layer {
  name: "relu41"
  type: "ReLU"
  bottom: "conv41"
  top: "conv41"
}
layer {
  name: "conv42"
  type: "Convolution"
  bottom: "conv41"
  top: "conv42"
  param {
    lr_mult: 1
    decay_mult: 1
  }
  param {
    lr_mult: 2
    decay_mult: 0
  }
  convolution_param {
    num_output: 128
    pad: 1
    stride: 1
    weight_filler {
      type: "xavier"
    }
    bias_filler {
      type: "constant"
    }
    kernel_h: 3
    kernel_w: 3
  }
}
layer {
  name: "relu42"
  type: "ReLU"
  bottom: "conv42"
  top: "conv42"
}
layer {
  name: "pool4"
  type: "Pooling"
  bottom: "conv42"
  top: "pool4"
  pooling_param {
    pool: MAX
    kernel_size: 2
    stride: 2
  }
}
layer {
  name: "conv51"
  type: "Convolution"
  bottom: "pool4"
  top: "conv51"
  param {
    lr_mult: 1
    decay_mult: 1
  }
  param {
    lr_mult: 2
    decay_mult: 0
  }
  convolution_param {
    num_output: 256
    pad: 1
    stride: 1
    weight_filler {
      type: "xavier"
    }
    bias_filler {
      type: "constant"
    }
    kernel_h: 3
    kernel_w: 3
  }
}
layer {
  name: "relu51"
  type: "ReLU"
  bottom: "conv51"
  top: "conv51"
}
layer {
  name: "conv52"
  type: "Convolution"
  bottom: "conv51"
  top: "conv52"
  param {
    lr_mult: 1
    decay_mult: 1
  }
  param {
    lr_mult: 2
    decay_mult: 0
  }
  convolution_param {
    num_output: 256
    pad: 1
    stride: 1
    weight_filler {
      type: "xavier"
    }
    bias_filler {
      type: "constant"
    }
    kernel_h: 3
    kernel_w: 3
  }
}
layer {
  name: "relu52"
  type: "ReLU"
  bottom: "conv52"
  top: "conv52"
}
layer {
  name: "conv53"
  type: "Convolution"
  bottom: "conv52"
  top: "conv53"
  param {
    lr_mult: 1
    decay_mult: 1
  }
  param {
    lr_mult: 2
    decay_mult: 0
  }
  convolution_param {
    num_output: 256
    stride: 1
    weight_filler {
      type: "xavier"
    }
    bias_filler {
      type: "constant"
    }
    kernel_h: 7
    kernel_w: 7
  }
}
layer {
  name: "relu53"
  type: "ReLU"
  bottom: "conv53"
  top: "conv53"
}
layer {
  name: "drop6"
  type: "Dropout"
  bottom: "conv53"
  top: "drop6"
  dropout_param {
    dropout_ratio: 0.4
  }
}
layer {
  name: "conv54"
  type: "Convolution"
  bottom: "drop6"
  top: "conv54"
  param {
    lr_mult: 1
    decay_mult: 1
  }
  param {
    lr_mult: 2
    decay_mult: 0
  }
  convolution_param {
    num_output: 2
    stride: 1
    weight_filler {
      type: "xavier"
    }
    bias_filler {
      type: "constant"
    }
    kernel_h: 1
    kernel_w: 1
  }
}
layer {
  name: "accuracy"
  type: "Accuracy"
  bottom: "conv54"
  bottom: "label"
  top: "accuracy"
}
layer {
  name: "loss"
  type: "SoftmaxWithLoss"
  bottom: "conv54"
  bottom: "label"
  top: "loss"
}
I0705 12:40:50.014600 43744 layer_factory.hpp:76] Creating layer data
I0705 12:40:50.014678 43744 net.cpp:106] Creating Layer data
I0705 12:40:50.014696 43744 net.cpp:411] data -> data
I0705 12:40:50.014724 43744 net.cpp:411] data -> label
I0705 12:40:50.015269 43744 image_data_layer.cpp:36] Opening file ../lists/roi-train-L0.lst
I0705 12:40:50.125222 43744 image_data_layer.cpp:46] Shuffling data
I0705 12:40:50.158087 43744 image_data_layer.cpp:51] A total of 211680 images.
I0705 12:40:50.287070 43744 image_data_layer.cpp:78] output data size: 128,3,100,100
I0705 12:40:50.324177 43744 net.cpp:150] Setting up data
I0705 12:40:50.324247 43744 net.cpp:157] Top shape: 128 3 100 100 (3840000)
I0705 12:40:50.324265 43744 net.cpp:157] Top shape: 128 (128)
I0705 12:40:50.324276 43744 net.cpp:165] Memory required for data: 15360512
I0705 12:40:50.324295 43744 layer_factory.hpp:76] Creating layer label_data_1_split
I0705 12:40:50.324326 43744 net.cpp:106] Creating Layer label_data_1_split
I0705 12:40:50.324344 43744 net.cpp:454] label_data_1_split <- label
I0705 12:40:50.324369 43744 net.cpp:411] label_data_1_split -> label_data_1_split_0
I0705 12:40:50.324393 43744 net.cpp:411] label_data_1_split -> label_data_1_split_1
I0705 12:40:50.324475 43744 net.cpp:150] Setting up label_data_1_split
I0705 12:40:50.324501 43744 net.cpp:157] Top shape: 128 (128)
I0705 12:40:50.324517 43744 net.cpp:157] Top shape: 128 (128)
I0705 12:40:50.324529 43744 net.cpp:165] Memory required for data: 15361536
I0705 12:40:50.324543 43744 layer_factory.hpp:76] Creating layer conv11
I0705 12:40:50.324584 43744 net.cpp:106] Creating Layer conv11
I0705 12:40:50.324611 43744 net.cpp:454] conv11 <- data
I0705 12:40:50.324630 43744 net.cpp:411] conv11 -> conv11
I0705 12:40:50.454977 43744 net.cpp:150] Setting up conv11
I0705 12:40:50.455026 43744 net.cpp:157] Top shape: 128 32 100 100 (40960000)
I0705 12:40:50.455040 43744 net.cpp:165] Memory required for data: 179201536
I0705 12:40:50.455076 43744 layer_factory.hpp:76] Creating layer relu11
I0705 12:40:50.455102 43744 net.cpp:106] Creating Layer relu11
I0705 12:40:50.455118 43744 net.cpp:454] relu11 <- conv11
I0705 12:40:50.455134 43744 net.cpp:397] relu11 -> conv11 (in-place)
I0705 12:40:50.455371 43744 net.cpp:150] Setting up relu11
I0705 12:40:50.455405 43744 net.cpp:157] Top shape: 128 32 100 100 (40960000)
I0705 12:40:50.455418 43744 net.cpp:165] Memory required for data: 343041536
I0705 12:40:50.455431 43744 layer_factory.hpp:76] Creating layer conv12
I0705 12:40:50.455461 43744 net.cpp:106] Creating Layer conv12
I0705 12:40:50.455476 43744 net.cpp:454] conv12 <- conv11
I0705 12:40:50.455497 43744 net.cpp:411] conv12 -> conv12
I0705 12:40:50.456631 43744 net.cpp:150] Setting up conv12
I0705 12:40:50.456657 43744 net.cpp:157] Top shape: 128 32 100 100 (40960000)
I0705 12:40:50.456670 43744 net.cpp:165] Memory required for data: 506881536
I0705 12:40:50.456696 43744 layer_factory.hpp:76] Creating layer relu12
I0705 12:40:50.456714 43744 net.cpp:106] Creating Layer relu12
I0705 12:40:50.456728 43744 net.cpp:454] relu12 <- conv12
I0705 12:40:50.456744 43744 net.cpp:397] relu12 -> conv12 (in-place)
I0705 12:40:50.457118 43744 net.cpp:150] Setting up relu12
I0705 12:40:50.457142 43744 net.cpp:157] Top shape: 128 32 100 100 (40960000)
I0705 12:40:50.457155 43744 net.cpp:165] Memory required for data: 670721536
I0705 12:40:50.457170 43744 layer_factory.hpp:76] Creating layer pool1
I0705 12:40:50.457186 43744 net.cpp:106] Creating Layer pool1
I0705 12:40:50.457200 43744 net.cpp:454] pool1 <- conv12
I0705 12:40:50.457218 43744 net.cpp:411] pool1 -> pool1
I0705 12:40:50.457501 43744 net.cpp:150] Setting up pool1
I0705 12:40:50.457523 43744 net.cpp:157] Top shape: 128 32 50 50 (10240000)
I0705 12:40:50.457536 43744 net.cpp:165] Memory required for data: 711681536
I0705 12:40:50.457550 43744 layer_factory.hpp:76] Creating layer conv21
I0705 12:40:50.457574 43744 net.cpp:106] Creating Layer conv21
I0705 12:40:50.457589 43744 net.cpp:454] conv21 <- pool1
I0705 12:40:50.457610 43744 net.cpp:411] conv21 -> conv21
I0705 12:40:50.460121 43744 net.cpp:150] Setting up conv21
I0705 12:40:50.460147 43744 net.cpp:157] Top shape: 128 64 50 50 (20480000)
I0705 12:40:50.460160 43744 net.cpp:165] Memory required for data: 793601536
I0705 12:40:50.460182 43744 layer_factory.hpp:76] Creating layer relu21
I0705 12:40:50.460206 43744 net.cpp:106] Creating Layer relu21
I0705 12:40:50.460221 43744 net.cpp:454] relu21 <- conv21
I0705 12:40:50.460235 43744 net.cpp:397] relu21 -> conv21 (in-place)
I0705 12:40:50.460625 43744 net.cpp:150] Setting up relu21
I0705 12:40:50.460649 43744 net.cpp:157] Top shape: 128 64 50 50 (20480000)
I0705 12:40:50.460706 43744 net.cpp:165] Memory required for data: 875521536
I0705 12:40:50.460721 43744 layer_factory.hpp:76] Creating layer conv22
I0705 12:40:50.460746 43744 net.cpp:106] Creating Layer conv22
I0705 12:40:50.460760 43744 net.cpp:454] conv22 <- conv21
I0705 12:40:50.460788 43744 net.cpp:411] conv22 -> conv22
I0705 12:40:50.461956 43744 cudnn_conv_layer.cpp:194] Reallocating workspace storage: 6912
I0705 12:40:50.462220 43744 net.cpp:150] Setting up conv22
I0705 12:40:50.462247 43744 net.cpp:157] Top shape: 128 64 50 50 (20480000)
I0705 12:40:50.462261 43744 net.cpp:165] Memory required for data: 957441536
I0705 12:40:50.462280 43744 layer_factory.hpp:76] Creating layer relu22
I0705 12:40:50.462296 43744 net.cpp:106] Creating Layer relu22
I0705 12:40:50.462309 43744 net.cpp:454] relu22 <- conv22
I0705 12:40:50.462326 43744 net.cpp:397] relu22 -> conv22 (in-place)
I0705 12:40:50.462761 43744 net.cpp:150] Setting up relu22
I0705 12:40:50.462785 43744 net.cpp:157] Top shape: 128 64 50 50 (20480000)
I0705 12:40:50.462798 43744 net.cpp:165] Memory required for data: 1039361536
I0705 12:40:50.462812 43744 layer_factory.hpp:76] Creating layer pool2
I0705 12:40:50.462829 43744 net.cpp:106] Creating Layer pool2
I0705 12:40:50.462842 43744 net.cpp:454] pool2 <- conv22
I0705 12:40:50.462862 43744 net.cpp:411] pool2 -> pool2
I0705 12:40:50.463147 43744 net.cpp:150] Setting up pool2
I0705 12:40:50.463170 43744 net.cpp:157] Top shape: 128 64 25 25 (5120000)
I0705 12:40:50.463182 43744 net.cpp:165] Memory required for data: 1059841536
I0705 12:40:50.463196 43744 layer_factory.hpp:76] Creating layer conv31
I0705 12:40:50.463218 43744 net.cpp:106] Creating Layer conv31
I0705 12:40:50.463232 43744 net.cpp:454] conv31 <- pool2
I0705 12:40:50.463253 43744 net.cpp:411] conv31 -> conv31
I0705 12:40:50.464725 43744 cudnn_conv_layer.cpp:194] Reallocating workspace storage: 6912
I0705 12:40:50.464766 43744 net.cpp:150] Setting up conv31
I0705 12:40:50.464784 43744 net.cpp:157] Top shape: 128 96 25 25 (7680000)
I0705 12:40:50.464798 43744 net.cpp:165] Memory required for data: 1090561536
I0705 12:40:50.464823 43744 layer_factory.hpp:76] Creating layer relu31
I0705 12:40:50.464840 43744 net.cpp:106] Creating Layer relu31
I0705 12:40:50.464854 43744 net.cpp:454] relu31 <- conv31
I0705 12:40:50.464869 43744 net.cpp:397] relu31 -> conv31 (in-place)
I0705 12:40:50.465243 43744 net.cpp:150] Setting up relu31
I0705 12:40:50.465270 43744 net.cpp:157] Top shape: 128 96 25 25 (7680000)
I0705 12:40:50.465283 43744 net.cpp:165] Memory required for data: 1121281536
I0705 12:40:50.465296 43744 layer_factory.hpp:76] Creating layer conv32
I0705 12:40:50.465319 43744 net.cpp:106] Creating Layer conv32
I0705 12:40:50.465333 43744 net.cpp:454] conv32 <- conv31
I0705 12:40:50.465350 43744 net.cpp:411] conv32 -> conv32
I0705 12:40:50.467661 43744 cudnn_conv_layer.cpp:194] Reallocating workspace storage: 10368
I0705 12:40:50.467702 43744 net.cpp:150] Setting up conv32
I0705 12:40:50.467721 43744 net.cpp:157] Top shape: 128 96 25 25 (7680000)
I0705 12:40:50.467735 43744 net.cpp:165] Memory required for data: 1152001536
I0705 12:40:50.467752 43744 layer_factory.hpp:76] Creating layer relu32
I0705 12:40:50.467773 43744 net.cpp:106] Creating Layer relu32
I0705 12:40:50.467787 43744 net.cpp:454] relu32 <- conv32
I0705 12:40:50.467803 43744 net.cpp:397] relu32 -> conv32 (in-place)
I0705 12:40:50.468044 43744 net.cpp:150] Setting up relu32
I0705 12:40:50.468066 43744 net.cpp:157] Top shape: 128 96 25 25 (7680000)
I0705 12:40:50.468078 43744 net.cpp:165] Memory required for data: 1182721536
I0705 12:40:50.468091 43744 layer_factory.hpp:76] Creating layer pool3
I0705 12:40:50.468111 43744 net.cpp:106] Creating Layer pool3
I0705 12:40:50.468123 43744 net.cpp:454] pool3 <- conv32
I0705 12:40:50.468143 43744 net.cpp:411] pool3 -> pool3
I0705 12:40:50.468611 43744 net.cpp:150] Setting up pool3
I0705 12:40:50.468634 43744 net.cpp:157] Top shape: 128 96 13 13 (2076672)
I0705 12:40:50.468647 43744 net.cpp:165] Memory required for data: 1191028224
I0705 12:40:50.468660 43744 layer_factory.hpp:76] Creating layer conv41
I0705 12:40:50.468708 43744 net.cpp:106] Creating Layer conv41
I0705 12:40:50.468739 43744 net.cpp:454] conv41 <- pool3
I0705 12:40:50.468767 43744 net.cpp:411] conv41 -> conv41
I0705 12:40:50.470412 43744 net.cpp:150] Setting up conv41
I0705 12:40:50.470448 43744 net.cpp:157] Top shape: 128 128 13 13 (2768896)
I0705 12:40:50.470458 43744 net.cpp:165] Memory required for data: 1202103808
I0705 12:40:50.470468 43744 layer_factory.hpp:76] Creating layer relu41
I0705 12:40:50.470479 43744 net.cpp:106] Creating Layer relu41
I0705 12:40:50.470487 43744 net.cpp:454] relu41 <- conv41
I0705 12:40:50.470496 43744 net.cpp:397] relu41 -> conv41 (in-place)
I0705 12:40:50.471027 43744 net.cpp:150] Setting up relu41
I0705 12:40:50.471057 43744 net.cpp:157] Top shape: 128 128 13 13 (2768896)
I0705 12:40:50.471066 43744 net.cpp:165] Memory required for data: 1213179392
I0705 12:40:50.471074 43744 layer_factory.hpp:76] Creating layer conv42
I0705 12:40:50.471091 43744 net.cpp:106] Creating Layer conv42
I0705 12:40:50.471099 43744 net.cpp:454] conv42 <- conv41
I0705 12:40:50.471109 43744 net.cpp:411] conv42 -> conv42
I0705 12:40:50.473901 43744 cudnn_conv_layer.cpp:194] Reallocating workspace storage: 13824
I0705 12:40:50.473950 43744 net.cpp:150] Setting up conv42
I0705 12:40:50.473963 43744 net.cpp:157] Top shape: 128 128 13 13 (2768896)
I0705 12:40:50.473973 43744 net.cpp:165] Memory required for data: 1224254976
I0705 12:40:50.473984 43744 layer_factory.hpp:76] Creating layer relu42
I0705 12:40:50.473999 43744 net.cpp:106] Creating Layer relu42
I0705 12:40:50.474007 43744 net.cpp:454] relu42 <- conv42
I0705 12:40:50.474017 43744 net.cpp:397] relu42 -> conv42 (in-place)
I0705 12:40:50.474239 43744 net.cpp:150] Setting up relu42
I0705 12:40:50.474256 43744 net.cpp:157] Top shape: 128 128 13 13 (2768896)
I0705 12:40:50.474277 43744 net.cpp:165] Memory required for data: 1235330560
I0705 12:40:50.474284 43744 layer_factory.hpp:76] Creating layer pool4
I0705 12:40:50.474297 43744 net.cpp:106] Creating Layer pool4
I0705 12:40:50.474304 43744 net.cpp:454] pool4 <- conv42
I0705 12:40:50.474316 43744 net.cpp:411] pool4 -> pool4
I0705 12:40:50.474730 43744 net.cpp:150] Setting up pool4
I0705 12:40:50.474763 43744 net.cpp:157] Top shape: 128 128 7 7 (802816)
I0705 12:40:50.474772 43744 net.cpp:165] Memory required for data: 1238541824
I0705 12:40:50.474781 43744 layer_factory.hpp:76] Creating layer conv51
I0705 12:40:50.474797 43744 net.cpp:106] Creating Layer conv51
I0705 12:40:50.474805 43744 net.cpp:454] conv51 <- pool4
I0705 12:40:50.474822 43744 net.cpp:411] conv51 -> conv51
I0705 12:40:50.478839 43744 net.cpp:150] Setting up conv51
I0705 12:40:50.478880 43744 net.cpp:157] Top shape: 128 256 7 7 (1605632)
I0705 12:40:50.478900 43744 net.cpp:165] Memory required for data: 1244964352
I0705 12:40:50.478919 43744 layer_factory.hpp:76] Creating layer relu51
I0705 12:40:50.478932 43744 net.cpp:106] Creating Layer relu51
I0705 12:40:50.478941 43744 net.cpp:454] relu51 <- conv51
I0705 12:40:50.478951 43744 net.cpp:397] relu51 -> conv51 (in-place)
I0705 12:40:50.479187 43744 net.cpp:150] Setting up relu51
I0705 12:40:50.479202 43744 net.cpp:157] Top shape: 128 256 7 7 (1605632)
I0705 12:40:50.479221 43744 net.cpp:165] Memory required for data: 1251386880
I0705 12:40:50.479230 43744 layer_factory.hpp:76] Creating layer conv52
I0705 12:40:50.479244 43744 net.cpp:106] Creating Layer conv52
I0705 12:40:50.479254 43744 net.cpp:454] conv52 <- conv51
I0705 12:40:50.479264 43744 net.cpp:411] conv52 -> conv52
I0705 12:40:50.485723 43744 net.cpp:150] Setting up conv52
I0705 12:40:50.485769 43744 net.cpp:157] Top shape: 128 256 7 7 (1605632)
I0705 12:40:50.485777 43744 net.cpp:165] Memory required for data: 1257809408
I0705 12:40:50.485790 43744 layer_factory.hpp:76] Creating layer relu52
I0705 12:40:50.485801 43744 net.cpp:106] Creating Layer relu52
I0705 12:40:50.485811 43744 net.cpp:454] relu52 <- conv52
I0705 12:40:50.485821 43744 net.cpp:397] relu52 -> conv52 (in-place)
I0705 12:40:50.486196 43744 net.cpp:150] Setting up relu52
I0705 12:40:50.486248 43744 net.cpp:157] Top shape: 128 256 7 7 (1605632)
I0705 12:40:50.486258 43744 net.cpp:165] Memory required for data: 1264231936
I0705 12:40:50.486265 43744 layer_factory.hpp:76] Creating layer conv53
I0705 12:40:50.486281 43744 net.cpp:106] Creating Layer conv53
I0705 12:40:50.486290 43744 net.cpp:454] conv53 <- conv52
I0705 12:40:50.486300 43744 net.cpp:411] conv53 -> conv53
I0705 12:40:50.519122 43744 cudnn_conv_layer.cpp:194] Reallocating workspace storage: 150528
I0705 12:40:50.519426 43744 net.cpp:150] Setting up conv53
I0705 12:40:50.519448 43744 net.cpp:157] Top shape: 128 256 1 1 (32768)
I0705 12:40:50.519457 43744 net.cpp:165] Memory required for data: 1264363008
I0705 12:40:50.519475 43744 layer_factory.hpp:76] Creating layer relu53
I0705 12:40:50.519490 43744 net.cpp:106] Creating Layer relu53
I0705 12:40:50.519502 43744 net.cpp:454] relu53 <- conv53
I0705 12:40:50.519526 43744 net.cpp:397] relu53 -> conv53 (in-place)
I0705 12:40:50.519892 43744 net.cpp:150] Setting up relu53
I0705 12:40:50.519923 43744 net.cpp:157] Top shape: 128 256 1 1 (32768)
I0705 12:40:50.519932 43744 net.cpp:165] Memory required for data: 1264494080
I0705 12:40:50.519940 43744 layer_factory.hpp:76] Creating layer drop6
I0705 12:40:50.519959 43744 net.cpp:106] Creating Layer drop6
I0705 12:40:50.519968 43744 net.cpp:454] drop6 <- conv53
I0705 12:40:50.519978 43744 net.cpp:411] drop6 -> drop6
I0705 12:40:50.520045 43744 net.cpp:150] Setting up drop6
I0705 12:40:50.520061 43744 net.cpp:157] Top shape: 128 256 1 1 (32768)
I0705 12:40:50.520068 43744 net.cpp:165] Memory required for data: 1264625152
I0705 12:40:50.520076 43744 layer_factory.hpp:76] Creating layer conv54
I0705 12:40:50.520094 43744 net.cpp:106] Creating Layer conv54
I0705 12:40:50.520103 43744 net.cpp:454] conv54 <- drop6
I0705 12:40:50.520128 43744 net.cpp:411] conv54 -> conv54
I0705 12:40:50.521212 43744 cudnn_conv_layer.cpp:194] Reallocating workspace storage: 3072
I0705 12:40:50.521486 43744 net.cpp:150] Setting up conv54
I0705 12:40:50.521518 43744 net.cpp:157] Top shape: 128 2 1 1 (256)
I0705 12:40:50.521528 43744 net.cpp:165] Memory required for data: 1264626176
I0705 12:40:50.521538 43744 layer_factory.hpp:76] Creating layer conv54_conv54_0_split
I0705 12:40:50.521550 43744 net.cpp:106] Creating Layer conv54_conv54_0_split
I0705 12:40:50.521559 43744 net.cpp:454] conv54_conv54_0_split <- conv54
I0705 12:40:50.521569 43744 net.cpp:411] conv54_conv54_0_split -> conv54_conv54_0_split_0
I0705 12:40:50.521579 43744 net.cpp:411] conv54_conv54_0_split -> conv54_conv54_0_split_1
I0705 12:40:50.521641 43744 net.cpp:150] Setting up conv54_conv54_0_split
I0705 12:40:50.521656 43744 net.cpp:157] Top shape: 128 2 1 1 (256)
I0705 12:40:50.521666 43744 net.cpp:157] Top shape: 128 2 1 1 (256)
I0705 12:40:50.521672 43744 net.cpp:165] Memory required for data: 1264628224
I0705 12:40:50.521682 43744 layer_factory.hpp:76] Creating layer accuracy
I0705 12:40:50.521695 43744 net.cpp:106] Creating Layer accuracy
I0705 12:40:50.521704 43744 net.cpp:454] accuracy <- conv54_conv54_0_split_0
I0705 12:40:50.521724 43744 net.cpp:454] accuracy <- label_data_1_split_0
I0705 12:40:50.521736 43744 net.cpp:411] accuracy -> accuracy
…
I0705 12:40:50.523638 43744 net.cpp:322] The NetState phase (1) differed from the phase (0) specified by a rule in layer data
I0705 12:40:50.523893 43744 net.cpp:49] Initializing net from parameters: 
name: "FaceNN"
state {
  phase: TEST
}
layer {
  name: "data"
  type: "ImageData"
  top: "data"
  top: "label"
  include {
    phase: TEST
  }
  transform_param {
    mirror: false
    crop_size: 100
    mean_value: 104
    mean_value: 117
    mean_value: 123
  }
  image_data_param {
    source: "../lists/roi-val-L0.lst"
    batch_size: 32
    shuffle: true
    new_height: 110
    new_width: 110
  }
}
layer {
  name: "conv11"
  type: "Convolution"
  bottom: "data"
  top: "conv11"
  param {
    lr_mult: 1
    decay_mult: 1
  }
  param {
    lr_mult: 2
    decay_mult: 0
  }
  convolution_param {
    num_output: 32
    pad: 1
    stride: 1
    weight_filler {
      type: "xavier"
    }
    bias_filler {
      type: "constant"
    }
    kernel_h: 3
    kernel_w: 3
  }
}
layer {
  name: "relu11"
  type: "ReLU"
  bottom: "conv11"
  top: "conv11"
}
layer {
  name: "conv12"
  type: "Convolution"
  bottom: "conv11"
  top: "conv12"
  param {
    lr_mult: 1
    decay_mult: 1
  }
  param {
    lr_mult: 2
    decay_mult: 0
  }
  convolution_param {
    num_output: 32
    pad: 1
    stride: 1
    weight_filler {
      type: "xavier"
    }
    bias_filler {
      type: "constant"
    }
    kernel_h: 3
    kernel_w: 3
  }
}
layer {
  name: "relu12"
  type: "ReLU"
  bottom: "conv12"
  top: "conv12"
}
layer {
  name: "pool1"
  type: "Pooling"
  bottom: "conv12"
  top: "pool1"
  pooling_param {
    pool: MAX
    kernel_size: 2
    stride: 2
  }
}
layer {
  name: "conv21"
  type: "Convolution"
  bottom: "pool1"
  top: "conv21"
  param {
    lr_mult: 1
    decay_mult: 1
  }
  param {
    lr_mult: 2
    decay_mult: 0
  }
  convolution_param {
    num_output: 64
    pad: 1
    stride: 1
    weight_filler {
      type: "xavier"
    }
    bias_filler {
      type: "constant"
    }
    kernel_h: 3
    kernel_w: 3
  }
}
layer {
  name: "relu21"
  type: "ReLU"
  bottom: "conv21"
  top: "conv21"
}
layer {
  name: "conv22"
  type: "Convolution"
  bottom: "conv21"
  top: "conv22"
  param {
    lr_mult: 1
    decay_mult: 1
  }
  param {
    lr_mult: 2
    decay_mult: 0
  }
  convolution_param {
    num_output: 64
    pad: 1
    stride: 1
    weight_filler {
      type: "xavier"
    }
    bias_filler {
      type: "constant"
    }
    kernel_h: 3
    kernel_w: 3
  }
}
layer {
  name: "relu22"
  type: "ReLU"
  bottom: "conv22"
  top: "conv22"
}
layer {
  name: "pool2"
  type: "Pooling"
  bottom: "conv22"
  top: "pool2"
  pooling_param {
    pool: MAX
    kernel_size: 2
    stride: 2
  }
}
layer {
  name: "conv31"
  type: "Convolution"
  bottom: "pool2"
  top: "conv31"
  param {
    lr_mult: 1
    decay_mult: 1
  }
  param {
    lr_mult: 2
    decay_mult: 0
  }
  convolution_param {
    num_output: 96
    pad: 1
    stride: 1
    weight_filler {
      type: "xavier"
    }
    bias_filler {
      type: "constant"
    }
    kernel_h: 3
    kernel_w: 3
  }
}
layer {
  name: "relu31"
  type: "ReLU"
  bottom: "conv31"
  top: "conv31"
}
layer {
  name: "conv32"
  type: "Convolution"
  bottom: "conv31"
  top: "conv32"
  param {
    lr_mult: 1
    decay_mult: 1
  }
  param {
    lr_mult: 2
    decay_mult: 0
  }
  convolution_param {
    num_output: 96
    pad: 1
    stride: 1
    weight_filler {
      type: "xavier"
    }
    bias_filler {
      type: "constant"
    }
    kernel_h: 3
    kernel_w: 3
  }
}
layer {
  name: "relu32"
  type: "ReLU"
  bottom: "conv32"
  top: "conv32"
}
layer {
  name: "pool3"
  type: "Pooling"
  bottom: "conv32"
  top: "pool3"
  pooling_param {
    pool: MAX
    kernel_size: 2
    stride: 2
  }
}
layer {
  name: "conv41"
  type: "Convolution"
  bottom: "pool3"
  top: "conv41"
  param {
    lr_mult: 1
    decay_mult: 1
  }
  param {
    lr_mult: 2
    decay_mult: 0
  }
  convolution_param {
    num_output: 128
    pad: 1
    stride: 1
    weight_filler {
      type: "xavier"
    }
    bias_filler {
      type: "constant"
    }
    kernel_h: 3
    kernel_w: 3
  }
}
layer {
  name: "relu41"
  type: "ReLU"
  bottom: "conv41"
  top: "conv41"
}
layer {
  name: "conv42"
  type: "Convolution"
  bottom: "conv41"
  top: "conv42"
  param {
    lr_mult: 1
    decay_mult: 1
  }
  param {
    lr_mult: 2
    decay_mult: 0
  }
  convolution_param {
    num_output: 128
    pad: 1
    stride: 1
    weight_filler {
      type: "xavier"
    }
    bias_filler {
      type: "constant"
    }
    kernel_h: 3
    kernel_w: 3
  }
}
layer {
  name: "relu42"
  type: "ReLU"
  bottom: "conv42"
  top: "conv42"
}
layer {
  name: "pool4"
  type: "Pooling"
  bottom: "conv42"
  top: "pool4"
  pooling_param {
    pool: MAX
    kernel_size: 2
    stride: 2
  }
}
layer {
  name: "conv51"
  type: "Convolution"
  bottom: "pool4"
  top: "conv51"
  param {
    lr_mult: 1
    decay_mult: 1
  }
  param {
    lr_mult: 2
    decay_mult: 0
  }
  convolution_param {
    num_output: 256
    pad: 1
    stride: 1
    weight_filler {
      type: "xavier"
    }
    bias_filler {
      type: "constant"
    }
    kernel_h: 3
    kernel_w: 3
  }
}
layer {
  name: "relu51"
  type: "ReLU"
  bottom: "conv51"
  top: "conv51"
}
layer {
  name: "conv52"
  type: "Convolution"
  bottom: "conv51"
  top: "conv52"
  param {
    lr_mult: 1
    decay_mult: 1
  }
  param {
    lr_mult: 2
    decay_mult: 0
  }
  convolution_param {
    num_output: 256
    pad: 1
    stride: 1
    weight_filler {
      type: "xavier"
    }
    bias_filler {
      type: "constant"
    }
    kernel_h: 3
    kernel_w: 3
  }
}
layer {
  name: "relu52"
  type: "ReLU"
  bottom: "conv52"
  top: "conv52"
}
layer {
  name: "conv53"
  type: "Convolution"
  bottom: "conv52"
  top: "conv53"
  param {
    lr_mult: 1
    decay_mult: 1
  }
  param {
    lr_mult: 2
    decay_mult: 0
  }
  convolution_param {
    num_output: 256
    stride: 1
    weight_filler {
      type: "xavier"
    }
    bias_filler {
      type: "constant"
    }
    kernel_h: 7
    kernel_w: 7
  }
}
layer {
  name: "relu53"
  type: "ReLU"
  bottom: "conv53"
  top: "conv53"
}
layer {
  name: "drop6"
  type: "Dropout"
  bottom: "conv53"
  top: "drop6"
  dropout_param {
    dropout_ratio: 0.4
  }
}
layer {
  name: "conv54"
  type: "Convolution"
  bottom: "drop6"
  top: "conv54"
  param {
    lr_mult: 1
    decay_mult: 1
  }
  param {
    lr_mult: 2
    decay_mult: 0
  }
  convolution_param {
    num_output: 2
    stride: 1
    weight_filler {
      type: "xavier"
    }
    bias_filler {
      type: "constant"
    }
    kernel_h: 1
    kernel_w: 1
  }
}
layer {
  name: "accuracy"
  type: "Accuracy"
  bottom: "conv54"
  bottom: "label"
  top: "accuracy"
}
layer {
  name: "loss"
  type: "SoftmaxWithLoss"
  bottom: "conv54"
  bottom: "label"
  top: "loss"
}
I0705 12:40:50.525588 43744 layer_factory.hpp:76] Creating layer data
I0705 12:40:50.525624 43744 net.cpp:106] Creating Layer data
I0705 12:40:50.525646 43744 net.cpp:411] data -> data
I0705 12:40:50.525660 43744 net.cpp:411] data -> label
I0705 12:40:50.525672 43744 image_data_layer.cpp:36] Opening file ../lists/roi-val-L0.lst
I0705 12:40:50.537909 43744 image_data_layer.cpp:46] Shuffling data
I0705 12:40:50.539985 43744 image_data_layer.cpp:51] A total of 23520 images.
I0705 12:40:50.616536 43744 image_data_layer.cpp:78] output data size: 32,3,100,100
I0705 12:40:50.624449 43744 net.cpp:150] Setting up data
I0705 12:40:50.624500 43744 net.cpp:157] Top shape: 32 3 100 100 (960000)
I0705 12:40:50.624511 43744 net.cpp:157] Top shape: 32 (32)
I0705 12:40:50.624519 43744 net.cpp:165] Memory required for data: 3840128
I0705 12:40:50.624541 43744 layer_factory.hpp:76] Creating layer label_data_1_split
I0705 12:40:50.624560 43744 net.cpp:106] Creating Layer label_data_1_split
I0705 12:40:50.624569 43744 net.cpp:454] label_data_1_split <- label
I0705 12:40:50.624582 43744 net.cpp:411] label_data_1_split -> label_data_1_split_0
I0705 12:40:50.624595 43744 net.cpp:411] label_data_1_split -> label_data_1_split_1
I0705 12:40:50.624650 43744 net.cpp:150] Setting up label_data_1_split
I0705 12:40:50.624665 43744 net.cpp:157] Top shape: 32 (32)
I0705 12:40:50.624673 43744 net.cpp:157] Top shape: 32 (32)
I0705 12:40:50.624680 43744 net.cpp:165] Memory required for data: 3840384
I0705 12:40:50.624688 43744 layer_factory.hpp:76] Creating layer conv11
I0705 12:40:50.624706 43744 net.cpp:106] Creating Layer conv11
I0705 12:40:50.624713 43744 net.cpp:454] conv11 <- data
I0705 12:40:50.624723 43744 net.cpp:411] conv11 -> conv11
I0705 12:40:50.626040 43744 net.cpp:150] Setting up conv11
I0705 12:40:50.626072 43744 net.cpp:157] Top shape: 32 32 100 100 (10240000)
I0705 12:40:50.626081 43744 net.cpp:165] Memory required for data: 44800384
I0705 12:40:50.626096 43744 layer_factory.hpp:76] Creating layer relu11
I0705 12:40:50.626111 43744 net.cpp:106] Creating Layer relu11
I0705 12:40:50.626118 43744 net.cpp:454] relu11 <- conv11
I0705 12:40:50.626128 43744 net.cpp:397] relu11 -> conv11 (in-place)
I0705 12:40:50.626423 43744 net.cpp:150] Setting up relu11
I0705 12:40:50.626469 43744 net.cpp:157] Top shape: 32 32 100 100 (10240000)
I0705 12:40:50.626477 43744 net.cpp:165] Memory required for data: 85760384
I0705 12:40:50.626485 43744 layer_factory.hpp:76] Creating layer conv12
I0705 12:40:50.626500 43744 net.cpp:106] Creating Layer conv12
I0705 12:40:50.626508 43744 net.cpp:454] conv12 <- conv11
I0705 12:40:50.626523 43744 net.cpp:411] conv12 -> conv12
I0705 12:40:50.627436 43744 net.cpp:150] Setting up conv12
I0705 12:40:50.627457 43744 net.cpp:157] Top shape: 32 32 100 100 (10240000)
I0705 12:40:50.627465 43744 net.cpp:165] Memory required for data: 126720384
I0705 12:40:50.627481 43744 layer_factory.hpp:76] Creating layer relu12
I0705 12:40:50.627492 43744 net.cpp:106] Creating Layer relu12
I0705 12:40:50.627501 43744 net.cpp:454] relu12 <- conv12
I0705 12:40:50.627511 43744 net.cpp:397] relu12 -> conv12 (in-place)
I0705 12:40:50.627811 43744 net.cpp:150] Setting up relu12
I0705 12:40:50.627830 43744 net.cpp:157] Top shape: 32 32 100 100 (10240000)
I0705 12:40:50.627838 43744 net.cpp:165] Memory required for data: 167680384
I0705 12:40:50.627846 43744 layer_factory.hpp:76] Creating layer pool1
I0705 12:40:50.627858 43744 net.cpp:106] Creating Layer pool1
I0705 12:40:50.627866 43744 net.cpp:454] pool1 <- conv12
I0705 12:40:50.627877 43744 net.cpp:411] pool1 -> pool1
I0705 12:40:50.628069 43744 net.cpp:150] Setting up pool1
I0705 12:40:50.628087 43744 net.cpp:157] Top shape: 32 32 50 50 (2560000)
I0705 12:40:50.628095 43744 net.cpp:165] Memory required for data: 177920384
I0705 12:40:50.628103 43744 layer_factory.hpp:76] Creating layer conv21
I0705 12:40:50.628116 43744 net.cpp:106] Creating Layer conv21
I0705 12:40:50.628125 43744 net.cpp:454] conv21 <- pool1
I0705 12:40:50.628137 43744 net.cpp:411] conv21 -> conv21
I0705 12:40:50.629413 43744 net.cpp:150] Setting up conv21
I0705 12:40:50.629436 43744 net.cpp:157] Top shape: 32 64 50 50 (5120000)
I0705 12:40:50.629444 43744 net.cpp:165] Memory required for data: 198400384
I0705 12:40:50.629458 43744 layer_factory.hpp:76] Creating layer relu21
I0705 12:40:50.629470 43744 net.cpp:106] Creating Layer relu21
I0705 12:40:50.629478 43744 net.cpp:454] relu21 <- conv21
I0705 12:40:50.629487 43744 net.cpp:397] relu21 -> conv21 (in-place)
I0705 12:40:50.630300 43744 net.cpp:150] Setting up relu21
I0705 12:40:50.630324 43744 net.cpp:157] Top shape: 32 64 50 50 (5120000)
I0705 12:40:50.630333 43744 net.cpp:165] Memory required for data: 218880384
I0705 12:40:50.630342 43744 layer_factory.hpp:76] Creating layer conv22
I0705 12:40:50.630358 43744 net.cpp:106] Creating Layer conv22
I0705 12:40:50.630367 43744 net.cpp:454] conv22 <- conv21
I0705 12:40:50.630379 43744 net.cpp:411] conv22 -> conv22
I0705 12:40:50.631825 43744 net.cpp:150] Setting up conv22
I0705 12:40:50.631850 43744 net.cpp:157] Top shape: 32 64 50 50 (5120000)
I0705 12:40:50.631857 43744 net.cpp:165] Memory required for data: 239360384
I0705 12:40:50.631870 43744 layer_factory.hpp:76] Creating layer relu22
I0705 12:40:50.631886 43744 net.cpp:106] Creating Layer relu22
I0705 12:40:50.631893 43744 net.cpp:454] relu22 <- conv22
I0705 12:40:50.631902 43744 net.cpp:397] relu22 -> conv22 (in-place)
I0705 12:40:50.632076 43744 net.cpp:150] Setting up relu22
I0705 12:40:50.632092 43744 net.cpp:157] Top shape: 32 64 50 50 (5120000)
I0705 12:40:50.632100 43744 net.cpp:165] Memory required for data: 259840384
I0705 12:40:50.632109 43744 layer_factory.hpp:76] Creating layer pool2
I0705 12:40:50.632120 43744 net.cpp:106] Creating Layer pool2
I0705 12:40:50.632128 43744 net.cpp:454] pool2 <- conv22
I0705 12:40:50.632139 43744 net.cpp:411] pool2 -> pool2
I0705 12:40:50.632488 43744 net.cpp:150] Setting up pool2
I0705 12:40:50.632508 43744 net.cpp:157] Top shape: 32 64 25 25 (1280000)
I0705 12:40:50.632516 43744 net.cpp:165] Memory required for data: 264960384
I0705 12:40:50.632537 43744 layer_factory.hpp:76] Creating layer conv31
I0705 12:40:50.632553 43744 net.cpp:106] Creating Layer conv31
I0705 12:40:50.632561 43744 net.cpp:454] conv31 <- pool2
I0705 12:40:50.632572 43744 net.cpp:411] conv31 -> conv31
I0705 12:40:50.633831 43744 cudnn_conv_layer.cpp:194] Reallocating workspace storage: 6912
I0705 12:40:50.633862 43744 net.cpp:150] Setting up conv31
I0705 12:40:50.633873 43744 net.cpp:157] Top shape: 32 96 25 25 (1920000)
I0705 12:40:50.633884 43744 net.cpp:165] Memory required for data: 272640384
I0705 12:40:50.633896 43744 layer_factory.hpp:76] Creating layer relu31
I0705 12:40:50.633908 43744 net.cpp:106] Creating Layer relu31
I0705 12:40:50.633914 43744 net.cpp:454] relu31 <- conv31
I0705 12:40:50.633924 43744 net.cpp:397] relu31 -> conv31 (in-place)
I0705 12:40:50.634203 43744 net.cpp:150] Setting up relu31
I0705 12:40:50.634222 43744 net.cpp:157] Top shape: 32 96 25 25 (1920000)
I0705 12:40:50.634228 43744 net.cpp:165] Memory required for data: 280320384
I0705 12:40:50.634235 43744 layer_factory.hpp:76] Creating layer conv32
I0705 12:40:50.634249 43744 net.cpp:106] Creating Layer conv32
I0705 12:40:50.634258 43744 net.cpp:454] conv32 <- conv31
I0705 12:40:50.634268 43744 net.cpp:411] conv32 -> conv32
I0705 12:40:50.635671 43744 net.cpp:150] Setting up conv32
I0705 12:40:50.635689 43744 net.cpp:157] Top shape: 32 96 25 25 (1920000)
I0705 12:40:50.635697 43744 net.cpp:165] Memory required for data: 288000384
I0705 12:40:50.635706 43744 layer_factory.hpp:76] Creating layer relu32
I0705 12:40:50.635716 43744 net.cpp:106] Creating Layer relu32
I0705 12:40:50.635725 43744 net.cpp:454] relu32 <- conv32
I0705 12:40:50.635735 43744 net.cpp:397] relu32 -> conv32 (in-place)
I0705 12:40:50.635881 43744 net.cpp:150] Setting up relu32
I0705 12:40:50.635896 43744 net.cpp:157] Top shape: 32 96 25 25 (1920000)
I0705 12:40:50.635903 43744 net.cpp:165] Memory required for data: 295680384
I0705 12:40:50.635910 43744 layer_factory.hpp:76] Creating layer pool3
I0705 12:40:50.635922 43744 net.cpp:106] Creating Layer pool3
I0705 12:40:50.635932 43744 net.cpp:454] pool3 <- conv32
I0705 12:40:50.635941 43744 net.cpp:411] pool3 -> pool3
I0705 12:40:50.636260 43744 net.cpp:150] Setting up pool3
I0705 12:40:50.636278 43744 net.cpp:157] Top shape: 32 96 13 13 (519168)
I0705 12:40:50.636286 43744 net.cpp:165] Memory required for data: 297757056
I0705 12:40:50.636294 43744 layer_factory.hpp:76] Creating layer conv41
I0705 12:40:50.636310 43744 net.cpp:106] Creating Layer conv41
I0705 12:40:50.636318 43744 net.cpp:454] conv41 <- pool3
I0705 12:40:50.636328 43744 net.cpp:411] conv41 -> conv41
I0705 12:40:50.638609 43744 cudnn_conv_layer.cpp:194] Reallocating workspace storage: 10368
I0705 12:40:50.638653 43744 net.cpp:150] Setting up conv41
I0705 12:40:50.638674 43744 net.cpp:157] Top shape: 32 128 13 13 (692224)
I0705 12:40:50.638680 43744 net.cpp:165] Memory required for data: 300525952
I0705 12:40:50.638690 43744 layer_factory.hpp:76] Creating layer relu41
I0705 12:40:50.638701 43744 net.cpp:106] Creating Layer relu41
I0705 12:40:50.638708 43744 net.cpp:454] relu41 <- conv41
I0705 12:40:50.638720 43744 net.cpp:397] relu41 -> conv41 (in-place)
I0705 12:40:50.638875 43744 net.cpp:150] Setting up relu41
I0705 12:40:50.638892 43744 net.cpp:157] Top shape: 32 128 13 13 (692224)
I0705 12:40:50.638905 43744 net.cpp:165] Memory required for data: 303294848
I0705 12:40:50.638911 43744 layer_factory.hpp:76] Creating layer conv42
I0705 12:40:50.638923 43744 net.cpp:106] Creating Layer conv42
I0705 12:40:50.638937 43744 net.cpp:454] conv42 <- conv41
I0705 12:40:50.638947 43744 net.cpp:411] conv42 -> conv42
I0705 12:40:50.640743 43744 cudnn_conv_layer.cpp:194] Reallocating workspace storage: 13824
I0705 12:40:50.640777 43744 net.cpp:150] Setting up conv42
I0705 12:40:50.640789 43744 net.cpp:157] Top shape: 32 128 13 13 (692224)
I0705 12:40:50.640796 43744 net.cpp:165] Memory required for data: 306063744
I0705 12:40:50.640806 43744 layer_factory.hpp:76] Creating layer relu42
I0705 12:40:50.640817 43744 net.cpp:106] Creating Layer relu42
I0705 12:40:50.640831 43744 net.cpp:454] relu42 <- conv42
I0705 12:40:50.640839 43744 net.cpp:397] relu42 -> conv42 (in-place)
I0705 12:40:50.641118 43744 net.cpp:150] Setting up relu42
I0705 12:40:50.641134 43744 net.cpp:157] Top shape: 32 128 13 13 (692224)
I0705 12:40:50.641162 43744 net.cpp:165] Memory required for data: 308832640
I0705 12:40:50.641178 43744 layer_factory.hpp:76] Creating layer pool4
I0705 12:40:50.641193 43744 net.cpp:106] Creating Layer pool4
I0705 12:40:50.641201 43744 net.cpp:454] pool4 <- conv42
I0705 12:40:50.641209 43744 net.cpp:411] pool4 -> pool4
I0705 12:40:50.641422 43744 net.cpp:150] Setting up pool4
I0705 12:40:50.641438 43744 net.cpp:157] Top shape: 32 128 7 7 (200704)
I0705 12:40:50.641444 43744 net.cpp:165] Memory required for data: 309635456
I0705 12:40:50.641451 43744 layer_factory.hpp:76] Creating layer conv51
I0705 12:40:50.641463 43744 net.cpp:106] Creating Layer conv51
I0705 12:40:50.641471 43744 net.cpp:454] conv51 <- pool4
I0705 12:40:50.641482 43744 net.cpp:411] conv51 -> conv51
I0705 12:40:50.644760 43744 cudnn_conv_layer.cpp:194] Reallocating workspace storage: 21676032
I0705 12:40:50.644948 43744 net.cpp:150] Setting up conv51
I0705 12:40:50.644965 43744 net.cpp:157] Top shape: 32 256 7 7 (401408)
I0705 12:40:50.644973 43744 net.cpp:165] Memory required for data: 311241088
I0705 12:40:50.644987 43744 layer_factory.hpp:76] Creating layer relu51
I0705 12:40:50.645000 43744 net.cpp:106] Creating Layer relu51
I0705 12:40:50.645007 43744 net.cpp:454] relu51 <- conv51
I0705 12:40:50.645016 43744 net.cpp:397] relu51 -> conv51 (in-place)
I0705 12:40:50.645184 43744 net.cpp:150] Setting up relu51
I0705 12:40:50.645197 43744 net.cpp:157] Top shape: 32 256 7 7 (401408)
I0705 12:40:50.645205 43744 net.cpp:165] Memory required for data: 312846720
I0705 12:40:50.645211 43744 layer_factory.hpp:76] Creating layer conv52
I0705 12:40:50.645226 43744 net.cpp:106] Creating Layer conv52
I0705 12:40:50.645233 43744 net.cpp:454] conv52 <- conv51
I0705 12:40:50.645247 43744 net.cpp:411] conv52 -> conv52
I0705 12:40:50.650869 43744 net.cpp:150] Setting up conv52
I0705 12:40:50.650904 43744 net.cpp:157] Top shape: 32 256 7 7 (401408)
I0705 12:40:50.650913 43744 net.cpp:165] Memory required for data: 314452352
I0705 12:40:50.650923 43744 layer_factory.hpp:76] Creating layer relu52
I0705 12:40:50.650931 43744 net.cpp:106] Creating Layer relu52
I0705 12:40:50.650943 43744 net.cpp:454] relu52 <- conv52
I0705 12:40:50.650950 43744 net.cpp:397] relu52 -> conv52 (in-place)
I0705 12:40:50.651309 43744 net.cpp:150] Setting up relu52
I0705 12:40:50.651341 43744 net.cpp:157] Top shape: 32 256 7 7 (401408)
I0705 12:40:50.651348 43744 net.cpp:165] Memory required for data: 316057984
I0705 12:40:50.651356 43744 layer_factory.hpp:76] Creating layer conv53
I0705 12:40:50.651367 43744 net.cpp:106] Creating Layer conv53
I0705 12:40:50.651376 43744 net.cpp:454] conv53 <- conv52
I0705 12:40:50.651386 43744 net.cpp:411] conv53 -> conv53
I0705 12:40:50.677542 43744 cudnn_conv_layer.cpp:194] Reallocating workspace storage: 150528
I0705 12:40:50.677594 43744 net.cpp:150] Setting up conv53
I0705 12:40:50.677608 43744 net.cpp:157] Top shape: 32 256 1 1 (8192)
I0705 12:40:50.677618 43744 net.cpp:165] Memory required for data: 316090752
I0705 12:40:50.677629 43744 layer_factory.hpp:76] Creating layer relu53
I0705 12:40:50.677642 43744 net.cpp:106] Creating Layer relu53
I0705 12:40:50.677652 43744 net.cpp:454] relu53 <- conv53
I0705 12:40:50.677664 43744 net.cpp:397] relu53 -> conv53 (in-place)
I0705 12:40:50.677821 43744 net.cpp:150] Setting up relu53
I0705 12:40:50.677836 43744 net.cpp:157] Top shape: 32 256 1 1 (8192)
I0705 12:40:50.677845 43744 net.cpp:165] Memory required for data: 316123520
I0705 12:40:50.677851 43744 layer_factory.hpp:76] Creating layer drop6
I0705 12:40:50.677863 43744 net.cpp:106] Creating Layer drop6
I0705 12:40:50.677871 43744 net.cpp:454] drop6 <- conv53
I0705 12:40:50.677881 43744 net.cpp:411] drop6 -> drop6
I0705 12:40:50.677927 43744 net.cpp:150] Setting up drop6
I0705 12:40:50.677939 43744 net.cpp:157] Top shape: 32 256 1 1 (8192)
I0705 12:40:50.677947 43744 net.cpp:165] Memory required for data: 316156288
I0705 12:40:50.677956 43744 layer_factory.hpp:76] Creating layer conv54
I0705 12:40:50.677970 43744 net.cpp:106] Creating Layer conv54
I0705 12:40:50.678009 43744 net.cpp:454] conv54 <- drop6
I0705 12:40:50.678020 43744 net.cpp:411] conv54 -> conv54
I0705 12:40:50.678938 43744 cudnn_conv_layer.cpp:194] Reallocating workspace storage: 3072
I0705 12:40:50.678968 43744 net.cpp:150] Setting up conv54
I0705 12:40:50.678979 43744 net.cpp:157] Top shape: 32 2 1 1 (64)
I0705 12:40:50.678987 43744 net.cpp:165] Memory required for data: 316156544
I0705 12:40:50.678995 43744 layer_factory.hpp:76] Creating layer conv54_conv54_0_split
I0705 12:40:50.679008 43744 net.cpp:106] Creating Layer conv54_conv54_0_split
I0705 12:40:50.679015 43744 net.cpp:454] conv54_conv54_0_split <- conv54
I0705 12:40:50.679025 43744 net.cpp:411] conv54_conv54_0_split -> conv54_conv54_0_split_0
I0705 12:40:50.679038 43744 net.cpp:411] conv54_conv54_0_split -> conv54_conv54_0_split_1
I0705 12:40:50.679080 43744 net.cpp:150] Setting up conv54_conv54_0_split
I0705 12:40:50.679092 43744 net.cpp:157] Top shape: 32 2 1 1 (64)
I0705 12:40:50.679100 43744 net.cpp:157] Top shape: 32 2 1 1 (64)
I0705 12:40:50.679111 43744 net.cpp:165] Memory required for data: 316157056
I0705 12:40:50.679117 43744 layer_factory.hpp:76] Creating layer accuracy
I0705 12:40:50.679132 43744 net.cpp:106] Creating Layer accuracy
I0705 12:40:50.679141 43744 net.cpp:454] accuracy <- conv54_conv54_0_split_0
I0705 12:40:50.679152 43744 net.cpp:454] accuracy <- label_data_1_split_0
I0705 12:40:50.679160 43744 net.cpp:411] accuracy -> accuracy
…
