…
I0714 18:53:54.167939 94229 net.cpp:322] The NetState phase (0) differed from the phase (1) specified by a rule in layer data
I0714 18:53:54.168265 94229 net.cpp:49] Initializing net from parameters: 
name: "FaceNN"
state {
  phase: TRAIN
}
layer {
  name: "data"
  type: "ImageData"
  top: "data"
  top: "label"
  include {
    phase: TRAIN
  }
  transform_param {
    mirror: true
    crop_size: 100
    mean_value: 104
    mean_value: 117
    mean_value: 123
  }
  image_data_param {
    source: "../lists/roi-train-L0.lst"
    batch_size: 128
    shuffle: true
    new_height: 110
    new_width: 110
  }
}
layer {
  name: "conv11"
  type: "Convolution"
  bottom: "data"
  top: "conv11"
  param {
    lr_mult: 1
    decay_mult: 1
  }
  param {
    lr_mult: 2
    decay_mult: 0
  }
  convolution_param {
    num_output: 32
    pad: 1
    stride: 1
    weight_filler {
      type: "xavier"
    }
    bias_filler {
      type: "constant"
    }
    kernel_h: 3
    kernel_w: 3
  }
}
layer {
  name: "relu11"
  type: "ReLU"
  bottom: "conv11"
  top: "conv11"
}
layer {
  name: "conv12"
  type: "Convolution"
  bottom: "conv11"
  top: "conv12"
  param {
    lr_mult: 1
    decay_mult: 1
  }
  param {
    lr_mult: 2
    decay_mult: 0
  }
  convolution_param {
    num_output: 32
    pad: 1
    stride: 1
    weight_filler {
      type: "xavier"
    }
    bias_filler {
      type: "constant"
    }
    kernel_h: 3
    kernel_w: 3
  }
}
layer {
  name: "relu12"
  type: "ReLU"
  bottom: "conv12"
  top: "conv12"
}
layer {
  name: "pool1"
  type: "Pooling"
  bottom: "conv12"
  top: "pool1"
  pooling_param {
    pool: MAX
    kernel_size: 2
    stride: 2
  }
}
layer {
  name: "conv21"
  type: "Convolution"
  bottom: "pool1"
  top: "conv21"
  param {
    lr_mult: 1
    decay_mult: 1
  }
  param {
    lr_mult: 2
    decay_mult: 0
  }
  convolution_param {
    num_output: 64
    pad: 1
    stride: 1
    weight_filler {
      type: "xavier"
    }
    bias_filler {
      type: "constant"
    }
    kernel_h: 3
    kernel_w: 3
  }
}
layer {
  name: "relu21"
  type: "ReLU"
  bottom: "conv21"
  top: "conv21"
}
layer {
  name: "conv22"
  type: "Convolution"
  bottom: "conv21"
  top: "conv22"
  param {
    lr_mult: 1
    decay_mult: 1
  }
  param {
    lr_mult: 2
    decay_mult: 0
  }
  convolution_param {
    num_output: 64
    pad: 1
    stride: 1
    weight_filler {
      type: "xavier"
    }
    bias_filler {
      type: "constant"
    }
    kernel_h: 3
    kernel_w: 3
  }
}
layer {
  name: "relu22"
  type: "ReLU"
  bottom: "conv22"
  top: "conv22"
}
layer {
  name: "pool2"
  type: "Pooling"
  bottom: "conv22"
  top: "pool2"
  pooling_param {
    pool: MAX
    kernel_size: 2
    stride: 2
  }
}
layer {
  name: "conv31"
  type: "Convolution"
  bottom: "pool2"
  top: "conv31"
  param {
    lr_mult: 1
    decay_mult: 1
  }
  param {
    lr_mult: 2
    decay_mult: 0
  }
  convolution_param {
    num_output: 96
    pad: 1
    stride: 1
    weight_filler {
      type: "xavier"
    }
    bias_filler {
      type: "constant"
    }
    kernel_h: 3
    kernel_w: 3
  }
}
layer {
  name: "relu31"
  type: "ReLU"
  bottom: "conv31"
  top: "conv31"
}
layer {
  name: "conv32"
  type: "Convolution"
  bottom: "conv31"
  top: "conv32"
  param {
    lr_mult: 1
    decay_mult: 1
  }
  param {
    lr_mult: 2
    decay_mult: 0
  }
  convolution_param {
    num_output: 96
    pad: 1
    stride: 1
    weight_filler {
      type: "xavier"
    }
    bias_filler {
      type: "constant"
    }
    kernel_h: 3
    kernel_w: 3
  }
}
layer {
  name: "relu32"
  type: "ReLU"
  bottom: "conv32"
  top: "conv32"
}
layer {
  name: "pool3"
  type: "Pooling"
  bottom: "conv32"
  top: "pool3"
  pooling_param {
    pool: MAX
    kernel_size: 2
    stride: 2
  }
}
layer {
  name: "conv41"
  type: "Convolution"
  bottom: "pool3"
  top: "conv41"
  param {
    lr_mult: 1
    decay_mult: 1
  }
  param {
    lr_mult: 2
    decay_mult: 0
  }
  convolution_param {
    num_output: 128
    pad: 1
    stride: 1
    weight_filler {
      type: "xavier"
    }
    bias_filler {
      type: "constant"
    }
    kernel_h: 3
    kernel_w: 3
  }
}
layer {
  name: "relu41"
  type: "ReLU"
  bottom: "conv41"
  top: "conv41"
}
layer {
  name: "conv42"
  type: "Convolution"
  bottom: "conv41"
  top: "conv42"
  param {
    lr_mult: 1
    decay_mult: 1
  }
  param {
    lr_mult: 2
    decay_mult: 0
  }
  convolution_param {
    num_output: 128
    pad: 1
    stride: 1
    weight_filler {
      type: "xavier"
    }
    bias_filler {
      type: "constant"
    }
    kernel_h: 3
    kernel_w: 3
  }
}
layer {
  name: "relu42"
  type: "ReLU"
  bottom: "conv42"
  top: "conv42"
}
layer {
  name: "pool4"
  type: "Pooling"
  bottom: "conv42"
  top: "pool4"
  pooling_param {
    pool: MAX
    kernel_size: 2
    stride: 2
  }
}
layer {
  name: "conv51"
  type: "Convolution"
  bottom: "pool4"
  top: "conv51"
  param {
    lr_mult: 1
    decay_mult: 1
  }
  param {
    lr_mult: 2
    decay_mult: 0
  }
  convolution_param {
    num_output: 256
    pad: 1
    stride: 1
    weight_filler {
      type: "xavier"
    }
    bias_filler {
      type: "constant"
    }
    kernel_h: 3
    kernel_w: 3
  }
}
layer {
  name: "relu51"
  type: "ReLU"
  bottom: "conv51"
  top: "conv51"
}
layer {
  name: "conv52"
  type: "Convolution"
  bottom: "conv51"
  top: "conv52"
  param {
    lr_mult: 1
    decay_mult: 1
  }
  param {
    lr_mult: 2
    decay_mult: 0
  }
  convolution_param {
    num_output: 256
    pad: 1
    stride: 1
    weight_filler {
      type: "xavier"
    }
    bias_filler {
      type: "constant"
    }
    kernel_h: 3
    kernel_w: 3
  }
}
layer {
  name: "relu52"
  type: "ReLU"
  bottom: "conv52"
  top: "conv52"
}
layer {
  name: "conv53"
  type: "Convolution"
  bottom: "conv52"
  top: "conv53"
  param {
    lr_mult: 1
    decay_mult: 1
  }
  param {
    lr_mult: 2
    decay_mult: 0
  }
  convolution_param {
    num_output: 256
    stride: 1
    weight_filler {
      type: "xavier"
    }
    bias_filler {
      type: "constant"
    }
    kernel_h: 7
    kernel_w: 7
  }
}
layer {
  name: "relu53"
  type: "ReLU"
  bottom: "conv53"
  top: "conv53"
}
layer {
  name: "drop6"
  type: "Dropout"
  bottom: "conv53"
  top: "drop6"
  dropout_param {
    dropout_ratio: 0.4
  }
}
layer {
  name: "conv54"
  type: "Convolution"
  bottom: "drop6"
  top: "conv54"
  param {
    lr_mult: 1
    decay_mult: 1
  }
  param {
    lr_mult: 2
    decay_mult: 0
  }
  convolution_param {
    num_output: 2
    stride: 1
    weight_filler {
      type: "xavier"
    }
    bias_filler {
      type: "constant"
    }
    kernel_h: 1
    kernel_w: 1
  }
}
layer {
  name: "accuracy"
  type: "Accuracy"
  bottom: "conv54"
  bottom: "label"
  top: "accuracy"
}
layer {
  name: "loss"
  type: "SoftmaxWithLoss"
  bottom: "conv54"
  bottom: "label"
  top: "loss"
}
I0714 18:53:54.169965 94229 layer_factory.hpp:76] Creating layer data
I0714 18:53:54.170032 94229 net.cpp:106] Creating Layer data
I0714 18:53:54.170047 94229 net.cpp:411] data -> data
I0714 18:53:54.170078 94229 net.cpp:411] data -> label
I0714 18:53:54.170589 94229 image_data_layer.cpp:36] Opening file ../lists/roi-train-L0.lst
I0714 18:53:54.261920 94229 image_data_layer.cpp:46] Shuffling data
I0714 18:53:54.283726 94229 image_data_layer.cpp:51] A total of 180258 images.
I0714 18:53:54.350067 94229 image_data_layer.cpp:78] output data size: 128,3,100,100
I0714 18:53:54.379376 94229 net.cpp:150] Setting up data
I0714 18:53:54.379456 94229 net.cpp:157] Top shape: 128 3 100 100 (3840000)
I0714 18:53:54.379470 94229 net.cpp:157] Top shape: 128 (128)
I0714 18:53:54.379479 94229 net.cpp:165] Memory required for data: 15360512
I0714 18:53:54.379493 94229 layer_factory.hpp:76] Creating layer label_data_1_split
I0714 18:53:54.379513 94229 net.cpp:106] Creating Layer label_data_1_split
I0714 18:53:54.379526 94229 net.cpp:454] label_data_1_split <- label
I0714 18:53:54.379544 94229 net.cpp:411] label_data_1_split -> label_data_1_split_0
I0714 18:53:54.379575 94229 net.cpp:411] label_data_1_split -> label_data_1_split_1
I0714 18:53:54.379628 94229 net.cpp:150] Setting up label_data_1_split
I0714 18:53:54.379643 94229 net.cpp:157] Top shape: 128 (128)
I0714 18:53:54.379654 94229 net.cpp:157] Top shape: 128 (128)
I0714 18:53:54.379662 94229 net.cpp:165] Memory required for data: 15361536
I0714 18:53:54.379672 94229 layer_factory.hpp:76] Creating layer conv11
I0714 18:53:54.379703 94229 net.cpp:106] Creating Layer conv11
I0714 18:53:54.379727 94229 net.cpp:454] conv11 <- data
I0714 18:53:54.379739 94229 net.cpp:411] conv11 -> conv11
I0714 18:53:54.516733 94229 net.cpp:150] Setting up conv11
I0714 18:53:54.516780 94229 net.cpp:157] Top shape: 128 32 100 100 (40960000)
I0714 18:53:54.516796 94229 net.cpp:165] Memory required for data: 179201536
I0714 18:53:54.516839 94229 layer_factory.hpp:76] Creating layer relu11
I0714 18:53:54.516870 94229 net.cpp:106] Creating Layer relu11
I0714 18:53:54.516918 94229 net.cpp:454] relu11 <- conv11
I0714 18:53:54.516932 94229 net.cpp:397] relu11 -> conv11 (in-place)
I0714 18:53:54.517169 94229 net.cpp:150] Setting up relu11
I0714 18:53:54.517199 94229 net.cpp:157] Top shape: 128 32 100 100 (40960000)
I0714 18:53:54.517208 94229 net.cpp:165] Memory required for data: 343041536
I0714 18:53:54.517217 94229 layer_factory.hpp:76] Creating layer conv12
I0714 18:53:54.517236 94229 net.cpp:106] Creating Layer conv12
I0714 18:53:54.517246 94229 net.cpp:454] conv12 <- conv11
I0714 18:53:54.517259 94229 net.cpp:411] conv12 -> conv12
I0714 18:53:54.518425 94229 net.cpp:150] Setting up conv12
I0714 18:53:54.518460 94229 net.cpp:157] Top shape: 128 32 100 100 (40960000)
I0714 18:53:54.518471 94229 net.cpp:165] Memory required for data: 506881536
I0714 18:53:54.518486 94229 layer_factory.hpp:76] Creating layer relu12
I0714 18:53:54.518498 94229 net.cpp:106] Creating Layer relu12
I0714 18:53:54.518508 94229 net.cpp:454] relu12 <- conv12
I0714 18:53:54.518522 94229 net.cpp:397] relu12 -> conv12 (in-place)
I0714 18:53:54.518882 94229 net.cpp:150] Setting up relu12
I0714 18:53:54.518915 94229 net.cpp:157] Top shape: 128 32 100 100 (40960000)
I0714 18:53:54.518925 94229 net.cpp:165] Memory required for data: 670721536
I0714 18:53:54.518934 94229 layer_factory.hpp:76] Creating layer pool1
I0714 18:53:54.518946 94229 net.cpp:106] Creating Layer pool1
I0714 18:53:54.518970 94229 net.cpp:454] pool1 <- conv12
I0714 18:53:54.518981 94229 net.cpp:411] pool1 -> pool1
I0714 18:53:54.519235 94229 net.cpp:150] Setting up pool1
I0714 18:53:54.519265 94229 net.cpp:157] Top shape: 128 32 50 50 (10240000)
I0714 18:53:54.519275 94229 net.cpp:165] Memory required for data: 711681536
I0714 18:53:54.519284 94229 layer_factory.hpp:76] Creating layer conv21
I0714 18:53:54.519304 94229 net.cpp:106] Creating Layer conv21
I0714 18:53:54.519312 94229 net.cpp:454] conv21 <- pool1
I0714 18:53:54.519325 94229 net.cpp:411] conv21 -> conv21
I0714 18:53:54.521687 94229 net.cpp:150] Setting up conv21
I0714 18:53:54.521720 94229 net.cpp:157] Top shape: 128 64 50 50 (20480000)
I0714 18:53:54.521733 94229 net.cpp:165] Memory required for data: 793601536
I0714 18:53:54.521754 94229 layer_factory.hpp:76] Creating layer relu21
I0714 18:53:54.521767 94229 net.cpp:106] Creating Layer relu21
I0714 18:53:54.521777 94229 net.cpp:454] relu21 <- conv21
I0714 18:53:54.521791 94229 net.cpp:397] relu21 -> conv21 (in-place)
I0714 18:53:54.522168 94229 net.cpp:150] Setting up relu21
I0714 18:53:54.522202 94229 net.cpp:157] Top shape: 128 64 50 50 (20480000)
I0714 18:53:54.522212 94229 net.cpp:165] Memory required for data: 875521536
I0714 18:53:54.522244 94229 layer_factory.hpp:76] Creating layer conv22
I0714 18:53:54.522274 94229 net.cpp:106] Creating Layer conv22
I0714 18:53:54.522284 94229 net.cpp:454] conv22 <- conv21
I0714 18:53:54.522296 94229 net.cpp:411] conv22 -> conv22
I0714 18:53:54.523449 94229 cudnn_conv_layer.cpp:194] Reallocating workspace storage: 6912
I0714 18:53:54.523730 94229 net.cpp:150] Setting up conv22
I0714 18:53:54.523759 94229 net.cpp:157] Top shape: 128 64 50 50 (20480000)
I0714 18:53:54.523769 94229 net.cpp:165] Memory required for data: 957441536
I0714 18:53:54.523782 94229 layer_factory.hpp:76] Creating layer relu22
I0714 18:53:54.523793 94229 net.cpp:106] Creating Layer relu22
I0714 18:53:54.523802 94229 net.cpp:454] relu22 <- conv22
I0714 18:53:54.523813 94229 net.cpp:397] relu22 -> conv22 (in-place)
I0714 18:53:54.524220 94229 net.cpp:150] Setting up relu22
I0714 18:53:54.524255 94229 net.cpp:157] Top shape: 128 64 50 50 (20480000)
I0714 18:53:54.524265 94229 net.cpp:165] Memory required for data: 1039361536
I0714 18:53:54.524286 94229 layer_factory.hpp:76] Creating layer pool2
I0714 18:53:54.524297 94229 net.cpp:106] Creating Layer pool2
I0714 18:53:54.524307 94229 net.cpp:454] pool2 <- conv22
I0714 18:53:54.524319 94229 net.cpp:411] pool2 -> pool2
I0714 18:53:54.524574 94229 net.cpp:150] Setting up pool2
I0714 18:53:54.524605 94229 net.cpp:157] Top shape: 128 64 25 25 (5120000)
I0714 18:53:54.524613 94229 net.cpp:165] Memory required for data: 1059841536
I0714 18:53:54.524622 94229 layer_factory.hpp:76] Creating layer conv31
I0714 18:53:54.524634 94229 net.cpp:106] Creating Layer conv31
I0714 18:53:54.524643 94229 net.cpp:454] conv31 <- pool2
I0714 18:53:54.524658 94229 net.cpp:411] conv31 -> conv31
I0714 18:53:54.526026 94229 cudnn_conv_layer.cpp:194] Reallocating workspace storage: 6912
I0714 18:53:54.526070 94229 net.cpp:150] Setting up conv31
I0714 18:53:54.526096 94229 net.cpp:157] Top shape: 128 96 25 25 (7680000)
I0714 18:53:54.526105 94229 net.cpp:165] Memory required for data: 1090561536
I0714 18:53:54.526123 94229 layer_factory.hpp:76] Creating layer relu31
I0714 18:53:54.526134 94229 net.cpp:106] Creating Layer relu31
I0714 18:53:54.526144 94229 net.cpp:454] relu31 <- conv31
I0714 18:53:54.526156 94229 net.cpp:397] relu31 -> conv31 (in-place)
I0714 18:53:54.526530 94229 net.cpp:150] Setting up relu31
I0714 18:53:54.526561 94229 net.cpp:157] Top shape: 128 96 25 25 (7680000)
I0714 18:53:54.526571 94229 net.cpp:165] Memory required for data: 1121281536
I0714 18:53:54.526581 94229 layer_factory.hpp:76] Creating layer conv32
I0714 18:53:54.526597 94229 net.cpp:106] Creating Layer conv32
I0714 18:53:54.526607 94229 net.cpp:454] conv32 <- conv31
I0714 18:53:54.526620 94229 net.cpp:411] conv32 -> conv32
I0714 18:53:54.528883 94229 cudnn_conv_layer.cpp:194] Reallocating workspace storage: 10368
I0714 18:53:54.528942 94229 net.cpp:150] Setting up conv32
I0714 18:53:54.528980 94229 net.cpp:157] Top shape: 128 96 25 25 (7680000)
I0714 18:53:54.528995 94229 net.cpp:165] Memory required for data: 1152001536
I0714 18:53:54.529013 94229 layer_factory.hpp:76] Creating layer relu32
I0714 18:53:54.529047 94229 net.cpp:106] Creating Layer relu32
I0714 18:53:54.529076 94229 net.cpp:454] relu32 <- conv32
I0714 18:53:54.529109 94229 net.cpp:397] relu32 -> conv32 (in-place)
I0714 18:53:54.529386 94229 net.cpp:150] Setting up relu32
I0714 18:53:54.529414 94229 net.cpp:157] Top shape: 128 96 25 25 (7680000)
I0714 18:53:54.529425 94229 net.cpp:165] Memory required for data: 1182721536
I0714 18:53:54.529434 94229 layer_factory.hpp:76] Creating layer pool3
I0714 18:53:54.529463 94229 net.cpp:106] Creating Layer pool3
I0714 18:53:54.529472 94229 net.cpp:454] pool3 <- conv32
I0714 18:53:54.529482 94229 net.cpp:411] pool3 -> pool3
I0714 18:53:54.529937 94229 net.cpp:150] Setting up pool3
I0714 18:53:54.529969 94229 net.cpp:157] Top shape: 128 96 13 13 (2076672)
I0714 18:53:54.529979 94229 net.cpp:165] Memory required for data: 1191028224
I0714 18:53:54.530000 94229 layer_factory.hpp:76] Creating layer conv41
I0714 18:53:54.530032 94229 net.cpp:106] Creating Layer conv41
I0714 18:53:54.530061 94229 net.cpp:454] conv41 <- pool3
I0714 18:53:54.530074 94229 net.cpp:411] conv41 -> conv41
I0714 18:53:54.531843 94229 net.cpp:150] Setting up conv41
I0714 18:53:54.531877 94229 net.cpp:157] Top shape: 128 128 13 13 (2768896)
I0714 18:53:54.531886 94229 net.cpp:165] Memory required for data: 1202103808
I0714 18:53:54.531898 94229 layer_factory.hpp:76] Creating layer relu41
I0714 18:53:54.531910 94229 net.cpp:106] Creating Layer relu41
I0714 18:53:54.531919 94229 net.cpp:454] relu41 <- conv41
I0714 18:53:54.531929 94229 net.cpp:397] relu41 -> conv41 (in-place)
I0714 18:53:54.532502 94229 net.cpp:150] Setting up relu41
I0714 18:53:54.532538 94229 net.cpp:157] Top shape: 128 128 13 13 (2768896)
I0714 18:53:54.532562 94229 net.cpp:165] Memory required for data: 1213179392
I0714 18:53:54.532572 94229 layer_factory.hpp:76] Creating layer conv42
I0714 18:53:54.532590 94229 net.cpp:106] Creating Layer conv42
I0714 18:53:54.532600 94229 net.cpp:454] conv42 <- conv41
I0714 18:53:54.532613 94229 net.cpp:411] conv42 -> conv42
I0714 18:53:54.535315 94229 cudnn_conv_layer.cpp:194] Reallocating workspace storage: 13824
I0714 18:53:54.535364 94229 net.cpp:150] Setting up conv42
I0714 18:53:54.535379 94229 net.cpp:157] Top shape: 128 128 13 13 (2768896)
I0714 18:53:54.535388 94229 net.cpp:165] Memory required for data: 1224254976
I0714 18:53:54.535404 94229 layer_factory.hpp:76] Creating layer relu42
I0714 18:53:54.535436 94229 net.cpp:106] Creating Layer relu42
I0714 18:53:54.535449 94229 net.cpp:454] relu42 <- conv42
I0714 18:53:54.535460 94229 net.cpp:397] relu42 -> conv42 (in-place)
I0714 18:53:54.535729 94229 net.cpp:150] Setting up relu42
I0714 18:53:54.535758 94229 net.cpp:157] Top shape: 128 128 13 13 (2768896)
I0714 18:53:54.535768 94229 net.cpp:165] Memory required for data: 1235330560
I0714 18:53:54.535779 94229 layer_factory.hpp:76] Creating layer pool4
I0714 18:53:54.535791 94229 net.cpp:106] Creating Layer pool4
I0714 18:53:54.535802 94229 net.cpp:454] pool4 <- conv42
I0714 18:53:54.535821 94229 net.cpp:411] pool4 -> pool4
I0714 18:53:54.536248 94229 net.cpp:150] Setting up pool4
I0714 18:53:54.536283 94229 net.cpp:157] Top shape: 128 128 7 7 (802816)
I0714 18:53:54.536294 94229 net.cpp:165] Memory required for data: 1238541824
I0714 18:53:54.536314 94229 layer_factory.hpp:76] Creating layer conv51
I0714 18:53:54.536331 94229 net.cpp:106] Creating Layer conv51
I0714 18:53:54.536342 94229 net.cpp:454] conv51 <- pool4
I0714 18:53:54.536355 94229 net.cpp:411] conv51 -> conv51
I0714 18:53:54.540105 94229 net.cpp:150] Setting up conv51
I0714 18:53:54.540143 94229 net.cpp:157] Top shape: 128 256 7 7 (1605632)
I0714 18:53:54.540155 94229 net.cpp:165] Memory required for data: 1244964352
I0714 18:53:54.540175 94229 layer_factory.hpp:76] Creating layer relu51
I0714 18:53:54.540187 94229 net.cpp:106] Creating Layer relu51
I0714 18:53:54.540199 94229 net.cpp:454] relu51 <- conv51
I0714 18:53:54.540211 94229 net.cpp:397] relu51 -> conv51 (in-place)
I0714 18:53:54.540489 94229 net.cpp:150] Setting up relu51
I0714 18:53:54.540518 94229 net.cpp:157] Top shape: 128 256 7 7 (1605632)
I0714 18:53:54.540526 94229 net.cpp:165] Memory required for data: 1251386880
I0714 18:53:54.540539 94229 layer_factory.hpp:76] Creating layer conv52
I0714 18:53:54.540555 94229 net.cpp:106] Creating Layer conv52
I0714 18:53:54.540565 94229 net.cpp:454] conv52 <- conv51
I0714 18:53:54.540578 94229 net.cpp:411] conv52 -> conv52
I0714 18:53:54.546878 94229 net.cpp:150] Setting up conv52
I0714 18:53:54.546916 94229 net.cpp:157] Top shape: 128 256 7 7 (1605632)
I0714 18:53:54.546927 94229 net.cpp:165] Memory required for data: 1257809408
I0714 18:53:54.546939 94229 layer_factory.hpp:76] Creating layer relu52
I0714 18:53:54.546953 94229 net.cpp:106] Creating Layer relu52
I0714 18:53:54.546965 94229 net.cpp:454] relu52 <- conv52
I0714 18:53:54.546978 94229 net.cpp:397] relu52 -> conv52 (in-place)
I0714 18:53:54.547389 94229 net.cpp:150] Setting up relu52
I0714 18:53:54.547437 94229 net.cpp:157] Top shape: 128 256 7 7 (1605632)
I0714 18:53:54.547448 94229 net.cpp:165] Memory required for data: 1264231936
I0714 18:53:54.547459 94229 layer_factory.hpp:76] Creating layer conv53
I0714 18:53:54.547477 94229 net.cpp:106] Creating Layer conv53
I0714 18:53:54.547488 94229 net.cpp:454] conv53 <- conv52
I0714 18:53:54.547508 94229 net.cpp:411] conv53 -> conv53
I0714 18:53:54.579114 94229 cudnn_conv_layer.cpp:194] Reallocating workspace storage: 150528
I0714 18:53:54.579416 94229 net.cpp:150] Setting up conv53
I0714 18:53:54.579460 94229 net.cpp:157] Top shape: 128 256 1 1 (32768)
I0714 18:53:54.579473 94229 net.cpp:165] Memory required for data: 1264363008
I0714 18:53:54.579490 94229 layer_factory.hpp:76] Creating layer relu53
I0714 18:53:54.579506 94229 net.cpp:106] Creating Layer relu53
I0714 18:53:54.579517 94229 net.cpp:454] relu53 <- conv53
I0714 18:53:54.579530 94229 net.cpp:397] relu53 -> conv53 (in-place)
I0714 18:53:54.579964 94229 net.cpp:150] Setting up relu53
I0714 18:53:54.579998 94229 net.cpp:157] Top shape: 128 256 1 1 (32768)
I0714 18:53:54.580009 94229 net.cpp:165] Memory required for data: 1264494080
I0714 18:53:54.580018 94229 layer_factory.hpp:76] Creating layer drop6
I0714 18:53:54.580035 94229 net.cpp:106] Creating Layer drop6
I0714 18:53:54.580045 94229 net.cpp:454] drop6 <- conv53
I0714 18:53:54.580056 94229 net.cpp:411] drop6 -> drop6
I0714 18:53:54.580132 94229 net.cpp:150] Setting up drop6
I0714 18:53:54.580173 94229 net.cpp:157] Top shape: 128 256 1 1 (32768)
I0714 18:53:54.580186 94229 net.cpp:165] Memory required for data: 1264625152
I0714 18:53:54.580207 94229 layer_factory.hpp:76] Creating layer conv54
I0714 18:53:54.580240 94229 net.cpp:106] Creating Layer conv54
I0714 18:53:54.580255 94229 net.cpp:454] conv54 <- drop6
I0714 18:53:54.580270 94229 net.cpp:411] conv54 -> conv54
I0714 18:53:54.581466 94229 cudnn_conv_layer.cpp:194] Reallocating workspace storage: 3072
I0714 18:53:54.581751 94229 net.cpp:150] Setting up conv54
I0714 18:53:54.581784 94229 net.cpp:157] Top shape: 128 2 1 1 (256)
I0714 18:53:54.581794 94229 net.cpp:165] Memory required for data: 1264626176
I0714 18:53:54.581806 94229 layer_factory.hpp:76] Creating layer conv54_conv54_0_split
I0714 18:53:54.581820 94229 net.cpp:106] Creating Layer conv54_conv54_0_split
I0714 18:53:54.581830 94229 net.cpp:454] conv54_conv54_0_split <- conv54
I0714 18:53:54.581857 94229 net.cpp:411] conv54_conv54_0_split -> conv54_conv54_0_split_0
I0714 18:53:54.581876 94229 net.cpp:411] conv54_conv54_0_split -> conv54_conv54_0_split_1
I0714 18:53:54.581966 94229 net.cpp:150] Setting up conv54_conv54_0_split
I0714 18:53:54.581986 94229 net.cpp:157] Top shape: 128 2 1 1 (256)
I0714 18:53:54.581998 94229 net.cpp:157] Top shape: 128 2 1 1 (256)
I0714 18:53:54.582008 94229 net.cpp:165] Memory required for data: 1264628224
I0714 18:53:54.582031 94229 layer_factory.hpp:76] Creating layer accuracy
I0714 18:53:54.582049 94229 net.cpp:106] Creating Layer accuracy
I0714 18:53:54.582075 94229 net.cpp:454] accuracy <- conv54_conv54_0_split_0
I0714 18:53:54.582087 94229 net.cpp:454] accuracy <- label_data_1_split_0
I0714 18:53:54.582099 94229 net.cpp:411] accuracy -> accuracy
…
I0714 18:53:54.584115 94229 net.cpp:322] The NetState phase (1) differed from the phase (0) specified by a rule in layer data
I0714 18:53:54.584417 94229 net.cpp:49] Initializing net from parameters: 
name: "FaceNN"
state {
  phase: TEST
}
layer {
  name: "data"
  type: "ImageData"
  top: "data"
  top: "label"
  include {
    phase: TEST
  }
  transform_param {
    mirror: false
    crop_size: 100
    mean_value: 104
    mean_value: 117
    mean_value: 123
  }
  image_data_param {
    source: "../lists/roi-val-L0.lst"
    batch_size: 100
    shuffle: true
    new_height: 110
    new_width: 110
  }
}
layer {
  name: "conv11"
  type: "Convolution"
  bottom: "data"
  top: "conv11"
  param {
    lr_mult: 1
    decay_mult: 1
  }
  param {
    lr_mult: 2
    decay_mult: 0
  }
  convolution_param {
    num_output: 32
    pad: 1
    stride: 1
    weight_filler {
      type: "xavier"
    }
    bias_filler {
      type: "constant"
    }
    kernel_h: 3
    kernel_w: 3
  }
}
layer {
  name: "relu11"
  type: "ReLU"
  bottom: "conv11"
  top: "conv11"
}
layer {
  name: "conv12"
  type: "Convolution"
  bottom: "conv11"
  top: "conv12"
  param {
    lr_mult: 1
    decay_mult: 1
  }
  param {
    lr_mult: 2
    decay_mult: 0
  }
  convolution_param {
    num_output: 32
    pad: 1
    stride: 1
    weight_filler {
      type: "xavier"
    }
    bias_filler {
      type: "constant"
    }
    kernel_h: 3
    kernel_w: 3
  }
}
layer {
  name: "relu12"
  type: "ReLU"
  bottom: "conv12"
  top: "conv12"
}
layer {
  name: "pool1"
  type: "Pooling"
  bottom: "conv12"
  top: "pool1"
  pooling_param {
    pool: MAX
    kernel_size: 2
    stride: 2
  }
}
layer {
  name: "conv21"
  type: "Convolution"
  bottom: "pool1"
  top: "conv21"
  param {
    lr_mult: 1
    decay_mult: 1
  }
  param {
    lr_mult: 2
    decay_mult: 0
  }
  convolution_param {
    num_output: 64
    pad: 1
    stride: 1
    weight_filler {
      type: "xavier"
    }
    bias_filler {
      type: "constant"
    }
    kernel_h: 3
    kernel_w: 3
  }
}
layer {
  name: "relu21"
  type: "ReLU"
  bottom: "conv21"
  top: "conv21"
}
layer {
  name: "conv22"
  type: "Convolution"
  bottom: "conv21"
  top: "conv22"
  param {
    lr_mult: 1
    decay_mult: 1
  }
  param {
    lr_mult: 2
    decay_mult: 0
  }
  convolution_param {
    num_output: 64
    pad: 1
    stride: 1
    weight_filler {
      type: "xavier"
    }
    bias_filler {
      type: "constant"
    }
    kernel_h: 3
    kernel_w: 3
  }
}
layer {
  name: "relu22"
  type: "ReLU"
  bottom: "conv22"
  top: "conv22"
}
layer {
  name: "pool2"
  type: "Pooling"
  bottom: "conv22"
  top: "pool2"
  pooling_param {
    pool: MAX
    kernel_size: 2
    stride: 2
  }
}
layer {
  name: "conv31"
  type: "Convolution"
  bottom: "pool2"
  top: "conv31"
  param {
    lr_mult: 1
    decay_mult: 1
  }
  param {
    lr_mult: 2
    decay_mult: 0
  }
  convolution_param {
    num_output: 96
    pad: 1
    stride: 1
    weight_filler {
      type: "xavier"
    }
    bias_filler {
      type: "constant"
    }
    kernel_h: 3
    kernel_w: 3
  }
}
layer {
  name: "relu31"
  type: "ReLU"
  bottom: "conv31"
  top: "conv31"
}
layer {
  name: "conv32"
  type: "Convolution"
  bottom: "conv31"
  top: "conv32"
  param {
    lr_mult: 1
    decay_mult: 1
  }
  param {
    lr_mult: 2
    decay_mult: 0
  }
  convolution_param {
    num_output: 96
    pad: 1
    stride: 1
    weight_filler {
      type: "xavier"
    }
    bias_filler {
      type: "constant"
    }
    kernel_h: 3
    kernel_w: 3
  }
}
layer {
  name: "relu32"
  type: "ReLU"
  bottom: "conv32"
  top: "conv32"
}
layer {
  name: "pool3"
  type: "Pooling"
  bottom: "conv32"
  top: "pool3"
  pooling_param {
    pool: MAX
    kernel_size: 2
    stride: 2
  }
}
layer {
  name: "conv41"
  type: "Convolution"
  bottom: "pool3"
  top: "conv41"
  param {
    lr_mult: 1
    decay_mult: 1
  }
  param {
    lr_mult: 2
    decay_mult: 0
  }
  convolution_param {
    num_output: 128
    pad: 1
    stride: 1
    weight_filler {
      type: "xavier"
    }
    bias_filler {
      type: "constant"
    }
    kernel_h: 3
    kernel_w: 3
  }
}
layer {
  name: "relu41"
  type: "ReLU"
  bottom: "conv41"
  top: "conv41"
}
layer {
  name: "conv42"
  type: "Convolution"
  bottom: "conv41"
  top: "conv42"
  param {
    lr_mult: 1
    decay_mult: 1
  }
  param {
    lr_mult: 2
    decay_mult: 0
  }
  convolution_param {
    num_output: 128
    pad: 1
    stride: 1
    weight_filler {
      type: "xavier"
    }
    bias_filler {
      type: "constant"
    }
    kernel_h: 3
    kernel_w: 3
  }
}
layer {
  name: "relu42"
  type: "ReLU"
  bottom: "conv42"
  top: "conv42"
}
layer {
  name: "pool4"
  type: "Pooling"
  bottom: "conv42"
  top: "pool4"
  pooling_param {
    pool: MAX
    kernel_size: 2
    stride: 2
  }
}
layer {
  name: "conv51"
  type: "Convolution"
  bottom: "pool4"
  top: "conv51"
  param {
    lr_mult: 1
    decay_mult: 1
  }
  param {
    lr_mult: 2
    decay_mult: 0
  }
  convolution_param {
    num_output: 256
    pad: 1
    stride: 1
    weight_filler {
      type: "xavier"
    }
    bias_filler {
      type: "constant"
    }
    kernel_h: 3
    kernel_w: 3
  }
}
layer {
  name: "relu51"
  type: "ReLU"
  bottom: "conv51"
  top: "conv51"
}
layer {
  name: "conv52"
  type: "Convolution"
  bottom: "conv51"
  top: "conv52"
  param {
    lr_mult: 1
    decay_mult: 1
  }
  param {
    lr_mult: 2
    decay_mult: 0
  }
  convolution_param {
    num_output: 256
    pad: 1
    stride: 1
    weight_filler {
      type: "xavier"
    }
    bias_filler {
      type: "constant"
    }
    kernel_h: 3
    kernel_w: 3
  }
}
layer {
  name: "relu52"
  type: "ReLU"
  bottom: "conv52"
  top: "conv52"
}
layer {
  name: "conv53"
  type: "Convolution"
  bottom: "conv52"
  top: "conv53"
  param {
    lr_mult: 1
    decay_mult: 1
  }
  param {
    lr_mult: 2
    decay_mult: 0
  }
  convolution_param {
    num_output: 256
    stride: 1
    weight_filler {
      type: "xavier"
    }
    bias_filler {
      type: "constant"
    }
    kernel_h: 7
    kernel_w: 7
  }
}
layer {
  name: "relu53"
  type: "ReLU"
  bottom: "conv53"
  top: "conv53"
}
layer {
  name: "drop6"
  type: "Dropout"
  bottom: "conv53"
  top: "drop6"
  dropout_param {
    dropout_ratio: 0.4
  }
}
layer {
  name: "conv54"
  type: "Convolution"
  bottom: "drop6"
  top: "conv54"
  param {
    lr_mult: 1
    decay_mult: 1
  }
  param {
    lr_mult: 2
    decay_mult: 0
  }
  convolution_param {
    num_output: 2
    stride: 1
    weight_filler {
      type: "xavier"
    }
    bias_filler {
      type: "constant"
    }
    kernel_h: 1
    kernel_w: 1
  }
}
layer {
  name: "accuracy"
  type: "Accuracy"
  bottom: "conv54"
  bottom: "label"
  top: "accuracy"
}
layer {
  name: "loss"
  type: "SoftmaxWithLoss"
  bottom: "conv54"
  bottom: "label"
  top: "loss"
}
I0714 18:53:54.586220 94229 layer_factory.hpp:76] Creating layer data
I0714 18:53:54.586267 94229 net.cpp:106] Creating Layer data
I0714 18:53:54.586282 94229 net.cpp:411] data -> data
I0714 18:53:54.586298 94229 net.cpp:411] data -> label
I0714 18:53:54.586318 94229 image_data_layer.cpp:36] Opening file ../lists/roi-val-L0.lst
I0714 18:53:54.597590 94229 image_data_layer.cpp:46] Shuffling data
I0714 18:53:54.599133 94229 image_data_layer.cpp:51] A total of 20030 images.
I0714 18:53:54.610174 94229 image_data_layer.cpp:78] output data size: 100,3,100,100
I0714 18:53:54.636986 94229 net.cpp:150] Setting up data
I0714 18:53:54.637045 94229 net.cpp:157] Top shape: 100 3 100 100 (3000000)
I0714 18:53:54.637061 94229 net.cpp:157] Top shape: 100 (100)
I0714 18:53:54.637071 94229 net.cpp:165] Memory required for data: 12000400
I0714 18:53:54.637087 94229 layer_factory.hpp:76] Creating layer label_data_1_split
I0714 18:53:54.637114 94229 net.cpp:106] Creating Layer label_data_1_split
I0714 18:53:54.637141 94229 net.cpp:454] label_data_1_split <- label
I0714 18:53:54.637158 94229 net.cpp:411] label_data_1_split -> label_data_1_split_0
I0714 18:53:54.637181 94229 net.cpp:411] label_data_1_split -> label_data_1_split_1
I0714 18:53:54.637332 94229 net.cpp:150] Setting up label_data_1_split
I0714 18:53:54.637365 94229 net.cpp:157] Top shape: 100 (100)
I0714 18:53:54.637378 94229 net.cpp:157] Top shape: 100 (100)
I0714 18:53:54.637392 94229 net.cpp:165] Memory required for data: 12001200
I0714 18:53:54.637404 94229 layer_factory.hpp:76] Creating layer conv11
I0714 18:53:54.637428 94229 net.cpp:106] Creating Layer conv11
I0714 18:53:54.637456 94229 net.cpp:454] conv11 <- data
I0714 18:53:54.637470 94229 net.cpp:411] conv11 -> conv11
I0714 18:53:54.639256 94229 net.cpp:150] Setting up conv11
I0714 18:53:54.639309 94229 net.cpp:157] Top shape: 100 32 100 100 (32000000)
I0714 18:53:54.639323 94229 net.cpp:165] Memory required for data: 140001200
I0714 18:53:54.639349 94229 layer_factory.hpp:76] Creating layer relu11
I0714 18:53:54.639384 94229 net.cpp:106] Creating Layer relu11
I0714 18:53:54.639396 94229 net.cpp:454] relu11 <- conv11
I0714 18:53:54.639415 94229 net.cpp:397] relu11 -> conv11 (in-place)
I0714 18:53:54.639823 94229 net.cpp:150] Setting up relu11
I0714 18:53:54.639847 94229 net.cpp:157] Top shape: 100 32 100 100 (32000000)
I0714 18:53:54.639919 94229 net.cpp:165] Memory required for data: 268001200
I0714 18:53:54.639936 94229 layer_factory.hpp:76] Creating layer conv12
I0714 18:53:54.639966 94229 net.cpp:106] Creating Layer conv12
I0714 18:53:54.639978 94229 net.cpp:454] conv12 <- conv11
I0714 18:53:54.640004 94229 net.cpp:411] conv12 -> conv12
I0714 18:53:54.642846 94229 net.cpp:150] Setting up conv12
I0714 18:53:54.642879 94229 net.cpp:157] Top shape: 100 32 100 100 (32000000)
I0714 18:53:54.642892 94229 net.cpp:165] Memory required for data: 396001200
I0714 18:53:54.642918 94229 layer_factory.hpp:76] Creating layer relu12
I0714 18:53:54.642935 94229 net.cpp:106] Creating Layer relu12
I0714 18:53:54.642948 94229 net.cpp:454] relu12 <- conv12
I0714 18:53:54.642968 94229 net.cpp:397] relu12 -> conv12 (in-place)
I0714 18:53:54.643367 94229 net.cpp:150] Setting up relu12
I0714 18:53:54.643390 94229 net.cpp:157] Top shape: 100 32 100 100 (32000000)
I0714 18:53:54.643404 94229 net.cpp:165] Memory required for data: 524001200
I0714 18:53:54.643417 94229 layer_factory.hpp:76] Creating layer pool1
I0714 18:53:54.643432 94229 net.cpp:106] Creating Layer pool1
I0714 18:53:54.643442 94229 net.cpp:454] pool1 <- conv12
I0714 18:53:54.643457 94229 net.cpp:411] pool1 -> pool1
I0714 18:53:54.643721 94229 net.cpp:150] Setting up pool1
I0714 18:53:54.643743 94229 net.cpp:157] Top shape: 100 32 50 50 (8000000)
I0714 18:53:54.643753 94229 net.cpp:165] Memory required for data: 556001200
I0714 18:53:54.643764 94229 layer_factory.hpp:76] Creating layer conv21
I0714 18:53:54.643785 94229 net.cpp:106] Creating Layer conv21
I0714 18:53:54.643797 94229 net.cpp:454] conv21 <- pool1
I0714 18:53:54.643810 94229 net.cpp:411] conv21 -> conv21
I0714 18:53:54.645472 94229 net.cpp:150] Setting up conv21
I0714 18:53:54.645504 94229 net.cpp:157] Top shape: 100 64 50 50 (16000000)
I0714 18:53:54.645519 94229 net.cpp:165] Memory required for data: 620001200
I0714 18:53:54.645537 94229 layer_factory.hpp:76] Creating layer relu21
I0714 18:53:54.645555 94229 net.cpp:106] Creating Layer relu21
I0714 18:53:54.645565 94229 net.cpp:454] relu21 <- conv21
I0714 18:53:54.645579 94229 net.cpp:397] relu21 -> conv21 (in-place)
I0714 18:53:54.645961 94229 net.cpp:150] Setting up relu21
I0714 18:53:54.645983 94229 net.cpp:157] Top shape: 100 64 50 50 (16000000)
I0714 18:53:54.645994 94229 net.cpp:165] Memory required for data: 684001200
I0714 18:53:54.646005 94229 layer_factory.hpp:76] Creating layer conv22
I0714 18:53:54.646025 94229 net.cpp:106] Creating Layer conv22
I0714 18:53:54.646036 94229 net.cpp:454] conv22 <- conv21
I0714 18:53:54.646049 94229 net.cpp:411] conv22 -> conv22
I0714 18:53:54.647563 94229 net.cpp:150] Setting up conv22
I0714 18:53:54.647589 94229 net.cpp:157] Top shape: 100 64 50 50 (16000000)
I0714 18:53:54.647598 94229 net.cpp:165] Memory required for data: 748001200
I0714 18:53:54.647614 94229 layer_factory.hpp:76] Creating layer relu22
I0714 18:53:54.647634 94229 net.cpp:106] Creating Layer relu22
I0714 18:53:54.647646 94229 net.cpp:454] relu22 <- conv22
I0714 18:53:54.647660 94229 net.cpp:397] relu22 -> conv22 (in-place)
I0714 18:53:54.647866 94229 net.cpp:150] Setting up relu22
I0714 18:53:54.647883 94229 net.cpp:157] Top shape: 100 64 50 50 (16000000)
I0714 18:53:54.647892 94229 net.cpp:165] Memory required for data: 812001200
I0714 18:53:54.647902 94229 layer_factory.hpp:76] Creating layer pool2
I0714 18:53:54.647920 94229 net.cpp:106] Creating Layer pool2
I0714 18:53:54.647932 94229 net.cpp:454] pool2 <- conv22
I0714 18:53:54.647944 94229 net.cpp:411] pool2 -> pool2
I0714 18:53:54.648334 94229 net.cpp:150] Setting up pool2
I0714 18:53:54.648353 94229 net.cpp:157] Top shape: 100 64 25 25 (4000000)
I0714 18:53:54.648362 94229 net.cpp:165] Memory required for data: 828001200
I0714 18:53:54.648376 94229 layer_factory.hpp:76] Creating layer conv31
I0714 18:53:54.648396 94229 net.cpp:106] Creating Layer conv31
I0714 18:53:54.648406 94229 net.cpp:454] conv31 <- pool2
I0714 18:53:54.648418 94229 net.cpp:411] conv31 -> conv31
I0714 18:53:54.650012 94229 cudnn_conv_layer.cpp:194] Reallocating workspace storage: 6912
I0714 18:53:54.650061 94229 net.cpp:150] Setting up conv31
I0714 18:53:54.650079 94229 net.cpp:157] Top shape: 100 96 25 25 (6000000)
I0714 18:53:54.650095 94229 net.cpp:165] Memory required for data: 852001200
I0714 18:53:54.650118 94229 layer_factory.hpp:76] Creating layer relu31
I0714 18:53:54.650133 94229 net.cpp:106] Creating Layer relu31
I0714 18:53:54.650143 94229 net.cpp:454] relu31 <- conv31
I0714 18:53:54.650162 94229 net.cpp:397] relu31 -> conv31 (in-place)
I0714 18:53:54.652230 94229 net.cpp:150] Setting up relu31
I0714 18:53:54.652259 94229 net.cpp:157] Top shape: 100 96 25 25 (6000000)
I0714 18:53:54.652271 94229 net.cpp:165] Memory required for data: 876001200
I0714 18:53:54.652281 94229 layer_factory.hpp:76] Creating layer conv32
I0714 18:53:54.652300 94229 net.cpp:106] Creating Layer conv32
I0714 18:53:54.652318 94229 net.cpp:454] conv32 <- conv31
I0714 18:53:54.652338 94229 net.cpp:411] conv32 -> conv32
I0714 18:53:54.654238 94229 cudnn_conv_layer.cpp:194] Reallocating workspace storage: 10368
I0714 18:53:54.654290 94229 net.cpp:150] Setting up conv32
I0714 18:53:54.654310 94229 net.cpp:157] Top shape: 100 96 25 25 (6000000)
I0714 18:53:54.654330 94229 net.cpp:165] Memory required for data: 900001200
I0714 18:53:54.654348 94229 layer_factory.hpp:76] Creating layer relu32
I0714 18:53:54.654371 94229 net.cpp:106] Creating Layer relu32
I0714 18:53:54.654383 94229 net.cpp:454] relu32 <- conv32
I0714 18:53:54.654397 94229 net.cpp:397] relu32 -> conv32 (in-place)
I0714 18:53:54.654624 94229 net.cpp:150] Setting up relu32
I0714 18:53:54.654666 94229 net.cpp:157] Top shape: 100 96 25 25 (6000000)
I0714 18:53:54.654678 94229 net.cpp:165] Memory required for data: 924001200
I0714 18:53:54.654693 94229 layer_factory.hpp:76] Creating layer pool3
I0714 18:53:54.654714 94229 net.cpp:106] Creating Layer pool3
I0714 18:53:54.654727 94229 net.cpp:454] pool3 <- conv32
I0714 18:53:54.654739 94229 net.cpp:411] pool3 -> pool3
I0714 18:53:54.655189 94229 net.cpp:150] Setting up pool3
I0714 18:53:54.655215 94229 net.cpp:157] Top shape: 100 96 13 13 (1622400)
I0714 18:53:54.655225 94229 net.cpp:165] Memory required for data: 930490800
I0714 18:53:54.655237 94229 layer_factory.hpp:76] Creating layer conv41
I0714 18:53:54.655254 94229 net.cpp:106] Creating Layer conv41
I0714 18:53:54.655267 94229 net.cpp:454] conv41 <- pool3
I0714 18:53:54.655287 94229 net.cpp:411] conv41 -> conv41
I0714 18:53:54.658030 94229 net.cpp:150] Setting up conv41
I0714 18:53:54.658053 94229 net.cpp:157] Top shape: 100 128 13 13 (2163200)
I0714 18:53:54.658062 94229 net.cpp:165] Memory required for data: 939143600
I0714 18:53:54.658078 94229 layer_factory.hpp:76] Creating layer relu41
I0714 18:53:54.658092 94229 net.cpp:106] Creating Layer relu41
I0714 18:53:54.658102 94229 net.cpp:454] relu41 <- conv41
I0714 18:53:54.658116 94229 net.cpp:397] relu41 -> conv41 (in-place)
I0714 18:53:54.658321 94229 net.cpp:150] Setting up relu41
I0714 18:53:54.658344 94229 net.cpp:157] Top shape: 100 128 13 13 (2163200)
I0714 18:53:54.658352 94229 net.cpp:165] Memory required for data: 947796400
I0714 18:53:54.658362 94229 layer_factory.hpp:76] Creating layer conv42
I0714 18:53:54.658377 94229 net.cpp:106] Creating Layer conv42
I0714 18:53:54.658386 94229 net.cpp:454] conv42 <- conv41
I0714 18:53:54.658403 94229 net.cpp:411] conv42 -> conv42
I0714 18:53:54.660797 94229 cudnn_conv_layer.cpp:194] Reallocating workspace storage: 13824
I0714 18:53:54.660842 94229 net.cpp:150] Setting up conv42
I0714 18:53:54.660859 94229 net.cpp:157] Top shape: 100 128 13 13 (2163200)
I0714 18:53:54.660869 94229 net.cpp:165] Memory required for data: 956449200
I0714 18:53:54.660882 94229 layer_factory.hpp:76] Creating layer relu42
I0714 18:53:54.660902 94229 net.cpp:106] Creating Layer relu42
I0714 18:53:54.660931 94229 net.cpp:454] relu42 <- conv42
I0714 18:53:54.660949 94229 net.cpp:397] relu42 -> conv42 (in-place)
I0714 18:53:54.661331 94229 net.cpp:150] Setting up relu42
I0714 18:53:54.661370 94229 net.cpp:157] Top shape: 100 128 13 13 (2163200)
I0714 18:53:54.661381 94229 net.cpp:165] Memory required for data: 965102000
I0714 18:53:54.661397 94229 layer_factory.hpp:76] Creating layer pool4
I0714 18:53:54.661413 94229 net.cpp:106] Creating Layer pool4
I0714 18:53:54.661427 94229 net.cpp:454] pool4 <- conv42
I0714 18:53:54.661442 94229 net.cpp:411] pool4 -> pool4
I0714 18:53:54.661689 94229 net.cpp:150] Setting up pool4
I0714 18:53:54.661710 94229 net.cpp:157] Top shape: 100 128 7 7 (627200)
I0714 18:53:54.661720 94229 net.cpp:165] Memory required for data: 967610800
I0714 18:53:54.661731 94229 layer_factory.hpp:76] Creating layer conv51
I0714 18:53:54.661749 94229 net.cpp:106] Creating Layer conv51
I0714 18:53:54.661757 94229 net.cpp:454] conv51 <- pool4
I0714 18:53:54.661774 94229 net.cpp:411] conv51 -> conv51
I0714 18:53:54.665861 94229 cudnn_conv_layer.cpp:194] Reallocating workspace storage: 13824
I0714 18:53:54.665904 94229 net.cpp:150] Setting up conv51
I0714 18:53:54.665920 94229 net.cpp:157] Top shape: 100 256 7 7 (1254400)
I0714 18:53:54.665932 94229 net.cpp:165] Memory required for data: 972628400
I0714 18:53:54.665951 94229 layer_factory.hpp:76] Creating layer relu51
I0714 18:53:54.665969 94229 net.cpp:106] Creating Layer relu51
I0714 18:53:54.665987 94229 net.cpp:454] relu51 <- conv51
I0714 18:53:54.665998 94229 net.cpp:397] relu51 -> conv51 (in-place)
I0714 18:53:54.666201 94229 net.cpp:150] Setting up relu51
I0714 18:53:54.666224 94229 net.cpp:157] Top shape: 100 256 7 7 (1254400)
I0714 18:53:54.666232 94229 net.cpp:165] Memory required for data: 977646000
I0714 18:53:54.666241 94229 layer_factory.hpp:76] Creating layer conv52
I0714 18:53:54.666262 94229 net.cpp:106] Creating Layer conv52
I0714 18:53:54.666272 94229 net.cpp:454] conv52 <- conv51
I0714 18:53:54.666285 94229 net.cpp:411] conv52 -> conv52
I0714 18:53:54.673403 94229 net.cpp:150] Setting up conv52
I0714 18:53:54.673429 94229 net.cpp:157] Top shape: 100 256 7 7 (1254400)
I0714 18:53:54.673441 94229 net.cpp:165] Memory required for data: 982663600
I0714 18:53:54.673456 94229 layer_factory.hpp:76] Creating layer relu52
I0714 18:53:54.673475 94229 net.cpp:106] Creating Layer relu52
I0714 18:53:54.673486 94229 net.cpp:454] relu52 <- conv52
I0714 18:53:54.673499 94229 net.cpp:397] relu52 -> conv52 (in-place)
I0714 18:53:54.673898 94229 net.cpp:150] Setting up relu52
I0714 18:53:54.673929 94229 net.cpp:157] Top shape: 100 256 7 7 (1254400)
I0714 18:53:54.673943 94229 net.cpp:165] Memory required for data: 987681200
I0714 18:53:54.673956 94229 layer_factory.hpp:76] Creating layer conv53
I0714 18:53:54.673979 94229 net.cpp:106] Creating Layer conv53
I0714 18:53:54.673996 94229 net.cpp:454] conv53 <- conv52
I0714 18:53:54.674012 94229 net.cpp:411] conv53 -> conv53
I0714 18:53:54.705859 94229 cudnn_conv_layer.cpp:194] Reallocating workspace storage: 150528
I0714 18:53:54.705931 94229 net.cpp:150] Setting up conv53
I0714 18:53:54.705952 94229 net.cpp:157] Top shape: 100 256 1 1 (25600)
I0714 18:53:54.705976 94229 net.cpp:165] Memory required for data: 987783600
I0714 18:53:54.705992 94229 layer_factory.hpp:76] Creating layer relu53
I0714 18:53:54.706012 94229 net.cpp:106] Creating Layer relu53
I0714 18:53:54.706023 94229 net.cpp:454] relu53 <- conv53
I0714 18:53:54.706040 94229 net.cpp:397] relu53 -> conv53 (in-place)
I0714 18:53:54.706243 94229 net.cpp:150] Setting up relu53
I0714 18:53:54.706264 94229 net.cpp:157] Top shape: 100 256 1 1 (25600)
I0714 18:53:54.706279 94229 net.cpp:165] Memory required for data: 987886000
I0714 18:53:54.706295 94229 layer_factory.hpp:76] Creating layer drop6
I0714 18:53:54.706312 94229 net.cpp:106] Creating Layer drop6
I0714 18:53:54.706321 94229 net.cpp:454] drop6 <- conv53
I0714 18:53:54.706344 94229 net.cpp:411] drop6 -> drop6
I0714 18:53:54.706409 94229 net.cpp:150] Setting up drop6
I0714 18:53:54.706424 94229 net.cpp:157] Top shape: 100 256 1 1 (25600)
I0714 18:53:54.706434 94229 net.cpp:165] Memory required for data: 987988400
I0714 18:53:54.706444 94229 layer_factory.hpp:76] Creating layer conv54
I0714 18:53:54.706493 94229 net.cpp:106] Creating Layer conv54
I0714 18:53:54.706503 94229 net.cpp:454] conv54 <- drop6
I0714 18:53:54.706516 94229 net.cpp:411] conv54 -> conv54
I0714 18:53:54.707691 94229 cudnn_conv_layer.cpp:194] Reallocating workspace storage: 3072
I0714 18:53:54.707733 94229 net.cpp:150] Setting up conv54
I0714 18:53:54.707746 94229 net.cpp:157] Top shape: 100 2 1 1 (200)
I0714 18:53:54.707754 94229 net.cpp:165] Memory required for data: 987989200
I0714 18:53:54.707767 94229 layer_factory.hpp:76] Creating layer conv54_conv54_0_split
I0714 18:53:54.707782 94229 net.cpp:106] Creating Layer conv54_conv54_0_split
I0714 18:53:54.707792 94229 net.cpp:454] conv54_conv54_0_split <- conv54
I0714 18:53:54.707803 94229 net.cpp:411] conv54_conv54_0_split -> conv54_conv54_0_split_0
I0714 18:53:54.707818 94229 net.cpp:411] conv54_conv54_0_split -> conv54_conv54_0_split_1
I0714 18:53:54.707867 94229 net.cpp:150] Setting up conv54_conv54_0_split
I0714 18:53:54.707882 94229 net.cpp:157] Top shape: 100 2 1 1 (200)
I0714 18:53:54.707892 94229 net.cpp:157] Top shape: 100 2 1 1 (200)
I0714 18:53:54.707901 94229 net.cpp:165] Memory required for data: 987990800
I0714 18:53:54.707911 94229 layer_factory.hpp:76] Creating layer accuracy
I0714 18:53:54.707923 94229 net.cpp:106] Creating Layer accuracy
I0714 18:53:54.707944 94229 net.cpp:454] accuracy <- conv54_conv54_0_split_0
I0714 18:53:54.707953 94229 net.cpp:454] accuracy <- label_data_1_split_0
I0714 18:53:54.707964 94229 net.cpp:411] accuracy -> accuracy
…
