…
I0707 10:10:21.835455 26359 net.cpp:322] The NetState phase (0) differed from the phase (1) specified by a rule in layer data
I0707 10:10:21.835703 26359 net.cpp:49] Initializing net from parameters: 
name: "FaceNN"
state {
  phase: TRAIN
}
layer {
  name: "data"
  type: "ImageData"
  top: "data"
  top: "label"
  include {
    phase: TRAIN
  }
  transform_param {
    mirror: true
    crop_size: 100
    mean_value: 104
    mean_value: 117
    mean_value: 123
  }
  image_data_param {
    source: "../lists/roi-train-L0.lst"
    batch_size: 128
    shuffle: true
    new_height: 110
    new_width: 110
  }
}
layer {
  name: "conv11"
  type: "Convolution"
  bottom: "data"
  top: "conv11"
  param {
    lr_mult: 1
    decay_mult: 1
  }
  param {
    lr_mult: 2
    decay_mult: 0
  }
  convolution_param {
    num_output: 32
    pad: 1
    stride: 1
    weight_filler {
      type: "xavier"
    }
    bias_filler {
      type: "constant"
    }
    kernel_h: 3
    kernel_w: 3
  }
}
layer {
  name: "relu11"
  type: "ReLU"
  bottom: "conv11"
  top: "conv11"
}
layer {
  name: "conv12"
  type: "Convolution"
  bottom: "conv11"
  top: "conv12"
  param {
    lr_mult: 1
    decay_mult: 1
  }
  param {
    lr_mult: 2
    decay_mult: 0
  }
  convolution_param {
    num_output: 32
    pad: 1
    stride: 1
    weight_filler {
      type: "xavier"
    }
    bias_filler {
      type: "constant"
    }
    kernel_h: 3
    kernel_w: 3
  }
}
layer {
  name: "relu12"
  type: "ReLU"
  bottom: "conv12"
  top: "conv12"
}
layer {
  name: "pool1"
  type: "Pooling"
  bottom: "conv12"
  top: "pool1"
  pooling_param {
    pool: MAX
    kernel_size: 2
    stride: 2
  }
}
layer {
  name: "conv21"
  type: "Convolution"
  bottom: "pool1"
  top: "conv21"
  param {
    lr_mult: 1
    decay_mult: 1
  }
  param {
    lr_mult: 2
    decay_mult: 0
  }
  convolution_param {
    num_output: 64
    pad: 1
    stride: 1
    weight_filler {
      type: "xavier"
    }
    bias_filler {
      type: "constant"
    }
    kernel_h: 3
    kernel_w: 3
  }
}
layer {
  name: "relu21"
  type: "ReLU"
  bottom: "conv21"
  top: "conv21"
}
layer {
  name: "conv22"
  type: "Convolution"
  bottom: "conv21"
  top: "conv22"
  param {
    lr_mult: 1
    decay_mult: 1
  }
  param {
    lr_mult: 2
    decay_mult: 0
  }
  convolution_param {
    num_output: 64
    pad: 1
    stride: 1
    weight_filler {
      type: "xavier"
    }
    bias_filler {
      type: "constant"
    }
    kernel_h: 3
    kernel_w: 3
  }
}
layer {
  name: "relu22"
  type: "ReLU"
  bottom: "conv22"
  top: "conv22"
}
layer {
  name: "pool2"
  type: "Pooling"
  bottom: "conv22"
  top: "pool2"
  pooling_param {
    pool: MAX
    kernel_size: 2
    stride: 2
  }
}
layer {
  name: "conv31"
  type: "Convolution"
  bottom: "pool2"
  top: "conv31"
  param {
    lr_mult: 1
    decay_mult: 1
  }
  param {
    lr_mult: 2
    decay_mult: 0
  }
  convolution_param {
    num_output: 96
    pad: 1
    stride: 1
    weight_filler {
      type: "xavier"
    }
    bias_filler {
      type: "constant"
    }
    kernel_h: 3
    kernel_w: 3
  }
}
layer {
  name: "relu31"
  type: "ReLU"
  bottom: "conv31"
  top: "conv31"
}
layer {
  name: "conv32"
  type: "Convolution"
  bottom: "conv31"
  top: "conv32"
  param {
    lr_mult: 1
    decay_mult: 1
  }
  param {
    lr_mult: 2
    decay_mult: 0
  }
  convolution_param {
    num_output: 96
    pad: 1
    stride: 1
    weight_filler {
      type: "xavier"
    }
    bias_filler {
      type: "constant"
    }
    kernel_h: 3
    kernel_w: 3
  }
}
layer {
  name: "relu32"
  type: "ReLU"
  bottom: "conv32"
  top: "conv32"
}
layer {
  name: "pool3"
  type: "Pooling"
  bottom: "conv32"
  top: "pool3"
  pooling_param {
    pool: MAX
    kernel_size: 2
    stride: 2
  }
}
layer {
  name: "conv41"
  type: "Convolution"
  bottom: "pool3"
  top: "conv41"
  param {
    lr_mult: 1
    decay_mult: 1
  }
  param {
    lr_mult: 2
    decay_mult: 0
  }
  convolution_param {
    num_output: 128
    pad: 1
    stride: 1
    weight_filler {
      type: "xavier"
    }
    bias_filler {
      type: "constant"
    }
    kernel_h: 3
    kernel_w: 3
  }
}
layer {
  name: "relu41"
  type: "ReLU"
  bottom: "conv41"
  top: "conv41"
}
layer {
  name: "conv42"
  type: "Convolution"
  bottom: "conv41"
  top: "conv42"
  param {
    lr_mult: 1
    decay_mult: 1
  }
  param {
    lr_mult: 2
    decay_mult: 0
  }
  convolution_param {
    num_output: 128
    pad: 1
    stride: 1
    weight_filler {
      type: "xavier"
    }
    bias_filler {
      type: "constant"
    }
    kernel_h: 3
    kernel_w: 3
  }
}
layer {
  name: "relu42"
  type: "ReLU"
  bottom: "conv42"
  top: "conv42"
}
layer {
  name: "pool4"
  type: "Pooling"
  bottom: "conv42"
  top: "pool4"
  pooling_param {
    pool: MAX
    kernel_size: 2
    stride: 2
  }
}
layer {
  name: "conv51"
  type: "Convolution"
  bottom: "pool4"
  top: "conv51"
  param {
    lr_mult: 1
    decay_mult: 1
  }
  param {
    lr_mult: 2
    decay_mult: 0
  }
  convolution_param {
    num_output: 256
    pad: 1
    stride: 1
    weight_filler {
      type: "xavier"
    }
    bias_filler {
      type: "constant"
    }
    kernel_h: 3
    kernel_w: 3
  }
}
layer {
  name: "relu51"
  type: "ReLU"
  bottom: "conv51"
  top: "conv51"
}
layer {
  name: "conv52"
  type: "Convolution"
  bottom: "conv51"
  top: "conv52"
  param {
    lr_mult: 1
    decay_mult: 1
  }
  param {
    lr_mult: 2
    decay_mult: 0
  }
  convolution_param {
    num_output: 256
    pad: 1
    stride: 1
    weight_filler {
      type: "xavier"
    }
    bias_filler {
      type: "constant"
    }
    kernel_h: 3
    kernel_w: 3
  }
}
layer {
  name: "relu52"
  type: "ReLU"
  bottom: "conv52"
  top: "conv52"
}
layer {
  name: "conv53"
  type: "Convolution"
  bottom: "conv52"
  top: "conv53"
  param {
    lr_mult: 1
    decay_mult: 1
  }
  param {
    lr_mult: 2
    decay_mult: 0
  }
  convolution_param {
    num_output: 256
    stride: 1
    weight_filler {
      type: "xavier"
    }
    bias_filler {
      type: "constant"
    }
    kernel_h: 7
    kernel_w: 7
  }
}
layer {
  name: "relu53"
  type: "ReLU"
  bottom: "conv53"
  top: "conv53"
}
layer {
  name: "drop6"
  type: "Dropout"
  bottom: "conv53"
  top: "drop6"
  dropout_param {
    dropout_ratio: 0.4
  }
}
layer {
  name: "conv54"
  type: "Convolution"
  bottom: "drop6"
  top: "conv54"
  param {
    lr_mult: 1
    decay_mult: 1
  }
  param {
    lr_mult: 2
    decay_mult: 0
  }
  convolution_param {
    num_output: 2
    stride: 1
    weight_filler {
      type: "xavier"
    }
    bias_filler {
      type: "constant"
    }
    kernel_h: 1
    kernel_w: 1
  }
}
layer {
  name: "accuracy"
  type: "Accuracy"
  bottom: "conv54"
  bottom: "label"
  top: "accuracy"
}
layer {
  name: "loss"
  type: "SoftmaxWithLoss"
  bottom: "conv54"
  bottom: "label"
  top: "loss"
}
I0707 10:10:21.837442 26359 layer_factory.hpp:76] Creating layer data
I0707 10:10:21.837702 26359 net.cpp:106] Creating Layer data
I0707 10:10:21.837739 26359 net.cpp:411] data -> data
I0707 10:10:21.837772 26359 net.cpp:411] data -> label
I0707 10:10:21.838383 26359 image_data_layer.cpp:36] Opening file ../lists/roi-train-L0.lst
I0707 10:10:22.291307 26359 image_data_layer.cpp:46] Shuffling data
I0707 10:10:22.353525 26359 image_data_layer.cpp:51] A total of 211680 images.
I0707 10:10:22.571612 26359 image_data_layer.cpp:78] output data size: 128,3,100,100
I0707 10:10:22.645884 26359 net.cpp:150] Setting up data
I0707 10:10:22.645977 26359 net.cpp:157] Top shape: 128 3 100 100 (3840000)
I0707 10:10:22.645989 26359 net.cpp:157] Top shape: 128 (128)
I0707 10:10:22.645998 26359 net.cpp:165] Memory required for data: 15360512
I0707 10:10:22.646016 26359 layer_factory.hpp:76] Creating layer label_data_1_split
I0707 10:10:22.646234 26359 net.cpp:106] Creating Layer label_data_1_split
I0707 10:10:22.646255 26359 net.cpp:454] label_data_1_split <- label
I0707 10:10:22.646275 26359 net.cpp:411] label_data_1_split -> label_data_1_split_0
I0707 10:10:22.646303 26359 net.cpp:411] label_data_1_split -> label_data_1_split_1
I0707 10:10:22.646375 26359 net.cpp:150] Setting up label_data_1_split
I0707 10:10:22.646390 26359 net.cpp:157] Top shape: 128 (128)
I0707 10:10:22.646399 26359 net.cpp:157] Top shape: 128 (128)
I0707 10:10:22.646407 26359 net.cpp:165] Memory required for data: 15361536
I0707 10:10:22.646415 26359 layer_factory.hpp:76] Creating layer conv11
I0707 10:10:22.646438 26359 net.cpp:106] Creating Layer conv11
I0707 10:10:22.646458 26359 net.cpp:454] conv11 <- data
I0707 10:10:22.646471 26359 net.cpp:411] conv11 -> conv11
I0707 10:10:23.015441 26359 net.cpp:150] Setting up conv11
I0707 10:10:23.015550 26359 net.cpp:157] Top shape: 128 32 100 100 (40960000)
I0707 10:10:23.015570 26359 net.cpp:165] Memory required for data: 179201536
I0707 10:10:23.015791 26359 layer_factory.hpp:76] Creating layer relu11
I0707 10:10:23.015874 26359 net.cpp:106] Creating Layer relu11
I0707 10:10:23.015897 26359 net.cpp:454] relu11 <- conv11
I0707 10:10:23.015923 26359 net.cpp:397] relu11 -> conv11 (in-place)
I0707 10:10:23.016216 26359 net.cpp:150] Setting up relu11
I0707 10:10:23.016247 26359 net.cpp:157] Top shape: 128 32 100 100 (40960000)
I0707 10:10:23.016260 26359 net.cpp:165] Memory required for data: 343041536
I0707 10:10:23.016273 26359 layer_factory.hpp:76] Creating layer conv12
I0707 10:10:23.016352 26359 net.cpp:106] Creating Layer conv12
I0707 10:10:23.016374 26359 net.cpp:454] conv12 <- conv11
I0707 10:10:23.016396 26359 net.cpp:411] conv12 -> conv12
I0707 10:10:23.017761 26359 net.cpp:150] Setting up conv12
I0707 10:10:23.017792 26359 net.cpp:157] Top shape: 128 32 100 100 (40960000)
I0707 10:10:23.017802 26359 net.cpp:165] Memory required for data: 506881536
I0707 10:10:23.017840 26359 layer_factory.hpp:76] Creating layer relu12
I0707 10:10:23.017897 26359 net.cpp:106] Creating Layer relu12
I0707 10:10:23.017907 26359 net.cpp:454] relu12 <- conv12
I0707 10:10:23.017917 26359 net.cpp:397] relu12 -> conv12 (in-place)
I0707 10:10:23.018270 26359 net.cpp:150] Setting up relu12
I0707 10:10:23.018302 26359 net.cpp:157] Top shape: 128 32 100 100 (40960000)
I0707 10:10:23.018311 26359 net.cpp:165] Memory required for data: 670721536
I0707 10:10:23.018321 26359 layer_factory.hpp:76] Creating layer pool1
I0707 10:10:23.018342 26359 net.cpp:106] Creating Layer pool1
I0707 10:10:23.018352 26359 net.cpp:454] pool1 <- conv12
I0707 10:10:23.018362 26359 net.cpp:411] pool1 -> pool1
I0707 10:10:23.018851 26359 net.cpp:150] Setting up pool1
I0707 10:10:23.018887 26359 net.cpp:157] Top shape: 128 32 50 50 (10240000)
I0707 10:10:23.018898 26359 net.cpp:165] Memory required for data: 711681536
I0707 10:10:23.018908 26359 layer_factory.hpp:76] Creating layer conv21
I0707 10:10:23.018937 26359 net.cpp:106] Creating Layer conv21
I0707 10:10:23.018947 26359 net.cpp:454] conv21 <- pool1
I0707 10:10:23.018960 26359 net.cpp:411] conv21 -> conv21
I0707 10:10:23.021361 26359 net.cpp:150] Setting up conv21
I0707 10:10:23.021404 26359 net.cpp:157] Top shape: 128 64 50 50 (20480000)
I0707 10:10:23.021414 26359 net.cpp:165] Memory required for data: 793601536
I0707 10:10:23.021432 26359 layer_factory.hpp:76] Creating layer relu21
I0707 10:10:23.021450 26359 net.cpp:106] Creating Layer relu21
I0707 10:10:23.021459 26359 net.cpp:454] relu21 <- conv21
I0707 10:10:23.021471 26359 net.cpp:397] relu21 -> conv21 (in-place)
I0707 10:10:23.021806 26359 net.cpp:150] Setting up relu21
I0707 10:10:23.021836 26359 net.cpp:157] Top shape: 128 64 50 50 (20480000)
I0707 10:10:23.021877 26359 net.cpp:165] Memory required for data: 875521536
I0707 10:10:23.021888 26359 layer_factory.hpp:76] Creating layer conv22
I0707 10:10:23.021919 26359 net.cpp:106] Creating Layer conv22
I0707 10:10:23.021931 26359 net.cpp:454] conv22 <- conv21
I0707 10:10:23.021944 26359 net.cpp:411] conv22 -> conv22
I0707 10:10:23.023304 26359 cudnn_conv_layer.cpp:194] Reallocating workspace storage: 6912
I0707 10:10:23.023552 26359 net.cpp:150] Setting up conv22
I0707 10:10:23.023583 26359 net.cpp:157] Top shape: 128 64 50 50 (20480000)
I0707 10:10:23.023592 26359 net.cpp:165] Memory required for data: 957441536
I0707 10:10:23.023612 26359 layer_factory.hpp:76] Creating layer relu22
I0707 10:10:23.023627 26359 net.cpp:106] Creating Layer relu22
I0707 10:10:23.023635 26359 net.cpp:454] relu22 <- conv22
I0707 10:10:23.023648 26359 net.cpp:397] relu22 -> conv22 (in-place)
I0707 10:10:23.023993 26359 net.cpp:150] Setting up relu22
I0707 10:10:23.024027 26359 net.cpp:157] Top shape: 128 64 50 50 (20480000)
I0707 10:10:23.024045 26359 net.cpp:165] Memory required for data: 1039361536
I0707 10:10:23.024055 26359 layer_factory.hpp:76] Creating layer pool2
I0707 10:10:23.024068 26359 net.cpp:106] Creating Layer pool2
I0707 10:10:23.024076 26359 net.cpp:454] pool2 <- conv22
I0707 10:10:23.024098 26359 net.cpp:411] pool2 -> pool2
I0707 10:10:23.024395 26359 net.cpp:150] Setting up pool2
I0707 10:10:23.024431 26359 net.cpp:157] Top shape: 128 64 25 25 (5120000)
I0707 10:10:23.024451 26359 net.cpp:165] Memory required for data: 1059841536
I0707 10:10:23.024469 26359 layer_factory.hpp:76] Creating layer conv31
I0707 10:10:23.024489 26359 net.cpp:106] Creating Layer conv31
I0707 10:10:23.024503 26359 net.cpp:454] conv31 <- pool2
I0707 10:10:23.024518 26359 net.cpp:411] conv31 -> conv31
I0707 10:10:23.026037 26359 cudnn_conv_layer.cpp:194] Reallocating workspace storage: 6912
I0707 10:10:23.026087 26359 net.cpp:150] Setting up conv31
I0707 10:10:23.026099 26359 net.cpp:157] Top shape: 128 96 25 25 (7680000)
I0707 10:10:23.026108 26359 net.cpp:165] Memory required for data: 1090561536
I0707 10:10:23.026124 26359 layer_factory.hpp:76] Creating layer relu31
I0707 10:10:23.026150 26359 net.cpp:106] Creating Layer relu31
I0707 10:10:23.026163 26359 net.cpp:454] relu31 <- conv31
I0707 10:10:23.026173 26359 net.cpp:397] relu31 -> conv31 (in-place)
I0707 10:10:23.026506 26359 net.cpp:150] Setting up relu31
I0707 10:10:23.026537 26359 net.cpp:157] Top shape: 128 96 25 25 (7680000)
I0707 10:10:23.026546 26359 net.cpp:165] Memory required for data: 1121281536
I0707 10:10:23.026564 26359 layer_factory.hpp:76] Creating layer conv32
I0707 10:10:23.026581 26359 net.cpp:106] Creating Layer conv32
I0707 10:10:23.026589 26359 net.cpp:454] conv32 <- conv31
I0707 10:10:23.026603 26359 net.cpp:411] conv32 -> conv32
I0707 10:10:23.029322 26359 cudnn_conv_layer.cpp:194] Reallocating workspace storage: 10368
I0707 10:10:23.029379 26359 net.cpp:150] Setting up conv32
I0707 10:10:23.029393 26359 net.cpp:157] Top shape: 128 96 25 25 (7680000)
I0707 10:10:23.029403 26359 net.cpp:165] Memory required for data: 1152001536
I0707 10:10:23.029415 26359 layer_factory.hpp:76] Creating layer relu32
I0707 10:10:23.029428 26359 net.cpp:106] Creating Layer relu32
I0707 10:10:23.029438 26359 net.cpp:454] relu32 <- conv32
I0707 10:10:23.029450 26359 net.cpp:397] relu32 -> conv32 (in-place)
I0707 10:10:23.029644 26359 net.cpp:150] Setting up relu32
I0707 10:10:23.029671 26359 net.cpp:157] Top shape: 128 96 25 25 (7680000)
I0707 10:10:23.029680 26359 net.cpp:165] Memory required for data: 1182721536
I0707 10:10:23.029690 26359 layer_factory.hpp:76] Creating layer pool3
I0707 10:10:23.029718 26359 net.cpp:106] Creating Layer pool3
I0707 10:10:23.029729 26359 net.cpp:454] pool3 <- conv32
I0707 10:10:23.029742 26359 net.cpp:411] pool3 -> pool3
I0707 10:10:23.030278 26359 net.cpp:150] Setting up pool3
I0707 10:10:23.030314 26359 net.cpp:157] Top shape: 128 96 13 13 (2076672)
I0707 10:10:23.030323 26359 net.cpp:165] Memory required for data: 1191028224
I0707 10:10:23.030333 26359 layer_factory.hpp:76] Creating layer conv41
I0707 10:10:23.030388 26359 net.cpp:106] Creating Layer conv41
I0707 10:10:23.030401 26359 net.cpp:454] conv41 <- pool3
I0707 10:10:23.030412 26359 net.cpp:411] conv41 -> conv41
I0707 10:10:23.032147 26359 net.cpp:150] Setting up conv41
I0707 10:10:23.032181 26359 net.cpp:157] Top shape: 128 128 13 13 (2768896)
I0707 10:10:23.032191 26359 net.cpp:165] Memory required for data: 1202103808
I0707 10:10:23.032202 26359 layer_factory.hpp:76] Creating layer relu41
I0707 10:10:23.032214 26359 net.cpp:106] Creating Layer relu41
I0707 10:10:23.032223 26359 net.cpp:454] relu41 <- conv41
I0707 10:10:23.032235 26359 net.cpp:397] relu41 -> conv41 (in-place)
I0707 10:10:23.033407 26359 net.cpp:150] Setting up relu41
I0707 10:10:23.033438 26359 net.cpp:157] Top shape: 128 128 13 13 (2768896)
I0707 10:10:23.033447 26359 net.cpp:165] Memory required for data: 1213179392
I0707 10:10:23.033457 26359 layer_factory.hpp:76] Creating layer conv42
I0707 10:10:23.033473 26359 net.cpp:106] Creating Layer conv42
I0707 10:10:23.033484 26359 net.cpp:454] conv42 <- conv41
I0707 10:10:23.033498 26359 net.cpp:411] conv42 -> conv42
I0707 10:10:23.037822 26359 cudnn_conv_layer.cpp:194] Reallocating workspace storage: 13824
I0707 10:10:23.037899 26359 net.cpp:150] Setting up conv42
I0707 10:10:23.037915 26359 net.cpp:157] Top shape: 128 128 13 13 (2768896)
I0707 10:10:23.037925 26359 net.cpp:165] Memory required for data: 1224254976
I0707 10:10:23.037940 26359 layer_factory.hpp:76] Creating layer relu42
I0707 10:10:23.037971 26359 net.cpp:106] Creating Layer relu42
I0707 10:10:23.037983 26359 net.cpp:454] relu42 <- conv42
I0707 10:10:23.038008 26359 net.cpp:397] relu42 -> conv42 (in-place)
I0707 10:10:23.038221 26359 net.cpp:150] Setting up relu42
I0707 10:10:23.038260 26359 net.cpp:157] Top shape: 128 128 13 13 (2768896)
I0707 10:10:23.038269 26359 net.cpp:165] Memory required for data: 1235330560
I0707 10:10:23.038277 26359 layer_factory.hpp:76] Creating layer pool4
I0707 10:10:23.038292 26359 net.cpp:106] Creating Layer pool4
I0707 10:10:23.038300 26359 net.cpp:454] pool4 <- conv42
I0707 10:10:23.038311 26359 net.cpp:411] pool4 -> pool4
I0707 10:10:23.038854 26359 net.cpp:150] Setting up pool4
I0707 10:10:23.038885 26359 net.cpp:157] Top shape: 128 128 7 7 (802816)
I0707 10:10:23.038894 26359 net.cpp:165] Memory required for data: 1238541824
I0707 10:10:23.038904 26359 layer_factory.hpp:76] Creating layer conv51
I0707 10:10:23.038924 26359 net.cpp:106] Creating Layer conv51
I0707 10:10:23.038933 26359 net.cpp:454] conv51 <- pool4
I0707 10:10:23.038944 26359 net.cpp:411] conv51 -> conv51
I0707 10:10:23.043277 26359 net.cpp:150] Setting up conv51
I0707 10:10:23.043326 26359 net.cpp:157] Top shape: 128 256 7 7 (1605632)
I0707 10:10:23.043336 26359 net.cpp:165] Memory required for data: 1244964352
I0707 10:10:23.043355 26359 layer_factory.hpp:76] Creating layer relu51
I0707 10:10:23.043370 26359 net.cpp:106] Creating Layer relu51
I0707 10:10:23.043380 26359 net.cpp:454] relu51 <- conv51
I0707 10:10:23.043390 26359 net.cpp:397] relu51 -> conv51 (in-place)
I0707 10:10:23.043612 26359 net.cpp:150] Setting up relu51
I0707 10:10:23.043640 26359 net.cpp:157] Top shape: 128 256 7 7 (1605632)
I0707 10:10:23.043648 26359 net.cpp:165] Memory required for data: 1251386880
I0707 10:10:23.043658 26359 layer_factory.hpp:76] Creating layer conv52
I0707 10:10:23.043678 26359 net.cpp:106] Creating Layer conv52
I0707 10:10:23.043687 26359 net.cpp:454] conv52 <- conv51
I0707 10:10:23.043700 26359 net.cpp:411] conv52 -> conv52
I0707 10:10:23.067407 26359 net.cpp:150] Setting up conv52
I0707 10:10:23.067438 26359 net.cpp:157] Top shape: 128 256 7 7 (1605632)
I0707 10:10:23.067443 26359 net.cpp:165] Memory required for data: 1257809408
I0707 10:10:23.067456 26359 layer_factory.hpp:76] Creating layer relu52
I0707 10:10:23.067471 26359 net.cpp:106] Creating Layer relu52
I0707 10:10:23.067477 26359 net.cpp:454] relu52 <- conv52
I0707 10:10:23.067487 26359 net.cpp:397] relu52 -> conv52 (in-place)
I0707 10:10:23.076014 26359 net.cpp:150] Setting up relu52
I0707 10:10:23.076066 26359 net.cpp:157] Top shape: 128 256 7 7 (1605632)
I0707 10:10:23.076071 26359 net.cpp:165] Memory required for data: 1264231936
I0707 10:10:23.076074 26359 layer_factory.hpp:76] Creating layer conv53
I0707 10:10:23.076088 26359 net.cpp:106] Creating Layer conv53
I0707 10:10:23.076093 26359 net.cpp:454] conv53 <- conv52
I0707 10:10:23.076102 26359 net.cpp:411] conv53 -> conv53
I0707 10:10:23.106709 26359 cudnn_conv_layer.cpp:194] Reallocating workspace storage: 150528
I0707 10:10:23.106995 26359 net.cpp:150] Setting up conv53
I0707 10:10:23.107017 26359 net.cpp:157] Top shape: 128 256 1 1 (32768)
I0707 10:10:23.107025 26359 net.cpp:165] Memory required for data: 1264363008
I0707 10:10:23.107040 26359 layer_factory.hpp:76] Creating layer relu53
I0707 10:10:23.107058 26359 net.cpp:106] Creating Layer relu53
I0707 10:10:23.107081 26359 net.cpp:454] relu53 <- conv53
I0707 10:10:23.107105 26359 net.cpp:397] relu53 -> conv53 (in-place)
I0707 10:10:23.107470 26359 net.cpp:150] Setting up relu53
I0707 10:10:23.107499 26359 net.cpp:157] Top shape: 128 256 1 1 (32768)
I0707 10:10:23.107507 26359 net.cpp:165] Memory required for data: 1264494080
I0707 10:10:23.107516 26359 layer_factory.hpp:76] Creating layer drop6
I0707 10:10:23.107534 26359 net.cpp:106] Creating Layer drop6
I0707 10:10:23.107542 26359 net.cpp:454] drop6 <- conv53
I0707 10:10:23.107553 26359 net.cpp:411] drop6 -> drop6
I0707 10:10:23.107959 26359 net.cpp:150] Setting up drop6
I0707 10:10:23.107996 26359 net.cpp:157] Top shape: 128 256 1 1 (32768)
I0707 10:10:23.108006 26359 net.cpp:165] Memory required for data: 1264625152
I0707 10:10:23.108014 26359 layer_factory.hpp:76] Creating layer conv54
I0707 10:10:23.108031 26359 net.cpp:106] Creating Layer conv54
I0707 10:10:23.108042 26359 net.cpp:454] conv54 <- drop6
I0707 10:10:23.108054 26359 net.cpp:411] conv54 -> conv54
I0707 10:10:23.109205 26359 cudnn_conv_layer.cpp:194] Reallocating workspace storage: 3072
I0707 10:10:23.109484 26359 net.cpp:150] Setting up conv54
I0707 10:10:23.109513 26359 net.cpp:157] Top shape: 128 2 1 1 (256)
I0707 10:10:23.109522 26359 net.cpp:165] Memory required for data: 1264626176
I0707 10:10:23.109534 26359 layer_factory.hpp:76] Creating layer conv54_conv54_0_split
I0707 10:10:23.109545 26359 net.cpp:106] Creating Layer conv54_conv54_0_split
I0707 10:10:23.109554 26359 net.cpp:454] conv54_conv54_0_split <- conv54
I0707 10:10:23.109566 26359 net.cpp:411] conv54_conv54_0_split -> conv54_conv54_0_split_0
I0707 10:10:23.109577 26359 net.cpp:411] conv54_conv54_0_split -> conv54_conv54_0_split_1
I0707 10:10:23.109642 26359 net.cpp:150] Setting up conv54_conv54_0_split
I0707 10:10:23.109655 26359 net.cpp:157] Top shape: 128 2 1 1 (256)
I0707 10:10:23.109663 26359 net.cpp:157] Top shape: 128 2 1 1 (256)
I0707 10:10:23.109671 26359 net.cpp:165] Memory required for data: 1264628224
I0707 10:10:23.109680 26359 layer_factory.hpp:76] Creating layer accuracy
I0707 10:10:23.109699 26359 net.cpp:106] Creating Layer accuracy
I0707 10:10:23.109720 26359 net.cpp:454] accuracy <- conv54_conv54_0_split_0
I0707 10:10:23.109730 26359 net.cpp:454] accuracy <- label_data_1_split_0
I0707 10:10:23.109740 26359 net.cpp:411] accuracy -> accuracy
…
I0707 10:10:23.114359 26359 net.cpp:322] The NetState phase (1) differed from the phase (0) specified by a rule in layer data
I0707 10:10:23.115640 26359 net.cpp:49] Initializing net from parameters: 
name: "FaceNN"
state {
  phase: TEST
}
layer {
  name: "data"
  type: "ImageData"
  top: "data"
  top: "label"
  include {
    phase: TEST
  }
  transform_param {
    mirror: false
    crop_size: 100
    mean_value: 104
    mean_value: 117
    mean_value: 123
  }
  image_data_param {
    source: "../lists/roi-val-L0.lst"
    batch_size: 100
    shuffle: true
    new_height: 110
    new_width: 110
  }
}
layer {
  name: "conv11"
  type: "Convolution"
  bottom: "data"
  top: "conv11"
  param {
    lr_mult: 1
    decay_mult: 1
  }
  param {
    lr_mult: 2
    decay_mult: 0
  }
  convolution_param {
    num_output: 32
    pad: 1
    stride: 1
    weight_filler {
      type: "xavier"
    }
    bias_filler {
      type: "constant"
    }
    kernel_h: 3
    kernel_w: 3
  }
}
layer {
  name: "relu11"
  type: "ReLU"
  bottom: "conv11"
  top: "conv11"
}
layer {
  name: "conv12"
  type: "Convolution"
  bottom: "conv11"
  top: "conv12"
  param {
    lr_mult: 1
    decay_mult: 1
  }
  param {
    lr_mult: 2
    decay_mult: 0
  }
  convolution_param {
    num_output: 32
    pad: 1
    stride: 1
    weight_filler {
      type: "xavier"
    }
    bias_filler {
      type: "constant"
    }
    kernel_h: 3
    kernel_w: 3
  }
}
layer {
  name: "relu12"
  type: "ReLU"
  bottom: "conv12"
  top: "conv12"
}
layer {
  name: "pool1"
  type: "Pooling"
  bottom: "conv12"
  top: "pool1"
  pooling_param {
    pool: MAX
    kernel_size: 2
    stride: 2
  }
}
layer {
  name: "conv21"
  type: "Convolution"
  bottom: "pool1"
  top: "conv21"
  param {
    lr_mult: 1
    decay_mult: 1
  }
  param {
    lr_mult: 2
    decay_mult: 0
  }
  convolution_param {
    num_output: 64
    pad: 1
    stride: 1
    weight_filler {
      type: "xavier"
    }
    bias_filler {
      type: "constant"
    }
    kernel_h: 3
    kernel_w: 3
  }
}
layer {
  name: "relu21"
  type: "ReLU"
  bottom: "conv21"
  top: "conv21"
}
layer {
  name: "conv22"
  type: "Convolution"
  bottom: "conv21"
  top: "conv22"
  param {
    lr_mult: 1
    decay_mult: 1
  }
  param {
    lr_mult: 2
    decay_mult: 0
  }
  convolution_param {
    num_output: 64
    pad: 1
    stride: 1
    weight_filler {
      type: "xavier"
    }
    bias_filler {
      type: "constant"
    }
    kernel_h: 3
    kernel_w: 3
  }
}
layer {
  name: "relu22"
  type: "ReLU"
  bottom: "conv22"
  top: "conv22"
}
layer {
  name: "pool2"
  type: "Pooling"
  bottom: "conv22"
  top: "pool2"
  pooling_param {
    pool: MAX
    kernel_size: 2
    stride: 2
  }
}
layer {
  name: "conv31"
  type: "Convolution"
  bottom: "pool2"
  top: "conv31"
  param {
    lr_mult: 1
    decay_mult: 1
  }
  param {
    lr_mult: 2
    decay_mult: 0
  }
  convolution_param {
    num_output: 96
    pad: 1
    stride: 1
    weight_filler {
      type: "xavier"
    }
    bias_filler {
      type: "constant"
    }
    kernel_h: 3
    kernel_w: 3
  }
}
layer {
  name: "relu31"
  type: "ReLU"
  bottom: "conv31"
  top: "conv31"
}
layer {
  name: "conv32"
  type: "Convolution"
  bottom: "conv31"
  top: "conv32"
  param {
    lr_mult: 1
    decay_mult: 1
  }
  param {
    lr_mult: 2
    decay_mult: 0
  }
  convolution_param {
    num_output: 96
    pad: 1
    stride: 1
    weight_filler {
      type: "xavier"
    }
    bias_filler {
      type: "constant"
    }
    kernel_h: 3
    kernel_w: 3
  }
}
layer {
  name: "relu32"
  type: "ReLU"
  bottom: "conv32"
  top: "conv32"
}
layer {
  name: "pool3"
  type: "Pooling"
  bottom: "conv32"
  top: "pool3"
  pooling_param {
    pool: MAX
    kernel_size: 2
    stride: 2
  }
}
layer {
  name: "conv41"
  type: "Convolution"
  bottom: "pool3"
  top: "conv41"
  param {
    lr_mult: 1
    decay_mult: 1
  }
  param {
    lr_mult: 2
    decay_mult: 0
  }
  convolution_param {
    num_output: 128
    pad: 1
    stride: 1
    weight_filler {
      type: "xavier"
    }
    bias_filler {
      type: "constant"
    }
    kernel_h: 3
    kernel_w: 3
  }
}
layer {
  name: "relu41"
  type: "ReLU"
  bottom: "conv41"
  top: "conv41"
}
layer {
  name: "conv42"
  type: "Convolution"
  bottom: "conv41"
  top: "conv42"
  param {
    lr_mult: 1
    decay_mult: 1
  }
  param {
    lr_mult: 2
    decay_mult: 0
  }
  convolution_param {
    num_output: 128
    pad: 1
    stride: 1
    weight_filler {
      type: "xavier"
    }
    bias_filler {
      type: "constant"
    }
    kernel_h: 3
    kernel_w: 3
  }
}
layer {
  name: "relu42"
  type: "ReLU"
  bottom: "conv42"
  top: "conv42"
}
layer {
  name: "pool4"
  type: "Pooling"
  bottom: "conv42"
  top: "pool4"
  pooling_param {
    pool: MAX
    kernel_size: 2
    stride: 2
  }
}
layer {
  name: "conv51"
  type: "Convolution"
  bottom: "pool4"
  top: "conv51"
  param {
    lr_mult: 1
    decay_mult: 1
  }
  param {
    lr_mult: 2
    decay_mult: 0
  }
  convolution_param {
    num_output: 256
    pad: 1
    stride: 1
    weight_filler {
      type: "xavier"
    }
    bias_filler {
      type: "constant"
    }
    kernel_h: 3
    kernel_w: 3
  }
}
layer {
  name: "relu51"
  type: "ReLU"
  bottom: "conv51"
  top: "conv51"
}
layer {
  name: "conv52"
  type: "Convolution"
  bottom: "conv51"
  top: "conv52"
  param {
    lr_mult: 1
    decay_mult: 1
  }
  param {
    lr_mult: 2
    decay_mult: 0
  }
  convolution_param {
    num_output: 256
    pad: 1
    stride: 1
    weight_filler {
      type: "xavier"
    }
    bias_filler {
      type: "constant"
    }
    kernel_h: 3
    kernel_w: 3
  }
}
layer {
  name: "relu52"
  type: "ReLU"
  bottom: "conv52"
  top: "conv52"
}
layer {
  name: "conv53"
  type: "Convolution"
  bottom: "conv52"
  top: "conv53"
  param {
    lr_mult: 1
    decay_mult: 1
  }
  param {
    lr_mult: 2
    decay_mult: 0
  }
  convolution_param {
    num_output: 256
    stride: 1
    weight_filler {
      type: "xavier"
    }
    bias_filler {
      type: "constant"
    }
    kernel_h: 7
    kernel_w: 7
  }
}
layer {
  name: "relu53"
  type: "ReLU"
  bottom: "conv53"
  top: "conv53"
}
layer {
  name: "drop6"
  type: "Dropout"
  bottom: "conv53"
  top: "drop6"
  dropout_param {
    dropout_ratio: 0.4
  }
}
layer {
  name: "conv54"
  type: "Convolution"
  bottom: "drop6"
  top: "conv54"
  param {
    lr_mult: 1
    decay_mult: 1
  }
  param {
    lr_mult: 2
    decay_mult: 0
  }
  convolution_param {
    num_output: 2
    stride: 1
    weight_filler {
      type: "xavier"
    }
    bias_filler {
      type: "constant"
    }
    kernel_h: 1
    kernel_w: 1
  }
}
layer {
  name: "accuracy"
  type: "Accuracy"
  bottom: "conv54"
  bottom: "label"
  top: "accuracy"
}
layer {
  name: "loss"
  type: "SoftmaxWithLoss"
  bottom: "conv54"
  bottom: "label"
  top: "loss"
}
I0707 10:10:23.117409 26359 layer_factory.hpp:76] Creating layer data
I0707 10:10:23.117460 26359 net.cpp:106] Creating Layer data
I0707 10:10:23.117470 26359 net.cpp:411] data -> data
I0707 10:10:23.117483 26359 net.cpp:411] data -> label
I0707 10:10:23.117498 26359 image_data_layer.cpp:36] Opening file ../lists/roi-val-L0.lst
I0707 10:10:23.228946 26359 image_data_layer.cpp:46] Shuffling data
I0707 10:10:23.234114 26359 image_data_layer.cpp:51] A total of 23520 images.
I0707 10:10:23.290393 26359 image_data_layer.cpp:78] output data size: 100,3,100,100
I0707 10:10:23.349820 26359 net.cpp:150] Setting up data
I0707 10:10:23.349920 26359 net.cpp:157] Top shape: 100 3 100 100 (3000000)
I0707 10:10:23.349936 26359 net.cpp:157] Top shape: 100 (100)
I0707 10:10:23.349944 26359 net.cpp:165] Memory required for data: 12000400
I0707 10:10:23.349961 26359 layer_factory.hpp:76] Creating layer label_data_1_split
I0707 10:10:23.349982 26359 net.cpp:106] Creating Layer label_data_1_split
I0707 10:10:23.349992 26359 net.cpp:454] label_data_1_split <- label
I0707 10:10:23.350005 26359 net.cpp:411] label_data_1_split -> label_data_1_split_0
I0707 10:10:23.350033 26359 net.cpp:411] label_data_1_split -> label_data_1_split_1
I0707 10:10:23.350379 26359 net.cpp:150] Setting up label_data_1_split
I0707 10:10:23.350415 26359 net.cpp:157] Top shape: 100 (100)
I0707 10:10:23.350427 26359 net.cpp:157] Top shape: 100 (100)
I0707 10:10:23.350443 26359 net.cpp:165] Memory required for data: 12001200
I0707 10:10:23.350451 26359 layer_factory.hpp:76] Creating layer conv11
I0707 10:10:23.350476 26359 net.cpp:106] Creating Layer conv11
I0707 10:10:23.350487 26359 net.cpp:454] conv11 <- data
I0707 10:10:23.350512 26359 net.cpp:411] conv11 -> conv11
I0707 10:10:23.370574 26359 net.cpp:150] Setting up conv11
I0707 10:10:23.370622 26359 net.cpp:157] Top shape: 100 32 100 100 (32000000)
I0707 10:10:23.370628 26359 net.cpp:165] Memory required for data: 140001200
I0707 10:10:23.370657 26359 layer_factory.hpp:76] Creating layer relu11
I0707 10:10:23.370676 26359 net.cpp:106] Creating Layer relu11
I0707 10:10:23.370683 26359 net.cpp:454] relu11 <- conv11
I0707 10:10:23.370692 26359 net.cpp:397] relu11 -> conv11 (in-place)
I0707 10:10:23.389153 26359 net.cpp:150] Setting up relu11
I0707 10:10:23.389228 26359 net.cpp:157] Top shape: 100 32 100 100 (32000000)
I0707 10:10:23.389235 26359 net.cpp:165] Memory required for data: 268001200
I0707 10:10:23.389246 26359 layer_factory.hpp:76] Creating layer conv12
I0707 10:10:23.389281 26359 net.cpp:106] Creating Layer conv12
I0707 10:10:23.389287 26359 net.cpp:454] conv12 <- conv11
I0707 10:10:23.389297 26359 net.cpp:411] conv12 -> conv12
I0707 10:10:23.394395 26359 net.cpp:150] Setting up conv12
I0707 10:10:23.394438 26359 net.cpp:157] Top shape: 100 32 100 100 (32000000)
I0707 10:10:23.394454 26359 net.cpp:165] Memory required for data: 396001200
I0707 10:10:23.394491 26359 layer_factory.hpp:76] Creating layer relu12
I0707 10:10:23.394510 26359 net.cpp:106] Creating Layer relu12
I0707 10:10:23.394520 26359 net.cpp:454] relu12 <- conv12
I0707 10:10:23.394534 26359 net.cpp:397] relu12 -> conv12 (in-place)
I0707 10:10:23.396692 26359 net.cpp:150] Setting up relu12
I0707 10:10:23.396716 26359 net.cpp:157] Top shape: 100 32 100 100 (32000000)
I0707 10:10:23.396733 26359 net.cpp:165] Memory required for data: 524001200
I0707 10:10:23.396746 26359 layer_factory.hpp:76] Creating layer pool1
I0707 10:10:23.396775 26359 net.cpp:106] Creating Layer pool1
I0707 10:10:23.396787 26359 net.cpp:454] pool1 <- conv12
I0707 10:10:23.396798 26359 net.cpp:411] pool1 -> pool1
I0707 10:10:23.397816 26359 net.cpp:150] Setting up pool1
I0707 10:10:23.397841 26359 net.cpp:157] Top shape: 100 32 50 50 (8000000)
I0707 10:10:23.397858 26359 net.cpp:165] Memory required for data: 556001200
I0707 10:10:23.397874 26359 layer_factory.hpp:76] Creating layer conv21
I0707 10:10:23.397908 26359 net.cpp:106] Creating Layer conv21
I0707 10:10:23.397920 26359 net.cpp:454] conv21 <- pool1
I0707 10:10:23.397933 26359 net.cpp:411] conv21 -> conv21
I0707 10:10:23.402451 26359 net.cpp:150] Setting up conv21
I0707 10:10:23.402487 26359 net.cpp:157] Top shape: 100 64 50 50 (16000000)
I0707 10:10:23.402503 26359 net.cpp:165] Memory required for data: 620001200
I0707 10:10:23.402529 26359 layer_factory.hpp:76] Creating layer relu21
I0707 10:10:23.402549 26359 net.cpp:106] Creating Layer relu21
I0707 10:10:23.402562 26359 net.cpp:454] relu21 <- conv21
I0707 10:10:23.402583 26359 net.cpp:397] relu21 -> conv21 (in-place)
I0707 10:10:23.404733 26359 net.cpp:150] Setting up relu21
I0707 10:10:23.404762 26359 net.cpp:157] Top shape: 100 64 50 50 (16000000)
I0707 10:10:23.404777 26359 net.cpp:165] Memory required for data: 684001200
I0707 10:10:23.404793 26359 layer_factory.hpp:76] Creating layer conv22
I0707 10:10:23.404819 26359 net.cpp:106] Creating Layer conv22
I0707 10:10:23.404829 26359 net.cpp:454] conv22 <- conv21
I0707 10:10:23.404846 26359 net.cpp:411] conv22 -> conv22
I0707 10:10:23.409452 26359 net.cpp:150] Setting up conv22
I0707 10:10:23.409497 26359 net.cpp:157] Top shape: 100 64 50 50 (16000000)
I0707 10:10:23.409507 26359 net.cpp:165] Memory required for data: 748001200
I0707 10:10:23.409524 26359 layer_factory.hpp:76] Creating layer relu22
I0707 10:10:23.409546 26359 net.cpp:106] Creating Layer relu22
I0707 10:10:23.409570 26359 net.cpp:454] relu22 <- conv22
I0707 10:10:23.409591 26359 net.cpp:397] relu22 -> conv22 (in-place)
I0707 10:10:23.410522 26359 net.cpp:150] Setting up relu22
I0707 10:10:23.410557 26359 net.cpp:157] Top shape: 100 64 50 50 (16000000)
I0707 10:10:23.410572 26359 net.cpp:165] Memory required for data: 812001200
I0707 10:10:23.410588 26359 layer_factory.hpp:76] Creating layer pool2
I0707 10:10:23.410609 26359 net.cpp:106] Creating Layer pool2
I0707 10:10:23.410621 26359 net.cpp:454] pool2 <- conv22
I0707 10:10:23.410645 26359 net.cpp:411] pool2 -> pool2
I0707 10:10:23.413595 26359 net.cpp:150] Setting up pool2
I0707 10:10:23.413635 26359 net.cpp:157] Top shape: 100 64 25 25 (4000000)
I0707 10:10:23.413651 26359 net.cpp:165] Memory required for data: 828001200
I0707 10:10:23.413667 26359 layer_factory.hpp:76] Creating layer conv31
I0707 10:10:23.413697 26359 net.cpp:106] Creating Layer conv31
I0707 10:10:23.413712 26359 net.cpp:454] conv31 <- pool2
I0707 10:10:23.413723 26359 net.cpp:411] conv31 -> conv31
I0707 10:10:23.417930 26359 cudnn_conv_layer.cpp:194] Reallocating workspace storage: 6912
I0707 10:10:23.417982 26359 net.cpp:150] Setting up conv31
I0707 10:10:23.417994 26359 net.cpp:157] Top shape: 100 96 25 25 (6000000)
I0707 10:10:23.418002 26359 net.cpp:165] Memory required for data: 852001200
I0707 10:10:23.418025 26359 layer_factory.hpp:76] Creating layer relu31
I0707 10:10:23.418051 26359 net.cpp:106] Creating Layer relu31
I0707 10:10:23.418061 26359 net.cpp:454] relu31 <- conv31
I0707 10:10:23.418071 26359 net.cpp:397] relu31 -> conv31 (in-place)
I0707 10:10:23.420100 26359 net.cpp:150] Setting up relu31
I0707 10:10:23.420140 26359 net.cpp:157] Top shape: 100 96 25 25 (6000000)
I0707 10:10:23.420156 26359 net.cpp:165] Memory required for data: 876001200
I0707 10:10:23.420169 26359 layer_factory.hpp:76] Creating layer conv32
I0707 10:10:23.420200 26359 net.cpp:106] Creating Layer conv32
I0707 10:10:23.420217 26359 net.cpp:454] conv32 <- conv31
I0707 10:10:23.420228 26359 net.cpp:411] conv32 -> conv32
I0707 10:10:23.425468 26359 cudnn_conv_layer.cpp:194] Reallocating workspace storage: 10368
I0707 10:10:23.425542 26359 net.cpp:150] Setting up conv32
I0707 10:10:23.425575 26359 net.cpp:157] Top shape: 100 96 25 25 (6000000)
I0707 10:10:23.425590 26359 net.cpp:165] Memory required for data: 900001200
I0707 10:10:23.425621 26359 layer_factory.hpp:76] Creating layer relu32
I0707 10:10:23.425639 26359 net.cpp:106] Creating Layer relu32
I0707 10:10:23.425668 26359 net.cpp:454] relu32 <- conv32
I0707 10:10:23.425689 26359 net.cpp:397] relu32 -> conv32 (in-place)
I0707 10:10:23.426754 26359 net.cpp:150] Setting up relu32
I0707 10:10:23.426790 26359 net.cpp:157] Top shape: 100 96 25 25 (6000000)
I0707 10:10:23.426803 26359 net.cpp:165] Memory required for data: 924001200
I0707 10:10:23.426817 26359 layer_factory.hpp:76] Creating layer pool3
I0707 10:10:23.426859 26359 net.cpp:106] Creating Layer pool3
I0707 10:10:23.426874 26359 net.cpp:454] pool3 <- conv32
I0707 10:10:23.426900 26359 net.cpp:411] pool3 -> pool3
I0707 10:10:23.428275 26359 net.cpp:150] Setting up pool3
I0707 10:10:23.428313 26359 net.cpp:157] Top shape: 100 96 13 13 (1622400)
I0707 10:10:23.428326 26359 net.cpp:165] Memory required for data: 930490800
I0707 10:10:23.428341 26359 layer_factory.hpp:76] Creating layer conv41
I0707 10:10:23.428369 26359 net.cpp:106] Creating Layer conv41
I0707 10:10:23.428385 26359 net.cpp:454] conv41 <- pool3
I0707 10:10:23.428419 26359 net.cpp:411] conv41 -> conv41
I0707 10:10:23.432541 26359 net.cpp:150] Setting up conv41
I0707 10:10:23.432592 26359 net.cpp:157] Top shape: 100 128 13 13 (2163200)
I0707 10:10:23.432607 26359 net.cpp:165] Memory required for data: 939143600
I0707 10:10:23.432627 26359 layer_factory.hpp:76] Creating layer relu41
I0707 10:10:23.432648 26359 net.cpp:106] Creating Layer relu41
I0707 10:10:23.432677 26359 net.cpp:454] relu41 <- conv41
I0707 10:10:23.432693 26359 net.cpp:397] relu41 -> conv41 (in-place)
I0707 10:10:23.433645 26359 net.cpp:150] Setting up relu41
I0707 10:10:23.433681 26359 net.cpp:157] Top shape: 100 128 13 13 (2163200)
I0707 10:10:23.433694 26359 net.cpp:165] Memory required for data: 947796400
I0707 10:10:23.433706 26359 layer_factory.hpp:76] Creating layer conv42
I0707 10:10:23.433732 26359 net.cpp:106] Creating Layer conv42
I0707 10:10:23.433760 26359 net.cpp:454] conv42 <- conv41
I0707 10:10:23.433781 26359 net.cpp:411] conv42 -> conv42
I0707 10:10:23.439934 26359 cudnn_conv_layer.cpp:194] Reallocating workspace storage: 13824
I0707 10:10:23.440009 26359 net.cpp:150] Setting up conv42
I0707 10:10:23.440029 26359 net.cpp:157] Top shape: 100 128 13 13 (2163200)
I0707 10:10:23.440083 26359 net.cpp:165] Memory required for data: 956449200
I0707 10:10:23.440126 26359 layer_factory.hpp:76] Creating layer relu42
I0707 10:10:23.440161 26359 net.cpp:106] Creating Layer relu42
I0707 10:10:23.440176 26359 net.cpp:454] relu42 <- conv42
I0707 10:10:23.440212 26359 net.cpp:397] relu42 -> conv42 (in-place)
I0707 10:10:23.440976 26359 net.cpp:150] Setting up relu42
I0707 10:10:23.441066 26359 net.cpp:157] Top shape: 100 128 13 13 (2163200)
I0707 10:10:23.441081 26359 net.cpp:165] Memory required for data: 965102000
I0707 10:10:23.441094 26359 layer_factory.hpp:76] Creating layer pool4
I0707 10:10:23.441141 26359 net.cpp:106] Creating Layer pool4
I0707 10:10:23.441155 26359 net.cpp:454] pool4 <- conv42
I0707 10:10:23.441193 26359 net.cpp:411] pool4 -> pool4
I0707 10:10:23.443326 26359 net.cpp:150] Setting up pool4
I0707 10:10:23.443364 26359 net.cpp:157] Top shape: 100 128 7 7 (627200)
I0707 10:10:23.443377 26359 net.cpp:165] Memory required for data: 967610800
I0707 10:10:23.443390 26359 layer_factory.hpp:76] Creating layer conv51
I0707 10:10:23.443447 26359 net.cpp:106] Creating Layer conv51
I0707 10:10:23.443473 26359 net.cpp:454] conv51 <- pool4
I0707 10:10:23.443491 26359 net.cpp:411] conv51 -> conv51
I0707 10:10:23.449978 26359 cudnn_conv_layer.cpp:194] Reallocating workspace storage: 13824
I0707 10:10:23.450044 26359 net.cpp:150] Setting up conv51
I0707 10:10:23.450065 26359 net.cpp:157] Top shape: 100 256 7 7 (1254400)
I0707 10:10:23.450093 26359 net.cpp:165] Memory required for data: 972628400
I0707 10:10:23.450151 26359 layer_factory.hpp:76] Creating layer relu51
I0707 10:10:23.450186 26359 net.cpp:106] Creating Layer relu51
I0707 10:10:23.450212 26359 net.cpp:454] relu51 <- conv51
I0707 10:10:23.450228 26359 net.cpp:397] relu51 -> conv51 (in-place)
I0707 10:10:23.451252 26359 net.cpp:150] Setting up relu51
I0707 10:10:23.451287 26359 net.cpp:157] Top shape: 100 256 7 7 (1254400)
I0707 10:10:23.451303 26359 net.cpp:165] Memory required for data: 977646000
I0707 10:10:23.451314 26359 layer_factory.hpp:76] Creating layer conv52
I0707 10:10:23.451339 26359 net.cpp:106] Creating Layer conv52
I0707 10:10:23.451367 26359 net.cpp:454] conv52 <- conv51
I0707 10:10:23.451403 26359 net.cpp:411] conv52 -> conv52
I0707 10:10:23.464648 26359 net.cpp:150] Setting up conv52
I0707 10:10:23.464716 26359 net.cpp:157] Top shape: 100 256 7 7 (1254400)
I0707 10:10:23.464732 26359 net.cpp:165] Memory required for data: 982663600
I0707 10:10:23.464758 26359 layer_factory.hpp:76] Creating layer relu52
I0707 10:10:23.464788 26359 net.cpp:106] Creating Layer relu52
I0707 10:10:23.464818 26359 net.cpp:454] relu52 <- conv52
I0707 10:10:23.464851 26359 net.cpp:397] relu52 -> conv52 (in-place)
I0707 10:10:23.465363 26359 net.cpp:150] Setting up relu52
I0707 10:10:23.465399 26359 net.cpp:157] Top shape: 100 256 7 7 (1254400)
I0707 10:10:23.465412 26359 net.cpp:165] Memory required for data: 987681200
I0707 10:10:23.465425 26359 layer_factory.hpp:76] Creating layer conv53
I0707 10:10:23.465458 26359 net.cpp:106] Creating Layer conv53
I0707 10:10:23.465486 26359 net.cpp:454] conv53 <- conv52
I0707 10:10:23.465508 26359 net.cpp:411] conv53 -> conv53
I0707 10:10:23.522505 26359 cudnn_conv_layer.cpp:194] Reallocating workspace storage: 150528
I0707 10:10:23.522586 26359 net.cpp:150] Setting up conv53
I0707 10:10:23.522606 26359 net.cpp:157] Top shape: 100 256 1 1 (25600)
I0707 10:10:23.522617 26359 net.cpp:165] Memory required for data: 987783600
I0707 10:10:23.522640 26359 layer_factory.hpp:76] Creating layer relu53
I0707 10:10:23.522668 26359 net.cpp:106] Creating Layer relu53
I0707 10:10:23.522681 26359 net.cpp:454] relu53 <- conv53
I0707 10:10:23.522696 26359 net.cpp:397] relu53 -> conv53 (in-place)
I0707 10:10:23.522976 26359 net.cpp:150] Setting up relu53
I0707 10:10:23.522994 26359 net.cpp:157] Top shape: 100 256 1 1 (25600)
I0707 10:10:23.523002 26359 net.cpp:165] Memory required for data: 987886000
I0707 10:10:23.523010 26359 layer_factory.hpp:76] Creating layer drop6
I0707 10:10:23.523026 26359 net.cpp:106] Creating Layer drop6
I0707 10:10:23.523036 26359 net.cpp:454] drop6 <- conv53
I0707 10:10:23.523051 26359 net.cpp:411] drop6 -> drop6
I0707 10:10:23.523108 26359 net.cpp:150] Setting up drop6
I0707 10:10:23.523138 26359 net.cpp:157] Top shape: 100 256 1 1 (25600)
I0707 10:10:23.523146 26359 net.cpp:165] Memory required for data: 987988400
I0707 10:10:23.523155 26359 layer_factory.hpp:76] Creating layer conv54
I0707 10:10:23.523211 26359 net.cpp:106] Creating Layer conv54
I0707 10:10:23.523223 26359 net.cpp:454] conv54 <- drop6
I0707 10:10:23.523234 26359 net.cpp:411] conv54 -> conv54
I0707 10:10:23.541052 26359 cudnn_conv_layer.cpp:194] Reallocating workspace storage: 3072
I0707 10:10:23.541147 26359 net.cpp:150] Setting up conv54
I0707 10:10:23.541175 26359 net.cpp:157] Top shape: 100 2 1 1 (200)
I0707 10:10:23.541195 26359 net.cpp:165] Memory required for data: 987989200
I0707 10:10:23.541214 26359 layer_factory.hpp:76] Creating layer conv54_conv54_0_split
I0707 10:10:23.541242 26359 net.cpp:106] Creating Layer conv54_conv54_0_split
I0707 10:10:23.541260 26359 net.cpp:454] conv54_conv54_0_split <- conv54
I0707 10:10:23.541275 26359 net.cpp:411] conv54_conv54_0_split -> conv54_conv54_0_split_0
I0707 10:10:23.541296 26359 net.cpp:411] conv54_conv54_0_split -> conv54_conv54_0_split_1
I0707 10:10:23.541355 26359 net.cpp:150] Setting up conv54_conv54_0_split
I0707 10:10:23.541369 26359 net.cpp:157] Top shape: 100 2 1 1 (200)
I0707 10:10:23.541378 26359 net.cpp:157] Top shape: 100 2 1 1 (200)
I0707 10:10:23.541386 26359 net.cpp:165] Memory required for data: 987990800
I0707 10:10:23.541399 26359 layer_factory.hpp:76] Creating layer accuracy
I0707 10:10:23.541421 26359 net.cpp:106] Creating Layer accuracy
I0707 10:10:23.541435 26359 net.cpp:454] accuracy <- conv54_conv54_0_split_0
I0707 10:10:23.541443 26359 net.cpp:454] accuracy <- label_data_1_split_0
I0707 10:10:23.541455 26359 net.cpp:411] accuracy -> accuracy
…
