…
I0706 10:12:33.869104 54857 net.cpp:322] The NetState phase (0) differed from the phase (1) specified by a rule in layer data
I0706 10:12:33.869285 54857 net.cpp:49] Initializing net from parameters: 
name: "FaceNN"
state {
  phase: TRAIN
}
layer {
  name: "data"
  type: "ImageData"
  top: "data"
  top: "label"
  include {
    phase: TRAIN
  }
  transform_param {
    mirror: true
    crop_size: 100
    mean_value: 104
    mean_value: 117
    mean_value: 123
  }
  image_data_param {
    source: "../lists/roi-train-L0.lst"
    batch_size: 128
    shuffle: true
    new_height: 110
    new_width: 110
  }
}
layer {
  name: "conv11"
  type: "Convolution"
  bottom: "data"
  top: "conv11"
  param {
    lr_mult: 1
    decay_mult: 1
  }
  param {
    lr_mult: 2
    decay_mult: 0
  }
  convolution_param {
    num_output: 32
    pad: 1
    stride: 1
    weight_filler {
      type: "xavier"
    }
    bias_filler {
      type: "constant"
    }
    kernel_h: 3
    kernel_w: 3
  }
}
layer {
  name: "relu11"
  type: "ReLU"
  bottom: "conv11"
  top: "conv11"
}
layer {
  name: "conv12"
  type: "Convolution"
  bottom: "conv11"
  top: "conv12"
  param {
    lr_mult: 1
    decay_mult: 1
  }
  param {
    lr_mult: 2
    decay_mult: 0
  }
  convolution_param {
    num_output: 32
    pad: 1
    stride: 1
    weight_filler {
      type: "xavier"
    }
    bias_filler {
      type: "constant"
    }
    kernel_h: 3
    kernel_w: 3
  }
}
layer {
  name: "relu12"
  type: "ReLU"
  bottom: "conv12"
  top: "conv12"
}
layer {
  name: "pool1"
  type: "Pooling"
  bottom: "conv12"
  top: "pool1"
  pooling_param {
    pool: MAX
    kernel_size: 2
    stride: 2
  }
}
layer {
  name: "conv21"
  type: "Convolution"
  bottom: "pool1"
  top: "conv21"
  param {
    lr_mult: 1
    decay_mult: 1
  }
  param {
    lr_mult: 2
    decay_mult: 0
  }
  convolution_param {
    num_output: 64
    pad: 1
    stride: 1
    weight_filler {
      type: "xavier"
    }
    bias_filler {
      type: "constant"
    }
    kernel_h: 3
    kernel_w: 3
  }
}
layer {
  name: "relu21"
  type: "ReLU"
  bottom: "conv21"
  top: "conv21"
}
layer {
  name: "conv22"
  type: "Convolution"
  bottom: "conv21"
  top: "conv22"
  param {
    lr_mult: 1
    decay_mult: 1
  }
  param {
    lr_mult: 2
    decay_mult: 0
  }
  convolution_param {
    num_output: 64
    pad: 1
    stride: 1
    weight_filler {
      type: "xavier"
    }
    bias_filler {
      type: "constant"
    }
    kernel_h: 3
    kernel_w: 3
  }
}
layer {
  name: "relu22"
  type: "ReLU"
  bottom: "conv22"
  top: "conv22"
}
layer {
  name: "pool2"
  type: "Pooling"
  bottom: "conv22"
  top: "pool2"
  pooling_param {
    pool: MAX
    kernel_size: 2
    stride: 2
  }
}
layer {
  name: "conv31"
  type: "Convolution"
  bottom: "pool2"
  top: "conv31"
  param {
    lr_mult: 1
    decay_mult: 1
  }
  param {
    lr_mult: 2
    decay_mult: 0
  }
  convolution_param {
    num_output: 96
    pad: 1
    stride: 1
    weight_filler {
      type: "xavier"
    }
    bias_filler {
      type: "constant"
    }
    kernel_h: 3
    kernel_w: 3
  }
}
layer {
  name: "relu31"
  type: "ReLU"
  bottom: "conv31"
  top: "conv31"
}
layer {
  name: "conv32"
  type: "Convolution"
  bottom: "conv31"
  top: "conv32"
  param {
    lr_mult: 1
    decay_mult: 1
  }
  param {
    lr_mult: 2
    decay_mult: 0
  }
  convolution_param {
    num_output: 96
    pad: 1
    stride: 1
    weight_filler {
      type: "xavier"
    }
    bias_filler {
      type: "constant"
    }
    kernel_h: 3
    kernel_w: 3
  }
}
layer {
  name: "relu32"
  type: "ReLU"
  bottom: "conv32"
  top: "conv32"
}
layer {
  name: "pool3"
  type: "Pooling"
  bottom: "conv32"
  top: "pool3"
  pooling_param {
    pool: MAX
    kernel_size: 2
    stride: 2
  }
}
layer {
  name: "conv41"
  type: "Convolution"
  bottom: "pool3"
  top: "conv41"
  param {
    lr_mult: 1
    decay_mult: 1
  }
  param {
    lr_mult: 2
    decay_mult: 0
  }
  convolution_param {
    num_output: 128
    pad: 1
    stride: 1
    weight_filler {
      type: "xavier"
    }
    bias_filler {
      type: "constant"
    }
    kernel_h: 3
    kernel_w: 3
  }
}
layer {
  name: "relu41"
  type: "ReLU"
  bottom: "conv41"
  top: "conv41"
}
layer {
  name: "conv42"
  type: "Convolution"
  bottom: "conv41"
  top: "conv42"
  param {
    lr_mult: 1
    decay_mult: 1
  }
  param {
    lr_mult: 2
    decay_mult: 0
  }
  convolution_param {
    num_output: 128
    pad: 1
    stride: 1
    weight_filler {
      type: "xavier"
    }
    bias_filler {
      type: "constant"
    }
    kernel_h: 3
    kernel_w: 3
  }
}
layer {
  name: "relu42"
  type: "ReLU"
  bottom: "conv42"
  top: "conv42"
}
layer {
  name: "pool4"
  type: "Pooling"
  bottom: "conv42"
  top: "pool4"
  pooling_param {
    pool: MAX
    kernel_size: 2
    stride: 2
  }
}
layer {
  name: "conv51"
  type: "Convolution"
  bottom: "pool4"
  top: "conv51"
  param {
    lr_mult: 1
    decay_mult: 1
  }
  param {
    lr_mult: 2
    decay_mult: 0
  }
  convolution_param {
    num_output: 256
    pad: 1
    stride: 1
    weight_filler {
      type: "xavier"
    }
    bias_filler {
      type: "constant"
    }
    kernel_h: 3
    kernel_w: 3
  }
}
layer {
  name: "relu51"
  type: "ReLU"
  bottom: "conv51"
  top: "conv51"
}
layer {
  name: "conv52"
  type: "Convolution"
  bottom: "conv51"
  top: "conv52"
  param {
    lr_mult: 1
    decay_mult: 1
  }
  param {
    lr_mult: 2
    decay_mult: 0
  }
  convolution_param {
    num_output: 256
    pad: 1
    stride: 1
    weight_filler {
      type: "xavier"
    }
    bias_filler {
      type: "constant"
    }
    kernel_h: 3
    kernel_w: 3
  }
}
layer {
  name: "relu52"
  type: "ReLU"
  bottom: "conv52"
  top: "conv52"
}
layer {
  name: "conv53"
  type: "Convolution"
  bottom: "conv52"
  top: "conv53"
  param {
    lr_mult: 1
    decay_mult: 1
  }
  param {
    lr_mult: 2
    decay_mult: 0
  }
  convolution_param {
    num_output: 256
    stride: 1
    weight_filler {
      type: "xavier"
    }
    bias_filler {
      type: "constant"
    }
    kernel_h: 7
    kernel_w: 7
  }
}
layer {
  name: "relu53"
  type: "ReLU"
  bottom: "conv53"
  top: "conv53"
}
layer {
  name: "drop6"
  type: "Dropout"
  bottom: "conv53"
  top: "drop6"
  dropout_param {
    dropout_ratio: 0.4
  }
}
layer {
  name: "conv54"
  type: "Convolution"
  bottom: "drop6"
  top: "conv54"
  param {
    lr_mult: 1
    decay_mult: 1
  }
  param {
    lr_mult: 2
    decay_mult: 0
  }
  convolution_param {
    num_output: 2
    stride: 1
    weight_filler {
      type: "xavier"
    }
    bias_filler {
      type: "constant"
    }
    kernel_h: 1
    kernel_w: 1
  }
}
layer {
  name: "accuracy"
  type: "Accuracy"
  bottom: "conv54"
  bottom: "label"
  top: "accuracy"
}
layer {
  name: "loss"
  type: "SoftmaxWithLoss"
  bottom: "conv54"
  bottom: "label"
  top: "loss"
}
I0706 10:12:33.869554 54857 layer_factory.hpp:76] Creating layer data
I0706 10:12:33.869595 54857 net.cpp:106] Creating Layer data
I0706 10:12:33.869603 54857 net.cpp:411] data -> data
I0706 10:12:33.869627 54857 net.cpp:411] data -> label
I0706 10:12:33.870008 54857 image_data_layer.cpp:36] Opening file ../lists/roi-train-L0.lst
I0706 10:12:33.971371 54857 image_data_layer.cpp:46] Shuffling data
I0706 10:12:33.998870 54857 image_data_layer.cpp:51] A total of 211680 images.
I0706 10:12:34.119982 54857 image_data_layer.cpp:78] output data size: 128,3,100,100
I0706 10:12:34.166919 54857 net.cpp:150] Setting up data
I0706 10:12:34.167001 54857 net.cpp:157] Top shape: 128 3 100 100 (3840000)
I0706 10:12:34.167013 54857 net.cpp:157] Top shape: 128 (128)
I0706 10:12:34.167021 54857 net.cpp:165] Memory required for data: 15360512
I0706 10:12:34.167035 54857 layer_factory.hpp:76] Creating layer label_data_1_split
I0706 10:12:34.167059 54857 net.cpp:106] Creating Layer label_data_1_split
I0706 10:12:34.167070 54857 net.cpp:454] label_data_1_split <- label
I0706 10:12:34.167100 54857 net.cpp:411] label_data_1_split -> label_data_1_split_0
I0706 10:12:34.167116 54857 net.cpp:411] label_data_1_split -> label_data_1_split_1
I0706 10:12:34.167168 54857 net.cpp:150] Setting up label_data_1_split
I0706 10:12:34.167181 54857 net.cpp:157] Top shape: 128 (128)
I0706 10:12:34.167191 54857 net.cpp:157] Top shape: 128 (128)
I0706 10:12:34.167197 54857 net.cpp:165] Memory required for data: 15361536
I0706 10:12:34.167206 54857 layer_factory.hpp:76] Creating layer conv11
I0706 10:12:34.167248 54857 net.cpp:106] Creating Layer conv11
I0706 10:12:34.167258 54857 net.cpp:454] conv11 <- data
I0706 10:12:34.167268 54857 net.cpp:411] conv11 -> conv11
I0706 10:12:34.424634 54857 net.cpp:150] Setting up conv11
I0706 10:12:34.424684 54857 net.cpp:157] Top shape: 128 32 100 100 (40960000)
I0706 10:12:34.424693 54857 net.cpp:165] Memory required for data: 179201536
I0706 10:12:34.424721 54857 layer_factory.hpp:76] Creating layer relu11
I0706 10:12:34.424741 54857 net.cpp:106] Creating Layer relu11
I0706 10:12:34.424751 54857 net.cpp:454] relu11 <- conv11
I0706 10:12:34.424763 54857 net.cpp:397] relu11 -> conv11 (in-place)
I0706 10:12:34.424964 54857 net.cpp:150] Setting up relu11
I0706 10:12:34.424981 54857 net.cpp:157] Top shape: 128 32 100 100 (40960000)
I0706 10:12:34.424990 54857 net.cpp:165] Memory required for data: 343041536
I0706 10:12:34.424998 54857 layer_factory.hpp:76] Creating layer conv12
I0706 10:12:34.425019 54857 net.cpp:106] Creating Layer conv12
I0706 10:12:34.425027 54857 net.cpp:454] conv12 <- conv11
I0706 10:12:34.425038 54857 net.cpp:411] conv12 -> conv12
I0706 10:12:34.427706 54857 net.cpp:150] Setting up conv12
I0706 10:12:34.427729 54857 net.cpp:157] Top shape: 128 32 100 100 (40960000)
I0706 10:12:34.427738 54857 net.cpp:165] Memory required for data: 506881536
I0706 10:12:34.427752 54857 layer_factory.hpp:76] Creating layer relu12
I0706 10:12:34.427765 54857 net.cpp:106] Creating Layer relu12
I0706 10:12:34.427774 54857 net.cpp:454] relu12 <- conv12
I0706 10:12:34.427788 54857 net.cpp:397] relu12 -> conv12 (in-place)
I0706 10:12:34.428107 54857 net.cpp:150] Setting up relu12
I0706 10:12:34.428128 54857 net.cpp:157] Top shape: 128 32 100 100 (40960000)
I0706 10:12:34.428138 54857 net.cpp:165] Memory required for data: 670721536
I0706 10:12:34.428148 54857 layer_factory.hpp:76] Creating layer pool1
I0706 10:12:34.428160 54857 net.cpp:106] Creating Layer pool1
I0706 10:12:34.428169 54857 net.cpp:454] pool1 <- conv12
I0706 10:12:34.428180 54857 net.cpp:411] pool1 -> pool1
I0706 10:12:34.430027 54857 net.cpp:150] Setting up pool1
I0706 10:12:34.430053 54857 net.cpp:157] Top shape: 128 32 50 50 (10240000)
I0706 10:12:34.430063 54857 net.cpp:165] Memory required for data: 711681536
I0706 10:12:34.430073 54857 layer_factory.hpp:76] Creating layer conv21
I0706 10:12:34.430088 54857 net.cpp:106] Creating Layer conv21
I0706 10:12:34.430095 54857 net.cpp:454] conv21 <- pool1
I0706 10:12:34.430109 54857 net.cpp:411] conv21 -> conv21
I0706 10:12:34.434486 54857 net.cpp:150] Setting up conv21
I0706 10:12:34.434519 54857 net.cpp:157] Top shape: 128 64 50 50 (20480000)
I0706 10:12:34.434527 54857 net.cpp:165] Memory required for data: 793601536
I0706 10:12:34.434545 54857 layer_factory.hpp:76] Creating layer relu21
I0706 10:12:34.434561 54857 net.cpp:106] Creating Layer relu21
I0706 10:12:34.434569 54857 net.cpp:454] relu21 <- conv21
I0706 10:12:34.434581 54857 net.cpp:397] relu21 -> conv21 (in-place)
I0706 10:12:34.436050 54857 net.cpp:150] Setting up relu21
I0706 10:12:34.436071 54857 net.cpp:157] Top shape: 128 64 50 50 (20480000)
I0706 10:12:34.436116 54857 net.cpp:165] Memory required for data: 875521536
I0706 10:12:34.436134 54857 layer_factory.hpp:76] Creating layer conv22
I0706 10:12:34.436152 54857 net.cpp:106] Creating Layer conv22
I0706 10:12:34.436161 54857 net.cpp:454] conv22 <- conv21
I0706 10:12:34.436174 54857 net.cpp:411] conv22 -> conv22
I0706 10:12:34.443397 54857 cudnn_conv_layer.cpp:194] Reallocating workspace storage: 6912
I0706 10:12:34.443620 54857 net.cpp:150] Setting up conv22
I0706 10:12:34.443639 54857 net.cpp:157] Top shape: 128 64 50 50 (20480000)
I0706 10:12:34.443655 54857 net.cpp:165] Memory required for data: 957441536
I0706 10:12:34.443667 54857 layer_factory.hpp:76] Creating layer relu22
I0706 10:12:34.443683 54857 net.cpp:106] Creating Layer relu22
I0706 10:12:34.443692 54857 net.cpp:454] relu22 <- conv22
I0706 10:12:34.443709 54857 net.cpp:397] relu22 -> conv22 (in-place)
I0706 10:12:34.446985 54857 net.cpp:150] Setting up relu22
I0706 10:12:34.447012 54857 net.cpp:157] Top shape: 128 64 50 50 (20480000)
I0706 10:12:34.447021 54857 net.cpp:165] Memory required for data: 1039361536
I0706 10:12:34.447031 54857 layer_factory.hpp:76] Creating layer pool2
I0706 10:12:34.447046 54857 net.cpp:106] Creating Layer pool2
I0706 10:12:34.447053 54857 net.cpp:454] pool2 <- conv22
I0706 10:12:34.447065 54857 net.cpp:411] pool2 -> pool2
I0706 10:12:34.449417 54857 net.cpp:150] Setting up pool2
I0706 10:12:34.449436 54857 net.cpp:157] Top shape: 128 64 25 25 (5120000)
I0706 10:12:34.449450 54857 net.cpp:165] Memory required for data: 1059841536
I0706 10:12:34.449458 54857 layer_factory.hpp:76] Creating layer conv31
I0706 10:12:34.449473 54857 net.cpp:106] Creating Layer conv31
I0706 10:12:34.449481 54857 net.cpp:454] conv31 <- pool2
I0706 10:12:34.449496 54857 net.cpp:411] conv31 -> conv31
I0706 10:12:34.455718 54857 cudnn_conv_layer.cpp:194] Reallocating workspace storage: 6912
I0706 10:12:34.455757 54857 net.cpp:150] Setting up conv31
I0706 10:12:34.455770 54857 net.cpp:157] Top shape: 128 96 25 25 (7680000)
I0706 10:12:34.455780 54857 net.cpp:165] Memory required for data: 1090561536
I0706 10:12:34.455799 54857 layer_factory.hpp:76] Creating layer relu31
I0706 10:12:34.455811 54857 net.cpp:106] Creating Layer relu31
I0706 10:12:34.455828 54857 net.cpp:454] relu31 <- conv31
I0706 10:12:34.455840 54857 net.cpp:397] relu31 -> conv31 (in-place)
I0706 10:12:34.458672 54857 net.cpp:150] Setting up relu31
I0706 10:12:34.458691 54857 net.cpp:157] Top shape: 128 96 25 25 (7680000)
I0706 10:12:34.458703 54857 net.cpp:165] Memory required for data: 1121281536
I0706 10:12:34.458711 54857 layer_factory.hpp:76] Creating layer conv32
I0706 10:12:34.458729 54857 net.cpp:106] Creating Layer conv32
I0706 10:12:34.458739 54857 net.cpp:454] conv32 <- conv31
I0706 10:12:34.458751 54857 net.cpp:411] conv32 -> conv32
I0706 10:12:34.463695 54857 cudnn_conv_layer.cpp:194] Reallocating workspace storage: 10368
I0706 10:12:34.463740 54857 net.cpp:150] Setting up conv32
I0706 10:12:34.463753 54857 net.cpp:157] Top shape: 128 96 25 25 (7680000)
I0706 10:12:34.463763 54857 net.cpp:165] Memory required for data: 1152001536
I0706 10:12:34.463775 54857 layer_factory.hpp:76] Creating layer relu32
I0706 10:12:34.463800 54857 net.cpp:106] Creating Layer relu32
I0706 10:12:34.463812 54857 net.cpp:454] relu32 <- conv32
I0706 10:12:34.463824 54857 net.cpp:397] relu32 -> conv32 (in-place)
I0706 10:12:34.464771 54857 net.cpp:150] Setting up relu32
I0706 10:12:34.464792 54857 net.cpp:157] Top shape: 128 96 25 25 (7680000)
I0706 10:12:34.464799 54857 net.cpp:165] Memory required for data: 1182721536
I0706 10:12:34.464809 54857 layer_factory.hpp:76] Creating layer pool3
I0706 10:12:34.464828 54857 net.cpp:106] Creating Layer pool3
I0706 10:12:34.464838 54857 net.cpp:454] pool3 <- conv32
I0706 10:12:34.464848 54857 net.cpp:411] pool3 -> pool3
I0706 10:12:34.465956 54857 net.cpp:150] Setting up pool3
I0706 10:12:34.465977 54857 net.cpp:157] Top shape: 128 96 13 13 (2076672)
I0706 10:12:34.465986 54857 net.cpp:165] Memory required for data: 1191028224
I0706 10:12:34.465994 54857 layer_factory.hpp:76] Creating layer conv41
I0706 10:12:34.466038 54857 net.cpp:106] Creating Layer conv41
I0706 10:12:34.466053 54857 net.cpp:454] conv41 <- pool3
I0706 10:12:34.466066 54857 net.cpp:411] conv41 -> conv41
I0706 10:12:34.473563 54857 net.cpp:150] Setting up conv41
I0706 10:12:34.473587 54857 net.cpp:157] Top shape: 128 128 13 13 (2768896)
I0706 10:12:34.473597 54857 net.cpp:165] Memory required for data: 1202103808
I0706 10:12:34.473609 54857 layer_factory.hpp:76] Creating layer relu41
I0706 10:12:34.473623 54857 net.cpp:106] Creating Layer relu41
I0706 10:12:34.473633 54857 net.cpp:454] relu41 <- conv41
I0706 10:12:34.473645 54857 net.cpp:397] relu41 -> conv41 (in-place)
I0706 10:12:34.474797 54857 net.cpp:150] Setting up relu41
I0706 10:12:34.474817 54857 net.cpp:157] Top shape: 128 128 13 13 (2768896)
I0706 10:12:34.474829 54857 net.cpp:165] Memory required for data: 1213179392
I0706 10:12:34.474838 54857 layer_factory.hpp:76] Creating layer conv42
I0706 10:12:34.474858 54857 net.cpp:106] Creating Layer conv42
I0706 10:12:34.474866 54857 net.cpp:454] conv42 <- conv41
I0706 10:12:34.474879 54857 net.cpp:411] conv42 -> conv42
I0706 10:12:34.483465 54857 cudnn_conv_layer.cpp:194] Reallocating workspace storage: 13824
I0706 10:12:34.483513 54857 net.cpp:150] Setting up conv42
I0706 10:12:34.483528 54857 net.cpp:157] Top shape: 128 128 13 13 (2768896)
I0706 10:12:34.483537 54857 net.cpp:165] Memory required for data: 1224254976
I0706 10:12:34.483558 54857 layer_factory.hpp:76] Creating layer relu42
I0706 10:12:34.483572 54857 net.cpp:106] Creating Layer relu42
I0706 10:12:34.483580 54857 net.cpp:454] relu42 <- conv42
I0706 10:12:34.483592 54857 net.cpp:397] relu42 -> conv42 (in-place)
I0706 10:12:34.485769 54857 net.cpp:150] Setting up relu42
I0706 10:12:34.485786 54857 net.cpp:157] Top shape: 128 128 13 13 (2768896)
I0706 10:12:34.485802 54857 net.cpp:165] Memory required for data: 1235330560
I0706 10:12:34.485811 54857 layer_factory.hpp:76] Creating layer pool4
I0706 10:12:34.485823 54857 net.cpp:106] Creating Layer pool4
I0706 10:12:34.485831 54857 net.cpp:454] pool4 <- conv42
I0706 10:12:34.485844 54857 net.cpp:411] pool4 -> pool4
I0706 10:12:34.488209 54857 net.cpp:150] Setting up pool4
I0706 10:12:34.488229 54857 net.cpp:157] Top shape: 128 128 7 7 (802816)
I0706 10:12:34.488241 54857 net.cpp:165] Memory required for data: 1238541824
I0706 10:12:34.488250 54857 layer_factory.hpp:76] Creating layer conv51
I0706 10:12:34.488268 54857 net.cpp:106] Creating Layer conv51
I0706 10:12:34.488277 54857 net.cpp:454] conv51 <- pool4
I0706 10:12:34.488293 54857 net.cpp:411] conv51 -> conv51
I0706 10:12:34.494307 54857 net.cpp:150] Setting up conv51
I0706 10:12:34.494333 54857 net.cpp:157] Top shape: 128 256 7 7 (1605632)
I0706 10:12:34.494341 54857 net.cpp:165] Memory required for data: 1244964352
I0706 10:12:34.494359 54857 layer_factory.hpp:76] Creating layer relu51
I0706 10:12:34.494374 54857 net.cpp:106] Creating Layer relu51
I0706 10:12:34.494386 54857 net.cpp:454] relu51 <- conv51
I0706 10:12:34.494396 54857 net.cpp:397] relu51 -> conv51 (in-place)
I0706 10:12:34.497331 54857 net.cpp:150] Setting up relu51
I0706 10:12:34.497349 54857 net.cpp:157] Top shape: 128 256 7 7 (1605632)
I0706 10:12:34.497362 54857 net.cpp:165] Memory required for data: 1251386880
I0706 10:12:34.497371 54857 layer_factory.hpp:76] Creating layer conv52
I0706 10:12:34.497388 54857 net.cpp:106] Creating Layer conv52
I0706 10:12:34.497397 54857 net.cpp:454] conv52 <- conv51
I0706 10:12:34.497411 54857 net.cpp:411] conv52 -> conv52
I0706 10:12:34.509024 54857 net.cpp:150] Setting up conv52
I0706 10:12:34.509053 54857 net.cpp:157] Top shape: 128 256 7 7 (1605632)
I0706 10:12:34.509068 54857 net.cpp:165] Memory required for data: 1257809408
I0706 10:12:34.509084 54857 layer_factory.hpp:76] Creating layer relu52
I0706 10:12:34.509099 54857 net.cpp:106] Creating Layer relu52
I0706 10:12:34.509109 54857 net.cpp:454] relu52 <- conv52
I0706 10:12:34.509120 54857 net.cpp:397] relu52 -> conv52 (in-place)
I0706 10:12:34.510084 54857 net.cpp:150] Setting up relu52
I0706 10:12:34.510131 54857 net.cpp:157] Top shape: 128 256 7 7 (1605632)
I0706 10:12:34.510141 54857 net.cpp:165] Memory required for data: 1264231936
I0706 10:12:34.510150 54857 layer_factory.hpp:76] Creating layer conv53
I0706 10:12:34.510169 54857 net.cpp:106] Creating Layer conv53
I0706 10:12:34.510179 54857 net.cpp:454] conv53 <- conv52
I0706 10:12:34.510191 54857 net.cpp:411] conv53 -> conv53
I0706 10:12:34.544798 54857 cudnn_conv_layer.cpp:194] Reallocating workspace storage: 150528
I0706 10:12:34.545039 54857 net.cpp:150] Setting up conv53
I0706 10:12:34.545066 54857 net.cpp:157] Top shape: 128 256 1 1 (32768)
I0706 10:12:34.545075 54857 net.cpp:165] Memory required for data: 1264363008
I0706 10:12:34.545091 54857 layer_factory.hpp:76] Creating layer relu53
I0706 10:12:34.545109 54857 net.cpp:106] Creating Layer relu53
I0706 10:12:34.545120 54857 net.cpp:454] relu53 <- conv53
I0706 10:12:34.545147 54857 net.cpp:397] relu53 -> conv53 (in-place)
I0706 10:12:34.545876 54857 net.cpp:150] Setting up relu53
I0706 10:12:34.545895 54857 net.cpp:157] Top shape: 128 256 1 1 (32768)
I0706 10:12:34.545909 54857 net.cpp:165] Memory required for data: 1264494080
I0706 10:12:34.545918 54857 layer_factory.hpp:76] Creating layer drop6
I0706 10:12:34.545940 54857 net.cpp:106] Creating Layer drop6
I0706 10:12:34.545953 54857 net.cpp:454] drop6 <- conv53
I0706 10:12:34.545963 54857 net.cpp:411] drop6 -> drop6
I0706 10:12:34.546025 54857 net.cpp:150] Setting up drop6
I0706 10:12:34.546038 54857 net.cpp:157] Top shape: 128 256 1 1 (32768)
I0706 10:12:34.546048 54857 net.cpp:165] Memory required for data: 1264625152
I0706 10:12:34.546058 54857 layer_factory.hpp:76] Creating layer conv54
I0706 10:12:34.546083 54857 net.cpp:106] Creating Layer conv54
I0706 10:12:34.546098 54857 net.cpp:454] conv54 <- drop6
I0706 10:12:34.546113 54857 net.cpp:411] conv54 -> conv54
I0706 10:12:34.554951 54857 cudnn_conv_layer.cpp:194] Reallocating workspace storage: 3072
I0706 10:12:34.555155 54857 net.cpp:150] Setting up conv54
I0706 10:12:34.555173 54857 net.cpp:157] Top shape: 128 2 1 1 (256)
I0706 10:12:34.555186 54857 net.cpp:165] Memory required for data: 1264626176
I0706 10:12:34.555198 54857 layer_factory.hpp:76] Creating layer conv54_conv54_0_split
I0706 10:12:34.555214 54857 net.cpp:106] Creating Layer conv54_conv54_0_split
I0706 10:12:34.555223 54857 net.cpp:454] conv54_conv54_0_split <- conv54
I0706 10:12:34.555234 54857 net.cpp:411] conv54_conv54_0_split -> conv54_conv54_0_split_0
I0706 10:12:34.555248 54857 net.cpp:411] conv54_conv54_0_split -> conv54_conv54_0_split_1
I0706 10:12:34.555301 54857 net.cpp:150] Setting up conv54_conv54_0_split
I0706 10:12:34.555317 54857 net.cpp:157] Top shape: 128 2 1 1 (256)
I0706 10:12:34.555326 54857 net.cpp:157] Top shape: 128 2 1 1 (256)
I0706 10:12:34.555335 54857 net.cpp:165] Memory required for data: 1264628224
I0706 10:12:34.555346 54857 layer_factory.hpp:76] Creating layer accuracy
I0706 10:12:34.555366 54857 net.cpp:106] Creating Layer accuracy
I0706 10:12:34.555377 54857 net.cpp:454] accuracy <- conv54_conv54_0_split_0
I0706 10:12:34.555387 54857 net.cpp:454] accuracy <- label_data_1_split_0
I0706 10:12:34.555397 54857 net.cpp:411] accuracy -> accuracy
…
I0706 10:12:34.558131 54857 net.cpp:322] The NetState phase (1) differed from the phase (0) specified by a rule in layer data
I0706 10:12:34.558321 54857 net.cpp:49] Initializing net from parameters: 
name: "FaceNN"
state {
  phase: TEST
}
layer {
  name: "data"
  type: "ImageData"
  top: "data"
  top: "label"
  include {
    phase: TEST
  }
  transform_param {
    mirror: false
    crop_size: 100
    mean_value: 104
    mean_value: 117
    mean_value: 123
  }
  image_data_param {
    source: "../lists/roi-val-L0.lst"
    batch_size: 100
    shuffle: true
    new_height: 110
    new_width: 110
  }
}
layer {
  name: "conv11"
  type: "Convolution"
  bottom: "data"
  top: "conv11"
  param {
    lr_mult: 1
    decay_mult: 1
  }
  param {
    lr_mult: 2
    decay_mult: 0
  }
  convolution_param {
    num_output: 32
    pad: 1
    stride: 1
    weight_filler {
      type: "xavier"
    }
    bias_filler {
      type: "constant"
    }
    kernel_h: 3
    kernel_w: 3
  }
}
layer {
  name: "relu11"
  type: "ReLU"
  bottom: "conv11"
  top: "conv11"
}
layer {
  name: "conv12"
  type: "Convolution"
  bottom: "conv11"
  top: "conv12"
  param {
    lr_mult: 1
    decay_mult: 1
  }
  param {
    lr_mult: 2
    decay_mult: 0
  }
  convolution_param {
    num_output: 32
    pad: 1
    stride: 1
    weight_filler {
      type: "xavier"
    }
    bias_filler {
      type: "constant"
    }
    kernel_h: 3
    kernel_w: 3
  }
}
layer {
  name: "relu12"
  type: "ReLU"
  bottom: "conv12"
  top: "conv12"
}
layer {
  name: "pool1"
  type: "Pooling"
  bottom: "conv12"
  top: "pool1"
  pooling_param {
    pool: MAX
    kernel_size: 2
    stride: 2
  }
}
layer {
  name: "conv21"
  type: "Convolution"
  bottom: "pool1"
  top: "conv21"
  param {
    lr_mult: 1
    decay_mult: 1
  }
  param {
    lr_mult: 2
    decay_mult: 0
  }
  convolution_param {
    num_output: 64
    pad: 1
    stride: 1
    weight_filler {
      type: "xavier"
    }
    bias_filler {
      type: "constant"
    }
    kernel_h: 3
    kernel_w: 3
  }
}
layer {
  name: "relu21"
  type: "ReLU"
  bottom: "conv21"
  top: "conv21"
}
layer {
  name: "conv22"
  type: "Convolution"
  bottom: "conv21"
  top: "conv22"
  param {
    lr_mult: 1
    decay_mult: 1
  }
  param {
    lr_mult: 2
    decay_mult: 0
  }
  convolution_param {
    num_output: 64
    pad: 1
    stride: 1
    weight_filler {
      type: "xavier"
    }
    bias_filler {
      type: "constant"
    }
    kernel_h: 3
    kernel_w: 3
  }
}
layer {
  name: "relu22"
  type: "ReLU"
  bottom: "conv22"
  top: "conv22"
}
layer {
  name: "pool2"
  type: "Pooling"
  bottom: "conv22"
  top: "pool2"
  pooling_param {
    pool: MAX
    kernel_size: 2
    stride: 2
  }
}
layer {
  name: "conv31"
  type: "Convolution"
  bottom: "pool2"
  top: "conv31"
  param {
    lr_mult: 1
    decay_mult: 1
  }
  param {
    lr_mult: 2
    decay_mult: 0
  }
  convolution_param {
    num_output: 96
    pad: 1
    stride: 1
    weight_filler {
      type: "xavier"
    }
    bias_filler {
      type: "constant"
    }
    kernel_h: 3
    kernel_w: 3
  }
}
layer {
  name: "relu31"
  type: "ReLU"
  bottom: "conv31"
  top: "conv31"
}
layer {
  name: "conv32"
  type: "Convolution"
  bottom: "conv31"
  top: "conv32"
  param {
    lr_mult: 1
    decay_mult: 1
  }
  param {
    lr_mult: 2
    decay_mult: 0
  }
  convolution_param {
    num_output: 96
    pad: 1
    stride: 1
    weight_filler {
      type: "xavier"
    }
    bias_filler {
      type: "constant"
    }
    kernel_h: 3
    kernel_w: 3
  }
}
layer {
  name: "relu32"
  type: "ReLU"
  bottom: "conv32"
  top: "conv32"
}
layer {
  name: "pool3"
  type: "Pooling"
  bottom: "conv32"
  top: "pool3"
  pooling_param {
    pool: MAX
    kernel_size: 2
    stride: 2
  }
}
layer {
  name: "conv41"
  type: "Convolution"
  bottom: "pool3"
  top: "conv41"
  param {
    lr_mult: 1
    decay_mult: 1
  }
  param {
    lr_mult: 2
    decay_mult: 0
  }
  convolution_param {
    num_output: 128
    pad: 1
    stride: 1
    weight_filler {
      type: "xavier"
    }
    bias_filler {
      type: "constant"
    }
    kernel_h: 3
    kernel_w: 3
  }
}
layer {
  name: "relu41"
  type: "ReLU"
  bottom: "conv41"
  top: "conv41"
}
layer {
  name: "conv42"
  type: "Convolution"
  bottom: "conv41"
  top: "conv42"
  param {
    lr_mult: 1
    decay_mult: 1
  }
  param {
    lr_mult: 2
    decay_mult: 0
  }
  convolution_param {
    num_output: 128
    pad: 1
    stride: 1
    weight_filler {
      type: "xavier"
    }
    bias_filler {
      type: "constant"
    }
    kernel_h: 3
    kernel_w: 3
  }
}
layer {
  name: "relu42"
  type: "ReLU"
  bottom: "conv42"
  top: "conv42"
}
layer {
  name: "pool4"
  type: "Pooling"
  bottom: "conv42"
  top: "pool4"
  pooling_param {
    pool: MAX
    kernel_size: 2
    stride: 2
  }
}
layer {
  name: "conv51"
  type: "Convolution"
  bottom: "pool4"
  top: "conv51"
  param {
    lr_mult: 1
    decay_mult: 1
  }
  param {
    lr_mult: 2
    decay_mult: 0
  }
  convolution_param {
    num_output: 256
    pad: 1
    stride: 1
    weight_filler {
      type: "xavier"
    }
    bias_filler {
      type: "constant"
    }
    kernel_h: 3
    kernel_w: 3
  }
}
layer {
  name: "relu51"
  type: "ReLU"
  bottom: "conv51"
  top: "conv51"
}
layer {
  name: "conv52"
  type: "Convolution"
  bottom: "conv51"
  top: "conv52"
  param {
    lr_mult: 1
    decay_mult: 1
  }
  param {
    lr_mult: 2
    decay_mult: 0
  }
  convolution_param {
    num_output: 256
    pad: 1
    stride: 1
    weight_filler {
      type: "xavier"
    }
    bias_filler {
      type: "constant"
    }
    kernel_h: 3
    kernel_w: 3
  }
}
layer {
  name: "relu52"
  type: "ReLU"
  bottom: "conv52"
  top: "conv52"
}
layer {
  name: "conv53"
  type: "Convolution"
  bottom: "conv52"
  top: "conv53"
  param {
    lr_mult: 1
    decay_mult: 1
  }
  param {
    lr_mult: 2
    decay_mult: 0
  }
  convolution_param {
    num_output: 256
    stride: 1
    weight_filler {
      type: "xavier"
    }
    bias_filler {
      type: "constant"
    }
    kernel_h: 7
    kernel_w: 7
  }
}
layer {
  name: "relu53"
  type: "ReLU"
  bottom: "conv53"
  top: "conv53"
}
layer {
  name: "drop6"
  type: "Dropout"
  bottom: "conv53"
  top: "drop6"
  dropout_param {
    dropout_ratio: 0.4
  }
}
layer {
  name: "conv54"
  type: "Convolution"
  bottom: "drop6"
  top: "conv54"
  param {
    lr_mult: 1
    decay_mult: 1
  }
  param {
    lr_mult: 2
    decay_mult: 0
  }
  convolution_param {
    num_output: 2
    stride: 1
    weight_filler {
      type: "xavier"
    }
    bias_filler {
      type: "constant"
    }
    kernel_h: 1
    kernel_w: 1
  }
}
layer {
  name: "accuracy"
  type: "Accuracy"
  bottom: "conv54"
  bottom: "label"
  top: "accuracy"
}
layer {
  name: "loss"
  type: "SoftmaxWithLoss"
  bottom: "conv54"
  bottom: "label"
  top: "loss"
}
I0706 10:12:34.559924 54857 layer_factory.hpp:76] Creating layer data
I0706 10:12:34.559953 54857 net.cpp:106] Creating Layer data
I0706 10:12:34.559962 54857 net.cpp:411] data -> data
I0706 10:12:34.559978 54857 net.cpp:411] data -> label
I0706 10:12:34.559991 54857 image_data_layer.cpp:36] Opening file ../lists/roi-val-L0.lst
I0706 10:12:34.572377 54857 image_data_layer.cpp:46] Shuffling data
I0706 10:12:34.574529 54857 image_data_layer.cpp:51] A total of 23520 images.
I0706 10:12:34.577179 54857 image_data_layer.cpp:78] output data size: 100,3,100,100
I0706 10:12:34.627202 54857 net.cpp:150] Setting up data
I0706 10:12:34.627259 54857 net.cpp:157] Top shape: 100 3 100 100 (3000000)
I0706 10:12:34.627271 54857 net.cpp:157] Top shape: 100 (100)
I0706 10:12:34.627280 54857 net.cpp:165] Memory required for data: 12000400
I0706 10:12:34.627293 54857 layer_factory.hpp:76] Creating layer label_data_1_split
I0706 10:12:34.627313 54857 net.cpp:106] Creating Layer label_data_1_split
I0706 10:12:34.627329 54857 net.cpp:454] label_data_1_split <- label
I0706 10:12:34.627342 54857 net.cpp:411] label_data_1_split -> label_data_1_split_0
I0706 10:12:34.627358 54857 net.cpp:411] label_data_1_split -> label_data_1_split_1
I0706 10:12:34.627427 54857 net.cpp:150] Setting up label_data_1_split
I0706 10:12:34.627449 54857 net.cpp:157] Top shape: 100 (100)
I0706 10:12:34.627465 54857 net.cpp:157] Top shape: 100 (100)
I0706 10:12:34.627472 54857 net.cpp:165] Memory required for data: 12001200
I0706 10:12:34.627483 54857 layer_factory.hpp:76] Creating layer conv11
I0706 10:12:34.627501 54857 net.cpp:106] Creating Layer conv11
I0706 10:12:34.627509 54857 net.cpp:454] conv11 <- data
I0706 10:12:34.627519 54857 net.cpp:411] conv11 -> conv11
I0706 10:12:34.632169 54857 net.cpp:150] Setting up conv11
I0706 10:12:34.632192 54857 net.cpp:157] Top shape: 100 32 100 100 (32000000)
I0706 10:12:34.632201 54857 net.cpp:165] Memory required for data: 140001200
I0706 10:12:34.632217 54857 layer_factory.hpp:76] Creating layer relu11
I0706 10:12:34.632231 54857 net.cpp:106] Creating Layer relu11
I0706 10:12:34.632241 54857 net.cpp:454] relu11 <- conv11
I0706 10:12:34.632251 54857 net.cpp:397] relu11 -> conv11 (in-place)
I0706 10:12:34.637109 54857 net.cpp:150] Setting up relu11
I0706 10:12:34.637166 54857 net.cpp:157] Top shape: 100 32 100 100 (32000000)
I0706 10:12:34.637174 54857 net.cpp:165] Memory required for data: 268001200
I0706 10:12:34.637183 54857 layer_factory.hpp:76] Creating layer conv12
I0706 10:12:34.637200 54857 net.cpp:106] Creating Layer conv12
I0706 10:12:34.637210 54857 net.cpp:454] conv12 <- conv11
I0706 10:12:34.637223 54857 net.cpp:411] conv12 -> conv12
I0706 10:12:34.641047 54857 net.cpp:150] Setting up conv12
I0706 10:12:34.641068 54857 net.cpp:157] Top shape: 100 32 100 100 (32000000)
I0706 10:12:34.641079 54857 net.cpp:165] Memory required for data: 396001200
I0706 10:12:34.641094 54857 layer_factory.hpp:76] Creating layer relu12
I0706 10:12:34.641106 54857 net.cpp:106] Creating Layer relu12
I0706 10:12:34.641114 54857 net.cpp:454] relu12 <- conv12
I0706 10:12:34.641124 54857 net.cpp:397] relu12 -> conv12 (in-place)
I0706 10:12:34.642314 54857 net.cpp:150] Setting up relu12
I0706 10:12:34.642334 54857 net.cpp:157] Top shape: 100 32 100 100 (32000000)
I0706 10:12:34.642349 54857 net.cpp:165] Memory required for data: 524001200
I0706 10:12:34.642359 54857 layer_factory.hpp:76] Creating layer pool1
I0706 10:12:34.642370 54857 net.cpp:106] Creating Layer pool1
I0706 10:12:34.642381 54857 net.cpp:454] pool1 <- conv12
I0706 10:12:34.642395 54857 net.cpp:411] pool1 -> pool1
I0706 10:12:34.644006 54857 net.cpp:150] Setting up pool1
I0706 10:12:34.644023 54857 net.cpp:157] Top shape: 100 32 50 50 (8000000)
I0706 10:12:34.644038 54857 net.cpp:165] Memory required for data: 556001200
I0706 10:12:34.644047 54857 layer_factory.hpp:76] Creating layer conv21
I0706 10:12:34.644062 54857 net.cpp:106] Creating Layer conv21
I0706 10:12:34.644071 54857 net.cpp:454] conv21 <- pool1
I0706 10:12:34.644088 54857 net.cpp:411] conv21 -> conv21
I0706 10:12:34.650027 54857 net.cpp:150] Setting up conv21
I0706 10:12:34.650050 54857 net.cpp:157] Top shape: 100 64 50 50 (16000000)
I0706 10:12:34.650059 54857 net.cpp:165] Memory required for data: 620001200
I0706 10:12:34.650076 54857 layer_factory.hpp:76] Creating layer relu21
I0706 10:12:34.650090 54857 net.cpp:106] Creating Layer relu21
I0706 10:12:34.650099 54857 net.cpp:454] relu21 <- conv21
I0706 10:12:34.650111 54857 net.cpp:397] relu21 -> conv21 (in-place)
I0706 10:12:34.652209 54857 net.cpp:150] Setting up relu21
I0706 10:12:34.652230 54857 net.cpp:157] Top shape: 100 64 50 50 (16000000)
I0706 10:12:34.652245 54857 net.cpp:165] Memory required for data: 684001200
I0706 10:12:34.652253 54857 layer_factory.hpp:76] Creating layer conv22
I0706 10:12:34.652269 54857 net.cpp:106] Creating Layer conv22
I0706 10:12:34.652278 54857 net.cpp:454] conv22 <- conv21
I0706 10:12:34.652289 54857 net.cpp:411] conv22 -> conv22
I0706 10:12:34.667984 54857 net.cpp:150] Setting up conv22
I0706 10:12:34.668020 54857 net.cpp:157] Top shape: 100 64 50 50 (16000000)
I0706 10:12:34.668030 54857 net.cpp:165] Memory required for data: 748001200
I0706 10:12:34.668046 54857 layer_factory.hpp:76] Creating layer relu22
I0706 10:12:34.668058 54857 net.cpp:106] Creating Layer relu22
I0706 10:12:34.668067 54857 net.cpp:454] relu22 <- conv22
I0706 10:12:34.668077 54857 net.cpp:397] relu22 -> conv22 (in-place)
I0706 10:12:34.670897 54857 net.cpp:150] Setting up relu22
I0706 10:12:34.670914 54857 net.cpp:157] Top shape: 100 64 50 50 (16000000)
I0706 10:12:34.670923 54857 net.cpp:165] Memory required for data: 812001200
I0706 10:12:34.670933 54857 layer_factory.hpp:76] Creating layer pool2
I0706 10:12:34.670945 54857 net.cpp:106] Creating Layer pool2
I0706 10:12:34.670954 54857 net.cpp:454] pool2 <- conv22
I0706 10:12:34.670965 54857 net.cpp:411] pool2 -> pool2
I0706 10:12:34.672296 54857 net.cpp:150] Setting up pool2
I0706 10:12:34.672317 54857 net.cpp:157] Top shape: 100 64 25 25 (4000000)
I0706 10:12:34.672329 54857 net.cpp:165] Memory required for data: 828001200
I0706 10:12:34.672338 54857 layer_factory.hpp:76] Creating layer conv31
I0706 10:12:34.672355 54857 net.cpp:106] Creating Layer conv31
I0706 10:12:34.672363 54857 net.cpp:454] conv31 <- pool2
I0706 10:12:34.672376 54857 net.cpp:411] conv31 -> conv31
I0706 10:12:34.678266 54857 cudnn_conv_layer.cpp:194] Reallocating workspace storage: 6912
I0706 10:12:34.678310 54857 net.cpp:150] Setting up conv31
I0706 10:12:34.678323 54857 net.cpp:157] Top shape: 100 96 25 25 (6000000)
I0706 10:12:34.678334 54857 net.cpp:165] Memory required for data: 852001200
I0706 10:12:34.678354 54857 layer_factory.hpp:76] Creating layer relu31
I0706 10:12:34.678374 54857 net.cpp:106] Creating Layer relu31
I0706 10:12:34.678383 54857 net.cpp:454] relu31 <- conv31
I0706 10:12:34.678395 54857 net.cpp:397] relu31 -> conv31 (in-place)
I0706 10:12:34.679713 54857 net.cpp:150] Setting up relu31
I0706 10:12:34.679733 54857 net.cpp:157] Top shape: 100 96 25 25 (6000000)
I0706 10:12:34.679744 54857 net.cpp:165] Memory required for data: 876001200
I0706 10:12:34.679754 54857 layer_factory.hpp:76] Creating layer conv32
I0706 10:12:34.679771 54857 net.cpp:106] Creating Layer conv32
I0706 10:12:34.679780 54857 net.cpp:454] conv32 <- conv31
I0706 10:12:34.679795 54857 net.cpp:411] conv32 -> conv32
I0706 10:12:34.687479 54857 cudnn_conv_layer.cpp:194] Reallocating workspace storage: 10368
I0706 10:12:34.687518 54857 net.cpp:150] Setting up conv32
I0706 10:12:34.687530 54857 net.cpp:157] Top shape: 100 96 25 25 (6000000)
I0706 10:12:34.687542 54857 net.cpp:165] Memory required for data: 900001200
I0706 10:12:34.687553 54857 layer_factory.hpp:76] Creating layer relu32
I0706 10:12:34.687575 54857 net.cpp:106] Creating Layer relu32
I0706 10:12:34.687584 54857 net.cpp:454] relu32 <- conv32
I0706 10:12:34.687595 54857 net.cpp:397] relu32 -> conv32 (in-place)
I0706 10:12:34.690182 54857 net.cpp:150] Setting up relu32
I0706 10:12:34.690201 54857 net.cpp:157] Top shape: 100 96 25 25 (6000000)
I0706 10:12:34.690208 54857 net.cpp:165] Memory required for data: 924001200
I0706 10:12:34.690217 54857 layer_factory.hpp:76] Creating layer pool3
I0706 10:12:34.690233 54857 net.cpp:106] Creating Layer pool3
I0706 10:12:34.690243 54857 net.cpp:454] pool3 <- conv32
I0706 10:12:34.690253 54857 net.cpp:411] pool3 -> pool3
I0706 10:12:34.692739 54857 net.cpp:150] Setting up pool3
I0706 10:12:34.692759 54857 net.cpp:157] Top shape: 100 96 13 13 (1622400)
I0706 10:12:34.692767 54857 net.cpp:165] Memory required for data: 930490800
I0706 10:12:34.692776 54857 layer_factory.hpp:76] Creating layer conv41
I0706 10:12:34.692792 54857 net.cpp:106] Creating Layer conv41
I0706 10:12:34.692800 54857 net.cpp:454] conv41 <- pool3
I0706 10:12:34.692814 54857 net.cpp:411] conv41 -> conv41
I0706 10:12:34.698462 54857 net.cpp:150] Setting up conv41
I0706 10:12:34.698485 54857 net.cpp:157] Top shape: 100 128 13 13 (2163200)
I0706 10:12:34.698495 54857 net.cpp:165] Memory required for data: 939143600
I0706 10:12:34.698508 54857 layer_factory.hpp:76] Creating layer relu41
I0706 10:12:34.698523 54857 net.cpp:106] Creating Layer relu41
I0706 10:12:34.698532 54857 net.cpp:454] relu41 <- conv41
I0706 10:12:34.698544 54857 net.cpp:397] relu41 -> conv41 (in-place)
I0706 10:12:34.700065 54857 net.cpp:150] Setting up relu41
I0706 10:12:34.700083 54857 net.cpp:157] Top shape: 100 128 13 13 (2163200)
I0706 10:12:34.700090 54857 net.cpp:165] Memory required for data: 947796400
I0706 10:12:34.700099 54857 layer_factory.hpp:76] Creating layer conv42
I0706 10:12:34.700131 54857 net.cpp:106] Creating Layer conv42
I0706 10:12:34.700142 54857 net.cpp:454] conv42 <- conv41
I0706 10:12:34.700155 54857 net.cpp:411] conv42 -> conv42
I0706 10:12:34.705943 54857 cudnn_conv_layer.cpp:194] Reallocating workspace storage: 13824
I0706 10:12:34.705991 54857 net.cpp:150] Setting up conv42
I0706 10:12:34.706003 54857 net.cpp:157] Top shape: 100 128 13 13 (2163200)
I0706 10:12:34.706014 54857 net.cpp:165] Memory required for data: 956449200
I0706 10:12:34.706032 54857 layer_factory.hpp:76] Creating layer relu42
I0706 10:12:34.706048 54857 net.cpp:106] Creating Layer relu42
I0706 10:12:34.706063 54857 net.cpp:454] relu42 <- conv42
I0706 10:12:34.706075 54857 net.cpp:397] relu42 -> conv42 (in-place)
I0706 10:12:34.707746 54857 net.cpp:150] Setting up relu42
I0706 10:12:34.707792 54857 net.cpp:157] Top shape: 100 128 13 13 (2163200)
I0706 10:12:34.707801 54857 net.cpp:165] Memory required for data: 965102000
I0706 10:12:34.707810 54857 layer_factory.hpp:76] Creating layer pool4
I0706 10:12:34.707823 54857 net.cpp:106] Creating Layer pool4
I0706 10:12:34.707830 54857 net.cpp:454] pool4 <- conv42
I0706 10:12:34.707839 54857 net.cpp:411] pool4 -> pool4
I0706 10:12:34.709885 54857 net.cpp:150] Setting up pool4
I0706 10:12:34.709903 54857 net.cpp:157] Top shape: 100 128 7 7 (627200)
I0706 10:12:34.709911 54857 net.cpp:165] Memory required for data: 967610800
I0706 10:12:34.709920 54857 layer_factory.hpp:76] Creating layer conv51
I0706 10:12:34.709935 54857 net.cpp:106] Creating Layer conv51
I0706 10:12:34.709945 54857 net.cpp:454] conv51 <- pool4
I0706 10:12:34.709957 54857 net.cpp:411] conv51 -> conv51
I0706 10:12:34.718786 54857 cudnn_conv_layer.cpp:194] Reallocating workspace storage: 13824
I0706 10:12:34.718827 54857 net.cpp:150] Setting up conv51
I0706 10:12:34.718847 54857 net.cpp:157] Top shape: 100 256 7 7 (1254400)
I0706 10:12:34.718855 54857 net.cpp:165] Memory required for data: 972628400
I0706 10:12:34.718893 54857 layer_factory.hpp:76] Creating layer relu51
I0706 10:12:34.718909 54857 net.cpp:106] Creating Layer relu51
I0706 10:12:34.718919 54857 net.cpp:454] relu51 <- conv51
I0706 10:12:34.718930 54857 net.cpp:397] relu51 -> conv51 (in-place)
I0706 10:12:34.720013 54857 net.cpp:150] Setting up relu51
I0706 10:12:34.720031 54857 net.cpp:157] Top shape: 100 256 7 7 (1254400)
I0706 10:12:34.720038 54857 net.cpp:165] Memory required for data: 977646000
I0706 10:12:34.720046 54857 layer_factory.hpp:76] Creating layer conv52
I0706 10:12:34.720067 54857 net.cpp:106] Creating Layer conv52
I0706 10:12:34.720077 54857 net.cpp:454] conv52 <- conv51
I0706 10:12:34.720087 54857 net.cpp:411] conv52 -> conv52
I0706 10:12:34.776195 54857 net.cpp:150] Setting up conv52
I0706 10:12:34.776237 54857 net.cpp:157] Top shape: 100 256 7 7 (1254400)
I0706 10:12:34.776247 54857 net.cpp:165] Memory required for data: 982663600
I0706 10:12:34.776262 54857 layer_factory.hpp:76] Creating layer relu52
I0706 10:12:34.776278 54857 net.cpp:106] Creating Layer relu52
I0706 10:12:34.776290 54857 net.cpp:454] relu52 <- conv52
I0706 10:12:34.776301 54857 net.cpp:397] relu52 -> conv52 (in-place)
I0706 10:12:34.778308 54857 net.cpp:150] Setting up relu52
I0706 10:12:34.778329 54857 net.cpp:157] Top shape: 100 256 7 7 (1254400)
I0706 10:12:34.778338 54857 net.cpp:165] Memory required for data: 987681200
I0706 10:12:34.778347 54857 layer_factory.hpp:76] Creating layer conv53
I0706 10:12:34.778365 54857 net.cpp:106] Creating Layer conv53
I0706 10:12:34.778374 54857 net.cpp:454] conv53 <- conv52
I0706 10:12:34.778385 54857 net.cpp:411] conv53 -> conv53
I0706 10:12:34.814483 54857 cudnn_conv_layer.cpp:194] Reallocating workspace storage: 150528
I0706 10:12:34.814544 54857 net.cpp:150] Setting up conv53
I0706 10:12:34.814559 54857 net.cpp:157] Top shape: 100 256 1 1 (25600)
I0706 10:12:34.814569 54857 net.cpp:165] Memory required for data: 987783600
I0706 10:12:34.814590 54857 layer_factory.hpp:76] Creating layer relu53
I0706 10:12:34.814609 54857 net.cpp:106] Creating Layer relu53
I0706 10:12:34.814623 54857 net.cpp:454] relu53 <- conv53
I0706 10:12:34.814638 54857 net.cpp:397] relu53 -> conv53 (in-place)
I0706 10:12:34.815589 54857 net.cpp:150] Setting up relu53
I0706 10:12:34.815606 54857 net.cpp:157] Top shape: 100 256 1 1 (25600)
I0706 10:12:34.815615 54857 net.cpp:165] Memory required for data: 987886000
I0706 10:12:34.815623 54857 layer_factory.hpp:76] Creating layer drop6
I0706 10:12:34.815641 54857 net.cpp:106] Creating Layer drop6
I0706 10:12:34.815650 54857 net.cpp:454] drop6 <- conv53
I0706 10:12:34.815660 54857 net.cpp:411] drop6 -> drop6
I0706 10:12:34.815716 54857 net.cpp:150] Setting up drop6
I0706 10:12:34.815731 54857 net.cpp:157] Top shape: 100 256 1 1 (25600)
I0706 10:12:34.815739 54857 net.cpp:165] Memory required for data: 987988400
I0706 10:12:34.815747 54857 layer_factory.hpp:76] Creating layer conv54
I0706 10:12:34.815804 54857 net.cpp:106] Creating Layer conv54
I0706 10:12:34.815815 54857 net.cpp:454] conv54 <- drop6
I0706 10:12:34.815829 54857 net.cpp:411] conv54 -> conv54
I0706 10:12:34.823977 54857 cudnn_conv_layer.cpp:194] Reallocating workspace storage: 3072
I0706 10:12:34.824015 54857 net.cpp:150] Setting up conv54
I0706 10:12:34.824028 54857 net.cpp:157] Top shape: 100 2 1 1 (200)
I0706 10:12:34.824036 54857 net.cpp:165] Memory required for data: 987989200
I0706 10:12:34.824048 54857 layer_factory.hpp:76] Creating layer conv54_conv54_0_split
I0706 10:12:34.824064 54857 net.cpp:106] Creating Layer conv54_conv54_0_split
I0706 10:12:34.824084 54857 net.cpp:454] conv54_conv54_0_split <- conv54
I0706 10:12:34.824095 54857 net.cpp:411] conv54_conv54_0_split -> conv54_conv54_0_split_0
I0706 10:12:34.824106 54857 net.cpp:411] conv54_conv54_0_split -> conv54_conv54_0_split_1
I0706 10:12:34.824157 54857 net.cpp:150] Setting up conv54_conv54_0_split
I0706 10:12:34.824172 54857 net.cpp:157] Top shape: 100 2 1 1 (200)
I0706 10:12:34.824182 54857 net.cpp:157] Top shape: 100 2 1 1 (200)
I0706 10:12:34.824189 54857 net.cpp:165] Memory required for data: 987990800
I0706 10:12:34.824198 54857 layer_factory.hpp:76] Creating layer accuracy
I0706 10:12:34.824218 54857 net.cpp:106] Creating Layer accuracy
I0706 10:12:34.824229 54857 net.cpp:454] accuracy <- conv54_conv54_0_split_0
I0706 10:12:34.824237 54857 net.cpp:454] accuracy <- label_data_1_split_0
I0706 10:12:34.824254 54857 net.cpp:411] accuracy -> accuracy
…
