…
  layer {
    name: "data"
    type: "ImageData"
    top: "data"
    top: "label"
    include {
      phase: TEST
    }
    transform_param {
      mirror: true
      mean_value: 150
      mean_value: 150
      mean_value: 150
      rotation_angle_interval: 90
    }
    image_data_param {
      source: "../../../step01_generate_traing_data/training_examples/list_stage2_te.lst"
      batch_size: 128
      shuffle: true
      new_height: 63
      new_width: 63
      root_folder: "../../../step01_generate_traing_data/training_examples/"
    }
  }
  layer {
    name: "conv1"
    type: "Convolution"
    bottom: "data"
    top: "conv1"
    param {
      lr_mult: 1
      decay_mult: 1
    }
    param {
      lr_mult: 2
      decay_mult: 0
    }
    convolution_param {
      num_output: 16
      pad: 0
      kernel_size: 4
      stride: 1
      weight_filler {
        type: "gaussian"
        std: 0.07
      }
      bias_filler {
        type: "constant"
        value: 0.1
      }
    }
  }
  layer {
    name: "nonlin1"
    type: "ReLU"
    bottom: "conv1"
    top: "conv1"
  }
  layer {
    name: "pool1"
    type: "Pooling"
    bottom: "conv1"
    top: "pool1"
    pooling_param {
      pool: MAX
      kernel_size: 2
      stride: 2
      engine: CAFFE
    }
  }
  layer {
    name: "conv2"
    type: "Convolution"
    bottom: "pool1"
    top: "conv2"
    param {
      lr_mult: 1
      decay_mult: 1
    }
    param {
      lr_mult: 2
      decay_mult: 0
    }
    convolution_param {
      num_output: 16
      pad: 0
      kernel_size: 3
      stride: 1
      weight_filler {
        type: "gaussian"
        std: 0.04
      }
      bias_filler {
        type: "constant"
        value: 0.1
      }
    }
  }
  layer {
    name: "nonlin2"
    type: "ReLU"
    bottom: "conv2"
    top: "conv2"
  }
  layer {
    name: "pool2"
    type: "Pooling"
    bottom: "conv2"
    top: "pool2"
    pooling_param {
      pool: MAX
      kernel_size: 2
      stride: 2
      engine: CAFFE
    }
  }
  layer {
    name: "conv3"
    type: "Convolution"
    bottom: "pool2"
    top: "conv3"
    param {
      lr_mult: 1
      decay_mult: 1
    }
    param {
      lr_mult: 2
      decay_mult: 0
    }
    convolution_param {
      num_output: 16
      pad: 0
      kernel_size: 3
      stride: 1
      weight_filler {
        type: "gaussian"
        std: 0.04
      }
      bias_filler {
        type: "constant"
        value: 0.1
      }
    }
  }
  layer {
    name: "nonlin3"
    type: "ReLU"
    bottom: "conv3"
    top: "conv3"
  }
  layer {
    name: "pool3"
    type: "Pooling"
    bottom: "conv3"
    top: "pool3"
    pooling_param {
      pool: MAX
      kernel_size: 2
      stride: 2
      engine: CAFFE
    }
  }
  layer {
    name: "conv4"
    type: "Convolution"
    bottom: "pool3"
    top: "conv4"
    param {
      lr_mult: 1
      decay_mult: 1
    }
    param {
      lr_mult: 2
      decay_mult: 0
    }
    convolution_param {
      num_output: 16
      pad: 0
      kernel_size: 3
      stride: 1
      weight_filler {
        type: "gaussian"
        std: 0.04
      }
      bias_filler {
        type: "constant"
        value: 0.1
      }
    }
  }
  layer {
    name: "nonlin4"
    type: "ReLU"
    bottom: "conv4"
    top: "conv4"
  }
  layer {
    name: "pool4"
    type: "Pooling"
    bottom: "conv4"
    top: "pool4"
    pooling_param {
      pool: MAX
      kernel_size: 2
      stride: 2
      engine: CAFFE
    }
  }
  layer {
    name: "ip1_c"
    type: "Convolution"
    bottom: "pool4"
    top: "ip1"
    convolution_param {
      num_output: 200
      pad: 0
      kernel_size: 2
      stride: 1
      weight_filler {
        type: "gaussian"
        std: 0.03
      }
      bias_filler {
        type: "constant"
        value: 0.1
      }
    }
  }
  layer {
    name: "nonlin_ip1"
    type: "ReLU"
    bottom: "ip1"
    top: "ip1"
  }
  layer {
    name: "ip2_c"
    type: "Convolution"
    bottom: "ip1"
    top: "ip2"
    convolution_param {
      num_output: 2
      pad: 0
      kernel_size: 1
      stride: 1
      weight_filler {
        type: "gaussian"
        std: 0.06
      }
      bias_filler {
        type: "constant"
        value: 0.1
      }
    }
  }
  layer {
    name: "accuracy"
    type: "Accuracy"
    bottom: "ip2"
    bottom: "label"
    top: "accuracy"
    include {
      phase: TEST
    }
  }
  layer {
    name: "loss"
    type: "SoftmaxWithLoss"
    bottom: "ip2"
    bottom: "label"
    top: "loss"
  }
}
test_initialization: true
average_loss: 100
I0822 14:12:52.039428  4118 solver.cpp:91] Creating training net specified in net_param.
I0822 14:12:52.039536  4118 net.cpp:339] The NetState phase (0) differed from the phase (1) specified by a rule in layer data
I0822 14:12:52.039597  4118 net.cpp:339] The NetState phase (0) differed from the phase (1) specified by a rule in layer accuracy
I0822 14:12:52.039767  4118 net.cpp:50] Initializing net from parameters: 
name: "Net"
state {
  phase: TRAIN
}
layer {
  name: "data"
  type: "ImageData"
  top: "data"
  top: "label"
  include {
    phase: TRAIN
  }
  transform_param {
    mirror: true
    mean_value: 150
    mean_value: 150
    mean_value: 150
    rotation_angle_interval: 90
    contrast_adjustment: true
    color_noise: 10
  }
  image_data_param {
    source: "../../../step01_generate_traing_data/training_examples/list_stage2_tr.lst"
    batch_size: 64
    shuffle: true
    new_height: 63
    new_width: 63
    root_folder: "../../../step01_generate_traing_data/training_examples/"
  }
}
layer {
  name: "conv1"
  type: "Convolution"
  bottom: "data"
  top: "conv1"
  param {
    lr_mult: 1
    decay_mult: 1
  }
  param {
    lr_mult: 2
    decay_mult: 0
  }
  convolution_param {
    num_output: 16
    pad: 0
    kernel_size: 4
    stride: 1
    weight_filler {
      type: "gaussian"
      std: 0.07
    }
    bias_filler {
      type: "constant"
      value: 0.1
    }
  }
}
layer {
  name: "nonlin1"
  type: "ReLU"
  bottom: "conv1"
  top: "conv1"
}
layer {
  name: "pool1"
  type: "Pooling"
  bottom: "conv1"
  top: "pool1"
  pooling_param {
    pool: MAX
    kernel_size: 2
    stride: 2
    engine: CAFFE
  }
}
layer {
  name: "conv2"
  type: "Convolution"
  bottom: "pool1"
  top: "conv2"
  param {
    lr_mult: 1
    decay_mult: 1
  }
  param {
    lr_mult: 2
    decay_mult: 0
  }
  convolution_param {
    num_output: 16
    pad: 0
    kernel_size: 3
    stride: 1
    weight_filler {
      type: "gaussian"
      std: 0.04
    }
    bias_filler {
      type: "constant"
      value: 0.1
    }
  }
}
layer {
  name: "nonlin2"
  type: "ReLU"
  bottom: "conv2"
  top: "conv2"
}
layer {
  name: "pool2"
  type: "Pooling"
  bottom: "conv2"
  top: "pool2"
  pooling_param {
    pool: MAX
    kernel_size: 2
    stride: 2
    engine: CAFFE
  }
}
layer {
  name: "conv3"
  type: "Convolution"
  bottom: "pool2"
  top: "conv3"
  param {
    lr_mult: 1
    decay_mult: 1
  }
  param {
    lr_mult: 2
    decay_mult: 0
  }
  convolution_param {
    num_output: 16
    pad: 0
    kernel_size: 3
    stride: 1
    weight_filler {
      type: "gaussian"
      std: 0.04
    }
    bias_filler {
      type: "constant"
      value: 0.1
    }
  }
}
layer {
  name: "nonlin3"
  type: "ReLU"
  bottom: "conv3"
  top: "conv3"
}
layer {
  name: "pool3"
  type: "Pooling"
  bottom: "conv3"
  top: "pool3"
  pooling_param {
    pool: MAX
    kernel_size: 2
    stride: 2
    engine: CAFFE
  }
}
layer {
  name: "conv4"
  type: "Convolution"
  bottom: "pool3"
  top: "conv4"
  param {
    lr_mult: 1
    decay_mult: 1
  }
  param {
    lr_mult: 2
    decay_mult: 0
  }
  convolution_param {
    num_output: 16
    pad: 0
    kernel_size: 3
    stride: 1
    weight_filler {
      type: "gaussian"
      std: 0.04
    }
    bias_filler {
      type: "constant"
      value: 0.1
    }
  }
}
layer {
  name: "nonlin4"
  type: "ReLU"
  bottom: "conv4"
  top: "conv4"
}
layer {
  name: "pool4"
  type: "Pooling"
  bottom: "conv4"
  top: "pool4"
  pooling_param {
    pool: MAX
    kernel_size: 2
    stride: 2
    engine: CAFFE
  }
}
layer {
  name: "ip1_c"
  type: "Convolution"
  bottom: "pool4"
  top: "ip1"
  convolution_param {
    num_output: 200
    pad: 0
    kernel_size: 2
    stride: 1
    weight_filler {
      type: "gaussian"
      std: 0.03
    }
    bias_filler {
      type: "constant"
      value: 0.1
    }
  }
}
layer {
  name: "nonlin_ip1"
  type: "ReLU"
  bottom: "ip1"
  top: "ip1"
}
layer {
  name: "ip2_c"
  type: "Convolution"
  bottom: "ip1"
  top: "ip2"
  convolution_param {
    num_output: 2
    pad: 0
    kernel_size: 1
    stride: 1
    weight_filler {
      type: "gaussian"
      std: 0.06
    }
    bias_filler {
      type: "constant"
      value: 0.1
    }
  }
}
layer {
  name: "loss"
  type: "SoftmaxWithLoss"
  bottom: "ip2"
  bottom: "label"
  top: "loss"
}
I0822 14:12:52.040772  4118 layer_factory.hpp:76] Creating layer data
I0822 14:12:52.040851  4118 net.cpp:110] Creating Layer data
I0822 14:12:52.040885  4118 net.cpp:433] data -> data
I0822 14:12:52.040932  4118 net.cpp:433] data -> label
I0822 14:12:52.041389  4118 image_data_layer.cpp:36] Opening file ../../../step01_generate_traing_data/training_examples/list_stage2_tr.lst
I0822 14:12:52.404389  4118 image_data_layer.cpp:46] Shuffling data
I0822 14:12:52.558084  4118 image_data_layer.cpp:51] A total of 725174 images.
I0822 14:12:52.558905  4118 image_data_layer.cpp:78] output data size: 64,3,63,63
I0822 14:12:52.578413  4118 net.cpp:155] Setting up data
I0822 14:12:52.578486  4118 net.cpp:163] Top shape: 64 3 63 63 (762048)
I0822 14:12:52.578496  4118 net.cpp:163] Top shape: 64 (64)
I0822 14:12:52.578511  4118 layer_factory.hpp:76] Creating layer conv1
I0822 14:12:52.578550  4118 net.cpp:110] Creating Layer conv1
I0822 14:12:52.578562  4118 net.cpp:477] conv1 <- data
I0822 14:12:52.578579  4118 net.cpp:433] conv1 -> conv1
I0822 14:12:52.720738  4118 net.cpp:155] Setting up conv1
I0822 14:12:52.720803  4118 net.cpp:163] Top shape: 64 16 60 60 (3686400)
I0822 14:12:52.720834  4118 layer_factory.hpp:76] Creating layer nonlin1
I0822 14:12:52.720854  4118 net.cpp:110] Creating Layer nonlin1
I0822 14:12:52.720865  4118 net.cpp:477] nonlin1 <- conv1
I0822 14:12:52.720878  4118 net.cpp:419] nonlin1 -> conv1 (in-place)
I0822 14:12:52.721063  4118 net.cpp:155] Setting up nonlin1
I0822 14:12:52.721081  4118 net.cpp:163] Top shape: 64 16 60 60 (3686400)
I0822 14:12:52.721092  4118 layer_factory.hpp:76] Creating layer pool1
I0822 14:12:52.721110  4118 net.cpp:110] Creating Layer pool1
I0822 14:12:52.721120  4118 net.cpp:477] pool1 <- conv1
I0822 14:12:52.721132  4118 net.cpp:433] pool1 -> pool1
I0822 14:12:52.721160  4118 net.cpp:155] Setting up pool1
I0822 14:12:52.721176  4118 net.cpp:163] Top shape: 64 16 30 30 (921600)
I0822 14:12:52.721187  4118 layer_factory.hpp:76] Creating layer conv2
I0822 14:12:52.721204  4118 net.cpp:110] Creating Layer conv2
I0822 14:12:52.721215  4118 net.cpp:477] conv2 <- pool1
I0822 14:12:52.721230  4118 net.cpp:433] conv2 -> conv2
I0822 14:12:52.722126  4118 net.cpp:155] Setting up conv2
I0822 14:12:52.722148  4118 net.cpp:163] Top shape: 64 16 28 28 (802816)
I0822 14:12:52.722165  4118 layer_factory.hpp:76] Creating layer nonlin2
I0822 14:12:52.722179  4118 net.cpp:110] Creating Layer nonlin2
I0822 14:12:52.722190  4118 net.cpp:477] nonlin2 <- conv2
I0822 14:12:52.722237  4118 net.cpp:419] nonlin2 -> conv2 (in-place)
I0822 14:12:52.722537  4118 net.cpp:155] Setting up nonlin2
I0822 14:12:52.722558  4118 net.cpp:163] Top shape: 64 16 28 28 (802816)
I0822 14:12:52.722569  4118 layer_factory.hpp:76] Creating layer pool2
I0822 14:12:52.722584  4118 net.cpp:110] Creating Layer pool2
I0822 14:12:52.722594  4118 net.cpp:477] pool2 <- conv2
I0822 14:12:52.722607  4118 net.cpp:433] pool2 -> pool2
I0822 14:12:52.722623  4118 net.cpp:155] Setting up pool2
I0822 14:12:52.722645  4118 net.cpp:163] Top shape: 64 16 14 14 (200704)
I0822 14:12:52.722653  4118 layer_factory.hpp:76] Creating layer conv3
I0822 14:12:52.722679  4118 net.cpp:110] Creating Layer conv3
I0822 14:12:52.722692  4118 net.cpp:477] conv3 <- pool2
I0822 14:12:52.722707  4118 net.cpp:433] conv3 -> conv3
I0822 14:12:52.723574  4118 net.cpp:155] Setting up conv3
I0822 14:12:52.723597  4118 net.cpp:163] Top shape: 64 16 12 12 (147456)
I0822 14:12:52.723613  4118 layer_factory.hpp:76] Creating layer nonlin3
I0822 14:12:52.723631  4118 net.cpp:110] Creating Layer nonlin3
I0822 14:12:52.723642  4118 net.cpp:477] nonlin3 <- conv3
I0822 14:12:52.723654  4118 net.cpp:419] nonlin3 -> conv3 (in-place)
I0822 14:12:52.723821  4118 net.cpp:155] Setting up nonlin3
I0822 14:12:52.723837  4118 net.cpp:163] Top shape: 64 16 12 12 (147456)
I0822 14:12:52.723848  4118 layer_factory.hpp:76] Creating layer pool3
I0822 14:12:52.723861  4118 net.cpp:110] Creating Layer pool3
I0822 14:12:52.723871  4118 net.cpp:477] pool3 <- conv3
I0822 14:12:52.723884  4118 net.cpp:433] pool3 -> pool3
I0822 14:12:52.723899  4118 net.cpp:155] Setting up pool3
I0822 14:12:52.723911  4118 net.cpp:163] Top shape: 64 16 6 6 (36864)
I0822 14:12:52.723922  4118 layer_factory.hpp:76] Creating layer conv4
I0822 14:12:52.723937  4118 net.cpp:110] Creating Layer conv4
I0822 14:12:52.723948  4118 net.cpp:477] conv4 <- pool3
I0822 14:12:52.723958  4118 net.cpp:433] conv4 -> conv4
I0822 14:12:52.724839  4118 net.cpp:155] Setting up conv4
I0822 14:12:52.724863  4118 net.cpp:163] Top shape: 64 16 4 4 (16384)
I0822 14:12:52.724876  4118 layer_factory.hpp:76] Creating layer nonlin4
I0822 14:12:52.724890  4118 net.cpp:110] Creating Layer nonlin4
I0822 14:12:52.724900  4118 net.cpp:477] nonlin4 <- conv4
I0822 14:12:52.724915  4118 net.cpp:419] nonlin4 -> conv4 (in-place)
I0822 14:12:52.725083  4118 net.cpp:155] Setting up nonlin4
I0822 14:12:52.725100  4118 net.cpp:163] Top shape: 64 16 4 4 (16384)
I0822 14:12:52.725113  4118 layer_factory.hpp:76] Creating layer pool4
I0822 14:12:52.725126  4118 net.cpp:110] Creating Layer pool4
I0822 14:12:52.725136  4118 net.cpp:477] pool4 <- conv4
I0822 14:12:52.725147  4118 net.cpp:433] pool4 -> pool4
I0822 14:12:52.725160  4118 net.cpp:155] Setting up pool4
I0822 14:12:52.725172  4118 net.cpp:163] Top shape: 64 16 2 2 (4096)
I0822 14:12:52.725183  4118 layer_factory.hpp:76] Creating layer ip1_c
I0822 14:12:52.725198  4118 net.cpp:110] Creating Layer ip1_c
I0822 14:12:52.725209  4118 net.cpp:477] ip1_c <- pool4
I0822 14:12:52.725222  4118 net.cpp:433] ip1_c -> ip1
I0822 14:12:52.727128  4118 net.cpp:155] Setting up ip1_c
I0822 14:12:52.727151  4118 net.cpp:163] Top shape: 64 200 1 1 (12800)
I0822 14:12:52.727171  4118 layer_factory.hpp:76] Creating layer nonlin_ip1
I0822 14:12:52.727185  4118 net.cpp:110] Creating Layer nonlin_ip1
I0822 14:12:52.727195  4118 net.cpp:477] nonlin_ip1 <- ip1
I0822 14:12:52.727205  4118 net.cpp:419] nonlin_ip1 -> ip1 (in-place)
I0822 14:12:52.727509  4118 net.cpp:155] Setting up nonlin_ip1
I0822 14:12:52.727530  4118 net.cpp:163] Top shape: 64 200 1 1 (12800)
I0822 14:12:52.727540  4118 layer_factory.hpp:76] Creating layer ip2_c
I0822 14:12:52.727560  4118 net.cpp:110] Creating Layer ip2_c
I0822 14:12:52.727571  4118 net.cpp:477] ip2_c <- ip1
I0822 14:12:52.727582  4118 net.cpp:433] ip2_c -> ip2
I0822 14:12:52.728410  4118 net.cpp:155] Setting up ip2_c
I0822 14:12:52.728432  4118 net.cpp:163] Top shape: 64 2 1 1 (128)
I0822 14:12:52.728446  4118 layer_factory.hpp:76] Creating layer loss
I0822 14:12:52.728466  4118 net.cpp:110] Creating Layer loss
I0822 14:12:52.728490  4118 net.cpp:477] loss <- ip2
I0822 14:12:52.728502  4118 net.cpp:477] loss <- label
I0822 14:12:52.728520  4118 net.cpp:433] loss -> loss
I0822 14:12:52.728541  4118 layer_factory.hpp:76] Creating layer loss
I0822 14:12:52.728766  4118 net.cpp:155] Setting up loss
…
I0822 14:12:52.729308  4118 net.cpp:50] Initializing net from parameters: 
name: "Net"
state {
  phase: TEST
}
layer {
  name: "data"
  type: "ImageData"
  top: "data"
  top: "label"
  include {
    phase: TEST
  }
  transform_param {
    mirror: true
    mean_value: 150
    mean_value: 150
    mean_value: 150
    rotation_angle_interval: 90
  }
  image_data_param {
    source: "../../../step01_generate_traing_data/training_examples/list_stage2_te.lst"
    batch_size: 128
    shuffle: true
    new_height: 63
    new_width: 63
    root_folder: "../../../step01_generate_traing_data/training_examples/"
  }
}
layer {
  name: "conv1"
  type: "Convolution"
  bottom: "data"
  top: "conv1"
  param {
    lr_mult: 1
    decay_mult: 1
  }
  param {
    lr_mult: 2
    decay_mult: 0
  }
  convolution_param {
    num_output: 16
    pad: 0
    kernel_size: 4
    stride: 1
    weight_filler {
      type: "gaussian"
      std: 0.07
    }
    bias_filler {
      type: "constant"
      value: 0.1
    }
  }
}
layer {
  name: "nonlin1"
  type: "ReLU"
  bottom: "conv1"
  top: "conv1"
}
layer {
  name: "pool1"
  type: "Pooling"
  bottom: "conv1"
  top: "pool1"
  pooling_param {
    pool: MAX
    kernel_size: 2
    stride: 2
    engine: CAFFE
  }
}
layer {
  name: "conv2"
  type: "Convolution"
  bottom: "pool1"
  top: "conv2"
  param {
    lr_mult: 1
    decay_mult: 1
  }
  param {
    lr_mult: 2
    decay_mult: 0
  }
  convolution_param {
    num_output: 16
    pad: 0
    kernel_size: 3
    stride: 1
    weight_filler {
      type: "gaussian"
      std: 0.04
    }
    bias_filler {
      type: "constant"
      value: 0.1
    }
  }
}
layer {
  name: "nonlin2"
  type: "ReLU"
  bottom: "conv2"
  top: "conv2"
}
layer {
  name: "pool2"
  type: "Pooling"
  bottom: "conv2"
  top: "pool2"
  pooling_param {
    pool: MAX
    kernel_size: 2
    stride: 2
    engine: CAFFE
  }
}
layer {
  name: "conv3"
  type: "Convolution"
  bottom: "pool2"
  top: "conv3"
  param {
    lr_mult: 1
    decay_mult: 1
  }
  param {
    lr_mult: 2
    decay_mult: 0
  }
  convolution_param {
    num_output: 16
    pad: 0
    kernel_size: 3
    stride: 1
    weight_filler {
      type: "gaussian"
      std: 0.04
    }
    bias_filler {
      type: "constant"
      value: 0.1
    }
  }
}
layer {
  name: "nonlin3"
  type: "ReLU"
  bottom: "conv3"
  top: "conv3"
}
layer {
  name: "pool3"
  type: "Pooling"
  bottom: "conv3"
  top: "pool3"
  pooling_param {
    pool: MAX
    kernel_size: 2
    stride: 2
    engine: CAFFE
  }
}
layer {
  name: "conv4"
  type: "Convolution"
  bottom: "pool3"
  top: "conv4"
  param {
    lr_mult: 1
    decay_mult: 1
  }
  param {
    lr_mult: 2
    decay_mult: 0
  }
  convolution_param {
    num_output: 16
    pad: 0
    kernel_size: 3
    stride: 1
    weight_filler {
      type: "gaussian"
      std: 0.04
    }
    bias_filler {
      type: "constant"
      value: 0.1
    }
  }
}
layer {
  name: "nonlin4"
  type: "ReLU"
  bottom: "conv4"
  top: "conv4"
}
layer {
  name: "pool4"
  type: "Pooling"
  bottom: "conv4"
  top: "pool4"
  pooling_param {
    pool: MAX
    kernel_size: 2
    stride: 2
    engine: CAFFE
  }
}
layer {
  name: "ip1_c"
  type: "Convolution"
  bottom: "pool4"
  top: "ip1"
  convolution_param {
    num_output: 200
    pad: 0
    kernel_size: 2
    stride: 1
    weight_filler {
      type: "gaussian"
      std: 0.03
    }
    bias_filler {
      type: "constant"
      value: 0.1
    }
  }
}
layer {
  name: "nonlin_ip1"
  type: "ReLU"
  bottom: "ip1"
  top: "ip1"
}
layer {
  name: "ip2_c"
  type: "Convolution"
  bottom: "ip1"
  top: "ip2"
  convolution_param {
    num_output: 2
    pad: 0
    kernel_size: 1
    stride: 1
    weight_filler {
      type: "gaussian"
      std: 0.06
    }
    bias_filler {
      type: "constant"
      value: 0.1
    }
  }
}
layer {
  name: "accuracy"
  type: "Accuracy"
  bottom: "ip2"
  bottom: "label"
  top: "accuracy"
  include {
    phase: TEST
  }
}
layer {
  name: "loss"
  type: "SoftmaxWithLoss"
  bottom: "ip2"
  bottom: "label"
  top: "loss"
}
I0822 14:12:52.730563  4118 layer_factory.hpp:76] Creating layer data
I0822 14:12:52.730589  4118 net.cpp:110] Creating Layer data
I0822 14:12:52.730602  4118 net.cpp:433] data -> data
I0822 14:12:52.730617  4118 net.cpp:433] data -> label
I0822 14:12:52.730661  4118 image_data_layer.cpp:36] Opening file ../../../step01_generate_traing_data/training_examples/list_stage2_te.lst
I0822 14:12:52.770262  4118 image_data_layer.cpp:46] Shuffling data
I0822 14:12:52.778971  4118 image_data_layer.cpp:51] A total of 80574 images.
I0822 14:12:52.779419  4118 image_data_layer.cpp:78] output data size: 128,3,63,63
I0822 14:12:52.794777  4118 net.cpp:155] Setting up data
I0822 14:12:52.794832  4118 net.cpp:163] Top shape: 128 3 63 63 (1524096)
I0822 14:12:52.794845  4118 net.cpp:163] Top shape: 128 (128)
I0822 14:12:52.794858  4118 layer_factory.hpp:76] Creating layer label_data_1_split
I0822 14:12:52.794883  4118 net.cpp:110] Creating Layer label_data_1_split
I0822 14:12:52.794896  4118 net.cpp:477] label_data_1_split <- label
I0822 14:12:52.794910  4118 net.cpp:433] label_data_1_split -> label_data_1_split_0
I0822 14:12:52.794929  4118 net.cpp:433] label_data_1_split -> label_data_1_split_1
I0822 14:12:52.794950  4118 net.cpp:155] Setting up label_data_1_split
I0822 14:12:52.794962  4118 net.cpp:163] Top shape: 128 (128)
I0822 14:12:52.794972  4118 net.cpp:163] Top shape: 128 (128)
I0822 14:12:52.794982  4118 layer_factory.hpp:76] Creating layer conv1
I0822 14:12:52.795002  4118 net.cpp:110] Creating Layer conv1
I0822 14:12:52.795014  4118 net.cpp:477] conv1 <- data
I0822 14:12:52.795025  4118 net.cpp:433] conv1 -> conv1
I0822 14:12:52.796308  4118 net.cpp:155] Setting up conv1
I0822 14:12:52.796337  4118 net.cpp:163] Top shape: 128 16 60 60 (7372800)
I0822 14:12:52.796373  4118 layer_factory.hpp:76] Creating layer nonlin1
I0822 14:12:52.796393  4118 net.cpp:110] Creating Layer nonlin1
I0822 14:12:52.796399  4118 net.cpp:477] nonlin1 <- conv1
I0822 14:12:52.796417  4118 net.cpp:419] nonlin1 -> conv1 (in-place)
I0822 14:12:52.796632  4118 net.cpp:155] Setting up nonlin1
I0822 14:12:52.796641  4118 net.cpp:163] Top shape: 128 16 60 60 (7372800)
I0822 14:12:52.796646  4118 layer_factory.hpp:76] Creating layer pool1
I0822 14:12:52.796656  4118 net.cpp:110] Creating Layer pool1
I0822 14:12:52.796663  4118 net.cpp:477] pool1 <- conv1
I0822 14:12:52.796671  4118 net.cpp:433] pool1 -> pool1
I0822 14:12:52.796680  4118 net.cpp:155] Setting up pool1
I0822 14:12:52.796686  4118 net.cpp:163] Top shape: 128 16 30 30 (1843200)
I0822 14:12:52.796691  4118 layer_factory.hpp:76] Creating layer conv2
I0822 14:12:52.796701  4118 net.cpp:110] Creating Layer conv2
I0822 14:12:52.796705  4118 net.cpp:477] conv2 <- pool1
I0822 14:12:52.796713  4118 net.cpp:433] conv2 -> conv2
I0822 14:12:52.799149  4118 net.cpp:155] Setting up conv2
I0822 14:12:52.799183  4118 net.cpp:163] Top shape: 128 16 28 28 (1605632)
I0822 14:12:52.799199  4118 layer_factory.hpp:76] Creating layer nonlin2
I0822 14:12:52.799211  4118 net.cpp:110] Creating Layer nonlin2
I0822 14:12:52.799221  4118 net.cpp:477] nonlin2 <- conv2
I0822 14:12:52.799240  4118 net.cpp:419] nonlin2 -> conv2 (in-place)
I0822 14:12:52.799572  4118 net.cpp:155] Setting up nonlin2
I0822 14:12:52.799602  4118 net.cpp:163] Top shape: 128 16 28 28 (1605632)
I0822 14:12:52.799613  4118 layer_factory.hpp:76] Creating layer pool2
I0822 14:12:52.799625  4118 net.cpp:110] Creating Layer pool2
I0822 14:12:52.799634  4118 net.cpp:477] pool2 <- conv2
I0822 14:12:52.799646  4118 net.cpp:433] pool2 -> pool2
I0822 14:12:52.799666  4118 net.cpp:155] Setting up pool2
I0822 14:12:52.799677  4118 net.cpp:163] Top shape: 128 16 14 14 (401408)
I0822 14:12:52.799685  4118 layer_factory.hpp:76] Creating layer conv3
I0822 14:12:52.799701  4118 net.cpp:110] Creating Layer conv3
I0822 14:12:52.799711  4118 net.cpp:477] conv3 <- pool2
I0822 14:12:52.799721  4118 net.cpp:433] conv3 -> conv3
I0822 14:12:52.800648  4118 net.cpp:155] Setting up conv3
I0822 14:12:52.800683  4118 net.cpp:163] Top shape: 128 16 12 12 (294912)
I0822 14:12:52.800698  4118 layer_factory.hpp:76] Creating layer nonlin3
I0822 14:12:52.800710  4118 net.cpp:110] Creating Layer nonlin3
I0822 14:12:52.800721  4118 net.cpp:477] nonlin3 <- conv3
I0822 14:12:52.800734  4118 net.cpp:419] nonlin3 -> conv3 (in-place)
I0822 14:12:52.800907  4118 net.cpp:155] Setting up nonlin3
I0822 14:12:52.800937  4118 net.cpp:163] Top shape: 128 16 12 12 (294912)
I0822 14:12:52.800947  4118 layer_factory.hpp:76] Creating layer pool3
I0822 14:12:52.800957  4118 net.cpp:110] Creating Layer pool3
I0822 14:12:52.800966  4118 net.cpp:477] pool3 <- conv3
I0822 14:12:52.800976  4118 net.cpp:433] pool3 -> pool3
I0822 14:12:52.800990  4118 net.cpp:155] Setting up pool3
I0822 14:12:52.801002  4118 net.cpp:163] Top shape: 128 16 6 6 (73728)
I0822 14:12:52.801009  4118 layer_factory.hpp:76] Creating layer conv4
I0822 14:12:52.801028  4118 net.cpp:110] Creating Layer conv4
I0822 14:12:52.801038  4118 net.cpp:477] conv4 <- pool3
I0822 14:12:52.801049  4118 net.cpp:433] conv4 -> conv4
I0822 14:12:52.801959  4118 net.cpp:155] Setting up conv4
I0822 14:12:52.801980  4118 net.cpp:163] Top shape: 128 16 4 4 (32768)
I0822 14:12:52.801993  4118 layer_factory.hpp:76] Creating layer nonlin4
I0822 14:12:52.802006  4118 net.cpp:110] Creating Layer nonlin4
I0822 14:12:52.802016  4118 net.cpp:477] nonlin4 <- conv4
I0822 14:12:52.802026  4118 net.cpp:419] nonlin4 -> conv4 (in-place)
I0822 14:12:52.802201  4118 net.cpp:155] Setting up nonlin4
I0822 14:12:52.802217  4118 net.cpp:163] Top shape: 128 16 4 4 (32768)
I0822 14:12:52.802227  4118 layer_factory.hpp:76] Creating layer pool4
I0822 14:12:52.802240  4118 net.cpp:110] Creating Layer pool4
I0822 14:12:52.802250  4118 net.cpp:477] pool4 <- conv4
I0822 14:12:52.802259  4118 net.cpp:433] pool4 -> pool4
I0822 14:12:52.802274  4118 net.cpp:155] Setting up pool4
I0822 14:12:52.802284  4118 net.cpp:163] Top shape: 128 16 2 2 (8192)
I0822 14:12:52.802294  4118 layer_factory.hpp:76] Creating layer ip1_c
I0822 14:12:52.802307  4118 net.cpp:110] Creating Layer ip1_c
I0822 14:12:52.802330  4118 net.cpp:477] ip1_c <- pool4
I0822 14:12:52.802341  4118 net.cpp:433] ip1_c -> ip1
I0822 14:12:52.806123  4118 net.cpp:155] Setting up ip1_c
I0822 14:12:52.806146  4118 net.cpp:163] Top shape: 128 200 1 1 (25600)
I0822 14:12:52.806167  4118 layer_factory.hpp:76] Creating layer nonlin_ip1
I0822 14:12:52.806180  4118 net.cpp:110] Creating Layer nonlin_ip1
I0822 14:12:52.806193  4118 net.cpp:477] nonlin_ip1 <- ip1
I0822 14:12:52.806202  4118 net.cpp:419] nonlin_ip1 -> ip1 (in-place)
I0822 14:12:52.807237  4118 net.cpp:155] Setting up nonlin_ip1
I0822 14:12:52.807268  4118 net.cpp:163] Top shape: 128 200 1 1 (25600)
I0822 14:12:52.807277  4118 layer_factory.hpp:76] Creating layer ip2_c
I0822 14:12:52.807296  4118 net.cpp:110] Creating Layer ip2_c
I0822 14:12:52.807306  4118 net.cpp:477] ip2_c <- ip1
I0822 14:12:52.807318  4118 net.cpp:433] ip2_c -> ip2
I0822 14:12:52.808706  4118 net.cpp:155] Setting up ip2_c
I0822 14:12:52.808740  4118 net.cpp:163] Top shape: 128 2 1 1 (256)
I0822 14:12:52.808753  4118 layer_factory.hpp:76] Creating layer ip2_ip2_c_0_split
I0822 14:12:52.808765  4118 net.cpp:110] Creating Layer ip2_ip2_c_0_split
I0822 14:12:52.808775  4118 net.cpp:477] ip2_ip2_c_0_split <- ip2
I0822 14:12:52.808789  4118 net.cpp:433] ip2_ip2_c_0_split -> ip2_ip2_c_0_split_0
I0822 14:12:52.808802  4118 net.cpp:433] ip2_ip2_c_0_split -> ip2_ip2_c_0_split_1
I0822 14:12:52.808816  4118 net.cpp:155] Setting up ip2_ip2_c_0_split
I0822 14:12:52.808826  4118 net.cpp:163] Top shape: 128 2 1 1 (256)
I0822 14:12:52.808835  4118 net.cpp:163] Top shape: 128 2 1 1 (256)
I0822 14:12:52.808845  4118 layer_factory.hpp:76] Creating layer accuracy
I0822 14:12:52.808859  4118 net.cpp:110] Creating Layer accuracy
I0822 14:12:52.808868  4118 net.cpp:477] accuracy <- ip2_ip2_c_0_split_0
I0822 14:12:52.808878  4118 net.cpp:477] accuracy <- label_data_1_split_0
I0822 14:12:52.808892  4118 net.cpp:433] accuracy -> accuracy
I0822 14:12:52.808909  4118 net.cpp:155] Setting up accuracy
…
