…
I0715 17:12:46.242296 37548 net.cpp:322] The NetState phase (0) differed from the phase (1) specified by a rule in layer data
I0715 17:12:46.242602 37548 net.cpp:49] Initializing net from parameters: 
name: "Result Layer 3 Stack"
state {
  phase: TRAIN
}
layer {
  name: "data"
  type: "ImageData"
  top: "data"
  top: "label"
  include {
    phase: TRAIN
  }
  transform_param {
    mirror: true
    mean_value: 163
    mean_value: 116
    mean_value: 181
  }
  image_data_param {
    source: "../lists/mitosis_train.lst"
    batch_size: 6
    shuffle: true
  }
}
layer {
  name: "conv11"
  type: "Convolution"
  bottom: "data"
  top: "conv11"
  param {
    lr_mult: 0
    decay_mult: 1
  }
  param {
    lr_mult: 0
    decay_mult: 0
  }
  convolution_param {
    num_output: 32
    pad: 1
    stride: 1
    weight_filler {
      type: "xavier"
    }
    bias_filler {
      type: "constant"
    }
    kernel_h: 3
    kernel_w: 3
  }
}
layer {
  name: "relu11"
  type: "ReLU"
  bottom: "conv11"
  top: "conv11"
}
layer {
  name: "conv12"
  type: "Convolution"
  bottom: "conv11"
  top: "conv12"
  param {
    lr_mult: 0
    decay_mult: 1
  }
  param {
    lr_mult: 0
    decay_mult: 0
  }
  convolution_param {
    num_output: 64
    pad: 1
    stride: 1
    weight_filler {
      type: "xavier"
    }
    bias_filler {
      type: "constant"
    }
    kernel_h: 3
    kernel_w: 3
  }
}
layer {
  name: "relu12"
  type: "ReLU"
  bottom: "conv12"
  top: "conv12"
}
layer {
  name: "pool1"
  type: "Pooling"
  bottom: "conv12"
  top: "pool1"
  pooling_param {
    pool: MAX
    kernel_size: 2
    stride: 2
  }
}
layer {
  name: "conv21"
  type: "Convolution"
  bottom: "pool1"
  top: "conv21"
  param {
    lr_mult: 0
    decay_mult: 1
  }
  param {
    lr_mult: 0
    decay_mult: 0
  }
  convolution_param {
    num_output: 64
    pad: 1
    stride: 1
    weight_filler {
      type: "xavier"
    }
    bias_filler {
      type: "constant"
    }
    kernel_h: 3
    kernel_w: 3
  }
}
layer {
  name: "relu21"
  type: "ReLU"
  bottom: "conv21"
  top: "conv21"
}
layer {
  name: "conv22"
  type: "Convolution"
  bottom: "conv21"
  top: "conv22"
  param {
    lr_mult: 0
    decay_mult: 1
  }
  param {
    lr_mult: 0
    decay_mult: 0
  }
  convolution_param {
    num_output: 128
    pad: 1
    stride: 1
    weight_filler {
      type: "xavier"
    }
    bias_filler {
      type: "constant"
    }
    kernel_h: 3
    kernel_w: 3
  }
}
layer {
  name: "relu22"
  type: "ReLU"
  bottom: "conv22"
  top: "conv22"
}
layer {
  name: "pool2"
  type: "Pooling"
  bottom: "conv22"
  top: "pool2"
  pooling_param {
    pool: MAX
    kernel_size: 2
    stride: 2
  }
}
layer {
  name: "conv31"
  type: "Convolution"
  bottom: "pool2"
  top: "conv31"
  param {
    lr_mult: 0
    decay_mult: 1
  }
  param {
    lr_mult: 0
    decay_mult: 0
  }
  convolution_param {
    num_output: 96
    pad: 1
    stride: 1
    weight_filler {
      type: "xavier"
    }
    bias_filler {
      type: "constant"
    }
    kernel_h: 3
    kernel_w: 3
  }
}
layer {
  name: "relu31"
  type: "ReLU"
  bottom: "conv31"
  top: "conv31"
}
layer {
  name: "conv32"
  type: "Convolution"
  bottom: "conv31"
  top: "conv32"
  param {
    lr_mult: 0
    decay_mult: 1
  }
  param {
    lr_mult: 0
    decay_mult: 0
  }
  convolution_param {
    num_output: 192
    pad: 1
    stride: 1
    weight_filler {
      type: "xavier"
    }
    bias_filler {
      type: "constant"
    }
    kernel_h: 3
    kernel_w: 3
  }
}
layer {
  name: "relu32"
  type: "ReLU"
  bottom: "conv32"
  top: "conv32"
}
layer {
  name: "pool3"
  type: "Pooling"
  bottom: "conv32"
  top: "pool3"
  pooling_param {
    pool: MAX
    kernel_size: 2
    stride: 2
  }
}
layer {
  name: "conv41"
  type: "Convolution"
  bottom: "pool3"
  top: "conv41"
  param {
    lr_mult: 0
    decay_mult: 1
  }
  param {
    lr_mult: 0
    decay_mult: 0
  }
  convolution_param {
    num_output: 128
    pad: 1
    stride: 1
    weight_filler {
      type: "xavier"
    }
    bias_filler {
      type: "constant"
    }
    kernel_h: 3
    kernel_w: 3
  }
}
layer {
  name: "relu41"
  type: "ReLU"
  bottom: "conv41"
  top: "conv41"
}
layer {
  name: "conv42"
  type: "Convolution"
  bottom: "conv41"
  top: "conv42"
  param {
    lr_mult: 0
    decay_mult: 1
  }
  param {
    lr_mult: 0
    decay_mult: 0
  }
  convolution_param {
    num_output: 256
    pad: 1
    stride: 1
    weight_filler {
      type: "xavier"
    }
    bias_filler {
      type: "constant"
    }
    kernel_h: 3
    kernel_w: 3
  }
}
layer {
  name: "relu42"
  type: "ReLU"
  bottom: "conv42"
  top: "conv42"
}
layer {
  name: "pool4"
  type: "Pooling"
  bottom: "conv42"
  top: "pool4"
  pooling_param {
    pool: MAX
    kernel_size: 2
    stride: 2
  }
}
layer {
  name: "conv51"
  type: "Convolution"
  bottom: "pool4"
  top: "conv51"
  param {
    lr_mult: 0
    decay_mult: 1
  }
  param {
    lr_mult: 0
    decay_mult: 0
  }
  convolution_param {
    num_output: 256
    pad: 1
    stride: 1
    weight_filler {
      type: "xavier"
    }
    bias_filler {
      type: "constant"
    }
    kernel_h: 3
    kernel_w: 3
  }
}
layer {
  name: "relu51"
  type: "ReLU"
  bottom: "conv51"
  top: "conv51"
}
layer {
  name: "conv52"
  type: "Convolution"
  bottom: "conv51"
  top: "conv52"
  param {
    lr_mult: 0
    decay_mult: 1
  }
  param {
    lr_mult: 0
    decay_mult: 0
  }
  convolution_param {
    num_output: 256
    pad: 1
    stride: 1
    weight_filler {
      type: "xavier"
    }
    bias_filler {
      type: "constant"
    }
    kernel_h: 3
    kernel_w: 3
  }
}
layer {
  name: "relu52"
  type: "ReLU"
  bottom: "conv52"
  top: "conv52"
}
layer {
  name: "conv53"
  type: "Convolution"
  bottom: "conv52"
  top: "conv53"
  param {
    lr_mult: 0
    decay_mult: 1
  }
  param {
    lr_mult: 0
    decay_mult: 0
  }
  convolution_param {
    num_output: 256
    pad: 0
    stride: 1
    weight_filler {
      type: "xavier"
    }
    bias_filler {
      type: "constant"
    }
    kernel_h: 7
    kernel_w: 7
  }
}
layer {
  name: "relu53"
  type: "ReLU"
  bottom: "conv53"
  top: "conv53"
}
layer {
  name: "conv_c"
  type: "Convolution"
  bottom: "conv53"
  top: "conv_c"
  param {
    lr_mult: 0
    decay_mult: 1
  }
  param {
    lr_mult: 0
    decay_mult: 0
  }
  convolution_param {
    num_output: 2
    pad: 0
    stride: 1
    weight_filler {
      type: "xavier"
    }
    bias_filler {
      type: "constant"
    }
    kernel_h: 1
    kernel_w: 1
  }
}
layer {
  name: "interloss"
  type: "Softmax"
  bottom: "conv_c"
  top: "interloss"
}
layer {
  name: "conv61"
  type: "Convolution"
  bottom: "interloss"
  top: "conv61"
  param {
    lr_mult: 1
    decay_mult: 1
  }
  param {
    lr_mult: 2
    decay_mult: 0
  }
  convolution_param {
    num_output: 64
    pad: 1
    stride: 1
    weight_filler {
      type: "xavier"
    }
    bias_filler {
      type: "constant"
    }
    kernel_h: 3
    kernel_w: 3
  }
}
layer {
  name: "relu61"
  type: "ReLU"
  bottom: "conv61"
  top: "conv61"
}
layer {
  name: "conv62"
  type: "Convolution"
  bottom: "conv61"
  top: "conv62"
  param {
    lr_mult: 1
    decay_mult: 1
  }
  param {
    lr_mult: 2
    decay_mult: 0
  }
  convolution_param {
    num_output: 64
    pad: 1
    stride: 1
    weight_filler {
      type: "xavier"
    }
    bias_filler {
      type: "constant"
    }
    kernel_h: 3
    kernel_w: 3
  }
}
layer {
  name: "relu62"
  type: "ReLU"
  bottom: "conv62"
  top: "conv62"
}
layer {
  name: "pool5"
  type: "Pooling"
  bottom: "conv62"
  top: "pool5"
  pooling_param {
    pool: MAX
    kernel_size: 2
    stride: 2
  }
}
layer {
  name: "conv71"
  type: "Convolution"
  bottom: "pool5"
  top: "conv71"
  param {
    lr_mult: 1
    decay_mult: 1
  }
  param {
    lr_mult: 2
    decay_mult: 0
  }
  convolution_param {
    num_output: 96
    pad: 1
    stride: 1
    weight_filler {
      type: "xavier"
    }
    bias_filler {
      type: "constant"
    }
    kernel_h: 3
    kernel_w: 3
  }
}
layer {
  name: "relu71"
  type: "ReLU"
  bottom: "conv71"
  top: "conv71"
}
layer {
  name: "conv72"
  type: "Convolution"
  bottom: "conv71"
  top: "conv72"
  param {
    lr_mult: 1
    decay_mult: 1
  }
  param {
    lr_mult: 2
    decay_mult: 0
  }
  convolution_param {
    num_output: 96
    pad: 1
    stride: 1
    weight_filler {
      type: "xavier"
    }
    bias_filler {
      type: "constant"
    }
    kernel_h: 3
    kernel_w: 3
  }
}
layer {
  name: "relu72"
  type: "ReLU"
  bottom: "conv72"
  top: "conv72"
}
layer {
  name: "pool6"
  type: "Pooling"
  bottom: "conv72"
  top: "pool6"
  pooling_param {
    pool: MAX
    kernel_size: 2
    stride: 2
  }
}
layer {
  name: "conv81"
  type: "Convolution"
  bottom: "pool6"
  top: "conv81"
  param {
    lr_mult: 1
    decay_mult: 1
  }
  param {
    lr_mult: 2
    decay_mult: 0
  }
  convolution_param {
    num_output: 128
    pad: 1
    stride: 1
    weight_filler {
      type: "xavier"
    }
    bias_filler {
      type: "constant"
    }
    kernel_h: 3
    kernel_w: 3
  }
}
layer {
  name: "relu81"
  type: "ReLU"
  bottom: "conv81"
  top: "conv81"
}
layer {
  name: "conv82"
  type: "Convolution"
  bottom: "conv81"
  top: "conv82"
  param {
    lr_mult: 1
    decay_mult: 1
  }
  param {
    lr_mult: 2
    decay_mult: 0
  }
  convolution_param {
    num_output: 128
    pad: 1
    stride: 1
    weight_filler {
      type: "xavier"
    }
    bias_filler {
      type: "constant"
    }
    kernel_h: 3
    kernel_w: 3
  }
}
layer {
  name: "relu82"
  type: "ReLU"
  bottom: "conv82"
  top: "conv82"
}
layer {
  name: "pool7"
  type: "Pooling"
  bottom: "conv82"
  top: "pool7"
  pooling_param {
    pool: AVE
    kernel_size: 2
    stride: 2
  }
}
layer {
  name: "drop0"
  type: "Dropout"
  bottom: "pool7"
  top: "pool7"
  dropout_param {
    dropout_ratio: 0.4
  }
}
layer {
  name: "conv91"
  type: "Convolution"
  bottom: "pool7"
  top: "conv91"
  param {
    lr_mult: 1
    decay_mult: 1
  }
  param {
    lr_mult: 2
    decay_mult: 0
  }
  convolution_param {
    num_output: 3
    stride: 1
    weight_filler {
      type: "xavier"
    }
    bias_filler {
      type: "constant"
    }
    kernel_h: 8
    kernel_w: 8
  }
}
layer {
  name: "accuracy"
  type: "Accuracy"
  bottom: "conv91"
  bottom: "label"
  top: "accuracy"
}
layer {
  name: "loss"
  type: "SoftmaxWithLoss"
  bottom: "conv91"
  bottom: "label"
  top: "loss"
}
I0715 17:12:46.245317 37548 layer_factory.hpp:76] Creating layer data
I0715 17:12:46.245373 37548 net.cpp:106] Creating Layer data
I0715 17:12:46.245389 37548 net.cpp:411] data -> data
I0715 17:12:46.245427 37548 net.cpp:411] data -> label
I0715 17:12:46.245864 37548 image_data_layer.cpp:36] Opening file ../lists/mitosis_train.lst
I0715 17:12:46.257155 37548 image_data_layer.cpp:46] Shuffling data
I0715 17:12:46.258656 37548 image_data_layer.cpp:51] A total of 21366 images.
I0715 17:12:46.690198 37548 image_data_layer.cpp:78] output data size: 6,3,1000,1000
I0715 17:12:46.869698 37548 net.cpp:150] Setting up data
I0715 17:12:46.869817 37548 net.cpp:157] Top shape: 6 3 1000 1000 (18000000)
I0715 17:12:46.869840 37548 net.cpp:157] Top shape: 6 (6)
I0715 17:12:46.869845 37548 net.cpp:165] Memory required for data: 72000024
I0715 17:12:46.869866 37548 layer_factory.hpp:76] Creating layer label_data_1_split
I0715 17:12:46.869884 37548 net.cpp:106] Creating Layer label_data_1_split
I0715 17:12:46.869892 37548 net.cpp:454] label_data_1_split <- label
I0715 17:12:46.869920 37548 net.cpp:411] label_data_1_split -> label_data_1_split_0
I0715 17:12:46.869933 37548 net.cpp:411] label_data_1_split -> label_data_1_split_1
I0715 17:12:46.870038 37548 net.cpp:150] Setting up label_data_1_split
I0715 17:12:46.870055 37548 net.cpp:157] Top shape: 6 (6)
I0715 17:12:46.870110 37548 net.cpp:157] Top shape: 6 (6)
I0715 17:12:46.870115 37548 net.cpp:165] Memory required for data: 72000072
I0715 17:12:46.870120 37548 layer_factory.hpp:76] Creating layer conv11
I0715 17:12:46.870146 37548 net.cpp:106] Creating Layer conv11
I0715 17:12:46.870151 37548 net.cpp:454] conv11 <- data
I0715 17:12:46.870157 37548 net.cpp:411] conv11 -> conv11
I0715 17:12:47.091138 37548 net.cpp:150] Setting up conv11
I0715 17:12:47.091214 37548 net.cpp:157] Top shape: 6 32 1000 1000 (192000000)
I0715 17:12:47.091225 37548 net.cpp:165] Memory required for data: 840000072
I0715 17:12:47.091275 37548 layer_factory.hpp:76] Creating layer relu11
I0715 17:12:47.091311 37548 net.cpp:106] Creating Layer relu11
I0715 17:12:47.091323 37548 net.cpp:454] relu11 <- conv11
I0715 17:12:47.091336 37548 net.cpp:397] relu11 -> conv11 (in-place)
I0715 17:12:47.091598 37548 net.cpp:150] Setting up relu11
I0715 17:12:47.091615 37548 net.cpp:157] Top shape: 6 32 1000 1000 (192000000)
I0715 17:12:47.091624 37548 net.cpp:165] Memory required for data: 1608000072
I0715 17:12:47.091634 37548 layer_factory.hpp:76] Creating layer conv12
I0715 17:12:47.091665 37548 net.cpp:106] Creating Layer conv12
I0715 17:12:47.091675 37548 net.cpp:454] conv12 <- conv11
I0715 17:12:47.091687 37548 net.cpp:411] conv12 -> conv12
I0715 17:12:47.103013 37548 net.cpp:150] Setting up conv12
I0715 17:12:47.103063 37548 net.cpp:157] Top shape: 6 64 1000 1000 (384000000)
I0715 17:12:47.103073 37548 net.cpp:165] Memory required for data: 3144000072
I0715 17:12:47.103101 37548 layer_factory.hpp:76] Creating layer relu12
I0715 17:12:47.103124 37548 net.cpp:106] Creating Layer relu12
I0715 17:12:47.103134 37548 net.cpp:454] relu12 <- conv12
I0715 17:12:47.103147 37548 net.cpp:397] relu12 -> conv12 (in-place)
I0715 17:12:47.106683 37548 net.cpp:150] Setting up relu12
I0715 17:12:47.106736 37548 net.cpp:157] Top shape: 6 64 1000 1000 (384000000)
I0715 17:12:47.106746 37548 net.cpp:165] Memory required for data: 4680000072
I0715 17:12:47.106775 37548 layer_factory.hpp:76] Creating layer pool1
I0715 17:12:47.106802 37548 net.cpp:106] Creating Layer pool1
I0715 17:12:47.106814 37548 net.cpp:454] pool1 <- conv12
I0715 17:12:47.106829 37548 net.cpp:411] pool1 -> pool1
I0715 17:12:47.107214 37548 net.cpp:150] Setting up pool1
I0715 17:12:47.107233 37548 net.cpp:157] Top shape: 6 64 500 500 (96000000)
I0715 17:12:47.107244 37548 net.cpp:165] Memory required for data: 5064000072
I0715 17:12:47.107250 37548 layer_factory.hpp:76] Creating layer conv21
I0715 17:12:47.107271 37548 net.cpp:106] Creating Layer conv21
I0715 17:12:47.107280 37548 net.cpp:454] conv21 <- pool1
I0715 17:12:47.107292 37548 net.cpp:411] conv21 -> conv21
I0715 17:12:47.115150 37548 cudnn_conv_layer.cpp:194] Reallocating workspace storage: 6912
I0715 17:12:47.116118 37548 net.cpp:150] Setting up conv21
I0715 17:12:47.116148 37548 net.cpp:157] Top shape: 6 64 500 500 (96000000)
I0715 17:12:47.116158 37548 net.cpp:165] Memory required for data: 5448000072
I0715 17:12:47.116181 37548 layer_factory.hpp:76] Creating layer relu21
I0715 17:12:47.116207 37548 net.cpp:106] Creating Layer relu21
I0715 17:12:47.116220 37548 net.cpp:454] relu21 <- conv21
I0715 17:12:47.116233 37548 net.cpp:397] relu21 -> conv21 (in-place)
I0715 17:12:47.117053 37548 net.cpp:150] Setting up relu21
I0715 17:12:47.117072 37548 net.cpp:157] Top shape: 6 64 500 500 (96000000)
I0715 17:12:47.117086 37548 net.cpp:165] Memory required for data: 5832000072
I0715 17:12:47.117095 37548 layer_factory.hpp:76] Creating layer conv22
I0715 17:12:47.117115 37548 net.cpp:106] Creating Layer conv22
I0715 17:12:47.117122 37548 net.cpp:454] conv22 <- conv21
I0715 17:12:47.117132 37548 net.cpp:411] conv22 -> conv22
I0715 17:12:47.120327 37548 cudnn_conv_layer.cpp:194] Reallocating workspace storage: 6912
I0715 17:12:47.120368 37548 net.cpp:150] Setting up conv22
I0715 17:12:47.120380 37548 net.cpp:157] Top shape: 6 128 500 500 (192000000)
I0715 17:12:47.120388 37548 net.cpp:165] Memory required for data: 6600000072
I0715 17:12:47.120400 37548 layer_factory.hpp:76] Creating layer relu22
I0715 17:12:47.120435 37548 net.cpp:106] Creating Layer relu22
I0715 17:12:47.120445 37548 net.cpp:454] relu22 <- conv22
I0715 17:12:47.120455 37548 net.cpp:397] relu22 -> conv22 (in-place)
I0715 17:12:47.121078 37548 net.cpp:150] Setting up relu22
I0715 17:12:47.121100 37548 net.cpp:157] Top shape: 6 128 500 500 (192000000)
I0715 17:12:47.121109 37548 net.cpp:165] Memory required for data: 7368000072
I0715 17:12:47.121117 37548 layer_factory.hpp:76] Creating layer pool2
I0715 17:12:47.121132 37548 net.cpp:106] Creating Layer pool2
I0715 17:12:47.121140 37548 net.cpp:454] pool2 <- conv22
I0715 17:12:47.121150 37548 net.cpp:411] pool2 -> pool2
I0715 17:12:47.121369 37548 net.cpp:150] Setting up pool2
I0715 17:12:47.121387 37548 net.cpp:157] Top shape: 6 128 250 250 (48000000)
I0715 17:12:47.121393 37548 net.cpp:165] Memory required for data: 7560000072
I0715 17:12:47.121402 37548 layer_factory.hpp:76] Creating layer conv31
I0715 17:12:47.121415 37548 net.cpp:106] Creating Layer conv31
I0715 17:12:47.121423 37548 net.cpp:454] conv31 <- pool2
I0715 17:12:47.121438 37548 net.cpp:411] conv31 -> conv31
I0715 17:12:47.124038 37548 cudnn_conv_layer.cpp:194] Reallocating workspace storage: 13824
I0715 17:12:47.124078 37548 net.cpp:150] Setting up conv31
I0715 17:12:47.124094 37548 net.cpp:157] Top shape: 6 96 250 250 (36000000)
I0715 17:12:47.124102 37548 net.cpp:165] Memory required for data: 7704000072
I0715 17:12:47.124119 37548 layer_factory.hpp:76] Creating layer relu31
I0715 17:12:47.124131 37548 net.cpp:106] Creating Layer relu31
I0715 17:12:47.124140 37548 net.cpp:454] relu31 <- conv31
I0715 17:12:47.124151 37548 net.cpp:397] relu31 -> conv31 (in-place)
I0715 17:12:47.124732 37548 net.cpp:150] Setting up relu31
I0715 17:12:47.124754 37548 net.cpp:157] Top shape: 6 96 250 250 (36000000)
I0715 17:12:47.124763 37548 net.cpp:165] Memory required for data: 7848000072
I0715 17:12:47.124771 37548 layer_factory.hpp:76] Creating layer conv32
I0715 17:12:47.124788 37548 net.cpp:106] Creating Layer conv32
I0715 17:12:47.124796 37548 net.cpp:454] conv32 <- conv31
I0715 17:12:47.124809 37548 net.cpp:411] conv32 -> conv32
I0715 17:12:47.128419 37548 cudnn_conv_layer.cpp:194] Reallocating workspace storage: 10368
I0715 17:12:47.128451 37548 net.cpp:150] Setting up conv32
I0715 17:12:47.128464 37548 net.cpp:157] Top shape: 6 192 250 250 (72000000)
I0715 17:12:47.128475 37548 net.cpp:165] Memory required for data: 8136000072
I0715 17:12:47.128486 37548 layer_factory.hpp:76] Creating layer relu32
I0715 17:12:47.128500 37548 net.cpp:106] Creating Layer relu32
I0715 17:12:47.128509 37548 net.cpp:454] relu32 <- conv32
I0715 17:12:47.128518 37548 net.cpp:397] relu32 -> conv32 (in-place)
I0715 17:12:47.128701 37548 net.cpp:150] Setting up relu32
I0715 17:12:47.128729 37548 net.cpp:157] Top shape: 6 192 250 250 (72000000)
I0715 17:12:47.128737 37548 net.cpp:165] Memory required for data: 8424000072
I0715 17:12:47.128746 37548 layer_factory.hpp:76] Creating layer pool3
I0715 17:12:47.128762 37548 net.cpp:106] Creating Layer pool3
I0715 17:12:47.128769 37548 net.cpp:454] pool3 <- conv32
I0715 17:12:47.128779 37548 net.cpp:411] pool3 -> pool3
I0715 17:12:47.129783 37548 net.cpp:150] Setting up pool3
I0715 17:12:47.129803 37548 net.cpp:157] Top shape: 6 192 125 125 (18000000)
I0715 17:12:47.129812 37548 net.cpp:165] Memory required for data: 8496000072
I0715 17:12:47.129819 37548 layer_factory.hpp:76] Creating layer conv41
I0715 17:12:47.129837 37548 net.cpp:106] Creating Layer conv41
I0715 17:12:47.129848 37548 net.cpp:454] conv41 <- pool3
I0715 17:12:47.129859 37548 net.cpp:411] conv41 -> conv41
I0715 17:12:47.134296 37548 cudnn_conv_layer.cpp:194] Reallocating workspace storage: 20736
I0715 17:12:47.134960 37548 net.cpp:150] Setting up conv41
I0715 17:12:47.134979 37548 net.cpp:157] Top shape: 6 128 125 125 (12000000)
I0715 17:12:47.134987 37548 net.cpp:165] Memory required for data: 8544000072
I0715 17:12:47.135020 37548 layer_factory.hpp:76] Creating layer relu41
I0715 17:12:47.135031 37548 net.cpp:106] Creating Layer relu41
I0715 17:12:47.135056 37548 net.cpp:454] relu41 <- conv41
I0715 17:12:47.135066 37548 net.cpp:397] relu41 -> conv41 (in-place)
I0715 17:12:47.135500 37548 net.cpp:150] Setting up relu41
I0715 17:12:47.135519 37548 net.cpp:157] Top shape: 6 128 125 125 (12000000)
I0715 17:12:47.135527 37548 net.cpp:165] Memory required for data: 8592000072
I0715 17:12:47.135535 37548 layer_factory.hpp:76] Creating layer conv42
I0715 17:12:47.135551 37548 net.cpp:106] Creating Layer conv42
I0715 17:12:47.135560 37548 net.cpp:454] conv42 <- conv41
I0715 17:12:47.135571 37548 net.cpp:411] conv42 -> conv42
I0715 17:12:47.141144 37548 cudnn_conv_layer.cpp:194] Reallocating workspace storage: 13824
I0715 17:12:47.141177 37548 net.cpp:150] Setting up conv42
I0715 17:12:47.141190 37548 net.cpp:157] Top shape: 6 256 125 125 (24000000)
I0715 17:12:47.141197 37548 net.cpp:165] Memory required for data: 8688000072
I0715 17:12:47.141208 37548 layer_factory.hpp:76] Creating layer relu42
I0715 17:12:47.141222 37548 net.cpp:106] Creating Layer relu42
I0715 17:12:47.141229 37548 net.cpp:454] relu42 <- conv42
I0715 17:12:47.141240 37548 net.cpp:397] relu42 -> conv42 (in-place)
I0715 17:12:47.141407 37548 net.cpp:150] Setting up relu42
I0715 17:12:47.141422 37548 net.cpp:157] Top shape: 6 256 125 125 (24000000)
I0715 17:12:47.141430 37548 net.cpp:165] Memory required for data: 8784000072
I0715 17:12:47.141438 37548 layer_factory.hpp:76] Creating layer pool4
I0715 17:12:47.141450 37548 net.cpp:106] Creating Layer pool4
I0715 17:12:47.141458 37548 net.cpp:454] pool4 <- conv42
I0715 17:12:47.141468 37548 net.cpp:411] pool4 -> pool4
I0715 17:12:47.142279 37548 net.cpp:150] Setting up pool4
I0715 17:12:47.142299 37548 net.cpp:157] Top shape: 6 256 63 63 (6096384)
I0715 17:12:47.142307 37548 net.cpp:165] Memory required for data: 8808385608
I0715 17:12:47.142316 37548 layer_factory.hpp:76] Creating layer conv51
I0715 17:12:47.142331 37548 net.cpp:106] Creating Layer conv51
I0715 17:12:47.142339 37548 net.cpp:454] conv51 <- pool4
I0715 17:12:47.142382 37548 net.cpp:411] conv51 -> conv51
I0715 17:12:47.149451 37548 cudnn_conv_layer.cpp:194] Reallocating workspace storage: 27648
I0715 17:12:47.149487 37548 net.cpp:150] Setting up conv51
I0715 17:12:47.149500 37548 net.cpp:157] Top shape: 6 256 63 63 (6096384)
I0715 17:12:47.149507 37548 net.cpp:165] Memory required for data: 8832771144
I0715 17:12:47.149524 37548 layer_factory.hpp:76] Creating layer relu51
I0715 17:12:47.149538 37548 net.cpp:106] Creating Layer relu51
I0715 17:12:47.149547 37548 net.cpp:454] relu51 <- conv51
I0715 17:12:47.149556 37548 net.cpp:397] relu51 -> conv51 (in-place)
I0715 17:12:47.149751 37548 net.cpp:150] Setting up relu51
I0715 17:12:47.149780 37548 net.cpp:157] Top shape: 6 256 63 63 (6096384)
I0715 17:12:47.149787 37548 net.cpp:165] Memory required for data: 8857156680
I0715 17:12:47.149796 37548 layer_factory.hpp:76] Creating layer conv52
I0715 17:12:47.149814 37548 net.cpp:106] Creating Layer conv52
I0715 17:12:47.149835 37548 net.cpp:454] conv52 <- conv51
I0715 17:12:47.149844 37548 net.cpp:411] conv52 -> conv52
I0715 17:12:47.156244 37548 cudnn_conv_layer.cpp:194] Reallocating workspace storage: 27648
I0715 17:12:47.156275 37548 net.cpp:150] Setting up conv52
I0715 17:12:47.156287 37548 net.cpp:157] Top shape: 6 256 63 63 (6096384)
I0715 17:12:47.156296 37548 net.cpp:165] Memory required for data: 8881542216
I0715 17:12:47.156306 37548 layer_factory.hpp:76] Creating layer relu52
I0715 17:12:47.156322 37548 net.cpp:106] Creating Layer relu52
I0715 17:12:47.156329 37548 net.cpp:454] relu52 <- conv52
I0715 17:12:47.156338 37548 net.cpp:397] relu52 -> conv52 (in-place)
I0715 17:12:47.156704 37548 net.cpp:150] Setting up relu52
I0715 17:12:47.156723 37548 net.cpp:157] Top shape: 6 256 63 63 (6096384)
I0715 17:12:47.156731 37548 net.cpp:165] Memory required for data: 8905927752
I0715 17:12:47.156754 37548 layer_factory.hpp:76] Creating layer conv53
I0715 17:12:47.156769 37548 net.cpp:106] Creating Layer conv53
I0715 17:12:47.156779 37548 net.cpp:454] conv53 <- conv52
I0715 17:12:47.156815 37548 net.cpp:411] conv53 -> conv53
I0715 17:12:47.185356 37548 cudnn_conv_layer.cpp:194] Reallocating workspace storage: 150528
I0715 17:12:47.186106 37548 net.cpp:150] Setting up conv53
I0715 17:12:47.186136 37548 net.cpp:157] Top shape: 6 256 57 57 (4990464)
I0715 17:12:47.186146 37548 net.cpp:165] Memory required for data: 8925889608
I0715 17:12:47.186161 37548 layer_factory.hpp:76] Creating layer relu53
I0715 17:12:47.186178 37548 net.cpp:106] Creating Layer relu53
I0715 17:12:47.186189 37548 net.cpp:454] relu53 <- conv53
I0715 17:12:47.186203 37548 net.cpp:397] relu53 -> conv53 (in-place)
I0715 17:12:47.186859 37548 net.cpp:150] Setting up relu53
I0715 17:12:47.186880 37548 net.cpp:157] Top shape: 6 256 57 57 (4990464)
I0715 17:12:47.186888 37548 net.cpp:165] Memory required for data: 8945851464
I0715 17:12:47.186897 37548 layer_factory.hpp:76] Creating layer conv_c
I0715 17:12:47.186916 37548 net.cpp:106] Creating Layer conv_c
I0715 17:12:47.186926 37548 net.cpp:454] conv_c <- conv53
I0715 17:12:47.186938 37548 net.cpp:411] conv_c -> conv_c
I0715 17:12:47.188570 37548 net.cpp:150] Setting up conv_c
I0715 17:12:47.188591 37548 net.cpp:157] Top shape: 6 2 57 57 (38988)
I0715 17:12:47.188601 37548 net.cpp:165] Memory required for data: 8946007416
I0715 17:12:47.188611 37548 layer_factory.hpp:76] Creating layer interloss
I0715 17:12:47.188627 37548 net.cpp:106] Creating Layer interloss
I0715 17:12:47.188637 37548 net.cpp:454] interloss <- conv_c
I0715 17:12:47.188645 37548 net.cpp:411] interloss -> interloss
I0715 17:12:47.188920 37548 net.cpp:150] Setting up interloss
I0715 17:12:47.188936 37548 net.cpp:157] Top shape: 6 2 57 57 (38988)
I0715 17:12:47.188946 37548 net.cpp:165] Memory required for data: 8946163368
I0715 17:12:47.188956 37548 layer_factory.hpp:76] Creating layer conv61
I0715 17:12:47.188971 37548 net.cpp:106] Creating Layer conv61
I0715 17:12:47.188980 37548 net.cpp:454] conv61 <- interloss
I0715 17:12:47.188992 37548 net.cpp:411] conv61 -> conv61
I0715 17:12:47.190528 37548 cudnn_conv_layer.cpp:194] Reallocating workspace storage: 4210704
I0715 17:12:47.191048 37548 net.cpp:150] Setting up conv61
I0715 17:12:47.191078 37548 net.cpp:157] Top shape: 6 64 57 57 (1247616)
I0715 17:12:47.191087 37548 net.cpp:165] Memory required for data: 8951153832
I0715 17:12:47.191098 37548 layer_factory.hpp:76] Creating layer relu61
I0715 17:12:47.191108 37548 net.cpp:106] Creating Layer relu61
I0715 17:12:47.191118 37548 net.cpp:454] relu61 <- conv61
I0715 17:12:47.191131 37548 net.cpp:397] relu61 -> conv61 (in-place)
I0715 17:12:47.191771 37548 net.cpp:150] Setting up relu61
I0715 17:12:47.191789 37548 net.cpp:157] Top shape: 6 64 57 57 (1247616)
I0715 17:12:47.191799 37548 net.cpp:165] Memory required for data: 8956144296
I0715 17:12:47.191807 37548 layer_factory.hpp:76] Creating layer conv62
I0715 17:12:47.191826 37548 net.cpp:106] Creating Layer conv62
I0715 17:12:47.191834 37548 net.cpp:454] conv62 <- conv61
I0715 17:12:47.191857 37548 net.cpp:411] conv62 -> conv62
I0715 17:12:47.193310 37548 net.cpp:150] Setting up conv62
I0715 17:12:47.193330 37548 net.cpp:157] Top shape: 6 64 57 57 (1247616)
I0715 17:12:47.193341 37548 net.cpp:165] Memory required for data: 8961134760
I0715 17:12:47.193351 37548 layer_factory.hpp:76] Creating layer relu62
I0715 17:12:47.193375 37548 net.cpp:106] Creating Layer relu62
I0715 17:12:47.193385 37548 net.cpp:454] relu62 <- conv62
I0715 17:12:47.193394 37548 net.cpp:397] relu62 -> conv62 (in-place)
I0715 17:12:47.194757 37548 net.cpp:150] Setting up relu62
I0715 17:12:47.194779 37548 net.cpp:157] Top shape: 6 64 57 57 (1247616)
I0715 17:12:47.194788 37548 net.cpp:165] Memory required for data: 8966125224
I0715 17:12:47.194797 37548 layer_factory.hpp:76] Creating layer pool5
I0715 17:12:47.194823 37548 net.cpp:106] Creating Layer pool5
I0715 17:12:47.194831 37548 net.cpp:454] pool5 <- conv62
I0715 17:12:47.194841 37548 net.cpp:411] pool5 -> pool5
I0715 17:12:47.195103 37548 net.cpp:150] Setting up pool5
I0715 17:12:47.195119 37548 net.cpp:157] Top shape: 6 64 29 29 (322944)
I0715 17:12:47.195166 37548 net.cpp:165] Memory required for data: 8967417000
I0715 17:12:47.195179 37548 layer_factory.hpp:76] Creating layer conv71
I0715 17:12:47.195194 37548 net.cpp:106] Creating Layer conv71
I0715 17:12:47.195204 37548 net.cpp:454] conv71 <- pool5
I0715 17:12:47.195214 37548 net.cpp:411] conv71 -> conv71
I0715 17:12:47.197895 37548 cudnn_conv_layer.cpp:194] Reallocating workspace storage: 6912
I0715 17:12:47.197926 37548 net.cpp:150] Setting up conv71
I0715 17:12:47.197937 37548 net.cpp:157] Top shape: 6 96 29 29 (484416)
I0715 17:12:47.197943 37548 net.cpp:165] Memory required for data: 8969354664
I0715 17:12:47.197953 37548 layer_factory.hpp:76] Creating layer relu71
I0715 17:12:47.197963 37548 net.cpp:106] Creating Layer relu71
I0715 17:12:47.197983 37548 net.cpp:454] relu71 <- conv71
I0715 17:12:47.197994 37548 net.cpp:397] relu71 -> conv71 (in-place)
I0715 17:12:47.198592 37548 net.cpp:150] Setting up relu71
I0715 17:12:47.198611 37548 net.cpp:157] Top shape: 6 96 29 29 (484416)
I0715 17:12:47.198637 37548 net.cpp:165] Memory required for data: 8971292328
I0715 17:12:47.198645 37548 layer_factory.hpp:76] Creating layer conv72
I0715 17:12:47.198657 37548 net.cpp:106] Creating Layer conv72
I0715 17:12:47.198665 37548 net.cpp:454] conv72 <- conv71
I0715 17:12:47.198689 37548 net.cpp:411] conv72 -> conv72
I0715 17:12:47.200733 37548 cudnn_conv_layer.cpp:194] Reallocating workspace storage: 10368
I0715 17:12:47.200765 37548 net.cpp:150] Setting up conv72
I0715 17:12:47.200778 37548 net.cpp:157] Top shape: 6 96 29 29 (484416)
I0715 17:12:47.200785 37548 net.cpp:165] Memory required for data: 8973229992
I0715 17:12:47.200809 37548 layer_factory.hpp:76] Creating layer relu72
I0715 17:12:47.200820 37548 net.cpp:106] Creating Layer relu72
I0715 17:12:47.200827 37548 net.cpp:454] relu72 <- conv72
I0715 17:12:47.200837 37548 net.cpp:397] relu72 -> conv72 (in-place)
I0715 17:12:47.201086 37548 net.cpp:150] Setting up relu72
I0715 17:12:47.201102 37548 net.cpp:157] Top shape: 6 96 29 29 (484416)
I0715 17:12:47.201122 37548 net.cpp:165] Memory required for data: 8975167656
I0715 17:12:47.201129 37548 layer_factory.hpp:76] Creating layer pool6
I0715 17:12:47.201138 37548 net.cpp:106] Creating Layer pool6
I0715 17:12:47.201158 37548 net.cpp:454] pool6 <- conv72
I0715 17:12:47.201169 37548 net.cpp:411] pool6 -> pool6
I0715 17:12:47.201882 37548 net.cpp:150] Setting up pool6
I0715 17:12:47.201900 37548 net.cpp:157] Top shape: 6 96 15 15 (129600)
I0715 17:12:47.201913 37548 net.cpp:165] Memory required for data: 8975686056
I0715 17:12:47.201920 37548 layer_factory.hpp:76] Creating layer conv81
I0715 17:12:47.201932 37548 net.cpp:106] Creating Layer conv81
I0715 17:12:47.201952 37548 net.cpp:454] conv81 <- pool6
I0715 17:12:47.201964 37548 net.cpp:411] conv81 -> conv81
I0715 17:12:47.204715 37548 net.cpp:150] Setting up conv81
I0715 17:12:47.204735 37548 net.cpp:157] Top shape: 6 128 15 15 (172800)
I0715 17:12:47.204742 37548 net.cpp:165] Memory required for data: 8976377256
I0715 17:12:47.204761 37548 layer_factory.hpp:76] Creating layer relu81
I0715 17:12:47.204771 37548 net.cpp:106] Creating Layer relu81
I0715 17:12:47.204779 37548 net.cpp:454] relu81 <- conv81
I0715 17:12:47.204789 37548 net.cpp:397] relu81 -> conv81 (in-place)
I0715 17:12:47.205376 37548 net.cpp:150] Setting up relu81
I0715 17:12:47.205406 37548 net.cpp:157] Top shape: 6 128 15 15 (172800)
I0715 17:12:47.205415 37548 net.cpp:165] Memory required for data: 8977068456
I0715 17:12:47.205421 37548 layer_factory.hpp:76] Creating layer conv82
I0715 17:12:47.205437 37548 net.cpp:106] Creating Layer conv82
I0715 17:12:47.205458 37548 net.cpp:454] conv82 <- conv81
I0715 17:12:47.205482 37548 net.cpp:411] conv82 -> conv82
I0715 17:12:47.207855 37548 net.cpp:150] Setting up conv82
I0715 17:12:47.207875 37548 net.cpp:157] Top shape: 6 128 15 15 (172800)
I0715 17:12:47.207882 37548 net.cpp:165] Memory required for data: 8977759656
I0715 17:12:47.207891 37548 layer_factory.hpp:76] Creating layer relu82
I0715 17:12:47.207903 37548 net.cpp:106] Creating Layer relu82
I0715 17:12:47.207929 37548 net.cpp:454] relu82 <- conv82
I0715 17:12:47.207939 37548 net.cpp:397] relu82 -> conv82 (in-place)
I0715 17:12:47.208165 37548 net.cpp:150] Setting up relu82
I0715 17:12:47.208181 37548 net.cpp:157] Top shape: 6 128 15 15 (172800)
I0715 17:12:47.208189 37548 net.cpp:165] Memory required for data: 8978450856
I0715 17:12:47.208196 37548 layer_factory.hpp:76] Creating layer pool7
I0715 17:12:47.208209 37548 net.cpp:106] Creating Layer pool7
I0715 17:12:47.208216 37548 net.cpp:454] pool7 <- conv82
I0715 17:12:47.208230 37548 net.cpp:411] pool7 -> pool7
I0715 17:12:47.208787 37548 net.cpp:150] Setting up pool7
I0715 17:12:47.208804 37548 net.cpp:157] Top shape: 6 128 8 8 (49152)
I0715 17:12:47.208811 37548 net.cpp:165] Memory required for data: 8978647464
I0715 17:12:47.208818 37548 layer_factory.hpp:76] Creating layer drop0
I0715 17:12:47.208835 37548 net.cpp:106] Creating Layer drop0
I0715 17:12:47.208843 37548 net.cpp:454] drop0 <- pool7
I0715 17:12:47.208852 37548 net.cpp:397] drop0 -> pool7 (in-place)
I0715 17:12:47.208895 37548 net.cpp:150] Setting up drop0
I0715 17:12:47.208907 37548 net.cpp:157] Top shape: 6 128 8 8 (49152)
I0715 17:12:47.208915 37548 net.cpp:165] Memory required for data: 8978844072
I0715 17:12:47.208926 37548 layer_factory.hpp:76] Creating layer conv91
I0715 17:12:47.208941 37548 net.cpp:106] Creating Layer conv91
I0715 17:12:47.208950 37548 net.cpp:454] conv91 <- pool7
I0715 17:12:47.208959 37548 net.cpp:411] conv91 -> conv91
I0715 17:12:47.210294 37548 cudnn_conv_layer.cpp:194] Reallocating workspace storage: 98304
I0715 17:12:47.210326 37548 net.cpp:150] Setting up conv91
I0715 17:12:47.210338 37548 net.cpp:157] Top shape: 6 3 1 1 (18)
I0715 17:12:47.210347 37548 net.cpp:165] Memory required for data: 8978844144
I0715 17:12:47.210361 37548 layer_factory.hpp:76] Creating layer conv91_conv91_0_split
I0715 17:12:47.210372 37548 net.cpp:106] Creating Layer conv91_conv91_0_split
I0715 17:12:47.210382 37548 net.cpp:454] conv91_conv91_0_split <- conv91
I0715 17:12:47.210392 37548 net.cpp:411] conv91_conv91_0_split -> conv91_conv91_0_split_0
I0715 17:12:47.210407 37548 net.cpp:411] conv91_conv91_0_split -> conv91_conv91_0_split_1
I0715 17:12:47.210458 37548 net.cpp:150] Setting up conv91_conv91_0_split
I0715 17:12:47.210491 37548 net.cpp:157] Top shape: 6 3 1 1 (18)
I0715 17:12:47.210502 37548 net.cpp:157] Top shape: 6 3 1 1 (18)
I0715 17:12:47.210510 37548 net.cpp:165] Memory required for data: 8978844288
I0715 17:12:47.210531 37548 layer_factory.hpp:76] Creating layer accuracy
I0715 17:12:47.210547 37548 net.cpp:106] Creating Layer accuracy
I0715 17:12:47.210556 37548 net.cpp:454] accuracy <- conv91_conv91_0_split_0
I0715 17:12:47.210566 37548 net.cpp:454] accuracy <- label_data_1_split_0
I0715 17:12:47.210587 37548 net.cpp:411] accuracy -> accuracy
…
