…
I0718 14:14:21.677741 30263 net.cpp:322] The NetState phase (0) differed from the phase (1) specified by a rule in layer data
I0718 14:14:21.678278 30263 net.cpp:49] Initializing net from parameters: 
name: "Result Layer 3 Stack"
state {
  phase: TRAIN
}
layer {
  name: "data"
  type: "ImageData"
  top: "data"
  top: "label"
  include {
    phase: TRAIN
  }
  transform_param {
    mirror: true
    mean_value: 163
    mean_value: 116
    mean_value: 181
  }
  image_data_param {
    source: "../lists/mitosis_train.lst"
    batch_size: 6
    shuffle: true
  }
}
layer {
  name: "conv11"
  type: "Convolution"
  bottom: "data"
  top: "conv11"
  param {
    lr_mult: 0
    decay_mult: 1
  }
  param {
    lr_mult: 0
    decay_mult: 0
  }
  convolution_param {
    num_output: 32
    pad: 1
    stride: 1
    weight_filler {
      type: "xavier"
    }
    bias_filler {
      type: "constant"
    }
    kernel_h: 3
    kernel_w: 3
  }
}
layer {
  name: "relu11"
  type: "ReLU"
  bottom: "conv11"
  top: "conv11"
}
layer {
  name: "conv12"
  type: "Convolution"
  bottom: "conv11"
  top: "conv12"
  param {
    lr_mult: 0
    decay_mult: 1
  }
  param {
    lr_mult: 0
    decay_mult: 0
  }
  convolution_param {
    num_output: 64
    pad: 1
    stride: 1
    weight_filler {
      type: "xavier"
    }
    bias_filler {
      type: "constant"
    }
    kernel_h: 3
    kernel_w: 3
  }
}
layer {
  name: "relu12"
  type: "ReLU"
  bottom: "conv12"
  top: "conv12"
}
layer {
  name: "pool1"
  type: "Pooling"
  bottom: "conv12"
  top: "pool1"
  pooling_param {
    pool: MAX
    kernel_size: 2
    stride: 2
  }
}
layer {
  name: "conv21"
  type: "Convolution"
  bottom: "pool1"
  top: "conv21"
  param {
    lr_mult: 0
    decay_mult: 1
  }
  param {
    lr_mult: 0
    decay_mult: 0
  }
  convolution_param {
    num_output: 64
    pad: 1
    stride: 1
    weight_filler {
      type: "xavier"
    }
    bias_filler {
      type: "constant"
    }
    kernel_h: 3
    kernel_w: 3
  }
}
layer {
  name: "relu21"
  type: "ReLU"
  bottom: "conv21"
  top: "conv21"
}
layer {
  name: "conv22"
  type: "Convolution"
  bottom: "conv21"
  top: "conv22"
  param {
    lr_mult: 0
    decay_mult: 1
  }
  param {
    lr_mult: 0
    decay_mult: 0
  }
  convolution_param {
    num_output: 128
    pad: 1
    stride: 1
    weight_filler {
      type: "xavier"
    }
    bias_filler {
      type: "constant"
    }
    kernel_h: 3
    kernel_w: 3
  }
}
layer {
  name: "relu22"
  type: "ReLU"
  bottom: "conv22"
  top: "conv22"
}
layer {
  name: "pool2"
  type: "Pooling"
  bottom: "conv22"
  top: "pool2"
  pooling_param {
    pool: MAX
    kernel_size: 2
    stride: 2
  }
}
layer {
  name: "conv31"
  type: "Convolution"
  bottom: "pool2"
  top: "conv31"
  param {
    lr_mult: 0
    decay_mult: 1
  }
  param {
    lr_mult: 0
    decay_mult: 0
  }
  convolution_param {
    num_output: 96
    pad: 1
    stride: 1
    weight_filler {
      type: "xavier"
    }
    bias_filler {
      type: "constant"
    }
    kernel_h: 3
    kernel_w: 3
  }
}
layer {
  name: "relu31"
  type: "ReLU"
  bottom: "conv31"
  top: "conv31"
}
layer {
  name: "conv32"
  type: "Convolution"
  bottom: "conv31"
  top: "conv32"
  param {
    lr_mult: 0
    decay_mult: 1
  }
  param {
    lr_mult: 0
    decay_mult: 0
  }
  convolution_param {
    num_output: 192
    pad: 1
    stride: 1
    weight_filler {
      type: "xavier"
    }
    bias_filler {
      type: "constant"
    }
    kernel_h: 3
    kernel_w: 3
  }
}
layer {
  name: "relu32"
  type: "ReLU"
  bottom: "conv32"
  top: "conv32"
}
layer {
  name: "pool3"
  type: "Pooling"
  bottom: "conv32"
  top: "pool3"
  pooling_param {
    pool: MAX
    kernel_size: 2
    stride: 2
  }
}
layer {
  name: "conv41"
  type: "Convolution"
  bottom: "pool3"
  top: "conv41"
  param {
    lr_mult: 0
    decay_mult: 1
  }
  param {
    lr_mult: 0
    decay_mult: 0
  }
  convolution_param {
    num_output: 128
    pad: 1
    stride: 1
    weight_filler {
      type: "xavier"
    }
    bias_filler {
      type: "constant"
    }
    kernel_h: 3
    kernel_w: 3
  }
}
layer {
  name: "relu41"
  type: "ReLU"
  bottom: "conv41"
  top: "conv41"
}
layer {
  name: "conv42"
  type: "Convolution"
  bottom: "conv41"
  top: "conv42"
  param {
    lr_mult: 0
    decay_mult: 1
  }
  param {
    lr_mult: 0
    decay_mult: 0
  }
  convolution_param {
    num_output: 256
    pad: 1
    stride: 1
    weight_filler {
      type: "xavier"
    }
    bias_filler {
      type: "constant"
    }
    kernel_h: 3
    kernel_w: 3
  }
}
layer {
  name: "relu42"
  type: "ReLU"
  bottom: "conv42"
  top: "conv42"
}
layer {
  name: "pool4"
  type: "Pooling"
  bottom: "conv42"
  top: "pool4"
  pooling_param {
    pool: MAX
    kernel_size: 2
    stride: 2
  }
}
layer {
  name: "conv51"
  type: "Convolution"
  bottom: "pool4"
  top: "conv51"
  param {
    lr_mult: 0
    decay_mult: 1
  }
  param {
    lr_mult: 0
    decay_mult: 0
  }
  convolution_param {
    num_output: 256
    pad: 1
    stride: 1
    weight_filler {
      type: "xavier"
    }
    bias_filler {
      type: "constant"
    }
    kernel_h: 3
    kernel_w: 3
  }
}
layer {
  name: "relu51"
  type: "ReLU"
  bottom: "conv51"
  top: "conv51"
}
layer {
  name: "conv52"
  type: "Convolution"
  bottom: "conv51"
  top: "conv52"
  param {
    lr_mult: 0
    decay_mult: 1
  }
  param {
    lr_mult: 0
    decay_mult: 0
  }
  convolution_param {
    num_output: 256
    pad: 1
    stride: 1
    weight_filler {
      type: "xavier"
    }
    bias_filler {
      type: "constant"
    }
    kernel_h: 3
    kernel_w: 3
  }
}
layer {
  name: "relu52"
  type: "ReLU"
  bottom: "conv52"
  top: "conv52"
}
layer {
  name: "conv53"
  type: "Convolution"
  bottom: "conv52"
  top: "conv53"
  param {
    lr_mult: 0
    decay_mult: 1
  }
  param {
    lr_mult: 0
    decay_mult: 0
  }
  convolution_param {
    num_output: 256
    pad: 0
    stride: 1
    weight_filler {
      type: "xavier"
    }
    bias_filler {
      type: "constant"
    }
    kernel_h: 7
    kernel_w: 7
  }
}
layer {
  name: "relu53"
  type: "ReLU"
  bottom: "conv53"
  top: "conv53"
}
layer {
  name: "conv_c"
  type: "Convolution"
  bottom: "conv53"
  top: "conv_c"
  param {
    lr_mult: 0
    decay_mult: 1
  }
  param {
    lr_mult: 0
    decay_mult: 0
  }
  convolution_param {
    num_output: 2
    pad: 0
    stride: 1
    weight_filler {
      type: "xavier"
    }
    bias_filler {
      type: "constant"
    }
    kernel_h: 1
    kernel_w: 1
  }
}
layer {
  name: "interloss"
  type: "Softmax"
  bottom: "conv_c"
  top: "interloss"
}
layer {
  name: "conv61"
  type: "Convolution"
  bottom: "interloss"
  top: "conv61"
  param {
    lr_mult: 1
    decay_mult: 1
  }
  param {
    lr_mult: 2
    decay_mult: 0
  }
  convolution_param {
    num_output: 64
    pad: 1
    stride: 1
    weight_filler {
      type: "xavier"
    }
    bias_filler {
      type: "constant"
    }
    kernel_h: 3
    kernel_w: 3
  }
}
layer {
  name: "relu61"
  type: "ReLU"
  bottom: "conv61"
  top: "conv61"
}
layer {
  name: "conv62"
  type: "Convolution"
  bottom: "conv61"
  top: "conv62"
  param {
    lr_mult: 1
    decay_mult: 1
  }
  param {
    lr_mult: 2
    decay_mult: 0
  }
  convolution_param {
    num_output: 64
    pad: 1
    stride: 1
    weight_filler {
      type: "xavier"
    }
    bias_filler {
      type: "constant"
    }
    kernel_h: 3
    kernel_w: 3
  }
}
layer {
  name: "relu62"
  type: "ReLU"
  bottom: "conv62"
  top: "conv62"
}
layer {
  name: "pool5"
  type: "Pooling"
  bottom: "conv62"
  top: "pool5"
  pooling_param {
    pool: MAX
    kernel_size: 2
    stride: 2
  }
}
layer {
  name: "conv71"
  type: "Convolution"
  bottom: "pool5"
  top: "conv71"
  param {
    lr_mult: 1
    decay_mult: 1
  }
  param {
    lr_mult: 2
    decay_mult: 0
  }
  convolution_param {
    num_output: 96
    pad: 1
    stride: 1
    weight_filler {
      type: "xavier"
    }
    bias_filler {
      type: "constant"
    }
    kernel_h: 3
    kernel_w: 3
  }
}
layer {
  name: "relu71"
  type: "ReLU"
  bottom: "conv71"
  top: "conv71"
}
layer {
  name: "conv72"
  type: "Convolution"
  bottom: "conv71"
  top: "conv72"
  param {
    lr_mult: 1
    decay_mult: 1
  }
  param {
    lr_mult: 2
    decay_mult: 0
  }
  convolution_param {
    num_output: 96
    pad: 1
    stride: 1
    weight_filler {
      type: "xavier"
    }
    bias_filler {
      type: "constant"
    }
    kernel_h: 3
    kernel_w: 3
  }
}
layer {
  name: "relu72"
  type: "ReLU"
  bottom: "conv72"
  top: "conv72"
}
layer {
  name: "pool6"
  type: "Pooling"
  bottom: "conv72"
  top: "pool6"
  pooling_param {
    pool: MAX
    kernel_size: 2
    stride: 2
  }
}
layer {
  name: "conv81"
  type: "Convolution"
  bottom: "pool6"
  top: "conv81"
  param {
    lr_mult: 1
    decay_mult: 1
  }
  param {
    lr_mult: 2
    decay_mult: 0
  }
  convolution_param {
    num_output: 128
    pad: 1
    stride: 1
    weight_filler {
      type: "xavier"
    }
    bias_filler {
      type: "constant"
    }
    kernel_h: 3
    kernel_w: 3
  }
}
layer {
  name: "relu81"
  type: "ReLU"
  bottom: "conv81"
  top: "conv81"
}
layer {
  name: "conv82"
  type: "Convolution"
  bottom: "conv81"
  top: "conv82"
  param {
    lr_mult: 1
    decay_mult: 1
  }
  param {
    lr_mult: 2
    decay_mult: 0
  }
  convolution_param {
    num_output: 128
    pad: 1
    stride: 1
    weight_filler {
      type: "xavier"
    }
    bias_filler {
      type: "constant"
    }
    kernel_h: 3
    kernel_w: 3
  }
}
layer {
  name: "relu82"
  type: "ReLU"
  bottom: "conv82"
  top: "conv82"
}
layer {
  name: "pool7"
  type: "Pooling"
  bottom: "conv82"
  top: "pool7"
  pooling_param {
    pool: AVE
    kernel_size: 2
    stride: 2
  }
}
layer {
  name: "drop0"
  type: "Dropout"
  bottom: "pool7"
  top: "pool7"
  dropout_param {
    dropout_ratio: 0.4
  }
}
layer {
  name: "conv91"
  type: "Convolution"
  bottom: "pool7"
  top: "conv91"
  param {
    lr_mult: 1
    decay_mult: 1
  }
  param {
    lr_mult: 2
    decay_mult: 0
  }
  convolution_param {
    num_output: 3
    stride: 1
    weight_filler {
      type: "xavier"
    }
    bias_filler {
      type: "constant"
    }
    kernel_h: 8
    kernel_w: 8
  }
}
layer {
  name: "accuracy"
  type: "Accuracy"
  bottom: "conv91"
  bottom: "label"
  top: "accuracy"
}
layer {
  name: "loss"
  type: "SoftmaxWithLoss"
  bottom: "conv91"
  bottom: "label"
  top: "loss"
}
I0718 14:14:21.681972 30263 layer_factory.hpp:76] Creating layer data
I0718 14:14:21.682051 30263 net.cpp:106] Creating Layer data
I0718 14:14:21.682073 30263 net.cpp:411] data -> data
I0718 14:14:21.682126 30263 net.cpp:411] data -> label
I0718 14:14:21.682741 30263 image_data_layer.cpp:36] Opening file ../lists/mitosis_train.lst
I0718 14:14:21.700711 30263 image_data_layer.cpp:46] Shuffling data
I0718 14:14:21.703066 30263 image_data_layer.cpp:51] A total of 21366 images.
I0718 14:14:22.303115 30263 image_data_layer.cpp:78] output data size: 6,3,1000,1000
I0718 14:14:22.513952 30263 net.cpp:150] Setting up data
I0718 14:14:22.514035 30263 net.cpp:157] Top shape: 6 3 1000 1000 (18000000)
I0718 14:14:22.514050 30263 net.cpp:157] Top shape: 6 (6)
I0718 14:14:22.514055 30263 net.cpp:165] Memory required for data: 72000024
I0718 14:14:22.514070 30263 layer_factory.hpp:76] Creating layer label_data_1_split
I0718 14:14:22.514098 30263 net.cpp:106] Creating Layer label_data_1_split
I0718 14:14:22.514106 30263 net.cpp:454] label_data_1_split <- label
I0718 14:14:22.514123 30263 net.cpp:411] label_data_1_split -> label_data_1_split_0
I0718 14:14:22.514137 30263 net.cpp:411] label_data_1_split -> label_data_1_split_1
I0718 14:14:22.514204 30263 net.cpp:150] Setting up label_data_1_split
I0718 14:14:22.514211 30263 net.cpp:157] Top shape: 6 (6)
I0718 14:14:22.514238 30263 net.cpp:157] Top shape: 6 (6)
I0718 14:14:22.514242 30263 net.cpp:165] Memory required for data: 72000072
I0718 14:14:22.514247 30263 layer_factory.hpp:76] Creating layer conv11
I0718 14:14:22.514281 30263 net.cpp:106] Creating Layer conv11
I0718 14:14:22.514286 30263 net.cpp:454] conv11 <- data
I0718 14:14:22.514307 30263 net.cpp:411] conv11 -> conv11
I0718 14:14:22.906688 30263 net.cpp:150] Setting up conv11
I0718 14:14:22.906750 30263 net.cpp:157] Top shape: 6 32 1000 1000 (192000000)
I0718 14:14:22.906764 30263 net.cpp:165] Memory required for data: 840000072
I0718 14:14:22.906802 30263 layer_factory.hpp:76] Creating layer relu11
I0718 14:14:22.906828 30263 net.cpp:106] Creating Layer relu11
I0718 14:14:22.906839 30263 net.cpp:454] relu11 <- conv11
I0718 14:14:22.906852 30263 net.cpp:397] relu11 -> conv11 (in-place)
I0718 14:14:22.907186 30263 net.cpp:150] Setting up relu11
I0718 14:14:22.907215 30263 net.cpp:157] Top shape: 6 32 1000 1000 (192000000)
I0718 14:14:22.907225 30263 net.cpp:165] Memory required for data: 1608000072
I0718 14:14:22.907236 30263 layer_factory.hpp:76] Creating layer conv12
I0718 14:14:22.907263 30263 net.cpp:106] Creating Layer conv12
I0718 14:14:22.907272 30263 net.cpp:454] conv12 <- conv11
I0718 14:14:22.907284 30263 net.cpp:411] conv12 -> conv12
I0718 14:14:22.916831 30263 net.cpp:150] Setting up conv12
I0718 14:14:22.916896 30263 net.cpp:157] Top shape: 6 64 1000 1000 (384000000)
I0718 14:14:22.916908 30263 net.cpp:165] Memory required for data: 3144000072
I0718 14:14:22.916934 30263 layer_factory.hpp:76] Creating layer relu12
I0718 14:14:22.916954 30263 net.cpp:106] Creating Layer relu12
I0718 14:14:22.916963 30263 net.cpp:454] relu12 <- conv12
I0718 14:14:22.916980 30263 net.cpp:397] relu12 -> conv12 (in-place)
I0718 14:14:22.917625 30263 net.cpp:150] Setting up relu12
I0718 14:14:22.917665 30263 net.cpp:157] Top shape: 6 64 1000 1000 (384000000)
I0718 14:14:22.917675 30263 net.cpp:165] Memory required for data: 4680000072
I0718 14:14:22.917686 30263 layer_factory.hpp:76] Creating layer pool1
I0718 14:14:22.917706 30263 net.cpp:106] Creating Layer pool1
I0718 14:14:22.917716 30263 net.cpp:454] pool1 <- conv12
I0718 14:14:22.917732 30263 net.cpp:411] pool1 -> pool1
I0718 14:14:22.919425 30263 net.cpp:150] Setting up pool1
I0718 14:14:22.919482 30263 net.cpp:157] Top shape: 6 64 500 500 (96000000)
I0718 14:14:22.919494 30263 net.cpp:165] Memory required for data: 5064000072
I0718 14:14:22.919507 30263 layer_factory.hpp:76] Creating layer conv21
I0718 14:14:22.919538 30263 net.cpp:106] Creating Layer conv21
I0718 14:14:22.919548 30263 net.cpp:454] conv21 <- pool1
I0718 14:14:22.919564 30263 net.cpp:411] conv21 -> conv21
I0718 14:14:22.926055 30263 cudnn_conv_layer.cpp:194] Reallocating workspace storage: 6912
I0718 14:14:22.926460 30263 net.cpp:150] Setting up conv21
I0718 14:14:22.926491 30263 net.cpp:157] Top shape: 6 64 500 500 (96000000)
I0718 14:14:22.926501 30263 net.cpp:165] Memory required for data: 5448000072
I0718 14:14:22.926527 30263 layer_factory.hpp:76] Creating layer relu21
I0718 14:14:22.926553 30263 net.cpp:106] Creating Layer relu21
I0718 14:14:22.926568 30263 net.cpp:454] relu21 <- conv21
I0718 14:14:22.926589 30263 net.cpp:397] relu21 -> conv21 (in-place)
I0718 14:14:22.927115 30263 net.cpp:150] Setting up relu21
I0718 14:14:22.927145 30263 net.cpp:157] Top shape: 6 64 500 500 (96000000)
I0718 14:14:22.927155 30263 net.cpp:165] Memory required for data: 5832000072
I0718 14:14:22.927167 30263 layer_factory.hpp:76] Creating layer conv22
I0718 14:14:22.927191 30263 net.cpp:106] Creating Layer conv22
I0718 14:14:22.927202 30263 net.cpp:454] conv22 <- conv21
I0718 14:14:22.927215 30263 net.cpp:411] conv22 -> conv22
I0718 14:14:22.935096 30263 cudnn_conv_layer.cpp:194] Reallocating workspace storage: 6912
I0718 14:14:22.935170 30263 net.cpp:150] Setting up conv22
I0718 14:14:22.935189 30263 net.cpp:157] Top shape: 6 128 500 500 (192000000)
I0718 14:14:22.935199 30263 net.cpp:165] Memory required for data: 6600000072
I0718 14:14:22.935217 30263 layer_factory.hpp:76] Creating layer relu22
I0718 14:14:22.935279 30263 net.cpp:106] Creating Layer relu22
I0718 14:14:22.935297 30263 net.cpp:454] relu22 <- conv22
I0718 14:14:22.935322 30263 net.cpp:397] relu22 -> conv22 (in-place)
I0718 14:14:22.937466 30263 net.cpp:150] Setting up relu22
I0718 14:14:22.937505 30263 net.cpp:157] Top shape: 6 128 500 500 (192000000)
I0718 14:14:22.937568 30263 net.cpp:165] Memory required for data: 7368000072
I0718 14:14:22.937580 30263 layer_factory.hpp:76] Creating layer pool2
I0718 14:14:22.937604 30263 net.cpp:106] Creating Layer pool2
I0718 14:14:22.937615 30263 net.cpp:454] pool2 <- conv22
I0718 14:14:22.937808 30263 net.cpp:411] pool2 -> pool2
I0718 14:14:22.941197 30263 net.cpp:150] Setting up pool2
I0718 14:14:22.941277 30263 net.cpp:157] Top shape: 6 128 250 250 (48000000)
I0718 14:14:22.941295 30263 net.cpp:165] Memory required for data: 7560000072
I0718 14:14:22.941313 30263 layer_factory.hpp:76] Creating layer conv31
I0718 14:14:22.941359 30263 net.cpp:106] Creating Layer conv31
I0718 14:14:22.941370 30263 net.cpp:454] conv31 <- pool2
I0718 14:14:22.941386 30263 net.cpp:411] conv31 -> conv31
I0718 14:14:22.947769 30263 cudnn_conv_layer.cpp:194] Reallocating workspace storage: 13824
I0718 14:14:22.947841 30263 net.cpp:150] Setting up conv31
I0718 14:14:22.947860 30263 net.cpp:157] Top shape: 6 96 250 250 (36000000)
I0718 14:14:22.947870 30263 net.cpp:165] Memory required for data: 7704000072
I0718 14:14:22.947895 30263 layer_factory.hpp:76] Creating layer relu31
I0718 14:14:22.947913 30263 net.cpp:106] Creating Layer relu31
I0718 14:14:22.947924 30263 net.cpp:454] relu31 <- conv31
I0718 14:14:22.947937 30263 net.cpp:397] relu31 -> conv31 (in-place)
I0718 14:14:22.949904 30263 net.cpp:150] Setting up relu31
I0718 14:14:22.949928 30263 net.cpp:157] Top shape: 6 96 250 250 (36000000)
I0718 14:14:22.949937 30263 net.cpp:165] Memory required for data: 7848000072
I0718 14:14:22.949947 30263 layer_factory.hpp:76] Creating layer conv32
I0718 14:14:22.949967 30263 net.cpp:106] Creating Layer conv32
I0718 14:14:22.949977 30263 net.cpp:454] conv32 <- conv31
I0718 14:14:22.949988 30263 net.cpp:411] conv32 -> conv32
I0718 14:14:22.957193 30263 cudnn_conv_layer.cpp:194] Reallocating workspace storage: 10368
I0718 14:14:22.957242 30263 net.cpp:150] Setting up conv32
I0718 14:14:22.957257 30263 net.cpp:157] Top shape: 6 192 250 250 (72000000)
I0718 14:14:22.957267 30263 net.cpp:165] Memory required for data: 8136000072
I0718 14:14:22.957281 30263 layer_factory.hpp:76] Creating layer relu32
I0718 14:14:22.957299 30263 net.cpp:106] Creating Layer relu32
I0718 14:14:22.957309 30263 net.cpp:454] relu32 <- conv32
I0718 14:14:22.957321 30263 net.cpp:397] relu32 -> conv32 (in-place)
I0718 14:14:22.959408 30263 net.cpp:150] Setting up relu32
I0718 14:14:22.959429 30263 net.cpp:157] Top shape: 6 192 250 250 (72000000)
I0718 14:14:22.959439 30263 net.cpp:165] Memory required for data: 8424000072
I0718 14:14:22.959450 30263 layer_factory.hpp:76] Creating layer pool3
I0718 14:14:22.959466 30263 net.cpp:106] Creating Layer pool3
I0718 14:14:22.959475 30263 net.cpp:454] pool3 <- conv32
I0718 14:14:22.959489 30263 net.cpp:411] pool3 -> pool3
I0718 14:14:22.961854 30263 net.cpp:150] Setting up pool3
I0718 14:14:22.961884 30263 net.cpp:157] Top shape: 6 192 125 125 (18000000)
I0718 14:14:22.961910 30263 net.cpp:165] Memory required for data: 8496000072
I0718 14:14:22.961942 30263 layer_factory.hpp:76] Creating layer conv41
I0718 14:14:22.961990 30263 net.cpp:106] Creating Layer conv41
I0718 14:14:22.962020 30263 net.cpp:454] conv41 <- pool3
I0718 14:14:22.962061 30263 net.cpp:411] conv41 -> conv41
I0718 14:14:22.968807 30263 cudnn_conv_layer.cpp:194] Reallocating workspace storage: 20736
I0718 14:14:22.969146 30263 net.cpp:150] Setting up conv41
I0718 14:14:22.969177 30263 net.cpp:157] Top shape: 6 128 125 125 (12000000)
I0718 14:14:22.969197 30263 net.cpp:165] Memory required for data: 8544000072
I0718 14:14:22.969235 30263 layer_factory.hpp:76] Creating layer relu41
I0718 14:14:22.969277 30263 net.cpp:106] Creating Layer relu41
I0718 14:14:22.969334 30263 net.cpp:454] relu41 <- conv41
I0718 14:14:22.969365 30263 net.cpp:397] relu41 -> conv41 (in-place)
I0718 14:14:22.971395 30263 net.cpp:150] Setting up relu41
I0718 14:14:22.971418 30263 net.cpp:157] Top shape: 6 128 125 125 (12000000)
I0718 14:14:22.971432 30263 net.cpp:165] Memory required for data: 8592000072
I0718 14:14:22.971447 30263 layer_factory.hpp:76] Creating layer conv42
I0718 14:14:22.971478 30263 net.cpp:106] Creating Layer conv42
I0718 14:14:22.971498 30263 net.cpp:454] conv42 <- conv41
I0718 14:14:22.971521 30263 net.cpp:411] conv42 -> conv42
I0718 14:14:22.979990 30263 cudnn_conv_layer.cpp:194] Reallocating workspace storage: 13824
I0718 14:14:22.980041 30263 net.cpp:150] Setting up conv42
I0718 14:14:22.980054 30263 net.cpp:157] Top shape: 6 256 125 125 (24000000)
I0718 14:14:22.980064 30263 net.cpp:165] Memory required for data: 8688000072
I0718 14:14:22.980077 30263 layer_factory.hpp:76] Creating layer relu42
I0718 14:14:22.980095 30263 net.cpp:106] Creating Layer relu42
I0718 14:14:22.980108 30263 net.cpp:454] relu42 <- conv42
I0718 14:14:22.980120 30263 net.cpp:397] relu42 -> conv42 (in-place)
I0718 14:14:22.982271 30263 net.cpp:150] Setting up relu42
I0718 14:14:22.982287 30263 net.cpp:157] Top shape: 6 256 125 125 (24000000)
I0718 14:14:22.982296 30263 net.cpp:165] Memory required for data: 8784000072
I0718 14:14:22.982306 30263 layer_factory.hpp:76] Creating layer pool4
I0718 14:14:22.982321 30263 net.cpp:106] Creating Layer pool4
I0718 14:14:22.982329 30263 net.cpp:454] pool4 <- conv42
I0718 14:14:22.982342 30263 net.cpp:411] pool4 -> pool4
I0718 14:14:22.984747 30263 net.cpp:150] Setting up pool4
I0718 14:14:22.984769 30263 net.cpp:157] Top shape: 6 256 63 63 (6096384)
I0718 14:14:22.984778 30263 net.cpp:165] Memory required for data: 8808385608
I0718 14:14:22.984787 30263 layer_factory.hpp:76] Creating layer conv51
I0718 14:14:22.984805 30263 net.cpp:106] Creating Layer conv51
I0718 14:14:22.984814 30263 net.cpp:454] conv51 <- pool4
I0718 14:14:22.984827 30263 net.cpp:411] conv51 -> conv51
I0718 14:14:22.998059 30263 cudnn_conv_layer.cpp:194] Reallocating workspace storage: 27648
I0718 14:14:22.998118 30263 net.cpp:150] Setting up conv51
I0718 14:14:22.998143 30263 net.cpp:157] Top shape: 6 256 63 63 (6096384)
I0718 14:14:22.998154 30263 net.cpp:165] Memory required for data: 8832771144
I0718 14:14:22.998181 30263 layer_factory.hpp:76] Creating layer relu51
I0718 14:14:22.998203 30263 net.cpp:106] Creating Layer relu51
I0718 14:14:22.998221 30263 net.cpp:454] relu51 <- conv51
I0718 14:14:22.998242 30263 net.cpp:397] relu51 -> conv51 (in-place)
I0718 14:14:22.999624 30263 net.cpp:150] Setting up relu51
I0718 14:14:22.999655 30263 net.cpp:157] Top shape: 6 256 63 63 (6096384)
I0718 14:14:22.999666 30263 net.cpp:165] Memory required for data: 8857156680
I0718 14:14:22.999680 30263 layer_factory.hpp:76] Creating layer conv52
I0718 14:14:22.999712 30263 net.cpp:106] Creating Layer conv52
I0718 14:14:22.999725 30263 net.cpp:454] conv52 <- conv51
I0718 14:14:22.999750 30263 net.cpp:411] conv52 -> conv52
I0718 14:14:23.011739 30263 cudnn_conv_layer.cpp:194] Reallocating workspace storage: 27648
I0718 14:14:23.011839 30263 net.cpp:150] Setting up conv52
I0718 14:14:23.011870 30263 net.cpp:157] Top shape: 6 256 63 63 (6096384)
I0718 14:14:23.011909 30263 net.cpp:165] Memory required for data: 8881542216
I0718 14:14:23.011950 30263 layer_factory.hpp:76] Creating layer relu52
I0718 14:14:23.012004 30263 net.cpp:106] Creating Layer relu52
I0718 14:14:23.012037 30263 net.cpp:454] relu52 <- conv52
I0718 14:14:23.012087 30263 net.cpp:397] relu52 -> conv52 (in-place)
I0718 14:14:23.013921 30263 net.cpp:150] Setting up relu52
I0718 14:14:23.013957 30263 net.cpp:157] Top shape: 6 256 63 63 (6096384)
I0718 14:14:23.013973 30263 net.cpp:165] Memory required for data: 8905927752
I0718 14:14:23.013993 30263 layer_factory.hpp:76] Creating layer conv53
I0718 14:14:23.014034 30263 net.cpp:106] Creating Layer conv53
I0718 14:14:23.014070 30263 net.cpp:454] conv53 <- conv52
I0718 14:14:23.014153 30263 net.cpp:411] conv53 -> conv53
I0718 14:14:23.061800 30263 cudnn_conv_layer.cpp:194] Reallocating workspace storage: 150528
I0718 14:14:23.062132 30263 net.cpp:150] Setting up conv53
I0718 14:14:23.062157 30263 net.cpp:157] Top shape: 6 256 57 57 (4990464)
I0718 14:14:23.062173 30263 net.cpp:165] Memory required for data: 8925889608
I0718 14:14:23.062198 30263 layer_factory.hpp:76] Creating layer relu53
I0718 14:14:23.062238 30263 net.cpp:106] Creating Layer relu53
I0718 14:14:23.062259 30263 net.cpp:454] relu53 <- conv53
I0718 14:14:23.062284 30263 net.cpp:397] relu53 -> conv53 (in-place)
I0718 14:14:23.064302 30263 net.cpp:150] Setting up relu53
I0718 14:14:23.064337 30263 net.cpp:157] Top shape: 6 256 57 57 (4990464)
I0718 14:14:23.064352 30263 net.cpp:165] Memory required for data: 8945851464
I0718 14:14:23.064368 30263 layer_factory.hpp:76] Creating layer conv_c
I0718 14:14:23.064404 30263 net.cpp:106] Creating Layer conv_c
I0718 14:14:23.064430 30263 net.cpp:454] conv_c <- conv53
I0718 14:14:23.064462 30263 net.cpp:411] conv_c -> conv_c
I0718 14:14:23.071789 30263 net.cpp:150] Setting up conv_c
I0718 14:14:23.071818 30263 net.cpp:157] Top shape: 6 2 57 57 (38988)
I0718 14:14:23.071835 30263 net.cpp:165] Memory required for data: 8946007416
I0718 14:14:23.071853 30263 layer_factory.hpp:76] Creating layer interloss
I0718 14:14:23.071873 30263 net.cpp:106] Creating Layer interloss
I0718 14:14:23.071883 30263 net.cpp:454] interloss <- conv_c
I0718 14:14:23.071902 30263 net.cpp:411] interloss -> interloss
I0718 14:14:23.074044 30263 net.cpp:150] Setting up interloss
I0718 14:14:23.074069 30263 net.cpp:157] Top shape: 6 2 57 57 (38988)
I0718 14:14:23.074079 30263 net.cpp:165] Memory required for data: 8946163368
I0718 14:14:23.074089 30263 layer_factory.hpp:76] Creating layer conv61
I0718 14:14:23.074106 30263 net.cpp:106] Creating Layer conv61
I0718 14:14:23.074127 30263 net.cpp:454] conv61 <- interloss
I0718 14:14:23.074156 30263 net.cpp:411] conv61 -> conv61
I0718 14:14:23.080600 30263 cudnn_conv_layer.cpp:194] Reallocating workspace storage: 4210704
I0718 14:14:23.081022 30263 net.cpp:150] Setting up conv61
I0718 14:14:23.081061 30263 net.cpp:157] Top shape: 6 64 57 57 (1247616)
I0718 14:14:23.081084 30263 net.cpp:165] Memory required for data: 8951153832
I0718 14:14:23.081123 30263 layer_factory.hpp:76] Creating layer relu61
I0718 14:14:23.081154 30263 net.cpp:106] Creating Layer relu61
I0718 14:14:23.081176 30263 net.cpp:454] relu61 <- conv61
I0718 14:14:23.081198 30263 net.cpp:397] relu61 -> conv61 (in-place)
I0718 14:14:23.082623 30263 net.cpp:150] Setting up relu61
I0718 14:14:23.082669 30263 net.cpp:157] Top shape: 6 64 57 57 (1247616)
I0718 14:14:23.082690 30263 net.cpp:165] Memory required for data: 8956144296
I0718 14:14:23.082712 30263 layer_factory.hpp:76] Creating layer conv62
I0718 14:14:23.082754 30263 net.cpp:106] Creating Layer conv62
I0718 14:14:23.082777 30263 net.cpp:454] conv62 <- conv61
I0718 14:14:23.082813 30263 net.cpp:411] conv62 -> conv62
I0718 14:14:23.089649 30263 net.cpp:150] Setting up conv62
I0718 14:14:23.089691 30263 net.cpp:157] Top shape: 6 64 57 57 (1247616)
I0718 14:14:23.089711 30263 net.cpp:165] Memory required for data: 8961134760
I0718 14:14:23.089736 30263 layer_factory.hpp:76] Creating layer relu62
I0718 14:14:23.089756 30263 net.cpp:106] Creating Layer relu62
I0718 14:14:23.089771 30263 net.cpp:454] relu62 <- conv62
I0718 14:14:23.089794 30263 net.cpp:397] relu62 -> conv62 (in-place)
I0718 14:14:23.091610 30263 net.cpp:150] Setting up relu62
I0718 14:14:23.091650 30263 net.cpp:157] Top shape: 6 64 57 57 (1247616)
I0718 14:14:23.091663 30263 net.cpp:165] Memory required for data: 8966125224
I0718 14:14:23.091677 30263 layer_factory.hpp:76] Creating layer pool5
I0718 14:14:23.091701 30263 net.cpp:106] Creating Layer pool5
I0718 14:14:23.091720 30263 net.cpp:454] pool5 <- conv62
I0718 14:14:23.091747 30263 net.cpp:411] pool5 -> pool5
I0718 14:14:23.092871 30263 net.cpp:150] Setting up pool5
I0718 14:14:23.092903 30263 net.cpp:157] Top shape: 6 64 29 29 (322944)
I0718 14:14:23.092953 30263 net.cpp:165] Memory required for data: 8967417000
I0718 14:14:23.092977 30263 layer_factory.hpp:76] Creating layer conv71
I0718 14:14:23.093006 30263 net.cpp:106] Creating Layer conv71
I0718 14:14:23.093024 30263 net.cpp:454] conv71 <- pool5
I0718 14:14:23.093045 30263 net.cpp:411] conv71 -> conv71
I0718 14:14:23.100134 30263 cudnn_conv_layer.cpp:194] Reallocating workspace storage: 6912
I0718 14:14:23.100205 30263 net.cpp:150] Setting up conv71
I0718 14:14:23.100232 30263 net.cpp:157] Top shape: 6 96 29 29 (484416)
I0718 14:14:23.100257 30263 net.cpp:165] Memory required for data: 8969354664
I0718 14:14:23.100287 30263 layer_factory.hpp:76] Creating layer relu71
I0718 14:14:23.100318 30263 net.cpp:106] Creating Layer relu71
I0718 14:14:23.100339 30263 net.cpp:454] relu71 <- conv71
I0718 14:14:23.100363 30263 net.cpp:397] relu71 -> conv71 (in-place)
I0718 14:14:23.102272 30263 net.cpp:150] Setting up relu71
I0718 14:14:23.102311 30263 net.cpp:157] Top shape: 6 96 29 29 (484416)
I0718 14:14:23.102330 30263 net.cpp:165] Memory required for data: 8971292328
I0718 14:14:23.102350 30263 layer_factory.hpp:76] Creating layer conv72
I0718 14:14:23.102390 30263 net.cpp:106] Creating Layer conv72
I0718 14:14:23.102407 30263 net.cpp:454] conv72 <- conv71
I0718 14:14:23.102437 30263 net.cpp:411] conv72 -> conv72
I0718 14:14:23.109506 30263 cudnn_conv_layer.cpp:194] Reallocating workspace storage: 10368
I0718 14:14:23.109571 30263 net.cpp:150] Setting up conv72
I0718 14:14:23.109593 30263 net.cpp:157] Top shape: 6 96 29 29 (484416)
I0718 14:14:23.109603 30263 net.cpp:165] Memory required for data: 8973229992
I0718 14:14:23.109616 30263 layer_factory.hpp:76] Creating layer relu72
I0718 14:14:23.109638 30263 net.cpp:106] Creating Layer relu72
I0718 14:14:23.109650 30263 net.cpp:454] relu72 <- conv72
I0718 14:14:23.109668 30263 net.cpp:397] relu72 -> conv72 (in-place)
I0718 14:14:23.110677 30263 net.cpp:150] Setting up relu72
I0718 14:14:23.110707 30263 net.cpp:157] Top shape: 6 96 29 29 (484416)
I0718 14:14:23.110723 30263 net.cpp:165] Memory required for data: 8975167656
I0718 14:14:23.110736 30263 layer_factory.hpp:76] Creating layer pool6
I0718 14:14:23.110759 30263 net.cpp:106] Creating Layer pool6
I0718 14:14:23.110772 30263 net.cpp:454] pool6 <- conv72
I0718 14:14:23.110788 30263 net.cpp:411] pool6 -> pool6
I0718 14:14:23.113605 30263 net.cpp:150] Setting up pool6
I0718 14:14:23.113649 30263 net.cpp:157] Top shape: 6 96 15 15 (129600)
I0718 14:14:23.113673 30263 net.cpp:165] Memory required for data: 8975686056
I0718 14:14:23.113700 30263 layer_factory.hpp:76] Creating layer conv81
I0718 14:14:23.113744 30263 net.cpp:106] Creating Layer conv81
I0718 14:14:23.113771 30263 net.cpp:454] conv81 <- pool6
I0718 14:14:23.113798 30263 net.cpp:411] conv81 -> conv81
I0718 14:14:23.120878 30263 net.cpp:150] Setting up conv81
I0718 14:14:23.120915 30263 net.cpp:157] Top shape: 6 128 15 15 (172800)
I0718 14:14:23.120930 30263 net.cpp:165] Memory required for data: 8976377256
I0718 14:14:23.120982 30263 layer_factory.hpp:76] Creating layer relu81
I0718 14:14:23.121006 30263 net.cpp:106] Creating Layer relu81
I0718 14:14:23.121022 30263 net.cpp:454] relu81 <- conv81
I0718 14:14:23.121042 30263 net.cpp:397] relu81 -> conv81 (in-place)
I0718 14:14:23.123733 30263 net.cpp:150] Setting up relu81
I0718 14:14:23.123762 30263 net.cpp:157] Top shape: 6 128 15 15 (172800)
I0718 14:14:23.123777 30263 net.cpp:165] Memory required for data: 8977068456
I0718 14:14:23.123787 30263 layer_factory.hpp:76] Creating layer conv82
I0718 14:14:23.123809 30263 net.cpp:106] Creating Layer conv82
I0718 14:14:23.123821 30263 net.cpp:454] conv82 <- conv81
I0718 14:14:23.123836 30263 net.cpp:411] conv82 -> conv82
I0718 14:14:23.131192 30263 net.cpp:150] Setting up conv82
I0718 14:14:23.131244 30263 net.cpp:157] Top shape: 6 128 15 15 (172800)
I0718 14:14:23.131271 30263 net.cpp:165] Memory required for data: 8977759656
I0718 14:14:23.131304 30263 layer_factory.hpp:76] Creating layer relu82
I0718 14:14:23.131332 30263 net.cpp:106] Creating Layer relu82
I0718 14:14:23.131399 30263 net.cpp:454] relu82 <- conv82
I0718 14:14:23.131436 30263 net.cpp:397] relu82 -> conv82 (in-place)
I0718 14:14:23.133381 30263 net.cpp:150] Setting up relu82
I0718 14:14:23.133424 30263 net.cpp:157] Top shape: 6 128 15 15 (172800)
I0718 14:14:23.133447 30263 net.cpp:165] Memory required for data: 8978450856
I0718 14:14:23.133474 30263 layer_factory.hpp:76] Creating layer pool7
I0718 14:14:23.133512 30263 net.cpp:106] Creating Layer pool7
I0718 14:14:23.133538 30263 net.cpp:454] pool7 <- conv82
I0718 14:14:23.133569 30263 net.cpp:411] pool7 -> pool7
I0718 14:14:23.135821 30263 net.cpp:150] Setting up pool7
I0718 14:14:23.135850 30263 net.cpp:157] Top shape: 6 128 8 8 (49152)
I0718 14:14:23.135864 30263 net.cpp:165] Memory required for data: 8978647464
I0718 14:14:23.135876 30263 layer_factory.hpp:76] Creating layer drop0
I0718 14:14:23.135898 30263 net.cpp:106] Creating Layer drop0
I0718 14:14:23.135915 30263 net.cpp:454] drop0 <- pool7
I0718 14:14:23.135936 30263 net.cpp:397] drop0 -> pool7 (in-place)
I0718 14:14:23.135987 30263 net.cpp:150] Setting up drop0
I0718 14:14:23.136005 30263 net.cpp:157] Top shape: 6 128 8 8 (49152)
I0718 14:14:23.136018 30263 net.cpp:165] Memory required for data: 8978844072
I0718 14:14:23.136031 30263 layer_factory.hpp:76] Creating layer conv91
I0718 14:14:23.136055 30263 net.cpp:106] Creating Layer conv91
I0718 14:14:23.136070 30263 net.cpp:454] conv91 <- pool7
I0718 14:14:23.136083 30263 net.cpp:411] conv91 -> conv91
I0718 14:14:23.144331 30263 cudnn_conv_layer.cpp:194] Reallocating workspace storage: 98304
I0718 14:14:23.144377 30263 net.cpp:150] Setting up conv91
I0718 14:14:23.144402 30263 net.cpp:157] Top shape: 6 3 1 1 (18)
I0718 14:14:23.144415 30263 net.cpp:165] Memory required for data: 8978844144
I0718 14:14:23.144436 30263 layer_factory.hpp:76] Creating layer conv91_conv91_0_split
I0718 14:14:23.144464 30263 net.cpp:106] Creating Layer conv91_conv91_0_split
I0718 14:14:23.144479 30263 net.cpp:454] conv91_conv91_0_split <- conv91
I0718 14:14:23.144500 30263 net.cpp:411] conv91_conv91_0_split -> conv91_conv91_0_split_0
I0718 14:14:23.144518 30263 net.cpp:411] conv91_conv91_0_split -> conv91_conv91_0_split_1
I0718 14:14:23.144599 30263 net.cpp:150] Setting up conv91_conv91_0_split
I0718 14:14:23.144621 30263 net.cpp:157] Top shape: 6 3 1 1 (18)
I0718 14:14:23.144637 30263 net.cpp:157] Top shape: 6 3 1 1 (18)
I0718 14:14:23.144652 30263 net.cpp:165] Memory required for data: 8978844288
I0718 14:14:23.144665 30263 layer_factory.hpp:76] Creating layer accuracy
I0718 14:14:23.144687 30263 net.cpp:106] Creating Layer accuracy
I0718 14:14:23.144702 30263 net.cpp:454] accuracy <- conv91_conv91_0_split_0
I0718 14:14:23.144718 30263 net.cpp:454] accuracy <- label_data_1_split_0
I0718 14:14:23.144732 30263 net.cpp:411] accuracy -> accuracy
…
