…
I0715 17:12:45.117761 37539 net.cpp:322] The NetState phase (0) differed from the phase (1) specified by a rule in layer data
I0715 17:12:45.118105 37539 net.cpp:49] Initializing net from parameters: 
name: "Feature Layer 3 Stack"
state {
  phase: TRAIN
}
layer {
  name: "data"
  type: "ImageData"
  top: "data"
  top: "label"
  include {
    phase: TRAIN
  }
  transform_param {
    mirror: true
    mean_value: 163
    mean_value: 116
    mean_value: 181
  }
  image_data_param {
    source: "../lists/mitosis_train.lst"
    batch_size: 6
    shuffle: true
  }
}
layer {
  name: "conv11"
  type: "Convolution"
  bottom: "data"
  top: "conv11"
  param {
    lr_mult: 0
    decay_mult: 1
  }
  param {
    lr_mult: 0
    decay_mult: 0
  }
  convolution_param {
    num_output: 32
    pad: 1
    stride: 1
    weight_filler {
      type: "xavier"
    }
    bias_filler {
      type: "constant"
    }
    kernel_h: 3
    kernel_w: 3
  }
}
layer {
  name: "relu11"
  type: "ReLU"
  bottom: "conv11"
  top: "conv11"
}
layer {
  name: "conv12"
  type: "Convolution"
  bottom: "conv11"
  top: "conv12"
  param {
    lr_mult: 0
    decay_mult: 1
  }
  param {
    lr_mult: 0
    decay_mult: 0
  }
  convolution_param {
    num_output: 64
    pad: 1
    stride: 1
    weight_filler {
      type: "xavier"
    }
    bias_filler {
      type: "constant"
    }
    kernel_h: 3
    kernel_w: 3
  }
}
layer {
  name: "relu12"
  type: "ReLU"
  bottom: "conv12"
  top: "conv12"
}
layer {
  name: "pool1"
  type: "Pooling"
  bottom: "conv12"
  top: "pool1"
  pooling_param {
    pool: MAX
    kernel_size: 2
    stride: 2
  }
}
layer {
  name: "conv21"
  type: "Convolution"
  bottom: "pool1"
  top: "conv21"
  param {
    lr_mult: 0
    decay_mult: 1
  }
  param {
    lr_mult: 0
    decay_mult: 0
  }
  convolution_param {
    num_output: 64
    pad: 1
    stride: 1
    weight_filler {
      type: "xavier"
    }
    bias_filler {
      type: "constant"
    }
    kernel_h: 3
    kernel_w: 3
  }
}
layer {
  name: "relu21"
  type: "ReLU"
  bottom: "conv21"
  top: "conv21"
}
layer {
  name: "conv22"
  type: "Convolution"
  bottom: "conv21"
  top: "conv22"
  param {
    lr_mult: 0
    decay_mult: 1
  }
  param {
    lr_mult: 0
    decay_mult: 0
  }
  convolution_param {
    num_output: 128
    pad: 1
    stride: 1
    weight_filler {
      type: "xavier"
    }
    bias_filler {
      type: "constant"
    }
    kernel_h: 3
    kernel_w: 3
  }
}
layer {
  name: "relu22"
  type: "ReLU"
  bottom: "conv22"
  top: "conv22"
}
layer {
  name: "pool2"
  type: "Pooling"
  bottom: "conv22"
  top: "pool2"
  pooling_param {
    pool: MAX
    kernel_size: 2
    stride: 2
  }
}
layer {
  name: "conv31"
  type: "Convolution"
  bottom: "pool2"
  top: "conv31"
  param {
    lr_mult: 0
    decay_mult: 1
  }
  param {
    lr_mult: 0
    decay_mult: 0
  }
  convolution_param {
    num_output: 96
    pad: 1
    stride: 1
    weight_filler {
      type: "xavier"
    }
    bias_filler {
      type: "constant"
    }
    kernel_h: 3
    kernel_w: 3
  }
}
layer {
  name: "relu31"
  type: "ReLU"
  bottom: "conv31"
  top: "conv31"
}
layer {
  name: "conv32"
  type: "Convolution"
  bottom: "conv31"
  top: "conv32"
  param {
    lr_mult: 0
    decay_mult: 1
  }
  param {
    lr_mult: 0
    decay_mult: 0
  }
  convolution_param {
    num_output: 192
    pad: 1
    stride: 1
    weight_filler {
      type: "xavier"
    }
    bias_filler {
      type: "constant"
    }
    kernel_h: 3
    kernel_w: 3
  }
}
layer {
  name: "relu32"
  type: "ReLU"
  bottom: "conv32"
  top: "conv32"
}
layer {
  name: "pool3"
  type: "Pooling"
  bottom: "conv32"
  top: "pool3"
  pooling_param {
    pool: MAX
    kernel_size: 2
    stride: 2
  }
}
layer {
  name: "conv41"
  type: "Convolution"
  bottom: "pool3"
  top: "conv41"
  param {
    lr_mult: 0
    decay_mult: 1
  }
  param {
    lr_mult: 0
    decay_mult: 0
  }
  convolution_param {
    num_output: 128
    pad: 1
    stride: 1
    weight_filler {
      type: "xavier"
    }
    bias_filler {
      type: "constant"
    }
    kernel_h: 3
    kernel_w: 3
  }
}
layer {
  name: "relu41"
  type: "ReLU"
  bottom: "conv41"
  top: "conv41"
}
layer {
  name: "conv42"
  type: "Convolution"
  bottom: "conv41"
  top: "conv42"
  param {
    lr_mult: 0
    decay_mult: 1
  }
  param {
    lr_mult: 0
    decay_mult: 0
  }
  convolution_param {
    num_output: 256
    pad: 1
    stride: 1
    weight_filler {
      type: "xavier"
    }
    bias_filler {
      type: "constant"
    }
    kernel_h: 3
    kernel_w: 3
  }
}
layer {
  name: "relu42"
  type: "ReLU"
  bottom: "conv42"
  top: "conv42"
}
layer {
  name: "pool4"
  type: "Pooling"
  bottom: "conv42"
  top: "pool4"
  pooling_param {
    pool: MAX
    kernel_size: 2
    stride: 2
  }
}
layer {
  name: "conv51"
  type: "Convolution"
  bottom: "pool4"
  top: "conv51"
  param {
    lr_mult: 0
    decay_mult: 1
  }
  param {
    lr_mult: 0
    decay_mult: 0
  }
  convolution_param {
    num_output: 256
    pad: 1
    stride: 1
    weight_filler {
      type: "xavier"
    }
    bias_filler {
      type: "constant"
    }
    kernel_h: 3
    kernel_w: 3
  }
}
layer {
  name: "relu51"
  type: "ReLU"
  bottom: "conv51"
  top: "conv51"
}
layer {
  name: "conv52"
  type: "Convolution"
  bottom: "conv51"
  top: "conv52"
  param {
    lr_mult: 0
    decay_mult: 1
  }
  param {
    lr_mult: 0
    decay_mult: 0
  }
  convolution_param {
    num_output: 256
    pad: 1
    stride: 1
    weight_filler {
      type: "xavier"
    }
    bias_filler {
      type: "constant"
    }
    kernel_h: 3
    kernel_w: 3
  }
}
layer {
  name: "relu52"
  type: "ReLU"
  bottom: "conv52"
  top: "conv52"
}
layer {
  name: "conv53"
  type: "Convolution"
  bottom: "conv52"
  top: "conv53"
  param {
    lr_mult: 0
    decay_mult: 1
  }
  param {
    lr_mult: 0
    decay_mult: 0
  }
  convolution_param {
    num_output: 256
    pad: 0
    stride: 1
    weight_filler {
      type: "xavier"
    }
    bias_filler {
      type: "constant"
    }
    kernel_h: 7
    kernel_w: 7
  }
}
layer {
  name: "relu53"
  type: "ReLU"
  bottom: "conv53"
  top: "conv53"
}
layer {
  name: "conv61"
  type: "Convolution"
  bottom: "conv53"
  top: "conv61"
  param {
    lr_mult: 1
    decay_mult: 1
  }
  param {
    lr_mult: 2
    decay_mult: 0
  }
  convolution_param {
    num_output: 64
    pad: 1
    stride: 1
    weight_filler {
      type: "xavier"
    }
    bias_filler {
      type: "constant"
    }
    kernel_h: 3
    kernel_w: 3
  }
}
layer {
  name: "relu61"
  type: "ReLU"
  bottom: "conv61"
  top: "conv61"
}
layer {
  name: "conv62"
  type: "Convolution"
  bottom: "conv61"
  top: "conv62"
  param {
    lr_mult: 1
    decay_mult: 1
  }
  param {
    lr_mult: 2
    decay_mult: 0
  }
  convolution_param {
    num_output: 64
    pad: 1
    stride: 1
    weight_filler {
      type: "xavier"
    }
    bias_filler {
      type: "constant"
    }
    kernel_h: 3
    kernel_w: 3
  }
}
layer {
  name: "relu62"
  type: "ReLU"
  bottom: "conv62"
  top: "conv62"
}
layer {
  name: "pool5"
  type: "Pooling"
  bottom: "conv62"
  top: "pool5"
  pooling_param {
    pool: MAX
    kernel_size: 2
    stride: 2
  }
}
layer {
  name: "conv71"
  type: "Convolution"
  bottom: "pool5"
  top: "conv71"
  param {
    lr_mult: 1
    decay_mult: 1
  }
  param {
    lr_mult: 2
    decay_mult: 0
  }
  convolution_param {
    num_output: 96
    pad: 1
    stride: 1
    weight_filler {
      type: "xavier"
    }
    bias_filler {
      type: "constant"
    }
    kernel_h: 3
    kernel_w: 3
  }
}
layer {
  name: "relu71"
  type: "ReLU"
  bottom: "conv71"
  top: "conv71"
}
layer {
  name: "conv72"
  type: "Convolution"
  bottom: "conv71"
  top: "conv72"
  param {
    lr_mult: 1
    decay_mult: 1
  }
  param {
    lr_mult: 2
    decay_mult: 0
  }
  convolution_param {
    num_output: 96
    pad: 1
    stride: 1
    weight_filler {
      type: "xavier"
    }
    bias_filler {
      type: "constant"
    }
    kernel_h: 3
    kernel_w: 3
  }
}
layer {
  name: "relu72"
  type: "ReLU"
  bottom: "conv72"
  top: "conv72"
}
layer {
  name: "pool6"
  type: "Pooling"
  bottom: "conv72"
  top: "pool6"
  pooling_param {
    pool: MAX
    kernel_size: 2
    stride: 2
  }
}
layer {
  name: "conv81"
  type: "Convolution"
  bottom: "pool6"
  top: "conv81"
  param {
    lr_mult: 1
    decay_mult: 1
  }
  param {
    lr_mult: 2
    decay_mult: 0
  }
  convolution_param {
    num_output: 128
    pad: 1
    stride: 1
    weight_filler {
      type: "xavier"
    }
    bias_filler {
      type: "constant"
    }
    kernel_h: 3
    kernel_w: 3
  }
}
layer {
  name: "relu81"
  type: "ReLU"
  bottom: "conv81"
  top: "conv81"
}
layer {
  name: "conv82"
  type: "Convolution"
  bottom: "conv81"
  top: "conv82"
  param {
    lr_mult: 1
    decay_mult: 1
  }
  param {
    lr_mult: 2
    decay_mult: 0
  }
  convolution_param {
    num_output: 128
    pad: 1
    stride: 1
    weight_filler {
      type: "xavier"
    }
    bias_filler {
      type: "constant"
    }
    kernel_h: 3
    kernel_w: 3
  }
}
layer {
  name: "relu82"
  type: "ReLU"
  bottom: "conv82"
  top: "conv82"
}
layer {
  name: "pool7"
  type: "Pooling"
  bottom: "conv82"
  top: "pool7"
  pooling_param {
    pool: AVE
    kernel_size: 2
    stride: 2
  }
}
layer {
  name: "drop0"
  type: "Dropout"
  bottom: "pool7"
  top: "pool7"
  dropout_param {
    dropout_ratio: 0.4
  }
}
layer {
  name: "conv91"
  type: "Convolution"
  bottom: "pool7"
  top: "conv91"
  param {
    lr_mult: 1
    decay_mult: 1
  }
  param {
    lr_mult: 2
    decay_mult: 0
  }
  convolution_param {
    num_output: 3
    stride: 1
    weight_filler {
      type: "xavier"
    }
    bias_filler {
      type: "constant"
    }
    kernel_h: 8
    kernel_w: 8
  }
}
layer {
  name: "accuracy"
  type: "Accuracy"
  bottom: "conv91"
  bottom: "label"
  top: "accuracy"
}
layer {
  name: "loss"
  type: "SoftmaxWithLoss"
  bottom: "conv91"
  bottom: "label"
  top: "loss"
}
I0715 17:12:45.120563 37539 layer_factory.hpp:76] Creating layer data
I0715 17:12:45.120625 37539 net.cpp:106] Creating Layer data
I0715 17:12:45.120640 37539 net.cpp:411] data -> data
I0715 17:12:45.120682 37539 net.cpp:411] data -> label
I0715 17:12:45.121095 37539 image_data_layer.cpp:36] Opening file ../lists/mitosis_train.lst
I0715 17:12:45.192587 37539 image_data_layer.cpp:46] Shuffling data
I0715 17:12:45.194006 37539 image_data_layer.cpp:51] A total of 21366 images.
I0715 17:12:45.283483 37539 image_data_layer.cpp:78] output data size: 6,3,1000,1000
I0715 17:12:45.451349 37539 net.cpp:150] Setting up data
I0715 17:12:45.451417 37539 net.cpp:157] Top shape: 6 3 1000 1000 (18000000)
I0715 17:12:45.451429 37539 net.cpp:157] Top shape: 6 (6)
I0715 17:12:45.451439 37539 net.cpp:165] Memory required for data: 72000024
I0715 17:12:45.451457 37539 layer_factory.hpp:76] Creating layer label_data_1_split
I0715 17:12:45.451483 37539 net.cpp:106] Creating Layer label_data_1_split
I0715 17:12:45.451496 37539 net.cpp:454] label_data_1_split <- label
I0715 17:12:45.451521 37539 net.cpp:411] label_data_1_split -> label_data_1_split_0
I0715 17:12:45.451539 37539 net.cpp:411] label_data_1_split -> label_data_1_split_1
I0715 17:12:45.451614 37539 net.cpp:150] Setting up label_data_1_split
I0715 17:12:45.451637 37539 net.cpp:157] Top shape: 6 (6)
I0715 17:12:45.451644 37539 net.cpp:157] Top shape: 6 (6)
I0715 17:12:45.451653 37539 net.cpp:165] Memory required for data: 72000072
I0715 17:12:45.451659 37539 layer_factory.hpp:76] Creating layer conv11
I0715 17:12:45.451681 37539 net.cpp:106] Creating Layer conv11
I0715 17:12:45.451690 37539 net.cpp:454] conv11 <- data
I0715 17:12:45.451704 37539 net.cpp:411] conv11 -> conv11
I0715 17:12:45.662030 37539 net.cpp:150] Setting up conv11
I0715 17:12:45.662102 37539 net.cpp:157] Top shape: 6 32 1000 1000 (192000000)
I0715 17:12:45.662173 37539 net.cpp:165] Memory required for data: 840000072
I0715 17:12:45.662228 37539 layer_factory.hpp:76] Creating layer relu11
I0715 17:12:45.662267 37539 net.cpp:106] Creating Layer relu11
I0715 17:12:45.662288 37539 net.cpp:454] relu11 <- conv11
I0715 17:12:45.662312 37539 net.cpp:397] relu11 -> conv11 (in-place)
I0715 17:12:45.662652 37539 net.cpp:150] Setting up relu11
I0715 17:12:45.662683 37539 net.cpp:157] Top shape: 6 32 1000 1000 (192000000)
I0715 17:12:45.662698 37539 net.cpp:165] Memory required for data: 1608000072
I0715 17:12:45.662716 37539 layer_factory.hpp:76] Creating layer conv12
I0715 17:12:45.662753 37539 net.cpp:106] Creating Layer conv12
I0715 17:12:45.662772 37539 net.cpp:454] conv12 <- conv11
I0715 17:12:45.662791 37539 net.cpp:411] conv12 -> conv12
I0715 17:12:45.680583 37539 net.cpp:150] Setting up conv12
I0715 17:12:45.680652 37539 net.cpp:157] Top shape: 6 64 1000 1000 (384000000)
I0715 17:12:45.680676 37539 net.cpp:165] Memory required for data: 3144000072
I0715 17:12:45.680714 37539 layer_factory.hpp:76] Creating layer relu12
I0715 17:12:45.680740 37539 net.cpp:106] Creating Layer relu12
I0715 17:12:45.680759 37539 net.cpp:454] relu12 <- conv12
I0715 17:12:45.680785 37539 net.cpp:397] relu12 -> conv12 (in-place)
I0715 17:12:45.690783 37539 net.cpp:150] Setting up relu12
I0715 17:12:45.690848 37539 net.cpp:157] Top shape: 6 64 1000 1000 (384000000)
I0715 17:12:45.690872 37539 net.cpp:165] Memory required for data: 4680000072
I0715 17:12:45.690892 37539 layer_factory.hpp:76] Creating layer pool1
I0715 17:12:45.690920 37539 net.cpp:106] Creating Layer pool1
I0715 17:12:45.690935 37539 net.cpp:454] pool1 <- conv12
I0715 17:12:45.690953 37539 net.cpp:411] pool1 -> pool1
I0715 17:12:45.691398 37539 net.cpp:150] Setting up pool1
I0715 17:12:45.691431 37539 net.cpp:157] Top shape: 6 64 500 500 (96000000)
I0715 17:12:45.691449 37539 net.cpp:165] Memory required for data: 5064000072
I0715 17:12:45.691473 37539 layer_factory.hpp:76] Creating layer conv21
I0715 17:12:45.691500 37539 net.cpp:106] Creating Layer conv21
I0715 17:12:45.691522 37539 net.cpp:454] conv21 <- pool1
I0715 17:12:45.691546 37539 net.cpp:411] conv21 -> conv21
I0715 17:12:45.715030 37539 cudnn_conv_layer.cpp:194] Reallocating workspace storage: 6912
I0715 17:12:45.715602 37539 net.cpp:150] Setting up conv21
I0715 17:12:45.715641 37539 net.cpp:157] Top shape: 6 64 500 500 (96000000)
I0715 17:12:45.715662 37539 net.cpp:165] Memory required for data: 5448000072
I0715 17:12:45.715703 37539 layer_factory.hpp:76] Creating layer relu21
I0715 17:12:45.715734 37539 net.cpp:106] Creating Layer relu21
I0715 17:12:45.715756 37539 net.cpp:454] relu21 <- conv21
I0715 17:12:45.715782 37539 net.cpp:397] relu21 -> conv21 (in-place)
I0715 17:12:45.716631 37539 net.cpp:150] Setting up relu21
I0715 17:12:45.716667 37539 net.cpp:157] Top shape: 6 64 500 500 (96000000)
I0715 17:12:45.716686 37539 net.cpp:165] Memory required for data: 5832000072
I0715 17:12:45.716701 37539 layer_factory.hpp:76] Creating layer conv22
I0715 17:12:45.716734 37539 net.cpp:106] Creating Layer conv22
I0715 17:12:45.716752 37539 net.cpp:454] conv22 <- conv21
I0715 17:12:45.716778 37539 net.cpp:411] conv22 -> conv22
I0715 17:12:45.721302 37539 cudnn_conv_layer.cpp:194] Reallocating workspace storage: 6912
I0715 17:12:45.721365 37539 net.cpp:150] Setting up conv22
I0715 17:12:45.721395 37539 net.cpp:157] Top shape: 6 128 500 500 (192000000)
I0715 17:12:45.721410 37539 net.cpp:165] Memory required for data: 6600000072
I0715 17:12:45.721431 37539 layer_factory.hpp:76] Creating layer relu22
I0715 17:12:45.721456 37539 net.cpp:106] Creating Layer relu22
I0715 17:12:45.721472 37539 net.cpp:454] relu22 <- conv22
I0715 17:12:45.721493 37539 net.cpp:397] relu22 -> conv22 (in-place)
I0715 17:12:45.722095 37539 net.cpp:150] Setting up relu22
I0715 17:12:45.722122 37539 net.cpp:157] Top shape: 6 128 500 500 (192000000)
I0715 17:12:45.722137 37539 net.cpp:165] Memory required for data: 7368000072
I0715 17:12:45.722151 37539 layer_factory.hpp:76] Creating layer pool2
I0715 17:12:45.722218 37539 net.cpp:106] Creating Layer pool2
I0715 17:12:45.722229 37539 net.cpp:454] pool2 <- conv22
I0715 17:12:45.722251 37539 net.cpp:411] pool2 -> pool2
I0715 17:12:45.722579 37539 net.cpp:150] Setting up pool2
I0715 17:12:45.722609 37539 net.cpp:157] Top shape: 6 128 250 250 (48000000)
I0715 17:12:45.722625 37539 net.cpp:165] Memory required for data: 7560000072
I0715 17:12:45.722643 37539 layer_factory.hpp:76] Creating layer conv31
I0715 17:12:45.722666 37539 net.cpp:106] Creating Layer conv31
I0715 17:12:45.722686 37539 net.cpp:454] conv31 <- pool2
I0715 17:12:45.722709 37539 net.cpp:411] conv31 -> conv31
I0715 17:12:45.725656 37539 cudnn_conv_layer.cpp:194] Reallocating workspace storage: 13824
I0715 17:12:45.725716 37539 net.cpp:150] Setting up conv31
I0715 17:12:45.725739 37539 net.cpp:157] Top shape: 6 96 250 250 (36000000)
I0715 17:12:45.725757 37539 net.cpp:165] Memory required for data: 7704000072
I0715 17:12:45.725786 37539 layer_factory.hpp:76] Creating layer relu31
I0715 17:12:45.725814 37539 net.cpp:106] Creating Layer relu31
I0715 17:12:45.725832 37539 net.cpp:454] relu31 <- conv31
I0715 17:12:45.725852 37539 net.cpp:397] relu31 -> conv31 (in-place)
I0715 17:12:45.726447 37539 net.cpp:150] Setting up relu31
I0715 17:12:45.726475 37539 net.cpp:157] Top shape: 6 96 250 250 (36000000)
I0715 17:12:45.726490 37539 net.cpp:165] Memory required for data: 7848000072
I0715 17:12:45.726507 37539 layer_factory.hpp:76] Creating layer conv32
I0715 17:12:45.726539 37539 net.cpp:106] Creating Layer conv32
I0715 17:12:45.726560 37539 net.cpp:454] conv32 <- conv31
I0715 17:12:45.726582 37539 net.cpp:411] conv32 -> conv32
I0715 17:12:45.731148 37539 cudnn_conv_layer.cpp:194] Reallocating workspace storage: 10368
I0715 17:12:45.731201 37539 net.cpp:150] Setting up conv32
I0715 17:12:45.731225 37539 net.cpp:157] Top shape: 6 192 250 250 (72000000)
I0715 17:12:45.731242 37539 net.cpp:165] Memory required for data: 8136000072
I0715 17:12:45.731266 37539 layer_factory.hpp:76] Creating layer relu32
I0715 17:12:45.731288 37539 net.cpp:106] Creating Layer relu32
I0715 17:12:45.731304 37539 net.cpp:454] relu32 <- conv32
I0715 17:12:45.731328 37539 net.cpp:397] relu32 -> conv32 (in-place)
I0715 17:12:45.731622 37539 net.cpp:150] Setting up relu32
I0715 17:12:45.731652 37539 net.cpp:157] Top shape: 6 192 250 250 (72000000)
I0715 17:12:45.731670 37539 net.cpp:165] Memory required for data: 8424000072
I0715 17:12:45.731686 37539 layer_factory.hpp:76] Creating layer pool3
I0715 17:12:45.731709 37539 net.cpp:106] Creating Layer pool3
I0715 17:12:45.731724 37539 net.cpp:454] pool3 <- conv32
I0715 17:12:45.731750 37539 net.cpp:411] pool3 -> pool3
I0715 17:12:45.732390 37539 net.cpp:150] Setting up pool3
I0715 17:12:45.732422 37539 net.cpp:157] Top shape: 6 192 125 125 (18000000)
I0715 17:12:45.732439 37539 net.cpp:165] Memory required for data: 8496000072
I0715 17:12:45.732455 37539 layer_factory.hpp:76] Creating layer conv41
I0715 17:12:45.732486 37539 net.cpp:106] Creating Layer conv41
I0715 17:12:45.732503 37539 net.cpp:454] conv41 <- pool3
I0715 17:12:45.732532 37539 net.cpp:411] conv41 -> conv41
I0715 17:12:45.738123 37539 cudnn_conv_layer.cpp:194] Reallocating workspace storage: 20736
I0715 17:12:45.738543 37539 net.cpp:150] Setting up conv41
I0715 17:12:45.738569 37539 net.cpp:157] Top shape: 6 128 125 125 (12000000)
I0715 17:12:45.738581 37539 net.cpp:165] Memory required for data: 8544000072
I0715 17:12:45.738600 37539 layer_factory.hpp:76] Creating layer relu41
I0715 17:12:45.738636 37539 net.cpp:106] Creating Layer relu41
I0715 17:12:45.738656 37539 net.cpp:454] relu41 <- conv41
I0715 17:12:45.738680 37539 net.cpp:397] relu41 -> conv41 (in-place)
I0715 17:12:45.739276 37539 net.cpp:150] Setting up relu41
I0715 17:12:45.739302 37539 net.cpp:157] Top shape: 6 128 125 125 (12000000)
I0715 17:12:45.739312 37539 net.cpp:165] Memory required for data: 8592000072
I0715 17:12:45.739329 37539 layer_factory.hpp:76] Creating layer conv42
I0715 17:12:45.739359 37539 net.cpp:106] Creating Layer conv42
I0715 17:12:45.739408 37539 net.cpp:454] conv42 <- conv41
I0715 17:12:45.739433 37539 net.cpp:411] conv42 -> conv42
I0715 17:12:45.745333 37539 cudnn_conv_layer.cpp:194] Reallocating workspace storage: 13824
I0715 17:12:45.745393 37539 net.cpp:150] Setting up conv42
I0715 17:12:45.745417 37539 net.cpp:157] Top shape: 6 256 125 125 (24000000)
I0715 17:12:45.745434 37539 net.cpp:165] Memory required for data: 8688000072
I0715 17:12:45.745457 37539 layer_factory.hpp:76] Creating layer relu42
I0715 17:12:45.745482 37539 net.cpp:106] Creating Layer relu42
I0715 17:12:45.745498 37539 net.cpp:454] relu42 <- conv42
I0715 17:12:45.745524 37539 net.cpp:397] relu42 -> conv42 (in-place)
I0715 17:12:45.745818 37539 net.cpp:150] Setting up relu42
I0715 17:12:45.745846 37539 net.cpp:157] Top shape: 6 256 125 125 (24000000)
I0715 17:12:45.745862 37539 net.cpp:165] Memory required for data: 8784000072
I0715 17:12:45.745882 37539 layer_factory.hpp:76] Creating layer pool4
I0715 17:12:45.745903 37539 net.cpp:106] Creating Layer pool4
I0715 17:12:45.745920 37539 net.cpp:454] pool4 <- conv42
I0715 17:12:45.745939 37539 net.cpp:411] pool4 -> pool4
I0715 17:12:45.746595 37539 net.cpp:150] Setting up pool4
I0715 17:12:45.746626 37539 net.cpp:157] Top shape: 6 256 63 63 (6096384)
I0715 17:12:45.746649 37539 net.cpp:165] Memory required for data: 8808385608
I0715 17:12:45.746665 37539 layer_factory.hpp:76] Creating layer conv51
I0715 17:12:45.746695 37539 net.cpp:106] Creating Layer conv51
I0715 17:12:45.746714 37539 net.cpp:454] conv51 <- pool4
I0715 17:12:45.746738 37539 net.cpp:411] conv51 -> conv51
I0715 17:12:45.757103 37539 cudnn_conv_layer.cpp:194] Reallocating workspace storage: 27648
I0715 17:12:45.757169 37539 net.cpp:150] Setting up conv51
I0715 17:12:45.757192 37539 net.cpp:157] Top shape: 6 256 63 63 (6096384)
I0715 17:12:45.757211 37539 net.cpp:165] Memory required for data: 8832771144
I0715 17:12:45.757246 37539 layer_factory.hpp:76] Creating layer relu51
I0715 17:12:45.757272 37539 net.cpp:106] Creating Layer relu51
I0715 17:12:45.757289 37539 net.cpp:454] relu51 <- conv51
I0715 17:12:45.757307 37539 net.cpp:397] relu51 -> conv51 (in-place)
I0715 17:12:45.757599 37539 net.cpp:150] Setting up relu51
I0715 17:12:45.757627 37539 net.cpp:157] Top shape: 6 256 63 63 (6096384)
I0715 17:12:45.757647 37539 net.cpp:165] Memory required for data: 8857156680
I0715 17:12:45.757663 37539 layer_factory.hpp:76] Creating layer conv52
I0715 17:12:45.757695 37539 net.cpp:106] Creating Layer conv52
I0715 17:12:45.757712 37539 net.cpp:454] conv52 <- conv51
I0715 17:12:45.757743 37539 net.cpp:411] conv52 -> conv52
I0715 17:12:45.767335 37539 cudnn_conv_layer.cpp:194] Reallocating workspace storage: 27648
I0715 17:12:45.767384 37539 net.cpp:150] Setting up conv52
I0715 17:12:45.767407 37539 net.cpp:157] Top shape: 6 256 63 63 (6096384)
I0715 17:12:45.767428 37539 net.cpp:165] Memory required for data: 8881542216
I0715 17:12:45.767454 37539 layer_factory.hpp:76] Creating layer relu52
I0715 17:12:45.767475 37539 net.cpp:106] Creating Layer relu52
I0715 17:12:45.767493 37539 net.cpp:454] relu52 <- conv52
I0715 17:12:45.767519 37539 net.cpp:397] relu52 -> conv52 (in-place)
I0715 17:12:45.768139 37539 net.cpp:150] Setting up relu52
I0715 17:12:45.768167 37539 net.cpp:157] Top shape: 6 256 63 63 (6096384)
I0715 17:12:45.768178 37539 net.cpp:165] Memory required for data: 8905927752
I0715 17:12:45.768190 37539 layer_factory.hpp:76] Creating layer conv53
I0715 17:12:45.768219 37539 net.cpp:106] Creating Layer conv53
I0715 17:12:45.768237 37539 net.cpp:454] conv53 <- conv52
I0715 17:12:45.768256 37539 net.cpp:411] conv53 -> conv53
I0715 17:12:45.812674 37539 cudnn_conv_layer.cpp:194] Reallocating workspace storage: 150528
I0715 17:12:45.813120 37539 net.cpp:150] Setting up conv53
I0715 17:12:45.813150 37539 net.cpp:157] Top shape: 6 256 57 57 (4990464)
I0715 17:12:45.813164 37539 net.cpp:165] Memory required for data: 8925889608
I0715 17:12:45.813191 37539 layer_factory.hpp:76] Creating layer relu53
I0715 17:12:45.813225 37539 net.cpp:106] Creating Layer relu53
I0715 17:12:45.813280 37539 net.cpp:454] relu53 <- conv53
I0715 17:12:45.813297 37539 net.cpp:397] relu53 -> conv53 (in-place)
I0715 17:12:45.813896 37539 net.cpp:150] Setting up relu53
I0715 17:12:45.813923 37539 net.cpp:157] Top shape: 6 256 57 57 (4990464)
I0715 17:12:45.813932 37539 net.cpp:165] Memory required for data: 8945851464
I0715 17:12:45.813946 37539 layer_factory.hpp:76] Creating layer conv61
I0715 17:12:45.813976 37539 net.cpp:106] Creating Layer conv61
I0715 17:12:45.813995 37539 net.cpp:454] conv61 <- conv53
I0715 17:12:45.814021 37539 net.cpp:411] conv61 -> conv61
I0715 17:12:45.818290 37539 cudnn_conv_layer.cpp:194] Reallocating workspace storage: 27648
I0715 17:12:45.818328 37539 net.cpp:150] Setting up conv61
I0715 17:12:45.818353 37539 net.cpp:157] Top shape: 6 64 57 57 (1247616)
I0715 17:12:45.818375 37539 net.cpp:165] Memory required for data: 8950841928
I0715 17:12:45.818398 37539 layer_factory.hpp:76] Creating layer relu61
I0715 17:12:45.818420 37539 net.cpp:106] Creating Layer relu61
I0715 17:12:45.818441 37539 net.cpp:454] relu61 <- conv61
I0715 17:12:45.818459 37539 net.cpp:397] relu61 -> conv61 (in-place)
I0715 17:12:45.818755 37539 net.cpp:150] Setting up relu61
I0715 17:12:45.818780 37539 net.cpp:157] Top shape: 6 64 57 57 (1247616)
I0715 17:12:45.818790 37539 net.cpp:165] Memory required for data: 8955832392
I0715 17:12:45.818806 37539 layer_factory.hpp:76] Creating layer conv62
I0715 17:12:45.818830 37539 net.cpp:106] Creating Layer conv62
I0715 17:12:45.818840 37539 net.cpp:454] conv62 <- conv61
I0715 17:12:45.818858 37539 net.cpp:411] conv62 -> conv62
I0715 17:12:45.821173 37539 net.cpp:150] Setting up conv62
I0715 17:12:45.821202 37539 net.cpp:157] Top shape: 6 64 57 57 (1247616)
I0715 17:12:45.821218 37539 net.cpp:165] Memory required for data: 8960822856
I0715 17:12:45.821234 37539 layer_factory.hpp:76] Creating layer relu62
I0715 17:12:45.821247 37539 net.cpp:106] Creating Layer relu62
I0715 17:12:45.821262 37539 net.cpp:454] relu62 <- conv62
I0715 17:12:45.821282 37539 net.cpp:397] relu62 -> conv62 (in-place)
I0715 17:12:45.821894 37539 net.cpp:150] Setting up relu62
I0715 17:12:45.821920 37539 net.cpp:157] Top shape: 6 64 57 57 (1247616)
I0715 17:12:45.821931 37539 net.cpp:165] Memory required for data: 8965813320
I0715 17:12:45.821949 37539 layer_factory.hpp:76] Creating layer pool5
I0715 17:12:45.821988 37539 net.cpp:106] Creating Layer pool5
I0715 17:12:45.822006 37539 net.cpp:454] pool5 <- conv62
I0715 17:12:45.822027 37539 net.cpp:411] pool5 -> pool5
I0715 17:12:45.822376 37539 net.cpp:150] Setting up pool5
I0715 17:12:45.822403 37539 net.cpp:157] Top shape: 6 64 29 29 (322944)
I0715 17:12:45.822420 37539 net.cpp:165] Memory required for data: 8967105096
I0715 17:12:45.822439 37539 layer_factory.hpp:76] Creating layer conv71
I0715 17:12:45.822466 37539 net.cpp:106] Creating Layer conv71
I0715 17:12:45.822485 37539 net.cpp:454] conv71 <- pool5
I0715 17:12:45.822511 37539 net.cpp:411] conv71 -> conv71
I0715 17:12:45.826179 37539 cudnn_conv_layer.cpp:194] Reallocating workspace storage: 6912
I0715 17:12:45.826221 37539 net.cpp:150] Setting up conv71
I0715 17:12:45.826236 37539 net.cpp:157] Top shape: 6 96 29 29 (484416)
I0715 17:12:45.826256 37539 net.cpp:165] Memory required for data: 8969042760
I0715 17:12:45.826274 37539 layer_factory.hpp:76] Creating layer relu71
I0715 17:12:45.826295 37539 net.cpp:106] Creating Layer relu71
I0715 17:12:45.826315 37539 net.cpp:454] relu71 <- conv71
I0715 17:12:45.826338 37539 net.cpp:397] relu71 -> conv71 (in-place)
I0715 17:12:45.826638 37539 net.cpp:150] Setting up relu71
I0715 17:12:45.826669 37539 net.cpp:157] Top shape: 6 96 29 29 (484416)
I0715 17:12:45.826685 37539 net.cpp:165] Memory required for data: 8970980424
I0715 17:12:45.826702 37539 layer_factory.hpp:76] Creating layer conv72
I0715 17:12:45.826728 37539 net.cpp:106] Creating Layer conv72
I0715 17:12:45.826743 37539 net.cpp:454] conv72 <- conv71
I0715 17:12:45.826767 37539 net.cpp:411] conv72 -> conv72
I0715 17:12:45.829435 37539 cudnn_conv_layer.cpp:194] Reallocating workspace storage: 10368
I0715 17:12:45.829529 37539 net.cpp:150] Setting up conv72
I0715 17:12:45.829558 37539 net.cpp:157] Top shape: 6 96 29 29 (484416)
I0715 17:12:45.829574 37539 net.cpp:165] Memory required for data: 8972918088
I0715 17:12:45.829593 37539 layer_factory.hpp:76] Creating layer relu72
I0715 17:12:45.829614 37539 net.cpp:106] Creating Layer relu72
I0715 17:12:45.829630 37539 net.cpp:454] relu72 <- conv72
I0715 17:12:45.829643 37539 net.cpp:397] relu72 -> conv72 (in-place)
I0715 17:12:45.830238 37539 net.cpp:150] Setting up relu72
I0715 17:12:45.830267 37539 net.cpp:157] Top shape: 6 96 29 29 (484416)
I0715 17:12:45.830286 37539 net.cpp:165] Memory required for data: 8974855752
I0715 17:12:45.830303 37539 layer_factory.hpp:76] Creating layer pool6
I0715 17:12:45.830325 37539 net.cpp:106] Creating Layer pool6
I0715 17:12:45.830343 37539 net.cpp:454] pool6 <- conv72
I0715 17:12:45.830366 37539 net.cpp:411] pool6 -> pool6
I0715 17:12:45.830723 37539 net.cpp:150] Setting up pool6
I0715 17:12:45.830747 37539 net.cpp:157] Top shape: 6 96 15 15 (129600)
I0715 17:12:45.830762 37539 net.cpp:165] Memory required for data: 8975374152
I0715 17:12:45.830772 37539 layer_factory.hpp:76] Creating layer conv81
I0715 17:12:45.830798 37539 net.cpp:106] Creating Layer conv81
I0715 17:12:45.830814 37539 net.cpp:454] conv81 <- pool6
I0715 17:12:45.830842 37539 net.cpp:411] conv81 -> conv81
I0715 17:12:45.834650 37539 net.cpp:150] Setting up conv81
I0715 17:12:45.834684 37539 net.cpp:157] Top shape: 6 128 15 15 (172800)
I0715 17:12:45.834699 37539 net.cpp:165] Memory required for data: 8976065352
I0715 17:12:45.834722 37539 layer_factory.hpp:76] Creating layer relu81
I0715 17:12:45.834734 37539 net.cpp:106] Creating Layer relu81
I0715 17:12:45.834749 37539 net.cpp:454] relu81 <- conv81
I0715 17:12:45.834767 37539 net.cpp:397] relu81 -> conv81 (in-place)
I0715 17:12:45.835396 37539 net.cpp:150] Setting up relu81
I0715 17:12:45.835427 37539 net.cpp:157] Top shape: 6 128 15 15 (172800)
I0715 17:12:45.835444 37539 net.cpp:165] Memory required for data: 8976756552
I0715 17:12:45.835460 37539 layer_factory.hpp:76] Creating layer conv82
I0715 17:12:45.835487 37539 net.cpp:106] Creating Layer conv82
I0715 17:12:45.835506 37539 net.cpp:454] conv82 <- conv81
I0715 17:12:45.835527 37539 net.cpp:411] conv82 -> conv82
I0715 17:12:45.838533 37539 net.cpp:150] Setting up conv82
I0715 17:12:45.838567 37539 net.cpp:157] Top shape: 6 128 15 15 (172800)
I0715 17:12:45.838584 37539 net.cpp:165] Memory required for data: 8977447752
I0715 17:12:45.838620 37539 layer_factory.hpp:76] Creating layer relu82
I0715 17:12:45.838659 37539 net.cpp:106] Creating Layer relu82
I0715 17:12:45.838676 37539 net.cpp:454] relu82 <- conv82
I0715 17:12:45.838696 37539 net.cpp:397] relu82 -> conv82 (in-place)
I0715 17:12:45.839304 37539 net.cpp:150] Setting up relu82
I0715 17:12:45.839336 37539 net.cpp:157] Top shape: 6 128 15 15 (172800)
I0715 17:12:45.839355 37539 net.cpp:165] Memory required for data: 8978138952
I0715 17:12:45.839371 37539 layer_factory.hpp:76] Creating layer pool7
I0715 17:12:45.839393 37539 net.cpp:106] Creating Layer pool7
I0715 17:12:45.839411 37539 net.cpp:454] pool7 <- conv82
I0715 17:12:45.839428 37539 net.cpp:411] pool7 -> pool7
I0715 17:12:45.839745 37539 net.cpp:150] Setting up pool7
I0715 17:12:45.839772 37539 net.cpp:157] Top shape: 6 128 8 8 (49152)
I0715 17:12:45.839788 37539 net.cpp:165] Memory required for data: 8978335560
I0715 17:12:45.839807 37539 layer_factory.hpp:76] Creating layer drop0
I0715 17:12:45.839841 37539 net.cpp:106] Creating Layer drop0
I0715 17:12:45.839859 37539 net.cpp:454] drop0 <- pool7
I0715 17:12:45.839879 37539 net.cpp:397] drop0 -> pool7 (in-place)
I0715 17:12:45.839951 37539 net.cpp:150] Setting up drop0
I0715 17:12:45.839974 37539 net.cpp:157] Top shape: 6 128 8 8 (49152)
I0715 17:12:45.839992 37539 net.cpp:165] Memory required for data: 8978532168
I0715 17:12:45.840009 37539 layer_factory.hpp:76] Creating layer conv91
I0715 17:12:45.840037 37539 net.cpp:106] Creating Layer conv91
I0715 17:12:45.840075 37539 net.cpp:454] conv91 <- pool7
I0715 17:12:45.840101 37539 net.cpp:411] conv91 -> conv91
I0715 17:12:45.842147 37539 cudnn_conv_layer.cpp:194] Reallocating workspace storage: 98304
I0715 17:12:45.842203 37539 net.cpp:150] Setting up conv91
I0715 17:12:45.842226 37539 net.cpp:157] Top shape: 6 3 1 1 (18)
I0715 17:12:45.842242 37539 net.cpp:165] Memory required for data: 8978532240
I0715 17:12:45.842262 37539 layer_factory.hpp:76] Creating layer conv91_conv91_0_split
I0715 17:12:45.842283 37539 net.cpp:106] Creating Layer conv91_conv91_0_split
I0715 17:12:45.842293 37539 net.cpp:454] conv91_conv91_0_split <- conv91
I0715 17:12:45.842311 37539 net.cpp:411] conv91_conv91_0_split -> conv91_conv91_0_split_0
I0715 17:12:45.842334 37539 net.cpp:411] conv91_conv91_0_split -> conv91_conv91_0_split_1
I0715 17:12:45.842417 37539 net.cpp:150] Setting up conv91_conv91_0_split
I0715 17:12:45.842444 37539 net.cpp:157] Top shape: 6 3 1 1 (18)
I0715 17:12:45.842464 37539 net.cpp:157] Top shape: 6 3 1 1 (18)
I0715 17:12:45.842479 37539 net.cpp:165] Memory required for data: 8978532384
I0715 17:12:45.842496 37539 layer_factory.hpp:76] Creating layer accuracy
I0715 17:12:45.842525 37539 net.cpp:106] Creating Layer accuracy
I0715 17:12:45.842541 37539 net.cpp:454] accuracy <- conv91_conv91_0_split_0
I0715 17:12:45.842561 37539 net.cpp:454] accuracy <- label_data_1_split_0
I0715 17:12:45.842581 37539 net.cpp:411] accuracy -> accuracy
…
