…
I0713 09:13:35.816156 47912 solver.cpp:90] Creating training net from net file: train_val-resultlayer-3stack.prototxt
I0713 09:13:35.817251 47912 net.cpp:322] The NetState phase (0) differed from the phase (1) specified by a rule in layer data
I0713 09:13:35.817628 47912 net.cpp:49] Initializing net from parameters: 
name: "FaceNN"
state {
  phase: TRAIN
}
layer {
  name: "data"
  type: "ImageData"
  top: "data"
  top: "label"
  include {
    phase: TRAIN
  }
  transform_param {
    mirror: true
    mean_value: 104
    mean_value: 117
    mean_value: 123
  }
  image_data_param {
    source: "../lists/mitosis_train.lst"
    batch_size: 8
    shuffle: true
  }
}
layer {
  name: "conv11"
  type: "Convolution"
  bottom: "data"
  top: "conv11"
  param {
    lr_mult: 0
    decay_mult: 1
  }
  param {
    lr_mult: 0
    decay_mult: 0
  }
  convolution_param {
    num_output: 32
    pad: 1
    stride: 1
    weight_filler {
      type: "xavier"
    }
    bias_filler {
      type: "constant"
    }
    kernel_h: 3
    kernel_w: 3
  }
}
layer {
  name: "relu11"
  type: "ReLU"
  bottom: "conv11"
  top: "conv11"
}
layer {
  name: "conv12"
  type: "Convolution"
  bottom: "conv11"
  top: "conv12"
  param {
    lr_mult: 0
    decay_mult: 1
  }
  param {
    lr_mult: 0
    decay_mult: 0
  }
  convolution_param {
    num_output: 32
    pad: 1
    stride: 1
    weight_filler {
      type: "xavier"
    }
    bias_filler {
      type: "constant"
    }
    kernel_h: 3
    kernel_w: 3
  }
}
layer {
  name: "relu12"
  type: "ReLU"
  bottom: "conv12"
  top: "conv12"
}
layer {
  name: "pool1"
  type: "Pooling"
  bottom: "conv12"
  top: "pool1"
  pooling_param {
    pool: MAX
    kernel_size: 2
    stride: 2
  }
}
layer {
  name: "conv21"
  type: "Convolution"
  bottom: "pool1"
  top: "conv21"
  param {
    lr_mult: 0
    decay_mult: 1
  }
  param {
    lr_mult: 0
    decay_mult: 0
  }
  convolution_param {
    num_output: 64
    pad: 1
    stride: 1
    weight_filler {
      type: "xavier"
    }
    bias_filler {
      type: "constant"
    }
    kernel_h: 3
    kernel_w: 3
  }
}
layer {
  name: "relu21"
  type: "ReLU"
  bottom: "conv21"
  top: "conv21"
}
layer {
  name: "conv22"
  type: "Convolution"
  bottom: "conv21"
  top: "conv22"
  param {
    lr_mult: 0
    decay_mult: 1
  }
  param {
    lr_mult: 0
    decay_mult: 0
  }
  convolution_param {
    num_output: 64
    pad: 1
    stride: 1
    weight_filler {
      type: "xavier"
    }
    bias_filler {
      type: "constant"
    }
    kernel_h: 3
    kernel_w: 3
  }
}
layer {
  name: "relu22"
  type: "ReLU"
  bottom: "conv22"
  top: "conv22"
}
layer {
  name: "pool2"
  type: "Pooling"
  bottom: "conv22"
  top: "pool2"
  pooling_param {
    pool: MAX
    kernel_size: 2
    stride: 2
  }
}
layer {
  name: "conv31"
  type: "Convolution"
  bottom: "pool2"
  top: "conv31"
  param {
    lr_mult: 0
    decay_mult: 1
  }
  param {
    lr_mult: 0
    decay_mult: 0
  }
  convolution_param {
    num_output: 96
    pad: 1
    stride: 1
    weight_filler {
      type: "xavier"
    }
    bias_filler {
      type: "constant"
    }
    kernel_h: 3
    kernel_w: 3
  }
}
layer {
  name: "relu31"
  type: "ReLU"
  bottom: "conv31"
  top: "conv31"
}
layer {
  name: "conv32"
  type: "Convolution"
  bottom: "conv31"
  top: "conv32"
  param {
    lr_mult: 0
    decay_mult: 1
  }
  param {
    lr_mult: 0
    decay_mult: 0
  }
  convolution_param {
    num_output: 96
    pad: 1
    stride: 1
    weight_filler {
      type: "xavier"
    }
    bias_filler {
      type: "constant"
    }
    kernel_h: 3
    kernel_w: 3
  }
}
layer {
  name: "relu32"
  type: "ReLU"
  bottom: "conv32"
  top: "conv32"
}
layer {
  name: "pool3"
  type: "Pooling"
  bottom: "conv32"
  top: "pool3"
  pooling_param {
    pool: MAX
    kernel_size: 2
    stride: 2
  }
}
layer {
  name: "conv41"
  type: "Convolution"
  bottom: "pool3"
  top: "conv41"
  param {
    lr_mult: 0
    decay_mult: 1
  }
  param {
    lr_mult: 0
    decay_mult: 0
  }
  convolution_param {
    num_output: 128
    pad: 1
    stride: 1
    weight_filler {
      type: "xavier"
    }
    bias_filler {
      type: "constant"
    }
    kernel_h: 3
    kernel_w: 3
  }
}
layer {
  name: "relu41"
  type: "ReLU"
  bottom: "conv41"
  top: "conv41"
}
layer {
  name: "conv42"
  type: "Convolution"
  bottom: "conv41"
  top: "conv42"
  param {
    lr_mult: 0
    decay_mult: 1
  }
  param {
    lr_mult: 0
    decay_mult: 0
  }
  convolution_param {
    num_output: 128
    pad: 1
    stride: 1
    weight_filler {
      type: "xavier"
    }
    bias_filler {
      type: "constant"
    }
    kernel_h: 3
    kernel_w: 3
  }
}
layer {
  name: "relu42"
  type: "ReLU"
  bottom: "conv42"
  top: "conv42"
}
layer {
  name: "pool4"
  type: "Pooling"
  bottom: "conv42"
  top: "pool4"
  pooling_param {
    pool: MAX
    kernel_size: 2
    stride: 2
  }
}
layer {
  name: "conv51"
  type: "Convolution"
  bottom: "pool4"
  top: "conv51"
  param {
    lr_mult: 0
    decay_mult: 1
  }
  param {
    lr_mult: 0
    decay_mult: 0
  }
  convolution_param {
    num_output: 256
    pad: 1
    stride: 1
    weight_filler {
      type: "xavier"
    }
    bias_filler {
      type: "constant"
    }
    kernel_h: 3
    kernel_w: 3
  }
}
layer {
  name: "relu51"
  type: "ReLU"
  bottom: "conv51"
  top: "conv51"
}
layer {
  name: "conv52"
  type: "Convolution"
  bottom: "conv51"
  top: "conv52"
  param {
    lr_mult: 0
    decay_mult: 1
  }
  param {
    lr_mult: 0
    decay_mult: 0
  }
  convolution_param {
    num_output: 256
    pad: 1
    stride: 1
    weight_filler {
      type: "xavier"
    }
    bias_filler {
      type: "constant"
    }
    kernel_h: 3
    kernel_w: 3
  }
}
layer {
  name: "relu52"
  type: "ReLU"
  bottom: "conv52"
  top: "conv52"
}
layer {
  name: "conv53"
  type: "Convolution"
  bottom: "conv52"
  top: "conv53"
  param {
    lr_mult: 0
    decay_mult: 1
  }
  param {
    lr_mult: 0
    decay_mult: 0
  }
  convolution_param {
    num_output: 256
    stride: 1
    weight_filler {
      type: "xavier"
    }
    bias_filler {
      type: "constant"
    }
    kernel_h: 7
    kernel_w: 7
  }
}
layer {
  name: "relu53"
  type: "ReLU"
  bottom: "conv53"
  top: "conv53"
}
layer {
  name: "conv54"
  type: "Convolution"
  bottom: "conv53"
  top: "conv54"
  param {
    lr_mult: 1
    decay_mult: 1
  }
  param {
    lr_mult: 2
    decay_mult: 0
  }
  convolution_param {
    num_output: 2
    stride: 1
    weight_filler {
      type: "xavier"
    }
    bias_filler {
      type: "constant"
    }
    kernel_h: 1
    kernel_w: 1
  }
}
layer {
  name: "interloss"
  type: "Softmax"
  bottom: "conv54"
  top: "interloss"
}
layer {
  name: "conv61"
  type: "Convolution"
  bottom: "interloss"
  top: "conv61"
  param {
    lr_mult: 1
    decay_mult: 1
  }
  param {
    lr_mult: 2
    decay_mult: 0
  }
  convolution_param {
    num_output: 64
    pad: 1
    stride: 1
    weight_filler {
      type: "xavier"
    }
    bias_filler {
      type: "constant"
    }
    kernel_h: 3
    kernel_w: 3
  }
}
layer {
  name: "relu61"
  type: "ReLU"
  bottom: "conv61"
  top: "conv61"
}
layer {
  name: "conv62"
  type: "Convolution"
  bottom: "conv61"
  top: "conv62"
  param {
    lr_mult: 1
    decay_mult: 1
  }
  param {
    lr_mult: 2
    decay_mult: 0
  }
  convolution_param {
    num_output: 64
    pad: 1
    stride: 1
    weight_filler {
      type: "xavier"
    }
    bias_filler {
      type: "constant"
    }
    kernel_h: 3
    kernel_w: 3
  }
}
layer {
  name: "relu62"
  type: "ReLU"
  bottom: "conv62"
  top: "conv62"
}
layer {
  name: "pool5"
  type: "Pooling"
  bottom: "conv62"
  top: "pool5"
  pooling_param {
    pool: MAX
    kernel_size: 2
    stride: 2
  }
}
layer {
  name: "conv71"
  type: "Convolution"
  bottom: "pool5"
  top: "conv71"
  param {
    lr_mult: 1
    decay_mult: 1
  }
  param {
    lr_mult: 2
    decay_mult: 0
  }
  convolution_param {
    num_output: 96
    pad: 1
    stride: 1
    weight_filler {
      type: "xavier"
    }
    bias_filler {
      type: "constant"
    }
    kernel_h: 3
    kernel_w: 3
  }
}
layer {
  name: "relu71"
  type: "ReLU"
  bottom: "conv71"
  top: "conv71"
}
layer {
  name: "conv72"
  type: "Convolution"
  bottom: "conv71"
  top: "conv72"
  param {
    lr_mult: 1
    decay_mult: 1
  }
  param {
    lr_mult: 2
    decay_mult: 0
  }
  convolution_param {
    num_output: 96
    pad: 1
    stride: 1
    weight_filler {
      type: "xavier"
    }
    bias_filler {
      type: "constant"
    }
    kernel_h: 3
    kernel_w: 3
  }
}
layer {
  name: "relu72"
  type: "ReLU"
  bottom: "conv72"
  top: "conv72"
}
layer {
  name: "pool6"
  type: "Pooling"
  bottom: "conv72"
  top: "pool6"
  pooling_param {
    pool: MAX
    kernel_size: 2
    stride: 2
  }
}
layer {
  name: "conv81"
  type: "Convolution"
  bottom: "pool6"
  top: "conv81"
  param {
    lr_mult: 1
    decay_mult: 1
  }
  param {
    lr_mult: 2
    decay_mult: 0
  }
  convolution_param {
    num_output: 128
    pad: 1
    stride: 1
    weight_filler {
      type: "xavier"
    }
    bias_filler {
      type: "constant"
    }
    kernel_h: 3
    kernel_w: 3
  }
}
layer {
  name: "relu81"
  type: "ReLU"
  bottom: "conv81"
  top: "conv81"
}
layer {
  name: "conv82"
  type: "Convolution"
  bottom: "conv81"
  top: "conv82"
  param {
    lr_mult: 1
    decay_mult: 1
  }
  param {
    lr_mult: 2
    decay_mult: 0
  }
  convolution_param {
    num_output: 128
    pad: 1
    stride: 1
    weight_filler {
      type: "xavier"
    }
    bias_filler {
      type: "constant"
    }
    kernel_h: 3
    kernel_w: 3
  }
}
layer {
  name: "relu82"
  type: "ReLU"
  bottom: "conv82"
  top: "conv82"
}
layer {
  name: "pool7"
  type: "Pooling"
  bottom: "conv82"
  top: "pool7"
  pooling_param {
    pool: AVE
    kernel_size: 2
    stride: 2
  }
}
layer {
  name: "drop0"
  type: "Dropout"
  bottom: "pool7"
  top: "pool7"
  dropout_param {
    dropout_ratio: 0.4
  }
}
layer {
  name: "conv91"
  type: "Convolution"
  bottom: "pool7"
  top: "conv91"
  param {
    lr_mult: 1
    decay_mult: 1
  }
  param {
    lr_mult: 2
    decay_mult: 0
  }
  convolution_param {
    num_output: 3
    stride: 1
    weight_filler {
      type: "xavier"
    }
    bias_filler {
      type: "constant"
    }
    kernel_h: 8
    kernel_w: 8
  }
}
layer {
  name: "accuracy"
  type: "Accuracy"
  bottom: "conv91"
  bottom: "label"
  top: "accuracy"
}
layer {
  name: "loss"
  type: "SoftmaxWithLoss"
  bottom: "conv91"
  bottom: "label"
  top: "loss"
}
I0713 09:13:35.820066 47912 layer_factory.hpp:76] Creating layer data
I0713 09:13:35.820127 47912 net.cpp:106] Creating Layer data
I0713 09:13:35.820155 47912 net.cpp:411] data -> data
I0713 09:13:35.820190 47912 net.cpp:411] data -> label
I0713 09:13:35.820689 47912 image_data_layer.cpp:36] Opening file ../lists/mitosis_train.lst
I0713 09:13:35.832818 47912 image_data_layer.cpp:46] Shuffling data
I0713 09:13:35.834532 47912 image_data_layer.cpp:51] A total of 23544 images.
I0713 09:13:35.909541 47912 image_data_layer.cpp:78] output data size: 8,3,1000,1000
I0713 09:13:36.164141 47912 net.cpp:150] Setting up data
I0713 09:13:36.164213 47912 net.cpp:157] Top shape: 8 3 1000 1000 (24000000)
I0713 09:13:36.164227 47912 net.cpp:157] Top shape: 8 (8)
I0713 09:13:36.164237 47912 net.cpp:165] Memory required for data: 96000032
I0713 09:13:36.164254 47912 layer_factory.hpp:76] Creating layer label_data_1_split
I0713 09:13:36.164279 47912 net.cpp:106] Creating Layer label_data_1_split
I0713 09:13:36.164294 47912 net.cpp:454] label_data_1_split <- label
I0713 09:13:36.164314 47912 net.cpp:411] label_data_1_split -> label_data_1_split_0
I0713 09:13:36.164331 47912 net.cpp:411] label_data_1_split -> label_data_1_split_1
I0713 09:13:36.164392 47912 net.cpp:150] Setting up label_data_1_split
I0713 09:13:36.164408 47912 net.cpp:157] Top shape: 8 (8)
I0713 09:13:36.164418 47912 net.cpp:157] Top shape: 8 (8)
I0713 09:13:36.164456 47912 net.cpp:165] Memory required for data: 96000096
I0713 09:13:36.164466 47912 layer_factory.hpp:76] Creating layer conv11
I0713 09:13:36.164489 47912 net.cpp:106] Creating Layer conv11
I0713 09:13:36.164500 47912 net.cpp:454] conv11 <- data
I0713 09:13:36.164515 47912 net.cpp:411] conv11 -> conv11
I0713 09:13:36.345947 47912 net.cpp:150] Setting up conv11
I0713 09:13:36.346014 47912 net.cpp:157] Top shape: 8 32 1000 1000 (256000000)
I0713 09:13:36.346025 47912 net.cpp:165] Memory required for data: 1120000096
I0713 09:13:36.346057 47912 layer_factory.hpp:76] Creating layer relu11
I0713 09:13:36.346079 47912 net.cpp:106] Creating Layer relu11
I0713 09:13:36.346091 47912 net.cpp:454] relu11 <- conv11
I0713 09:13:36.346103 47912 net.cpp:397] relu11 -> conv11 (in-place)
I0713 09:13:36.346314 47912 net.cpp:150] Setting up relu11
I0713 09:13:36.346343 47912 net.cpp:157] Top shape: 8 32 1000 1000 (256000000)
I0713 09:13:36.346354 47912 net.cpp:165] Memory required for data: 2144000096
I0713 09:13:36.346364 47912 layer_factory.hpp:76] Creating layer conv12
I0713 09:13:36.346385 47912 net.cpp:106] Creating Layer conv12
I0713 09:13:36.346395 47912 net.cpp:454] conv12 <- conv11
I0713 09:13:36.346410 47912 net.cpp:411] conv12 -> conv12
I0713 09:13:36.351614 47912 net.cpp:150] Setting up conv12
I0713 09:13:36.351651 47912 net.cpp:157] Top shape: 8 32 1000 1000 (256000000)
I0713 09:13:36.351661 47912 net.cpp:165] Memory required for data: 3168000096
I0713 09:13:36.351677 47912 layer_factory.hpp:76] Creating layer relu12
I0713 09:13:36.351693 47912 net.cpp:106] Creating Layer relu12
I0713 09:13:36.351704 47912 net.cpp:454] relu12 <- conv12
I0713 09:13:36.351716 47912 net.cpp:397] relu12 -> conv12 (in-place)
I0713 09:13:36.352169 47912 net.cpp:150] Setting up relu12
I0713 09:13:36.352201 47912 net.cpp:157] Top shape: 8 32 1000 1000 (256000000)
I0713 09:13:36.352211 47912 net.cpp:165] Memory required for data: 4192000096
I0713 09:13:36.352221 47912 layer_factory.hpp:76] Creating layer pool1
I0713 09:13:36.352236 47912 net.cpp:106] Creating Layer pool1
I0713 09:13:36.352246 47912 net.cpp:454] pool1 <- conv12
I0713 09:13:36.352260 47912 net.cpp:411] pool1 -> pool1
I0713 09:13:36.352494 47912 net.cpp:150] Setting up pool1
I0713 09:13:36.352511 47912 net.cpp:157] Top shape: 8 32 500 500 (64000000)
I0713 09:13:36.352533 47912 net.cpp:165] Memory required for data: 4448000096
I0713 09:13:36.352543 47912 layer_factory.hpp:76] Creating layer conv21
I0713 09:13:36.352565 47912 net.cpp:106] Creating Layer conv21
I0713 09:13:36.352574 47912 net.cpp:454] conv21 <- pool1
I0713 09:13:36.352588 47912 net.cpp:411] conv21 -> conv21
I0713 09:13:36.355844 47912 net.cpp:150] Setting up conv21
I0713 09:13:36.355880 47912 net.cpp:157] Top shape: 8 64 500 500 (128000000)
I0713 09:13:36.355890 47912 net.cpp:165] Memory required for data: 4960000096
I0713 09:13:36.355906 47912 layer_factory.hpp:76] Creating layer relu21
I0713 09:13:36.355923 47912 net.cpp:106] Creating Layer relu21
I0713 09:13:36.355933 47912 net.cpp:454] relu21 <- conv21
I0713 09:13:36.355945 47912 net.cpp:397] relu21 -> conv21 (in-place)
I0713 09:13:36.356379 47912 net.cpp:150] Setting up relu21
I0713 09:13:36.356410 47912 net.cpp:157] Top shape: 8 64 500 500 (128000000)
I0713 09:13:36.356420 47912 net.cpp:165] Memory required for data: 5472000096
I0713 09:13:36.356431 47912 layer_factory.hpp:76] Creating layer conv22
I0713 09:13:36.356453 47912 net.cpp:106] Creating Layer conv22
I0713 09:13:36.356463 47912 net.cpp:454] conv22 <- conv21
I0713 09:13:36.356475 47912 net.cpp:411] conv22 -> conv22
I0713 09:13:36.360580 47912 cudnn_conv_layer.cpp:194] Reallocating workspace storage: 6912
I0713 09:13:36.360929 47912 net.cpp:150] Setting up conv22
I0713 09:13:36.360960 47912 net.cpp:157] Top shape: 8 64 500 500 (128000000)
I0713 09:13:36.360970 47912 net.cpp:165] Memory required for data: 5984000096
I0713 09:13:36.360985 47912 layer_factory.hpp:76] Creating layer relu22
I0713 09:13:36.360996 47912 net.cpp:106] Creating Layer relu22
I0713 09:13:36.361006 47912 net.cpp:454] relu22 <- conv22
I0713 09:13:36.361060 47912 net.cpp:397] relu22 -> conv22 (in-place)
I0713 09:13:36.361553 47912 net.cpp:150] Setting up relu22
I0713 09:13:36.361585 47912 net.cpp:157] Top shape: 8 64 500 500 (128000000)
I0713 09:13:36.361596 47912 net.cpp:165] Memory required for data: 6496000096
I0713 09:13:36.361608 47912 layer_factory.hpp:76] Creating layer pool2
I0713 09:13:36.361623 47912 net.cpp:106] Creating Layer pool2
I0713 09:13:36.361632 47912 net.cpp:454] pool2 <- conv22
I0713 09:13:36.361644 47912 net.cpp:411] pool2 -> pool2
I0713 09:13:36.361876 47912 net.cpp:150] Setting up pool2
I0713 09:13:36.361908 47912 net.cpp:157] Top shape: 8 64 250 250 (32000000)
I0713 09:13:36.361918 47912 net.cpp:165] Memory required for data: 6624000096
I0713 09:13:36.361928 47912 layer_factory.hpp:76] Creating layer conv31
I0713 09:13:36.361946 47912 net.cpp:106] Creating Layer conv31
I0713 09:13:36.361958 47912 net.cpp:454] conv31 <- pool2
I0713 09:13:36.361971 47912 net.cpp:411] conv31 -> conv31
I0713 09:13:36.363695 47912 cudnn_conv_layer.cpp:194] Reallocating workspace storage: 6912
I0713 09:13:36.363742 47912 net.cpp:150] Setting up conv31
I0713 09:13:36.363755 47912 net.cpp:157] Top shape: 8 96 250 250 (48000000)
I0713 09:13:36.363765 47912 net.cpp:165] Memory required for data: 6816000096
I0713 09:13:36.363783 47912 layer_factory.hpp:76] Creating layer relu31
I0713 09:13:36.363796 47912 net.cpp:106] Creating Layer relu31
I0713 09:13:36.363806 47912 net.cpp:454] relu31 <- conv31
I0713 09:13:36.363821 47912 net.cpp:397] relu31 -> conv31 (in-place)
I0713 09:13:36.364275 47912 net.cpp:150] Setting up relu31
I0713 09:13:36.364307 47912 net.cpp:157] Top shape: 8 96 250 250 (48000000)
I0713 09:13:36.364316 47912 net.cpp:165] Memory required for data: 7008000096
I0713 09:13:36.364326 47912 layer_factory.hpp:76] Creating layer conv32
I0713 09:13:36.364344 47912 net.cpp:106] Creating Layer conv32
I0713 09:13:36.364354 47912 net.cpp:454] conv32 <- conv31
I0713 09:13:36.364368 47912 net.cpp:411] conv32 -> conv32
I0713 09:13:36.367072 47912 cudnn_conv_layer.cpp:194] Reallocating workspace storage: 10368
I0713 09:13:36.367120 47912 net.cpp:150] Setting up conv32
I0713 09:13:36.367132 47912 net.cpp:157] Top shape: 8 96 250 250 (48000000)
I0713 09:13:36.367141 47912 net.cpp:165] Memory required for data: 7200000096
I0713 09:13:36.367154 47912 layer_factory.hpp:76] Creating layer relu32
I0713 09:13:36.367169 47912 net.cpp:106] Creating Layer relu32
I0713 09:13:36.367180 47912 net.cpp:454] relu32 <- conv32
I0713 09:13:36.367190 47912 net.cpp:397] relu32 -> conv32 (in-place)
I0713 09:13:36.367406 47912 net.cpp:150] Setting up relu32
I0713 09:13:36.367435 47912 net.cpp:157] Top shape: 8 96 250 250 (48000000)
I0713 09:13:36.367444 47912 net.cpp:165] Memory required for data: 7392000096
I0713 09:13:36.367455 47912 layer_factory.hpp:76] Creating layer pool3
I0713 09:13:36.367470 47912 net.cpp:106] Creating Layer pool3
I0713 09:13:36.367480 47912 net.cpp:454] pool3 <- conv32
I0713 09:13:36.367491 47912 net.cpp:411] pool3 -> pool3
I0713 09:13:36.367975 47912 net.cpp:150] Setting up pool3
I0713 09:13:36.368006 47912 net.cpp:157] Top shape: 8 96 125 125 (12000000)
I0713 09:13:36.368016 47912 net.cpp:165] Memory required for data: 7440000096
I0713 09:13:36.368026 47912 layer_factory.hpp:76] Creating layer conv41
I0713 09:13:36.368047 47912 net.cpp:106] Creating Layer conv41
I0713 09:13:36.368058 47912 net.cpp:454] conv41 <- pool3
I0713 09:13:36.368070 47912 net.cpp:411] conv41 -> conv41
I0713 09:13:36.369736 47912 cudnn_conv_layer.cpp:194] Reallocating workspace storage: 10368
I0713 09:13:36.369786 47912 net.cpp:150] Setting up conv41
I0713 09:13:36.369798 47912 net.cpp:157] Top shape: 8 128 125 125 (16000000)
I0713 09:13:36.369807 47912 net.cpp:165] Memory required for data: 7504000096
I0713 09:13:36.369820 47912 layer_factory.hpp:76] Creating layer relu41
I0713 09:13:36.369832 47912 net.cpp:106] Creating Layer relu41
I0713 09:13:36.369842 47912 net.cpp:454] relu41 <- conv41
I0713 09:13:36.369855 47912 net.cpp:397] relu41 -> conv41 (in-place)
I0713 09:13:36.370651 47912 net.cpp:150] Setting up relu41
I0713 09:13:36.370672 47912 net.cpp:157] Top shape: 8 128 125 125 (16000000)
I0713 09:13:36.370682 47912 net.cpp:165] Memory required for data: 7568000096
I0713 09:13:36.370692 47912 layer_factory.hpp:76] Creating layer conv42
I0713 09:13:36.370707 47912 net.cpp:106] Creating Layer conv42
I0713 09:13:36.370718 47912 net.cpp:454] conv42 <- conv41
I0713 09:13:36.370733 47912 net.cpp:411] conv42 -> conv42
I0713 09:13:36.373829 47912 cudnn_conv_layer.cpp:194] Reallocating workspace storage: 13824
I0713 09:13:36.373879 47912 net.cpp:150] Setting up conv42
I0713 09:13:36.373893 47912 net.cpp:157] Top shape: 8 128 125 125 (16000000)
I0713 09:13:36.373901 47912 net.cpp:165] Memory required for data: 7632000096
I0713 09:13:36.373914 47912 layer_factory.hpp:76] Creating layer relu42
I0713 09:13:36.373926 47912 net.cpp:106] Creating Layer relu42
I0713 09:13:36.373936 47912 net.cpp:454] relu42 <- conv42
I0713 09:13:36.373950 47912 net.cpp:397] relu42 -> conv42 (in-place)
I0713 09:13:36.374161 47912 net.cpp:150] Setting up relu42
I0713 09:13:36.374189 47912 net.cpp:157] Top shape: 8 128 125 125 (16000000)
I0713 09:13:36.374198 47912 net.cpp:165] Memory required for data: 7696000096
I0713 09:13:36.374207 47912 layer_factory.hpp:76] Creating layer pool4
I0713 09:13:36.374222 47912 net.cpp:106] Creating Layer pool4
I0713 09:13:36.374233 47912 net.cpp:454] pool4 <- conv42
I0713 09:13:36.374243 47912 net.cpp:411] pool4 -> pool4
I0713 09:13:36.374737 47912 net.cpp:150] Setting up pool4
I0713 09:13:36.374769 47912 net.cpp:157] Top shape: 8 128 63 63 (4064256)
I0713 09:13:36.374778 47912 net.cpp:165] Memory required for data: 7712257120
I0713 09:13:36.374788 47912 layer_factory.hpp:76] Creating layer conv51
I0713 09:13:36.374806 47912 net.cpp:106] Creating Layer conv51
I0713 09:13:36.374817 47912 net.cpp:454] conv51 <- pool4
I0713 09:13:36.374828 47912 net.cpp:411] conv51 -> conv51
I0713 09:13:36.379962 47912 cudnn_conv_layer.cpp:194] Reallocating workspace storage: 13824
I0713 09:13:36.379997 47912 net.cpp:150] Setting up conv51
I0713 09:13:36.380012 47912 net.cpp:157] Top shape: 8 256 63 63 (8128512)
I0713 09:13:36.380022 47912 net.cpp:165] Memory required for data: 7744771168
I0713 09:13:36.380054 47912 layer_factory.hpp:76] Creating layer relu51
I0713 09:13:36.380067 47912 net.cpp:106] Creating Layer relu51
I0713 09:13:36.380079 47912 net.cpp:454] relu51 <- conv51
I0713 09:13:36.380091 47912 net.cpp:397] relu51 -> conv51 (in-place)
I0713 09:13:36.380277 47912 net.cpp:150] Setting up relu51
I0713 09:13:36.380295 47912 net.cpp:157] Top shape: 8 256 63 63 (8128512)
I0713 09:13:36.380303 47912 net.cpp:165] Memory required for data: 7777285216
I0713 09:13:36.380313 47912 layer_factory.hpp:76] Creating layer conv52
I0713 09:13:36.380329 47912 net.cpp:106] Creating Layer conv52
I0713 09:13:36.380339 47912 net.cpp:454] conv52 <- conv51
I0713 09:13:36.380353 47912 net.cpp:411] conv52 -> conv52
I0713 09:13:36.387329 47912 cudnn_conv_layer.cpp:194] Reallocating workspace storage: 27648
I0713 09:13:36.387364 47912 net.cpp:150] Setting up conv52
I0713 09:13:36.387378 47912 net.cpp:157] Top shape: 8 256 63 63 (8128512)
I0713 09:13:36.387387 47912 net.cpp:165] Memory required for data: 7809799264
I0713 09:13:36.387399 47912 layer_factory.hpp:76] Creating layer relu52
I0713 09:13:36.387413 47912 net.cpp:106] Creating Layer relu52
I0713 09:13:36.387421 47912 net.cpp:454] relu52 <- conv52
I0713 09:13:36.387434 47912 net.cpp:397] relu52 -> conv52 (in-place)
I0713 09:13:36.387887 47912 net.cpp:150] Setting up relu52
I0713 09:13:36.387908 47912 net.cpp:157] Top shape: 8 256 63 63 (8128512)
I0713 09:13:36.387918 47912 net.cpp:165] Memory required for data: 7842313312
I0713 09:13:36.387928 47912 layer_factory.hpp:76] Creating layer conv53
I0713 09:13:36.387956 47912 net.cpp:106] Creating Layer conv53
I0713 09:13:36.387967 47912 net.cpp:454] conv53 <- conv52
I0713 09:13:36.387981 47912 net.cpp:411] conv53 -> conv53
I0713 09:13:36.421821 47912 cudnn_conv_layer.cpp:194] Reallocating workspace storage: 150528
I0713 09:13:36.422219 47912 net.cpp:150] Setting up conv53
I0713 09:13:36.422255 47912 net.cpp:157] Top shape: 8 256 57 57 (6653952)
I0713 09:13:36.422266 47912 net.cpp:165] Memory required for data: 7868929120
I0713 09:13:36.422284 47912 layer_factory.hpp:76] Creating layer relu53
I0713 09:13:36.422302 47912 net.cpp:106] Creating Layer relu53
I0713 09:13:36.422328 47912 net.cpp:454] relu53 <- conv53
I0713 09:13:36.422343 47912 net.cpp:397] relu53 -> conv53 (in-place)
I0713 09:13:36.422866 47912 net.cpp:150] Setting up relu53
I0713 09:13:36.422899 47912 net.cpp:157] Top shape: 8 256 57 57 (6653952)
I0713 09:13:36.422910 47912 net.cpp:165] Memory required for data: 7895544928
I0713 09:13:36.422920 47912 layer_factory.hpp:76] Creating layer conv54
I0713 09:13:36.422936 47912 net.cpp:106] Creating Layer conv54
I0713 09:13:36.422946 47912 net.cpp:454] conv54 <- conv53
I0713 09:13:36.422961 47912 net.cpp:411] conv54 -> conv54
I0713 09:13:36.424166 47912 net.cpp:150] Setting up conv54
I0713 09:13:36.424201 47912 net.cpp:157] Top shape: 8 2 57 57 (51984)
I0713 09:13:36.424211 47912 net.cpp:165] Memory required for data: 7895752864
I0713 09:13:36.424224 47912 layer_factory.hpp:76] Creating layer interloss
I0713 09:13:36.424237 47912 net.cpp:106] Creating Layer interloss
I0713 09:13:36.424247 47912 net.cpp:454] interloss <- conv54
I0713 09:13:36.424258 47912 net.cpp:411] interloss -> interloss
I0713 09:13:36.424527 47912 net.cpp:150] Setting up interloss
I0713 09:13:36.424557 47912 net.cpp:157] Top shape: 8 2 57 57 (51984)
I0713 09:13:36.424566 47912 net.cpp:165] Memory required for data: 7895960800
I0713 09:13:36.424577 47912 layer_factory.hpp:76] Creating layer conv61
I0713 09:13:36.424594 47912 net.cpp:106] Creating Layer conv61
I0713 09:13:36.424605 47912 net.cpp:454] conv61 <- interloss
I0713 09:13:36.424617 47912 net.cpp:411] conv61 -> conv61
I0713 09:13:36.426012 47912 cudnn_conv_layer.cpp:194] Reallocating workspace storage: 5614272
I0713 09:13:36.426399 47912 net.cpp:150] Setting up conv61
I0713 09:13:36.426430 47912 net.cpp:157] Top shape: 8 64 57 57 (1663488)
I0713 09:13:36.426440 47912 net.cpp:165] Memory required for data: 7902614752
I0713 09:13:36.426451 47912 layer_factory.hpp:76] Creating layer relu61
I0713 09:13:36.426466 47912 net.cpp:106] Creating Layer relu61
I0713 09:13:36.426476 47912 net.cpp:454] relu61 <- conv61
I0713 09:13:36.426488 47912 net.cpp:397] relu61 -> conv61 (in-place)
I0713 09:13:36.427021 47912 net.cpp:150] Setting up relu61
I0713 09:13:36.427052 47912 net.cpp:157] Top shape: 8 64 57 57 (1663488)
I0713 09:13:36.427062 47912 net.cpp:165] Memory required for data: 7909268704
I0713 09:13:36.427073 47912 layer_factory.hpp:76] Creating layer conv62
I0713 09:13:36.427096 47912 net.cpp:106] Creating Layer conv62
I0713 09:13:36.427106 47912 net.cpp:454] conv62 <- conv61
I0713 09:13:36.427121 47912 net.cpp:411] conv62 -> conv62
I0713 09:13:36.429116 47912 net.cpp:150] Setting up conv62
I0713 09:13:36.429148 47912 net.cpp:157] Top shape: 8 64 57 57 (1663488)
I0713 09:13:36.429158 47912 net.cpp:165] Memory required for data: 7915922656
I0713 09:13:36.429170 47912 layer_factory.hpp:76] Creating layer relu62
I0713 09:13:36.429184 47912 net.cpp:106] Creating Layer relu62
I0713 09:13:36.429194 47912 net.cpp:454] relu62 <- conv62
I0713 09:13:36.429205 47912 net.cpp:397] relu62 -> conv62 (in-place)
I0713 09:13:36.429687 47912 net.cpp:150] Setting up relu62
I0713 09:13:36.429718 47912 net.cpp:157] Top shape: 8 64 57 57 (1663488)
I0713 09:13:36.429728 47912 net.cpp:165] Memory required for data: 7922576608
I0713 09:13:36.429738 47912 layer_factory.hpp:76] Creating layer pool5
I0713 09:13:36.429752 47912 net.cpp:106] Creating Layer pool5
I0713 09:13:36.429762 47912 net.cpp:454] pool5 <- conv62
I0713 09:13:36.429772 47912 net.cpp:411] pool5 -> pool5
I0713 09:13:36.430039 47912 net.cpp:150] Setting up pool5
I0713 09:13:36.430068 47912 net.cpp:157] Top shape: 8 64 29 29 (430592)
I0713 09:13:36.430078 47912 net.cpp:165] Memory required for data: 7924298976
I0713 09:13:36.430088 47912 layer_factory.hpp:76] Creating layer conv71
I0713 09:13:36.430117 47912 net.cpp:106] Creating Layer conv71
I0713 09:13:36.430129 47912 net.cpp:454] conv71 <- pool5
I0713 09:13:36.430140 47912 net.cpp:411] conv71 -> conv71
I0713 09:13:36.432155 47912 cudnn_conv_layer.cpp:194] Reallocating workspace storage: 6912
I0713 09:13:36.432202 47912 net.cpp:150] Setting up conv71
I0713 09:13:36.432215 47912 net.cpp:157] Top shape: 8 96 29 29 (645888)
I0713 09:13:36.432224 47912 net.cpp:165] Memory required for data: 7926882528
I0713 09:13:36.432237 47912 layer_factory.hpp:76] Creating layer relu71
I0713 09:13:36.432251 47912 net.cpp:106] Creating Layer relu71
I0713 09:13:36.432262 47912 net.cpp:454] relu71 <- conv71
I0713 09:13:36.432273 47912 net.cpp:397] relu71 -> conv71 (in-place)
I0713 09:13:36.432750 47912 net.cpp:150] Setting up relu71
I0713 09:13:36.432782 47912 net.cpp:157] Top shape: 8 96 29 29 (645888)
I0713 09:13:36.432791 47912 net.cpp:165] Memory required for data: 7929466080
I0713 09:13:36.432802 47912 layer_factory.hpp:76] Creating layer conv72
I0713 09:13:36.432821 47912 net.cpp:106] Creating Layer conv72
I0713 09:13:36.432831 47912 net.cpp:454] conv72 <- conv71
I0713 09:13:36.432842 47912 net.cpp:411] conv72 -> conv72
I0713 09:13:36.434649 47912 cudnn_conv_layer.cpp:194] Reallocating workspace storage: 10368
I0713 09:13:36.434710 47912 net.cpp:150] Setting up conv72
I0713 09:13:36.434751 47912 net.cpp:157] Top shape: 8 96 29 29 (645888)
I0713 09:13:36.434761 47912 net.cpp:165] Memory required for data: 7932049632
I0713 09:13:36.434773 47912 layer_factory.hpp:76] Creating layer relu72
I0713 09:13:36.434797 47912 net.cpp:106] Creating Layer relu72
I0713 09:13:36.434806 47912 net.cpp:454] relu72 <- conv72
I0713 09:13:36.434818 47912 net.cpp:397] relu72 -> conv72 (in-place)
I0713 09:13:36.435053 47912 net.cpp:150] Setting up relu72
I0713 09:13:36.435083 47912 net.cpp:157] Top shape: 8 96 29 29 (645888)
I0713 09:13:36.435092 47912 net.cpp:165] Memory required for data: 7934633184
I0713 09:13:36.435102 47912 layer_factory.hpp:76] Creating layer pool6
I0713 09:13:36.435117 47912 net.cpp:106] Creating Layer pool6
I0713 09:13:36.435127 47912 net.cpp:454] pool6 <- conv72
I0713 09:13:36.435150 47912 net.cpp:411] pool6 -> pool6
I0713 09:13:36.435698 47912 net.cpp:150] Setting up pool6
I0713 09:13:36.435729 47912 net.cpp:157] Top shape: 8 96 15 15 (172800)
I0713 09:13:36.435739 47912 net.cpp:165] Memory required for data: 7935324384
I0713 09:13:36.435747 47912 layer_factory.hpp:76] Creating layer conv81
I0713 09:13:36.435765 47912 net.cpp:106] Creating Layer conv81
I0713 09:13:36.435775 47912 net.cpp:454] conv81 <- pool6
I0713 09:13:36.435789 47912 net.cpp:411] conv81 -> conv81
I0713 09:13:36.438374 47912 net.cpp:150] Setting up conv81
I0713 09:13:36.438406 47912 net.cpp:157] Top shape: 8 128 15 15 (230400)
I0713 09:13:36.438416 47912 net.cpp:165] Memory required for data: 7936245984
I0713 09:13:36.438438 47912 layer_factory.hpp:76] Creating layer relu81
I0713 09:13:36.438455 47912 net.cpp:106] Creating Layer relu81
I0713 09:13:36.438468 47912 net.cpp:454] relu81 <- conv81
I0713 09:13:36.438493 47912 net.cpp:397] relu81 -> conv81 (in-place)
I0713 09:13:36.438963 47912 net.cpp:150] Setting up relu81
I0713 09:13:36.438995 47912 net.cpp:157] Top shape: 8 128 15 15 (230400)
I0713 09:13:36.439005 47912 net.cpp:165] Memory required for data: 7937167584
I0713 09:13:36.439015 47912 layer_factory.hpp:76] Creating layer conv82
I0713 09:13:36.439033 47912 net.cpp:106] Creating Layer conv82
I0713 09:13:36.439043 47912 net.cpp:454] conv82 <- conv81
I0713 09:13:36.439059 47912 net.cpp:411] conv82 -> conv82
I0713 09:13:36.441279 47912 net.cpp:150] Setting up conv82
I0713 09:13:36.441313 47912 net.cpp:157] Top shape: 8 128 15 15 (230400)
I0713 09:13:36.441323 47912 net.cpp:165] Memory required for data: 7938089184
I0713 09:13:36.441335 47912 layer_factory.hpp:76] Creating layer relu82
I0713 09:13:36.441349 47912 net.cpp:106] Creating Layer relu82
I0713 09:13:36.441360 47912 net.cpp:454] relu82 <- conv82
I0713 09:13:36.441371 47912 net.cpp:397] relu82 -> conv82 (in-place)
I0713 09:13:36.441632 47912 net.cpp:150] Setting up relu82
I0713 09:13:36.441661 47912 net.cpp:157] Top shape: 8 128 15 15 (230400)
I0713 09:13:36.441670 47912 net.cpp:165] Memory required for data: 7939010784
I0713 09:13:36.441679 47912 layer_factory.hpp:76] Creating layer pool7
I0713 09:13:36.441691 47912 net.cpp:106] Creating Layer pool7
I0713 09:13:36.441701 47912 net.cpp:454] pool7 <- conv82
I0713 09:13:36.441715 47912 net.cpp:411] pool7 -> pool7
I0713 09:13:36.442240 47912 net.cpp:150] Setting up pool7
I0713 09:13:36.442271 47912 net.cpp:157] Top shape: 8 128 8 8 (65536)
I0713 09:13:36.442281 47912 net.cpp:165] Memory required for data: 7939272928
I0713 09:13:36.442291 47912 layer_factory.hpp:76] Creating layer drop0
I0713 09:13:36.442308 47912 net.cpp:106] Creating Layer drop0
I0713 09:13:36.442319 47912 net.cpp:454] drop0 <- pool7
I0713 09:13:36.442329 47912 net.cpp:397] drop0 -> pool7 (in-place)
I0713 09:13:36.442370 47912 net.cpp:150] Setting up drop0
I0713 09:13:36.442384 47912 net.cpp:157] Top shape: 8 128 8 8 (65536)
I0713 09:13:36.442394 47912 net.cpp:165] Memory required for data: 7939535072
I0713 09:13:36.442402 47912 layer_factory.hpp:76] Creating layer conv91
I0713 09:13:36.442420 47912 net.cpp:106] Creating Layer conv91
I0713 09:13:36.442428 47912 net.cpp:454] conv91 <- pool7
I0713 09:13:36.442440 47912 net.cpp:411] conv91 -> conv91
I0713 09:13:36.443895 47912 cudnn_conv_layer.cpp:194] Reallocating workspace storage: 98304
I0713 09:13:36.443940 47912 net.cpp:150] Setting up conv91
I0713 09:13:36.443954 47912 net.cpp:157] Top shape: 8 3 1 1 (24)
I0713 09:13:36.443964 47912 net.cpp:165] Memory required for data: 7939535168
I0713 09:13:36.443977 47912 layer_factory.hpp:76] Creating layer conv91_conv91_0_split
I0713 09:13:36.443990 47912 net.cpp:106] Creating Layer conv91_conv91_0_split
I0713 09:13:36.444000 47912 net.cpp:454] conv91_conv91_0_split <- conv91
I0713 09:13:36.444011 47912 net.cpp:411] conv91_conv91_0_split -> conv91_conv91_0_split_0
I0713 09:13:36.444042 47912 net.cpp:411] conv91_conv91_0_split -> conv91_conv91_0_split_1
I0713 09:13:36.444111 47912 net.cpp:150] Setting up conv91_conv91_0_split
I0713 09:13:36.444139 47912 net.cpp:157] Top shape: 8 3 1 1 (24)
I0713 09:13:36.444149 47912 net.cpp:157] Top shape: 8 3 1 1 (24)
I0713 09:13:36.444159 47912 net.cpp:165] Memory required for data: 7939535360
I0713 09:13:36.444169 47912 layer_factory.hpp:76] Creating layer accuracy
I0713 09:13:36.444183 47912 net.cpp:106] Creating Layer accuracy
I0713 09:13:36.444206 47912 net.cpp:454] accuracy <- conv91_conv91_0_split_0
I0713 09:13:36.444216 47912 net.cpp:454] accuracy <- label_data_1_split_0
I0713 09:13:36.444231 47912 net.cpp:411] accuracy -> accuracy
…
