…
I0712 18:43:21.631942 45614 solver.cpp:90] Creating training net from net file: train_val-featurelayer-3stack.prototxt
I0712 18:43:21.641135 45614 net.cpp:322] The NetState phase (0) differed from the phase (1) specified by a rule in layer data
I0712 18:43:21.641417 45614 net.cpp:49] Initializing net from parameters: 
name: "FaceNN"
state {
  phase: TRAIN
}
layer {
  name: "data"
  type: "ImageData"
  top: "data"
  top: "label"
  include {
    phase: TRAIN
  }
  transform_param {
    mirror: true
    mean_value: 104
    mean_value: 117
    mean_value: 123
  }
  image_data_param {
    source: "../lists/mitosis_train.lst"
    batch_size: 8
    shuffle: true
  }
}
layer {
  name: "conv11"
  type: "Convolution"
  bottom: "data"
  top: "conv11"
  param {
    lr_mult: 0
    decay_mult: 1
  }
  param {
    lr_mult: 0
    decay_mult: 0
  }
  convolution_param {
    num_output: 32
    pad: 1
    stride: 1
    weight_filler {
      type: "xavier"
    }
    bias_filler {
      type: "constant"
    }
    kernel_h: 3
    kernel_w: 3
  }
}
layer {
  name: "relu11"
  type: "ReLU"
  bottom: "conv11"
  top: "conv11"
}
layer {
  name: "conv12"
  type: "Convolution"
  bottom: "conv11"
  top: "conv12"
  param {
    lr_mult: 0
    decay_mult: 1
  }
  param {
    lr_mult: 0
    decay_mult: 0
  }
  convolution_param {
    num_output: 32
    pad: 1
    stride: 1
    weight_filler {
      type: "xavier"
    }
    bias_filler {
      type: "constant"
    }
    kernel_h: 3
    kernel_w: 3
  }
}
layer {
  name: "relu12"
  type: "ReLU"
  bottom: "conv12"
  top: "conv12"
}
layer {
  name: "pool1"
  type: "Pooling"
  bottom: "conv12"
  top: "pool1"
  pooling_param {
    pool: MAX
    kernel_size: 2
    stride: 2
  }
}
layer {
  name: "conv21"
  type: "Convolution"
  bottom: "pool1"
  top: "conv21"
  param {
    lr_mult: 0
    decay_mult: 1
  }
  param {
    lr_mult: 0
    decay_mult: 0
  }
  convolution_param {
    num_output: 64
    pad: 1
    stride: 1
    weight_filler {
      type: "xavier"
    }
    bias_filler {
      type: "constant"
    }
    kernel_h: 3
    kernel_w: 3
  }
}
layer {
  name: "relu21"
  type: "ReLU"
  bottom: "conv21"
  top: "conv21"
}
layer {
  name: "conv22"
  type: "Convolution"
  bottom: "conv21"
  top: "conv22"
  param {
    lr_mult: 0
    decay_mult: 1
  }
  param {
    lr_mult: 0
    decay_mult: 0
  }
  convolution_param {
    num_output: 64
    pad: 1
    stride: 1
    weight_filler {
      type: "xavier"
    }
    bias_filler {
      type: "constant"
    }
    kernel_h: 3
    kernel_w: 3
  }
}
layer {
  name: "relu22"
  type: "ReLU"
  bottom: "conv22"
  top: "conv22"
}
layer {
  name: "pool2"
  type: "Pooling"
  bottom: "conv22"
  top: "pool2"
  pooling_param {
    pool: MAX
    kernel_size: 2
    stride: 2
  }
}
layer {
  name: "conv31"
  type: "Convolution"
  bottom: "pool2"
  top: "conv31"
  param {
    lr_mult: 0
    decay_mult: 1
  }
  param {
    lr_mult: 0
    decay_mult: 0
  }
  convolution_param {
    num_output: 96
    pad: 1
    stride: 1
    weight_filler {
      type: "xavier"
    }
    bias_filler {
      type: "constant"
    }
    kernel_h: 3
    kernel_w: 3
  }
}
layer {
  name: "relu31"
  type: "ReLU"
  bottom: "conv31"
  top: "conv31"
}
layer {
  name: "conv32"
  type: "Convolution"
  bottom: "conv31"
  top: "conv32"
  param {
    lr_mult: 0
    decay_mult: 1
  }
  param {
    lr_mult: 0
    decay_mult: 0
  }
  convolution_param {
    num_output: 96
    pad: 1
    stride: 1
    weight_filler {
      type: "xavier"
    }
    bias_filler {
      type: "constant"
    }
    kernel_h: 3
    kernel_w: 3
  }
}
layer {
  name: "relu32"
  type: "ReLU"
  bottom: "conv32"
  top: "conv32"
}
layer {
  name: "pool3"
  type: "Pooling"
  bottom: "conv32"
  top: "pool3"
  pooling_param {
    pool: MAX
    kernel_size: 2
    stride: 2
  }
}
layer {
  name: "conv41"
  type: "Convolution"
  bottom: "pool3"
  top: "conv41"
  param {
    lr_mult: 0
    decay_mult: 1
  }
  param {
    lr_mult: 0
    decay_mult: 0
  }
  convolution_param {
    num_output: 128
    pad: 1
    stride: 1
    weight_filler {
      type: "xavier"
    }
    bias_filler {
      type: "constant"
    }
    kernel_h: 3
    kernel_w: 3
  }
}
layer {
  name: "relu41"
  type: "ReLU"
  bottom: "conv41"
  top: "conv41"
}
layer {
  name: "conv42"
  type: "Convolution"
  bottom: "conv41"
  top: "conv42"
  param {
    lr_mult: 0
    decay_mult: 1
  }
  param {
    lr_mult: 0
    decay_mult: 0
  }
  convolution_param {
    num_output: 128
    pad: 1
    stride: 1
    weight_filler {
      type: "xavier"
    }
    bias_filler {
      type: "constant"
    }
    kernel_h: 3
    kernel_w: 3
  }
}
layer {
  name: "relu42"
  type: "ReLU"
  bottom: "conv42"
  top: "conv42"
}
layer {
  name: "pool4"
  type: "Pooling"
  bottom: "conv42"
  top: "pool4"
  pooling_param {
    pool: MAX
    kernel_size: 2
    stride: 2
  }
}
layer {
  name: "conv51"
  type: "Convolution"
  bottom: "pool4"
  top: "conv51"
  param {
    lr_mult: 0
    decay_mult: 1
  }
  param {
    lr_mult: 0
    decay_mult: 0
  }
  convolution_param {
    num_output: 256
    pad: 1
    stride: 1
    weight_filler {
      type: "xavier"
    }
    bias_filler {
      type: "constant"
    }
    kernel_h: 3
    kernel_w: 3
  }
}
layer {
  name: "relu51"
  type: "ReLU"
  bottom: "conv51"
  top: "conv51"
}
layer {
  name: "conv52"
  type: "Convolution"
  bottom: "conv51"
  top: "conv52"
  param {
    lr_mult: 0
    decay_mult: 1
  }
  param {
    lr_mult: 0
    decay_mult: 0
  }
  convolution_param {
    num_output: 256
    pad: 1
    stride: 1
    weight_filler {
      type: "xavier"
    }
    bias_filler {
      type: "constant"
    }
    kernel_h: 3
    kernel_w: 3
  }
}
layer {
  name: "relu52"
  type: "ReLU"
  bottom: "conv52"
  top: "conv52"
}
layer {
  name: "conv53"
  type: "Convolution"
  bottom: "conv52"
  top: "conv53"
  param {
    lr_mult: 0
    decay_mult: 1
  }
  param {
    lr_mult: 0
    decay_mult: 0
  }
  convolution_param {
    num_output: 256
    stride: 1
    weight_filler {
      type: "xavier"
    }
    bias_filler {
      type: "constant"
    }
    kernel_h: 7
    kernel_w: 7
  }
}
layer {
  name: "relu53"
  type: "ReLU"
  bottom: "conv53"
  top: "conv53"
}
layer {
  name: "conv61"
  type: "Convolution"
  bottom: "conv53"
  top: "conv61"
  param {
    lr_mult: 1
    decay_mult: 1
  }
  param {
    lr_mult: 2
    decay_mult: 0
  }
  convolution_param {
    num_output: 64
    pad: 1
    stride: 1
    weight_filler {
      type: "xavier"
    }
    bias_filler {
      type: "constant"
    }
    kernel_h: 3
    kernel_w: 3
  }
}
layer {
  name: "relu61"
  type: "ReLU"
  bottom: "conv61"
  top: "conv61"
}
layer {
  name: "conv62"
  type: "Convolution"
  bottom: "conv61"
  top: "conv62"
  param {
    lr_mult: 1
    decay_mult: 1
  }
  param {
    lr_mult: 2
    decay_mult: 0
  }
  convolution_param {
    num_output: 64
    pad: 1
    stride: 1
    weight_filler {
      type: "xavier"
    }
    bias_filler {
      type: "constant"
    }
    kernel_h: 3
    kernel_w: 3
  }
}
layer {
  name: "relu62"
  type: "ReLU"
  bottom: "conv62"
  top: "conv62"
}
layer {
  name: "pool5"
  type: "Pooling"
  bottom: "conv62"
  top: "pool5"
  pooling_param {
    pool: MAX
    kernel_size: 2
    stride: 2
  }
}
layer {
  name: "conv71"
  type: "Convolution"
  bottom: "pool5"
  top: "conv71"
  param {
    lr_mult: 1
    decay_mult: 1
  }
  param {
    lr_mult: 2
    decay_mult: 0
  }
  convolution_param {
    num_output: 96
    pad: 1
    stride: 1
    weight_filler {
      type: "xavier"
    }
    bias_filler {
      type: "constant"
    }
    kernel_h: 3
    kernel_w: 3
  }
}
layer {
  name: "relu71"
  type: "ReLU"
  bottom: "conv71"
  top: "conv71"
}
layer {
  name: "conv72"
  type: "Convolution"
  bottom: "conv71"
  top: "conv72"
  param {
    lr_mult: 1
    decay_mult: 1
  }
  param {
    lr_mult: 2
    decay_mult: 0
  }
  convolution_param {
    num_output: 96
    pad: 1
    stride: 1
    weight_filler {
      type: "xavier"
    }
    bias_filler {
      type: "constant"
    }
    kernel_h: 3
    kernel_w: 3
  }
}
layer {
  name: "relu72"
  type: "ReLU"
  bottom: "conv72"
  top: "conv72"
}
layer {
  name: "pool6"
  type: "Pooling"
  bottom: "conv72"
  top: "pool6"
  pooling_param {
    pool: MAX
    kernel_size: 2
    stride: 2
  }
}
layer {
  name: "conv81"
  type: "Convolution"
  bottom: "pool6"
  top: "conv81"
  param {
    lr_mult: 1
    decay_mult: 1
  }
  param {
    lr_mult: 2
    decay_mult: 0
  }
  convolution_param {
    num_output: 128
    pad: 1
    stride: 1
    weight_filler {
      type: "xavier"
    }
    bias_filler {
      type: "constant"
    }
    kernel_h: 3
    kernel_w: 3
  }
}
layer {
  name: "relu81"
  type: "ReLU"
  bottom: "conv81"
  top: "conv81"
}
layer {
  name: "conv82"
  type: "Convolution"
  bottom: "conv81"
  top: "conv82"
  param {
    lr_mult: 1
    decay_mult: 1
  }
  param {
    lr_mult: 2
    decay_mult: 0
  }
  convolution_param {
    num_output: 128
    pad: 1
    stride: 1
    weight_filler {
      type: "xavier"
    }
    bias_filler {
      type: "constant"
    }
    kernel_h: 3
    kernel_w: 3
  }
}
layer {
  name: "relu82"
  type: "ReLU"
  bottom: "conv82"
  top: "conv82"
}
layer {
  name: "pool7"
  type: "Pooling"
  bottom: "conv82"
  top: "pool7"
  pooling_param {
    pool: AVE
    kernel_size: 2
    stride: 2
  }
}
layer {
  name: "drop0"
  type: "Dropout"
  bottom: "pool7"
  top: "pool7"
  dropout_param {
    dropout_ratio: 0.4
  }
}
layer {
  name: "conv91"
  type: "Convolution"
  bottom: "pool7"
  top: "conv91"
  param {
    lr_mult: 1
    decay_mult: 1
  }
  param {
    lr_mult: 2
    decay_mult: 0
  }
  convolution_param {
    num_output: 3
    stride: 1
    weight_filler {
      type: "xavier"
    }
    bias_filler {
      type: "constant"
    }
    kernel_h: 8
    kernel_w: 8
  }
}
layer {
  name: "accuracy"
  type: "Accuracy"
  bottom: "conv91"
  bottom: "label"
  top: "accuracy"
}
layer {
  name: "loss"
  type: "SoftmaxWithLoss"
  bottom: "conv91"
  bottom: "label"
  top: "loss"
}
I0712 18:43:21.641814 45614 layer_factory.hpp:76] Creating layer data
I0712 18:43:21.641856 45614 net.cpp:106] Creating Layer data
I0712 18:43:21.641866 45614 net.cpp:411] data -> data
I0712 18:43:21.641899 45614 net.cpp:411] data -> label
I0712 18:43:21.642300 45614 image_data_layer.cpp:36] Opening file ../lists/mitosis_train.lst
I0712 18:43:21.693444 45614 image_data_layer.cpp:46] Shuffling data
I0712 18:43:21.695050 45614 image_data_layer.cpp:51] A total of 23544 images.
I0712 18:43:21.764329 45614 image_data_layer.cpp:78] output data size: 8,3,1000,1000
I0712 18:43:21.994318 45614 net.cpp:150] Setting up data
I0712 18:43:21.994372 45614 net.cpp:157] Top shape: 8 3 1000 1000 (24000000)
I0712 18:43:21.994390 45614 net.cpp:157] Top shape: 8 (8)
I0712 18:43:21.994400 45614 net.cpp:165] Memory required for data: 96000032
I0712 18:43:21.994415 45614 layer_factory.hpp:76] Creating layer label_data_1_split
I0712 18:43:21.994441 45614 net.cpp:106] Creating Layer label_data_1_split
I0712 18:43:21.994453 45614 net.cpp:454] label_data_1_split <- label
I0712 18:43:21.994477 45614 net.cpp:411] label_data_1_split -> label_data_1_split_0
I0712 18:43:21.994499 45614 net.cpp:411] label_data_1_split -> label_data_1_split_1
I0712 18:43:21.994559 45614 net.cpp:150] Setting up label_data_1_split
I0712 18:43:21.994571 45614 net.cpp:157] Top shape: 8 (8)
I0712 18:43:21.994581 45614 net.cpp:157] Top shape: 8 (8)
I0712 18:43:21.994590 45614 net.cpp:165] Memory required for data: 96000096
I0712 18:43:21.994599 45614 layer_factory.hpp:76] Creating layer conv11
I0712 18:43:21.994626 45614 net.cpp:106] Creating Layer conv11
I0712 18:43:21.994644 45614 net.cpp:454] conv11 <- data
I0712 18:43:21.994655 45614 net.cpp:411] conv11 -> conv11
I0712 18:43:22.159942 45614 net.cpp:150] Setting up conv11
I0712 18:43:22.159999 45614 net.cpp:157] Top shape: 8 32 1000 1000 (256000000)
I0712 18:43:22.160074 45614 net.cpp:165] Memory required for data: 1120000096
I0712 18:43:22.160105 45614 layer_factory.hpp:76] Creating layer relu11
I0712 18:43:22.160125 45614 net.cpp:106] Creating Layer relu11
I0712 18:43:22.160140 45614 net.cpp:454] relu11 <- conv11
I0712 18:43:22.160152 45614 net.cpp:397] relu11 -> conv11 (in-place)
I0712 18:43:22.160398 45614 net.cpp:150] Setting up relu11
I0712 18:43:22.160415 45614 net.cpp:157] Top shape: 8 32 1000 1000 (256000000)
I0712 18:43:22.160424 45614 net.cpp:165] Memory required for data: 2144000096
I0712 18:43:22.160434 45614 layer_factory.hpp:76] Creating layer conv12
I0712 18:43:22.160451 45614 net.cpp:106] Creating Layer conv12
I0712 18:43:22.160460 45614 net.cpp:454] conv12 <- conv11
I0712 18:43:22.160472 45614 net.cpp:411] conv12 -> conv12
I0712 18:43:22.166234 45614 net.cpp:150] Setting up conv12
I0712 18:43:22.166280 45614 net.cpp:157] Top shape: 8 32 1000 1000 (256000000)
I0712 18:43:22.166290 45614 net.cpp:165] Memory required for data: 3168000096
I0712 18:43:22.166309 45614 layer_factory.hpp:76] Creating layer relu12
I0712 18:43:22.166326 45614 net.cpp:106] Creating Layer relu12
I0712 18:43:22.166335 45614 net.cpp:454] relu12 <- conv12
I0712 18:43:22.166350 45614 net.cpp:397] relu12 -> conv12 (in-place)
I0712 18:43:22.166805 45614 net.cpp:150] Setting up relu12
I0712 18:43:22.166826 45614 net.cpp:157] Top shape: 8 32 1000 1000 (256000000)
I0712 18:43:22.166833 45614 net.cpp:165] Memory required for data: 4192000096
I0712 18:43:22.166842 45614 layer_factory.hpp:76] Creating layer pool1
I0712 18:43:22.166858 45614 net.cpp:106] Creating Layer pool1
I0712 18:43:22.166867 45614 net.cpp:454] pool1 <- conv12
I0712 18:43:22.166877 45614 net.cpp:411] pool1 -> pool1
I0712 18:43:22.167119 45614 net.cpp:150] Setting up pool1
I0712 18:43:22.167137 45614 net.cpp:157] Top shape: 8 32 500 500 (64000000)
I0712 18:43:22.167146 45614 net.cpp:165] Memory required for data: 4448000096
I0712 18:43:22.167155 45614 layer_factory.hpp:76] Creating layer conv21
I0712 18:43:22.167174 45614 net.cpp:106] Creating Layer conv21
I0712 18:43:22.167188 45614 net.cpp:454] conv21 <- pool1
I0712 18:43:22.167198 45614 net.cpp:411] conv21 -> conv21
I0712 18:43:22.170131 45614 net.cpp:150] Setting up conv21
I0712 18:43:22.170164 45614 net.cpp:157] Top shape: 8 64 500 500 (128000000)
I0712 18:43:22.170174 45614 net.cpp:165] Memory required for data: 4960000096
I0712 18:43:22.170192 45614 layer_factory.hpp:76] Creating layer relu21
I0712 18:43:22.170207 45614 net.cpp:106] Creating Layer relu21
I0712 18:43:22.170224 45614 net.cpp:454] relu21 <- conv21
I0712 18:43:22.170235 45614 net.cpp:397] relu21 -> conv21 (in-place)
I0712 18:43:22.170579 45614 net.cpp:150] Setting up relu21
I0712 18:43:22.170599 45614 net.cpp:157] Top shape: 8 64 500 500 (128000000)
I0712 18:43:22.170608 45614 net.cpp:165] Memory required for data: 5472000096
I0712 18:43:22.170617 45614 layer_factory.hpp:76] Creating layer conv22
I0712 18:43:22.170645 45614 net.cpp:106] Creating Layer conv22
I0712 18:43:22.170662 45614 net.cpp:454] conv22 <- conv21
I0712 18:43:22.170677 45614 net.cpp:411] conv22 -> conv22
I0712 18:43:22.172785 45614 cudnn_conv_layer.cpp:194] Reallocating workspace storage: 6912
I0712 18:43:22.173048 45614 net.cpp:150] Setting up conv22
I0712 18:43:22.173069 45614 net.cpp:157] Top shape: 8 64 500 500 (128000000)
I0712 18:43:22.173077 45614 net.cpp:165] Memory required for data: 5984000096
I0712 18:43:22.173094 45614 layer_factory.hpp:76] Creating layer relu22
I0712 18:43:22.173113 45614 net.cpp:106] Creating Layer relu22
I0712 18:43:22.173123 45614 net.cpp:454] relu22 <- conv22
I0712 18:43:22.173135 45614 net.cpp:397] relu22 -> conv22 (in-place)
I0712 18:43:22.173486 45614 net.cpp:150] Setting up relu22
I0712 18:43:22.173506 45614 net.cpp:157] Top shape: 8 64 500 500 (128000000)
I0712 18:43:22.173514 45614 net.cpp:165] Memory required for data: 6496000096
I0712 18:43:22.173523 45614 layer_factory.hpp:76] Creating layer pool2
I0712 18:43:22.173538 45614 net.cpp:106] Creating Layer pool2
I0712 18:43:22.173584 45614 net.cpp:454] pool2 <- conv22
I0712 18:43:22.173599 45614 net.cpp:411] pool2 -> pool2
I0712 18:43:22.173820 45614 net.cpp:150] Setting up pool2
I0712 18:43:22.173837 45614 net.cpp:157] Top shape: 8 64 250 250 (32000000)
I0712 18:43:22.173846 45614 net.cpp:165] Memory required for data: 6624000096
I0712 18:43:22.173854 45614 layer_factory.hpp:76] Creating layer conv31
I0712 18:43:22.173872 45614 net.cpp:106] Creating Layer conv31
I0712 18:43:22.173882 45614 net.cpp:454] conv31 <- pool2
I0712 18:43:22.173895 45614 net.cpp:411] conv31 -> conv31
I0712 18:43:22.175506 45614 cudnn_conv_layer.cpp:194] Reallocating workspace storage: 6912
I0712 18:43:22.175547 45614 net.cpp:150] Setting up conv31
I0712 18:43:22.175562 45614 net.cpp:157] Top shape: 8 96 250 250 (48000000)
I0712 18:43:22.175571 45614 net.cpp:165] Memory required for data: 6816000096
I0712 18:43:22.175590 45614 layer_factory.hpp:76] Creating layer relu31
I0712 18:43:22.175603 45614 net.cpp:106] Creating Layer relu31
I0712 18:43:22.175612 45614 net.cpp:454] relu31 <- conv31
I0712 18:43:22.175622 45614 net.cpp:397] relu31 -> conv31 (in-place)
I0712 18:43:22.175963 45614 net.cpp:150] Setting up relu31
I0712 18:43:22.175987 45614 net.cpp:157] Top shape: 8 96 250 250 (48000000)
I0712 18:43:22.175999 45614 net.cpp:165] Memory required for data: 7008000096
I0712 18:43:22.176008 45614 layer_factory.hpp:76] Creating layer conv32
I0712 18:43:22.176021 45614 net.cpp:106] Creating Layer conv32
I0712 18:43:22.176030 45614 net.cpp:454] conv32 <- conv31
I0712 18:43:22.176045 45614 net.cpp:411] conv32 -> conv32
I0712 18:43:22.178753 45614 cudnn_conv_layer.cpp:194] Reallocating workspace storage: 10368
I0712 18:43:22.178809 45614 net.cpp:150] Setting up conv32
I0712 18:43:22.178827 45614 net.cpp:157] Top shape: 8 96 250 250 (48000000)
I0712 18:43:22.178835 45614 net.cpp:165] Memory required for data: 7200000096
I0712 18:43:22.178851 45614 layer_factory.hpp:76] Creating layer relu32
I0712 18:43:22.178869 45614 net.cpp:106] Creating Layer relu32
I0712 18:43:22.178890 45614 net.cpp:454] relu32 <- conv32
I0712 18:43:22.178902 45614 net.cpp:397] relu32 -> conv32 (in-place)
I0712 18:43:22.179085 45614 net.cpp:150] Setting up relu32
I0712 18:43:22.179102 45614 net.cpp:157] Top shape: 8 96 250 250 (48000000)
I0712 18:43:22.179111 45614 net.cpp:165] Memory required for data: 7392000096
I0712 18:43:22.179121 45614 layer_factory.hpp:76] Creating layer pool3
I0712 18:43:22.179139 45614 net.cpp:106] Creating Layer pool3
I0712 18:43:22.179148 45614 net.cpp:454] pool3 <- conv32
I0712 18:43:22.179162 45614 net.cpp:411] pool3 -> pool3
I0712 18:43:22.179563 45614 net.cpp:150] Setting up pool3
I0712 18:43:22.179584 45614 net.cpp:157] Top shape: 8 96 125 125 (12000000)
I0712 18:43:22.179594 45614 net.cpp:165] Memory required for data: 7440000096
I0712 18:43:22.179603 45614 layer_factory.hpp:76] Creating layer conv41
I0712 18:43:22.179620 45614 net.cpp:106] Creating Layer conv41
I0712 18:43:22.179630 45614 net.cpp:454] conv41 <- pool3
I0712 18:43:22.179644 45614 net.cpp:411] conv41 -> conv41
I0712 18:43:22.181596 45614 cudnn_conv_layer.cpp:194] Reallocating workspace storage: 10368
I0712 18:43:22.181648 45614 net.cpp:150] Setting up conv41
I0712 18:43:22.181668 45614 net.cpp:157] Top shape: 8 128 125 125 (16000000)
I0712 18:43:22.181676 45614 net.cpp:165] Memory required for data: 7504000096
I0712 18:43:22.181689 45614 layer_factory.hpp:76] Creating layer relu41
I0712 18:43:22.181704 45614 net.cpp:106] Creating Layer relu41
I0712 18:43:22.181720 45614 net.cpp:454] relu41 <- conv41
I0712 18:43:22.181731 45614 net.cpp:397] relu41 -> conv41 (in-place)
I0712 18:43:22.182258 45614 net.cpp:150] Setting up relu41
I0712 18:43:22.182281 45614 net.cpp:157] Top shape: 8 128 125 125 (16000000)
I0712 18:43:22.182291 45614 net.cpp:165] Memory required for data: 7568000096
I0712 18:43:22.182301 45614 layer_factory.hpp:76] Creating layer conv42
I0712 18:43:22.182314 45614 net.cpp:106] Creating Layer conv42
I0712 18:43:22.182323 45614 net.cpp:454] conv42 <- conv41
I0712 18:43:22.182337 45614 net.cpp:411] conv42 -> conv42
I0712 18:43:22.185361 45614 cudnn_conv_layer.cpp:194] Reallocating workspace storage: 13824
I0712 18:43:22.185451 45614 net.cpp:150] Setting up conv42
I0712 18:43:22.185468 45614 net.cpp:157] Top shape: 8 128 125 125 (16000000)
I0712 18:43:22.185492 45614 net.cpp:165] Memory required for data: 7632000096
I0712 18:43:22.185508 45614 layer_factory.hpp:76] Creating layer relu42
I0712 18:43:22.185521 45614 net.cpp:106] Creating Layer relu42
I0712 18:43:22.185533 45614 net.cpp:454] relu42 <- conv42
I0712 18:43:22.185544 45614 net.cpp:397] relu42 -> conv42 (in-place)
I0712 18:43:22.185735 45614 net.cpp:150] Setting up relu42
I0712 18:43:22.185753 45614 net.cpp:157] Top shape: 8 128 125 125 (16000000)
I0712 18:43:22.185762 45614 net.cpp:165] Memory required for data: 7696000096
I0712 18:43:22.185771 45614 layer_factory.hpp:76] Creating layer pool4
I0712 18:43:22.185782 45614 net.cpp:106] Creating Layer pool4
I0712 18:43:22.185791 45614 net.cpp:454] pool4 <- conv42
I0712 18:43:22.185804 45614 net.cpp:411] pool4 -> pool4
I0712 18:43:22.186183 45614 net.cpp:150] Setting up pool4
I0712 18:43:22.186204 45614 net.cpp:157] Top shape: 8 128 63 63 (4064256)
I0712 18:43:22.186213 45614 net.cpp:165] Memory required for data: 7712257120
I0712 18:43:22.186223 45614 layer_factory.hpp:76] Creating layer conv51
I0712 18:43:22.186239 45614 net.cpp:106] Creating Layer conv51
I0712 18:43:22.186249 45614 net.cpp:454] conv51 <- pool4
I0712 18:43:22.186261 45614 net.cpp:411] conv51 -> conv51
I0712 18:43:22.191083 45614 cudnn_conv_layer.cpp:194] Reallocating workspace storage: 13824
I0712 18:43:22.191143 45614 net.cpp:150] Setting up conv51
I0712 18:43:22.191165 45614 net.cpp:157] Top shape: 8 256 63 63 (8128512)
I0712 18:43:22.191177 45614 net.cpp:165] Memory required for data: 7744771168
I0712 18:43:22.191197 45614 layer_factory.hpp:76] Creating layer relu51
I0712 18:43:22.191216 45614 net.cpp:106] Creating Layer relu51
I0712 18:43:22.191227 45614 net.cpp:454] relu51 <- conv51
I0712 18:43:22.191238 45614 net.cpp:397] relu51 -> conv51 (in-place)
I0712 18:43:22.191426 45614 net.cpp:150] Setting up relu51
I0712 18:43:22.191443 45614 net.cpp:157] Top shape: 8 256 63 63 (8128512)
I0712 18:43:22.191452 45614 net.cpp:165] Memory required for data: 7777285216
I0712 18:43:22.191462 45614 layer_factory.hpp:76] Creating layer conv52
I0712 18:43:22.191479 45614 net.cpp:106] Creating Layer conv52
I0712 18:43:22.191498 45614 net.cpp:454] conv52 <- conv51
I0712 18:43:22.191509 45614 net.cpp:411] conv52 -> conv52
I0712 18:43:22.198355 45614 cudnn_conv_layer.cpp:194] Reallocating workspace storage: 27648
I0712 18:43:22.198412 45614 net.cpp:150] Setting up conv52
I0712 18:43:22.198427 45614 net.cpp:157] Top shape: 8 256 63 63 (8128512)
I0712 18:43:22.198437 45614 net.cpp:165] Memory required for data: 7809799264
I0712 18:43:22.198452 45614 layer_factory.hpp:76] Creating layer relu52
I0712 18:43:22.198472 45614 net.cpp:106] Creating Layer relu52
I0712 18:43:22.198483 45614 net.cpp:454] relu52 <- conv52
I0712 18:43:22.198498 45614 net.cpp:397] relu52 -> conv52 (in-place)
I0712 18:43:22.198868 45614 net.cpp:150] Setting up relu52
I0712 18:43:22.198889 45614 net.cpp:157] Top shape: 8 256 63 63 (8128512)
I0712 18:43:22.198897 45614 net.cpp:165] Memory required for data: 7842313312
I0712 18:43:22.198906 45614 layer_factory.hpp:76] Creating layer conv53
I0712 18:43:22.198925 45614 net.cpp:106] Creating Layer conv53
I0712 18:43:22.198942 45614 net.cpp:454] conv53 <- conv52
I0712 18:43:22.198956 45614 net.cpp:411] conv53 -> conv53
I0712 18:43:22.230185 45614 cudnn_conv_layer.cpp:194] Reallocating workspace storage: 150528
I0712 18:43:22.230484 45614 net.cpp:150] Setting up conv53
I0712 18:43:22.230507 45614 net.cpp:157] Top shape: 8 256 57 57 (6653952)
I0712 18:43:22.230525 45614 net.cpp:165] Memory required for data: 7868929120
I0712 18:43:22.230540 45614 layer_factory.hpp:76] Creating layer relu53
I0712 18:43:22.230556 45614 net.cpp:106] Creating Layer relu53
I0712 18:43:22.230571 45614 net.cpp:454] relu53 <- conv53
I0712 18:43:22.230583 45614 net.cpp:397] relu53 -> conv53 (in-place)
I0712 18:43:22.230996 45614 net.cpp:150] Setting up relu53
I0712 18:43:22.231017 45614 net.cpp:157] Top shape: 8 256 57 57 (6653952)
I0712 18:43:22.231026 45614 net.cpp:165] Memory required for data: 7895544928
I0712 18:43:22.231036 45614 layer_factory.hpp:76] Creating layer conv61
I0712 18:43:22.231053 45614 net.cpp:106] Creating Layer conv61
I0712 18:43:22.231070 45614 net.cpp:454] conv61 <- conv53
I0712 18:43:22.231086 45614 net.cpp:411] conv61 -> conv61
I0712 18:43:22.234431 45614 cudnn_conv_layer.cpp:194] Reallocating workspace storage: 27648
I0712 18:43:22.234494 45614 net.cpp:150] Setting up conv61
I0712 18:43:22.234509 45614 net.cpp:157] Top shape: 8 64 57 57 (1663488)
I0712 18:43:22.234519 45614 net.cpp:165] Memory required for data: 7902198880
I0712 18:43:22.234532 45614 layer_factory.hpp:76] Creating layer relu61
I0712 18:43:22.234545 45614 net.cpp:106] Creating Layer relu61
I0712 18:43:22.234560 45614 net.cpp:454] relu61 <- conv61
I0712 18:43:22.234572 45614 net.cpp:397] relu61 -> conv61 (in-place)
I0712 18:43:22.234809 45614 net.cpp:150] Setting up relu61
I0712 18:43:22.234834 45614 net.cpp:157] Top shape: 8 64 57 57 (1663488)
I0712 18:43:22.234853 45614 net.cpp:165] Memory required for data: 7908852832
I0712 18:43:22.234868 45614 layer_factory.hpp:76] Creating layer conv62
I0712 18:43:22.234894 45614 net.cpp:106] Creating Layer conv62
I0712 18:43:22.234911 45614 net.cpp:454] conv62 <- conv61
I0712 18:43:22.234928 45614 net.cpp:411] conv62 -> conv62
I0712 18:43:22.238009 45614 net.cpp:150] Setting up conv62
I0712 18:43:22.238062 45614 net.cpp:157] Top shape: 8 64 57 57 (1663488)
I0712 18:43:22.238077 45614 net.cpp:165] Memory required for data: 7915506784
I0712 18:43:22.238096 45614 layer_factory.hpp:76] Creating layer relu62
I0712 18:43:22.238114 45614 net.cpp:106] Creating Layer relu62
I0712 18:43:22.238129 45614 net.cpp:454] relu62 <- conv62
I0712 18:43:22.238152 45614 net.cpp:397] relu62 -> conv62 (in-place)
I0712 18:43:22.238626 45614 net.cpp:150] Setting up relu62
I0712 18:43:22.238667 45614 net.cpp:157] Top shape: 8 64 57 57 (1663488)
I0712 18:43:22.238680 45614 net.cpp:165] Memory required for data: 7922160736
I0712 18:43:22.238689 45614 layer_factory.hpp:76] Creating layer pool5
I0712 18:43:22.238713 45614 net.cpp:106] Creating Layer pool5
I0712 18:43:22.238724 45614 net.cpp:454] pool5 <- conv62
I0712 18:43:22.238736 45614 net.cpp:411] pool5 -> pool5
I0712 18:43:22.238979 45614 net.cpp:150] Setting up pool5
I0712 18:43:22.238998 45614 net.cpp:157] Top shape: 8 64 29 29 (430592)
I0712 18:43:22.239007 45614 net.cpp:165] Memory required for data: 7923883104
I0712 18:43:22.239017 45614 layer_factory.hpp:76] Creating layer conv71
I0712 18:43:22.239033 45614 net.cpp:106] Creating Layer conv71
I0712 18:43:22.239043 45614 net.cpp:454] conv71 <- pool5
I0712 18:43:22.239058 45614 net.cpp:411] conv71 -> conv71
I0712 18:43:22.240682 45614 cudnn_conv_layer.cpp:194] Reallocating workspace storage: 6912
I0712 18:43:22.240720 45614 net.cpp:150] Setting up conv71
I0712 18:43:22.240734 45614 net.cpp:157] Top shape: 8 96 29 29 (645888)
I0712 18:43:22.240743 45614 net.cpp:165] Memory required for data: 7926466656
I0712 18:43:22.240756 45614 layer_factory.hpp:76] Creating layer relu71
I0712 18:43:22.240770 45614 net.cpp:106] Creating Layer relu71
I0712 18:43:22.240780 45614 net.cpp:454] relu71 <- conv71
I0712 18:43:22.240792 45614 net.cpp:397] relu71 -> conv71 (in-place)
I0712 18:43:22.241215 45614 net.cpp:150] Setting up relu71
I0712 18:43:22.241237 45614 net.cpp:157] Top shape: 8 96 29 29 (645888)
I0712 18:43:22.241246 45614 net.cpp:165] Memory required for data: 7929050208
I0712 18:43:22.241255 45614 layer_factory.hpp:76] Creating layer conv72
I0712 18:43:22.241271 45614 net.cpp:106] Creating Layer conv72
I0712 18:43:22.241281 45614 net.cpp:454] conv72 <- conv71
I0712 18:43:22.241292 45614 net.cpp:411] conv72 -> conv72
I0712 18:43:22.243161 45614 cudnn_conv_layer.cpp:194] Reallocating workspace storage: 10368
I0712 18:43:22.243202 45614 net.cpp:150] Setting up conv72
I0712 18:43:22.243257 45614 net.cpp:157] Top shape: 8 96 29 29 (645888)
I0712 18:43:22.243266 45614 net.cpp:165] Memory required for data: 7931633760
I0712 18:43:22.243278 45614 layer_factory.hpp:76] Creating layer relu72
I0712 18:43:22.243290 45614 net.cpp:106] Creating Layer relu72
I0712 18:43:22.243299 45614 net.cpp:454] relu72 <- conv72
I0712 18:43:22.243314 45614 net.cpp:397] relu72 -> conv72 (in-place)
I0712 18:43:22.243674 45614 net.cpp:150] Setting up relu72
I0712 18:43:22.243693 45614 net.cpp:157] Top shape: 8 96 29 29 (645888)
I0712 18:43:22.243702 45614 net.cpp:165] Memory required for data: 7934217312
I0712 18:43:22.243711 45614 layer_factory.hpp:76] Creating layer pool6
I0712 18:43:22.243723 45614 net.cpp:106] Creating Layer pool6
I0712 18:43:22.243732 45614 net.cpp:454] pool6 <- conv72
I0712 18:43:22.243747 45614 net.cpp:411] pool6 -> pool6
I0712 18:43:22.243973 45614 net.cpp:150] Setting up pool6
I0712 18:43:22.243993 45614 net.cpp:157] Top shape: 8 96 15 15 (172800)
I0712 18:43:22.244002 45614 net.cpp:165] Memory required for data: 7934908512
I0712 18:43:22.244011 45614 layer_factory.hpp:76] Creating layer conv81
I0712 18:43:22.244024 45614 net.cpp:106] Creating Layer conv81
I0712 18:43:22.244032 45614 net.cpp:454] conv81 <- pool6
I0712 18:43:22.244048 45614 net.cpp:411] conv81 -> conv81
I0712 18:43:22.246039 45614 net.cpp:150] Setting up conv81
I0712 18:43:22.246062 45614 net.cpp:157] Top shape: 8 128 15 15 (230400)
I0712 18:43:22.246071 45614 net.cpp:165] Memory required for data: 7935830112
I0712 18:43:22.246083 45614 layer_factory.hpp:76] Creating layer relu81
I0712 18:43:22.246095 45614 net.cpp:106] Creating Layer relu81
I0712 18:43:22.246104 45614 net.cpp:454] relu81 <- conv81
I0712 18:43:22.246114 45614 net.cpp:397] relu81 -> conv81 (in-place)
I0712 18:43:22.246479 45614 net.cpp:150] Setting up relu81
I0712 18:43:22.246498 45614 net.cpp:157] Top shape: 8 128 15 15 (230400)
I0712 18:43:22.246508 45614 net.cpp:165] Memory required for data: 7936751712
I0712 18:43:22.246517 45614 layer_factory.hpp:76] Creating layer conv82
I0712 18:43:22.246533 45614 net.cpp:106] Creating Layer conv82
I0712 18:43:22.246543 45614 net.cpp:454] conv82 <- conv81
I0712 18:43:22.246558 45614 net.cpp:411] conv82 -> conv82
I0712 18:43:22.249634 45614 net.cpp:150] Setting up conv82
I0712 18:43:22.249660 45614 net.cpp:157] Top shape: 8 128 15 15 (230400)
I0712 18:43:22.249668 45614 net.cpp:165] Memory required for data: 7937673312
I0712 18:43:22.249693 45614 layer_factory.hpp:76] Creating layer relu82
I0712 18:43:22.249713 45614 net.cpp:106] Creating Layer relu82
I0712 18:43:22.249722 45614 net.cpp:454] relu82 <- conv82
I0712 18:43:22.249737 45614 net.cpp:397] relu82 -> conv82 (in-place)
I0712 18:43:22.250100 45614 net.cpp:150] Setting up relu82
I0712 18:43:22.250121 45614 net.cpp:157] Top shape: 8 128 15 15 (230400)
I0712 18:43:22.250130 45614 net.cpp:165] Memory required for data: 7938594912
I0712 18:43:22.250139 45614 layer_factory.hpp:76] Creating layer pool7
I0712 18:43:22.250159 45614 net.cpp:106] Creating Layer pool7
I0712 18:43:22.250175 45614 net.cpp:454] pool7 <- conv82
I0712 18:43:22.250185 45614 net.cpp:411] pool7 -> pool7
I0712 18:43:22.250394 45614 net.cpp:150] Setting up pool7
I0712 18:43:22.250412 45614 net.cpp:157] Top shape: 8 128 8 8 (65536)
I0712 18:43:22.250422 45614 net.cpp:165] Memory required for data: 7938857056
I0712 18:43:22.250430 45614 layer_factory.hpp:76] Creating layer drop0
I0712 18:43:22.250447 45614 net.cpp:106] Creating Layer drop0
I0712 18:43:22.250458 45614 net.cpp:454] drop0 <- pool7
I0712 18:43:22.250468 45614 net.cpp:397] drop0 -> pool7 (in-place)
I0712 18:43:22.250509 45614 net.cpp:150] Setting up drop0
I0712 18:43:22.250521 45614 net.cpp:157] Top shape: 8 128 8 8 (65536)
I0712 18:43:22.250530 45614 net.cpp:165] Memory required for data: 7939119200
I0712 18:43:22.250540 45614 layer_factory.hpp:76] Creating layer conv91
I0712 18:43:22.250556 45614 net.cpp:106] Creating Layer conv91
I0712 18:43:22.250566 45614 net.cpp:454] conv91 <- pool7
I0712 18:43:22.250581 45614 net.cpp:411] conv91 -> conv91
I0712 18:43:22.251962 45614 cudnn_conv_layer.cpp:194] Reallocating workspace storage: 98304
I0712 18:43:22.251998 45614 net.cpp:150] Setting up conv91
I0712 18:43:22.252012 45614 net.cpp:157] Top shape: 8 3 1 1 (24)
I0712 18:43:22.252022 45614 net.cpp:165] Memory required for data: 7939119296
I0712 18:43:22.252033 45614 layer_factory.hpp:76] Creating layer conv91_conv91_0_split
I0712 18:43:22.252045 45614 net.cpp:106] Creating Layer conv91_conv91_0_split
I0712 18:43:22.252054 45614 net.cpp:454] conv91_conv91_0_split <- conv91
I0712 18:43:22.252068 45614 net.cpp:411] conv91_conv91_0_split -> conv91_conv91_0_split_0
I0712 18:43:22.252081 45614 net.cpp:411] conv91_conv91_0_split -> conv91_conv91_0_split_1
I0712 18:43:22.252132 45614 net.cpp:150] Setting up conv91_conv91_0_split
I0712 18:43:22.252146 45614 net.cpp:157] Top shape: 8 3 1 1 (24)
I0712 18:43:22.252156 45614 net.cpp:157] Top shape: 8 3 1 1 (24)
I0712 18:43:22.252163 45614 net.cpp:165] Memory required for data: 7939119488
I0712 18:43:22.252173 45614 layer_factory.hpp:76] Creating layer accuracy
I0712 18:43:22.252190 45614 net.cpp:106] Creating Layer accuracy
I0712 18:43:22.252200 45614 net.cpp:454] accuracy <- conv91_conv91_0_split_0
I0712 18:43:22.252210 45614 net.cpp:454] accuracy <- label_data_1_split_0
I0712 18:43:22.252223 45614 net.cpp:411] accuracy -> accuracy
…
