…
I0713 09:09:24.329072 47869 solver.cpp:90] Creating training net from net file: train_val-resultlayer-3stack.prototxt
I0713 09:09:24.341825 47869 net.cpp:322] The NetState phase (0) differed from the phase (1) specified by a rule in layer data
I0713 09:09:24.342186 47869 net.cpp:49] Initializing net from parameters: 
name: "FaceNN"
state {
  phase: TRAIN
}
layer {
  name: "data"
  type: "ImageData"
  top: "data"
  top: "label"
  include {
    phase: TRAIN
  }
  transform_param {
    mirror: true
    mean_value: 104
    mean_value: 117
    mean_value: 123
  }
  image_data_param {
    source: "../lists/mitosis_train.lst"
    batch_size: 8
    shuffle: true
  }
}
layer {
  name: "conv11"
  type: "Convolution"
  bottom: "data"
  top: "conv11"
  param {
    lr_mult: 0
    decay_mult: 1
  }
  param {
    lr_mult: 0
    decay_mult: 0
  }
  convolution_param {
    num_output: 32
    pad: 1
    stride: 1
    weight_filler {
      type: "xavier"
    }
    bias_filler {
      type: "constant"
    }
    kernel_h: 3
    kernel_w: 3
  }
}
layer {
  name: "relu11"
  type: "ReLU"
  bottom: "conv11"
  top: "conv11"
}
layer {
  name: "conv12"
  type: "Convolution"
  bottom: "conv11"
  top: "conv12"
  param {
    lr_mult: 0
    decay_mult: 1
  }
  param {
    lr_mult: 0
    decay_mult: 0
  }
  convolution_param {
    num_output: 32
    pad: 1
    stride: 1
    weight_filler {
      type: "xavier"
    }
    bias_filler {
      type: "constant"
    }
    kernel_h: 3
    kernel_w: 3
  }
}
layer {
  name: "relu12"
  type: "ReLU"
  bottom: "conv12"
  top: "conv12"
}
layer {
  name: "pool1"
  type: "Pooling"
  bottom: "conv12"
  top: "pool1"
  pooling_param {
    pool: MAX
    kernel_size: 2
    stride: 2
  }
}
layer {
  name: "conv21"
  type: "Convolution"
  bottom: "pool1"
  top: "conv21"
  param {
    lr_mult: 0
    decay_mult: 1
  }
  param {
    lr_mult: 0
    decay_mult: 0
  }
  convolution_param {
    num_output: 64
    pad: 1
    stride: 1
    weight_filler {
      type: "xavier"
    }
    bias_filler {
      type: "constant"
    }
    kernel_h: 3
    kernel_w: 3
  }
}
layer {
  name: "relu21"
  type: "ReLU"
  bottom: "conv21"
  top: "conv21"
}
layer {
  name: "conv22"
  type: "Convolution"
  bottom: "conv21"
  top: "conv22"
  param {
    lr_mult: 0
    decay_mult: 1
  }
  param {
    lr_mult: 0
    decay_mult: 0
  }
  convolution_param {
    num_output: 64
    pad: 1
    stride: 1
    weight_filler {
      type: "xavier"
    }
    bias_filler {
      type: "constant"
    }
    kernel_h: 3
    kernel_w: 3
  }
}
layer {
  name: "relu22"
  type: "ReLU"
  bottom: "conv22"
  top: "conv22"
}
layer {
  name: "pool2"
  type: "Pooling"
  bottom: "conv22"
  top: "pool2"
  pooling_param {
    pool: MAX
    kernel_size: 2
    stride: 2
  }
}
layer {
  name: "conv31"
  type: "Convolution"
  bottom: "pool2"
  top: "conv31"
  param {
    lr_mult: 0
    decay_mult: 1
  }
  param {
    lr_mult: 0
    decay_mult: 0
  }
  convolution_param {
    num_output: 96
    pad: 1
    stride: 1
    weight_filler {
      type: "xavier"
    }
    bias_filler {
      type: "constant"
    }
    kernel_h: 3
    kernel_w: 3
  }
}
layer {
  name: "relu31"
  type: "ReLU"
  bottom: "conv31"
  top: "conv31"
}
layer {
  name: "conv32"
  type: "Convolution"
  bottom: "conv31"
  top: "conv32"
  param {
    lr_mult: 0
    decay_mult: 1
  }
  param {
    lr_mult: 0
    decay_mult: 0
  }
  convolution_param {
    num_output: 96
    pad: 1
    stride: 1
    weight_filler {
      type: "xavier"
    }
    bias_filler {
      type: "constant"
    }
    kernel_h: 3
    kernel_w: 3
  }
}
layer {
  name: "relu32"
  type: "ReLU"
  bottom: "conv32"
  top: "conv32"
}
layer {
  name: "pool3"
  type: "Pooling"
  bottom: "conv32"
  top: "pool3"
  pooling_param {
    pool: MAX
    kernel_size: 2
    stride: 2
  }
}
layer {
  name: "conv41"
  type: "Convolution"
  bottom: "pool3"
  top: "conv41"
  param {
    lr_mult: 0
    decay_mult: 1
  }
  param {
    lr_mult: 0
    decay_mult: 0
  }
  convolution_param {
    num_output: 128
    pad: 1
    stride: 1
    weight_filler {
      type: "xavier"
    }
    bias_filler {
      type: "constant"
    }
    kernel_h: 3
    kernel_w: 3
  }
}
layer {
  name: "relu41"
  type: "ReLU"
  bottom: "conv41"
  top: "conv41"
}
layer {
  name: "conv42"
  type: "Convolution"
  bottom: "conv41"
  top: "conv42"
  param {
    lr_mult: 0
    decay_mult: 1
  }
  param {
    lr_mult: 0
    decay_mult: 0
  }
  convolution_param {
    num_output: 128
    pad: 1
    stride: 1
    weight_filler {
      type: "xavier"
    }
    bias_filler {
      type: "constant"
    }
    kernel_h: 3
    kernel_w: 3
  }
}
layer {
  name: "relu42"
  type: "ReLU"
  bottom: "conv42"
  top: "conv42"
}
layer {
  name: "pool4"
  type: "Pooling"
  bottom: "conv42"
  top: "pool4"
  pooling_param {
    pool: MAX
    kernel_size: 2
    stride: 2
  }
}
layer {
  name: "conv51"
  type: "Convolution"
  bottom: "pool4"
  top: "conv51"
  param {
    lr_mult: 0
    decay_mult: 1
  }
  param {
    lr_mult: 0
    decay_mult: 0
  }
  convolution_param {
    num_output: 256
    pad: 1
    stride: 1
    weight_filler {
      type: "xavier"
    }
    bias_filler {
      type: "constant"
    }
    kernel_h: 3
    kernel_w: 3
  }
}
layer {
  name: "relu51"
  type: "ReLU"
  bottom: "conv51"
  top: "conv51"
}
layer {
  name: "conv52"
  type: "Convolution"
  bottom: "conv51"
  top: "conv52"
  param {
    lr_mult: 0
    decay_mult: 1
  }
  param {
    lr_mult: 0
    decay_mult: 0
  }
  convolution_param {
    num_output: 256
    pad: 1
    stride: 1
    weight_filler {
      type: "xavier"
    }
    bias_filler {
      type: "constant"
    }
    kernel_h: 3
    kernel_w: 3
  }
}
layer {
  name: "relu52"
  type: "ReLU"
  bottom: "conv52"
  top: "conv52"
}
layer {
  name: "conv53"
  type: "Convolution"
  bottom: "conv52"
  top: "conv53"
  param {
    lr_mult: 0
    decay_mult: 1
  }
  param {
    lr_mult: 0
    decay_mult: 0
  }
  convolution_param {
    num_output: 256
    stride: 1
    weight_filler {
      type: "xavier"
    }
    bias_filler {
      type: "constant"
    }
    kernel_h: 7
    kernel_w: 7
  }
}
layer {
  name: "relu53"
  type: "ReLU"
  bottom: "conv53"
  top: "conv53"
}
layer {
  name: "conv54"
  type: "Convolution"
  bottom: "conv53"
  top: "conv54"
  param {
    lr_mult: 1
    decay_mult: 1
  }
  param {
    lr_mult: 2
    decay_mult: 0
  }
  convolution_param {
    num_output: 2
    stride: 1
    weight_filler {
      type: "xavier"
    }
    bias_filler {
      type: "constant"
    }
    kernel_h: 1
    kernel_w: 1
  }
}
layer {
  name: "interloss"
  type: "Softmax"
  bottom: "conv54"
  top: "interloss"
}
layer {
  name: "conv61"
  type: "Convolution"
  bottom: "interloss"
  top: "conv61"
  param {
    lr_mult: 1
    decay_mult: 1
  }
  param {
    lr_mult: 2
    decay_mult: 0
  }
  convolution_param {
    num_output: 64
    pad: 1
    stride: 1
    weight_filler {
      type: "xavier"
    }
    bias_filler {
      type: "constant"
    }
    kernel_h: 3
    kernel_w: 3
  }
}
layer {
  name: "relu61"
  type: "ReLU"
  bottom: "conv61"
  top: "conv61"
}
layer {
  name: "conv62"
  type: "Convolution"
  bottom: "conv61"
  top: "conv62"
  param {
    lr_mult: 1
    decay_mult: 1
  }
  param {
    lr_mult: 2
    decay_mult: 0
  }
  convolution_param {
    num_output: 64
    pad: 1
    stride: 1
    weight_filler {
      type: "xavier"
    }
    bias_filler {
      type: "constant"
    }
    kernel_h: 3
    kernel_w: 3
  }
}
layer {
  name: "relu62"
  type: "ReLU"
  bottom: "conv62"
  top: "conv62"
}
layer {
  name: "pool5"
  type: "Pooling"
  bottom: "conv62"
  top: "pool5"
  pooling_param {
    pool: MAX
    kernel_size: 2
    stride: 2
  }
}
layer {
  name: "conv71"
  type: "Convolution"
  bottom: "pool5"
  top: "conv71"
  param {
    lr_mult: 1
    decay_mult: 1
  }
  param {
    lr_mult: 2
    decay_mult: 0
  }
  convolution_param {
    num_output: 96
    pad: 1
    stride: 1
    weight_filler {
      type: "xavier"
    }
    bias_filler {
      type: "constant"
    }
    kernel_h: 3
    kernel_w: 3
  }
}
layer {
  name: "relu71"
  type: "ReLU"
  bottom: "conv71"
  top: "conv71"
}
layer {
  name: "conv72"
  type: "Convolution"
  bottom: "conv71"
  top: "conv72"
  param {
    lr_mult: 1
    decay_mult: 1
  }
  param {
    lr_mult: 2
    decay_mult: 0
  }
  convolution_param {
    num_output: 96
    pad: 1
    stride: 1
    weight_filler {
      type: "xavier"
    }
    bias_filler {
      type: "constant"
    }
    kernel_h: 3
    kernel_w: 3
  }
}
layer {
  name: "relu72"
  type: "ReLU"
  bottom: "conv72"
  top: "conv72"
}
layer {
  name: "pool6"
  type: "Pooling"
  bottom: "conv72"
  top: "pool6"
  pooling_param {
    pool: MAX
    kernel_size: 2
    stride: 2
  }
}
layer {
  name: "conv81"
  type: "Convolution"
  bottom: "pool6"
  top: "conv81"
  param {
    lr_mult: 1
    decay_mult: 1
  }
  param {
    lr_mult: 2
    decay_mult: 0
  }
  convolution_param {
    num_output: 128
    pad: 1
    stride: 1
    weight_filler {
      type: "xavier"
    }
    bias_filler {
      type: "constant"
    }
    kernel_h: 3
    kernel_w: 3
  }
}
layer {
  name: "relu81"
  type: "ReLU"
  bottom: "conv81"
  top: "conv81"
}
layer {
  name: "conv82"
  type: "Convolution"
  bottom: "conv81"
  top: "conv82"
  param {
    lr_mult: 1
    decay_mult: 1
  }
  param {
    lr_mult: 2
    decay_mult: 0
  }
  convolution_param {
    num_output: 128
    pad: 1
    stride: 1
    weight_filler {
      type: "xavier"
    }
    bias_filler {
      type: "constant"
    }
    kernel_h: 3
    kernel_w: 3
  }
}
layer {
  name: "relu82"
  type: "ReLU"
  bottom: "conv82"
  top: "conv82"
}
layer {
  name: "pool7"
  type: "Pooling"
  bottom: "conv82"
  top: "pool7"
  pooling_param {
    pool: AVE
    kernel_size: 2
    stride: 2
  }
}
layer {
  name: "drop0"
  type: "Dropout"
  bottom: "pool7"
  top: "pool7"
  dropout_param {
    dropout_ratio: 0.4
  }
}
layer {
  name: "conv91"
  type: "Convolution"
  bottom: "pool7"
  top: "conv91"
  param {
    lr_mult: 1
    decay_mult: 1
  }
  param {
    lr_mult: 2
    decay_mult: 0
  }
  convolution_param {
    num_output: 3
    stride: 1
    weight_filler {
      type: "xavier"
    }
    bias_filler {
      type: "constant"
    }
    kernel_h: 8
    kernel_w: 8
  }
}
layer {
  name: "accuracy"
  type: "Accuracy"
  bottom: "conv91"
  bottom: "label"
  top: "accuracy"
}
layer {
  name: "loss"
  type: "SoftmaxWithLoss"
  bottom: "conv91"
  bottom: "label"
  top: "loss"
}
I0713 09:09:24.346103 47869 layer_factory.hpp:76] Creating layer data
I0713 09:09:24.346175 47869 net.cpp:106] Creating Layer data
I0713 09:09:24.346202 47869 net.cpp:411] data -> data
I0713 09:09:24.346252 47869 net.cpp:411] data -> label
I0713 09:09:24.346797 47869 image_data_layer.cpp:36] Opening file ../lists/mitosis_train.lst
I0713 09:09:24.360507 47869 image_data_layer.cpp:46] Shuffling data
I0713 09:09:24.362289 47869 image_data_layer.cpp:51] A total of 23544 images.
I0713 09:09:24.458338 47869 image_data_layer.cpp:78] output data size: 8,3,1000,1000
I0713 09:09:24.742246 47869 net.cpp:150] Setting up data
I0713 09:09:24.742362 47869 net.cpp:157] Top shape: 8 3 1000 1000 (24000000)
I0713 09:09:24.742405 47869 net.cpp:157] Top shape: 8 (8)
I0713 09:09:24.742414 47869 net.cpp:165] Memory required for data: 96000032
I0713 09:09:24.742437 47869 layer_factory.hpp:76] Creating layer label_data_1_split
I0713 09:09:24.742461 47869 net.cpp:106] Creating Layer label_data_1_split
I0713 09:09:24.742473 47869 net.cpp:454] label_data_1_split <- label
I0713 09:09:24.742496 47869 net.cpp:411] label_data_1_split -> label_data_1_split_0
I0713 09:09:24.742513 47869 net.cpp:411] label_data_1_split -> label_data_1_split_1
I0713 09:09:24.742590 47869 net.cpp:150] Setting up label_data_1_split
I0713 09:09:24.742602 47869 net.cpp:157] Top shape: 8 (8)
I0713 09:09:24.742610 47869 net.cpp:157] Top shape: 8 (8)
I0713 09:09:24.742676 47869 net.cpp:165] Memory required for data: 96000096
I0713 09:09:24.742686 47869 layer_factory.hpp:76] Creating layer conv11
I0713 09:09:24.742712 47869 net.cpp:106] Creating Layer conv11
I0713 09:09:24.742719 47869 net.cpp:454] conv11 <- data
I0713 09:09:24.742733 47869 net.cpp:411] conv11 -> conv11
I0713 09:09:24.954999 47869 net.cpp:150] Setting up conv11
I0713 09:09:24.955056 47869 net.cpp:157] Top shape: 8 32 1000 1000 (256000000)
I0713 09:09:24.955072 47869 net.cpp:165] Memory required for data: 1120000096
I0713 09:09:24.955114 47869 layer_factory.hpp:76] Creating layer relu11
I0713 09:09:24.955142 47869 net.cpp:106] Creating Layer relu11
I0713 09:09:24.955157 47869 net.cpp:454] relu11 <- conv11
I0713 09:09:24.955175 47869 net.cpp:397] relu11 -> conv11 (in-place)
I0713 09:09:24.955415 47869 net.cpp:150] Setting up relu11
I0713 09:09:24.955441 47869 net.cpp:157] Top shape: 8 32 1000 1000 (256000000)
I0713 09:09:24.955456 47869 net.cpp:165] Memory required for data: 2144000096
I0713 09:09:24.955472 47869 layer_factory.hpp:76] Creating layer conv12
I0713 09:09:24.955495 47869 net.cpp:106] Creating Layer conv12
I0713 09:09:24.955512 47869 net.cpp:454] conv12 <- conv11
I0713 09:09:24.955538 47869 net.cpp:411] conv12 -> conv12
I0713 09:09:24.962155 47869 net.cpp:150] Setting up conv12
I0713 09:09:24.962189 47869 net.cpp:157] Top shape: 8 32 1000 1000 (256000000)
I0713 09:09:24.962205 47869 net.cpp:165] Memory required for data: 3168000096
I0713 09:09:24.962232 47869 layer_factory.hpp:76] Creating layer relu12
I0713 09:09:24.962250 47869 net.cpp:106] Creating Layer relu12
I0713 09:09:24.962265 47869 net.cpp:454] relu12 <- conv12
I0713 09:09:24.962291 47869 net.cpp:397] relu12 -> conv12 (in-place)
I0713 09:09:24.962819 47869 net.cpp:150] Setting up relu12
I0713 09:09:24.962849 47869 net.cpp:157] Top shape: 8 32 1000 1000 (256000000)
I0713 09:09:24.962864 47869 net.cpp:165] Memory required for data: 4192000096
I0713 09:09:24.962882 47869 layer_factory.hpp:76] Creating layer pool1
I0713 09:09:24.962901 47869 net.cpp:106] Creating Layer pool1
I0713 09:09:24.962916 47869 net.cpp:454] pool1 <- conv12
I0713 09:09:24.962944 47869 net.cpp:411] pool1 -> pool1
I0713 09:09:24.963243 47869 net.cpp:150] Setting up pool1
I0713 09:09:24.963274 47869 net.cpp:157] Top shape: 8 32 500 500 (64000000)
I0713 09:09:24.963289 47869 net.cpp:165] Memory required for data: 4448000096
I0713 09:09:24.963302 47869 layer_factory.hpp:76] Creating layer conv21
I0713 09:09:24.963322 47869 net.cpp:106] Creating Layer conv21
I0713 09:09:24.963337 47869 net.cpp:454] conv21 <- pool1
I0713 09:09:24.963364 47869 net.cpp:411] conv21 -> conv21
I0713 09:09:24.967423 47869 net.cpp:150] Setting up conv21
I0713 09:09:24.967455 47869 net.cpp:157] Top shape: 8 64 500 500 (128000000)
I0713 09:09:24.967470 47869 net.cpp:165] Memory required for data: 4960000096
I0713 09:09:24.967496 47869 layer_factory.hpp:76] Creating layer relu21
I0713 09:09:24.967519 47869 net.cpp:106] Creating Layer relu21
I0713 09:09:24.967540 47869 net.cpp:454] relu21 <- conv21
I0713 09:09:24.967556 47869 net.cpp:397] relu21 -> conv21 (in-place)
I0713 09:09:24.968080 47869 net.cpp:150] Setting up relu21
I0713 09:09:24.968109 47869 net.cpp:157] Top shape: 8 64 500 500 (128000000)
I0713 09:09:24.968124 47869 net.cpp:165] Memory required for data: 5472000096
I0713 09:09:24.968142 47869 layer_factory.hpp:76] Creating layer conv22
I0713 09:09:24.968163 47869 net.cpp:106] Creating Layer conv22
I0713 09:09:24.968178 47869 net.cpp:454] conv22 <- conv21
I0713 09:09:24.968207 47869 net.cpp:411] conv22 -> conv22
I0713 09:09:24.971086 47869 cudnn_conv_layer.cpp:194] Reallocating workspace storage: 6912
I0713 09:09:24.971420 47869 net.cpp:150] Setting up conv22
I0713 09:09:24.971439 47869 net.cpp:157] Top shape: 8 64 500 500 (128000000)
I0713 09:09:24.971449 47869 net.cpp:165] Memory required for data: 5984000096
I0713 09:09:24.971462 47869 layer_factory.hpp:76] Creating layer relu22
I0713 09:09:24.971477 47869 net.cpp:106] Creating Layer relu22
I0713 09:09:24.971485 47869 net.cpp:454] relu22 <- conv22
I0713 09:09:24.971534 47869 net.cpp:397] relu22 -> conv22 (in-place)
I0713 09:09:24.971979 47869 net.cpp:150] Setting up relu22
I0713 09:09:24.971999 47869 net.cpp:157] Top shape: 8 64 500 500 (128000000)
I0713 09:09:24.972008 47869 net.cpp:165] Memory required for data: 6496000096
I0713 09:09:24.972018 47869 layer_factory.hpp:76] Creating layer pool2
I0713 09:09:24.972033 47869 net.cpp:106] Creating Layer pool2
I0713 09:09:24.972043 47869 net.cpp:454] pool2 <- conv22
I0713 09:09:24.972054 47869 net.cpp:411] pool2 -> pool2
I0713 09:09:24.972261 47869 net.cpp:150] Setting up pool2
I0713 09:09:24.972283 47869 net.cpp:157] Top shape: 8 64 250 250 (32000000)
I0713 09:09:24.972292 47869 net.cpp:165] Memory required for data: 6624000096
I0713 09:09:24.972301 47869 layer_factory.hpp:76] Creating layer conv31
I0713 09:09:24.972317 47869 net.cpp:106] Creating Layer conv31
I0713 09:09:24.972327 47869 net.cpp:454] conv31 <- pool2
I0713 09:09:24.972338 47869 net.cpp:411] conv31 -> conv31
I0713 09:09:24.973917 47869 cudnn_conv_layer.cpp:194] Reallocating workspace storage: 6912
I0713 09:09:24.973951 47869 net.cpp:150] Setting up conv31
I0713 09:09:24.973964 47869 net.cpp:157] Top shape: 8 96 250 250 (48000000)
I0713 09:09:24.973973 47869 net.cpp:165] Memory required for data: 6816000096
I0713 09:09:24.973991 47869 layer_factory.hpp:76] Creating layer relu31
I0713 09:09:24.974004 47869 net.cpp:106] Creating Layer relu31
I0713 09:09:24.974014 47869 net.cpp:454] relu31 <- conv31
I0713 09:09:24.974035 47869 net.cpp:397] relu31 -> conv31 (in-place)
I0713 09:09:24.974462 47869 net.cpp:150] Setting up relu31
I0713 09:09:24.974483 47869 net.cpp:157] Top shape: 8 96 250 250 (48000000)
I0713 09:09:24.974491 47869 net.cpp:165] Memory required for data: 7008000096
I0713 09:09:24.974500 47869 layer_factory.hpp:76] Creating layer conv32
I0713 09:09:24.974516 47869 net.cpp:106] Creating Layer conv32
I0713 09:09:24.974526 47869 net.cpp:454] conv32 <- conv31
I0713 09:09:24.974537 47869 net.cpp:411] conv32 -> conv32
I0713 09:09:24.977211 47869 cudnn_conv_layer.cpp:194] Reallocating workspace storage: 10368
I0713 09:09:24.977246 47869 net.cpp:150] Setting up conv32
I0713 09:09:24.977260 47869 net.cpp:157] Top shape: 8 96 250 250 (48000000)
I0713 09:09:24.977270 47869 net.cpp:165] Memory required for data: 7200000096
I0713 09:09:24.977282 47869 layer_factory.hpp:76] Creating layer relu32
I0713 09:09:24.977296 47869 net.cpp:106] Creating Layer relu32
I0713 09:09:24.977306 47869 net.cpp:454] relu32 <- conv32
I0713 09:09:24.977331 47869 net.cpp:397] relu32 -> conv32 (in-place)
I0713 09:09:24.977514 47869 net.cpp:150] Setting up relu32
I0713 09:09:24.977535 47869 net.cpp:157] Top shape: 8 96 250 250 (48000000)
I0713 09:09:24.977543 47869 net.cpp:165] Memory required for data: 7392000096
I0713 09:09:24.977552 47869 layer_factory.hpp:76] Creating layer pool3
I0713 09:09:24.977568 47869 net.cpp:106] Creating Layer pool3
I0713 09:09:24.977578 47869 net.cpp:454] pool3 <- conv32
I0713 09:09:24.977588 47869 net.cpp:411] pool3 -> pool3
I0713 09:09:24.978060 47869 net.cpp:150] Setting up pool3
I0713 09:09:24.978081 47869 net.cpp:157] Top shape: 8 96 125 125 (12000000)
I0713 09:09:24.978094 47869 net.cpp:165] Memory required for data: 7440000096
I0713 09:09:24.978103 47869 layer_factory.hpp:76] Creating layer conv41
I0713 09:09:24.978122 47869 net.cpp:106] Creating Layer conv41
I0713 09:09:24.978132 47869 net.cpp:454] conv41 <- pool3
I0713 09:09:24.978152 47869 net.cpp:411] conv41 -> conv41
I0713 09:09:24.979866 47869 cudnn_conv_layer.cpp:194] Reallocating workspace storage: 10368
I0713 09:09:24.979904 47869 net.cpp:150] Setting up conv41
I0713 09:09:24.979918 47869 net.cpp:157] Top shape: 8 128 125 125 (16000000)
I0713 09:09:24.979926 47869 net.cpp:165] Memory required for data: 7504000096
I0713 09:09:24.979938 47869 layer_factory.hpp:76] Creating layer relu41
I0713 09:09:24.979950 47869 net.cpp:106] Creating Layer relu41
I0713 09:09:24.979959 47869 net.cpp:454] relu41 <- conv41
I0713 09:09:24.979980 47869 net.cpp:397] relu41 -> conv41 (in-place)
I0713 09:09:24.980720 47869 net.cpp:150] Setting up relu41
I0713 09:09:24.980741 47869 net.cpp:157] Top shape: 8 128 125 125 (16000000)
I0713 09:09:24.980749 47869 net.cpp:165] Memory required for data: 7568000096
I0713 09:09:24.980758 47869 layer_factory.hpp:76] Creating layer conv42
I0713 09:09:24.980774 47869 net.cpp:106] Creating Layer conv42
I0713 09:09:24.980785 47869 net.cpp:454] conv42 <- conv41
I0713 09:09:24.980798 47869 net.cpp:411] conv42 -> conv42
I0713 09:09:24.983947 47869 cudnn_conv_layer.cpp:194] Reallocating workspace storage: 13824
I0713 09:09:24.983985 47869 net.cpp:150] Setting up conv42
I0713 09:09:24.983999 47869 net.cpp:157] Top shape: 8 128 125 125 (16000000)
I0713 09:09:24.984009 47869 net.cpp:165] Memory required for data: 7632000096
I0713 09:09:24.984020 47869 layer_factory.hpp:76] Creating layer relu42
I0713 09:09:24.984032 47869 net.cpp:106] Creating Layer relu42
I0713 09:09:24.984041 47869 net.cpp:454] relu42 <- conv42
I0713 09:09:24.984066 47869 net.cpp:397] relu42 -> conv42 (in-place)
I0713 09:09:24.984247 47869 net.cpp:150] Setting up relu42
I0713 09:09:24.984272 47869 net.cpp:157] Top shape: 8 128 125 125 (16000000)
I0713 09:09:24.984280 47869 net.cpp:165] Memory required for data: 7696000096
I0713 09:09:24.984289 47869 layer_factory.hpp:76] Creating layer pool4
I0713 09:09:24.984303 47869 net.cpp:106] Creating Layer pool4
I0713 09:09:24.984313 47869 net.cpp:454] pool4 <- conv42
I0713 09:09:24.984323 47869 net.cpp:411] pool4 -> pool4
I0713 09:09:24.984793 47869 net.cpp:150] Setting up pool4
I0713 09:09:24.984813 47869 net.cpp:157] Top shape: 8 128 63 63 (4064256)
I0713 09:09:24.984822 47869 net.cpp:165] Memory required for data: 7712257120
I0713 09:09:24.984832 47869 layer_factory.hpp:76] Creating layer conv51
I0713 09:09:24.984850 47869 net.cpp:106] Creating Layer conv51
I0713 09:09:24.984860 47869 net.cpp:454] conv51 <- pool4
I0713 09:09:24.984871 47869 net.cpp:411] conv51 -> conv51
I0713 09:09:24.989915 47869 cudnn_conv_layer.cpp:194] Reallocating workspace storage: 13824
I0713 09:09:24.989948 47869 net.cpp:150] Setting up conv51
I0713 09:09:24.989962 47869 net.cpp:157] Top shape: 8 256 63 63 (8128512)
I0713 09:09:24.989974 47869 net.cpp:165] Memory required for data: 7744771168
I0713 09:09:24.989994 47869 layer_factory.hpp:76] Creating layer relu51
I0713 09:09:24.990006 47869 net.cpp:106] Creating Layer relu51
I0713 09:09:24.990015 47869 net.cpp:454] relu51 <- conv51
I0713 09:09:24.990028 47869 net.cpp:397] relu51 -> conv51 (in-place)
I0713 09:09:24.990214 47869 net.cpp:150] Setting up relu51
I0713 09:09:24.990232 47869 net.cpp:157] Top shape: 8 256 63 63 (8128512)
I0713 09:09:24.990242 47869 net.cpp:165] Memory required for data: 7777285216
I0713 09:09:24.990250 47869 layer_factory.hpp:76] Creating layer conv52
I0713 09:09:24.990265 47869 net.cpp:106] Creating Layer conv52
I0713 09:09:24.990275 47869 net.cpp:454] conv52 <- conv51
I0713 09:09:24.990289 47869 net.cpp:411] conv52 -> conv52
I0713 09:09:24.996976 47869 cudnn_conv_layer.cpp:194] Reallocating workspace storage: 27648
I0713 09:09:24.997014 47869 net.cpp:150] Setting up conv52
I0713 09:09:24.997027 47869 net.cpp:157] Top shape: 8 256 63 63 (8128512)
I0713 09:09:24.997040 47869 net.cpp:165] Memory required for data: 7809799264
I0713 09:09:24.997053 47869 layer_factory.hpp:76] Creating layer relu52
I0713 09:09:24.997078 47869 net.cpp:106] Creating Layer relu52
I0713 09:09:24.997088 47869 net.cpp:454] relu52 <- conv52
I0713 09:09:24.997098 47869 net.cpp:397] relu52 -> conv52 (in-place)
I0713 09:09:24.997529 47869 net.cpp:150] Setting up relu52
I0713 09:09:24.997550 47869 net.cpp:157] Top shape: 8 256 63 63 (8128512)
I0713 09:09:24.997560 47869 net.cpp:165] Memory required for data: 7842313312
I0713 09:09:24.997568 47869 layer_factory.hpp:76] Creating layer conv53
I0713 09:09:24.997586 47869 net.cpp:106] Creating Layer conv53
I0713 09:09:24.997596 47869 net.cpp:454] conv53 <- conv52
I0713 09:09:24.997607 47869 net.cpp:411] conv53 -> conv53
I0713 09:09:25.026720 47869 cudnn_conv_layer.cpp:194] Reallocating workspace storage: 150528
I0713 09:09:25.027112 47869 net.cpp:150] Setting up conv53
I0713 09:09:25.027133 47869 net.cpp:157] Top shape: 8 256 57 57 (6653952)
I0713 09:09:25.027143 47869 net.cpp:165] Memory required for data: 7868929120
I0713 09:09:25.027163 47869 layer_factory.hpp:76] Creating layer relu53
I0713 09:09:25.027179 47869 net.cpp:106] Creating Layer relu53
I0713 09:09:25.027189 47869 net.cpp:454] relu53 <- conv53
I0713 09:09:25.027201 47869 net.cpp:397] relu53 -> conv53 (in-place)
I0713 09:09:25.027634 47869 net.cpp:150] Setting up relu53
I0713 09:09:25.027654 47869 net.cpp:157] Top shape: 8 256 57 57 (6653952)
I0713 09:09:25.027663 47869 net.cpp:165] Memory required for data: 7895544928
I0713 09:09:25.027672 47869 layer_factory.hpp:76] Creating layer conv54
I0713 09:09:25.027688 47869 net.cpp:106] Creating Layer conv54
I0713 09:09:25.027698 47869 net.cpp:454] conv54 <- conv53
I0713 09:09:25.027710 47869 net.cpp:411] conv54 -> conv54
I0713 09:09:25.028867 47869 net.cpp:150] Setting up conv54
I0713 09:09:25.028889 47869 net.cpp:157] Top shape: 8 2 57 57 (51984)
I0713 09:09:25.028898 47869 net.cpp:165] Memory required for data: 7895752864
I0713 09:09:25.028910 47869 layer_factory.hpp:76] Creating layer interloss
I0713 09:09:25.028926 47869 net.cpp:106] Creating Layer interloss
I0713 09:09:25.028935 47869 net.cpp:454] interloss <- conv54
I0713 09:09:25.028945 47869 net.cpp:411] interloss -> interloss
I0713 09:09:25.029201 47869 net.cpp:150] Setting up interloss
I0713 09:09:25.029217 47869 net.cpp:157] Top shape: 8 2 57 57 (51984)
I0713 09:09:25.029227 47869 net.cpp:165] Memory required for data: 7895960800
I0713 09:09:25.029235 47869 layer_factory.hpp:76] Creating layer conv61
I0713 09:09:25.029250 47869 net.cpp:106] Creating Layer conv61
I0713 09:09:25.029260 47869 net.cpp:454] conv61 <- interloss
I0713 09:09:25.029270 47869 net.cpp:411] conv61 -> conv61
I0713 09:09:25.030546 47869 cudnn_conv_layer.cpp:194] Reallocating workspace storage: 5614272
I0713 09:09:25.030941 47869 net.cpp:150] Setting up conv61
I0713 09:09:25.030961 47869 net.cpp:157] Top shape: 8 64 57 57 (1663488)
I0713 09:09:25.030971 47869 net.cpp:165] Memory required for data: 7902614752
I0713 09:09:25.030983 47869 layer_factory.hpp:76] Creating layer relu61
I0713 09:09:25.031013 47869 net.cpp:106] Creating Layer relu61
I0713 09:09:25.031025 47869 net.cpp:454] relu61 <- conv61
I0713 09:09:25.031036 47869 net.cpp:397] relu61 -> conv61 (in-place)
I0713 09:09:25.031563 47869 net.cpp:150] Setting up relu61
I0713 09:09:25.031584 47869 net.cpp:157] Top shape: 8 64 57 57 (1663488)
I0713 09:09:25.031594 47869 net.cpp:165] Memory required for data: 7909268704
I0713 09:09:25.031605 47869 layer_factory.hpp:76] Creating layer conv62
I0713 09:09:25.031630 47869 net.cpp:106] Creating Layer conv62
I0713 09:09:25.031639 47869 net.cpp:454] conv62 <- conv61
I0713 09:09:25.031653 47869 net.cpp:411] conv62 -> conv62
I0713 09:09:25.033566 47869 net.cpp:150] Setting up conv62
I0713 09:09:25.033588 47869 net.cpp:157] Top shape: 8 64 57 57 (1663488)
I0713 09:09:25.033597 47869 net.cpp:165] Memory required for data: 7915922656
I0713 09:09:25.033608 47869 layer_factory.hpp:76] Creating layer relu62
I0713 09:09:25.033623 47869 net.cpp:106] Creating Layer relu62
I0713 09:09:25.033632 47869 net.cpp:454] relu62 <- conv62
I0713 09:09:25.033643 47869 net.cpp:397] relu62 -> conv62 (in-place)
I0713 09:09:25.034067 47869 net.cpp:150] Setting up relu62
I0713 09:09:25.034087 47869 net.cpp:157] Top shape: 8 64 57 57 (1663488)
I0713 09:09:25.034096 47869 net.cpp:165] Memory required for data: 7922576608
I0713 09:09:25.034104 47869 layer_factory.hpp:76] Creating layer pool5
I0713 09:09:25.034119 47869 net.cpp:106] Creating Layer pool5
I0713 09:09:25.034129 47869 net.cpp:454] pool5 <- conv62
I0713 09:09:25.034139 47869 net.cpp:411] pool5 -> pool5
I0713 09:09:25.034348 47869 net.cpp:150] Setting up pool5
I0713 09:09:25.034368 47869 net.cpp:157] Top shape: 8 64 29 29 (430592)
I0713 09:09:25.034376 47869 net.cpp:165] Memory required for data: 7924298976
I0713 09:09:25.034384 47869 layer_factory.hpp:76] Creating layer conv71
I0713 09:09:25.034413 47869 net.cpp:106] Creating Layer conv71
I0713 09:09:25.034423 47869 net.cpp:454] conv71 <- pool5
I0713 09:09:25.034435 47869 net.cpp:411] conv71 -> conv71
I0713 09:09:25.036372 47869 cudnn_conv_layer.cpp:194] Reallocating workspace storage: 6912
I0713 09:09:25.036406 47869 net.cpp:150] Setting up conv71
I0713 09:09:25.036418 47869 net.cpp:157] Top shape: 8 96 29 29 (645888)
I0713 09:09:25.036427 47869 net.cpp:165] Memory required for data: 7926882528
I0713 09:09:25.036439 47869 layer_factory.hpp:76] Creating layer relu71
I0713 09:09:25.036455 47869 net.cpp:106] Creating Layer relu71
I0713 09:09:25.036465 47869 net.cpp:454] relu71 <- conv71
I0713 09:09:25.036475 47869 net.cpp:397] relu71 -> conv71 (in-place)
I0713 09:09:25.036905 47869 net.cpp:150] Setting up relu71
I0713 09:09:25.036923 47869 net.cpp:157] Top shape: 8 96 29 29 (645888)
I0713 09:09:25.036932 47869 net.cpp:165] Memory required for data: 7929466080
I0713 09:09:25.036942 47869 layer_factory.hpp:76] Creating layer conv72
I0713 09:09:25.036957 47869 net.cpp:106] Creating Layer conv72
I0713 09:09:25.036967 47869 net.cpp:454] conv72 <- conv71
I0713 09:09:25.036979 47869 net.cpp:411] conv72 -> conv72
I0713 09:09:25.038787 47869 cudnn_conv_layer.cpp:194] Reallocating workspace storage: 10368
I0713 09:09:25.038822 47869 net.cpp:150] Setting up conv72
I0713 09:09:25.038837 47869 net.cpp:157] Top shape: 8 96 29 29 (645888)
I0713 09:09:25.038847 47869 net.cpp:165] Memory required for data: 7932049632
I0713 09:09:25.038858 47869 layer_factory.hpp:76] Creating layer relu72
I0713 09:09:25.038871 47869 net.cpp:106] Creating Layer relu72
I0713 09:09:25.038878 47869 net.cpp:454] relu72 <- conv72
I0713 09:09:25.038889 47869 net.cpp:397] relu72 -> conv72 (in-place)
I0713 09:09:25.039069 47869 net.cpp:150] Setting up relu72
I0713 09:09:25.039086 47869 net.cpp:157] Top shape: 8 96 29 29 (645888)
I0713 09:09:25.039094 47869 net.cpp:165] Memory required for data: 7934633184
I0713 09:09:25.039104 47869 layer_factory.hpp:76] Creating layer pool6
I0713 09:09:25.039118 47869 net.cpp:106] Creating Layer pool6
I0713 09:09:25.039126 47869 net.cpp:454] pool6 <- conv72
I0713 09:09:25.039137 47869 net.cpp:411] pool6 -> pool6
I0713 09:09:25.039610 47869 net.cpp:150] Setting up pool6
I0713 09:09:25.039630 47869 net.cpp:157] Top shape: 8 96 15 15 (172800)
I0713 09:09:25.039639 47869 net.cpp:165] Memory required for data: 7935324384
I0713 09:09:25.039649 47869 layer_factory.hpp:76] Creating layer conv81
I0713 09:09:25.039664 47869 net.cpp:106] Creating Layer conv81
I0713 09:09:25.039674 47869 net.cpp:454] conv81 <- pool6
I0713 09:09:25.039686 47869 net.cpp:411] conv81 -> conv81
I0713 09:09:25.042104 47869 net.cpp:150] Setting up conv81
I0713 09:09:25.042127 47869 net.cpp:157] Top shape: 8 128 15 15 (230400)
I0713 09:09:25.042136 47869 net.cpp:165] Memory required for data: 7936245984
I0713 09:09:25.042157 47869 layer_factory.hpp:76] Creating layer relu81
I0713 09:09:25.042172 47869 net.cpp:106] Creating Layer relu81
I0713 09:09:25.042181 47869 net.cpp:454] relu81 <- conv81
I0713 09:09:25.042192 47869 net.cpp:397] relu81 -> conv81 (in-place)
I0713 09:09:25.042649 47869 net.cpp:150] Setting up relu81
I0713 09:09:25.042672 47869 net.cpp:157] Top shape: 8 128 15 15 (230400)
I0713 09:09:25.042683 47869 net.cpp:165] Memory required for data: 7937167584
I0713 09:09:25.042693 47869 layer_factory.hpp:76] Creating layer conv82
I0713 09:09:25.042716 47869 net.cpp:106] Creating Layer conv82
I0713 09:09:25.042726 47869 net.cpp:454] conv82 <- conv81
I0713 09:09:25.042742 47869 net.cpp:411] conv82 -> conv82
I0713 09:09:25.044967 47869 net.cpp:150] Setting up conv82
I0713 09:09:25.044989 47869 net.cpp:157] Top shape: 8 128 15 15 (230400)
I0713 09:09:25.044998 47869 net.cpp:165] Memory required for data: 7938089184
I0713 09:09:25.045011 47869 layer_factory.hpp:76] Creating layer relu82
I0713 09:09:25.045027 47869 net.cpp:106] Creating Layer relu82
I0713 09:09:25.045037 47869 net.cpp:454] relu82 <- conv82
I0713 09:09:25.045047 47869 net.cpp:397] relu82 -> conv82 (in-place)
I0713 09:09:25.045253 47869 net.cpp:150] Setting up relu82
I0713 09:09:25.045270 47869 net.cpp:157] Top shape: 8 128 15 15 (230400)
I0713 09:09:25.045279 47869 net.cpp:165] Memory required for data: 7939010784
I0713 09:09:25.045289 47869 layer_factory.hpp:76] Creating layer pool7
I0713 09:09:25.045300 47869 net.cpp:106] Creating Layer pool7
I0713 09:09:25.045308 47869 net.cpp:454] pool7 <- conv82
I0713 09:09:25.045321 47869 net.cpp:411] pool7 -> pool7
I0713 09:09:25.045800 47869 net.cpp:150] Setting up pool7
I0713 09:09:25.045820 47869 net.cpp:157] Top shape: 8 128 8 8 (65536)
I0713 09:09:25.045830 47869 net.cpp:165] Memory required for data: 7939272928
I0713 09:09:25.045838 47869 layer_factory.hpp:76] Creating layer drop0
I0713 09:09:25.045855 47869 net.cpp:106] Creating Layer drop0
I0713 09:09:25.045866 47869 net.cpp:454] drop0 <- pool7
I0713 09:09:25.045876 47869 net.cpp:397] drop0 -> pool7 (in-place)
I0713 09:09:25.045915 47869 net.cpp:150] Setting up drop0
I0713 09:09:25.045928 47869 net.cpp:157] Top shape: 8 128 8 8 (65536)
I0713 09:09:25.045938 47869 net.cpp:165] Memory required for data: 7939535072
I0713 09:09:25.045946 47869 layer_factory.hpp:76] Creating layer conv91
I0713 09:09:25.045963 47869 net.cpp:106] Creating Layer conv91
I0713 09:09:25.045971 47869 net.cpp:454] conv91 <- pool7
I0713 09:09:25.045986 47869 net.cpp:411] conv91 -> conv91
I0713 09:09:25.047312 47869 cudnn_conv_layer.cpp:194] Reallocating workspace storage: 98304
I0713 09:09:25.047345 47869 net.cpp:150] Setting up conv91
I0713 09:09:25.047358 47869 net.cpp:157] Top shape: 8 3 1 1 (24)
I0713 09:09:25.047369 47869 net.cpp:165] Memory required for data: 7939535168
I0713 09:09:25.047380 47869 layer_factory.hpp:76] Creating layer conv91_conv91_0_split
I0713 09:09:25.047396 47869 net.cpp:106] Creating Layer conv91_conv91_0_split
I0713 09:09:25.047405 47869 net.cpp:454] conv91_conv91_0_split <- conv91
I0713 09:09:25.047416 47869 net.cpp:411] conv91_conv91_0_split -> conv91_conv91_0_split_0
I0713 09:09:25.047437 47869 net.cpp:411] conv91_conv91_0_split -> conv91_conv91_0_split_1
I0713 09:09:25.047488 47869 net.cpp:150] Setting up conv91_conv91_0_split
I0713 09:09:25.047504 47869 net.cpp:157] Top shape: 8 3 1 1 (24)
I0713 09:09:25.047518 47869 net.cpp:157] Top shape: 8 3 1 1 (24)
I0713 09:09:25.047526 47869 net.cpp:165] Memory required for data: 7939535360
I0713 09:09:25.047538 47869 layer_factory.hpp:76] Creating layer accuracy
I0713 09:09:25.047554 47869 net.cpp:106] Creating Layer accuracy
I0713 09:09:25.047566 47869 net.cpp:454] accuracy <- conv91_conv91_0_split_0
I0713 09:09:25.047576 47869 net.cpp:454] accuracy <- label_data_1_split_0
I0713 09:09:25.047590 47869 net.cpp:411] accuracy -> accuracy
…
