…
I0712 18:16:34.213651 44843 solver.cpp:90] Creating training net from net file: train_val-featurelayer-3stack.prototxt
I0712 18:16:34.214857 44843 net.cpp:322] The NetState phase (0) differed from the phase (1) specified by a rule in layer data
I0712 18:16:34.215195 44843 net.cpp:49] Initializing net from parameters: 
name: "FaceNN"
state {
  phase: TRAIN
}
layer {
  name: "data"
  type: "ImageData"
  top: "data"
  top: "label"
  include {
    phase: TRAIN
  }
  transform_param {
    mirror: true
    mean_value: 104
    mean_value: 117
    mean_value: 123
  }
  image_data_param {
    source: "../lists/mitosis_train.lst"
    batch_size: 8
    shuffle: true
  }
}
layer {
  name: "conv11"
  type: "Convolution"
  bottom: "data"
  top: "conv11"
  param {
    lr_mult: 0
    decay_mult: 1
  }
  param {
    lr_mult: 0
    decay_mult: 0
  }
  convolution_param {
    num_output: 32
    pad: 1
    stride: 1
    weight_filler {
      type: "xavier"
    }
    bias_filler {
      type: "constant"
    }
    kernel_h: 3
    kernel_w: 3
  }
}
layer {
  name: "relu11"
  type: "ReLU"
  bottom: "conv11"
  top: "conv11"
}
layer {
  name: "conv12"
  type: "Convolution"
  bottom: "conv11"
  top: "conv12"
  param {
    lr_mult: 0
    decay_mult: 1
  }
  param {
    lr_mult: 0
    decay_mult: 0
  }
  convolution_param {
    num_output: 32
    pad: 1
    stride: 1
    weight_filler {
      type: "xavier"
    }
    bias_filler {
      type: "constant"
    }
    kernel_h: 3
    kernel_w: 3
  }
}
layer {
  name: "relu12"
  type: "ReLU"
  bottom: "conv12"
  top: "conv12"
}
layer {
  name: "pool1"
  type: "Pooling"
  bottom: "conv12"
  top: "pool1"
  pooling_param {
    pool: MAX
    kernel_size: 2
    stride: 2
  }
}
layer {
  name: "conv21"
  type: "Convolution"
  bottom: "pool1"
  top: "conv21"
  param {
    lr_mult: 0
    decay_mult: 1
  }
  param {
    lr_mult: 0
    decay_mult: 0
  }
  convolution_param {
    num_output: 64
    pad: 1
    stride: 1
    weight_filler {
      type: "xavier"
    }
    bias_filler {
      type: "constant"
    }
    kernel_h: 3
    kernel_w: 3
  }
}
layer {
  name: "relu21"
  type: "ReLU"
  bottom: "conv21"
  top: "conv21"
}
layer {
  name: "conv22"
  type: "Convolution"
  bottom: "conv21"
  top: "conv22"
  param {
    lr_mult: 0
    decay_mult: 1
  }
  param {
    lr_mult: 0
    decay_mult: 0
  }
  convolution_param {
    num_output: 64
    pad: 1
    stride: 1
    weight_filler {
      type: "xavier"
    }
    bias_filler {
      type: "constant"
    }
    kernel_h: 3
    kernel_w: 3
  }
}
layer {
  name: "relu22"
  type: "ReLU"
  bottom: "conv22"
  top: "conv22"
}
layer {
  name: "pool2"
  type: "Pooling"
  bottom: "conv22"
  top: "pool2"
  pooling_param {
    pool: MAX
    kernel_size: 2
    stride: 2
  }
}
layer {
  name: "conv31"
  type: "Convolution"
  bottom: "pool2"
  top: "conv31"
  param {
    lr_mult: 0
    decay_mult: 1
  }
  param {
    lr_mult: 0
    decay_mult: 0
  }
  convolution_param {
    num_output: 96
    pad: 1
    stride: 1
    weight_filler {
      type: "xavier"
    }
    bias_filler {
      type: "constant"
    }
    kernel_h: 3
    kernel_w: 3
  }
}
layer {
  name: "relu31"
  type: "ReLU"
  bottom: "conv31"
  top: "conv31"
}
layer {
  name: "conv32"
  type: "Convolution"
  bottom: "conv31"
  top: "conv32"
  param {
    lr_mult: 0
    decay_mult: 1
  }
  param {
    lr_mult: 0
    decay_mult: 0
  }
  convolution_param {
    num_output: 96
    pad: 1
    stride: 1
    weight_filler {
      type: "xavier"
    }
    bias_filler {
      type: "constant"
    }
    kernel_h: 3
    kernel_w: 3
  }
}
layer {
  name: "relu32"
  type: "ReLU"
  bottom: "conv32"
  top: "conv32"
}
layer {
  name: "pool3"
  type: "Pooling"
  bottom: "conv32"
  top: "pool3"
  pooling_param {
    pool: MAX
    kernel_size: 2
    stride: 2
  }
}
layer {
  name: "conv41"
  type: "Convolution"
  bottom: "pool3"
  top: "conv41"
  param {
    lr_mult: 0
    decay_mult: 1
  }
  param {
    lr_mult: 0
    decay_mult: 0
  }
  convolution_param {
    num_output: 128
    pad: 1
    stride: 1
    weight_filler {
      type: "xavier"
    }
    bias_filler {
      type: "constant"
    }
    kernel_h: 3
    kernel_w: 3
  }
}
layer {
  name: "relu41"
  type: "ReLU"
  bottom: "conv41"
  top: "conv41"
}
layer {
  name: "conv42"
  type: "Convolution"
  bottom: "conv41"
  top: "conv42"
  param {
    lr_mult: 0
    decay_mult: 1
  }
  param {
    lr_mult: 0
    decay_mult: 0
  }
  convolution_param {
    num_output: 128
    pad: 1
    stride: 1
    weight_filler {
      type: "xavier"
    }
    bias_filler {
      type: "constant"
    }
    kernel_h: 3
    kernel_w: 3
  }
}
layer {
  name: "relu42"
  type: "ReLU"
  bottom: "conv42"
  top: "conv42"
}
layer {
  name: "pool4"
  type: "Pooling"
  bottom: "conv42"
  top: "pool4"
  pooling_param {
    pool: MAX
    kernel_size: 2
    stride: 2
  }
}
layer {
  name: "conv51"
  type: "Convolution"
  bottom: "pool4"
  top: "conv51"
  param {
    lr_mult: 0
    decay_mult: 1
  }
  param {
    lr_mult: 0
    decay_mult: 0
  }
  convolution_param {
    num_output: 256
    pad: 1
    stride: 1
    weight_filler {
      type: "xavier"
    }
    bias_filler {
      type: "constant"
    }
    kernel_h: 3
    kernel_w: 3
  }
}
layer {
  name: "relu51"
  type: "ReLU"
  bottom: "conv51"
  top: "conv51"
}
layer {
  name: "conv52"
  type: "Convolution"
  bottom: "conv51"
  top: "conv52"
  param {
    lr_mult: 0
    decay_mult: 1
  }
  param {
    lr_mult: 0
    decay_mult: 0
  }
  convolution_param {
    num_output: 256
    pad: 1
    stride: 1
    weight_filler {
      type: "xavier"
    }
    bias_filler {
      type: "constant"
    }
    kernel_h: 3
    kernel_w: 3
  }
}
layer {
  name: "relu52"
  type: "ReLU"
  bottom: "conv52"
  top: "conv52"
}
layer {
  name: "conv53"
  type: "Convolution"
  bottom: "conv52"
  top: "conv53"
  param {
    lr_mult: 0
    decay_mult: 1
  }
  param {
    lr_mult: 0
    decay_mult: 0
  }
  convolution_param {
    num_output: 256
    stride: 1
    weight_filler {
      type: "xavier"
    }
    bias_filler {
      type: "constant"
    }
    kernel_h: 7
    kernel_w: 7
  }
}
layer {
  name: "relu53"
  type: "ReLU"
  bottom: "conv53"
  top: "conv53"
}
layer {
  name: "conv61"
  type: "Convolution"
  bottom: "conv53"
  top: "conv61"
  param {
    lr_mult: 1
    decay_mult: 1
  }
  param {
    lr_mult: 2
    decay_mult: 0
  }
  convolution_param {
    num_output: 64
    pad: 1
    stride: 1
    weight_filler {
      type: "xavier"
    }
    bias_filler {
      type: "constant"
    }
    kernel_h: 3
    kernel_w: 3
  }
}
layer {
  name: "relu61"
  type: "ReLU"
  bottom: "conv61"
  top: "conv61"
}
layer {
  name: "conv62"
  type: "Convolution"
  bottom: "conv61"
  top: "conv62"
  param {
    lr_mult: 1
    decay_mult: 1
  }
  param {
    lr_mult: 2
    decay_mult: 0
  }
  convolution_param {
    num_output: 64
    pad: 1
    stride: 1
    weight_filler {
      type: "xavier"
    }
    bias_filler {
      type: "constant"
    }
    kernel_h: 3
    kernel_w: 3
  }
}
layer {
  name: "relu62"
  type: "ReLU"
  bottom: "conv62"
  top: "conv62"
}
layer {
  name: "pool5"
  type: "Pooling"
  bottom: "conv62"
  top: "pool5"
  pooling_param {
    pool: MAX
    kernel_size: 2
    stride: 2
  }
}
layer {
  name: "conv71"
  type: "Convolution"
  bottom: "pool5"
  top: "conv71"
  param {
    lr_mult: 1
    decay_mult: 1
  }
  param {
    lr_mult: 2
    decay_mult: 0
  }
  convolution_param {
    num_output: 96
    pad: 1
    stride: 1
    weight_filler {
      type: "xavier"
    }
    bias_filler {
      type: "constant"
    }
    kernel_h: 3
    kernel_w: 3
  }
}
layer {
  name: "relu71"
  type: "ReLU"
  bottom: "conv71"
  top: "conv71"
}
layer {
  name: "conv72"
  type: "Convolution"
  bottom: "conv71"
  top: "conv72"
  param {
    lr_mult: 1
    decay_mult: 1
  }
  param {
    lr_mult: 2
    decay_mult: 0
  }
  convolution_param {
    num_output: 96
    pad: 1
    stride: 1
    weight_filler {
      type: "xavier"
    }
    bias_filler {
      type: "constant"
    }
    kernel_h: 3
    kernel_w: 3
  }
}
layer {
  name: "relu72"
  type: "ReLU"
  bottom: "conv72"
  top: "conv72"
}
layer {
  name: "pool6"
  type: "Pooling"
  bottom: "conv72"
  top: "pool6"
  pooling_param {
    pool: MAX
    kernel_size: 2
    stride: 2
  }
}
layer {
  name: "conv81"
  type: "Convolution"
  bottom: "pool6"
  top: "conv81"
  param {
    lr_mult: 1
    decay_mult: 1
  }
  param {
    lr_mult: 2
    decay_mult: 0
  }
  convolution_param {
    num_output: 128
    pad: 1
    stride: 1
    weight_filler {
      type: "xavier"
    }
    bias_filler {
      type: "constant"
    }
    kernel_h: 3
    kernel_w: 3
  }
}
layer {
  name: "relu81"
  type: "ReLU"
  bottom: "conv81"
  top: "conv81"
}
layer {
  name: "conv82"
  type: "Convolution"
  bottom: "conv81"
  top: "conv82"
  param {
    lr_mult: 1
    decay_mult: 1
  }
  param {
    lr_mult: 2
    decay_mult: 0
  }
  convolution_param {
    num_output: 128
    pad: 1
    stride: 1
    weight_filler {
      type: "xavier"
    }
    bias_filler {
      type: "constant"
    }
    kernel_h: 3
    kernel_w: 3
  }
}
layer {
  name: "relu82"
  type: "ReLU"
  bottom: "conv82"
  top: "conv82"
}
layer {
  name: "pool7"
  type: "Pooling"
  bottom: "conv82"
  top: "pool7"
  pooling_param {
    pool: AVE
    kernel_size: 2
    stride: 2
  }
}
layer {
  name: "drop0"
  type: "Dropout"
  bottom: "pool7"
  top: "pool7"
  dropout_param {
    dropout_ratio: 0.4
  }
}
layer {
  name: "conv91"
  type: "Convolution"
  bottom: "pool7"
  top: "conv91"
  param {
    lr_mult: 1
    decay_mult: 1
  }
  param {
    lr_mult: 2
    decay_mult: 0
  }
  convolution_param {
    num_output: 3
    stride: 1
    weight_filler {
      type: "xavier"
    }
    bias_filler {
      type: "constant"
    }
    kernel_h: 8
    kernel_w: 8
  }
}
layer {
  name: "accuracy"
  type: "Accuracy"
  bottom: "conv91"
  bottom: "label"
  top: "accuracy"
}
layer {
  name: "loss"
  type: "SoftmaxWithLoss"
  bottom: "conv91"
  bottom: "label"
  top: "loss"
}
I0712 18:16:34.217602 44843 layer_factory.hpp:76] Creating layer data
I0712 18:16:34.217656 44843 net.cpp:106] Creating Layer data
I0712 18:16:34.217672 44843 net.cpp:411] data -> data
I0712 18:16:34.217715 44843 net.cpp:411] data -> label
I0712 18:16:34.218161 44843 image_data_layer.cpp:36] Opening file ../lists/mitosis_train.lst
I0712 18:16:34.232573 44843 image_data_layer.cpp:46] Shuffling data
I0712 18:16:34.234856 44843 image_data_layer.cpp:51] A total of 23544 images.
I0712 18:16:34.340184 44843 image_data_layer.cpp:78] output data size: 8,3,1000,1000
I0712 18:16:34.573388 44843 net.cpp:150] Setting up data
I0712 18:16:34.573457 44843 net.cpp:157] Top shape: 8 3 1000 1000 (24000000)
I0712 18:16:34.573484 44843 net.cpp:157] Top shape: 8 (8)
I0712 18:16:34.573498 44843 net.cpp:165] Memory required for data: 96000032
I0712 18:16:34.573518 44843 layer_factory.hpp:76] Creating layer label_data_1_split
I0712 18:16:34.573546 44843 net.cpp:106] Creating Layer label_data_1_split
I0712 18:16:34.573562 44843 net.cpp:454] label_data_1_split <- label
I0712 18:16:34.573587 44843 net.cpp:411] label_data_1_split -> label_data_1_split_0
I0712 18:16:34.573611 44843 net.cpp:411] label_data_1_split -> label_data_1_split_1
I0712 18:16:34.573704 44843 net.cpp:150] Setting up label_data_1_split
I0712 18:16:34.573725 44843 net.cpp:157] Top shape: 8 (8)
I0712 18:16:34.573740 44843 net.cpp:157] Top shape: 8 (8)
I0712 18:16:34.573751 44843 net.cpp:165] Memory required for data: 96000096
I0712 18:16:34.573765 44843 layer_factory.hpp:76] Creating layer conv11
I0712 18:16:34.573796 44843 net.cpp:106] Creating Layer conv11
I0712 18:16:34.573810 44843 net.cpp:454] conv11 <- data
I0712 18:16:34.573829 44843 net.cpp:411] conv11 -> conv11
I0712 18:16:34.744114 44843 net.cpp:150] Setting up conv11
I0712 18:16:34.744185 44843 net.cpp:157] Top shape: 8 32 1000 1000 (256000000)
I0712 18:16:34.744245 44843 net.cpp:165] Memory required for data: 1120000096
I0712 18:16:34.744287 44843 layer_factory.hpp:76] Creating layer relu11
I0712 18:16:34.744316 44843 net.cpp:106] Creating Layer relu11
I0712 18:16:34.744331 44843 net.cpp:454] relu11 <- conv11
I0712 18:16:34.744349 44843 net.cpp:397] relu11 -> conv11 (in-place)
I0712 18:16:34.744678 44843 net.cpp:150] Setting up relu11
I0712 18:16:34.744702 44843 net.cpp:157] Top shape: 8 32 1000 1000 (256000000)
I0712 18:16:34.744716 44843 net.cpp:165] Memory required for data: 2144000096
I0712 18:16:34.744730 44843 layer_factory.hpp:76] Creating layer conv12
I0712 18:16:34.744755 44843 net.cpp:106] Creating Layer conv12
I0712 18:16:34.744773 44843 net.cpp:454] conv12 <- conv11
I0712 18:16:34.744793 44843 net.cpp:411] conv12 -> conv12
I0712 18:16:34.749608 44843 net.cpp:150] Setting up conv12
I0712 18:16:34.749649 44843 net.cpp:157] Top shape: 8 32 1000 1000 (256000000)
I0712 18:16:34.749658 44843 net.cpp:165] Memory required for data: 3168000096
I0712 18:16:34.749677 44843 layer_factory.hpp:76] Creating layer relu12
I0712 18:16:34.749696 44843 net.cpp:106] Creating Layer relu12
I0712 18:16:34.749706 44843 net.cpp:454] relu12 <- conv12
I0712 18:16:34.749716 44843 net.cpp:397] relu12 -> conv12 (in-place)
I0712 18:16:34.750095 44843 net.cpp:150] Setting up relu12
I0712 18:16:34.750116 44843 net.cpp:157] Top shape: 8 32 1000 1000 (256000000)
I0712 18:16:34.750125 44843 net.cpp:165] Memory required for data: 4192000096
I0712 18:16:34.750134 44843 layer_factory.hpp:76] Creating layer pool1
I0712 18:16:34.750149 44843 net.cpp:106] Creating Layer pool1
I0712 18:16:34.750159 44843 net.cpp:454] pool1 <- conv12
I0712 18:16:34.750170 44843 net.cpp:411] pool1 -> pool1
I0712 18:16:34.750408 44843 net.cpp:150] Setting up pool1
I0712 18:16:34.750430 44843 net.cpp:157] Top shape: 8 32 500 500 (64000000)
I0712 18:16:34.750442 44843 net.cpp:165] Memory required for data: 4448000096
I0712 18:16:34.750449 44843 layer_factory.hpp:76] Creating layer conv21
I0712 18:16:34.750466 44843 net.cpp:106] Creating Layer conv21
I0712 18:16:34.750475 44843 net.cpp:454] conv21 <- pool1
I0712 18:16:34.750488 44843 net.cpp:411] conv21 -> conv21
I0712 18:16:34.753054 44843 net.cpp:150] Setting up conv21
I0712 18:16:34.753092 44843 net.cpp:157] Top shape: 8 64 500 500 (128000000)
I0712 18:16:34.753101 44843 net.cpp:165] Memory required for data: 4960000096
I0712 18:16:34.753118 44843 layer_factory.hpp:76] Creating layer relu21
I0712 18:16:34.753136 44843 net.cpp:106] Creating Layer relu21
I0712 18:16:34.753146 44843 net.cpp:454] relu21 <- conv21
I0712 18:16:34.753157 44843 net.cpp:397] relu21 -> conv21 (in-place)
I0712 18:16:34.753494 44843 net.cpp:150] Setting up relu21
I0712 18:16:34.753515 44843 net.cpp:157] Top shape: 8 64 500 500 (128000000)
I0712 18:16:34.753523 44843 net.cpp:165] Memory required for data: 5472000096
I0712 18:16:34.753532 44843 layer_factory.hpp:76] Creating layer conv22
I0712 18:16:34.753551 44843 net.cpp:106] Creating Layer conv22
I0712 18:16:34.753561 44843 net.cpp:454] conv22 <- conv21
I0712 18:16:34.753571 44843 net.cpp:411] conv22 -> conv22
I0712 18:16:34.755607 44843 cudnn_conv_layer.cpp:194] Reallocating workspace storage: 6912
I0712 18:16:34.755851 44843 net.cpp:150] Setting up conv22
I0712 18:16:34.755872 44843 net.cpp:157] Top shape: 8 64 500 500 (128000000)
I0712 18:16:34.755880 44843 net.cpp:165] Memory required for data: 5984000096
I0712 18:16:34.755894 44843 layer_factory.hpp:76] Creating layer relu22
I0712 18:16:34.755908 44843 net.cpp:106] Creating Layer relu22
I0712 18:16:34.755918 44843 net.cpp:454] relu22 <- conv22
I0712 18:16:34.755929 44843 net.cpp:397] relu22 -> conv22 (in-place)
I0712 18:16:34.756269 44843 net.cpp:150] Setting up relu22
I0712 18:16:34.756289 44843 net.cpp:157] Top shape: 8 64 500 500 (128000000)
I0712 18:16:34.756299 44843 net.cpp:165] Memory required for data: 6496000096
I0712 18:16:34.756307 44843 layer_factory.hpp:76] Creating layer pool2
I0712 18:16:34.756321 44843 net.cpp:106] Creating Layer pool2
I0712 18:16:34.756361 44843 net.cpp:454] pool2 <- conv22
I0712 18:16:34.756373 44843 net.cpp:411] pool2 -> pool2
I0712 18:16:34.756585 44843 net.cpp:150] Setting up pool2
I0712 18:16:34.756604 44843 net.cpp:157] Top shape: 8 64 250 250 (32000000)
I0712 18:16:34.756613 44843 net.cpp:165] Memory required for data: 6624000096
I0712 18:16:34.756621 44843 layer_factory.hpp:76] Creating layer conv31
I0712 18:16:34.756638 44843 net.cpp:106] Creating Layer conv31
I0712 18:16:34.756646 44843 net.cpp:454] conv31 <- pool2
I0712 18:16:34.756657 44843 net.cpp:411] conv31 -> conv31
I0712 18:16:34.758149 44843 cudnn_conv_layer.cpp:194] Reallocating workspace storage: 6912
I0712 18:16:34.758184 44843 net.cpp:150] Setting up conv31
I0712 18:16:34.758198 44843 net.cpp:157] Top shape: 8 96 250 250 (48000000)
I0712 18:16:34.758206 44843 net.cpp:165] Memory required for data: 6816000096
I0712 18:16:34.758224 44843 layer_factory.hpp:76] Creating layer relu31
I0712 18:16:34.758236 44843 net.cpp:106] Creating Layer relu31
I0712 18:16:34.758249 44843 net.cpp:454] relu31 <- conv31
I0712 18:16:34.758261 44843 net.cpp:397] relu31 -> conv31 (in-place)
I0712 18:16:34.758586 44843 net.cpp:150] Setting up relu31
I0712 18:16:34.758606 44843 net.cpp:157] Top shape: 8 96 250 250 (48000000)
I0712 18:16:34.758615 44843 net.cpp:165] Memory required for data: 7008000096
I0712 18:16:34.758625 44843 layer_factory.hpp:76] Creating layer conv32
I0712 18:16:34.758646 44843 net.cpp:106] Creating Layer conv32
I0712 18:16:34.758656 44843 net.cpp:454] conv32 <- conv31
I0712 18:16:34.758667 44843 net.cpp:411] conv32 -> conv32
I0712 18:16:34.761003 44843 cudnn_conv_layer.cpp:194] Reallocating workspace storage: 10368
I0712 18:16:34.761047 44843 net.cpp:150] Setting up conv32
I0712 18:16:34.761061 44843 net.cpp:157] Top shape: 8 96 250 250 (48000000)
I0712 18:16:34.761071 44843 net.cpp:165] Memory required for data: 7200000096
I0712 18:16:34.761083 44843 layer_factory.hpp:76] Creating layer relu32
I0712 18:16:34.761098 44843 net.cpp:106] Creating Layer relu32
I0712 18:16:34.761108 44843 net.cpp:454] relu32 <- conv32
I0712 18:16:34.761119 44843 net.cpp:397] relu32 -> conv32 (in-place)
I0712 18:16:34.761302 44843 net.cpp:150] Setting up relu32
I0712 18:16:34.761320 44843 net.cpp:157] Top shape: 8 96 250 250 (48000000)
I0712 18:16:34.761332 44843 net.cpp:165] Memory required for data: 7392000096
I0712 18:16:34.761340 44843 layer_factory.hpp:76] Creating layer pool3
I0712 18:16:34.761358 44843 net.cpp:106] Creating Layer pool3
I0712 18:16:34.761366 44843 net.cpp:454] pool3 <- conv32
I0712 18:16:34.761376 44843 net.cpp:411] pool3 -> pool3
I0712 18:16:34.761744 44843 net.cpp:150] Setting up pool3
I0712 18:16:34.761765 44843 net.cpp:157] Top shape: 8 96 125 125 (12000000)
I0712 18:16:34.761775 44843 net.cpp:165] Memory required for data: 7440000096
I0712 18:16:34.761783 44843 layer_factory.hpp:76] Creating layer conv41
I0712 18:16:34.761800 44843 net.cpp:106] Creating Layer conv41
I0712 18:16:34.761811 44843 net.cpp:454] conv41 <- pool3
I0712 18:16:34.761822 44843 net.cpp:411] conv41 -> conv41
I0712 18:16:34.763583 44843 cudnn_conv_layer.cpp:194] Reallocating workspace storage: 10368
I0712 18:16:34.763633 44843 net.cpp:150] Setting up conv41
I0712 18:16:34.763645 44843 net.cpp:157] Top shape: 8 128 125 125 (16000000)
I0712 18:16:34.763654 44843 net.cpp:165] Memory required for data: 7504000096
I0712 18:16:34.763667 44843 layer_factory.hpp:76] Creating layer relu41
I0712 18:16:34.763679 44843 net.cpp:106] Creating Layer relu41
I0712 18:16:34.763689 44843 net.cpp:454] relu41 <- conv41
I0712 18:16:34.763701 44843 net.cpp:397] relu41 -> conv41 (in-place)
I0712 18:16:34.764226 44843 net.cpp:150] Setting up relu41
I0712 18:16:34.764250 44843 net.cpp:157] Top shape: 8 128 125 125 (16000000)
I0712 18:16:34.764258 44843 net.cpp:165] Memory required for data: 7568000096
I0712 18:16:34.764271 44843 layer_factory.hpp:76] Creating layer conv42
I0712 18:16:34.764287 44843 net.cpp:106] Creating Layer conv42
I0712 18:16:34.764297 44843 net.cpp:454] conv42 <- conv41
I0712 18:16:34.764310 44843 net.cpp:411] conv42 -> conv42
I0712 18:16:34.767174 44843 cudnn_conv_layer.cpp:194] Reallocating workspace storage: 13824
I0712 18:16:34.767217 44843 net.cpp:150] Setting up conv42
I0712 18:16:34.767230 44843 net.cpp:157] Top shape: 8 128 125 125 (16000000)
I0712 18:16:34.767240 44843 net.cpp:165] Memory required for data: 7632000096
I0712 18:16:34.767251 44843 layer_factory.hpp:76] Creating layer relu42
I0712 18:16:34.767263 44843 net.cpp:106] Creating Layer relu42
I0712 18:16:34.767273 44843 net.cpp:454] relu42 <- conv42
I0712 18:16:34.767287 44843 net.cpp:397] relu42 -> conv42 (in-place)
I0712 18:16:34.767465 44843 net.cpp:150] Setting up relu42
I0712 18:16:34.767482 44843 net.cpp:157] Top shape: 8 128 125 125 (16000000)
I0712 18:16:34.767493 44843 net.cpp:165] Memory required for data: 7696000096
I0712 18:16:34.767500 44843 layer_factory.hpp:76] Creating layer pool4
I0712 18:16:34.767515 44843 net.cpp:106] Creating Layer pool4
I0712 18:16:34.767525 44843 net.cpp:454] pool4 <- conv42
I0712 18:16:34.767534 44843 net.cpp:411] pool4 -> pool4
I0712 18:16:34.767889 44843 net.cpp:150] Setting up pool4
I0712 18:16:34.767910 44843 net.cpp:157] Top shape: 8 128 63 63 (4064256)
I0712 18:16:34.767918 44843 net.cpp:165] Memory required for data: 7712257120
I0712 18:16:34.767927 44843 layer_factory.hpp:76] Creating layer conv51
I0712 18:16:34.767947 44843 net.cpp:106] Creating Layer conv51
I0712 18:16:34.767956 44843 net.cpp:454] conv51 <- pool4
I0712 18:16:34.767966 44843 net.cpp:411] conv51 -> conv51
I0712 18:16:34.772605 44843 cudnn_conv_layer.cpp:194] Reallocating workspace storage: 13824
I0712 18:16:34.772658 44843 net.cpp:150] Setting up conv51
I0712 18:16:34.772675 44843 net.cpp:157] Top shape: 8 256 63 63 (8128512)
I0712 18:16:34.772688 44843 net.cpp:165] Memory required for data: 7744771168
I0712 18:16:34.772708 44843 layer_factory.hpp:76] Creating layer relu51
I0712 18:16:34.772727 44843 net.cpp:106] Creating Layer relu51
I0712 18:16:34.772737 44843 net.cpp:454] relu51 <- conv51
I0712 18:16:34.772747 44843 net.cpp:397] relu51 -> conv51 (in-place)
I0712 18:16:34.772944 44843 net.cpp:150] Setting up relu51
I0712 18:16:34.772961 44843 net.cpp:157] Top shape: 8 256 63 63 (8128512)
I0712 18:16:34.772974 44843 net.cpp:165] Memory required for data: 7777285216
I0712 18:16:34.772982 44843 layer_factory.hpp:76] Creating layer conv52
I0712 18:16:34.772999 44843 net.cpp:106] Creating Layer conv52
I0712 18:16:34.773008 44843 net.cpp:454] conv52 <- conv51
I0712 18:16:34.773021 44843 net.cpp:411] conv52 -> conv52
I0712 18:16:34.779687 44843 cudnn_conv_layer.cpp:194] Reallocating workspace storage: 27648
I0712 18:16:34.779742 44843 net.cpp:150] Setting up conv52
I0712 18:16:34.779757 44843 net.cpp:157] Top shape: 8 256 63 63 (8128512)
I0712 18:16:34.779767 44843 net.cpp:165] Memory required for data: 7809799264
I0712 18:16:34.779781 44843 layer_factory.hpp:76] Creating layer relu52
I0712 18:16:34.779795 44843 net.cpp:106] Creating Layer relu52
I0712 18:16:34.779805 44843 net.cpp:454] relu52 <- conv52
I0712 18:16:34.779817 44843 net.cpp:397] relu52 -> conv52 (in-place)
I0712 18:16:34.780151 44843 net.cpp:150] Setting up relu52
I0712 18:16:34.780171 44843 net.cpp:157] Top shape: 8 256 63 63 (8128512)
I0712 18:16:34.780181 44843 net.cpp:165] Memory required for data: 7842313312
I0712 18:16:34.780190 44843 layer_factory.hpp:76] Creating layer conv53
I0712 18:16:34.780208 44843 net.cpp:106] Creating Layer conv53
I0712 18:16:34.780218 44843 net.cpp:454] conv53 <- conv52
I0712 18:16:34.780230 44843 net.cpp:411] conv53 -> conv53
I0712 18:16:34.814859 44843 cudnn_conv_layer.cpp:194] Reallocating workspace storage: 150528
I0712 18:16:34.815111 44843 net.cpp:150] Setting up conv53
I0712 18:16:34.815132 44843 net.cpp:157] Top shape: 8 256 57 57 (6653952)
I0712 18:16:34.815141 44843 net.cpp:165] Memory required for data: 7868929120
I0712 18:16:34.815158 44843 layer_factory.hpp:76] Creating layer relu53
I0712 18:16:34.815173 44843 net.cpp:106] Creating Layer relu53
I0712 18:16:34.815183 44843 net.cpp:454] relu53 <- conv53
I0712 18:16:34.815194 44843 net.cpp:397] relu53 -> conv53 (in-place)
I0712 18:16:34.815557 44843 net.cpp:150] Setting up relu53
I0712 18:16:34.815577 44843 net.cpp:157] Top shape: 8 256 57 57 (6653952)
I0712 18:16:34.815585 44843 net.cpp:165] Memory required for data: 7895544928
I0712 18:16:34.815594 44843 layer_factory.hpp:76] Creating layer conv61
I0712 18:16:34.815615 44843 net.cpp:106] Creating Layer conv61
I0712 18:16:34.815625 44843 net.cpp:454] conv61 <- conv53
I0712 18:16:34.815637 44843 net.cpp:411] conv61 -> conv61
I0712 18:16:34.818507 44843 cudnn_conv_layer.cpp:194] Reallocating workspace storage: 27648
I0712 18:16:34.818552 44843 net.cpp:150] Setting up conv61
I0712 18:16:34.818567 44843 net.cpp:157] Top shape: 8 64 57 57 (1663488)
I0712 18:16:34.818574 44843 net.cpp:165] Memory required for data: 7902198880
I0712 18:16:34.818588 44843 layer_factory.hpp:76] Creating layer relu61
I0712 18:16:34.818603 44843 net.cpp:106] Creating Layer relu61
I0712 18:16:34.818614 44843 net.cpp:454] relu61 <- conv61
I0712 18:16:34.818624 44843 net.cpp:397] relu61 -> conv61 (in-place)
I0712 18:16:34.818835 44843 net.cpp:150] Setting up relu61
I0712 18:16:34.818852 44843 net.cpp:157] Top shape: 8 64 57 57 (1663488)
I0712 18:16:34.818861 44843 net.cpp:165] Memory required for data: 7908852832
I0712 18:16:34.818868 44843 layer_factory.hpp:76] Creating layer conv62
I0712 18:16:34.818886 44843 net.cpp:106] Creating Layer conv62
I0712 18:16:34.818894 44843 net.cpp:454] conv62 <- conv61
I0712 18:16:34.818907 44843 net.cpp:411] conv62 -> conv62
I0712 18:16:34.820924 44843 net.cpp:150] Setting up conv62
I0712 18:16:34.820952 44843 net.cpp:157] Top shape: 8 64 57 57 (1663488)
I0712 18:16:34.820961 44843 net.cpp:165] Memory required for data: 7915506784
I0712 18:16:34.820973 44843 layer_factory.hpp:76] Creating layer relu62
I0712 18:16:34.820986 44843 net.cpp:106] Creating Layer relu62
I0712 18:16:34.820996 44843 net.cpp:454] relu62 <- conv62
I0712 18:16:34.821005 44843 net.cpp:397] relu62 -> conv62 (in-place)
I0712 18:16:34.821331 44843 net.cpp:150] Setting up relu62
I0712 18:16:34.821353 44843 net.cpp:157] Top shape: 8 64 57 57 (1663488)
I0712 18:16:34.821362 44843 net.cpp:165] Memory required for data: 7922160736
I0712 18:16:34.821370 44843 layer_factory.hpp:76] Creating layer pool5
I0712 18:16:34.821389 44843 net.cpp:106] Creating Layer pool5
I0712 18:16:34.821398 44843 net.cpp:454] pool5 <- conv62
I0712 18:16:34.821415 44843 net.cpp:411] pool5 -> pool5
I0712 18:16:34.821620 44843 net.cpp:150] Setting up pool5
I0712 18:16:34.821640 44843 net.cpp:157] Top shape: 8 64 29 29 (430592)
I0712 18:16:34.821648 44843 net.cpp:165] Memory required for data: 7923883104
I0712 18:16:34.821656 44843 layer_factory.hpp:76] Creating layer conv71
I0712 18:16:34.821669 44843 net.cpp:106] Creating Layer conv71
I0712 18:16:34.821678 44843 net.cpp:454] conv71 <- pool5
I0712 18:16:34.821691 44843 net.cpp:411] conv71 -> conv71
I0712 18:16:34.823179 44843 cudnn_conv_layer.cpp:194] Reallocating workspace storage: 6912
I0712 18:16:34.823215 44843 net.cpp:150] Setting up conv71
I0712 18:16:34.823227 44843 net.cpp:157] Top shape: 8 96 29 29 (645888)
I0712 18:16:34.823236 44843 net.cpp:165] Memory required for data: 7926466656
I0712 18:16:34.823248 44843 layer_factory.hpp:76] Creating layer relu71
I0712 18:16:34.823259 44843 net.cpp:106] Creating Layer relu71
I0712 18:16:34.823268 44843 net.cpp:454] relu71 <- conv71
I0712 18:16:34.823283 44843 net.cpp:397] relu71 -> conv71 (in-place)
I0712 18:16:34.823668 44843 net.cpp:150] Setting up relu71
I0712 18:16:34.823688 44843 net.cpp:157] Top shape: 8 96 29 29 (645888)
I0712 18:16:34.823696 44843 net.cpp:165] Memory required for data: 7929050208
I0712 18:16:34.823705 44843 layer_factory.hpp:76] Creating layer conv72
I0712 18:16:34.823724 44843 net.cpp:106] Creating Layer conv72
I0712 18:16:34.823732 44843 net.cpp:454] conv72 <- conv71
I0712 18:16:34.823745 44843 net.cpp:411] conv72 -> conv72
I0712 18:16:34.825441 44843 cudnn_conv_layer.cpp:194] Reallocating workspace storage: 10368
I0712 18:16:34.825479 44843 net.cpp:150] Setting up conv72
I0712 18:16:34.825522 44843 net.cpp:157] Top shape: 8 96 29 29 (645888)
I0712 18:16:34.825532 44843 net.cpp:165] Memory required for data: 7931633760
I0712 18:16:34.825544 44843 layer_factory.hpp:76] Creating layer relu72
I0712 18:16:34.825556 44843 net.cpp:106] Creating Layer relu72
I0712 18:16:34.825567 44843 net.cpp:454] relu72 <- conv72
I0712 18:16:34.825577 44843 net.cpp:397] relu72 -> conv72 (in-place)
I0712 18:16:34.825901 44843 net.cpp:150] Setting up relu72
I0712 18:16:34.825922 44843 net.cpp:157] Top shape: 8 96 29 29 (645888)
I0712 18:16:34.825930 44843 net.cpp:165] Memory required for data: 7934217312
I0712 18:16:34.825939 44843 layer_factory.hpp:76] Creating layer pool6
I0712 18:16:34.825954 44843 net.cpp:106] Creating Layer pool6
I0712 18:16:34.825963 44843 net.cpp:454] pool6 <- conv72
I0712 18:16:34.825973 44843 net.cpp:411] pool6 -> pool6
I0712 18:16:34.826184 44843 net.cpp:150] Setting up pool6
I0712 18:16:34.826201 44843 net.cpp:157] Top shape: 8 96 15 15 (172800)
I0712 18:16:34.826210 44843 net.cpp:165] Memory required for data: 7934908512
I0712 18:16:34.826217 44843 layer_factory.hpp:76] Creating layer conv81
I0712 18:16:34.826232 44843 net.cpp:106] Creating Layer conv81
I0712 18:16:34.826241 44843 net.cpp:454] conv81 <- pool6
I0712 18:16:34.826252 44843 net.cpp:411] conv81 -> conv81
I0712 18:16:34.828222 44843 net.cpp:150] Setting up conv81
I0712 18:16:34.828251 44843 net.cpp:157] Top shape: 8 128 15 15 (230400)
I0712 18:16:34.828263 44843 net.cpp:165] Memory required for data: 7935830112
I0712 18:16:34.828275 44843 layer_factory.hpp:76] Creating layer relu81
I0712 18:16:34.828289 44843 net.cpp:106] Creating Layer relu81
I0712 18:16:34.828300 44843 net.cpp:454] relu81 <- conv81
I0712 18:16:34.828310 44843 net.cpp:397] relu81 -> conv81 (in-place)
I0712 18:16:34.828639 44843 net.cpp:150] Setting up relu81
I0712 18:16:34.828661 44843 net.cpp:157] Top shape: 8 128 15 15 (230400)
I0712 18:16:34.828675 44843 net.cpp:165] Memory required for data: 7936751712
I0712 18:16:34.828685 44843 layer_factory.hpp:76] Creating layer conv82
I0712 18:16:34.828698 44843 net.cpp:106] Creating Layer conv82
I0712 18:16:34.828707 44843 net.cpp:454] conv82 <- conv81
I0712 18:16:34.828722 44843 net.cpp:411] conv82 -> conv82
I0712 18:16:34.831344 44843 net.cpp:150] Setting up conv82
I0712 18:16:34.831372 44843 net.cpp:157] Top shape: 8 128 15 15 (230400)
I0712 18:16:34.831384 44843 net.cpp:165] Memory required for data: 7937673312
I0712 18:16:34.831403 44843 layer_factory.hpp:76] Creating layer relu82
I0712 18:16:34.831420 44843 net.cpp:106] Creating Layer relu82
I0712 18:16:34.831429 44843 net.cpp:454] relu82 <- conv82
I0712 18:16:34.831439 44843 net.cpp:397] relu82 -> conv82 (in-place)
I0712 18:16:34.831774 44843 net.cpp:150] Setting up relu82
I0712 18:16:34.831794 44843 net.cpp:157] Top shape: 8 128 15 15 (230400)
I0712 18:16:34.831806 44843 net.cpp:165] Memory required for data: 7938594912
I0712 18:16:34.831815 44843 layer_factory.hpp:76] Creating layer pool7
I0712 18:16:34.831828 44843 net.cpp:106] Creating Layer pool7
I0712 18:16:34.831838 44843 net.cpp:454] pool7 <- conv82
I0712 18:16:34.831848 44843 net.cpp:411] pool7 -> pool7
I0712 18:16:34.832043 44843 net.cpp:150] Setting up pool7
I0712 18:16:34.832061 44843 net.cpp:157] Top shape: 8 128 8 8 (65536)
I0712 18:16:34.832072 44843 net.cpp:165] Memory required for data: 7938857056
I0712 18:16:34.832080 44843 layer_factory.hpp:76] Creating layer drop0
I0712 18:16:34.832099 44843 net.cpp:106] Creating Layer drop0
I0712 18:16:34.832109 44843 net.cpp:454] drop0 <- pool7
I0712 18:16:34.832118 44843 net.cpp:397] drop0 -> pool7 (in-place)
I0712 18:16:34.832152 44843 net.cpp:150] Setting up drop0
I0712 18:16:34.832165 44843 net.cpp:157] Top shape: 8 128 8 8 (65536)
I0712 18:16:34.832172 44843 net.cpp:165] Memory required for data: 7939119200
I0712 18:16:34.832180 44843 layer_factory.hpp:76] Creating layer conv91
I0712 18:16:34.832198 44843 net.cpp:106] Creating Layer conv91
I0712 18:16:34.832206 44843 net.cpp:454] conv91 <- pool7
I0712 18:16:34.832216 44843 net.cpp:411] conv91 -> conv91
I0712 18:16:34.833492 44843 cudnn_conv_layer.cpp:194] Reallocating workspace storage: 98304
I0712 18:16:34.833526 44843 net.cpp:150] Setting up conv91
I0712 18:16:34.833541 44843 net.cpp:157] Top shape: 8 3 1 1 (24)
I0712 18:16:34.833549 44843 net.cpp:165] Memory required for data: 7939119296
I0712 18:16:34.833561 44843 layer_factory.hpp:76] Creating layer conv91_conv91_0_split
I0712 18:16:34.833573 44843 net.cpp:106] Creating Layer conv91_conv91_0_split
I0712 18:16:34.833582 44843 net.cpp:454] conv91_conv91_0_split <- conv91
I0712 18:16:34.833592 44843 net.cpp:411] conv91_conv91_0_split -> conv91_conv91_0_split_0
I0712 18:16:34.833605 44843 net.cpp:411] conv91_conv91_0_split -> conv91_conv91_0_split_1
I0712 18:16:34.833653 44843 net.cpp:150] Setting up conv91_conv91_0_split
I0712 18:16:34.833665 44843 net.cpp:157] Top shape: 8 3 1 1 (24)
I0712 18:16:34.833673 44843 net.cpp:157] Top shape: 8 3 1 1 (24)
I0712 18:16:34.833681 44843 net.cpp:165] Memory required for data: 7939119488
I0712 18:16:34.833688 44843 layer_factory.hpp:76] Creating layer accuracy
I0712 18:16:34.833703 44843 net.cpp:106] Creating Layer accuracy
I0712 18:16:34.833711 44843 net.cpp:454] accuracy <- conv91_conv91_0_split_0
I0712 18:16:34.833722 44843 net.cpp:454] accuracy <- label_data_1_split_0
I0712 18:16:34.833732 44843 net.cpp:411] accuracy -> accuracy
…
