…
I0712 18:13:05.585283 44722 solver.cpp:90] Creating training net from net file: train_val-featurelayer.prototxt
I0712 18:13:05.624107 44722 net.cpp:322] The NetState phase (0) differed from the phase (1) specified by a rule in layer data
I0712 18:13:05.624681 44722 net.cpp:49] Initializing net from parameters: 
name: "FaceNN"
state {
  phase: TRAIN
}
layer {
  name: "data"
  type: "ImageData"
  top: "data"
  top: "label"
  include {
    phase: TRAIN
  }
  transform_param {
    mirror: true
    mean_value: 104
    mean_value: 117
    mean_value: 123
  }
  image_data_param {
    source: "../lists/mitosis_train.lst"
    batch_size: 8
    shuffle: true
  }
}
layer {
  name: "conv11"
  type: "Convolution"
  bottom: "data"
  top: "conv11"
  param {
    lr_mult: 0
    decay_mult: 1
  }
  param {
    lr_mult: 0
    decay_mult: 0
  }
  convolution_param {
    num_output: 32
    pad: 1
    stride: 1
    weight_filler {
      type: "xavier"
    }
    bias_filler {
      type: "constant"
    }
    kernel_h: 3
    kernel_w: 3
  }
}
layer {
  name: "relu11"
  type: "ReLU"
  bottom: "conv11"
  top: "conv11"
}
layer {
  name: "conv12"
  type: "Convolution"
  bottom: "conv11"
  top: "conv12"
  param {
    lr_mult: 0
    decay_mult: 1
  }
  param {
    lr_mult: 0
    decay_mult: 0
  }
  convolution_param {
    num_output: 32
    pad: 1
    stride: 1
    weight_filler {
      type: "xavier"
    }
    bias_filler {
      type: "constant"
    }
    kernel_h: 3
    kernel_w: 3
  }
}
layer {
  name: "relu12"
  type: "ReLU"
  bottom: "conv12"
  top: "conv12"
}
layer {
  name: "pool1"
  type: "Pooling"
  bottom: "conv12"
  top: "pool1"
  pooling_param {
    pool: MAX
    kernel_size: 2
    stride: 2
  }
}
layer {
  name: "conv21"
  type: "Convolution"
  bottom: "pool1"
  top: "conv21"
  param {
    lr_mult: 0
    decay_mult: 1
  }
  param {
    lr_mult: 0
    decay_mult: 0
  }
  convolution_param {
    num_output: 64
    pad: 1
    stride: 1
    weight_filler {
      type: "xavier"
    }
    bias_filler {
      type: "constant"
    }
    kernel_h: 3
    kernel_w: 3
  }
}
layer {
  name: "relu21"
  type: "ReLU"
  bottom: "conv21"
  top: "conv21"
}
layer {
  name: "conv22"
  type: "Convolution"
  bottom: "conv21"
  top: "conv22"
  param {
    lr_mult: 0
    decay_mult: 1
  }
  param {
    lr_mult: 0
    decay_mult: 0
  }
  convolution_param {
    num_output: 64
    pad: 1
    stride: 1
    weight_filler {
      type: "xavier"
    }
    bias_filler {
      type: "constant"
    }
    kernel_h: 3
    kernel_w: 3
  }
}
layer {
  name: "relu22"
  type: "ReLU"
  bottom: "conv22"
  top: "conv22"
}
layer {
  name: "pool2"
  type: "Pooling"
  bottom: "conv22"
  top: "pool2"
  pooling_param {
    pool: MAX
    kernel_size: 2
    stride: 2
  }
}
layer {
  name: "conv31"
  type: "Convolution"
  bottom: "pool2"
  top: "conv31"
  param {
    lr_mult: 0
    decay_mult: 1
  }
  param {
    lr_mult: 0
    decay_mult: 0
  }
  convolution_param {
    num_output: 96
    pad: 1
    stride: 1
    weight_filler {
      type: "xavier"
    }
    bias_filler {
      type: "constant"
    }
    kernel_h: 3
    kernel_w: 3
  }
}
layer {
  name: "relu31"
  type: "ReLU"
  bottom: "conv31"
  top: "conv31"
}
layer {
  name: "conv32"
  type: "Convolution"
  bottom: "conv31"
  top: "conv32"
  param {
    lr_mult: 0
    decay_mult: 1
  }
  param {
    lr_mult: 0
    decay_mult: 0
  }
  convolution_param {
    num_output: 96
    pad: 1
    stride: 1
    weight_filler {
      type: "xavier"
    }
    bias_filler {
      type: "constant"
    }
    kernel_h: 3
    kernel_w: 3
  }
}
layer {
  name: "relu32"
  type: "ReLU"
  bottom: "conv32"
  top: "conv32"
}
layer {
  name: "pool3"
  type: "Pooling"
  bottom: "conv32"
  top: "pool3"
  pooling_param {
    pool: MAX
    kernel_size: 2
    stride: 2
  }
}
layer {
  name: "conv41"
  type: "Convolution"
  bottom: "pool3"
  top: "conv41"
  param {
    lr_mult: 0
    decay_mult: 1
  }
  param {
    lr_mult: 0
    decay_mult: 0
  }
  convolution_param {
    num_output: 128
    pad: 1
    stride: 1
    weight_filler {
      type: "xavier"
    }
    bias_filler {
      type: "constant"
    }
    kernel_h: 3
    kernel_w: 3
  }
}
layer {
  name: "relu41"
  type: "ReLU"
  bottom: "conv41"
  top: "conv41"
}
layer {
  name: "conv42"
  type: "Convolution"
  bottom: "conv41"
  top: "conv42"
  param {
    lr_mult: 0
    decay_mult: 1
  }
  param {
    lr_mult: 0
    decay_mult: 0
  }
  convolution_param {
    num_output: 128
    pad: 1
    stride: 1
    weight_filler {
      type: "xavier"
    }
    bias_filler {
      type: "constant"
    }
    kernel_h: 3
    kernel_w: 3
  }
}
layer {
  name: "relu42"
  type: "ReLU"
  bottom: "conv42"
  top: "conv42"
}
layer {
  name: "pool4"
  type: "Pooling"
  bottom: "conv42"
  top: "pool4"
  pooling_param {
    pool: MAX
    kernel_size: 2
    stride: 2
  }
}
layer {
  name: "conv51"
  type: "Convolution"
  bottom: "pool4"
  top: "conv51"
  param {
    lr_mult: 0
    decay_mult: 1
  }
  param {
    lr_mult: 0
    decay_mult: 0
  }
  convolution_param {
    num_output: 256
    pad: 1
    stride: 1
    weight_filler {
      type: "xavier"
    }
    bias_filler {
      type: "constant"
    }
    kernel_h: 3
    kernel_w: 3
  }
}
layer {
  name: "relu51"
  type: "ReLU"
  bottom: "conv51"
  top: "conv51"
}
layer {
  name: "conv52"
  type: "Convolution"
  bottom: "conv51"
  top: "conv52"
  param {
    lr_mult: 0
    decay_mult: 1
  }
  param {
    lr_mult: 0
    decay_mult: 0
  }
  convolution_param {
    num_output: 256
    pad: 1
    stride: 1
    weight_filler {
      type: "xavier"
    }
    bias_filler {
      type: "constant"
    }
    kernel_h: 3
    kernel_w: 3
  }
}
layer {
  name: "relu52"
  type: "ReLU"
  bottom: "conv52"
  top: "conv52"
}
layer {
  name: "conv53"
  type: "Convolution"
  bottom: "conv52"
  top: "conv53"
  param {
    lr_mult: 0
    decay_mult: 1
  }
  param {
    lr_mult: 0
    decay_mult: 0
  }
  convolution_param {
    num_output: 256
    stride: 1
    weight_filler {
      type: "xavier"
    }
    bias_filler {
      type: "constant"
    }
    kernel_h: 7
    kernel_w: 7
  }
}
layer {
  name: "relu53"
  type: "ReLU"
  bottom: "conv53"
  top: "conv53"
}
layer {
  name: "conv61"
  type: "Convolution"
  bottom: "conv53"
  top: "conv61"
  param {
    lr_mult: 1
    decay_mult: 1
  }
  param {
    lr_mult: 2
    decay_mult: 0
  }
  convolution_param {
    num_output: 64
    pad: 1
    stride: 1
    weight_filler {
      type: "xavier"
    }
    bias_filler {
      type: "constant"
    }
    kernel_h: 3
    kernel_w: 3
  }
}
layer {
  name: "relu61"
  type: "ReLU"
  bottom: "conv61"
  top: "conv61"
}
layer {
  name: "conv62"
  type: "Convolution"
  bottom: "conv61"
  top: "conv62"
  param {
    lr_mult: 1
    decay_mult: 1
  }
  param {
    lr_mult: 2
    decay_mult: 0
  }
  convolution_param {
    num_output: 64
    pad: 1
    stride: 1
    weight_filler {
      type: "xavier"
    }
    bias_filler {
      type: "constant"
    }
    kernel_h: 3
    kernel_w: 3
  }
}
layer {
  name: "relu62"
  type: "ReLU"
  bottom: "conv62"
  top: "conv62"
}
layer {
  name: "conv63"
  type: "Convolution"
  bottom: "conv62"
  top: "conv63"
  param {
    lr_mult: 1
    decay_mult: 1
  }
  param {
    lr_mult: 2
    decay_mult: 0
  }
  convolution_param {
    num_output: 64
    pad: 1
    stride: 1
    weight_filler {
      type: "xavier"
    }
    bias_filler {
      type: "constant"
    }
    kernel_h: 3
    kernel_w: 3
  }
}
layer {
  name: "relu63"
  type: "ReLU"
  bottom: "conv63"
  top: "conv63"
}
layer {
  name: "pool5"
  type: "Pooling"
  bottom: "conv63"
  top: "pool5"
  pooling_param {
    pool: MAX
    kernel_size: 2
    stride: 2
  }
}
layer {
  name: "conv71"
  type: "Convolution"
  bottom: "pool5"
  top: "conv71"
  param {
    lr_mult: 1
    decay_mult: 1
  }
  param {
    lr_mult: 2
    decay_mult: 0
  }
  convolution_param {
    num_output: 128
    pad: 1
    stride: 1
    weight_filler {
      type: "xavier"
    }
    bias_filler {
      type: "constant"
    }
    kernel_h: 3
    kernel_w: 3
  }
}
layer {
  name: "relu71"
  type: "ReLU"
  bottom: "conv71"
  top: "conv71"
}
layer {
  name: "conv72"
  type: "Convolution"
  bottom: "conv71"
  top: "conv72"
  param {
    lr_mult: 1
    decay_mult: 1
  }
  param {
    lr_mult: 2
    decay_mult: 0
  }
  convolution_param {
    num_output: 128
    pad: 1
    stride: 1
    weight_filler {
      type: "xavier"
    }
    bias_filler {
      type: "constant"
    }
    kernel_h: 3
    kernel_w: 3
  }
}
layer {
  name: "relu72"
  type: "ReLU"
  bottom: "conv72"
  top: "conv72"
}
layer {
  name: "conv73"
  type: "Convolution"
  bottom: "conv72"
  top: "conv73"
  param {
    lr_mult: 1
    decay_mult: 1
  }
  param {
    lr_mult: 2
    decay_mult: 0
  }
  convolution_param {
    num_output: 128
    pad: 1
    stride: 1
    weight_filler {
      type: "xavier"
    }
    bias_filler {
      type: "constant"
    }
    kernel_h: 3
    kernel_w: 3
  }
}
layer {
  name: "relu73"
  type: "ReLU"
  bottom: "conv73"
  top: "conv73"
}
layer {
  name: "pool6"
  type: "Pooling"
  bottom: "conv73"
  top: "pool6"
  pooling_param {
    pool: AVE
    kernel_size: 2
    stride: 2
  }
}
layer {
  name: "drop0"
  type: "Dropout"
  bottom: "pool6"
  top: "pool6"
  dropout_param {
    dropout_ratio: 0.4
  }
}
layer {
  name: "conv81"
  type: "Convolution"
  bottom: "pool6"
  top: "conv81"
  param {
    lr_mult: 1
    decay_mult: 1
  }
  param {
    lr_mult: 2
    decay_mult: 0
  }
  convolution_param {
    num_output: 3
    stride: 1
    weight_filler {
      type: "xavier"
    }
    bias_filler {
      type: "constant"
    }
    kernel_h: 15
    kernel_w: 15
  }
}
layer {
  name: "accuracy"
  type: "Accuracy"
  bottom: "conv81"
  bottom: "label"
  top: "accuracy"
}
layer {
  name: "loss"
  type: "SoftmaxWithLoss"
  bottom: "conv81"
  bottom: "label"
  top: "loss"
}
I0712 18:13:05.625349 44722 layer_factory.hpp:76] Creating layer data
I0712 18:13:05.627270 44722 net.cpp:106] Creating Layer data
I0712 18:13:05.627293 44722 net.cpp:411] data -> data
I0712 18:13:05.627346 44722 net.cpp:411] data -> label
I0712 18:13:05.643323 44722 image_data_layer.cpp:36] Opening file ../lists/mitosis_train.lst
I0712 18:13:05.688505 44722 image_data_layer.cpp:46] Shuffling data
I0712 18:13:05.690251 44722 image_data_layer.cpp:51] A total of 23544 images.
I0712 18:13:05.805411 44722 image_data_layer.cpp:78] output data size: 8,3,1000,1000
I0712 18:13:06.150364 44722 net.cpp:150] Setting up data
I0712 18:13:06.150421 44722 net.cpp:157] Top shape: 8 3 1000 1000 (24000000)
I0712 18:13:06.150435 44722 net.cpp:157] Top shape: 8 (8)
I0712 18:13:06.150444 44722 net.cpp:165] Memory required for data: 96000032
I0712 18:13:06.150460 44722 layer_factory.hpp:76] Creating layer label_data_1_split
I0712 18:13:06.150483 44722 net.cpp:106] Creating Layer label_data_1_split
I0712 18:13:06.150496 44722 net.cpp:454] label_data_1_split <- label
I0712 18:13:06.150519 44722 net.cpp:411] label_data_1_split -> label_data_1_split_0
I0712 18:13:06.150537 44722 net.cpp:411] label_data_1_split -> label_data_1_split_1
I0712 18:13:06.150602 44722 net.cpp:150] Setting up label_data_1_split
I0712 18:13:06.150615 44722 net.cpp:157] Top shape: 8 (8)
I0712 18:13:06.150624 44722 net.cpp:157] Top shape: 8 (8)
I0712 18:13:06.150638 44722 net.cpp:165] Memory required for data: 96000096
I0712 18:13:06.150647 44722 layer_factory.hpp:76] Creating layer conv11
I0712 18:13:06.150676 44722 net.cpp:106] Creating Layer conv11
I0712 18:13:06.150684 44722 net.cpp:454] conv11 <- data
I0712 18:13:06.150696 44722 net.cpp:411] conv11 -> conv11
I0712 18:13:06.400552 44722 net.cpp:150] Setting up conv11
I0712 18:13:06.400635 44722 net.cpp:157] Top shape: 8 32 1000 1000 (256000000)
I0712 18:13:06.400651 44722 net.cpp:165] Memory required for data: 1120000096
I0712 18:13:06.400701 44722 layer_factory.hpp:76] Creating layer relu11
I0712 18:13:06.400774 44722 net.cpp:106] Creating Layer relu11
I0712 18:13:06.400792 44722 net.cpp:454] relu11 <- conv11
I0712 18:13:06.400812 44722 net.cpp:397] relu11 -> conv11 (in-place)
I0712 18:13:06.401139 44722 net.cpp:150] Setting up relu11
I0712 18:13:06.401165 44722 net.cpp:157] Top shape: 8 32 1000 1000 (256000000)
I0712 18:13:06.401178 44722 net.cpp:165] Memory required for data: 2144000096
I0712 18:13:06.401191 44722 layer_factory.hpp:76] Creating layer conv12
I0712 18:13:06.401227 44722 net.cpp:106] Creating Layer conv12
I0712 18:13:06.401242 44722 net.cpp:454] conv12 <- conv11
I0712 18:13:06.401262 44722 net.cpp:411] conv12 -> conv12
I0712 18:13:06.412148 44722 net.cpp:150] Setting up conv12
I0712 18:13:06.412195 44722 net.cpp:157] Top shape: 8 32 1000 1000 (256000000)
I0712 18:13:06.412206 44722 net.cpp:165] Memory required for data: 3168000096
I0712 18:13:06.412228 44722 layer_factory.hpp:76] Creating layer relu12
I0712 18:13:06.412247 44722 net.cpp:106] Creating Layer relu12
I0712 18:13:06.412256 44722 net.cpp:454] relu12 <- conv12
I0712 18:13:06.412271 44722 net.cpp:397] relu12 -> conv12 (in-place)
I0712 18:13:06.412695 44722 net.cpp:150] Setting up relu12
I0712 18:13:06.412717 44722 net.cpp:157] Top shape: 8 32 1000 1000 (256000000)
I0712 18:13:06.412727 44722 net.cpp:165] Memory required for data: 4192000096
I0712 18:13:06.412740 44722 layer_factory.hpp:76] Creating layer pool1
I0712 18:13:06.412761 44722 net.cpp:106] Creating Layer pool1
I0712 18:13:06.412770 44722 net.cpp:454] pool1 <- conv12
I0712 18:13:06.412781 44722 net.cpp:411] pool1 -> pool1
I0712 18:13:06.415148 44722 net.cpp:150] Setting up pool1
I0712 18:13:06.415166 44722 net.cpp:157] Top shape: 8 32 500 500 (64000000)
I0712 18:13:06.415175 44722 net.cpp:165] Memory required for data: 4448000096
I0712 18:13:06.415184 44722 layer_factory.hpp:76] Creating layer conv21
I0712 18:13:06.415205 44722 net.cpp:106] Creating Layer conv21
I0712 18:13:06.415215 44722 net.cpp:454] conv21 <- pool1
I0712 18:13:06.415225 44722 net.cpp:411] conv21 -> conv21
I0712 18:13:06.421195 44722 net.cpp:150] Setting up conv21
I0712 18:13:06.421228 44722 net.cpp:157] Top shape: 8 64 500 500 (128000000)
I0712 18:13:06.421238 44722 net.cpp:165] Memory required for data: 4960000096
I0712 18:13:06.421260 44722 layer_factory.hpp:76] Creating layer relu21
I0712 18:13:06.421277 44722 net.cpp:106] Creating Layer relu21
I0712 18:13:06.421285 44722 net.cpp:454] relu21 <- conv21
I0712 18:13:06.421299 44722 net.cpp:397] relu21 -> conv21 (in-place)
I0712 18:13:06.422742 44722 net.cpp:150] Setting up relu21
I0712 18:13:06.422763 44722 net.cpp:157] Top shape: 8 64 500 500 (128000000)
I0712 18:13:06.422772 44722 net.cpp:165] Memory required for data: 5472000096
I0712 18:13:06.422781 44722 layer_factory.hpp:76] Creating layer conv22
I0712 18:13:06.422804 44722 net.cpp:106] Creating Layer conv22
I0712 18:13:06.422813 44722 net.cpp:454] conv22 <- conv21
I0712 18:13:06.422827 44722 net.cpp:411] conv22 -> conv22
I0712 18:13:06.430841 44722 cudnn_conv_layer.cpp:194] Reallocating workspace storage: 6912
I0712 18:13:06.431063 44722 net.cpp:150] Setting up conv22
I0712 18:13:06.431084 44722 net.cpp:157] Top shape: 8 64 500 500 (128000000)
I0712 18:13:06.431093 44722 net.cpp:165] Memory required for data: 5984000096
I0712 18:13:06.431107 44722 layer_factory.hpp:76] Creating layer relu22
I0712 18:13:06.431123 44722 net.cpp:106] Creating Layer relu22
I0712 18:13:06.431133 44722 net.cpp:454] relu22 <- conv22
I0712 18:13:06.431143 44722 net.cpp:397] relu22 -> conv22 (in-place)
I0712 18:13:06.432015 44722 net.cpp:150] Setting up relu22
I0712 18:13:06.432035 44722 net.cpp:157] Top shape: 8 64 500 500 (128000000)
I0712 18:13:06.432044 44722 net.cpp:165] Memory required for data: 6496000096
I0712 18:13:06.432054 44722 layer_factory.hpp:76] Creating layer pool2
I0712 18:13:06.432070 44722 net.cpp:106] Creating Layer pool2
I0712 18:13:06.432078 44722 net.cpp:454] pool2 <- conv22
I0712 18:13:06.432091 44722 net.cpp:411] pool2 -> pool2
I0712 18:13:06.434237 44722 net.cpp:150] Setting up pool2
I0712 18:13:06.434280 44722 net.cpp:157] Top shape: 8 64 250 250 (32000000)
I0712 18:13:06.434290 44722 net.cpp:165] Memory required for data: 6624000096
I0712 18:13:06.434299 44722 layer_factory.hpp:76] Creating layer conv31
I0712 18:13:06.434317 44722 net.cpp:106] Creating Layer conv31
I0712 18:13:06.434326 44722 net.cpp:454] conv31 <- pool2
I0712 18:13:06.434340 44722 net.cpp:411] conv31 -> conv31
I0712 18:13:06.439261 44722 cudnn_conv_layer.cpp:194] Reallocating workspace storage: 6912
I0712 18:13:06.439301 44722 net.cpp:150] Setting up conv31
I0712 18:13:06.439313 44722 net.cpp:157] Top shape: 8 96 250 250 (48000000)
I0712 18:13:06.439322 44722 net.cpp:165] Memory required for data: 6816000096
I0712 18:13:06.439343 44722 layer_factory.hpp:76] Creating layer relu31
I0712 18:13:06.439365 44722 net.cpp:106] Creating Layer relu31
I0712 18:13:06.439374 44722 net.cpp:454] relu31 <- conv31
I0712 18:13:06.439384 44722 net.cpp:397] relu31 -> conv31 (in-place)
I0712 18:13:06.440242 44722 net.cpp:150] Setting up relu31
I0712 18:13:06.440263 44722 net.cpp:157] Top shape: 8 96 250 250 (48000000)
I0712 18:13:06.440271 44722 net.cpp:165] Memory required for data: 7008000096
I0712 18:13:06.440280 44722 layer_factory.hpp:76] Creating layer conv32
I0712 18:13:06.440297 44722 net.cpp:106] Creating Layer conv32
I0712 18:13:06.440306 44722 net.cpp:454] conv32 <- conv31
I0712 18:13:06.440320 44722 net.cpp:411] conv32 -> conv32
I0712 18:13:06.446158 44722 cudnn_conv_layer.cpp:194] Reallocating workspace storage: 10368
I0712 18:13:06.446205 44722 net.cpp:150] Setting up conv32
I0712 18:13:06.446220 44722 net.cpp:157] Top shape: 8 96 250 250 (48000000)
I0712 18:13:06.446229 44722 net.cpp:165] Memory required for data: 7200000096
I0712 18:13:06.446243 44722 layer_factory.hpp:76] Creating layer relu32
I0712 18:13:06.446256 44722 net.cpp:106] Creating Layer relu32
I0712 18:13:06.446267 44722 net.cpp:454] relu32 <- conv32
I0712 18:13:06.446279 44722 net.cpp:397] relu32 -> conv32 (in-place)
I0712 18:13:06.447242 44722 net.cpp:150] Setting up relu32
I0712 18:13:06.447259 44722 net.cpp:157] Top shape: 8 96 250 250 (48000000)
I0712 18:13:06.447268 44722 net.cpp:165] Memory required for data: 7392000096
I0712 18:13:06.447276 44722 layer_factory.hpp:76] Creating layer pool3
I0712 18:13:06.447304 44722 net.cpp:106] Creating Layer pool3
I0712 18:13:06.447314 44722 net.cpp:454] pool3 <- conv32
I0712 18:13:06.447329 44722 net.cpp:411] pool3 -> pool3
I0712 18:13:06.449971 44722 net.cpp:150] Setting up pool3
I0712 18:13:06.449995 44722 net.cpp:157] Top shape: 8 96 125 125 (12000000)
I0712 18:13:06.450004 44722 net.cpp:165] Memory required for data: 7440000096
I0712 18:13:06.450017 44722 layer_factory.hpp:76] Creating layer conv41
I0712 18:13:06.450037 44722 net.cpp:106] Creating Layer conv41
I0712 18:13:06.450045 44722 net.cpp:454] conv41 <- pool3
I0712 18:13:06.450057 44722 net.cpp:411] conv41 -> conv41
I0712 18:13:06.454695 44722 cudnn_conv_layer.cpp:194] Reallocating workspace storage: 10368
I0712 18:13:06.454749 44722 net.cpp:150] Setting up conv41
I0712 18:13:06.454764 44722 net.cpp:157] Top shape: 8 128 125 125 (16000000)
I0712 18:13:06.454774 44722 net.cpp:165] Memory required for data: 7504000096
I0712 18:13:06.454789 44722 layer_factory.hpp:76] Creating layer relu41
I0712 18:13:06.454807 44722 net.cpp:106] Creating Layer relu41
I0712 18:13:06.454816 44722 net.cpp:454] relu41 <- conv41
I0712 18:13:06.454828 44722 net.cpp:397] relu41 -> conv41 (in-place)
I0712 18:13:06.456930 44722 net.cpp:150] Setting up relu41
I0712 18:13:06.456955 44722 net.cpp:157] Top shape: 8 128 125 125 (16000000)
I0712 18:13:06.456964 44722 net.cpp:165] Memory required for data: 7568000096
I0712 18:13:06.456974 44722 layer_factory.hpp:76] Creating layer conv42
I0712 18:13:06.456993 44722 net.cpp:106] Creating Layer conv42
I0712 18:13:06.457002 44722 net.cpp:454] conv42 <- conv41
I0712 18:13:06.457018 44722 net.cpp:411] conv42 -> conv42
I0712 18:13:06.463937 44722 cudnn_conv_layer.cpp:194] Reallocating workspace storage: 13824
I0712 18:13:06.463996 44722 net.cpp:150] Setting up conv42
I0712 18:13:06.464049 44722 net.cpp:157] Top shape: 8 128 125 125 (16000000)
I0712 18:13:06.464061 44722 net.cpp:165] Memory required for data: 7632000096
I0712 18:13:06.464076 44722 layer_factory.hpp:76] Creating layer relu42
I0712 18:13:06.464094 44722 net.cpp:106] Creating Layer relu42
I0712 18:13:06.464104 44722 net.cpp:454] relu42 <- conv42
I0712 18:13:06.464117 44722 net.cpp:397] relu42 -> conv42 (in-place)
I0712 18:13:06.466370 44722 net.cpp:150] Setting up relu42
I0712 18:13:06.466398 44722 net.cpp:157] Top shape: 8 128 125 125 (16000000)
I0712 18:13:06.466408 44722 net.cpp:165] Memory required for data: 7696000096
I0712 18:13:06.466418 44722 layer_factory.hpp:76] Creating layer pool4
I0712 18:13:06.466445 44722 net.cpp:106] Creating Layer pool4
I0712 18:13:06.466455 44722 net.cpp:454] pool4 <- conv42
I0712 18:13:06.466467 44722 net.cpp:411] pool4 -> pool4
I0712 18:13:06.469018 44722 net.cpp:150] Setting up pool4
I0712 18:13:06.469050 44722 net.cpp:157] Top shape: 8 128 63 63 (4064256)
I0712 18:13:06.469059 44722 net.cpp:165] Memory required for data: 7712257120
I0712 18:13:06.469069 44722 layer_factory.hpp:76] Creating layer conv51
I0712 18:13:06.469104 44722 net.cpp:106] Creating Layer conv51
I0712 18:13:06.469115 44722 net.cpp:454] conv51 <- pool4
I0712 18:13:06.469131 44722 net.cpp:411] conv51 -> conv51
I0712 18:13:06.476869 44722 cudnn_conv_layer.cpp:194] Reallocating workspace storage: 13824
I0712 18:13:06.476924 44722 net.cpp:150] Setting up conv51
I0712 18:13:06.476939 44722 net.cpp:157] Top shape: 8 256 63 63 (8128512)
I0712 18:13:06.476948 44722 net.cpp:165] Memory required for data: 7744771168
I0712 18:13:06.476971 44722 layer_factory.hpp:76] Creating layer relu51
I0712 18:13:06.476987 44722 net.cpp:106] Creating Layer relu51
I0712 18:13:06.477000 44722 net.cpp:454] relu51 <- conv51
I0712 18:13:06.477011 44722 net.cpp:397] relu51 -> conv51 (in-place)
I0712 18:13:06.478423 44722 net.cpp:150] Setting up relu51
I0712 18:13:06.478452 44722 net.cpp:157] Top shape: 8 256 63 63 (8128512)
I0712 18:13:06.478461 44722 net.cpp:165] Memory required for data: 7777285216
I0712 18:13:06.478471 44722 layer_factory.hpp:76] Creating layer conv52
I0712 18:13:06.478488 44722 net.cpp:106] Creating Layer conv52
I0712 18:13:06.478497 44722 net.cpp:454] conv52 <- conv51
I0712 18:13:06.478508 44722 net.cpp:411] conv52 -> conv52
I0712 18:13:06.487414 44722 cudnn_conv_layer.cpp:194] Reallocating workspace storage: 27648
I0712 18:13:06.487463 44722 net.cpp:150] Setting up conv52
I0712 18:13:06.487478 44722 net.cpp:157] Top shape: 8 256 63 63 (8128512)
I0712 18:13:06.487488 44722 net.cpp:165] Memory required for data: 7809799264
I0712 18:13:06.487506 44722 layer_factory.hpp:76] Creating layer relu52
I0712 18:13:06.487520 44722 net.cpp:106] Creating Layer relu52
I0712 18:13:06.487530 44722 net.cpp:454] relu52 <- conv52
I0712 18:13:06.487546 44722 net.cpp:397] relu52 -> conv52 (in-place)
I0712 18:13:06.488895 44722 net.cpp:150] Setting up relu52
I0712 18:13:06.488927 44722 net.cpp:157] Top shape: 8 256 63 63 (8128512)
I0712 18:13:06.488937 44722 net.cpp:165] Memory required for data: 7842313312
I0712 18:13:06.488945 44722 layer_factory.hpp:76] Creating layer conv53
I0712 18:13:06.488965 44722 net.cpp:106] Creating Layer conv53
I0712 18:13:06.488976 44722 net.cpp:454] conv53 <- conv52
I0712 18:13:06.488989 44722 net.cpp:411] conv53 -> conv53
I0712 18:13:06.530565 44722 cudnn_conv_layer.cpp:194] Reallocating workspace storage: 150528
I0712 18:13:06.530824 44722 net.cpp:150] Setting up conv53
I0712 18:13:06.530851 44722 net.cpp:157] Top shape: 8 256 57 57 (6653952)
I0712 18:13:06.530863 44722 net.cpp:165] Memory required for data: 7868929120
I0712 18:13:06.530877 44722 layer_factory.hpp:76] Creating layer relu53
I0712 18:13:06.530894 44722 net.cpp:106] Creating Layer relu53
I0712 18:13:06.530905 44722 net.cpp:454] relu53 <- conv53
I0712 18:13:06.530918 44722 net.cpp:397] relu53 -> conv53 (in-place)
I0712 18:13:06.533102 44722 net.cpp:150] Setting up relu53
I0712 18:13:06.533123 44722 net.cpp:157] Top shape: 8 256 57 57 (6653952)
I0712 18:13:06.533159 44722 net.cpp:165] Memory required for data: 7895544928
I0712 18:13:06.533169 44722 layer_factory.hpp:76] Creating layer conv61
I0712 18:13:06.533195 44722 net.cpp:106] Creating Layer conv61
I0712 18:13:06.533205 44722 net.cpp:454] conv61 <- conv53
I0712 18:13:06.533216 44722 net.cpp:411] conv61 -> conv61
I0712 18:13:06.540241 44722 cudnn_conv_layer.cpp:194] Reallocating workspace storage: 27648
I0712 18:13:06.540280 44722 net.cpp:150] Setting up conv61
I0712 18:13:06.540294 44722 net.cpp:157] Top shape: 8 64 57 57 (1663488)
I0712 18:13:06.540303 44722 net.cpp:165] Memory required for data: 7902198880
I0712 18:13:06.540320 44722 layer_factory.hpp:76] Creating layer relu61
I0712 18:13:06.540333 44722 net.cpp:106] Creating Layer relu61
I0712 18:13:06.540343 44722 net.cpp:454] relu61 <- conv61
I0712 18:13:06.540356 44722 net.cpp:397] relu61 -> conv61 (in-place)
I0712 18:13:06.542243 44722 net.cpp:150] Setting up relu61
I0712 18:13:06.542260 44722 net.cpp:157] Top shape: 8 64 57 57 (1663488)
I0712 18:13:06.542269 44722 net.cpp:165] Memory required for data: 7908852832
I0712 18:13:06.542278 44722 layer_factory.hpp:76] Creating layer conv62
I0712 18:13:06.542294 44722 net.cpp:106] Creating Layer conv62
I0712 18:13:06.542304 44722 net.cpp:454] conv62 <- conv61
I0712 18:13:06.542317 44722 net.cpp:411] conv62 -> conv62
I0712 18:13:06.546486 44722 net.cpp:150] Setting up conv62
I0712 18:13:06.546511 44722 net.cpp:157] Top shape: 8 64 57 57 (1663488)
I0712 18:13:06.546521 44722 net.cpp:165] Memory required for data: 7915506784
I0712 18:13:06.546533 44722 layer_factory.hpp:76] Creating layer relu62
I0712 18:13:06.546545 44722 net.cpp:106] Creating Layer relu62
I0712 18:13:06.546555 44722 net.cpp:454] relu62 <- conv62
I0712 18:13:06.546567 44722 net.cpp:397] relu62 -> conv62 (in-place)
I0712 18:13:06.547848 44722 net.cpp:150] Setting up relu62
I0712 18:13:06.547869 44722 net.cpp:157] Top shape: 8 64 57 57 (1663488)
I0712 18:13:06.547878 44722 net.cpp:165] Memory required for data: 7922160736
I0712 18:13:06.547886 44722 layer_factory.hpp:76] Creating layer conv63
I0712 18:13:06.547914 44722 net.cpp:106] Creating Layer conv63
I0712 18:13:06.547924 44722 net.cpp:454] conv63 <- conv62
I0712 18:13:06.547938 44722 net.cpp:411] conv63 -> conv63
I0712 18:13:06.553125 44722 net.cpp:150] Setting up conv63
I0712 18:13:06.553158 44722 net.cpp:157] Top shape: 8 64 57 57 (1663488)
I0712 18:13:06.553170 44722 net.cpp:165] Memory required for data: 7928814688
I0712 18:13:06.553189 44722 layer_factory.hpp:76] Creating layer relu63
I0712 18:13:06.553203 44722 net.cpp:106] Creating Layer relu63
I0712 18:13:06.553213 44722 net.cpp:454] relu63 <- conv63
I0712 18:13:06.553223 44722 net.cpp:397] relu63 -> conv63 (in-place)
I0712 18:13:06.554177 44722 net.cpp:150] Setting up relu63
I0712 18:13:06.554198 44722 net.cpp:157] Top shape: 8 64 57 57 (1663488)
I0712 18:13:06.554206 44722 net.cpp:165] Memory required for data: 7935468640
I0712 18:13:06.554214 44722 layer_factory.hpp:76] Creating layer pool5
I0712 18:13:06.554229 44722 net.cpp:106] Creating Layer pool5
I0712 18:13:06.554237 44722 net.cpp:454] pool5 <- conv63
I0712 18:13:06.554251 44722 net.cpp:411] pool5 -> pool5
I0712 18:13:06.555565 44722 net.cpp:150] Setting up pool5
I0712 18:13:06.555588 44722 net.cpp:157] Top shape: 8 64 29 29 (430592)
I0712 18:13:06.555596 44722 net.cpp:165] Memory required for data: 7937191008
I0712 18:13:06.555605 44722 layer_factory.hpp:76] Creating layer conv71
I0712 18:13:06.555629 44722 net.cpp:106] Creating Layer conv71
I0712 18:13:06.555639 44722 net.cpp:454] conv71 <- pool5
I0712 18:13:06.555652 44722 net.cpp:411] conv71 -> conv71
I0712 18:13:06.561714 44722 cudnn_conv_layer.cpp:194] Reallocating workspace storage: 6912
I0712 18:13:06.561776 44722 net.cpp:150] Setting up conv71
I0712 18:13:06.561797 44722 net.cpp:157] Top shape: 8 128 29 29 (861184)
I0712 18:13:06.561810 44722 net.cpp:165] Memory required for data: 7940635744
I0712 18:13:06.561836 44722 layer_factory.hpp:76] Creating layer relu71
I0712 18:13:06.561856 44722 net.cpp:106] Creating Layer relu71
I0712 18:13:06.561918 44722 net.cpp:454] relu71 <- conv71
I0712 18:13:06.561941 44722 net.cpp:397] relu71 -> conv71 (in-place)
I0712 18:13:06.562901 44722 net.cpp:150] Setting up relu71
I0712 18:13:06.562929 44722 net.cpp:157] Top shape: 8 128 29 29 (861184)
I0712 18:13:06.562943 44722 net.cpp:165] Memory required for data: 7944080480
I0712 18:13:06.562963 44722 layer_factory.hpp:76] Creating layer conv72
I0712 18:13:06.562990 44722 net.cpp:106] Creating Layer conv72
I0712 18:13:06.563004 44722 net.cpp:454] conv72 <- conv71
I0712 18:13:06.563025 44722 net.cpp:411] conv72 -> conv72
I0712 18:13:06.567880 44722 cudnn_conv_layer.cpp:194] Reallocating workspace storage: 13824
I0712 18:13:06.567953 44722 net.cpp:150] Setting up conv72
I0712 18:13:06.567975 44722 net.cpp:157] Top shape: 8 128 29 29 (861184)
I0712 18:13:06.567988 44722 net.cpp:165] Memory required for data: 7947525216
I0712 18:13:06.568007 44722 layer_factory.hpp:76] Creating layer relu72
I0712 18:13:06.568029 44722 net.cpp:106] Creating Layer relu72
I0712 18:13:06.568056 44722 net.cpp:454] relu72 <- conv72
I0712 18:13:06.568079 44722 net.cpp:397] relu72 -> conv72 (in-place)
I0712 18:13:06.568300 44722 net.cpp:150] Setting up relu72
I0712 18:13:06.568311 44722 net.cpp:157] Top shape: 8 128 29 29 (861184)
I0712 18:13:06.568316 44722 net.cpp:165] Memory required for data: 7950969952
I0712 18:13:06.568321 44722 layer_factory.hpp:76] Creating layer conv73
I0712 18:13:06.568336 44722 net.cpp:106] Creating Layer conv73
I0712 18:13:06.568341 44722 net.cpp:454] conv73 <- conv72
I0712 18:13:06.568349 44722 net.cpp:411] conv73 -> conv73
I0712 18:13:06.571694 44722 cudnn_conv_layer.cpp:194] Reallocating workspace storage: 13824
I0712 18:13:06.571732 44722 net.cpp:150] Setting up conv73
I0712 18:13:06.571748 44722 net.cpp:157] Top shape: 8 128 29 29 (861184)
I0712 18:13:06.571756 44722 net.cpp:165] Memory required for data: 7954414688
I0712 18:13:06.571780 44722 layer_factory.hpp:76] Creating layer relu73
I0712 18:13:06.571796 44722 net.cpp:106] Creating Layer relu73
I0712 18:13:06.571805 44722 net.cpp:454] relu73 <- conv73
I0712 18:13:06.571815 44722 net.cpp:397] relu73 -> conv73 (in-place)
I0712 18:13:06.572085 44722 net.cpp:150] Setting up relu73
I0712 18:13:06.572099 44722 net.cpp:157] Top shape: 8 128 29 29 (861184)
I0712 18:13:06.572106 44722 net.cpp:165] Memory required for data: 7957859424
I0712 18:13:06.572118 44722 layer_factory.hpp:76] Creating layer pool6
I0712 18:13:06.572134 44722 net.cpp:106] Creating Layer pool6
I0712 18:13:06.572141 44722 net.cpp:454] pool6 <- conv73
I0712 18:13:06.572155 44722 net.cpp:411] pool6 -> pool6
I0712 18:13:06.572619 44722 net.cpp:150] Setting up pool6
I0712 18:13:06.572635 44722 net.cpp:157] Top shape: 8 128 15 15 (230400)
I0712 18:13:06.572643 44722 net.cpp:165] Memory required for data: 7958781024
I0712 18:13:06.572651 44722 layer_factory.hpp:76] Creating layer drop0
I0712 18:13:06.572671 44722 net.cpp:106] Creating Layer drop0
I0712 18:13:06.572679 44722 net.cpp:454] drop0 <- pool6
I0712 18:13:06.572688 44722 net.cpp:397] drop0 -> pool6 (in-place)
I0712 18:13:06.572733 44722 net.cpp:150] Setting up drop0
I0712 18:13:06.572744 44722 net.cpp:157] Top shape: 8 128 15 15 (230400)
I0712 18:13:06.572751 44722 net.cpp:165] Memory required for data: 7959702624
I0712 18:13:06.572758 44722 layer_factory.hpp:76] Creating layer conv81
I0712 18:13:06.572778 44722 net.cpp:106] Creating Layer conv81
I0712 18:13:06.572785 44722 net.cpp:454] conv81 <- pool6
I0712 18:13:06.572795 44722 net.cpp:411] conv81 -> conv81
I0712 18:13:06.575248 44722 cudnn_conv_layer.cpp:194] Reallocating workspace storage: 345600
I0712 18:13:06.575508 44722 net.cpp:150] Setting up conv81
I0712 18:13:06.575525 44722 net.cpp:157] Top shape: 8 3 1 1 (24)
I0712 18:13:06.575533 44722 net.cpp:165] Memory required for data: 7959702720
I0712 18:13:06.575547 44722 layer_factory.hpp:76] Creating layer conv81_conv81_0_split
I0712 18:13:06.575564 44722 net.cpp:106] Creating Layer conv81_conv81_0_split
I0712 18:13:06.575572 44722 net.cpp:454] conv81_conv81_0_split <- conv81
I0712 18:13:06.575613 44722 net.cpp:411] conv81_conv81_0_split -> conv81_conv81_0_split_0
I0712 18:13:06.575628 44722 net.cpp:411] conv81_conv81_0_split -> conv81_conv81_0_split_1
I0712 18:13:06.575697 44722 net.cpp:150] Setting up conv81_conv81_0_split
I0712 18:13:06.575709 44722 net.cpp:157] Top shape: 8 3 1 1 (24)
I0712 18:13:06.575718 44722 net.cpp:157] Top shape: 8 3 1 1 (24)
I0712 18:13:06.575726 44722 net.cpp:165] Memory required for data: 7959702912
I0712 18:13:06.575732 44722 layer_factory.hpp:76] Creating layer accuracy
I0712 18:13:06.575752 44722 net.cpp:106] Creating Layer accuracy
I0712 18:13:06.575764 44722 net.cpp:454] accuracy <- conv81_conv81_0_split_0
I0712 18:13:06.575773 44722 net.cpp:454] accuracy <- label_data_1_split_0
I0712 18:13:06.575783 44722 net.cpp:411] accuracy -> accuracy
…
