…
I0713 09:13:13.357085 47888 solver.cpp:90] Creating training net from net file: train_val-featurelayer-3stack.prototxt
I0713 09:13:13.358151 47888 net.cpp:322] The NetState phase (0) differed from the phase (1) specified by a rule in layer data
I0713 09:13:13.358461 47888 net.cpp:49] Initializing net from parameters: 
name: "FaceNN"
state {
  phase: TRAIN
}
layer {
  name: "data"
  type: "ImageData"
  top: "data"
  top: "label"
  include {
    phase: TRAIN
  }
  transform_param {
    mirror: true
    mean_value: 104
    mean_value: 117
    mean_value: 123
  }
  image_data_param {
    source: "../lists/mitosis_train.lst"
    batch_size: 8
    shuffle: true
  }
}
layer {
  name: "conv11"
  type: "Convolution"
  bottom: "data"
  top: "conv11"
  param {
    lr_mult: 0
    decay_mult: 1
  }
  param {
    lr_mult: 0
    decay_mult: 0
  }
  convolution_param {
    num_output: 32
    pad: 1
    stride: 1
    weight_filler {
      type: "xavier"
    }
    bias_filler {
      type: "constant"
    }
    kernel_h: 3
    kernel_w: 3
  }
}
layer {
  name: "relu11"
  type: "ReLU"
  bottom: "conv11"
  top: "conv11"
}
layer {
  name: "conv12"
  type: "Convolution"
  bottom: "conv11"
  top: "conv12"
  param {
    lr_mult: 0
    decay_mult: 1
  }
  param {
    lr_mult: 0
    decay_mult: 0
  }
  convolution_param {
    num_output: 32
    pad: 1
    stride: 1
    weight_filler {
      type: "xavier"
    }
    bias_filler {
      type: "constant"
    }
    kernel_h: 3
    kernel_w: 3
  }
}
layer {
  name: "relu12"
  type: "ReLU"
  bottom: "conv12"
  top: "conv12"
}
layer {
  name: "pool1"
  type: "Pooling"
  bottom: "conv12"
  top: "pool1"
  pooling_param {
    pool: MAX
    kernel_size: 2
    stride: 2
  }
}
layer {
  name: "conv21"
  type: "Convolution"
  bottom: "pool1"
  top: "conv21"
  param {
    lr_mult: 0
    decay_mult: 1
  }
  param {
    lr_mult: 0
    decay_mult: 0
  }
  convolution_param {
    num_output: 64
    pad: 1
    stride: 1
    weight_filler {
      type: "xavier"
    }
    bias_filler {
      type: "constant"
    }
    kernel_h: 3
    kernel_w: 3
  }
}
layer {
  name: "relu21"
  type: "ReLU"
  bottom: "conv21"
  top: "conv21"
}
layer {
  name: "conv22"
  type: "Convolution"
  bottom: "conv21"
  top: "conv22"
  param {
    lr_mult: 0
    decay_mult: 1
  }
  param {
    lr_mult: 0
    decay_mult: 0
  }
  convolution_param {
    num_output: 64
    pad: 1
    stride: 1
    weight_filler {
      type: "xavier"
    }
    bias_filler {
      type: "constant"
    }
    kernel_h: 3
    kernel_w: 3
  }
}
layer {
  name: "relu22"
  type: "ReLU"
  bottom: "conv22"
  top: "conv22"
}
layer {
  name: "pool2"
  type: "Pooling"
  bottom: "conv22"
  top: "pool2"
  pooling_param {
    pool: MAX
    kernel_size: 2
    stride: 2
  }
}
layer {
  name: "conv31"
  type: "Convolution"
  bottom: "pool2"
  top: "conv31"
  param {
    lr_mult: 0
    decay_mult: 1
  }
  param {
    lr_mult: 0
    decay_mult: 0
  }
  convolution_param {
    num_output: 96
    pad: 1
    stride: 1
    weight_filler {
      type: "xavier"
    }
    bias_filler {
      type: "constant"
    }
    kernel_h: 3
    kernel_w: 3
  }
}
layer {
  name: "relu31"
  type: "ReLU"
  bottom: "conv31"
  top: "conv31"
}
layer {
  name: "conv32"
  type: "Convolution"
  bottom: "conv31"
  top: "conv32"
  param {
    lr_mult: 0
    decay_mult: 1
  }
  param {
    lr_mult: 0
    decay_mult: 0
  }
  convolution_param {
    num_output: 96
    pad: 1
    stride: 1
    weight_filler {
      type: "xavier"
    }
    bias_filler {
      type: "constant"
    }
    kernel_h: 3
    kernel_w: 3
  }
}
layer {
  name: "relu32"
  type: "ReLU"
  bottom: "conv32"
  top: "conv32"
}
layer {
  name: "pool3"
  type: "Pooling"
  bottom: "conv32"
  top: "pool3"
  pooling_param {
    pool: MAX
    kernel_size: 2
    stride: 2
  }
}
layer {
  name: "conv41"
  type: "Convolution"
  bottom: "pool3"
  top: "conv41"
  param {
    lr_mult: 0
    decay_mult: 1
  }
  param {
    lr_mult: 0
    decay_mult: 0
  }
  convolution_param {
    num_output: 128
    pad: 1
    stride: 1
    weight_filler {
      type: "xavier"
    }
    bias_filler {
      type: "constant"
    }
    kernel_h: 3
    kernel_w: 3
  }
}
layer {
  name: "relu41"
  type: "ReLU"
  bottom: "conv41"
  top: "conv41"
}
layer {
  name: "conv42"
  type: "Convolution"
  bottom: "conv41"
  top: "conv42"
  param {
    lr_mult: 0
    decay_mult: 1
  }
  param {
    lr_mult: 0
    decay_mult: 0
  }
  convolution_param {
    num_output: 128
    pad: 1
    stride: 1
    weight_filler {
      type: "xavier"
    }
    bias_filler {
      type: "constant"
    }
    kernel_h: 3
    kernel_w: 3
  }
}
layer {
  name: "relu42"
  type: "ReLU"
  bottom: "conv42"
  top: "conv42"
}
layer {
  name: "pool4"
  type: "Pooling"
  bottom: "conv42"
  top: "pool4"
  pooling_param {
    pool: MAX
    kernel_size: 2
    stride: 2
  }
}
layer {
  name: "conv51"
  type: "Convolution"
  bottom: "pool4"
  top: "conv51"
  param {
    lr_mult: 0
    decay_mult: 1
  }
  param {
    lr_mult: 0
    decay_mult: 0
  }
  convolution_param {
    num_output: 256
    pad: 1
    stride: 1
    weight_filler {
      type: "xavier"
    }
    bias_filler {
      type: "constant"
    }
    kernel_h: 3
    kernel_w: 3
  }
}
layer {
  name: "relu51"
  type: "ReLU"
  bottom: "conv51"
  top: "conv51"
}
layer {
  name: "conv52"
  type: "Convolution"
  bottom: "conv51"
  top: "conv52"
  param {
    lr_mult: 0
    decay_mult: 1
  }
  param {
    lr_mult: 0
    decay_mult: 0
  }
  convolution_param {
    num_output: 256
    pad: 1
    stride: 1
    weight_filler {
      type: "xavier"
    }
    bias_filler {
      type: "constant"
    }
    kernel_h: 3
    kernel_w: 3
  }
}
layer {
  name: "relu52"
  type: "ReLU"
  bottom: "conv52"
  top: "conv52"
}
layer {
  name: "conv53"
  type: "Convolution"
  bottom: "conv52"
  top: "conv53"
  param {
    lr_mult: 0
    decay_mult: 1
  }
  param {
    lr_mult: 0
    decay_mult: 0
  }
  convolution_param {
    num_output: 256
    stride: 1
    weight_filler {
      type: "xavier"
    }
    bias_filler {
      type: "constant"
    }
    kernel_h: 7
    kernel_w: 7
  }
}
layer {
  name: "relu53"
  type: "ReLU"
  bottom: "conv53"
  top: "conv53"
}
layer {
  name: "conv61"
  type: "Convolution"
  bottom: "conv53"
  top: "conv61"
  param {
    lr_mult: 1
    decay_mult: 1
  }
  param {
    lr_mult: 2
    decay_mult: 0
  }
  convolution_param {
    num_output: 64
    pad: 1
    stride: 1
    weight_filler {
      type: "xavier"
    }
    bias_filler {
      type: "constant"
    }
    kernel_h: 3
    kernel_w: 3
  }
}
layer {
  name: "relu61"
  type: "ReLU"
  bottom: "conv61"
  top: "conv61"
}
layer {
  name: "conv62"
  type: "Convolution"
  bottom: "conv61"
  top: "conv62"
  param {
    lr_mult: 1
    decay_mult: 1
  }
  param {
    lr_mult: 2
    decay_mult: 0
  }
  convolution_param {
    num_output: 64
    pad: 1
    stride: 1
    weight_filler {
      type: "xavier"
    }
    bias_filler {
      type: "constant"
    }
    kernel_h: 3
    kernel_w: 3
  }
}
layer {
  name: "relu62"
  type: "ReLU"
  bottom: "conv62"
  top: "conv62"
}
layer {
  name: "pool5"
  type: "Pooling"
  bottom: "conv62"
  top: "pool5"
  pooling_param {
    pool: MAX
    kernel_size: 2
    stride: 2
  }
}
layer {
  name: "conv71"
  type: "Convolution"
  bottom: "pool5"
  top: "conv71"
  param {
    lr_mult: 1
    decay_mult: 1
  }
  param {
    lr_mult: 2
    decay_mult: 0
  }
  convolution_param {
    num_output: 96
    pad: 1
    stride: 1
    weight_filler {
      type: "xavier"
    }
    bias_filler {
      type: "constant"
    }
    kernel_h: 3
    kernel_w: 3
  }
}
layer {
  name: "relu71"
  type: "ReLU"
  bottom: "conv71"
  top: "conv71"
}
layer {
  name: "conv72"
  type: "Convolution"
  bottom: "conv71"
  top: "conv72"
  param {
    lr_mult: 1
    decay_mult: 1
  }
  param {
    lr_mult: 2
    decay_mult: 0
  }
  convolution_param {
    num_output: 96
    pad: 1
    stride: 1
    weight_filler {
      type: "xavier"
    }
    bias_filler {
      type: "constant"
    }
    kernel_h: 3
    kernel_w: 3
  }
}
layer {
  name: "relu72"
  type: "ReLU"
  bottom: "conv72"
  top: "conv72"
}
layer {
  name: "pool6"
  type: "Pooling"
  bottom: "conv72"
  top: "pool6"
  pooling_param {
    pool: MAX
    kernel_size: 2
    stride: 2
  }
}
layer {
  name: "conv81"
  type: "Convolution"
  bottom: "pool6"
  top: "conv81"
  param {
    lr_mult: 1
    decay_mult: 1
  }
  param {
    lr_mult: 2
    decay_mult: 0
  }
  convolution_param {
    num_output: 128
    pad: 1
    stride: 1
    weight_filler {
      type: "xavier"
    }
    bias_filler {
      type: "constant"
    }
    kernel_h: 3
    kernel_w: 3
  }
}
layer {
  name: "relu81"
  type: "ReLU"
  bottom: "conv81"
  top: "conv81"
}
layer {
  name: "conv82"
  type: "Convolution"
  bottom: "conv81"
  top: "conv82"
  param {
    lr_mult: 1
    decay_mult: 1
  }
  param {
    lr_mult: 2
    decay_mult: 0
  }
  convolution_param {
    num_output: 128
    pad: 1
    stride: 1
    weight_filler {
      type: "xavier"
    }
    bias_filler {
      type: "constant"
    }
    kernel_h: 3
    kernel_w: 3
  }
}
layer {
  name: "relu82"
  type: "ReLU"
  bottom: "conv82"
  top: "conv82"
}
layer {
  name: "pool7"
  type: "Pooling"
  bottom: "conv82"
  top: "pool7"
  pooling_param {
    pool: AVE
    kernel_size: 2
    stride: 2
  }
}
layer {
  name: "drop0"
  type: "Dropout"
  bottom: "pool7"
  top: "pool7"
  dropout_param {
    dropout_ratio: 0.4
  }
}
layer {
  name: "conv91"
  type: "Convolution"
  bottom: "pool7"
  top: "conv91"
  param {
    lr_mult: 1
    decay_mult: 1
  }
  param {
    lr_mult: 2
    decay_mult: 0
  }
  convolution_param {
    num_output: 3
    stride: 1
    weight_filler {
      type: "xavier"
    }
    bias_filler {
      type: "constant"
    }
    kernel_h: 8
    kernel_w: 8
  }
}
layer {
  name: "accuracy"
  type: "Accuracy"
  bottom: "conv91"
  bottom: "label"
  top: "accuracy"
}
layer {
  name: "loss"
  type: "SoftmaxWithLoss"
  bottom: "conv91"
  bottom: "label"
  top: "loss"
}
I0713 09:13:13.360890 47888 layer_factory.hpp:76] Creating layer data
I0713 09:13:13.360937 47888 net.cpp:106] Creating Layer data
I0713 09:13:13.360954 47888 net.cpp:411] data -> data
I0713 09:13:13.360990 47888 net.cpp:411] data -> label
I0713 09:13:13.361438 47888 image_data_layer.cpp:36] Opening file ../lists/mitosis_train.lst
I0713 09:13:13.375280 47888 image_data_layer.cpp:46] Shuffling data
I0713 09:13:13.378330 47888 image_data_layer.cpp:51] A total of 23544 images.
I0713 09:13:13.436801 47888 image_data_layer.cpp:78] output data size: 8,3,1000,1000
I0713 09:13:13.721881 47888 net.cpp:150] Setting up data
I0713 09:13:13.721937 47888 net.cpp:157] Top shape: 8 3 1000 1000 (24000000)
I0713 09:13:13.721951 47888 net.cpp:157] Top shape: 8 (8)
I0713 09:13:13.721961 47888 net.cpp:165] Memory required for data: 96000032
I0713 09:13:13.721976 47888 layer_factory.hpp:76] Creating layer label_data_1_split
I0713 09:13:13.721997 47888 net.cpp:106] Creating Layer label_data_1_split
I0713 09:13:13.722010 47888 net.cpp:454] label_data_1_split <- label
I0713 09:13:13.722030 47888 net.cpp:411] label_data_1_split -> label_data_1_split_0
I0713 09:13:13.722045 47888 net.cpp:411] label_data_1_split -> label_data_1_split_1
I0713 09:13:13.722110 47888 net.cpp:150] Setting up label_data_1_split
I0713 09:13:13.722123 47888 net.cpp:157] Top shape: 8 (8)
I0713 09:13:13.722132 47888 net.cpp:157] Top shape: 8 (8)
I0713 09:13:13.722141 47888 net.cpp:165] Memory required for data: 96000096
I0713 09:13:13.722149 47888 layer_factory.hpp:76] Creating layer conv11
I0713 09:13:13.722175 47888 net.cpp:106] Creating Layer conv11
I0713 09:13:13.722185 47888 net.cpp:454] conv11 <- data
I0713 09:13:13.722199 47888 net.cpp:411] conv11 -> conv11
I0713 09:13:13.882925 47888 net.cpp:150] Setting up conv11
I0713 09:13:13.882977 47888 net.cpp:157] Top shape: 8 32 1000 1000 (256000000)
I0713 09:13:13.883020 47888 net.cpp:165] Memory required for data: 1120000096
I0713 09:13:13.883054 47888 layer_factory.hpp:76] Creating layer relu11
I0713 09:13:13.883074 47888 net.cpp:106] Creating Layer relu11
I0713 09:13:13.883085 47888 net.cpp:454] relu11 <- conv11
I0713 09:13:13.883096 47888 net.cpp:397] relu11 -> conv11 (in-place)
I0713 09:13:13.883297 47888 net.cpp:150] Setting up relu11
I0713 09:13:13.883316 47888 net.cpp:157] Top shape: 8 32 1000 1000 (256000000)
I0713 09:13:13.883324 47888 net.cpp:165] Memory required for data: 2144000096
I0713 09:13:13.883333 47888 layer_factory.hpp:76] Creating layer conv12
I0713 09:13:13.883355 47888 net.cpp:106] Creating Layer conv12
I0713 09:13:13.883364 47888 net.cpp:454] conv12 <- conv11
I0713 09:13:13.883375 47888 net.cpp:411] conv12 -> conv12
I0713 09:13:13.887977 47888 net.cpp:150] Setting up conv12
I0713 09:13:13.888005 47888 net.cpp:157] Top shape: 8 32 1000 1000 (256000000)
I0713 09:13:13.888015 47888 net.cpp:165] Memory required for data: 3168000096
I0713 09:13:13.888031 47888 layer_factory.hpp:76] Creating layer relu12
I0713 09:13:13.888044 47888 net.cpp:106] Creating Layer relu12
I0713 09:13:13.888053 47888 net.cpp:454] relu12 <- conv12
I0713 09:13:13.888067 47888 net.cpp:397] relu12 -> conv12 (in-place)
I0713 09:13:13.888413 47888 net.cpp:150] Setting up relu12
I0713 09:13:13.888434 47888 net.cpp:157] Top shape: 8 32 1000 1000 (256000000)
I0713 09:13:13.888443 47888 net.cpp:165] Memory required for data: 4192000096
I0713 09:13:13.888453 47888 layer_factory.hpp:76] Creating layer pool1
I0713 09:13:13.888471 47888 net.cpp:106] Creating Layer pool1
I0713 09:13:13.888480 47888 net.cpp:454] pool1 <- conv12
I0713 09:13:13.888491 47888 net.cpp:411] pool1 -> pool1
I0713 09:13:13.888731 47888 net.cpp:150] Setting up pool1
I0713 09:13:13.888751 47888 net.cpp:157] Top shape: 8 32 500 500 (64000000)
I0713 09:13:13.888759 47888 net.cpp:165] Memory required for data: 4448000096
I0713 09:13:13.888768 47888 layer_factory.hpp:76] Creating layer conv21
I0713 09:13:13.888787 47888 net.cpp:106] Creating Layer conv21
I0713 09:13:13.888795 47888 net.cpp:454] conv21 <- pool1
I0713 09:13:13.888806 47888 net.cpp:411] conv21 -> conv21
I0713 09:13:13.895207 47888 net.cpp:150] Setting up conv21
I0713 09:13:13.895239 47888 net.cpp:157] Top shape: 8 64 500 500 (128000000)
I0713 09:13:13.895251 47888 net.cpp:165] Memory required for data: 4960000096
I0713 09:13:13.895267 47888 layer_factory.hpp:76] Creating layer relu21
I0713 09:13:13.895282 47888 net.cpp:106] Creating Layer relu21
I0713 09:13:13.895292 47888 net.cpp:454] relu21 <- conv21
I0713 09:13:13.895305 47888 net.cpp:397] relu21 -> conv21 (in-place)
I0713 09:13:13.896445 47888 net.cpp:150] Setting up relu21
I0713 09:13:13.896467 47888 net.cpp:157] Top shape: 8 64 500 500 (128000000)
I0713 09:13:13.896476 47888 net.cpp:165] Memory required for data: 5472000096
I0713 09:13:13.896486 47888 layer_factory.hpp:76] Creating layer conv22
I0713 09:13:13.896503 47888 net.cpp:106] Creating Layer conv22
I0713 09:13:13.896512 47888 net.cpp:454] conv22 <- conv21
I0713 09:13:13.896527 47888 net.cpp:411] conv22 -> conv22
I0713 09:13:13.904320 47888 cudnn_conv_layer.cpp:194] Reallocating workspace storage: 6912
I0713 09:13:13.904564 47888 net.cpp:150] Setting up conv22
I0713 09:13:13.904589 47888 net.cpp:157] Top shape: 8 64 500 500 (128000000)
I0713 09:13:13.904598 47888 net.cpp:165] Memory required for data: 5984000096
I0713 09:13:13.904613 47888 layer_factory.hpp:76] Creating layer relu22
I0713 09:13:13.904626 47888 net.cpp:106] Creating Layer relu22
I0713 09:13:13.904635 47888 net.cpp:454] relu22 <- conv22
I0713 09:13:13.904647 47888 net.cpp:397] relu22 -> conv22 (in-place)
I0713 09:13:13.905475 47888 net.cpp:150] Setting up relu22
I0713 09:13:13.905496 47888 net.cpp:157] Top shape: 8 64 500 500 (128000000)
I0713 09:13:13.905505 47888 net.cpp:165] Memory required for data: 6496000096
I0713 09:13:13.905515 47888 layer_factory.hpp:76] Creating layer pool2
I0713 09:13:13.905529 47888 net.cpp:106] Creating Layer pool2
I0713 09:13:13.905573 47888 net.cpp:454] pool2 <- conv22
I0713 09:13:13.905588 47888 net.cpp:411] pool2 -> pool2
I0713 09:13:13.907759 47888 net.cpp:150] Setting up pool2
I0713 09:13:13.907779 47888 net.cpp:157] Top shape: 8 64 250 250 (32000000)
I0713 09:13:13.907789 47888 net.cpp:165] Memory required for data: 6624000096
I0713 09:13:13.907799 47888 layer_factory.hpp:76] Creating layer conv31
I0713 09:13:13.907816 47888 net.cpp:106] Creating Layer conv31
I0713 09:13:13.907824 47888 net.cpp:454] conv31 <- pool2
I0713 09:13:13.907838 47888 net.cpp:411] conv31 -> conv31
I0713 09:13:13.914681 47888 cudnn_conv_layer.cpp:194] Reallocating workspace storage: 6912
I0713 09:13:13.914721 47888 net.cpp:150] Setting up conv31
I0713 09:13:13.914736 47888 net.cpp:157] Top shape: 8 96 250 250 (48000000)
I0713 09:13:13.914744 47888 net.cpp:165] Memory required for data: 6816000096
I0713 09:13:13.914762 47888 layer_factory.hpp:76] Creating layer relu31
I0713 09:13:13.914777 47888 net.cpp:106] Creating Layer relu31
I0713 09:13:13.914785 47888 net.cpp:454] relu31 <- conv31
I0713 09:13:13.914795 47888 net.cpp:397] relu31 -> conv31 (in-place)
I0713 09:13:13.916748 47888 net.cpp:150] Setting up relu31
I0713 09:13:13.916769 47888 net.cpp:157] Top shape: 8 96 250 250 (48000000)
I0713 09:13:13.916779 47888 net.cpp:165] Memory required for data: 7008000096
I0713 09:13:13.916787 47888 layer_factory.hpp:76] Creating layer conv32
I0713 09:13:13.916805 47888 net.cpp:106] Creating Layer conv32
I0713 09:13:13.916813 47888 net.cpp:454] conv32 <- conv31
I0713 09:13:13.916826 47888 net.cpp:411] conv32 -> conv32
I0713 09:13:13.923684 47888 cudnn_conv_layer.cpp:194] Reallocating workspace storage: 10368
I0713 09:13:13.923724 47888 net.cpp:150] Setting up conv32
I0713 09:13:13.923738 47888 net.cpp:157] Top shape: 8 96 250 250 (48000000)
I0713 09:13:13.923746 47888 net.cpp:165] Memory required for data: 7200000096
I0713 09:13:13.923760 47888 layer_factory.hpp:76] Creating layer relu32
I0713 09:13:13.923773 47888 net.cpp:106] Creating Layer relu32
I0713 09:13:13.923781 47888 net.cpp:454] relu32 <- conv32
I0713 09:13:13.923794 47888 net.cpp:397] relu32 -> conv32 (in-place)
I0713 09:13:13.925706 47888 net.cpp:150] Setting up relu32
I0713 09:13:13.925725 47888 net.cpp:157] Top shape: 8 96 250 250 (48000000)
I0713 09:13:13.925734 47888 net.cpp:165] Memory required for data: 7392000096
I0713 09:13:13.925742 47888 layer_factory.hpp:76] Creating layer pool3
I0713 09:13:13.925757 47888 net.cpp:106] Creating Layer pool3
I0713 09:13:13.925765 47888 net.cpp:454] pool3 <- conv32
I0713 09:13:13.925778 47888 net.cpp:411] pool3 -> pool3
I0713 09:13:13.927968 47888 net.cpp:150] Setting up pool3
I0713 09:13:13.928002 47888 net.cpp:157] Top shape: 8 96 125 125 (12000000)
I0713 09:13:13.928019 47888 net.cpp:165] Memory required for data: 7440000096
I0713 09:13:13.928032 47888 layer_factory.hpp:76] Creating layer conv41
I0713 09:13:13.928058 47888 net.cpp:106] Creating Layer conv41
I0713 09:13:13.928073 47888 net.cpp:454] conv41 <- pool3
I0713 09:13:13.928098 47888 net.cpp:411] conv41 -> conv41
I0713 09:13:13.934224 47888 cudnn_conv_layer.cpp:194] Reallocating workspace storage: 10368
I0713 09:13:13.934276 47888 net.cpp:150] Setting up conv41
I0713 09:13:13.934290 47888 net.cpp:157] Top shape: 8 128 125 125 (16000000)
I0713 09:13:13.934298 47888 net.cpp:165] Memory required for data: 7504000096
I0713 09:13:13.934310 47888 layer_factory.hpp:76] Creating layer relu41
I0713 09:13:13.934322 47888 net.cpp:106] Creating Layer relu41
I0713 09:13:13.934331 47888 net.cpp:454] relu41 <- conv41
I0713 09:13:13.934341 47888 net.cpp:397] relu41 -> conv41 (in-place)
I0713 09:13:13.936028 47888 net.cpp:150] Setting up relu41
I0713 09:13:13.936061 47888 net.cpp:157] Top shape: 8 128 125 125 (16000000)
I0713 09:13:13.936071 47888 net.cpp:165] Memory required for data: 7568000096
I0713 09:13:13.936080 47888 layer_factory.hpp:76] Creating layer conv42
I0713 09:13:13.936099 47888 net.cpp:106] Creating Layer conv42
I0713 09:13:13.936108 47888 net.cpp:454] conv42 <- conv41
I0713 09:13:13.936120 47888 net.cpp:411] conv42 -> conv42
I0713 09:13:13.943220 47888 cudnn_conv_layer.cpp:194] Reallocating workspace storage: 13824
I0713 09:13:13.943269 47888 net.cpp:150] Setting up conv42
I0713 09:13:13.943282 47888 net.cpp:157] Top shape: 8 128 125 125 (16000000)
I0713 09:13:13.943291 47888 net.cpp:165] Memory required for data: 7632000096
I0713 09:13:13.943303 47888 layer_factory.hpp:76] Creating layer relu42
I0713 09:13:13.943318 47888 net.cpp:106] Creating Layer relu42
I0713 09:13:13.943328 47888 net.cpp:454] relu42 <- conv42
I0713 09:13:13.943338 47888 net.cpp:397] relu42 -> conv42 (in-place)
I0713 09:13:13.945396 47888 net.cpp:150] Setting up relu42
I0713 09:13:13.945426 47888 net.cpp:157] Top shape: 8 128 125 125 (16000000)
I0713 09:13:13.945436 47888 net.cpp:165] Memory required for data: 7696000096
I0713 09:13:13.945444 47888 layer_factory.hpp:76] Creating layer pool4
I0713 09:13:13.945456 47888 net.cpp:106] Creating Layer pool4
I0713 09:13:13.945466 47888 net.cpp:454] pool4 <- conv42
I0713 09:13:13.945477 47888 net.cpp:411] pool4 -> pool4
I0713 09:13:13.947921 47888 net.cpp:150] Setting up pool4
I0713 09:13:13.947953 47888 net.cpp:157] Top shape: 8 128 63 63 (4064256)
I0713 09:13:13.947963 47888 net.cpp:165] Memory required for data: 7712257120
I0713 09:13:13.947971 47888 layer_factory.hpp:76] Creating layer conv51
I0713 09:13:13.947988 47888 net.cpp:106] Creating Layer conv51
I0713 09:13:13.947998 47888 net.cpp:454] conv51 <- pool4
I0713 09:13:13.948010 47888 net.cpp:411] conv51 -> conv51
I0713 09:13:13.956393 47888 cudnn_conv_layer.cpp:194] Reallocating workspace storage: 13824
I0713 09:13:13.956441 47888 net.cpp:150] Setting up conv51
I0713 09:13:13.956456 47888 net.cpp:157] Top shape: 8 256 63 63 (8128512)
I0713 09:13:13.956465 47888 net.cpp:165] Memory required for data: 7744771168
I0713 09:13:13.956481 47888 layer_factory.hpp:76] Creating layer relu51
I0713 09:13:13.956496 47888 net.cpp:106] Creating Layer relu51
I0713 09:13:13.956506 47888 net.cpp:454] relu51 <- conv51
I0713 09:13:13.956516 47888 net.cpp:397] relu51 -> conv51 (in-place)
I0713 09:13:13.958044 47888 net.cpp:150] Setting up relu51
I0713 09:13:13.958072 47888 net.cpp:157] Top shape: 8 256 63 63 (8128512)
I0713 09:13:13.958082 47888 net.cpp:165] Memory required for data: 7777285216
I0713 09:13:13.958091 47888 layer_factory.hpp:76] Creating layer conv52
I0713 09:13:13.958107 47888 net.cpp:106] Creating Layer conv52
I0713 09:13:13.958117 47888 net.cpp:454] conv52 <- conv51
I0713 09:13:13.958127 47888 net.cpp:411] conv52 -> conv52
I0713 09:13:13.968782 47888 cudnn_conv_layer.cpp:194] Reallocating workspace storage: 27648
I0713 09:13:13.968845 47888 net.cpp:150] Setting up conv52
I0713 09:13:13.968863 47888 net.cpp:157] Top shape: 8 256 63 63 (8128512)
I0713 09:13:13.968871 47888 net.cpp:165] Memory required for data: 7809799264
I0713 09:13:13.968886 47888 layer_factory.hpp:76] Creating layer relu52
I0713 09:13:13.968905 47888 net.cpp:106] Creating Layer relu52
I0713 09:13:13.968917 47888 net.cpp:454] relu52 <- conv52
I0713 09:13:13.968930 47888 net.cpp:397] relu52 -> conv52 (in-place)
I0713 09:13:13.971194 47888 net.cpp:150] Setting up relu52
I0713 09:13:13.971226 47888 net.cpp:157] Top shape: 8 256 63 63 (8128512)
I0713 09:13:13.971238 47888 net.cpp:165] Memory required for data: 7842313312
I0713 09:13:13.971247 47888 layer_factory.hpp:76] Creating layer conv53
I0713 09:13:13.971263 47888 net.cpp:106] Creating Layer conv53
I0713 09:13:13.971272 47888 net.cpp:454] conv53 <- conv52
I0713 09:13:13.971287 47888 net.cpp:411] conv53 -> conv53
I0713 09:13:14.010624 47888 cudnn_conv_layer.cpp:194] Reallocating workspace storage: 150528
I0713 09:13:14.010963 47888 net.cpp:150] Setting up conv53
I0713 09:13:14.011003 47888 net.cpp:157] Top shape: 8 256 57 57 (6653952)
I0713 09:13:14.011019 47888 net.cpp:165] Memory required for data: 7868929120
I0713 09:13:14.011044 47888 layer_factory.hpp:76] Creating layer relu53
I0713 09:13:14.011065 47888 net.cpp:106] Creating Layer relu53
I0713 09:13:14.011096 47888 net.cpp:454] relu53 <- conv53
I0713 09:13:14.011131 47888 net.cpp:397] relu53 -> conv53 (in-place)
I0713 09:13:14.012871 47888 net.cpp:150] Setting up relu53
I0713 09:13:14.012909 47888 net.cpp:157] Top shape: 8 256 57 57 (6653952)
I0713 09:13:14.012925 47888 net.cpp:165] Memory required for data: 7895544928
I0713 09:13:14.012939 47888 layer_factory.hpp:76] Creating layer conv61
I0713 09:13:14.012966 47888 net.cpp:106] Creating Layer conv61
I0713 09:13:14.012995 47888 net.cpp:454] conv61 <- conv53
I0713 09:13:14.013018 47888 net.cpp:411] conv61 -> conv61
I0713 09:13:14.019018 47888 cudnn_conv_layer.cpp:194] Reallocating workspace storage: 27648
I0713 09:13:14.019093 47888 net.cpp:150] Setting up conv61
I0713 09:13:14.019114 47888 net.cpp:157] Top shape: 8 64 57 57 (1663488)
I0713 09:13:14.019129 47888 net.cpp:165] Memory required for data: 7902198880
I0713 09:13:14.019151 47888 layer_factory.hpp:76] Creating layer relu61
I0713 09:13:14.019189 47888 net.cpp:106] Creating Layer relu61
I0713 09:13:14.019207 47888 net.cpp:454] relu61 <- conv61
I0713 09:13:14.019239 47888 net.cpp:397] relu61 -> conv61 (in-place)
I0713 09:13:14.021040 47888 net.cpp:150] Setting up relu61
I0713 09:13:14.021078 47888 net.cpp:157] Top shape: 8 64 57 57 (1663488)
I0713 09:13:14.021093 47888 net.cpp:165] Memory required for data: 7908852832
I0713 09:13:14.021108 47888 layer_factory.hpp:76] Creating layer conv62
I0713 09:13:14.021131 47888 net.cpp:106] Creating Layer conv62
I0713 09:13:14.021159 47888 net.cpp:454] conv62 <- conv61
I0713 09:13:14.021183 47888 net.cpp:411] conv62 -> conv62
I0713 09:13:14.025854 47888 net.cpp:150] Setting up conv62
I0713 09:13:14.025900 47888 net.cpp:157] Top shape: 8 64 57 57 (1663488)
I0713 09:13:14.025916 47888 net.cpp:165] Memory required for data: 7915506784
I0713 09:13:14.025938 47888 layer_factory.hpp:76] Creating layer relu62
I0713 09:13:14.025956 47888 net.cpp:106] Creating Layer relu62
I0713 09:13:14.025990 47888 net.cpp:454] relu62 <- conv62
I0713 09:13:14.026007 47888 net.cpp:397] relu62 -> conv62 (in-place)
I0713 09:13:14.028059 47888 net.cpp:150] Setting up relu62
I0713 09:13:14.028098 47888 net.cpp:157] Top shape: 8 64 57 57 (1663488)
I0713 09:13:14.028113 47888 net.cpp:165] Memory required for data: 7922160736
I0713 09:13:14.028127 47888 layer_factory.hpp:76] Creating layer pool5
I0713 09:13:14.028156 47888 net.cpp:106] Creating Layer pool5
I0713 09:13:14.028173 47888 net.cpp:454] pool5 <- conv62
I0713 09:13:14.028190 47888 net.cpp:411] pool5 -> pool5
I0713 09:13:14.029229 47888 net.cpp:150] Setting up pool5
I0713 09:13:14.029265 47888 net.cpp:157] Top shape: 8 64 29 29 (430592)
I0713 09:13:14.029280 47888 net.cpp:165] Memory required for data: 7923883104
I0713 09:13:14.029294 47888 layer_factory.hpp:76] Creating layer conv71
I0713 09:13:14.029315 47888 net.cpp:106] Creating Layer conv71
I0713 09:13:14.029343 47888 net.cpp:454] conv71 <- pool5
I0713 09:13:14.029363 47888 net.cpp:411] conv71 -> conv71
I0713 09:13:14.034042 47888 cudnn_conv_layer.cpp:194] Reallocating workspace storage: 6912
I0713 09:13:14.034099 47888 net.cpp:150] Setting up conv71
I0713 09:13:14.034121 47888 net.cpp:157] Top shape: 8 96 29 29 (645888)
I0713 09:13:14.034148 47888 net.cpp:165] Memory required for data: 7926466656
I0713 09:13:14.034168 47888 layer_factory.hpp:76] Creating layer relu71
I0713 09:13:14.034198 47888 net.cpp:106] Creating Layer relu71
I0713 09:13:14.034211 47888 net.cpp:454] relu71 <- conv71
I0713 09:13:14.034226 47888 net.cpp:397] relu71 -> conv71 (in-place)
I0713 09:13:14.037569 47888 net.cpp:150] Setting up relu71
I0713 09:13:14.037608 47888 net.cpp:157] Top shape: 8 96 29 29 (645888)
I0713 09:13:14.037623 47888 net.cpp:165] Memory required for data: 7929050208
I0713 09:13:14.037636 47888 layer_factory.hpp:76] Creating layer conv72
I0713 09:13:14.037659 47888 net.cpp:106] Creating Layer conv72
I0713 09:13:14.037688 47888 net.cpp:454] conv72 <- conv71
I0713 09:13:14.037709 47888 net.cpp:411] conv72 -> conv72
I0713 09:13:14.045153 47888 cudnn_conv_layer.cpp:194] Reallocating workspace storage: 10368
I0713 09:13:14.045217 47888 net.cpp:150] Setting up conv72
I0713 09:13:14.045272 47888 net.cpp:157] Top shape: 8 96 29 29 (645888)
I0713 09:13:14.045287 47888 net.cpp:165] Memory required for data: 7931633760
I0713 09:13:14.045306 47888 layer_factory.hpp:76] Creating layer relu72
I0713 09:13:14.045337 47888 net.cpp:106] Creating Layer relu72
I0713 09:13:14.045367 47888 net.cpp:454] relu72 <- conv72
I0713 09:13:14.045382 47888 net.cpp:397] relu72 -> conv72 (in-place)
I0713 09:13:14.047615 47888 net.cpp:150] Setting up relu72
I0713 09:13:14.047653 47888 net.cpp:157] Top shape: 8 96 29 29 (645888)
I0713 09:13:14.047668 47888 net.cpp:165] Memory required for data: 7934217312
I0713 09:13:14.047683 47888 layer_factory.hpp:76] Creating layer pool6
I0713 09:13:14.047703 47888 net.cpp:106] Creating Layer pool6
I0713 09:13:14.047732 47888 net.cpp:454] pool6 <- conv72
I0713 09:13:14.047751 47888 net.cpp:411] pool6 -> pool6
I0713 09:13:14.050420 47888 net.cpp:150] Setting up pool6
I0713 09:13:14.050456 47888 net.cpp:157] Top shape: 8 96 15 15 (172800)
I0713 09:13:14.050469 47888 net.cpp:165] Memory required for data: 7934908512
I0713 09:13:14.050483 47888 layer_factory.hpp:76] Creating layer conv81
I0713 09:13:14.050508 47888 net.cpp:106] Creating Layer conv81
I0713 09:13:14.050536 47888 net.cpp:454] conv81 <- pool6
I0713 09:13:14.050554 47888 net.cpp:411] conv81 -> conv81
I0713 09:13:14.057209 47888 net.cpp:150] Setting up conv81
I0713 09:13:14.057238 47888 net.cpp:157] Top shape: 8 128 15 15 (230400)
I0713 09:13:14.057252 47888 net.cpp:165] Memory required for data: 7935830112
I0713 09:13:14.057272 47888 layer_factory.hpp:76] Creating layer relu81
I0713 09:13:14.057289 47888 net.cpp:106] Creating Layer relu81
I0713 09:13:14.057303 47888 net.cpp:454] relu81 <- conv81
I0713 09:13:14.057322 47888 net.cpp:397] relu81 -> conv81 (in-place)
I0713 09:13:14.059026 47888 net.cpp:150] Setting up relu81
I0713 09:13:14.059052 47888 net.cpp:157] Top shape: 8 128 15 15 (230400)
I0713 09:13:14.059067 47888 net.cpp:165] Memory required for data: 7936751712
I0713 09:13:14.059080 47888 layer_factory.hpp:76] Creating layer conv82
I0713 09:13:14.059103 47888 net.cpp:106] Creating Layer conv82
I0713 09:13:14.059116 47888 net.cpp:454] conv82 <- conv81
I0713 09:13:14.059137 47888 net.cpp:411] conv82 -> conv82
I0713 09:13:14.066992 47888 net.cpp:150] Setting up conv82
I0713 09:13:14.067023 47888 net.cpp:157] Top shape: 8 128 15 15 (230400)
I0713 09:13:14.067036 47888 net.cpp:165] Memory required for data: 7937673312
I0713 09:13:14.067068 47888 layer_factory.hpp:76] Creating layer relu82
I0713 09:13:14.067086 47888 net.cpp:106] Creating Layer relu82
I0713 09:13:14.067101 47888 net.cpp:454] relu82 <- conv82
I0713 09:13:14.067118 47888 net.cpp:397] relu82 -> conv82 (in-place)
I0713 09:13:14.069131 47888 net.cpp:150] Setting up relu82
I0713 09:13:14.069159 47888 net.cpp:157] Top shape: 8 128 15 15 (230400)
I0713 09:13:14.069174 47888 net.cpp:165] Memory required for data: 7938594912
I0713 09:13:14.069186 47888 layer_factory.hpp:76] Creating layer pool7
I0713 09:13:14.069205 47888 net.cpp:106] Creating Layer pool7
I0713 09:13:14.069218 47888 net.cpp:454] pool7 <- conv82
I0713 09:13:14.069237 47888 net.cpp:411] pool7 -> pool7
I0713 09:13:14.071351 47888 net.cpp:150] Setting up pool7
I0713 09:13:14.071379 47888 net.cpp:157] Top shape: 8 128 8 8 (65536)
I0713 09:13:14.071393 47888 net.cpp:165] Memory required for data: 7938857056
I0713 09:13:14.071406 47888 layer_factory.hpp:76] Creating layer drop0
I0713 09:13:14.071429 47888 net.cpp:106] Creating Layer drop0
I0713 09:13:14.071444 47888 net.cpp:454] drop0 <- pool7
I0713 09:13:14.071462 47888 net.cpp:397] drop0 -> pool7 (in-place)
I0713 09:13:14.071516 47888 net.cpp:150] Setting up drop0
I0713 09:13:14.071535 47888 net.cpp:157] Top shape: 8 128 8 8 (65536)
I0713 09:13:14.071548 47888 net.cpp:165] Memory required for data: 7939119200
I0713 09:13:14.071562 47888 layer_factory.hpp:76] Creating layer conv91
I0713 09:13:14.071586 47888 net.cpp:106] Creating Layer conv91
I0713 09:13:14.071600 47888 net.cpp:454] conv91 <- pool7
I0713 09:13:14.071619 47888 net.cpp:411] conv91 -> conv91
I0713 09:13:14.077291 47888 cudnn_conv_layer.cpp:194] Reallocating workspace storage: 98304
I0713 09:13:14.077335 47888 net.cpp:150] Setting up conv91
I0713 09:13:14.077353 47888 net.cpp:157] Top shape: 8 3 1 1 (24)
I0713 09:13:14.077368 47888 net.cpp:165] Memory required for data: 7939119296
I0713 09:13:14.077385 47888 layer_factory.hpp:76] Creating layer conv91_conv91_0_split
I0713 09:13:14.077407 47888 net.cpp:106] Creating Layer conv91_conv91_0_split
I0713 09:13:14.077421 47888 net.cpp:454] conv91_conv91_0_split <- conv91
I0713 09:13:14.077438 47888 net.cpp:411] conv91_conv91_0_split -> conv91_conv91_0_split_0
I0713 09:13:14.077456 47888 net.cpp:411] conv91_conv91_0_split -> conv91_conv91_0_split_1
I0713 09:13:14.077529 47888 net.cpp:150] Setting up conv91_conv91_0_split
I0713 09:13:14.077550 47888 net.cpp:157] Top shape: 8 3 1 1 (24)
I0713 09:13:14.077565 47888 net.cpp:157] Top shape: 8 3 1 1 (24)
I0713 09:13:14.077577 47888 net.cpp:165] Memory required for data: 7939119488
I0713 09:13:14.077591 47888 layer_factory.hpp:76] Creating layer accuracy
I0713 09:13:14.077612 47888 net.cpp:106] Creating Layer accuracy
I0713 09:13:14.077625 47888 net.cpp:454] accuracy <- conv91_conv91_0_split_0
I0713 09:13:14.077641 47888 net.cpp:454] accuracy <- label_data_1_split_0
I0713 09:13:14.077656 47888 net.cpp:411] accuracy -> accuracy
…
I0713 09:13:14.081147 47888 solver.cpp:180] Creating test net (#0) specified by net file: train_val-featurelayer-3stack.prototxt
I0713 09:13:14.081259 47888 net.cpp:322] The NetState phase (1) differed from the phase (0) specified by a rule in layer data
I0713 09:13:14.081713 47888 net.cpp:49] Initializing net from parameters: 
name: "FaceNN"
state {
  phase: TEST
}
layer {
  name: "data"
  type: "ImageData"
  top: "data"
  top: "label"
  include {
    phase: TEST
  }
  transform_param {
    mirror: false
    mean_value: 104
    mean_value: 117
    mean_value: 123
  }
  image_data_param {
    source: "../lists/mitosis_val.lst"
    batch_size: 6
    shuffle: true
  }
}
layer {
  name: "conv11"
  type: "Convolution"
  bottom: "data"
  top: "conv11"
  param {
    lr_mult: 0
    decay_mult: 1
  }
  param {
    lr_mult: 0
    decay_mult: 0
  }
  convolution_param {
    num_output: 32
    pad: 1
    stride: 1
    weight_filler {
      type: "xavier"
    }
    bias_filler {
      type: "constant"
    }
    kernel_h: 3
    kernel_w: 3
  }
}
layer {
  name: "relu11"
  type: "ReLU"
  bottom: "conv11"
  top: "conv11"
}
layer {
  name: "conv12"
  type: "Convolution"
  bottom: "conv11"
  top: "conv12"
  param {
    lr_mult: 0
    decay_mult: 1
  }
  param {
    lr_mult: 0
    decay_mult: 0
  }
  convolution_param {
    num_output: 32
    pad: 1
    stride: 1
    weight_filler {
      type: "xavier"
    }
    bias_filler {
      type: "constant"
    }
    kernel_h: 3
    kernel_w: 3
  }
}
layer {
  name: "relu12"
  type: "ReLU"
  bottom: "conv12"
  top: "conv12"
}
layer {
  name: "pool1"
  type: "Pooling"
  bottom: "conv12"
  top: "pool1"
  pooling_param {
    pool: MAX
    kernel_size: 2
    stride: 2
  }
}
layer {
  name: "conv21"
  type: "Convolution"
  bottom: "pool1"
  top: "conv21"
  param {
    lr_mult: 0
    decay_mult: 1
  }
  param {
    lr_mult: 0
    decay_mult: 0
  }
  convolution_param {
    num_output: 64
    pad: 1
    stride: 1
    weight_filler {
      type: "xavier"
    }
    bias_filler {
      type: "constant"
    }
    kernel_h: 3
    kernel_w: 3
  }
}
layer {
  name: "relu21"
  type: "ReLU"
  bottom: "conv21"
  top: "conv21"
}
layer {
  name: "conv22"
  type: "Convolution"
  bottom: "conv21"
  top: "conv22"
  param {
    lr_mult: 0
    decay_mult: 1
  }
  param {
    lr_mult: 0
    decay_mult: 0
  }
  convolution_param {
    num_output: 64
    pad: 1
    stride: 1
    weight_filler {
      type: "xavier"
    }
    bias_filler {
      type: "constant"
    }
    kernel_h: 3
    kernel_w: 3
  }
}
layer {
  name: "relu22"
  type: "ReLU"
  bottom: "conv22"
  top: "conv22"
}
layer {
  name: "pool2"
  type: "Pooling"
  bottom: "conv22"
  top: "pool2"
  pooling_param {
    pool: MAX
    kernel_size: 2
    stride: 2
  }
}
layer {
  name: "conv31"
  type: "Convolution"
  bottom: "pool2"
  top: "conv31"
  param {
    lr_mult: 0
    decay_mult: 1
  }
  param {
    lr_mult: 0
    decay_mult: 0
  }
  convolution_param {
    num_output: 96
    pad: 1
    stride: 1
    weight_filler {
      type: "xavier"
    }
    bias_filler {
      type: "constant"
    }
    kernel_h: 3
    kernel_w: 3
  }
}
layer {
  name: "relu31"
  type: "ReLU"
  bottom: "conv31"
  top: "conv31"
}
layer {
  name: "conv32"
  type: "Convolution"
  bottom: "conv31"
  top: "conv32"
  param {
    lr_mult: 0
    decay_mult: 1
  }
  param {
    lr_mult: 0
    decay_mult: 0
  }
  convolution_param {
    num_output: 96
    pad: 1
    stride: 1
    weight_filler {
      type: "xavier"
    }
    bias_filler {
      type: "constant"
    }
    kernel_h: 3
    kernel_w: 3
  }
}
layer {
  name: "relu32"
  type: "ReLU"
  bottom: "conv32"
  top: "conv32"
}
layer {
  name: "pool3"
  type: "Pooling"
  bottom: "conv32"
  top: "pool3"
  pooling_param {
    pool: MAX
    kernel_size: 2
    stride: 2
  }
}
layer {
  name: "conv41"
  type: "Convolution"
  bottom: "pool3"
  top: "conv41"
  param {
    lr_mult: 0
    decay_mult: 1
  }
  param {
    lr_mult: 0
    decay_mult: 0
  }
  convolution_param {
    num_output: 128
    pad: 1
    stride: 1
    weight_filler {
      type: "xavier"
    }
    bias_filler {
      type: "constant"
    }
    kernel_h: 3
    kernel_w: 3
  }
}
layer {
  name: "relu41"
  type: "ReLU"
  bottom: "conv41"
  top: "conv41"
}
layer {
  name: "conv42"
  type: "Convolution"
  bottom: "conv41"
  top: "conv42"
  param {
    lr_mult: 0
    decay_mult: 1
  }
  param {
    lr_mult: 0
    decay_mult: 0
  }
  convolution_param {
    num_output: 128
    pad: 1
    stride: 1
    weight_filler {
      type: "xavier"
    }
    bias_filler {
      type: "constant"
    }
    kernel_h: 3
    kernel_w: 3
  }
}
layer {
  name: "relu42"
  type: "ReLU"
  bottom: "conv42"
  top: "conv42"
}
layer {
  name: "pool4"
  type: "Pooling"
  bottom: "conv42"
  top: "pool4"
  pooling_param {
    pool: MAX
    kernel_size: 2
    stride: 2
  }
}
layer {
  name: "conv51"
  type: "Convolution"
  bottom: "pool4"
  top: "conv51"
  param {
    lr_mult: 0
    decay_mult: 1
  }
  param {
    lr_mult: 0
    decay_mult: 0
  }
  convolution_param {
    num_output: 256
    pad: 1
    stride: 1
    weight_filler {
      type: "xavier"
    }
    bias_filler {
      type: "constant"
    }
    kernel_h: 3
    kernel_w: 3
  }
}
layer {
  name: "relu51"
  type: "ReLU"
  bottom: "conv51"
  top: "conv51"
}
layer {
  name: "conv52"
  type: "Convolution"
  bottom: "conv51"
  top: "conv52"
  param {
    lr_mult: 0
    decay_mult: 1
  }
  param {
    lr_mult: 0
    decay_mult: 0
  }
  convolution_param {
    num_output: 256
    pad: 1
    stride: 1
    weight_filler {
      type: "xavier"
    }
    bias_filler {
      type: "constant"
    }
    kernel_h: 3
    kernel_w: 3
  }
}
layer {
  name: "relu52"
  type: "ReLU"
  bottom: "conv52"
  top: "conv52"
}
layer {
  name: "conv53"
  type: "Convolution"
  bottom: "conv52"
  top: "conv53"
  param {
    lr_mult: 0
    decay_mult: 1
  }
  param {
    lr_mult: 0
    decay_mult: 0
  }
  convolution_param {
    num_output: 256
    stride: 1
    weight_filler {
      type: "xavier"
    }
    bias_filler {
      type: "constant"
    }
    kernel_h: 7
    kernel_w: 7
  }
}
layer {
  name: "relu53"
  type: "ReLU"
  bottom: "conv53"
  top: "conv53"
}
layer {
  name: "conv61"
  type: "Convolution"
  bottom: "conv53"
  top: "conv61"
  param {
    lr_mult: 1
    decay_mult: 1
  }
  param {
    lr_mult: 2
    decay_mult: 0
  }
  convolution_param {
    num_output: 64
    pad: 1
    stride: 1
    weight_filler {
      type: "xavier"
    }
    bias_filler {
      type: "constant"
    }
    kernel_h: 3
    kernel_w: 3
  }
}
layer {
  name: "relu61"
  type: "ReLU"
  bottom: "conv61"
  top: "conv61"
}
layer {
  name: "conv62"
  type: "Convolution"
  bottom: "conv61"
  top: "conv62"
  param {
    lr_mult: 1
    decay_mult: 1
  }
  param {
    lr_mult: 2
    decay_mult: 0
  }
  convolution_param {
    num_output: 64
    pad: 1
    stride: 1
    weight_filler {
      type: "xavier"
    }
    bias_filler {
      type: "constant"
    }
    kernel_h: 3
    kernel_w: 3
  }
}
layer {
  name: "relu62"
  type: "ReLU"
  bottom: "conv62"
  top: "conv62"
}
layer {
  name: "pool5"
  type: "Pooling"
  bottom: "conv62"
  top: "pool5"
  pooling_param {
    pool: MAX
    kernel_size: 2
    stride: 2
  }
}
layer {
  name: "conv71"
  type: "Convolution"
  bottom: "pool5"
  top: "conv71"
  param {
    lr_mult: 1
    decay_mult: 1
  }
  param {
    lr_mult: 2
    decay_mult: 0
  }
  convolution_param {
    num_output: 96
    pad: 1
    stride: 1
    weight_filler {
      type: "xavier"
    }
    bias_filler {
      type: "constant"
    }
    kernel_h: 3
    kernel_w: 3
  }
}
layer {
  name: "relu71"
  type: "ReLU"
  bottom: "conv71"
  top: "conv71"
}
layer {
  name: "conv72"
  type: "Convolution"
  bottom: "conv71"
  top: "conv72"
  param {
    lr_mult: 1
    decay_mult: 1
  }
  param {
    lr_mult: 2
    decay_mult: 0
  }
  convolution_param {
    num_output: 96
    pad: 1
    stride: 1
    weight_filler {
      type: "xavier"
    }
    bias_filler {
      type: "constant"
    }
    kernel_h: 3
    kernel_w: 3
  }
}
layer {
  name: "relu72"
  type: "ReLU"
  bottom: "conv72"
  top: "conv72"
}
layer {
  name: "pool6"
  type: "Pooling"
  bottom: "conv72"
  top: "pool6"
  pooling_param {
    pool: MAX
    kernel_size: 2
    stride: 2
  }
}
layer {
  name: "conv81"
  type: "Convolution"
  bottom: "pool6"
  top: "conv81"
  param {
    lr_mult: 1
    decay_mult: 1
  }
  param {
    lr_mult: 2
    decay_mult: 0
  }
  convolution_param {
    num_output: 128
    pad: 1
    stride: 1
    weight_filler {
      type: "xavier"
    }
    bias_filler {
      type: "constant"
    }
    kernel_h: 3
    kernel_w: 3
  }
}
layer {
  name: "relu81"
  type: "ReLU"
  bottom: "conv81"
  top: "conv81"
}
layer {
  name: "conv82"
  type: "Convolution"
  bottom: "conv81"
  top: "conv82"
  param {
    lr_mult: 1
    decay_mult: 1
  }
  param {
    lr_mult: 2
    decay_mult: 0
  }
  convolution_param {
    num_output: 128
    pad: 1
    stride: 1
    weight_filler {
      type: "xavier"
    }
    bias_filler {
      type: "constant"
    }
    kernel_h: 3
    kernel_w: 3
  }
}
layer {
  name: "relu82"
  type: "ReLU"
  bottom: "conv82"
  top: "conv82"
}
layer {
  name: "pool7"
  type: "Pooling"
  bottom: "conv82"
  top: "pool7"
  pooling_param {
    pool: AVE
    kernel_size: 2
    stride: 2
  }
}
layer {
  name: "drop0"
  type: "Dropout"
  bottom: "pool7"
  top: "pool7"
  dropout_param {
    dropout_ratio: 0.4
  }
}
layer {
  name: "conv91"
  type: "Convolution"
  bottom: "pool7"
  top: "conv91"
  param {
    lr_mult: 1
    decay_mult: 1
  }
  param {
    lr_mult: 2
    decay_mult: 0
  }
  convolution_param {
    num_output: 3
    stride: 1
    weight_filler {
      type: "xavier"
    }
    bias_filler {
      type: "constant"
    }
    kernel_h: 8
    kernel_w: 8
  }
}
layer {
  name: "accuracy"
  type: "Accuracy"
  bottom: "conv91"
  bottom: "label"
  top: "accuracy"
}
layer {
  name: "loss"
  type: "SoftmaxWithLoss"
  bottom: "conv91"
  bottom: "label"
  top: "loss"
}
I0713 09:13:14.085245 47888 layer_factory.hpp:76] Creating layer data
I0713 09:13:14.085299 47888 net.cpp:106] Creating Layer data
I0713 09:13:14.085316 47888 net.cpp:411] data -> data
I0713 09:13:14.085338 47888 net.cpp:411] data -> label
I0713 09:13:14.085361 47888 image_data_layer.cpp:36] Opening file ../lists/mitosis_val.lst
I0713 09:13:14.110486 47888 image_data_layer.cpp:46] Shuffling data
I0713 09:13:14.110842 47888 image_data_layer.cpp:51] A total of 2617 images.
I0713 09:13:14.197194 47888 image_data_layer.cpp:78] output data size: 6,3,1000,1000
I0713 09:13:14.394043 47888 net.cpp:150] Setting up data
I0713 09:13:14.394110 47888 net.cpp:157] Top shape: 6 3 1000 1000 (18000000)
I0713 09:13:14.394130 47888 net.cpp:157] Top shape: 6 (6)
I0713 09:13:14.394145 47888 net.cpp:165] Memory required for data: 72000024
I0713 09:13:14.394162 47888 layer_factory.hpp:76] Creating layer label_data_1_split
I0713 09:13:14.394189 47888 net.cpp:106] Creating Layer label_data_1_split
I0713 09:13:14.394204 47888 net.cpp:454] label_data_1_split <- label
I0713 09:13:14.394224 47888 net.cpp:411] label_data_1_split -> label_data_1_split_0
I0713 09:13:14.394248 47888 net.cpp:411] label_data_1_split -> label_data_1_split_1
I0713 09:13:14.394351 47888 net.cpp:150] Setting up label_data_1_split
I0713 09:13:14.394374 47888 net.cpp:157] Top shape: 6 (6)
I0713 09:13:14.394390 47888 net.cpp:157] Top shape: 6 (6)
I0713 09:13:14.394404 47888 net.cpp:165] Memory required for data: 72000072
I0713 09:13:14.394418 47888 layer_factory.hpp:76] Creating layer conv11
I0713 09:13:14.394443 47888 net.cpp:106] Creating Layer conv11
I0713 09:13:14.394459 47888 net.cpp:454] conv11 <- data
I0713 09:13:14.394476 47888 net.cpp:411] conv11 -> conv11
I0713 09:13:14.399827 47888 net.cpp:150] Setting up conv11
I0713 09:13:14.399881 47888 net.cpp:157] Top shape: 6 32 1000 1000 (192000000)
I0713 09:13:14.399898 47888 net.cpp:165] Memory required for data: 840000072
I0713 09:13:14.399927 47888 layer_factory.hpp:76] Creating layer relu11
I0713 09:13:14.399952 47888 net.cpp:106] Creating Layer relu11
I0713 09:13:14.399969 47888 net.cpp:454] relu11 <- conv11
I0713 09:13:14.399986 47888 net.cpp:397] relu11 -> conv11 (in-place)
I0713 09:13:14.400316 47888 net.cpp:150] Setting up relu11
I0713 09:13:14.400343 47888 net.cpp:157] Top shape: 6 32 1000 1000 (192000000)
I0713 09:13:14.400357 47888 net.cpp:165] Memory required for data: 1608000072
I0713 09:13:14.400372 47888 layer_factory.hpp:76] Creating layer conv12
I0713 09:13:14.400398 47888 net.cpp:106] Creating Layer conv12
I0713 09:13:14.400413 47888 net.cpp:454] conv12 <- conv11
I0713 09:13:14.400434 47888 net.cpp:411] conv12 -> conv12
I0713 09:13:14.406092 47888 cudnn_conv_layer.cpp:194] Reallocating workspace storage: 3456
I0713 09:13:14.406493 47888 net.cpp:150] Setting up conv12
I0713 09:13:14.406527 47888 net.cpp:157] Top shape: 6 32 1000 1000 (192000000)
I0713 09:13:14.406543 47888 net.cpp:165] Memory required for data: 2376000072
I0713 09:13:14.406574 47888 layer_factory.hpp:76] Creating layer relu12
I0713 09:13:14.406596 47888 net.cpp:106] Creating Layer relu12
I0713 09:13:14.406612 47888 net.cpp:454] relu12 <- conv12
I0713 09:13:14.406639 47888 net.cpp:397] relu12 -> conv12 (in-place)
I0713 09:13:14.407080 47888 net.cpp:150] Setting up relu12
I0713 09:13:14.407102 47888 net.cpp:157] Top shape: 6 32 1000 1000 (192000000)
I0713 09:13:14.407112 47888 net.cpp:165] Memory required for data: 3144000072
I0713 09:13:14.407121 47888 layer_factory.hpp:76] Creating layer pool1
I0713 09:13:14.407135 47888 net.cpp:106] Creating Layer pool1
I0713 09:13:14.407145 47888 net.cpp:454] pool1 <- conv12
I0713 09:13:14.407155 47888 net.cpp:411] pool1 -> pool1
I0713 09:13:14.407398 47888 net.cpp:150] Setting up pool1
I0713 09:13:14.407418 47888 net.cpp:157] Top shape: 6 32 500 500 (48000000)
I0713 09:13:14.407426 47888 net.cpp:165] Memory required for data: 3336000072
I0713 09:13:14.407434 47888 layer_factory.hpp:76] Creating layer conv21
I0713 09:13:14.407451 47888 net.cpp:106] Creating Layer conv21
I0713 09:13:14.407459 47888 net.cpp:454] conv21 <- pool1
I0713 09:13:14.407511 47888 net.cpp:411] conv21 -> conv21
I0713 09:13:14.409801 47888 net.cpp:150] Setting up conv21
I0713 09:13:14.409826 47888 net.cpp:157] Top shape: 6 64 500 500 (96000000)
I0713 09:13:14.409837 47888 net.cpp:165] Memory required for data: 3720000072
I0713 09:13:14.409852 47888 layer_factory.hpp:76] Creating layer relu21
I0713 09:13:14.409868 47888 net.cpp:106] Creating Layer relu21
I0713 09:13:14.409876 47888 net.cpp:454] relu21 <- conv21
I0713 09:13:14.409888 47888 net.cpp:397] relu21 -> conv21 (in-place)
I0713 09:13:14.410274 47888 net.cpp:150] Setting up relu21
I0713 09:13:14.410295 47888 net.cpp:157] Top shape: 6 64 500 500 (96000000)
I0713 09:13:14.410305 47888 net.cpp:165] Memory required for data: 4104000072
I0713 09:13:14.410313 47888 layer_factory.hpp:76] Creating layer conv22
I0713 09:13:14.410328 47888 net.cpp:106] Creating Layer conv22
I0713 09:13:14.410337 47888 net.cpp:454] conv22 <- conv21
I0713 09:13:14.410348 47888 net.cpp:411] conv22 -> conv22
I0713 09:13:14.412875 47888 cudnn_conv_layer.cpp:194] Reallocating workspace storage: 6912
I0713 09:13:14.412935 47888 net.cpp:150] Setting up conv22
I0713 09:13:14.412950 47888 net.cpp:157] Top shape: 6 64 500 500 (96000000)
I0713 09:13:14.412960 47888 net.cpp:165] Memory required for data: 4488000072
I0713 09:13:14.412973 47888 layer_factory.hpp:76] Creating layer relu22
I0713 09:13:14.412986 47888 net.cpp:106] Creating Layer relu22
I0713 09:13:14.412995 47888 net.cpp:454] relu22 <- conv22
I0713 09:13:14.413007 47888 net.cpp:397] relu22 -> conv22 (in-place)
I0713 09:13:14.413388 47888 net.cpp:150] Setting up relu22
I0713 09:13:14.413409 47888 net.cpp:157] Top shape: 6 64 500 500 (96000000)
I0713 09:13:14.413419 47888 net.cpp:165] Memory required for data: 4872000072
I0713 09:13:14.413429 47888 layer_factory.hpp:76] Creating layer pool2
I0713 09:13:14.413442 47888 net.cpp:106] Creating Layer pool2
I0713 09:13:14.413451 47888 net.cpp:454] pool2 <- conv22
I0713 09:13:14.413462 47888 net.cpp:411] pool2 -> pool2
I0713 09:13:14.413681 47888 net.cpp:150] Setting up pool2
I0713 09:13:14.413699 47888 net.cpp:157] Top shape: 6 64 250 250 (24000000)
I0713 09:13:14.413708 47888 net.cpp:165] Memory required for data: 4968000072
I0713 09:13:14.413717 47888 layer_factory.hpp:76] Creating layer conv31
I0713 09:13:14.413733 47888 net.cpp:106] Creating Layer conv31
I0713 09:13:14.413740 47888 net.cpp:454] conv31 <- pool2
I0713 09:13:14.413753 47888 net.cpp:411] conv31 -> conv31
I0713 09:13:14.416347 47888 cudnn_conv_layer.cpp:194] Reallocating workspace storage: 6912
I0713 09:13:14.416409 47888 net.cpp:150] Setting up conv31
I0713 09:13:14.416424 47888 net.cpp:157] Top shape: 6 96 250 250 (36000000)
I0713 09:13:14.416434 47888 net.cpp:165] Memory required for data: 5112000072
I0713 09:13:14.416452 47888 layer_factory.hpp:76] Creating layer relu31
I0713 09:13:14.416467 47888 net.cpp:106] Creating Layer relu31
I0713 09:13:14.416477 47888 net.cpp:454] relu31 <- conv31
I0713 09:13:14.416488 47888 net.cpp:397] relu31 -> conv31 (in-place)
I0713 09:13:14.416846 47888 net.cpp:150] Setting up relu31
I0713 09:13:14.416868 47888 net.cpp:157] Top shape: 6 96 250 250 (36000000)
I0713 09:13:14.416877 47888 net.cpp:165] Memory required for data: 5256000072
I0713 09:13:14.416887 47888 layer_factory.hpp:76] Creating layer conv32
I0713 09:13:14.416903 47888 net.cpp:106] Creating Layer conv32
I0713 09:13:14.416911 47888 net.cpp:454] conv32 <- conv31
I0713 09:13:14.416923 47888 net.cpp:411] conv32 -> conv32
I0713 09:13:14.418655 47888 cudnn_conv_layer.cpp:194] Reallocating workspace storage: 10368
I0713 09:13:14.418696 47888 net.cpp:150] Setting up conv32
I0713 09:13:14.418710 47888 net.cpp:157] Top shape: 6 96 250 250 (36000000)
I0713 09:13:14.418718 47888 net.cpp:165] Memory required for data: 5400000072
I0713 09:13:14.418731 47888 layer_factory.hpp:76] Creating layer relu32
I0713 09:13:14.418745 47888 net.cpp:106] Creating Layer relu32
I0713 09:13:14.418752 47888 net.cpp:454] relu32 <- conv32
I0713 09:13:14.418763 47888 net.cpp:397] relu32 -> conv32 (in-place)
I0713 09:13:14.419103 47888 net.cpp:150] Setting up relu32
I0713 09:13:14.419163 47888 net.cpp:157] Top shape: 6 96 250 250 (36000000)
I0713 09:13:14.419173 47888 net.cpp:165] Memory required for data: 5544000072
I0713 09:13:14.419183 47888 layer_factory.hpp:76] Creating layer pool3
I0713 09:13:14.419199 47888 net.cpp:106] Creating Layer pool3
I0713 09:13:14.419209 47888 net.cpp:454] pool3 <- conv32
I0713 09:13:14.419219 47888 net.cpp:411] pool3 -> pool3
I0713 09:13:14.419440 47888 net.cpp:150] Setting up pool3
I0713 09:13:14.419458 47888 net.cpp:157] Top shape: 6 96 125 125 (9000000)
I0713 09:13:14.419467 47888 net.cpp:165] Memory required for data: 5580000072
I0713 09:13:14.419476 47888 layer_factory.hpp:76] Creating layer conv41
I0713 09:13:14.419491 47888 net.cpp:106] Creating Layer conv41
I0713 09:13:14.419499 47888 net.cpp:454] conv41 <- pool3
I0713 09:13:14.419512 47888 net.cpp:411] conv41 -> conv41
I0713 09:13:14.421983 47888 cudnn_conv_layer.cpp:194] Reallocating workspace storage: 10368
I0713 09:13:14.422026 47888 net.cpp:150] Setting up conv41
I0713 09:13:14.422040 47888 net.cpp:157] Top shape: 6 128 125 125 (12000000)
I0713 09:13:14.422049 47888 net.cpp:165] Memory required for data: 5628000072
I0713 09:13:14.422060 47888 layer_factory.hpp:76] Creating layer relu41
I0713 09:13:14.422073 47888 net.cpp:106] Creating Layer relu41
I0713 09:13:14.422081 47888 net.cpp:454] relu41 <- conv41
I0713 09:13:14.422092 47888 net.cpp:397] relu41 -> conv41 (in-place)
I0713 09:13:14.422452 47888 net.cpp:150] Setting up relu41
I0713 09:13:14.422472 47888 net.cpp:157] Top shape: 6 128 125 125 (12000000)
I0713 09:13:14.422482 47888 net.cpp:165] Memory required for data: 5676000072
I0713 09:13:14.422490 47888 layer_factory.hpp:76] Creating layer conv42
I0713 09:13:14.422505 47888 net.cpp:106] Creating Layer conv42
I0713 09:13:14.422514 47888 net.cpp:454] conv42 <- conv41
I0713 09:13:14.422526 47888 net.cpp:411] conv42 -> conv42
I0713 09:13:14.424691 47888 cudnn_conv_layer.cpp:194] Reallocating workspace storage: 13824
I0713 09:13:14.424743 47888 net.cpp:150] Setting up conv42
I0713 09:13:14.424757 47888 net.cpp:157] Top shape: 6 128 125 125 (12000000)
I0713 09:13:14.424765 47888 net.cpp:165] Memory required for data: 5724000072
I0713 09:13:14.424778 47888 layer_factory.hpp:76] Creating layer relu42
I0713 09:13:14.424790 47888 net.cpp:106] Creating Layer relu42
I0713 09:13:14.424799 47888 net.cpp:454] relu42 <- conv42
I0713 09:13:14.424809 47888 net.cpp:397] relu42 -> conv42 (in-place)
I0713 09:13:14.424993 47888 net.cpp:150] Setting up relu42
I0713 09:13:14.425009 47888 net.cpp:157] Top shape: 6 128 125 125 (12000000)
I0713 09:13:14.425019 47888 net.cpp:165] Memory required for data: 5772000072
I0713 09:13:14.425040 47888 layer_factory.hpp:76] Creating layer pool4
I0713 09:13:14.425052 47888 net.cpp:106] Creating Layer pool4
I0713 09:13:14.425061 47888 net.cpp:454] pool4 <- conv42
I0713 09:13:14.425071 47888 net.cpp:411] pool4 -> pool4
I0713 09:13:14.425472 47888 net.cpp:150] Setting up pool4
I0713 09:13:14.425493 47888 net.cpp:157] Top shape: 6 128 63 63 (3048192)
I0713 09:13:14.425501 47888 net.cpp:165] Memory required for data: 5784192840
I0713 09:13:14.425510 47888 layer_factory.hpp:76] Creating layer conv51
I0713 09:13:14.425524 47888 net.cpp:106] Creating Layer conv51
I0713 09:13:14.425534 47888 net.cpp:454] conv51 <- pool4
I0713 09:13:14.425544 47888 net.cpp:411] conv51 -> conv51
I0713 09:13:14.432454 47888 net.cpp:150] Setting up conv51
I0713 09:13:14.432494 47888 net.cpp:157] Top shape: 6 256 63 63 (6096384)
I0713 09:13:14.432505 47888 net.cpp:165] Memory required for data: 5808578376
I0713 09:13:14.432524 47888 layer_factory.hpp:76] Creating layer relu51
I0713 09:13:14.432539 47888 net.cpp:106] Creating Layer relu51
I0713 09:13:14.432551 47888 net.cpp:454] relu51 <- conv51
I0713 09:13:14.432562 47888 net.cpp:397] relu51 -> conv51 (in-place)
I0713 09:13:14.432904 47888 net.cpp:150] Setting up relu51
I0713 09:13:14.432924 47888 net.cpp:157] Top shape: 6 256 63 63 (6096384)
I0713 09:13:14.432934 47888 net.cpp:165] Memory required for data: 5832963912
I0713 09:13:14.432984 47888 layer_factory.hpp:76] Creating layer conv52
I0713 09:13:14.433001 47888 net.cpp:106] Creating Layer conv52
I0713 09:13:14.433012 47888 net.cpp:454] conv52 <- conv51
I0713 09:13:14.433023 47888 net.cpp:411] conv52 -> conv52
I0713 09:13:14.442127 47888 cudnn_conv_layer.cpp:194] Reallocating workspace storage: 27648
I0713 09:13:14.442200 47888 net.cpp:150] Setting up conv52
I0713 09:13:14.442219 47888 net.cpp:157] Top shape: 6 256 63 63 (6096384)
I0713 09:13:14.442229 47888 net.cpp:165] Memory required for data: 5857349448
I0713 09:13:14.442251 47888 layer_factory.hpp:76] Creating layer relu52
I0713 09:13:14.442273 47888 net.cpp:106] Creating Layer relu52
I0713 09:13:14.442294 47888 net.cpp:454] relu52 <- conv52
I0713 09:13:14.442311 47888 net.cpp:397] relu52 -> conv52 (in-place)
I0713 09:13:14.442778 47888 net.cpp:150] Setting up relu52
I0713 09:13:14.442802 47888 net.cpp:157] Top shape: 6 256 63 63 (6096384)
I0713 09:13:14.442812 47888 net.cpp:165] Memory required for data: 5881734984
I0713 09:13:14.442822 47888 layer_factory.hpp:76] Creating layer conv53
I0713 09:13:14.442843 47888 net.cpp:106] Creating Layer conv53
I0713 09:13:14.442857 47888 net.cpp:454] conv53 <- conv52
I0713 09:13:14.442873 47888 net.cpp:411] conv53 -> conv53
I0713 09:13:14.480958 47888 cudnn_conv_layer.cpp:194] Reallocating workspace storage: 150528
I0713 09:13:14.481070 47888 net.cpp:150] Setting up conv53
I0713 09:13:14.481096 47888 net.cpp:157] Top shape: 6 256 57 57 (4990464)
I0713 09:13:14.481111 47888 net.cpp:165] Memory required for data: 5901696840
I0713 09:13:14.481135 47888 layer_factory.hpp:76] Creating layer relu53
I0713 09:13:14.481158 47888 net.cpp:106] Creating Layer relu53
I0713 09:13:14.481175 47888 net.cpp:454] relu53 <- conv53
I0713 09:13:14.481195 47888 net.cpp:397] relu53 -> conv53 (in-place)
I0713 09:13:14.481663 47888 net.cpp:150] Setting up relu53
I0713 09:13:14.481693 47888 net.cpp:157] Top shape: 6 256 57 57 (4990464)
I0713 09:13:14.481708 47888 net.cpp:165] Memory required for data: 5921658696
I0713 09:13:14.481722 47888 layer_factory.hpp:76] Creating layer conv61
I0713 09:13:14.481748 47888 net.cpp:106] Creating Layer conv61
I0713 09:13:14.481763 47888 net.cpp:454] conv61 <- conv53
I0713 09:13:14.481784 47888 net.cpp:411] conv61 -> conv61
I0713 09:13:14.485501 47888 cudnn_conv_layer.cpp:194] Reallocating workspace storage: 27648
I0713 09:13:14.485549 47888 net.cpp:150] Setting up conv61
I0713 09:13:14.485569 47888 net.cpp:157] Top shape: 6 64 57 57 (1247616)
I0713 09:13:14.485584 47888 net.cpp:165] Memory required for data: 5926649160
I0713 09:13:14.485604 47888 layer_factory.hpp:76] Creating layer relu61
I0713 09:13:14.485622 47888 net.cpp:106] Creating Layer relu61
I0713 09:13:14.485636 47888 net.cpp:454] relu61 <- conv61
I0713 09:13:14.485656 47888 net.cpp:397] relu61 -> conv61 (in-place)
I0713 09:13:14.486114 47888 net.cpp:150] Setting up relu61
I0713 09:13:14.486141 47888 net.cpp:157] Top shape: 6 64 57 57 (1247616)
I0713 09:13:14.486156 47888 net.cpp:165] Memory required for data: 5931639624
I0713 09:13:14.486171 47888 layer_factory.hpp:76] Creating layer conv62
I0713 09:13:14.486196 47888 net.cpp:106] Creating Layer conv62
I0713 09:13:14.486212 47888 net.cpp:454] conv62 <- conv61
I0713 09:13:14.486238 47888 net.cpp:411] conv62 -> conv62
I0713 09:13:14.488270 47888 net.cpp:150] Setting up conv62
I0713 09:13:14.488301 47888 net.cpp:157] Top shape: 6 64 57 57 (1247616)
I0713 09:13:14.488317 47888 net.cpp:165] Memory required for data: 5936630088
I0713 09:13:14.488337 47888 layer_factory.hpp:76] Creating layer relu62
I0713 09:13:14.488358 47888 net.cpp:106] Creating Layer relu62
I0713 09:13:14.488373 47888 net.cpp:454] relu62 <- conv62
I0713 09:13:14.488391 47888 net.cpp:397] relu62 -> conv62 (in-place)
I0713 09:13:14.488662 47888 net.cpp:150] Setting up relu62
I0713 09:13:14.488687 47888 net.cpp:157] Top shape: 6 64 57 57 (1247616)
I0713 09:13:14.488700 47888 net.cpp:165] Memory required for data: 5941620552
I0713 09:13:14.488714 47888 layer_factory.hpp:76] Creating layer pool5
I0713 09:13:14.488796 47888 net.cpp:106] Creating Layer pool5
I0713 09:13:14.488813 47888 net.cpp:454] pool5 <- conv62
I0713 09:13:14.488833 47888 net.cpp:411] pool5 -> pool5
I0713 09:13:14.489367 47888 net.cpp:150] Setting up pool5
I0713 09:13:14.489395 47888 net.cpp:157] Top shape: 6 64 29 29 (322944)
I0713 09:13:14.489409 47888 net.cpp:165] Memory required for data: 5942912328
I0713 09:13:14.489424 47888 layer_factory.hpp:76] Creating layer conv71
I0713 09:13:14.489447 47888 net.cpp:106] Creating Layer conv71
I0713 09:13:14.489461 47888 net.cpp:454] conv71 <- pool5
I0713 09:13:14.489481 47888 net.cpp:411] conv71 -> conv71
I0713 09:13:14.491665 47888 cudnn_conv_layer.cpp:194] Reallocating workspace storage: 6912
I0713 09:13:14.491749 47888 net.cpp:150] Setting up conv71
I0713 09:13:14.491771 47888 net.cpp:157] Top shape: 6 96 29 29 (484416)
I0713 09:13:14.491786 47888 net.cpp:165] Memory required for data: 5944849992
I0713 09:13:14.491804 47888 layer_factory.hpp:76] Creating layer relu71
I0713 09:13:14.491827 47888 net.cpp:106] Creating Layer relu71
I0713 09:13:14.491842 47888 net.cpp:454] relu71 <- conv71
I0713 09:13:14.491859 47888 net.cpp:397] relu71 -> conv71 (in-place)
I0713 09:13:14.492133 47888 net.cpp:150] Setting up relu71
I0713 09:13:14.492157 47888 net.cpp:157] Top shape: 6 96 29 29 (484416)
I0713 09:13:14.492172 47888 net.cpp:165] Memory required for data: 5946787656
I0713 09:13:14.492185 47888 layer_factory.hpp:76] Creating layer conv72
I0713 09:13:14.492208 47888 net.cpp:106] Creating Layer conv72
I0713 09:13:14.492223 47888 net.cpp:454] conv72 <- conv71
I0713 09:13:14.492243 47888 net.cpp:411] conv72 -> conv72
I0713 09:13:14.494735 47888 cudnn_conv_layer.cpp:194] Reallocating workspace storage: 10368
I0713 09:13:14.494802 47888 net.cpp:150] Setting up conv72
I0713 09:13:14.494823 47888 net.cpp:157] Top shape: 6 96 29 29 (484416)
I0713 09:13:14.494837 47888 net.cpp:165] Memory required for data: 5948725320
I0713 09:13:14.494858 47888 layer_factory.hpp:76] Creating layer relu72
I0713 09:13:14.494877 47888 net.cpp:106] Creating Layer relu72
I0713 09:13:14.494892 47888 net.cpp:454] relu72 <- conv72
I0713 09:13:14.494911 47888 net.cpp:397] relu72 -> conv72 (in-place)
I0713 09:13:14.495395 47888 net.cpp:150] Setting up relu72
I0713 09:13:14.495424 47888 net.cpp:157] Top shape: 6 96 29 29 (484416)
I0713 09:13:14.495437 47888 net.cpp:165] Memory required for data: 5950662984
I0713 09:13:14.495452 47888 layer_factory.hpp:76] Creating layer pool6
I0713 09:13:14.495476 47888 net.cpp:106] Creating Layer pool6
I0713 09:13:14.495491 47888 net.cpp:454] pool6 <- conv72
I0713 09:13:14.495508 47888 net.cpp:411] pool6 -> pool6
I0713 09:13:14.495867 47888 net.cpp:150] Setting up pool6
I0713 09:13:14.495893 47888 net.cpp:157] Top shape: 6 96 15 15 (129600)
I0713 09:13:14.495906 47888 net.cpp:165] Memory required for data: 5951181384
I0713 09:13:14.495919 47888 layer_factory.hpp:76] Creating layer conv81
I0713 09:13:14.495946 47888 net.cpp:106] Creating Layer conv81
I0713 09:13:14.495960 47888 net.cpp:454] conv81 <- pool6
I0713 09:13:14.495978 47888 net.cpp:411] conv81 -> conv81
I0713 09:13:14.499647 47888 net.cpp:150] Setting up conv81
I0713 09:13:14.499682 47888 net.cpp:157] Top shape: 6 128 15 15 (172800)
I0713 09:13:14.499696 47888 net.cpp:165] Memory required for data: 5951872584
I0713 09:13:14.499716 47888 layer_factory.hpp:76] Creating layer relu81
I0713 09:13:14.499737 47888 net.cpp:106] Creating Layer relu81
I0713 09:13:14.499750 47888 net.cpp:454] relu81 <- conv81
I0713 09:13:14.499781 47888 net.cpp:397] relu81 -> conv81 (in-place)
I0713 09:13:14.500061 47888 net.cpp:150] Setting up relu81
I0713 09:13:14.500085 47888 net.cpp:157] Top shape: 6 128 15 15 (172800)
I0713 09:13:14.500098 47888 net.cpp:165] Memory required for data: 5952563784
I0713 09:13:14.500111 47888 layer_factory.hpp:76] Creating layer conv82
I0713 09:13:14.500151 47888 net.cpp:106] Creating Layer conv82
I0713 09:13:14.500166 47888 net.cpp:454] conv82 <- conv81
I0713 09:13:14.500186 47888 net.cpp:411] conv82 -> conv82
I0713 09:13:14.503137 47888 net.cpp:150] Setting up conv82
I0713 09:13:14.503199 47888 net.cpp:157] Top shape: 6 128 15 15 (172800)
I0713 09:13:14.503213 47888 net.cpp:165] Memory required for data: 5953254984
I0713 09:13:14.503248 47888 layer_factory.hpp:76] Creating layer relu82
I0713 09:13:14.503283 47888 net.cpp:106] Creating Layer relu82
I0713 09:13:14.503296 47888 net.cpp:454] relu82 <- conv82
I0713 09:13:14.503314 47888 net.cpp:397] relu82 -> conv82 (in-place)
I0713 09:13:14.503816 47888 net.cpp:150] Setting up relu82
I0713 09:13:14.503844 47888 net.cpp:157] Top shape: 6 128 15 15 (172800)
I0713 09:13:14.503856 47888 net.cpp:165] Memory required for data: 5953946184
I0713 09:13:14.503903 47888 layer_factory.hpp:76] Creating layer pool7
I0713 09:13:14.503931 47888 net.cpp:106] Creating Layer pool7
I0713 09:13:14.503938 47888 net.cpp:454] pool7 <- conv82
I0713 09:13:14.503947 47888 net.cpp:411] pool7 -> pool7
I0713 09:13:14.504559 47888 net.cpp:150] Setting up pool7
I0713 09:13:14.504571 47888 net.cpp:157] Top shape: 6 128 8 8 (49152)
I0713 09:13:14.504576 47888 net.cpp:165] Memory required for data: 5954142792
I0713 09:13:14.504581 47888 layer_factory.hpp:76] Creating layer drop0
I0713 09:13:14.504591 47888 net.cpp:106] Creating Layer drop0
I0713 09:13:14.504596 47888 net.cpp:454] drop0 <- pool7
I0713 09:13:14.504602 47888 net.cpp:397] drop0 -> pool7 (in-place)
I0713 09:13:14.504647 47888 net.cpp:150] Setting up drop0
I0713 09:13:14.504654 47888 net.cpp:157] Top shape: 6 128 8 8 (49152)
I0713 09:13:14.504658 47888 net.cpp:165] Memory required for data: 5954339400
I0713 09:13:14.504662 47888 layer_factory.hpp:76] Creating layer conv91
I0713 09:13:14.504686 47888 net.cpp:106] Creating Layer conv91
I0713 09:13:14.504693 47888 net.cpp:454] conv91 <- pool7
I0713 09:13:14.504700 47888 net.cpp:411] conv91 -> conv91
I0713 09:13:14.506008 47888 cudnn_conv_layer.cpp:194] Reallocating workspace storage: 98304
I0713 09:13:14.506041 47888 net.cpp:150] Setting up conv91
I0713 09:13:14.506048 47888 net.cpp:157] Top shape: 6 3 1 1 (18)
I0713 09:13:14.506052 47888 net.cpp:165] Memory required for data: 5954339472
I0713 09:13:14.506062 47888 layer_factory.hpp:76] Creating layer conv91_conv91_0_split
I0713 09:13:14.506072 47888 net.cpp:106] Creating Layer conv91_conv91_0_split
I0713 09:13:14.506088 47888 net.cpp:454] conv91_conv91_0_split <- conv91
I0713 09:13:14.506095 47888 net.cpp:411] conv91_conv91_0_split -> conv91_conv91_0_split_0
I0713 09:13:14.506103 47888 net.cpp:411] conv91_conv91_0_split -> conv91_conv91_0_split_1
I0713 09:13:14.506167 47888 net.cpp:150] Setting up conv91_conv91_0_split
I0713 09:13:14.506175 47888 net.cpp:157] Top shape: 6 3 1 1 (18)
I0713 09:13:14.506180 47888 net.cpp:157] Top shape: 6 3 1 1 (18)
I0713 09:13:14.506183 47888 net.cpp:165] Memory required for data: 5954339616
I0713 09:13:14.506187 47888 layer_factory.hpp:76] Creating layer accuracy
I0713 09:13:14.506194 47888 net.cpp:106] Creating Layer accuracy
I0713 09:13:14.506198 47888 net.cpp:454] accuracy <- conv91_conv91_0_split_0
I0713 09:13:14.506204 47888 net.cpp:454] accuracy <- label_data_1_split_0
I0713 09:13:14.506211 47888 net.cpp:411] accuracy -> accuracy
…
