…
I0712 18:26:34.904242 45537 solver.cpp:90] Creating training net from net file: train_val-resultlayer.prototxt
I0712 18:26:34.905380 45537 net.cpp:322] The NetState phase (0) differed from the phase (1) specified by a rule in layer data
I0712 18:26:34.905750 45537 net.cpp:49] Initializing net from parameters: 
name: "FaceNN"
state {
  phase: TRAIN
}
layer {
  name: "data"
  type: "ImageData"
  top: "data"
  top: "label"
  include {
    phase: TRAIN
  }
  transform_param {
    mirror: true
    mean_value: 104
    mean_value: 117
    mean_value: 123
  }
  image_data_param {
    source: "../lists/mitosis_train.lst"
    batch_size: 8
    shuffle: true
  }
}
layer {
  name: "conv11"
  type: "Convolution"
  bottom: "data"
  top: "conv11"
  param {
    lr_mult: 0
    decay_mult: 1
  }
  param {
    lr_mult: 0
    decay_mult: 0
  }
  convolution_param {
    num_output: 32
    pad: 1
    stride: 1
    weight_filler {
      type: "xavier"
    }
    bias_filler {
      type: "constant"
    }
    kernel_h: 3
    kernel_w: 3
  }
}
layer {
  name: "relu11"
  type: "ReLU"
  bottom: "conv11"
  top: "conv11"
}
layer {
  name: "conv12"
  type: "Convolution"
  bottom: "conv11"
  top: "conv12"
  param {
    lr_mult: 0
    decay_mult: 1
  }
  param {
    lr_mult: 0
    decay_mult: 0
  }
  convolution_param {
    num_output: 32
    pad: 1
    stride: 1
    weight_filler {
      type: "xavier"
    }
    bias_filler {
      type: "constant"
    }
    kernel_h: 3
    kernel_w: 3
  }
}
layer {
  name: "relu12"
  type: "ReLU"
  bottom: "conv12"
  top: "conv12"
}
layer {
  name: "pool1"
  type: "Pooling"
  bottom: "conv12"
  top: "pool1"
  pooling_param {
    pool: MAX
    kernel_size: 2
    stride: 2
  }
}
layer {
  name: "conv21"
  type: "Convolution"
  bottom: "pool1"
  top: "conv21"
  param {
    lr_mult: 0
    decay_mult: 1
  }
  param {
    lr_mult: 0
    decay_mult: 0
  }
  convolution_param {
    num_output: 64
    pad: 1
    stride: 1
    weight_filler {
      type: "xavier"
    }
    bias_filler {
      type: "constant"
    }
    kernel_h: 3
    kernel_w: 3
  }
}
layer {
  name: "relu21"
  type: "ReLU"
  bottom: "conv21"
  top: "conv21"
}
layer {
  name: "conv22"
  type: "Convolution"
  bottom: "conv21"
  top: "conv22"
  param {
    lr_mult: 0
    decay_mult: 1
  }
  param {
    lr_mult: 0
    decay_mult: 0
  }
  convolution_param {
    num_output: 64
    pad: 1
    stride: 1
    weight_filler {
      type: "xavier"
    }
    bias_filler {
      type: "constant"
    }
    kernel_h: 3
    kernel_w: 3
  }
}
layer {
  name: "relu22"
  type: "ReLU"
  bottom: "conv22"
  top: "conv22"
}
layer {
  name: "pool2"
  type: "Pooling"
  bottom: "conv22"
  top: "pool2"
  pooling_param {
    pool: MAX
    kernel_size: 2
    stride: 2
  }
}
layer {
  name: "conv31"
  type: "Convolution"
  bottom: "pool2"
  top: "conv31"
  param {
    lr_mult: 0
    decay_mult: 1
  }
  param {
    lr_mult: 0
    decay_mult: 0
  }
  convolution_param {
    num_output: 96
    pad: 1
    stride: 1
    weight_filler {
      type: "xavier"
    }
    bias_filler {
      type: "constant"
    }
    kernel_h: 3
    kernel_w: 3
  }
}
layer {
  name: "relu31"
  type: "ReLU"
  bottom: "conv31"
  top: "conv31"
}
layer {
  name: "conv32"
  type: "Convolution"
  bottom: "conv31"
  top: "conv32"
  param {
    lr_mult: 0
    decay_mult: 1
  }
  param {
    lr_mult: 0
    decay_mult: 0
  }
  convolution_param {
    num_output: 96
    pad: 1
    stride: 1
    weight_filler {
      type: "xavier"
    }
    bias_filler {
      type: "constant"
    }
    kernel_h: 3
    kernel_w: 3
  }
}
layer {
  name: "relu32"
  type: "ReLU"
  bottom: "conv32"
  top: "conv32"
}
layer {
  name: "pool3"
  type: "Pooling"
  bottom: "conv32"
  top: "pool3"
  pooling_param {
    pool: MAX
    kernel_size: 2
    stride: 2
  }
}
layer {
  name: "conv41"
  type: "Convolution"
  bottom: "pool3"
  top: "conv41"
  param {
    lr_mult: 0
    decay_mult: 1
  }
  param {
    lr_mult: 0
    decay_mult: 0
  }
  convolution_param {
    num_output: 128
    pad: 1
    stride: 1
    weight_filler {
      type: "xavier"
    }
    bias_filler {
      type: "constant"
    }
    kernel_h: 3
    kernel_w: 3
  }
}
layer {
  name: "relu41"
  type: "ReLU"
  bottom: "conv41"
  top: "conv41"
}
layer {
  name: "conv42"
  type: "Convolution"
  bottom: "conv41"
  top: "conv42"
  param {
    lr_mult: 0
    decay_mult: 1
  }
  param {
    lr_mult: 0
    decay_mult: 0
  }
  convolution_param {
    num_output: 128
    pad: 1
    stride: 1
    weight_filler {
      type: "xavier"
    }
    bias_filler {
      type: "constant"
    }
    kernel_h: 3
    kernel_w: 3
  }
}
layer {
  name: "relu42"
  type: "ReLU"
  bottom: "conv42"
  top: "conv42"
}
layer {
  name: "pool4"
  type: "Pooling"
  bottom: "conv42"
  top: "pool4"
  pooling_param {
    pool: MAX
    kernel_size: 2
    stride: 2
  }
}
layer {
  name: "conv51"
  type: "Convolution"
  bottom: "pool4"
  top: "conv51"
  param {
    lr_mult: 0
    decay_mult: 1
  }
  param {
    lr_mult: 0
    decay_mult: 0
  }
  convolution_param {
    num_output: 256
    pad: 1
    stride: 1
    weight_filler {
      type: "xavier"
    }
    bias_filler {
      type: "constant"
    }
    kernel_h: 3
    kernel_w: 3
  }
}
layer {
  name: "relu51"
  type: "ReLU"
  bottom: "conv51"
  top: "conv51"
}
layer {
  name: "conv52"
  type: "Convolution"
  bottom: "conv51"
  top: "conv52"
  param {
    lr_mult: 0
    decay_mult: 1
  }
  param {
    lr_mult: 0
    decay_mult: 0
  }
  convolution_param {
    num_output: 256
    pad: 1
    stride: 1
    weight_filler {
      type: "xavier"
    }
    bias_filler {
      type: "constant"
    }
    kernel_h: 3
    kernel_w: 3
  }
}
layer {
  name: "relu52"
  type: "ReLU"
  bottom: "conv52"
  top: "conv52"
}
layer {
  name: "conv53"
  type: "Convolution"
  bottom: "conv52"
  top: "conv53"
  param {
    lr_mult: 0
    decay_mult: 1
  }
  param {
    lr_mult: 0
    decay_mult: 0
  }
  convolution_param {
    num_output: 256
    stride: 1
    weight_filler {
      type: "xavier"
    }
    bias_filler {
      type: "constant"
    }
    kernel_h: 7
    kernel_w: 7
  }
}
layer {
  name: "relu53"
  type: "ReLU"
  bottom: "conv53"
  top: "conv53"
}
layer {
  name: "conv54"
  type: "Convolution"
  bottom: "conv53"
  top: "conv54"
  param {
    lr_mult: 1
    decay_mult: 1
  }
  param {
    lr_mult: 2
    decay_mult: 0
  }
  convolution_param {
    num_output: 2
    stride: 1
    weight_filler {
      type: "xavier"
    }
    bias_filler {
      type: "constant"
    }
    kernel_h: 1
    kernel_w: 1
  }
}
layer {
  name: "interloss"
  type: "Softmax"
  bottom: "conv54"
  top: "interloss"
}
layer {
  name: "conv61"
  type: "Convolution"
  bottom: "interloss"
  top: "conv61"
  param {
    lr_mult: 1
    decay_mult: 1
  }
  param {
    lr_mult: 2
    decay_mult: 0
  }
  convolution_param {
    num_output: 64
    pad: 1
    stride: 1
    weight_filler {
      type: "xavier"
    }
    bias_filler {
      type: "constant"
    }
    kernel_h: 3
    kernel_w: 3
  }
}
layer {
  name: "relu61"
  type: "ReLU"
  bottom: "conv61"
  top: "conv61"
}
layer {
  name: "conv62"
  type: "Convolution"
  bottom: "conv61"
  top: "conv62"
  param {
    lr_mult: 1
    decay_mult: 1
  }
  param {
    lr_mult: 2
    decay_mult: 0
  }
  convolution_param {
    num_output: 64
    pad: 1
    stride: 1
    weight_filler {
      type: "xavier"
    }
    bias_filler {
      type: "constant"
    }
    kernel_h: 3
    kernel_w: 3
  }
}
layer {
  name: "relu62"
  type: "ReLU"
  bottom: "conv62"
  top: "conv62"
}
layer {
  name: "conv63"
  type: "Convolution"
  bottom: "conv62"
  top: "conv63"
  param {
    lr_mult: 1
    decay_mult: 1
  }
  param {
    lr_mult: 2
    decay_mult: 0
  }
  convolution_param {
    num_output: 64
    pad: 1
    stride: 1
    weight_filler {
      type: "xavier"
    }
    bias_filler {
      type: "constant"
    }
    kernel_h: 3
    kernel_w: 3
  }
}
layer {
  name: "relu63"
  type: "ReLU"
  bottom: "conv63"
  top: "conv63"
}
layer {
  name: "pool5"
  type: "Pooling"
  bottom: "conv63"
  top: "pool5"
  pooling_param {
    pool: MAX
    kernel_size: 2
    stride: 2
  }
}
layer {
  name: "conv71"
  type: "Convolution"
  bottom: "pool5"
  top: "conv71"
  param {
    lr_mult: 1
    decay_mult: 1
  }
  param {
    lr_mult: 2
    decay_mult: 0
  }
  convolution_param {
    num_output: 128
    pad: 1
    stride: 1
    weight_filler {
      type: "xavier"
    }
    bias_filler {
      type: "constant"
    }
    kernel_h: 3
    kernel_w: 3
  }
}
layer {
  name: "relu71"
  type: "ReLU"
  bottom: "conv71"
  top: "conv71"
}
layer {
  name: "conv72"
  type: "Convolution"
  bottom: "conv71"
  top: "conv72"
  param {
    lr_mult: 1
    decay_mult: 1
  }
  param {
    lr_mult: 2
    decay_mult: 0
  }
  convolution_param {
    num_output: 128
    pad: 1
    stride: 1
    weight_filler {
      type: "xavier"
    }
    bias_filler {
      type: "constant"
    }
    kernel_h: 3
    kernel_w: 3
  }
}
layer {
  name: "relu72"
  type: "ReLU"
  bottom: "conv72"
  top: "conv72"
}
layer {
  name: "conv73"
  type: "Convolution"
  bottom: "conv72"
  top: "conv73"
  param {
    lr_mult: 1
    decay_mult: 1
  }
  param {
    lr_mult: 2
    decay_mult: 0
  }
  convolution_param {
    num_output: 128
    pad: 1
    stride: 1
    weight_filler {
      type: "xavier"
    }
    bias_filler {
      type: "constant"
    }
    kernel_h: 3
    kernel_w: 3
  }
}
layer {
  name: "relu73"
  type: "ReLU"
  bottom: "conv73"
  top: "conv73"
}
layer {
  name: "pool6"
  type: "Pooling"
  bottom: "conv73"
  top: "pool6"
  pooling_param {
    pool: AVE
    kernel_size: 2
    stride: 2
  }
}
layer {
  name: "drop0"
  type: "Dropout"
  bottom: "pool6"
  top: "pool6"
  dropout_param {
    dropout_ratio: 0.4
  }
}
layer {
  name: "conv81"
  type: "Convolution"
  bottom: "pool6"
  top: "conv81"
  param {
    lr_mult: 1
    decay_mult: 1
  }
  param {
    lr_mult: 2
    decay_mult: 0
  }
  convolution_param {
    num_output: 3
    stride: 1
    weight_filler {
      type: "xavier"
    }
    bias_filler {
      type: "constant"
    }
    kernel_h: 15
    kernel_w: 15
  }
}
layer {
  name: "accuracy"
  type: "Accuracy"
  bottom: "conv81"
  bottom: "label"
  top: "accuracy"
}
layer {
  name: "loss"
  type: "SoftmaxWithLoss"
  bottom: "conv81"
  bottom: "label"
  top: "loss"
}
I0712 18:26:34.908474 45537 layer_factory.hpp:76] Creating layer data
I0712 18:26:34.908529 45537 net.cpp:106] Creating Layer data
I0712 18:26:34.908543 45537 net.cpp:411] data -> data
I0712 18:26:34.908586 45537 net.cpp:411] data -> label
I0712 18:26:34.909044 45537 image_data_layer.cpp:36] Opening file ../lists/mitosis_train.lst
I0712 18:26:34.922868 45537 image_data_layer.cpp:46] Shuffling data
I0712 18:26:34.924793 45537 image_data_layer.cpp:51] A total of 23544 images.
I0712 18:26:34.999770 45537 image_data_layer.cpp:78] output data size: 8,3,1000,1000
I0712 18:26:35.253810 45537 net.cpp:150] Setting up data
I0712 18:26:35.253906 45537 net.cpp:157] Top shape: 8 3 1000 1000 (24000000)
I0712 18:26:35.253949 45537 net.cpp:157] Top shape: 8 (8)
I0712 18:26:35.253957 45537 net.cpp:165] Memory required for data: 96000032
I0712 18:26:35.253971 45537 layer_factory.hpp:76] Creating layer label_data_1_split
I0712 18:26:35.253998 45537 net.cpp:106] Creating Layer label_data_1_split
I0712 18:26:35.254009 45537 net.cpp:454] label_data_1_split <- label
I0712 18:26:35.254030 45537 net.cpp:411] label_data_1_split -> label_data_1_split_0
I0712 18:26:35.254052 45537 net.cpp:411] label_data_1_split -> label_data_1_split_1
I0712 18:26:35.254128 45537 net.cpp:150] Setting up label_data_1_split
I0712 18:26:35.254140 45537 net.cpp:157] Top shape: 8 (8)
I0712 18:26:35.254148 45537 net.cpp:157] Top shape: 8 (8)
I0712 18:26:35.254154 45537 net.cpp:165] Memory required for data: 96000096
I0712 18:26:35.254163 45537 layer_factory.hpp:76] Creating layer conv11
I0712 18:26:35.254225 45537 net.cpp:106] Creating Layer conv11
I0712 18:26:35.254232 45537 net.cpp:454] conv11 <- data
I0712 18:26:35.254246 45537 net.cpp:411] conv11 -> conv11
I0712 18:26:35.436038 45537 net.cpp:150] Setting up conv11
I0712 18:26:35.436095 45537 net.cpp:157] Top shape: 8 32 1000 1000 (256000000)
I0712 18:26:35.436106 45537 net.cpp:165] Memory required for data: 1120000096
I0712 18:26:35.436138 45537 layer_factory.hpp:76] Creating layer relu11
I0712 18:26:35.436159 45537 net.cpp:106] Creating Layer relu11
I0712 18:26:35.436172 45537 net.cpp:454] relu11 <- conv11
I0712 18:26:35.436184 45537 net.cpp:397] relu11 -> conv11 (in-place)
I0712 18:26:35.436424 45537 net.cpp:150] Setting up relu11
I0712 18:26:35.436446 45537 net.cpp:157] Top shape: 8 32 1000 1000 (256000000)
I0712 18:26:35.436463 45537 net.cpp:165] Memory required for data: 2144000096
I0712 18:26:35.436472 45537 layer_factory.hpp:76] Creating layer conv12
I0712 18:26:35.436492 45537 net.cpp:106] Creating Layer conv12
I0712 18:26:35.436501 45537 net.cpp:454] conv12 <- conv11
I0712 18:26:35.436513 45537 net.cpp:411] conv12 -> conv12
I0712 18:26:35.441004 45537 net.cpp:150] Setting up conv12
I0712 18:26:35.441047 45537 net.cpp:157] Top shape: 8 32 1000 1000 (256000000)
I0712 18:26:35.441058 45537 net.cpp:165] Memory required for data: 3168000096
I0712 18:26:35.441078 45537 layer_factory.hpp:76] Creating layer relu12
I0712 18:26:35.441094 45537 net.cpp:106] Creating Layer relu12
I0712 18:26:35.441104 45537 net.cpp:454] relu12 <- conv12
I0712 18:26:35.441128 45537 net.cpp:397] relu12 -> conv12 (in-place)
I0712 18:26:35.441485 45537 net.cpp:150] Setting up relu12
I0712 18:26:35.441507 45537 net.cpp:157] Top shape: 8 32 1000 1000 (256000000)
I0712 18:26:35.441516 45537 net.cpp:165] Memory required for data: 4192000096
I0712 18:26:35.441525 45537 layer_factory.hpp:76] Creating layer pool1
I0712 18:26:35.441540 45537 net.cpp:106] Creating Layer pool1
I0712 18:26:35.441547 45537 net.cpp:454] pool1 <- conv12
I0712 18:26:35.441560 45537 net.cpp:411] pool1 -> pool1
I0712 18:26:35.441833 45537 net.cpp:150] Setting up pool1
I0712 18:26:35.441854 45537 net.cpp:157] Top shape: 8 32 500 500 (64000000)
I0712 18:26:35.441864 45537 net.cpp:165] Memory required for data: 4448000096
I0712 18:26:35.441872 45537 layer_factory.hpp:76] Creating layer conv21
I0712 18:26:35.441890 45537 net.cpp:106] Creating Layer conv21
I0712 18:26:35.441898 45537 net.cpp:454] conv21 <- pool1
I0712 18:26:35.441911 45537 net.cpp:411] conv21 -> conv21
I0712 18:26:35.444519 45537 net.cpp:150] Setting up conv21
I0712 18:26:35.444556 45537 net.cpp:157] Top shape: 8 64 500 500 (128000000)
I0712 18:26:35.444567 45537 net.cpp:165] Memory required for data: 4960000096
I0712 18:26:35.444586 45537 layer_factory.hpp:76] Creating layer relu21
I0712 18:26:35.444602 45537 net.cpp:106] Creating Layer relu21
I0712 18:26:35.444617 45537 net.cpp:454] relu21 <- conv21
I0712 18:26:35.444629 45537 net.cpp:397] relu21 -> conv21 (in-place)
I0712 18:26:35.444977 45537 net.cpp:150] Setting up relu21
I0712 18:26:35.444998 45537 net.cpp:157] Top shape: 8 64 500 500 (128000000)
I0712 18:26:35.445006 45537 net.cpp:165] Memory required for data: 5472000096
I0712 18:26:35.445015 45537 layer_factory.hpp:76] Creating layer conv22
I0712 18:26:35.445032 45537 net.cpp:106] Creating Layer conv22
I0712 18:26:35.445042 45537 net.cpp:454] conv22 <- conv21
I0712 18:26:35.445055 45537 net.cpp:411] conv22 -> conv22
I0712 18:26:35.447077 45537 cudnn_conv_layer.cpp:194] Reallocating workspace storage: 6912
I0712 18:26:35.447319 45537 net.cpp:150] Setting up conv22
I0712 18:26:35.447346 45537 net.cpp:157] Top shape: 8 64 500 500 (128000000)
I0712 18:26:35.447356 45537 net.cpp:165] Memory required for data: 5984000096
I0712 18:26:35.447371 45537 layer_factory.hpp:76] Creating layer relu22
I0712 18:26:35.447384 45537 net.cpp:106] Creating Layer relu22
I0712 18:26:35.447402 45537 net.cpp:454] relu22 <- conv22
I0712 18:26:35.447412 45537 net.cpp:397] relu22 -> conv22 (in-place)
I0712 18:26:35.447746 45537 net.cpp:150] Setting up relu22
I0712 18:26:35.447800 45537 net.cpp:157] Top shape: 8 64 500 500 (128000000)
I0712 18:26:35.447811 45537 net.cpp:165] Memory required for data: 6496000096
I0712 18:26:35.447829 45537 layer_factory.hpp:76] Creating layer pool2
I0712 18:26:35.447841 45537 net.cpp:106] Creating Layer pool2
I0712 18:26:35.447849 45537 net.cpp:454] pool2 <- conv22
I0712 18:26:35.447860 45537 net.cpp:411] pool2 -> pool2
I0712 18:26:35.448081 45537 net.cpp:150] Setting up pool2
I0712 18:26:35.448099 45537 net.cpp:157] Top shape: 8 64 250 250 (32000000)
I0712 18:26:35.448108 45537 net.cpp:165] Memory required for data: 6624000096
I0712 18:26:35.448117 45537 layer_factory.hpp:76] Creating layer conv31
I0712 18:26:35.448133 45537 net.cpp:106] Creating Layer conv31
I0712 18:26:35.448143 45537 net.cpp:454] conv31 <- pool2
I0712 18:26:35.448155 45537 net.cpp:411] conv31 -> conv31
I0712 18:26:35.449661 45537 cudnn_conv_layer.cpp:194] Reallocating workspace storage: 6912
I0712 18:26:35.449702 45537 net.cpp:150] Setting up conv31
I0712 18:26:35.449714 45537 net.cpp:157] Top shape: 8 96 250 250 (48000000)
I0712 18:26:35.449731 45537 net.cpp:165] Memory required for data: 6816000096
I0712 18:26:35.449748 45537 layer_factory.hpp:76] Creating layer relu31
I0712 18:26:35.449760 45537 net.cpp:106] Creating Layer relu31
I0712 18:26:35.449772 45537 net.cpp:454] relu31 <- conv31
I0712 18:26:35.449785 45537 net.cpp:397] relu31 -> conv31 (in-place)
I0712 18:26:35.450110 45537 net.cpp:150] Setting up relu31
I0712 18:26:35.450130 45537 net.cpp:157] Top shape: 8 96 250 250 (48000000)
I0712 18:26:35.450139 45537 net.cpp:165] Memory required for data: 7008000096
I0712 18:26:35.450148 45537 layer_factory.hpp:76] Creating layer conv32
I0712 18:26:35.450165 45537 net.cpp:106] Creating Layer conv32
I0712 18:26:35.450176 45537 net.cpp:454] conv32 <- conv31
I0712 18:26:35.450188 45537 net.cpp:411] conv32 -> conv32
I0712 18:26:35.452558 45537 cudnn_conv_layer.cpp:194] Reallocating workspace storage: 10368
I0712 18:26:35.452600 45537 net.cpp:150] Setting up conv32
I0712 18:26:35.452615 45537 net.cpp:157] Top shape: 8 96 250 250 (48000000)
I0712 18:26:35.452631 45537 net.cpp:165] Memory required for data: 7200000096
I0712 18:26:35.452643 45537 layer_factory.hpp:76] Creating layer relu32
I0712 18:26:35.452656 45537 net.cpp:106] Creating Layer relu32
I0712 18:26:35.452666 45537 net.cpp:454] relu32 <- conv32
I0712 18:26:35.452679 45537 net.cpp:397] relu32 -> conv32 (in-place)
I0712 18:26:35.452868 45537 net.cpp:150] Setting up relu32
I0712 18:26:35.452895 45537 net.cpp:157] Top shape: 8 96 250 250 (48000000)
I0712 18:26:35.452905 45537 net.cpp:165] Memory required for data: 7392000096
I0712 18:26:35.452913 45537 layer_factory.hpp:76] Creating layer pool3
I0712 18:26:35.452929 45537 net.cpp:106] Creating Layer pool3
I0712 18:26:35.452937 45537 net.cpp:454] pool3 <- conv32
I0712 18:26:35.452947 45537 net.cpp:411] pool3 -> pool3
I0712 18:26:35.453316 45537 net.cpp:150] Setting up pool3
I0712 18:26:35.453344 45537 net.cpp:157] Top shape: 8 96 125 125 (12000000)
I0712 18:26:35.453353 45537 net.cpp:165] Memory required for data: 7440000096
I0712 18:26:35.453362 45537 layer_factory.hpp:76] Creating layer conv41
I0712 18:26:35.453383 45537 net.cpp:106] Creating Layer conv41
I0712 18:26:35.453393 45537 net.cpp:454] conv41 <- pool3
I0712 18:26:35.453408 45537 net.cpp:411] conv41 -> conv41
I0712 18:26:35.455178 45537 cudnn_conv_layer.cpp:194] Reallocating workspace storage: 10368
I0712 18:26:35.455215 45537 net.cpp:150] Setting up conv41
I0712 18:26:35.455231 45537 net.cpp:157] Top shape: 8 128 125 125 (16000000)
I0712 18:26:35.455241 45537 net.cpp:165] Memory required for data: 7504000096
I0712 18:26:35.455253 45537 layer_factory.hpp:76] Creating layer relu41
I0712 18:26:35.455270 45537 net.cpp:106] Creating Layer relu41
I0712 18:26:35.455278 45537 net.cpp:454] relu41 <- conv41
I0712 18:26:35.455288 45537 net.cpp:397] relu41 -> conv41 (in-place)
I0712 18:26:35.455791 45537 net.cpp:150] Setting up relu41
I0712 18:26:35.455812 45537 net.cpp:157] Top shape: 8 128 125 125 (16000000)
I0712 18:26:35.455852 45537 net.cpp:165] Memory required for data: 7568000096
I0712 18:26:35.455867 45537 layer_factory.hpp:76] Creating layer conv42
I0712 18:26:35.455885 45537 net.cpp:106] Creating Layer conv42
I0712 18:26:35.455895 45537 net.cpp:454] conv42 <- conv41
I0712 18:26:35.455906 45537 net.cpp:411] conv42 -> conv42
I0712 18:26:35.458936 45537 cudnn_conv_layer.cpp:194] Reallocating workspace storage: 13824
I0712 18:26:35.458984 45537 net.cpp:150] Setting up conv42
I0712 18:26:35.458999 45537 net.cpp:157] Top shape: 8 128 125 125 (16000000)
I0712 18:26:35.459008 45537 net.cpp:165] Memory required for data: 7632000096
I0712 18:26:35.459020 45537 layer_factory.hpp:76] Creating layer relu42
I0712 18:26:35.459044 45537 net.cpp:106] Creating Layer relu42
I0712 18:26:35.459053 45537 net.cpp:454] relu42 <- conv42
I0712 18:26:35.459064 45537 net.cpp:397] relu42 -> conv42 (in-place)
I0712 18:26:35.459252 45537 net.cpp:150] Setting up relu42
I0712 18:26:35.459270 45537 net.cpp:157] Top shape: 8 128 125 125 (16000000)
I0712 18:26:35.459280 45537 net.cpp:165] Memory required for data: 7696000096
I0712 18:26:35.459287 45537 layer_factory.hpp:76] Creating layer pool4
I0712 18:26:35.459300 45537 net.cpp:106] Creating Layer pool4
I0712 18:26:35.459308 45537 net.cpp:454] pool4 <- conv42
I0712 18:26:35.459321 45537 net.cpp:411] pool4 -> pool4
I0712 18:26:35.459677 45537 net.cpp:150] Setting up pool4
I0712 18:26:35.459705 45537 net.cpp:157] Top shape: 8 128 63 63 (4064256)
I0712 18:26:35.459723 45537 net.cpp:165] Memory required for data: 7712257120
I0712 18:26:35.459733 45537 layer_factory.hpp:76] Creating layer conv51
I0712 18:26:35.459755 45537 net.cpp:106] Creating Layer conv51
I0712 18:26:35.459765 45537 net.cpp:454] conv51 <- pool4
I0712 18:26:35.459779 45537 net.cpp:411] conv51 -> conv51
I0712 18:26:35.465005 45537 cudnn_conv_layer.cpp:194] Reallocating workspace storage: 13824
I0712 18:26:35.465070 45537 net.cpp:150] Setting up conv51
I0712 18:26:35.465087 45537 net.cpp:157] Top shape: 8 256 63 63 (8128512)
I0712 18:26:35.465103 45537 net.cpp:165] Memory required for data: 7744771168
I0712 18:26:35.465123 45537 layer_factory.hpp:76] Creating layer relu51
I0712 18:26:35.465140 45537 net.cpp:106] Creating Layer relu51
I0712 18:26:35.465152 45537 net.cpp:454] relu51 <- conv51
I0712 18:26:35.465168 45537 net.cpp:397] relu51 -> conv51 (in-place)
I0712 18:26:35.465365 45537 net.cpp:150] Setting up relu51
I0712 18:26:35.465387 45537 net.cpp:157] Top shape: 8 256 63 63 (8128512)
I0712 18:26:35.465396 45537 net.cpp:165] Memory required for data: 7777285216
I0712 18:26:35.465405 45537 layer_factory.hpp:76] Creating layer conv52
I0712 18:26:35.465421 45537 net.cpp:106] Creating Layer conv52
I0712 18:26:35.465430 45537 net.cpp:454] conv52 <- conv51
I0712 18:26:35.465445 45537 net.cpp:411] conv52 -> conv52
I0712 18:26:35.472589 45537 cudnn_conv_layer.cpp:194] Reallocating workspace storage: 27648
I0712 18:26:35.472651 45537 net.cpp:150] Setting up conv52
I0712 18:26:35.472667 45537 net.cpp:157] Top shape: 8 256 63 63 (8128512)
I0712 18:26:35.472677 45537 net.cpp:165] Memory required for data: 7809799264
I0712 18:26:35.472692 45537 layer_factory.hpp:76] Creating layer relu52
I0712 18:26:35.472713 45537 net.cpp:106] Creating Layer relu52
I0712 18:26:35.472724 45537 net.cpp:454] relu52 <- conv52
I0712 18:26:35.472736 45537 net.cpp:397] relu52 -> conv52 (in-place)
I0712 18:26:35.473067 45537 net.cpp:150] Setting up relu52
I0712 18:26:35.473088 45537 net.cpp:157] Top shape: 8 256 63 63 (8128512)
I0712 18:26:35.473096 45537 net.cpp:165] Memory required for data: 7842313312
I0712 18:26:35.473105 45537 layer_factory.hpp:76] Creating layer conv53
I0712 18:26:35.473129 45537 net.cpp:106] Creating Layer conv53
I0712 18:26:35.473139 45537 net.cpp:454] conv53 <- conv52
I0712 18:26:35.473155 45537 net.cpp:411] conv53 -> conv53
I0712 18:26:35.507459 45537 cudnn_conv_layer.cpp:194] Reallocating workspace storage: 150528
I0712 18:26:35.507710 45537 net.cpp:150] Setting up conv53
I0712 18:26:35.507735 45537 net.cpp:157] Top shape: 8 256 57 57 (6653952)
I0712 18:26:35.507781 45537 net.cpp:165] Memory required for data: 7868929120
I0712 18:26:35.507804 45537 layer_factory.hpp:76] Creating layer relu53
I0712 18:26:35.507824 45537 net.cpp:106] Creating Layer relu53
I0712 18:26:35.507835 45537 net.cpp:454] relu53 <- conv53
I0712 18:26:35.507848 45537 net.cpp:397] relu53 -> conv53 (in-place)
I0712 18:26:35.508188 45537 net.cpp:150] Setting up relu53
I0712 18:26:35.508214 45537 net.cpp:157] Top shape: 8 256 57 57 (6653952)
I0712 18:26:35.508229 45537 net.cpp:165] Memory required for data: 7895544928
I0712 18:26:35.508236 45537 layer_factory.hpp:76] Creating layer conv54
I0712 18:26:35.508256 45537 net.cpp:106] Creating Layer conv54
I0712 18:26:35.508265 45537 net.cpp:454] conv54 <- conv53
I0712 18:26:35.508277 45537 net.cpp:411] conv54 -> conv54
I0712 18:26:35.509374 45537 net.cpp:150] Setting up conv54
I0712 18:26:35.509397 45537 net.cpp:157] Top shape: 8 2 57 57 (51984)
I0712 18:26:35.509407 45537 net.cpp:165] Memory required for data: 7895752864
I0712 18:26:35.509419 45537 layer_factory.hpp:76] Creating layer interloss
I0712 18:26:35.509434 45537 net.cpp:106] Creating Layer interloss
I0712 18:26:35.509443 45537 net.cpp:454] interloss <- conv54
I0712 18:26:35.509454 45537 net.cpp:411] interloss -> interloss
I0712 18:26:35.509724 45537 net.cpp:150] Setting up interloss
I0712 18:26:35.509742 45537 net.cpp:157] Top shape: 8 2 57 57 (51984)
I0712 18:26:35.509752 45537 net.cpp:165] Memory required for data: 7895960800
I0712 18:26:35.509762 45537 layer_factory.hpp:76] Creating layer conv61
I0712 18:26:35.509778 45537 net.cpp:106] Creating Layer conv61
I0712 18:26:35.509788 45537 net.cpp:454] conv61 <- interloss
I0712 18:26:35.509799 45537 net.cpp:411] conv61 -> conv61
I0712 18:26:35.510891 45537 cudnn_conv_layer.cpp:194] Reallocating workspace storage: 5614272
I0712 18:26:35.511109 45537 net.cpp:150] Setting up conv61
I0712 18:26:35.511129 45537 net.cpp:157] Top shape: 8 64 57 57 (1663488)
I0712 18:26:35.511138 45537 net.cpp:165] Memory required for data: 7902614752
I0712 18:26:35.511150 45537 layer_factory.hpp:76] Creating layer relu61
I0712 18:26:35.511163 45537 net.cpp:106] Creating Layer relu61
I0712 18:26:35.511173 45537 net.cpp:454] relu61 <- conv61
I0712 18:26:35.511185 45537 net.cpp:397] relu61 -> conv61 (in-place)
I0712 18:26:35.511533 45537 net.cpp:150] Setting up relu61
I0712 18:26:35.511553 45537 net.cpp:157] Top shape: 8 64 57 57 (1663488)
I0712 18:26:35.511562 45537 net.cpp:165] Memory required for data: 7909268704
I0712 18:26:35.511570 45537 layer_factory.hpp:76] Creating layer conv62
I0712 18:26:35.511595 45537 net.cpp:106] Creating Layer conv62
I0712 18:26:35.511605 45537 net.cpp:454] conv62 <- conv61
I0712 18:26:35.511616 45537 net.cpp:411] conv62 -> conv62
I0712 18:26:35.513608 45537 net.cpp:150] Setting up conv62
I0712 18:26:35.513638 45537 net.cpp:157] Top shape: 8 64 57 57 (1663488)
I0712 18:26:35.513648 45537 net.cpp:165] Memory required for data: 7915922656
I0712 18:26:35.513660 45537 layer_factory.hpp:76] Creating layer relu62
I0712 18:26:35.513676 45537 net.cpp:106] Creating Layer relu62
I0712 18:26:35.513685 45537 net.cpp:454] relu62 <- conv62
I0712 18:26:35.513696 45537 net.cpp:397] relu62 -> conv62 (in-place)
I0712 18:26:35.514031 45537 net.cpp:150] Setting up relu62
I0712 18:26:35.514052 45537 net.cpp:157] Top shape: 8 64 57 57 (1663488)
I0712 18:26:35.514061 45537 net.cpp:165] Memory required for data: 7922576608
I0712 18:26:35.514070 45537 layer_factory.hpp:76] Creating layer conv63
I0712 18:26:35.514089 45537 net.cpp:106] Creating Layer conv63
I0712 18:26:35.514099 45537 net.cpp:454] conv63 <- conv62
I0712 18:26:35.514111 45537 net.cpp:411] conv63 -> conv63
I0712 18:26:35.515687 45537 net.cpp:150] Setting up conv63
I0712 18:26:35.515712 45537 net.cpp:157] Top shape: 8 64 57 57 (1663488)
I0712 18:26:35.515722 45537 net.cpp:165] Memory required for data: 7929230560
I0712 18:26:35.515739 45537 layer_factory.hpp:76] Creating layer relu63
I0712 18:26:35.515751 45537 net.cpp:106] Creating Layer relu63
I0712 18:26:35.515760 45537 net.cpp:454] relu63 <- conv63
I0712 18:26:35.515808 45537 net.cpp:397] relu63 -> conv63 (in-place)
I0712 18:26:35.515997 45537 net.cpp:150] Setting up relu63
I0712 18:26:35.516017 45537 net.cpp:157] Top shape: 8 64 57 57 (1663488)
I0712 18:26:35.516026 45537 net.cpp:165] Memory required for data: 7935884512
I0712 18:26:35.516036 45537 layer_factory.hpp:76] Creating layer pool5
I0712 18:26:35.516048 45537 net.cpp:106] Creating Layer pool5
I0712 18:26:35.516057 45537 net.cpp:454] pool5 <- conv63
I0712 18:26:35.516067 45537 net.cpp:411] pool5 -> pool5
I0712 18:26:35.516433 45537 net.cpp:150] Setting up pool5
I0712 18:26:35.516453 45537 net.cpp:157] Top shape: 8 64 29 29 (430592)
I0712 18:26:35.516469 45537 net.cpp:165] Memory required for data: 7937606880
I0712 18:26:35.516477 45537 layer_factory.hpp:76] Creating layer conv71
I0712 18:26:35.516500 45537 net.cpp:106] Creating Layer conv71
I0712 18:26:35.516510 45537 net.cpp:454] conv71 <- pool5
I0712 18:26:35.516521 45537 net.cpp:411] conv71 -> conv71
I0712 18:26:35.518172 45537 cudnn_conv_layer.cpp:194] Reallocating workspace storage: 6912
I0712 18:26:35.518210 45537 net.cpp:150] Setting up conv71
I0712 18:26:35.518224 45537 net.cpp:157] Top shape: 8 128 29 29 (861184)
I0712 18:26:35.518249 45537 net.cpp:165] Memory required for data: 7941051616
I0712 18:26:35.518261 45537 layer_factory.hpp:76] Creating layer relu71
I0712 18:26:35.518273 45537 net.cpp:106] Creating Layer relu71
I0712 18:26:35.518282 45537 net.cpp:454] relu71 <- conv71
I0712 18:26:35.518296 45537 net.cpp:397] relu71 -> conv71 (in-place)
I0712 18:26:35.518486 45537 net.cpp:150] Setting up relu71
I0712 18:26:35.518507 45537 net.cpp:157] Top shape: 8 128 29 29 (861184)
I0712 18:26:35.518515 45537 net.cpp:165] Memory required for data: 7944496352
I0712 18:26:35.518524 45537 layer_factory.hpp:76] Creating layer conv72
I0712 18:26:35.518539 45537 net.cpp:106] Creating Layer conv72
I0712 18:26:35.518548 45537 net.cpp:454] conv72 <- conv71
I0712 18:26:35.518561 45537 net.cpp:411] conv72 -> conv72
I0712 18:26:35.521419 45537 cudnn_conv_layer.cpp:194] Reallocating workspace storage: 13824
I0712 18:26:35.521474 45537 net.cpp:150] Setting up conv72
I0712 18:26:35.521488 45537 net.cpp:157] Top shape: 8 128 29 29 (861184)
I0712 18:26:35.521500 45537 net.cpp:165] Memory required for data: 7947941088
I0712 18:26:35.521523 45537 layer_factory.hpp:76] Creating layer relu72
I0712 18:26:35.521538 45537 net.cpp:106] Creating Layer relu72
I0712 18:26:35.521548 45537 net.cpp:454] relu72 <- conv72
I0712 18:26:35.521559 45537 net.cpp:397] relu72 -> conv72 (in-place)
I0712 18:26:35.521749 45537 net.cpp:150] Setting up relu72
I0712 18:26:35.521767 45537 net.cpp:157] Top shape: 8 128 29 29 (861184)
I0712 18:26:35.521777 45537 net.cpp:165] Memory required for data: 7951385824
I0712 18:26:35.521785 45537 layer_factory.hpp:76] Creating layer conv73
I0712 18:26:35.521803 45537 net.cpp:106] Creating Layer conv73
I0712 18:26:35.521813 45537 net.cpp:454] conv73 <- conv72
I0712 18:26:35.521826 45537 net.cpp:411] conv73 -> conv73
I0712 18:26:35.524744 45537 cudnn_conv_layer.cpp:194] Reallocating workspace storage: 13824
I0712 18:26:35.524801 45537 net.cpp:150] Setting up conv73
I0712 18:26:35.524816 45537 net.cpp:157] Top shape: 8 128 29 29 (861184)
I0712 18:26:35.524832 45537 net.cpp:165] Memory required for data: 7954830560
I0712 18:26:35.524847 45537 layer_factory.hpp:76] Creating layer relu73
I0712 18:26:35.524866 45537 net.cpp:106] Creating Layer relu73
I0712 18:26:35.524876 45537 net.cpp:454] relu73 <- conv73
I0712 18:26:35.524889 45537 net.cpp:397] relu73 -> conv73 (in-place)
I0712 18:26:35.525228 45537 net.cpp:150] Setting up relu73
I0712 18:26:35.525249 45537 net.cpp:157] Top shape: 8 128 29 29 (861184)
I0712 18:26:35.525259 45537 net.cpp:165] Memory required for data: 7958275296
I0712 18:26:35.525274 45537 layer_factory.hpp:76] Creating layer pool6
I0712 18:26:35.525290 45537 net.cpp:106] Creating Layer pool6
I0712 18:26:35.525298 45537 net.cpp:454] pool6 <- conv73
I0712 18:26:35.525310 45537 net.cpp:411] pool6 -> pool6
I0712 18:26:35.525518 45537 net.cpp:150] Setting up pool6
I0712 18:26:35.525566 45537 net.cpp:157] Top shape: 8 128 15 15 (230400)
I0712 18:26:35.525575 45537 net.cpp:165] Memory required for data: 7959196896
I0712 18:26:35.525584 45537 layer_factory.hpp:76] Creating layer drop0
I0712 18:26:35.525604 45537 net.cpp:106] Creating Layer drop0
I0712 18:26:35.525614 45537 net.cpp:454] drop0 <- pool6
I0712 18:26:35.525622 45537 net.cpp:397] drop0 -> pool6 (in-place)
I0712 18:26:35.525673 45537 net.cpp:150] Setting up drop0
I0712 18:26:35.525686 45537 net.cpp:157] Top shape: 8 128 15 15 (230400)
I0712 18:26:35.525693 45537 net.cpp:165] Memory required for data: 7960118496
I0712 18:26:35.525702 45537 layer_factory.hpp:76] Creating layer conv81
I0712 18:26:35.525719 45537 net.cpp:106] Creating Layer conv81
I0712 18:26:35.525728 45537 net.cpp:454] conv81 <- pool6
I0712 18:26:35.525743 45537 net.cpp:411] conv81 -> conv81
I0712 18:26:35.527458 45537 cudnn_conv_layer.cpp:194] Reallocating workspace storage: 345600
I0712 18:26:35.527676 45537 net.cpp:150] Setting up conv81
I0712 18:26:35.527696 45537 net.cpp:157] Top shape: 8 3 1 1 (24)
I0712 18:26:35.527705 45537 net.cpp:165] Memory required for data: 7960118592
I0712 18:26:35.527719 45537 layer_factory.hpp:76] Creating layer conv81_conv81_0_split
I0712 18:26:35.527731 45537 net.cpp:106] Creating Layer conv81_conv81_0_split
I0712 18:26:35.527740 45537 net.cpp:454] conv81_conv81_0_split <- conv81
I0712 18:26:35.527752 45537 net.cpp:411] conv81_conv81_0_split -> conv81_conv81_0_split_0
I0712 18:26:35.527773 45537 net.cpp:411] conv81_conv81_0_split -> conv81_conv81_0_split_1
I0712 18:26:35.527823 45537 net.cpp:150] Setting up conv81_conv81_0_split
I0712 18:26:35.527842 45537 net.cpp:157] Top shape: 8 3 1 1 (24)
I0712 18:26:35.527850 45537 net.cpp:157] Top shape: 8 3 1 1 (24)
I0712 18:26:35.527858 45537 net.cpp:165] Memory required for data: 7960118784
I0712 18:26:35.527866 45537 layer_factory.hpp:76] Creating layer accuracy
I0712 18:26:35.527882 45537 net.cpp:106] Creating Layer accuracy
I0712 18:26:35.527891 45537 net.cpp:454] accuracy <- conv81_conv81_0_split_0
I0712 18:26:35.527901 45537 net.cpp:454] accuracy <- label_data_1_split_0
I0712 18:26:35.527910 45537 net.cpp:411] accuracy -> accuracy
…
