…
I0712 17:58:54.697664 44336 solver.cpp:90] Creating training net from net file: train_val-featurelayer.prototxt
I0712 17:58:54.713531 44336 net.cpp:322] The NetState phase (0) differed from the phase (1) specified by a rule in layer data
I0712 17:58:54.713840 44336 net.cpp:49] Initializing net from parameters: 
name: "FaceNN"
state {
  phase: TRAIN
}
layer {
  name: "data"
  type: "ImageData"
  top: "data"
  top: "label"
  include {
    phase: TRAIN
  }
  transform_param {
    mirror: true
    mean_value: 104
    mean_value: 117
    mean_value: 123
  }
  image_data_param {
    source: "../lists/mitosis_train.lst"
    batch_size: 8
    shuffle: true
  }
}
layer {
  name: "conv11"
  type: "Convolution"
  bottom: "data"
  top: "conv11"
  param {
    lr_mult: 0
    decay_mult: 1
  }
  param {
    lr_mult: 0
    decay_mult: 0
  }
  convolution_param {
    num_output: 32
    pad: 1
    stride: 1
    weight_filler {
      type: "xavier"
    }
    bias_filler {
      type: "constant"
    }
    kernel_h: 3
    kernel_w: 3
  }
}
layer {
  name: "relu11"
  type: "ReLU"
  bottom: "conv11"
  top: "conv11"
}
layer {
  name: "conv12"
  type: "Convolution"
  bottom: "conv11"
  top: "conv12"
  param {
    lr_mult: 0
    decay_mult: 1
  }
  param {
    lr_mult: 0
    decay_mult: 0
  }
  convolution_param {
    num_output: 32
    pad: 1
    stride: 1
    weight_filler {
      type: "xavier"
    }
    bias_filler {
      type: "constant"
    }
    kernel_h: 3
    kernel_w: 3
  }
}
layer {
  name: "relu12"
  type: "ReLU"
  bottom: "conv12"
  top: "conv12"
}
layer {
  name: "pool1"
  type: "Pooling"
  bottom: "conv12"
  top: "pool1"
  pooling_param {
    pool: MAX
    kernel_size: 2
    stride: 2
  }
}
layer {
  name: "conv21"
  type: "Convolution"
  bottom: "pool1"
  top: "conv21"
  param {
    lr_mult: 0
    decay_mult: 1
  }
  param {
    lr_mult: 0
    decay_mult: 0
  }
  convolution_param {
    num_output: 64
    pad: 1
    stride: 1
    weight_filler {
      type: "xavier"
    }
    bias_filler {
      type: "constant"
    }
    kernel_h: 3
    kernel_w: 3
  }
}
layer {
  name: "relu21"
  type: "ReLU"
  bottom: "conv21"
  top: "conv21"
}
layer {
  name: "conv22"
  type: "Convolution"
  bottom: "conv21"
  top: "conv22"
  param {
    lr_mult: 0
    decay_mult: 1
  }
  param {
    lr_mult: 0
    decay_mult: 0
  }
  convolution_param {
    num_output: 64
    pad: 1
    stride: 1
    weight_filler {
      type: "xavier"
    }
    bias_filler {
      type: "constant"
    }
    kernel_h: 3
    kernel_w: 3
  }
}
layer {
  name: "relu22"
  type: "ReLU"
  bottom: "conv22"
  top: "conv22"
}
layer {
  name: "pool2"
  type: "Pooling"
  bottom: "conv22"
  top: "pool2"
  pooling_param {
    pool: MAX
    kernel_size: 2
    stride: 2
  }
}
layer {
  name: "conv31"
  type: "Convolution"
  bottom: "pool2"
  top: "conv31"
  param {
    lr_mult: 0
    decay_mult: 1
  }
  param {
    lr_mult: 0
    decay_mult: 0
  }
  convolution_param {
    num_output: 96
    pad: 1
    stride: 1
    weight_filler {
      type: "xavier"
    }
    bias_filler {
      type: "constant"
    }
    kernel_h: 3
    kernel_w: 3
  }
}
layer {
  name: "relu31"
  type: "ReLU"
  bottom: "conv31"
  top: "conv31"
}
layer {
  name: "conv32"
  type: "Convolution"
  bottom: "conv31"
  top: "conv32"
  param {
    lr_mult: 0
    decay_mult: 1
  }
  param {
    lr_mult: 0
    decay_mult: 0
  }
  convolution_param {
    num_output: 96
    pad: 1
    stride: 1
    weight_filler {
      type: "xavier"
    }
    bias_filler {
      type: "constant"
    }
    kernel_h: 3
    kernel_w: 3
  }
}
layer {
  name: "relu32"
  type: "ReLU"
  bottom: "conv32"
  top: "conv32"
}
layer {
  name: "pool3"
  type: "Pooling"
  bottom: "conv32"
  top: "pool3"
  pooling_param {
    pool: MAX
    kernel_size: 2
    stride: 2
  }
}
layer {
  name: "conv41"
  type: "Convolution"
  bottom: "pool3"
  top: "conv41"
  param {
    lr_mult: 0
    decay_mult: 1
  }
  param {
    lr_mult: 0
    decay_mult: 0
  }
  convolution_param {
    num_output: 128
    pad: 1
    stride: 1
    weight_filler {
      type: "xavier"
    }
    bias_filler {
      type: "constant"
    }
    kernel_h: 3
    kernel_w: 3
  }
}
layer {
  name: "relu41"
  type: "ReLU"
  bottom: "conv41"
  top: "conv41"
}
layer {
  name: "conv42"
  type: "Convolution"
  bottom: "conv41"
  top: "conv42"
  param {
    lr_mult: 0
    decay_mult: 1
  }
  param {
    lr_mult: 0
    decay_mult: 0
  }
  convolution_param {
    num_output: 128
    pad: 1
    stride: 1
    weight_filler {
      type: "xavier"
    }
    bias_filler {
      type: "constant"
    }
    kernel_h: 3
    kernel_w: 3
  }
}
layer {
  name: "relu42"
  type: "ReLU"
  bottom: "conv42"
  top: "conv42"
}
layer {
  name: "pool4"
  type: "Pooling"
  bottom: "conv42"
  top: "pool4"
  pooling_param {
    pool: MAX
    kernel_size: 2
    stride: 2
  }
}
layer {
  name: "conv51"
  type: "Convolution"
  bottom: "pool4"
  top: "conv51"
  param {
    lr_mult: 0
    decay_mult: 1
  }
  param {
    lr_mult: 0
    decay_mult: 0
  }
  convolution_param {
    num_output: 256
    pad: 1
    stride: 1
    weight_filler {
      type: "xavier"
    }
    bias_filler {
      type: "constant"
    }
    kernel_h: 3
    kernel_w: 3
  }
}
layer {
  name: "relu51"
  type: "ReLU"
  bottom: "conv51"
  top: "conv51"
}
layer {
  name: "conv52"
  type: "Convolution"
  bottom: "conv51"
  top: "conv52"
  param {
    lr_mult: 0
    decay_mult: 1
  }
  param {
    lr_mult: 0
    decay_mult: 0
  }
  convolution_param {
    num_output: 256
    pad: 1
    stride: 1
    weight_filler {
      type: "xavier"
    }
    bias_filler {
      type: "constant"
    }
    kernel_h: 3
    kernel_w: 3
  }
}
layer {
  name: "relu52"
  type: "ReLU"
  bottom: "conv52"
  top: "conv52"
}
layer {
  name: "conv53"
  type: "Convolution"
  bottom: "conv52"
  top: "conv53"
  param {
    lr_mult: 0
    decay_mult: 1
  }
  param {
    lr_mult: 0
    decay_mult: 0
  }
  convolution_param {
    num_output: 256
    stride: 1
    weight_filler {
      type: "xavier"
    }
    bias_filler {
      type: "constant"
    }
    kernel_h: 7
    kernel_w: 7
  }
}
layer {
  name: "relu53"
  type: "ReLU"
  bottom: "conv53"
  top: "conv53"
}
layer {
  name: "conv61"
  type: "Convolution"
  bottom: "conv53"
  top: "conv61"
  param {
    lr_mult: 1
    decay_mult: 1
  }
  param {
    lr_mult: 2
    decay_mult: 0
  }
  convolution_param {
    num_output: 64
    pad: 1
    stride: 1
    weight_filler {
      type: "xavier"
    }
    bias_filler {
      type: "constant"
    }
    kernel_h: 3
    kernel_w: 3
  }
}
layer {
  name: "relu61"
  type: "ReLU"
  bottom: "conv61"
  top: "conv61"
}
layer {
  name: "conv62"
  type: "Convolution"
  bottom: "conv61"
  top: "conv62"
  param {
    lr_mult: 1
    decay_mult: 1
  }
  param {
    lr_mult: 2
    decay_mult: 0
  }
  convolution_param {
    num_output: 64
    pad: 1
    stride: 1
    weight_filler {
      type: "xavier"
    }
    bias_filler {
      type: "constant"
    }
    kernel_h: 3
    kernel_w: 3
  }
}
layer {
  name: "relu62"
  type: "ReLU"
  bottom: "conv62"
  top: "conv62"
}
layer {
  name: "conv63"
  type: "Convolution"
  bottom: "conv62"
  top: "conv63"
  param {
    lr_mult: 1
    decay_mult: 1
  }
  param {
    lr_mult: 2
    decay_mult: 0
  }
  convolution_param {
    num_output: 64
    pad: 1
    stride: 1
    weight_filler {
      type: "xavier"
    }
    bias_filler {
      type: "constant"
    }
    kernel_h: 3
    kernel_w: 3
  }
}
layer {
  name: "relu63"
  type: "ReLU"
  bottom: "conv63"
  top: "conv63"
}
layer {
  name: "pool5"
  type: "Pooling"
  bottom: "conv63"
  top: "pool5"
  pooling_param {
    pool: MAX
    kernel_size: 2
    stride: 2
  }
}
layer {
  name: "conv71"
  type: "Convolution"
  bottom: "pool5"
  top: "conv71"
  param {
    lr_mult: 1
    decay_mult: 1
  }
  param {
    lr_mult: 2
    decay_mult: 0
  }
  convolution_param {
    num_output: 128
    pad: 1
    stride: 1
    weight_filler {
      type: "xavier"
    }
    bias_filler {
      type: "constant"
    }
    kernel_h: 3
    kernel_w: 3
  }
}
layer {
  name: "relu71"
  type: "ReLU"
  bottom: "conv71"
  top: "conv71"
}
layer {
  name: "conv72"
  type: "Convolution"
  bottom: "conv71"
  top: "conv72"
  param {
    lr_mult: 1
    decay_mult: 1
  }
  param {
    lr_mult: 2
    decay_mult: 0
  }
  convolution_param {
    num_output: 128
    pad: 1
    stride: 1
    weight_filler {
      type: "xavier"
    }
    bias_filler {
      type: "constant"
    }
    kernel_h: 3
    kernel_w: 3
  }
}
layer {
  name: "relu72"
  type: "ReLU"
  bottom: "conv72"
  top: "conv72"
}
layer {
  name: "conv73"
  type: "Convolution"
  bottom: "conv72"
  top: "conv73"
  param {
    lr_mult: 1
    decay_mult: 1
  }
  param {
    lr_mult: 2
    decay_mult: 0
  }
  convolution_param {
    num_output: 128
    pad: 1
    stride: 1
    weight_filler {
      type: "xavier"
    }
    bias_filler {
      type: "constant"
    }
    kernel_h: 3
    kernel_w: 3
  }
}
layer {
  name: "relu73"
  type: "ReLU"
  bottom: "conv73"
  top: "conv73"
}
layer {
  name: "pool6"
  type: "Pooling"
  bottom: "conv73"
  top: "pool6"
  pooling_param {
    pool: AVE
    kernel_size: 2
    stride: 2
  }
}
layer {
  name: "drop0"
  type: "Dropout"
  bottom: "pool6"
  top: "pool6"
  dropout_param {
    dropout_ratio: 0.4
  }
}
layer {
  name: "conv81"
  type: "Convolution"
  bottom: "pool6"
  top: "conv81"
  param {
    lr_mult: 1
    decay_mult: 1
  }
  param {
    lr_mult: 2
    decay_mult: 0
  }
  convolution_param {
    num_output: 3
    stride: 1
    weight_filler {
      type: "xavier"
    }
    bias_filler {
      type: "constant"
    }
    kernel_h: 15
    kernel_w: 15
  }
}
layer {
  name: "accuracy"
  type: "Accuracy"
  bottom: "conv81"
  bottom: "label"
  top: "accuracy"
}
layer {
  name: "loss"
  type: "SoftmaxWithLoss"
  bottom: "conv81"
  bottom: "label"
  top: "loss"
}
I0712 17:58:54.716884 44336 layer_factory.hpp:76] Creating layer data
I0712 17:58:54.759281 44336 net.cpp:106] Creating Layer data
I0712 17:58:54.759326 44336 net.cpp:411] data -> data
I0712 17:58:54.759367 44336 net.cpp:411] data -> label
I0712 17:58:54.760071 44336 image_data_layer.cpp:36] Opening file ../lists/mitosis_train.lst
I0712 17:58:54.773826 44336 image_data_layer.cpp:46] Shuffling data
I0712 17:58:54.776163 44336 image_data_layer.cpp:51] A total of 23544 images.
I0712 17:58:54.880081 44336 image_data_layer.cpp:78] output data size: 8,3,1000,1000
I0712 17:58:55.256556 44336 net.cpp:150] Setting up data
I0712 17:58:55.256620 44336 net.cpp:157] Top shape: 8 3 1000 1000 (24000000)
I0712 17:58:55.256634 44336 net.cpp:157] Top shape: 8 (8)
I0712 17:58:55.256644 44336 net.cpp:165] Memory required for data: 96000032
I0712 17:58:55.256660 44336 layer_factory.hpp:76] Creating layer label_data_1_split
I0712 17:58:55.256682 44336 net.cpp:106] Creating Layer label_data_1_split
I0712 17:58:55.256696 44336 net.cpp:454] label_data_1_split <- label
I0712 17:58:55.256716 44336 net.cpp:411] label_data_1_split -> label_data_1_split_0
I0712 17:58:55.256736 44336 net.cpp:411] label_data_1_split -> label_data_1_split_1
I0712 17:58:55.256811 44336 net.cpp:150] Setting up label_data_1_split
I0712 17:58:55.256827 44336 net.cpp:157] Top shape: 8 (8)
I0712 17:58:55.256845 44336 net.cpp:157] Top shape: 8 (8)
I0712 17:58:55.256855 44336 net.cpp:165] Memory required for data: 96000096
I0712 17:58:55.256865 44336 layer_factory.hpp:76] Creating layer conv11
I0712 17:58:55.256887 44336 net.cpp:106] Creating Layer conv11
I0712 17:58:55.256898 44336 net.cpp:454] conv11 <- data
I0712 17:58:55.256916 44336 net.cpp:411] conv11 -> conv11
I0712 17:58:55.451539 44336 net.cpp:150] Setting up conv11
I0712 17:58:55.451588 44336 net.cpp:157] Top shape: 8 32 1000 1000 (256000000)
I0712 17:58:55.451601 44336 net.cpp:165] Memory required for data: 1120000096
I0712 17:58:55.451630 44336 layer_factory.hpp:76] Creating layer relu11
I0712 17:58:55.451689 44336 net.cpp:106] Creating Layer relu11
I0712 17:58:55.451704 44336 net.cpp:454] relu11 <- conv11
I0712 17:58:55.451719 44336 net.cpp:397] relu11 -> conv11 (in-place)
I0712 17:58:55.451910 44336 net.cpp:150] Setting up relu11
I0712 17:58:55.451927 44336 net.cpp:157] Top shape: 8 32 1000 1000 (256000000)
I0712 17:58:55.451937 44336 net.cpp:165] Memory required for data: 2144000096
I0712 17:58:55.451946 44336 layer_factory.hpp:76] Creating layer conv12
I0712 17:58:55.451969 44336 net.cpp:106] Creating Layer conv12
I0712 17:58:55.451979 44336 net.cpp:454] conv12 <- conv11
I0712 17:58:55.451992 44336 net.cpp:411] conv12 -> conv12
I0712 17:58:55.456590 44336 net.cpp:150] Setting up conv12
I0712 17:58:55.456615 44336 net.cpp:157] Top shape: 8 32 1000 1000 (256000000)
I0712 17:58:55.456625 44336 net.cpp:165] Memory required for data: 3168000096
I0712 17:58:55.456641 44336 layer_factory.hpp:76] Creating layer relu12
I0712 17:58:55.456658 44336 net.cpp:106] Creating Layer relu12
I0712 17:58:55.456668 44336 net.cpp:454] relu12 <- conv12
I0712 17:58:55.456679 44336 net.cpp:397] relu12 -> conv12 (in-place)
I0712 17:58:55.457108 44336 net.cpp:150] Setting up relu12
I0712 17:58:55.457129 44336 net.cpp:157] Top shape: 8 32 1000 1000 (256000000)
I0712 17:58:55.457139 44336 net.cpp:165] Memory required for data: 4192000096
I0712 17:58:55.457149 44336 layer_factory.hpp:76] Creating layer pool1
I0712 17:58:55.457165 44336 net.cpp:106] Creating Layer pool1
I0712 17:58:55.457175 44336 net.cpp:454] pool1 <- conv12
I0712 17:58:55.457188 44336 net.cpp:411] pool1 -> pool1
I0712 17:58:55.457406 44336 net.cpp:150] Setting up pool1
I0712 17:58:55.457425 44336 net.cpp:157] Top shape: 8 32 500 500 (64000000)
I0712 17:58:55.457434 44336 net.cpp:165] Memory required for data: 4448000096
I0712 17:58:55.457445 44336 layer_factory.hpp:76] Creating layer conv21
I0712 17:58:55.457469 44336 net.cpp:106] Creating Layer conv21
I0712 17:58:55.457485 44336 net.cpp:454] conv21 <- pool1
I0712 17:58:55.457509 44336 net.cpp:411] conv21 -> conv21
I0712 17:58:55.462157 44336 net.cpp:150] Setting up conv21
I0712 17:58:55.462185 44336 net.cpp:157] Top shape: 8 64 500 500 (128000000)
I0712 17:58:55.462196 44336 net.cpp:165] Memory required for data: 4960000096
I0712 17:58:55.462213 44336 layer_factory.hpp:76] Creating layer relu21
I0712 17:58:55.462229 44336 net.cpp:106] Creating Layer relu21
I0712 17:58:55.462239 44336 net.cpp:454] relu21 <- conv21
I0712 17:58:55.462250 44336 net.cpp:397] relu21 -> conv21 (in-place)
I0712 17:58:55.462680 44336 net.cpp:150] Setting up relu21
I0712 17:58:55.462702 44336 net.cpp:157] Top shape: 8 64 500 500 (128000000)
I0712 17:58:55.462712 44336 net.cpp:165] Memory required for data: 5472000096
I0712 17:58:55.462721 44336 layer_factory.hpp:76] Creating layer conv22
I0712 17:58:55.462739 44336 net.cpp:106] Creating Layer conv22
I0712 17:58:55.462750 44336 net.cpp:454] conv22 <- conv21
I0712 17:58:55.462764 44336 net.cpp:411] conv22 -> conv22
I0712 17:58:55.464781 44336 cudnn_conv_layer.cpp:194] Reallocating workspace storage: 6912
I0712 17:58:55.465279 44336 net.cpp:150] Setting up conv22
I0712 17:58:55.465306 44336 net.cpp:157] Top shape: 8 64 500 500 (128000000)
I0712 17:58:55.465315 44336 net.cpp:165] Memory required for data: 5984000096
I0712 17:58:55.465329 44336 layer_factory.hpp:76] Creating layer relu22
I0712 17:58:55.465345 44336 net.cpp:106] Creating Layer relu22
I0712 17:58:55.465355 44336 net.cpp:454] relu22 <- conv22
I0712 17:58:55.465366 44336 net.cpp:397] relu22 -> conv22 (in-place)
I0712 17:58:55.465800 44336 net.cpp:150] Setting up relu22
I0712 17:58:55.465821 44336 net.cpp:157] Top shape: 8 64 500 500 (128000000)
I0712 17:58:55.465833 44336 net.cpp:165] Memory required for data: 6496000096
I0712 17:58:55.465843 44336 layer_factory.hpp:76] Creating layer pool2
I0712 17:58:55.465855 44336 net.cpp:106] Creating Layer pool2
I0712 17:58:55.465867 44336 net.cpp:454] pool2 <- conv22
I0712 17:58:55.465878 44336 net.cpp:411] pool2 -> pool2
I0712 17:58:55.466084 44336 net.cpp:150] Setting up pool2
I0712 17:58:55.466123 44336 net.cpp:157] Top shape: 8 64 250 250 (32000000)
I0712 17:58:55.466135 44336 net.cpp:165] Memory required for data: 6624000096
I0712 17:58:55.466145 44336 layer_factory.hpp:76] Creating layer conv31
I0712 17:58:55.466163 44336 net.cpp:106] Creating Layer conv31
I0712 17:58:55.466174 44336 net.cpp:454] conv31 <- pool2
I0712 17:58:55.466189 44336 net.cpp:411] conv31 -> conv31
I0712 17:58:55.467744 44336 cudnn_conv_layer.cpp:194] Reallocating workspace storage: 6912
I0712 17:58:55.467782 44336 net.cpp:150] Setting up conv31
I0712 17:58:55.467795 44336 net.cpp:157] Top shape: 8 96 250 250 (48000000)
I0712 17:58:55.467804 44336 net.cpp:165] Memory required for data: 6816000096
I0712 17:58:55.467819 44336 layer_factory.hpp:76] Creating layer relu31
I0712 17:58:55.467833 44336 net.cpp:106] Creating Layer relu31
I0712 17:58:55.467842 44336 net.cpp:454] relu31 <- conv31
I0712 17:58:55.467856 44336 net.cpp:397] relu31 -> conv31 (in-place)
I0712 17:58:55.468300 44336 net.cpp:150] Setting up relu31
I0712 17:58:55.468322 44336 net.cpp:157] Top shape: 8 96 250 250 (48000000)
I0712 17:58:55.468330 44336 net.cpp:165] Memory required for data: 7008000096
I0712 17:58:55.468340 44336 layer_factory.hpp:76] Creating layer conv32
I0712 17:58:55.468358 44336 net.cpp:106] Creating Layer conv32
I0712 17:58:55.468369 44336 net.cpp:454] conv32 <- conv31
I0712 17:58:55.468382 44336 net.cpp:411] conv32 -> conv32
I0712 17:58:55.470849 44336 cudnn_conv_layer.cpp:194] Reallocating workspace storage: 10368
I0712 17:58:55.470888 44336 net.cpp:150] Setting up conv32
I0712 17:58:55.470903 44336 net.cpp:157] Top shape: 8 96 250 250 (48000000)
I0712 17:58:55.470913 44336 net.cpp:165] Memory required for data: 7200000096
I0712 17:58:55.470927 44336 layer_factory.hpp:76] Creating layer relu32
I0712 17:58:55.470940 44336 net.cpp:106] Creating Layer relu32
I0712 17:58:55.470950 44336 net.cpp:454] relu32 <- conv32
I0712 17:58:55.470963 44336 net.cpp:397] relu32 -> conv32 (in-place)
I0712 17:58:55.471153 44336 net.cpp:150] Setting up relu32
I0712 17:58:55.471170 44336 net.cpp:157] Top shape: 8 96 250 250 (48000000)
I0712 17:58:55.471184 44336 net.cpp:165] Memory required for data: 7392000096
I0712 17:58:55.471192 44336 layer_factory.hpp:76] Creating layer pool3
I0712 17:58:55.471210 44336 net.cpp:106] Creating Layer pool3
I0712 17:58:55.471222 44336 net.cpp:454] pool3 <- conv32
I0712 17:58:55.471235 44336 net.cpp:411] pool3 -> pool3
I0712 17:58:55.471689 44336 net.cpp:150] Setting up pool3
I0712 17:58:55.471710 44336 net.cpp:157] Top shape: 8 96 125 125 (12000000)
I0712 17:58:55.471720 44336 net.cpp:165] Memory required for data: 7440000096
I0712 17:58:55.471730 44336 layer_factory.hpp:76] Creating layer conv41
I0712 17:58:55.471748 44336 net.cpp:106] Creating Layer conv41
I0712 17:58:55.471760 44336 net.cpp:454] conv41 <- pool3
I0712 17:58:55.471772 44336 net.cpp:411] conv41 -> conv41
I0712 17:58:55.473471 44336 cudnn_conv_layer.cpp:194] Reallocating workspace storage: 10368
I0712 17:58:55.473510 44336 net.cpp:150] Setting up conv41
I0712 17:58:55.473525 44336 net.cpp:157] Top shape: 8 128 125 125 (16000000)
I0712 17:58:55.473534 44336 net.cpp:165] Memory required for data: 7504000096
I0712 17:58:55.473548 44336 layer_factory.hpp:76] Creating layer relu41
I0712 17:58:55.473564 44336 net.cpp:106] Creating Layer relu41
I0712 17:58:55.473575 44336 net.cpp:454] relu41 <- conv41
I0712 17:58:55.473587 44336 net.cpp:397] relu41 -> conv41 (in-place)
I0712 17:58:55.474299 44336 net.cpp:150] Setting up relu41
I0712 17:58:55.474321 44336 net.cpp:157] Top shape: 8 128 125 125 (16000000)
I0712 17:58:55.474330 44336 net.cpp:165] Memory required for data: 7568000096
I0712 17:58:55.474340 44336 layer_factory.hpp:76] Creating layer conv42
I0712 17:58:55.474362 44336 net.cpp:106] Creating Layer conv42
I0712 17:58:55.474372 44336 net.cpp:454] conv42 <- conv41
I0712 17:58:55.474387 44336 net.cpp:411] conv42 -> conv42
I0712 17:58:55.477366 44336 cudnn_conv_layer.cpp:194] Reallocating workspace storage: 13824
I0712 17:58:55.477404 44336 net.cpp:150] Setting up conv42
I0712 17:58:55.477433 44336 net.cpp:157] Top shape: 8 128 125 125 (16000000)
I0712 17:58:55.477444 44336 net.cpp:165] Memory required for data: 7632000096
I0712 17:58:55.477458 44336 layer_factory.hpp:76] Creating layer relu42
I0712 17:58:55.477471 44336 net.cpp:106] Creating Layer relu42
I0712 17:58:55.477486 44336 net.cpp:454] relu42 <- conv42
I0712 17:58:55.477500 44336 net.cpp:397] relu42 -> conv42 (in-place)
I0712 17:58:55.477677 44336 net.cpp:150] Setting up relu42
I0712 17:58:55.477697 44336 net.cpp:157] Top shape: 8 128 125 125 (16000000)
I0712 17:58:55.477707 44336 net.cpp:165] Memory required for data: 7696000096
I0712 17:58:55.477717 44336 layer_factory.hpp:76] Creating layer pool4
I0712 17:58:55.477730 44336 net.cpp:106] Creating Layer pool4
I0712 17:58:55.477741 44336 net.cpp:454] pool4 <- conv42
I0712 17:58:55.477751 44336 net.cpp:411] pool4 -> pool4
I0712 17:58:55.478253 44336 net.cpp:150] Setting up pool4
I0712 17:58:55.478274 44336 net.cpp:157] Top shape: 8 128 63 63 (4064256)
I0712 17:58:55.478284 44336 net.cpp:165] Memory required for data: 7712257120
I0712 17:58:55.478294 44336 layer_factory.hpp:76] Creating layer conv51
I0712 17:58:55.478313 44336 net.cpp:106] Creating Layer conv51
I0712 17:58:55.478323 44336 net.cpp:454] conv51 <- pool4
I0712 17:58:55.478335 44336 net.cpp:411] conv51 -> conv51
I0712 17:58:55.483356 44336 cudnn_conv_layer.cpp:194] Reallocating workspace storage: 13824
I0712 17:58:55.483388 44336 net.cpp:150] Setting up conv51
I0712 17:58:55.483407 44336 net.cpp:157] Top shape: 8 256 63 63 (8128512)
I0712 17:58:55.483417 44336 net.cpp:165] Memory required for data: 7744771168
I0712 17:58:55.483433 44336 layer_factory.hpp:76] Creating layer relu51
I0712 17:58:55.483445 44336 net.cpp:106] Creating Layer relu51
I0712 17:58:55.483455 44336 net.cpp:454] relu51 <- conv51
I0712 17:58:55.483474 44336 net.cpp:397] relu51 -> conv51 (in-place)
I0712 17:58:55.483654 44336 net.cpp:150] Setting up relu51
I0712 17:58:55.483675 44336 net.cpp:157] Top shape: 8 256 63 63 (8128512)
I0712 17:58:55.483685 44336 net.cpp:165] Memory required for data: 7777285216
I0712 17:58:55.483693 44336 layer_factory.hpp:76] Creating layer conv52
I0712 17:58:55.483711 44336 net.cpp:106] Creating Layer conv52
I0712 17:58:55.483721 44336 net.cpp:454] conv52 <- conv51
I0712 17:58:55.483736 44336 net.cpp:411] conv52 -> conv52
I0712 17:58:55.490371 44336 cudnn_conv_layer.cpp:194] Reallocating workspace storage: 27648
I0712 17:58:55.490404 44336 net.cpp:150] Setting up conv52
I0712 17:58:55.490418 44336 net.cpp:157] Top shape: 8 256 63 63 (8128512)
I0712 17:58:55.490428 44336 net.cpp:165] Memory required for data: 7809799264
I0712 17:58:55.490442 44336 layer_factory.hpp:76] Creating layer relu52
I0712 17:58:55.490454 44336 net.cpp:106] Creating Layer relu52
I0712 17:58:55.490463 44336 net.cpp:454] relu52 <- conv52
I0712 17:58:55.490489 44336 net.cpp:397] relu52 -> conv52 (in-place)
I0712 17:58:55.490944 44336 net.cpp:150] Setting up relu52
I0712 17:58:55.490965 44336 net.cpp:157] Top shape: 8 256 63 63 (8128512)
I0712 17:58:55.490975 44336 net.cpp:165] Memory required for data: 7842313312
I0712 17:58:55.490985 44336 layer_factory.hpp:76] Creating layer conv53
I0712 17:58:55.491006 44336 net.cpp:106] Creating Layer conv53
I0712 17:58:55.491016 44336 net.cpp:454] conv53 <- conv52
I0712 17:58:55.491030 44336 net.cpp:411] conv53 -> conv53
I0712 17:58:55.527636 44336 cudnn_conv_layer.cpp:194] Reallocating workspace storage: 150528
I0712 17:58:55.527997 44336 net.cpp:150] Setting up conv53
I0712 17:58:55.528023 44336 net.cpp:157] Top shape: 8 256 57 57 (6653952)
I0712 17:58:55.528034 44336 net.cpp:165] Memory required for data: 7868929120
I0712 17:58:55.528059 44336 layer_factory.hpp:76] Creating layer relu53
I0712 17:58:55.528084 44336 net.cpp:106] Creating Layer relu53
I0712 17:58:55.528102 44336 net.cpp:454] relu53 <- conv53
I0712 17:58:55.528117 44336 net.cpp:397] relu53 -> conv53 (in-place)
I0712 17:58:55.528579 44336 net.cpp:150] Setting up relu53
I0712 17:58:55.528600 44336 net.cpp:157] Top shape: 8 256 57 57 (6653952)
I0712 17:58:55.528645 44336 net.cpp:165] Memory required for data: 7895544928
I0712 17:58:55.528657 44336 layer_factory.hpp:76] Creating layer conv61
I0712 17:58:55.528679 44336 net.cpp:106] Creating Layer conv61
I0712 17:58:55.528698 44336 net.cpp:454] conv61 <- conv53
I0712 17:58:55.528712 44336 net.cpp:411] conv61 -> conv61
I0712 17:58:55.531682 44336 cudnn_conv_layer.cpp:194] Reallocating workspace storage: 27648
I0712 17:58:55.531723 44336 net.cpp:150] Setting up conv61
I0712 17:58:55.531738 44336 net.cpp:157] Top shape: 8 64 57 57 (1663488)
I0712 17:58:55.531749 44336 net.cpp:165] Memory required for data: 7902198880
I0712 17:58:55.531764 44336 layer_factory.hpp:76] Creating layer relu61
I0712 17:58:55.531780 44336 net.cpp:106] Creating Layer relu61
I0712 17:58:55.531798 44336 net.cpp:454] relu61 <- conv61
I0712 17:58:55.531810 44336 net.cpp:397] relu61 -> conv61 (in-place)
I0712 17:58:55.531997 44336 net.cpp:150] Setting up relu61
I0712 17:58:55.532016 44336 net.cpp:157] Top shape: 8 64 57 57 (1663488)
I0712 17:58:55.532026 44336 net.cpp:165] Memory required for data: 7908852832
I0712 17:58:55.532035 44336 layer_factory.hpp:76] Creating layer conv62
I0712 17:58:55.532061 44336 net.cpp:106] Creating Layer conv62
I0712 17:58:55.532073 44336 net.cpp:454] conv62 <- conv61
I0712 17:58:55.532094 44336 net.cpp:411] conv62 -> conv62
I0712 17:58:55.534521 44336 net.cpp:150] Setting up conv62
I0712 17:58:55.534546 44336 net.cpp:157] Top shape: 8 64 57 57 (1663488)
I0712 17:58:55.534557 44336 net.cpp:165] Memory required for data: 7915506784
I0712 17:58:55.534571 44336 layer_factory.hpp:76] Creating layer relu62
I0712 17:58:55.534593 44336 net.cpp:106] Creating Layer relu62
I0712 17:58:55.534605 44336 net.cpp:454] relu62 <- conv62
I0712 17:58:55.534618 44336 net.cpp:397] relu62 -> conv62 (in-place)
I0712 17:58:55.535063 44336 net.cpp:150] Setting up relu62
I0712 17:58:55.535084 44336 net.cpp:157] Top shape: 8 64 57 57 (1663488)
I0712 17:58:55.535094 44336 net.cpp:165] Memory required for data: 7922160736
I0712 17:58:55.535105 44336 layer_factory.hpp:76] Creating layer conv63
I0712 17:58:55.535147 44336 net.cpp:106] Creating Layer conv63
I0712 17:58:55.535159 44336 net.cpp:454] conv63 <- conv62
I0712 17:58:55.535176 44336 net.cpp:411] conv63 -> conv63
I0712 17:58:55.536440 44336 net.cpp:150] Setting up conv63
I0712 17:58:55.536463 44336 net.cpp:157] Top shape: 8 64 57 57 (1663488)
I0712 17:58:55.536474 44336 net.cpp:165] Memory required for data: 7928814688
I0712 17:58:55.536489 44336 layer_factory.hpp:76] Creating layer relu63
I0712 17:58:55.536509 44336 net.cpp:106] Creating Layer relu63
I0712 17:58:55.536522 44336 net.cpp:454] relu63 <- conv63
I0712 17:58:55.536535 44336 net.cpp:397] relu63 -> conv63 (in-place)
I0712 17:58:55.536988 44336 net.cpp:150] Setting up relu63
I0712 17:58:55.537009 44336 net.cpp:157] Top shape: 8 64 57 57 (1663488)
I0712 17:58:55.537019 44336 net.cpp:165] Memory required for data: 7935468640
I0712 17:58:55.537029 44336 layer_factory.hpp:76] Creating layer pool5
I0712 17:58:55.537050 44336 net.cpp:106] Creating Layer pool5
I0712 17:58:55.537060 44336 net.cpp:454] pool5 <- conv63
I0712 17:58:55.537076 44336 net.cpp:411] pool5 -> pool5
I0712 17:58:55.537557 44336 net.cpp:150] Setting up pool5
I0712 17:58:55.537580 44336 net.cpp:157] Top shape: 8 64 29 29 (430592)
I0712 17:58:55.537590 44336 net.cpp:165] Memory required for data: 7937191008
I0712 17:58:55.537602 44336 layer_factory.hpp:76] Creating layer conv71
I0712 17:58:55.537621 44336 net.cpp:106] Creating Layer conv71
I0712 17:58:55.537647 44336 net.cpp:454] conv71 <- pool5
I0712 17:58:55.537662 44336 net.cpp:411] conv71 -> conv71
I0712 17:58:55.539412 44336 cudnn_conv_layer.cpp:194] Reallocating workspace storage: 6912
I0712 17:58:55.539469 44336 net.cpp:150] Setting up conv71
I0712 17:58:55.539484 44336 net.cpp:157] Top shape: 8 128 29 29 (861184)
I0712 17:58:55.539494 44336 net.cpp:165] Memory required for data: 7940635744
I0712 17:58:55.539507 44336 layer_factory.hpp:76] Creating layer relu71
I0712 17:58:55.539520 44336 net.cpp:106] Creating Layer relu71
I0712 17:58:55.539562 44336 net.cpp:454] relu71 <- conv71
I0712 17:58:55.539577 44336 net.cpp:397] relu71 -> conv71 (in-place)
I0712 17:58:55.540026 44336 net.cpp:150] Setting up relu71
I0712 17:58:55.540047 44336 net.cpp:157] Top shape: 8 128 29 29 (861184)
I0712 17:58:55.540057 44336 net.cpp:165] Memory required for data: 7944080480
I0712 17:58:55.540068 44336 layer_factory.hpp:76] Creating layer conv72
I0712 17:58:55.540091 44336 net.cpp:106] Creating Layer conv72
I0712 17:58:55.540107 44336 net.cpp:454] conv72 <- conv71
I0712 17:58:55.540122 44336 net.cpp:411] conv72 -> conv72
I0712 17:58:55.543439 44336 cudnn_conv_layer.cpp:194] Reallocating workspace storage: 13824
I0712 17:58:55.543489 44336 net.cpp:150] Setting up conv72
I0712 17:58:55.543505 44336 net.cpp:157] Top shape: 8 128 29 29 (861184)
I0712 17:58:55.543529 44336 net.cpp:165] Memory required for data: 7947525216
I0712 17:58:55.543552 44336 layer_factory.hpp:76] Creating layer relu72
I0712 17:58:55.543566 44336 net.cpp:106] Creating Layer relu72
I0712 17:58:55.543578 44336 net.cpp:454] relu72 <- conv72
I0712 17:58:55.543591 44336 net.cpp:397] relu72 -> conv72 (in-place)
I0712 17:58:55.543778 44336 net.cpp:150] Setting up relu72
I0712 17:58:55.543797 44336 net.cpp:157] Top shape: 8 128 29 29 (861184)
I0712 17:58:55.543807 44336 net.cpp:165] Memory required for data: 7950969952
I0712 17:58:55.543817 44336 layer_factory.hpp:76] Creating layer conv73
I0712 17:58:55.543839 44336 net.cpp:106] Creating Layer conv73
I0712 17:58:55.543849 44336 net.cpp:454] conv73 <- conv72
I0712 17:58:55.543865 44336 net.cpp:411] conv73 -> conv73
I0712 17:58:55.546988 44336 cudnn_conv_layer.cpp:194] Reallocating workspace storage: 13824
I0712 17:58:55.547025 44336 net.cpp:150] Setting up conv73
I0712 17:58:55.547039 44336 net.cpp:157] Top shape: 8 128 29 29 (861184)
I0712 17:58:55.547049 44336 net.cpp:165] Memory required for data: 7954414688
I0712 17:58:55.547080 44336 layer_factory.hpp:76] Creating layer relu73
I0712 17:58:55.547096 44336 net.cpp:106] Creating Layer relu73
I0712 17:58:55.547109 44336 net.cpp:454] relu73 <- conv73
I0712 17:58:55.547121 44336 net.cpp:397] relu73 -> conv73 (in-place)
I0712 17:58:55.547303 44336 net.cpp:150] Setting up relu73
I0712 17:58:55.547322 44336 net.cpp:157] Top shape: 8 128 29 29 (861184)
I0712 17:58:55.547332 44336 net.cpp:165] Memory required for data: 7957859424
I0712 17:58:55.547341 44336 layer_factory.hpp:76] Creating layer pool6
I0712 17:58:55.547360 44336 net.cpp:106] Creating Layer pool6
I0712 17:58:55.547370 44336 net.cpp:454] pool6 <- conv73
I0712 17:58:55.547384 44336 net.cpp:411] pool6 -> pool6
I0712 17:58:55.547861 44336 net.cpp:150] Setting up pool6
I0712 17:58:55.547883 44336 net.cpp:157] Top shape: 8 128 15 15 (230400)
I0712 17:58:55.547894 44336 net.cpp:165] Memory required for data: 7958781024
I0712 17:58:55.547904 44336 layer_factory.hpp:76] Creating layer drop0
I0712 17:58:55.547921 44336 net.cpp:106] Creating Layer drop0
I0712 17:58:55.547932 44336 net.cpp:454] drop0 <- pool6
I0712 17:58:55.547947 44336 net.cpp:397] drop0 -> pool6 (in-place)
I0712 17:58:55.547996 44336 net.cpp:150] Setting up drop0
I0712 17:58:55.548014 44336 net.cpp:157] Top shape: 8 128 15 15 (230400)
I0712 17:58:55.548025 44336 net.cpp:165] Memory required for data: 7959702624
I0712 17:58:55.548037 44336 layer_factory.hpp:76] Creating layer conv81
I0712 17:58:55.548053 44336 net.cpp:106] Creating Layer conv81
I0712 17:58:55.548063 44336 net.cpp:454] conv81 <- pool6
I0712 17:58:55.548081 44336 net.cpp:411] conv81 -> conv81
I0712 17:58:55.549917 44336 cudnn_conv_layer.cpp:194] Reallocating workspace storage: 345600
I0712 17:58:55.550237 44336 net.cpp:150] Setting up conv81
I0712 17:58:55.550257 44336 net.cpp:157] Top shape: 8 3 1 1 (24)
I0712 17:58:55.550267 44336 net.cpp:165] Memory required for data: 7959702720
I0712 17:58:55.550284 44336 layer_factory.hpp:76] Creating layer conv81_conv81_0_split
I0712 17:58:55.550298 44336 net.cpp:106] Creating Layer conv81_conv81_0_split
I0712 17:58:55.550307 44336 net.cpp:454] conv81_conv81_0_split <- conv81
I0712 17:58:55.550357 44336 net.cpp:411] conv81_conv81_0_split -> conv81_conv81_0_split_0
I0712 17:58:55.550372 44336 net.cpp:411] conv81_conv81_0_split -> conv81_conv81_0_split_1
I0712 17:58:55.550429 44336 net.cpp:150] Setting up conv81_conv81_0_split
I0712 17:58:55.550446 44336 net.cpp:157] Top shape: 8 3 1 1 (24)
I0712 17:58:55.550456 44336 net.cpp:157] Top shape: 8 3 1 1 (24)
I0712 17:58:55.550464 44336 net.cpp:165] Memory required for data: 7959702912
I0712 17:58:55.550474 44336 layer_factory.hpp:76] Creating layer accuracy
I0712 17:58:55.550493 44336 net.cpp:106] Creating Layer accuracy
I0712 17:58:55.550503 44336 net.cpp:454] accuracy <- conv81_conv81_0_split_0
I0712 17:58:55.550515 44336 net.cpp:454] accuracy <- label_data_1_split_0
I0712 17:58:55.550539 44336 net.cpp:411] accuracy -> accuracy
…
