…
I0712 18:21:38.724619 45173 solver.cpp:90] Creating training net from net file: train_val-resultlayer-3stack.prototxt
I0712 18:21:38.726272 45173 net.cpp:322] The NetState phase (0) differed from the phase (1) specified by a rule in layer data
I0712 18:21:38.726793 45173 net.cpp:49] Initializing net from parameters: 
name: "FaceNN"
state {
  phase: TRAIN
}
layer {
  name: "data"
  type: "ImageData"
  top: "data"
  top: "label"
  include {
    phase: TRAIN
  }
  transform_param {
    mirror: true
    mean_value: 104
    mean_value: 117
    mean_value: 123
  }
  image_data_param {
    source: "../lists/mitosis_train.lst"
    batch_size: 8
    shuffle: true
  }
}
layer {
  name: "conv11"
  type: "Convolution"
  bottom: "data"
  top: "conv11"
  param {
    lr_mult: 0
    decay_mult: 1
  }
  param {
    lr_mult: 0
    decay_mult: 0
  }
  convolution_param {
    num_output: 32
    pad: 1
    stride: 1
    weight_filler {
      type: "xavier"
    }
    bias_filler {
      type: "constant"
    }
    kernel_h: 3
    kernel_w: 3
  }
}
layer {
  name: "relu11"
  type: "ReLU"
  bottom: "conv11"
  top: "conv11"
}
layer {
  name: "conv12"
  type: "Convolution"
  bottom: "conv11"
  top: "conv12"
  param {
    lr_mult: 0
    decay_mult: 1
  }
  param {
    lr_mult: 0
    decay_mult: 0
  }
  convolution_param {
    num_output: 32
    pad: 1
    stride: 1
    weight_filler {
      type: "xavier"
    }
    bias_filler {
      type: "constant"
    }
    kernel_h: 3
    kernel_w: 3
  }
}
layer {
  name: "relu12"
  type: "ReLU"
  bottom: "conv12"
  top: "conv12"
}
layer {
  name: "pool1"
  type: "Pooling"
  bottom: "conv12"
  top: "pool1"
  pooling_param {
    pool: MAX
    kernel_size: 2
    stride: 2
  }
}
layer {
  name: "conv21"
  type: "Convolution"
  bottom: "pool1"
  top: "conv21"
  param {
    lr_mult: 0
    decay_mult: 1
  }
  param {
    lr_mult: 0
    decay_mult: 0
  }
  convolution_param {
    num_output: 64
    pad: 1
    stride: 1
    weight_filler {
      type: "xavier"
    }
    bias_filler {
      type: "constant"
    }
    kernel_h: 3
    kernel_w: 3
  }
}
layer {
  name: "relu21"
  type: "ReLU"
  bottom: "conv21"
  top: "conv21"
}
layer {
  name: "conv22"
  type: "Convolution"
  bottom: "conv21"
  top: "conv22"
  param {
    lr_mult: 0
    decay_mult: 1
  }
  param {
    lr_mult: 0
    decay_mult: 0
  }
  convolution_param {
    num_output: 64
    pad: 1
    stride: 1
    weight_filler {
      type: "xavier"
    }
    bias_filler {
      type: "constant"
    }
    kernel_h: 3
    kernel_w: 3
  }
}
layer {
  name: "relu22"
  type: "ReLU"
  bottom: "conv22"
  top: "conv22"
}
layer {
  name: "pool2"
  type: "Pooling"
  bottom: "conv22"
  top: "pool2"
  pooling_param {
    pool: MAX
    kernel_size: 2
    stride: 2
  }
}
layer {
  name: "conv31"
  type: "Convolution"
  bottom: "pool2"
  top: "conv31"
  param {
    lr_mult: 0
    decay_mult: 1
  }
  param {
    lr_mult: 0
    decay_mult: 0
  }
  convolution_param {
    num_output: 96
    pad: 1
    stride: 1
    weight_filler {
      type: "xavier"
    }
    bias_filler {
      type: "constant"
    }
    kernel_h: 3
    kernel_w: 3
  }
}
layer {
  name: "relu31"
  type: "ReLU"
  bottom: "conv31"
  top: "conv31"
}
layer {
  name: "conv32"
  type: "Convolution"
  bottom: "conv31"
  top: "conv32"
  param {
    lr_mult: 0
    decay_mult: 1
  }
  param {
    lr_mult: 0
    decay_mult: 0
  }
  convolution_param {
    num_output: 96
    pad: 1
    stride: 1
    weight_filler {
      type: "xavier"
    }
    bias_filler {
      type: "constant"
    }
    kernel_h: 3
    kernel_w: 3
  }
}
layer {
  name: "relu32"
  type: "ReLU"
  bottom: "conv32"
  top: "conv32"
}
layer {
  name: "pool3"
  type: "Pooling"
  bottom: "conv32"
  top: "pool3"
  pooling_param {
    pool: MAX
    kernel_size: 2
    stride: 2
  }
}
layer {
  name: "conv41"
  type: "Convolution"
  bottom: "pool3"
  top: "conv41"
  param {
    lr_mult: 0
    decay_mult: 1
  }
  param {
    lr_mult: 0
    decay_mult: 0
  }
  convolution_param {
    num_output: 128
    pad: 1
    stride: 1
    weight_filler {
      type: "xavier"
    }
    bias_filler {
      type: "constant"
    }
    kernel_h: 3
    kernel_w: 3
  }
}
layer {
  name: "relu41"
  type: "ReLU"
  bottom: "conv41"
  top: "conv41"
}
layer {
  name: "conv42"
  type: "Convolution"
  bottom: "conv41"
  top: "conv42"
  param {
    lr_mult: 0
    decay_mult: 1
  }
  param {
    lr_mult: 0
    decay_mult: 0
  }
  convolution_param {
    num_output: 128
    pad: 1
    stride: 1
    weight_filler {
      type: "xavier"
    }
    bias_filler {
      type: "constant"
    }
    kernel_h: 3
    kernel_w: 3
  }
}
layer {
  name: "relu42"
  type: "ReLU"
  bottom: "conv42"
  top: "conv42"
}
layer {
  name: "pool4"
  type: "Pooling"
  bottom: "conv42"
  top: "pool4"
  pooling_param {
    pool: MAX
    kernel_size: 2
    stride: 2
  }
}
layer {
  name: "conv51"
  type: "Convolution"
  bottom: "pool4"
  top: "conv51"
  param {
    lr_mult: 0
    decay_mult: 1
  }
  param {
    lr_mult: 0
    decay_mult: 0
  }
  convolution_param {
    num_output: 256
    pad: 1
    stride: 1
    weight_filler {
      type: "xavier"
    }
    bias_filler {
      type: "constant"
    }
    kernel_h: 3
    kernel_w: 3
  }
}
layer {
  name: "relu51"
  type: "ReLU"
  bottom: "conv51"
  top: "conv51"
}
layer {
  name: "conv52"
  type: "Convolution"
  bottom: "conv51"
  top: "conv52"
  param {
    lr_mult: 0
    decay_mult: 1
  }
  param {
    lr_mult: 0
    decay_mult: 0
  }
  convolution_param {
    num_output: 256
    pad: 1
    stride: 1
    weight_filler {
      type: "xavier"
    }
    bias_filler {
      type: "constant"
    }
    kernel_h: 3
    kernel_w: 3
  }
}
layer {
  name: "relu52"
  type: "ReLU"
  bottom: "conv52"
  top: "conv52"
}
layer {
  name: "conv53"
  type: "Convolution"
  bottom: "conv52"
  top: "conv53"
  param {
    lr_mult: 0
    decay_mult: 1
  }
  param {
    lr_mult: 0
    decay_mult: 0
  }
  convolution_param {
    num_output: 256
    stride: 1
    weight_filler {
      type: "xavier"
    }
    bias_filler {
      type: "constant"
    }
    kernel_h: 7
    kernel_w: 7
  }
}
layer {
  name: "relu53"
  type: "ReLU"
  bottom: "conv53"
  top: "conv53"
}
layer {
  name: "conv54"
  type: "Convolution"
  bottom: "conv53"
  top: "conv54"
  param {
    lr_mult: 1
    decay_mult: 1
  }
  param {
    lr_mult: 2
    decay_mult: 0
  }
  convolution_param {
    num_output: 2
    stride: 1
    weight_filler {
      type: "xavier"
    }
    bias_filler {
      type: "constant"
    }
    kernel_h: 1
    kernel_w: 1
  }
}
layer {
  name: "interloss"
  type: "Softmax"
  bottom: "conv54"
  top: "interloss"
}
layer {
  name: "conv61"
  type: "Convolution"
  bottom: "interloss"
  top: "conv61"
  param {
    lr_mult: 1
    decay_mult: 1
  }
  param {
    lr_mult: 2
    decay_mult: 0
  }
  convolution_param {
    num_output: 64
    pad: 1
    stride: 1
    weight_filler {
      type: "xavier"
    }
    bias_filler {
      type: "constant"
    }
    kernel_h: 3
    kernel_w: 3
  }
}
layer {
  name: "relu61"
  type: "ReLU"
  bottom: "conv61"
  top: "conv61"
}
layer {
  name: "conv62"
  type: "Convolution"
  bottom: "conv61"
  top: "conv62"
  param {
    lr_mult: 1
    decay_mult: 1
  }
  param {
    lr_mult: 2
    decay_mult: 0
  }
  convolution_param {
    num_output: 64
    pad: 1
    stride: 1
    weight_filler {
      type: "xavier"
    }
    bias_filler {
      type: "constant"
    }
    kernel_h: 3
    kernel_w: 3
  }
}
layer {
  name: "relu62"
  type: "ReLU"
  bottom: "conv62"
  top: "conv62"
}
layer {
  name: "pool5"
  type: "Pooling"
  bottom: "conv62"
  top: "pool5"
  pooling_param {
    pool: MAX
    kernel_size: 2
    stride: 2
  }
}
layer {
  name: "conv71"
  type: "Convolution"
  bottom: "pool5"
  top: "conv71"
  param {
    lr_mult: 1
    decay_mult: 1
  }
  param {
    lr_mult: 2
    decay_mult: 0
  }
  convolution_param {
    num_output: 96
    pad: 1
    stride: 1
    weight_filler {
      type: "xavier"
    }
    bias_filler {
      type: "constant"
    }
    kernel_h: 3
    kernel_w: 3
  }
}
layer {
  name: "relu71"
  type: "ReLU"
  bottom: "conv71"
  top: "conv71"
}
layer {
  name: "conv72"
  type: "Convolution"
  bottom: "conv71"
  top: "conv72"
  param {
    lr_mult: 1
    decay_mult: 1
  }
  param {
    lr_mult: 2
    decay_mult: 0
  }
  convolution_param {
    num_output: 96
    pad: 1
    stride: 1
    weight_filler {
      type: "xavier"
    }
    bias_filler {
      type: "constant"
    }
    kernel_h: 3
    kernel_w: 3
  }
}
layer {
  name: "relu72"
  type: "ReLU"
  bottom: "conv72"
  top: "conv72"
}
layer {
  name: "pool6"
  type: "Pooling"
  bottom: "conv72"
  top: "pool6"
  pooling_param {
    pool: MAX
    kernel_size: 2
    stride: 2
  }
}
layer {
  name: "conv81"
  type: "Convolution"
  bottom: "pool6"
  top: "conv81"
  param {
    lr_mult: 1
    decay_mult: 1
  }
  param {
    lr_mult: 2
    decay_mult: 0
  }
  convolution_param {
    num_output: 128
    pad: 1
    stride: 1
    weight_filler {
      type: "xavier"
    }
    bias_filler {
      type: "constant"
    }
    kernel_h: 3
    kernel_w: 3
  }
}
layer {
  name: "relu81"
  type: "ReLU"
  bottom: "conv81"
  top: "conv81"
}
layer {
  name: "conv82"
  type: "Convolution"
  bottom: "conv81"
  top: "conv82"
  param {
    lr_mult: 1
    decay_mult: 1
  }
  param {
    lr_mult: 2
    decay_mult: 0
  }
  convolution_param {
    num_output: 128
    pad: 1
    stride: 1
    weight_filler {
      type: "xavier"
    }
    bias_filler {
      type: "constant"
    }
    kernel_h: 3
    kernel_w: 3
  }
}
layer {
  name: "relu82"
  type: "ReLU"
  bottom: "conv82"
  top: "conv82"
}
layer {
  name: "pool7"
  type: "Pooling"
  bottom: "conv82"
  top: "pool7"
  pooling_param {
    pool: AVE
    kernel_size: 2
    stride: 2
  }
}
layer {
  name: "drop0"
  type: "Dropout"
  bottom: "pool7"
  top: "pool7"
  dropout_param {
    dropout_ratio: 0.4
  }
}
layer {
  name: "conv91"
  type: "Convolution"
  bottom: "pool7"
  top: "conv91"
  param {
    lr_mult: 1
    decay_mult: 1
  }
  param {
    lr_mult: 2
    decay_mult: 0
  }
  convolution_param {
    num_output: 3
    stride: 1
    weight_filler {
      type: "xavier"
    }
    bias_filler {
      type: "constant"
    }
    kernel_h: 8
    kernel_w: 8
  }
}
layer {
  name: "accuracy"
  type: "Accuracy"
  bottom: "conv91"
  bottom: "label"
  top: "accuracy"
}
layer {
  name: "loss"
  type: "SoftmaxWithLoss"
  bottom: "conv91"
  bottom: "label"
  top: "loss"
}
I0712 18:21:38.727231 45173 layer_factory.hpp:76] Creating layer data
I0712 18:21:38.727275 45173 net.cpp:106] Creating Layer data
I0712 18:21:38.727286 45173 net.cpp:411] data -> data
I0712 18:21:38.727322 45173 net.cpp:411] data -> label
I0712 18:21:38.727753 45173 image_data_layer.cpp:36] Opening file ../lists/mitosis_train.lst
I0712 18:21:38.740715 45173 image_data_layer.cpp:46] Shuffling data
I0712 18:21:38.742362 45173 image_data_layer.cpp:51] A total of 23544 images.
I0712 18:21:38.795708 45173 image_data_layer.cpp:78] output data size: 8,3,1000,1000
I0712 18:21:39.095963 45173 net.cpp:150] Setting up data
I0712 18:21:39.096029 45173 net.cpp:157] Top shape: 8 3 1000 1000 (24000000)
I0712 18:21:39.096041 45173 net.cpp:157] Top shape: 8 (8)
I0712 18:21:39.096050 45173 net.cpp:165] Memory required for data: 96000032
I0712 18:21:39.096067 45173 layer_factory.hpp:76] Creating layer label_data_1_split
I0712 18:21:39.096096 45173 net.cpp:106] Creating Layer label_data_1_split
I0712 18:21:39.096108 45173 net.cpp:454] label_data_1_split <- label
I0712 18:21:39.096128 45173 net.cpp:411] label_data_1_split -> label_data_1_split_0
I0712 18:21:39.096149 45173 net.cpp:411] label_data_1_split -> label_data_1_split_1
I0712 18:21:39.096215 45173 net.cpp:150] Setting up label_data_1_split
I0712 18:21:39.096227 45173 net.cpp:157] Top shape: 8 (8)
I0712 18:21:39.096237 45173 net.cpp:157] Top shape: 8 (8)
I0712 18:21:39.096274 45173 net.cpp:165] Memory required for data: 96000096
I0712 18:21:39.096283 45173 layer_factory.hpp:76] Creating layer conv11
I0712 18:21:39.096310 45173 net.cpp:106] Creating Layer conv11
I0712 18:21:39.096319 45173 net.cpp:454] conv11 <- data
I0712 18:21:39.096329 45173 net.cpp:411] conv11 -> conv11
I0712 18:21:39.257694 45173 net.cpp:150] Setting up conv11
I0712 18:21:39.257758 45173 net.cpp:157] Top shape: 8 32 1000 1000 (256000000)
I0712 18:21:39.257768 45173 net.cpp:165] Memory required for data: 1120000096
I0712 18:21:39.257803 45173 layer_factory.hpp:76] Creating layer relu11
I0712 18:21:39.257828 45173 net.cpp:106] Creating Layer relu11
I0712 18:21:39.257839 45173 net.cpp:454] relu11 <- conv11
I0712 18:21:39.257851 45173 net.cpp:397] relu11 -> conv11 (in-place)
I0712 18:21:39.258064 45173 net.cpp:150] Setting up relu11
I0712 18:21:39.258092 45173 net.cpp:157] Top shape: 8 32 1000 1000 (256000000)
I0712 18:21:39.258101 45173 net.cpp:165] Memory required for data: 2144000096
I0712 18:21:39.258111 45173 layer_factory.hpp:76] Creating layer conv12
I0712 18:21:39.258134 45173 net.cpp:106] Creating Layer conv12
I0712 18:21:39.258144 45173 net.cpp:454] conv12 <- conv11
I0712 18:21:39.258157 45173 net.cpp:411] conv12 -> conv12
I0712 18:21:39.262799 45173 net.cpp:150] Setting up conv12
I0712 18:21:39.262835 45173 net.cpp:157] Top shape: 8 32 1000 1000 (256000000)
I0712 18:21:39.262845 45173 net.cpp:165] Memory required for data: 3168000096
I0712 18:21:39.262861 45173 layer_factory.hpp:76] Creating layer relu12
I0712 18:21:39.262874 45173 net.cpp:106] Creating Layer relu12
I0712 18:21:39.262883 45173 net.cpp:454] relu12 <- conv12
I0712 18:21:39.262893 45173 net.cpp:397] relu12 -> conv12 (in-place)
I0712 18:21:39.263247 45173 net.cpp:150] Setting up relu12
I0712 18:21:39.263278 45173 net.cpp:157] Top shape: 8 32 1000 1000 (256000000)
I0712 18:21:39.263286 45173 net.cpp:165] Memory required for data: 4192000096
I0712 18:21:39.263296 45173 layer_factory.hpp:76] Creating layer pool1
I0712 18:21:39.263311 45173 net.cpp:106] Creating Layer pool1
I0712 18:21:39.263319 45173 net.cpp:454] pool1 <- conv12
I0712 18:21:39.263330 45173 net.cpp:411] pool1 -> pool1
I0712 18:21:39.263597 45173 net.cpp:150] Setting up pool1
I0712 18:21:39.263628 45173 net.cpp:157] Top shape: 8 32 500 500 (64000000)
I0712 18:21:39.263638 45173 net.cpp:165] Memory required for data: 4448000096
I0712 18:21:39.263646 45173 layer_factory.hpp:76] Creating layer conv21
I0712 18:21:39.263660 45173 net.cpp:106] Creating Layer conv21
I0712 18:21:39.263670 45173 net.cpp:454] conv21 <- pool1
I0712 18:21:39.263680 45173 net.cpp:411] conv21 -> conv21
I0712 18:21:39.266366 45173 net.cpp:150] Setting up conv21
I0712 18:21:39.266399 45173 net.cpp:157] Top shape: 8 64 500 500 (128000000)
I0712 18:21:39.266409 45173 net.cpp:165] Memory required for data: 4960000096
I0712 18:21:39.266423 45173 layer_factory.hpp:76] Creating layer relu21
I0712 18:21:39.266439 45173 net.cpp:106] Creating Layer relu21
I0712 18:21:39.266448 45173 net.cpp:454] relu21 <- conv21
I0712 18:21:39.266458 45173 net.cpp:397] relu21 -> conv21 (in-place)
I0712 18:21:39.266806 45173 net.cpp:150] Setting up relu21
I0712 18:21:39.266837 45173 net.cpp:157] Top shape: 8 64 500 500 (128000000)
I0712 18:21:39.266845 45173 net.cpp:165] Memory required for data: 5472000096
I0712 18:21:39.266855 45173 layer_factory.hpp:76] Creating layer conv22
I0712 18:21:39.266871 45173 net.cpp:106] Creating Layer conv22
I0712 18:21:39.266880 45173 net.cpp:454] conv22 <- conv21
I0712 18:21:39.266893 45173 net.cpp:411] conv22 -> conv22
I0712 18:21:39.268949 45173 cudnn_conv_layer.cpp:194] Reallocating workspace storage: 6912
I0712 18:21:39.269186 45173 net.cpp:150] Setting up conv22
I0712 18:21:39.269217 45173 net.cpp:157] Top shape: 8 64 500 500 (128000000)
I0712 18:21:39.269227 45173 net.cpp:165] Memory required for data: 5984000096
I0712 18:21:39.269246 45173 layer_factory.hpp:76] Creating layer relu22
I0712 18:21:39.269258 45173 net.cpp:106] Creating Layer relu22
I0712 18:21:39.269268 45173 net.cpp:454] relu22 <- conv22
I0712 18:21:39.269304 45173 net.cpp:397] relu22 -> conv22 (in-place)
I0712 18:21:39.269641 45173 net.cpp:150] Setting up relu22
I0712 18:21:39.269672 45173 net.cpp:157] Top shape: 8 64 500 500 (128000000)
I0712 18:21:39.269681 45173 net.cpp:165] Memory required for data: 6496000096
I0712 18:21:39.269691 45173 layer_factory.hpp:76] Creating layer pool2
I0712 18:21:39.269702 45173 net.cpp:106] Creating Layer pool2
I0712 18:21:39.269711 45173 net.cpp:454] pool2 <- conv22
I0712 18:21:39.269724 45173 net.cpp:411] pool2 -> pool2
I0712 18:21:39.269942 45173 net.cpp:150] Setting up pool2
I0712 18:21:39.269970 45173 net.cpp:157] Top shape: 8 64 250 250 (32000000)
I0712 18:21:39.269979 45173 net.cpp:165] Memory required for data: 6624000096
I0712 18:21:39.269989 45173 layer_factory.hpp:76] Creating layer conv31
I0712 18:21:39.270002 45173 net.cpp:106] Creating Layer conv31
I0712 18:21:39.270011 45173 net.cpp:454] conv31 <- pool2
I0712 18:21:39.270025 45173 net.cpp:411] conv31 -> conv31
I0712 18:21:39.271488 45173 cudnn_conv_layer.cpp:194] Reallocating workspace storage: 6912
I0712 18:21:39.271538 45173 net.cpp:150] Setting up conv31
I0712 18:21:39.271549 45173 net.cpp:157] Top shape: 8 96 250 250 (48000000)
I0712 18:21:39.271559 45173 net.cpp:165] Memory required for data: 6816000096
I0712 18:21:39.271575 45173 layer_factory.hpp:76] Creating layer relu31
I0712 18:21:39.271587 45173 net.cpp:106] Creating Layer relu31
I0712 18:21:39.271596 45173 net.cpp:454] relu31 <- conv31
I0712 18:21:39.271606 45173 net.cpp:397] relu31 -> conv31 (in-place)
I0712 18:21:39.271939 45173 net.cpp:150] Setting up relu31
I0712 18:21:39.271972 45173 net.cpp:157] Top shape: 8 96 250 250 (48000000)
I0712 18:21:39.271982 45173 net.cpp:165] Memory required for data: 7008000096
I0712 18:21:39.271991 45173 layer_factory.hpp:76] Creating layer conv32
I0712 18:21:39.272003 45173 net.cpp:106] Creating Layer conv32
I0712 18:21:39.272011 45173 net.cpp:454] conv32 <- conv31
I0712 18:21:39.272024 45173 net.cpp:411] conv32 -> conv32
I0712 18:21:39.274412 45173 cudnn_conv_layer.cpp:194] Reallocating workspace storage: 10368
I0712 18:21:39.274461 45173 net.cpp:150] Setting up conv32
I0712 18:21:39.274473 45173 net.cpp:157] Top shape: 8 96 250 250 (48000000)
I0712 18:21:39.274482 45173 net.cpp:165] Memory required for data: 7200000096
I0712 18:21:39.274493 45173 layer_factory.hpp:76] Creating layer relu32
I0712 18:21:39.274507 45173 net.cpp:106] Creating Layer relu32
I0712 18:21:39.274516 45173 net.cpp:454] relu32 <- conv32
I0712 18:21:39.274526 45173 net.cpp:397] relu32 -> conv32 (in-place)
I0712 18:21:39.274740 45173 net.cpp:150] Setting up relu32
I0712 18:21:39.274767 45173 net.cpp:157] Top shape: 8 96 250 250 (48000000)
I0712 18:21:39.274776 45173 net.cpp:165] Memory required for data: 7392000096
I0712 18:21:39.274785 45173 layer_factory.hpp:76] Creating layer pool3
I0712 18:21:39.274799 45173 net.cpp:106] Creating Layer pool3
I0712 18:21:39.274807 45173 net.cpp:454] pool3 <- conv32
I0712 18:21:39.274821 45173 net.cpp:411] pool3 -> pool3
I0712 18:21:39.275228 45173 net.cpp:150] Setting up pool3
I0712 18:21:39.275259 45173 net.cpp:157] Top shape: 8 96 125 125 (12000000)
I0712 18:21:39.275267 45173 net.cpp:165] Memory required for data: 7440000096
I0712 18:21:39.275277 45173 layer_factory.hpp:76] Creating layer conv41
I0712 18:21:39.275292 45173 net.cpp:106] Creating Layer conv41
I0712 18:21:39.275301 45173 net.cpp:454] conv41 <- pool3
I0712 18:21:39.275317 45173 net.cpp:411] conv41 -> conv41
I0712 18:21:39.277009 45173 cudnn_conv_layer.cpp:194] Reallocating workspace storage: 10368
I0712 18:21:39.277055 45173 net.cpp:150] Setting up conv41
I0712 18:21:39.277067 45173 net.cpp:157] Top shape: 8 128 125 125 (16000000)
I0712 18:21:39.277076 45173 net.cpp:165] Memory required for data: 7504000096
I0712 18:21:39.277087 45173 layer_factory.hpp:76] Creating layer relu41
I0712 18:21:39.277102 45173 net.cpp:106] Creating Layer relu41
I0712 18:21:39.277112 45173 net.cpp:454] relu41 <- conv41
I0712 18:21:39.277124 45173 net.cpp:397] relu41 -> conv41 (in-place)
I0712 18:21:39.277631 45173 net.cpp:150] Setting up relu41
I0712 18:21:39.277662 45173 net.cpp:157] Top shape: 8 128 125 125 (16000000)
I0712 18:21:39.277673 45173 net.cpp:165] Memory required for data: 7568000096
I0712 18:21:39.277681 45173 layer_factory.hpp:76] Creating layer conv42
I0712 18:21:39.277698 45173 net.cpp:106] Creating Layer conv42
I0712 18:21:39.277706 45173 net.cpp:454] conv42 <- conv41
I0712 18:21:39.277716 45173 net.cpp:411] conv42 -> conv42
I0712 18:21:39.280601 45173 cudnn_conv_layer.cpp:194] Reallocating workspace storage: 13824
I0712 18:21:39.280650 45173 net.cpp:150] Setting up conv42
I0712 18:21:39.280666 45173 net.cpp:157] Top shape: 8 128 125 125 (16000000)
I0712 18:21:39.280675 45173 net.cpp:165] Memory required for data: 7632000096
I0712 18:21:39.280689 45173 layer_factory.hpp:76] Creating layer relu42
I0712 18:21:39.280699 45173 net.cpp:106] Creating Layer relu42
I0712 18:21:39.280709 45173 net.cpp:454] relu42 <- conv42
I0712 18:21:39.280719 45173 net.cpp:397] relu42 -> conv42 (in-place)
I0712 18:21:39.280915 45173 net.cpp:150] Setting up relu42
I0712 18:21:39.280941 45173 net.cpp:157] Top shape: 8 128 125 125 (16000000)
I0712 18:21:39.280951 45173 net.cpp:165] Memory required for data: 7696000096
I0712 18:21:39.280959 45173 layer_factory.hpp:76] Creating layer pool4
I0712 18:21:39.280971 45173 net.cpp:106] Creating Layer pool4
I0712 18:21:39.280978 45173 net.cpp:454] pool4 <- conv42
I0712 18:21:39.280992 45173 net.cpp:411] pool4 -> pool4
I0712 18:21:39.281349 45173 net.cpp:150] Setting up pool4
I0712 18:21:39.281380 45173 net.cpp:157] Top shape: 8 128 63 63 (4064256)
I0712 18:21:39.281389 45173 net.cpp:165] Memory required for data: 7712257120
I0712 18:21:39.281397 45173 layer_factory.hpp:76] Creating layer conv51
I0712 18:21:39.281414 45173 net.cpp:106] Creating Layer conv51
I0712 18:21:39.281422 45173 net.cpp:454] conv51 <- pool4
I0712 18:21:39.281435 45173 net.cpp:411] conv51 -> conv51
I0712 18:21:39.286167 45173 cudnn_conv_layer.cpp:194] Reallocating workspace storage: 13824
I0712 18:21:39.286216 45173 net.cpp:150] Setting up conv51
I0712 18:21:39.286228 45173 net.cpp:157] Top shape: 8 256 63 63 (8128512)
I0712 18:21:39.286237 45173 net.cpp:165] Memory required for data: 7744771168
I0712 18:21:39.286257 45173 layer_factory.hpp:76] Creating layer relu51
I0712 18:21:39.286268 45173 net.cpp:106] Creating Layer relu51
I0712 18:21:39.286278 45173 net.cpp:454] relu51 <- conv51
I0712 18:21:39.286288 45173 net.cpp:397] relu51 -> conv51 (in-place)
I0712 18:21:39.286486 45173 net.cpp:150] Setting up relu51
I0712 18:21:39.286520 45173 net.cpp:157] Top shape: 8 256 63 63 (8128512)
I0712 18:21:39.286530 45173 net.cpp:165] Memory required for data: 7777285216
I0712 18:21:39.286537 45173 layer_factory.hpp:76] Creating layer conv52
I0712 18:21:39.286552 45173 net.cpp:106] Creating Layer conv52
I0712 18:21:39.286561 45173 net.cpp:454] conv52 <- conv51
I0712 18:21:39.286572 45173 net.cpp:411] conv52 -> conv52
I0712 18:21:39.293478 45173 cudnn_conv_layer.cpp:194] Reallocating workspace storage: 27648
I0712 18:21:39.293522 45173 net.cpp:150] Setting up conv52
I0712 18:21:39.293535 45173 net.cpp:157] Top shape: 8 256 63 63 (8128512)
I0712 18:21:39.293545 45173 net.cpp:165] Memory required for data: 7809799264
I0712 18:21:39.293556 45173 layer_factory.hpp:76] Creating layer relu52
I0712 18:21:39.293571 45173 net.cpp:106] Creating Layer relu52
I0712 18:21:39.293581 45173 net.cpp:454] relu52 <- conv52
I0712 18:21:39.293591 45173 net.cpp:397] relu52 -> conv52 (in-place)
I0712 18:21:39.293920 45173 net.cpp:150] Setting up relu52
I0712 18:21:39.293941 45173 net.cpp:157] Top shape: 8 256 63 63 (8128512)
I0712 18:21:39.293949 45173 net.cpp:165] Memory required for data: 7842313312
I0712 18:21:39.293958 45173 layer_factory.hpp:76] Creating layer conv53
I0712 18:21:39.293977 45173 net.cpp:106] Creating Layer conv53
I0712 18:21:39.293985 45173 net.cpp:454] conv53 <- conv52
I0712 18:21:39.293999 45173 net.cpp:411] conv53 -> conv53
I0712 18:21:39.327261 45173 cudnn_conv_layer.cpp:194] Reallocating workspace storage: 150528
I0712 18:21:39.327533 45173 net.cpp:150] Setting up conv53
I0712 18:21:39.327558 45173 net.cpp:157] Top shape: 8 256 57 57 (6653952)
I0712 18:21:39.327569 45173 net.cpp:165] Memory required for data: 7868929120
I0712 18:21:39.327584 45173 layer_factory.hpp:76] Creating layer relu53
I0712 18:21:39.327602 45173 net.cpp:106] Creating Layer relu53
I0712 18:21:39.327612 45173 net.cpp:454] relu53 <- conv53
I0712 18:21:39.327625 45173 net.cpp:397] relu53 -> conv53 (in-place)
I0712 18:21:39.327965 45173 net.cpp:150] Setting up relu53
I0712 18:21:39.327985 45173 net.cpp:157] Top shape: 8 256 57 57 (6653952)
I0712 18:21:39.327993 45173 net.cpp:165] Memory required for data: 7895544928
I0712 18:21:39.328001 45173 layer_factory.hpp:76] Creating layer conv54
I0712 18:21:39.328019 45173 net.cpp:106] Creating Layer conv54
I0712 18:21:39.328028 45173 net.cpp:454] conv54 <- conv53
I0712 18:21:39.328043 45173 net.cpp:411] conv54 -> conv54
I0712 18:21:39.329146 45173 net.cpp:150] Setting up conv54
I0712 18:21:39.329169 45173 net.cpp:157] Top shape: 8 2 57 57 (51984)
I0712 18:21:39.329177 45173 net.cpp:165] Memory required for data: 7895752864
I0712 18:21:39.329190 45173 layer_factory.hpp:76] Creating layer interloss
I0712 18:21:39.329206 45173 net.cpp:106] Creating Layer interloss
I0712 18:21:39.329216 45173 net.cpp:454] interloss <- conv54
I0712 18:21:39.329226 45173 net.cpp:411] interloss -> interloss
I0712 18:21:39.329481 45173 net.cpp:150] Setting up interloss
I0712 18:21:39.329502 45173 net.cpp:157] Top shape: 8 2 57 57 (51984)
I0712 18:21:39.329510 45173 net.cpp:165] Memory required for data: 7895960800
I0712 18:21:39.329519 45173 layer_factory.hpp:76] Creating layer conv61
I0712 18:21:39.329532 45173 net.cpp:106] Creating Layer conv61
I0712 18:21:39.329540 45173 net.cpp:454] conv61 <- interloss
I0712 18:21:39.329555 45173 net.cpp:411] conv61 -> conv61
I0712 18:21:39.330638 45173 cudnn_conv_layer.cpp:194] Reallocating workspace storage: 5614272
I0712 18:21:39.330847 45173 net.cpp:150] Setting up conv61
I0712 18:21:39.330867 45173 net.cpp:157] Top shape: 8 64 57 57 (1663488)
I0712 18:21:39.330874 45173 net.cpp:165] Memory required for data: 7902614752
I0712 18:21:39.330886 45173 layer_factory.hpp:76] Creating layer relu61
I0712 18:21:39.330901 45173 net.cpp:106] Creating Layer relu61
I0712 18:21:39.330910 45173 net.cpp:454] relu61 <- conv61
I0712 18:21:39.330920 45173 net.cpp:397] relu61 -> conv61 (in-place)
I0712 18:21:39.331253 45173 net.cpp:150] Setting up relu61
I0712 18:21:39.331272 45173 net.cpp:157] Top shape: 8 64 57 57 (1663488)
I0712 18:21:39.331281 45173 net.cpp:165] Memory required for data: 7909268704
I0712 18:21:39.331290 45173 layer_factory.hpp:76] Creating layer conv62
I0712 18:21:39.331313 45173 net.cpp:106] Creating Layer conv62
I0712 18:21:39.331322 45173 net.cpp:454] conv62 <- conv61
I0712 18:21:39.331333 45173 net.cpp:411] conv62 -> conv62
I0712 18:21:39.333257 45173 net.cpp:150] Setting up conv62
I0712 18:21:39.333281 45173 net.cpp:157] Top shape: 8 64 57 57 (1663488)
I0712 18:21:39.333290 45173 net.cpp:165] Memory required for data: 7915922656
I0712 18:21:39.333302 45173 layer_factory.hpp:76] Creating layer relu62
I0712 18:21:39.333313 45173 net.cpp:106] Creating Layer relu62
I0712 18:21:39.333323 45173 net.cpp:454] relu62 <- conv62
I0712 18:21:39.333333 45173 net.cpp:397] relu62 -> conv62 (in-place)
I0712 18:21:39.333663 45173 net.cpp:150] Setting up relu62
I0712 18:21:39.333683 45173 net.cpp:157] Top shape: 8 64 57 57 (1663488)
I0712 18:21:39.333693 45173 net.cpp:165] Memory required for data: 7922576608
I0712 18:21:39.333700 45173 layer_factory.hpp:76] Creating layer pool5
I0712 18:21:39.333712 45173 net.cpp:106] Creating Layer pool5
I0712 18:21:39.333721 45173 net.cpp:454] pool5 <- conv62
I0712 18:21:39.333734 45173 net.cpp:411] pool5 -> pool5
I0712 18:21:39.333951 45173 net.cpp:150] Setting up pool5
I0712 18:21:39.333971 45173 net.cpp:157] Top shape: 8 64 29 29 (430592)
I0712 18:21:39.333979 45173 net.cpp:165] Memory required for data: 7924298976
I0712 18:21:39.333988 45173 layer_factory.hpp:76] Creating layer conv71
I0712 18:21:39.334014 45173 net.cpp:106] Creating Layer conv71
I0712 18:21:39.334023 45173 net.cpp:454] conv71 <- pool5
I0712 18:21:39.334036 45173 net.cpp:411] conv71 -> conv71
I0712 18:21:39.335680 45173 cudnn_conv_layer.cpp:194] Reallocating workspace storage: 6912
I0712 18:21:39.335718 45173 net.cpp:150] Setting up conv71
I0712 18:21:39.335731 45173 net.cpp:157] Top shape: 8 96 29 29 (645888)
I0712 18:21:39.335739 45173 net.cpp:165] Memory required for data: 7926882528
I0712 18:21:39.335752 45173 layer_factory.hpp:76] Creating layer relu71
I0712 18:21:39.335762 45173 net.cpp:106] Creating Layer relu71
I0712 18:21:39.335772 45173 net.cpp:454] relu71 <- conv71
I0712 18:21:39.335783 45173 net.cpp:397] relu71 -> conv71 (in-place)
I0712 18:21:39.336105 45173 net.cpp:150] Setting up relu71
I0712 18:21:39.336124 45173 net.cpp:157] Top shape: 8 96 29 29 (645888)
I0712 18:21:39.336133 45173 net.cpp:165] Memory required for data: 7929466080
I0712 18:21:39.336143 45173 layer_factory.hpp:76] Creating layer conv72
I0712 18:21:39.336158 45173 net.cpp:106] Creating Layer conv72
I0712 18:21:39.336166 45173 net.cpp:454] conv72 <- conv71
I0712 18:21:39.336182 45173 net.cpp:411] conv72 -> conv72
I0712 18:21:39.337919 45173 cudnn_conv_layer.cpp:194] Reallocating workspace storage: 10368
I0712 18:21:39.337957 45173 net.cpp:150] Setting up conv72
I0712 18:21:39.337970 45173 net.cpp:157] Top shape: 8 96 29 29 (645888)
I0712 18:21:39.337978 45173 net.cpp:165] Memory required for data: 7932049632
I0712 18:21:39.337990 45173 layer_factory.hpp:76] Creating layer relu72
I0712 18:21:39.338001 45173 net.cpp:106] Creating Layer relu72
I0712 18:21:39.338009 45173 net.cpp:454] relu72 <- conv72
I0712 18:21:39.338022 45173 net.cpp:397] relu72 -> conv72 (in-place)
I0712 18:21:39.338204 45173 net.cpp:150] Setting up relu72
I0712 18:21:39.338222 45173 net.cpp:157] Top shape: 8 96 29 29 (645888)
I0712 18:21:39.338229 45173 net.cpp:165] Memory required for data: 7934633184
I0712 18:21:39.338238 45173 layer_factory.hpp:76] Creating layer pool6
I0712 18:21:39.338248 45173 net.cpp:106] Creating Layer pool6
I0712 18:21:39.338256 45173 net.cpp:454] pool6 <- conv72
I0712 18:21:39.338266 45173 net.cpp:411] pool6 -> pool6
I0712 18:21:39.338639 45173 net.cpp:150] Setting up pool6
I0712 18:21:39.338660 45173 net.cpp:157] Top shape: 8 96 15 15 (172800)
I0712 18:21:39.338667 45173 net.cpp:165] Memory required for data: 7935324384
I0712 18:21:39.338676 45173 layer_factory.hpp:76] Creating layer conv81
I0712 18:21:39.338691 45173 net.cpp:106] Creating Layer conv81
I0712 18:21:39.338701 45173 net.cpp:454] conv81 <- pool6
I0712 18:21:39.338712 45173 net.cpp:411] conv81 -> conv81
I0712 18:21:39.341146 45173 net.cpp:150] Setting up conv81
I0712 18:21:39.341169 45173 net.cpp:157] Top shape: 8 128 15 15 (230400)
I0712 18:21:39.341178 45173 net.cpp:165] Memory required for data: 7936245984
I0712 18:21:39.341199 45173 layer_factory.hpp:76] Creating layer relu81
I0712 18:21:39.341212 45173 net.cpp:106] Creating Layer relu81
I0712 18:21:39.341220 45173 net.cpp:454] relu81 <- conv81
I0712 18:21:39.341233 45173 net.cpp:397] relu81 -> conv81 (in-place)
I0712 18:21:39.341563 45173 net.cpp:150] Setting up relu81
I0712 18:21:39.341583 45173 net.cpp:157] Top shape: 8 128 15 15 (230400)
I0712 18:21:39.341593 45173 net.cpp:165] Memory required for data: 7937167584
I0712 18:21:39.341601 45173 layer_factory.hpp:76] Creating layer conv82
I0712 18:21:39.341617 45173 net.cpp:106] Creating Layer conv82
I0712 18:21:39.341626 45173 net.cpp:454] conv82 <- conv81
I0712 18:21:39.341639 45173 net.cpp:411] conv82 -> conv82
I0712 18:21:39.343782 45173 net.cpp:150] Setting up conv82
I0712 18:21:39.343804 45173 net.cpp:157] Top shape: 8 128 15 15 (230400)
I0712 18:21:39.343813 45173 net.cpp:165] Memory required for data: 7938089184
I0712 18:21:39.343825 45173 layer_factory.hpp:76] Creating layer relu82
I0712 18:21:39.343839 45173 net.cpp:106] Creating Layer relu82
I0712 18:21:39.343849 45173 net.cpp:454] relu82 <- conv82
I0712 18:21:39.343858 45173 net.cpp:397] relu82 -> conv82 (in-place)
I0712 18:21:39.344061 45173 net.cpp:150] Setting up relu82
I0712 18:21:39.344079 45173 net.cpp:157] Top shape: 8 128 15 15 (230400)
I0712 18:21:39.344087 45173 net.cpp:165] Memory required for data: 7939010784
I0712 18:21:39.344096 45173 layer_factory.hpp:76] Creating layer pool7
I0712 18:21:39.344110 45173 net.cpp:106] Creating Layer pool7
I0712 18:21:39.344118 45173 net.cpp:454] pool7 <- conv82
I0712 18:21:39.344130 45173 net.cpp:411] pool7 -> pool7
I0712 18:21:39.344480 45173 net.cpp:150] Setting up pool7
I0712 18:21:39.344501 45173 net.cpp:157] Top shape: 8 128 8 8 (65536)
I0712 18:21:39.344509 45173 net.cpp:165] Memory required for data: 7939272928
I0712 18:21:39.344518 45173 layer_factory.hpp:76] Creating layer drop0
I0712 18:21:39.344533 45173 net.cpp:106] Creating Layer drop0
I0712 18:21:39.344542 45173 net.cpp:454] drop0 <- pool7
I0712 18:21:39.344555 45173 net.cpp:397] drop0 -> pool7 (in-place)
I0712 18:21:39.344594 45173 net.cpp:150] Setting up drop0
I0712 18:21:39.344609 45173 net.cpp:157] Top shape: 8 128 8 8 (65536)
I0712 18:21:39.344616 45173 net.cpp:165] Memory required for data: 7939535072
I0712 18:21:39.344624 45173 layer_factory.hpp:76] Creating layer conv91
I0712 18:21:39.344636 45173 net.cpp:106] Creating Layer conv91
I0712 18:21:39.344645 45173 net.cpp:454] conv91 <- pool7
I0712 18:21:39.344657 45173 net.cpp:411] conv91 -> conv91
I0712 18:21:39.345909 45173 cudnn_conv_layer.cpp:194] Reallocating workspace storage: 98304
I0712 18:21:39.345940 45173 net.cpp:150] Setting up conv91
I0712 18:21:39.345953 45173 net.cpp:157] Top shape: 8 3 1 1 (24)
I0712 18:21:39.345963 45173 net.cpp:165] Memory required for data: 7939535168
I0712 18:21:39.345973 45173 layer_factory.hpp:76] Creating layer conv91_conv91_0_split
I0712 18:21:39.345988 45173 net.cpp:106] Creating Layer conv91_conv91_0_split
I0712 18:21:39.345999 45173 net.cpp:454] conv91_conv91_0_split <- conv91
I0712 18:21:39.346009 45173 net.cpp:411] conv91_conv91_0_split -> conv91_conv91_0_split_0
I0712 18:21:39.346020 45173 net.cpp:411] conv91_conv91_0_split -> conv91_conv91_0_split_1
I0712 18:21:39.346074 45173 net.cpp:150] Setting up conv91_conv91_0_split
I0712 18:21:39.346086 45173 net.cpp:157] Top shape: 8 3 1 1 (24)
I0712 18:21:39.346101 45173 net.cpp:157] Top shape: 8 3 1 1 (24)
I0712 18:21:39.346108 45173 net.cpp:165] Memory required for data: 7939535360
I0712 18:21:39.346117 45173 layer_factory.hpp:76] Creating layer accuracy
I0712 18:21:39.346132 45173 net.cpp:106] Creating Layer accuracy
I0712 18:21:39.346139 45173 net.cpp:454] accuracy <- conv91_conv91_0_split_0
I0712 18:21:39.346148 45173 net.cpp:454] accuracy <- label_data_1_split_0
I0712 18:21:39.346158 45173 net.cpp:411] accuracy -> accuracy
…
