…
I0712 17:59:18.724946 44362 solver.cpp:90] Creating training net from net file: train_val-resultlayer.prototxt
I0712 17:59:18.742905 44362 net.cpp:322] The NetState phase (0) differed from the phase (1) specified by a rule in layer data
I0712 17:59:18.743283 44362 net.cpp:49] Initializing net from parameters: 
name: "FaceNN"
state {
  phase: TRAIN
}
layer {
  name: "data"
  type: "ImageData"
  top: "data"
  top: "label"
  include {
    phase: TRAIN
  }
  transform_param {
    mirror: true
    mean_value: 104
    mean_value: 117
    mean_value: 123
  }
  image_data_param {
    source: "../lists/mitosis_train.lst"
    batch_size: 8
    shuffle: true
  }
}
layer {
  name: "conv11"
  type: "Convolution"
  bottom: "data"
  top: "conv11"
  param {
    lr_mult: 0
    decay_mult: 1
  }
  param {
    lr_mult: 0
    decay_mult: 0
  }
  convolution_param {
    num_output: 32
    pad: 1
    stride: 1
    weight_filler {
      type: "xavier"
    }
    bias_filler {
      type: "constant"
    }
    kernel_h: 3
    kernel_w: 3
  }
}
layer {
  name: "relu11"
  type: "ReLU"
  bottom: "conv11"
  top: "conv11"
}
layer {
  name: "conv12"
  type: "Convolution"
  bottom: "conv11"
  top: "conv12"
  param {
    lr_mult: 0
    decay_mult: 1
  }
  param {
    lr_mult: 0
    decay_mult: 0
  }
  convolution_param {
    num_output: 32
    pad: 1
    stride: 1
    weight_filler {
      type: "xavier"
    }
    bias_filler {
      type: "constant"
    }
    kernel_h: 3
    kernel_w: 3
  }
}
layer {
  name: "relu12"
  type: "ReLU"
  bottom: "conv12"
  top: "conv12"
}
layer {
  name: "pool1"
  type: "Pooling"
  bottom: "conv12"
  top: "pool1"
  pooling_param {
    pool: MAX
    kernel_size: 2
    stride: 2
  }
}
layer {
  name: "conv21"
  type: "Convolution"
  bottom: "pool1"
  top: "conv21"
  param {
    lr_mult: 0
    decay_mult: 1
  }
  param {
    lr_mult: 0
    decay_mult: 0
  }
  convolution_param {
    num_output: 64
    pad: 1
    stride: 1
    weight_filler {
      type: "xavier"
    }
    bias_filler {
      type: "constant"
    }
    kernel_h: 3
    kernel_w: 3
  }
}
layer {
  name: "relu21"
  type: "ReLU"
  bottom: "conv21"
  top: "conv21"
}
layer {
  name: "conv22"
  type: "Convolution"
  bottom: "conv21"
  top: "conv22"
  param {
    lr_mult: 0
    decay_mult: 1
  }
  param {
    lr_mult: 0
    decay_mult: 0
  }
  convolution_param {
    num_output: 64
    pad: 1
    stride: 1
    weight_filler {
      type: "xavier"
    }
    bias_filler {
      type: "constant"
    }
    kernel_h: 3
    kernel_w: 3
  }
}
layer {
  name: "relu22"
  type: "ReLU"
  bottom: "conv22"
  top: "conv22"
}
layer {
  name: "pool2"
  type: "Pooling"
  bottom: "conv22"
  top: "pool2"
  pooling_param {
    pool: MAX
    kernel_size: 2
    stride: 2
  }
}
layer {
  name: "conv31"
  type: "Convolution"
  bottom: "pool2"
  top: "conv31"
  param {
    lr_mult: 0
    decay_mult: 1
  }
  param {
    lr_mult: 0
    decay_mult: 0
  }
  convolution_param {
    num_output: 96
    pad: 1
    stride: 1
    weight_filler {
      type: "xavier"
    }
    bias_filler {
      type: "constant"
    }
    kernel_h: 3
    kernel_w: 3
  }
}
layer {
  name: "relu31"
  type: "ReLU"
  bottom: "conv31"
  top: "conv31"
}
layer {
  name: "conv32"
  type: "Convolution"
  bottom: "conv31"
  top: "conv32"
  param {
    lr_mult: 0
    decay_mult: 1
  }
  param {
    lr_mult: 0
    decay_mult: 0
  }
  convolution_param {
    num_output: 96
    pad: 1
    stride: 1
    weight_filler {
      type: "xavier"
    }
    bias_filler {
      type: "constant"
    }
    kernel_h: 3
    kernel_w: 3
  }
}
layer {
  name: "relu32"
  type: "ReLU"
  bottom: "conv32"
  top: "conv32"
}
layer {
  name: "pool3"
  type: "Pooling"
  bottom: "conv32"
  top: "pool3"
  pooling_param {
    pool: MAX
    kernel_size: 2
    stride: 2
  }
}
layer {
  name: "conv41"
  type: "Convolution"
  bottom: "pool3"
  top: "conv41"
  param {
    lr_mult: 0
    decay_mult: 1
  }
  param {
    lr_mult: 0
    decay_mult: 0
  }
  convolution_param {
    num_output: 128
    pad: 1
    stride: 1
    weight_filler {
      type: "xavier"
    }
    bias_filler {
      type: "constant"
    }
    kernel_h: 3
    kernel_w: 3
  }
}
layer {
  name: "relu41"
  type: "ReLU"
  bottom: "conv41"
  top: "conv41"
}
layer {
  name: "conv42"
  type: "Convolution"
  bottom: "conv41"
  top: "conv42"
  param {
    lr_mult: 0
    decay_mult: 1
  }
  param {
    lr_mult: 0
    decay_mult: 0
  }
  convolution_param {
    num_output: 128
    pad: 1
    stride: 1
    weight_filler {
      type: "xavier"
    }
    bias_filler {
      type: "constant"
    }
    kernel_h: 3
    kernel_w: 3
  }
}
layer {
  name: "relu42"
  type: "ReLU"
  bottom: "conv42"
  top: "conv42"
}
layer {
  name: "pool4"
  type: "Pooling"
  bottom: "conv42"
  top: "pool4"
  pooling_param {
    pool: MAX
    kernel_size: 2
    stride: 2
  }
}
layer {
  name: "conv51"
  type: "Convolution"
  bottom: "pool4"
  top: "conv51"
  param {
    lr_mult: 0
    decay_mult: 1
  }
  param {
    lr_mult: 0
    decay_mult: 0
  }
  convolution_param {
    num_output: 256
    pad: 1
    stride: 1
    weight_filler {
      type: "xavier"
    }
    bias_filler {
      type: "constant"
    }
    kernel_h: 3
    kernel_w: 3
  }
}
layer {
  name: "relu51"
  type: "ReLU"
  bottom: "conv51"
  top: "conv51"
}
layer {
  name: "conv52"
  type: "Convolution"
  bottom: "conv51"
  top: "conv52"
  param {
    lr_mult: 0
    decay_mult: 1
  }
  param {
    lr_mult: 0
    decay_mult: 0
  }
  convolution_param {
    num_output: 256
    pad: 1
    stride: 1
    weight_filler {
      type: "xavier"
    }
    bias_filler {
      type: "constant"
    }
    kernel_h: 3
    kernel_w: 3
  }
}
layer {
  name: "relu52"
  type: "ReLU"
  bottom: "conv52"
  top: "conv52"
}
layer {
  name: "conv53"
  type: "Convolution"
  bottom: "conv52"
  top: "conv53"
  param {
    lr_mult: 0
    decay_mult: 1
  }
  param {
    lr_mult: 0
    decay_mult: 0
  }
  convolution_param {
    num_output: 256
    stride: 1
    weight_filler {
      type: "xavier"
    }
    bias_filler {
      type: "constant"
    }
    kernel_h: 7
    kernel_w: 7
  }
}
layer {
  name: "relu53"
  type: "ReLU"
  bottom: "conv53"
  top: "conv53"
}
layer {
  name: "conv54"
  type: "Convolution"
  bottom: "conv53"
  top: "conv54"
  param {
    lr_mult: 1
    decay_mult: 1
  }
  param {
    lr_mult: 2
    decay_mult: 0
  }
  convolution_param {
    num_output: 2
    stride: 1
    weight_filler {
      type: "xavier"
    }
    bias_filler {
      type: "constant"
    }
    kernel_h: 1
    kernel_w: 1
  }
}
layer {
  name: "interloss"
  type: "Softmax"
  bottom: "conv54"
  top: "interloss"
}
layer {
  name: "conv61"
  type: "Convolution"
  bottom: "interloss"
  top: "conv61"
  param {
    lr_mult: 1
    decay_mult: 1
  }
  param {
    lr_mult: 2
    decay_mult: 0
  }
  convolution_param {
    num_output: 64
    pad: 1
    stride: 1
    weight_filler {
      type: "xavier"
    }
    bias_filler {
      type: "constant"
    }
    kernel_h: 3
    kernel_w: 3
  }
}
layer {
  name: "relu61"
  type: "ReLU"
  bottom: "conv61"
  top: "conv61"
}
layer {
  name: "conv62"
  type: "Convolution"
  bottom: "conv61"
  top: "conv62"
  param {
    lr_mult: 1
    decay_mult: 1
  }
  param {
    lr_mult: 2
    decay_mult: 0
  }
  convolution_param {
    num_output: 64
    pad: 1
    stride: 1
    weight_filler {
      type: "xavier"
    }
    bias_filler {
      type: "constant"
    }
    kernel_h: 3
    kernel_w: 3
  }
}
layer {
  name: "relu62"
  type: "ReLU"
  bottom: "conv62"
  top: "conv62"
}
layer {
  name: "conv63"
  type: "Convolution"
  bottom: "conv62"
  top: "conv63"
  param {
    lr_mult: 1
    decay_mult: 1
  }
  param {
    lr_mult: 2
    decay_mult: 0
  }
  convolution_param {
    num_output: 64
    pad: 1
    stride: 1
    weight_filler {
      type: "xavier"
    }
    bias_filler {
      type: "constant"
    }
    kernel_h: 3
    kernel_w: 3
  }
}
layer {
  name: "relu63"
  type: "ReLU"
  bottom: "conv63"
  top: "conv63"
}
layer {
  name: "pool5"
  type: "Pooling"
  bottom: "conv63"
  top: "pool5"
  pooling_param {
    pool: MAX
    kernel_size: 2
    stride: 2
  }
}
layer {
  name: "conv71"
  type: "Convolution"
  bottom: "pool5"
  top: "conv71"
  param {
    lr_mult: 1
    decay_mult: 1
  }
  param {
    lr_mult: 2
    decay_mult: 0
  }
  convolution_param {
    num_output: 128
    pad: 1
    stride: 1
    weight_filler {
      type: "xavier"
    }
    bias_filler {
      type: "constant"
    }
    kernel_h: 3
    kernel_w: 3
  }
}
layer {
  name: "relu71"
  type: "ReLU"
  bottom: "conv71"
  top: "conv71"
}
layer {
  name: "conv72"
  type: "Convolution"
  bottom: "conv71"
  top: "conv72"
  param {
    lr_mult: 1
    decay_mult: 1
  }
  param {
    lr_mult: 2
    decay_mult: 0
  }
  convolution_param {
    num_output: 128
    pad: 1
    stride: 1
    weight_filler {
      type: "xavier"
    }
    bias_filler {
      type: "constant"
    }
    kernel_h: 3
    kernel_w: 3
  }
}
layer {
  name: "relu72"
  type: "ReLU"
  bottom: "conv72"
  top: "conv72"
}
layer {
  name: "conv73"
  type: "Convolution"
  bottom: "conv72"
  top: "conv73"
  param {
    lr_mult: 1
    decay_mult: 1
  }
  param {
    lr_mult: 2
    decay_mult: 0
  }
  convolution_param {
    num_output: 128
    pad: 1
    stride: 1
    weight_filler {
      type: "xavier"
    }
    bias_filler {
      type: "constant"
    }
    kernel_h: 3
    kernel_w: 3
  }
}
layer {
  name: "relu73"
  type: "ReLU"
  bottom: "conv73"
  top: "conv73"
}
layer {
  name: "pool6"
  type: "Pooling"
  bottom: "conv73"
  top: "pool6"
  pooling_param {
    pool: AVE
    kernel_size: 2
    stride: 2
  }
}
layer {
  name: "drop0"
  type: "Dropout"
  bottom: "pool6"
  top: "pool6"
  dropout_param {
    dropout_ratio: 0.4
  }
}
layer {
  name: "conv81"
  type: "Convolution"
  bottom: "pool6"
  top: "conv81"
  param {
    lr_mult: 1
    decay_mult: 1
  }
  param {
    lr_mult: 2
    decay_mult: 0
  }
  convolution_param {
    num_output: 3
    stride: 1
    weight_filler {
      type: "xavier"
    }
    bias_filler {
      type: "constant"
    }
    kernel_h: 15
    kernel_w: 15
  }
}
layer {
  name: "accuracy"
  type: "Accuracy"
  bottom: "conv81"
  bottom: "label"
  top: "accuracy"
}
layer {
  name: "loss"
  type: "SoftmaxWithLoss"
  bottom: "conv81"
  bottom: "label"
  top: "loss"
}
I0712 17:59:18.745785 44362 layer_factory.hpp:76] Creating layer data
I0712 17:59:18.745848 44362 net.cpp:106] Creating Layer data
I0712 17:59:18.745864 44362 net.cpp:411] data -> data
I0712 17:59:18.745904 44362 net.cpp:411] data -> label
I0712 17:59:18.746376 44362 image_data_layer.cpp:36] Opening file ../lists/mitosis_train.lst
I0712 17:59:18.760203 44362 image_data_layer.cpp:46] Shuffling data
I0712 17:59:18.763057 44362 image_data_layer.cpp:51] A total of 23544 images.
I0712 17:59:18.879602 44362 image_data_layer.cpp:78] output data size: 8,3,1000,1000
I0712 17:59:19.123575 44362 net.cpp:150] Setting up data
I0712 17:59:19.142222 44362 net.cpp:157] Top shape: 8 3 1000 1000 (24000000)
I0712 17:59:19.142276 44362 net.cpp:157] Top shape: 8 (8)
I0712 17:59:19.142285 44362 net.cpp:165] Memory required for data: 96000032
I0712 17:59:19.142300 44362 layer_factory.hpp:76] Creating layer label_data_1_split
I0712 17:59:19.142323 44362 net.cpp:106] Creating Layer label_data_1_split
I0712 17:59:19.142335 44362 net.cpp:454] label_data_1_split <- label
I0712 17:59:19.142355 44362 net.cpp:411] label_data_1_split -> label_data_1_split_0
I0712 17:59:19.142379 44362 net.cpp:411] label_data_1_split -> label_data_1_split_1
I0712 17:59:19.142467 44362 net.cpp:150] Setting up label_data_1_split
I0712 17:59:19.142491 44362 net.cpp:157] Top shape: 8 (8)
I0712 17:59:19.142513 44362 net.cpp:157] Top shape: 8 (8)
I0712 17:59:19.142521 44362 net.cpp:165] Memory required for data: 96000096
I0712 17:59:19.142530 44362 layer_factory.hpp:76] Creating layer conv11
I0712 17:59:19.142586 44362 net.cpp:106] Creating Layer conv11
I0712 17:59:19.142597 44362 net.cpp:454] conv11 <- data
I0712 17:59:19.142611 44362 net.cpp:411] conv11 -> conv11
I0712 17:59:19.331466 44362 net.cpp:150] Setting up conv11
I0712 17:59:19.331532 44362 net.cpp:157] Top shape: 8 32 1000 1000 (256000000)
I0712 17:59:19.331544 44362 net.cpp:165] Memory required for data: 1120000096
I0712 17:59:19.331590 44362 layer_factory.hpp:76] Creating layer relu11
I0712 17:59:19.331626 44362 net.cpp:106] Creating Layer relu11
I0712 17:59:19.331645 44362 net.cpp:454] relu11 <- conv11
I0712 17:59:19.331663 44362 net.cpp:397] relu11 -> conv11 (in-place)
I0712 17:59:19.331863 44362 net.cpp:150] Setting up relu11
I0712 17:59:19.331887 44362 net.cpp:157] Top shape: 8 32 1000 1000 (256000000)
I0712 17:59:19.331900 44362 net.cpp:165] Memory required for data: 2144000096
I0712 17:59:19.331928 44362 layer_factory.hpp:76] Creating layer conv12
I0712 17:59:19.331955 44362 net.cpp:106] Creating Layer conv12
I0712 17:59:19.331970 44362 net.cpp:454] conv12 <- conv11
I0712 17:59:19.331989 44362 net.cpp:411] conv12 -> conv12
I0712 17:59:19.336997 44362 net.cpp:150] Setting up conv12
I0712 17:59:19.337029 44362 net.cpp:157] Top shape: 8 32 1000 1000 (256000000)
I0712 17:59:19.337044 44362 net.cpp:165] Memory required for data: 3168000096
I0712 17:59:19.337065 44362 layer_factory.hpp:76] Creating layer relu12
I0712 17:59:19.337087 44362 net.cpp:106] Creating Layer relu12
I0712 17:59:19.337102 44362 net.cpp:454] relu12 <- conv12
I0712 17:59:19.337119 44362 net.cpp:397] relu12 -> conv12 (in-place)
I0712 17:59:19.337491 44362 net.cpp:150] Setting up relu12
I0712 17:59:19.337513 44362 net.cpp:157] Top shape: 8 32 1000 1000 (256000000)
I0712 17:59:19.337527 44362 net.cpp:165] Memory required for data: 4192000096
I0712 17:59:19.337540 44362 layer_factory.hpp:76] Creating layer pool1
I0712 17:59:19.337563 44362 net.cpp:106] Creating Layer pool1
I0712 17:59:19.337576 44362 net.cpp:454] pool1 <- conv12
I0712 17:59:19.337596 44362 net.cpp:411] pool1 -> pool1
I0712 17:59:19.337877 44362 net.cpp:150] Setting up pool1
I0712 17:59:19.337898 44362 net.cpp:157] Top shape: 8 32 500 500 (64000000)
I0712 17:59:19.337913 44362 net.cpp:165] Memory required for data: 4448000096
I0712 17:59:19.337925 44362 layer_factory.hpp:76] Creating layer conv21
I0712 17:59:19.337954 44362 net.cpp:106] Creating Layer conv21
I0712 17:59:19.337967 44362 net.cpp:454] conv21 <- pool1
I0712 17:59:19.337988 44362 net.cpp:411] conv21 -> conv21
I0712 17:59:19.340842 44362 net.cpp:150] Setting up conv21
I0712 17:59:19.340868 44362 net.cpp:157] Top shape: 8 64 500 500 (128000000)
I0712 17:59:19.340883 44362 net.cpp:165] Memory required for data: 4960000096
I0712 17:59:19.340904 44362 layer_factory.hpp:76] Creating layer relu21
I0712 17:59:19.340929 44362 net.cpp:106] Creating Layer relu21
I0712 17:59:19.340944 44362 net.cpp:454] relu21 <- conv21
I0712 17:59:19.340960 44362 net.cpp:397] relu21 -> conv21 (in-place)
I0712 17:59:19.341327 44362 net.cpp:150] Setting up relu21
I0712 17:59:19.341351 44362 net.cpp:157] Top shape: 8 64 500 500 (128000000)
I0712 17:59:19.341364 44362 net.cpp:165] Memory required for data: 5472000096
I0712 17:59:19.341377 44362 layer_factory.hpp:76] Creating layer conv22
I0712 17:59:19.341403 44362 net.cpp:106] Creating Layer conv22
I0712 17:59:19.341418 44362 net.cpp:454] conv22 <- conv21
I0712 17:59:19.341434 44362 net.cpp:411] conv22 -> conv22
I0712 17:59:19.343626 44362 cudnn_conv_layer.cpp:194] Reallocating workspace storage: 6912
I0712 17:59:19.343885 44362 net.cpp:150] Setting up conv22
I0712 17:59:19.343909 44362 net.cpp:157] Top shape: 8 64 500 500 (128000000)
I0712 17:59:19.343922 44362 net.cpp:165] Memory required for data: 5984000096
I0712 17:59:19.343941 44362 layer_factory.hpp:76] Creating layer relu22
I0712 17:59:19.343961 44362 net.cpp:106] Creating Layer relu22
I0712 17:59:19.343974 44362 net.cpp:454] relu22 <- conv22
I0712 17:59:19.343994 44362 net.cpp:397] relu22 -> conv22 (in-place)
I0712 17:59:19.344367 44362 net.cpp:150] Setting up relu22
I0712 17:59:19.344419 44362 net.cpp:157] Top shape: 8 64 500 500 (128000000)
I0712 17:59:19.344435 44362 net.cpp:165] Memory required for data: 6496000096
I0712 17:59:19.344451 44362 layer_factory.hpp:76] Creating layer pool2
I0712 17:59:19.344473 44362 net.cpp:106] Creating Layer pool2
I0712 17:59:19.344488 44362 net.cpp:454] pool2 <- conv22
I0712 17:59:19.344504 44362 net.cpp:411] pool2 -> pool2
I0712 17:59:19.344756 44362 net.cpp:150] Setting up pool2
I0712 17:59:19.344777 44362 net.cpp:157] Top shape: 8 64 250 250 (32000000)
I0712 17:59:19.344791 44362 net.cpp:165] Memory required for data: 6624000096
I0712 17:59:19.344805 44362 layer_factory.hpp:76] Creating layer conv31
I0712 17:59:19.344827 44362 net.cpp:106] Creating Layer conv31
I0712 17:59:19.344841 44362 net.cpp:454] conv31 <- pool2
I0712 17:59:19.344863 44362 net.cpp:411] conv31 -> conv31
I0712 17:59:19.346434 44362 cudnn_conv_layer.cpp:194] Reallocating workspace storage: 6912
I0712 17:59:19.346474 44362 net.cpp:150] Setting up conv31
I0712 17:59:19.346493 44362 net.cpp:157] Top shape: 8 96 250 250 (48000000)
I0712 17:59:19.346508 44362 net.cpp:165] Memory required for data: 6816000096
I0712 17:59:19.346534 44362 layer_factory.hpp:76] Creating layer relu31
I0712 17:59:19.346551 44362 net.cpp:106] Creating Layer relu31
I0712 17:59:19.346565 44362 net.cpp:454] relu31 <- conv31
I0712 17:59:19.346583 44362 net.cpp:397] relu31 -> conv31 (in-place)
I0712 17:59:19.346981 44362 net.cpp:150] Setting up relu31
I0712 17:59:19.347004 44362 net.cpp:157] Top shape: 8 96 250 250 (48000000)
I0712 17:59:19.347018 44362 net.cpp:165] Memory required for data: 7008000096
I0712 17:59:19.347031 44362 layer_factory.hpp:76] Creating layer conv32
I0712 17:59:19.347056 44362 net.cpp:106] Creating Layer conv32
I0712 17:59:19.347071 44362 net.cpp:454] conv32 <- conv31
I0712 17:59:19.347096 44362 net.cpp:411] conv32 -> conv32
I0712 17:59:19.349673 44362 cudnn_conv_layer.cpp:194] Reallocating workspace storage: 10368
I0712 17:59:19.349714 44362 net.cpp:150] Setting up conv32
I0712 17:59:19.349735 44362 net.cpp:157] Top shape: 8 96 250 250 (48000000)
I0712 17:59:19.349747 44362 net.cpp:165] Memory required for data: 7200000096
I0712 17:59:19.349766 44362 layer_factory.hpp:76] Creating layer relu32
I0712 17:59:19.349787 44362 net.cpp:106] Creating Layer relu32
I0712 17:59:19.349802 44362 net.cpp:454] relu32 <- conv32
I0712 17:59:19.349822 44362 net.cpp:397] relu32 -> conv32 (in-place)
I0712 17:59:19.350065 44362 net.cpp:150] Setting up relu32
I0712 17:59:19.350087 44362 net.cpp:157] Top shape: 8 96 250 250 (48000000)
I0712 17:59:19.350100 44362 net.cpp:165] Memory required for data: 7392000096
I0712 17:59:19.350114 44362 layer_factory.hpp:76] Creating layer pool3
I0712 17:59:19.350138 44362 net.cpp:106] Creating Layer pool3
I0712 17:59:19.350152 44362 net.cpp:454] pool3 <- conv32
I0712 17:59:19.350168 44362 net.cpp:411] pool3 -> pool3
I0712 17:59:19.350620 44362 net.cpp:150] Setting up pool3
I0712 17:59:19.350651 44362 net.cpp:157] Top shape: 8 96 125 125 (12000000)
I0712 17:59:19.350669 44362 net.cpp:165] Memory required for data: 7440000096
I0712 17:59:19.350687 44362 layer_factory.hpp:76] Creating layer conv41
I0712 17:59:19.350718 44362 net.cpp:106] Creating Layer conv41
I0712 17:59:19.350749 44362 net.cpp:454] conv41 <- pool3
I0712 17:59:19.350764 44362 net.cpp:411] conv41 -> conv41
I0712 17:59:19.352496 44362 cudnn_conv_layer.cpp:194] Reallocating workspace storage: 10368
I0712 17:59:19.352545 44362 net.cpp:150] Setting up conv41
I0712 17:59:19.352558 44362 net.cpp:157] Top shape: 8 128 125 125 (16000000)
I0712 17:59:19.352567 44362 net.cpp:165] Memory required for data: 7504000096
I0712 17:59:19.352578 44362 layer_factory.hpp:76] Creating layer relu41
I0712 17:59:19.352591 44362 net.cpp:106] Creating Layer relu41
I0712 17:59:19.352599 44362 net.cpp:454] relu41 <- conv41
I0712 17:59:19.352612 44362 net.cpp:397] relu41 -> conv41 (in-place)
I0712 17:59:19.353157 44362 net.cpp:150] Setting up relu41
I0712 17:59:19.353188 44362 net.cpp:157] Top shape: 8 128 125 125 (16000000)
I0712 17:59:19.353220 44362 net.cpp:165] Memory required for data: 7568000096
I0712 17:59:19.353230 44362 layer_factory.hpp:76] Creating layer conv42
I0712 17:59:19.353247 44362 net.cpp:106] Creating Layer conv42
I0712 17:59:19.353263 44362 net.cpp:454] conv42 <- conv41
I0712 17:59:19.353293 44362 net.cpp:411] conv42 -> conv42
I0712 17:59:19.356230 44362 cudnn_conv_layer.cpp:194] Reallocating workspace storage: 13824
I0712 17:59:19.356279 44362 net.cpp:150] Setting up conv42
I0712 17:59:19.356292 44362 net.cpp:157] Top shape: 8 128 125 125 (16000000)
I0712 17:59:19.356300 44362 net.cpp:165] Memory required for data: 7632000096
I0712 17:59:19.356312 44362 layer_factory.hpp:76] Creating layer relu42
I0712 17:59:19.356323 44362 net.cpp:106] Creating Layer relu42
I0712 17:59:19.356331 44362 net.cpp:454] relu42 <- conv42
I0712 17:59:19.356343 44362 net.cpp:397] relu42 -> conv42 (in-place)
I0712 17:59:19.356587 44362 net.cpp:150] Setting up relu42
I0712 17:59:19.356614 44362 net.cpp:157] Top shape: 8 128 125 125 (16000000)
I0712 17:59:19.356623 44362 net.cpp:165] Memory required for data: 7696000096
I0712 17:59:19.356634 44362 layer_factory.hpp:76] Creating layer pool4
I0712 17:59:19.356647 44362 net.cpp:106] Creating Layer pool4
I0712 17:59:19.356657 44362 net.cpp:454] pool4 <- conv42
I0712 17:59:19.356667 44362 net.cpp:411] pool4 -> pool4
I0712 17:59:19.357077 44362 net.cpp:150] Setting up pool4
I0712 17:59:19.357108 44362 net.cpp:157] Top shape: 8 128 63 63 (4064256)
I0712 17:59:19.357117 44362 net.cpp:165] Memory required for data: 7712257120
I0712 17:59:19.357125 44362 layer_factory.hpp:76] Creating layer conv51
I0712 17:59:19.357142 44362 net.cpp:106] Creating Layer conv51
I0712 17:59:19.357151 44362 net.cpp:454] conv51 <- pool4
I0712 17:59:19.357162 44362 net.cpp:411] conv51 -> conv51
I0712 17:59:19.361973 44362 cudnn_conv_layer.cpp:194] Reallocating workspace storage: 13824
I0712 17:59:19.362016 44362 net.cpp:150] Setting up conv51
I0712 17:59:19.362030 44362 net.cpp:157] Top shape: 8 256 63 63 (8128512)
I0712 17:59:19.362037 44362 net.cpp:165] Memory required for data: 7744771168
I0712 17:59:19.362056 44362 layer_factory.hpp:76] Creating layer relu51
I0712 17:59:19.362087 44362 net.cpp:106] Creating Layer relu51
I0712 17:59:19.362095 44362 net.cpp:454] relu51 <- conv51
I0712 17:59:19.362108 44362 net.cpp:397] relu51 -> conv51 (in-place)
I0712 17:59:19.362349 44362 net.cpp:150] Setting up relu51
I0712 17:59:19.362376 44362 net.cpp:157] Top shape: 8 256 63 63 (8128512)
I0712 17:59:19.362385 44362 net.cpp:165] Memory required for data: 7777285216
I0712 17:59:19.362393 44362 layer_factory.hpp:76] Creating layer conv52
I0712 17:59:19.362413 44362 net.cpp:106] Creating Layer conv52
I0712 17:59:19.362423 44362 net.cpp:454] conv52 <- conv51
I0712 17:59:19.362437 44362 net.cpp:411] conv52 -> conv52
I0712 17:59:19.369153 44362 cudnn_conv_layer.cpp:194] Reallocating workspace storage: 27648
I0712 17:59:19.369200 44362 net.cpp:150] Setting up conv52
I0712 17:59:19.369213 44362 net.cpp:157] Top shape: 8 256 63 63 (8128512)
I0712 17:59:19.369221 44362 net.cpp:165] Memory required for data: 7809799264
I0712 17:59:19.369233 44362 layer_factory.hpp:76] Creating layer relu52
I0712 17:59:19.369246 44362 net.cpp:106] Creating Layer relu52
I0712 17:59:19.369254 44362 net.cpp:454] relu52 <- conv52
I0712 17:59:19.369263 44362 net.cpp:397] relu52 -> conv52 (in-place)
I0712 17:59:19.369657 44362 net.cpp:150] Setting up relu52
I0712 17:59:19.369688 44362 net.cpp:157] Top shape: 8 256 63 63 (8128512)
I0712 17:59:19.369696 44362 net.cpp:165] Memory required for data: 7842313312
I0712 17:59:19.369704 44362 layer_factory.hpp:76] Creating layer conv53
I0712 17:59:19.369722 44362 net.cpp:106] Creating Layer conv53
I0712 17:59:19.369731 44362 net.cpp:454] conv53 <- conv52
I0712 17:59:19.369745 44362 net.cpp:411] conv53 -> conv53
I0712 17:59:19.409307 44362 cudnn_conv_layer.cpp:194] Reallocating workspace storage: 150528
I0712 17:59:19.409610 44362 net.cpp:150] Setting up conv53
I0712 17:59:19.409657 44362 net.cpp:157] Top shape: 8 256 57 57 (6653952)
I0712 17:59:19.409696 44362 net.cpp:165] Memory required for data: 7868929120
I0712 17:59:19.409741 44362 layer_factory.hpp:76] Creating layer relu53
I0712 17:59:19.409770 44362 net.cpp:106] Creating Layer relu53
I0712 17:59:19.409781 44362 net.cpp:454] relu53 <- conv53
I0712 17:59:19.409792 44362 net.cpp:397] relu53 -> conv53 (in-place)
I0712 17:59:19.410174 44362 net.cpp:150] Setting up relu53
I0712 17:59:19.410207 44362 net.cpp:157] Top shape: 8 256 57 57 (6653952)
I0712 17:59:19.410217 44362 net.cpp:165] Memory required for data: 7895544928
I0712 17:59:19.410228 44362 layer_factory.hpp:76] Creating layer conv54
I0712 17:59:19.410243 44362 net.cpp:106] Creating Layer conv54
I0712 17:59:19.410251 44362 net.cpp:454] conv54 <- conv53
I0712 17:59:19.410264 44362 net.cpp:411] conv54 -> conv54
I0712 17:59:19.411423 44362 net.cpp:150] Setting up conv54
I0712 17:59:19.411458 44362 net.cpp:157] Top shape: 8 2 57 57 (51984)
I0712 17:59:19.411466 44362 net.cpp:165] Memory required for data: 7895752864
I0712 17:59:19.411478 44362 layer_factory.hpp:76] Creating layer interloss
I0712 17:59:19.411491 44362 net.cpp:106] Creating Layer interloss
I0712 17:59:19.411500 44362 net.cpp:454] interloss <- conv54
I0712 17:59:19.411514 44362 net.cpp:411] interloss -> interloss
I0712 17:59:19.411831 44362 net.cpp:150] Setting up interloss
I0712 17:59:19.411859 44362 net.cpp:157] Top shape: 8 2 57 57 (51984)
I0712 17:59:19.411867 44362 net.cpp:165] Memory required for data: 7895960800
I0712 17:59:19.411875 44362 layer_factory.hpp:76] Creating layer conv61
I0712 17:59:19.411890 44362 net.cpp:106] Creating Layer conv61
I0712 17:59:19.411900 44362 net.cpp:454] conv61 <- interloss
I0712 17:59:19.411909 44362 net.cpp:411] conv61 -> conv61
I0712 17:59:19.413027 44362 cudnn_conv_layer.cpp:194] Reallocating workspace storage: 5614272
I0712 17:59:19.413317 44362 net.cpp:150] Setting up conv61
I0712 17:59:19.413347 44362 net.cpp:157] Top shape: 8 64 57 57 (1663488)
I0712 17:59:19.413354 44362 net.cpp:165] Memory required for data: 7902614752
I0712 17:59:19.413370 44362 layer_factory.hpp:76] Creating layer relu61
I0712 17:59:19.413381 44362 net.cpp:106] Creating Layer relu61
I0712 17:59:19.413390 44362 net.cpp:454] relu61 <- conv61
I0712 17:59:19.413399 44362 net.cpp:397] relu61 -> conv61 (in-place)
I0712 17:59:19.413802 44362 net.cpp:150] Setting up relu61
I0712 17:59:19.413832 44362 net.cpp:157] Top shape: 8 64 57 57 (1663488)
I0712 17:59:19.413841 44362 net.cpp:165] Memory required for data: 7909268704
I0712 17:59:19.413851 44362 layer_factory.hpp:76] Creating layer conv62
I0712 17:59:19.413875 44362 net.cpp:106] Creating Layer conv62
I0712 17:59:19.413884 44362 net.cpp:454] conv62 <- conv61
I0712 17:59:19.413899 44362 net.cpp:411] conv62 -> conv62
I0712 17:59:19.416797 44362 net.cpp:150] Setting up conv62
I0712 17:59:19.416823 44362 net.cpp:157] Top shape: 8 64 57 57 (1663488)
I0712 17:59:19.416833 44362 net.cpp:165] Memory required for data: 7915922656
I0712 17:59:19.416846 44362 layer_factory.hpp:76] Creating layer relu62
I0712 17:59:19.416859 44362 net.cpp:106] Creating Layer relu62
I0712 17:59:19.416868 44362 net.cpp:454] relu62 <- conv62
I0712 17:59:19.416879 44362 net.cpp:397] relu62 -> conv62 (in-place)
I0712 17:59:19.417279 44362 net.cpp:150] Setting up relu62
I0712 17:59:19.417322 44362 net.cpp:157] Top shape: 8 64 57 57 (1663488)
I0712 17:59:19.417331 44362 net.cpp:165] Memory required for data: 7922576608
I0712 17:59:19.417340 44362 layer_factory.hpp:76] Creating layer conv63
I0712 17:59:19.417356 44362 net.cpp:106] Creating Layer conv63
I0712 17:59:19.417377 44362 net.cpp:454] conv63 <- conv62
I0712 17:59:19.417390 44362 net.cpp:411] conv63 -> conv63
I0712 17:59:19.419051 44362 net.cpp:150] Setting up conv63
I0712 17:59:19.419085 44362 net.cpp:157] Top shape: 8 64 57 57 (1663488)
I0712 17:59:19.419095 44362 net.cpp:165] Memory required for data: 7929230560
I0712 17:59:19.419106 44362 layer_factory.hpp:76] Creating layer relu63
I0712 17:59:19.419122 44362 net.cpp:106] Creating Layer relu63
I0712 17:59:19.419131 44362 net.cpp:454] relu63 <- conv63
I0712 17:59:19.419183 44362 net.cpp:397] relu63 -> conv63 (in-place)
I0712 17:59:19.419409 44362 net.cpp:150] Setting up relu63
I0712 17:59:19.419426 44362 net.cpp:157] Top shape: 8 64 57 57 (1663488)
I0712 17:59:19.419447 44362 net.cpp:165] Memory required for data: 7935884512
I0712 17:59:19.419456 44362 layer_factory.hpp:76] Creating layer pool5
I0712 17:59:19.419472 44362 net.cpp:106] Creating Layer pool5
I0712 17:59:19.419481 44362 net.cpp:454] pool5 <- conv63
I0712 17:59:19.419492 44362 net.cpp:411] pool5 -> pool5
I0712 17:59:19.419895 44362 net.cpp:150] Setting up pool5
I0712 17:59:19.419926 44362 net.cpp:157] Top shape: 8 64 29 29 (430592)
I0712 17:59:19.419947 44362 net.cpp:165] Memory required for data: 7937606880
I0712 17:59:19.419955 44362 layer_factory.hpp:76] Creating layer conv71
I0712 17:59:19.419971 44362 net.cpp:106] Creating Layer conv71
I0712 17:59:19.419981 44362 net.cpp:454] conv71 <- pool5
I0712 17:59:19.419993 44362 net.cpp:411] conv71 -> conv71
I0712 17:59:19.421697 44362 cudnn_conv_layer.cpp:194] Reallocating workspace storage: 6912
I0712 17:59:19.421749 44362 net.cpp:150] Setting up conv71
I0712 17:59:19.421762 44362 net.cpp:157] Top shape: 8 128 29 29 (861184)
I0712 17:59:19.421772 44362 net.cpp:165] Memory required for data: 7941051616
I0712 17:59:19.421787 44362 layer_factory.hpp:76] Creating layer relu71
I0712 17:59:19.421798 44362 net.cpp:106] Creating Layer relu71
I0712 17:59:19.421808 44362 net.cpp:454] relu71 <- conv71
I0712 17:59:19.421824 44362 net.cpp:397] relu71 -> conv71 (in-place)
I0712 17:59:19.422058 44362 net.cpp:150] Setting up relu71
I0712 17:59:19.422086 44362 net.cpp:157] Top shape: 8 128 29 29 (861184)
I0712 17:59:19.422094 44362 net.cpp:165] Memory required for data: 7944496352
I0712 17:59:19.422103 44362 layer_factory.hpp:76] Creating layer conv72
I0712 17:59:19.422119 44362 net.cpp:106] Creating Layer conv72
I0712 17:59:19.422128 44362 net.cpp:454] conv72 <- conv71
I0712 17:59:19.422142 44362 net.cpp:411] conv72 -> conv72
I0712 17:59:19.425186 44362 cudnn_conv_layer.cpp:194] Reallocating workspace storage: 13824
I0712 17:59:19.425236 44362 net.cpp:150] Setting up conv72
I0712 17:59:19.425251 44362 net.cpp:157] Top shape: 8 128 29 29 (861184)
I0712 17:59:19.425259 44362 net.cpp:165] Memory required for data: 7947941088
I0712 17:59:19.425281 44362 layer_factory.hpp:76] Creating layer relu72
I0712 17:59:19.425310 44362 net.cpp:106] Creating Layer relu72
I0712 17:59:19.425319 44362 net.cpp:454] relu72 <- conv72
I0712 17:59:19.425329 44362 net.cpp:397] relu72 -> conv72 (in-place)
I0712 17:59:19.425566 44362 net.cpp:150] Setting up relu72
I0712 17:59:19.425593 44362 net.cpp:157] Top shape: 8 128 29 29 (861184)
I0712 17:59:19.425602 44362 net.cpp:165] Memory required for data: 7951385824
I0712 17:59:19.425611 44362 layer_factory.hpp:76] Creating layer conv73
I0712 17:59:19.425631 44362 net.cpp:106] Creating Layer conv73
I0712 17:59:19.425640 44362 net.cpp:454] conv73 <- conv72
I0712 17:59:19.425653 44362 net.cpp:411] conv73 -> conv73
I0712 17:59:19.428648 44362 cudnn_conv_layer.cpp:194] Reallocating workspace storage: 13824
I0712 17:59:19.428694 44362 net.cpp:150] Setting up conv73
I0712 17:59:19.428742 44362 net.cpp:157] Top shape: 8 128 29 29 (861184)
I0712 17:59:19.428755 44362 net.cpp:165] Memory required for data: 7954830560
I0712 17:59:19.428767 44362 layer_factory.hpp:76] Creating layer relu73
I0712 17:59:19.428779 44362 net.cpp:106] Creating Layer relu73
I0712 17:59:19.428788 44362 net.cpp:454] relu73 <- conv73
I0712 17:59:19.428798 44362 net.cpp:397] relu73 -> conv73 (in-place)
I0712 17:59:19.429163 44362 net.cpp:150] Setting up relu73
I0712 17:59:19.429194 44362 net.cpp:157] Top shape: 8 128 29 29 (861184)
I0712 17:59:19.429204 44362 net.cpp:165] Memory required for data: 7958275296
I0712 17:59:19.429213 44362 layer_factory.hpp:76] Creating layer pool6
I0712 17:59:19.429224 44362 net.cpp:106] Creating Layer pool6
I0712 17:59:19.429234 44362 net.cpp:454] pool6 <- conv73
I0712 17:59:19.429244 44362 net.cpp:411] pool6 -> pool6
I0712 17:59:19.429467 44362 net.cpp:150] Setting up pool6
I0712 17:59:19.429525 44362 net.cpp:157] Top shape: 8 128 15 15 (230400)
I0712 17:59:19.429535 44362 net.cpp:165] Memory required for data: 7959196896
I0712 17:59:19.429544 44362 layer_factory.hpp:76] Creating layer drop0
I0712 17:59:19.429563 44362 net.cpp:106] Creating Layer drop0
I0712 17:59:19.429572 44362 net.cpp:454] drop0 <- pool6
I0712 17:59:19.429582 44362 net.cpp:397] drop0 -> pool6 (in-place)
I0712 17:59:19.429626 44362 net.cpp:150] Setting up drop0
I0712 17:59:19.429641 44362 net.cpp:157] Top shape: 8 128 15 15 (230400)
I0712 17:59:19.429648 44362 net.cpp:165] Memory required for data: 7960118496
I0712 17:59:19.429656 44362 layer_factory.hpp:76] Creating layer conv81
I0712 17:59:19.429674 44362 net.cpp:106] Creating Layer conv81
I0712 17:59:19.429683 44362 net.cpp:454] conv81 <- pool6
I0712 17:59:19.429697 44362 net.cpp:411] conv81 -> conv81
I0712 17:59:19.431459 44362 cudnn_conv_layer.cpp:194] Reallocating workspace storage: 345600
I0712 17:59:19.431710 44362 net.cpp:150] Setting up conv81
I0712 17:59:19.431743 44362 net.cpp:157] Top shape: 8 3 1 1 (24)
I0712 17:59:19.431753 44362 net.cpp:165] Memory required for data: 7960118592
I0712 17:59:19.431766 44362 layer_factory.hpp:76] Creating layer conv81_conv81_0_split
I0712 17:59:19.431777 44362 net.cpp:106] Creating Layer conv81_conv81_0_split
I0712 17:59:19.431785 44362 net.cpp:454] conv81_conv81_0_split <- conv81
I0712 17:59:19.431797 44362 net.cpp:411] conv81_conv81_0_split -> conv81_conv81_0_split_0
I0712 17:59:19.431807 44362 net.cpp:411] conv81_conv81_0_split -> conv81_conv81_0_split_1
I0712 17:59:19.431864 44362 net.cpp:150] Setting up conv81_conv81_0_split
I0712 17:59:19.431877 44362 net.cpp:157] Top shape: 8 3 1 1 (24)
I0712 17:59:19.431886 44362 net.cpp:157] Top shape: 8 3 1 1 (24)
I0712 17:59:19.431895 44362 net.cpp:165] Memory required for data: 7960118784
I0712 17:59:19.431902 44362 layer_factory.hpp:76] Creating layer accuracy
I0712 17:59:19.444496 44362 net.cpp:106] Creating Layer accuracy
I0712 17:59:19.444519 44362 net.cpp:454] accuracy <- conv81_conv81_0_split_0
I0712 17:59:19.444538 44362 net.cpp:454] accuracy <- label_data_1_split_0
I0712 17:59:19.444545 44362 net.cpp:411] accuracy -> accuracy
…
