…
I0727 09:59:07.301189 111159 net.cpp:322] The NetState phase (0) differed from the phase (1) specified by a rule in layer data
I0727 09:59:07.301448 111159 net.cpp:49] Initializing net from parameters: 
name: "Result Layer 3 Stack"
state {
  phase: TRAIN
}
layer {
  name: "data"
  type: "ImageData"
  top: "data"
  top: "label"
  include {
    phase: TRAIN
  }
  transform_param {
    mirror: true
    mean_value: 150
    mean_value: 150
    mean_value: 150
  }
  image_data_param {
    source: "../lists/mitosis_train-norm-bin.lst"
    batch_size: 32
    shuffle: true
    new_height: 1000
    new_width: 1000
  }
}
layer {
  name: "conv1"
  type: "Convolution"
  bottom: "data"
  top: "conv1"
  param {
    lr_mult: 0
    decay_mult: 0
  }
  param {
    lr_mult: 0
    decay_mult: 0
  }
  convolution_param {
    num_output: 16
    pad: 0
    kernel_size: 4
    stride: 1
  }
}
layer {
  name: "nonlin1"
  type: "ReLU"
  bottom: "conv1"
  top: "conv1"
}
layer {
  name: "pool1"
  type: "Pooling"
  bottom: "conv1"
  top: "pool1"
  pooling_param {
    pool: MAX
    kernel_size: 2
    stride: 2
  }
}
layer {
  name: "conv2"
  type: "Convolution"
  bottom: "pool1"
  top: "conv2"
  param {
    lr_mult: 0
    decay_mult: 0
  }
  param {
    lr_mult: 0
    decay_mult: 0
  }
  convolution_param {
    num_output: 16
    pad: 0
    kernel_size: 3
    stride: 1
  }
}
layer {
  name: "nonlin2"
  type: "ReLU"
  bottom: "conv2"
  top: "conv2"
}
layer {
  name: "pool2"
  type: "Pooling"
  bottom: "conv2"
  top: "pool2"
  pooling_param {
    pool: MAX
    kernel_size: 2
    stride: 2
  }
}
layer {
  name: "conv3"
  type: "Convolution"
  bottom: "pool2"
  top: "conv3"
  param {
    lr_mult: 0
    decay_mult: 0
  }
  param {
    lr_mult: 0
    decay_mult: 0
  }
  convolution_param {
    num_output: 16
    pad: 0
    kernel_size: 3
    stride: 1
  }
}
layer {
  name: "nonlin3"
  type: "ReLU"
  bottom: "conv3"
  top: "conv3"
}
layer {
  name: "pool3"
  type: "Pooling"
  bottom: "conv3"
  top: "pool3"
  pooling_param {
    pool: MAX
    kernel_size: 2
    stride: 2
  }
}
layer {
  name: "conv4"
  type: "Convolution"
  bottom: "pool3"
  top: "conv4"
  param {
    lr_mult: 0
    decay_mult: 0
  }
  param {
    lr_mult: 0
    decay_mult: 0
  }
  convolution_param {
    num_output: 16
    pad: 0
    kernel_size: 3
    stride: 1
  }
}
layer {
  name: "nonlin4"
  type: "ReLU"
  bottom: "conv4"
  top: "conv4"
}
layer {
  name: "pool4"
  type: "Pooling"
  bottom: "conv4"
  top: "pool4"
  pooling_param {
    pool: MAX
    kernel_size: 2
    stride: 2
  }
}
layer {
  name: "ip1_c"
  type: "Convolution"
  bottom: "pool4"
  top: "ip1"
  convolution_param {
    num_output: 200
    pad: 0
    kernel_size: 2
    stride: 1
  }
}
layer {
  name: "nonlin_ip1"
  type: "ReLU"
  bottom: "ip1"
  top: "ip1"
}
layer {
  name: "conv61"
  type: "Convolution"
  bottom: "ip1"
  top: "conv61"
  param {
    lr_mult: 1
    decay_mult: 1
  }
  param {
    lr_mult: 2
    decay_mult: 0
  }
  convolution_param {
    num_output: 64
    pad: 1
    stride: 1
    weight_filler {
      type: "xavier"
    }
    bias_filler {
      type: "constant"
    }
    kernel_h: 3
    kernel_w: 3
  }
}
layer {
  name: "relu61"
  type: "ReLU"
  bottom: "conv61"
  top: "conv61"
}
layer {
  name: "conv62"
  type: "Convolution"
  bottom: "conv61"
  top: "conv62"
  param {
    lr_mult: 1
    decay_mult: 1
  }
  param {
    lr_mult: 2
    decay_mult: 0
  }
  convolution_param {
    num_output: 64
    pad: 1
    stride: 1
    weight_filler {
      type: "xavier"
    }
    bias_filler {
      type: "constant"
    }
    kernel_h: 3
    kernel_w: 3
  }
}
layer {
  name: "relu62"
  type: "ReLU"
  bottom: "conv62"
  top: "conv62"
}
layer {
  name: "pool5"
  type: "Pooling"
  bottom: "conv62"
  top: "pool5"
  pooling_param {
    pool: MAX
    kernel_size: 2
    stride: 2
  }
}
layer {
  name: "conv71"
  type: "Convolution"
  bottom: "pool5"
  top: "conv71"
  param {
    lr_mult: 1
    decay_mult: 1
  }
  param {
    lr_mult: 2
    decay_mult: 0
  }
  convolution_param {
    num_output: 96
    pad: 1
    stride: 1
    weight_filler {
      type: "xavier"
    }
    bias_filler {
      type: "constant"
    }
    kernel_h: 3
    kernel_w: 3
  }
}
layer {
  name: "relu71"
  type: "ReLU"
  bottom: "conv71"
  top: "conv71"
}
layer {
  name: "conv72"
  type: "Convolution"
  bottom: "conv71"
  top: "conv72"
  param {
    lr_mult: 1
    decay_mult: 1
  }
  param {
    lr_mult: 2
    decay_mult: 0
  }
  convolution_param {
    num_output: 96
    pad: 1
    stride: 1
    weight_filler {
      type: "xavier"
    }
    bias_filler {
      type: "constant"
    }
    kernel_h: 3
    kernel_w: 3
  }
}
layer {
  name: "relu72"
  type: "ReLU"
  bottom: "conv72"
  top: "conv72"
}
layer {
  name: "pool6"
  type: "Pooling"
  bottom: "conv72"
  top: "pool6"
  pooling_param {
    pool: MAX
    kernel_size: 2
    stride: 2
  }
}
layer {
  name: "conv81"
  type: "Convolution"
  bottom: "pool6"
  top: "conv81"
  param {
    lr_mult: 1
    decay_mult: 1
  }
  param {
    lr_mult: 2
    decay_mult: 0
  }
  convolution_param {
    num_output: 128
    pad: 1
    stride: 1
    weight_filler {
      type: "xavier"
    }
    bias_filler {
      type: "constant"
    }
    kernel_h: 3
    kernel_w: 3
  }
}
layer {
  name: "relu81"
  type: "ReLU"
  bottom: "conv81"
  top: "conv81"
}
layer {
  name: "conv82"
  type: "Convolution"
  bottom: "conv81"
  top: "conv82"
  param {
    lr_mult: 1
    decay_mult: 1
  }
  param {
    lr_mult: 2
    decay_mult: 0
  }
  convolution_param {
    num_output: 128
    pad: 1
    stride: 1
    weight_filler {
      type: "xavier"
    }
    bias_filler {
      type: "constant"
    }
    kernel_h: 3
    kernel_w: 3
  }
}
layer {
  name: "relu82"
  type: "ReLU"
  bottom: "conv82"
  top: "conv82"
}
layer {
  name: "pool7"
  type: "Pooling"
  bottom: "conv82"
  top: "pool7"
  pooling_param {
    pool: AVE
    kernel_size: 2
    stride: 2
  }
}
layer {
  name: "drop0"
  type: "Dropout"
  bottom: "pool7"
  top: "pool7"
  dropout_param {
    dropout_ratio: 0.4
  }
}
layer {
  name: "conv91"
  type: "Convolution"
  bottom: "pool7"
  top: "conv91"
  param {
    lr_mult: 1
    decay_mult: 1
  }
  param {
    lr_mult: 2
    decay_mult: 0
  }
  convolution_param {
    num_output: 3
    stride: 1
    weight_filler {
      type: "xavier"
    }
    bias_filler {
      type: "constant"
    }
    kernel_h: 8
    kernel_w: 8
  }
}
layer {
  name: "accuracy"
  type: "Accuracy"
  bottom: "conv91"
  bottom: "label"
  top: "accuracy"
}
layer {
  name: "loss"
  type: "SoftmaxWithLoss"
  bottom: "conv91"
  bottom: "label"
  top: "loss"
}
I0727 09:59:07.303215 111159 layer_factory.hpp:76] Creating layer data
I0727 09:59:07.303282 111159 net.cpp:106] Creating Layer data
I0727 09:59:07.303300 111159 net.cpp:411] data -> data
I0727 09:59:07.303342 111159 net.cpp:411] data -> label
I0727 09:59:07.303834 111159 image_data_layer.cpp:36] Opening file ../lists/mitosis_train-norm-bin.lst
I0727 09:59:07.312537 111159 image_data_layer.cpp:46] Shuffling data
I0727 09:59:07.313685 111159 image_data_layer.cpp:51] A total of 16287 images.
I0727 09:59:09.346942 111159 image_data_layer.cpp:78] output data size: 32,3,1000,1000
I0727 09:59:10.666860 111159 net.cpp:150] Setting up data
I0727 09:59:10.666937 111159 net.cpp:157] Top shape: 32 3 1000 1000 (96000000)
I0727 09:59:10.666960 111159 net.cpp:157] Top shape: 32 (32)
I0727 09:59:10.666971 111159 net.cpp:165] Memory required for data: 384000128
I0727 09:59:10.666990 111159 layer_factory.hpp:76] Creating layer label_data_1_split
I0727 09:59:10.667029 111159 net.cpp:106] Creating Layer label_data_1_split
I0727 09:59:10.667044 111159 net.cpp:454] label_data_1_split <- label
I0727 09:59:10.667094 111159 net.cpp:411] label_data_1_split -> label_data_1_split_0
I0727 09:59:10.667114 111159 net.cpp:411] label_data_1_split -> label_data_1_split_1
I0727 09:59:10.667207 111159 net.cpp:150] Setting up label_data_1_split
I0727 09:59:10.667232 111159 net.cpp:157] Top shape: 32 (32)
I0727 09:59:10.667242 111159 net.cpp:157] Top shape: 32 (32)
I0727 09:59:10.667255 111159 net.cpp:165] Memory required for data: 384000384
I0727 09:59:10.667263 111159 layer_factory.hpp:76] Creating layer conv1
I0727 09:59:10.667289 111159 net.cpp:106] Creating Layer conv1
I0727 09:59:10.667299 111159 net.cpp:454] conv1 <- data
I0727 09:59:10.667317 111159 net.cpp:411] conv1 -> conv1
I0727 09:59:11.218905 111159 net.cpp:150] Setting up conv1
I0727 09:59:11.218972 111159 net.cpp:157] Top shape: 32 16 997 997 (508932608)
I0727 09:59:11.218983 111159 net.cpp:165] Memory required for data: 2419730816
I0727 09:59:11.219012 111159 layer_factory.hpp:76] Creating layer nonlin1
I0727 09:59:11.219058 111159 net.cpp:106] Creating Layer nonlin1
I0727 09:59:11.219071 111159 net.cpp:454] nonlin1 <- conv1
I0727 09:59:11.219095 111159 net.cpp:397] nonlin1 -> conv1 (in-place)
I0727 09:59:11.219396 111159 net.cpp:150] Setting up nonlin1
I0727 09:59:11.219424 111159 net.cpp:157] Top shape: 32 16 997 997 (508932608)
I0727 09:59:11.219445 111159 net.cpp:165] Memory required for data: 4455461248
I0727 09:59:11.219454 111159 layer_factory.hpp:76] Creating layer pool1
I0727 09:59:11.219471 111159 net.cpp:106] Creating Layer pool1
I0727 09:59:11.219480 111159 net.cpp:454] pool1 <- conv1
I0727 09:59:11.219491 111159 net.cpp:411] pool1 -> pool1
I0727 09:59:11.219972 111159 net.cpp:150] Setting up pool1
I0727 09:59:11.220005 111159 net.cpp:157] Top shape: 32 16 499 499 (127488512)
I0727 09:59:11.220013 111159 net.cpp:165] Memory required for data: 4965415296
I0727 09:59:11.220022 111159 layer_factory.hpp:76] Creating layer conv2
I0727 09:59:11.220037 111159 net.cpp:106] Creating Layer conv2
I0727 09:59:11.220046 111159 net.cpp:454] conv2 <- pool1
I0727 09:59:11.220057 111159 net.cpp:411] conv2 -> conv2
I0727 09:59:11.223253 111159 net.cpp:150] Setting up conv2
I0727 09:59:11.223290 111159 net.cpp:157] Top shape: 32 16 497 497 (126468608)
I0727 09:59:11.223300 111159 net.cpp:165] Memory required for data: 5471289728
I0727 09:59:11.223315 111159 layer_factory.hpp:76] Creating layer nonlin2
I0727 09:59:11.223328 111159 net.cpp:106] Creating Layer nonlin2
I0727 09:59:11.223345 111159 net.cpp:454] nonlin2 <- conv2
I0727 09:59:11.223356 111159 net.cpp:397] nonlin2 -> conv2 (in-place)
I0727 09:59:11.223539 111159 net.cpp:150] Setting up nonlin2
I0727 09:59:11.223567 111159 net.cpp:157] Top shape: 32 16 497 497 (126468608)
I0727 09:59:11.223577 111159 net.cpp:165] Memory required for data: 5977164160
I0727 09:59:11.223585 111159 layer_factory.hpp:76] Creating layer pool2
I0727 09:59:11.223598 111159 net.cpp:106] Creating Layer pool2
I0727 09:59:11.223609 111159 net.cpp:454] pool2 <- conv2
I0727 09:59:11.223619 111159 net.cpp:411] pool2 -> pool2
I0727 09:59:11.224071 111159 net.cpp:150] Setting up pool2
I0727 09:59:11.224103 111159 net.cpp:157] Top shape: 32 16 249 249 (31744512)
I0727 09:59:11.224112 111159 net.cpp:165] Memory required for data: 6104142208
I0727 09:59:11.224124 111159 layer_factory.hpp:76] Creating layer conv3
I0727 09:59:11.224141 111159 net.cpp:106] Creating Layer conv3
I0727 09:59:11.224151 111159 net.cpp:454] conv3 <- pool2
I0727 09:59:11.224164 111159 net.cpp:411] conv3 -> conv3
I0727 09:59:11.226157 111159 net.cpp:150] Setting up conv3
I0727 09:59:11.226193 111159 net.cpp:157] Top shape: 32 16 247 247 (31236608)
I0727 09:59:11.226204 111159 net.cpp:165] Memory required for data: 6229088640
I0727 09:59:11.226224 111159 layer_factory.hpp:76] Creating layer nonlin3
I0727 09:59:11.226240 111159 net.cpp:106] Creating Layer nonlin3
I0727 09:59:11.226251 111159 net.cpp:454] nonlin3 <- conv3
I0727 09:59:11.226263 111159 net.cpp:397] nonlin3 -> conv3 (in-place)
I0727 09:59:11.226446 111159 net.cpp:150] Setting up nonlin3
I0727 09:59:11.226490 111159 net.cpp:157] Top shape: 32 16 247 247 (31236608)
I0727 09:59:11.226503 111159 net.cpp:165] Memory required for data: 6354035072
I0727 09:59:11.226512 111159 layer_factory.hpp:76] Creating layer pool3
I0727 09:59:11.226526 111159 net.cpp:106] Creating Layer pool3
I0727 09:59:11.226536 111159 net.cpp:454] pool3 <- conv3
I0727 09:59:11.226546 111159 net.cpp:411] pool3 -> pool3
I0727 09:59:11.227025 111159 net.cpp:150] Setting up pool3
I0727 09:59:11.227049 111159 net.cpp:157] Top shape: 32 16 124 124 (7872512)
I0727 09:59:11.227059 111159 net.cpp:165] Memory required for data: 6385525120
I0727 09:59:11.227068 111159 layer_factory.hpp:76] Creating layer conv4
I0727 09:59:11.227084 111159 net.cpp:106] Creating Layer conv4
I0727 09:59:11.227095 111159 net.cpp:454] conv4 <- pool3
I0727 09:59:11.227108 111159 net.cpp:411] conv4 -> conv4
I0727 09:59:11.229069 111159 net.cpp:150] Setting up conv4
I0727 09:59:11.229096 111159 net.cpp:157] Top shape: 32 16 122 122 (7620608)
I0727 09:59:11.229106 111159 net.cpp:165] Memory required for data: 6416007552
I0727 09:59:11.229118 111159 layer_factory.hpp:76] Creating layer nonlin4
I0727 09:59:11.229135 111159 net.cpp:106] Creating Layer nonlin4
I0727 09:59:11.229146 111159 net.cpp:454] nonlin4 <- conv4
I0727 09:59:11.229158 111159 net.cpp:397] nonlin4 -> conv4 (in-place)
I0727 09:59:11.229581 111159 net.cpp:150] Setting up nonlin4
I0727 09:59:11.229601 111159 net.cpp:157] Top shape: 32 16 122 122 (7620608)
I0727 09:59:11.229611 111159 net.cpp:165] Memory required for data: 6446489984
I0727 09:59:11.229620 111159 layer_factory.hpp:76] Creating layer pool4
I0727 09:59:11.229634 111159 net.cpp:106] Creating Layer pool4
I0727 09:59:11.229643 111159 net.cpp:454] pool4 <- conv4
I0727 09:59:11.229653 111159 net.cpp:411] pool4 -> pool4
I0727 09:59:11.230171 111159 net.cpp:150] Setting up pool4
I0727 09:59:11.230195 111159 net.cpp:157] Top shape: 32 16 61 61 (1905152)
I0727 09:59:11.230206 111159 net.cpp:165] Memory required for data: 6454110592
I0727 09:59:11.230216 111159 layer_factory.hpp:76] Creating layer ip1_c
I0727 09:59:11.230238 111159 net.cpp:106] Creating Layer ip1_c
I0727 09:59:11.230250 111159 net.cpp:454] ip1_c <- pool4
I0727 09:59:11.230260 111159 net.cpp:411] ip1_c -> ip1
I0727 09:59:11.231186 111159 cudnn_conv_layer.cpp:194] Reallocating workspace storage: 768
I0727 09:59:11.231222 111159 net.cpp:150] Setting up ip1_c
I0727 09:59:11.231236 111159 net.cpp:157] Top shape: 32 200 60 60 (23040000)
I0727 09:59:11.231245 111159 net.cpp:165] Memory required for data: 6546270592
I0727 09:59:11.231261 111159 layer_factory.hpp:76] Creating layer nonlin_ip1
I0727 09:59:11.231276 111159 net.cpp:106] Creating Layer nonlin_ip1
I0727 09:59:11.231286 111159 net.cpp:454] nonlin_ip1 <- ip1
I0727 09:59:11.231299 111159 net.cpp:397] nonlin_ip1 -> ip1 (in-place)
I0727 09:59:11.231717 111159 net.cpp:150] Setting up nonlin_ip1
I0727 09:59:11.231736 111159 net.cpp:157] Top shape: 32 200 60 60 (23040000)
I0727 09:59:11.231746 111159 net.cpp:165] Memory required for data: 6638430592
I0727 09:59:11.231755 111159 layer_factory.hpp:76] Creating layer conv61
I0727 09:59:11.231775 111159 net.cpp:106] Creating Layer conv61
I0727 09:59:11.231786 111159 net.cpp:454] conv61 <- ip1
I0727 09:59:11.231798 111159 net.cpp:411] conv61 -> conv61
I0727 09:59:11.234593 111159 cudnn_conv_layer.cpp:194] Reallocating workspace storage: 21600
I0727 09:59:11.234627 111159 net.cpp:150] Setting up conv61
I0727 09:59:11.234663 111159 net.cpp:157] Top shape: 32 64 60 60 (7372800)
I0727 09:59:11.234673 111159 net.cpp:165] Memory required for data: 6667921792
I0727 09:59:11.234685 111159 layer_factory.hpp:76] Creating layer relu61
I0727 09:59:11.234699 111159 net.cpp:106] Creating Layer relu61
I0727 09:59:11.234707 111159 net.cpp:454] relu61 <- conv61
I0727 09:59:11.234730 111159 net.cpp:397] relu61 -> conv61 (in-place)
I0727 09:59:11.234930 111159 net.cpp:150] Setting up relu61
I0727 09:59:11.234956 111159 net.cpp:157] Top shape: 32 64 60 60 (7372800)
I0727 09:59:11.234964 111159 net.cpp:165] Memory required for data: 6697412992
I0727 09:59:11.234997 111159 layer_factory.hpp:76] Creating layer conv62
I0727 09:59:11.235014 111159 net.cpp:106] Creating Layer conv62
I0727 09:59:11.235024 111159 net.cpp:454] conv62 <- conv61
I0727 09:59:11.235038 111159 net.cpp:411] conv62 -> conv62
I0727 09:59:11.237123 111159 net.cpp:150] Setting up conv62
I0727 09:59:11.237157 111159 net.cpp:157] Top shape: 32 64 60 60 (7372800)
I0727 09:59:11.237167 111159 net.cpp:165] Memory required for data: 6726904192
I0727 09:59:11.237179 111159 layer_factory.hpp:76] Creating layer relu62
I0727 09:59:11.237190 111159 net.cpp:106] Creating Layer relu62
I0727 09:59:11.237203 111159 net.cpp:454] relu62 <- conv62
I0727 09:59:11.237213 111159 net.cpp:397] relu62 -> conv62 (in-place)
I0727 09:59:11.237656 111159 net.cpp:150] Setting up relu62
I0727 09:59:11.237699 111159 net.cpp:157] Top shape: 32 64 60 60 (7372800)
I0727 09:59:11.237709 111159 net.cpp:165] Memory required for data: 6756395392
I0727 09:59:11.237718 111159 layer_factory.hpp:76] Creating layer pool5
I0727 09:59:11.237731 111159 net.cpp:106] Creating Layer pool5
I0727 09:59:11.237746 111159 net.cpp:454] pool5 <- conv62
I0727 09:59:11.237782 111159 net.cpp:411] pool5 -> pool5
I0727 09:59:11.238087 111159 net.cpp:150] Setting up pool5
I0727 09:59:11.238123 111159 net.cpp:157] Top shape: 32 64 30 30 (1843200)
I0727 09:59:11.238157 111159 net.cpp:165] Memory required for data: 6763768192
I0727 09:59:11.238164 111159 layer_factory.hpp:76] Creating layer conv71
I0727 09:59:11.238195 111159 net.cpp:106] Creating Layer conv71
I0727 09:59:11.238206 111159 net.cpp:454] conv71 <- pool5
I0727 09:59:11.238221 111159 net.cpp:411] conv71 -> conv71
I0727 09:59:11.240145 111159 cudnn_conv_layer.cpp:194] Reallocating workspace storage: 6912
I0727 09:59:11.240474 111159 net.cpp:150] Setting up conv71
I0727 09:59:11.240506 111159 net.cpp:157] Top shape: 32 96 30 30 (2764800)
I0727 09:59:11.240515 111159 net.cpp:165] Memory required for data: 6774827392
I0727 09:59:11.240541 111159 layer_factory.hpp:76] Creating layer relu71
I0727 09:59:11.240556 111159 net.cpp:106] Creating Layer relu71
I0727 09:59:11.240566 111159 net.cpp:454] relu71 <- conv71
I0727 09:59:11.240578 111159 net.cpp:397] relu71 -> conv71 (in-place)
I0727 09:59:11.240810 111159 net.cpp:150] Setting up relu71
I0727 09:59:11.240845 111159 net.cpp:157] Top shape: 32 96 30 30 (2764800)
I0727 09:59:11.240854 111159 net.cpp:165] Memory required for data: 6785886592
I0727 09:59:11.240865 111159 layer_factory.hpp:76] Creating layer conv72
I0727 09:59:11.240880 111159 net.cpp:106] Creating Layer conv72
I0727 09:59:11.240890 111159 net.cpp:454] conv72 <- conv71
I0727 09:59:11.240911 111159 net.cpp:411] conv72 -> conv72
I0727 09:59:11.242722 111159 cudnn_conv_layer.cpp:194] Reallocating workspace storage: 10368
I0727 09:59:11.242764 111159 net.cpp:150] Setting up conv72
I0727 09:59:11.242779 111159 net.cpp:157] Top shape: 32 96 30 30 (2764800)
I0727 09:59:11.242789 111159 net.cpp:165] Memory required for data: 6796945792
I0727 09:59:11.242806 111159 layer_factory.hpp:76] Creating layer relu72
I0727 09:59:11.242820 111159 net.cpp:106] Creating Layer relu72
I0727 09:59:11.242830 111159 net.cpp:454] relu72 <- conv72
I0727 09:59:11.242841 111159 net.cpp:397] relu72 -> conv72 (in-place)
I0727 09:59:11.243351 111159 net.cpp:150] Setting up relu72
I0727 09:59:11.243391 111159 net.cpp:157] Top shape: 32 96 30 30 (2764800)
I0727 09:59:11.243401 111159 net.cpp:165] Memory required for data: 6808004992
I0727 09:59:11.243409 111159 layer_factory.hpp:76] Creating layer pool6
I0727 09:59:11.243432 111159 net.cpp:106] Creating Layer pool6
I0727 09:59:11.243443 111159 net.cpp:454] pool6 <- conv72
I0727 09:59:11.243453 111159 net.cpp:411] pool6 -> pool6
I0727 09:59:11.243701 111159 net.cpp:150] Setting up pool6
I0727 09:59:11.243719 111159 net.cpp:157] Top shape: 32 96 15 15 (691200)
I0727 09:59:11.243736 111159 net.cpp:165] Memory required for data: 6810769792
I0727 09:59:11.243749 111159 layer_factory.hpp:76] Creating layer conv81
I0727 09:59:11.243765 111159 net.cpp:106] Creating Layer conv81
I0727 09:59:11.243799 111159 net.cpp:454] conv81 <- pool6
I0727 09:59:11.243819 111159 net.cpp:411] conv81 -> conv81
I0727 09:59:11.246752 111159 cudnn_conv_layer.cpp:194] Reallocating workspace storage: 10368
I0727 09:59:11.246790 111159 net.cpp:150] Setting up conv81
I0727 09:59:11.246804 111159 net.cpp:157] Top shape: 32 128 15 15 (921600)
I0727 09:59:11.246814 111159 net.cpp:165] Memory required for data: 6814456192
I0727 09:59:11.246826 111159 layer_factory.hpp:76] Creating layer relu81
I0727 09:59:11.246839 111159 net.cpp:106] Creating Layer relu81
I0727 09:59:11.246848 111159 net.cpp:454] relu81 <- conv81
I0727 09:59:11.246861 111159 net.cpp:397] relu81 -> conv81 (in-place)
I0727 09:59:11.247300 111159 net.cpp:150] Setting up relu81
I0727 09:59:11.247331 111159 net.cpp:157] Top shape: 32 128 15 15 (921600)
I0727 09:59:11.247340 111159 net.cpp:165] Memory required for data: 6818142592
I0727 09:59:11.247350 111159 layer_factory.hpp:76] Creating layer conv82
I0727 09:59:11.247366 111159 net.cpp:106] Creating Layer conv82
I0727 09:59:11.247378 111159 net.cpp:454] conv82 <- conv81
I0727 09:59:11.247391 111159 net.cpp:411] conv82 -> conv82
I0727 09:59:11.249680 111159 cudnn_conv_layer.cpp:194] Reallocating workspace storage: 13824
I0727 09:59:11.249733 111159 net.cpp:150] Setting up conv82
I0727 09:59:11.249749 111159 net.cpp:157] Top shape: 32 128 15 15 (921600)
I0727 09:59:11.249760 111159 net.cpp:165] Memory required for data: 6821828992
I0727 09:59:11.249773 111159 layer_factory.hpp:76] Creating layer relu82
I0727 09:59:11.249795 111159 net.cpp:106] Creating Layer relu82
I0727 09:59:11.249806 111159 net.cpp:454] relu82 <- conv82
I0727 09:59:11.249819 111159 net.cpp:397] relu82 -> conv82 (in-place)
I0727 09:59:11.250288 111159 net.cpp:150] Setting up relu82
I0727 09:59:11.250311 111159 net.cpp:157] Top shape: 32 128 15 15 (921600)
I0727 09:59:11.250321 111159 net.cpp:165] Memory required for data: 6825515392
I0727 09:59:11.250332 111159 layer_factory.hpp:76] Creating layer pool7
I0727 09:59:11.250349 111159 net.cpp:106] Creating Layer pool7
I0727 09:59:11.250360 111159 net.cpp:454] pool7 <- conv82
I0727 09:59:11.250370 111159 net.cpp:411] pool7 -> pool7
I0727 09:59:11.250573 111159 net.cpp:150] Setting up pool7
I0727 09:59:11.250591 111159 net.cpp:157] Top shape: 32 128 8 8 (262144)
I0727 09:59:11.250600 111159 net.cpp:165] Memory required for data: 6826563968
I0727 09:59:11.250609 111159 layer_factory.hpp:76] Creating layer drop0
I0727 09:59:11.250627 111159 net.cpp:106] Creating Layer drop0
I0727 09:59:11.250645 111159 net.cpp:454] drop0 <- pool7
I0727 09:59:11.250661 111159 net.cpp:397] drop0 -> pool7 (in-place)
I0727 09:59:11.250705 111159 net.cpp:150] Setting up drop0
I0727 09:59:11.250717 111159 net.cpp:157] Top shape: 32 128 8 8 (262144)
I0727 09:59:11.250727 111159 net.cpp:165] Memory required for data: 6827612544
I0727 09:59:11.250735 111159 layer_factory.hpp:76] Creating layer conv91
I0727 09:59:11.250758 111159 net.cpp:106] Creating Layer conv91
I0727 09:59:11.250769 111159 net.cpp:454] conv91 <- pool7
I0727 09:59:11.250782 111159 net.cpp:411] conv91 -> conv91
I0727 09:59:11.252141 111159 net.cpp:150] Setting up conv91
I0727 09:59:11.252164 111159 net.cpp:157] Top shape: 32 3 1 1 (96)
I0727 09:59:11.252174 111159 net.cpp:165] Memory required for data: 6827612928
I0727 09:59:11.252187 111159 layer_factory.hpp:76] Creating layer conv91_conv91_0_split
I0727 09:59:11.252200 111159 net.cpp:106] Creating Layer conv91_conv91_0_split
I0727 09:59:11.252210 111159 net.cpp:454] conv91_conv91_0_split <- conv91
I0727 09:59:11.252223 111159 net.cpp:411] conv91_conv91_0_split -> conv91_conv91_0_split_0
I0727 09:59:11.252238 111159 net.cpp:411] conv91_conv91_0_split -> conv91_conv91_0_split_1
I0727 09:59:11.252285 111159 net.cpp:150] Setting up conv91_conv91_0_split
I0727 09:59:11.252297 111159 net.cpp:157] Top shape: 32 3 1 1 (96)
I0727 09:59:11.252307 111159 net.cpp:157] Top shape: 32 3 1 1 (96)
I0727 09:59:11.252317 111159 net.cpp:165] Memory required for data: 6827613696
I0727 09:59:11.252351 111159 layer_factory.hpp:76] Creating layer accuracy
I0727 09:59:11.252370 111159 net.cpp:106] Creating Layer accuracy
I0727 09:59:11.252380 111159 net.cpp:454] accuracy <- conv91_conv91_0_split_0
I0727 09:59:11.252393 111159 net.cpp:454] accuracy <- label_data_1_split_0
I0727 09:59:11.252403 111159 net.cpp:411] accuracy -> accuracy
…
I0727 09:59:11.254492 111159 net.cpp:322] The NetState phase (1) differed from the phase (0) specified by a rule in layer data
I0727 09:59:11.254721 111159 net.cpp:49] Initializing net from parameters: 
name: "Result Layer 3 Stack"
state {
  phase: TEST
}
layer {
  name: "data"
  type: "ImageData"
  top: "data"
  top: "label"
  include {
    phase: TEST
  }
  transform_param {
    mirror: false
    mean_value: 150
    mean_value: 150
    mean_value: 150
  }
  image_data_param {
    source: "../lists/mitosis_val-norm-bin.lst"
    batch_size: 10
    shuffle: true
    new_height: 1000
    new_width: 1000
  }
}
layer {
  name: "conv1"
  type: "Convolution"
  bottom: "data"
  top: "conv1"
  param {
    lr_mult: 0
    decay_mult: 0
  }
  param {
    lr_mult: 0
    decay_mult: 0
  }
  convolution_param {
    num_output: 16
    pad: 0
    kernel_size: 4
    stride: 1
  }
}
layer {
  name: "nonlin1"
  type: "ReLU"
  bottom: "conv1"
  top: "conv1"
}
layer {
  name: "pool1"
  type: "Pooling"
  bottom: "conv1"
  top: "pool1"
  pooling_param {
    pool: MAX
    kernel_size: 2
    stride: 2
  }
}
layer {
  name: "conv2"
  type: "Convolution"
  bottom: "pool1"
  top: "conv2"
  param {
    lr_mult: 0
    decay_mult: 0
  }
  param {
    lr_mult: 0
    decay_mult: 0
  }
  convolution_param {
    num_output: 16
    pad: 0
    kernel_size: 3
    stride: 1
  }
}
layer {
  name: "nonlin2"
  type: "ReLU"
  bottom: "conv2"
  top: "conv2"
}
layer {
  name: "pool2"
  type: "Pooling"
  bottom: "conv2"
  top: "pool2"
  pooling_param {
    pool: MAX
    kernel_size: 2
    stride: 2
  }
}
layer {
  name: "conv3"
  type: "Convolution"
  bottom: "pool2"
  top: "conv3"
  param {
    lr_mult: 0
    decay_mult: 0
  }
  param {
    lr_mult: 0
    decay_mult: 0
  }
  convolution_param {
    num_output: 16
    pad: 0
    kernel_size: 3
    stride: 1
  }
}
layer {
  name: "nonlin3"
  type: "ReLU"
  bottom: "conv3"
  top: "conv3"
}
layer {
  name: "pool3"
  type: "Pooling"
  bottom: "conv3"
  top: "pool3"
  pooling_param {
    pool: MAX
    kernel_size: 2
    stride: 2
  }
}
layer {
  name: "conv4"
  type: "Convolution"
  bottom: "pool3"
  top: "conv4"
  param {
    lr_mult: 0
    decay_mult: 0
  }
  param {
    lr_mult: 0
    decay_mult: 0
  }
  convolution_param {
    num_output: 16
    pad: 0
    kernel_size: 3
    stride: 1
  }
}
layer {
  name: "nonlin4"
  type: "ReLU"
  bottom: "conv4"
  top: "conv4"
}
layer {
  name: "pool4"
  type: "Pooling"
  bottom: "conv4"
  top: "pool4"
  pooling_param {
    pool: MAX
    kernel_size: 2
    stride: 2
  }
}
layer {
  name: "ip1_c"
  type: "Convolution"
  bottom: "pool4"
  top: "ip1"
  convolution_param {
    num_output: 200
    pad: 0
    kernel_size: 2
    stride: 1
  }
}
layer {
  name: "nonlin_ip1"
  type: "ReLU"
  bottom: "ip1"
  top: "ip1"
}
layer {
  name: "conv61"
  type: "Convolution"
  bottom: "ip1"
  top: "conv61"
  param {
    lr_mult: 1
    decay_mult: 1
  }
  param {
    lr_mult: 2
    decay_mult: 0
  }
  convolution_param {
    num_output: 64
    pad: 1
    stride: 1
    weight_filler {
      type: "xavier"
    }
    bias_filler {
      type: "constant"
    }
    kernel_h: 3
    kernel_w: 3
  }
}
layer {
  name: "relu61"
  type: "ReLU"
  bottom: "conv61"
  top: "conv61"
}
layer {
  name: "conv62"
  type: "Convolution"
  bottom: "conv61"
  top: "conv62"
  param {
    lr_mult: 1
    decay_mult: 1
  }
  param {
    lr_mult: 2
    decay_mult: 0
  }
  convolution_param {
    num_output: 64
    pad: 1
    stride: 1
    weight_filler {
      type: "xavier"
    }
    bias_filler {
      type: "constant"
    }
    kernel_h: 3
    kernel_w: 3
  }
}
layer {
  name: "relu62"
  type: "ReLU"
  bottom: "conv62"
  top: "conv62"
}
layer {
  name: "pool5"
  type: "Pooling"
  bottom: "conv62"
  top: "pool5"
  pooling_param {
    pool: MAX
    kernel_size: 2
    stride: 2
  }
}
layer {
  name: "conv71"
  type: "Convolution"
  bottom: "pool5"
  top: "conv71"
  param {
    lr_mult: 1
    decay_mult: 1
  }
  param {
    lr_mult: 2
    decay_mult: 0
  }
  convolution_param {
    num_output: 96
    pad: 1
    stride: 1
    weight_filler {
      type: "xavier"
    }
    bias_filler {
      type: "constant"
    }
    kernel_h: 3
    kernel_w: 3
  }
}
layer {
  name: "relu71"
  type: "ReLU"
  bottom: "conv71"
  top: "conv71"
}
layer {
  name: "conv72"
  type: "Convolution"
  bottom: "conv71"
  top: "conv72"
  param {
    lr_mult: 1
    decay_mult: 1
  }
  param {
    lr_mult: 2
    decay_mult: 0
  }
  convolution_param {
    num_output: 96
    pad: 1
    stride: 1
    weight_filler {
      type: "xavier"
    }
    bias_filler {
      type: "constant"
    }
    kernel_h: 3
    kernel_w: 3
  }
}
layer {
  name: "relu72"
  type: "ReLU"
  bottom: "conv72"
  top: "conv72"
}
layer {
  name: "pool6"
  type: "Pooling"
  bottom: "conv72"
  top: "pool6"
  pooling_param {
    pool: MAX
    kernel_size: 2
    stride: 2
  }
}
layer {
  name: "conv81"
  type: "Convolution"
  bottom: "pool6"
  top: "conv81"
  param {
    lr_mult: 1
    decay_mult: 1
  }
  param {
    lr_mult: 2
    decay_mult: 0
  }
  convolution_param {
    num_output: 128
    pad: 1
    stride: 1
    weight_filler {
      type: "xavier"
    }
    bias_filler {
      type: "constant"
    }
    kernel_h: 3
    kernel_w: 3
  }
}
layer {
  name: "relu81"
  type: "ReLU"
  bottom: "conv81"
  top: "conv81"
}
layer {
  name: "conv82"
  type: "Convolution"
  bottom: "conv81"
  top: "conv82"
  param {
    lr_mult: 1
    decay_mult: 1
  }
  param {
    lr_mult: 2
    decay_mult: 0
  }
  convolution_param {
    num_output: 128
    pad: 1
    stride: 1
    weight_filler {
      type: "xavier"
    }
    bias_filler {
      type: "constant"
    }
    kernel_h: 3
    kernel_w: 3
  }
}
layer {
  name: "relu82"
  type: "ReLU"
  bottom: "conv82"
  top: "conv82"
}
layer {
  name: "pool7"
  type: "Pooling"
  bottom: "conv82"
  top: "pool7"
  pooling_param {
    pool: AVE
    kernel_size: 2
    stride: 2
  }
}
layer {
  name: "drop0"
  type: "Dropout"
  bottom: "pool7"
  top: "pool7"
  dropout_param {
    dropout_ratio: 0.4
  }
}
layer {
  name: "conv91"
  type: "Convolution"
  bottom: "pool7"
  top: "conv91"
  param {
    lr_mult: 1
    decay_mult: 1
  }
  param {
    lr_mult: 2
    decay_mult: 0
  }
  convolution_param {
    num_output: 3
    stride: 1
    weight_filler {
      type: "xavier"
    }
    bias_filler {
      type: "constant"
    }
    kernel_h: 8
    kernel_w: 8
  }
}
layer {
  name: "accuracy"
  type: "Accuracy"
  bottom: "conv91"
  bottom: "label"
  top: "accuracy"
}
layer {
  name: "loss"
  type: "SoftmaxWithLoss"
  bottom: "conv91"
  bottom: "label"
  top: "loss"
}
I0727 09:59:11.256623 111159 layer_factory.hpp:76] Creating layer data
I0727 09:59:11.256649 111159 net.cpp:106] Creating Layer data
I0727 09:59:11.256660 111159 net.cpp:411] data -> data
I0727 09:59:11.256675 111159 net.cpp:411] data -> label
I0727 09:59:11.256690 111159 image_data_layer.cpp:36] Opening file ../lists/mitosis_val-norm-bin.lst
I0727 09:59:11.257762 111159 image_data_layer.cpp:46] Shuffling data
I0727 09:59:11.257916 111159 image_data_layer.cpp:51] A total of 1810 images.
I0727 09:59:11.332032 111159 image_data_layer.cpp:78] output data size: 10,3,1000,1000
I0727 09:59:11.688436 111159 net.cpp:150] Setting up data
I0727 09:59:11.688493 111159 net.cpp:157] Top shape: 10 3 1000 1000 (30000000)
I0727 09:59:11.688505 111159 net.cpp:157] Top shape: 10 (10)
I0727 09:59:11.688513 111159 net.cpp:165] Memory required for data: 120000040
I0727 09:59:11.688525 111159 layer_factory.hpp:76] Creating layer label_data_1_split
I0727 09:59:11.688544 111159 net.cpp:106] Creating Layer label_data_1_split
I0727 09:59:11.688557 111159 net.cpp:454] label_data_1_split <- label
I0727 09:59:11.688575 111159 net.cpp:411] label_data_1_split -> label_data_1_split_0
I0727 09:59:11.688616 111159 net.cpp:411] label_data_1_split -> label_data_1_split_1
I0727 09:59:11.688696 111159 net.cpp:150] Setting up label_data_1_split
I0727 09:59:11.688720 111159 net.cpp:157] Top shape: 10 (10)
I0727 09:59:11.688730 111159 net.cpp:157] Top shape: 10 (10)
I0727 09:59:11.688737 111159 net.cpp:165] Memory required for data: 120000120
I0727 09:59:11.688745 111159 layer_factory.hpp:76] Creating layer conv1
I0727 09:59:11.688760 111159 net.cpp:106] Creating Layer conv1
I0727 09:59:11.688776 111159 net.cpp:454] conv1 <- data
I0727 09:59:11.688786 111159 net.cpp:411] conv1 -> conv1
I0727 09:59:11.692860 111159 net.cpp:150] Setting up conv1
I0727 09:59:11.692903 111159 net.cpp:157] Top shape: 10 16 997 997 (159041440)
I0727 09:59:11.692919 111159 net.cpp:165] Memory required for data: 756165880
I0727 09:59:11.692936 111159 layer_factory.hpp:76] Creating layer nonlin1
I0727 09:59:11.692956 111159 net.cpp:106] Creating Layer nonlin1
I0727 09:59:11.692966 111159 net.cpp:454] nonlin1 <- conv1
I0727 09:59:11.692976 111159 net.cpp:397] nonlin1 -> conv1 (in-place)
I0727 09:59:11.693248 111159 net.cpp:150] Setting up nonlin1
I0727 09:59:11.693295 111159 net.cpp:157] Top shape: 10 16 997 997 (159041440)
I0727 09:59:11.693305 111159 net.cpp:165] Memory required for data: 1392331640
I0727 09:59:11.693313 111159 layer_factory.hpp:76] Creating layer pool1
I0727 09:59:11.693328 111159 net.cpp:106] Creating Layer pool1
I0727 09:59:11.693349 111159 net.cpp:454] pool1 <- conv1
I0727 09:59:11.693363 111159 net.cpp:411] pool1 -> pool1
I0727 09:59:11.693919 111159 net.cpp:150] Setting up pool1
I0727 09:59:11.693950 111159 net.cpp:157] Top shape: 10 16 499 499 (39840160)
I0727 09:59:11.693959 111159 net.cpp:165] Memory required for data: 1551692280
I0727 09:59:11.693969 111159 layer_factory.hpp:76] Creating layer conv2
I0727 09:59:11.693984 111159 net.cpp:106] Creating Layer conv2
I0727 09:59:11.693994 111159 net.cpp:454] conv2 <- pool1
I0727 09:59:11.694005 111159 net.cpp:411] conv2 -> conv2
I0727 09:59:11.696418 111159 net.cpp:150] Setting up conv2
I0727 09:59:11.696451 111159 net.cpp:157] Top shape: 10 16 497 497 (39521440)
I0727 09:59:11.696460 111159 net.cpp:165] Memory required for data: 1709778040
I0727 09:59:11.696475 111159 layer_factory.hpp:76] Creating layer nonlin2
I0727 09:59:11.696491 111159 net.cpp:106] Creating Layer nonlin2
I0727 09:59:11.696501 111159 net.cpp:454] nonlin2 <- conv2
I0727 09:59:11.696511 111159 net.cpp:397] nonlin2 -> conv2 (in-place)
I0727 09:59:11.696708 111159 net.cpp:150] Setting up nonlin2
I0727 09:59:11.696737 111159 net.cpp:157] Top shape: 10 16 497 497 (39521440)
I0727 09:59:11.696744 111159 net.cpp:165] Memory required for data: 1867863800
I0727 09:59:11.696753 111159 layer_factory.hpp:76] Creating layer pool2
I0727 09:59:11.696763 111159 net.cpp:106] Creating Layer pool2
I0727 09:59:11.696774 111159 net.cpp:454] pool2 <- conv2
I0727 09:59:11.696785 111159 net.cpp:411] pool2 -> pool2
I0727 09:59:11.697235 111159 net.cpp:150] Setting up pool2
I0727 09:59:11.697266 111159 net.cpp:157] Top shape: 10 16 249 249 (9920160)
I0727 09:59:11.697275 111159 net.cpp:165] Memory required for data: 1907544440
I0727 09:59:11.697283 111159 layer_factory.hpp:76] Creating layer conv3
I0727 09:59:11.697299 111159 net.cpp:106] Creating Layer conv3
I0727 09:59:11.697309 111159 net.cpp:454] conv3 <- pool2
I0727 09:59:11.697321 111159 net.cpp:411] conv3 -> conv3
I0727 09:59:11.698314 111159 net.cpp:150] Setting up conv3
I0727 09:59:11.698336 111159 net.cpp:157] Top shape: 10 16 247 247 (9761440)
I0727 09:59:11.698346 111159 net.cpp:165] Memory required for data: 1946590200
I0727 09:59:11.698360 111159 layer_factory.hpp:76] Creating layer nonlin3
I0727 09:59:11.698374 111159 net.cpp:106] Creating Layer nonlin3
I0727 09:59:11.698382 111159 net.cpp:454] nonlin3 <- conv3
I0727 09:59:11.698395 111159 net.cpp:397] nonlin3 -> conv3 (in-place)
I0727 09:59:11.698927 111159 net.cpp:150] Setting up nonlin3
I0727 09:59:11.698979 111159 net.cpp:157] Top shape: 10 16 247 247 (9761440)
I0727 09:59:11.698988 111159 net.cpp:165] Memory required for data: 1985635960
I0727 09:59:11.699050 111159 layer_factory.hpp:76] Creating layer pool3
I0727 09:59:11.699084 111159 net.cpp:106] Creating Layer pool3
I0727 09:59:11.699092 111159 net.cpp:454] pool3 <- conv3
I0727 09:59:11.699106 111159 net.cpp:411] pool3 -> pool3
I0727 09:59:11.699353 111159 net.cpp:150] Setting up pool3
I0727 09:59:11.699378 111159 net.cpp:157] Top shape: 10 16 124 124 (2460160)
I0727 09:59:11.699388 111159 net.cpp:165] Memory required for data: 1995476600
I0727 09:59:11.699399 111159 layer_factory.hpp:76] Creating layer conv4
I0727 09:59:11.699411 111159 net.cpp:106] Creating Layer conv4
I0727 09:59:11.699420 111159 net.cpp:454] conv4 <- pool3
I0727 09:59:11.699440 111159 net.cpp:411] conv4 -> conv4
I0727 09:59:11.700696 111159 net.cpp:150] Setting up conv4
I0727 09:59:11.700729 111159 net.cpp:157] Top shape: 10 16 122 122 (2381440)
I0727 09:59:11.700738 111159 net.cpp:165] Memory required for data: 2005002360
I0727 09:59:11.700750 111159 layer_factory.hpp:76] Creating layer nonlin4
I0727 09:59:11.700762 111159 net.cpp:106] Creating Layer nonlin4
I0727 09:59:11.700770 111159 net.cpp:454] nonlin4 <- conv4
I0727 09:59:11.700780 111159 net.cpp:397] nonlin4 -> conv4 (in-place)
I0727 09:59:11.701200 111159 net.cpp:150] Setting up nonlin4
I0727 09:59:11.701230 111159 net.cpp:157] Top shape: 10 16 122 122 (2381440)
I0727 09:59:11.701238 111159 net.cpp:165] Memory required for data: 2014528120
I0727 09:59:11.701246 111159 layer_factory.hpp:76] Creating layer pool4
I0727 09:59:11.701257 111159 net.cpp:106] Creating Layer pool4
I0727 09:59:11.701266 111159 net.cpp:454] pool4 <- conv4
I0727 09:59:11.701277 111159 net.cpp:411] pool4 -> pool4
I0727 09:59:11.701493 111159 net.cpp:150] Setting up pool4
I0727 09:59:11.701522 111159 net.cpp:157] Top shape: 10 16 61 61 (595360)
I0727 09:59:11.701530 111159 net.cpp:165] Memory required for data: 2016909560
I0727 09:59:11.701540 111159 layer_factory.hpp:76] Creating layer ip1_c
I0727 09:59:11.701550 111159 net.cpp:106] Creating Layer ip1_c
I0727 09:59:11.701558 111159 net.cpp:454] ip1_c <- pool4
I0727 09:59:11.701570 111159 net.cpp:411] ip1_c -> ip1
I0727 09:59:11.702971 111159 cudnn_conv_layer.cpp:194] Reallocating workspace storage: 768
I0727 09:59:11.703018 111159 net.cpp:150] Setting up ip1_c
I0727 09:59:11.703032 111159 net.cpp:157] Top shape: 10 200 60 60 (7200000)
I0727 09:59:11.703042 111159 net.cpp:165] Memory required for data: 2045709560
I0727 09:59:11.703057 111159 layer_factory.hpp:76] Creating layer nonlin_ip1
I0727 09:59:11.703068 111159 net.cpp:106] Creating Layer nonlin_ip1
I0727 09:59:11.703078 111159 net.cpp:454] nonlin_ip1 <- ip1
I0727 09:59:11.703090 111159 net.cpp:397] nonlin_ip1 -> ip1 (in-place)
I0727 09:59:11.703511 111159 net.cpp:150] Setting up nonlin_ip1
I0727 09:59:11.703542 111159 net.cpp:157] Top shape: 10 200 60 60 (7200000)
I0727 09:59:11.703550 111159 net.cpp:165] Memory required for data: 2074509560
I0727 09:59:11.703560 111159 layer_factory.hpp:76] Creating layer conv61
I0727 09:59:11.703578 111159 net.cpp:106] Creating Layer conv61
I0727 09:59:11.703588 111159 net.cpp:454] conv61 <- ip1
I0727 09:59:11.703599 111159 net.cpp:411] conv61 -> conv61
I0727 09:59:11.706434 111159 cudnn_conv_layer.cpp:194] Reallocating workspace storage: 21600
I0727 09:59:11.706501 111159 net.cpp:150] Setting up conv61
I0727 09:59:11.706516 111159 net.cpp:157] Top shape: 10 64 60 60 (2304000)
I0727 09:59:11.706537 111159 net.cpp:165] Memory required for data: 2083725560
I0727 09:59:11.706552 111159 layer_factory.hpp:76] Creating layer relu61
I0727 09:59:11.706570 111159 net.cpp:106] Creating Layer relu61
I0727 09:59:11.706581 111159 net.cpp:454] relu61 <- conv61
I0727 09:59:11.706593 111159 net.cpp:397] relu61 -> conv61 (in-place)
I0727 09:59:11.707131 111159 net.cpp:150] Setting up relu61
I0727 09:59:11.707171 111159 net.cpp:157] Top shape: 10 64 60 60 (2304000)
I0727 09:59:11.707181 111159 net.cpp:165] Memory required for data: 2092941560
I0727 09:59:11.707190 111159 layer_factory.hpp:76] Creating layer conv62
I0727 09:59:11.707211 111159 net.cpp:106] Creating Layer conv62
I0727 09:59:11.707262 111159 net.cpp:454] conv62 <- conv61
I0727 09:59:11.707278 111159 net.cpp:411] conv62 -> conv62
I0727 09:59:11.709825 111159 net.cpp:150] Setting up conv62
I0727 09:59:11.709889 111159 net.cpp:157] Top shape: 10 64 60 60 (2304000)
I0727 09:59:11.709902 111159 net.cpp:165] Memory required for data: 2102157560
I0727 09:59:11.709916 111159 layer_factory.hpp:76] Creating layer relu62
I0727 09:59:11.709935 111159 net.cpp:106] Creating Layer relu62
I0727 09:59:11.709954 111159 net.cpp:454] relu62 <- conv62
I0727 09:59:11.709967 111159 net.cpp:397] relu62 -> conv62 (in-place)
I0727 09:59:11.710196 111159 net.cpp:150] Setting up relu62
I0727 09:59:11.710223 111159 net.cpp:157] Top shape: 10 64 60 60 (2304000)
I0727 09:59:11.710232 111159 net.cpp:165] Memory required for data: 2111373560
I0727 09:59:11.710240 111159 layer_factory.hpp:76] Creating layer pool5
I0727 09:59:11.710270 111159 net.cpp:106] Creating Layer pool5
I0727 09:59:11.710280 111159 net.cpp:454] pool5 <- conv62
I0727 09:59:11.710291 111159 net.cpp:411] pool5 -> pool5
I0727 09:59:11.710832 111159 net.cpp:150] Setting up pool5
I0727 09:59:11.710863 111159 net.cpp:157] Top shape: 10 64 30 30 (576000)
I0727 09:59:11.710873 111159 net.cpp:165] Memory required for data: 2113677560
I0727 09:59:11.710881 111159 layer_factory.hpp:76] Creating layer conv71
I0727 09:59:11.710901 111159 net.cpp:106] Creating Layer conv71
I0727 09:59:11.710911 111159 net.cpp:454] conv71 <- pool5
I0727 09:59:11.710922 111159 net.cpp:411] conv71 -> conv71
I0727 09:59:11.712558 111159 cudnn_conv_layer.cpp:194] Reallocating workspace storage: 6912
I0727 09:59:11.712626 111159 net.cpp:150] Setting up conv71
I0727 09:59:11.712644 111159 net.cpp:157] Top shape: 10 96 30 30 (864000)
I0727 09:59:11.712654 111159 net.cpp:165] Memory required for data: 2117133560
I0727 09:59:11.712669 111159 layer_factory.hpp:76] Creating layer relu71
I0727 09:59:11.712685 111159 net.cpp:106] Creating Layer relu71
I0727 09:59:11.712697 111159 net.cpp:454] relu71 <- conv71
I0727 09:59:11.712709 111159 net.cpp:397] relu71 -> conv71 (in-place)
I0727 09:59:11.713259 111159 net.cpp:150] Setting up relu71
I0727 09:59:11.713287 111159 net.cpp:157] Top shape: 10 96 30 30 (864000)
I0727 09:59:11.713297 111159 net.cpp:165] Memory required for data: 2120589560
I0727 09:59:11.713315 111159 layer_factory.hpp:76] Creating layer conv72
I0727 09:59:11.713332 111159 net.cpp:106] Creating Layer conv72
I0727 09:59:11.713342 111159 net.cpp:454] conv72 <- conv71
I0727 09:59:11.713356 111159 net.cpp:411] conv72 -> conv72
I0727 09:59:11.715519 111159 net.cpp:150] Setting up conv72
I0727 09:59:11.715574 111159 net.cpp:157] Top shape: 10 96 30 30 (864000)
I0727 09:59:11.715584 111159 net.cpp:165] Memory required for data: 2124045560
I0727 09:59:11.715615 111159 layer_factory.hpp:76] Creating layer relu72
I0727 09:59:11.715637 111159 net.cpp:106] Creating Layer relu72
I0727 09:59:11.715649 111159 net.cpp:454] relu72 <- conv72
I0727 09:59:11.715668 111159 net.cpp:397] relu72 -> conv72 (in-place)
I0727 09:59:11.716192 111159 net.cpp:150] Setting up relu72
I0727 09:59:11.716213 111159 net.cpp:157] Top shape: 10 96 30 30 (864000)
I0727 09:59:11.716230 111159 net.cpp:165] Memory required for data: 2127501560
I0727 09:59:11.716246 111159 layer_factory.hpp:76] Creating layer pool6
I0727 09:59:11.716259 111159 net.cpp:106] Creating Layer pool6
I0727 09:59:11.716271 111159 net.cpp:454] pool6 <- conv72
I0727 09:59:11.716289 111159 net.cpp:411] pool6 -> pool6
I0727 09:59:11.716553 111159 net.cpp:150] Setting up pool6
I0727 09:59:11.716595 111159 net.cpp:157] Top shape: 10 96 15 15 (216000)
I0727 09:59:11.716605 111159 net.cpp:165] Memory required for data: 2128365560
I0727 09:59:11.716615 111159 layer_factory.hpp:76] Creating layer conv81
I0727 09:59:11.716657 111159 net.cpp:106] Creating Layer conv81
I0727 09:59:11.716668 111159 net.cpp:454] conv81 <- pool6
I0727 09:59:11.716681 111159 net.cpp:411] conv81 -> conv81
I0727 09:59:11.720024 111159 net.cpp:150] Setting up conv81
I0727 09:59:11.720068 111159 net.cpp:157] Top shape: 10 128 15 15 (288000)
I0727 09:59:11.720105 111159 net.cpp:165] Memory required for data: 2129517560
I0727 09:59:11.720120 111159 layer_factory.hpp:76] Creating layer relu81
I0727 09:59:11.720145 111159 net.cpp:106] Creating Layer relu81
I0727 09:59:11.720157 111159 net.cpp:454] relu81 <- conv81
I0727 09:59:11.720170 111159 net.cpp:397] relu81 -> conv81 (in-place)
I0727 09:59:11.720363 111159 net.cpp:150] Setting up relu81
I0727 09:59:11.720381 111159 net.cpp:157] Top shape: 10 128 15 15 (288000)
I0727 09:59:11.720388 111159 net.cpp:165] Memory required for data: 2130669560
I0727 09:59:11.720397 111159 layer_factory.hpp:76] Creating layer conv82
I0727 09:59:11.720417 111159 net.cpp:106] Creating Layer conv82
I0727 09:59:11.720427 111159 net.cpp:454] conv82 <- conv81
I0727 09:59:11.720438 111159 net.cpp:411] conv82 -> conv82
I0727 09:59:11.723305 111159 net.cpp:150] Setting up conv82
I0727 09:59:11.723341 111159 net.cpp:157] Top shape: 10 128 15 15 (288000)
I0727 09:59:11.723358 111159 net.cpp:165] Memory required for data: 2131821560
I0727 09:59:11.723378 111159 layer_factory.hpp:76] Creating layer relu82
I0727 09:59:11.723392 111159 net.cpp:106] Creating Layer relu82
I0727 09:59:11.723408 111159 net.cpp:454] relu82 <- conv82
I0727 09:59:11.723426 111159 net.cpp:397] relu82 -> conv82 (in-place)
I0727 09:59:11.723928 111159 net.cpp:150] Setting up relu82
I0727 09:59:11.723960 111159 net.cpp:157] Top shape: 10 128 15 15 (288000)
I0727 09:59:11.723969 111159 net.cpp:165] Memory required for data: 2132973560
I0727 09:59:11.723978 111159 layer_factory.hpp:76] Creating layer pool7
I0727 09:59:11.723992 111159 net.cpp:106] Creating Layer pool7
I0727 09:59:11.724004 111159 net.cpp:454] pool7 <- conv82
I0727 09:59:11.724014 111159 net.cpp:411] pool7 -> pool7
I0727 09:59:11.724236 111159 net.cpp:150] Setting up pool7
I0727 09:59:11.724256 111159 net.cpp:157] Top shape: 10 128 8 8 (81920)
I0727 09:59:11.724266 111159 net.cpp:165] Memory required for data: 2133301240
I0727 09:59:11.724273 111159 layer_factory.hpp:76] Creating layer drop0
I0727 09:59:11.724287 111159 net.cpp:106] Creating Layer drop0
I0727 09:59:11.724297 111159 net.cpp:454] drop0 <- pool7
I0727 09:59:11.724306 111159 net.cpp:397] drop0 -> pool7 (in-place)
I0727 09:59:11.724345 111159 net.cpp:150] Setting up drop0
I0727 09:59:11.724359 111159 net.cpp:157] Top shape: 10 128 8 8 (81920)
I0727 09:59:11.724367 111159 net.cpp:165] Memory required for data: 2133628920
I0727 09:59:11.724376 111159 layer_factory.hpp:76] Creating layer conv91
I0727 09:59:11.724400 111159 net.cpp:106] Creating Layer conv91
I0727 09:59:11.724411 111159 net.cpp:454] conv91 <- pool7
I0727 09:59:11.724421 111159 net.cpp:411] conv91 -> conv91
I0727 09:59:11.725961 111159 cudnn_conv_layer.cpp:194] Reallocating workspace storage: 98304
I0727 09:59:11.726313 111159 net.cpp:150] Setting up conv91
I0727 09:59:11.726335 111159 net.cpp:157] Top shape: 10 3 1 1 (30)
I0727 09:59:11.726346 111159 net.cpp:165] Memory required for data: 2133629040
I0727 09:59:11.726362 111159 layer_factory.hpp:76] Creating layer conv91_conv91_0_split
I0727 09:59:11.726378 111159 net.cpp:106] Creating Layer conv91_conv91_0_split
I0727 09:59:11.726388 111159 net.cpp:454] conv91_conv91_0_split <- conv91
I0727 09:59:11.726402 111159 net.cpp:411] conv91_conv91_0_split -> conv91_conv91_0_split_0
I0727 09:59:11.726415 111159 net.cpp:411] conv91_conv91_0_split -> conv91_conv91_0_split_1
I0727 09:59:11.726471 111159 net.cpp:150] Setting up conv91_conv91_0_split
I0727 09:59:11.726485 111159 net.cpp:157] Top shape: 10 3 1 1 (30)
I0727 09:59:11.726495 111159 net.cpp:157] Top shape: 10 3 1 1 (30)
I0727 09:59:11.726505 111159 net.cpp:165] Memory required for data: 2133629280
I0727 09:59:11.726514 111159 layer_factory.hpp:76] Creating layer accuracy
I0727 09:59:11.726526 111159 net.cpp:106] Creating Layer accuracy
I0727 09:59:11.726536 111159 net.cpp:454] accuracy <- conv91_conv91_0_split_0
I0727 09:59:11.726548 111159 net.cpp:454] accuracy <- label_data_1_split_0
I0727 09:59:11.726562 111159 net.cpp:411] accuracy -> accuracy
…
