…
I0727 08:59:42.715404 89259 net.cpp:322] The NetState phase (0) differed from the phase (1) specified by a rule in layer data
I0727 08:59:42.715611 89259 net.cpp:49] Initializing net from parameters: 
name: "Result Layer 3 Stack"
state {
  phase: TRAIN
}
layer {
  name: "data"
  type: "ImageData"
  top: "data"
  top: "label"
  include {
    phase: TRAIN
  }
  transform_param {
    mirror: true
    mean_value: 150
    mean_value: 150
    mean_value: 150
  }
  image_data_param {
    source: "../lists/mitosis_train-norm-bin.lst"
    batch_size: 32
    shuffle: true
    new_height: 1000
    new_width: 1000
  }
}
layer {
  name: "conv1"
  type: "Convolution"
  bottom: "data"
  top: "conv1"
  param {
    lr_mult: 0
    decay_mult: 0
  }
  param {
    lr_mult: 0
    decay_mult: 0
  }
  convolution_param {
    num_output: 16
    pad: 0
    kernel_size: 4
    stride: 1
  }
}
layer {
  name: "nonlin1"
  type: "ReLU"
  bottom: "conv1"
  top: "conv1"
}
layer {
  name: "pool1"
  type: "Pooling"
  bottom: "conv1"
  top: "pool1"
  pooling_param {
    pool: MAX
    kernel_size: 2
    stride: 2
  }
}
layer {
  name: "conv2"
  type: "Convolution"
  bottom: "pool1"
  top: "conv2"
  param {
    lr_mult: 0
    decay_mult: 0
  }
  param {
    lr_mult: 0
    decay_mult: 0
  }
  convolution_param {
    num_output: 16
    pad: 0
    kernel_size: 3
    stride: 1
  }
}
layer {
  name: "nonlin2"
  type: "ReLU"
  bottom: "conv2"
  top: "conv2"
}
layer {
  name: "pool2"
  type: "Pooling"
  bottom: "conv2"
  top: "pool2"
  pooling_param {
    pool: MAX
    kernel_size: 2
    stride: 2
  }
}
layer {
  name: "conv3"
  type: "Convolution"
  bottom: "pool2"
  top: "conv3"
  param {
    lr_mult: 0
    decay_mult: 0
  }
  param {
    lr_mult: 0
    decay_mult: 0
  }
  convolution_param {
    num_output: 16
    pad: 0
    kernel_size: 3
    stride: 1
  }
}
layer {
  name: "nonlin3"
  type: "ReLU"
  bottom: "conv3"
  top: "conv3"
}
layer {
  name: "pool3"
  type: "Pooling"
  bottom: "conv3"
  top: "pool3"
  pooling_param {
    pool: MAX
    kernel_size: 2
    stride: 2
  }
}
layer {
  name: "conv4"
  type: "Convolution"
  bottom: "pool3"
  top: "conv4"
  param {
    lr_mult: 0
    decay_mult: 0
  }
  param {
    lr_mult: 0
    decay_mult: 0
  }
  convolution_param {
    num_output: 16
    pad: 0
    kernel_size: 3
    stride: 1
  }
}
layer {
  name: "nonlin4"
  type: "ReLU"
  bottom: "conv4"
  top: "conv4"
}
layer {
  name: "pool4"
  type: "Pooling"
  bottom: "conv4"
  top: "pool4"
  pooling_param {
    pool: MAX
    kernel_size: 2
    stride: 2
  }
}
layer {
  name: "ip1_c"
  type: "Convolution"
  bottom: "pool4"
  top: "ip1"
  convolution_param {
    num_output: 200
    pad: 0
    kernel_size: 2
    stride: 1
  }
}
layer {
  name: "nonlin_ip1"
  type: "ReLU"
  bottom: "ip1"
  top: "ip1"
}
layer {
  name: "conv61"
  type: "Convolution"
  bottom: "ip1"
  top: "conv61"
  param {
    lr_mult: 1
    decay_mult: 1
  }
  param {
    lr_mult: 2
    decay_mult: 0
  }
  convolution_param {
    num_output: 64
    pad: 1
    stride: 1
    weight_filler {
      type: "xavier"
    }
    bias_filler {
      type: "constant"
    }
    kernel_h: 3
    kernel_w: 3
  }
}
layer {
  name: "relu61"
  type: "ReLU"
  bottom: "conv61"
  top: "conv61"
}
layer {
  name: "conv62"
  type: "Convolution"
  bottom: "conv61"
  top: "conv62"
  param {
    lr_mult: 1
    decay_mult: 1
  }
  param {
    lr_mult: 2
    decay_mult: 0
  }
  convolution_param {
    num_output: 64
    pad: 1
    stride: 1
    weight_filler {
      type: "xavier"
    }
    bias_filler {
      type: "constant"
    }
    kernel_h: 3
    kernel_w: 3
  }
}
layer {
  name: "relu62"
  type: "ReLU"
  bottom: "conv62"
  top: "conv62"
}
layer {
  name: "pool5"
  type: "Pooling"
  bottom: "conv62"
  top: "pool5"
  pooling_param {
    pool: MAX
    kernel_size: 2
    stride: 2
  }
}
layer {
  name: "conv71"
  type: "Convolution"
  bottom: "pool5"
  top: "conv71"
  param {
    lr_mult: 1
    decay_mult: 1
  }
  param {
    lr_mult: 2
    decay_mult: 0
  }
  convolution_param {
    num_output: 96
    pad: 1
    stride: 1
    weight_filler {
      type: "xavier"
    }
    bias_filler {
      type: "constant"
    }
    kernel_h: 3
    kernel_w: 3
  }
}
layer {
  name: "relu71"
  type: "ReLU"
  bottom: "conv71"
  top: "conv71"
}
layer {
  name: "conv72"
  type: "Convolution"
  bottom: "conv71"
  top: "conv72"
  param {
    lr_mult: 1
    decay_mult: 1
  }
  param {
    lr_mult: 2
    decay_mult: 0
  }
  convolution_param {
    num_output: 96
    pad: 1
    stride: 1
    weight_filler {
      type: "xavier"
    }
    bias_filler {
      type: "constant"
    }
    kernel_h: 3
    kernel_w: 3
  }
}
layer {
  name: "relu72"
  type: "ReLU"
  bottom: "conv72"
  top: "conv72"
}
layer {
  name: "pool6"
  type: "Pooling"
  bottom: "conv72"
  top: "pool6"
  pooling_param {
    pool: MAX
    kernel_size: 2
    stride: 2
  }
}
layer {
  name: "conv81"
  type: "Convolution"
  bottom: "pool6"
  top: "conv81"
  param {
    lr_mult: 1
    decay_mult: 1
  }
  param {
    lr_mult: 2
    decay_mult: 0
  }
  convolution_param {
    num_output: 128
    pad: 1
    stride: 1
    weight_filler {
      type: "xavier"
    }
    bias_filler {
      type: "constant"
    }
    kernel_h: 3
    kernel_w: 3
  }
}
layer {
  name: "relu81"
  type: "ReLU"
  bottom: "conv81"
  top: "conv81"
}
layer {
  name: "conv82"
  type: "Convolution"
  bottom: "conv81"
  top: "conv82"
  param {
    lr_mult: 1
    decay_mult: 1
  }
  param {
    lr_mult: 2
    decay_mult: 0
  }
  convolution_param {
    num_output: 128
    pad: 1
    stride: 1
    weight_filler {
      type: "xavier"
    }
    bias_filler {
      type: "constant"
    }
    kernel_h: 3
    kernel_w: 3
  }
}
layer {
  name: "relu82"
  type: "ReLU"
  bottom: "conv82"
  top: "conv82"
}
layer {
  name: "pool7"
  type: "Pooling"
  bottom: "conv82"
  top: "pool7"
  pooling_param {
    pool: AVE
    kernel_size: 2
    stride: 2
  }
}
layer {
  name: "drop0"
  type: "Dropout"
  bottom: "pool7"
  top: "pool7"
  dropout_param {
    dropout_ratio: 0.4
  }
}
layer {
  name: "conv91"
  type: "Convolution"
  bottom: "pool7"
  top: "conv91"
  param {
    lr_mult: 1
    decay_mult: 1
  }
  param {
    lr_mult: 2
    decay_mult: 0
  }
  convolution_param {
    num_output: 3
    stride: 1
    weight_filler {
      type: "xavier"
    }
    bias_filler {
      type: "constant"
    }
    kernel_h: 8
    kernel_w: 8
  }
}
layer {
  name: "accuracy"
  type: "Accuracy"
  bottom: "conv91"
  bottom: "label"
  top: "accuracy"
}
layer {
  name: "loss"
  type: "SoftmaxWithLoss"
  bottom: "conv91"
  bottom: "label"
  top: "loss"
}
I0727 08:59:42.716028 89259 layer_factory.hpp:76] Creating layer data
I0727 08:59:42.716220 89259 net.cpp:106] Creating Layer data
I0727 08:59:42.716235 89259 net.cpp:411] data -> data
I0727 08:59:42.716265 89259 net.cpp:411] data -> label
I0727 08:59:42.716822 89259 image_data_layer.cpp:36] Opening file ../lists/mitosis_train-norm-bin.lst
I0727 08:59:42.807541 89259 image_data_layer.cpp:46] Shuffling data
I0727 08:59:42.809499 89259 image_data_layer.cpp:51] A total of 16287 images.
I0727 08:59:42.890046 89259 image_data_layer.cpp:78] output data size: 32,3,1000,1000
I0727 08:59:43.962271 89259 net.cpp:150] Setting up data
I0727 08:59:43.962347 89259 net.cpp:157] Top shape: 32 3 1000 1000 (96000000)
I0727 08:59:43.962360 89259 net.cpp:157] Top shape: 32 (32)
I0727 08:59:43.962373 89259 net.cpp:165] Memory required for data: 384000128
I0727 08:59:43.962393 89259 layer_factory.hpp:76] Creating layer label_data_1_split
I0727 08:59:43.962565 89259 net.cpp:106] Creating Layer label_data_1_split
I0727 08:59:43.962596 89259 net.cpp:454] label_data_1_split <- label
I0727 08:59:43.962657 89259 net.cpp:411] label_data_1_split -> label_data_1_split_0
I0727 08:59:43.962679 89259 net.cpp:411] label_data_1_split -> label_data_1_split_1
I0727 08:59:43.962776 89259 net.cpp:150] Setting up label_data_1_split
I0727 08:59:43.962805 89259 net.cpp:157] Top shape: 32 (32)
I0727 08:59:43.962815 89259 net.cpp:157] Top shape: 32 (32)
I0727 08:59:43.962821 89259 net.cpp:165] Memory required for data: 384000384
I0727 08:59:43.962831 89259 layer_factory.hpp:76] Creating layer conv1
I0727 08:59:43.962854 89259 net.cpp:106] Creating Layer conv1
I0727 08:59:43.962864 89259 net.cpp:454] conv1 <- data
I0727 08:59:43.962874 89259 net.cpp:411] conv1 -> conv1
I0727 08:59:44.397259 89259 net.cpp:150] Setting up conv1
I0727 08:59:44.397321 89259 net.cpp:157] Top shape: 32 16 997 997 (508932608)
I0727 08:59:44.397332 89259 net.cpp:165] Memory required for data: 2419730816
I0727 08:59:44.397361 89259 layer_factory.hpp:76] Creating layer nonlin1
I0727 08:59:44.397390 89259 net.cpp:106] Creating Layer nonlin1
I0727 08:59:44.397403 89259 net.cpp:454] nonlin1 <- conv1
I0727 08:59:44.397418 89259 net.cpp:397] nonlin1 -> conv1 (in-place)
I0727 08:59:44.397616 89259 net.cpp:150] Setting up nonlin1
I0727 08:59:44.397644 89259 net.cpp:157] Top shape: 32 16 997 997 (508932608)
I0727 08:59:44.397653 89259 net.cpp:165] Memory required for data: 4455461248
I0727 08:59:44.397663 89259 layer_factory.hpp:76] Creating layer pool1
I0727 08:59:44.397680 89259 net.cpp:106] Creating Layer pool1
I0727 08:59:44.397693 89259 net.cpp:454] pool1 <- conv1
I0727 08:59:44.397706 89259 net.cpp:411] pool1 -> pool1
I0727 08:59:44.398272 89259 net.cpp:150] Setting up pool1
I0727 08:59:44.398305 89259 net.cpp:157] Top shape: 32 16 499 499 (127488512)
I0727 08:59:44.398314 89259 net.cpp:165] Memory required for data: 4965415296
I0727 08:59:44.398324 89259 layer_factory.hpp:76] Creating layer conv2
I0727 08:59:44.398340 89259 net.cpp:106] Creating Layer conv2
I0727 08:59:44.398351 89259 net.cpp:454] conv2 <- pool1
I0727 08:59:44.398362 89259 net.cpp:411] conv2 -> conv2
I0727 08:59:44.401113 89259 net.cpp:150] Setting up conv2
I0727 08:59:44.401154 89259 net.cpp:157] Top shape: 32 16 497 497 (126468608)
I0727 08:59:44.401165 89259 net.cpp:165] Memory required for data: 5471289728
I0727 08:59:44.401185 89259 layer_factory.hpp:76] Creating layer nonlin2
I0727 08:59:44.401207 89259 net.cpp:106] Creating Layer nonlin2
I0727 08:59:44.401219 89259 net.cpp:454] nonlin2 <- conv2
I0727 08:59:44.401231 89259 net.cpp:397] nonlin2 -> conv2 (in-place)
I0727 08:59:44.401415 89259 net.cpp:150] Setting up nonlin2
I0727 08:59:44.401443 89259 net.cpp:157] Top shape: 32 16 497 497 (126468608)
I0727 08:59:44.401453 89259 net.cpp:165] Memory required for data: 5977164160
I0727 08:59:44.401461 89259 layer_factory.hpp:76] Creating layer pool2
I0727 08:59:44.401476 89259 net.cpp:106] Creating Layer pool2
I0727 08:59:44.401486 89259 net.cpp:454] pool2 <- conv2
I0727 08:59:44.401499 89259 net.cpp:411] pool2 -> pool2
I0727 08:59:44.401955 89259 net.cpp:150] Setting up pool2
I0727 08:59:44.401986 89259 net.cpp:157] Top shape: 32 16 249 249 (31744512)
I0727 08:59:44.401995 89259 net.cpp:165] Memory required for data: 6104142208
I0727 08:59:44.402005 89259 layer_factory.hpp:76] Creating layer conv3
I0727 08:59:44.402024 89259 net.cpp:106] Creating Layer conv3
I0727 08:59:44.402032 89259 net.cpp:454] conv3 <- pool2
I0727 08:59:44.402043 89259 net.cpp:411] conv3 -> conv3
I0727 08:59:44.403807 89259 net.cpp:150] Setting up conv3
I0727 08:59:44.403847 89259 net.cpp:157] Top shape: 32 16 247 247 (31236608)
I0727 08:59:44.403856 89259 net.cpp:165] Memory required for data: 6229088640
I0727 08:59:44.403873 89259 layer_factory.hpp:76] Creating layer nonlin3
I0727 08:59:44.403890 89259 net.cpp:106] Creating Layer nonlin3
I0727 08:59:44.403904 89259 net.cpp:454] nonlin3 <- conv3
I0727 08:59:44.403916 89259 net.cpp:397] nonlin3 -> conv3 (in-place)
I0727 08:59:44.404100 89259 net.cpp:150] Setting up nonlin3
I0727 08:59:44.404129 89259 net.cpp:157] Top shape: 32 16 247 247 (31236608)
I0727 08:59:44.404165 89259 net.cpp:165] Memory required for data: 6354035072
I0727 08:59:44.404175 89259 layer_factory.hpp:76] Creating layer pool3
I0727 08:59:44.404187 89259 net.cpp:106] Creating Layer pool3
I0727 08:59:44.404196 89259 net.cpp:454] pool3 <- conv3
I0727 08:59:44.404209 89259 net.cpp:411] pool3 -> pool3
I0727 08:59:44.404654 89259 net.cpp:150] Setting up pool3
I0727 08:59:44.404685 89259 net.cpp:157] Top shape: 32 16 124 124 (7872512)
I0727 08:59:44.404695 89259 net.cpp:165] Memory required for data: 6385525120
I0727 08:59:44.404705 89259 layer_factory.hpp:76] Creating layer conv4
I0727 08:59:44.404721 89259 net.cpp:106] Creating Layer conv4
I0727 08:59:44.404731 89259 net.cpp:454] conv4 <- pool3
I0727 08:59:44.404742 89259 net.cpp:411] conv4 -> conv4
I0727 08:59:44.406285 89259 net.cpp:150] Setting up conv4
I0727 08:59:44.406306 89259 net.cpp:157] Top shape: 32 16 122 122 (7620608)
I0727 08:59:44.406316 89259 net.cpp:165] Memory required for data: 6416007552
I0727 08:59:44.406328 89259 layer_factory.hpp:76] Creating layer nonlin4
I0727 08:59:44.406342 89259 net.cpp:106] Creating Layer nonlin4
I0727 08:59:44.406352 89259 net.cpp:454] nonlin4 <- conv4
I0727 08:59:44.406365 89259 net.cpp:397] nonlin4 -> conv4 (in-place)
I0727 08:59:44.406785 89259 net.cpp:150] Setting up nonlin4
I0727 08:59:44.406805 89259 net.cpp:157] Top shape: 32 16 122 122 (7620608)
I0727 08:59:44.406813 89259 net.cpp:165] Memory required for data: 6446489984
I0727 08:59:44.406824 89259 layer_factory.hpp:76] Creating layer pool4
I0727 08:59:44.406836 89259 net.cpp:106] Creating Layer pool4
I0727 08:59:44.406847 89259 net.cpp:454] pool4 <- conv4
I0727 08:59:44.406860 89259 net.cpp:411] pool4 -> pool4
I0727 08:59:44.407299 89259 net.cpp:150] Setting up pool4
I0727 08:59:44.407318 89259 net.cpp:157] Top shape: 32 16 61 61 (1905152)
I0727 08:59:44.407328 89259 net.cpp:165] Memory required for data: 6454110592
I0727 08:59:44.407336 89259 layer_factory.hpp:76] Creating layer ip1_c
I0727 08:59:44.407351 89259 net.cpp:106] Creating Layer ip1_c
I0727 08:59:44.407362 89259 net.cpp:454] ip1_c <- pool4
I0727 08:59:44.407374 89259 net.cpp:411] ip1_c -> ip1
I0727 08:59:44.408252 89259 cudnn_conv_layer.cpp:194] Reallocating workspace storage: 768
I0727 08:59:44.408287 89259 net.cpp:150] Setting up ip1_c
I0727 08:59:44.408300 89259 net.cpp:157] Top shape: 32 200 60 60 (23040000)
I0727 08:59:44.408309 89259 net.cpp:165] Memory required for data: 6546270592
I0727 08:59:44.408325 89259 layer_factory.hpp:76] Creating layer nonlin_ip1
I0727 08:59:44.408341 89259 net.cpp:106] Creating Layer nonlin_ip1
I0727 08:59:44.408351 89259 net.cpp:454] nonlin_ip1 <- ip1
I0727 08:59:44.408363 89259 net.cpp:397] nonlin_ip1 -> ip1 (in-place)
I0727 08:59:44.408777 89259 net.cpp:150] Setting up nonlin_ip1
I0727 08:59:44.408797 89259 net.cpp:157] Top shape: 32 200 60 60 (23040000)
I0727 08:59:44.408805 89259 net.cpp:165] Memory required for data: 6638430592
I0727 08:59:44.408815 89259 layer_factory.hpp:76] Creating layer conv61
I0727 08:59:44.408834 89259 net.cpp:106] Creating Layer conv61
I0727 08:59:44.408844 89259 net.cpp:454] conv61 <- ip1
I0727 08:59:44.408859 89259 net.cpp:411] conv61 -> conv61
I0727 08:59:44.411443 89259 cudnn_conv_layer.cpp:194] Reallocating workspace storage: 21600
I0727 08:59:44.411478 89259 net.cpp:150] Setting up conv61
I0727 08:59:44.411491 89259 net.cpp:157] Top shape: 32 64 60 60 (7372800)
I0727 08:59:44.411500 89259 net.cpp:165] Memory required for data: 6667921792
I0727 08:59:44.411514 89259 layer_factory.hpp:76] Creating layer relu61
I0727 08:59:44.411530 89259 net.cpp:106] Creating Layer relu61
I0727 08:59:44.411540 89259 net.cpp:454] relu61 <- conv61
I0727 08:59:44.411550 89259 net.cpp:397] relu61 -> conv61 (in-place)
I0727 08:59:44.411723 89259 net.cpp:150] Setting up relu61
I0727 08:59:44.411741 89259 net.cpp:157] Top shape: 32 64 60 60 (7372800)
I0727 08:59:44.411749 89259 net.cpp:165] Memory required for data: 6697412992
I0727 08:59:44.411758 89259 layer_factory.hpp:76] Creating layer conv62
I0727 08:59:44.411775 89259 net.cpp:106] Creating Layer conv62
I0727 08:59:44.411808 89259 net.cpp:454] conv62 <- conv61
I0727 08:59:44.411823 89259 net.cpp:411] conv62 -> conv62
I0727 08:59:44.413658 89259 net.cpp:150] Setting up conv62
I0727 08:59:44.413687 89259 net.cpp:157] Top shape: 32 64 60 60 (7372800)
I0727 08:59:44.413697 89259 net.cpp:165] Memory required for data: 6726904192
I0727 08:59:44.413709 89259 layer_factory.hpp:76] Creating layer relu62
I0727 08:59:44.413727 89259 net.cpp:106] Creating Layer relu62
I0727 08:59:44.413736 89259 net.cpp:454] relu62 <- conv62
I0727 08:59:44.413753 89259 net.cpp:397] relu62 -> conv62 (in-place)
I0727 08:59:44.414194 89259 net.cpp:150] Setting up relu62
I0727 08:59:44.414214 89259 net.cpp:157] Top shape: 32 64 60 60 (7372800)
I0727 08:59:44.414224 89259 net.cpp:165] Memory required for data: 6756395392
I0727 08:59:44.414233 89259 layer_factory.hpp:76] Creating layer pool5
I0727 08:59:44.414245 89259 net.cpp:106] Creating Layer pool5
I0727 08:59:44.414254 89259 net.cpp:454] pool5 <- conv62
I0727 08:59:44.414268 89259 net.cpp:411] pool5 -> pool5
I0727 08:59:44.414470 89259 net.cpp:150] Setting up pool5
I0727 08:59:44.414489 89259 net.cpp:157] Top shape: 32 64 30 30 (1843200)
I0727 08:59:44.414499 89259 net.cpp:165] Memory required for data: 6763768192
I0727 08:59:44.414510 89259 layer_factory.hpp:76] Creating layer conv71
I0727 08:59:44.414525 89259 net.cpp:106] Creating Layer conv71
I0727 08:59:44.414535 89259 net.cpp:454] conv71 <- pool5
I0727 08:59:44.414547 89259 net.cpp:411] conv71 -> conv71
I0727 08:59:44.416127 89259 cudnn_conv_layer.cpp:194] Reallocating workspace storage: 6912
I0727 08:59:44.416443 89259 net.cpp:150] Setting up conv71
I0727 08:59:44.416473 89259 net.cpp:157] Top shape: 32 96 30 30 (2764800)
I0727 08:59:44.416482 89259 net.cpp:165] Memory required for data: 6774827392
I0727 08:59:44.416494 89259 layer_factory.hpp:76] Creating layer relu71
I0727 08:59:44.416508 89259 net.cpp:106] Creating Layer relu71
I0727 08:59:44.416518 89259 net.cpp:454] relu71 <- conv71
I0727 08:59:44.416528 89259 net.cpp:397] relu71 -> conv71 (in-place)
I0727 08:59:44.416719 89259 net.cpp:150] Setting up relu71
I0727 08:59:44.416734 89259 net.cpp:157] Top shape: 32 96 30 30 (2764800)
I0727 08:59:44.416755 89259 net.cpp:165] Memory required for data: 6785886592
I0727 08:59:44.416764 89259 layer_factory.hpp:76] Creating layer conv72
I0727 08:59:44.416780 89259 net.cpp:106] Creating Layer conv72
I0727 08:59:44.416790 89259 net.cpp:454] conv72 <- conv71
I0727 08:59:44.416800 89259 net.cpp:411] conv72 -> conv72
I0727 08:59:44.418495 89259 cudnn_conv_layer.cpp:194] Reallocating workspace storage: 10368
I0727 08:59:44.418539 89259 net.cpp:150] Setting up conv72
I0727 08:59:44.418555 89259 net.cpp:157] Top shape: 32 96 30 30 (2764800)
I0727 08:59:44.418563 89259 net.cpp:165] Memory required for data: 6796945792
I0727 08:59:44.418579 89259 layer_factory.hpp:76] Creating layer relu72
I0727 08:59:44.418593 89259 net.cpp:106] Creating Layer relu72
I0727 08:59:44.418603 89259 net.cpp:454] relu72 <- conv72
I0727 08:59:44.418615 89259 net.cpp:397] relu72 -> conv72 (in-place)
I0727 08:59:44.419052 89259 net.cpp:150] Setting up relu72
I0727 08:59:44.419072 89259 net.cpp:157] Top shape: 32 96 30 30 (2764800)
I0727 08:59:44.419081 89259 net.cpp:165] Memory required for data: 6808004992
I0727 08:59:44.419091 89259 layer_factory.hpp:76] Creating layer pool6
I0727 08:59:44.419104 89259 net.cpp:106] Creating Layer pool6
I0727 08:59:44.419114 89259 net.cpp:454] pool6 <- conv72
I0727 08:59:44.419128 89259 net.cpp:411] pool6 -> pool6
I0727 08:59:44.419327 89259 net.cpp:150] Setting up pool6
I0727 08:59:44.419345 89259 net.cpp:157] Top shape: 32 96 15 15 (691200)
I0727 08:59:44.419355 89259 net.cpp:165] Memory required for data: 6810769792
I0727 08:59:44.419364 89259 layer_factory.hpp:76] Creating layer conv81
I0727 08:59:44.419378 89259 net.cpp:106] Creating Layer conv81
I0727 08:59:44.419387 89259 net.cpp:454] conv81 <- pool6
I0727 08:59:44.419402 89259 net.cpp:411] conv81 -> conv81
I0727 08:59:44.422080 89259 cudnn_conv_layer.cpp:194] Reallocating workspace storage: 10368
I0727 08:59:44.422143 89259 net.cpp:150] Setting up conv81
I0727 08:59:44.422158 89259 net.cpp:157] Top shape: 32 128 15 15 (921600)
I0727 08:59:44.422168 89259 net.cpp:165] Memory required for data: 6814456192
I0727 08:59:44.422179 89259 layer_factory.hpp:76] Creating layer relu81
I0727 08:59:44.422194 89259 net.cpp:106] Creating Layer relu81
I0727 08:59:44.422204 89259 net.cpp:454] relu81 <- conv81
I0727 08:59:44.422216 89259 net.cpp:397] relu81 -> conv81 (in-place)
I0727 08:59:44.422626 89259 net.cpp:150] Setting up relu81
I0727 08:59:44.422667 89259 net.cpp:157] Top shape: 32 128 15 15 (921600)
I0727 08:59:44.422677 89259 net.cpp:165] Memory required for data: 6818142592
I0727 08:59:44.422686 89259 layer_factory.hpp:76] Creating layer conv82
I0727 08:59:44.422703 89259 net.cpp:106] Creating Layer conv82
I0727 08:59:44.422713 89259 net.cpp:454] conv82 <- conv81
I0727 08:59:44.422739 89259 net.cpp:411] conv82 -> conv82
I0727 08:59:44.424700 89259 cudnn_conv_layer.cpp:194] Reallocating workspace storage: 13824
I0727 08:59:44.424737 89259 net.cpp:150] Setting up conv82
I0727 08:59:44.424751 89259 net.cpp:157] Top shape: 32 128 15 15 (921600)
I0727 08:59:44.424762 89259 net.cpp:165] Memory required for data: 6821828992
I0727 08:59:44.424775 89259 layer_factory.hpp:76] Creating layer relu82
I0727 08:59:44.424788 89259 net.cpp:106] Creating Layer relu82
I0727 08:59:44.424798 89259 net.cpp:454] relu82 <- conv82
I0727 08:59:44.424810 89259 net.cpp:397] relu82 -> conv82 (in-place)
I0727 08:59:44.425231 89259 net.cpp:150] Setting up relu82
I0727 08:59:44.425252 89259 net.cpp:157] Top shape: 32 128 15 15 (921600)
I0727 08:59:44.425262 89259 net.cpp:165] Memory required for data: 6825515392
I0727 08:59:44.425271 89259 layer_factory.hpp:76] Creating layer pool7
I0727 08:59:44.425285 89259 net.cpp:106] Creating Layer pool7
I0727 08:59:44.425295 89259 net.cpp:454] pool7 <- conv82
I0727 08:59:44.425308 89259 net.cpp:411] pool7 -> pool7
I0727 08:59:44.425504 89259 net.cpp:150] Setting up pool7
I0727 08:59:44.425521 89259 net.cpp:157] Top shape: 32 128 8 8 (262144)
I0727 08:59:44.425531 89259 net.cpp:165] Memory required for data: 6826563968
I0727 08:59:44.425540 89259 layer_factory.hpp:76] Creating layer drop0
I0727 08:59:44.425561 89259 net.cpp:106] Creating Layer drop0
I0727 08:59:44.425572 89259 net.cpp:454] drop0 <- pool7
I0727 08:59:44.425585 89259 net.cpp:397] drop0 -> pool7 (in-place)
I0727 08:59:44.425624 89259 net.cpp:150] Setting up drop0
I0727 08:59:44.425637 89259 net.cpp:157] Top shape: 32 128 8 8 (262144)
I0727 08:59:44.425647 89259 net.cpp:165] Memory required for data: 6827612544
I0727 08:59:44.425655 89259 layer_factory.hpp:76] Creating layer conv91
I0727 08:59:44.425686 89259 net.cpp:106] Creating Layer conv91
I0727 08:59:44.425696 89259 net.cpp:454] conv91 <- pool7
I0727 08:59:44.425709 89259 net.cpp:411] conv91 -> conv91
I0727 08:59:44.427053 89259 net.cpp:150] Setting up conv91
I0727 08:59:44.427075 89259 net.cpp:157] Top shape: 32 3 1 1 (96)
I0727 08:59:44.427086 89259 net.cpp:165] Memory required for data: 6827612928
I0727 08:59:44.427100 89259 layer_factory.hpp:76] Creating layer conv91_conv91_0_split
I0727 08:59:44.427116 89259 net.cpp:106] Creating Layer conv91_conv91_0_split
I0727 08:59:44.427127 89259 net.cpp:454] conv91_conv91_0_split <- conv91
I0727 08:59:44.427139 89259 net.cpp:411] conv91_conv91_0_split -> conv91_conv91_0_split_0
I0727 08:59:44.427150 89259 net.cpp:411] conv91_conv91_0_split -> conv91_conv91_0_split_1
I0727 08:59:44.427198 89259 net.cpp:150] Setting up conv91_conv91_0_split
I0727 08:59:44.427211 89259 net.cpp:157] Top shape: 32 3 1 1 (96)
I0727 08:59:44.427222 89259 net.cpp:157] Top shape: 32 3 1 1 (96)
I0727 08:59:44.427232 89259 net.cpp:165] Memory required for data: 6827613696
I0727 08:59:44.427242 89259 layer_factory.hpp:76] Creating layer accuracy
I0727 08:59:44.427260 89259 net.cpp:106] Creating Layer accuracy
I0727 08:59:44.427271 89259 net.cpp:454] accuracy <- conv91_conv91_0_split_0
I0727 08:59:44.427281 89259 net.cpp:454] accuracy <- label_data_1_split_0
I0727 08:59:44.427314 89259 net.cpp:411] accuracy -> accuracy
…
I0727 08:59:44.429298 89259 net.cpp:322] The NetState phase (1) differed from the phase (0) specified by a rule in layer data
I0727 08:59:44.429497 89259 net.cpp:49] Initializing net from parameters: 
name: "Result Layer 3 Stack"
state {
  phase: TEST
}
layer {
  name: "data"
  type: "ImageData"
  top: "data"
  top: "label"
  include {
    phase: TEST
  }
  transform_param {
    mirror: false
    mean_value: 150
    mean_value: 150
    mean_value: 150
  }
  image_data_param {
    source: "../lists/mitosis_val-norm-bin.lst"
    batch_size: 10
    shuffle: true
    new_height: 1000
    new_width: 1000
  }
}
layer {
  name: "conv1"
  type: "Convolution"
  bottom: "data"
  top: "conv1"
  param {
    lr_mult: 0
    decay_mult: 0
  }
  param {
    lr_mult: 0
    decay_mult: 0
  }
  convolution_param {
    num_output: 16
    pad: 0
    kernel_size: 4
    stride: 1
  }
}
layer {
  name: "nonlin1"
  type: "ReLU"
  bottom: "conv1"
  top: "conv1"
}
layer {
  name: "pool1"
  type: "Pooling"
  bottom: "conv1"
  top: "pool1"
  pooling_param {
    pool: MAX
    kernel_size: 2
    stride: 2
  }
}
layer {
  name: "conv2"
  type: "Convolution"
  bottom: "pool1"
  top: "conv2"
  param {
    lr_mult: 0
    decay_mult: 0
  }
  param {
    lr_mult: 0
    decay_mult: 0
  }
  convolution_param {
    num_output: 16
    pad: 0
    kernel_size: 3
    stride: 1
  }
}
layer {
  name: "nonlin2"
  type: "ReLU"
  bottom: "conv2"
  top: "conv2"
}
layer {
  name: "pool2"
  type: "Pooling"
  bottom: "conv2"
  top: "pool2"
  pooling_param {
    pool: MAX
    kernel_size: 2
    stride: 2
  }
}
layer {
  name: "conv3"
  type: "Convolution"
  bottom: "pool2"
  top: "conv3"
  param {
    lr_mult: 0
    decay_mult: 0
  }
  param {
    lr_mult: 0
    decay_mult: 0
  }
  convolution_param {
    num_output: 16
    pad: 0
    kernel_size: 3
    stride: 1
  }
}
layer {
  name: "nonlin3"
  type: "ReLU"
  bottom: "conv3"
  top: "conv3"
}
layer {
  name: "pool3"
  type: "Pooling"
  bottom: "conv3"
  top: "pool3"
  pooling_param {
    pool: MAX
    kernel_size: 2
    stride: 2
  }
}
layer {
  name: "conv4"
  type: "Convolution"
  bottom: "pool3"
  top: "conv4"
  param {
    lr_mult: 0
    decay_mult: 0
  }
  param {
    lr_mult: 0
    decay_mult: 0
  }
  convolution_param {
    num_output: 16
    pad: 0
    kernel_size: 3
    stride: 1
  }
}
layer {
  name: "nonlin4"
  type: "ReLU"
  bottom: "conv4"
  top: "conv4"
}
layer {
  name: "pool4"
  type: "Pooling"
  bottom: "conv4"
  top: "pool4"
  pooling_param {
    pool: MAX
    kernel_size: 2
    stride: 2
  }
}
layer {
  name: "ip1_c"
  type: "Convolution"
  bottom: "pool4"
  top: "ip1"
  convolution_param {
    num_output: 200
    pad: 0
    kernel_size: 2
    stride: 1
  }
}
layer {
  name: "nonlin_ip1"
  type: "ReLU"
  bottom: "ip1"
  top: "ip1"
}
layer {
  name: "conv61"
  type: "Convolution"
  bottom: "ip1"
  top: "conv61"
  param {
    lr_mult: 1
    decay_mult: 1
  }
  param {
    lr_mult: 2
    decay_mult: 0
  }
  convolution_param {
    num_output: 64
    pad: 1
    stride: 1
    weight_filler {
      type: "xavier"
    }
    bias_filler {
      type: "constant"
    }
    kernel_h: 3
    kernel_w: 3
  }
}
layer {
  name: "relu61"
  type: "ReLU"
  bottom: "conv61"
  top: "conv61"
}
layer {
  name: "conv62"
  type: "Convolution"
  bottom: "conv61"
  top: "conv62"
  param {
    lr_mult: 1
    decay_mult: 1
  }
  param {
    lr_mult: 2
    decay_mult: 0
  }
  convolution_param {
    num_output: 64
    pad: 1
    stride: 1
    weight_filler {
      type: "xavier"
    }
    bias_filler {
      type: "constant"
    }
    kernel_h: 3
    kernel_w: 3
  }
}
layer {
  name: "relu62"
  type: "ReLU"
  bottom: "conv62"
  top: "conv62"
}
layer {
  name: "pool5"
  type: "Pooling"
  bottom: "conv62"
  top: "pool5"
  pooling_param {
    pool: MAX
    kernel_size: 2
    stride: 2
  }
}
layer {
  name: "conv71"
  type: "Convolution"
  bottom: "pool5"
  top: "conv71"
  param {
    lr_mult: 1
    decay_mult: 1
  }
  param {
    lr_mult: 2
    decay_mult: 0
  }
  convolution_param {
    num_output: 96
    pad: 1
    stride: 1
    weight_filler {
      type: "xavier"
    }
    bias_filler {
      type: "constant"
    }
    kernel_h: 3
    kernel_w: 3
  }
}
layer {
  name: "relu71"
  type: "ReLU"
  bottom: "conv71"
  top: "conv71"
}
layer {
  name: "conv72"
  type: "Convolution"
  bottom: "conv71"
  top: "conv72"
  param {
    lr_mult: 1
    decay_mult: 1
  }
  param {
    lr_mult: 2
    decay_mult: 0
  }
  convolution_param {
    num_output: 96
    pad: 1
    stride: 1
    weight_filler {
      type: "xavier"
    }
    bias_filler {
      type: "constant"
    }
    kernel_h: 3
    kernel_w: 3
  }
}
layer {
  name: "relu72"
  type: "ReLU"
  bottom: "conv72"
  top: "conv72"
}
layer {
  name: "pool6"
  type: "Pooling"
  bottom: "conv72"
  top: "pool6"
  pooling_param {
    pool: MAX
    kernel_size: 2
    stride: 2
  }
}
layer {
  name: "conv81"
  type: "Convolution"
  bottom: "pool6"
  top: "conv81"
  param {
    lr_mult: 1
    decay_mult: 1
  }
  param {
    lr_mult: 2
    decay_mult: 0
  }
  convolution_param {
    num_output: 128
    pad: 1
    stride: 1
    weight_filler {
      type: "xavier"
    }
    bias_filler {
      type: "constant"
    }
    kernel_h: 3
    kernel_w: 3
  }
}
layer {
  name: "relu81"
  type: "ReLU"
  bottom: "conv81"
  top: "conv81"
}
layer {
  name: "conv82"
  type: "Convolution"
  bottom: "conv81"
  top: "conv82"
  param {
    lr_mult: 1
    decay_mult: 1
  }
  param {
    lr_mult: 2
    decay_mult: 0
  }
  convolution_param {
    num_output: 128
    pad: 1
    stride: 1
    weight_filler {
      type: "xavier"
    }
    bias_filler {
      type: "constant"
    }
    kernel_h: 3
    kernel_w: 3
  }
}
layer {
  name: "relu82"
  type: "ReLU"
  bottom: "conv82"
  top: "conv82"
}
layer {
  name: "pool7"
  type: "Pooling"
  bottom: "conv82"
  top: "pool7"
  pooling_param {
    pool: AVE
    kernel_size: 2
    stride: 2
  }
}
layer {
  name: "drop0"
  type: "Dropout"
  bottom: "pool7"
  top: "pool7"
  dropout_param {
    dropout_ratio: 0.4
  }
}
layer {
  name: "conv91"
  type: "Convolution"
  bottom: "pool7"
  top: "conv91"
  param {
    lr_mult: 1
    decay_mult: 1
  }
  param {
    lr_mult: 2
    decay_mult: 0
  }
  convolution_param {
    num_output: 3
    stride: 1
    weight_filler {
      type: "xavier"
    }
    bias_filler {
      type: "constant"
    }
    kernel_h: 8
    kernel_w: 8
  }
}
layer {
  name: "accuracy"
  type: "Accuracy"
  bottom: "conv91"
  bottom: "label"
  top: "accuracy"
}
layer {
  name: "loss"
  type: "SoftmaxWithLoss"
  bottom: "conv91"
  bottom: "label"
  top: "loss"
}
I0727 08:59:44.431162 89259 layer_factory.hpp:76] Creating layer data
I0727 08:59:44.431187 89259 net.cpp:106] Creating Layer data
I0727 08:59:44.431200 89259 net.cpp:411] data -> data
I0727 08:59:44.431215 89259 net.cpp:411] data -> label
I0727 08:59:44.431229 89259 image_data_layer.cpp:36] Opening file ../lists/mitosis_val-norm-bin.lst
I0727 08:59:44.454972 89259 image_data_layer.cpp:46] Shuffling data
I0727 08:59:44.455163 89259 image_data_layer.cpp:51] A total of 1810 images.
I0727 08:59:44.505118 89259 image_data_layer.cpp:78] output data size: 10,3,1000,1000
I0727 08:59:45.135635 89259 net.cpp:150] Setting up data
I0727 08:59:45.135685 89259 net.cpp:157] Top shape: 10 3 1000 1000 (30000000)
I0727 08:59:45.135697 89259 net.cpp:157] Top shape: 10 (10)
I0727 08:59:45.135706 89259 net.cpp:165] Memory required for data: 120000040
I0727 08:59:45.135718 89259 layer_factory.hpp:76] Creating layer label_data_1_split
I0727 08:59:45.135740 89259 net.cpp:106] Creating Layer label_data_1_split
I0727 08:59:45.135751 89259 net.cpp:454] label_data_1_split <- label
I0727 08:59:45.135763 89259 net.cpp:411] label_data_1_split -> label_data_1_split_0
I0727 08:59:45.135779 89259 net.cpp:411] label_data_1_split -> label_data_1_split_1
I0727 08:59:45.135891 89259 net.cpp:150] Setting up label_data_1_split
I0727 08:59:45.135906 89259 net.cpp:157] Top shape: 10 (10)
I0727 08:59:45.135915 89259 net.cpp:157] Top shape: 10 (10)
I0727 08:59:45.135924 89259 net.cpp:165] Memory required for data: 120000120
I0727 08:59:45.135963 89259 layer_factory.hpp:76] Creating layer conv1
I0727 08:59:45.135985 89259 net.cpp:106] Creating Layer conv1
I0727 08:59:45.135995 89259 net.cpp:454] conv1 <- data
I0727 08:59:45.136008 89259 net.cpp:411] conv1 -> conv1
I0727 08:59:45.294571 89259 net.cpp:150] Setting up conv1
I0727 08:59:45.294618 89259 net.cpp:157] Top shape: 10 16 997 997 (159041440)
I0727 08:59:45.294641 89259 net.cpp:165] Memory required for data: 756165880
I0727 08:59:45.294662 89259 layer_factory.hpp:76] Creating layer nonlin1
I0727 08:59:45.294679 89259 net.cpp:106] Creating Layer nonlin1
I0727 08:59:45.294697 89259 net.cpp:454] nonlin1 <- conv1
I0727 08:59:45.294708 89259 net.cpp:397] nonlin1 -> conv1 (in-place)
I0727 08:59:45.294939 89259 net.cpp:150] Setting up nonlin1
I0727 08:59:45.294956 89259 net.cpp:157] Top shape: 10 16 997 997 (159041440)
I0727 08:59:45.294966 89259 net.cpp:165] Memory required for data: 1392331640
I0727 08:59:45.294975 89259 layer_factory.hpp:76] Creating layer pool1
I0727 08:59:45.294991 89259 net.cpp:106] Creating Layer pool1
I0727 08:59:45.295001 89259 net.cpp:454] pool1 <- conv1
I0727 08:59:45.295017 89259 net.cpp:411] pool1 -> pool1
I0727 08:59:45.296742 89259 net.cpp:150] Setting up pool1
I0727 08:59:45.296763 89259 net.cpp:157] Top shape: 10 16 499 499 (39840160)
I0727 08:59:45.296773 89259 net.cpp:165] Memory required for data: 1551692280
I0727 08:59:45.296782 89259 layer_factory.hpp:76] Creating layer conv2
I0727 08:59:45.296802 89259 net.cpp:106] Creating Layer conv2
I0727 08:59:45.296811 89259 net.cpp:454] conv2 <- pool1
I0727 08:59:45.296824 89259 net.cpp:411] conv2 -> conv2
I0727 08:59:45.304646 89259 net.cpp:150] Setting up conv2
I0727 08:59:45.304680 89259 net.cpp:157] Top shape: 10 16 497 497 (39521440)
I0727 08:59:45.304690 89259 net.cpp:165] Memory required for data: 1709778040
I0727 08:59:45.304707 89259 layer_factory.hpp:76] Creating layer nonlin2
I0727 08:59:45.304720 89259 net.cpp:106] Creating Layer nonlin2
I0727 08:59:45.304729 89259 net.cpp:454] nonlin2 <- conv2
I0727 08:59:45.304743 89259 net.cpp:397] nonlin2 -> conv2 (in-place)
I0727 08:59:45.306108 89259 net.cpp:150] Setting up nonlin2
I0727 08:59:45.306128 89259 net.cpp:157] Top shape: 10 16 497 497 (39521440)
I0727 08:59:45.306135 89259 net.cpp:165] Memory required for data: 1867863800
I0727 08:59:45.306144 89259 layer_factory.hpp:76] Creating layer pool2
I0727 08:59:45.306159 89259 net.cpp:106] Creating Layer pool2
I0727 08:59:45.306169 89259 net.cpp:454] pool2 <- conv2
I0727 08:59:45.306179 89259 net.cpp:411] pool2 -> pool2
I0727 08:59:45.308508 89259 net.cpp:150] Setting up pool2
I0727 08:59:45.308531 89259 net.cpp:157] Top shape: 10 16 249 249 (9920160)
I0727 08:59:45.308538 89259 net.cpp:165] Memory required for data: 1907544440
I0727 08:59:45.308547 89259 layer_factory.hpp:76] Creating layer conv3
I0727 08:59:45.308568 89259 net.cpp:106] Creating Layer conv3
I0727 08:59:45.308578 89259 net.cpp:454] conv3 <- pool2
I0727 08:59:45.308588 89259 net.cpp:411] conv3 -> conv3
I0727 08:59:45.315706 89259 net.cpp:150] Setting up conv3
I0727 08:59:45.315735 89259 net.cpp:157] Top shape: 10 16 247 247 (9761440)
I0727 08:59:45.315744 89259 net.cpp:165] Memory required for data: 1946590200
I0727 08:59:45.315760 89259 layer_factory.hpp:76] Creating layer nonlin3
I0727 08:59:45.315775 89259 net.cpp:106] Creating Layer nonlin3
I0727 08:59:45.315783 89259 net.cpp:454] nonlin3 <- conv3
I0727 08:59:45.315793 89259 net.cpp:397] nonlin3 -> conv3 (in-place)
I0727 08:59:45.317909 89259 net.cpp:150] Setting up nonlin3
I0727 08:59:45.317944 89259 net.cpp:157] Top shape: 10 16 247 247 (9761440)
I0727 08:59:45.317952 89259 net.cpp:165] Memory required for data: 1985635960
I0727 08:59:45.317963 89259 layer_factory.hpp:76] Creating layer pool3
I0727 08:59:45.317980 89259 net.cpp:106] Creating Layer pool3
I0727 08:59:45.317989 89259 net.cpp:454] pool3 <- conv3
I0727 08:59:45.318001 89259 net.cpp:411] pool3 -> pool3
I0727 08:59:45.320336 89259 net.cpp:150] Setting up pool3
I0727 08:59:45.320375 89259 net.cpp:157] Top shape: 10 16 124 124 (2460160)
I0727 08:59:45.320425 89259 net.cpp:165] Memory required for data: 1995476600
I0727 08:59:45.320436 89259 layer_factory.hpp:76] Creating layer conv4
I0727 08:59:45.320456 89259 net.cpp:106] Creating Layer conv4
I0727 08:59:45.320467 89259 net.cpp:454] conv4 <- pool3
I0727 08:59:45.320482 89259 net.cpp:411] conv4 -> conv4
I0727 08:59:45.383158 89259 net.cpp:150] Setting up conv4
I0727 08:59:45.383203 89259 net.cpp:157] Top shape: 10 16 122 122 (2381440)
I0727 08:59:45.383213 89259 net.cpp:165] Memory required for data: 2005002360
I0727 08:59:45.383229 89259 layer_factory.hpp:76] Creating layer nonlin4
I0727 08:59:45.383244 89259 net.cpp:106] Creating Layer nonlin4
I0727 08:59:45.383255 89259 net.cpp:454] nonlin4 <- conv4
I0727 08:59:45.383268 89259 net.cpp:397] nonlin4 -> conv4 (in-place)
I0727 08:59:45.383767 89259 net.cpp:150] Setting up nonlin4
I0727 08:59:45.383788 89259 net.cpp:157] Top shape: 10 16 122 122 (2381440)
I0727 08:59:45.383810 89259 net.cpp:165] Memory required for data: 2014528120
I0727 08:59:45.383819 89259 layer_factory.hpp:76] Creating layer pool4
I0727 08:59:45.383836 89259 net.cpp:106] Creating Layer pool4
I0727 08:59:45.383846 89259 net.cpp:454] pool4 <- conv4
I0727 08:59:45.383855 89259 net.cpp:411] pool4 -> pool4
I0727 08:59:45.385102 89259 net.cpp:150] Setting up pool4
I0727 08:59:45.385121 89259 net.cpp:157] Top shape: 10 16 61 61 (595360)
I0727 08:59:45.385129 89259 net.cpp:165] Memory required for data: 2016909560
I0727 08:59:45.385139 89259 layer_factory.hpp:76] Creating layer ip1_c
I0727 08:59:45.385152 89259 net.cpp:106] Creating Layer ip1_c
I0727 08:59:45.385161 89259 net.cpp:454] ip1_c <- pool4
I0727 08:59:45.385174 89259 net.cpp:411] ip1_c -> ip1
I0727 08:59:45.392417 89259 cudnn_conv_layer.cpp:194] Reallocating workspace storage: 768
I0727 08:59:45.392457 89259 net.cpp:150] Setting up ip1_c
I0727 08:59:45.392477 89259 net.cpp:157] Top shape: 10 200 60 60 (7200000)
I0727 08:59:45.392485 89259 net.cpp:165] Memory required for data: 2045709560
I0727 08:59:45.392503 89259 layer_factory.hpp:76] Creating layer nonlin_ip1
I0727 08:59:45.392518 89259 net.cpp:106] Creating Layer nonlin_ip1
I0727 08:59:45.392532 89259 net.cpp:454] nonlin_ip1 <- ip1
I0727 08:59:45.392542 89259 net.cpp:397] nonlin_ip1 -> ip1 (in-place)
I0727 08:59:45.394731 89259 net.cpp:150] Setting up nonlin_ip1
I0727 08:59:45.394752 89259 net.cpp:157] Top shape: 10 200 60 60 (7200000)
I0727 08:59:45.394759 89259 net.cpp:165] Memory required for data: 2074509560
I0727 08:59:45.394769 89259 layer_factory.hpp:76] Creating layer conv61
I0727 08:59:45.394789 89259 net.cpp:106] Creating Layer conv61
I0727 08:59:45.394810 89259 net.cpp:454] conv61 <- ip1
I0727 08:59:45.394821 89259 net.cpp:411] conv61 -> conv61
I0727 08:59:45.402115 89259 cudnn_conv_layer.cpp:194] Reallocating workspace storage: 21600
I0727 08:59:45.402168 89259 net.cpp:150] Setting up conv61
I0727 08:59:45.402181 89259 net.cpp:157] Top shape: 10 64 60 60 (2304000)
I0727 08:59:45.402190 89259 net.cpp:165] Memory required for data: 2083725560
I0727 08:59:45.402204 89259 layer_factory.hpp:76] Creating layer relu61
I0727 08:59:45.402215 89259 net.cpp:106] Creating Layer relu61
I0727 08:59:45.402225 89259 net.cpp:454] relu61 <- conv61
I0727 08:59:45.402237 89259 net.cpp:397] relu61 -> conv61 (in-place)
I0727 08:59:45.404414 89259 net.cpp:150] Setting up relu61
I0727 08:59:45.404435 89259 net.cpp:157] Top shape: 10 64 60 60 (2304000)
I0727 08:59:45.404444 89259 net.cpp:165] Memory required for data: 2092941560
I0727 08:59:45.404453 89259 layer_factory.hpp:76] Creating layer conv62
I0727 08:59:45.404470 89259 net.cpp:106] Creating Layer conv62
I0727 08:59:45.404479 89259 net.cpp:454] conv62 <- conv61
I0727 08:59:45.404491 89259 net.cpp:411] conv62 -> conv62
I0727 08:59:45.411768 89259 net.cpp:150] Setting up conv62
I0727 08:59:45.411799 89259 net.cpp:157] Top shape: 10 64 60 60 (2304000)
I0727 08:59:45.411808 89259 net.cpp:165] Memory required for data: 2102157560
I0727 08:59:45.411821 89259 layer_factory.hpp:76] Creating layer relu62
I0727 08:59:45.411862 89259 net.cpp:106] Creating Layer relu62
I0727 08:59:45.411873 89259 net.cpp:454] relu62 <- conv62
I0727 08:59:45.411885 89259 net.cpp:397] relu62 -> conv62 (in-place)
I0727 08:59:45.414049 89259 net.cpp:150] Setting up relu62
I0727 08:59:45.414067 89259 net.cpp:157] Top shape: 10 64 60 60 (2304000)
I0727 08:59:45.414075 89259 net.cpp:165] Memory required for data: 2111373560
I0727 08:59:45.414083 89259 layer_factory.hpp:76] Creating layer pool5
I0727 08:59:45.414094 89259 net.cpp:106] Creating Layer pool5
I0727 08:59:45.414103 89259 net.cpp:454] pool5 <- conv62
I0727 08:59:45.414115 89259 net.cpp:411] pool5 -> pool5
I0727 08:59:45.416514 89259 net.cpp:150] Setting up pool5
I0727 08:59:45.416535 89259 net.cpp:157] Top shape: 10 64 30 30 (576000)
I0727 08:59:45.416544 89259 net.cpp:165] Memory required for data: 2113677560
I0727 08:59:45.416553 89259 layer_factory.hpp:76] Creating layer conv71
I0727 08:59:45.416570 89259 net.cpp:106] Creating Layer conv71
I0727 08:59:45.416579 89259 net.cpp:454] conv71 <- pool5
I0727 08:59:45.416594 89259 net.cpp:411] conv71 -> conv71
I0727 08:59:45.423832 89259 cudnn_conv_layer.cpp:194] Reallocating workspace storage: 6912
I0727 08:59:45.423872 89259 net.cpp:150] Setting up conv71
I0727 08:59:45.423890 89259 net.cpp:157] Top shape: 10 96 30 30 (864000)
I0727 08:59:45.423898 89259 net.cpp:165] Memory required for data: 2117133560
I0727 08:59:45.423912 89259 layer_factory.hpp:76] Creating layer relu71
I0727 08:59:45.423923 89259 net.cpp:106] Creating Layer relu71
I0727 08:59:45.423933 89259 net.cpp:454] relu71 <- conv71
I0727 08:59:45.423945 89259 net.cpp:397] relu71 -> conv71 (in-place)
I0727 08:59:45.426321 89259 net.cpp:150] Setting up relu71
I0727 08:59:45.426340 89259 net.cpp:157] Top shape: 10 96 30 30 (864000)
I0727 08:59:45.426349 89259 net.cpp:165] Memory required for data: 2120589560
I0727 08:59:45.426359 89259 layer_factory.hpp:76] Creating layer conv72
I0727 08:59:45.426375 89259 net.cpp:106] Creating Layer conv72
I0727 08:59:45.426384 89259 net.cpp:454] conv72 <- conv71
I0727 08:59:45.426398 89259 net.cpp:411] conv72 -> conv72
I0727 08:59:45.433526 89259 net.cpp:150] Setting up conv72
I0727 08:59:45.433573 89259 net.cpp:157] Top shape: 10 96 30 30 (864000)
I0727 08:59:45.433583 89259 net.cpp:165] Memory required for data: 2124045560
I0727 08:59:45.433606 89259 layer_factory.hpp:76] Creating layer relu72
I0727 08:59:45.433622 89259 net.cpp:106] Creating Layer relu72
I0727 08:59:45.433634 89259 net.cpp:454] relu72 <- conv72
I0727 08:59:45.433645 89259 net.cpp:397] relu72 -> conv72 (in-place)
I0727 08:59:45.435864 89259 net.cpp:150] Setting up relu72
I0727 08:59:45.435909 89259 net.cpp:157] Top shape: 10 96 30 30 (864000)
I0727 08:59:45.435917 89259 net.cpp:165] Memory required for data: 2127501560
I0727 08:59:45.435930 89259 layer_factory.hpp:76] Creating layer pool6
I0727 08:59:45.435950 89259 net.cpp:106] Creating Layer pool6
I0727 08:59:45.435961 89259 net.cpp:454] pool6 <- conv72
I0727 08:59:45.435974 89259 net.cpp:411] pool6 -> pool6
I0727 08:59:45.438357 89259 net.cpp:150] Setting up pool6
I0727 08:59:45.438412 89259 net.cpp:157] Top shape: 10 96 15 15 (216000)
I0727 08:59:45.438422 89259 net.cpp:165] Memory required for data: 2128365560
I0727 08:59:45.438433 89259 layer_factory.hpp:76] Creating layer conv81
I0727 08:59:45.438467 89259 net.cpp:106] Creating Layer conv81
I0727 08:59:45.438477 89259 net.cpp:454] conv81 <- pool6
I0727 08:59:45.438490 89259 net.cpp:411] conv81 -> conv81
I0727 08:59:45.445444 89259 net.cpp:150] Setting up conv81
I0727 08:59:45.445493 89259 net.cpp:157] Top shape: 10 128 15 15 (288000)
I0727 08:59:45.445503 89259 net.cpp:165] Memory required for data: 2129517560
I0727 08:59:45.445519 89259 layer_factory.hpp:76] Creating layer relu81
I0727 08:59:45.445536 89259 net.cpp:106] Creating Layer relu81
I0727 08:59:45.445547 89259 net.cpp:454] relu81 <- conv81
I0727 08:59:45.445560 89259 net.cpp:397] relu81 -> conv81 (in-place)
I0727 08:59:45.467865 89259 net.cpp:150] Setting up relu81
I0727 08:59:45.467903 89259 net.cpp:157] Top shape: 10 128 15 15 (288000)
I0727 08:59:45.467950 89259 net.cpp:165] Memory required for data: 2130669560
I0727 08:59:45.467962 89259 layer_factory.hpp:76] Creating layer conv82
I0727 08:59:45.467984 89259 net.cpp:106] Creating Layer conv82
I0727 08:59:45.467998 89259 net.cpp:454] conv82 <- conv81
I0727 08:59:45.468013 89259 net.cpp:411] conv82 -> conv82
I0727 08:59:45.510713 89259 net.cpp:150] Setting up conv82
I0727 08:59:45.510758 89259 net.cpp:157] Top shape: 10 128 15 15 (288000)
I0727 08:59:45.510767 89259 net.cpp:165] Memory required for data: 2131821560
I0727 08:59:45.510782 89259 layer_factory.hpp:76] Creating layer relu82
I0727 08:59:45.510802 89259 net.cpp:106] Creating Layer relu82
I0727 08:59:45.510813 89259 net.cpp:454] relu82 <- conv82
I0727 08:59:45.510828 89259 net.cpp:397] relu82 -> conv82 (in-place)
I0727 08:59:45.512817 89259 net.cpp:150] Setting up relu82
I0727 08:59:45.512850 89259 net.cpp:157] Top shape: 10 128 15 15 (288000)
I0727 08:59:45.512858 89259 net.cpp:165] Memory required for data: 2132973560
I0727 08:59:45.512867 89259 layer_factory.hpp:76] Creating layer pool7
I0727 08:59:45.512879 89259 net.cpp:106] Creating Layer pool7
I0727 08:59:45.512894 89259 net.cpp:454] pool7 <- conv82
I0727 08:59:45.512909 89259 net.cpp:411] pool7 -> pool7
I0727 08:59:45.515198 89259 net.cpp:150] Setting up pool7
I0727 08:59:45.515228 89259 net.cpp:157] Top shape: 10 128 8 8 (81920)
I0727 08:59:45.515236 89259 net.cpp:165] Memory required for data: 2133301240
I0727 08:59:45.515244 89259 layer_factory.hpp:76] Creating layer drop0
I0727 08:59:45.515256 89259 net.cpp:106] Creating Layer drop0
I0727 08:59:45.515264 89259 net.cpp:454] drop0 <- pool7
I0727 08:59:45.515277 89259 net.cpp:397] drop0 -> pool7 (in-place)
I0727 08:59:45.515319 89259 net.cpp:150] Setting up drop0
I0727 08:59:45.515333 89259 net.cpp:157] Top shape: 10 128 8 8 (81920)
I0727 08:59:45.515341 89259 net.cpp:165] Memory required for data: 2133628920
I0727 08:59:45.515349 89259 layer_factory.hpp:76] Creating layer conv91
I0727 08:59:45.515370 89259 net.cpp:106] Creating Layer conv91
I0727 08:59:45.515380 89259 net.cpp:454] conv91 <- pool7
I0727 08:59:45.515393 89259 net.cpp:411] conv91 -> conv91
I0727 08:59:45.522342 89259 cudnn_conv_layer.cpp:194] Reallocating workspace storage: 98304
I0727 08:59:45.522601 89259 net.cpp:150] Setting up conv91
I0727 08:59:45.522636 89259 net.cpp:157] Top shape: 10 3 1 1 (30)
I0727 08:59:45.522647 89259 net.cpp:165] Memory required for data: 2133629040
I0727 08:59:45.522660 89259 layer_factory.hpp:76] Creating layer conv91_conv91_0_split
I0727 08:59:45.522672 89259 net.cpp:106] Creating Layer conv91_conv91_0_split
I0727 08:59:45.522682 89259 net.cpp:454] conv91_conv91_0_split <- conv91
I0727 08:59:45.522693 89259 net.cpp:411] conv91_conv91_0_split -> conv91_conv91_0_split_0
I0727 08:59:45.522711 89259 net.cpp:411] conv91_conv91_0_split -> conv91_conv91_0_split_1
I0727 08:59:45.522765 89259 net.cpp:150] Setting up conv91_conv91_0_split
I0727 08:59:45.522790 89259 net.cpp:157] Top shape: 10 3 1 1 (30)
I0727 08:59:45.522811 89259 net.cpp:157] Top shape: 10 3 1 1 (30)
I0727 08:59:45.522819 89259 net.cpp:165] Memory required for data: 2133629280
I0727 08:59:45.522828 89259 layer_factory.hpp:76] Creating layer accuracy
I0727 08:59:45.522841 89259 net.cpp:106] Creating Layer accuracy
I0727 08:59:45.522850 89259 net.cpp:454] accuracy <- conv91_conv91_0_split_0
I0727 08:59:45.522866 89259 net.cpp:454] accuracy <- label_data_1_split_0
I0727 08:59:45.522881 89259 net.cpp:411] accuracy -> accuracy
…
