…
I0729 09:55:41.641269 88620 net.cpp:322] The NetState phase (0) differed from the phase (1) specified by a rule in layer data
I0729 09:55:41.641552 88620 net.cpp:49] Initializing net from parameters: 
name: "Result Layer 3 Stack"
state {
  phase: TRAIN
}
layer {
  name: "data"
  type: "ImageData"
  top: "data"
  top: "label"
  include {
    phase: TRAIN
  }
  transform_param {
    mirror: true
    mean_value: 150
    mean_value: 150
    mean_value: 150
  }
  image_data_param {
    source: "../lists/mitosis_train-norm-bin.lst"
    batch_size: 32
    shuffle: true
    new_height: 1000
    new_width: 1000
  }
}
layer {
  name: "conv1"
  type: "Convolution"
  bottom: "data"
  top: "conv1"
  param {
    lr_mult: 0
    decay_mult: 0
  }
  param {
    lr_mult: 0
    decay_mult: 0
  }
  convolution_param {
    num_output: 16
    pad: 0
    kernel_size: 4
    stride: 1
  }
}
layer {
  name: "nonlin1"
  type: "ReLU"
  bottom: "conv1"
  top: "conv1"
}
layer {
  name: "pool1"
  type: "Pooling"
  bottom: "conv1"
  top: "pool1"
  pooling_param {
    pool: MAX
    kernel_size: 2
    stride: 2
  }
}
layer {
  name: "conv2"
  type: "Convolution"
  bottom: "pool1"
  top: "conv2"
  param {
    lr_mult: 0
    decay_mult: 0
  }
  param {
    lr_mult: 0
    decay_mult: 0
  }
  convolution_param {
    num_output: 16
    pad: 0
    kernel_size: 3
    stride: 1
  }
}
layer {
  name: "nonlin2"
  type: "ReLU"
  bottom: "conv2"
  top: "conv2"
}
layer {
  name: "pool2"
  type: "Pooling"
  bottom: "conv2"
  top: "pool2"
  pooling_param {
    pool: MAX
    kernel_size: 2
    stride: 2
  }
}
layer {
  name: "conv3"
  type: "Convolution"
  bottom: "pool2"
  top: "conv3"
  param {
    lr_mult: 0
    decay_mult: 0
  }
  param {
    lr_mult: 0
    decay_mult: 0
  }
  convolution_param {
    num_output: 16
    pad: 0
    kernel_size: 3
    stride: 1
  }
}
layer {
  name: "nonlin3"
  type: "ReLU"
  bottom: "conv3"
  top: "conv3"
}
layer {
  name: "pool3"
  type: "Pooling"
  bottom: "conv3"
  top: "pool3"
  pooling_param {
    pool: MAX
    kernel_size: 2
    stride: 2
  }
}
layer {
  name: "conv4"
  type: "Convolution"
  bottom: "pool3"
  top: "conv4"
  param {
    lr_mult: 0
    decay_mult: 0
  }
  param {
    lr_mult: 0
    decay_mult: 0
  }
  convolution_param {
    num_output: 16
    pad: 0
    kernel_size: 3
    stride: 1
  }
}
layer {
  name: "nonlin4"
  type: "ReLU"
  bottom: "conv4"
  top: "conv4"
}
layer {
  name: "pool4"
  type: "Pooling"
  bottom: "conv4"
  top: "pool4"
  pooling_param {
    pool: MAX
    kernel_size: 2
    stride: 2
  }
}
layer {
  name: "ip1_c"
  type: "Convolution"
  bottom: "pool4"
  top: "ip1"
  convolution_param {
    num_output: 200
    pad: 0
    kernel_size: 2
    stride: 1
  }
}
layer {
  name: "nonlin_ip1"
  type: "ReLU"
  bottom: "ip1"
  top: "ip1"
}
layer {
  name: "conv61"
  type: "Convolution"
  bottom: "ip1"
  top: "conv61"
  param {
    lr_mult: 1
    decay_mult: 1
  }
  param {
    lr_mult: 2
    decay_mult: 0
  }
  convolution_param {
    num_output: 64
    pad: 1
    stride: 1
    weight_filler {
      type: "xavier"
    }
    bias_filler {
      type: "constant"
    }
    kernel_h: 3
    kernel_w: 3
  }
}
layer {
  name: "relu61"
  type: "ReLU"
  bottom: "conv61"
  top: "conv61"
}
layer {
  name: "conv62"
  type: "Convolution"
  bottom: "conv61"
  top: "conv62"
  param {
    lr_mult: 1
    decay_mult: 1
  }
  param {
    lr_mult: 2
    decay_mult: 0
  }
  convolution_param {
    num_output: 64
    pad: 1
    stride: 1
    weight_filler {
      type: "xavier"
    }
    bias_filler {
      type: "constant"
    }
    kernel_h: 3
    kernel_w: 3
  }
}
layer {
  name: "relu62"
  type: "ReLU"
  bottom: "conv62"
  top: "conv62"
}
layer {
  name: "pool5"
  type: "Pooling"
  bottom: "conv62"
  top: "pool5"
  pooling_param {
    pool: MAX
    kernel_size: 2
    stride: 2
  }
}
layer {
  name: "conv71"
  type: "Convolution"
  bottom: "pool5"
  top: "conv71"
  param {
    lr_mult: 1
    decay_mult: 1
  }
  param {
    lr_mult: 2
    decay_mult: 0
  }
  convolution_param {
    num_output: 96
    pad: 1
    stride: 1
    weight_filler {
      type: "xavier"
    }
    bias_filler {
      type: "constant"
    }
    kernel_h: 3
    kernel_w: 3
  }
}
layer {
  name: "relu71"
  type: "ReLU"
  bottom: "conv71"
  top: "conv71"
}
layer {
  name: "conv72"
  type: "Convolution"
  bottom: "conv71"
  top: "conv72"
  param {
    lr_mult: 1
    decay_mult: 1
  }
  param {
    lr_mult: 2
    decay_mult: 0
  }
  convolution_param {
    num_output: 96
    pad: 1
    stride: 1
    weight_filler {
      type: "xavier"
    }
    bias_filler {
      type: "constant"
    }
    kernel_h: 3
    kernel_w: 3
  }
}
layer {
  name: "relu72"
  type: "ReLU"
  bottom: "conv72"
  top: "conv72"
}
layer {
  name: "pool6"
  type: "Pooling"
  bottom: "conv72"
  top: "pool6"
  pooling_param {
    pool: MAX
    kernel_size: 2
    stride: 2
  }
}
layer {
  name: "conv81"
  type: "Convolution"
  bottom: "pool6"
  top: "conv81"
  param {
    lr_mult: 1
    decay_mult: 1
  }
  param {
    lr_mult: 2
    decay_mult: 0
  }
  convolution_param {
    num_output: 128
    pad: 1
    stride: 1
    weight_filler {
      type: "xavier"
    }
    bias_filler {
      type: "constant"
    }
    kernel_h: 3
    kernel_w: 3
  }
}
layer {
  name: "relu81"
  type: "ReLU"
  bottom: "conv81"
  top: "conv81"
}
layer {
  name: "conv82"
  type: "Convolution"
  bottom: "conv81"
  top: "conv82"
  param {
    lr_mult: 1
    decay_mult: 1
  }
  param {
    lr_mult: 2
    decay_mult: 0
  }
  convolution_param {
    num_output: 128
    pad: 1
    stride: 1
    weight_filler {
      type: "xavier"
    }
    bias_filler {
      type: "constant"
    }
    kernel_h: 3
    kernel_w: 3
  }
}
layer {
  name: "relu82"
  type: "ReLU"
  bottom: "conv82"
  top: "conv82"
}
layer {
  name: "pool7"
  type: "Pooling"
  bottom: "conv82"
  top: "pool7"
  pooling_param {
    pool: AVE
    kernel_size: 2
    stride: 2
  }
}
layer {
  name: "drop0"
  type: "Dropout"
  bottom: "pool7"
  top: "pool7"
  dropout_param {
    dropout_ratio: 0.4
  }
}
layer {
  name: "conv91"
  type: "Convolution"
  bottom: "pool7"
  top: "conv91"
  param {
    lr_mult: 1
    decay_mult: 1
  }
  param {
    lr_mult: 2
    decay_mult: 0
  }
  convolution_param {
    num_output: 3
    stride: 1
    weight_filler {
      type: "xavier"
    }
    bias_filler {
      type: "constant"
    }
    kernel_h: 8
    kernel_w: 8
  }
}
layer {
  name: "accuracy"
  type: "Accuracy"
  bottom: "conv91"
  bottom: "label"
  top: "accuracy"
}
layer {
  name: "loss"
  type: "SoftmaxWithLoss"
  bottom: "conv91"
  bottom: "label"
  top: "loss"
}
I0729 09:55:41.643205 88620 layer_factory.hpp:76] Creating layer data
I0729 09:55:41.643275 88620 net.cpp:106] Creating Layer data
I0729 09:55:41.643291 88620 net.cpp:411] data -> data
I0729 09:55:41.643352 88620 net.cpp:411] data -> label
I0729 09:55:41.643836 88620 image_data_layer.cpp:36] Opening file ../lists/mitosis_train-norm-bin.lst
I0729 09:55:41.652730 88620 image_data_layer.cpp:46] Shuffling data
I0729 09:55:41.653892 88620 image_data_layer.cpp:51] A total of 16287 images.
I0729 09:55:42.451079 88620 image_data_layer.cpp:78] output data size: 32,3,1000,1000
I0729 09:55:43.566838 88620 net.cpp:150] Setting up data
I0729 09:55:43.566942 88620 net.cpp:157] Top shape: 32 3 1000 1000 (96000000)
I0729 09:55:43.566951 88620 net.cpp:157] Top shape: 32 (32)
I0729 09:55:43.566958 88620 net.cpp:165] Memory required for data: 384000128
I0729 09:55:43.566989 88620 layer_factory.hpp:76] Creating layer label_data_1_split
I0729 09:55:43.567037 88620 net.cpp:106] Creating Layer label_data_1_split
I0729 09:55:43.567046 88620 net.cpp:454] label_data_1_split <- label
I0729 09:55:43.567129 88620 net.cpp:411] label_data_1_split -> label_data_1_split_0
I0729 09:55:43.567143 88620 net.cpp:411] label_data_1_split -> label_data_1_split_1
I0729 09:55:43.567548 88620 net.cpp:150] Setting up label_data_1_split
I0729 09:55:43.567558 88620 net.cpp:157] Top shape: 32 (32)
I0729 09:55:43.567562 88620 net.cpp:157] Top shape: 32 (32)
I0729 09:55:43.567566 88620 net.cpp:165] Memory required for data: 384000384
I0729 09:55:43.567571 88620 layer_factory.hpp:76] Creating layer conv1
I0729 09:55:43.567596 88620 net.cpp:106] Creating Layer conv1
I0729 09:55:43.567601 88620 net.cpp:454] conv1 <- data
I0729 09:55:43.567615 88620 net.cpp:411] conv1 -> conv1
I0729 09:55:44.060212 88620 net.cpp:150] Setting up conv1
I0729 09:55:44.060268 88620 net.cpp:157] Top shape: 32 16 997 997 (508932608)
I0729 09:55:44.060278 88620 net.cpp:165] Memory required for data: 2419730816
I0729 09:55:44.060310 88620 layer_factory.hpp:76] Creating layer nonlin1
I0729 09:55:44.060333 88620 net.cpp:106] Creating Layer nonlin1
I0729 09:55:44.060346 88620 net.cpp:454] nonlin1 <- conv1
I0729 09:55:44.060359 88620 net.cpp:397] nonlin1 -> conv1 (in-place)
I0729 09:55:44.060536 88620 net.cpp:150] Setting up nonlin1
I0729 09:55:44.060559 88620 net.cpp:157] Top shape: 32 16 997 997 (508932608)
I0729 09:55:44.060566 88620 net.cpp:165] Memory required for data: 4455461248
I0729 09:55:44.060576 88620 layer_factory.hpp:76] Creating layer pool1
I0729 09:55:44.060593 88620 net.cpp:106] Creating Layer pool1
I0729 09:55:44.060603 88620 net.cpp:454] pool1 <- conv1
I0729 09:55:44.060614 88620 net.cpp:411] pool1 -> pool1
I0729 09:55:44.061108 88620 net.cpp:150] Setting up pool1
I0729 09:55:44.061131 88620 net.cpp:157] Top shape: 32 16 499 499 (127488512)
I0729 09:55:44.061141 88620 net.cpp:165] Memory required for data: 4965415296
I0729 09:55:44.061151 88620 layer_factory.hpp:76] Creating layer conv2
I0729 09:55:44.061166 88620 net.cpp:106] Creating Layer conv2
I0729 09:55:44.061175 88620 net.cpp:454] conv2 <- pool1
I0729 09:55:44.061187 88620 net.cpp:411] conv2 -> conv2
I0729 09:55:44.063922 88620 net.cpp:150] Setting up conv2
I0729 09:55:44.063948 88620 net.cpp:157] Top shape: 32 16 497 497 (126468608)
I0729 09:55:44.063958 88620 net.cpp:165] Memory required for data: 5471289728
I0729 09:55:44.063978 88620 layer_factory.hpp:76] Creating layer nonlin2
I0729 09:55:44.063992 88620 net.cpp:106] Creating Layer nonlin2
I0729 09:55:44.064002 88620 net.cpp:454] nonlin2 <- conv2
I0729 09:55:44.064013 88620 net.cpp:397] nonlin2 -> conv2 (in-place)
I0729 09:55:44.064200 88620 net.cpp:150] Setting up nonlin2
I0729 09:55:44.064219 88620 net.cpp:157] Top shape: 32 16 497 497 (126468608)
I0729 09:55:44.064227 88620 net.cpp:165] Memory required for data: 5977164160
I0729 09:55:44.064236 88620 layer_factory.hpp:76] Creating layer pool2
I0729 09:55:44.064254 88620 net.cpp:106] Creating Layer pool2
I0729 09:55:44.064263 88620 net.cpp:454] pool2 <- conv2
I0729 09:55:44.064276 88620 net.cpp:411] pool2 -> pool2
I0729 09:55:44.064749 88620 net.cpp:150] Setting up pool2
I0729 09:55:44.064770 88620 net.cpp:157] Top shape: 32 16 249 249 (31744512)
I0729 09:55:44.064779 88620 net.cpp:165] Memory required for data: 6104142208
I0729 09:55:44.064787 88620 layer_factory.hpp:76] Creating layer conv3
I0729 09:55:44.064805 88620 net.cpp:106] Creating Layer conv3
I0729 09:55:44.064815 88620 net.cpp:454] conv3 <- pool2
I0729 09:55:44.064826 88620 net.cpp:411] conv3 -> conv3
I0729 09:55:44.066762 88620 net.cpp:150] Setting up conv3
I0729 09:55:44.066787 88620 net.cpp:157] Top shape: 32 16 247 247 (31236608)
I0729 09:55:44.066795 88620 net.cpp:165] Memory required for data: 6229088640
I0729 09:55:44.066810 88620 layer_factory.hpp:76] Creating layer nonlin3
I0729 09:55:44.066826 88620 net.cpp:106] Creating Layer nonlin3
I0729 09:55:44.066835 88620 net.cpp:454] nonlin3 <- conv3
I0729 09:55:44.066845 88620 net.cpp:397] nonlin3 -> conv3 (in-place)
I0729 09:55:44.067029 88620 net.cpp:150] Setting up nonlin3
I0729 09:55:44.067047 88620 net.cpp:157] Top shape: 32 16 247 247 (31236608)
I0729 09:55:44.067096 88620 net.cpp:165] Memory required for data: 6354035072
I0729 09:55:44.067106 88620 layer_factory.hpp:76] Creating layer pool3
I0729 09:55:44.067117 88620 net.cpp:106] Creating Layer pool3
I0729 09:55:44.067126 88620 net.cpp:454] pool3 <- conv3
I0729 09:55:44.067142 88620 net.cpp:411] pool3 -> pool3
I0729 09:55:44.067602 88620 net.cpp:150] Setting up pool3
I0729 09:55:44.067625 88620 net.cpp:157] Top shape: 32 16 124 124 (7872512)
I0729 09:55:44.067632 88620 net.cpp:165] Memory required for data: 6385525120
I0729 09:55:44.067641 88620 layer_factory.hpp:76] Creating layer conv4
I0729 09:55:44.067658 88620 net.cpp:106] Creating Layer conv4
I0729 09:55:44.067668 88620 net.cpp:454] conv4 <- pool3
I0729 09:55:44.067678 88620 net.cpp:411] conv4 -> conv4
I0729 09:55:44.069264 88620 net.cpp:150] Setting up conv4
I0729 09:55:44.069288 88620 net.cpp:157] Top shape: 32 16 122 122 (7620608)
I0729 09:55:44.069296 88620 net.cpp:165] Memory required for data: 6416007552
I0729 09:55:44.069308 88620 layer_factory.hpp:76] Creating layer nonlin4
I0729 09:55:44.069324 88620 net.cpp:106] Creating Layer nonlin4
I0729 09:55:44.069332 88620 net.cpp:454] nonlin4 <- conv4
I0729 09:55:44.069344 88620 net.cpp:397] nonlin4 -> conv4 (in-place)
I0729 09:55:44.069762 88620 net.cpp:150] Setting up nonlin4
I0729 09:55:44.069783 88620 net.cpp:157] Top shape: 32 16 122 122 (7620608)
I0729 09:55:44.069792 88620 net.cpp:165] Memory required for data: 6446489984
I0729 09:55:44.069802 88620 layer_factory.hpp:76] Creating layer pool4
I0729 09:55:44.069814 88620 net.cpp:106] Creating Layer pool4
I0729 09:55:44.069823 88620 net.cpp:454] pool4 <- conv4
I0729 09:55:44.069835 88620 net.cpp:411] pool4 -> pool4
I0729 09:55:44.070291 88620 net.cpp:150] Setting up pool4
I0729 09:55:44.070312 88620 net.cpp:157] Top shape: 32 16 61 61 (1905152)
I0729 09:55:44.070319 88620 net.cpp:165] Memory required for data: 6454110592
I0729 09:55:44.070328 88620 layer_factory.hpp:76] Creating layer ip1_c
I0729 09:55:44.070343 88620 net.cpp:106] Creating Layer ip1_c
I0729 09:55:44.070353 88620 net.cpp:454] ip1_c <- pool4
I0729 09:55:44.070364 88620 net.cpp:411] ip1_c -> ip1
I0729 09:55:44.071439 88620 cudnn_conv_layer.cpp:194] Reallocating workspace storage: 768
I0729 09:55:44.071477 88620 net.cpp:150] Setting up ip1_c
I0729 09:55:44.071491 88620 net.cpp:157] Top shape: 32 200 60 60 (23040000)
I0729 09:55:44.071501 88620 net.cpp:165] Memory required for data: 6546270592
I0729 09:55:44.071516 88620 layer_factory.hpp:76] Creating layer nonlin_ip1
I0729 09:55:44.071537 88620 net.cpp:106] Creating Layer nonlin_ip1
I0729 09:55:44.071547 88620 net.cpp:454] nonlin_ip1 <- ip1
I0729 09:55:44.071557 88620 net.cpp:397] nonlin_ip1 -> ip1 (in-place)
I0729 09:55:44.071992 88620 net.cpp:150] Setting up nonlin_ip1
I0729 09:55:44.072013 88620 net.cpp:157] Top shape: 32 200 60 60 (23040000)
I0729 09:55:44.072022 88620 net.cpp:165] Memory required for data: 6638430592
I0729 09:55:44.072031 88620 layer_factory.hpp:76] Creating layer conv61
I0729 09:55:44.072052 88620 net.cpp:106] Creating Layer conv61
I0729 09:55:44.072062 88620 net.cpp:454] conv61 <- ip1
I0729 09:55:44.072075 88620 net.cpp:411] conv61 -> conv61
I0729 09:55:44.075294 88620 cudnn_conv_layer.cpp:194] Reallocating workspace storage: 21600
I0729 09:55:44.075331 88620 net.cpp:150] Setting up conv61
I0729 09:55:44.075345 88620 net.cpp:157] Top shape: 32 64 60 60 (7372800)
I0729 09:55:44.075353 88620 net.cpp:165] Memory required for data: 6667921792
I0729 09:55:44.075368 88620 layer_factory.hpp:76] Creating layer relu61
I0729 09:55:44.075384 88620 net.cpp:106] Creating Layer relu61
I0729 09:55:44.075393 88620 net.cpp:454] relu61 <- conv61
I0729 09:55:44.075404 88620 net.cpp:397] relu61 -> conv61 (in-place)
I0729 09:55:44.075584 88620 net.cpp:150] Setting up relu61
I0729 09:55:44.075603 88620 net.cpp:157] Top shape: 32 64 60 60 (7372800)
I0729 09:55:44.075610 88620 net.cpp:165] Memory required for data: 6697412992
I0729 09:55:44.075619 88620 layer_factory.hpp:76] Creating layer conv62
I0729 09:55:44.075637 88620 net.cpp:106] Creating Layer conv62
I0729 09:55:44.075670 88620 net.cpp:454] conv62 <- conv61
I0729 09:55:44.075685 88620 net.cpp:411] conv62 -> conv62
I0729 09:55:44.078281 88620 net.cpp:150] Setting up conv62
I0729 09:55:44.078308 88620 net.cpp:157] Top shape: 32 64 60 60 (7372800)
I0729 09:55:44.078333 88620 net.cpp:165] Memory required for data: 6726904192
I0729 09:55:44.078347 88620 layer_factory.hpp:76] Creating layer relu62
I0729 09:55:44.078361 88620 net.cpp:106] Creating Layer relu62
I0729 09:55:44.078371 88620 net.cpp:454] relu62 <- conv62
I0729 09:55:44.078395 88620 net.cpp:397] relu62 -> conv62 (in-place)
I0729 09:55:44.079030 88620 net.cpp:150] Setting up relu62
I0729 09:55:44.079053 88620 net.cpp:157] Top shape: 32 64 60 60 (7372800)
I0729 09:55:44.079062 88620 net.cpp:165] Memory required for data: 6756395392
I0729 09:55:44.079071 88620 layer_factory.hpp:76] Creating layer pool5
I0729 09:55:44.079083 88620 net.cpp:106] Creating Layer pool5
I0729 09:55:44.079092 88620 net.cpp:454] pool5 <- conv62
I0729 09:55:44.079105 88620 net.cpp:411] pool5 -> pool5
I0729 09:55:44.079313 88620 net.cpp:150] Setting up pool5
I0729 09:55:44.079332 88620 net.cpp:157] Top shape: 32 64 30 30 (1843200)
I0729 09:55:44.079341 88620 net.cpp:165] Memory required for data: 6763768192
I0729 09:55:44.079351 88620 layer_factory.hpp:76] Creating layer conv71
I0729 09:55:44.079367 88620 net.cpp:106] Creating Layer conv71
I0729 09:55:44.079377 88620 net.cpp:454] conv71 <- pool5
I0729 09:55:44.079391 88620 net.cpp:411] conv71 -> conv71
I0729 09:55:44.081567 88620 cudnn_conv_layer.cpp:194] Reallocating workspace storage: 6912
I0729 09:55:44.082211 88620 net.cpp:150] Setting up conv71
I0729 09:55:44.082231 88620 net.cpp:157] Top shape: 32 96 30 30 (2764800)
I0729 09:55:44.082240 88620 net.cpp:165] Memory required for data: 6774827392
I0729 09:55:44.082253 88620 layer_factory.hpp:76] Creating layer relu71
I0729 09:55:44.082275 88620 net.cpp:106] Creating Layer relu71
I0729 09:55:44.082284 88620 net.cpp:454] relu71 <- conv71
I0729 09:55:44.082301 88620 net.cpp:397] relu71 -> conv71 (in-place)
I0729 09:55:44.082541 88620 net.cpp:150] Setting up relu71
I0729 09:55:44.082559 88620 net.cpp:157] Top shape: 32 96 30 30 (2764800)
I0729 09:55:44.082567 88620 net.cpp:165] Memory required for data: 6785886592
I0729 09:55:44.082576 88620 layer_factory.hpp:76] Creating layer conv72
I0729 09:55:44.082595 88620 net.cpp:106] Creating Layer conv72
I0729 09:55:44.082604 88620 net.cpp:454] conv72 <- conv71
I0729 09:55:44.082615 88620 net.cpp:411] conv72 -> conv72
I0729 09:55:44.085017 88620 cudnn_conv_layer.cpp:194] Reallocating workspace storage: 10368
I0729 09:55:44.085055 88620 net.cpp:150] Setting up conv72
I0729 09:55:44.085072 88620 net.cpp:157] Top shape: 32 96 30 30 (2764800)
I0729 09:55:44.085080 88620 net.cpp:165] Memory required for data: 6796945792
I0729 09:55:44.085098 88620 layer_factory.hpp:76] Creating layer relu72
I0729 09:55:44.085113 88620 net.cpp:106] Creating Layer relu72
I0729 09:55:44.085122 88620 net.cpp:454] relu72 <- conv72
I0729 09:55:44.085137 88620 net.cpp:397] relu72 -> conv72 (in-place)
I0729 09:55:44.085743 88620 net.cpp:150] Setting up relu72
I0729 09:55:44.085765 88620 net.cpp:157] Top shape: 32 96 30 30 (2764800)
I0729 09:55:44.085773 88620 net.cpp:165] Memory required for data: 6808004992
I0729 09:55:44.085784 88620 layer_factory.hpp:76] Creating layer pool6
I0729 09:55:44.085798 88620 net.cpp:106] Creating Layer pool6
I0729 09:55:44.085808 88620 net.cpp:454] pool6 <- conv72
I0729 09:55:44.085819 88620 net.cpp:411] pool6 -> pool6
I0729 09:55:44.086028 88620 net.cpp:150] Setting up pool6
I0729 09:55:44.086050 88620 net.cpp:157] Top shape: 32 96 15 15 (691200)
I0729 09:55:44.086058 88620 net.cpp:165] Memory required for data: 6810769792
I0729 09:55:44.086066 88620 layer_factory.hpp:76] Creating layer conv81
I0729 09:55:44.086081 88620 net.cpp:106] Creating Layer conv81
I0729 09:55:44.086092 88620 net.cpp:454] conv81 <- pool6
I0729 09:55:44.086105 88620 net.cpp:411] conv81 -> conv81
I0729 09:55:44.094235 88620 cudnn_conv_layer.cpp:194] Reallocating workspace storage: 10368
I0729 09:55:44.094354 88620 net.cpp:150] Setting up conv81
I0729 09:55:44.094377 88620 net.cpp:157] Top shape: 32 128 15 15 (921600)
I0729 09:55:44.094390 88620 net.cpp:165] Memory required for data: 6814456192
I0729 09:55:44.094419 88620 layer_factory.hpp:76] Creating layer relu81
I0729 09:55:44.094458 88620 net.cpp:106] Creating Layer relu81
I0729 09:55:44.094473 88620 net.cpp:454] relu81 <- conv81
I0729 09:55:44.094496 88620 net.cpp:397] relu81 -> conv81 (in-place)
I0729 09:55:44.095167 88620 net.cpp:150] Setting up relu81
I0729 09:55:44.095203 88620 net.cpp:157] Top shape: 32 128 15 15 (921600)
I0729 09:55:44.095212 88620 net.cpp:165] Memory required for data: 6818142592
I0729 09:55:44.095222 88620 layer_factory.hpp:76] Creating layer conv82
I0729 09:55:44.095249 88620 net.cpp:106] Creating Layer conv82
I0729 09:55:44.095262 88620 net.cpp:454] conv82 <- conv81
I0729 09:55:44.095278 88620 net.cpp:411] conv82 -> conv82
I0729 09:55:44.097561 88620 cudnn_conv_layer.cpp:194] Reallocating workspace storage: 13824
I0729 09:55:44.097601 88620 net.cpp:150] Setting up conv82
I0729 09:55:44.097615 88620 net.cpp:157] Top shape: 32 128 15 15 (921600)
I0729 09:55:44.097623 88620 net.cpp:165] Memory required for data: 6821828992
I0729 09:55:44.097635 88620 layer_factory.hpp:76] Creating layer relu82
I0729 09:55:44.097651 88620 net.cpp:106] Creating Layer relu82
I0729 09:55:44.097661 88620 net.cpp:454] relu82 <- conv82
I0729 09:55:44.097671 88620 net.cpp:397] relu82 -> conv82 (in-place)
I0729 09:55:44.098278 88620 net.cpp:150] Setting up relu82
I0729 09:55:44.098299 88620 net.cpp:157] Top shape: 32 128 15 15 (921600)
I0729 09:55:44.098307 88620 net.cpp:165] Memory required for data: 6825515392
I0729 09:55:44.098316 88620 layer_factory.hpp:76] Creating layer pool7
I0729 09:55:44.098330 88620 net.cpp:106] Creating Layer pool7
I0729 09:55:44.098340 88620 net.cpp:454] pool7 <- conv82
I0729 09:55:44.098352 88620 net.cpp:411] pool7 -> pool7
I0729 09:55:44.098552 88620 net.cpp:150] Setting up pool7
I0729 09:55:44.098570 88620 net.cpp:157] Top shape: 32 128 8 8 (262144)
I0729 09:55:44.098579 88620 net.cpp:165] Memory required for data: 6826563968
I0729 09:55:44.098587 88620 layer_factory.hpp:76] Creating layer drop0
I0729 09:55:44.098608 88620 net.cpp:106] Creating Layer drop0
I0729 09:55:44.098618 88620 net.cpp:454] drop0 <- pool7
I0729 09:55:44.098626 88620 net.cpp:397] drop0 -> pool7 (in-place)
I0729 09:55:44.098680 88620 net.cpp:150] Setting up drop0
I0729 09:55:44.098695 88620 net.cpp:157] Top shape: 32 128 8 8 (262144)
I0729 09:55:44.098704 88620 net.cpp:165] Memory required for data: 6827612544
I0729 09:55:44.098713 88620 layer_factory.hpp:76] Creating layer conv91
I0729 09:55:44.098734 88620 net.cpp:106] Creating Layer conv91
I0729 09:55:44.098752 88620 net.cpp:454] conv91 <- pool7
I0729 09:55:44.098767 88620 net.cpp:411] conv91 -> conv91
I0729 09:55:44.101161 88620 net.cpp:150] Setting up conv91
I0729 09:55:44.101186 88620 net.cpp:157] Top shape: 32 3 1 1 (96)
I0729 09:55:44.101194 88620 net.cpp:165] Memory required for data: 6827612928
I0729 09:55:44.101207 88620 layer_factory.hpp:76] Creating layer conv91_conv91_0_split
I0729 09:55:44.101225 88620 net.cpp:106] Creating Layer conv91_conv91_0_split
I0729 09:55:44.101238 88620 net.cpp:454] conv91_conv91_0_split <- conv91
I0729 09:55:44.101248 88620 net.cpp:411] conv91_conv91_0_split -> conv91_conv91_0_split_0
I0729 09:55:44.101261 88620 net.cpp:411] conv91_conv91_0_split -> conv91_conv91_0_split_1
I0729 09:55:44.101315 88620 net.cpp:150] Setting up conv91_conv91_0_split
I0729 09:55:44.101330 88620 net.cpp:157] Top shape: 32 3 1 1 (96)
I0729 09:55:44.101339 88620 net.cpp:157] Top shape: 32 3 1 1 (96)
I0729 09:55:44.101363 88620 net.cpp:165] Memory required for data: 6827613696
I0729 09:55:44.101374 88620 layer_factory.hpp:76] Creating layer accuracy
I0729 09:55:44.101394 88620 net.cpp:106] Creating Layer accuracy
I0729 09:55:44.101404 88620 net.cpp:454] accuracy <- conv91_conv91_0_split_0
I0729 09:55:44.101414 88620 net.cpp:454] accuracy <- label_data_1_split_0
I0729 09:55:44.101461 88620 net.cpp:411] accuracy -> accuracy
…
I0729 09:55:44.103956 88620 net.cpp:322] The NetState phase (1) differed from the phase (0) specified by a rule in layer data
I0729 09:55:44.104264 88620 net.cpp:49] Initializing net from parameters: 
name: "Result Layer 3 Stack"
state {
  phase: TEST
}
layer {
  name: "data"
  type: "ImageData"
  top: "data"
  top: "label"
  include {
    phase: TEST
  }
  transform_param {
    mirror: false
    mean_value: 150
    mean_value: 150
    mean_value: 150
  }
  image_data_param {
    source: "../lists/mitosis_val-norm-bin.lst"
    batch_size: 10
    shuffle: true
    new_height: 1000
    new_width: 1000
  }
}
layer {
  name: "conv1"
  type: "Convolution"
  bottom: "data"
  top: "conv1"
  param {
    lr_mult: 0
    decay_mult: 0
  }
  param {
    lr_mult: 0
    decay_mult: 0
  }
  convolution_param {
    num_output: 16
    pad: 0
    kernel_size: 4
    stride: 1
  }
}
layer {
  name: "nonlin1"
  type: "ReLU"
  bottom: "conv1"
  top: "conv1"
}
layer {
  name: "pool1"
  type: "Pooling"
  bottom: "conv1"
  top: "pool1"
  pooling_param {
    pool: MAX
    kernel_size: 2
    stride: 2
  }
}
layer {
  name: "conv2"
  type: "Convolution"
  bottom: "pool1"
  top: "conv2"
  param {
    lr_mult: 0
    decay_mult: 0
  }
  param {
    lr_mult: 0
    decay_mult: 0
  }
  convolution_param {
    num_output: 16
    pad: 0
    kernel_size: 3
    stride: 1
  }
}
layer {
  name: "nonlin2"
  type: "ReLU"
  bottom: "conv2"
  top: "conv2"
}
layer {
  name: "pool2"
  type: "Pooling"
  bottom: "conv2"
  top: "pool2"
  pooling_param {
    pool: MAX
    kernel_size: 2
    stride: 2
  }
}
layer {
  name: "conv3"
  type: "Convolution"
  bottom: "pool2"
  top: "conv3"
  param {
    lr_mult: 0
    decay_mult: 0
  }
  param {
    lr_mult: 0
    decay_mult: 0
  }
  convolution_param {
    num_output: 16
    pad: 0
    kernel_size: 3
    stride: 1
  }
}
layer {
  name: "nonlin3"
  type: "ReLU"
  bottom: "conv3"
  top: "conv3"
}
layer {
  name: "pool3"
  type: "Pooling"
  bottom: "conv3"
  top: "pool3"
  pooling_param {
    pool: MAX
    kernel_size: 2
    stride: 2
  }
}
layer {
  name: "conv4"
  type: "Convolution"
  bottom: "pool3"
  top: "conv4"
  param {
    lr_mult: 0
    decay_mult: 0
  }
  param {
    lr_mult: 0
    decay_mult: 0
  }
  convolution_param {
    num_output: 16
    pad: 0
    kernel_size: 3
    stride: 1
  }
}
layer {
  name: "nonlin4"
  type: "ReLU"
  bottom: "conv4"
  top: "conv4"
}
layer {
  name: "pool4"
  type: "Pooling"
  bottom: "conv4"
  top: "pool4"
  pooling_param {
    pool: MAX
    kernel_size: 2
    stride: 2
  }
}
layer {
  name: "ip1_c"
  type: "Convolution"
  bottom: "pool4"
  top: "ip1"
  convolution_param {
    num_output: 200
    pad: 0
    kernel_size: 2
    stride: 1
  }
}
layer {
  name: "nonlin_ip1"
  type: "ReLU"
  bottom: "ip1"
  top: "ip1"
}
layer {
  name: "conv61"
  type: "Convolution"
  bottom: "ip1"
  top: "conv61"
  param {
    lr_mult: 1
    decay_mult: 1
  }
  param {
    lr_mult: 2
    decay_mult: 0
  }
  convolution_param {
    num_output: 64
    pad: 1
    stride: 1
    weight_filler {
      type: "xavier"
    }
    bias_filler {
      type: "constant"
    }
    kernel_h: 3
    kernel_w: 3
  }
}
layer {
  name: "relu61"
  type: "ReLU"
  bottom: "conv61"
  top: "conv61"
}
layer {
  name: "conv62"
  type: "Convolution"
  bottom: "conv61"
  top: "conv62"
  param {
    lr_mult: 1
    decay_mult: 1
  }
  param {
    lr_mult: 2
    decay_mult: 0
  }
  convolution_param {
    num_output: 64
    pad: 1
    stride: 1
    weight_filler {
      type: "xavier"
    }
    bias_filler {
      type: "constant"
    }
    kernel_h: 3
    kernel_w: 3
  }
}
layer {
  name: "relu62"
  type: "ReLU"
  bottom: "conv62"
  top: "conv62"
}
layer {
  name: "pool5"
  type: "Pooling"
  bottom: "conv62"
  top: "pool5"
  pooling_param {
    pool: MAX
    kernel_size: 2
    stride: 2
  }
}
layer {
  name: "conv71"
  type: "Convolution"
  bottom: "pool5"
  top: "conv71"
  param {
    lr_mult: 1
    decay_mult: 1
  }
  param {
    lr_mult: 2
    decay_mult: 0
  }
  convolution_param {
    num_output: 96
    pad: 1
    stride: 1
    weight_filler {
      type: "xavier"
    }
    bias_filler {
      type: "constant"
    }
    kernel_h: 3
    kernel_w: 3
  }
}
layer {
  name: "relu71"
  type: "ReLU"
  bottom: "conv71"
  top: "conv71"
}
layer {
  name: "conv72"
  type: "Convolution"
  bottom: "conv71"
  top: "conv72"
  param {
    lr_mult: 1
    decay_mult: 1
  }
  param {
    lr_mult: 2
    decay_mult: 0
  }
  convolution_param {
    num_output: 96
    pad: 1
    stride: 1
    weight_filler {
      type: "xavier"
    }
    bias_filler {
      type: "constant"
    }
    kernel_h: 3
    kernel_w: 3
  }
}
layer {
  name: "relu72"
  type: "ReLU"
  bottom: "conv72"
  top: "conv72"
}
layer {
  name: "pool6"
  type: "Pooling"
  bottom: "conv72"
  top: "pool6"
  pooling_param {
    pool: MAX
    kernel_size: 2
    stride: 2
  }
}
layer {
  name: "conv81"
  type: "Convolution"
  bottom: "pool6"
  top: "conv81"
  param {
    lr_mult: 1
    decay_mult: 1
  }
  param {
    lr_mult: 2
    decay_mult: 0
  }
  convolution_param {
    num_output: 128
    pad: 1
    stride: 1
    weight_filler {
      type: "xavier"
    }
    bias_filler {
      type: "constant"
    }
    kernel_h: 3
    kernel_w: 3
  }
}
layer {
  name: "relu81"
  type: "ReLU"
  bottom: "conv81"
  top: "conv81"
}
layer {
  name: "conv82"
  type: "Convolution"
  bottom: "conv81"
  top: "conv82"
  param {
    lr_mult: 1
    decay_mult: 1
  }
  param {
    lr_mult: 2
    decay_mult: 0
  }
  convolution_param {
    num_output: 128
    pad: 1
    stride: 1
    weight_filler {
      type: "xavier"
    }
    bias_filler {
      type: "constant"
    }
    kernel_h: 3
    kernel_w: 3
  }
}
layer {
  name: "relu82"
  type: "ReLU"
  bottom: "conv82"
  top: "conv82"
}
layer {
  name: "pool7"
  type: "Pooling"
  bottom: "conv82"
  top: "pool7"
  pooling_param {
    pool: AVE
    kernel_size: 2
    stride: 2
  }
}
layer {
  name: "drop0"
  type: "Dropout"
  bottom: "pool7"
  top: "pool7"
  dropout_param {
    dropout_ratio: 0.4
  }
}
layer {
  name: "conv91"
  type: "Convolution"
  bottom: "pool7"
  top: "conv91"
  param {
    lr_mult: 1
    decay_mult: 1
  }
  param {
    lr_mult: 2
    decay_mult: 0
  }
  convolution_param {
    num_output: 3
    stride: 1
    weight_filler {
      type: "xavier"
    }
    bias_filler {
      type: "constant"
    }
    kernel_h: 8
    kernel_w: 8
  }
}
layer {
  name: "accuracy"
  type: "Accuracy"
  bottom: "conv91"
  bottom: "label"
  top: "accuracy"
}
layer {
  name: "loss"
  type: "SoftmaxWithLoss"
  bottom: "conv91"
  bottom: "label"
  top: "loss"
}
I0729 09:55:44.106956 88620 layer_factory.hpp:76] Creating layer data
I0729 09:55:44.107020 88620 net.cpp:106] Creating Layer data
I0729 09:55:44.107040 88620 net.cpp:411] data -> data
I0729 09:55:44.107069 88620 net.cpp:411] data -> label
I0729 09:55:44.107098 88620 image_data_layer.cpp:36] Opening file ../lists/mitosis_val-norm-bin.lst
I0729 09:55:44.108470 88620 image_data_layer.cpp:46] Shuffling data
I0729 09:55:44.108657 88620 image_data_layer.cpp:51] A total of 1810 images.
I0729 09:55:44.163894 88620 image_data_layer.cpp:78] output data size: 10,3,1000,1000
I0729 09:55:44.643780 88620 net.cpp:150] Setting up data
I0729 09:55:44.643841 88620 net.cpp:157] Top shape: 10 3 1000 1000 (30000000)
I0729 09:55:44.643853 88620 net.cpp:157] Top shape: 10 (10)
I0729 09:55:44.643863 88620 net.cpp:165] Memory required for data: 120000040
I0729 09:55:44.643877 88620 layer_factory.hpp:76] Creating layer label_data_1_split
I0729 09:55:44.643896 88620 net.cpp:106] Creating Layer label_data_1_split
I0729 09:55:44.643908 88620 net.cpp:454] label_data_1_split <- label
I0729 09:55:44.643920 88620 net.cpp:411] label_data_1_split -> label_data_1_split_0
I0729 09:55:44.643939 88620 net.cpp:411] label_data_1_split -> label_data_1_split_1
I0729 09:55:44.644018 88620 net.cpp:150] Setting up label_data_1_split
I0729 09:55:44.644034 88620 net.cpp:157] Top shape: 10 (10)
I0729 09:55:44.644047 88620 net.cpp:157] Top shape: 10 (10)
I0729 09:55:44.644054 88620 net.cpp:165] Memory required for data: 120000120
I0729 09:55:44.644084 88620 layer_factory.hpp:76] Creating layer conv1
I0729 09:55:44.644103 88620 net.cpp:106] Creating Layer conv1
I0729 09:55:44.644111 88620 net.cpp:454] conv1 <- data
I0729 09:55:44.644124 88620 net.cpp:411] conv1 -> conv1
I0729 09:55:44.648437 88620 net.cpp:150] Setting up conv1
I0729 09:55:44.648490 88620 net.cpp:157] Top shape: 10 16 997 997 (159041440)
I0729 09:55:44.648501 88620 net.cpp:165] Memory required for data: 756165880
I0729 09:55:44.648522 88620 layer_factory.hpp:76] Creating layer nonlin1
I0729 09:55:44.648545 88620 net.cpp:106] Creating Layer nonlin1
I0729 09:55:44.648555 88620 net.cpp:454] nonlin1 <- conv1
I0729 09:55:44.648574 88620 net.cpp:397] nonlin1 -> conv1 (in-place)
I0729 09:55:44.648879 88620 net.cpp:150] Setting up nonlin1
I0729 09:55:44.648900 88620 net.cpp:157] Top shape: 10 16 997 997 (159041440)
I0729 09:55:44.648917 88620 net.cpp:165] Memory required for data: 1392331640
I0729 09:55:44.648931 88620 layer_factory.hpp:76] Creating layer pool1
I0729 09:55:44.648953 88620 net.cpp:106] Creating Layer pool1
I0729 09:55:44.648963 88620 net.cpp:454] pool1 <- conv1
I0729 09:55:44.648973 88620 net.cpp:411] pool1 -> pool1
I0729 09:55:44.649559 88620 net.cpp:150] Setting up pool1
I0729 09:55:44.649583 88620 net.cpp:157] Top shape: 10 16 499 499 (39840160)
I0729 09:55:44.649592 88620 net.cpp:165] Memory required for data: 1551692280
I0729 09:55:44.649603 88620 layer_factory.hpp:76] Creating layer conv2
I0729 09:55:44.649626 88620 net.cpp:106] Creating Layer conv2
I0729 09:55:44.649636 88620 net.cpp:454] conv2 <- pool1
I0729 09:55:44.649646 88620 net.cpp:411] conv2 -> conv2
I0729 09:55:44.652298 88620 net.cpp:150] Setting up conv2
I0729 09:55:44.652328 88620 net.cpp:157] Top shape: 10 16 497 497 (39521440)
I0729 09:55:44.652338 88620 net.cpp:165] Memory required for data: 1709778040
I0729 09:55:44.652357 88620 layer_factory.hpp:76] Creating layer nonlin2
I0729 09:55:44.652379 88620 net.cpp:106] Creating Layer nonlin2
I0729 09:55:44.652393 88620 net.cpp:454] nonlin2 <- conv2
I0729 09:55:44.652412 88620 net.cpp:397] nonlin2 -> conv2 (in-place)
I0729 09:55:44.652642 88620 net.cpp:150] Setting up nonlin2
I0729 09:55:44.652668 88620 net.cpp:157] Top shape: 10 16 497 497 (39521440)
I0729 09:55:44.652678 88620 net.cpp:165] Memory required for data: 1867863800
I0729 09:55:44.652688 88620 layer_factory.hpp:76] Creating layer pool2
I0729 09:55:44.652714 88620 net.cpp:106] Creating Layer pool2
I0729 09:55:44.652727 88620 net.cpp:454] pool2 <- conv2
I0729 09:55:44.652737 88620 net.cpp:411] pool2 -> pool2
I0729 09:55:44.653267 88620 net.cpp:150] Setting up pool2
I0729 09:55:44.653290 88620 net.cpp:157] Top shape: 10 16 249 249 (9920160)
I0729 09:55:44.653303 88620 net.cpp:165] Memory required for data: 1907544440
I0729 09:55:44.653314 88620 layer_factory.hpp:76] Creating layer conv3
I0729 09:55:44.653342 88620 net.cpp:106] Creating Layer conv3
I0729 09:55:44.653355 88620 net.cpp:454] conv3 <- pool2
I0729 09:55:44.653367 88620 net.cpp:411] conv3 -> conv3
I0729 09:55:44.654453 88620 net.cpp:150] Setting up conv3
I0729 09:55:44.654479 88620 net.cpp:157] Top shape: 10 16 247 247 (9761440)
I0729 09:55:44.654486 88620 net.cpp:165] Memory required for data: 1946590200
I0729 09:55:44.654502 88620 layer_factory.hpp:76] Creating layer nonlin3
I0729 09:55:44.654518 88620 net.cpp:106] Creating Layer nonlin3
I0729 09:55:44.654527 88620 net.cpp:454] nonlin3 <- conv3
I0729 09:55:44.654538 88620 net.cpp:397] nonlin3 -> conv3 (in-place)
I0729 09:55:44.655005 88620 net.cpp:150] Setting up nonlin3
I0729 09:55:44.655028 88620 net.cpp:157] Top shape: 10 16 247 247 (9761440)
I0729 09:55:44.655040 88620 net.cpp:165] Memory required for data: 1985635960
I0729 09:55:44.655048 88620 layer_factory.hpp:76] Creating layer pool3
I0729 09:55:44.655063 88620 net.cpp:106] Creating Layer pool3
I0729 09:55:44.655072 88620 net.cpp:454] pool3 <- conv3
I0729 09:55:44.655082 88620 net.cpp:411] pool3 -> pool3
I0729 09:55:44.655314 88620 net.cpp:150] Setting up pool3
I0729 09:55:44.655334 88620 net.cpp:157] Top shape: 10 16 124 124 (2460160)
I0729 09:55:44.655371 88620 net.cpp:165] Memory required for data: 1995476600
I0729 09:55:44.655380 88620 layer_factory.hpp:76] Creating layer conv4
I0729 09:55:44.655397 88620 net.cpp:106] Creating Layer conv4
I0729 09:55:44.655406 88620 net.cpp:454] conv4 <- pool3
I0729 09:55:44.655419 88620 net.cpp:411] conv4 -> conv4
I0729 09:55:44.656642 88620 net.cpp:150] Setting up conv4
I0729 09:55:44.656669 88620 net.cpp:157] Top shape: 10 16 122 122 (2381440)
I0729 09:55:44.656678 88620 net.cpp:165] Memory required for data: 2005002360
I0729 09:55:44.656692 88620 layer_factory.hpp:76] Creating layer nonlin4
I0729 09:55:44.656708 88620 net.cpp:106] Creating Layer nonlin4
I0729 09:55:44.656716 88620 net.cpp:454] nonlin4 <- conv4
I0729 09:55:44.656729 88620 net.cpp:397] nonlin4 -> conv4 (in-place)
I0729 09:55:44.657305 88620 net.cpp:150] Setting up nonlin4
I0729 09:55:44.657328 88620 net.cpp:157] Top shape: 10 16 122 122 (2381440)
I0729 09:55:44.657337 88620 net.cpp:165] Memory required for data: 2014528120
I0729 09:55:44.657347 88620 layer_factory.hpp:76] Creating layer pool4
I0729 09:55:44.657362 88620 net.cpp:106] Creating Layer pool4
I0729 09:55:44.657371 88620 net.cpp:454] pool4 <- conv4
I0729 09:55:44.657382 88620 net.cpp:411] pool4 -> pool4
I0729 09:55:44.657599 88620 net.cpp:150] Setting up pool4
I0729 09:55:44.657621 88620 net.cpp:157] Top shape: 10 16 61 61 (595360)
I0729 09:55:44.657631 88620 net.cpp:165] Memory required for data: 2016909560
I0729 09:55:44.657640 88620 layer_factory.hpp:76] Creating layer ip1_c
I0729 09:55:44.657655 88620 net.cpp:106] Creating Layer ip1_c
I0729 09:55:44.657663 88620 net.cpp:454] ip1_c <- pool4
I0729 09:55:44.657676 88620 net.cpp:411] ip1_c -> ip1
I0729 09:55:44.658949 88620 cudnn_conv_layer.cpp:194] Reallocating workspace storage: 768
I0729 09:55:44.658987 88620 net.cpp:150] Setting up ip1_c
I0729 09:55:44.659003 88620 net.cpp:157] Top shape: 10 200 60 60 (7200000)
I0729 09:55:44.659011 88620 net.cpp:165] Memory required for data: 2045709560
I0729 09:55:44.659029 88620 layer_factory.hpp:76] Creating layer nonlin_ip1
I0729 09:55:44.659044 88620 net.cpp:106] Creating Layer nonlin_ip1
I0729 09:55:44.659054 88620 net.cpp:454] nonlin_ip1 <- ip1
I0729 09:55:44.659065 88620 net.cpp:397] nonlin_ip1 -> ip1 (in-place)
I0729 09:55:44.659523 88620 net.cpp:150] Setting up nonlin_ip1
I0729 09:55:44.659546 88620 net.cpp:157] Top shape: 10 200 60 60 (7200000)
I0729 09:55:44.659559 88620 net.cpp:165] Memory required for data: 2074509560
I0729 09:55:44.659569 88620 layer_factory.hpp:76] Creating layer conv61
I0729 09:55:44.659595 88620 net.cpp:106] Creating Layer conv61
I0729 09:55:44.659605 88620 net.cpp:454] conv61 <- ip1
I0729 09:55:44.659617 88620 net.cpp:411] conv61 -> conv61
I0729 09:55:44.662519 88620 cudnn_conv_layer.cpp:194] Reallocating workspace storage: 21600
I0729 09:55:44.662577 88620 net.cpp:150] Setting up conv61
I0729 09:55:44.662595 88620 net.cpp:157] Top shape: 10 64 60 60 (2304000)
I0729 09:55:44.662605 88620 net.cpp:165] Memory required for data: 2083725560
I0729 09:55:44.662618 88620 layer_factory.hpp:76] Creating layer relu61
I0729 09:55:44.662668 88620 net.cpp:106] Creating Layer relu61
I0729 09:55:44.662686 88620 net.cpp:454] relu61 <- conv61
I0729 09:55:44.662706 88620 net.cpp:397] relu61 -> conv61 (in-place)
I0729 09:55:44.663223 88620 net.cpp:150] Setting up relu61
I0729 09:55:44.663247 88620 net.cpp:157] Top shape: 10 64 60 60 (2304000)
I0729 09:55:44.663256 88620 net.cpp:165] Memory required for data: 2092941560
I0729 09:55:44.663265 88620 layer_factory.hpp:76] Creating layer conv62
I0729 09:55:44.663283 88620 net.cpp:106] Creating Layer conv62
I0729 09:55:44.663293 88620 net.cpp:454] conv62 <- conv61
I0729 09:55:44.663307 88620 net.cpp:411] conv62 -> conv62
I0729 09:55:44.666120 88620 net.cpp:150] Setting up conv62
I0729 09:55:44.666159 88620 net.cpp:157] Top shape: 10 64 60 60 (2304000)
I0729 09:55:44.666169 88620 net.cpp:165] Memory required for data: 2102157560
I0729 09:55:44.666184 88620 layer_factory.hpp:76] Creating layer relu62
I0729 09:55:44.666240 88620 net.cpp:106] Creating Layer relu62
I0729 09:55:44.666254 88620 net.cpp:454] relu62 <- conv62
I0729 09:55:44.666266 88620 net.cpp:397] relu62 -> conv62 (in-place)
I0729 09:55:44.666472 88620 net.cpp:150] Setting up relu62
I0729 09:55:44.666498 88620 net.cpp:157] Top shape: 10 64 60 60 (2304000)
I0729 09:55:44.666508 88620 net.cpp:165] Memory required for data: 2111373560
I0729 09:55:44.666517 88620 layer_factory.hpp:76] Creating layer pool5
I0729 09:55:44.666534 88620 net.cpp:106] Creating Layer pool5
I0729 09:55:44.666543 88620 net.cpp:454] pool5 <- conv62
I0729 09:55:44.666558 88620 net.cpp:411] pool5 -> pool5
I0729 09:55:44.667120 88620 net.cpp:150] Setting up pool5
I0729 09:55:44.667155 88620 net.cpp:157] Top shape: 10 64 30 30 (576000)
I0729 09:55:44.667170 88620 net.cpp:165] Memory required for data: 2113677560
I0729 09:55:44.667181 88620 layer_factory.hpp:76] Creating layer conv71
I0729 09:55:44.667201 88620 net.cpp:106] Creating Layer conv71
I0729 09:55:44.667212 88620 net.cpp:454] conv71 <- pool5
I0729 09:55:44.667239 88620 net.cpp:411] conv71 -> conv71
I0729 09:55:44.669293 88620 cudnn_conv_layer.cpp:194] Reallocating workspace storage: 6912
I0729 09:55:44.669335 88620 net.cpp:150] Setting up conv71
I0729 09:55:44.669349 88620 net.cpp:157] Top shape: 10 96 30 30 (864000)
I0729 09:55:44.669361 88620 net.cpp:165] Memory required for data: 2117133560
I0729 09:55:44.669373 88620 layer_factory.hpp:76] Creating layer relu71
I0729 09:55:44.669386 88620 net.cpp:106] Creating Layer relu71
I0729 09:55:44.669396 88620 net.cpp:454] relu71 <- conv71
I0729 09:55:44.669409 88620 net.cpp:397] relu71 -> conv71 (in-place)
I0729 09:55:44.669875 88620 net.cpp:150] Setting up relu71
I0729 09:55:44.669899 88620 net.cpp:157] Top shape: 10 96 30 30 (864000)
I0729 09:55:44.669908 88620 net.cpp:165] Memory required for data: 2120589560
I0729 09:55:44.669916 88620 layer_factory.hpp:76] Creating layer conv72
I0729 09:55:44.669934 88620 net.cpp:106] Creating Layer conv72
I0729 09:55:44.669944 88620 net.cpp:454] conv72 <- conv71
I0729 09:55:44.669956 88620 net.cpp:411] conv72 -> conv72
I0729 09:55:44.671933 88620 net.cpp:150] Setting up conv72
I0729 09:55:44.671962 88620 net.cpp:157] Top shape: 10 96 30 30 (864000)
I0729 09:55:44.671969 88620 net.cpp:165] Memory required for data: 2124045560
I0729 09:55:44.671993 88620 layer_factory.hpp:76] Creating layer relu72
I0729 09:55:44.672009 88620 net.cpp:106] Creating Layer relu72
I0729 09:55:44.672019 88620 net.cpp:454] relu72 <- conv72
I0729 09:55:44.672030 88620 net.cpp:397] relu72 -> conv72 (in-place)
I0729 09:55:44.672504 88620 net.cpp:150] Setting up relu72
I0729 09:55:44.672528 88620 net.cpp:157] Top shape: 10 96 30 30 (864000)
I0729 09:55:44.672538 88620 net.cpp:165] Memory required for data: 2127501560
I0729 09:55:44.672546 88620 layer_factory.hpp:76] Creating layer pool6
I0729 09:55:44.672562 88620 net.cpp:106] Creating Layer pool6
I0729 09:55:44.672575 88620 net.cpp:454] pool6 <- conv72
I0729 09:55:44.672586 88620 net.cpp:411] pool6 -> pool6
I0729 09:55:44.672823 88620 net.cpp:150] Setting up pool6
I0729 09:55:44.672843 88620 net.cpp:157] Top shape: 10 96 15 15 (216000)
I0729 09:55:44.672852 88620 net.cpp:165] Memory required for data: 2128365560
I0729 09:55:44.672860 88620 layer_factory.hpp:76] Creating layer conv81
I0729 09:55:44.672885 88620 net.cpp:106] Creating Layer conv81
I0729 09:55:44.672894 88620 net.cpp:454] conv81 <- pool6
I0729 09:55:44.672905 88620 net.cpp:411] conv81 -> conv81
I0729 09:55:44.675818 88620 net.cpp:150] Setting up conv81
I0729 09:55:44.675845 88620 net.cpp:157] Top shape: 10 128 15 15 (288000)
I0729 09:55:44.675858 88620 net.cpp:165] Memory required for data: 2129517560
I0729 09:55:44.675871 88620 layer_factory.hpp:76] Creating layer relu81
I0729 09:55:44.675885 88620 net.cpp:106] Creating Layer relu81
I0729 09:55:44.675895 88620 net.cpp:454] relu81 <- conv81
I0729 09:55:44.675905 88620 net.cpp:397] relu81 -> conv81 (in-place)
I0729 09:55:44.676095 88620 net.cpp:150] Setting up relu81
I0729 09:55:44.676113 88620 net.cpp:157] Top shape: 10 128 15 15 (288000)
I0729 09:55:44.676161 88620 net.cpp:165] Memory required for data: 2130669560
I0729 09:55:44.676170 88620 layer_factory.hpp:76] Creating layer conv82
I0729 09:55:44.676192 88620 net.cpp:106] Creating Layer conv82
I0729 09:55:44.676204 88620 net.cpp:454] conv82 <- conv81
I0729 09:55:44.676218 88620 net.cpp:411] conv82 -> conv82
I0729 09:55:44.678588 88620 net.cpp:150] Setting up conv82
I0729 09:55:44.678616 88620 net.cpp:157] Top shape: 10 128 15 15 (288000)
I0729 09:55:44.678623 88620 net.cpp:165] Memory required for data: 2131821560
I0729 09:55:44.678647 88620 layer_factory.hpp:76] Creating layer relu82
I0729 09:55:44.678664 88620 net.cpp:106] Creating Layer relu82
I0729 09:55:44.678678 88620 net.cpp:454] relu82 <- conv82
I0729 09:55:44.678688 88620 net.cpp:397] relu82 -> conv82 (in-place)
I0729 09:55:44.679143 88620 net.cpp:150] Setting up relu82
I0729 09:55:44.679180 88620 net.cpp:157] Top shape: 10 128 15 15 (288000)
I0729 09:55:44.679190 88620 net.cpp:165] Memory required for data: 2132973560
I0729 09:55:44.679199 88620 layer_factory.hpp:76] Creating layer pool7
I0729 09:55:44.679211 88620 net.cpp:106] Creating Layer pool7
I0729 09:55:44.679220 88620 net.cpp:454] pool7 <- conv82
I0729 09:55:44.679230 88620 net.cpp:411] pool7 -> pool7
I0729 09:55:44.679457 88620 net.cpp:150] Setting up pool7
I0729 09:55:44.679477 88620 net.cpp:157] Top shape: 10 128 8 8 (81920)
I0729 09:55:44.679486 88620 net.cpp:165] Memory required for data: 2133301240
I0729 09:55:44.679497 88620 layer_factory.hpp:76] Creating layer drop0
I0729 09:55:44.679508 88620 net.cpp:106] Creating Layer drop0
I0729 09:55:44.679520 88620 net.cpp:454] drop0 <- pool7
I0729 09:55:44.679533 88620 net.cpp:397] drop0 -> pool7 (in-place)
I0729 09:55:44.679575 88620 net.cpp:150] Setting up drop0
I0729 09:55:44.679587 88620 net.cpp:157] Top shape: 10 128 8 8 (81920)
I0729 09:55:44.679600 88620 net.cpp:165] Memory required for data: 2133628920
I0729 09:55:44.679608 88620 layer_factory.hpp:76] Creating layer conv91
I0729 09:55:44.679630 88620 net.cpp:106] Creating Layer conv91
I0729 09:55:44.679639 88620 net.cpp:454] conv91 <- pool7
I0729 09:55:44.679652 88620 net.cpp:411] conv91 -> conv91
I0729 09:55:44.681171 88620 cudnn_conv_layer.cpp:194] Reallocating workspace storage: 98304
I0729 09:55:44.681553 88620 net.cpp:150] Setting up conv91
I0729 09:55:44.681574 88620 net.cpp:157] Top shape: 10 3 1 1 (30)
I0729 09:55:44.681583 88620 net.cpp:165] Memory required for data: 2133629040
I0729 09:55:44.681599 88620 layer_factory.hpp:76] Creating layer conv91_conv91_0_split
I0729 09:55:44.681613 88620 net.cpp:106] Creating Layer conv91_conv91_0_split
I0729 09:55:44.681623 88620 net.cpp:454] conv91_conv91_0_split <- conv91
I0729 09:55:44.681633 88620 net.cpp:411] conv91_conv91_0_split -> conv91_conv91_0_split_0
I0729 09:55:44.681648 88620 net.cpp:411] conv91_conv91_0_split -> conv91_conv91_0_split_1
I0729 09:55:44.681701 88620 net.cpp:150] Setting up conv91_conv91_0_split
I0729 09:55:44.681721 88620 net.cpp:157] Top shape: 10 3 1 1 (30)
I0729 09:55:44.681731 88620 net.cpp:157] Top shape: 10 3 1 1 (30)
I0729 09:55:44.681742 88620 net.cpp:165] Memory required for data: 2133629280
I0729 09:55:44.681751 88620 layer_factory.hpp:76] Creating layer accuracy
I0729 09:55:44.681764 88620 net.cpp:106] Creating Layer accuracy
I0729 09:55:44.681773 88620 net.cpp:454] accuracy <- conv91_conv91_0_split_0
I0729 09:55:44.681783 88620 net.cpp:454] accuracy <- label_data_1_split_0
I0729 09:55:44.681792 88620 net.cpp:411] accuracy -> accuracy
…
