…
I0630 19:27:35.854086 38212 net.cpp:322] The NetState phase (0) differed from the phase (1) specified by a rule in layer acc/top-1
I0630 19:27:35.856464 38212 net.cpp:49] Initializing net from parameters: 
name: "ResNet-20"
state {
  phase: TRAIN
}
layer {
  name: "data"
  type: "ImageData"
  top: "data"
  top: "label"
  include {
    phase: TRAIN
  }
  transform_param {
    mirror: true
    crop_size: 224
    mean_value: 104
    mean_value: 117
    mean_value: 123
  }
  image_data_param {
    source: "../lists/roi-train.lst"
    batch_size: 8
    shuffle: true
    new_height: 256
    new_width: 256
  }
}
layer {
  name: "conv1"
  type: "Convolution"
  bottom: "data"
  top: "conv1"
  param {
    lr_mult: 1
    decay_mult: 1
  }
  param {
    lr_mult: 2
    decay_mult: 0
  }
  convolution_param {
    num_output: 64
    pad: 0
    kernel_size: 7
    stride: 2
    weight_filler {
      type: "msra"
    }
    bias_filler {
      type: "constant"
      value: 0
    }
  }
}
layer {
  name: "conv1_bn"
  type: "BatchNorm"
  bottom: "conv1"
  top: "conv1_bn"
  param {
    lr_mult: 0
  }
  param {
    lr_mult: 0
  }
  param {
    lr_mult: 0
  }
}
layer {
  name: "conv1_relu"
  type: "ReLU"
  bottom: "conv1_bn"
  top: "conv1_bn"
}
layer {
  name: "pool1"
  type: "Pooling"
  bottom: "conv1_bn"
  top: "pool1"
  pooling_param {
    pool: MAX
    kernel_size: 3
    stride: 2
  }
}
layer {
  name: "conv1_output"
  type: "Convolution"
  bottom: "pool1"
  top: "conv1_output"
  param {
    lr_mult: 1
    decay_mult: 1
  }
  param {
    lr_mult: 2
    decay_mult: 0
  }
  convolution_param {
    num_output: 256
    pad: 0
    kernel_size: 1
    stride: 1
    weight_filler {
      type: "msra"
    }
    bias_filler {
      type: "constant"
      value: 0
    }
  }
}
layer {
  name: "conv2_1_1"
  type: "Convolution"
  bottom: "pool1"
  top: "conv2_1_1"
  param {
    lr_mult: 1
    decay_mult: 1
  }
  param {
    lr_mult: 2
    decay_mult: 0
  }
  convolution_param {
    num_output: 64
    pad: 0
    kernel_size: 1
    stride: 1
    weight_filler {
      type: "msra"
    }
    bias_filler {
      type: "constant"
      value: 0
    }
  }
}
layer {
  name: "conv2_1_1_bn"
  type: "BatchNorm"
  bottom: "conv2_1_1"
  top: "conv2_1_1_bn"
  param {
    lr_mult: 0
  }
  param {
    lr_mult: 0
  }
  param {
    lr_mult: 0
  }
}
layer {
  name: "conv2_1_1_relu"
  type: "ReLU"
  bottom: "conv2_1_1_bn"
  top: "conv2_1_1_bn"
}
layer {
  name: "conv2_1_2"
  type: "Convolution"
  bottom: "conv2_1_1_bn"
  top: "conv2_1_2"
  param {
    lr_mult: 1
    decay_mult: 1
  }
  param {
    lr_mult: 2
    decay_mult: 0
  }
  convolution_param {
    num_output: 64
    pad: 1
    kernel_size: 3
    stride: 1
    weight_filler {
      type: "msra"
    }
    bias_filler {
      type: "constant"
      value: 0
    }
  }
}
layer {
  name: "conv2_1_2_bn"
  type: "BatchNorm"
  bottom: "conv2_1_2"
  top: "conv2_1_2_bn"
  param {
    lr_mult: 0
  }
  param {
    lr_mult: 0
  }
  param {
    lr_mult: 0
  }
}
layer {
  name: "conv2_1_2_relu"
  type: "ReLU"
  bottom: "conv2_1_2_bn"
  top: "conv2_1_2_bn"
}
layer {
  name: "conv2_1_3"
  type: "Convolution"
  bottom: "conv2_1_2_bn"
  top: "conv2_1_3"
  param {
    lr_mult: 1
    decay_mult: 1
  }
  param {
    lr_mult: 2
    decay_mult: 0
  }
  convolution_param {
    num_output: 256
    pad: 0
    kernel_size: 1
    stride: 1
    weight_filler {
      type: "msra"
    }
    bias_filler {
      type: "constant"
      value: 0
    }
  }
}
layer {
  name: "conv2_1_sum"
  type: "Eltwise"
  bottom: "conv1_output"
  bottom: "conv2_1_3"
  top: "conv2_1_sum"
  eltwise_param {
    operation: SUM
  }
}
layer {
  name: "conv2_1_sum_bn"
  type: "BatchNorm"
  bottom: "conv2_1_sum"
  top: "conv2_1_sum_bn"
  param {
    lr_mult: 0
  }
  param {
    lr_mult: 0
  }
  param {
    lr_mult: 0
  }
}
layer {
  name: "conv2_1_sum_relu"
  type: "ReLU"
  bottom: "conv2_1_sum_bn"
  top: "conv2_1_sum_bn"
}
layer {
  name: "conv2_2_1"
  type: "Convolution"
  bottom: "conv2_1_sum_bn"
  top: "conv2_2_1"
  param {
    lr_mult: 1
    decay_mult: 1
  }
  param {
    lr_mult: 2
    decay_mult: 0
  }
  convolution_param {
    num_output: 64
    pad: 0
    kernel_size: 1
    stride: 1
    weight_filler {
      type: "msra"
    }
    bias_filler {
      type: "constant"
      value: 0
    }
  }
}
layer {
  name: "conv2_2_1_bn"
  type: "BatchNorm"
  bottom: "conv2_2_1"
  top: "conv2_2_1_bn"
  param {
    lr_mult: 0
  }
  param {
    lr_mult: 0
  }
  param {
    lr_mult: 0
  }
}
layer {
  name: "conv2_2_1_relu"
  type: "ReLU"
  bottom: "conv2_2_1_bn"
  top: "conv2_2_1_bn"
}
layer {
  name: "conv2_2_2"
  type: "Convolution"
  bottom: "conv2_2_1_bn"
  top: "conv2_2_2"
  param {
    lr_mult: 1
    decay_mult: 1
  }
  param {
    lr_mult: 2
    decay_mult: 0
  }
  convolution_param {
    num_output: 64
    pad: 1
    kernel_size: 3
    stride: 1
    weight_filler {
      type: "msra"
    }
    bias_filler {
      type: "constant"
      value: 0
    }
  }
}
layer {
  name: "conv2_2_2_bn"
  type: "BatchNorm"
  bottom: "conv2_2_2"
  top: "conv2_2_2_bn"
  param {
    lr_mult: 0
  }
  param {
    lr_mult: 0
  }
  param {
    lr_mult: 0
  }
}
layer {
  name: "conv2_2_2_relu"
  type: "ReLU"
  bottom: "conv2_2_2_bn"
  top: "conv2_2_2_bn"
}
layer {
  name: "conv2_2_3"
  type: "Convolution"
  bottom: "conv2_2_2_bn"
  top: "conv2_2_3"
  param {
    lr_mult: 1
    decay_mult: 1
  }
  param {
    lr_mult: 2
    decay_mult: 0
  }
  convolution_param {
    num_output: 256
    pad: 0
    kernel_size: 1
    stride: 1
    weight_filler {
      type: "msra"
    }
    bias_filler {
      type: "constant"
      value: 0
    }
  }
}
layer {
  name: "conv2_2_sum"
  type: "Eltwise"
  bottom: "conv2_1_sum_bn"
  bottom: "conv2_2_3"
  top: "conv2_2_sum"
  eltwise_param {
    operation: SUM
  }
}
layer {
  name: "conv2_2_sum_bn"
  type: "BatchNorm"
  bottom: "conv2_2_sum"
  top: "conv2_2_sum_bn"
  param {
    lr_mult: 0
  }
  param {
    lr_mult: 0
  }
  param {
    lr_mult: 0
  }
}
layer {
  name: "conv2_2_sum_relu"
  type: "ReLU"
  bottom: "conv2_2_sum_bn"
  top: "conv2_2_sum_bn"
}
layer {
  name: "conv2_3_1"
  type: "Convolution"
  bottom: "conv2_2_sum_bn"
  top: "conv2_3_1"
  param {
    lr_mult: 1
    decay_mult: 1
  }
  param {
    lr_mult: 2
    decay_mult: 0
  }
  convolution_param {
    num_output: 64
    pad: 0
    kernel_size: 1
    stride: 1
    weight_filler {
      type: "msra"
    }
    bias_filler {
      type: "constant"
      value: 0
    }
  }
}
layer {
  name: "conv2_3_1_bn"
  type: "BatchNorm"
  bottom: "conv2_3_1"
  top: "conv2_3_1_bn"
  param {
    lr_mult: 0
  }
  param {
    lr_mult: 0
  }
  param {
    lr_mult: 0
  }
}
layer {
  name: "conv2_3_1_relu"
  type: "ReLU"
  bottom: "conv2_3_1_bn"
  top: "conv2_3_1_bn"
}
layer {
  name: "conv2_3_2"
  type: "Convolution"
  bottom: "conv2_3_1_bn"
  top: "conv2_3_2"
  param {
    lr_mult: 1
    decay_mult: 1
  }
  param {
    lr_mult: 2
    decay_mult: 0
  }
  convolution_param {
    num_output: 64
    pad: 1
    kernel_size: 3
    stride: 1
    weight_filler {
      type: "msra"
    }
    bias_filler {
      type: "constant"
      value: 0
    }
  }
}
layer {
  name: "conv2_3_2_bn"
  type: "BatchNorm"
  bottom: "conv2_3_2"
  top: "conv2_3_2_bn"
  param {
    lr_mult: 0
  }
  param {
    lr_mult: 0
  }
  param {
    lr_mult: 0
  }
}
layer {
  name: "conv2_3_2_relu"
  type: "ReLU"
  bottom: "conv2_3_2_bn"
  top: "conv2_3_2_bn"
}
layer {
  name: "conv2_3_3"
  type: "Convolution"
  bottom: "conv2_3_2_bn"
  top: "conv2_3_3"
  param {
    lr_mult: 1
    decay_mult: 1
  }
  param {
    lr_mult: 2
    decay_mult: 0
  }
  convolution_param {
    num_output: 256
    pad: 0
    kernel_size: 1
    stride: 1
    weight_filler {
      type: "msra"
    }
    bias_filler {
      type: "constant"
      value: 0
    }
  }
}
layer {
  name: "conv2_3_sum"
  type: "Eltwise"
  bottom: "conv2_2_sum_bn"
  bottom: "conv2_3_3"
  top: "conv2_3_sum"
  eltwise_param {
    operation: SUM
  }
}
layer {
  name: "conv2_3_sum_bn"
  type: "BatchNorm"
  bottom: "conv2_3_sum"
  top: "conv2_3_sum_bn"
  param {
    lr_mult: 0
  }
  param {
    lr_mult: 0
  }
  param {
    lr_mult: 0
  }
}
layer {
  name: "conv2_3_sum_relu"
  type: "ReLU"
  bottom: "conv2_3_sum_bn"
  top: "conv2_3_sum_bn"
}
layer {
  name: "conv2_output"
  type: "Convolution"
  bottom: "conv2_3_sum_bn"
  top: "conv2_output"
  param {
    lr_mult: 1
    decay_mult: 1
  }
  param {
    lr_mult: 2
    decay_mult: 0
  }
  convolution_param {
    num_output: 512
    pad: 0
    kernel_size: 1
    stride: 2
    weight_filler {
      type: "msra"
    }
    bias_filler {
      type: "constant"
      value: 0
    }
  }
}
layer {
  name: "conv3_1_1"
  type: "Convolution"
  bottom: "conv2_3_sum_bn"
  top: "conv3_1_1"
  param {
    lr_mult: 1
    decay_mult: 1
  }
  param {
    lr_mult: 2
    decay_mult: 0
  }
  convolution_param {
    num_output: 128
    pad: 0
    kernel_size: 1
    stride: 2
    weight_filler {
      type: "msra"
    }
    bias_filler {
      type: "constant"
      value: 0
    }
  }
}
layer {
  name: "conv3_1_1_bn"
  type: "BatchNorm"
  bottom: "conv3_1_1"
  top: "conv3_1_1_bn"
  param {
    lr_mult: 0
  }
  param {
    lr_mult: 0
  }
  param {
    lr_mult: 0
  }
}
layer {
  name: "conv3_1_1_relu"
  type: "ReLU"
  bottom: "conv3_1_1_bn"
  top: "conv3_1_1_bn"
}
layer {
  name: "conv3_1_2"
  type: "Convolution"
  bottom: "conv3_1_1_bn"
  top: "conv3_1_2"
  param {
    lr_mult: 1
    decay_mult: 1
  }
  param {
    lr_mult: 2
    decay_mult: 0
  }
  convolution_param {
    num_output: 128
    pad: 1
    kernel_size: 3
    stride: 1
    weight_filler {
      type: "msra"
    }
    bias_filler {
      type: "constant"
      value: 0
    }
  }
}
layer {
  name: "conv3_1_2_bn"
  type: "BatchNorm"
  bottom: "conv3_1_2"
  top: "conv3_1_2_bn"
  param {
    lr_mult: 0
  }
  param {
    lr_mult: 0
  }
  param {
    lr_mult: 0
  }
}
layer {
  name: "conv3_1_2_relu"
  type: "ReLU"
  bottom: "conv3_1_2_bn"
  top: "conv3_1_2_bn"
}
layer {
  name: "conv3_1_3"
  type: "Convolution"
  bottom: "conv3_1_2_bn"
  top: "conv3_1_3"
  param {
    lr_mult: 1
    decay_mult: 1
  }
  param {
    lr_mult: 2
    decay_mult: 0
  }
  convolution_param {
    num_output: 512
    pad: 0
    kernel_size: 1
    stride: 1
    weight_filler {
      type: "msra"
    }
    bias_filler {
      type: "constant"
      value: 0
    }
  }
}
layer {
  name: "conv3_1_sum"
  type: "Eltwise"
  bottom: "conv2_output"
  bottom: "conv3_1_3"
  top: "conv3_1_sum"
  eltwise_param {
    operation: SUM
  }
}
layer {
  name: "conv3_1_sum_bn"
  type: "BatchNorm"
  bottom: "conv3_1_sum"
  top: "conv3_1_sum_bn"
  param {
    lr_mult: 0
  }
  param {
    lr_mult: 0
  }
  param {
    lr_mult: 0
  }
}
layer {
  name: "conv3_1_sum_relu"
  type: "ReLU"
  bottom: "conv3_1_sum_bn"
  top: "conv3_1_sum_bn"
}
layer {
  name: "conv3_2_1"
  type: "Convolution"
  bottom: "conv3_1_sum_bn"
  top: "conv3_2_1"
  param {
    lr_mult: 1
    decay_mult: 1
  }
  param {
    lr_mult: 2
    decay_mult: 0
  }
  convolution_param {
    num_output: 128
    pad: 0
    kernel_size: 1
    stride: 1
    weight_filler {
      type: "msra"
    }
    bias_filler {
      type: "constant"
      value: 0
    }
  }
}
layer {
  name: "conv3_2_1_bn"
  type: "BatchNorm"
  bottom: "conv3_2_1"
  top: "conv3_2_1_bn"
  param {
    lr_mult: 0
  }
  param {
    lr_mult: 0
  }
  param {
    lr_mult: 0
  }
}
layer {
  name: "conv3_2_1_relu"
  type: "ReLU"
  bottom: "conv3_2_1_bn"
  top: "conv3_2_1_bn"
}
layer {
  name: "conv3_2_2"
  type: "Convolution"
  bottom: "conv3_2_1_bn"
  top: "conv3_2_2"
  param {
    lr_mult: 1
    decay_mult: 1
  }
  param {
    lr_mult: 2
    decay_mult: 0
  }
  convolution_param {
    num_output: 128
    pad: 1
    kernel_size: 3
    stride: 1
    weight_filler {
      type: "msra"
    }
    bias_filler {
      type: "constant"
      value: 0
    }
  }
}
layer {
  name: "conv3_2_2_bn"
  type: "BatchNorm"
  bottom: "conv3_2_2"
  top: "conv3_2_2_bn"
  param {
    lr_mult: 0
  }
  param {
    lr_mult: 0
  }
  param {
    lr_mult: 0
  }
}
layer {
  name: "conv3_2_2_relu"
  type: "ReLU"
  bottom: "conv3_2_2_bn"
  top: "conv3_2_2_bn"
}
layer {
  name: "conv3_2_3"
  type: "Convolution"
  bottom: "conv3_2_2_bn"
  top: "conv3_2_3"
  param {
    lr_mult: 1
    decay_mult: 1
  }
  param {
    lr_mult: 2
    decay_mult: 0
  }
  convolution_param {
    num_output: 512
    pad: 0
    kernel_size: 1
    stride: 1
    weight_filler {
      type: "msra"
    }
    bias_filler {
      type: "constant"
      value: 0
    }
  }
}
layer {
  name: "conv3_2_sum"
  type: "Eltwise"
  bottom: "conv3_1_sum_bn"
  bottom: "conv3_2_3"
  top: "conv3_2_sum"
  eltwise_param {
    operation: SUM
  }
}
layer {
  name: "conv3_2_sum_bn"
  type: "BatchNorm"
  bottom: "conv3_2_sum"
  top: "conv3_2_sum_bn"
  param {
    lr_mult: 0
  }
  param {
    lr_mult: 0
  }
  param {
    lr_mult: 0
  }
}
layer {
  name: "conv3_2_sum_relu"
  type: "ReLU"
  bottom: "conv3_2_sum_bn"
  top: "conv3_2_sum_bn"
}
layer {
  name: "conv3_3_1"
  type: "Convolution"
  bottom: "conv3_2_sum_bn"
  top: "conv3_3_1"
  param {
    lr_mult: 1
    decay_mult: 1
  }
  param {
    lr_mult: 2
    decay_mult: 0
  }
  convolution_param {
    num_output: 128
    pad: 0
    kernel_size: 1
    stride: 1
    weight_filler {
      type: "msra"
    }
    bias_filler {
      type: "constant"
      value: 0
    }
  }
}
layer {
  name: "conv3_3_1_bn"
  type: "BatchNorm"
  bottom: "conv3_3_1"
  top: "conv3_3_1_bn"
  param {
    lr_mult: 0
  }
  param {
    lr_mult: 0
  }
  param {
    lr_mult: 0
  }
}
layer {
  name: "conv3_3_1_relu"
  type: "ReLU"
  bottom: "conv3_3_1_bn"
  top: "conv3_3_1_bn"
}
layer {
  name: "conv3_3_2"
  type: "Convolution"
  bottom: "conv3_3_1_bn"
  top: "conv3_3_2"
  param {
    lr_mult: 1
    decay_mult: 1
  }
  param {
    lr_mult: 2
    decay_mult: 0
  }
  convolution_param {
    num_output: 128
    pad: 1
    kernel_size: 3
    stride: 1
    weight_filler {
      type: "msra"
    }
    bias_filler {
      type: "constant"
      value: 0
    }
  }
}
layer {
  name: "conv3_3_2_bn"
  type: "BatchNorm"
  bottom: "conv3_3_2"
  top: "conv3_3_2_bn"
  param {
    lr_mult: 0
  }
  param {
    lr_mult: 0
  }
  param {
    lr_mult: 0
  }
}
layer {
  name: "conv3_3_2_relu"
  type: "ReLU"
  bottom: "conv3_3_2_bn"
  top: "conv3_3_2_bn"
}
layer {
  name: "conv3_3_3"
  type: "Convolution"
  bottom: "conv3_3_2_bn"
  top: "conv3_3_3"
  param {
    lr_mult: 1
    decay_mult: 1
  }
  param {
    lr_mult: 2
    decay_mult: 0
  }
  convolution_param {
    num_output: 512
    pad: 0
    kernel_size: 1
    stride: 1
    weight_filler {
      type: "msra"
    }
    bias_filler {
      type: "constant"
      value: 0
    }
  }
}
layer {
  name: "conv3_3_sum"
  type: "Eltwise"
  bottom: "conv3_2_sum_bn"
  bottom: "conv3_3_3"
  top: "conv3_3_sum"
  eltwise_param {
    operation: SUM
  }
}
layer {
  name: "conv3_3_sum_bn"
  type: "BatchNorm"
  bottom: "conv3_3_sum"
  top: "conv3_3_sum_bn"
  param {
    lr_mult: 0
  }
  param {
    lr_mult: 0
  }
  param {
    lr_mult: 0
  }
}
layer {
  name: "conv3_3_sum_relu"
  type: "ReLU"
  bottom: "conv3_3_sum_bn"
  top: "conv3_3_sum_bn"
}
layer {
  name: "conv3_4_1"
  type: "Convolution"
  bottom: "conv3_3_sum_bn"
  top: "conv3_4_1"
  param {
    lr_mult: 1
    decay_mult: 1
  }
  param {
    lr_mult: 2
    decay_mult: 0
  }
  convolution_param {
    num_output: 128
    pad: 0
    kernel_size: 1
    stride: 1
    weight_filler {
      type: "msra"
    }
    bias_filler {
      type: "constant"
      value: 0
    }
  }
}
layer {
  name: "conv3_4_1_bn"
  type: "BatchNorm"
  bottom: "conv3_4_1"
  top: "conv3_4_1_bn"
  param {
    lr_mult: 0
  }
  param {
    lr_mult: 0
  }
  param {
    lr_mult: 0
  }
}
layer {
  name: "conv3_4_1_relu"
  type: "ReLU"
  bottom: "conv3_4_1_bn"
  top: "conv3_4_1_bn"
}
layer {
  name: "conv3_4_2"
  type: "Convolution"
  bottom: "conv3_4_1_bn"
  top: "conv3_4_2"
  param {
    lr_mult: 1
    decay_mult: 1
  }
  param {
    lr_mult: 2
    decay_mult: 0
  }
  convolution_param {
    num_output: 128
    pad: 1
    kernel_size: 3
    stride: 1
    weight_filler {
      type: "msra"
    }
    bias_filler {
      type: "constant"
      value: 0
    }
  }
}
layer {
  name: "conv3_4_2_bn"
  type: "BatchNorm"
  bottom: "conv3_4_2"
  top: "conv3_4_2_bn"
  param {
    lr_mult: 0
  }
  param {
    lr_mult: 0
  }
  param {
    lr_mult: 0
  }
}
layer {
  name: "conv3_4_2_relu"
  type: "ReLU"
  bottom: "conv3_4_2_bn"
  top: "conv3_4_2_bn"
}
layer {
  name: "conv3_4_3"
  type: "Convolution"
  bottom: "conv3_4_2_bn"
  top: "conv3_4_3"
  param {
    lr_mult: 1
    decay_mult: 1
  }
  param {
    lr_mult: 2
    decay_mult: 0
  }
  convolution_param {
    num_output: 512
    pad: 0
    kernel_size: 1
    stride: 1
    weight_filler {
      type: "msra"
    }
    bias_filler {
      type: "constant"
      value: 0
    }
  }
}
layer {
  name: "conv3_4_sum"
  type: "Eltwise"
  bottom: "conv3_3_sum_bn"
  bottom: "conv3_4_3"
  top: "conv3_4_sum"
  eltwise_param {
    operation: SUM
  }
}
layer {
  name: "conv3_4_sum_bn"
  type: "BatchNorm"
  bottom: "conv3_4_sum"
  top: "conv3_4_sum_bn"
  param {
    lr_mult: 0
  }
  param {
    lr_mult: 0
  }
  param {
    lr_mult: 0
  }
}
layer {
  name: "conv3_4_sum_relu"
  type: "ReLU"
  bottom: "conv3_4_sum_bn"
  top: "conv3_4_sum_bn"
}
layer {
  name: "conv3_5_1"
  type: "Convolution"
  bottom: "conv3_4_sum_bn"
  top: "conv3_5_1"
  param {
    lr_mult: 1
    decay_mult: 1
  }
  param {
    lr_mult: 2
    decay_mult: 0
  }
  convolution_param {
    num_output: 128
    pad: 0
    kernel_size: 1
    stride: 1
    weight_filler {
      type: "msra"
    }
    bias_filler {
      type: "constant"
      value: 0
    }
  }
}
layer {
  name: "conv3_5_1_bn"
  type: "BatchNorm"
  bottom: "conv3_5_1"
  top: "conv3_5_1_bn"
  param {
    lr_mult: 0
  }
  param {
    lr_mult: 0
  }
  param {
    lr_mult: 0
  }
}
layer {
  name: "conv3_5_1_relu"
  type: "ReLU"
  bottom: "conv3_5_1_bn"
  top: "conv3_5_1_bn"
}
layer {
  name: "conv3_5_2"
  type: "Convolution"
  bottom: "conv3_5_1_bn"
  top: "conv3_5_2"
  param {
    lr_mult: 1
    decay_mult: 1
  }
  param {
    lr_mult: 2
    decay_mult: 0
  }
  convolution_param {
    num_output: 128
    pad: 1
    kernel_size: 3
    stride: 1
    weight_filler {
      type: "msra"
    }
    bias_filler {
      type: "constant"
      value: 0
    }
  }
}
layer {
  name: "conv3_5_2_bn"
  type: "BatchNorm"
  bottom: "conv3_5_2"
  top: "conv3_5_2_bn"
  param {
    lr_mult: 0
  }
  param {
    lr_mult: 0
  }
  param {
    lr_mult: 0
  }
}
layer {
  name: "conv3_5_2_relu"
  type: "ReLU"
  bottom: "conv3_5_2_bn"
  top: "conv3_5_2_bn"
}
layer {
  name: "conv3_5_3"
  type: "Convolution"
  bottom: "conv3_5_2_bn"
  top: "conv3_5_3"
  param {
    lr_mult: 1
    decay_mult: 1
  }
  param {
    lr_mult: 2
    decay_mult: 0
  }
  convolution_param {
    num_output: 512
    pad: 0
    kernel_size: 1
    stride: 1
    weight_filler {
      type: "msra"
    }
    bias_filler {
      type: "constant"
      value: 0
    }
  }
}
layer {
  name: "conv3_5_sum"
  type: "Eltwise"
  bottom: "conv3_4_sum_bn"
  bottom: "conv3_5_3"
  top: "conv3_5_sum"
  eltwise_param {
    operation: SUM
  }
}
layer {
  name: "conv3_5_sum_bn"
  type: "BatchNorm"
  bottom: "conv3_5_sum"
  top: "conv3_5_sum_bn"
  param {
    lr_mult: 0
  }
  param {
    lr_mult: 0
  }
  param {
    lr_mult: 0
  }
}
layer {
  name: "conv3_5_sum_relu"
  type: "ReLU"
  bottom: "conv3_5_sum_bn"
  top: "conv3_5_sum_bn"
}
layer {
  name: "conv3_6_1"
  type: "Convolution"
  bottom: "conv3_5_sum_bn"
  top: "conv3_6_1"
  param {
    lr_mult: 1
    decay_mult: 1
  }
  param {
    lr_mult: 2
    decay_mult: 0
  }
  convolution_param {
    num_output: 128
    pad: 0
    kernel_size: 1
    stride: 1
    weight_filler {
      type: "msra"
    }
    bias_filler {
      type: "constant"
      value: 0
    }
  }
}
layer {
  name: "conv3_6_1_bn"
  type: "BatchNorm"
  bottom: "conv3_6_1"
  top: "conv3_6_1_bn"
  param {
    lr_mult: 0
  }
  param {
    lr_mult: 0
  }
  param {
    lr_mult: 0
  }
}
layer {
  name: "conv3_6_1_relu"
  type: "ReLU"
  bottom: "conv3_6_1_bn"
  top: "conv3_6_1_bn"
}
layer {
  name: "conv3_6_2"
  type: "Convolution"
  bottom: "conv3_6_1_bn"
  top: "conv3_6_2"
  param {
    lr_mult: 1
    decay_mult: 1
  }
  param {
    lr_mult: 2
    decay_mult: 0
  }
  convolution_param {
    num_output: 128
    pad: 1
    kernel_size: 3
    stride: 1
    weight_filler {
      type: "msra"
    }
    bias_filler {
      type: "constant"
      value: 0
    }
  }
}
layer {
  name: "conv3_6_2_bn"
  type: "BatchNorm"
  bottom: "conv3_6_2"
  top: "conv3_6_2_bn"
  param {
    lr_mult: 0
  }
  param {
    lr_mult: 0
  }
  param {
    lr_mult: 0
  }
}
layer {
  name: "conv3_6_2_relu"
  type: "ReLU"
  bottom: "conv3_6_2_bn"
  top: "conv3_6_2_bn"
}
layer {
  name: "conv3_6_3"
  type: "Convolution"
  bottom: "conv3_6_2_bn"
  top: "conv3_6_3"
  param {
    lr_mult: 1
    decay_mult: 1
  }
  param {
    lr_mult: 2
    decay_mult: 0
  }
  convolution_param {
    num_output: 512
    pad: 0
    kernel_size: 1
    stride: 1
    weight_filler {
      type: "msra"
    }
    bias_filler {
      type: "constant"
      value: 0
    }
  }
}
layer {
  name: "conv3_6_sum"
  type: "Eltwise"
  bottom: "conv3_5_sum_bn"
  bottom: "conv3_6_3"
  top: "conv3_6_sum"
  eltwise_param {
    operation: SUM
  }
}
layer {
  name: "conv3_6_sum_bn"
  type: "BatchNorm"
  bottom: "conv3_6_sum"
  top: "conv3_6_sum_bn"
  param {
    lr_mult: 0
  }
  param {
    lr_mult: 0
  }
  param {
    lr_mult: 0
  }
}
layer {
  name: "conv3_6_sum_relu"
  type: "ReLU"
  bottom: "conv3_6_sum_bn"
  top: "conv3_6_sum_bn"
}
layer {
  name: "conv3_7_1"
  type: "Convolution"
  bottom: "conv3_6_sum_bn"
  top: "conv3_7_1"
  param {
    lr_mult: 1
    decay_mult: 1
  }
  param {
    lr_mult: 2
    decay_mult: 0
  }
  convolution_param {
    num_output: 128
    pad: 0
    kernel_size: 1
    stride: 1
    weight_filler {
      type: "msra"
    }
    bias_filler {
      type: "constant"
      value: 0
    }
  }
}
layer {
  name: "conv3_7_1_bn"
  type: "BatchNorm"
  bottom: "conv3_7_1"
  top: "conv3_7_1_bn"
  param {
    lr_mult: 0
  }
  param {
    lr_mult: 0
  }
  param {
    lr_mult: 0
  }
}
layer {
  name: "conv3_7_1_relu"
  type: "ReLU"
  bottom: "conv3_7_1_bn"
  top: "conv3_7_1_bn"
}
layer {
  name: "conv3_7_2"
  type: "Convolution"
  bottom: "conv3_7_1_bn"
  top: "conv3_7_2"
  param {
    lr_mult: 1
    decay_mult: 1
  }
  param {
    lr_mult: 2
    decay_mult: 0
  }
  convolution_param {
    num_output: 128
    pad: 1
    kernel_size: 3
    stride: 1
    weight_filler {
      type: "msra"
    }
    bias_filler {
      type: "constant"
      value: 0
    }
  }
}
layer {
  name: "conv3_7_2_bn"
  type: "BatchNorm"
  bottom: "conv3_7_2"
  top: "conv3_7_2_bn"
  param {
    lr_mult: 0
  }
  param {
    lr_mult: 0
  }
  param {
    lr_mult: 0
  }
}
layer {
  name: "conv3_7_2_relu"
  type: "ReLU"
  bottom: "conv3_7_2_bn"
  top: "conv3_7_2_bn"
}
layer {
  name: "conv3_7_3"
  type: "Convolution"
  bottom: "conv3_7_2_bn"
  top: "conv3_7_3"
  param {
    lr_mult: 1
    decay_mult: 1
  }
  param {
    lr_mult: 2
    decay_mult: 0
  }
  convolution_param {
    num_output: 512
    pad: 0
    kernel_size: 1
    stride: 1
    weight_filler {
      type: "msra"
    }
    bias_filler {
      type: "constant"
      value: 0
    }
  }
}
layer {
  name: "conv3_7_sum"
  type: "Eltwise"
  bottom: "conv3_6_sum_bn"
  bottom: "conv3_7_3"
  top: "conv3_7_sum"
  eltwise_param {
    operation: SUM
  }
}
layer {
  name: "conv3_7_sum_bn"
  type: "BatchNorm"
  bottom: "conv3_7_sum"
  top: "conv3_7_sum_bn"
  param {
    lr_mult: 0
  }
  param {
    lr_mult: 0
  }
  param {
    lr_mult: 0
  }
}
layer {
  name: "conv3_7_sum_relu"
  type: "ReLU"
  bottom: "conv3_7_sum_bn"
  top: "conv3_7_sum_bn"
}
layer {
  name: "conv3_8_1"
  type: "Convolution"
  bottom: "conv3_7_sum_bn"
  top: "conv3_8_1"
  param {
    lr_mult: 1
    decay_mult: 1
  }
  param {
    lr_mult: 2
    decay_mult: 0
  }
  convolution_param {
    num_output: 128
    pad: 0
    kernel_size: 1
    stride: 1
    weight_filler {
      type: "msra"
    }
    bias_filler {
      type: "constant"
      value: 0
    }
  }
}
layer {
  name: "conv3_8_1_bn"
  type: "BatchNorm"
  bottom: "conv3_8_1"
  top: "conv3_8_1_bn"
  param {
    lr_mult: 0
  }
  param {
    lr_mult: 0
  }
  param {
    lr_mult: 0
  }
}
layer {
  name: "conv3_8_1_relu"
  type: "ReLU"
  bottom: "conv3_8_1_bn"
  top: "conv3_8_1_bn"
}
layer {
  name: "conv3_8_2"
  type: "Convolution"
  bottom: "conv3_8_1_bn"
  top: "conv3_8_2"
  param {
    lr_mult: 1
    decay_mult: 1
  }
  param {
    lr_mult: 2
    decay_mult: 0
  }
  convolution_param {
    num_output: 128
    pad: 1
    kernel_size: 3
    stride: 1
    weight_filler {
      type: "msra"
    }
    bias_filler {
      type: "constant"
      value: 0
    }
  }
}
layer {
  name: "conv3_8_2_bn"
  type: "BatchNorm"
  bottom: "conv3_8_2"
  top: "conv3_8_2_bn"
  param {
    lr_mult: 0
  }
  param {
    lr_mult: 0
  }
  param {
    lr_mult: 0
  }
}
layer {
  name: "conv3_8_2_relu"
  type: "ReLU"
  bottom: "conv3_8_2_bn"
  top: "conv3_8_2_bn"
}
layer {
  name: "conv3_8_3"
  type: "Convolution"
  bottom: "conv3_8_2_bn"
  top: "conv3_8_3"
  param {
    lr_mult: 1
    decay_mult: 1
  }
  param {
    lr_mult: 2
    decay_mult: 0
  }
  convolution_param {
    num_output: 512
    pad: 0
    kernel_size: 1
    stride: 1
    weight_filler {
      type: "msra"
    }
    bias_filler {
      type: "constant"
      value: 0
    }
  }
}
layer {
  name: "conv3_8_sum"
  type: "Eltwise"
  bottom: "conv3_7_sum_bn"
  bottom: "conv3_8_3"
  top: "conv3_8_sum"
  eltwise_param {
    operation: SUM
  }
}
layer {
  name: "conv3_8_sum_bn"
  type: "BatchNorm"
  bottom: "conv3_8_sum"
  top: "conv3_8_sum_bn"
  param {
    lr_mult: 0
  }
  param {
    lr_mult: 0
  }
  param {
    lr_mult: 0
  }
}
layer {
  name: "conv3_8_sum_relu"
  type: "ReLU"
  bottom: "conv3_8_sum_bn"
  top: "conv3_8_sum_bn"
}
layer {
  name: "conv3_output"
  type: "Convolution"
  bottom: "conv3_8_sum_bn"
  top: "conv3_output"
  param {
    lr_mult: 1
    decay_mult: 1
  }
  param {
    lr_mult: 2
    decay_mult: 0
  }
  convolution_param {
    num_output: 1024
    pad: 0
    kernel_size: 1
    stride: 2
    weight_filler {
      type: "msra"
    }
    bias_filler {
      type: "constant"
      value: 0
    }
  }
}
layer {
  name: "conv4_1_1"
  type: "Convolution"
  bottom: "conv3_8_sum_bn"
  top: "conv4_1_1"
  param {
    lr_mult: 1
    decay_mult: 1
  }
  param {
    lr_mult: 2
    decay_mult: 0
  }
  convolution_param {
    num_output: 256
    pad: 0
    kernel_size: 1
    stride: 2
    weight_filler {
      type: "msra"
    }
    bias_filler {
      type: "constant"
      value: 0
    }
  }
}
layer {
  name: "conv4_1_1_bn"
  type: "BatchNorm"
  bottom: "conv4_1_1"
  top: "conv4_1_1_bn"
  param {
    lr_mult: 0
  }
  param {
    lr_mult: 0
  }
  param {
    lr_mult: 0
  }
}
layer {
  name: "conv4_1_1_relu"
  type: "ReLU"
  bottom: "conv4_1_1_bn"
  top: "conv4_1_1_bn"
}
layer {
  name: "conv4_1_2"
  type: "Convolution"
  bottom: "conv4_1_1_bn"
  top: "conv4_1_2"
  param {
    lr_mult: 1
    decay_mult: 1
  }
  param {
    lr_mult: 2
    decay_mult: 0
  }
  convolution_param {
    num_output: 256
    pad: 1
    kernel_size: 3
    stride: 1
    weight_filler {
      type: "msra"
    }
    bias_filler {
      type: "constant"
      value: 0
    }
  }
}
layer {
  name: "conv4_1_2_bn"
  type: "BatchNorm"
  bottom: "conv4_1_2"
  top: "conv4_1_2_bn"
  param {
    lr_mult: 0
  }
  param {
    lr_mult: 0
  }
  param {
    lr_mult: 0
  }
}
layer {
  name: "conv4_1_2_relu"
  type: "ReLU"
  bottom: "conv4_1_2_bn"
  top: "conv4_1_2_bn"
}
layer {
  name: "conv4_1_3"
  type: "Convolution"
  bottom: "conv4_1_2_bn"
  top: "conv4_1_3"
  param {
    lr_mult: 1
    decay_mult: 1
  }
  param {
    lr_mult: 2
    decay_mult: 0
  }
  convolution_param {
    num_output: 1024
    pad: 0
    kernel_size: 1
    stride: 1
    weight_filler {
      type: "msra"
    }
    bias_filler {
      type: "constant"
      value: 0
    }
  }
}
layer {
  name: "conv4_1_sum"
  type: "Eltwise"
  bottom: "conv3_output"
  bottom: "conv4_1_3"
  top: "conv4_1_sum"
  eltwise_param {
    operation: SUM
  }
}
layer {
  name: "conv4_1_sum_bn"
  type: "BatchNorm"
  bottom: "conv4_1_sum"
  top: "conv4_1_sum_bn"
  param {
    lr_mult: 0
  }
  param {
    lr_mult: 0
  }
  param {
    lr_mult: 0
  }
}
layer {
  name: "conv4_1_sum_relu"
  type: "ReLU"
  bottom: "conv4_1_sum_bn"
  top: "conv4_1_sum_bn"
}
layer {
  name: "conv4_2_1"
  type: "Convolution"
  bottom: "conv4_1_sum_bn"
  top: "conv4_2_1"
  param {
    lr_mult: 1
    decay_mult: 1
  }
  param {
    lr_mult: 2
    decay_mult: 0
  }
  convolution_param {
    num_output: 256
    pad: 0
    kernel_size: 1
    stride: 1
    weight_filler {
      type: "msra"
    }
    bias_filler {
      type: "constant"
      value: 0
    }
  }
}
layer {
  name: "conv4_2_1_bn"
  type: "BatchNorm"
  bottom: "conv4_2_1"
  top: "conv4_2_1_bn"
  param {
    lr_mult: 0
  }
  param {
    lr_mult: 0
  }
  param {
    lr_mult: 0
  }
}
layer {
  name: "conv4_2_1_relu"
  type: "ReLU"
  bottom: "conv4_2_1_bn"
  top: "conv4_2_1_bn"
}
layer {
  name: "conv4_2_2"
  type: "Convolution"
  bottom: "conv4_2_1_bn"
  top: "conv4_2_2"
  param {
    lr_mult: 1
    decay_mult: 1
  }
  param {
    lr_mult: 2
    decay_mult: 0
  }
  convolution_param {
    num_output: 256
    pad: 1
    kernel_size: 3
    stride: 1
    weight_filler {
      type: "msra"
    }
    bias_filler {
      type: "constant"
      value: 0
    }
  }
}
layer {
  name: "conv4_2_2_bn"
  type: "BatchNorm"
  bottom: "conv4_2_2"
  top: "conv4_2_2_bn"
  param {
    lr_mult: 0
  }
  param {
    lr_mult: 0
  }
  param {
    lr_mult: 0
  }
}
layer {
  name: "conv4_2_2_relu"
  type: "ReLU"
  bottom: "conv4_2_2_bn"
  top: "conv4_2_2_bn"
}
layer {
  name: "conv4_2_3"
  type: "Convolution"
  bottom: "conv4_2_2_bn"
  top: "conv4_2_3"
  p
I0630 19:27:35.864413 38212 layer_factory.hpp:76] Creating layer data
I0630 19:27:35.864480 38212 net.cpp:106] Creating Layer data
I0630 19:27:35.864497 38212 net.cpp:411] data -> data
I0630 19:27:35.864539 38212 net.cpp:411] data -> label
I0630 19:27:35.864985 38212 image_data_layer.cpp:36] Opening file ../lists/roi-train.lst
I0630 19:27:35.981436 38212 image_data_layer.cpp:46] Shuffling data
I0630 19:27:36.016619 38212 image_data_layer.cpp:51] A total of 211680 images.
I0630 19:27:36.030153 38212 image_data_layer.cpp:78] output data size: 8,3,224,224
I0630 19:27:36.044458 38212 net.cpp:150] Setting up data
I0630 19:27:36.044533 38212 net.cpp:157] Top shape: 8 3 224 224 (1204224)
I0630 19:27:36.044553 38212 net.cpp:157] Top shape: 8 (8)
I0630 19:27:36.044569 38212 net.cpp:165] Memory required for data: 4816928
I0630 19:27:36.044591 38212 layer_factory.hpp:76] Creating layer conv1
I0630 19:27:36.044632 38212 net.cpp:106] Creating Layer conv1
I0630 19:27:36.044664 38212 net.cpp:454] conv1 <- data
I0630 19:27:36.044692 38212 net.cpp:411] conv1 -> conv1
I0630 19:27:36.231515 38212 net.cpp:150] Setting up conv1
I0630 19:27:36.231559 38212 net.cpp:157] Top shape: 8 64 109 109 (6083072)
I0630 19:27:36.231575 38212 net.cpp:165] Memory required for data: 29149216
I0630 19:27:36.231611 38212 layer_factory.hpp:76] Creating layer conv1_bn
I0630 19:27:36.231647 38212 net.cpp:106] Creating Layer conv1_bn
I0630 19:27:36.231664 38212 net.cpp:454] conv1_bn <- conv1
I0630 19:27:36.231685 38212 net.cpp:411] conv1_bn -> conv1_bn
I0630 19:27:36.231914 38212 net.cpp:150] Setting up conv1_bn
I0630 19:27:36.231933 38212 net.cpp:157] Top shape: 8 64 109 109 (6083072)
I0630 19:27:36.231946 38212 net.cpp:165] Memory required for data: 53481504
I0630 19:27:36.231971 38212 layer_factory.hpp:76] Creating layer conv1_relu
I0630 19:27:36.231993 38212 net.cpp:106] Creating Layer conv1_relu
I0630 19:27:36.232008 38212 net.cpp:454] conv1_relu <- conv1_bn
I0630 19:27:36.232024 38212 net.cpp:397] conv1_relu -> conv1_bn (in-place)
I0630 19:27:36.232245 38212 net.cpp:150] Setting up conv1_relu
I0630 19:27:36.232267 38212 net.cpp:157] Top shape: 8 64 109 109 (6083072)
I0630 19:27:36.232280 38212 net.cpp:165] Memory required for data: 77813792
I0630 19:27:36.232295 38212 layer_factory.hpp:76] Creating layer pool1
I0630 19:27:36.232316 38212 net.cpp:106] Creating Layer pool1
I0630 19:27:36.232331 38212 net.cpp:454] pool1 <- conv1_bn
I0630 19:27:36.232347 38212 net.cpp:411] pool1 -> pool1
I0630 19:27:36.240106 38212 net.cpp:150] Setting up pool1
I0630 19:27:36.240137 38212 net.cpp:157] Top shape: 8 64 54 54 (1492992)
I0630 19:27:36.240152 38212 net.cpp:165] Memory required for data: 83785760
I0630 19:27:36.240178 38212 layer_factory.hpp:76] Creating layer pool1_pool1_0_split
I0630 19:27:36.240200 38212 net.cpp:106] Creating Layer pool1_pool1_0_split
I0630 19:27:36.240214 38212 net.cpp:454] pool1_pool1_0_split <- pool1
I0630 19:27:36.240229 38212 net.cpp:411] pool1_pool1_0_split -> pool1_pool1_0_split_0
I0630 19:27:36.240249 38212 net.cpp:411] pool1_pool1_0_split -> pool1_pool1_0_split_1
I0630 19:27:36.240314 38212 net.cpp:150] Setting up pool1_pool1_0_split
I0630 19:27:36.240336 38212 net.cpp:157] Top shape: 8 64 54 54 (1492992)
I0630 19:27:36.240352 38212 net.cpp:157] Top shape: 8 64 54 54 (1492992)
I0630 19:27:36.240366 38212 net.cpp:165] Memory required for data: 95729696
I0630 19:27:36.240380 38212 layer_factory.hpp:76] Creating layer conv1_output
I0630 19:27:36.240406 38212 net.cpp:106] Creating Layer conv1_output
I0630 19:27:36.240419 38212 net.cpp:454] conv1_output <- pool1_pool1_0_split_0
I0630 19:27:36.240442 38212 net.cpp:411] conv1_output -> conv1_output
I0630 19:27:36.242568 38212 cudnn_conv_layer.cpp:194] Reallocating workspace storage: 768
I0630 19:27:36.242609 38212 net.cpp:150] Setting up conv1_output
I0630 19:27:36.242633 38212 net.cpp:157] Top shape: 8 256 54 54 (5971968)
I0630 19:27:36.242648 38212 net.cpp:165] Memory required for data: 119617568
I0630 19:27:36.242667 38212 layer_factory.hpp:76] Creating layer conv2_1_1
I0630 19:27:36.242694 38212 net.cpp:106] Creating Layer conv2_1_1
I0630 19:27:36.242710 38212 net.cpp:454] conv2_1_1 <- pool1_pool1_0_split_1
I0630 19:27:36.242727 38212 net.cpp:411] conv2_1_1 -> conv2_1_1
I0630 19:27:36.243841 38212 net.cpp:150] Setting up conv2_1_1
I0630 19:27:36.243867 38212 net.cpp:157] Top shape: 8 64 54 54 (1492992)
I0630 19:27:36.243881 38212 net.cpp:165] Memory required for data: 125589536
I0630 19:27:36.243903 38212 layer_factory.hpp:76] Creating layer conv2_1_1_bn
I0630 19:27:36.243929 38212 net.cpp:106] Creating Layer conv2_1_1_bn
I0630 19:27:36.243945 38212 net.cpp:454] conv2_1_1_bn <- conv2_1_1
I0630 19:27:36.243963 38212 net.cpp:411] conv2_1_1_bn -> conv2_1_1_bn
I0630 19:27:36.244175 38212 net.cpp:150] Setting up conv2_1_1_bn
I0630 19:27:36.244195 38212 net.cpp:157] Top shape: 8 64 54 54 (1492992)
I0630 19:27:36.244209 38212 net.cpp:165] Memory required for data: 131561504
I0630 19:27:36.244230 38212 layer_factory.hpp:76] Creating layer conv2_1_1_relu
I0630 19:27:36.244247 38212 net.cpp:106] Creating Layer conv2_1_1_relu
I0630 19:27:36.244261 38212 net.cpp:454] conv2_1_1_relu <- conv2_1_1_bn
I0630 19:27:36.244277 38212 net.cpp:397] conv2_1_1_relu -> conv2_1_1_bn (in-place)
I0630 19:27:36.244478 38212 net.cpp:150] Setting up conv2_1_1_relu
I0630 19:27:36.244499 38212 net.cpp:157] Top shape: 8 64 54 54 (1492992)
I0630 19:27:36.244513 38212 net.cpp:165] Memory required for data: 137533472
I0630 19:27:36.244525 38212 layer_factory.hpp:76] Creating layer conv2_1_2
I0630 19:27:36.244550 38212 net.cpp:106] Creating Layer conv2_1_2
I0630 19:27:36.244565 38212 net.cpp:454] conv2_1_2 <- conv2_1_1_bn
I0630 19:27:36.244581 38212 net.cpp:411] conv2_1_2 -> conv2_1_2
I0630 19:27:36.247337 38212 net.cpp:150] Setting up conv2_1_2
I0630 19:27:36.247364 38212 net.cpp:157] Top shape: 8 64 54 54 (1492992)
I0630 19:27:36.247376 38212 net.cpp:165] Memory required for data: 143505440
I0630 19:27:36.247407 38212 layer_factory.hpp:76] Creating layer conv2_1_2_bn
I0630 19:27:36.247427 38212 net.cpp:106] Creating Layer conv2_1_2_bn
I0630 19:27:36.247459 38212 net.cpp:454] conv2_1_2_bn <- conv2_1_2
I0630 19:27:36.247481 38212 net.cpp:411] conv2_1_2_bn -> conv2_1_2_bn
I0630 19:27:36.247715 38212 net.cpp:150] Setting up conv2_1_2_bn
I0630 19:27:36.247735 38212 net.cpp:157] Top shape: 8 64 54 54 (1492992)
I0630 19:27:36.247748 38212 net.cpp:165] Memory required for data: 149477408
I0630 19:27:36.247786 38212 layer_factory.hpp:76] Creating layer conv2_1_2_relu
I0630 19:27:36.247803 38212 net.cpp:106] Creating Layer conv2_1_2_relu
I0630 19:27:36.247818 38212 net.cpp:454] conv2_1_2_relu <- conv2_1_2_bn
I0630 19:27:36.247834 38212 net.cpp:397] conv2_1_2_relu -> conv2_1_2_bn (in-place)
I0630 19:27:36.248040 38212 net.cpp:150] Setting up conv2_1_2_relu
I0630 19:27:36.248065 38212 net.cpp:157] Top shape: 8 64 54 54 (1492992)
I0630 19:27:36.248080 38212 net.cpp:165] Memory required for data: 155449376
I0630 19:27:36.248095 38212 layer_factory.hpp:76] Creating layer conv2_1_3
I0630 19:27:36.248117 38212 net.cpp:106] Creating Layer conv2_1_3
I0630 19:27:36.248134 38212 net.cpp:454] conv2_1_3 <- conv2_1_2_bn
I0630 19:27:36.248152 38212 net.cpp:411] conv2_1_3 -> conv2_1_3
I0630 19:27:36.249893 38212 cudnn_conv_layer.cpp:194] Reallocating workspace storage: 768
I0630 19:27:36.249934 38212 net.cpp:150] Setting up conv2_1_3
I0630 19:27:36.249959 38212 net.cpp:157] Top shape: 8 256 54 54 (5971968)
I0630 19:27:36.249975 38212 net.cpp:165] Memory required for data: 179337248
I0630 19:27:36.249995 38212 layer_factory.hpp:76] Creating layer conv2_1_sum
I0630 19:27:36.250020 38212 net.cpp:106] Creating Layer conv2_1_sum
I0630 19:27:36.250036 38212 net.cpp:454] conv2_1_sum <- conv1_output
I0630 19:27:36.250052 38212 net.cpp:454] conv2_1_sum <- conv2_1_3
I0630 19:27:36.250071 38212 net.cpp:411] conv2_1_sum -> conv2_1_sum
I0630 19:27:36.250130 38212 net.cpp:150] Setting up conv2_1_sum
I0630 19:27:36.250151 38212 net.cpp:157] Top shape: 8 256 54 54 (5971968)
I0630 19:27:36.250165 38212 net.cpp:165] Memory required for data: 203225120
I0630 19:27:36.250180 38212 layer_factory.hpp:76] Creating layer conv2_1_sum_bn
I0630 19:27:36.250200 38212 net.cpp:106] Creating Layer conv2_1_sum_bn
I0630 19:27:36.250214 38212 net.cpp:454] conv2_1_sum_bn <- conv2_1_sum
I0630 19:27:36.250231 38212 net.cpp:411] conv2_1_sum_bn -> conv2_1_sum_bn
I0630 19:27:36.250447 38212 net.cpp:150] Setting up conv2_1_sum_bn
I0630 19:27:36.250466 38212 net.cpp:157] Top shape: 8 256 54 54 (5971968)
I0630 19:27:36.250479 38212 net.cpp:165] Memory required for data: 227112992
I0630 19:27:36.250500 38212 layer_factory.hpp:76] Creating layer conv2_1_sum_relu
I0630 19:27:36.250521 38212 net.cpp:106] Creating Layer conv2_1_sum_relu
I0630 19:27:36.250537 38212 net.cpp:454] conv2_1_sum_relu <- conv2_1_sum_bn
I0630 19:27:36.250558 38212 net.cpp:397] conv2_1_sum_relu -> conv2_1_sum_bn (in-place)
I0630 19:27:36.250916 38212 net.cpp:150] Setting up conv2_1_sum_relu
I0630 19:27:36.250939 38212 net.cpp:157] Top shape: 8 256 54 54 (5971968)
I0630 19:27:36.250953 38212 net.cpp:165] Memory required for data: 251000864
I0630 19:27:36.250967 38212 layer_factory.hpp:76] Creating layer conv2_1_sum_bn_conv2_1_sum_relu_0_split
I0630 19:27:36.250985 38212 net.cpp:106] Creating Layer conv2_1_sum_bn_conv2_1_sum_relu_0_split
I0630 19:27:36.250999 38212 net.cpp:454] conv2_1_sum_bn_conv2_1_sum_relu_0_split <- conv2_1_sum_bn
I0630 19:27:36.251019 38212 net.cpp:411] conv2_1_sum_bn_conv2_1_sum_relu_0_split -> conv2_1_sum_bn_conv2_1_sum_relu_0_split_0
I0630 19:27:36.251039 38212 net.cpp:411] conv2_1_sum_bn_conv2_1_sum_relu_0_split -> conv2_1_sum_bn_conv2_1_sum_relu_0_split_1
I0630 19:27:36.251111 38212 net.cpp:150] Setting up conv2_1_sum_bn_conv2_1_sum_relu_0_split
I0630 19:27:36.251130 38212 net.cpp:157] Top shape: 8 256 54 54 (5971968)
I0630 19:27:36.251147 38212 net.cpp:157] Top shape: 8 256 54 54 (5971968)
I0630 19:27:36.251160 38212 net.cpp:165] Memory required for data: 298776608
I0630 19:27:36.251174 38212 layer_factory.hpp:76] Creating layer conv2_2_1
I0630 19:27:36.251199 38212 net.cpp:106] Creating Layer conv2_2_1
I0630 19:27:36.251231 38212 net.cpp:454] conv2_2_1 <- conv2_1_sum_bn_conv2_1_sum_relu_0_split_0
I0630 19:27:36.251255 38212 net.cpp:411] conv2_2_1 -> conv2_2_1
I0630 19:27:36.253070 38212 cudnn_conv_layer.cpp:194] Reallocating workspace storage: 3072
I0630 19:27:36.253581 38212 net.cpp:150] Setting up conv2_2_1
I0630 19:27:36.253607 38212 net.cpp:157] Top shape: 8 64 54 54 (1492992)
I0630 19:27:36.253621 38212 net.cpp:165] Memory required for data: 304748576
I0630 19:27:36.253643 38212 layer_factory.hpp:76] Creating layer conv2_2_1_bn
I0630 19:27:36.253667 38212 net.cpp:106] Creating Layer conv2_2_1_bn
I0630 19:27:36.253682 38212 net.cpp:454] conv2_2_1_bn <- conv2_2_1
I0630 19:27:36.253711 38212 net.cpp:411] conv2_2_1_bn -> conv2_2_1_bn
I0630 19:27:36.253942 38212 net.cpp:150] Setting up conv2_2_1_bn
I0630 19:27:36.253962 38212 net.cpp:157] Top shape: 8 64 54 54 (1492992)
I0630 19:27:36.253975 38212 net.cpp:165] Memory required for data: 310720544
I0630 19:27:36.253998 38212 layer_factory.hpp:76] Creating layer conv2_2_1_relu
I0630 19:27:36.254015 38212 net.cpp:106] Creating Layer conv2_2_1_relu
I0630 19:27:36.254029 38212 net.cpp:454] conv2_2_1_relu <- conv2_2_1_bn
I0630 19:27:36.254045 38212 net.cpp:397] conv2_2_1_relu -> conv2_2_1_bn (in-place)
I0630 19:27:36.254261 38212 net.cpp:150] Setting up conv2_2_1_relu
I0630 19:27:36.254283 38212 net.cpp:157] Top shape: 8 64 54 54 (1492992)
I0630 19:27:36.254297 38212 net.cpp:165] Memory required for data: 316692512
I0630 19:27:36.254312 38212 layer_factory.hpp:76] Creating layer conv2_2_2
I0630 19:27:36.254334 38212 net.cpp:106] Creating Layer conv2_2_2
I0630 19:27:36.254349 38212 net.cpp:454] conv2_2_2 <- conv2_2_1_bn
I0630 19:27:36.254376 38212 net.cpp:411] conv2_2_2 -> conv2_2_2
I0630 19:27:36.256592 38212 net.cpp:150] Setting up conv2_2_2
I0630 19:27:36.256618 38212 net.cpp:157] Top shape: 8 64 54 54 (1492992)
I0630 19:27:36.256633 38212 net.cpp:165] Memory required for data: 322664480
I0630 19:27:36.256651 38212 layer_factory.hpp:76] Creating layer conv2_2_2_bn
I0630 19:27:36.256670 38212 net.cpp:106] Creating Layer conv2_2_2_bn
I0630 19:27:36.256685 38212 net.cpp:454] conv2_2_2_bn <- conv2_2_2
I0630 19:27:36.256706 38212 net.cpp:411] conv2_2_2_bn -> conv2_2_2_bn
I0630 19:27:36.256935 38212 net.cpp:150] Setting up conv2_2_2_bn
I0630 19:27:36.256956 38212 net.cpp:157] Top shape: 8 64 54 54 (1492992)
I0630 19:27:36.256969 38212 net.cpp:165] Memory required for data: 328636448
I0630 19:27:36.256990 38212 layer_factory.hpp:76] Creating layer conv2_2_2_relu
I0630 19:27:36.257009 38212 net.cpp:106] Creating Layer conv2_2_2_relu
I0630 19:27:36.257024 38212 net.cpp:454] conv2_2_2_relu <- conv2_2_2_bn
I0630 19:27:36.257040 38212 net.cpp:397] conv2_2_2_relu -> conv2_2_2_bn (in-place)
I0630 19:27:36.257251 38212 net.cpp:150] Setting up conv2_2_2_relu
I0630 19:27:36.257272 38212 net.cpp:157] Top shape: 8 64 54 54 (1492992)
I0630 19:27:36.257287 38212 net.cpp:165] Memory required for data: 334608416
I0630 19:27:36.257300 38212 layer_factory.hpp:76] Creating layer conv2_2_3
I0630 19:27:36.257323 38212 net.cpp:106] Creating Layer conv2_2_3
I0630 19:27:36.257339 38212 net.cpp:454] conv2_2_3 <- conv2_2_2_bn
I0630 19:27:36.257359 38212 net.cpp:411] conv2_2_3 -> conv2_2_3
I0630 19:27:36.259086 38212 cudnn_conv_layer.cpp:194] Reallocating workspace storage: 768
I0630 19:27:36.259127 38212 net.cpp:150] Setting up conv2_2_3
I0630 19:27:36.259150 38212 net.cpp:157] Top shape: 8 256 54 54 (5971968)
I0630 19:27:36.259163 38212 net.cpp:165] Memory required for data: 358496288
I0630 19:27:36.259193 38212 layer_factory.hpp:76] Creating layer conv2_2_sum
I0630 19:27:36.259214 38212 net.cpp:106] Creating Layer conv2_2_sum
I0630 19:27:36.259229 38212 net.cpp:454] conv2_2_sum <- conv2_1_sum_bn_conv2_1_sum_relu_0_split_1
I0630 19:27:36.259244 38212 net.cpp:454] conv2_2_sum <- conv2_2_3
I0630 19:27:36.259263 38212 net.cpp:411] conv2_2_sum -> conv2_2_sum
I0630 19:27:36.259311 38212 net.cpp:150] Setting up conv2_2_sum
I0630 19:27:36.259331 38212 net.cpp:157] Top shape: 8 256 54 54 (5971968)
I0630 19:27:36.259346 38212 net.cpp:165] Memory required for data: 382384160
I0630 19:27:36.259378 38212 layer_factory.hpp:76] Creating layer conv2_2_sum_bn
I0630 19:27:36.259402 38212 net.cpp:106] Creating Layer conv2_2_sum_bn
I0630 19:27:36.259418 38212 net.cpp:454] conv2_2_sum_bn <- conv2_2_sum
I0630 19:27:36.259433 38212 net.cpp:411] conv2_2_sum_bn -> conv2_2_sum_bn
I0630 19:27:36.259651 38212 net.cpp:150] Setting up conv2_2_sum_bn
I0630 19:27:36.259672 38212 net.cpp:157] Top shape: 8 256 54 54 (5971968)
I0630 19:27:36.259685 38212 net.cpp:165] Memory required for data: 406272032
I0630 19:27:36.259707 38212 layer_factory.hpp:76] Creating layer conv2_2_sum_relu
I0630 19:27:36.259726 38212 net.cpp:106] Creating Layer conv2_2_sum_relu
I0630 19:27:36.259739 38212 net.cpp:454] conv2_2_sum_relu <- conv2_2_sum_bn
I0630 19:27:36.259755 38212 net.cpp:397] conv2_2_sum_relu -> conv2_2_sum_bn (in-place)
I0630 19:27:36.260123 38212 net.cpp:150] Setting up conv2_2_sum_relu
I0630 19:27:36.260146 38212 net.cpp:157] Top shape: 8 256 54 54 (5971968)
I0630 19:27:36.260159 38212 net.cpp:165] Memory required for data: 430159904
I0630 19:27:36.260174 38212 layer_factory.hpp:76] Creating layer conv2_2_sum_bn_conv2_2_sum_relu_0_split
I0630 19:27:36.260195 38212 net.cpp:106] Creating Layer conv2_2_sum_bn_conv2_2_sum_relu_0_split
I0630 19:27:36.260210 38212 net.cpp:454] conv2_2_sum_bn_conv2_2_sum_relu_0_split <- conv2_2_sum_bn
I0630 19:27:36.260227 38212 net.cpp:411] conv2_2_sum_bn_conv2_2_sum_relu_0_split -> conv2_2_sum_bn_conv2_2_sum_relu_0_split_0
I0630 19:27:36.260246 38212 net.cpp:411] conv2_2_sum_bn_conv2_2_sum_relu_0_split -> conv2_2_sum_bn_conv2_2_sum_relu_0_split_1
I0630 19:27:36.260315 38212 net.cpp:150] Setting up conv2_2_sum_bn_conv2_2_sum_relu_0_split
I0630 19:27:36.260335 38212 net.cpp:157] Top shape: 8 256 54 54 (5971968)
I0630 19:27:36.260352 38212 net.cpp:157] Top shape: 8 256 54 54 (5971968)
I0630 19:27:36.260365 38212 net.cpp:165] Memory required for data: 477935648
I0630 19:27:36.260380 38212 layer_factory.hpp:76] Creating layer conv2_3_1
I0630 19:27:36.260402 38212 net.cpp:106] Creating Layer conv2_3_1
I0630 19:27:36.260417 38212 net.cpp:454] conv2_3_1 <- conv2_2_sum_bn_conv2_2_sum_relu_0_split_0
I0630 19:27:36.260438 38212 net.cpp:411] conv2_3_1 -> conv2_3_1
I0630 19:27:36.262033 38212 cudnn_conv_layer.cpp:194] Reallocating workspace storage: 3072
I0630 19:27:36.262068 38212 net.cpp:150] Setting up conv2_3_1
I0630 19:27:36.262089 38212 net.cpp:157] Top shape: 8 64 54 54 (1492992)
I0630 19:27:36.262104 38212 net.cpp:165] Memory required for data: 483907616
I0630 19:27:36.262123 38212 layer_factory.hpp:76] Creating layer conv2_3_1_bn
I0630 19:27:36.262146 38212 net.cpp:106] Creating Layer conv2_3_1_bn
I0630 19:27:36.262162 38212 net.cpp:454] conv2_3_1_bn <- conv2_3_1
I0630 19:27:36.262183 38212 net.cpp:411] conv2_3_1_bn -> conv2_3_1_bn
I0630 19:27:36.262411 38212 net.cpp:150] Setting up conv2_3_1_bn
I0630 19:27:36.262433 38212 net.cpp:157] Top shape: 8 64 54 54 (1492992)
I0630 19:27:36.262445 38212 net.cpp:165] Memory required for data: 489879584
I0630 19:27:36.262466 38212 layer_factory.hpp:76] Creating layer conv2_3_1_relu
I0630 19:27:36.262485 38212 net.cpp:106] Creating Layer conv2_3_1_relu
I0630 19:27:36.262500 38212 net.cpp:454] conv2_3_1_relu <- conv2_3_1_bn
I0630 19:27:36.262516 38212 net.cpp:397] conv2_3_1_relu -> conv2_3_1_bn (in-place)
I0630 19:27:36.262719 38212 net.cpp:150] Setting up conv2_3_1_relu
I0630 19:27:36.262742 38212 net.cpp:157] Top shape: 8 64 54 54 (1492992)
I0630 19:27:36.262755 38212 net.cpp:165] Memory required for data: 495851552
I0630 19:27:36.262769 38212 layer_factory.hpp:76] Creating layer conv2_3_2
I0630 19:27:36.262796 38212 net.cpp:106] Creating Layer conv2_3_2
I0630 19:27:36.262814 38212 net.cpp:454] conv2_3_2 <- conv2_3_1_bn
I0630 19:27:36.262835 38212 net.cpp:411] conv2_3_2 -> conv2_3_2
I0630 19:27:36.265018 38212 net.cpp:150] Setting up conv2_3_2
I0630 19:27:36.265043 38212 net.cpp:157] Top shape: 8 64 54 54 (1492992)
I0630 19:27:36.265058 38212 net.cpp:165] Memory required for data: 501823520
I0630 19:27:36.265094 38212 layer_factory.hpp:76] Creating layer conv2_3_2_bn
I0630 19:27:36.265116 38212 net.cpp:106] Creating Layer conv2_3_2_bn
I0630 19:27:36.265132 38212 net.cpp:454] conv2_3_2_bn <- conv2_3_2
I0630 19:27:36.265149 38212 net.cpp:411] conv2_3_2_bn -> conv2_3_2_bn
I0630 19:27:36.265372 38212 net.cpp:150] Setting up conv2_3_2_bn
I0630 19:27:36.265393 38212 net.cpp:157] Top shape: 8 64 54 54 (1492992)
I0630 19:27:36.265405 38212 net.cpp:165] Memory required for data: 507795488
I0630 19:27:36.265426 38212 layer_factory.hpp:76] Creating layer conv2_3_2_relu
I0630 19:27:36.265444 38212 net.cpp:106] Creating Layer conv2_3_2_relu
I0630 19:27:36.265457 38212 net.cpp:454] conv2_3_2_relu <- conv2_3_2_bn
I0630 19:27:36.265473 38212 net.cpp:397] conv2_3_2_relu -> conv2_3_2_bn (in-place)
I0630 19:27:36.265756 38212 net.cpp:150] Setting up conv2_3_2_relu
I0630 19:27:36.265805 38212 net.cpp:157] Top shape: 8 64 54 54 (1492992)
I0630 19:27:36.265817 38212 net.cpp:165] Memory required for data: 513767456
I0630 19:27:36.265843 38212 layer_factory.hpp:76] Creating layer conv2_3_3
I0630 19:27:36.265871 38212 net.cpp:106] Creating Layer conv2_3_3
I0630 19:27:36.265898 38212 net.cpp:454] conv2_3_3 <- conv2_3_2_bn
I0630 19:27:36.265916 38212 net.cpp:411] conv2_3_3 -> conv2_3_3
I0630 19:27:36.267489 38212 cudnn_conv_layer.cpp:194] Reallocating workspace storage: 768
I0630 19:27:36.267529 38212 net.cpp:150] Setting up conv2_3_3
I0630 19:27:36.267549 38212 net.cpp:157] Top shape: 8 256 54 54 (5971968)
I0630 19:27:36.267563 38212 net.cpp:165] Memory required for data: 537655328
I0630 19:27:36.267582 38212 layer_factory.hpp:76] Creating layer conv2_3_sum
I0630 19:27:36.267603 38212 net.cpp:106] Creating Layer conv2_3_sum
I0630 19:27:36.267619 38212 net.cpp:454] conv2_3_sum <- conv2_2_sum_bn_conv2_2_sum_relu_0_split_1
I0630 19:27:36.267634 38212 net.cpp:454] conv2_3_sum <- conv2_3_3
I0630 19:27:36.267652 38212 net.cpp:411] conv2_3_sum -> conv2_3_sum
I0630 19:27:36.267701 38212 net.cpp:150] Setting up conv2_3_sum
I0630 19:27:36.267730 38212 net.cpp:157] Top shape: 8 256 54 54 (5971968)
I0630 19:27:36.267745 38212 net.cpp:165] Memory required for data: 561543200
I0630 19:27:36.267758 38212 layer_factory.hpp:76] Creating layer conv2_3_sum_bn
I0630 19:27:36.267779 38212 net.cpp:106] Creating Layer conv2_3_sum_bn
I0630 19:27:36.267794 38212 net.cpp:454] conv2_3_sum_bn <- conv2_3_sum
I0630 19:27:36.267810 38212 net.cpp:411] conv2_3_sum_bn -> conv2_3_sum_bn
I0630 19:27:36.268061 38212 net.cpp:150] Setting up conv2_3_sum_bn
I0630 19:27:36.268082 38212 net.cpp:157] Top shape: 8 256 54 54 (5971968)
I0630 19:27:36.268096 38212 net.cpp:165] Memory required for data: 585431072
I0630 19:27:36.268117 38212 layer_factory.hpp:76] Creating layer conv2_3_sum_relu
I0630 19:27:36.268146 38212 net.cpp:106] Creating Layer conv2_3_sum_relu
I0630 19:27:36.268160 38212 net.cpp:454] conv2_3_sum_relu <- conv2_3_sum_bn
I0630 19:27:36.268183 38212 net.cpp:397] conv2_3_sum_relu -> conv2_3_sum_bn (in-place)
I0630 19:27:36.268571 38212 net.cpp:150] Setting up conv2_3_sum_relu
I0630 19:27:36.268595 38212 net.cpp:157] Top shape: 8 256 54 54 (5971968)
I0630 19:27:36.268610 38212 net.cpp:165] Memory required for data: 609318944
I0630 19:27:36.268623 38212 layer_factory.hpp:76] Creating layer conv2_3_sum_bn_conv2_3_sum_relu_0_split
I0630 19:27:36.268641 38212 net.cpp:106] Creating Layer conv2_3_sum_bn_conv2_3_sum_relu_0_split
I0630 19:27:36.268656 38212 net.cpp:454] conv2_3_sum_bn_conv2_3_sum_relu_0_split <- conv2_3_sum_bn
I0630 19:27:36.268676 38212 net.cpp:411] conv2_3_sum_bn_conv2_3_sum_relu_0_split -> conv2_3_sum_bn_conv2_3_sum_relu_0_split_0
I0630 19:27:36.268695 38212 net.cpp:411] conv2_3_sum_bn_conv2_3_sum_relu_0_split -> conv2_3_sum_bn_conv2_3_sum_relu_0_split_1
I0630 19:27:36.268765 38212 net.cpp:150] Setting up conv2_3_sum_bn_conv2_3_sum_relu_0_split
I0630 19:27:36.268786 38212 net.cpp:157] Top shape: 8 256 54 54 (5971968)
I0630 19:27:36.268802 38212 net.cpp:157] Top shape: 8 256 54 54 (5971968)
I0630 19:27:36.268815 38212 net.cpp:165] Memory required for data: 657094688
I0630 19:27:36.268846 38212 layer_factory.hpp:76] Creating layer conv2_output
I0630 19:27:36.268872 38212 net.cpp:106] Creating Layer conv2_output
I0630 19:27:36.268888 38212 net.cpp:454] conv2_output <- conv2_3_sum_bn_conv2_3_sum_relu_0_split_0
I0630 19:27:36.268906 38212 net.cpp:411] conv2_output -> conv2_output
I0630 19:27:36.275218 38212 cudnn_conv_layer.cpp:194] Reallocating workspace storage: 3072
I0630 19:27:36.275255 38212 net.cpp:150] Setting up conv2_output
I0630 19:27:36.275275 38212 net.cpp:157] Top shape: 8 512 27 27 (2985984)
I0630 19:27:36.275290 38212 net.cpp:165] Memory required for data: 669038624
I0630 19:27:36.275310 38212 layer_factory.hpp:76] Creating layer conv3_1_1
I0630 19:27:36.275336 38212 net.cpp:106] Creating Layer conv3_1_1
I0630 19:27:36.275353 38212 net.cpp:454] conv3_1_1 <- conv2_3_sum_bn_conv2_3_sum_relu_0_split_1
I0630 19:27:36.275372 38212 net.cpp:411] conv3_1_1 -> conv3_1_1
I0630 19:27:36.277281 38212 cudnn_conv_layer.cpp:194] Reallocating workspace storage: 3072
I0630 19:27:36.277314 38212 net.cpp:150] Setting up conv3_1_1
I0630 19:27:36.277348 38212 net.cpp:157] Top shape: 8 128 27 27 (746496)
I0630 19:27:36.277364 38212 net.cpp:165] Memory required for data: 672024608
I0630 19:27:36.277381 38212 layer_factory.hpp:76] Creating layer conv3_1_1_bn
I0630 19:27:36.277403 38212 net.cpp:106] Creating Layer conv3_1_1_bn
I0630 19:27:36.277418 38212 net.cpp:454] conv3_1_1_bn <- conv3_1_1
I0630 19:27:36.277436 38212 net.cpp:411] conv3_1_1_bn -> conv3_1_1_bn
I0630 19:27:36.277654 38212 net.cpp:150] Setting up conv3_1_1_bn
I0630 19:27:36.277674 38212 net.cpp:157] Top shape: 8 128 27 27 (746496)
I0630 19:27:36.277705 38212 net.cpp:165] Memory required for data: 675010592
I0630 19:27:36.277729 38212 layer_factory.hpp:76] Creating layer conv3_1_1_relu
I0630 19:27:36.277762 38212 net.cpp:106] Creating Layer conv3_1_1_relu
I0630 19:27:36.277788 38212 net.cpp:454] conv3_1_1_relu <- conv3_1_1_bn
I0630 19:27:36.277804 38212 net.cpp:397] conv3_1_1_relu -> conv3_1_1_bn (in-place)
I0630 19:27:36.278229 38212 net.cpp:150] Setting up conv3_1_1_relu
I0630 19:27:36.278256 38212 net.cpp:157] Top shape: 8 128 27 27 (746496)
I0630 19:27:36.278271 38212 net.cpp:165] Memory required for data: 677996576
I0630 19:27:36.278286 38212 layer_factory.hpp:76] Creating layer conv3_1_2
I0630 19:27:36.278307 38212 net.cpp:106] Creating Layer conv3_1_2
I0630 19:27:36.278322 38212 net.cpp:454] conv3_1_2 <- conv3_1_1_bn
I0630 19:27:36.278343 38212 net.cpp:411] conv3_1_2 -> conv3_1_2
I0630 19:27:36.284633 38212 cudnn_conv_layer.cpp:194] Reallocating workspace storage: 13824
I0630 19:27:36.284859 38212 net.cpp:150] Setting up conv3_1_2
I0630 19:27:36.284884 38212 net.cpp:157] Top shape: 8 128 27 27 (746496)
I0630 19:27:36.284898 38212 net.cpp:165] Memory required for data: 680982560
I0630 19:27:36.284929 38212 layer_factory.hpp:76] Creating layer conv3_1_2_bn
I0630 19:27:36.284948 38212 net.cpp:106] Creating Layer conv3_1_2_bn
I0630 19:27:36.284962 38212 net.cpp:454] conv3_1_2_bn <- conv3_1_2
I0630 19:27:36.284981 38212 net.cpp:411] conv3_1_2_bn -> conv3_1_2_bn
I0630 19:27:36.285239 38212 net.cpp:150] Setting up conv3_1_2_bn
I0630 19:27:36.285259 38212 net.cpp:157] Top shape: 8 128 27 27 (746496)
I0630 19:27:36.285274 38212 net.cpp:165] Memory required for data: 683968544
I0630 19:27:36.285295 38212 layer_factory.hpp:76] Creating layer conv3_1_2_relu
I0630 19:27:36.285316 38212 net.cpp:106] Creating Layer conv3_1_2_relu
I0630 19:27:36.285331 38212 net.cpp:454] conv3_1_2_relu <- conv3_1_2_bn
I0630 19:27:36.285359 38212 net.cpp:397] conv3_1_2_relu -> conv3_1_2_bn (in-place)
I0630 19:27:36.285576 38212 net.cpp:150] Setting up conv3_1_2_relu
I0630 19:27:36.285598 38212 net.cpp:157] Top shape: 8 128 27 27 (746496)
I0630 19:27:36.285624 38212 net.cpp:165] Memory required for data: 686954528
I0630 19:27:36.285650 38212 layer_factory.hpp:76] Creating layer conv3_1_3
I0630 19:27:36.285672 38212 net.cpp:106] Creating Layer conv3_1_3
I0630 19:27:36.285694 38212 net.cpp:454] conv3_1_3 <- conv3_1_2_bn
I0630 19:27:36.285714 38212 net.cpp:411] conv3_1_3 -> conv3_1_3
I0630 19:27:36.288857 38212 cudnn_conv_layer.cpp:194] Reallocating workspace storage: 1536
I0630 19:27:36.288894 38212 net.cpp:150] Setting up conv3_1_3
I0630 19:27:36.288914 38212 net.cpp:157] Top shape: 8 512 27 27 (2985984)
I0630 19:27:36.288930 38212 net.cpp:165] Memory required for data: 698898464
I0630 19:27:36.288965 38212 layer_factory.hpp:76] Creating layer conv3_1_sum
I0630 19:27:36.288988 38212 net.cpp:106] Creating Layer conv3_1_sum
I0630 19:27:36.289005 38212 net.cpp:454] conv3_1_sum <- conv2_output
I0630 19:27:36.289021 38212 net.cpp:454] conv3_1_sum <- conv3_1_3
I0630 19:27:36.289038 38212 net.cpp:411] conv3_1_sum -> conv3_1_sum
I0630 19:27:36.289089 38212 net.cpp:150] Setting up conv3_1_sum
I0630 19:27:36.289111 38212 net.cpp:157] Top shape: 8 512 27 27 (2985984)
I0630 19:27:36.289125 38212 net.cpp:165] Memory required for data: 710842400
I0630 19:27:36.289139 38212 layer_factory.hpp:76] Creating layer conv3_1_sum_bn
I0630 19:27:36.289157 38212 net.cpp:106] Creating Layer conv3_1_sum_bn
I0630 19:27:36.289173 38212 net.cpp:454] conv3_1_sum_bn <- conv3_1_sum
I0630 19:27:36.289192 38212 net.cpp:411] conv3_1_sum_bn -> conv3_1_sum_bn
I0630 19:27:36.289415 38212 net.cpp:150] Setting up conv3_1_sum_bn
I0630 19:27:36.289435 38212 net.cpp:157] Top shape: 8 512 27 27 (2985984)
I0630 19:27:36.289448 38212 net.cpp:165] Memory required for data: 722786336
I0630 19:27:36.289469 38212 layer_factory.hpp:76] Creating layer conv3_1_sum_relu
I0630 19:27:36.289490 38212 net.cpp:106] Creating Layer conv3_1_sum_relu
I0630 19:27:36.289505 38212 net.cpp:454] conv3_1_sum_relu <- conv3_1_sum_bn
I0630 19:27:36.289521 38212 net.cpp:397] conv3_1_sum_relu -> conv3_1_sum_bn (in-place)
I0630 19:27:36.289875 38212 net.cpp:150] Setting up conv3_1_sum_relu
I0630 19:27:36.289898 38212 net.cpp:157] Top shape: 8 512 27 27 (2985984)
I0630 19:27:36.289912 38212 net.cpp:165] Memory required for data: 734730272
I0630 19:27:36.289927 38212 layer_factory.hpp:76] Creating layer conv3_1_sum_bn_conv3_1_sum_relu_0_split
I0630 19:27:36.289948 38212 net.cpp:106] Creating Layer conv3_1_sum_bn_conv3_1_sum_relu_0_split
I0630 19:27:36.289963 38212 net.cpp:454] conv3_1_sum_bn_conv3_1_sum_relu_0_split <- conv3_1_sum_bn
I0630 19:27:36.289980 38212 net.cpp:411] conv3_1_sum_bn_conv3_1_sum_relu_0_split -> conv3_1_sum_bn_conv3_1_sum_relu_0_split_0
I0630 19:27:36.289999 38212 net.cpp:411] conv3_1_sum_bn_conv3_1_sum_relu_0_split -> conv3_1_sum_bn_conv3_1_sum_relu_0_split_1
I0630 19:27:36.290084 38212 net.cpp:150] Setting up conv3_1_sum_bn_conv3_1_sum_relu_0_split
I0630 19:27:36.290115 38212 net.cpp:157] Top shape: 8 512 27 27 (2985984)
I0630 19:27:36.290132 38212 net.cpp:157] Top shape: 8 512 27 27 (2985984)
I0630 19:27:36.290144 38212 net.cpp:165] Memory required for data: 758618144
I0630 19:27:36.290158 38212 layer_factory.hpp:76] Creating layer conv3_2_1
I0630 19:27:36.290185 38212 net.cpp:106] Creating Layer conv3_2_1
I0630 19:27:36.290200 38212 net.cpp:454] conv3_2_1 <- conv3_1_sum_bn_conv3_1_sum_relu_0_split_0
I0630 19:27:36.290222 38212 net.cpp:411] conv3_2_1 -> conv3_2_1
I0630 19:27:36.293779 38212 cudnn_conv_layer.cpp:194] Reallocating workspace storage: 6144
I0630 19:27:36.293819 38212 net.cpp:150] Setting up conv3_2_1
I0630 19:27:36.293839 38212 net.cpp:157] Top shape: 8 128 27 27 (746496)
I0630 19:27:36.293854 38212 net.cpp:165] Memory required for data: 761604128
I0630 19:27:36.293874 38212 layer_factory.hpp:76] Creating layer conv3_2_1_bn
I0630 19:27:36.293892 38212 net.cpp:106] Creating Layer conv3_2_1_bn
I0630 19:27:36.293907 38212 net.cpp:454] conv3_2_1_bn <- conv3_2_1
I0630 19:27:36.293928 38212 net.cpp:411] conv3_2_1_bn -> conv3_2_1_bn
I0630 19:27:36.294158 38212 net.cpp:150] Setting up conv3_2_1_bn
I0630 19:27:36.294179 38212 net.cpp:157] Top shape: 8 128 27 27 (746496)
I0630 19:27:36.294193 38212 net.cpp:165] Memory required for data: 764590112
I0630 19:27:36.294214 38212 layer_factory.hpp:76] Creating layer conv3_2_1_relu
I0630 19:27:36.294234 38212 net.cpp:106] Creating Layer conv3_2_1_relu
I0630 19:27:36.294250 38212 net.cpp:454] conv3_2_1_relu <- conv3_2_1_bn
I0630 19:27:36.294286 38212 net.cpp:397] conv3_2_1_relu -> conv3_2_1_bn (in-place)
I0630 19:27:36.294848 38212 net.cpp:150] Setting up conv3_2_1_relu
I0630 19:27:36.294875 38212 net.cpp:157] Top shape: 8 128 27 27 (746496)
I0630 19:27:36.294890 38212 net.cpp:165] Memory required for data: 767576096
I0630 19:27:36.294905 38212 layer_factory.hpp:76] Creating layer conv3_2_2
I0630 19:27:36.294926 38212 net.cpp:106] Creating Layer conv3_2_2
I0630 19:27:36.294941 38212 net.cpp:454] conv3_2_2 <- conv3_2_1_bn
I0630 19:27:36.294962 38212 net.cpp:411] conv3_2_2 -> conv3_2_2
I0630 19:27:36.301262 38212 cudnn_conv_layer.cpp:194] Reallocating workspace storage: 13824
I0630 19:27:36.301300 38212 net.cpp:150] Setting up conv3_2_2
I0630 19:27:36.301319 38212 net.cpp:157] Top shape: 8 128 27 27 (746496)
I0630 19:27:36.301336 38212 net.cpp:165] Memory required for data: 770562080
I0630 19:27:36.301354 38212 layer_factory.hpp:76] Creating layer conv3_2_2_bn
I0630 19:27:36.301378 38212 net.cpp:106] Creating Layer conv3_2_2_bn
I0630 19:27:36.301395 38212 net.cpp:454] conv3_2_2_bn <- conv3_2_2
I0630 19:27:36.301414 38212 net.cpp:411] conv3_2_2_bn -> conv3_2_2_bn
I0630 19:27:36.301643 38212 net.cpp:150] Setting up conv3_2_2_bn
I0630 19:27:36.301663 38212 net.cpp:157] Top shape: 8 128 27 27 (746496)
I0630 19:27:36.301677 38212 net.cpp:165] Memory required for data: 773548064
I0630 19:27:36.301707 38212 layer_factory.hpp:76] Creating layer conv3_2_2_relu
I0630 19:27:36.301738 38212 net.cpp:106] Creating Layer conv3_2_2_relu
I0630 19:27:36.301774 38212 net.cpp:454] conv3_2_2_relu <- conv3_2_2_bn
I0630 19:27:36.301790 38212 net.cpp:397] conv3_2_2_relu -> conv3_2_2_bn (in-place)
I0630 19:27:36.302031 38212 net.cpp:150] Setting up conv3_2_2_relu
I0630 19:27:36.302063 38212 net.cpp:157] Top shape: 8 128 27 27 (746496)
I0630 19:27:36.302078 38212 net.cpp:165] Memory required for data: 776534048
I0630 19:27:36.302091 38212 layer_factory.hpp:76] Creating layer conv3_2_3
I0630 19:27:36.302139 38212 net.cpp:106] Creating Layer conv3_2_3
I0630 19:27:36.302165 38212 net.cpp:454] conv3_2_3 <- conv3_2_2_bn
I0630 19:27:36.302209 38212 net.cpp:411] conv3_2_3 -> conv3_2_3
I0630 19:27:36.305256 38212 cudnn_conv_layer.cpp:194] Reallocating workspace storage: 1536
I0630 19:27:36.305290 38212 net.cpp:150] Setting up conv3_2_3
I0630 19:27:36.305327 38212 net.cpp:157] Top shape: 8 512 27 27 (2985984)
I0630 19:27:36.305342 38212 net.cpp:165] Memory required for data: 788477984
I0630 19:27:36.305361 38212 layer_factory.hpp:76] Creating layer conv3_2_sum
I0630 19:27:36.305379 38212 net.cpp:106] Creating Layer conv3_2_sum
I0630 19:27:36.305393 38212 net.cpp:454] conv3_2_sum <- conv3_1_sum_bn_conv3_1_sum_relu_0_split_1
I0630 19:27:36.305409 38212 net.cpp:454] conv3_2_sum <- conv3_2_3
I0630 19:27:36.305424 38212 net.cpp:411] conv3_2_sum -> conv3_2_sum
I0630 19:27:36.305474 38212 net.cpp:150] Setting up conv3_2_sum
I0630 19:27:36.305493 38212 net.cpp:157] Top shape: 8 512 27 27 (2985984)
I0630 19:27:36.305507 38212 net.cpp:165] Memory required for data: 800421920
I0630 19:27:36.305521 38212 layer_factory.hpp:76] Creating layer conv3_2_sum_bn
I0630 19:27:36.305541 38212 net.cpp:106] Creating Layer conv3_2_sum_bn
I0630 19:27:36.305555 38212 net.cpp:454] conv3_2_sum_bn <- conv3_2_sum
I0630 19:27:36.305572 38212 net.cpp:411] conv3_2_sum_bn -> conv3_2_sum_bn
I0630 19:27:36.305842 38212 net.cpp:150] Setting up conv3_2_sum_bn
I0630 19:27:36.305863 38212 net.cpp:157] Top shape: 8 512 27 27 (2985984)
I0630 19:27:36.305877 38212 net.cpp:165] Memory required for data: 812365856
I0630 19:27:36.305898 38212 layer_factory.hpp:76] Creating layer conv3_2_sum_relu
I0630 19:27:36.305917 38212 net.cpp:106] Creating Layer conv3_2_sum_relu
I0630 19:27:36.305932 38212 net.cpp:454] conv3_2_sum_relu <- conv3_2_sum_bn
I0630 19:27:36.305946 38212 net.cpp:397] conv3_2_sum_relu -> conv3_2_sum_bn (in-place)
I0630 19:27:36.306301 38212 net.cpp:150] Setting up conv3_2_sum_relu
I0630 19:27:36.306325 38212 net.cpp:157] Top shape: 8 512 27 27 (2985984)
I0630 19:27:36.306356 38212 net.cpp:165] Memory required for data: 824309792
I0630 19:27:36.306371 38212 layer_factory.hpp:76] Creating layer conv3_2_sum_bn_conv3_2_sum_relu_0_split
I0630 19:27:36.306390 38212 net.cpp:106] Creating Layer conv3_2_sum_bn_conv3_2_sum_relu_0_split
I0630 19:27:36.306403 38212 net.cpp:454] conv3_2_sum_bn_conv3_2_sum_relu_0_split <- conv3_2_sum_bn
I0630 19:27:36.306421 38212 net.cpp:411] conv3_2_sum_bn_conv3_2_sum_relu_0_split -> conv3_2_sum_bn_conv3_2_sum_relu_0_split_0
I0630 19:27:36.306444 38212 net.cpp:411] conv3_2_sum_bn_conv3_2_sum_relu_0_split -> conv3_2_sum_bn_conv3_2_sum_relu_0_split_1
I0630 19:27:36.306517 38212 net.cpp:150] Setting up conv3_2_sum_bn_conv3_2_sum_relu_0_split
I0630 19:27:36.306536 38212 net.cpp:157] Top shape: 8 512 27 27 (2985984)
I0630 19:27:36.306552 38212 net.cpp:157] Top shape: 8 512 27 27 (2985984)
I0630 19:27:36.306566 38212 net.cpp:165] Memory required for data: 848197664
I0630 19:27:36.306581 38212 layer_factory.hpp:76] Creating layer conv3_3_1
I0630 19:27:36.306604 38212 net.cpp:106] Creating Layer conv3_3_1
I0630 19:27:36.306622 38212 net.cpp:454] conv3_3_1 <- conv3_2_sum_bn_conv3_2_sum_relu_0_split_0
I0630 19:27:36.306639 38212 net.cpp:411] conv3_3_1 -> conv3_3_1
I0630 19:27:36.309602 38212 cudnn_conv_layer.cpp:194] Reallocating workspace storage: 6144
I0630 19:27:36.309638 38212 net.cpp:150] Setting up conv3_3_1
I0630 19:27:36.309659 38212 net.cpp:157] Top shape: 8 128 27 27 (746496)
I0630 19:27:36.309674 38212 net.cpp:165] Memory required for data: 851183648
I0630 19:27:36.309700 38212 layer_factory.hpp:76] Creating layer conv3_3_1_bn
I0630 19:27:36.309732 38212 net.cpp:106] Creating Layer conv3_3_1_bn
I0630 19:27:36.309751 38212 net.cpp:454] conv3_3_1_bn <- conv3_3_1
I0630 19:27:36.309768 38212 net.cpp:411] conv3_3_1_bn -> conv3_3_1_bn
I0630 19:27:36.310000 38212 net.cpp:150] Setting up conv3_3_1_bn
I0630 19:27:36.310021 38212 net.cpp:157] Top shape: 8 128 27 27 (746496)
I0630 19:27:36.310034 38212 net.cpp:165] Memory required for data: 854169632
I0630 19:27:36.310055 38212 layer_factory.hpp:76] Creating layer conv3_3_1_relu
I0630 19:27:36.310073 38212 net.cpp:106] Creating Layer conv3_3_1_relu
I0630 19:27:36.310088 38212 net.cpp:454] conv3_3_1_relu <- conv3_3_1_bn
I0630 19:27:36.310107 38212 net.cpp:397] conv3_3_1_relu -> conv3_3_1_bn (in-place)
I0630 19:27:36.310492 38212 net.cpp:150] Setting up conv3_3_1_relu
I0630 19:27:36.310515 38212 net.cpp:157] Top shape: 8 128 27 27 (746496)
I0630 19:27:36.310529 38212 net.cpp:165] Memory required for data: 857155616
I0630 19:27:36.310544 38212 layer_factory.hpp:76] Creating layer conv3_3_2
I0630 19:27:36.310569 38212 net.cpp:106] Creating Layer conv3_3_2
I0630 19:27:36.310583 38212 net.cpp:454] conv3_3_2 <- conv3_3_1_bn
I0630 19:27:36.310606 38212 net.cpp:411] conv3_3_2 -> conv3_3_2
I0630 19:27:36.318737 38212 cudnn_conv_layer.cpp:194] Reallocating workspace storage: 13824
I0630 19:27:36.318778 38212 net.cpp:150] Setting up conv3_3_2
I0630 19:27:36.318799 38212 net.cpp:157] Top shape: 8 128 27 27 (746496)
I0630 19:27:36.318826 38212 net.cpp:165] Memory required for data: 860141600
I0630 19:27:36.318846 38212 layer_factory.hpp:76] Creating layer conv3_3_2_bn
I0630 19:27:36.318869 38212 net.cpp:106] Creating Layer conv3_3_2_bn
I0630 19:27:36.318886 38212 net.cpp:454] conv3_3_2_bn <- conv3_3_2
I0630 19:27:36.318903 38212 net.cpp:411] conv3_3_2_bn -> conv3_3_2_bn
I0630 19:27:36.319165 38212 net.cpp:150] Setting up conv3_3_2_bn
I0630 19:27:36.319187 38212 net.cpp:157] Top shape: 8 128 27 27 (746496)
I0630 19:27:36.319200 38212 net.cpp:165] Memory required for data: 863127584
I0630 19:27:36.319245 38212 layer_factory.hpp:76] Creating layer conv3_3_2_relu
I0630 19:27:36.319275 38212 net.cpp:106] Creating Layer conv3_3_2_relu
I0630 19:27:36.319290 38212 net.cpp:454] conv3_3_2_relu <- conv3_3_2_bn
I0630 19:27:36.319306 38212 net.cpp:397] conv3_3_2_relu -> conv3_3_2_bn (in-place)
I0630 19:27:36.319558 38212 net.cpp:150] Setting up conv3_3_2_relu
I0630 19:27:36.319591 38212 net.cpp:157] Top shape: 8 128 27 27 (746496)
I0630 19:27:36.319622 38212 net.cpp:165] Memory required for data: 866113568
I0630 19:27:36.319648 38212 layer_factory.hpp:76] Creating layer conv3_3_3
I0630 19:27:36.319674 38212 net.cpp:106] Creating Layer conv3_3_3
I0630 19:27:36.319701 38212 net.cpp:454] conv3_3_3 <- conv3_3_2_bn
I0630 19:27:36.319721 38212 net.cpp:411] conv3_3_3 -> conv3_3_3
I0630 19:27:36.322861 38212 cudnn_conv_layer.cpp:194] Reallocating workspace storage: 1536
I0630 19:27:36.322899 38212 net.cpp:150] Setting up conv3_3_3
I0630 19:27:36.322923 38212 net.cpp:157] Top shape: 8 512 27 27 (2985984)
I0630 19:27:36.322939 38212 net.cpp:165] Memory required for data: 878057504
I0630 19:27:36.322959 38212 layer_factory.hpp:76] Creating layer conv3_3_sum
I0630 19:27:36.322978 38212 net.cpp:106] Creating Layer conv3_3_sum
I0630 19:27:36.322993 38212 net.cpp:454] conv3_3_sum <- conv3_2_sum_bn_conv3_2_sum_relu_0_split_1
I0630 19:27:36.323009 38212 net.cpp:454] conv3_3_sum <- conv3_3_3
I0630 19:27:36.323027 38212 net.cpp:411] conv3_3_sum -> conv3_3_sum
I0630 19:27:36.323077 38212 net.cpp:150] Setting up conv3_3_sum
I0630 19:27:36.323097 38212 net.cpp:157] Top shape: 8 512 27 27 (2985984)
I0630 19:27:36.323110 38212 net.cpp:165] Memory required for data: 890001440
I0630 19:27:36.323125 38212 layer_factory.hpp:76] Creating layer conv3_3_sum_bn
I0630 19:27:36.323146 38212 net.cpp:106] Creating Layer conv3_3_sum_bn
I0630 19:27:36.323161 38212 net.cpp:454] conv3_3_sum_bn <- conv3_3_sum
I0630 19:27:36.323177 38212 net.cpp:411] conv3_3_sum_bn -> conv3_3_sum_bn
I0630 19:27:36.323462 38212 net.cpp:150] Setting up conv3_3_sum_bn
I0630 19:27:36.323482 38212 net.cpp:157] Top shape: 8 512 27 27 (2985984)
I0630 19:27:36.323495 38212 net.cpp:165] Memory required for data: 901945376
I0630 19:27:36.323516 38212 layer_factory.hpp:76] Creating layer conv3_3_sum_relu
I0630 19:27:36.323534 38212 net.cpp:106] Creating Layer conv3_3_sum_relu
I0630 19:27:36.323549 38212 net.cpp:454] conv3_3_sum_relu <- conv3_3_sum_bn
I0630 19:27:36.323568 38212 net.cpp:397] conv3_3_sum_relu -> conv3_3_sum_bn (in-place)
I0630 19:27:36.323921 38212 net.cpp:150] Setting up conv3_3_sum_relu
I0630 19:27:36.323945 38212 net.cpp:157] Top shape: 8 512 27 27 (2985984)
I0630 19:27:36.323959 38212 net.cpp:165] Memory required for data: 913889312
I0630 19:27:36.323974 38212 layer_factory.hpp:76] Creating layer conv3_3_sum_bn_conv3_3_sum_relu_0_split
I0630 19:27:36.323992 38212 net.cpp:106] Creating Layer conv3_3_sum_bn_conv3_3_sum_relu_0_split
I0630 19:27:36.324007 38212 net.cpp:454] conv3_3_sum_bn_conv3_3_sum_relu_0_split <- conv3_3_sum_bn
I0630 19:27:36.324031 38212 net.cpp:411] conv3_3_sum_bn_conv3_3_sum_relu_0_split -> conv3_3_sum_bn_conv3_3_sum_relu_0_split_0
I0630 19:27:36.324051 38212 net.cpp:411] conv3_3_sum_bn_conv3_3_sum_relu_0_split -> conv3_3_sum_bn_conv3_3_sum_relu_0_split_1
I0630 19:27:36.324126 38212 net.cpp:150] Setting up conv3_3_sum_bn_conv3_3_sum_relu_0_split
I0630 19:27:36.324147 38212 net.cpp:157] Top shape: 8 512 27 27 (2985984)
I0630 19:27:36.324163 38212 net.cpp:157] Top shape: 8 512 27 27 (2985984)
I0630 19:27:36.324177 38212 net.cpp:165] Memory required for data: 937777184
I0630 19:27:36.324190 38212 layer_factory.hpp:76] Creating layer conv3_4_1
I0630 19:27:36.324215 38212 net.cpp:106] Creating Layer conv3_4_1
I0630 19:27:36.324231 38212 net.cpp:454] conv3_4_1 <- conv3_3_sum_bn_conv3_3_sum_relu_0_split_0
I0630 19:27:36.324249 38212 net.cpp:411] conv3_4_1 -> conv3_4_1
I0630 19:27:36.327836 38212 cudnn_conv_layer.cpp:194] Reallocating workspace storage: 6144
I0630 19:27:36.327875 38212 net.cpp:150] Setting up conv3_4_1
I0630 19:27:36.327895 38212 net.cpp:157] Top shape: 8 128 27 27 (746496)
I0630 19:27:36.327910 38212 net.cpp:165] Memory required for data: 940763168
I0630 19:27:36.327930 38212 layer_factory.hpp:76] Creating layer conv3_4_1_bn
I0630 19:27:36.327952 38212 net.cpp:106] Creating Layer conv3_4_1_bn
I0630 19:27:36.327968 38212 net.cpp:454] conv3_4_1_bn <- conv3_4_1
I0630 19:27:36.327986 38212 net.cpp:411] conv3_4_1_bn -> conv3_4_1_bn
I0630 19:27:36.328229 38212 net.cpp:150] Setting up conv3_4_1_bn
I0630 19:27:36.328265 38212 net.cpp:157] Top shape: 8 128 27 27 (746496)
I0630 19:27:36.328279 38212 net.cpp:165] Memory required for data: 943749152
I0630 19:27:36.328300 38212 layer_factory.hpp:76] Creating layer conv3_4_1_relu
I0630 19:27:36.328333 38212 net.cpp:106] Creating Layer conv3_4_1_relu
I0630 19:27:36.328348 38212 net.cpp:454] conv3_4_1_relu <- conv3_4_1_bn
I0630 19:27:36.328364 38212 net.cpp:397] conv3_4_1_relu -> conv3_4_1_bn (in-place)
I0630 19:27:36.328749 38212 net.cpp:150] Setting up conv3_4_1_relu
I0630 19:27:36.328773 38212 net.cpp:157] Top shape: 8 128 27 27 (746496)
I0630 19:27:36.328785 38212 net.cpp:165] Memory required for data: 946735136
I0630 19:27:36.328800 38212 layer_factory.hpp:76] Creating layer conv3_4_2
I0630 19:27:36.328825 38212 net.cpp:106] Creating Layer conv3_4_2
I0630 19:27:36.328840 38212 net.cpp:454] conv3_4_2 <- conv3_4_1_bn
I0630 19:27:36.328857 38212 net.cpp:411] conv3_4_2 -> conv3_4_2
I0630 19:27:36.335111 38212 cudnn_conv_layer.cpp:194] Reallocating workspace storage: 13824
I0630 19:27:36.335146 38212 net.cpp:150] Setting up conv3_4_2
I0630 19:27:36.335166 38212 net.cpp:157] Top shape: 8 128 27 27 (746496)
I0630 19:27:36.335192 38212 net.cpp:165] Memory required for data: 949721120
I0630 19:27:36.335211 38212 layer_factory.hpp:76] Creating layer conv3_4_2_bn
I0630 19:27:36.335232 38212 net.cpp:106] Creating Layer conv3_4_2_bn
I0630 19:27:36.335248 38212 net.cpp:454] conv3_4_2_bn <- conv3_4_2
I0630 19:27:36.335268 38212 net.cpp:411] conv3_4_2_bn -> conv3_4_2_bn
I0630 19:27:36.335515 38212 net.cpp:150] Setting up conv3_4_2_bn
I0630 19:27:36.335535 38212 net.cpp:157] Top shape: 8 128 27 27 (746496)
I0630 19:27:36.335546 38212 net.cpp:165] Memory required for data: 952707104
I0630 19:27:36.335590 38212 layer_factory.hpp:76] Creating layer conv3_4_2_relu
I0630 19:27:36.335608 38212 net.cpp:106] Creating Layer conv3_4_2_relu
I0630 19:27:36.335623 38212 net.cpp:454] conv3_4_2_relu <- conv3_4_2_bn
I0630 19:27:36.335640 38212 net.cpp:397] conv3_4_2_relu -> conv3_4_2_bn (in-place)
I0630 19:27:36.335855 38212 net.cpp:150] Setting up conv3_4_2_relu
I0630 19:27:36.335877 38212 net.cpp:157] Top shape: 8 128 27 27 (746496)
I0630 19:27:36.335891 38212 net.cpp:165] Memory required for data: 955693088
I0630 19:27:36.335906 38212 layer_factory.hpp:76] Creating layer conv3_4_3
I0630 19:27:36.335934 38212 net.cpp:106] Creating Layer conv3_4_3
I0630 19:27:36.335950 38212 net.cpp:454] conv3_4_3 <- conv3_4_2_bn
I0630 19:27:36.335969 38212 net.cpp:411] conv3_4_3 -> conv3_4_3
I0630 19:27:36.339311 38212 cudnn_conv_layer.cpp:194] Reallocating workspace storage: 1536
I0630 19:27:36.339354 38212 net.cpp:150] Setting up conv3_4_3
I0630 19:27:36.339375 38212 net.cpp:157] Top shape: 8 512 27 27 (2985984)
I0630 19:27:36.339390 38212 net.cpp:165] Memory required for data: 967637024
I0630 19:27:36.339409 38212 layer_factory.hpp:76] Creating layer conv3_4_sum
I0630 19:27:36.339428 38212 net.cpp:106] Creating Layer conv3_4_sum
I0630 19:27:36.339444 38212 net.cpp:454] conv3_4_sum <- conv3_3_sum_bn_conv3_3_sum_relu_0_split_1
I0630 19:27:36.339459 38212 net.cpp:454] conv3_4_sum <- conv3_4_3
I0630 19:27:36.339481 38212 net.cpp:411] conv3_4_sum -> conv3_4_sum
I0630 19:27:36.339536 38212 net.cpp:150] Setting up conv3_4_sum
I0630 19:27:36.339568 38212 net.cpp:157] Top shape: 8 512 27 27 (2985984)
I0630 19:27:36.339583 38212 net.cpp:165] Memory required for data: 979580960
I0630 19:27:36.339597 38212 layer_factory.hpp:76] Creating layer conv3_4_sum_bn
I0630 19:27:36.339623 38212 net.cpp:106] Creating Layer conv3_4_sum_bn
I0630 19:27:36.339639 38212 net.cpp:454] conv3_4_sum_bn <- conv3_4_sum
I0630 19:27:36.339659 38212 net.cpp:411] conv3_4_sum_bn -> conv3_4_sum_bn
I0630 19:27:36.339932 38212 net.cpp:150] Setting up conv3_4_sum_bn
I0630 19:27:36.339956 38212 net.cpp:157] Top shape: 8 512 27 27 (2985984)
I0630 19:27:36.339968 38212 net.cpp:165] Memory required for data: 991524896
I0630 19:27:36.339989 38212 layer_factory.hpp:76] Creating layer conv3_4_sum_relu
I0630 19:27:36.340008 38212 net.cpp:106] Creating Layer conv3_4_sum_relu
I0630 19:27:36.340041 38212 net.cpp:454] conv3_4_sum_relu <- conv3_4_sum_bn
I0630 19:27:36.340059 38212 net.cpp:397] conv3_4_sum_relu -> conv3_4_sum_bn (in-place)
I0630 19:27:36.340965 38212 net.cpp:150] Setting up conv3_4_sum_relu
I0630 19:27:36.340988 38212 net.cpp:157] Top shape: 8 512 27 27 (2985984)
I0630 19:27:36.341002 38212 net.cpp:165] Memory required for data: 1003468832
I0630 19:27:36.341018 38212 layer_factory.hpp:76] Creating layer conv3_4_sum_bn_conv3_4_sum_relu_0_split
I0630 19:27:36.341037 38212 net.cpp:106] Creating Layer conv3_4_sum_bn_conv3_4_sum_relu_0_split
I0630 19:27:36.341050 38212 net.cpp:454] conv3_4_sum_bn_conv3_4_sum_relu_0_split <- conv3_4_sum_bn
I0630 19:27:36.341071 38212 net.cpp:411] conv3_4_sum_bn_conv3_4_sum_relu_0_split -> conv3_4_sum_bn_conv3_4_sum_relu_0_split_0
I0630 19:27:36.341090 38212 net.cpp:411] conv3_4_sum_bn_conv3_4_sum_relu_0_split -> conv3_4_sum_bn_conv3_4_sum_relu_0_split_1
I0630 19:27:36.341166 38212 net.cpp:150] Setting up conv3_4_sum_bn_conv3_4_sum_relu_0_split
I0630 19:27:36.341190 38212 net.cpp:157] Top shape: 8 512 27 27 (2985984)
I0630 19:27:36.341207 38212 net.cpp:157] Top shape: 8 512 27 27 (2985984)
I0630 19:27:36.341220 38212 net.cpp:165] Memory required for data: 1027356704
I0630 19:27:36.341233 38212 layer_factory.hpp:76] Creating layer conv3_5_1
I0630 19:27:36.341258 38212 net.cpp:106] Creating Layer conv3_5_1
I0630 19:27:36.341272 38212 net.cpp:454] conv3_5_1 <- conv3_4_sum_bn_conv3_4_sum_relu_0_split_0
I0630 19:27:36.341291 38212 net.cpp:411] conv3_5_1 -> conv3_5_1
I0630 19:27:36.344529 38212 cudnn_conv_layer.cpp:194] Reallocating workspace storage: 6144
I0630 19:27:36.344568 38212 net.cpp:150] Setting up conv3_5_1
I0630 19:27:36.344588 38212 net.cpp:157] Top shape: 8 128 27 27 (746496)
I0630 19:27:36.344604 38212 net.cpp:165] Memory required for data: 1030342688
I0630 19:27:36.344622 38212 layer_factory.hpp:76] Creating layer conv3_5_1_bn
I0630 19:27:36.344645 38212 net.cpp:106] Creating Layer conv3_5_1_bn
I0630 19:27:36.344660 38212 net.cpp:454] conv3_5_1_bn <- conv3_5_1
I0630 19:27:36.344681 38212 net.cpp:411] conv3_5_1_bn -> conv3_5_1_bn
I0630 19:27:36.344930 38212 net.cpp:150] Setting up conv3_5_1_bn
I0630 19:27:36.344951 38212 net.cpp:157] Top shape: 8 128 27 27 (746496)
I0630 19:27:36.344964 38212 net.cpp:165] Memory required for data: 1033328672
I0630 19:27:36.344985 38212 layer_factory.hpp:76] Creating layer conv3_5_1_relu
I0630 19:27:36.345003 38212 net.cpp:106] Creating Layer conv3_5_1_relu
I0630 19:27:36.345017 38212 net.cpp:454] conv3_5_1_relu <- conv3_5_1_bn
I0630 19:27:36.345034 38212 net.cpp:397] conv3_5_1_relu -> conv3_5_1_bn (in-place)
I0630 19:27:36.345569 38212 net.cpp:150] Setting up conv3_5_1_relu
I0630 19:27:36.345593 38212 net.cpp:157] Top shape: 8 128 27 27 (746496)
I0630 19:27:36.345607 38212 net.cpp:165] Memory required for data: 1036314656
I0630 19:27:36.345623 38212 layer_factory.hpp:76] Creating layer conv3_5_2
I0630 19:27:36.345646 38212 net.cpp:106] Creating Layer conv3_5_2
I0630 19:27:36.345662 38212 net.cpp:454] conv3_5_2 <- conv3_5_1_bn
I0630 19:27:36.345685 38212 net.cpp:411] conv3_5_2 -> conv3_5_2
I0630 19:27:36.352515 38212 cudnn_conv_layer.cpp:194] Reallocating workspace storage: 13824
I0630 19:27:36.352551 38212 net.cpp:150] Setting up conv3_5_2
I0630 19:27:36.352571 38212 net.cpp:157] Top shape: 8 128 27 27 (746496)
I0630 19:27:36.352586 38212 net.cpp:165] Memory required for data: 1039300640
I0630 19:27:36.352605 38212 layer_factory.hpp:76] Creating layer conv3_5_2_bn
I0630 19:27:36.352629 38212 net.cpp:106] Creating Layer conv3_5_2_bn
I0630 19:27:36.352645 38212 net.cpp:454] conv3_5_2_bn <- conv3_5_2
I0630 19:27:36.352663 38212 net.cpp:411] conv3_5_2_bn -> conv3_5_2_bn
I0630 19:27:36.352908 38212 net.cpp:150] Setting up conv3_5_2_bn
I0630 19:27:36.352929 38212 net.cpp:157] Top shape: 8 128 27 27 (746496)
I0630 19:27:36.352941 38212 net.cpp:165] Memory required for data: 1042286624
I0630 19:27:36.352962 38212 layer_factory.hpp:76] Creating layer conv3_5_2_relu
I0630 19:27:36.352979 38212 net.cpp:106] Creating Layer conv3_5_2_relu
I0630 19:27:36.353011 38212 net.cpp:454] conv3_5_2_relu <- conv3_5_2_bn
I0630 19:27:36.353029 38212 net.cpp:397] conv3_5_2_relu -> conv3_5_2_bn (in-place)
I0630 19:27:36.353238 38212 net.cpp:150] Setting up conv3_5_2_relu
I0630 19:27:36.353260 38212 net.cpp:157] Top shape: 8 128 27 27 (746496)
I0630 19:27:36.353272 38212 net.cpp:165] Memory required for data: 1045272608
I0630 19:27:36.353286 38212 layer_factory.hpp:76] Creating layer conv3_5_3
I0630 19:27:36.353309 38212 net.cpp:106] Creating Layer conv3_5_3
I0630 19:27:36.353324 38212 net.cpp:454] conv3_5_3 <- conv3_5_2_bn
I0630 19:27:36.353341 38212 net.cpp:411] conv3_5_3 -> conv3_5_3
I0630 19:27:36.358703 38212 cudnn_conv_layer.cpp:194] Reallocating workspace storage: 1536
I0630 19:27:36.358744 38212 net.cpp:150] Setting up conv3_5_3
I0630 19:27:36.358764 38212 net.cpp:157] Top shape: 8 512 27 27 (2985984)
I0630 19:27:36.358778 38212 net.cpp:165] Memory required for data: 1057216544
I0630 19:27:36.358798 38212 layer_factory.hpp:76] Creating layer conv3_5_sum
I0630 19:27:36.358831 38212 net.cpp:106] Creating Layer conv3_5_sum
I0630 19:27:36.358847 38212 net.cpp:454] conv3_5_sum <- conv3_4_sum_bn_conv3_4_sum_relu_0_split_1
I0630 19:27:36.358865 38212 net.cpp:454] conv3_5_sum <- conv3_5_3
I0630 19:27:36.358881 38212 net.cpp:411] conv3_5_sum -> conv3_5_sum
I0630 19:27:36.358935 38212 net.cpp:150] Setting up conv3_5_sum
I0630 19:27:36.358958 38212 net.cpp:157] Top shape: 8 512 27 27 (2985984)
I0630 19:27:36.358971 38212 net.cpp:165] Memory required for data: 1069160480
I0630 19:27:36.358985 38212 layer_factory.hpp:76] Creating layer conv3_5_sum_bn
I0630 19:27:36.359005 38212 net.cpp:106] Creating Layer conv3_5_sum_bn
I0630 19:27:36.359021 38212 net.cpp:454] conv3_5_sum_bn <- conv3_5_sum
I0630 19:27:36.359037 38212 net.cpp:411] conv3_5_sum_bn -> conv3_5_sum_bn
I0630 19:27:36.359292 38212 net.cpp:150] Setting up conv3_5_sum_bn
I0630 19:27:36.359311 38212 net.cpp:157] Top shape: 8 512 27 27 (2985984)
I0630 19:27:36.359324 38212 net.cpp:165] Memory required for data: 1081104416
I0630 19:27:36.359390 38212 layer_factory.hpp:76] Creating layer conv3_5_sum_relu
I0630 19:27:36.359412 38212 net.cpp:106] Creating Layer conv3_5_sum_relu
I0630 19:27:36.359428 38212 net.cpp:454] conv3_5_sum_relu <- conv3_5_sum_bn
I0630 19:27:36.359447 38212 net.cpp:397] conv3_5_sum_relu -> conv3_5_sum_bn (in-place)
I0630 19:27:36.360143 38212 net.cpp:150] Setting up conv3_5_sum_relu
I0630 19:27:36.360170 38212 net.cpp:157] Top shape: 8 512 27 27 (2985984)
I0630 19:27:36.360185 38212 net.cpp:165] Memory required for data: 1093048352
I0630 19:27:36.360199 38212 layer_factory.hpp:76] Creating layer conv3_5_sum_bn_conv3_5_sum_relu_0_split
I0630 19:27:36.360218 38212 net.cpp:106] Creating Layer conv3_5_sum_bn_conv3_5_sum_relu_0_split
I0630 19:27:36.360231 38212 net.cpp:454] conv3_5_sum_bn_conv3_5_sum_relu_0_split <- conv3_5_sum_bn
I0630 19:27:36.360252 38212 net.cpp:411] conv3_5_sum_bn_conv3_5_sum_relu_0_split -> conv3_5_sum_bn_conv3_5_sum_relu_0_split_0
I0630 19:27:36.360285 38212 net.cpp:411] conv3_5_sum_bn_conv3_5_sum_relu_0_split -> conv3_5_sum_bn_conv3_5_sum_relu_0_split_1
I0630 19:27:36.360375 38212 net.cpp:150] Setting up conv3_5_sum_bn_conv3_5_sum_relu_0_split
I0630 19:27:36.360395 38212 net.cpp:157] Top shape: 8 512 27 27 (2985984)
I0630 19:27:36.360410 38212 net.cpp:157] Top shape: 8 512 27 27 (2985984)
I0630 19:27:36.360424 38212 net.cpp:165] Memory required for data: 1116936224
I0630 19:27:36.360437 38212 layer_factory.hpp:76] Creating layer conv3_6_1
I0630 19:27:36.360460 38212 net.cpp:106] Creating Layer conv3_6_1
I0630 19:27:36.360476 38212 net.cpp:454] conv3_6_1 <- conv3_5_sum_bn_conv3_5_sum_relu_0_split_0
I0630 19:27:36.360492 38212 net.cpp:411] conv3_6_1 -> conv3_6_1
I0630 19:27:36.371060 38212 cudnn_conv_layer.cpp:194] Reallocating workspace storage: 6144
I0630 19:27:36.371100 38212 net.cpp:150] Setting up conv3_6_1
I0630 19:27:36.371121 38212 net.cpp:157] Top shape: 8 128 27 27 (746496)
I0630 19:27:36.371136 38212 net.cpp:165] Memory required for data: 1119922208
I0630 19:27:36.371172 38212 layer_factory.hpp:76] Creating layer conv3_6_1_bn
I0630 19:27:36.371196 38212 net.cpp:106] Creating Layer conv3_6_1_bn
I0630 19:27:36.371212 38212 net.cpp:454] conv3_6_1_bn <- conv3_6_1
I0630 19:27:36.371228 38212 net.cpp:411] conv3_6_1_bn -> conv3_6_1_bn
I0630 19:27:36.371484 38212 net.cpp:150] Setting up conv3_6_1_bn
I0630 19:27:36.371505 38212 net.cpp:157] Top shape: 8 128 27 27 (746496)
I0630 19:27:36.371517 38212 net.cpp:165] Memory required for data: 1122908192
I0630 19:27:36.371537 38212 layer_factory.hpp:76] Creating layer conv3_6_1_relu
I0630 19:27:36.371556 38212 net.cpp:106] Creating Layer conv3_6_1_relu
I0630 19:27:36.371570 38212 net.cpp:454] conv3_6_1_relu <- conv3_6_1_bn
I0630 19:27:36.371585 38212 net.cpp:397] conv3_6_1_relu -> conv3_6_1_bn (in-place)
I0630 19:27:36.379637 38212 net.cpp:150] Setting up conv3_6_1_relu
I0630 19:27:36.379663 38212 net.cpp:157] Top shape: 8 128 27 27 (746496)
I0630 19:27:36.379678 38212 net.cpp:165] Memory required for data: 1125894176
I0630 19:27:36.379693 38212 layer_factory.hpp:76] Creating layer conv3_6_2
I0630 19:27:36.379715 38212 net.cpp:106] Creating Layer conv3_6_2
I0630 19:27:36.379730 38212 net.cpp:454] conv3_6_2 <- conv3_6_1_bn
I0630 19:27:36.379751 38212 net.cpp:411] conv3_6_2 -> conv3_6_2
I0630 19:27:36.398155 38212 cudnn_conv_layer.cpp:194] Reallocating workspace storage: 13824
I0630 19:27:36.398195 38212 net.cpp:150] Setting up conv3_6_2
I0630 19:27:36.398216 38212 net.cpp:157] Top shape: 8 128 27 27 (746496)
I0630 19:27:36.398231 38212 net.cpp:165] Memory required for data: 1128880160
I0630 19:27:36.398250 38212 layer_factory.hpp:76] Creating layer conv3_6_2_bn
I0630 19:27:36.398272 38212 net.cpp:106] Creating Layer conv3_6_2_bn
I0630 19:27:36.398288 38212 net.cpp:454] conv3_6_2_bn <- conv3_6_2
I0630 19:27:36.398309 38212 net.cpp:411] conv3_6_2_bn -> conv3_6_2_bn
I0630 19:27:36.398562 38212 net.cpp:150] Setting up conv3_6_2_bn
I0630 19:27:36.398583 38212 net.cpp:157] Top shape: 8 128 27 27 (746496)
I0630 19:27:36.398596 38212 net.cpp:165] Memory required for data: 1131866144
I0630 19:27:36.398614 38212 layer_factory.hpp:76] Creating layer conv3_6_2_relu
I0630 19:27:36.398633 38212 net.cpp:106] Creating Layer conv3_6_2_relu
I0630 19:27:36.398648 38212 net.cpp:454] conv3_6_2_relu <- conv3_6_2_bn
I0630 19:27:36.398663 38212 net.cpp:397] conv3_6_2_relu -> conv3_6_2_bn (in-place)
I0630 19:27:36.398877 38212 net.cpp:150] Setting up conv3_6_2_relu
I0630 19:27:36.398898 38212 net.cpp:157] Top shape: 8 128 27 27 (746496)
I0630 19:27:36.398911 38212 net.cpp:165] Memory required for data: 1134852128
I0630 19:27:36.398926 38212 layer_factory.hpp:76] Creating layer conv3_6_3
I0630 19:27:36.398950 38212 net.cpp:106] Creating Layer conv3_6_3
I0630 19:27:36.398965 38212 net.cpp:454] conv3_6_3 <- conv3_6_2_bn
I0630 19:27:36.398983 38212 net.cpp:411] conv3_6_3 -> conv3_6_3
I0630 19:27:36.402384 38212 cudnn_conv_layer.cpp:194] Reallocating workspace storage: 1536
I0630 19:27:36.402433 38212 net.cpp:150] Setting up conv3_6_3
I0630 19:27:36.402454 38212 net.cpp:157] Top shape: 8 512 27 27 (2985984)
I0630 19:27:36.402468 38212 net.cpp:165] Memory required for data: 1146796064
I0630 19:27:36.402487 38212 layer_factory.hpp:76] Creating layer conv3_6_sum
I0630 19:27:36.402506 38212 net.cpp:106] Creating Layer conv3_6_sum
I0630 19:27:36.402521 38212 net.cpp:454] conv3_6_sum <- conv3_5_sum_bn_conv3_5_sum_relu_0_split_1
I0630 19:27:36.402540 38212 net.cpp:454] conv3_6_sum <- conv3_6_3
I0630 19:27:36.402559 38212 net.cpp:411] conv3_6_sum -> conv3_6_sum
I0630 19:27:36.402611 38212 net.cpp:150] Setting up conv3_6_sum
I0630 19:27:36.402638 38212 net.cpp:157] Top shape: 8 512 27 27 (2985984)
I0630 19:27:36.402652 38212 net.cpp:165] Memory required for data: 1158740000
I0630 19:27:36.402667 38212 layer_factory.hpp:76] Creating layer conv3_6_sum_bn
I0630 19:27:36.402688 38212 net.cpp:106] Creating Layer conv3_6_sum_bn
I0630 19:27:36.402704 38212 net.cpp:454] conv3_6_sum_bn <- conv3_6_sum
I0630 19:27:36.402721 38212 net.cpp:411] conv3_6_sum_bn -> conv3_6_sum_bn
I0630 19:27:36.402981 38212 net.cpp:150] Setting up conv3_6_sum_bn
I0630 19:27:36.403000 38212 net.cpp:157] Top shape: 8 512 27 27 (2985984)
I0630 19:27:36.403012 38212 net.cpp:165] Memory required for data: 1170683936
I0630 19:27:36.403033 38212 layer_factory.hpp:76] Creating layer conv3_6_sum_relu
I0630 19:27:36.403051 38212 net.cpp:106] Creating Layer conv3_6_sum_relu
I0630 19:27:36.403065 38212 net.cpp:454] conv3_6_sum_relu <- conv3_6_sum_bn
I0630 19:27:36.403080 38212 net.cpp:397] conv3_6_sum_relu -> conv3_6_sum_bn (in-place)
I0630 19:27:36.403434 38212 net.cpp:150] Setting up conv3_6_sum_relu
I0630 19:27:36.403457 38212 net.cpp:157] Top shape: 8 512 27 27 (2985984)
I0630 19:27:36.403471 38212 net.cpp:165] Memory required for data: 1182627872
I0630 19:27:36.403486 38212 layer_factory.hpp:76] Creating layer conv3_6_sum_bn_conv3_6_sum_relu_0_split
I0630 19:27:36.403506 38212 net.cpp:106] Creating Layer conv3_6_sum_bn_conv3_6_sum_relu_0_split
I0630 19:27:36.403520 38212 net.cpp:454] conv3_6_sum_bn_conv3_6_sum_relu_0_split <- conv3_6_sum_bn
I0630 19:27:36.403537 38212 net.cpp:411] conv3_6_sum_bn_conv3_6_sum_relu_0_split -> conv3_6_sum_bn_conv3_6_sum_relu_0_split_0
I0630 19:27:36.403556 38212 net.cpp:411] conv3_6_sum_bn_conv3_6_sum_relu_0_split -> conv3_6_sum_bn_conv3_6_sum_relu_0_split_1
I0630 19:27:36.403633 38212 net.cpp:150] Setting up conv3_6_sum_bn_conv3_6_sum_relu_0_split
I0630 19:27:36.403653 38212 net.cpp:157] Top shape: 8 512 27 27 (2985984)
I0630 19:27:36.403668 38212 net.cpp:157] Top shape: 8 512 27 27 (2985984)
I0630 19:27:36.403681 38212 net.cpp:165] Memory required for data: 1206515744
I0630 19:27:36.403695 38212 layer_factory.hpp:76] Creating layer conv3_7_1
I0630 19:27:36.403719 38212 net.cpp:106] Creating Layer conv3_7_1
I0630 19:27:36.403734 38212 net.cpp:454] conv3_7_1 <- conv3_6_sum_bn_conv3_6_sum_relu_0_split_0
I0630 19:27:36.403759 38212 net.cpp:411] conv3_7_1 -> conv3_7_1
I0630 19:27:36.406702 38212 cudnn_conv_layer.cpp:194] Reallocating workspace storage: 6144
I0630 19:27:36.406744 38212 net.cpp:150] Setting up conv3_7_1
I0630 19:27:36.406764 38212 net.cpp:157] Top shape: 8 128 27 27 (746496)
I0630 19:27:36.406777 38212 net.cpp:165] Memory required for data: 1209501728
I0630 19:27:36.406796 38212 layer_factory.hpp:76] Creating layer conv3_7_1_bn
I0630 19:27:36.406817 38212 net.cpp:106] Creating Layer conv3_7_1_bn
I0630 19:27:36.406832 38212 net.cpp:454] conv3_7_1_bn <- conv3_7_1
I0630 19:27:36.406849 38212 net.cpp:411] conv3_7_1_bn -> conv3_7_1_bn
I0630 19:27:36.407099 38212 net.cpp:150] Setting up conv3_7_1_bn
I0630 19:27:36.407119 38212 net.cpp:157] Top shape: 8 128 27 27 (746496)
I0630 19:27:36.407131 38212 net.cpp:165] Memory required for data: 1212487712
I0630 19:27:36.407152 38212 layer_factory.hpp:76] Creating layer conv3_7_1_relu
I0630 19:27:36.407174 38212 net.cpp:106] Creating Layer conv3_7_1_relu
I0630 19:27:36.407191 38212 net.cpp:454] conv3_7_1_relu <- conv3_7_1_bn
I0630 19:27:36.407205 38212 net.cpp:397] conv3_7_1_relu -> conv3_7_1_bn (in-place)
I0630 19:27:36.407568 38212 net.cpp:150] Setting up conv3_7_1_relu
I0630 19:27:36.407591 38212 net.cpp:157] Top shape: 8 128 27 27 (746496)
I0630 19:27:36.407604 38212 net.cpp:165] Memory required for data: 1215473696
I0630 19:27:36.407618 38212 layer_factory.hpp:76] Creating layer conv3_7_2
I0630 19:27:36.407644 38212 net.cpp:106] Creating Layer conv3_7_2
I0630 19:27:36.407660 38212 net.cpp:454] conv3_7_2 <- conv3_7_1_bn
I0630 19:27:36.407676 38212 net.cpp:411] conv3_7_2 -> conv3_7_2
I0630 19:27:36.413884 38212 cudnn_conv_layer.cpp:194] Reallocating workspace storage: 13824
I0630 19:27:36.413923 38212 net.cpp:150] Setting up conv3_7_2
I0630 19:27:36.413943 38212 net.cpp:157] Top shape: 8 128 27 27 (746496)
I0630 19:27:36.413957 38212 net.cpp:165] Memory required for data: 1218459680
I0630 19:27:36.413976 38212 layer_factory.hpp:76] Creating layer conv3_7_2_bn
I0630 19:27:36.414001 38212 net.cpp:106] Creating Layer conv3_7_2_bn
I0630 19:27:36.414017 38212 net.cpp:454] conv3_7_2_bn <- conv3_7_2
I0630 19:27:36.414034 38212 net.cpp:411] conv3_7_2_bn -> conv3_7_2_bn
I0630 19:27:36.414296 38212 net.cpp:150] Setting up conv3_7_2_bn
I0630 19:27:36.414317 38212 net.cpp:157] Top shape: 8 128 27 27 (746496)
I0630 19:27:36.414330 38212 net.cpp:165] Memory required for data: 1221445664
I0630 19:27:36.414350 38212 layer_factory.hpp:76] Creating layer conv3_7_2_relu
I0630 19:27:36.414371 38212 net.cpp:106] Creating Layer conv3_7_2_relu
I0630 19:27:36.414387 38212 net.cpp:454] conv3_7_2_relu <- conv3_7_2_bn
I0630 19:27:36.414402 38212 net.cpp:397] conv3_7_2_relu -> conv3_7_2_bn (in-place)
I0630 19:27:36.414789 38212 net.cpp:150] Setting up conv3_7_2_relu
I0630 19:27:36.414813 38212 net.cpp:157] Top shape: 8 128 27 27 (746496)
I0630 19:27:36.414826 38212 net.cpp:165] Memory required for data: 1224431648
I0630 19:27:36.414840 38212 layer_factory.hpp:76] Creating layer conv3_7_3
I0630 19:27:36.414863 38212 net.cpp:106] Creating Layer conv3_7_3
I0630 19:27:36.414878 38212 net.cpp:454] conv3_7_3 <- conv3_7_2_bn
I0630 19:27:36.414899 38212 net.cpp:411] conv3_7_3 -> conv3_7_3
I0630 19:27:36.418014 38212 cudnn_conv_layer.cpp:194] Reallocating workspace storage: 1536
I0630 19:27:36.418056 38212 net.cpp:150] Setting up conv3_7_3
I0630 19:27:36.418087 38212 net.cpp:157] Top shape: 8 512 27 27 (2985984)
I0630 19:27:36.418102 38212 net.cpp:165] Memory required for data: 1236375584
I0630 19:27:36.418123 38212 layer_factory.hpp:76] Creating layer conv3_7_sum
I0630 19:27:36.418140 38212 net.cpp:106] Creating Layer conv3_7_sum
I0630 19:27:36.418156 38212 net.cpp:454] conv3_7_sum <- conv3_6_sum_bn_conv3_6_sum_relu_0_split_1
I0630 19:27:36.418175 38212 net.cpp:454] conv3_7_sum <- conv3_7_3
I0630 19:27:36.418195 38212 net.cpp:411] conv3_7_sum -> conv3_7_sum
I0630 19:27:36.418246 38212 net.cpp:150] Setting up conv3_7_sum
I0630 19:27:36.418265 38212 net.cpp:157] Top shape: 8 512 27 27 (2985984)
I0630 19:27:36.418278 38212 net.cpp:165] Memory required for data: 1248319520
I0630 19:27:36.418293 38212 layer_factory.hpp:76] Creating layer conv3_7_sum_bn
I0630 19:27:36.418314 38212 net.cpp:106] Creating Layer conv3_7_sum_bn
I0630 19:27:36.418330 38212 net.cpp:454] conv3_7_sum_bn <- conv3_7_sum
I0630 19:27:36.418349 38212 net.cpp:411] conv3_7_sum_bn -> conv3_7_sum_bn
I0630 19:27:36.418603 38212 net.cpp:150] Setting up conv3_7_sum_bn
I0630 19:27:36.418624 38212 net.cpp:157] Top shape: 8 512 27 27 (2985984)
I0630 19:27:36.418637 38212 net.cpp:165] Memory required for data: 1260263456
I0630 19:27:36.418658 38212 layer_factory.hpp:76] Creating layer conv3_7_sum_relu
I0630 19:27:36.418676 38212 net.cpp:106] Creating Layer conv3_7_sum_relu
I0630 19:27:36.418690 38212 net.cpp:454] conv3_7_sum_relu <- conv3_7_sum_bn
I0630 19:27:36.418707 38212 net.cpp:397] conv3_7_sum_relu -> conv3_7_sum_bn (in-place)
I0630 19:27:36.419076 38212 net.cpp:150] Setting up conv3_7_sum_relu
I0630 19:27:36.419100 38212 net.cpp:157] Top shape: 8 512 27 27 (2985984)
I0630 19:27:36.419114 38212 net.cpp:165] Memory required for data: 1272207392
I0630 19:27:36.419129 38212 layer_factory.hpp:76] Creating layer conv3_7_sum_bn_conv3_7_sum_relu_0_split
I0630 19:27:36.419149 38212 net.cpp:106] Creating Layer conv3_7_sum_bn_conv3_7_sum_relu_0_split
I0630 19:27:36.419164 38212 net.cpp:454] conv3_7_sum_bn_conv3_7_sum_relu_0_split <- conv3_7_sum_bn
I0630 19:27:36.419183 38212 net.cpp:411] conv3_7_sum_bn_conv3_7_sum_relu_0_split -> conv3_7_sum_bn_conv3_7_sum_relu_0_split_0
I0630 19:27:36.419201 38212 net.cpp:411] conv3_7_sum_bn_conv3_7_sum_relu_0_split -> conv3_7_sum_bn_conv3_7_sum_relu_0_split_1
I0630 19:27:36.419281 38212 net.cpp:150] Setting up conv3_7_sum_bn_conv3_7_sum_relu_0_split
I0630 19:27:36.419301 38212 net.cpp:157] Top shape: 8 512 27 27 (2985984)
I0630 19:27:36.419317 38212 net.cpp:157] Top shape: 8 512 27 27 (2985984)
I0630 19:27:36.419330 38212 net.cpp:165] Memory required for data: 1296095264
I0630 19:27:36.419344 38212 layer_factory.hpp:76] Creating layer conv3_8_1
I0630 19:27:36.419368 38212 net.cpp:106] Creating Layer conv3_8_1
I0630 19:27:36.419384 38212 net.cpp:454] conv3_8_1 <- conv3_7_sum_bn_conv3_7_sum_relu_0_split_0
I0630 19:27:36.419423 38212 net.cpp:411] conv3_8_1 -> conv3_8_1
I0630 19:27:36.423038 38212 cudnn_conv_layer.cpp:194] Reallocating workspace storage: 6144
I0630 19:27:36.423081 38212 net.cpp:150] Setting up conv3_8_1
I0630 19:27:36.423102 38212 net.cpp:157] Top shape: 8 128 27 27 (746496)
I0630 19:27:36.423117 38212 net.cpp:165] Memory required for data: 1299081248
I0630 19:27:36.423136 38212 layer_factory.hpp:76] Creating layer conv3_8_1_bn
I0630 19:27:36.423158 38212 net.cpp:106] Creating Layer conv3_8_1_bn
I0630 19:27:36.423174 38212 net.cpp:454] conv3_8_1_bn <- conv3_8_1
I0630 19:27:36.423192 38212 net.cpp:411] conv3_8_1_bn -> conv3_8_1_bn
I0630 19:27:36.423458 38212 net.cpp:150] Setting up conv3_8_1_bn
I0630 19:27:36.423480 38212 net.cpp:157] Top shape: 8 128 27 27 (746496)
I0630 19:27:36.423497 38212 net.cpp:165] Memory required for data: 1302067232
I0630 19:27:36.423519 38212 layer_factory.hpp:76] Creating layer conv3_8_1_relu
I0630 19:27:36.423538 38212 net.cpp:106] Creating Layer conv3_8_1_relu
I0630 19:27:36.423552 38212 net.cpp:454] conv3_8_1_relu <- conv3_8_1_bn
I0630 19:27:36.423568 38212 net.cpp:397] conv3_8_1_relu -> conv3_8_1_bn (in-place)
I0630 19:27:36.423943 38212 net.cpp:150] Setting up conv3_8_1_relu
I0630 19:27:36.423966 38212 net.cpp:157] Top shape: 8 128 27 27 (746496)
I0630 19:27:36.423980 38212 net.cpp:165] Memory required for data: 1305053216
I0630 19:27:36.423995 38212 layer_factory.hpp:76] Creating layer conv3_8_2
I0630 19:27:36.424018 38212 net.cpp:106] Creating Layer conv3_8_2
I0630 19:27:36.424034 38212 net.cpp:454] conv3_8_2 <- conv3_8_1_bn
I0630 19:27:36.424053 38212 net.cpp:411] conv3_8_2 -> conv3_8_2
I0630 19:27:36.430414 38212 cudnn_conv_layer.cpp:194] Reallocating workspace storage: 13824
I0630 19:27:36.430452 38212 net.cpp:150] Setting up conv3_8_2
I0630 19:27:36.430485 38212 net.cpp:157] Top shape: 8 128 27 27 (746496)
I0630 19:27:36.430500 38212 net.cpp:165] Memory required for data: 1308039200
I0630 19:27:36.430519 38212 layer_factory.hpp:76] Creating layer conv3_8_2_bn
I0630 19:27:36.430541 38212 net.cpp:106] Creating Layer conv3_8_2_bn
I0630 19:27:36.430557 38212 net.cpp:454] conv3_8_2_bn <- conv3_8_2
I0630 19:27:36.430575 38212 net.cpp:411] conv3_8_2_bn -> conv3_8_2_bn
I0630 19:27:36.430850 38212 net.cpp:150] Setting up conv3_8_2_bn
I0630 19:27:36.430869 38212 net.cpp:157] Top shape: 8 128 27 27 (746496)
I0630 19:27:36.430882 38212 net.cpp:165] Memory required for data: 1311025184
I0630 19:27:36.430915 38212 layer_factory.hpp:76] Creating layer conv3_8_2_relu
I0630 19:27:36.430933 38212 net.cpp:106] Creating Layer conv3_8_2_relu
I0630 19:27:36.430948 38212 net.cpp:454] conv3_8_2_relu <- conv3_8_2_bn
I0630 19:27:36.430969 38212 net.cpp:397] conv3_8_2_relu -> conv3_8_2_bn (in-place)
I0630 19:27:36.431191 38212 net.cpp:150] Setting up conv3_8_2_relu
I0630 19:27:36.431215 38212 net.cpp:157] Top shape: 8 128 27 27 (746496)
I0630 19:27:36.431231 38212 net.cpp:165] Memory required for data: 1314011168
I0630 19:27:36.431246 38212 layer_factory.hpp:76] Creating layer conv3_8_3
I0630 19:27:36.431267 38212 net.cpp:106] Creating Layer conv3_8_3
I0630 19:27:36.431282 38212 net.cpp:454] conv3_8_3 <- conv3_8_2_bn
I0630 19:27:36.431303 38212 net.cpp:411] conv3_8_3 -> conv3_8_3
I0630 19:27:36.434500 38212 cudnn_conv_layer.cpp:194] Reallocating workspace storage: 1536
I0630 19:27:36.434541 38212 net.cpp:150] Setting up conv3_8_3
I0630 19:27:36.434571 38212 net.cpp:157] Top shape: 8 512 27 27 (2985984)
I0630 19:27:36.434586 38212 net.cpp:165] Memory required for data: 1325955104
I0630 19:27:36.434605 38212 layer_factory.hpp:76] Creating layer conv3_8_sum
I0630 19:27:36.434625 38212 net.cpp:106] Creating Layer conv3_8_sum
I0630 19:27:36.434640 38212 net.cpp:454] conv3_8_sum <- conv3_7_sum_bn_conv3_7_sum_relu_0_split_1
I0630 19:27:36.434655 38212 net.cpp:454] conv3_8_sum <- conv3_8_3
I0630 19:27:36.434672 38212 net.cpp:411] conv3_8_sum -> conv3_8_sum
I0630 19:27:36.434729 38212 net.cpp:150] Setting up conv3_8_sum
I0630 19:27:36.434758 38212 net.cpp:157] Top shape: 8 512 27 27 (2985984)
I0630 19:27:36.434794 38212 net.cpp:165] Memory required for data: 1337899040
I0630 19:27:36.434809 38212 layer_factory.hpp:76] Creating layer conv3_8_sum_bn
I0630 19:27:36.434833 38212 net.cpp:106] Creating Layer conv3_8_sum_bn
I0630 19:27:36.434849 38212 net.cpp:454] conv3_8_sum_bn <- conv3_8_sum
I0630 19:27:36.434864 38212 net.cpp:411] conv3_8_sum_bn -> conv3_8_sum_bn
I0630 19:27:36.435132 38212 net.cpp:150] Setting up conv3_8_sum_bn
I0630 19:27:36.435153 38212 net.cpp:157] Top shape: 8 512 27 27 (2985984)
I0630 19:27:36.435166 38212 net.cpp:165] Memory required for data: 1349842976
I0630 19:27:36.435186 38212 layer_factory.hpp:76] Creating layer conv3_8_sum_relu
I0630 19:27:36.435204 38212 net.cpp:106] Creating Layer conv3_8_sum_relu
I0630 19:27:36.435220 38212 net.cpp:454] conv3_8_sum_relu <- conv3_8_sum_bn
I0630 19:27:36.435238 38212 net.cpp:397] conv3_8_sum_relu -> conv3_8_sum_bn (in-place)
I0630 19:27:36.435757 38212 net.cpp:150] Setting up conv3_8_sum_relu
I0630 19:27:36.435786 38212 net.cpp:157] Top shape: 8 512 27 27 (2985984)
I0630 19:27:36.435801 38212 net.cpp:165] Memory required for data: 1361786912
I0630 19:27:36.435817 38212 layer_factory.hpp:76] Creating layer conv3_8_sum_bn_conv3_8_sum_relu_0_split
I0630 19:27:36.435863 38212 net.cpp:106] Creating Layer conv3_8_sum_bn_conv3_8_sum_relu_0_split
I0630 19:27:36.435880 38212 net.cpp:454] conv3_8_sum_bn_conv3_8_sum_relu_0_split <- conv3_8_sum_bn
I0630 19:27:36.435899 38212 net.cpp:411] conv3_8_sum_bn_conv3_8_sum_relu_0_split -> conv3_8_sum_bn_conv3_8_sum_relu_0_split_0
I0630 19:27:36.435921 38212 net.cpp:411] conv3_8_sum_bn_conv3_8_sum_relu_0_split -> conv3_8_sum_bn_conv3_8_sum_relu_0_split_1
I0630 19:27:36.436009 38212 net.cpp:150] Setting up conv3_8_sum_bn_conv3_8_sum_relu_0_split
I0630 19:27:36.436029 38212 net.cpp:157] Top shape: 8 512 27 27 (2985984)
I0630 19:27:36.436044 38212 net.cpp:157] Top shape: 8 512 27 27 (2985984)
I0630 19:27:36.436058 38212 net.cpp:165] Memory required for data: 1385674784
I0630 19:27:36.436072 38212 layer_factory.hpp:76] Creating layer conv3_output
I0630 19:27:36.436096 38212 net.cpp:106] Creating Layer conv3_output
I0630 19:27:36.436112 38212 net.cpp:454] conv3_output <- conv3_8_sum_bn_conv3_8_sum_relu_0_split_0
I0630 19:27:36.436133 38212 net.cpp:411] conv3_output -> conv3_output
I0630 19:27:36.454468 38212 cudnn_conv_layer.cpp:194] Reallocating workspace storage: 6144
I0630 19:27:36.454509 38212 net.cpp:150] Setting up conv3_output
I0630 19:27:36.454540 38212 net.cpp:157] Top shape: 8 1024 14 14 (1605632)
I0630 19:27:36.454555 38212 net.cpp:165] Memory required for data: 1392097312
I0630 19:27:36.454576 38212 layer_factory.hpp:76] Creating layer conv4_1_1
I0630 19:27:36.454601 38212 net.cpp:106] Creating Layer conv4_1_1
I0630 19:27:36.454618 38212 net.cpp:454] conv4_1_1 <- conv3_8_sum_bn_conv3_8_sum_relu_0_split_1
I0630 19:27:36.454639 38212 net.cpp:411] conv4_1_1 -> conv4_1_1
I0630 19:27:36.459803 38212 cudnn_conv_layer.cpp:194] Reallocating workspace storage: 6144
I0630 19:27:36.459842 38212 net.cpp:150] Setting up conv4_1_1
I0630 19:27:36.459874 38212 net.cpp:157] Top shape: 8 256 14 14 (401408)
I0630 19:27:36.459889 38212 net.cpp:165] Memory required for data: 1393702944
I0630 19:27:36.459908 38212 layer_factory.hpp:76] Creating layer conv4_1_1_bn
I0630 19:27:36.459934 38212 net.cpp:106] Creating Layer conv4_1_1_bn
I0630 19:27:36.459950 38212 net.cpp:454] conv4_1_1_bn <- conv4_1_1
I0630 19:27:36.459969 38212 net.cpp:411] conv4_1_1_bn -> conv4_1_1_bn
I0630 19:27:36.460237 38212 net.cpp:150] Setting up conv4_1_1_bn
I0630 19:27:36.460258 38212 net.cpp:157] Top shape: 8 256 14 14 (401408)
I0630 19:27:36.460270 38212 net.cpp:165] Memory required for data: 1395308576
I0630 19:27:36.460304 38212 layer_factory.hpp:76] Creating layer conv4_1_1_relu
I0630 19:27:36.460322 38212 net.cpp:106] Creating Layer conv4_1_1_relu
I0630 19:27:36.460337 38212 net.cpp:454] conv4_1_1_relu <- conv4_1_1_bn
I0630 19:27:36.460361 38212 net.cpp:397] conv4_1_1_relu -> conv4_1_1_bn (in-place)
I0630 19:27:36.460731 38212 net.cpp:150] Setting up conv4_1_1_relu
I0630 19:27:36.460767 38212 net.cpp:157] Top shape: 8 256 14 14 (401408)
I0630 19:27:36.460782 38212 net.cpp:165] Memory required for data: 1396914208
I0630 19:27:36.460796 38212 layer_factory.hpp:76] Creating layer conv4_1_2
I0630 19:27:36.460820 38212 net.cpp:106] Creating Layer conv4_1_2
I0630 19:27:36.460835 38212 net.cpp:454] conv4_1_2 <- conv4_1_1_bn
I0630 19:27:36.460856 38212 net.cpp:411] conv4_1_2 -> conv4_1_2
I0630 19:27:36.480902 38212 net.cpp:150] Setting up conv4_1_2
I0630 19:27:36.480929 38212 net.cpp:157] Top shape: 8 256 14 14 (401408)
I0630 19:27:36.480942 38212 net.cpp:165] Memory required for data: 1398519840
I0630 19:27:36.480973 38212 layer_factory.hpp:76] Creating layer conv4_1_2_bn
I0630 19:27:36.480996 38212 net.cpp:106] Creating Layer conv4_1_2_bn
I0630 19:27:36.481011 38212 net.cpp:454] conv4_1_2_bn <- conv4_1_2
I0630 19:27:36.481029 38212 net.cpp:411] conv4_1_2_bn -> conv4_1_2_bn
I0630 19:27:36.481308 38212 net.cpp:150] Setting up conv4_1_2_bn
I0630 19:27:36.481331 38212 net.cpp:157] Top shape: 8 256 14 14 (401408)
I0630 19:27:36.481344 38212 net.cpp:165] Memory required for data: 1400125472
I0630 19:27:36.481376 38212 layer_factory.hpp:76] Creating layer conv4_1_2_relu
I0630 19:27:36.481395 38212 net.cpp:106] Creating Layer conv4_1_2_relu
I0630 19:27:36.481410 38212 net.cpp:454] conv4_1_2_relu <- conv4_1_2_bn
I0630 19:27:36.481426 38212 net.cpp:397] conv4_1_2_relu -> conv4_1_2_bn (in-place)
I0630 19:27:36.481801 38212 net.cpp:150] Setting up conv4_1_2_relu
I0630 19:27:36.481823 38212 net.cpp:157] Top shape: 8 256 14 14 (401408)
I0630 19:27:36.481837 38212 net.cpp:165] Memory required for data: 1401731104
I0630 19:27:36.481851 38212 layer_factory.hpp:76] Creating layer conv4_1_3
I0630 19:27:36.481887 38212 net.cpp:106] Creating Layer conv4_1_3
I0630 19:27:36.481904 38212 net.cpp:454] conv4_1_3 <- conv4_1_2_bn
I0630 19:27:36.481925 38212 net.cpp:411] conv4_1_3 -> conv4_1_3
I0630 19:27:36.491930 38212 cudnn_conv_layer.cpp:194] Reallocating workspace storage: 3072
I0630 19:27:36.491971 38212 net.cpp:150] Setting up conv4_1_3
I0630 19:27:36.492002 38212 net.cpp:157] Top shape: 8 1024 14 14 (1605632)
I0630 19:27:36.492017 38212 net.cpp:165] Memory required for data: 1408153632
I0630 19:27:36.492036 38212 layer_factory.hpp:76] Creating layer conv4_1_sum
I0630 19:27:36.492059 38212 net.cpp:106] Creating Layer conv4_1_sum
I0630 19:27:36.492075 38212 net.cpp:454] conv4_1_sum <- conv3_output
I0630 19:27:36.492091 38212 net.cpp:454] conv4_1_sum <- conv4_1_3
I0630 19:27:36.492108 38212 net.cpp:411] conv4_1_sum -> conv4_1_sum
I0630 19:27:36.492166 38212 net.cpp:150] Setting up conv4_1_sum
I0630 19:27:36.492187 38212 net.cpp:157] Top shape: 8 1024 14 14 (1605632)
I0630 19:27:36.492200 38212 net.cpp:165] Memory required for data: 1414576160
I0630 19:27:36.492228 38212 layer_factory.hpp:76] Creating layer conv4_1_sum_bn
I0630 19:27:36.492256 38212 net.cpp:106] Creating Layer conv4_1_sum_bn
I0630 19:27:36.492271 38212 net.cpp:454] conv4_1_sum_bn <- conv4_1_sum
I0630 19:27:36.492291 38212 net.cpp:411] conv4_1_sum_bn -> conv4_1_sum_bn
I0630 19:27:36.492573 38212 net.cpp:150] Setting up conv4_1_sum_bn
I0630 19:27:36.492594 38212 net.cpp:157] Top shape: 8 1024 14 14 (1605632)
I0630 19:27:36.492606 38212 net.cpp:165] Memory required for data: 1420998688
I0630 19:27:36.492629 38212 layer_factory.hpp:76] Creating layer conv4_1_sum_relu
I0630 19:27:36.492650 38212 net.cpp:106] Creating Layer conv4_1_sum_relu
I0630 19:27:36.492666 38212 net.cpp:454] conv4_1_sum_relu <- conv4_1_sum_bn
I0630 19:27:36.492681 38212 net.cpp:397] conv4_1_sum_relu -> conv4_1_sum_bn (in-place)
I0630 19:27:36.492898 38212 net.cpp:150] Setting up conv4_1_sum_relu
I0630 19:27:36.492921 38212 net.cpp:157] Top shape: 8 1024 14 14 (1605632)
I0630 19:27:36.492934 38212 net.cpp:165] Memory required for data: 1427421216
I0630 19:27:36.492949 38212 layer_factory.hpp:76] Creating layer conv4_1_sum_bn_conv4_1_sum_relu_0_split
I0630 19:27:36.492966 38212 net.cpp:106] Creating Layer conv4_1_sum_bn_conv4_1_sum_relu_0_split
I0630 19:27:36.492980 38212 net.cpp:454] conv4_1_sum_bn_conv4_1_sum_relu_0_split <- conv4_1_sum_bn
I0630 19:27:36.493016 38212 net.cpp:411] conv4_1_sum_bn_conv4_1_sum_relu_0_split -> conv4_1_sum_bn_conv4_1_sum_relu_0_split_0
I0630 19:27:36.493036 38212 net.cpp:411] conv4_1_sum_bn_conv4_1_sum_relu_0_split -> conv4_1_sum_bn_conv4_1_sum_relu_0_split_1
I0630 19:27:36.493124 38212 net.cpp:150] Setting up conv4_1_sum_bn_conv4_1_sum_relu_0_split
I0630 19:27:36.493145 38212 net.cpp:157] Top shape: 8 1024 14 14 (1605632)
I0630 19:27:36.493160 38212 net.cpp:157] Top shape: 8 1024 14 14 (1605632)
I0630 19:27:36.493175 38212 net.cpp:165] Memory required for data: 1440266272
I0630 19:27:36.493187 38212 layer_factory.hpp:76] Creating layer conv4_2_1
I0630 19:27:36.493211 38212 net.cpp:106] Creating Layer conv4_2_1
I0630 19:27:36.493227 38212 net.cpp:454] conv4_2_1 <- conv4_1_sum_bn_conv4_1_sum_relu_0_split_0
I0630 19:27:36.493247 38212 net.cpp:411] conv4_2_1 -> conv4_2_1
I0630 19:27:36.504474 38212 cudnn_conv_layer.cpp:194] Reallocating workspace storage: 19267584
I0630 19:27:36.505118 38212 net.cpp:150] Setting up conv4_2_1
I0630 19:27:36.505141 38212 net.cpp:157] Top shape: 8 256 14 14 (401408)
I0630 19:27:36.505154 38212 net.cpp:165] Memory required for data: 1441871904
I0630 19:27:36.505189 38212 layer_factory.hpp:76] Creating layer conv4_2_1_bn
I0630 19:27:36.505213 38212 net.cpp:106] Creating Layer conv4_2_1_bn
I0630 19:27:36.505228 38212 net.cpp:454] conv4_2_1_bn <- conv4_2_1
I0630 19:27:36.505269 38212 net.cpp:411] conv4_2_1_bn -> conv4_2_1_bn
I0630 19:27:36.505551 38212 net.cpp:150] Setting up conv4_2_1_bn
I0630 19:27:36.505573 38212 net.cpp:157] Top shape: 8 256 14 14 (401408)
I0630 19:27:36.505585 38212 net.cpp:165] Memory required for data: 1443477536
I0630 19:27:36.505619 38212 layer_factory.hpp:76] Creating layer conv4_2_1_relu
I0630 19:27:36.505637 38212 net.cpp:106] Creating Layer conv4_2_1_relu
I0630 19:27:36.505652 38212 net.cpp:454] conv4_2_1_relu <- conv4_2_1_bn
I0630 19:27:36.505668 38212 net.cpp:397] conv4_2_1_relu -> conv4_2_1_bn (in-place)
I0630 19:27:36.506214 38212 net.cpp:150] Setting up conv4_2_1_relu
I0630 19:27:36.506237 38212 net.cpp:157] Top shape: 8 256 14 14 (401408)
I0630 19:27:36.506252 38212 net.cpp:165] Memory required for data: 1445083168
I0630 19:27:36.506278 38212 layer_factory.hpp:76] Creating layer conv4_2_2
I0630 19:27:36.506325 38212 net.cpp:106] Creating Layer conv4_2_2
I0630 19:27:36.506340 38212 net.cpp:454] conv4_2_2 <- conv4_2_1_bn
I0630 19:27:36.506361 38212 net.cpp:411] conv4_2_2 -> conv4_2_2
I0630 19:27:36.535341 38212 net.cpp:150] Setting up conv4_2_2
I0630 19:27:36.535372 38212 net.cpp:157] Top shape: 8 256 14 14 (401408)
I0630 19:27:36.535387 38212 net.cpp:165] Memory required for data: 1446688800
I0630 19:27:36.535419 38212 layer_factory.hpp:76] Creating layer conv4_2_2_bn
I0630 19:27:36.535439 38212 net.cpp:106] Creating Layer conv4_2_2_bn
I0630 19:27:36.535454 38212 net.cpp:454] conv4_2_2_bn <- conv4_2_2
I0630 19:27:36.535476 38212 net.cpp:411] conv4_2_2_bn -> conv4_2_2_bn
I0630 19:27:36.535748 38212 net.cpp:150] Setting up conv4_2_2_bn
I0630 19:27:36.535768 38212 net.cpp:157] Top shape: 8 256 14 14 (401408)
I0630 19:27:36.535781 38212 net.cpp:165] Memory required for data: 1448294432
I0630 19:27:36.535815 38212 layer_factory.hpp:76] Creating layer conv4_2_2_relu
I0630 19:27:36.535832 38212 net.cpp:106] Creating Layer conv4_2_2_relu
I0630 19:27:36.535846 38212 net.cpp:454] conv4_2_2_relu <- conv4_2_2_bn
I0630 19:27:36.535866 38212 net.cpp:397] conv4_2_2_relu -> conv4_2_2_bn (in-place)
I0630 19:27:36.544196 38212 net.cpp:150] Setting up conv4_2_2_relu
I0630 19:27:36.544224 38212 net.cpp:157] Top shape: 8 256 14 14 (401408)
I0630 19:27:36.544239 38212 net.cpp:165] Memory required for data: 1449900064
I0630 19:27:36.544253 38212 layer_factory.hpp:76] Creating layer conv4_2_3
I0630 19:27:36.544296 38212 net.cpp:106] Creating Layer conv4_2_3
I0630 19:27:36.544312 38212 net.cpp:454] conv4_2_3 <- conv4_2_2_bn
I0630 19:27:36.544337 38212 net.cpp:411] conv4_2_3 -> conv4_2_3
I0630 19:27:36.562435 38212 cudnn_conv_layer.cpp:194] Reallocating workspace storage: 3072
I0630 19:27:36.562520 38212 net.cpp:150] Setting up conv4_2_3
I0630 19:27:36.562561 38212 net.cpp:157] Top shape: 8 1024 14 14 (1605632)
I0630 19:27:36.562577 38212 net.cpp:165] Memory required for data: 1456322592
I0630 19:27:36.562602 38212 layer_factory.hpp:76] Creating layer conv4_2_sum
I0630 19:27:36.562626 38212 net.cpp:106] Creating Layer conv4_2_sum
I0630 19:27:36.562645 38212 net.cpp:454] conv4_2_sum <- conv4_1_sum_bn_conv4_1_sum_relu_0_split_1
I0630 19:27:36.562664 38212 net.cpp:454] conv4_2_sum <- conv4_2_3
I0630 19:27:36.562681 38212 net.cpp:411] conv4_2_sum -> conv4_2_sum
I0630 19:27:36.562748 38212 net.cpp:150] Setting up conv4_2_sum
I0630 19:27:36.562770 38212 net.cpp:157] Top shape: 8 1024 14 14 (1605632)
I0630 19:27:36.562783 38212 net.cpp:165] Memory required for data: 1462745120
I0630 19:27:36.562808 38212 layer_factory.hpp:76] Creating layer conv4_2_sum_bn
I0630 19:27:36.562844 38212 net.cpp:106] Creating Layer conv4_2_sum_bn
I0630 19:27:36.562858 38212 net.cpp:454] conv4_2_sum_bn <- conv4_2_sum
I0630 19:27:36.562876 38212 net.cpp:411] conv4_2_sum_bn -> conv4_2_sum_bn
I0630 19:27:36.563169 38212 net.cpp:150] Setting up conv4_2_sum_bn
I0630 19:27:36.563191 38212 net.cpp:157] Top shape: 8 1024 14 14 (1605632)
I0630 19:27:36.563205 38212 net.cpp:165] Memory required for data: 1469167648
I0630 19:27:36.563226 38212 layer_factory.hpp:76] Creating layer conv4_2_sum_relu
I0630 19:27:36.563247 38212 net.cpp:106] Creating Layer conv4_2_sum_relu
I0630 19:27:36.563262 38212 net.cpp:454] conv4_2_sum_relu <- conv4_2_sum_bn
I0630 19:27:36.563282 38212 net.cpp:397] conv4_2_sum_relu -> conv4_2_sum_bn (in-place)
I0630 19:27:36.563513 38212 net.cpp:150] Setting up conv4_2_sum_relu
I0630 19:27:36.563536 38212 net.cpp:157] Top shape: 8 1024 14 14 (1605632)
I0630 19:27:36.563550 38212 net.cpp:165] Memory required for data: 1475590176
I0630 19:27:36.563565 38212 layer_factory.hpp:76] Creating layer conv4_2_sum_bn_conv4_2_sum_relu_0_split
I0630 19:27:36.563587 38212 net.cpp:106] Creating Layer conv4_2_sum_bn_conv4_2_sum_relu_0_split
I0630 19:27:36.563602 38212 net.cpp:454] conv4_2_sum_bn_conv4_2_sum_relu_0_split <- conv4_2_sum_bn
I0630 19:27:36.563621 38212 net.cpp:411] conv4_2_sum_bn_conv4_2_sum_relu_0_split -> conv4_2_sum_bn_conv4_2_sum_relu_0_split_0
I0630 19:27:36.563640 38212 net.cpp:411] conv4_2_sum_bn_conv4_2_sum_relu_0_split -> conv4_2_sum_bn_conv4_2_sum_relu_0_split_1
I0630 19:27:36.563731 38212 net.cpp:150] Setting up conv4_2_sum_bn_conv4_2_sum_relu_0_split
I0630 19:27:36.563755 38212 net.cpp:157] Top shape: 8 1024 14 14 (1605632)
I0630 19:27:36.563771 38212 net.cpp:157] Top shape: 8 1024 14 14 (1605632)
I0630 19:27:36.563784 38212 net.cpp:165] Memory required for data: 1488435232
I0630 19:27:36.563798 38212 layer_factory.hpp:76] Creating layer conv4_3_1
I0630 19:27:36.563823 38212 net.cpp:106] Creating Layer conv4_3_1
I0630 19:27:36.563840 38212 net.cpp:454] conv4_3_1 <- conv4_2_sum_bn_conv4_2_sum_relu_0_split_0
I0630 19:27:36.563863 38212 net.cpp:411] conv4_3_1 -> conv4_3_1
I0630 19:27:36.574306 38212 cudnn_conv_layer.cpp:194] Reallocating workspace storage: 19267584
I0630 19:27:36.574568 38212 net.cpp:150] Setting up conv4_3_1
I0630 19:27:36.574597 38212 net.cpp:157] Top shape: 8 256 14 14 (401408)
I0630 19:27:36.574614 38212 net.cpp:165] Memory required for data: 1490040864
I0630 19:27:36.574650 38212 layer_factory.hpp:76] Creating layer conv4_3_1_bn
I0630 19:27:36.574673 38212 net.cpp:106] Creating Layer conv4_3_1_bn
I0630 19:27:36.574690 38212 net.cpp:454] conv4_3_1_bn <- conv4_3_1
I0630 19:27:36.574715 38212 net.cpp:411] conv4_3_1_bn -> conv4_3_1_bn
I0630 19:27:36.575031 38212 net.cpp:150] Setting up conv4_3_1_bn
I0630 19:27:36.575054 38212 net.cpp:157] Top shape: 8 256 14 14 (401408)
I0630 19:27:36.575067 38212 net.cpp:165] Memory required for data: 1491646496
I0630 19:27:36.575101 38212 layer_factory.hpp:76] Creating layer conv4_3_1_relu
I0630 19:27:36.575121 38212 net.cpp:106] Creating Layer conv4_3_1_relu
I0630 19:27:36.575137 38212 net.cpp:454] conv4_3_1_relu <- conv4_3_1_bn
I0630 19:27:36.575182 38212 net.cpp:397] conv4_3_1_relu -> conv4_3_1_bn (in-place)
I0630 19:27:36.575574 38212 net.cpp:150] Setting up conv4_3_1_relu
I0630 19:27:36.575599 38212 net.cpp:157] Top shape: 8 256 14 14 (401408)
I0630 19:27:36.575614 38212 net.cpp:165] Memory required for data: 1493252128
I0630 19:27:36.575629 38212 layer_factory.hpp:76] Creating layer conv4_3_2
I0630 19:27:36.575655 38212 net.cpp:106] Creating Layer conv4_3_2
I0630 19:27:36.575671 38212 net.cpp:454] conv4_3_2 <- conv4_3_1_bn
I0630 19:27:36.575693 38212 net.cpp:411] conv4_3_2 -> conv4_3_2
I0630 19:27:36.596678 38212 net.cpp:150] Setting up conv4_3_2
I0630 19:27:36.596724 38212 net.cpp:157] Top shape: 8 256 14 14 (401408)
I0630 19:27:36.596737 38212 net.cpp:165] Memory required for data: 1494857760
I0630 19:27:36.596758 38212 layer_factory.hpp:76] Creating layer conv4_3_2_bn
I0630 19:27:36.596797 38212 net.cpp:106] Creating Layer conv4_3_2_bn
I0630 19:27:36.596817 38212 net.cpp:454] conv4_3_2_bn <- conv4_3_2
I0630 19:27:36.596837 38212 net.cpp:411] conv4_3_2_bn -> conv4_3_2_bn
I0630 19:27:36.597139 38212 net.cpp:150] Setting up conv4_3_2_bn
I0630 19:27:36.597160 38212 net.cpp:157] Top shape: 8 256 14 14 (401408)
I0630 19:27:36.597173 38212 net.cpp:165] Memory required for data: 1496463392
I0630 19:27:36.597208 38212 layer_factory.hpp:76] Creating layer conv4_3_2_relu
I0630 19:27:36.597231 38212 net.cpp:106] Creating Layer conv4_3_2_relu
I0630 19:27:36.597249 38212 net.cpp:454] conv4_3_2_relu <- conv4_3_2_bn
I0630 19:27:36.597265 38212 net.cpp:397] conv4_3_2_relu -> conv4_3_2_bn (in-place)
I0630 19:27:36.597664 38212 net.cpp:150] Setting up conv4_3_2_relu
I0630 19:27:36.597702 38212 net.cpp:157] Top shape: 8 256 14 14 (401408)
I0630 19:27:36.597731 38212 net.cpp:165] Memory required for data: 1498069024
I0630 19:27:36.597748 38212 layer_factory.hpp:76] Creating layer conv4_3_3
I0630 19:27:36.597774 38212 net.cpp:106] Creating Layer conv4_3_3
I0630 19:27:36.597803 38212 net.cpp:454] conv4_3_3 <- conv4_3_2_bn
I0630 19:27:36.597821 38212 net.cpp:411] conv4_3_3 -> conv4_3_3
I0630 19:27:36.608101 38212 cudnn_conv_layer.cpp:194] Reallocating workspace storage: 3072
I0630 19:27:36.608161 38212 net.cpp:150] Setting up conv4_3_3
I0630 19:27:36.608196 38212 net.cpp:157] Top shape: 8 1024 14 14 (1605632)
I0630 19:27:36.608211 38212 net.cpp:165] Memory required for data: 1504491552
I0630 19:27:36.608234 38212 layer_factory.hpp:76] Creating layer conv4_3_sum
I0630 19:27:36.608258 38212 net.cpp:106] Creating Layer conv4_3_sum
I0630 19:27:36.608278 38212 net.cpp:454] conv4_3_sum <- conv4_2_sum_bn_conv4_2_sum_relu_0_split_1
I0630 19:27:36.608295 38212 net.cpp:454] conv4_3_sum <- conv4_3_3
I0630 19:27:36.608314 38212 net.cpp:411] conv4_3_sum -> conv4_3_sum
I0630 19:27:36.608381 38212 net.cpp:150] Setting up conv4_3_sum
I0630 19:27:36.608402 38212 net.cpp:157] Top shape: 8 1024 14 14 (1605632)
I0630 19:27:36.608415 38212 net.cpp:165] Memory required for data: 1510914080
I0630 19:27:36.608441 38212 layer_factory.hpp:76] Creating layer conv4_3_sum_bn
I0630 19:27:36.608475 38212 net.cpp:106] Creating Layer conv4_3_sum_bn
I0630 19:27:36.608491 38212 net.cpp:454] conv4_3_sum_bn <- conv4_3_sum
I0630 19:27:36.608508 38212 net.cpp:411] conv4_3_sum_bn -> conv4_3_sum_bn
I0630 19:27:36.608803 38212 net.cpp:150] Setting up conv4_3_sum_bn
I0630 19:27:36.608824 38212 net.cpp:157] Top shape: 8 1024 14 14 (1605632)
I0630 19:27:36.608837 38212 net.cpp:165] Memory required for data: 1517336608
I0630 19:27:36.608858 38212 layer_factory.hpp:76] Creating layer conv4_3_sum_relu
I0630 19:27:36.608878 38212 net.cpp:106] Creating Layer conv4_3_sum_relu
I0630 19:27:36.608893 38212 net.cpp:454] conv4_3_sum_relu <- conv4_3_sum_bn
I0630 19:27:36.608913 38212 net.cpp:397] conv4_3_sum_relu -> conv4_3_sum_bn (in-place)
I0630 19:27:36.609138 38212 net.cpp:150] Setting up conv4_3_sum_relu
I0630 19:27:36.609160 38212 net.cpp:157] Top shape: 8 1024 14 14 (1605632)
I0630 19:27:36.609179 38212 net.cpp:165] Memory required for data: 1523759136
I0630 19:27:36.609194 38212 layer_factory.hpp:76] Creating layer conv4_3_sum_bn_conv4_3_sum_relu_0_split
I0630 19:27:36.609238 38212 net.cpp:106] Creating Layer conv4_3_sum_bn_conv4_3_sum_relu_0_split
I0630 19:27:36.609256 38212 net.cpp:454] conv4_3_sum_bn_conv4_3_sum_relu_0_split <- conv4_3_sum_bn
I0630 19:27:36.609273 38212 net.cpp:411] conv4_3_sum_bn_conv4_3_sum_relu_0_split -> conv4_3_sum_bn_conv4_3_sum_relu_0_split_0
I0630 19:27:36.609293 38212 net.cpp:411] conv4_3_sum_bn_conv4_3_sum_relu_0_split -> conv4_3_sum_bn_conv4_3_sum_relu_0_split_1
I0630 19:27:36.609385 38212 net.cpp:150] Setting up conv4_3_sum_bn_conv4_3_sum_relu_0_split
I0630 19:27:36.609406 38212 net.cpp:157] Top shape: 8 1024 14 14 (1605632)
I0630 19:27:36.609421 38212 net.cpp:157] Top shape: 8 1024 14 14 (1605632)
I0630 19:27:36.609436 38212 net.cpp:165] Memory required for data: 1536604192
I0630 19:27:36.609450 38212 layer_factory.hpp:76] Creating layer conv4_4_1
I0630 19:27:36.609477 38212 net.cpp:106] Creating Layer conv4_4_1
I0630 19:27:36.609493 38212 net.cpp:454] conv4_4_1 <- conv4_3_sum_bn_conv4_3_sum_relu_0_split_0
I0630 19:27:36.609514 38212 net.cpp:411] conv4_4_1 -> conv4_4_1
I0630 19:27:36.620134 38212 cudnn_conv_layer.cpp:194] Reallocating workspace storage: 19267584
I0630 19:27:36.620393 38212 net.cpp:150] Setting up conv4_4_1
I0630 19:27:36.620420 38212 net.cpp:157] Top shape: 8 256 14 14 (401408)
I0630 19:27:36.620436 38212 net.cpp:165] Memory required for data: 1538209824
I0630 19:27:36.620471 38212 layer_factory.hpp:76] Creating layer conv4_4_1_bn
I0630 19:27:36.620496 38212 net.cpp:106] Creating Layer conv4_4_1_bn
I0630 19:27:36.620514 38212 net.cpp:454] conv4_4_1_bn <- conv4_4_1
I0630 19:27:36.620533 38212 net.cpp:411] conv4_4_1_bn -> conv4_4_1_bn
I0630 19:27:36.620836 38212 net.cpp:150] Setting up conv4_4_1_bn
I0630 19:27:36.620857 38212 net.cpp:157] Top shape: 8 256 14 14 (401408)
I0630 19:27:36.620872 38212 net.cpp:165] Memory required for data: 1539815456
I0630 19:27:36.620904 38212 layer_factory.hpp:76] Creating layer conv4_4_1_relu
I0630 19:27:36.620930 38212 net.cpp:106] Creating Layer conv4_4_1_relu
I0630 19:27:36.620947 38212 net.cpp:454] conv4_4_1_relu <- conv4_4_1_bn
I0630 19:27:36.620964 38212 net.cpp:397] conv4_4_1_relu -> conv4_4_1_bn (in-place)
I0630 19:27:36.621361 38212 net.cpp:150] Setting up conv4_4_1_relu
I0630 19:27:36.621387 38212 net.cpp:157] Top shape: 8 256 14 14 (401408)
I0630 19:27:36.621402 38212 net.cpp:165] Memory required for data: 1541421088
I0630 19:27:36.621417 38212 layer_factory.hpp:76] Creating layer conv4_4_2
I0630 19:27:36.621444 38212 net.cpp:106] Creating Layer conv4_4_2
I0630 19:27:36.621460 38212 net.cpp:454] conv4_4_2 <- conv4_4_1_bn
I0630 19:27:36.621479 38212 net.cpp:411] conv4_4_2 -> conv4_4_2
I0630 19:27:36.642823 38212 net.cpp:150] Setting up conv4_4_2
I0630 19:27:36.642868 38212 net.cpp:157] Top shape: 8 256 14 14 (401408)
I0630 19:27:36.642882 38212 net.cpp:165] Memory required for data: 1543026720
I0630 19:27:36.642902 38212 layer_factory.hpp:76] Creating layer conv4_4_2_bn
I0630 19:27:36.642941 38212 net.cpp:106] Creating Layer conv4_4_2_bn
I0630 19:27:36.642961 38212 net.cpp:454] conv4_4_2_bn <- conv4_4_2
I0630 19:27:36.642982 38212 net.cpp:411] conv4_4_2_bn -> conv4_4_2_bn
I0630 19:27:36.643287 38212 net.cpp:150] Setting up conv4_4_2_bn
I0630 19:27:36.643308 38212 net.cpp:157] Top shape: 8 256 14 14 (401408)
I0630 19:27:36.643321 38212 net.cpp:165] Memory required for data: 1544632352
I0630 19:27:36.643354 38212 layer_factory.hpp:76] Creating layer conv4_4_2_relu
I0630 19:27:36.643375 38212 net.cpp:106] Creating Layer conv4_4_2_relu
I0630 19:27:36.643391 38212 net.cpp:454] conv4_4_2_relu <- conv4_4_2_bn
I0630 19:27:36.643407 38212 net.cpp:397] conv4_4_2_relu -> conv4_4_2_bn (in-place)
I0630 19:27:36.643821 38212 net.cpp:150] Setting up conv4_4_2_relu
I0630 19:27:36.643844 38212 net.cpp:157] Top shape: 8 256 14 14 (401408)
I0630 19:27:36.643858 38212 net.cpp:165] Memory required for data: 1546237984
I0630 19:27:36.643873 38212 layer_factory.hpp:76] Creating layer conv4_4_3
I0630 19:27:36.643911 38212 net.cpp:106] Creating Layer conv4_4_3
I0630 19:27:36.643962 38212 net.cpp:454] conv4_4_3 <- conv4_4_2_bn
I0630 19:27:36.643986 38212 net.cpp:411] conv4_4_3 -> conv4_4_3
I0630 19:27:36.656101 38212 cudnn_conv_layer.cpp:194] Reallocating workspace storage: 3072
I0630 19:27:36.656163 38212 net.cpp:150] Setting up conv4_4_3
I0630 19:27:36.656199 38212 net.cpp:157] Top shape: 8 1024 14 14 (1605632)
I0630 19:27:36.656215 38212 net.cpp:165] Memory required for data: 1552660512
I0630 19:27:36.656239 38212 layer_factory.hpp:76] Creating layer conv4_4_sum
I0630 19:27:36.656265 38212 net.cpp:106] Creating Layer conv4_4_sum
I0630 19:27:36.656285 38212 net.cpp:454] conv4_4_sum <- conv4_3_sum_bn_conv4_3_sum_relu_0_split_1
I0630 19:27:36.656303 38212 net.cpp:454] conv4_4_sum <- conv4_4_3
I0630 19:27:36.656322 38212 net.cpp:411] conv4_4_sum -> conv4_4_sum
I0630 19:27:36.656388 38212 net.cpp:150] Setting up conv4_4_sum
I0630 19:27:36.656411 38212 net.cpp:157] Top shape: 8 1024 14 14 (1605632)
I0630 19:27:36.656425 38212 net.cpp:165] Memory required for data: 1559083040
I0630 19:27:36.656453 38212 layer_factory.hpp:76] Creating layer conv4_4_sum_bn
I0630 19:27:36.656487 38212 net.cpp:106] Creating Layer conv4_4_sum_bn
I0630 19:27:36.656504 38212 net.cpp:454] conv4_4_sum_bn <- conv4_4_sum
I0630 19:27:36.656525 38212 net.cpp:411] conv4_4_sum_bn -> conv4_4_sum_bn
I0630 19:27:36.656829 38212 net.cpp:150] Setting up conv4_4_sum_bn
I0630 19:27:36.656852 38212 net.cpp:157] Top shape: 8 1024 14 14 (1605632)
I0630 19:27:36.656865 38212 net.cpp:165] Memory required for data: 1565505568
I0630 19:27:36.656888 38212 layer_factory.hpp:76] Creating layer conv4_4_sum_relu
I0630 19:27:36.656908 38212 net.cpp:106] Creating Layer conv4_4_sum_relu
I0630 19:27:36.656924 38212 net.cpp:454] conv4_4_sum_relu <- conv4_4_sum_bn
I0630 19:27:36.656941 38212 net.cpp:397] conv4_4_sum_relu -> conv4_4_sum_bn (in-place)
I0630 19:27:36.657183 38212 net.cpp:150] Setting up conv4_4_sum_relu
I0630 19:27:36.657209 38212 net.cpp:157] Top shape: 8 1024 14 14 (1605632)
I0630 19:27:36.657223 38212 net.cpp:165] Memory required for data: 1571928096
I0630 19:27:36.657239 38212 layer_factory.hpp:76] Creating layer conv4_4_sum_bn_conv4_4_sum_relu_0_split
I0630 19:27:36.657258 38212 net.cpp:106] Creating Layer conv4_4_sum_bn_conv4_4_sum_relu_0_split
I0630 19:27:36.657274 38212 net.cpp:454] conv4_4_sum_bn_conv4_4_sum_relu_0_split <- conv4_4_sum_bn
I0630 19:27:36.657294 38212 net.cpp:411] conv4_4_sum_bn_conv4_4_sum_relu_0_split -> conv4_4_sum_bn_conv4_4_sum_relu_0_split_0
I0630 19:27:36.657315 38212 net.cpp:411] conv4_4_sum_bn_conv4_4_sum_relu_0_split -> conv4_4_sum_bn_conv4_4_sum_relu_0_split_1
I0630 19:27:36.657409 38212 net.cpp:150] Setting up conv4_4_sum_bn_conv4_4_sum_relu_0_split
I0630 19:27:36.657433 38212 net.cpp:157] Top shape: 8 1024 14 14 (1605632)
I0630 19:27:36.657449 38212 net.cpp:157] Top shape: 8 1024 14 14 (1605632)
I0630 19:27:36.657462 38212 net.cpp:165] Memory required for data: 1584773152
I0630 19:27:36.657476 38212 layer_factory.hpp:76] Creating layer conv4_5_1
I0630 19:27:36.657502 38212 net.cpp:106] Creating Layer conv4_5_1
I0630 19:27:36.657521 38212 net.cpp:454] conv4_5_1 <- conv4_4_sum_bn_conv4_4_sum_relu_0_split_0
I0630 19:27:36.657541 38212 net.cpp:411] conv4_5_1 -> conv4_5_1
I0630 19:27:36.668680 38212 cudnn_conv_layer.cpp:194] Reallocating workspace storage: 19267584
I0630 19:27:36.669225 38212 net.cpp:150] Setting up conv4_5_1
I0630 19:27:36.669251 38212 net.cpp:157] Top shape: 8 256 14 14 (401408)
I0630 19:27:36.669270 38212 net.cpp:165] Memory required for data: 1586378784
I0630 19:27:36.669293 38212 layer_factory.hpp:76] Creating layer conv4_5_1_bn
I0630 19:27:36.669317 38212 net.cpp:106] Creating Layer conv4_5_1_bn
I0630 19:27:36.669333 38212 net.cpp:454] conv4_5_1_bn <- conv4_5_1
I0630 19:27:36.669355 38212 net.cpp:411] conv4_5_1_bn -> conv4_5_1_bn
I0630 19:27:36.669656 38212 net.cpp:150] Setting up conv4_5_1_bn
I0630 19:27:36.669677 38212 net.cpp:157] Top shape: 8 256 14 14 (401408)
I0630 19:27:36.669706 38212 net.cpp:165] Memory required for data: 1587984416
I0630 19:27:36.669767 38212 layer_factory.hpp:76] Creating layer conv4_5_1_relu
I0630 19:27:36.669788 38212 net.cpp:106] Creating Layer conv4_5_1_relu
I0630 19:27:36.669805 38212 net.cpp:454] conv4_5_1_relu <- conv4_5_1_bn
I0630 19:27:36.669826 38212 net.cpp:397] conv4_5_1_relu -> conv4_5_1_bn (in-place)
I0630 19:27:36.670341 38212 net.cpp:150] Setting up conv4_5_1_relu
I0630 19:27:36.670367 38212 net.cpp:157] Top shape: 8 256 14 14 (401408)
I0630 19:27:36.670380 38212 net.cpp:165] Memory required for data: 1589590048
I0630 19:27:36.670394 38212 layer_factory.hpp:76] Creating layer conv4_5_2
I0630 19:27:36.670420 38212 net.cpp:106] Creating Layer conv4_5_2
I0630 19:27:36.670436 38212 net.cpp:454] conv4_5_2 <- conv4_5_1_bn
I0630 19:27:36.670457 38212 net.cpp:411] conv4_5_2 -> conv4_5_2
I0630 19:27:36.702090 38212 net.cpp:150] Setting up conv4_5_2
I0630 19:27:36.702173 38212 net.cpp:157] Top shape: 8 256 14 14 (401408)
I0630 19:27:36.702188 38212 net.cpp:165] Memory required for data: 1591195680
I0630 19:27:36.702265 38212 layer_factory.hpp:76] Creating layer conv4_5_2_bn
I0630 19:27:36.702332 38212 net.cpp:106] Creating Layer conv4_5_2_bn
I0630 19:27:36.702406 38212 net.cpp:454] conv4_5_2_bn <- conv4_5_2
I0630 19:27:36.702460 38212 net.cpp:411] conv4_5_2_bn -> conv4_5_2_bn
I0630 19:27:36.702872 38212 net.cpp:150] Setting up conv4_5_2_bn
I0630 19:27:36.702893 38212 net.cpp:157] Top shape: 8 256 14 14 (401408)
I0630 19:27:36.702906 38212 net.cpp:165] Memory required for data: 1592801312
I0630 19:27:36.702939 38212 layer_factory.hpp:76] Creating layer conv4_5_2_relu
I0630 19:27:36.702992 38212 net.cpp:106] Creating Layer conv4_5_2_relu
I0630 19:27:36.703011 38212 net.cpp:454] conv4_5_2_relu <- conv4_5_2_bn
I0630 19:27:36.703028 38212 net.cpp:397] conv4_5_2_relu -> conv4_5_2_bn (in-place)
I0630 19:27:36.710636 38212 net.cpp:150] Setting up conv4_5_2_relu
I0630 19:27:36.710665 38212 net.cpp:157] Top shape: 8 256 14 14 (401408)
I0630 19:27:36.710680 38212 net.cpp:165] Memory required for data: 1594406944
I0630 19:27:36.710695 38212 layer_factory.hpp:76] Creating layer conv4_5_3
I0630 19:27:36.710733 38212 net.cpp:106] Creating Layer conv4_5_3
I0630 19:27:36.710750 38212 net.cpp:454] conv4_5_3 <- conv4_5_2_bn
I0630 19:27:36.710788 38212 net.cpp:411] conv4_5_3 -> conv4_5_3
I0630 19:27:36.721348 38212 cudnn_conv_layer.cpp:194] Reallocating workspace storage: 3072
I0630 19:27:36.721463 38212 net.cpp:150] Setting up conv4_5_3
I0630 19:27:36.721487 38212 net.cpp:157] Top shape: 8 1024 14 14 (1605632)
I0630 19:27:36.721503 38212 net.cpp:165] Memory required for data: 1600829472
I0630 19:27:36.721526 38212 layer_factory.hpp:76] Creating layer conv4_5_sum
I0630 19:27:36.721565 38212 net.cpp:106] Creating Layer conv4_5_sum
I0630 19:27:36.721585 38212 net.cpp:454] conv4_5_sum <- conv4_4_sum_bn_conv4_4_sum_relu_0_split_1
I0630 19:27:36.721603 38212 net.cpp:454] conv4_5_sum <- conv4_5_3
I0630 19:27:36.721626 38212 net.cpp:411] conv4_5_sum -> conv4_5_sum
I0630 19:27:36.721710 38212 net.cpp:150] Setting up conv4_5_sum
I0630 19:27:36.721738 38212 net.cpp:157] Top shape: 8 1024 14 14 (1605632)
I0630 19:27:36.721753 38212 net.cpp:165] Memory required for data: 1607252000
I0630 19:27:36.721768 38212 layer_factory.hpp:76] Creating layer conv4_5_sum_bn
I0630 19:27:36.721797 38212 net.cpp:106] Creating Layer conv4_5_sum_bn
I0630 19:27:36.721813 38212 net.cpp:454] conv4_5_sum_bn <- conv4_5_sum
I0630 19:27:36.721833 38212 net.cpp:411] conv4_5_sum_bn -> conv4_5_sum_bn
I0630 19:27:36.722149 38212 net.cpp:150] Setting up conv4_5_sum_bn
I0630 19:27:36.722172 38212 net.cpp:157] Top shape: 8 1024 14 14 (1605632)
I0630 19:27:36.722185 38212 net.cpp:165] Memory required for data: 1613674528
I0630 19:27:36.722215 38212 layer_factory.hpp:76] Creating layer conv4_5_sum_relu
I0630 19:27:36.722235 38212 net.cpp:106] Creating Layer conv4_5_sum_relu
I0630 19:27:36.722252 38212 net.cpp:454] conv4_5_sum_relu <- conv4_5_sum_bn
I0630 19:27:36.722275 38212 net.cpp:397] conv4_5_sum_relu -> conv4_5_sum_bn (in-place)
I0630 19:27:36.722506 38212 net.cpp:150] Setting up conv4_5_sum_relu
I0630 19:27:36.722560 38212 net.cpp:157] Top shape: 8 1024 14 14 (1605632)
I0630 19:27:36.722575 38212 net.cpp:165] Memory required for data: 1620097056
I0630 19:27:36.722591 38212 layer_factory.hpp:76] Creating layer conv4_5_sum_bn_conv4_5_sum_relu_0_split
I0630 19:27:36.722609 38212 net.cpp:106] Creating Layer conv4_5_sum_bn_conv4_5_sum_relu_0_split
I0630 19:27:36.722625 38212 net.cpp:454] conv4_5_sum_bn_conv4_5_sum_relu_0_split <- conv4_5_sum_bn
I0630 19:27:36.722651 38212 net.cpp:411] conv4_5_sum_bn_conv4_5_sum_relu_0_split -> conv4_5_sum_bn_conv4_5_sum_relu_0_split_0
I0630 19:27:36.722674 38212 net.cpp:411] conv4_5_sum_bn_conv4_5_sum_relu_0_split -> conv4_5_sum_bn_conv4_5_sum_relu_0_split_1
I0630 19:27:36.722771 38212 net.cpp:150] Setting up conv4_5_sum_bn_conv4_5_sum_relu_0_split
I0630 19:27:36.722792 38212 net.cpp:157] Top shape: 8 1024 14 14 (1605632)
I0630 19:27:36.722808 38212 net.cpp:157] Top shape: 8 1024 14 14 (1605632)
I0630 19:27:36.722822 38212 net.cpp:165] Memory required for data: 1632942112
I0630 19:27:36.722836 38212 layer_factory.hpp:76] Creating layer conv4_6_1
I0630 19:27:36.722875 38212 net.cpp:106] Creating Layer conv4_6_1
I0630 19:27:36.722894 38212 net.cpp:454] conv4_6_1 <- conv4_5_sum_bn_conv4_5_sum_relu_0_split_0
I0630 19:27:36.722916 38212 net.cpp:411] conv4_6_1 -> conv4_6_1
I0630 19:27:36.733402 38212 cudnn_conv_layer.cpp:194] Reallocating workspace storage: 19267584
I0630 19:27:36.733968 38212 net.cpp:150] Setting up conv4_6_1
I0630 19:27:36.733996 38212 net.cpp:157] Top shape: 8 256 14 14 (401408)
I0630 19:27:36.734012 38212 net.cpp:165] Memory required for data: 1634547744
I0630 19:27:36.734035 38212 layer_factory.hpp:76] Creating layer conv4_6_1_bn
I0630 19:27:36.734060 38212 net.cpp:106] Creating Layer conv4_6_1_bn
I0630 19:27:36.734077 38212 net.cpp:454] conv4_6_1_bn <- conv4_6_1
I0630 19:27:36.734107 38212 net.cpp:411] conv4_6_1_bn -> conv4_6_1_bn
I0630 19:27:36.734436 38212 net.cpp:150] Setting up conv4_6_1_bn
I0630 19:27:36.734459 38212 net.cpp:157] Top shape: 8 256 14 14 (401408)
I0630 19:27:36.734473 38212 net.cpp:165] Memory required for data: 1636153376
I0630 19:27:36.734503 38212 layer_factory.hpp:76] Creating layer conv4_6_1_relu
I0630 19:27:36.734524 38212 net.cpp:106] Creating Layer conv4_6_1_relu
I0630 19:27:36.734540 38212 net.cpp:454] conv4_6_1_relu <- conv4_6_1_bn
I0630 19:27:36.734557 38212 net.cpp:397] conv4_6_1_relu -> conv4_6_1_bn (in-place)
I0630 19:27:36.734972 38212 net.cpp:150] Setting up conv4_6_1_relu
I0630 19:27:36.735000 38212 net.cpp:157] Top shape: 8 256 14 14 (401408)
I0630 19:27:36.735015 38212 net.cpp:165] Memory required for data: 1637759008
I0630 19:27:36.735030 38212 layer_factory.hpp:76] Creating layer conv4_6_2
I0630 19:27:36.735062 38212 net.cpp:106] Creating Layer conv4_6_2
I0630 19:27:36.735081 38212 net.cpp:454] conv4_6_2 <- conv4_6_1_bn
I0630 19:27:36.735107 38212 net.cpp:411] conv4_6_2 -> conv4_6_2
I0630 19:27:36.756856 38212 net.cpp:150] Setting up conv4_6_2
I0630 19:27:36.756898 38212 net.cpp:157] Top shape: 8 256 14 14 (401408)
I0630 19:27:36.756913 38212 net.cpp:165] Memory required for data: 1639364640
I0630 19:27:36.757164 38212 layer_factory.hpp:76] Creating layer conv4_6_2_bn
I0630 19:27:36.757194 38212 net.cpp:106] Creating Layer conv4_6_2_bn
I0630 19:27:36.757213 38212 net.cpp:454] conv4_6_2_bn <- conv4_6_2
I0630 19:27:36.757235 38212 net.cpp:411] conv4_6_2_bn -> conv4_6_2_bn
I0630 19:27:36.757562 38212 net.cpp:150] Setting up conv4_6_2_bn
I0630 19:27:36.757585 38212 net.cpp:157] Top shape: 8 256 14 14 (401408)
I0630 19:27:36.757598 38212 net.cpp:165] Memory required for data: 1640970272
I0630 19:27:36.757621 38212 layer_factory.hpp:76] Creating layer conv4_6_2_relu
I0630 19:27:36.757640 38212 net.cpp:106] Creating Layer conv4_6_2_relu
I0630 19:27:36.757657 38212 net.cpp:454] conv4_6_2_relu <- conv4_6_2_bn
I0630 19:27:36.757684 38212 net.cpp:397] conv4_6_2_relu -> conv4_6_2_bn (in-place)
I0630 19:27:36.758091 38212 net.cpp:150] Setting up conv4_6_2_relu
I0630 19:27:36.758116 38212 net.cpp:157] Top shape: 8 256 14 14 (401408)
I0630 19:27:36.758164 38212 net.cpp:165] Memory required for data: 1642575904
I0630 19:27:36.758190 38212 layer_factory.hpp:76] Creating layer conv4_6_3
I0630 19:27:36.758225 38212 net.cpp:106] Creating Layer conv4_6_3
I0630 19:27:36.758244 38212 net.cpp:454] conv4_6_3 <- conv4_6_2_bn
I0630 19:27:36.758266 38212 net.cpp:411] conv4_6_3 -> conv4_6_3
I0630 19:27:36.768766 38212 cudnn_conv_layer.cpp:194] Reallocating workspace storage: 3072
I0630 19:27:36.768827 38212 net.cpp:150] Setting up conv4_6_3
I0630 19:27:36.768856 38212 net.cpp:157] Top shape: 8 1024 14 14 (1605632)
I0630 19:27:36.768872 38212 net.cpp:165] Memory required for data: 1648998432
I0630 19:27:36.768894 38212 layer_factory.hpp:76] Creating layer conv4_6_sum
I0630 19:27:36.768915 38212 net.cpp:106] Creating Layer conv4_6_sum
I0630 19:27:36.768934 38212 net.cpp:454] conv4_6_sum <- conv4_5_sum_bn_conv4_5_sum_relu_0_split_1
I0630 19:27:36.768961 38212 net.cpp:454] conv4_6_sum <- conv4_6_3
I0630 19:27:36.768982 38212 net.cpp:411] conv4_6_sum -> conv4_6_sum
I0630 19:27:36.769053 38212 net.cpp:150] Setting up conv4_6_sum
I0630 19:27:36.769074 38212 net.cpp:157] Top shape: 8 1024 14 14 (1605632)
I0630 19:27:36.769088 38212 net.cpp:165] Memory required for data: 1655420960
I0630 19:27:36.769103 38212 layer_factory.hpp:76] Creating layer conv4_6_sum_bn
I0630 19:27:36.769131 38212 net.cpp:106] Creating Layer conv4_6_sum_bn
I0630 19:27:36.769148 38212 net.cpp:454] conv4_6_sum_bn <- conv4_6_sum
I0630 19:27:36.769166 38212 net.cpp:411] conv4_6_sum_bn -> conv4_6_sum_bn
I0630 19:27:36.769486 38212 net.cpp:150] Setting up conv4_6_sum_bn
I0630 19:27:36.769508 38212 net.cpp:157] Top shape: 8 1024 14 14 (1605632)
I0630 19:27:36.769522 38212 net.cpp:165] Memory required for data: 1661843488
I0630 19:27:36.769544 38212 layer_factory.hpp:76] Creating layer conv4_6_sum_relu
I0630 19:27:36.769575 38212 net.cpp:106] Creating Layer conv4_6_sum_relu
I0630 19:27:36.769593 38212 net.cpp:454] conv4_6_sum_relu <- conv4_6_sum_bn
I0630 19:27:36.769621 38212 net.cpp:397] conv4_6_sum_relu -> conv4_6_sum_bn (in-place)
I0630 19:27:36.769868 38212 net.cpp:150] Setting up conv4_6_sum_relu
I0630 19:27:36.769892 38212 net.cpp:157] Top shape: 8 1024 14 14 (1605632)
I0630 19:27:36.769907 38212 net.cpp:165] Memory required for data: 1668266016
I0630 19:27:36.769930 38212 layer_factory.hpp:76] Creating layer conv4_6_sum_bn_conv4_6_sum_relu_0_split
I0630 19:27:36.769954 38212 net.cpp:106] Creating Layer conv4_6_sum_bn_conv4_6_sum_relu_0_split
I0630 19:27:36.769970 38212 net.cpp:454] conv4_6_sum_bn_conv4_6_sum_relu_0_split <- conv4_6_sum_bn
I0630 19:27:36.769987 38212 net.cpp:411] conv4_6_sum_bn_conv4_6_sum_relu_0_split -> conv4_6_sum_bn_conv4_6_sum_relu_0_split_0
I0630 19:27:36.770009 38212 net.cpp:411] conv4_6_sum_bn_conv4_6_sum_relu_0_split -> conv4_6_sum_bn_conv4_6_sum_relu_0_split_1
I0630 19:27:36.770107 38212 net.cpp:150] Setting up conv4_6_sum_bn_conv4_6_sum_relu_0_split
I0630 19:27:36.770128 38212 net.cpp:157] Top shape: 8 1024 14 14 (1605632)
I0630 19:27:36.770144 38212 net.cpp:157] Top shape: 8 1024 14 14 (1605632)
I0630 19:27:36.770159 38212 net.cpp:165] Memory required for data: 1681111072
I0630 19:27:36.770172 38212 layer_factory.hpp:76] Creating layer conv4_7_1
I0630 19:27:36.770195 38212 net.cpp:106] Creating Layer conv4_7_1
I0630 19:27:36.770211 38212 net.cpp:454] conv4_7_1 <- conv4_6_sum_bn_conv4_6_sum_relu_0_split_0
I0630 19:27:36.770241 38212 net.cpp:411] conv4_7_1 -> conv4_7_1
I0630 19:27:36.780876 38212 cudnn_conv_layer.cpp:194] Reallocating workspace storage: 19267584
I0630 19:27:36.781131 38212 net.cpp:150] Setting up conv4_7_1
I0630 19:27:36.781157 38212 net.cpp:157] Top shape: 8 256 14 14 (401408)
I0630 19:27:36.781170 38212 net.cpp:165] Memory required for data: 1682716704
I0630 19:27:36.781193 38212 layer_factory.hpp:76] Creating layer conv4_7_1_bn
I0630 19:27:36.781216 38212 net.cpp:106] Creating Layer conv4_7_1_bn
I0630 19:27:36.781234 38212 net.cpp:454] conv4_7_1_bn <- conv4_7_1
I0630 19:27:36.781253 38212 net.cpp:411] conv4_7_1_bn -> conv4_7_1_bn
I0630 19:27:36.781582 38212 net.cpp:150] Setting up conv4_7_1_bn
I0630 19:27:36.781626 38212 net.cpp:157] Top shape: 8 256 14 14 (401408)
I0630 19:27:36.781641 38212 net.cpp:165] Memory required for data: 1684322336
I0630 19:27:36.781663 38212 layer_factory.hpp:76] Creating layer conv4_7_1_relu
I0630 19:27:36.781692 38212 net.cpp:106] Creating Layer conv4_7_1_relu
I0630 19:27:36.781711 38212 net.cpp:454] conv4_7_1_relu <- conv4_7_1_bn
I0630 19:27:36.781731 38212 net.cpp:397] conv4_7_1_relu -> conv4_7_1_bn (in-place)
I0630 19:27:36.782131 38212 net.cpp:150] Setting up conv4_7_1_relu
I0630 19:27:36.782156 38212 net.cpp:157] Top shape: 8 256 14 14 (401408)
I0630 19:27:36.782171 38212 net.cpp:165] Memory required for data: 1685927968
I0630 19:27:36.782196 38212 layer_factory.hpp:76] Creating layer conv4_7_2
I0630 19:27:36.782229 38212 net.cpp:106] Creating Layer conv4_7_2
I0630 19:27:36.782248 38212 net.cpp:454] conv4_7_2 <- conv4_7_1_bn
I0630 19:27:36.782274 38212 net.cpp:411] conv4_7_2 -> conv4_7_2
I0630 19:27:36.804270 38212 net.cpp:150] Setting up conv4_7_2
I0630 19:27:36.804313 38212 net.cpp:157] Top shape: 8 256 14 14 (401408)
I0630 19:27:36.804328 38212 net.cpp:165] Memory required for data: 1687533600
I0630 19:27:36.804348 38212 layer_factory.hpp:76] Creating layer conv4_7_2_bn
I0630 19:27:36.804374 38212 net.cpp:106] Creating Layer conv4_7_2_bn
I0630 19:27:36.804394 38212 net.cpp:454] conv4_7_2_bn <- conv4_7_2
I0630 19:27:36.804412 38212 net.cpp:411] conv4_7_2_bn -> conv4_7_2_bn
I0630 19:27:36.804741 38212 net.cpp:150] Setting up conv4_7_2_bn
I0630 19:27:36.804764 38212 net.cpp:157] Top shape: 8 256 14 14 (401408)
I0630 19:27:36.804777 38212 net.cpp:165] Memory required for data: 1689139232
I0630 19:27:36.804800 38212 layer_factory.hpp:76] Creating layer conv4_7_2_relu
I0630 19:27:36.804818 38212 net.cpp:106] Creating Layer conv4_7_2_relu
I0630 19:27:36.804834 38212 net.cpp:454] conv4_7_2_relu <- conv4_7_2_bn
I0630 19:27:36.804852 38212 net.cpp:397] conv4_7_2_relu -> conv4_7_2_bn (in-place)
I0630 19:27:36.805245 38212 net.cpp:150] Setting up conv4_7_2_relu
I0630 19:27:36.805270 38212 net.cpp:157] Top shape: 8 256 14 14 (401408)
I0630 19:27:36.805284 38212 net.cpp:165] Memory required for data: 1690744864
I0630 19:27:36.805299 38212 layer_factory.hpp:76] Creating layer conv4_7_3
I0630 19:27:36.805346 38212 net.cpp:106] Creating Layer conv4_7_3
I0630 19:27:36.805364 38212 net.cpp:454] conv4_7_3 <- conv4_7_2_bn
I0630 19:27:36.805384 38212 net.cpp:411] conv4_7_3 -> conv4_7_3
I0630 19:27:36.816426 38212 cudnn_conv_layer.cpp:194] Reallocating workspace storage: 3072
I0630 19:27:36.816512 38212 net.cpp:150] Setting up conv4_7_3
I0630 19:27:36.816535 38212 net.cpp:157] Top shape: 8 1024 14 14 (1605632)
I0630 19:27:36.816551 38212 net.cpp:165] Memory required for data: 1697167392
I0630 19:27:36.816573 38212 layer_factory.hpp:76] Creating layer conv4_7_sum
I0630 19:27:36.816597 38212 net.cpp:106] Creating Layer conv4_7_sum
I0630 19:27:36.816615 38212 net.cpp:454] conv4_7_sum <- conv4_6_sum_bn_conv4_6_sum_relu_0_split_1
I0630 19:27:36.816635 38212 net.cpp:454] conv4_7_sum <- conv4_7_3
I0630 19:27:36.816654 38212 net.cpp:411] conv4_7_sum -> conv4_7_sum
I0630 19:27:36.816721 38212 net.cpp:150] Setting up conv4_7_sum
I0630 19:27:36.816743 38212 net.cpp:157] Top shape: 8 1024 14 14 (1605632)
I0630 19:27:36.816757 38212 net.cpp:165] Memory required for data: 1703589920
I0630 19:27:36.816772 38212 layer_factory.hpp:76] Creating layer conv4_7_sum_bn
I0630 19:27:36.816792 38212 net.cpp:106] Creating Layer conv4_7_sum_bn
I0630 19:27:36.816808 38212 net.cpp:454] conv4_7_sum_bn <- conv4_7_sum
I0630 19:27:36.816828 38212 net.cpp:411] conv4_7_sum_bn -> conv4_7_sum_bn
I0630 19:27:36.817155 38212 net.cpp:150] Setting up conv4_7_sum_bn
I0630 19:27:36.817176 38212 net.cpp:157] Top shape: 8 1024 14 14 (1605632)
I0630 19:27:36.817190 38212 net.cpp:165] Memory required for data: 1710012448
I0630 19:27:36.817211 38212 layer_factory.hpp:76] Creating layer conv4_7_sum_relu
I0630 19:27:36.817253 38212 net.cpp:106] Creating Layer conv4_7_sum_relu
I0630 19:27:36.817270 38212 net.cpp:454] conv4_7_sum_relu <- conv4_7_sum_bn
I0630 19:27:36.817320 38212 net.cpp:397] conv4_7_sum_relu -> conv4_7_sum_bn (in-place)
I0630 19:27:36.817605 38212 net.cpp:150] Setting up conv4_7_sum_relu
I0630 19:27:36.817627 38212 net.cpp:157] Top shape: 8 1024 14 14 (1605632)
I0630 19:27:36.817641 38212 net.cpp:165] Memory required for data: 1716434976
I0630 19:27:36.817656 38212 layer_factory.hpp:76] Creating layer conv4_7_sum_bn_conv4_7_sum_relu_0_split
I0630 19:27:36.817695 38212 net.cpp:106] Creating Layer conv4_7_sum_bn_conv4_7_sum_relu_0_split
I0630 19:27:36.817713 38212 net.cpp:454] conv4_7_sum_bn_conv4_7_sum_relu_0_split <- conv4_7_sum_bn
I0630 19:27:36.817734 38212 net.cpp:411] conv4_7_sum_bn_conv4_7_sum_relu_0_split -> conv4_7_sum_bn_conv4_7_sum_relu_0_split_0
I0630 19:27:36.817759 38212 net.cpp:411] conv4_7_sum_bn_conv4_7_sum_relu_0_split -> conv4_7_sum_bn_conv4_7_sum_relu_0_split_1
I0630 19:27:36.817880 38212 net.cpp:150] Setting up conv4_7_sum_bn_conv4_7_sum_relu_0_split
I0630 19:27:36.817900 38212 net.cpp:157] Top shape: 8 1024 14 14 (1605632)
I0630 19:27:36.817916 38212 net.cpp:157] Top shape: 8 1024 14 14 (1605632)
I0630 19:27:36.817930 38212 net.cpp:165] Memory required for data: 1729280032
I0630 19:27:36.817945 38212 layer_factory.hpp:76] Creating layer conv4_8_1
I0630 19:27:36.817968 38212 net.cpp:106] Creating Layer conv4_8_1
I0630 19:27:36.817986 38212 net.cpp:454] conv4_8_1 <- conv4_7_sum_bn_conv4_7_sum_relu_0_split_0
I0630 19:27:36.818017 38212 net.cpp:411] conv4_8_1 -> conv4_8_1
I0630 19:27:36.830009 38212 cudnn_conv_layer.cpp:194] Reallocating workspace storage: 19267584
I0630 19:27:36.839064 38212 net.cpp:150] Setting up conv4_8_1
I0630 19:27:36.839102 38212 net.cpp:157] Top shape: 8 256 14 14 (401408)
I0630 19:27:36.839118 38212 net.cpp:165] Memory required for data: 1730885664
I0630 19:27:36.839155 38212 layer_factory.hpp:76] Creating layer conv4_8_1_bn
I0630 19:27:36.839192 38212 net.cpp:106] Creating Layer conv4_8_1_bn
I0630 19:27:36.839210 38212 net.cpp:454] conv4_8_1_bn <- conv4_8_1
I0630 19:27:36.839231 38212 net.cpp:411] conv4_8_1_bn -> conv4_8_1_bn
I0630 19:27:36.839596 38212 net.cpp:150] Setting up conv4_8_1_bn
I0630 19:27:36.839617 38212 net.cpp:157] Top shape: 8 256 14 14 (401408)
I0630 19:27:36.839632 38212 net.cpp:165] Memory required for data: 1732491296
I0630 19:27:36.839653 38212 layer_factory.hpp:76] Creating layer conv4_8_1_relu
I0630 19:27:36.839689 38212 net.cpp:106] Creating Layer conv4_8_1_relu
I0630 19:27:36.839705 38212 net.cpp:454] conv4_8_1_relu <- conv4_8_1_bn
I0630 19:27:36.839725 38212 net.cpp:397] conv4_8_1_relu -> conv4_8_1_bn (in-place)
I0630 19:27:36.848310 38212 net.cpp:150] Setting up conv4_8_1_relu
I0630 19:27:36.848345 38212 net.cpp:157] Top shape: 8 256 14 14 (401408)
I0630 19:27:36.848361 38212 net.cpp:165] Memory required for data: 1734096928
I0630 19:27:36.848376 38212 layer_factory.hpp:76] Creating layer conv4_8_2
I0630 19:27:36.848415 38212 net.cpp:106] Creating Layer conv4_8_2
I0630 19:27:36.848433 38212 net.cpp:454] conv4_8_2 <- conv4_8_1_bn
I0630 19:27:36.848454 38212 net.cpp:411] conv4_8_2 -> conv4_8_2
…
I0630 19:27:41.232323 38212 net.cpp:165] Memory required for data: 2891757664
I0630 19:27:41.232349 38212 layer_factory.hpp:76] Creating layer conv4_32_2_bn
I0630 19:27:41.232363 38212 net.cpp:106] Creating Layer conv4_32_2_bn
I0630 19:27:41.232374 38212 net.cpp:454] conv4_32_2_bn <- conv4_32_2
I0630 19:27:41.232386 38212 net.cpp:411] conv4_32_2_bn -> conv4_32_2_bn
I0630 19:27:41.232661 38212 net.cpp:150] Setting up conv4_32_2_bn
I0630 19:27:41.232687 38212 net.cpp:157] Top shape: 8 256 14 14 (401408)
I0630 19:27:41.232694 38212 net.cpp:165] Memory required for data: 2893363296
I0630 19:27:41.232707 38212 layer_factory.hpp:76] Creating layer conv4_32_2_relu
I0630 19:27:41.232719 38212 net.cpp:106] Creating Layer conv4_32_2_relu
I0630 19:27:41.232728 38212 net.cpp:454] conv4_32_2_relu <- conv4_32_2_bn
I0630 19:27:41.232738 38212 net.cpp:397] conv4_32_2_relu -> conv4_32_2_bn (in-place)
I0630 19:27:41.233026 38212 net.cpp:150] Setting up conv4_32_2_relu
I0630 19:27:41.233045 38212 net.cpp:157] Top shape: 8 256 14 14 (401408)
I0630 19:27:41.233052 38212 net.cpp:165] Memory required for data: 2894968928
I0630 19:27:41.233062 38212 layer_factory.hpp:76] Creating layer conv4_32_3
I0630 19:27:41.233077 38212 net.cpp:106] Creating Layer conv4_32_3
I0630 19:27:41.233085 38212 net.cpp:454] conv4_32_3 <- conv4_32_2_bn
I0630 19:27:41.233109 38212 net.cpp:411] conv4_32_3 -> conv4_32_3
I0630 19:27:41.254894 38212 cudnn_conv_layer.cpp:194] Reallocating workspace storage: 3072
I0630 19:27:41.254988 38212 net.cpp:150] Setting up conv4_32_3
I0630 19:27:41.255005 38212 net.cpp:157] Top shape: 8 1024 14 14 (1605632)
I0630 19:27:41.255014 38212 net.cpp:165] Memory required for data: 2901391456
I0630 19:27:41.255041 38212 layer_factory.hpp:76] Creating layer conv4_32_sum
I0630 19:27:41.255058 38212 net.cpp:106] Creating Layer conv4_32_sum
I0630 19:27:41.255067 38212 net.cpp:454] conv4_32_sum <- conv4_31_sum_bn_conv4_31_sum_relu_0_split_1
I0630 19:27:41.255079 38212 net.cpp:454] conv4_32_sum <- conv4_32_3
I0630 19:27:41.255091 38212 net.cpp:411] conv4_32_sum -> conv4_32_sum
I0630 19:27:41.255134 38212 net.cpp:150] Setting up conv4_32_sum
I0630 19:27:41.255149 38212 net.cpp:157] Top shape: 8 1024 14 14 (1605632)
I0630 19:27:41.255157 38212 net.cpp:165] Memory required for data: 2907813984
I0630 19:27:41.255177 38212 layer_factory.hpp:76] Creating layer conv4_32_sum_bn
I0630 19:27:41.255192 38212 net.cpp:106] Creating Layer conv4_32_sum_bn
I0630 19:27:41.255203 38212 net.cpp:454] conv4_32_sum_bn <- conv4_32_sum
I0630 19:27:41.255215 38212 net.cpp:411] conv4_32_sum_bn -> conv4_32_sum_bn
I0630 19:27:41.255487 38212 net.cpp:150] Setting up conv4_32_sum_bn
I0630 19:27:41.255502 38212 net.cpp:157] Top shape: 8 1024 14 14 (1605632)
I0630 19:27:41.255511 38212 net.cpp:165] Memory required for data: 2914236512
I0630 19:27:41.255522 38212 layer_factory.hpp:76] Creating layer conv4_32_sum_relu
I0630 19:27:41.255534 38212 net.cpp:106] Creating Layer conv4_32_sum_relu
I0630 19:27:41.255544 38212 net.cpp:454] conv4_32_sum_relu <- conv4_32_sum_bn
I0630 19:27:41.255553 38212 net.cpp:397] conv4_32_sum_relu -> conv4_32_sum_bn (in-place)
I0630 19:27:41.264214 38212 net.cpp:150] Setting up conv4_32_sum_relu
I0630 19:27:41.264238 38212 net.cpp:157] Top shape: 8 1024 14 14 (1605632)
I0630 19:27:41.264247 38212 net.cpp:165] Memory required for data: 2920659040
I0630 19:27:41.264256 38212 layer_factory.hpp:76] Creating layer conv4_32_sum_bn_conv4_32_sum_relu_0_split
I0630 19:27:41.264269 38212 net.cpp:106] Creating Layer conv4_32_sum_bn_conv4_32_sum_relu_0_split
I0630 19:27:41.264281 38212 net.cpp:454] conv4_32_sum_bn_conv4_32_sum_relu_0_split <- conv4_32_sum_bn
I0630 19:27:41.264291 38212 net.cpp:411] conv4_32_sum_bn_conv4_32_sum_relu_0_split -> conv4_32_sum_bn_conv4_32_sum_relu_0_split_0
I0630 19:27:41.264302 38212 net.cpp:411] conv4_32_sum_bn_conv4_32_sum_relu_0_split -> conv4_32_sum_bn_conv4_32_sum_relu_0_split_1
I0630 19:27:41.264369 38212 net.cpp:150] Setting up conv4_32_sum_bn_conv4_32_sum_relu_0_split
I0630 19:27:41.264382 38212 net.cpp:157] Top shape: 8 1024 14 14 (1605632)
I0630 19:27:41.264391 38212 net.cpp:157] Top shape: 8 1024 14 14 (1605632)
I0630 19:27:41.264400 38212 net.cpp:165] Memory required for data: 2933504096
I0630 19:27:41.264410 38212 layer_factory.hpp:76] Creating layer conv4_33_1
I0630 19:27:41.264425 38212 net.cpp:106] Creating Layer conv4_33_1
I0630 19:27:41.264433 38212 net.cpp:454] conv4_33_1 <- conv4_32_sum_bn_conv4_32_sum_relu_0_split_0
I0630 19:27:41.264447 38212 net.cpp:411] conv4_33_1 -> conv4_33_1
I0630 19:27:41.283597 38212 cudnn_conv_layer.cpp:194] Reallocating workspace storage: 19267584
I0630 19:27:41.284183 38212 net.cpp:150] Setting up conv4_33_1
I0630 19:27:41.284214 38212 net.cpp:157] Top shape: 8 256 14 14 (401408)
I0630 19:27:41.284224 38212 net.cpp:165] Memory required for data: 2935109728
I0630 19:27:41.284235 38212 layer_factory.hpp:76] Creating layer conv4_33_1_bn
I0630 19:27:41.284265 38212 net.cpp:106] Creating Layer conv4_33_1_bn
I0630 19:27:41.284276 38212 net.cpp:454] conv4_33_1_bn <- conv4_33_1
I0630 19:27:41.284287 38212 net.cpp:411] conv4_33_1_bn -> conv4_33_1_bn
I0630 19:27:41.284633 38212 net.cpp:150] Setting up conv4_33_1_bn
I0630 19:27:41.284648 38212 net.cpp:157] Top shape: 8 256 14 14 (401408)
I0630 19:27:41.284657 38212 net.cpp:165] Memory required for data: 2936715360
I0630 19:27:41.284668 38212 layer_factory.hpp:76] Creating layer conv4_33_1_relu
I0630 19:27:41.284695 38212 net.cpp:106] Creating Layer conv4_33_1_relu
I0630 19:27:41.284704 38212 net.cpp:454] conv4_33_1_relu <- conv4_33_1_bn
I0630 19:27:41.284713 38212 net.cpp:397] conv4_33_1_relu -> conv4_33_1_bn (in-place)
I0630 19:27:41.285398 38212 net.cpp:150] Setting up conv4_33_1_relu
I0630 19:27:41.285431 38212 net.cpp:157] Top shape: 8 256 14 14 (401408)
I0630 19:27:41.285449 38212 net.cpp:165] Memory required for data: 2938320992
I0630 19:27:41.285457 38212 layer_factory.hpp:76] Creating layer conv4_33_2
I0630 19:27:41.285470 38212 net.cpp:106] Creating Layer conv4_33_2
I0630 19:27:41.285480 38212 net.cpp:454] conv4_33_2 <- conv4_33_1_bn
I0630 19:27:41.285492 38212 net.cpp:411] conv4_33_2 -> conv4_33_2
I0630 19:27:41.318452 38212 net.cpp:150] Setting up conv4_33_2
I0630 19:27:41.318477 38212 net.cpp:157] Top shape: 8 256 14 14 (401408)
I0630 19:27:41.318486 38212 net.cpp:165] Memory required for data: 2939926624
I0630 19:27:41.318500 38212 layer_factory.hpp:76] Creating layer conv4_33_2_bn
I0630 19:27:41.318524 38212 net.cpp:106] Creating Layer conv4_33_2_bn
I0630 19:27:41.318536 38212 net.cpp:454] conv4_33_2_bn <- conv4_33_2
I0630 19:27:41.318548 38212 net.cpp:411] conv4_33_2_bn -> conv4_33_2_bn
I0630 19:27:41.318830 38212 net.cpp:150] Setting up conv4_33_2_bn
I0630 19:27:41.318845 38212 net.cpp:157] Top shape: 8 256 14 14 (401408)
I0630 19:27:41.318853 38212 net.cpp:165] Memory required for data: 2941532256
I0630 19:27:41.318866 38212 layer_factory.hpp:76] Creating layer conv4_33_2_relu
I0630 19:27:41.318878 38212 net.cpp:106] Creating Layer conv4_33_2_relu
I0630 19:27:41.318888 38212 net.cpp:454] conv4_33_2_relu <- conv4_33_2_bn
I0630 19:27:41.318897 38212 net.cpp:397] conv4_33_2_relu -> conv4_33_2_bn (in-place)
I0630 19:27:41.319157 38212 net.cpp:150] Setting up conv4_33_2_relu
I0630 19:27:41.319175 38212 net.cpp:157] Top shape: 8 256 14 14 (401408)
I0630 19:27:41.319183 38212 net.cpp:165] Memory required for data: 2943137888
I0630 19:27:41.319191 38212 layer_factory.hpp:76] Creating layer conv4_33_3
I0630 19:27:41.319207 38212 net.cpp:106] Creating Layer conv4_33_3
I0630 19:27:41.319217 38212 net.cpp:454] conv4_33_3 <- conv4_33_2_bn
I0630 19:27:41.319229 38212 net.cpp:411] conv4_33_3 -> conv4_33_3
I0630 19:27:41.338661 38212 cudnn_conv_layer.cpp:194] Reallocating workspace storage: 3072
I0630 19:27:41.338778 38212 net.cpp:150] Setting up conv4_33_3
I0630 19:27:41.338793 38212 net.cpp:157] Top shape: 8 1024 14 14 (1605632)
I0630 19:27:41.338802 38212 net.cpp:165] Memory required for data: 2949560416
I0630 19:27:41.338814 38212 layer_factory.hpp:76] Creating layer conv4_33_sum
I0630 19:27:41.338829 38212 net.cpp:106] Creating Layer conv4_33_sum
I0630 19:27:41.338840 38212 net.cpp:454] conv4_33_sum <- conv4_32_sum_bn_conv4_32_sum_relu_0_split_1
I0630 19:27:41.338866 38212 net.cpp:454] conv4_33_sum <- conv4_33_3
I0630 19:27:41.338878 38212 net.cpp:411] conv4_33_sum -> conv4_33_sum
I0630 19:27:41.338937 38212 net.cpp:150] Setting up conv4_33_sum
I0630 19:27:41.338964 38212 net.cpp:157] Top shape: 8 1024 14 14 (1605632)
I0630 19:27:41.338973 38212 net.cpp:165] Memory required for data: 2955982944
I0630 19:27:41.338982 38212 layer_factory.hpp:76] Creating layer conv4_33_sum_bn
I0630 19:27:41.338996 38212 net.cpp:106] Creating Layer conv4_33_sum_bn
I0630 19:27:41.339005 38212 net.cpp:454] conv4_33_sum_bn <- conv4_33_sum
I0630 19:27:41.339017 38212 net.cpp:411] conv4_33_sum_bn -> conv4_33_sum_bn
I0630 19:27:41.339304 38212 net.cpp:150] Setting up conv4_33_sum_bn
I0630 19:27:41.339319 38212 net.cpp:157] Top shape: 8 1024 14 14 (1605632)
I0630 19:27:41.339328 38212 net.cpp:165] Memory required for data: 2962405472
I0630 19:27:41.339339 38212 layer_factory.hpp:76] Creating layer conv4_33_sum_relu
I0630 19:27:41.339352 38212 net.cpp:106] Creating Layer conv4_33_sum_relu
I0630 19:27:41.339375 38212 net.cpp:454] conv4_33_sum_relu <- conv4_33_sum_bn
I0630 19:27:41.339383 38212 net.cpp:397] conv4_33_sum_relu -> conv4_33_sum_bn (in-place)
I0630 19:27:41.340055 38212 net.cpp:150] Setting up conv4_33_sum_relu
I0630 19:27:41.340077 38212 net.cpp:157] Top shape: 8 1024 14 14 (1605632)
I0630 19:27:41.340086 38212 net.cpp:165] Memory required for data: 2968828000
I0630 19:27:41.340095 38212 layer_factory.hpp:76] Creating layer conv4_33_sum_bn_conv4_33_sum_relu_0_split
I0630 19:27:41.340119 38212 net.cpp:106] Creating Layer conv4_33_sum_bn_conv4_33_sum_relu_0_split
I0630 19:27:41.340148 38212 net.cpp:454] conv4_33_sum_bn_conv4_33_sum_relu_0_split <- conv4_33_sum_bn
I0630 19:27:41.340159 38212 net.cpp:411] conv4_33_sum_bn_conv4_33_sum_relu_0_split -> conv4_33_sum_bn_conv4_33_sum_relu_0_split_0
I0630 19:27:41.340173 38212 net.cpp:411] conv4_33_sum_bn_conv4_33_sum_relu_0_split -> conv4_33_sum_bn_conv4_33_sum_relu_0_split_1
I0630 19:27:41.340273 38212 net.cpp:150] Setting up conv4_33_sum_bn_conv4_33_sum_relu_0_split
I0630 19:27:41.340291 38212 net.cpp:157] Top shape: 8 1024 14 14 (1605632)
I0630 19:27:41.340301 38212 net.cpp:157] Top shape: 8 1024 14 14 (1605632)
I0630 19:27:41.340308 38212 net.cpp:165] Memory required for data: 2981673056
I0630 19:27:41.340317 38212 layer_factory.hpp:76] Creating layer conv4_34_1
I0630 19:27:41.340332 38212 net.cpp:106] Creating Layer conv4_34_1
I0630 19:27:41.340343 38212 net.cpp:454] conv4_34_1 <- conv4_33_sum_bn_conv4_33_sum_relu_0_split_0
I0630 19:27:41.340356 38212 net.cpp:411] conv4_34_1 -> conv4_34_1
I0630 19:27:41.350742 38212 cudnn_conv_layer.cpp:194] Reallocating workspace storage: 19267584
I0630 19:27:41.351080 38212 net.cpp:150] Setting up conv4_34_1
I0630 19:27:41.351102 38212 net.cpp:157] Top shape: 8 256 14 14 (401408)
I0630 19:27:41.351111 38212 net.cpp:165] Memory required for data: 2983278688
I0630 19:27:41.351125 38212 layer_factory.hpp:76] Creating layer conv4_34_1_bn
I0630 19:27:41.351140 38212 net.cpp:106] Creating Layer conv4_34_1_bn
I0630 19:27:41.351150 38212 net.cpp:454] conv4_34_1_bn <- conv4_34_1
I0630 19:27:41.351163 38212 net.cpp:411] conv4_34_1_bn -> conv4_34_1_bn
I0630 19:27:41.351474 38212 net.cpp:150] Setting up conv4_34_1_bn
I0630 19:27:41.351488 38212 net.cpp:157] Top shape: 8 256 14 14 (401408)
I0630 19:27:41.351496 38212 net.cpp:165] Memory required for data: 2984884320
I0630 19:27:41.351508 38212 layer_factory.hpp:76] Creating layer conv4_34_1_relu
I0630 19:27:41.351523 38212 net.cpp:106] Creating Layer conv4_34_1_relu
I0630 19:27:41.351533 38212 net.cpp:454] conv4_34_1_relu <- conv4_34_1_bn
I0630 19:27:41.351542 38212 net.cpp:397] conv4_34_1_relu -> conv4_34_1_bn (in-place)
I0630 19:27:41.352030 38212 net.cpp:150] Setting up conv4_34_1_relu
I0630 19:27:41.352067 38212 net.cpp:157] Top shape: 8 256 14 14 (401408)
I0630 19:27:41.352077 38212 net.cpp:165] Memory required for data: 2986489952
I0630 19:27:41.352084 38212 layer_factory.hpp:76] Creating layer conv4_34_2
I0630 19:27:41.352100 38212 net.cpp:106] Creating Layer conv4_34_2
I0630 19:27:41.352123 38212 net.cpp:454] conv4_34_2 <- conv4_34_1_bn
I0630 19:27:41.352136 38212 net.cpp:411] conv4_34_2 -> conv4_34_2
I0630 19:27:41.372614 38212 net.cpp:150] Setting up conv4_34_2
I0630 19:27:41.372638 38212 net.cpp:157] Top shape: 8 256 14 14 (401408)
I0630 19:27:41.372648 38212 net.cpp:165] Memory required for data: 2988095584
I0630 19:27:41.372673 38212 layer_factory.hpp:76] Creating layer conv4_34_2_bn
I0630 19:27:41.372686 38212 net.cpp:106] Creating Layer conv4_34_2_bn
I0630 19:27:41.372696 38212 net.cpp:454] conv4_34_2_bn <- conv4_34_2
I0630 19:27:41.372706 38212 net.cpp:411] conv4_34_2_bn -> conv4_34_2_bn
I0630 19:27:41.373034 38212 net.cpp:150] Setting up conv4_34_2_bn
I0630 19:27:41.373060 38212 net.cpp:157] Top shape: 8 256 14 14 (401408)
I0630 19:27:41.373069 38212 net.cpp:165] Memory required for data: 2989701216
I0630 19:27:41.373081 38212 layer_factory.hpp:76] Creating layer conv4_34_2_relu
I0630 19:27:41.373107 38212 net.cpp:106] Creating Layer conv4_34_2_relu
I0630 19:27:41.373129 38212 net.cpp:454] conv4_34_2_relu <- conv4_34_2_bn
I0630 19:27:41.373141 38212 net.cpp:397] conv4_34_2_relu -> conv4_34_2_bn (in-place)
I0630 19:27:41.373472 38212 net.cpp:150] Setting up conv4_34_2_relu
I0630 19:27:41.373489 38212 net.cpp:157] Top shape: 8 256 14 14 (401408)
I0630 19:27:41.373497 38212 net.cpp:165] Memory required for data: 2991306848
I0630 19:27:41.373507 38212 layer_factory.hpp:76] Creating layer conv4_34_3
I0630 19:27:41.373522 38212 net.cpp:106] Creating Layer conv4_34_3
I0630 19:27:41.373533 38212 net.cpp:454] conv4_34_3 <- conv4_34_2_bn
I0630 19:27:41.373559 38212 net.cpp:411] conv4_34_3 -> conv4_34_3
I0630 19:27:41.384100 38212 cudnn_conv_layer.cpp:194] Reallocating workspace storage: 3072
I0630 19:27:41.384204 38212 net.cpp:150] Setting up conv4_34_3
I0630 19:27:41.384222 38212 net.cpp:157] Top shape: 8 1024 14 14 (1605632)
I0630 19:27:41.384230 38212 net.cpp:165] Memory required for data: 2997729376
I0630 19:27:41.384241 38212 layer_factory.hpp:76] Creating layer conv4_34_sum
I0630 19:27:41.384253 38212 net.cpp:106] Creating Layer conv4_34_sum
I0630 19:27:41.384264 38212 net.cpp:454] conv4_34_sum <- conv4_33_sum_bn_conv4_33_sum_relu_0_split_1
I0630 19:27:41.384287 38212 net.cpp:454] conv4_34_sum <- conv4_34_3
I0630 19:27:41.384300 38212 net.cpp:411] conv4_34_sum -> conv4_34_sum
I0630 19:27:41.384361 38212 net.cpp:150] Setting up conv4_34_sum
I0630 19:27:41.384377 38212 net.cpp:157] Top shape: 8 1024 14 14 (1605632)
I0630 19:27:41.384384 38212 net.cpp:165] Memory required for data: 3004151904
I0630 19:27:41.384395 38212 layer_factory.hpp:76] Creating layer conv4_34_sum_bn
I0630 19:27:41.384408 38212 net.cpp:106] Creating Layer conv4_34_sum_bn
I0630 19:27:41.384429 38212 net.cpp:454] conv4_34_sum_bn <- conv4_34_sum
I0630 19:27:41.384443 38212 net.cpp:411] conv4_34_sum_bn -> conv4_34_sum_bn
I0630 19:27:41.384775 38212 net.cpp:150] Setting up conv4_34_sum_bn
I0630 19:27:41.384790 38212 net.cpp:157] Top shape: 8 1024 14 14 (1605632)
I0630 19:27:41.384805 38212 net.cpp:165] Memory required for data: 3010574432
I0630 19:27:41.384830 38212 layer_factory.hpp:76] Creating layer conv4_34_sum_relu
I0630 19:27:41.384845 38212 net.cpp:106] Creating Layer conv4_34_sum_relu
I0630 19:27:41.384855 38212 net.cpp:454] conv4_34_sum_relu <- conv4_34_sum_bn
I0630 19:27:41.384865 38212 net.cpp:397] conv4_34_sum_relu -> conv4_34_sum_bn (in-place)
I0630 19:27:41.385655 38212 net.cpp:150] Setting up conv4_34_sum_relu
I0630 19:27:41.385674 38212 net.cpp:157] Top shape: 8 1024 14 14 (1605632)
I0630 19:27:41.385694 38212 net.cpp:165] Memory required for data: 3016996960
I0630 19:27:41.385715 38212 layer_factory.hpp:76] Creating layer conv4_34_sum_bn_conv4_34_sum_relu_0_split
I0630 19:27:41.385745 38212 net.cpp:106] Creating Layer conv4_34_sum_bn_conv4_34_sum_relu_0_split
I0630 19:27:41.385756 38212 net.cpp:454] conv4_34_sum_bn_conv4_34_sum_relu_0_split <- conv4_34_sum_bn
I0630 19:27:41.385773 38212 net.cpp:411] conv4_34_sum_bn_conv4_34_sum_relu_0_split -> conv4_34_sum_bn_conv4_34_sum_relu_0_split_0
I0630 19:27:41.385800 38212 net.cpp:411] conv4_34_sum_bn_conv4_34_sum_relu_0_split -> conv4_34_sum_bn_conv4_34_sum_relu_0_split_1
I0630 19:27:41.385893 38212 net.cpp:150] Setting up conv4_34_sum_bn_conv4_34_sum_relu_0_split
I0630 19:27:41.385907 38212 net.cpp:157] Top shape: 8 1024 14 14 (1605632)
I0630 19:27:41.385918 38212 net.cpp:157] Top shape: 8 1024 14 14 (1605632)
I0630 19:27:41.385926 38212 net.cpp:165] Memory required for data: 3029842016
I0630 19:27:41.385948 38212 layer_factory.hpp:76] Creating layer conv4_35_1
I0630 19:27:41.385968 38212 net.cpp:106] Creating Layer conv4_35_1
I0630 19:27:41.385977 38212 net.cpp:454] conv4_35_1 <- conv4_34_sum_bn_conv4_34_sum_relu_0_split_0
I0630 19:27:41.385988 38212 net.cpp:411] conv4_35_1 -> conv4_35_1
I0630 19:27:41.415971 38212 cudnn_conv_layer.cpp:194] Reallocating workspace storage: 19267584
I0630 19:27:41.416506 38212 net.cpp:150] Setting up conv4_35_1
I0630 19:27:41.416532 38212 net.cpp:157] Top shape: 8 256 14 14 (401408)
I0630 19:27:41.416543 38212 net.cpp:165] Memory required for data: 3031447648
I0630 19:27:41.416561 38212 layer_factory.hpp:76] Creating layer conv4_35_1_bn
I0630 19:27:41.416591 38212 net.cpp:106] Creating Layer conv4_35_1_bn
I0630 19:27:41.416606 38212 net.cpp:454] conv4_35_1_bn <- conv4_35_1
I0630 19:27:41.416621 38212 net.cpp:411] conv4_35_1_bn -> conv4_35_1_bn
I0630 19:27:41.417130 38212 net.cpp:150] Setting up conv4_35_1_bn
I0630 19:27:41.417148 38212 net.cpp:157] Top shape: 8 256 14 14 (401408)
I0630 19:27:41.417157 38212 net.cpp:165] Memory required for data: 3033053280
I0630 19:27:41.417217 38212 layer_factory.hpp:76] Creating layer conv4_35_1_relu
I0630 19:27:41.417237 38212 net.cpp:106] Creating Layer conv4_35_1_relu
I0630 19:27:41.417248 38212 net.cpp:454] conv4_35_1_relu <- conv4_35_1_bn
I0630 19:27:41.417258 38212 net.cpp:397] conv4_35_1_relu -> conv4_35_1_bn (in-place)
I0630 19:27:41.418020 38212 net.cpp:150] Setting up conv4_35_1_relu
I0630 19:27:41.418042 38212 net.cpp:157] Top shape: 8 256 14 14 (401408)
I0630 19:27:41.418051 38212 net.cpp:165] Memory required for data: 3034658912
I0630 19:27:41.418058 38212 layer_factory.hpp:76] Creating layer conv4_35_2
I0630 19:27:41.418077 38212 net.cpp:106] Creating Layer conv4_35_2
I0630 19:27:41.418087 38212 net.cpp:454] conv4_35_2 <- conv4_35_1_bn
I0630 19:27:41.418102 38212 net.cpp:411] conv4_35_2 -> conv4_35_2
I0630 19:27:41.451572 38212 net.cpp:150] Setting up conv4_35_2
I0630 19:27:41.451625 38212 net.cpp:157] Top shape: 8 256 14 14 (401408)
I0630 19:27:41.451637 38212 net.cpp:165] Memory required for data: 3036264544
I0630 19:27:41.451653 38212 layer_factory.hpp:76] Creating layer conv4_35_2_bn
I0630 19:27:41.451678 38212 net.cpp:106] Creating Layer conv4_35_2_bn
I0630 19:27:41.451691 38212 net.cpp:454] conv4_35_2_bn <- conv4_35_2
I0630 19:27:41.451707 38212 net.cpp:411] conv4_35_2_bn -> conv4_35_2_bn
I0630 19:27:41.452028 38212 net.cpp:150] Setting up conv4_35_2_bn
I0630 19:27:41.452045 38212 net.cpp:157] Top shape: 8 256 14 14 (401408)
I0630 19:27:41.452054 38212 net.cpp:165] Memory required for data: 3037870176
I0630 19:27:41.452066 38212 layer_factory.hpp:76] Creating layer conv4_35_2_relu
I0630 19:27:41.452083 38212 net.cpp:106] Creating Layer conv4_35_2_relu
I0630 19:27:41.452092 38212 net.cpp:454] conv4_35_2_relu <- conv4_35_2_bn
I0630 19:27:41.452105 38212 net.cpp:397] conv4_35_2_relu -> conv4_35_2_bn (in-place)
I0630 19:27:41.452363 38212 net.cpp:150] Setting up conv4_35_2_relu
I0630 19:27:41.452383 38212 net.cpp:157] Top shape: 8 256 14 14 (401408)
I0630 19:27:41.452391 38212 net.cpp:165] Memory required for data: 3039475808
I0630 19:27:41.452400 38212 layer_factory.hpp:76] Creating layer conv4_35_3
I0630 19:27:41.452435 38212 net.cpp:106] Creating Layer conv4_35_3
I0630 19:27:41.452446 38212 net.cpp:454] conv4_35_3 <- conv4_35_2_bn
I0630 19:27:41.452458 38212 net.cpp:411] conv4_35_3 -> conv4_35_3
I0630 19:27:41.463804 38212 cudnn_conv_layer.cpp:194] Reallocating workspace storage: 3072
I0630 19:27:41.463943 38212 net.cpp:150] Setting up conv4_35_3
I0630 19:27:41.463966 38212 net.cpp:157] Top shape: 8 1024 14 14 (1605632)
I0630 19:27:41.463976 38212 net.cpp:165] Memory required for data: 3045898336
I0630 19:27:41.463992 38212 layer_factory.hpp:76] Creating layer conv4_35_sum
I0630 19:27:41.465631 38212 net.cpp:106] Creating Layer conv4_35_sum
I0630 19:27:41.465657 38212 net.cpp:454] conv4_35_sum <- conv4_34_sum_bn_conv4_34_sum_relu_0_split_1
I0630 19:27:41.465670 38212 net.cpp:454] conv4_35_sum <- conv4_35_3
I0630 19:27:41.465683 38212 net.cpp:411] conv4_35_sum -> conv4_35_sum
I0630 19:27:41.465796 38212 net.cpp:150] Setting up conv4_35_sum
I0630 19:27:41.465813 38212 net.cpp:157] Top shape: 8 1024 14 14 (1605632)
I0630 19:27:41.465837 38212 net.cpp:165] Memory required for data: 3052320864
I0630 19:27:41.465873 38212 layer_factory.hpp:76] Creating layer conv4_35_sum_bn
I0630 19:27:41.465888 38212 net.cpp:106] Creating Layer conv4_35_sum_bn
I0630 19:27:41.465899 38212 net.cpp:454] conv4_35_sum_bn <- conv4_35_sum
I0630 19:27:41.465917 38212 net.cpp:411] conv4_35_sum_bn -> conv4_35_sum_bn
I0630 19:27:41.466310 38212 net.cpp:150] Setting up conv4_35_sum_bn
I0630 19:27:41.466327 38212 net.cpp:157] Top shape: 8 1024 14 14 (1605632)
I0630 19:27:41.466336 38212 net.cpp:165] Memory required for data: 3058743392
I0630 19:27:41.466351 38212 layer_factory.hpp:76] Creating layer conv4_35_sum_relu
I0630 19:27:41.466362 38212 net.cpp:106] Creating Layer conv4_35_sum_relu
I0630 19:27:41.466372 38212 net.cpp:454] conv4_35_sum_relu <- conv4_35_sum_bn
I0630 19:27:41.466382 38212 net.cpp:397] conv4_35_sum_relu -> conv4_35_sum_bn (in-place)
I0630 19:27:41.466964 38212 net.cpp:150] Setting up conv4_35_sum_relu
I0630 19:27:41.466984 38212 net.cpp:157] Top shape: 8 1024 14 14 (1605632)
I0630 19:27:41.466992 38212 net.cpp:165] Memory required for data: 3065165920
I0630 19:27:41.467002 38212 layer_factory.hpp:76] Creating layer conv4_35_sum_bn_conv4_35_sum_relu_0_split
I0630 19:27:41.467015 38212 net.cpp:106] Creating Layer conv4_35_sum_bn_conv4_35_sum_relu_0_split
I0630 19:27:41.467023 38212 net.cpp:454] conv4_35_sum_bn_conv4_35_sum_relu_0_split <- conv4_35_sum_bn
I0630 19:27:41.467033 38212 net.cpp:411] conv4_35_sum_bn_conv4_35_sum_relu_0_split -> conv4_35_sum_bn_conv4_35_sum_relu_0_split_0
I0630 19:27:41.467047 38212 net.cpp:411] conv4_35_sum_bn_conv4_35_sum_relu_0_split -> conv4_35_sum_bn_conv4_35_sum_relu_0_split_1
I0630 19:27:41.467118 38212 net.cpp:150] Setting up conv4_35_sum_bn_conv4_35_sum_relu_0_split
I0630 19:27:41.467133 38212 net.cpp:157] Top shape: 8 1024 14 14 (1605632)
I0630 19:27:41.467142 38212 net.cpp:157] Top shape: 8 1024 14 14 (1605632)
I0630 19:27:41.467149 38212 net.cpp:165] Memory required for data: 3078010976
I0630 19:27:41.467157 38212 layer_factory.hpp:76] Creating layer conv4_36_1
I0630 19:27:41.467175 38212 net.cpp:106] Creating Layer conv4_36_1
I0630 19:27:41.467185 38212 net.cpp:454] conv4_36_1 <- conv4_35_sum_bn_conv4_35_sum_relu_0_split_0
I0630 19:27:41.467196 38212 net.cpp:411] conv4_36_1 -> conv4_36_1
I0630 19:27:41.477064 38212 cudnn_conv_layer.cpp:194] Reallocating workspace storage: 19267584
I0630 19:27:41.477339 38212 net.cpp:150] Setting up conv4_36_1
I0630 19:27:41.477357 38212 net.cpp:157] Top shape: 8 256 14 14 (401408)
I0630 19:27:41.477366 38212 net.cpp:165] Memory required for data: 3079616608
I0630 19:27:41.477378 38212 layer_factory.hpp:76] Creating layer conv4_36_1_bn
I0630 19:27:41.477394 38212 net.cpp:106] Creating Layer conv4_36_1_bn
I0630 19:27:41.477403 38212 net.cpp:454] conv4_36_1_bn <- conv4_36_1
I0630 19:27:41.477416 38212 net.cpp:411] conv4_36_1_bn -> conv4_36_1_bn
I0630 19:27:41.477746 38212 net.cpp:150] Setting up conv4_36_1_bn
I0630 19:27:41.477774 38212 net.cpp:157] Top shape: 8 256 14 14 (401408)
I0630 19:27:41.477783 38212 net.cpp:165] Memory required for data: 3081222240
I0630 19:27:41.477809 38212 layer_factory.hpp:76] Creating layer conv4_36_1_relu
I0630 19:27:41.477835 38212 net.cpp:106] Creating Layer conv4_36_1_relu
I0630 19:27:41.477845 38212 net.cpp:454] conv4_36_1_relu <- conv4_36_1_bn
I0630 19:27:41.477854 38212 net.cpp:397] conv4_36_1_relu -> conv4_36_1_bn (in-place)
I0630 19:27:41.478330 38212 net.cpp:150] Setting up conv4_36_1_relu
I0630 19:27:41.478350 38212 net.cpp:157] Top shape: 8 256 14 14 (401408)
I0630 19:27:41.478363 38212 net.cpp:165] Memory required for data: 3082827872
I0630 19:27:41.478371 38212 layer_factory.hpp:76] Creating layer conv4_36_2
I0630 19:27:41.478389 38212 net.cpp:106] Creating Layer conv4_36_2
I0630 19:27:41.478399 38212 net.cpp:454] conv4_36_2 <- conv4_36_1_bn
I0630 19:27:41.478410 38212 net.cpp:411] conv4_36_2 -> conv4_36_2
I0630 19:27:41.498497 38212 net.cpp:150] Setting up conv4_36_2
I0630 19:27:41.498520 38212 net.cpp:157] Top shape: 8 256 14 14 (401408)
I0630 19:27:41.498533 38212 net.cpp:165] Memory required for data: 3084433504
I0630 19:27:41.498543 38212 layer_factory.hpp:76] Creating layer conv4_36_2_bn
I0630 19:27:41.498558 38212 net.cpp:106] Creating Layer conv4_36_2_bn
I0630 19:27:41.498567 38212 net.cpp:454] conv4_36_2_bn <- conv4_36_2
I0630 19:27:41.498579 38212 net.cpp:411] conv4_36_2_bn -> conv4_36_2_bn
I0630 19:27:41.498853 38212 net.cpp:150] Setting up conv4_36_2_bn
I0630 19:27:41.498868 38212 net.cpp:157] Top shape: 8 256 14 14 (401408)
I0630 19:27:41.498875 38212 net.cpp:165] Memory required for data: 3086039136
I0630 19:27:41.498888 38212 layer_factory.hpp:76] Creating layer conv4_36_2_relu
I0630 19:27:41.498898 38212 net.cpp:106] Creating Layer conv4_36_2_relu
I0630 19:27:41.498908 38212 net.cpp:454] conv4_36_2_relu <- conv4_36_2_bn
I0630 19:27:41.498916 38212 net.cpp:397] conv4_36_2_relu -> conv4_36_2_bn (in-place)
I0630 19:27:41.499196 38212 net.cpp:150] Setting up conv4_36_2_relu
I0630 19:27:41.499212 38212 net.cpp:157] Top shape: 8 256 14 14 (401408)
I0630 19:27:41.499220 38212 net.cpp:165] Memory required for data: 3087644768
I0630 19:27:41.499228 38212 layer_factory.hpp:76] Creating layer conv4_36_3
I0630 19:27:41.499243 38212 net.cpp:106] Creating Layer conv4_36_3
I0630 19:27:41.499253 38212 net.cpp:454] conv4_36_3 <- conv4_36_2_bn
I0630 19:27:41.499263 38212 net.cpp:411] conv4_36_3 -> conv4_36_3
I0630 19:27:41.509259 38212 cudnn_conv_layer.cpp:194] Reallocating workspace storage: 3072
I0630 19:27:41.509351 38212 net.cpp:150] Setting up conv4_36_3
I0630 19:27:41.509369 38212 net.cpp:157] Top shape: 8 1024 14 14 (1605632)
I0630 19:27:41.509378 38212 net.cpp:165] Memory required for data: 3094067296
I0630 19:27:41.509392 38212 layer_factory.hpp:76] Creating layer conv4_36_sum
I0630 19:27:41.509403 38212 net.cpp:106] Creating Layer conv4_36_sum
I0630 19:27:41.509414 38212 net.cpp:454] conv4_36_sum <- conv4_35_sum_bn_conv4_35_sum_relu_0_split_1
I0630 19:27:41.509426 38212 net.cpp:454] conv4_36_sum <- conv4_36_3
I0630 19:27:41.509436 38212 net.cpp:411] conv4_36_sum -> conv4_36_sum
I0630 19:27:41.509484 38212 net.cpp:150] Setting up conv4_36_sum
I0630 19:27:41.509497 38212 net.cpp:157] Top shape: 8 1024 14 14 (1605632)
I0630 19:27:41.509510 38212 net.cpp:165] Memory required for data: 3100489824
I0630 19:27:41.509516 38212 layer_factory.hpp:76] Creating layer conv4_36_sum_bn
I0630 19:27:41.509531 38212 net.cpp:106] Creating Layer conv4_36_sum_bn
I0630 19:27:41.509538 38212 net.cpp:454] conv4_36_sum_bn <- conv4_36_sum
I0630 19:27:41.509551 38212 net.cpp:411] conv4_36_sum_bn -> conv4_36_sum_bn
I0630 19:27:41.509894 38212 net.cpp:150] Setting up conv4_36_sum_bn
I0630 19:27:41.509922 38212 net.cpp:157] Top shape: 8 1024 14 14 (1605632)
I0630 19:27:41.509929 38212 net.cpp:165] Memory required for data: 3106912352
I0630 19:27:41.509943 38212 layer_factory.hpp:76] Creating layer conv4_36_sum_relu
I0630 19:27:41.509955 38212 net.cpp:106] Creating Layer conv4_36_sum_relu
I0630 19:27:41.509964 38212 net.cpp:454] conv4_36_sum_relu <- conv4_36_sum_bn
I0630 19:27:41.509985 38212 net.cpp:397] conv4_36_sum_relu -> conv4_36_sum_bn (in-place)
I0630 19:27:41.510458 38212 net.cpp:150] Setting up conv4_36_sum_relu
I0630 19:27:41.510478 38212 net.cpp:157] Top shape: 8 1024 14 14 (1605632)
I0630 19:27:41.510485 38212 net.cpp:165] Memory required for data: 3113334880
I0630 19:27:41.510494 38212 layer_factory.hpp:76] Creating layer conv4_36_sum_bn_conv4_36_sum_relu_0_split
I0630 19:27:41.510507 38212 net.cpp:106] Creating Layer conv4_36_sum_bn_conv4_36_sum_relu_0_split
I0630 19:27:41.510516 38212 net.cpp:454] conv4_36_sum_bn_conv4_36_sum_relu_0_split <- conv4_36_sum_bn
I0630 19:27:41.510526 38212 net.cpp:411] conv4_36_sum_bn_conv4_36_sum_relu_0_split -> conv4_36_sum_bn_conv4_36_sum_relu_0_split_0
I0630 19:27:41.510537 38212 net.cpp:411] conv4_36_sum_bn_conv4_36_sum_relu_0_split -> conv4_36_sum_bn_conv4_36_sum_relu_0_split_1
I0630 19:27:41.510603 38212 net.cpp:150] Setting up conv4_36_sum_bn_conv4_36_sum_relu_0_split
I0630 19:27:41.510617 38212 net.cpp:157] Top shape: 8 1024 14 14 (1605632)
I0630 19:27:41.510630 38212 net.cpp:157] Top shape: 8 1024 14 14 (1605632)
I0630 19:27:41.510637 38212 net.cpp:165] Memory required for data: 3126179936
I0630 19:27:41.510648 38212 layer_factory.hpp:76] Creating layer conv4_output
I0630 19:27:41.510664 38212 net.cpp:106] Creating Layer conv4_output
I0630 19:27:41.510673 38212 net.cpp:454] conv4_output <- conv4_36_sum_bn_conv4_36_sum_relu_0_split_0
I0630 19:27:41.510691 38212 net.cpp:411] conv4_output -> conv4_output
I0630 19:27:41.587895 38212 cudnn_conv_layer.cpp:194] Reallocating workspace storage: 12288
I0630 19:27:41.588079 38212 net.cpp:150] Setting up conv4_output
I0630 19:27:41.588102 38212 net.cpp:157] Top shape: 8 2048 7 7 (802816)
I0630 19:27:41.588112 38212 net.cpp:165] Memory required for data: 3129391200
I0630 19:27:41.588129 38212 layer_factory.hpp:76] Creating layer conv5_1_1
I0630 19:27:41.588158 38212 net.cpp:106] Creating Layer conv5_1_1
I0630 19:27:41.588209 38212 net.cpp:454] conv5_1_1 <- conv4_36_sum_bn_conv4_36_sum_relu_0_split_1
I0630 19:27:41.588228 38212 net.cpp:411] conv5_1_1 -> conv5_1_1
I0630 19:27:41.615387 38212 cudnn_conv_layer.cpp:194] Reallocating workspace storage: 12288
I0630 19:27:41.615528 38212 net.cpp:150] Setting up conv5_1_1
I0630 19:27:41.615551 38212 net.cpp:157] Top shape: 8 512 7 7 (200704)
I0630 19:27:41.615561 38212 net.cpp:165] Memory required for data: 3130194016
I0630 19:27:41.615593 38212 layer_factory.hpp:76] Creating layer conv5_1_1_bn
I0630 19:27:41.615617 38212 net.cpp:106] Creating Layer conv5_1_1_bn
I0630 19:27:41.615631 38212 net.cpp:454] conv5_1_1_bn <- conv5_1_1
I0630 19:27:41.615645 38212 net.cpp:411] conv5_1_1_bn -> conv5_1_1_bn
I0630 19:27:41.615998 38212 net.cpp:150] Setting up conv5_1_1_bn
I0630 19:27:41.616014 38212 net.cpp:157] Top shape: 8 512 7 7 (200704)
I0630 19:27:41.616024 38212 net.cpp:165] Memory required for data: 3130996832
I0630 19:27:41.616036 38212 layer_factory.hpp:76] Creating layer conv5_1_1_relu
I0630 19:27:41.616062 38212 net.cpp:106] Creating Layer conv5_1_1_relu
I0630 19:27:41.616072 38212 net.cpp:454] conv5_1_1_relu <- conv5_1_1_bn
I0630 19:27:41.616082 38212 net.cpp:397] conv5_1_1_relu -> conv5_1_1_bn (in-place)
I0630 19:27:41.616575 38212 net.cpp:150] Setting up conv5_1_1_relu
I0630 19:27:41.616597 38212 net.cpp:157] Top shape: 8 512 7 7 (200704)
I0630 19:27:41.616606 38212 net.cpp:165] Memory required for data: 3131799648
I0630 19:27:41.616616 38212 layer_factory.hpp:76] Creating layer conv5_1_2
I0630 19:27:41.616634 38212 net.cpp:106] Creating Layer conv5_1_2
I0630 19:27:41.616646 38212 net.cpp:454] conv5_1_2 <- conv5_1_1_bn
I0630 19:27:41.616657 38212 net.cpp:411] conv5_1_2 -> conv5_1_2
I0630 19:27:41.700476 38212 cudnn_conv_layer.cpp:194] Reallocating workspace storage: 55296
I0630 19:27:41.700539 38212 net.cpp:150] Setting up conv5_1_2
I0630 19:27:41.700557 38212 net.cpp:157] Top shape: 8 512 7 7 (200704)
I0630 19:27:41.700568 38212 net.cpp:165] Memory required for data: 3132602464
I0630 19:27:41.700584 38212 layer_factory.hpp:76] Creating layer conv5_1_2_bn
I0630 19:27:41.700605 38212 net.cpp:106] Creating Layer conv5_1_2_bn
I0630 19:27:41.700619 38212 net.cpp:454] conv5_1_2_bn <- conv5_1_2
I0630 19:27:41.700634 38212 net.cpp:411] conv5_1_2_bn -> conv5_1_2_bn
I0630 19:27:41.701020 38212 net.cpp:150] Setting up conv5_1_2_bn
I0630 19:27:41.701040 38212 net.cpp:157] Top shape: 8 512 7 7 (200704)
I0630 19:27:41.701048 38212 net.cpp:165] Memory required for data: 3133405280
I0630 19:27:41.701062 38212 layer_factory.hpp:76] Creating layer conv5_1_2_relu
I0630 19:27:41.701076 38212 net.cpp:106] Creating Layer conv5_1_2_relu
I0630 19:27:41.701086 38212 net.cpp:454] conv5_1_2_relu <- conv5_1_2_bn
I0630 19:27:41.701097 38212 net.cpp:397] conv5_1_2_relu -> conv5_1_2_bn (in-place)
I0630 19:27:41.701933 38212 net.cpp:150] Setting up conv5_1_2_relu
I0630 19:27:41.701961 38212 net.cpp:157] Top shape: 8 512 7 7 (200704)
I0630 19:27:41.701972 38212 net.cpp:165] Memory required for data: 3134208096
I0630 19:27:41.701980 38212 layer_factory.hpp:76] Creating layer conv5_1_3
I0630 19:27:41.702016 38212 net.cpp:106] Creating Layer conv5_1_3
I0630 19:27:41.702028 38212 net.cpp:454] conv5_1_3 <- conv5_1_2_bn
I0630 19:27:41.702039 38212 net.cpp:411] conv5_1_3 -> conv5_1_3
I0630 19:27:41.755306 38212 cudnn_conv_layer.cpp:194] Reallocating workspace storage: 6144
I0630 19:27:41.755440 38212 net.cpp:150] Setting up conv5_1_3
I0630 19:27:41.755455 38212 net.cpp:157] Top shape: 8 2048 7 7 (802816)
I0630 19:27:41.755461 38212 net.cpp:165] Memory required for data: 3137419360
I0630 19:27:41.755475 38212 layer_factory.hpp:76] Creating layer conv5_1_sum
I0630 19:27:41.755489 38212 net.cpp:106] Creating Layer conv5_1_sum
I0630 19:27:41.755498 38212 net.cpp:454] conv5_1_sum <- conv4_output
I0630 19:27:41.755507 38212 net.cpp:454] conv5_1_sum <- conv5_1_3
I0630 19:27:41.755517 38212 net.cpp:411] conv5_1_sum -> conv5_1_sum
I0630 19:27:41.755573 38212 net.cpp:150] Setting up conv5_1_sum
I0630 19:27:41.755617 38212 net.cpp:157] Top shape: 8 2048 7 7 (802816)
I0630 19:27:41.755622 38212 net.cpp:165] Memory required for data: 3140630624
I0630 19:27:41.755626 38212 layer_factory.hpp:76] Creating layer conv5_1_sum_bn
I0630 19:27:41.755637 38212 net.cpp:106] Creating Layer conv5_1_sum_bn
I0630 19:27:41.755643 38212 net.cpp:454] conv5_1_sum_bn <- conv5_1_sum
I0630 19:27:41.755652 38212 net.cpp:411] conv5_1_sum_bn -> conv5_1_sum_bn
I0630 19:27:41.756119 38212 net.cpp:150] Setting up conv5_1_sum_bn
I0630 19:27:41.756129 38212 net.cpp:157] Top shape: 8 2048 7 7 (802816)
I0630 19:27:41.756134 38212 net.cpp:165] Memory required for data: 3143841888
I0630 19:27:41.756142 38212 layer_factory.hpp:76] Creating layer conv5_1_sum_relu
I0630 19:27:41.756153 38212 net.cpp:106] Creating Layer conv5_1_sum_relu
I0630 19:27:41.756160 38212 net.cpp:454] conv5_1_sum_relu <- conv5_1_sum_bn
I0630 19:27:41.756165 38212 net.cpp:397] conv5_1_sum_relu -> conv5_1_sum_bn (in-place)
I0630 19:27:41.756414 38212 net.cpp:150] Setting up conv5_1_sum_relu
I0630 19:27:41.756425 38212 net.cpp:157] Top shape: 8 2048 7 7 (802816)
I0630 19:27:41.756429 38212 net.cpp:165] Memory required for data: 3147053152
I0630 19:27:41.756434 38212 layer_factory.hpp:76] Creating layer conv5_1_sum_bn_conv5_1_sum_relu_0_split
I0630 19:27:41.756456 38212 net.cpp:106] Creating Layer conv5_1_sum_bn_conv5_1_sum_relu_0_split
I0630 19:27:41.756461 38212 net.cpp:454] conv5_1_sum_bn_conv5_1_sum_relu_0_split <- conv5_1_sum_bn
I0630 19:27:41.756469 38212 net.cpp:411] conv5_1_sum_bn_conv5_1_sum_relu_0_split -> conv5_1_sum_bn_conv5_1_sum_relu_0_split_0
I0630 19:27:41.756479 38212 net.cpp:411] conv5_1_sum_bn_conv5_1_sum_relu_0_split -> conv5_1_sum_bn_conv5_1_sum_relu_0_split_1
I0630 19:27:41.756552 38212 net.cpp:150] Setting up conv5_1_sum_bn_conv5_1_sum_relu_0_split
I0630 19:27:41.756561 38212 net.cpp:157] Top shape: 8 2048 7 7 (802816)
I0630 19:27:41.756566 38212 net.cpp:157] Top shape: 8 2048 7 7 (802816)
I0630 19:27:41.756569 38212 net.cpp:165] Memory required for data: 3153475680
I0630 19:27:41.756574 38212 layer_factory.hpp:76] Creating layer conv5_2_1
I0630 19:27:41.756587 38212 net.cpp:106] Creating Layer conv5_2_1
I0630 19:27:41.756592 38212 net.cpp:454] conv5_2_1 <- conv5_1_sum_bn_conv5_1_sum_relu_0_split_0
I0630 19:27:41.756606 38212 net.cpp:411] conv5_2_1 -> conv5_2_1
I0630 19:27:41.793638 38212 cudnn_conv_layer.cpp:194] Reallocating workspace storage: 24576
I0630 19:27:41.793771 38212 net.cpp:150] Setting up conv5_2_1
I0630 19:27:41.793812 38212 net.cpp:157] Top shape: 8 512 7 7 (200704)
I0630 19:27:41.793817 38212 net.cpp:165] Memory required for data: 3154278496
I0630 19:27:41.793828 38212 layer_factory.hpp:76] Creating layer conv5_2_1_bn
I0630 19:27:41.793843 38212 net.cpp:106] Creating Layer conv5_2_1_bn
I0630 19:27:41.793853 38212 net.cpp:454] conv5_2_1_bn <- conv5_2_1
I0630 19:27:41.793860 38212 net.cpp:411] conv5_2_1_bn -> conv5_2_1_bn
I0630 19:27:41.794309 38212 net.cpp:150] Setting up conv5_2_1_bn
I0630 19:27:41.794318 38212 net.cpp:157] Top shape: 8 512 7 7 (200704)
I0630 19:27:41.794322 38212 net.cpp:165] Memory required for data: 3155081312
I0630 19:27:41.794330 38212 layer_factory.hpp:76] Creating layer conv5_2_1_relu
I0630 19:27:41.794342 38212 net.cpp:106] Creating Layer conv5_2_1_relu
I0630 19:27:41.794347 38212 net.cpp:454] conv5_2_1_relu <- conv5_2_1_bn
I0630 19:27:41.794351 38212 net.cpp:397] conv5_2_1_relu -> conv5_2_1_bn (in-place)
I0630 19:27:41.795061 38212 net.cpp:150] Setting up conv5_2_1_relu
I0630 19:27:41.795073 38212 net.cpp:157] Top shape: 8 512 7 7 (200704)
I0630 19:27:41.795078 38212 net.cpp:165] Memory required for data: 3155884128
I0630 19:27:41.795084 38212 layer_factory.hpp:76] Creating layer conv5_2_2
I0630 19:27:41.795097 38212 net.cpp:106] Creating Layer conv5_2_2
I0630 19:27:41.795104 38212 net.cpp:454] conv5_2_2 <- conv5_2_1_bn
I0630 19:27:41.795109 38212 net.cpp:411] conv5_2_2 -> conv5_2_2
I0630 19:27:41.874439 38212 cudnn_conv_layer.cpp:194] Reallocating workspace storage: 55296
I0630 19:27:41.874483 38212 net.cpp:150] Setting up conv5_2_2
I0630 19:27:41.874538 38212 net.cpp:157] Top shape: 8 512 7 7 (200704)
I0630 19:27:41.874552 38212 net.cpp:165] Memory required for data: 3156686944
I0630 19:27:41.874567 38212 layer_factory.hpp:76] Creating layer conv5_2_2_bn
I0630 19:27:41.874591 38212 net.cpp:106] Creating Layer conv5_2_2_bn
I0630 19:27:41.874616 38212 net.cpp:454] conv5_2_2_bn <- conv5_2_2
I0630 19:27:41.874631 38212 net.cpp:411] conv5_2_2_bn -> conv5_2_2_bn
I0630 19:27:41.874979 38212 net.cpp:150] Setting up conv5_2_2_bn
I0630 19:27:41.874995 38212 net.cpp:157] Top shape: 8 512 7 7 (200704)
I0630 19:27:41.875003 38212 net.cpp:165] Memory required for data: 3157489760
I0630 19:27:41.875015 38212 layer_factory.hpp:76] Creating layer conv5_2_2_relu
I0630 19:27:41.875030 38212 net.cpp:106] Creating Layer conv5_2_2_relu
I0630 19:27:41.875038 38212 net.cpp:454] conv5_2_2_relu <- conv5_2_2_bn
I0630 19:27:41.875051 38212 net.cpp:397] conv5_2_2_relu -> conv5_2_2_bn (in-place)
I0630 19:27:41.876086 38212 net.cpp:150] Setting up conv5_2_2_relu
I0630 19:27:41.876119 38212 net.cpp:157] Top shape: 8 512 7 7 (200704)
I0630 19:27:41.876126 38212 net.cpp:165] Memory required for data: 3158292576
I0630 19:27:41.876133 38212 layer_factory.hpp:76] Creating layer conv5_2_3
I0630 19:27:41.876169 38212 net.cpp:106] Creating Layer conv5_2_3
I0630 19:27:41.876183 38212 net.cpp:454] conv5_2_3 <- conv5_2_2_bn
I0630 19:27:41.876200 38212 net.cpp:411] conv5_2_3 -> conv5_2_3
I0630 19:27:41.921866 38212 cudnn_conv_layer.cpp:194] Reallocating workspace storage: 6144
I0630 19:27:41.922161 38212 net.cpp:150] Setting up conv5_2_3
I0630 19:27:41.922193 38212 net.cpp:157] Top shape: 8 2048 7 7 (802816)
I0630 19:27:41.922209 38212 net.cpp:165] Memory required for data: 3161503840
I0630 19:27:41.922236 38212 layer_factory.hpp:76] Creating layer conv5_2_sum
I0630 19:27:41.922272 38212 net.cpp:106] Creating Layer conv5_2_sum
I0630 19:27:41.922296 38212 net.cpp:454] conv5_2_sum <- conv5_1_sum_bn_conv5_1_sum_relu_0_split_1
I0630 19:27:41.922317 38212 net.cpp:454] conv5_2_sum <- conv5_2_3
I0630 19:27:41.922338 38212 net.cpp:411] conv5_2_sum -> conv5_2_sum
I0630 19:27:41.922444 38212 net.cpp:150] Setting up conv5_2_sum
I0630 19:27:41.922469 38212 net.cpp:157] Top shape: 8 2048 7 7 (802816)
I0630 19:27:41.922484 38212 net.cpp:165] Memory required for data: 3164715104
I0630 19:27:41.922500 38212 layer_factory.hpp:76] Creating layer conv5_2_sum_bn
I0630 19:27:41.922525 38212 net.cpp:106] Creating Layer conv5_2_sum_bn
I0630 19:27:41.922543 38212 net.cpp:454] conv5_2_sum_bn <- conv5_2_sum
I0630 19:27:41.922565 38212 net.cpp:411] conv5_2_sum_bn -> conv5_2_sum_bn
I0630 19:27:41.923164 38212 net.cpp:150] Setting up conv5_2_sum_bn
I0630 19:27:41.923192 38212 net.cpp:157] Top shape: 8 2048 7 7 (802816)
I0630 19:27:41.923207 38212 net.cpp:165] Memory required for data: 3167926368
I0630 19:27:41.923239 38212 layer_factory.hpp:76] Creating layer conv5_2_sum_relu
I0630 19:27:41.923265 38212 net.cpp:106] Creating Layer conv5_2_sum_relu
I0630 19:27:41.923282 38212 net.cpp:454] conv5_2_sum_relu <- conv5_2_sum_bn
I0630 19:27:41.923300 38212 net.cpp:397] conv5_2_sum_relu -> conv5_2_sum_bn (in-place)
I0630 19:27:41.923658 38212 net.cpp:150] Setting up conv5_2_sum_relu
I0630 19:27:41.923691 38212 net.cpp:157] Top shape: 8 2048 7 7 (802816)
I0630 19:27:41.923705 38212 net.cpp:165] Memory required for data: 3171137632
I0630 19:27:41.923722 38212 layer_factory.hpp:76] Creating layer conv5_2_sum_bn_conv5_2_sum_relu_0_split
I0630 19:27:41.923758 38212 net.cpp:106] Creating Layer conv5_2_sum_bn_conv5_2_sum_relu_0_split
I0630 19:27:41.923775 38212 net.cpp:454] conv5_2_sum_bn_conv5_2_sum_relu_0_split <- conv5_2_sum_bn
I0630 19:27:41.923797 38212 net.cpp:411] conv5_2_sum_bn_conv5_2_sum_relu_0_split -> conv5_2_sum_bn_conv5_2_sum_relu_0_split_0
I0630 19:27:41.923827 38212 net.cpp:411] conv5_2_sum_bn_conv5_2_sum_relu_0_split -> conv5_2_sum_bn_conv5_2_sum_relu_0_split_1
I0630 19:27:41.923948 38212 net.cpp:150] Setting up conv5_2_sum_bn_conv5_2_sum_relu_0_split
I0630 19:27:41.923982 38212 net.cpp:157] Top shape: 8 2048 7 7 (802816)
I0630 19:27:41.924063 38212 net.cpp:157] Top shape: 8 2048 7 7 (802816)
I0630 19:27:41.924078 38212 net.cpp:165] Memory required for data: 3177560160
I0630 19:27:41.924094 38212 layer_factory.hpp:76] Creating layer conv5_3_1
I0630 19:27:41.924132 38212 net.cpp:106] Creating Layer conv5_3_1
I0630 19:27:41.924152 38212 net.cpp:454] conv5_3_1 <- conv5_2_sum_bn_conv5_2_sum_relu_0_split_0
I0630 19:27:41.924175 38212 net.cpp:411] conv5_3_1 -> conv5_3_1
I0630 19:27:41.962134 38212 cudnn_conv_layer.cpp:194] Reallocating workspace storage: 24576
I0630 19:27:41.962206 38212 net.cpp:150] Setting up conv5_3_1
I0630 19:27:41.962231 38212 net.cpp:157] Top shape: 8 512 7 7 (200704)
I0630 19:27:41.962247 38212 net.cpp:165] Memory required for data: 3178362976
I0630 19:27:41.962271 38212 layer_factory.hpp:76] Creating layer conv5_3_1_bn
I0630 19:27:41.962301 38212 net.cpp:106] Creating Layer conv5_3_1_bn
I0630 19:27:41.962324 38212 net.cpp:454] conv5_3_1_bn <- conv5_3_1
I0630 19:27:41.962347 38212 net.cpp:411] conv5_3_1_bn -> conv5_3_1_bn
I0630 19:27:41.962760 38212 net.cpp:150] Setting up conv5_3_1_bn
I0630 19:27:41.962791 38212 net.cpp:157] Top shape: 8 512 7 7 (200704)
I0630 19:27:41.962801 38212 net.cpp:165] Memory required for data: 3179165792
I0630 19:27:41.962815 38212 layer_factory.hpp:76] Creating layer conv5_3_1_relu
I0630 19:27:41.962831 38212 net.cpp:106] Creating Layer conv5_3_1_relu
I0630 19:27:41.962841 38212 net.cpp:454] conv5_3_1_relu <- conv5_3_1_bn
I0630 19:27:41.962852 38212 net.cpp:397] conv5_3_1_relu -> conv5_3_1_bn (in-place)
I0630 19:27:41.963551 38212 net.cpp:150] Setting up conv5_3_1_relu
I0630 19:27:41.963589 38212 net.cpp:157] Top shape: 8 512 7 7 (200704)
I0630 19:27:41.963601 38212 net.cpp:165] Memory required for data: 3179968608
I0630 19:27:41.963611 38212 layer_factory.hpp:76] Creating layer conv5_3_2
I0630 19:27:41.963644 38212 net.cpp:106] Creating Layer conv5_3_2
I0630 19:27:41.963659 38212 net.cpp:454] conv5_3_2 <- conv5_3_1_bn
I0630 19:27:41.963673 38212 net.cpp:411] conv5_3_2 -> conv5_3_2
I0630 19:27:42.047735 38212 cudnn_conv_layer.cpp:194] Reallocating workspace storage: 55296
I0630 19:27:42.048765 38212 net.cpp:150] Setting up conv5_3_2
I0630 19:27:42.048815 38212 net.cpp:157] Top shape: 8 512 7 7 (200704)
I0630 19:27:42.048832 38212 net.cpp:165] Memory required for data: 3180771424
I0630 19:27:42.048851 38212 layer_factory.hpp:76] Creating layer conv5_3_2_bn
I0630 19:27:42.048874 38212 net.cpp:106] Creating Layer conv5_3_2_bn
I0630 19:27:42.048887 38212 net.cpp:454] conv5_3_2_bn <- conv5_3_2
I0630 19:27:42.048902 38212 net.cpp:411] conv5_3_2_bn -> conv5_3_2_bn
I0630 19:27:42.049468 38212 net.cpp:150] Setting up conv5_3_2_bn
I0630 19:27:42.049494 38212 net.cpp:157] Top shape: 8 512 7 7 (200704)
I0630 19:27:42.049504 38212 net.cpp:165] Memory required for data: 3181574240
I0630 19:27:42.049518 38212 layer_factory.hpp:76] Creating layer conv5_3_2_relu
I0630 19:27:42.049532 38212 net.cpp:106] Creating Layer conv5_3_2_relu
I0630 19:27:42.049542 38212 net.cpp:454] conv5_3_2_relu <- conv5_3_2_bn
I0630 19:27:42.049566 38212 net.cpp:397] conv5_3_2_relu -> conv5_3_2_bn (in-place)
I0630 19:27:42.050730 38212 net.cpp:150] Setting up conv5_3_2_relu
I0630 19:27:42.050760 38212 net.cpp:157] Top shape: 8 512 7 7 (200704)
I0630 19:27:42.050775 38212 net.cpp:165] Memory required for data: 3182377056
I0630 19:27:42.050791 38212 layer_factory.hpp:76] Creating layer conv5_3_3
I0630 19:27:42.050818 38212 net.cpp:106] Creating Layer conv5_3_3
I0630 19:27:42.050833 38212 net.cpp:454] conv5_3_3 <- conv5_3_2_bn
I0630 19:27:42.050850 38212 net.cpp:411] conv5_3_3 -> conv5_3_3
I0630 19:27:42.104907 38212 cudnn_conv_layer.cpp:194] Reallocating workspace storage: 6144
I0630 19:27:42.105047 38212 net.cpp:150] Setting up conv5_3_3
I0630 19:27:42.105072 38212 net.cpp:157] Top shape: 8 2048 7 7 (802816)
I0630 19:27:42.105082 38212 net.cpp:165] Memory required for data: 3185588320
I0630 19:27:42.105113 38212 layer_factory.hpp:76] Creating layer conv5_3_sum
I0630 19:27:42.105136 38212 net.cpp:106] Creating Layer conv5_3_sum
I0630 19:27:42.105182 38212 net.cpp:454] conv5_3_sum <- conv5_2_sum_bn_conv5_2_sum_relu_0_split_1
I0630 19:27:42.105197 38212 net.cpp:454] conv5_3_sum <- conv5_3_3
I0630 19:27:42.105211 38212 net.cpp:411] conv5_3_sum -> conv5_3_sum
I0630 19:27:42.105279 38212 net.cpp:150] Setting up conv5_3_sum
I0630 19:27:42.105296 38212 net.cpp:157] Top shape: 8 2048 7 7 (802816)
I0630 19:27:42.105304 38212 net.cpp:165] Memory required for data: 3188799584
I0630 19:27:42.105314 38212 layer_factory.hpp:76] Creating layer conv5_3_sum_bn
I0630 19:27:42.105329 38212 net.cpp:106] Creating Layer conv5_3_sum_bn
I0630 19:27:42.105339 38212 net.cpp:454] conv5_3_sum_bn <- conv5_3_sum
I0630 19:27:42.105348 38212 net.cpp:411] conv5_3_sum_bn -> conv5_3_sum_bn
I0630 19:27:42.106588 38212 net.cpp:150] Setting up conv5_3_sum_bn
I0630 19:27:42.106617 38212 net.cpp:157] Top shape: 8 2048 7 7 (802816)
I0630 19:27:42.106626 38212 net.cpp:165] Memory required for data: 3192010848
I0630 19:27:42.106642 38212 layer_factory.hpp:76] Creating layer conv5_3_sum_relu
I0630 19:27:42.106658 38212 net.cpp:106] Creating Layer conv5_3_sum_relu
I0630 19:27:42.106668 38212 net.cpp:454] conv5_3_sum_relu <- conv5_3_sum_bn
I0630 19:27:42.106679 38212 net.cpp:397] conv5_3_sum_relu -> conv5_3_sum_bn (in-place)
I0630 19:27:42.106988 38212 net.cpp:150] Setting up conv5_3_sum_relu
I0630 19:27:42.107008 38212 net.cpp:157] Top shape: 8 2048 7 7 (802816)
I0630 19:27:42.107017 38212 net.cpp:165] Memory required for data: 3195222112
I0630 19:27:42.107026 38212 layer_factory.hpp:76] Creating layer pool2
I0630 19:27:42.107043 38212 net.cpp:106] Creating Layer pool2
I0630 19:27:42.107054 38212 net.cpp:454] pool2 <- conv5_3_sum_bn
I0630 19:27:42.107077 38212 net.cpp:411] pool2 -> pool2
I0630 19:27:42.107877 38212 net.cpp:150] Setting up pool2
I0630 19:27:42.107904 38212 net.cpp:157] Top shape: 8 2048 1 1 (16384)
I0630 19:27:42.107913 38212 net.cpp:165] Memory required for data: 3195287648
I0630 19:27:42.107933 38212 layer_factory.hpp:76] Creating layer fc
I0630 19:27:42.107950 38212 net.cpp:106] Creating Layer fc
I0630 19:27:42.107960 38212 net.cpp:454] fc <- pool2
I0630 19:27:42.107977 38212 net.cpp:411] fc -> fc
I0630 19:27:42.108405 38212 net.cpp:150] Setting up fc
I0630 19:27:42.108427 38212 net.cpp:157] Top shape: 8 2 (16)
I0630 19:27:42.108435 38212 net.cpp:165] Memory required for data: 3195287712
I0630 19:27:42.108448 38212 layer_factory.hpp:76] Creating layer fc_fc_0_split
I0630 19:27:42.108461 38212 net.cpp:106] Creating Layer fc_fc_0_split
I0630 19:27:42.108470 38212 net.cpp:454] fc_fc_0_split <- fc
I0630 19:27:42.108481 38212 net.cpp:411] fc_fc_0_split -> fc_fc_0_split_0
I0630 19:27:42.108495 38212 net.cpp:411] fc_fc_0_split -> fc_fc_0_split_1
I0630 19:27:42.108546 38212 net.cpp:150] Setting up fc_fc_0_split
I0630 19:27:42.108557 38212 net.cpp:157] Top shape: 8 2 (16)
I0630 19:27:42.108567 38212 net.cpp:157] Top shape: 8 2 (16)
I0630 19:27:42.108575 38212 net.cpp:165] Memory required for data: 3195287840
I0630 19:27:42.108583 38212 layer_factory.hpp:76] Creating layer loss
I0630 19:27:42.108597 38212 net.cpp:106] Creating Layer loss
I0630 19:27:42.108606 38212 net.cpp:454] loss <- fc_fc_0_split_0
I0630 19:27:42.108616 38212 net.cpp:454] loss <- label_data_1_split_0
I0630 19:27:42.108626 38212 net.cpp:411] loss -> loss
…
