…
I0703 18:07:14.790789 35396 net.cpp:322] The NetState phase (0) differed from the phase (1) specified by a rule in layer acc/top-1
I0703 18:07:14.793139 35396 net.cpp:49] Initializing net from parameters: 
name: "ResNet-20"
state {
  phase: TRAIN
}
layer {
  name: "data"
  type: "ImageData"
  top: "data"
  top: "label"
  include {
    phase: TRAIN
  }
  transform_param {
    mirror: true
    crop_size: 224
    mean_value: 104
    mean_value: 117
    mean_value: 123
  }
  image_data_param {
    source: "../lists/roi-train.lst"
    batch_size: 16
    shuffle: true
    new_height: 256
    new_width: 256
  }
}
layer {
  name: "conv1"
  type: "Convolution"
  bottom: "data"
  top: "conv1"
  param {
    lr_mult: 1
    decay_mult: 1
  }
  param {
    lr_mult: 2
    decay_mult: 0
  }
  convolution_param {
    num_output: 64
    pad: 0
    kernel_size: 7
    stride: 2
    weight_filler {
      type: "msra"
    }
    bias_filler {
      type: "constant"
      value: 0
    }
  }
}
layer {
  name: "conv1_bn"
  type: "BatchNorm"
  bottom: "conv1"
  top: "conv1_bn"
  param {
    lr_mult: 0
  }
  param {
    lr_mult: 0
  }
  param {
    lr_mult: 0
  }
}
layer {
  name: "conv1_relu"
  type: "ReLU"
  bottom: "conv1_bn"
  top: "conv1_bn"
}
layer {
  name: "pool1"
  type: "Pooling"
  bottom: "conv1_bn"
  top: "pool1"
  pooling_param {
    pool: MAX
    kernel_size: 3
    stride: 2
  }
}
layer {
  name: "conv1_output"
  type: "Convolution"
  bottom: "pool1"
  top: "conv1_output"
  param {
    lr_mult: 1
    decay_mult: 1
  }
  param {
    lr_mult: 2
    decay_mult: 0
  }
  convolution_param {
    num_output: 256
    pad: 0
    kernel_size: 1
    stride: 1
    weight_filler {
      type: "msra"
    }
    bias_filler {
      type: "constant"
      value: 0
    }
  }
}
layer {
  name: "conv2_1_1"
  type: "Convolution"
  bottom: "pool1"
  top: "conv2_1_1"
  param {
    lr_mult: 1
    decay_mult: 1
  }
  param {
    lr_mult: 2
    decay_mult: 0
  }
  convolution_param {
    num_output: 64
    pad: 0
    kernel_size: 1
    stride: 1
    weight_filler {
      type: "msra"
    }
    bias_filler {
      type: "constant"
      value: 0
    }
  }
}
layer {
  name: "conv2_1_1_bn"
  type: "BatchNorm"
  bottom: "conv2_1_1"
  top: "conv2_1_1_bn"
  param {
    lr_mult: 0
  }
  param {
    lr_mult: 0
  }
  param {
    lr_mult: 0
  }
}
layer {
  name: "conv2_1_1_relu"
  type: "ReLU"
  bottom: "conv2_1_1_bn"
  top: "conv2_1_1_bn"
}
layer {
  name: "conv2_1_2"
  type: "Convolution"
  bottom: "conv2_1_1_bn"
  top: "conv2_1_2"
  param {
    lr_mult: 1
    decay_mult: 1
  }
  param {
    lr_mult: 2
    decay_mult: 0
  }
  convolution_param {
    num_output: 64
    pad: 1
    kernel_size: 3
    stride: 1
    weight_filler {
      type: "msra"
    }
    bias_filler {
      type: "constant"
      value: 0
    }
  }
}
layer {
  name: "conv2_1_2_bn"
  type: "BatchNorm"
  bottom: "conv2_1_2"
  top: "conv2_1_2_bn"
  param {
    lr_mult: 0
  }
  param {
    lr_mult: 0
  }
  param {
    lr_mult: 0
  }
}
layer {
  name: "conv2_1_2_relu"
  type: "ReLU"
  bottom: "conv2_1_2_bn"
  top: "conv2_1_2_bn"
}
layer {
  name: "conv2_1_3"
  type: "Convolution"
  bottom: "conv2_1_2_bn"
  top: "conv2_1_3"
  param {
    lr_mult: 1
    decay_mult: 1
  }
  param {
    lr_mult: 2
    decay_mult: 0
  }
  convolution_param {
    num_output: 256
    pad: 0
    kernel_size: 1
    stride: 1
    weight_filler {
      type: "msra"
    }
    bias_filler {
      type: "constant"
      value: 0
    }
  }
}
layer {
  name: "conv2_1_sum"
  type: "Eltwise"
  bottom: "conv1_output"
  bottom: "conv2_1_3"
  top: "conv2_1_sum"
  eltwise_param {
    operation: SUM
  }
}
layer {
  name: "conv2_1_sum_bn"
  type: "BatchNorm"
  bottom: "conv2_1_sum"
  top: "conv2_1_sum_bn"
  param {
    lr_mult: 0
  }
  param {
    lr_mult: 0
  }
  param {
    lr_mult: 0
  }
}
layer {
  name: "conv2_1_sum_relu"
  type: "ReLU"
  bottom: "conv2_1_sum_bn"
  top: "conv2_1_sum_bn"
}
layer {
  name: "conv2_2_1"
  type: "Convolution"
  bottom: "conv2_1_sum_bn"
  top: "conv2_2_1"
  param {
    lr_mult: 1
    decay_mult: 1
  }
  param {
    lr_mult: 2
    decay_mult: 0
  }
  convolution_param {
    num_output: 64
    pad: 0
    kernel_size: 1
    stride: 1
    weight_filler {
      type: "msra"
    }
    bias_filler {
      type: "constant"
      value: 0
    }
  }
}
layer {
  name: "conv2_2_1_bn"
  type: "BatchNorm"
  bottom: "conv2_2_1"
  top: "conv2_2_1_bn"
  param {
    lr_mult: 0
  }
  param {
    lr_mult: 0
  }
  param {
    lr_mult: 0
  }
}
layer {
  name: "conv2_2_1_relu"
  type: "ReLU"
  bottom: "conv2_2_1_bn"
  top: "conv2_2_1_bn"
}
layer {
  name: "conv2_2_2"
  type: "Convolution"
  bottom: "conv2_2_1_bn"
  top: "conv2_2_2"
  param {
    lr_mult: 1
    decay_mult: 1
  }
  param {
    lr_mult: 2
    decay_mult: 0
  }
  convolution_param {
    num_output: 64
    pad: 1
    kernel_size: 3
    stride: 1
    weight_filler {
      type: "msra"
    }
    bias_filler {
      type: "constant"
      value: 0
    }
  }
}
layer {
  name: "conv2_2_2_bn"
  type: "BatchNorm"
  bottom: "conv2_2_2"
  top: "conv2_2_2_bn"
  param {
    lr_mult: 0
  }
  param {
    lr_mult: 0
  }
  param {
    lr_mult: 0
  }
}
layer {
  name: "conv2_2_2_relu"
  type: "ReLU"
  bottom: "conv2_2_2_bn"
  top: "conv2_2_2_bn"
}
layer {
  name: "conv2_2_3"
  type: "Convolution"
  bottom: "conv2_2_2_bn"
  top: "conv2_2_3"
  param {
    lr_mult: 1
    decay_mult: 1
  }
  param {
    lr_mult: 2
    decay_mult: 0
  }
  convolution_param {
    num_output: 256
    pad: 0
    kernel_size: 1
    stride: 1
    weight_filler {
      type: "msra"
    }
    bias_filler {
      type: "constant"
      value: 0
    }
  }
}
layer {
  name: "conv2_2_sum"
  type: "Eltwise"
  bottom: "conv2_1_sum_bn"
  bottom: "conv2_2_3"
  top: "conv2_2_sum"
  eltwise_param {
    operation: SUM
  }
}
layer {
  name: "conv2_2_sum_bn"
  type: "BatchNorm"
  bottom: "conv2_2_sum"
  top: "conv2_2_sum_bn"
  param {
    lr_mult: 0
  }
  param {
    lr_mult: 0
  }
  param {
    lr_mult: 0
  }
}
layer {
  name: "conv2_2_sum_relu"
  type: "ReLU"
  bottom: "conv2_2_sum_bn"
  top: "conv2_2_sum_bn"
}
layer {
  name: "conv2_3_1"
  type: "Convolution"
  bottom: "conv2_2_sum_bn"
  top: "conv2_3_1"
  param {
    lr_mult: 1
    decay_mult: 1
  }
  param {
    lr_mult: 2
    decay_mult: 0
  }
  convolution_param {
    num_output: 64
    pad: 0
    kernel_size: 1
    stride: 1
    weight_filler {
      type: "msra"
    }
    bias_filler {
      type: "constant"
      value: 0
    }
  }
}
layer {
  name: "conv2_3_1_bn"
  type: "BatchNorm"
  bottom: "conv2_3_1"
  top: "conv2_3_1_bn"
  param {
    lr_mult: 0
  }
  param {
    lr_mult: 0
  }
  param {
    lr_mult: 0
  }
}
layer {
  name: "conv2_3_1_relu"
  type: "ReLU"
  bottom: "conv2_3_1_bn"
  top: "conv2_3_1_bn"
}
layer {
  name: "conv2_3_2"
  type: "Convolution"
  bottom: "conv2_3_1_bn"
  top: "conv2_3_2"
  param {
    lr_mult: 1
    decay_mult: 1
  }
  param {
    lr_mult: 2
    decay_mult: 0
  }
  convolution_param {
    num_output: 64
    pad: 1
    kernel_size: 3
    stride: 1
    weight_filler {
      type: "msra"
    }
    bias_filler {
      type: "constant"
      value: 0
    }
  }
}
layer {
  name: "conv2_3_2_bn"
  type: "BatchNorm"
  bottom: "conv2_3_2"
  top: "conv2_3_2_bn"
  param {
    lr_mult: 0
  }
  param {
    lr_mult: 0
  }
  param {
    lr_mult: 0
  }
}
layer {
  name: "conv2_3_2_relu"
  type: "ReLU"
  bottom: "conv2_3_2_bn"
  top: "conv2_3_2_bn"
}
layer {
  name: "conv2_3_3"
  type: "Convolution"
  bottom: "conv2_3_2_bn"
  top: "conv2_3_3"
  param {
    lr_mult: 1
    decay_mult: 1
  }
  param {
    lr_mult: 2
    decay_mult: 0
  }
  convolution_param {
    num_output: 256
    pad: 0
    kernel_size: 1
    stride: 1
    weight_filler {
      type: "msra"
    }
    bias_filler {
      type: "constant"
      value: 0
    }
  }
}
layer {
  name: "conv2_3_sum"
  type: "Eltwise"
  bottom: "conv2_2_sum_bn"
  bottom: "conv2_3_3"
  top: "conv2_3_sum"
  eltwise_param {
    operation: SUM
  }
}
layer {
  name: "conv2_3_sum_bn"
  type: "BatchNorm"
  bottom: "conv2_3_sum"
  top: "conv2_3_sum_bn"
  param {
    lr_mult: 0
  }
  param {
    lr_mult: 0
  }
  param {
    lr_mult: 0
  }
}
layer {
  name: "conv2_3_sum_relu"
  type: "ReLU"
  bottom: "conv2_3_sum_bn"
  top: "conv2_3_sum_bn"
}
layer {
  name: "conv2_output"
  type: "Convolution"
  bottom: "conv2_3_sum_bn"
  top: "conv2_output"
  param {
    lr_mult: 1
    decay_mult: 1
  }
  param {
    lr_mult: 2
    decay_mult: 0
  }
  convolution_param {
    num_output: 512
    pad: 0
    kernel_size: 1
    stride: 2
    weight_filler {
      type: "msra"
    }
    bias_filler {
      type: "constant"
      value: 0
    }
  }
}
layer {
  name: "conv3_1_1"
  type: "Convolution"
  bottom: "conv2_3_sum_bn"
  top: "conv3_1_1"
  param {
    lr_mult: 1
    decay_mult: 1
  }
  param {
    lr_mult: 2
    decay_mult: 0
  }
  convolution_param {
    num_output: 128
    pad: 0
    kernel_size: 1
    stride: 2
    weight_filler {
      type: "msra"
    }
    bias_filler {
      type: "constant"
      value: 0
    }
  }
}
layer {
  name: "conv3_1_1_bn"
  type: "BatchNorm"
  bottom: "conv3_1_1"
  top: "conv3_1_1_bn"
  param {
    lr_mult: 0
  }
  param {
    lr_mult: 0
  }
  param {
    lr_mult: 0
  }
}
layer {
  name: "conv3_1_1_relu"
  type: "ReLU"
  bottom: "conv3_1_1_bn"
  top: "conv3_1_1_bn"
}
layer {
  name: "conv3_1_2"
  type: "Convolution"
  bottom: "conv3_1_1_bn"
  top: "conv3_1_2"
  param {
    lr_mult: 1
    decay_mult: 1
  }
  param {
    lr_mult: 2
    decay_mult: 0
  }
  convolution_param {
    num_output: 128
    pad: 1
    kernel_size: 3
    stride: 1
    weight_filler {
      type: "msra"
    }
    bias_filler {
      type: "constant"
      value: 0
    }
  }
}
layer {
  name: "conv3_1_2_bn"
  type: "BatchNorm"
  bottom: "conv3_1_2"
  top: "conv3_1_2_bn"
  param {
    lr_mult: 0
  }
  param {
    lr_mult: 0
  }
  param {
    lr_mult: 0
  }
}
layer {
  name: "conv3_1_2_relu"
  type: "ReLU"
  bottom: "conv3_1_2_bn"
  top: "conv3_1_2_bn"
}
layer {
  name: "conv3_1_3"
  type: "Convolution"
  bottom: "conv3_1_2_bn"
  top: "conv3_1_3"
  param {
    lr_mult: 1
    decay_mult: 1
  }
  param {
    lr_mult: 2
    decay_mult: 0
  }
  convolution_param {
    num_output: 512
    pad: 0
    kernel_size: 1
    stride: 1
    weight_filler {
      type: "msra"
    }
    bias_filler {
      type: "constant"
      value: 0
    }
  }
}
layer {
  name: "conv3_1_sum"
  type: "Eltwise"
  bottom: "conv2_output"
  bottom: "conv3_1_3"
  top: "conv3_1_sum"
  eltwise_param {
    operation: SUM
  }
}
layer {
  name: "conv3_1_sum_bn"
  type: "BatchNorm"
  bottom: "conv3_1_sum"
  top: "conv3_1_sum_bn"
  param {
    lr_mult: 0
  }
  param {
    lr_mult: 0
  }
  param {
    lr_mult: 0
  }
}
layer {
  name: "conv3_1_sum_relu"
  type: "ReLU"
  bottom: "conv3_1_sum_bn"
  top: "conv3_1_sum_bn"
}
layer {
  name: "conv3_2_1"
  type: "Convolution"
  bottom: "conv3_1_sum_bn"
  top: "conv3_2_1"
  param {
    lr_mult: 1
    decay_mult: 1
  }
  param {
    lr_mult: 2
    decay_mult: 0
  }
  convolution_param {
    num_output: 128
    pad: 0
    kernel_size: 1
    stride: 1
    weight_filler {
      type: "msra"
    }
    bias_filler {
      type: "constant"
      value: 0
    }
  }
}
layer {
  name: "conv3_2_1_bn"
  type: "BatchNorm"
  bottom: "conv3_2_1"
  top: "conv3_2_1_bn"
  param {
    lr_mult: 0
  }
  param {
    lr_mult: 0
  }
  param {
    lr_mult: 0
  }
}
layer {
  name: "conv3_2_1_relu"
  type: "ReLU"
  bottom: "conv3_2_1_bn"
  top: "conv3_2_1_bn"
}
layer {
  name: "conv3_2_2"
  type: "Convolution"
  bottom: "conv3_2_1_bn"
  top: "conv3_2_2"
  param {
    lr_mult: 1
    decay_mult: 1
  }
  param {
    lr_mult: 2
    decay_mult: 0
  }
  convolution_param {
    num_output: 128
    pad: 1
    kernel_size: 3
    stride: 1
    weight_filler {
      type: "msra"
    }
    bias_filler {
      type: "constant"
      value: 0
    }
  }
}
layer {
  name: "conv3_2_2_bn"
  type: "BatchNorm"
  bottom: "conv3_2_2"
  top: "conv3_2_2_bn"
  param {
    lr_mult: 0
  }
  param {
    lr_mult: 0
  }
  param {
    lr_mult: 0
  }
}
layer {
  name: "conv3_2_2_relu"
  type: "ReLU"
  bottom: "conv3_2_2_bn"
  top: "conv3_2_2_bn"
}
layer {
  name: "conv3_2_3"
  type: "Convolution"
  bottom: "conv3_2_2_bn"
  top: "conv3_2_3"
  param {
    lr_mult: 1
    decay_mult: 1
  }
  param {
    lr_mult: 2
    decay_mult: 0
  }
  convolution_param {
    num_output: 512
    pad: 0
    kernel_size: 1
    stride: 1
    weight_filler {
      type: "msra"
    }
    bias_filler {
      type: "constant"
      value: 0
    }
  }
}
layer {
  name: "conv3_2_sum"
  type: "Eltwise"
  bottom: "conv3_1_sum_bn"
  bottom: "conv3_2_3"
  top: "conv3_2_sum"
  eltwise_param {
    operation: SUM
  }
}
layer {
  name: "conv3_2_sum_bn"
  type: "BatchNorm"
  bottom: "conv3_2_sum"
  top: "conv3_2_sum_bn"
  param {
    lr_mult: 0
  }
  param {
    lr_mult: 0
  }
  param {
    lr_mult: 0
  }
}
layer {
  name: "conv3_2_sum_relu"
  type: "ReLU"
  bottom: "conv3_2_sum_bn"
  top: "conv3_2_sum_bn"
}
layer {
  name: "conv3_3_1"
  type: "Convolution"
  bottom: "conv3_2_sum_bn"
  top: "conv3_3_1"
  param {
    lr_mult: 1
    decay_mult: 1
  }
  param {
    lr_mult: 2
    decay_mult: 0
  }
  convolution_param {
    num_output: 128
    pad: 0
    kernel_size: 1
    stride: 1
    weight_filler {
      type: "msra"
    }
    bias_filler {
      type: "constant"
      value: 0
    }
  }
}
layer {
  name: "conv3_3_1_bn"
  type: "BatchNorm"
  bottom: "conv3_3_1"
  top: "conv3_3_1_bn"
  param {
    lr_mult: 0
  }
  param {
    lr_mult: 0
  }
  param {
    lr_mult: 0
  }
}
layer {
  name: "conv3_3_1_relu"
  type: "ReLU"
  bottom: "conv3_3_1_bn"
  top: "conv3_3_1_bn"
}
layer {
  name: "conv3_3_2"
  type: "Convolution"
  bottom: "conv3_3_1_bn"
  top: "conv3_3_2"
  param {
    lr_mult: 1
    decay_mult: 1
  }
  param {
    lr_mult: 2
    decay_mult: 0
  }
  convolution_param {
    num_output: 128
    pad: 1
    kernel_size: 3
    stride: 1
    weight_filler {
      type: "msra"
    }
    bias_filler {
      type: "constant"
      value: 0
    }
  }
}
layer {
  name: "conv3_3_2_bn"
  type: "BatchNorm"
  bottom: "conv3_3_2"
  top: "conv3_3_2_bn"
  param {
    lr_mult: 0
  }
  param {
    lr_mult: 0
  }
  param {
    lr_mult: 0
  }
}
layer {
  name: "conv3_3_2_relu"
  type: "ReLU"
  bottom: "conv3_3_2_bn"
  top: "conv3_3_2_bn"
}
layer {
  name: "conv3_3_3"
  type: "Convolution"
  bottom: "conv3_3_2_bn"
  top: "conv3_3_3"
  param {
    lr_mult: 1
    decay_mult: 1
  }
  param {
    lr_mult: 2
    decay_mult: 0
  }
  convolution_param {
    num_output: 512
    pad: 0
    kernel_size: 1
    stride: 1
    weight_filler {
      type: "msra"
    }
    bias_filler {
      type: "constant"
      value: 0
    }
  }
}
layer {
  name: "conv3_3_sum"
  type: "Eltwise"
  bottom: "conv3_2_sum_bn"
  bottom: "conv3_3_3"
  top: "conv3_3_sum"
  eltwise_param {
    operation: SUM
  }
}
layer {
  name: "conv3_3_sum_bn"
  type: "BatchNorm"
  bottom: "conv3_3_sum"
  top: "conv3_3_sum_bn"
  param {
    lr_mult: 0
  }
  param {
    lr_mult: 0
  }
  param {
    lr_mult: 0
  }
}
layer {
  name: "conv3_3_sum_relu"
  type: "ReLU"
  bottom: "conv3_3_sum_bn"
  top: "conv3_3_sum_bn"
}
layer {
  name: "conv3_4_1"
  type: "Convolution"
  bottom: "conv3_3_sum_bn"
  top: "conv3_4_1"
  param {
    lr_mult: 1
    decay_mult: 1
  }
  param {
    lr_mult: 2
    decay_mult: 0
  }
  convolution_param {
    num_output: 128
    pad: 0
    kernel_size: 1
    stride: 1
    weight_filler {
      type: "msra"
    }
    bias_filler {
      type: "constant"
      value: 0
    }
  }
}
layer {
  name: "conv3_4_1_bn"
  type: "BatchNorm"
  bottom: "conv3_4_1"
  top: "conv3_4_1_bn"
  param {
    lr_mult: 0
  }
  param {
    lr_mult: 0
  }
  param {
    lr_mult: 0
  }
}
layer {
  name: "conv3_4_1_relu"
  type: "ReLU"
  bottom: "conv3_4_1_bn"
  top: "conv3_4_1_bn"
}
layer {
  name: "conv3_4_2"
  type: "Convolution"
  bottom: "conv3_4_1_bn"
  top: "conv3_4_2"
  param {
    lr_mult: 1
    decay_mult: 1
  }
  param {
    lr_mult: 2
    decay_mult: 0
  }
  convolution_param {
    num_output: 128
    pad: 1
    kernel_size: 3
    stride: 1
    weight_filler {
      type: "msra"
    }
    bias_filler {
      type: "constant"
      value: 0
    }
  }
}
layer {
  name: "conv3_4_2_bn"
  type: "BatchNorm"
  bottom: "conv3_4_2"
  top: "conv3_4_2_bn"
  param {
    lr_mult: 0
  }
  param {
    lr_mult: 0
  }
  param {
    lr_mult: 0
  }
}
layer {
  name: "conv3_4_2_relu"
  type: "ReLU"
  bottom: "conv3_4_2_bn"
  top: "conv3_4_2_bn"
}
layer {
  name: "conv3_4_3"
  type: "Convolution"
  bottom: "conv3_4_2_bn"
  top: "conv3_4_3"
  param {
    lr_mult: 1
    decay_mult: 1
  }
  param {
    lr_mult: 2
    decay_mult: 0
  }
  convolution_param {
    num_output: 512
    pad: 0
    kernel_size: 1
    stride: 1
    weight_filler {
      type: "msra"
    }
    bias_filler {
      type: "constant"
      value: 0
    }
  }
}
layer {
  name: "conv3_4_sum"
  type: "Eltwise"
  bottom: "conv3_3_sum_bn"
  bottom: "conv3_4_3"
  top: "conv3_4_sum"
  eltwise_param {
    operation: SUM
  }
}
layer {
  name: "conv3_4_sum_bn"
  type: "BatchNorm"
  bottom: "conv3_4_sum"
  top: "conv3_4_sum_bn"
  param {
    lr_mult: 0
  }
  param {
    lr_mult: 0
  }
  param {
    lr_mult: 0
  }
}
layer {
  name: "conv3_4_sum_relu"
  type: "ReLU"
  bottom: "conv3_4_sum_bn"
  top: "conv3_4_sum_bn"
}
layer {
  name: "conv3_5_1"
  type: "Convolution"
  bottom: "conv3_4_sum_bn"
  top: "conv3_5_1"
  param {
    lr_mult: 1
    decay_mult: 1
  }
  param {
    lr_mult: 2
    decay_mult: 0
  }
  convolution_param {
    num_output: 128
    pad: 0
    kernel_size: 1
    stride: 1
    weight_filler {
      type: "msra"
    }
    bias_filler {
      type: "constant"
      value: 0
    }
  }
}
layer {
  name: "conv3_5_1_bn"
  type: "BatchNorm"
  bottom: "conv3_5_1"
  top: "conv3_5_1_bn"
  param {
    lr_mult: 0
  }
  param {
    lr_mult: 0
  }
  param {
    lr_mult: 0
  }
}
layer {
  name: "conv3_5_1_relu"
  type: "ReLU"
  bottom: "conv3_5_1_bn"
  top: "conv3_5_1_bn"
}
layer {
  name: "conv3_5_2"
  type: "Convolution"
  bottom: "conv3_5_1_bn"
  top: "conv3_5_2"
  param {
    lr_mult: 1
    decay_mult: 1
  }
  param {
    lr_mult: 2
    decay_mult: 0
  }
  convolution_param {
    num_output: 128
    pad: 1
    kernel_size: 3
    stride: 1
    weight_filler {
      type: "msra"
    }
    bias_filler {
      type: "constant"
      value: 0
    }
  }
}
layer {
  name: "conv3_5_2_bn"
  type: "BatchNorm"
  bottom: "conv3_5_2"
  top: "conv3_5_2_bn"
  param {
    lr_mult: 0
  }
  param {
    lr_mult: 0
  }
  param {
    lr_mult: 0
  }
}
layer {
  name: "conv3_5_2_relu"
  type: "ReLU"
  bottom: "conv3_5_2_bn"
  top: "conv3_5_2_bn"
}
layer {
  name: "conv3_5_3"
  type: "Convolution"
  bottom: "conv3_5_2_bn"
  top: "conv3_5_3"
  param {
    lr_mult: 1
    decay_mult: 1
  }
  param {
    lr_mult: 2
    decay_mult: 0
  }
  convolution_param {
    num_output: 512
    pad: 0
    kernel_size: 1
    stride: 1
    weight_filler {
      type: "msra"
    }
    bias_filler {
      type: "constant"
      value: 0
    }
  }
}
layer {
  name: "conv3_5_sum"
  type: "Eltwise"
  bottom: "conv3_4_sum_bn"
  bottom: "conv3_5_3"
  top: "conv3_5_sum"
  eltwise_param {
    operation: SUM
  }
}
layer {
  name: "conv3_5_sum_bn"
  type: "BatchNorm"
  bottom: "conv3_5_sum"
  top: "conv3_5_sum_bn"
  param {
    lr_mult: 0
  }
  param {
    lr_mult: 0
  }
  param {
    lr_mult: 0
  }
}
layer {
  name: "conv3_5_sum_relu"
  type: "ReLU"
  bottom: "conv3_5_sum_bn"
  top: "conv3_5_sum_bn"
}
layer {
  name: "conv3_6_1"
  type: "Convolution"
  bottom: "conv3_5_sum_bn"
  top: "conv3_6_1"
  param {
    lr_mult: 1
    decay_mult: 1
  }
  param {
    lr_mult: 2
    decay_mult: 0
  }
  convolution_param {
    num_output: 128
    pad: 0
    kernel_size: 1
    stride: 1
    weight_filler {
      type: "msra"
    }
    bias_filler {
      type: "constant"
      value: 0
    }
  }
}
layer {
  name: "conv3_6_1_bn"
  type: "BatchNorm"
  bottom: "conv3_6_1"
  top: "conv3_6_1_bn"
  param {
    lr_mult: 0
  }
  param {
    lr_mult: 0
  }
  param {
    lr_mult: 0
  }
}
layer {
  name: "conv3_6_1_relu"
  type: "ReLU"
  bottom: "conv3_6_1_bn"
  top: "conv3_6_1_bn"
}
layer {
  name: "conv3_6_2"
  type: "Convolution"
  bottom: "conv3_6_1_bn"
  top: "conv3_6_2"
  param {
    lr_mult: 1
    decay_mult: 1
  }
  param {
    lr_mult: 2
    decay_mult: 0
  }
  convolution_param {
    num_output: 128
    pad: 1
    kernel_size: 3
    stride: 1
    weight_filler {
      type: "msra"
    }
    bias_filler {
      type: "constant"
      value: 0
    }
  }
}
layer {
  name: "conv3_6_2_bn"
  type: "BatchNorm"
  bottom: "conv3_6_2"
  top: "conv3_6_2_bn"
  param {
    lr_mult: 0
  }
  param {
    lr_mult: 0
  }
  param {
    lr_mult: 0
  }
}
layer {
  name: "conv3_6_2_relu"
  type: "ReLU"
  bottom: "conv3_6_2_bn"
  top: "conv3_6_2_bn"
}
layer {
  name: "conv3_6_3"
  type: "Convolution"
  bottom: "conv3_6_2_bn"
  top: "conv3_6_3"
  param {
    lr_mult: 1
    decay_mult: 1
  }
  param {
    lr_mult: 2
    decay_mult: 0
  }
  convolution_param {
    num_output: 512
    pad: 0
    kernel_size: 1
    stride: 1
    weight_filler {
      type: "msra"
    }
    bias_filler {
      type: "constant"
      value: 0
    }
  }
}
layer {
  name: "conv3_6_sum"
  type: "Eltwise"
  bottom: "conv3_5_sum_bn"
  bottom: "conv3_6_3"
  top: "conv3_6_sum"
  eltwise_param {
    operation: SUM
  }
}
layer {
  name: "conv3_6_sum_bn"
  type: "BatchNorm"
  bottom: "conv3_6_sum"
  top: "conv3_6_sum_bn"
  param {
    lr_mult: 0
  }
  param {
    lr_mult: 0
  }
  param {
    lr_mult: 0
  }
}
layer {
  name: "conv3_6_sum_relu"
  type: "ReLU"
  bottom: "conv3_6_sum_bn"
  top: "conv3_6_sum_bn"
}
layer {
  name: "conv3_7_1"
  type: "Convolution"
  bottom: "conv3_6_sum_bn"
  top: "conv3_7_1"
  param {
    lr_mult: 1
    decay_mult: 1
  }
  param {
    lr_mult: 2
    decay_mult: 0
  }
  convolution_param {
    num_output: 128
    pad: 0
    kernel_size: 1
    stride: 1
    weight_filler {
      type: "msra"
    }
    bias_filler {
      type: "constant"
      value: 0
    }
  }
}
layer {
  name: "conv3_7_1_bn"
  type: "BatchNorm"
  bottom: "conv3_7_1"
  top: "conv3_7_1_bn"
  param {
    lr_mult: 0
  }
  param {
    lr_mult: 0
  }
  param {
    lr_mult: 0
  }
}
layer {
  name: "conv3_7_1_relu"
  type: "ReLU"
  bottom: "conv3_7_1_bn"
  top: "conv3_7_1_bn"
}
layer {
  name: "conv3_7_2"
  type: "Convolution"
  bottom: "conv3_7_1_bn"
  top: "conv3_7_2"
  param {
    lr_mult: 1
    decay_mult: 1
  }
  param {
    lr_mult: 2
    decay_mult: 0
  }
  convolution_param {
    num_output: 128
    pad: 1
    kernel_size: 3
    stride: 1
    weight_filler {
      type: "msra"
    }
    bias_filler {
      type: "constant"
      value: 0
    }
  }
}
layer {
  name: "conv3_7_2_bn"
  type: "BatchNorm"
  bottom: "conv3_7_2"
  top: "conv3_7_2_bn"
  param {
    lr_mult: 0
  }
  param {
    lr_mult: 0
  }
  param {
    lr_mult: 0
  }
}
layer {
  name: "conv3_7_2_relu"
  type: "ReLU"
  bottom: "conv3_7_2_bn"
  top: "conv3_7_2_bn"
}
layer {
  name: "conv3_7_3"
  type: "Convolution"
  bottom: "conv3_7_2_bn"
  top: "conv3_7_3"
  param {
    lr_mult: 1
    decay_mult: 1
  }
  param {
    lr_mult: 2
    decay_mult: 0
  }
  convolution_param {
    num_output: 512
    pad: 0
    kernel_size: 1
    stride: 1
    weight_filler {
      type: "msra"
    }
    bias_filler {
      type: "constant"
      value: 0
    }
  }
}
layer {
  name: "conv3_7_sum"
  type: "Eltwise"
  bottom: "conv3_6_sum_bn"
  bottom: "conv3_7_3"
  top: "conv3_7_sum"
  eltwise_param {
    operation: SUM
  }
}
layer {
  name: "conv3_7_sum_bn"
  type: "BatchNorm"
  bottom: "conv3_7_sum"
  top: "conv3_7_sum_bn"
  param {
    lr_mult: 0
  }
  param {
    lr_mult: 0
  }
  param {
    lr_mult: 0
  }
}
layer {
  name: "conv3_7_sum_relu"
  type: "ReLU"
  bottom: "conv3_7_sum_bn"
  top: "conv3_7_sum_bn"
}
layer {
  name: "conv3_8_1"
  type: "Convolution"
  bottom: "conv3_7_sum_bn"
  top: "conv3_8_1"
  param {
    lr_mult: 1
    decay_mult: 1
  }
  param {
    lr_mult: 2
    decay_mult: 0
  }
  convolution_param {
    num_output: 128
    pad: 0
    kernel_size: 1
    stride: 1
    weight_filler {
      type: "msra"
    }
    bias_filler {
      type: "constant"
      value: 0
    }
  }
}
layer {
  name: "conv3_8_1_bn"
  type: "BatchNorm"
  bottom: "conv3_8_1"
  top: "conv3_8_1_bn"
  param {
    lr_mult: 0
  }
  param {
    lr_mult: 0
  }
  param {
    lr_mult: 0
  }
}
layer {
  name: "conv3_8_1_relu"
  type: "ReLU"
  bottom: "conv3_8_1_bn"
  top: "conv3_8_1_bn"
}
layer {
  name: "conv3_8_2"
  type: "Convolution"
  bottom: "conv3_8_1_bn"
  top: "conv3_8_2"
  param {
    lr_mult: 1
    decay_mult: 1
  }
  param {
    lr_mult: 2
    decay_mult: 0
  }
  convolution_param {
    num_output: 128
    pad: 1
    kernel_size: 3
    stride: 1
    weight_filler {
      type: "msra"
    }
    bias_filler {
      type: "constant"
      value: 0
    }
  }
}
layer {
  name: "conv3_8_2_bn"
  type: "BatchNorm"
  bottom: "conv3_8_2"
  top: "conv3_8_2_bn"
  param {
    lr_mult: 0
  }
  param {
    lr_mult: 0
  }
  param {
    lr_mult: 0
  }
}
layer {
  name: "conv3_8_2_relu"
  type: "ReLU"
  bottom: "conv3_8_2_bn"
  top: "conv3_8_2_bn"
}
layer {
  name: "conv3_8_3"
  type: "Convolution"
  bottom: "conv3_8_2_bn"
  top: "conv3_8_3"
  param {
    lr_mult: 1
    decay_mult: 1
  }
  param {
    lr_mult: 2
    decay_mult: 0
  }
  convolution_param {
    num_output: 512
    pad: 0
    kernel_size: 1
    stride: 1
    weight_filler {
      type: "msra"
    }
    bias_filler {
      type: "constant"
      value: 0
    }
  }
}
layer {
  name: "conv3_8_sum"
  type: "Eltwise"
  bottom: "conv3_7_sum_bn"
  bottom: "conv3_8_3"
  top: "conv3_8_sum"
  eltwise_param {
    operation: SUM
  }
}
layer {
  name: "conv3_8_sum_bn"
  type: "BatchNorm"
  bottom: "conv3_8_sum"
  top: "conv3_8_sum_bn"
  param {
    lr_mult: 0
  }
  param {
    lr_mult: 0
  }
  param {
    lr_mult: 0
  }
}
layer {
  name: "conv3_8_sum_relu"
  type: "ReLU"
  bottom: "conv3_8_sum_bn"
  top: "conv3_8_sum_bn"
}
layer {
  name: "conv3_output"
  type: "Convolution"
  bottom: "conv3_8_sum_bn"
  top: "conv3_output"
  param {
    lr_mult: 1
    decay_mult: 1
  }
  param {
    lr_mult: 2
    decay_mult: 0
  }
  convolution_param {
    num_output: 1024
    pad: 0
    kernel_size: 1
    stride: 2
    weight_filler {
      type: "msra"
    }
    bias_filler {
      type: "constant"
      value: 0
    }
  }
}
layer {
  name: "conv4_1_1"
  type: "Convolution"
  bottom: "conv3_8_sum_bn"
  top: "conv4_1_1"
  param {
    lr_mult: 1
    decay_mult: 1
  }
  param {
    lr_mult: 2
    decay_mult: 0
  }
  convolution_param {
    num_output: 256
    pad: 0
    kernel_size: 1
    stride: 2
    weight_filler {
      type: "msra"
    }
    bias_filler {
      type: "constant"
      value: 0
    }
  }
}
layer {
  name: "conv4_1_1_bn"
  type: "BatchNorm"
  bottom: "conv4_1_1"
  top: "conv4_1_1_bn"
  param {
    lr_mult: 0
  }
  param {
    lr_mult: 0
  }
  param {
    lr_mult: 0
  }
}
layer {
  name: "conv4_1_1_relu"
  type: "ReLU"
  bottom: "conv4_1_1_bn"
  top: "conv4_1_1_bn"
}
layer {
  name: "conv4_1_2"
  type: "Convolution"
  bottom: "conv4_1_1_bn"
  top: "conv4_1_2"
  param {
    lr_mult: 1
    decay_mult: 1
  }
  param {
    lr_mult: 2
    decay_mult: 0
  }
  convolution_param {
    num_output: 256
    pad: 1
    kernel_size: 3
    stride: 1
    weight_filler {
      type: "msra"
    }
    bias_filler {
      type: "constant"
      value: 0
    }
  }
}
layer {
  name: "conv4_1_2_bn"
  type: "BatchNorm"
  bottom: "conv4_1_2"
  top: "conv4_1_2_bn"
  param {
    lr_mult: 0
  }
  param {
    lr_mult: 0
  }
  param {
    lr_mult: 0
  }
}
layer {
  name: "conv4_1_2_relu"
  type: "ReLU"
  bottom: "conv4_1_2_bn"
  top: "conv4_1_2_bn"
}
layer {
  name: "conv4_1_3"
  type: "Convolution"
  bottom: "conv4_1_2_bn"
  top: "conv4_1_3"
  param {
    lr_mult: 1
    decay_mult: 1
  }
  param {
    lr_mult: 2
    decay_mult: 0
  }
  convolution_param {
    num_output: 1024
    pad: 0
    kernel_size: 1
    stride: 1
    weight_filler {
      type: "msra"
    }
    bias_filler {
      type: "constant"
      value: 0
    }
  }
}
layer {
  name: "conv4_1_sum"
  type: "Eltwise"
  bottom: "conv3_output"
  bottom: "conv4_1_3"
  top: "conv4_1_sum"
  eltwise_param {
    operation: SUM
  }
}
layer {
  name: "conv4_1_sum_bn"
  type: "BatchNorm"
  bottom: "conv4_1_sum"
  top: "conv4_1_sum_bn"
  param {
    lr_mult: 0
  }
  param {
    lr_mult: 0
  }
  param {
    lr_mult: 0
  }
}
layer {
  name: "conv4_1_sum_relu"
  type: "ReLU"
  bottom: "conv4_1_sum_bn"
  top: "conv4_1_sum_bn"
}
layer {
  name: "conv4_2_1"
  type: "Convolution"
  bottom: "conv4_1_sum_bn"
  top: "conv4_2_1"
  param {
    lr_mult: 1
    decay_mult: 1
  }
  param {
    lr_mult: 2
    decay_mult: 0
  }
  convolution_param {
    num_output: 256
    pad: 0
    kernel_size: 1
    stride: 1
    weight_filler {
      type: "msra"
    }
    bias_filler {
      type: "constant"
      value: 0
    }
  }
}
layer {
  name: "conv4_2_1_bn"
  type: "BatchNorm"
  bottom: "conv4_2_1"
  top: "conv4_2_1_bn"
  param {
    lr_mult: 0
  }
  param {
    lr_mult: 0
  }
  param {
    lr_mult: 0
  }
}
layer {
  name: "conv4_2_1_relu"
  type: "ReLU"
  bottom: "conv4_2_1_bn"
  top: "conv4_2_1_bn"
}
layer {
  name: "conv4_2_2"
  type: "Convolution"
  bottom: "conv4_2_1_bn"
  top: "conv4_2_2"
  param {
    lr_mult: 1
    decay_mult: 1
  }
  param {
    lr_mult: 2
    decay_mult: 0
  }
  convolution_param {
    num_output: 256
    pad: 1
    kernel_size: 3
    stride: 1
    weight_filler {
      type: "msra"
    }
    bias_filler {
      type: "constant"
      value: 0
    }
  }
}
layer {
  name: "conv4_2_2_bn"
  type: "BatchNorm"
  bottom: "conv4_2_2"
  top: "conv4_2_2_bn"
  param {
    lr_mult: 0
  }
  param {
    lr_mult: 0
  }
  param {
    lr_mult: 0
  }
}
layer {
  name: "conv4_2_2_relu"
  type: "ReLU"
  bottom: "conv4_2_2_bn"
  top: "conv4_2_2_bn"
}
layer {
  name: "conv4_2_3"
  type: "Convolution"
  bottom: "conv4_2_2_bn"
  top: "conv4_2_3"
  
I0703 18:07:14.801712 35396 layer_factory.hpp:76] Creating layer data
I0703 18:07:14.801764 35396 net.cpp:106] Creating Layer data
I0703 18:07:14.801780 35396 net.cpp:411] data -> data
I0703 18:07:14.801815 35396 net.cpp:411] data -> label
I0703 18:07:14.802261 35396 image_data_layer.cpp:36] Opening file ../lists/roi-train.lst
I0703 18:07:14.937466 35396 image_data_layer.cpp:46] Shuffling data
I0703 18:07:14.974767 35396 image_data_layer.cpp:51] A total of 211680 images.
I0703 18:07:15.005322 35396 image_data_layer.cpp:78] output data size: 16,3,224,224
I0703 18:07:15.027675 35396 net.cpp:150] Setting up data
I0703 18:07:15.027724 35396 net.cpp:157] Top shape: 16 3 224 224 (2408448)
I0703 18:07:15.027741 35396 net.cpp:157] Top shape: 16 (16)
I0703 18:07:15.027755 35396 net.cpp:165] Memory required for data: 9633856
I0703 18:07:15.027772 35396 layer_factory.hpp:76] Creating layer conv1
I0703 18:07:15.027812 35396 net.cpp:106] Creating Layer conv1
I0703 18:07:15.027829 35396 net.cpp:454] conv1 <- data
I0703 18:07:15.027855 35396 net.cpp:411] conv1 -> conv1
I0703 18:07:15.155153 35396 net.cpp:150] Setting up conv1
I0703 18:07:15.155205 35396 net.cpp:157] Top shape: 16 64 109 109 (12166144)
I0703 18:07:15.155220 35396 net.cpp:165] Memory required for data: 58298432
I0703 18:07:15.155254 35396 layer_factory.hpp:76] Creating layer conv1_bn
I0703 18:07:15.155287 35396 net.cpp:106] Creating Layer conv1_bn
I0703 18:07:15.155304 35396 net.cpp:454] conv1_bn <- conv1
I0703 18:07:15.155323 35396 net.cpp:411] conv1_bn -> conv1_bn
I0703 18:07:15.155623 35396 net.cpp:150] Setting up conv1_bn
I0703 18:07:15.155648 35396 net.cpp:157] Top shape: 16 64 109 109 (12166144)
I0703 18:07:15.155663 35396 net.cpp:165] Memory required for data: 106963008
I0703 18:07:15.155689 35396 layer_factory.hpp:76] Creating layer conv1_relu
I0703 18:07:15.155719 35396 net.cpp:106] Creating Layer conv1_relu
I0703 18:07:15.155736 35396 net.cpp:454] conv1_relu <- conv1_bn
I0703 18:07:15.155755 35396 net.cpp:397] conv1_relu -> conv1_bn (in-place)
I0703 18:07:15.156055 35396 net.cpp:150] Setting up conv1_relu
I0703 18:07:15.156081 35396 net.cpp:157] Top shape: 16 64 109 109 (12166144)
I0703 18:07:15.156095 35396 net.cpp:165] Memory required for data: 155627584
I0703 18:07:15.156111 35396 layer_factory.hpp:76] Creating layer pool1
I0703 18:07:15.156131 35396 net.cpp:106] Creating Layer pool1
I0703 18:07:15.156144 35396 net.cpp:454] pool1 <- conv1_bn
I0703 18:07:15.156163 35396 net.cpp:411] pool1 -> pool1
I0703 18:07:15.156652 35396 net.cpp:150] Setting up pool1
I0703 18:07:15.156682 35396 net.cpp:157] Top shape: 16 64 54 54 (2985984)
I0703 18:07:15.156697 35396 net.cpp:165] Memory required for data: 167571520
I0703 18:07:15.156711 35396 layer_factory.hpp:76] Creating layer pool1_pool1_0_split
I0703 18:07:15.156731 35396 net.cpp:106] Creating Layer pool1_pool1_0_split
I0703 18:07:15.156745 35396 net.cpp:454] pool1_pool1_0_split <- pool1
I0703 18:07:15.156764 35396 net.cpp:411] pool1_pool1_0_split -> pool1_pool1_0_split_0
I0703 18:07:15.156783 35396 net.cpp:411] pool1_pool1_0_split -> pool1_pool1_0_split_1
I0703 18:07:15.156847 35396 net.cpp:150] Setting up pool1_pool1_0_split
I0703 18:07:15.156869 35396 net.cpp:157] Top shape: 16 64 54 54 (2985984)
I0703 18:07:15.156884 35396 net.cpp:157] Top shape: 16 64 54 54 (2985984)
I0703 18:07:15.156898 35396 net.cpp:165] Memory required for data: 191459392
I0703 18:07:15.156913 35396 layer_factory.hpp:76] Creating layer conv1_output
I0703 18:07:15.156939 35396 net.cpp:106] Creating Layer conv1_output
I0703 18:07:15.156955 35396 net.cpp:454] conv1_output <- pool1_pool1_0_split_0
I0703 18:07:15.156972 35396 net.cpp:411] conv1_output -> conv1_output
I0703 18:07:15.160015 35396 cudnn_conv_layer.cpp:194] Reallocating workspace storage: 768
I0703 18:07:15.160063 35396 net.cpp:150] Setting up conv1_output
I0703 18:07:15.160086 35396 net.cpp:157] Top shape: 16 256 54 54 (11943936)
I0703 18:07:15.160101 35396 net.cpp:165] Memory required for data: 239235136
I0703 18:07:15.160121 35396 layer_factory.hpp:76] Creating layer conv2_1_1
I0703 18:07:15.160147 35396 net.cpp:106] Creating Layer conv2_1_1
I0703 18:07:15.160163 35396 net.cpp:454] conv2_1_1 <- pool1_pool1_0_split_1
I0703 18:07:15.160186 35396 net.cpp:411] conv2_1_1 -> conv2_1_1
I0703 18:07:15.161742 35396 net.cpp:150] Setting up conv2_1_1
I0703 18:07:15.161774 35396 net.cpp:157] Top shape: 16 64 54 54 (2985984)
I0703 18:07:15.161788 35396 net.cpp:165] Memory required for data: 251179072
I0703 18:07:15.161813 35396 layer_factory.hpp:76] Creating layer conv2_1_1_bn
I0703 18:07:15.161836 35396 net.cpp:106] Creating Layer conv2_1_1_bn
I0703 18:07:15.161852 35396 net.cpp:454] conv2_1_1_bn <- conv2_1_1
I0703 18:07:15.161875 35396 net.cpp:411] conv2_1_1_bn -> conv2_1_1_bn
I0703 18:07:15.162166 35396 net.cpp:150] Setting up conv2_1_1_bn
I0703 18:07:15.162190 35396 net.cpp:157] Top shape: 16 64 54 54 (2985984)
I0703 18:07:15.162204 35396 net.cpp:165] Memory required for data: 263123008
I0703 18:07:15.162226 35396 layer_factory.hpp:76] Creating layer conv2_1_1_relu
I0703 18:07:15.162245 35396 net.cpp:106] Creating Layer conv2_1_1_relu
I0703 18:07:15.162258 35396 net.cpp:454] conv2_1_1_relu <- conv2_1_1_bn
I0703 18:07:15.162274 35396 net.cpp:397] conv2_1_1_relu -> conv2_1_1_bn (in-place)
I0703 18:07:15.162533 35396 net.cpp:150] Setting up conv2_1_1_relu
I0703 18:07:15.162559 35396 net.cpp:157] Top shape: 16 64 54 54 (2985984)
I0703 18:07:15.162571 35396 net.cpp:165] Memory required for data: 275066944
I0703 18:07:15.162586 35396 layer_factory.hpp:76] Creating layer conv2_1_2
I0703 18:07:15.162609 35396 net.cpp:106] Creating Layer conv2_1_2
I0703 18:07:15.162624 35396 net.cpp:454] conv2_1_2 <- conv2_1_1_bn
I0703 18:07:15.162647 35396 net.cpp:411] conv2_1_2 -> conv2_1_2
I0703 18:07:15.166107 35396 net.cpp:150] Setting up conv2_1_2
I0703 18:07:15.166136 35396 net.cpp:157] Top shape: 16 64 54 54 (2985984)
I0703 18:07:15.166151 35396 net.cpp:165] Memory required for data: 287010880
I0703 18:07:15.166170 35396 layer_factory.hpp:76] Creating layer conv2_1_2_bn
I0703 18:07:15.166193 35396 net.cpp:106] Creating Layer conv2_1_2_bn
I0703 18:07:15.166235 35396 net.cpp:454] conv2_1_2_bn <- conv2_1_2
I0703 18:07:15.166260 35396 net.cpp:411] conv2_1_2_bn -> conv2_1_2_bn
I0703 18:07:15.166486 35396 net.cpp:150] Setting up conv2_1_2_bn
I0703 18:07:15.166507 35396 net.cpp:157] Top shape: 16 64 54 54 (2985984)
I0703 18:07:15.166520 35396 net.cpp:165] Memory required for data: 298954816
I0703 18:07:15.166548 35396 layer_factory.hpp:76] Creating layer conv2_1_2_relu
I0703 18:07:15.166565 35396 net.cpp:106] Creating Layer conv2_1_2_relu
I0703 18:07:15.166580 35396 net.cpp:454] conv2_1_2_relu <- conv2_1_2_bn
I0703 18:07:15.166599 35396 net.cpp:397] conv2_1_2_relu -> conv2_1_2_bn (in-place)
I0703 18:07:15.166800 35396 net.cpp:150] Setting up conv2_1_2_relu
I0703 18:07:15.166822 35396 net.cpp:157] Top shape: 16 64 54 54 (2985984)
I0703 18:07:15.166836 35396 net.cpp:165] Memory required for data: 310898752
I0703 18:07:15.166851 35396 layer_factory.hpp:76] Creating layer conv2_1_3
I0703 18:07:15.166874 35396 net.cpp:106] Creating Layer conv2_1_3
I0703 18:07:15.166890 35396 net.cpp:454] conv2_1_3 <- conv2_1_2_bn
I0703 18:07:15.166918 35396 net.cpp:411] conv2_1_3 -> conv2_1_3
I0703 18:07:15.168546 35396 cudnn_conv_layer.cpp:194] Reallocating workspace storage: 768
I0703 18:07:15.168586 35396 net.cpp:150] Setting up conv2_1_3
I0703 18:07:15.168607 35396 net.cpp:157] Top shape: 16 256 54 54 (11943936)
I0703 18:07:15.168622 35396 net.cpp:165] Memory required for data: 358674496
I0703 18:07:15.168642 35396 layer_factory.hpp:76] Creating layer conv2_1_sum
I0703 18:07:15.168665 35396 net.cpp:106] Creating Layer conv2_1_sum
I0703 18:07:15.168680 35396 net.cpp:454] conv2_1_sum <- conv1_output
I0703 18:07:15.168696 35396 net.cpp:454] conv2_1_sum <- conv2_1_3
I0703 18:07:15.168720 35396 net.cpp:411] conv2_1_sum -> conv2_1_sum
I0703 18:07:15.168781 35396 net.cpp:150] Setting up conv2_1_sum
I0703 18:07:15.168800 35396 net.cpp:157] Top shape: 16 256 54 54 (11943936)
I0703 18:07:15.168817 35396 net.cpp:165] Memory required for data: 406450240
I0703 18:07:15.168831 35396 layer_factory.hpp:76] Creating layer conv2_1_sum_bn
I0703 18:07:15.168850 35396 net.cpp:106] Creating Layer conv2_1_sum_bn
I0703 18:07:15.168864 35396 net.cpp:454] conv2_1_sum_bn <- conv2_1_sum
I0703 18:07:15.168884 35396 net.cpp:411] conv2_1_sum_bn -> conv2_1_sum_bn
I0703 18:07:15.169108 35396 net.cpp:150] Setting up conv2_1_sum_bn
I0703 18:07:15.169129 35396 net.cpp:157] Top shape: 16 256 54 54 (11943936)
I0703 18:07:15.169142 35396 net.cpp:165] Memory required for data: 454225984
I0703 18:07:15.169165 35396 layer_factory.hpp:76] Creating layer conv2_1_sum_relu
I0703 18:07:15.169189 35396 net.cpp:106] Creating Layer conv2_1_sum_relu
I0703 18:07:15.169205 35396 net.cpp:454] conv2_1_sum_relu <- conv2_1_sum_bn
I0703 18:07:15.169221 35396 net.cpp:397] conv2_1_sum_relu -> conv2_1_sum_bn (in-place)
I0703 18:07:15.169571 35396 net.cpp:150] Setting up conv2_1_sum_relu
I0703 18:07:15.169596 35396 net.cpp:157] Top shape: 16 256 54 54 (11943936)
I0703 18:07:15.169610 35396 net.cpp:165] Memory required for data: 502001728
I0703 18:07:15.169625 35396 layer_factory.hpp:76] Creating layer conv2_1_sum_bn_conv2_1_sum_relu_0_split
I0703 18:07:15.169641 35396 net.cpp:106] Creating Layer conv2_1_sum_bn_conv2_1_sum_relu_0_split
I0703 18:07:15.169656 35396 net.cpp:454] conv2_1_sum_bn_conv2_1_sum_relu_0_split <- conv2_1_sum_bn
I0703 18:07:15.169677 35396 net.cpp:411] conv2_1_sum_bn_conv2_1_sum_relu_0_split -> conv2_1_sum_bn_conv2_1_sum_relu_0_split_0
I0703 18:07:15.169695 35396 net.cpp:411] conv2_1_sum_bn_conv2_1_sum_relu_0_split -> conv2_1_sum_bn_conv2_1_sum_relu_0_split_1
I0703 18:07:15.169769 35396 net.cpp:150] Setting up conv2_1_sum_bn_conv2_1_sum_relu_0_split
I0703 18:07:15.169790 35396 net.cpp:157] Top shape: 16 256 54 54 (11943936)
I0703 18:07:15.169806 35396 net.cpp:157] Top shape: 16 256 54 54 (11943936)
I0703 18:07:15.169821 35396 net.cpp:165] Memory required for data: 597553216
I0703 18:07:15.169834 35396 layer_factory.hpp:76] Creating layer conv2_2_1
I0703 18:07:15.169858 35396 net.cpp:106] Creating Layer conv2_2_1
I0703 18:07:15.169893 35396 net.cpp:454] conv2_2_1 <- conv2_1_sum_bn_conv2_1_sum_relu_0_split_0
I0703 18:07:15.169914 35396 net.cpp:411] conv2_2_1 -> conv2_2_1
I0703 18:07:15.171520 35396 cudnn_conv_layer.cpp:194] Reallocating workspace storage: 3072
I0703 18:07:15.171741 35396 net.cpp:150] Setting up conv2_2_1
I0703 18:07:15.171763 35396 net.cpp:157] Top shape: 16 64 54 54 (2985984)
I0703 18:07:15.171778 35396 net.cpp:165] Memory required for data: 609497152
I0703 18:07:15.171798 35396 layer_factory.hpp:76] Creating layer conv2_2_1_bn
I0703 18:07:15.171823 35396 net.cpp:106] Creating Layer conv2_2_1_bn
I0703 18:07:15.171838 35396 net.cpp:454] conv2_2_1_bn <- conv2_2_1
I0703 18:07:15.171854 35396 net.cpp:411] conv2_2_1_bn -> conv2_2_1_bn
I0703 18:07:15.172089 35396 net.cpp:150] Setting up conv2_2_1_bn
I0703 18:07:15.172111 35396 net.cpp:157] Top shape: 16 64 54 54 (2985984)
I0703 18:07:15.172124 35396 net.cpp:165] Memory required for data: 621441088
I0703 18:07:15.172145 35396 layer_factory.hpp:76] Creating layer conv2_2_1_relu
I0703 18:07:15.172169 35396 net.cpp:106] Creating Layer conv2_2_1_relu
I0703 18:07:15.172185 35396 net.cpp:454] conv2_2_1_relu <- conv2_2_1_bn
I0703 18:07:15.172201 35396 net.cpp:397] conv2_2_1_relu -> conv2_2_1_bn (in-place)
I0703 18:07:15.172417 35396 net.cpp:150] Setting up conv2_2_1_relu
I0703 18:07:15.172453 35396 net.cpp:157] Top shape: 16 64 54 54 (2985984)
I0703 18:07:15.172469 35396 net.cpp:165] Memory required for data: 633385024
I0703 18:07:15.172485 35396 layer_factory.hpp:76] Creating layer conv2_2_2
I0703 18:07:15.172508 35396 net.cpp:106] Creating Layer conv2_2_2
I0703 18:07:15.172523 35396 net.cpp:454] conv2_2_2 <- conv2_2_1_bn
I0703 18:07:15.172545 35396 net.cpp:411] conv2_2_2 -> conv2_2_2
I0703 18:07:15.174895 35396 net.cpp:150] Setting up conv2_2_2
I0703 18:07:15.174921 35396 net.cpp:157] Top shape: 16 64 54 54 (2985984)
I0703 18:07:15.174935 35396 net.cpp:165] Memory required for data: 645328960
I0703 18:07:15.174954 35396 layer_factory.hpp:76] Creating layer conv2_2_2_bn
I0703 18:07:15.174978 35396 net.cpp:106] Creating Layer conv2_2_2_bn
I0703 18:07:15.174993 35396 net.cpp:454] conv2_2_2_bn <- conv2_2_2
I0703 18:07:15.175014 35396 net.cpp:411] conv2_2_2_bn -> conv2_2_2_bn
I0703 18:07:15.175245 35396 net.cpp:150] Setting up conv2_2_2_bn
I0703 18:07:15.175266 35396 net.cpp:157] Top shape: 16 64 54 54 (2985984)
I0703 18:07:15.175279 35396 net.cpp:165] Memory required for data: 657272896
I0703 18:07:15.175300 35396 layer_factory.hpp:76] Creating layer conv2_2_2_relu
I0703 18:07:15.175319 35396 net.cpp:106] Creating Layer conv2_2_2_relu
I0703 18:07:15.175333 35396 net.cpp:454] conv2_2_2_relu <- conv2_2_2_bn
I0703 18:07:15.175349 35396 net.cpp:397] conv2_2_2_relu -> conv2_2_2_bn (in-place)
I0703 18:07:15.175568 35396 net.cpp:150] Setting up conv2_2_2_relu
I0703 18:07:15.175590 35396 net.cpp:157] Top shape: 16 64 54 54 (2985984)
I0703 18:07:15.175604 35396 net.cpp:165] Memory required for data: 669216832
I0703 18:07:15.175619 35396 layer_factory.hpp:76] Creating layer conv2_2_3
I0703 18:07:15.175642 35396 net.cpp:106] Creating Layer conv2_2_3
I0703 18:07:15.175657 35396 net.cpp:454] conv2_2_3 <- conv2_2_2_bn
I0703 18:07:15.175679 35396 net.cpp:411] conv2_2_3 -> conv2_2_3
I0703 18:07:15.177470 35396 cudnn_conv_layer.cpp:194] Reallocating workspace storage: 768
I0703 18:07:15.177510 35396 net.cpp:150] Setting up conv2_2_3
I0703 18:07:15.177531 35396 net.cpp:157] Top shape: 16 256 54 54 (11943936)
I0703 18:07:15.177544 35396 net.cpp:165] Memory required for data: 716992576
I0703 18:07:15.177577 35396 layer_factory.hpp:76] Creating layer conv2_2_sum
I0703 18:07:15.177603 35396 net.cpp:106] Creating Layer conv2_2_sum
I0703 18:07:15.177619 35396 net.cpp:454] conv2_2_sum <- conv2_1_sum_bn_conv2_1_sum_relu_0_split_1
I0703 18:07:15.177635 35396 net.cpp:454] conv2_2_sum <- conv2_2_3
I0703 18:07:15.177652 35396 net.cpp:411] conv2_2_sum -> conv2_2_sum
I0703 18:07:15.177703 35396 net.cpp:150] Setting up conv2_2_sum
I0703 18:07:15.177724 35396 net.cpp:157] Top shape: 16 256 54 54 (11943936)
I0703 18:07:15.177760 35396 net.cpp:165] Memory required for data: 764768320
I0703 18:07:15.177775 35396 layer_factory.hpp:76] Creating layer conv2_2_sum_bn
I0703 18:07:15.177798 35396 net.cpp:106] Creating Layer conv2_2_sum_bn
I0703 18:07:15.177814 35396 net.cpp:454] conv2_2_sum_bn <- conv2_2_sum
I0703 18:07:15.177834 35396 net.cpp:411] conv2_2_sum_bn -> conv2_2_sum_bn
I0703 18:07:15.178061 35396 net.cpp:150] Setting up conv2_2_sum_bn
I0703 18:07:15.178081 35396 net.cpp:157] Top shape: 16 256 54 54 (11943936)
I0703 18:07:15.178093 35396 net.cpp:165] Memory required for data: 812544064
I0703 18:07:15.178115 35396 layer_factory.hpp:76] Creating layer conv2_2_sum_relu
I0703 18:07:15.178133 35396 net.cpp:106] Creating Layer conv2_2_sum_relu
I0703 18:07:15.178148 35396 net.cpp:454] conv2_2_sum_relu <- conv2_2_sum_bn
I0703 18:07:15.178164 35396 net.cpp:397] conv2_2_sum_relu -> conv2_2_sum_bn (in-place)
I0703 18:07:15.178545 35396 net.cpp:150] Setting up conv2_2_sum_relu
I0703 18:07:15.178568 35396 net.cpp:157] Top shape: 16 256 54 54 (11943936)
I0703 18:07:15.178582 35396 net.cpp:165] Memory required for data: 860319808
I0703 18:07:15.178597 35396 layer_factory.hpp:76] Creating layer conv2_2_sum_bn_conv2_2_sum_relu_0_split
I0703 18:07:15.178614 35396 net.cpp:106] Creating Layer conv2_2_sum_bn_conv2_2_sum_relu_0_split
I0703 18:07:15.178628 35396 net.cpp:454] conv2_2_sum_bn_conv2_2_sum_relu_0_split <- conv2_2_sum_bn
I0703 18:07:15.178645 35396 net.cpp:411] conv2_2_sum_bn_conv2_2_sum_relu_0_split -> conv2_2_sum_bn_conv2_2_sum_relu_0_split_0
I0703 18:07:15.178664 35396 net.cpp:411] conv2_2_sum_bn_conv2_2_sum_relu_0_split -> conv2_2_sum_bn_conv2_2_sum_relu_0_split_1
I0703 18:07:15.178742 35396 net.cpp:150] Setting up conv2_2_sum_bn_conv2_2_sum_relu_0_split
I0703 18:07:15.178764 35396 net.cpp:157] Top shape: 16 256 54 54 (11943936)
I0703 18:07:15.178781 35396 net.cpp:157] Top shape: 16 256 54 54 (11943936)
I0703 18:07:15.178794 35396 net.cpp:165] Memory required for data: 955871296
I0703 18:07:15.178808 35396 layer_factory.hpp:76] Creating layer conv2_3_1
I0703 18:07:15.178831 35396 net.cpp:106] Creating Layer conv2_3_1
I0703 18:07:15.178846 35396 net.cpp:454] conv2_3_1 <- conv2_2_sum_bn_conv2_2_sum_relu_0_split_0
I0703 18:07:15.178867 35396 net.cpp:411] conv2_3_1 -> conv2_3_1
I0703 18:07:15.180531 35396 cudnn_conv_layer.cpp:194] Reallocating workspace storage: 3072
I0703 18:07:15.180573 35396 net.cpp:150] Setting up conv2_3_1
I0703 18:07:15.180594 35396 net.cpp:157] Top shape: 16 64 54 54 (2985984)
I0703 18:07:15.180608 35396 net.cpp:165] Memory required for data: 967815232
I0703 18:07:15.180629 35396 layer_factory.hpp:76] Creating layer conv2_3_1_bn
I0703 18:07:15.180651 35396 net.cpp:106] Creating Layer conv2_3_1_bn
I0703 18:07:15.180666 35396 net.cpp:454] conv2_3_1_bn <- conv2_3_1
I0703 18:07:15.180685 35396 net.cpp:411] conv2_3_1_bn -> conv2_3_1_bn
I0703 18:07:15.180922 35396 net.cpp:150] Setting up conv2_3_1_bn
I0703 18:07:15.180943 35396 net.cpp:157] Top shape: 16 64 54 54 (2985984)
I0703 18:07:15.180955 35396 net.cpp:165] Memory required for data: 979759168
I0703 18:07:15.180977 35396 layer_factory.hpp:76] Creating layer conv2_3_1_relu
I0703 18:07:15.180995 35396 net.cpp:106] Creating Layer conv2_3_1_relu
I0703 18:07:15.181010 35396 net.cpp:454] conv2_3_1_relu <- conv2_3_1_bn
I0703 18:07:15.181030 35396 net.cpp:397] conv2_3_1_relu -> conv2_3_1_bn (in-place)
I0703 18:07:15.181246 35396 net.cpp:150] Setting up conv2_3_1_relu
I0703 18:07:15.181272 35396 net.cpp:157] Top shape: 16 64 54 54 (2985984)
I0703 18:07:15.181288 35396 net.cpp:165] Memory required for data: 991703104
I0703 18:07:15.181301 35396 layer_factory.hpp:76] Creating layer conv2_3_2
I0703 18:07:15.181329 35396 net.cpp:106] Creating Layer conv2_3_2
I0703 18:07:15.181345 35396 net.cpp:454] conv2_3_2 <- conv2_3_1_bn
I0703 18:07:15.181367 35396 net.cpp:411] conv2_3_2 -> conv2_3_2
I0703 18:07:15.183751 35396 net.cpp:150] Setting up conv2_3_2
I0703 18:07:15.183779 35396 net.cpp:157] Top shape: 16 64 54 54 (2985984)
I0703 18:07:15.183792 35396 net.cpp:165] Memory required for data: 1003647040
I0703 18:07:15.183833 35396 layer_factory.hpp:76] Creating layer conv2_3_2_bn
I0703 18:07:15.183857 35396 net.cpp:106] Creating Layer conv2_3_2_bn
I0703 18:07:15.183873 35396 net.cpp:454] conv2_3_2_bn <- conv2_3_2
I0703 18:07:15.183894 35396 net.cpp:411] conv2_3_2_bn -> conv2_3_2_bn
I0703 18:07:15.184130 35396 net.cpp:150] Setting up conv2_3_2_bn
I0703 18:07:15.184151 35396 net.cpp:157] Top shape: 16 64 54 54 (2985984)
I0703 18:07:15.184165 35396 net.cpp:165] Memory required for data: 1015590976
I0703 18:07:15.184186 35396 layer_factory.hpp:76] Creating layer conv2_3_2_relu
I0703 18:07:15.184204 35396 net.cpp:106] Creating Layer conv2_3_2_relu
I0703 18:07:15.184218 35396 net.cpp:454] conv2_3_2_relu <- conv2_3_2_bn
I0703 18:07:15.184236 35396 net.cpp:397] conv2_3_2_relu -> conv2_3_2_bn (in-place)
I0703 18:07:15.184455 35396 net.cpp:150] Setting up conv2_3_2_relu
I0703 18:07:15.184478 35396 net.cpp:157] Top shape: 16 64 54 54 (2985984)
I0703 18:07:15.184494 35396 net.cpp:165] Memory required for data: 1027534912
I0703 18:07:15.184507 35396 layer_factory.hpp:76] Creating layer conv2_3_3
I0703 18:07:15.184531 35396 net.cpp:106] Creating Layer conv2_3_3
I0703 18:07:15.184547 35396 net.cpp:454] conv2_3_3 <- conv2_3_2_bn
I0703 18:07:15.184571 35396 net.cpp:411] conv2_3_3 -> conv2_3_3
I0703 18:07:15.186193 35396 cudnn_conv_layer.cpp:194] Reallocating workspace storage: 768
I0703 18:07:15.186236 35396 net.cpp:150] Setting up conv2_3_3
I0703 18:07:15.186260 35396 net.cpp:157] Top shape: 16 256 54 54 (11943936)
I0703 18:07:15.186275 35396 net.cpp:165] Memory required for data: 1075310656
I0703 18:07:15.186295 35396 layer_factory.hpp:76] Creating layer conv2_3_sum
I0703 18:07:15.186313 35396 net.cpp:106] Creating Layer conv2_3_sum
I0703 18:07:15.186328 35396 net.cpp:454] conv2_3_sum <- conv2_2_sum_bn_conv2_2_sum_relu_0_split_1
I0703 18:07:15.186344 35396 net.cpp:454] conv2_3_sum <- conv2_3_3
I0703 18:07:15.186362 35396 net.cpp:411] conv2_3_sum -> conv2_3_sum
I0703 18:07:15.186413 35396 net.cpp:150] Setting up conv2_3_sum
I0703 18:07:15.186437 35396 net.cpp:157] Top shape: 16 256 54 54 (11943936)
I0703 18:07:15.186452 35396 net.cpp:165] Memory required for data: 1123086400
I0703 18:07:15.186467 35396 layer_factory.hpp:76] Creating layer conv2_3_sum_bn
I0703 18:07:15.186486 35396 net.cpp:106] Creating Layer conv2_3_sum_bn
I0703 18:07:15.186501 35396 net.cpp:454] conv2_3_sum_bn <- conv2_3_sum
I0703 18:07:15.186520 35396 net.cpp:411] conv2_3_sum_bn -> conv2_3_sum_bn
I0703 18:07:15.186763 35396 net.cpp:150] Setting up conv2_3_sum_bn
I0703 18:07:15.186784 35396 net.cpp:157] Top shape: 16 256 54 54 (11943936)
I0703 18:07:15.186797 35396 net.cpp:165] Memory required for data: 1170862144
I0703 18:07:15.186820 35396 layer_factory.hpp:76] Creating layer conv2_3_sum_relu
I0703 18:07:15.186841 35396 net.cpp:106] Creating Layer conv2_3_sum_relu
I0703 18:07:15.186859 35396 net.cpp:454] conv2_3_sum_relu <- conv2_3_sum_bn
I0703 18:07:15.186877 35396 net.cpp:397] conv2_3_sum_relu -> conv2_3_sum_bn (in-place)
I0703 18:07:15.187235 35396 net.cpp:150] Setting up conv2_3_sum_relu
I0703 18:07:15.187259 35396 net.cpp:157] Top shape: 16 256 54 54 (11943936)
I0703 18:07:15.187273 35396 net.cpp:165] Memory required for data: 1218637888
I0703 18:07:15.187290 35396 layer_factory.hpp:76] Creating layer conv2_3_sum_bn_conv2_3_sum_relu_0_split
I0703 18:07:15.187309 35396 net.cpp:106] Creating Layer conv2_3_sum_bn_conv2_3_sum_relu_0_split
I0703 18:07:15.187324 35396 net.cpp:454] conv2_3_sum_bn_conv2_3_sum_relu_0_split <- conv2_3_sum_bn
I0703 18:07:15.187345 35396 net.cpp:411] conv2_3_sum_bn_conv2_3_sum_relu_0_split -> conv2_3_sum_bn_conv2_3_sum_relu_0_split_0
I0703 18:07:15.187366 35396 net.cpp:411] conv2_3_sum_bn_conv2_3_sum_relu_0_split -> conv2_3_sum_bn_conv2_3_sum_relu_0_split_1
I0703 18:07:15.187436 35396 net.cpp:150] Setting up conv2_3_sum_bn_conv2_3_sum_relu_0_split
I0703 18:07:15.187460 35396 net.cpp:157] Top shape: 16 256 54 54 (11943936)
I0703 18:07:15.187479 35396 net.cpp:157] Top shape: 16 256 54 54 (11943936)
I0703 18:07:15.187511 35396 net.cpp:165] Memory required for data: 1314189376
I0703 18:07:15.187526 35396 layer_factory.hpp:76] Creating layer conv2_output
I0703 18:07:15.187546 35396 net.cpp:106] Creating Layer conv2_output
I0703 18:07:15.187562 35396 net.cpp:454] conv2_output <- conv2_3_sum_bn_conv2_3_sum_relu_0_split_0
I0703 18:07:15.187584 35396 net.cpp:411] conv2_output -> conv2_output
I0703 18:07:15.194650 35396 cudnn_conv_layer.cpp:194] Reallocating workspace storage: 3072
I0703 18:07:15.194694 35396 net.cpp:150] Setting up conv2_output
I0703 18:07:15.194715 35396 net.cpp:157] Top shape: 16 512 27 27 (5971968)
I0703 18:07:15.194728 35396 net.cpp:165] Memory required for data: 1338077248
I0703 18:07:15.194751 35396 layer_factory.hpp:76] Creating layer conv3_1_1
I0703 18:07:15.194778 35396 net.cpp:106] Creating Layer conv3_1_1
I0703 18:07:15.194793 35396 net.cpp:454] conv3_1_1 <- conv2_3_sum_bn_conv2_3_sum_relu_0_split_1
I0703 18:07:15.194808 35396 net.cpp:411] conv3_1_1 -> conv3_1_1
I0703 18:07:15.196893 35396 cudnn_conv_layer.cpp:194] Reallocating workspace storage: 3072
I0703 18:07:15.196924 35396 net.cpp:150] Setting up conv3_1_1
I0703 18:07:15.196936 35396 net.cpp:157] Top shape: 16 128 27 27 (1492992)
I0703 18:07:15.196945 35396 net.cpp:165] Memory required for data: 1344049216
I0703 18:07:15.196957 35396 layer_factory.hpp:76] Creating layer conv3_1_1_bn
I0703 18:07:15.196972 35396 net.cpp:106] Creating Layer conv3_1_1_bn
I0703 18:07:15.196981 35396 net.cpp:454] conv3_1_1_bn <- conv3_1_1
I0703 18:07:15.196992 35396 net.cpp:411] conv3_1_1_bn -> conv3_1_1_bn
I0703 18:07:15.197208 35396 net.cpp:150] Setting up conv3_1_1_bn
I0703 18:07:15.197223 35396 net.cpp:157] Top shape: 16 128 27 27 (1492992)
I0703 18:07:15.197232 35396 net.cpp:165] Memory required for data: 1350021184
I0703 18:07:15.197245 35396 layer_factory.hpp:76] Creating layer conv3_1_1_relu
I0703 18:07:15.197257 35396 net.cpp:106] Creating Layer conv3_1_1_relu
I0703 18:07:15.197265 35396 net.cpp:454] conv3_1_1_relu <- conv3_1_1_bn
I0703 18:07:15.197280 35396 net.cpp:397] conv3_1_1_relu -> conv3_1_1_bn (in-place)
I0703 18:07:15.197614 35396 net.cpp:150] Setting up conv3_1_1_relu
I0703 18:07:15.197634 35396 net.cpp:157] Top shape: 16 128 27 27 (1492992)
I0703 18:07:15.197643 35396 net.cpp:165] Memory required for data: 1355993152
I0703 18:07:15.197652 35396 layer_factory.hpp:76] Creating layer conv3_1_2
I0703 18:07:15.197667 35396 net.cpp:106] Creating Layer conv3_1_2
I0703 18:07:15.197676 35396 net.cpp:454] conv3_1_2 <- conv3_1_1_bn
I0703 18:07:15.197690 35396 net.cpp:411] conv3_1_2 -> conv3_1_2
I0703 18:07:15.204591 35396 cudnn_conv_layer.cpp:194] Reallocating workspace storage: 13824
I0703 18:07:15.204802 35396 net.cpp:150] Setting up conv3_1_2
I0703 18:07:15.204821 35396 net.cpp:157] Top shape: 16 128 27 27 (1492992)
I0703 18:07:15.204831 35396 net.cpp:165] Memory required for data: 1361965120
I0703 18:07:15.204844 35396 layer_factory.hpp:76] Creating layer conv3_1_2_bn
I0703 18:07:15.204860 35396 net.cpp:106] Creating Layer conv3_1_2_bn
I0703 18:07:15.204869 35396 net.cpp:454] conv3_1_2_bn <- conv3_1_2
I0703 18:07:15.204881 35396 net.cpp:411] conv3_1_2_bn -> conv3_1_2_bn
I0703 18:07:15.205101 35396 net.cpp:150] Setting up conv3_1_2_bn
I0703 18:07:15.205116 35396 net.cpp:157] Top shape: 16 128 27 27 (1492992)
I0703 18:07:15.205124 35396 net.cpp:165] Memory required for data: 1367937088
I0703 18:07:15.205137 35396 layer_factory.hpp:76] Creating layer conv3_1_2_relu
I0703 18:07:15.205148 35396 net.cpp:106] Creating Layer conv3_1_2_relu
I0703 18:07:15.205157 35396 net.cpp:454] conv3_1_2_relu <- conv3_1_2_bn
I0703 18:07:15.205166 35396 net.cpp:397] conv3_1_2_relu -> conv3_1_2_bn (in-place)
I0703 18:07:15.205365 35396 net.cpp:150] Setting up conv3_1_2_relu
I0703 18:07:15.205382 35396 net.cpp:157] Top shape: 16 128 27 27 (1492992)
I0703 18:07:15.205390 35396 net.cpp:165] Memory required for data: 1373909056
I0703 18:07:15.205399 35396 layer_factory.hpp:76] Creating layer conv3_1_3
I0703 18:07:15.205415 35396 net.cpp:106] Creating Layer conv3_1_3
I0703 18:07:15.205446 35396 net.cpp:454] conv3_1_3 <- conv3_1_2_bn
I0703 18:07:15.205459 35396 net.cpp:411] conv3_1_3 -> conv3_1_3
I0703 18:07:15.208894 35396 cudnn_conv_layer.cpp:194] Reallocating workspace storage: 1536
I0703 18:07:15.208931 35396 net.cpp:150] Setting up conv3_1_3
I0703 18:07:15.208945 35396 net.cpp:157] Top shape: 16 512 27 27 (5971968)
I0703 18:07:15.208952 35396 net.cpp:165] Memory required for data: 1397796928
I0703 18:07:15.208982 35396 layer_factory.hpp:76] Creating layer conv3_1_sum
I0703 18:07:15.208997 35396 net.cpp:106] Creating Layer conv3_1_sum
I0703 18:07:15.209007 35396 net.cpp:454] conv3_1_sum <- conv2_output
I0703 18:07:15.209015 35396 net.cpp:454] conv3_1_sum <- conv3_1_3
I0703 18:07:15.209029 35396 net.cpp:411] conv3_1_sum -> conv3_1_sum
I0703 18:07:15.209062 35396 net.cpp:150] Setting up conv3_1_sum
I0703 18:07:15.209074 35396 net.cpp:157] Top shape: 16 512 27 27 (5971968)
I0703 18:07:15.209082 35396 net.cpp:165] Memory required for data: 1421684800
I0703 18:07:15.209090 35396 layer_factory.hpp:76] Creating layer conv3_1_sum_bn
I0703 18:07:15.209105 35396 net.cpp:106] Creating Layer conv3_1_sum_bn
I0703 18:07:15.209113 35396 net.cpp:454] conv3_1_sum_bn <- conv3_1_sum
I0703 18:07:15.209125 35396 net.cpp:411] conv3_1_sum_bn -> conv3_1_sum_bn
I0703 18:07:15.209332 35396 net.cpp:150] Setting up conv3_1_sum_bn
I0703 18:07:15.209350 35396 net.cpp:157] Top shape: 16 512 27 27 (5971968)
I0703 18:07:15.209358 35396 net.cpp:165] Memory required for data: 1445572672
I0703 18:07:15.209370 35396 layer_factory.hpp:76] Creating layer conv3_1_sum_relu
I0703 18:07:15.209381 35396 net.cpp:106] Creating Layer conv3_1_sum_relu
I0703 18:07:15.209389 35396 net.cpp:454] conv3_1_sum_relu <- conv3_1_sum_bn
I0703 18:07:15.209399 35396 net.cpp:397] conv3_1_sum_relu -> conv3_1_sum_bn (in-place)
I0703 18:07:15.209727 35396 net.cpp:150] Setting up conv3_1_sum_relu
I0703 18:07:15.209746 35396 net.cpp:157] Top shape: 16 512 27 27 (5971968)
I0703 18:07:15.209755 35396 net.cpp:165] Memory required for data: 1469460544
I0703 18:07:15.209764 35396 layer_factory.hpp:76] Creating layer conv3_1_sum_bn_conv3_1_sum_relu_0_split
I0703 18:07:15.209775 35396 net.cpp:106] Creating Layer conv3_1_sum_bn_conv3_1_sum_relu_0_split
I0703 18:07:15.209787 35396 net.cpp:454] conv3_1_sum_bn_conv3_1_sum_relu_0_split <- conv3_1_sum_bn
I0703 18:07:15.209797 35396 net.cpp:411] conv3_1_sum_bn_conv3_1_sum_relu_0_split -> conv3_1_sum_bn_conv3_1_sum_relu_0_split_0
I0703 18:07:15.209810 35396 net.cpp:411] conv3_1_sum_bn_conv3_1_sum_relu_0_split -> conv3_1_sum_bn_conv3_1_sum_relu_0_split_1
I0703 18:07:15.209862 35396 net.cpp:150] Setting up conv3_1_sum_bn_conv3_1_sum_relu_0_split
I0703 18:07:15.209874 35396 net.cpp:157] Top shape: 16 512 27 27 (5971968)
I0703 18:07:15.209883 35396 net.cpp:157] Top shape: 16 512 27 27 (5971968)
I0703 18:07:15.209890 35396 net.cpp:165] Memory required for data: 1517236288
I0703 18:07:15.209899 35396 layer_factory.hpp:76] Creating layer conv3_2_1
I0703 18:07:15.209913 35396 net.cpp:106] Creating Layer conv3_2_1
I0703 18:07:15.209923 35396 net.cpp:454] conv3_2_1 <- conv3_1_sum_bn_conv3_1_sum_relu_0_split_0
I0703 18:07:15.209933 35396 net.cpp:411] conv3_2_1 -> conv3_2_1
I0703 18:07:15.213834 35396 cudnn_conv_layer.cpp:194] Reallocating workspace storage: 6144
I0703 18:07:15.213865 35396 net.cpp:150] Setting up conv3_2_1
I0703 18:07:15.213877 35396 net.cpp:157] Top shape: 16 128 27 27 (1492992)
I0703 18:07:15.213887 35396 net.cpp:165] Memory required for data: 1523208256
I0703 18:07:15.213899 35396 layer_factory.hpp:76] Creating layer conv3_2_1_bn
I0703 18:07:15.213914 35396 net.cpp:106] Creating Layer conv3_2_1_bn
I0703 18:07:15.213923 35396 net.cpp:454] conv3_2_1_bn <- conv3_2_1
I0703 18:07:15.213937 35396 net.cpp:411] conv3_2_1_bn -> conv3_2_1_bn
I0703 18:07:15.214154 35396 net.cpp:150] Setting up conv3_2_1_bn
I0703 18:07:15.214167 35396 net.cpp:157] Top shape: 16 128 27 27 (1492992)
I0703 18:07:15.214176 35396 net.cpp:165] Memory required for data: 1529180224
I0703 18:07:15.214189 35396 layer_factory.hpp:76] Creating layer conv3_2_1_relu
I0703 18:07:15.214217 35396 net.cpp:106] Creating Layer conv3_2_1_relu
I0703 18:07:15.214226 35396 net.cpp:454] conv3_2_1_relu <- conv3_2_1_bn
I0703 18:07:15.214236 35396 net.cpp:397] conv3_2_1_relu -> conv3_2_1_bn (in-place)
I0703 18:07:15.214735 35396 net.cpp:150] Setting up conv3_2_1_relu
I0703 18:07:15.214754 35396 net.cpp:157] Top shape: 16 128 27 27 (1492992)
I0703 18:07:15.214763 35396 net.cpp:165] Memory required for data: 1535152192
I0703 18:07:15.214772 35396 layer_factory.hpp:76] Creating layer conv3_2_2
I0703 18:07:15.214788 35396 net.cpp:106] Creating Layer conv3_2_2
I0703 18:07:15.214797 35396 net.cpp:454] conv3_2_2 <- conv3_2_1_bn
I0703 18:07:15.214810 35396 net.cpp:411] conv3_2_2 -> conv3_2_2
I0703 18:07:15.221573 35396 cudnn_conv_layer.cpp:194] Reallocating workspace storage: 13824
I0703 18:07:15.221608 35396 net.cpp:150] Setting up conv3_2_2
I0703 18:07:15.221621 35396 net.cpp:157] Top shape: 16 128 27 27 (1492992)
I0703 18:07:15.221628 35396 net.cpp:165] Memory required for data: 1541124160
I0703 18:07:15.221640 35396 layer_factory.hpp:76] Creating layer conv3_2_2_bn
I0703 18:07:15.221655 35396 net.cpp:106] Creating Layer conv3_2_2_bn
I0703 18:07:15.221665 35396 net.cpp:454] conv3_2_2_bn <- conv3_2_2
I0703 18:07:15.221675 35396 net.cpp:411] conv3_2_2_bn -> conv3_2_2_bn
I0703 18:07:15.221932 35396 net.cpp:150] Setting up conv3_2_2_bn
I0703 18:07:15.221959 35396 net.cpp:157] Top shape: 16 128 27 27 (1492992)
I0703 18:07:15.221968 35396 net.cpp:165] Memory required for data: 1547096128
I0703 18:07:15.221981 35396 layer_factory.hpp:76] Creating layer conv3_2_2_relu
I0703 18:07:15.221990 35396 net.cpp:106] Creating Layer conv3_2_2_relu
I0703 18:07:15.221999 35396 net.cpp:454] conv3_2_2_relu <- conv3_2_2_bn
I0703 18:07:15.222010 35396 net.cpp:397] conv3_2_2_relu -> conv3_2_2_bn (in-place)
I0703 18:07:15.222232 35396 net.cpp:150] Setting up conv3_2_2_relu
I0703 18:07:15.222249 35396 net.cpp:157] Top shape: 16 128 27 27 (1492992)
I0703 18:07:15.222257 35396 net.cpp:165] Memory required for data: 1553068096
I0703 18:07:15.222278 35396 layer_factory.hpp:76] Creating layer conv3_2_3
I0703 18:07:15.222292 35396 net.cpp:106] Creating Layer conv3_2_3
I0703 18:07:15.222301 35396 net.cpp:454] conv3_2_3 <- conv3_2_2_bn
I0703 18:07:15.222313 35396 net.cpp:411] conv3_2_3 -> conv3_2_3
I0703 18:07:15.225612 35396 cudnn_conv_layer.cpp:194] Reallocating workspace storage: 1536
I0703 18:07:15.225652 35396 net.cpp:150] Setting up conv3_2_3
I0703 18:07:15.225678 35396 net.cpp:157] Top shape: 16 512 27 27 (5971968)
I0703 18:07:15.225688 35396 net.cpp:165] Memory required for data: 1576955968
I0703 18:07:15.225700 35396 layer_factory.hpp:76] Creating layer conv3_2_sum
I0703 18:07:15.225713 35396 net.cpp:106] Creating Layer conv3_2_sum
I0703 18:07:15.225723 35396 net.cpp:454] conv3_2_sum <- conv3_1_sum_bn_conv3_1_sum_relu_0_split_1
I0703 18:07:15.225733 35396 net.cpp:454] conv3_2_sum <- conv3_2_3
I0703 18:07:15.225744 35396 net.cpp:411] conv3_2_sum -> conv3_2_sum
I0703 18:07:15.225802 35396 net.cpp:150] Setting up conv3_2_sum
I0703 18:07:15.225814 35396 net.cpp:157] Top shape: 16 512 27 27 (5971968)
I0703 18:07:15.225822 35396 net.cpp:165] Memory required for data: 1600843840
I0703 18:07:15.225831 35396 layer_factory.hpp:76] Creating layer conv3_2_sum_bn
I0703 18:07:15.225842 35396 net.cpp:106] Creating Layer conv3_2_sum_bn
I0703 18:07:15.225862 35396 net.cpp:454] conv3_2_sum_bn <- conv3_2_sum
I0703 18:07:15.225874 35396 net.cpp:411] conv3_2_sum_bn -> conv3_2_sum_bn
I0703 18:07:15.226121 35396 net.cpp:150] Setting up conv3_2_sum_bn
I0703 18:07:15.226136 35396 net.cpp:157] Top shape: 16 512 27 27 (5971968)
I0703 18:07:15.226145 35396 net.cpp:165] Memory required for data: 1624731712
I0703 18:07:15.226156 35396 layer_factory.hpp:76] Creating layer conv3_2_sum_relu
I0703 18:07:15.226181 35396 net.cpp:106] Creating Layer conv3_2_sum_relu
I0703 18:07:15.226189 35396 net.cpp:454] conv3_2_sum_relu <- conv3_2_sum_bn
I0703 18:07:15.226198 35396 net.cpp:397] conv3_2_sum_relu -> conv3_2_sum_bn (in-place)
I0703 18:07:15.226583 35396 net.cpp:150] Setting up conv3_2_sum_relu
I0703 18:07:15.226603 35396 net.cpp:157] Top shape: 16 512 27 27 (5971968)
I0703 18:07:15.226611 35396 net.cpp:165] Memory required for data: 1648619584
I0703 18:07:15.226620 35396 layer_factory.hpp:76] Creating layer conv3_2_sum_bn_conv3_2_sum_relu_0_split
I0703 18:07:15.226634 35396 net.cpp:106] Creating Layer conv3_2_sum_bn_conv3_2_sum_relu_0_split
I0703 18:07:15.226642 35396 net.cpp:454] conv3_2_sum_bn_conv3_2_sum_relu_0_split <- conv3_2_sum_bn
I0703 18:07:15.226652 35396 net.cpp:411] conv3_2_sum_bn_conv3_2_sum_relu_0_split -> conv3_2_sum_bn_conv3_2_sum_relu_0_split_0
I0703 18:07:15.226663 35396 net.cpp:411] conv3_2_sum_bn_conv3_2_sum_relu_0_split -> conv3_2_sum_bn_conv3_2_sum_relu_0_split_1
I0703 18:07:15.226716 35396 net.cpp:150] Setting up conv3_2_sum_bn_conv3_2_sum_relu_0_split
I0703 18:07:15.226727 35396 net.cpp:157] Top shape: 16 512 27 27 (5971968)
I0703 18:07:15.226735 35396 net.cpp:157] Top shape: 16 512 27 27 (5971968)
I0703 18:07:15.226743 35396 net.cpp:165] Memory required for data: 1696395328
I0703 18:07:15.226750 35396 layer_factory.hpp:76] Creating layer conv3_3_1
I0703 18:07:15.226764 35396 net.cpp:106] Creating Layer conv3_3_1
I0703 18:07:15.226773 35396 net.cpp:454] conv3_3_1 <- conv3_2_sum_bn_conv3_2_sum_relu_0_split_0
I0703 18:07:15.226784 35396 net.cpp:411] conv3_3_1 -> conv3_3_1
I0703 18:07:15.230015 35396 cudnn_conv_layer.cpp:194] Reallocating workspace storage: 6144
I0703 18:07:15.230048 35396 net.cpp:150] Setting up conv3_3_1
I0703 18:07:15.230060 35396 net.cpp:157] Top shape: 16 128 27 27 (1492992)
I0703 18:07:15.230069 35396 net.cpp:165] Memory required for data: 1702367296
I0703 18:07:15.230082 35396 layer_factory.hpp:76] Creating layer conv3_3_1_bn
I0703 18:07:15.230106 35396 net.cpp:106] Creating Layer conv3_3_1_bn
I0703 18:07:15.230115 35396 net.cpp:454] conv3_3_1_bn <- conv3_3_1
I0703 18:07:15.230126 35396 net.cpp:411] conv3_3_1_bn -> conv3_3_1_bn
I0703 18:07:15.230373 35396 net.cpp:150] Setting up conv3_3_1_bn
I0703 18:07:15.230399 35396 net.cpp:157] Top shape: 16 128 27 27 (1492992)
I0703 18:07:15.230407 35396 net.cpp:165] Memory required for data: 1708339264
I0703 18:07:15.230420 35396 layer_factory.hpp:76] Creating layer conv3_3_1_relu
I0703 18:07:15.230432 35396 net.cpp:106] Creating Layer conv3_3_1_relu
I0703 18:07:15.230442 35396 net.cpp:454] conv3_3_1_relu <- conv3_3_1_bn
I0703 18:07:15.230450 35396 net.cpp:397] conv3_3_1_relu -> conv3_3_1_bn (in-place)
I0703 18:07:15.230814 35396 net.cpp:150] Setting up conv3_3_1_relu
I0703 18:07:15.230834 35396 net.cpp:157] Top shape: 16 128 27 27 (1492992)
I0703 18:07:15.230842 35396 net.cpp:165] Memory required for data: 1714311232
I0703 18:07:15.230851 35396 layer_factory.hpp:76] Creating layer conv3_3_2
I0703 18:07:15.230866 35396 net.cpp:106] Creating Layer conv3_3_2
I0703 18:07:15.230875 35396 net.cpp:454] conv3_3_2 <- conv3_3_1_bn
I0703 18:07:15.230886 35396 net.cpp:411] conv3_3_2 -> conv3_3_2
I0703 18:07:15.237607 35396 cudnn_conv_layer.cpp:194] Reallocating workspace storage: 13824
I0703 18:07:15.237643 35396 net.cpp:150] Setting up conv3_3_2
I0703 18:07:15.237655 35396 net.cpp:157] Top shape: 16 128 27 27 (1492992)
I0703 18:07:15.237664 35396 net.cpp:165] Memory required for data: 1720283200
I0703 18:07:15.237676 35396 layer_factory.hpp:76] Creating layer conv3_3_2_bn
I0703 18:07:15.237689 35396 net.cpp:106] Creating Layer conv3_3_2_bn
I0703 18:07:15.237697 35396 net.cpp:454] conv3_3_2_bn <- conv3_3_2
I0703 18:07:15.237710 35396 net.cpp:411] conv3_3_2_bn -> conv3_3_2_bn
I0703 18:07:15.237931 35396 net.cpp:150] Setting up conv3_3_2_bn
I0703 18:07:15.237946 35396 net.cpp:157] Top shape: 16 128 27 27 (1492992)
I0703 18:07:15.237953 35396 net.cpp:165] Memory required for data: 1726255168
I0703 18:07:15.237967 35396 layer_factory.hpp:76] Creating layer conv3_3_2_relu
I0703 18:07:15.237978 35396 net.cpp:106] Creating Layer conv3_3_2_relu
I0703 18:07:15.237987 35396 net.cpp:454] conv3_3_2_relu <- conv3_3_2_bn
I0703 18:07:15.237996 35396 net.cpp:397] conv3_3_2_relu -> conv3_3_2_bn (in-place)
I0703 18:07:15.238200 35396 net.cpp:150] Setting up conv3_3_2_relu
I0703 18:07:15.238219 35396 net.cpp:157] Top shape: 16 128 27 27 (1492992)
I0703 18:07:15.238226 35396 net.cpp:165] Memory required for data: 1732227136
I0703 18:07:15.238235 35396 layer_factory.hpp:76] Creating layer conv3_3_3
I0703 18:07:15.238250 35396 net.cpp:106] Creating Layer conv3_3_3
I0703 18:07:15.238258 35396 net.cpp:454] conv3_3_3 <- conv3_3_2_bn
I0703 18:07:15.238270 35396 net.cpp:411] conv3_3_3 -> conv3_3_3
I0703 18:07:15.241636 35396 cudnn_conv_layer.cpp:194] Reallocating workspace storage: 1536
I0703 18:07:15.241670 35396 net.cpp:150] Setting up conv3_3_3
I0703 18:07:15.241683 35396 net.cpp:157] Top shape: 16 512 27 27 (5971968)
I0703 18:07:15.241691 35396 net.cpp:165] Memory required for data: 1756115008
I0703 18:07:15.241703 35396 layer_factory.hpp:76] Creating layer conv3_3_sum
I0703 18:07:15.241716 35396 net.cpp:106] Creating Layer conv3_3_sum
I0703 18:07:15.241725 35396 net.cpp:454] conv3_3_sum <- conv3_2_sum_bn_conv3_2_sum_relu_0_split_1
I0703 18:07:15.241737 35396 net.cpp:454] conv3_3_sum <- conv3_3_3
I0703 18:07:15.241749 35396 net.cpp:411] conv3_3_sum -> conv3_3_sum
I0703 18:07:15.241782 35396 net.cpp:150] Setting up conv3_3_sum
I0703 18:07:15.241794 35396 net.cpp:157] Top shape: 16 512 27 27 (5971968)
I0703 18:07:15.241802 35396 net.cpp:165] Memory required for data: 1780002880
I0703 18:07:15.241811 35396 layer_factory.hpp:76] Creating layer conv3_3_sum_bn
I0703 18:07:15.241822 35396 net.cpp:106] Creating Layer conv3_3_sum_bn
I0703 18:07:15.241829 35396 net.cpp:454] conv3_3_sum_bn <- conv3_3_sum
I0703 18:07:15.241842 35396 net.cpp:411] conv3_3_sum_bn -> conv3_3_sum_bn
I0703 18:07:15.242054 35396 net.cpp:150] Setting up conv3_3_sum_bn
I0703 18:07:15.242069 35396 net.cpp:157] Top shape: 16 512 27 27 (5971968)
I0703 18:07:15.242077 35396 net.cpp:165] Memory required for data: 1803890752
I0703 18:07:15.242089 35396 layer_factory.hpp:76] Creating layer conv3_3_sum_relu
I0703 18:07:15.242102 35396 net.cpp:106] Creating Layer conv3_3_sum_relu
I0703 18:07:15.242110 35396 net.cpp:454] conv3_3_sum_relu <- conv3_3_sum_bn
I0703 18:07:15.242120 35396 net.cpp:397] conv3_3_sum_relu -> conv3_3_sum_bn (in-place)
I0703 18:07:15.242446 35396 net.cpp:150] Setting up conv3_3_sum_relu
I0703 18:07:15.242467 35396 net.cpp:157] Top shape: 16 512 27 27 (5971968)
I0703 18:07:15.242476 35396 net.cpp:165] Memory required for data: 1827778624
I0703 18:07:15.242485 35396 layer_factory.hpp:76] Creating layer conv3_3_sum_bn_conv3_3_sum_relu_0_split
I0703 18:07:15.242499 35396 net.cpp:106] Creating Layer conv3_3_sum_bn_conv3_3_sum_relu_0_split
I0703 18:07:15.242508 35396 net.cpp:454] conv3_3_sum_bn_conv3_3_sum_relu_0_split <- conv3_3_sum_bn
I0703 18:07:15.242519 35396 net.cpp:411] conv3_3_sum_bn_conv3_3_sum_relu_0_split -> conv3_3_sum_bn_conv3_3_sum_relu_0_split_0
I0703 18:07:15.242530 35396 net.cpp:411] conv3_3_sum_bn_conv3_3_sum_relu_0_split -> conv3_3_sum_bn_conv3_3_sum_relu_0_split_1
I0703 18:07:15.242583 35396 net.cpp:150] Setting up conv3_3_sum_bn_conv3_3_sum_relu_0_split
I0703 18:07:15.242595 35396 net.cpp:157] Top shape: 16 512 27 27 (5971968)
I0703 18:07:15.242604 35396 net.cpp:157] Top shape: 16 512 27 27 (5971968)
I0703 18:07:15.242612 35396 net.cpp:165] Memory required for data: 1875554368
I0703 18:07:15.242621 35396 layer_factory.hpp:76] Creating layer conv3_4_1
I0703 18:07:15.242635 35396 net.cpp:106] Creating Layer conv3_4_1
I0703 18:07:15.242643 35396 net.cpp:454] conv3_4_1 <- conv3_3_sum_bn_conv3_3_sum_relu_0_split_0
I0703 18:07:15.242655 35396 net.cpp:411] conv3_4_1 -> conv3_4_1
I0703 18:07:15.246398 35396 cudnn_conv_layer.cpp:194] Reallocating workspace storage: 6144
I0703 18:07:15.246433 35396 net.cpp:150] Setting up conv3_4_1
I0703 18:07:15.246446 35396 net.cpp:157] Top shape: 16 128 27 27 (1492992)
I0703 18:07:15.246456 35396 net.cpp:165] Memory required for data: 1881526336
I0703 18:07:15.246469 35396 layer_factory.hpp:76] Creating layer conv3_4_1_bn
I0703 18:07:15.246480 35396 net.cpp:106] Creating Layer conv3_4_1_bn
I0703 18:07:15.246490 35396 net.cpp:454] conv3_4_1_bn <- conv3_4_1
I0703 18:07:15.246518 35396 net.cpp:411] conv3_4_1_bn -> conv3_4_1_bn
I0703 18:07:15.246748 35396 net.cpp:150] Setting up conv3_4_1_bn
I0703 18:07:15.246764 35396 net.cpp:157] Top shape: 16 128 27 27 (1492992)
I0703 18:07:15.246773 35396 net.cpp:165] Memory required for data: 1887498304
I0703 18:07:15.246785 35396 layer_factory.hpp:76] Creating layer conv3_4_1_relu
I0703 18:07:15.246796 35396 net.cpp:106] Creating Layer conv3_4_1_relu
I0703 18:07:15.246805 35396 net.cpp:454] conv3_4_1_relu <- conv3_4_1_bn
I0703 18:07:15.246814 35396 net.cpp:397] conv3_4_1_relu -> conv3_4_1_bn (in-place)
I0703 18:07:15.247149 35396 net.cpp:150] Setting up conv3_4_1_relu
I0703 18:07:15.247169 35396 net.cpp:157] Top shape: 16 128 27 27 (1492992)
I0703 18:07:15.247179 35396 net.cpp:165] Memory required for data: 1893470272
I0703 18:07:15.247187 35396 layer_factory.hpp:76] Creating layer conv3_4_2
I0703 18:07:15.247202 35396 net.cpp:106] Creating Layer conv3_4_2
I0703 18:07:15.247211 35396 net.cpp:454] conv3_4_2 <- conv3_4_1_bn
I0703 18:07:15.247223 35396 net.cpp:411] conv3_4_2 -> conv3_4_2
I0703 18:07:15.253974 35396 cudnn_conv_layer.cpp:194] Reallocating workspace storage: 13824
I0703 18:07:15.254010 35396 net.cpp:150] Setting up conv3_4_2
I0703 18:07:15.254024 35396 net.cpp:157] Top shape: 16 128 27 27 (1492992)
I0703 18:07:15.254032 35396 net.cpp:165] Memory required for data: 1899442240
I0703 18:07:15.254045 35396 layer_factory.hpp:76] Creating layer conv3_4_2_bn
I0703 18:07:15.254060 35396 net.cpp:106] Creating Layer conv3_4_2_bn
I0703 18:07:15.254068 35396 net.cpp:454] conv3_4_2_bn <- conv3_4_2
I0703 18:07:15.254079 35396 net.cpp:411] conv3_4_2_bn -> conv3_4_2_bn
I0703 18:07:15.254303 35396 net.cpp:150] Setting up conv3_4_2_bn
I0703 18:07:15.254319 35396 net.cpp:157] Top shape: 16 128 27 27 (1492992)
I0703 18:07:15.254328 35396 net.cpp:165] Memory required for data: 1905414208
I0703 18:07:15.254340 35396 layer_factory.hpp:76] Creating layer conv3_4_2_relu
I0703 18:07:15.254351 35396 net.cpp:106] Creating Layer conv3_4_2_relu
I0703 18:07:15.254359 35396 net.cpp:454] conv3_4_2_relu <- conv3_4_2_bn
I0703 18:07:15.254369 35396 net.cpp:397] conv3_4_2_relu -> conv3_4_2_bn (in-place)
I0703 18:07:15.254559 35396 net.cpp:150] Setting up conv3_4_2_relu
I0703 18:07:15.254575 35396 net.cpp:157] Top shape: 16 128 27 27 (1492992)
I0703 18:07:15.254585 35396 net.cpp:165] Memory required for data: 1911386176
I0703 18:07:15.254592 35396 layer_factory.hpp:76] Creating layer conv3_4_3
I0703 18:07:15.254607 35396 net.cpp:106] Creating Layer conv3_4_3
I0703 18:07:15.254616 35396 net.cpp:454] conv3_4_3 <- conv3_4_2_bn
I0703 18:07:15.254631 35396 net.cpp:411] conv3_4_3 -> conv3_4_3
I0703 18:07:15.257972 35396 cudnn_conv_layer.cpp:194] Reallocating workspace storage: 1536
I0703 18:07:15.258008 35396 net.cpp:150] Setting up conv3_4_3
I0703 18:07:15.258021 35396 net.cpp:157] Top shape: 16 512 27 27 (5971968)
I0703 18:07:15.258030 35396 net.cpp:165] Memory required for data: 1935274048
I0703 18:07:15.258043 35396 layer_factory.hpp:76] Creating layer conv3_4_sum
I0703 18:07:15.258055 35396 net.cpp:106] Creating Layer conv3_4_sum
I0703 18:07:15.258064 35396 net.cpp:454] conv3_4_sum <- conv3_3_sum_bn_conv3_3_sum_relu_0_split_1
I0703 18:07:15.258074 35396 net.cpp:454] conv3_4_sum <- conv3_4_3
I0703 18:07:15.258085 35396 net.cpp:411] conv3_4_sum -> conv3_4_sum
I0703 18:07:15.258119 35396 net.cpp:150] Setting up conv3_4_sum
I0703 18:07:15.258131 35396 net.cpp:157] Top shape: 16 512 27 27 (5971968)
I0703 18:07:15.258139 35396 net.cpp:165] Memory required for data: 1959161920
I0703 18:07:15.258147 35396 layer_factory.hpp:76] Creating layer conv3_4_sum_bn
I0703 18:07:15.258162 35396 net.cpp:106] Creating Layer conv3_4_sum_bn
I0703 18:07:15.258170 35396 net.cpp:454] conv3_4_sum_bn <- conv3_4_sum
I0703 18:07:15.258180 35396 net.cpp:411] conv3_4_sum_bn -> conv3_4_sum_bn
I0703 18:07:15.258395 35396 net.cpp:150] Setting up conv3_4_sum_bn
I0703 18:07:15.258409 35396 net.cpp:157] Top shape: 16 512 27 27 (5971968)
I0703 18:07:15.258433 35396 net.cpp:165] Memory required for data: 1983049792
I0703 18:07:15.258446 35396 layer_factory.hpp:76] Creating layer conv3_4_sum_relu
I0703 18:07:15.258457 35396 net.cpp:106] Creating Layer conv3_4_sum_relu
I0703 18:07:15.258466 35396 net.cpp:454] conv3_4_sum_relu <- conv3_4_sum_bn
I0703 18:07:15.258476 35396 net.cpp:397] conv3_4_sum_relu -> conv3_4_sum_bn (in-place)
I0703 18:07:15.258976 35396 net.cpp:150] Setting up conv3_4_sum_relu
I0703 18:07:15.258996 35396 net.cpp:157] Top shape: 16 512 27 27 (5971968)
I0703 18:07:15.259006 35396 net.cpp:165] Memory required for data: 2006937664
I0703 18:07:15.259014 35396 layer_factory.hpp:76] Creating layer conv3_4_sum_bn_conv3_4_sum_relu_0_split
I0703 18:07:15.259028 35396 net.cpp:106] Creating Layer conv3_4_sum_bn_conv3_4_sum_relu_0_split
I0703 18:07:15.259037 35396 net.cpp:454] conv3_4_sum_bn_conv3_4_sum_relu_0_split <- conv3_4_sum_bn
I0703 18:07:15.259047 35396 net.cpp:411] conv3_4_sum_bn_conv3_4_sum_relu_0_split -> conv3_4_sum_bn_conv3_4_sum_relu_0_split_0
I0703 18:07:15.259062 35396 net.cpp:411] conv3_4_sum_bn_conv3_4_sum_relu_0_split -> conv3_4_sum_bn_conv3_4_sum_relu_0_split_1
I0703 18:07:15.259114 35396 net.cpp:150] Setting up conv3_4_sum_bn_conv3_4_sum_relu_0_split
I0703 18:07:15.259125 35396 net.cpp:157] Top shape: 16 512 27 27 (5971968)
I0703 18:07:15.259135 35396 net.cpp:157] Top shape: 16 512 27 27 (5971968)
I0703 18:07:15.259142 35396 net.cpp:165] Memory required for data: 2054713408
I0703 18:07:15.259152 35396 layer_factory.hpp:76] Creating layer conv3_5_1
I0703 18:07:15.259166 35396 net.cpp:106] Creating Layer conv3_5_1
I0703 18:07:15.259174 35396 net.cpp:454] conv3_5_1 <- conv3_4_sum_bn_conv3_4_sum_relu_0_split_0
I0703 18:07:15.259186 35396 net.cpp:411] conv3_5_1 -> conv3_5_1
I0703 18:07:15.262424 35396 cudnn_conv_layer.cpp:194] Reallocating workspace storage: 6144
I0703 18:07:15.262465 35396 net.cpp:150] Setting up conv3_5_1
I0703 18:07:15.262477 35396 net.cpp:157] Top shape: 16 128 27 27 (1492992)
I0703 18:07:15.262486 35396 net.cpp:165] Memory required for data: 2060685376
I0703 18:07:15.262498 35396 layer_factory.hpp:76] Creating layer conv3_5_1_bn
I0703 18:07:15.262513 35396 net.cpp:106] Creating Layer conv3_5_1_bn
I0703 18:07:15.262523 35396 net.cpp:454] conv3_5_1_bn <- conv3_5_1
I0703 18:07:15.262533 35396 net.cpp:411] conv3_5_1_bn -> conv3_5_1_bn
I0703 18:07:15.262759 35396 net.cpp:150] Setting up conv3_5_1_bn
I0703 18:07:15.262775 35396 net.cpp:157] Top shape: 16 128 27 27 (1492992)
I0703 18:07:15.262784 35396 net.cpp:165] Memory required for data: 2066657344
I0703 18:07:15.262796 35396 layer_factory.hpp:76] Creating layer conv3_5_1_relu
I0703 18:07:15.262807 35396 net.cpp:106] Creating Layer conv3_5_1_relu
I0703 18:07:15.262816 35396 net.cpp:454] conv3_5_1_relu <- conv3_5_1_bn
I0703 18:07:15.262825 35396 net.cpp:397] conv3_5_1_relu -> conv3_5_1_bn (in-place)
I0703 18:07:15.263162 35396 net.cpp:150] Setting up conv3_5_1_relu
I0703 18:07:15.263181 35396 net.cpp:157] Top shape: 16 128 27 27 (1492992)
I0703 18:07:15.263190 35396 net.cpp:165] Memory required for data: 2072629312
I0703 18:07:15.263200 35396 layer_factory.hpp:76] Creating layer conv3_5_2
I0703 18:07:15.263214 35396 net.cpp:106] Creating Layer conv3_5_2
I0703 18:07:15.263223 35396 net.cpp:454] conv3_5_2 <- conv3_5_1_bn
I0703 18:07:15.263234 35396 net.cpp:411] conv3_5_2 -> conv3_5_2
I0703 18:07:15.270059 35396 cudnn_conv_layer.cpp:194] Reallocating workspace storage: 13824
I0703 18:07:15.270093 35396 net.cpp:150] Setting up conv3_5_2
I0703 18:07:15.270107 35396 net.cpp:157] Top shape: 16 128 27 27 (1492992)
I0703 18:07:15.270115 35396 net.cpp:165] Memory required for data: 2078601280
I0703 18:07:15.270128 35396 layer_factory.hpp:76] Creating layer conv3_5_2_bn
I0703 18:07:15.270143 35396 net.cpp:106] Creating Layer conv3_5_2_bn
I0703 18:07:15.270153 35396 net.cpp:454] conv3_5_2_bn <- conv3_5_2
I0703 18:07:15.270162 35396 net.cpp:411] conv3_5_2_bn -> conv3_5_2_bn
I0703 18:07:15.270391 35396 net.cpp:150] Setting up conv3_5_2_bn
I0703 18:07:15.270406 35396 net.cpp:157] Top shape: 16 128 27 27 (1492992)
I0703 18:07:15.270432 35396 net.cpp:165] Memory required for data: 2084573248
I0703 18:07:15.270447 35396 layer_factory.hpp:76] Creating layer conv3_5_2_relu
I0703 18:07:15.270457 35396 net.cpp:106] Creating Layer conv3_5_2_relu
I0703 18:07:15.270467 35396 net.cpp:454] conv3_5_2_relu <- conv3_5_2_bn
I0703 18:07:15.270478 35396 net.cpp:397] conv3_5_2_relu -> conv3_5_2_bn (in-place)
I0703 18:07:15.270671 35396 net.cpp:150] Setting up conv3_5_2_relu
I0703 18:07:15.270689 35396 net.cpp:157] Top shape: 16 128 27 27 (1492992)
I0703 18:07:15.270699 35396 net.cpp:165] Memory required for data: 2090545216
I0703 18:07:15.270707 35396 layer_factory.hpp:76] Creating layer conv3_5_3
I0703 18:07:15.270721 35396 net.cpp:106] Creating Layer conv3_5_3
I0703 18:07:15.270730 35396 net.cpp:454] conv3_5_3 <- conv3_5_2_bn
I0703 18:07:15.270741 35396 net.cpp:411] conv3_5_3 -> conv3_5_3
I0703 18:07:15.274101 35396 cudnn_conv_layer.cpp:194] Reallocating workspace storage: 1536
I0703 18:07:15.274139 35396 net.cpp:150] Setting up conv3_5_3
I0703 18:07:15.274152 35396 net.cpp:157] Top shape: 16 512 27 27 (5971968)
I0703 18:07:15.274160 35396 net.cpp:165] Memory required for data: 2114433088
I0703 18:07:15.274173 35396 layer_factory.hpp:76] Creating layer conv3_5_sum
I0703 18:07:15.274184 35396 net.cpp:106] Creating Layer conv3_5_sum
I0703 18:07:15.274194 35396 net.cpp:454] conv3_5_sum <- conv3_4_sum_bn_conv3_4_sum_relu_0_split_1
I0703 18:07:15.274204 35396 net.cpp:454] conv3_5_sum <- conv3_5_3
I0703 18:07:15.274214 35396 net.cpp:411] conv3_5_sum -> conv3_5_sum
I0703 18:07:15.274250 35396 net.cpp:150] Setting up conv3_5_sum
I0703 18:07:15.274262 35396 net.cpp:157] Top shape: 16 512 27 27 (5971968)
I0703 18:07:15.274271 35396 net.cpp:165] Memory required for data: 2138320960
I0703 18:07:15.274278 35396 layer_factory.hpp:76] Creating layer conv3_5_sum_bn
I0703 18:07:15.274291 35396 net.cpp:106] Creating Layer conv3_5_sum_bn
I0703 18:07:15.274299 35396 net.cpp:454] conv3_5_sum_bn <- conv3_5_sum
I0703 18:07:15.274309 35396 net.cpp:411] conv3_5_sum_bn -> conv3_5_sum_bn
I0703 18:07:15.274533 35396 net.cpp:150] Setting up conv3_5_sum_bn
I0703 18:07:15.274546 35396 net.cpp:157] Top shape: 16 512 27 27 (5971968)
I0703 18:07:15.274554 35396 net.cpp:165] Memory required for data: 2162208832
I0703 18:07:15.274593 35396 layer_factory.hpp:76] Creating layer conv3_5_sum_relu
I0703 18:07:15.274607 35396 net.cpp:106] Creating Layer conv3_5_sum_relu
I0703 18:07:15.274617 35396 net.cpp:454] conv3_5_sum_relu <- conv3_5_sum_bn
I0703 18:07:15.274626 35396 net.cpp:397] conv3_5_sum_relu -> conv3_5_sum_bn (in-place)
I0703 18:07:15.274960 35396 net.cpp:150] Setting up conv3_5_sum_relu
I0703 18:07:15.274981 35396 net.cpp:157] Top shape: 16 512 27 27 (5971968)
I0703 18:07:15.274989 35396 net.cpp:165] Memory required for data: 2186096704
I0703 18:07:15.274998 35396 layer_factory.hpp:76] Creating layer conv3_5_sum_bn_conv3_5_sum_relu_0_split
I0703 18:07:15.275009 35396 net.cpp:106] Creating Layer conv3_5_sum_bn_conv3_5_sum_relu_0_split
I0703 18:07:15.275018 35396 net.cpp:454] conv3_5_sum_bn_conv3_5_sum_relu_0_split <- conv3_5_sum_bn
I0703 18:07:15.275028 35396 net.cpp:411] conv3_5_sum_bn_conv3_5_sum_relu_0_split -> conv3_5_sum_bn_conv3_5_sum_relu_0_split_0
I0703 18:07:15.275040 35396 net.cpp:411] conv3_5_sum_bn_conv3_5_sum_relu_0_split -> conv3_5_sum_bn_conv3_5_sum_relu_0_split_1
I0703 18:07:15.275096 35396 net.cpp:150] Setting up conv3_5_sum_bn_conv3_5_sum_relu_0_split
I0703 18:07:15.275109 35396 net.cpp:157] Top shape: 16 512 27 27 (5971968)
I0703 18:07:15.275117 35396 net.cpp:157] Top shape: 16 512 27 27 (5971968)
I0703 18:07:15.275125 35396 net.cpp:165] Memory required for data: 2233872448
I0703 18:07:15.275135 35396 layer_factory.hpp:76] Creating layer conv3_6_1
I0703 18:07:15.275148 35396 net.cpp:106] Creating Layer conv3_6_1
I0703 18:07:15.275156 35396 net.cpp:454] conv3_6_1 <- conv3_5_sum_bn_conv3_5_sum_relu_0_split_0
I0703 18:07:15.275168 35396 net.cpp:411] conv3_6_1 -> conv3_6_1
I0703 18:07:15.278982 35396 cudnn_conv_layer.cpp:194] Reallocating workspace storage: 6144
I0703 18:07:15.279036 35396 net.cpp:150] Setting up conv3_6_1
I0703 18:07:15.279052 35396 net.cpp:157] Top shape: 16 128 27 27 (1492992)
I0703 18:07:15.279060 35396 net.cpp:165] Memory required for data: 2239844416
I0703 18:07:15.279073 35396 layer_factory.hpp:76] Creating layer conv3_6_1_bn
I0703 18:07:15.279088 35396 net.cpp:106] Creating Layer conv3_6_1_bn
I0703 18:07:15.279098 35396 net.cpp:454] conv3_6_1_bn <- conv3_6_1
I0703 18:07:15.279109 35396 net.cpp:411] conv3_6_1_bn -> conv3_6_1_bn
I0703 18:07:15.279341 35396 net.cpp:150] Setting up conv3_6_1_bn
I0703 18:07:15.279356 35396 net.cpp:157] Top shape: 16 128 27 27 (1492992)
I0703 18:07:15.279364 35396 net.cpp:165] Memory required for data: 2245816384
I0703 18:07:15.279377 35396 layer_factory.hpp:76] Creating layer conv3_6_1_relu
I0703 18:07:15.279388 35396 net.cpp:106] Creating Layer conv3_6_1_relu
I0703 18:07:15.279397 35396 net.cpp:454] conv3_6_1_relu <- conv3_6_1_bn
I0703 18:07:15.279407 35396 net.cpp:397] conv3_6_1_relu -> conv3_6_1_bn (in-place)
I0703 18:07:15.279757 35396 net.cpp:150] Setting up conv3_6_1_relu
I0703 18:07:15.279783 35396 net.cpp:157] Top shape: 16 128 27 27 (1492992)
I0703 18:07:15.279793 35396 net.cpp:165] Memory required for data: 2251788352
I0703 18:07:15.279800 35396 layer_factory.hpp:76] Creating layer conv3_6_2
I0703 18:07:15.279815 35396 net.cpp:106] Creating Layer conv3_6_2
I0703 18:07:15.279824 35396 net.cpp:454] conv3_6_2 <- conv3_6_1_bn
I0703 18:07:15.279837 35396 net.cpp:411] conv3_6_2 -> conv3_6_2
I0703 18:07:15.286610 35396 cudnn_conv_layer.cpp:194] Reallocating workspace storage: 13824
I0703 18:07:15.286648 35396 net.cpp:150] Setting up conv3_6_2
I0703 18:07:15.286660 35396 net.cpp:157] Top shape: 16 128 27 27 (1492992)
I0703 18:07:15.286669 35396 net.cpp:165] Memory required for data: 2257760320
I0703 18:07:15.286681 35396 layer_factory.hpp:76] Creating layer conv3_6_2_bn
I0703 18:07:15.286695 35396 net.cpp:106] Creating Layer conv3_6_2_bn
I0703 18:07:15.286705 35396 net.cpp:454] conv3_6_2_bn <- conv3_6_2
I0703 18:07:15.286715 35396 net.cpp:411] conv3_6_2_bn -> conv3_6_2_bn
I0703 18:07:15.286948 35396 net.cpp:150] Setting up conv3_6_2_bn
I0703 18:07:15.286964 35396 net.cpp:157] Top shape: 16 128 27 27 (1492992)
I0703 18:07:15.286972 35396 net.cpp:165] Memory required for data: 2263732288
I0703 18:07:15.286985 35396 layer_factory.hpp:76] Creating layer conv3_6_2_relu
I0703 18:07:15.286996 35396 net.cpp:106] Creating Layer conv3_6_2_relu
I0703 18:07:15.287005 35396 net.cpp:454] conv3_6_2_relu <- conv3_6_2_bn
I0703 18:07:15.287014 35396 net.cpp:397] conv3_6_2_relu -> conv3_6_2_bn (in-place)
I0703 18:07:15.287209 35396 net.cpp:150] Setting up conv3_6_2_relu
I0703 18:07:15.287227 35396 net.cpp:157] Top shape: 16 128 27 27 (1492992)
I0703 18:07:15.287235 35396 net.cpp:165] Memory required for data: 2269704256
I0703 18:07:15.287245 35396 layer_factory.hpp:76] Creating layer conv3_6_3
I0703 18:07:15.287259 35396 net.cpp:106] Creating Layer conv3_6_3
I0703 18:07:15.287268 35396 net.cpp:454] conv3_6_3 <- conv3_6_2_bn
I0703 18:07:15.287281 35396 net.cpp:411] conv3_6_3 -> conv3_6_3
I0703 18:07:15.290680 35396 cudnn_conv_layer.cpp:194] Reallocating workspace storage: 1536
I0703 18:07:15.290717 35396 net.cpp:150] Setting up conv3_6_3
I0703 18:07:15.290732 35396 net.cpp:157] Top shape: 16 512 27 27 (5971968)
I0703 18:07:15.290742 35396 net.cpp:165] Memory required for data: 2293592128
I0703 18:07:15.290755 35396 layer_factory.hpp:76] Creating layer conv3_6_sum
I0703 18:07:15.290767 35396 net.cpp:106] Creating Layer conv3_6_sum
I0703 18:07:15.290776 35396 net.cpp:454] conv3_6_sum <- conv3_5_sum_bn_conv3_5_sum_relu_0_split_1
I0703 18:07:15.290786 35396 net.cpp:454] conv3_6_sum <- conv3_6_3
I0703 18:07:15.290796 35396 net.cpp:411] conv3_6_sum -> conv3_6_sum
I0703 18:07:15.290833 35396 net.cpp:150] Setting up conv3_6_sum
I0703 18:07:15.290846 35396 net.cpp:157] Top shape: 16 512 27 27 (5971968)
I0703 18:07:15.290854 35396 net.cpp:165] Memory required for data: 2317480000
I0703 18:07:15.290863 35396 layer_factory.hpp:76] Creating layer conv3_6_sum_bn
I0703 18:07:15.290891 35396 net.cpp:106] Creating Layer conv3_6_sum_bn
I0703 18:07:15.290901 35396 net.cpp:454] conv3_6_sum_bn <- conv3_6_sum
I0703 18:07:15.290911 35396 net.cpp:411] conv3_6_sum_bn -> conv3_6_sum_bn
I0703 18:07:15.291144 35396 net.cpp:150] Setting up conv3_6_sum_bn
I0703 18:07:15.291159 35396 net.cpp:157] Top shape: 16 512 27 27 (5971968)
I0703 18:07:15.291167 35396 net.cpp:165] Memory required for data: 2341367872
I0703 18:07:15.291180 35396 layer_factory.hpp:76] Creating layer conv3_6_sum_relu
I0703 18:07:15.291193 35396 net.cpp:106] Creating Layer conv3_6_sum_relu
I0703 18:07:15.291200 35396 net.cpp:454] conv3_6_sum_relu <- conv3_6_sum_bn
I0703 18:07:15.291209 35396 net.cpp:397] conv3_6_sum_relu -> conv3_6_sum_bn (in-place)
I0703 18:07:15.291551 35396 net.cpp:150] Setting up conv3_6_sum_relu
I0703 18:07:15.291571 35396 net.cpp:157] Top shape: 16 512 27 27 (5971968)
I0703 18:07:15.291580 35396 net.cpp:165] Memory required for data: 2365255744
I0703 18:07:15.291589 35396 layer_factory.hpp:76] Creating layer conv3_6_sum_bn_conv3_6_sum_relu_0_split
I0703 18:07:15.291600 35396 net.cpp:106] Creating Layer conv3_6_sum_bn_conv3_6_sum_relu_0_split
I0703 18:07:15.291610 35396 net.cpp:454] conv3_6_sum_bn_conv3_6_sum_relu_0_split <- conv3_6_sum_bn
I0703 18:07:15.291621 35396 net.cpp:411] conv3_6_sum_bn_conv3_6_sum_relu_0_split -> conv3_6_sum_bn_conv3_6_sum_relu_0_split_0
I0703 18:07:15.291635 35396 net.cpp:411] conv3_6_sum_bn_conv3_6_sum_relu_0_split -> conv3_6_sum_bn_conv3_6_sum_relu_0_split_1
I0703 18:07:15.291688 35396 net.cpp:150] Setting up conv3_6_sum_bn_conv3_6_sum_relu_0_split
I0703 18:07:15.291700 35396 net.cpp:157] Top shape: 16 512 27 27 (5971968)
I0703 18:07:15.291709 35396 net.cpp:157] Top shape: 16 512 27 27 (5971968)
I0703 18:07:15.291718 35396 net.cpp:165] Memory required for data: 2413031488
I0703 18:07:15.291725 35396 layer_factory.hpp:76] Creating layer conv3_7_1
I0703 18:07:15.291741 35396 net.cpp:106] Creating Layer conv3_7_1
I0703 18:07:15.291750 35396 net.cpp:454] conv3_7_1 <- conv3_6_sum_bn_conv3_6_sum_relu_0_split_0
I0703 18:07:15.291760 35396 net.cpp:411] conv3_7_1 -> conv3_7_1
I0703 18:07:15.294989 35396 cudnn_conv_layer.cpp:194] Reallocating workspace storage: 6144
I0703 18:07:15.295023 35396 net.cpp:150] Setting up conv3_7_1
I0703 18:07:15.295037 35396 net.cpp:157] Top shape: 16 128 27 27 (1492992)
I0703 18:07:15.295044 35396 net.cpp:165] Memory required for data: 2419003456
I0703 18:07:15.295056 35396 layer_factory.hpp:76] Creating layer conv3_7_1_bn
I0703 18:07:15.295070 35396 net.cpp:106] Creating Layer conv3_7_1_bn
I0703 18:07:15.295079 35396 net.cpp:454] conv3_7_1_bn <- conv3_7_1
I0703 18:07:15.295091 35396 net.cpp:411] conv3_7_1_bn -> conv3_7_1_bn
I0703 18:07:15.295322 35396 net.cpp:150] Setting up conv3_7_1_bn
I0703 18:07:15.295337 35396 net.cpp:157] Top shape: 16 128 27 27 (1492992)
I0703 18:07:15.295346 35396 net.cpp:165] Memory required for data: 2424975424
I0703 18:07:15.295358 35396 layer_factory.hpp:76] Creating layer conv3_7_1_relu
I0703 18:07:15.295369 35396 net.cpp:106] Creating Layer conv3_7_1_relu
I0703 18:07:15.295377 35396 net.cpp:454] conv3_7_1_relu <- conv3_7_1_bn
I0703 18:07:15.295387 35396 net.cpp:397] conv3_7_1_relu -> conv3_7_1_bn (in-place)
I0703 18:07:15.295722 35396 net.cpp:150] Setting up conv3_7_1_relu
I0703 18:07:15.295742 35396 net.cpp:157] Top shape: 16 128 27 27 (1492992)
I0703 18:07:15.295750 35396 net.cpp:165] Memory required for data: 2430947392
I0703 18:07:15.295759 35396 layer_factory.hpp:76] Creating layer conv3_7_2
I0703 18:07:15.295773 35396 net.cpp:106] Creating Layer conv3_7_2
I0703 18:07:15.295783 35396 net.cpp:454] conv3_7_2 <- conv3_7_1_bn
I0703 18:07:15.295795 35396 net.cpp:411] conv3_7_2 -> conv3_7_2
I0703 18:07:15.302613 35396 cudnn_conv_layer.cpp:194] Reallocating workspace storage: 13824
I0703 18:07:15.302650 35396 net.cpp:150] Setting up conv3_7_2
I0703 18:07:15.302664 35396 net.cpp:157] Top shape: 16 128 27 27 (1492992)
I0703 18:07:15.302672 35396 net.cpp:165] Memory required for data: 2436919360
I0703 18:07:15.302701 35396 layer_factory.hpp:76] Creating layer conv3_7_2_bn
I0703 18:07:15.302716 35396 net.cpp:106] Creating Layer conv3_7_2_bn
I0703 18:07:15.302726 35396 net.cpp:454] conv3_7_2_bn <- conv3_7_2
I0703 18:07:15.302738 35396 net.cpp:411] conv3_7_2_bn -> conv3_7_2_bn
I0703 18:07:15.302976 35396 net.cpp:150] Setting up conv3_7_2_bn
I0703 18:07:15.302991 35396 net.cpp:157] Top shape: 16 128 27 27 (1492992)
I0703 18:07:15.303000 35396 net.cpp:165] Memory required for data: 2442891328
I0703 18:07:15.303012 35396 layer_factory.hpp:76] Creating layer conv3_7_2_relu
I0703 18:07:15.303025 35396 net.cpp:106] Creating Layer conv3_7_2_relu
I0703 18:07:15.303033 35396 net.cpp:454] conv3_7_2_relu <- conv3_7_2_bn
I0703 18:07:15.303042 35396 net.cpp:397] conv3_7_2_relu -> conv3_7_2_bn (in-place)
I0703 18:07:15.303416 35396 net.cpp:150] Setting up conv3_7_2_relu
I0703 18:07:15.303437 35396 net.cpp:157] Top shape: 16 128 27 27 (1492992)
I0703 18:07:15.303447 35396 net.cpp:165] Memory required for data: 2448863296
I0703 18:07:15.303455 35396 layer_factory.hpp:76] Creating layer conv3_7_3
I0703 18:07:15.303468 35396 net.cpp:106] Creating Layer conv3_7_3
I0703 18:07:15.303478 35396 net.cpp:454] conv3_7_3 <- conv3_7_2_bn
I0703 18:07:15.303490 35396 net.cpp:411] conv3_7_3 -> conv3_7_3
I0703 18:07:15.306879 35396 cudnn_conv_layer.cpp:194] Reallocating workspace storage: 1536
I0703 18:07:15.306915 35396 net.cpp:150] Setting up conv3_7_3
I0703 18:07:15.306932 35396 net.cpp:157] Top shape: 16 512 27 27 (5971968)
I0703 18:07:15.306941 35396 net.cpp:165] Memory required for data: 2472751168
I0703 18:07:15.306952 35396 layer_factory.hpp:76] Creating layer conv3_7_sum
I0703 18:07:15.306964 35396 net.cpp:106] Creating Layer conv3_7_sum
I0703 18:07:15.306973 35396 net.cpp:454] conv3_7_sum <- conv3_6_sum_bn_conv3_6_sum_relu_0_split_1
I0703 18:07:15.306983 35396 net.cpp:454] conv3_7_sum <- conv3_7_3
I0703 18:07:15.306993 35396 net.cpp:411] conv3_7_sum -> conv3_7_sum
I0703 18:07:15.307030 35396 net.cpp:150] Setting up conv3_7_sum
I0703 18:07:15.307044 35396 net.cpp:157] Top shape: 16 512 27 27 (5971968)
I0703 18:07:15.307051 35396 net.cpp:165] Memory required for data: 2496639040
I0703 18:07:15.307060 35396 layer_factory.hpp:76] Creating layer conv3_7_sum_bn
I0703 18:07:15.307071 35396 net.cpp:106] Creating Layer conv3_7_sum_bn
I0703 18:07:15.307080 35396 net.cpp:454] conv3_7_sum_bn <- conv3_7_sum
I0703 18:07:15.307090 35396 net.cpp:411] conv3_7_sum_bn -> conv3_7_sum_bn
I0703 18:07:15.307320 35396 net.cpp:150] Setting up conv3_7_sum_bn
I0703 18:07:15.307334 35396 net.cpp:157] Top shape: 16 512 27 27 (5971968)
I0703 18:07:15.307343 35396 net.cpp:165] Memory required for data: 2520526912
I0703 18:07:15.307355 35396 layer_factory.hpp:76] Creating layer conv3_7_sum_relu
I0703 18:07:15.307366 35396 net.cpp:106] Creating Layer conv3_7_sum_relu
I0703 18:07:15.307374 35396 net.cpp:454] conv3_7_sum_relu <- conv3_7_sum_bn
I0703 18:07:15.307384 35396 net.cpp:397] conv3_7_sum_relu -> conv3_7_sum_bn (in-place)
I0703 18:07:15.307720 35396 net.cpp:150] Setting up conv3_7_sum_relu
I0703 18:07:15.307741 35396 net.cpp:157] Top shape: 16 512 27 27 (5971968)
I0703 18:07:15.307750 35396 net.cpp:165] Memory required for data: 2544414784
I0703 18:07:15.307759 35396 layer_factory.hpp:76] Creating layer conv3_7_sum_bn_conv3_7_sum_relu_0_split
I0703 18:07:15.307770 35396 net.cpp:106] Creating Layer conv3_7_sum_bn_conv3_7_sum_relu_0_split
I0703 18:07:15.307780 35396 net.cpp:454] conv3_7_sum_bn_conv3_7_sum_relu_0_split <- conv3_7_sum_bn
I0703 18:07:15.307791 35396 net.cpp:411] conv3_7_sum_bn_conv3_7_sum_relu_0_split -> conv3_7_sum_bn_conv3_7_sum_relu_0_split_0
I0703 18:07:15.307803 35396 net.cpp:411] conv3_7_sum_bn_conv3_7_sum_relu_0_split -> conv3_7_sum_bn_conv3_7_sum_relu_0_split_1
I0703 18:07:15.307857 35396 net.cpp:150] Setting up conv3_7_sum_bn_conv3_7_sum_relu_0_split
I0703 18:07:15.307869 35396 net.cpp:157] Top shape: 16 512 27 27 (5971968)
I0703 18:07:15.307878 35396 net.cpp:157] Top shape: 16 512 27 27 (5971968)
I0703 18:07:15.307886 35396 net.cpp:165] Memory required for data: 2592190528
I0703 18:07:15.307907 35396 layer_factory.hpp:76] Creating layer conv3_8_1
I0703 18:07:15.307924 35396 net.cpp:106] Creating Layer conv3_8_1
I0703 18:07:15.307932 35396 net.cpp:454] conv3_8_1 <- conv3_7_sum_bn_conv3_7_sum_relu_0_split_0
I0703 18:07:15.307942 35396 net.cpp:411] conv3_8_1 -> conv3_8_1
I0703 18:07:15.311734 35396 cudnn_conv_layer.cpp:194] Reallocating workspace storage: 6144
I0703 18:07:15.311769 35396 net.cpp:150] Setting up conv3_8_1
I0703 18:07:15.311784 35396 net.cpp:157] Top shape: 16 128 27 27 (1492992)
I0703 18:07:15.311792 35396 net.cpp:165] Memory required for data: 2598162496
I0703 18:07:15.311805 35396 layer_factory.hpp:76] Creating layer conv3_8_1_bn
I0703 18:07:15.311816 35396 net.cpp:106] Creating Layer conv3_8_1_bn
I0703 18:07:15.311825 35396 net.cpp:454] conv3_8_1_bn <- conv3_8_1
I0703 18:07:15.311838 35396 net.cpp:411] conv3_8_1_bn -> conv3_8_1_bn
I0703 18:07:15.312080 35396 net.cpp:150] Setting up conv3_8_1_bn
I0703 18:07:15.312095 35396 net.cpp:157] Top shape: 16 128 27 27 (1492992)
I0703 18:07:15.312103 35396 net.cpp:165] Memory required for data: 2604134464
I0703 18:07:15.312116 35396 layer_factory.hpp:76] Creating layer conv3_8_1_relu
I0703 18:07:15.312127 35396 net.cpp:106] Creating Layer conv3_8_1_relu
I0703 18:07:15.312135 35396 net.cpp:454] conv3_8_1_relu <- conv3_8_1_bn
I0703 18:07:15.312149 35396 net.cpp:397] conv3_8_1_relu -> conv3_8_1_bn (in-place)
I0703 18:07:15.312490 35396 net.cpp:150] Setting up conv3_8_1_relu
I0703 18:07:15.312511 35396 net.cpp:157] Top shape: 16 128 27 27 (1492992)
I0703 18:07:15.312520 35396 net.cpp:165] Memory required for data: 2610106432
I0703 18:07:15.312528 35396 layer_factory.hpp:76] Creating layer conv3_8_2
I0703 18:07:15.312544 35396 net.cpp:106] Creating Layer conv3_8_2
I0703 18:07:15.312553 35396 net.cpp:454] conv3_8_2 <- conv3_8_1_bn
I0703 18:07:15.312566 35396 net.cpp:411] conv3_8_2 -> conv3_8_2
I0703 18:07:15.319344 35396 cudnn_conv_layer.cpp:194] Reallocating workspace storage: 13824
I0703 18:07:15.319381 35396 net.cpp:150] Setting up conv3_8_2
I0703 18:07:15.319394 35396 net.cpp:157] Top shape: 16 128 27 27 (1492992)
I0703 18:07:15.319403 35396 net.cpp:165] Memory required for data: 2616078400
I0703 18:07:15.319416 35396 layer_factory.hpp:76] Creating layer conv3_8_2_bn
I0703 18:07:15.319428 35396 net.cpp:106] Creating Layer conv3_8_2_bn
I0703 18:07:15.319442 35396 net.cpp:454] conv3_8_2_bn <- conv3_8_2
I0703 18:07:15.319456 35396 net.cpp:411] conv3_8_2_bn -> conv3_8_2_bn
I0703 18:07:15.319701 35396 net.cpp:150] Setting up conv3_8_2_bn
I0703 18:07:15.319720 35396 net.cpp:157] Top shape: 16 128 27 27 (1492992)
I0703 18:07:15.319730 35396 net.cpp:165] Memory required for data: 2622050368
I0703 18:07:15.319741 35396 layer_factory.hpp:76] Creating layer conv3_8_2_relu
I0703 18:07:15.319754 35396 net.cpp:106] Creating Layer conv3_8_2_relu
I0703 18:07:15.319763 35396 net.cpp:454] conv3_8_2_relu <- conv3_8_2_bn
I0703 18:07:15.319773 35396 net.cpp:397] conv3_8_2_relu -> conv3_8_2_bn (in-place)
I0703 18:07:15.319964 35396 net.cpp:150] Setting up conv3_8_2_relu
I0703 18:07:15.319982 35396 net.cpp:157] Top shape: 16 128 27 27 (1492992)
I0703 18:07:15.319989 35396 net.cpp:165] Memory required for data: 2628022336
I0703 18:07:15.319998 35396 layer_factory.hpp:76] Creating layer conv3_8_3
I0703 18:07:15.320013 35396 net.cpp:106] Creating Layer conv3_8_3
I0703 18:07:15.320021 35396 net.cpp:454] conv3_8_3 <- conv3_8_2_bn
I0703 18:07:15.320034 35396 net.cpp:411] conv3_8_3 -> conv3_8_3
I0703 18:07:15.323418 35396 cudnn_conv_layer.cpp:194] Reallocating workspace storage: 1536
I0703 18:07:15.323457 35396 net.cpp:150] Setting up conv3_8_3
I0703 18:07:15.323468 35396 net.cpp:157] Top shape: 16 512 27 27 (5971968)
I0703 18:07:15.323477 35396 net.cpp:165] Memory required for data: 2651910208
I0703 18:07:15.323489 35396 layer_factory.hpp:76] Creating layer conv3_8_sum
I0703 18:07:15.323503 35396 net.cpp:106] Creating Layer conv3_8_sum
I0703 18:07:15.323513 35396 net.cpp:454] conv3_8_sum <- conv3_7_sum_bn_conv3_7_sum_relu_0_split_1
I0703 18:07:15.323539 35396 net.cpp:454] conv3_8_sum <- conv3_8_3
I0703 18:07:15.323551 35396 net.cpp:411] conv3_8_sum -> conv3_8_sum
I0703 18:07:15.323591 35396 net.cpp:150] Setting up conv3_8_sum
I0703 18:07:15.323604 35396 net.cpp:157] Top shape: 16 512 27 27 (5971968)
I0703 18:07:15.323612 35396 net.cpp:165] Memory required for data: 2675798080
I0703 18:07:15.323621 35396 layer_factory.hpp:76] Creating layer conv3_8_sum_bn
I0703 18:07:15.323632 35396 net.cpp:106] Creating Layer conv3_8_sum_bn
I0703 18:07:15.323640 35396 net.cpp:454] conv3_8_sum_bn <- conv3_8_sum
I0703 18:07:15.323652 35396 net.cpp:411] conv3_8_sum_bn -> conv3_8_sum_bn
I0703 18:07:15.323889 35396 net.cpp:150] Setting up conv3_8_sum_bn
I0703 18:07:15.323902 35396 net.cpp:157] Top shape: 16 512 27 27 (5971968)
I0703 18:07:15.323910 35396 net.cpp:165] Memory required for data: 2699685952
I0703 18:07:15.323923 35396 layer_factory.hpp:76] Creating layer conv3_8_sum_relu
I0703 18:07:15.323940 35396 net.cpp:106] Creating Layer conv3_8_sum_relu
I0703 18:07:15.323947 35396 net.cpp:454] conv3_8_sum_relu <- conv3_8_sum_bn
I0703 18:07:15.323957 35396 net.cpp:397] conv3_8_sum_relu -> conv3_8_sum_bn (in-place)
I0703 18:07:15.324293 35396 net.cpp:150] Setting up conv3_8_sum_relu
I0703 18:07:15.324313 35396 net.cpp:157] Top shape: 16 512 27 27 (5971968)
I0703 18:07:15.324322 35396 net.cpp:165] Memory required for data: 2723573824
I0703 18:07:15.324331 35396 layer_factory.hpp:76] Creating layer conv3_8_sum_bn_conv3_8_sum_relu_0_split
I0703 18:07:15.324362 35396 net.cpp:106] Creating Layer conv3_8_sum_bn_conv3_8_sum_relu_0_split
I0703 18:07:15.324373 35396 net.cpp:454] conv3_8_sum_bn_conv3_8_sum_relu_0_split <- conv3_8_sum_bn
I0703 18:07:15.324383 35396 net.cpp:411] conv3_8_sum_bn_conv3_8_sum_relu_0_split -> conv3_8_sum_bn_conv3_8_sum_relu_0_split_0
I0703 18:07:15.324396 35396 net.cpp:411] conv3_8_sum_bn_conv3_8_sum_relu_0_split -> conv3_8_sum_bn_conv3_8_sum_relu_0_split_1
I0703 18:07:15.324462 35396 net.cpp:150] Setting up conv3_8_sum_bn_conv3_8_sum_relu_0_split
I0703 18:07:15.324476 35396 net.cpp:157] Top shape: 16 512 27 27 (5971968)
I0703 18:07:15.324484 35396 net.cpp:157] Top shape: 16 512 27 27 (5971968)
I0703 18:07:15.324493 35396 net.cpp:165] Memory required for data: 2771349568
I0703 18:07:15.324504 35396 layer_factory.hpp:76] Creating layer conv3_output
I0703 18:07:15.324524 35396 net.cpp:106] Creating Layer conv3_output
I0703 18:07:15.324533 35396 net.cpp:454] conv3_output <- conv3_8_sum_bn_conv3_8_sum_relu_0_split_0
I0703 18:07:15.324544 35396 net.cpp:411] conv3_output -> conv3_output
I0703 18:07:15.344888 35396 cudnn_conv_layer.cpp:194] Reallocating workspace storage: 6144
I0703 18:07:15.344944 35396 net.cpp:150] Setting up conv3_output
I0703 18:07:15.344959 35396 net.cpp:157] Top shape: 16 1024 14 14 (3211264)
I0703 18:07:15.344967 35396 net.cpp:165] Memory required for data: 2784194624
I0703 18:07:15.344981 35396 layer_factory.hpp:76] Creating layer conv4_1_1
I0703 18:07:15.345005 35396 net.cpp:106] Creating Layer conv4_1_1
I0703 18:07:15.345016 35396 net.cpp:454] conv4_1_1 <- conv3_8_sum_bn_conv3_8_sum_relu_0_split_1
I0703 18:07:15.345031 35396 net.cpp:411] conv4_1_1 -> conv4_1_1
I0703 18:07:15.350929 35396 cudnn_conv_layer.cpp:194] Reallocating workspace storage: 6144
I0703 18:07:15.350980 35396 net.cpp:150] Setting up conv4_1_1
I0703 18:07:15.350993 35396 net.cpp:157] Top shape: 16 256 14 14 (802816)
I0703 18:07:15.351002 35396 net.cpp:165] Memory required for data: 2787405888
I0703 18:07:15.351016 35396 layer_factory.hpp:76] Creating layer conv4_1_1_bn
I0703 18:07:15.351030 35396 net.cpp:106] Creating Layer conv4_1_1_bn
I0703 18:07:15.351042 35396 net.cpp:454] conv4_1_1_bn <- conv4_1_1
I0703 18:07:15.351054 35396 net.cpp:411] conv4_1_1_bn -> conv4_1_1_bn
I0703 18:07:15.351306 35396 net.cpp:150] Setting up conv4_1_1_bn
I0703 18:07:15.351321 35396 net.cpp:157] Top shape: 16 256 14 14 (802816)
I0703 18:07:15.351330 35396 net.cpp:165] Memory required for data: 2790617152
I0703 18:07:15.351342 35396 layer_factory.hpp:76] Creating layer conv4_1_1_relu
I0703 18:07:15.351356 35396 net.cpp:106] Creating Layer conv4_1_1_relu
I0703 18:07:15.351388 35396 net.cpp:454] conv4_1_1_relu <- conv4_1_1_bn
I0703 18:07:15.351399 35396 net.cpp:397] conv4_1_1_relu -> conv4_1_1_bn (in-place)
I0703 18:07:15.351742 35396 net.cpp:150] Setting up conv4_1_1_relu
I0703 18:07:15.351764 35396 net.cpp:157] Top shape: 16 256 14 14 (802816)
I0703 18:07:15.351773 35396 net.cpp:165] Memory required for data: 2793828416
I0703 18:07:15.351781 35396 layer_factory.hpp:76] Creating layer conv4_1_2
I0703 18:07:15.351799 35396 net.cpp:106] Creating Layer conv4_1_2
I0703 18:07:15.351809 35396 net.cpp:454] conv4_1_2 <- conv4_1_1_bn
I0703 18:07:15.351819 35396 net.cpp:411] conv4_1_2 -> conv4_1_2
I0703 18:07:15.374550 35396 cudnn_conv_layer.cpp:194] Reallocating workspace storage: 27648
I0703 18:07:15.374608 35396 net.cpp:150] Setting up conv4_1_2
I0703 18:07:15.374624 35396 net.cpp:157] Top shape: 16 256 14 14 (802816)
I0703 18:07:15.374632 35396 net.cpp:165] Memory required for data: 2797039680
I0703 18:07:15.374646 35396 layer_factory.hpp:76] Creating layer conv4_1_2_bn
I0703 18:07:15.374665 35396 net.cpp:106] Creating Layer conv4_1_2_bn
I0703 18:07:15.374675 35396 net.cpp:454] conv4_1_2_bn <- conv4_1_2
I0703 18:07:15.374687 35396 net.cpp:411] conv4_1_2_bn -> conv4_1_2_bn
I0703 18:07:15.374943 35396 net.cpp:150] Setting up conv4_1_2_bn
I0703 18:07:15.374958 35396 net.cpp:157] Top shape: 16 256 14 14 (802816)
I0703 18:07:15.374966 35396 net.cpp:165] Memory required for data: 2800250944
I0703 18:07:15.374979 35396 layer_factory.hpp:76] Creating layer conv4_1_2_relu
I0703 18:07:15.374990 35396 net.cpp:106] Creating Layer conv4_1_2_relu
I0703 18:07:15.375000 35396 net.cpp:454] conv4_1_2_relu <- conv4_1_2_bn
I0703 18:07:15.375010 35396 net.cpp:397] conv4_1_2_relu -> conv4_1_2_bn (in-place)
I0703 18:07:15.375360 35396 net.cpp:150] Setting up conv4_1_2_relu
I0703 18:07:15.375380 35396 net.cpp:157] Top shape: 16 256 14 14 (802816)
I0703 18:07:15.375388 35396 net.cpp:165] Memory required for data: 2803462208
I0703 18:07:15.375397 35396 layer_factory.hpp:76] Creating layer conv4_1_3
I0703 18:07:15.375414 35396 net.cpp:106] Creating Layer conv4_1_3
I0703 18:07:15.375424 35396 net.cpp:454] conv4_1_3 <- conv4_1_2_bn
I0703 18:07:15.375440 35396 net.cpp:411] conv4_1_3 -> conv4_1_3
I0703 18:07:15.386149 35396 cudnn_conv_layer.cpp:194] Reallocating workspace storage: 3072
I0703 18:07:15.386211 35396 net.cpp:150] Setting up conv4_1_3
I0703 18:07:15.386227 35396 net.cpp:157] Top shape: 16 1024 14 14 (3211264)
I0703 18:07:15.386235 35396 net.cpp:165] Memory required for data: 2816307264
I0703 18:07:15.386250 35396 layer_factory.hpp:76] Creating layer conv4_1_sum
I0703 18:07:15.386274 35396 net.cpp:106] Creating Layer conv4_1_sum
I0703 18:07:15.386284 35396 net.cpp:454] conv4_1_sum <- conv3_output
I0703 18:07:15.386296 35396 net.cpp:454] conv4_1_sum <- conv4_1_3
I0703 18:07:15.386307 35396 net.cpp:411] conv4_1_sum -> conv4_1_sum
I0703 18:07:15.386354 35396 net.cpp:150] Setting up conv4_1_sum
I0703 18:07:15.386368 35396 net.cpp:157] Top shape: 16 1024 14 14 (3211264)
I0703 18:07:15.386375 35396 net.cpp:165] Memory required for data: 2829152320
I0703 18:07:15.386384 35396 layer_factory.hpp:76] Creating layer conv4_1_sum_bn
I0703 18:07:15.386399 35396 net.cpp:106] Creating Layer conv4_1_sum_bn
I0703 18:07:15.386407 35396 net.cpp:454] conv4_1_sum_bn <- conv4_1_sum
I0703 18:07:15.386418 35396 net.cpp:411] conv4_1_sum_bn -> conv4_1_sum_bn
I0703 18:07:15.386685 35396 net.cpp:150] Setting up conv4_1_sum_bn
I0703 18:07:15.386700 35396 net.cpp:157] Top shape: 16 1024 14 14 (3211264)
I0703 18:07:15.386719 35396 net.cpp:165] Memory required for data: 2841997376
I0703 18:07:15.386734 35396 layer_factory.hpp:76] Creating layer conv4_1_sum_relu
I0703 18:07:15.386744 35396 net.cpp:106] Creating Layer conv4_1_sum_relu
I0703 18:07:15.386754 35396 net.cpp:454] conv4_1_sum_relu <- conv4_1_sum_bn
I0703 18:07:15.386764 35396 net.cpp:397] conv4_1_sum_relu -> conv4_1_sum_bn (in-place)
I0703 18:07:15.387158 35396 net.cpp:150] Setting up conv4_1_sum_relu
I0703 18:07:15.387207 35396 net.cpp:157] Top shape: 16 1024 14 14 (3211264)
I0703 18:07:15.387217 35396 net.cpp:165] Memory required for data: 2854842432
I0703 18:07:15.387225 35396 layer_factory.hpp:76] Creating layer conv4_1_sum_bn_conv4_1_sum_relu_0_split
I0703 18:07:15.387238 35396 net.cpp:106] Creating Layer conv4_1_sum_bn_conv4_1_sum_relu_0_split
I0703 18:07:15.387245 35396 net.cpp:454] conv4_1_sum_bn_conv4_1_sum_relu_0_split <- conv4_1_sum_bn
I0703 18:07:15.387256 35396 net.cpp:411] conv4_1_sum_bn_conv4_1_sum_relu_0_split -> conv4_1_sum_bn_conv4_1_sum_relu_0_split_0
I0703 18:07:15.387270 35396 net.cpp:411] conv4_1_sum_bn_conv4_1_sum_relu_0_split -> conv4_1_sum_bn_conv4_1_sum_relu_0_split_1
I0703 18:07:15.387342 35396 net.cpp:150] Setting up conv4_1_sum_bn_conv4_1_sum_relu_0_split
I0703 18:07:15.387356 35396 net.cpp:157] Top shape: 16 1024 14 14 (3211264)
I0703 18:07:15.387365 35396 net.cpp:157] Top shape: 16 1024 14 14 (3211264)
I0703 18:07:15.387373 35396 net.cpp:165] Memory required for data: 2880532544
I0703 18:07:15.387387 35396 layer_factory.hpp:76] Creating layer conv4_2_1
I0703 18:07:15.387403 35396 net.cpp:106] Creating Layer conv4_2_1
I0703 18:07:15.387413 35396 net.cpp:454] conv4_2_1 <- conv4_1_sum_bn_conv4_1_sum_relu_0_split_0
I0703 18:07:15.387424 35396 net.cpp:411] conv4_2_1 -> conv4_2_1
I0703 18:07:15.398214 35396 cudnn_conv_layer.cpp:194] Reallocating workspace storage: 12288
I0703 18:07:15.398279 35396 net.cpp:150] Setting up conv4_2_1
I0703 18:07:15.398295 35396 net.cpp:157] Top shape: 16 256 14 14 (802816)
I0703 18:07:15.398304 35396 net.cpp:165] Memory required for data: 2883743808
I0703 18:07:15.398319 35396 layer_factory.hpp:76] Creating layer conv4_2_1_bn
I0703 18:07:15.398339 35396 net.cpp:106] Creating Layer conv4_2_1_bn
I0703 18:07:15.398350 35396 net.cpp:454] conv4_2_1_bn <- conv4_2_1
I0703 18:07:15.398362 35396 net.cpp:411] conv4_2_1_bn -> conv4_2_1_bn
I0703 18:07:15.398624 35396 net.cpp:150] Setting up conv4_2_1_bn
I0703 18:07:15.398639 35396 net.cpp:157] Top shape: 16 256 14 14 (802816)
I0703 18:07:15.398648 35396 net.cpp:165] Memory required for data: 2886955072
I0703 18:07:15.398660 35396 layer_factory.hpp:76] Creating layer conv4_2_1_relu
I0703 18:07:15.398674 35396 net.cpp:106] Creating Layer conv4_2_1_relu
I0703 18:07:15.398681 35396 net.cpp:454] conv4_2_1_relu <- conv4_2_1_bn
I0703 18:07:15.398694 35396 net.cpp:397] conv4_2_1_relu -> conv4_2_1_bn (in-place)
I0703 18:07:15.399046 35396 net.cpp:150] Setting up conv4_2_1_relu
I0703 18:07:15.399066 35396 net.cpp:157] Top shape: 16 256 14 14 (802816)
I0703 18:07:15.399076 35396 net.cpp:165] Memory required for data: 2890166336
I0703 18:07:15.399085 35396 layer_factory.hpp:76] Creating layer conv4_2_2
I0703 18:07:15.399102 35396 net.cpp:106] Creating Layer conv4_2_2
I0703 18:07:15.399111 35396 net.cpp:454] conv4_2_2 <- conv4_2_1_bn
I0703 18:07:15.399124 35396 net.cpp:411] conv4_2_2 -> conv4_2_2
I0703 18:07:15.421872 35396 cudnn_conv_layer.cpp:194] Reallocating workspace storage: 27648
I0703 18:07:15.421918 35396 net.cpp:150] Setting up conv4_2_2
I0703 18:07:15.421932 35396 net.cpp:157] Top shape: 16 256 14 14 (802816)
I0703 18:07:15.421942 35396 net.cpp:165] Memory required for data: 2893377600
I0703 18:07:15.421957 35396 layer_factory.hpp:76] Creating layer conv4_2_2_bn
I0703 18:07:15.421977 35396 net.cpp:106] Creating Layer conv4_2_2_bn
I0703 18:07:15.421988 35396 net.cpp:454] conv4_2_2_bn <- conv4_2_2
I0703 18:07:15.422001 35396 net.cpp:411] conv4_2_2_bn -> conv4_2_2_bn
I0703 18:07:15.422268 35396 net.cpp:150] Setting up conv4_2_2_bn
I0703 18:07:15.422283 35396 net.cpp:157] Top shape: 16 256 14 14 (802816)
I0703 18:07:15.422291 35396 net.cpp:165] Memory required for data: 2896588864
I0703 18:07:15.422304 35396 layer_factory.hpp:76] Creating layer conv4_2_2_relu
I0703 18:07:15.422317 35396 net.cpp:106] Creating Layer conv4_2_2_relu
I0703 18:07:15.422325 35396 net.cpp:454] conv4_2_2_relu <- conv4_2_2_bn
I0703 18:07:15.422334 35396 net.cpp:397] conv4_2_2_relu -> conv4_2_2_bn (in-place)
I0703 18:07:15.422683 35396 net.cpp:150] Setting up conv4_2_2_relu
I0703 18:07:15.422726 35396 net.cpp:157] Top shape: 16 256 14 14 (802816)
I0703 18:07:15.422737 35396 net.cpp:165] Memory required for data: 2899800128
I0703 18:07:15.422746 35396 layer_factory.hpp:76] Creating layer conv4_2_3
I0703 18:07:15.422761 35396 net.cpp:106] Creating Layer conv4_2_3
I0703 18:07:15.422770 35396 net.cpp:454] conv4_2_3 <- conv4_2_2_bn
I0703 18:07:15.422783 35396 net.cpp:411] conv4_2_3 -> conv4_2_3
I0703 18:07:15.433286 35396 cudnn_conv_layer.cpp:194] Reallocating workspace storage: 3072
I0703 18:07:15.433337 35396 net.cpp:150] Setting up conv4_2_3
I0703 18:07:15.433351 35396 net.cpp:157] Top shape: 16 1024 14 14 (3211264)
I0703 18:07:15.433359 35396 net.cpp:165] Memory required for data: 2912645184
I0703 18:07:15.433372 35396 layer_factory.hpp:76] Creating layer conv4_2_sum
I0703 18:07:15.433387 35396 net.cpp:106] Creating Layer conv4_2_sum
I0703 18:07:15.433396 35396 net.cpp:454] conv4_2_sum <- conv4_1_sum_bn_conv4_1_sum_relu_0_split_1
I0703 18:07:15.433406 35396 net.cpp:454] conv4_2_sum <- conv4_2_3
I0703 18:07:15.433418 35396 net.cpp:411] conv4_2_sum -> conv4_2_sum
I0703 18:07:15.433456 35396 net.cpp:150] Setting up conv4_2_sum
I0703 18:07:15.433470 35396 net.cpp:157] Top shape: 16 1024 14 14 (3211264)
I0703 18:07:15.433478 35396 net.cpp:165] Memory required for data: 2925490240
I0703 18:07:15.433486 35396 layer_factory.hpp:76] Creating layer conv4_2_sum_bn
I0703 18:07:15.433501 35396 net.cpp:106] Creating Layer conv4_2_sum_bn
I0703 18:07:15.433509 35396 net.cpp:454] conv4_2_sum_bn <- conv4_2_sum
I0703 18:07:15.433521 35396 net.cpp:411] conv4_2_sum_bn -> conv4_2_sum_bn
I0703 18:07:15.433779 35396 net.cpp:150] Setting up conv4_2_sum_bn
I0703 18:07:15.433794 35396 net.cpp:157] Top shape: 16 1024 14 14 (3211264)
I0703 18:07:15.433815 35396 net.cpp:165] Memory required for data: 2938335296
I0703 18:07:15.433827 35396 layer_factory.hpp:76] Creating layer conv4_2_sum_relu
I0703 18:07:15.433838 35396 net.cpp:106] Creating Layer conv4_2_sum_relu
I0703 18:07:15.433846 35396 net.cpp:454] conv4_2_sum_relu <- conv4_2_sum_bn
I0703 18:07:15.433856 35396 net.cpp:397] conv4_2_sum_relu -> conv4_2_sum_bn (in-place)
I0703 18:07:15.434067 35396 net.cpp:150] Setting up conv4_2_sum_relu
I0703 18:07:15.434082 35396 net.cpp:157] Top shape: 16 1024 14 14 (3211264)
I0703 18:07:15.434103 35396 net.cpp:165] Memory required for data: 2951180352
I0703 18:07:15.434113 35396 layer_factory.hpp:76] Creating layer conv4_2_sum_bn_conv4_2_sum_relu_0_split
I0703 18:07:15.434125 35396 net.cpp:106] Creating Layer conv4_2_sum_bn_conv4_2_sum_relu_0_split
I0703 18:07:15.434134 35396 net.cpp:454] conv4_2_sum_bn_conv4_2_sum_relu_0_split <- conv4_2_sum_bn
I0703 18:07:15.434144 35396 net.cpp:411] conv4_2_sum_bn_conv4_2_sum_relu_0_split -> conv4_2_sum_bn_conv4_2_sum_relu_0_split_0
I0703 18:07:15.434156 35396 net.cpp:411] conv4_2_sum_bn_conv4_2_sum_relu_0_split -> conv4_2_sum_bn_conv4_2_sum_relu_0_split_1
I0703 18:07:15.434216 35396 net.cpp:150] Setting up conv4_2_sum_bn_conv4_2_sum_relu_0_split
I0703 18:07:15.434229 35396 net.cpp:157] Top shape: 16 1024 14 14 (3211264)
I0703 18:07:15.434238 35396 net.cpp:157] Top shape: 16 1024 14 14 (3211264)
I0703 18:07:15.434247 35396 net.cpp:165] Memory required for data: 2976870464
I0703 18:07:15.434254 35396 layer_factory.hpp:76] Creating layer conv4_3_1
I0703 18:07:15.434268 35396 net.cpp:106] Creating Layer conv4_3_1
I0703 18:07:15.434278 35396 net.cpp:454] conv4_3_1 <- conv4_2_sum_bn_conv4_2_sum_relu_0_split_0
I0703 18:07:15.434291 35396 net.cpp:411] conv4_3_1 -> conv4_3_1
I0703 18:07:15.444458 35396 cudnn_conv_layer.cpp:194] Reallocating workspace storage: 12288
I0703 18:07:15.444509 35396 net.cpp:150] Setting up conv4_3_1
I0703 18:07:15.444533 35396 net.cpp:157] Top shape: 16 256 14 14 (802816)
I0703 18:07:15.444542 35396 net.cpp:165] Memory required for data: 2980081728
I0703 18:07:15.444553 35396 layer_factory.hpp:76] Creating layer conv4_3_1_bn
I0703 18:07:15.444564 35396 net.cpp:106] Creating Layer conv4_3_1_bn
I0703 18:07:15.444572 35396 net.cpp:454] conv4_3_1_bn <- conv4_3_1
I0703 18:07:15.444612 35396 net.cpp:411] conv4_3_1_bn -> conv4_3_1_bn
I0703 18:07:15.444919 35396 net.cpp:150] Setting up conv4_3_1_bn
I0703 18:07:15.444946 35396 net.cpp:157] Top shape: 16 256 14 14 (802816)
I0703 18:07:15.444953 35396 net.cpp:165] Memory required for data: 2983292992
I0703 18:07:15.444967 35396 layer_factory.hpp:76] Creating layer conv4_3_1_relu
I0703 18:07:15.444989 35396 net.cpp:106] Creating Layer conv4_3_1_relu
I0703 18:07:15.444998 35396 net.cpp:454] conv4_3_1_relu <- conv4_3_1_bn
I0703 18:07:15.445009 35396 net.cpp:397] conv4_3_1_relu -> conv4_3_1_bn (in-place)
I0703 18:07:15.445381 35396 net.cpp:150] Setting up conv4_3_1_relu
I0703 18:07:15.445411 35396 net.cpp:157] Top shape: 16 256 14 14 (802816)
I0703 18:07:15.445420 35396 net.cpp:165] Memory required for data: 2986504256
I0703 18:07:15.445427 35396 layer_factory.hpp:76] Creating layer conv4_3_2
I0703 18:07:15.445441 35396 net.cpp:106] Creating Layer conv4_3_2
I0703 18:07:15.445451 35396 net.cpp:454] conv4_3_2 <- conv4_3_1_bn
I0703 18:07:15.445462 35396 net.cpp:411] conv4_3_2 -> conv4_3_2
I0703 18:07:15.465739 35396 cudnn_conv_layer.cpp:194] Reallocating workspace storage: 27648
I0703 18:07:15.465780 35396 net.cpp:150] Setting up conv4_3_2
I0703 18:07:15.465792 35396 net.cpp:157] Top shape: 16 256 14 14 (802816)
I0703 18:07:15.465801 35396 net.cpp:165] Memory required for data: 2989715520
I0703 18:07:15.465811 35396 layer_factory.hpp:76] Creating layer conv4_3_2_bn
I0703 18:07:15.465824 35396 net.cpp:106] Creating Layer conv4_3_2_bn
I0703 18:07:15.465833 35396 net.cpp:454] conv4_3_2_bn <- conv4_3_2
I0703 18:07:15.465843 35396 net.cpp:411] conv4_3_2_bn -> conv4_3_2_bn
I0703 18:07:15.466115 35396 net.cpp:150] Setting up conv4_3_2_bn
I0703 18:07:15.466140 35396 net.cpp:157] Top shape: 16 256 14 14 (802816)
I0703 18:07:15.466148 35396 net.cpp:165] Memory required for data: 2992926784
I0703 18:07:15.466161 35396 layer_factory.hpp:76] Creating layer conv4_3_2_relu
I0703 18:07:15.466171 35396 net.cpp:106] Creating Layer conv4_3_2_relu
I0703 18:07:15.466179 35396 net.cpp:454] conv4_3_2_relu <- conv4_3_2_bn
I0703 18:07:15.466188 35396 net.cpp:397] conv4_3_2_relu -> conv4_3_2_bn (in-place)
I0703 18:07:15.466550 35396 net.cpp:150] Setting up conv4_3_2_relu
I0703 18:07:15.466580 35396 net.cpp:157] Top shape: 16 256 14 14 (802816)
I0703 18:07:15.466588 35396 net.cpp:165] Memory required for data: 2996138048
I0703 18:07:15.466609 35396 layer_factory.hpp:76] Creating layer conv4_3_3
I0703 18:07:15.466624 35396 net.cpp:106] Creating Layer conv4_3_3
I0703 18:07:15.466632 35396 net.cpp:454] conv4_3_3 <- conv4_3_2_bn
I0703 18:07:15.466644 35396 net.cpp:411] conv4_3_3 -> conv4_3_3
I0703 18:07:15.476490 35396 cudnn_conv_layer.cpp:194] Reallocating workspace storage: 3072
I0703 18:07:15.476537 35396 net.cpp:150] Setting up conv4_3_3
I0703 18:07:15.476548 35396 net.cpp:157] Top shape: 16 1024 14 14 (3211264)
I0703 18:07:15.476557 35396 net.cpp:165] Memory required for data: 3008983104
I0703 18:07:15.476568 35396 layer_factory.hpp:76] Creating layer conv4_3_sum
I0703 18:07:15.476582 35396 net.cpp:106] Creating Layer conv4_3_sum
I0703 18:07:15.476590 35396 net.cpp:454] conv4_3_sum <- conv4_2_sum_bn_conv4_2_sum_relu_0_split_1
I0703 18:07:15.476600 35396 net.cpp:454] conv4_3_sum <- conv4_3_3
I0703 18:07:15.476609 35396 net.cpp:411] conv4_3_sum -> conv4_3_sum
I0703 18:07:15.476660 35396 net.cpp:150] Setting up conv4_3_sum
I0703 18:07:15.476673 35396 net.cpp:157] Top shape: 16 1024 14 14 (3211264)
I0703 18:07:15.476681 35396 net.cpp:165] Memory required for data: 3021828160
I0703 18:07:15.476691 35396 layer_factory.hpp:76] Creating layer conv4_3_sum_bn
I0703 18:07:15.476702 35396 net.cpp:106] Creating Layer conv4_3_sum_bn
I0703 18:07:15.476711 35396 net.cpp:454] conv4_3_sum_bn <- conv4_3_sum
I0703 18:07:15.476722 35396 net.cpp:411] conv4_3_sum_bn -> conv4_3_sum_bn
I0703 18:07:15.477006 35396 net.cpp:150] Setting up conv4_3_sum_bn
I0703 18:07:15.477020 35396 net.cpp:157] Top shape: 16 1024 14 14 (3211264)
I0703 18:07:15.477038 35396 net.cpp:165] Memory required for data: 3034673216
I0703 18:07:15.477067 35396 layer_factory.hpp:76] Creating layer conv4_3_sum_relu
I0703 18:07:15.477078 35396 net.cpp:106] Creating Layer conv4_3_sum_relu
I0703 18:07:15.477087 35396 net.cpp:454] conv4_3_sum_relu <- conv4_3_sum_bn
I0703 18:07:15.477095 35396 net.cpp:397] conv4_3_sum_relu -> conv4_3_sum_bn (in-place)
I0703 18:07:15.477350 35396 net.cpp:150] Setting up conv4_3_sum_relu
I0703 18:07:15.477365 35396 net.cpp:157] Top shape: 16 1024 14 14 (3211264)
I0703 18:07:15.477385 35396 net.cpp:165] Memory required for data: 3047518272
I0703 18:07:15.477393 35396 layer_factory.hpp:76] Creating layer conv4_3_sum_bn_conv4_3_sum_relu_0_split
I0703 18:07:15.477406 35396 net.cpp:106] Creating Layer conv4_3_sum_bn_conv4_3_sum_relu_0_split
I0703 18:07:15.477413 35396 net.cpp:454] conv4_3_sum_bn_conv4_3_sum_relu_0_split <- conv4_3_sum_bn
I0703 18:07:15.477423 35396 net.cpp:411] conv4_3_sum_bn_conv4_3_sum_relu_0_split -> conv4_3_sum_bn_conv4_3_sum_relu_0_split_0
I0703 18:07:15.477433 35396 net.cpp:411] conv4_3_sum_bn_conv4_3_sum_relu_0_split -> conv4_3_sum_bn_conv4_3_sum_relu_0_split_1
I0703 18:07:15.477502 35396 net.cpp:150] Setting up conv4_3_sum_bn_conv4_3_sum_relu_0_split
I0703 18:07:15.477515 35396 net.cpp:157] Top shape: 16 1024 14 14 (3211264)
I0703 18:07:15.477524 35396 net.cpp:157] Top shape: 16 1024 14 14 (3211264)
I0703 18:07:15.477532 35396 net.cpp:165] Memory required for data: 3073208384
I0703 18:07:15.477541 35396 layer_factory.hpp:76] Creating layer conv4_4_1
I0703 18:07:15.477555 35396 net.cpp:106] Creating Layer conv4_4_1
I0703 18:07:15.477565 35396 net.cpp:454] conv4_4_1 <- conv4_3_sum_bn_conv4_3_sum_relu_0_split_0
I0703 18:07:15.477576 35396 net.cpp:411] conv4_4_1 -> conv4_4_1
I0703 18:07:15.487337 35396 cudnn_conv_layer.cpp:194] Reallocating workspace storage: 12288
I0703 18:07:15.487381 35396 net.cpp:150] Setting up conv4_4_1
I0703 18:07:15.487393 35396 net.cpp:157] Top shape: 16 256 14 14 (802816)
I0703 18:07:15.487402 35396 net.cpp:165] Memory required for data: 3076419648
I0703 18:07:15.487413 35396 layer_factory.hpp:76] Creating layer conv4_4_1_bn
I0703 18:07:15.487426 35396 net.cpp:106] Creating Layer conv4_4_1_bn
I0703 18:07:15.487435 35396 net.cpp:454] conv4_4_1_bn <- conv4_4_1
I0703 18:07:15.487445 35396 net.cpp:411] conv4_4_1_bn -> conv4_4_1_bn
I0703 18:07:15.487745 35396 net.cpp:150] Setting up conv4_4_1_bn
I0703 18:07:15.487769 35396 net.cpp:157] Top shape: 16 256 14 14 (802816)
I0703 18:07:15.487777 35396 net.cpp:165] Memory required for data: 3079630912
I0703 18:07:15.487790 35396 layer_factory.hpp:76] Creating layer conv4_4_1_relu
I0703 18:07:15.487800 35396 net.cpp:106] Creating Layer conv4_4_1_relu
I0703 18:07:15.487808 35396 net.cpp:454] conv4_4_1_relu <- conv4_4_1_bn
I0703 18:07:15.487818 35396 net.cpp:397] conv4_4_1_relu -> conv4_4_1_bn (in-place)
I0703 18:07:15.488205 35396 net.cpp:150] Setting up conv4_4_1_relu
I0703 18:07:15.488235 35396 net.cpp:157] Top shape: 16 256 14 14 (802816)
I0703 18:07:15.488245 35396 net.cpp:165] Memory required for data: 3082842176
I0703 18:07:15.488252 35396 layer_factory.hpp:76] Creating layer conv4_4_2
I0703 18:07:15.488266 35396 net.cpp:106] Creating Layer conv4_4_2
I0703 18:07:15.488276 35396 net.cpp:454] conv4_4_2 <- conv4_4_1_bn
I0703 18:07:15.488287 35396 net.cpp:411] conv4_4_2 -> conv4_4_2
I0703 18:07:15.509158 35396 cudnn_conv_layer.cpp:194] Reallocating workspace storage: 27648
I0703 18:07:15.509199 35396 net.cpp:150] Setting up conv4_4_2
I0703 18:07:15.509212 35396 net.cpp:157] Top shape: 16 256 14 14 (802816)
I0703 18:07:15.509220 35396 net.cpp:165] Memory required for data: 3086053440
I0703 18:07:15.509232 35396 layer_factory.hpp:76] Creating layer conv4_4_2_bn
I0703 18:07:15.509246 35396 net.cpp:106] Creating Layer conv4_4_2_bn
I0703 18:07:15.509255 35396 net.cpp:454] conv4_4_2_bn <- conv4_4_2
I0703 18:07:15.509268 35396 net.cpp:411] conv4_4_2_bn -> conv4_4_2_bn
I0703 18:07:15.509551 35396 net.cpp:150] Setting up conv4_4_2_bn
I0703 18:07:15.509577 35396 net.cpp:157] Top shape: 16 256 14 14 (802816)
I0703 18:07:15.509584 35396 net.cpp:165] Memory required for data: 3089264704
I0703 18:07:15.509610 35396 layer_factory.hpp:76] Creating layer conv4_4_2_relu
I0703 18:07:15.509621 35396 net.cpp:106] Creating Layer conv4_4_2_relu
I0703 18:07:15.509630 35396 net.cpp:454] conv4_4_2_relu <- conv4_4_2_bn
I0703 18:07:15.509640 35396 net.cpp:397] conv4_4_2_relu -> conv4_4_2_bn (in-place)
I0703 18:07:15.510004 35396 net.cpp:150] Setting up conv4_4_2_relu
I0703 18:07:15.510035 35396 net.cpp:157] Top shape: 16 256 14 14 (802816)
I0703 18:07:15.510043 35396 net.cpp:165] Memory required for data: 3092475968
I0703 18:07:15.510051 35396 layer_factory.hpp:76] Creating layer conv4_4_3
I0703 18:07:15.510066 35396 net.cpp:106] Creating Layer conv4_4_3
I0703 18:07:15.510074 35396 net.cpp:454] conv4_4_3 <- conv4_4_2_bn
I0703 18:07:15.510087 35396 net.cpp:411] conv4_4_3 -> conv4_4_3
I0703 18:07:15.520164 35396 cudnn_conv_layer.cpp:194] Reallocating workspace storage: 3072
I0703 18:07:15.520213 35396 net.cpp:150] Setting up conv4_4_3
I0703 18:07:15.520226 35396 net.cpp:157] Top shape: 16 1024 14 14 (3211264)
I0703 18:07:15.520236 35396 net.cpp:165] Memory required for data: 3105321024
I0703 18:07:15.520246 35396 layer_factory.hpp:76] Creating layer conv4_4_sum
I0703 18:07:15.520258 35396 net.cpp:106] Creating Layer conv4_4_sum
I0703 18:07:15.520267 35396 net.cpp:454] conv4_4_sum <- conv4_3_sum_bn_conv4_3_sum_relu_0_split_1
I0703 18:07:15.520277 35396 net.cpp:454] conv4_4_sum <- conv4_4_3
I0703 18:07:15.520289 35396 net.cpp:411] conv4_4_sum -> conv4_4_sum
I0703 18:07:15.520342 35396 net.cpp:150] Setting up conv4_4_sum
I0703 18:07:15.520357 35396 net.cpp:157] Top shape: 16 1024 14 14 (3211264)
I0703 18:07:15.520365 35396 net.cpp:165] Memory required for data: 3118166080
I0703 18:07:15.520373 35396 layer_factory.hpp:76] Creating layer conv4_4_sum_bn
I0703 18:07:15.520385 35396 net.cpp:106] Creating Layer conv4_4_sum_bn
I0703 18:07:15.520393 35396 net.cpp:454] conv4_4_sum_bn <- conv4_4_sum
I0703 18:07:15.520406 35396 net.cpp:411] conv4_4_sum_bn -> conv4_4_sum_bn
I0703 18:07:15.520712 35396 net.cpp:150] Setting up conv4_4_sum_bn
I0703 18:07:15.520726 35396 net.cpp:157] Top shape: 16 1024 14 14 (3211264)
I0703 18:07:15.520746 35396 net.cpp:165] Memory required for data: 3131011136
I0703 18:07:15.520759 35396 layer_factory.hpp:76] Creating layer conv4_4_sum_relu
I0703 18:07:15.520771 35396 net.cpp:106] Creating Layer conv4_4_sum_relu
I0703 18:07:15.520781 35396 net.cpp:454] conv4_4_sum_relu <- conv4_4_sum_bn
I0703 18:07:15.520790 35396 net.cpp:397] conv4_4_sum_relu -> conv4_4_sum_bn (in-place)
I0703 18:07:15.521019 35396 net.cpp:150] Setting up conv4_4_sum_relu
I0703 18:07:15.521046 35396 net.cpp:157] Top shape: 16 1024 14 14 (3211264)
I0703 18:07:15.521055 35396 net.cpp:165] Memory required for data: 3143856192
I0703 18:07:15.521064 35396 layer_factory.hpp:76] Creating layer conv4_4_sum_bn_conv4_4_sum_relu_0_split
I0703 18:07:15.521073 35396 net.cpp:106] Creating Layer conv4_4_sum_bn_conv4_4_sum_relu_0_split
I0703 18:07:15.521081 35396 net.cpp:454] conv4_4_sum_bn_conv4_4_sum_relu_0_split <- conv4_4_sum_bn
I0703 18:07:15.521091 35396 net.cpp:411] conv4_4_sum_bn_conv4_4_sum_relu_0_split -> conv4_4_sum_bn_conv4_4_sum_relu_0_split_0
I0703 18:07:15.521105 35396 net.cpp:411] conv4_4_sum_bn_conv4_4_sum_relu_0_split -> conv4_4_sum_bn_conv4_4_sum_relu_0_split_1
I0703 18:07:15.521175 35396 net.cpp:150] Setting up conv4_4_sum_bn_conv4_4_sum_relu_0_split
I0703 18:07:15.521189 35396 net.cpp:157] Top shape: 16 1024 14 14 (3211264)
I0703 18:07:15.521198 35396 net.cpp:157] Top shape: 16 1024 14 14 (3211264)
I0703 18:07:15.521206 35396 net.cpp:165] Memory required for data: 3169546304
I0703 18:07:15.521215 35396 layer_factory.hpp:76] Creating layer conv4_5_1
I0703 18:07:15.521230 35396 net.cpp:106] Creating Layer conv4_5_1
I0703 18:07:15.521239 35396 net.cpp:454] conv4_5_1 <- conv4_4_sum_bn_conv4_4_sum_relu_0_split_0
I0703 18:07:15.521252 35396 net.cpp:411] conv4_5_1 -> conv4_5_1
I0703 18:07:15.531433 35396 cudnn_conv_layer.cpp:194] Reallocating workspace storage: 12288
I0703 18:07:15.531497 35396 net.cpp:150] Setting up conv4_5_1
I0703 18:07:15.531536 35396 net.cpp:157] Top shape: 16 256 14 14 (802816)
I0703 18:07:15.531546 35396 net.cpp:165] Memory required for data: 3172757568
I0703 18:07:15.531558 35396 layer_factory.hpp:76] Creating layer conv4_5_1_bn
I0703 18:07:15.531569 35396 net.cpp:106] Creating Layer conv4_5_1_bn
I0703 18:07:15.531579 35396 net.cpp:454] conv4_5_1_bn <- conv4_5_1
I0703 18:07:15.531591 35396 net.cpp:411] conv4_5_1_bn -> conv4_5_1_bn
I0703 18:07:15.531896 35396 net.cpp:150] Setting up conv4_5_1_bn
I0703 18:07:15.531910 35396 net.cpp:157] Top shape: 16 256 14 14 (802816)
I0703 18:07:15.531929 35396 net.cpp:165] Memory required for data: 3175968832
I0703 18:07:15.531942 35396 layer_factory.hpp:76] Creating layer conv4_5_1_relu
I0703 18:07:15.531955 35396 net.cpp:106] Creating Layer conv4_5_1_relu
I0703 18:07:15.531963 35396 net.cpp:454] conv4_5_1_relu <- conv4_5_1_bn
I0703 18:07:15.531973 35396 net.cpp:397] conv4_5_1_relu -> conv4_5_1_bn (in-place)
I0703 18:07:15.532341 35396 net.cpp:150] Setting up conv4_5_1_relu
I0703 18:07:15.532372 35396 net.cpp:157] Top shape: 16 256 14 14 (802816)
I0703 18:07:15.532380 35396 net.cpp:165] Memory required for data: 3179180096
I0703 18:07:15.532389 35396 layer_factory.hpp:76] Creating layer conv4_5_2
I0703 18:07:15.532403 35396 net.cpp:106] Creating Layer conv4_5_2
I0703 18:07:15.532413 35396 net.cpp:454] conv4_5_2 <- conv4_5_1_bn
I0703 18:07:15.532433 35396 net.cpp:411] conv4_5_2 -> conv4_5_2
I0703 18:07:15.553371 35396 cudnn_conv_layer.cpp:194] Reallocating workspace storage: 27648
I0703 18:07:15.553413 35396 net.cpp:150] Setting up conv4_5_2
I0703 18:07:15.553426 35396 net.cpp:157] Top shape: 16 256 14 14 (802816)
I0703 18:07:15.553434 35396 net.cpp:165] Memory required for data: 3182391360
I0703 18:07:15.553445 35396 layer_factory.hpp:76] Creating layer conv4_5_2_bn
I0703 18:07:15.553460 35396 net.cpp:106] Creating Layer conv4_5_2_bn
I0703 18:07:15.553469 35396 net.cpp:454] conv4_5_2_bn <- conv4_5_2
I0703 18:07:15.553479 35396 net.cpp:411] conv4_5_2_bn -> conv4_5_2_bn
I0703 18:07:15.553771 35396 net.cpp:150] Setting up conv4_5_2_bn
I0703 18:07:15.553784 35396 net.cpp:157] Top shape: 16 256 14 14 (802816)
I0703 18:07:15.553804 35396 net.cpp:165] Memory required for data: 3185602624
I0703 18:07:15.553818 35396 layer_factory.hpp:76] Creating layer conv4_5_2_relu
I0703 18:07:15.553828 35396 net.cpp:106] Creating Layer conv4_5_2_relu
I0703 18:07:15.553836 35396 net.cpp:454] conv4_5_2_relu <- conv4_5_2_bn
I0703 18:07:15.553845 35396 net.cpp:397] conv4_5_2_relu -> conv4_5_2_bn (in-place)
I0703 18:07:15.554214 35396 net.cpp:150] Setting up conv4_5_2_relu
I0703 18:07:15.554244 35396 net.cpp:157] Top shape: 16 256 14 14 (802816)
I0703 18:07:15.554252 35396 net.cpp:165] Memory required for data: 3188813888
I0703 18:07:15.554260 35396 layer_factory.hpp:76] Creating layer conv4_5_3
I0703 18:07:15.554280 35396 net.cpp:106] Creating Layer conv4_5_3
I0703 18:07:15.554289 35396 net.cpp:454] conv4_5_3 <- conv4_5_2_bn
I0703 18:07:15.554301 35396 net.cpp:411] conv4_5_3 -> conv4_5_3
I0703 18:07:15.564427 35396 cudnn_conv_layer.cpp:194] Reallocating workspace storage: 3072
I0703 18:07:15.564476 35396 net.cpp:150] Setting up conv4_5_3
I0703 18:07:15.564488 35396 net.cpp:157] Top shape: 16 1024 14 14 (3211264)
I0703 18:07:15.564496 35396 net.cpp:165] Memory required for data: 3201658944
I0703 18:07:15.564508 35396 layer_factory.hpp:76] Creating layer conv4_5_sum
I0703 18:07:15.564522 35396 net.cpp:106] Creating Layer conv4_5_sum
I0703 18:07:15.564532 35396 net.cpp:454] conv4_5_sum <- conv4_4_sum_bn_conv4_4_sum_relu_0_split_1
I0703 18:07:15.564541 35396 net.cpp:454] conv4_5_sum <- conv4_5_3
I0703 18:07:15.564553 35396 net.cpp:411] conv4_5_sum -> conv4_5_sum
I0703 18:07:15.564604 35396 net.cpp:150] Setting up conv4_5_sum
I0703 18:07:15.564618 35396 net.cpp:157] Top shape: 16 1024 14 14 (3211264)
I0703 18:07:15.564627 35396 net.cpp:165] Memory required for data: 3214504000
I0703 18:07:15.564635 35396 layer_factory.hpp:76] Creating layer conv4_5_sum_bn
I0703 18:07:15.564648 35396 net.cpp:106] Creating Layer conv4_5_sum_bn
I0703 18:07:15.564671 35396 net.cpp:454] conv4_5_sum_bn <- conv4_5_sum
I0703 18:07:15.564684 35396 net.cpp:411] conv4_5_sum_bn -> conv4_5_sum_bn
I0703 18:07:15.564970 35396 net.cpp:150] Setting up conv4_5_sum_bn
I0703 18:07:15.564996 35396 net.cpp:157] Top shape: 16 1024 14 14 (3211264)
I0703 18:07:15.565003 35396 net.cpp:165] Memory required for data: 3227349056
I0703 18:07:15.565017 35396 layer_factory.hpp:76] Creating layer conv4_5_sum_relu
I0703 18:07:15.565027 35396 net.cpp:106] Creating Layer conv4_5_sum_relu
I0703 18:07:15.565035 35396 net.cpp:454] conv4_5_sum_relu <- conv4_5_sum_bn
I0703 18:07:15.565044 35396 net.cpp:397] conv4_5_sum_relu -> conv4_5_sum_bn (in-place)
I0703 18:07:15.565273 35396 net.cpp:150] Setting up conv4_5_sum_relu
I0703 18:07:15.565287 35396 net.cpp:157] Top shape: 16 1024 14 14 (3211264)
I0703 18:07:15.565307 35396 net.cpp:165] Memory required for data: 3240194112
I0703 18:07:15.565316 35396 layer_factory.hpp:76] Creating layer conv4_5_sum_bn_conv4_5_sum_relu_0_split
I0703 18:07:15.565328 35396 net.cpp:106] Creating Layer conv4_5_sum_bn_conv4_5_sum_relu_0_split
I0703 18:07:15.565336 35396 net.cpp:454] conv4_5_sum_bn_conv4_5_sum_relu_0_split <- conv4_5_sum_bn
I0703 18:07:15.565346 35396 net.cpp:411] conv4_5_sum_bn_conv4_5_sum_relu_0_split -> conv4_5_sum_bn_conv4_5_sum_relu_0_split_0
I0703 18:07:15.565357 35396 net.cpp:411] conv4_5_sum_bn_conv4_5_sum_relu_0_split -> conv4_5_sum_bn_conv4_5_sum_relu_0_split_1
I0703 18:07:15.565430 35396 net.cpp:150] Setting up conv4_5_sum_bn_conv4_5_sum_relu_0_split
I0703 18:07:15.565443 35396 net.cpp:157] Top shape: 16 1024 14 14 (3211264)
I0703 18:07:15.565454 35396 net.cpp:157] Top shape: 16 1024 14 14 (3211264)
I0703 18:07:15.565460 35396 net.cpp:165] Memory required for data: 3265884224
I0703 18:07:15.565469 35396 layer_factory.hpp:76] Creating layer conv4_6_1
I0703 18:07:15.565486 35396 net.cpp:106] Creating Layer conv4_6_1
I0703 18:07:15.565495 35396 net.cpp:454] conv4_6_1 <- conv4_5_sum_bn_conv4_5_sum_relu_0_split_0
I0703 18:07:15.565518 35396 net.cpp:411] conv4_6_1 -> conv4_6_1
I0703 18:07:15.575667 35396 cudnn_conv_layer.cpp:194] Reallocating workspace storage: 12288
I0703 18:07:15.575714 35396 net.cpp:150] Setting up conv4_6_1
I0703 18:07:15.575726 35396 net.cpp:157] Top shape: 16 256 14 14 (802816)
I0703 18:07:15.575736 35396 net.cpp:165] Memory required for data: 3269095488
I0703 18:07:15.575747 35396 layer_factory.hpp:76] Creating layer conv4_6_1_bn
I0703 18:07:15.575762 35396 net.cpp:106] Creating Layer conv4_6_1_bn
I0703 18:07:15.575770 35396 net.cpp:454] conv4_6_1_bn <- conv4_6_1
I0703 18:07:15.575783 35396 net.cpp:411] conv4_6_1_bn -> conv4_6_1_bn
I0703 18:07:15.576079 35396 net.cpp:150] Setting up conv4_6_1_bn
I0703 18:07:15.576093 35396 net.cpp:157] Top shape: 16 256 14 14 (802816)
I0703 18:07:15.576113 35396 net.cpp:165] Memory required for data: 3272306752
I0703 18:07:15.576127 35396 layer_factory.hpp:76] Creating layer conv4_6_1_relu
I0703 18:07:15.576138 35396 net.cpp:106] Creating Layer conv4_6_1_relu
I0703 18:07:15.576145 35396 net.cpp:454] conv4_6_1_relu <- conv4_6_1_bn
I0703 18:07:15.576167 35396 net.cpp:397] conv4_6_1_relu -> conv4_6_1_bn (in-place)
I0703 18:07:15.576539 35396 net.cpp:150] Setting up conv4_6_1_relu
I0703 18:07:15.576570 35396 net.cpp:157] Top shape: 16 256 14 14 (802816)
I0703 18:07:15.576580 35396 net.cpp:165] Memory required for data: 3275518016
I0703 18:07:15.576587 35396 layer_factory.hpp:76] Creating layer conv4_6_2
I0703 18:07:15.576601 35396 net.cpp:106] Creating Layer conv4_6_2
I0703 18:07:15.576611 35396 net.cpp:454] conv4_6_2 <- conv4_6_1_bn
I0703 18:07:15.576635 35396 net.cpp:411] conv4_6_2 -> conv4_6_2
I0703 18:07:15.597610 35396 cudnn_conv_layer.cpp:194] Reallocating workspace storage: 27648
I0703 18:07:15.597654 35396 net.cpp:150] Setting up conv4_6_2
I0703 18:07:15.597666 35396 net.cpp:157] Top shape: 16 256 14 14 (802816)
I0703 18:07:15.597674 35396 net.cpp:165] Memory required for data: 3278729280
I0703 18:07:15.597743 35396 layer_factory.hpp:76] Creating layer conv4_6_2_bn
I0703 18:07:15.597774 35396 net.cpp:106] Creating Layer conv4_6_2_bn
I0703 18:07:15.597784 35396 net.cpp:454] conv4_6_2_bn <- conv4_6_2
I0703 18:07:15.597805 35396 net.cpp:411] conv4_6_2_bn -> conv4_6_2_bn
I0703 18:07:15.598111 35396 net.cpp:150] Setting up conv4_6_2_bn
I0703 18:07:15.598137 35396 net.cpp:157] Top shape: 16 256 14 14 (802816)
I0703 18:07:15.598145 35396 net.cpp:165] Memory required for data: 3281940544
I0703 18:07:15.598158 35396 layer_factory.hpp:76] Creating layer conv4_6_2_relu
I0703 18:07:15.598168 35396 net.cpp:106] Creating Layer conv4_6_2_relu
I0703 18:07:15.598176 35396 net.cpp:454] conv4_6_2_relu <- conv4_6_2_bn
I0703 18:07:15.598198 35396 net.cpp:397] conv4_6_2_relu -> conv4_6_2_bn (in-place)
I0703 18:07:15.598554 35396 net.cpp:150] Setting up conv4_6_2_relu
I0703 18:07:15.598585 35396 net.cpp:157] Top shape: 16 256 14 14 (802816)
I0703 18:07:15.598593 35396 net.cpp:165] Memory required for data: 3285151808
I0703 18:07:15.598603 35396 layer_factory.hpp:76] Creating layer conv4_6_3
I0703 18:07:15.598616 35396 net.cpp:106] Creating Layer conv4_6_3
I0703 18:07:15.598625 35396 net.cpp:454] conv4_6_3 <- conv4_6_2_bn
I0703 18:07:15.598651 35396 net.cpp:411] conv4_6_3 -> conv4_6_3
I0703 18:07:15.609015 35396 cudnn_conv_layer.cpp:194] Reallocating workspace storage: 3072
I0703 18:07:15.609066 35396 net.cpp:150] Setting up conv4_6_3
I0703 18:07:15.609078 35396 net.cpp:157] Top shape: 16 1024 14 14 (3211264)
I0703 18:07:15.609099 35396 net.cpp:165] Memory required for data: 3297996864
I0703 18:07:15.609112 35396 layer_factory.hpp:76] Creating layer conv4_6_sum
I0703 18:07:15.609125 35396 net.cpp:106] Creating Layer conv4_6_sum
I0703 18:07:15.609135 35396 net.cpp:454] conv4_6_sum <- conv4_5_sum_bn_conv4_5_sum_relu_0_split_1
I0703 18:07:15.609145 35396 net.cpp:454] conv4_6_sum <- conv4_6_3
I0703 18:07:15.609156 35396 net.cpp:411] conv4_6_sum -> conv4_6_sum
I0703 18:07:15.609199 35396 net.cpp:150] Setting up conv4_6_sum
I0703 18:07:15.609212 35396 net.cpp:157] Top shape: 16 1024 14 14 (3211264)
I0703 18:07:15.609220 35396 net.cpp:165] Memory required for data: 3310841920
I0703 18:07:15.609230 35396 layer_factory.hpp:76] Creating layer conv4_6_sum_bn
I0703 18:07:15.609242 35396 net.cpp:106] Creating Layer conv4_6_sum_bn
I0703 18:07:15.609251 35396 net.cpp:454] conv4_6_sum_bn <- conv4_6_sum
I0703 18:07:15.609261 35396 net.cpp:411] conv4_6_sum_bn -> conv4_6_sum_bn
I0703 18:07:15.609550 35396 net.cpp:150] Setting up conv4_6_sum_bn
I0703 18:07:15.609565 35396 net.cpp:157] Top shape: 16 1024 14 14 (3211264)
I0703 18:07:15.609583 35396 net.cpp:165] Memory required for data: 3323686976
I0703 18:07:15.609596 35396 layer_factory.hpp:76] Creating layer conv4_6_sum_relu
I0703 18:07:15.609607 35396 net.cpp:106] Creating Layer conv4_6_sum_relu
I0703 18:07:15.609616 35396 net.cpp:454] conv4_6_sum_relu <- conv4_6_sum_bn
I0703 18:07:15.609624 35396 net.cpp:397] conv4_6_sum_relu -> conv4_6_sum_bn (in-place)
I0703 18:07:15.609870 35396 net.cpp:150] Setting up conv4_6_sum_relu
I0703 18:07:15.609886 35396 net.cpp:157] Top shape: 16 1024 14 14 (3211264)
I0703 18:07:15.609905 35396 net.cpp:165] Memory required for data: 3336532032
I0703 18:07:15.609915 35396 layer_factory.hpp:76] Creating layer conv4_6_sum_bn_conv4_6_sum_relu_0_split
I0703 18:07:15.609925 35396 net.cpp:106] Creating Layer conv4_6_sum_bn_conv4_6_sum_relu_0_split
I0703 18:07:15.609933 35396 net.cpp:454] conv4_6_sum_bn_conv4_6_sum_relu_0_split <- conv4_6_sum_bn
I0703 18:07:15.609956 35396 net.cpp:411] conv4_6_sum_bn_conv4_6_sum_relu_0_split -> conv4_6_sum_bn_conv4_6_sum_relu_0_split_0
I0703 18:07:15.609968 35396 net.cpp:411] conv4_6_sum_bn_conv4_6_sum_relu_0_split -> conv4_6_sum_bn_conv4_6_sum_relu_0_split_1
I0703 18:07:15.610030 35396 net.cpp:150] Setting up conv4_6_sum_bn_conv4_6_sum_relu_0_split
I0703 18:07:15.610045 35396 net.cpp:157] Top shape: 16 1024 14 14 (3211264)
I0703 18:07:15.610055 35396 net.cpp:157] Top shape: 16 1024 14 14 (3211264)
I0703 18:07:15.610064 35396 net.cpp:165] Memory required for data: 3362222144
I0703 18:07:15.610071 35396 layer_factory.hpp:76] Creating layer conv4_7_1
I0703 18:07:15.610097 35396 net.cpp:106] Creating Layer conv4_7_1
I0703 18:07:15.610106 35396 net.cpp:454] conv4_7_1 <- conv4_6_sum_bn_conv4_6_sum_relu_0_split_0
I0703 18:07:15.610119 35396 net.cpp:411] conv4_7_1 -> conv4_7_1
I0703 18:07:15.620522 35396 cudnn_conv_layer.cpp:194] Reallocating workspace storage: 12288
I0703 18:07:15.620569 35396 net.cpp:150] Setting up conv4_7_1
I0703 18:07:15.620582 35396 net.cpp:157] Top shape: 16 256 14 14 (802816)
I0703 18:07:15.620591 35396 net.cpp:165] Memory required for data: 3365433408
I0703 18:07:15.620604 35396 layer_factory.hpp:76] Creating layer conv4_7_1_bn
I0703 18:07:15.620620 35396 net.cpp:106] Creating Layer conv4_7_1_bn
I0703 18:07:15.620630 35396 net.cpp:454] conv4_7_1_bn <- conv4_7_1
I0703 18:07:15.620640 35396 net.cpp:411] conv4_7_1_bn -> conv4_7_1_bn
I0703 18:07:15.620932 35396 net.cpp:150] Setting up conv4_7_1_bn
I0703 18:07:15.620959 35396 net.cpp:157] Top shape: 16 256 14 14 (802816)
I0703 18:07:15.620966 35396 net.cpp:165] Memory required for data: 3368644672
I0703 18:07:15.620980 35396 layer_factory.hpp:76] Creating layer conv4_7_1_relu
I0703 18:07:15.620990 35396 net.cpp:106] Creating Layer conv4_7_1_relu
I0703 18:07:15.620997 35396 net.cpp:454] conv4_7_1_relu <- conv4_7_1_bn
I0703 18:07:15.621018 35396 net.cpp:397] conv4_7_1_relu -> conv4_7_1_bn (in-place)
I0703 18:07:15.621389 35396 net.cpp:150] Setting up conv4_7_1_relu
I0703 18:07:15.621422 35396 net.cpp:157] Top shape: 16 256 14 14 (802816)
I0703 18:07:15.621430 35396 net.cpp:165] Memory required for data: 3371855936
I0703 18:07:15.621438 35396 layer_factory.hpp:76] Creating layer conv4_7_2
I0703 18:07:15.621450 35396 net.cpp:106] Creating Layer conv4_7_2
I0703 18:07:15.621459 35396 net.cpp:454] conv4_7_2 <- conv4_7_1_bn
I0703 18:07:15.621484 35396 net.cpp:411] conv4_7_2 -> conv4_7_2
I0703 18:07:15.642691 35396 cudnn_conv_layer.cpp:194] Reallocating workspace storage: 27648
I0703 18:07:15.642736 35396 net.cpp:150] Setting up conv4_7_2
I0703 18:07:15.642750 35396 net.cpp:157] Top shape: 16 256 14 14 (802816)
I0703 18:07:15.642757 35396 net.cpp:165] Memory required for data: 3375067200
I0703 18:07:15.642781 35396 layer_factory.hpp:76] Creating layer conv4_7_2_bn
I0703 18:07:15.642792 35396 net.cpp:106] Creating Layer conv4_7_2_bn
I0703 18:07:15.642802 35396 net.cpp:454] conv4_7_2_bn <- conv4_7_2
I0703 18:07:15.642814 35396 net.cpp:411] conv4_7_2_bn -> conv4_7_2_bn
I0703 18:07:15.643110 35396 net.cpp:150] Setting up conv4_7_2_bn
I0703 18:07:15.643136 35396 net.cpp:157] Top shape: 16 256 14 14 (802816)
I0703 18:07:15.643143 35396 net.cpp:165] Memory required for data: 3378278464
I0703 18:07:15.643157 35396 layer_factory.hpp:76] Creating layer conv4_7_2_relu
I0703 18:07:15.643170 35396 net.cpp:106] Creating Layer conv4_7_2_relu
I0703 18:07:15.643179 35396 net.cpp:454] conv4_7_2_relu <- conv4_7_2_bn
I0703 18:07:15.643201 35396 net.cpp:397] conv4_7_2_relu -> conv4_7_2_bn (in-place)
I0703 18:07:15.643559 35396 net.cpp:150] Setting up conv4_7_2_relu
I0703 18:07:15.643589 35396 net.cpp:157] Top shape: 16 256 14 14 (802816)
I0703 18:07:15.643599 35396 net.cpp:165] Memory required for data: 3381489728
I0703 18:07:15.643607 35396 layer_factory.hpp:76] Creating layer conv4_7_3
I0703 18:07:15.643621 35396 net.cpp:106] Creating Layer conv4_7_3
I0703 18:07:15.643632 35396 net.cpp:454] conv4_7_3 <- conv4_7_2_bn
I0703 18:07:15.643656 35396 net.cpp:411] conv4_7_3 -> conv4_7_3
I0703 18:07:15.653807 35396 cudnn_conv_layer.cpp:194] Reallocating workspace storage: 3072
I0703 18:07:15.653858 35396 net.cpp:150] Setting up conv4_7_3
I0703 18:07:15.653870 35396 net.cpp:157] Top shape: 16 1024 14 14 (3211264)
I0703 18:07:15.653879 35396 net.cpp:165] Memory required for data: 3394334784
I0703 18:07:15.653903 35396 layer_factory.hpp:76] Creating layer conv4_7_sum
I0703 18:07:15.653915 35396 net.cpp:106] Creating Layer conv4_7_sum
I0703 18:07:15.653924 35396 net.cpp:454] conv4_7_sum <- conv4_6_sum_bn_conv4_6_sum_relu_0_split_1
I0703 18:07:15.653934 35396 net.cpp:454] conv4_7_sum <- conv4_7_3
I0703 18:07:15.653959 35396 net.cpp:411] conv4_7_sum -> conv4_7_sum
I0703 18:07:15.654005 35396 net.cpp:150] Setting up conv4_7_sum
I0703 18:07:15.654019 35396 net.cpp:157] Top shape: 16 1024 14 14 (3211264)
I0703 18:07:15.654027 35396 net.cpp:165] Memory required for data: 3407179840
I0703 18:07:15.654036 35396 layer_factory.hpp:76] Creating layer conv4_7_sum_bn
I0703 18:07:15.654048 35396 net.cpp:106] Creating Layer conv4_7_sum_bn
I0703 18:07:15.654057 35396 net.cpp:454] conv4_7_sum_bn <- conv4_7_sum
I0703 18:07:15.654068 35396 net.cpp:411] conv4_7_sum_bn -> conv4_7_sum_bn
I0703 18:07:15.654357 35396 net.cpp:150] Setting up conv4_7_sum_bn
I0703 18:07:15.654371 35396 net.cpp:157] Top shape: 16 1024 14 14 (3211264)
I0703 18:07:15.654392 35396 net.cpp:165] Memory required for data: 3420024896
I0703 18:07:15.654404 35396 layer_factory.hpp:76] Creating layer conv4_7_sum_relu
I0703 18:07:15.654415 35396 net.cpp:106] Creating Layer conv4_7_sum_relu
I0703 18:07:15.654423 35396 net.cpp:454] conv4_7_sum_relu <- conv4_7_sum_bn
I0703 18:07:15.654434 35396 net.cpp:397] conv4_7_sum_relu -> conv4_7_sum_bn (in-place)
I0703 18:07:15.654665 35396 net.cpp:150] Setting up conv4_7_sum_relu
I0703 18:07:15.654695 35396 net.cpp:157] Top shape: 16 1024 14 14 (3211264)
I0703 18:07:15.654703 35396 net.cpp:165] Memory required for data: 3432869952
I0703 18:07:15.654711 35396 layer_factory.hpp:76] Creating layer conv4_7_sum_bn_conv4_7_sum_relu_0_split
I0703 18:07:15.654721 35396 net.cpp:106] Creating Layer conv4_7_sum_bn_conv4_7_sum_relu_0_split
I0703 18:07:15.654729 35396 net.cpp:454] conv4_7_sum_bn_conv4_7_sum_relu_0_split <- conv4_7_sum_bn
I0703 18:07:15.654752 35396 net.cpp:411] conv4_7_sum_bn_conv4_7_sum_relu_0_split -> conv4_7_sum_bn_conv4_7_sum_relu_0_split_0
I0703 18:07:15.654763 35396 net.cpp:411] conv4_7_sum_bn_conv4_7_sum_relu_0_split -> conv4_7_sum_bn_conv4_7_sum_relu_0_split_1
I0703 18:07:15.654826 35396 net.cpp:150] Setting up conv4_7_sum_bn_conv4_7_sum_relu_0_split
I0703 18:07:15.654839 35396 net.cpp:157] Top shape: 16 1024 14 14 (3211264)
I0703 18:07:15.654850 35396 net.cpp:157] Top shape: 16 1024 14 14 (3211264)
I0703 18:07:15.654857 35396 net.cpp:165] Memory required for data: 3458560064
I0703 18:07:15.654865 35396 layer_factory.hpp:76] Creating layer conv4_8_1
I0703 18:07:15.654880 35396 net.cpp:106] Creating Layer conv4_8_1
I0703 18:07:15.654888 35396 net.cpp:454] conv4_8_1 <- conv4_7_sum_bn_conv4_7_sum_relu_0_split_0
I0703 18:07:15.654902 35396 net.cpp:411] conv4_8_1 -> conv4_8_1
I0703 18:07:15.665174 35396 cudnn_conv_layer.cpp:194] Reallocating workspace storage: 12288
I0703 18:07:15.665220 35396 net.cpp:150] Setting up conv4_8_1
I0703 18:07:15.665232 35396 net.cpp:157] Top shape: 16 256 14 14 (802816)
I0703 18:07:15.665241 35396 net.cpp:165] Memory required for data: 3461771328
I0703 18:07:15.665266 35396 layer_factory.hpp:76] Creating layer conv4_8_1_bn
I0703 18:07:15.665280 35396 net.cpp:106] Creating Layer conv4_8_1_bn
I0703 18:07:15.665290 35396 net.cpp:454] conv4_8_1_bn <- conv4_8_1
I0703 18:07:15.665302 35396 net.cpp:411] conv4_8_1_bn -> conv4_8_1_bn
…
I0703 18:07:19.456357 35396 net.cpp:165] Memory required for data: 5786726592
I0703 18:07:19.456369 35396 layer_factory.hpp:76] Creating layer conv4_32_2_relu
I0703 18:07:19.456382 35396 net.cpp:106] Creating Layer conv4_32_2_relu
I0703 18:07:19.456390 35396 net.cpp:454] conv4_32_2_relu <- conv4_32_2_bn
I0703 18:07:19.456400 35396 net.cpp:397] conv4_32_2_relu -> conv4_32_2_bn (in-place)
I0703 18:07:19.456671 35396 net.cpp:150] Setting up conv4_32_2_relu
I0703 18:07:19.456712 35396 net.cpp:157] Top shape: 16 256 14 14 (802816)
I0703 18:07:19.456719 35396 net.cpp:165] Memory required for data: 5789937856
I0703 18:07:19.456729 35396 layer_factory.hpp:76] Creating layer conv4_32_3
I0703 18:07:19.456744 35396 net.cpp:106] Creating Layer conv4_32_3
I0703 18:07:19.456754 35396 net.cpp:454] conv4_32_3 <- conv4_32_2_bn
I0703 18:07:19.456778 35396 net.cpp:411] conv4_32_3 -> conv4_32_3
I0703 18:07:19.468538 35396 cudnn_conv_layer.cpp:194] Reallocating workspace storage: 3072
I0703 18:07:19.468631 35396 net.cpp:150] Setting up conv4_32_3
I0703 18:07:19.468649 35396 net.cpp:157] Top shape: 16 1024 14 14 (3211264)
I0703 18:07:19.468657 35396 net.cpp:165] Memory required for data: 5802782912
I0703 18:07:19.468669 35396 layer_factory.hpp:76] Creating layer conv4_32_sum
I0703 18:07:19.468680 35396 net.cpp:106] Creating Layer conv4_32_sum
I0703 18:07:19.468689 35396 net.cpp:454] conv4_32_sum <- conv4_31_sum_bn_conv4_31_sum_relu_0_split_1
I0703 18:07:19.468699 35396 net.cpp:454] conv4_32_sum <- conv4_32_3
I0703 18:07:19.468710 35396 net.cpp:411] conv4_32_sum -> conv4_32_sum
I0703 18:07:19.468753 35396 net.cpp:150] Setting up conv4_32_sum
I0703 18:07:19.468768 35396 net.cpp:157] Top shape: 16 1024 14 14 (3211264)
I0703 18:07:19.468776 35396 net.cpp:165] Memory required for data: 5815627968
I0703 18:07:19.468785 35396 layer_factory.hpp:76] Creating layer conv4_32_sum_bn
I0703 18:07:19.468811 35396 net.cpp:106] Creating Layer conv4_32_sum_bn
I0703 18:07:19.468819 35396 net.cpp:454] conv4_32_sum_bn <- conv4_32_sum
I0703 18:07:19.468829 35396 net.cpp:411] conv4_32_sum_bn -> conv4_32_sum_bn
I0703 18:07:19.469162 35396 net.cpp:150] Setting up conv4_32_sum_bn
I0703 18:07:19.469189 35396 net.cpp:157] Top shape: 16 1024 14 14 (3211264)
I0703 18:07:19.469208 35396 net.cpp:165] Memory required for data: 5828473024
I0703 18:07:19.469221 35396 layer_factory.hpp:76] Creating layer conv4_32_sum_relu
I0703 18:07:19.469231 35396 net.cpp:106] Creating Layer conv4_32_sum_relu
I0703 18:07:19.469240 35396 net.cpp:454] conv4_32_sum_relu <- conv4_32_sum_bn
I0703 18:07:19.469260 35396 net.cpp:397] conv4_32_sum_relu -> conv4_32_sum_bn (in-place)
I0703 18:07:19.469727 35396 net.cpp:150] Setting up conv4_32_sum_relu
I0703 18:07:19.469756 35396 net.cpp:157] Top shape: 16 1024 14 14 (3211264)
I0703 18:07:19.469765 35396 net.cpp:165] Memory required for data: 5841318080
I0703 18:07:19.469775 35396 layer_factory.hpp:76] Creating layer conv4_32_sum_bn_conv4_32_sum_relu_0_split
I0703 18:07:19.469785 35396 net.cpp:106] Creating Layer conv4_32_sum_bn_conv4_32_sum_relu_0_split
I0703 18:07:19.469794 35396 net.cpp:454] conv4_32_sum_bn_conv4_32_sum_relu_0_split <- conv4_32_sum_bn
I0703 18:07:19.469805 35396 net.cpp:411] conv4_32_sum_bn_conv4_32_sum_relu_0_split -> conv4_32_sum_bn_conv4_32_sum_relu_0_split_0
I0703 18:07:19.469818 35396 net.cpp:411] conv4_32_sum_bn_conv4_32_sum_relu_0_split -> conv4_32_sum_bn_conv4_32_sum_relu_0_split_1
I0703 18:07:19.469878 35396 net.cpp:150] Setting up conv4_32_sum_bn_conv4_32_sum_relu_0_split
I0703 18:07:19.469892 35396 net.cpp:157] Top shape: 16 1024 14 14 (3211264)
I0703 18:07:19.469900 35396 net.cpp:157] Top shape: 16 1024 14 14 (3211264)
I0703 18:07:19.469908 35396 net.cpp:165] Memory required for data: 5867008192
I0703 18:07:19.469916 35396 layer_factory.hpp:76] Creating layer conv4_33_1
I0703 18:07:19.469931 35396 net.cpp:106] Creating Layer conv4_33_1
I0703 18:07:19.469943 35396 net.cpp:454] conv4_33_1 <- conv4_32_sum_bn_conv4_32_sum_relu_0_split_0
I0703 18:07:19.469952 35396 net.cpp:411] conv4_33_1 -> conv4_33_1
I0703 18:07:19.481343 35396 cudnn_conv_layer.cpp:194] Reallocating workspace storage: 12288
I0703 18:07:19.481389 35396 net.cpp:150] Setting up conv4_33_1
I0703 18:07:19.481402 35396 net.cpp:157] Top shape: 16 256 14 14 (802816)
I0703 18:07:19.481410 35396 net.cpp:165] Memory required for data: 5870219456
I0703 18:07:19.481421 35396 layer_factory.hpp:76] Creating layer conv4_33_1_bn
I0703 18:07:19.481436 35396 net.cpp:106] Creating Layer conv4_33_1_bn
I0703 18:07:19.481446 35396 net.cpp:454] conv4_33_1_bn <- conv4_33_1
I0703 18:07:19.481459 35396 net.cpp:411] conv4_33_1_bn -> conv4_33_1_bn
I0703 18:07:19.481732 35396 net.cpp:150] Setting up conv4_33_1_bn
I0703 18:07:19.481758 35396 net.cpp:157] Top shape: 16 256 14 14 (802816)
I0703 18:07:19.481766 35396 net.cpp:165] Memory required for data: 5873430720
I0703 18:07:19.481791 35396 layer_factory.hpp:76] Creating layer conv4_33_1_relu
I0703 18:07:19.481801 35396 net.cpp:106] Creating Layer conv4_33_1_relu
I0703 18:07:19.481811 35396 net.cpp:454] conv4_33_1_relu <- conv4_33_1_bn
I0703 18:07:19.481819 35396 net.cpp:397] conv4_33_1_relu -> conv4_33_1_bn (in-place)
I0703 18:07:19.482298 35396 net.cpp:150] Setting up conv4_33_1_relu
I0703 18:07:19.482329 35396 net.cpp:157] Top shape: 16 256 14 14 (802816)
I0703 18:07:19.482339 35396 net.cpp:165] Memory required for data: 5876641984
I0703 18:07:19.482349 35396 layer_factory.hpp:76] Creating layer conv4_33_2
I0703 18:07:19.482362 35396 net.cpp:106] Creating Layer conv4_33_2
I0703 18:07:19.482370 35396 net.cpp:454] conv4_33_2 <- conv4_33_1_bn
I0703 18:07:19.482384 35396 net.cpp:411] conv4_33_2 -> conv4_33_2
I0703 18:07:19.507892 35396 cudnn_conv_layer.cpp:194] Reallocating workspace storage: 27648
I0703 18:07:19.507951 35396 net.cpp:150] Setting up conv4_33_2
I0703 18:07:19.507966 35396 net.cpp:157] Top shape: 16 256 14 14 (802816)
I0703 18:07:19.507974 35396 net.cpp:165] Memory required for data: 5879853248
I0703 18:07:19.508019 35396 layer_factory.hpp:76] Creating layer conv4_33_2_bn
I0703 18:07:19.508038 35396 net.cpp:106] Creating Layer conv4_33_2_bn
I0703 18:07:19.508050 35396 net.cpp:454] conv4_33_2_bn <- conv4_33_2
I0703 18:07:19.508062 35396 net.cpp:411] conv4_33_2_bn -> conv4_33_2_bn
I0703 18:07:19.508373 35396 net.cpp:150] Setting up conv4_33_2_bn
I0703 18:07:19.508390 35396 net.cpp:157] Top shape: 16 256 14 14 (802816)
I0703 18:07:19.508399 35396 net.cpp:165] Memory required for data: 5883064512
I0703 18:07:19.508411 35396 layer_factory.hpp:76] Creating layer conv4_33_2_relu
I0703 18:07:19.508436 35396 net.cpp:106] Creating Layer conv4_33_2_relu
I0703 18:07:19.508447 35396 net.cpp:454] conv4_33_2_relu <- conv4_33_2_bn
I0703 18:07:19.508460 35396 net.cpp:397] conv4_33_2_relu -> conv4_33_2_bn (in-place)
I0703 18:07:19.508716 35396 net.cpp:150] Setting up conv4_33_2_relu
I0703 18:07:19.508745 35396 net.cpp:157] Top shape: 16 256 14 14 (802816)
I0703 18:07:19.508754 35396 net.cpp:165] Memory required for data: 5886275776
I0703 18:07:19.508762 35396 layer_factory.hpp:76] Creating layer conv4_33_3
I0703 18:07:19.508782 35396 net.cpp:106] Creating Layer conv4_33_3
I0703 18:07:19.508791 35396 net.cpp:454] conv4_33_3 <- conv4_33_2_bn
I0703 18:07:19.508802 35396 net.cpp:411] conv4_33_3 -> conv4_33_3
I0703 18:07:19.520771 35396 cudnn_conv_layer.cpp:194] Reallocating workspace storage: 3072
I0703 18:07:19.520884 35396 net.cpp:150] Setting up conv4_33_3
I0703 18:07:19.520901 35396 net.cpp:157] Top shape: 16 1024 14 14 (3211264)
I0703 18:07:19.520910 35396 net.cpp:165] Memory required for data: 5899120832
I0703 18:07:19.520922 35396 layer_factory.hpp:76] Creating layer conv4_33_sum
I0703 18:07:19.520936 35396 net.cpp:106] Creating Layer conv4_33_sum
I0703 18:07:19.520946 35396 net.cpp:454] conv4_33_sum <- conv4_32_sum_bn_conv4_32_sum_relu_0_split_1
I0703 18:07:19.520956 35396 net.cpp:454] conv4_33_sum <- conv4_33_3
I0703 18:07:19.520967 35396 net.cpp:411] conv4_33_sum -> conv4_33_sum
I0703 18:07:19.521011 35396 net.cpp:150] Setting up conv4_33_sum
I0703 18:07:19.521025 35396 net.cpp:157] Top shape: 16 1024 14 14 (3211264)
I0703 18:07:19.521034 35396 net.cpp:165] Memory required for data: 5911965888
I0703 18:07:19.521041 35396 layer_factory.hpp:76] Creating layer conv4_33_sum_bn
I0703 18:07:19.521054 35396 net.cpp:106] Creating Layer conv4_33_sum_bn
I0703 18:07:19.521062 35396 net.cpp:454] conv4_33_sum_bn <- conv4_33_sum
I0703 18:07:19.521072 35396 net.cpp:411] conv4_33_sum_bn -> conv4_33_sum_bn
I0703 18:07:19.521361 35396 net.cpp:150] Setting up conv4_33_sum_bn
I0703 18:07:19.521387 35396 net.cpp:157] Top shape: 16 1024 14 14 (3211264)
I0703 18:07:19.521395 35396 net.cpp:165] Memory required for data: 5924810944
I0703 18:07:19.521409 35396 layer_factory.hpp:76] Creating layer conv4_33_sum_relu
I0703 18:07:19.521419 35396 net.cpp:106] Creating Layer conv4_33_sum_relu
I0703 18:07:19.521427 35396 net.cpp:454] conv4_33_sum_relu <- conv4_33_sum_bn
I0703 18:07:19.521438 35396 net.cpp:397] conv4_33_sum_relu -> conv4_33_sum_bn (in-place)
I0703 18:07:19.521879 35396 net.cpp:150] Setting up conv4_33_sum_relu
I0703 18:07:19.521910 35396 net.cpp:157] Top shape: 16 1024 14 14 (3211264)
I0703 18:07:19.521919 35396 net.cpp:165] Memory required for data: 5937656000
I0703 18:07:19.521927 35396 layer_factory.hpp:76] Creating layer conv4_33_sum_bn_conv4_33_sum_relu_0_split
I0703 18:07:19.521937 35396 net.cpp:106] Creating Layer conv4_33_sum_bn_conv4_33_sum_relu_0_split
I0703 18:07:19.521946 35396 net.cpp:454] conv4_33_sum_bn_conv4_33_sum_relu_0_split <- conv4_33_sum_bn
I0703 18:07:19.521960 35396 net.cpp:411] conv4_33_sum_bn_conv4_33_sum_relu_0_split -> conv4_33_sum_bn_conv4_33_sum_relu_0_split_0
I0703 18:07:19.521971 35396 net.cpp:411] conv4_33_sum_bn_conv4_33_sum_relu_0_split -> conv4_33_sum_bn_conv4_33_sum_relu_0_split_1
I0703 18:07:19.522037 35396 net.cpp:150] Setting up conv4_33_sum_bn_conv4_33_sum_relu_0_split
I0703 18:07:19.522050 35396 net.cpp:157] Top shape: 16 1024 14 14 (3211264)
I0703 18:07:19.522058 35396 net.cpp:157] Top shape: 16 1024 14 14 (3211264)
I0703 18:07:19.522088 35396 net.cpp:165] Memory required for data: 5963346112
I0703 18:07:19.522095 35396 layer_factory.hpp:76] Creating layer conv4_34_1
I0703 18:07:19.522112 35396 net.cpp:106] Creating Layer conv4_34_1
I0703 18:07:19.522121 35396 net.cpp:454] conv4_34_1 <- conv4_33_sum_bn_conv4_33_sum_relu_0_split_0
I0703 18:07:19.522132 35396 net.cpp:411] conv4_34_1 -> conv4_34_1
I0703 18:07:19.533671 35396 cudnn_conv_layer.cpp:194] Reallocating workspace storage: 12288
I0703 18:07:19.533732 35396 net.cpp:150] Setting up conv4_34_1
I0703 18:07:19.533746 35396 net.cpp:157] Top shape: 16 256 14 14 (802816)
I0703 18:07:19.533754 35396 net.cpp:165] Memory required for data: 5966557376
I0703 18:07:19.533767 35396 layer_factory.hpp:76] Creating layer conv4_34_1_bn
I0703 18:07:19.533785 35396 net.cpp:106] Creating Layer conv4_34_1_bn
I0703 18:07:19.533795 35396 net.cpp:454] conv4_34_1_bn <- conv4_34_1
I0703 18:07:19.533807 35396 net.cpp:411] conv4_34_1_bn -> conv4_34_1_bn
I0703 18:07:19.534090 35396 net.cpp:150] Setting up conv4_34_1_bn
I0703 18:07:19.534116 35396 net.cpp:157] Top shape: 16 256 14 14 (802816)
I0703 18:07:19.534124 35396 net.cpp:165] Memory required for data: 5969768640
I0703 18:07:19.534137 35396 layer_factory.hpp:76] Creating layer conv4_34_1_relu
I0703 18:07:19.534147 35396 net.cpp:106] Creating Layer conv4_34_1_relu
I0703 18:07:19.534157 35396 net.cpp:454] conv4_34_1_relu <- conv4_34_1_bn
I0703 18:07:19.534165 35396 net.cpp:397] conv4_34_1_relu -> conv4_34_1_bn (in-place)
I0703 18:07:19.534616 35396 net.cpp:150] Setting up conv4_34_1_relu
I0703 18:07:19.534646 35396 net.cpp:157] Top shape: 16 256 14 14 (802816)
I0703 18:07:19.534654 35396 net.cpp:165] Memory required for data: 5972979904
I0703 18:07:19.534664 35396 layer_factory.hpp:76] Creating layer conv4_34_2
I0703 18:07:19.534678 35396 net.cpp:106] Creating Layer conv4_34_2
I0703 18:07:19.534687 35396 net.cpp:454] conv4_34_2 <- conv4_34_1_bn
I0703 18:07:19.534700 35396 net.cpp:411] conv4_34_2 -> conv4_34_2
I0703 18:07:19.559202 35396 cudnn_conv_layer.cpp:194] Reallocating workspace storage: 27648
I0703 18:07:19.559255 35396 net.cpp:150] Setting up conv4_34_2
I0703 18:07:19.559269 35396 net.cpp:157] Top shape: 16 256 14 14 (802816)
I0703 18:07:19.559278 35396 net.cpp:165] Memory required for data: 5976191168
I0703 18:07:19.559289 35396 layer_factory.hpp:76] Creating layer conv4_34_2_bn
I0703 18:07:19.559311 35396 net.cpp:106] Creating Layer conv4_34_2_bn
I0703 18:07:19.559322 35396 net.cpp:454] conv4_34_2_bn <- conv4_34_2
I0703 18:07:19.559334 35396 net.cpp:411] conv4_34_2_bn -> conv4_34_2_bn
I0703 18:07:19.559648 35396 net.cpp:150] Setting up conv4_34_2_bn
I0703 18:07:19.559675 35396 net.cpp:157] Top shape: 16 256 14 14 (802816)
I0703 18:07:19.559682 35396 net.cpp:165] Memory required for data: 5979402432
I0703 18:07:19.559695 35396 layer_factory.hpp:76] Creating layer conv4_34_2_relu
I0703 18:07:19.559708 35396 net.cpp:106] Creating Layer conv4_34_2_relu
I0703 18:07:19.559716 35396 net.cpp:454] conv4_34_2_relu <- conv4_34_2_bn
I0703 18:07:19.559732 35396 net.cpp:397] conv4_34_2_relu -> conv4_34_2_bn (in-place)
I0703 18:07:19.559988 35396 net.cpp:150] Setting up conv4_34_2_relu
I0703 18:07:19.560016 35396 net.cpp:157] Top shape: 16 256 14 14 (802816)
I0703 18:07:19.560024 35396 net.cpp:165] Memory required for data: 5982613696
I0703 18:07:19.560032 35396 layer_factory.hpp:76] Creating layer conv4_34_3
I0703 18:07:19.560050 35396 net.cpp:106] Creating Layer conv4_34_3
I0703 18:07:19.560057 35396 net.cpp:454] conv4_34_3 <- conv4_34_2_bn
I0703 18:07:19.560070 35396 net.cpp:411] conv4_34_3 -> conv4_34_3
I0703 18:07:19.572253 35396 cudnn_conv_layer.cpp:194] Reallocating workspace storage: 3072
I0703 18:07:19.572360 35396 net.cpp:150] Setting up conv4_34_3
I0703 18:07:19.572386 35396 net.cpp:157] Top shape: 16 1024 14 14 (3211264)
I0703 18:07:19.572407 35396 net.cpp:165] Memory required for data: 5995458752
I0703 18:07:19.572418 35396 layer_factory.hpp:76] Creating layer conv4_34_sum
I0703 18:07:19.572446 35396 net.cpp:106] Creating Layer conv4_34_sum
I0703 18:07:19.572491 35396 net.cpp:454] conv4_34_sum <- conv4_33_sum_bn_conv4_33_sum_relu_0_split_1
I0703 18:07:19.572502 35396 net.cpp:454] conv4_34_sum <- conv4_34_3
I0703 18:07:19.572513 35396 net.cpp:411] conv4_34_sum -> conv4_34_sum
I0703 18:07:19.572561 35396 net.cpp:150] Setting up conv4_34_sum
I0703 18:07:19.572576 35396 net.cpp:157] Top shape: 16 1024 14 14 (3211264)
I0703 18:07:19.572583 35396 net.cpp:165] Memory required for data: 6008303808
I0703 18:07:19.572592 35396 layer_factory.hpp:76] Creating layer conv4_34_sum_bn
I0703 18:07:19.572605 35396 net.cpp:106] Creating Layer conv4_34_sum_bn
I0703 18:07:19.572613 35396 net.cpp:454] conv4_34_sum_bn <- conv4_34_sum
I0703 18:07:19.572625 35396 net.cpp:411] conv4_34_sum_bn -> conv4_34_sum_bn
I0703 18:07:19.572912 35396 net.cpp:150] Setting up conv4_34_sum_bn
I0703 18:07:19.572939 35396 net.cpp:157] Top shape: 16 1024 14 14 (3211264)
I0703 18:07:19.572947 35396 net.cpp:165] Memory required for data: 6021148864
I0703 18:07:19.572959 35396 layer_factory.hpp:76] Creating layer conv4_34_sum_relu
I0703 18:07:19.572969 35396 net.cpp:106] Creating Layer conv4_34_sum_relu
I0703 18:07:19.572978 35396 net.cpp:454] conv4_34_sum_relu <- conv4_34_sum_bn
I0703 18:07:19.572989 35396 net.cpp:397] conv4_34_sum_relu -> conv4_34_sum_bn (in-place)
I0703 18:07:19.573431 35396 net.cpp:150] Setting up conv4_34_sum_relu
I0703 18:07:19.573463 35396 net.cpp:157] Top shape: 16 1024 14 14 (3211264)
I0703 18:07:19.573472 35396 net.cpp:165] Memory required for data: 6033993920
I0703 18:07:19.573480 35396 layer_factory.hpp:76] Creating layer conv4_34_sum_bn_conv4_34_sum_relu_0_split
I0703 18:07:19.573492 35396 net.cpp:106] Creating Layer conv4_34_sum_bn_conv4_34_sum_relu_0_split
I0703 18:07:19.573500 35396 net.cpp:454] conv4_34_sum_bn_conv4_34_sum_relu_0_split <- conv4_34_sum_bn
I0703 18:07:19.573510 35396 net.cpp:411] conv4_34_sum_bn_conv4_34_sum_relu_0_split -> conv4_34_sum_bn_conv4_34_sum_relu_0_split_0
I0703 18:07:19.573521 35396 net.cpp:411] conv4_34_sum_bn_conv4_34_sum_relu_0_split -> conv4_34_sum_bn_conv4_34_sum_relu_0_split_1
I0703 18:07:19.573588 35396 net.cpp:150] Setting up conv4_34_sum_bn_conv4_34_sum_relu_0_split
I0703 18:07:19.573601 35396 net.cpp:157] Top shape: 16 1024 14 14 (3211264)
I0703 18:07:19.573611 35396 net.cpp:157] Top shape: 16 1024 14 14 (3211264)
I0703 18:07:19.573618 35396 net.cpp:165] Memory required for data: 6059684032
I0703 18:07:19.573627 35396 layer_factory.hpp:76] Creating layer conv4_35_1
I0703 18:07:19.573642 35396 net.cpp:106] Creating Layer conv4_35_1
I0703 18:07:19.573650 35396 net.cpp:454] conv4_35_1 <- conv4_34_sum_bn_conv4_34_sum_relu_0_split_0
I0703 18:07:19.573662 35396 net.cpp:411] conv4_35_1 -> conv4_35_1
I0703 18:07:19.585237 35396 cudnn_conv_layer.cpp:194] Reallocating workspace storage: 12288
I0703 18:07:19.585294 35396 net.cpp:150] Setting up conv4_35_1
I0703 18:07:19.585305 35396 net.cpp:157] Top shape: 16 256 14 14 (802816)
I0703 18:07:19.585314 35396 net.cpp:165] Memory required for data: 6062895296
I0703 18:07:19.585326 35396 layer_factory.hpp:76] Creating layer conv4_35_1_bn
I0703 18:07:19.585341 35396 net.cpp:106] Creating Layer conv4_35_1_bn
I0703 18:07:19.585352 35396 net.cpp:454] conv4_35_1_bn <- conv4_35_1
I0703 18:07:19.585363 35396 net.cpp:411] conv4_35_1_bn -> conv4_35_1_bn
I0703 18:07:19.585645 35396 net.cpp:150] Setting up conv4_35_1_bn
I0703 18:07:19.585672 35396 net.cpp:157] Top shape: 16 256 14 14 (802816)
I0703 18:07:19.585680 35396 net.cpp:165] Memory required for data: 6066106560
I0703 18:07:19.585693 35396 layer_factory.hpp:76] Creating layer conv4_35_1_relu
I0703 18:07:19.585705 35396 net.cpp:106] Creating Layer conv4_35_1_relu
I0703 18:07:19.585712 35396 net.cpp:454] conv4_35_1_relu <- conv4_35_1_bn
I0703 18:07:19.585721 35396 net.cpp:397] conv4_35_1_relu -> conv4_35_1_bn (in-place)
I0703 18:07:19.586171 35396 net.cpp:150] Setting up conv4_35_1_relu
I0703 18:07:19.586205 35396 net.cpp:157] Top shape: 16 256 14 14 (802816)
I0703 18:07:19.586213 35396 net.cpp:165] Memory required for data: 6069317824
I0703 18:07:19.586237 35396 layer_factory.hpp:76] Creating layer conv4_35_2
I0703 18:07:19.586254 35396 net.cpp:106] Creating Layer conv4_35_2
I0703 18:07:19.586262 35396 net.cpp:454] conv4_35_2 <- conv4_35_1_bn
I0703 18:07:19.586275 35396 net.cpp:411] conv4_35_2 -> conv4_35_2
I0703 18:07:19.610864 35396 cudnn_conv_layer.cpp:194] Reallocating workspace storage: 27648
I0703 18:07:19.610918 35396 net.cpp:150] Setting up conv4_35_2
I0703 18:07:19.610931 35396 net.cpp:157] Top shape: 16 256 14 14 (802816)
I0703 18:07:19.610939 35396 net.cpp:165] Memory required for data: 6072529088
I0703 18:07:19.610951 35396 layer_factory.hpp:76] Creating layer conv4_35_2_bn
I0703 18:07:19.610972 35396 net.cpp:106] Creating Layer conv4_35_2_bn
I0703 18:07:19.610983 35396 net.cpp:454] conv4_35_2_bn <- conv4_35_2
I0703 18:07:19.610994 35396 net.cpp:411] conv4_35_2_bn -> conv4_35_2_bn
I0703 18:07:19.611280 35396 net.cpp:150] Setting up conv4_35_2_bn
I0703 18:07:19.611307 35396 net.cpp:157] Top shape: 16 256 14 14 (802816)
I0703 18:07:19.611315 35396 net.cpp:165] Memory required for data: 6075740352
I0703 18:07:19.611327 35396 layer_factory.hpp:76] Creating layer conv4_35_2_relu
I0703 18:07:19.611338 35396 net.cpp:106] Creating Layer conv4_35_2_relu
I0703 18:07:19.611347 35396 net.cpp:454] conv4_35_2_relu <- conv4_35_2_bn
I0703 18:07:19.611356 35396 net.cpp:397] conv4_35_2_relu -> conv4_35_2_bn (in-place)
I0703 18:07:19.611606 35396 net.cpp:150] Setting up conv4_35_2_relu
I0703 18:07:19.611635 35396 net.cpp:157] Top shape: 16 256 14 14 (802816)
I0703 18:07:19.611644 35396 net.cpp:165] Memory required for data: 6078951616
I0703 18:07:19.611652 35396 layer_factory.hpp:76] Creating layer conv4_35_3
I0703 18:07:19.611667 35396 net.cpp:106] Creating Layer conv4_35_3
I0703 18:07:19.611676 35396 net.cpp:454] conv4_35_3 <- conv4_35_2_bn
I0703 18:07:19.611686 35396 net.cpp:411] conv4_35_3 -> conv4_35_3
I0703 18:07:19.623458 35396 cudnn_conv_layer.cpp:194] Reallocating workspace storage: 3072
I0703 18:07:19.623575 35396 net.cpp:150] Setting up conv4_35_3
I0703 18:07:19.623601 35396 net.cpp:157] Top shape: 16 1024 14 14 (3211264)
I0703 18:07:19.623621 35396 net.cpp:165] Memory required for data: 6091796672
I0703 18:07:19.623633 35396 layer_factory.hpp:76] Creating layer conv4_35_sum
I0703 18:07:19.623873 35396 net.cpp:106] Creating Layer conv4_35_sum
I0703 18:07:19.623899 35396 net.cpp:454] conv4_35_sum <- conv4_34_sum_bn_conv4_34_sum_relu_0_split_1
I0703 18:07:19.623910 35396 net.cpp:454] conv4_35_sum <- conv4_35_3
I0703 18:07:19.623921 35396 net.cpp:411] conv4_35_sum -> conv4_35_sum
I0703 18:07:19.623967 35396 net.cpp:150] Setting up conv4_35_sum
I0703 18:07:19.623981 35396 net.cpp:157] Top shape: 16 1024 14 14 (3211264)
I0703 18:07:19.623989 35396 net.cpp:165] Memory required for data: 6104641728
I0703 18:07:19.623998 35396 layer_factory.hpp:76] Creating layer conv4_35_sum_bn
I0703 18:07:19.624009 35396 net.cpp:106] Creating Layer conv4_35_sum_bn
I0703 18:07:19.624018 35396 net.cpp:454] conv4_35_sum_bn <- conv4_35_sum
I0703 18:07:19.624028 35396 net.cpp:411] conv4_35_sum_bn -> conv4_35_sum_bn
I0703 18:07:19.624325 35396 net.cpp:150] Setting up conv4_35_sum_bn
I0703 18:07:19.624351 35396 net.cpp:157] Top shape: 16 1024 14 14 (3211264)
I0703 18:07:19.624359 35396 net.cpp:165] Memory required for data: 6117486784
I0703 18:07:19.624372 35396 layer_factory.hpp:76] Creating layer conv4_35_sum_relu
I0703 18:07:19.624382 35396 net.cpp:106] Creating Layer conv4_35_sum_relu
I0703 18:07:19.624390 35396 net.cpp:454] conv4_35_sum_relu <- conv4_35_sum_bn
I0703 18:07:19.624402 35396 net.cpp:397] conv4_35_sum_relu -> conv4_35_sum_bn (in-place)
I0703 18:07:19.624872 35396 net.cpp:150] Setting up conv4_35_sum_relu
I0703 18:07:19.624903 35396 net.cpp:157] Top shape: 16 1024 14 14 (3211264)
I0703 18:07:19.624912 35396 net.cpp:165] Memory required for data: 6130331840
I0703 18:07:19.624922 35396 layer_factory.hpp:76] Creating layer conv4_35_sum_bn_conv4_35_sum_relu_0_split
I0703 18:07:19.624932 35396 net.cpp:106] Creating Layer conv4_35_sum_bn_conv4_35_sum_relu_0_split
I0703 18:07:19.624963 35396 net.cpp:454] conv4_35_sum_bn_conv4_35_sum_relu_0_split <- conv4_35_sum_bn
I0703 18:07:19.624974 35396 net.cpp:411] conv4_35_sum_bn_conv4_35_sum_relu_0_split -> conv4_35_sum_bn_conv4_35_sum_relu_0_split_0
I0703 18:07:19.624986 35396 net.cpp:411] conv4_35_sum_bn_conv4_35_sum_relu_0_split -> conv4_35_sum_bn_conv4_35_sum_relu_0_split_1
I0703 18:07:19.625054 35396 net.cpp:150] Setting up conv4_35_sum_bn_conv4_35_sum_relu_0_split
I0703 18:07:19.625067 35396 net.cpp:157] Top shape: 16 1024 14 14 (3211264)
I0703 18:07:19.625077 35396 net.cpp:157] Top shape: 16 1024 14 14 (3211264)
I0703 18:07:19.625084 35396 net.cpp:165] Memory required for data: 6156021952
I0703 18:07:19.625098 35396 layer_factory.hpp:76] Creating layer conv4_36_1
I0703 18:07:19.625116 35396 net.cpp:106] Creating Layer conv4_36_1
I0703 18:07:19.625128 35396 net.cpp:454] conv4_36_1 <- conv4_35_sum_bn_conv4_35_sum_relu_0_split_0
I0703 18:07:19.625138 35396 net.cpp:411] conv4_36_1 -> conv4_36_1
I0703 18:07:19.636688 35396 cudnn_conv_layer.cpp:194] Reallocating workspace storage: 12288
I0703 18:07:19.636744 35396 net.cpp:150] Setting up conv4_36_1
I0703 18:07:19.636756 35396 net.cpp:157] Top shape: 16 256 14 14 (802816)
I0703 18:07:19.636765 35396 net.cpp:165] Memory required for data: 6159233216
I0703 18:07:19.636776 35396 layer_factory.hpp:76] Creating layer conv4_36_1_bn
I0703 18:07:19.636790 35396 net.cpp:106] Creating Layer conv4_36_1_bn
I0703 18:07:19.636801 35396 net.cpp:454] conv4_36_1_bn <- conv4_36_1
I0703 18:07:19.636811 35396 net.cpp:411] conv4_36_1_bn -> conv4_36_1_bn
I0703 18:07:19.637095 35396 net.cpp:150] Setting up conv4_36_1_bn
I0703 18:07:19.637122 35396 net.cpp:157] Top shape: 16 256 14 14 (802816)
I0703 18:07:19.637130 35396 net.cpp:165] Memory required for data: 6162444480
I0703 18:07:19.637145 35396 layer_factory.hpp:76] Creating layer conv4_36_1_relu
I0703 18:07:19.637156 35396 net.cpp:106] Creating Layer conv4_36_1_relu
I0703 18:07:19.637163 35396 net.cpp:454] conv4_36_1_relu <- conv4_36_1_bn
I0703 18:07:19.637174 35396 net.cpp:397] conv4_36_1_relu -> conv4_36_1_bn (in-place)
I0703 18:07:19.637657 35396 net.cpp:150] Setting up conv4_36_1_relu
I0703 18:07:19.637689 35396 net.cpp:157] Top shape: 16 256 14 14 (802816)
I0703 18:07:19.637697 35396 net.cpp:165] Memory required for data: 6165655744
I0703 18:07:19.637706 35396 layer_factory.hpp:76] Creating layer conv4_36_2
I0703 18:07:19.637722 35396 net.cpp:106] Creating Layer conv4_36_2
I0703 18:07:19.637730 35396 net.cpp:454] conv4_36_2 <- conv4_36_1_bn
I0703 18:07:19.637742 35396 net.cpp:411] conv4_36_2 -> conv4_36_2
I0703 18:07:19.662475 35396 cudnn_conv_layer.cpp:194] Reallocating workspace storage: 27648
I0703 18:07:19.662533 35396 net.cpp:150] Setting up conv4_36_2
I0703 18:07:19.662547 35396 net.cpp:157] Top shape: 16 256 14 14 (802816)
I0703 18:07:19.662556 35396 net.cpp:165] Memory required for data: 6168867008
I0703 18:07:19.662569 35396 layer_factory.hpp:76] Creating layer conv4_36_2_bn
I0703 18:07:19.662587 35396 net.cpp:106] Creating Layer conv4_36_2_bn
I0703 18:07:19.662597 35396 net.cpp:454] conv4_36_2_bn <- conv4_36_2
I0703 18:07:19.662609 35396 net.cpp:411] conv4_36_2_bn -> conv4_36_2_bn
I0703 18:07:19.662915 35396 net.cpp:150] Setting up conv4_36_2_bn
I0703 18:07:19.662943 35396 net.cpp:157] Top shape: 16 256 14 14 (802816)
I0703 18:07:19.662952 35396 net.cpp:165] Memory required for data: 6172078272
I0703 18:07:19.662966 35396 layer_factory.hpp:76] Creating layer conv4_36_2_relu
I0703 18:07:19.662977 35396 net.cpp:106] Creating Layer conv4_36_2_relu
I0703 18:07:19.662986 35396 net.cpp:454] conv4_36_2_relu <- conv4_36_2_bn
I0703 18:07:19.662995 35396 net.cpp:397] conv4_36_2_relu -> conv4_36_2_bn (in-place)
I0703 18:07:19.663252 35396 net.cpp:150] Setting up conv4_36_2_relu
I0703 18:07:19.663280 35396 net.cpp:157] Top shape: 16 256 14 14 (802816)
I0703 18:07:19.663290 35396 net.cpp:165] Memory required for data: 6175289536
I0703 18:07:19.663297 35396 layer_factory.hpp:76] Creating layer conv4_36_3
I0703 18:07:19.663316 35396 net.cpp:106] Creating Layer conv4_36_3
I0703 18:07:19.663347 35396 net.cpp:454] conv4_36_3 <- conv4_36_2_bn
I0703 18:07:19.663360 35396 net.cpp:411] conv4_36_3 -> conv4_36_3
I0703 18:07:19.675714 35396 cudnn_conv_layer.cpp:194] Reallocating workspace storage: 3072
I0703 18:07:19.675837 35396 net.cpp:150] Setting up conv4_36_3
I0703 18:07:19.675855 35396 net.cpp:157] Top shape: 16 1024 14 14 (3211264)
I0703 18:07:19.675865 35396 net.cpp:165] Memory required for data: 6188134592
I0703 18:07:19.675879 35396 layer_factory.hpp:76] Creating layer conv4_36_sum
I0703 18:07:19.675896 35396 net.cpp:106] Creating Layer conv4_36_sum
I0703 18:07:19.675907 35396 net.cpp:454] conv4_36_sum <- conv4_35_sum_bn_conv4_35_sum_relu_0_split_1
I0703 18:07:19.675920 35396 net.cpp:454] conv4_36_sum <- conv4_36_3
I0703 18:07:19.675930 35396 net.cpp:411] conv4_36_sum -> conv4_36_sum
I0703 18:07:19.675982 35396 net.cpp:150] Setting up conv4_36_sum
I0703 18:07:19.675999 35396 net.cpp:157] Top shape: 16 1024 14 14 (3211264)
I0703 18:07:19.676007 35396 net.cpp:165] Memory required for data: 6200979648
I0703 18:07:19.676015 35396 layer_factory.hpp:76] Creating layer conv4_36_sum_bn
I0703 18:07:19.676028 35396 net.cpp:106] Creating Layer conv4_36_sum_bn
I0703 18:07:19.676038 35396 net.cpp:454] conv4_36_sum_bn <- conv4_36_sum
I0703 18:07:19.676048 35396 net.cpp:411] conv4_36_sum_bn -> conv4_36_sum_bn
I0703 18:07:19.676367 35396 net.cpp:150] Setting up conv4_36_sum_bn
I0703 18:07:19.676383 35396 net.cpp:157] Top shape: 16 1024 14 14 (3211264)
I0703 18:07:19.676403 35396 net.cpp:165] Memory required for data: 6213824704
I0703 18:07:19.676416 35396 layer_factory.hpp:76] Creating layer conv4_36_sum_relu
I0703 18:07:19.676439 35396 net.cpp:106] Creating Layer conv4_36_sum_relu
I0703 18:07:19.676448 35396 net.cpp:454] conv4_36_sum_relu <- conv4_36_sum_bn
I0703 18:07:19.676457 35396 net.cpp:397] conv4_36_sum_relu -> conv4_36_sum_bn (in-place)
I0703 18:07:19.676918 35396 net.cpp:150] Setting up conv4_36_sum_relu
I0703 18:07:19.676949 35396 net.cpp:157] Top shape: 16 1024 14 14 (3211264)
I0703 18:07:19.676959 35396 net.cpp:165] Memory required for data: 6226669760
I0703 18:07:19.676966 35396 layer_factory.hpp:76] Creating layer conv4_36_sum_bn_conv4_36_sum_relu_0_split
I0703 18:07:19.676981 35396 net.cpp:106] Creating Layer conv4_36_sum_bn_conv4_36_sum_relu_0_split
I0703 18:07:19.676991 35396 net.cpp:454] conv4_36_sum_bn_conv4_36_sum_relu_0_split <- conv4_36_sum_bn
I0703 18:07:19.677001 35396 net.cpp:411] conv4_36_sum_bn_conv4_36_sum_relu_0_split -> conv4_36_sum_bn_conv4_36_sum_relu_0_split_0
I0703 18:07:19.677016 35396 net.cpp:411] conv4_36_sum_bn_conv4_36_sum_relu_0_split -> conv4_36_sum_bn_conv4_36_sum_relu_0_split_1
I0703 18:07:19.677085 35396 net.cpp:150] Setting up conv4_36_sum_bn_conv4_36_sum_relu_0_split
I0703 18:07:19.677100 35396 net.cpp:157] Top shape: 16 1024 14 14 (3211264)
I0703 18:07:19.677109 35396 net.cpp:157] Top shape: 16 1024 14 14 (3211264)
I0703 18:07:19.677117 35396 net.cpp:165] Memory required for data: 6252359872
I0703 18:07:19.677125 35396 layer_factory.hpp:76] Creating layer conv4_output
I0703 18:07:19.677140 35396 net.cpp:106] Creating Layer conv4_output
I0703 18:07:19.677150 35396 net.cpp:454] conv4_output <- conv4_36_sum_bn_conv4_36_sum_relu_0_split_0
I0703 18:07:19.677165 35396 net.cpp:411] conv4_output -> conv4_output
I0703 18:07:19.761404 35396 cudnn_conv_layer.cpp:194] Reallocating workspace storage: 12288
I0703 18:07:19.761482 35396 net.cpp:150] Setting up conv4_output
I0703 18:07:19.761497 35396 net.cpp:157] Top shape: 16 2048 7 7 (1605632)
I0703 18:07:19.761507 35396 net.cpp:165] Memory required for data: 6258782400
I0703 18:07:19.761521 35396 layer_factory.hpp:76] Creating layer conv5_1_1
I0703 18:07:19.761543 35396 net.cpp:106] Creating Layer conv5_1_1
I0703 18:07:19.761564 35396 net.cpp:454] conv5_1_1 <- conv4_36_sum_bn_conv4_36_sum_relu_0_split_1
I0703 18:07:19.761579 35396 net.cpp:411] conv5_1_1 -> conv5_1_1
I0703 18:07:19.783911 35396 cudnn_conv_layer.cpp:194] Reallocating workspace storage: 12288
I0703 18:07:19.783973 35396 net.cpp:150] Setting up conv5_1_1
I0703 18:07:19.784024 35396 net.cpp:157] Top shape: 16 512 7 7 (401408)
I0703 18:07:19.784031 35396 net.cpp:165] Memory required for data: 6260388032
I0703 18:07:19.784044 35396 layer_factory.hpp:76] Creating layer conv5_1_1_bn
I0703 18:07:19.784062 35396 net.cpp:106] Creating Layer conv5_1_1_bn
I0703 18:07:19.784073 35396 net.cpp:454] conv5_1_1_bn <- conv5_1_1
I0703 18:07:19.784085 35396 net.cpp:411] conv5_1_1_bn -> conv5_1_1_bn
I0703 18:07:19.784416 35396 net.cpp:150] Setting up conv5_1_1_bn
I0703 18:07:19.784449 35396 net.cpp:157] Top shape: 16 512 7 7 (401408)
I0703 18:07:19.784461 35396 net.cpp:165] Memory required for data: 6261993664
I0703 18:07:19.784474 35396 layer_factory.hpp:76] Creating layer conv5_1_1_relu
I0703 18:07:19.784488 35396 net.cpp:106] Creating Layer conv5_1_1_relu
I0703 18:07:19.784497 35396 net.cpp:454] conv5_1_1_relu <- conv5_1_1_bn
I0703 18:07:19.784507 35396 net.cpp:397] conv5_1_1_relu -> conv5_1_1_bn (in-place)
I0703 18:07:19.784971 35396 net.cpp:150] Setting up conv5_1_1_relu
I0703 18:07:19.785003 35396 net.cpp:157] Top shape: 16 512 7 7 (401408)
I0703 18:07:19.785012 35396 net.cpp:165] Memory required for data: 6263599296
I0703 18:07:19.785020 35396 layer_factory.hpp:76] Creating layer conv5_1_2
I0703 18:07:19.785038 35396 net.cpp:106] Creating Layer conv5_1_2
I0703 18:07:19.785048 35396 net.cpp:454] conv5_1_2 <- conv5_1_1_bn
I0703 18:07:19.785059 35396 net.cpp:411] conv5_1_2 -> conv5_1_2
I0703 18:07:19.881620 35396 cudnn_conv_layer.cpp:194] Reallocating workspace storage: 55296
I0703 18:07:19.881680 35396 net.cpp:150] Setting up conv5_1_2
I0703 18:07:19.881696 35396 net.cpp:157] Top shape: 16 512 7 7 (401408)
I0703 18:07:19.881705 35396 net.cpp:165] Memory required for data: 6265204928
I0703 18:07:19.881719 35396 layer_factory.hpp:76] Creating layer conv5_1_2_bn
I0703 18:07:19.881737 35396 net.cpp:106] Creating Layer conv5_1_2_bn
I0703 18:07:19.881748 35396 net.cpp:454] conv5_1_2_bn <- conv5_1_2
I0703 18:07:19.881760 35396 net.cpp:411] conv5_1_2_bn -> conv5_1_2_bn
I0703 18:07:19.882097 35396 net.cpp:150] Setting up conv5_1_2_bn
I0703 18:07:19.882112 35396 net.cpp:157] Top shape: 16 512 7 7 (401408)
I0703 18:07:19.882136 35396 net.cpp:165] Memory required for data: 6266810560
I0703 18:07:19.882150 35396 layer_factory.hpp:76] Creating layer conv5_1_2_relu
I0703 18:07:19.882163 35396 net.cpp:106] Creating Layer conv5_1_2_relu
I0703 18:07:19.882171 35396 net.cpp:454] conv5_1_2_relu <- conv5_1_2_bn
I0703 18:07:19.882182 35396 net.cpp:397] conv5_1_2_relu -> conv5_1_2_bn (in-place)
I0703 18:07:19.882643 35396 net.cpp:150] Setting up conv5_1_2_relu
I0703 18:07:19.882674 35396 net.cpp:157] Top shape: 16 512 7 7 (401408)
I0703 18:07:19.882683 35396 net.cpp:165] Memory required for data: 6268416192
I0703 18:07:19.882691 35396 layer_factory.hpp:76] Creating layer conv5_1_3
I0703 18:07:19.882707 35396 net.cpp:106] Creating Layer conv5_1_3
I0703 18:07:19.882717 35396 net.cpp:454] conv5_1_3 <- conv5_1_2_bn
I0703 18:07:19.882731 35396 net.cpp:411] conv5_1_3 -> conv5_1_3
I0703 18:07:19.926838 35396 cudnn_conv_layer.cpp:194] Reallocating workspace storage: 6144
I0703 18:07:19.926910 35396 net.cpp:150] Setting up conv5_1_3
I0703 18:07:19.926926 35396 net.cpp:157] Top shape: 16 2048 7 7 (1605632)
I0703 18:07:19.926935 35396 net.cpp:165] Memory required for data: 6274838720
I0703 18:07:19.926949 35396 layer_factory.hpp:76] Creating layer conv5_1_sum
I0703 18:07:19.926967 35396 net.cpp:106] Creating Layer conv5_1_sum
I0703 18:07:19.926978 35396 net.cpp:454] conv5_1_sum <- conv4_output
I0703 18:07:19.926990 35396 net.cpp:454] conv5_1_sum <- conv5_1_3
I0703 18:07:19.927000 35396 net.cpp:411] conv5_1_sum -> conv5_1_sum
I0703 18:07:19.927052 35396 net.cpp:150] Setting up conv5_1_sum
I0703 18:07:19.927067 35396 net.cpp:157] Top shape: 16 2048 7 7 (1605632)
I0703 18:07:19.927076 35396 net.cpp:165] Memory required for data: 6281261248
I0703 18:07:19.927083 35396 layer_factory.hpp:76] Creating layer conv5_1_sum_bn
I0703 18:07:19.927098 35396 net.cpp:106] Creating Layer conv5_1_sum_bn
I0703 18:07:19.927148 35396 net.cpp:454] conv5_1_sum_bn <- conv5_1_sum
I0703 18:07:19.927160 35396 net.cpp:411] conv5_1_sum_bn -> conv5_1_sum_bn
I0703 18:07:19.927594 35396 net.cpp:150] Setting up conv5_1_sum_bn
I0703 18:07:19.927610 35396 net.cpp:157] Top shape: 16 2048 7 7 (1605632)
I0703 18:07:19.927634 35396 net.cpp:165] Memory required for data: 6287683776
I0703 18:07:19.927649 35396 layer_factory.hpp:76] Creating layer conv5_1_sum_relu
I0703 18:07:19.927661 35396 net.cpp:106] Creating Layer conv5_1_sum_relu
I0703 18:07:19.927670 35396 net.cpp:454] conv5_1_sum_relu <- conv5_1_sum_bn
I0703 18:07:19.927678 35396 net.cpp:397] conv5_1_sum_relu -> conv5_1_sum_bn (in-place)
I0703 18:07:19.927940 35396 net.cpp:150] Setting up conv5_1_sum_relu
I0703 18:07:19.927969 35396 net.cpp:157] Top shape: 16 2048 7 7 (1605632)
I0703 18:07:19.927978 35396 net.cpp:165] Memory required for data: 6294106304
I0703 18:07:19.927986 35396 layer_factory.hpp:76] Creating layer conv5_1_sum_bn_conv5_1_sum_relu_0_split
I0703 18:07:19.927996 35396 net.cpp:106] Creating Layer conv5_1_sum_bn_conv5_1_sum_relu_0_split
I0703 18:07:19.928005 35396 net.cpp:454] conv5_1_sum_bn_conv5_1_sum_relu_0_split <- conv5_1_sum_bn
I0703 18:07:19.928017 35396 net.cpp:411] conv5_1_sum_bn_conv5_1_sum_relu_0_split -> conv5_1_sum_bn_conv5_1_sum_relu_0_split_0
I0703 18:07:19.928028 35396 net.cpp:411] conv5_1_sum_bn_conv5_1_sum_relu_0_split -> conv5_1_sum_bn_conv5_1_sum_relu_0_split_1
I0703 18:07:19.928102 35396 net.cpp:150] Setting up conv5_1_sum_bn_conv5_1_sum_relu_0_split
I0703 18:07:19.928115 35396 net.cpp:157] Top shape: 16 2048 7 7 (1605632)
I0703 18:07:19.928124 35396 net.cpp:157] Top shape: 16 2048 7 7 (1605632)
I0703 18:07:19.928133 35396 net.cpp:165] Memory required for data: 6306951360
I0703 18:07:19.928140 35396 layer_factory.hpp:76] Creating layer conv5_2_1
I0703 18:07:19.928155 35396 net.cpp:106] Creating Layer conv5_2_1
I0703 18:07:19.928164 35396 net.cpp:454] conv5_2_1 <- conv5_1_sum_bn_conv5_1_sum_relu_0_split_0
I0703 18:07:19.928177 35396 net.cpp:411] conv5_2_1 -> conv5_2_1
I0703 18:07:19.972132 35396 cudnn_conv_layer.cpp:194] Reallocating workspace storage: 19267584
I0703 18:07:19.972456 35396 net.cpp:150] Setting up conv5_2_1
I0703 18:07:19.972492 35396 net.cpp:157] Top shape: 16 512 7 7 (401408)
I0703 18:07:19.972501 35396 net.cpp:165] Memory required for data: 6308556992
I0703 18:07:19.972519 35396 layer_factory.hpp:76] Creating layer conv5_2_1_bn
I0703 18:07:19.972537 35396 net.cpp:106] Creating Layer conv5_2_1_bn
I0703 18:07:19.972548 35396 net.cpp:454] conv5_2_1_bn <- conv5_2_1
I0703 18:07:19.972560 35396 net.cpp:411] conv5_2_1_bn -> conv5_2_1_bn
I0703 18:07:19.972904 35396 net.cpp:150] Setting up conv5_2_1_bn
I0703 18:07:19.972932 35396 net.cpp:157] Top shape: 16 512 7 7 (401408)
I0703 18:07:19.972940 35396 net.cpp:165] Memory required for data: 6310162624
I0703 18:07:19.972954 35396 layer_factory.hpp:76] Creating layer conv5_2_1_relu
I0703 18:07:19.972965 35396 net.cpp:106] Creating Layer conv5_2_1_relu
I0703 18:07:19.972975 35396 net.cpp:454] conv5_2_1_relu <- conv5_2_1_bn
I0703 18:07:19.972985 35396 net.cpp:397] conv5_2_1_relu -> conv5_2_1_bn (in-place)
I0703 18:07:19.973464 35396 net.cpp:150] Setting up conv5_2_1_relu
I0703 18:07:19.973496 35396 net.cpp:157] Top shape: 16 512 7 7 (401408)
I0703 18:07:19.973505 35396 net.cpp:165] Memory required for data: 6311768256
I0703 18:07:19.973513 35396 layer_factory.hpp:76] Creating layer conv5_2_2
I0703 18:07:19.973529 35396 net.cpp:106] Creating Layer conv5_2_2
I0703 18:07:19.973539 35396 net.cpp:454] conv5_2_2 <- conv5_2_1_bn
I0703 18:07:19.973552 35396 net.cpp:411] conv5_2_2 -> conv5_2_2
I0703 18:07:20.070088 35396 cudnn_conv_layer.cpp:194] Reallocating workspace storage: 55296
I0703 18:07:20.070147 35396 net.cpp:150] Setting up conv5_2_2
I0703 18:07:20.070163 35396 net.cpp:157] Top shape: 16 512 7 7 (401408)
I0703 18:07:20.070173 35396 net.cpp:165] Memory required for data: 6313373888
I0703 18:07:20.070186 35396 layer_factory.hpp:76] Creating layer conv5_2_2_bn
I0703 18:07:20.070204 35396 net.cpp:106] Creating Layer conv5_2_2_bn
I0703 18:07:20.070247 35396 net.cpp:454] conv5_2_2_bn <- conv5_2_2
I0703 18:07:20.070263 35396 net.cpp:411] conv5_2_2_bn -> conv5_2_2_bn
I0703 18:07:20.070612 35396 net.cpp:150] Setting up conv5_2_2_bn
I0703 18:07:20.070641 35396 net.cpp:157] Top shape: 16 512 7 7 (401408)
I0703 18:07:20.070648 35396 net.cpp:165] Memory required for data: 6314979520
I0703 18:07:20.070662 35396 layer_factory.hpp:76] Creating layer conv5_2_2_relu
I0703 18:07:20.070675 35396 net.cpp:106] Creating Layer conv5_2_2_relu
I0703 18:07:20.070684 35396 net.cpp:454] conv5_2_2_relu <- conv5_2_2_bn
I0703 18:07:20.070693 35396 net.cpp:397] conv5_2_2_relu -> conv5_2_2_bn (in-place)
I0703 18:07:20.071182 35396 net.cpp:150] Setting up conv5_2_2_relu
I0703 18:07:20.071203 35396 net.cpp:157] Top shape: 16 512 7 7 (401408)
I0703 18:07:20.071211 35396 net.cpp:165] Memory required for data: 6316585152
I0703 18:07:20.071221 35396 layer_factory.hpp:76] Creating layer conv5_2_3
I0703 18:07:20.071238 35396 net.cpp:106] Creating Layer conv5_2_3
I0703 18:07:20.071246 35396 net.cpp:454] conv5_2_3 <- conv5_2_2_bn
I0703 18:07:20.071260 35396 net.cpp:411] conv5_2_3 -> conv5_2_3
I0703 18:07:20.115336 35396 cudnn_conv_layer.cpp:194] Reallocating workspace storage: 6144
I0703 18:07:20.115406 35396 net.cpp:150] Setting up conv5_2_3
I0703 18:07:20.115422 35396 net.cpp:157] Top shape: 16 2048 7 7 (1605632)
I0703 18:07:20.115432 35396 net.cpp:165] Memory required for data: 6323007680
I0703 18:07:20.115445 35396 layer_factory.hpp:76] Creating layer conv5_2_sum
I0703 18:07:20.115461 35396 net.cpp:106] Creating Layer conv5_2_sum
I0703 18:07:20.115473 35396 net.cpp:454] conv5_2_sum <- conv5_1_sum_bn_conv5_1_sum_relu_0_split_1
I0703 18:07:20.115483 35396 net.cpp:454] conv5_2_sum <- conv5_2_3
I0703 18:07:20.115496 35396 net.cpp:411] conv5_2_sum -> conv5_2_sum
I0703 18:07:20.115551 35396 net.cpp:150] Setting up conv5_2_sum
I0703 18:07:20.115566 35396 net.cpp:157] Top shape: 16 2048 7 7 (1605632)
I0703 18:07:20.115574 35396 net.cpp:165] Memory required for data: 6329430208
I0703 18:07:20.115582 35396 layer_factory.hpp:76] Creating layer conv5_2_sum_bn
I0703 18:07:20.115594 35396 net.cpp:106] Creating Layer conv5_2_sum_bn
I0703 18:07:20.115602 35396 net.cpp:454] conv5_2_sum_bn <- conv5_2_sum
I0703 18:07:20.115614 35396 net.cpp:411] conv5_2_sum_bn -> conv5_2_sum_bn
I0703 18:07:20.116056 35396 net.cpp:150] Setting up conv5_2_sum_bn
I0703 18:07:20.116083 35396 net.cpp:157] Top shape: 16 2048 7 7 (1605632)
I0703 18:07:20.116092 35396 net.cpp:165] Memory required for data: 6335852736
I0703 18:07:20.116106 35396 layer_factory.hpp:76] Creating layer conv5_2_sum_relu
I0703 18:07:20.116120 35396 net.cpp:106] Creating Layer conv5_2_sum_relu
I0703 18:07:20.116129 35396 net.cpp:454] conv5_2_sum_relu <- conv5_2_sum_bn
I0703 18:07:20.116139 35396 net.cpp:397] conv5_2_sum_relu -> conv5_2_sum_bn (in-place)
I0703 18:07:20.116400 35396 net.cpp:150] Setting up conv5_2_sum_relu
I0703 18:07:20.116435 35396 net.cpp:157] Top shape: 16 2048 7 7 (1605632)
I0703 18:07:20.116443 35396 net.cpp:165] Memory required for data: 6342275264
I0703 18:07:20.116458 35396 layer_factory.hpp:76] Creating layer conv5_2_sum_bn_conv5_2_sum_relu_0_split
I0703 18:07:20.116472 35396 net.cpp:106] Creating Layer conv5_2_sum_bn_conv5_2_sum_relu_0_split
I0703 18:07:20.116480 35396 net.cpp:454] conv5_2_sum_bn_conv5_2_sum_relu_0_split <- conv5_2_sum_bn
I0703 18:07:20.116490 35396 net.cpp:411] conv5_2_sum_bn_conv5_2_sum_relu_0_split -> conv5_2_sum_bn_conv5_2_sum_relu_0_split_0
I0703 18:07:20.116504 35396 net.cpp:411] conv5_2_sum_bn_conv5_2_sum_relu_0_split -> conv5_2_sum_bn_conv5_2_sum_relu_0_split_1
I0703 18:07:20.116580 35396 net.cpp:150] Setting up conv5_2_sum_bn_conv5_2_sum_relu_0_split
I0703 18:07:20.116595 35396 net.cpp:157] Top shape: 16 2048 7 7 (1605632)
I0703 18:07:20.116605 35396 net.cpp:157] Top shape: 16 2048 7 7 (1605632)
I0703 18:07:20.116611 35396 net.cpp:165] Memory required for data: 6355120320
I0703 18:07:20.116619 35396 layer_factory.hpp:76] Creating layer conv5_3_1
I0703 18:07:20.116634 35396 net.cpp:106] Creating Layer conv5_3_1
I0703 18:07:20.116674 35396 net.cpp:454] conv5_3_1 <- conv5_2_sum_bn_conv5_2_sum_relu_0_split_0
I0703 18:07:20.116689 35396 net.cpp:411] conv5_3_1 -> conv5_3_1
I0703 18:07:20.163262 35396 cudnn_conv_layer.cpp:194] Reallocating workspace storage: 19267584
I0703 18:07:20.163581 35396 net.cpp:150] Setting up conv5_3_1
I0703 18:07:20.163615 35396 net.cpp:157] Top shape: 16 512 7 7 (401408)
I0703 18:07:20.163625 35396 net.cpp:165] Memory required for data: 6356725952
I0703 18:07:20.163640 35396 layer_factory.hpp:76] Creating layer conv5_3_1_bn
I0703 18:07:20.163658 35396 net.cpp:106] Creating Layer conv5_3_1_bn
I0703 18:07:20.163671 35396 net.cpp:454] conv5_3_1_bn <- conv5_3_1
I0703 18:07:20.163684 35396 net.cpp:411] conv5_3_1_bn -> conv5_3_1_bn
I0703 18:07:20.164038 35396 net.cpp:150] Setting up conv5_3_1_bn
I0703 18:07:20.164067 35396 net.cpp:157] Top shape: 16 512 7 7 (401408)
I0703 18:07:20.164075 35396 net.cpp:165] Memory required for data: 6358331584
I0703 18:07:20.164090 35396 layer_factory.hpp:76] Creating layer conv5_3_1_relu
I0703 18:07:20.164103 35396 net.cpp:106] Creating Layer conv5_3_1_relu
I0703 18:07:20.164111 35396 net.cpp:454] conv5_3_1_relu <- conv5_3_1_bn
I0703 18:07:20.164121 35396 net.cpp:397] conv5_3_1_relu -> conv5_3_1_bn (in-place)
I0703 18:07:20.164841 35396 net.cpp:150] Setting up conv5_3_1_relu
I0703 18:07:20.164873 35396 net.cpp:157] Top shape: 16 512 7 7 (401408)
I0703 18:07:20.164882 35396 net.cpp:165] Memory required for data: 6359937216
I0703 18:07:20.164891 35396 layer_factory.hpp:76] Creating layer conv5_3_2
I0703 18:07:20.164907 35396 net.cpp:106] Creating Layer conv5_3_2
I0703 18:07:20.164917 35396 net.cpp:454] conv5_3_2 <- conv5_3_1_bn
I0703 18:07:20.164929 35396 net.cpp:411] conv5_3_2 -> conv5_3_2
I0703 18:07:20.268821 35396 cudnn_conv_layer.cpp:194] Reallocating workspace storage: 55296
I0703 18:07:20.268887 35396 net.cpp:150] Setting up conv5_3_2
I0703 18:07:20.268903 35396 net.cpp:157] Top shape: 16 512 7 7 (401408)
I0703 18:07:20.268911 35396 net.cpp:165] Memory required for data: 6361542848
I0703 18:07:20.268925 35396 layer_factory.hpp:76] Creating layer conv5_3_2_bn
I0703 18:07:20.268945 35396 net.cpp:106] Creating Layer conv5_3_2_bn
I0703 18:07:20.268956 35396 net.cpp:454] conv5_3_2_bn <- conv5_3_2
I0703 18:07:20.268970 35396 net.cpp:411] conv5_3_2_bn -> conv5_3_2_bn
I0703 18:07:20.269326 35396 net.cpp:150] Setting up conv5_3_2_bn
I0703 18:07:20.269354 35396 net.cpp:157] Top shape: 16 512 7 7 (401408)
I0703 18:07:20.269362 35396 net.cpp:165] Memory required for data: 6363148480
I0703 18:07:20.269376 35396 layer_factory.hpp:76] Creating layer conv5_3_2_relu
I0703 18:07:20.269387 35396 net.cpp:106] Creating Layer conv5_3_2_relu
I0703 18:07:20.269397 35396 net.cpp:454] conv5_3_2_relu <- conv5_3_2_bn
I0703 18:07:20.269405 35396 net.cpp:397] conv5_3_2_relu -> conv5_3_2_bn (in-place)
I0703 18:07:20.269879 35396 net.cpp:150] Setting up conv5_3_2_relu
I0703 18:07:20.269912 35396 net.cpp:157] Top shape: 16 512 7 7 (401408)
I0703 18:07:20.269920 35396 net.cpp:165] Memory required for data: 6364754112
I0703 18:07:20.269932 35396 layer_factory.hpp:76] Creating layer conv5_3_3
I0703 18:07:20.269948 35396 net.cpp:106] Creating Layer conv5_3_3
I0703 18:07:20.269958 35396 net.cpp:454] conv5_3_3 <- conv5_3_2_bn
I0703 18:07:20.269970 35396 net.cpp:411] conv5_3_3 -> conv5_3_3
I0703 18:07:20.316767 35396 cudnn_conv_layer.cpp:194] Reallocating workspace storage: 6144
I0703 18:07:20.316843 35396 net.cpp:150] Setting up conv5_3_3
I0703 18:07:20.316859 35396 net.cpp:157] Top shape: 16 2048 7 7 (1605632)
I0703 18:07:20.316869 35396 net.cpp:165] Memory required for data: 6371176640
I0703 18:07:20.316882 35396 layer_factory.hpp:76] Creating layer conv5_3_sum
I0703 18:07:20.316900 35396 net.cpp:106] Creating Layer conv5_3_sum
I0703 18:07:20.316910 35396 net.cpp:454] conv5_3_sum <- conv5_2_sum_bn_conv5_2_sum_relu_0_split_1
I0703 18:07:20.316925 35396 net.cpp:454] conv5_3_sum <- conv5_3_3
I0703 18:07:20.316936 35396 net.cpp:411] conv5_3_sum -> conv5_3_sum
I0703 18:07:20.316994 35396 net.cpp:150] Setting up conv5_3_sum
I0703 18:07:20.317061 35396 net.cpp:157] Top shape: 16 2048 7 7 (1605632)
I0703 18:07:20.317073 35396 net.cpp:165] Memory required for data: 6377599168
I0703 18:07:20.317082 35396 layer_factory.hpp:76] Creating layer conv5_3_sum_bn
I0703 18:07:20.317097 35396 net.cpp:106] Creating Layer conv5_3_sum_bn
I0703 18:07:20.317106 35396 net.cpp:454] conv5_3_sum_bn <- conv5_3_sum
I0703 18:07:20.317118 35396 net.cpp:411] conv5_3_sum_bn -> conv5_3_sum_bn
I0703 18:07:20.318156 35396 net.cpp:150] Setting up conv5_3_sum_bn
I0703 18:07:20.318188 35396 net.cpp:157] Top shape: 16 2048 7 7 (1605632)
I0703 18:07:20.318197 35396 net.cpp:165] Memory required for data: 6384021696
I0703 18:07:20.318210 35396 layer_factory.hpp:76] Creating layer conv5_3_sum_relu
I0703 18:07:20.318224 35396 net.cpp:106] Creating Layer conv5_3_sum_relu
I0703 18:07:20.318234 35396 net.cpp:454] conv5_3_sum_relu <- conv5_3_sum_bn
I0703 18:07:20.318244 35396 net.cpp:397] conv5_3_sum_relu -> conv5_3_sum_bn (in-place)
I0703 18:07:20.318512 35396 net.cpp:150] Setting up conv5_3_sum_relu
I0703 18:07:20.318542 35396 net.cpp:157] Top shape: 16 2048 7 7 (1605632)
I0703 18:07:20.318550 35396 net.cpp:165] Memory required for data: 6390444224
I0703 18:07:20.318560 35396 layer_factory.hpp:76] Creating layer pool2
I0703 18:07:20.318574 35396 net.cpp:106] Creating Layer pool2
I0703 18:07:20.318583 35396 net.cpp:454] pool2 <- conv5_3_sum_bn
I0703 18:07:20.318593 35396 net.cpp:411] pool2 -> pool2
I0703 18:07:20.319088 35396 net.cpp:150] Setting up pool2
I0703 18:07:20.319121 35396 net.cpp:157] Top shape: 16 2048 1 1 (32768)
I0703 18:07:20.319130 35396 net.cpp:165] Memory required for data: 6390575296
I0703 18:07:20.319139 35396 layer_factory.hpp:76] Creating layer fc
I0703 18:07:20.319154 35396 net.cpp:106] Creating Layer fc
I0703 18:07:20.319162 35396 net.cpp:454] fc <- pool2
I0703 18:07:20.319175 35396 net.cpp:411] fc -> fc
I0703 18:07:20.319510 35396 net.cpp:150] Setting up fc
I0703 18:07:20.319537 35396 net.cpp:157] Top shape: 16 2 (32)
I0703 18:07:20.319546 35396 net.cpp:165] Memory required for data: 6390575424
I0703 18:07:20.319557 35396 layer_factory.hpp:76] Creating layer fc_fc_0_split
I0703 18:07:20.319571 35396 net.cpp:106] Creating Layer fc_fc_0_split
I0703 18:07:20.319581 35396 net.cpp:454] fc_fc_0_split <- fc
I0703 18:07:20.319591 35396 net.cpp:411] fc_fc_0_split -> fc_fc_0_split_0
I0703 18:07:20.319602 35396 net.cpp:411] fc_fc_0_split -> fc_fc_0_split_1
I0703 18:07:20.319648 35396 net.cpp:150] Setting up fc_fc_0_split
I0703 18:07:20.319661 35396 net.cpp:157] Top shape: 16 2 (32)
I0703 18:07:20.319670 35396 net.cpp:157] Top shape: 16 2 (32)
I0703 18:07:20.319679 35396 net.cpp:165] Memory required for data: 6390575680
I0703 18:07:20.319687 35396 layer_factory.hpp:76] Creating layer loss
I0703 18:07:20.319699 35396 net.cpp:106] Creating Layer loss
I0703 18:07:20.319707 35396 net.cpp:454] loss <- fc_fc_0_split_0
I0703 18:07:20.319716 35396 net.cpp:454] loss <- label_data_1_split_0
I0703 18:07:20.319727 35396 net.cpp:411] loss -> loss
…
