…
I0703 18:09:33.599236 35406 net.cpp:322] The NetState phase (0) differed from the phase (1) specified by a rule in layer acc/top-1
I0703 18:09:33.601642 35406 net.cpp:49] Initializing net from parameters: 
name: "ResNet-20"
state {
  phase: TRAIN
}
layer {
  name: "data"
  type: "ImageData"
  top: "data"
  top: "label"
  include {
    phase: TRAIN
  }
  transform_param {
    mirror: true
    crop_size: 224
    mean_value: 104
    mean_value: 117
    mean_value: 123
  }
  image_data_param {
    source: "../lists/roi-train.lst"
    batch_size: 8
    shuffle: true
    new_height: 256
    new_width: 256
  }
}
layer {
  name: "conv1"
  type: "Convolution"
  bottom: "data"
  top: "conv1"
  param {
    lr_mult: 1
    decay_mult: 1
  }
  param {
    lr_mult: 2
    decay_mult: 0
  }
  convolution_param {
    num_output: 64
    pad: 0
    kernel_size: 7
    stride: 2
    weight_filler {
      type: "msra"
    }
    bias_filler {
      type: "constant"
      value: 0
    }
  }
}
layer {
  name: "conv1_bn"
  type: "BatchNorm"
  bottom: "conv1"
  top: "conv1_bn"
  param {
    lr_mult: 0
  }
  param {
    lr_mult: 0
  }
  param {
    lr_mult: 0
  }
}
layer {
  name: "conv1_relu"
  type: "ReLU"
  bottom: "conv1_bn"
  top: "conv1_bn"
}
layer {
  name: "pool1"
  type: "Pooling"
  bottom: "conv1_bn"
  top: "pool1"
  pooling_param {
    pool: MAX
    kernel_size: 3
    stride: 2
  }
}
layer {
  name: "conv1_output"
  type: "Convolution"
  bottom: "pool1"
  top: "conv1_output"
  param {
    lr_mult: 1
    decay_mult: 1
  }
  param {
    lr_mult: 2
    decay_mult: 0
  }
  convolution_param {
    num_output: 256
    pad: 0
    kernel_size: 1
    stride: 1
    weight_filler {
      type: "msra"
    }
    bias_filler {
      type: "constant"
      value: 0
    }
  }
}
layer {
  name: "conv2_1_1"
  type: "Convolution"
  bottom: "pool1"
  top: "conv2_1_1"
  param {
    lr_mult: 1
    decay_mult: 1
  }
  param {
    lr_mult: 2
    decay_mult: 0
  }
  convolution_param {
    num_output: 64
    pad: 0
    kernel_size: 1
    stride: 1
    weight_filler {
      type: "msra"
    }
    bias_filler {
      type: "constant"
      value: 0
    }
  }
}
layer {
  name: "conv2_1_1_bn"
  type: "BatchNorm"
  bottom: "conv2_1_1"
  top: "conv2_1_1_bn"
  param {
    lr_mult: 0
  }
  param {
    lr_mult: 0
  }
  param {
    lr_mult: 0
  }
}
layer {
  name: "conv2_1_1_relu"
  type: "ReLU"
  bottom: "conv2_1_1_bn"
  top: "conv2_1_1_bn"
}
layer {
  name: "conv2_1_2"
  type: "Convolution"
  bottom: "conv2_1_1_bn"
  top: "conv2_1_2"
  param {
    lr_mult: 1
    decay_mult: 1
  }
  param {
    lr_mult: 2
    decay_mult: 0
  }
  convolution_param {
    num_output: 64
    pad: 1
    kernel_size: 3
    stride: 1
    weight_filler {
      type: "msra"
    }
    bias_filler {
      type: "constant"
      value: 0
    }
  }
}
layer {
  name: "conv2_1_2_bn"
  type: "BatchNorm"
  bottom: "conv2_1_2"
  top: "conv2_1_2_bn"
  param {
    lr_mult: 0
  }
  param {
    lr_mult: 0
  }
  param {
    lr_mult: 0
  }
}
layer {
  name: "conv2_1_2_relu"
  type: "ReLU"
  bottom: "conv2_1_2_bn"
  top: "conv2_1_2_bn"
}
layer {
  name: "conv2_1_3"
  type: "Convolution"
  bottom: "conv2_1_2_bn"
  top: "conv2_1_3"
  param {
    lr_mult: 1
    decay_mult: 1
  }
  param {
    lr_mult: 2
    decay_mult: 0
  }
  convolution_param {
    num_output: 256
    pad: 0
    kernel_size: 1
    stride: 1
    weight_filler {
      type: "msra"
    }
    bias_filler {
      type: "constant"
      value: 0
    }
  }
}
layer {
  name: "conv2_1_sum"
  type: "Eltwise"
  bottom: "conv1_output"
  bottom: "conv2_1_3"
  top: "conv2_1_sum"
  eltwise_param {
    operation: SUM
  }
}
layer {
  name: "conv2_1_sum_bn"
  type: "BatchNorm"
  bottom: "conv2_1_sum"
  top: "conv2_1_sum_bn"
  param {
    lr_mult: 0
  }
  param {
    lr_mult: 0
  }
  param {
    lr_mult: 0
  }
}
layer {
  name: "conv2_1_sum_relu"
  type: "ReLU"
  bottom: "conv2_1_sum_bn"
  top: "conv2_1_sum_bn"
}
layer {
  name: "conv2_2_1"
  type: "Convolution"
  bottom: "conv2_1_sum_bn"
  top: "conv2_2_1"
  param {
    lr_mult: 1
    decay_mult: 1
  }
  param {
    lr_mult: 2
    decay_mult: 0
  }
  convolution_param {
    num_output: 64
    pad: 0
    kernel_size: 1
    stride: 1
    weight_filler {
      type: "msra"
    }
    bias_filler {
      type: "constant"
      value: 0
    }
  }
}
layer {
  name: "conv2_2_1_bn"
  type: "BatchNorm"
  bottom: "conv2_2_1"
  top: "conv2_2_1_bn"
  param {
    lr_mult: 0
  }
  param {
    lr_mult: 0
  }
  param {
    lr_mult: 0
  }
}
layer {
  name: "conv2_2_1_relu"
  type: "ReLU"
  bottom: "conv2_2_1_bn"
  top: "conv2_2_1_bn"
}
layer {
  name: "conv2_2_2"
  type: "Convolution"
  bottom: "conv2_2_1_bn"
  top: "conv2_2_2"
  param {
    lr_mult: 1
    decay_mult: 1
  }
  param {
    lr_mult: 2
    decay_mult: 0
  }
  convolution_param {
    num_output: 64
    pad: 1
    kernel_size: 3
    stride: 1
    weight_filler {
      type: "msra"
    }
    bias_filler {
      type: "constant"
      value: 0
    }
  }
}
layer {
  name: "conv2_2_2_bn"
  type: "BatchNorm"
  bottom: "conv2_2_2"
  top: "conv2_2_2_bn"
  param {
    lr_mult: 0
  }
  param {
    lr_mult: 0
  }
  param {
    lr_mult: 0
  }
}
layer {
  name: "conv2_2_2_relu"
  type: "ReLU"
  bottom: "conv2_2_2_bn"
  top: "conv2_2_2_bn"
}
layer {
  name: "conv2_2_3"
  type: "Convolution"
  bottom: "conv2_2_2_bn"
  top: "conv2_2_3"
  param {
    lr_mult: 1
    decay_mult: 1
  }
  param {
    lr_mult: 2
    decay_mult: 0
  }
  convolution_param {
    num_output: 256
    pad: 0
    kernel_size: 1
    stride: 1
    weight_filler {
      type: "msra"
    }
    bias_filler {
      type: "constant"
      value: 0
    }
  }
}
layer {
  name: "conv2_2_sum"
  type: "Eltwise"
  bottom: "conv2_1_sum_bn"
  bottom: "conv2_2_3"
  top: "conv2_2_sum"
  eltwise_param {
    operation: SUM
  }
}
layer {
  name: "conv2_2_sum_bn"
  type: "BatchNorm"
  bottom: "conv2_2_sum"
  top: "conv2_2_sum_bn"
  param {
    lr_mult: 0
  }
  param {
    lr_mult: 0
  }
  param {
    lr_mult: 0
  }
}
layer {
  name: "conv2_2_sum_relu"
  type: "ReLU"
  bottom: "conv2_2_sum_bn"
  top: "conv2_2_sum_bn"
}
layer {
  name: "conv2_3_1"
  type: "Convolution"
  bottom: "conv2_2_sum_bn"
  top: "conv2_3_1"
  param {
    lr_mult: 1
    decay_mult: 1
  }
  param {
    lr_mult: 2
    decay_mult: 0
  }
  convolution_param {
    num_output: 64
    pad: 0
    kernel_size: 1
    stride: 1
    weight_filler {
      type: "msra"
    }
    bias_filler {
      type: "constant"
      value: 0
    }
  }
}
layer {
  name: "conv2_3_1_bn"
  type: "BatchNorm"
  bottom: "conv2_3_1"
  top: "conv2_3_1_bn"
  param {
    lr_mult: 0
  }
  param {
    lr_mult: 0
  }
  param {
    lr_mult: 0
  }
}
layer {
  name: "conv2_3_1_relu"
  type: "ReLU"
  bottom: "conv2_3_1_bn"
  top: "conv2_3_1_bn"
}
layer {
  name: "conv2_3_2"
  type: "Convolution"
  bottom: "conv2_3_1_bn"
  top: "conv2_3_2"
  param {
    lr_mult: 1
    decay_mult: 1
  }
  param {
    lr_mult: 2
    decay_mult: 0
  }
  convolution_param {
    num_output: 64
    pad: 1
    kernel_size: 3
    stride: 1
    weight_filler {
      type: "msra"
    }
    bias_filler {
      type: "constant"
      value: 0
    }
  }
}
layer {
  name: "conv2_3_2_bn"
  type: "BatchNorm"
  bottom: "conv2_3_2"
  top: "conv2_3_2_bn"
  param {
    lr_mult: 0
  }
  param {
    lr_mult: 0
  }
  param {
    lr_mult: 0
  }
}
layer {
  name: "conv2_3_2_relu"
  type: "ReLU"
  bottom: "conv2_3_2_bn"
  top: "conv2_3_2_bn"
}
layer {
  name: "conv2_3_3"
  type: "Convolution"
  bottom: "conv2_3_2_bn"
  top: "conv2_3_3"
  param {
    lr_mult: 1
    decay_mult: 1
  }
  param {
    lr_mult: 2
    decay_mult: 0
  }
  convolution_param {
    num_output: 256
    pad: 0
    kernel_size: 1
    stride: 1
    weight_filler {
      type: "msra"
    }
    bias_filler {
      type: "constant"
      value: 0
    }
  }
}
layer {
  name: "conv2_3_sum"
  type: "Eltwise"
  bottom: "conv2_2_sum_bn"
  bottom: "conv2_3_3"
  top: "conv2_3_sum"
  eltwise_param {
    operation: SUM
  }
}
layer {
  name: "conv2_3_sum_bn"
  type: "BatchNorm"
  bottom: "conv2_3_sum"
  top: "conv2_3_sum_bn"
  param {
    lr_mult: 0
  }
  param {
    lr_mult: 0
  }
  param {
    lr_mult: 0
  }
}
layer {
  name: "conv2_3_sum_relu"
  type: "ReLU"
  bottom: "conv2_3_sum_bn"
  top: "conv2_3_sum_bn"
}
layer {
  name: "conv2_output"
  type: "Convolution"
  bottom: "conv2_3_sum_bn"
  top: "conv2_output"
  param {
    lr_mult: 1
    decay_mult: 1
  }
  param {
    lr_mult: 2
    decay_mult: 0
  }
  convolution_param {
    num_output: 512
    pad: 0
    kernel_size: 1
    stride: 2
    weight_filler {
      type: "msra"
    }
    bias_filler {
      type: "constant"
      value: 0
    }
  }
}
layer {
  name: "conv3_1_1"
  type: "Convolution"
  bottom: "conv2_3_sum_bn"
  top: "conv3_1_1"
  param {
    lr_mult: 1
    decay_mult: 1
  }
  param {
    lr_mult: 2
    decay_mult: 0
  }
  convolution_param {
    num_output: 128
    pad: 0
    kernel_size: 1
    stride: 2
    weight_filler {
      type: "msra"
    }
    bias_filler {
      type: "constant"
      value: 0
    }
  }
}
layer {
  name: "conv3_1_1_bn"
  type: "BatchNorm"
  bottom: "conv3_1_1"
  top: "conv3_1_1_bn"
  param {
    lr_mult: 0
  }
  param {
    lr_mult: 0
  }
  param {
    lr_mult: 0
  }
}
layer {
  name: "conv3_1_1_relu"
  type: "ReLU"
  bottom: "conv3_1_1_bn"
  top: "conv3_1_1_bn"
}
layer {
  name: "conv3_1_2"
  type: "Convolution"
  bottom: "conv3_1_1_bn"
  top: "conv3_1_2"
  param {
    lr_mult: 1
    decay_mult: 1
  }
  param {
    lr_mult: 2
    decay_mult: 0
  }
  convolution_param {
    num_output: 128
    pad: 1
    kernel_size: 3
    stride: 1
    weight_filler {
      type: "msra"
    }
    bias_filler {
      type: "constant"
      value: 0
    }
  }
}
layer {
  name: "conv3_1_2_bn"
  type: "BatchNorm"
  bottom: "conv3_1_2"
  top: "conv3_1_2_bn"
  param {
    lr_mult: 0
  }
  param {
    lr_mult: 0
  }
  param {
    lr_mult: 0
  }
}
layer {
  name: "conv3_1_2_relu"
  type: "ReLU"
  bottom: "conv3_1_2_bn"
  top: "conv3_1_2_bn"
}
layer {
  name: "conv3_1_3"
  type: "Convolution"
  bottom: "conv3_1_2_bn"
  top: "conv3_1_3"
  param {
    lr_mult: 1
    decay_mult: 1
  }
  param {
    lr_mult: 2
    decay_mult: 0
  }
  convolution_param {
    num_output: 512
    pad: 0
    kernel_size: 1
    stride: 1
    weight_filler {
      type: "msra"
    }
    bias_filler {
      type: "constant"
      value: 0
    }
  }
}
layer {
  name: "conv3_1_sum"
  type: "Eltwise"
  bottom: "conv2_output"
  bottom: "conv3_1_3"
  top: "conv3_1_sum"
  eltwise_param {
    operation: SUM
  }
}
layer {
  name: "conv3_1_sum_bn"
  type: "BatchNorm"
  bottom: "conv3_1_sum"
  top: "conv3_1_sum_bn"
  param {
    lr_mult: 0
  }
  param {
    lr_mult: 0
  }
  param {
    lr_mult: 0
  }
}
layer {
  name: "conv3_1_sum_relu"
  type: "ReLU"
  bottom: "conv3_1_sum_bn"
  top: "conv3_1_sum_bn"
}
layer {
  name: "conv3_2_1"
  type: "Convolution"
  bottom: "conv3_1_sum_bn"
  top: "conv3_2_1"
  param {
    lr_mult: 1
    decay_mult: 1
  }
  param {
    lr_mult: 2
    decay_mult: 0
  }
  convolution_param {
    num_output: 128
    pad: 0
    kernel_size: 1
    stride: 1
    weight_filler {
      type: "msra"
    }
    bias_filler {
      type: "constant"
      value: 0
    }
  }
}
layer {
  name: "conv3_2_1_bn"
  type: "BatchNorm"
  bottom: "conv3_2_1"
  top: "conv3_2_1_bn"
  param {
    lr_mult: 0
  }
  param {
    lr_mult: 0
  }
  param {
    lr_mult: 0
  }
}
layer {
  name: "conv3_2_1_relu"
  type: "ReLU"
  bottom: "conv3_2_1_bn"
  top: "conv3_2_1_bn"
}
layer {
  name: "conv3_2_2"
  type: "Convolution"
  bottom: "conv3_2_1_bn"
  top: "conv3_2_2"
  param {
    lr_mult: 1
    decay_mult: 1
  }
  param {
    lr_mult: 2
    decay_mult: 0
  }
  convolution_param {
    num_output: 128
    pad: 1
    kernel_size: 3
    stride: 1
    weight_filler {
      type: "msra"
    }
    bias_filler {
      type: "constant"
      value: 0
    }
  }
}
layer {
  name: "conv3_2_2_bn"
  type: "BatchNorm"
  bottom: "conv3_2_2"
  top: "conv3_2_2_bn"
  param {
    lr_mult: 0
  }
  param {
    lr_mult: 0
  }
  param {
    lr_mult: 0
  }
}
layer {
  name: "conv3_2_2_relu"
  type: "ReLU"
  bottom: "conv3_2_2_bn"
  top: "conv3_2_2_bn"
}
layer {
  name: "conv3_2_3"
  type: "Convolution"
  bottom: "conv3_2_2_bn"
  top: "conv3_2_3"
  param {
    lr_mult: 1
    decay_mult: 1
  }
  param {
    lr_mult: 2
    decay_mult: 0
  }
  convolution_param {
    num_output: 512
    pad: 0
    kernel_size: 1
    stride: 1
    weight_filler {
      type: "msra"
    }
    bias_filler {
      type: "constant"
      value: 0
    }
  }
}
layer {
  name: "conv3_2_sum"
  type: "Eltwise"
  bottom: "conv3_1_sum_bn"
  bottom: "conv3_2_3"
  top: "conv3_2_sum"
  eltwise_param {
    operation: SUM
  }
}
layer {
  name: "conv3_2_sum_bn"
  type: "BatchNorm"
  bottom: "conv3_2_sum"
  top: "conv3_2_sum_bn"
  param {
    lr_mult: 0
  }
  param {
    lr_mult: 0
  }
  param {
    lr_mult: 0
  }
}
layer {
  name: "conv3_2_sum_relu"
  type: "ReLU"
  bottom: "conv3_2_sum_bn"
  top: "conv3_2_sum_bn"
}
layer {
  name: "conv3_3_1"
  type: "Convolution"
  bottom: "conv3_2_sum_bn"
  top: "conv3_3_1"
  param {
    lr_mult: 1
    decay_mult: 1
  }
  param {
    lr_mult: 2
    decay_mult: 0
  }
  convolution_param {
    num_output: 128
    pad: 0
    kernel_size: 1
    stride: 1
    weight_filler {
      type: "msra"
    }
    bias_filler {
      type: "constant"
      value: 0
    }
  }
}
layer {
  name: "conv3_3_1_bn"
  type: "BatchNorm"
  bottom: "conv3_3_1"
  top: "conv3_3_1_bn"
  param {
    lr_mult: 0
  }
  param {
    lr_mult: 0
  }
  param {
    lr_mult: 0
  }
}
layer {
  name: "conv3_3_1_relu"
  type: "ReLU"
  bottom: "conv3_3_1_bn"
  top: "conv3_3_1_bn"
}
layer {
  name: "conv3_3_2"
  type: "Convolution"
  bottom: "conv3_3_1_bn"
  top: "conv3_3_2"
  param {
    lr_mult: 1
    decay_mult: 1
  }
  param {
    lr_mult: 2
    decay_mult: 0
  }
  convolution_param {
    num_output: 128
    pad: 1
    kernel_size: 3
    stride: 1
    weight_filler {
      type: "msra"
    }
    bias_filler {
      type: "constant"
      value: 0
    }
  }
}
layer {
  name: "conv3_3_2_bn"
  type: "BatchNorm"
  bottom: "conv3_3_2"
  top: "conv3_3_2_bn"
  param {
    lr_mult: 0
  }
  param {
    lr_mult: 0
  }
  param {
    lr_mult: 0
  }
}
layer {
  name: "conv3_3_2_relu"
  type: "ReLU"
  bottom: "conv3_3_2_bn"
  top: "conv3_3_2_bn"
}
layer {
  name: "conv3_3_3"
  type: "Convolution"
  bottom: "conv3_3_2_bn"
  top: "conv3_3_3"
  param {
    lr_mult: 1
    decay_mult: 1
  }
  param {
    lr_mult: 2
    decay_mult: 0
  }
  convolution_param {
    num_output: 512
    pad: 0
    kernel_size: 1
    stride: 1
    weight_filler {
      type: "msra"
    }
    bias_filler {
      type: "constant"
      value: 0
    }
  }
}
layer {
  name: "conv3_3_sum"
  type: "Eltwise"
  bottom: "conv3_2_sum_bn"
  bottom: "conv3_3_3"
  top: "conv3_3_sum"
  eltwise_param {
    operation: SUM
  }
}
layer {
  name: "conv3_3_sum_bn"
  type: "BatchNorm"
  bottom: "conv3_3_sum"
  top: "conv3_3_sum_bn"
  param {
    lr_mult: 0
  }
  param {
    lr_mult: 0
  }
  param {
    lr_mult: 0
  }
}
layer {
  name: "conv3_3_sum_relu"
  type: "ReLU"
  bottom: "conv3_3_sum_bn"
  top: "conv3_3_sum_bn"
}
layer {
  name: "conv3_4_1"
  type: "Convolution"
  bottom: "conv3_3_sum_bn"
  top: "conv3_4_1"
  param {
    lr_mult: 1
    decay_mult: 1
  }
  param {
    lr_mult: 2
    decay_mult: 0
  }
  convolution_param {
    num_output: 128
    pad: 0
    kernel_size: 1
    stride: 1
    weight_filler {
      type: "msra"
    }
    bias_filler {
      type: "constant"
      value: 0
    }
  }
}
layer {
  name: "conv3_4_1_bn"
  type: "BatchNorm"
  bottom: "conv3_4_1"
  top: "conv3_4_1_bn"
  param {
    lr_mult: 0
  }
  param {
    lr_mult: 0
  }
  param {
    lr_mult: 0
  }
}
layer {
  name: "conv3_4_1_relu"
  type: "ReLU"
  bottom: "conv3_4_1_bn"
  top: "conv3_4_1_bn"
}
layer {
  name: "conv3_4_2"
  type: "Convolution"
  bottom: "conv3_4_1_bn"
  top: "conv3_4_2"
  param {
    lr_mult: 1
    decay_mult: 1
  }
  param {
    lr_mult: 2
    decay_mult: 0
  }
  convolution_param {
    num_output: 128
    pad: 1
    kernel_size: 3
    stride: 1
    weight_filler {
      type: "msra"
    }
    bias_filler {
      type: "constant"
      value: 0
    }
  }
}
layer {
  name: "conv3_4_2_bn"
  type: "BatchNorm"
  bottom: "conv3_4_2"
  top: "conv3_4_2_bn"
  param {
    lr_mult: 0
  }
  param {
    lr_mult: 0
  }
  param {
    lr_mult: 0
  }
}
layer {
  name: "conv3_4_2_relu"
  type: "ReLU"
  bottom: "conv3_4_2_bn"
  top: "conv3_4_2_bn"
}
layer {
  name: "conv3_4_3"
  type: "Convolution"
  bottom: "conv3_4_2_bn"
  top: "conv3_4_3"
  param {
    lr_mult: 1
    decay_mult: 1
  }
  param {
    lr_mult: 2
    decay_mult: 0
  }
  convolution_param {
    num_output: 512
    pad: 0
    kernel_size: 1
    stride: 1
    weight_filler {
      type: "msra"
    }
    bias_filler {
      type: "constant"
      value: 0
    }
  }
}
layer {
  name: "conv3_4_sum"
  type: "Eltwise"
  bottom: "conv3_3_sum_bn"
  bottom: "conv3_4_3"
  top: "conv3_4_sum"
  eltwise_param {
    operation: SUM
  }
}
layer {
  name: "conv3_4_sum_bn"
  type: "BatchNorm"
  bottom: "conv3_4_sum"
  top: "conv3_4_sum_bn"
  param {
    lr_mult: 0
  }
  param {
    lr_mult: 0
  }
  param {
    lr_mult: 0
  }
}
layer {
  name: "conv3_4_sum_relu"
  type: "ReLU"
  bottom: "conv3_4_sum_bn"
  top: "conv3_4_sum_bn"
}
layer {
  name: "conv3_5_1"
  type: "Convolution"
  bottom: "conv3_4_sum_bn"
  top: "conv3_5_1"
  param {
    lr_mult: 1
    decay_mult: 1
  }
  param {
    lr_mult: 2
    decay_mult: 0
  }
  convolution_param {
    num_output: 128
    pad: 0
    kernel_size: 1
    stride: 1
    weight_filler {
      type: "msra"
    }
    bias_filler {
      type: "constant"
      value: 0
    }
  }
}
layer {
  name: "conv3_5_1_bn"
  type: "BatchNorm"
  bottom: "conv3_5_1"
  top: "conv3_5_1_bn"
  param {
    lr_mult: 0
  }
  param {
    lr_mult: 0
  }
  param {
    lr_mult: 0
  }
}
layer {
  name: "conv3_5_1_relu"
  type: "ReLU"
  bottom: "conv3_5_1_bn"
  top: "conv3_5_1_bn"
}
layer {
  name: "conv3_5_2"
  type: "Convolution"
  bottom: "conv3_5_1_bn"
  top: "conv3_5_2"
  param {
    lr_mult: 1
    decay_mult: 1
  }
  param {
    lr_mult: 2
    decay_mult: 0
  }
  convolution_param {
    num_output: 128
    pad: 1
    kernel_size: 3
    stride: 1
    weight_filler {
      type: "msra"
    }
    bias_filler {
      type: "constant"
      value: 0
    }
  }
}
layer {
  name: "conv3_5_2_bn"
  type: "BatchNorm"
  bottom: "conv3_5_2"
  top: "conv3_5_2_bn"
  param {
    lr_mult: 0
  }
  param {
    lr_mult: 0
  }
  param {
    lr_mult: 0
  }
}
layer {
  name: "conv3_5_2_relu"
  type: "ReLU"
  bottom: "conv3_5_2_bn"
  top: "conv3_5_2_bn"
}
layer {
  name: "conv3_5_3"
  type: "Convolution"
  bottom: "conv3_5_2_bn"
  top: "conv3_5_3"
  param {
    lr_mult: 1
    decay_mult: 1
  }
  param {
    lr_mult: 2
    decay_mult: 0
  }
  convolution_param {
    num_output: 512
    pad: 0
    kernel_size: 1
    stride: 1
    weight_filler {
      type: "msra"
    }
    bias_filler {
      type: "constant"
      value: 0
    }
  }
}
layer {
  name: "conv3_5_sum"
  type: "Eltwise"
  bottom: "conv3_4_sum_bn"
  bottom: "conv3_5_3"
  top: "conv3_5_sum"
  eltwise_param {
    operation: SUM
  }
}
layer {
  name: "conv3_5_sum_bn"
  type: "BatchNorm"
  bottom: "conv3_5_sum"
  top: "conv3_5_sum_bn"
  param {
    lr_mult: 0
  }
  param {
    lr_mult: 0
  }
  param {
    lr_mult: 0
  }
}
layer {
  name: "conv3_5_sum_relu"
  type: "ReLU"
  bottom: "conv3_5_sum_bn"
  top: "conv3_5_sum_bn"
}
layer {
  name: "conv3_6_1"
  type: "Convolution"
  bottom: "conv3_5_sum_bn"
  top: "conv3_6_1"
  param {
    lr_mult: 1
    decay_mult: 1
  }
  param {
    lr_mult: 2
    decay_mult: 0
  }
  convolution_param {
    num_output: 128
    pad: 0
    kernel_size: 1
    stride: 1
    weight_filler {
      type: "msra"
    }
    bias_filler {
      type: "constant"
      value: 0
    }
  }
}
layer {
  name: "conv3_6_1_bn"
  type: "BatchNorm"
  bottom: "conv3_6_1"
  top: "conv3_6_1_bn"
  param {
    lr_mult: 0
  }
  param {
    lr_mult: 0
  }
  param {
    lr_mult: 0
  }
}
layer {
  name: "conv3_6_1_relu"
  type: "ReLU"
  bottom: "conv3_6_1_bn"
  top: "conv3_6_1_bn"
}
layer {
  name: "conv3_6_2"
  type: "Convolution"
  bottom: "conv3_6_1_bn"
  top: "conv3_6_2"
  param {
    lr_mult: 1
    decay_mult: 1
  }
  param {
    lr_mult: 2
    decay_mult: 0
  }
  convolution_param {
    num_output: 128
    pad: 1
    kernel_size: 3
    stride: 1
    weight_filler {
      type: "msra"
    }
    bias_filler {
      type: "constant"
      value: 0
    }
  }
}
layer {
  name: "conv3_6_2_bn"
  type: "BatchNorm"
  bottom: "conv3_6_2"
  top: "conv3_6_2_bn"
  param {
    lr_mult: 0
  }
  param {
    lr_mult: 0
  }
  param {
    lr_mult: 0
  }
}
layer {
  name: "conv3_6_2_relu"
  type: "ReLU"
  bottom: "conv3_6_2_bn"
  top: "conv3_6_2_bn"
}
layer {
  name: "conv3_6_3"
  type: "Convolution"
  bottom: "conv3_6_2_bn"
  top: "conv3_6_3"
  param {
    lr_mult: 1
    decay_mult: 1
  }
  param {
    lr_mult: 2
    decay_mult: 0
  }
  convolution_param {
    num_output: 512
    pad: 0
    kernel_size: 1
    stride: 1
    weight_filler {
      type: "msra"
    }
    bias_filler {
      type: "constant"
      value: 0
    }
  }
}
layer {
  name: "conv3_6_sum"
  type: "Eltwise"
  bottom: "conv3_5_sum_bn"
  bottom: "conv3_6_3"
  top: "conv3_6_sum"
  eltwise_param {
    operation: SUM
  }
}
layer {
  name: "conv3_6_sum_bn"
  type: "BatchNorm"
  bottom: "conv3_6_sum"
  top: "conv3_6_sum_bn"
  param {
    lr_mult: 0
  }
  param {
    lr_mult: 0
  }
  param {
    lr_mult: 0
  }
}
layer {
  name: "conv3_6_sum_relu"
  type: "ReLU"
  bottom: "conv3_6_sum_bn"
  top: "conv3_6_sum_bn"
}
layer {
  name: "conv3_7_1"
  type: "Convolution"
  bottom: "conv3_6_sum_bn"
  top: "conv3_7_1"
  param {
    lr_mult: 1
    decay_mult: 1
  }
  param {
    lr_mult: 2
    decay_mult: 0
  }
  convolution_param {
    num_output: 128
    pad: 0
    kernel_size: 1
    stride: 1
    weight_filler {
      type: "msra"
    }
    bias_filler {
      type: "constant"
      value: 0
    }
  }
}
layer {
  name: "conv3_7_1_bn"
  type: "BatchNorm"
  bottom: "conv3_7_1"
  top: "conv3_7_1_bn"
  param {
    lr_mult: 0
  }
  param {
    lr_mult: 0
  }
  param {
    lr_mult: 0
  }
}
layer {
  name: "conv3_7_1_relu"
  type: "ReLU"
  bottom: "conv3_7_1_bn"
  top: "conv3_7_1_bn"
}
layer {
  name: "conv3_7_2"
  type: "Convolution"
  bottom: "conv3_7_1_bn"
  top: "conv3_7_2"
  param {
    lr_mult: 1
    decay_mult: 1
  }
  param {
    lr_mult: 2
    decay_mult: 0
  }
  convolution_param {
    num_output: 128
    pad: 1
    kernel_size: 3
    stride: 1
    weight_filler {
      type: "msra"
    }
    bias_filler {
      type: "constant"
      value: 0
    }
  }
}
layer {
  name: "conv3_7_2_bn"
  type: "BatchNorm"
  bottom: "conv3_7_2"
  top: "conv3_7_2_bn"
  param {
    lr_mult: 0
  }
  param {
    lr_mult: 0
  }
  param {
    lr_mult: 0
  }
}
layer {
  name: "conv3_7_2_relu"
  type: "ReLU"
  bottom: "conv3_7_2_bn"
  top: "conv3_7_2_bn"
}
layer {
  name: "conv3_7_3"
  type: "Convolution"
  bottom: "conv3_7_2_bn"
  top: "conv3_7_3"
  param {
    lr_mult: 1
    decay_mult: 1
  }
  param {
    lr_mult: 2
    decay_mult: 0
  }
  convolution_param {
    num_output: 512
    pad: 0
    kernel_size: 1
    stride: 1
    weight_filler {
      type: "msra"
    }
    bias_filler {
      type: "constant"
      value: 0
    }
  }
}
layer {
  name: "conv3_7_sum"
  type: "Eltwise"
  bottom: "conv3_6_sum_bn"
  bottom: "conv3_7_3"
  top: "conv3_7_sum"
  eltwise_param {
    operation: SUM
  }
}
layer {
  name: "conv3_7_sum_bn"
  type: "BatchNorm"
  bottom: "conv3_7_sum"
  top: "conv3_7_sum_bn"
  param {
    lr_mult: 0
  }
  param {
    lr_mult: 0
  }
  param {
    lr_mult: 0
  }
}
layer {
  name: "conv3_7_sum_relu"
  type: "ReLU"
  bottom: "conv3_7_sum_bn"
  top: "conv3_7_sum_bn"
}
layer {
  name: "conv3_8_1"
  type: "Convolution"
  bottom: "conv3_7_sum_bn"
  top: "conv3_8_1"
  param {
    lr_mult: 1
    decay_mult: 1
  }
  param {
    lr_mult: 2
    decay_mult: 0
  }
  convolution_param {
    num_output: 128
    pad: 0
    kernel_size: 1
    stride: 1
    weight_filler {
      type: "msra"
    }
    bias_filler {
      type: "constant"
      value: 0
    }
  }
}
layer {
  name: "conv3_8_1_bn"
  type: "BatchNorm"
  bottom: "conv3_8_1"
  top: "conv3_8_1_bn"
  param {
    lr_mult: 0
  }
  param {
    lr_mult: 0
  }
  param {
    lr_mult: 0
  }
}
layer {
  name: "conv3_8_1_relu"
  type: "ReLU"
  bottom: "conv3_8_1_bn"
  top: "conv3_8_1_bn"
}
layer {
  name: "conv3_8_2"
  type: "Convolution"
  bottom: "conv3_8_1_bn"
  top: "conv3_8_2"
  param {
    lr_mult: 1
    decay_mult: 1
  }
  param {
    lr_mult: 2
    decay_mult: 0
  }
  convolution_param {
    num_output: 128
    pad: 1
    kernel_size: 3
    stride: 1
    weight_filler {
      type: "msra"
    }
    bias_filler {
      type: "constant"
      value: 0
    }
  }
}
layer {
  name: "conv3_8_2_bn"
  type: "BatchNorm"
  bottom: "conv3_8_2"
  top: "conv3_8_2_bn"
  param {
    lr_mult: 0
  }
  param {
    lr_mult: 0
  }
  param {
    lr_mult: 0
  }
}
layer {
  name: "conv3_8_2_relu"
  type: "ReLU"
  bottom: "conv3_8_2_bn"
  top: "conv3_8_2_bn"
}
layer {
  name: "conv3_8_3"
  type: "Convolution"
  bottom: "conv3_8_2_bn"
  top: "conv3_8_3"
  param {
    lr_mult: 1
    decay_mult: 1
  }
  param {
    lr_mult: 2
    decay_mult: 0
  }
  convolution_param {
    num_output: 512
    pad: 0
    kernel_size: 1
    stride: 1
    weight_filler {
      type: "msra"
    }
    bias_filler {
      type: "constant"
      value: 0
    }
  }
}
layer {
  name: "conv3_8_sum"
  type: "Eltwise"
  bottom: "conv3_7_sum_bn"
  bottom: "conv3_8_3"
  top: "conv3_8_sum"
  eltwise_param {
    operation: SUM
  }
}
layer {
  name: "conv3_8_sum_bn"
  type: "BatchNorm"
  bottom: "conv3_8_sum"
  top: "conv3_8_sum_bn"
  param {
    lr_mult: 0
  }
  param {
    lr_mult: 0
  }
  param {
    lr_mult: 0
  }
}
layer {
  name: "conv3_8_sum_relu"
  type: "ReLU"
  bottom: "conv3_8_sum_bn"
  top: "conv3_8_sum_bn"
}
layer {
  name: "conv3_output"
  type: "Convolution"
  bottom: "conv3_8_sum_bn"
  top: "conv3_output"
  param {
    lr_mult: 1
    decay_mult: 1
  }
  param {
    lr_mult: 2
    decay_mult: 0
  }
  convolution_param {
    num_output: 1024
    pad: 0
    kernel_size: 1
    stride: 2
    weight_filler {
      type: "msra"
    }
    bias_filler {
      type: "constant"
      value: 0
    }
  }
}
layer {
  name: "conv4_1_1"
  type: "Convolution"
  bottom: "conv3_8_sum_bn"
  top: "conv4_1_1"
  param {
    lr_mult: 1
    decay_mult: 1
  }
  param {
    lr_mult: 2
    decay_mult: 0
  }
  convolution_param {
    num_output: 256
    pad: 0
    kernel_size: 1
    stride: 2
    weight_filler {
      type: "msra"
    }
    bias_filler {
      type: "constant"
      value: 0
    }
  }
}
layer {
  name: "conv4_1_1_bn"
  type: "BatchNorm"
  bottom: "conv4_1_1"
  top: "conv4_1_1_bn"
  param {
    lr_mult: 0
  }
  param {
    lr_mult: 0
  }
  param {
    lr_mult: 0
  }
}
layer {
  name: "conv4_1_1_relu"
  type: "ReLU"
  bottom: "conv4_1_1_bn"
  top: "conv4_1_1_bn"
}
layer {
  name: "conv4_1_2"
  type: "Convolution"
  bottom: "conv4_1_1_bn"
  top: "conv4_1_2"
  param {
    lr_mult: 1
    decay_mult: 1
  }
  param {
    lr_mult: 2
    decay_mult: 0
  }
  convolution_param {
    num_output: 256
    pad: 1
    kernel_size: 3
    stride: 1
    weight_filler {
      type: "msra"
    }
    bias_filler {
      type: "constant"
      value: 0
    }
  }
}
layer {
  name: "conv4_1_2_bn"
  type: "BatchNorm"
  bottom: "conv4_1_2"
  top: "conv4_1_2_bn"
  param {
    lr_mult: 0
  }
  param {
    lr_mult: 0
  }
  param {
    lr_mult: 0
  }
}
layer {
  name: "conv4_1_2_relu"
  type: "ReLU"
  bottom: "conv4_1_2_bn"
  top: "conv4_1_2_bn"
}
layer {
  name: "conv4_1_3"
  type: "Convolution"
  bottom: "conv4_1_2_bn"
  top: "conv4_1_3"
  param {
    lr_mult: 1
    decay_mult: 1
  }
  param {
    lr_mult: 2
    decay_mult: 0
  }
  convolution_param {
    num_output: 1024
    pad: 0
    kernel_size: 1
    stride: 1
    weight_filler {
      type: "msra"
    }
    bias_filler {
      type: "constant"
      value: 0
    }
  }
}
layer {
  name: "conv4_1_sum"
  type: "Eltwise"
  bottom: "conv3_output"
  bottom: "conv4_1_3"
  top: "conv4_1_sum"
  eltwise_param {
    operation: SUM
  }
}
layer {
  name: "conv4_1_sum_bn"
  type: "BatchNorm"
  bottom: "conv4_1_sum"
  top: "conv4_1_sum_bn"
  param {
    lr_mult: 0
  }
  param {
    lr_mult: 0
  }
  param {
    lr_mult: 0
  }
}
layer {
  name: "conv4_1_sum_relu"
  type: "ReLU"
  bottom: "conv4_1_sum_bn"
  top: "conv4_1_sum_bn"
}
layer {
  name: "conv4_2_1"
  type: "Convolution"
  bottom: "conv4_1_sum_bn"
  top: "conv4_2_1"
  param {
    lr_mult: 1
    decay_mult: 1
  }
  param {
    lr_mult: 2
    decay_mult: 0
  }
  convolution_param {
    num_output: 256
    pad: 0
    kernel_size: 1
    stride: 1
    weight_filler {
      type: "msra"
    }
    bias_filler {
      type: "constant"
      value: 0
    }
  }
}
layer {
  name: "conv4_2_1_bn"
  type: "BatchNorm"
  bottom: "conv4_2_1"
  top: "conv4_2_1_bn"
  param {
    lr_mult: 0
  }
  param {
    lr_mult: 0
  }
  param {
    lr_mult: 0
  }
}
layer {
  name: "conv4_2_1_relu"
  type: "ReLU"
  bottom: "conv4_2_1_bn"
  top: "conv4_2_1_bn"
}
layer {
  name: "conv4_2_2"
  type: "Convolution"
  bottom: "conv4_2_1_bn"
  top: "conv4_2_2"
  param {
    lr_mult: 1
    decay_mult: 1
  }
  param {
    lr_mult: 2
    decay_mult: 0
  }
  convolution_param {
    num_output: 256
    pad: 1
    kernel_size: 3
    stride: 1
    weight_filler {
      type: "msra"
    }
    bias_filler {
      type: "constant"
      value: 0
    }
  }
}
layer {
  name: "conv4_2_2_bn"
  type: "BatchNorm"
  bottom: "conv4_2_2"
  top: "conv4_2_2_bn"
  param {
    lr_mult: 0
  }
  param {
    lr_mult: 0
  }
  param {
    lr_mult: 0
  }
}
layer {
  name: "conv4_2_2_relu"
  type: "ReLU"
  bottom: "conv4_2_2_bn"
  top: "conv4_2_2_bn"
}
layer {
  name: "conv4_2_3"
  type: "Convolution"
  bottom: "conv4_2_2_bn"
  top: "conv4_2_3"
  p
I0703 18:09:33.611259 35406 layer_factory.hpp:76] Creating layer data
I0703 18:09:33.611320 35406 net.cpp:106] Creating Layer data
I0703 18:09:33.611336 35406 net.cpp:411] data -> data
I0703 18:09:33.611374 35406 net.cpp:411] data -> label
I0703 18:09:33.611825 35406 image_data_layer.cpp:36] Opening file ../lists/roi-train.lst
I0703 18:09:33.750082 35406 image_data_layer.cpp:46] Shuffling data
I0703 18:09:33.783387 35406 image_data_layer.cpp:51] A total of 211680 images.
I0703 18:09:33.795915 35406 image_data_layer.cpp:78] output data size: 8,3,224,224
I0703 18:09:33.806355 35406 net.cpp:150] Setting up data
I0703 18:09:33.806437 35406 net.cpp:157] Top shape: 8 3 224 224 (1204224)
I0703 18:09:33.806450 35406 net.cpp:157] Top shape: 8 (8)
I0703 18:09:33.806460 35406 net.cpp:165] Memory required for data: 4816928
I0703 18:09:33.806478 35406 layer_factory.hpp:76] Creating layer conv1
I0703 18:09:33.806510 35406 net.cpp:106] Creating Layer conv1
I0703 18:09:33.806524 35406 net.cpp:454] conv1 <- data
I0703 18:09:33.806560 35406 net.cpp:411] conv1 -> conv1
I0703 18:09:33.930562 35406 net.cpp:150] Setting up conv1
I0703 18:09:33.930631 35406 net.cpp:157] Top shape: 8 64 109 109 (6083072)
I0703 18:09:33.930642 35406 net.cpp:165] Memory required for data: 29149216
I0703 18:09:33.930675 35406 layer_factory.hpp:76] Creating layer conv1_bn
I0703 18:09:33.930701 35406 net.cpp:106] Creating Layer conv1_bn
I0703 18:09:33.930716 35406 net.cpp:454] conv1_bn <- conv1
I0703 18:09:33.930729 35406 net.cpp:411] conv1_bn -> conv1_bn
I0703 18:09:33.930953 35406 net.cpp:150] Setting up conv1_bn
I0703 18:09:33.930991 35406 net.cpp:157] Top shape: 8 64 109 109 (6083072)
I0703 18:09:33.931002 35406 net.cpp:165] Memory required for data: 53481504
I0703 18:09:33.931021 35406 layer_factory.hpp:76] Creating layer conv1_relu
I0703 18:09:33.931037 35406 net.cpp:106] Creating Layer conv1_relu
I0703 18:09:33.931047 35406 net.cpp:454] conv1_relu <- conv1_bn
I0703 18:09:33.931058 35406 net.cpp:397] conv1_relu -> conv1_bn (in-place)
I0703 18:09:33.931282 35406 net.cpp:150] Setting up conv1_relu
I0703 18:09:33.931313 35406 net.cpp:157] Top shape: 8 64 109 109 (6083072)
I0703 18:09:33.931324 35406 net.cpp:165] Memory required for data: 77813792
I0703 18:09:33.931334 35406 layer_factory.hpp:76] Creating layer pool1
I0703 18:09:33.931347 35406 net.cpp:106] Creating Layer pool1
I0703 18:09:33.931360 35406 net.cpp:454] pool1 <- conv1_bn
I0703 18:09:33.931371 35406 net.cpp:411] pool1 -> pool1
I0703 18:09:33.931758 35406 net.cpp:150] Setting up pool1
I0703 18:09:33.931794 35406 net.cpp:157] Top shape: 8 64 54 54 (1492992)
I0703 18:09:33.931805 35406 net.cpp:165] Memory required for data: 83785760
I0703 18:09:33.931815 35406 layer_factory.hpp:76] Creating layer pool1_pool1_0_split
I0703 18:09:33.931833 35406 net.cpp:106] Creating Layer pool1_pool1_0_split
I0703 18:09:33.931843 35406 net.cpp:454] pool1_pool1_0_split <- pool1
I0703 18:09:33.931854 35406 net.cpp:411] pool1_pool1_0_split -> pool1_pool1_0_split_0
I0703 18:09:33.931866 35406 net.cpp:411] pool1_pool1_0_split -> pool1_pool1_0_split_1
I0703 18:09:33.931910 35406 net.cpp:150] Setting up pool1_pool1_0_split
I0703 18:09:33.931924 35406 net.cpp:157] Top shape: 8 64 54 54 (1492992)
I0703 18:09:33.931934 35406 net.cpp:157] Top shape: 8 64 54 54 (1492992)
I0703 18:09:33.931943 35406 net.cpp:165] Memory required for data: 95729696
I0703 18:09:33.931953 35406 layer_factory.hpp:76] Creating layer conv1_output
I0703 18:09:33.931972 35406 net.cpp:106] Creating Layer conv1_output
I0703 18:09:33.931980 35406 net.cpp:454] conv1_output <- pool1_pool1_0_split_0
I0703 18:09:33.931993 35406 net.cpp:411] conv1_output -> conv1_output
I0703 18:09:33.934093 35406 cudnn_conv_layer.cpp:194] Reallocating workspace storage: 768
I0703 18:09:33.934145 35406 net.cpp:150] Setting up conv1_output
I0703 18:09:33.934160 35406 net.cpp:157] Top shape: 8 256 54 54 (5971968)
I0703 18:09:33.934170 35406 net.cpp:165] Memory required for data: 119617568
I0703 18:09:33.934183 35406 layer_factory.hpp:76] Creating layer conv2_1_1
I0703 18:09:33.934202 35406 net.cpp:106] Creating Layer conv2_1_1
I0703 18:09:33.934216 35406 net.cpp:454] conv2_1_1 <- pool1_pool1_0_split_1
I0703 18:09:33.934229 35406 net.cpp:411] conv2_1_1 -> conv2_1_1
I0703 18:09:33.935391 35406 net.cpp:150] Setting up conv2_1_1
I0703 18:09:33.935427 35406 net.cpp:157] Top shape: 8 64 54 54 (1492992)
I0703 18:09:33.935438 35406 net.cpp:165] Memory required for data: 125589536
I0703 18:09:33.935454 35406 layer_factory.hpp:76] Creating layer conv2_1_1_bn
I0703 18:09:33.935472 35406 net.cpp:106] Creating Layer conv2_1_1_bn
I0703 18:09:33.935482 35406 net.cpp:454] conv2_1_1_bn <- conv2_1_1
I0703 18:09:33.935498 35406 net.cpp:411] conv2_1_1_bn -> conv2_1_1_bn
I0703 18:09:33.935703 35406 net.cpp:150] Setting up conv2_1_1_bn
I0703 18:09:33.935719 35406 net.cpp:157] Top shape: 8 64 54 54 (1492992)
I0703 18:09:33.935729 35406 net.cpp:165] Memory required for data: 131561504
I0703 18:09:33.935741 35406 layer_factory.hpp:76] Creating layer conv2_1_1_relu
I0703 18:09:33.935756 35406 net.cpp:106] Creating Layer conv2_1_1_relu
I0703 18:09:33.935765 35406 net.cpp:454] conv2_1_1_relu <- conv2_1_1_bn
I0703 18:09:33.935775 35406 net.cpp:397] conv2_1_1_relu -> conv2_1_1_bn (in-place)
I0703 18:09:33.935955 35406 net.cpp:150] Setting up conv2_1_1_relu
I0703 18:09:33.935972 35406 net.cpp:157] Top shape: 8 64 54 54 (1492992)
I0703 18:09:33.935981 35406 net.cpp:165] Memory required for data: 137533472
I0703 18:09:33.935991 35406 layer_factory.hpp:76] Creating layer conv2_1_2
I0703 18:09:33.936007 35406 net.cpp:106] Creating Layer conv2_1_2
I0703 18:09:33.936017 35406 net.cpp:454] conv2_1_2 <- conv2_1_1_bn
I0703 18:09:33.936029 35406 net.cpp:411] conv2_1_2 -> conv2_1_2
I0703 18:09:33.938777 35406 net.cpp:150] Setting up conv2_1_2
I0703 18:09:33.938815 35406 net.cpp:157] Top shape: 8 64 54 54 (1492992)
I0703 18:09:33.938825 35406 net.cpp:165] Memory required for data: 143505440
I0703 18:09:33.938838 35406 layer_factory.hpp:76] Creating layer conv2_1_2_bn
I0703 18:09:33.938855 35406 net.cpp:106] Creating Layer conv2_1_2_bn
I0703 18:09:33.938886 35406 net.cpp:454] conv2_1_2_bn <- conv2_1_2
I0703 18:09:33.938899 35406 net.cpp:411] conv2_1_2_bn -> conv2_1_2_bn
I0703 18:09:33.939116 35406 net.cpp:150] Setting up conv2_1_2_bn
I0703 18:09:33.939143 35406 net.cpp:157] Top shape: 8 64 54 54 (1492992)
I0703 18:09:33.939153 35406 net.cpp:165] Memory required for data: 149477408
I0703 18:09:33.939173 35406 layer_factory.hpp:76] Creating layer conv2_1_2_relu
I0703 18:09:33.939187 35406 net.cpp:106] Creating Layer conv2_1_2_relu
I0703 18:09:33.939195 35406 net.cpp:454] conv2_1_2_relu <- conv2_1_2_bn
I0703 18:09:33.939208 35406 net.cpp:397] conv2_1_2_relu -> conv2_1_2_bn (in-place)
I0703 18:09:33.939399 35406 net.cpp:150] Setting up conv2_1_2_relu
I0703 18:09:33.939429 35406 net.cpp:157] Top shape: 8 64 54 54 (1492992)
I0703 18:09:33.939440 35406 net.cpp:165] Memory required for data: 155449376
I0703 18:09:33.939448 35406 layer_factory.hpp:76] Creating layer conv2_1_3
I0703 18:09:33.939465 35406 net.cpp:106] Creating Layer conv2_1_3
I0703 18:09:33.939474 35406 net.cpp:454] conv2_1_3 <- conv2_1_2_bn
I0703 18:09:33.939487 35406 net.cpp:411] conv2_1_3 -> conv2_1_3
I0703 18:09:33.941079 35406 cudnn_conv_layer.cpp:194] Reallocating workspace storage: 768
I0703 18:09:33.941129 35406 net.cpp:150] Setting up conv2_1_3
I0703 18:09:33.941144 35406 net.cpp:157] Top shape: 8 256 54 54 (5971968)
I0703 18:09:33.941154 35406 net.cpp:165] Memory required for data: 179337248
I0703 18:09:33.941167 35406 layer_factory.hpp:76] Creating layer conv2_1_sum
I0703 18:09:33.941184 35406 net.cpp:106] Creating Layer conv2_1_sum
I0703 18:09:33.941197 35406 net.cpp:454] conv2_1_sum <- conv1_output
I0703 18:09:33.941211 35406 net.cpp:454] conv2_1_sum <- conv2_1_3
I0703 18:09:33.941223 35406 net.cpp:411] conv2_1_sum -> conv2_1_sum
I0703 18:09:33.941265 35406 net.cpp:150] Setting up conv2_1_sum
I0703 18:09:33.941280 35406 net.cpp:157] Top shape: 8 256 54 54 (5971968)
I0703 18:09:33.941289 35406 net.cpp:165] Memory required for data: 203225120
I0703 18:09:33.941298 35406 layer_factory.hpp:76] Creating layer conv2_1_sum_bn
I0703 18:09:33.941313 35406 net.cpp:106] Creating Layer conv2_1_sum_bn
I0703 18:09:33.941323 35406 net.cpp:454] conv2_1_sum_bn <- conv2_1_sum
I0703 18:09:33.941336 35406 net.cpp:411] conv2_1_sum_bn -> conv2_1_sum_bn
I0703 18:09:33.941545 35406 net.cpp:150] Setting up conv2_1_sum_bn
I0703 18:09:33.941573 35406 net.cpp:157] Top shape: 8 256 54 54 (5971968)
I0703 18:09:33.941582 35406 net.cpp:165] Memory required for data: 227112992
I0703 18:09:33.941596 35406 layer_factory.hpp:76] Creating layer conv2_1_sum_relu
I0703 18:09:33.941611 35406 net.cpp:106] Creating Layer conv2_1_sum_relu
I0703 18:09:33.941619 35406 net.cpp:454] conv2_1_sum_relu <- conv2_1_sum_bn
I0703 18:09:33.941629 35406 net.cpp:397] conv2_1_sum_relu -> conv2_1_sum_bn (in-place)
I0703 18:09:33.941982 35406 net.cpp:150] Setting up conv2_1_sum_relu
I0703 18:09:33.942015 35406 net.cpp:157] Top shape: 8 256 54 54 (5971968)
I0703 18:09:33.942025 35406 net.cpp:165] Memory required for data: 251000864
I0703 18:09:33.942034 35406 layer_factory.hpp:76] Creating layer conv2_1_sum_bn_conv2_1_sum_relu_0_split
I0703 18:09:33.942047 35406 net.cpp:106] Creating Layer conv2_1_sum_bn_conv2_1_sum_relu_0_split
I0703 18:09:33.942056 35406 net.cpp:454] conv2_1_sum_bn_conv2_1_sum_relu_0_split <- conv2_1_sum_bn
I0703 18:09:33.942067 35406 net.cpp:411] conv2_1_sum_bn_conv2_1_sum_relu_0_split -> conv2_1_sum_bn_conv2_1_sum_relu_0_split_0
I0703 18:09:33.942082 35406 net.cpp:411] conv2_1_sum_bn_conv2_1_sum_relu_0_split -> conv2_1_sum_bn_conv2_1_sum_relu_0_split_1
I0703 18:09:33.942132 35406 net.cpp:150] Setting up conv2_1_sum_bn_conv2_1_sum_relu_0_split
I0703 18:09:33.942148 35406 net.cpp:157] Top shape: 8 256 54 54 (5971968)
I0703 18:09:33.942162 35406 net.cpp:157] Top shape: 8 256 54 54 (5971968)
I0703 18:09:33.942170 35406 net.cpp:165] Memory required for data: 298776608
I0703 18:09:33.942179 35406 layer_factory.hpp:76] Creating layer conv2_2_1
I0703 18:09:33.942196 35406 net.cpp:106] Creating Layer conv2_2_1
I0703 18:09:33.942221 35406 net.cpp:454] conv2_2_1 <- conv2_1_sum_bn_conv2_1_sum_relu_0_split_0
I0703 18:09:33.942234 35406 net.cpp:411] conv2_2_1 -> conv2_2_1
I0703 18:09:33.943784 35406 cudnn_conv_layer.cpp:194] Reallocating workspace storage: 3072
I0703 18:09:33.944016 35406 net.cpp:150] Setting up conv2_2_1
I0703 18:09:33.944036 35406 net.cpp:157] Top shape: 8 64 54 54 (1492992)
I0703 18:09:33.944046 35406 net.cpp:165] Memory required for data: 304748576
I0703 18:09:33.944059 35406 layer_factory.hpp:76] Creating layer conv2_2_1_bn
I0703 18:09:33.944075 35406 net.cpp:106] Creating Layer conv2_2_1_bn
I0703 18:09:33.944085 35406 net.cpp:454] conv2_2_1_bn <- conv2_2_1
I0703 18:09:33.944097 35406 net.cpp:411] conv2_2_1_bn -> conv2_2_1_bn
I0703 18:09:33.944308 35406 net.cpp:150] Setting up conv2_2_1_bn
I0703 18:09:33.944325 35406 net.cpp:157] Top shape: 8 64 54 54 (1492992)
I0703 18:09:33.944334 35406 net.cpp:165] Memory required for data: 310720544
I0703 18:09:33.944347 35406 layer_factory.hpp:76] Creating layer conv2_2_1_relu
I0703 18:09:33.944360 35406 net.cpp:106] Creating Layer conv2_2_1_relu
I0703 18:09:33.944368 35406 net.cpp:454] conv2_2_1_relu <- conv2_2_1_bn
I0703 18:09:33.944378 35406 net.cpp:397] conv2_2_1_relu -> conv2_2_1_bn (in-place)
I0703 18:09:33.944584 35406 net.cpp:150] Setting up conv2_2_1_relu
I0703 18:09:33.944603 35406 net.cpp:157] Top shape: 8 64 54 54 (1492992)
I0703 18:09:33.944612 35406 net.cpp:165] Memory required for data: 316692512
I0703 18:09:33.944622 35406 layer_factory.hpp:76] Creating layer conv2_2_2
I0703 18:09:33.944641 35406 net.cpp:106] Creating Layer conv2_2_2
I0703 18:09:33.944651 35406 net.cpp:454] conv2_2_2 <- conv2_2_1_bn
I0703 18:09:33.944663 35406 net.cpp:411] conv2_2_2 -> conv2_2_2
I0703 18:09:33.946930 35406 net.cpp:150] Setting up conv2_2_2
I0703 18:09:33.946966 35406 net.cpp:157] Top shape: 8 64 54 54 (1492992)
I0703 18:09:33.946979 35406 net.cpp:165] Memory required for data: 322664480
I0703 18:09:33.946991 35406 layer_factory.hpp:76] Creating layer conv2_2_2_bn
I0703 18:09:33.947011 35406 net.cpp:106] Creating Layer conv2_2_2_bn
I0703 18:09:33.947022 35406 net.cpp:454] conv2_2_2_bn <- conv2_2_2
I0703 18:09:33.947033 35406 net.cpp:411] conv2_2_2_bn -> conv2_2_2_bn
I0703 18:09:33.947242 35406 net.cpp:150] Setting up conv2_2_2_bn
I0703 18:09:33.947258 35406 net.cpp:157] Top shape: 8 64 54 54 (1492992)
I0703 18:09:33.947268 35406 net.cpp:165] Memory required for data: 328636448
I0703 18:09:33.947281 35406 layer_factory.hpp:76] Creating layer conv2_2_2_relu
I0703 18:09:33.947296 35406 net.cpp:106] Creating Layer conv2_2_2_relu
I0703 18:09:33.947309 35406 net.cpp:454] conv2_2_2_relu <- conv2_2_2_bn
I0703 18:09:33.947319 35406 net.cpp:397] conv2_2_2_relu -> conv2_2_2_bn (in-place)
I0703 18:09:33.947510 35406 net.cpp:150] Setting up conv2_2_2_relu
I0703 18:09:33.947527 35406 net.cpp:157] Top shape: 8 64 54 54 (1492992)
I0703 18:09:33.947537 35406 net.cpp:165] Memory required for data: 334608416
I0703 18:09:33.947546 35406 layer_factory.hpp:76] Creating layer conv2_2_3
I0703 18:09:33.947563 35406 net.cpp:106] Creating Layer conv2_2_3
I0703 18:09:33.947576 35406 net.cpp:454] conv2_2_3 <- conv2_2_2_bn
I0703 18:09:33.947590 35406 net.cpp:411] conv2_2_3 -> conv2_2_3
I0703 18:09:33.949374 35406 cudnn_conv_layer.cpp:194] Reallocating workspace storage: 768
I0703 18:09:33.949414 35406 net.cpp:150] Setting up conv2_2_3
I0703 18:09:33.949429 35406 net.cpp:157] Top shape: 8 256 54 54 (5971968)
I0703 18:09:33.949439 35406 net.cpp:165] Memory required for data: 358496288
I0703 18:09:33.949461 35406 layer_factory.hpp:76] Creating layer conv2_2_sum
I0703 18:09:33.949478 35406 net.cpp:106] Creating Layer conv2_2_sum
I0703 18:09:33.949487 35406 net.cpp:454] conv2_2_sum <- conv2_1_sum_bn_conv2_1_sum_relu_0_split_1
I0703 18:09:33.949498 35406 net.cpp:454] conv2_2_sum <- conv2_2_3
I0703 18:09:33.949512 35406 net.cpp:411] conv2_2_sum -> conv2_2_sum
I0703 18:09:33.949548 35406 net.cpp:150] Setting up conv2_2_sum
I0703 18:09:33.949564 35406 net.cpp:157] Top shape: 8 256 54 54 (5971968)
I0703 18:09:33.949573 35406 net.cpp:165] Memory required for data: 382384160
I0703 18:09:33.949600 35406 layer_factory.hpp:76] Creating layer conv2_2_sum_bn
I0703 18:09:33.949614 35406 net.cpp:106] Creating Layer conv2_2_sum_bn
I0703 18:09:33.949623 35406 net.cpp:454] conv2_2_sum_bn <- conv2_2_sum
I0703 18:09:33.949636 35406 net.cpp:411] conv2_2_sum_bn -> conv2_2_sum_bn
I0703 18:09:33.949837 35406 net.cpp:150] Setting up conv2_2_sum_bn
I0703 18:09:33.949854 35406 net.cpp:157] Top shape: 8 256 54 54 (5971968)
I0703 18:09:33.949862 35406 net.cpp:165] Memory required for data: 406272032
I0703 18:09:33.949877 35406 layer_factory.hpp:76] Creating layer conv2_2_sum_relu
I0703 18:09:33.949890 35406 net.cpp:106] Creating Layer conv2_2_sum_relu
I0703 18:09:33.949903 35406 net.cpp:454] conv2_2_sum_relu <- conv2_2_sum_bn
I0703 18:09:33.949913 35406 net.cpp:397] conv2_2_sum_relu -> conv2_2_sum_bn (in-place)
I0703 18:09:33.950269 35406 net.cpp:150] Setting up conv2_2_sum_relu
I0703 18:09:33.950291 35406 net.cpp:157] Top shape: 8 256 54 54 (5971968)
I0703 18:09:33.950301 35406 net.cpp:165] Memory required for data: 430159904
I0703 18:09:33.950310 35406 layer_factory.hpp:76] Creating layer conv2_2_sum_bn_conv2_2_sum_relu_0_split
I0703 18:09:33.950325 35406 net.cpp:106] Creating Layer conv2_2_sum_bn_conv2_2_sum_relu_0_split
I0703 18:09:33.950335 35406 net.cpp:454] conv2_2_sum_bn_conv2_2_sum_relu_0_split <- conv2_2_sum_bn
I0703 18:09:33.950346 35406 net.cpp:411] conv2_2_sum_bn_conv2_2_sum_relu_0_split -> conv2_2_sum_bn_conv2_2_sum_relu_0_split_0
I0703 18:09:33.950361 35406 net.cpp:411] conv2_2_sum_bn_conv2_2_sum_relu_0_split -> conv2_2_sum_bn_conv2_2_sum_relu_0_split_1
I0703 18:09:33.950412 35406 net.cpp:150] Setting up conv2_2_sum_bn_conv2_2_sum_relu_0_split
I0703 18:09:33.950428 35406 net.cpp:157] Top shape: 8 256 54 54 (5971968)
I0703 18:09:33.950438 35406 net.cpp:157] Top shape: 8 256 54 54 (5971968)
I0703 18:09:33.950446 35406 net.cpp:165] Memory required for data: 477935648
I0703 18:09:33.950454 35406 layer_factory.hpp:76] Creating layer conv2_3_1
I0703 18:09:33.950472 35406 net.cpp:106] Creating Layer conv2_3_1
I0703 18:09:33.950481 35406 net.cpp:454] conv2_3_1 <- conv2_2_sum_bn_conv2_2_sum_relu_0_split_0
I0703 18:09:33.950495 35406 net.cpp:411] conv2_3_1 -> conv2_3_1
I0703 18:09:33.952041 35406 cudnn_conv_layer.cpp:194] Reallocating workspace storage: 3072
I0703 18:09:33.952090 35406 net.cpp:150] Setting up conv2_3_1
I0703 18:09:33.952108 35406 net.cpp:157] Top shape: 8 64 54 54 (1492992)
I0703 18:09:33.952117 35406 net.cpp:165] Memory required for data: 483907616
I0703 18:09:33.952131 35406 layer_factory.hpp:76] Creating layer conv2_3_1_bn
I0703 18:09:33.952143 35406 net.cpp:106] Creating Layer conv2_3_1_bn
I0703 18:09:33.952152 35406 net.cpp:454] conv2_3_1_bn <- conv2_3_1
I0703 18:09:33.952167 35406 net.cpp:411] conv2_3_1_bn -> conv2_3_1_bn
I0703 18:09:33.952383 35406 net.cpp:150] Setting up conv2_3_1_bn
I0703 18:09:33.952399 35406 net.cpp:157] Top shape: 8 64 54 54 (1492992)
I0703 18:09:33.952407 35406 net.cpp:165] Memory required for data: 489879584
I0703 18:09:33.952426 35406 layer_factory.hpp:76] Creating layer conv2_3_1_relu
I0703 18:09:33.952440 35406 net.cpp:106] Creating Layer conv2_3_1_relu
I0703 18:09:33.952448 35406 net.cpp:454] conv2_3_1_relu <- conv2_3_1_bn
I0703 18:09:33.952460 35406 net.cpp:397] conv2_3_1_relu -> conv2_3_1_bn (in-place)
I0703 18:09:33.952652 35406 net.cpp:150] Setting up conv2_3_1_relu
I0703 18:09:33.952672 35406 net.cpp:157] Top shape: 8 64 54 54 (1492992)
I0703 18:09:33.952680 35406 net.cpp:165] Memory required for data: 495851552
I0703 18:09:33.952689 35406 layer_factory.hpp:76] Creating layer conv2_3_2
I0703 18:09:33.952713 35406 net.cpp:106] Creating Layer conv2_3_2
I0703 18:09:33.952723 35406 net.cpp:454] conv2_3_2 <- conv2_3_1_bn
I0703 18:09:33.952735 35406 net.cpp:411] conv2_3_2 -> conv2_3_2
I0703 18:09:33.954998 35406 net.cpp:150] Setting up conv2_3_2
I0703 18:09:33.955021 35406 net.cpp:157] Top shape: 8 64 54 54 (1492992)
I0703 18:09:33.955031 35406 net.cpp:165] Memory required for data: 501823520
I0703 18:09:33.955062 35406 layer_factory.hpp:76] Creating layer conv2_3_2_bn
I0703 18:09:33.955078 35406 net.cpp:106] Creating Layer conv2_3_2_bn
I0703 18:09:33.955088 35406 net.cpp:454] conv2_3_2_bn <- conv2_3_2
I0703 18:09:33.955099 35406 net.cpp:411] conv2_3_2_bn -> conv2_3_2_bn
I0703 18:09:33.955322 35406 net.cpp:150] Setting up conv2_3_2_bn
I0703 18:09:33.955350 35406 net.cpp:157] Top shape: 8 64 54 54 (1492992)
I0703 18:09:33.955360 35406 net.cpp:165] Memory required for data: 507795488
I0703 18:09:33.955374 35406 layer_factory.hpp:76] Creating layer conv2_3_2_relu
I0703 18:09:33.955389 35406 net.cpp:106] Creating Layer conv2_3_2_relu
I0703 18:09:33.955397 35406 net.cpp:454] conv2_3_2_relu <- conv2_3_2_bn
I0703 18:09:33.955409 35406 net.cpp:397] conv2_3_2_relu -> conv2_3_2_bn (in-place)
I0703 18:09:33.955618 35406 net.cpp:150] Setting up conv2_3_2_relu
I0703 18:09:33.955648 35406 net.cpp:157] Top shape: 8 64 54 54 (1492992)
I0703 18:09:33.955659 35406 net.cpp:165] Memory required for data: 513767456
I0703 18:09:33.955668 35406 layer_factory.hpp:76] Creating layer conv2_3_3
I0703 18:09:33.955685 35406 net.cpp:106] Creating Layer conv2_3_3
I0703 18:09:33.955694 35406 net.cpp:454] conv2_3_3 <- conv2_3_2_bn
I0703 18:09:33.955709 35406 net.cpp:411] conv2_3_3 -> conv2_3_3
I0703 18:09:33.957360 35406 cudnn_conv_layer.cpp:194] Reallocating workspace storage: 768
I0703 18:09:33.957396 35406 net.cpp:150] Setting up conv2_3_3
I0703 18:09:33.957411 35406 net.cpp:157] Top shape: 8 256 54 54 (5971968)
I0703 18:09:33.957419 35406 net.cpp:165] Memory required for data: 537655328
I0703 18:09:33.957433 35406 layer_factory.hpp:76] Creating layer conv2_3_sum
I0703 18:09:33.957450 35406 net.cpp:106] Creating Layer conv2_3_sum
I0703 18:09:33.957464 35406 net.cpp:454] conv2_3_sum <- conv2_2_sum_bn_conv2_2_sum_relu_0_split_1
I0703 18:09:33.957476 35406 net.cpp:454] conv2_3_sum <- conv2_3_3
I0703 18:09:33.957490 35406 net.cpp:411] conv2_3_sum -> conv2_3_sum
I0703 18:09:33.957525 35406 net.cpp:150] Setting up conv2_3_sum
I0703 18:09:33.957540 35406 net.cpp:157] Top shape: 8 256 54 54 (5971968)
I0703 18:09:33.957548 35406 net.cpp:165] Memory required for data: 561543200
I0703 18:09:33.957557 35406 layer_factory.hpp:76] Creating layer conv2_3_sum_bn
I0703 18:09:33.957574 35406 net.cpp:106] Creating Layer conv2_3_sum_bn
I0703 18:09:33.957584 35406 net.cpp:454] conv2_3_sum_bn <- conv2_3_sum
I0703 18:09:33.957597 35406 net.cpp:411] conv2_3_sum_bn -> conv2_3_sum_bn
I0703 18:09:33.957804 35406 net.cpp:150] Setting up conv2_3_sum_bn
I0703 18:09:33.957821 35406 net.cpp:157] Top shape: 8 256 54 54 (5971968)
I0703 18:09:33.957830 35406 net.cpp:165] Memory required for data: 585431072
I0703 18:09:33.957844 35406 layer_factory.hpp:76] Creating layer conv2_3_sum_relu
I0703 18:09:33.957856 35406 net.cpp:106] Creating Layer conv2_3_sum_relu
I0703 18:09:33.957865 35406 net.cpp:454] conv2_3_sum_relu <- conv2_3_sum_bn
I0703 18:09:33.957875 35406 net.cpp:397] conv2_3_sum_relu -> conv2_3_sum_bn (in-place)
I0703 18:09:33.958217 35406 net.cpp:150] Setting up conv2_3_sum_relu
I0703 18:09:33.958238 35406 net.cpp:157] Top shape: 8 256 54 54 (5971968)
I0703 18:09:33.958248 35406 net.cpp:165] Memory required for data: 609318944
I0703 18:09:33.958258 35406 layer_factory.hpp:76] Creating layer conv2_3_sum_bn_conv2_3_sum_relu_0_split
I0703 18:09:33.958269 35406 net.cpp:106] Creating Layer conv2_3_sum_bn_conv2_3_sum_relu_0_split
I0703 18:09:33.958279 35406 net.cpp:454] conv2_3_sum_bn_conv2_3_sum_relu_0_split <- conv2_3_sum_bn
I0703 18:09:33.958289 35406 net.cpp:411] conv2_3_sum_bn_conv2_3_sum_relu_0_split -> conv2_3_sum_bn_conv2_3_sum_relu_0_split_0
I0703 18:09:33.958305 35406 net.cpp:411] conv2_3_sum_bn_conv2_3_sum_relu_0_split -> conv2_3_sum_bn_conv2_3_sum_relu_0_split_1
I0703 18:09:33.958355 35406 net.cpp:150] Setting up conv2_3_sum_bn_conv2_3_sum_relu_0_split
I0703 18:09:33.958371 35406 net.cpp:157] Top shape: 8 256 54 54 (5971968)
I0703 18:09:33.958381 35406 net.cpp:157] Top shape: 8 256 54 54 (5971968)
I0703 18:09:33.958389 35406 net.cpp:165] Memory required for data: 657094688
I0703 18:09:33.958415 35406 layer_factory.hpp:76] Creating layer conv2_output
I0703 18:09:33.958432 35406 net.cpp:106] Creating Layer conv2_output
I0703 18:09:33.958442 35406 net.cpp:454] conv2_output <- conv2_3_sum_bn_conv2_3_sum_relu_0_split_0
I0703 18:09:33.958457 35406 net.cpp:411] conv2_output -> conv2_output
I0703 18:09:33.965008 35406 cudnn_conv_layer.cpp:194] Reallocating workspace storage: 3072
I0703 18:09:33.965065 35406 net.cpp:150] Setting up conv2_output
I0703 18:09:33.965080 35406 net.cpp:157] Top shape: 8 512 27 27 (2985984)
I0703 18:09:33.965090 35406 net.cpp:165] Memory required for data: 669038624
I0703 18:09:33.965104 35406 layer_factory.hpp:76] Creating layer conv3_1_1
I0703 18:09:33.965123 35406 net.cpp:106] Creating Layer conv3_1_1
I0703 18:09:33.965134 35406 net.cpp:454] conv3_1_1 <- conv2_3_sum_bn_conv2_3_sum_relu_0_split_1
I0703 18:09:33.965149 35406 net.cpp:411] conv3_1_1 -> conv3_1_1
I0703 18:09:33.967169 35406 cudnn_conv_layer.cpp:194] Reallocating workspace storage: 3072
I0703 18:09:33.967202 35406 net.cpp:150] Setting up conv3_1_1
I0703 18:09:33.967216 35406 net.cpp:157] Top shape: 8 128 27 27 (746496)
I0703 18:09:33.967226 35406 net.cpp:165] Memory required for data: 672024608
I0703 18:09:33.967238 35406 layer_factory.hpp:76] Creating layer conv3_1_1_bn
I0703 18:09:33.967254 35406 net.cpp:106] Creating Layer conv3_1_1_bn
I0703 18:09:33.967265 35406 net.cpp:454] conv3_1_1_bn <- conv3_1_1
I0703 18:09:33.967280 35406 net.cpp:411] conv3_1_1_bn -> conv3_1_1_bn
I0703 18:09:33.967494 35406 net.cpp:150] Setting up conv3_1_1_bn
I0703 18:09:33.967511 35406 net.cpp:157] Top shape: 8 128 27 27 (746496)
I0703 18:09:33.967521 35406 net.cpp:165] Memory required for data: 675010592
I0703 18:09:33.967535 35406 layer_factory.hpp:76] Creating layer conv3_1_1_relu
I0703 18:09:33.967548 35406 net.cpp:106] Creating Layer conv3_1_1_relu
I0703 18:09:33.967557 35406 net.cpp:454] conv3_1_1_relu <- conv3_1_1_bn
I0703 18:09:33.967568 35406 net.cpp:397] conv3_1_1_relu -> conv3_1_1_bn (in-place)
I0703 18:09:33.967905 35406 net.cpp:150] Setting up conv3_1_1_relu
I0703 18:09:33.967927 35406 net.cpp:157] Top shape: 8 128 27 27 (746496)
I0703 18:09:33.967936 35406 net.cpp:165] Memory required for data: 677996576
I0703 18:09:33.967947 35406 layer_factory.hpp:76] Creating layer conv3_1_2
I0703 18:09:33.967963 35406 net.cpp:106] Creating Layer conv3_1_2
I0703 18:09:33.967973 35406 net.cpp:454] conv3_1_2 <- conv3_1_1_bn
I0703 18:09:33.967988 35406 net.cpp:411] conv3_1_2 -> conv3_1_2
I0703 18:09:33.974324 35406 cudnn_conv_layer.cpp:194] Reallocating workspace storage: 13824
I0703 18:09:33.974593 35406 net.cpp:150] Setting up conv3_1_2
I0703 18:09:33.974627 35406 net.cpp:157] Top shape: 8 128 27 27 (746496)
I0703 18:09:33.974639 35406 net.cpp:165] Memory required for data: 680982560
I0703 18:09:33.974655 35406 layer_factory.hpp:76] Creating layer conv3_1_2_bn
I0703 18:09:33.974671 35406 net.cpp:106] Creating Layer conv3_1_2_bn
I0703 18:09:33.974697 35406 net.cpp:454] conv3_1_2_bn <- conv3_1_2
I0703 18:09:33.974711 35406 net.cpp:411] conv3_1_2_bn -> conv3_1_2_bn
I0703 18:09:33.974946 35406 net.cpp:150] Setting up conv3_1_2_bn
I0703 18:09:33.974961 35406 net.cpp:157] Top shape: 8 128 27 27 (746496)
I0703 18:09:33.974983 35406 net.cpp:165] Memory required for data: 683968544
I0703 18:09:33.974997 35406 layer_factory.hpp:76] Creating layer conv3_1_2_relu
I0703 18:09:33.975008 35406 net.cpp:106] Creating Layer conv3_1_2_relu
I0703 18:09:33.975018 35406 net.cpp:454] conv3_1_2_relu <- conv3_1_2_bn
I0703 18:09:33.975028 35406 net.cpp:397] conv3_1_2_relu -> conv3_1_2_bn (in-place)
I0703 18:09:33.975255 35406 net.cpp:150] Setting up conv3_1_2_relu
I0703 18:09:33.975283 35406 net.cpp:157] Top shape: 8 128 27 27 (746496)
I0703 18:09:33.975293 35406 net.cpp:165] Memory required for data: 686954528
I0703 18:09:33.975303 35406 layer_factory.hpp:76] Creating layer conv3_1_3
I0703 18:09:33.975320 35406 net.cpp:106] Creating Layer conv3_1_3
I0703 18:09:33.975329 35406 net.cpp:454] conv3_1_3 <- conv3_1_2_bn
I0703 18:09:33.975342 35406 net.cpp:411] conv3_1_3 -> conv3_1_3
I0703 18:09:33.978451 35406 cudnn_conv_layer.cpp:194] Reallocating workspace storage: 1536
I0703 18:09:33.978502 35406 net.cpp:150] Setting up conv3_1_3
I0703 18:09:33.978530 35406 net.cpp:157] Top shape: 8 512 27 27 (2985984)
I0703 18:09:33.978540 35406 net.cpp:165] Memory required for data: 698898464
I0703 18:09:33.978572 35406 layer_factory.hpp:76] Creating layer conv3_1_sum
I0703 18:09:33.978590 35406 net.cpp:106] Creating Layer conv3_1_sum
I0703 18:09:33.978598 35406 net.cpp:454] conv3_1_sum <- conv2_output
I0703 18:09:33.978610 35406 net.cpp:454] conv3_1_sum <- conv3_1_3
I0703 18:09:33.978621 35406 net.cpp:411] conv3_1_sum -> conv3_1_sum
I0703 18:09:33.978685 35406 net.cpp:150] Setting up conv3_1_sum
I0703 18:09:33.978713 35406 net.cpp:157] Top shape: 8 512 27 27 (2985984)
I0703 18:09:33.978736 35406 net.cpp:165] Memory required for data: 710842400
I0703 18:09:33.978745 35406 layer_factory.hpp:76] Creating layer conv3_1_sum_bn
I0703 18:09:33.978760 35406 net.cpp:106] Creating Layer conv3_1_sum_bn
I0703 18:09:33.978768 35406 net.cpp:454] conv3_1_sum_bn <- conv3_1_sum
I0703 18:09:33.978791 35406 net.cpp:411] conv3_1_sum_bn -> conv3_1_sum_bn
I0703 18:09:33.979019 35406 net.cpp:150] Setting up conv3_1_sum_bn
I0703 18:09:33.979034 35406 net.cpp:157] Top shape: 8 512 27 27 (2985984)
I0703 18:09:33.979043 35406 net.cpp:165] Memory required for data: 722786336
I0703 18:09:33.979055 35406 layer_factory.hpp:76] Creating layer conv3_1_sum_relu
I0703 18:09:33.979068 35406 net.cpp:106] Creating Layer conv3_1_sum_relu
I0703 18:09:33.979077 35406 net.cpp:454] conv3_1_sum_relu <- conv3_1_sum_bn
I0703 18:09:33.979090 35406 net.cpp:397] conv3_1_sum_relu -> conv3_1_sum_bn (in-place)
I0703 18:09:33.979457 35406 net.cpp:150] Setting up conv3_1_sum_relu
I0703 18:09:33.979490 35406 net.cpp:157] Top shape: 8 512 27 27 (2985984)
I0703 18:09:33.979501 35406 net.cpp:165] Memory required for data: 734730272
I0703 18:09:33.979509 35406 layer_factory.hpp:76] Creating layer conv3_1_sum_bn_conv3_1_sum_relu_0_split
I0703 18:09:33.979521 35406 net.cpp:106] Creating Layer conv3_1_sum_bn_conv3_1_sum_relu_0_split
I0703 18:09:33.979531 35406 net.cpp:454] conv3_1_sum_bn_conv3_1_sum_relu_0_split <- conv3_1_sum_bn
I0703 18:09:33.979543 35406 net.cpp:411] conv3_1_sum_bn_conv3_1_sum_relu_0_split -> conv3_1_sum_bn_conv3_1_sum_relu_0_split_0
I0703 18:09:33.979555 35406 net.cpp:411] conv3_1_sum_bn_conv3_1_sum_relu_0_split -> conv3_1_sum_bn_conv3_1_sum_relu_0_split_1
I0703 18:09:33.979620 35406 net.cpp:150] Setting up conv3_1_sum_bn_conv3_1_sum_relu_0_split
I0703 18:09:33.979636 35406 net.cpp:157] Top shape: 8 512 27 27 (2985984)
I0703 18:09:33.979646 35406 net.cpp:157] Top shape: 8 512 27 27 (2985984)
I0703 18:09:33.979655 35406 net.cpp:165] Memory required for data: 758618144
I0703 18:09:33.979665 35406 layer_factory.hpp:76] Creating layer conv3_2_1
I0703 18:09:33.979684 35406 net.cpp:106] Creating Layer conv3_2_1
I0703 18:09:33.979706 35406 net.cpp:454] conv3_2_1 <- conv3_1_sum_bn_conv3_1_sum_relu_0_split_0
I0703 18:09:33.979717 35406 net.cpp:411] conv3_2_1 -> conv3_2_1
I0703 18:09:33.983300 35406 cudnn_conv_layer.cpp:194] Reallocating workspace storage: 6144
I0703 18:09:33.983350 35406 net.cpp:150] Setting up conv3_2_1
I0703 18:09:33.983364 35406 net.cpp:157] Top shape: 8 128 27 27 (746496)
I0703 18:09:33.983373 35406 net.cpp:165] Memory required for data: 761604128
I0703 18:09:33.983386 35406 layer_factory.hpp:76] Creating layer conv3_2_1_bn
I0703 18:09:33.983402 35406 net.cpp:106] Creating Layer conv3_2_1_bn
I0703 18:09:33.983415 35406 net.cpp:454] conv3_2_1_bn <- conv3_2_1
I0703 18:09:33.983441 35406 net.cpp:411] conv3_2_1_bn -> conv3_2_1_bn
I0703 18:09:33.983670 35406 net.cpp:150] Setting up conv3_2_1_bn
I0703 18:09:33.983698 35406 net.cpp:157] Top shape: 8 128 27 27 (746496)
I0703 18:09:33.983708 35406 net.cpp:165] Memory required for data: 764590112
I0703 18:09:33.983721 35406 layer_factory.hpp:76] Creating layer conv3_2_1_relu
I0703 18:09:33.983733 35406 net.cpp:106] Creating Layer conv3_2_1_relu
I0703 18:09:33.983742 35406 net.cpp:454] conv3_2_1_relu <- conv3_2_1_bn
I0703 18:09:33.983789 35406 net.cpp:397] conv3_2_1_relu -> conv3_2_1_bn (in-place)
I0703 18:09:33.984339 35406 net.cpp:150] Setting up conv3_2_1_relu
I0703 18:09:33.984372 35406 net.cpp:157] Top shape: 8 128 27 27 (746496)
I0703 18:09:33.984382 35406 net.cpp:165] Memory required for data: 767576096
I0703 18:09:33.984392 35406 layer_factory.hpp:76] Creating layer conv3_2_2
I0703 18:09:33.984410 35406 net.cpp:106] Creating Layer conv3_2_2
I0703 18:09:33.984419 35406 net.cpp:454] conv3_2_2 <- conv3_2_1_bn
I0703 18:09:33.984439 35406 net.cpp:411] conv3_2_2 -> conv3_2_2
I0703 18:09:33.990872 35406 cudnn_conv_layer.cpp:194] Reallocating workspace storage: 13824
I0703 18:09:33.990911 35406 net.cpp:150] Setting up conv3_2_2
I0703 18:09:33.990926 35406 net.cpp:157] Top shape: 8 128 27 27 (746496)
I0703 18:09:33.990933 35406 net.cpp:165] Memory required for data: 770562080
I0703 18:09:33.990947 35406 layer_factory.hpp:76] Creating layer conv3_2_2_bn
I0703 18:09:33.990963 35406 net.cpp:106] Creating Layer conv3_2_2_bn
I0703 18:09:33.990973 35406 net.cpp:454] conv3_2_2_bn <- conv3_2_2
I0703 18:09:33.990985 35406 net.cpp:411] conv3_2_2_bn -> conv3_2_2_bn
I0703 18:09:33.991230 35406 net.cpp:150] Setting up conv3_2_2_bn
I0703 18:09:33.991245 35406 net.cpp:157] Top shape: 8 128 27 27 (746496)
I0703 18:09:33.991255 35406 net.cpp:165] Memory required for data: 773548064
I0703 18:09:33.991268 35406 layer_factory.hpp:76] Creating layer conv3_2_2_relu
I0703 18:09:33.991293 35406 net.cpp:106] Creating Layer conv3_2_2_relu
I0703 18:09:33.991302 35406 net.cpp:454] conv3_2_2_relu <- conv3_2_2_bn
I0703 18:09:33.991312 35406 net.cpp:397] conv3_2_2_relu -> conv3_2_2_bn (in-place)
I0703 18:09:33.991540 35406 net.cpp:150] Setting up conv3_2_2_relu
I0703 18:09:33.991559 35406 net.cpp:157] Top shape: 8 128 27 27 (746496)
I0703 18:09:33.991567 35406 net.cpp:165] Memory required for data: 776534048
I0703 18:09:33.991576 35406 layer_factory.hpp:76] Creating layer conv3_2_3
I0703 18:09:33.991606 35406 net.cpp:106] Creating Layer conv3_2_3
I0703 18:09:33.991616 35406 net.cpp:454] conv3_2_3 <- conv3_2_2_bn
I0703 18:09:33.991629 35406 net.cpp:411] conv3_2_3 -> conv3_2_3
I0703 18:09:33.994870 35406 cudnn_conv_layer.cpp:194] Reallocating workspace storage: 1536
I0703 18:09:33.994921 35406 net.cpp:150] Setting up conv3_2_3
I0703 18:09:33.994935 35406 net.cpp:157] Top shape: 8 512 27 27 (2985984)
I0703 18:09:33.994956 35406 net.cpp:165] Memory required for data: 788477984
I0703 18:09:33.994971 35406 layer_factory.hpp:76] Creating layer conv3_2_sum
I0703 18:09:33.994984 35406 net.cpp:106] Creating Layer conv3_2_sum
I0703 18:09:33.994994 35406 net.cpp:454] conv3_2_sum <- conv3_1_sum_bn_conv3_1_sum_relu_0_split_1
I0703 18:09:33.995012 35406 net.cpp:454] conv3_2_sum <- conv3_2_3
I0703 18:09:33.995024 35406 net.cpp:411] conv3_2_sum -> conv3_2_sum
I0703 18:09:33.995167 35406 net.cpp:150] Setting up conv3_2_sum
I0703 18:09:33.995194 35406 net.cpp:157] Top shape: 8 512 27 27 (2985984)
I0703 18:09:33.995205 35406 net.cpp:165] Memory required for data: 800421920
I0703 18:09:33.995218 35406 layer_factory.hpp:76] Creating layer conv3_2_sum_bn
I0703 18:09:33.995245 35406 net.cpp:106] Creating Layer conv3_2_sum_bn
I0703 18:09:33.995255 35406 net.cpp:454] conv3_2_sum_bn <- conv3_2_sum
I0703 18:09:33.995273 35406 net.cpp:411] conv3_2_sum_bn -> conv3_2_sum_bn
I0703 18:09:33.995507 35406 net.cpp:150] Setting up conv3_2_sum_bn
I0703 18:09:33.995522 35406 net.cpp:157] Top shape: 8 512 27 27 (2985984)
I0703 18:09:33.995544 35406 net.cpp:165] Memory required for data: 812365856
I0703 18:09:33.995558 35406 layer_factory.hpp:76] Creating layer conv3_2_sum_relu
I0703 18:09:33.995582 35406 net.cpp:106] Creating Layer conv3_2_sum_relu
I0703 18:09:33.995592 35406 net.cpp:454] conv3_2_sum_relu <- conv3_2_sum_bn
I0703 18:09:33.995604 35406 net.cpp:397] conv3_2_sum_relu -> conv3_2_sum_bn (in-place)
I0703 18:09:33.995961 35406 net.cpp:150] Setting up conv3_2_sum_relu
I0703 18:09:33.995995 35406 net.cpp:157] Top shape: 8 512 27 27 (2985984)
I0703 18:09:33.996038 35406 net.cpp:165] Memory required for data: 824309792
I0703 18:09:33.996049 35406 layer_factory.hpp:76] Creating layer conv3_2_sum_bn_conv3_2_sum_relu_0_split
I0703 18:09:33.996064 35406 net.cpp:106] Creating Layer conv3_2_sum_bn_conv3_2_sum_relu_0_split
I0703 18:09:33.996073 35406 net.cpp:454] conv3_2_sum_bn_conv3_2_sum_relu_0_split <- conv3_2_sum_bn
I0703 18:09:33.996084 35406 net.cpp:411] conv3_2_sum_bn_conv3_2_sum_relu_0_split -> conv3_2_sum_bn_conv3_2_sum_relu_0_split_0
I0703 18:09:33.996098 35406 net.cpp:411] conv3_2_sum_bn_conv3_2_sum_relu_0_split -> conv3_2_sum_bn_conv3_2_sum_relu_0_split_1
I0703 18:09:33.996153 35406 net.cpp:150] Setting up conv3_2_sum_bn_conv3_2_sum_relu_0_split
I0703 18:09:33.996168 35406 net.cpp:157] Top shape: 8 512 27 27 (2985984)
I0703 18:09:33.996179 35406 net.cpp:157] Top shape: 8 512 27 27 (2985984)
I0703 18:09:33.996199 35406 net.cpp:165] Memory required for data: 848197664
I0703 18:09:33.996222 35406 layer_factory.hpp:76] Creating layer conv3_3_1
I0703 18:09:33.996238 35406 net.cpp:106] Creating Layer conv3_3_1
I0703 18:09:33.996248 35406 net.cpp:454] conv3_3_1 <- conv3_2_sum_bn_conv3_2_sum_relu_0_split_0
I0703 18:09:33.996261 35406 net.cpp:411] conv3_3_1 -> conv3_3_1
I0703 18:09:33.999197 35406 cudnn_conv_layer.cpp:194] Reallocating workspace storage: 6144
I0703 18:09:33.999248 35406 net.cpp:150] Setting up conv3_3_1
I0703 18:09:33.999282 35406 net.cpp:157] Top shape: 8 128 27 27 (746496)
I0703 18:09:33.999291 35406 net.cpp:165] Memory required for data: 851183648
I0703 18:09:33.999305 35406 layer_factory.hpp:76] Creating layer conv3_3_1_bn
I0703 18:09:33.999335 35406 net.cpp:106] Creating Layer conv3_3_1_bn
I0703 18:09:33.999346 35406 net.cpp:454] conv3_3_1_bn <- conv3_3_1
I0703 18:09:33.999358 35406 net.cpp:411] conv3_3_1_bn -> conv3_3_1_bn
I0703 18:09:33.999595 35406 net.cpp:150] Setting up conv3_3_1_bn
I0703 18:09:33.999624 35406 net.cpp:157] Top shape: 8 128 27 27 (746496)
I0703 18:09:33.999634 35406 net.cpp:165] Memory required for data: 854169632
I0703 18:09:33.999646 35406 layer_factory.hpp:76] Creating layer conv3_3_1_relu
I0703 18:09:33.999672 35406 net.cpp:106] Creating Layer conv3_3_1_relu
I0703 18:09:33.999681 35406 net.cpp:454] conv3_3_1_relu <- conv3_3_1_bn
I0703 18:09:33.999692 35406 net.cpp:397] conv3_3_1_relu -> conv3_3_1_bn (in-place)
I0703 18:09:34.000087 35406 net.cpp:150] Setting up conv3_3_1_relu
I0703 18:09:34.000123 35406 net.cpp:157] Top shape: 8 128 27 27 (746496)
I0703 18:09:34.000133 35406 net.cpp:165] Memory required for data: 857155616
I0703 18:09:34.000155 35406 layer_factory.hpp:76] Creating layer conv3_3_2
I0703 18:09:34.000170 35406 net.cpp:106] Creating Layer conv3_3_2
I0703 18:09:34.000180 35406 net.cpp:454] conv3_3_2 <- conv3_3_1_bn
I0703 18:09:34.000195 35406 net.cpp:411] conv3_3_2 -> conv3_3_2
I0703 18:09:34.006465 35406 cudnn_conv_layer.cpp:194] Reallocating workspace storage: 13824
I0703 18:09:34.006515 35406 net.cpp:150] Setting up conv3_3_2
I0703 18:09:34.006530 35406 net.cpp:157] Top shape: 8 128 27 27 (746496)
I0703 18:09:34.006538 35406 net.cpp:165] Memory required for data: 860141600
I0703 18:09:34.006567 35406 layer_factory.hpp:76] Creating layer conv3_3_2_bn
I0703 18:09:34.006583 35406 net.cpp:106] Creating Layer conv3_3_2_bn
I0703 18:09:34.006595 35406 net.cpp:454] conv3_3_2_bn <- conv3_3_2
I0703 18:09:34.006608 35406 net.cpp:411] conv3_3_2_bn -> conv3_3_2_bn
I0703 18:09:34.006845 35406 net.cpp:150] Setting up conv3_3_2_bn
I0703 18:09:34.006873 35406 net.cpp:157] Top shape: 8 128 27 27 (746496)
I0703 18:09:34.006883 35406 net.cpp:165] Memory required for data: 863127584
I0703 18:09:34.006896 35406 layer_factory.hpp:76] Creating layer conv3_3_2_relu
I0703 18:09:34.006908 35406 net.cpp:106] Creating Layer conv3_3_2_relu
I0703 18:09:34.006917 35406 net.cpp:454] conv3_3_2_relu <- conv3_3_2_bn
I0703 18:09:34.006940 35406 net.cpp:397] conv3_3_2_relu -> conv3_3_2_bn (in-place)
I0703 18:09:34.007159 35406 net.cpp:150] Setting up conv3_3_2_relu
I0703 18:09:34.007189 35406 net.cpp:157] Top shape: 8 128 27 27 (746496)
I0703 18:09:34.007218 35406 net.cpp:165] Memory required for data: 866113568
I0703 18:09:34.007241 35406 layer_factory.hpp:76] Creating layer conv3_3_3
I0703 18:09:34.007261 35406 net.cpp:106] Creating Layer conv3_3_3
I0703 18:09:34.007271 35406 net.cpp:454] conv3_3_3 <- conv3_3_2_bn
I0703 18:09:34.007282 35406 net.cpp:411] conv3_3_3 -> conv3_3_3
I0703 18:09:34.010479 35406 cudnn_conv_layer.cpp:194] Reallocating workspace storage: 1536
I0703 18:09:34.010535 35406 net.cpp:150] Setting up conv3_3_3
I0703 18:09:34.010548 35406 net.cpp:157] Top shape: 8 512 27 27 (2985984)
I0703 18:09:34.010571 35406 net.cpp:165] Memory required for data: 878057504
I0703 18:09:34.010584 35406 layer_factory.hpp:76] Creating layer conv3_3_sum
I0703 18:09:34.010601 35406 net.cpp:106] Creating Layer conv3_3_sum
I0703 18:09:34.010612 35406 net.cpp:454] conv3_3_sum <- conv3_2_sum_bn_conv3_2_sum_relu_0_split_1
I0703 18:09:34.010622 35406 net.cpp:454] conv3_3_sum <- conv3_3_3
I0703 18:09:34.010633 35406 net.cpp:411] conv3_3_sum -> conv3_3_sum
I0703 18:09:34.010671 35406 net.cpp:150] Setting up conv3_3_sum
I0703 18:09:34.010687 35406 net.cpp:157] Top shape: 8 512 27 27 (2985984)
I0703 18:09:34.010696 35406 net.cpp:165] Memory required for data: 890001440
I0703 18:09:34.010705 35406 layer_factory.hpp:76] Creating layer conv3_3_sum_bn
I0703 18:09:34.010717 35406 net.cpp:106] Creating Layer conv3_3_sum_bn
I0703 18:09:34.010730 35406 net.cpp:454] conv3_3_sum_bn <- conv3_3_sum
I0703 18:09:34.010740 35406 net.cpp:411] conv3_3_sum_bn -> conv3_3_sum_bn
I0703 18:09:34.010969 35406 net.cpp:150] Setting up conv3_3_sum_bn
I0703 18:09:34.010984 35406 net.cpp:157] Top shape: 8 512 27 27 (2985984)
I0703 18:09:34.011005 35406 net.cpp:165] Memory required for data: 901945376
I0703 18:09:34.011019 35406 layer_factory.hpp:76] Creating layer conv3_3_sum_relu
I0703 18:09:34.011030 35406 net.cpp:106] Creating Layer conv3_3_sum_relu
I0703 18:09:34.011039 35406 net.cpp:454] conv3_3_sum_relu <- conv3_3_sum_bn
I0703 18:09:34.011062 35406 net.cpp:397] conv3_3_sum_relu -> conv3_3_sum_bn (in-place)
I0703 18:09:34.011415 35406 net.cpp:150] Setting up conv3_3_sum_relu
I0703 18:09:34.011451 35406 net.cpp:157] Top shape: 8 512 27 27 (2985984)
I0703 18:09:34.011461 35406 net.cpp:165] Memory required for data: 913889312
I0703 18:09:34.011468 35406 layer_factory.hpp:76] Creating layer conv3_3_sum_bn_conv3_3_sum_relu_0_split
I0703 18:09:34.011481 35406 net.cpp:106] Creating Layer conv3_3_sum_bn_conv3_3_sum_relu_0_split
I0703 18:09:34.011503 35406 net.cpp:454] conv3_3_sum_bn_conv3_3_sum_relu_0_split <- conv3_3_sum_bn
I0703 18:09:34.011515 35406 net.cpp:411] conv3_3_sum_bn_conv3_3_sum_relu_0_split -> conv3_3_sum_bn_conv3_3_sum_relu_0_split_0
I0703 18:09:34.011528 35406 net.cpp:411] conv3_3_sum_bn_conv3_3_sum_relu_0_split -> conv3_3_sum_bn_conv3_3_sum_relu_0_split_1
I0703 18:09:34.011584 35406 net.cpp:150] Setting up conv3_3_sum_bn_conv3_3_sum_relu_0_split
I0703 18:09:34.011597 35406 net.cpp:157] Top shape: 8 512 27 27 (2985984)
I0703 18:09:34.011620 35406 net.cpp:157] Top shape: 8 512 27 27 (2985984)
I0703 18:09:34.011627 35406 net.cpp:165] Memory required for data: 937777184
I0703 18:09:34.011636 35406 layer_factory.hpp:76] Creating layer conv3_4_1
I0703 18:09:34.011664 35406 net.cpp:106] Creating Layer conv3_4_1
I0703 18:09:34.011674 35406 net.cpp:454] conv3_4_1 <- conv3_3_sum_bn_conv3_3_sum_relu_0_split_0
I0703 18:09:34.011687 35406 net.cpp:411] conv3_4_1 -> conv3_4_1
I0703 18:09:34.015228 35406 cudnn_conv_layer.cpp:194] Reallocating workspace storage: 6144
I0703 18:09:34.015262 35406 net.cpp:150] Setting up conv3_4_1
I0703 18:09:34.015276 35406 net.cpp:157] Top shape: 8 128 27 27 (746496)
I0703 18:09:34.015285 35406 net.cpp:165] Memory required for data: 940763168
I0703 18:09:34.015311 35406 layer_factory.hpp:76] Creating layer conv3_4_1_bn
I0703 18:09:34.015327 35406 net.cpp:106] Creating Layer conv3_4_1_bn
I0703 18:09:34.015337 35406 net.cpp:454] conv3_4_1_bn <- conv3_4_1
I0703 18:09:34.015352 35406 net.cpp:411] conv3_4_1_bn -> conv3_4_1_bn
I0703 18:09:34.015617 35406 net.cpp:150] Setting up conv3_4_1_bn
I0703 18:09:34.015653 35406 net.cpp:157] Top shape: 8 128 27 27 (746496)
I0703 18:09:34.015662 35406 net.cpp:165] Memory required for data: 943749152
I0703 18:09:34.015676 35406 layer_factory.hpp:76] Creating layer conv3_4_1_relu
I0703 18:09:34.015702 35406 net.cpp:106] Creating Layer conv3_4_1_relu
I0703 18:09:34.015712 35406 net.cpp:454] conv3_4_1_relu <- conv3_4_1_bn
I0703 18:09:34.015723 35406 net.cpp:397] conv3_4_1_relu -> conv3_4_1_bn (in-place)
I0703 18:09:34.016079 35406 net.cpp:150] Setting up conv3_4_1_relu
I0703 18:09:34.016111 35406 net.cpp:157] Top shape: 8 128 27 27 (746496)
I0703 18:09:34.016122 35406 net.cpp:165] Memory required for data: 946735136
I0703 18:09:34.016131 35406 layer_factory.hpp:76] Creating layer conv3_4_2
I0703 18:09:34.016161 35406 net.cpp:106] Creating Layer conv3_4_2
I0703 18:09:34.016171 35406 net.cpp:454] conv3_4_2 <- conv3_4_1_bn
I0703 18:09:34.016185 35406 net.cpp:411] conv3_4_2 -> conv3_4_2
I0703 18:09:34.022393 35406 cudnn_conv_layer.cpp:194] Reallocating workspace storage: 13824
I0703 18:09:34.022449 35406 net.cpp:150] Setting up conv3_4_2
I0703 18:09:34.022464 35406 net.cpp:157] Top shape: 8 128 27 27 (746496)
I0703 18:09:34.022486 35406 net.cpp:165] Memory required for data: 949721120
I0703 18:09:34.022500 35406 layer_factory.hpp:76] Creating layer conv3_4_2_bn
I0703 18:09:34.022516 35406 net.cpp:106] Creating Layer conv3_4_2_bn
I0703 18:09:34.022526 35406 net.cpp:454] conv3_4_2_bn <- conv3_4_2
I0703 18:09:34.022538 35406 net.cpp:411] conv3_4_2_bn -> conv3_4_2_bn
I0703 18:09:34.022781 35406 net.cpp:150] Setting up conv3_4_2_bn
I0703 18:09:34.022809 35406 net.cpp:157] Top shape: 8 128 27 27 (746496)
I0703 18:09:34.022819 35406 net.cpp:165] Memory required for data: 952707104
I0703 18:09:34.022845 35406 layer_factory.hpp:76] Creating layer conv3_4_2_relu
I0703 18:09:34.022861 35406 net.cpp:106] Creating Layer conv3_4_2_relu
I0703 18:09:34.022871 35406 net.cpp:454] conv3_4_2_relu <- conv3_4_2_bn
I0703 18:09:34.022882 35406 net.cpp:397] conv3_4_2_relu -> conv3_4_2_bn (in-place)
I0703 18:09:34.023092 35406 net.cpp:150] Setting up conv3_4_2_relu
I0703 18:09:34.023120 35406 net.cpp:157] Top shape: 8 128 27 27 (746496)
I0703 18:09:34.023130 35406 net.cpp:165] Memory required for data: 955693088
I0703 18:09:34.023139 35406 layer_factory.hpp:76] Creating layer conv3_4_3
I0703 18:09:34.023155 35406 net.cpp:106] Creating Layer conv3_4_3
I0703 18:09:34.023164 35406 net.cpp:454] conv3_4_3 <- conv3_4_2_bn
I0703 18:09:34.023190 35406 net.cpp:411] conv3_4_3 -> conv3_4_3
I0703 18:09:34.026310 35406 cudnn_conv_layer.cpp:194] Reallocating workspace storage: 1536
I0703 18:09:34.026348 35406 net.cpp:150] Setting up conv3_4_3
I0703 18:09:34.026362 35406 net.cpp:157] Top shape: 8 512 27 27 (2985984)
I0703 18:09:34.026371 35406 net.cpp:165] Memory required for data: 967637024
I0703 18:09:34.026398 35406 layer_factory.hpp:76] Creating layer conv3_4_sum
I0703 18:09:34.026414 35406 net.cpp:106] Creating Layer conv3_4_sum
I0703 18:09:34.026424 35406 net.cpp:454] conv3_4_sum <- conv3_3_sum_bn_conv3_3_sum_relu_0_split_1
I0703 18:09:34.026435 35406 net.cpp:454] conv3_4_sum <- conv3_4_3
I0703 18:09:34.026448 35406 net.cpp:411] conv3_4_sum -> conv3_4_sum
I0703 18:09:34.026486 35406 net.cpp:150] Setting up conv3_4_sum
I0703 18:09:34.026511 35406 net.cpp:157] Top shape: 8 512 27 27 (2985984)
I0703 18:09:34.026535 35406 net.cpp:165] Memory required for data: 979580960
I0703 18:09:34.026543 35406 layer_factory.hpp:76] Creating layer conv3_4_sum_bn
I0703 18:09:34.026558 35406 net.cpp:106] Creating Layer conv3_4_sum_bn
I0703 18:09:34.026567 35406 net.cpp:454] conv3_4_sum_bn <- conv3_4_sum
I0703 18:09:34.026578 35406 net.cpp:411] conv3_4_sum_bn -> conv3_4_sum_bn
I0703 18:09:34.026855 35406 net.cpp:150] Setting up conv3_4_sum_bn
I0703 18:09:34.026882 35406 net.cpp:157] Top shape: 8 512 27 27 (2985984)
I0703 18:09:34.026892 35406 net.cpp:165] Memory required for data: 991524896
I0703 18:09:34.026906 35406 layer_factory.hpp:76] Creating layer conv3_4_sum_relu
I0703 18:09:34.026919 35406 net.cpp:106] Creating Layer conv3_4_sum_relu
I0703 18:09:34.026962 35406 net.cpp:454] conv3_4_sum_relu <- conv3_4_sum_bn
I0703 18:09:34.026974 35406 net.cpp:397] conv3_4_sum_relu -> conv3_4_sum_bn (in-place)
I0703 18:09:34.027498 35406 net.cpp:150] Setting up conv3_4_sum_relu
I0703 18:09:34.027529 35406 net.cpp:157] Top shape: 8 512 27 27 (2985984)
I0703 18:09:34.027539 35406 net.cpp:165] Memory required for data: 1003468832
I0703 18:09:34.027549 35406 layer_factory.hpp:76] Creating layer conv3_4_sum_bn_conv3_4_sum_relu_0_split
I0703 18:09:34.027560 35406 net.cpp:106] Creating Layer conv3_4_sum_bn_conv3_4_sum_relu_0_split
I0703 18:09:34.027570 35406 net.cpp:454] conv3_4_sum_bn_conv3_4_sum_relu_0_split <- conv3_4_sum_bn
I0703 18:09:34.027593 35406 net.cpp:411] conv3_4_sum_bn_conv3_4_sum_relu_0_split -> conv3_4_sum_bn_conv3_4_sum_relu_0_split_0
I0703 18:09:34.027606 35406 net.cpp:411] conv3_4_sum_bn_conv3_4_sum_relu_0_split -> conv3_4_sum_bn_conv3_4_sum_relu_0_split_1
I0703 18:09:34.027667 35406 net.cpp:150] Setting up conv3_4_sum_bn_conv3_4_sum_relu_0_split
I0703 18:09:34.027683 35406 net.cpp:157] Top shape: 8 512 27 27 (2985984)
I0703 18:09:34.027693 35406 net.cpp:157] Top shape: 8 512 27 27 (2985984)
I0703 18:09:34.027700 35406 net.cpp:165] Memory required for data: 1027356704
I0703 18:09:34.027710 35406 layer_factory.hpp:76] Creating layer conv3_5_1
I0703 18:09:34.027726 35406 net.cpp:106] Creating Layer conv3_5_1
I0703 18:09:34.027736 35406 net.cpp:454] conv3_5_1 <- conv3_4_sum_bn_conv3_4_sum_relu_0_split_0
I0703 18:09:34.027750 35406 net.cpp:411] conv3_5_1 -> conv3_5_1
I0703 18:09:34.030702 35406 cudnn_conv_layer.cpp:194] Reallocating workspace storage: 6144
I0703 18:09:34.030750 35406 net.cpp:150] Setting up conv3_5_1
I0703 18:09:34.030764 35406 net.cpp:157] Top shape: 8 128 27 27 (746496)
I0703 18:09:34.030773 35406 net.cpp:165] Memory required for data: 1030342688
I0703 18:09:34.030799 35406 layer_factory.hpp:76] Creating layer conv3_5_1_bn
I0703 18:09:34.030812 35406 net.cpp:106] Creating Layer conv3_5_1_bn
I0703 18:09:34.030822 35406 net.cpp:454] conv3_5_1_bn <- conv3_5_1
I0703 18:09:34.030836 35406 net.cpp:411] conv3_5_1_bn -> conv3_5_1_bn
I0703 18:09:34.031077 35406 net.cpp:150] Setting up conv3_5_1_bn
I0703 18:09:34.031105 35406 net.cpp:157] Top shape: 8 128 27 27 (746496)
I0703 18:09:34.031116 35406 net.cpp:165] Memory required for data: 1033328672
I0703 18:09:34.031128 35406 layer_factory.hpp:76] Creating layer conv3_5_1_relu
I0703 18:09:34.031142 35406 net.cpp:106] Creating Layer conv3_5_1_relu
I0703 18:09:34.031164 35406 net.cpp:454] conv3_5_1_relu <- conv3_5_1_bn
I0703 18:09:34.031175 35406 net.cpp:397] conv3_5_1_relu -> conv3_5_1_bn (in-place)
I0703 18:09:34.031527 35406 net.cpp:150] Setting up conv3_5_1_relu
I0703 18:09:34.031560 35406 net.cpp:157] Top shape: 8 128 27 27 (746496)
I0703 18:09:34.031570 35406 net.cpp:165] Memory required for data: 1036314656
I0703 18:09:34.031579 35406 layer_factory.hpp:76] Creating layer conv3_5_2
I0703 18:09:34.031599 35406 net.cpp:106] Creating Layer conv3_5_2
I0703 18:09:34.031621 35406 net.cpp:454] conv3_5_2 <- conv3_5_1_bn
I0703 18:09:34.031635 35406 net.cpp:411] conv3_5_2 -> conv3_5_2
I0703 18:09:34.037775 35406 cudnn_conv_layer.cpp:194] Reallocating workspace storage: 13824
I0703 18:09:34.037827 35406 net.cpp:150] Setting up conv3_5_2
I0703 18:09:34.037843 35406 net.cpp:157] Top shape: 8 128 27 27 (746496)
I0703 18:09:34.037853 35406 net.cpp:165] Memory required for data: 1039300640
I0703 18:09:34.037878 35406 layer_factory.hpp:76] Creating layer conv3_5_2_bn
I0703 18:09:34.037895 35406 net.cpp:106] Creating Layer conv3_5_2_bn
I0703 18:09:34.037906 35406 net.cpp:454] conv3_5_2_bn <- conv3_5_2
I0703 18:09:34.037919 35406 net.cpp:411] conv3_5_2_bn -> conv3_5_2_bn
I0703 18:09:34.038166 35406 net.cpp:150] Setting up conv3_5_2_bn
I0703 18:09:34.038182 35406 net.cpp:157] Top shape: 8 128 27 27 (746496)
I0703 18:09:34.038190 35406 net.cpp:165] Memory required for data: 1042286624
I0703 18:09:34.038203 35406 layer_factory.hpp:76] Creating layer conv3_5_2_relu
I0703 18:09:34.038228 35406 net.cpp:106] Creating Layer conv3_5_2_relu
I0703 18:09:34.038254 35406 net.cpp:454] conv3_5_2_relu <- conv3_5_2_bn
I0703 18:09:34.038266 35406 net.cpp:397] conv3_5_2_relu -> conv3_5_2_bn (in-place)
I0703 18:09:34.038480 35406 net.cpp:150] Setting up conv3_5_2_relu
I0703 18:09:34.038511 35406 net.cpp:157] Top shape: 8 128 27 27 (746496)
I0703 18:09:34.038521 35406 net.cpp:165] Memory required for data: 1045272608
I0703 18:09:34.038529 35406 layer_factory.hpp:76] Creating layer conv3_5_3
I0703 18:09:34.038545 35406 net.cpp:106] Creating Layer conv3_5_3
I0703 18:09:34.038568 35406 net.cpp:454] conv3_5_3 <- conv3_5_2_bn
I0703 18:09:34.038585 35406 net.cpp:411] conv3_5_3 -> conv3_5_3
I0703 18:09:34.041661 35406 cudnn_conv_layer.cpp:194] Reallocating workspace storage: 1536
I0703 18:09:34.041712 35406 net.cpp:150] Setting up conv3_5_3
I0703 18:09:34.041725 35406 net.cpp:157] Top shape: 8 512 27 27 (2985984)
I0703 18:09:34.041734 35406 net.cpp:165] Memory required for data: 1057216544
I0703 18:09:34.041760 35406 layer_factory.hpp:76] Creating layer conv3_5_sum
I0703 18:09:34.041777 35406 net.cpp:106] Creating Layer conv3_5_sum
I0703 18:09:34.041788 35406 net.cpp:454] conv3_5_sum <- conv3_4_sum_bn_conv3_4_sum_relu_0_split_1
I0703 18:09:34.041800 35406 net.cpp:454] conv3_5_sum <- conv3_5_3
I0703 18:09:34.041813 35406 net.cpp:411] conv3_5_sum -> conv3_5_sum
I0703 18:09:34.041851 35406 net.cpp:150] Setting up conv3_5_sum
I0703 18:09:34.041867 35406 net.cpp:157] Top shape: 8 512 27 27 (2985984)
I0703 18:09:34.041875 35406 net.cpp:165] Memory required for data: 1069160480
I0703 18:09:34.041884 35406 layer_factory.hpp:76] Creating layer conv3_5_sum_bn
I0703 18:09:34.041898 35406 net.cpp:106] Creating Layer conv3_5_sum_bn
I0703 18:09:34.041908 35406 net.cpp:454] conv3_5_sum_bn <- conv3_5_sum
I0703 18:09:34.041921 35406 net.cpp:411] conv3_5_sum_bn -> conv3_5_sum_bn
I0703 18:09:34.042160 35406 net.cpp:150] Setting up conv3_5_sum_bn
I0703 18:09:34.042179 35406 net.cpp:157] Top shape: 8 512 27 27 (2985984)
I0703 18:09:34.042203 35406 net.cpp:165] Memory required for data: 1081104416
I0703 18:09:34.042248 35406 layer_factory.hpp:76] Creating layer conv3_5_sum_relu
I0703 18:09:34.042260 35406 net.cpp:106] Creating Layer conv3_5_sum_relu
I0703 18:09:34.042269 35406 net.cpp:454] conv3_5_sum_relu <- conv3_5_sum_bn
I0703 18:09:34.042280 35406 net.cpp:397] conv3_5_sum_relu -> conv3_5_sum_bn (in-place)
I0703 18:09:34.042630 35406 net.cpp:150] Setting up conv3_5_sum_relu
I0703 18:09:34.042664 35406 net.cpp:157] Top shape: 8 512 27 27 (2985984)
I0703 18:09:34.042673 35406 net.cpp:165] Memory required for data: 1093048352
I0703 18:09:34.042683 35406 layer_factory.hpp:76] Creating layer conv3_5_sum_bn_conv3_5_sum_relu_0_split
I0703 18:09:34.042697 35406 net.cpp:106] Creating Layer conv3_5_sum_bn_conv3_5_sum_relu_0_split
I0703 18:09:34.042707 35406 net.cpp:454] conv3_5_sum_bn_conv3_5_sum_relu_0_split <- conv3_5_sum_bn
I0703 18:09:34.042718 35406 net.cpp:411] conv3_5_sum_bn_conv3_5_sum_relu_0_split -> conv3_5_sum_bn_conv3_5_sum_relu_0_split_0
I0703 18:09:34.042733 35406 net.cpp:411] conv3_5_sum_bn_conv3_5_sum_relu_0_split -> conv3_5_sum_bn_conv3_5_sum_relu_0_split_1
I0703 18:09:34.042789 35406 net.cpp:150] Setting up conv3_5_sum_bn_conv3_5_sum_relu_0_split
I0703 18:09:34.042805 35406 net.cpp:157] Top shape: 8 512 27 27 (2985984)
I0703 18:09:34.042815 35406 net.cpp:157] Top shape: 8 512 27 27 (2985984)
I0703 18:09:34.042824 35406 net.cpp:165] Memory required for data: 1116936224
I0703 18:09:34.042834 35406 layer_factory.hpp:76] Creating layer conv3_6_1
I0703 18:09:34.042850 35406 net.cpp:106] Creating Layer conv3_6_1
I0703 18:09:34.042858 35406 net.cpp:454] conv3_6_1 <- conv3_5_sum_bn_conv3_5_sum_relu_0_split_0
I0703 18:09:34.042872 35406 net.cpp:411] conv3_6_1 -> conv3_6_1
I0703 18:09:34.046627 35406 cudnn_conv_layer.cpp:194] Reallocating workspace storage: 6144
I0703 18:09:34.046668 35406 net.cpp:150] Setting up conv3_6_1
I0703 18:09:34.046681 35406 net.cpp:157] Top shape: 8 128 27 27 (746496)
I0703 18:09:34.046691 35406 net.cpp:165] Memory required for data: 1119922208
I0703 18:09:34.046721 35406 layer_factory.hpp:76] Creating layer conv3_6_1_bn
I0703 18:09:34.046736 35406 net.cpp:106] Creating Layer conv3_6_1_bn
I0703 18:09:34.046746 35406 net.cpp:454] conv3_6_1_bn <- conv3_6_1
I0703 18:09:34.046759 35406 net.cpp:411] conv3_6_1_bn -> conv3_6_1_bn
I0703 18:09:34.047005 35406 net.cpp:150] Setting up conv3_6_1_bn
I0703 18:09:34.047034 35406 net.cpp:157] Top shape: 8 128 27 27 (746496)
I0703 18:09:34.047044 35406 net.cpp:165] Memory required for data: 1122908192
I0703 18:09:34.047058 35406 layer_factory.hpp:76] Creating layer conv3_6_1_relu
I0703 18:09:34.047072 35406 net.cpp:106] Creating Layer conv3_6_1_relu
I0703 18:09:34.047083 35406 net.cpp:454] conv3_6_1_relu <- conv3_6_1_bn
I0703 18:09:34.047094 35406 net.cpp:397] conv3_6_1_relu -> conv3_6_1_bn (in-place)
I0703 18:09:34.047446 35406 net.cpp:150] Setting up conv3_6_1_relu
I0703 18:09:34.047479 35406 net.cpp:157] Top shape: 8 128 27 27 (746496)
I0703 18:09:34.047489 35406 net.cpp:165] Memory required for data: 1125894176
I0703 18:09:34.047499 35406 layer_factory.hpp:76] Creating layer conv3_6_2
I0703 18:09:34.047518 35406 net.cpp:106] Creating Layer conv3_6_2
I0703 18:09:34.047528 35406 net.cpp:454] conv3_6_2 <- conv3_6_1_bn
I0703 18:09:34.047539 35406 net.cpp:411] conv3_6_2 -> conv3_6_2
I0703 18:09:34.053855 35406 cudnn_conv_layer.cpp:194] Reallocating workspace storage: 13824
I0703 18:09:34.053910 35406 net.cpp:150] Setting up conv3_6_2
I0703 18:09:34.053925 35406 net.cpp:157] Top shape: 8 128 27 27 (746496)
I0703 18:09:34.053935 35406 net.cpp:165] Memory required for data: 1128880160
I0703 18:09:34.053948 35406 layer_factory.hpp:76] Creating layer conv3_6_2_bn
I0703 18:09:34.053966 35406 net.cpp:106] Creating Layer conv3_6_2_bn
I0703 18:09:34.053977 35406 net.cpp:454] conv3_6_2_bn <- conv3_6_2
I0703 18:09:34.053988 35406 net.cpp:411] conv3_6_2_bn -> conv3_6_2_bn
I0703 18:09:34.054235 35406 net.cpp:150] Setting up conv3_6_2_bn
I0703 18:09:34.054252 35406 net.cpp:157] Top shape: 8 128 27 27 (746496)
I0703 18:09:34.054275 35406 net.cpp:165] Memory required for data: 1131866144
I0703 18:09:34.054288 35406 layer_factory.hpp:76] Creating layer conv3_6_2_relu
I0703 18:09:34.054302 35406 net.cpp:106] Creating Layer conv3_6_2_relu
I0703 18:09:34.054313 35406 net.cpp:454] conv3_6_2_relu <- conv3_6_2_bn
I0703 18:09:34.054323 35406 net.cpp:397] conv3_6_2_relu -> conv3_6_2_bn (in-place)
I0703 18:09:34.054524 35406 net.cpp:150] Setting up conv3_6_2_relu
I0703 18:09:34.054554 35406 net.cpp:157] Top shape: 8 128 27 27 (746496)
I0703 18:09:34.054564 35406 net.cpp:165] Memory required for data: 1134852128
I0703 18:09:34.054574 35406 layer_factory.hpp:76] Creating layer conv3_6_3
I0703 18:09:34.054590 35406 net.cpp:106] Creating Layer conv3_6_3
I0703 18:09:34.054600 35406 net.cpp:454] conv3_6_3 <- conv3_6_2_bn
I0703 18:09:34.054613 35406 net.cpp:411] conv3_6_3 -> conv3_6_3
I0703 18:09:34.057767 35406 cudnn_conv_layer.cpp:194] Reallocating workspace storage: 1536
I0703 18:09:34.057807 35406 net.cpp:150] Setting up conv3_6_3
I0703 18:09:34.057821 35406 net.cpp:157] Top shape: 8 512 27 27 (2985984)
I0703 18:09:34.057831 35406 net.cpp:165] Memory required for data: 1146796064
I0703 18:09:34.057855 35406 layer_factory.hpp:76] Creating layer conv3_6_sum
I0703 18:09:34.057873 35406 net.cpp:106] Creating Layer conv3_6_sum
I0703 18:09:34.057883 35406 net.cpp:454] conv3_6_sum <- conv3_5_sum_bn_conv3_5_sum_relu_0_split_1
I0703 18:09:34.057894 35406 net.cpp:454] conv3_6_sum <- conv3_6_3
I0703 18:09:34.057905 35406 net.cpp:411] conv3_6_sum -> conv3_6_sum
I0703 18:09:34.057947 35406 net.cpp:150] Setting up conv3_6_sum
I0703 18:09:34.057974 35406 net.cpp:157] Top shape: 8 512 27 27 (2985984)
I0703 18:09:34.057983 35406 net.cpp:165] Memory required for data: 1158740000
I0703 18:09:34.057991 35406 layer_factory.hpp:76] Creating layer conv3_6_sum_bn
I0703 18:09:34.058018 35406 net.cpp:106] Creating Layer conv3_6_sum_bn
I0703 18:09:34.058028 35406 net.cpp:454] conv3_6_sum_bn <- conv3_6_sum
I0703 18:09:34.058039 35406 net.cpp:411] conv3_6_sum_bn -> conv3_6_sum_bn
I0703 18:09:34.058325 35406 net.cpp:150] Setting up conv3_6_sum_bn
I0703 18:09:34.058341 35406 net.cpp:157] Top shape: 8 512 27 27 (2985984)
I0703 18:09:34.058349 35406 net.cpp:165] Memory required for data: 1170683936
I0703 18:09:34.058363 35406 layer_factory.hpp:76] Creating layer conv3_6_sum_relu
I0703 18:09:34.058390 35406 net.cpp:106] Creating Layer conv3_6_sum_relu
I0703 18:09:34.058400 35406 net.cpp:454] conv3_6_sum_relu <- conv3_6_sum_bn
I0703 18:09:34.058411 35406 net.cpp:397] conv3_6_sum_relu -> conv3_6_sum_bn (in-place)
I0703 18:09:34.058790 35406 net.cpp:150] Setting up conv3_6_sum_relu
I0703 18:09:34.058811 35406 net.cpp:157] Top shape: 8 512 27 27 (2985984)
I0703 18:09:34.058821 35406 net.cpp:165] Memory required for data: 1182627872
I0703 18:09:34.058830 35406 layer_factory.hpp:76] Creating layer conv3_6_sum_bn_conv3_6_sum_relu_0_split
I0703 18:09:34.058856 35406 net.cpp:106] Creating Layer conv3_6_sum_bn_conv3_6_sum_relu_0_split
I0703 18:09:34.058866 35406 net.cpp:454] conv3_6_sum_bn_conv3_6_sum_relu_0_split <- conv3_6_sum_bn
I0703 18:09:34.058879 35406 net.cpp:411] conv3_6_sum_bn_conv3_6_sum_relu_0_split -> conv3_6_sum_bn_conv3_6_sum_relu_0_split_0
I0703 18:09:34.058892 35406 net.cpp:411] conv3_6_sum_bn_conv3_6_sum_relu_0_split -> conv3_6_sum_bn_conv3_6_sum_relu_0_split_1
I0703 18:09:34.058960 35406 net.cpp:150] Setting up conv3_6_sum_bn_conv3_6_sum_relu_0_split
I0703 18:09:34.058976 35406 net.cpp:157] Top shape: 8 512 27 27 (2985984)
I0703 18:09:34.058986 35406 net.cpp:157] Top shape: 8 512 27 27 (2985984)
I0703 18:09:34.059007 35406 net.cpp:165] Memory required for data: 1206515744
I0703 18:09:34.059017 35406 layer_factory.hpp:76] Creating layer conv3_7_1
I0703 18:09:34.059031 35406 net.cpp:106] Creating Layer conv3_7_1
I0703 18:09:34.059041 35406 net.cpp:454] conv3_7_1 <- conv3_6_sum_bn_conv3_6_sum_relu_0_split_0
I0703 18:09:34.059053 35406 net.cpp:411] conv3_7_1 -> conv3_7_1
I0703 18:09:34.062078 35406 cudnn_conv_layer.cpp:194] Reallocating workspace storage: 6144
I0703 18:09:34.062125 35406 net.cpp:150] Setting up conv3_7_1
I0703 18:09:34.062141 35406 net.cpp:157] Top shape: 8 128 27 27 (746496)
I0703 18:09:34.062151 35406 net.cpp:165] Memory required for data: 1209501728
I0703 18:09:34.062176 35406 layer_factory.hpp:76] Creating layer conv3_7_1_bn
I0703 18:09:34.062191 35406 net.cpp:106] Creating Layer conv3_7_1_bn
I0703 18:09:34.062201 35406 net.cpp:454] conv3_7_1_bn <- conv3_7_1
I0703 18:09:34.062214 35406 net.cpp:411] conv3_7_1_bn -> conv3_7_1_bn
I0703 18:09:34.062469 35406 net.cpp:150] Setting up conv3_7_1_bn
I0703 18:09:34.062497 35406 net.cpp:157] Top shape: 8 128 27 27 (746496)
I0703 18:09:34.062506 35406 net.cpp:165] Memory required for data: 1212487712
I0703 18:09:34.062520 35406 layer_factory.hpp:76] Creating layer conv3_7_1_relu
I0703 18:09:34.062531 35406 net.cpp:106] Creating Layer conv3_7_1_relu
I0703 18:09:34.062541 35406 net.cpp:454] conv3_7_1_relu <- conv3_7_1_bn
I0703 18:09:34.062566 35406 net.cpp:397] conv3_7_1_relu -> conv3_7_1_bn (in-place)
I0703 18:09:34.062922 35406 net.cpp:150] Setting up conv3_7_1_relu
I0703 18:09:34.062954 35406 net.cpp:157] Top shape: 8 128 27 27 (746496)
I0703 18:09:34.062964 35406 net.cpp:165] Memory required for data: 1215473696
I0703 18:09:34.062973 35406 layer_factory.hpp:76] Creating layer conv3_7_2
I0703 18:09:34.062988 35406 net.cpp:106] Creating Layer conv3_7_2
I0703 18:09:34.063011 35406 net.cpp:454] conv3_7_2 <- conv3_7_1_bn
I0703 18:09:34.063025 35406 net.cpp:411] conv3_7_2 -> conv3_7_2
I0703 18:09:34.069224 35406 cudnn_conv_layer.cpp:194] Reallocating workspace storage: 13824
I0703 18:09:34.069278 35406 net.cpp:150] Setting up conv3_7_2
I0703 18:09:34.069296 35406 net.cpp:157] Top shape: 8 128 27 27 (746496)
I0703 18:09:34.069305 35406 net.cpp:165] Memory required for data: 1218459680
I0703 18:09:34.069332 35406 layer_factory.hpp:76] Creating layer conv3_7_2_bn
I0703 18:09:34.069347 35406 net.cpp:106] Creating Layer conv3_7_2_bn
I0703 18:09:34.069358 35406 net.cpp:454] conv3_7_2_bn <- conv3_7_2
I0703 18:09:34.069372 35406 net.cpp:411] conv3_7_2_bn -> conv3_7_2_bn
I0703 18:09:34.069664 35406 net.cpp:150] Setting up conv3_7_2_bn
I0703 18:09:34.069694 35406 net.cpp:157] Top shape: 8 128 27 27 (746496)
I0703 18:09:34.069702 35406 net.cpp:165] Memory required for data: 1221445664
I0703 18:09:34.069715 35406 layer_factory.hpp:76] Creating layer conv3_7_2_relu
I0703 18:09:34.069727 35406 net.cpp:106] Creating Layer conv3_7_2_relu
I0703 18:09:34.069737 35406 net.cpp:454] conv3_7_2_relu <- conv3_7_2_bn
I0703 18:09:34.069763 35406 net.cpp:397] conv3_7_2_relu -> conv3_7_2_bn (in-place)
I0703 18:09:34.070153 35406 net.cpp:150] Setting up conv3_7_2_relu
I0703 18:09:34.070185 35406 net.cpp:157] Top shape: 8 128 27 27 (746496)
I0703 18:09:34.070196 35406 net.cpp:165] Memory required for data: 1224431648
I0703 18:09:34.070205 35406 layer_factory.hpp:76] Creating layer conv3_7_3
I0703 18:09:34.070224 35406 net.cpp:106] Creating Layer conv3_7_3
I0703 18:09:34.070246 35406 net.cpp:454] conv3_7_3 <- conv3_7_2_bn
I0703 18:09:34.070258 35406 net.cpp:411] conv3_7_3 -> conv3_7_3
I0703 18:09:34.073405 35406 cudnn_conv_layer.cpp:194] Reallocating workspace storage: 1536
I0703 18:09:34.073456 35406 net.cpp:150] Setting up conv3_7_3
I0703 18:09:34.073469 35406 net.cpp:157] Top shape: 8 512 27 27 (2985984)
I0703 18:09:34.073478 35406 net.cpp:165] Memory required for data: 1236375584
I0703 18:09:34.073505 35406 layer_factory.hpp:76] Creating layer conv3_7_sum
I0703 18:09:34.073521 35406 net.cpp:106] Creating Layer conv3_7_sum
I0703 18:09:34.073531 35406 net.cpp:454] conv3_7_sum <- conv3_6_sum_bn_conv3_6_sum_relu_0_split_1
I0703 18:09:34.073544 35406 net.cpp:454] conv3_7_sum <- conv3_7_3
I0703 18:09:34.073554 35406 net.cpp:411] conv3_7_sum -> conv3_7_sum
I0703 18:09:34.073596 35406 net.cpp:150] Setting up conv3_7_sum
I0703 18:09:34.073611 35406 net.cpp:157] Top shape: 8 512 27 27 (2985984)
I0703 18:09:34.073621 35406 net.cpp:165] Memory required for data: 1248319520
I0703 18:09:34.073629 35406 layer_factory.hpp:76] Creating layer conv3_7_sum_bn
I0703 18:09:34.073643 35406 net.cpp:106] Creating Layer conv3_7_sum_bn
I0703 18:09:34.073653 35406 net.cpp:454] conv3_7_sum_bn <- conv3_7_sum
I0703 18:09:34.073664 35406 net.cpp:411] conv3_7_sum_bn -> conv3_7_sum_bn
I0703 18:09:34.073905 35406 net.cpp:150] Setting up conv3_7_sum_bn
I0703 18:09:34.073933 35406 net.cpp:157] Top shape: 8 512 27 27 (2985984)
I0703 18:09:34.073943 35406 net.cpp:165] Memory required for data: 1260263456
I0703 18:09:34.073957 35406 layer_factory.hpp:76] Creating layer conv3_7_sum_relu
I0703 18:09:34.073971 35406 net.cpp:106] Creating Layer conv3_7_sum_relu
I0703 18:09:34.073982 35406 net.cpp:454] conv3_7_sum_relu <- conv3_7_sum_bn
I0703 18:09:34.073992 35406 net.cpp:397] conv3_7_sum_relu -> conv3_7_sum_bn (in-place)
I0703 18:09:34.074374 35406 net.cpp:150] Setting up conv3_7_sum_relu
I0703 18:09:34.074414 35406 net.cpp:157] Top shape: 8 512 27 27 (2985984)
I0703 18:09:34.074424 35406 net.cpp:165] Memory required for data: 1272207392
I0703 18:09:34.074434 35406 layer_factory.hpp:76] Creating layer conv3_7_sum_bn_conv3_7_sum_relu_0_split
I0703 18:09:34.074447 35406 net.cpp:106] Creating Layer conv3_7_sum_bn_conv3_7_sum_relu_0_split
I0703 18:09:34.074457 35406 net.cpp:454] conv3_7_sum_bn_conv3_7_sum_relu_0_split <- conv3_7_sum_bn
I0703 18:09:34.074471 35406 net.cpp:411] conv3_7_sum_bn_conv3_7_sum_relu_0_split -> conv3_7_sum_bn_conv3_7_sum_relu_0_split_0
I0703 18:09:34.074486 35406 net.cpp:411] conv3_7_sum_bn_conv3_7_sum_relu_0_split -> conv3_7_sum_bn_conv3_7_sum_relu_0_split_1
I0703 18:09:34.074548 35406 net.cpp:150] Setting up conv3_7_sum_bn_conv3_7_sum_relu_0_split
I0703 18:09:34.074564 35406 net.cpp:157] Top shape: 8 512 27 27 (2985984)
I0703 18:09:34.074575 35406 net.cpp:157] Top shape: 8 512 27 27 (2985984)
I0703 18:09:34.074584 35406 net.cpp:165] Memory required for data: 1296095264
I0703 18:09:34.074594 35406 layer_factory.hpp:76] Creating layer conv3_8_1
I0703 18:09:34.074607 35406 net.cpp:106] Creating Layer conv3_8_1
I0703 18:09:34.074616 35406 net.cpp:454] conv3_8_1 <- conv3_7_sum_bn_conv3_7_sum_relu_0_split_0
I0703 18:09:34.074652 35406 net.cpp:411] conv3_8_1 -> conv3_8_1
I0703 18:09:34.078256 35406 cudnn_conv_layer.cpp:194] Reallocating workspace storage: 6144
I0703 18:09:34.078307 35406 net.cpp:150] Setting up conv3_8_1
I0703 18:09:34.078321 35406 net.cpp:157] Top shape: 8 128 27 27 (746496)
I0703 18:09:34.078331 35406 net.cpp:165] Memory required for data: 1299081248
I0703 18:09:34.078343 35406 layer_factory.hpp:76] Creating layer conv3_8_1_bn
I0703 18:09:34.078359 35406 net.cpp:106] Creating Layer conv3_8_1_bn
I0703 18:09:34.078369 35406 net.cpp:454] conv3_8_1_bn <- conv3_8_1
I0703 18:09:34.078383 35406 net.cpp:411] conv3_8_1_bn -> conv3_8_1_bn
I0703 18:09:34.078636 35406 net.cpp:150] Setting up conv3_8_1_bn
I0703 18:09:34.078665 35406 net.cpp:157] Top shape: 8 128 27 27 (746496)
I0703 18:09:34.078675 35406 net.cpp:165] Memory required for data: 1302067232
I0703 18:09:34.078687 35406 layer_factory.hpp:76] Creating layer conv3_8_1_relu
I0703 18:09:34.078699 35406 net.cpp:106] Creating Layer conv3_8_1_relu
I0703 18:09:34.078708 35406 net.cpp:454] conv3_8_1_relu <- conv3_8_1_bn
I0703 18:09:34.078719 35406 net.cpp:397] conv3_8_1_relu -> conv3_8_1_bn (in-place)
I0703 18:09:34.079077 35406 net.cpp:150] Setting up conv3_8_1_relu
I0703 18:09:34.079110 35406 net.cpp:157] Top shape: 8 128 27 27 (746496)
I0703 18:09:34.079120 35406 net.cpp:165] Memory required for data: 1305053216
I0703 18:09:34.079130 35406 layer_factory.hpp:76] Creating layer conv3_8_2
I0703 18:09:34.079147 35406 net.cpp:106] Creating Layer conv3_8_2
I0703 18:09:34.079157 35406 net.cpp:454] conv3_8_2 <- conv3_8_1_bn
I0703 18:09:34.079170 35406 net.cpp:411] conv3_8_2 -> conv3_8_2
I0703 18:09:34.085718 35406 cudnn_conv_layer.cpp:194] Reallocating workspace storage: 13824
I0703 18:09:34.085775 35406 net.cpp:150] Setting up conv3_8_2
I0703 18:09:34.085793 35406 net.cpp:157] Top shape: 8 128 27 27 (746496)
I0703 18:09:34.085803 35406 net.cpp:165] Memory required for data: 1308039200
I0703 18:09:34.085818 35406 layer_factory.hpp:76] Creating layer conv3_8_2_bn
I0703 18:09:34.085834 35406 net.cpp:106] Creating Layer conv3_8_2_bn
I0703 18:09:34.085845 35406 net.cpp:454] conv3_8_2_bn <- conv3_8_2
I0703 18:09:34.085857 35406 net.cpp:411] conv3_8_2_bn -> conv3_8_2_bn
I0703 18:09:34.086122 35406 net.cpp:150] Setting up conv3_8_2_bn
I0703 18:09:34.086148 35406 net.cpp:157] Top shape: 8 128 27 27 (746496)
I0703 18:09:34.086158 35406 net.cpp:165] Memory required for data: 1311025184
I0703 18:09:34.086172 35406 layer_factory.hpp:76] Creating layer conv3_8_2_relu
I0703 18:09:34.086184 35406 net.cpp:106] Creating Layer conv3_8_2_relu
I0703 18:09:34.086194 35406 net.cpp:454] conv3_8_2_relu <- conv3_8_2_bn
I0703 18:09:34.086216 35406 net.cpp:397] conv3_8_2_relu -> conv3_8_2_bn (in-place)
I0703 18:09:34.086439 35406 net.cpp:150] Setting up conv3_8_2_relu
I0703 18:09:34.086468 35406 net.cpp:157] Top shape: 8 128 27 27 (746496)
I0703 18:09:34.086478 35406 net.cpp:165] Memory required for data: 1314011168
I0703 18:09:34.086488 35406 layer_factory.hpp:76] Creating layer conv3_8_3
I0703 18:09:34.086504 35406 net.cpp:106] Creating Layer conv3_8_3
I0703 18:09:34.086526 35406 net.cpp:454] conv3_8_3 <- conv3_8_2_bn
I0703 18:09:34.086539 35406 net.cpp:411] conv3_8_3 -> conv3_8_3
I0703 18:09:34.089659 35406 cudnn_conv_layer.cpp:194] Reallocating workspace storage: 1536
I0703 18:09:34.089711 35406 net.cpp:150] Setting up conv3_8_3
I0703 18:09:34.089725 35406 net.cpp:157] Top shape: 8 512 27 27 (2985984)
I0703 18:09:34.089747 35406 net.cpp:165] Memory required for data: 1325955104
I0703 18:09:34.089761 35406 layer_factory.hpp:76] Creating layer conv3_8_sum
I0703 18:09:34.089776 35406 net.cpp:106] Creating Layer conv3_8_sum
I0703 18:09:34.089787 35406 net.cpp:454] conv3_8_sum <- conv3_7_sum_bn_conv3_7_sum_relu_0_split_1
I0703 18:09:34.089798 35406 net.cpp:454] conv3_8_sum <- conv3_8_3
I0703 18:09:34.089809 35406 net.cpp:411] conv3_8_sum -> conv3_8_sum
I0703 18:09:34.089851 35406 net.cpp:150] Setting up conv3_8_sum
I0703 18:09:34.089867 35406 net.cpp:157] Top shape: 8 512 27 27 (2985984)
I0703 18:09:34.089897 35406 net.cpp:165] Memory required for data: 1337899040
I0703 18:09:34.089906 35406 layer_factory.hpp:76] Creating layer conv3_8_sum_bn
I0703 18:09:34.089921 35406 net.cpp:106] Creating Layer conv3_8_sum_bn
I0703 18:09:34.089931 35406 net.cpp:454] conv3_8_sum_bn <- conv3_8_sum
I0703 18:09:34.089943 35406 net.cpp:411] conv3_8_sum_bn -> conv3_8_sum_bn
I0703 18:09:34.090194 35406 net.cpp:150] Setting up conv3_8_sum_bn
I0703 18:09:34.090222 35406 net.cpp:157] Top shape: 8 512 27 27 (2985984)
I0703 18:09:34.090232 35406 net.cpp:165] Memory required for data: 1349842976
I0703 18:09:34.090246 35406 layer_factory.hpp:76] Creating layer conv3_8_sum_relu
I0703 18:09:34.090258 35406 net.cpp:106] Creating Layer conv3_8_sum_relu
I0703 18:09:34.090267 35406 net.cpp:454] conv3_8_sum_relu <- conv3_8_sum_bn
I0703 18:09:34.090278 35406 net.cpp:397] conv3_8_sum_relu -> conv3_8_sum_bn (in-place)
I0703 18:09:34.090633 35406 net.cpp:150] Setting up conv3_8_sum_relu
I0703 18:09:34.090669 35406 net.cpp:157] Top shape: 8 512 27 27 (2985984)
I0703 18:09:34.090680 35406 net.cpp:165] Memory required for data: 1361786912
I0703 18:09:34.090689 35406 layer_factory.hpp:76] Creating layer conv3_8_sum_bn_conv3_8_sum_relu_0_split
I0703 18:09:34.090726 35406 net.cpp:106] Creating Layer conv3_8_sum_bn_conv3_8_sum_relu_0_split
I0703 18:09:34.090736 35406 net.cpp:454] conv3_8_sum_bn_conv3_8_sum_relu_0_split <- conv3_8_sum_bn
I0703 18:09:34.090749 35406 net.cpp:411] conv3_8_sum_bn_conv3_8_sum_relu_0_split -> conv3_8_sum_bn_conv3_8_sum_relu_0_split_0
I0703 18:09:34.090762 35406 net.cpp:411] conv3_8_sum_bn_conv3_8_sum_relu_0_split -> conv3_8_sum_bn_conv3_8_sum_relu_0_split_1
I0703 18:09:34.090826 35406 net.cpp:150] Setting up conv3_8_sum_bn_conv3_8_sum_relu_0_split
I0703 18:09:34.090842 35406 net.cpp:157] Top shape: 8 512 27 27 (2985984)
I0703 18:09:34.090852 35406 net.cpp:157] Top shape: 8 512 27 27 (2985984)
I0703 18:09:34.090860 35406 net.cpp:165] Memory required for data: 1385674784
I0703 18:09:34.090869 35406 layer_factory.hpp:76] Creating layer conv3_output
I0703 18:09:34.090886 35406 net.cpp:106] Creating Layer conv3_output
I0703 18:09:34.090896 35406 net.cpp:454] conv3_output <- conv3_8_sum_bn_conv3_8_sum_relu_0_split_0
I0703 18:09:34.090908 35406 net.cpp:411] conv3_output -> conv3_output
I0703 18:09:34.109863 35406 cudnn_conv_layer.cpp:194] Reallocating workspace storage: 6144
I0703 18:09:34.109915 35406 net.cpp:150] Setting up conv3_output
I0703 18:09:34.109932 35406 net.cpp:157] Top shape: 8 1024 14 14 (1605632)
I0703 18:09:34.109942 35406 net.cpp:165] Memory required for data: 1392097312
I0703 18:09:34.109957 35406 layer_factory.hpp:76] Creating layer conv4_1_1
I0703 18:09:34.109978 35406 net.cpp:106] Creating Layer conv4_1_1
I0703 18:09:34.109992 35406 net.cpp:454] conv4_1_1 <- conv3_8_sum_bn_conv3_8_sum_relu_0_split_1
I0703 18:09:34.110007 35406 net.cpp:411] conv4_1_1 -> conv4_1_1
I0703 18:09:34.115329 35406 cudnn_conv_layer.cpp:194] Reallocating workspace storage: 6144
I0703 18:09:34.115363 35406 net.cpp:150] Setting up conv4_1_1
I0703 18:09:34.115391 35406 net.cpp:157] Top shape: 8 256 14 14 (401408)
I0703 18:09:34.115402 35406 net.cpp:165] Memory required for data: 1393702944
I0703 18:09:34.115416 35406 layer_factory.hpp:76] Creating layer conv4_1_1_bn
I0703 18:09:34.115433 35406 net.cpp:106] Creating Layer conv4_1_1_bn
I0703 18:09:34.115444 35406 net.cpp:454] conv4_1_1_bn <- conv4_1_1
I0703 18:09:34.115455 35406 net.cpp:411] conv4_1_1_bn -> conv4_1_1_bn
I0703 18:09:34.115720 35406 net.cpp:150] Setting up conv4_1_1_bn
I0703 18:09:34.115746 35406 net.cpp:157] Top shape: 8 256 14 14 (401408)
I0703 18:09:34.115756 35406 net.cpp:165] Memory required for data: 1395308576
I0703 18:09:34.115769 35406 layer_factory.hpp:76] Creating layer conv4_1_1_relu
I0703 18:09:34.115782 35406 net.cpp:106] Creating Layer conv4_1_1_relu
I0703 18:09:34.115792 35406 net.cpp:454] conv4_1_1_relu <- conv4_1_1_bn
I0703 18:09:34.115815 35406 net.cpp:397] conv4_1_1_relu -> conv4_1_1_bn (in-place)
I0703 18:09:34.116183 35406 net.cpp:150] Setting up conv4_1_1_relu
I0703 18:09:34.116238 35406 net.cpp:157] Top shape: 8 256 14 14 (401408)
I0703 18:09:34.116250 35406 net.cpp:165] Memory required for data: 1396914208
I0703 18:09:34.116260 35406 layer_factory.hpp:76] Creating layer conv4_1_2
I0703 18:09:34.116273 35406 net.cpp:106] Creating Layer conv4_1_2
I0703 18:09:34.116295 35406 net.cpp:454] conv4_1_2 <- conv4_1_1_bn
I0703 18:09:34.116309 35406 net.cpp:411] conv4_1_2 -> conv4_1_2
I0703 18:09:34.136724 35406 net.cpp:150] Setting up conv4_1_2
I0703 18:09:34.136775 35406 net.cpp:157] Top shape: 8 256 14 14 (401408)
I0703 18:09:34.136785 35406 net.cpp:165] Memory required for data: 1398519840
I0703 18:09:34.136801 35406 layer_factory.hpp:76] Creating layer conv4_1_2_bn
I0703 18:09:34.136816 35406 net.cpp:106] Creating Layer conv4_1_2_bn
I0703 18:09:34.136827 35406 net.cpp:454] conv4_1_2_bn <- conv4_1_2
I0703 18:09:34.136842 35406 net.cpp:411] conv4_1_2_bn -> conv4_1_2_bn
I0703 18:09:34.137099 35406 net.cpp:150] Setting up conv4_1_2_bn
I0703 18:09:34.137126 35406 net.cpp:157] Top shape: 8 256 14 14 (401408)
I0703 18:09:34.137136 35406 net.cpp:165] Memory required for data: 1400125472
I0703 18:09:34.137150 35406 layer_factory.hpp:76] Creating layer conv4_1_2_relu
I0703 18:09:34.137164 35406 net.cpp:106] Creating Layer conv4_1_2_relu
I0703 18:09:34.137174 35406 net.cpp:454] conv4_1_2_relu <- conv4_1_2_bn
I0703 18:09:34.137184 35406 net.cpp:397] conv4_1_2_relu -> conv4_1_2_bn (in-place)
I0703 18:09:34.137527 35406 net.cpp:150] Setting up conv4_1_2_relu
I0703 18:09:34.137562 35406 net.cpp:157] Top shape: 8 256 14 14 (401408)
I0703 18:09:34.137572 35406 net.cpp:165] Memory required for data: 1401731104
I0703 18:09:34.137580 35406 layer_factory.hpp:76] Creating layer conv4_1_3
I0703 18:09:34.137598 35406 net.cpp:106] Creating Layer conv4_1_3
I0703 18:09:34.137609 35406 net.cpp:454] conv4_1_3 <- conv4_1_2_bn
I0703 18:09:34.137620 35406 net.cpp:411] conv4_1_3 -> conv4_1_3
I0703 18:09:34.147392 35406 cudnn_conv_layer.cpp:194] Reallocating workspace storage: 3072
I0703 18:09:34.147442 35406 net.cpp:150] Setting up conv4_1_3
I0703 18:09:34.147457 35406 net.cpp:157] Top shape: 8 1024 14 14 (1605632)
I0703 18:09:34.147466 35406 net.cpp:165] Memory required for data: 1408153632
I0703 18:09:34.147480 35406 layer_factory.hpp:76] Creating layer conv4_1_sum
I0703 18:09:34.147495 35406 net.cpp:106] Creating Layer conv4_1_sum
I0703 18:09:34.147505 35406 net.cpp:454] conv4_1_sum <- conv3_output
I0703 18:09:34.147516 35406 net.cpp:454] conv4_1_sum <- conv4_1_3
I0703 18:09:34.147527 35406 net.cpp:411] conv4_1_sum -> conv4_1_sum
I0703 18:09:34.147570 35406 net.cpp:150] Setting up conv4_1_sum
I0703 18:09:34.147584 35406 net.cpp:157] Top shape: 8 1024 14 14 (1605632)
I0703 18:09:34.147593 35406 net.cpp:165] Memory required for data: 1414576160
I0703 18:09:34.147603 35406 layer_factory.hpp:76] Creating layer conv4_1_sum_bn
I0703 18:09:34.147615 35406 net.cpp:106] Creating Layer conv4_1_sum_bn
I0703 18:09:34.147626 35406 net.cpp:454] conv4_1_sum_bn <- conv4_1_sum
I0703 18:09:34.147637 35406 net.cpp:411] conv4_1_sum_bn -> conv4_1_sum_bn
I0703 18:09:34.147886 35406 net.cpp:150] Setting up conv4_1_sum_bn
I0703 18:09:34.147902 35406 net.cpp:157] Top shape: 8 1024 14 14 (1605632)
I0703 18:09:34.147912 35406 net.cpp:165] Memory required for data: 1420998688
I0703 18:09:34.147924 35406 layer_factory.hpp:76] Creating layer conv4_1_sum_relu
I0703 18:09:34.147936 35406 net.cpp:106] Creating Layer conv4_1_sum_relu
I0703 18:09:34.147945 35406 net.cpp:454] conv4_1_sum_relu <- conv4_1_sum_bn
I0703 18:09:34.147958 35406 net.cpp:397] conv4_1_sum_relu -> conv4_1_sum_bn (in-place)
I0703 18:09:34.148155 35406 net.cpp:150] Setting up conv4_1_sum_relu
I0703 18:09:34.148185 35406 net.cpp:157] Top shape: 8 1024 14 14 (1605632)
I0703 18:09:34.148195 35406 net.cpp:165] Memory required for data: 1427421216
I0703 18:09:34.148205 35406 layer_factory.hpp:76] Creating layer conv4_1_sum_bn_conv4_1_sum_relu_0_split
I0703 18:09:34.148218 35406 net.cpp:106] Creating Layer conv4_1_sum_bn_conv4_1_sum_relu_0_split
I0703 18:09:34.148227 35406 net.cpp:454] conv4_1_sum_bn_conv4_1_sum_relu_0_split <- conv4_1_sum_bn
I0703 18:09:34.148259 35406 net.cpp:411] conv4_1_sum_bn_conv4_1_sum_relu_0_split -> conv4_1_sum_bn_conv4_1_sum_relu_0_split_0
I0703 18:09:34.148272 35406 net.cpp:411] conv4_1_sum_bn_conv4_1_sum_relu_0_split -> conv4_1_sum_bn_conv4_1_sum_relu_0_split_1
I0703 18:09:34.148331 35406 net.cpp:150] Setting up conv4_1_sum_bn_conv4_1_sum_relu_0_split
I0703 18:09:34.148345 35406 net.cpp:157] Top shape: 8 1024 14 14 (1605632)
I0703 18:09:34.148355 35406 net.cpp:157] Top shape: 8 1024 14 14 (1605632)
I0703 18:09:34.148365 35406 net.cpp:165] Memory required for data: 1440266272
I0703 18:09:34.148373 35406 layer_factory.hpp:76] Creating layer conv4_2_1
I0703 18:09:34.148388 35406 net.cpp:106] Creating Layer conv4_2_1
I0703 18:09:34.148397 35406 net.cpp:454] conv4_2_1 <- conv4_1_sum_bn_conv4_1_sum_relu_0_split_0
I0703 18:09:34.148412 35406 net.cpp:411] conv4_2_1 -> conv4_2_1
I0703 18:09:34.158452 35406 cudnn_conv_layer.cpp:194] Reallocating workspace storage: 19267584
I0703 18:09:34.158701 35406 net.cpp:150] Setting up conv4_2_1
I0703 18:09:34.158735 35406 net.cpp:157] Top shape: 8 256 14 14 (401408)
I0703 18:09:34.158746 35406 net.cpp:165] Memory required for data: 1441871904
I0703 18:09:34.158761 35406 layer_factory.hpp:76] Creating layer conv4_2_1_bn
I0703 18:09:34.158777 35406 net.cpp:106] Creating Layer conv4_2_1_bn
I0703 18:09:34.158788 35406 net.cpp:454] conv4_2_1_bn <- conv4_2_1
I0703 18:09:34.158802 35406 net.cpp:411] conv4_2_1_bn -> conv4_2_1_bn
I0703 18:09:34.159065 35406 net.cpp:150] Setting up conv4_2_1_bn
I0703 18:09:34.159080 35406 net.cpp:157] Top shape: 8 256 14 14 (401408)
I0703 18:09:34.159102 35406 net.cpp:165] Memory required for data: 1443477536
I0703 18:09:34.159116 35406 layer_factory.hpp:76] Creating layer conv4_2_1_relu
I0703 18:09:34.159128 35406 net.cpp:106] Creating Layer conv4_2_1_relu
I0703 18:09:34.159137 35406 net.cpp:454] conv4_2_1_relu <- conv4_2_1_bn
I0703 18:09:34.159147 35406 net.cpp:397] conv4_2_1_relu -> conv4_2_1_bn (in-place)
I0703 18:09:34.159531 35406 net.cpp:150] Setting up conv4_2_1_relu
I0703 18:09:34.159564 35406 net.cpp:157] Top shape: 8 256 14 14 (401408)
I0703 18:09:34.159574 35406 net.cpp:165] Memory required for data: 1445083168
I0703 18:09:34.159584 35406 layer_factory.hpp:76] Creating layer conv4_2_2
I0703 18:09:34.159600 35406 net.cpp:106] Creating Layer conv4_2_2
I0703 18:09:34.159611 35406 net.cpp:454] conv4_2_2 <- conv4_2_1_bn
I0703 18:09:34.159622 35406 net.cpp:411] conv4_2_2 -> conv4_2_2
I0703 18:09:34.179879 35406 net.cpp:150] Setting up conv4_2_2
I0703 18:09:34.179932 35406 net.cpp:157] Top shape: 8 256 14 14 (401408)
I0703 18:09:34.179942 35406 net.cpp:165] Memory required for data: 1446688800
I0703 18:09:34.179958 35406 layer_factory.hpp:76] Creating layer conv4_2_2_bn
I0703 18:09:34.179975 35406 net.cpp:106] Creating Layer conv4_2_2_bn
I0703 18:09:34.179986 35406 net.cpp:454] conv4_2_2_bn <- conv4_2_2
I0703 18:09:34.179998 35406 net.cpp:411] conv4_2_2_bn -> conv4_2_2_bn
I0703 18:09:34.180258 35406 net.cpp:150] Setting up conv4_2_2_bn
I0703 18:09:34.180285 35406 net.cpp:157] Top shape: 8 256 14 14 (401408)
I0703 18:09:34.180295 35406 net.cpp:165] Memory required for data: 1448294432
I0703 18:09:34.180308 35406 layer_factory.hpp:76] Creating layer conv4_2_2_relu
I0703 18:09:34.180321 35406 net.cpp:106] Creating Layer conv4_2_2_relu
I0703 18:09:34.180330 35406 net.cpp:454] conv4_2_2_relu <- conv4_2_2_bn
I0703 18:09:34.180341 35406 net.cpp:397] conv4_2_2_relu -> conv4_2_2_bn (in-place)
I0703 18:09:34.180737 35406 net.cpp:150] Setting up conv4_2_2_relu
I0703 18:09:34.180771 35406 net.cpp:157] Top shape: 8 256 14 14 (401408)
I0703 18:09:34.180781 35406 net.cpp:165] Memory required for data: 1449900064
I0703 18:09:34.180790 35406 layer_factory.hpp:76] Creating layer conv4_2_3
I0703 18:09:34.180807 35406 net.cpp:106] Creating Layer conv4_2_3
I0703 18:09:34.180817 35406 net.cpp:454] conv4_2_3 <- conv4_2_2_bn
I0703 18:09:34.180831 35406 net.cpp:411] conv4_2_3 -> conv4_2_3
I0703 18:09:34.190614 35406 cudnn_conv_layer.cpp:194] Reallocating workspace storage: 3072
I0703 18:09:34.190702 35406 net.cpp:150] Setting up conv4_2_3
I0703 18:09:34.190721 35406 net.cpp:157] Top shape: 8 1024 14 14 (1605632)
I0703 18:09:34.190729 35406 net.cpp:165] Memory required for data: 1456322592
I0703 18:09:34.190743 35406 layer_factory.hpp:76] Creating layer conv4_2_sum
I0703 18:09:34.190760 35406 net.cpp:106] Creating Layer conv4_2_sum
I0703 18:09:34.190771 35406 net.cpp:454] conv4_2_sum <- conv4_1_sum_bn_conv4_1_sum_relu_0_split_1
I0703 18:09:34.190783 35406 net.cpp:454] conv4_2_sum <- conv4_2_3
I0703 18:09:34.190794 35406 net.cpp:411] conv4_2_sum -> conv4_2_sum
I0703 18:09:34.190840 35406 net.cpp:150] Setting up conv4_2_sum
I0703 18:09:34.190855 35406 net.cpp:157] Top shape: 8 1024 14 14 (1605632)
I0703 18:09:34.190865 35406 net.cpp:165] Memory required for data: 1462745120
I0703 18:09:34.190874 35406 layer_factory.hpp:76] Creating layer conv4_2_sum_bn
I0703 18:09:34.190886 35406 net.cpp:106] Creating Layer conv4_2_sum_bn
I0703 18:09:34.190897 35406 net.cpp:454] conv4_2_sum_bn <- conv4_2_sum
I0703 18:09:34.190908 35406 net.cpp:411] conv4_2_sum_bn -> conv4_2_sum_bn
I0703 18:09:34.191186 35406 net.cpp:150] Setting up conv4_2_sum_bn
I0703 18:09:34.191203 35406 net.cpp:157] Top shape: 8 1024 14 14 (1605632)
I0703 18:09:34.191215 35406 net.cpp:165] Memory required for data: 1469167648
I0703 18:09:34.191228 35406 layer_factory.hpp:76] Creating layer conv4_2_sum_relu
I0703 18:09:34.191241 35406 net.cpp:106] Creating Layer conv4_2_sum_relu
I0703 18:09:34.191249 35406 net.cpp:454] conv4_2_sum_relu <- conv4_2_sum_bn
I0703 18:09:34.191267 35406 net.cpp:397] conv4_2_sum_relu -> conv4_2_sum_bn (in-place)
I0703 18:09:34.191465 35406 net.cpp:150] Setting up conv4_2_sum_relu
I0703 18:09:34.191483 35406 net.cpp:157] Top shape: 8 1024 14 14 (1605632)
I0703 18:09:34.191493 35406 net.cpp:165] Memory required for data: 1475590176
I0703 18:09:34.191501 35406 layer_factory.hpp:76] Creating layer conv4_2_sum_bn_conv4_2_sum_relu_0_split
I0703 18:09:34.191514 35406 net.cpp:106] Creating Layer conv4_2_sum_bn_conv4_2_sum_relu_0_split
I0703 18:09:34.191522 35406 net.cpp:454] conv4_2_sum_bn_conv4_2_sum_relu_0_split <- conv4_2_sum_bn
I0703 18:09:34.191534 35406 net.cpp:411] conv4_2_sum_bn_conv4_2_sum_relu_0_split -> conv4_2_sum_bn_conv4_2_sum_relu_0_split_0
I0703 18:09:34.191547 35406 net.cpp:411] conv4_2_sum_bn_conv4_2_sum_relu_0_split -> conv4_2_sum_bn_conv4_2_sum_relu_0_split_1
I0703 18:09:34.191606 35406 net.cpp:150] Setting up conv4_2_sum_bn_conv4_2_sum_relu_0_split
I0703 18:09:34.191622 35406 net.cpp:157] Top shape: 8 1024 14 14 (1605632)
I0703 18:09:34.191632 35406 net.cpp:157] Top shape: 8 1024 14 14 (1605632)
I0703 18:09:34.191639 35406 net.cpp:165] Memory required for data: 1488435232
I0703 18:09:34.191648 35406 layer_factory.hpp:76] Creating layer conv4_3_1
I0703 18:09:34.191663 35406 net.cpp:106] Creating Layer conv4_3_1
I0703 18:09:34.191671 35406 net.cpp:454] conv4_3_1 <- conv4_2_sum_bn_conv4_2_sum_relu_0_split_0
I0703 18:09:34.191684 35406 net.cpp:411] conv4_3_1 -> conv4_3_1
I0703 18:09:34.201680 35406 cudnn_conv_layer.cpp:194] Reallocating workspace storage: 19267584
I0703 18:09:34.201931 35406 net.cpp:150] Setting up conv4_3_1
I0703 18:09:34.201966 35406 net.cpp:157] Top shape: 8 256 14 14 (401408)
I0703 18:09:34.201975 35406 net.cpp:165] Memory required for data: 1490040864
I0703 18:09:34.201989 35406 layer_factory.hpp:76] Creating layer conv4_3_1_bn
I0703 18:09:34.202005 35406 net.cpp:106] Creating Layer conv4_3_1_bn
I0703 18:09:34.202016 35406 net.cpp:454] conv4_3_1_bn <- conv4_3_1
I0703 18:09:34.202028 35406 net.cpp:411] conv4_3_1_bn -> conv4_3_1_bn
I0703 18:09:34.202309 35406 net.cpp:150] Setting up conv4_3_1_bn
I0703 18:09:34.202342 35406 net.cpp:157] Top shape: 8 256 14 14 (401408)
I0703 18:09:34.202352 35406 net.cpp:165] Memory required for data: 1491646496
I0703 18:09:34.202366 35406 layer_factory.hpp:76] Creating layer conv4_3_1_relu
I0703 18:09:34.202378 35406 net.cpp:106] Creating Layer conv4_3_1_relu
I0703 18:09:34.202388 35406 net.cpp:454] conv4_3_1_relu <- conv4_3_1_bn
I0703 18:09:34.202414 35406 net.cpp:397] conv4_3_1_relu -> conv4_3_1_bn (in-place)
I0703 18:09:34.202775 35406 net.cpp:150] Setting up conv4_3_1_relu
I0703 18:09:34.202807 35406 net.cpp:157] Top shape: 8 256 14 14 (401408)
I0703 18:09:34.202821 35406 net.cpp:165] Memory required for data: 1493252128
I0703 18:09:34.202829 35406 layer_factory.hpp:76] Creating layer conv4_3_2
I0703 18:09:34.202843 35406 net.cpp:106] Creating Layer conv4_3_2
I0703 18:09:34.202853 35406 net.cpp:454] conv4_3_2 <- conv4_3_1_bn
I0703 18:09:34.202865 35406 net.cpp:411] conv4_3_2 -> conv4_3_2
I0703 18:09:34.223182 35406 net.cpp:150] Setting up conv4_3_2
I0703 18:09:34.223247 35406 net.cpp:157] Top shape: 8 256 14 14 (401408)
I0703 18:09:34.223258 35406 net.cpp:165] Memory required for data: 1494857760
I0703 18:09:34.223273 35406 layer_factory.hpp:76] Creating layer conv4_3_2_bn
I0703 18:09:34.223287 35406 net.cpp:106] Creating Layer conv4_3_2_bn
I0703 18:09:34.223299 35406 net.cpp:454] conv4_3_2_bn <- conv4_3_2
I0703 18:09:34.223314 35406 net.cpp:411] conv4_3_2_bn -> conv4_3_2_bn
I0703 18:09:34.223580 35406 net.cpp:150] Setting up conv4_3_2_bn
I0703 18:09:34.223608 35406 net.cpp:157] Top shape: 8 256 14 14 (401408)
I0703 18:09:34.223618 35406 net.cpp:165] Memory required for data: 1496463392
I0703 18:09:34.223631 35406 layer_factory.hpp:76] Creating layer conv4_3_2_relu
I0703 18:09:34.223644 35406 net.cpp:106] Creating Layer conv4_3_2_relu
I0703 18:09:34.223654 35406 net.cpp:454] conv4_3_2_relu <- conv4_3_2_bn
I0703 18:09:34.223665 35406 net.cpp:397] conv4_3_2_relu -> conv4_3_2_bn (in-place)
I0703 18:09:34.224019 35406 net.cpp:150] Setting up conv4_3_2_relu
I0703 18:09:34.224051 35406 net.cpp:157] Top shape: 8 256 14 14 (401408)
I0703 18:09:34.224061 35406 net.cpp:165] Memory required for data: 1498069024
I0703 18:09:34.224071 35406 layer_factory.hpp:76] Creating layer conv4_3_3
I0703 18:09:34.224089 35406 net.cpp:106] Creating Layer conv4_3_3
I0703 18:09:34.224099 35406 net.cpp:454] conv4_3_3 <- conv4_3_2_bn
I0703 18:09:34.224112 35406 net.cpp:411] conv4_3_3 -> conv4_3_3
I0703 18:09:34.233966 35406 cudnn_conv_layer.cpp:194] Reallocating workspace storage: 3072
I0703 18:09:34.234031 35406 net.cpp:150] Setting up conv4_3_3
I0703 18:09:34.234048 35406 net.cpp:157] Top shape: 8 1024 14 14 (1605632)
I0703 18:09:34.234058 35406 net.cpp:165] Memory required for data: 1504491552
I0703 18:09:34.234072 35406 layer_factory.hpp:76] Creating layer conv4_3_sum
I0703 18:09:34.234088 35406 net.cpp:106] Creating Layer conv4_3_sum
I0703 18:09:34.234099 35406 net.cpp:454] conv4_3_sum <- conv4_2_sum_bn_conv4_2_sum_relu_0_split_1
I0703 18:09:34.234112 35406 net.cpp:454] conv4_3_sum <- conv4_3_3
I0703 18:09:34.234122 35406 net.cpp:411] conv4_3_sum -> conv4_3_sum
I0703 18:09:34.234168 35406 net.cpp:150] Setting up conv4_3_sum
I0703 18:09:34.234184 35406 net.cpp:157] Top shape: 8 1024 14 14 (1605632)
I0703 18:09:34.234192 35406 net.cpp:165] Memory required for data: 1510914080
I0703 18:09:34.234201 35406 layer_factory.hpp:76] Creating layer conv4_3_sum_bn
I0703 18:09:34.234215 35406 net.cpp:106] Creating Layer conv4_3_sum_bn
I0703 18:09:34.234225 35406 net.cpp:454] conv4_3_sum_bn <- conv4_3_sum
I0703 18:09:34.234236 35406 net.cpp:411] conv4_3_sum_bn -> conv4_3_sum_bn
I0703 18:09:34.234495 35406 net.cpp:150] Setting up conv4_3_sum_bn
I0703 18:09:34.234524 35406 net.cpp:157] Top shape: 8 1024 14 14 (1605632)
I0703 18:09:34.234534 35406 net.cpp:165] Memory required for data: 1517336608
I0703 18:09:34.234546 35406 layer_factory.hpp:76] Creating layer conv4_3_sum_relu
I0703 18:09:34.234558 35406 net.cpp:106] Creating Layer conv4_3_sum_relu
I0703 18:09:34.234567 35406 net.cpp:454] conv4_3_sum_relu <- conv4_3_sum_bn
I0703 18:09:34.234577 35406 net.cpp:397] conv4_3_sum_relu -> conv4_3_sum_bn (in-place)
I0703 18:09:34.234782 35406 net.cpp:150] Setting up conv4_3_sum_relu
I0703 18:09:34.234817 35406 net.cpp:157] Top shape: 8 1024 14 14 (1605632)
I0703 18:09:34.234827 35406 net.cpp:165] Memory required for data: 1523759136
I0703 18:09:34.234836 35406 layer_factory.hpp:76] Creating layer conv4_3_sum_bn_conv4_3_sum_relu_0_split
I0703 18:09:34.234871 35406 net.cpp:106] Creating Layer conv4_3_sum_bn_conv4_3_sum_relu_0_split
I0703 18:09:34.234881 35406 net.cpp:454] conv4_3_sum_bn_conv4_3_sum_relu_0_split <- conv4_3_sum_bn
I0703 18:09:34.234894 35406 net.cpp:411] conv4_3_sum_bn_conv4_3_sum_relu_0_split -> conv4_3_sum_bn_conv4_3_sum_relu_0_split_0
I0703 18:09:34.234906 35406 net.cpp:411] conv4_3_sum_bn_conv4_3_sum_relu_0_split -> conv4_3_sum_bn_conv4_3_sum_relu_0_split_1
I0703 18:09:34.234968 35406 net.cpp:150] Setting up conv4_3_sum_bn_conv4_3_sum_relu_0_split
I0703 18:09:34.234987 35406 net.cpp:157] Top shape: 8 1024 14 14 (1605632)
I0703 18:09:34.234997 35406 net.cpp:157] Top shape: 8 1024 14 14 (1605632)
I0703 18:09:34.235007 35406 net.cpp:165] Memory required for data: 1536604192
I0703 18:09:34.235014 35406 layer_factory.hpp:76] Creating layer conv4_4_1
I0703 18:09:34.235028 35406 net.cpp:106] Creating Layer conv4_4_1
I0703 18:09:34.235036 35406 net.cpp:454] conv4_4_1 <- conv4_3_sum_bn_conv4_3_sum_relu_0_split_0
I0703 18:09:34.235049 35406 net.cpp:411] conv4_4_1 -> conv4_4_1
I0703 18:09:34.244834 35406 cudnn_conv_layer.cpp:194] Reallocating workspace storage: 19267584
I0703 18:09:34.245087 35406 net.cpp:150] Setting up conv4_4_1
I0703 18:09:34.245122 35406 net.cpp:157] Top shape: 8 256 14 14 (401408)
I0703 18:09:34.245134 35406 net.cpp:165] Memory required for data: 1538209824
I0703 18:09:34.245147 35406 layer_factory.hpp:76] Creating layer conv4_4_1_bn
I0703 18:09:34.245162 35406 net.cpp:106] Creating Layer conv4_4_1_bn
I0703 18:09:34.245172 35406 net.cpp:454] conv4_4_1_bn <- conv4_4_1
I0703 18:09:34.245184 35406 net.cpp:411] conv4_4_1_bn -> conv4_4_1_bn
I0703 18:09:34.245443 35406 net.cpp:150] Setting up conv4_4_1_bn
I0703 18:09:34.245460 35406 net.cpp:157] Top shape: 8 256 14 14 (401408)
I0703 18:09:34.245468 35406 net.cpp:165] Memory required for data: 1539815456
I0703 18:09:34.245481 35406 layer_factory.hpp:76] Creating layer conv4_4_1_relu
I0703 18:09:34.245497 35406 net.cpp:106] Creating Layer conv4_4_1_relu
I0703 18:09:34.245507 35406 net.cpp:454] conv4_4_1_relu <- conv4_4_1_bn
I0703 18:09:34.245517 35406 net.cpp:397] conv4_4_1_relu -> conv4_4_1_bn (in-place)
I0703 18:09:34.245896 35406 net.cpp:150] Setting up conv4_4_1_relu
I0703 18:09:34.245918 35406 net.cpp:157] Top shape: 8 256 14 14 (401408)
I0703 18:09:34.245928 35406 net.cpp:165] Memory required for data: 1541421088
I0703 18:09:34.245936 35406 layer_factory.hpp:76] Creating layer conv4_4_2
I0703 18:09:34.245955 35406 net.cpp:106] Creating Layer conv4_4_2
I0703 18:09:34.245965 35406 net.cpp:454] conv4_4_2 <- conv4_4_1_bn
I0703 18:09:34.245978 35406 net.cpp:411] conv4_4_2 -> conv4_4_2
I0703 18:09:34.266227 35406 net.cpp:150] Setting up conv4_4_2
I0703 18:09:34.266280 35406 net.cpp:157] Top shape: 8 256 14 14 (401408)
I0703 18:09:34.266291 35406 net.cpp:165] Memory required for data: 1543026720
I0703 18:09:34.266310 35406 layer_factory.hpp:76] Creating layer conv4_4_2_bn
I0703 18:09:34.266329 35406 net.cpp:106] Creating Layer conv4_4_2_bn
I0703 18:09:34.266340 35406 net.cpp:454] conv4_4_2_bn <- conv4_4_2
I0703 18:09:34.266355 35406 net.cpp:411] conv4_4_2_bn -> conv4_4_2_bn
I0703 18:09:34.266624 35406 net.cpp:150] Setting up conv4_4_2_bn
I0703 18:09:34.266652 35406 net.cpp:157] Top shape: 8 256 14 14 (401408)
I0703 18:09:34.266662 35406 net.cpp:165] Memory required for data: 1544632352
I0703 18:09:34.266675 35406 layer_factory.hpp:76] Creating layer conv4_4_2_relu
I0703 18:09:34.266687 35406 net.cpp:106] Creating Layer conv4_4_2_relu
I0703 18:09:34.266696 35406 net.cpp:454] conv4_4_2_relu <- conv4_4_2_bn
I0703 18:09:34.266707 35406 net.cpp:397] conv4_4_2_relu -> conv4_4_2_bn (in-place)
I0703 18:09:34.267065 35406 net.cpp:150] Setting up conv4_4_2_relu
I0703 18:09:34.267097 35406 net.cpp:157] Top shape: 8 256 14 14 (401408)
I0703 18:09:34.267107 35406 net.cpp:165] Memory required for data: 1546237984
I0703 18:09:34.267117 35406 layer_factory.hpp:76] Creating layer conv4_4_3
I0703 18:09:34.267133 35406 net.cpp:106] Creating Layer conv4_4_3
I0703 18:09:34.267164 35406 net.cpp:454] conv4_4_3 <- conv4_4_2_bn
I0703 18:09:34.267176 35406 net.cpp:411] conv4_4_3 -> conv4_4_3
I0703 18:09:34.277335 35406 cudnn_conv_layer.cpp:194] Reallocating workspace storage: 3072
I0703 18:09:34.277400 35406 net.cpp:150] Setting up conv4_4_3
I0703 18:09:34.277416 35406 net.cpp:157] Top shape: 8 1024 14 14 (1605632)
I0703 18:09:34.277426 35406 net.cpp:165] Memory required for data: 1552660512
I0703 18:09:34.277439 35406 layer_factory.hpp:76] Creating layer conv4_4_sum
I0703 18:09:34.277457 35406 net.cpp:106] Creating Layer conv4_4_sum
I0703 18:09:34.277468 35406 net.cpp:454] conv4_4_sum <- conv4_3_sum_bn_conv4_3_sum_relu_0_split_1
I0703 18:09:34.277480 35406 net.cpp:454] conv4_4_sum <- conv4_4_3
I0703 18:09:34.277492 35406 net.cpp:411] conv4_4_sum -> conv4_4_sum
I0703 18:09:34.277537 35406 net.cpp:150] Setting up conv4_4_sum
I0703 18:09:34.277555 35406 net.cpp:157] Top shape: 8 1024 14 14 (1605632)
I0703 18:09:34.277565 35406 net.cpp:165] Memory required for data: 1559083040
I0703 18:09:34.277573 35406 layer_factory.hpp:76] Creating layer conv4_4_sum_bn
I0703 18:09:34.277587 35406 net.cpp:106] Creating Layer conv4_4_sum_bn
I0703 18:09:34.277596 35406 net.cpp:454] conv4_4_sum_bn <- conv4_4_sum
I0703 18:09:34.277607 35406 net.cpp:411] conv4_4_sum_bn -> conv4_4_sum_bn
I0703 18:09:34.277878 35406 net.cpp:150] Setting up conv4_4_sum_bn
I0703 18:09:34.277907 35406 net.cpp:157] Top shape: 8 1024 14 14 (1605632)
I0703 18:09:34.277916 35406 net.cpp:165] Memory required for data: 1565505568
I0703 18:09:34.277930 35406 layer_factory.hpp:76] Creating layer conv4_4_sum_relu
I0703 18:09:34.277942 35406 net.cpp:106] Creating Layer conv4_4_sum_relu
I0703 18:09:34.277951 35406 net.cpp:454] conv4_4_sum_relu <- conv4_4_sum_bn
I0703 18:09:34.277962 35406 net.cpp:397] conv4_4_sum_relu -> conv4_4_sum_bn (in-place)
I0703 18:09:34.278169 35406 net.cpp:150] Setting up conv4_4_sum_relu
I0703 18:09:34.278199 35406 net.cpp:157] Top shape: 8 1024 14 14 (1605632)
I0703 18:09:34.278209 35406 net.cpp:165] Memory required for data: 1571928096
I0703 18:09:34.278218 35406 layer_factory.hpp:76] Creating layer conv4_4_sum_bn_conv4_4_sum_relu_0_split
I0703 18:09:34.278230 35406 net.cpp:106] Creating Layer conv4_4_sum_bn_conv4_4_sum_relu_0_split
I0703 18:09:34.278239 35406 net.cpp:454] conv4_4_sum_bn_conv4_4_sum_relu_0_split <- conv4_4_sum_bn
I0703 18:09:34.278251 35406 net.cpp:411] conv4_4_sum_bn_conv4_4_sum_relu_0_split -> conv4_4_sum_bn_conv4_4_sum_relu_0_split_0
I0703 18:09:34.278264 35406 net.cpp:411] conv4_4_sum_bn_conv4_4_sum_relu_0_split -> conv4_4_sum_bn_conv4_4_sum_relu_0_split_1
I0703 18:09:34.278328 35406 net.cpp:150] Setting up conv4_4_sum_bn_conv4_4_sum_relu_0_split
I0703 18:09:34.278347 35406 net.cpp:157] Top shape: 8 1024 14 14 (1605632)
I0703 18:09:34.278357 35406 net.cpp:157] Top shape: 8 1024 14 14 (1605632)
I0703 18:09:34.278364 35406 net.cpp:165] Memory required for data: 1584773152
I0703 18:09:34.278373 35406 layer_factory.hpp:76] Creating layer conv4_5_1
I0703 18:09:34.278389 35406 net.cpp:106] Creating Layer conv4_5_1
I0703 18:09:34.278398 35406 net.cpp:454] conv4_5_1 <- conv4_4_sum_bn_conv4_4_sum_relu_0_split_0
I0703 18:09:34.278409 35406 net.cpp:411] conv4_5_1 -> conv4_5_1
I0703 18:09:34.288286 35406 cudnn_conv_layer.cpp:194] Reallocating workspace storage: 19267584
I0703 18:09:34.288574 35406 net.cpp:150] Setting up conv4_5_1
I0703 18:09:34.288607 35406 net.cpp:157] Top shape: 8 256 14 14 (401408)
I0703 18:09:34.288617 35406 net.cpp:165] Memory required for data: 1586378784
I0703 18:09:34.288631 35406 layer_factory.hpp:76] Creating layer conv4_5_1_bn
I0703 18:09:34.288648 35406 net.cpp:106] Creating Layer conv4_5_1_bn
I0703 18:09:34.288660 35406 net.cpp:454] conv4_5_1_bn <- conv4_5_1
I0703 18:09:34.288671 35406 net.cpp:411] conv4_5_1_bn -> conv4_5_1_bn
I0703 18:09:34.288946 35406 net.cpp:150] Setting up conv4_5_1_bn
I0703 18:09:34.288975 35406 net.cpp:157] Top shape: 8 256 14 14 (401408)
I0703 18:09:34.288983 35406 net.cpp:165] Memory required for data: 1587984416
I0703 18:09:34.289017 35406 layer_factory.hpp:76] Creating layer conv4_5_1_relu
I0703 18:09:34.289029 35406 net.cpp:106] Creating Layer conv4_5_1_relu
I0703 18:09:34.289039 35406 net.cpp:454] conv4_5_1_relu <- conv4_5_1_bn
I0703 18:09:34.289049 35406 net.cpp:397] conv4_5_1_relu -> conv4_5_1_bn (in-place)
I0703 18:09:34.289415 35406 net.cpp:150] Setting up conv4_5_1_relu
I0703 18:09:34.289451 35406 net.cpp:157] Top shape: 8 256 14 14 (401408)
I0703 18:09:34.289461 35406 net.cpp:165] Memory required for data: 1589590048
I0703 18:09:34.289470 35406 layer_factory.hpp:76] Creating layer conv4_5_2
I0703 18:09:34.289485 35406 net.cpp:106] Creating Layer conv4_5_2
I0703 18:09:34.289496 35406 net.cpp:454] conv4_5_2 <- conv4_5_1_bn
I0703 18:09:34.289510 35406 net.cpp:411] conv4_5_2 -> conv4_5_2
I0703 18:09:34.309921 35406 net.cpp:150] Setting up conv4_5_2
I0703 18:09:34.309978 35406 net.cpp:157] Top shape: 8 256 14 14 (401408)
I0703 18:09:34.309989 35406 net.cpp:165] Memory required for data: 1591195680
I0703 18:09:34.310005 35406 layer_factory.hpp:76] Creating layer conv4_5_2_bn
I0703 18:09:34.310021 35406 net.cpp:106] Creating Layer conv4_5_2_bn
I0703 18:09:34.310034 35406 net.cpp:454] conv4_5_2_bn <- conv4_5_2
I0703 18:09:34.310051 35406 net.cpp:411] conv4_5_2_bn -> conv4_5_2_bn
I0703 18:09:34.310343 35406 net.cpp:150] Setting up conv4_5_2_bn
I0703 18:09:34.310371 35406 net.cpp:157] Top shape: 8 256 14 14 (401408)
I0703 18:09:34.310381 35406 net.cpp:165] Memory required for data: 1592801312
I0703 18:09:34.310395 35406 layer_factory.hpp:76] Creating layer conv4_5_2_relu
I0703 18:09:34.310410 35406 net.cpp:106] Creating Layer conv4_5_2_relu
I0703 18:09:34.310420 35406 net.cpp:454] conv4_5_2_relu <- conv4_5_2_bn
I0703 18:09:34.310431 35406 net.cpp:397] conv4_5_2_relu -> conv4_5_2_bn (in-place)
I0703 18:09:34.310796 35406 net.cpp:150] Setting up conv4_5_2_relu
I0703 18:09:34.310828 35406 net.cpp:157] Top shape: 8 256 14 14 (401408)
I0703 18:09:34.310839 35406 net.cpp:165] Memory required for data: 1594406944
I0703 18:09:34.310848 35406 layer_factory.hpp:76] Creating layer conv4_5_3
I0703 18:09:34.310866 35406 net.cpp:106] Creating Layer conv4_5_3
I0703 18:09:34.310878 35406 net.cpp:454] conv4_5_3 <- conv4_5_2_bn
I0703 18:09:34.310891 35406 net.cpp:411] conv4_5_3 -> conv4_5_3
I0703 18:09:34.320822 35406 cudnn_conv_layer.cpp:194] Reallocating workspace storage: 3072
I0703 18:09:34.320888 35406 net.cpp:150] Setting up conv4_5_3
I0703 18:09:34.320904 35406 net.cpp:157] Top shape: 8 1024 14 14 (1605632)
I0703 18:09:34.320914 35406 net.cpp:165] Memory required for data: 1600829472
I0703 18:09:34.320927 35406 layer_factory.hpp:76] Creating layer conv4_5_sum
I0703 18:09:34.320945 35406 net.cpp:106] Creating Layer conv4_5_sum
I0703 18:09:34.320957 35406 net.cpp:454] conv4_5_sum <- conv4_4_sum_bn_conv4_4_sum_relu_0_split_1
I0703 18:09:34.320982 35406 net.cpp:454] conv4_5_sum <- conv4_5_3
I0703 18:09:34.320996 35406 net.cpp:411] conv4_5_sum -> conv4_5_sum
I0703 18:09:34.321056 35406 net.cpp:150] Setting up conv4_5_sum
I0703 18:09:34.321071 35406 net.cpp:157] Top shape: 8 1024 14 14 (1605632)
I0703 18:09:34.321079 35406 net.cpp:165] Memory required for data: 1607252000
I0703 18:09:34.321089 35406 layer_factory.hpp:76] Creating layer conv4_5_sum_bn
I0703 18:09:34.321104 35406 net.cpp:106] Creating Layer conv4_5_sum_bn
I0703 18:09:34.321112 35406 net.cpp:454] conv4_5_sum_bn <- conv4_5_sum
I0703 18:09:34.321123 35406 net.cpp:411] conv4_5_sum_bn -> conv4_5_sum_bn
I0703 18:09:34.321388 35406 net.cpp:150] Setting up conv4_5_sum_bn
I0703 18:09:34.321404 35406 net.cpp:157] Top shape: 8 1024 14 14 (1605632)
I0703 18:09:34.321413 35406 net.cpp:165] Memory required for data: 1613674528
I0703 18:09:34.321426 35406 layer_factory.hpp:76] Creating layer conv4_5_sum_relu
I0703 18:09:34.321439 35406 net.cpp:106] Creating Layer conv4_5_sum_relu
I0703 18:09:34.321447 35406 net.cpp:454] conv4_5_sum_relu <- conv4_5_sum_bn
I0703 18:09:34.321457 35406 net.cpp:397] conv4_5_sum_relu -> conv4_5_sum_bn (in-place)
I0703 18:09:34.321656 35406 net.cpp:150] Setting up conv4_5_sum_relu
I0703 18:09:34.321694 35406 net.cpp:157] Top shape: 8 1024 14 14 (1605632)
I0703 18:09:34.321704 35406 net.cpp:165] Memory required for data: 1620097056
I0703 18:09:34.321713 35406 layer_factory.hpp:76] Creating layer conv4_5_sum_bn_conv4_5_sum_relu_0_split
I0703 18:09:34.321725 35406 net.cpp:106] Creating Layer conv4_5_sum_bn_conv4_5_sum_relu_0_split
I0703 18:09:34.321733 35406 net.cpp:454] conv4_5_sum_bn_conv4_5_sum_relu_0_split <- conv4_5_sum_bn
I0703 18:09:34.321746 35406 net.cpp:411] conv4_5_sum_bn_conv4_5_sum_relu_0_split -> conv4_5_sum_bn_conv4_5_sum_relu_0_split_0
I0703 18:09:34.321759 35406 net.cpp:411] conv4_5_sum_bn_conv4_5_sum_relu_0_split -> conv4_5_sum_bn_conv4_5_sum_relu_0_split_1
I0703 18:09:34.321821 35406 net.cpp:150] Setting up conv4_5_sum_bn_conv4_5_sum_relu_0_split
I0703 18:09:34.321835 35406 net.cpp:157] Top shape: 8 1024 14 14 (1605632)
I0703 18:09:34.321846 35406 net.cpp:157] Top shape: 8 1024 14 14 (1605632)
I0703 18:09:34.321853 35406 net.cpp:165] Memory required for data: 1632942112
I0703 18:09:34.321861 35406 layer_factory.hpp:76] Creating layer conv4_6_1
I0703 18:09:34.321878 35406 net.cpp:106] Creating Layer conv4_6_1
I0703 18:09:34.321887 35406 net.cpp:454] conv4_6_1 <- conv4_5_sum_bn_conv4_5_sum_relu_0_split_0
I0703 18:09:34.321898 35406 net.cpp:411] conv4_6_1 -> conv4_6_1
I0703 18:09:34.331790 35406 cudnn_conv_layer.cpp:194] Reallocating workspace storage: 19267584
I0703 18:09:34.332056 35406 net.cpp:150] Setting up conv4_6_1
I0703 18:09:34.332093 35406 net.cpp:157] Top shape: 8 256 14 14 (401408)
I0703 18:09:34.332104 35406 net.cpp:165] Memory required for data: 1634547744
I0703 18:09:34.332118 35406 layer_factory.hpp:76] Creating layer conv4_6_1_bn
I0703 18:09:34.332134 35406 net.cpp:106] Creating Layer conv4_6_1_bn
I0703 18:09:34.332144 35406 net.cpp:454] conv4_6_1_bn <- conv4_6_1
I0703 18:09:34.332159 35406 net.cpp:411] conv4_6_1_bn -> conv4_6_1_bn
I0703 18:09:34.332448 35406 net.cpp:150] Setting up conv4_6_1_bn
I0703 18:09:34.332494 35406 net.cpp:157] Top shape: 8 256 14 14 (401408)
I0703 18:09:34.332504 35406 net.cpp:165] Memory required for data: 1636153376
I0703 18:09:34.332518 35406 layer_factory.hpp:76] Creating layer conv4_6_1_relu
I0703 18:09:34.332535 35406 net.cpp:106] Creating Layer conv4_6_1_relu
I0703 18:09:34.332545 35406 net.cpp:454] conv4_6_1_relu <- conv4_6_1_bn
I0703 18:09:34.332568 35406 net.cpp:397] conv4_6_1_relu -> conv4_6_1_bn (in-place)
I0703 18:09:34.332933 35406 net.cpp:150] Setting up conv4_6_1_relu
I0703 18:09:34.332967 35406 net.cpp:157] Top shape: 8 256 14 14 (401408)
I0703 18:09:34.332976 35406 net.cpp:165] Memory required for data: 1637759008
I0703 18:09:34.332985 35406 layer_factory.hpp:76] Creating layer conv4_6_2
I0703 18:09:34.333003 35406 net.cpp:106] Creating Layer conv4_6_2
I0703 18:09:34.333014 35406 net.cpp:454] conv4_6_2 <- conv4_6_1_bn
I0703 18:09:34.333026 35406 net.cpp:411] conv4_6_2 -> conv4_6_2
I0703 18:09:34.353364 35406 net.cpp:150] Setting up conv4_6_2
I0703 18:09:34.353405 35406 net.cpp:157] Top shape: 8 256 14 14 (401408)
I0703 18:09:34.353416 35406 net.cpp:165] Memory required for data: 1639364640
I0703 18:09:34.353483 35406 layer_factory.hpp:76] Creating layer conv4_6_2_bn
I0703 18:09:34.353500 35406 net.cpp:106] Creating Layer conv4_6_2_bn
I0703 18:09:34.353512 35406 net.cpp:454] conv4_6_2_bn <- conv4_6_2
I0703 18:09:34.353524 35406 net.cpp:411] conv4_6_2_bn -> conv4_6_2_bn
I0703 18:09:34.353801 35406 net.cpp:150] Setting up conv4_6_2_bn
I0703 18:09:34.353818 35406 net.cpp:157] Top shape: 8 256 14 14 (401408)
I0703 18:09:34.353827 35406 net.cpp:165] Memory required for data: 1640970272
I0703 18:09:34.353840 35406 layer_factory.hpp:76] Creating layer conv4_6_2_relu
I0703 18:09:34.353853 35406 net.cpp:106] Creating Layer conv4_6_2_relu
I0703 18:09:34.353863 35406 net.cpp:454] conv4_6_2_relu <- conv4_6_2_bn
I0703 18:09:34.353873 35406 net.cpp:397] conv4_6_2_relu -> conv4_6_2_bn (in-place)
I0703 18:09:34.354234 35406 net.cpp:150] Setting up conv4_6_2_relu
I0703 18:09:34.354267 35406 net.cpp:157] Top shape: 8 256 14 14 (401408)
I0703 18:09:34.354297 35406 net.cpp:165] Memory required for data: 1642575904
I0703 18:09:34.354307 35406 layer_factory.hpp:76] Creating layer conv4_6_3
I0703 18:09:34.354324 35406 net.cpp:106] Creating Layer conv4_6_3
I0703 18:09:34.354334 35406 net.cpp:454] conv4_6_3 <- conv4_6_2_bn
I0703 18:09:34.354347 35406 net.cpp:411] conv4_6_3 -> conv4_6_3
I0703 18:09:34.364200 35406 cudnn_conv_layer.cpp:194] Reallocating workspace storage: 3072
I0703 18:09:34.364258 35406 net.cpp:150] Setting up conv4_6_3
I0703 18:09:34.364274 35406 net.cpp:157] Top shape: 8 1024 14 14 (1605632)
I0703 18:09:34.364284 35406 net.cpp:165] Memory required for data: 1648998432
I0703 18:09:34.364298 35406 layer_factory.hpp:76] Creating layer conv4_6_sum
I0703 18:09:34.364316 35406 net.cpp:106] Creating Layer conv4_6_sum
I0703 18:09:34.364328 35406 net.cpp:454] conv4_6_sum <- conv4_5_sum_bn_conv4_5_sum_relu_0_split_1
I0703 18:09:34.364341 35406 net.cpp:454] conv4_6_sum <- conv4_6_3
I0703 18:09:34.364352 35406 net.cpp:411] conv4_6_sum -> conv4_6_sum
I0703 18:09:34.364401 35406 net.cpp:150] Setting up conv4_6_sum
I0703 18:09:34.364418 35406 net.cpp:157] Top shape: 8 1024 14 14 (1605632)
I0703 18:09:34.364441 35406 net.cpp:165] Memory required for data: 1655420960
I0703 18:09:34.364450 35406 layer_factory.hpp:76] Creating layer conv4_6_sum_bn
I0703 18:09:34.364480 35406 net.cpp:106] Creating Layer conv4_6_sum_bn
I0703 18:09:34.364500 35406 net.cpp:454] conv4_6_sum_bn <- conv4_6_sum
I0703 18:09:34.364513 35406 net.cpp:411] conv4_6_sum_bn -> conv4_6_sum_bn
I0703 18:09:34.364805 35406 net.cpp:150] Setting up conv4_6_sum_bn
I0703 18:09:34.364835 35406 net.cpp:157] Top shape: 8 1024 14 14 (1605632)
I0703 18:09:34.364843 35406 net.cpp:165] Memory required for data: 1661843488
I0703 18:09:34.364856 35406 layer_factory.hpp:76] Creating layer conv4_6_sum_relu
I0703 18:09:34.364869 35406 net.cpp:106] Creating Layer conv4_6_sum_relu
I0703 18:09:34.364878 35406 net.cpp:454] conv4_6_sum_relu <- conv4_6_sum_bn
I0703 18:09:34.364889 35406 net.cpp:397] conv4_6_sum_relu -> conv4_6_sum_bn (in-place)
I0703 18:09:34.365102 35406 net.cpp:150] Setting up conv4_6_sum_relu
I0703 18:09:34.365131 35406 net.cpp:157] Top shape: 8 1024 14 14 (1605632)
I0703 18:09:34.365141 35406 net.cpp:165] Memory required for data: 1668266016
I0703 18:09:34.365150 35406 layer_factory.hpp:76] Creating layer conv4_6_sum_bn_conv4_6_sum_relu_0_split
I0703 18:09:34.365162 35406 net.cpp:106] Creating Layer conv4_6_sum_bn_conv4_6_sum_relu_0_split
I0703 18:09:34.365171 35406 net.cpp:454] conv4_6_sum_bn_conv4_6_sum_relu_0_split <- conv4_6_sum_bn
I0703 18:09:34.365185 35406 net.cpp:411] conv4_6_sum_bn_conv4_6_sum_relu_0_split -> conv4_6_sum_bn_conv4_6_sum_relu_0_split_0
I0703 18:09:34.365197 35406 net.cpp:411] conv4_6_sum_bn_conv4_6_sum_relu_0_split -> conv4_6_sum_bn_conv4_6_sum_relu_0_split_1
I0703 18:09:34.365262 35406 net.cpp:150] Setting up conv4_6_sum_bn_conv4_6_sum_relu_0_split
I0703 18:09:34.365278 35406 net.cpp:157] Top shape: 8 1024 14 14 (1605632)
I0703 18:09:34.365289 35406 net.cpp:157] Top shape: 8 1024 14 14 (1605632)
I0703 18:09:34.365298 35406 net.cpp:165] Memory required for data: 1681111072
I0703 18:09:34.365306 35406 layer_factory.hpp:76] Creating layer conv4_7_1
I0703 18:09:34.365321 35406 net.cpp:106] Creating Layer conv4_7_1
I0703 18:09:34.365330 35406 net.cpp:454] conv4_7_1 <- conv4_6_sum_bn_conv4_6_sum_relu_0_split_0
I0703 18:09:34.365346 35406 net.cpp:411] conv4_7_1 -> conv4_7_1
I0703 18:09:34.375368 35406 cudnn_conv_layer.cpp:194] Reallocating workspace storage: 19267584
I0703 18:09:34.375628 35406 net.cpp:150] Setting up conv4_7_1
I0703 18:09:34.375663 35406 net.cpp:157] Top shape: 8 256 14 14 (401408)
I0703 18:09:34.375675 35406 net.cpp:165] Memory required for data: 1682716704
I0703 18:09:34.375689 35406 layer_factory.hpp:76] Creating layer conv4_7_1_bn
I0703 18:09:34.375704 35406 net.cpp:106] Creating Layer conv4_7_1_bn
I0703 18:09:34.375713 35406 net.cpp:454] conv4_7_1_bn <- conv4_7_1
I0703 18:09:34.375727 35406 net.cpp:411] conv4_7_1_bn -> conv4_7_1_bn
I0703 18:09:34.376013 35406 net.cpp:150] Setting up conv4_7_1_bn
I0703 18:09:34.376060 35406 net.cpp:157] Top shape: 8 256 14 14 (401408)
I0703 18:09:34.376070 35406 net.cpp:165] Memory required for data: 1684322336
I0703 18:09:34.376083 35406 layer_factory.hpp:76] Creating layer conv4_7_1_relu
I0703 18:09:34.376096 35406 net.cpp:106] Creating Layer conv4_7_1_relu
I0703 18:09:34.376106 35406 net.cpp:454] conv4_7_1_relu <- conv4_7_1_bn
I0703 18:09:34.376117 35406 net.cpp:397] conv4_7_1_relu -> conv4_7_1_bn (in-place)
I0703 18:09:34.376487 35406 net.cpp:150] Setting up conv4_7_1_relu
I0703 18:09:34.376519 35406 net.cpp:157] Top shape: 8 256 14 14 (401408)
I0703 18:09:34.376529 35406 net.cpp:165] Memory required for data: 1685927968
I0703 18:09:34.376538 35406 layer_factory.hpp:76] Creating layer conv4_7_2
I0703 18:09:34.376555 35406 net.cpp:106] Creating Layer conv4_7_2
I0703 18:09:34.376566 35406 net.cpp:454] conv4_7_2 <- conv4_7_1_bn
I0703 18:09:34.376579 35406 net.cpp:411] conv4_7_2 -> conv4_7_2
I0703 18:09:34.397315 35406 net.cpp:150] Setting up conv4_7_2
I0703 18:09:34.397352 35406 net.cpp:157] Top shape: 8 256 14 14 (401408)
I0703 18:09:34.397363 35406 net.cpp:165] Memory required for data: 1687533600
I0703 18:09:34.397378 35406 layer_factory.hpp:76] Creating layer conv4_7_2_bn
I0703 18:09:34.397397 35406 net.cpp:106] Creating Layer conv4_7_2_bn
I0703 18:09:34.397409 35406 net.cpp:454] conv4_7_2_bn <- conv4_7_2
I0703 18:09:34.397424 35406 net.cpp:411] conv4_7_2_bn -> conv4_7_2_bn
I0703 18:09:34.397704 35406 net.cpp:150] Setting up conv4_7_2_bn
I0703 18:09:34.397722 35406 net.cpp:157] Top shape: 8 256 14 14 (401408)
I0703 18:09:34.397730 35406 net.cpp:165] Memory required for data: 1689139232
I0703 18:09:34.397744 35406 layer_factory.hpp:76] Creating layer conv4_7_2_relu
I0703 18:09:34.397756 35406 net.cpp:106] Creating Layer conv4_7_2_relu
I0703 18:09:34.397765 35406 net.cpp:454] conv4_7_2_relu <- conv4_7_2_bn
I0703 18:09:34.397775 35406 net.cpp:397] conv4_7_2_relu -> conv4_7_2_bn (in-place)
I0703 18:09:34.398140 35406 net.cpp:150] Setting up conv4_7_2_relu
I0703 18:09:34.398162 35406 net.cpp:157] Top shape: 8 256 14 14 (401408)
I0703 18:09:34.398171 35406 net.cpp:165] Memory required for data: 1690744864
I0703 18:09:34.398180 35406 layer_factory.hpp:76] Creating layer conv4_7_3
I0703 18:09:34.398198 35406 net.cpp:106] Creating Layer conv4_7_3
I0703 18:09:34.398207 35406 net.cpp:454] conv4_7_3 <- conv4_7_2_bn
I0703 18:09:34.398221 35406 net.cpp:411] conv4_7_3 -> conv4_7_3
I0703 18:09:34.408066 35406 cudnn_conv_layer.cpp:194] Reallocating workspace storage: 3072
I0703 18:09:34.408131 35406 net.cpp:150] Setting up conv4_7_3
I0703 18:09:34.408146 35406 net.cpp:157] Top shape: 8 1024 14 14 (1605632)
I0703 18:09:34.408155 35406 net.cpp:165] Memory required for data: 1697167392
I0703 18:09:34.408169 35406 layer_factory.hpp:76] Creating layer conv4_7_sum
I0703 18:09:34.408187 35406 net.cpp:106] Creating Layer conv4_7_sum
I0703 18:09:34.408198 35406 net.cpp:454] conv4_7_sum <- conv4_6_sum_bn_conv4_6_sum_relu_0_split_1
I0703 18:09:34.408211 35406 net.cpp:454] conv4_7_sum <- conv4_7_3
I0703 18:09:34.408222 35406 net.cpp:411] conv4_7_sum -> conv4_7_sum
I0703 18:09:34.408270 35406 net.cpp:150] Setting up conv4_7_sum
I0703 18:09:34.408287 35406 net.cpp:157] Top shape: 8 1024 14 14 (1605632)
I0703 18:09:34.408295 35406 net.cpp:165] Memory required for data: 1703589920
I0703 18:09:34.408305 35406 layer_factory.hpp:76] Creating layer conv4_7_sum_bn
I0703 18:09:34.408319 35406 net.cpp:106] Creating Layer conv4_7_sum_bn
I0703 18:09:34.408329 35406 net.cpp:454] conv4_7_sum_bn <- conv4_7_sum
I0703 18:09:34.408339 35406 net.cpp:411] conv4_7_sum_bn -> conv4_7_sum_bn
I0703 18:09:34.408668 35406 net.cpp:150] Setting up conv4_7_sum_bn
I0703 18:09:34.408699 35406 net.cpp:157] Top shape: 8 1024 14 14 (1605632)
I0703 18:09:34.408709 35406 net.cpp:165] Memory required for data: 1710012448
I0703 18:09:34.408722 35406 layer_factory.hpp:76] Creating layer conv4_7_sum_relu
I0703 18:09:34.408737 35406 net.cpp:106] Creating Layer conv4_7_sum_relu
I0703 18:09:34.408747 35406 net.cpp:454] conv4_7_sum_relu <- conv4_7_sum_bn
I0703 18:09:34.408784 35406 net.cpp:397] conv4_7_sum_relu -> conv4_7_sum_bn (in-place)
I0703 18:09:34.409005 35406 net.cpp:150] Setting up conv4_7_sum_relu
I0703 18:09:34.409036 35406 net.cpp:157] Top shape: 8 1024 14 14 (1605632)
I0703 18:09:34.409047 35406 net.cpp:165] Memory required for data: 1716434976
I0703 18:09:34.409056 35406 layer_factory.hpp:76] Creating layer conv4_7_sum_bn_conv4_7_sum_relu_0_split
I0703 18:09:34.409068 35406 net.cpp:106] Creating Layer conv4_7_sum_bn_conv4_7_sum_relu_0_split
I0703 18:09:34.409077 35406 net.cpp:454] conv4_7_sum_bn_conv4_7_sum_relu_0_split <- conv4_7_sum_bn
I0703 18:09:34.409091 35406 net.cpp:411] conv4_7_sum_bn_conv4_7_sum_relu_0_split -> conv4_7_sum_bn_conv4_7_sum_relu_0_split_0
I0703 18:09:34.409103 35406 net.cpp:411] conv4_7_sum_bn_conv4_7_sum_relu_0_split -> conv4_7_sum_bn_conv4_7_sum_relu_0_split_1
I0703 18:09:34.409174 35406 net.cpp:150] Setting up conv4_7_sum_bn_conv4_7_sum_relu_0_split
I0703 18:09:34.409190 35406 net.cpp:157] Top shape: 8 1024 14 14 (1605632)
I0703 18:09:34.409200 35406 net.cpp:157] Top shape: 8 1024 14 14 (1605632)
I0703 18:09:34.409221 35406 net.cpp:165] Memory required for data: 1729280032
I0703 18:09:34.409230 35406 layer_factory.hpp:76] Creating layer conv4_8_1
I0703 18:09:34.409248 35406 net.cpp:106] Creating Layer conv4_8_1
I0703 18:09:34.409257 35406 net.cpp:454] conv4_8_1 <- conv4_7_sum_bn_conv4_7_sum_relu_0_split_0
I0703 18:09:34.409268 35406 net.cpp:411] conv4_8_1 -> conv4_8_1
I0703 18:09:34.419078 35406 cudnn_conv_layer.cpp:194] Reallocating workspace storage: 19267584
I0703 18:09:34.419350 35406 net.cpp:150] Setting up conv4_8_1
I0703 18:09:34.419384 35406 net.cpp:157] Top shape: 8 256 14 14 (401408)
I0703 18:09:34.419394 35406 net.cpp:165] Memory required for data: 1730885664
I0703 18:09:34.419409 35406 layer_factory.hpp:76] Creating layer conv4_8_1_bn
I0703 18:09:34.419425 35406 net.cpp:106] Creating Layer conv4_8_1_bn
I0703 18:09:34.419436 35406 net.cpp:454] conv4_8_1_bn <- conv4_8_1
I0703 18:09:34.419447 35406 net.cpp:411] conv4_8_1_bn -> conv4_8_1_bn
I0703 18:09:34.419741 35406 net.cpp:150] Setting up conv4_8_1_bn
I0703 18:09:34.419770 35406 net.cpp:157] Top shape: 8 256 14 14 (401408)
I0703 18:09:34.419780 35406 net.cpp:165] Memory required for data: 1732491296
I0703 18:09:34.419792 35406 layer_factory.hpp:76] Creating layer conv4_8_1_relu
I0703 18:09:34.419805 35406 net.cpp:106] Creating Layer conv4_8_1_relu
I0703 18:09:34.419813 35406 net.cpp:454] conv4_8_1_relu <- conv4_8_1_bn
I0703 18:09:34.419823 35406 net.cpp:397] conv4_8_1_relu -> conv4_8_1_bn (in-place)
I0703 18:09:34.420264 35406 net.cpp:150] Setting up conv4_8_1_relu
I0703 18:09:34.420297 35406 net.cpp:157] Top shape: 8 256 14 14 (401408)
I0703 18:09:34.420307 35406 net.cpp:165] Memory required for data: 1734096928
I0703 18:09:34.420316 35406 layer_factory.hpp:76] Creating layer conv4_8_2
I0703 18:09:34.420332 35406 net.cpp:106] Creating Layer conv4_8_2
I0703 18:09:34.420341 35406 net.cpp:454] conv4_8_2 <- conv4_8_1_bn
I0703 18:09:34.420353 35406 net.cpp:411] conv4_8_2 -> conv4_8_2
…
I0703 18:09:37.687613 35406 net.cpp:165] Memory required for data: 2891757664
I0703 18:09:37.687625 35406 layer_factory.hpp:76] Creating layer conv4_32_2_bn
I0703 18:09:37.687644 35406 net.cpp:106] Creating Layer conv4_32_2_bn
I0703 18:09:37.687656 35406 net.cpp:454] conv4_32_2_bn <- conv4_32_2
I0703 18:09:37.687669 35406 net.cpp:411] conv4_32_2_bn -> conv4_32_2_bn
I0703 18:09:37.687949 35406 net.cpp:150] Setting up conv4_32_2_bn
I0703 18:09:37.687966 35406 net.cpp:157] Top shape: 8 256 14 14 (401408)
I0703 18:09:37.687975 35406 net.cpp:165] Memory required for data: 2893363296
I0703 18:09:37.687999 35406 layer_factory.hpp:76] Creating layer conv4_32_2_relu
I0703 18:09:37.688011 35406 net.cpp:106] Creating Layer conv4_32_2_relu
I0703 18:09:37.688020 35406 net.cpp:454] conv4_32_2_relu <- conv4_32_2_bn
I0703 18:09:37.688030 35406 net.cpp:397] conv4_32_2_relu -> conv4_32_2_bn (in-place)
I0703 18:09:37.688294 35406 net.cpp:150] Setting up conv4_32_2_relu
I0703 18:09:37.688313 35406 net.cpp:157] Top shape: 8 256 14 14 (401408)
I0703 18:09:37.688321 35406 net.cpp:165] Memory required for data: 2894968928
I0703 18:09:37.688329 35406 layer_factory.hpp:76] Creating layer conv4_32_3
I0703 18:09:37.688346 35406 net.cpp:106] Creating Layer conv4_32_3
I0703 18:09:37.688356 35406 net.cpp:454] conv4_32_3 <- conv4_32_2_bn
I0703 18:09:37.688366 35406 net.cpp:411] conv4_32_3 -> conv4_32_3
I0703 18:09:37.698503 35406 cudnn_conv_layer.cpp:194] Reallocating workspace storage: 3072
I0703 18:09:37.698603 35406 net.cpp:150] Setting up conv4_32_3
I0703 18:09:37.698621 35406 net.cpp:157] Top shape: 8 1024 14 14 (1605632)
I0703 18:09:37.698637 35406 net.cpp:165] Memory required for data: 2901391456
I0703 18:09:37.698673 35406 layer_factory.hpp:76] Creating layer conv4_32_sum
I0703 18:09:37.698688 35406 net.cpp:106] Creating Layer conv4_32_sum
I0703 18:09:37.698700 35406 net.cpp:454] conv4_32_sum <- conv4_31_sum_bn_conv4_31_sum_relu_0_split_1
I0703 18:09:37.698714 35406 net.cpp:454] conv4_32_sum <- conv4_32_3
I0703 18:09:37.698725 35406 net.cpp:411] conv4_32_sum -> conv4_32_sum
I0703 18:09:37.698774 35406 net.cpp:150] Setting up conv4_32_sum
I0703 18:09:37.698789 35406 net.cpp:157] Top shape: 8 1024 14 14 (1605632)
I0703 18:09:37.698798 35406 net.cpp:165] Memory required for data: 2907813984
I0703 18:09:37.698809 35406 layer_factory.hpp:76] Creating layer conv4_32_sum_bn
I0703 18:09:37.698822 35406 net.cpp:106] Creating Layer conv4_32_sum_bn
I0703 18:09:37.698830 35406 net.cpp:454] conv4_32_sum_bn <- conv4_32_sum
I0703 18:09:37.698843 35406 net.cpp:411] conv4_32_sum_bn -> conv4_32_sum_bn
I0703 18:09:37.699149 35406 net.cpp:150] Setting up conv4_32_sum_bn
I0703 18:09:37.699165 35406 net.cpp:157] Top shape: 8 1024 14 14 (1605632)
I0703 18:09:37.699173 35406 net.cpp:165] Memory required for data: 2914236512
I0703 18:09:37.699185 35406 layer_factory.hpp:76] Creating layer conv4_32_sum_relu
I0703 18:09:37.699200 35406 net.cpp:106] Creating Layer conv4_32_sum_relu
I0703 18:09:37.699210 35406 net.cpp:454] conv4_32_sum_relu <- conv4_32_sum_bn
I0703 18:09:37.699219 35406 net.cpp:397] conv4_32_sum_relu -> conv4_32_sum_bn (in-place)
I0703 18:09:37.699679 35406 net.cpp:150] Setting up conv4_32_sum_relu
I0703 18:09:37.699700 35406 net.cpp:157] Top shape: 8 1024 14 14 (1605632)
I0703 18:09:37.699709 35406 net.cpp:165] Memory required for data: 2920659040
I0703 18:09:37.699722 35406 layer_factory.hpp:76] Creating layer conv4_32_sum_bn_conv4_32_sum_relu_0_split
I0703 18:09:37.699740 35406 net.cpp:106] Creating Layer conv4_32_sum_bn_conv4_32_sum_relu_0_split
I0703 18:09:37.699750 35406 net.cpp:454] conv4_32_sum_bn_conv4_32_sum_relu_0_split <- conv4_32_sum_bn
I0703 18:09:37.699760 35406 net.cpp:411] conv4_32_sum_bn_conv4_32_sum_relu_0_split -> conv4_32_sum_bn_conv4_32_sum_relu_0_split_0
I0703 18:09:37.699772 35406 net.cpp:411] conv4_32_sum_bn_conv4_32_sum_relu_0_split -> conv4_32_sum_bn_conv4_32_sum_relu_0_split_1
I0703 18:09:37.699841 35406 net.cpp:150] Setting up conv4_32_sum_bn_conv4_32_sum_relu_0_split
I0703 18:09:37.699856 35406 net.cpp:157] Top shape: 8 1024 14 14 (1605632)
I0703 18:09:37.699867 35406 net.cpp:157] Top shape: 8 1024 14 14 (1605632)
I0703 18:09:37.699877 35406 net.cpp:165] Memory required for data: 2933504096
I0703 18:09:37.699885 35406 layer_factory.hpp:76] Creating layer conv4_33_1
I0703 18:09:37.699901 35406 net.cpp:106] Creating Layer conv4_33_1
I0703 18:09:37.699910 35406 net.cpp:454] conv4_33_1 <- conv4_32_sum_bn_conv4_32_sum_relu_0_split_0
I0703 18:09:37.699923 35406 net.cpp:411] conv4_33_1 -> conv4_33_1
I0703 18:09:37.709914 35406 cudnn_conv_layer.cpp:194] Reallocating workspace storage: 19267584
I0703 18:09:37.710187 35406 net.cpp:150] Setting up conv4_33_1
I0703 18:09:37.710219 35406 net.cpp:157] Top shape: 8 256 14 14 (401408)
I0703 18:09:37.710229 35406 net.cpp:165] Memory required for data: 2935109728
I0703 18:09:37.710248 35406 layer_factory.hpp:76] Creating layer conv4_33_1_bn
I0703 18:09:37.710275 35406 net.cpp:106] Creating Layer conv4_33_1_bn
I0703 18:09:37.710286 35406 net.cpp:454] conv4_33_1_bn <- conv4_33_1
I0703 18:09:37.710299 35406 net.cpp:411] conv4_33_1_bn -> conv4_33_1_bn
I0703 18:09:37.710602 35406 net.cpp:150] Setting up conv4_33_1_bn
I0703 18:09:37.710618 35406 net.cpp:157] Top shape: 8 256 14 14 (401408)
I0703 18:09:37.710626 35406 net.cpp:165] Memory required for data: 2936715360
I0703 18:09:37.710642 35406 layer_factory.hpp:76] Creating layer conv4_33_1_relu
I0703 18:09:37.710655 35406 net.cpp:106] Creating Layer conv4_33_1_relu
I0703 18:09:37.710664 35406 net.cpp:454] conv4_33_1_relu <- conv4_33_1_bn
I0703 18:09:37.710675 35406 net.cpp:397] conv4_33_1_relu -> conv4_33_1_bn (in-place)
I0703 18:09:37.711150 35406 net.cpp:150] Setting up conv4_33_1_relu
I0703 18:09:37.711185 35406 net.cpp:157] Top shape: 8 256 14 14 (401408)
I0703 18:09:37.711194 35406 net.cpp:165] Memory required for data: 2938320992
I0703 18:09:37.711204 35406 layer_factory.hpp:76] Creating layer conv4_33_2
I0703 18:09:37.711220 35406 net.cpp:106] Creating Layer conv4_33_2
I0703 18:09:37.711230 35406 net.cpp:454] conv4_33_2 <- conv4_33_1_bn
I0703 18:09:37.711241 35406 net.cpp:411] conv4_33_2 -> conv4_33_2
I0703 18:09:37.732028 35406 net.cpp:150] Setting up conv4_33_2
I0703 18:09:37.732067 35406 net.cpp:157] Top shape: 8 256 14 14 (401408)
I0703 18:09:37.732077 35406 net.cpp:165] Memory required for data: 2939926624
I0703 18:09:37.732094 35406 layer_factory.hpp:76] Creating layer conv4_33_2_bn
I0703 18:09:37.732110 35406 net.cpp:106] Creating Layer conv4_33_2_bn
I0703 18:09:37.732121 35406 net.cpp:454] conv4_33_2_bn <- conv4_33_2
I0703 18:09:37.732136 35406 net.cpp:411] conv4_33_2_bn -> conv4_33_2_bn
I0703 18:09:37.732472 35406 net.cpp:150] Setting up conv4_33_2_bn
I0703 18:09:37.732489 35406 net.cpp:157] Top shape: 8 256 14 14 (401408)
I0703 18:09:37.732499 35406 net.cpp:165] Memory required for data: 2941532256
I0703 18:09:37.732514 35406 layer_factory.hpp:76] Creating layer conv4_33_2_relu
I0703 18:09:37.732538 35406 net.cpp:106] Creating Layer conv4_33_2_relu
I0703 18:09:37.732547 35406 net.cpp:454] conv4_33_2_relu <- conv4_33_2_bn
I0703 18:09:37.732571 35406 net.cpp:397] conv4_33_2_relu -> conv4_33_2_bn (in-place)
I0703 18:09:37.732831 35406 net.cpp:150] Setting up conv4_33_2_relu
I0703 18:09:37.732848 35406 net.cpp:157] Top shape: 8 256 14 14 (401408)
I0703 18:09:37.732857 35406 net.cpp:165] Memory required for data: 2943137888
I0703 18:09:37.732867 35406 layer_factory.hpp:76] Creating layer conv4_33_3
I0703 18:09:37.732883 35406 net.cpp:106] Creating Layer conv4_33_3
I0703 18:09:37.732893 35406 net.cpp:454] conv4_33_3 <- conv4_33_2_bn
I0703 18:09:37.732904 35406 net.cpp:411] conv4_33_3 -> conv4_33_3
I0703 18:09:37.742955 35406 cudnn_conv_layer.cpp:194] Reallocating workspace storage: 3072
I0703 18:09:37.743052 35406 net.cpp:150] Setting up conv4_33_3
I0703 18:09:37.743070 35406 net.cpp:157] Top shape: 8 1024 14 14 (1605632)
I0703 18:09:37.743085 35406 net.cpp:165] Memory required for data: 2949560416
I0703 18:09:37.743098 35406 layer_factory.hpp:76] Creating layer conv4_33_sum
I0703 18:09:37.743115 35406 net.cpp:106] Creating Layer conv4_33_sum
I0703 18:09:37.743125 35406 net.cpp:454] conv4_33_sum <- conv4_32_sum_bn_conv4_32_sum_relu_0_split_1
I0703 18:09:37.743136 35406 net.cpp:454] conv4_33_sum <- conv4_33_3
I0703 18:09:37.743147 35406 net.cpp:411] conv4_33_sum -> conv4_33_sum
I0703 18:09:37.743194 35406 net.cpp:150] Setting up conv4_33_sum
I0703 18:09:37.743209 35406 net.cpp:157] Top shape: 8 1024 14 14 (1605632)
I0703 18:09:37.743218 35406 net.cpp:165] Memory required for data: 2955982944
I0703 18:09:37.743247 35406 layer_factory.hpp:76] Creating layer conv4_33_sum_bn
I0703 18:09:37.743266 35406 net.cpp:106] Creating Layer conv4_33_sum_bn
I0703 18:09:37.743279 35406 net.cpp:454] conv4_33_sum_bn <- conv4_33_sum
I0703 18:09:37.743310 35406 net.cpp:411] conv4_33_sum_bn -> conv4_33_sum_bn
I0703 18:09:37.743643 35406 net.cpp:150] Setting up conv4_33_sum_bn
I0703 18:09:37.743660 35406 net.cpp:157] Top shape: 8 1024 14 14 (1605632)
I0703 18:09:37.743669 35406 net.cpp:165] Memory required for data: 2962405472
I0703 18:09:37.743682 35406 layer_factory.hpp:76] Creating layer conv4_33_sum_relu
I0703 18:09:37.743697 35406 net.cpp:106] Creating Layer conv4_33_sum_relu
I0703 18:09:37.743706 35406 net.cpp:454] conv4_33_sum_relu <- conv4_33_sum_bn
I0703 18:09:37.743716 35406 net.cpp:397] conv4_33_sum_relu -> conv4_33_sum_bn (in-place)
I0703 18:09:37.744186 35406 net.cpp:150] Setting up conv4_33_sum_relu
I0703 18:09:37.744207 35406 net.cpp:157] Top shape: 8 1024 14 14 (1605632)
I0703 18:09:37.744221 35406 net.cpp:165] Memory required for data: 2968828000
I0703 18:09:37.744230 35406 layer_factory.hpp:76] Creating layer conv4_33_sum_bn_conv4_33_sum_relu_0_split
I0703 18:09:37.744246 35406 net.cpp:106] Creating Layer conv4_33_sum_bn_conv4_33_sum_relu_0_split
I0703 18:09:37.744277 35406 net.cpp:454] conv4_33_sum_bn_conv4_33_sum_relu_0_split <- conv4_33_sum_bn
I0703 18:09:37.744292 35406 net.cpp:411] conv4_33_sum_bn_conv4_33_sum_relu_0_split -> conv4_33_sum_bn_conv4_33_sum_relu_0_split_0
I0703 18:09:37.744307 35406 net.cpp:411] conv4_33_sum_bn_conv4_33_sum_relu_0_split -> conv4_33_sum_bn_conv4_33_sum_relu_0_split_1
I0703 18:09:37.744374 35406 net.cpp:150] Setting up conv4_33_sum_bn_conv4_33_sum_relu_0_split
I0703 18:09:37.744395 35406 net.cpp:157] Top shape: 8 1024 14 14 (1605632)
I0703 18:09:37.744405 35406 net.cpp:157] Top shape: 8 1024 14 14 (1605632)
I0703 18:09:37.744413 35406 net.cpp:165] Memory required for data: 2981673056
I0703 18:09:37.744426 35406 layer_factory.hpp:76] Creating layer conv4_34_1
I0703 18:09:37.744457 35406 net.cpp:106] Creating Layer conv4_34_1
I0703 18:09:37.744467 35406 net.cpp:454] conv4_34_1 <- conv4_33_sum_bn_conv4_33_sum_relu_0_split_0
I0703 18:09:37.744482 35406 net.cpp:411] conv4_34_1 -> conv4_34_1
I0703 18:09:37.754314 35406 cudnn_conv_layer.cpp:194] Reallocating workspace storage: 19267584
I0703 18:09:37.754631 35406 net.cpp:150] Setting up conv4_34_1
I0703 18:09:37.754662 35406 net.cpp:157] Top shape: 8 256 14 14 (401408)
I0703 18:09:37.754672 35406 net.cpp:165] Memory required for data: 2983278688
I0703 18:09:37.754689 35406 layer_factory.hpp:76] Creating layer conv4_34_1_bn
I0703 18:09:37.754706 35406 net.cpp:106] Creating Layer conv4_34_1_bn
I0703 18:09:37.754720 35406 net.cpp:454] conv4_34_1_bn <- conv4_34_1
I0703 18:09:37.754732 35406 net.cpp:411] conv4_34_1_bn -> conv4_34_1_bn
I0703 18:09:37.755038 35406 net.cpp:150] Setting up conv4_34_1_bn
I0703 18:09:37.755053 35406 net.cpp:157] Top shape: 8 256 14 14 (401408)
I0703 18:09:37.755062 35406 net.cpp:165] Memory required for data: 2984884320
I0703 18:09:37.755074 35406 layer_factory.hpp:76] Creating layer conv4_34_1_relu
I0703 18:09:37.755090 35406 net.cpp:106] Creating Layer conv4_34_1_relu
I0703 18:09:37.755100 35406 net.cpp:454] conv4_34_1_relu <- conv4_34_1_bn
I0703 18:09:37.755110 35406 net.cpp:397] conv4_34_1_relu -> conv4_34_1_bn (in-place)
I0703 18:09:37.755584 35406 net.cpp:150] Setting up conv4_34_1_relu
I0703 18:09:37.755605 35406 net.cpp:157] Top shape: 8 256 14 14 (401408)
I0703 18:09:37.755614 35406 net.cpp:165] Memory required for data: 2986489952
I0703 18:09:37.755625 35406 layer_factory.hpp:76] Creating layer conv4_34_2
I0703 18:09:37.755638 35406 net.cpp:106] Creating Layer conv4_34_2
I0703 18:09:37.755648 35406 net.cpp:454] conv4_34_2 <- conv4_34_1_bn
I0703 18:09:37.755661 35406 net.cpp:411] conv4_34_2 -> conv4_34_2
I0703 18:09:37.776427 35406 net.cpp:150] Setting up conv4_34_2
I0703 18:09:37.776454 35406 net.cpp:157] Top shape: 8 256 14 14 (401408)
I0703 18:09:37.776464 35406 net.cpp:165] Memory required for data: 2988095584
I0703 18:09:37.776478 35406 layer_factory.hpp:76] Creating layer conv4_34_2_bn
I0703 18:09:37.776497 35406 net.cpp:106] Creating Layer conv4_34_2_bn
I0703 18:09:37.776509 35406 net.cpp:454] conv4_34_2_bn <- conv4_34_2
I0703 18:09:37.776522 35406 net.cpp:411] conv4_34_2_bn -> conv4_34_2_bn
I0703 18:09:37.776834 35406 net.cpp:150] Setting up conv4_34_2_bn
I0703 18:09:37.776849 35406 net.cpp:157] Top shape: 8 256 14 14 (401408)
I0703 18:09:37.776859 35406 net.cpp:165] Memory required for data: 2989701216
I0703 18:09:37.776870 35406 layer_factory.hpp:76] Creating layer conv4_34_2_relu
I0703 18:09:37.776887 35406 net.cpp:106] Creating Layer conv4_34_2_relu
I0703 18:09:37.776896 35406 net.cpp:454] conv4_34_2_relu <- conv4_34_2_bn
I0703 18:09:37.776906 35406 net.cpp:397] conv4_34_2_relu -> conv4_34_2_bn (in-place)
I0703 18:09:37.777173 35406 net.cpp:150] Setting up conv4_34_2_relu
I0703 18:09:37.777190 35406 net.cpp:157] Top shape: 8 256 14 14 (401408)
I0703 18:09:37.777199 35406 net.cpp:165] Memory required for data: 2991306848
I0703 18:09:37.777207 35406 layer_factory.hpp:76] Creating layer conv4_34_3
I0703 18:09:37.777225 35406 net.cpp:106] Creating Layer conv4_34_3
I0703 18:09:37.777235 35406 net.cpp:454] conv4_34_3 <- conv4_34_2_bn
I0703 18:09:37.777269 35406 net.cpp:411] conv4_34_3 -> conv4_34_3
I0703 18:09:37.787395 35406 cudnn_conv_layer.cpp:194] Reallocating workspace storage: 3072
I0703 18:09:37.787495 35406 net.cpp:150] Setting up conv4_34_3
I0703 18:09:37.787514 35406 net.cpp:157] Top shape: 8 1024 14 14 (1605632)
I0703 18:09:37.787528 35406 net.cpp:165] Memory required for data: 2997729376
I0703 18:09:37.787539 35406 layer_factory.hpp:76] Creating layer conv4_34_sum
I0703 18:09:37.787556 35406 net.cpp:106] Creating Layer conv4_34_sum
I0703 18:09:37.787566 35406 net.cpp:454] conv4_34_sum <- conv4_33_sum_bn_conv4_33_sum_relu_0_split_1
I0703 18:09:37.787580 35406 net.cpp:454] conv4_34_sum <- conv4_34_3
I0703 18:09:37.787591 35406 net.cpp:411] conv4_34_sum -> conv4_34_sum
I0703 18:09:37.787639 35406 net.cpp:150] Setting up conv4_34_sum
I0703 18:09:37.787655 35406 net.cpp:157] Top shape: 8 1024 14 14 (1605632)
I0703 18:09:37.787677 35406 net.cpp:165] Memory required for data: 3004151904
I0703 18:09:37.787688 35406 layer_factory.hpp:76] Creating layer conv4_34_sum_bn
I0703 18:09:37.787704 35406 net.cpp:106] Creating Layer conv4_34_sum_bn
I0703 18:09:37.787714 35406 net.cpp:454] conv4_34_sum_bn <- conv4_34_sum
I0703 18:09:37.787736 35406 net.cpp:411] conv4_34_sum_bn -> conv4_34_sum_bn
I0703 18:09:37.788076 35406 net.cpp:150] Setting up conv4_34_sum_bn
I0703 18:09:37.788092 35406 net.cpp:157] Top shape: 8 1024 14 14 (1605632)
I0703 18:09:37.788100 35406 net.cpp:165] Memory required for data: 3010574432
I0703 18:09:37.788112 35406 layer_factory.hpp:76] Creating layer conv4_34_sum_relu
I0703 18:09:37.788125 35406 net.cpp:106] Creating Layer conv4_34_sum_relu
I0703 18:09:37.788133 35406 net.cpp:454] conv4_34_sum_relu <- conv4_34_sum_bn
I0703 18:09:37.788143 35406 net.cpp:397] conv4_34_sum_relu -> conv4_34_sum_bn (in-place)
I0703 18:09:37.788637 35406 net.cpp:150] Setting up conv4_34_sum_relu
I0703 18:09:37.788657 35406 net.cpp:157] Top shape: 8 1024 14 14 (1605632)
I0703 18:09:37.788666 35406 net.cpp:165] Memory required for data: 3016996960
I0703 18:09:37.788676 35406 layer_factory.hpp:76] Creating layer conv4_34_sum_bn_conv4_34_sum_relu_0_split
I0703 18:09:37.788691 35406 net.cpp:106] Creating Layer conv4_34_sum_bn_conv4_34_sum_relu_0_split
I0703 18:09:37.788700 35406 net.cpp:454] conv4_34_sum_bn_conv4_34_sum_relu_0_split <- conv4_34_sum_bn
I0703 18:09:37.788712 35406 net.cpp:411] conv4_34_sum_bn_conv4_34_sum_relu_0_split -> conv4_34_sum_bn_conv4_34_sum_relu_0_split_0
I0703 18:09:37.788723 35406 net.cpp:411] conv4_34_sum_bn_conv4_34_sum_relu_0_split -> conv4_34_sum_bn_conv4_34_sum_relu_0_split_1
I0703 18:09:37.788792 35406 net.cpp:150] Setting up conv4_34_sum_bn_conv4_34_sum_relu_0_split
I0703 18:09:37.788808 35406 net.cpp:157] Top shape: 8 1024 14 14 (1605632)
I0703 18:09:37.788818 35406 net.cpp:157] Top shape: 8 1024 14 14 (1605632)
I0703 18:09:37.788826 35406 net.cpp:165] Memory required for data: 3029842016
I0703 18:09:37.788835 35406 layer_factory.hpp:76] Creating layer conv4_35_1
I0703 18:09:37.788849 35406 net.cpp:106] Creating Layer conv4_35_1
I0703 18:09:37.788858 35406 net.cpp:454] conv4_35_1 <- conv4_34_sum_bn_conv4_34_sum_relu_0_split_0
I0703 18:09:37.788872 35406 net.cpp:411] conv4_35_1 -> conv4_35_1
I0703 18:09:37.799029 35406 cudnn_conv_layer.cpp:194] Reallocating workspace storage: 19267584
I0703 18:09:37.799304 35406 net.cpp:150] Setting up conv4_35_1
I0703 18:09:37.799322 35406 net.cpp:157] Top shape: 8 256 14 14 (401408)
I0703 18:09:37.799332 35406 net.cpp:165] Memory required for data: 3031447648
I0703 18:09:37.799355 35406 layer_factory.hpp:76] Creating layer conv4_35_1_bn
I0703 18:09:37.799371 35406 net.cpp:106] Creating Layer conv4_35_1_bn
I0703 18:09:37.799381 35406 net.cpp:454] conv4_35_1_bn <- conv4_35_1
I0703 18:09:37.799396 35406 net.cpp:411] conv4_35_1_bn -> conv4_35_1_bn
I0703 18:09:37.799708 35406 net.cpp:150] Setting up conv4_35_1_bn
I0703 18:09:37.799724 35406 net.cpp:157] Top shape: 8 256 14 14 (401408)
I0703 18:09:37.799733 35406 net.cpp:165] Memory required for data: 3033053280
I0703 18:09:37.799764 35406 layer_factory.hpp:76] Creating layer conv4_35_1_relu
I0703 18:09:37.799777 35406 net.cpp:106] Creating Layer conv4_35_1_relu
I0703 18:09:37.799787 35406 net.cpp:454] conv4_35_1_relu <- conv4_35_1_bn
I0703 18:09:37.799796 35406 net.cpp:397] conv4_35_1_relu -> conv4_35_1_bn (in-place)
I0703 18:09:37.800284 35406 net.cpp:150] Setting up conv4_35_1_relu
I0703 18:09:37.800305 35406 net.cpp:157] Top shape: 8 256 14 14 (401408)
I0703 18:09:37.800314 35406 net.cpp:165] Memory required for data: 3034658912
I0703 18:09:37.800323 35406 layer_factory.hpp:76] Creating layer conv4_35_2
I0703 18:09:37.800339 35406 net.cpp:106] Creating Layer conv4_35_2
I0703 18:09:37.800349 35406 net.cpp:454] conv4_35_2 <- conv4_35_1_bn
I0703 18:09:37.800360 35406 net.cpp:411] conv4_35_2 -> conv4_35_2
I0703 18:09:37.821259 35406 net.cpp:150] Setting up conv4_35_2
I0703 18:09:37.821290 35406 net.cpp:157] Top shape: 8 256 14 14 (401408)
I0703 18:09:37.821300 35406 net.cpp:165] Memory required for data: 3036264544
I0703 18:09:37.821317 35406 layer_factory.hpp:76] Creating layer conv4_35_2_bn
I0703 18:09:37.821333 35406 net.cpp:106] Creating Layer conv4_35_2_bn
I0703 18:09:37.821344 35406 net.cpp:454] conv4_35_2_bn <- conv4_35_2
I0703 18:09:37.821358 35406 net.cpp:411] conv4_35_2_bn -> conv4_35_2_bn
I0703 18:09:37.821676 35406 net.cpp:150] Setting up conv4_35_2_bn
I0703 18:09:37.821691 35406 net.cpp:157] Top shape: 8 256 14 14 (401408)
I0703 18:09:37.821701 35406 net.cpp:165] Memory required for data: 3037870176
I0703 18:09:37.821712 35406 layer_factory.hpp:76] Creating layer conv4_35_2_relu
I0703 18:09:37.821727 35406 net.cpp:106] Creating Layer conv4_35_2_relu
I0703 18:09:37.821735 35406 net.cpp:454] conv4_35_2_relu <- conv4_35_2_bn
I0703 18:09:37.821746 35406 net.cpp:397] conv4_35_2_relu -> conv4_35_2_bn (in-place)
I0703 18:09:37.822005 35406 net.cpp:150] Setting up conv4_35_2_relu
I0703 18:09:37.822022 35406 net.cpp:157] Top shape: 8 256 14 14 (401408)
I0703 18:09:37.822031 35406 net.cpp:165] Memory required for data: 3039475808
I0703 18:09:37.822041 35406 layer_factory.hpp:76] Creating layer conv4_35_3
I0703 18:09:37.822060 35406 net.cpp:106] Creating Layer conv4_35_3
I0703 18:09:37.822069 35406 net.cpp:454] conv4_35_3 <- conv4_35_2_bn
I0703 18:09:37.822082 35406 net.cpp:411] conv4_35_3 -> conv4_35_3
I0703 18:09:37.832164 35406 cudnn_conv_layer.cpp:194] Reallocating workspace storage: 3072
I0703 18:09:37.832263 35406 net.cpp:150] Setting up conv4_35_3
I0703 18:09:37.832280 35406 net.cpp:157] Top shape: 8 1024 14 14 (1605632)
I0703 18:09:37.832296 35406 net.cpp:165] Memory required for data: 3045898336
I0703 18:09:37.832309 35406 layer_factory.hpp:76] Creating layer conv4_35_sum
I0703 18:09:37.832404 35406 net.cpp:106] Creating Layer conv4_35_sum
I0703 18:09:37.832418 35406 net.cpp:454] conv4_35_sum <- conv4_34_sum_bn_conv4_34_sum_relu_0_split_1
I0703 18:09:37.832448 35406 net.cpp:454] conv4_35_sum <- conv4_35_3
I0703 18:09:37.832473 35406 net.cpp:411] conv4_35_sum -> conv4_35_sum
I0703 18:09:37.832523 35406 net.cpp:150] Setting up conv4_35_sum
I0703 18:09:37.832563 35406 net.cpp:157] Top shape: 8 1024 14 14 (1605632)
I0703 18:09:37.832573 35406 net.cpp:165] Memory required for data: 3052320864
I0703 18:09:37.832582 35406 layer_factory.hpp:76] Creating layer conv4_35_sum_bn
I0703 18:09:37.832597 35406 net.cpp:106] Creating Layer conv4_35_sum_bn
I0703 18:09:37.832607 35406 net.cpp:454] conv4_35_sum_bn <- conv4_35_sum
I0703 18:09:37.832619 35406 net.cpp:411] conv4_35_sum_bn -> conv4_35_sum_bn
I0703 18:09:37.832973 35406 net.cpp:150] Setting up conv4_35_sum_bn
I0703 18:09:37.832988 35406 net.cpp:157] Top shape: 8 1024 14 14 (1605632)
I0703 18:09:37.832996 35406 net.cpp:165] Memory required for data: 3058743392
I0703 18:09:37.833009 35406 layer_factory.hpp:76] Creating layer conv4_35_sum_relu
I0703 18:09:37.833020 35406 net.cpp:106] Creating Layer conv4_35_sum_relu
I0703 18:09:37.833029 35406 net.cpp:454] conv4_35_sum_relu <- conv4_35_sum_bn
I0703 18:09:37.833039 35406 net.cpp:397] conv4_35_sum_relu -> conv4_35_sum_bn (in-place)
I0703 18:09:37.833534 35406 net.cpp:150] Setting up conv4_35_sum_relu
I0703 18:09:37.833554 35406 net.cpp:157] Top shape: 8 1024 14 14 (1605632)
I0703 18:09:37.833562 35406 net.cpp:165] Memory required for data: 3065165920
I0703 18:09:37.833573 35406 layer_factory.hpp:76] Creating layer conv4_35_sum_bn_conv4_35_sum_relu_0_split
I0703 18:09:37.833590 35406 net.cpp:106] Creating Layer conv4_35_sum_bn_conv4_35_sum_relu_0_split
I0703 18:09:37.833598 35406 net.cpp:454] conv4_35_sum_bn_conv4_35_sum_relu_0_split <- conv4_35_sum_bn
I0703 18:09:37.833611 35406 net.cpp:411] conv4_35_sum_bn_conv4_35_sum_relu_0_split -> conv4_35_sum_bn_conv4_35_sum_relu_0_split_0
I0703 18:09:37.833623 35406 net.cpp:411] conv4_35_sum_bn_conv4_35_sum_relu_0_split -> conv4_35_sum_bn_conv4_35_sum_relu_0_split_1
I0703 18:09:37.833695 35406 net.cpp:150] Setting up conv4_35_sum_bn_conv4_35_sum_relu_0_split
I0703 18:09:37.833710 35406 net.cpp:157] Top shape: 8 1024 14 14 (1605632)
I0703 18:09:37.833720 35406 net.cpp:157] Top shape: 8 1024 14 14 (1605632)
I0703 18:09:37.833731 35406 net.cpp:165] Memory required for data: 3078010976
I0703 18:09:37.833745 35406 layer_factory.hpp:76] Creating layer conv4_36_1
I0703 18:09:37.833760 35406 net.cpp:106] Creating Layer conv4_36_1
I0703 18:09:37.833768 35406 net.cpp:454] conv4_36_1 <- conv4_35_sum_bn_conv4_35_sum_relu_0_split_0
I0703 18:09:37.833781 35406 net.cpp:411] conv4_36_1 -> conv4_36_1
I0703 18:09:37.843652 35406 cudnn_conv_layer.cpp:194] Reallocating workspace storage: 19267584
I0703 18:09:37.843926 35406 net.cpp:150] Setting up conv4_36_1
I0703 18:09:37.843958 35406 net.cpp:157] Top shape: 8 256 14 14 (401408)
I0703 18:09:37.843967 35406 net.cpp:165] Memory required for data: 3079616608
I0703 18:09:37.843981 35406 layer_factory.hpp:76] Creating layer conv4_36_1_bn
I0703 18:09:37.844007 35406 net.cpp:106] Creating Layer conv4_36_1_bn
I0703 18:09:37.844018 35406 net.cpp:454] conv4_36_1_bn <- conv4_36_1
I0703 18:09:37.844030 35406 net.cpp:411] conv4_36_1_bn -> conv4_36_1_bn
I0703 18:09:37.844352 35406 net.cpp:150] Setting up conv4_36_1_bn
I0703 18:09:37.844368 35406 net.cpp:157] Top shape: 8 256 14 14 (401408)
I0703 18:09:37.844377 35406 net.cpp:165] Memory required for data: 3081222240
I0703 18:09:37.844389 35406 layer_factory.hpp:76] Creating layer conv4_36_1_relu
I0703 18:09:37.844401 35406 net.cpp:106] Creating Layer conv4_36_1_relu
I0703 18:09:37.844410 35406 net.cpp:454] conv4_36_1_relu <- conv4_36_1_bn
I0703 18:09:37.844419 35406 net.cpp:397] conv4_36_1_relu -> conv4_36_1_bn (in-place)
I0703 18:09:37.844928 35406 net.cpp:150] Setting up conv4_36_1_relu
I0703 18:09:37.844949 35406 net.cpp:157] Top shape: 8 256 14 14 (401408)
I0703 18:09:37.844957 35406 net.cpp:165] Memory required for data: 3082827872
I0703 18:09:37.844965 35406 layer_factory.hpp:76] Creating layer conv4_36_2
I0703 18:09:37.844982 35406 net.cpp:106] Creating Layer conv4_36_2
I0703 18:09:37.844992 35406 net.cpp:454] conv4_36_2 <- conv4_36_1_bn
I0703 18:09:37.845003 35406 net.cpp:411] conv4_36_2 -> conv4_36_2
I0703 18:09:37.865614 35406 net.cpp:150] Setting up conv4_36_2
I0703 18:09:37.865648 35406 net.cpp:157] Top shape: 8 256 14 14 (401408)
I0703 18:09:37.865658 35406 net.cpp:165] Memory required for data: 3084433504
I0703 18:09:37.865674 35406 layer_factory.hpp:76] Creating layer conv4_36_2_bn
I0703 18:09:37.865690 35406 net.cpp:106] Creating Layer conv4_36_2_bn
I0703 18:09:37.865702 35406 net.cpp:454] conv4_36_2_bn <- conv4_36_2
I0703 18:09:37.865713 35406 net.cpp:411] conv4_36_2_bn -> conv4_36_2_bn
I0703 18:09:37.866020 35406 net.cpp:150] Setting up conv4_36_2_bn
I0703 18:09:37.866037 35406 net.cpp:157] Top shape: 8 256 14 14 (401408)
I0703 18:09:37.866060 35406 net.cpp:165] Memory required for data: 3086039136
I0703 18:09:37.866075 35406 layer_factory.hpp:76] Creating layer conv4_36_2_relu
I0703 18:09:37.866106 35406 net.cpp:106] Creating Layer conv4_36_2_relu
I0703 18:09:37.866117 35406 net.cpp:454] conv4_36_2_relu <- conv4_36_2_bn
I0703 18:09:37.866129 35406 net.cpp:397] conv4_36_2_relu -> conv4_36_2_bn (in-place)
I0703 18:09:37.866382 35406 net.cpp:150] Setting up conv4_36_2_relu
I0703 18:09:37.866432 35406 net.cpp:157] Top shape: 8 256 14 14 (401408)
I0703 18:09:37.866441 35406 net.cpp:165] Memory required for data: 3087644768
I0703 18:09:37.866451 35406 layer_factory.hpp:76] Creating layer conv4_36_3
I0703 18:09:37.866466 35406 net.cpp:106] Creating Layer conv4_36_3
I0703 18:09:37.866477 35406 net.cpp:454] conv4_36_3 <- conv4_36_2_bn
I0703 18:09:37.866488 35406 net.cpp:411] conv4_36_3 -> conv4_36_3
I0703 18:09:37.876618 35406 cudnn_conv_layer.cpp:194] Reallocating workspace storage: 3072
I0703 18:09:37.876718 35406 net.cpp:150] Setting up conv4_36_3
I0703 18:09:37.876739 35406 net.cpp:157] Top shape: 8 1024 14 14 (1605632)
I0703 18:09:37.876749 35406 net.cpp:165] Memory required for data: 3094067296
I0703 18:09:37.876760 35406 layer_factory.hpp:76] Creating layer conv4_36_sum
I0703 18:09:37.876775 35406 net.cpp:106] Creating Layer conv4_36_sum
I0703 18:09:37.876785 35406 net.cpp:454] conv4_36_sum <- conv4_35_sum_bn_conv4_35_sum_relu_0_split_1
I0703 18:09:37.876796 35406 net.cpp:454] conv4_36_sum <- conv4_36_3
I0703 18:09:37.876807 35406 net.cpp:411] conv4_36_sum -> conv4_36_sum
I0703 18:09:37.876860 35406 net.cpp:150] Setting up conv4_36_sum
I0703 18:09:37.876875 35406 net.cpp:157] Top shape: 8 1024 14 14 (1605632)
I0703 18:09:37.876884 35406 net.cpp:165] Memory required for data: 3100489824
I0703 18:09:37.876893 35406 layer_factory.hpp:76] Creating layer conv4_36_sum_bn
I0703 18:09:37.876909 35406 net.cpp:106] Creating Layer conv4_36_sum_bn
I0703 18:09:37.876919 35406 net.cpp:454] conv4_36_sum_bn <- conv4_36_sum
I0703 18:09:37.876929 35406 net.cpp:411] conv4_36_sum_bn -> conv4_36_sum_bn
I0703 18:09:37.877277 35406 net.cpp:150] Setting up conv4_36_sum_bn
I0703 18:09:37.877293 35406 net.cpp:157] Top shape: 8 1024 14 14 (1605632)
I0703 18:09:37.877301 35406 net.cpp:165] Memory required for data: 3106912352
I0703 18:09:37.877315 35406 layer_factory.hpp:76] Creating layer conv4_36_sum_relu
I0703 18:09:37.877331 35406 net.cpp:106] Creating Layer conv4_36_sum_relu
I0703 18:09:37.877339 35406 net.cpp:454] conv4_36_sum_relu <- conv4_36_sum_bn
I0703 18:09:37.877349 35406 net.cpp:397] conv4_36_sum_relu -> conv4_36_sum_bn (in-place)
I0703 18:09:37.877823 35406 net.cpp:150] Setting up conv4_36_sum_relu
I0703 18:09:37.877843 35406 net.cpp:157] Top shape: 8 1024 14 14 (1605632)
I0703 18:09:37.877852 35406 net.cpp:165] Memory required for data: 3113334880
I0703 18:09:37.877861 35406 layer_factory.hpp:76] Creating layer conv4_36_sum_bn_conv4_36_sum_relu_0_split
I0703 18:09:37.877872 35406 net.cpp:106] Creating Layer conv4_36_sum_bn_conv4_36_sum_relu_0_split
I0703 18:09:37.877882 35406 net.cpp:454] conv4_36_sum_bn_conv4_36_sum_relu_0_split <- conv4_36_sum_bn
I0703 18:09:37.877892 35406 net.cpp:411] conv4_36_sum_bn_conv4_36_sum_relu_0_split -> conv4_36_sum_bn_conv4_36_sum_relu_0_split_0
I0703 18:09:37.877907 35406 net.cpp:411] conv4_36_sum_bn_conv4_36_sum_relu_0_split -> conv4_36_sum_bn_conv4_36_sum_relu_0_split_1
I0703 18:09:37.877979 35406 net.cpp:150] Setting up conv4_36_sum_bn_conv4_36_sum_relu_0_split
I0703 18:09:37.877993 35406 net.cpp:157] Top shape: 8 1024 14 14 (1605632)
I0703 18:09:37.878003 35406 net.cpp:157] Top shape: 8 1024 14 14 (1605632)
I0703 18:09:37.878015 35406 net.cpp:165] Memory required for data: 3126179936
I0703 18:09:37.878022 35406 layer_factory.hpp:76] Creating layer conv4_output
I0703 18:09:37.878038 35406 net.cpp:106] Creating Layer conv4_output
I0703 18:09:37.878049 35406 net.cpp:454] conv4_output <- conv4_36_sum_bn_conv4_36_sum_relu_0_split_0
I0703 18:09:37.878062 35406 net.cpp:411] conv4_output -> conv4_output
I0703 18:09:37.947438 35406 cudnn_conv_layer.cpp:194] Reallocating workspace storage: 12288
I0703 18:09:37.947569 35406 net.cpp:150] Setting up conv4_output
I0703 18:09:37.947590 35406 net.cpp:157] Top shape: 8 2048 7 7 (802816)
I0703 18:09:37.947600 35406 net.cpp:165] Memory required for data: 3129391200
I0703 18:09:37.947614 35406 layer_factory.hpp:76] Creating layer conv5_1_1
I0703 18:09:37.947638 35406 net.cpp:106] Creating Layer conv5_1_1
I0703 18:09:37.947679 35406 net.cpp:454] conv5_1_1 <- conv4_36_sum_bn_conv4_36_sum_relu_0_split_1
I0703 18:09:37.947697 35406 net.cpp:411] conv5_1_1 -> conv5_1_1
I0703 18:09:37.966439 35406 cudnn_conv_layer.cpp:194] Reallocating workspace storage: 12288
I0703 18:09:37.966536 35406 net.cpp:150] Setting up conv5_1_1
I0703 18:09:37.966554 35406 net.cpp:157] Top shape: 8 512 7 7 (200704)
I0703 18:09:37.966567 35406 net.cpp:165] Memory required for data: 3130194016
I0703 18:09:37.966583 35406 layer_factory.hpp:76] Creating layer conv5_1_1_bn
I0703 18:09:37.966599 35406 net.cpp:106] Creating Layer conv5_1_1_bn
I0703 18:09:37.966614 35406 net.cpp:454] conv5_1_1_bn <- conv5_1_1
I0703 18:09:37.966625 35406 net.cpp:411] conv5_1_1_bn -> conv5_1_1_bn
I0703 18:09:37.966974 35406 net.cpp:150] Setting up conv5_1_1_bn
I0703 18:09:37.966989 35406 net.cpp:157] Top shape: 8 512 7 7 (200704)
I0703 18:09:37.966998 35406 net.cpp:165] Memory required for data: 3130996832
I0703 18:09:37.967010 35406 layer_factory.hpp:76] Creating layer conv5_1_1_relu
I0703 18:09:37.967025 35406 net.cpp:106] Creating Layer conv5_1_1_relu
I0703 18:09:37.967034 35406 net.cpp:454] conv5_1_1_relu <- conv5_1_1_bn
I0703 18:09:37.967043 35406 net.cpp:397] conv5_1_1_relu -> conv5_1_1_bn (in-place)
I0703 18:09:37.967521 35406 net.cpp:150] Setting up conv5_1_1_relu
I0703 18:09:37.967541 35406 net.cpp:157] Top shape: 8 512 7 7 (200704)
I0703 18:09:37.967550 35406 net.cpp:165] Memory required for data: 3131799648
I0703 18:09:37.967559 35406 layer_factory.hpp:76] Creating layer conv5_1_2
I0703 18:09:37.967576 35406 net.cpp:106] Creating Layer conv5_1_2
I0703 18:09:37.967586 35406 net.cpp:454] conv5_1_2 <- conv5_1_1_bn
I0703 18:09:37.967598 35406 net.cpp:411] conv5_1_2 -> conv5_1_2
I0703 18:09:38.045881 35406 cudnn_conv_layer.cpp:194] Reallocating workspace storage: 55296
I0703 18:09:38.045928 35406 net.cpp:150] Setting up conv5_1_2
I0703 18:09:38.045944 35406 net.cpp:157] Top shape: 8 512 7 7 (200704)
I0703 18:09:38.045955 35406 net.cpp:165] Memory required for data: 3132602464
I0703 18:09:38.045972 35406 layer_factory.hpp:76] Creating layer conv5_1_2_bn
I0703 18:09:38.045991 35406 net.cpp:106] Creating Layer conv5_1_2_bn
I0703 18:09:38.046003 35406 net.cpp:454] conv5_1_2_bn <- conv5_1_2
I0703 18:09:38.046016 35406 net.cpp:411] conv5_1_2_bn -> conv5_1_2_bn
I0703 18:09:38.046365 35406 net.cpp:150] Setting up conv5_1_2_bn
I0703 18:09:38.046380 35406 net.cpp:157] Top shape: 8 512 7 7 (200704)
I0703 18:09:38.046389 35406 net.cpp:165] Memory required for data: 3133405280
I0703 18:09:38.046403 35406 layer_factory.hpp:76] Creating layer conv5_1_2_relu
I0703 18:09:38.046417 35406 net.cpp:106] Creating Layer conv5_1_2_relu
I0703 18:09:38.046427 35406 net.cpp:454] conv5_1_2_relu <- conv5_1_2_bn
I0703 18:09:38.046437 35406 net.cpp:397] conv5_1_2_relu -> conv5_1_2_bn (in-place)
I0703 18:09:38.046912 35406 net.cpp:150] Setting up conv5_1_2_relu
I0703 18:09:38.046932 35406 net.cpp:157] Top shape: 8 512 7 7 (200704)
I0703 18:09:38.046941 35406 net.cpp:165] Memory required for data: 3134208096
I0703 18:09:38.046950 35406 layer_factory.hpp:76] Creating layer conv5_1_3
I0703 18:09:38.046967 35406 net.cpp:106] Creating Layer conv5_1_3
I0703 18:09:38.046977 35406 net.cpp:454] conv5_1_3 <- conv5_1_2_bn
I0703 18:09:38.046990 35406 net.cpp:411] conv5_1_3 -> conv5_1_3
I0703 18:09:38.082587 35406 cudnn_conv_layer.cpp:194] Reallocating workspace storage: 6144
I0703 18:09:38.082697 35406 net.cpp:150] Setting up conv5_1_3
I0703 18:09:38.082720 35406 net.cpp:157] Top shape: 8 2048 7 7 (802816)
I0703 18:09:38.082729 35406 net.cpp:165] Memory required for data: 3137419360
I0703 18:09:38.082751 35406 layer_factory.hpp:76] Creating layer conv5_1_sum
I0703 18:09:38.082778 35406 net.cpp:106] Creating Layer conv5_1_sum
I0703 18:09:38.082795 35406 net.cpp:454] conv5_1_sum <- conv4_output
I0703 18:09:38.082808 35406 net.cpp:454] conv5_1_sum <- conv5_1_3
I0703 18:09:38.082821 35406 net.cpp:411] conv5_1_sum -> conv5_1_sum
I0703 18:09:38.082880 35406 net.cpp:150] Setting up conv5_1_sum
I0703 18:09:38.082917 35406 net.cpp:157] Top shape: 8 2048 7 7 (802816)
I0703 18:09:38.082926 35406 net.cpp:165] Memory required for data: 3140630624
I0703 18:09:38.082937 35406 layer_factory.hpp:76] Creating layer conv5_1_sum_bn
I0703 18:09:38.082967 35406 net.cpp:106] Creating Layer conv5_1_sum_bn
I0703 18:09:38.082978 35406 net.cpp:454] conv5_1_sum_bn <- conv5_1_sum
I0703 18:09:38.082989 35406 net.cpp:411] conv5_1_sum_bn -> conv5_1_sum_bn
I0703 18:09:38.083467 35406 net.cpp:150] Setting up conv5_1_sum_bn
I0703 18:09:38.083484 35406 net.cpp:157] Top shape: 8 2048 7 7 (802816)
I0703 18:09:38.083492 35406 net.cpp:165] Memory required for data: 3143841888
I0703 18:09:38.083505 35406 layer_factory.hpp:76] Creating layer conv5_1_sum_relu
I0703 18:09:38.083523 35406 net.cpp:106] Creating Layer conv5_1_sum_relu
I0703 18:09:38.083534 35406 net.cpp:454] conv5_1_sum_relu <- conv5_1_sum_bn
I0703 18:09:38.083544 35406 net.cpp:397] conv5_1_sum_relu -> conv5_1_sum_bn (in-place)
I0703 18:09:38.083809 35406 net.cpp:150] Setting up conv5_1_sum_relu
I0703 18:09:38.083827 35406 net.cpp:157] Top shape: 8 2048 7 7 (802816)
I0703 18:09:38.083835 35406 net.cpp:165] Memory required for data: 3147053152
I0703 18:09:38.083844 35406 layer_factory.hpp:76] Creating layer conv5_1_sum_bn_conv5_1_sum_relu_0_split
I0703 18:09:38.083856 35406 net.cpp:106] Creating Layer conv5_1_sum_bn_conv5_1_sum_relu_0_split
I0703 18:09:38.083865 35406 net.cpp:454] conv5_1_sum_bn_conv5_1_sum_relu_0_split <- conv5_1_sum_bn
I0703 18:09:38.083878 35406 net.cpp:411] conv5_1_sum_bn_conv5_1_sum_relu_0_split -> conv5_1_sum_bn_conv5_1_sum_relu_0_split_0
I0703 18:09:38.083889 35406 net.cpp:411] conv5_1_sum_bn_conv5_1_sum_relu_0_split -> conv5_1_sum_bn_conv5_1_sum_relu_0_split_1
I0703 18:09:38.083964 35406 net.cpp:150] Setting up conv5_1_sum_bn_conv5_1_sum_relu_0_split
I0703 18:09:38.083979 35406 net.cpp:157] Top shape: 8 2048 7 7 (802816)
I0703 18:09:38.083989 35406 net.cpp:157] Top shape: 8 2048 7 7 (802816)
I0703 18:09:38.084000 35406 net.cpp:165] Memory required for data: 3153475680
I0703 18:09:38.084010 35406 layer_factory.hpp:76] Creating layer conv5_2_1
I0703 18:09:38.084028 35406 net.cpp:106] Creating Layer conv5_2_1
I0703 18:09:38.084041 35406 net.cpp:454] conv5_2_1 <- conv5_1_sum_bn_conv5_1_sum_relu_0_split_0
I0703 18:09:38.084053 35406 net.cpp:411] conv5_2_1 -> conv5_2_1
I0703 18:09:38.119751 35406 cudnn_conv_layer.cpp:194] Reallocating workspace storage: 24576
I0703 18:09:38.119797 35406 net.cpp:150] Setting up conv5_2_1
I0703 18:09:38.119813 35406 net.cpp:157] Top shape: 8 512 7 7 (200704)
I0703 18:09:38.119822 35406 net.cpp:165] Memory required for data: 3154278496
I0703 18:09:38.119842 35406 layer_factory.hpp:76] Creating layer conv5_2_1_bn
I0703 18:09:38.119859 35406 net.cpp:106] Creating Layer conv5_2_1_bn
I0703 18:09:38.119870 35406 net.cpp:454] conv5_2_1_bn <- conv5_2_1
I0703 18:09:38.119882 35406 net.cpp:411] conv5_2_1_bn -> conv5_2_1_bn
I0703 18:09:38.120237 35406 net.cpp:150] Setting up conv5_2_1_bn
I0703 18:09:38.120254 35406 net.cpp:157] Top shape: 8 512 7 7 (200704)
I0703 18:09:38.120262 35406 net.cpp:165] Memory required for data: 3155081312
I0703 18:09:38.120275 35406 layer_factory.hpp:76] Creating layer conv5_2_1_relu
I0703 18:09:38.120287 35406 net.cpp:106] Creating Layer conv5_2_1_relu
I0703 18:09:38.120297 35406 net.cpp:454] conv5_2_1_relu <- conv5_2_1_bn
I0703 18:09:38.120308 35406 net.cpp:397] conv5_2_1_relu -> conv5_2_1_bn (in-place)
I0703 18:09:38.120792 35406 net.cpp:150] Setting up conv5_2_1_relu
I0703 18:09:38.120813 35406 net.cpp:157] Top shape: 8 512 7 7 (200704)
I0703 18:09:38.120822 35406 net.cpp:165] Memory required for data: 3155884128
I0703 18:09:38.120831 35406 layer_factory.hpp:76] Creating layer conv5_2_2
I0703 18:09:38.120847 35406 net.cpp:106] Creating Layer conv5_2_2
I0703 18:09:38.120857 35406 net.cpp:454] conv5_2_2 <- conv5_2_1_bn
I0703 18:09:38.120873 35406 net.cpp:411] conv5_2_2 -> conv5_2_2
I0703 18:09:38.198753 35406 cudnn_conv_layer.cpp:194] Reallocating workspace storage: 55296
I0703 18:09:38.198799 35406 net.cpp:150] Setting up conv5_2_2
I0703 18:09:38.198843 35406 net.cpp:157] Top shape: 8 512 7 7 (200704)
I0703 18:09:38.198853 35406 net.cpp:165] Memory required for data: 3156686944
I0703 18:09:38.198868 35406 layer_factory.hpp:76] Creating layer conv5_2_2_bn
I0703 18:09:38.198891 35406 net.cpp:106] Creating Layer conv5_2_2_bn
I0703 18:09:38.198904 35406 net.cpp:454] conv5_2_2_bn <- conv5_2_2
I0703 18:09:38.198917 35406 net.cpp:411] conv5_2_2_bn -> conv5_2_2_bn
I0703 18:09:38.199275 35406 net.cpp:150] Setting up conv5_2_2_bn
I0703 18:09:38.199291 35406 net.cpp:157] Top shape: 8 512 7 7 (200704)
I0703 18:09:38.199301 35406 net.cpp:165] Memory required for data: 3157489760
I0703 18:09:38.199312 35406 layer_factory.hpp:76] Creating layer conv5_2_2_relu
I0703 18:09:38.199328 35406 net.cpp:106] Creating Layer conv5_2_2_relu
I0703 18:09:38.199338 35406 net.cpp:454] conv5_2_2_relu <- conv5_2_2_bn
I0703 18:09:38.199347 35406 net.cpp:397] conv5_2_2_relu -> conv5_2_2_bn (in-place)
I0703 18:09:38.199825 35406 net.cpp:150] Setting up conv5_2_2_relu
I0703 18:09:38.199846 35406 net.cpp:157] Top shape: 8 512 7 7 (200704)
I0703 18:09:38.199856 35406 net.cpp:165] Memory required for data: 3158292576
I0703 18:09:38.199864 35406 layer_factory.hpp:76] Creating layer conv5_2_3
I0703 18:09:38.199883 35406 net.cpp:106] Creating Layer conv5_2_3
I0703 18:09:38.199892 35406 net.cpp:454] conv5_2_3 <- conv5_2_2_bn
I0703 18:09:38.199908 35406 net.cpp:411] conv5_2_3 -> conv5_2_3
I0703 18:09:38.235904 35406 cudnn_conv_layer.cpp:194] Reallocating workspace storage: 6144
I0703 18:09:38.236017 35406 net.cpp:150] Setting up conv5_2_3
I0703 18:09:38.236049 35406 net.cpp:157] Top shape: 8 2048 7 7 (802816)
I0703 18:09:38.236059 35406 net.cpp:165] Memory required for data: 3161503840
I0703 18:09:38.236074 35406 layer_factory.hpp:76] Creating layer conv5_2_sum
I0703 18:09:38.236094 35406 net.cpp:106] Creating Layer conv5_2_sum
I0703 18:09:38.236107 35406 net.cpp:454] conv5_2_sum <- conv5_1_sum_bn_conv5_1_sum_relu_0_split_1
I0703 18:09:38.236119 35406 net.cpp:454] conv5_2_sum <- conv5_2_3
I0703 18:09:38.236130 35406 net.cpp:411] conv5_2_sum -> conv5_2_sum
I0703 18:09:38.236188 35406 net.cpp:150] Setting up conv5_2_sum
I0703 18:09:38.236213 35406 net.cpp:157] Top shape: 8 2048 7 7 (802816)
I0703 18:09:38.236223 35406 net.cpp:165] Memory required for data: 3164715104
I0703 18:09:38.236232 35406 layer_factory.hpp:76] Creating layer conv5_2_sum_bn
I0703 18:09:38.236251 35406 net.cpp:106] Creating Layer conv5_2_sum_bn
I0703 18:09:38.236260 35406 net.cpp:454] conv5_2_sum_bn <- conv5_2_sum
I0703 18:09:38.236270 35406 net.cpp:411] conv5_2_sum_bn -> conv5_2_sum_bn
I0703 18:09:38.236773 35406 net.cpp:150] Setting up conv5_2_sum_bn
I0703 18:09:38.236795 35406 net.cpp:157] Top shape: 8 2048 7 7 (802816)
I0703 18:09:38.236804 35406 net.cpp:165] Memory required for data: 3167926368
I0703 18:09:38.236816 35406 layer_factory.hpp:76] Creating layer conv5_2_sum_relu
I0703 18:09:38.236835 35406 net.cpp:106] Creating Layer conv5_2_sum_relu
I0703 18:09:38.236845 35406 net.cpp:454] conv5_2_sum_relu <- conv5_2_sum_bn
I0703 18:09:38.236853 35406 net.cpp:397] conv5_2_sum_relu -> conv5_2_sum_bn (in-place)
I0703 18:09:38.237124 35406 net.cpp:150] Setting up conv5_2_sum_relu
I0703 18:09:38.237143 35406 net.cpp:157] Top shape: 8 2048 7 7 (802816)
I0703 18:09:38.237151 35406 net.cpp:165] Memory required for data: 3171137632
I0703 18:09:38.237160 35406 layer_factory.hpp:76] Creating layer conv5_2_sum_bn_conv5_2_sum_relu_0_split
I0703 18:09:38.237171 35406 net.cpp:106] Creating Layer conv5_2_sum_bn_conv5_2_sum_relu_0_split
I0703 18:09:38.237180 35406 net.cpp:454] conv5_2_sum_bn_conv5_2_sum_relu_0_split <- conv5_2_sum_bn
I0703 18:09:38.237192 35406 net.cpp:411] conv5_2_sum_bn_conv5_2_sum_relu_0_split -> conv5_2_sum_bn_conv5_2_sum_relu_0_split_0
I0703 18:09:38.237206 35406 net.cpp:411] conv5_2_sum_bn_conv5_2_sum_relu_0_split -> conv5_2_sum_bn_conv5_2_sum_relu_0_split_1
I0703 18:09:38.237282 35406 net.cpp:150] Setting up conv5_2_sum_bn_conv5_2_sum_relu_0_split
I0703 18:09:38.237295 35406 net.cpp:157] Top shape: 8 2048 7 7 (802816)
I0703 18:09:38.237336 35406 net.cpp:157] Top shape: 8 2048 7 7 (802816)
I0703 18:09:38.237344 35406 net.cpp:165] Memory required for data: 3177560160
I0703 18:09:38.237354 35406 layer_factory.hpp:76] Creating layer conv5_3_1
I0703 18:09:38.237372 35406 net.cpp:106] Creating Layer conv5_3_1
I0703 18:09:38.237381 35406 net.cpp:454] conv5_3_1 <- conv5_2_sum_bn_conv5_2_sum_relu_0_split_0
I0703 18:09:38.237392 35406 net.cpp:411] conv5_3_1 -> conv5_3_1
I0703 18:09:38.272941 35406 cudnn_conv_layer.cpp:194] Reallocating workspace storage: 24576
I0703 18:09:38.272990 35406 net.cpp:150] Setting up conv5_3_1
I0703 18:09:38.273005 35406 net.cpp:157] Top shape: 8 512 7 7 (200704)
I0703 18:09:38.273016 35406 net.cpp:165] Memory required for data: 3178362976
I0703 18:09:38.273030 35406 layer_factory.hpp:76] Creating layer conv5_3_1_bn
I0703 18:09:38.273048 35406 net.cpp:106] Creating Layer conv5_3_1_bn
I0703 18:09:38.273061 35406 net.cpp:454] conv5_3_1_bn <- conv5_3_1
I0703 18:09:38.273072 35406 net.cpp:411] conv5_3_1_bn -> conv5_3_1_bn
I0703 18:09:38.273447 35406 net.cpp:150] Setting up conv5_3_1_bn
I0703 18:09:38.273463 35406 net.cpp:157] Top shape: 8 512 7 7 (200704)
I0703 18:09:38.273471 35406 net.cpp:165] Memory required for data: 3179165792
I0703 18:09:38.273483 35406 layer_factory.hpp:76] Creating layer conv5_3_1_relu
I0703 18:09:38.273500 35406 net.cpp:106] Creating Layer conv5_3_1_relu
I0703 18:09:38.273510 35406 net.cpp:454] conv5_3_1_relu <- conv5_3_1_bn
I0703 18:09:38.273520 35406 net.cpp:397] conv5_3_1_relu -> conv5_3_1_bn (in-place)
I0703 18:09:38.274003 35406 net.cpp:150] Setting up conv5_3_1_relu
I0703 18:09:38.274024 35406 net.cpp:157] Top shape: 8 512 7 7 (200704)
I0703 18:09:38.274032 35406 net.cpp:165] Memory required for data: 3179968608
I0703 18:09:38.274042 35406 layer_factory.hpp:76] Creating layer conv5_3_2
I0703 18:09:38.274062 35406 net.cpp:106] Creating Layer conv5_3_2
I0703 18:09:38.274072 35406 net.cpp:454] conv5_3_2 <- conv5_3_1_bn
I0703 18:09:38.274083 35406 net.cpp:411] conv5_3_2 -> conv5_3_2
I0703 18:09:38.351812 35406 cudnn_conv_layer.cpp:194] Reallocating workspace storage: 55296
I0703 18:09:38.352125 35406 net.cpp:150] Setting up conv5_3_2
I0703 18:09:38.352149 35406 net.cpp:157] Top shape: 8 512 7 7 (200704)
I0703 18:09:38.352169 35406 net.cpp:165] Memory required for data: 3180771424
I0703 18:09:38.352191 35406 layer_factory.hpp:76] Creating layer conv5_3_2_bn
I0703 18:09:38.352211 35406 net.cpp:106] Creating Layer conv5_3_2_bn
I0703 18:09:38.352223 35406 net.cpp:454] conv5_3_2_bn <- conv5_3_2
I0703 18:09:38.352236 35406 net.cpp:411] conv5_3_2_bn -> conv5_3_2_bn
I0703 18:09:38.352614 35406 net.cpp:150] Setting up conv5_3_2_bn
I0703 18:09:38.352632 35406 net.cpp:157] Top shape: 8 512 7 7 (200704)
I0703 18:09:38.352639 35406 net.cpp:165] Memory required for data: 3181574240
I0703 18:09:38.352653 35406 layer_factory.hpp:76] Creating layer conv5_3_2_relu
I0703 18:09:38.352669 35406 net.cpp:106] Creating Layer conv5_3_2_relu
I0703 18:09:38.352677 35406 net.cpp:454] conv5_3_2_relu <- conv5_3_2_bn
I0703 18:09:38.352687 35406 net.cpp:397] conv5_3_2_relu -> conv5_3_2_bn (in-place)
I0703 18:09:38.353164 35406 net.cpp:150] Setting up conv5_3_2_relu
I0703 18:09:38.353185 35406 net.cpp:157] Top shape: 8 512 7 7 (200704)
I0703 18:09:38.353194 35406 net.cpp:165] Memory required for data: 3182377056
I0703 18:09:38.353202 35406 layer_factory.hpp:76] Creating layer conv5_3_3
I0703 18:09:38.353220 35406 net.cpp:106] Creating Layer conv5_3_3
I0703 18:09:38.353230 35406 net.cpp:454] conv5_3_3 <- conv5_3_2_bn
I0703 18:09:38.353243 35406 net.cpp:411] conv5_3_3 -> conv5_3_3
I0703 18:09:38.388988 35406 cudnn_conv_layer.cpp:194] Reallocating workspace storage: 6144
I0703 18:09:38.389102 35406 net.cpp:150] Setting up conv5_3_3
I0703 18:09:38.389127 35406 net.cpp:157] Top shape: 8 2048 7 7 (802816)
I0703 18:09:38.389137 35406 net.cpp:165] Memory required for data: 3185588320
I0703 18:09:38.389150 35406 layer_factory.hpp:76] Creating layer conv5_3_sum
I0703 18:09:38.389168 35406 net.cpp:106] Creating Layer conv5_3_sum
I0703 18:09:38.389201 35406 net.cpp:454] conv5_3_sum <- conv5_2_sum_bn_conv5_2_sum_relu_0_split_1
I0703 18:09:38.389215 35406 net.cpp:454] conv5_3_sum <- conv5_3_3
I0703 18:09:38.389230 35406 net.cpp:411] conv5_3_sum -> conv5_3_sum
I0703 18:09:38.389286 35406 net.cpp:150] Setting up conv5_3_sum
I0703 18:09:38.389309 35406 net.cpp:157] Top shape: 8 2048 7 7 (802816)
I0703 18:09:38.389319 35406 net.cpp:165] Memory required for data: 3188799584
I0703 18:09:38.389328 35406 layer_factory.hpp:76] Creating layer conv5_3_sum_bn
I0703 18:09:38.389343 35406 net.cpp:106] Creating Layer conv5_3_sum_bn
I0703 18:09:38.389353 35406 net.cpp:454] conv5_3_sum_bn <- conv5_3_sum
I0703 18:09:38.389365 35406 net.cpp:411] conv5_3_sum_bn -> conv5_3_sum_bn
I0703 18:09:38.390427 35406 net.cpp:150] Setting up conv5_3_sum_bn
I0703 18:09:38.390447 35406 net.cpp:157] Top shape: 8 2048 7 7 (802816)
I0703 18:09:38.390456 35406 net.cpp:165] Memory required for data: 3192010848
I0703 18:09:38.390470 35406 layer_factory.hpp:76] Creating layer conv5_3_sum_relu
I0703 18:09:38.390486 35406 net.cpp:106] Creating Layer conv5_3_sum_relu
I0703 18:09:38.390494 35406 net.cpp:454] conv5_3_sum_relu <- conv5_3_sum_bn
I0703 18:09:38.390506 35406 net.cpp:397] conv5_3_sum_relu -> conv5_3_sum_bn (in-place)
I0703 18:09:38.390780 35406 net.cpp:150] Setting up conv5_3_sum_relu
I0703 18:09:38.390799 35406 net.cpp:157] Top shape: 8 2048 7 7 (802816)
I0703 18:09:38.390808 35406 net.cpp:165] Memory required for data: 3195222112
I0703 18:09:38.390816 35406 layer_factory.hpp:76] Creating layer pool2
I0703 18:09:38.390828 35406 net.cpp:106] Creating Layer pool2
I0703 18:09:38.390837 35406 net.cpp:454] pool2 <- conv5_3_sum_bn
I0703 18:09:38.390851 35406 net.cpp:411] pool2 -> pool2
I0703 18:09:38.391357 35406 net.cpp:150] Setting up pool2
I0703 18:09:38.391378 35406 net.cpp:157] Top shape: 8 2048 1 1 (16384)
I0703 18:09:38.391387 35406 net.cpp:165] Memory required for data: 3195287648
I0703 18:09:38.391399 35406 layer_factory.hpp:76] Creating layer fc
I0703 18:09:38.391414 35406 net.cpp:106] Creating Layer fc
I0703 18:09:38.391423 35406 net.cpp:454] fc <- pool2
I0703 18:09:38.391439 35406 net.cpp:411] fc -> fc
I0703 18:09:38.391787 35406 net.cpp:150] Setting up fc
I0703 18:09:38.391803 35406 net.cpp:157] Top shape: 8 2 (16)
I0703 18:09:38.391813 35406 net.cpp:165] Memory required for data: 3195287712
I0703 18:09:38.391824 35406 layer_factory.hpp:76] Creating layer fc_fc_0_split
I0703 18:09:38.391836 35406 net.cpp:106] Creating Layer fc_fc_0_split
I0703 18:09:38.391845 35406 net.cpp:454] fc_fc_0_split <- fc
I0703 18:09:38.391858 35406 net.cpp:411] fc_fc_0_split -> fc_fc_0_split_0
I0703 18:09:38.391870 35406 net.cpp:411] fc_fc_0_split -> fc_fc_0_split_1
I0703 18:09:38.391914 35406 net.cpp:150] Setting up fc_fc_0_split
I0703 18:09:38.391927 35406 net.cpp:157] Top shape: 8 2 (16)
I0703 18:09:38.391937 35406 net.cpp:157] Top shape: 8 2 (16)
I0703 18:09:38.391944 35406 net.cpp:165] Memory required for data: 3195287840
I0703 18:09:38.391953 35406 layer_factory.hpp:76] Creating layer loss
I0703 18:09:38.391966 35406 net.cpp:106] Creating Layer loss
I0703 18:09:38.391974 35406 net.cpp:454] loss <- fc_fc_0_split_0
I0703 18:09:38.391983 35406 net.cpp:454] loss <- label_data_1_split_0
I0703 18:09:38.391996 35406 net.cpp:411] loss -> loss
…
