…
I0703 18:05:29.929623 35376 net.cpp:322] The NetState phase (0) differed from the phase (1) specified by a rule in layer acc/top-1
I0703 18:05:29.931967 35376 net.cpp:49] Initializing net from parameters: 
name: "ResNet-20"
state {
  phase: TRAIN
}
layer {
  name: "data"
  type: "ImageData"
  top: "data"
  top: "label"
  include {
    phase: TRAIN
  }
  transform_param {
    mirror: true
    crop_size: 224
    mean_value: 104
    mean_value: 117
    mean_value: 123
  }
  image_data_param {
    source: "../lists/roi-train.lst"
    batch_size: 32
    shuffle: true
    new_height: 256
    new_width: 256
  }
}
layer {
  name: "conv1"
  type: "Convolution"
  bottom: "data"
  top: "conv1"
  param {
    lr_mult: 1
    decay_mult: 1
  }
  param {
    lr_mult: 2
    decay_mult: 0
  }
  convolution_param {
    num_output: 64
    pad: 0
    kernel_size: 7
    stride: 2
    weight_filler {
      type: "msra"
    }
    bias_filler {
      type: "constant"
      value: 0
    }
  }
}
layer {
  name: "conv1_bn"
  type: "BatchNorm"
  bottom: "conv1"
  top: "conv1_bn"
  param {
    lr_mult: 0
  }
  param {
    lr_mult: 0
  }
  param {
    lr_mult: 0
  }
}
layer {
  name: "conv1_relu"
  type: "ReLU"
  bottom: "conv1_bn"
  top: "conv1_bn"
}
layer {
  name: "pool1"
  type: "Pooling"
  bottom: "conv1_bn"
  top: "pool1"
  pooling_param {
    pool: MAX
    kernel_size: 3
    stride: 2
  }
}
layer {
  name: "conv1_output"
  type: "Convolution"
  bottom: "pool1"
  top: "conv1_output"
  param {
    lr_mult: 1
    decay_mult: 1
  }
  param {
    lr_mult: 2
    decay_mult: 0
  }
  convolution_param {
    num_output: 256
    pad: 0
    kernel_size: 1
    stride: 1
    weight_filler {
      type: "msra"
    }
    bias_filler {
      type: "constant"
      value: 0
    }
  }
}
layer {
  name: "conv2_1_1"
  type: "Convolution"
  bottom: "pool1"
  top: "conv2_1_1"
  param {
    lr_mult: 1
    decay_mult: 1
  }
  param {
    lr_mult: 2
    decay_mult: 0
  }
  convolution_param {
    num_output: 64
    pad: 0
    kernel_size: 1
    stride: 1
    weight_filler {
      type: "msra"
    }
    bias_filler {
      type: "constant"
      value: 0
    }
  }
}
layer {
  name: "conv2_1_1_bn"
  type: "BatchNorm"
  bottom: "conv2_1_1"
  top: "conv2_1_1_bn"
  param {
    lr_mult: 0
  }
  param {
    lr_mult: 0
  }
  param {
    lr_mult: 0
  }
}
layer {
  name: "conv2_1_1_relu"
  type: "ReLU"
  bottom: "conv2_1_1_bn"
  top: "conv2_1_1_bn"
}
layer {
  name: "conv2_1_2"
  type: "Convolution"
  bottom: "conv2_1_1_bn"
  top: "conv2_1_2"
  param {
    lr_mult: 1
    decay_mult: 1
  }
  param {
    lr_mult: 2
    decay_mult: 0
  }
  convolution_param {
    num_output: 64
    pad: 1
    kernel_size: 3
    stride: 1
    weight_filler {
      type: "msra"
    }
    bias_filler {
      type: "constant"
      value: 0
    }
  }
}
layer {
  name: "conv2_1_2_bn"
  type: "BatchNorm"
  bottom: "conv2_1_2"
  top: "conv2_1_2_bn"
  param {
    lr_mult: 0
  }
  param {
    lr_mult: 0
  }
  param {
    lr_mult: 0
  }
}
layer {
  name: "conv2_1_2_relu"
  type: "ReLU"
  bottom: "conv2_1_2_bn"
  top: "conv2_1_2_bn"
}
layer {
  name: "conv2_1_3"
  type: "Convolution"
  bottom: "conv2_1_2_bn"
  top: "conv2_1_3"
  param {
    lr_mult: 1
    decay_mult: 1
  }
  param {
    lr_mult: 2
    decay_mult: 0
  }
  convolution_param {
    num_output: 256
    pad: 0
    kernel_size: 1
    stride: 1
    weight_filler {
      type: "msra"
    }
    bias_filler {
      type: "constant"
      value: 0
    }
  }
}
layer {
  name: "conv2_1_sum"
  type: "Eltwise"
  bottom: "conv1_output"
  bottom: "conv2_1_3"
  top: "conv2_1_sum"
  eltwise_param {
    operation: SUM
  }
}
layer {
  name: "conv2_1_sum_bn"
  type: "BatchNorm"
  bottom: "conv2_1_sum"
  top: "conv2_1_sum_bn"
  param {
    lr_mult: 0
  }
  param {
    lr_mult: 0
  }
  param {
    lr_mult: 0
  }
}
layer {
  name: "conv2_1_sum_relu"
  type: "ReLU"
  bottom: "conv2_1_sum_bn"
  top: "conv2_1_sum_bn"
}
layer {
  name: "conv2_2_1"
  type: "Convolution"
  bottom: "conv2_1_sum_bn"
  top: "conv2_2_1"
  param {
    lr_mult: 1
    decay_mult: 1
  }
  param {
    lr_mult: 2
    decay_mult: 0
  }
  convolution_param {
    num_output: 64
    pad: 0
    kernel_size: 1
    stride: 1
    weight_filler {
      type: "msra"
    }
    bias_filler {
      type: "constant"
      value: 0
    }
  }
}
layer {
  name: "conv2_2_1_bn"
  type: "BatchNorm"
  bottom: "conv2_2_1"
  top: "conv2_2_1_bn"
  param {
    lr_mult: 0
  }
  param {
    lr_mult: 0
  }
  param {
    lr_mult: 0
  }
}
layer {
  name: "conv2_2_1_relu"
  type: "ReLU"
  bottom: "conv2_2_1_bn"
  top: "conv2_2_1_bn"
}
layer {
  name: "conv2_2_2"
  type: "Convolution"
  bottom: "conv2_2_1_bn"
  top: "conv2_2_2"
  param {
    lr_mult: 1
    decay_mult: 1
  }
  param {
    lr_mult: 2
    decay_mult: 0
  }
  convolution_param {
    num_output: 64
    pad: 1
    kernel_size: 3
    stride: 1
    weight_filler {
      type: "msra"
    }
    bias_filler {
      type: "constant"
      value: 0
    }
  }
}
layer {
  name: "conv2_2_2_bn"
  type: "BatchNorm"
  bottom: "conv2_2_2"
  top: "conv2_2_2_bn"
  param {
    lr_mult: 0
  }
  param {
    lr_mult: 0
  }
  param {
    lr_mult: 0
  }
}
layer {
  name: "conv2_2_2_relu"
  type: "ReLU"
  bottom: "conv2_2_2_bn"
  top: "conv2_2_2_bn"
}
layer {
  name: "conv2_2_3"
  type: "Convolution"
  bottom: "conv2_2_2_bn"
  top: "conv2_2_3"
  param {
    lr_mult: 1
    decay_mult: 1
  }
  param {
    lr_mult: 2
    decay_mult: 0
  }
  convolution_param {
    num_output: 256
    pad: 0
    kernel_size: 1
    stride: 1
    weight_filler {
      type: "msra"
    }
    bias_filler {
      type: "constant"
      value: 0
    }
  }
}
layer {
  name: "conv2_2_sum"
  type: "Eltwise"
  bottom: "conv2_1_sum_bn"
  bottom: "conv2_2_3"
  top: "conv2_2_sum"
  eltwise_param {
    operation: SUM
  }
}
layer {
  name: "conv2_2_sum_bn"
  type: "BatchNorm"
  bottom: "conv2_2_sum"
  top: "conv2_2_sum_bn"
  param {
    lr_mult: 0
  }
  param {
    lr_mult: 0
  }
  param {
    lr_mult: 0
  }
}
layer {
  name: "conv2_2_sum_relu"
  type: "ReLU"
  bottom: "conv2_2_sum_bn"
  top: "conv2_2_sum_bn"
}
layer {
  name: "conv2_3_1"
  type: "Convolution"
  bottom: "conv2_2_sum_bn"
  top: "conv2_3_1"
  param {
    lr_mult: 1
    decay_mult: 1
  }
  param {
    lr_mult: 2
    decay_mult: 0
  }
  convolution_param {
    num_output: 64
    pad: 0
    kernel_size: 1
    stride: 1
    weight_filler {
      type: "msra"
    }
    bias_filler {
      type: "constant"
      value: 0
    }
  }
}
layer {
  name: "conv2_3_1_bn"
  type: "BatchNorm"
  bottom: "conv2_3_1"
  top: "conv2_3_1_bn"
  param {
    lr_mult: 0
  }
  param {
    lr_mult: 0
  }
  param {
    lr_mult: 0
  }
}
layer {
  name: "conv2_3_1_relu"
  type: "ReLU"
  bottom: "conv2_3_1_bn"
  top: "conv2_3_1_bn"
}
layer {
  name: "conv2_3_2"
  type: "Convolution"
  bottom: "conv2_3_1_bn"
  top: "conv2_3_2"
  param {
    lr_mult: 1
    decay_mult: 1
  }
  param {
    lr_mult: 2
    decay_mult: 0
  }
  convolution_param {
    num_output: 64
    pad: 1
    kernel_size: 3
    stride: 1
    weight_filler {
      type: "msra"
    }
    bias_filler {
      type: "constant"
      value: 0
    }
  }
}
layer {
  name: "conv2_3_2_bn"
  type: "BatchNorm"
  bottom: "conv2_3_2"
  top: "conv2_3_2_bn"
  param {
    lr_mult: 0
  }
  param {
    lr_mult: 0
  }
  param {
    lr_mult: 0
  }
}
layer {
  name: "conv2_3_2_relu"
  type: "ReLU"
  bottom: "conv2_3_2_bn"
  top: "conv2_3_2_bn"
}
layer {
  name: "conv2_3_3"
  type: "Convolution"
  bottom: "conv2_3_2_bn"
  top: "conv2_3_3"
  param {
    lr_mult: 1
    decay_mult: 1
  }
  param {
    lr_mult: 2
    decay_mult: 0
  }
  convolution_param {
    num_output: 256
    pad: 0
    kernel_size: 1
    stride: 1
    weight_filler {
      type: "msra"
    }
    bias_filler {
      type: "constant"
      value: 0
    }
  }
}
layer {
  name: "conv2_3_sum"
  type: "Eltwise"
  bottom: "conv2_2_sum_bn"
  bottom: "conv2_3_3"
  top: "conv2_3_sum"
  eltwise_param {
    operation: SUM
  }
}
layer {
  name: "conv2_3_sum_bn"
  type: "BatchNorm"
  bottom: "conv2_3_sum"
  top: "conv2_3_sum_bn"
  param {
    lr_mult: 0
  }
  param {
    lr_mult: 0
  }
  param {
    lr_mult: 0
  }
}
layer {
  name: "conv2_3_sum_relu"
  type: "ReLU"
  bottom: "conv2_3_sum_bn"
  top: "conv2_3_sum_bn"
}
layer {
  name: "conv2_output"
  type: "Convolution"
  bottom: "conv2_3_sum_bn"
  top: "conv2_output"
  param {
    lr_mult: 1
    decay_mult: 1
  }
  param {
    lr_mult: 2
    decay_mult: 0
  }
  convolution_param {
    num_output: 512
    pad: 0
    kernel_size: 1
    stride: 2
    weight_filler {
      type: "msra"
    }
    bias_filler {
      type: "constant"
      value: 0
    }
  }
}
layer {
  name: "conv3_1_1"
  type: "Convolution"
  bottom: "conv2_3_sum_bn"
  top: "conv3_1_1"
  param {
    lr_mult: 1
    decay_mult: 1
  }
  param {
    lr_mult: 2
    decay_mult: 0
  }
  convolution_param {
    num_output: 128
    pad: 0
    kernel_size: 1
    stride: 2
    weight_filler {
      type: "msra"
    }
    bias_filler {
      type: "constant"
      value: 0
    }
  }
}
layer {
  name: "conv3_1_1_bn"
  type: "BatchNorm"
  bottom: "conv3_1_1"
  top: "conv3_1_1_bn"
  param {
    lr_mult: 0
  }
  param {
    lr_mult: 0
  }
  param {
    lr_mult: 0
  }
}
layer {
  name: "conv3_1_1_relu"
  type: "ReLU"
  bottom: "conv3_1_1_bn"
  top: "conv3_1_1_bn"
}
layer {
  name: "conv3_1_2"
  type: "Convolution"
  bottom: "conv3_1_1_bn"
  top: "conv3_1_2"
  param {
    lr_mult: 1
    decay_mult: 1
  }
  param {
    lr_mult: 2
    decay_mult: 0
  }
  convolution_param {
    num_output: 128
    pad: 1
    kernel_size: 3
    stride: 1
    weight_filler {
      type: "msra"
    }
    bias_filler {
      type: "constant"
      value: 0
    }
  }
}
layer {
  name: "conv3_1_2_bn"
  type: "BatchNorm"
  bottom: "conv3_1_2"
  top: "conv3_1_2_bn"
  param {
    lr_mult: 0
  }
  param {
    lr_mult: 0
  }
  param {
    lr_mult: 0
  }
}
layer {
  name: "conv3_1_2_relu"
  type: "ReLU"
  bottom: "conv3_1_2_bn"
  top: "conv3_1_2_bn"
}
layer {
  name: "conv3_1_3"
  type: "Convolution"
  bottom: "conv3_1_2_bn"
  top: "conv3_1_3"
  param {
    lr_mult: 1
    decay_mult: 1
  }
  param {
    lr_mult: 2
    decay_mult: 0
  }
  convolution_param {
    num_output: 512
    pad: 0
    kernel_size: 1
    stride: 1
    weight_filler {
      type: "msra"
    }
    bias_filler {
      type: "constant"
      value: 0
    }
  }
}
layer {
  name: "conv3_1_sum"
  type: "Eltwise"
  bottom: "conv2_output"
  bottom: "conv3_1_3"
  top: "conv3_1_sum"
  eltwise_param {
    operation: SUM
  }
}
layer {
  name: "conv3_1_sum_bn"
  type: "BatchNorm"
  bottom: "conv3_1_sum"
  top: "conv3_1_sum_bn"
  param {
    lr_mult: 0
  }
  param {
    lr_mult: 0
  }
  param {
    lr_mult: 0
  }
}
layer {
  name: "conv3_1_sum_relu"
  type: "ReLU"
  bottom: "conv3_1_sum_bn"
  top: "conv3_1_sum_bn"
}
layer {
  name: "conv3_2_1"
  type: "Convolution"
  bottom: "conv3_1_sum_bn"
  top: "conv3_2_1"
  param {
    lr_mult: 1
    decay_mult: 1
  }
  param {
    lr_mult: 2
    decay_mult: 0
  }
  convolution_param {
    num_output: 128
    pad: 0
    kernel_size: 1
    stride: 1
    weight_filler {
      type: "msra"
    }
    bias_filler {
      type: "constant"
      value: 0
    }
  }
}
layer {
  name: "conv3_2_1_bn"
  type: "BatchNorm"
  bottom: "conv3_2_1"
  top: "conv3_2_1_bn"
  param {
    lr_mult: 0
  }
  param {
    lr_mult: 0
  }
  param {
    lr_mult: 0
  }
}
layer {
  name: "conv3_2_1_relu"
  type: "ReLU"
  bottom: "conv3_2_1_bn"
  top: "conv3_2_1_bn"
}
layer {
  name: "conv3_2_2"
  type: "Convolution"
  bottom: "conv3_2_1_bn"
  top: "conv3_2_2"
  param {
    lr_mult: 1
    decay_mult: 1
  }
  param {
    lr_mult: 2
    decay_mult: 0
  }
  convolution_param {
    num_output: 128
    pad: 1
    kernel_size: 3
    stride: 1
    weight_filler {
      type: "msra"
    }
    bias_filler {
      type: "constant"
      value: 0
    }
  }
}
layer {
  name: "conv3_2_2_bn"
  type: "BatchNorm"
  bottom: "conv3_2_2"
  top: "conv3_2_2_bn"
  param {
    lr_mult: 0
  }
  param {
    lr_mult: 0
  }
  param {
    lr_mult: 0
  }
}
layer {
  name: "conv3_2_2_relu"
  type: "ReLU"
  bottom: "conv3_2_2_bn"
  top: "conv3_2_2_bn"
}
layer {
  name: "conv3_2_3"
  type: "Convolution"
  bottom: "conv3_2_2_bn"
  top: "conv3_2_3"
  param {
    lr_mult: 1
    decay_mult: 1
  }
  param {
    lr_mult: 2
    decay_mult: 0
  }
  convolution_param {
    num_output: 512
    pad: 0
    kernel_size: 1
    stride: 1
    weight_filler {
      type: "msra"
    }
    bias_filler {
      type: "constant"
      value: 0
    }
  }
}
layer {
  name: "conv3_2_sum"
  type: "Eltwise"
  bottom: "conv3_1_sum_bn"
  bottom: "conv3_2_3"
  top: "conv3_2_sum"
  eltwise_param {
    operation: SUM
  }
}
layer {
  name: "conv3_2_sum_bn"
  type: "BatchNorm"
  bottom: "conv3_2_sum"
  top: "conv3_2_sum_bn"
  param {
    lr_mult: 0
  }
  param {
    lr_mult: 0
  }
  param {
    lr_mult: 0
  }
}
layer {
  name: "conv3_2_sum_relu"
  type: "ReLU"
  bottom: "conv3_2_sum_bn"
  top: "conv3_2_sum_bn"
}
layer {
  name: "conv3_3_1"
  type: "Convolution"
  bottom: "conv3_2_sum_bn"
  top: "conv3_3_1"
  param {
    lr_mult: 1
    decay_mult: 1
  }
  param {
    lr_mult: 2
    decay_mult: 0
  }
  convolution_param {
    num_output: 128
    pad: 0
    kernel_size: 1
    stride: 1
    weight_filler {
      type: "msra"
    }
    bias_filler {
      type: "constant"
      value: 0
    }
  }
}
layer {
  name: "conv3_3_1_bn"
  type: "BatchNorm"
  bottom: "conv3_3_1"
  top: "conv3_3_1_bn"
  param {
    lr_mult: 0
  }
  param {
    lr_mult: 0
  }
  param {
    lr_mult: 0
  }
}
layer {
  name: "conv3_3_1_relu"
  type: "ReLU"
  bottom: "conv3_3_1_bn"
  top: "conv3_3_1_bn"
}
layer {
  name: "conv3_3_2"
  type: "Convolution"
  bottom: "conv3_3_1_bn"
  top: "conv3_3_2"
  param {
    lr_mult: 1
    decay_mult: 1
  }
  param {
    lr_mult: 2
    decay_mult: 0
  }
  convolution_param {
    num_output: 128
    pad: 1
    kernel_size: 3
    stride: 1
    weight_filler {
      type: "msra"
    }
    bias_filler {
      type: "constant"
      value: 0
    }
  }
}
layer {
  name: "conv3_3_2_bn"
  type: "BatchNorm"
  bottom: "conv3_3_2"
  top: "conv3_3_2_bn"
  param {
    lr_mult: 0
  }
  param {
    lr_mult: 0
  }
  param {
    lr_mult: 0
  }
}
layer {
  name: "conv3_3_2_relu"
  type: "ReLU"
  bottom: "conv3_3_2_bn"
  top: "conv3_3_2_bn"
}
layer {
  name: "conv3_3_3"
  type: "Convolution"
  bottom: "conv3_3_2_bn"
  top: "conv3_3_3"
  param {
    lr_mult: 1
    decay_mult: 1
  }
  param {
    lr_mult: 2
    decay_mult: 0
  }
  convolution_param {
    num_output: 512
    pad: 0
    kernel_size: 1
    stride: 1
    weight_filler {
      type: "msra"
    }
    bias_filler {
      type: "constant"
      value: 0
    }
  }
}
layer {
  name: "conv3_3_sum"
  type: "Eltwise"
  bottom: "conv3_2_sum_bn"
  bottom: "conv3_3_3"
  top: "conv3_3_sum"
  eltwise_param {
    operation: SUM
  }
}
layer {
  name: "conv3_3_sum_bn"
  type: "BatchNorm"
  bottom: "conv3_3_sum"
  top: "conv3_3_sum_bn"
  param {
    lr_mult: 0
  }
  param {
    lr_mult: 0
  }
  param {
    lr_mult: 0
  }
}
layer {
  name: "conv3_3_sum_relu"
  type: "ReLU"
  bottom: "conv3_3_sum_bn"
  top: "conv3_3_sum_bn"
}
layer {
  name: "conv3_4_1"
  type: "Convolution"
  bottom: "conv3_3_sum_bn"
  top: "conv3_4_1"
  param {
    lr_mult: 1
    decay_mult: 1
  }
  param {
    lr_mult: 2
    decay_mult: 0
  }
  convolution_param {
    num_output: 128
    pad: 0
    kernel_size: 1
    stride: 1
    weight_filler {
      type: "msra"
    }
    bias_filler {
      type: "constant"
      value: 0
    }
  }
}
layer {
  name: "conv3_4_1_bn"
  type: "BatchNorm"
  bottom: "conv3_4_1"
  top: "conv3_4_1_bn"
  param {
    lr_mult: 0
  }
  param {
    lr_mult: 0
  }
  param {
    lr_mult: 0
  }
}
layer {
  name: "conv3_4_1_relu"
  type: "ReLU"
  bottom: "conv3_4_1_bn"
  top: "conv3_4_1_bn"
}
layer {
  name: "conv3_4_2"
  type: "Convolution"
  bottom: "conv3_4_1_bn"
  top: "conv3_4_2"
  param {
    lr_mult: 1
    decay_mult: 1
  }
  param {
    lr_mult: 2
    decay_mult: 0
  }
  convolution_param {
    num_output: 128
    pad: 1
    kernel_size: 3
    stride: 1
    weight_filler {
      type: "msra"
    }
    bias_filler {
      type: "constant"
      value: 0
    }
  }
}
layer {
  name: "conv3_4_2_bn"
  type: "BatchNorm"
  bottom: "conv3_4_2"
  top: "conv3_4_2_bn"
  param {
    lr_mult: 0
  }
  param {
    lr_mult: 0
  }
  param {
    lr_mult: 0
  }
}
layer {
  name: "conv3_4_2_relu"
  type: "ReLU"
  bottom: "conv3_4_2_bn"
  top: "conv3_4_2_bn"
}
layer {
  name: "conv3_4_3"
  type: "Convolution"
  bottom: "conv3_4_2_bn"
  top: "conv3_4_3"
  param {
    lr_mult: 1
    decay_mult: 1
  }
  param {
    lr_mult: 2
    decay_mult: 0
  }
  convolution_param {
    num_output: 512
    pad: 0
    kernel_size: 1
    stride: 1
    weight_filler {
      type: "msra"
    }
    bias_filler {
      type: "constant"
      value: 0
    }
  }
}
layer {
  name: "conv3_4_sum"
  type: "Eltwise"
  bottom: "conv3_3_sum_bn"
  bottom: "conv3_4_3"
  top: "conv3_4_sum"
  eltwise_param {
    operation: SUM
  }
}
layer {
  name: "conv3_4_sum_bn"
  type: "BatchNorm"
  bottom: "conv3_4_sum"
  top: "conv3_4_sum_bn"
  param {
    lr_mult: 0
  }
  param {
    lr_mult: 0
  }
  param {
    lr_mult: 0
  }
}
layer {
  name: "conv3_4_sum_relu"
  type: "ReLU"
  bottom: "conv3_4_sum_bn"
  top: "conv3_4_sum_bn"
}
layer {
  name: "conv3_5_1"
  type: "Convolution"
  bottom: "conv3_4_sum_bn"
  top: "conv3_5_1"
  param {
    lr_mult: 1
    decay_mult: 1
  }
  param {
    lr_mult: 2
    decay_mult: 0
  }
  convolution_param {
    num_output: 128
    pad: 0
    kernel_size: 1
    stride: 1
    weight_filler {
      type: "msra"
    }
    bias_filler {
      type: "constant"
      value: 0
    }
  }
}
layer {
  name: "conv3_5_1_bn"
  type: "BatchNorm"
  bottom: "conv3_5_1"
  top: "conv3_5_1_bn"
  param {
    lr_mult: 0
  }
  param {
    lr_mult: 0
  }
  param {
    lr_mult: 0
  }
}
layer {
  name: "conv3_5_1_relu"
  type: "ReLU"
  bottom: "conv3_5_1_bn"
  top: "conv3_5_1_bn"
}
layer {
  name: "conv3_5_2"
  type: "Convolution"
  bottom: "conv3_5_1_bn"
  top: "conv3_5_2"
  param {
    lr_mult: 1
    decay_mult: 1
  }
  param {
    lr_mult: 2
    decay_mult: 0
  }
  convolution_param {
    num_output: 128
    pad: 1
    kernel_size: 3
    stride: 1
    weight_filler {
      type: "msra"
    }
    bias_filler {
      type: "constant"
      value: 0
    }
  }
}
layer {
  name: "conv3_5_2_bn"
  type: "BatchNorm"
  bottom: "conv3_5_2"
  top: "conv3_5_2_bn"
  param {
    lr_mult: 0
  }
  param {
    lr_mult: 0
  }
  param {
    lr_mult: 0
  }
}
layer {
  name: "conv3_5_2_relu"
  type: "ReLU"
  bottom: "conv3_5_2_bn"
  top: "conv3_5_2_bn"
}
layer {
  name: "conv3_5_3"
  type: "Convolution"
  bottom: "conv3_5_2_bn"
  top: "conv3_5_3"
  param {
    lr_mult: 1
    decay_mult: 1
  }
  param {
    lr_mult: 2
    decay_mult: 0
  }
  convolution_param {
    num_output: 512
    pad: 0
    kernel_size: 1
    stride: 1
    weight_filler {
      type: "msra"
    }
    bias_filler {
      type: "constant"
      value: 0
    }
  }
}
layer {
  name: "conv3_5_sum"
  type: "Eltwise"
  bottom: "conv3_4_sum_bn"
  bottom: "conv3_5_3"
  top: "conv3_5_sum"
  eltwise_param {
    operation: SUM
  }
}
layer {
  name: "conv3_5_sum_bn"
  type: "BatchNorm"
  bottom: "conv3_5_sum"
  top: "conv3_5_sum_bn"
  param {
    lr_mult: 0
  }
  param {
    lr_mult: 0
  }
  param {
    lr_mult: 0
  }
}
layer {
  name: "conv3_5_sum_relu"
  type: "ReLU"
  bottom: "conv3_5_sum_bn"
  top: "conv3_5_sum_bn"
}
layer {
  name: "conv3_6_1"
  type: "Convolution"
  bottom: "conv3_5_sum_bn"
  top: "conv3_6_1"
  param {
    lr_mult: 1
    decay_mult: 1
  }
  param {
    lr_mult: 2
    decay_mult: 0
  }
  convolution_param {
    num_output: 128
    pad: 0
    kernel_size: 1
    stride: 1
    weight_filler {
      type: "msra"
    }
    bias_filler {
      type: "constant"
      value: 0
    }
  }
}
layer {
  name: "conv3_6_1_bn"
  type: "BatchNorm"
  bottom: "conv3_6_1"
  top: "conv3_6_1_bn"
  param {
    lr_mult: 0
  }
  param {
    lr_mult: 0
  }
  param {
    lr_mult: 0
  }
}
layer {
  name: "conv3_6_1_relu"
  type: "ReLU"
  bottom: "conv3_6_1_bn"
  top: "conv3_6_1_bn"
}
layer {
  name: "conv3_6_2"
  type: "Convolution"
  bottom: "conv3_6_1_bn"
  top: "conv3_6_2"
  param {
    lr_mult: 1
    decay_mult: 1
  }
  param {
    lr_mult: 2
    decay_mult: 0
  }
  convolution_param {
    num_output: 128
    pad: 1
    kernel_size: 3
    stride: 1
    weight_filler {
      type: "msra"
    }
    bias_filler {
      type: "constant"
      value: 0
    }
  }
}
layer {
  name: "conv3_6_2_bn"
  type: "BatchNorm"
  bottom: "conv3_6_2"
  top: "conv3_6_2_bn"
  param {
    lr_mult: 0
  }
  param {
    lr_mult: 0
  }
  param {
    lr_mult: 0
  }
}
layer {
  name: "conv3_6_2_relu"
  type: "ReLU"
  bottom: "conv3_6_2_bn"
  top: "conv3_6_2_bn"
}
layer {
  name: "conv3_6_3"
  type: "Convolution"
  bottom: "conv3_6_2_bn"
  top: "conv3_6_3"
  param {
    lr_mult: 1
    decay_mult: 1
  }
  param {
    lr_mult: 2
    decay_mult: 0
  }
  convolution_param {
    num_output: 512
    pad: 0
    kernel_size: 1
    stride: 1
    weight_filler {
      type: "msra"
    }
    bias_filler {
      type: "constant"
      value: 0
    }
  }
}
layer {
  name: "conv3_6_sum"
  type: "Eltwise"
  bottom: "conv3_5_sum_bn"
  bottom: "conv3_6_3"
  top: "conv3_6_sum"
  eltwise_param {
    operation: SUM
  }
}
layer {
  name: "conv3_6_sum_bn"
  type: "BatchNorm"
  bottom: "conv3_6_sum"
  top: "conv3_6_sum_bn"
  param {
    lr_mult: 0
  }
  param {
    lr_mult: 0
  }
  param {
    lr_mult: 0
  }
}
layer {
  name: "conv3_6_sum_relu"
  type: "ReLU"
  bottom: "conv3_6_sum_bn"
  top: "conv3_6_sum_bn"
}
layer {
  name: "conv3_7_1"
  type: "Convolution"
  bottom: "conv3_6_sum_bn"
  top: "conv3_7_1"
  param {
    lr_mult: 1
    decay_mult: 1
  }
  param {
    lr_mult: 2
    decay_mult: 0
  }
  convolution_param {
    num_output: 128
    pad: 0
    kernel_size: 1
    stride: 1
    weight_filler {
      type: "msra"
    }
    bias_filler {
      type: "constant"
      value: 0
    }
  }
}
layer {
  name: "conv3_7_1_bn"
  type: "BatchNorm"
  bottom: "conv3_7_1"
  top: "conv3_7_1_bn"
  param {
    lr_mult: 0
  }
  param {
    lr_mult: 0
  }
  param {
    lr_mult: 0
  }
}
layer {
  name: "conv3_7_1_relu"
  type: "ReLU"
  bottom: "conv3_7_1_bn"
  top: "conv3_7_1_bn"
}
layer {
  name: "conv3_7_2"
  type: "Convolution"
  bottom: "conv3_7_1_bn"
  top: "conv3_7_2"
  param {
    lr_mult: 1
    decay_mult: 1
  }
  param {
    lr_mult: 2
    decay_mult: 0
  }
  convolution_param {
    num_output: 128
    pad: 1
    kernel_size: 3
    stride: 1
    weight_filler {
      type: "msra"
    }
    bias_filler {
      type: "constant"
      value: 0
    }
  }
}
layer {
  name: "conv3_7_2_bn"
  type: "BatchNorm"
  bottom: "conv3_7_2"
  top: "conv3_7_2_bn"
  param {
    lr_mult: 0
  }
  param {
    lr_mult: 0
  }
  param {
    lr_mult: 0
  }
}
layer {
  name: "conv3_7_2_relu"
  type: "ReLU"
  bottom: "conv3_7_2_bn"
  top: "conv3_7_2_bn"
}
layer {
  name: "conv3_7_3"
  type: "Convolution"
  bottom: "conv3_7_2_bn"
  top: "conv3_7_3"
  param {
    lr_mult: 1
    decay_mult: 1
  }
  param {
    lr_mult: 2
    decay_mult: 0
  }
  convolution_param {
    num_output: 512
    pad: 0
    kernel_size: 1
    stride: 1
    weight_filler {
      type: "msra"
    }
    bias_filler {
      type: "constant"
      value: 0
    }
  }
}
layer {
  name: "conv3_7_sum"
  type: "Eltwise"
  bottom: "conv3_6_sum_bn"
  bottom: "conv3_7_3"
  top: "conv3_7_sum"
  eltwise_param {
    operation: SUM
  }
}
layer {
  name: "conv3_7_sum_bn"
  type: "BatchNorm"
  bottom: "conv3_7_sum"
  top: "conv3_7_sum_bn"
  param {
    lr_mult: 0
  }
  param {
    lr_mult: 0
  }
  param {
    lr_mult: 0
  }
}
layer {
  name: "conv3_7_sum_relu"
  type: "ReLU"
  bottom: "conv3_7_sum_bn"
  top: "conv3_7_sum_bn"
}
layer {
  name: "conv3_8_1"
  type: "Convolution"
  bottom: "conv3_7_sum_bn"
  top: "conv3_8_1"
  param {
    lr_mult: 1
    decay_mult: 1
  }
  param {
    lr_mult: 2
    decay_mult: 0
  }
  convolution_param {
    num_output: 128
    pad: 0
    kernel_size: 1
    stride: 1
    weight_filler {
      type: "msra"
    }
    bias_filler {
      type: "constant"
      value: 0
    }
  }
}
layer {
  name: "conv3_8_1_bn"
  type: "BatchNorm"
  bottom: "conv3_8_1"
  top: "conv3_8_1_bn"
  param {
    lr_mult: 0
  }
  param {
    lr_mult: 0
  }
  param {
    lr_mult: 0
  }
}
layer {
  name: "conv3_8_1_relu"
  type: "ReLU"
  bottom: "conv3_8_1_bn"
  top: "conv3_8_1_bn"
}
layer {
  name: "conv3_8_2"
  type: "Convolution"
  bottom: "conv3_8_1_bn"
  top: "conv3_8_2"
  param {
    lr_mult: 1
    decay_mult: 1
  }
  param {
    lr_mult: 2
    decay_mult: 0
  }
  convolution_param {
    num_output: 128
    pad: 1
    kernel_size: 3
    stride: 1
    weight_filler {
      type: "msra"
    }
    bias_filler {
      type: "constant"
      value: 0
    }
  }
}
layer {
  name: "conv3_8_2_bn"
  type: "BatchNorm"
  bottom: "conv3_8_2"
  top: "conv3_8_2_bn"
  param {
    lr_mult: 0
  }
  param {
    lr_mult: 0
  }
  param {
    lr_mult: 0
  }
}
layer {
  name: "conv3_8_2_relu"
  type: "ReLU"
  bottom: "conv3_8_2_bn"
  top: "conv3_8_2_bn"
}
layer {
  name: "conv3_8_3"
  type: "Convolution"
  bottom: "conv3_8_2_bn"
  top: "conv3_8_3"
  param {
    lr_mult: 1
    decay_mult: 1
  }
  param {
    lr_mult: 2
    decay_mult: 0
  }
  convolution_param {
    num_output: 512
    pad: 0
    kernel_size: 1
    stride: 1
    weight_filler {
      type: "msra"
    }
    bias_filler {
      type: "constant"
      value: 0
    }
  }
}
layer {
  name: "conv3_8_sum"
  type: "Eltwise"
  bottom: "conv3_7_sum_bn"
  bottom: "conv3_8_3"
  top: "conv3_8_sum"
  eltwise_param {
    operation: SUM
  }
}
layer {
  name: "conv3_8_sum_bn"
  type: "BatchNorm"
  bottom: "conv3_8_sum"
  top: "conv3_8_sum_bn"
  param {
    lr_mult: 0
  }
  param {
    lr_mult: 0
  }
  param {
    lr_mult: 0
  }
}
layer {
  name: "conv3_8_sum_relu"
  type: "ReLU"
  bottom: "conv3_8_sum_bn"
  top: "conv3_8_sum_bn"
}
layer {
  name: "conv3_output"
  type: "Convolution"
  bottom: "conv3_8_sum_bn"
  top: "conv3_output"
  param {
    lr_mult: 1
    decay_mult: 1
  }
  param {
    lr_mult: 2
    decay_mult: 0
  }
  convolution_param {
    num_output: 1024
    pad: 0
    kernel_size: 1
    stride: 2
    weight_filler {
      type: "msra"
    }
    bias_filler {
      type: "constant"
      value: 0
    }
  }
}
layer {
  name: "conv4_1_1"
  type: "Convolution"
  bottom: "conv3_8_sum_bn"
  top: "conv4_1_1"
  param {
    lr_mult: 1
    decay_mult: 1
  }
  param {
    lr_mult: 2
    decay_mult: 0
  }
  convolution_param {
    num_output: 256
    pad: 0
    kernel_size: 1
    stride: 2
    weight_filler {
      type: "msra"
    }
    bias_filler {
      type: "constant"
      value: 0
    }
  }
}
layer {
  name: "conv4_1_1_bn"
  type: "BatchNorm"
  bottom: "conv4_1_1"
  top: "conv4_1_1_bn"
  param {
    lr_mult: 0
  }
  param {
    lr_mult: 0
  }
  param {
    lr_mult: 0
  }
}
layer {
  name: "conv4_1_1_relu"
  type: "ReLU"
  bottom: "conv4_1_1_bn"
  top: "conv4_1_1_bn"
}
layer {
  name: "conv4_1_2"
  type: "Convolution"
  bottom: "conv4_1_1_bn"
  top: "conv4_1_2"
  param {
    lr_mult: 1
    decay_mult: 1
  }
  param {
    lr_mult: 2
    decay_mult: 0
  }
  convolution_param {
    num_output: 256
    pad: 1
    kernel_size: 3
    stride: 1
    weight_filler {
      type: "msra"
    }
    bias_filler {
      type: "constant"
      value: 0
    }
  }
}
layer {
  name: "conv4_1_2_bn"
  type: "BatchNorm"
  bottom: "conv4_1_2"
  top: "conv4_1_2_bn"
  param {
    lr_mult: 0
  }
  param {
    lr_mult: 0
  }
  param {
    lr_mult: 0
  }
}
layer {
  name: "conv4_1_2_relu"
  type: "ReLU"
  bottom: "conv4_1_2_bn"
  top: "conv4_1_2_bn"
}
layer {
  name: "conv4_1_3"
  type: "Convolution"
  bottom: "conv4_1_2_bn"
  top: "conv4_1_3"
  param {
    lr_mult: 1
    decay_mult: 1
  }
  param {
    lr_mult: 2
    decay_mult: 0
  }
  convolution_param {
    num_output: 1024
    pad: 0
    kernel_size: 1
    stride: 1
    weight_filler {
      type: "msra"
    }
    bias_filler {
      type: "constant"
      value: 0
    }
  }
}
layer {
  name: "conv4_1_sum"
  type: "Eltwise"
  bottom: "conv3_output"
  bottom: "conv4_1_3"
  top: "conv4_1_sum"
  eltwise_param {
    operation: SUM
  }
}
layer {
  name: "conv4_1_sum_bn"
  type: "BatchNorm"
  bottom: "conv4_1_sum"
  top: "conv4_1_sum_bn"
  param {
    lr_mult: 0
  }
  param {
    lr_mult: 0
  }
  param {
    lr_mult: 0
  }
}
layer {
  name: "conv4_1_sum_relu"
  type: "ReLU"
  bottom: "conv4_1_sum_bn"
  top: "conv4_1_sum_bn"
}
layer {
  name: "conv4_2_1"
  type: "Convolution"
  bottom: "conv4_1_sum_bn"
  top: "conv4_2_1"
  param {
    lr_mult: 1
    decay_mult: 1
  }
  param {
    lr_mult: 2
    decay_mult: 0
  }
  convolution_param {
    num_output: 256
    pad: 0
    kernel_size: 1
    stride: 1
    weight_filler {
      type: "msra"
    }
    bias_filler {
      type: "constant"
      value: 0
    }
  }
}
layer {
  name: "conv4_2_1_bn"
  type: "BatchNorm"
  bottom: "conv4_2_1"
  top: "conv4_2_1_bn"
  param {
    lr_mult: 0
  }
  param {
    lr_mult: 0
  }
  param {
    lr_mult: 0
  }
}
layer {
  name: "conv4_2_1_relu"
  type: "ReLU"
  bottom: "conv4_2_1_bn"
  top: "conv4_2_1_bn"
}
layer {
  name: "conv4_2_2"
  type: "Convolution"
  bottom: "conv4_2_1_bn"
  top: "conv4_2_2"
  param {
    lr_mult: 1
    decay_mult: 1
  }
  param {
    lr_mult: 2
    decay_mult: 0
  }
  convolution_param {
    num_output: 256
    pad: 1
    kernel_size: 3
    stride: 1
    weight_filler {
      type: "msra"
    }
    bias_filler {
      type: "constant"
      value: 0
    }
  }
}
layer {
  name: "conv4_2_2_bn"
  type: "BatchNorm"
  bottom: "conv4_2_2"
  top: "conv4_2_2_bn"
  param {
    lr_mult: 0
  }
  param {
    lr_mult: 0
  }
  param {
    lr_mult: 0
  }
}
layer {
  name: "conv4_2_2_relu"
  type: "ReLU"
  bottom: "conv4_2_2_bn"
  top: "conv4_2_2_bn"
}
layer {
  name: "conv4_2_3"
  type: "Convolution"
  bottom: "conv4_2_2_bn"
  top: "conv4_2_3"
  
I0703 18:05:29.939484 35376 layer_factory.hpp:76] Creating layer data
I0703 18:05:29.939540 35376 net.cpp:106] Creating Layer data
I0703 18:05:29.939554 35376 net.cpp:411] data -> data
I0703 18:05:29.939591 35376 net.cpp:411] data -> label
I0703 18:05:29.940026 35376 image_data_layer.cpp:36] Opening file ../lists/roi-train.lst
I0703 18:05:30.050967 35376 image_data_layer.cpp:46] Shuffling data
I0703 18:05:30.089767 35376 image_data_layer.cpp:51] A total of 211680 images.
I0703 18:05:30.115190 35376 image_data_layer.cpp:78] output data size: 32,3,224,224
I0703 18:05:30.158213 35376 net.cpp:150] Setting up data
I0703 18:05:30.158278 35376 net.cpp:157] Top shape: 32 3 224 224 (4816896)
I0703 18:05:30.158291 35376 net.cpp:157] Top shape: 32 (32)
I0703 18:05:30.158299 35376 net.cpp:165] Memory required for data: 19267712
I0703 18:05:30.158314 35376 layer_factory.hpp:76] Creating layer conv1
I0703 18:05:30.158344 35376 net.cpp:106] Creating Layer conv1
I0703 18:05:30.158357 35376 net.cpp:454] conv1 <- data
I0703 18:05:30.158377 35376 net.cpp:411] conv1 -> conv1
I0703 18:05:30.319134 35376 net.cpp:150] Setting up conv1
I0703 18:05:30.319180 35376 net.cpp:157] Top shape: 32 64 109 109 (24332288)
I0703 18:05:30.319190 35376 net.cpp:165] Memory required for data: 116596864
I0703 18:05:30.319217 35376 layer_factory.hpp:76] Creating layer conv1_bn
I0703 18:05:30.319242 35376 net.cpp:106] Creating Layer conv1_bn
I0703 18:05:30.319252 35376 net.cpp:454] conv1_bn <- conv1
I0703 18:05:30.319265 35376 net.cpp:411] conv1_bn -> conv1_bn
I0703 18:05:30.319509 35376 net.cpp:150] Setting up conv1_bn
I0703 18:05:30.319530 35376 net.cpp:157] Top shape: 32 64 109 109 (24332288)
I0703 18:05:30.319540 35376 net.cpp:165] Memory required for data: 213926016
I0703 18:05:30.319556 35376 layer_factory.hpp:76] Creating layer conv1_relu
I0703 18:05:30.319571 35376 net.cpp:106] Creating Layer conv1_relu
I0703 18:05:30.319581 35376 net.cpp:454] conv1_relu <- conv1_bn
I0703 18:05:30.319591 35376 net.cpp:397] conv1_relu -> conv1_bn (in-place)
I0703 18:05:30.319818 35376 net.cpp:150] Setting up conv1_relu
I0703 18:05:30.319838 35376 net.cpp:157] Top shape: 32 64 109 109 (24332288)
I0703 18:05:30.319846 35376 net.cpp:165] Memory required for data: 311255168
I0703 18:05:30.319855 35376 layer_factory.hpp:76] Creating layer pool1
I0703 18:05:30.319869 35376 net.cpp:106] Creating Layer pool1
I0703 18:05:30.319877 35376 net.cpp:454] pool1 <- conv1_bn
I0703 18:05:30.319887 35376 net.cpp:411] pool1 -> pool1
I0703 18:05:30.320256 35376 net.cpp:150] Setting up pool1
I0703 18:05:30.320279 35376 net.cpp:157] Top shape: 32 64 54 54 (5971968)
I0703 18:05:30.320288 35376 net.cpp:165] Memory required for data: 335143040
I0703 18:05:30.320297 35376 layer_factory.hpp:76] Creating layer pool1_pool1_0_split
I0703 18:05:30.320312 35376 net.cpp:106] Creating Layer pool1_pool1_0_split
I0703 18:05:30.320320 35376 net.cpp:454] pool1_pool1_0_split <- pool1
I0703 18:05:30.320330 35376 net.cpp:411] pool1_pool1_0_split -> pool1_pool1_0_split_0
I0703 18:05:30.320343 35376 net.cpp:411] pool1_pool1_0_split -> pool1_pool1_0_split_1
I0703 18:05:30.320380 35376 net.cpp:150] Setting up pool1_pool1_0_split
I0703 18:05:30.320392 35376 net.cpp:157] Top shape: 32 64 54 54 (5971968)
I0703 18:05:30.320401 35376 net.cpp:157] Top shape: 32 64 54 54 (5971968)
I0703 18:05:30.320410 35376 net.cpp:165] Memory required for data: 382918784
I0703 18:05:30.320417 35376 layer_factory.hpp:76] Creating layer conv1_output
I0703 18:05:30.320439 35376 net.cpp:106] Creating Layer conv1_output
I0703 18:05:30.320448 35376 net.cpp:454] conv1_output <- pool1_pool1_0_split_0
I0703 18:05:30.320467 35376 net.cpp:411] conv1_output -> conv1_output
I0703 18:05:30.322594 35376 cudnn_conv_layer.cpp:194] Reallocating workspace storage: 768
I0703 18:05:30.322631 35376 net.cpp:150] Setting up conv1_output
I0703 18:05:30.322646 35376 net.cpp:157] Top shape: 32 256 54 54 (23887872)
I0703 18:05:30.322655 35376 net.cpp:165] Memory required for data: 478470272
I0703 18:05:30.322669 35376 layer_factory.hpp:76] Creating layer conv2_1_1
I0703 18:05:30.322684 35376 net.cpp:106] Creating Layer conv2_1_1
I0703 18:05:30.322692 35376 net.cpp:454] conv2_1_1 <- pool1_pool1_0_split_1
I0703 18:05:30.322706 35376 net.cpp:411] conv2_1_1 -> conv2_1_1
I0703 18:05:30.323928 35376 cudnn_conv_layer.cpp:194] Reallocating workspace storage: 768
I0703 18:05:30.323962 35376 net.cpp:150] Setting up conv2_1_1
I0703 18:05:30.323976 35376 net.cpp:157] Top shape: 32 64 54 54 (5971968)
I0703 18:05:30.323985 35376 net.cpp:165] Memory required for data: 502358144
I0703 18:05:30.323999 35376 layer_factory.hpp:76] Creating layer conv2_1_1_bn
I0703 18:05:30.324023 35376 net.cpp:106] Creating Layer conv2_1_1_bn
I0703 18:05:30.324033 35376 net.cpp:454] conv2_1_1_bn <- conv2_1_1
I0703 18:05:30.324044 35376 net.cpp:411] conv2_1_1_bn -> conv2_1_1_bn
I0703 18:05:30.324266 35376 net.cpp:150] Setting up conv2_1_1_bn
I0703 18:05:30.324285 35376 net.cpp:157] Top shape: 32 64 54 54 (5971968)
I0703 18:05:30.324295 35376 net.cpp:165] Memory required for data: 526246016
I0703 18:05:30.324307 35376 layer_factory.hpp:76] Creating layer conv2_1_1_relu
I0703 18:05:30.324321 35376 net.cpp:106] Creating Layer conv2_1_1_relu
I0703 18:05:30.324329 35376 net.cpp:454] conv2_1_1_relu <- conv2_1_1_bn
I0703 18:05:30.324340 35376 net.cpp:397] conv2_1_1_relu -> conv2_1_1_bn (in-place)
I0703 18:05:30.324553 35376 net.cpp:150] Setting up conv2_1_1_relu
I0703 18:05:30.324573 35376 net.cpp:157] Top shape: 32 64 54 54 (5971968)
I0703 18:05:30.324581 35376 net.cpp:165] Memory required for data: 550133888
I0703 18:05:30.324589 35376 layer_factory.hpp:76] Creating layer conv2_1_2
I0703 18:05:30.324605 35376 net.cpp:106] Creating Layer conv2_1_2
I0703 18:05:30.324615 35376 net.cpp:454] conv2_1_2 <- conv2_1_1_bn
I0703 18:05:30.324627 35376 net.cpp:411] conv2_1_2 -> conv2_1_2
I0703 18:05:30.327615 35376 net.cpp:150] Setting up conv2_1_2
I0703 18:05:30.327644 35376 net.cpp:157] Top shape: 32 64 54 54 (5971968)
I0703 18:05:30.327653 35376 net.cpp:165] Memory required for data: 574021760
I0703 18:05:30.327666 35376 layer_factory.hpp:76] Creating layer conv2_1_2_bn
I0703 18:05:30.327707 35376 net.cpp:106] Creating Layer conv2_1_2_bn
I0703 18:05:30.327716 35376 net.cpp:454] conv2_1_2_bn <- conv2_1_2
I0703 18:05:30.327728 35376 net.cpp:411] conv2_1_2_bn -> conv2_1_2_bn
I0703 18:05:30.327960 35376 net.cpp:150] Setting up conv2_1_2_bn
I0703 18:05:30.327980 35376 net.cpp:157] Top shape: 32 64 54 54 (5971968)
I0703 18:05:30.327988 35376 net.cpp:165] Memory required for data: 597909632
I0703 18:05:30.328007 35376 layer_factory.hpp:76] Creating layer conv2_1_2_relu
I0703 18:05:30.328021 35376 net.cpp:106] Creating Layer conv2_1_2_relu
I0703 18:05:30.328028 35376 net.cpp:454] conv2_1_2_relu <- conv2_1_2_bn
I0703 18:05:30.328038 35376 net.cpp:397] conv2_1_2_relu -> conv2_1_2_bn (in-place)
I0703 18:05:30.328243 35376 net.cpp:150] Setting up conv2_1_2_relu
I0703 18:05:30.328263 35376 net.cpp:157] Top shape: 32 64 54 54 (5971968)
I0703 18:05:30.328271 35376 net.cpp:165] Memory required for data: 621797504
I0703 18:05:30.328280 35376 layer_factory.hpp:76] Creating layer conv2_1_3
I0703 18:05:30.328297 35376 net.cpp:106] Creating Layer conv2_1_3
I0703 18:05:30.328306 35376 net.cpp:454] conv2_1_3 <- conv2_1_2_bn
I0703 18:05:30.328320 35376 net.cpp:411] conv2_1_3 -> conv2_1_3
I0703 18:05:30.329917 35376 cudnn_conv_layer.cpp:194] Reallocating workspace storage: 768
I0703 18:05:30.329958 35376 net.cpp:150] Setting up conv2_1_3
I0703 18:05:30.329972 35376 net.cpp:157] Top shape: 32 256 54 54 (23887872)
I0703 18:05:30.329982 35376 net.cpp:165] Memory required for data: 717348992
I0703 18:05:30.329993 35376 layer_factory.hpp:76] Creating layer conv2_1_sum
I0703 18:05:30.352210 35376 net.cpp:106] Creating Layer conv2_1_sum
I0703 18:05:30.352265 35376 net.cpp:454] conv2_1_sum <- conv1_output
I0703 18:05:30.352284 35376 net.cpp:454] conv2_1_sum <- conv2_1_3
I0703 18:05:30.352308 35376 net.cpp:411] conv2_1_sum -> conv2_1_sum
I0703 18:05:30.352506 35376 net.cpp:150] Setting up conv2_1_sum
I0703 18:05:30.352545 35376 net.cpp:157] Top shape: 32 256 54 54 (23887872)
I0703 18:05:30.352558 35376 net.cpp:165] Memory required for data: 812900480
I0703 18:05:30.352573 35376 layer_factory.hpp:76] Creating layer conv2_1_sum_bn
I0703 18:05:30.352596 35376 net.cpp:106] Creating Layer conv2_1_sum_bn
I0703 18:05:30.352612 35376 net.cpp:454] conv2_1_sum_bn <- conv2_1_sum
I0703 18:05:30.352630 35376 net.cpp:411] conv2_1_sum_bn -> conv2_1_sum_bn
I0703 18:05:30.352932 35376 net.cpp:150] Setting up conv2_1_sum_bn
I0703 18:05:30.352964 35376 net.cpp:157] Top shape: 32 256 54 54 (23887872)
I0703 18:05:30.352977 35376 net.cpp:165] Memory required for data: 908451968
I0703 18:05:30.353000 35376 layer_factory.hpp:76] Creating layer conv2_1_sum_relu
I0703 18:05:30.353025 35376 net.cpp:106] Creating Layer conv2_1_sum_relu
I0703 18:05:30.353039 35376 net.cpp:454] conv2_1_sum_relu <- conv2_1_sum_bn
I0703 18:05:30.353055 35376 net.cpp:397] conv2_1_sum_relu -> conv2_1_sum_bn (in-place)
I0703 18:05:30.353729 35376 net.cpp:150] Setting up conv2_1_sum_relu
I0703 18:05:30.353768 35376 net.cpp:157] Top shape: 32 256 54 54 (23887872)
I0703 18:05:30.353782 35376 net.cpp:165] Memory required for data: 1004003456
I0703 18:05:30.353796 35376 layer_factory.hpp:76] Creating layer conv2_1_sum_bn_conv2_1_sum_relu_0_split
I0703 18:05:30.353813 35376 net.cpp:106] Creating Layer conv2_1_sum_bn_conv2_1_sum_relu_0_split
I0703 18:05:30.353831 35376 net.cpp:454] conv2_1_sum_bn_conv2_1_sum_relu_0_split <- conv2_1_sum_bn
I0703 18:05:30.353847 35376 net.cpp:411] conv2_1_sum_bn_conv2_1_sum_relu_0_split -> conv2_1_sum_bn_conv2_1_sum_relu_0_split_0
I0703 18:05:30.353864 35376 net.cpp:411] conv2_1_sum_bn_conv2_1_sum_relu_0_split -> conv2_1_sum_bn_conv2_1_sum_relu_0_split_1
I0703 18:05:30.353940 35376 net.cpp:150] Setting up conv2_1_sum_bn_conv2_1_sum_relu_0_split
I0703 18:05:30.353960 35376 net.cpp:157] Top shape: 32 256 54 54 (23887872)
I0703 18:05:30.353976 35376 net.cpp:157] Top shape: 32 256 54 54 (23887872)
I0703 18:05:30.353992 35376 net.cpp:165] Memory required for data: 1195106432
I0703 18:05:30.354037 35376 layer_factory.hpp:76] Creating layer conv2_2_1
I0703 18:05:30.354065 35376 net.cpp:106] Creating Layer conv2_2_1
I0703 18:05:30.354080 35376 net.cpp:454] conv2_2_1 <- conv2_1_sum_bn_conv2_1_sum_relu_0_split_0
I0703 18:05:30.354096 35376 net.cpp:411] conv2_2_1 -> conv2_2_1
I0703 18:05:30.356313 35376 net.cpp:150] Setting up conv2_2_1
I0703 18:05:30.356362 35376 net.cpp:157] Top shape: 32 64 54 54 (5971968)
I0703 18:05:30.356376 35376 net.cpp:165] Memory required for data: 1218994304
I0703 18:05:30.356397 35376 layer_factory.hpp:76] Creating layer conv2_2_1_bn
I0703 18:05:30.356428 35376 net.cpp:106] Creating Layer conv2_2_1_bn
I0703 18:05:30.356456 35376 net.cpp:454] conv2_2_1_bn <- conv2_2_1
I0703 18:05:30.356478 35376 net.cpp:411] conv2_2_1_bn -> conv2_2_1_bn
I0703 18:05:30.356772 35376 net.cpp:150] Setting up conv2_2_1_bn
I0703 18:05:30.356804 35376 net.cpp:157] Top shape: 32 64 54 54 (5971968)
I0703 18:05:30.356817 35376 net.cpp:165] Memory required for data: 1242882176
I0703 18:05:30.356844 35376 layer_factory.hpp:76] Creating layer conv2_2_1_relu
I0703 18:05:30.356874 35376 net.cpp:106] Creating Layer conv2_2_1_relu
I0703 18:05:30.356889 35376 net.cpp:454] conv2_2_1_relu <- conv2_2_1_bn
I0703 18:05:30.356904 35376 net.cpp:397] conv2_2_1_relu -> conv2_2_1_bn (in-place)
I0703 18:05:30.357166 35376 net.cpp:150] Setting up conv2_2_1_relu
I0703 18:05:30.357198 35376 net.cpp:157] Top shape: 32 64 54 54 (5971968)
I0703 18:05:30.357211 35376 net.cpp:165] Memory required for data: 1266770048
I0703 18:05:30.357224 35376 layer_factory.hpp:76] Creating layer conv2_2_2
I0703 18:05:30.357247 35376 net.cpp:106] Creating Layer conv2_2_2
I0703 18:05:30.357264 35376 net.cpp:454] conv2_2_2 <- conv2_2_1_bn
I0703 18:05:30.357282 35376 net.cpp:411] conv2_2_2 -> conv2_2_2
I0703 18:05:30.360229 35376 net.cpp:150] Setting up conv2_2_2
I0703 18:05:30.360270 35376 net.cpp:157] Top shape: 32 64 54 54 (5971968)
I0703 18:05:30.360283 35376 net.cpp:165] Memory required for data: 1290657920
I0703 18:05:30.360301 35376 layer_factory.hpp:76] Creating layer conv2_2_2_bn
I0703 18:05:30.360319 35376 net.cpp:106] Creating Layer conv2_2_2_bn
I0703 18:05:30.360335 35376 net.cpp:454] conv2_2_2_bn <- conv2_2_2
I0703 18:05:30.360368 35376 net.cpp:411] conv2_2_2_bn -> conv2_2_2_bn
I0703 18:05:30.360697 35376 net.cpp:150] Setting up conv2_2_2_bn
I0703 18:05:30.360729 35376 net.cpp:157] Top shape: 32 64 54 54 (5971968)
I0703 18:05:30.360743 35376 net.cpp:165] Memory required for data: 1314545792
I0703 18:05:30.360762 35376 layer_factory.hpp:76] Creating layer conv2_2_2_relu
I0703 18:05:30.360779 35376 net.cpp:106] Creating Layer conv2_2_2_relu
I0703 18:05:30.360807 35376 net.cpp:454] conv2_2_2_relu <- conv2_2_2_bn
I0703 18:05:30.360822 35376 net.cpp:397] conv2_2_2_relu -> conv2_2_2_bn (in-place)
I0703 18:05:30.361091 35376 net.cpp:150] Setting up conv2_2_2_relu
I0703 18:05:30.361124 35376 net.cpp:157] Top shape: 32 64 54 54 (5971968)
I0703 18:05:30.361135 35376 net.cpp:165] Memory required for data: 1338433664
I0703 18:05:30.361148 35376 layer_factory.hpp:76] Creating layer conv2_2_3
I0703 18:05:30.361171 35376 net.cpp:106] Creating Layer conv2_2_3
I0703 18:05:30.361199 35376 net.cpp:454] conv2_2_3 <- conv2_2_2_bn
I0703 18:05:30.361215 35376 net.cpp:411] conv2_2_3 -> conv2_2_3
I0703 18:05:30.363486 35376 cudnn_conv_layer.cpp:194] Reallocating workspace storage: 768
I0703 18:05:30.363554 35376 net.cpp:150] Setting up conv2_2_3
I0703 18:05:30.363587 35376 net.cpp:157] Top shape: 32 256 54 54 (23887872)
I0703 18:05:30.363600 35376 net.cpp:165] Memory required for data: 1433985152
I0703 18:05:30.363633 35376 layer_factory.hpp:76] Creating layer conv2_2_sum
I0703 18:05:30.363656 35376 net.cpp:106] Creating Layer conv2_2_sum
I0703 18:05:30.363673 35376 net.cpp:454] conv2_2_sum <- conv2_1_sum_bn_conv2_1_sum_relu_0_split_1
I0703 18:05:30.363688 35376 net.cpp:454] conv2_2_sum <- conv2_2_3
I0703 18:05:30.363708 35376 net.cpp:411] conv2_2_sum -> conv2_2_sum
I0703 18:05:30.363777 35376 net.cpp:150] Setting up conv2_2_sum
I0703 18:05:30.363796 35376 net.cpp:157] Top shape: 32 256 54 54 (23887872)
I0703 18:05:30.363839 35376 net.cpp:165] Memory required for data: 1529536640
I0703 18:05:30.363853 35376 layer_factory.hpp:76] Creating layer conv2_2_sum_bn
I0703 18:05:30.363878 35376 net.cpp:106] Creating Layer conv2_2_sum_bn
I0703 18:05:30.363890 35376 net.cpp:454] conv2_2_sum_bn <- conv2_2_sum
I0703 18:05:30.363919 35376 net.cpp:411] conv2_2_sum_bn -> conv2_2_sum_bn
I0703 18:05:30.364203 35376 net.cpp:150] Setting up conv2_2_sum_bn
I0703 18:05:30.364224 35376 net.cpp:157] Top shape: 32 256 54 54 (23887872)
I0703 18:05:30.364239 35376 net.cpp:165] Memory required for data: 1625088128
I0703 18:05:30.364259 35376 layer_factory.hpp:76] Creating layer conv2_2_sum_relu
I0703 18:05:30.364287 35376 net.cpp:106] Creating Layer conv2_2_sum_relu
I0703 18:05:30.364300 35376 net.cpp:454] conv2_2_sum_relu <- conv2_2_sum_bn
I0703 18:05:30.364315 35376 net.cpp:397] conv2_2_sum_relu -> conv2_2_sum_bn (in-place)
I0703 18:05:30.364776 35376 net.cpp:150] Setting up conv2_2_sum_relu
I0703 18:05:30.364804 35376 net.cpp:157] Top shape: 32 256 54 54 (23887872)
I0703 18:05:30.364820 35376 net.cpp:165] Memory required for data: 1720639616
I0703 18:05:30.364833 35376 layer_factory.hpp:76] Creating layer conv2_2_sum_bn_conv2_2_sum_relu_0_split
I0703 18:05:30.364863 35376 net.cpp:106] Creating Layer conv2_2_sum_bn_conv2_2_sum_relu_0_split
I0703 18:05:30.364877 35376 net.cpp:454] conv2_2_sum_bn_conv2_2_sum_relu_0_split <- conv2_2_sum_bn
I0703 18:05:30.364892 35376 net.cpp:411] conv2_2_sum_bn_conv2_2_sum_relu_0_split -> conv2_2_sum_bn_conv2_2_sum_relu_0_split_0
I0703 18:05:30.364925 35376 net.cpp:411] conv2_2_sum_bn_conv2_2_sum_relu_0_split -> conv2_2_sum_bn_conv2_2_sum_relu_0_split_1
I0703 18:05:30.364996 35376 net.cpp:150] Setting up conv2_2_sum_bn_conv2_2_sum_relu_0_split
I0703 18:05:30.365015 35376 net.cpp:157] Top shape: 32 256 54 54 (23887872)
I0703 18:05:30.365031 35376 net.cpp:157] Top shape: 32 256 54 54 (23887872)
I0703 18:05:30.365046 35376 net.cpp:165] Memory required for data: 1911742592
I0703 18:05:30.365058 35376 layer_factory.hpp:76] Creating layer conv2_3_1
I0703 18:05:30.365092 35376 net.cpp:106] Creating Layer conv2_3_1
I0703 18:05:30.365118 35376 net.cpp:454] conv2_3_1 <- conv2_2_sum_bn_conv2_2_sum_relu_0_split_0
I0703 18:05:30.365137 35376 net.cpp:411] conv2_3_1 -> conv2_3_1
I0703 18:05:30.367213 35376 net.cpp:150] Setting up conv2_3_1
I0703 18:05:30.367259 35376 net.cpp:157] Top shape: 32 64 54 54 (5971968)
I0703 18:05:30.367271 35376 net.cpp:165] Memory required for data: 1935630464
I0703 18:05:30.367290 35376 layer_factory.hpp:76] Creating layer conv2_3_1_bn
I0703 18:05:30.367327 35376 net.cpp:106] Creating Layer conv2_3_1_bn
I0703 18:05:30.367344 35376 net.cpp:454] conv2_3_1_bn <- conv2_3_1
I0703 18:05:30.367362 35376 net.cpp:411] conv2_3_1_bn -> conv2_3_1_bn
I0703 18:05:30.367671 35376 net.cpp:150] Setting up conv2_3_1_bn
I0703 18:05:30.367702 35376 net.cpp:157] Top shape: 32 64 54 54 (5971968)
I0703 18:05:30.367715 35376 net.cpp:165] Memory required for data: 1959518336
I0703 18:05:30.367734 35376 layer_factory.hpp:76] Creating layer conv2_3_1_relu
I0703 18:05:30.367765 35376 net.cpp:106] Creating Layer conv2_3_1_relu
I0703 18:05:30.367779 35376 net.cpp:454] conv2_3_1_relu <- conv2_3_1_bn
I0703 18:05:30.367794 35376 net.cpp:397] conv2_3_1_relu -> conv2_3_1_bn (in-place)
I0703 18:05:30.368106 35376 net.cpp:150] Setting up conv2_3_1_relu
I0703 18:05:30.368139 35376 net.cpp:157] Top shape: 32 64 54 54 (5971968)
I0703 18:05:30.368151 35376 net.cpp:165] Memory required for data: 1983406208
I0703 18:05:30.368163 35376 layer_factory.hpp:76] Creating layer conv2_3_2
I0703 18:05:30.368193 35376 net.cpp:106] Creating Layer conv2_3_2
I0703 18:05:30.368221 35376 net.cpp:454] conv2_3_2 <- conv2_3_1_bn
I0703 18:05:30.368239 35376 net.cpp:411] conv2_3_2 -> conv2_3_2
I0703 18:05:30.371194 35376 net.cpp:150] Setting up conv2_3_2
I0703 18:05:30.371237 35376 net.cpp:157] Top shape: 32 64 54 54 (5971968)
I0703 18:05:30.371249 35376 net.cpp:165] Memory required for data: 2007294080
I0703 18:05:30.371266 35376 layer_factory.hpp:76] Creating layer conv2_3_2_bn
I0703 18:05:30.371325 35376 net.cpp:106] Creating Layer conv2_3_2_bn
I0703 18:05:30.371340 35376 net.cpp:454] conv2_3_2_bn <- conv2_3_2
I0703 18:05:30.371361 35376 net.cpp:411] conv2_3_2_bn -> conv2_3_2_bn
I0703 18:05:30.371662 35376 net.cpp:150] Setting up conv2_3_2_bn
I0703 18:05:30.371693 35376 net.cpp:157] Top shape: 32 64 54 54 (5971968)
I0703 18:05:30.371706 35376 net.cpp:165] Memory required for data: 2031181952
I0703 18:05:30.371724 35376 layer_factory.hpp:76] Creating layer conv2_3_2_relu
I0703 18:05:30.371743 35376 net.cpp:106] Creating Layer conv2_3_2_relu
I0703 18:05:30.371759 35376 net.cpp:454] conv2_3_2_relu <- conv2_3_2_bn
I0703 18:05:30.371785 35376 net.cpp:397] conv2_3_2_relu -> conv2_3_2_bn (in-place)
I0703 18:05:30.372076 35376 net.cpp:150] Setting up conv2_3_2_relu
I0703 18:05:30.372107 35376 net.cpp:157] Top shape: 32 64 54 54 (5971968)
I0703 18:05:30.372120 35376 net.cpp:165] Memory required for data: 2055069824
I0703 18:05:30.372134 35376 layer_factory.hpp:76] Creating layer conv2_3_3
I0703 18:05:30.372155 35376 net.cpp:106] Creating Layer conv2_3_3
I0703 18:05:30.372181 35376 net.cpp:454] conv2_3_3 <- conv2_3_2_bn
I0703 18:05:30.372202 35376 net.cpp:411] conv2_3_3 -> conv2_3_3
I0703 18:05:30.373937 35376 cudnn_conv_layer.cpp:194] Reallocating workspace storage: 768
I0703 18:05:30.373987 35376 net.cpp:150] Setting up conv2_3_3
I0703 18:05:30.374001 35376 net.cpp:157] Top shape: 32 256 54 54 (23887872)
I0703 18:05:30.374008 35376 net.cpp:165] Memory required for data: 2150621312
I0703 18:05:30.374020 35376 layer_factory.hpp:76] Creating layer conv2_3_sum
I0703 18:05:30.374034 35376 net.cpp:106] Creating Layer conv2_3_sum
I0703 18:05:30.374043 35376 net.cpp:454] conv2_3_sum <- conv2_2_sum_bn_conv2_2_sum_relu_0_split_1
I0703 18:05:30.374053 35376 net.cpp:454] conv2_3_sum <- conv2_3_3
I0703 18:05:30.374064 35376 net.cpp:411] conv2_3_sum -> conv2_3_sum
I0703 18:05:30.374109 35376 net.cpp:150] Setting up conv2_3_sum
I0703 18:05:30.374124 35376 net.cpp:157] Top shape: 32 256 54 54 (23887872)
I0703 18:05:30.374131 35376 net.cpp:165] Memory required for data: 2246172800
I0703 18:05:30.374140 35376 layer_factory.hpp:76] Creating layer conv2_3_sum_bn
I0703 18:05:30.374153 35376 net.cpp:106] Creating Layer conv2_3_sum_bn
I0703 18:05:30.374162 35376 net.cpp:454] conv2_3_sum_bn <- conv2_3_sum
I0703 18:05:30.374174 35376 net.cpp:411] conv2_3_sum_bn -> conv2_3_sum_bn
I0703 18:05:30.374406 35376 net.cpp:150] Setting up conv2_3_sum_bn
I0703 18:05:30.374420 35376 net.cpp:157] Top shape: 32 256 54 54 (23887872)
I0703 18:05:30.374441 35376 net.cpp:165] Memory required for data: 2341724288
I0703 18:05:30.374454 35376 layer_factory.hpp:76] Creating layer conv2_3_sum_relu
I0703 18:05:30.374466 35376 net.cpp:106] Creating Layer conv2_3_sum_relu
I0703 18:05:30.374475 35376 net.cpp:454] conv2_3_sum_relu <- conv2_3_sum_bn
I0703 18:05:30.374485 35376 net.cpp:397] conv2_3_sum_relu -> conv2_3_sum_bn (in-place)
I0703 18:05:30.374825 35376 net.cpp:150] Setting up conv2_3_sum_relu
I0703 18:05:30.374855 35376 net.cpp:157] Top shape: 32 256 54 54 (23887872)
I0703 18:05:30.374864 35376 net.cpp:165] Memory required for data: 2437275776
I0703 18:05:30.374872 35376 layer_factory.hpp:76] Creating layer conv2_3_sum_bn_conv2_3_sum_relu_0_split
I0703 18:05:30.374883 35376 net.cpp:106] Creating Layer conv2_3_sum_bn_conv2_3_sum_relu_0_split
I0703 18:05:30.374891 35376 net.cpp:454] conv2_3_sum_bn_conv2_3_sum_relu_0_split <- conv2_3_sum_bn
I0703 18:05:30.374903 35376 net.cpp:411] conv2_3_sum_bn_conv2_3_sum_relu_0_split -> conv2_3_sum_bn_conv2_3_sum_relu_0_split_0
I0703 18:05:30.374915 35376 net.cpp:411] conv2_3_sum_bn_conv2_3_sum_relu_0_split -> conv2_3_sum_bn_conv2_3_sum_relu_0_split_1
I0703 18:05:30.374975 35376 net.cpp:150] Setting up conv2_3_sum_bn_conv2_3_sum_relu_0_split
I0703 18:05:30.375000 35376 net.cpp:157] Top shape: 32 256 54 54 (23887872)
I0703 18:05:30.375021 35376 net.cpp:157] Top shape: 32 256 54 54 (23887872)
I0703 18:05:30.375030 35376 net.cpp:165] Memory required for data: 2628378752
I0703 18:05:30.375061 35376 layer_factory.hpp:76] Creating layer conv2_output
I0703 18:05:30.375090 35376 net.cpp:106] Creating Layer conv2_output
I0703 18:05:30.375113 35376 net.cpp:454] conv2_output <- conv2_3_sum_bn_conv2_3_sum_relu_0_split_0
I0703 18:05:30.375123 35376 net.cpp:411] conv2_output -> conv2_output
I0703 18:05:30.381502 35376 cudnn_conv_layer.cpp:194] Reallocating workspace storage: 3072
I0703 18:05:30.381762 35376 net.cpp:150] Setting up conv2_output
I0703 18:05:30.381793 35376 net.cpp:157] Top shape: 32 512 27 27 (11943936)
I0703 18:05:30.381803 35376 net.cpp:165] Memory required for data: 2676154496
I0703 18:05:30.381819 35376 layer_factory.hpp:76] Creating layer conv3_1_1
I0703 18:05:30.381837 35376 net.cpp:106] Creating Layer conv3_1_1
I0703 18:05:30.381862 35376 net.cpp:454] conv3_1_1 <- conv2_3_sum_bn_conv2_3_sum_relu_0_split_1
I0703 18:05:30.381877 35376 net.cpp:411] conv3_1_1 -> conv3_1_1
I0703 18:05:30.383821 35376 cudnn_conv_layer.cpp:194] Reallocating workspace storage: 3072
I0703 18:05:30.383862 35376 net.cpp:150] Setting up conv3_1_1
I0703 18:05:30.383874 35376 net.cpp:157] Top shape: 32 128 27 27 (2985984)
I0703 18:05:30.383882 35376 net.cpp:165] Memory required for data: 2688098432
I0703 18:05:30.383895 35376 layer_factory.hpp:76] Creating layer conv3_1_1_bn
I0703 18:05:30.383913 35376 net.cpp:106] Creating Layer conv3_1_1_bn
I0703 18:05:30.383937 35376 net.cpp:454] conv3_1_1_bn <- conv3_1_1
I0703 18:05:30.383949 35376 net.cpp:411] conv3_1_1_bn -> conv3_1_1_bn
I0703 18:05:30.384182 35376 net.cpp:150] Setting up conv3_1_1_bn
I0703 18:05:30.384196 35376 net.cpp:157] Top shape: 32 128 27 27 (2985984)
I0703 18:05:30.384215 35376 net.cpp:165] Memory required for data: 2700042368
I0703 18:05:30.384228 35376 layer_factory.hpp:76] Creating layer conv3_1_1_relu
I0703 18:05:30.384241 35376 net.cpp:106] Creating Layer conv3_1_1_relu
I0703 18:05:30.384249 35376 net.cpp:454] conv3_1_1_relu <- conv3_1_1_bn
I0703 18:05:30.384263 35376 net.cpp:397] conv3_1_1_relu -> conv3_1_1_bn (in-place)
I0703 18:05:30.384649 35376 net.cpp:150] Setting up conv3_1_1_relu
I0703 18:05:30.384680 35376 net.cpp:157] Top shape: 32 128 27 27 (2985984)
I0703 18:05:30.384688 35376 net.cpp:165] Memory required for data: 2711986304
I0703 18:05:30.384696 35376 layer_factory.hpp:76] Creating layer conv3_1_2
I0703 18:05:30.384713 35376 net.cpp:106] Creating Layer conv3_1_2
I0703 18:05:30.384723 35376 net.cpp:454] conv3_1_2 <- conv3_1_1_bn
I0703 18:05:30.384737 35376 net.cpp:411] conv3_1_2 -> conv3_1_2
I0703 18:05:30.391260 35376 cudnn_conv_layer.cpp:194] Reallocating workspace storage: 13824
I0703 18:05:30.391528 35376 net.cpp:150] Setting up conv3_1_2
I0703 18:05:30.391561 35376 net.cpp:157] Top shape: 32 128 27 27 (2985984)
I0703 18:05:30.391569 35376 net.cpp:165] Memory required for data: 2723930240
I0703 18:05:30.391584 35376 layer_factory.hpp:76] Creating layer conv3_1_2_bn
I0703 18:05:30.391602 35376 net.cpp:106] Creating Layer conv3_1_2_bn
I0703 18:05:30.391628 35376 net.cpp:454] conv3_1_2_bn <- conv3_1_2
I0703 18:05:30.391639 35376 net.cpp:411] conv3_1_2_bn -> conv3_1_2_bn
I0703 18:05:30.391873 35376 net.cpp:150] Setting up conv3_1_2_bn
I0703 18:05:30.391886 35376 net.cpp:157] Top shape: 32 128 27 27 (2985984)
I0703 18:05:30.391906 35376 net.cpp:165] Memory required for data: 2735874176
I0703 18:05:30.391921 35376 layer_factory.hpp:76] Creating layer conv3_1_2_relu
I0703 18:05:30.391933 35376 net.cpp:106] Creating Layer conv3_1_2_relu
I0703 18:05:30.391942 35376 net.cpp:454] conv3_1_2_relu <- conv3_1_2_bn
I0703 18:05:30.391952 35376 net.cpp:397] conv3_1_2_relu -> conv3_1_2_bn (in-place)
I0703 18:05:30.392174 35376 net.cpp:150] Setting up conv3_1_2_relu
I0703 18:05:30.392189 35376 net.cpp:157] Top shape: 32 128 27 27 (2985984)
I0703 18:05:30.392210 35376 net.cpp:165] Memory required for data: 2747818112
I0703 18:05:30.392217 35376 layer_factory.hpp:76] Creating layer conv3_1_3
I0703 18:05:30.392235 35376 net.cpp:106] Creating Layer conv3_1_3
I0703 18:05:30.392244 35376 net.cpp:454] conv3_1_3 <- conv3_1_2_bn
I0703 18:05:30.392292 35376 net.cpp:411] conv3_1_3 -> conv3_1_3
I0703 18:05:30.395412 35376 cudnn_conv_layer.cpp:194] Reallocating workspace storage: 1536
I0703 18:05:30.395462 35376 net.cpp:150] Setting up conv3_1_3
I0703 18:05:30.395475 35376 net.cpp:157] Top shape: 32 512 27 27 (11943936)
I0703 18:05:30.395484 35376 net.cpp:165] Memory required for data: 2795593856
I0703 18:05:30.395514 35376 layer_factory.hpp:76] Creating layer conv3_1_sum
I0703 18:05:30.395544 35376 net.cpp:106] Creating Layer conv3_1_sum
I0703 18:05:30.395552 35376 net.cpp:454] conv3_1_sum <- conv2_output
I0703 18:05:30.395562 35376 net.cpp:454] conv3_1_sum <- conv3_1_3
I0703 18:05:30.395576 35376 net.cpp:411] conv3_1_sum -> conv3_1_sum
I0703 18:05:30.395614 35376 net.cpp:150] Setting up conv3_1_sum
I0703 18:05:30.395640 35376 net.cpp:157] Top shape: 32 512 27 27 (11943936)
I0703 18:05:30.395660 35376 net.cpp:165] Memory required for data: 2843369600
I0703 18:05:30.395668 35376 layer_factory.hpp:76] Creating layer conv3_1_sum_bn
I0703 18:05:30.395683 35376 net.cpp:106] Creating Layer conv3_1_sum_bn
I0703 18:05:30.395691 35376 net.cpp:454] conv3_1_sum_bn <- conv3_1_sum
I0703 18:05:30.395714 35376 net.cpp:411] conv3_1_sum_bn -> conv3_1_sum_bn
I0703 18:05:30.395946 35376 net.cpp:150] Setting up conv3_1_sum_bn
I0703 18:05:30.395959 35376 net.cpp:157] Top shape: 32 512 27 27 (11943936)
I0703 18:05:30.395978 35376 net.cpp:165] Memory required for data: 2891145344
I0703 18:05:30.395990 35376 layer_factory.hpp:76] Creating layer conv3_1_sum_relu
I0703 18:05:30.396003 35376 net.cpp:106] Creating Layer conv3_1_sum_relu
I0703 18:05:30.396010 35376 net.cpp:454] conv3_1_sum_relu <- conv3_1_sum_bn
I0703 18:05:30.396019 35376 net.cpp:397] conv3_1_sum_relu -> conv3_1_sum_bn (in-place)
I0703 18:05:30.396378 35376 net.cpp:150] Setting up conv3_1_sum_relu
I0703 18:05:30.396407 35376 net.cpp:157] Top shape: 32 512 27 27 (11943936)
I0703 18:05:30.396416 35376 net.cpp:165] Memory required for data: 2938921088
I0703 18:05:30.396430 35376 layer_factory.hpp:76] Creating layer conv3_1_sum_bn_conv3_1_sum_relu_0_split
I0703 18:05:30.396445 35376 net.cpp:106] Creating Layer conv3_1_sum_bn_conv3_1_sum_relu_0_split
I0703 18:05:30.396453 35376 net.cpp:454] conv3_1_sum_bn_conv3_1_sum_relu_0_split <- conv3_1_sum_bn
I0703 18:05:30.396473 35376 net.cpp:411] conv3_1_sum_bn_conv3_1_sum_relu_0_split -> conv3_1_sum_bn_conv3_1_sum_relu_0_split_0
I0703 18:05:30.396492 35376 net.cpp:411] conv3_1_sum_bn_conv3_1_sum_relu_0_split -> conv3_1_sum_bn_conv3_1_sum_relu_0_split_1
I0703 18:05:30.396564 35376 net.cpp:150] Setting up conv3_1_sum_bn_conv3_1_sum_relu_0_split
I0703 18:05:30.396589 35376 net.cpp:157] Top shape: 32 512 27 27 (11943936)
I0703 18:05:30.396610 35376 net.cpp:157] Top shape: 32 512 27 27 (11943936)
I0703 18:05:30.396620 35376 net.cpp:165] Memory required for data: 3034472576
I0703 18:05:30.396627 35376 layer_factory.hpp:76] Creating layer conv3_2_1
I0703 18:05:30.396644 35376 net.cpp:106] Creating Layer conv3_2_1
I0703 18:05:30.396663 35376 net.cpp:454] conv3_2_1 <- conv3_1_sum_bn_conv3_1_sum_relu_0_split_0
I0703 18:05:30.396673 35376 net.cpp:411] conv3_2_1 -> conv3_2_1
I0703 18:05:30.400389 35376 cudnn_conv_layer.cpp:194] Reallocating workspace storage: 6144
I0703 18:05:30.400470 35376 net.cpp:150] Setting up conv3_2_1
I0703 18:05:30.400486 35376 net.cpp:157] Top shape: 32 128 27 27 (2985984)
I0703 18:05:30.400496 35376 net.cpp:165] Memory required for data: 3046416512
I0703 18:05:30.400521 35376 layer_factory.hpp:76] Creating layer conv3_2_1_bn
I0703 18:05:30.400557 35376 net.cpp:106] Creating Layer conv3_2_1_bn
I0703 18:05:30.400568 35376 net.cpp:454] conv3_2_1_bn <- conv3_2_1
I0703 18:05:30.400583 35376 net.cpp:411] conv3_2_1_bn -> conv3_2_1_bn
I0703 18:05:30.400818 35376 net.cpp:150] Setting up conv3_2_1_bn
I0703 18:05:30.400831 35376 net.cpp:157] Top shape: 32 128 27 27 (2985984)
I0703 18:05:30.400851 35376 net.cpp:165] Memory required for data: 3058360448
I0703 18:05:30.400864 35376 layer_factory.hpp:76] Creating layer conv3_2_1_relu
I0703 18:05:30.400876 35376 net.cpp:106] Creating Layer conv3_2_1_relu
I0703 18:05:30.400908 35376 net.cpp:454] conv3_2_1_relu <- conv3_2_1_bn
I0703 18:05:30.400933 35376 net.cpp:397] conv3_2_1_relu -> conv3_2_1_bn (in-place)
I0703 18:05:30.401480 35376 net.cpp:150] Setting up conv3_2_1_relu
I0703 18:05:30.401500 35376 net.cpp:157] Top shape: 32 128 27 27 (2985984)
I0703 18:05:30.401510 35376 net.cpp:165] Memory required for data: 3070304384
I0703 18:05:30.401517 35376 layer_factory.hpp:76] Creating layer conv3_2_2
I0703 18:05:30.401535 35376 net.cpp:106] Creating Layer conv3_2_2
I0703 18:05:30.401546 35376 net.cpp:454] conv3_2_2 <- conv3_2_1_bn
I0703 18:05:30.401572 35376 net.cpp:411] conv3_2_2 -> conv3_2_2
I0703 18:05:30.407976 35376 cudnn_conv_layer.cpp:194] Reallocating workspace storage: 13824
I0703 18:05:30.408042 35376 net.cpp:150] Setting up conv3_2_2
I0703 18:05:30.408058 35376 net.cpp:157] Top shape: 32 128 27 27 (2985984)
I0703 18:05:30.408066 35376 net.cpp:165] Memory required for data: 3082248320
I0703 18:05:30.408080 35376 layer_factory.hpp:76] Creating layer conv3_2_2_bn
I0703 18:05:30.408098 35376 net.cpp:106] Creating Layer conv3_2_2_bn
I0703 18:05:30.408128 35376 net.cpp:454] conv3_2_2_bn <- conv3_2_2
I0703 18:05:30.408140 35376 net.cpp:411] conv3_2_2_bn -> conv3_2_2_bn
I0703 18:05:30.408377 35376 net.cpp:150] Setting up conv3_2_2_bn
I0703 18:05:30.408391 35376 net.cpp:157] Top shape: 32 128 27 27 (2985984)
I0703 18:05:30.408411 35376 net.cpp:165] Memory required for data: 3094192256
I0703 18:05:30.408430 35376 layer_factory.hpp:76] Creating layer conv3_2_2_relu
I0703 18:05:30.408457 35376 net.cpp:106] Creating Layer conv3_2_2_relu
I0703 18:05:30.408468 35376 net.cpp:454] conv3_2_2_relu <- conv3_2_2_bn
I0703 18:05:30.408476 35376 net.cpp:397] conv3_2_2_relu -> conv3_2_2_bn (in-place)
I0703 18:05:30.408689 35376 net.cpp:150] Setting up conv3_2_2_relu
I0703 18:05:30.408716 35376 net.cpp:157] Top shape: 32 128 27 27 (2985984)
I0703 18:05:30.408737 35376 net.cpp:165] Memory required for data: 3106136192
I0703 18:05:30.408746 35376 layer_factory.hpp:76] Creating layer conv3_2_3
I0703 18:05:30.408763 35376 net.cpp:106] Creating Layer conv3_2_3
I0703 18:05:30.408772 35376 net.cpp:454] conv3_2_3 <- conv3_2_2_bn
I0703 18:05:30.408785 35376 net.cpp:411] conv3_2_3 -> conv3_2_3
I0703 18:05:30.412030 35376 cudnn_conv_layer.cpp:194] Reallocating workspace storage: 1536
I0703 18:05:30.412082 35376 net.cpp:150] Setting up conv3_2_3
I0703 18:05:30.412096 35376 net.cpp:157] Top shape: 32 512 27 27 (11943936)
I0703 18:05:30.412104 35376 net.cpp:165] Memory required for data: 3153911936
I0703 18:05:30.412117 35376 layer_factory.hpp:76] Creating layer conv3_2_sum
I0703 18:05:30.412132 35376 net.cpp:106] Creating Layer conv3_2_sum
I0703 18:05:30.412142 35376 net.cpp:454] conv3_2_sum <- conv3_1_sum_bn_conv3_1_sum_relu_0_split_1
I0703 18:05:30.412152 35376 net.cpp:454] conv3_2_sum <- conv3_2_3
I0703 18:05:30.412163 35376 net.cpp:411] conv3_2_sum -> conv3_2_sum
I0703 18:05:30.412210 35376 net.cpp:150] Setting up conv3_2_sum
I0703 18:05:30.412225 35376 net.cpp:157] Top shape: 32 512 27 27 (11943936)
I0703 18:05:30.412232 35376 net.cpp:165] Memory required for data: 3201687680
I0703 18:05:30.412240 35376 layer_factory.hpp:76] Creating layer conv3_2_sum_bn
I0703 18:05:30.412252 35376 net.cpp:106] Creating Layer conv3_2_sum_bn
I0703 18:05:30.412261 35376 net.cpp:454] conv3_2_sum_bn <- conv3_2_sum
I0703 18:05:30.412272 35376 net.cpp:411] conv3_2_sum_bn -> conv3_2_sum_bn
I0703 18:05:30.412561 35376 net.cpp:150] Setting up conv3_2_sum_bn
I0703 18:05:30.412586 35376 net.cpp:157] Top shape: 32 512 27 27 (11943936)
I0703 18:05:30.412595 35376 net.cpp:165] Memory required for data: 3249463424
I0703 18:05:30.412607 35376 layer_factory.hpp:76] Creating layer conv3_2_sum_relu
I0703 18:05:30.412621 35376 net.cpp:106] Creating Layer conv3_2_sum_relu
I0703 18:05:30.412631 35376 net.cpp:454] conv3_2_sum_relu <- conv3_2_sum_bn
I0703 18:05:30.412639 35376 net.cpp:397] conv3_2_sum_relu -> conv3_2_sum_bn (in-place)
I0703 18:05:30.412986 35376 net.cpp:150] Setting up conv3_2_sum_relu
I0703 18:05:30.413038 35376 net.cpp:157] Top shape: 32 512 27 27 (11943936)
I0703 18:05:30.413048 35376 net.cpp:165] Memory required for data: 3297239168
I0703 18:05:30.413056 35376 layer_factory.hpp:76] Creating layer conv3_2_sum_bn_conv3_2_sum_relu_0_split
I0703 18:05:30.413070 35376 net.cpp:106] Creating Layer conv3_2_sum_bn_conv3_2_sum_relu_0_split
I0703 18:05:30.413079 35376 net.cpp:454] conv3_2_sum_bn_conv3_2_sum_relu_0_split <- conv3_2_sum_bn
I0703 18:05:30.413089 35376 net.cpp:411] conv3_2_sum_bn_conv3_2_sum_relu_0_split -> conv3_2_sum_bn_conv3_2_sum_relu_0_split_0
I0703 18:05:30.413100 35376 net.cpp:411] conv3_2_sum_bn_conv3_2_sum_relu_0_split -> conv3_2_sum_bn_conv3_2_sum_relu_0_split_1
I0703 18:05:30.413167 35376 net.cpp:150] Setting up conv3_2_sum_bn_conv3_2_sum_relu_0_split
I0703 18:05:30.413192 35376 net.cpp:157] Top shape: 32 512 27 27 (11943936)
I0703 18:05:30.413214 35376 net.cpp:157] Top shape: 32 512 27 27 (11943936)
I0703 18:05:30.413223 35376 net.cpp:165] Memory required for data: 3392790656
I0703 18:05:30.413230 35376 layer_factory.hpp:76] Creating layer conv3_3_1
I0703 18:05:30.413247 35376 net.cpp:106] Creating Layer conv3_3_1
I0703 18:05:30.413255 35376 net.cpp:454] conv3_3_1 <- conv3_2_sum_bn_conv3_2_sum_relu_0_split_0
I0703 18:05:30.413278 35376 net.cpp:411] conv3_3_1 -> conv3_3_1
I0703 18:05:30.416209 35376 cudnn_conv_layer.cpp:194] Reallocating workspace storage: 6144
I0703 18:05:30.416261 35376 net.cpp:150] Setting up conv3_3_1
I0703 18:05:30.416288 35376 net.cpp:157] Top shape: 32 128 27 27 (2985984)
I0703 18:05:30.416297 35376 net.cpp:165] Memory required for data: 3404734592
I0703 18:05:30.416309 35376 layer_factory.hpp:76] Creating layer conv3_3_1_bn
I0703 18:05:30.416347 35376 net.cpp:106] Creating Layer conv3_3_1_bn
I0703 18:05:30.416357 35376 net.cpp:454] conv3_3_1_bn <- conv3_3_1
I0703 18:05:30.416366 35376 net.cpp:411] conv3_3_1_bn -> conv3_3_1_bn
I0703 18:05:30.416589 35376 net.cpp:150] Setting up conv3_3_1_bn
I0703 18:05:30.416615 35376 net.cpp:157] Top shape: 32 128 27 27 (2985984)
I0703 18:05:30.416622 35376 net.cpp:165] Memory required for data: 3416678528
I0703 18:05:30.416635 35376 layer_factory.hpp:76] Creating layer conv3_3_1_relu
I0703 18:05:30.416648 35376 net.cpp:106] Creating Layer conv3_3_1_relu
I0703 18:05:30.416657 35376 net.cpp:454] conv3_3_1_relu <- conv3_3_1_bn
I0703 18:05:30.416666 35376 net.cpp:397] conv3_3_1_relu -> conv3_3_1_bn (in-place)
I0703 18:05:30.416992 35376 net.cpp:150] Setting up conv3_3_1_relu
I0703 18:05:30.417023 35376 net.cpp:157] Top shape: 32 128 27 27 (2985984)
I0703 18:05:30.417032 35376 net.cpp:165] Memory required for data: 3428622464
I0703 18:05:30.417039 35376 layer_factory.hpp:76] Creating layer conv3_3_2
I0703 18:05:30.417057 35376 net.cpp:106] Creating Layer conv3_3_2
I0703 18:05:30.417065 35376 net.cpp:454] conv3_3_2 <- conv3_3_1_bn
I0703 18:05:30.417075 35376 net.cpp:411] conv3_3_2 -> conv3_3_2
I0703 18:05:30.423586 35376 cudnn_conv_layer.cpp:194] Reallocating workspace storage: 13824
I0703 18:05:30.423650 35376 net.cpp:150] Setting up conv3_3_2
I0703 18:05:30.423666 35376 net.cpp:157] Top shape: 32 128 27 27 (2985984)
I0703 18:05:30.423674 35376 net.cpp:165] Memory required for data: 3440566400
I0703 18:05:30.423689 35376 layer_factory.hpp:76] Creating layer conv3_3_2_bn
I0703 18:05:30.423705 35376 net.cpp:106] Creating Layer conv3_3_2_bn
I0703 18:05:30.423715 35376 net.cpp:454] conv3_3_2_bn <- conv3_3_2
I0703 18:05:30.423732 35376 net.cpp:411] conv3_3_2_bn -> conv3_3_2_bn
I0703 18:05:30.424016 35376 net.cpp:150] Setting up conv3_3_2_bn
I0703 18:05:30.424032 35376 net.cpp:157] Top shape: 32 128 27 27 (2985984)
I0703 18:05:30.424052 35376 net.cpp:165] Memory required for data: 3452510336
I0703 18:05:30.424067 35376 layer_factory.hpp:76] Creating layer conv3_3_2_relu
I0703 18:05:30.424080 35376 net.cpp:106] Creating Layer conv3_3_2_relu
I0703 18:05:30.424089 35376 net.cpp:454] conv3_3_2_relu <- conv3_3_2_bn
I0703 18:05:30.424099 35376 net.cpp:397] conv3_3_2_relu -> conv3_3_2_bn (in-place)
I0703 18:05:30.424295 35376 net.cpp:150] Setting up conv3_3_2_relu
I0703 18:05:30.424345 35376 net.cpp:157] Top shape: 32 128 27 27 (2985984)
I0703 18:05:30.424355 35376 net.cpp:165] Memory required for data: 3464454272
I0703 18:05:30.424362 35376 layer_factory.hpp:76] Creating layer conv3_3_3
I0703 18:05:30.424379 35376 net.cpp:106] Creating Layer conv3_3_3
I0703 18:05:30.424388 35376 net.cpp:454] conv3_3_3 <- conv3_3_2_bn
I0703 18:05:30.424401 35376 net.cpp:411] conv3_3_3 -> conv3_3_3
I0703 18:05:30.427642 35376 cudnn_conv_layer.cpp:194] Reallocating workspace storage: 1536
I0703 18:05:30.427692 35376 net.cpp:150] Setting up conv3_3_3
I0703 18:05:30.427706 35376 net.cpp:157] Top shape: 32 512 27 27 (11943936)
I0703 18:05:30.427714 35376 net.cpp:165] Memory required for data: 3512230016
I0703 18:05:30.427726 35376 layer_factory.hpp:76] Creating layer conv3_3_sum
I0703 18:05:30.427742 35376 net.cpp:106] Creating Layer conv3_3_sum
I0703 18:05:30.427752 35376 net.cpp:454] conv3_3_sum <- conv3_2_sum_bn_conv3_2_sum_relu_0_split_1
I0703 18:05:30.427764 35376 net.cpp:454] conv3_3_sum <- conv3_3_3
I0703 18:05:30.427775 35376 net.cpp:411] conv3_3_sum -> conv3_3_sum
I0703 18:05:30.427812 35376 net.cpp:150] Setting up conv3_3_sum
I0703 18:05:30.427825 35376 net.cpp:157] Top shape: 32 512 27 27 (11943936)
I0703 18:05:30.427834 35376 net.cpp:165] Memory required for data: 3560005760
I0703 18:05:30.427844 35376 layer_factory.hpp:76] Creating layer conv3_3_sum_bn
I0703 18:05:30.427856 35376 net.cpp:106] Creating Layer conv3_3_sum_bn
I0703 18:05:30.427865 35376 net.cpp:454] conv3_3_sum_bn <- conv3_3_sum
I0703 18:05:30.427876 35376 net.cpp:411] conv3_3_sum_bn -> conv3_3_sum_bn
I0703 18:05:30.428097 35376 net.cpp:150] Setting up conv3_3_sum_bn
I0703 18:05:30.428110 35376 net.cpp:157] Top shape: 32 512 27 27 (11943936)
I0703 18:05:30.428130 35376 net.cpp:165] Memory required for data: 3607781504
I0703 18:05:30.428143 35376 layer_factory.hpp:76] Creating layer conv3_3_sum_relu
I0703 18:05:30.428156 35376 net.cpp:106] Creating Layer conv3_3_sum_relu
I0703 18:05:30.428165 35376 net.cpp:454] conv3_3_sum_relu <- conv3_3_sum_bn
I0703 18:05:30.428174 35376 net.cpp:397] conv3_3_sum_relu -> conv3_3_sum_bn (in-place)
I0703 18:05:30.428525 35376 net.cpp:150] Setting up conv3_3_sum_relu
I0703 18:05:30.428546 35376 net.cpp:157] Top shape: 32 512 27 27 (11943936)
I0703 18:05:30.428555 35376 net.cpp:165] Memory required for data: 3655557248
I0703 18:05:30.428565 35376 layer_factory.hpp:76] Creating layer conv3_3_sum_bn_conv3_3_sum_relu_0_split
I0703 18:05:30.428577 35376 net.cpp:106] Creating Layer conv3_3_sum_bn_conv3_3_sum_relu_0_split
I0703 18:05:30.428587 35376 net.cpp:454] conv3_3_sum_bn_conv3_3_sum_relu_0_split <- conv3_3_sum_bn
I0703 18:05:30.428597 35376 net.cpp:411] conv3_3_sum_bn_conv3_3_sum_relu_0_split -> conv3_3_sum_bn_conv3_3_sum_relu_0_split_0
I0703 18:05:30.428609 35376 net.cpp:411] conv3_3_sum_bn_conv3_3_sum_relu_0_split -> conv3_3_sum_bn_conv3_3_sum_relu_0_split_1
I0703 18:05:30.428664 35376 net.cpp:150] Setting up conv3_3_sum_bn_conv3_3_sum_relu_0_split
I0703 18:05:30.428678 35376 net.cpp:157] Top shape: 32 512 27 27 (11943936)
I0703 18:05:30.428686 35376 net.cpp:157] Top shape: 32 512 27 27 (11943936)
I0703 18:05:30.428694 35376 net.cpp:165] Memory required for data: 3751108736
I0703 18:05:30.428702 35376 layer_factory.hpp:76] Creating layer conv3_4_1
I0703 18:05:30.428719 35376 net.cpp:106] Creating Layer conv3_4_1
I0703 18:05:30.428728 35376 net.cpp:454] conv3_4_1 <- conv3_3_sum_bn_conv3_3_sum_relu_0_split_0
I0703 18:05:30.428740 35376 net.cpp:411] conv3_4_1 -> conv3_4_1
I0703 18:05:30.432466 35376 cudnn_conv_layer.cpp:194] Reallocating workspace storage: 6144
I0703 18:05:30.432530 35376 net.cpp:150] Setting up conv3_4_1
I0703 18:05:30.432544 35376 net.cpp:157] Top shape: 32 128 27 27 (2985984)
I0703 18:05:30.432554 35376 net.cpp:165] Memory required for data: 3763052672
I0703 18:05:30.432567 35376 layer_factory.hpp:76] Creating layer conv3_4_1_bn
I0703 18:05:30.432584 35376 net.cpp:106] Creating Layer conv3_4_1_bn
I0703 18:05:30.432595 35376 net.cpp:454] conv3_4_1_bn <- conv3_4_1
I0703 18:05:30.432636 35376 net.cpp:411] conv3_4_1_bn -> conv3_4_1_bn
I0703 18:05:30.432881 35376 net.cpp:150] Setting up conv3_4_1_bn
I0703 18:05:30.432909 35376 net.cpp:157] Top shape: 32 128 27 27 (2985984)
I0703 18:05:30.432916 35376 net.cpp:165] Memory required for data: 3774996608
I0703 18:05:30.432929 35376 layer_factory.hpp:76] Creating layer conv3_4_1_relu
I0703 18:05:30.432941 35376 net.cpp:106] Creating Layer conv3_4_1_relu
I0703 18:05:30.432950 35376 net.cpp:454] conv3_4_1_relu <- conv3_4_1_bn
I0703 18:05:30.432960 35376 net.cpp:397] conv3_4_1_relu -> conv3_4_1_bn (in-place)
I0703 18:05:30.433322 35376 net.cpp:150] Setting up conv3_4_1_relu
I0703 18:05:30.433353 35376 net.cpp:157] Top shape: 32 128 27 27 (2985984)
I0703 18:05:30.433362 35376 net.cpp:165] Memory required for data: 3786940544
I0703 18:05:30.433372 35376 layer_factory.hpp:76] Creating layer conv3_4_2
I0703 18:05:30.433388 35376 net.cpp:106] Creating Layer conv3_4_2
I0703 18:05:30.433398 35376 net.cpp:454] conv3_4_2 <- conv3_4_1_bn
I0703 18:05:30.433410 35376 net.cpp:411] conv3_4_2 -> conv3_4_2
I0703 18:05:30.439898 35376 cudnn_conv_layer.cpp:194] Reallocating workspace storage: 13824
I0703 18:05:30.439961 35376 net.cpp:150] Setting up conv3_4_2
I0703 18:05:30.439976 35376 net.cpp:157] Top shape: 32 128 27 27 (2985984)
I0703 18:05:30.439985 35376 net.cpp:165] Memory required for data: 3798884480
I0703 18:05:30.439999 35376 layer_factory.hpp:76] Creating layer conv3_4_2_bn
I0703 18:05:30.440017 35376 net.cpp:106] Creating Layer conv3_4_2_bn
I0703 18:05:30.440028 35376 net.cpp:454] conv3_4_2_bn <- conv3_4_2
I0703 18:05:30.440039 35376 net.cpp:411] conv3_4_2_bn -> conv3_4_2_bn
I0703 18:05:30.440279 35376 net.cpp:150] Setting up conv3_4_2_bn
I0703 18:05:30.440294 35376 net.cpp:157] Top shape: 32 128 27 27 (2985984)
I0703 18:05:30.440313 35376 net.cpp:165] Memory required for data: 3810828416
I0703 18:05:30.440326 35376 layer_factory.hpp:76] Creating layer conv3_4_2_relu
I0703 18:05:30.440338 35376 net.cpp:106] Creating Layer conv3_4_2_relu
I0703 18:05:30.440346 35376 net.cpp:454] conv3_4_2_relu <- conv3_4_2_bn
I0703 18:05:30.440357 35376 net.cpp:397] conv3_4_2_relu -> conv3_4_2_bn (in-place)
I0703 18:05:30.440568 35376 net.cpp:150] Setting up conv3_4_2_relu
I0703 18:05:30.440584 35376 net.cpp:157] Top shape: 32 128 27 27 (2985984)
I0703 18:05:30.440604 35376 net.cpp:165] Memory required for data: 3822772352
I0703 18:05:30.440613 35376 layer_factory.hpp:76] Creating layer conv3_4_3
I0703 18:05:30.440631 35376 net.cpp:106] Creating Layer conv3_4_3
I0703 18:05:30.440640 35376 net.cpp:454] conv3_4_3 <- conv3_4_2_bn
I0703 18:05:30.440654 35376 net.cpp:411] conv3_4_3 -> conv3_4_3
I0703 18:05:30.443919 35376 cudnn_conv_layer.cpp:194] Reallocating workspace storage: 1536
I0703 18:05:30.443976 35376 net.cpp:150] Setting up conv3_4_3
I0703 18:05:30.443990 35376 net.cpp:157] Top shape: 32 512 27 27 (11943936)
I0703 18:05:30.444000 35376 net.cpp:165] Memory required for data: 3870548096
I0703 18:05:30.444015 35376 layer_factory.hpp:76] Creating layer conv3_4_sum
I0703 18:05:30.444030 35376 net.cpp:106] Creating Layer conv3_4_sum
I0703 18:05:30.444039 35376 net.cpp:454] conv3_4_sum <- conv3_3_sum_bn_conv3_3_sum_relu_0_split_1
I0703 18:05:30.444049 35376 net.cpp:454] conv3_4_sum <- conv3_4_3
I0703 18:05:30.444061 35376 net.cpp:411] conv3_4_sum -> conv3_4_sum
I0703 18:05:30.444098 35376 net.cpp:150] Setting up conv3_4_sum
I0703 18:05:30.444111 35376 net.cpp:157] Top shape: 32 512 27 27 (11943936)
I0703 18:05:30.444119 35376 net.cpp:165] Memory required for data: 3918323840
I0703 18:05:30.444128 35376 layer_factory.hpp:76] Creating layer conv3_4_sum_bn
I0703 18:05:30.444142 35376 net.cpp:106] Creating Layer conv3_4_sum_bn
I0703 18:05:30.444151 35376 net.cpp:454] conv3_4_sum_bn <- conv3_4_sum
I0703 18:05:30.444161 35376 net.cpp:411] conv3_4_sum_bn -> conv3_4_sum_bn
I0703 18:05:30.444391 35376 net.cpp:150] Setting up conv3_4_sum_bn
I0703 18:05:30.444406 35376 net.cpp:157] Top shape: 32 512 27 27 (11943936)
I0703 18:05:30.444438 35376 net.cpp:165] Memory required for data: 3966099584
I0703 18:05:30.444475 35376 layer_factory.hpp:76] Creating layer conv3_4_sum_relu
I0703 18:05:30.444507 35376 net.cpp:106] Creating Layer conv3_4_sum_relu
I0703 18:05:30.444524 35376 net.cpp:454] conv3_4_sum_relu <- conv3_4_sum_bn
I0703 18:05:30.444535 35376 net.cpp:397] conv3_4_sum_relu -> conv3_4_sum_bn (in-place)
I0703 18:05:30.445217 35376 net.cpp:150] Setting up conv3_4_sum_relu
I0703 18:05:30.445235 35376 net.cpp:157] Top shape: 32 512 27 27 (11943936)
I0703 18:05:30.445241 35376 net.cpp:165] Memory required for data: 4013875328
I0703 18:05:30.445248 35376 layer_factory.hpp:76] Creating layer conv3_4_sum_bn_conv3_4_sum_relu_0_split
I0703 18:05:30.445262 35376 net.cpp:106] Creating Layer conv3_4_sum_bn_conv3_4_sum_relu_0_split
I0703 18:05:30.445271 35376 net.cpp:454] conv3_4_sum_bn_conv3_4_sum_relu_0_split <- conv3_4_sum_bn
I0703 18:05:30.445281 35376 net.cpp:411] conv3_4_sum_bn_conv3_4_sum_relu_0_split -> conv3_4_sum_bn_conv3_4_sum_relu_0_split_0
I0703 18:05:30.445296 35376 net.cpp:411] conv3_4_sum_bn_conv3_4_sum_relu_0_split -> conv3_4_sum_bn_conv3_4_sum_relu_0_split_1
I0703 18:05:30.445364 35376 net.cpp:150] Setting up conv3_4_sum_bn_conv3_4_sum_relu_0_split
I0703 18:05:30.445375 35376 net.cpp:157] Top shape: 32 512 27 27 (11943936)
I0703 18:05:30.445384 35376 net.cpp:157] Top shape: 32 512 27 27 (11943936)
I0703 18:05:30.445389 35376 net.cpp:165] Memory required for data: 4109426816
I0703 18:05:30.445395 35376 layer_factory.hpp:76] Creating layer conv3_5_1
I0703 18:05:30.445420 35376 net.cpp:106] Creating Layer conv3_5_1
I0703 18:05:30.445432 35376 net.cpp:454] conv3_5_1 <- conv3_4_sum_bn_conv3_4_sum_relu_0_split_0
I0703 18:05:30.445449 35376 net.cpp:411] conv3_5_1 -> conv3_5_1
I0703 18:05:30.449970 35376 cudnn_conv_layer.cpp:194] Reallocating workspace storage: 6144
I0703 18:05:30.450037 35376 net.cpp:150] Setting up conv3_5_1
I0703 18:05:30.450073 35376 net.cpp:157] Top shape: 32 128 27 27 (2985984)
I0703 18:05:30.450088 35376 net.cpp:165] Memory required for data: 4121370752
I0703 18:05:30.450110 35376 layer_factory.hpp:76] Creating layer conv3_5_1_bn
I0703 18:05:30.450139 35376 net.cpp:106] Creating Layer conv3_5_1_bn
I0703 18:05:30.450157 35376 net.cpp:454] conv3_5_1_bn <- conv3_5_1
I0703 18:05:30.450177 35376 net.cpp:411] conv3_5_1_bn -> conv3_5_1_bn
I0703 18:05:30.450573 35376 net.cpp:150] Setting up conv3_5_1_bn
I0703 18:05:30.450610 35376 net.cpp:157] Top shape: 32 128 27 27 (2985984)
I0703 18:05:30.450628 35376 net.cpp:165] Memory required for data: 4133314688
I0703 18:05:30.450654 35376 layer_factory.hpp:76] Creating layer conv3_5_1_relu
I0703 18:05:30.450692 35376 net.cpp:106] Creating Layer conv3_5_1_relu
I0703 18:05:30.450711 35376 net.cpp:454] conv3_5_1_relu <- conv3_5_1_bn
I0703 18:05:30.450736 35376 net.cpp:397] conv3_5_1_relu -> conv3_5_1_bn (in-place)
I0703 18:05:30.451287 35376 net.cpp:150] Setting up conv3_5_1_relu
I0703 18:05:30.451328 35376 net.cpp:157] Top shape: 32 128 27 27 (2985984)
I0703 18:05:30.451344 35376 net.cpp:165] Memory required for data: 4145258624
I0703 18:05:30.451373 35376 layer_factory.hpp:76] Creating layer conv3_5_2
I0703 18:05:30.451416 35376 net.cpp:106] Creating Layer conv3_5_2
I0703 18:05:30.451436 35376 net.cpp:454] conv3_5_2 <- conv3_5_1_bn
I0703 18:05:30.451459 35376 net.cpp:411] conv3_5_2 -> conv3_5_2
I0703 18:05:30.464711 35376 cudnn_conv_layer.cpp:194] Reallocating workspace storage: 13824
I0703 18:05:30.464794 35376 net.cpp:150] Setting up conv3_5_2
I0703 18:05:30.464818 35376 net.cpp:157] Top shape: 32 128 27 27 (2985984)
I0703 18:05:30.464833 35376 net.cpp:165] Memory required for data: 4157202560
I0703 18:05:30.464855 35376 layer_factory.hpp:76] Creating layer conv3_5_2_bn
I0703 18:05:30.464902 35376 net.cpp:106] Creating Layer conv3_5_2_bn
I0703 18:05:30.464922 35376 net.cpp:454] conv3_5_2_bn <- conv3_5_2
I0703 18:05:30.464942 35376 net.cpp:411] conv3_5_2_bn -> conv3_5_2_bn
I0703 18:05:30.465288 35376 net.cpp:150] Setting up conv3_5_2_bn
I0703 18:05:30.465322 35376 net.cpp:157] Top shape: 32 128 27 27 (2985984)
I0703 18:05:30.465333 35376 net.cpp:165] Memory required for data: 4169146496
I0703 18:05:30.465400 35376 layer_factory.hpp:76] Creating layer conv3_5_2_relu
I0703 18:05:30.465421 35376 net.cpp:106] Creating Layer conv3_5_2_relu
I0703 18:05:30.465435 35376 net.cpp:454] conv3_5_2_relu <- conv3_5_2_bn
I0703 18:05:30.465457 35376 net.cpp:397] conv3_5_2_relu -> conv3_5_2_bn (in-place)
I0703 18:05:30.465741 35376 net.cpp:150] Setting up conv3_5_2_relu
I0703 18:05:30.465775 35376 net.cpp:157] Top shape: 32 128 27 27 (2985984)
I0703 18:05:30.465787 35376 net.cpp:165] Memory required for data: 4181090432
I0703 18:05:30.465801 35376 layer_factory.hpp:76] Creating layer conv3_5_3
I0703 18:05:30.465836 35376 net.cpp:106] Creating Layer conv3_5_3
I0703 18:05:30.465849 35376 net.cpp:454] conv3_5_3 <- conv3_5_2_bn
I0703 18:05:30.465868 35376 net.cpp:411] conv3_5_3 -> conv3_5_3
I0703 18:05:30.470520 35376 cudnn_conv_layer.cpp:194] Reallocating workspace storage: 1536
I0703 18:05:30.470598 35376 net.cpp:150] Setting up conv3_5_3
I0703 18:05:30.470620 35376 net.cpp:157] Top shape: 32 512 27 27 (11943936)
I0703 18:05:30.470634 35376 net.cpp:165] Memory required for data: 4228866176
I0703 18:05:30.470659 35376 layer_factory.hpp:76] Creating layer conv3_5_sum
I0703 18:05:30.470688 35376 net.cpp:106] Creating Layer conv3_5_sum
I0703 18:05:30.470713 35376 net.cpp:454] conv3_5_sum <- conv3_4_sum_bn_conv3_4_sum_relu_0_split_1
I0703 18:05:30.470732 35376 net.cpp:454] conv3_5_sum <- conv3_5_3
I0703 18:05:30.470752 35376 net.cpp:411] conv3_5_sum -> conv3_5_sum
I0703 18:05:30.470825 35376 net.cpp:150] Setting up conv3_5_sum
I0703 18:05:30.470847 35376 net.cpp:157] Top shape: 32 512 27 27 (11943936)
I0703 18:05:30.470860 35376 net.cpp:165] Memory required for data: 4276641920
I0703 18:05:30.470875 35376 layer_factory.hpp:76] Creating layer conv3_5_sum_bn
I0703 18:05:30.470896 35376 net.cpp:106] Creating Layer conv3_5_sum_bn
I0703 18:05:30.470911 35376 net.cpp:454] conv3_5_sum_bn <- conv3_5_sum
I0703 18:05:30.470928 35376 net.cpp:411] conv3_5_sum_bn -> conv3_5_sum_bn
I0703 18:05:30.471204 35376 net.cpp:150] Setting up conv3_5_sum_bn
I0703 18:05:30.471225 35376 net.cpp:157] Top shape: 32 512 27 27 (11943936)
I0703 18:05:30.471237 35376 net.cpp:165] Memory required for data: 4324417664
I0703 18:05:30.471293 35376 layer_factory.hpp:76] Creating layer conv3_5_sum_relu
I0703 18:05:30.471318 35376 net.cpp:106] Creating Layer conv3_5_sum_relu
I0703 18:05:30.471334 35376 net.cpp:454] conv3_5_sum_relu <- conv3_5_sum_bn
I0703 18:05:30.471352 35376 net.cpp:397] conv3_5_sum_relu -> conv3_5_sum_bn (in-place)
I0703 18:05:30.471743 35376 net.cpp:150] Setting up conv3_5_sum_relu
I0703 18:05:30.471771 35376 net.cpp:157] Top shape: 32 512 27 27 (11943936)
I0703 18:05:30.471786 35376 net.cpp:165] Memory required for data: 4372193408
I0703 18:05:30.471799 35376 layer_factory.hpp:76] Creating layer conv3_5_sum_bn_conv3_5_sum_relu_0_split
I0703 18:05:30.471819 35376 net.cpp:106] Creating Layer conv3_5_sum_bn_conv3_5_sum_relu_0_split
I0703 18:05:30.471833 35376 net.cpp:454] conv3_5_sum_bn_conv3_5_sum_relu_0_split <- conv3_5_sum_bn
I0703 18:05:30.471851 35376 net.cpp:411] conv3_5_sum_bn_conv3_5_sum_relu_0_split -> conv3_5_sum_bn_conv3_5_sum_relu_0_split_0
I0703 18:05:30.471869 35376 net.cpp:411] conv3_5_sum_bn_conv3_5_sum_relu_0_split -> conv3_5_sum_bn_conv3_5_sum_relu_0_split_1
I0703 18:05:30.471962 35376 net.cpp:150] Setting up conv3_5_sum_bn_conv3_5_sum_relu_0_split
I0703 18:05:30.471984 35376 net.cpp:157] Top shape: 32 512 27 27 (11943936)
I0703 18:05:30.471999 35376 net.cpp:157] Top shape: 32 512 27 27 (11943936)
I0703 18:05:30.472013 35376 net.cpp:165] Memory required for data: 4467744896
I0703 18:05:30.472028 35376 layer_factory.hpp:76] Creating layer conv3_6_1
I0703 18:05:30.472054 35376 net.cpp:106] Creating Layer conv3_6_1
I0703 18:05:30.472069 35376 net.cpp:454] conv3_6_1 <- conv3_5_sum_bn_conv3_5_sum_relu_0_split_0
I0703 18:05:30.472090 35376 net.cpp:411] conv3_6_1 -> conv3_6_1
I0703 18:05:30.476059 35376 cudnn_conv_layer.cpp:194] Reallocating workspace storage: 6144
I0703 18:05:30.476115 35376 net.cpp:150] Setting up conv3_6_1
I0703 18:05:30.476169 35376 net.cpp:157] Top shape: 32 128 27 27 (2985984)
I0703 18:05:30.476186 35376 net.cpp:165] Memory required for data: 4479688832
I0703 18:05:30.476208 35376 layer_factory.hpp:76] Creating layer conv3_6_1_bn
I0703 18:05:30.476246 35376 net.cpp:106] Creating Layer conv3_6_1_bn
I0703 18:05:30.476267 35376 net.cpp:454] conv3_6_1_bn <- conv3_6_1
I0703 18:05:30.476287 35376 net.cpp:411] conv3_6_1_bn -> conv3_6_1_bn
I0703 18:05:30.476583 35376 net.cpp:150] Setting up conv3_6_1_bn
I0703 18:05:30.476604 35376 net.cpp:157] Top shape: 32 128 27 27 (2985984)
I0703 18:05:30.476618 35376 net.cpp:165] Memory required for data: 4491632768
I0703 18:05:30.476639 35376 layer_factory.hpp:76] Creating layer conv3_6_1_relu
I0703 18:05:30.476658 35376 net.cpp:106] Creating Layer conv3_6_1_relu
I0703 18:05:30.476673 35376 net.cpp:454] conv3_6_1_relu <- conv3_6_1_bn
I0703 18:05:30.476689 35376 net.cpp:397] conv3_6_1_relu -> conv3_6_1_bn (in-place)
I0703 18:05:30.477062 35376 net.cpp:150] Setting up conv3_6_1_relu
I0703 18:05:30.477089 35376 net.cpp:157] Top shape: 32 128 27 27 (2985984)
I0703 18:05:30.477103 35376 net.cpp:165] Memory required for data: 4503576704
I0703 18:05:30.477118 35376 layer_factory.hpp:76] Creating layer conv3_6_2
I0703 18:05:30.477141 35376 net.cpp:106] Creating Layer conv3_6_2
I0703 18:05:30.477156 35376 net.cpp:454] conv3_6_2 <- conv3_6_1_bn
I0703 18:05:30.477179 35376 net.cpp:411] conv3_6_2 -> conv3_6_2
I0703 18:05:30.483945 35376 cudnn_conv_layer.cpp:194] Reallocating workspace storage: 13824
I0703 18:05:30.484009 35376 net.cpp:150] Setting up conv3_6_2
I0703 18:05:30.484030 35376 net.cpp:157] Top shape: 32 128 27 27 (2985984)
I0703 18:05:30.484045 35376 net.cpp:165] Memory required for data: 4515520640
I0703 18:05:30.484066 35376 layer_factory.hpp:76] Creating layer conv3_6_2_bn
I0703 18:05:30.484093 35376 net.cpp:106] Creating Layer conv3_6_2_bn
I0703 18:05:30.484110 35376 net.cpp:454] conv3_6_2_bn <- conv3_6_2
I0703 18:05:30.484130 35376 net.cpp:411] conv3_6_2_bn -> conv3_6_2_bn
I0703 18:05:30.484396 35376 net.cpp:150] Setting up conv3_6_2_bn
I0703 18:05:30.484418 35376 net.cpp:157] Top shape: 32 128 27 27 (2985984)
I0703 18:05:30.484447 35376 net.cpp:165] Memory required for data: 4527464576
I0703 18:05:30.484473 35376 layer_factory.hpp:76] Creating layer conv3_6_2_relu
I0703 18:05:30.484494 35376 net.cpp:106] Creating Layer conv3_6_2_relu
I0703 18:05:30.484509 35376 net.cpp:454] conv3_6_2_relu <- conv3_6_2_bn
I0703 18:05:30.484525 35376 net.cpp:397] conv3_6_2_relu -> conv3_6_2_bn (in-place)
I0703 18:05:30.484741 35376 net.cpp:150] Setting up conv3_6_2_relu
I0703 18:05:30.484763 35376 net.cpp:157] Top shape: 32 128 27 27 (2985984)
I0703 18:05:30.484777 35376 net.cpp:165] Memory required for data: 4539408512
I0703 18:05:30.484792 35376 layer_factory.hpp:76] Creating layer conv3_6_3
I0703 18:05:30.484820 35376 net.cpp:106] Creating Layer conv3_6_3
I0703 18:05:30.484835 35376 net.cpp:454] conv3_6_3 <- conv3_6_2_bn
I0703 18:05:30.484856 35376 net.cpp:411] conv3_6_3 -> conv3_6_3
I0703 18:05:30.488368 35376 cudnn_conv_layer.cpp:194] Reallocating workspace storage: 1536
I0703 18:05:30.488432 35376 net.cpp:150] Setting up conv3_6_3
I0703 18:05:30.488464 35376 net.cpp:157] Top shape: 32 512 27 27 (11943936)
I0703 18:05:30.488481 35376 net.cpp:165] Memory required for data: 4587184256
I0703 18:05:30.488509 35376 layer_factory.hpp:76] Creating layer conv3_6_sum
I0703 18:05:30.488533 35376 net.cpp:106] Creating Layer conv3_6_sum
I0703 18:05:30.488549 35376 net.cpp:454] conv3_6_sum <- conv3_5_sum_bn_conv3_5_sum_relu_0_split_1
I0703 18:05:30.488567 35376 net.cpp:454] conv3_6_sum <- conv3_6_3
I0703 18:05:30.488585 35376 net.cpp:411] conv3_6_sum -> conv3_6_sum
I0703 18:05:30.488646 35376 net.cpp:150] Setting up conv3_6_sum
I0703 18:05:30.488667 35376 net.cpp:157] Top shape: 32 512 27 27 (11943936)
I0703 18:05:30.488679 35376 net.cpp:165] Memory required for data: 4634960000
I0703 18:05:30.488694 35376 layer_factory.hpp:76] Creating layer conv3_6_sum_bn
I0703 18:05:30.488715 35376 net.cpp:106] Creating Layer conv3_6_sum_bn
I0703 18:05:30.488765 35376 net.cpp:454] conv3_6_sum_bn <- conv3_6_sum
I0703 18:05:30.488783 35376 net.cpp:411] conv3_6_sum_bn -> conv3_6_sum_bn
I0703 18:05:30.489048 35376 net.cpp:150] Setting up conv3_6_sum_bn
I0703 18:05:30.489068 35376 net.cpp:157] Top shape: 32 512 27 27 (11943936)
I0703 18:05:30.489081 35376 net.cpp:165] Memory required for data: 4682735744
I0703 18:05:30.489104 35376 layer_factory.hpp:76] Creating layer conv3_6_sum_relu
I0703 18:05:30.489123 35376 net.cpp:106] Creating Layer conv3_6_sum_relu
I0703 18:05:30.489138 35376 net.cpp:454] conv3_6_sum_relu <- conv3_6_sum_bn
I0703 18:05:30.489154 35376 net.cpp:397] conv3_6_sum_relu -> conv3_6_sum_bn (in-place)
I0703 18:05:30.489537 35376 net.cpp:150] Setting up conv3_6_sum_relu
I0703 18:05:30.489562 35376 net.cpp:157] Top shape: 32 512 27 27 (11943936)
I0703 18:05:30.489575 35376 net.cpp:165] Memory required for data: 4730511488
I0703 18:05:30.489590 35376 layer_factory.hpp:76] Creating layer conv3_6_sum_bn_conv3_6_sum_relu_0_split
I0703 18:05:30.489608 35376 net.cpp:106] Creating Layer conv3_6_sum_bn_conv3_6_sum_relu_0_split
I0703 18:05:30.489622 35376 net.cpp:454] conv3_6_sum_bn_conv3_6_sum_relu_0_split <- conv3_6_sum_bn
I0703 18:05:30.489644 35376 net.cpp:411] conv3_6_sum_bn_conv3_6_sum_relu_0_split -> conv3_6_sum_bn_conv3_6_sum_relu_0_split_0
I0703 18:05:30.489666 35376 net.cpp:411] conv3_6_sum_bn_conv3_6_sum_relu_0_split -> conv3_6_sum_bn_conv3_6_sum_relu_0_split_1
I0703 18:05:30.489750 35376 net.cpp:150] Setting up conv3_6_sum_bn_conv3_6_sum_relu_0_split
I0703 18:05:30.489771 35376 net.cpp:157] Top shape: 32 512 27 27 (11943936)
I0703 18:05:30.489787 35376 net.cpp:157] Top shape: 32 512 27 27 (11943936)
I0703 18:05:30.489800 35376 net.cpp:165] Memory required for data: 4826062976
I0703 18:05:30.489814 35376 layer_factory.hpp:76] Creating layer conv3_7_1
I0703 18:05:30.489842 35376 net.cpp:106] Creating Layer conv3_7_1
I0703 18:05:30.489857 35376 net.cpp:454] conv3_7_1 <- conv3_6_sum_bn_conv3_6_sum_relu_0_split_0
I0703 18:05:30.489876 35376 net.cpp:411] conv3_7_1 -> conv3_7_1
I0703 18:05:30.493134 35376 cudnn_conv_layer.cpp:194] Reallocating workspace storage: 6144
I0703 18:05:30.493182 35376 net.cpp:150] Setting up conv3_7_1
I0703 18:05:30.493203 35376 net.cpp:157] Top shape: 32 128 27 27 (2985984)
I0703 18:05:30.493217 35376 net.cpp:165] Memory required for data: 4838006912
I0703 18:05:30.493237 35376 layer_factory.hpp:76] Creating layer conv3_7_1_bn
I0703 18:05:30.493260 35376 net.cpp:106] Creating Layer conv3_7_1_bn
I0703 18:05:30.493276 35376 net.cpp:454] conv3_7_1_bn <- conv3_7_1
I0703 18:05:30.493299 35376 net.cpp:411] conv3_7_1_bn -> conv3_7_1_bn
I0703 18:05:30.493557 35376 net.cpp:150] Setting up conv3_7_1_bn
I0703 18:05:30.493578 35376 net.cpp:157] Top shape: 32 128 27 27 (2985984)
I0703 18:05:30.493592 35376 net.cpp:165] Memory required for data: 4849950848
I0703 18:05:30.493614 35376 layer_factory.hpp:76] Creating layer conv3_7_1_relu
I0703 18:05:30.493633 35376 net.cpp:106] Creating Layer conv3_7_1_relu
I0703 18:05:30.493648 35376 net.cpp:454] conv3_7_1_relu <- conv3_7_1_bn
I0703 18:05:30.493664 35376 net.cpp:397] conv3_7_1_relu -> conv3_7_1_bn (in-place)
I0703 18:05:30.494034 35376 net.cpp:150] Setting up conv3_7_1_relu
I0703 18:05:30.494057 35376 net.cpp:157] Top shape: 32 128 27 27 (2985984)
I0703 18:05:30.494071 35376 net.cpp:165] Memory required for data: 4861894784
I0703 18:05:30.494086 35376 layer_factory.hpp:76] Creating layer conv3_7_2
I0703 18:05:30.494110 35376 net.cpp:106] Creating Layer conv3_7_2
I0703 18:05:30.494127 35376 net.cpp:454] conv3_7_2 <- conv3_7_1_bn
I0703 18:05:30.494148 35376 net.cpp:411] conv3_7_2 -> conv3_7_2
I0703 18:05:30.501077 35376 cudnn_conv_layer.cpp:194] Reallocating workspace storage: 13824
I0703 18:05:30.501133 35376 net.cpp:150] Setting up conv3_7_2
I0703 18:05:30.501154 35376 net.cpp:157] Top shape: 32 128 27 27 (2985984)
I0703 18:05:30.501168 35376 net.cpp:165] Memory required for data: 4873838720
I0703 18:05:30.501190 35376 layer_factory.hpp:76] Creating layer conv3_7_2_bn
I0703 18:05:30.501250 35376 net.cpp:106] Creating Layer conv3_7_2_bn
I0703 18:05:30.501268 35376 net.cpp:454] conv3_7_2_bn <- conv3_7_2
I0703 18:05:30.501291 35376 net.cpp:411] conv3_7_2_bn -> conv3_7_2_bn
I0703 18:05:30.501565 35376 net.cpp:150] Setting up conv3_7_2_bn
I0703 18:05:30.501587 35376 net.cpp:157] Top shape: 32 128 27 27 (2985984)
I0703 18:05:30.501600 35376 net.cpp:165] Memory required for data: 4885782656
I0703 18:05:30.501623 35376 layer_factory.hpp:76] Creating layer conv3_7_2_relu
I0703 18:05:30.501643 35376 net.cpp:106] Creating Layer conv3_7_2_relu
I0703 18:05:30.501658 35376 net.cpp:454] conv3_7_2_relu <- conv3_7_2_bn
I0703 18:05:30.501675 35376 net.cpp:397] conv3_7_2_relu -> conv3_7_2_bn (in-place)
I0703 18:05:30.502084 35376 net.cpp:150] Setting up conv3_7_2_relu
I0703 18:05:30.502111 35376 net.cpp:157] Top shape: 32 128 27 27 (2985984)
I0703 18:05:30.502126 35376 net.cpp:165] Memory required for data: 4897726592
I0703 18:05:30.502141 35376 layer_factory.hpp:76] Creating layer conv3_7_3
I0703 18:05:30.502163 35376 net.cpp:106] Creating Layer conv3_7_3
I0703 18:05:30.502178 35376 net.cpp:454] conv3_7_3 <- conv3_7_2_bn
I0703 18:05:30.502200 35376 net.cpp:411] conv3_7_3 -> conv3_7_3
I0703 18:05:30.505599 35376 cudnn_conv_layer.cpp:194] Reallocating workspace storage: 1536
I0703 18:05:30.505650 35376 net.cpp:150] Setting up conv3_7_3
I0703 18:05:30.505676 35376 net.cpp:157] Top shape: 32 512 27 27 (11943936)
I0703 18:05:30.505691 35376 net.cpp:165] Memory required for data: 4945502336
I0703 18:05:30.505712 35376 layer_factory.hpp:76] Creating layer conv3_7_sum
I0703 18:05:30.505733 35376 net.cpp:106] Creating Layer conv3_7_sum
I0703 18:05:30.505749 35376 net.cpp:454] conv3_7_sum <- conv3_6_sum_bn_conv3_6_sum_relu_0_split_1
I0703 18:05:30.505766 35376 net.cpp:454] conv3_7_sum <- conv3_7_3
I0703 18:05:30.505784 35376 net.cpp:411] conv3_7_sum -> conv3_7_sum
I0703 18:05:30.505842 35376 net.cpp:150] Setting up conv3_7_sum
I0703 18:05:30.505867 35376 net.cpp:157] Top shape: 32 512 27 27 (11943936)
I0703 18:05:30.505882 35376 net.cpp:165] Memory required for data: 4993278080
I0703 18:05:30.505897 35376 layer_factory.hpp:76] Creating layer conv3_7_sum_bn
I0703 18:05:30.505918 35376 net.cpp:106] Creating Layer conv3_7_sum_bn
I0703 18:05:30.505934 35376 net.cpp:454] conv3_7_sum_bn <- conv3_7_sum
I0703 18:05:30.505951 35376 net.cpp:411] conv3_7_sum_bn -> conv3_7_sum_bn
I0703 18:05:30.506223 35376 net.cpp:150] Setting up conv3_7_sum_bn
I0703 18:05:30.506244 35376 net.cpp:157] Top shape: 32 512 27 27 (11943936)
I0703 18:05:30.506258 35376 net.cpp:165] Memory required for data: 5041053824
I0703 18:05:30.506279 35376 layer_factory.hpp:76] Creating layer conv3_7_sum_relu
I0703 18:05:30.506299 35376 net.cpp:106] Creating Layer conv3_7_sum_relu
I0703 18:05:30.506312 35376 net.cpp:454] conv3_7_sum_relu <- conv3_7_sum_bn
I0703 18:05:30.506330 35376 net.cpp:397] conv3_7_sum_relu -> conv3_7_sum_bn (in-place)
I0703 18:05:30.506742 35376 net.cpp:150] Setting up conv3_7_sum_relu
I0703 18:05:30.506767 35376 net.cpp:157] Top shape: 32 512 27 27 (11943936)
I0703 18:05:30.506779 35376 net.cpp:165] Memory required for data: 5088829568
I0703 18:05:30.506793 35376 layer_factory.hpp:76] Creating layer conv3_7_sum_bn_conv3_7_sum_relu_0_split
I0703 18:05:30.506814 35376 net.cpp:106] Creating Layer conv3_7_sum_bn_conv3_7_sum_relu_0_split
I0703 18:05:30.506829 35376 net.cpp:454] conv3_7_sum_bn_conv3_7_sum_relu_0_split <- conv3_7_sum_bn
I0703 18:05:30.506846 35376 net.cpp:411] conv3_7_sum_bn_conv3_7_sum_relu_0_split -> conv3_7_sum_bn_conv3_7_sum_relu_0_split_0
I0703 18:05:30.506868 35376 net.cpp:411] conv3_7_sum_bn_conv3_7_sum_relu_0_split -> conv3_7_sum_bn_conv3_7_sum_relu_0_split_1
I0703 18:05:30.506959 35376 net.cpp:150] Setting up conv3_7_sum_bn_conv3_7_sum_relu_0_split
I0703 18:05:30.506988 35376 net.cpp:157] Top shape: 32 512 27 27 (11943936)
I0703 18:05:30.507004 35376 net.cpp:157] Top shape: 32 512 27 27 (11943936)
I0703 18:05:30.507017 35376 net.cpp:165] Memory required for data: 5184381056
I0703 18:05:30.507062 35376 layer_factory.hpp:76] Creating layer conv3_8_1
I0703 18:05:30.507091 35376 net.cpp:106] Creating Layer conv3_8_1
I0703 18:05:30.507107 35376 net.cpp:454] conv3_8_1 <- conv3_7_sum_bn_conv3_7_sum_relu_0_split_0
I0703 18:05:30.507128 35376 net.cpp:411] conv3_8_1 -> conv3_8_1
I0703 18:05:30.511729 35376 cudnn_conv_layer.cpp:194] Reallocating workspace storage: 6144
I0703 18:05:30.511790 35376 net.cpp:150] Setting up conv3_8_1
I0703 18:05:30.511816 35376 net.cpp:157] Top shape: 32 128 27 27 (2985984)
I0703 18:05:30.511831 35376 net.cpp:165] Memory required for data: 5196324992
I0703 18:05:30.511853 35376 layer_factory.hpp:76] Creating layer conv3_8_1_bn
I0703 18:05:30.511875 35376 net.cpp:106] Creating Layer conv3_8_1_bn
I0703 18:05:30.511893 35376 net.cpp:454] conv3_8_1_bn <- conv3_8_1
I0703 18:05:30.511915 35376 net.cpp:411] conv3_8_1_bn -> conv3_8_1_bn
I0703 18:05:30.512190 35376 net.cpp:150] Setting up conv3_8_1_bn
I0703 18:05:30.512212 35376 net.cpp:157] Top shape: 32 128 27 27 (2985984)
I0703 18:05:30.512225 35376 net.cpp:165] Memory required for data: 5208268928
I0703 18:05:30.512248 35376 layer_factory.hpp:76] Creating layer conv3_8_1_relu
I0703 18:05:30.512267 35376 net.cpp:106] Creating Layer conv3_8_1_relu
I0703 18:05:30.512282 35376 net.cpp:454] conv3_8_1_relu <- conv3_8_1_bn
I0703 18:05:30.512303 35376 net.cpp:397] conv3_8_1_relu -> conv3_8_1_bn (in-place)
I0703 18:05:30.512686 35376 net.cpp:150] Setting up conv3_8_1_relu
I0703 18:05:30.512711 35376 net.cpp:157] Top shape: 32 128 27 27 (2985984)
I0703 18:05:30.512724 35376 net.cpp:165] Memory required for data: 5220212864
I0703 18:05:30.512740 35376 layer_factory.hpp:76] Creating layer conv3_8_2
I0703 18:05:30.512765 35376 net.cpp:106] Creating Layer conv3_8_2
I0703 18:05:30.512781 35376 net.cpp:454] conv3_8_2 <- conv3_8_1_bn
I0703 18:05:30.512804 35376 net.cpp:411] conv3_8_2 -> conv3_8_2
I0703 18:05:30.519712 35376 cudnn_conv_layer.cpp:194] Reallocating workspace storage: 13824
I0703 18:05:30.519781 35376 net.cpp:150] Setting up conv3_8_2
I0703 18:05:30.519804 35376 net.cpp:157] Top shape: 32 128 27 27 (2985984)
I0703 18:05:30.519819 35376 net.cpp:165] Memory required for data: 5232156800
I0703 18:05:30.519841 35376 layer_factory.hpp:76] Creating layer conv3_8_2_bn
I0703 18:05:30.519865 35376 net.cpp:106] Creating Layer conv3_8_2_bn
I0703 18:05:30.519883 35376 net.cpp:454] conv3_8_2_bn <- conv3_8_2
I0703 18:05:30.519906 35376 net.cpp:411] conv3_8_2_bn -> conv3_8_2_bn
I0703 18:05:30.520186 35376 net.cpp:150] Setting up conv3_8_2_bn
I0703 18:05:30.520208 35376 net.cpp:157] Top shape: 32 128 27 27 (2985984)
I0703 18:05:30.520222 35376 net.cpp:165] Memory required for data: 5244100736
I0703 18:05:30.520244 35376 layer_factory.hpp:76] Creating layer conv3_8_2_relu
I0703 18:05:30.520267 35376 net.cpp:106] Creating Layer conv3_8_2_relu
I0703 18:05:30.520282 35376 net.cpp:454] conv3_8_2_relu <- conv3_8_2_bn
I0703 18:05:30.520299 35376 net.cpp:397] conv3_8_2_relu -> conv3_8_2_bn (in-place)
I0703 18:05:30.520534 35376 net.cpp:150] Setting up conv3_8_2_relu
I0703 18:05:30.520557 35376 net.cpp:157] Top shape: 32 128 27 27 (2985984)
I0703 18:05:30.520570 35376 net.cpp:165] Memory required for data: 5256044672
I0703 18:05:30.520586 35376 layer_factory.hpp:76] Creating layer conv3_8_3
I0703 18:05:30.520612 35376 net.cpp:106] Creating Layer conv3_8_3
I0703 18:05:30.520628 35376 net.cpp:454] conv3_8_3 <- conv3_8_2_bn
I0703 18:05:30.520649 35376 net.cpp:411] conv3_8_3 -> conv3_8_3
I0703 18:05:30.524003 35376 cudnn_conv_layer.cpp:194] Reallocating workspace storage: 1536
I0703 18:05:30.524049 35376 net.cpp:150] Setting up conv3_8_3
I0703 18:05:30.524073 35376 net.cpp:157] Top shape: 32 512 27 27 (11943936)
I0703 18:05:30.524088 35376 net.cpp:165] Memory required for data: 5303820416
I0703 18:05:30.524108 35376 layer_factory.hpp:76] Creating layer conv3_8_sum
I0703 18:05:30.524128 35376 net.cpp:106] Creating Layer conv3_8_sum
I0703 18:05:30.524144 35376 net.cpp:454] conv3_8_sum <- conv3_7_sum_bn_conv3_7_sum_relu_0_split_1
I0703 18:05:30.524165 35376 net.cpp:454] conv3_8_sum <- conv3_8_3
I0703 18:05:30.524219 35376 net.cpp:411] conv3_8_sum -> conv3_8_sum
I0703 18:05:30.524278 35376 net.cpp:150] Setting up conv3_8_sum
I0703 18:05:30.524299 35376 net.cpp:157] Top shape: 32 512 27 27 (11943936)
I0703 18:05:30.524312 35376 net.cpp:165] Memory required for data: 5351596160
I0703 18:05:30.524327 35376 layer_factory.hpp:76] Creating layer conv3_8_sum_bn
I0703 18:05:30.524345 35376 net.cpp:106] Creating Layer conv3_8_sum_bn
I0703 18:05:30.524359 35376 net.cpp:454] conv3_8_sum_bn <- conv3_8_sum
I0703 18:05:30.524380 35376 net.cpp:411] conv3_8_sum_bn -> conv3_8_sum_bn
I0703 18:05:30.524679 35376 net.cpp:150] Setting up conv3_8_sum_bn
I0703 18:05:30.524700 35376 net.cpp:157] Top shape: 32 512 27 27 (11943936)
I0703 18:05:30.524713 35376 net.cpp:165] Memory required for data: 5399371904
I0703 18:05:30.524736 35376 layer_factory.hpp:76] Creating layer conv3_8_sum_relu
I0703 18:05:30.524758 35376 net.cpp:106] Creating Layer conv3_8_sum_relu
I0703 18:05:30.524775 35376 net.cpp:454] conv3_8_sum_relu <- conv3_8_sum_bn
I0703 18:05:30.524791 35376 net.cpp:397] conv3_8_sum_relu -> conv3_8_sum_bn (in-place)
I0703 18:05:30.525161 35376 net.cpp:150] Setting up conv3_8_sum_relu
I0703 18:05:30.525185 35376 net.cpp:157] Top shape: 32 512 27 27 (11943936)
I0703 18:05:30.525199 35376 net.cpp:165] Memory required for data: 5447147648
I0703 18:05:30.525213 35376 layer_factory.hpp:76] Creating layer conv3_8_sum_bn_conv3_8_sum_relu_0_split
I0703 18:05:30.525259 35376 net.cpp:106] Creating Layer conv3_8_sum_bn_conv3_8_sum_relu_0_split
I0703 18:05:30.525277 35376 net.cpp:454] conv3_8_sum_bn_conv3_8_sum_relu_0_split <- conv3_8_sum_bn
I0703 18:05:30.525300 35376 net.cpp:411] conv3_8_sum_bn_conv3_8_sum_relu_0_split -> conv3_8_sum_bn_conv3_8_sum_relu_0_split_0
I0703 18:05:30.525321 35376 net.cpp:411] conv3_8_sum_bn_conv3_8_sum_relu_0_split -> conv3_8_sum_bn_conv3_8_sum_relu_0_split_1
I0703 18:05:30.525408 35376 net.cpp:150] Setting up conv3_8_sum_bn_conv3_8_sum_relu_0_split
I0703 18:05:30.525429 35376 net.cpp:157] Top shape: 32 512 27 27 (11943936)
I0703 18:05:30.525444 35376 net.cpp:157] Top shape: 32 512 27 27 (11943936)
I0703 18:05:30.525457 35376 net.cpp:165] Memory required for data: 5542699136
I0703 18:05:30.525471 35376 layer_factory.hpp:76] Creating layer conv3_output
I0703 18:05:30.525501 35376 net.cpp:106] Creating Layer conv3_output
I0703 18:05:30.525516 35376 net.cpp:454] conv3_output <- conv3_8_sum_bn_conv3_8_sum_relu_0_split_0
I0703 18:05:30.525535 35376 net.cpp:411] conv3_output -> conv3_output
I0703 18:05:30.544513 35376 cudnn_conv_layer.cpp:194] Reallocating workspace storage: 6144
I0703 18:05:30.544589 35376 net.cpp:150] Setting up conv3_output
I0703 18:05:30.544610 35376 net.cpp:157] Top shape: 32 1024 14 14 (6422528)
I0703 18:05:30.544625 35376 net.cpp:165] Memory required for data: 5568389248
I0703 18:05:30.544646 35376 layer_factory.hpp:76] Creating layer conv4_1_1
I0703 18:05:30.544677 35376 net.cpp:106] Creating Layer conv4_1_1
I0703 18:05:30.544695 35376 net.cpp:454] conv4_1_1 <- conv3_8_sum_bn_conv3_8_sum_relu_0_split_1
I0703 18:05:30.544718 35376 net.cpp:411] conv4_1_1 -> conv4_1_1
I0703 18:05:30.550212 35376 cudnn_conv_layer.cpp:194] Reallocating workspace storage: 6144
I0703 18:05:30.550272 35376 net.cpp:150] Setting up conv4_1_1
I0703 18:05:30.550293 35376 net.cpp:157] Top shape: 32 256 14 14 (1605632)
I0703 18:05:30.550307 35376 net.cpp:165] Memory required for data: 5574811776
I0703 18:05:30.550328 35376 layer_factory.hpp:76] Creating layer conv4_1_1_bn
I0703 18:05:30.550350 35376 net.cpp:106] Creating Layer conv4_1_1_bn
I0703 18:05:30.550367 35376 net.cpp:454] conv4_1_1_bn <- conv4_1_1
I0703 18:05:30.550390 35376 net.cpp:411] conv4_1_1_bn -> conv4_1_1_bn
I0703 18:05:30.550662 35376 net.cpp:150] Setting up conv4_1_1_bn
I0703 18:05:30.550683 35376 net.cpp:157] Top shape: 32 256 14 14 (1605632)
I0703 18:05:30.550695 35376 net.cpp:165] Memory required for data: 5581234304
I0703 18:05:30.550717 35376 layer_factory.hpp:76] Creating layer conv4_1_1_relu
I0703 18:05:30.550740 35376 net.cpp:106] Creating Layer conv4_1_1_relu
I0703 18:05:30.550789 35376 net.cpp:454] conv4_1_1_relu <- conv4_1_1_bn
I0703 18:05:30.550807 35376 net.cpp:397] conv4_1_1_relu -> conv4_1_1_bn (in-place)
I0703 18:05:30.551167 35376 net.cpp:150] Setting up conv4_1_1_relu
I0703 18:05:30.551189 35376 net.cpp:157] Top shape: 32 256 14 14 (1605632)
I0703 18:05:30.551203 35376 net.cpp:165] Memory required for data: 5587656832
I0703 18:05:30.551218 35376 layer_factory.hpp:76] Creating layer conv4_1_2
I0703 18:05:30.551244 35376 net.cpp:106] Creating Layer conv4_1_2
I0703 18:05:30.551259 35376 net.cpp:454] conv4_1_2 <- conv4_1_1_bn
I0703 18:05:30.551278 35376 net.cpp:411] conv4_1_2 -> conv4_1_2
I0703 18:05:30.577191 35376 net.cpp:150] Setting up conv4_1_2
I0703 18:05:30.577231 35376 net.cpp:157] Top shape: 32 256 14 14 (1605632)
I0703 18:05:30.577245 35376 net.cpp:165] Memory required for data: 5594079360
I0703 18:05:30.577265 35376 layer_factory.hpp:76] Creating layer conv4_1_2_bn
I0703 18:05:30.577294 35376 net.cpp:106] Creating Layer conv4_1_2_bn
I0703 18:05:30.577313 35376 net.cpp:454] conv4_1_2_bn <- conv4_1_2
I0703 18:05:30.577332 35376 net.cpp:411] conv4_1_2_bn -> conv4_1_2_bn
I0703 18:05:30.577632 35376 net.cpp:150] Setting up conv4_1_2_bn
I0703 18:05:30.577654 35376 net.cpp:157] Top shape: 32 256 14 14 (1605632)
I0703 18:05:30.577668 35376 net.cpp:165] Memory required for data: 5600501888
I0703 18:05:30.577690 35376 layer_factory.hpp:76] Creating layer conv4_1_2_relu
I0703 18:05:30.577709 35376 net.cpp:106] Creating Layer conv4_1_2_relu
I0703 18:05:30.577724 35376 net.cpp:454] conv4_1_2_relu <- conv4_1_2_bn
I0703 18:05:30.577741 35376 net.cpp:397] conv4_1_2_relu -> conv4_1_2_bn (in-place)
I0703 18:05:30.578114 35376 net.cpp:150] Setting up conv4_1_2_relu
I0703 18:05:30.578140 35376 net.cpp:157] Top shape: 32 256 14 14 (1605632)
I0703 18:05:30.578156 35376 net.cpp:165] Memory required for data: 5606924416
I0703 18:05:30.578171 35376 layer_factory.hpp:76] Creating layer conv4_1_3
I0703 18:05:30.578194 35376 net.cpp:106] Creating Layer conv4_1_3
I0703 18:05:30.578209 35376 net.cpp:454] conv4_1_3 <- conv4_1_2_bn
I0703 18:05:30.578230 35376 net.cpp:411] conv4_1_3 -> conv4_1_3
I0703 18:05:30.588873 35376 cudnn_conv_layer.cpp:194] Reallocating workspace storage: 3072
I0703 18:05:30.588932 35376 net.cpp:150] Setting up conv4_1_3
I0703 18:05:30.588953 35376 net.cpp:157] Top shape: 32 1024 14 14 (6422528)
I0703 18:05:30.588968 35376 net.cpp:165] Memory required for data: 5632614528
I0703 18:05:30.588989 35376 layer_factory.hpp:76] Creating layer conv4_1_sum
I0703 18:05:30.589018 35376 net.cpp:106] Creating Layer conv4_1_sum
I0703 18:05:30.589036 35376 net.cpp:454] conv4_1_sum <- conv3_output
I0703 18:05:30.589056 35376 net.cpp:454] conv4_1_sum <- conv4_1_3
I0703 18:05:30.589076 35376 net.cpp:411] conv4_1_sum -> conv4_1_sum
I0703 18:05:30.589143 35376 net.cpp:150] Setting up conv4_1_sum
I0703 18:05:30.589162 35376 net.cpp:157] Top shape: 32 1024 14 14 (6422528)
I0703 18:05:30.589175 35376 net.cpp:165] Memory required for data: 5658304640
I0703 18:05:30.589190 35376 layer_factory.hpp:76] Creating layer conv4_1_sum_bn
I0703 18:05:30.589212 35376 net.cpp:106] Creating Layer conv4_1_sum_bn
I0703 18:05:30.589228 35376 net.cpp:454] conv4_1_sum_bn <- conv4_1_sum
I0703 18:05:30.589248 35376 net.cpp:411] conv4_1_sum_bn -> conv4_1_sum_bn
I0703 18:05:30.589529 35376 net.cpp:150] Setting up conv4_1_sum_bn
I0703 18:05:30.589550 35376 net.cpp:157] Top shape: 32 1024 14 14 (6422528)
I0703 18:05:30.589565 35376 net.cpp:165] Memory required for data: 5683994752
I0703 18:05:30.589586 35376 layer_factory.hpp:76] Creating layer conv4_1_sum_relu
I0703 18:05:30.589607 35376 net.cpp:106] Creating Layer conv4_1_sum_relu
I0703 18:05:30.589622 35376 net.cpp:454] conv4_1_sum_relu <- conv4_1_sum_bn
I0703 18:05:30.589637 35376 net.cpp:397] conv4_1_sum_relu -> conv4_1_sum_bn (in-place)
I0703 18:05:30.589861 35376 net.cpp:150] Setting up conv4_1_sum_relu
I0703 18:05:30.589884 35376 net.cpp:157] Top shape: 32 1024 14 14 (6422528)
I0703 18:05:30.589897 35376 net.cpp:165] Memory required for data: 5709684864
I0703 18:05:30.589943 35376 layer_factory.hpp:76] Creating layer conv4_1_sum_bn_conv4_1_sum_relu_0_split
I0703 18:05:30.589963 35376 net.cpp:106] Creating Layer conv4_1_sum_bn_conv4_1_sum_relu_0_split
I0703 18:05:30.589978 35376 net.cpp:454] conv4_1_sum_bn_conv4_1_sum_relu_0_split <- conv4_1_sum_bn
I0703 18:05:30.589999 35376 net.cpp:411] conv4_1_sum_bn_conv4_1_sum_relu_0_split -> conv4_1_sum_bn_conv4_1_sum_relu_0_split_0
I0703 18:05:30.590018 35376 net.cpp:411] conv4_1_sum_bn_conv4_1_sum_relu_0_split -> conv4_1_sum_bn_conv4_1_sum_relu_0_split_1
I0703 18:05:30.590111 35376 net.cpp:150] Setting up conv4_1_sum_bn_conv4_1_sum_relu_0_split
I0703 18:05:30.590131 35376 net.cpp:157] Top shape: 32 1024 14 14 (6422528)
I0703 18:05:30.590147 35376 net.cpp:157] Top shape: 32 1024 14 14 (6422528)
I0703 18:05:30.590159 35376 net.cpp:165] Memory required for data: 5761065088
I0703 18:05:30.590173 35376 layer_factory.hpp:76] Creating layer conv4_2_1
I0703 18:05:30.590200 35376 net.cpp:106] Creating Layer conv4_2_1
I0703 18:05:30.590216 35376 net.cpp:454] conv4_2_1 <- conv4_1_sum_bn_conv4_1_sum_relu_0_split_0
I0703 18:05:30.590234 35376 net.cpp:411] conv4_2_1 -> conv4_2_1
I0703 18:05:30.601074 35376 cudnn_conv_layer.cpp:194] Reallocating workspace storage: 12288
I0703 18:05:30.601135 35376 net.cpp:150] Setting up conv4_2_1
I0703 18:05:30.601156 35376 net.cpp:157] Top shape: 32 256 14 14 (1605632)
I0703 18:05:30.601172 35376 net.cpp:165] Memory required for data: 5767487616
I0703 18:05:30.601194 35376 layer_factory.hpp:76] Creating layer conv4_2_1_bn
I0703 18:05:30.601222 35376 net.cpp:106] Creating Layer conv4_2_1_bn
I0703 18:05:30.601239 35376 net.cpp:454] conv4_2_1_bn <- conv4_2_1
I0703 18:05:30.601263 35376 net.cpp:411] conv4_2_1_bn -> conv4_2_1_bn
I0703 18:05:30.601546 35376 net.cpp:150] Setting up conv4_2_1_bn
I0703 18:05:30.601567 35376 net.cpp:157] Top shape: 32 256 14 14 (1605632)
I0703 18:05:30.601579 35376 net.cpp:165] Memory required for data: 5773910144
I0703 18:05:30.601601 35376 layer_factory.hpp:76] Creating layer conv4_2_1_relu
I0703 18:05:30.601620 35376 net.cpp:106] Creating Layer conv4_2_1_relu
I0703 18:05:30.601635 35376 net.cpp:454] conv4_2_1_relu <- conv4_2_1_bn
I0703 18:05:30.601651 35376 net.cpp:397] conv4_2_1_relu -> conv4_2_1_bn (in-place)
I0703 18:05:30.602046 35376 net.cpp:150] Setting up conv4_2_1_relu
I0703 18:05:30.602069 35376 net.cpp:157] Top shape: 32 256 14 14 (1605632)
I0703 18:05:30.602083 35376 net.cpp:165] Memory required for data: 5780332672
I0703 18:05:30.602099 35376 layer_factory.hpp:76] Creating layer conv4_2_2
I0703 18:05:30.602124 35376 net.cpp:106] Creating Layer conv4_2_2
I0703 18:05:30.602140 35376 net.cpp:454] conv4_2_2 <- conv4_2_1_bn
I0703 18:05:30.602161 35376 net.cpp:411] conv4_2_2 -> conv4_2_2
I0703 18:05:30.624227 35376 net.cpp:150] Setting up conv4_2_2
I0703 18:05:30.624271 35376 net.cpp:157] Top shape: 32 256 14 14 (1605632)
I0703 18:05:30.624286 35376 net.cpp:165] Memory required for data: 5786755200
I0703 18:05:30.624306 35376 layer_factory.hpp:76] Creating layer conv4_2_2_bn
I0703 18:05:30.624336 35376 net.cpp:106] Creating Layer conv4_2_2_bn
I0703 18:05:30.624353 35376 net.cpp:454] conv4_2_2_bn <- conv4_2_2
I0703 18:05:30.624377 35376 net.cpp:411] conv4_2_2_bn -> conv4_2_2_bn
I0703 18:05:30.624677 35376 net.cpp:150] Setting up conv4_2_2_bn
I0703 18:05:30.624699 35376 net.cpp:157] Top shape: 32 256 14 14 (1605632)
I0703 18:05:30.624713 35376 net.cpp:165] Memory required for data: 5793177728
I0703 18:05:30.624735 35376 layer_factory.hpp:76] Creating layer conv4_2_2_relu
I0703 18:05:30.624754 35376 net.cpp:106] Creating Layer conv4_2_2_relu
I0703 18:05:30.624769 35376 net.cpp:454] conv4_2_2_relu <- conv4_2_2_bn
I0703 18:05:30.624788 35376 net.cpp:397] conv4_2_2_relu -> conv4_2_2_bn (in-place)
I0703 18:05:30.625164 35376 net.cpp:150] Setting up conv4_2_2_relu
I0703 18:05:30.625190 35376 net.cpp:157] Top shape: 32 256 14 14 (1605632)
I0703 18:05:30.625203 35376 net.cpp:165] Memory required for data: 5799600256
I0703 18:05:30.625217 35376 layer_factory.hpp:76] Creating layer conv4_2_3
I0703 18:05:30.625277 35376 net.cpp:106] Creating Layer conv4_2_3
I0703 18:05:30.625294 35376 net.cpp:454] conv4_2_3 <- conv4_2_2_bn
I0703 18:05:30.625316 35376 net.cpp:411] conv4_2_3 -> conv4_2_3
I0703 18:05:30.635982 35376 cudnn_conv_layer.cpp:194] Reallocating workspace storage: 3072
I0703 18:05:30.636045 35376 net.cpp:150] Setting up conv4_2_3
I0703 18:05:30.636070 35376 net.cpp:157] Top shape: 32 1024 14 14 (6422528)
I0703 18:05:30.636085 35376 net.cpp:165] Memory required for data: 5825290368
I0703 18:05:30.636107 35376 layer_factory.hpp:76] Creating layer conv4_2_sum
I0703 18:05:30.636132 35376 net.cpp:106] Creating Layer conv4_2_sum
I0703 18:05:30.636150 35376 net.cpp:454] conv4_2_sum <- conv4_1_sum_bn_conv4_1_sum_relu_0_split_1
I0703 18:05:30.636169 35376 net.cpp:454] conv4_2_sum <- conv4_2_3
I0703 18:05:30.636186 35376 net.cpp:411] conv4_2_sum -> conv4_2_sum
I0703 18:05:30.636256 35376 net.cpp:150] Setting up conv4_2_sum
I0703 18:05:30.636276 35376 net.cpp:157] Top shape: 32 1024 14 14 (6422528)
I0703 18:05:30.636291 35376 net.cpp:165] Memory required for data: 5850980480
I0703 18:05:30.636304 35376 layer_factory.hpp:76] Creating layer conv4_2_sum_bn
I0703 18:05:30.636328 35376 net.cpp:106] Creating Layer conv4_2_sum_bn
I0703 18:05:30.636343 35376 net.cpp:454] conv4_2_sum_bn <- conv4_2_sum
I0703 18:05:30.636360 35376 net.cpp:411] conv4_2_sum_bn -> conv4_2_sum_bn
I0703 18:05:30.636663 35376 net.cpp:150] Setting up conv4_2_sum_bn
I0703 18:05:30.636684 35376 net.cpp:157] Top shape: 32 1024 14 14 (6422528)
I0703 18:05:30.636698 35376 net.cpp:165] Memory required for data: 5876670592
I0703 18:05:30.636720 35376 layer_factory.hpp:76] Creating layer conv4_2_sum_relu
I0703 18:05:30.636740 35376 net.cpp:106] Creating Layer conv4_2_sum_relu
I0703 18:05:30.636755 35376 net.cpp:454] conv4_2_sum_relu <- conv4_2_sum_bn
I0703 18:05:30.636772 35376 net.cpp:397] conv4_2_sum_relu -> conv4_2_sum_bn (in-place)
I0703 18:05:30.637007 35376 net.cpp:150] Setting up conv4_2_sum_relu
I0703 18:05:30.637030 35376 net.cpp:157] Top shape: 32 1024 14 14 (6422528)
I0703 18:05:30.637043 35376 net.cpp:165] Memory required for data: 5902360704
I0703 18:05:30.637058 35376 layer_factory.hpp:76] Creating layer conv4_2_sum_bn_conv4_2_sum_relu_0_split
I0703 18:05:30.637079 35376 net.cpp:106] Creating Layer conv4_2_sum_bn_conv4_2_sum_relu_0_split
I0703 18:05:30.637094 35376 net.cpp:454] conv4_2_sum_bn_conv4_2_sum_relu_0_split <- conv4_2_sum_bn
I0703 18:05:30.637110 35376 net.cpp:411] conv4_2_sum_bn_conv4_2_sum_relu_0_split -> conv4_2_sum_bn_conv4_2_sum_relu_0_split_0
I0703 18:05:30.637130 35376 net.cpp:411] conv4_2_sum_bn_conv4_2_sum_relu_0_split -> conv4_2_sum_bn_conv4_2_sum_relu_0_split_1
I0703 18:05:30.637222 35376 net.cpp:150] Setting up conv4_2_sum_bn_conv4_2_sum_relu_0_split
I0703 18:05:30.637241 35376 net.cpp:157] Top shape: 32 1024 14 14 (6422528)
I0703 18:05:30.637257 35376 net.cpp:157] Top shape: 32 1024 14 14 (6422528)
I0703 18:05:30.637271 35376 net.cpp:165] Memory required for data: 5953740928
I0703 18:05:30.637284 35376 layer_factory.hpp:76] Creating layer conv4_3_1
I0703 18:05:30.637310 35376 net.cpp:106] Creating Layer conv4_3_1
I0703 18:05:30.637325 35376 net.cpp:454] conv4_3_1 <- conv4_2_sum_bn_conv4_2_sum_relu_0_split_0
I0703 18:05:30.637346 35376 net.cpp:411] conv4_3_1 -> conv4_3_1
I0703 18:05:30.650332 35376 cudnn_conv_layer.cpp:194] Reallocating workspace storage: 12288
I0703 18:05:30.650574 35376 net.cpp:150] Setting up conv4_3_1
I0703 18:05:30.650615 35376 net.cpp:157] Top shape: 32 256 14 14 (1605632)
I0703 18:05:30.650634 35376 net.cpp:165] Memory required for data: 5960163456
I0703 18:05:30.650693 35376 layer_factory.hpp:76] Creating layer conv4_3_1_bn
I0703 18:05:30.650751 35376 net.cpp:106] Creating Layer conv4_3_1_bn
I0703 18:05:30.650830 35376 net.cpp:454] conv4_3_1_bn <- conv4_3_1
I0703 18:05:30.650876 35376 net.cpp:411] conv4_3_1_bn -> conv4_3_1_bn
I0703 18:05:30.651840 35376 net.cpp:150] Setting up conv4_3_1_bn
I0703 18:05:30.651866 35376 net.cpp:157] Top shape: 32 256 14 14 (1605632)
I0703 18:05:30.651913 35376 net.cpp:165] Memory required for data: 5966585984
I0703 18:05:30.651937 35376 layer_factory.hpp:76] Creating layer conv4_3_1_relu
I0703 18:05:30.651973 35376 net.cpp:106] Creating Layer conv4_3_1_relu
I0703 18:05:30.651993 35376 net.cpp:454] conv4_3_1_relu <- conv4_3_1_bn
I0703 18:05:30.652010 35376 net.cpp:397] conv4_3_1_relu -> conv4_3_1_bn (in-place)
I0703 18:05:30.652515 35376 net.cpp:150] Setting up conv4_3_1_relu
I0703 18:05:30.652539 35376 net.cpp:157] Top shape: 32 256 14 14 (1605632)
I0703 18:05:30.652554 35376 net.cpp:165] Memory required for data: 5973008512
I0703 18:05:30.652578 35376 layer_factory.hpp:76] Creating layer conv4_3_2
I0703 18:05:30.652606 35376 net.cpp:106] Creating Layer conv4_3_2
I0703 18:05:30.652624 35376 net.cpp:454] conv4_3_2 <- conv4_3_1_bn
I0703 18:05:30.652658 35376 net.cpp:411] conv4_3_2 -> conv4_3_2
I0703 18:05:30.674545 35376 net.cpp:150] Setting up conv4_3_2
I0703 18:05:30.674590 35376 net.cpp:157] Top shape: 32 256 14 14 (1605632)
I0703 18:05:30.674607 35376 net.cpp:165] Memory required for data: 5979431040
I0703 18:05:30.674630 35376 layer_factory.hpp:76] Creating layer conv4_3_2_bn
I0703 18:05:30.674659 35376 net.cpp:106] Creating Layer conv4_3_2_bn
I0703 18:05:30.674674 35376 net.cpp:454] conv4_3_2_bn <- conv4_3_2
I0703 18:05:30.674697 35376 net.cpp:411] conv4_3_2_bn -> conv4_3_2_bn
I0703 18:05:30.675101 35376 net.cpp:150] Setting up conv4_3_2_bn
I0703 18:05:30.675127 35376 net.cpp:157] Top shape: 32 256 14 14 (1605632)
I0703 18:05:30.675139 35376 net.cpp:165] Memory required for data: 5985853568
I0703 18:05:30.675163 35376 layer_factory.hpp:76] Creating layer conv4_3_2_relu
I0703 18:05:30.675199 35376 net.cpp:106] Creating Layer conv4_3_2_relu
I0703 18:05:30.675215 35376 net.cpp:454] conv4_3_2_relu <- conv4_3_2_bn
I0703 18:05:30.675246 35376 net.cpp:397] conv4_3_2_relu -> conv4_3_2_bn (in-place)
I0703 18:05:30.675743 35376 net.cpp:150] Setting up conv4_3_2_relu
I0703 18:05:30.675782 35376 net.cpp:157] Top shape: 32 256 14 14 (1605632)
I0703 18:05:30.675796 35376 net.cpp:165] Memory required for data: 5992276096
I0703 18:05:30.675809 35376 layer_factory.hpp:76] Creating layer conv4_3_3
I0703 18:05:30.675832 35376 net.cpp:106] Creating Layer conv4_3_3
I0703 18:05:30.675848 35376 net.cpp:454] conv4_3_3 <- conv4_3_2_bn
I0703 18:05:30.675866 35376 net.cpp:411] conv4_3_3 -> conv4_3_3
I0703 18:05:30.686578 35376 cudnn_conv_layer.cpp:194] Reallocating workspace storage: 3072
I0703 18:05:30.686719 35376 net.cpp:150] Setting up conv4_3_3
I0703 18:05:30.686736 35376 net.cpp:157] Top shape: 32 1024 14 14 (6422528)
I0703 18:05:30.686745 35376 net.cpp:165] Memory required for data: 6017966208
I0703 18:05:30.686766 35376 layer_factory.hpp:76] Creating layer conv4_3_sum
I0703 18:05:30.686790 35376 net.cpp:106] Creating Layer conv4_3_sum
I0703 18:05:30.686803 35376 net.cpp:454] conv4_3_sum <- conv4_2_sum_bn_conv4_2_sum_relu_0_split_1
I0703 18:05:30.686820 35376 net.cpp:454] conv4_3_sum <- conv4_3_3
I0703 18:05:30.686832 35376 net.cpp:411] conv4_3_sum -> conv4_3_sum
I0703 18:05:30.686882 35376 net.cpp:150] Setting up conv4_3_sum
I0703 18:05:30.686894 35376 net.cpp:157] Top shape: 32 1024 14 14 (6422528)
I0703 18:05:30.686902 35376 net.cpp:165] Memory required for data: 6043656320
I0703 18:05:30.686910 35376 layer_factory.hpp:76] Creating layer conv4_3_sum_bn
I0703 18:05:30.686934 35376 net.cpp:106] Creating Layer conv4_3_sum_bn
I0703 18:05:30.686944 35376 net.cpp:454] conv4_3_sum_bn <- conv4_3_sum
I0703 18:05:30.686954 35376 net.cpp:411] conv4_3_sum_bn -> conv4_3_sum_bn
I0703 18:05:30.687237 35376 net.cpp:150] Setting up conv4_3_sum_bn
I0703 18:05:30.687252 35376 net.cpp:157] Top shape: 32 1024 14 14 (6422528)
I0703 18:05:30.687259 35376 net.cpp:165] Memory required for data: 6069346432
I0703 18:05:30.687273 35376 layer_factory.hpp:76] Creating layer conv4_3_sum_relu
I0703 18:05:30.687283 35376 net.cpp:106] Creating Layer conv4_3_sum_relu
I0703 18:05:30.687293 35376 net.cpp:454] conv4_3_sum_relu <- conv4_3_sum_bn
I0703 18:05:30.687309 35376 net.cpp:397] conv4_3_sum_relu -> conv4_3_sum_bn (in-place)
I0703 18:05:30.687539 35376 net.cpp:150] Setting up conv4_3_sum_relu
I0703 18:05:30.687557 35376 net.cpp:157] Top shape: 32 1024 14 14 (6422528)
I0703 18:05:30.687566 35376 net.cpp:165] Memory required for data: 6095036544
I0703 18:05:30.687574 35376 layer_factory.hpp:76] Creating layer conv4_3_sum_bn_conv4_3_sum_relu_0_split
I0703 18:05:30.687587 35376 net.cpp:106] Creating Layer conv4_3_sum_bn_conv4_3_sum_relu_0_split
I0703 18:05:30.687597 35376 net.cpp:454] conv4_3_sum_bn_conv4_3_sum_relu_0_split <- conv4_3_sum_bn
I0703 18:05:30.687608 35376 net.cpp:411] conv4_3_sum_bn_conv4_3_sum_relu_0_split -> conv4_3_sum_bn_conv4_3_sum_relu_0_split_0
I0703 18:05:30.687620 35376 net.cpp:411] conv4_3_sum_bn_conv4_3_sum_relu_0_split -> conv4_3_sum_bn_conv4_3_sum_relu_0_split_1
I0703 18:05:30.687682 35376 net.cpp:150] Setting up conv4_3_sum_bn_conv4_3_sum_relu_0_split
I0703 18:05:30.687695 35376 net.cpp:157] Top shape: 32 1024 14 14 (6422528)
I0703 18:05:30.687703 35376 net.cpp:157] Top shape: 32 1024 14 14 (6422528)
I0703 18:05:30.687711 35376 net.cpp:165] Memory required for data: 6146416768
I0703 18:05:30.687727 35376 layer_factory.hpp:76] Creating layer conv4_4_1
I0703 18:05:30.687744 35376 net.cpp:106] Creating Layer conv4_4_1
I0703 18:05:30.687752 35376 net.cpp:454] conv4_4_1 <- conv4_3_sum_bn_conv4_3_sum_relu_0_split_0
I0703 18:05:30.687770 35376 net.cpp:411] conv4_4_1 -> conv4_4_1
I0703 18:05:30.698402 35376 cudnn_conv_layer.cpp:194] Reallocating workspace storage: 12288
I0703 18:05:30.698459 35376 net.cpp:150] Setting up conv4_4_1
I0703 18:05:30.698474 35376 net.cpp:157] Top shape: 32 256 14 14 (1605632)
I0703 18:05:30.698484 35376 net.cpp:165] Memory required for data: 6152839296
I0703 18:05:30.698498 35376 layer_factory.hpp:76] Creating layer conv4_4_1_bn
I0703 18:05:30.698530 35376 net.cpp:106] Creating Layer conv4_4_1_bn
I0703 18:05:30.698542 35376 net.cpp:454] conv4_4_1_bn <- conv4_4_1
I0703 18:05:30.698559 35376 net.cpp:411] conv4_4_1_bn -> conv4_4_1_bn
I0703 18:05:30.698833 35376 net.cpp:150] Setting up conv4_4_1_bn
I0703 18:05:30.698848 35376 net.cpp:157] Top shape: 32 256 14 14 (1605632)
I0703 18:05:30.698856 35376 net.cpp:165] Memory required for data: 6159261824
I0703 18:05:30.698869 35376 layer_factory.hpp:76] Creating layer conv4_4_1_relu
I0703 18:05:30.698880 35376 net.cpp:106] Creating Layer conv4_4_1_relu
I0703 18:05:30.698889 35376 net.cpp:454] conv4_4_1_relu <- conv4_4_1_bn
I0703 18:05:30.698905 35376 net.cpp:397] conv4_4_1_relu -> conv4_4_1_bn (in-place)
I0703 18:05:30.699256 35376 net.cpp:150] Setting up conv4_4_1_relu
I0703 18:05:30.699276 35376 net.cpp:157] Top shape: 32 256 14 14 (1605632)
I0703 18:05:30.699285 35376 net.cpp:165] Memory required for data: 6165684352
I0703 18:05:30.699293 35376 layer_factory.hpp:76] Creating layer conv4_4_2
I0703 18:05:30.699309 35376 net.cpp:106] Creating Layer conv4_4_2
I0703 18:05:30.699318 35376 net.cpp:454] conv4_4_2 <- conv4_4_1_bn
I0703 18:05:30.699331 35376 net.cpp:411] conv4_4_2 -> conv4_4_2
I0703 18:05:30.721570 35376 net.cpp:150] Setting up conv4_4_2
I0703 18:05:30.721616 35376 net.cpp:157] Top shape: 32 256 14 14 (1605632)
I0703 18:05:30.721626 35376 net.cpp:165] Memory required for data: 6172106880
I0703 18:05:30.721652 35376 layer_factory.hpp:76] Creating layer conv4_4_2_bn
I0703 18:05:30.721673 35376 net.cpp:106] Creating Layer conv4_4_2_bn
I0703 18:05:30.721686 35376 net.cpp:454] conv4_4_2_bn <- conv4_4_2
I0703 18:05:30.721705 35376 net.cpp:411] conv4_4_2_bn -> conv4_4_2_bn
I0703 18:05:30.721993 35376 net.cpp:150] Setting up conv4_4_2_bn
I0703 18:05:30.722009 35376 net.cpp:157] Top shape: 32 256 14 14 (1605632)
I0703 18:05:30.722018 35376 net.cpp:165] Memory required for data: 6178529408
I0703 18:05:30.722030 35376 layer_factory.hpp:76] Creating layer conv4_4_2_relu
I0703 18:05:30.722041 35376 net.cpp:106] Creating Layer conv4_4_2_relu
I0703 18:05:30.722050 35376 net.cpp:454] conv4_4_2_relu <- conv4_4_2_bn
I0703 18:05:30.722062 35376 net.cpp:397] conv4_4_2_relu -> conv4_4_2_bn (in-place)
I0703 18:05:30.722455 35376 net.cpp:150] Setting up conv4_4_2_relu
I0703 18:05:30.722499 35376 net.cpp:157] Top shape: 32 256 14 14 (1605632)
I0703 18:05:30.722508 35376 net.cpp:165] Memory required for data: 6184951936
I0703 18:05:30.722517 35376 layer_factory.hpp:76] Creating layer conv4_4_3
I0703 18:05:30.722535 35376 net.cpp:106] Creating Layer conv4_4_3
I0703 18:05:30.722544 35376 net.cpp:454] conv4_4_3 <- conv4_4_2_bn
I0703 18:05:30.722564 35376 net.cpp:411] conv4_4_3 -> conv4_4_3
I0703 18:05:30.733521 35376 cudnn_conv_layer.cpp:194] Reallocating workspace storage: 3072
I0703 18:05:30.733582 35376 net.cpp:150] Setting up conv4_4_3
I0703 18:05:30.733598 35376 net.cpp:157] Top shape: 32 1024 14 14 (6422528)
I0703 18:05:30.733608 35376 net.cpp:165] Memory required for data: 6210642048
I0703 18:05:30.733623 35376 layer_factory.hpp:76] Creating layer conv4_4_sum
I0703 18:05:30.733641 35376 net.cpp:106] Creating Layer conv4_4_sum
I0703 18:05:30.733652 35376 net.cpp:454] conv4_4_sum <- conv4_3_sum_bn_conv4_3_sum_relu_0_split_1
I0703 18:05:30.733664 35376 net.cpp:454] conv4_4_sum <- conv4_4_3
I0703 18:05:30.733675 35376 net.cpp:411] conv4_4_sum -> conv4_4_sum
I0703 18:05:30.733726 35376 net.cpp:150] Setting up conv4_4_sum
I0703 18:05:30.733741 35376 net.cpp:157] Top shape: 32 1024 14 14 (6422528)
I0703 18:05:30.733749 35376 net.cpp:165] Memory required for data: 6236332160
I0703 18:05:30.733772 35376 layer_factory.hpp:76] Creating layer conv4_4_sum_bn
I0703 18:05:30.733790 35376 net.cpp:106] Creating Layer conv4_4_sum_bn
I0703 18:05:30.733799 35376 net.cpp:454] conv4_4_sum_bn <- conv4_4_sum
I0703 18:05:30.733814 35376 net.cpp:411] conv4_4_sum_bn -> conv4_4_sum_bn
I0703 18:05:30.734087 35376 net.cpp:150] Setting up conv4_4_sum_bn
I0703 18:05:30.734102 35376 net.cpp:157] Top shape: 32 1024 14 14 (6422528)
I0703 18:05:30.734110 35376 net.cpp:165] Memory required for data: 6262022272
I0703 18:05:30.734123 35376 layer_factory.hpp:76] Creating layer conv4_4_sum_relu
I0703 18:05:30.734134 35376 net.cpp:106] Creating Layer conv4_4_sum_relu
I0703 18:05:30.734143 35376 net.cpp:454] conv4_4_sum_relu <- conv4_4_sum_bn
I0703 18:05:30.734155 35376 net.cpp:397] conv4_4_sum_relu -> conv4_4_sum_bn (in-place)
I0703 18:05:30.734355 35376 net.cpp:150] Setting up conv4_4_sum_relu
I0703 18:05:30.734375 35376 net.cpp:157] Top shape: 32 1024 14 14 (6422528)
I0703 18:05:30.734383 35376 net.cpp:165] Memory required for data: 6287712384
I0703 18:05:30.734391 35376 layer_factory.hpp:76] Creating layer conv4_4_sum_bn_conv4_4_sum_relu_0_split
I0703 18:05:30.734402 35376 net.cpp:106] Creating Layer conv4_4_sum_bn_conv4_4_sum_relu_0_split
I0703 18:05:30.734411 35376 net.cpp:454] conv4_4_sum_bn_conv4_4_sum_relu_0_split <- conv4_4_sum_bn
I0703 18:05:30.734421 35376 net.cpp:411] conv4_4_sum_bn_conv4_4_sum_relu_0_split -> conv4_4_sum_bn_conv4_4_sum_relu_0_split_0
I0703 18:05:30.734432 35376 net.cpp:411] conv4_4_sum_bn_conv4_4_sum_relu_0_split -> conv4_4_sum_bn_conv4_4_sum_relu_0_split_1
I0703 18:05:30.734500 35376 net.cpp:150] Setting up conv4_4_sum_bn_conv4_4_sum_relu_0_split
I0703 18:05:30.734513 35376 net.cpp:157] Top shape: 32 1024 14 14 (6422528)
I0703 18:05:30.734521 35376 net.cpp:157] Top shape: 32 1024 14 14 (6422528)
I0703 18:05:30.734529 35376 net.cpp:165] Memory required for data: 6339092608
I0703 18:05:30.734539 35376 layer_factory.hpp:76] Creating layer conv4_5_1
I0703 18:05:30.734572 35376 net.cpp:106] Creating Layer conv4_5_1
I0703 18:05:30.734581 35376 net.cpp:454] conv4_5_1 <- conv4_4_sum_bn_conv4_4_sum_relu_0_split_0
I0703 18:05:30.734594 35376 net.cpp:411] conv4_5_1 -> conv4_5_1
I0703 18:05:30.745224 35376 cudnn_conv_layer.cpp:194] Reallocating workspace storage: 12288
I0703 18:05:30.745278 35376 net.cpp:150] Setting up conv4_5_1
I0703 18:05:30.745293 35376 net.cpp:157] Top shape: 32 256 14 14 (1605632)
I0703 18:05:30.745301 35376 net.cpp:165] Memory required for data: 6345515136
I0703 18:05:30.745316 35376 layer_factory.hpp:76] Creating layer conv4_5_1_bn
I0703 18:05:30.745333 35376 net.cpp:106] Creating Layer conv4_5_1_bn
I0703 18:05:30.745344 35376 net.cpp:454] conv4_5_1_bn <- conv4_5_1
I0703 18:05:30.745380 35376 net.cpp:411] conv4_5_1_bn -> conv4_5_1_bn
I0703 18:05:30.745666 35376 net.cpp:150] Setting up conv4_5_1_bn
I0703 18:05:30.745681 35376 net.cpp:157] Top shape: 32 256 14 14 (1605632)
I0703 18:05:30.745688 35376 net.cpp:165] Memory required for data: 6351937664
I0703 18:05:30.745702 35376 layer_factory.hpp:76] Creating layer conv4_5_1_relu
I0703 18:05:30.745713 35376 net.cpp:106] Creating Layer conv4_5_1_relu
I0703 18:05:30.745723 35376 net.cpp:454] conv4_5_1_relu <- conv4_5_1_bn
I0703 18:05:30.745734 35376 net.cpp:397] conv4_5_1_relu -> conv4_5_1_bn (in-place)
I0703 18:05:30.746086 35376 net.cpp:150] Setting up conv4_5_1_relu
I0703 18:05:30.746106 35376 net.cpp:157] Top shape: 32 256 14 14 (1605632)
I0703 18:05:30.746115 35376 net.cpp:165] Memory required for data: 6358360192
I0703 18:05:30.746124 35376 layer_factory.hpp:76] Creating layer conv4_5_2
I0703 18:05:30.746152 35376 net.cpp:106] Creating Layer conv4_5_2
I0703 18:05:30.746163 35376 net.cpp:454] conv4_5_2 <- conv4_5_1_bn
I0703 18:05:30.746176 35376 net.cpp:411] conv4_5_2 -> conv4_5_2
I0703 18:05:30.770591 35376 net.cpp:150] Setting up conv4_5_2
I0703 18:05:30.770627 35376 net.cpp:157] Top shape: 32 256 14 14 (1605632)
I0703 18:05:30.770632 35376 net.cpp:165] Memory required for data: 6364782720
I0703 18:05:30.770644 35376 layer_factory.hpp:76] Creating layer conv4_5_2_bn
I0703 18:05:30.770658 35376 net.cpp:106] Creating Layer conv4_5_2_bn
I0703 18:05:30.770665 35376 net.cpp:454] conv4_5_2_bn <- conv4_5_2
I0703 18:05:30.770676 35376 net.cpp:411] conv4_5_2_bn -> conv4_5_2_bn
I0703 18:05:30.770941 35376 net.cpp:150] Setting up conv4_5_2_bn
I0703 18:05:30.770948 35376 net.cpp:157] Top shape: 32 256 14 14 (1605632)
I0703 18:05:30.770952 35376 net.cpp:165] Memory required for data: 6371205248
I0703 18:05:30.770962 35376 layer_factory.hpp:76] Creating layer conv4_5_2_relu
I0703 18:05:30.770972 35376 net.cpp:106] Creating Layer conv4_5_2_relu
I0703 18:05:30.770975 35376 net.cpp:454] conv4_5_2_relu <- conv4_5_2_bn
I0703 18:05:30.770982 35376 net.cpp:397] conv4_5_2_relu -> conv4_5_2_bn (in-place)
I0703 18:05:30.771353 35376 net.cpp:150] Setting up conv4_5_2_relu
I0703 18:05:30.771363 35376 net.cpp:157] Top shape: 32 256 14 14 (1605632)
I0703 18:05:30.771368 35376 net.cpp:165] Memory required for data: 6377627776
I0703 18:05:30.771373 35376 layer_factory.hpp:76] Creating layer conv4_5_3
I0703 18:05:30.771389 35376 net.cpp:106] Creating Layer conv4_5_3
I0703 18:05:30.771394 35376 net.cpp:454] conv4_5_3 <- conv4_5_2_bn
I0703 18:05:30.771402 35376 net.cpp:411] conv4_5_3 -> conv4_5_3
I0703 18:05:30.781172 35376 cudnn_conv_layer.cpp:194] Reallocating workspace storage: 3072
I0703 18:05:30.781220 35376 net.cpp:150] Setting up conv4_5_3
I0703 18:05:30.781234 35376 net.cpp:157] Top shape: 32 1024 14 14 (6422528)
I0703 18:05:30.781242 35376 net.cpp:165] Memory required for data: 6403317888
I0703 18:05:30.781255 35376 layer_factory.hpp:76] Creating layer conv4_5_sum
I0703 18:05:30.781270 35376 net.cpp:106] Creating Layer conv4_5_sum
I0703 18:05:30.781280 35376 net.cpp:454] conv4_5_sum <- conv4_4_sum_bn_conv4_4_sum_relu_0_split_1
I0703 18:05:30.781292 35376 net.cpp:454] conv4_5_sum <- conv4_5_3
I0703 18:05:30.781304 35376 net.cpp:411] conv4_5_sum -> conv4_5_sum
I0703 18:05:30.781348 35376 net.cpp:150] Setting up conv4_5_sum
I0703 18:05:30.781363 35376 net.cpp:157] Top shape: 32 1024 14 14 (6422528)
I0703 18:05:30.781373 35376 net.cpp:165] Memory required for data: 6429008000
I0703 18:05:30.781383 35376 layer_factory.hpp:76] Creating layer conv4_5_sum_bn
I0703 18:05:30.781394 35376 net.cpp:106] Creating Layer conv4_5_sum_bn
I0703 18:05:30.781402 35376 net.cpp:454] conv4_5_sum_bn <- conv4_5_sum
I0703 18:05:30.781414 35376 net.cpp:411] conv4_5_sum_bn -> conv4_5_sum_bn
I0703 18:05:30.781674 35376 net.cpp:150] Setting up conv4_5_sum_bn
I0703 18:05:30.781689 35376 net.cpp:157] Top shape: 32 1024 14 14 (6422528)
I0703 18:05:30.781697 35376 net.cpp:165] Memory required for data: 6454698112
I0703 18:05:30.781709 35376 layer_factory.hpp:76] Creating layer conv4_5_sum_relu
I0703 18:05:30.781749 35376 net.cpp:106] Creating Layer conv4_5_sum_relu
I0703 18:05:30.781757 35376 net.cpp:454] conv4_5_sum_relu <- conv4_5_sum_bn
I0703 18:05:30.781769 35376 net.cpp:397] conv4_5_sum_relu -> conv4_5_sum_bn (in-place)
I0703 18:05:30.781976 35376 net.cpp:150] Setting up conv4_5_sum_relu
I0703 18:05:30.781993 35376 net.cpp:157] Top shape: 32 1024 14 14 (6422528)
I0703 18:05:30.782001 35376 net.cpp:165] Memory required for data: 6480388224
I0703 18:05:30.782011 35376 layer_factory.hpp:76] Creating layer conv4_5_sum_bn_conv4_5_sum_relu_0_split
I0703 18:05:30.782023 35376 net.cpp:106] Creating Layer conv4_5_sum_bn_conv4_5_sum_relu_0_split
I0703 18:05:30.782032 35376 net.cpp:454] conv4_5_sum_bn_conv4_5_sum_relu_0_split <- conv4_5_sum_bn
I0703 18:05:30.782042 35376 net.cpp:411] conv4_5_sum_bn_conv4_5_sum_relu_0_split -> conv4_5_sum_bn_conv4_5_sum_relu_0_split_0
I0703 18:05:30.782053 35376 net.cpp:411] conv4_5_sum_bn_conv4_5_sum_relu_0_split -> conv4_5_sum_bn_conv4_5_sum_relu_0_split_1
I0703 18:05:30.782117 35376 net.cpp:150] Setting up conv4_5_sum_bn_conv4_5_sum_relu_0_split
I0703 18:05:30.782131 35376 net.cpp:157] Top shape: 32 1024 14 14 (6422528)
I0703 18:05:30.782141 35376 net.cpp:157] Top shape: 32 1024 14 14 (6422528)
I0703 18:05:30.782148 35376 net.cpp:165] Memory required for data: 6531768448
I0703 18:05:30.782156 35376 layer_factory.hpp:76] Creating layer conv4_6_1
I0703 18:05:30.782176 35376 net.cpp:106] Creating Layer conv4_6_1
I0703 18:05:30.782196 35376 net.cpp:454] conv4_6_1 <- conv4_5_sum_bn_conv4_5_sum_relu_0_split_0
I0703 18:05:30.782209 35376 net.cpp:411] conv4_6_1 -> conv4_6_1
I0703 18:05:30.792060 35376 cudnn_conv_layer.cpp:194] Reallocating workspace storage: 12288
I0703 18:05:30.792104 35376 net.cpp:150] Setting up conv4_6_1
I0703 18:05:30.792119 35376 net.cpp:157] Top shape: 32 256 14 14 (1605632)
I0703 18:05:30.792127 35376 net.cpp:165] Memory required for data: 6538190976
I0703 18:05:30.792141 35376 layer_factory.hpp:76] Creating layer conv4_6_1_bn
I0703 18:05:30.792153 35376 net.cpp:106] Creating Layer conv4_6_1_bn
I0703 18:05:30.792163 35376 net.cpp:454] conv4_6_1_bn <- conv4_6_1
I0703 18:05:30.792176 35376 net.cpp:411] conv4_6_1_bn -> conv4_6_1_bn
I0703 18:05:30.792436 35376 net.cpp:150] Setting up conv4_6_1_bn
I0703 18:05:30.792451 35376 net.cpp:157] Top shape: 32 256 14 14 (1605632)
I0703 18:05:30.792460 35376 net.cpp:165] Memory required for data: 6544613504
I0703 18:05:30.792471 35376 layer_factory.hpp:76] Creating layer conv4_6_1_relu
I0703 18:05:30.792482 35376 net.cpp:106] Creating Layer conv4_6_1_relu
I0703 18:05:30.792490 35376 net.cpp:454] conv4_6_1_relu <- conv4_6_1_bn
I0703 18:05:30.792502 35376 net.cpp:397] conv4_6_1_relu -> conv4_6_1_bn (in-place)
I0703 18:05:30.792834 35376 net.cpp:150] Setting up conv4_6_1_relu
I0703 18:05:30.792851 35376 net.cpp:157] Top shape: 32 256 14 14 (1605632)
I0703 18:05:30.792860 35376 net.cpp:165] Memory required for data: 6551036032
I0703 18:05:30.792867 35376 layer_factory.hpp:76] Creating layer conv4_6_2
I0703 18:05:30.792883 35376 net.cpp:106] Creating Layer conv4_6_2
I0703 18:05:30.792893 35376 net.cpp:454] conv4_6_2 <- conv4_6_1_bn
I0703 18:05:30.792904 35376 net.cpp:411] conv4_6_2 -> conv4_6_2
I0703 18:05:30.812489 35376 net.cpp:150] Setting up conv4_6_2
I0703 18:05:30.812530 35376 net.cpp:157] Top shape: 32 256 14 14 (1605632)
I0703 18:05:30.812541 35376 net.cpp:165] Memory required for data: 6557458560
I0703 18:05:30.812717 35376 layer_factory.hpp:76] Creating layer conv4_6_2_bn
I0703 18:05:30.812736 35376 net.cpp:106] Creating Layer conv4_6_2_bn
I0703 18:05:30.812746 35376 net.cpp:454] conv4_6_2_bn <- conv4_6_2
I0703 18:05:30.812758 35376 net.cpp:411] conv4_6_2_bn -> conv4_6_2_bn
I0703 18:05:30.813035 35376 net.cpp:150] Setting up conv4_6_2_bn
I0703 18:05:30.813050 35376 net.cpp:157] Top shape: 32 256 14 14 (1605632)
I0703 18:05:30.813057 35376 net.cpp:165] Memory required for data: 6563881088
I0703 18:05:30.813071 35376 layer_factory.hpp:76] Creating layer conv4_6_2_relu
I0703 18:05:30.813086 35376 net.cpp:106] Creating Layer conv4_6_2_relu
I0703 18:05:30.813115 35376 net.cpp:454] conv4_6_2_relu <- conv4_6_2_bn
I0703 18:05:30.813125 35376 net.cpp:397] conv4_6_2_relu -> conv4_6_2_bn (in-place)
I0703 18:05:30.813480 35376 net.cpp:150] Setting up conv4_6_2_relu
I0703 18:05:30.813499 35376 net.cpp:157] Top shape: 32 256 14 14 (1605632)
I0703 18:05:30.813508 35376 net.cpp:165] Memory required for data: 6570303616
I0703 18:05:30.813516 35376 layer_factory.hpp:76] Creating layer conv4_6_3
I0703 18:05:30.813534 35376 net.cpp:106] Creating Layer conv4_6_3
I0703 18:05:30.813544 35376 net.cpp:454] conv4_6_3 <- conv4_6_2_bn
I0703 18:05:30.813556 35376 net.cpp:411] conv4_6_3 -> conv4_6_3
I0703 18:05:30.823369 35376 cudnn_conv_layer.cpp:194] Reallocating workspace storage: 3072
I0703 18:05:30.823421 35376 net.cpp:150] Setting up conv4_6_3
I0703 18:05:30.823434 35376 net.cpp:157] Top shape: 32 1024 14 14 (6422528)
I0703 18:05:30.823443 35376 net.cpp:165] Memory required for data: 6595993728
I0703 18:05:30.823456 35376 layer_factory.hpp:76] Creating layer conv4_6_sum
I0703 18:05:30.823478 35376 net.cpp:106] Creating Layer conv4_6_sum
I0703 18:05:30.823492 35376 net.cpp:454] conv4_6_sum <- conv4_5_sum_bn_conv4_5_sum_relu_0_split_1
I0703 18:05:30.823503 35376 net.cpp:454] conv4_6_sum <- conv4_6_3
I0703 18:05:30.823513 35376 net.cpp:411] conv4_6_sum -> conv4_6_sum
I0703 18:05:30.823564 35376 net.cpp:150] Setting up conv4_6_sum
I0703 18:05:30.823577 35376 net.cpp:157] Top shape: 32 1024 14 14 (6422528)
I0703 18:05:30.823588 35376 net.cpp:165] Memory required for data: 6621683840
I0703 18:05:30.823596 35376 layer_factory.hpp:76] Creating layer conv4_6_sum_bn
I0703 18:05:30.823611 35376 net.cpp:106] Creating Layer conv4_6_sum_bn
I0703 18:05:30.823623 35376 net.cpp:454] conv4_6_sum_bn <- conv4_6_sum
I0703 18:05:30.823637 35376 net.cpp:411] conv4_6_sum_bn -> conv4_6_sum_bn
I0703 18:05:30.823899 35376 net.cpp:150] Setting up conv4_6_sum_bn
I0703 18:05:30.823914 35376 net.cpp:157] Top shape: 32 1024 14 14 (6422528)
I0703 18:05:30.823920 35376 net.cpp:165] Memory required for data: 6647373952
I0703 18:05:30.823935 35376 layer_factory.hpp:76] Creating layer conv4_6_sum_relu
I0703 18:05:30.823950 35376 net.cpp:106] Creating Layer conv4_6_sum_relu
I0703 18:05:30.823958 35376 net.cpp:454] conv4_6_sum_relu <- conv4_6_sum_bn
I0703 18:05:30.823966 35376 net.cpp:397] conv4_6_sum_relu -> conv4_6_sum_bn (in-place)
I0703 18:05:30.824162 35376 net.cpp:150] Setting up conv4_6_sum_relu
I0703 18:05:30.824178 35376 net.cpp:157] Top shape: 32 1024 14 14 (6422528)
I0703 18:05:30.824192 35376 net.cpp:165] Memory required for data: 6673064064
I0703 18:05:30.824200 35376 layer_factory.hpp:76] Creating layer conv4_6_sum_bn_conv4_6_sum_relu_0_split
I0703 18:05:30.824214 35376 net.cpp:106] Creating Layer conv4_6_sum_bn_conv4_6_sum_relu_0_split
I0703 18:05:30.824223 35376 net.cpp:454] conv4_6_sum_bn_conv4_6_sum_relu_0_split <- conv4_6_sum_bn
I0703 18:05:30.824234 35376 net.cpp:411] conv4_6_sum_bn_conv4_6_sum_relu_0_split -> conv4_6_sum_bn_conv4_6_sum_relu_0_split_0
I0703 18:05:30.824245 35376 net.cpp:411] conv4_6_sum_bn_conv4_6_sum_relu_0_split -> conv4_6_sum_bn_conv4_6_sum_relu_0_split_1
I0703 18:05:30.824306 35376 net.cpp:150] Setting up conv4_6_sum_bn_conv4_6_sum_relu_0_split
I0703 18:05:30.824322 35376 net.cpp:157] Top shape: 32 1024 14 14 (6422528)
I0703 18:05:30.824331 35376 net.cpp:157] Top shape: 32 1024 14 14 (6422528)
I0703 18:05:30.824338 35376 net.cpp:165] Memory required for data: 6724444288
I0703 18:05:30.824348 35376 layer_factory.hpp:76] Creating layer conv4_7_1
I0703 18:05:30.824362 35376 net.cpp:106] Creating Layer conv4_7_1
I0703 18:05:30.824369 35376 net.cpp:454] conv4_7_1 <- conv4_6_sum_bn_conv4_6_sum_relu_0_split_0
I0703 18:05:30.824384 35376 net.cpp:411] conv4_7_1 -> conv4_7_1
I0703 18:05:30.834208 35376 cudnn_conv_layer.cpp:194] Reallocating workspace storage: 12288
I0703 18:05:30.834255 35376 net.cpp:150] Setting up conv4_7_1
I0703 18:05:30.834270 35376 net.cpp:157] Top shape: 32 256 14 14 (1605632)
I0703 18:05:30.834277 35376 net.cpp:165] Memory required for data: 6730866816
I0703 18:05:30.834311 35376 layer_factory.hpp:76] Creating layer conv4_7_1_bn
I0703 18:05:30.834336 35376 net.cpp:106] Creating Layer conv4_7_1_bn
I0703 18:05:30.834345 35376 net.cpp:454] conv4_7_1_bn <- conv4_7_1
I0703 18:05:30.834358 35376 net.cpp:411] conv4_7_1_bn -> conv4_7_1_bn
I0703 18:05:30.834638 35376 net.cpp:150] Setting up conv4_7_1_bn
I0703 18:05:30.834653 35376 net.cpp:157] Top shape: 32 256 14 14 (1605632)
I0703 18:05:30.834667 35376 net.cpp:165] Memory required for data: 6737289344
I0703 18:05:30.834681 35376 layer_factory.hpp:76] Creating layer conv4_7_1_relu
I0703 18:05:30.834694 35376 net.cpp:106] Creating Layer conv4_7_1_relu
I0703 18:05:30.834702 35376 net.cpp:454] conv4_7_1_relu <- conv4_7_1_bn
I0703 18:05:30.834712 35376 net.cpp:397] conv4_7_1_relu -> conv4_7_1_bn (in-place)
I0703 18:05:30.835060 35376 net.cpp:150] Setting up conv4_7_1_relu
I0703 18:05:30.835080 35376 net.cpp:157] Top shape: 32 256 14 14 (1605632)
I0703 18:05:30.835088 35376 net.cpp:165] Memory required for data: 6743711872
I0703 18:05:30.835096 35376 layer_factory.hpp:76] Creating layer conv4_7_2
I0703 18:05:30.835114 35376 net.cpp:106] Creating Layer conv4_7_2
I0703 18:05:30.835124 35376 net.cpp:454] conv4_7_2 <- conv4_7_1_bn
I0703 18:05:30.835136 35376 net.cpp:411] conv4_7_2 -> conv4_7_2
I0703 18:05:30.855306 35376 net.cpp:150] Setting up conv4_7_2
I0703 18:05:30.855339 35376 net.cpp:157] Top shape: 32 256 14 14 (1605632)
I0703 18:05:30.855346 35376 net.cpp:165] Memory required for data: 6750134400
I0703 18:05:30.855363 35376 layer_factory.hpp:76] Creating layer conv4_7_2_bn
I0703 18:05:30.855376 35376 net.cpp:106] Creating Layer conv4_7_2_bn
I0703 18:05:30.855386 35376 net.cpp:454] conv4_7_2_bn <- conv4_7_2
I0703 18:05:30.855402 35376 net.cpp:411] conv4_7_2_bn -> conv4_7_2_bn
I0703 18:05:30.855669 35376 net.cpp:150] Setting up conv4_7_2_bn
I0703 18:05:30.855684 35376 net.cpp:157] Top shape: 32 256 14 14 (1605632)
I0703 18:05:30.855690 35376 net.cpp:165] Memory required for data: 6756556928
I0703 18:05:30.855701 35376 layer_factory.hpp:76] Creating layer conv4_7_2_relu
I0703 18:05:30.855718 35376 net.cpp:106] Creating Layer conv4_7_2_relu
I0703 18:05:30.855727 35376 net.cpp:454] conv4_7_2_relu <- conv4_7_2_bn
I0703 18:05:30.855736 35376 net.cpp:397] conv4_7_2_relu -> conv4_7_2_bn (in-place)
I0703 18:05:30.856068 35376 net.cpp:150] Setting up conv4_7_2_relu
I0703 18:05:30.856086 35376 net.cpp:157] Top shape: 32 256 14 14 (1605632)
I0703 18:05:30.856094 35376 net.cpp:165] Memory required for data: 6762979456
I0703 18:05:30.856103 35376 layer_factory.hpp:76] Creating layer conv4_7_3
I0703 18:05:30.856122 35376 net.cpp:106] Creating Layer conv4_7_3
I0703 18:05:30.856130 35376 net.cpp:454] conv4_7_3 <- conv4_7_2_bn
I0703 18:05:30.856140 35376 net.cpp:411] conv4_7_3 -> conv4_7_3
I0703 18:05:30.865803 35376 cudnn_conv_layer.cpp:194] Reallocating workspace storage: 3072
I0703 18:05:30.865849 35376 net.cpp:150] Setting up conv4_7_3
I0703 18:05:30.865862 35376 net.cpp:157] Top shape: 32 1024 14 14 (6422528)
I0703 18:05:30.865870 35376 net.cpp:165] Memory required for data: 6788669568
I0703 18:05:30.865881 35376 layer_factory.hpp:76] Creating layer conv4_7_sum
I0703 18:05:30.865893 35376 net.cpp:106] Creating Layer conv4_7_sum
I0703 18:05:30.865903 35376 net.cpp:454] conv4_7_sum <- conv4_6_sum_bn_conv4_6_sum_relu_0_split_1
I0703 18:05:30.865912 35376 net.cpp:454] conv4_7_sum <- conv4_7_3
I0703 18:05:30.865924 35376 net.cpp:411] conv4_7_sum -> conv4_7_sum
I0703 18:05:30.865967 35376 net.cpp:150] Setting up conv4_7_sum
I0703 18:05:30.865994 35376 net.cpp:157] Top shape: 32 1024 14 14 (6422528)
I0703 18:05:30.866003 35376 net.cpp:165] Memory required for data: 6814359680
I0703 18:05:30.866010 35376 layer_factory.hpp:76] Creating layer conv4_7_sum_bn
I0703 18:05:30.866022 35376 net.cpp:106] Creating Layer conv4_7_sum_bn
I0703 18:05:30.866030 35376 net.cpp:454] conv4_7_sum_bn <- conv4_7_sum
I0703 18:05:30.866046 35376 net.cpp:411] conv4_7_sum_bn -> conv4_7_sum_bn
I0703 18:05:30.866307 35376 net.cpp:150] Setting up conv4_7_sum_bn
I0703 18:05:30.866339 35376 net.cpp:157] Top shape: 32 1024 14 14 (6422528)
I0703 18:05:30.866346 35376 net.cpp:165] Memory required for data: 6840049792
I0703 18:05:30.866358 35376 layer_factory.hpp:76] Creating layer conv4_7_sum_relu
I0703 18:05:30.866370 35376 net.cpp:106] Creating Layer conv4_7_sum_relu
I0703 18:05:30.866379 35376 net.cpp:454] conv4_7_sum_relu <- conv4_7_sum_bn
I0703 18:05:30.866389 35376 net.cpp:397] conv4_7_sum_relu -> conv4_7_sum_bn (in-place)
I0703 18:05:30.866580 35376 net.cpp:150] Setting up conv4_7_sum_relu
I0703 18:05:30.866596 35376 net.cpp:157] Top shape: 32 1024 14 14 (6422528)
I0703 18:05:30.866605 35376 net.cpp:165] Memory required for data: 6865739904
I0703 18:05:30.866612 35376 layer_factory.hpp:76] Creating layer conv4_7_sum_bn_conv4_7_sum_relu_0_split
I0703 18:05:30.866623 35376 net.cpp:106] Creating Layer conv4_7_sum_bn_conv4_7_sum_relu_0_split
I0703 18:05:30.866631 35376 net.cpp:454] conv4_7_sum_bn_conv4_7_sum_relu_0_split <- conv4_7_sum_bn
I0703 18:05:30.866641 35376 net.cpp:411] conv4_7_sum_bn_conv4_7_sum_relu_0_split -> conv4_7_sum_bn_conv4_7_sum_relu_0_split_0
I0703 18:05:30.866652 35376 net.cpp:411] conv4_7_sum_bn_conv4_7_sum_relu_0_split -> conv4_7_sum_bn_conv4_7_sum_relu_0_split_1
I0703 18:05:30.866710 35376 net.cpp:150] Setting up conv4_7_sum_bn_conv4_7_sum_relu_0_split
I0703 18:05:30.866734 35376 net.cpp:157] Top shape: 32 1024 14 14 (6422528)
I0703 18:05:30.866744 35376 net.cpp:157] Top shape: 32 1024 14 14 (6422528)
I0703 18:05:30.866751 35376 net.cpp:165] Memory required for data: 6917120128
I0703 18:05:30.866758 35376 layer_factory.hpp:76] Creating layer conv4_8_1
I0703 18:05:30.866772 35376 net.cpp:106] Creating Layer conv4_8_1
I0703 18:05:30.866781 35376 net.cpp:454] conv4_8_1 <- conv4_7_sum_bn_conv4_7_sum_relu_0_split_0
I0703 18:05:30.866793 35376 net.cpp:411] conv4_8_1 -> conv4_8_1
I0703 18:05:30.876327 35376 cudnn_conv_layer.cpp:194] Reallocating workspace storage: 12288
I0703 18:05:30.876368 35376 net.cpp:150] Setting up conv4_8_1
I0703 18:05:30.876382 35376 net.cpp:157] Top shape: 32 256 14 14 (1605632)
I0703 18:05:30.876396 35376 net.cpp:165] Memory required for data: 6923542656
I0703 18:05:30.876407 35376 layer_factory.hpp:76] Creating layer conv4_8_1_bn
I0703 18:05:30.876418 35376 net.cpp:106] Creating Layer conv4_8_1_bn
I0703 18:05:30.876446 35376 net.cpp:454] conv4_8_1_bn <- conv4_8_1
I0703 18:05:30.876459 35376 net.cpp:411] conv4_8_1_bn -> conv4_8_1_bn
I0703 18:05:30.876737 35376 net.cpp:150] Setting up conv4_8_1_bn
I0703 18:05:30.876752 35376 net.cpp:157] Top shape: 32 256 14 14 (1605632)
I0703 18:05:30.876760 35376 net.cpp:165] Memory required for data: 6929965184
I0703 18:05:30.876770 35376 layer_factory.hpp:76] Creating layer conv4_8_1_relu
I0703 18:05:30.876783 35376 net.cpp:106] Creating Layer conv4_8_1_relu
I0703 18:05:30.876791 35376 net.cpp:454] conv4_8_1_relu <- conv4_8_1_bn
I0703 18:05:30.876803 35376 net.cpp:397] conv4_8_1_relu -> conv4_8_1_bn (in-place)
I0703 18:05:30.877233 35376 net.cpp:150] Setting up conv4_8_1_relu
I0703 18:05:30.877255 35376 net.cpp:157] Top shape: 32 256 14 14 (1605632)
…
I0703 18:05:34.381165 35376 net.cpp:411] conv4_32_2 -> conv4_32_2
I0703 18:05:34.403244 35376 net.cpp:150] Setting up conv4_32_2
I0703 18:05:34.403290 35376 net.cpp:157] Top shape: 32 256 14 14 (1605632)
I0703 18:05:34.403301 35376 net.cpp:165] Memory required for data: 11567030656
I0703 18:05:34.403316 35376 layer_factory.hpp:76] Creating layer conv4_32_2_bn
I0703 18:05:34.403333 35376 net.cpp:106] Creating Layer conv4_32_2_bn
I0703 18:05:34.403347 35376 net.cpp:454] conv4_32_2_bn <- conv4_32_2
I0703 18:05:34.403385 35376 net.cpp:411] conv4_32_2_bn -> conv4_32_2_bn
I0703 18:05:34.403682 35376 net.cpp:150] Setting up conv4_32_2_bn
I0703 18:05:34.403697 35376 net.cpp:157] Top shape: 32 256 14 14 (1605632)
I0703 18:05:34.403707 35376 net.cpp:165] Memory required for data: 11573453184
I0703 18:05:34.403718 35376 layer_factory.hpp:76] Creating layer conv4_32_2_relu
I0703 18:05:34.403731 35376 net.cpp:106] Creating Layer conv4_32_2_relu
I0703 18:05:34.403740 35376 net.cpp:454] conv4_32_2_relu <- conv4_32_2_bn
I0703 18:05:34.403750 35376 net.cpp:397] conv4_32_2_relu -> conv4_32_2_bn (in-place)
I0703 18:05:34.404002 35376 net.cpp:150] Setting up conv4_32_2_relu
I0703 18:05:34.404019 35376 net.cpp:157] Top shape: 32 256 14 14 (1605632)
I0703 18:05:34.404027 35376 net.cpp:165] Memory required for data: 11579875712
I0703 18:05:34.404036 35376 layer_factory.hpp:76] Creating layer conv4_32_3
I0703 18:05:34.404054 35376 net.cpp:106] Creating Layer conv4_32_3
I0703 18:05:34.404063 35376 net.cpp:454] conv4_32_3 <- conv4_32_2_bn
I0703 18:05:34.404074 35376 net.cpp:411] conv4_32_3 -> conv4_32_3
I0703 18:05:34.415673 35376 cudnn_conv_layer.cpp:194] Reallocating workspace storage: 3072
I0703 18:05:34.415789 35376 net.cpp:150] Setting up conv4_32_3
I0703 18:05:34.415810 35376 net.cpp:157] Top shape: 32 1024 14 14 (6422528)
I0703 18:05:34.415819 35376 net.cpp:165] Memory required for data: 11605565824
I0703 18:05:34.415837 35376 layer_factory.hpp:76] Creating layer conv4_32_sum
I0703 18:05:34.415856 35376 net.cpp:106] Creating Layer conv4_32_sum
I0703 18:05:34.415869 35376 net.cpp:454] conv4_32_sum <- conv4_31_sum_bn_conv4_31_sum_relu_0_split_1
I0703 18:05:34.415881 35376 net.cpp:454] conv4_32_sum <- conv4_32_3
I0703 18:05:34.415892 35376 net.cpp:411] conv4_32_sum -> conv4_32_sum
I0703 18:05:34.415951 35376 net.cpp:150] Setting up conv4_32_sum
I0703 18:05:34.415964 35376 net.cpp:157] Top shape: 32 1024 14 14 (6422528)
I0703 18:05:34.415972 35376 net.cpp:165] Memory required for data: 11631255936
I0703 18:05:34.415982 35376 layer_factory.hpp:76] Creating layer conv4_32_sum_bn
I0703 18:05:34.415999 35376 net.cpp:106] Creating Layer conv4_32_sum_bn
I0703 18:05:34.416008 35376 net.cpp:454] conv4_32_sum_bn <- conv4_32_sum
I0703 18:05:34.416018 35376 net.cpp:411] conv4_32_sum_bn -> conv4_32_sum_bn
I0703 18:05:34.416334 35376 net.cpp:150] Setting up conv4_32_sum_bn
I0703 18:05:34.416352 35376 net.cpp:157] Top shape: 32 1024 14 14 (6422528)
I0703 18:05:34.416360 35376 net.cpp:165] Memory required for data: 11656946048
I0703 18:05:34.416373 35376 layer_factory.hpp:76] Creating layer conv4_32_sum_relu
I0703 18:05:34.416385 35376 net.cpp:106] Creating Layer conv4_32_sum_relu
I0703 18:05:34.416394 35376 net.cpp:454] conv4_32_sum_relu <- conv4_32_sum_bn
I0703 18:05:34.416404 35376 net.cpp:397] conv4_32_sum_relu -> conv4_32_sum_bn (in-place)
I0703 18:05:34.417006 35376 net.cpp:150] Setting up conv4_32_sum_relu
I0703 18:05:34.417027 35376 net.cpp:157] Top shape: 32 1024 14 14 (6422528)
I0703 18:05:34.417037 35376 net.cpp:165] Memory required for data: 11682636160
I0703 18:05:34.417045 35376 layer_factory.hpp:76] Creating layer conv4_32_sum_bn_conv4_32_sum_relu_0_split
I0703 18:05:34.417058 35376 net.cpp:106] Creating Layer conv4_32_sum_bn_conv4_32_sum_relu_0_split
I0703 18:05:34.417068 35376 net.cpp:454] conv4_32_sum_bn_conv4_32_sum_relu_0_split <- conv4_32_sum_bn
I0703 18:05:34.417080 35376 net.cpp:411] conv4_32_sum_bn_conv4_32_sum_relu_0_split -> conv4_32_sum_bn_conv4_32_sum_relu_0_split_0
I0703 18:05:34.417093 35376 net.cpp:411] conv4_32_sum_bn_conv4_32_sum_relu_0_split -> conv4_32_sum_bn_conv4_32_sum_relu_0_split_1
I0703 18:05:34.417165 35376 net.cpp:150] Setting up conv4_32_sum_bn_conv4_32_sum_relu_0_split
I0703 18:05:34.417179 35376 net.cpp:157] Top shape: 32 1024 14 14 (6422528)
I0703 18:05:34.417188 35376 net.cpp:157] Top shape: 32 1024 14 14 (6422528)
I0703 18:05:34.417196 35376 net.cpp:165] Memory required for data: 11734016384
I0703 18:05:34.417207 35376 layer_factory.hpp:76] Creating layer conv4_33_1
I0703 18:05:34.417220 35376 net.cpp:106] Creating Layer conv4_33_1
I0703 18:05:34.417256 35376 net.cpp:454] conv4_33_1 <- conv4_32_sum_bn_conv4_32_sum_relu_0_split_0
I0703 18:05:34.417270 35376 net.cpp:411] conv4_33_1 -> conv4_33_1
I0703 18:05:34.428210 35376 cudnn_conv_layer.cpp:194] Reallocating workspace storage: 12288
I0703 18:05:34.428283 35376 net.cpp:150] Setting up conv4_33_1
I0703 18:05:34.428300 35376 net.cpp:157] Top shape: 32 256 14 14 (1605632)
I0703 18:05:34.428309 35376 net.cpp:165] Memory required for data: 11740438912
I0703 18:05:34.428324 35376 layer_factory.hpp:76] Creating layer conv4_33_1_bn
I0703 18:05:34.428340 35376 net.cpp:106] Creating Layer conv4_33_1_bn
I0703 18:05:34.428352 35376 net.cpp:454] conv4_33_1_bn <- conv4_33_1
I0703 18:05:34.428367 35376 net.cpp:411] conv4_33_1_bn -> conv4_33_1_bn
I0703 18:05:34.428688 35376 net.cpp:150] Setting up conv4_33_1_bn
I0703 18:05:34.428714 35376 net.cpp:157] Top shape: 32 256 14 14 (1605632)
I0703 18:05:34.428724 35376 net.cpp:165] Memory required for data: 11746861440
I0703 18:05:34.428736 35376 layer_factory.hpp:76] Creating layer conv4_33_1_relu
I0703 18:05:34.428751 35376 net.cpp:106] Creating Layer conv4_33_1_relu
I0703 18:05:34.428761 35376 net.cpp:454] conv4_33_1_relu <- conv4_33_1_bn
I0703 18:05:34.428774 35376 net.cpp:397] conv4_33_1_relu -> conv4_33_1_bn (in-place)
I0703 18:05:34.429255 35376 net.cpp:150] Setting up conv4_33_1_relu
I0703 18:05:34.429286 35376 net.cpp:157] Top shape: 32 256 14 14 (1605632)
I0703 18:05:34.429296 35376 net.cpp:165] Memory required for data: 11753283968
I0703 18:05:34.429307 35376 layer_factory.hpp:76] Creating layer conv4_33_2
I0703 18:05:34.429324 35376 net.cpp:106] Creating Layer conv4_33_2
I0703 18:05:34.429335 35376 net.cpp:454] conv4_33_2 <- conv4_33_1_bn
I0703 18:05:34.429347 35376 net.cpp:411] conv4_33_2 -> conv4_33_2
I0703 18:05:34.451313 35376 net.cpp:150] Setting up conv4_33_2
I0703 18:05:34.451366 35376 net.cpp:157] Top shape: 32 256 14 14 (1605632)
I0703 18:05:34.451376 35376 net.cpp:165] Memory required for data: 11759706496
I0703 18:05:34.451391 35376 layer_factory.hpp:76] Creating layer conv4_33_2_bn
I0703 18:05:34.451411 35376 net.cpp:106] Creating Layer conv4_33_2_bn
I0703 18:05:34.451423 35376 net.cpp:454] conv4_33_2_bn <- conv4_33_2
I0703 18:05:34.451436 35376 net.cpp:411] conv4_33_2_bn -> conv4_33_2_bn
I0703 18:05:34.451747 35376 net.cpp:150] Setting up conv4_33_2_bn
I0703 18:05:34.451761 35376 net.cpp:157] Top shape: 32 256 14 14 (1605632)
I0703 18:05:34.451782 35376 net.cpp:165] Memory required for data: 11766129024
I0703 18:05:34.451797 35376 layer_factory.hpp:76] Creating layer conv4_33_2_relu
I0703 18:05:34.451808 35376 net.cpp:106] Creating Layer conv4_33_2_relu
I0703 18:05:34.451817 35376 net.cpp:454] conv4_33_2_relu <- conv4_33_2_bn
I0703 18:05:34.451829 35376 net.cpp:397] conv4_33_2_relu -> conv4_33_2_bn (in-place)
I0703 18:05:34.452113 35376 net.cpp:150] Setting up conv4_33_2_relu
I0703 18:05:34.452142 35376 net.cpp:157] Top shape: 32 256 14 14 (1605632)
I0703 18:05:34.452152 35376 net.cpp:165] Memory required for data: 11772551552
I0703 18:05:34.452162 35376 layer_factory.hpp:76] Creating layer conv4_33_3
I0703 18:05:34.452177 35376 net.cpp:106] Creating Layer conv4_33_3
I0703 18:05:34.452186 35376 net.cpp:454] conv4_33_3 <- conv4_33_2_bn
I0703 18:05:34.452199 35376 net.cpp:411] conv4_33_3 -> conv4_33_3
I0703 18:05:34.463479 35376 cudnn_conv_layer.cpp:194] Reallocating workspace storage: 3072
I0703 18:05:34.463605 35376 net.cpp:150] Setting up conv4_33_3
I0703 18:05:34.463626 35376 net.cpp:157] Top shape: 32 1024 14 14 (6422528)
I0703 18:05:34.463635 35376 net.cpp:165] Memory required for data: 11798241664
I0703 18:05:34.463652 35376 layer_factory.hpp:76] Creating layer conv4_33_sum
I0703 18:05:34.463675 35376 net.cpp:106] Creating Layer conv4_33_sum
I0703 18:05:34.463690 35376 net.cpp:454] conv4_33_sum <- conv4_32_sum_bn_conv4_32_sum_relu_0_split_1
I0703 18:05:34.463701 35376 net.cpp:454] conv4_33_sum <- conv4_33_3
I0703 18:05:34.463712 35376 net.cpp:411] conv4_33_sum -> conv4_33_sum
I0703 18:05:34.463768 35376 net.cpp:150] Setting up conv4_33_sum
I0703 18:05:34.463829 35376 net.cpp:157] Top shape: 32 1024 14 14 (6422528)
I0703 18:05:34.463837 35376 net.cpp:165] Memory required for data: 11823931776
I0703 18:05:34.463846 35376 layer_factory.hpp:76] Creating layer conv4_33_sum_bn
I0703 18:05:34.463858 35376 net.cpp:106] Creating Layer conv4_33_sum_bn
I0703 18:05:34.463867 35376 net.cpp:454] conv4_33_sum_bn <- conv4_33_sum
I0703 18:05:34.463881 35376 net.cpp:411] conv4_33_sum_bn -> conv4_33_sum_bn
I0703 18:05:34.464202 35376 net.cpp:150] Setting up conv4_33_sum_bn
I0703 18:05:34.464231 35376 net.cpp:157] Top shape: 32 1024 14 14 (6422528)
I0703 18:05:34.464239 35376 net.cpp:165] Memory required for data: 11849621888
I0703 18:05:34.464253 35376 layer_factory.hpp:76] Creating layer conv4_33_sum_relu
I0703 18:05:34.464268 35376 net.cpp:106] Creating Layer conv4_33_sum_relu
I0703 18:05:34.464277 35376 net.cpp:454] conv4_33_sum_relu <- conv4_33_sum_bn
I0703 18:05:34.464287 35376 net.cpp:397] conv4_33_sum_relu -> conv4_33_sum_bn (in-place)
I0703 18:05:34.464761 35376 net.cpp:150] Setting up conv4_33_sum_relu
I0703 18:05:34.464793 35376 net.cpp:157] Top shape: 32 1024 14 14 (6422528)
I0703 18:05:34.464802 35376 net.cpp:165] Memory required for data: 11875312000
I0703 18:05:34.464812 35376 layer_factory.hpp:76] Creating layer conv4_33_sum_bn_conv4_33_sum_relu_0_split
I0703 18:05:34.464828 35376 net.cpp:106] Creating Layer conv4_33_sum_bn_conv4_33_sum_relu_0_split
I0703 18:05:34.464843 35376 net.cpp:454] conv4_33_sum_bn_conv4_33_sum_relu_0_split <- conv4_33_sum_bn
I0703 18:05:34.464854 35376 net.cpp:411] conv4_33_sum_bn_conv4_33_sum_relu_0_split -> conv4_33_sum_bn_conv4_33_sum_relu_0_split_0
I0703 18:05:34.464867 35376 net.cpp:411] conv4_33_sum_bn_conv4_33_sum_relu_0_split -> conv4_33_sum_bn_conv4_33_sum_relu_0_split_1
I0703 18:05:34.464943 35376 net.cpp:150] Setting up conv4_33_sum_bn_conv4_33_sum_relu_0_split
I0703 18:05:34.464968 35376 net.cpp:157] Top shape: 32 1024 14 14 (6422528)
I0703 18:05:34.464989 35376 net.cpp:157] Top shape: 32 1024 14 14 (6422528)
I0703 18:05:34.464998 35376 net.cpp:165] Memory required for data: 11926692224
I0703 18:05:34.465005 35376 layer_factory.hpp:76] Creating layer conv4_34_1
I0703 18:05:34.465021 35376 net.cpp:106] Creating Layer conv4_34_1
I0703 18:05:34.465030 35376 net.cpp:454] conv4_34_1 <- conv4_33_sum_bn_conv4_33_sum_relu_0_split_0
I0703 18:05:34.465044 35376 net.cpp:411] conv4_34_1 -> conv4_34_1
I0703 18:05:34.475857 35376 cudnn_conv_layer.cpp:194] Reallocating workspace storage: 12288
I0703 18:05:34.475930 35376 net.cpp:150] Setting up conv4_34_1
I0703 18:05:34.475946 35376 net.cpp:157] Top shape: 32 256 14 14 (1605632)
I0703 18:05:34.475956 35376 net.cpp:165] Memory required for data: 11933114752
I0703 18:05:34.475973 35376 layer_factory.hpp:76] Creating layer conv4_34_1_bn
I0703 18:05:34.475991 35376 net.cpp:106] Creating Layer conv4_34_1_bn
I0703 18:05:34.476008 35376 net.cpp:454] conv4_34_1_bn <- conv4_34_1
I0703 18:05:34.476022 35376 net.cpp:411] conv4_34_1_bn -> conv4_34_1_bn
I0703 18:05:34.476336 35376 net.cpp:150] Setting up conv4_34_1_bn
I0703 18:05:34.476351 35376 net.cpp:157] Top shape: 32 256 14 14 (1605632)
I0703 18:05:34.476372 35376 net.cpp:165] Memory required for data: 11939537280
I0703 18:05:34.476390 35376 layer_factory.hpp:76] Creating layer conv4_34_1_relu
I0703 18:05:34.476408 35376 net.cpp:106] Creating Layer conv4_34_1_relu
I0703 18:05:34.476419 35376 net.cpp:454] conv4_34_1_relu <- conv4_34_1_bn
I0703 18:05:34.476436 35376 net.cpp:397] conv4_34_1_relu -> conv4_34_1_bn (in-place)
I0703 18:05:34.476991 35376 net.cpp:150] Setting up conv4_34_1_relu
I0703 18:05:34.477023 35376 net.cpp:157] Top shape: 32 256 14 14 (1605632)
I0703 18:05:34.477031 35376 net.cpp:165] Memory required for data: 11945959808
I0703 18:05:34.477041 35376 layer_factory.hpp:76] Creating layer conv4_34_2
I0703 18:05:34.477059 35376 net.cpp:106] Creating Layer conv4_34_2
I0703 18:05:34.477069 35376 net.cpp:454] conv4_34_2 <- conv4_34_1_bn
I0703 18:05:34.477080 35376 net.cpp:411] conv4_34_2 -> conv4_34_2
I0703 18:05:34.499003 35376 net.cpp:150] Setting up conv4_34_2
I0703 18:05:34.499060 35376 net.cpp:157] Top shape: 32 256 14 14 (1605632)
I0703 18:05:34.499070 35376 net.cpp:165] Memory required for data: 11952382336
I0703 18:05:34.499086 35376 layer_factory.hpp:76] Creating layer conv4_34_2_bn
I0703 18:05:34.499102 35376 net.cpp:106] Creating Layer conv4_34_2_bn
I0703 18:05:34.499114 35376 net.cpp:454] conv4_34_2_bn <- conv4_34_2
I0703 18:05:34.499130 35376 net.cpp:411] conv4_34_2_bn -> conv4_34_2_bn
I0703 18:05:34.499441 35376 net.cpp:150] Setting up conv4_34_2_bn
I0703 18:05:34.499456 35376 net.cpp:157] Top shape: 32 256 14 14 (1605632)
I0703 18:05:34.499476 35376 net.cpp:165] Memory required for data: 11958804864
I0703 18:05:34.499490 35376 layer_factory.hpp:76] Creating layer conv4_34_2_relu
I0703 18:05:34.499502 35376 net.cpp:106] Creating Layer conv4_34_2_relu
I0703 18:05:34.499511 35376 net.cpp:454] conv4_34_2_relu <- conv4_34_2_bn
I0703 18:05:34.499523 35376 net.cpp:397] conv4_34_2_relu -> conv4_34_2_bn (in-place)
I0703 18:05:34.499778 35376 net.cpp:150] Setting up conv4_34_2_relu
I0703 18:05:34.499807 35376 net.cpp:157] Top shape: 32 256 14 14 (1605632)
I0703 18:05:34.499816 35376 net.cpp:165] Memory required for data: 11965227392
I0703 18:05:34.499825 35376 layer_factory.hpp:76] Creating layer conv4_34_3
I0703 18:05:34.499840 35376 net.cpp:106] Creating Layer conv4_34_3
I0703 18:05:34.499850 35376 net.cpp:454] conv4_34_3 <- conv4_34_2_bn
I0703 18:05:34.499862 35376 net.cpp:411] conv4_34_3 -> conv4_34_3
I0703 18:05:34.510807 35376 cudnn_conv_layer.cpp:194] Reallocating workspace storage: 3072
I0703 18:05:34.510941 35376 net.cpp:150] Setting up conv4_34_3
I0703 18:05:34.510960 35376 net.cpp:157] Top shape: 32 1024 14 14 (6422528)
I0703 18:05:34.510969 35376 net.cpp:165] Memory required for data: 11990917504
I0703 18:05:34.510983 35376 layer_factory.hpp:76] Creating layer conv4_34_sum
I0703 18:05:34.511006 35376 net.cpp:106] Creating Layer conv4_34_sum
I0703 18:05:34.511020 35376 net.cpp:454] conv4_34_sum <- conv4_33_sum_bn_conv4_33_sum_relu_0_split_1
I0703 18:05:34.511032 35376 net.cpp:454] conv4_34_sum <- conv4_34_3
I0703 18:05:34.511044 35376 net.cpp:411] conv4_34_sum -> conv4_34_sum
I0703 18:05:34.511102 35376 net.cpp:150] Setting up conv4_34_sum
I0703 18:05:34.511138 35376 net.cpp:157] Top shape: 32 1024 14 14 (6422528)
I0703 18:05:34.511147 35376 net.cpp:165] Memory required for data: 12016607616
I0703 18:05:34.511158 35376 layer_factory.hpp:76] Creating layer conv4_34_sum_bn
I0703 18:05:34.511173 35376 net.cpp:106] Creating Layer conv4_34_sum_bn
I0703 18:05:34.511183 35376 net.cpp:454] conv4_34_sum_bn <- conv4_34_sum
I0703 18:05:34.511193 35376 net.cpp:411] conv4_34_sum_bn -> conv4_34_sum_bn
I0703 18:05:34.511523 35376 net.cpp:150] Setting up conv4_34_sum_bn
I0703 18:05:34.511550 35376 net.cpp:157] Top shape: 32 1024 14 14 (6422528)
I0703 18:05:34.511559 35376 net.cpp:165] Memory required for data: 12042297728
I0703 18:05:34.511574 35376 layer_factory.hpp:76] Creating layer conv4_34_sum_relu
I0703 18:05:34.511587 35376 net.cpp:106] Creating Layer conv4_34_sum_relu
I0703 18:05:34.511597 35376 net.cpp:454] conv4_34_sum_relu <- conv4_34_sum_bn
I0703 18:05:34.511607 35376 net.cpp:397] conv4_34_sum_relu -> conv4_34_sum_bn (in-place)
I0703 18:05:34.512127 35376 net.cpp:150] Setting up conv4_34_sum_relu
I0703 18:05:34.512166 35376 net.cpp:157] Top shape: 32 1024 14 14 (6422528)
I0703 18:05:34.512176 35376 net.cpp:165] Memory required for data: 12067987840
I0703 18:05:34.512184 35376 layer_factory.hpp:76] Creating layer conv4_34_sum_bn_conv4_34_sum_relu_0_split
I0703 18:05:34.512197 35376 net.cpp:106] Creating Layer conv4_34_sum_bn_conv4_34_sum_relu_0_split
I0703 18:05:34.512207 35376 net.cpp:454] conv4_34_sum_bn_conv4_34_sum_relu_0_split <- conv4_34_sum_bn
I0703 18:05:34.512219 35376 net.cpp:411] conv4_34_sum_bn_conv4_34_sum_relu_0_split -> conv4_34_sum_bn_conv4_34_sum_relu_0_split_0
I0703 18:05:34.512231 35376 net.cpp:411] conv4_34_sum_bn_conv4_34_sum_relu_0_split -> conv4_34_sum_bn_conv4_34_sum_relu_0_split_1
I0703 18:05:34.512338 35376 net.cpp:150] Setting up conv4_34_sum_bn_conv4_34_sum_relu_0_split
I0703 18:05:34.512364 35376 net.cpp:157] Top shape: 32 1024 14 14 (6422528)
I0703 18:05:34.512388 35376 net.cpp:157] Top shape: 32 1024 14 14 (6422528)
I0703 18:05:34.512397 35376 net.cpp:165] Memory required for data: 12119368064
I0703 18:05:34.512404 35376 layer_factory.hpp:76] Creating layer conv4_35_1
I0703 18:05:34.512418 35376 net.cpp:106] Creating Layer conv4_35_1
I0703 18:05:34.512435 35376 net.cpp:454] conv4_35_1 <- conv4_34_sum_bn_conv4_34_sum_relu_0_split_0
I0703 18:05:34.512449 35376 net.cpp:411] conv4_35_1 -> conv4_35_1
I0703 18:05:34.523193 35376 cudnn_conv_layer.cpp:194] Reallocating workspace storage: 12288
I0703 18:05:34.523277 35376 net.cpp:150] Setting up conv4_35_1
I0703 18:05:34.523294 35376 net.cpp:157] Top shape: 32 256 14 14 (1605632)
I0703 18:05:34.523303 35376 net.cpp:165] Memory required for data: 12125790592
I0703 18:05:34.523319 35376 layer_factory.hpp:76] Creating layer conv4_35_1_bn
I0703 18:05:34.523339 35376 net.cpp:106] Creating Layer conv4_35_1_bn
I0703 18:05:34.523351 35376 net.cpp:454] conv4_35_1_bn <- conv4_35_1
I0703 18:05:34.523365 35376 net.cpp:411] conv4_35_1_bn -> conv4_35_1_bn
I0703 18:05:34.523677 35376 net.cpp:150] Setting up conv4_35_1_bn
I0703 18:05:34.523691 35376 net.cpp:157] Top shape: 32 256 14 14 (1605632)
I0703 18:05:34.523711 35376 net.cpp:165] Memory required for data: 12132213120
I0703 18:05:34.523725 35376 layer_factory.hpp:76] Creating layer conv4_35_1_relu
I0703 18:05:34.523739 35376 net.cpp:106] Creating Layer conv4_35_1_relu
I0703 18:05:34.523754 35376 net.cpp:454] conv4_35_1_relu <- conv4_35_1_bn
I0703 18:05:34.523763 35376 net.cpp:397] conv4_35_1_relu -> conv4_35_1_bn (in-place)
I0703 18:05:34.524348 35376 net.cpp:150] Setting up conv4_35_1_relu
I0703 18:05:34.524382 35376 net.cpp:157] Top shape: 32 256 14 14 (1605632)
I0703 18:05:34.524391 35376 net.cpp:165] Memory required for data: 12138635648
I0703 18:05:34.524400 35376 layer_factory.hpp:76] Creating layer conv4_35_2
I0703 18:05:34.524417 35376 net.cpp:106] Creating Layer conv4_35_2
I0703 18:05:34.524435 35376 net.cpp:454] conv4_35_2 <- conv4_35_1_bn
I0703 18:05:34.524447 35376 net.cpp:411] conv4_35_2 -> conv4_35_2
I0703 18:05:34.546700 35376 net.cpp:150] Setting up conv4_35_2
I0703 18:05:34.546756 35376 net.cpp:157] Top shape: 32 256 14 14 (1605632)
I0703 18:05:34.546766 35376 net.cpp:165] Memory required for data: 12145058176
I0703 18:05:34.546779 35376 layer_factory.hpp:76] Creating layer conv4_35_2_bn
I0703 18:05:34.546798 35376 net.cpp:106] Creating Layer conv4_35_2_bn
I0703 18:05:34.546813 35376 net.cpp:454] conv4_35_2_bn <- conv4_35_2
I0703 18:05:34.546824 35376 net.cpp:411] conv4_35_2_bn -> conv4_35_2_bn
I0703 18:05:34.547142 35376 net.cpp:150] Setting up conv4_35_2_bn
I0703 18:05:34.547169 35376 net.cpp:157] Top shape: 32 256 14 14 (1605632)
I0703 18:05:34.547178 35376 net.cpp:165] Memory required for data: 12151480704
I0703 18:05:34.547191 35376 layer_factory.hpp:76] Creating layer conv4_35_2_relu
I0703 18:05:34.547204 35376 net.cpp:106] Creating Layer conv4_35_2_relu
I0703 18:05:34.547212 35376 net.cpp:454] conv4_35_2_relu <- conv4_35_2_bn
I0703 18:05:34.547224 35376 net.cpp:397] conv4_35_2_relu -> conv4_35_2_bn (in-place)
I0703 18:05:34.547492 35376 net.cpp:150] Setting up conv4_35_2_relu
I0703 18:05:34.547519 35376 net.cpp:157] Top shape: 32 256 14 14 (1605632)
I0703 18:05:34.547528 35376 net.cpp:165] Memory required for data: 12157903232
I0703 18:05:34.547538 35376 layer_factory.hpp:76] Creating layer conv4_35_3
I0703 18:05:34.547554 35376 net.cpp:106] Creating Layer conv4_35_3
I0703 18:05:34.547564 35376 net.cpp:454] conv4_35_3 <- conv4_35_2_bn
I0703 18:05:34.547577 35376 net.cpp:411] conv4_35_3 -> conv4_35_3
I0703 18:05:34.558881 35376 cudnn_conv_layer.cpp:194] Reallocating workspace storage: 3072
I0703 18:05:34.559010 35376 net.cpp:150] Setting up conv4_35_3
I0703 18:05:34.559031 35376 net.cpp:157] Top shape: 32 1024 14 14 (6422528)
I0703 18:05:34.559041 35376 net.cpp:165] Memory required for data: 12183593344
I0703 18:05:34.559082 35376 layer_factory.hpp:76] Creating layer conv4_35_sum
I0703 18:05:34.559203 35376 net.cpp:106] Creating Layer conv4_35_sum
I0703 18:05:34.559231 35376 net.cpp:454] conv4_35_sum <- conv4_34_sum_bn_conv4_34_sum_relu_0_split_1
I0703 18:05:34.559242 35376 net.cpp:454] conv4_35_sum <- conv4_35_3
I0703 18:05:34.559254 35376 net.cpp:411] conv4_35_sum -> conv4_35_sum
I0703 18:05:34.559312 35376 net.cpp:150] Setting up conv4_35_sum
I0703 18:05:34.559326 35376 net.cpp:157] Top shape: 32 1024 14 14 (6422528)
I0703 18:05:34.559335 35376 net.cpp:165] Memory required for data: 12209283456
I0703 18:05:34.559345 35376 layer_factory.hpp:76] Creating layer conv4_35_sum_bn
I0703 18:05:34.559356 35376 net.cpp:106] Creating Layer conv4_35_sum_bn
I0703 18:05:34.559365 35376 net.cpp:454] conv4_35_sum_bn <- conv4_35_sum
I0703 18:05:34.559376 35376 net.cpp:411] conv4_35_sum_bn -> conv4_35_sum_bn
I0703 18:05:34.559710 35376 net.cpp:150] Setting up conv4_35_sum_bn
I0703 18:05:34.559738 35376 net.cpp:157] Top shape: 32 1024 14 14 (6422528)
I0703 18:05:34.559751 35376 net.cpp:165] Memory required for data: 12234973568
I0703 18:05:34.559767 35376 layer_factory.hpp:76] Creating layer conv4_35_sum_relu
I0703 18:05:34.559778 35376 net.cpp:106] Creating Layer conv4_35_sum_relu
I0703 18:05:34.559788 35376 net.cpp:454] conv4_35_sum_relu <- conv4_35_sum_bn
I0703 18:05:34.559798 35376 net.cpp:397] conv4_35_sum_relu -> conv4_35_sum_bn (in-place)
I0703 18:05:34.560325 35376 net.cpp:150] Setting up conv4_35_sum_relu
I0703 18:05:34.560348 35376 net.cpp:157] Top shape: 32 1024 14 14 (6422528)
I0703 18:05:34.560358 35376 net.cpp:165] Memory required for data: 12260663680
I0703 18:05:34.560366 35376 layer_factory.hpp:76] Creating layer conv4_35_sum_bn_conv4_35_sum_relu_0_split
I0703 18:05:34.560379 35376 net.cpp:106] Creating Layer conv4_35_sum_bn_conv4_35_sum_relu_0_split
I0703 18:05:34.560389 35376 net.cpp:454] conv4_35_sum_bn_conv4_35_sum_relu_0_split <- conv4_35_sum_bn
I0703 18:05:34.560400 35376 net.cpp:411] conv4_35_sum_bn_conv4_35_sum_relu_0_split -> conv4_35_sum_bn_conv4_35_sum_relu_0_split_0
I0703 18:05:34.560412 35376 net.cpp:411] conv4_35_sum_bn_conv4_35_sum_relu_0_split -> conv4_35_sum_bn_conv4_35_sum_relu_0_split_1
I0703 18:05:34.560508 35376 net.cpp:150] Setting up conv4_35_sum_bn_conv4_35_sum_relu_0_split
I0703 18:05:34.560534 35376 net.cpp:157] Top shape: 32 1024 14 14 (6422528)
I0703 18:05:34.560555 35376 net.cpp:157] Top shape: 32 1024 14 14 (6422528)
I0703 18:05:34.560564 35376 net.cpp:165] Memory required for data: 12312043904
I0703 18:05:34.560572 35376 layer_factory.hpp:76] Creating layer conv4_36_1
I0703 18:05:34.560588 35376 net.cpp:106] Creating Layer conv4_36_1
I0703 18:05:34.560598 35376 net.cpp:454] conv4_36_1 <- conv4_35_sum_bn_conv4_35_sum_relu_0_split_0
I0703 18:05:34.560611 35376 net.cpp:411] conv4_36_1 -> conv4_36_1
I0703 18:05:34.571532 35376 cudnn_conv_layer.cpp:194] Reallocating workspace storage: 12288
I0703 18:05:34.571609 35376 net.cpp:150] Setting up conv4_36_1
I0703 18:05:34.571625 35376 net.cpp:157] Top shape: 32 256 14 14 (1605632)
I0703 18:05:34.571635 35376 net.cpp:165] Memory required for data: 12318466432
I0703 18:05:34.571650 35376 layer_factory.hpp:76] Creating layer conv4_36_1_bn
I0703 18:05:34.571673 35376 net.cpp:106] Creating Layer conv4_36_1_bn
I0703 18:05:34.571686 35376 net.cpp:454] conv4_36_1_bn <- conv4_36_1
I0703 18:05:34.571698 35376 net.cpp:411] conv4_36_1_bn -> conv4_36_1_bn
I0703 18:05:34.572021 35376 net.cpp:150] Setting up conv4_36_1_bn
I0703 18:05:34.572054 35376 net.cpp:157] Top shape: 32 256 14 14 (1605632)
I0703 18:05:34.572063 35376 net.cpp:165] Memory required for data: 12324888960
I0703 18:05:34.572078 35376 layer_factory.hpp:76] Creating layer conv4_36_1_relu
I0703 18:05:34.572089 35376 net.cpp:106] Creating Layer conv4_36_1_relu
I0703 18:05:34.572099 35376 net.cpp:454] conv4_36_1_relu <- conv4_36_1_bn
I0703 18:05:34.572109 35376 net.cpp:397] conv4_36_1_relu -> conv4_36_1_bn (in-place)
I0703 18:05:34.572638 35376 net.cpp:150] Setting up conv4_36_1_relu
I0703 18:05:34.572696 35376 net.cpp:157] Top shape: 32 256 14 14 (1605632)
I0703 18:05:34.572705 35376 net.cpp:165] Memory required for data: 12331311488
I0703 18:05:34.572715 35376 layer_factory.hpp:76] Creating layer conv4_36_2
I0703 18:05:34.572732 35376 net.cpp:106] Creating Layer conv4_36_2
I0703 18:05:34.572743 35376 net.cpp:454] conv4_36_2 <- conv4_36_1_bn
I0703 18:05:34.572757 35376 net.cpp:411] conv4_36_2 -> conv4_36_2
I0703 18:05:34.594684 35376 net.cpp:150] Setting up conv4_36_2
I0703 18:05:34.594739 35376 net.cpp:157] Top shape: 32 256 14 14 (1605632)
I0703 18:05:34.594749 35376 net.cpp:165] Memory required for data: 12337734016
I0703 18:05:34.594765 35376 layer_factory.hpp:76] Creating layer conv4_36_2_bn
I0703 18:05:34.594784 35376 net.cpp:106] Creating Layer conv4_36_2_bn
I0703 18:05:34.594796 35376 net.cpp:454] conv4_36_2_bn <- conv4_36_2
I0703 18:05:34.594810 35376 net.cpp:411] conv4_36_2_bn -> conv4_36_2_bn
I0703 18:05:34.595151 35376 net.cpp:150] Setting up conv4_36_2_bn
I0703 18:05:34.595166 35376 net.cpp:157] Top shape: 32 256 14 14 (1605632)
I0703 18:05:34.595186 35376 net.cpp:165] Memory required for data: 12344156544
I0703 18:05:34.595199 35376 layer_factory.hpp:76] Creating layer conv4_36_2_relu
I0703 18:05:34.595221 35376 net.cpp:106] Creating Layer conv4_36_2_relu
I0703 18:05:34.595234 35376 net.cpp:454] conv4_36_2_relu <- conv4_36_2_bn
I0703 18:05:34.595247 35376 net.cpp:397] conv4_36_2_relu -> conv4_36_2_bn (in-place)
I0703 18:05:34.595506 35376 net.cpp:150] Setting up conv4_36_2_relu
I0703 18:05:34.595541 35376 net.cpp:157] Top shape: 32 256 14 14 (1605632)
I0703 18:05:34.595549 35376 net.cpp:165] Memory required for data: 12350579072
I0703 18:05:34.595558 35376 layer_factory.hpp:76] Creating layer conv4_36_3
I0703 18:05:34.595576 35376 net.cpp:106] Creating Layer conv4_36_3
I0703 18:05:34.595587 35376 net.cpp:454] conv4_36_3 <- conv4_36_2_bn
I0703 18:05:34.595598 35376 net.cpp:411] conv4_36_3 -> conv4_36_3
I0703 18:05:34.606156 35376 cudnn_conv_layer.cpp:194] Reallocating workspace storage: 3072
I0703 18:05:34.606268 35376 net.cpp:150] Setting up conv4_36_3
I0703 18:05:34.606286 35376 net.cpp:157] Top shape: 32 1024 14 14 (6422528)
I0703 18:05:34.606294 35376 net.cpp:165] Memory required for data: 12376269184
I0703 18:05:34.606307 35376 layer_factory.hpp:76] Creating layer conv4_36_sum
I0703 18:05:34.606323 35376 net.cpp:106] Creating Layer conv4_36_sum
I0703 18:05:34.606334 35376 net.cpp:454] conv4_36_sum <- conv4_35_sum_bn_conv4_35_sum_relu_0_split_1
I0703 18:05:34.606345 35376 net.cpp:454] conv4_36_sum <- conv4_36_3
I0703 18:05:34.606356 35376 net.cpp:411] conv4_36_sum -> conv4_36_sum
I0703 18:05:34.606407 35376 net.cpp:150] Setting up conv4_36_sum
I0703 18:05:34.606421 35376 net.cpp:157] Top shape: 32 1024 14 14 (6422528)
I0703 18:05:34.606429 35376 net.cpp:165] Memory required for data: 12401959296
I0703 18:05:34.606437 35376 layer_factory.hpp:76] Creating layer conv4_36_sum_bn
I0703 18:05:34.606451 35376 net.cpp:106] Creating Layer conv4_36_sum_bn
I0703 18:05:34.606461 35376 net.cpp:454] conv4_36_sum_bn <- conv4_36_sum
I0703 18:05:34.606472 35376 net.cpp:411] conv4_36_sum_bn -> conv4_36_sum_bn
I0703 18:05:34.606808 35376 net.cpp:150] Setting up conv4_36_sum_bn
I0703 18:05:34.606837 35376 net.cpp:157] Top shape: 32 1024 14 14 (6422528)
I0703 18:05:34.606845 35376 net.cpp:165] Memory required for data: 12427649408
I0703 18:05:34.606859 35376 layer_factory.hpp:76] Creating layer conv4_36_sum_relu
I0703 18:05:34.606870 35376 net.cpp:106] Creating Layer conv4_36_sum_relu
I0703 18:05:34.606880 35376 net.cpp:454] conv4_36_sum_relu <- conv4_36_sum_bn
I0703 18:05:34.606889 35376 net.cpp:397] conv4_36_sum_relu -> conv4_36_sum_bn (in-place)
I0703 18:05:34.607367 35376 net.cpp:150] Setting up conv4_36_sum_relu
I0703 18:05:34.607398 35376 net.cpp:157] Top shape: 32 1024 14 14 (6422528)
I0703 18:05:34.607408 35376 net.cpp:165] Memory required for data: 12453339520
I0703 18:05:34.607416 35376 layer_factory.hpp:76] Creating layer conv4_36_sum_bn_conv4_36_sum_relu_0_split
I0703 18:05:34.607427 35376 net.cpp:106] Creating Layer conv4_36_sum_bn_conv4_36_sum_relu_0_split
I0703 18:05:34.607460 35376 net.cpp:454] conv4_36_sum_bn_conv4_36_sum_relu_0_split <- conv4_36_sum_bn
I0703 18:05:34.607473 35376 net.cpp:411] conv4_36_sum_bn_conv4_36_sum_relu_0_split -> conv4_36_sum_bn_conv4_36_sum_relu_0_split_0
I0703 18:05:34.607488 35376 net.cpp:411] conv4_36_sum_bn_conv4_36_sum_relu_0_split -> conv4_36_sum_bn_conv4_36_sum_relu_0_split_1
I0703 18:05:34.607563 35376 net.cpp:150] Setting up conv4_36_sum_bn_conv4_36_sum_relu_0_split
I0703 18:05:34.607588 35376 net.cpp:157] Top shape: 32 1024 14 14 (6422528)
I0703 18:05:34.607609 35376 net.cpp:157] Top shape: 32 1024 14 14 (6422528)
I0703 18:05:34.607617 35376 net.cpp:165] Memory required for data: 12504719744
I0703 18:05:34.607625 35376 layer_factory.hpp:76] Creating layer conv4_output
I0703 18:05:34.607640 35376 net.cpp:106] Creating Layer conv4_output
I0703 18:05:34.607650 35376 net.cpp:454] conv4_output <- conv4_36_sum_bn_conv4_36_sum_relu_0_split_0
I0703 18:05:34.607666 35376 net.cpp:411] conv4_output -> conv4_output
I0703 18:05:34.677763 35376 net.cpp:150] Setting up conv4_output
I0703 18:05:34.677815 35376 net.cpp:157] Top shape: 32 2048 7 7 (3211264)
I0703 18:05:34.677825 35376 net.cpp:165] Memory required for data: 12517564800
I0703 18:05:34.677855 35376 layer_factory.hpp:76] Creating layer conv5_1_1
I0703 18:05:34.677881 35376 net.cpp:106] Creating Layer conv5_1_1
I0703 18:05:34.677913 35376 net.cpp:454] conv5_1_1 <- conv4_36_sum_bn_conv4_36_sum_relu_0_split_1
I0703 18:05:34.677947 35376 net.cpp:411] conv5_1_1 -> conv5_1_1
I0703 18:05:34.696305 35376 net.cpp:150] Setting up conv5_1_1
I0703 18:05:34.696336 35376 net.cpp:157] Top shape: 32 512 7 7 (802816)
I0703 18:05:34.696343 35376 net.cpp:165] Memory required for data: 12520776064
I0703 18:05:34.696357 35376 layer_factory.hpp:76] Creating layer conv5_1_1_bn
I0703 18:05:34.696373 35376 net.cpp:106] Creating Layer conv5_1_1_bn
I0703 18:05:34.696384 35376 net.cpp:454] conv5_1_1_bn <- conv5_1_1
I0703 18:05:34.696395 35376 net.cpp:411] conv5_1_1_bn -> conv5_1_1_bn
I0703 18:05:34.696730 35376 net.cpp:150] Setting up conv5_1_1_bn
I0703 18:05:34.696746 35376 net.cpp:157] Top shape: 32 512 7 7 (802816)
I0703 18:05:34.696754 35376 net.cpp:165] Memory required for data: 12523987328
I0703 18:05:34.696766 35376 layer_factory.hpp:76] Creating layer conv5_1_1_relu
I0703 18:05:34.696787 35376 net.cpp:106] Creating Layer conv5_1_1_relu
I0703 18:05:34.696797 35376 net.cpp:454] conv5_1_1_relu <- conv5_1_1_bn
I0703 18:05:34.696810 35376 net.cpp:397] conv5_1_1_relu -> conv5_1_1_bn (in-place)
I0703 18:05:34.697266 35376 net.cpp:150] Setting up conv5_1_1_relu
I0703 18:05:34.697286 35376 net.cpp:157] Top shape: 32 512 7 7 (802816)
I0703 18:05:34.697307 35376 net.cpp:165] Memory required for data: 12527198592
I0703 18:05:34.697315 35376 layer_factory.hpp:76] Creating layer conv5_1_2
I0703 18:05:34.697332 35376 net.cpp:106] Creating Layer conv5_1_2
I0703 18:05:34.697341 35376 net.cpp:454] conv5_1_2 <- conv5_1_1_bn
I0703 18:05:34.697355 35376 net.cpp:411] conv5_1_2 -> conv5_1_2
I0703 18:05:34.773494 35376 net.cpp:150] Setting up conv5_1_2
I0703 18:05:34.773536 35376 net.cpp:157] Top shape: 32 512 7 7 (802816)
I0703 18:05:34.773545 35376 net.cpp:165] Memory required for data: 12530409856
I0703 18:05:34.773561 35376 layer_factory.hpp:76] Creating layer conv5_1_2_bn
I0703 18:05:34.773581 35376 net.cpp:106] Creating Layer conv5_1_2_bn
I0703 18:05:34.773592 35376 net.cpp:454] conv5_1_2_bn <- conv5_1_2
I0703 18:05:34.773610 35376 net.cpp:411] conv5_1_2_bn -> conv5_1_2_bn
I0703 18:05:34.773900 35376 net.cpp:150] Setting up conv5_1_2_bn
I0703 18:05:34.773913 35376 net.cpp:157] Top shape: 32 512 7 7 (802816)
I0703 18:05:34.773921 35376 net.cpp:165] Memory required for data: 12533621120
I0703 18:05:34.773933 35376 layer_factory.hpp:76] Creating layer conv5_1_2_relu
I0703 18:05:34.773947 35376 net.cpp:106] Creating Layer conv5_1_2_relu
I0703 18:05:34.773955 35376 net.cpp:454] conv5_1_2_relu <- conv5_1_2_bn
I0703 18:05:34.773963 35376 net.cpp:397] conv5_1_2_relu -> conv5_1_2_bn (in-place)
I0703 18:05:34.775362 35376 net.cpp:150] Setting up conv5_1_2_relu
I0703 18:05:34.775384 35376 net.cpp:157] Top shape: 32 512 7 7 (802816)
I0703 18:05:34.775393 35376 net.cpp:165] Memory required for data: 12536832384
I0703 18:05:34.775401 35376 layer_factory.hpp:76] Creating layer conv5_1_3
I0703 18:05:34.775421 35376 net.cpp:106] Creating Layer conv5_1_3
I0703 18:05:34.775431 35376 net.cpp:454] conv5_1_3 <- conv5_1_2_bn
I0703 18:05:34.775445 35376 net.cpp:411] conv5_1_3 -> conv5_1_3
I0703 18:05:34.808249 35376 cudnn_conv_layer.cpp:194] Reallocating workspace storage: 6144
I0703 18:05:34.808351 35376 net.cpp:150] Setting up conv5_1_3
I0703 18:05:34.808367 35376 net.cpp:157] Top shape: 32 2048 7 7 (3211264)
I0703 18:05:34.808377 35376 net.cpp:165] Memory required for data: 12549677440
I0703 18:05:34.808392 35376 layer_factory.hpp:76] Creating layer conv5_1_sum
I0703 18:05:34.808408 35376 net.cpp:106] Creating Layer conv5_1_sum
I0703 18:05:34.808419 35376 net.cpp:454] conv5_1_sum <- conv4_output
I0703 18:05:34.808436 35376 net.cpp:454] conv5_1_sum <- conv5_1_3
I0703 18:05:34.808450 35376 net.cpp:411] conv5_1_sum -> conv5_1_sum
I0703 18:05:34.808503 35376 net.cpp:150] Setting up conv5_1_sum
I0703 18:05:34.808516 35376 net.cpp:157] Top shape: 32 2048 7 7 (3211264)
I0703 18:05:34.808523 35376 net.cpp:165] Memory required for data: 12562522496
I0703 18:05:34.808531 35376 layer_factory.hpp:76] Creating layer conv5_1_sum_bn
I0703 18:05:34.808542 35376 net.cpp:106] Creating Layer conv5_1_sum_bn
I0703 18:05:34.808549 35376 net.cpp:454] conv5_1_sum_bn <- conv5_1_sum
I0703 18:05:34.808562 35376 net.cpp:411] conv5_1_sum_bn -> conv5_1_sum_bn
I0703 18:05:34.808943 35376 net.cpp:150] Setting up conv5_1_sum_bn
I0703 18:05:34.808959 35376 net.cpp:157] Top shape: 32 2048 7 7 (3211264)
I0703 18:05:34.808965 35376 net.cpp:165] Memory required for data: 12575367552
I0703 18:05:34.808976 35376 layer_factory.hpp:76] Creating layer conv5_1_sum_relu
I0703 18:05:34.808995 35376 net.cpp:106] Creating Layer conv5_1_sum_relu
I0703 18:05:34.809002 35376 net.cpp:454] conv5_1_sum_relu <- conv5_1_sum_bn
I0703 18:05:34.809011 35376 net.cpp:397] conv5_1_sum_relu -> conv5_1_sum_bn (in-place)
I0703 18:05:34.809459 35376 net.cpp:150] Setting up conv5_1_sum_relu
I0703 18:05:34.809484 35376 net.cpp:157] Top shape: 32 2048 7 7 (3211264)
I0703 18:05:34.809492 35376 net.cpp:165] Memory required for data: 12588212608
I0703 18:05:34.809499 35376 layer_factory.hpp:76] Creating layer conv5_1_sum_bn_conv5_1_sum_relu_0_split
I0703 18:05:34.809514 35376 net.cpp:106] Creating Layer conv5_1_sum_bn_conv5_1_sum_relu_0_split
I0703 18:05:34.809522 35376 net.cpp:454] conv5_1_sum_bn_conv5_1_sum_relu_0_split <- conv5_1_sum_bn
I0703 18:05:34.809531 35376 net.cpp:411] conv5_1_sum_bn_conv5_1_sum_relu_0_split -> conv5_1_sum_bn_conv5_1_sum_relu_0_split_0
I0703 18:05:34.809543 35376 net.cpp:411] conv5_1_sum_bn_conv5_1_sum_relu_0_split -> conv5_1_sum_bn_conv5_1_sum_relu_0_split_1
I0703 18:05:34.809613 35376 net.cpp:150] Setting up conv5_1_sum_bn_conv5_1_sum_relu_0_split
I0703 18:05:34.809626 35376 net.cpp:157] Top shape: 32 2048 7 7 (3211264)
I0703 18:05:34.809634 35376 net.cpp:157] Top shape: 32 2048 7 7 (3211264)
I0703 18:05:34.809641 35376 net.cpp:165] Memory required for data: 12613902720
I0703 18:05:34.809651 35376 layer_factory.hpp:76] Creating layer conv5_2_1
I0703 18:05:34.809669 35376 net.cpp:106] Creating Layer conv5_2_1
I0703 18:05:34.809677 35376 net.cpp:454] conv5_2_1 <- conv5_1_sum_bn_conv5_1_sum_relu_0_split_0
I0703 18:05:34.809689 35376 net.cpp:411] conv5_2_1 -> conv5_2_1
I0703 18:05:34.842118 35376 cudnn_conv_layer.cpp:194] Reallocating workspace storage: 24576
I0703 18:05:34.842172 35376 net.cpp:150] Setting up conv5_2_1
I0703 18:05:34.842186 35376 net.cpp:157] Top shape: 32 512 7 7 (802816)
I0703 18:05:34.842197 35376 net.cpp:165] Memory required for data: 12617113984
I0703 18:05:34.842209 35376 layer_factory.hpp:76] Creating layer conv5_2_1_bn
I0703 18:05:34.842226 35376 net.cpp:106] Creating Layer conv5_2_1_bn
I0703 18:05:34.842237 35376 net.cpp:454] conv5_2_1_bn <- conv5_2_1
I0703 18:05:34.842269 35376 net.cpp:411] conv5_2_1_bn -> conv5_2_1_bn
I0703 18:05:34.842561 35376 net.cpp:150] Setting up conv5_2_1_bn
I0703 18:05:34.842576 35376 net.cpp:157] Top shape: 32 512 7 7 (802816)
I0703 18:05:34.842583 35376 net.cpp:165] Memory required for data: 12620325248
I0703 18:05:34.842597 35376 layer_factory.hpp:76] Creating layer conv5_2_1_relu
I0703 18:05:34.842612 35376 net.cpp:106] Creating Layer conv5_2_1_relu
I0703 18:05:34.842620 35376 net.cpp:454] conv5_2_1_relu <- conv5_2_1_bn
I0703 18:05:34.842629 35376 net.cpp:397] conv5_2_1_relu -> conv5_2_1_bn (in-place)
I0703 18:05:34.843055 35376 net.cpp:150] Setting up conv5_2_1_relu
I0703 18:05:34.843071 35376 net.cpp:157] Top shape: 32 512 7 7 (802816)
I0703 18:05:34.843078 35376 net.cpp:165] Memory required for data: 12623536512
I0703 18:05:34.843086 35376 layer_factory.hpp:76] Creating layer conv5_2_2
I0703 18:05:34.843102 35376 net.cpp:106] Creating Layer conv5_2_2
I0703 18:05:34.843111 35376 net.cpp:454] conv5_2_2 <- conv5_2_1_bn
I0703 18:05:34.843121 35376 net.cpp:411] conv5_2_2 -> conv5_2_2
I0703 18:05:34.915290 35376 net.cpp:150] Setting up conv5_2_2
I0703 18:05:34.915338 35376 net.cpp:157] Top shape: 32 512 7 7 (802816)
I0703 18:05:34.915346 35376 net.cpp:165] Memory required for data: 12626747776
I0703 18:05:34.915361 35376 layer_factory.hpp:76] Creating layer conv5_2_2_bn
I0703 18:05:34.915383 35376 net.cpp:106] Creating Layer conv5_2_2_bn
I0703 18:05:34.915397 35376 net.cpp:454] conv5_2_2_bn <- conv5_2_2
I0703 18:05:34.915408 35376 net.cpp:411] conv5_2_2_bn -> conv5_2_2_bn
I0703 18:05:34.915706 35376 net.cpp:150] Setting up conv5_2_2_bn
I0703 18:05:34.915721 35376 net.cpp:157] Top shape: 32 512 7 7 (802816)
I0703 18:05:34.915729 35376 net.cpp:165] Memory required for data: 12629959040
I0703 18:05:34.915740 35376 layer_factory.hpp:76] Creating layer conv5_2_2_relu
I0703 18:05:34.915753 35376 net.cpp:106] Creating Layer conv5_2_2_relu
I0703 18:05:34.915761 35376 net.cpp:454] conv5_2_2_relu <- conv5_2_2_bn
I0703 18:05:34.915771 35376 net.cpp:397] conv5_2_2_relu -> conv5_2_2_bn (in-place)
I0703 18:05:34.916184 35376 net.cpp:150] Setting up conv5_2_2_relu
I0703 18:05:34.916203 35376 net.cpp:157] Top shape: 32 512 7 7 (802816)
I0703 18:05:34.916210 35376 net.cpp:165] Memory required for data: 12633170304
I0703 18:05:34.916218 35376 layer_factory.hpp:76] Creating layer conv5_2_3
I0703 18:05:34.916234 35376 net.cpp:106] Creating Layer conv5_2_3
I0703 18:05:34.916244 35376 net.cpp:454] conv5_2_3 <- conv5_2_2_bn
I0703 18:05:34.916256 35376 net.cpp:411] conv5_2_3 -> conv5_2_3
I0703 18:05:34.948658 35376 cudnn_conv_layer.cpp:194] Reallocating workspace storage: 6144
I0703 18:05:34.948714 35376 net.cpp:150] Setting up conv5_2_3
I0703 18:05:34.948727 35376 net.cpp:157] Top shape: 32 2048 7 7 (3211264)
I0703 18:05:34.948735 35376 net.cpp:165] Memory required for data: 12646015360
I0703 18:05:34.948755 35376 layer_factory.hpp:76] Creating layer conv5_2_sum
I0703 18:05:34.948770 35376 net.cpp:106] Creating Layer conv5_2_sum
I0703 18:05:34.948782 35376 net.cpp:454] conv5_2_sum <- conv5_1_sum_bn_conv5_1_sum_relu_0_split_1
I0703 18:05:34.948793 35376 net.cpp:454] conv5_2_sum <- conv5_2_3
I0703 18:05:34.948802 35376 net.cpp:411] conv5_2_sum -> conv5_2_sum
I0703 18:05:34.948865 35376 net.cpp:150] Setting up conv5_2_sum
I0703 18:05:34.948879 35376 net.cpp:157] Top shape: 32 2048 7 7 (3211264)
I0703 18:05:34.948885 35376 net.cpp:165] Memory required for data: 12658860416
I0703 18:05:34.948904 35376 layer_factory.hpp:76] Creating layer conv5_2_sum_bn
I0703 18:05:34.948928 35376 net.cpp:106] Creating Layer conv5_2_sum_bn
I0703 18:05:34.948935 35376 net.cpp:454] conv5_2_sum_bn <- conv5_2_sum
I0703 18:05:34.948945 35376 net.cpp:411] conv5_2_sum_bn -> conv5_2_sum_bn
I0703 18:05:34.949329 35376 net.cpp:150] Setting up conv5_2_sum_bn
I0703 18:05:34.949344 35376 net.cpp:157] Top shape: 32 2048 7 7 (3211264)
I0703 18:05:34.949352 35376 net.cpp:165] Memory required for data: 12671705472
I0703 18:05:34.949362 35376 layer_factory.hpp:76] Creating layer conv5_2_sum_relu
I0703 18:05:34.949404 35376 net.cpp:106] Creating Layer conv5_2_sum_relu
I0703 18:05:34.949411 35376 net.cpp:454] conv5_2_sum_relu <- conv5_2_sum_bn
I0703 18:05:34.949420 35376 net.cpp:397] conv5_2_sum_relu -> conv5_2_sum_bn (in-place)
I0703 18:05:34.949635 35376 net.cpp:150] Setting up conv5_2_sum_relu
I0703 18:05:34.949651 35376 net.cpp:157] Top shape: 32 2048 7 7 (3211264)
I0703 18:05:34.949658 35376 net.cpp:165] Memory required for data: 12684550528
I0703 18:05:34.949666 35376 layer_factory.hpp:76] Creating layer conv5_2_sum_bn_conv5_2_sum_relu_0_split
I0703 18:05:34.949678 35376 net.cpp:106] Creating Layer conv5_2_sum_bn_conv5_2_sum_relu_0_split
I0703 18:05:34.949693 35376 net.cpp:454] conv5_2_sum_bn_conv5_2_sum_relu_0_split <- conv5_2_sum_bn
I0703 18:05:34.949702 35376 net.cpp:411] conv5_2_sum_bn_conv5_2_sum_relu_0_split -> conv5_2_sum_bn_conv5_2_sum_relu_0_split_0
I0703 18:05:34.949712 35376 net.cpp:411] conv5_2_sum_bn_conv5_2_sum_relu_0_split -> conv5_2_sum_bn_conv5_2_sum_relu_0_split_1
I0703 18:05:34.949781 35376 net.cpp:150] Setting up conv5_2_sum_bn_conv5_2_sum_relu_0_split
I0703 18:05:34.949793 35376 net.cpp:157] Top shape: 32 2048 7 7 (3211264)
I0703 18:05:34.949800 35376 net.cpp:157] Top shape: 32 2048 7 7 (3211264)
I0703 18:05:34.949806 35376 net.cpp:165] Memory required for data: 12710240640
I0703 18:05:34.949813 35376 layer_factory.hpp:76] Creating layer conv5_3_1
I0703 18:05:34.949831 35376 net.cpp:106] Creating Layer conv5_3_1
I0703 18:05:34.949838 35376 net.cpp:454] conv5_3_1 <- conv5_2_sum_bn_conv5_2_sum_relu_0_split_0
I0703 18:05:34.949856 35376 net.cpp:411] conv5_3_1 -> conv5_3_1
I0703 18:05:34.982184 35376 cudnn_conv_layer.cpp:194] Reallocating workspace storage: 24576
I0703 18:05:34.982235 35376 net.cpp:150] Setting up conv5_3_1
I0703 18:05:34.982249 35376 net.cpp:157] Top shape: 32 512 7 7 (802816)
I0703 18:05:34.982259 35376 net.cpp:165] Memory required for data: 12713451904
I0703 18:05:34.982271 35376 layer_factory.hpp:76] Creating layer conv5_3_1_bn
I0703 18:05:34.982288 35376 net.cpp:106] Creating Layer conv5_3_1_bn
I0703 18:05:34.982300 35376 net.cpp:454] conv5_3_1_bn <- conv5_3_1
I0703 18:05:34.982313 35376 net.cpp:411] conv5_3_1_bn -> conv5_3_1_bn
I0703 18:05:34.982604 35376 net.cpp:150] Setting up conv5_3_1_bn
I0703 18:05:34.982617 35376 net.cpp:157] Top shape: 32 512 7 7 (802816)
I0703 18:05:34.982625 35376 net.cpp:165] Memory required for data: 12716663168
I0703 18:05:34.982635 35376 layer_factory.hpp:76] Creating layer conv5_3_1_relu
I0703 18:05:34.982659 35376 net.cpp:106] Creating Layer conv5_3_1_relu
I0703 18:05:34.982667 35376 net.cpp:454] conv5_3_1_relu <- conv5_3_1_bn
I0703 18:05:34.982676 35376 net.cpp:397] conv5_3_1_relu -> conv5_3_1_bn (in-place)
I0703 18:05:34.983095 35376 net.cpp:150] Setting up conv5_3_1_relu
I0703 18:05:34.983114 35376 net.cpp:157] Top shape: 32 512 7 7 (802816)
I0703 18:05:34.983121 35376 net.cpp:165] Memory required for data: 12719874432
I0703 18:05:34.983129 35376 layer_factory.hpp:76] Creating layer conv5_3_2
I0703 18:05:34.983145 35376 net.cpp:106] Creating Layer conv5_3_2
I0703 18:05:34.983155 35376 net.cpp:454] conv5_3_2 <- conv5_3_1_bn
I0703 18:05:34.983165 35376 net.cpp:411] conv5_3_2 -> conv5_3_2
I0703 18:05:35.053957 35376 net.cpp:150] Setting up conv5_3_2
I0703 18:05:35.054002 35376 net.cpp:157] Top shape: 32 512 7 7 (802816)
I0703 18:05:35.054011 35376 net.cpp:165] Memory required for data: 12723085696
I0703 18:05:35.054026 35376 layer_factory.hpp:76] Creating layer conv5_3_2_bn
I0703 18:05:35.054050 35376 net.cpp:106] Creating Layer conv5_3_2_bn
I0703 18:05:35.054064 35376 net.cpp:454] conv5_3_2_bn <- conv5_3_2
I0703 18:05:35.054075 35376 net.cpp:411] conv5_3_2_bn -> conv5_3_2_bn
I0703 18:05:35.054415 35376 net.cpp:150] Setting up conv5_3_2_bn
I0703 18:05:35.054431 35376 net.cpp:157] Top shape: 32 512 7 7 (802816)
I0703 18:05:35.054440 35376 net.cpp:165] Memory required for data: 12726296960
I0703 18:05:35.054452 35376 layer_factory.hpp:76] Creating layer conv5_3_2_relu
I0703 18:05:35.054466 35376 net.cpp:106] Creating Layer conv5_3_2_relu
I0703 18:05:35.054497 35376 net.cpp:454] conv5_3_2_relu <- conv5_3_2_bn
I0703 18:05:35.054508 35376 net.cpp:397] conv5_3_2_relu -> conv5_3_2_bn (in-place)
I0703 18:05:35.054963 35376 net.cpp:150] Setting up conv5_3_2_relu
I0703 18:05:35.054982 35376 net.cpp:157] Top shape: 32 512 7 7 (802816)
I0703 18:05:35.054991 35376 net.cpp:165] Memory required for data: 12729508224
I0703 18:05:35.054998 35376 layer_factory.hpp:76] Creating layer conv5_3_3
I0703 18:05:35.055016 35376 net.cpp:106] Creating Layer conv5_3_3
I0703 18:05:35.055025 35376 net.cpp:454] conv5_3_3 <- conv5_3_2_bn
I0703 18:05:35.055038 35376 net.cpp:411] conv5_3_3 -> conv5_3_3
I0703 18:05:35.087497 35376 cudnn_conv_layer.cpp:194] Reallocating workspace storage: 6144
I0703 18:05:35.087553 35376 net.cpp:150] Setting up conv5_3_3
I0703 18:05:35.087568 35376 net.cpp:157] Top shape: 32 2048 7 7 (3211264)
I0703 18:05:35.087581 35376 net.cpp:165] Memory required for data: 12742353280
I0703 18:05:35.087595 35376 layer_factory.hpp:76] Creating layer conv5_3_sum
I0703 18:05:35.087610 35376 net.cpp:106] Creating Layer conv5_3_sum
I0703 18:05:35.087621 35376 net.cpp:454] conv5_3_sum <- conv5_2_sum_bn_conv5_2_sum_relu_0_split_1
I0703 18:05:35.087631 35376 net.cpp:454] conv5_3_sum <- conv5_3_3
I0703 18:05:35.087646 35376 net.cpp:411] conv5_3_sum -> conv5_3_sum
I0703 18:05:35.087693 35376 net.cpp:150] Setting up conv5_3_sum
I0703 18:05:35.087705 35376 net.cpp:157] Top shape: 32 2048 7 7 (3211264)
I0703 18:05:35.087713 35376 net.cpp:165] Memory required for data: 12755198336
I0703 18:05:35.087723 35376 layer_factory.hpp:76] Creating layer conv5_3_sum_bn
I0703 18:05:35.087736 35376 net.cpp:106] Creating Layer conv5_3_sum_bn
I0703 18:05:35.087744 35376 net.cpp:454] conv5_3_sum_bn <- conv5_3_sum
I0703 18:05:35.087755 35376 net.cpp:411] conv5_3_sum_bn -> conv5_3_sum_bn
I0703 18:05:35.088846 35376 net.cpp:150] Setting up conv5_3_sum_bn
I0703 18:05:35.088865 35376 net.cpp:157] Top shape: 32 2048 7 7 (3211264)
I0703 18:05:35.088872 35376 net.cpp:165] Memory required for data: 12768043392
I0703 18:05:35.088886 35376 layer_factory.hpp:76] Creating layer conv5_3_sum_relu
I0703 18:05:35.088897 35376 net.cpp:106] Creating Layer conv5_3_sum_relu
I0703 18:05:35.088906 35376 net.cpp:454] conv5_3_sum_relu <- conv5_3_sum_bn
I0703 18:05:35.088913 35376 net.cpp:397] conv5_3_sum_relu -> conv5_3_sum_bn (in-place)
I0703 18:05:35.089143 35376 net.cpp:150] Setting up conv5_3_sum_relu
I0703 18:05:35.089159 35376 net.cpp:157] Top shape: 32 2048 7 7 (3211264)
I0703 18:05:35.089166 35376 net.cpp:165] Memory required for data: 12780888448
I0703 18:05:35.089174 35376 layer_factory.hpp:76] Creating layer pool2
I0703 18:05:35.089184 35376 net.cpp:106] Creating Layer pool2
I0703 18:05:35.089201 35376 net.cpp:454] pool2 <- conv5_3_sum_bn
I0703 18:05:35.089213 35376 net.cpp:411] pool2 -> pool2
I0703 18:05:35.089658 35376 net.cpp:150] Setting up pool2
I0703 18:05:35.089675 35376 net.cpp:157] Top shape: 32 2048 1 1 (65536)
I0703 18:05:35.089684 35376 net.cpp:165] Memory required for data: 12781150592
I0703 18:05:35.089690 35376 layer_factory.hpp:76] Creating layer fc
I0703 18:05:35.089706 35376 net.cpp:106] Creating Layer fc
I0703 18:05:35.089714 35376 net.cpp:454] fc <- pool2
I0703 18:05:35.089722 35376 net.cpp:411] fc -> fc
I0703 18:05:35.090018 35376 net.cpp:150] Setting up fc
I0703 18:05:35.090031 35376 net.cpp:157] Top shape: 32 2 (64)
I0703 18:05:35.090039 35376 net.cpp:165] Memory required for data: 12781150848
I0703 18:05:35.090049 35376 layer_factory.hpp:76] Creating layer fc_fc_0_split
I0703 18:05:35.090070 35376 net.cpp:106] Creating Layer fc_fc_0_split
I0703 18:05:35.090078 35376 net.cpp:454] fc_fc_0_split <- fc
I0703 18:05:35.090090 35376 net.cpp:411] fc_fc_0_split -> fc_fc_0_split_0
I0703 18:05:35.090100 35376 net.cpp:411] fc_fc_0_split -> fc_fc_0_split_1
I0703 18:05:35.090138 35376 net.cpp:150] Setting up fc_fc_0_split
I0703 18:05:35.090150 35376 net.cpp:157] Top shape: 32 2 (64)
I0703 18:05:35.090158 35376 net.cpp:157] Top shape: 32 2 (64)
I0703 18:05:35.090169 35376 net.cpp:165] Memory required for data: 12781151360
I0703 18:05:35.090200 35376 layer_factory.hpp:76] Creating layer loss
I0703 18:05:35.090210 35376 net.cpp:106] Creating Layer loss
I0703 18:05:35.090217 35376 net.cpp:454] loss <- fc_fc_0_split_0
I0703 18:05:35.090225 35376 net.cpp:454] loss <- label_data_1_split_0
I0703 18:05:35.090236 35376 net.cpp:411] loss -> loss
…
