…
I0703 18:06:32.493485 35388 net.cpp:322] The NetState phase (0) differed from the phase (1) specified by a rule in layer acc/top-1
I0703 18:06:32.496187 35388 net.cpp:49] Initializing net from parameters: 
name: "ResNet-20"
state {
  phase: TRAIN
}
layer {
  name: "data"
  type: "ImageData"
  top: "data"
  top: "label"
  include {
    phase: TRAIN
  }
  transform_param {
    mirror: true
    mean_value: 104
    mean_value: 117
    mean_value: 123
  }
  image_data_param {
    source: "../lists/roi-train.lst"
    batch_size: 32
    shuffle: true
    new_height: 128
    new_width: 128
  }
}
layer {
  name: "conv1"
  type: "Convolution"
  bottom: "data"
  top: "conv1"
  param {
    lr_mult: 1
    decay_mult: 1
  }
  param {
    lr_mult: 2
    decay_mult: 0
  }
  convolution_param {
    num_output: 64
    pad: 0
    kernel_size: 7
    stride: 2
    weight_filler {
      type: "msra"
    }
    bias_filler {
      type: "constant"
      value: 0
    }
  }
}
layer {
  name: "conv1_bn"
  type: "BatchNorm"
  bottom: "conv1"
  top: "conv1_bn"
  param {
    lr_mult: 0
  }
  param {
    lr_mult: 0
  }
  param {
    lr_mult: 0
  }
}
layer {
  name: "conv1_relu"
  type: "ReLU"
  bottom: "conv1_bn"
  top: "conv1_bn"
}
layer {
  name: "pool1"
  type: "Pooling"
  bottom: "conv1_bn"
  top: "pool1"
  pooling_param {
    pool: MAX
    kernel_size: 3
    stride: 2
  }
}
layer {
  name: "conv1_output"
  type: "Convolution"
  bottom: "pool1"
  top: "conv1_output"
  param {
    lr_mult: 1
    decay_mult: 1
  }
  param {
    lr_mult: 2
    decay_mult: 0
  }
  convolution_param {
    num_output: 256
    pad: 0
    kernel_size: 1
    stride: 1
    weight_filler {
      type: "msra"
    }
    bias_filler {
      type: "constant"
      value: 0
    }
  }
}
layer {
  name: "conv2_1_1"
  type: "Convolution"
  bottom: "pool1"
  top: "conv2_1_1"
  param {
    lr_mult: 1
    decay_mult: 1
  }
  param {
    lr_mult: 2
    decay_mult: 0
  }
  convolution_param {
    num_output: 64
    pad: 0
    kernel_size: 1
    stride: 1
    weight_filler {
      type: "msra"
    }
    bias_filler {
      type: "constant"
      value: 0
    }
  }
}
layer {
  name: "conv2_1_1_bn"
  type: "BatchNorm"
  bottom: "conv2_1_1"
  top: "conv2_1_1_bn"
  param {
    lr_mult: 0
  }
  param {
    lr_mult: 0
  }
  param {
    lr_mult: 0
  }
}
layer {
  name: "conv2_1_1_relu"
  type: "ReLU"
  bottom: "conv2_1_1_bn"
  top: "conv2_1_1_bn"
}
layer {
  name: "conv2_1_2"
  type: "Convolution"
  bottom: "conv2_1_1_bn"
  top: "conv2_1_2"
  param {
    lr_mult: 1
    decay_mult: 1
  }
  param {
    lr_mult: 2
    decay_mult: 0
  }
  convolution_param {
    num_output: 64
    pad: 1
    kernel_size: 3
    stride: 1
    weight_filler {
      type: "msra"
    }
    bias_filler {
      type: "constant"
      value: 0
    }
  }
}
layer {
  name: "conv2_1_2_bn"
  type: "BatchNorm"
  bottom: "conv2_1_2"
  top: "conv2_1_2_bn"
  param {
    lr_mult: 0
  }
  param {
    lr_mult: 0
  }
  param {
    lr_mult: 0
  }
}
layer {
  name: "conv2_1_2_relu"
  type: "ReLU"
  bottom: "conv2_1_2_bn"
  top: "conv2_1_2_bn"
}
layer {
  name: "conv2_1_3"
  type: "Convolution"
  bottom: "conv2_1_2_bn"
  top: "conv2_1_3"
  param {
    lr_mult: 1
    decay_mult: 1
  }
  param {
    lr_mult: 2
    decay_mult: 0
  }
  convolution_param {
    num_output: 256
    pad: 0
    kernel_size: 1
    stride: 1
    weight_filler {
      type: "msra"
    }
    bias_filler {
      type: "constant"
      value: 0
    }
  }
}
layer {
  name: "conv2_1_sum"
  type: "Eltwise"
  bottom: "conv1_output"
  bottom: "conv2_1_3"
  top: "conv2_1_sum"
  eltwise_param {
    operation: SUM
  }
}
layer {
  name: "conv2_1_sum_bn"
  type: "BatchNorm"
  bottom: "conv2_1_sum"
  top: "conv2_1_sum_bn"
  param {
    lr_mult: 0
  }
  param {
    lr_mult: 0
  }
  param {
    lr_mult: 0
  }
}
layer {
  name: "conv2_1_sum_relu"
  type: "ReLU"
  bottom: "conv2_1_sum_bn"
  top: "conv2_1_sum_bn"
}
layer {
  name: "conv2_2_1"
  type: "Convolution"
  bottom: "conv2_1_sum_bn"
  top: "conv2_2_1"
  param {
    lr_mult: 1
    decay_mult: 1
  }
  param {
    lr_mult: 2
    decay_mult: 0
  }
  convolution_param {
    num_output: 64
    pad: 0
    kernel_size: 1
    stride: 1
    weight_filler {
      type: "msra"
    }
    bias_filler {
      type: "constant"
      value: 0
    }
  }
}
layer {
  name: "conv2_2_1_bn"
  type: "BatchNorm"
  bottom: "conv2_2_1"
  top: "conv2_2_1_bn"
  param {
    lr_mult: 0
  }
  param {
    lr_mult: 0
  }
  param {
    lr_mult: 0
  }
}
layer {
  name: "conv2_2_1_relu"
  type: "ReLU"
  bottom: "conv2_2_1_bn"
  top: "conv2_2_1_bn"
}
layer {
  name: "conv2_2_2"
  type: "Convolution"
  bottom: "conv2_2_1_bn"
  top: "conv2_2_2"
  param {
    lr_mult: 1
    decay_mult: 1
  }
  param {
    lr_mult: 2
    decay_mult: 0
  }
  convolution_param {
    num_output: 64
    pad: 1
    kernel_size: 3
    stride: 1
    weight_filler {
      type: "msra"
    }
    bias_filler {
      type: "constant"
      value: 0
    }
  }
}
layer {
  name: "conv2_2_2_bn"
  type: "BatchNorm"
  bottom: "conv2_2_2"
  top: "conv2_2_2_bn"
  param {
    lr_mult: 0
  }
  param {
    lr_mult: 0
  }
  param {
    lr_mult: 0
  }
}
layer {
  name: "conv2_2_2_relu"
  type: "ReLU"
  bottom: "conv2_2_2_bn"
  top: "conv2_2_2_bn"
}
layer {
  name: "conv2_2_3"
  type: "Convolution"
  bottom: "conv2_2_2_bn"
  top: "conv2_2_3"
  param {
    lr_mult: 1
    decay_mult: 1
  }
  param {
    lr_mult: 2
    decay_mult: 0
  }
  convolution_param {
    num_output: 256
    pad: 0
    kernel_size: 1
    stride: 1
    weight_filler {
      type: "msra"
    }
    bias_filler {
      type: "constant"
      value: 0
    }
  }
}
layer {
  name: "conv2_2_sum"
  type: "Eltwise"
  bottom: "conv2_1_sum_bn"
  bottom: "conv2_2_3"
  top: "conv2_2_sum"
  eltwise_param {
    operation: SUM
  }
}
layer {
  name: "conv2_2_sum_bn"
  type: "BatchNorm"
  bottom: "conv2_2_sum"
  top: "conv2_2_sum_bn"
  param {
    lr_mult: 0
  }
  param {
    lr_mult: 0
  }
  param {
    lr_mult: 0
  }
}
layer {
  name: "conv2_2_sum_relu"
  type: "ReLU"
  bottom: "conv2_2_sum_bn"
  top: "conv2_2_sum_bn"
}
layer {
  name: "conv2_3_1"
  type: "Convolution"
  bottom: "conv2_2_sum_bn"
  top: "conv2_3_1"
  param {
    lr_mult: 1
    decay_mult: 1
  }
  param {
    lr_mult: 2
    decay_mult: 0
  }
  convolution_param {
    num_output: 64
    pad: 0
    kernel_size: 1
    stride: 1
    weight_filler {
      type: "msra"
    }
    bias_filler {
      type: "constant"
      value: 0
    }
  }
}
layer {
  name: "conv2_3_1_bn"
  type: "BatchNorm"
  bottom: "conv2_3_1"
  top: "conv2_3_1_bn"
  param {
    lr_mult: 0
  }
  param {
    lr_mult: 0
  }
  param {
    lr_mult: 0
  }
}
layer {
  name: "conv2_3_1_relu"
  type: "ReLU"
  bottom: "conv2_3_1_bn"
  top: "conv2_3_1_bn"
}
layer {
  name: "conv2_3_2"
  type: "Convolution"
  bottom: "conv2_3_1_bn"
  top: "conv2_3_2"
  param {
    lr_mult: 1
    decay_mult: 1
  }
  param {
    lr_mult: 2
    decay_mult: 0
  }
  convolution_param {
    num_output: 64
    pad: 1
    kernel_size: 3
    stride: 1
    weight_filler {
      type: "msra"
    }
    bias_filler {
      type: "constant"
      value: 0
    }
  }
}
layer {
  name: "conv2_3_2_bn"
  type: "BatchNorm"
  bottom: "conv2_3_2"
  top: "conv2_3_2_bn"
  param {
    lr_mult: 0
  }
  param {
    lr_mult: 0
  }
  param {
    lr_mult: 0
  }
}
layer {
  name: "conv2_3_2_relu"
  type: "ReLU"
  bottom: "conv2_3_2_bn"
  top: "conv2_3_2_bn"
}
layer {
  name: "conv2_3_3"
  type: "Convolution"
  bottom: "conv2_3_2_bn"
  top: "conv2_3_3"
  param {
    lr_mult: 1
    decay_mult: 1
  }
  param {
    lr_mult: 2
    decay_mult: 0
  }
  convolution_param {
    num_output: 256
    pad: 0
    kernel_size: 1
    stride: 1
    weight_filler {
      type: "msra"
    }
    bias_filler {
      type: "constant"
      value: 0
    }
  }
}
layer {
  name: "conv2_3_sum"
  type: "Eltwise"
  bottom: "conv2_2_sum_bn"
  bottom: "conv2_3_3"
  top: "conv2_3_sum"
  eltwise_param {
    operation: SUM
  }
}
layer {
  name: "conv2_3_sum_bn"
  type: "BatchNorm"
  bottom: "conv2_3_sum"
  top: "conv2_3_sum_bn"
  param {
    lr_mult: 0
  }
  param {
    lr_mult: 0
  }
  param {
    lr_mult: 0
  }
}
layer {
  name: "conv2_3_sum_relu"
  type: "ReLU"
  bottom: "conv2_3_sum_bn"
  top: "conv2_3_sum_bn"
}
layer {
  name: "conv2_output"
  type: "Convolution"
  bottom: "conv2_3_sum_bn"
  top: "conv2_output"
  param {
    lr_mult: 1
    decay_mult: 1
  }
  param {
    lr_mult: 2
    decay_mult: 0
  }
  convolution_param {
    num_output: 512
    pad: 0
    kernel_size: 1
    stride: 2
    weight_filler {
      type: "msra"
    }
    bias_filler {
      type: "constant"
      value: 0
    }
  }
}
layer {
  name: "conv3_1_1"
  type: "Convolution"
  bottom: "conv2_3_sum_bn"
  top: "conv3_1_1"
  param {
    lr_mult: 1
    decay_mult: 1
  }
  param {
    lr_mult: 2
    decay_mult: 0
  }
  convolution_param {
    num_output: 128
    pad: 0
    kernel_size: 1
    stride: 2
    weight_filler {
      type: "msra"
    }
    bias_filler {
      type: "constant"
      value: 0
    }
  }
}
layer {
  name: "conv3_1_1_bn"
  type: "BatchNorm"
  bottom: "conv3_1_1"
  top: "conv3_1_1_bn"
  param {
    lr_mult: 0
  }
  param {
    lr_mult: 0
  }
  param {
    lr_mult: 0
  }
}
layer {
  name: "conv3_1_1_relu"
  type: "ReLU"
  bottom: "conv3_1_1_bn"
  top: "conv3_1_1_bn"
}
layer {
  name: "conv3_1_2"
  type: "Convolution"
  bottom: "conv3_1_1_bn"
  top: "conv3_1_2"
  param {
    lr_mult: 1
    decay_mult: 1
  }
  param {
    lr_mult: 2
    decay_mult: 0
  }
  convolution_param {
    num_output: 128
    pad: 1
    kernel_size: 3
    stride: 1
    weight_filler {
      type: "msra"
    }
    bias_filler {
      type: "constant"
      value: 0
    }
  }
}
layer {
  name: "conv3_1_2_bn"
  type: "BatchNorm"
  bottom: "conv3_1_2"
  top: "conv3_1_2_bn"
  param {
    lr_mult: 0
  }
  param {
    lr_mult: 0
  }
  param {
    lr_mult: 0
  }
}
layer {
  name: "conv3_1_2_relu"
  type: "ReLU"
  bottom: "conv3_1_2_bn"
  top: "conv3_1_2_bn"
}
layer {
  name: "conv3_1_3"
  type: "Convolution"
  bottom: "conv3_1_2_bn"
  top: "conv3_1_3"
  param {
    lr_mult: 1
    decay_mult: 1
  }
  param {
    lr_mult: 2
    decay_mult: 0
  }
  convolution_param {
    num_output: 512
    pad: 0
    kernel_size: 1
    stride: 1
    weight_filler {
      type: "msra"
    }
    bias_filler {
      type: "constant"
      value: 0
    }
  }
}
layer {
  name: "conv3_1_sum"
  type: "Eltwise"
  bottom: "conv2_output"
  bottom: "conv3_1_3"
  top: "conv3_1_sum"
  eltwise_param {
    operation: SUM
  }
}
layer {
  name: "conv3_1_sum_bn"
  type: "BatchNorm"
  bottom: "conv3_1_sum"
  top: "conv3_1_sum_bn"
  param {
    lr_mult: 0
  }
  param {
    lr_mult: 0
  }
  param {
    lr_mult: 0
  }
}
layer {
  name: "conv3_1_sum_relu"
  type: "ReLU"
  bottom: "conv3_1_sum_bn"
  top: "conv3_1_sum_bn"
}
layer {
  name: "conv3_2_1"
  type: "Convolution"
  bottom: "conv3_1_sum_bn"
  top: "conv3_2_1"
  param {
    lr_mult: 1
    decay_mult: 1
  }
  param {
    lr_mult: 2
    decay_mult: 0
  }
  convolution_param {
    num_output: 128
    pad: 0
    kernel_size: 1
    stride: 1
    weight_filler {
      type: "msra"
    }
    bias_filler {
      type: "constant"
      value: 0
    }
  }
}
layer {
  name: "conv3_2_1_bn"
  type: "BatchNorm"
  bottom: "conv3_2_1"
  top: "conv3_2_1_bn"
  param {
    lr_mult: 0
  }
  param {
    lr_mult: 0
  }
  param {
    lr_mult: 0
  }
}
layer {
  name: "conv3_2_1_relu"
  type: "ReLU"
  bottom: "conv3_2_1_bn"
  top: "conv3_2_1_bn"
}
layer {
  name: "conv3_2_2"
  type: "Convolution"
  bottom: "conv3_2_1_bn"
  top: "conv3_2_2"
  param {
    lr_mult: 1
    decay_mult: 1
  }
  param {
    lr_mult: 2
    decay_mult: 0
  }
  convolution_param {
    num_output: 128
    pad: 1
    kernel_size: 3
    stride: 1
    weight_filler {
      type: "msra"
    }
    bias_filler {
      type: "constant"
      value: 0
    }
  }
}
layer {
  name: "conv3_2_2_bn"
  type: "BatchNorm"
  bottom: "conv3_2_2"
  top: "conv3_2_2_bn"
  param {
    lr_mult: 0
  }
  param {
    lr_mult: 0
  }
  param {
    lr_mult: 0
  }
}
layer {
  name: "conv3_2_2_relu"
  type: "ReLU"
  bottom: "conv3_2_2_bn"
  top: "conv3_2_2_bn"
}
layer {
  name: "conv3_2_3"
  type: "Convolution"
  bottom: "conv3_2_2_bn"
  top: "conv3_2_3"
  param {
    lr_mult: 1
    decay_mult: 1
  }
  param {
    lr_mult: 2
    decay_mult: 0
  }
  convolution_param {
    num_output: 512
    pad: 0
    kernel_size: 1
    stride: 1
    weight_filler {
      type: "msra"
    }
    bias_filler {
      type: "constant"
      value: 0
    }
  }
}
layer {
  name: "conv3_2_sum"
  type: "Eltwise"
  bottom: "conv3_1_sum_bn"
  bottom: "conv3_2_3"
  top: "conv3_2_sum"
  eltwise_param {
    operation: SUM
  }
}
layer {
  name: "conv3_2_sum_bn"
  type: "BatchNorm"
  bottom: "conv3_2_sum"
  top: "conv3_2_sum_bn"
  param {
    lr_mult: 0
  }
  param {
    lr_mult: 0
  }
  param {
    lr_mult: 0
  }
}
layer {
  name: "conv3_2_sum_relu"
  type: "ReLU"
  bottom: "conv3_2_sum_bn"
  top: "conv3_2_sum_bn"
}
layer {
  name: "conv3_3_1"
  type: "Convolution"
  bottom: "conv3_2_sum_bn"
  top: "conv3_3_1"
  param {
    lr_mult: 1
    decay_mult: 1
  }
  param {
    lr_mult: 2
    decay_mult: 0
  }
  convolution_param {
    num_output: 128
    pad: 0
    kernel_size: 1
    stride: 1
    weight_filler {
      type: "msra"
    }
    bias_filler {
      type: "constant"
      value: 0
    }
  }
}
layer {
  name: "conv3_3_1_bn"
  type: "BatchNorm"
  bottom: "conv3_3_1"
  top: "conv3_3_1_bn"
  param {
    lr_mult: 0
  }
  param {
    lr_mult: 0
  }
  param {
    lr_mult: 0
  }
}
layer {
  name: "conv3_3_1_relu"
  type: "ReLU"
  bottom: "conv3_3_1_bn"
  top: "conv3_3_1_bn"
}
layer {
  name: "conv3_3_2"
  type: "Convolution"
  bottom: "conv3_3_1_bn"
  top: "conv3_3_2"
  param {
    lr_mult: 1
    decay_mult: 1
  }
  param {
    lr_mult: 2
    decay_mult: 0
  }
  convolution_param {
    num_output: 128
    pad: 1
    kernel_size: 3
    stride: 1
    weight_filler {
      type: "msra"
    }
    bias_filler {
      type: "constant"
      value: 0
    }
  }
}
layer {
  name: "conv3_3_2_bn"
  type: "BatchNorm"
  bottom: "conv3_3_2"
  top: "conv3_3_2_bn"
  param {
    lr_mult: 0
  }
  param {
    lr_mult: 0
  }
  param {
    lr_mult: 0
  }
}
layer {
  name: "conv3_3_2_relu"
  type: "ReLU"
  bottom: "conv3_3_2_bn"
  top: "conv3_3_2_bn"
}
layer {
  name: "conv3_3_3"
  type: "Convolution"
  bottom: "conv3_3_2_bn"
  top: "conv3_3_3"
  param {
    lr_mult: 1
    decay_mult: 1
  }
  param {
    lr_mult: 2
    decay_mult: 0
  }
  convolution_param {
    num_output: 512
    pad: 0
    kernel_size: 1
    stride: 1
    weight_filler {
      type: "msra"
    }
    bias_filler {
      type: "constant"
      value: 0
    }
  }
}
layer {
  name: "conv3_3_sum"
  type: "Eltwise"
  bottom: "conv3_2_sum_bn"
  bottom: "conv3_3_3"
  top: "conv3_3_sum"
  eltwise_param {
    operation: SUM
  }
}
layer {
  name: "conv3_3_sum_bn"
  type: "BatchNorm"
  bottom: "conv3_3_sum"
  top: "conv3_3_sum_bn"
  param {
    lr_mult: 0
  }
  param {
    lr_mult: 0
  }
  param {
    lr_mult: 0
  }
}
layer {
  name: "conv3_3_sum_relu"
  type: "ReLU"
  bottom: "conv3_3_sum_bn"
  top: "conv3_3_sum_bn"
}
layer {
  name: "conv3_4_1"
  type: "Convolution"
  bottom: "conv3_3_sum_bn"
  top: "conv3_4_1"
  param {
    lr_mult: 1
    decay_mult: 1
  }
  param {
    lr_mult: 2
    decay_mult: 0
  }
  convolution_param {
    num_output: 128
    pad: 0
    kernel_size: 1
    stride: 1
    weight_filler {
      type: "msra"
    }
    bias_filler {
      type: "constant"
      value: 0
    }
  }
}
layer {
  name: "conv3_4_1_bn"
  type: "BatchNorm"
  bottom: "conv3_4_1"
  top: "conv3_4_1_bn"
  param {
    lr_mult: 0
  }
  param {
    lr_mult: 0
  }
  param {
    lr_mult: 0
  }
}
layer {
  name: "conv3_4_1_relu"
  type: "ReLU"
  bottom: "conv3_4_1_bn"
  top: "conv3_4_1_bn"
}
layer {
  name: "conv3_4_2"
  type: "Convolution"
  bottom: "conv3_4_1_bn"
  top: "conv3_4_2"
  param {
    lr_mult: 1
    decay_mult: 1
  }
  param {
    lr_mult: 2
    decay_mult: 0
  }
  convolution_param {
    num_output: 128
    pad: 1
    kernel_size: 3
    stride: 1
    weight_filler {
      type: "msra"
    }
    bias_filler {
      type: "constant"
      value: 0
    }
  }
}
layer {
  name: "conv3_4_2_bn"
  type: "BatchNorm"
  bottom: "conv3_4_2"
  top: "conv3_4_2_bn"
  param {
    lr_mult: 0
  }
  param {
    lr_mult: 0
  }
  param {
    lr_mult: 0
  }
}
layer {
  name: "conv3_4_2_relu"
  type: "ReLU"
  bottom: "conv3_4_2_bn"
  top: "conv3_4_2_bn"
}
layer {
  name: "conv3_4_3"
  type: "Convolution"
  bottom: "conv3_4_2_bn"
  top: "conv3_4_3"
  param {
    lr_mult: 1
    decay_mult: 1
  }
  param {
    lr_mult: 2
    decay_mult: 0
  }
  convolution_param {
    num_output: 512
    pad: 0
    kernel_size: 1
    stride: 1
    weight_filler {
      type: "msra"
    }
    bias_filler {
      type: "constant"
      value: 0
    }
  }
}
layer {
  name: "conv3_4_sum"
  type: "Eltwise"
  bottom: "conv3_3_sum_bn"
  bottom: "conv3_4_3"
  top: "conv3_4_sum"
  eltwise_param {
    operation: SUM
  }
}
layer {
  name: "conv3_4_sum_bn"
  type: "BatchNorm"
  bottom: "conv3_4_sum"
  top: "conv3_4_sum_bn"
  param {
    lr_mult: 0
  }
  param {
    lr_mult: 0
  }
  param {
    lr_mult: 0
  }
}
layer {
  name: "conv3_4_sum_relu"
  type: "ReLU"
  bottom: "conv3_4_sum_bn"
  top: "conv3_4_sum_bn"
}
layer {
  name: "conv3_5_1"
  type: "Convolution"
  bottom: "conv3_4_sum_bn"
  top: "conv3_5_1"
  param {
    lr_mult: 1
    decay_mult: 1
  }
  param {
    lr_mult: 2
    decay_mult: 0
  }
  convolution_param {
    num_output: 128
    pad: 0
    kernel_size: 1
    stride: 1
    weight_filler {
      type: "msra"
    }
    bias_filler {
      type: "constant"
      value: 0
    }
  }
}
layer {
  name: "conv3_5_1_bn"
  type: "BatchNorm"
  bottom: "conv3_5_1"
  top: "conv3_5_1_bn"
  param {
    lr_mult: 0
  }
  param {
    lr_mult: 0
  }
  param {
    lr_mult: 0
  }
}
layer {
  name: "conv3_5_1_relu"
  type: "ReLU"
  bottom: "conv3_5_1_bn"
  top: "conv3_5_1_bn"
}
layer {
  name: "conv3_5_2"
  type: "Convolution"
  bottom: "conv3_5_1_bn"
  top: "conv3_5_2"
  param {
    lr_mult: 1
    decay_mult: 1
  }
  param {
    lr_mult: 2
    decay_mult: 0
  }
  convolution_param {
    num_output: 128
    pad: 1
    kernel_size: 3
    stride: 1
    weight_filler {
      type: "msra"
    }
    bias_filler {
      type: "constant"
      value: 0
    }
  }
}
layer {
  name: "conv3_5_2_bn"
  type: "BatchNorm"
  bottom: "conv3_5_2"
  top: "conv3_5_2_bn"
  param {
    lr_mult: 0
  }
  param {
    lr_mult: 0
  }
  param {
    lr_mult: 0
  }
}
layer {
  name: "conv3_5_2_relu"
  type: "ReLU"
  bottom: "conv3_5_2_bn"
  top: "conv3_5_2_bn"
}
layer {
  name: "conv3_5_3"
  type: "Convolution"
  bottom: "conv3_5_2_bn"
  top: "conv3_5_3"
  param {
    lr_mult: 1
    decay_mult: 1
  }
  param {
    lr_mult: 2
    decay_mult: 0
  }
  convolution_param {
    num_output: 512
    pad: 0
    kernel_size: 1
    stride: 1
    weight_filler {
      type: "msra"
    }
    bias_filler {
      type: "constant"
      value: 0
    }
  }
}
layer {
  name: "conv3_5_sum"
  type: "Eltwise"
  bottom: "conv3_4_sum_bn"
  bottom: "conv3_5_3"
  top: "conv3_5_sum"
  eltwise_param {
    operation: SUM
  }
}
layer {
  name: "conv3_5_sum_bn"
  type: "BatchNorm"
  bottom: "conv3_5_sum"
  top: "conv3_5_sum_bn"
  param {
    lr_mult: 0
  }
  param {
    lr_mult: 0
  }
  param {
    lr_mult: 0
  }
}
layer {
  name: "conv3_5_sum_relu"
  type: "ReLU"
  bottom: "conv3_5_sum_bn"
  top: "conv3_5_sum_bn"
}
layer {
  name: "conv3_6_1"
  type: "Convolution"
  bottom: "conv3_5_sum_bn"
  top: "conv3_6_1"
  param {
    lr_mult: 1
    decay_mult: 1
  }
  param {
    lr_mult: 2
    decay_mult: 0
  }
  convolution_param {
    num_output: 128
    pad: 0
    kernel_size: 1
    stride: 1
    weight_filler {
      type: "msra"
    }
    bias_filler {
      type: "constant"
      value: 0
    }
  }
}
layer {
  name: "conv3_6_1_bn"
  type: "BatchNorm"
  bottom: "conv3_6_1"
  top: "conv3_6_1_bn"
  param {
    lr_mult: 0
  }
  param {
    lr_mult: 0
  }
  param {
    lr_mult: 0
  }
}
layer {
  name: "conv3_6_1_relu"
  type: "ReLU"
  bottom: "conv3_6_1_bn"
  top: "conv3_6_1_bn"
}
layer {
  name: "conv3_6_2"
  type: "Convolution"
  bottom: "conv3_6_1_bn"
  top: "conv3_6_2"
  param {
    lr_mult: 1
    decay_mult: 1
  }
  param {
    lr_mult: 2
    decay_mult: 0
  }
  convolution_param {
    num_output: 128
    pad: 1
    kernel_size: 3
    stride: 1
    weight_filler {
      type: "msra"
    }
    bias_filler {
      type: "constant"
      value: 0
    }
  }
}
layer {
  name: "conv3_6_2_bn"
  type: "BatchNorm"
  bottom: "conv3_6_2"
  top: "conv3_6_2_bn"
  param {
    lr_mult: 0
  }
  param {
    lr_mult: 0
  }
  param {
    lr_mult: 0
  }
}
layer {
  name: "conv3_6_2_relu"
  type: "ReLU"
  bottom: "conv3_6_2_bn"
  top: "conv3_6_2_bn"
}
layer {
  name: "conv3_6_3"
  type: "Convolution"
  bottom: "conv3_6_2_bn"
  top: "conv3_6_3"
  param {
    lr_mult: 1
    decay_mult: 1
  }
  param {
    lr_mult: 2
    decay_mult: 0
  }
  convolution_param {
    num_output: 512
    pad: 0
    kernel_size: 1
    stride: 1
    weight_filler {
      type: "msra"
    }
    bias_filler {
      type: "constant"
      value: 0
    }
  }
}
layer {
  name: "conv3_6_sum"
  type: "Eltwise"
  bottom: "conv3_5_sum_bn"
  bottom: "conv3_6_3"
  top: "conv3_6_sum"
  eltwise_param {
    operation: SUM
  }
}
layer {
  name: "conv3_6_sum_bn"
  type: "BatchNorm"
  bottom: "conv3_6_sum"
  top: "conv3_6_sum_bn"
  param {
    lr_mult: 0
  }
  param {
    lr_mult: 0
  }
  param {
    lr_mult: 0
  }
}
layer {
  name: "conv3_6_sum_relu"
  type: "ReLU"
  bottom: "conv3_6_sum_bn"
  top: "conv3_6_sum_bn"
}
layer {
  name: "conv3_7_1"
  type: "Convolution"
  bottom: "conv3_6_sum_bn"
  top: "conv3_7_1"
  param {
    lr_mult: 1
    decay_mult: 1
  }
  param {
    lr_mult: 2
    decay_mult: 0
  }
  convolution_param {
    num_output: 128
    pad: 0
    kernel_size: 1
    stride: 1
    weight_filler {
      type: "msra"
    }
    bias_filler {
      type: "constant"
      value: 0
    }
  }
}
layer {
  name: "conv3_7_1_bn"
  type: "BatchNorm"
  bottom: "conv3_7_1"
  top: "conv3_7_1_bn"
  param {
    lr_mult: 0
  }
  param {
    lr_mult: 0
  }
  param {
    lr_mult: 0
  }
}
layer {
  name: "conv3_7_1_relu"
  type: "ReLU"
  bottom: "conv3_7_1_bn"
  top: "conv3_7_1_bn"
}
layer {
  name: "conv3_7_2"
  type: "Convolution"
  bottom: "conv3_7_1_bn"
  top: "conv3_7_2"
  param {
    lr_mult: 1
    decay_mult: 1
  }
  param {
    lr_mult: 2
    decay_mult: 0
  }
  convolution_param {
    num_output: 128
    pad: 1
    kernel_size: 3
    stride: 1
    weight_filler {
      type: "msra"
    }
    bias_filler {
      type: "constant"
      value: 0
    }
  }
}
layer {
  name: "conv3_7_2_bn"
  type: "BatchNorm"
  bottom: "conv3_7_2"
  top: "conv3_7_2_bn"
  param {
    lr_mult: 0
  }
  param {
    lr_mult: 0
  }
  param {
    lr_mult: 0
  }
}
layer {
  name: "conv3_7_2_relu"
  type: "ReLU"
  bottom: "conv3_7_2_bn"
  top: "conv3_7_2_bn"
}
layer {
  name: "conv3_7_3"
  type: "Convolution"
  bottom: "conv3_7_2_bn"
  top: "conv3_7_3"
  param {
    lr_mult: 1
    decay_mult: 1
  }
  param {
    lr_mult: 2
    decay_mult: 0
  }
  convolution_param {
    num_output: 512
    pad: 0
    kernel_size: 1
    stride: 1
    weight_filler {
      type: "msra"
    }
    bias_filler {
      type: "constant"
      value: 0
    }
  }
}
layer {
  name: "conv3_7_sum"
  type: "Eltwise"
  bottom: "conv3_6_sum_bn"
  bottom: "conv3_7_3"
  top: "conv3_7_sum"
  eltwise_param {
    operation: SUM
  }
}
layer {
  name: "conv3_7_sum_bn"
  type: "BatchNorm"
  bottom: "conv3_7_sum"
  top: "conv3_7_sum_bn"
  param {
    lr_mult: 0
  }
  param {
    lr_mult: 0
  }
  param {
    lr_mult: 0
  }
}
layer {
  name: "conv3_7_sum_relu"
  type: "ReLU"
  bottom: "conv3_7_sum_bn"
  top: "conv3_7_sum_bn"
}
layer {
  name: "conv3_8_1"
  type: "Convolution"
  bottom: "conv3_7_sum_bn"
  top: "conv3_8_1"
  param {
    lr_mult: 1
    decay_mult: 1
  }
  param {
    lr_mult: 2
    decay_mult: 0
  }
  convolution_param {
    num_output: 128
    pad: 0
    kernel_size: 1
    stride: 1
    weight_filler {
      type: "msra"
    }
    bias_filler {
      type: "constant"
      value: 0
    }
  }
}
layer {
  name: "conv3_8_1_bn"
  type: "BatchNorm"
  bottom: "conv3_8_1"
  top: "conv3_8_1_bn"
  param {
    lr_mult: 0
  }
  param {
    lr_mult: 0
  }
  param {
    lr_mult: 0
  }
}
layer {
  name: "conv3_8_1_relu"
  type: "ReLU"
  bottom: "conv3_8_1_bn"
  top: "conv3_8_1_bn"
}
layer {
  name: "conv3_8_2"
  type: "Convolution"
  bottom: "conv3_8_1_bn"
  top: "conv3_8_2"
  param {
    lr_mult: 1
    decay_mult: 1
  }
  param {
    lr_mult: 2
    decay_mult: 0
  }
  convolution_param {
    num_output: 128
    pad: 1
    kernel_size: 3
    stride: 1
    weight_filler {
      type: "msra"
    }
    bias_filler {
      type: "constant"
      value: 0
    }
  }
}
layer {
  name: "conv3_8_2_bn"
  type: "BatchNorm"
  bottom: "conv3_8_2"
  top: "conv3_8_2_bn"
  param {
    lr_mult: 0
  }
  param {
    lr_mult: 0
  }
  param {
    lr_mult: 0
  }
}
layer {
  name: "conv3_8_2_relu"
  type: "ReLU"
  bottom: "conv3_8_2_bn"
  top: "conv3_8_2_bn"
}
layer {
  name: "conv3_8_3"
  type: "Convolution"
  bottom: "conv3_8_2_bn"
  top: "conv3_8_3"
  param {
    lr_mult: 1
    decay_mult: 1
  }
  param {
    lr_mult: 2
    decay_mult: 0
  }
  convolution_param {
    num_output: 512
    pad: 0
    kernel_size: 1
    stride: 1
    weight_filler {
      type: "msra"
    }
    bias_filler {
      type: "constant"
      value: 0
    }
  }
}
layer {
  name: "conv3_8_sum"
  type: "Eltwise"
  bottom: "conv3_7_sum_bn"
  bottom: "conv3_8_3"
  top: "conv3_8_sum"
  eltwise_param {
    operation: SUM
  }
}
layer {
  name: "conv3_8_sum_bn"
  type: "BatchNorm"
  bottom: "conv3_8_sum"
  top: "conv3_8_sum_bn"
  param {
    lr_mult: 0
  }
  param {
    lr_mult: 0
  }
  param {
    lr_mult: 0
  }
}
layer {
  name: "conv3_8_sum_relu"
  type: "ReLU"
  bottom: "conv3_8_sum_bn"
  top: "conv3_8_sum_bn"
}
layer {
  name: "conv3_output"
  type: "Convolution"
  bottom: "conv3_8_sum_bn"
  top: "conv3_output"
  param {
    lr_mult: 1
    decay_mult: 1
  }
  param {
    lr_mult: 2
    decay_mult: 0
  }
  convolution_param {
    num_output: 1024
    pad: 0
    kernel_size: 1
    stride: 2
    weight_filler {
      type: "msra"
    }
    bias_filler {
      type: "constant"
      value: 0
    }
  }
}
layer {
  name: "conv4_1_1"
  type: "Convolution"
  bottom: "conv3_8_sum_bn"
  top: "conv4_1_1"
  param {
    lr_mult: 1
    decay_mult: 1
  }
  param {
    lr_mult: 2
    decay_mult: 0
  }
  convolution_param {
    num_output: 256
    pad: 0
    kernel_size: 1
    stride: 2
    weight_filler {
      type: "msra"
    }
    bias_filler {
      type: "constant"
      value: 0
    }
  }
}
layer {
  name: "conv4_1_1_bn"
  type: "BatchNorm"
  bottom: "conv4_1_1"
  top: "conv4_1_1_bn"
  param {
    lr_mult: 0
  }
  param {
    lr_mult: 0
  }
  param {
    lr_mult: 0
  }
}
layer {
  name: "conv4_1_1_relu"
  type: "ReLU"
  bottom: "conv4_1_1_bn"
  top: "conv4_1_1_bn"
}
layer {
  name: "conv4_1_2"
  type: "Convolution"
  bottom: "conv4_1_1_bn"
  top: "conv4_1_2"
  param {
    lr_mult: 1
    decay_mult: 1
  }
  param {
    lr_mult: 2
    decay_mult: 0
  }
  convolution_param {
    num_output: 256
    pad: 1
    kernel_size: 3
    stride: 1
    weight_filler {
      type: "msra"
    }
    bias_filler {
      type: "constant"
      value: 0
    }
  }
}
layer {
  name: "conv4_1_2_bn"
  type: "BatchNorm"
  bottom: "conv4_1_2"
  top: "conv4_1_2_bn"
  param {
    lr_mult: 0
  }
  param {
    lr_mult: 0
  }
  param {
    lr_mult: 0
  }
}
layer {
  name: "conv4_1_2_relu"
  type: "ReLU"
  bottom: "conv4_1_2_bn"
  top: "conv4_1_2_bn"
}
layer {
  name: "conv4_1_3"
  type: "Convolution"
  bottom: "conv4_1_2_bn"
  top: "conv4_1_3"
  param {
    lr_mult: 1
    decay_mult: 1
  }
  param {
    lr_mult: 2
    decay_mult: 0
  }
  convolution_param {
    num_output: 1024
    pad: 0
    kernel_size: 1
    stride: 1
    weight_filler {
      type: "msra"
    }
    bias_filler {
      type: "constant"
      value: 0
    }
  }
}
layer {
  name: "conv4_1_sum"
  type: "Eltwise"
  bottom: "conv3_output"
  bottom: "conv4_1_3"
  top: "conv4_1_sum"
  eltwise_param {
    operation: SUM
  }
}
layer {
  name: "conv4_1_sum_bn"
  type: "BatchNorm"
  bottom: "conv4_1_sum"
  top: "conv4_1_sum_bn"
  param {
    lr_mult: 0
  }
  param {
    lr_mult: 0
  }
  param {
    lr_mult: 0
  }
}
layer {
  name: "conv4_1_sum_relu"
  type: "ReLU"
  bottom: "conv4_1_sum_bn"
  top: "conv4_1_sum_bn"
}
layer {
  name: "conv4_2_1"
  type: "Convolution"
  bottom: "conv4_1_sum_bn"
  top: "conv4_2_1"
  param {
    lr_mult: 1
    decay_mult: 1
  }
  param {
    lr_mult: 2
    decay_mult: 0
  }
  convolution_param {
    num_output: 256
    pad: 0
    kernel_size: 1
    stride: 1
    weight_filler {
      type: "msra"
    }
    bias_filler {
      type: "constant"
      value: 0
    }
  }
}
layer {
  name: "conv4_2_1_bn"
  type: "BatchNorm"
  bottom: "conv4_2_1"
  top: "conv4_2_1_bn"
  param {
    lr_mult: 0
  }
  param {
    lr_mult: 0
  }
  param {
    lr_mult: 0
  }
}
layer {
  name: "conv4_2_1_relu"
  type: "ReLU"
  bottom: "conv4_2_1_bn"
  top: "conv4_2_1_bn"
}
layer {
  name: "conv4_2_2"
  type: "Convolution"
  bottom: "conv4_2_1_bn"
  top: "conv4_2_2"
  param {
    lr_mult: 1
    decay_mult: 1
  }
  param {
    lr_mult: 2
    decay_mult: 0
  }
  convolution_param {
    num_output: 256
    pad: 1
    kernel_size: 3
    stride: 1
    weight_filler {
      type: "msra"
    }
    bias_filler {
      type: "constant"
      value: 0
    }
  }
}
layer {
  name: "conv4_2_2_bn"
  type: "BatchNorm"
  bottom: "conv4_2_2"
  top: "conv4_2_2_bn"
  param {
    lr_mult: 0
  }
  param {
    lr_mult: 0
  }
  param {
    lr_mult: 0
  }
}
layer {
  name: "conv4_2_2_relu"
  type: "ReLU"
  bottom: "conv4_2_2_bn"
  top: "conv4_2_2_bn"
}
layer {
  name: "conv4_2_3"
  type: "Convolution"
  bottom: "conv4_2_2_bn"
  top: "conv4_2_3"
  param {
    lr_mult
I0703 18:06:32.504776 35388 layer_factory.hpp:76] Creating layer data
I0703 18:06:32.504825 35388 net.cpp:106] Creating Layer data
I0703 18:06:32.504840 35388 net.cpp:411] data -> data
I0703 18:06:32.504875 35388 net.cpp:411] data -> label
I0703 18:06:32.505322 35388 image_data_layer.cpp:36] Opening file ../lists/roi-train.lst
I0703 18:06:32.627357 35388 image_data_layer.cpp:46] Shuffling data
I0703 18:06:32.661010 35388 image_data_layer.cpp:51] A total of 211680 images.
I0703 18:06:32.674443 35388 image_data_layer.cpp:78] output data size: 32,3,128,128
I0703 18:06:32.686728 35388 net.cpp:150] Setting up data
I0703 18:06:32.686787 35388 net.cpp:157] Top shape: 32 3 128 128 (1572864)
I0703 18:06:32.686800 35388 net.cpp:157] Top shape: 32 (32)
I0703 18:06:32.686810 35388 net.cpp:165] Memory required for data: 6291584
I0703 18:06:32.686825 35388 layer_factory.hpp:76] Creating layer conv1
I0703 18:06:32.686851 35388 net.cpp:106] Creating Layer conv1
I0703 18:06:32.686863 35388 net.cpp:454] conv1 <- data
I0703 18:06:32.686882 35388 net.cpp:411] conv1 -> conv1
I0703 18:06:32.821282 35388 net.cpp:150] Setting up conv1
I0703 18:06:32.821336 35388 net.cpp:157] Top shape: 32 64 61 61 (7620608)
I0703 18:06:32.821347 35388 net.cpp:165] Memory required for data: 36774016
I0703 18:06:32.821378 35388 layer_factory.hpp:76] Creating layer conv1_bn
I0703 18:06:32.821403 35388 net.cpp:106] Creating Layer conv1_bn
I0703 18:06:32.821413 35388 net.cpp:454] conv1_bn <- conv1
I0703 18:06:32.821426 35388 net.cpp:411] conv1_bn -> conv1_bn
I0703 18:06:32.821627 35388 net.cpp:150] Setting up conv1_bn
I0703 18:06:32.821642 35388 net.cpp:157] Top shape: 32 64 61 61 (7620608)
I0703 18:06:32.821651 35388 net.cpp:165] Memory required for data: 67256448
I0703 18:06:32.821671 35388 layer_factory.hpp:76] Creating layer conv1_relu
I0703 18:06:32.821686 35388 net.cpp:106] Creating Layer conv1_relu
I0703 18:06:32.821697 35388 net.cpp:454] conv1_relu <- conv1_bn
I0703 18:06:32.821707 35388 net.cpp:397] conv1_relu -> conv1_bn (in-place)
I0703 18:06:32.821914 35388 net.cpp:150] Setting up conv1_relu
I0703 18:06:32.821933 35388 net.cpp:157] Top shape: 32 64 61 61 (7620608)
I0703 18:06:32.821950 35388 net.cpp:165] Memory required for data: 97738880
I0703 18:06:32.821959 35388 layer_factory.hpp:76] Creating layer pool1
I0703 18:06:32.821972 35388 net.cpp:106] Creating Layer pool1
I0703 18:06:32.821981 35388 net.cpp:454] pool1 <- conv1_bn
I0703 18:06:32.821992 35388 net.cpp:411] pool1 -> pool1
I0703 18:06:32.822338 35388 net.cpp:150] Setting up pool1
I0703 18:06:32.822360 35388 net.cpp:157] Top shape: 32 64 30 30 (1843200)
I0703 18:06:32.822371 35388 net.cpp:165] Memory required for data: 105111680
I0703 18:06:32.822379 35388 layer_factory.hpp:76] Creating layer pool1_pool1_0_split
I0703 18:06:32.822396 35388 net.cpp:106] Creating Layer pool1_pool1_0_split
I0703 18:06:32.822403 35388 net.cpp:454] pool1_pool1_0_split <- pool1
I0703 18:06:32.822414 35388 net.cpp:411] pool1_pool1_0_split -> pool1_pool1_0_split_0
I0703 18:06:32.822427 35388 net.cpp:411] pool1_pool1_0_split -> pool1_pool1_0_split_1
I0703 18:06:32.822466 35388 net.cpp:150] Setting up pool1_pool1_0_split
I0703 18:06:32.822479 35388 net.cpp:157] Top shape: 32 64 30 30 (1843200)
I0703 18:06:32.822489 35388 net.cpp:157] Top shape: 32 64 30 30 (1843200)
I0703 18:06:32.822496 35388 net.cpp:165] Memory required for data: 119857280
I0703 18:06:32.822509 35388 layer_factory.hpp:76] Creating layer conv1_output
I0703 18:06:32.822525 35388 net.cpp:106] Creating Layer conv1_output
I0703 18:06:32.822532 35388 net.cpp:454] conv1_output <- pool1_pool1_0_split_0
I0703 18:06:32.822546 35388 net.cpp:411] conv1_output -> conv1_output
I0703 18:06:32.824779 35388 cudnn_conv_layer.cpp:194] Reallocating workspace storage: 768
I0703 18:06:32.824827 35388 net.cpp:150] Setting up conv1_output
I0703 18:06:32.824844 35388 net.cpp:157] Top shape: 32 256 30 30 (7372800)
I0703 18:06:32.824856 35388 net.cpp:165] Memory required for data: 149348480
I0703 18:06:32.824873 35388 layer_factory.hpp:76] Creating layer conv2_1_1
I0703 18:06:32.824893 35388 net.cpp:106] Creating Layer conv2_1_1
I0703 18:06:32.824903 35388 net.cpp:454] conv2_1_1 <- pool1_pool1_0_split_1
I0703 18:06:32.824918 35388 net.cpp:411] conv2_1_1 -> conv2_1_1
I0703 18:06:32.826026 35388 net.cpp:150] Setting up conv2_1_1
I0703 18:06:32.826050 35388 net.cpp:157] Top shape: 32 64 30 30 (1843200)
I0703 18:06:32.826059 35388 net.cpp:165] Memory required for data: 156721280
I0703 18:06:32.826074 35388 layer_factory.hpp:76] Creating layer conv2_1_1_bn
I0703 18:06:32.826092 35388 net.cpp:106] Creating Layer conv2_1_1_bn
I0703 18:06:32.826102 35388 net.cpp:454] conv2_1_1_bn <- conv2_1_1
I0703 18:06:32.826117 35388 net.cpp:411] conv2_1_1_bn -> conv2_1_1_bn
I0703 18:06:32.826320 35388 net.cpp:150] Setting up conv2_1_1_bn
I0703 18:06:32.826344 35388 net.cpp:157] Top shape: 32 64 30 30 (1843200)
I0703 18:06:32.826360 35388 net.cpp:165] Memory required for data: 164094080
I0703 18:06:32.826372 35388 layer_factory.hpp:76] Creating layer conv2_1_1_relu
I0703 18:06:32.826390 35388 net.cpp:106] Creating Layer conv2_1_1_relu
I0703 18:06:32.826397 35388 net.cpp:454] conv2_1_1_relu <- conv2_1_1_bn
I0703 18:06:32.826407 35388 net.cpp:397] conv2_1_1_relu -> conv2_1_1_bn (in-place)
I0703 18:06:32.826611 35388 net.cpp:150] Setting up conv2_1_1_relu
I0703 18:06:32.826627 35388 net.cpp:157] Top shape: 32 64 30 30 (1843200)
I0703 18:06:32.826637 35388 net.cpp:165] Memory required for data: 171466880
I0703 18:06:32.826645 35388 layer_factory.hpp:76] Creating layer conv2_1_2
I0703 18:06:32.826673 35388 net.cpp:106] Creating Layer conv2_1_2
I0703 18:06:32.826683 35388 net.cpp:454] conv2_1_2 <- conv2_1_1_bn
I0703 18:06:32.826695 35388 net.cpp:411] conv2_1_2 -> conv2_1_2
I0703 18:06:32.829617 35388 net.cpp:150] Setting up conv2_1_2
I0703 18:06:32.829646 35388 net.cpp:157] Top shape: 32 64 30 30 (1843200)
I0703 18:06:32.829656 35388 net.cpp:165] Memory required for data: 178839680
I0703 18:06:32.829670 35388 layer_factory.hpp:76] Creating layer conv2_1_2_bn
I0703 18:06:32.829686 35388 net.cpp:106] Creating Layer conv2_1_2_bn
I0703 18:06:32.829718 35388 net.cpp:454] conv2_1_2_bn <- conv2_1_2
I0703 18:06:32.829733 35388 net.cpp:411] conv2_1_2_bn -> conv2_1_2_bn
I0703 18:06:32.829952 35388 net.cpp:150] Setting up conv2_1_2_bn
I0703 18:06:32.829973 35388 net.cpp:157] Top shape: 32 64 30 30 (1843200)
I0703 18:06:32.829982 35388 net.cpp:165] Memory required for data: 186212480
I0703 18:06:32.830001 35388 layer_factory.hpp:76] Creating layer conv2_1_2_relu
I0703 18:06:32.830013 35388 net.cpp:106] Creating Layer conv2_1_2_relu
I0703 18:06:32.830030 35388 net.cpp:454] conv2_1_2_relu <- conv2_1_2_bn
I0703 18:06:32.830041 35388 net.cpp:397] conv2_1_2_relu -> conv2_1_2_bn (in-place)
I0703 18:06:32.830229 35388 net.cpp:150] Setting up conv2_1_2_relu
I0703 18:06:32.830245 35388 net.cpp:157] Top shape: 32 64 30 30 (1843200)
I0703 18:06:32.830260 35388 net.cpp:165] Memory required for data: 193585280
I0703 18:06:32.830268 35388 layer_factory.hpp:76] Creating layer conv2_1_3
I0703 18:06:32.830286 35388 net.cpp:106] Creating Layer conv2_1_3
I0703 18:06:32.830294 35388 net.cpp:454] conv2_1_3 <- conv2_1_2_bn
I0703 18:06:32.830307 35388 net.cpp:411] conv2_1_3 -> conv2_1_3
I0703 18:06:32.831763 35388 cudnn_conv_layer.cpp:194] Reallocating workspace storage: 768
I0703 18:06:32.831796 35388 net.cpp:150] Setting up conv2_1_3
I0703 18:06:32.831809 35388 net.cpp:157] Top shape: 32 256 30 30 (7372800)
I0703 18:06:32.831817 35388 net.cpp:165] Memory required for data: 223076480
I0703 18:06:32.831830 35388 layer_factory.hpp:76] Creating layer conv2_1_sum
I0703 18:06:32.831847 35388 net.cpp:106] Creating Layer conv2_1_sum
I0703 18:06:32.831856 35388 net.cpp:454] conv2_1_sum <- conv1_output
I0703 18:06:32.831869 35388 net.cpp:454] conv2_1_sum <- conv2_1_3
I0703 18:06:32.831879 35388 net.cpp:411] conv2_1_sum -> conv2_1_sum
I0703 18:06:32.831917 35388 net.cpp:150] Setting up conv2_1_sum
I0703 18:06:32.831928 35388 net.cpp:157] Top shape: 32 256 30 30 (7372800)
I0703 18:06:32.831936 35388 net.cpp:165] Memory required for data: 252567680
I0703 18:06:32.831944 35388 layer_factory.hpp:76] Creating layer conv2_1_sum_bn
I0703 18:06:32.831959 35388 net.cpp:106] Creating Layer conv2_1_sum_bn
I0703 18:06:32.831966 35388 net.cpp:454] conv2_1_sum_bn <- conv2_1_sum
I0703 18:06:32.831979 35388 net.cpp:411] conv2_1_sum_bn -> conv2_1_sum_bn
I0703 18:06:32.832154 35388 net.cpp:150] Setting up conv2_1_sum_bn
I0703 18:06:32.832176 35388 net.cpp:157] Top shape: 32 256 30 30 (7372800)
I0703 18:06:32.832191 35388 net.cpp:165] Memory required for data: 282058880
I0703 18:06:32.832203 35388 layer_factory.hpp:76] Creating layer conv2_1_sum_relu
I0703 18:06:32.832218 35388 net.cpp:106] Creating Layer conv2_1_sum_relu
I0703 18:06:32.832229 35388 net.cpp:454] conv2_1_sum_relu <- conv2_1_sum_bn
I0703 18:06:32.832244 35388 net.cpp:397] conv2_1_sum_relu -> conv2_1_sum_bn (in-place)
I0703 18:06:32.832626 35388 net.cpp:150] Setting up conv2_1_sum_relu
I0703 18:06:32.832646 35388 net.cpp:157] Top shape: 32 256 30 30 (7372800)
I0703 18:06:32.832655 35388 net.cpp:165] Memory required for data: 311550080
I0703 18:06:32.832667 35388 layer_factory.hpp:76] Creating layer conv2_1_sum_bn_conv2_1_sum_relu_0_split
I0703 18:06:32.832680 35388 net.cpp:106] Creating Layer conv2_1_sum_bn_conv2_1_sum_relu_0_split
I0703 18:06:32.832689 35388 net.cpp:454] conv2_1_sum_bn_conv2_1_sum_relu_0_split <- conv2_1_sum_bn
I0703 18:06:32.832698 35388 net.cpp:411] conv2_1_sum_bn_conv2_1_sum_relu_0_split -> conv2_1_sum_bn_conv2_1_sum_relu_0_split_0
I0703 18:06:32.832711 35388 net.cpp:411] conv2_1_sum_bn_conv2_1_sum_relu_0_split -> conv2_1_sum_bn_conv2_1_sum_relu_0_split_1
I0703 18:06:32.832767 35388 net.cpp:150] Setting up conv2_1_sum_bn_conv2_1_sum_relu_0_split
I0703 18:06:32.832779 35388 net.cpp:157] Top shape: 32 256 30 30 (7372800)
I0703 18:06:32.832788 35388 net.cpp:157] Top shape: 32 256 30 30 (7372800)
I0703 18:06:32.832797 35388 net.cpp:165] Memory required for data: 370532480
I0703 18:06:32.832803 35388 layer_factory.hpp:76] Creating layer conv2_2_1
I0703 18:06:32.832820 35388 net.cpp:106] Creating Layer conv2_2_1
I0703 18:06:32.832854 35388 net.cpp:454] conv2_2_1 <- conv2_1_sum_bn_conv2_1_sum_relu_0_split_0
I0703 18:06:32.832864 35388 net.cpp:411] conv2_2_1 -> conv2_2_1
I0703 18:06:32.834296 35388 cudnn_conv_layer.cpp:194] Reallocating workspace storage: 3072
I0703 18:06:32.834518 35388 net.cpp:150] Setting up conv2_2_1
I0703 18:06:32.834537 35388 net.cpp:157] Top shape: 32 64 30 30 (1843200)
I0703 18:06:32.834545 35388 net.cpp:165] Memory required for data: 377905280
I0703 18:06:32.834558 35388 layer_factory.hpp:76] Creating layer conv2_2_1_bn
I0703 18:06:32.834573 35388 net.cpp:106] Creating Layer conv2_2_1_bn
I0703 18:06:32.834581 35388 net.cpp:454] conv2_2_1_bn <- conv2_2_1
I0703 18:06:32.834591 35388 net.cpp:411] conv2_2_1_bn -> conv2_2_1_bn
I0703 18:06:32.834779 35388 net.cpp:150] Setting up conv2_2_1_bn
I0703 18:06:32.834794 35388 net.cpp:157] Top shape: 32 64 30 30 (1843200)
I0703 18:06:32.834801 35388 net.cpp:165] Memory required for data: 385278080
I0703 18:06:32.834813 35388 layer_factory.hpp:76] Creating layer conv2_2_1_relu
I0703 18:06:32.834830 35388 net.cpp:106] Creating Layer conv2_2_1_relu
I0703 18:06:32.834838 35388 net.cpp:454] conv2_2_1_relu <- conv2_2_1_bn
I0703 18:06:32.834848 35388 net.cpp:397] conv2_2_1_relu -> conv2_2_1_bn (in-place)
I0703 18:06:32.835031 35388 net.cpp:150] Setting up conv2_2_1_relu
I0703 18:06:32.835057 35388 net.cpp:157] Top shape: 32 64 30 30 (1843200)
I0703 18:06:32.835074 35388 net.cpp:165] Memory required for data: 392650880
I0703 18:06:32.835083 35388 layer_factory.hpp:76] Creating layer conv2_2_2
I0703 18:06:32.835103 35388 net.cpp:106] Creating Layer conv2_2_2
I0703 18:06:32.835113 35388 net.cpp:454] conv2_2_2 <- conv2_2_1_bn
I0703 18:06:32.835127 35388 net.cpp:411] conv2_2_2 -> conv2_2_2
I0703 18:06:32.837224 35388 net.cpp:150] Setting up conv2_2_2
I0703 18:06:32.837245 35388 net.cpp:157] Top shape: 32 64 30 30 (1843200)
I0703 18:06:32.837255 35388 net.cpp:165] Memory required for data: 400023680
I0703 18:06:32.837266 35388 layer_factory.hpp:76] Creating layer conv2_2_2_bn
I0703 18:06:32.837281 35388 net.cpp:106] Creating Layer conv2_2_2_bn
I0703 18:06:32.837291 35388 net.cpp:454] conv2_2_2_bn <- conv2_2_2
I0703 18:06:32.837301 35388 net.cpp:411] conv2_2_2_bn -> conv2_2_2_bn
I0703 18:06:32.837486 35388 net.cpp:150] Setting up conv2_2_2_bn
I0703 18:06:32.837501 35388 net.cpp:157] Top shape: 32 64 30 30 (1843200)
I0703 18:06:32.837509 35388 net.cpp:165] Memory required for data: 407396480
I0703 18:06:32.837533 35388 layer_factory.hpp:76] Creating layer conv2_2_2_relu
I0703 18:06:32.837561 35388 net.cpp:106] Creating Layer conv2_2_2_relu
I0703 18:06:32.837569 35388 net.cpp:454] conv2_2_2_relu <- conv2_2_2_bn
I0703 18:06:32.837579 35388 net.cpp:397] conv2_2_2_relu -> conv2_2_2_bn (in-place)
I0703 18:06:32.837764 35388 net.cpp:150] Setting up conv2_2_2_relu
I0703 18:06:32.837788 35388 net.cpp:157] Top shape: 32 64 30 30 (1843200)
I0703 18:06:32.837798 35388 net.cpp:165] Memory required for data: 414769280
I0703 18:06:32.837807 35388 layer_factory.hpp:76] Creating layer conv2_2_3
I0703 18:06:32.837822 35388 net.cpp:106] Creating Layer conv2_2_3
I0703 18:06:32.837832 35388 net.cpp:454] conv2_2_3 <- conv2_2_2_bn
I0703 18:06:32.837851 35388 net.cpp:411] conv2_2_3 -> conv2_2_3
I0703 18:06:32.839572 35388 cudnn_conv_layer.cpp:194] Reallocating workspace storage: 768
I0703 18:06:32.839610 35388 net.cpp:150] Setting up conv2_2_3
I0703 18:06:32.839624 35388 net.cpp:157] Top shape: 32 256 30 30 (7372800)
I0703 18:06:32.839633 35388 net.cpp:165] Memory required for data: 444260480
I0703 18:06:32.839658 35388 layer_factory.hpp:76] Creating layer conv2_2_sum
I0703 18:06:32.839674 35388 net.cpp:106] Creating Layer conv2_2_sum
I0703 18:06:32.839686 35388 net.cpp:454] conv2_2_sum <- conv2_1_sum_bn_conv2_1_sum_relu_0_split_1
I0703 18:06:32.839697 35388 net.cpp:454] conv2_2_sum <- conv2_2_3
I0703 18:06:32.839714 35388 net.cpp:411] conv2_2_sum -> conv2_2_sum
I0703 18:06:32.839750 35388 net.cpp:150] Setting up conv2_2_sum
I0703 18:06:32.839762 35388 net.cpp:157] Top shape: 32 256 30 30 (7372800)
I0703 18:06:32.839804 35388 net.cpp:165] Memory required for data: 473751680
I0703 18:06:32.839814 35388 layer_factory.hpp:76] Creating layer conv2_2_sum_bn
I0703 18:06:32.839826 35388 net.cpp:106] Creating Layer conv2_2_sum_bn
I0703 18:06:32.839838 35388 net.cpp:454] conv2_2_sum_bn <- conv2_2_sum
I0703 18:06:32.839864 35388 net.cpp:411] conv2_2_sum_bn -> conv2_2_sum_bn
I0703 18:06:32.840064 35388 net.cpp:150] Setting up conv2_2_sum_bn
I0703 18:06:32.840078 35388 net.cpp:157] Top shape: 32 256 30 30 (7372800)
I0703 18:06:32.840086 35388 net.cpp:165] Memory required for data: 503242880
I0703 18:06:32.840098 35388 layer_factory.hpp:76] Creating layer conv2_2_sum_relu
I0703 18:06:32.840112 35388 net.cpp:106] Creating Layer conv2_2_sum_relu
I0703 18:06:32.840127 35388 net.cpp:454] conv2_2_sum_relu <- conv2_2_sum_bn
I0703 18:06:32.840137 35388 net.cpp:397] conv2_2_sum_relu -> conv2_2_sum_bn (in-place)
I0703 18:06:32.840522 35388 net.cpp:150] Setting up conv2_2_sum_relu
I0703 18:06:32.840553 35388 net.cpp:157] Top shape: 32 256 30 30 (7372800)
I0703 18:06:32.840572 35388 net.cpp:165] Memory required for data: 532734080
I0703 18:06:32.840590 35388 layer_factory.hpp:76] Creating layer conv2_2_sum_bn_conv2_2_sum_relu_0_split
I0703 18:06:32.840605 35388 net.cpp:106] Creating Layer conv2_2_sum_bn_conv2_2_sum_relu_0_split
I0703 18:06:32.840613 35388 net.cpp:454] conv2_2_sum_bn_conv2_2_sum_relu_0_split <- conv2_2_sum_bn
I0703 18:06:32.840625 35388 net.cpp:411] conv2_2_sum_bn_conv2_2_sum_relu_0_split -> conv2_2_sum_bn_conv2_2_sum_relu_0_split_0
I0703 18:06:32.840638 35388 net.cpp:411] conv2_2_sum_bn_conv2_2_sum_relu_0_split -> conv2_2_sum_bn_conv2_2_sum_relu_0_split_1
I0703 18:06:32.840690 35388 net.cpp:150] Setting up conv2_2_sum_bn_conv2_2_sum_relu_0_split
I0703 18:06:32.840703 35388 net.cpp:157] Top shape: 32 256 30 30 (7372800)
I0703 18:06:32.840710 35388 net.cpp:157] Top shape: 32 256 30 30 (7372800)
I0703 18:06:32.840718 35388 net.cpp:165] Memory required for data: 591716480
I0703 18:06:32.840726 35388 layer_factory.hpp:76] Creating layer conv2_3_1
I0703 18:06:32.840742 35388 net.cpp:106] Creating Layer conv2_3_1
I0703 18:06:32.840751 35388 net.cpp:454] conv2_3_1 <- conv2_2_sum_bn_conv2_2_sum_relu_0_split_0
I0703 18:06:32.840764 35388 net.cpp:411] conv2_3_1 -> conv2_3_1
I0703 18:06:32.842296 35388 cudnn_conv_layer.cpp:194] Reallocating workspace storage: 3072
I0703 18:06:32.842331 35388 net.cpp:150] Setting up conv2_3_1
I0703 18:06:32.842344 35388 net.cpp:157] Top shape: 32 64 30 30 (1843200)
I0703 18:06:32.842353 35388 net.cpp:165] Memory required for data: 599089280
I0703 18:06:32.842366 35388 layer_factory.hpp:76] Creating layer conv2_3_1_bn
I0703 18:06:32.842378 35388 net.cpp:106] Creating Layer conv2_3_1_bn
I0703 18:06:32.842386 35388 net.cpp:454] conv2_3_1_bn <- conv2_3_1
I0703 18:06:32.842401 35388 net.cpp:411] conv2_3_1_bn -> conv2_3_1_bn
I0703 18:06:32.842598 35388 net.cpp:150] Setting up conv2_3_1_bn
I0703 18:06:32.842612 35388 net.cpp:157] Top shape: 32 64 30 30 (1843200)
I0703 18:06:32.842622 35388 net.cpp:165] Memory required for data: 606462080
I0703 18:06:32.842638 35388 layer_factory.hpp:76] Creating layer conv2_3_1_relu
I0703 18:06:32.842649 35388 net.cpp:106] Creating Layer conv2_3_1_relu
I0703 18:06:32.842664 35388 net.cpp:454] conv2_3_1_relu <- conv2_3_1_bn
I0703 18:06:32.842674 35388 net.cpp:397] conv2_3_1_relu -> conv2_3_1_bn (in-place)
I0703 18:06:32.842845 35388 net.cpp:150] Setting up conv2_3_1_relu
I0703 18:06:32.842862 35388 net.cpp:157] Top shape: 32 64 30 30 (1843200)
I0703 18:06:32.842871 35388 net.cpp:165] Memory required for data: 613834880
I0703 18:06:32.842880 35388 layer_factory.hpp:76] Creating layer conv2_3_2
I0703 18:06:32.842905 35388 net.cpp:106] Creating Layer conv2_3_2
I0703 18:06:32.842916 35388 net.cpp:454] conv2_3_2 <- conv2_3_1_bn
I0703 18:06:32.842926 35388 net.cpp:411] conv2_3_2 -> conv2_3_2
I0703 18:06:32.845098 35388 net.cpp:150] Setting up conv2_3_2
I0703 18:06:32.845123 35388 net.cpp:157] Top shape: 32 64 30 30 (1843200)
I0703 18:06:32.845131 35388 net.cpp:165] Memory required for data: 621207680
I0703 18:06:32.845166 35388 layer_factory.hpp:76] Creating layer conv2_3_2_bn
I0703 18:06:32.845183 35388 net.cpp:106] Creating Layer conv2_3_2_bn
I0703 18:06:32.845196 35388 net.cpp:454] conv2_3_2_bn <- conv2_3_2
I0703 18:06:32.845206 35388 net.cpp:411] conv2_3_2_bn -> conv2_3_2_bn
I0703 18:06:32.845425 35388 net.cpp:150] Setting up conv2_3_2_bn
I0703 18:06:32.845448 35388 net.cpp:157] Top shape: 32 64 30 30 (1843200)
I0703 18:06:32.845459 35388 net.cpp:165] Memory required for data: 628580480
I0703 18:06:32.845473 35388 layer_factory.hpp:76] Creating layer conv2_3_2_relu
I0703 18:06:32.845489 35388 net.cpp:106] Creating Layer conv2_3_2_relu
I0703 18:06:32.845497 35388 net.cpp:454] conv2_3_2_relu <- conv2_3_2_bn
I0703 18:06:32.845513 35388 net.cpp:397] conv2_3_2_relu -> conv2_3_2_bn (in-place)
I0703 18:06:32.845705 35388 net.cpp:150] Setting up conv2_3_2_relu
I0703 18:06:32.845722 35388 net.cpp:157] Top shape: 32 64 30 30 (1843200)
I0703 18:06:32.845731 35388 net.cpp:165] Memory required for data: 635953280
I0703 18:06:32.845739 35388 layer_factory.hpp:76] Creating layer conv2_3_3
I0703 18:06:32.845768 35388 net.cpp:106] Creating Layer conv2_3_3
I0703 18:06:32.845777 35388 net.cpp:454] conv2_3_3 <- conv2_3_2_bn
I0703 18:06:32.845789 35388 net.cpp:411] conv2_3_3 -> conv2_3_3
I0703 18:06:32.847380 35388 cudnn_conv_layer.cpp:194] Reallocating workspace storage: 768
I0703 18:06:32.847414 35388 net.cpp:150] Setting up conv2_3_3
I0703 18:06:32.847426 35388 net.cpp:157] Top shape: 32 256 30 30 (7372800)
I0703 18:06:32.847435 35388 net.cpp:165] Memory required for data: 665444480
I0703 18:06:32.847447 35388 layer_factory.hpp:76] Creating layer conv2_3_sum
I0703 18:06:32.847465 35388 net.cpp:106] Creating Layer conv2_3_sum
I0703 18:06:32.847473 35388 net.cpp:454] conv2_3_sum <- conv2_2_sum_bn_conv2_2_sum_relu_0_split_1
I0703 18:06:32.847484 35388 net.cpp:454] conv2_3_sum <- conv2_3_3
I0703 18:06:32.847496 35388 net.cpp:411] conv2_3_sum -> conv2_3_sum
I0703 18:06:32.847527 35388 net.cpp:150] Setting up conv2_3_sum
I0703 18:06:32.847540 35388 net.cpp:157] Top shape: 32 256 30 30 (7372800)
I0703 18:06:32.847548 35388 net.cpp:165] Memory required for data: 694935680
I0703 18:06:32.847555 35388 layer_factory.hpp:76] Creating layer conv2_3_sum_bn
I0703 18:06:32.847569 35388 net.cpp:106] Creating Layer conv2_3_sum_bn
I0703 18:06:32.847579 35388 net.cpp:454] conv2_3_sum_bn <- conv2_3_sum
I0703 18:06:32.847591 35388 net.cpp:411] conv2_3_sum_bn -> conv2_3_sum_bn
I0703 18:06:32.847784 35388 net.cpp:150] Setting up conv2_3_sum_bn
I0703 18:06:32.847800 35388 net.cpp:157] Top shape: 32 256 30 30 (7372800)
I0703 18:06:32.847808 35388 net.cpp:165] Memory required for data: 724426880
I0703 18:06:32.847821 35388 layer_factory.hpp:76] Creating layer conv2_3_sum_relu
I0703 18:06:32.847832 35388 net.cpp:106] Creating Layer conv2_3_sum_relu
I0703 18:06:32.847842 35388 net.cpp:454] conv2_3_sum_relu <- conv2_3_sum_bn
I0703 18:06:32.847851 35388 net.cpp:397] conv2_3_sum_relu -> conv2_3_sum_bn (in-place)
I0703 18:06:32.848204 35388 net.cpp:150] Setting up conv2_3_sum_relu
I0703 18:06:32.848224 35388 net.cpp:157] Top shape: 32 256 30 30 (7372800)
I0703 18:06:32.848233 35388 net.cpp:165] Memory required for data: 753918080
I0703 18:06:32.848244 35388 layer_factory.hpp:76] Creating layer conv2_3_sum_bn_conv2_3_sum_relu_0_split
I0703 18:06:32.848263 35388 net.cpp:106] Creating Layer conv2_3_sum_bn_conv2_3_sum_relu_0_split
I0703 18:06:32.848273 35388 net.cpp:454] conv2_3_sum_bn_conv2_3_sum_relu_0_split <- conv2_3_sum_bn
I0703 18:06:32.848284 35388 net.cpp:411] conv2_3_sum_bn_conv2_3_sum_relu_0_split -> conv2_3_sum_bn_conv2_3_sum_relu_0_split_0
I0703 18:06:32.848297 35388 net.cpp:411] conv2_3_sum_bn_conv2_3_sum_relu_0_split -> conv2_3_sum_bn_conv2_3_sum_relu_0_split_1
I0703 18:06:32.848351 35388 net.cpp:150] Setting up conv2_3_sum_bn_conv2_3_sum_relu_0_split
I0703 18:06:32.848363 35388 net.cpp:157] Top shape: 32 256 30 30 (7372800)
I0703 18:06:32.848378 35388 net.cpp:157] Top shape: 32 256 30 30 (7372800)
I0703 18:06:32.848386 35388 net.cpp:165] Memory required for data: 812900480
I0703 18:06:32.848410 35388 layer_factory.hpp:76] Creating layer conv2_output
I0703 18:06:32.848453 35388 net.cpp:106] Creating Layer conv2_output
I0703 18:06:32.848470 35388 net.cpp:454] conv2_output <- conv2_3_sum_bn_conv2_3_sum_relu_0_split_0
I0703 18:06:32.848484 35388 net.cpp:411] conv2_output -> conv2_output
I0703 18:06:32.854425 35388 cudnn_conv_layer.cpp:194] Reallocating workspace storage: 3072
I0703 18:06:32.854477 35388 net.cpp:150] Setting up conv2_output
I0703 18:06:32.854495 35388 net.cpp:157] Top shape: 32 512 15 15 (3686400)
I0703 18:06:32.854504 35388 net.cpp:165] Memory required for data: 827646080
I0703 18:06:32.854519 35388 layer_factory.hpp:76] Creating layer conv3_1_1
I0703 18:06:32.854542 35388 net.cpp:106] Creating Layer conv3_1_1
I0703 18:06:32.854565 35388 net.cpp:454] conv3_1_1 <- conv2_3_sum_bn_conv2_3_sum_relu_0_split_1
I0703 18:06:32.854580 35388 net.cpp:411] conv3_1_1 -> conv3_1_1
I0703 18:06:32.856546 35388 cudnn_conv_layer.cpp:194] Reallocating workspace storage: 3072
I0703 18:06:32.856598 35388 net.cpp:150] Setting up conv3_1_1
I0703 18:06:32.856612 35388 net.cpp:157] Top shape: 32 128 15 15 (921600)
I0703 18:06:32.856621 35388 net.cpp:165] Memory required for data: 831332480
I0703 18:06:32.856633 35388 layer_factory.hpp:76] Creating layer conv3_1_1_bn
I0703 18:06:32.856652 35388 net.cpp:106] Creating Layer conv3_1_1_bn
I0703 18:06:32.856662 35388 net.cpp:454] conv3_1_1_bn <- conv3_1_1
I0703 18:06:32.856673 35388 net.cpp:411] conv3_1_1_bn -> conv3_1_1_bn
I0703 18:06:32.856864 35388 net.cpp:150] Setting up conv3_1_1_bn
I0703 18:06:32.856878 35388 net.cpp:157] Top shape: 32 128 15 15 (921600)
I0703 18:06:32.856887 35388 net.cpp:165] Memory required for data: 835018880
I0703 18:06:32.856907 35388 layer_factory.hpp:76] Creating layer conv3_1_1_relu
I0703 18:06:32.856925 35388 net.cpp:106] Creating Layer conv3_1_1_relu
I0703 18:06:32.856932 35388 net.cpp:454] conv3_1_1_relu <- conv3_1_1_bn
I0703 18:06:32.856941 35388 net.cpp:397] conv3_1_1_relu -> conv3_1_1_bn (in-place)
I0703 18:06:32.857266 35388 net.cpp:150] Setting up conv3_1_1_relu
I0703 18:06:32.857286 35388 net.cpp:157] Top shape: 32 128 15 15 (921600)
I0703 18:06:32.857298 35388 net.cpp:165] Memory required for data: 838705280
I0703 18:06:32.857307 35388 layer_factory.hpp:76] Creating layer conv3_1_2
I0703 18:06:32.857326 35388 net.cpp:106] Creating Layer conv3_1_2
I0703 18:06:32.857336 35388 net.cpp:454] conv3_1_2 <- conv3_1_1_bn
I0703 18:06:32.857347 35388 net.cpp:411] conv3_1_2 -> conv3_1_2
I0703 18:06:32.863546 35388 cudnn_conv_layer.cpp:194] Reallocating workspace storage: 13824
I0703 18:06:32.863781 35388 net.cpp:150] Setting up conv3_1_2
I0703 18:06:32.863804 35388 net.cpp:157] Top shape: 32 128 15 15 (921600)
I0703 18:06:32.863814 35388 net.cpp:165] Memory required for data: 842391680
I0703 18:06:32.863833 35388 layer_factory.hpp:76] Creating layer conv3_1_2_bn
I0703 18:06:32.863852 35388 net.cpp:106] Creating Layer conv3_1_2_bn
I0703 18:06:32.863862 35388 net.cpp:454] conv3_1_2_bn <- conv3_1_2
I0703 18:06:32.863878 35388 net.cpp:411] conv3_1_2_bn -> conv3_1_2_bn
I0703 18:06:32.864073 35388 net.cpp:150] Setting up conv3_1_2_bn
I0703 18:06:32.864086 35388 net.cpp:157] Top shape: 32 128 15 15 (921600)
I0703 18:06:32.864097 35388 net.cpp:165] Memory required for data: 846078080
I0703 18:06:32.864110 35388 layer_factory.hpp:76] Creating layer conv3_1_2_relu
I0703 18:06:32.864122 35388 net.cpp:106] Creating Layer conv3_1_2_relu
I0703 18:06:32.864130 35388 net.cpp:454] conv3_1_2_relu <- conv3_1_2_bn
I0703 18:06:32.864142 35388 net.cpp:397] conv3_1_2_relu -> conv3_1_2_bn (in-place)
I0703 18:06:32.864337 35388 net.cpp:150] Setting up conv3_1_2_relu
I0703 18:06:32.864356 35388 net.cpp:157] Top shape: 32 128 15 15 (921600)
I0703 18:06:32.864365 35388 net.cpp:165] Memory required for data: 849764480
I0703 18:06:32.864373 35388 layer_factory.hpp:76] Creating layer conv3_1_3
I0703 18:06:32.864395 35388 net.cpp:106] Creating Layer conv3_1_3
I0703 18:06:32.864403 35388 net.cpp:454] conv3_1_3 <- conv3_1_2_bn
I0703 18:06:32.864464 35388 net.cpp:411] conv3_1_3 -> conv3_1_3
I0703 18:06:32.867682 35388 cudnn_conv_layer.cpp:194] Reallocating workspace storage: 1536
I0703 18:06:32.867728 35388 net.cpp:150] Setting up conv3_1_3
I0703 18:06:32.867745 35388 net.cpp:157] Top shape: 32 512 15 15 (3686400)
I0703 18:06:32.867754 35388 net.cpp:165] Memory required for data: 864510080
I0703 18:06:32.867789 35388 layer_factory.hpp:76] Creating layer conv3_1_sum
I0703 18:06:32.867806 35388 net.cpp:106] Creating Layer conv3_1_sum
I0703 18:06:32.867817 35388 net.cpp:454] conv3_1_sum <- conv2_output
I0703 18:06:32.867832 35388 net.cpp:454] conv3_1_sum <- conv3_1_3
I0703 18:06:32.867842 35388 net.cpp:411] conv3_1_sum -> conv3_1_sum
I0703 18:06:32.867879 35388 net.cpp:150] Setting up conv3_1_sum
I0703 18:06:32.867892 35388 net.cpp:157] Top shape: 32 512 15 15 (3686400)
I0703 18:06:32.867904 35388 net.cpp:165] Memory required for data: 879255680
I0703 18:06:32.867913 35388 layer_factory.hpp:76] Creating layer conv3_1_sum_bn
I0703 18:06:32.867930 35388 net.cpp:106] Creating Layer conv3_1_sum_bn
I0703 18:06:32.867939 35388 net.cpp:454] conv3_1_sum_bn <- conv3_1_sum
I0703 18:06:32.867949 35388 net.cpp:411] conv3_1_sum_bn -> conv3_1_sum_bn
I0703 18:06:32.868129 35388 net.cpp:150] Setting up conv3_1_sum_bn
I0703 18:06:32.868144 35388 net.cpp:157] Top shape: 32 512 15 15 (3686400)
I0703 18:06:32.868152 35388 net.cpp:165] Memory required for data: 894001280
I0703 18:06:32.868167 35388 layer_factory.hpp:76] Creating layer conv3_1_sum_relu
I0703 18:06:32.868181 35388 net.cpp:106] Creating Layer conv3_1_sum_relu
I0703 18:06:32.868190 35388 net.cpp:454] conv3_1_sum_relu <- conv3_1_sum_bn
I0703 18:06:32.868199 35388 net.cpp:397] conv3_1_sum_relu -> conv3_1_sum_bn (in-place)
I0703 18:06:32.868562 35388 net.cpp:150] Setting up conv3_1_sum_relu
I0703 18:06:32.868582 35388 net.cpp:157] Top shape: 32 512 15 15 (3686400)
I0703 18:06:32.868590 35388 net.cpp:165] Memory required for data: 908746880
I0703 18:06:32.868598 35388 layer_factory.hpp:76] Creating layer conv3_1_sum_bn_conv3_1_sum_relu_0_split
I0703 18:06:32.868613 35388 net.cpp:106] Creating Layer conv3_1_sum_bn_conv3_1_sum_relu_0_split
I0703 18:06:32.868621 35388 net.cpp:454] conv3_1_sum_bn_conv3_1_sum_relu_0_split <- conv3_1_sum_bn
I0703 18:06:32.868631 35388 net.cpp:411] conv3_1_sum_bn_conv3_1_sum_relu_0_split -> conv3_1_sum_bn_conv3_1_sum_relu_0_split_0
I0703 18:06:32.868643 35388 net.cpp:411] conv3_1_sum_bn_conv3_1_sum_relu_0_split -> conv3_1_sum_bn_conv3_1_sum_relu_0_split_1
I0703 18:06:32.868696 35388 net.cpp:150] Setting up conv3_1_sum_bn_conv3_1_sum_relu_0_split
I0703 18:06:32.868708 35388 net.cpp:157] Top shape: 32 512 15 15 (3686400)
I0703 18:06:32.868716 35388 net.cpp:157] Top shape: 32 512 15 15 (3686400)
I0703 18:06:32.868723 35388 net.cpp:165] Memory required for data: 938238080
I0703 18:06:32.868731 35388 layer_factory.hpp:76] Creating layer conv3_2_1
I0703 18:06:32.868754 35388 net.cpp:106] Creating Layer conv3_2_1
I0703 18:06:32.868763 35388 net.cpp:454] conv3_2_1 <- conv3_1_sum_bn_conv3_1_sum_relu_0_split_0
I0703 18:06:32.868782 35388 net.cpp:411] conv3_2_1 -> conv3_2_1
I0703 18:06:32.872402 35388 cudnn_conv_layer.cpp:194] Reallocating workspace storage: 6144
I0703 18:06:32.872469 35388 net.cpp:150] Setting up conv3_2_1
I0703 18:06:32.872490 35388 net.cpp:157] Top shape: 32 128 15 15 (921600)
I0703 18:06:32.872500 35388 net.cpp:165] Memory required for data: 941924480
I0703 18:06:32.872515 35388 layer_factory.hpp:76] Creating layer conv3_2_1_bn
I0703 18:06:32.872546 35388 net.cpp:106] Creating Layer conv3_2_1_bn
I0703 18:06:32.872557 35388 net.cpp:454] conv3_2_1_bn <- conv3_2_1
I0703 18:06:32.872570 35388 net.cpp:411] conv3_2_1_bn -> conv3_2_1_bn
I0703 18:06:32.872792 35388 net.cpp:150] Setting up conv3_2_1_bn
I0703 18:06:32.872807 35388 net.cpp:157] Top shape: 32 128 15 15 (921600)
I0703 18:06:32.872817 35388 net.cpp:165] Memory required for data: 945610880
I0703 18:06:32.872830 35388 layer_factory.hpp:76] Creating layer conv3_2_1_relu
I0703 18:06:32.872843 35388 net.cpp:106] Creating Layer conv3_2_1_relu
I0703 18:06:32.872884 35388 net.cpp:454] conv3_2_1_relu <- conv3_2_1_bn
I0703 18:06:32.872895 35388 net.cpp:397] conv3_2_1_relu -> conv3_2_1_bn (in-place)
I0703 18:06:32.873462 35388 net.cpp:150] Setting up conv3_2_1_relu
I0703 18:06:32.873483 35388 net.cpp:157] Top shape: 32 128 15 15 (921600)
I0703 18:06:32.873492 35388 net.cpp:165] Memory required for data: 949297280
I0703 18:06:32.873502 35388 layer_factory.hpp:76] Creating layer conv3_2_2
I0703 18:06:32.873522 35388 net.cpp:106] Creating Layer conv3_2_2
I0703 18:06:32.873531 35388 net.cpp:454] conv3_2_2 <- conv3_2_1_bn
I0703 18:06:32.873543 35388 net.cpp:411] conv3_2_2 -> conv3_2_2
I0703 18:06:32.879954 35388 cudnn_conv_layer.cpp:194] Reallocating workspace storage: 13824
I0703 18:06:32.880015 35388 net.cpp:150] Setting up conv3_2_2
I0703 18:06:32.880030 35388 net.cpp:157] Top shape: 32 128 15 15 (921600)
I0703 18:06:32.880040 35388 net.cpp:165] Memory required for data: 952983680
I0703 18:06:32.880055 35388 layer_factory.hpp:76] Creating layer conv3_2_2_bn
I0703 18:06:32.880071 35388 net.cpp:106] Creating Layer conv3_2_2_bn
I0703 18:06:32.880082 35388 net.cpp:454] conv3_2_2_bn <- conv3_2_2
I0703 18:06:32.880098 35388 net.cpp:411] conv3_2_2_bn -> conv3_2_2_bn
I0703 18:06:32.880322 35388 net.cpp:150] Setting up conv3_2_2_bn
I0703 18:06:32.880338 35388 net.cpp:157] Top shape: 32 128 15 15 (921600)
I0703 18:06:32.880348 35388 net.cpp:165] Memory required for data: 956670080
I0703 18:06:32.880362 35388 layer_factory.hpp:76] Creating layer conv3_2_2_relu
I0703 18:06:32.880379 35388 net.cpp:106] Creating Layer conv3_2_2_relu
I0703 18:06:32.880389 35388 net.cpp:454] conv3_2_2_relu <- conv3_2_2_bn
I0703 18:06:32.880400 35388 net.cpp:397] conv3_2_2_relu -> conv3_2_2_bn (in-place)
I0703 18:06:32.880611 35388 net.cpp:150] Setting up conv3_2_2_relu
I0703 18:06:32.880630 35388 net.cpp:157] Top shape: 32 128 15 15 (921600)
I0703 18:06:32.880638 35388 net.cpp:165] Memory required for data: 960356480
I0703 18:06:32.880655 35388 layer_factory.hpp:76] Creating layer conv3_2_3
I0703 18:06:32.880673 35388 net.cpp:106] Creating Layer conv3_2_3
I0703 18:06:32.880682 35388 net.cpp:454] conv3_2_3 <- conv3_2_2_bn
I0703 18:06:32.880697 35388 net.cpp:411] conv3_2_3 -> conv3_2_3
I0703 18:06:32.883954 35388 cudnn_conv_layer.cpp:194] Reallocating workspace storage: 1536
I0703 18:06:32.884004 35388 net.cpp:150] Setting up conv3_2_3
I0703 18:06:32.884019 35388 net.cpp:157] Top shape: 32 512 15 15 (3686400)
I0703 18:06:32.884028 35388 net.cpp:165] Memory required for data: 975102080
I0703 18:06:32.884044 35388 layer_factory.hpp:76] Creating layer conv3_2_sum
I0703 18:06:32.884064 35388 net.cpp:106] Creating Layer conv3_2_sum
I0703 18:06:32.884078 35388 net.cpp:454] conv3_2_sum <- conv3_1_sum_bn_conv3_1_sum_relu_0_split_1
I0703 18:06:32.884089 35388 net.cpp:454] conv3_2_sum <- conv3_2_3
I0703 18:06:32.884100 35388 net.cpp:411] conv3_2_sum -> conv3_2_sum
I0703 18:06:32.884140 35388 net.cpp:150] Setting up conv3_2_sum
I0703 18:06:32.884155 35388 net.cpp:157] Top shape: 32 512 15 15 (3686400)
I0703 18:06:32.884163 35388 net.cpp:165] Memory required for data: 989847680
I0703 18:06:32.884171 35388 layer_factory.hpp:76] Creating layer conv3_2_sum_bn
I0703 18:06:32.884186 35388 net.cpp:106] Creating Layer conv3_2_sum_bn
I0703 18:06:32.884194 35388 net.cpp:454] conv3_2_sum_bn <- conv3_2_sum
I0703 18:06:32.884204 35388 net.cpp:411] conv3_2_sum_bn -> conv3_2_sum_bn
I0703 18:06:32.884413 35388 net.cpp:150] Setting up conv3_2_sum_bn
I0703 18:06:32.884451 35388 net.cpp:157] Top shape: 32 512 15 15 (3686400)
I0703 18:06:32.884462 35388 net.cpp:165] Memory required for data: 1004593280
I0703 18:06:32.884475 35388 layer_factory.hpp:76] Creating layer conv3_2_sum_relu
I0703 18:06:32.884488 35388 net.cpp:106] Creating Layer conv3_2_sum_relu
I0703 18:06:32.884497 35388 net.cpp:454] conv3_2_sum_relu <- conv3_2_sum_bn
I0703 18:06:32.884512 35388 net.cpp:397] conv3_2_sum_relu -> conv3_2_sum_bn (in-place)
I0703 18:06:32.884863 35388 net.cpp:150] Setting up conv3_2_sum_relu
I0703 18:06:32.884886 35388 net.cpp:157] Top shape: 32 512 15 15 (3686400)
I0703 18:06:32.884935 35388 net.cpp:165] Memory required for data: 1019338880
I0703 18:06:32.884945 35388 layer_factory.hpp:76] Creating layer conv3_2_sum_bn_conv3_2_sum_relu_0_split
I0703 18:06:32.884963 35388 net.cpp:106] Creating Layer conv3_2_sum_bn_conv3_2_sum_relu_0_split
I0703 18:06:32.884971 35388 net.cpp:454] conv3_2_sum_bn_conv3_2_sum_relu_0_split <- conv3_2_sum_bn
I0703 18:06:32.884985 35388 net.cpp:411] conv3_2_sum_bn_conv3_2_sum_relu_0_split -> conv3_2_sum_bn_conv3_2_sum_relu_0_split_0
I0703 18:06:32.884997 35388 net.cpp:411] conv3_2_sum_bn_conv3_2_sum_relu_0_split -> conv3_2_sum_bn_conv3_2_sum_relu_0_split_1
I0703 18:06:32.885053 35388 net.cpp:150] Setting up conv3_2_sum_bn_conv3_2_sum_relu_0_split
I0703 18:06:32.885067 35388 net.cpp:157] Top shape: 32 512 15 15 (3686400)
I0703 18:06:32.885081 35388 net.cpp:157] Top shape: 32 512 15 15 (3686400)
I0703 18:06:32.885088 35388 net.cpp:165] Memory required for data: 1048830080
I0703 18:06:32.885095 35388 layer_factory.hpp:76] Creating layer conv3_3_1
I0703 18:06:32.885110 35388 net.cpp:106] Creating Layer conv3_3_1
I0703 18:06:32.885118 35388 net.cpp:454] conv3_3_1 <- conv3_2_sum_bn_conv3_2_sum_relu_0_split_0
I0703 18:06:32.885135 35388 net.cpp:411] conv3_3_1 -> conv3_3_1
I0703 18:06:32.888141 35388 cudnn_conv_layer.cpp:194] Reallocating workspace storage: 6144
I0703 18:06:32.888180 35388 net.cpp:150] Setting up conv3_3_1
I0703 18:06:32.888196 35388 net.cpp:157] Top shape: 32 128 15 15 (921600)
I0703 18:06:32.888206 35388 net.cpp:165] Memory required for data: 1052516480
I0703 18:06:32.888218 35388 layer_factory.hpp:76] Creating layer conv3_3_1_bn
I0703 18:06:32.888247 35388 net.cpp:106] Creating Layer conv3_3_1_bn
I0703 18:06:32.888257 35388 net.cpp:454] conv3_3_1_bn <- conv3_3_1
I0703 18:06:32.888270 35388 net.cpp:411] conv3_3_1_bn -> conv3_3_1_bn
I0703 18:06:32.888583 35388 net.cpp:150] Setting up conv3_3_1_bn
I0703 18:06:32.888599 35388 net.cpp:157] Top shape: 32 128 15 15 (921600)
I0703 18:06:32.888608 35388 net.cpp:165] Memory required for data: 1056202880
I0703 18:06:32.888624 35388 layer_factory.hpp:76] Creating layer conv3_3_1_relu
I0703 18:06:32.888645 35388 net.cpp:106] Creating Layer conv3_3_1_relu
I0703 18:06:32.888653 35388 net.cpp:454] conv3_3_1_relu <- conv3_3_1_bn
I0703 18:06:32.888664 35388 net.cpp:397] conv3_3_1_relu -> conv3_3_1_bn (in-place)
I0703 18:06:32.888999 35388 net.cpp:150] Setting up conv3_3_1_relu
I0703 18:06:32.889019 35388 net.cpp:157] Top shape: 32 128 15 15 (921600)
I0703 18:06:32.889029 35388 net.cpp:165] Memory required for data: 1059889280
I0703 18:06:32.889037 35388 layer_factory.hpp:76] Creating layer conv3_3_2
I0703 18:06:32.889063 35388 net.cpp:106] Creating Layer conv3_3_2
I0703 18:06:32.889072 35388 net.cpp:454] conv3_3_2 <- conv3_3_1_bn
I0703 18:06:32.889086 35388 net.cpp:411] conv3_3_2 -> conv3_3_2
I0703 18:06:32.895674 35388 cudnn_conv_layer.cpp:194] Reallocating workspace storage: 13824
I0703 18:06:32.895727 35388 net.cpp:150] Setting up conv3_3_2
I0703 18:06:32.895743 35388 net.cpp:157] Top shape: 32 128 15 15 (921600)
I0703 18:06:32.895752 35388 net.cpp:165] Memory required for data: 1063575680
I0703 18:06:32.895767 35388 layer_factory.hpp:76] Creating layer conv3_3_2_bn
I0703 18:06:32.895787 35388 net.cpp:106] Creating Layer conv3_3_2_bn
I0703 18:06:32.895802 35388 net.cpp:454] conv3_3_2_bn <- conv3_3_2
I0703 18:06:32.895815 35388 net.cpp:411] conv3_3_2_bn -> conv3_3_2_bn
I0703 18:06:32.896044 35388 net.cpp:150] Setting up conv3_3_2_bn
I0703 18:06:32.896060 35388 net.cpp:157] Top shape: 32 128 15 15 (921600)
I0703 18:06:32.896069 35388 net.cpp:165] Memory required for data: 1067262080
I0703 18:06:32.896082 35388 layer_factory.hpp:76] Creating layer conv3_3_2_relu
I0703 18:06:32.896105 35388 net.cpp:106] Creating Layer conv3_3_2_relu
I0703 18:06:32.896113 35388 net.cpp:454] conv3_3_2_relu <- conv3_3_2_bn
I0703 18:06:32.896123 35388 net.cpp:397] conv3_3_2_relu -> conv3_3_2_bn (in-place)
I0703 18:06:32.896318 35388 net.cpp:150] Setting up conv3_3_2_relu
I0703 18:06:32.896369 35388 net.cpp:157] Top shape: 32 128 15 15 (921600)
I0703 18:06:32.896383 35388 net.cpp:165] Memory required for data: 1070948480
I0703 18:06:32.896391 35388 layer_factory.hpp:76] Creating layer conv3_3_3
I0703 18:06:32.896415 35388 net.cpp:106] Creating Layer conv3_3_3
I0703 18:06:32.896442 35388 net.cpp:454] conv3_3_3 <- conv3_3_2_bn
I0703 18:06:32.896458 35388 net.cpp:411] conv3_3_3 -> conv3_3_3
I0703 18:06:32.899555 35388 cudnn_conv_layer.cpp:194] Reallocating workspace storage: 1536
I0703 18:06:32.899595 35388 net.cpp:150] Setting up conv3_3_3
I0703 18:06:32.899608 35388 net.cpp:157] Top shape: 32 512 15 15 (3686400)
I0703 18:06:32.899617 35388 net.cpp:165] Memory required for data: 1085694080
I0703 18:06:32.899632 35388 layer_factory.hpp:76] Creating layer conv3_3_sum
I0703 18:06:32.899649 35388 net.cpp:106] Creating Layer conv3_3_sum
I0703 18:06:32.899659 35388 net.cpp:454] conv3_3_sum <- conv3_2_sum_bn_conv3_2_sum_relu_0_split_1
I0703 18:06:32.899674 35388 net.cpp:454] conv3_3_sum <- conv3_3_3
I0703 18:06:32.899687 35388 net.cpp:411] conv3_3_sum -> conv3_3_sum
I0703 18:06:32.899720 35388 net.cpp:150] Setting up conv3_3_sum
I0703 18:06:32.899732 35388 net.cpp:157] Top shape: 32 512 15 15 (3686400)
I0703 18:06:32.899740 35388 net.cpp:165] Memory required for data: 1100439680
I0703 18:06:32.899749 35388 layer_factory.hpp:76] Creating layer conv3_3_sum_bn
I0703 18:06:32.899763 35388 net.cpp:106] Creating Layer conv3_3_sum_bn
I0703 18:06:32.899771 35388 net.cpp:454] conv3_3_sum_bn <- conv3_3_sum
I0703 18:06:32.899783 35388 net.cpp:411] conv3_3_sum_bn -> conv3_3_sum_bn
I0703 18:06:32.899987 35388 net.cpp:150] Setting up conv3_3_sum_bn
I0703 18:06:32.900002 35388 net.cpp:157] Top shape: 32 512 15 15 (3686400)
I0703 18:06:32.900010 35388 net.cpp:165] Memory required for data: 1115185280
I0703 18:06:32.900022 35388 layer_factory.hpp:76] Creating layer conv3_3_sum_relu
I0703 18:06:32.900043 35388 net.cpp:106] Creating Layer conv3_3_sum_relu
I0703 18:06:32.900058 35388 net.cpp:454] conv3_3_sum_relu <- conv3_3_sum_bn
I0703 18:06:32.900068 35388 net.cpp:397] conv3_3_sum_relu -> conv3_3_sum_bn (in-place)
I0703 18:06:32.900394 35388 net.cpp:150] Setting up conv3_3_sum_relu
I0703 18:06:32.900414 35388 net.cpp:157] Top shape: 32 512 15 15 (3686400)
I0703 18:06:32.900430 35388 net.cpp:165] Memory required for data: 1129930880
I0703 18:06:32.900455 35388 layer_factory.hpp:76] Creating layer conv3_3_sum_bn_conv3_3_sum_relu_0_split
I0703 18:06:32.900468 35388 net.cpp:106] Creating Layer conv3_3_sum_bn_conv3_3_sum_relu_0_split
I0703 18:06:32.900480 35388 net.cpp:454] conv3_3_sum_bn_conv3_3_sum_relu_0_split <- conv3_3_sum_bn
I0703 18:06:32.900499 35388 net.cpp:411] conv3_3_sum_bn_conv3_3_sum_relu_0_split -> conv3_3_sum_bn_conv3_3_sum_relu_0_split_0
I0703 18:06:32.900511 35388 net.cpp:411] conv3_3_sum_bn_conv3_3_sum_relu_0_split -> conv3_3_sum_bn_conv3_3_sum_relu_0_split_1
I0703 18:06:32.900580 35388 net.cpp:150] Setting up conv3_3_sum_bn_conv3_3_sum_relu_0_split
I0703 18:06:32.900593 35388 net.cpp:157] Top shape: 32 512 15 15 (3686400)
I0703 18:06:32.900601 35388 net.cpp:157] Top shape: 32 512 15 15 (3686400)
I0703 18:06:32.900609 35388 net.cpp:165] Memory required for data: 1159422080
I0703 18:06:32.900616 35388 layer_factory.hpp:76] Creating layer conv3_4_1
I0703 18:06:32.900640 35388 net.cpp:106] Creating Layer conv3_4_1
I0703 18:06:32.900648 35388 net.cpp:454] conv3_4_1 <- conv3_3_sum_bn_conv3_3_sum_relu_0_split_0
I0703 18:06:32.900658 35388 net.cpp:411] conv3_4_1 -> conv3_4_1
I0703 18:06:32.904407 35388 cudnn_conv_layer.cpp:194] Reallocating workspace storage: 6144
I0703 18:06:32.904489 35388 net.cpp:150] Setting up conv3_4_1
I0703 18:06:32.904505 35388 net.cpp:157] Top shape: 32 128 15 15 (921600)
I0703 18:06:32.904515 35388 net.cpp:165] Memory required for data: 1163108480
I0703 18:06:32.904531 35388 layer_factory.hpp:76] Creating layer conv3_4_1_bn
I0703 18:06:32.904572 35388 net.cpp:106] Creating Layer conv3_4_1_bn
I0703 18:06:32.904583 35388 net.cpp:454] conv3_4_1_bn <- conv3_4_1
I0703 18:06:32.904594 35388 net.cpp:411] conv3_4_1_bn -> conv3_4_1_bn
I0703 18:06:32.904855 35388 net.cpp:150] Setting up conv3_4_1_bn
I0703 18:06:32.904872 35388 net.cpp:157] Top shape: 32 128 15 15 (921600)
I0703 18:06:32.904881 35388 net.cpp:165] Memory required for data: 1166794880
I0703 18:06:32.904894 35388 layer_factory.hpp:76] Creating layer conv3_4_1_relu
I0703 18:06:32.904906 35388 net.cpp:106] Creating Layer conv3_4_1_relu
I0703 18:06:32.904914 35388 net.cpp:454] conv3_4_1_relu <- conv3_4_1_bn
I0703 18:06:32.904924 35388 net.cpp:397] conv3_4_1_relu -> conv3_4_1_bn (in-place)
I0703 18:06:32.905278 35388 net.cpp:150] Setting up conv3_4_1_relu
I0703 18:06:32.905297 35388 net.cpp:157] Top shape: 32 128 15 15 (921600)
I0703 18:06:32.905315 35388 net.cpp:165] Memory required for data: 1170481280
I0703 18:06:32.905323 35388 layer_factory.hpp:76] Creating layer conv3_4_2
I0703 18:06:32.905342 35388 net.cpp:106] Creating Layer conv3_4_2
I0703 18:06:32.905351 35388 net.cpp:454] conv3_4_2 <- conv3_4_1_bn
I0703 18:06:32.905364 35388 net.cpp:411] conv3_4_2 -> conv3_4_2
I0703 18:06:32.912003 35388 cudnn_conv_layer.cpp:194] Reallocating workspace storage: 13824
I0703 18:06:32.912065 35388 net.cpp:150] Setting up conv3_4_2
I0703 18:06:32.912093 35388 net.cpp:157] Top shape: 32 128 15 15 (921600)
I0703 18:06:32.912104 35388 net.cpp:165] Memory required for data: 1174167680
I0703 18:06:32.912122 35388 layer_factory.hpp:76] Creating layer conv3_4_2_bn
I0703 18:06:32.912139 35388 net.cpp:106] Creating Layer conv3_4_2_bn
I0703 18:06:32.912150 35388 net.cpp:454] conv3_4_2_bn <- conv3_4_2
I0703 18:06:32.912166 35388 net.cpp:411] conv3_4_2_bn -> conv3_4_2_bn
I0703 18:06:32.912395 35388 net.cpp:150] Setting up conv3_4_2_bn
I0703 18:06:32.912410 35388 net.cpp:157] Top shape: 32 128 15 15 (921600)
I0703 18:06:32.912420 35388 net.cpp:165] Memory required for data: 1177854080
I0703 18:06:32.912443 35388 layer_factory.hpp:76] Creating layer conv3_4_2_relu
I0703 18:06:32.912457 35388 net.cpp:106] Creating Layer conv3_4_2_relu
I0703 18:06:32.912467 35388 net.cpp:454] conv3_4_2_relu <- conv3_4_2_bn
I0703 18:06:32.912483 35388 net.cpp:397] conv3_4_2_relu -> conv3_4_2_bn (in-place)
I0703 18:06:32.912679 35388 net.cpp:150] Setting up conv3_4_2_relu
I0703 18:06:32.912706 35388 net.cpp:157] Top shape: 32 128 15 15 (921600)
I0703 18:06:32.912716 35388 net.cpp:165] Memory required for data: 1181540480
I0703 18:06:32.912725 35388 layer_factory.hpp:76] Creating layer conv3_4_3
I0703 18:06:32.912740 35388 net.cpp:106] Creating Layer conv3_4_3
I0703 18:06:32.912750 35388 net.cpp:454] conv3_4_3 <- conv3_4_2_bn
I0703 18:06:32.912763 35388 net.cpp:411] conv3_4_3 -> conv3_4_3
I0703 18:06:32.915886 35388 cudnn_conv_layer.cpp:194] Reallocating workspace storage: 1536
I0703 18:06:32.915932 35388 net.cpp:150] Setting up conv3_4_3
I0703 18:06:32.915952 35388 net.cpp:157] Top shape: 32 512 15 15 (3686400)
I0703 18:06:32.915963 35388 net.cpp:165] Memory required for data: 1196286080
I0703 18:06:32.915977 35388 layer_factory.hpp:76] Creating layer conv3_4_sum
I0703 18:06:32.915992 35388 net.cpp:106] Creating Layer conv3_4_sum
I0703 18:06:32.916000 35388 net.cpp:454] conv3_4_sum <- conv3_3_sum_bn_conv3_3_sum_relu_0_split_1
I0703 18:06:32.916013 35388 net.cpp:454] conv3_4_sum <- conv3_4_3
I0703 18:06:32.916025 35388 net.cpp:411] conv3_4_sum -> conv3_4_sum
I0703 18:06:32.916064 35388 net.cpp:150] Setting up conv3_4_sum
I0703 18:06:32.916077 35388 net.cpp:157] Top shape: 32 512 15 15 (3686400)
I0703 18:06:32.916085 35388 net.cpp:165] Memory required for data: 1211031680
I0703 18:06:32.916093 35388 layer_factory.hpp:76] Creating layer conv3_4_sum_bn
I0703 18:06:32.916106 35388 net.cpp:106] Creating Layer conv3_4_sum_bn
I0703 18:06:32.916115 35388 net.cpp:454] conv3_4_sum_bn <- conv3_4_sum
I0703 18:06:32.916126 35388 net.cpp:411] conv3_4_sum_bn -> conv3_4_sum_bn
I0703 18:06:32.916345 35388 net.cpp:150] Setting up conv3_4_sum_bn
I0703 18:06:32.916359 35388 net.cpp:157] Top shape: 32 512 15 15 (3686400)
I0703 18:06:32.916378 35388 net.cpp:165] Memory required for data: 1225777280
I0703 18:06:32.916389 35388 layer_factory.hpp:76] Creating layer conv3_4_sum_relu
I0703 18:06:32.916467 35388 net.cpp:106] Creating Layer conv3_4_sum_relu
I0703 18:06:32.916486 35388 net.cpp:454] conv3_4_sum_relu <- conv3_4_sum_bn
I0703 18:06:32.916497 35388 net.cpp:397] conv3_4_sum_relu -> conv3_4_sum_bn (in-place)
I0703 18:06:32.917054 35388 net.cpp:150] Setting up conv3_4_sum_relu
I0703 18:06:32.917075 35388 net.cpp:157] Top shape: 32 512 15 15 (3686400)
I0703 18:06:32.917084 35388 net.cpp:165] Memory required for data: 1240522880
I0703 18:06:32.917093 35388 layer_factory.hpp:76] Creating layer conv3_4_sum_bn_conv3_4_sum_relu_0_split
I0703 18:06:32.917109 35388 net.cpp:106] Creating Layer conv3_4_sum_bn_conv3_4_sum_relu_0_split
I0703 18:06:32.917119 35388 net.cpp:454] conv3_4_sum_bn_conv3_4_sum_relu_0_split <- conv3_4_sum_bn
I0703 18:06:32.917129 35388 net.cpp:411] conv3_4_sum_bn_conv3_4_sum_relu_0_split -> conv3_4_sum_bn_conv3_4_sum_relu_0_split_0
I0703 18:06:32.917141 35388 net.cpp:411] conv3_4_sum_bn_conv3_4_sum_relu_0_split -> conv3_4_sum_bn_conv3_4_sum_relu_0_split_1
I0703 18:06:32.917201 35388 net.cpp:150] Setting up conv3_4_sum_bn_conv3_4_sum_relu_0_split
I0703 18:06:32.917213 35388 net.cpp:157] Top shape: 32 512 15 15 (3686400)
I0703 18:06:32.917222 35388 net.cpp:157] Top shape: 32 512 15 15 (3686400)
I0703 18:06:32.917230 35388 net.cpp:165] Memory required for data: 1270014080
I0703 18:06:32.917238 35388 layer_factory.hpp:76] Creating layer conv3_5_1
I0703 18:06:32.917255 35388 net.cpp:106] Creating Layer conv3_5_1
I0703 18:06:32.917264 35388 net.cpp:454] conv3_5_1 <- conv3_4_sum_bn_conv3_4_sum_relu_0_split_0
I0703 18:06:32.917305 35388 net.cpp:411] conv3_5_1 -> conv3_5_1
I0703 18:06:32.920378 35388 cudnn_conv_layer.cpp:194] Reallocating workspace storage: 6144
I0703 18:06:32.920429 35388 net.cpp:150] Setting up conv3_5_1
I0703 18:06:32.920471 35388 net.cpp:157] Top shape: 32 128 15 15 (921600)
I0703 18:06:32.920483 35388 net.cpp:165] Memory required for data: 1273700480
I0703 18:06:32.920498 35388 layer_factory.hpp:76] Creating layer conv3_5_1_bn
I0703 18:06:32.920516 35388 net.cpp:106] Creating Layer conv3_5_1_bn
I0703 18:06:32.920526 35388 net.cpp:454] conv3_5_1_bn <- conv3_5_1
I0703 18:06:32.920565 35388 net.cpp:411] conv3_5_1_bn -> conv3_5_1_bn
I0703 18:06:32.920791 35388 net.cpp:150] Setting up conv3_5_1_bn
I0703 18:06:32.920814 35388 net.cpp:157] Top shape: 32 128 15 15 (921600)
I0703 18:06:32.920828 35388 net.cpp:165] Memory required for data: 1277386880
I0703 18:06:32.920842 35388 layer_factory.hpp:76] Creating layer conv3_5_1_relu
I0703 18:06:32.920855 35388 net.cpp:106] Creating Layer conv3_5_1_relu
I0703 18:06:32.920863 35388 net.cpp:454] conv3_5_1_relu <- conv3_5_1_bn
I0703 18:06:32.920876 35388 net.cpp:397] conv3_5_1_relu -> conv3_5_1_bn (in-place)
I0703 18:06:32.921232 35388 net.cpp:150] Setting up conv3_5_1_relu
I0703 18:06:32.921252 35388 net.cpp:157] Top shape: 32 128 15 15 (921600)
I0703 18:06:32.921260 35388 net.cpp:165] Memory required for data: 1281073280
I0703 18:06:32.921269 35388 layer_factory.hpp:76] Creating layer conv3_5_2
I0703 18:06:32.921288 35388 net.cpp:106] Creating Layer conv3_5_2
I0703 18:06:32.921304 35388 net.cpp:454] conv3_5_2 <- conv3_5_1_bn
I0703 18:06:32.921316 35388 net.cpp:411] conv3_5_2 -> conv3_5_2
I0703 18:06:32.927889 35388 cudnn_conv_layer.cpp:194] Reallocating workspace storage: 13824
I0703 18:06:32.927947 35388 net.cpp:150] Setting up conv3_5_2
I0703 18:06:32.927969 35388 net.cpp:157] Top shape: 32 128 15 15 (921600)
I0703 18:06:32.927983 35388 net.cpp:165] Memory required for data: 1284759680
I0703 18:06:32.928001 35388 layer_factory.hpp:76] Creating layer conv3_5_2_bn
I0703 18:06:32.928017 35388 net.cpp:106] Creating Layer conv3_5_2_bn
I0703 18:06:32.928032 35388 net.cpp:454] conv3_5_2_bn <- conv3_5_2
I0703 18:06:32.928048 35388 net.cpp:411] conv3_5_2_bn -> conv3_5_2_bn
I0703 18:06:32.928277 35388 net.cpp:150] Setting up conv3_5_2_bn
I0703 18:06:32.928292 35388 net.cpp:157] Top shape: 32 128 15 15 (921600)
I0703 18:06:32.928302 35388 net.cpp:165] Memory required for data: 1288446080
I0703 18:06:32.928345 35388 layer_factory.hpp:76] Creating layer conv3_5_2_relu
I0703 18:06:32.928362 35388 net.cpp:106] Creating Layer conv3_5_2_relu
I0703 18:06:32.928371 35388 net.cpp:454] conv3_5_2_relu <- conv3_5_2_bn
I0703 18:06:32.928381 35388 net.cpp:397] conv3_5_2_relu -> conv3_5_2_bn (in-place)
I0703 18:06:32.928611 35388 net.cpp:150] Setting up conv3_5_2_relu
I0703 18:06:32.928629 35388 net.cpp:157] Top shape: 32 128 15 15 (921600)
I0703 18:06:32.928637 35388 net.cpp:165] Memory required for data: 1292132480
I0703 18:06:32.928653 35388 layer_factory.hpp:76] Creating layer conv3_5_3
I0703 18:06:32.928671 35388 net.cpp:106] Creating Layer conv3_5_3
I0703 18:06:32.928680 35388 net.cpp:454] conv3_5_3 <- conv3_5_2_bn
I0703 18:06:32.928699 35388 net.cpp:411] conv3_5_3 -> conv3_5_3
I0703 18:06:32.931924 35388 cudnn_conv_layer.cpp:194] Reallocating workspace storage: 1536
I0703 18:06:32.931968 35388 net.cpp:150] Setting up conv3_5_3
I0703 18:06:32.931982 35388 net.cpp:157] Top shape: 32 512 15 15 (3686400)
I0703 18:06:32.931991 35388 net.cpp:165] Memory required for data: 1306878080
I0703 18:06:32.932005 35388 layer_factory.hpp:76] Creating layer conv3_5_sum
I0703 18:06:32.932023 35388 net.cpp:106] Creating Layer conv3_5_sum
I0703 18:06:32.932034 35388 net.cpp:454] conv3_5_sum <- conv3_4_sum_bn_conv3_4_sum_relu_0_split_1
I0703 18:06:32.932045 35388 net.cpp:454] conv3_5_sum <- conv3_5_3
I0703 18:06:32.932055 35388 net.cpp:411] conv3_5_sum -> conv3_5_sum
I0703 18:06:32.932093 35388 net.cpp:150] Setting up conv3_5_sum
I0703 18:06:32.932106 35388 net.cpp:157] Top shape: 32 512 15 15 (3686400)
I0703 18:06:32.932112 35388 net.cpp:165] Memory required for data: 1321623680
I0703 18:06:32.932121 35388 layer_factory.hpp:76] Creating layer conv3_5_sum_bn
I0703 18:06:32.932133 35388 net.cpp:106] Creating Layer conv3_5_sum_bn
I0703 18:06:32.932142 35388 net.cpp:454] conv3_5_sum_bn <- conv3_5_sum
I0703 18:06:32.932153 35388 net.cpp:411] conv3_5_sum_bn -> conv3_5_sum_bn
I0703 18:06:32.932384 35388 net.cpp:150] Setting up conv3_5_sum_bn
I0703 18:06:32.932397 35388 net.cpp:157] Top shape: 32 512 15 15 (3686400)
I0703 18:06:32.932405 35388 net.cpp:165] Memory required for data: 1336369280
I0703 18:06:32.932476 35388 layer_factory.hpp:76] Creating layer conv3_5_sum_relu
I0703 18:06:32.932497 35388 net.cpp:106] Creating Layer conv3_5_sum_relu
I0703 18:06:32.932507 35388 net.cpp:454] conv3_5_sum_relu <- conv3_5_sum_bn
I0703 18:06:32.932518 35388 net.cpp:397] conv3_5_sum_relu -> conv3_5_sum_bn (in-place)
I0703 18:06:32.932868 35388 net.cpp:150] Setting up conv3_5_sum_relu
I0703 18:06:32.932888 35388 net.cpp:157] Top shape: 32 512 15 15 (3686400)
I0703 18:06:32.932896 35388 net.cpp:165] Memory required for data: 1351114880
I0703 18:06:32.932905 35388 layer_factory.hpp:76] Creating layer conv3_5_sum_bn_conv3_5_sum_relu_0_split
I0703 18:06:32.932927 35388 net.cpp:106] Creating Layer conv3_5_sum_bn_conv3_5_sum_relu_0_split
I0703 18:06:32.932936 35388 net.cpp:454] conv3_5_sum_bn_conv3_5_sum_relu_0_split <- conv3_5_sum_bn
I0703 18:06:32.932950 35388 net.cpp:411] conv3_5_sum_bn_conv3_5_sum_relu_0_split -> conv3_5_sum_bn_conv3_5_sum_relu_0_split_0
I0703 18:06:32.932961 35388 net.cpp:411] conv3_5_sum_bn_conv3_5_sum_relu_0_split -> conv3_5_sum_bn_conv3_5_sum_relu_0_split_1
I0703 18:06:32.933018 35388 net.cpp:150] Setting up conv3_5_sum_bn_conv3_5_sum_relu_0_split
I0703 18:06:32.933032 35388 net.cpp:157] Top shape: 32 512 15 15 (3686400)
I0703 18:06:32.933045 35388 net.cpp:157] Top shape: 32 512 15 15 (3686400)
I0703 18:06:32.933053 35388 net.cpp:165] Memory required for data: 1380606080
I0703 18:06:32.933066 35388 layer_factory.hpp:76] Creating layer conv3_6_1
I0703 18:06:32.933084 35388 net.cpp:106] Creating Layer conv3_6_1
I0703 18:06:32.933104 35388 net.cpp:454] conv3_6_1 <- conv3_5_sum_bn_conv3_5_sum_relu_0_split_0
I0703 18:06:32.933125 35388 net.cpp:411] conv3_6_1 -> conv3_6_1
I0703 18:06:32.936967 35388 cudnn_conv_layer.cpp:194] Reallocating workspace storage: 6144
I0703 18:06:32.937016 35388 net.cpp:150] Setting up conv3_6_1
I0703 18:06:32.937058 35388 net.cpp:157] Top shape: 32 128 15 15 (921600)
I0703 18:06:32.937068 35388 net.cpp:165] Memory required for data: 1384292480
I0703 18:06:32.937083 35388 layer_factory.hpp:76] Creating layer conv3_6_1_bn
I0703 18:06:32.937101 35388 net.cpp:106] Creating Layer conv3_6_1_bn
I0703 18:06:32.937113 35388 net.cpp:454] conv3_6_1_bn <- conv3_6_1
I0703 18:06:32.937124 35388 net.cpp:411] conv3_6_1_bn -> conv3_6_1_bn
I0703 18:06:32.937353 35388 net.cpp:150] Setting up conv3_6_1_bn
I0703 18:06:32.937368 35388 net.cpp:157] Top shape: 32 128 15 15 (921600)
I0703 18:06:32.937383 35388 net.cpp:165] Memory required for data: 1387978880
I0703 18:06:32.937397 35388 layer_factory.hpp:76] Creating layer conv3_6_1_relu
I0703 18:06:32.937409 35388 net.cpp:106] Creating Layer conv3_6_1_relu
I0703 18:06:32.937418 35388 net.cpp:454] conv3_6_1_relu <- conv3_6_1_bn
I0703 18:06:32.937430 35388 net.cpp:397] conv3_6_1_relu -> conv3_6_1_bn (in-place)
I0703 18:06:32.937790 35388 net.cpp:150] Setting up conv3_6_1_relu
I0703 18:06:32.937811 35388 net.cpp:157] Top shape: 32 128 15 15 (921600)
I0703 18:06:32.937820 35388 net.cpp:165] Memory required for data: 1391665280
I0703 18:06:32.937829 35388 layer_factory.hpp:76] Creating layer conv3_6_2
I0703 18:06:32.937849 35388 net.cpp:106] Creating Layer conv3_6_2
I0703 18:06:32.937866 35388 net.cpp:454] conv3_6_2 <- conv3_6_1_bn
I0703 18:06:32.937880 35388 net.cpp:411] conv3_6_2 -> conv3_6_2
I0703 18:06:32.944438 35388 cudnn_conv_layer.cpp:194] Reallocating workspace storage: 13824
I0703 18:06:32.944511 35388 net.cpp:150] Setting up conv3_6_2
I0703 18:06:32.944533 35388 net.cpp:157] Top shape: 32 128 15 15 (921600)
I0703 18:06:32.944551 35388 net.cpp:165] Memory required for data: 1395351680
I0703 18:06:32.944566 35388 layer_factory.hpp:76] Creating layer conv3_6_2_bn
I0703 18:06:32.944583 35388 net.cpp:106] Creating Layer conv3_6_2_bn
I0703 18:06:32.944594 35388 net.cpp:454] conv3_6_2_bn <- conv3_6_2
I0703 18:06:32.944612 35388 net.cpp:411] conv3_6_2_bn -> conv3_6_2_bn
I0703 18:06:32.944861 35388 net.cpp:150] Setting up conv3_6_2_bn
I0703 18:06:32.944878 35388 net.cpp:157] Top shape: 32 128 15 15 (921600)
I0703 18:06:32.944887 35388 net.cpp:165] Memory required for data: 1399038080
I0703 18:06:32.944901 35388 layer_factory.hpp:76] Creating layer conv3_6_2_relu
I0703 18:06:32.944917 35388 net.cpp:106] Creating Layer conv3_6_2_relu
I0703 18:06:32.944928 35388 net.cpp:454] conv3_6_2_relu <- conv3_6_2_bn
I0703 18:06:32.944939 35388 net.cpp:397] conv3_6_2_relu -> conv3_6_2_bn (in-place)
I0703 18:06:32.945137 35388 net.cpp:150] Setting up conv3_6_2_relu
I0703 18:06:32.945161 35388 net.cpp:157] Top shape: 32 128 15 15 (921600)
I0703 18:06:32.945170 35388 net.cpp:165] Memory required for data: 1402724480
I0703 18:06:32.945179 35388 layer_factory.hpp:76] Creating layer conv3_6_3
I0703 18:06:32.945209 35388 net.cpp:106] Creating Layer conv3_6_3
I0703 18:06:32.945217 35388 net.cpp:454] conv3_6_3 <- conv3_6_2_bn
I0703 18:06:32.945231 35388 net.cpp:411] conv3_6_3 -> conv3_6_3
I0703 18:06:32.948593 35388 cudnn_conv_layer.cpp:194] Reallocating workspace storage: 1536
I0703 18:06:32.948637 35388 net.cpp:150] Setting up conv3_6_3
I0703 18:06:32.948652 35388 net.cpp:157] Top shape: 32 512 15 15 (3686400)
I0703 18:06:32.948662 35388 net.cpp:165] Memory required for data: 1417470080
I0703 18:06:32.948674 35388 layer_factory.hpp:76] Creating layer conv3_6_sum
I0703 18:06:32.948688 35388 net.cpp:106] Creating Layer conv3_6_sum
I0703 18:06:32.948698 35388 net.cpp:454] conv3_6_sum <- conv3_5_sum_bn_conv3_5_sum_relu_0_split_1
I0703 18:06:32.948715 35388 net.cpp:454] conv3_6_sum <- conv3_6_3
I0703 18:06:32.948734 35388 net.cpp:411] conv3_6_sum -> conv3_6_sum
I0703 18:06:32.948776 35388 net.cpp:150] Setting up conv3_6_sum
I0703 18:06:32.948787 35388 net.cpp:157] Top shape: 32 512 15 15 (3686400)
I0703 18:06:32.948798 35388 net.cpp:165] Memory required for data: 1432215680
I0703 18:06:32.948807 35388 layer_factory.hpp:76] Creating layer conv3_6_sum_bn
I0703 18:06:32.948818 35388 net.cpp:106] Creating Layer conv3_6_sum_bn
I0703 18:06:32.948854 35388 net.cpp:454] conv3_6_sum_bn <- conv3_6_sum
I0703 18:06:32.948868 35388 net.cpp:411] conv3_6_sum_bn -> conv3_6_sum_bn
I0703 18:06:32.949100 35388 net.cpp:150] Setting up conv3_6_sum_bn
I0703 18:06:32.949115 35388 net.cpp:157] Top shape: 32 512 15 15 (3686400)
I0703 18:06:32.949123 35388 net.cpp:165] Memory required for data: 1446961280
I0703 18:06:32.949139 35388 layer_factory.hpp:76] Creating layer conv3_6_sum_relu
I0703 18:06:32.949157 35388 net.cpp:106] Creating Layer conv3_6_sum_relu
I0703 18:06:32.949165 35388 net.cpp:454] conv3_6_sum_relu <- conv3_6_sum_bn
I0703 18:06:32.949175 35388 net.cpp:397] conv3_6_sum_relu -> conv3_6_sum_bn (in-place)
I0703 18:06:32.949511 35388 net.cpp:150] Setting up conv3_6_sum_relu
I0703 18:06:32.949530 35388 net.cpp:157] Top shape: 32 512 15 15 (3686400)
I0703 18:06:32.949539 35388 net.cpp:165] Memory required for data: 1461706880
I0703 18:06:32.949548 35388 layer_factory.hpp:76] Creating layer conv3_6_sum_bn_conv3_6_sum_relu_0_split
I0703 18:06:32.949563 35388 net.cpp:106] Creating Layer conv3_6_sum_bn_conv3_6_sum_relu_0_split
I0703 18:06:32.949573 35388 net.cpp:454] conv3_6_sum_bn_conv3_6_sum_relu_0_split <- conv3_6_sum_bn
I0703 18:06:32.949582 35388 net.cpp:411] conv3_6_sum_bn_conv3_6_sum_relu_0_split -> conv3_6_sum_bn_conv3_6_sum_relu_0_split_0
I0703 18:06:32.949602 35388 net.cpp:411] conv3_6_sum_bn_conv3_6_sum_relu_0_split -> conv3_6_sum_bn_conv3_6_sum_relu_0_split_1
I0703 18:06:32.949661 35388 net.cpp:150] Setting up conv3_6_sum_bn_conv3_6_sum_relu_0_split
I0703 18:06:32.949673 35388 net.cpp:157] Top shape: 32 512 15 15 (3686400)
I0703 18:06:32.949682 35388 net.cpp:157] Top shape: 32 512 15 15 (3686400)
I0703 18:06:32.949689 35388 net.cpp:165] Memory required for data: 1491198080
I0703 18:06:32.949705 35388 layer_factory.hpp:76] Creating layer conv3_7_1
I0703 18:06:32.949723 35388 net.cpp:106] Creating Layer conv3_7_1
I0703 18:06:32.949730 35388 net.cpp:454] conv3_7_1 <- conv3_6_sum_bn_conv3_6_sum_relu_0_split_0
I0703 18:06:32.949743 35388 net.cpp:411] conv3_7_1 -> conv3_7_1
I0703 18:06:32.952870 35388 cudnn_conv_layer.cpp:194] Reallocating workspace storage: 6144
I0703 18:06:32.952929 35388 net.cpp:150] Setting up conv3_7_1
I0703 18:06:32.952946 35388 net.cpp:157] Top shape: 32 128 15 15 (921600)
I0703 18:06:32.952958 35388 net.cpp:165] Memory required for data: 1494884480
I0703 18:06:32.952972 35388 layer_factory.hpp:76] Creating layer conv3_7_1_bn
I0703 18:06:32.952991 35388 net.cpp:106] Creating Layer conv3_7_1_bn
I0703 18:06:32.953001 35388 net.cpp:454] conv3_7_1_bn <- conv3_7_1
I0703 18:06:32.953012 35388 net.cpp:411] conv3_7_1_bn -> conv3_7_1_bn
I0703 18:06:32.953235 35388 net.cpp:150] Setting up conv3_7_1_bn
I0703 18:06:32.953258 35388 net.cpp:157] Top shape: 32 128 15 15 (921600)
I0703 18:06:32.953266 35388 net.cpp:165] Memory required for data: 1498570880
I0703 18:06:32.953279 35388 layer_factory.hpp:76] Creating layer conv3_7_1_relu
I0703 18:06:32.953304 35388 net.cpp:106] Creating Layer conv3_7_1_relu
I0703 18:06:32.953311 35388 net.cpp:454] conv3_7_1_relu <- conv3_7_1_bn
I0703 18:06:32.953321 35388 net.cpp:397] conv3_7_1_relu -> conv3_7_1_bn (in-place)
I0703 18:06:32.953694 35388 net.cpp:150] Setting up conv3_7_1_relu
I0703 18:06:32.953714 35388 net.cpp:157] Top shape: 32 128 15 15 (921600)
I0703 18:06:32.953723 35388 net.cpp:165] Memory required for data: 1502257280
I0703 18:06:32.953738 35388 layer_factory.hpp:76] Creating layer conv3_7_2
I0703 18:06:32.953755 35388 net.cpp:106] Creating Layer conv3_7_2
I0703 18:06:32.953765 35388 net.cpp:454] conv3_7_2 <- conv3_7_1_bn
I0703 18:06:32.953778 35388 net.cpp:411] conv3_7_2 -> conv3_7_2
I0703 18:06:32.960361 35388 cudnn_conv_layer.cpp:194] Reallocating workspace storage: 13824
I0703 18:06:32.960419 35388 net.cpp:150] Setting up conv3_7_2
I0703 18:06:32.960458 35388 net.cpp:157] Top shape: 32 128 15 15 (921600)
I0703 18:06:32.960467 35388 net.cpp:165] Memory required for data: 1505943680
I0703 18:06:32.960484 35388 layer_factory.hpp:76] Creating layer conv3_7_2_bn
I0703 18:06:32.960502 35388 net.cpp:106] Creating Layer conv3_7_2_bn
I0703 18:06:32.960566 35388 net.cpp:454] conv3_7_2_bn <- conv3_7_2
I0703 18:06:32.960580 35388 net.cpp:411] conv3_7_2_bn -> conv3_7_2_bn
I0703 18:06:32.960830 35388 net.cpp:150] Setting up conv3_7_2_bn
I0703 18:06:32.960845 35388 net.cpp:157] Top shape: 32 128 15 15 (921600)
I0703 18:06:32.960855 35388 net.cpp:165] Memory required for data: 1509630080
I0703 18:06:32.960868 35388 layer_factory.hpp:76] Creating layer conv3_7_2_relu
I0703 18:06:32.960892 35388 net.cpp:106] Creating Layer conv3_7_2_relu
I0703 18:06:32.960901 35388 net.cpp:454] conv3_7_2_relu <- conv3_7_2_bn
I0703 18:06:32.960911 35388 net.cpp:397] conv3_7_2_relu -> conv3_7_2_bn (in-place)
I0703 18:06:32.961290 35388 net.cpp:150] Setting up conv3_7_2_relu
I0703 18:06:32.961311 35388 net.cpp:157] Top shape: 32 128 15 15 (921600)
I0703 18:06:32.961320 35388 net.cpp:165] Memory required for data: 1513316480
I0703 18:06:32.961329 35388 layer_factory.hpp:76] Creating layer conv3_7_3
I0703 18:06:32.961349 35388 net.cpp:106] Creating Layer conv3_7_3
I0703 18:06:32.961359 35388 net.cpp:454] conv3_7_3 <- conv3_7_2_bn
I0703 18:06:32.961372 35388 net.cpp:411] conv3_7_3 -> conv3_7_3
I0703 18:06:32.964625 35388 cudnn_conv_layer.cpp:194] Reallocating workspace storage: 1536
I0703 18:06:32.964669 35388 net.cpp:150] Setting up conv3_7_3
I0703 18:06:32.964684 35388 net.cpp:157] Top shape: 32 512 15 15 (3686400)
I0703 18:06:32.964692 35388 net.cpp:165] Memory required for data: 1528062080
I0703 18:06:32.964705 35388 layer_factory.hpp:76] Creating layer conv3_7_sum
I0703 18:06:32.964721 35388 net.cpp:106] Creating Layer conv3_7_sum
I0703 18:06:32.964731 35388 net.cpp:454] conv3_7_sum <- conv3_6_sum_bn_conv3_6_sum_relu_0_split_1
I0703 18:06:32.964742 35388 net.cpp:454] conv3_7_sum <- conv3_7_3
I0703 18:06:32.964756 35388 net.cpp:411] conv3_7_sum -> conv3_7_sum
I0703 18:06:32.964809 35388 net.cpp:150] Setting up conv3_7_sum
I0703 18:06:32.964821 35388 net.cpp:157] Top shape: 32 512 15 15 (3686400)
I0703 18:06:32.964829 35388 net.cpp:165] Memory required for data: 1542807680
I0703 18:06:32.964838 35388 layer_factory.hpp:76] Creating layer conv3_7_sum_bn
I0703 18:06:32.964850 35388 net.cpp:106] Creating Layer conv3_7_sum_bn
I0703 18:06:32.964859 35388 net.cpp:454] conv3_7_sum_bn <- conv3_7_sum
I0703 18:06:32.964874 35388 net.cpp:411] conv3_7_sum_bn -> conv3_7_sum_bn
I0703 18:06:32.965100 35388 net.cpp:150] Setting up conv3_7_sum_bn
I0703 18:06:32.965114 35388 net.cpp:157] Top shape: 32 512 15 15 (3686400)
I0703 18:06:32.965122 35388 net.cpp:165] Memory required for data: 1557553280
I0703 18:06:32.965136 35388 layer_factory.hpp:76] Creating layer conv3_7_sum_relu
I0703 18:06:32.965157 35388 net.cpp:106] Creating Layer conv3_7_sum_relu
I0703 18:06:32.965164 35388 net.cpp:454] conv3_7_sum_relu <- conv3_7_sum_bn
I0703 18:06:32.965175 35388 net.cpp:397] conv3_7_sum_relu -> conv3_7_sum_bn (in-place)
I0703 18:06:32.965517 35388 net.cpp:150] Setting up conv3_7_sum_relu
I0703 18:06:32.965538 35388 net.cpp:157] Top shape: 32 512 15 15 (3686400)
I0703 18:06:32.965548 35388 net.cpp:165] Memory required for data: 1572298880
I0703 18:06:32.965556 35388 layer_factory.hpp:76] Creating layer conv3_7_sum_bn_conv3_7_sum_relu_0_split
I0703 18:06:32.965579 35388 net.cpp:106] Creating Layer conv3_7_sum_bn_conv3_7_sum_relu_0_split
I0703 18:06:32.965589 35388 net.cpp:454] conv3_7_sum_bn_conv3_7_sum_relu_0_split <- conv3_7_sum_bn
I0703 18:06:32.965598 35388 net.cpp:411] conv3_7_sum_bn_conv3_7_sum_relu_0_split -> conv3_7_sum_bn_conv3_7_sum_relu_0_split_0
I0703 18:06:32.965611 35388 net.cpp:411] conv3_7_sum_bn_conv3_7_sum_relu_0_split -> conv3_7_sum_bn_conv3_7_sum_relu_0_split_1
I0703 18:06:32.965672 35388 net.cpp:150] Setting up conv3_7_sum_bn_conv3_7_sum_relu_0_split
I0703 18:06:32.965684 35388 net.cpp:157] Top shape: 32 512 15 15 (3686400)
I0703 18:06:32.965693 35388 net.cpp:157] Top shape: 32 512 15 15 (3686400)
I0703 18:06:32.965703 35388 net.cpp:165] Memory required for data: 1601790080
I0703 18:06:32.965715 35388 layer_factory.hpp:76] Creating layer conv3_8_1
I0703 18:06:32.965754 35388 net.cpp:106] Creating Layer conv3_8_1
I0703 18:06:32.965764 35388 net.cpp:454] conv3_8_1 <- conv3_7_sum_bn_conv3_7_sum_relu_0_split_0
I0703 18:06:32.965778 35388 net.cpp:411] conv3_8_1 -> conv3_8_1
I0703 18:06:32.969542 35388 cudnn_conv_layer.cpp:194] Reallocating workspace storage: 6144
I0703 18:06:32.969596 35388 net.cpp:150] Setting up conv3_8_1
I0703 18:06:32.969626 35388 net.cpp:157] Top shape: 32 128 15 15 (921600)
I0703 18:06:32.969635 35388 net.cpp:165] Memory required for data: 1605476480
I0703 18:06:32.969650 35388 layer_factory.hpp:76] Creating layer conv3_8_1_bn
I0703 18:06:32.969666 35388 net.cpp:106] Creating Layer conv3_8_1_bn
I0703 18:06:32.969677 35388 net.cpp:454] conv3_8_1_bn <- conv3_8_1
I0703 18:06:32.969689 35388 net.cpp:411] conv3_8_1_bn -> conv3_8_1_bn
I0703 18:06:32.969930 35388 net.cpp:150] Setting up conv3_8_1_bn
I0703 18:06:32.969946 35388 net.cpp:157] Top shape: 32 128 15 15 (921600)
I0703 18:06:32.969954 35388 net.cpp:165] Memory required for data: 1609162880
I0703 18:06:32.969967 35388 layer_factory.hpp:76] Creating layer conv3_8_1_relu
I0703 18:06:32.969990 35388 net.cpp:106] Creating Layer conv3_8_1_relu
I0703 18:06:32.969998 35388 net.cpp:454] conv3_8_1_relu <- conv3_8_1_bn
I0703 18:06:32.970008 35388 net.cpp:397] conv3_8_1_relu -> conv3_8_1_bn (in-place)
I0703 18:06:32.970387 35388 net.cpp:150] Setting up conv3_8_1_relu
I0703 18:06:32.970407 35388 net.cpp:157] Top shape: 32 128 15 15 (921600)
I0703 18:06:32.970415 35388 net.cpp:165] Memory required for data: 1612849280
I0703 18:06:32.970424 35388 layer_factory.hpp:76] Creating layer conv3_8_2
I0703 18:06:32.970455 35388 net.cpp:106] Creating Layer conv3_8_2
I0703 18:06:32.970464 35388 net.cpp:454] conv3_8_2 <- conv3_8_1_bn
I0703 18:06:32.970474 35388 net.cpp:411] conv3_8_2 -> conv3_8_2
I0703 18:06:32.976804 35388 cudnn_conv_layer.cpp:194] Reallocating workspace storage: 13824
I0703 18:06:32.976855 35388 net.cpp:150] Setting up conv3_8_2
I0703 18:06:32.976869 35388 net.cpp:157] Top shape: 32 128 15 15 (921600)
I0703 18:06:32.976881 35388 net.cpp:165] Memory required for data: 1616535680
I0703 18:06:32.976897 35388 layer_factory.hpp:76] Creating layer conv3_8_2_bn
I0703 18:06:32.976917 35388 net.cpp:106] Creating Layer conv3_8_2_bn
I0703 18:06:32.976930 35388 net.cpp:454] conv3_8_2_bn <- conv3_8_2
I0703 18:06:32.976948 35388 net.cpp:411] conv3_8_2_bn -> conv3_8_2_bn
I0703 18:06:32.977193 35388 net.cpp:150] Setting up conv3_8_2_bn
I0703 18:06:32.977210 35388 net.cpp:157] Top shape: 32 128 15 15 (921600)
I0703 18:06:32.977218 35388 net.cpp:165] Memory required for data: 1620222080
I0703 18:06:32.977231 35388 layer_factory.hpp:76] Creating layer conv3_8_2_relu
I0703 18:06:32.977252 35388 net.cpp:106] Creating Layer conv3_8_2_relu
I0703 18:06:32.977262 35388 net.cpp:454] conv3_8_2_relu <- conv3_8_2_bn
I0703 18:06:32.977272 35388 net.cpp:397] conv3_8_2_relu -> conv3_8_2_bn (in-place)
I0703 18:06:32.977473 35388 net.cpp:150] Setting up conv3_8_2_relu
I0703 18:06:32.977491 35388 net.cpp:157] Top shape: 32 128 15 15 (921600)
I0703 18:06:32.977500 35388 net.cpp:165] Memory required for data: 1623908480
I0703 18:06:32.977510 35388 layer_factory.hpp:76] Creating layer conv3_8_3
I0703 18:06:32.977530 35388 net.cpp:106] Creating Layer conv3_8_3
I0703 18:06:32.977545 35388 net.cpp:454] conv3_8_3 <- conv3_8_2_bn
I0703 18:06:32.977556 35388 net.cpp:411] conv3_8_3 -> conv3_8_3
I0703 18:06:32.980876 35388 cudnn_conv_layer.cpp:194] Reallocating workspace storage: 1536
I0703 18:06:32.980924 35388 net.cpp:150] Setting up conv3_8_3
I0703 18:06:32.980957 35388 net.cpp:157] Top shape: 32 512 15 15 (3686400)
I0703 18:06:32.980967 35388 net.cpp:165] Memory required for data: 1638654080
I0703 18:06:32.980981 35388 layer_factory.hpp:76] Creating layer conv3_8_sum
I0703 18:06:32.980998 35388 net.cpp:106] Creating Layer conv3_8_sum
I0703 18:06:32.981009 35388 net.cpp:454] conv3_8_sum <- conv3_7_sum_bn_conv3_7_sum_relu_0_split_1
I0703 18:06:32.981019 35388 net.cpp:454] conv3_8_sum <- conv3_8_3
I0703 18:06:32.981032 35388 net.cpp:411] conv3_8_sum -> conv3_8_sum
I0703 18:06:32.981106 35388 net.cpp:150] Setting up conv3_8_sum
I0703 18:06:32.981125 35388 net.cpp:157] Top shape: 32 512 15 15 (3686400)
I0703 18:06:32.981133 35388 net.cpp:165] Memory required for data: 1653399680
I0703 18:06:32.981143 35388 layer_factory.hpp:76] Creating layer conv3_8_sum_bn
I0703 18:06:32.981158 35388 net.cpp:106] Creating Layer conv3_8_sum_bn
I0703 18:06:32.981166 35388 net.cpp:454] conv3_8_sum_bn <- conv3_8_sum
I0703 18:06:32.981179 35388 net.cpp:411] conv3_8_sum_bn -> conv3_8_sum_bn
I0703 18:06:32.981411 35388 net.cpp:150] Setting up conv3_8_sum_bn
I0703 18:06:32.981433 35388 net.cpp:157] Top shape: 32 512 15 15 (3686400)
I0703 18:06:32.981442 35388 net.cpp:165] Memory required for data: 1668145280
I0703 18:06:32.981461 35388 layer_factory.hpp:76] Creating layer conv3_8_sum_relu
I0703 18:06:32.981480 35388 net.cpp:106] Creating Layer conv3_8_sum_relu
I0703 18:06:32.981489 35388 net.cpp:454] conv3_8_sum_relu <- conv3_8_sum_bn
I0703 18:06:32.981500 35388 net.cpp:397] conv3_8_sum_relu -> conv3_8_sum_bn (in-place)
I0703 18:06:32.981835 35388 net.cpp:150] Setting up conv3_8_sum_relu
I0703 18:06:32.981855 35388 net.cpp:157] Top shape: 32 512 15 15 (3686400)
I0703 18:06:32.981864 35388 net.cpp:165] Memory required for data: 1682890880
I0703 18:06:32.981873 35388 layer_factory.hpp:76] Creating layer conv3_8_sum_bn_conv3_8_sum_relu_0_split
I0703 18:06:32.981912 35388 net.cpp:106] Creating Layer conv3_8_sum_bn_conv3_8_sum_relu_0_split
I0703 18:06:32.981922 35388 net.cpp:454] conv3_8_sum_bn_conv3_8_sum_relu_0_split <- conv3_8_sum_bn
I0703 18:06:32.981933 35388 net.cpp:411] conv3_8_sum_bn_conv3_8_sum_relu_0_split -> conv3_8_sum_bn_conv3_8_sum_relu_0_split_0
I0703 18:06:32.981948 35388 net.cpp:411] conv3_8_sum_bn_conv3_8_sum_relu_0_split -> conv3_8_sum_bn_conv3_8_sum_relu_0_split_1
I0703 18:06:32.982012 35388 net.cpp:150] Setting up conv3_8_sum_bn_conv3_8_sum_relu_0_split
I0703 18:06:32.982024 35388 net.cpp:157] Top shape: 32 512 15 15 (3686400)
I0703 18:06:32.982033 35388 net.cpp:157] Top shape: 32 512 15 15 (3686400)
I0703 18:06:32.982041 35388 net.cpp:165] Memory required for data: 1712382080
I0703 18:06:32.982049 35388 layer_factory.hpp:76] Creating layer conv3_output
I0703 18:06:32.982066 35388 net.cpp:106] Creating Layer conv3_output
I0703 18:06:32.982075 35388 net.cpp:454] conv3_output <- conv3_8_sum_bn_conv3_8_sum_relu_0_split_0
I0703 18:06:32.982089 35388 net.cpp:411] conv3_output -> conv3_output
I0703 18:06:33.000322 35388 cudnn_conv_layer.cpp:194] Reallocating workspace storage: 6144
I0703 18:06:33.000381 35388 net.cpp:150] Setting up conv3_output
I0703 18:06:33.000398 35388 net.cpp:157] Top shape: 32 1024 8 8 (2097152)
I0703 18:06:33.000409 35388 net.cpp:165] Memory required for data: 1720770688
I0703 18:06:33.000445 35388 layer_factory.hpp:76] Creating layer conv4_1_1
I0703 18:06:33.000484 35388 net.cpp:106] Creating Layer conv4_1_1
I0703 18:06:33.000499 35388 net.cpp:454] conv4_1_1 <- conv3_8_sum_bn_conv3_8_sum_relu_0_split_1
I0703 18:06:33.000516 35388 net.cpp:411] conv4_1_1 -> conv4_1_1
I0703 18:06:33.005849 35388 cudnn_conv_layer.cpp:194] Reallocating workspace storage: 6144
I0703 18:06:33.005911 35388 net.cpp:150] Setting up conv4_1_1
I0703 18:06:33.005935 35388 net.cpp:157] Top shape: 32 256 8 8 (524288)
I0703 18:06:33.005946 35388 net.cpp:165] Memory required for data: 1722867840
I0703 18:06:33.005961 35388 layer_factory.hpp:76] Creating layer conv4_1_1_bn
I0703 18:06:33.005980 35388 net.cpp:106] Creating Layer conv4_1_1_bn
I0703 18:06:33.005991 35388 net.cpp:454] conv4_1_1_bn <- conv4_1_1
I0703 18:06:33.006005 35388 net.cpp:411] conv4_1_1_bn -> conv4_1_1_bn
I0703 18:06:33.006244 35388 net.cpp:150] Setting up conv4_1_1_bn
I0703 18:06:33.006258 35388 net.cpp:157] Top shape: 32 256 8 8 (524288)
I0703 18:06:33.006268 35388 net.cpp:165] Memory required for data: 1724964992
I0703 18:06:33.006279 35388 layer_factory.hpp:76] Creating layer conv4_1_1_relu
I0703 18:06:33.006304 35388 net.cpp:106] Creating Layer conv4_1_1_relu
I0703 18:06:33.006312 35388 net.cpp:454] conv4_1_1_relu <- conv4_1_1_bn
I0703 18:06:33.006353 35388 net.cpp:397] conv4_1_1_relu -> conv4_1_1_bn (in-place)
I0703 18:06:33.006690 35388 net.cpp:150] Setting up conv4_1_1_relu
I0703 18:06:33.006711 35388 net.cpp:157] Top shape: 32 256 8 8 (524288)
I0703 18:06:33.006718 35388 net.cpp:165] Memory required for data: 1727062144
I0703 18:06:33.006727 35388 layer_factory.hpp:76] Creating layer conv4_1_2
I0703 18:06:33.006748 35388 net.cpp:106] Creating Layer conv4_1_2
I0703 18:06:33.006757 35388 net.cpp:454] conv4_1_2 <- conv4_1_1_bn
I0703 18:06:33.006767 35388 net.cpp:411] conv4_1_2 -> conv4_1_2
I0703 18:06:33.027628 35388 cudnn_conv_layer.cpp:194] Reallocating workspace storage: 27648
I0703 18:06:33.027684 35388 net.cpp:150] Setting up conv4_1_2
I0703 18:06:33.027703 35388 net.cpp:157] Top shape: 32 256 8 8 (524288)
I0703 18:06:33.027719 35388 net.cpp:165] Memory required for data: 1729159296
I0703 18:06:33.027734 35388 layer_factory.hpp:76] Creating layer conv4_1_2_bn
I0703 18:06:33.027751 35388 net.cpp:106] Creating Layer conv4_1_2_bn
I0703 18:06:33.027765 35388 net.cpp:454] conv4_1_2_bn <- conv4_1_2
I0703 18:06:33.027781 35388 net.cpp:411] conv4_1_2_bn -> conv4_1_2_bn
I0703 18:06:33.028033 35388 net.cpp:150] Setting up conv4_1_2_bn
I0703 18:06:33.028048 35388 net.cpp:157] Top shape: 32 256 8 8 (524288)
I0703 18:06:33.028056 35388 net.cpp:165] Memory required for data: 1731256448
I0703 18:06:33.028069 35388 layer_factory.hpp:76] Creating layer conv4_1_2_relu
I0703 18:06:33.028090 35388 net.cpp:106] Creating Layer conv4_1_2_relu
I0703 18:06:33.028105 35388 net.cpp:454] conv4_1_2_relu <- conv4_1_2_bn
I0703 18:06:33.028117 35388 net.cpp:397] conv4_1_2_relu -> conv4_1_2_bn (in-place)
I0703 18:06:33.028517 35388 net.cpp:150] Setting up conv4_1_2_relu
I0703 18:06:33.028539 35388 net.cpp:157] Top shape: 32 256 8 8 (524288)
I0703 18:06:33.028549 35388 net.cpp:165] Memory required for data: 1733353600
I0703 18:06:33.028570 35388 layer_factory.hpp:76] Creating layer conv4_1_3
I0703 18:06:33.028597 35388 net.cpp:106] Creating Layer conv4_1_3
I0703 18:06:33.028606 35388 net.cpp:454] conv4_1_3 <- conv4_1_2_bn
I0703 18:06:33.028620 35388 net.cpp:411] conv4_1_3 -> conv4_1_3
I0703 18:06:33.039011 35388 cudnn_conv_layer.cpp:194] Reallocating workspace storage: 3072
I0703 18:06:33.039073 35388 net.cpp:150] Setting up conv4_1_3
I0703 18:06:33.039113 35388 net.cpp:157] Top shape: 32 1024 8 8 (2097152)
I0703 18:06:33.039124 35388 net.cpp:165] Memory required for data: 1741742208
I0703 18:06:33.039140 35388 layer_factory.hpp:76] Creating layer conv4_1_sum
I0703 18:06:33.039158 35388 net.cpp:106] Creating Layer conv4_1_sum
I0703 18:06:33.039170 35388 net.cpp:454] conv4_1_sum <- conv3_output
I0703 18:06:33.039183 35388 net.cpp:454] conv4_1_sum <- conv4_1_3
I0703 18:06:33.039194 35388 net.cpp:411] conv4_1_sum -> conv4_1_sum
I0703 18:06:33.039238 35388 net.cpp:150] Setting up conv4_1_sum
I0703 18:06:33.039252 35388 net.cpp:157] Top shape: 32 1024 8 8 (2097152)
I0703 18:06:33.039260 35388 net.cpp:165] Memory required for data: 1750130816
I0703 18:06:33.039269 35388 layer_factory.hpp:76] Creating layer conv4_1_sum_bn
I0703 18:06:33.039288 35388 net.cpp:106] Creating Layer conv4_1_sum_bn
I0703 18:06:33.039296 35388 net.cpp:454] conv4_1_sum_bn <- conv4_1_sum
I0703 18:06:33.039307 35388 net.cpp:411] conv4_1_sum_bn -> conv4_1_sum_bn
I0703 18:06:33.039598 35388 net.cpp:150] Setting up conv4_1_sum_bn
I0703 18:06:33.039615 35388 net.cpp:157] Top shape: 32 1024 8 8 (2097152)
I0703 18:06:33.039623 35388 net.cpp:165] Memory required for data: 1758519424
I0703 18:06:33.039638 35388 layer_factory.hpp:76] Creating layer conv4_1_sum_relu
I0703 18:06:33.039651 35388 net.cpp:106] Creating Layer conv4_1_sum_relu
I0703 18:06:33.039660 35388 net.cpp:454] conv4_1_sum_relu <- conv4_1_sum_bn
I0703 18:06:33.039670 35388 net.cpp:397] conv4_1_sum_relu -> conv4_1_sum_bn (in-place)
I0703 18:06:33.040081 35388 net.cpp:150] Setting up conv4_1_sum_relu
I0703 18:06:33.040110 35388 net.cpp:157] Top shape: 32 1024 8 8 (2097152)
I0703 18:06:33.040119 35388 net.cpp:165] Memory required for data: 1766908032
I0703 18:06:33.040165 35388 layer_factory.hpp:76] Creating layer conv4_1_sum_bn_conv4_1_sum_relu_0_split
I0703 18:06:33.040179 35388 net.cpp:106] Creating Layer conv4_1_sum_bn_conv4_1_sum_relu_0_split
I0703 18:06:33.040189 35388 net.cpp:454] conv4_1_sum_bn_conv4_1_sum_relu_0_split <- conv4_1_sum_bn
I0703 18:06:33.040204 35388 net.cpp:411] conv4_1_sum_bn_conv4_1_sum_relu_0_split -> conv4_1_sum_bn_conv4_1_sum_relu_0_split_0
I0703 18:06:33.040216 35388 net.cpp:411] conv4_1_sum_bn_conv4_1_sum_relu_0_split -> conv4_1_sum_bn_conv4_1_sum_relu_0_split_1
I0703 18:06:33.040295 35388 net.cpp:150] Setting up conv4_1_sum_bn_conv4_1_sum_relu_0_split
I0703 18:06:33.040309 35388 net.cpp:157] Top shape: 32 1024 8 8 (2097152)
I0703 18:06:33.040318 35388 net.cpp:157] Top shape: 32 1024 8 8 (2097152)
I0703 18:06:33.040326 35388 net.cpp:165] Memory required for data: 1783685248
I0703 18:06:33.040334 35388 layer_factory.hpp:76] Creating layer conv4_2_1
I0703 18:06:33.040362 35388 net.cpp:106] Creating Layer conv4_2_1
I0703 18:06:33.040372 35388 net.cpp:454] conv4_2_1 <- conv4_1_sum_bn_conv4_1_sum_relu_0_split_0
I0703 18:06:33.040386 35388 net.cpp:411] conv4_2_1 -> conv4_2_1
I0703 18:06:33.050751 35388 cudnn_conv_layer.cpp:194] Reallocating workspace storage: 25165824
I0703 18:06:33.051014 35388 net.cpp:150] Setting up conv4_2_1
I0703 18:06:33.051038 35388 net.cpp:157] Top shape: 32 256 8 8 (524288)
I0703 18:06:33.051048 35388 net.cpp:165] Memory required for data: 1785782400
I0703 18:06:33.051069 35388 layer_factory.hpp:76] Creating layer conv4_2_1_bn
I0703 18:06:33.051087 35388 net.cpp:106] Creating Layer conv4_2_1_bn
I0703 18:06:33.051100 35388 net.cpp:454] conv4_2_1_bn <- conv4_2_1
I0703 18:06:33.051116 35388 net.cpp:411] conv4_2_1_bn -> conv4_2_1_bn
I0703 18:06:33.051378 35388 net.cpp:150] Setting up conv4_2_1_bn
I0703 18:06:33.051393 35388 net.cpp:157] Top shape: 32 256 8 8 (524288)
I0703 18:06:33.051400 35388 net.cpp:165] Memory required for data: 1787879552
I0703 18:06:33.051414 35388 layer_factory.hpp:76] Creating layer conv4_2_1_relu
I0703 18:06:33.051435 35388 net.cpp:106] Creating Layer conv4_2_1_relu
I0703 18:06:33.051443 35388 net.cpp:454] conv4_2_1_relu <- conv4_2_1_bn
I0703 18:06:33.051455 35388 net.cpp:397] conv4_2_1_relu -> conv4_2_1_bn (in-place)
I0703 18:06:33.051833 35388 net.cpp:150] Setting up conv4_2_1_relu
I0703 18:06:33.051853 35388 net.cpp:157] Top shape: 32 256 8 8 (524288)
I0703 18:06:33.051862 35388 net.cpp:165] Memory required for data: 1789976704
I0703 18:06:33.051872 35388 layer_factory.hpp:76] Creating layer conv4_2_2
I0703 18:06:33.051895 35388 net.cpp:106] Creating Layer conv4_2_2
I0703 18:06:33.051904 35388 net.cpp:454] conv4_2_2 <- conv4_2_1_bn
I0703 18:06:33.051915 35388 net.cpp:411] conv4_2_2 -> conv4_2_2
I0703 18:06:33.072975 35388 cudnn_conv_layer.cpp:194] Reallocating workspace storage: 27648
I0703 18:06:33.073036 35388 net.cpp:150] Setting up conv4_2_2
I0703 18:06:33.073058 35388 net.cpp:157] Top shape: 32 256 8 8 (524288)
I0703 18:06:33.073071 35388 net.cpp:165] Memory required for data: 1792073856
I0703 18:06:33.073087 35388 layer_factory.hpp:76] Creating layer conv4_2_2_bn
I0703 18:06:33.073106 35388 net.cpp:106] Creating Layer conv4_2_2_bn
I0703 18:06:33.073117 35388 net.cpp:454] conv4_2_2_bn <- conv4_2_2
I0703 18:06:33.073134 35388 net.cpp:411] conv4_2_2_bn -> conv4_2_2_bn
I0703 18:06:33.073395 35388 net.cpp:150] Setting up conv4_2_2_bn
I0703 18:06:33.073410 35388 net.cpp:157] Top shape: 32 256 8 8 (524288)
I0703 18:06:33.073420 35388 net.cpp:165] Memory required for data: 1794171008
I0703 18:06:33.073438 35388 layer_factory.hpp:76] Creating layer conv4_2_2_relu
I0703 18:06:33.073463 35388 net.cpp:106] Creating Layer conv4_2_2_relu
I0703 18:06:33.073472 35388 net.cpp:454] conv4_2_2_relu <- conv4_2_2_bn
I0703 18:06:33.073484 35388 net.cpp:397] conv4_2_2_relu -> conv4_2_2_bn (in-place)
I0703 18:06:33.073889 35388 net.cpp:150] Setting up conv4_2_2_relu
I0703 18:06:33.073909 35388 net.cpp:157] Top shape: 32 256 8 8 (524288)
I0703 18:06:33.073917 35388 net.cpp:165] Memory required for data: 1796268160
I0703 18:06:33.073966 35388 layer_factory.hpp:76] Creating layer conv4_2_3
I0703 18:06:33.073987 35388 net.cpp:106] Creating Layer conv4_2_3
I0703 18:06:33.074003 35388 net.cpp:454] conv4_2_3 <- conv4_2_2_bn
I0703 18:06:33.074015 35388 net.cpp:411] conv4_2_3 -> conv4_2_3
I0703 18:06:33.084447 35388 cudnn_conv_layer.cpp:194] Reallocating workspace storage: 3072
I0703 18:06:33.084514 35388 net.cpp:150] Setting up conv4_2_3
I0703 18:06:33.084563 35388 net.cpp:157] Top shape: 32 1024 8 8 (2097152)
I0703 18:06:33.084574 35388 net.cpp:165] Memory required for data: 1804656768
I0703 18:06:33.084590 35388 layer_factory.hpp:76] Creating layer conv4_2_sum
I0703 18:06:33.084609 35388 net.cpp:106] Creating Layer conv4_2_sum
I0703 18:06:33.084621 35388 net.cpp:454] conv4_2_sum <- conv4_1_sum_bn_conv4_1_sum_relu_0_split_1
I0703 18:06:33.084635 35388 net.cpp:454] conv4_2_sum <- conv4_2_3
I0703 18:06:33.084645 35388 net.cpp:411] conv4_2_sum -> conv4_2_sum
I0703 18:06:33.084692 35388 net.cpp:150] Setting up conv4_2_sum
I0703 18:06:33.084704 35388 net.cpp:157] Top shape: 32 1024 8 8 (2097152)
I0703 18:06:33.084715 35388 net.cpp:165] Memory required for data: 1813045376
I0703 18:06:33.084727 35388 layer_factory.hpp:76] Creating layer conv4_2_sum_bn
I0703 18:06:33.084740 35388 net.cpp:106] Creating Layer conv4_2_sum_bn
I0703 18:06:33.084750 35388 net.cpp:454] conv4_2_sum_bn <- conv4_2_sum
I0703 18:06:33.084760 35388 net.cpp:411] conv4_2_sum_bn -> conv4_2_sum_bn
I0703 18:06:33.085007 35388 net.cpp:150] Setting up conv4_2_sum_bn
I0703 18:06:33.085023 35388 net.cpp:157] Top shape: 32 1024 8 8 (2097152)
I0703 18:06:33.085031 35388 net.cpp:165] Memory required for data: 1821433984
I0703 18:06:33.085044 35388 layer_factory.hpp:76] Creating layer conv4_2_sum_relu
I0703 18:06:33.085057 35388 net.cpp:106] Creating Layer conv4_2_sum_relu
I0703 18:06:33.085067 35388 net.cpp:454] conv4_2_sum_relu <- conv4_2_sum_bn
I0703 18:06:33.085075 35388 net.cpp:397] conv4_2_sum_relu -> conv4_2_sum_bn (in-place)
I0703 18:06:33.085273 35388 net.cpp:150] Setting up conv4_2_sum_relu
I0703 18:06:33.085290 35388 net.cpp:157] Top shape: 32 1024 8 8 (2097152)
I0703 18:06:33.085299 35388 net.cpp:165] Memory required for data: 1829822592
I0703 18:06:33.085307 35388 layer_factory.hpp:76] Creating layer conv4_2_sum_bn_conv4_2_sum_relu_0_split
I0703 18:06:33.085325 35388 net.cpp:106] Creating Layer conv4_2_sum_bn_conv4_2_sum_relu_0_split
I0703 18:06:33.085335 35388 net.cpp:454] conv4_2_sum_bn_conv4_2_sum_relu_0_split <- conv4_2_sum_bn
I0703 18:06:33.085345 35388 net.cpp:411] conv4_2_sum_bn_conv4_2_sum_relu_0_split -> conv4_2_sum_bn_conv4_2_sum_relu_0_split_0
I0703 18:06:33.085355 35388 net.cpp:411] conv4_2_sum_bn_conv4_2_sum_relu_0_split -> conv4_2_sum_bn_conv4_2_sum_relu_0_split_1
I0703 18:06:33.085420 35388 net.cpp:150] Setting up conv4_2_sum_bn_conv4_2_sum_relu_0_split
I0703 18:06:33.085433 35388 net.cpp:157] Top shape: 32 1024 8 8 (2097152)
I0703 18:06:33.085441 35388 net.cpp:157] Top shape: 32 1024 8 8 (2097152)
I0703 18:06:33.085449 35388 net.cpp:165] Memory required for data: 1846599808
I0703 18:06:33.085458 35388 layer_factory.hpp:76] Creating layer conv4_3_1
I0703 18:06:33.085484 35388 net.cpp:106] Creating Layer conv4_3_1
I0703 18:06:33.085494 35388 net.cpp:454] conv4_3_1 <- conv4_2_sum_bn_conv4_2_sum_relu_0_split_0
I0703 18:06:33.085506 35388 net.cpp:411] conv4_3_1 -> conv4_3_1
I0703 18:06:33.095700 35388 cudnn_conv_layer.cpp:194] Reallocating workspace storage: 25165824
I0703 18:06:33.095944 35388 net.cpp:150] Setting up conv4_3_1
I0703 18:06:33.095969 35388 net.cpp:157] Top shape: 32 256 8 8 (524288)
I0703 18:06:33.095980 35388 net.cpp:165] Memory required for data: 1848696960
I0703 18:06:33.096004 35388 layer_factory.hpp:76] Creating layer conv4_3_1_bn
I0703 18:06:33.096019 35388 net.cpp:106] Creating Layer conv4_3_1_bn
I0703 18:06:33.096031 35388 net.cpp:454] conv4_3_1_bn <- conv4_3_1
I0703 18:06:33.096047 35388 net.cpp:411] conv4_3_1_bn -> conv4_3_1_bn
I0703 18:06:33.096338 35388 net.cpp:150] Setting up conv4_3_1_bn
I0703 18:06:33.096355 35388 net.cpp:157] Top shape: 32 256 8 8 (524288)
I0703 18:06:33.096400 35388 net.cpp:165] Memory required for data: 1850794112
I0703 18:06:33.096415 35388 layer_factory.hpp:76] Creating layer conv4_3_1_relu
I0703 18:06:33.096447 35388 net.cpp:106] Creating Layer conv4_3_1_relu
I0703 18:06:33.096470 35388 net.cpp:454] conv4_3_1_relu <- conv4_3_1_bn
I0703 18:06:33.096488 35388 net.cpp:397] conv4_3_1_relu -> conv4_3_1_bn (in-place)
I0703 18:06:33.096869 35388 net.cpp:150] Setting up conv4_3_1_relu
I0703 18:06:33.096890 35388 net.cpp:157] Top shape: 32 256 8 8 (524288)
I0703 18:06:33.096899 35388 net.cpp:165] Memory required for data: 1852891264
I0703 18:06:33.096907 35388 layer_factory.hpp:76] Creating layer conv4_3_2
I0703 18:06:33.096935 35388 net.cpp:106] Creating Layer conv4_3_2
I0703 18:06:33.096943 35388 net.cpp:454] conv4_3_2 <- conv4_3_1_bn
I0703 18:06:33.096956 35388 net.cpp:411] conv4_3_2 -> conv4_3_2
I0703 18:06:33.117702 35388 cudnn_conv_layer.cpp:194] Reallocating workspace storage: 27648
I0703 18:06:33.117755 35388 net.cpp:150] Setting up conv4_3_2
I0703 18:06:33.117774 35388 net.cpp:157] Top shape: 32 256 8 8 (524288)
I0703 18:06:33.117790 35388 net.cpp:165] Memory required for data: 1854988416
I0703 18:06:33.117805 35388 layer_factory.hpp:76] Creating layer conv4_3_2_bn
I0703 18:06:33.117825 35388 net.cpp:106] Creating Layer conv4_3_2_bn
I0703 18:06:33.117838 35388 net.cpp:454] conv4_3_2_bn <- conv4_3_2
I0703 18:06:33.117854 35388 net.cpp:411] conv4_3_2_bn -> conv4_3_2_bn
I0703 18:06:33.118116 35388 net.cpp:150] Setting up conv4_3_2_bn
I0703 18:06:33.118131 35388 net.cpp:157] Top shape: 32 256 8 8 (524288)
I0703 18:06:33.118139 35388 net.cpp:165] Memory required for data: 1857085568
I0703 18:06:33.118152 35388 layer_factory.hpp:76] Creating layer conv4_3_2_relu
I0703 18:06:33.118165 35388 net.cpp:106] Creating Layer conv4_3_2_relu
I0703 18:06:33.118173 35388 net.cpp:454] conv4_3_2_relu <- conv4_3_2_bn
I0703 18:06:33.118183 35388 net.cpp:397] conv4_3_2_relu -> conv4_3_2_bn (in-place)
I0703 18:06:33.118564 35388 net.cpp:150] Setting up conv4_3_2_relu
I0703 18:06:33.118583 35388 net.cpp:157] Top shape: 32 256 8 8 (524288)
I0703 18:06:33.118592 35388 net.cpp:165] Memory required for data: 1859182720
I0703 18:06:33.118602 35388 layer_factory.hpp:76] Creating layer conv4_3_3
I0703 18:06:33.118621 35388 net.cpp:106] Creating Layer conv4_3_3
I0703 18:06:33.118630 35388 net.cpp:454] conv4_3_3 <- conv4_3_2_bn
I0703 18:06:33.118644 35388 net.cpp:411] conv4_3_3 -> conv4_3_3
I0703 18:06:33.128842 35388 cudnn_conv_layer.cpp:194] Reallocating workspace storage: 3072
I0703 18:06:33.128901 35388 net.cpp:150] Setting up conv4_3_3
I0703 18:06:33.128922 35388 net.cpp:157] Top shape: 32 1024 8 8 (2097152)
I0703 18:06:33.128931 35388 net.cpp:165] Memory required for data: 1867571328
I0703 18:06:33.128947 35388 layer_factory.hpp:76] Creating layer conv4_3_sum
I0703 18:06:33.128964 35388 net.cpp:106] Creating Layer conv4_3_sum
I0703 18:06:33.128978 35388 net.cpp:454] conv4_3_sum <- conv4_2_sum_bn_conv4_2_sum_relu_0_split_1
I0703 18:06:33.128989 35388 net.cpp:454] conv4_3_sum <- conv4_3_3
I0703 18:06:33.129004 35388 net.cpp:411] conv4_3_sum -> conv4_3_sum
I0703 18:06:33.129048 35388 net.cpp:150] Setting up conv4_3_sum
I0703 18:06:33.129060 35388 net.cpp:157] Top shape: 32 1024 8 8 (2097152)
I0703 18:06:33.129068 35388 net.cpp:165] Memory required for data: 1875959936
I0703 18:06:33.129077 35388 layer_factory.hpp:76] Creating layer conv4_3_sum_bn
I0703 18:06:33.129089 35388 net.cpp:106] Creating Layer conv4_3_sum_bn
I0703 18:06:33.129097 35388 net.cpp:454] conv4_3_sum_bn <- conv4_3_sum
I0703 18:06:33.129111 35388 net.cpp:411] conv4_3_sum_bn -> conv4_3_sum_bn
I0703 18:06:33.129364 35388 net.cpp:150] Setting up conv4_3_sum_bn
I0703 18:06:33.129379 35388 net.cpp:157] Top shape: 32 1024 8 8 (2097152)
I0703 18:06:33.129387 35388 net.cpp:165] Memory required for data: 1884348544
I0703 18:06:33.129400 35388 layer_factory.hpp:76] Creating layer conv4_3_sum_relu
I0703 18:06:33.129415 35388 net.cpp:106] Creating Layer conv4_3_sum_relu
I0703 18:06:33.129425 35388 net.cpp:454] conv4_3_sum_relu <- conv4_3_sum_bn
I0703 18:06:33.129463 35388 net.cpp:397] conv4_3_sum_relu -> conv4_3_sum_bn (in-place)
I0703 18:06:33.129685 35388 net.cpp:150] Setting up conv4_3_sum_relu
I0703 18:06:33.129703 35388 net.cpp:157] Top shape: 32 1024 8 8 (2097152)
I0703 18:06:33.129724 35388 net.cpp:165] Memory required for data: 1892737152
I0703 18:06:33.129746 35388 layer_factory.hpp:76] Creating layer conv4_3_sum_bn_conv4_3_sum_relu_0_split
I0703 18:06:33.129757 35388 net.cpp:106] Creating Layer conv4_3_sum_bn_conv4_3_sum_relu_0_split
I0703 18:06:33.129770 35388 net.cpp:454] conv4_3_sum_bn_conv4_3_sum_relu_0_split <- conv4_3_sum_bn
I0703 18:06:33.129779 35388 net.cpp:411] conv4_3_sum_bn_conv4_3_sum_relu_0_split -> conv4_3_sum_bn_conv4_3_sum_relu_0_split_0
I0703 18:06:33.129792 35388 net.cpp:411] conv4_3_sum_bn_conv4_3_sum_relu_0_split -> conv4_3_sum_bn_conv4_3_sum_relu_0_split_1
I0703 18:06:33.129855 35388 net.cpp:150] Setting up conv4_3_sum_bn_conv4_3_sum_relu_0_split
I0703 18:06:33.129868 35388 net.cpp:157] Top shape: 32 1024 8 8 (2097152)
I0703 18:06:33.129876 35388 net.cpp:157] Top shape: 32 1024 8 8 (2097152)
I0703 18:06:33.129884 35388 net.cpp:165] Memory required for data: 1909514368
I0703 18:06:33.129891 35388 layer_factory.hpp:76] Creating layer conv4_4_1
I0703 18:06:33.129909 35388 net.cpp:106] Creating Layer conv4_4_1
I0703 18:06:33.129919 35388 net.cpp:454] conv4_4_1 <- conv4_3_sum_bn_conv4_3_sum_relu_0_split_0
I0703 18:06:33.129931 35388 net.cpp:411] conv4_4_1 -> conv4_4_1
I0703 18:06:33.140317 35388 cudnn_conv_layer.cpp:194] Reallocating workspace storage: 25165824
I0703 18:06:33.140651 35388 net.cpp:150] Setting up conv4_4_1
I0703 18:06:33.140678 35388 net.cpp:157] Top shape: 32 256 8 8 (524288)
I0703 18:06:33.140688 35388 net.cpp:165] Memory required for data: 1911611520
I0703 18:06:33.140705 35388 layer_factory.hpp:76] Creating layer conv4_4_1_bn
I0703 18:06:33.140728 35388 net.cpp:106] Creating Layer conv4_4_1_bn
I0703 18:06:33.140740 35388 net.cpp:454] conv4_4_1_bn <- conv4_4_1
I0703 18:06:33.140758 35388 net.cpp:411] conv4_4_1_bn -> conv4_4_1_bn
I0703 18:06:33.141057 35388 net.cpp:150] Setting up conv4_4_1_bn
I0703 18:06:33.141072 35388 net.cpp:157] Top shape: 32 256 8 8 (524288)
I0703 18:06:33.141082 35388 net.cpp:165] Memory required for data: 1913708672
I0703 18:06:33.141095 35388 layer_factory.hpp:76] Creating layer conv4_4_1_relu
I0703 18:06:33.141111 35388 net.cpp:106] Creating Layer conv4_4_1_relu
I0703 18:06:33.141129 35388 net.cpp:454] conv4_4_1_relu <- conv4_4_1_bn
I0703 18:06:33.141139 35388 net.cpp:397] conv4_4_1_relu -> conv4_4_1_bn (in-place)
I0703 18:06:33.141541 35388 net.cpp:150] Setting up conv4_4_1_relu
I0703 18:06:33.141561 35388 net.cpp:157] Top shape: 32 256 8 8 (524288)
I0703 18:06:33.141571 35388 net.cpp:165] Memory required for data: 1915805824
I0703 18:06:33.141579 35388 layer_factory.hpp:76] Creating layer conv4_4_2
I0703 18:06:33.141602 35388 net.cpp:106] Creating Layer conv4_4_2
I0703 18:06:33.141611 35388 net.cpp:454] conv4_4_2 <- conv4_4_1_bn
I0703 18:06:33.141624 35388 net.cpp:411] conv4_4_2 -> conv4_4_2
I0703 18:06:33.162500 35388 cudnn_conv_layer.cpp:194] Reallocating workspace storage: 27648
I0703 18:06:33.162551 35388 net.cpp:150] Setting up conv4_4_2
I0703 18:06:33.162569 35388 net.cpp:157] Top shape: 32 256 8 8 (524288)
I0703 18:06:33.162578 35388 net.cpp:165] Memory required for data: 1917902976
I0703 18:06:33.162595 35388 layer_factory.hpp:76] Creating layer conv4_4_2_bn
I0703 18:06:33.162616 35388 net.cpp:106] Creating Layer conv4_4_2_bn
I0703 18:06:33.162628 35388 net.cpp:454] conv4_4_2_bn <- conv4_4_2
I0703 18:06:33.162644 35388 net.cpp:411] conv4_4_2_bn -> conv4_4_2_bn
I0703 18:06:33.162921 35388 net.cpp:150] Setting up conv4_4_2_bn
I0703 18:06:33.162936 35388 net.cpp:157] Top shape: 32 256 8 8 (524288)
I0703 18:06:33.162945 35388 net.cpp:165] Memory required for data: 1920000128
I0703 18:06:33.162957 35388 layer_factory.hpp:76] Creating layer conv4_4_2_relu
I0703 18:06:33.162971 35388 net.cpp:106] Creating Layer conv4_4_2_relu
I0703 18:06:33.163002 35388 net.cpp:454] conv4_4_2_relu <- conv4_4_2_bn
I0703 18:06:33.163013 35388 net.cpp:397] conv4_4_2_relu -> conv4_4_2_bn (in-place)
I0703 18:06:33.163360 35388 net.cpp:150] Setting up conv4_4_2_relu
I0703 18:06:33.163380 35388 net.cpp:157] Top shape: 32 256 8 8 (524288)
I0703 18:06:33.163389 35388 net.cpp:165] Memory required for data: 1922097280
I0703 18:06:33.163398 35388 layer_factory.hpp:76] Creating layer conv4_4_3
I0703 18:06:33.163415 35388 net.cpp:106] Creating Layer conv4_4_3
I0703 18:06:33.163424 35388 net.cpp:454] conv4_4_3 <- conv4_4_2_bn
I0703 18:06:33.163436 35388 net.cpp:411] conv4_4_3 -> conv4_4_3
I0703 18:06:33.173573 35388 cudnn_conv_layer.cpp:194] Reallocating workspace storage: 3072
I0703 18:06:33.173634 35388 net.cpp:150] Setting up conv4_4_3
I0703 18:06:33.173671 35388 net.cpp:157] Top shape: 32 1024 8 8 (2097152)
I0703 18:06:33.173681 35388 net.cpp:165] Memory required for data: 1930485888
I0703 18:06:33.173696 35388 layer_factory.hpp:76] Creating layer conv4_4_sum
I0703 18:06:33.173717 35388 net.cpp:106] Creating Layer conv4_4_sum
I0703 18:06:33.173727 35388 net.cpp:454] conv4_4_sum <- conv4_3_sum_bn_conv4_3_sum_relu_0_split_1
I0703 18:06:33.173739 35388 net.cpp:454] conv4_4_sum <- conv4_4_3
I0703 18:06:33.173754 35388 net.cpp:411] conv4_4_sum -> conv4_4_sum
I0703 18:06:33.173801 35388 net.cpp:150] Setting up conv4_4_sum
I0703 18:06:33.173820 35388 net.cpp:157] Top shape: 32 1024 8 8 (2097152)
I0703 18:06:33.173835 35388 net.cpp:165] Memory required for data: 1938874496
I0703 18:06:33.173843 35388 layer_factory.hpp:76] Creating layer conv4_4_sum_bn
I0703 18:06:33.173856 35388 net.cpp:106] Creating Layer conv4_4_sum_bn
I0703 18:06:33.173864 35388 net.cpp:454] conv4_4_sum_bn <- conv4_4_sum
I0703 18:06:33.173877 35388 net.cpp:411] conv4_4_sum_bn -> conv4_4_sum_bn
I0703 18:06:33.174139 35388 net.cpp:150] Setting up conv4_4_sum_bn
I0703 18:06:33.174154 35388 net.cpp:157] Top shape: 32 1024 8 8 (2097152)
I0703 18:06:33.174163 35388 net.cpp:165] Memory required for data: 1947263104
I0703 18:06:33.174176 35388 layer_factory.hpp:76] Creating layer conv4_4_sum_relu
I0703 18:06:33.174192 35388 net.cpp:106] Creating Layer conv4_4_sum_relu
I0703 18:06:33.174201 35388 net.cpp:454] conv4_4_sum_relu <- conv4_4_sum_bn
I0703 18:06:33.174211 35388 net.cpp:397] conv4_4_sum_relu -> conv4_4_sum_bn (in-place)
I0703 18:06:33.174404 35388 net.cpp:150] Setting up conv4_4_sum_relu
I0703 18:06:33.174422 35388 net.cpp:157] Top shape: 32 1024 8 8 (2097152)
I0703 18:06:33.174430 35388 net.cpp:165] Memory required for data: 1955651712
I0703 18:06:33.174438 35388 layer_factory.hpp:76] Creating layer conv4_4_sum_bn_conv4_4_sum_relu_0_split
I0703 18:06:33.174451 35388 net.cpp:106] Creating Layer conv4_4_sum_bn_conv4_4_sum_relu_0_split
I0703 18:06:33.174466 35388 net.cpp:454] conv4_4_sum_bn_conv4_4_sum_relu_0_split <- conv4_4_sum_bn
I0703 18:06:33.174476 35388 net.cpp:411] conv4_4_sum_bn_conv4_4_sum_relu_0_split -> conv4_4_sum_bn_conv4_4_sum_relu_0_split_0
I0703 18:06:33.174489 35388 net.cpp:411] conv4_4_sum_bn_conv4_4_sum_relu_0_split -> conv4_4_sum_bn_conv4_4_sum_relu_0_split_1
I0703 18:06:33.174557 35388 net.cpp:150] Setting up conv4_4_sum_bn_conv4_4_sum_relu_0_split
I0703 18:06:33.174569 35388 net.cpp:157] Top shape: 32 1024 8 8 (2097152)
I0703 18:06:33.174581 35388 net.cpp:157] Top shape: 32 1024 8 8 (2097152)
I0703 18:06:33.174587 35388 net.cpp:165] Memory required for data: 1972428928
I0703 18:06:33.174595 35388 layer_factory.hpp:76] Creating layer conv4_5_1
I0703 18:06:33.174612 35388 net.cpp:106] Creating Layer conv4_5_1
I0703 18:06:33.174624 35388 net.cpp:454] conv4_5_1 <- conv4_4_sum_bn_conv4_4_sum_relu_0_split_0
I0703 18:06:33.174636 35388 net.cpp:411] conv4_5_1 -> conv4_5_1
I0703 18:06:33.184785 35388 cudnn_conv_layer.cpp:194] Reallocating workspace storage: 25165824
I0703 18:06:33.185045 35388 net.cpp:150] Setting up conv4_5_1
I0703 18:06:33.185070 35388 net.cpp:157] Top shape: 32 256 8 8 (524288)
I0703 18:06:33.185081 35388 net.cpp:165] Memory required for data: 1974526080
I0703 18:06:33.185096 35388 layer_factory.hpp:76] Creating layer conv4_5_1_bn
I0703 18:06:33.185148 35388 net.cpp:106] Creating Layer conv4_5_1_bn
I0703 18:06:33.185161 35388 net.cpp:454] conv4_5_1_bn <- conv4_5_1
I0703 18:06:33.185178 35388 net.cpp:411] conv4_5_1_bn -> conv4_5_1_bn
I0703 18:06:33.185449 35388 net.cpp:150] Setting up conv4_5_1_bn
I0703 18:06:33.185466 35388 net.cpp:157] Top shape: 32 256 8 8 (524288)
I0703 18:06:33.185473 35388 net.cpp:165] Memory required for data: 1976623232
I0703 18:06:33.185487 35388 layer_factory.hpp:76] Creating layer conv4_5_1_relu
I0703 18:06:33.185500 35388 net.cpp:106] Creating Layer conv4_5_1_relu
I0703 18:06:33.185508 35388 net.cpp:454] conv4_5_1_relu <- conv4_5_1_bn
I0703 18:06:33.185518 35388 net.cpp:397] conv4_5_1_relu -> conv4_5_1_bn (in-place)
I0703 18:06:33.185873 35388 net.cpp:150] Setting up conv4_5_1_relu
I0703 18:06:33.185894 35388 net.cpp:157] Top shape: 32 256 8 8 (524288)
I0703 18:06:33.185902 35388 net.cpp:165] Memory required for data: 1978720384
I0703 18:06:33.185911 35388 layer_factory.hpp:76] Creating layer conv4_5_2
I0703 18:06:33.185940 35388 net.cpp:106] Creating Layer conv4_5_2
I0703 18:06:33.185950 35388 net.cpp:454] conv4_5_2 <- conv4_5_1_bn
I0703 18:06:33.185961 35388 net.cpp:411] conv4_5_2 -> conv4_5_2
I0703 18:06:33.206912 35388 cudnn_conv_layer.cpp:194] Reallocating workspace storage: 27648
I0703 18:06:33.206967 35388 net.cpp:150] Setting up conv4_5_2
I0703 18:06:33.206984 35388 net.cpp:157] Top shape: 32 256 8 8 (524288)
I0703 18:06:33.207003 35388 net.cpp:165] Memory required for data: 1980817536
I0703 18:06:33.207020 35388 layer_factory.hpp:76] Creating layer conv4_5_2_bn
I0703 18:06:33.207036 35388 net.cpp:106] Creating Layer conv4_5_2_bn
I0703 18:06:33.207051 35388 net.cpp:454] conv4_5_2_bn <- conv4_5_2
I0703 18:06:33.207067 35388 net.cpp:411] conv4_5_2_bn -> conv4_5_2_bn
I0703 18:06:33.207367 35388 net.cpp:150] Setting up conv4_5_2_bn
I0703 18:06:33.207384 35388 net.cpp:157] Top shape: 32 256 8 8 (524288)
I0703 18:06:33.207393 35388 net.cpp:165] Memory required for data: 1982914688
I0703 18:06:33.207408 35388 layer_factory.hpp:76] Creating layer conv4_5_2_relu
I0703 18:06:33.207434 35388 net.cpp:106] Creating Layer conv4_5_2_relu
I0703 18:06:33.207443 35388 net.cpp:454] conv4_5_2_relu <- conv4_5_2_bn
I0703 18:06:33.207453 35388 net.cpp:397] conv4_5_2_relu -> conv4_5_2_bn (in-place)
I0703 18:06:33.207841 35388 net.cpp:150] Setting up conv4_5_2_relu
I0703 18:06:33.207861 35388 net.cpp:157] Top shape: 32 256 8 8 (524288)
I0703 18:06:33.207870 35388 net.cpp:165] Memory required for data: 1985011840
I0703 18:06:33.207880 35388 layer_factory.hpp:76] Creating layer conv4_5_3
I0703 18:06:33.207908 35388 net.cpp:106] Creating Layer conv4_5_3
I0703 18:06:33.207921 35388 net.cpp:454] conv4_5_3 <- conv4_5_2_bn
I0703 18:06:33.207931 35388 net.cpp:411] conv4_5_3 -> conv4_5_3
I0703 18:06:33.218505 35388 cudnn_conv_layer.cpp:194] Reallocating workspace storage: 3072
I0703 18:06:33.218580 35388 net.cpp:150] Setting up conv4_5_3
I0703 18:06:33.218613 35388 net.cpp:157] Top shape: 32 1024 8 8 (2097152)
I0703 18:06:33.218623 35388 net.cpp:165] Memory required for data: 1993400448
I0703 18:06:33.218641 35388 layer_factory.hpp:76] Creating layer conv4_5_sum
I0703 18:06:33.218662 35388 net.cpp:106] Creating Layer conv4_5_sum
I0703 18:06:33.218675 35388 net.cpp:454] conv4_5_sum <- conv4_4_sum_bn_conv4_4_sum_relu_0_split_1
I0703 18:06:33.218688 35388 net.cpp:454] conv4_5_sum <- conv4_5_3
I0703 18:06:33.218700 35388 net.cpp:411] conv4_5_sum -> conv4_5_sum
I0703 18:06:33.218750 35388 net.cpp:150] Setting up conv4_5_sum
I0703 18:06:33.218762 35388 net.cpp:157] Top shape: 32 1024 8 8 (2097152)
I0703 18:06:33.218780 35388 net.cpp:165] Memory required for data: 2001789056
I0703 18:06:33.218787 35388 layer_factory.hpp:76] Creating layer conv4_5_sum_bn
I0703 18:06:33.218806 35388 net.cpp:106] Creating Layer conv4_5_sum_bn
I0703 18:06:33.218814 35388 net.cpp:454] conv4_5_sum_bn <- conv4_5_sum
I0703 18:06:33.218827 35388 net.cpp:411] conv4_5_sum_bn -> conv4_5_sum_bn
I0703 18:06:33.219118 35388 net.cpp:150] Setting up conv4_5_sum_bn
I0703 18:06:33.219166 35388 net.cpp:157] Top shape: 32 1024 8 8 (2097152)
I0703 18:06:33.219174 35388 net.cpp:165] Memory required for data: 2010177664
I0703 18:06:33.219188 35388 layer_factory.hpp:76] Creating layer conv4_5_sum_relu
I0703 18:06:33.219210 35388 net.cpp:106] Creating Layer conv4_5_sum_relu
I0703 18:06:33.219219 35388 net.cpp:454] conv4_5_sum_relu <- conv4_5_sum_bn
I0703 18:06:33.219229 35388 net.cpp:397] conv4_5_sum_relu -> conv4_5_sum_bn (in-place)
I0703 18:06:33.219440 35388 net.cpp:150] Setting up conv4_5_sum_relu
I0703 18:06:33.219457 35388 net.cpp:157] Top shape: 32 1024 8 8 (2097152)
I0703 18:06:33.219466 35388 net.cpp:165] Memory required for data: 2018566272
I0703 18:06:33.219475 35388 layer_factory.hpp:76] Creating layer conv4_5_sum_bn_conv4_5_sum_relu_0_split
I0703 18:06:33.219491 35388 net.cpp:106] Creating Layer conv4_5_sum_bn_conv4_5_sum_relu_0_split
I0703 18:06:33.219499 35388 net.cpp:454] conv4_5_sum_bn_conv4_5_sum_relu_0_split <- conv4_5_sum_bn
I0703 18:06:33.219512 35388 net.cpp:411] conv4_5_sum_bn_conv4_5_sum_relu_0_split -> conv4_5_sum_bn_conv4_5_sum_relu_0_split_0
I0703 18:06:33.219523 35388 net.cpp:411] conv4_5_sum_bn_conv4_5_sum_relu_0_split -> conv4_5_sum_bn_conv4_5_sum_relu_0_split_1
I0703 18:06:33.219591 35388 net.cpp:150] Setting up conv4_5_sum_bn_conv4_5_sum_relu_0_split
I0703 18:06:33.219605 35388 net.cpp:157] Top shape: 32 1024 8 8 (2097152)
I0703 18:06:33.219614 35388 net.cpp:157] Top shape: 32 1024 8 8 (2097152)
I0703 18:06:33.219622 35388 net.cpp:165] Memory required for data: 2035343488
I0703 18:06:33.219630 35388 layer_factory.hpp:76] Creating layer conv4_6_1
I0703 18:06:33.219645 35388 net.cpp:106] Creating Layer conv4_6_1
I0703 18:06:33.219653 35388 net.cpp:454] conv4_6_1 <- conv4_5_sum_bn_conv4_5_sum_relu_0_split_0
I0703 18:06:33.219667 35388 net.cpp:411] conv4_6_1 -> conv4_6_1
I0703 18:06:33.230176 35388 cudnn_conv_layer.cpp:194] Reallocating workspace storage: 25165824
I0703 18:06:33.230440 35388 net.cpp:150] Setting up conv4_6_1
I0703 18:06:33.230464 35388 net.cpp:157] Top shape: 32 256 8 8 (524288)
I0703 18:06:33.230474 35388 net.cpp:165] Memory required for data: 2037440640
I0703 18:06:33.230492 35388 layer_factory.hpp:76] Creating layer conv4_6_1_bn
I0703 18:06:33.230509 35388 net.cpp:106] Creating Layer conv4_6_1_bn
I0703 18:06:33.230520 35388 net.cpp:454] conv4_6_1_bn <- conv4_6_1
I0703 18:06:33.230538 35388 net.cpp:411] conv4_6_1_bn -> conv4_6_1_bn
I0703 18:06:33.230829 35388 net.cpp:150] Setting up conv4_6_1_bn
I0703 18:06:33.230844 35388 net.cpp:157] Top shape: 32 256 8 8 (524288)
I0703 18:06:33.230854 35388 net.cpp:165] Memory required for data: 2039537792
I0703 18:06:33.230866 35388 layer_factory.hpp:76] Creating layer conv4_6_1_relu
I0703 18:06:33.230890 35388 net.cpp:106] Creating Layer conv4_6_1_relu
I0703 18:06:33.230911 35388 net.cpp:454] conv4_6_1_relu <- conv4_6_1_bn
I0703 18:06:33.230921 35388 net.cpp:397] conv4_6_1_relu -> conv4_6_1_bn (in-place)
I0703 18:06:33.231284 35388 net.cpp:150] Setting up conv4_6_1_relu
I0703 18:06:33.231304 35388 net.cpp:157] Top shape: 32 256 8 8 (524288)
I0703 18:06:33.231314 35388 net.cpp:165] Memory required for data: 2041634944
I0703 18:06:33.231323 35388 layer_factory.hpp:76] Creating layer conv4_6_2
I0703 18:06:33.231343 35388 net.cpp:106] Creating Layer conv4_6_2
I0703 18:06:33.231351 35388 net.cpp:454] conv4_6_2 <- conv4_6_1_bn
I0703 18:06:33.231365 35388 net.cpp:411] conv4_6_2 -> conv4_6_2
I0703 18:06:33.252089 35388 cudnn_conv_layer.cpp:194] Reallocating workspace storage: 27648
I0703 18:06:33.252147 35388 net.cpp:150] Setting up conv4_6_2
I0703 18:06:33.252164 35388 net.cpp:157] Top shape: 32 256 8 8 (524288)
I0703 18:06:33.252173 35388 net.cpp:165] Memory required for data: 2043732096
I0703 18:06:33.252250 35388 layer_factory.hpp:76] Creating layer conv4_6_2_bn
I0703 18:06:33.252274 35388 net.cpp:106] Creating Layer conv4_6_2_bn
I0703 18:06:33.252286 35388 net.cpp:454] conv4_6_2_bn <- conv4_6_2
I0703 18:06:33.252302 35388 net.cpp:411] conv4_6_2_bn -> conv4_6_2_bn
I0703 18:06:33.252637 35388 net.cpp:150] Setting up conv4_6_2_bn
I0703 18:06:33.252653 35388 net.cpp:157] Top shape: 32 256 8 8 (524288)
I0703 18:06:33.252661 35388 net.cpp:165] Memory required for data: 2045829248
I0703 18:06:33.252674 35388 layer_factory.hpp:76] Creating layer conv4_6_2_relu
I0703 18:06:33.252687 35388 net.cpp:106] Creating Layer conv4_6_2_relu
I0703 18:06:33.252696 35388 net.cpp:454] conv4_6_2_relu <- conv4_6_2_bn
I0703 18:06:33.252707 35388 net.cpp:397] conv4_6_2_relu -> conv4_6_2_bn (in-place)
I0703 18:06:33.253114 35388 net.cpp:150] Setting up conv4_6_2_relu
I0703 18:06:33.253134 35388 net.cpp:157] Top shape: 32 256 8 8 (524288)
I0703 18:06:33.253142 35388 net.cpp:165] Memory required for data: 2047926400
I0703 18:06:33.253150 35388 layer_factory.hpp:76] Creating layer conv4_6_3
I0703 18:06:33.253171 35388 net.cpp:106] Creating Layer conv4_6_3
I0703 18:06:33.253180 35388 net.cpp:454] conv4_6_3 <- conv4_6_2_bn
I0703 18:06:33.253192 35388 net.cpp:411] conv4_6_3 -> conv4_6_3
I0703 18:06:33.263448 35388 cudnn_conv_layer.cpp:194] Reallocating workspace storage: 3072
I0703 18:06:33.263509 35388 net.cpp:150] Setting up conv4_6_3
I0703 18:06:33.263545 35388 net.cpp:157] Top shape: 32 1024 8 8 (2097152)
I0703 18:06:33.263555 35388 net.cpp:165] Memory required for data: 2056315008
I0703 18:06:33.263569 35388 layer_factory.hpp:76] Creating layer conv4_6_sum
I0703 18:06:33.263588 35388 net.cpp:106] Creating Layer conv4_6_sum
I0703 18:06:33.263602 35388 net.cpp:454] conv4_6_sum <- conv4_5_sum_bn_conv4_5_sum_relu_0_split_1
I0703 18:06:33.263613 35388 net.cpp:454] conv4_6_sum <- conv4_6_3
I0703 18:06:33.263625 35388 net.cpp:411] conv4_6_sum -> conv4_6_sum
I0703 18:06:33.263669 35388 net.cpp:150] Setting up conv4_6_sum
I0703 18:06:33.263681 35388 net.cpp:157] Top shape: 32 1024 8 8 (2097152)
I0703 18:06:33.263689 35388 net.cpp:165] Memory required for data: 2064703616
I0703 18:06:33.263696 35388 layer_factory.hpp:76] Creating layer conv4_6_sum_bn
I0703 18:06:33.263721 35388 net.cpp:106] Creating Layer conv4_6_sum_bn
I0703 18:06:33.263731 35388 net.cpp:454] conv4_6_sum_bn <- conv4_6_sum
I0703 18:06:33.263741 35388 net.cpp:411] conv4_6_sum_bn -> conv4_6_sum_bn
I0703 18:06:33.264003 35388 net.cpp:150] Setting up conv4_6_sum_bn
I0703 18:06:33.264019 35388 net.cpp:157] Top shape: 32 1024 8 8 (2097152)
I0703 18:06:33.264026 35388 net.cpp:165] Memory required for data: 2073092224
I0703 18:06:33.264039 35388 layer_factory.hpp:76] Creating layer conv4_6_sum_relu
I0703 18:06:33.264055 35388 net.cpp:106] Creating Layer conv4_6_sum_relu
I0703 18:06:33.264062 35388 net.cpp:454] conv4_6_sum_relu <- conv4_6_sum_bn
I0703 18:06:33.264072 35388 net.cpp:397] conv4_6_sum_relu -> conv4_6_sum_bn (in-place)
I0703 18:06:33.264276 35388 net.cpp:150] Setting up conv4_6_sum_relu
I0703 18:06:33.264293 35388 net.cpp:157] Top shape: 32 1024 8 8 (2097152)
I0703 18:06:33.264302 35388 net.cpp:165] Memory required for data: 2081480832
I0703 18:06:33.264310 35388 layer_factory.hpp:76] Creating layer conv4_6_sum_bn_conv4_6_sum_relu_0_split
I0703 18:06:33.264323 35388 net.cpp:106] Creating Layer conv4_6_sum_bn_conv4_6_sum_relu_0_split
I0703 18:06:33.264335 35388 net.cpp:454] conv4_6_sum_bn_conv4_6_sum_relu_0_split <- conv4_6_sum_bn
I0703 18:06:33.264348 35388 net.cpp:411] conv4_6_sum_bn_conv4_6_sum_relu_0_split -> conv4_6_sum_bn_conv4_6_sum_relu_0_split_0
I0703 18:06:33.264358 35388 net.cpp:411] conv4_6_sum_bn_conv4_6_sum_relu_0_split -> conv4_6_sum_bn_conv4_6_sum_relu_0_split_1
I0703 18:06:33.264446 35388 net.cpp:150] Setting up conv4_6_sum_bn_conv4_6_sum_relu_0_split
I0703 18:06:33.264470 35388 net.cpp:157] Top shape: 32 1024 8 8 (2097152)
I0703 18:06:33.264480 35388 net.cpp:157] Top shape: 32 1024 8 8 (2097152)
I0703 18:06:33.264489 35388 net.cpp:165] Memory required for data: 2098258048
I0703 18:06:33.264502 35388 layer_factory.hpp:76] Creating layer conv4_7_1
I0703 18:06:33.264526 35388 net.cpp:106] Creating Layer conv4_7_1
I0703 18:06:33.264546 35388 net.cpp:454] conv4_7_1 <- conv4_6_sum_bn_conv4_6_sum_relu_0_split_0
I0703 18:06:33.264569 35388 net.cpp:411] conv4_7_1 -> conv4_7_1
I0703 18:06:33.274539 35388 cudnn_conv_layer.cpp:194] Reallocating workspace storage: 25165824
I0703 18:06:33.274799 35388 net.cpp:150] Setting up conv4_7_1
I0703 18:06:33.274822 35388 net.cpp:157] Top shape: 32 256 8 8 (524288)
I0703 18:06:33.274832 35388 net.cpp:165] Memory required for data: 2100355200
I0703 18:06:33.274852 35388 layer_factory.hpp:76] Creating layer conv4_7_1_bn
I0703 18:06:33.274871 35388 net.cpp:106] Creating Layer conv4_7_1_bn
I0703 18:06:33.274883 35388 net.cpp:454] conv4_7_1_bn <- conv4_7_1
I0703 18:06:33.274899 35388 net.cpp:411] conv4_7_1_bn -> conv4_7_1_bn
I0703 18:06:33.275171 35388 net.cpp:150] Setting up conv4_7_1_bn
I0703 18:06:33.275185 35388 net.cpp:157] Top shape: 32 256 8 8 (524288)
I0703 18:06:33.275193 35388 net.cpp:165] Memory required for data: 2102452352
I0703 18:06:33.275207 35388 layer_factory.hpp:76] Creating layer conv4_7_1_relu
I0703 18:06:33.275219 35388 net.cpp:106] Creating Layer conv4_7_1_relu
I0703 18:06:33.275228 35388 net.cpp:454] conv4_7_1_relu <- conv4_7_1_bn
I0703 18:06:33.275238 35388 net.cpp:397] conv4_7_1_relu -> conv4_7_1_bn (in-place)
I0703 18:06:33.275617 35388 net.cpp:150] Setting up conv4_7_1_relu
I0703 18:06:33.275640 35388 net.cpp:157] Top shape: 32 256 8 8 (524288)
I0703 18:06:33.275648 35388 net.cpp:165] Memory required for data: 2104549504
I0703 18:06:33.275657 35388 layer_factory.hpp:76] Creating layer conv4_7_2
I0703 18:06:33.275687 35388 net.cpp:106] Creating Layer conv4_7_2
I0703 18:06:33.275696 35388 net.cpp:454] conv4_7_2 <- conv4_7_1_bn
I0703 18:06:33.275709 35388 net.cpp:411] conv4_7_2 -> conv4_7_2
I0703 18:06:33.296093 35388 cudnn_conv_layer.cpp:194] Reallocating workspace storage: 27648
I0703 18:06:33.296151 35388 net.cpp:150] Setting up conv4_7_2
I0703 18:06:33.296172 35388 net.cpp:157] Top shape: 32 256 8 8 (524288)
I0703 18:06:33.296190 35388 net.cpp:165] Memory required for data: 2106646656
I0703 18:06:33.296205 35388 layer_factory.hpp:76] Creating layer conv4_7_2_bn
I0703 18:06:33.296222 35388 net.cpp:106] Creating Layer conv4_7_2_bn
I0703 18:06:33.296233 35388 net.cpp:454] conv4_7_2_bn <- conv4_7_2
I0703 18:06:33.296249 35388 net.cpp:411] conv4_7_2_bn -> conv4_7_2_bn
I0703 18:06:33.296602 35388 net.cpp:150] Setting up conv4_7_2_bn
I0703 18:06:33.296618 35388 net.cpp:157] Top shape: 32 256 8 8 (524288)
I0703 18:06:33.296627 35388 net.cpp:165] Memory required for data: 2108743808
I0703 18:06:33.296640 35388 layer_factory.hpp:76] Creating layer conv4_7_2_relu
I0703 18:06:33.296653 35388 net.cpp:106] Creating Layer conv4_7_2_relu
I0703 18:06:33.296663 35388 net.cpp:454] conv4_7_2_relu <- conv4_7_2_bn
I0703 18:06:33.296675 35388 net.cpp:397] conv4_7_2_relu -> conv4_7_2_bn (in-place)
I0703 18:06:33.297031 35388 net.cpp:150] Setting up conv4_7_2_relu
I0703 18:06:33.297050 35388 net.cpp:157] Top shape: 32 256 8 8 (524288)
I0703 18:06:33.297060 35388 net.cpp:165] Memory required for data: 2110840960
I0703 18:06:33.297068 35388 layer_factory.hpp:76] Creating layer conv4_7_3
I0703 18:06:33.297097 35388 net.cpp:106] Creating Layer conv4_7_3
I0703 18:06:33.297106 35388 net.cpp:454] conv4_7_3 <- conv4_7_2_bn
I0703 18:06:33.297118 35388 net.cpp:411] conv4_7_3 -> conv4_7_3
I0703 18:06:33.307186 35388 cudnn_conv_layer.cpp:194] Reallocating workspace storage: 3072
I0703 18:06:33.307251 35388 net.cpp:150] Setting up conv4_7_3
I0703 18:06:33.307288 35388 net.cpp:157] Top shape: 32 1024 8 8 (2097152)
I0703 18:06:33.307298 35388 net.cpp:165] Memory required for data: 2119229568
I0703 18:06:33.307313 35388 layer_factory.hpp:76] Creating layer conv4_7_sum
I0703 18:06:33.307332 35388 net.cpp:106] Creating Layer conv4_7_sum
I0703 18:06:33.307343 35388 net.cpp:454] conv4_7_sum <- conv4_6_sum_bn_conv4_6_sum_relu_0_split_1
I0703 18:06:33.307356 35388 net.cpp:454] conv4_7_sum <- conv4_7_3
I0703 18:06:33.307368 35388 net.cpp:411] conv4_7_sum -> conv4_7_sum
I0703 18:06:33.307412 35388 net.cpp:150] Setting up conv4_7_sum
I0703 18:06:33.307425 35388 net.cpp:157] Top shape: 32 1024 8 8 (2097152)
I0703 18:06:33.307432 35388 net.cpp:165] Memory required for data: 2127618176
I0703 18:06:33.307463 35388 layer_factory.hpp:76] Creating layer conv4_7_sum_bn
I0703 18:06:33.307479 35388 net.cpp:106] Creating Layer conv4_7_sum_bn
I0703 18:06:33.307487 35388 net.cpp:454] conv4_7_sum_bn <- conv4_7_sum
I0703 18:06:33.307497 35388 net.cpp:411] conv4_7_sum_bn -> conv4_7_sum_bn
I0703 18:06:33.307775 35388 net.cpp:150] Setting up conv4_7_sum_bn
I0703 18:06:33.307790 35388 net.cpp:157] Top shape: 32 1024 8 8 (2097152)
I0703 18:06:33.307797 35388 net.cpp:165] Memory required for data: 2136006784
I0703 18:06:33.307811 35388 layer_factory.hpp:76] Creating layer conv4_7_sum_relu
I0703 18:06:33.307823 35388 net.cpp:106] Creating Layer conv4_7_sum_relu
I0703 18:06:33.307832 35388 net.cpp:454] conv4_7_sum_relu <- conv4_7_sum_bn
I0703 18:06:33.307840 35388 net.cpp:397] conv4_7_sum_relu -> conv4_7_sum_bn (in-place)
I0703 18:06:33.308032 35388 net.cpp:150] Setting up conv4_7_sum_relu
I0703 18:06:33.308055 35388 net.cpp:157] Top shape: 32 1024 8 8 (2097152)
I0703 18:06:33.308064 35388 net.cpp:165] Memory required for data: 2144395392
I0703 18:06:33.308073 35388 layer_factory.hpp:76] Creating layer conv4_7_sum_bn_conv4_7_sum_relu_0_split
I0703 18:06:33.308087 35388 net.cpp:106] Creating Layer conv4_7_sum_bn_conv4_7_sum_relu_0_split
I0703 18:06:33.308099 35388 net.cpp:454] conv4_7_sum_bn_conv4_7_sum_relu_0_split <- conv4_7_sum_bn
I0703 18:06:33.308109 35388 net.cpp:411] conv4_7_sum_bn_conv4_7_sum_relu_0_split -> conv4_7_sum_bn_conv4_7_sum_relu_0_split_0
I0703 18:06:33.308120 35388 net.cpp:411] conv4_7_sum_bn_conv4_7_sum_relu_0_split -> conv4_7_sum_bn_conv4_7_sum_relu_0_split_1
I0703 18:06:33.308190 35388 net.cpp:150] Setting up conv4_7_sum_bn_conv4_7_sum_relu_0_split
I0703 18:06:33.308202 35388 net.cpp:157] Top shape: 32 1024 8 8 (2097152)
I0703 18:06:33.308210 35388 net.cpp:157] Top shape: 32 1024 8 8 (2097152)
I0703 18:06:33.308218 35388 net.cpp:165] Memory required for data: 2161172608
I0703 18:06:33.308226 35388 layer_factory.hpp:76] Creating layer conv4_8_1
I0703 18:06:33.308243 35388 net.cpp:106] Creating Layer conv4_8_1
I0703 18:06:33.308251 35388 net.cpp:454] conv4_8_1 <- conv4_7_sum_bn_conv4_7_sum_relu_0_split_0
I0703 18:06:33.308265 35388 net.cpp:411] conv4_8_1 -> conv4_8_1
I0703 18:06:33.318384 35388 cudnn_conv_layer.cpp:194] Reallocating workspace storage: 25165824
I0703 18:06:33.318682 35388 net.cpp:150] Setting up conv4_8_1
I0703 18:06:33.318706 35388 net.cpp:157] Top shape: 32 256 8 8 (524288)
I0703 18:06:33.318717 35388 net.cpp:165] Memory required for data: 2163269760
I0703 18:06:33.318740 35388 layer_factory.hpp:76] Creating layer conv4_8_1_bn
I0703 18:06:33.318759 35388 net.cpp:106] Creating Layer conv4_8_1_bn
I0703 18:06:33.318773 35388 net.cpp:454] conv4_8_1_bn <- conv4_8_1
I0703 18:06:33.318785 35388 net.cpp:411] conv4_8_1_bn -> conv4_8_1_bn
I0703 18:06:33.319073 35388 net.cpp:150] Setting up conv4_8_1_bn
I0703 18:06:33.319088 35388 net.cpp:157] Top shape: 32 256 8 8 (524288)
I0703 18:06:33.319097 35388 net.cpp:165] Memory required for data: 2165366912
I0703 18:06:33.319110 35388 layer_factory.hpp:76] Creating layer conv4_8_1_relu
…
I0703 18:06:34.375423 35388 net.cpp:411] conv4_32_1_bn -> conv4_32_1_bn
I0703 18:06:34.375756 35388 net.cpp:150] Setting up conv4_32_1_bn
I0703 18:06:34.375769 35388 net.cpp:157] Top shape: 32 256 8 8 (524288)
I0703 18:06:34.375777 35388 net.cpp:165] Memory required for data: 3675316352
I0703 18:06:34.375788 35388 layer_factory.hpp:76] Creating layer conv4_32_1_relu
I0703 18:06:34.375816 35388 net.cpp:106] Creating Layer conv4_32_1_relu
I0703 18:06:34.375825 35388 net.cpp:454] conv4_32_1_relu <- conv4_32_1_bn
I0703 18:06:34.375834 35388 net.cpp:397] conv4_32_1_relu -> conv4_32_1_bn (in-place)
I0703 18:06:34.376364 35388 net.cpp:150] Setting up conv4_32_1_relu
I0703 18:06:34.376384 35388 net.cpp:157] Top shape: 32 256 8 8 (524288)
I0703 18:06:34.376391 35388 net.cpp:165] Memory required for data: 3677413504
I0703 18:06:34.376399 35388 layer_factory.hpp:76] Creating layer conv4_32_2
I0703 18:06:34.376432 35388 net.cpp:106] Creating Layer conv4_32_2
I0703 18:06:34.376443 35388 net.cpp:454] conv4_32_2 <- conv4_32_1_bn
I0703 18:06:34.376456 35388 net.cpp:411] conv4_32_2 -> conv4_32_2
I0703 18:06:34.396844 35388 cudnn_conv_layer.cpp:194] Reallocating workspace storage: 27648
I0703 18:06:34.396888 35388 net.cpp:150] Setting up conv4_32_2
I0703 18:06:34.396903 35388 net.cpp:157] Top shape: 32 256 8 8 (524288)
I0703 18:06:34.396913 35388 net.cpp:165] Memory required for data: 3679510656
I0703 18:06:34.396926 35388 layer_factory.hpp:76] Creating layer conv4_32_2_bn
I0703 18:06:34.396958 35388 net.cpp:106] Creating Layer conv4_32_2_bn
I0703 18:06:34.396970 35388 net.cpp:454] conv4_32_2_bn <- conv4_32_2
I0703 18:06:34.396984 35388 net.cpp:411] conv4_32_2_bn -> conv4_32_2_bn
I0703 18:06:34.397213 35388 net.cpp:150] Setting up conv4_32_2_bn
I0703 18:06:34.397228 35388 net.cpp:157] Top shape: 32 256 8 8 (524288)
I0703 18:06:34.397235 35388 net.cpp:165] Memory required for data: 3681607808
I0703 18:06:34.397248 35388 layer_factory.hpp:76] Creating layer conv4_32_2_relu
I0703 18:06:34.397271 35388 net.cpp:106] Creating Layer conv4_32_2_relu
I0703 18:06:34.397280 35388 net.cpp:454] conv4_32_2_relu <- conv4_32_2_bn
I0703 18:06:34.397290 35388 net.cpp:397] conv4_32_2_relu -> conv4_32_2_bn (in-place)
I0703 18:06:34.397737 35388 net.cpp:150] Setting up conv4_32_2_relu
I0703 18:06:34.397756 35388 net.cpp:157] Top shape: 32 256 8 8 (524288)
I0703 18:06:34.397765 35388 net.cpp:165] Memory required for data: 3683704960
I0703 18:06:34.397774 35388 layer_factory.hpp:76] Creating layer conv4_32_3
I0703 18:06:34.397811 35388 net.cpp:106] Creating Layer conv4_32_3
I0703 18:06:34.397821 35388 net.cpp:454] conv4_32_3 <- conv4_32_2_bn
I0703 18:06:34.397835 35388 net.cpp:411] conv4_32_3 -> conv4_32_3
I0703 18:06:34.407996 35388 cudnn_conv_layer.cpp:194] Reallocating workspace storage: 3072
I0703 18:06:34.408071 35388 net.cpp:150] Setting up conv4_32_3
I0703 18:06:34.408087 35388 net.cpp:157] Top shape: 32 1024 8 8 (2097152)
I0703 18:06:34.408097 35388 net.cpp:165] Memory required for data: 3692093568
I0703 18:06:34.408109 35388 layer_factory.hpp:76] Creating layer conv4_32_sum
I0703 18:06:34.408125 35388 net.cpp:106] Creating Layer conv4_32_sum
I0703 18:06:34.408135 35388 net.cpp:454] conv4_32_sum <- conv4_31_sum_bn_conv4_31_sum_relu_0_split_1
I0703 18:06:34.408169 35388 net.cpp:454] conv4_32_sum <- conv4_32_3
I0703 18:06:34.408181 35388 net.cpp:411] conv4_32_sum -> conv4_32_sum
I0703 18:06:34.408220 35388 net.cpp:150] Setting up conv4_32_sum
I0703 18:06:34.408233 35388 net.cpp:157] Top shape: 32 1024 8 8 (2097152)
I0703 18:06:34.408241 35388 net.cpp:165] Memory required for data: 3700482176
I0703 18:06:34.408249 35388 layer_factory.hpp:76] Creating layer conv4_32_sum_bn
I0703 18:06:34.408263 35388 net.cpp:106] Creating Layer conv4_32_sum_bn
I0703 18:06:34.408272 35388 net.cpp:454] conv4_32_sum_bn <- conv4_32_sum
I0703 18:06:34.408283 35388 net.cpp:411] conv4_32_sum_bn -> conv4_32_sum_bn
I0703 18:06:34.408558 35388 net.cpp:150] Setting up conv4_32_sum_bn
I0703 18:06:34.408576 35388 net.cpp:157] Top shape: 32 1024 8 8 (2097152)
I0703 18:06:34.408583 35388 net.cpp:165] Memory required for data: 3708870784
I0703 18:06:34.408596 35388 layer_factory.hpp:76] Creating layer conv4_32_sum_relu
I0703 18:06:34.408608 35388 net.cpp:106] Creating Layer conv4_32_sum_relu
I0703 18:06:34.408617 35388 net.cpp:454] conv4_32_sum_relu <- conv4_32_sum_bn
I0703 18:06:34.408627 35388 net.cpp:397] conv4_32_sum_relu -> conv4_32_sum_bn (in-place)
I0703 18:06:34.408877 35388 net.cpp:150] Setting up conv4_32_sum_relu
I0703 18:06:34.408895 35388 net.cpp:157] Top shape: 32 1024 8 8 (2097152)
I0703 18:06:34.408905 35388 net.cpp:165] Memory required for data: 3717259392
I0703 18:06:34.408915 35388 layer_factory.hpp:76] Creating layer conv4_32_sum_bn_conv4_32_sum_relu_0_split
I0703 18:06:34.408926 35388 net.cpp:106] Creating Layer conv4_32_sum_bn_conv4_32_sum_relu_0_split
I0703 18:06:34.408936 35388 net.cpp:454] conv4_32_sum_bn_conv4_32_sum_relu_0_split <- conv4_32_sum_bn
I0703 18:06:34.408948 35388 net.cpp:411] conv4_32_sum_bn_conv4_32_sum_relu_0_split -> conv4_32_sum_bn_conv4_32_sum_relu_0_split_0
I0703 18:06:34.408960 35388 net.cpp:411] conv4_32_sum_bn_conv4_32_sum_relu_0_split -> conv4_32_sum_bn_conv4_32_sum_relu_0_split_1
I0703 18:06:34.409013 35388 net.cpp:150] Setting up conv4_32_sum_bn_conv4_32_sum_relu_0_split
I0703 18:06:34.409025 35388 net.cpp:157] Top shape: 32 1024 8 8 (2097152)
I0703 18:06:34.409034 35388 net.cpp:157] Top shape: 32 1024 8 8 (2097152)
I0703 18:06:34.409042 35388 net.cpp:165] Memory required for data: 3734036608
I0703 18:06:34.409051 35388 layer_factory.hpp:76] Creating layer conv4_33_1
I0703 18:06:34.409068 35388 net.cpp:106] Creating Layer conv4_33_1
I0703 18:06:34.409078 35388 net.cpp:454] conv4_33_1 <- conv4_32_sum_bn_conv4_32_sum_relu_0_split_0
I0703 18:06:34.409088 35388 net.cpp:411] conv4_33_1 -> conv4_33_1
I0703 18:06:34.419186 35388 cudnn_conv_layer.cpp:194] Reallocating workspace storage: 25165824
I0703 18:06:34.419451 35388 net.cpp:150] Setting up conv4_33_1
I0703 18:06:34.419471 35388 net.cpp:157] Top shape: 32 256 8 8 (524288)
I0703 18:06:34.419481 35388 net.cpp:165] Memory required for data: 3736133760
I0703 18:06:34.419505 35388 layer_factory.hpp:76] Creating layer conv4_33_1_bn
I0703 18:06:34.419522 35388 net.cpp:106] Creating Layer conv4_33_1_bn
I0703 18:06:34.419533 35388 net.cpp:454] conv4_33_1_bn <- conv4_33_1
I0703 18:06:34.419546 35388 net.cpp:411] conv4_33_1_bn -> conv4_33_1_bn
I0703 18:06:34.419775 35388 net.cpp:150] Setting up conv4_33_1_bn
I0703 18:06:34.419790 35388 net.cpp:157] Top shape: 32 256 8 8 (524288)
I0703 18:06:34.419797 35388 net.cpp:165] Memory required for data: 3738230912
I0703 18:06:34.419811 35388 layer_factory.hpp:76] Creating layer conv4_33_1_relu
I0703 18:06:34.419834 35388 net.cpp:106] Creating Layer conv4_33_1_relu
I0703 18:06:34.419843 35388 net.cpp:454] conv4_33_1_relu <- conv4_33_1_bn
I0703 18:06:34.419853 35388 net.cpp:397] conv4_33_1_relu -> conv4_33_1_bn (in-place)
I0703 18:06:34.420310 35388 net.cpp:150] Setting up conv4_33_1_relu
I0703 18:06:34.420330 35388 net.cpp:157] Top shape: 32 256 8 8 (524288)
I0703 18:06:34.420338 35388 net.cpp:165] Memory required for data: 3740328064
I0703 18:06:34.420348 35388 layer_factory.hpp:76] Creating layer conv4_33_2
I0703 18:06:34.420377 35388 net.cpp:106] Creating Layer conv4_33_2
I0703 18:06:34.420403 35388 net.cpp:454] conv4_33_2 <- conv4_33_1_bn
I0703 18:06:34.420418 35388 net.cpp:411] conv4_33_2 -> conv4_33_2
I0703 18:06:34.441294 35388 cudnn_conv_layer.cpp:194] Reallocating workspace storage: 27648
I0703 18:06:34.441342 35388 net.cpp:150] Setting up conv4_33_2
I0703 18:06:34.441356 35388 net.cpp:157] Top shape: 32 256 8 8 (524288)
I0703 18:06:34.441365 35388 net.cpp:165] Memory required for data: 3742425216
I0703 18:06:34.441390 35388 layer_factory.hpp:76] Creating layer conv4_33_2_bn
I0703 18:06:34.441406 35388 net.cpp:106] Creating Layer conv4_33_2_bn
I0703 18:06:34.441417 35388 net.cpp:454] conv4_33_2_bn <- conv4_33_2
I0703 18:06:34.441431 35388 net.cpp:411] conv4_33_2_bn -> conv4_33_2_bn
I0703 18:06:34.441663 35388 net.cpp:150] Setting up conv4_33_2_bn
I0703 18:06:34.441678 35388 net.cpp:157] Top shape: 32 256 8 8 (524288)
I0703 18:06:34.441685 35388 net.cpp:165] Memory required for data: 3744522368
I0703 18:06:34.441699 35388 layer_factory.hpp:76] Creating layer conv4_33_2_relu
I0703 18:06:34.441725 35388 net.cpp:106] Creating Layer conv4_33_2_relu
I0703 18:06:34.441735 35388 net.cpp:454] conv4_33_2_relu <- conv4_33_2_bn
I0703 18:06:34.441745 35388 net.cpp:397] conv4_33_2_relu -> conv4_33_2_bn (in-place)
I0703 18:06:34.442193 35388 net.cpp:150] Setting up conv4_33_2_relu
I0703 18:06:34.442212 35388 net.cpp:157] Top shape: 32 256 8 8 (524288)
I0703 18:06:34.442221 35388 net.cpp:165] Memory required for data: 3746619520
I0703 18:06:34.442230 35388 layer_factory.hpp:76] Creating layer conv4_33_3
I0703 18:06:34.442258 35388 net.cpp:106] Creating Layer conv4_33_3
I0703 18:06:34.442271 35388 net.cpp:454] conv4_33_3 <- conv4_33_2_bn
I0703 18:06:34.442282 35388 net.cpp:411] conv4_33_3 -> conv4_33_3
I0703 18:06:34.452594 35388 cudnn_conv_layer.cpp:194] Reallocating workspace storage: 3072
I0703 18:06:34.452673 35388 net.cpp:150] Setting up conv4_33_3
I0703 18:06:34.452690 35388 net.cpp:157] Top shape: 32 1024 8 8 (2097152)
I0703 18:06:34.452699 35388 net.cpp:165] Memory required for data: 3755008128
I0703 18:06:34.452714 35388 layer_factory.hpp:76] Creating layer conv4_33_sum
I0703 18:06:34.452729 35388 net.cpp:106] Creating Layer conv4_33_sum
I0703 18:06:34.452739 35388 net.cpp:454] conv4_33_sum <- conv4_32_sum_bn_conv4_32_sum_relu_0_split_1
I0703 18:06:34.452750 35388 net.cpp:454] conv4_33_sum <- conv4_33_3
I0703 18:06:34.452762 35388 net.cpp:411] conv4_33_sum -> conv4_33_sum
I0703 18:06:34.452801 35388 net.cpp:150] Setting up conv4_33_sum
I0703 18:06:34.452836 35388 net.cpp:157] Top shape: 32 1024 8 8 (2097152)
I0703 18:06:34.452844 35388 net.cpp:165] Memory required for data: 3763396736
I0703 18:06:34.452852 35388 layer_factory.hpp:76] Creating layer conv4_33_sum_bn
I0703 18:06:34.452867 35388 net.cpp:106] Creating Layer conv4_33_sum_bn
I0703 18:06:34.452875 35388 net.cpp:454] conv4_33_sum_bn <- conv4_33_sum
I0703 18:06:34.452885 35388 net.cpp:411] conv4_33_sum_bn -> conv4_33_sum_bn
I0703 18:06:34.453194 35388 net.cpp:150] Setting up conv4_33_sum_bn
I0703 18:06:34.453210 35388 net.cpp:157] Top shape: 32 1024 8 8 (2097152)
I0703 18:06:34.453218 35388 net.cpp:165] Memory required for data: 3771785344
I0703 18:06:34.453230 35388 layer_factory.hpp:76] Creating layer conv4_33_sum_relu
I0703 18:06:34.453255 35388 net.cpp:106] Creating Layer conv4_33_sum_relu
I0703 18:06:34.453264 35388 net.cpp:454] conv4_33_sum_relu <- conv4_33_sum_bn
I0703 18:06:34.453276 35388 net.cpp:397] conv4_33_sum_relu -> conv4_33_sum_bn (in-place)
I0703 18:06:34.453750 35388 net.cpp:150] Setting up conv4_33_sum_relu
I0703 18:06:34.453770 35388 net.cpp:157] Top shape: 32 1024 8 8 (2097152)
I0703 18:06:34.453779 35388 net.cpp:165] Memory required for data: 3780173952
I0703 18:06:34.453788 35388 layer_factory.hpp:76] Creating layer conv4_33_sum_bn_conv4_33_sum_relu_0_split
I0703 18:06:34.453814 35388 net.cpp:106] Creating Layer conv4_33_sum_bn_conv4_33_sum_relu_0_split
I0703 18:06:34.453824 35388 net.cpp:454] conv4_33_sum_bn_conv4_33_sum_relu_0_split <- conv4_33_sum_bn
I0703 18:06:34.453856 35388 net.cpp:411] conv4_33_sum_bn_conv4_33_sum_relu_0_split -> conv4_33_sum_bn_conv4_33_sum_relu_0_split_0
I0703 18:06:34.453869 35388 net.cpp:411] conv4_33_sum_bn_conv4_33_sum_relu_0_split -> conv4_33_sum_bn_conv4_33_sum_relu_0_split_1
I0703 18:06:34.453928 35388 net.cpp:150] Setting up conv4_33_sum_bn_conv4_33_sum_relu_0_split
I0703 18:06:34.453940 35388 net.cpp:157] Top shape: 32 1024 8 8 (2097152)
I0703 18:06:34.453960 35388 net.cpp:157] Top shape: 32 1024 8 8 (2097152)
I0703 18:06:34.453969 35388 net.cpp:165] Memory required for data: 3796951168
I0703 18:06:34.453989 35388 layer_factory.hpp:76] Creating layer conv4_34_1
I0703 18:06:34.454008 35388 net.cpp:106] Creating Layer conv4_34_1
I0703 18:06:34.454018 35388 net.cpp:454] conv4_34_1 <- conv4_33_sum_bn_conv4_33_sum_relu_0_split_0
I0703 18:06:34.454030 35388 net.cpp:411] conv4_34_1 -> conv4_34_1
I0703 18:06:34.464186 35388 cudnn_conv_layer.cpp:194] Reallocating workspace storage: 25165824
I0703 18:06:34.464462 35388 net.cpp:150] Setting up conv4_34_1
I0703 18:06:34.464484 35388 net.cpp:157] Top shape: 32 256 8 8 (524288)
I0703 18:06:34.464494 35388 net.cpp:165] Memory required for data: 3799048320
I0703 18:06:34.464519 35388 layer_factory.hpp:76] Creating layer conv4_34_1_bn
I0703 18:06:34.464536 35388 net.cpp:106] Creating Layer conv4_34_1_bn
I0703 18:06:34.464547 35388 net.cpp:454] conv4_34_1_bn <- conv4_34_1
I0703 18:06:34.464561 35388 net.cpp:411] conv4_34_1_bn -> conv4_34_1_bn
I0703 18:06:34.464794 35388 net.cpp:150] Setting up conv4_34_1_bn
I0703 18:06:34.464809 35388 net.cpp:157] Top shape: 32 256 8 8 (524288)
I0703 18:06:34.464818 35388 net.cpp:165] Memory required for data: 3801145472
I0703 18:06:34.464829 35388 layer_factory.hpp:76] Creating layer conv4_34_1_relu
I0703 18:06:34.464854 35388 net.cpp:106] Creating Layer conv4_34_1_relu
I0703 18:06:34.464864 35388 net.cpp:454] conv4_34_1_relu <- conv4_34_1_bn
I0703 18:06:34.464874 35388 net.cpp:397] conv4_34_1_relu -> conv4_34_1_bn (in-place)
I0703 18:06:34.465313 35388 net.cpp:150] Setting up conv4_34_1_relu
I0703 18:06:34.465333 35388 net.cpp:157] Top shape: 32 256 8 8 (524288)
I0703 18:06:34.465342 35388 net.cpp:165] Memory required for data: 3803242624
I0703 18:06:34.465353 35388 layer_factory.hpp:76] Creating layer conv4_34_2
I0703 18:06:34.465380 35388 net.cpp:106] Creating Layer conv4_34_2
I0703 18:06:34.465390 35388 net.cpp:454] conv4_34_2 <- conv4_34_1_bn
I0703 18:06:34.465404 35388 net.cpp:411] conv4_34_2 -> conv4_34_2
I0703 18:06:34.486318 35388 cudnn_conv_layer.cpp:194] Reallocating workspace storage: 27648
I0703 18:06:34.486363 35388 net.cpp:150] Setting up conv4_34_2
I0703 18:06:34.486378 35388 net.cpp:157] Top shape: 32 256 8 8 (524288)
I0703 18:06:34.486387 35388 net.cpp:165] Memory required for data: 3805339776
I0703 18:06:34.486413 35388 layer_factory.hpp:76] Creating layer conv4_34_2_bn
I0703 18:06:34.486428 35388 net.cpp:106] Creating Layer conv4_34_2_bn
I0703 18:06:34.486438 35388 net.cpp:454] conv4_34_2_bn <- conv4_34_2
I0703 18:06:34.486454 35388 net.cpp:411] conv4_34_2_bn -> conv4_34_2_bn
I0703 18:06:34.486690 35388 net.cpp:150] Setting up conv4_34_2_bn
I0703 18:06:34.486704 35388 net.cpp:157] Top shape: 32 256 8 8 (524288)
I0703 18:06:34.486712 35388 net.cpp:165] Memory required for data: 3807436928
I0703 18:06:34.486726 35388 layer_factory.hpp:76] Creating layer conv4_34_2_relu
I0703 18:06:34.486752 35388 net.cpp:106] Creating Layer conv4_34_2_relu
I0703 18:06:34.486760 35388 net.cpp:454] conv4_34_2_relu <- conv4_34_2_bn
I0703 18:06:34.486770 35388 net.cpp:397] conv4_34_2_relu -> conv4_34_2_bn (in-place)
I0703 18:06:34.487192 35388 net.cpp:150] Setting up conv4_34_2_relu
I0703 18:06:34.487212 35388 net.cpp:157] Top shape: 32 256 8 8 (524288)
I0703 18:06:34.487221 35388 net.cpp:165] Memory required for data: 3809534080
I0703 18:06:34.487231 35388 layer_factory.hpp:76] Creating layer conv4_34_3
I0703 18:06:34.487263 35388 net.cpp:106] Creating Layer conv4_34_3
I0703 18:06:34.487273 35388 net.cpp:454] conv4_34_3 <- conv4_34_2_bn
I0703 18:06:34.487285 35388 net.cpp:411] conv4_34_3 -> conv4_34_3
I0703 18:06:34.497586 35388 cudnn_conv_layer.cpp:194] Reallocating workspace storage: 3072
I0703 18:06:34.497666 35388 net.cpp:150] Setting up conv4_34_3
I0703 18:06:34.497683 35388 net.cpp:157] Top shape: 32 1024 8 8 (2097152)
I0703 18:06:34.497691 35388 net.cpp:165] Memory required for data: 3817922688
I0703 18:06:34.497705 35388 layer_factory.hpp:76] Creating layer conv4_34_sum
I0703 18:06:34.497720 35388 net.cpp:106] Creating Layer conv4_34_sum
I0703 18:06:34.497730 35388 net.cpp:454] conv4_34_sum <- conv4_33_sum_bn_conv4_33_sum_relu_0_split_1
I0703 18:06:34.497741 35388 net.cpp:454] conv4_34_sum <- conv4_34_3
I0703 18:06:34.497753 35388 net.cpp:411] conv4_34_sum -> conv4_34_sum
I0703 18:06:34.497792 35388 net.cpp:150] Setting up conv4_34_sum
I0703 18:06:34.497829 35388 net.cpp:157] Top shape: 32 1024 8 8 (2097152)
I0703 18:06:34.497838 35388 net.cpp:165] Memory required for data: 3826311296
I0703 18:06:34.497846 35388 layer_factory.hpp:76] Creating layer conv4_34_sum_bn
I0703 18:06:34.497859 35388 net.cpp:106] Creating Layer conv4_34_sum_bn
I0703 18:06:34.497867 35388 net.cpp:454] conv4_34_sum_bn <- conv4_34_sum
I0703 18:06:34.497879 35388 net.cpp:411] conv4_34_sum_bn -> conv4_34_sum_bn
I0703 18:06:34.498190 35388 net.cpp:150] Setting up conv4_34_sum_bn
I0703 18:06:34.498208 35388 net.cpp:157] Top shape: 32 1024 8 8 (2097152)
I0703 18:06:34.498215 35388 net.cpp:165] Memory required for data: 3834699904
I0703 18:06:34.498229 35388 layer_factory.hpp:76] Creating layer conv4_34_sum_relu
I0703 18:06:34.498253 35388 net.cpp:106] Creating Layer conv4_34_sum_relu
I0703 18:06:34.498262 35388 net.cpp:454] conv4_34_sum_relu <- conv4_34_sum_bn
I0703 18:06:34.498275 35388 net.cpp:397] conv4_34_sum_relu -> conv4_34_sum_bn (in-place)
I0703 18:06:34.498535 35388 net.cpp:150] Setting up conv4_34_sum_relu
I0703 18:06:34.498554 35388 net.cpp:157] Top shape: 32 1024 8 8 (2097152)
I0703 18:06:34.498569 35388 net.cpp:165] Memory required for data: 3843088512
I0703 18:06:34.498579 35388 layer_factory.hpp:76] Creating layer conv4_34_sum_bn_conv4_34_sum_relu_0_split
I0703 18:06:34.498603 35388 net.cpp:106] Creating Layer conv4_34_sum_bn_conv4_34_sum_relu_0_split
I0703 18:06:34.498613 35388 net.cpp:454] conv4_34_sum_bn_conv4_34_sum_relu_0_split <- conv4_34_sum_bn
I0703 18:06:34.498623 35388 net.cpp:411] conv4_34_sum_bn_conv4_34_sum_relu_0_split -> conv4_34_sum_bn_conv4_34_sum_relu_0_split_0
I0703 18:06:34.498636 35388 net.cpp:411] conv4_34_sum_bn_conv4_34_sum_relu_0_split -> conv4_34_sum_bn_conv4_34_sum_relu_0_split_1
I0703 18:06:34.498692 35388 net.cpp:150] Setting up conv4_34_sum_bn_conv4_34_sum_relu_0_split
I0703 18:06:34.498703 35388 net.cpp:157] Top shape: 32 1024 8 8 (2097152)
I0703 18:06:34.498723 35388 net.cpp:157] Top shape: 32 1024 8 8 (2097152)
I0703 18:06:34.498731 35388 net.cpp:165] Memory required for data: 3859865728
I0703 18:06:34.498740 35388 layer_factory.hpp:76] Creating layer conv4_35_1
I0703 18:06:34.498754 35388 net.cpp:106] Creating Layer conv4_35_1
I0703 18:06:34.498775 35388 net.cpp:454] conv4_35_1 <- conv4_34_sum_bn_conv4_34_sum_relu_0_split_0
I0703 18:06:34.498788 35388 net.cpp:411] conv4_35_1 -> conv4_35_1
I0703 18:06:34.508978 35388 cudnn_conv_layer.cpp:194] Reallocating workspace storage: 25165824
I0703 18:06:34.509249 35388 net.cpp:150] Setting up conv4_35_1
I0703 18:06:34.509269 35388 net.cpp:157] Top shape: 32 256 8 8 (524288)
I0703 18:06:34.509279 35388 net.cpp:165] Memory required for data: 3861962880
I0703 18:06:34.509305 35388 layer_factory.hpp:76] Creating layer conv4_35_1_bn
I0703 18:06:34.509320 35388 net.cpp:106] Creating Layer conv4_35_1_bn
I0703 18:06:34.509328 35388 net.cpp:454] conv4_35_1_bn <- conv4_35_1
I0703 18:06:34.509342 35388 net.cpp:411] conv4_35_1_bn -> conv4_35_1_bn
I0703 18:06:34.509579 35388 net.cpp:150] Setting up conv4_35_1_bn
I0703 18:06:34.509594 35388 net.cpp:157] Top shape: 32 256 8 8 (524288)
I0703 18:06:34.509603 35388 net.cpp:165] Memory required for data: 3864060032
I0703 18:06:34.509614 35388 layer_factory.hpp:76] Creating layer conv4_35_1_relu
I0703 18:06:34.509660 35388 net.cpp:106] Creating Layer conv4_35_1_relu
I0703 18:06:34.509670 35388 net.cpp:454] conv4_35_1_relu <- conv4_35_1_bn
I0703 18:06:34.509680 35388 net.cpp:397] conv4_35_1_relu -> conv4_35_1_bn (in-place)
I0703 18:06:34.510138 35388 net.cpp:150] Setting up conv4_35_1_relu
I0703 18:06:34.510157 35388 net.cpp:157] Top shape: 32 256 8 8 (524288)
I0703 18:06:34.510166 35388 net.cpp:165] Memory required for data: 3866157184
I0703 18:06:34.510175 35388 layer_factory.hpp:76] Creating layer conv4_35_2
I0703 18:06:34.510202 35388 net.cpp:106] Creating Layer conv4_35_2
I0703 18:06:34.510212 35388 net.cpp:454] conv4_35_2 <- conv4_35_1_bn
I0703 18:06:34.510226 35388 net.cpp:411] conv4_35_2 -> conv4_35_2
I0703 18:06:34.531214 35388 cudnn_conv_layer.cpp:194] Reallocating workspace storage: 27648
I0703 18:06:34.531260 35388 net.cpp:150] Setting up conv4_35_2
I0703 18:06:34.531275 35388 net.cpp:157] Top shape: 32 256 8 8 (524288)
I0703 18:06:34.531285 35388 net.cpp:165] Memory required for data: 3868254336
I0703 18:06:34.531311 35388 layer_factory.hpp:76] Creating layer conv4_35_2_bn
I0703 18:06:34.531329 35388 net.cpp:106] Creating Layer conv4_35_2_bn
I0703 18:06:34.531340 35388 net.cpp:454] conv4_35_2_bn <- conv4_35_2
I0703 18:06:34.531352 35388 net.cpp:411] conv4_35_2_bn -> conv4_35_2_bn
I0703 18:06:34.531591 35388 net.cpp:150] Setting up conv4_35_2_bn
I0703 18:06:34.531605 35388 net.cpp:157] Top shape: 32 256 8 8 (524288)
I0703 18:06:34.531613 35388 net.cpp:165] Memory required for data: 3870351488
I0703 18:06:34.531626 35388 layer_factory.hpp:76] Creating layer conv4_35_2_relu
I0703 18:06:34.531651 35388 net.cpp:106] Creating Layer conv4_35_2_relu
I0703 18:06:34.531661 35388 net.cpp:454] conv4_35_2_relu <- conv4_35_2_bn
I0703 18:06:34.531669 35388 net.cpp:397] conv4_35_2_relu -> conv4_35_2_bn (in-place)
I0703 18:06:34.532135 35388 net.cpp:150] Setting up conv4_35_2_relu
I0703 18:06:34.532155 35388 net.cpp:157] Top shape: 32 256 8 8 (524288)
I0703 18:06:34.532163 35388 net.cpp:165] Memory required for data: 3872448640
I0703 18:06:34.532172 35388 layer_factory.hpp:76] Creating layer conv4_35_3
I0703 18:06:34.532201 35388 net.cpp:106] Creating Layer conv4_35_3
I0703 18:06:34.532210 35388 net.cpp:454] conv4_35_3 <- conv4_35_2_bn
I0703 18:06:34.532222 35388 net.cpp:411] conv4_35_3 -> conv4_35_3
I0703 18:06:34.542654 35388 cudnn_conv_layer.cpp:194] Reallocating workspace storage: 3072
I0703 18:06:34.542732 35388 net.cpp:150] Setting up conv4_35_3
I0703 18:06:34.542748 35388 net.cpp:157] Top shape: 32 1024 8 8 (2097152)
I0703 18:06:34.542757 35388 net.cpp:165] Memory required for data: 3880837248
I0703 18:06:34.542770 35388 layer_factory.hpp:76] Creating layer conv4_35_sum
I0703 18:06:34.542786 35388 net.cpp:106] Creating Layer conv4_35_sum
I0703 18:06:34.542798 35388 net.cpp:454] conv4_35_sum <- conv4_34_sum_bn_conv4_34_sum_relu_0_split_1
I0703 18:06:34.542809 35388 net.cpp:454] conv4_35_sum <- conv4_35_3
I0703 18:06:34.542819 35388 net.cpp:411] conv4_35_sum -> conv4_35_sum
I0703 18:06:34.542860 35388 net.cpp:150] Setting up conv4_35_sum
I0703 18:06:34.542893 35388 net.cpp:157] Top shape: 32 1024 8 8 (2097152)
I0703 18:06:34.542902 35388 net.cpp:165] Memory required for data: 3889225856
I0703 18:06:34.542911 35388 layer_factory.hpp:76] Creating layer conv4_35_sum_bn
I0703 18:06:34.543061 35388 net.cpp:106] Creating Layer conv4_35_sum_bn
I0703 18:06:34.543076 35388 net.cpp:454] conv4_35_sum_bn <- conv4_35_sum
I0703 18:06:34.543087 35388 net.cpp:411] conv4_35_sum_bn -> conv4_35_sum_bn
I0703 18:06:34.543406 35388 net.cpp:150] Setting up conv4_35_sum_bn
I0703 18:06:34.543421 35388 net.cpp:157] Top shape: 32 1024 8 8 (2097152)
I0703 18:06:34.543431 35388 net.cpp:165] Memory required for data: 3897614464
I0703 18:06:34.543443 35388 layer_factory.hpp:76] Creating layer conv4_35_sum_relu
I0703 18:06:34.543467 35388 net.cpp:106] Creating Layer conv4_35_sum_relu
I0703 18:06:34.543478 35388 net.cpp:454] conv4_35_sum_relu <- conv4_35_sum_bn
I0703 18:06:34.543488 35388 net.cpp:397] conv4_35_sum_relu -> conv4_35_sum_bn (in-place)
I0703 18:06:34.543797 35388 net.cpp:150] Setting up conv4_35_sum_relu
I0703 18:06:34.543815 35388 net.cpp:157] Top shape: 32 1024 8 8 (2097152)
I0703 18:06:34.543823 35388 net.cpp:165] Memory required for data: 3906003072
I0703 18:06:34.543833 35388 layer_factory.hpp:76] Creating layer conv4_35_sum_bn_conv4_35_sum_relu_0_split
I0703 18:06:34.543855 35388 net.cpp:106] Creating Layer conv4_35_sum_bn_conv4_35_sum_relu_0_split
I0703 18:06:34.543865 35388 net.cpp:454] conv4_35_sum_bn_conv4_35_sum_relu_0_split <- conv4_35_sum_bn
I0703 18:06:34.543877 35388 net.cpp:411] conv4_35_sum_bn_conv4_35_sum_relu_0_split -> conv4_35_sum_bn_conv4_35_sum_relu_0_split_0
I0703 18:06:34.543890 35388 net.cpp:411] conv4_35_sum_bn_conv4_35_sum_relu_0_split -> conv4_35_sum_bn_conv4_35_sum_relu_0_split_1
I0703 18:06:34.543959 35388 net.cpp:150] Setting up conv4_35_sum_bn_conv4_35_sum_relu_0_split
I0703 18:06:34.543972 35388 net.cpp:157] Top shape: 32 1024 8 8 (2097152)
I0703 18:06:34.543980 35388 net.cpp:157] Top shape: 32 1024 8 8 (2097152)
I0703 18:06:34.544003 35388 net.cpp:165] Memory required for data: 3922780288
I0703 18:06:34.544010 35388 layer_factory.hpp:76] Creating layer conv4_36_1
I0703 18:06:34.544024 35388 net.cpp:106] Creating Layer conv4_36_1
I0703 18:06:34.544034 35388 net.cpp:454] conv4_36_1 <- conv4_35_sum_bn_conv4_35_sum_relu_0_split_0
I0703 18:06:34.544044 35388 net.cpp:411] conv4_36_1 -> conv4_36_1
I0703 18:06:34.554507 35388 cudnn_conv_layer.cpp:194] Reallocating workspace storage: 25165824
I0703 18:06:34.554779 35388 net.cpp:150] Setting up conv4_36_1
I0703 18:06:34.554798 35388 net.cpp:157] Top shape: 32 256 8 8 (524288)
I0703 18:06:34.554808 35388 net.cpp:165] Memory required for data: 3924877440
I0703 18:06:34.554833 35388 layer_factory.hpp:76] Creating layer conv4_36_1_bn
I0703 18:06:34.554849 35388 net.cpp:106] Creating Layer conv4_36_1_bn
I0703 18:06:34.554860 35388 net.cpp:454] conv4_36_1_bn <- conv4_36_1
I0703 18:06:34.554874 35388 net.cpp:411] conv4_36_1_bn -> conv4_36_1_bn
I0703 18:06:34.555117 35388 net.cpp:150] Setting up conv4_36_1_bn
I0703 18:06:34.555132 35388 net.cpp:157] Top shape: 32 256 8 8 (524288)
I0703 18:06:34.555140 35388 net.cpp:165] Memory required for data: 3926974592
I0703 18:06:34.555153 35388 layer_factory.hpp:76] Creating layer conv4_36_1_relu
I0703 18:06:34.555178 35388 net.cpp:106] Creating Layer conv4_36_1_relu
I0703 18:06:34.555187 35388 net.cpp:454] conv4_36_1_relu <- conv4_36_1_bn
I0703 18:06:34.555197 35388 net.cpp:397] conv4_36_1_relu -> conv4_36_1_bn (in-place)
I0703 18:06:34.555647 35388 net.cpp:150] Setting up conv4_36_1_relu
I0703 18:06:34.555670 35388 net.cpp:157] Top shape: 32 256 8 8 (524288)
I0703 18:06:34.555678 35388 net.cpp:165] Memory required for data: 3929071744
I0703 18:06:34.555687 35388 layer_factory.hpp:76] Creating layer conv4_36_2
I0703 18:06:34.555713 35388 net.cpp:106] Creating Layer conv4_36_2
I0703 18:06:34.555722 35388 net.cpp:454] conv4_36_2 <- conv4_36_1_bn
I0703 18:06:34.555737 35388 net.cpp:411] conv4_36_2 -> conv4_36_2
I0703 18:06:34.577149 35388 cudnn_conv_layer.cpp:194] Reallocating workspace storage: 27648
I0703 18:06:34.577191 35388 net.cpp:150] Setting up conv4_36_2
I0703 18:06:34.577205 35388 net.cpp:157] Top shape: 32 256 8 8 (524288)
I0703 18:06:34.577214 35388 net.cpp:165] Memory required for data: 3931168896
I0703 18:06:34.577241 35388 layer_factory.hpp:76] Creating layer conv4_36_2_bn
I0703 18:06:34.577260 35388 net.cpp:106] Creating Layer conv4_36_2_bn
I0703 18:06:34.577270 35388 net.cpp:454] conv4_36_2_bn <- conv4_36_2
I0703 18:06:34.577282 35388 net.cpp:411] conv4_36_2_bn -> conv4_36_2_bn
I0703 18:06:34.577525 35388 net.cpp:150] Setting up conv4_36_2_bn
I0703 18:06:34.577540 35388 net.cpp:157] Top shape: 32 256 8 8 (524288)
I0703 18:06:34.577548 35388 net.cpp:165] Memory required for data: 3933266048
I0703 18:06:34.577563 35388 layer_factory.hpp:76] Creating layer conv4_36_2_relu
I0703 18:06:34.577587 35388 net.cpp:106] Creating Layer conv4_36_2_relu
I0703 18:06:34.577596 35388 net.cpp:454] conv4_36_2_relu <- conv4_36_2_bn
I0703 18:06:34.577606 35388 net.cpp:397] conv4_36_2_relu -> conv4_36_2_bn (in-place)
I0703 18:06:34.578100 35388 net.cpp:150] Setting up conv4_36_2_relu
I0703 18:06:34.578121 35388 net.cpp:157] Top shape: 32 256 8 8 (524288)
I0703 18:06:34.578130 35388 net.cpp:165] Memory required for data: 3935363200
I0703 18:06:34.578138 35388 layer_factory.hpp:76] Creating layer conv4_36_3
I0703 18:06:34.578166 35388 net.cpp:106] Creating Layer conv4_36_3
I0703 18:06:34.578176 35388 net.cpp:454] conv4_36_3 <- conv4_36_2_bn
I0703 18:06:34.578189 35388 net.cpp:411] conv4_36_3 -> conv4_36_3
I0703 18:06:34.588482 35388 cudnn_conv_layer.cpp:194] Reallocating workspace storage: 3072
I0703 18:06:34.588568 35388 net.cpp:150] Setting up conv4_36_3
I0703 18:06:34.588584 35388 net.cpp:157] Top shape: 32 1024 8 8 (2097152)
I0703 18:06:34.588594 35388 net.cpp:165] Memory required for data: 3943751808
I0703 18:06:34.588608 35388 layer_factory.hpp:76] Creating layer conv4_36_sum
I0703 18:06:34.588626 35388 net.cpp:106] Creating Layer conv4_36_sum
I0703 18:06:34.588639 35388 net.cpp:454] conv4_36_sum <- conv4_35_sum_bn_conv4_35_sum_relu_0_split_1
I0703 18:06:34.588650 35388 net.cpp:454] conv4_36_sum <- conv4_36_3
I0703 18:06:34.588661 35388 net.cpp:411] conv4_36_sum -> conv4_36_sum
I0703 18:06:34.588702 35388 net.cpp:150] Setting up conv4_36_sum
I0703 18:06:34.588714 35388 net.cpp:157] Top shape: 32 1024 8 8 (2097152)
I0703 18:06:34.588723 35388 net.cpp:165] Memory required for data: 3952140416
I0703 18:06:34.588732 35388 layer_factory.hpp:76] Creating layer conv4_36_sum_bn
I0703 18:06:34.588770 35388 net.cpp:106] Creating Layer conv4_36_sum_bn
I0703 18:06:34.588779 35388 net.cpp:454] conv4_36_sum_bn <- conv4_36_sum
I0703 18:06:34.588793 35388 net.cpp:411] conv4_36_sum_bn -> conv4_36_sum_bn
I0703 18:06:34.589123 35388 net.cpp:150] Setting up conv4_36_sum_bn
I0703 18:06:34.589138 35388 net.cpp:157] Top shape: 32 1024 8 8 (2097152)
I0703 18:06:34.589146 35388 net.cpp:165] Memory required for data: 3960529024
I0703 18:06:34.589159 35388 layer_factory.hpp:76] Creating layer conv4_36_sum_relu
I0703 18:06:34.589182 35388 net.cpp:106] Creating Layer conv4_36_sum_relu
I0703 18:06:34.589191 35388 net.cpp:454] conv4_36_sum_relu <- conv4_36_sum_bn
I0703 18:06:34.589201 35388 net.cpp:397] conv4_36_sum_relu -> conv4_36_sum_bn (in-place)
I0703 18:06:34.589488 35388 net.cpp:150] Setting up conv4_36_sum_relu
I0703 18:06:34.589505 35388 net.cpp:157] Top shape: 32 1024 8 8 (2097152)
I0703 18:06:34.589514 35388 net.cpp:165] Memory required for data: 3968917632
I0703 18:06:34.589522 35388 layer_factory.hpp:76] Creating layer conv4_36_sum_bn_conv4_36_sum_relu_0_split
I0703 18:06:34.589546 35388 net.cpp:106] Creating Layer conv4_36_sum_bn_conv4_36_sum_relu_0_split
I0703 18:06:34.589556 35388 net.cpp:454] conv4_36_sum_bn_conv4_36_sum_relu_0_split <- conv4_36_sum_bn
I0703 18:06:34.589567 35388 net.cpp:411] conv4_36_sum_bn_conv4_36_sum_relu_0_split -> conv4_36_sum_bn_conv4_36_sum_relu_0_split_0
I0703 18:06:34.589581 35388 net.cpp:411] conv4_36_sum_bn_conv4_36_sum_relu_0_split -> conv4_36_sum_bn_conv4_36_sum_relu_0_split_1
I0703 18:06:34.589649 35388 net.cpp:150] Setting up conv4_36_sum_bn_conv4_36_sum_relu_0_split
I0703 18:06:34.589661 35388 net.cpp:157] Top shape: 32 1024 8 8 (2097152)
I0703 18:06:34.589670 35388 net.cpp:157] Top shape: 32 1024 8 8 (2097152)
I0703 18:06:34.589690 35388 net.cpp:165] Memory required for data: 3985694848
I0703 18:06:34.589699 35388 layer_factory.hpp:76] Creating layer conv4_output
I0703 18:06:34.589715 35388 net.cpp:106] Creating Layer conv4_output
I0703 18:06:34.589723 35388 net.cpp:454] conv4_output <- conv4_36_sum_bn_conv4_36_sum_relu_0_split_0
I0703 18:06:34.589738 35388 net.cpp:411] conv4_output -> conv4_output
I0703 18:06:34.659219 35388 net.cpp:150] Setting up conv4_output
I0703 18:06:34.659271 35388 net.cpp:157] Top shape: 32 2048 4 4 (1048576)
I0703 18:06:34.659281 35388 net.cpp:165] Memory required for data: 3989889152
I0703 18:06:34.659296 35388 layer_factory.hpp:76] Creating layer conv5_1_1
I0703 18:06:34.659317 35388 net.cpp:106] Creating Layer conv5_1_1
I0703 18:06:34.659365 35388 net.cpp:454] conv5_1_1 <- conv4_36_sum_bn_conv4_36_sum_relu_0_split_1
I0703 18:06:34.659384 35388 net.cpp:411] conv5_1_1 -> conv5_1_1
I0703 18:06:34.677765 35388 net.cpp:150] Setting up conv5_1_1
I0703 18:06:34.677809 35388 net.cpp:157] Top shape: 32 512 4 4 (262144)
I0703 18:06:34.677819 35388 net.cpp:165] Memory required for data: 3990937728
I0703 18:06:34.677832 35388 layer_factory.hpp:76] Creating layer conv5_1_1_bn
I0703 18:06:34.677850 35388 net.cpp:106] Creating Layer conv5_1_1_bn
I0703 18:06:34.677862 35388 net.cpp:454] conv5_1_1_bn <- conv5_1_1
I0703 18:06:34.677886 35388 net.cpp:411] conv5_1_1_bn -> conv5_1_1_bn
I0703 18:06:34.678194 35388 net.cpp:150] Setting up conv5_1_1_bn
I0703 18:06:34.678220 35388 net.cpp:157] Top shape: 32 512 4 4 (262144)
I0703 18:06:34.678230 35388 net.cpp:165] Memory required for data: 3991986304
I0703 18:06:34.678242 35388 layer_factory.hpp:76] Creating layer conv5_1_1_relu
I0703 18:06:34.678253 35388 net.cpp:106] Creating Layer conv5_1_1_relu
I0703 18:06:34.678263 35388 net.cpp:454] conv5_1_1_relu <- conv5_1_1_bn
I0703 18:06:34.678284 35388 net.cpp:397] conv5_1_1_relu -> conv5_1_1_bn (in-place)
I0703 18:06:34.678563 35388 net.cpp:150] Setting up conv5_1_1_relu
I0703 18:06:34.678593 35388 net.cpp:157] Top shape: 32 512 4 4 (262144)
I0703 18:06:34.678602 35388 net.cpp:165] Memory required for data: 3993034880
I0703 18:06:34.678611 35388 layer_factory.hpp:76] Creating layer conv5_1_2
I0703 18:06:34.678628 35388 net.cpp:106] Creating Layer conv5_1_2
I0703 18:06:34.678650 35388 net.cpp:454] conv5_1_2 <- conv5_1_1_bn
I0703 18:06:34.678661 35388 net.cpp:411] conv5_1_2 -> conv5_1_2
I0703 18:06:34.759721 35388 cudnn_conv_layer.cpp:194] Reallocating workspace storage: 55296
I0703 18:06:34.759783 35388 net.cpp:150] Setting up conv5_1_2
I0703 18:06:34.759804 35388 net.cpp:157] Top shape: 32 512 4 4 (262144)
I0703 18:06:34.759814 35388 net.cpp:165] Memory required for data: 3994083456
I0703 18:06:34.759855 35388 layer_factory.hpp:76] Creating layer conv5_1_2_bn
I0703 18:06:34.759874 35388 net.cpp:106] Creating Layer conv5_1_2_bn
I0703 18:06:34.759904 35388 net.cpp:454] conv5_1_2_bn <- conv5_1_2
I0703 18:06:34.759924 35388 net.cpp:411] conv5_1_2_bn -> conv5_1_2_bn
I0703 18:06:34.760272 35388 net.cpp:150] Setting up conv5_1_2_bn
I0703 18:06:34.760287 35388 net.cpp:157] Top shape: 32 512 4 4 (262144)
I0703 18:06:34.760306 35388 net.cpp:165] Memory required for data: 3995132032
I0703 18:06:34.760320 35388 layer_factory.hpp:76] Creating layer conv5_1_2_relu
I0703 18:06:34.760336 35388 net.cpp:106] Creating Layer conv5_1_2_relu
I0703 18:06:34.760359 35388 net.cpp:454] conv5_1_2_relu <- conv5_1_2_bn
I0703 18:06:34.760368 35388 net.cpp:397] conv5_1_2_relu -> conv5_1_2_bn (in-place)
I0703 18:06:34.760823 35388 net.cpp:150] Setting up conv5_1_2_relu
I0703 18:06:34.760855 35388 net.cpp:157] Top shape: 32 512 4 4 (262144)
I0703 18:06:34.760864 35388 net.cpp:165] Memory required for data: 3996180608
I0703 18:06:34.760872 35388 layer_factory.hpp:76] Creating layer conv5_1_3
I0703 18:06:34.760891 35388 net.cpp:106] Creating Layer conv5_1_3
I0703 18:06:34.760913 35388 net.cpp:454] conv5_1_3 <- conv5_1_2_bn
I0703 18:06:34.760927 35388 net.cpp:411] conv5_1_3 -> conv5_1_3
I0703 18:06:34.796108 35388 cudnn_conv_layer.cpp:194] Reallocating workspace storage: 6144
I0703 18:06:34.796257 35388 net.cpp:150] Setting up conv5_1_3
I0703 18:06:34.796277 35388 net.cpp:157] Top shape: 32 2048 4 4 (1048576)
I0703 18:06:34.796285 35388 net.cpp:165] Memory required for data: 4000374912
I0703 18:06:34.796301 35388 layer_factory.hpp:76] Creating layer conv5_1_sum
I0703 18:06:34.796319 35388 net.cpp:106] Creating Layer conv5_1_sum
I0703 18:06:34.796331 35388 net.cpp:454] conv5_1_sum <- conv4_output
I0703 18:06:34.796344 35388 net.cpp:454] conv5_1_sum <- conv5_1_3
I0703 18:06:34.796355 35388 net.cpp:411] conv5_1_sum -> conv5_1_sum
I0703 18:06:34.796401 35388 net.cpp:150] Setting up conv5_1_sum
I0703 18:06:34.796416 35388 net.cpp:157] Top shape: 32 2048 4 4 (1048576)
I0703 18:06:34.796438 35388 net.cpp:165] Memory required for data: 4004569216
I0703 18:06:34.796479 35388 layer_factory.hpp:76] Creating layer conv5_1_sum_bn
I0703 18:06:34.796494 35388 net.cpp:106] Creating Layer conv5_1_sum_bn
I0703 18:06:34.796504 35388 net.cpp:454] conv5_1_sum_bn <- conv5_1_sum
I0703 18:06:34.796515 35388 net.cpp:411] conv5_1_sum_bn -> conv5_1_sum_bn
I0703 18:06:34.796829 35388 net.cpp:150] Setting up conv5_1_sum_bn
I0703 18:06:34.796844 35388 net.cpp:157] Top shape: 32 2048 4 4 (1048576)
I0703 18:06:34.796864 35388 net.cpp:165] Memory required for data: 4008763520
I0703 18:06:34.796878 35388 layer_factory.hpp:76] Creating layer conv5_1_sum_relu
I0703 18:06:34.796892 35388 net.cpp:106] Creating Layer conv5_1_sum_relu
I0703 18:06:34.796901 35388 net.cpp:454] conv5_1_sum_relu <- conv5_1_sum_bn
I0703 18:06:34.796914 35388 net.cpp:397] conv5_1_sum_relu -> conv5_1_sum_bn (in-place)
I0703 18:06:34.797185 35388 net.cpp:150] Setting up conv5_1_sum_relu
I0703 18:06:34.797214 35388 net.cpp:157] Top shape: 32 2048 4 4 (1048576)
I0703 18:06:34.797225 35388 net.cpp:165] Memory required for data: 4012957824
I0703 18:06:34.797235 35388 layer_factory.hpp:76] Creating layer conv5_1_sum_bn_conv5_1_sum_relu_0_split
I0703 18:06:34.797245 35388 net.cpp:106] Creating Layer conv5_1_sum_bn_conv5_1_sum_relu_0_split
I0703 18:06:34.797255 35388 net.cpp:454] conv5_1_sum_bn_conv5_1_sum_relu_0_split <- conv5_1_sum_bn
I0703 18:06:34.797266 35388 net.cpp:411] conv5_1_sum_bn_conv5_1_sum_relu_0_split -> conv5_1_sum_bn_conv5_1_sum_relu_0_split_0
I0703 18:06:34.797279 35388 net.cpp:411] conv5_1_sum_bn_conv5_1_sum_relu_0_split -> conv5_1_sum_bn_conv5_1_sum_relu_0_split_1
I0703 18:06:34.797340 35388 net.cpp:150] Setting up conv5_1_sum_bn_conv5_1_sum_relu_0_split
I0703 18:06:34.797354 35388 net.cpp:157] Top shape: 32 2048 4 4 (1048576)
I0703 18:06:34.797364 35388 net.cpp:157] Top shape: 32 2048 4 4 (1048576)
I0703 18:06:34.797374 35388 net.cpp:165] Memory required for data: 4021346432
I0703 18:06:34.797382 35388 layer_factory.hpp:76] Creating layer conv5_2_1
I0703 18:06:34.797399 35388 net.cpp:106] Creating Layer conv5_2_1
I0703 18:06:34.797408 35388 net.cpp:454] conv5_2_1 <- conv5_1_sum_bn_conv5_1_sum_relu_0_split_0
I0703 18:06:34.797420 35388 net.cpp:411] conv5_2_1 -> conv5_2_1
I0703 18:06:34.833691 35388 cudnn_conv_layer.cpp:194] Reallocating workspace storage: 24576
I0703 18:06:34.833756 35388 net.cpp:150] Setting up conv5_2_1
I0703 18:06:34.833771 35388 net.cpp:157] Top shape: 32 512 4 4 (262144)
I0703 18:06:34.833781 35388 net.cpp:165] Memory required for data: 4022395008
I0703 18:06:34.833796 35388 layer_factory.hpp:76] Creating layer conv5_2_1_bn
I0703 18:06:34.833813 35388 net.cpp:106] Creating Layer conv5_2_1_bn
I0703 18:06:34.833825 35388 net.cpp:454] conv5_2_1_bn <- conv5_2_1
I0703 18:06:34.833837 35388 net.cpp:411] conv5_2_1_bn -> conv5_2_1_bn
I0703 18:06:34.834147 35388 net.cpp:150] Setting up conv5_2_1_bn
I0703 18:06:34.834163 35388 net.cpp:157] Top shape: 32 512 4 4 (262144)
I0703 18:06:34.834183 35388 net.cpp:165] Memory required for data: 4023443584
I0703 18:06:34.834198 35388 layer_factory.hpp:76] Creating layer conv5_2_1_relu
I0703 18:06:34.834211 35388 net.cpp:106] Creating Layer conv5_2_1_relu
I0703 18:06:34.834221 35388 net.cpp:454] conv5_2_1_relu <- conv5_2_1_bn
I0703 18:06:34.834231 35388 net.cpp:397] conv5_2_1_relu -> conv5_2_1_bn (in-place)
I0703 18:06:34.834509 35388 net.cpp:150] Setting up conv5_2_1_relu
I0703 18:06:34.834538 35388 net.cpp:157] Top shape: 32 512 4 4 (262144)
I0703 18:06:34.834547 35388 net.cpp:165] Memory required for data: 4024492160
I0703 18:06:34.834555 35388 layer_factory.hpp:76] Creating layer conv5_2_2
I0703 18:06:34.834573 35388 net.cpp:106] Creating Layer conv5_2_2
I0703 18:06:34.834583 35388 net.cpp:454] conv5_2_2 <- conv5_2_1_bn
I0703 18:06:34.834609 35388 net.cpp:411] conv5_2_2 -> conv5_2_2
I0703 18:06:34.915166 35388 cudnn_conv_layer.cpp:194] Reallocating workspace storage: 55296
I0703 18:06:34.915212 35388 net.cpp:150] Setting up conv5_2_2
I0703 18:06:34.915228 35388 net.cpp:157] Top shape: 32 512 4 4 (262144)
I0703 18:06:34.915261 35388 net.cpp:165] Memory required for data: 4025540736
I0703 18:06:34.915288 35388 layer_factory.hpp:76] Creating layer conv5_2_2_bn
I0703 18:06:34.915307 35388 net.cpp:106] Creating Layer conv5_2_2_bn
I0703 18:06:34.915318 35388 net.cpp:454] conv5_2_2_bn <- conv5_2_2
I0703 18:06:34.915331 35388 net.cpp:411] conv5_2_2_bn -> conv5_2_2_bn
I0703 18:06:34.915650 35388 net.cpp:150] Setting up conv5_2_2_bn
I0703 18:06:34.915668 35388 net.cpp:157] Top shape: 32 512 4 4 (262144)
I0703 18:06:34.915675 35388 net.cpp:165] Memory required for data: 4026589312
I0703 18:06:34.915688 35388 layer_factory.hpp:76] Creating layer conv5_2_2_relu
I0703 18:06:34.915714 35388 net.cpp:106] Creating Layer conv5_2_2_relu
I0703 18:06:34.915724 35388 net.cpp:454] conv5_2_2_relu <- conv5_2_2_bn
I0703 18:06:34.915734 35388 net.cpp:397] conv5_2_2_relu -> conv5_2_2_bn (in-place)
I0703 18:06:34.916188 35388 net.cpp:150] Setting up conv5_2_2_relu
I0703 18:06:34.916208 35388 net.cpp:157] Top shape: 32 512 4 4 (262144)
I0703 18:06:34.916218 35388 net.cpp:165] Memory required for data: 4027637888
I0703 18:06:34.916225 35388 layer_factory.hpp:76] Creating layer conv5_2_3
I0703 18:06:34.916255 35388 net.cpp:106] Creating Layer conv5_2_3
I0703 18:06:34.916265 35388 net.cpp:454] conv5_2_3 <- conv5_2_2_bn
I0703 18:06:34.916278 35388 net.cpp:411] conv5_2_3 -> conv5_2_3
I0703 18:06:34.953006 35388 cudnn_conv_layer.cpp:194] Reallocating workspace storage: 6144
I0703 18:06:34.953085 35388 net.cpp:150] Setting up conv5_2_3
I0703 18:06:34.953122 35388 net.cpp:157] Top shape: 32 2048 4 4 (1048576)
I0703 18:06:34.953131 35388 net.cpp:165] Memory required for data: 4031832192
I0703 18:06:34.953147 35388 layer_factory.hpp:76] Creating layer conv5_2_sum
I0703 18:06:34.953168 35388 net.cpp:106] Creating Layer conv5_2_sum
I0703 18:06:34.953181 35388 net.cpp:454] conv5_2_sum <- conv5_1_sum_bn_conv5_1_sum_relu_0_split_1
I0703 18:06:34.953192 35388 net.cpp:454] conv5_2_sum <- conv5_2_3
I0703 18:06:34.953203 35388 net.cpp:411] conv5_2_sum -> conv5_2_sum
I0703 18:06:34.953250 35388 net.cpp:150] Setting up conv5_2_sum
I0703 18:06:34.953274 35388 net.cpp:157] Top shape: 32 2048 4 4 (1048576)
I0703 18:06:34.953294 35388 net.cpp:165] Memory required for data: 4036026496
I0703 18:06:34.953304 35388 layer_factory.hpp:76] Creating layer conv5_2_sum_bn
I0703 18:06:34.953318 35388 net.cpp:106] Creating Layer conv5_2_sum_bn
I0703 18:06:34.953327 35388 net.cpp:454] conv5_2_sum_bn <- conv5_2_sum
I0703 18:06:34.953338 35388 net.cpp:411] conv5_2_sum_bn -> conv5_2_sum_bn
I0703 18:06:34.953672 35388 net.cpp:150] Setting up conv5_2_sum_bn
I0703 18:06:34.953688 35388 net.cpp:157] Top shape: 32 2048 4 4 (1048576)
I0703 18:06:34.953696 35388 net.cpp:165] Memory required for data: 4040220800
I0703 18:06:34.953708 35388 layer_factory.hpp:76] Creating layer conv5_2_sum_relu
I0703 18:06:34.953733 35388 net.cpp:106] Creating Layer conv5_2_sum_relu
I0703 18:06:34.953742 35388 net.cpp:454] conv5_2_sum_relu <- conv5_2_sum_bn
I0703 18:06:34.953752 35388 net.cpp:397] conv5_2_sum_relu -> conv5_2_sum_bn (in-place)
I0703 18:06:34.954049 35388 net.cpp:150] Setting up conv5_2_sum_relu
I0703 18:06:34.954066 35388 net.cpp:157] Top shape: 32 2048 4 4 (1048576)
I0703 18:06:34.954076 35388 net.cpp:165] Memory required for data: 4044415104
I0703 18:06:34.954083 35388 layer_factory.hpp:76] Creating layer conv5_2_sum_bn_conv5_2_sum_relu_0_split
I0703 18:06:34.954107 35388 net.cpp:106] Creating Layer conv5_2_sum_bn_conv5_2_sum_relu_0_split
I0703 18:06:34.954115 35388 net.cpp:454] conv5_2_sum_bn_conv5_2_sum_relu_0_split <- conv5_2_sum_bn
I0703 18:06:34.954128 35388 net.cpp:411] conv5_2_sum_bn_conv5_2_sum_relu_0_split -> conv5_2_sum_bn_conv5_2_sum_relu_0_split_0
I0703 18:06:34.954140 35388 net.cpp:411] conv5_2_sum_bn_conv5_2_sum_relu_0_split -> conv5_2_sum_bn_conv5_2_sum_relu_0_split_1
I0703 18:06:34.954215 35388 net.cpp:150] Setting up conv5_2_sum_bn_conv5_2_sum_relu_0_split
I0703 18:06:34.954227 35388 net.cpp:157] Top shape: 32 2048 4 4 (1048576)
I0703 18:06:34.954237 35388 net.cpp:157] Top shape: 32 2048 4 4 (1048576)
I0703 18:06:34.954280 35388 net.cpp:165] Memory required for data: 4052803712
I0703 18:06:34.954289 35388 layer_factory.hpp:76] Creating layer conv5_3_1
I0703 18:06:34.954304 35388 net.cpp:106] Creating Layer conv5_3_1
I0703 18:06:34.954313 35388 net.cpp:454] conv5_3_1 <- conv5_2_sum_bn_conv5_2_sum_relu_0_split_0
I0703 18:06:34.954326 35388 net.cpp:411] conv5_3_1 -> conv5_3_1
I0703 18:06:34.990717 35388 cudnn_conv_layer.cpp:194] Reallocating workspace storage: 24576
I0703 18:06:34.990764 35388 net.cpp:150] Setting up conv5_3_1
I0703 18:06:34.990779 35388 net.cpp:157] Top shape: 32 512 4 4 (262144)
I0703 18:06:34.990788 35388 net.cpp:165] Memory required for data: 4053852288
I0703 18:06:34.990803 35388 layer_factory.hpp:76] Creating layer conv5_3_1_bn
I0703 18:06:34.990833 35388 net.cpp:106] Creating Layer conv5_3_1_bn
I0703 18:06:34.990845 35388 net.cpp:454] conv5_3_1_bn <- conv5_3_1
I0703 18:06:34.990860 35388 net.cpp:411] conv5_3_1_bn -> conv5_3_1_bn
I0703 18:06:34.991194 35388 net.cpp:150] Setting up conv5_3_1_bn
I0703 18:06:34.991209 35388 net.cpp:157] Top shape: 32 512 4 4 (262144)
I0703 18:06:34.991217 35388 net.cpp:165] Memory required for data: 4054900864
I0703 18:06:34.991230 35388 layer_factory.hpp:76] Creating layer conv5_3_1_relu
I0703 18:06:34.991255 35388 net.cpp:106] Creating Layer conv5_3_1_relu
I0703 18:06:34.991266 35388 net.cpp:454] conv5_3_1_relu <- conv5_3_1_bn
I0703 18:06:34.991276 35388 net.cpp:397] conv5_3_1_relu -> conv5_3_1_bn (in-place)
I0703 18:06:34.991547 35388 net.cpp:150] Setting up conv5_3_1_relu
I0703 18:06:34.991564 35388 net.cpp:157] Top shape: 32 512 4 4 (262144)
I0703 18:06:34.991574 35388 net.cpp:165] Memory required for data: 4055949440
I0703 18:06:34.991581 35388 layer_factory.hpp:76] Creating layer conv5_3_2
I0703 18:06:34.991611 35388 net.cpp:106] Creating Layer conv5_3_2
I0703 18:06:34.991621 35388 net.cpp:454] conv5_3_2 <- conv5_3_1_bn
I0703 18:06:34.991634 35388 net.cpp:411] conv5_3_2 -> conv5_3_2
I0703 18:06:35.072329 35388 cudnn_conv_layer.cpp:194] Reallocating workspace storage: 55296
I0703 18:06:35.072378 35388 net.cpp:150] Setting up conv5_3_2
I0703 18:06:35.072396 35388 net.cpp:157] Top shape: 32 512 4 4 (262144)
I0703 18:06:35.072404 35388 net.cpp:165] Memory required for data: 4056998016
I0703 18:06:35.072440 35388 layer_factory.hpp:76] Creating layer conv5_3_2_bn
I0703 18:06:35.072463 35388 net.cpp:106] Creating Layer conv5_3_2_bn
I0703 18:06:35.072475 35388 net.cpp:454] conv5_3_2_bn <- conv5_3_2
I0703 18:06:35.072499 35388 net.cpp:411] conv5_3_2_bn -> conv5_3_2_bn
I0703 18:06:35.072829 35388 net.cpp:150] Setting up conv5_3_2_bn
I0703 18:06:35.072846 35388 net.cpp:157] Top shape: 32 512 4 4 (262144)
I0703 18:06:35.072854 35388 net.cpp:165] Memory required for data: 4058046592
I0703 18:06:35.072868 35388 layer_factory.hpp:76] Creating layer conv5_3_2_relu
I0703 18:06:35.072896 35388 net.cpp:106] Creating Layer conv5_3_2_relu
I0703 18:06:35.072906 35388 net.cpp:454] conv5_3_2_relu <- conv5_3_2_bn
I0703 18:06:35.072916 35388 net.cpp:397] conv5_3_2_relu -> conv5_3_2_bn (in-place)
I0703 18:06:35.073364 35388 net.cpp:150] Setting up conv5_3_2_relu
I0703 18:06:35.073384 35388 net.cpp:157] Top shape: 32 512 4 4 (262144)
I0703 18:06:35.073393 35388 net.cpp:165] Memory required for data: 4059095168
I0703 18:06:35.073401 35388 layer_factory.hpp:76] Creating layer conv5_3_3
I0703 18:06:35.073431 35388 net.cpp:106] Creating Layer conv5_3_3
I0703 18:06:35.073444 35388 net.cpp:454] conv5_3_3 <- conv5_3_2_bn
I0703 18:06:35.073456 35388 net.cpp:411] conv5_3_3 -> conv5_3_3
I0703 18:06:35.109887 35388 cudnn_conv_layer.cpp:194] Reallocating workspace storage: 6144
I0703 18:06:35.109968 35388 net.cpp:150] Setting up conv5_3_3
I0703 18:06:35.110007 35388 net.cpp:157] Top shape: 32 2048 4 4 (1048576)
I0703 18:06:35.110015 35388 net.cpp:165] Memory required for data: 4063289472
I0703 18:06:35.110031 35388 layer_factory.hpp:76] Creating layer conv5_3_sum
I0703 18:06:35.110050 35388 net.cpp:106] Creating Layer conv5_3_sum
I0703 18:06:35.110062 35388 net.cpp:454] conv5_3_sum <- conv5_2_sum_bn_conv5_2_sum_relu_0_split_1
I0703 18:06:35.110098 35388 net.cpp:454] conv5_3_sum <- conv5_3_3
I0703 18:06:35.110111 35388 net.cpp:411] conv5_3_sum -> conv5_3_sum
I0703 18:06:35.110163 35388 net.cpp:150] Setting up conv5_3_sum
I0703 18:06:35.110188 35388 net.cpp:157] Top shape: 32 2048 4 4 (1048576)
I0703 18:06:35.110196 35388 net.cpp:165] Memory required for data: 4067483776
I0703 18:06:35.110205 35388 layer_factory.hpp:76] Creating layer conv5_3_sum_bn
I0703 18:06:35.110220 35388 net.cpp:106] Creating Layer conv5_3_sum_bn
I0703 18:06:35.110230 35388 net.cpp:454] conv5_3_sum_bn <- conv5_3_sum
I0703 18:06:35.110240 35388 net.cpp:411] conv5_3_sum_bn -> conv5_3_sum_bn
I0703 18:06:35.110584 35388 net.cpp:150] Setting up conv5_3_sum_bn
I0703 18:06:35.110599 35388 net.cpp:157] Top shape: 32 2048 4 4 (1048576)
I0703 18:06:35.110607 35388 net.cpp:165] Memory required for data: 4071678080
I0703 18:06:35.110620 35388 layer_factory.hpp:76] Creating layer conv5_3_sum_relu
I0703 18:06:35.110644 35388 net.cpp:106] Creating Layer conv5_3_sum_relu
I0703 18:06:35.110653 35388 net.cpp:454] conv5_3_sum_relu <- conv5_3_sum_bn
I0703 18:06:35.110666 35388 net.cpp:397] conv5_3_sum_relu -> conv5_3_sum_bn (in-place)
I0703 18:06:35.110962 35388 net.cpp:150] Setting up conv5_3_sum_relu
I0703 18:06:35.110981 35388 net.cpp:157] Top shape: 32 2048 4 4 (1048576)
I0703 18:06:35.110991 35388 net.cpp:165] Memory required for data: 4075872384
I0703 18:06:35.110998 35388 layer_factory.hpp:76] Creating layer pool2
I0703 18:06:35.111022 35388 net.cpp:106] Creating Layer pool2
I0703 18:06:35.111032 35388 net.cpp:454] pool2 <- conv5_3_sum_bn
I0703 18:06:35.111045 35388 net.cpp:411] pool2 -> pool2
F0703 18:06:35.111531 35388 blob.cpp:32] Check failed: shape[i] >= 0 (-2 vs. 0) 
