…
  phase: TRAIN
}
layer {
  name: "data"
  type: "ImageData"
  top: "data"
  top: "label"
  include {
    phase: TRAIN
  }
  transform_param {
    mirror: true
    crop_size: 224
    mean_value: 163
    mean_value: 116
    mean_value: 181
    rotation_angle_interval: 90
    display: false
    color_noise: 10
  }
  image_data_param {
    source: "../../step01_generate_traing_data/mc13_tr.lst"
    batch_size: 32
    shuffle: true
    new_height: 256
    new_width: 256
    root_folder: "../../step01_generate_traing_data/training_examples_s2/"
  }
}
layer {
  name: "conv1/7x7_s2"
  type: "Convolution"
  bottom: "data"
  top: "conv1/7x7_s2"
  param {
    lr_mult: 1
    decay_mult: 1
  }
  param {
    lr_mult: 2
    decay_mult: 0
  }
  convolution_param {
    num_output: 64
    pad: 3
    kernel_size: 7
    stride: 2
    weight_filler {
      type: "xavier"
    }
    bias_filler {
      type: "constant"
      value: 0.2
    }
  }
}
layer {
  name: "conv1/relu_7x7"
  type: "ReLU"
  bottom: "conv1/7x7_s2"
  top: "conv1/7x7_s2"
}
layer {
  name: "pool1/3x3_s2"
  type: "Pooling"
  bottom: "conv1/7x7_s2"
  top: "pool1/3x3_s2"
  pooling_param {
    pool: MAX
    kernel_size: 3
    stride: 2
  }
}
layer {
  name: "pool1/norm1"
  type: "LRN"
  bottom: "pool1/3x3_s2"
  top: "pool1/norm1"
  lrn_param {
    local_size: 5
    alpha: 0.0001
    beta: 0.75
  }
}
layer {
  name: "conv2/3x3_reduce"
  type: "Convolution"
  bottom: "pool1/norm1"
  top: "conv2/3x3_reduce"
  param {
    lr_mult: 1
    decay_mult: 1
  }
  param {
    lr_mult: 2
    decay_mult: 0
  }
  convolution_param {
    num_output: 64
    kernel_size: 1
    weight_filler {
      type: "xavier"
    }
    bias_filler {
      type: "constant"
      value: 0.2
    }
  }
}
layer {
  name: "conv2/relu_3x3_reduce"
  type: "ReLU"
  bottom: "conv2/3x3_reduce"
  top: "conv2/3x3_reduce"
}
layer {
  name: "conv2/3x3"
  type: "Convolution"
  bottom: "conv2/3x3_reduce"
  top: "conv2/3x3"
  param {
    lr_mult: 1
    decay_mult: 1
  }
  param {
    lr_mult: 2
    decay_mult: 0
  }
  convolution_param {
    num_output: 192
    pad: 1
    kernel_size: 3
    weight_filler {
      type: "xavier"
    }
    bias_filler {
      type: "constant"
      value: 0.2
    }
  }
}
layer {
  name: "conv2/relu_3x3"
  type: "ReLU"
  bottom: "conv2/3x3"
  top: "conv2/3x3"
}
layer {
  name: "conv2/norm2"
  type: "LRN"
  bottom: "conv2/3x3"
  top: "conv2/norm2"
  lrn_param {
    local_size: 5
    alpha: 0.0001
    beta: 0.75
  }
}
layer {
  name: "pool2/3x3_s2"
  type: "Pooling"
  bottom: "conv2/norm2"
  top: "pool2/3x3_s2"
  pooling_param {
    pool: MAX
    kernel_size: 3
    stride: 2
  }
}
layer {
  name: "inception_3a/1x1"
  type: "Convolution"
  bottom: "pool2/3x3_s2"
  top: "inception_3a/1x1"
  param {
    lr_mult: 1
    decay_mult: 1
  }
  param {
    lr_mult: 2
    decay_mult: 0
  }
  convolution_param {
    num_output: 64
    kernel_size: 1
    weight_filler {
      type: "xavier"
    }
    bias_filler {
      type: "constant"
      value: 0.2
    }
  }
}
layer {
  name: "inception_3a/relu_1x1"
  type: "ReLU"
  bottom: "inception_3a/1x1"
  top: "inception_3a/1x1"
}
layer {
  name: "inception_3a/3x3_reduce"
  type: "Convolution"
  bottom: "pool2/3x3_s2"
  top: "inception_3a/3x3_reduce"
  param {
    lr_mult: 1
    decay_mult: 1
  }
  param {
    lr_mult: 2
    decay_mult: 0
  }
  convolution_param {
    num_output: 96
    kernel_size: 1
    weight_filler {
      type: "xavier"
    }
    bias_filler {
      type: "constant"
      value: 0.2
    }
  }
}
layer {
  name: "inception_3a/relu_3x3_reduce"
  type: "ReLU"
  bottom: "inception_3a/3x3_reduce"
  top: "inception_3a/3x3_reduce"
}
layer {
  name: "inception_3a/3x3"
  type: "Convolution"
  bottom: "inception_3a/3x3_reduce"
  top: "inception_3a/3x3"
  param {
    lr_mult: 1
    decay_mult: 1
  }
  param {
    lr_mult: 2
    decay_mult: 0
  }
  convolution_param {
    num_output: 128
    pad: 1
    kernel_size: 3
    weight_filler {
      type: "xavier"
    }
    bias_filler {
      type: "constant"
      value: 0.2
    }
  }
}
layer {
  name: "inception_3a/relu_3x3"
  type: "ReLU"
  bottom: "inception_3a/3x3"
  top: "inception_3a/3x3"
}
layer {
  name: "inception_3a/5x5_reduce"
  type: "Convolution"
  bottom: "pool2/3x3_s2"
  top: "inception_3a/5x5_reduce"
  param {
    lr_mult: 1
    decay_mult: 1
  }
  param {
    lr_mult: 2
    decay_mult: 0
  }
  convolution_param {
    num_output: 16
    kernel_size: 1
    weight_filler {
      type: "xavier"
    }
    bias_filler {
      type: "constant"
      value: 0.2
    }
  }
}
layer {
  name: "inception_3a/relu_5x5_reduce"
  type: "ReLU"
  bottom: "inception_3a/5x5_reduce"
  top: "inception_3a/5x5_reduce"
}
layer {
  name: "inception_3a/5x5"
  type: "Convolution"
  bottom: "inception_3a/5x5_reduce"
  top: "inception_3a/5x5"
  param {
    lr_mult: 1
    decay_mult: 1
  }
  param {
    lr_mult: 2
    decay_mult: 0
  }
  convolution_param {
    num_output: 32
    pad: 2
    kernel_size: 5
    weight_filler {
      type: "xavier"
    }
    bias_filler {
      type: "constant"
      value: 0.2
    }
  }
}
layer {
  name: "inception_3a/relu_5x5"
  type: "ReLU"
  bottom: "inception_3a/5x5"
  top: "inception_3a/5x5"
}
layer {
  name: "inception_3a/pool"
  type: "Pooling"
  bottom: "pool2/3x3_s2"
  top: "inception_3a/pool"
  pooling_param {
    pool: MAX
    kernel_size: 3
    stride: 1
    pad: 1
  }
}
layer {
  name: "inception_3a/pool_proj"
  type: "Convolution"
  bottom: "inception_3a/pool"
  top: "inception_3a/pool_proj"
  param {
    lr_mult: 1
    decay_mult: 1
  }
  param {
    lr_mult: 2
    decay_mult: 0
  }
  convolution_param {
    num_output: 32
    kernel_size: 1
    weight_filler {
      type: "xavier"
    }
    bias_filler {
      type: "constant"
      value: 0.2
    }
  }
}
layer {
  name: "inception_3a/relu_pool_proj"
  type: "ReLU"
  bottom: "inception_3a/pool_proj"
  top: "inception_3a/pool_proj"
}
layer {
  name: "inception_3a/output"
  type: "Concat"
  bottom: "inception_3a/1x1"
  bottom: "inception_3a/3x3"
  bottom: "inception_3a/5x5"
  bottom: "inception_3a/pool_proj"
  top: "inception_3a/output"
}
layer {
  name: "inception_3b/1x1"
  type: "Convolution"
  bottom: "inception_3a/output"
  top: "inception_3b/1x1"
  param {
    lr_mult: 1
    decay_mult: 1
  }
  param {
    lr_mult: 2
    decay_mult: 0
  }
  convolution_param {
    num_output: 128
    kernel_size: 1
    weight_filler {
      type: "xavier"
    }
    bias_filler {
      type: "constant"
      value: 0.2
    }
  }
}
layer {
  name: "inception_3b/relu_1x1"
  type: "ReLU"
  bottom: "inception_3b/1x1"
  top: "inception_3b/1x1"
}
layer {
  name: "inception_3b/3x3_reduce"
  type: "Convolution"
  bottom: "inception_3a/output"
  top: "inception_3b/3x3_reduce"
  param {
    lr_mult: 1
    decay_mult: 1
  }
  param {
    lr_mult: 2
    decay_mult: 0
  }
  convolution_param {
    num_output: 128
    kernel_size: 1
    weight_filler {
      type: "xavier"
    }
    bias_filler {
      type: "constant"
      value: 0.2
    }
  }
}
layer {
  name: "inception_3b/relu_3x3_reduce"
  type: "ReLU"
  bottom: "inception_3b/3x3_reduce"
  top: "inception_3b/3x3_reduce"
}
layer {
  name: "inception_3b/3x3"
  type: "Convolution"
  bottom: "inception_3b/3x3_reduce"
  top: "inception_3b/3x3"
  param {
    lr_mult: 1
    decay_mult: 1
  }
  param {
    lr_mult: 2
    decay_mult: 0
  }
  convolution_param {
    num_output: 192
    pad: 1
    kernel_size: 3
    weight_filler {
      type: "xavier"
    }
    bias_filler {
      type: "constant"
      value: 0.2
    }
  }
}
layer {
  name: "inception_3b/relu_3x3"
  type: "ReLU"
  bottom: "inception_3b/3x3"
  top: "inception_3b/3x3"
}
layer {
  name: "inception_3b/5x5_reduce"
  type: "Convolution"
  bottom: "inception_3a/output"
  top: "inception_3b/5x5_reduce"
  param {
    lr_mult: 1
    decay_mult: 1
  }
  param {
    lr_mult: 2
    decay_mult: 0
  }
  convolution_param {
    num_output: 32
    kernel_size: 1
    weight_filler {
      type: "xavier"
    }
    bias_filler {
      type: "constant"
      value: 0.2
    }
  }
}
layer {
  name: "inception_3b/relu_5x5_reduce"
  type: "ReLU"
  bottom: "inception_3b/5x5_reduce"
  top: "inception_3b/5x5_reduce"
}
layer {
  name: "inception_3b/5x5"
  type: "Convolution"
  bottom: "inception_3b/5x5_reduce"
  top: "inception_3b/5x5"
  param {
    lr_mult: 1
    decay_mult: 1
  }
  param {
    lr_mult: 2
    decay_mult: 0
  }
  convolution_param {
    num_output: 96
    pad: 2
    kernel_size: 5
    weight_filler {
      type: "xavier"
    }
    bias_filler {
      type: "constant"
      value: 0.2
    }
  }
}
layer {
  name: "inception_3b/relu_5x5"
  type: "ReLU"
  bottom: "inception_3b/5x5"
  top: "inception_3b/5x5"
}
layer {
  name: "inception_3b/pool"
  type: "Pooling"
  bottom: "inception_3a/output"
  top: "inception_3b/pool"
  pooling_param {
    pool: MAX
    kernel_size: 3
    stride: 1
    pad: 1
  }
}
layer {
  name: "inception_3b/pool_proj"
  type: "Convolution"
  bottom: "inception_3b/pool"
  top: "inception_3b/pool_proj"
  param {
    lr_mult: 1
    decay_mult: 1
  }
  param {
    lr_mult: 2
    decay_mult: 0
  }
  convolution_param {
    num_output: 64
    kernel_size: 1
    weight_filler {
      type: "xavier"
    }
    bias_filler {
      type: "constant"
      value: 0.2
    }
  }
}
layer {
  name: "inception_3b/relu_pool_proj"
  type: "ReLU"
  bottom: "inception_3b/pool_proj"
  top: "inception_3b/pool_proj"
}
layer {
  name: "inception_3b/output"
  type: "Concat"
  bottom: "inception_3b/1x1"
  bottom: "inception_3b/3x3"
  bottom: "inception_3b/5x5"
  bottom: "inception_3b/pool_proj"
  top: "inception_3b/output"
}
layer {
  name: "pool3/3x3_s2"
  type: "Pooling"
  bottom: "inception_3b/output"
  top: "pool3/3x3_s2"
  pooling_param {
    pool: MAX
    kernel_size: 3
    stride: 2
  }
}
layer {
  name: "inception_4a/1x1"
  type: "Convolution"
  bottom: "pool3/3x3_s2"
  top: "inception_4a/1x1"
  param {
    lr_mult: 1
    decay_mult: 1
  }
  param {
    lr_mult: 2
    decay_mult: 0
  }
  convolution_param {
    num_output: 192
    kernel_size: 1
    weight_filler {
      type: "xavier"
    }
    bias_filler {
      type: "constant"
      value: 0.2
    }
  }
}
layer {
  name: "inception_4a/relu_1x1"
  type: "ReLU"
  bottom: "inception_4a/1x1"
  top: "inception_4a/1x1"
}
layer {
  name: "inception_4a/3x3_reduce"
  type: "Convolution"
  bottom: "pool3/3x3_s2"
  top: "inception_4a/3x3_reduce"
  param {
    lr_mult: 1
    decay_mult: 1
  }
  param {
    lr_mult: 2
    decay_mult: 0
  }
  convolution_param {
    num_output: 96
    kernel_size: 1
    weight_filler {
      type: "xavier"
    }
    bias_filler {
      type: "constant"
      value: 0.2
    }
  }
}
layer {
  name: "inception_4a/relu_3x3_reduce"
  type: "ReLU"
  bottom: "inception_4a/3x3_reduce"
  top: "inception_4a/3x3_reduce"
}
layer {
  name: "inception_4a/3x3"
  type: "Convolution"
  bottom: "inception_4a/3x3_reduce"
  top: "inception_4a/3x3"
  param {
    lr_mult: 1
    decay_mult: 1
  }
  param {
    lr_mult: 2
    decay_mult: 0
  }
  convolution_param {
    num_output: 208
    pad: 1
    kernel_size: 3
    weight_filler {
      type: "xavier"
    }
    bias_filler {
      type: "constant"
      value: 0.2
    }
  }
}
layer {
  name: "inception_4a/relu_3x3"
  type: "ReLU"
  bottom: "inception_4a/3x3"
  top: "inception_4a/3x3"
}
layer {
  name: "inception_4a/5x5_reduce"
  type: "Convolution"
  bottom: "pool3/3x3_s2"
  top: "inception_4a/5x5_reduce"
  param {
    lr_mult: 1
    decay_mult: 1
  }
  param {
    lr_mult: 2
    decay_mult: 0
  }
  convolution_param {
    num_output: 16
    kernel_size: 1
    weight_filler {
      type: "xavier"
    }
    bias_filler {
      type: "constant"
      value: 0.2
    }
  }
}
layer {
  name: "inception_4a/relu_5x5_reduce"
  type: "ReLU"
  bottom: "inception_4a/5x5_reduce"
  top: "inception_4a/5x5_reduce"
}
layer {
  name: "inception_4a/5x5"
  type: "Convolution"
  bottom: "inception_4a/5x5_reduce"
  top: "inception_4a/5x5"
  param {
    lr_mult: 1
    decay_mult: 1
  }
  param {
    lr_mult: 2
    decay_mult: 0
  }
  convolution_param {
    num_output: 48
    pad: 2
    kernel_size: 5
    weight_filler {
      type: "xavier"
    }
    bias_filler {
      type: "constant"
      value: 0.2
    }
  }
}
layer {
  name: "inception_4a/relu_5x5"
  type: "ReLU"
  bottom: "inception_4a/5x5"
  top: "inception_4a/5x5"
}
layer {
  name: "inception_4a/pool"
  type: "Pooling"
  bottom: "pool3/3x3_s2"
  top: "inception_4a/pool"
  pooling_param {
    pool: MAX
    kernel_size: 3
    stride: 1
    pad: 1
  }
}
layer {
  name: "inception_4a/pool_proj"
  type: "Convolution"
  bottom: "inception_4a/pool"
  top: "inception_4a/pool_proj"
  param {
    lr_mult: 1
    decay_mult: 1
  }
  param {
    lr_mult: 2
    decay_mult: 0
  }
  convolution_param {
    num_output: 64
    kernel_size: 1
    weight_filler {
      type: "xavier"
    }
    bias_filler {
      type: "constant"
      value: 0.2
    }
  }
}
layer {
  name: "inception_4a/relu_pool_proj"
  type: "ReLU"
  bottom: "inception_4a/pool_proj"
  top: "inception_4a/pool_proj"
}
layer {
  name: "inception_4a/output"
  type: "Concat"
  bottom: "inception_4a/1x1"
  bottom: "inception_4a/3x3"
  bottom: "inception_4a/5x5"
  bottom: "inception_4a/pool_proj"
  top: "inception_4a/output"
}
layer {
  name: "loss1/ave_pool"
  type: "Pooling"
  bottom: "inception_4a/output"
  top: "loss1/ave_pool"
  pooling_param {
    pool: AVE
    kernel_size: 5
    stride: 3
  }
}
layer {
  name: "loss1/conv"
  type: "Convolution"
  bottom: "loss1/ave_pool"
  top: "loss1/conv"
  param {
    lr_mult: 1
    decay_mult: 1
  }
  param {
    lr_mult: 2
    decay_mult: 0
  }
  convolution_param {
    num_output: 128
    kernel_size: 1
    weight_filler {
      type: "xavier"
    }
    bias_filler {
      type: "constant"
      value: 0.2
    }
  }
}
layer {
  name: "loss1/relu_conv"
  type: "ReLU"
  bottom: "loss1/conv"
  top: "loss1/conv"
}
layer {
  name: "loss1/fc"
  type: "InnerProduct"
  bottom: "loss1/conv"
  top: "loss1/fc"
  param {
    lr_mult: 1
    decay_mult: 1
  }
  param {
    lr_mult: 2
    decay_mult: 0
  }
  inner_product_param {
    num_output: 1024
    weight_filler {
      type: "xavier"
    }
    bias_filler {
      type: "constant"
      value: 0.2
    }
  }
}
layer {
  name: "loss1/relu_fc"
  type: "ReLU"
  bottom: "loss1/fc"
  top: "loss1/fc"
}
layer {
  name: "loss1/drop_fc"
  type: "Dropout"
  bottom: "loss1/fc"
  top: "loss1/fc"
  dropout_param {
    dropout_ratio: 0.7
  }
}
layer {
  name: "loss1/classifier"
  type: "InnerProduct"
  bottom: "loss1/fc"
  top: "loss1/classifier"
  param {
    lr_mult: 1
    decay_mult: 1
  }
  param {
    lr_mult: 2
    decay_mult: 0
  }
  inner_product_param {
    num_output: 2
    weight_filler {
      type: "xavier"
    }
    bias_filler {
      type: "constant"
      value: 0
    }
  }
}
layer {
  name: "loss1/loss"
  type: "SoftmaxWithLoss"
  bottom: "loss1/classifier"
  bottom: "label"
  top: "loss1/loss1"
  loss_weight: 0.3
}
layer {
  name: "inception_4b/1x1"
  type: "Convolution"
  bottom: "inception_4a/output"
  top: "inception_4b/1x1"
  param {
    lr_mult: 1
    decay_mult: 1
  }
  param {
    lr_mult: 2
    decay_mult: 0
  }
  convolution_param {
    num_output: 160
    kernel_size: 1
    weight_filler {
      type: "xavier"
    }
    bias_filler {
      type: "constant"
      value: 0.2
    }
  }
}
layer {
  name: "inception_4b/relu_1x1"
  type: "ReLU"
  bottom: "inception_4b/1x1"
  top: "inception_4b/1x1"
}
layer {
  name: "inception_4b/3x3_reduce"
  type: "Convolution"
  bottom: "inception_4a/output"
  top: "inception_4b/3x3_reduce"
  param {
    lr_mult: 1
    decay_mult: 1
  }
  param {
    lr_mult: 2
    decay_mult: 0
  }
  convolution_param {
    num_output: 112
    kernel_size: 1
    weight_filler {
      type: "xavier"
    }
    bias_filler {
      type: "constant"
      value: 0.2
    }
  }
}
layer {
  name: "inception_4b/relu_3x3_reduce"
  type: "ReLU"
  bottom: "inception_4b/3x3_reduce"
  top: "inception_4b/3x3_reduce"
}
layer {
  name: "inception_4b/3x3"
  type: "Convolution"
  bottom: "inception_4b/3x3_reduce"
  top: "inception_4b/3x3"
  param {
    lr_mult: 1
    decay_mult: 1
  }
  param {
    lr_mult: 2
    decay_mult: 0
  }
  convolution_param {
    num_output: 224
    pad: 1
    kernel_size: 3
    weight_filler {
      type: "xavier"
    }
    bias_filler {
      type: "constant"
      value: 0.2
    }
  }
}
layer {
  name: "inception_4b/relu_3x3"
  type: "ReLU"
  bottom: "inception_4b/3x3"
  top: "inception_4b/3x3"
}
layer {
  name: "inception_4b/5x5_reduce"
  type: "Convolution"
  bottom: "inception_4a/output"
  top: "inception_4b/5x5_reduce"
  param {
    lr_mult: 1
    decay_mult: 1
  }
  param {
    lr_mult: 2
    decay_mult: 0
  }
  convolution_param {
    num_output: 24
    kernel_size: 1
    weight_filler {
      type: "xavier"
    }
    bias_filler {
      type: "constant"
      value: 0.2
    }
  }
}
layer {
  name: "inception_4b/relu_5x5_reduce"
  type: "ReLU"
  bottom: "inception_4b/5x5_reduce"
  top: "inception_4b/5x5_reduce"
}
layer {
  name: "inception_4b/5x5"
  type: "Convolution"
  bottom: "inception_4b/5x5_reduce"
  top: "inception_4b/5x5"
  param {
    lr_mult: 1
    decay_mult: 1
  }
  param {
    lr_mult: 2
    decay_mult: 0
  }
  convolution_param {
    num_output: 64
    pad: 2
    kernel_size: 5
    weight_filler {
      type: "xavier"
    }
    bias_filler {
      type: "constant"
      value: 0.2
    }
  }
}
layer {
  name: "inception_4b/relu_5x5"
  type: "ReLU"
  bottom: "inception_4b/5x5"
  top: "inception_4b/5x5"
}
layer {
  name: "inception_4b/pool"
  type: "Pooling"
  bottom: "inception_4a/output"
  top: "inception_4b/pool"
  pooling_param {
    pool: MAX
    kernel_size: 3
    stride: 1
    pad: 1
  }
}
layer {
  name: "inception_4b/pool_proj"
  type: "Convolution"
  bottom: "inception_4b/pool"
  top: "inception_4b/pool_proj"
  param {
    lr_mult: 1
    decay_mult: 1
  }
  param {
    lr_mult: 2
    decay_mult: 0
  }
  convolution_param {
    num_output: 64
    kernel_size: 1
    weight_filler {
      type: "xavier"
    }
    bias_filler {
      type: "constant"
      value: 0.2
    }
  }
}
layer {
  name: "inception_4b/relu_pool_proj"
  type: "ReLU"
  bottom: "inception_4b/pool_proj"
  top: "inception_4b/pool_proj"
}
layer {
  name: "inception_4b/output"
  type: "Concat"
  bottom: "inception_4b/1x1"
  bottom: "inception_4b/3x3"
  bottom: "inception_4b/5x5"
  bottom: "inception_4b/pool_proj"
  top: "inception_4b/output"
}
layer {
  name: "inception_4c/1x1"
  type: "Convolution"
  bottom: "inception_4b/output"
  top: "inception_4c/1x1"
  param {
    lr_mult: 1
    decay_mult: 1
  }
  param {
    lr_mult: 2
    decay_mult: 0
  }
  convolution_param {
    num_output: 128
    kernel_size: 1
    weight_filler {
      type: "xavier"
    }
    bias_filler {
      type: "constant"
      value: 0.2
    }
  }
}
layer {
  name: "inception_4c/relu_1x1"
  type: "ReLU"
  bottom: "inception_4c/1x1"
  top: "inception_4c/1x1"
}
layer {
  name: "inception_4c/3x3_reduce"
  type: "Convolution"
  bottom: "inception_4b/output"
  top: "inception_4c/3x3_reduce"
  param {
    lr_mult: 1
    decay_mult: 1
  }
  param {
    lr_mult: 2
    decay_mult: 0
  }
  convolution_param {
    num_output: 128
    kernel_size: 1
    weight_filler {
      type: "xavier"
    }
    bias_filler {
      type: "constant"
      value: 0.2
    }
  }
}
layer {
  name: "inception_4c/relu_3x3_reduce"
  type: "ReLU"
  bottom: "inception_4c/3x3_reduce"
  top: "inception_4c/3x3_reduce"
}
layer {
  name: "inception_4c/3x3"
  type: "Convolution"
  bottom: "inception_4c/3x3_reduce"
  top: "inception_4c/3x3"
  param {
    lr_mult: 1
    decay_mult: 1
  }
  param {
    lr_mult: 2
    decay_mult: 0
  }
  convolution_param {
    num_output: 256
    pad: 1
    kernel_size: 3
    weight_filler {
      type: "xavier"
    }
    bias_filler {
      type: "constant"
      value: 0.2
    }
  }
}
layer {
  name: "inception_4c/relu_3x3"
  type: "ReLU"
  bottom: "inception_4c/3x3"
  top: "inception_4c/3x3"
}
layer {
  name: "inception_4c/5x5_reduce"
  type: "Convolution"
  bottom: "inception_4b/output"
  top: "inception_4c/5x5_reduce"
  param {
    lr_mult: 1
    decay_mult: 1
  }
  param {
    lr_mult: 2
    decay_mult: 0
  }
  convolution_param {
    num_output: 24
    kernel_size: 1
    weight_filler {
      type: "xavier"
    }
    bias_filler {
      type: "constant"
      value: 0.2
    }
  }
}
layer {
  name: "inception_4c/relu_5x5_reduce"
  type: "ReLU"
  bottom: "inception_4c/5x5_reduce"
  top: "inception_4c/5x5_reduce"
}
layer {
  name: "inception_4c/5x5"
  type: "Convolution"
  bottom: "inception_4c/5x5_reduce"
  top: "inception_4c/5x5"
  param {
    lr_mult: 1
    decay_mult: 1
  }
  param {
    lr_mult: 2
    decay_mult: 0
  }
  convolution_param {
    num_output: 64
    pad: 2
    kernel_size: 5
    weight_filler {
      type: "xavier"
    }
    bias_filler {
      type: "constant"
      value: 0.2
    }
  }
}
layer {
  name: "inception_4c/relu_5x5"
  type: "ReLU"
  bottom: "inception_4c/5x5"
  top: "inception_4c/5x5"
}
layer {
  name: "inception_4c/pool"
  type: "Pooling"
  bottom: "inception_4b/output"
  top: "inception_4c/pool"
  pooling_param {
    pool: MAX
    kernel_size: 3
    stride: 1
    pad: 1
  }
}
layer {
  name: "inception_4c/pool_proj"
  type: "Convolution"
  bottom: "inception_4c/pool"
  top: "inception_4c/pool_proj"
  param {
    lr_mult: 1
    decay_mult: 1
  }
  param {
    lr_mult: 2
    decay_mult: 0
  }
  convolution_param {
    num_output: 64
    kernel_size: 1
    weight_filler {
      type: "xavier"
    }
    bias_filler {
      type: "constant"
      value: 0.2
    }
  }
}
layer {
  name: "inception_4c/relu_pool_proj"
  type: "ReLU"
  bottom: "inception_4c/pool_proj"
  top: "inception_4c/pool_proj"
}
layer {
  name: "inception_4c/output"
  type: "Concat"
  bottom: "inception_4c/1x1"
  bottom: "inception_4c/3x3"
  bottom: "inception_4c/5x5"
  bottom: "inception_4c/pool_proj"
  top: "inception_4c/output"
}
layer {
  name: "inception_4d/1x1"
  type: "Convolution"
  bottom: "inception_4c/output"
  top: "inception_4d/1x1"
  param {
    lr_mult: 1
    decay_mult: 1
  }
  param {
    lr_mult: 2
    decay_mult: 0
  }
  convolution_param {
    num_output: 112
    kernel_size: 1
    weight_filler {
      type: "xavier"
    }
    bias_filler {
      type: "constant"
      value: 0.2
    }
  }
}
layer {
  name: "inception_4d/relu_1x1"
  type: "ReLU"
  bottom: "inception_4d/1x1"
  top: "inception_4d/1x1"
}
layer {
  name: "inception_4d/3x3_reduce"
  type: "Convolution"
  bottom: "inception_4c/output"
  top: "inception_4d/3x3_reduce"
  param {
    lr_mult: 1
    decay_mult: 1
  }
  param {
    lr_mult: 2
    decay_mult: 0
  }
  convolution_param {
    num_output: 144
    kernel_size: 1
    weight_filler {
      type: "xavier"
    }
    bias_filler {
      type: "constant"
      value: 0.2
    }
  }
}
layer {
  name: "inception_4d/relu_3x3_reduce"
  type: "ReLU"
  bottom: "inception_4d/3x3_reduce"
  top: "inception_4d/3x3_reduce"
}
layer {
  name: "inception_4d/3x3"
  type: "Convolution"
  bottom: "inception_4d/3x3_reduce"
  top: "inception_4d/3x3"
  param {
    lr_mult: 1
    decay_mult: 1
  }
  param {
    lr_mult: 2
    decay_mult: 0
  }
  convolution_param {
    num_output: 288
    pad: 1
    kernel_size: 3
    weight_filler {
      type: "xavier"
    }
    bias_filler {
      type: "constant"
      value: 0.2
    }
  }
}
layer {
  name: "inception_4d/relu_3x3"
  type: "ReLU"
  bottom: "inception_4d/3x3"
  top: "inception_4d/3x3"
}
layer {
  name: "inception_4d/5x5_reduce"
  type: "Convolution"
  bottom: "inception_4c/output"
  top: "inception_4d/5x5_reduce"
  param {
    lr_mult: 1
    decay_mult: 1
  }
  param {
    lr_mult: 2
    decay_mult: 0
  }
  convolution_param {
    num_output: 32
    kernel_size: 1
    weight_filler {
      type: "xavier"
    }
    bias_filler {
      type: "constant"
      value: 0.2
    }
  }
}
layer {
  name: "inception_4d/relu_5x5_reduce"
  type: "ReLU"
  bottom: "inception_4d/5x5_reduce"
  top: "inception_4d/5x5_reduce"
}
layer {
  name: "inception_4d/5x5"
  type: "Convolution"
  bottom: "inception_4d/5x5_reduce"
  top: "inception_4d/5x5"
  param {
    lr_mult: 1
    decay_mult: 1
  }
  param {
    lr_mult: 2
    decay_mult: 0
  }
  convolution_param {
    num_output: 64
    pad: 2
    kernel_size: 5
    weight_filler {
      type: "xavier"
    }
    bias_filler {
      type: "constant"
      value: 0.2
    }
  }
}
layer {
  name: "inception_4d/relu_5x5"
  type: "ReLU"
  bottom: "inception_4d/5x5"
  top: "inception_4d/5x5"
}
layer {
  name: "inception_4d/pool"
  type: "Pooling"
  bottom: "inception_4c/output"
  top: "inception_4d/pool"
  pooling_param {
    pool: MAX
    kernel_size: 3
    stride: 1
    pad: 1
  }
}
layer {
  name: "inception_4d/pool_proj"
  type: "Convolution"
  bottom: "inception_4d/pool"
  top: "inception_4d/pool_proj"
  param {
    lr_mult: 1
    decay_mult: 1
  }
  param {
    lr_mult: 2
    decay_mult: 0
  }
  convolution_param {
    num_output: 64
    kernel_size: 1
    weight_filler {
      type: "xavier"
    }
    bias_filler {
      type: "constant"
      value: 0.2
    }
  }
}
layer {
  name: "inception_4d/relu_pool_proj"
  type: "ReLU"
  bottom: "inception_4d/pool_proj"
  top: "inception_4d/pool_proj"
}
layer {
  name: "inception_4d/output"
  type: "Concat"
  bottom: "inception_4d/1x1"
  bottom: "inception_4d/3x3"
  bottom: "inception_4d/5x5"
  bottom: "inception_4d/pool_proj"
  top: "inception_4d/output"
}
layer {
  name: "loss2/ave_pool"
  type: "Pooling"
  bottom: "inception_4d/output"
  top: "loss2/ave_pool"
  pooling_param {
    pool: AVE
    kernel_size: 5
    stride: 3
  }
}
layer {
  name: "loss2/conv"
  type: "Convolution"
  bottom: "loss2/ave_pool"
  top: "loss2/conv"
  param {
    lr_mult: 1
    decay_mult: 1
  }
  param {
    lr_mult: 2
    decay_mult: 0
  }
  convolution_param {
    num_output: 128
    kernel_size: 1
    weight_filler {
      type: "xavier"
    }
    bias_filler {
      type: "constant"
      value: 0.2
    }
  }
}
layer {
  name: "loss2/relu_conv"
  type: "ReLU"
  bottom: "loss2/conv"
  top: "loss2/conv"
}
layer {
  name: "loss2/fc"
  type: "InnerProduct"
  bottom: "loss2/conv"
  top: "loss2/fc"
  param {
    lr_mult: 1
    decay_mult: 1
  }
  param {
    lr_mult: 2
    decay_mult: 0
  }
  inner_product_param {
    num_output: 1024
    weight_filler {
      type: "xavier"
    }
    bias_filler {
      type: "constant"
      value: 0.2
    }
  }
}
layer {
  name: "loss2/relu_fc"
  type: "ReLU"
  bottom: "loss2/fc"
  top: "loss2/fc"
}
layer {
  name: "loss2/drop_fc"
  type: "Dropout"
  bottom: "loss2/fc"
  top: "loss2/fc"
  dropout_param {
    dropout_ratio: 0.7
  }
}
layer {
  name: "loss2/classifier"
  type: "InnerProduct"
  bottom: "loss2/fc"
  top: "loss2/classifier"
  param {
    lr_mult: 1
    decay_mult: 1
  }
  param {
    lr_mult: 2
    decay_mult: 0
  }
  inner_product_param {
    num_output: 2
    weight_filler {
      type: "xavier"
    }
    bias_filler {
      type: "constant"
      value: 0
    }
  }
}
layer {
  name: "loss2/loss"
  type: "SoftmaxWithLoss"
  bottom: "loss2/classifier"
  bottom: "label"
  top: "loss2/loss1"
  loss_weight: 0.3
}
layer {
  name: "inception_4e/1x1"
  type: "Convolution"
  bottom: "inception_4d/output"
  top: "inception_4e/1x1"
  param {
    lr_mult: 1
    decay_mult: 1
  }
  param {
    lr_mult: 2
    decay_mult: 0
  }
  convolution_param {
    num_output: 256
    kernel_size: 1
    weight_filler {
      type: "xavier"
    }
    bias_filler {
      type: "constant"
      value: 0.2
    }
  }
}
layer {
  name: "inception_4e/relu_1x1"
  type: "ReLU"
  bottom: "inception_4e/1x1"
  top: "inception_4e/1x1"
}
layer {
  name: "inception_4e/3x3_reduce"
  type: "Convolution"
  bottom: "inception_4d/output"
  top: "inception_4e/3x3_reduce"
  param {
    lr_mult: 1
    decay_mult: 1
  }
  param {
    lr_mult: 2
    decay_mult: 0
  }
  convolution_param {
    num_output: 160
    kernel_size: 1
    weight_filler {
      type: "xavier"
    }
    bias_filler {
      type: "constant"
      value: 0.2
    }
  }
}
layer {
  name: "inception_4e/relu_3x3_reduce"
  type: "ReLU"
  bottom: "inception_4e/3x3_reduce"
  top: "inception_4e/3x3_reduce"
}
layer {
  name: "inception_4e/3x3"
  type: "Convolution"
  bottom: "inception_4e/3x3_reduce"
  top: "inception_4e/3x3"
  param {
    lr_mult: 1
    decay_mult: 1
  }
  param {
    lr_mult: 2
    decay_mult: 0
  }
  convolution_param {
    num_output: 320
    pad: 1
    kernel_size: 3
    weight_filler {
      type: "xavier"
    }
    bias_filler {
      type: "constant"
      value: 0.2
    }
  }
}
layer {
  name: "inception_4e/relu_3x3"
  type: "ReLU"
  bottom: "inception_4e/3x3"
  top: "inception_4e/3x3"
}
layer {
  name: "inception_4e/5x5_reduce"
  type: "Convolution"
  bottom: "inception_4d/output"
  top: "inception_4e/5x5_reduce"
  param {
    lr_mult: 1
    decay_mult: 1
  }
  param {
    lr_mult: 2
    decay_mult: 0
  }
  convolution_param {
    num_output: 32
    kernel_size: 1
    weight_filler {
      type: "xavier"
    }
    bias_filler {
      type: "constant"
      value: 0.2
    }
  }
}
layer {
  name: "inception_4e/relu_5x5_reduce"
  type: "ReLU"
  bottom: "inception_4e/5x5_reduce"
  top: "inception_4e/5x5_reduce"
}
layer {
  name: "inception_4e/5x5"
  type: "Convolution"
  bottom: "inception_4e/5x5_reduce"
  top: "inception_4e/5x5"
  param {
    lr_mult: 1
    decay_mult: 1
  }
  param {
    lr_mult: 2
    decay_mult: 0
  }
  convolution_param {
    num_output: 128
    pad: 2
    kernel_size: 5
    weight_filler {
      type: "xavier"
    }
    bias_filler {
      type: "constant"
      value: 0.2
    }
  }
}
layer {
  name: "inception_4e/relu_5x5"
  type: "ReLU"
  bottom: "inception_4e/5x5"
  top: "
I0719 18:01:47.048287 57921 layer_factory.hpp:76] Creating layer data
I0719 18:01:47.048331 57921 net.cpp:110] Creating Layer data
I0719 18:01:47.048344 57921 net.cpp:433] data -> data
I0719 18:01:47.048375 57921 net.cpp:433] data -> label
I0719 18:01:47.048804 57921 image_data_layer.cpp:36] Opening file ../../step01_generate_traing_data/mc13_tr.lst
I0719 18:01:47.074507 57921 image_data_layer.cpp:46] Shuffling data
I0719 18:01:47.079084 57921 image_data_layer.cpp:51] A total of 72487 images.
I0719 18:01:47.088137 57921 image_data_layer.cpp:78] output data size: 32,3,224,224
I0719 18:01:47.310055 57921 net.cpp:155] Setting up data
I0719 18:01:47.310127 57921 net.cpp:163] Top shape: 32 3 224 224 (4816896)
I0719 18:01:47.310144 57921 net.cpp:163] Top shape: 32 (32)
I0719 18:01:47.310161 57921 layer_factory.hpp:76] Creating layer label_data_1_split
I0719 18:01:47.310184 57921 net.cpp:110] Creating Layer label_data_1_split
I0719 18:01:47.310194 57921 net.cpp:477] label_data_1_split <- label
I0719 18:01:47.310210 57921 net.cpp:433] label_data_1_split -> label_data_1_split_0
I0719 18:01:47.310223 57921 net.cpp:433] label_data_1_split -> label_data_1_split_1
I0719 18:01:47.310235 57921 net.cpp:433] label_data_1_split -> label_data_1_split_2
I0719 18:01:47.310263 57921 net.cpp:155] Setting up label_data_1_split
I0719 18:01:47.310272 57921 net.cpp:163] Top shape: 32 (32)
I0719 18:01:47.310281 57921 net.cpp:163] Top shape: 32 (32)
I0719 18:01:47.310289 57921 net.cpp:163] Top shape: 32 (32)
I0719 18:01:47.310309 57921 layer_factory.hpp:76] Creating layer conv1/7x7_s2
I0719 18:01:47.310328 57921 net.cpp:110] Creating Layer conv1/7x7_s2
I0719 18:01:47.310335 57921 net.cpp:477] conv1/7x7_s2 <- data
I0719 18:01:47.310360 57921 net.cpp:433] conv1/7x7_s2 -> conv1/7x7_s2
I0719 18:01:47.681006 57921 net.cpp:155] Setting up conv1/7x7_s2
I0719 18:01:47.681054 57921 net.cpp:163] Top shape: 32 64 112 112 (25690112)
I0719 18:01:47.681085 57921 layer_factory.hpp:76] Creating layer conv1/relu_7x7
I0719 18:01:47.681107 57921 net.cpp:110] Creating Layer conv1/relu_7x7
I0719 18:01:47.681124 57921 net.cpp:477] conv1/relu_7x7 <- conv1/7x7_s2
I0719 18:01:47.681146 57921 net.cpp:419] conv1/relu_7x7 -> conv1/7x7_s2 (in-place)
I0719 18:01:47.688019 57921 net.cpp:155] Setting up conv1/relu_7x7
I0719 18:01:47.688037 57921 net.cpp:163] Top shape: 32 64 112 112 (25690112)
I0719 18:01:47.688046 57921 layer_factory.hpp:76] Creating layer pool1/3x3_s2
I0719 18:01:47.688065 57921 net.cpp:110] Creating Layer pool1/3x3_s2
I0719 18:01:47.688073 57921 net.cpp:477] pool1/3x3_s2 <- conv1/7x7_s2
I0719 18:01:47.688083 57921 net.cpp:433] pool1/3x3_s2 -> pool1/3x3_s2
I0719 18:01:47.691671 57921 net.cpp:155] Setting up pool1/3x3_s2
I0719 18:01:47.691691 57921 net.cpp:163] Top shape: 32 64 56 56 (6422528)
I0719 18:01:47.691701 57921 layer_factory.hpp:76] Creating layer pool1/norm1
I0719 18:01:47.691717 57921 net.cpp:110] Creating Layer pool1/norm1
I0719 18:01:47.691726 57921 net.cpp:477] pool1/norm1 <- pool1/3x3_s2
I0719 18:01:47.691735 57921 net.cpp:433] pool1/norm1 -> pool1/norm1
I0719 18:01:47.691751 57921 net.cpp:155] Setting up pool1/norm1
I0719 18:01:47.691761 57921 net.cpp:163] Top shape: 32 64 56 56 (6422528)
I0719 18:01:47.691769 57921 layer_factory.hpp:76] Creating layer conv2/3x3_reduce
I0719 18:01:47.691783 57921 net.cpp:110] Creating Layer conv2/3x3_reduce
I0719 18:01:47.691795 57921 net.cpp:477] conv2/3x3_reduce <- pool1/norm1
I0719 18:01:47.691805 57921 net.cpp:433] conv2/3x3_reduce -> conv2/3x3_reduce
I0719 18:01:47.700081 57921 net.cpp:155] Setting up conv2/3x3_reduce
I0719 18:01:47.700104 57921 net.cpp:163] Top shape: 32 64 56 56 (6422528)
I0719 18:01:47.700120 57921 layer_factory.hpp:76] Creating layer conv2/relu_3x3_reduce
I0719 18:01:47.700134 57921 net.cpp:110] Creating Layer conv2/relu_3x3_reduce
I0719 18:01:47.700142 57921 net.cpp:477] conv2/relu_3x3_reduce <- conv2/3x3_reduce
I0719 18:01:47.700152 57921 net.cpp:419] conv2/relu_3x3_reduce -> conv2/3x3_reduce (in-place)
I0719 18:01:47.702862 57921 net.cpp:155] Setting up conv2/relu_3x3_reduce
I0719 18:01:47.702880 57921 net.cpp:163] Top shape: 32 64 56 56 (6422528)
I0719 18:01:47.702889 57921 layer_factory.hpp:76] Creating layer conv2/3x3
I0719 18:01:47.702903 57921 net.cpp:110] Creating Layer conv2/3x3
I0719 18:01:47.702911 57921 net.cpp:477] conv2/3x3 <- conv2/3x3_reduce
I0719 18:01:47.702924 57921 net.cpp:433] conv2/3x3 -> conv2/3x3
I0719 18:01:47.711290 57921 net.cpp:155] Setting up conv2/3x3
I0719 18:01:47.711311 57921 net.cpp:163] Top shape: 32 192 56 56 (19267584)
I0719 18:01:47.711325 57921 layer_factory.hpp:76] Creating layer conv2/relu_3x3
I0719 18:01:47.711338 57921 net.cpp:110] Creating Layer conv2/relu_3x3
I0719 18:01:47.711347 57921 net.cpp:477] conv2/relu_3x3 <- conv2/3x3
I0719 18:01:47.711355 57921 net.cpp:419] conv2/relu_3x3 -> conv2/3x3 (in-place)
I0719 18:01:47.714064 57921 net.cpp:155] Setting up conv2/relu_3x3
I0719 18:01:47.714083 57921 net.cpp:163] Top shape: 32 192 56 56 (19267584)
I0719 18:01:47.714092 57921 layer_factory.hpp:76] Creating layer conv2/norm2
I0719 18:01:47.714104 57921 net.cpp:110] Creating Layer conv2/norm2
I0719 18:01:47.714113 57921 net.cpp:477] conv2/norm2 <- conv2/3x3
I0719 18:01:47.714124 57921 net.cpp:433] conv2/norm2 -> conv2/norm2
I0719 18:01:47.714138 57921 net.cpp:155] Setting up conv2/norm2
I0719 18:01:47.714146 57921 net.cpp:163] Top shape: 32 192 56 56 (19267584)
I0719 18:01:47.714156 57921 layer_factory.hpp:76] Creating layer pool2/3x3_s2
I0719 18:01:47.714166 57921 net.cpp:110] Creating Layer pool2/3x3_s2
I0719 18:01:47.714190 57921 net.cpp:477] pool2/3x3_s2 <- conv2/norm2
I0719 18:01:47.714198 57921 net.cpp:433] pool2/3x3_s2 -> pool2/3x3_s2
I0719 18:01:47.716439 57921 net.cpp:155] Setting up pool2/3x3_s2
I0719 18:01:47.716457 57921 net.cpp:163] Top shape: 32 192 28 28 (4816896)
I0719 18:01:47.716486 57921 layer_factory.hpp:76] Creating layer pool2/3x3_s2_pool2/3x3_s2_0_split
I0719 18:01:47.716500 57921 net.cpp:110] Creating Layer pool2/3x3_s2_pool2/3x3_s2_0_split
I0719 18:01:47.716509 57921 net.cpp:477] pool2/3x3_s2_pool2/3x3_s2_0_split <- pool2/3x3_s2
I0719 18:01:47.716519 57921 net.cpp:433] pool2/3x3_s2_pool2/3x3_s2_0_split -> pool2/3x3_s2_pool2/3x3_s2_0_split_0
I0719 18:01:47.716529 57921 net.cpp:433] pool2/3x3_s2_pool2/3x3_s2_0_split -> pool2/3x3_s2_pool2/3x3_s2_0_split_1
I0719 18:01:47.716541 57921 net.cpp:433] pool2/3x3_s2_pool2/3x3_s2_0_split -> pool2/3x3_s2_pool2/3x3_s2_0_split_2
I0719 18:01:47.716549 57921 net.cpp:433] pool2/3x3_s2_pool2/3x3_s2_0_split -> pool2/3x3_s2_pool2/3x3_s2_0_split_3
I0719 18:01:47.716562 57921 net.cpp:155] Setting up pool2/3x3_s2_pool2/3x3_s2_0_split
I0719 18:01:47.716572 57921 net.cpp:163] Top shape: 32 192 28 28 (4816896)
I0719 18:01:47.716579 57921 net.cpp:163] Top shape: 32 192 28 28 (4816896)
I0719 18:01:47.716588 57921 net.cpp:163] Top shape: 32 192 28 28 (4816896)
I0719 18:01:47.716595 57921 net.cpp:163] Top shape: 32 192 28 28 (4816896)
I0719 18:01:47.716603 57921 layer_factory.hpp:76] Creating layer inception_3a/1x1
I0719 18:01:47.716616 57921 net.cpp:110] Creating Layer inception_3a/1x1
I0719 18:01:47.716625 57921 net.cpp:477] inception_3a/1x1 <- pool2/3x3_s2_pool2/3x3_s2_0_split_0
I0719 18:01:47.716634 57921 net.cpp:433] inception_3a/1x1 -> inception_3a/1x1
I0719 18:01:47.722470 57921 net.cpp:155] Setting up inception_3a/1x1
I0719 18:01:47.722493 57921 net.cpp:163] Top shape: 32 64 28 28 (1605632)
I0719 18:01:47.722506 57921 layer_factory.hpp:76] Creating layer inception_3a/relu_1x1
I0719 18:01:47.722519 57921 net.cpp:110] Creating Layer inception_3a/relu_1x1
I0719 18:01:47.722528 57921 net.cpp:477] inception_3a/relu_1x1 <- inception_3a/1x1
I0719 18:01:47.722539 57921 net.cpp:419] inception_3a/relu_1x1 -> inception_3a/1x1 (in-place)
I0719 18:01:47.723145 57921 net.cpp:155] Setting up inception_3a/relu_1x1
I0719 18:01:47.723163 57921 net.cpp:163] Top shape: 32 64 28 28 (1605632)
I0719 18:01:47.723171 57921 layer_factory.hpp:76] Creating layer inception_3a/3x3_reduce
I0719 18:01:47.723187 57921 net.cpp:110] Creating Layer inception_3a/3x3_reduce
I0719 18:01:47.723198 57921 net.cpp:477] inception_3a/3x3_reduce <- pool2/3x3_s2_pool2/3x3_s2_0_split_1
I0719 18:01:47.723208 57921 net.cpp:433] inception_3a/3x3_reduce -> inception_3a/3x3_reduce
I0719 18:01:47.726835 57921 net.cpp:155] Setting up inception_3a/3x3_reduce
I0719 18:01:47.726878 57921 net.cpp:163] Top shape: 32 96 28 28 (2408448)
I0719 18:01:47.726896 57921 layer_factory.hpp:76] Creating layer inception_3a/relu_3x3_reduce
I0719 18:01:47.726913 57921 net.cpp:110] Creating Layer inception_3a/relu_3x3_reduce
I0719 18:01:47.726922 57921 net.cpp:477] inception_3a/relu_3x3_reduce <- inception_3a/3x3_reduce
I0719 18:01:47.726933 57921 net.cpp:419] inception_3a/relu_3x3_reduce -> inception_3a/3x3_reduce (in-place)
I0719 18:01:47.728030 57921 net.cpp:155] Setting up inception_3a/relu_3x3_reduce
I0719 18:01:47.728061 57921 net.cpp:163] Top shape: 32 96 28 28 (2408448)
I0719 18:01:47.728071 57921 layer_factory.hpp:76] Creating layer inception_3a/3x3
I0719 18:01:47.728086 57921 net.cpp:110] Creating Layer inception_3a/3x3
I0719 18:01:47.728096 57921 net.cpp:477] inception_3a/3x3 <- inception_3a/3x3_reduce
I0719 18:01:47.728106 57921 net.cpp:433] inception_3a/3x3 -> inception_3a/3x3
I0719 18:01:47.731710 57921 net.cpp:155] Setting up inception_3a/3x3
I0719 18:01:47.731731 57921 net.cpp:163] Top shape: 32 128 28 28 (3211264)
I0719 18:01:47.731745 57921 layer_factory.hpp:76] Creating layer inception_3a/relu_3x3
I0719 18:01:47.731755 57921 net.cpp:110] Creating Layer inception_3a/relu_3x3
I0719 18:01:47.731765 57921 net.cpp:477] inception_3a/relu_3x3 <- inception_3a/3x3
I0719 18:01:47.731773 57921 net.cpp:419] inception_3a/relu_3x3 -> inception_3a/3x3 (in-place)
I0719 18:01:47.732909 57921 net.cpp:155] Setting up inception_3a/relu_3x3
I0719 18:01:47.732925 57921 net.cpp:163] Top shape: 32 128 28 28 (3211264)
I0719 18:01:47.732961 57921 layer_factory.hpp:76] Creating layer inception_3a/5x5_reduce
I0719 18:01:47.732975 57921 net.cpp:110] Creating Layer inception_3a/5x5_reduce
I0719 18:01:47.732985 57921 net.cpp:477] inception_3a/5x5_reduce <- pool2/3x3_s2_pool2/3x3_s2_0_split_2
I0719 18:01:47.732993 57921 net.cpp:433] inception_3a/5x5_reduce -> inception_3a/5x5_reduce
I0719 18:01:47.736590 57921 net.cpp:155] Setting up inception_3a/5x5_reduce
I0719 18:01:47.736611 57921 net.cpp:163] Top shape: 32 16 28 28 (401408)
I0719 18:01:47.736624 57921 layer_factory.hpp:76] Creating layer inception_3a/relu_5x5_reduce
I0719 18:01:47.736635 57921 net.cpp:110] Creating Layer inception_3a/relu_5x5_reduce
I0719 18:01:47.736644 57921 net.cpp:477] inception_3a/relu_5x5_reduce <- inception_3a/5x5_reduce
I0719 18:01:47.736654 57921 net.cpp:419] inception_3a/relu_5x5_reduce -> inception_3a/5x5_reduce (in-place)
I0719 18:01:47.737783 57921 net.cpp:155] Setting up inception_3a/relu_5x5_reduce
I0719 18:01:47.737799 57921 net.cpp:163] Top shape: 32 16 28 28 (401408)
I0719 18:01:47.737807 57921 layer_factory.hpp:76] Creating layer inception_3a/5x5
I0719 18:01:47.737819 57921 net.cpp:110] Creating Layer inception_3a/5x5
I0719 18:01:47.737829 57921 net.cpp:477] inception_3a/5x5 <- inception_3a/5x5_reduce
I0719 18:01:47.737841 57921 net.cpp:433] inception_3a/5x5 -> inception_3a/5x5
I0719 18:01:47.741463 57921 net.cpp:155] Setting up inception_3a/5x5
I0719 18:01:47.741484 57921 net.cpp:163] Top shape: 32 32 28 28 (802816)
I0719 18:01:47.741497 57921 layer_factory.hpp:76] Creating layer inception_3a/relu_5x5
I0719 18:01:47.741508 57921 net.cpp:110] Creating Layer inception_3a/relu_5x5
I0719 18:01:47.741518 57921 net.cpp:477] inception_3a/relu_5x5 <- inception_3a/5x5
I0719 18:01:47.741526 57921 net.cpp:419] inception_3a/relu_5x5 -> inception_3a/5x5 (in-place)
I0719 18:01:47.742669 57921 net.cpp:155] Setting up inception_3a/relu_5x5
I0719 18:01:47.742687 57921 net.cpp:163] Top shape: 32 32 28 28 (802816)
I0719 18:01:47.742697 57921 layer_factory.hpp:76] Creating layer inception_3a/pool
I0719 18:01:47.742705 57921 layer_factory.cpp:60] CUDNN does not support padding or multiple tops. Using Caffe's own pooling layer.
I0719 18:01:47.742715 57921 net.cpp:110] Creating Layer inception_3a/pool
I0719 18:01:47.742723 57921 net.cpp:477] inception_3a/pool <- pool2/3x3_s2_pool2/3x3_s2_0_split_3
I0719 18:01:47.742734 57921 net.cpp:433] inception_3a/pool -> inception_3a/pool
I0719 18:01:47.742748 57921 net.cpp:155] Setting up inception_3a/pool
I0719 18:01:47.742758 57921 net.cpp:163] Top shape: 32 192 28 28 (4816896)
I0719 18:01:47.742766 57921 layer_factory.hpp:76] Creating layer inception_3a/pool_proj
I0719 18:01:47.742779 57921 net.cpp:110] Creating Layer inception_3a/pool_proj
I0719 18:01:47.742786 57921 net.cpp:477] inception_3a/pool_proj <- inception_3a/pool
I0719 18:01:47.742796 57921 net.cpp:433] inception_3a/pool_proj -> inception_3a/pool_proj
I0719 18:01:47.752827 57921 net.cpp:155] Setting up inception_3a/pool_proj
I0719 18:01:47.752849 57921 net.cpp:163] Top shape: 32 32 28 28 (802816)
I0719 18:01:47.752866 57921 layer_factory.hpp:76] Creating layer inception_3a/relu_pool_proj
I0719 18:01:47.752879 57921 net.cpp:110] Creating Layer inception_3a/relu_pool_proj
I0719 18:01:47.752888 57921 net.cpp:477] inception_3a/relu_pool_proj <- inception_3a/pool_proj
I0719 18:01:47.752900 57921 net.cpp:419] inception_3a/relu_pool_proj -> inception_3a/pool_proj (in-place)
I0719 18:01:47.753065 57921 net.cpp:155] Setting up inception_3a/relu_pool_proj
I0719 18:01:47.753082 57921 net.cpp:163] Top shape: 32 32 28 28 (802816)
I0719 18:01:47.753090 57921 layer_factory.hpp:76] Creating layer inception_3a/output
I0719 18:01:47.753108 57921 net.cpp:110] Creating Layer inception_3a/output
I0719 18:01:47.753118 57921 net.cpp:477] inception_3a/output <- inception_3a/1x1
I0719 18:01:47.753128 57921 net.cpp:477] inception_3a/output <- inception_3a/3x3
I0719 18:01:47.753134 57921 net.cpp:477] inception_3a/output <- inception_3a/5x5
I0719 18:01:47.753142 57921 net.cpp:477] inception_3a/output <- inception_3a/pool_proj
I0719 18:01:47.753167 57921 net.cpp:433] inception_3a/output -> inception_3a/output
I0719 18:01:47.753181 57921 net.cpp:155] Setting up inception_3a/output
I0719 18:01:47.753191 57921 net.cpp:163] Top shape: 32 256 28 28 (6422528)
I0719 18:01:47.753201 57921 layer_factory.hpp:76] Creating layer inception_3a/output_inception_3a/output_0_split
I0719 18:01:47.753216 57921 net.cpp:110] Creating Layer inception_3a/output_inception_3a/output_0_split
I0719 18:01:47.753223 57921 net.cpp:477] inception_3a/output_inception_3a/output_0_split <- inception_3a/output
I0719 18:01:47.753232 57921 net.cpp:433] inception_3a/output_inception_3a/output_0_split -> inception_3a/output_inception_3a/output_0_split_0
I0719 18:01:47.753243 57921 net.cpp:433] inception_3a/output_inception_3a/output_0_split -> inception_3a/output_inception_3a/output_0_split_1
I0719 18:01:47.753253 57921 net.cpp:433] inception_3a/output_inception_3a/output_0_split -> inception_3a/output_inception_3a/output_0_split_2
I0719 18:01:47.753265 57921 net.cpp:433] inception_3a/output_inception_3a/output_0_split -> inception_3a/output_inception_3a/output_0_split_3
I0719 18:01:47.753275 57921 net.cpp:155] Setting up inception_3a/output_inception_3a/output_0_split
I0719 18:01:47.753283 57921 net.cpp:163] Top shape: 32 256 28 28 (6422528)
I0719 18:01:47.753293 57921 net.cpp:163] Top shape: 32 256 28 28 (6422528)
I0719 18:01:47.753300 57921 net.cpp:163] Top shape: 32 256 28 28 (6422528)
I0719 18:01:47.753307 57921 net.cpp:163] Top shape: 32 256 28 28 (6422528)
I0719 18:01:47.753315 57921 layer_factory.hpp:76] Creating layer inception_3b/1x1
I0719 18:01:47.753325 57921 net.cpp:110] Creating Layer inception_3b/1x1
I0719 18:01:47.753334 57921 net.cpp:477] inception_3b/1x1 <- inception_3a/output_inception_3a/output_0_split_0
I0719 18:01:47.753345 57921 net.cpp:433] inception_3b/1x1 -> inception_3b/1x1
I0719 18:01:47.755919 57921 net.cpp:155] Setting up inception_3b/1x1
I0719 18:01:47.755940 57921 net.cpp:163] Top shape: 32 128 28 28 (3211264)
I0719 18:01:47.755952 57921 layer_factory.hpp:76] Creating layer inception_3b/relu_1x1
I0719 18:01:47.755966 57921 net.cpp:110] Creating Layer inception_3b/relu_1x1
I0719 18:01:47.755975 57921 net.cpp:477] inception_3b/relu_1x1 <- inception_3b/1x1
I0719 18:01:47.755985 57921 net.cpp:419] inception_3b/relu_1x1 -> inception_3b/1x1 (in-place)
I0719 18:01:47.756153 57921 net.cpp:155] Setting up inception_3b/relu_1x1
I0719 18:01:47.756170 57921 net.cpp:163] Top shape: 32 128 28 28 (3211264)
I0719 18:01:47.756177 57921 layer_factory.hpp:76] Creating layer inception_3b/3x3_reduce
I0719 18:01:47.756191 57921 net.cpp:110] Creating Layer inception_3b/3x3_reduce
I0719 18:01:47.756199 57921 net.cpp:477] inception_3b/3x3_reduce <- inception_3a/output_inception_3a/output_0_split_1
I0719 18:01:47.756211 57921 net.cpp:433] inception_3b/3x3_reduce -> inception_3b/3x3_reduce
I0719 18:01:47.758973 57921 net.cpp:155] Setting up inception_3b/3x3_reduce
I0719 18:01:47.758996 57921 net.cpp:163] Top shape: 32 128 28 28 (3211264)
I0719 18:01:47.759009 57921 layer_factory.hpp:76] Creating layer inception_3b/relu_3x3_reduce
I0719 18:01:47.759021 57921 net.cpp:110] Creating Layer inception_3b/relu_3x3_reduce
I0719 18:01:47.759028 57921 net.cpp:477] inception_3b/relu_3x3_reduce <- inception_3b/3x3_reduce
I0719 18:01:47.759038 57921 net.cpp:419] inception_3b/relu_3x3_reduce -> inception_3b/3x3_reduce (in-place)
I0719 18:01:47.760191 57921 net.cpp:155] Setting up inception_3b/relu_3x3_reduce
I0719 18:01:47.760215 57921 net.cpp:163] Top shape: 32 128 28 28 (3211264)
I0719 18:01:47.760226 57921 layer_factory.hpp:76] Creating layer inception_3b/3x3
I0719 18:01:47.760251 57921 net.cpp:110] Creating Layer inception_3b/3x3
I0719 18:01:47.760260 57921 net.cpp:477] inception_3b/3x3 <- inception_3b/3x3_reduce
I0719 18:01:47.760272 57921 net.cpp:433] inception_3b/3x3 -> inception_3b/3x3
I0719 18:01:47.764930 57921 net.cpp:155] Setting up inception_3b/3x3
I0719 18:01:47.764971 57921 net.cpp:163] Top shape: 32 192 28 28 (4816896)
I0719 18:01:47.764986 57921 layer_factory.hpp:76] Creating layer inception_3b/relu_3x3
I0719 18:01:47.765036 57921 net.cpp:110] Creating Layer inception_3b/relu_3x3
I0719 18:01:47.765046 57921 net.cpp:477] inception_3b/relu_3x3 <- inception_3b/3x3
I0719 18:01:47.765058 57921 net.cpp:419] inception_3b/relu_3x3 -> inception_3b/3x3 (in-place)
I0719 18:01:47.766134 57921 net.cpp:155] Setting up inception_3b/relu_3x3
I0719 18:01:47.766158 57921 net.cpp:163] Top shape: 32 192 28 28 (4816896)
I0719 18:01:47.766167 57921 layer_factory.hpp:76] Creating layer inception_3b/5x5_reduce
I0719 18:01:47.766192 57921 net.cpp:110] Creating Layer inception_3b/5x5_reduce
I0719 18:01:47.766201 57921 net.cpp:477] inception_3b/5x5_reduce <- inception_3a/output_inception_3a/output_0_split_2
I0719 18:01:47.766213 57921 net.cpp:433] inception_3b/5x5_reduce -> inception_3b/5x5_reduce
I0719 18:01:47.769847 57921 net.cpp:155] Setting up inception_3b/5x5_reduce
I0719 18:01:47.769906 57921 net.cpp:163] Top shape: 32 32 28 28 (802816)
I0719 18:01:47.769929 57921 layer_factory.hpp:76] Creating layer inception_3b/relu_5x5_reduce
I0719 18:01:47.769958 57921 net.cpp:110] Creating Layer inception_3b/relu_5x5_reduce
I0719 18:01:47.769989 57921 net.cpp:477] inception_3b/relu_5x5_reduce <- inception_3b/5x5_reduce
I0719 18:01:47.770011 57921 net.cpp:419] inception_3b/relu_5x5_reduce -> inception_3b/5x5_reduce (in-place)
I0719 18:01:47.770995 57921 net.cpp:155] Setting up inception_3b/relu_5x5_reduce
I0719 18:01:47.771020 57921 net.cpp:163] Top shape: 32 32 28 28 (802816)
I0719 18:01:47.771034 57921 layer_factory.hpp:76] Creating layer inception_3b/5x5
I0719 18:01:47.771052 57921 net.cpp:110] Creating Layer inception_3b/5x5
I0719 18:01:47.771066 57921 net.cpp:477] inception_3b/5x5 <- inception_3b/5x5_reduce
I0719 18:01:47.771085 57921 net.cpp:433] inception_3b/5x5 -> inception_3b/5x5
I0719 18:01:47.774734 57921 net.cpp:155] Setting up inception_3b/5x5
I0719 18:01:47.774766 57921 net.cpp:163] Top shape: 32 96 28 28 (2408448)
I0719 18:01:47.774777 57921 layer_factory.hpp:76] Creating layer inception_3b/relu_5x5
I0719 18:01:47.774787 57921 net.cpp:110] Creating Layer inception_3b/relu_5x5
I0719 18:01:47.774794 57921 net.cpp:477] inception_3b/relu_5x5 <- inception_3b/5x5
I0719 18:01:47.774803 57921 net.cpp:419] inception_3b/relu_5x5 -> inception_3b/5x5 (in-place)
I0719 18:01:47.775857 57921 net.cpp:155] Setting up inception_3b/relu_5x5
I0719 18:01:47.775869 57921 net.cpp:163] Top shape: 32 96 28 28 (2408448)
I0719 18:01:47.775874 57921 layer_factory.hpp:76] Creating layer inception_3b/pool
I0719 18:01:47.775882 57921 layer_factory.cpp:60] CUDNN does not support padding or multiple tops. Using Caffe's own pooling layer.
I0719 18:01:47.775888 57921 net.cpp:110] Creating Layer inception_3b/pool
I0719 18:01:47.775893 57921 net.cpp:477] inception_3b/pool <- inception_3a/output_inception_3a/output_0_split_3
I0719 18:01:47.775900 57921 net.cpp:433] inception_3b/pool -> inception_3b/pool
I0719 18:01:47.775912 57921 net.cpp:155] Setting up inception_3b/pool
I0719 18:01:47.775918 57921 net.cpp:163] Top shape: 32 256 28 28 (6422528)
I0719 18:01:47.775923 57921 layer_factory.hpp:76] Creating layer inception_3b/pool_proj
I0719 18:01:47.775931 57921 net.cpp:110] Creating Layer inception_3b/pool_proj
I0719 18:01:47.775935 57921 net.cpp:477] inception_3b/pool_proj <- inception_3b/pool
I0719 18:01:47.775941 57921 net.cpp:433] inception_3b/pool_proj -> inception_3b/pool_proj
I0719 18:01:47.777645 57921 net.cpp:155] Setting up inception_3b/pool_proj
I0719 18:01:47.777662 57921 net.cpp:163] Top shape: 32 64 28 28 (1605632)
I0719 18:01:47.777672 57921 layer_factory.hpp:76] Creating layer inception_3b/relu_pool_proj
I0719 18:01:47.777680 57921 net.cpp:110] Creating Layer inception_3b/relu_pool_proj
I0719 18:01:47.777685 57921 net.cpp:477] inception_3b/relu_pool_proj <- inception_3b/pool_proj
I0719 18:01:47.777704 57921 net.cpp:419] inception_3b/relu_pool_proj -> inception_3b/pool_proj (in-place)
I0719 18:01:47.782066 57921 net.cpp:155] Setting up inception_3b/relu_pool_proj
I0719 18:01:47.782078 57921 net.cpp:163] Top shape: 32 64 28 28 (1605632)
I0719 18:01:47.782110 57921 layer_factory.hpp:76] Creating layer inception_3b/output
I0719 18:01:47.782119 57921 net.cpp:110] Creating Layer inception_3b/output
I0719 18:01:47.782124 57921 net.cpp:477] inception_3b/output <- inception_3b/1x1
I0719 18:01:47.782130 57921 net.cpp:477] inception_3b/output <- inception_3b/3x3
I0719 18:01:47.782135 57921 net.cpp:477] inception_3b/output <- inception_3b/5x5
I0719 18:01:47.782140 57921 net.cpp:477] inception_3b/output <- inception_3b/pool_proj
I0719 18:01:47.782145 57921 net.cpp:433] inception_3b/output -> inception_3b/output
I0719 18:01:47.782153 57921 net.cpp:155] Setting up inception_3b/output
I0719 18:01:47.782160 57921 net.cpp:163] Top shape: 32 480 28 28 (12042240)
I0719 18:01:47.782163 57921 layer_factory.hpp:76] Creating layer pool3/3x3_s2
I0719 18:01:47.782171 57921 net.cpp:110] Creating Layer pool3/3x3_s2
I0719 18:01:47.782176 57921 net.cpp:477] pool3/3x3_s2 <- inception_3b/output
I0719 18:01:47.782181 57921 net.cpp:433] pool3/3x3_s2 -> pool3/3x3_s2
I0719 18:01:47.782737 57921 net.cpp:155] Setting up pool3/3x3_s2
I0719 18:01:47.782769 57921 net.cpp:163] Top shape: 32 480 14 14 (3010560)
I0719 18:01:47.782781 57921 layer_factory.hpp:76] Creating layer pool3/3x3_s2_pool3/3x3_s2_0_split
I0719 18:01:47.782793 57921 net.cpp:110] Creating Layer pool3/3x3_s2_pool3/3x3_s2_0_split
I0719 18:01:47.782801 57921 net.cpp:477] pool3/3x3_s2_pool3/3x3_s2_0_split <- pool3/3x3_s2
I0719 18:01:47.782811 57921 net.cpp:433] pool3/3x3_s2_pool3/3x3_s2_0_split -> pool3/3x3_s2_pool3/3x3_s2_0_split_0
I0719 18:01:47.782825 57921 net.cpp:433] pool3/3x3_s2_pool3/3x3_s2_0_split -> pool3/3x3_s2_pool3/3x3_s2_0_split_1
I0719 18:01:47.782836 57921 net.cpp:433] pool3/3x3_s2_pool3/3x3_s2_0_split -> pool3/3x3_s2_pool3/3x3_s2_0_split_2
I0719 18:01:47.782846 57921 net.cpp:433] pool3/3x3_s2_pool3/3x3_s2_0_split -> pool3/3x3_s2_pool3/3x3_s2_0_split_3
I0719 18:01:47.782856 57921 net.cpp:155] Setting up pool3/3x3_s2_pool3/3x3_s2_0_split
I0719 18:01:47.782866 57921 net.cpp:163] Top shape: 32 480 14 14 (3010560)
I0719 18:01:47.782874 57921 net.cpp:163] Top shape: 32 480 14 14 (3010560)
I0719 18:01:47.782884 57921 net.cpp:163] Top shape: 32 480 14 14 (3010560)
I0719 18:01:47.782892 57921 net.cpp:163] Top shape: 32 480 14 14 (3010560)
I0719 18:01:47.782902 57921 layer_factory.hpp:76] Creating layer inception_4a/1x1
I0719 18:01:47.782914 57921 net.cpp:110] Creating Layer inception_4a/1x1
I0719 18:01:47.782922 57921 net.cpp:477] inception_4a/1x1 <- pool3/3x3_s2_pool3/3x3_s2_0_split_0
I0719 18:01:47.782932 57921 net.cpp:433] inception_4a/1x1 -> inception_4a/1x1
I0719 18:01:47.786288 57921 net.cpp:155] Setting up inception_4a/1x1
I0719 18:01:47.786320 57921 net.cpp:163] Top shape: 32 192 14 14 (1204224)
I0719 18:01:47.786332 57921 layer_factory.hpp:76] Creating layer inception_4a/relu_1x1
I0719 18:01:47.786345 57921 net.cpp:110] Creating Layer inception_4a/relu_1x1
I0719 18:01:47.786353 57921 net.cpp:477] inception_4a/relu_1x1 <- inception_4a/1x1
I0719 18:01:47.786365 57921 net.cpp:419] inception_4a/relu_1x1 -> inception_4a/1x1 (in-place)
I0719 18:01:47.787569 57921 net.cpp:155] Setting up inception_4a/relu_1x1
I0719 18:01:47.787600 57921 net.cpp:163] Top shape: 32 192 14 14 (1204224)
I0719 18:01:47.787608 57921 layer_factory.hpp:76] Creating layer inception_4a/3x3_reduce
I0719 18:01:47.787622 57921 net.cpp:110] Creating Layer inception_4a/3x3_reduce
I0719 18:01:47.787631 57921 net.cpp:477] inception_4a/3x3_reduce <- pool3/3x3_s2_pool3/3x3_s2_0_split_1
I0719 18:01:47.787642 57921 net.cpp:433] inception_4a/3x3_reduce -> inception_4a/3x3_reduce
I0719 18:01:47.791427 57921 net.cpp:155] Setting up inception_4a/3x3_reduce
I0719 18:01:47.791461 57921 net.cpp:163] Top shape: 32 96 14 14 (602112)
I0719 18:01:47.791483 57921 layer_factory.hpp:76] Creating layer inception_4a/relu_3x3_reduce
I0719 18:01:47.791494 57921 net.cpp:110] Creating Layer inception_4a/relu_3x3_reduce
I0719 18:01:47.791503 57921 net.cpp:477] inception_4a/relu_3x3_reduce <- inception_4a/3x3_reduce
I0719 18:01:47.791512 57921 net.cpp:419] inception_4a/relu_3x3_reduce -> inception_4a/3x3_reduce (in-place)
I0719 18:01:47.792680 57921 net.cpp:155] Setting up inception_4a/relu_3x3_reduce
I0719 18:01:47.792707 57921 net.cpp:163] Top shape: 32 96 14 14 (602112)
I0719 18:01:47.792716 57921 layer_factory.hpp:76] Creating layer inception_4a/3x3
I0719 18:01:47.792731 57921 net.cpp:110] Creating Layer inception_4a/3x3
I0719 18:01:47.792738 57921 net.cpp:477] inception_4a/3x3 <- inception_4a/3x3_reduce
I0719 18:01:47.792748 57921 net.cpp:433] inception_4a/3x3 -> inception_4a/3x3
I0719 18:01:47.796566 57921 net.cpp:155] Setting up inception_4a/3x3
I0719 18:01:47.796599 57921 net.cpp:163] Top shape: 32 208 14 14 (1304576)
I0719 18:01:47.796614 57921 layer_factory.hpp:76] Creating layer inception_4a/relu_3x3
I0719 18:01:47.796625 57921 net.cpp:110] Creating Layer inception_4a/relu_3x3
I0719 18:01:47.796634 57921 net.cpp:477] inception_4a/relu_3x3 <- inception_4a/3x3
I0719 18:01:47.796643 57921 net.cpp:419] inception_4a/relu_3x3 -> inception_4a/3x3 (in-place)
I0719 18:01:47.797806 57921 net.cpp:155] Setting up inception_4a/relu_3x3
I0719 18:01:47.797839 57921 net.cpp:163] Top shape: 32 208 14 14 (1304576)
I0719 18:01:47.797848 57921 layer_factory.hpp:76] Creating layer inception_4a/5x5_reduce
I0719 18:01:47.797860 57921 net.cpp:110] Creating Layer inception_4a/5x5_reduce
I0719 18:01:47.797868 57921 net.cpp:477] inception_4a/5x5_reduce <- pool3/3x3_s2_pool3/3x3_s2_0_split_2
I0719 18:01:47.797881 57921 net.cpp:433] inception_4a/5x5_reduce -> inception_4a/5x5_reduce
I0719 18:01:47.801661 57921 net.cpp:155] Setting up inception_4a/5x5_reduce
I0719 18:01:47.801692 57921 net.cpp:163] Top shape: 32 16 14 14 (100352)
I0719 18:01:47.801704 57921 layer_factory.hpp:76] Creating layer inception_4a/relu_5x5_reduce
I0719 18:01:47.801728 57921 net.cpp:110] Creating Layer inception_4a/relu_5x5_reduce
I0719 18:01:47.801738 57921 net.cpp:477] inception_4a/relu_5x5_reduce <- inception_4a/5x5_reduce
I0719 18:01:47.801749 57921 net.cpp:419] inception_4a/relu_5x5_reduce -> inception_4a/5x5_reduce (in-place)
I0719 18:01:47.802928 57921 net.cpp:155] Setting up inception_4a/relu_5x5_reduce
I0719 18:01:47.802959 57921 net.cpp:163] Top shape: 32 16 14 14 (100352)
I0719 18:01:47.802968 57921 layer_factory.hpp:76] Creating layer inception_4a/5x5
I0719 18:01:47.802983 57921 net.cpp:110] Creating Layer inception_4a/5x5
I0719 18:01:47.802992 57921 net.cpp:477] inception_4a/5x5 <- inception_4a/5x5_reduce
I0719 18:01:47.803005 57921 net.cpp:433] inception_4a/5x5 -> inception_4a/5x5
I0719 18:01:47.806785 57921 net.cpp:155] Setting up inception_4a/5x5
I0719 18:01:47.806816 57921 net.cpp:163] Top shape: 32 48 14 14 (301056)
I0719 18:01:47.806828 57921 layer_factory.hpp:76] Creating layer inception_4a/relu_5x5
I0719 18:01:47.806841 57921 net.cpp:110] Creating Layer inception_4a/relu_5x5
I0719 18:01:47.806849 57921 net.cpp:477] inception_4a/relu_5x5 <- inception_4a/5x5
I0719 18:01:47.806860 57921 net.cpp:419] inception_4a/relu_5x5 -> inception_4a/5x5 (in-place)
I0719 18:01:47.808043 57921 net.cpp:155] Setting up inception_4a/relu_5x5
I0719 18:01:47.808070 57921 net.cpp:163] Top shape: 32 48 14 14 (301056)
I0719 18:01:47.808079 57921 layer_factory.hpp:76] Creating layer inception_4a/pool
I0719 18:01:47.808087 57921 layer_factory.cpp:60] CUDNN does not support padding or multiple tops. Using Caffe's own pooling layer.
I0719 18:01:47.808099 57921 net.cpp:110] Creating Layer inception_4a/pool
I0719 18:01:47.808107 57921 net.cpp:477] inception_4a/pool <- pool3/3x3_s2_pool3/3x3_s2_0_split_3
I0719 18:01:47.808116 57921 net.cpp:433] inception_4a/pool -> inception_4a/pool
I0719 18:01:47.808131 57921 net.cpp:155] Setting up inception_4a/pool
I0719 18:01:47.808140 57921 net.cpp:163] Top shape: 32 480 14 14 (3010560)
I0719 18:01:47.808148 57921 layer_factory.hpp:76] Creating layer inception_4a/pool_proj
I0719 18:01:47.808161 57921 net.cpp:110] Creating Layer inception_4a/pool_proj
I0719 18:01:47.808168 57921 net.cpp:477] inception_4a/pool_proj <- inception_4a/pool
I0719 18:01:47.808181 57921 net.cpp:433] inception_4a/pool_proj -> inception_4a/pool_proj
I0719 18:01:47.811939 57921 net.cpp:155] Setting up inception_4a/pool_proj
I0719 18:01:47.811990 57921 net.cpp:163] Top shape: 32 64 14 14 (401408)
I0719 18:01:47.812005 57921 layer_factory.hpp:76] Creating layer inception_4a/relu_pool_proj
I0719 18:01:47.812021 57921 net.cpp:110] Creating Layer inception_4a/relu_pool_proj
I0719 18:01:47.812031 57921 net.cpp:477] inception_4a/relu_pool_proj <- inception_4a/pool_proj
I0719 18:01:47.812044 57921 net.cpp:419] inception_4a/relu_pool_proj -> inception_4a/pool_proj (in-place)
I0719 18:01:47.813171 57921 net.cpp:155] Setting up inception_4a/relu_pool_proj
I0719 18:01:47.813205 57921 net.cpp:163] Top shape: 32 64 14 14 (401408)
I0719 18:01:47.813213 57921 layer_factory.hpp:76] Creating layer inception_4a/output
I0719 18:01:47.813225 57921 net.cpp:110] Creating Layer inception_4a/output
I0719 18:01:47.813235 57921 net.cpp:477] inception_4a/output <- inception_4a/1x1
I0719 18:01:47.813244 57921 net.cpp:477] inception_4a/output <- inception_4a/3x3
I0719 18:01:47.813253 57921 net.cpp:477] inception_4a/output <- inception_4a/5x5
I0719 18:01:47.813261 57921 net.cpp:477] inception_4a/output <- inception_4a/pool_proj
I0719 18:01:47.813273 57921 net.cpp:433] inception_4a/output -> inception_4a/output
I0719 18:01:47.813287 57921 net.cpp:155] Setting up inception_4a/output
I0719 18:01:47.813297 57921 net.cpp:163] Top shape: 32 512 14 14 (3211264)
I0719 18:01:47.813304 57921 layer_factory.hpp:76] Creating layer inception_4a/output_inception_4a/output_0_split
I0719 18:01:47.813315 57921 net.cpp:110] Creating Layer inception_4a/output_inception_4a/output_0_split
I0719 18:01:47.813323 57921 net.cpp:477] inception_4a/output_inception_4a/output_0_split <- inception_4a/output
I0719 18:01:47.813333 57921 net.cpp:433] inception_4a/output_inception_4a/output_0_split -> inception_4a/output_inception_4a/output_0_split_0
I0719 18:01:47.813346 57921 net.cpp:433] inception_4a/output_inception_4a/output_0_split -> inception_4a/output_inception_4a/output_0_split_1
I0719 18:01:47.813359 57921 net.cpp:433] inception_4a/output_inception_4a/output_0_split -> inception_4a/output_inception_4a/output_0_split_2
I0719 18:01:47.813369 57921 net.cpp:433] inception_4a/output_inception_4a/output_0_split -> inception_4a/output_inception_4a/output_0_split_3
I0719 18:01:47.813379 57921 net.cpp:433] inception_4a/output_inception_4a/output_0_split -> inception_4a/output_inception_4a/output_0_split_4
I0719 18:01:47.813390 57921 net.cpp:155] Setting up inception_4a/output_inception_4a/output_0_split
I0719 18:01:47.813398 57921 net.cpp:163] Top shape: 32 512 14 14 (3211264)
I0719 18:01:47.813407 57921 net.cpp:163] Top shape: 32 512 14 14 (3211264)
I0719 18:01:47.813416 57921 net.cpp:163] Top shape: 32 512 14 14 (3211264)
I0719 18:01:47.813423 57921 net.cpp:163] Top shape: 32 512 14 14 (3211264)
I0719 18:01:47.813433 57921 net.cpp:163] Top shape: 32 512 14 14 (3211264)
I0719 18:01:47.813441 57921 layer_factory.hpp:76] Creating layer loss1/ave_pool
I0719 18:01:47.813457 57921 net.cpp:110] Creating Layer loss1/ave_pool
I0719 18:01:47.813464 57921 net.cpp:477] loss1/ave_pool <- inception_4a/output_inception_4a/output_0_split_0
I0719 18:01:47.813473 57921 net.cpp:433] loss1/ave_pool -> loss1/ave_pool
I0719 18:01:47.814442 57921 net.cpp:155] Setting up loss1/ave_pool
I0719 18:01:47.814471 57921 net.cpp:163] Top shape: 32 512 4 4 (262144)
I0719 18:01:47.814481 57921 layer_factory.hpp:76] Creating layer loss1/conv
I0719 18:01:47.814497 57921 net.cpp:110] Creating Layer loss1/conv
I0719 18:01:47.814505 57921 net.cpp:477] loss1/conv <- loss1/ave_pool
I0719 18:01:47.814515 57921 net.cpp:433] loss1/conv -> loss1/conv
I0719 18:01:47.818296 57921 net.cpp:155] Setting up loss1/conv
I0719 18:01:47.818328 57921 net.cpp:163] Top shape: 32 128 4 4 (65536)
I0719 18:01:47.818341 57921 layer_factory.hpp:76] Creating layer loss1/relu_conv
I0719 18:01:47.818352 57921 net.cpp:110] Creating Layer loss1/relu_conv
I0719 18:01:47.818361 57921 net.cpp:477] loss1/relu_conv <- loss1/conv
I0719 18:01:47.818369 57921 net.cpp:419] loss1/relu_conv -> loss1/conv (in-place)
I0719 18:01:47.819541 57921 net.cpp:155] Setting up loss1/relu_conv
I0719 18:01:47.819573 57921 net.cpp:163] Top shape: 32 128 4 4 (65536)
I0719 18:01:47.819582 57921 layer_factory.hpp:76] Creating layer loss1/fc
I0719 18:01:47.819594 57921 net.cpp:110] Creating Layer loss1/fc
I0719 18:01:47.819602 57921 net.cpp:477] loss1/fc <- loss1/conv
I0719 18:01:47.819614 57921 net.cpp:433] loss1/fc -> loss1/fc
I0719 18:01:47.837707 57921 net.cpp:155] Setting up loss1/fc
I0719 18:01:47.837754 57921 net.cpp:163] Top shape: 32 1024 (32768)
I0719 18:01:47.837767 57921 layer_factory.hpp:76] Creating layer loss1/relu_fc
I0719 18:01:47.837782 57921 net.cpp:110] Creating Layer loss1/relu_fc
I0719 18:01:47.837792 57921 net.cpp:477] loss1/relu_fc <- loss1/fc
I0719 18:01:47.837805 57921 net.cpp:419] loss1/relu_fc -> loss1/fc (in-place)
I0719 18:01:47.838050 57921 net.cpp:155] Setting up loss1/relu_fc
I0719 18:01:47.838078 57921 net.cpp:163] Top shape: 32 1024 (32768)
I0719 18:01:47.838088 57921 layer_factory.hpp:76] Creating layer loss1/drop_fc
I0719 18:01:47.838116 57921 net.cpp:110] Creating Layer loss1/drop_fc
I0719 18:01:47.838125 57921 net.cpp:477] loss1/drop_fc <- loss1/fc
I0719 18:01:47.838135 57921 net.cpp:419] loss1/drop_fc -> loss1/fc (in-place)
I0719 18:01:47.838150 57921 net.cpp:155] Setting up loss1/drop_fc
I0719 18:01:47.838160 57921 net.cpp:163] Top shape: 32 1024 (32768)
I0719 18:01:47.838167 57921 layer_factory.hpp:76] Creating layer loss1/classifier
I0719 18:01:47.838181 57921 net.cpp:110] Creating Layer loss1/classifier
I0719 18:01:47.838188 57921 net.cpp:477] loss1/classifier <- loss1/fc
I0719 18:01:47.838198 57921 net.cpp:433] loss1/classifier -> loss1/classifier
I0719 18:01:47.838309 57921 net.cpp:155] Setting up loss1/classifier
I0719 18:01:47.838320 57921 net.cpp:163] Top shape: 32 2 (64)
I0719 18:01:47.838359 57921 layer_factory.hpp:76] Creating layer loss1/loss
I0719 18:01:47.838373 57921 net.cpp:110] Creating Layer loss1/loss
I0719 18:01:47.838382 57921 net.cpp:477] loss1/loss <- loss1/classifier
I0719 18:01:47.838390 57921 net.cpp:477] loss1/loss <- label_data_1_split_0
I0719 18:01:47.838402 57921 net.cpp:433] loss1/loss -> loss1/loss1
I0719 18:01:47.838418 57921 layer_factory.hpp:76] Creating layer loss1/loss
I0719 18:01:47.838886 57921 net.cpp:155] Setting up loss1/loss
I0719 18:01:47.838917 57921 net.cpp:163] Top shape: (1)
I0719 18:01:47.838927 57921 net.cpp:168]     with loss weight 0.3
I0719 18:01:47.838949 57921 layer_factory.hpp:76] Creating layer inception_4b/1x1
I0719 18:01:47.838965 57921 net.cpp:110] Creating Layer inception_4b/1x1
I0719 18:01:47.838974 57921 net.cpp:477] inception_4b/1x1 <- inception_4a/output_inception_4a/output_0_split_1
I0719 18:01:47.838984 57921 net.cpp:433] inception_4b/1x1 -> inception_4b/1x1
I0719 18:01:47.842138 57921 net.cpp:155] Setting up inception_4b/1x1
I0719 18:01:47.842172 57921 net.cpp:163] Top shape: 32 160 14 14 (1003520)
I0719 18:01:47.842185 57921 layer_factory.hpp:76] Creating layer inception_4b/relu_1x1
I0719 18:01:47.842197 57921 net.cpp:110] Creating Layer inception_4b/relu_1x1
I0719 18:01:47.842206 57921 net.cpp:477] inception_4b/relu_1x1 <- inception_4b/1x1
I0719 18:01:47.842216 57921 net.cpp:419] inception_4b/relu_1x1 -> inception_4b/1x1 (in-place)
I0719 18:01:47.843405 57921 net.cpp:155] Setting up inception_4b/relu_1x1
I0719 18:01:47.843433 57921 net.cpp:163] Top shape: 32 160 14 14 (1003520)
I0719 18:01:47.843442 57921 layer_factory.hpp:76] Creating layer inception_4b/3x3_reduce
I0719 18:01:47.843456 57921 net.cpp:110] Creating Layer inception_4b/3x3_reduce
I0719 18:01:47.843463 57921 net.cpp:477] inception_4b/3x3_reduce <- inception_4a/output_inception_4a/output_0_split_2
I0719 18:01:47.843478 57921 net.cpp:433] inception_4b/3x3_reduce -> inception_4b/3x3_reduce
I0719 18:01:47.847298 57921 net.cpp:155] Setting up inception_4b/3x3_reduce
I0719 18:01:47.847347 57921 net.cpp:163] Top shape: 32 112 14 14 (702464)
I0719 18:01:47.847362 57921 layer_factory.hpp:76] Creating layer inception_4b/relu_3x3_reduce
I0719 18:01:47.847404 57921 net.cpp:110] Creating Layer inception_4b/relu_3x3_reduce
I0719 18:01:47.847412 57921 net.cpp:477] inception_4b/relu_3x3_reduce <- inception_4b/3x3_reduce
I0719 18:01:47.847424 57921 net.cpp:419] inception_4b/relu_3x3_reduce -> inception_4b/3x3_reduce (in-place)
I0719 18:01:47.848551 57921 net.cpp:155] Setting up inception_4b/relu_3x3_reduce
I0719 18:01:47.848585 57921 net.cpp:163] Top shape: 32 112 14 14 (702464)
I0719 18:01:47.848593 57921 layer_factory.hpp:76] Creating layer inception_4b/3x3
I0719 18:01:47.848614 57921 net.cpp:110] Creating Layer inception_4b/3x3
I0719 18:01:47.848623 57921 net.cpp:477] inception_4b/3x3 <- inception_4b/3x3_reduce
I0719 18:01:47.848634 57921 net.cpp:433] inception_4b/3x3 -> inception_4b/3x3
I0719 18:01:47.852854 57921 net.cpp:155] Setting up inception_4b/3x3
I0719 18:01:47.852901 57921 net.cpp:163] Top shape: 32 224 14 14 (1404928)
I0719 18:01:47.852916 57921 layer_factory.hpp:76] Creating layer inception_4b/relu_3x3
I0719 18:01:47.852928 57921 net.cpp:110] Creating Layer inception_4b/relu_3x3
I0719 18:01:47.852938 57921 net.cpp:477] inception_4b/relu_3x3 <- inception_4b/3x3
I0719 18:01:47.852951 57921 net.cpp:419] inception_4b/relu_3x3 -> inception_4b/3x3 (in-place)
I0719 18:01:47.854105 57921 net.cpp:155] Setting up inception_4b/relu_3x3
I0719 18:01:47.854136 57921 net.cpp:163] Top shape: 32 224 14 14 (1404928)
I0719 18:01:47.854146 57921 layer_factory.hpp:76] Creating layer inception_4b/5x5_reduce
I0719 18:01:47.854161 57921 net.cpp:110] Creating Layer inception_4b/5x5_reduce
I0719 18:01:47.854169 57921 net.cpp:477] inception_4b/5x5_reduce <- inception_4a/output_inception_4a/output_0_split_3
I0719 18:01:47.854182 57921 net.cpp:433] inception_4b/5x5_reduce -> inception_4b/5x5_reduce
I0719 18:01:47.857997 57921 net.cpp:155] Setting up inception_4b/5x5_reduce
I0719 18:01:47.858028 57921 net.cpp:163] Top shape: 32 24 14 14 (150528)
I0719 18:01:47.858042 57921 layer_factory.hpp:76] Creating layer inception_4b/relu_5x5_reduce
I0719 18:01:47.858052 57921 net.cpp:110] Creating Layer inception_4b/relu_5x5_reduce
I0719 18:01:47.858062 57921 net.cpp:477] inception_4b/relu_5x5_reduce <- inception_4b/5x5_reduce
I0719 18:01:47.858070 57921 net.cpp:419] inception_4b/relu_5x5_reduce -> inception_4b/5x5_reduce (in-place)
I0719 18:01:47.859258 57921 net.cpp:155] Setting up inception_4b/relu_5x5_reduce
I0719 18:01:47.859289 57921 net.cpp:163] Top shape: 32 24 14 14 (150528)
I0719 18:01:47.859298 57921 layer_factory.hpp:76] Creating layer inception_4b/5x5
I0719 18:01:47.859310 57921 net.cpp:110] Creating Layer inception_4b/5x5
I0719 18:01:47.859318 57921 net.cpp:477] inception_4b/5x5 <- inception_4b/5x5_reduce
I0719 18:01:47.859330 57921 net.cpp:433] inception_4b/5x5 -> inception_4b/5x5
I0719 18:01:47.862187 57921 net.cpp:155] Setting up inception_4b/5x5
I0719 18:01:47.862220 57921 net.cpp:163] Top shape: 32 64 14 14 (401408)
I0719 18:01:47.862232 57921 layer_factory.hpp:76] Creating layer inception_4b/relu_5x5
I0719 18:01:47.862243 57921 net.cpp:110] Creating Layer inception_4b/relu_5x5
I0719 18:01:47.862251 57921 net.cpp:477] inception_4b/relu_5x5 <- inception_4b/5x5
I0719 18:01:47.862263 57921 net.cpp:419] inception_4b/relu_5x5 -> inception_4b/5x5 (in-place)
I0719 18:01:47.862443 57921 net.cpp:155] Setting up inception_4b/relu_5x5
I0719 18:01:47.862471 57921 net.cpp:163] Top shape: 32 64 14 14 (401408)
I0719 18:01:47.862479 57921 layer_factory.hpp:76] Creating layer inception_4b/pool
I0719 18:01:47.862489 57921 layer_factory.cpp:60] CUDNN does not support padding or multiple tops. Using Caffe's own pooling layer.
I0719 18:01:47.862501 57921 net.cpp:110] Creating Layer inception_4b/pool
I0719 18:01:47.862510 57921 net.cpp:477] inception_4b/pool <- inception_4a/output_inception_4a/output_0_split_4
I0719 18:01:47.862520 57921 net.cpp:433] inception_4b/pool -> inception_4b/pool
I0719 18:01:47.862542 57921 net.cpp:155] Setting up inception_4b/pool
I0719 18:01:47.862553 57921 net.cpp:163] Top shape: 32 512 14 14 (3211264)
I0719 18:01:47.862561 57921 layer_factory.hpp:76] Creating layer inception_4b/pool_proj
I0719 18:01:47.862615 57921 net.cpp:110] Creating Layer inception_4b/pool_proj
I0719 18:01:47.862625 57921 net.cpp:477] inception_4b/pool_proj <- inception_4b/pool
I0719 18:01:47.862653 57921 net.cpp:433] inception_4b/pool_proj -> inception_4b/pool_proj
I0719 18:01:47.867527 57921 net.cpp:155] Setting up inception_4b/pool_proj
I0719 18:01:47.867560 57921 net.cpp:163] Top shape: 32 64 14 14 (401408)
I0719 18:01:47.867573 57921 layer_factory.hpp:76] Creating layer inception_4b/relu_pool_proj
I0719 18:01:47.867584 57921 net.cpp:110] Creating Layer inception_4b/relu_pool_proj
I0719 18:01:47.867594 57921 net.cpp:477] inception_4b/relu_pool_proj <- inception_4b/pool_proj
I0719 18:01:47.867604 57921 net.cpp:419] inception_4b/relu_pool_proj -> inception_4b/pool_proj (in-place)
I0719 18:01:47.868551 57921 net.cpp:155] Setting up inception_4b/relu_pool_proj
I0719 18:01:47.868582 57921 net.cpp:163] Top shape: 32 64 14 14 (401408)
I0719 18:01:47.868593 57921 layer_factory.hpp:76] Creating layer inception_4b/output
I0719 18:01:47.868607 57921 net.cpp:110] Creating Layer inception_4b/output
I0719 18:01:47.868615 57921 net.cpp:477] inception_4b/output <- inception_4b/1x1
I0719 18:01:47.868626 57921 net.cpp:477] inception_4b/output <- inception_4b/3x3
I0719 18:01:47.868634 57921 net.cpp:477] inception_4b/output <- inception_4b/5x5
I0719 18:01:47.868643 57921 net.cpp:477] inception_4b/output <- inception_4b/pool_proj
I0719 18:01:47.868651 57921 net.cpp:433] inception_4b/output -> inception_4b/output
I0719 18:01:47.868664 57921 net.cpp:155] Setting up inception_4b/output
I0719 18:01:47.868674 57921 net.cpp:163] Top shape: 32 512 14 14 (3211264)
I0719 18:01:47.868681 57921 layer_factory.hpp:76] Creating layer inception_4b/output_inception_4b/output_0_split
I0719 18:01:47.868692 57921 net.cpp:110] Creating Layer inception_4b/output_inception_4b/output_0_split
I0719 18:01:47.868700 57921 net.cpp:477] inception_4b/output_inception_4b/output_0_split <- inception_4b/output
I0719 18:01:47.868711 57921 net.cpp:433] inception_4b/output_inception_4b/output_0_split -> inception_4b/output_inception_4b/output_0_split_0
I0719 18:01:47.868722 57921 net.cpp:433] inception_4b/output_inception_4b/output_0_split -> inception_4b/output_inception_4b/output_0_split_1
I0719 18:01:47.868732 57921 net.cpp:433] inception_4b/output_inception_4b/output_0_split -> inception_4b/output_inception_4b/output_0_split_2
I0719 18:01:47.868742 57921 net.cpp:433] inception_4b/output_inception_4b/output_0_split -> inception_4b/output_inception_4b/output_0_split_3
I0719 18:01:47.868753 57921 net.cpp:155] Setting up inception_4b/output_inception_4b/output_0_split
I0719 18:01:47.868762 57921 net.cpp:163] Top shape: 32 512 14 14 (3211264)
I0719 18:01:47.868770 57921 net.cpp:163] Top shape: 32 512 14 14 (3211264)
I0719 18:01:47.868778 57921 net.cpp:163] Top shape: 32 512 14 14 (3211264)
I0719 18:01:47.868787 57921 net.cpp:163] Top shape: 32 512 14 14 (3211264)
I0719 18:01:47.868793 57921 layer_factory.hpp:76] Creating layer inception_4c/1x1
I0719 18:01:47.868804 57921 net.cpp:110] Creating Layer inception_4c/1x1
I0719 18:01:47.868813 57921 net.cpp:477] inception_4c/1x1 <- inception_4b/output_inception_4b/output_0_split_0
I0719 18:01:47.868824 57921 net.cpp:433] inception_4c/1x1 -> inception_4c/1x1
I0719 18:01:47.871912 57921 net.cpp:155] Setting up inception_4c/1x1
I0719 18:01:47.871944 57921 net.cpp:163] Top shape: 32 128 14 14 (802816)
I0719 18:01:47.871956 57921 layer_factory.hpp:76] Creating layer inception_4c/relu_1x1
I0719 18:01:47.871968 57921 net.cpp:110] Creating Layer inception_4c/relu_1x1
I0719 18:01:47.871975 57921 net.cpp:477] inception_4c/relu_1x1 <- inception_4c/1x1
I0719 18:01:47.871984 57921 net.cpp:419] inception_4c/relu_1x1 -> inception_4c/1x1 (in-place)
I0719 18:01:47.873162 57921 net.cpp:155] Setting up inception_4c/relu_1x1
I0719 18:01:47.873193 57921 net.cpp:163] Top shape: 32 128 14 14 (802816)
I0719 18:01:47.873203 57921 layer_factory.hpp:76] Creating layer inception_4c/3x3_reduce
I0719 18:01:47.873217 57921 net.cpp:110] Creating Layer inception_4c/3x3_reduce
I0719 18:01:47.873241 57921 net.cpp:477] inception_4c/3x3_reduce <- inception_4b/output_inception_4b/output_0_split_1
I0719 18:01:47.873252 57921 net.cpp:433] inception_4c/3x3_reduce -> inception_4c/3x3_reduce
I0719 18:01:47.876981 57921 net.cpp:155] Setting up inception_4c/3x3_reduce
I0719 18:01:47.877013 57921 net.cpp:163] Top shape: 32 128 14 14 (802816)
I0719 18:01:47.877025 57921 layer_factory.hpp:76] Creating layer inception_4c/relu_3x3_reduce
I0719 18:01:47.877039 57921 net.cpp:110] Creating Layer inception_4c/relu_3x3_reduce
I0719 18:01:47.877048 57921 net.cpp:477] inception_4c/relu_3x3_reduce <- inception_4c/3x3_reduce
I0719 18:01:47.877058 57921 net.cpp:419] inception_4c/relu_3x3_reduce -> inception_4c/3x3_reduce (in-place)
I0719 18:01:47.878265 57921 net.cpp:155] Setting up inception_4c/relu_3x3_reduce
I0719 18:01:47.878293 57921 net.cpp:163] Top shape: 32 128 14 14 (802816)
I0719 18:01:47.878303 57921 layer_factory.hpp:76] Creating layer inception_4c/3x3
I0719 18:01:47.878314 57921 net.cpp:110] Creating Layer inception_4c/3x3
I0719 18:01:47.878322 57921 net.cpp:477] inception_4c/3x3 <- inception_4c/3x3_reduce
I0719 18:01:47.878335 57921 net.cpp:433] inception_4c/3x3 -> inception_4c/3x3
I0719 18:01:47.882253 57921 net.cpp:155] Setting up inception_4c/3x3
I0719 18:01:47.882290 57921 net.cpp:163] Top shape: 32 256 14 14 (1605632)
I0719 18:01:47.882323 57921 layer_factory.hpp:76] Creating layer inception_4c/relu_3x3
I0719 18:01:47.882335 57921 net.cpp:110] Creating Layer inception_4c/relu_3x3
I0719 18:01:47.882345 57921 net.cpp:477] inception_4c/relu_3x3 <- inception_4c/3x3
I0719 18:01:47.882354 57921 net.cpp:419] inception_4c/relu_3x3 -> inception_4c/3x3 (in-place)
I0719 18:01:47.883633 57921 net.cpp:155] Setting up inception_4c/relu_3x3
I0719 18:01:47.883666 57921 net.cpp:163] Top shape: 32 256 14 14 (1605632)
I0719 18:01:47.883677 57921 layer_factory.hpp:76] Creating layer inception_4c/5x5_reduce
I0719 18:01:47.883695 57921 net.cpp:110] Creating Layer inception_4c/5x5_reduce
I0719 18:01:47.883705 57921 net.cpp:477] inception_4c/5x5_reduce <- inception_4b/output_inception_4b/output_0_split_2
I0719 18:01:47.883718 57921 net.cpp:433] inception_4c/5x5_reduce -> inception_4c/5x5_reduce
I0719 18:01:47.888586 57921 net.cpp:155] Setting up inception_4c/5x5_reduce
I0719 18:01:47.888648 57921 net.cpp:163] Top shape: 32 24 14 14 (150528)
I0719 18:01:47.888662 57921 layer_factory.hpp:76] Creating layer inception_4c/relu_5x5_reduce
I0719 18:01:47.888677 57921 net.cpp:110] Creating Layer inception_4c/relu_5x5_reduce
I0719 18:01:47.888689 57921 net.cpp:477] inception_4c/relu_5x5_reduce <- inception_4c/5x5_reduce
I0719 18:01:47.888701 57921 net.cpp:419] inception_4c/relu_5x5_reduce -> inception_4c/5x5_reduce (in-place)
I0719 18:01:47.890207 57921 net.cpp:155] Setting up inception_4c/relu_5x5_reduce
I0719 18:01:47.890239 57921 net.cpp:163] Top shape: 32 24 14 14 (150528)
I0719 18:01:47.890249 57921 layer_factory.hpp:76] Creating layer inception_4c/5x5
I0719 18:01:47.890265 57921 net.cpp:110] Creating Layer inception_4c/5x5
I0719 18:01:47.890275 57921 net.cpp:477] inception_4c/5x5 <- inception_4c/5x5_reduce
I0719 18:01:47.890285 57921 net.cpp:433] inception_4c/5x5 -> inception_4c/5x5
I0719 18:01:47.895131 57921 net.cpp:155] Setting up inception_4c/5x5
I0719 18:01:47.895164 57921 net.cpp:163] Top shape: 32 64 14 14 (401408)
I0719 18:01:47.895179 57921 layer_factory.hpp:76] Creating layer inception_4c/relu_5x5
I0719 18:01:47.895191 57921 net.cpp:110] Creating Layer inception_4c/relu_5x5
I0719 18:01:47.895200 57921 net.cpp:477] inception_4c/relu_5x5 <- inception_4c/5x5
I0719 18:01:47.895210 57921 net.cpp:419] inception_4c/relu_5x5 -> inception_4c/5x5 (in-place)
I0719 18:01:47.896739 57921 net.cpp:155] Setting up inception_4c/relu_5x5
I0719 18:01:47.896769 57921 net.cpp:163] Top shape: 32 64 14 14 (401408)
I0719 18:01:47.896777 57921 layer_factory.hpp:76] Creating layer inception_4c/pool
I0719 18:01:47.896788 57921 layer_factory.cpp:60] CUDNN does not support padding or multiple tops. Using Caffe's own pooling layer.
I0719 18:01:47.896821 57921 net.cpp:110] Creating Layer inception_4c/pool
I0719 18:01:47.896831 57921 net.cpp:477] inception_4c/pool <- inception_4b/output_inception_4b/output_0_split_3
I0719 18:01:47.896842 57921 net.cpp:433] inception_4c/pool -> inception_4c/pool
I0719 18:01:47.896857 57921 net.cpp:155] Setting up inception_4c/pool
I0719 18:01:47.896867 57921 net.cpp:163] Top shape: 32 512 14 14 (3211264)
I0719 18:01:47.896874 57921 layer_factory.hpp:76] Creating layer inception_4c/pool_proj
I0719 18:01:47.896888 57921 net.cpp:110] Creating Layer inception_4c/pool_proj
I0719 18:01:47.896895 57921 net.cpp:477] inception_4c/pool_proj <- inception_4c/pool
I0719 18:01:47.896905 57921 net.cpp:433] inception_4c/pool_proj -> inception_4c/pool_proj
I0719 18:01:47.898895 57921 net.cpp:155] Setting up inception_4c/pool_proj
I0719 18:01:47.898927 57921 net.cpp:163] Top shape: 32 64 14 14 (401408)
I0719 18:01:47.898939 57921 layer_factory.hpp:76] Creating layer inception_4c/relu_pool_proj
I0719 18:01:47.898953 57921 net.cpp:110] Creating Layer inception_4c/relu_pool_proj
I0719 18:01:47.898963 57921 net.cpp:477] inception_4c/relu_pool_proj <- inception_4c/pool_proj
I0719 18:01:47.898972 57921 net.cpp:419] inception_4c/relu_pool_proj -> inception_4c/pool_proj (in-place)
I0719 18:01:47.900840 57921 net.cpp:155] Setting up inception_4c/relu_pool_proj
I0719 18:01:47.900871 57921 net.cpp:163] Top shape: 32 64 14 14 (401408)
I0719 18:01:47.900882 57921 layer_factory.hpp:76] Creating layer inception_4c/output
I0719 18:01:47.900894 57921 net.cpp:110] Creating Layer inception_4c/output
I0719 18:01:47.900902 57921 net.cpp:477] inception_4c/output <- inception_4c/1x1
I0719 18:01:47.900912 57921 net.cpp:477] inception_4c/output <- inception_4c/3x3
I0719 18:01:47.900920 57921 net.cpp:477] inception_4c/output <- inception_4c/5x5
I0719 18:01:47.900928 57921 net.cpp:477] inception_4c/output <- inception_4c/pool_proj
I0719 18:01:47.900938 57921 net.cpp:433] inception_4c/output -> inception_4c/output
I0719 18:01:47.900950 57921 net.cpp:155] Setting up inception_4c/output
I0719 18:01:47.900959 57921 net.cpp:163] Top shape: 32 512 14 14 (3211264)
I0719 18:01:47.900967 57921 layer_factory.hpp:76] Creating layer inception_4c/output_inception_4c/output_0_split
I0719 18:01:47.900981 57921 net.cpp:110] Creating Layer inception_4c/output_inception_4c/output_0_split
I0719 18:01:47.900990 57921 net.cpp:477] inception_4c/output_inception_4c/output_0_split <- inception_4c/output
I0719 18:01:47.901000 57921 net.cpp:433] inception_4c/output_inception_4c/output_0_split -> inception_4c/output_inception_4c/output_0_split_0
I0719 18:01:47.901012 57921 net.cpp:433] inception_4c/output_inception_4c/output_0_split -> inception_4c/output_inception_4c/output_0_split_1
I0719 18:01:47.901022 57921 net.cpp:433] inception_4c/output_inception_4c/output_0_split -> inception_4c/output_inception_4c/output_0_split_2
I0719 18:01:47.901032 57921 net.cpp:433] inception_4c/output_inception_4c/output_0_split -> inception_4c/output_inception_4c/output_0_split_3
I0719 18:01:47.901042 57921 net.cpp:155] Setting up inception_4c/output_inception_4c/output_0_split
I0719 18:01:47.901051 57921 net.cpp:163] Top shape: 32 512 14 14 (3211264)
I0719 18:01:47.901059 57921 net.cpp:163] Top shape: 32 512 14 14 (3211264)
I0719 18:01:47.901067 57921 net.cpp:163] Top shape: 32 512 14 14 (3211264)
I0719 18:01:47.901075 57921 net.cpp:163] Top shape: 32 512 14 14 (3211264)
I0719 18:01:47.901082 57921 layer_factory.hpp:76] Creating layer inception_4d/1x1
I0719 18:01:47.901095 57921 net.cpp:110] Creating Layer inception_4d/1x1
I0719 18:01:47.901103 57921 net.cpp:477] inception_4d/1x1 <- inception_4c/output_inception_4c/output_0_split_0
I0719 18:01:47.901115 57921 net.cpp:433] inception_4d/1x1 -> inception_4d/1x1
I0719 18:01:47.904327 57921 net.cpp:155] Setting up inception_4d/1x1
I0719 18:01:47.904361 57921 net.cpp:163] Top shape: 32 112 14 14 (702464)
I0719 18:01:47.904372 57921 layer_factory.hpp:76] Creating layer inception_4d/relu_1x1
I0719 18:01:47.904387 57921 net.cpp:110] Creating Layer inception_4d/relu_1x1
I0719 18:01:47.904409 57921 net.cpp:477] inception_4d/relu_1x1 <- inception_4d/1x1
I0719 18:01:47.904420 57921 net.cpp:419] inception_4d/relu_1x1 -> inception_4d/1x1 (in-place)
I0719 18:01:47.905925 57921 net.cpp:155] Setting up inception_4d/relu_1x1
I0719 18:01:47.905956 57921 net.cpp:163] Top shape: 32 112 14 14 (702464)
I0719 18:01:47.905964 57921 layer_factory.hpp:76] Creating layer inception_4d/3x3_reduce
I0719 18:01:47.905980 57921 net.cpp:110] Creating Layer inception_4d/3x3_reduce
I0719 18:01:47.905988 57921 net.cpp:477] inception_4d/3x3_reduce <- inception_4c/output_inception_4c/output_0_split_1
I0719 18:01:47.906000 57921 net.cpp:433] inception_4d/3x3_reduce -> inception_4d/3x3_reduce
I0719 18:01:47.910830 57921 net.cpp:155] Setting up inception_4d/3x3_reduce
I0719 18:01:47.910866 57921 net.cpp:163] Top shape: 32 144 14 14 (903168)
I0719 18:01:47.910878 57921 layer_factory.hpp:76] Creating layer inception_4d/relu_3x3_reduce
I0719 18:01:47.910893 57921 net.cpp:110] Creating Layer inception_4d/relu_3x3_reduce
I0719 18:01:47.910902 57921 net.cpp:477] inception_4d/relu_3x3_reduce <- inception_4d/3x3_reduce
I0719 18:01:47.910912 57921 net.cpp:419] inception_4d/relu_3x3_reduce -> inception_4d/3x3_reduce (in-place)
I0719 18:01:47.912436 57921 net.cpp:155] Setting up inception_4d/relu_3x3_reduce
I0719 18:01:47.912464 57921 net.cpp:163] Top shape: 32 144 14 14 (903168)
I0719 18:01:47.912474 57921 layer_factory.hpp:76] Creating layer inception_4d/3x3
I0719 18:01:47.912487 57921 net.cpp:110] Creating Layer inception_4d/3x3
I0719 18:01:47.912497 57921 net.cpp:477] inception_4d/3x3 <- inception_4d/3x3_reduce
I0719 18:01:47.912508 57921 net.cpp:433] inception_4d/3x3 -> inception_4d/3x3
I0719 18:01:47.918249 57921 net.cpp:155] Setting up inception_4d/3x3
I0719 18:01:47.918284 57921 net.cpp:163] Top shape: 32 288 14 14 (1806336)
I0719 18:01:47.918298 57921 layer_factory.hpp:76] Creating layer inception_4d/relu_3x3
I0719 18:01:47.918308 57921 net.cpp:110] Creating Layer inception_4d/relu_3x3
I0719 18:01:47.918316 57921 net.cpp:477] inception_4d/relu_3x3 <- inception_4d/3x3
I0719 18:01:47.918326 57921 net.cpp:419] inception_4d/relu_3x3 -> inception_4d/3x3 (in-place)
I0719 18:01:47.919566 57921 net.cpp:155] Setting up inception_4d/relu_3x3
I0719 18:01:47.919601 57921 net.cpp:163] Top shape: 32 288 14 14 (1806336)
I0719 18:01:47.919611 57921 layer_factory.hpp:76] Creating layer inception_4d/5x5_reduce
I0719 18:01:47.919625 57921 net.cpp:110] Creating Layer inception_4d/5x5_reduce
I0719 18:01:47.919633 57921 net.cpp:477] inception_4d/5x5_reduce <- inception_4c/output_inception_4c/output_0_split_2
I0719 18:01:47.919646 57921 net.cpp:433] inception_4d/5x5_reduce -> inception_4d/5x5_reduce
I0719 18:01:47.922035 57921 net.cpp:155] Setting up inception_4d/5x5_reduce
I0719 18:01:47.922097 57921 net.cpp:163] Top shape: 32 32 14 14 (200704)
I0719 18:01:47.922112 57921 layer_factory.hpp:76] Creating layer inception_4d/relu_5x5_reduce
I0719 18:01:47.922132 57921 net.cpp:110] Creating Layer inception_4d/relu_5x5_reduce
I0719 18:01:47.922142 57921 net.cpp:477] inception_4d/relu_5x5_reduce <- inception_4d/5x5_reduce
I0719 18:01:47.922154 57921 net.cpp:419] inception_4d/relu_5x5_reduce -> inception_4d/5x5_reduce (in-place)
I0719 18:01:47.922541 57921 net.cpp:155] Setting up inception_4d/relu_5x5_reduce
I0719 18:01:47.922572 57921 net.cpp:163] Top shape: 32 32 14 14 (200704)
I0719 18:01:47.922582 57921 layer_factory.hpp:76] Creating layer inception_4d/5x5
I0719 18:01:47.922596 57921 net.cpp:110] Creating Layer inception_4d/5x5
I0719 18:01:47.922605 57921 net.cpp:477] inception_4d/5x5 <- inception_4d/5x5_reduce
I0719 18:01:47.922617 57921 net.cpp:433] inception_4d/5x5 -> inception_4d/5x5
I0719 18:01:47.926340 57921 net.cpp:155] Setting up inception_4d/5x5
I0719 18:01:47.926383 57921 net.cpp:163] Top shape: 32 64 14 14 (401408)
I0719 18:01:47.926395 57921 layer_factory.hpp:76] Creating layer inception_4d/relu_5x5
I0719 18:01:47.926408 57921 net.cpp:110] Creating Layer inception_4d/relu_5x5
I0719 18:01:47.926416 57921 net.cpp:477] inception_4d/relu_5x5 <- inception_4d/5x5
I0719 18:01:47.926458 57921 net.cpp:419] inception_4d/relu_5x5 -> inception_4d/5x5 (in-place)
I0719 18:01:47.927825 57921 net.cpp:155] Setting up inception_4d/relu_5x5
I0719 18:01:47.927855 57921 net.cpp:163] Top shape: 32 64 14 14 (401408)
I0719 18:01:47.927865 57921 layer_factory.hpp:76] Creating layer inception_4d/pool
I0719 18:01:47.927873 57921 layer_factory.cpp:60] CUDNN does not support padding or multiple tops. Using Caffe's own pooling layer.
I0719 18:01:47.927883 57921 net.cpp:110] Creating Layer inception_4d/pool
I0719 18:01:47.927891 57921 net.cpp:477] inception_4d/pool <- inception_4c/output_inception_4c/output_0_split_3
I0719 18:01:47.927901 57921 net.cpp:433] inception_4d/pool -> inception_4d/pool
I0719 18:01:47.927916 57921 net.cpp:155] Setting up inception_4d/pool
I0719 18:01:47.927924 57921 net.cpp:163] Top shape: 32 512 14 14 (3211264)
I0719 18:01:47.927932 57921 layer_factory.hpp:76] Creating layer inception_4d/pool_proj
I0719 18:01:47.927948 57921 net.cpp:110] Creating Layer inception_4d/pool_proj
I0719 18:01:47.927956 57921 net.cpp:477] inception_4d/pool_proj <- inception_4d/pool
I0719 18:01:47.927968 57921 net.cpp:433] inception_4d/pool_proj -> inception_4d/pool_proj
I0719 18:01:47.931504 57921 net.cpp:155] Setting up inception_4d/pool_proj
I0719 18:01:47.931535 57921 net.cpp:163] Top shape: 32 64 14 14 (401408)
I0719 18:01:47.931550 57921 layer_factory.hpp:76] Creating layer inception_4d/relu_pool_proj
I0719 18:01:47.931560 57921 net.cpp:110] Creating Layer inception_4d/relu_pool_proj
I0719 18:01:47.931569 57921 net.cpp:477] inception_4d/relu_pool_proj <- inception_4d/pool_proj
I0719 18:01:47.931578 57921 net.cpp:419] inception_4d/relu_pool_proj -> inception_4d/pool_proj (in-place)
I0719 18:01:47.931917 57921 net.cpp:155] Setting up inception_4d/relu_pool_proj
I0719 18:01:47.931948 57921 net.cpp:163] Top shape: 32 64 14 14 (401408)
I0719 18:01:47.931957 57921 layer_factory.hpp:76] Creating layer inception_4d/output
I0719 18:01:47.931969 57921 net.cpp:110] Creating Layer inception_4d/output
I0719 18:01:47.931977 57921 net.cpp:477] inception_4d/output <- inception_4d/1x1
I0719 18:01:47.931987 57921 net.cpp:477] inception_4d/output <- inception_4d/3x3
I0719 18:01:47.931995 57921 net.cpp:477] inception_4d/output <- inception_4d/5x5
I0719 18:01:47.932003 57921 net.cpp:477] inception_4d/output <- inception_4d/pool_proj
I0719 18:01:47.932013 57921 net.cpp:433] inception_4d/output -> inception_4d/output
I0719 18:01:47.932024 57921 net.cpp:155] Setting up inception_4d/output
I0719 18:01:47.932034 57921 net.cpp:163] Top shape: 32 528 14 14 (3311616)
I0719 18:01:47.932042 57921 layer_factory.hpp:76] Creating layer inception_4d/output_inception_4d/output_0_split
I0719 18:01:47.932054 57921 net.cpp:110] Creating Layer inception_4d/output_inception_4d/output_0_split
I0719 18:01:47.932063 57921 net.cpp:477] inception_4d/output_inception_4d/output_0_split <- inception_4d/output
I0719 18:01:47.932072 57921 net.cpp:433] inception_4d/output_inception_4d/output_0_split -> inception_4d/output_inception_4d/output_0_split_0
I0719 18:01:47.932085 57921 net.cpp:433] inception_4d/output_inception_4d/output_0_split -> inception_4d/output_inception_4d/output_0_split_1
I0719 18:01:47.932096 57921 net.cpp:433] inception_4d/output_inception_4d/output_0_split -> inception_4d/output_inception_4d/output_0_split_2
I0719 18:01:47.932106 57921 net.cpp:433] inception_4d/output_inception_4d/output_0_split -> inception_4d/output_inception_4d/output_0_split_3
I0719 18:01:47.932116 57921 net.cpp:433] inception_4d/output_inception_4d/output_0_split -> inception_4d/output_inception_4d/output_0_split_4
I0719 18:01:47.932126 57921 net.cpp:155] Setting up inception_4d/output_inception_4d/output_0_split
I0719 18:01:47.932135 57921 net.cpp:163] Top shape: 32 528 14 14 (3311616)
I0719 18:01:47.932143 57921 net.cpp:163] Top shape: 32 528 14 14 (3311616)
I0719 18:01:47.932152 57921 net.cpp:163] Top shape: 32 528 14 14 (3311616)
I0719 18:01:47.932158 57921 net.cpp:163] Top shape: 32 528 14 14 (3311616)
I0719 18:01:47.932179 57921 net.cpp:163] Top shape: 32 528 14 14 (3311616)
I0719 18:01:47.932188 57921 layer_factory.hpp:76] Creating layer loss2/ave_pool
I0719 18:01:47.932201 57921 net.cpp:110] Creating Layer loss2/ave_pool
I0719 18:01:47.932209 57921 net.cpp:477] loss2/ave_pool <- inception_4d/output_inception_4d/output_0_split_0
I0719 18:01:47.932219 57921 net.cpp:433] loss2/ave_pool -> loss2/ave_pool
I0719 18:01:47.933173 57921 net.cpp:155] Setting up loss2/ave_pool
I0719 18:01:47.933200 57921 net.cpp:163] Top shape: 32 528 4 4 (270336)
I0719 18:01:47.933210 57921 layer_factory.hpp:76] Creating layer loss2/conv
I0719 18:01:47.933225 57921 net.cpp:110] Creating Layer loss2/conv
I0719 18:01:47.933233 57921 net.cpp:477] loss2/conv <- loss2/ave_pool
I0719 18:01:47.933243 57921 net.cpp:433] loss2/conv -> loss2/conv
I0719 18:01:47.936882 57921 net.cpp:155] Setting up loss2/conv
I0719 18:01:47.936918 57921 net.cpp:163] Top shape: 32 128 4 4 (65536)
I0719 18:01:47.936930 57921 layer_factory.hpp:76] Creating layer loss2/relu_conv
I0719 18:01:47.936941 57921 net.cpp:110] Creating Layer loss2/relu_conv
I0719 18:01:47.936949 57921 net.cpp:477] loss2/relu_conv <- loss2/conv
I0719 18:01:47.936959 57921 net.cpp:419] loss2/relu_conv -> loss2/conv (in-place)
I0719 18:01:47.938535 57921 net.cpp:155] Setting up loss2/relu_conv
I0719 18:01:47.938565 57921 net.cpp:163] Top shape: 32 128 4 4 (65536)
I0719 18:01:47.938573 57921 layer_factory.hpp:76] Creating layer loss2/fc
I0719 18:01:47.938588 57921 net.cpp:110] Creating Layer loss2/fc
I0719 18:01:47.938597 57921 net.cpp:477] loss2/fc <- loss2/conv
I0719 18:01:47.938607 57921 net.cpp:433] loss2/fc -> loss2/fc
I0719 18:01:47.956657 57921 net.cpp:155] Setting up loss2/fc
I0719 18:01:47.956708 57921 net.cpp:163] Top shape: 32 1024 (32768)
I0719 18:01:47.956723 57921 layer_factory.hpp:76] Creating layer loss2/relu_fc
I0719 18:01:47.956737 57921 net.cpp:110] Creating Layer loss2/relu_fc
I0719 18:01:47.956748 57921 net.cpp:477] loss2/relu_fc <- loss2/fc
I0719 18:01:47.956759 57921 net.cpp:419] loss2/relu_fc -> loss2/fc (in-place)
I0719 18:01:47.957382 57921 net.cpp:155] Setting up loss2/relu_fc
I0719 18:01:47.957428 57921 net.cpp:163] Top shape: 32 1024 (32768)
I0719 18:01:47.957447 57921 layer_factory.hpp:76] Creating layer loss2/drop_fc
I0719 18:01:47.957471 57921 net.cpp:110] Creating Layer loss2/drop_fc
I0719 18:01:47.957486 57921 net.cpp:477] loss2/drop_fc <- loss2/fc
I0719 18:01:47.957504 57921 net.cpp:419] loss2/drop_fc -> loss2/fc (in-place)
I0719 18:01:47.957525 57921 net.cpp:155] Setting up loss2/drop_fc
I0719 18:01:47.957547 57921 net.cpp:163] Top shape: 32 1024 (32768)
I0719 18:01:47.957562 57921 layer_factory.hpp:76] Creating layer loss2/classifier
I0719 18:01:47.957584 57921 net.cpp:110] Creating Layer loss2/classifier
I0719 18:01:47.957602 57921 net.cpp:477] loss2/classifier <- loss2/fc
I0719 18:01:47.957620 57921 net.cpp:433] loss2/classifier -> loss2/classifier
I0719 18:01:47.957777 57921 net.cpp:155] Setting up loss2/classifier
I0719 18:01:47.957810 57921 net.cpp:163] Top shape: 32 2 (64)
I0719 18:01:47.957829 57921 layer_factory.hpp:76] Creating layer loss2/loss
I0719 18:01:47.957849 57921 net.cpp:110] Creating Layer loss2/loss
I0719 18:01:47.957864 57921 net.cpp:477] loss2/loss <- loss2/classifier
I0719 18:01:47.957878 57921 net.cpp:477] loss2/loss <- label_data_1_split_1
I0719 18:01:47.957895 57921 net.cpp:433] loss2/loss -> loss2/loss1
I0719 18:01:47.957914 57921 layer_factory.hpp:76] Creating layer loss2/loss
I0719 18:01:47.958480 57921 net.cpp:155] Setting up loss2/loss
I0719 18:01:47.958520 57921 net.cpp:163] Top shape: (1)
I0719 18:01:47.958534 57921 net.cpp:168]     with loss weight 0.3
I0719 18:01:47.958555 57921 layer_factory.hpp:76] Creating layer inception_4e/1x1
I0719 18:01:47.958580 57921 net.cpp:110] Creating Layer inception_4e/1x1
I0719 18:01:47.958612 57921 net.cpp:477] inception_4e/1x1 <- inception_4d/output_inception_4d/output_0_split_1
I0719 18:01:47.958649 57921 net.cpp:433] inception_4e/1x1 -> inception_4e/1x1
I0719 18:01:47.963511 57921 net.cpp:155] Setting up inception_4e/1x1
I0719 18:01:47.963615 57921 net.cpp:163] Top shape: 32 256 14 14 (1605632)
I0719 18:01:47.963644 57921 layer_factory.hpp:76] Creating layer inception_4e/relu_1x1
I0719 18:01:47.963668 57921 net.cpp:110] Creating Layer inception_4e/relu_1x1
I0719 18:01:47.963685 57921 net.cpp:477] inception_4e/relu_1x1 <- inception_4e/1x1
I0719 18:01:47.963702 57921 net.cpp:419] inception_4e/relu_1x1 -> inception_4e/1x1 (in-place)
I0719 18:01:47.965153 57921 net.cpp:155] Setting up inception_4e/relu_1x1
I0719 18:01:47.965193 57921 net.cpp:163] Top shape: 32 256 14 14 (1605632)
I0719 18:01:47.965209 57921 layer_factory.hpp:76] Creating layer inception_4e/3x3_reduce
I0719 18:01:47.965229 57921 net.cpp:110] Creating Layer inception_4e/3x3_reduce
I0719 18:01:47.965243 57921 net.cpp:477] inception_4e/3x3_reduce <- inception_4d/output_inception_4d/output_0_split_2
I0719 18:01:47.965265 57921 net.cpp:433] inception_4e/3x3_reduce -> inception_4e/3x3_reduce
I0719 18:01:47.969432 57921 net.cpp:155] Setting up inception_4e/3x3_reduce
I0719 18:01:47.969473 57921 net.cpp:163] Top shape: 32 160 14 14 (1003520)
I0719 18:01:47.969494 57921 layer_factory.hpp:76] Creating layer inception_4e/relu_3x3_reduce
I0719 18:01:47.969511 57921 net.cpp:110] Creating Layer inception_4e/relu_3x3_reduce
I0719 18:01:47.969524 57921 net.cpp:477] inception_4e/relu_3x3_reduce <- inception_4e/3x3_reduce
I0719 18:01:47.969538 57921 net.cpp:419] inception_4e/relu_3x3_reduce -> inception_4e/3x3_reduce (in-place)
I0719 18:01:47.969811 57921 net.cpp:155] Setting up inception_4e/relu_3x3_reduce
I0719 18:01:47.969851 57921 net.cpp:163] Top shape: 32 160 14 14 (1003520)
I0719 18:01:47.969867 57921 layer_factory.hpp:76] Creating layer inception_4e/3x3
I0719 18:01:47.969890 57921 net.cpp:110] Creating Layer inception_4e/3x3
I0719 18:01:47.969905 57921 net.cpp:477] inception_4e/3x3 <- inception_4e/3x3_reduce
I0719 18:01:47.969925 57921 net.cpp:433] inception_4e/3x3 -> inception_4e/3x3
I0719 18:01:47.992832 57921 net.cpp:155] Setting up inception_4e/3x3
I0719 18:01:47.992880 57921 net.cpp:163] Top shape: 32 320 14 14 (2007040)
I0719 18:01:47.992894 57921 layer_factory.hpp:76] Creating layer inception_4e/relu_3x3
I0719 18:01:47.992910 57921 net.cpp:110] Creating Layer inception_4e/relu_3x3
I0719 18:01:47.992920 57921 net.cpp:477] inception_4e/relu_3x3 <- inception_4e/3x3
I0719 18:01:47.992930 57921 net.cpp:419] inception_4e/relu_3x3 -> inception_4e/3x3 (in-place)
I0719 18:01:48.003162 57921 net.cpp:155] Setting up inception_4e/relu_3x3
I0719 18:01:48.003223 57921 net.cpp:163] Top shape: 32 320 14 14 (2007040)
I0719 18:01:48.003234 57921 layer_factory.hpp:76] Creating layer inception_4e/5x5_reduce
I0719 18:01:48.003254 57921 net.cpp:110] Creating Layer inception_4e/5x5_reduce
I0719 18:01:48.003265 57921 net.cpp:477] inception_4e/5x5_reduce <- inception_4d/output_inception_4d/output_0_split_3
I0719 18:01:48.003280 57921 net.cpp:433] inception_4e/5x5_reduce -> inception_4e/5x5_reduce
I0719 18:01:48.033953 57921 net.cpp:155] Setting up inception_4e/5x5_reduce
I0719 18:01:48.034010 57921 net.cpp:163] Top shape: 32 32 14 14 (200704)
I0719 18:01:48.034026 57921 layer_factory.hpp:76] Creating layer inception_4e/relu_5x5_reduce
I0719 18:01:48.034044 57921 net.cpp:110] Creating Layer inception_4e/relu_5x5_reduce
I0719 18:01:48.034055 57921 net.cpp:477] inception_4e/relu_5x5_reduce <- inception_4e/5x5_reduce
I0719 18:01:48.034065 57921 net.cpp:419] inception_4e/relu_5x5_reduce -> inception_4e/5x5_reduce (in-place)
I0719 18:01:48.043920 57921 net.cpp:155] Setting up inception_4e/relu_5x5_reduce
I0719 18:01:48.043953 57921 net.cpp:163] Top shape: 32 32 14 14 (200704)
I0719 18:01:48.043963 57921 layer_factory.hpp:76] Creating layer inception_4e/5x5
I0719 18:01:48.043997 57921 net.cpp:110] Creating Layer inception_4e/5x5
I0719 18:01:48.044006 57921 net.cpp:477] inception_4e/5x5 <- inception_4e/5x5_reduce
I0719 18:01:48.044018 57921 net.cpp:433] inception_4e/5x5 -> inception_4e/5x5
I0719 18:01:48.075405 57921 net.cpp:155] Setting up inception_4e/5x5
I0719 18:01:48.075460 57921 net.cpp:163] Top shape: 32 128 14 14 (802816)
I0719 18:01:48.075500 57921 layer_factory.hpp:76] Creating layer inception_4e/relu_5x5
I0719 18:01:48.075517 57921 net.cpp:110] Creating Layer inception_4e/relu_5x5
I0719 18:01:48.075528 57921 net.cpp:477] inception_4e/relu_5x5 <- inception_4e/5x5
I0719 18:01:48.075539 57921 net.cpp:419] inception_4e/relu_5x5 -> inception_4e/5x5 (in-place)
I0719 18:01:48.098992 57921 net.cpp:155] Setting up inception_4e/relu_5x5
I0719 18:01:48.099028 57921 net.cpp:163] Top shape: 32 128 14 14 (802816)
I0719 18:01:48.099040 57921 layer_factory.hpp:76] Creating layer inception_4e/pool
I0719 18:01:48.099048 57921 layer_factory.cpp:60] CUDNN does not support padding or multiple tops. Using Caffe's own pooling layer.
I0719 18:01:48.099058 57921 net.cpp:110] Creating Layer inception_4e/pool
I0719 18:01:48.099066 57921 net.cpp:477] inception_4e/pool <- inception_4d/output_inception_4d/output_0_split_4
I0719 18:01:48.099074 57921 net.cpp:433] inception_4e/pool -> inception_4e/pool
I0719 18:01:48.099092 57921 net.cpp:155] Setting up inception_4e/pool
I0719 18:01:48.099097 57921 net.cpp:163] Top shape: 32 528 14 14 (3311616)
I0719 18:01:48.099102 57921 layer_factory.hpp:76] Creating layer inception_4e/pool_proj
I0719 18:01:48.099112 57921 net.cpp:110] Creating Layer inception_4e/pool_proj
I0719 18:01:48.099117 57921 net.cpp:477] inception_4e/pool_proj <- inception_4e/pool
I0719 18:01:48.099124 57921 net.cpp:433] inception_4e/pool_proj -> inception_4e/pool_proj
I0719 18:01:48.118521 57921 net.cpp:155] Setting up inception_4e/pool_proj
I0719 18:01:48.118556 57921 net.cpp:163] Top shape: 32 128 14 14 (802816)
I0719 18:01:48.118571 57921 layer_factory.hpp:76] Creating layer inception_4e/relu_pool_proj
I0719 18:01:48.118582 57921 net.cpp:110] Creating Layer inception_4e/relu_pool_proj
I0719 18:01:48.118590 57921 net.cpp:477] inception_4e/relu_pool_proj <- inception_4e/pool_proj
I0719 18:01:48.118602 57921 net.cpp:419] inception_4e/relu_pool_proj -> inception_4e/pool_proj (in-place)
I0719 18:01:48.129365 57921 net.cpp:155] Setting up inception_4e/relu_pool_proj
I0719 18:01:48.129423 57921 net.cpp:163] Top shape: 32 128 14 14 (802816)
I0719 18:01:48.129436 57921 layer_factory.hpp:76] Creating layer inception_4e/output
I0719 18:01:48.129449 57921 net.cpp:110] Creating Layer inception_4e/output
I0719 18:01:48.129459 57921 net.cpp:477] inception_4e/output <- inception_4e/1x1
I0719 18:01:48.129472 57921 net.cpp:477] inception_4e/output <- inception_4e/3x3
I0719 18:01:48.129480 57921 net.cpp:477] inception_4e/output <- inception_4e/5x5
I0719 18:01:48.129489 57921 net.cpp:477] inception_4e/output <- inception_4e/pool_proj
I0719 18:01:48.129499 57921 net.cpp:433] inception_4e/output -> inception_4e/output
I0719 18:01:48.129515 57921 net.cpp:155] Setting up inception_4e/output
I0719 18:01:48.129525 57921 net.cpp:163] Top shape: 32 832 14 14 (5218304)
I0719 18:01:48.129535 57921 layer_factory.hpp:76] Creating layer pool4/3x3_s2
I0719 18:01:48.129550 57921 net.cpp:110] Creating Layer pool4/3x3_s2
I0719 18:01:48.129559 57921 net.cpp:477] pool4/3x3_s2 <- inception_4e/output
I0719 18:01:48.129570 57921 net.cpp:433] pool4/3x3_s2 -> pool4/3x3_s2
I0719 18:01:48.140076 57921 net.cpp:155] Setting up pool4/3x3_s2
I0719 18:01:48.140107 57921 net.cpp:163] Top shape: 32 832 7 7 (1304576)
I0719 18:01:48.140116 57921 layer_factory.hpp:76] Creating layer pool4/3x3_s2_pool4/3x3_s2_0_split
I0719 18:01:48.140130 57921 net.cpp:110] Creating Layer pool4/3x3_s2_pool4/3x3_s2_0_split
I0719 18:01:48.140139 57921 net.cpp:477] pool4/3x3_s2_pool4/3x3_s2_0_split <- pool4/3x3_s2
I0719 18:01:48.140149 57921 net.cpp:433] pool4/3x3_s2_pool4/3x3_s2_0_split -> pool4/3x3_s2_pool4/3x3_s2_0_split_0
I0719 18:01:48.140161 57921 net.cpp:433] pool4/3x3_s2_pool4/3x3_s2_0_split -> pool4/3x3_s2_pool4/3x3_s2_0_split_1
I0719 18:01:48.140173 57921 net.cpp:433] pool4/3x3_s2_pool4/3x3_s2_0_split -> pool4/3x3_s2_pool4/3x3_s2_0_split_2
I0719 18:01:48.140184 57921 net.cpp:433] pool4/3x3_s2_pool4/3x3_s2_0_split -> pool4/3x3_s2_pool4/3x3_s2_0_split_3
I0719 18:01:48.140194 57921 net.cpp:155] Setting up pool4/3x3_s2_pool4/3x3_s2_0_split
I0719 18:01:48.140231 57921 net.cpp:163] Top shape: 32 832 7 7 (1304576)
I0719 18:01:48.140240 57921 net.cpp:163] Top shape: 32 832 7 7 (1304576)
I0719 18:01:48.140249 57921 net.cpp:163] Top shape: 32 832 7 7 (1304576)
I0719 18:01:48.140257 57921 net.cpp:163] Top shape: 32 832 7 7 (1304576)
I0719 18:01:48.140265 57921 layer_factory.hpp:76] Creating layer inception_5a/1x1
I0719 18:01:48.140291 57921 net.cpp:110] Creating Layer inception_5a/1x1
I0719 18:01:48.140300 57921 net.cpp:477] inception_5a/1x1 <- pool4/3x3_s2_pool4/3x3_s2_0_split_0
I0719 18:01:48.140316 57921 net.cpp:433] inception_5a/1x1 -> inception_5a/1x1
I0719 18:01:48.157382 57921 net.cpp:155] Setting up inception_5a/1x1
I0719 18:01:48.157444 57921 net.cpp:163] Top shape: 32 256 7 7 (401408)
I0719 18:01:48.157460 57921 layer_factory.hpp:76] Creating layer inception_5a/relu_1x1
I0719 18:01:48.157479 57921 net.cpp:110] Creating Layer inception_5a/relu_1x1
I0719 18:01:48.157490 57921 net.cpp:477] inception_5a/relu_1x1 <- inception_5a/1x1
I0719 18:01:48.157500 57921 net.cpp:419] inception_5a/relu_1x1 -> inception_5a/1x1 (in-place)
I0719 18:01:48.159688 57921 net.cpp:155] Setting up inception_5a/relu_1x1
I0719 18:01:48.159729 57921 net.cpp:163] Top shape: 32 256 7 7 (401408)
I0719 18:01:48.159740 57921 layer_factory.hpp:76] Creating layer inception_5a/3x3_reduce
I0719 18:01:48.159759 57921 net.cpp:110] Creating Layer inception_5a/3x3_reduce
I0719 18:01:48.159768 57921 net.cpp:477] inception_5a/3x3_reduce <- pool4/3x3_s2_pool4/3x3_s2_0_split_1
I0719 18:01:48.159780 57921 net.cpp:433] inception_5a/3x3_reduce -> inception_5a/3x3_reduce
I0719 18:01:48.164950 57921 net.cpp:155] Setting up inception_5a/3x3_reduce
I0719 18:01:48.164984 57921 net.cpp:163] Top shape: 32 160 7 7 (250880)
I0719 18:01:48.164999 57921 layer_factory.hpp:76] Creating layer inception_5a/relu_3x3_reduce
I0719 18:01:48.165012 57921 net.cpp:110] Creating Layer inception_5a/relu_3x3_reduce
I0719 18:01:48.165021 57921 net.cpp:477] inception_5a/relu_3x3_reduce <- inception_5a/3x3_reduce
I0719 18:01:48.165031 57921 net.cpp:419] inception_5a/relu_3x3_reduce -> inception_5a/3x3_reduce (in-place)
I0719 18:01:48.166589 57921 net.cpp:155] Setting up inception_5a/relu_3x3_reduce
I0719 18:01:48.166620 57921 net.cpp:163] Top shape: 32 160 7 7 (250880)
I0719 18:01:48.166635 57921 layer_factory.hpp:76] Creating layer inception_5a/3x3
I0719 18:01:48.166661 57921 net.cpp:110] Creating Layer inception_5a/3x3
I0719 18:01:48.166671 57921 net.cpp:477] inception_5a/3x3 <- inception_5a/3x3_reduce
I0719 18:01:48.166682 57921 net.cpp:433] inception_5a/3x3 -> inception_5a/3x3
I0719 18:01:48.173120 57921 net.cpp:155] Setting up inception_5a/3x3
I0719 18:01:48.173153 57921 net.cpp:163] Top shape: 32 320 7 7 (501760)
I0719 18:01:48.173166 57921 layer_factory.hpp:76] Creating layer inception_5a/relu_3x3
I0719 18:01:48.173179 57921 net.cpp:110] Creating Layer inception_5a/relu_3x3
I0719 18:01:48.173187 57921 net.cpp:477] inception_5a/relu_3x3 <- inception_5a/3x3
I0719 18:01:48.173197 57921 net.cpp:419] inception_5a/relu_3x3 -> inception_5a/3x3 (in-place)
I0719 18:01:48.174330 57921 net.cpp:155] Setting up inception_5a/relu_3x3
I0719 18:01:48.174357 57921 net.cpp:163] Top shape: 32 320 7 7 (501760)
I0719 18:01:48.174367 57921 layer_factory.hpp:76] Creating layer inception_5a/5x5_reduce
I0719 18:01:48.174381 57921 net.cpp:110] Creating Layer inception_5a/5x5_reduce
I0719 18:01:48.174391 57921 net.cpp:477] inception_5a/5x5_reduce <- pool4/3x3_s2_pool4/3x3_s2_0_split_2
I0719 18:01:48.174401 57921 net.cpp:433] inception_5a/5x5_reduce -> inception_5a/5x5_reduce
I0719 18:01:48.176259 57921 net.cpp:155] Setting up inception_5a/5x5_reduce
I0719 18:01:48.176292 57921 net.cpp:163] Top shape: 32 32 7 7 (50176)
I0719 18:01:48.176307 57921 layer_factory.hpp:76] Creating layer inception_5a/relu_5x5_reduce
I0719 18:01:48.176321 57921 net.cpp:110] Creating Layer inception_5a/relu_5x5_reduce
I0719 18:01:48.176331 57921 net.cpp:477] inception_5a/relu_5x5_reduce <- inception_5a/5x5_reduce
I0719 18:01:48.176362 57921 net.cpp:419] inception_5a/relu_5x5_reduce -> inception_5a/5x5_reduce (in-place)
I0719 18:01:48.176625 57921 net.cpp:155] Setting up inception_5a/relu_5x5_reduce
I0719 18:01:48.176659 57921 net.cpp:163] Top shape: 32 32 7 7 (50176)
I0719 18:01:48.176668 57921 layer_factory.hpp:76] Creating layer inception_5a/5x5
I0719 18:01:48.176681 57921 net.cpp:110] Creating Layer inception_5a/5x5
I0719 18:01:48.176690 57921 net.cpp:477] inception_5a/5x5 <- inception_5a/5x5_reduce
I0719 18:01:48.176703 57921 net.cpp:433] inception_5a/5x5 -> inception_5a/5x5
I0719 18:01:48.178364 57921 net.cpp:155] Setting up inception_5a/5x5
I0719 18:01:48.178400 57921 net.cpp:163] Top shape: 32 128 7 7 (200704)
I0719 18:01:48.178411 57921 layer_factory.hpp:76] Creating layer inception_5a/relu_5x5
I0719 18:01:48.178422 57921 net.cpp:110] Creating Layer inception_5a/relu_5x5
I0719 18:01:48.178431 57921 net.cpp:477] inception_5a/relu_5x5 <- inception_5a/5x5
I0719 18:01:48.178443 57921 net.cpp:419] inception_5a/relu_5x5 -> inception_5a/5x5 (in-place)
I0719 18:01:48.178817 57921 net.cpp:155] Setting up inception_5a/relu_5x5
I0719 18:01:48.178848 57921 net.cpp:163] Top shape: 32 128 7 7 (200704)
I0719 18:01:48.178858 57921 layer_factory.hpp:76] Creating layer inception_5a/pool
I0719 18:01:48.178869 57921 layer_factory.cpp:60] CUDNN does not support padding or multiple tops. Using Caffe's own pooling layer.
I0719 18:01:48.178880 57921 net.cpp:110] Creating Layer inception_5a/pool
I0719 18:01:48.178889 57921 net.cpp:477] inception_5a/pool <- pool4/3x3_s2_pool4/3x3_s2_0_split_3
I0719 18:01:48.178900 57921 net.cpp:433] inception_5a/pool -> inception_5a/pool
I0719 18:01:48.178915 57921 net.cpp:155] Setting up inception_5a/pool
I0719 18:01:48.178925 57921 net.cpp:163] Top shape: 32 832 7 7 (1304576)
I0719 18:01:48.178933 57921 layer_factory.hpp:76] Creating layer inception_5a/pool_proj
I0719 18:01:48.178946 57921 net.cpp:110] Creating Layer inception_5a/pool_proj
I0719 18:01:48.178954 57921 net.cpp:477] inception_5a/pool_proj <- inception_5a/pool
I0719 18:01:48.178964 57921 net.cpp:433] inception_5a/pool_proj -> inception_5a/pool_proj
I0719 18:01:48.181306 57921 net.cpp:155] Setting up inception_5a/pool_proj
I0719 18:01:48.181344 57921 net.cpp:163] Top shape: 32 128 7 7 (200704)
I0719 18:01:48.181356 57921 layer_factory.hpp:76] Creating layer inception_5a/relu_pool_proj
I0719 18:01:48.181370 57921 net.cpp:110] Creating Layer inception_5a/relu_pool_proj
I0719 18:01:48.181380 57921 net.cpp:477] inception_5a/relu_pool_proj <- inception_5a/pool_proj
I0719 18:01:48.181390 57921 net.cpp:419] inception_5a/relu_pool_proj -> inception_5a/pool_proj (in-place)
I0719 18:01:48.181581 57921 net.cpp:155] Setting up inception_5a/relu_pool_proj
I0719 18:01:48.181608 57921 net.cpp:163] Top shape: 32 128 7 7 (200704)
I0719 18:01:48.181617 57921 layer_factory.hpp:76] Creating layer inception_5a/output
I0719 18:01:48.181630 57921 net.cpp:110] Creating Layer inception_5a/output
I0719 18:01:48.181638 57921 net.cpp:477] inception_5a/output <- inception_5a/1x1
I0719 18:01:48.181648 57921 net.cpp:477] inception_5a/output <- inception_5a/3x3
I0719 18:01:48.181655 57921 net.cpp:477] inception_5a/output <- inception_5a/5x5
I0719 18:01:48.181663 57921 net.cpp:477] inception_5a/output <- inception_5a/pool_proj
I0719 18:01:48.181673 57921 net.cpp:433] inception_5a/output -> inception_5a/output
I0719 18:01:48.181685 57921 net.cpp:155] Setting up inception_5a/output
I0719 18:01:48.181695 57921 net.cpp:163] Top shape: 32 832 7 7 (1304576)
I0719 18:01:48.181704 57921 layer_factory.hpp:76] Creating layer inception_5a/output_inception_5a/output_0_split
I0719 18:01:48.181717 57921 net.cpp:110] Creating Layer inception_5a/output_inception_5a/output_0_split
I0719 18:01:48.181725 57921 net.cpp:477] inception_5a/output_inception_5a/output_0_split <- inception_5a/output
I0719 18:01:48.181735 57921 net.cpp:433] inception_5a/output_inception_5a/output_0_split -> inception_5a/output_inception_5a/output_0_split_0
I0719 18:01:48.181746 57921 net.cpp:433] inception_5a/output_inception_5a/output_0_split -> inception_5a/output_inception_5a/output_0_split_1
I0719 18:01:48.181802 57921 net.cpp:433] inception_5a/output_inception_5a/output_0_split -> inception_5a/output_inception_5a/output_0_split_2
I0719 18:01:48.181813 57921 net.cpp:433] inception_5a/output_inception_5a/output_0_split -> inception_5a/output_inception_5a/output_0_split_3
I0719 18:01:48.181836 57921 net.cpp:155] Setting up inception_5a/output_inception_5a/output_0_split
I0719 18:01:48.181845 57921 net.cpp:163] Top shape: 32 832 7 7 (1304576)
I0719 18:01:48.181854 57921 net.cpp:163] Top shape: 32 832 7 7 (1304576)
I0719 18:01:48.181861 57921 net.cpp:163] Top shape: 32 832 7 7 (1304576)
I0719 18:01:48.181869 57921 net.cpp:163] Top shape: 32 832 7 7 (1304576)
I0719 18:01:48.181877 57921 layer_factory.hpp:76] Creating layer inception_5b/1x1
I0719 18:01:48.181891 57921 net.cpp:110] Creating Layer inception_5b/1x1
I0719 18:01:48.181900 57921 net.cpp:477] inception_5b/1x1 <- inception_5a/output_inception_5a/output_0_split_0
I0719 18:01:48.181911 57921 net.cpp:433] inception_5b/1x1 -> inception_5b/1x1
I0719 18:01:48.185844 57921 net.cpp:155] Setting up inception_5b/1x1
I0719 18:01:48.185878 57921 net.cpp:163] Top shape: 32 384 7 7 (602112)
I0719 18:01:48.185890 57921 layer_factory.hpp:76] Creating layer inception_5b/relu_1x1
I0719 18:01:48.185900 57921 net.cpp:110] Creating Layer inception_5b/relu_1x1
I0719 18:01:48.185911 57921 net.cpp:477] inception_5b/relu_1x1 <- inception_5b/1x1
I0719 18:01:48.185921 57921 net.cpp:419] inception_5b/relu_1x1 -> inception_5b/1x1 (in-place)
I0719 18:01:48.186117 57921 net.cpp:155] Setting up inception_5b/relu_1x1
I0719 18:01:48.186146 57921 net.cpp:163] Top shape: 32 384 7 7 (602112)
I0719 18:01:48.186154 57921 layer_factory.hpp:76] Creating layer inception_5b/3x3_reduce
I0719 18:01:48.186168 57921 net.cpp:110] Creating Layer inception_5b/3x3_reduce
I0719 18:01:48.186177 57921 net.cpp:477] inception_5b/3x3_reduce <- inception_5a/output_inception_5a/output_0_split_1
I0719 18:01:48.186190 57921 net.cpp:433] inception_5b/3x3_reduce -> inception_5b/3x3_reduce
I0719 18:01:48.188745 57921 net.cpp:155] Setting up inception_5b/3x3_reduce
I0719 18:01:48.188777 57921 net.cpp:163] Top shape: 32 192 7 7 (301056)
I0719 18:01:48.188791 57921 layer_factory.hpp:76] Creating layer inception_5b/relu_3x3_reduce
I0719 18:01:48.188802 57921 net.cpp:110] Creating Layer inception_5b/relu_3x3_reduce
I0719 18:01:48.188812 57921 net.cpp:477] inception_5b/relu_3x3_reduce <- inception_5b/3x3_reduce
I0719 18:01:48.188823 57921 net.cpp:419] inception_5b/relu_3x3_reduce -> inception_5b/3x3_reduce (in-place)
I0719 18:01:48.189162 57921 net.cpp:155] Setting up inception_5b/relu_3x3_reduce
I0719 18:01:48.189193 57921 net.cpp:163] Top shape: 32 192 7 7 (301056)
I0719 18:01:48.189203 57921 layer_factory.hpp:76] Creating layer inception_5b/3x3
I0719 18:01:48.189218 57921 net.cpp:110] Creating Layer inception_5b/3x3
I0719 18:01:48.189226 57921 net.cpp:477] inception_5b/3x3 <- inception_5b/3x3_reduce
I0719 18:01:48.189236 57921 net.cpp:433] inception_5b/3x3 -> inception_5b/3x3
I0719 18:01:48.196092 57921 net.cpp:155] Setting up inception_5b/3x3
I0719 18:01:48.196151 57921 net.cpp:163] Top shape: 32 384 7 7 (602112)
I0719 18:01:48.196167 57921 layer_factory.hpp:76] Creating layer inception_5b/relu_3x3
I0719 18:01:48.196184 57921 net.cpp:110] Creating Layer inception_5b/relu_3x3
I0719 18:01:48.196194 57921 net.cpp:477] inception_5b/relu_3x3 <- inception_5b/3x3
I0719 18:01:48.196205 57921 net.cpp:419] inception_5b/relu_3x3 -> inception_5b/3x3 (in-place)
I0719 18:01:48.196400 57921 net.cpp:155] Setting up inception_5b/relu_3x3
I0719 18:01:48.196427 57921 net.cpp:163] Top shape: 32 384 7 7 (602112)
I0719 18:01:48.196436 57921 layer_factory.hpp:76] Creating layer inception_5b/5x5_reduce
I0719 18:01:48.196455 57921 net.cpp:110] Creating Layer inception_5b/5x5_reduce
I0719 18:01:48.196463 57921 net.cpp:477] inception_5b/5x5_reduce <- inception_5a/output_inception_5a/output_0_split_2
I0719 18:01:48.196475 57921 net.cpp:433] inception_5b/5x5_reduce -> inception_5b/5x5_reduce
I0719 18:01:48.198367 57921 net.cpp:155] Setting up inception_5b/5x5_reduce
I0719 18:01:48.198400 57921 net.cpp:163] Top shape: 32 48 7 7 (75264)
I0719 18:01:48.198411 57921 layer_factory.hpp:76] Creating layer inception_5b/relu_5x5_reduce
I0719 18:01:48.198422 57921 net.cpp:110] Creating Layer inception_5b/relu_5x5_reduce
I0719 18:01:48.198431 57921 net.cpp:477] inception_5b/relu_5x5_reduce <- inception_5b/5x5_reduce
I0719 18:01:48.198441 57921 net.cpp:419] inception_5b/relu_5x5_reduce -> inception_5b/5x5_reduce (in-place)
I0719 18:01:48.198658 57921 net.cpp:155] Setting up inception_5b/relu_5x5_reduce
I0719 18:01:48.198693 57921 net.cpp:163] Top shape: 32 48 7 7 (75264)
I0719 18:01:48.198704 57921 layer_factory.hpp:76] Creating layer inception_5b/5x5
I0719 18:01:48.198719 57921 net.cpp:110] Creating Layer inception_5b/5x5
I0719 18:01:48.198727 57921 net.cpp:477] inception_5b/5x5 <- inception_5b/5x5_reduce
I0719 18:01:48.198740 57921 net.cpp:433] inception_5b/5x5 -> inception_5b/5x5
I0719 18:01:48.200742 57921 net.cpp:155] Setting up inception_5b/5x5
I0719 18:01:48.200775 57921 net.cpp:163] Top shape: 32 128 7 7 (200704)
I0719 18:01:48.200788 57921 layer_factory.hpp:76] Creating layer inception_5b/relu_5x5
I0719 18:01:48.200803 57921 net.cpp:110] Creating Layer inception_5b/relu_5x5
I0719 18:01:48.200811 57921 net.cpp:477] inception_5b/relu_5x5 <- inception_5b/5x5
I0719 18:01:48.200821 57921 net.cpp:419] inception_5b/relu_5x5 -> inception_5b/5x5 (in-place)
I0719 18:01:48.201170 57921 net.cpp:155] Setting up inception_5b/relu_5x5
I0719 18:01:48.201201 57921 net.cpp:163] Top shape: 32 128 7 7 (200704)
I0719 18:01:48.201210 57921 layer_factory.hpp:76] Creating layer inception_5b/pool
I0719 18:01:48.201220 57921 layer_factory.cpp:60] CUDNN does not support padding or multiple tops. Using Caffe's own pooling layer.
I0719 18:01:48.201236 57921 net.cpp:110] Creating Layer inception_5b/pool
I0719 18:01:48.201246 57921 net.cpp:477] inception_5b/pool <- inception_5a/output_inception_5a/output_0_split_3
I0719 18:01:48.201256 57921 net.cpp:433] inception_5b/pool -> inception_5b/pool
I0719 18:01:48.201270 57921 net.cpp:155] Setting up inception_5b/pool
I0719 18:01:48.201282 57921 net.cpp:163] Top shape: 32 832 7 7 (1304576)
I0719 18:01:48.201290 57921 layer_factory.hpp:76] Creating layer inception_5b/pool_proj
I0719 18:01:48.201303 57921 net.cpp:110] Creating Layer inception_5b/pool_proj
I0719 18:01:48.201313 57921 net.cpp:477] inception_5b/pool_proj <- inception_5b/pool
I0719 18:01:48.201325 57921 net.cpp:433] inception_5b/pool_proj -> inception_5b/pool_proj
I0719 18:01:48.203547 57921 net.cpp:155] Setting up inception_5b/pool_proj
I0719 18:01:48.203582 57921 net.cpp:163] Top shape: 32 128 7 7 (200704)
I0719 18:01:48.203593 57921 layer_factory.hpp:76] Creating layer inception_5b/relu_pool_proj
I0719 18:01:48.203608 57921 net.cpp:110] Creating Layer inception_5b/relu_pool_proj
I0719 18:01:48.203618 57921 net.cpp:477] inception_5b/relu_pool_proj <- inception_5b/pool_proj
I0719 18:01:48.203626 57921 net.cpp:419] inception_5b/relu_pool_proj -> inception_5b/pool_proj (in-place)
I0719 18:01:48.203826 57921 net.cpp:155] Setting up inception_5b/relu_pool_proj
I0719 18:01:48.203855 57921 net.cpp:163] Top shape: 32 128 7 7 (200704)
I0719 18:01:48.203863 57921 layer_factory.hpp:76] Creating layer inception_5b/output
I0719 18:01:48.203874 57921 net.cpp:110] Creating Layer inception_5b/output
I0719 18:01:48.203883 57921 net.cpp:477] inception_5b/output <- inception_5b/1x1
I0719 18:01:48.203892 57921 net.cpp:477] inception_5b/output <- inception_5b/3x3
I0719 18:01:48.203902 57921 net.cpp:477] inception_5b/output <- inception_5b/5x5
I0719 18:01:48.203909 57921 net.cpp:477] inception_5b/output <- inception_5b/pool_proj
I0719 18:01:48.203920 57921 net.cpp:433] inception_5b/output -> inception_5b/output
I0719 18:01:48.203933 57921 net.cpp:155] Setting up inception_5b/output
I0719 18:01:48.203943 57921 net.cpp:163] Top shape: 32 1024 7 7 (1605632)
I0719 18:01:48.203950 57921 layer_factory.hpp:76] Creating layer pool5/7x7_s1
I0719 18:01:48.203977 57921 net.cpp:110] Creating Layer pool5/7x7_s1
I0719 18:01:48.203987 57921 net.cpp:477] pool5/7x7_s1 <- inception_5b/output
I0719 18:01:48.204000 57921 net.cpp:433] pool5/7x7_s1 -> pool5/7x7_s1
I0719 18:01:48.447288 57921 net.cpp:155] Setting up pool5/7x7_s1
I0719 18:01:48.447346 57921 net.cpp:163] Top shape: 32 512 1 1 (16384)
I0719 18:01:48.447365 57921 layer_factory.hpp:76] Creating layer pool5/drop_7x7_s1
I0719 18:01:48.447379 57921 net.cpp:110] Creating Layer pool5/drop_7x7_s1
I0719 18:01:48.447389 57921 net.cpp:477] pool5/drop_7x7_s1 <- pool5/7x7_s1
I0719 18:01:48.447404 57921 net.cpp:419] pool5/drop_7x7_s1 -> pool5/7x7_s1 (in-place)
I0719 18:01:48.447420 57921 net.cpp:155] Setting up pool5/drop_7x7_s1
I0719 18:01:48.447429 57921 net.cpp:163] Top shape: 32 512 1 1 (16384)
I0719 18:01:48.447438 57921 layer_factory.hpp:76] Creating layer loss3/classifier-conv
I0719 18:01:48.447454 57921 net.cpp:110] Creating Layer loss3/classifier-conv
I0719 18:01:48.447463 57921 net.cpp:477] loss3/classifier-conv <- pool5/7x7_s1
I0719 18:01:48.447481 57921 net.cpp:433] loss3/classifier-conv -> loss3/classifier-conv
I0719 18:01:48.448907 57921 net.cpp:155] Setting up loss3/classifier-conv
I0719 18:01:48.448938 57921 net.cpp:163] Top shape: 32 2 1 1 (64)
I0719 18:01:48.448981 57921 layer_factory.hpp:76] Creating layer loss3/loss3
I0719 18:01:48.448994 57921 net.cpp:110] Creating Layer loss3/loss3
I0719 18:01:48.449003 57921 net.cpp:477] loss3/loss3 <- loss3/classifier-conv
I0719 18:01:48.449013 57921 net.cpp:477] loss3/loss3 <- label_data_1_split_2
I0719 18:01:48.449023 57921 net.cpp:433] loss3/loss3 -> loss3/loss3
I0719 18:01:48.449036 57921 layer_factory.hpp:76] Creating layer loss3/loss3
…
I0719 18:01:48.454607 57921 net.cpp:339] The NetState phase (1) differed from the phase (0) specified by a rule in layer data
I0719 18:01:48.455448 57921 net.cpp:50] Initializing net from parameters: 
name: "GoogleNet"
state {
  phase: TEST
}
layer {
  name: "data"
  type: "Data"
  top: "data"
  top: "label"
  include {
    phase: TEST
  }
  transform_param {
    mirror: false
    crop_size: 224
    mean_value: 163
    mean_value: 116
    mean_value: 181
  }
  data_param {
    source: "../../step01_generate_traing_data/00DB/TEDB_S256"
    batch_size: 32
    backend: LMDB
  }
}
layer {
  name: "conv1/7x7_s2"
  type: "Convolution"
  bottom: "data"
  top: "conv1/7x7_s2"
  param {
    lr_mult: 1
    decay_mult: 1
  }
  param {
    lr_mult: 2
    decay_mult: 0
  }
  convolution_param {
    num_output: 64
    pad: 3
    kernel_size: 7
    stride: 2
    weight_filler {
      type: "xavier"
    }
    bias_filler {
      type: "constant"
      value: 0.2
    }
  }
}
layer {
  name: "conv1/relu_7x7"
  type: "ReLU"
  bottom: "conv1/7x7_s2"
  top: "conv1/7x7_s2"
}
layer {
  name: "pool1/3x3_s2"
  type: "Pooling"
  bottom: "conv1/7x7_s2"
  top: "pool1/3x3_s2"
  pooling_param {
    pool: MAX
    kernel_size: 3
    stride: 2
  }
}
layer {
  name: "pool1/norm1"
  type: "LRN"
  bottom: "pool1/3x3_s2"
  top: "pool1/norm1"
  lrn_param {
    local_size: 5
    alpha: 0.0001
    beta: 0.75
  }
}
layer {
  name: "conv2/3x3_reduce"
  type: "Convolution"
  bottom: "pool1/norm1"
  top: "conv2/3x3_reduce"
  param {
    lr_mult: 1
    decay_mult: 1
  }
  param {
    lr_mult: 2
    decay_mult: 0
  }
  convolution_param {
    num_output: 64
    kernel_size: 1
    weight_filler {
      type: "xavier"
    }
    bias_filler {
      type: "constant"
      value: 0.2
    }
  }
}
layer {
  name: "conv2/relu_3x3_reduce"
  type: "ReLU"
  bottom: "conv2/3x3_reduce"
  top: "conv2/3x3_reduce"
}
layer {
  name: "conv2/3x3"
  type: "Convolution"
  bottom: "conv2/3x3_reduce"
  top: "conv2/3x3"
  param {
    lr_mult: 1
    decay_mult: 1
  }
  param {
    lr_mult: 2
    decay_mult: 0
  }
  convolution_param {
    num_output: 192
    pad: 1
    kernel_size: 3
    weight_filler {
      type: "xavier"
    }
    bias_filler {
      type: "constant"
      value: 0.2
    }
  }
}
layer {
  name: "conv2/relu_3x3"
  type: "ReLU"
  bottom: "conv2/3x3"
  top: "conv2/3x3"
}
layer {
  name: "conv2/norm2"
  type: "LRN"
  bottom: "conv2/3x3"
  top: "conv2/norm2"
  lrn_param {
    local_size: 5
    alpha: 0.0001
    beta: 0.75
  }
}
layer {
  name: "pool2/3x3_s2"
  type: "Pooling"
  bottom: "conv2/norm2"
  top: "pool2/3x3_s2"
  pooling_param {
    pool: MAX
    kernel_size: 3
    stride: 2
  }
}
layer {
  name: "inception_3a/1x1"
  type: "Convolution"
  bottom: "pool2/3x3_s2"
  top: "inception_3a/1x1"
  param {
    lr_mult: 1
    decay_mult: 1
  }
  param {
    lr_mult: 2
    decay_mult: 0
  }
  convolution_param {
    num_output: 64
    kernel_size: 1
    weight_filler {
      type: "xavier"
    }
    bias_filler {
      type: "constant"
      value: 0.2
    }
  }
}
layer {
  name: "inception_3a/relu_1x1"
  type: "ReLU"
  bottom: "inception_3a/1x1"
  top: "inception_3a/1x1"
}
layer {
  name: "inception_3a/3x3_reduce"
  type: "Convolution"
  bottom: "pool2/3x3_s2"
  top: "inception_3a/3x3_reduce"
  param {
    lr_mult: 1
    decay_mult: 1
  }
  param {
    lr_mult: 2
    decay_mult: 0
  }
  convolution_param {
    num_output: 96
    kernel_size: 1
    weight_filler {
      type: "xavier"
    }
    bias_filler {
      type: "constant"
      value: 0.2
    }
  }
}
layer {
  name: "inception_3a/relu_3x3_reduce"
  type: "ReLU"
  bottom: "inception_3a/3x3_reduce"
  top: "inception_3a/3x3_reduce"
}
layer {
  name: "inception_3a/3x3"
  type: "Convolution"
  bottom: "inception_3a/3x3_reduce"
  top: "inception_3a/3x3"
  param {
    lr_mult: 1
    decay_mult: 1
  }
  param {
    lr_mult: 2
    decay_mult: 0
  }
  convolution_param {
    num_output: 128
    pad: 1
    kernel_size: 3
    weight_filler {
      type: "xavier"
    }
    bias_filler {
      type: "constant"
      value: 0.2
    }
  }
}
layer {
  name: "inception_3a/relu_3x3"
  type: "ReLU"
  bottom: "inception_3a/3x3"
  top: "inception_3a/3x3"
}
layer {
  name: "inception_3a/5x5_reduce"
  type: "Convolution"
  bottom: "pool2/3x3_s2"
  top: "inception_3a/5x5_reduce"
  param {
    lr_mult: 1
    decay_mult: 1
  }
  param {
    lr_mult: 2
    decay_mult: 0
  }
  convolution_param {
    num_output: 16
    kernel_size: 1
    weight_filler {
      type: "xavier"
    }
    bias_filler {
      type: "constant"
      value: 0.2
    }
  }
}
layer {
  name: "inception_3a/relu_5x5_reduce"
  type: "ReLU"
  bottom: "inception_3a/5x5_reduce"
  top: "inception_3a/5x5_reduce"
}
layer {
  name: "inception_3a/5x5"
  type: "Convolution"
  bottom: "inception_3a/5x5_reduce"
  top: "inception_3a/5x5"
  param {
    lr_mult: 1
    decay_mult: 1
  }
  param {
    lr_mult: 2
    decay_mult: 0
  }
  convolution_param {
    num_output: 32
    pad: 2
    kernel_size: 5
    weight_filler {
      type: "xavier"
    }
    bias_filler {
      type: "constant"
      value: 0.2
    }
  }
}
layer {
  name: "inception_3a/relu_5x5"
  type: "ReLU"
  bottom: "inception_3a/5x5"
  top: "inception_3a/5x5"
}
layer {
  name: "inception_3a/pool"
  type: "Pooling"
  bottom: "pool2/3x3_s2"
  top: "inception_3a/pool"
  pooling_param {
    pool: MAX
    kernel_size: 3
    stride: 1
    pad: 1
  }
}
layer {
  name: "inception_3a/pool_proj"
  type: "Convolution"
  bottom: "inception_3a/pool"
  top: "inception_3a/pool_proj"
  param {
    lr_mult: 1
    decay_mult: 1
  }
  param {
    lr_mult: 2
    decay_mult: 0
  }
  convolution_param {
    num_output: 32
    kernel_size: 1
    weight_filler {
      type: "xavier"
    }
    bias_filler {
      type: "constant"
      value: 0.2
    }
  }
}
layer {
  name: "inception_3a/relu_pool_proj"
  type: "ReLU"
  bottom: "inception_3a/pool_proj"
  top: "inception_3a/pool_proj"
}
layer {
  name: "inception_3a/output"
  type: "Concat"
  bottom: "inception_3a/1x1"
  bottom: "inception_3a/3x3"
  bottom: "inception_3a/5x5"
  bottom: "inception_3a/pool_proj"
  top: "inception_3a/output"
}
layer {
  name: "inception_3b/1x1"
  type: "Convolution"
  bottom: "inception_3a/output"
  top: "inception_3b/1x1"
  param {
    lr_mult: 1
    decay_mult: 1
  }
  param {
    lr_mult: 2
    decay_mult: 0
  }
  convolution_param {
    num_output: 128
    kernel_size: 1
    weight_filler {
      type: "xavier"
    }
    bias_filler {
      type: "constant"
      value: 0.2
    }
  }
}
layer {
  name: "inception_3b/relu_1x1"
  type: "ReLU"
  bottom: "inception_3b/1x1"
  top: "inception_3b/1x1"
}
layer {
  name: "inception_3b/3x3_reduce"
  type: "Convolution"
  bottom: "inception_3a/output"
  top: "inception_3b/3x3_reduce"
  param {
    lr_mult: 1
    decay_mult: 1
  }
  param {
    lr_mult: 2
    decay_mult: 0
  }
  convolution_param {
    num_output: 128
    kernel_size: 1
    weight_filler {
      type: "xavier"
    }
    bias_filler {
      type: "constant"
      value: 0.2
    }
  }
}
layer {
  name: "inception_3b/relu_3x3_reduce"
  type: "ReLU"
  bottom: "inception_3b/3x3_reduce"
  top: "inception_3b/3x3_reduce"
}
layer {
  name: "inception_3b/3x3"
  type: "Convolution"
  bottom: "inception_3b/3x3_reduce"
  top: "inception_3b/3x3"
  param {
    lr_mult: 1
    decay_mult: 1
  }
  param {
    lr_mult: 2
    decay_mult: 0
  }
  convolution_param {
    num_output: 192
    pad: 1
    kernel_size: 3
    weight_filler {
      type: "xavier"
    }
    bias_filler {
      type: "constant"
      value: 0.2
    }
  }
}
layer {
  name: "inception_3b/relu_3x3"
  type: "ReLU"
  bottom: "inception_3b/3x3"
  top: "inception_3b/3x3"
}
layer {
  name: "inception_3b/5x5_reduce"
  type: "Convolution"
  bottom: "inception_3a/output"
  top: "inception_3b/5x5_reduce"
  param {
    lr_mult: 1
    decay_mult: 1
  }
  param {
    lr_mult: 2
    decay_mult: 0
  }
  convolution_param {
    num_output: 32
    kernel_size: 1
    weight_filler {
      type: "xavier"
    }
    bias_filler {
      type: "constant"
      value: 0.2
    }
  }
}
layer {
  name: "inception_3b/relu_5x5_reduce"
  type: "ReLU"
  bottom: "inception_3b/5x5_reduce"
  top: "inception_3b/5x5_reduce"
}
layer {
  name: "inception_3b/5x5"
  type: "Convolution"
  bottom: "inception_3b/5x5_reduce"
  top: "inception_3b/5x5"
  param {
    lr_mult: 1
    decay_mult: 1
  }
  param {
    lr_mult: 2
    decay_mult: 0
  }
  convolution_param {
    num_output: 96
    pad: 2
    kernel_size: 5
    weight_filler {
      type: "xavier"
    }
    bias_filler {
      type: "constant"
      value: 0.2
    }
  }
}
layer {
  name: "inception_3b/relu_5x5"
  type: "ReLU"
  bottom: "inception_3b/5x5"
  top: "inception_3b/5x5"
}
layer {
  name: "inception_3b/pool"
  type: "Pooling"
  bottom: "inception_3a/output"
  top: "inception_3b/pool"
  pooling_param {
    pool: MAX
    kernel_size: 3
    stride: 1
    pad: 1
  }
}
layer {
  name: "inception_3b/pool_proj"
  type: "Convolution"
  bottom: "inception_3b/pool"
  top: "inception_3b/pool_proj"
  param {
    lr_mult: 1
    decay_mult: 1
  }
  param {
    lr_mult: 2
    decay_mult: 0
  }
  convolution_param {
    num_output: 64
    kernel_size: 1
    weight_filler {
      type: "xavier"
    }
    bias_filler {
      type: "constant"
      value: 0.2
    }
  }
}
layer {
  name: "inception_3b/relu_pool_proj"
  type: "ReLU"
  bottom: "inception_3b/pool_proj"
  top: "inception_3b/pool_proj"
}
layer {
  name: "inception_3b/output"
  type: "Concat"
  bottom: "inception_3b/1x1"
  bottom: "inception_3b/3x3"
  bottom: "inception_3b/5x5"
  bottom: "inception_3b/pool_proj"
  top: "inception_3b/output"
}
layer {
  name: "pool3/3x3_s2"
  type: "Pooling"
  bottom: "inception_3b/output"
  top: "pool3/3x3_s2"
  pooling_param {
    pool: MAX
    kernel_size: 3
    stride: 2
  }
}
layer {
  name: "inception_4a/1x1"
  type: "Convolution"
  bottom: "pool3/3x3_s2"
  top: "inception_4a/1x1"
  param {
    lr_mult: 1
    decay_mult: 1
  }
  param {
    lr_mult: 2
    decay_mult: 0
  }
  convolution_param {
    num_output: 192
    kernel_size: 1
    weight_filler {
      type: "xavier"
    }
    bias_filler {
      type: "constant"
      value: 0.2
    }
  }
}
layer {
  name: "inception_4a/relu_1x1"
  type: "ReLU"
  bottom: "inception_4a/1x1"
  top: "inception_4a/1x1"
}
layer {
  name: "inception_4a/3x3_reduce"
  type: "Convolution"
  bottom: "pool3/3x3_s2"
  top: "inception_4a/3x3_reduce"
  param {
    lr_mult: 1
    decay_mult: 1
  }
  param {
    lr_mult: 2
    decay_mult: 0
  }
  convolution_param {
    num_output: 96
    kernel_size: 1
    weight_filler {
      type: "xavier"
    }
    bias_filler {
      type: "constant"
      value: 0.2
    }
  }
}
layer {
  name: "inception_4a/relu_3x3_reduce"
  type: "ReLU"
  bottom: "inception_4a/3x3_reduce"
  top: "inception_4a/3x3_reduce"
}
layer {
  name: "inception_4a/3x3"
  type: "Convolution"
  bottom: "inception_4a/3x3_reduce"
  top: "inception_4a/3x3"
  param {
    lr_mult: 1
    decay_mult: 1
  }
  param {
    lr_mult: 2
    decay_mult: 0
  }
  convolution_param {
    num_output: 208
    pad: 1
    kernel_size: 3
    weight_filler {
      type: "xavier"
    }
    bias_filler {
      type: "constant"
      value: 0.2
    }
  }
}
layer {
  name: "inception_4a/relu_3x3"
  type: "ReLU"
  bottom: "inception_4a/3x3"
  top: "inception_4a/3x3"
}
layer {
  name: "inception_4a/5x5_reduce"
  type: "Convolution"
  bottom: "pool3/3x3_s2"
  top: "inception_4a/5x5_reduce"
  param {
    lr_mult: 1
    decay_mult: 1
  }
  param {
    lr_mult: 2
    decay_mult: 0
  }
  convolution_param {
    num_output: 16
    kernel_size: 1
    weight_filler {
      type: "xavier"
    }
    bias_filler {
      type: "constant"
      value: 0.2
    }
  }
}
layer {
  name: "inception_4a/relu_5x5_reduce"
  type: "ReLU"
  bottom: "inception_4a/5x5_reduce"
  top: "inception_4a/5x5_reduce"
}
layer {
  name: "inception_4a/5x5"
  type: "Convolution"
  bottom: "inception_4a/5x5_reduce"
  top: "inception_4a/5x5"
  param {
    lr_mult: 1
    decay_mult: 1
  }
  param {
    lr_mult: 2
    decay_mult: 0
  }
  convolution_param {
    num_output: 48
    pad: 2
    kernel_size: 5
    weight_filler {
      type: "xavier"
    }
    bias_filler {
      type: "constant"
      value: 0.2
    }
  }
}
layer {
  name: "inception_4a/relu_5x5"
  type: "ReLU"
  bottom: "inception_4a/5x5"
  top: "inception_4a/5x5"
}
layer {
  name: "inception_4a/pool"
  type: "Pooling"
  bottom: "pool3/3x3_s2"
  top: "inception_4a/pool"
  pooling_param {
    pool: MAX
    kernel_size: 3
    stride: 1
    pad: 1
  }
}
layer {
  name: "inception_4a/pool_proj"
  type: "Convolution"
  bottom: "inception_4a/pool"
  top: "inception_4a/pool_proj"
  param {
    lr_mult: 1
    decay_mult: 1
  }
  param {
    lr_mult: 2
    decay_mult: 0
  }
  convolution_param {
    num_output: 64
    kernel_size: 1
    weight_filler {
      type: "xavier"
    }
    bias_filler {
      type: "constant"
      value: 0.2
    }
  }
}
layer {
  name: "inception_4a/relu_pool_proj"
  type: "ReLU"
  bottom: "inception_4a/pool_proj"
  top: "inception_4a/pool_proj"
}
layer {
  name: "inception_4a/output"
  type: "Concat"
  bottom: "inception_4a/1x1"
  bottom: "inception_4a/3x3"
  bottom: "inception_4a/5x5"
  bottom: "inception_4a/pool_proj"
  top: "inception_4a/output"
}
layer {
  name: "loss1/ave_pool"
  type: "Pooling"
  bottom: "inception_4a/output"
  top: "loss1/ave_pool"
  pooling_param {
    pool: AVE
    kernel_size: 5
    stride: 3
  }
}
layer {
  name: "loss1/conv"
  type: "Convolution"
  bottom: "loss1/ave_pool"
  top: "loss1/conv"
  param {
    lr_mult: 1
    decay_mult: 1
  }
  param {
    lr_mult: 2
    decay_mult: 0
  }
  convolution_param {
    num_output: 128
    kernel_size: 1
    weight_filler {
      type: "xavier"
    }
    bias_filler {
      type: "constant"
      value: 0.2
    }
  }
}
layer {
  name: "loss1/relu_conv"
  type: "ReLU"
  bottom: "loss1/conv"
  top: "loss1/conv"
}
layer {
  name: "loss1/fc"
  type: "InnerProduct"
  bottom: "loss1/conv"
  top: "loss1/fc"
  param {
    lr_mult: 1
    decay_mult: 1
  }
  param {
    lr_mult: 2
    decay_mult: 0
  }
  inner_product_param {
    num_output: 1024
    weight_filler {
      type: "xavier"
    }
    bias_filler {
      type: "constant"
      value: 0.2
    }
  }
}
layer {
  name: "loss1/relu_fc"
  type: "ReLU"
  bottom: "loss1/fc"
  top: "loss1/fc"
}
layer {
  name: "loss1/drop_fc"
  type: "Dropout"
  bottom: "loss1/fc"
  top: "loss1/fc"
  dropout_param {
    dropout_ratio: 0.7
  }
}
layer {
  name: "loss1/classifier"
  type: "InnerProduct"
  bottom: "loss1/fc"
  top: "loss1/classifier"
  param {
    lr_mult: 1
    decay_mult: 1
  }
  param {
    lr_mult: 2
    decay_mult: 0
  }
  inner_product_param {
    num_output: 2
    weight_filler {
      type: "xavier"
    }
    bias_filler {
      type: "constant"
      value: 0
    }
  }
}
layer {
  name: "loss1/loss"
  type: "SoftmaxWithLoss"
  bottom: "loss1/classifier"
  bottom: "label"
  top: "loss1/loss1"
  loss_weight: 0.3
}
layer {
  name: "loss1/top-1"
  type: "Accuracy"
  bottom: "loss1/classifier"
  bottom: "label"
  top: "loss1/top-1"
  include {
    phase: TEST
  }
}
layer {
  name: "inception_4b/1x1"
  type: "Convolution"
  bottom: "inception_4a/output"
  top: "inception_4b/1x1"
  param {
    lr_mult: 1
    decay_mult: 1
  }
  param {
    lr_mult: 2
    decay_mult: 0
  }
  convolution_param {
    num_output: 160
    kernel_size: 1
    weight_filler {
      type: "xavier"
    }
    bias_filler {
      type: "constant"
      value: 0.2
    }
  }
}
layer {
  name: "inception_4b/relu_1x1"
  type: "ReLU"
  bottom: "inception_4b/1x1"
  top: "inception_4b/1x1"
}
layer {
  name: "inception_4b/3x3_reduce"
  type: "Convolution"
  bottom: "inception_4a/output"
  top: "inception_4b/3x3_reduce"
  param {
    lr_mult: 1
    decay_mult: 1
  }
  param {
    lr_mult: 2
    decay_mult: 0
  }
  convolution_param {
    num_output: 112
    kernel_size: 1
    weight_filler {
      type: "xavier"
    }
    bias_filler {
      type: "constant"
      value: 0.2
    }
  }
}
layer {
  name: "inception_4b/relu_3x3_reduce"
  type: "ReLU"
  bottom: "inception_4b/3x3_reduce"
  top: "inception_4b/3x3_reduce"
}
layer {
  name: "inception_4b/3x3"
  type: "Convolution"
  bottom: "inception_4b/3x3_reduce"
  top: "inception_4b/3x3"
  param {
    lr_mult: 1
    decay_mult: 1
  }
  param {
    lr_mult: 2
    decay_mult: 0
  }
  convolution_param {
    num_output: 224
    pad: 1
    kernel_size: 3
    weight_filler {
      type: "xavier"
    }
    bias_filler {
      type: "constant"
      value: 0.2
    }
  }
}
layer {
  name: "inception_4b/relu_3x3"
  type: "ReLU"
  bottom: "inception_4b/3x3"
  top: "inception_4b/3x3"
}
layer {
  name: "inception_4b/5x5_reduce"
  type: "Convolution"
  bottom: "inception_4a/output"
  top: "inception_4b/5x5_reduce"
  param {
    lr_mult: 1
    decay_mult: 1
  }
  param {
    lr_mult: 2
    decay_mult: 0
  }
  convolution_param {
    num_output: 24
    kernel_size: 1
    weight_filler {
      type: "xavier"
    }
    bias_filler {
      type: "constant"
      value: 0.2
    }
  }
}
layer {
  name: "inception_4b/relu_5x5_reduce"
  type: "ReLU"
  bottom: "inception_4b/5x5_reduce"
  top: "inception_4b/5x5_reduce"
}
layer {
  name: "inception_4b/5x5"
  type: "Convolution"
  bottom: "inception_4b/5x5_reduce"
  top: "inception_4b/5x5"
  param {
    lr_mult: 1
    decay_mult: 1
  }
  param {
    lr_mult: 2
    decay_mult: 0
  }
  convolution_param {
    num_output: 64
    pad: 2
    kernel_size: 5
    weight_filler {
      type: "xavier"
    }
    bias_filler {
      type: "constant"
      value: 0.2
    }
  }
}
layer {
  name: "inception_4b/relu_5x5"
  type: "ReLU"
  bottom: "inception_4b/5x5"
  top: "inception_4b/5x5"
}
layer {
  name: "inception_4b/pool"
  type: "Pooling"
  bottom: "inception_4a/output"
  top: "inception_4b/pool"
  pooling_param {
    pool: MAX
    kernel_size: 3
    stride: 1
    pad: 1
  }
}
layer {
  name: "inception_4b/pool_proj"
  type: "Convolution"
  bottom: "inception_4b/pool"
  top: "inception_4b/pool_proj"
  param {
    lr_mult: 1
    decay_mult: 1
  }
  param {
    lr_mult: 2
    decay_mult: 0
  }
  convolution_param {
    num_output: 64
    kernel_size: 1
    weight_filler {
      type: "xavier"
    }
    bias_filler {
      type: "constant"
      value: 0.2
    }
  }
}
layer {
  name: "inception_4b/relu_pool_proj"
  type: "ReLU"
  bottom: "inception_4b/pool_proj"
  top: "inception_4b/pool_proj"
}
layer {
  name: "inception_4b/output"
  type: "Concat"
  bottom: "inception_4b/1x1"
  bottom: "inception_4b/3x3"
  bottom: "inception_4b/5x5"
  bottom: "inception_4b/pool_proj"
  top: "inception_4b/output"
}
layer {
  name: "inception_4c/1x1"
  type: "Convolution"
  bottom: "inception_4b/output"
  top: "inception_4c/1x1"
  param {
    lr_mult: 1
    decay_mult: 1
  }
  param {
    lr_mult: 2
    decay_mult: 0
  }
  convolution_param {
    num_output: 128
    kernel_size: 1
    weight_filler {
      type: "xavier"
    }
    bias_filler {
      type: "constant"
      value: 0.2
    }
  }
}
layer {
  name: "inception_4c/relu_1x1"
  type: "ReLU"
  bottom: "inception_4c/1x1"
  top: "inception_4c/1x1"
}
layer {
  name: "inception_4c/3x3_reduce"
  type: "Convolution"
  bottom: "inception_4b/output"
  top: "inception_4c/3x3_reduce"
  param {
    lr_mult: 1
    decay_mult: 1
  }
  param {
    lr_mult: 2
    decay_mult: 0
  }
  convolution_param {
    num_output: 128
    kernel_size: 1
    weight_filler {
      type: "xavier"
    }
    bias_filler {
      type: "constant"
      value: 0.2
    }
  }
}
layer {
  name: "inception_4c/relu_3x3_reduce"
  type: "ReLU"
  bottom: "inception_4c/3x3_reduce"
  top: "inception_4c/3x3_reduce"
}
layer {
  name: "inception_4c/3x3"
  type: "Convolution"
  bottom: "inception_4c/3x3_reduce"
  top: "inception_4c/3x3"
  param {
    lr_mult: 1
    decay_mult: 1
  }
  param {
    lr_mult: 2
    decay_mult: 0
  }
  convolution_param {
    num_output: 256
    pad: 1
    kernel_size: 3
    weight_filler {
      type: "xavier"
    }
    bias_filler {
      type: "constant"
      value: 0.2
    }
  }
}
layer {
  name: "inception_4c/relu_3x3"
  type: "ReLU"
  bottom: "inception_4c/3x3"
  top: "inception_4c/3x3"
}
layer {
  name: "inception_4c/5x5_reduce"
  type: "Convolution"
  bottom: "inception_4b/output"
  top: "inception_4c/5x5_reduce"
  param {
    lr_mult: 1
    decay_mult: 1
  }
  param {
    lr_mult: 2
    decay_mult: 0
  }
  convolution_param {
    num_output: 24
    kernel_size: 1
    weight_filler {
      type: "xavier"
    }
    bias_filler {
      type: "constant"
      value: 0.2
    }
  }
}
layer {
  name: "inception_4c/relu_5x5_reduce"
  type: "ReLU"
  bottom: "inception_4c/5x5_reduce"
  top: "inception_4c/5x5_reduce"
}
layer {
  name: "inception_4c/5x5"
  type: "Convolution"
  bottom: "inception_4c/5x5_reduce"
  top: "inception_4c/5x5"
  param {
    lr_mult: 1
    decay_mult: 1
  }
  param {
    lr_mult: 2
    decay_mult: 0
  }
  convolution_param {
    num_output: 64
    pad: 2
    kernel_size: 5
    weight_filler {
      type: "xavier"
    }
    bias_filler {
      type: "constant"
      value: 0.2
    }
  }
}
layer {
  name: "inception_4c/relu_5x5"
  type: "ReLU"
  bottom: "inception_4c/5x5"
  top: "inception_4c/5x5"
}
layer {
  name: "inception_4c/pool"
  type: "Pooling"
  bottom: "inception_4b/output"
  top: "inception_4c/pool"
  pooling_param {
    pool: MAX
    kernel_size: 3
    stride: 1
    pad: 1
  }
}
layer {
  name: "inception_4c/pool_proj"
  type: "Convolution"
  bottom: "inception_4c/pool"
  top: "inception_4c/pool_proj"
  param {
    lr_mult: 1
    decay_mult: 1
  }
  param {
    lr_mult: 2
    decay_mult: 0
  }
  convolution_param {
    num_output: 64
    kernel_size: 1
    weight_filler {
      type: "xavier"
    }
    bias_filler {
      type: "constant"
      value: 0.2
    }
  }
}
layer {
  name: "inception_4c/relu_pool_proj"
  type: "ReLU"
  bottom: "inception_4c/pool_proj"
  top: "inception_4c/pool_proj"
}
layer {
  name: "inception_4c/output"
  type: "Concat"
  bottom: "inception_4c/1x1"
  bottom: "inception_4c/3x3"
  bottom: "inception_4c/5x5"
  bottom: "inception_4c/pool_proj"
  top: "inception_4c/output"
}
layer {
  name: "inception_4d/1x1"
  type: "Convolution"
  bottom: "inception_4c/output"
  top: "inception_4d/1x1"
  param {
    lr_mult: 1
    decay_mult: 1
  }
  param {
    lr_mult: 2
    decay_mult: 0
  }
  convolution_param {
    num_output: 112
    kernel_size: 1
    weight_filler {
      type: "xavier"
    }
    bias_filler {
      type: "constant"
      value: 0.2
    }
  }
}
layer {
  name: "inception_4d/relu_1x1"
  type: "ReLU"
  bottom: "inception_4d/1x1"
  top: "inception_4d/1x1"
}
layer {
  name: "inception_4d/3x3_reduce"
  type: "Convolution"
  bottom: "inception_4c/output"
  top: "inception_4d/3x3_reduce"
  param {
    lr_mult: 1
    decay_mult: 1
  }
  param {
    lr_mult: 2
    decay_mult: 0
  }
  convolution_param {
    num_output: 144
    kernel_size: 1
    weight_filler {
      type: "xavier"
    }
    bias_filler {
      type: "constant"
      value: 0.2
    }
  }
}
layer {
  name: "inception_4d/relu_3x3_reduce"
  type: "ReLU"
  bottom: "inception_4d/3x3_reduce"
  top: "inception_4d/3x3_reduce"
}
layer {
  name: "inception_4d/3x3"
  type: "Convolution"
  bottom: "inception_4d/3x3_reduce"
  top: "inception_4d/3x3"
  param {
    lr_mult: 1
    decay_mult: 1
  }
  param {
    lr_mult: 2
    decay_mult: 0
  }
  convolution_param {
    num_output: 288
    pad: 1
    kernel_size: 3
    weight_filler {
      type: "xavier"
    }
    bias_filler {
      type: "constant"
      value: 0.2
    }
  }
}
layer {
  name: "inception_4d/relu_3x3"
  type: "ReLU"
  bottom: "inception_4d/3x3"
  top: "inception_4d/3x3"
}
layer {
  name: "inception_4d/5x5_reduce"
  type: "Convolution"
  bottom: "inception_4c/output"
  top: "inception_4d/5x5_reduce"
  param {
    lr_mult: 1
    decay_mult: 1
  }
  param {
    lr_mult: 2
    decay_mult: 0
  }
  convolution_param {
    num_output: 32
    kernel_size: 1
    weight_filler {
      type: "xavier"
    }
    bias_filler {
      type: "constant"
      value: 0.2
    }
  }
}
layer {
  name: "inception_4d/relu_5x5_reduce"
  type: "ReLU"
  bottom: "inception_4d/5x5_reduce"
  top: "inception_4d/5x5_reduce"
}
layer {
  name: "inception_4d/5x5"
  type: "Convolution"
  bottom: "inception_4d/5x5_reduce"
  top: "inception_4d/5x5"
  param {
    lr_mult: 1
    decay_mult: 1
  }
  param {
    lr_mult: 2
    decay_mult: 0
  }
  convolution_param {
    num_output: 64
    pad: 2
    kernel_size: 5
    weight_filler {
      type: "xavier"
    }
    bias_filler {
      type: "constant"
      value: 0.2
    }
  }
}
layer {
  name: "inception_4d/relu_5x5"
  type: "ReLU"
  bottom: "inception_4d/5x5"
  top: "inception_4d/5x5"
}
layer {
  name: "inception_4d/pool"
  type: "Pooling"
  bottom: "inception_4c/output"
  top: "inception_4d/pool"
  pooling_param {
    pool: MAX
    kernel_size: 3
    stride: 1
    pad: 1
  }
}
layer {
  name: "inception_4d/pool_proj"
  type: "Convolution"
  bottom: "inception_4d/pool"
  top: "inception_4d/pool_proj"
  param {
    lr_mult: 1
    decay_mult: 1
  }
  param {
    lr_mult: 2
    decay_mult: 0
  }
  convolution_param {
    num_output: 64
    kernel_size: 1
    weight_filler {
      type: "xavier"
    }
    bias_filler {
      type: "constant"
      value: 0.2
    }
  }
}
layer {
  name: "inception_4d/relu_pool_proj"
  type: "ReLU"
  bottom: "inception_4d/pool_proj"
  top: "inception_4d/pool_proj"
}
layer {
  name: "inception_4d/output"
  type: "Concat"
  bottom: "inception_4d/1x1"
  bottom: "inception_4d/3x3"
  bottom: "inception_4d/5x5"
  bottom: "inception_4d/pool_proj"
  top: "inception_4d/output"
}
layer {
  name: "loss2/ave_pool"
  type: "Pooling"
  bottom: "inception_4d/output"
  top: "loss2/ave_pool"
  pooling_param {
    pool: AVE
    kernel_size: 5
    stride: 3
  }
}
layer {
  name: "loss2/conv"
  type: "Convolution"
  bottom: "loss2/ave_pool"
  top: "loss2/conv"
  param {
    lr_mult: 1
    decay_mult: 1
  }
  param {
    lr_mult: 2
    decay_mult: 0
  }
  convolution_param {
    num_output: 128
    kernel_size: 1
    weight_filler {
      type: "xavier"
    }
    bias_filler {
      type: "constant"
      value: 0.2
    }
  }
}
layer {
  name: "loss2/relu_conv"
  type: "ReLU"
  bottom: "loss2/conv"
  top: "loss2/conv"
}
layer {
  name: "loss2/fc"
  type: "InnerProduct"
…
I0719 18:01:48.624938 57921 net.cpp:433] inception_4b/output_inception_4b/output_0_split -> inception_4b/output_inception_4b/output_0_split_3
I0719 18:01:48.624949 57921 net.cpp:155] Setting up inception_4b/output_inception_4b/output_0_split
I0719 18:01:48.624958 57921 net.cpp:163] Top shape: 32 512 14 14 (3211264)
I0719 18:01:48.624968 57921 net.cpp:163] Top shape: 32 512 14 14 (3211264)
I0719 18:01:48.624987 57921 net.cpp:163] Top shape: 32 512 14 14 (3211264)
I0719 18:01:48.624994 57921 net.cpp:163] Top shape: 32 512 14 14 (3211264)
I0719 18:01:48.625002 57921 layer_factory.hpp:76] Creating layer inception_4c/1x1
I0719 18:01:48.625020 57921 net.cpp:110] Creating Layer inception_4c/1x1
I0719 18:01:48.625030 57921 net.cpp:477] inception_4c/1x1 <- inception_4b/output_inception_4b/output_0_split_0
I0719 18:01:48.625041 57921 net.cpp:433] inception_4c/1x1 -> inception_4c/1x1
I0719 18:01:48.626719 57921 net.cpp:155] Setting up inception_4c/1x1
I0719 18:01:48.626780 57921 net.cpp:163] Top shape: 32 128 14 14 (802816)
I0719 18:01:48.626796 57921 layer_factory.hpp:76] Creating layer inception_4c/relu_1x1
I0719 18:01:48.626809 57921 net.cpp:110] Creating Layer inception_4c/relu_1x1
I0719 18:01:48.626818 57921 net.cpp:477] inception_4c/relu_1x1 <- inception_4c/1x1
I0719 18:01:48.626840 57921 net.cpp:419] inception_4c/relu_1x1 -> inception_4c/1x1 (in-place)
I0719 18:01:48.627080 57921 net.cpp:155] Setting up inception_4c/relu_1x1
I0719 18:01:48.627112 57921 net.cpp:163] Top shape: 32 128 14 14 (802816)
I0719 18:01:48.627120 57921 layer_factory.hpp:76] Creating layer inception_4c/3x3_reduce
I0719 18:01:48.627135 57921 net.cpp:110] Creating Layer inception_4c/3x3_reduce
I0719 18:01:48.627145 57921 net.cpp:477] inception_4c/3x3_reduce <- inception_4b/output_inception_4b/output_0_split_1
I0719 18:01:48.627156 57921 net.cpp:433] inception_4c/3x3_reduce -> inception_4c/3x3_reduce
I0719 18:01:48.629534 57921 net.cpp:155] Setting up inception_4c/3x3_reduce
I0719 18:01:48.629614 57921 net.cpp:163] Top shape: 32 128 14 14 (802816)
I0719 18:01:48.629629 57921 layer_factory.hpp:76] Creating layer inception_4c/relu_3x3_reduce
I0719 18:01:48.629648 57921 net.cpp:110] Creating Layer inception_4c/relu_3x3_reduce
I0719 18:01:48.629658 57921 net.cpp:477] inception_4c/relu_3x3_reduce <- inception_4c/3x3_reduce
I0719 18:01:48.629669 57921 net.cpp:419] inception_4c/relu_3x3_reduce -> inception_4c/3x3_reduce (in-place)
I0719 18:01:48.629904 57921 net.cpp:155] Setting up inception_4c/relu_3x3_reduce
I0719 18:01:48.629932 57921 net.cpp:163] Top shape: 32 128 14 14 (802816)
I0719 18:01:48.629941 57921 layer_factory.hpp:76] Creating layer inception_4c/3x3
I0719 18:01:48.629971 57921 net.cpp:110] Creating Layer inception_4c/3x3
I0719 18:01:48.629979 57921 net.cpp:477] inception_4c/3x3 <- inception_4c/3x3_reduce
I0719 18:01:48.629989 57921 net.cpp:433] inception_4c/3x3 -> inception_4c/3x3
I0719 18:01:48.634692 57921 net.cpp:155] Setting up inception_4c/3x3
I0719 18:01:48.634763 57921 net.cpp:163] Top shape: 32 256 14 14 (1605632)
I0719 18:01:48.634794 57921 layer_factory.hpp:76] Creating layer inception_4c/relu_3x3
I0719 18:01:48.634810 57921 net.cpp:110] Creating Layer inception_4c/relu_3x3
I0719 18:01:48.634821 57921 net.cpp:477] inception_4c/relu_3x3 <- inception_4c/3x3
I0719 18:01:48.634832 57921 net.cpp:419] inception_4c/relu_3x3 -> inception_4c/3x3 (in-place)
I0719 18:01:48.635237 57921 net.cpp:155] Setting up inception_4c/relu_3x3
I0719 18:01:48.635267 57921 net.cpp:163] Top shape: 32 256 14 14 (1605632)
I0719 18:01:48.635277 57921 layer_factory.hpp:76] Creating layer inception_4c/5x5_reduce
I0719 18:01:48.635293 57921 net.cpp:110] Creating Layer inception_4c/5x5_reduce
I0719 18:01:48.635346 57921 net.cpp:477] inception_4c/5x5_reduce <- inception_4b/output_inception_4b/output_0_split_2
I0719 18:01:48.635375 57921 net.cpp:433] inception_4c/5x5_reduce -> inception_4c/5x5_reduce
I0719 18:01:48.636519 57921 net.cpp:155] Setting up inception_4c/5x5_reduce
I0719 18:01:48.636553 57921 net.cpp:163] Top shape: 32 24 14 14 (150528)
I0719 18:01:48.636564 57921 layer_factory.hpp:76] Creating layer inception_4c/relu_5x5_reduce
I0719 18:01:48.636575 57921 net.cpp:110] Creating Layer inception_4c/relu_5x5_reduce
I0719 18:01:48.636584 57921 net.cpp:477] inception_4c/relu_5x5_reduce <- inception_4c/5x5_reduce
I0719 18:01:48.636592 57921 net.cpp:419] inception_4c/relu_5x5_reduce -> inception_4c/5x5_reduce (in-place)
I0719 18:01:48.636826 57921 net.cpp:155] Setting up inception_4c/relu_5x5_reduce
I0719 18:01:48.636854 57921 net.cpp:163] Top shape: 32 24 14 14 (150528)
I0719 18:01:48.636863 57921 layer_factory.hpp:76] Creating layer inception_4c/5x5
I0719 18:01:48.636878 57921 net.cpp:110] Creating Layer inception_4c/5x5
I0719 18:01:48.636886 57921 net.cpp:477] inception_4c/5x5 <- inception_4c/5x5_reduce
I0719 18:01:48.636896 57921 net.cpp:433] inception_4c/5x5 -> inception_4c/5x5
I0719 18:01:48.638164 57921 net.cpp:155] Setting up inception_4c/5x5
I0719 18:01:48.638195 57921 net.cpp:163] Top shape: 32 64 14 14 (401408)
I0719 18:01:48.638207 57921 layer_factory.hpp:76] Creating layer inception_4c/relu_5x5
I0719 18:01:48.638218 57921 net.cpp:110] Creating Layer inception_4c/relu_5x5
I0719 18:01:48.638226 57921 net.cpp:477] inception_4c/relu_5x5 <- inception_4c/5x5
I0719 18:01:48.638236 57921 net.cpp:419] inception_4c/relu_5x5 -> inception_4c/5x5 (in-place)
I0719 18:01:48.638480 57921 net.cpp:155] Setting up inception_4c/relu_5x5
I0719 18:01:48.638507 57921 net.cpp:163] Top shape: 32 64 14 14 (401408)
I0719 18:01:48.638516 57921 layer_factory.hpp:76] Creating layer inception_4c/pool
I0719 18:01:48.638526 57921 layer_factory.cpp:60] CUDNN does not support padding or multiple tops. Using Caffe's own pooling layer.
I0719 18:01:48.638537 57921 net.cpp:110] Creating Layer inception_4c/pool
I0719 18:01:48.638546 57921 net.cpp:477] inception_4c/pool <- inception_4b/output_inception_4b/output_0_split_3
I0719 18:01:48.638556 57921 net.cpp:433] inception_4c/pool -> inception_4c/pool
I0719 18:01:48.638571 57921 net.cpp:155] Setting up inception_4c/pool
I0719 18:01:48.638579 57921 net.cpp:163] Top shape: 32 512 14 14 (3211264)
I0719 18:01:48.638586 57921 layer_factory.hpp:76] Creating layer inception_4c/pool_proj
I0719 18:01:48.638600 57921 net.cpp:110] Creating Layer inception_4c/pool_proj
I0719 18:01:48.638608 57921 net.cpp:477] inception_4c/pool_proj <- inception_4c/pool
I0719 18:01:48.638620 57921 net.cpp:433] inception_4c/pool_proj -> inception_4c/pool_proj
I0719 18:01:48.639971 57921 net.cpp:155] Setting up inception_4c/pool_proj
I0719 18:01:48.640041 57921 net.cpp:163] Top shape: 32 64 14 14 (401408)
I0719 18:01:48.640058 57921 layer_factory.hpp:76] Creating layer inception_4c/relu_pool_proj
I0719 18:01:48.640072 57921 net.cpp:110] Creating Layer inception_4c/relu_pool_proj
I0719 18:01:48.640082 57921 net.cpp:477] inception_4c/relu_pool_proj <- inception_4c/pool_proj
I0719 18:01:48.640094 57921 net.cpp:419] inception_4c/relu_pool_proj -> inception_4c/pool_proj (in-place)
I0719 18:01:48.640537 57921 net.cpp:155] Setting up inception_4c/relu_pool_proj
I0719 18:01:48.640571 57921 net.cpp:163] Top shape: 32 64 14 14 (401408)
I0719 18:01:48.640581 57921 layer_factory.hpp:76] Creating layer inception_4c/output
I0719 18:01:48.640593 57921 net.cpp:110] Creating Layer inception_4c/output
I0719 18:01:48.640600 57921 net.cpp:477] inception_4c/output <- inception_4c/1x1
I0719 18:01:48.640610 57921 net.cpp:477] inception_4c/output <- inception_4c/3x3
I0719 18:01:48.640619 57921 net.cpp:477] inception_4c/output <- inception_4c/5x5
I0719 18:01:48.640627 57921 net.cpp:477] inception_4c/output <- inception_4c/pool_proj
I0719 18:01:48.640637 57921 net.cpp:433] inception_4c/output -> inception_4c/output
I0719 18:01:48.640707 57921 net.cpp:155] Setting up inception_4c/output
I0719 18:01:48.640722 57921 net.cpp:163] Top shape: 32 512 14 14 (3211264)
I0719 18:01:48.640741 57921 layer_factory.hpp:76] Creating layer inception_4c/output_inception_4c/output_0_split
I0719 18:01:48.640769 57921 net.cpp:110] Creating Layer inception_4c/output_inception_4c/output_0_split
I0719 18:01:48.640776 57921 net.cpp:477] inception_4c/output_inception_4c/output_0_split <- inception_4c/output
I0719 18:01:48.640786 57921 net.cpp:433] inception_4c/output_inception_4c/output_0_split -> inception_4c/output_inception_4c/output_0_split_0
I0719 18:01:48.640799 57921 net.cpp:433] inception_4c/output_inception_4c/output_0_split -> inception_4c/output_inception_4c/output_0_split_1
I0719 18:01:48.640811 57921 net.cpp:433] inception_4c/output_inception_4c/output_0_split -> inception_4c/output_inception_4c/output_0_split_2
I0719 18:01:48.640821 57921 net.cpp:433] inception_4c/output_inception_4c/output_0_split -> inception_4c/output_inception_4c/output_0_split_3
I0719 18:01:48.640843 57921 net.cpp:155] Setting up inception_4c/output_inception_4c/output_0_split
I0719 18:01:48.640851 57921 net.cpp:163] Top shape: 32 512 14 14 (3211264)
I0719 18:01:48.640861 57921 net.cpp:163] Top shape: 32 512 14 14 (3211264)
I0719 18:01:48.640872 57921 net.cpp:163] Top shape: 32 512 14 14 (3211264)
I0719 18:01:48.640879 57921 net.cpp:163] Top shape: 32 512 14 14 (3211264)
I0719 18:01:48.640887 57921 layer_factory.hpp:76] Creating layer inception_4d/1x1
I0719 18:01:48.640900 57921 net.cpp:110] Creating Layer inception_4d/1x1
I0719 18:01:48.640908 57921 net.cpp:477] inception_4d/1x1 <- inception_4c/output_inception_4c/output_0_split_0
I0719 18:01:48.640928 57921 net.cpp:433] inception_4d/1x1 -> inception_4d/1x1
I0719 18:01:48.642730 57921 net.cpp:155] Setting up inception_4d/1x1
I0719 18:01:48.642794 57921 net.cpp:163] Top shape: 32 112 14 14 (702464)
I0719 18:01:48.642812 57921 layer_factory.hpp:76] Creating layer inception_4d/relu_1x1
I0719 18:01:48.642830 57921 net.cpp:110] Creating Layer inception_4d/relu_1x1
I0719 18:01:48.642841 57921 net.cpp:477] inception_4d/relu_1x1 <- inception_4d/1x1
I0719 18:01:48.642853 57921 net.cpp:419] inception_4d/relu_1x1 -> inception_4d/1x1 (in-place)
I0719 18:01:48.643112 57921 net.cpp:155] Setting up inception_4d/relu_1x1
I0719 18:01:48.643141 57921 net.cpp:163] Top shape: 32 112 14 14 (702464)
I0719 18:01:48.643149 57921 layer_factory.hpp:76] Creating layer inception_4d/3x3_reduce
I0719 18:01:48.643173 57921 net.cpp:110] Creating Layer inception_4d/3x3_reduce
I0719 18:01:48.643182 57921 net.cpp:477] inception_4d/3x3_reduce <- inception_4c/output_inception_4c/output_0_split_1
I0719 18:01:48.643200 57921 net.cpp:433] inception_4d/3x3_reduce -> inception_4d/3x3_reduce
I0719 18:01:48.645192 57921 net.cpp:155] Setting up inception_4d/3x3_reduce
I0719 18:01:48.645259 57921 net.cpp:163] Top shape: 32 144 14 14 (903168)
I0719 18:01:48.645277 57921 layer_factory.hpp:76] Creating layer inception_4d/relu_3x3_reduce
I0719 18:01:48.645292 57921 net.cpp:110] Creating Layer inception_4d/relu_3x3_reduce
I0719 18:01:48.645303 57921 net.cpp:477] inception_4d/relu_3x3_reduce <- inception_4d/3x3_reduce
I0719 18:01:48.645314 57921 net.cpp:419] inception_4d/relu_3x3_reduce -> inception_4d/3x3_reduce (in-place)
I0719 18:01:48.645568 57921 net.cpp:155] Setting up inception_4d/relu_3x3_reduce
I0719 18:01:48.645596 57921 net.cpp:163] Top shape: 32 144 14 14 (903168)
I0719 18:01:48.645604 57921 layer_factory.hpp:76] Creating layer inception_4d/3x3
I0719 18:01:48.645620 57921 net.cpp:110] Creating Layer inception_4d/3x3
I0719 18:01:48.645630 57921 net.cpp:477] inception_4d/3x3 <- inception_4d/3x3_reduce
I0719 18:01:48.645640 57921 net.cpp:433] inception_4d/3x3 -> inception_4d/3x3
I0719 18:01:48.650714 57921 net.cpp:155] Setting up inception_4d/3x3
I0719 18:01:48.650784 57921 net.cpp:163] Top shape: 32 288 14 14 (1806336)
I0719 18:01:48.650799 57921 layer_factory.hpp:76] Creating layer inception_4d/relu_3x3
I0719 18:01:48.650815 57921 net.cpp:110] Creating Layer inception_4d/relu_3x3
I0719 18:01:48.650862 57921 net.cpp:477] inception_4d/relu_3x3 <- inception_4d/3x3
I0719 18:01:48.650873 57921 net.cpp:419] inception_4d/relu_3x3 -> inception_4d/3x3 (in-place)
I0719 18:01:48.651283 57921 net.cpp:155] Setting up inception_4d/relu_3x3
I0719 18:01:48.651314 57921 net.cpp:163] Top shape: 32 288 14 14 (1806336)
I0719 18:01:48.651324 57921 layer_factory.hpp:76] Creating layer inception_4d/5x5_reduce
I0719 18:01:48.651340 57921 net.cpp:110] Creating Layer inception_4d/5x5_reduce
I0719 18:01:48.651350 57921 net.cpp:477] inception_4d/5x5_reduce <- inception_4c/output_inception_4c/output_0_split_2
I0719 18:01:48.651360 57921 net.cpp:433] inception_4d/5x5_reduce -> inception_4d/5x5_reduce
I0719 18:01:48.652531 57921 net.cpp:155] Setting up inception_4d/5x5_reduce
I0719 18:01:48.652566 57921 net.cpp:163] Top shape: 32 32 14 14 (200704)
I0719 18:01:48.652578 57921 layer_factory.hpp:76] Creating layer inception_4d/relu_5x5_reduce
I0719 18:01:48.652588 57921 net.cpp:110] Creating Layer inception_4d/relu_5x5_reduce
I0719 18:01:48.652597 57921 net.cpp:477] inception_4d/relu_5x5_reduce <- inception_4d/5x5_reduce
I0719 18:01:48.652607 57921 net.cpp:419] inception_4d/relu_5x5_reduce -> inception_4d/5x5_reduce (in-place)
I0719 18:01:48.652847 57921 net.cpp:155] Setting up inception_4d/relu_5x5_reduce
I0719 18:01:48.652873 57921 net.cpp:163] Top shape: 32 32 14 14 (200704)
I0719 18:01:48.652882 57921 layer_factory.hpp:76] Creating layer inception_4d/5x5
I0719 18:01:48.652896 57921 net.cpp:110] Creating Layer inception_4d/5x5
I0719 18:01:48.652905 57921 net.cpp:477] inception_4d/5x5 <- inception_4d/5x5_reduce
I0719 18:01:48.652915 57921 net.cpp:433] inception_4d/5x5 -> inception_4d/5x5
I0719 18:01:48.654501 57921 net.cpp:155] Setting up inception_4d/5x5
I0719 18:01:48.654533 57921 net.cpp:163] Top shape: 32 64 14 14 (401408)
I0719 18:01:48.654546 57921 layer_factory.hpp:76] Creating layer inception_4d/relu_5x5
I0719 18:01:48.654556 57921 net.cpp:110] Creating Layer inception_4d/relu_5x5
I0719 18:01:48.654564 57921 net.cpp:477] inception_4d/relu_5x5 <- inception_4d/5x5
I0719 18:01:48.654575 57921 net.cpp:419] inception_4d/relu_5x5 -> inception_4d/5x5 (in-place)
I0719 18:01:48.654853 57921 net.cpp:155] Setting up inception_4d/relu_5x5
I0719 18:01:48.654881 57921 net.cpp:163] Top shape: 32 64 14 14 (401408)
I0719 18:01:48.654889 57921 layer_factory.hpp:76] Creating layer inception_4d/pool
I0719 18:01:48.654899 57921 layer_factory.cpp:60] CUDNN does not support padding or multiple tops. Using Caffe's own pooling layer.
I0719 18:01:48.654911 57921 net.cpp:110] Creating Layer inception_4d/pool
I0719 18:01:48.654920 57921 net.cpp:477] inception_4d/pool <- inception_4c/output_inception_4c/output_0_split_3
I0719 18:01:48.654930 57921 net.cpp:433] inception_4d/pool -> inception_4d/pool
I0719 18:01:48.654943 57921 net.cpp:155] Setting up inception_4d/pool
I0719 18:01:48.654954 57921 net.cpp:163] Top shape: 32 512 14 14 (3211264)
I0719 18:01:48.654963 57921 layer_factory.hpp:76] Creating layer inception_4d/pool_proj
I0719 18:01:48.654974 57921 net.cpp:110] Creating Layer inception_4d/pool_proj
I0719 18:01:48.654981 57921 net.cpp:477] inception_4d/pool_proj <- inception_4d/pool
I0719 18:01:48.654992 57921 net.cpp:433] inception_4d/pool_proj -> inception_4d/pool_proj
I0719 18:01:48.656234 57921 net.cpp:155] Setting up inception_4d/pool_proj
I0719 18:01:48.656265 57921 net.cpp:163] Top shape: 32 64 14 14 (401408)
I0719 18:01:48.656277 57921 layer_factory.hpp:76] Creating layer inception_4d/relu_pool_proj
I0719 18:01:48.656291 57921 net.cpp:110] Creating Layer inception_4d/relu_pool_proj
I0719 18:01:48.656299 57921 net.cpp:477] inception_4d/relu_pool_proj <- inception_4d/pool_proj
I0719 18:01:48.656308 57921 net.cpp:419] inception_4d/relu_pool_proj -> inception_4d/pool_proj (in-place)
I0719 18:01:48.656708 57921 net.cpp:155] Setting up inception_4d/relu_pool_proj
I0719 18:01:48.656739 57921 net.cpp:163] Top shape: 32 64 14 14 (401408)
I0719 18:01:48.656749 57921 layer_factory.hpp:76] Creating layer inception_4d/output
I0719 18:01:48.656785 57921 net.cpp:110] Creating Layer inception_4d/output
I0719 18:01:48.656795 57921 net.cpp:477] inception_4d/output <- inception_4d/1x1
I0719 18:01:48.656803 57921 net.cpp:477] inception_4d/output <- inception_4d/3x3
I0719 18:01:48.656812 57921 net.cpp:477] inception_4d/output <- inception_4d/5x5
I0719 18:01:48.656821 57921 net.cpp:477] inception_4d/output <- inception_4d/pool_proj
I0719 18:01:48.656831 57921 net.cpp:433] inception_4d/output -> inception_4d/output
I0719 18:01:48.656844 57921 net.cpp:155] Setting up inception_4d/output
I0719 18:01:48.656853 57921 net.cpp:163] Top shape: 32 528 14 14 (3311616)
I0719 18:01:48.656862 57921 layer_factory.hpp:76] Creating layer inception_4d/output_inception_4d/output_0_split
I0719 18:01:48.656872 57921 net.cpp:110] Creating Layer inception_4d/output_inception_4d/output_0_split
I0719 18:01:48.656880 57921 net.cpp:477] inception_4d/output_inception_4d/output_0_split <- inception_4d/output
I0719 18:01:48.656890 57921 net.cpp:433] inception_4d/output_inception_4d/output_0_split -> inception_4d/output_inception_4d/output_0_split_0
I0719 18:01:48.656901 57921 net.cpp:433] inception_4d/output_inception_4d/output_0_split -> inception_4d/output_inception_4d/output_0_split_1
I0719 18:01:48.656913 57921 net.cpp:433] inception_4d/output_inception_4d/output_0_split -> inception_4d/output_inception_4d/output_0_split_2
I0719 18:01:48.656924 57921 net.cpp:433] inception_4d/output_inception_4d/output_0_split -> inception_4d/output_inception_4d/output_0_split_3
I0719 18:01:48.656934 57921 net.cpp:433] inception_4d/output_inception_4d/output_0_split -> inception_4d/output_inception_4d/output_0_split_4
I0719 18:01:48.656944 57921 net.cpp:155] Setting up inception_4d/output_inception_4d/output_0_split
I0719 18:01:48.656954 57921 net.cpp:163] Top shape: 32 528 14 14 (3311616)
I0719 18:01:48.656961 57921 net.cpp:163] Top shape: 32 528 14 14 (3311616)
I0719 18:01:48.656970 57921 net.cpp:163] Top shape: 32 528 14 14 (3311616)
I0719 18:01:48.656976 57921 net.cpp:163] Top shape: 32 528 14 14 (3311616)
I0719 18:01:48.656985 57921 net.cpp:163] Top shape: 32 528 14 14 (3311616)
I0719 18:01:48.656991 57921 layer_factory.hpp:76] Creating layer loss2/ave_pool
I0719 18:01:48.657004 57921 net.cpp:110] Creating Layer loss2/ave_pool
I0719 18:01:48.657012 57921 net.cpp:477] loss2/ave_pool <- inception_4d/output_inception_4d/output_0_split_0
I0719 18:01:48.657022 57921 net.cpp:433] loss2/ave_pool -> loss2/ave_pool
I0719 18:01:48.657259 57921 net.cpp:155] Setting up loss2/ave_pool
I0719 18:01:48.657286 57921 net.cpp:163] Top shape: 32 528 4 4 (270336)
I0719 18:01:48.657294 57921 layer_factory.hpp:76] Creating layer loss2/conv
I0719 18:01:48.657308 57921 net.cpp:110] Creating Layer loss2/conv
I0719 18:01:48.657317 57921 net.cpp:477] loss2/conv <- loss2/ave_pool
I0719 18:01:48.657326 57921 net.cpp:433] loss2/conv -> loss2/conv
I0719 18:01:48.659471 57921 net.cpp:155] Setting up loss2/conv
I0719 18:01:48.659524 57921 net.cpp:163] Top shape: 32 128 4 4 (65536)
I0719 18:01:48.659539 57921 layer_factory.hpp:76] Creating layer loss2/relu_conv
I0719 18:01:48.659556 57921 net.cpp:110] Creating Layer loss2/relu_conv
I0719 18:01:48.659567 57921 net.cpp:477] loss2/relu_conv <- loss2/conv
I0719 18:01:48.659579 57921 net.cpp:419] loss2/relu_conv -> loss2/conv (in-place)
I0719 18:01:48.659989 57921 net.cpp:155] Setting up loss2/relu_conv
I0719 18:01:48.660019 57921 net.cpp:163] Top shape: 32 128 4 4 (65536)
I0719 18:01:48.660029 57921 layer_factory.hpp:76] Creating layer loss2/fc
I0719 18:01:48.660044 57921 net.cpp:110] Creating Layer loss2/fc
I0719 18:01:48.660053 57921 net.cpp:477] loss2/fc <- loss2/conv
I0719 18:01:48.660070 57921 net.cpp:433] loss2/fc -> loss2/fc
I0719 18:01:48.679630 57921 net.cpp:155] Setting up loss2/fc
I0719 18:01:48.679714 57921 net.cpp:163] Top shape: 32 1024 (32768)
I0719 18:01:48.679730 57921 layer_factory.hpp:76] Creating layer loss2/relu_fc
I0719 18:01:48.679745 57921 net.cpp:110] Creating Layer loss2/relu_fc
I0719 18:01:48.679756 57921 net.cpp:477] loss2/relu_fc <- loss2/fc
I0719 18:01:48.679833 57921 net.cpp:419] loss2/relu_fc -> loss2/fc (in-place)
I0719 18:01:48.680207 57921 net.cpp:155] Setting up loss2/relu_fc
I0719 18:01:48.680235 57921 net.cpp:163] Top shape: 32 1024 (32768)
I0719 18:01:48.680244 57921 layer_factory.hpp:76] Creating layer loss2/drop_fc
I0719 18:01:48.680261 57921 net.cpp:110] Creating Layer loss2/drop_fc
I0719 18:01:48.680269 57921 net.cpp:477] loss2/drop_fc <- loss2/fc
I0719 18:01:48.680284 57921 net.cpp:419] loss2/drop_fc -> loss2/fc (in-place)
I0719 18:01:48.680304 57921 net.cpp:155] Setting up loss2/drop_fc
I0719 18:01:48.680313 57921 net.cpp:163] Top shape: 32 1024 (32768)
I0719 18:01:48.680320 57921 layer_factory.hpp:76] Creating layer loss2/classifier
I0719 18:01:48.680346 57921 net.cpp:110] Creating Layer loss2/classifier
I0719 18:01:48.680357 57921 net.cpp:477] loss2/classifier <- loss2/fc
I0719 18:01:48.680379 57921 net.cpp:433] loss2/classifier -> loss2/classifier
I0719 18:01:48.680634 57921 net.cpp:155] Setting up loss2/classifier
I0719 18:01:48.680665 57921 net.cpp:163] Top shape: 32 2 (64)
I0719 18:01:48.680685 57921 layer_factory.hpp:76] Creating layer loss2/classifier_loss2/classifier_0_split
I0719 18:01:48.680696 57921 net.cpp:110] Creating Layer loss2/classifier_loss2/classifier_0_split
I0719 18:01:48.680708 57921 net.cpp:477] loss2/classifier_loss2/classifier_0_split <- loss2/classifier
I0719 18:01:48.680719 57921 net.cpp:433] loss2/classifier_loss2/classifier_0_split -> loss2/classifier_loss2/classifier_0_split_0
I0719 18:01:48.680734 57921 net.cpp:433] loss2/classifier_loss2/classifier_0_split -> loss2/classifier_loss2/classifier_0_split_1
I0719 18:01:48.680747 57921 net.cpp:155] Setting up loss2/classifier_loss2/classifier_0_split
I0719 18:01:48.680755 57921 net.cpp:163] Top shape: 32 2 (64)
I0719 18:01:48.680763 57921 net.cpp:163] Top shape: 32 2 (64)
I0719 18:01:48.680771 57921 layer_factory.hpp:76] Creating layer loss2/loss
I0719 18:01:48.680781 57921 net.cpp:110] Creating Layer loss2/loss
I0719 18:01:48.680796 57921 net.cpp:477] loss2/loss <- loss2/classifier_loss2/classifier_0_split_0
I0719 18:01:48.680809 57921 net.cpp:477] loss2/loss <- label_data_1_split_2
I0719 18:01:48.680819 57921 net.cpp:433] loss2/loss -> loss2/loss1
I0719 18:01:48.680830 57921 layer_factory.hpp:76] Creating layer loss2/loss
…
I0719 18:01:48.681823 57921 net.cpp:433] loss2/top-1 -> loss2/top-1
I0719 18:01:48.681838 57921 net.cpp:155] Setting up loss2/top-1
I0719 18:01:48.681857 57921 net.cpp:163] Top shape: (1)
I0719 18:01:48.681865 57921 layer_factory.hpp:76] Creating layer inception_4e/1x1
I0719 18:01:48.681882 57921 net.cpp:110] Creating Layer inception_4e/1x1
I0719 18:01:48.681891 57921 net.cpp:477] inception_4e/1x1 <- inception_4d/output_inception_4d/output_0_split_1
I0719 18:01:48.681902 57921 net.cpp:433] inception_4e/1x1 -> inception_4e/1x1
I0719 18:01:48.684695 57921 net.cpp:155] Setting up inception_4e/1x1
I0719 18:01:48.684751 57921 net.cpp:163] Top shape: 32 256 14 14 (1605632)
I0719 18:01:48.684768 57921 layer_factory.hpp:76] Creating layer inception_4e/relu_1x1
I0719 18:01:48.684787 57921 net.cpp:110] Creating Layer inception_4e/relu_1x1
I0719 18:01:48.684798 57921 net.cpp:477] inception_4e/relu_1x1 <- inception_4e/1x1
I0719 18:01:48.684810 57921 net.cpp:419] inception_4e/relu_1x1 -> inception_4e/1x1 (in-place)
I0719 18:01:48.685096 57921 net.cpp:155] Setting up inception_4e/relu_1x1
I0719 18:01:48.685130 57921 net.cpp:163] Top shape: 32 256 14 14 (1605632)
I0719 18:01:48.685139 57921 layer_factory.hpp:76] Creating layer inception_4e/3x3_reduce
I0719 18:01:48.685243 57921 net.cpp:110] Creating Layer inception_4e/3x3_reduce
I0719 18:01:48.685255 57921 net.cpp:477] inception_4e/3x3_reduce <- inception_4d/output_inception_4d/output_0_split_2
I0719 18:01:48.685268 57921 net.cpp:433] inception_4e/3x3_reduce -> inception_4e/3x3_reduce
I0719 18:01:48.688551 57921 net.cpp:155] Setting up inception_4e/3x3_reduce
I0719 18:01:48.688627 57921 net.cpp:163] Top shape: 32 160 14 14 (1003520)
I0719 18:01:48.688657 57921 layer_factory.hpp:76] Creating layer inception_4e/relu_3x3_reduce
I0719 18:01:48.688704 57921 net.cpp:110] Creating Layer inception_4e/relu_3x3_reduce
I0719 18:01:48.688716 57921 net.cpp:477] inception_4e/relu_3x3_reduce <- inception_4e/3x3_reduce
I0719 18:01:48.688730 57921 net.cpp:419] inception_4e/relu_3x3_reduce -> inception_4e/3x3_reduce (in-place)
I0719 18:01:48.688979 57921 net.cpp:155] Setting up inception_4e/relu_3x3_reduce
I0719 18:01:48.689007 57921 net.cpp:163] Top shape: 32 160 14 14 (1003520)
I0719 18:01:48.689016 57921 layer_factory.hpp:76] Creating layer inception_4e/3x3
I0719 18:01:48.689054 57921 net.cpp:110] Creating Layer inception_4e/3x3
I0719 18:01:48.689064 57921 net.cpp:477] inception_4e/3x3 <- inception_4e/3x3_reduce
I0719 18:01:48.689076 57921 net.cpp:433] inception_4e/3x3 -> inception_4e/3x3
I0719 18:01:48.696022 57921 net.cpp:155] Setting up inception_4e/3x3
I0719 18:01:48.696082 57921 net.cpp:163] Top shape: 32 320 14 14 (2007040)
I0719 18:01:48.696100 57921 layer_factory.hpp:76] Creating layer inception_4e/relu_3x3
I0719 18:01:48.696116 57921 net.cpp:110] Creating Layer inception_4e/relu_3x3
I0719 18:01:48.696127 57921 net.cpp:477] inception_4e/relu_3x3 <- inception_4e/3x3
I0719 18:01:48.696141 57921 net.cpp:419] inception_4e/relu_3x3 -> inception_4e/3x3 (in-place)
I0719 18:01:48.697120 57921 net.cpp:155] Setting up inception_4e/relu_3x3
I0719 18:01:48.697154 57921 net.cpp:163] Top shape: 32 320 14 14 (2007040)
I0719 18:01:48.697163 57921 layer_factory.hpp:76] Creating layer inception_4e/5x5_reduce
I0719 18:01:48.697180 57921 net.cpp:110] Creating Layer inception_4e/5x5_reduce
I0719 18:01:48.697190 57921 net.cpp:477] inception_4e/5x5_reduce <- inception_4d/output_inception_4d/output_0_split_3
I0719 18:01:48.697201 57921 net.cpp:433] inception_4e/5x5_reduce -> inception_4e/5x5_reduce
I0719 18:01:48.700659 57921 net.cpp:155] Setting up inception_4e/5x5_reduce
I0719 18:01:48.700719 57921 net.cpp:163] Top shape: 32 32 14 14 (200704)
I0719 18:01:48.700736 57921 layer_factory.hpp:76] Creating layer inception_4e/relu_5x5_reduce
I0719 18:01:48.700750 57921 net.cpp:110] Creating Layer inception_4e/relu_5x5_reduce
I0719 18:01:48.700762 57921 net.cpp:477] inception_4e/relu_5x5_reduce <- inception_4e/5x5_reduce
I0719 18:01:48.700774 57921 net.cpp:419] inception_4e/relu_5x5_reduce -> inception_4e/5x5_reduce (in-place)
I0719 18:01:48.701753 57921 net.cpp:155] Setting up inception_4e/relu_5x5_reduce
I0719 18:01:48.701786 57921 net.cpp:163] Top shape: 32 32 14 14 (200704)
I0719 18:01:48.701794 57921 layer_factory.hpp:76] Creating layer inception_4e/5x5
I0719 18:01:48.701809 57921 net.cpp:110] Creating Layer inception_4e/5x5
I0719 18:01:48.701818 57921 net.cpp:477] inception_4e/5x5 <- inception_4e/5x5_reduce
I0719 18:01:48.701830 57921 net.cpp:433] inception_4e/5x5 -> inception_4e/5x5
I0719 18:01:48.713721 57921 net.cpp:155] Setting up inception_4e/5x5
I0719 18:01:48.713779 57921 net.cpp:163] Top shape: 32 128 14 14 (802816)
I0719 18:01:48.713799 57921 layer_factory.hpp:76] Creating layer inception_4e/relu_5x5
I0719 18:01:48.713815 57921 net.cpp:110] Creating Layer inception_4e/relu_5x5
I0719 18:01:48.713826 57921 net.cpp:477] inception_4e/relu_5x5 <- inception_4e/5x5
I0719 18:01:48.713838 57921 net.cpp:419] inception_4e/relu_5x5 -> inception_4e/5x5 (in-place)
I0719 18:01:48.714519 57921 net.cpp:155] Setting up inception_4e/relu_5x5
I0719 18:01:48.714548 57921 net.cpp:163] Top shape: 32 128 14 14 (802816)
I0719 18:01:48.714556 57921 layer_factory.hpp:76] Creating layer inception_4e/pool
I0719 18:01:48.714567 57921 layer_factory.cpp:60] CUDNN does not support padding or multiple tops. Using Caffe's own pooling layer.
I0719 18:01:48.714603 57921 net.cpp:110] Creating Layer inception_4e/pool
I0719 18:01:48.714613 57921 net.cpp:477] inception_4e/pool <- inception_4d/output_inception_4d/output_0_split_4
I0719 18:01:48.714627 57921 net.cpp:433] inception_4e/pool -> inception_4e/pool
I0719 18:01:48.714651 57921 net.cpp:155] Setting up inception_4e/pool
I0719 18:01:48.714663 57921 net.cpp:163] Top shape: 32 528 14 14 (3311616)
I0719 18:01:48.714673 57921 layer_factory.hpp:76] Creating layer inception_4e/pool_proj
I0719 18:01:48.714690 57921 net.cpp:110] Creating Layer inception_4e/pool_proj
I0719 18:01:48.714718 57921 net.cpp:477] inception_4e/pool_proj <- inception_4e/pool
I0719 18:01:48.714730 57921 net.cpp:433] inception_4e/pool_proj -> inception_4e/pool_proj
I0719 18:01:48.718237 57921 net.cpp:155] Setting up inception_4e/pool_proj
I0719 18:01:48.718286 57921 net.cpp:163] Top shape: 32 128 14 14 (802816)
I0719 18:01:48.718302 57921 layer_factory.hpp:76] Creating layer inception_4e/relu_pool_proj
I0719 18:01:48.718313 57921 net.cpp:110] Creating Layer inception_4e/relu_pool_proj
I0719 18:01:48.718324 57921 net.cpp:477] inception_4e/relu_pool_proj <- inception_4e/pool_proj
I0719 18:01:48.718336 57921 net.cpp:419] inception_4e/relu_pool_proj -> inception_4e/pool_proj (in-place)
I0719 18:01:48.719427 57921 net.cpp:155] Setting up inception_4e/relu_pool_proj
I0719 18:01:48.719460 57921 net.cpp:163] Top shape: 32 128 14 14 (802816)
I0719 18:01:48.719470 57921 layer_factory.hpp:76] Creating layer inception_4e/output
I0719 18:01:48.719482 57921 net.cpp:110] Creating Layer inception_4e/output
I0719 18:01:48.719491 57921 net.cpp:477] inception_4e/output <- inception_4e/1x1
I0719 18:01:48.719501 57921 net.cpp:477] inception_4e/output <- inception_4e/3x3
I0719 18:01:48.719511 57921 net.cpp:477] inception_4e/output <- inception_4e/5x5
I0719 18:01:48.719519 57921 net.cpp:477] inception_4e/output <- inception_4e/pool_proj
I0719 18:01:48.719532 57921 net.cpp:433] inception_4e/output -> inception_4e/output
I0719 18:01:48.719545 57921 net.cpp:155] Setting up inception_4e/output
I0719 18:01:48.719557 57921 net.cpp:163] Top shape: 32 832 14 14 (5218304)
I0719 18:01:48.719563 57921 layer_factory.hpp:76] Creating layer pool4/3x3_s2
I0719 18:01:48.719574 57921 net.cpp:110] Creating Layer pool4/3x3_s2
I0719 18:01:48.719584 57921 net.cpp:477] pool4/3x3_s2 <- inception_4e/output
I0719 18:01:48.719594 57921 net.cpp:433] pool4/3x3_s2 -> pool4/3x3_s2
I0719 18:01:48.720659 57921 net.cpp:155] Setting up pool4/3x3_s2
I0719 18:01:48.720696 57921 net.cpp:163] Top shape: 32 832 7 7 (1304576)
I0719 18:01:48.720705 57921 layer_factory.hpp:76] Creating layer pool4/3x3_s2_pool4/3x3_s2_0_split
I0719 18:01:48.720717 57921 net.cpp:110] Creating Layer pool4/3x3_s2_pool4/3x3_s2_0_split
I0719 18:01:48.720726 57921 net.cpp:477] pool4/3x3_s2_pool4/3x3_s2_0_split <- pool4/3x3_s2
I0719 18:01:48.720737 57921 net.cpp:433] pool4/3x3_s2_pool4/3x3_s2_0_split -> pool4/3x3_s2_pool4/3x3_s2_0_split_0
I0719 18:01:48.720748 57921 net.cpp:433] pool4/3x3_s2_pool4/3x3_s2_0_split -> pool4/3x3_s2_pool4/3x3_s2_0_split_1
I0719 18:01:48.720758 57921 net.cpp:433] pool4/3x3_s2_pool4/3x3_s2_0_split -> pool4/3x3_s2_pool4/3x3_s2_0_split_2
I0719 18:01:48.720768 57921 net.cpp:433] pool4/3x3_s2_pool4/3x3_s2_0_split -> pool4/3x3_s2_pool4/3x3_s2_0_split_3
I0719 18:01:48.720789 57921 net.cpp:155] Setting up pool4/3x3_s2_pool4/3x3_s2_0_split
I0719 18:01:48.720808 57921 net.cpp:163] Top shape: 32 832 7 7 (1304576)
I0719 18:01:48.720825 57921 net.cpp:163] Top shape: 32 832 7 7 (1304576)
I0719 18:01:48.720834 57921 net.cpp:163] Top shape: 32 832 7 7 (1304576)
I0719 18:01:48.720841 57921 net.cpp:163] Top shape: 32 832 7 7 (1304576)
I0719 18:01:48.720849 57921 layer_factory.hpp:76] Creating layer inception_5a/1x1
I0719 18:01:48.720865 57921 net.cpp:110] Creating Layer inception_5a/1x1
I0719 18:01:48.720875 57921 net.cpp:477] inception_5a/1x1 <- pool4/3x3_s2_pool4/3x3_s2_0_split_0
I0719 18:01:48.720886 57921 net.cpp:433] inception_5a/1x1 -> inception_5a/1x1
I0719 18:01:48.725855 57921 net.cpp:155] Setting up inception_5a/1x1
I0719 18:01:48.725908 57921 net.cpp:163] Top shape: 32 256 7 7 (401408)
I0719 18:01:48.725924 57921 layer_factory.hpp:76] Creating layer inception_5a/relu_1x1
I0719 18:01:48.725940 57921 net.cpp:110] Creating Layer inception_5a/relu_1x1
I0719 18:01:48.725951 57921 net.cpp:477] inception_5a/relu_1x1 <- inception_5a/1x1
I0719 18:01:48.725965 57921 net.cpp:419] inception_5a/relu_1x1 -> inception_5a/1x1 (in-place)
I0719 18:01:48.727010 57921 net.cpp:155] Setting up inception_5a/relu_1x1
I0719 18:01:48.727043 57921 net.cpp:163] Top shape: 32 256 7 7 (401408)
I0719 18:01:48.727053 57921 layer_factory.hpp:76] Creating layer inception_5a/3x3_reduce
I0719 18:01:48.727071 57921 net.cpp:110] Creating Layer inception_5a/3x3_reduce
I0719 18:01:48.727080 57921 net.cpp:477] inception_5a/3x3_reduce <- pool4/3x3_s2_pool4/3x3_s2_0_split_1
I0719 18:01:48.727097 57921 net.cpp:433] inception_5a/3x3_reduce -> inception_5a/3x3_reduce
I0719 18:01:48.730756 57921 net.cpp:155] Setting up inception_5a/3x3_reduce
I0719 18:01:48.730819 57921 net.cpp:163] Top shape: 32 160 7 7 (250880)
I0719 18:01:48.730855 57921 layer_factory.hpp:76] Creating layer inception_5a/relu_3x3_reduce
I0719 18:01:48.730880 57921 net.cpp:110] Creating Layer inception_5a/relu_3x3_reduce
I0719 18:01:48.730891 57921 net.cpp:477] inception_5a/relu_3x3_reduce <- inception_5a/3x3_reduce
I0719 18:01:48.730902 57921 net.cpp:419] inception_5a/relu_3x3_reduce -> inception_5a/3x3_reduce (in-place)
I0719 18:01:48.731921 57921 net.cpp:155] Setting up inception_5a/relu_3x3_reduce
I0719 18:01:48.731963 57921 net.cpp:163] Top shape: 32 160 7 7 (250880)
I0719 18:01:48.731973 57921 layer_factory.hpp:76] Creating layer inception_5a/3x3
I0719 18:01:48.731991 57921 net.cpp:110] Creating Layer inception_5a/3x3
I0719 18:01:48.732000 57921 net.cpp:477] inception_5a/3x3 <- inception_5a/3x3_reduce
I0719 18:01:48.732015 57921 net.cpp:433] inception_5a/3x3 -> inception_5a/3x3
I0719 18:01:48.738432 57921 net.cpp:155] Setting up inception_5a/3x3
I0719 18:01:48.738502 57921 net.cpp:163] Top shape: 32 320 7 7 (501760)
I0719 18:01:48.738517 57921 layer_factory.hpp:76] Creating layer inception_5a/relu_3x3
I0719 18:01:48.738533 57921 net.cpp:110] Creating Layer inception_5a/relu_3x3
I0719 18:01:48.738544 57921 net.cpp:477] inception_5a/relu_3x3 <- inception_5a/3x3
I0719 18:01:48.738555 57921 net.cpp:419] inception_5a/relu_3x3 -> inception_5a/3x3 (in-place)
I0719 18:01:48.739580 57921 net.cpp:155] Setting up inception_5a/relu_3x3
I0719 18:01:48.739615 57921 net.cpp:163] Top shape: 32 320 7 7 (501760)
I0719 18:01:48.739624 57921 layer_factory.hpp:76] Creating layer inception_5a/5x5_reduce
I0719 18:01:48.739642 57921 net.cpp:110] Creating Layer inception_5a/5x5_reduce
I0719 18:01:48.739652 57921 net.cpp:477] inception_5a/5x5_reduce <- pool4/3x3_s2_pool4/3x3_s2_0_split_2
I0719 18:01:48.739665 57921 net.cpp:433] inception_5a/5x5_reduce -> inception_5a/5x5_reduce
I0719 18:01:48.743347 57921 net.cpp:155] Setting up inception_5a/5x5_reduce
I0719 18:01:48.743412 57921 net.cpp:163] Top shape: 32 32 7 7 (50176)
I0719 18:01:48.743429 57921 layer_factory.hpp:76] Creating layer inception_5a/relu_5x5_reduce
I0719 18:01:48.743445 57921 net.cpp:110] Creating Layer inception_5a/relu_5x5_reduce
I0719 18:01:48.743458 57921 net.cpp:477] inception_5a/relu_5x5_reduce <- inception_5a/5x5_reduce
I0719 18:01:48.743469 57921 net.cpp:419] inception_5a/relu_5x5_reduce -> inception_5a/5x5_reduce (in-place)
I0719 18:01:48.744499 57921 net.cpp:155] Setting up inception_5a/relu_5x5_reduce
I0719 18:01:48.744541 57921 net.cpp:163] Top shape: 32 32 7 7 (50176)
I0719 18:01:48.744551 57921 layer_factory.hpp:76] Creating layer inception_5a/5x5
I0719 18:01:48.744566 57921 net.cpp:110] Creating Layer inception_5a/5x5
I0719 18:01:48.744575 57921 net.cpp:477] inception_5a/5x5 <- inception_5a/5x5_reduce
I0719 18:01:48.744590 57921 net.cpp:433] inception_5a/5x5 -> inception_5a/5x5
I0719 18:01:48.748257 57921 net.cpp:155] Setting up inception_5a/5x5
I0719 18:01:48.748320 57921 net.cpp:163] Top shape: 32 128 7 7 (200704)
I0719 18:01:48.748371 57921 layer_factory.hpp:76] Creating layer inception_5a/relu_5x5
I0719 18:01:48.748389 57921 net.cpp:110] Creating Layer inception_5a/relu_5x5
I0719 18:01:48.748399 57921 net.cpp:477] inception_5a/relu_5x5 <- inception_5a/5x5
I0719 18:01:48.748411 57921 net.cpp:419] inception_5a/relu_5x5 -> inception_5a/5x5 (in-place)
I0719 18:01:48.749414 57921 net.cpp:155] Setting up inception_5a/relu_5x5
I0719 18:01:48.749454 57921 net.cpp:163] Top shape: 32 128 7 7 (200704)
I0719 18:01:48.749464 57921 layer_factory.hpp:76] Creating layer inception_5a/pool
I0719 18:01:48.749475 57921 layer_factory.cpp:60] CUDNN does not support padding or multiple tops. Using Caffe's own pooling layer.
I0719 18:01:48.749488 57921 net.cpp:110] Creating Layer inception_5a/pool
I0719 18:01:48.749500 57921 net.cpp:477] inception_5a/pool <- pool4/3x3_s2_pool4/3x3_s2_0_split_3
I0719 18:01:48.749512 57921 net.cpp:433] inception_5a/pool -> inception_5a/pool
I0719 18:01:48.749547 57921 net.cpp:155] Setting up inception_5a/pool
I0719 18:01:48.749558 57921 net.cpp:163] Top shape: 32 832 7 7 (1304576)
I0719 18:01:48.749568 57921 layer_factory.hpp:76] Creating layer inception_5a/pool_proj
I0719 18:01:48.749583 57921 net.cpp:110] Creating Layer inception_5a/pool_proj
I0719 18:01:48.749591 57921 net.cpp:477] inception_5a/pool_proj <- inception_5a/pool
I0719 18:01:48.749603 57921 net.cpp:433] inception_5a/pool_proj -> inception_5a/pool_proj
I0719 18:01:48.753269 57921 net.cpp:155] Setting up inception_5a/pool_proj
I0719 18:01:48.753326 57921 net.cpp:163] Top shape: 32 128 7 7 (200704)
I0719 18:01:48.753343 57921 layer_factory.hpp:76] Creating layer inception_5a/relu_pool_proj
I0719 18:01:48.753361 57921 net.cpp:110] Creating Layer inception_5a/relu_pool_proj
I0719 18:01:48.753372 57921 net.cpp:477] inception_5a/relu_pool_proj <- inception_5a/pool_proj
I0719 18:01:48.753383 57921 net.cpp:419] inception_5a/relu_pool_proj -> inception_5a/pool_proj (in-place)
I0719 18:01:48.754437 57921 net.cpp:155] Setting up inception_5a/relu_pool_proj
I0719 18:01:48.754469 57921 net.cpp:163] Top shape: 32 128 7 7 (200704)
I0719 18:01:48.754479 57921 layer_factory.hpp:76] Creating layer inception_5a/output
I0719 18:01:48.754492 57921 net.cpp:110] Creating Layer inception_5a/output
I0719 18:01:48.754500 57921 net.cpp:477] inception_5a/output <- inception_5a/1x1
I0719 18:01:48.754510 57921 net.cpp:477] inception_5a/output <- inception_5a/3x3
I0719 18:01:48.754519 57921 net.cpp:477] inception_5a/output <- inception_5a/5x5
I0719 18:01:48.754528 57921 net.cpp:477] inception_5a/output <- inception_5a/pool_proj
I0719 18:01:48.754537 57921 net.cpp:433] inception_5a/output -> inception_5a/output
I0719 18:01:48.754551 57921 net.cpp:155] Setting up inception_5a/output
I0719 18:01:48.754560 57921 net.cpp:163] Top shape: 32 832 7 7 (1304576)
I0719 18:01:48.754568 57921 layer_factory.hpp:76] Creating layer inception_5a/output_inception_5a/output_0_split
I0719 18:01:48.754581 57921 net.cpp:110] Creating Layer inception_5a/output_inception_5a/output_0_split
I0719 18:01:48.754590 57921 net.cpp:477] inception_5a/output_inception_5a/output_0_split <- inception_5a/output
I0719 18:01:48.754601 57921 net.cpp:433] inception_5a/output_inception_5a/output_0_split -> inception_5a/output_inception_5a/output_0_split_0
I0719 18:01:48.754613 57921 net.cpp:433] inception_5a/output_inception_5a/output_0_split -> inception_5a/output_inception_5a/output_0_split_1
I0719 18:01:48.754626 57921 net.cpp:433] inception_5a/output_inception_5a/output_0_split -> inception_5a/output_inception_5a/output_0_split_2
I0719 18:01:48.754642 57921 net.cpp:433] inception_5a/output_inception_5a/output_0_split -> inception_5a/output_inception_5a/output_0_split_3
I0719 18:01:48.754655 57921 net.cpp:155] Setting up inception_5a/output_inception_5a/output_0_split
I0719 18:01:48.754665 57921 net.cpp:163] Top shape: 32 832 7 7 (1304576)
I0719 18:01:48.754674 57921 net.cpp:163] Top shape: 32 832 7 7 (1304576)
I0719 18:01:48.754683 57921 net.cpp:163] Top shape: 32 832 7 7 (1304576)
I0719 18:01:48.754726 57921 net.cpp:163] Top shape: 32 832 7 7 (1304576)
I0719 18:01:48.754746 57921 layer_factory.hpp:76] Creating layer inception_5b/1x1
I0719 18:01:48.754760 57921 net.cpp:110] Creating Layer inception_5b/1x1
I0719 18:01:48.754768 57921 net.cpp:477] inception_5b/1x1 <- inception_5a/output_inception_5a/output_0_split_0
I0719 18:01:48.754781 57921 net.cpp:433] inception_5b/1x1 -> inception_5b/1x1
I0719 18:01:48.766346 57921 net.cpp:155] Setting up inception_5b/1x1
I0719 18:01:48.766438 57921 net.cpp:163] Top shape: 32 384 7 7 (602112)
I0719 18:01:48.766463 57921 layer_factory.hpp:76] Creating layer inception_5b/relu_1x1
I0719 18:01:48.766494 57921 net.cpp:110] Creating Layer inception_5b/relu_1x1
I0719 18:01:48.766510 57921 net.cpp:477] inception_5b/relu_1x1 <- inception_5b/1x1
I0719 18:01:48.766542 57921 net.cpp:419] inception_5b/relu_1x1 -> inception_5b/1x1 (in-place)
I0719 18:01:48.767235 57921 net.cpp:155] Setting up inception_5b/relu_1x1
I0719 18:01:48.767279 57921 net.cpp:163] Top shape: 32 384 7 7 (602112)
I0719 18:01:48.767299 57921 layer_factory.hpp:76] Creating layer inception_5b/3x3_reduce
I0719 18:01:48.767324 57921 net.cpp:110] Creating Layer inception_5b/3x3_reduce
I0719 18:01:48.767359 57921 net.cpp:477] inception_5b/3x3_reduce <- inception_5a/output_inception_5a/output_0_split_1
I0719 18:01:48.767390 57921 net.cpp:433] inception_5b/3x3_reduce -> inception_5b/3x3_reduce
I0719 18:01:48.771838 57921 net.cpp:155] Setting up inception_5b/3x3_reduce
I0719 18:01:48.771883 57921 net.cpp:163] Top shape: 32 192 7 7 (301056)
I0719 18:01:48.771898 57921 layer_factory.hpp:76] Creating layer inception_5b/relu_3x3_reduce
I0719 18:01:48.771925 57921 net.cpp:110] Creating Layer inception_5b/relu_3x3_reduce
I0719 18:01:48.771944 57921 net.cpp:477] inception_5b/relu_3x3_reduce <- inception_5b/3x3_reduce
I0719 18:01:48.771960 57921 net.cpp:419] inception_5b/relu_3x3_reduce -> inception_5b/3x3_reduce (in-place)
I0719 18:01:48.773000 57921 net.cpp:155] Setting up inception_5b/relu_3x3_reduce
I0719 18:01:48.773046 57921 net.cpp:163] Top shape: 32 192 7 7 (301056)
I0719 18:01:48.773056 57921 layer_factory.hpp:76] Creating layer inception_5b/3x3
I0719 18:01:48.773073 57921 net.cpp:110] Creating Layer inception_5b/3x3
I0719 18:01:48.773082 57921 net.cpp:477] inception_5b/3x3 <- inception_5b/3x3_reduce
I0719 18:01:48.773093 57921 net.cpp:433] inception_5b/3x3 -> inception_5b/3x3
I0719 18:01:48.783582 57921 net.cpp:155] Setting up inception_5b/3x3
I0719 18:01:48.783639 57921 net.cpp:163] Top shape: 32 384 7 7 (602112)
I0719 18:01:48.783654 57921 layer_factory.hpp:76] Creating layer inception_5b/relu_3x3
I0719 18:01:48.783670 57921 net.cpp:110] Creating Layer inception_5b/relu_3x3
I0719 18:01:48.783681 57921 net.cpp:477] inception_5b/relu_3x3 <- inception_5b/3x3
I0719 18:01:48.783692 57921 net.cpp:419] inception_5b/relu_3x3 -> inception_5b/3x3 (in-place)
I0719 18:01:48.784742 57921 net.cpp:155] Setting up inception_5b/relu_3x3
I0719 18:01:48.784777 57921 net.cpp:163] Top shape: 32 384 7 7 (602112)
I0719 18:01:48.784787 57921 layer_factory.hpp:76] Creating layer inception_5b/5x5_reduce
I0719 18:01:48.784811 57921 net.cpp:110] Creating Layer inception_5b/5x5_reduce
I0719 18:01:48.784826 57921 net.cpp:477] inception_5b/5x5_reduce <- inception_5a/output_inception_5a/output_0_split_2
I0719 18:01:48.784843 57921 net.cpp:433] inception_5b/5x5_reduce -> inception_5b/5x5_reduce
I0719 18:01:48.788458 57921 net.cpp:155] Setting up inception_5b/5x5_reduce
I0719 18:01:48.788503 57921 net.cpp:163] Top shape: 32 48 7 7 (75264)
I0719 18:01:48.788516 57921 layer_factory.hpp:76] Creating layer inception_5b/relu_5x5_reduce
I0719 18:01:48.788529 57921 net.cpp:110] Creating Layer inception_5b/relu_5x5_reduce
I0719 18:01:48.788544 57921 net.cpp:477] inception_5b/relu_5x5_reduce <- inception_5b/5x5_reduce
I0719 18:01:48.788557 57921 net.cpp:419] inception_5b/relu_5x5_reduce -> inception_5b/5x5_reduce (in-place)
I0719 18:01:48.789052 57921 net.cpp:155] Setting up inception_5b/relu_5x5_reduce
I0719 18:01:48.789085 57921 net.cpp:163] Top shape: 32 48 7 7 (75264)
I0719 18:01:48.789139 57921 layer_factory.hpp:76] Creating layer inception_5b/5x5
I0719 18:01:48.789160 57921 net.cpp:110] Creating Layer inception_5b/5x5
I0719 18:01:48.789175 57921 net.cpp:477] inception_5b/5x5 <- inception_5b/5x5_reduce
I0719 18:01:48.789187 57921 net.cpp:433] inception_5b/5x5 -> inception_5b/5x5
I0719 18:01:48.794647 57921 net.cpp:155] Setting up inception_5b/5x5
I0719 18:01:48.794699 57921 net.cpp:163] Top shape: 32 128 7 7 (200704)
I0719 18:01:48.794714 57921 layer_factory.hpp:76] Creating layer inception_5b/relu_5x5
I0719 18:01:48.794733 57921 net.cpp:110] Creating Layer inception_5b/relu_5x5
I0719 18:01:48.794744 57921 net.cpp:477] inception_5b/relu_5x5 <- inception_5b/5x5
I0719 18:01:48.794754 57921 net.cpp:419] inception_5b/relu_5x5 -> inception_5b/5x5 (in-place)
I0719 18:01:48.795270 57921 net.cpp:155] Setting up inception_5b/relu_5x5
I0719 18:01:48.795302 57921 net.cpp:163] Top shape: 32 128 7 7 (200704)
I0719 18:01:48.795312 57921 layer_factory.hpp:76] Creating layer inception_5b/pool
I0719 18:01:48.795321 57921 layer_factory.cpp:60] CUDNN does not support padding or multiple tops. Using Caffe's own pooling layer.
I0719 18:01:48.795332 57921 net.cpp:110] Creating Layer inception_5b/pool
I0719 18:01:48.795341 57921 net.cpp:477] inception_5b/pool <- inception_5a/output_inception_5a/output_0_split_3
I0719 18:01:48.795354 57921 net.cpp:433] inception_5b/pool -> inception_5b/pool
I0719 18:01:48.795368 57921 net.cpp:155] Setting up inception_5b/pool
I0719 18:01:48.795378 57921 net.cpp:163] Top shape: 32 832 7 7 (1304576)
I0719 18:01:48.795387 57921 layer_factory.hpp:76] Creating layer inception_5b/pool_proj
I0719 18:01:48.795398 57921 net.cpp:110] Creating Layer inception_5b/pool_proj
I0719 18:01:48.795406 57921 net.cpp:477] inception_5b/pool_proj <- inception_5b/pool
I0719 18:01:48.795418 57921 net.cpp:433] inception_5b/pool_proj -> inception_5b/pool_proj
I0719 18:01:48.798753 57921 net.cpp:155] Setting up inception_5b/pool_proj
I0719 18:01:48.798818 57921 net.cpp:163] Top shape: 32 128 7 7 (200704)
I0719 18:01:48.798832 57921 layer_factory.hpp:76] Creating layer inception_5b/relu_pool_proj
I0719 18:01:48.798846 57921 net.cpp:110] Creating Layer inception_5b/relu_pool_proj
I0719 18:01:48.798856 57921 net.cpp:477] inception_5b/relu_pool_proj <- inception_5b/pool_proj
I0719 18:01:48.798866 57921 net.cpp:419] inception_5b/relu_pool_proj -> inception_5b/pool_proj (in-place)
I0719 18:01:48.799964 57921 net.cpp:155] Setting up inception_5b/relu_pool_proj
I0719 18:01:48.799993 57921 net.cpp:163] Top shape: 32 128 7 7 (200704)
I0719 18:01:48.800001 57921 layer_factory.hpp:76] Creating layer inception_5b/output
I0719 18:01:48.800014 57921 net.cpp:110] Creating Layer inception_5b/output
I0719 18:01:48.800022 57921 net.cpp:477] inception_5b/output <- inception_5b/1x1
I0719 18:01:48.800032 57921 net.cpp:477] inception_5b/output <- inception_5b/3x3
I0719 18:01:48.800041 57921 net.cpp:477] inception_5b/output <- inception_5b/5x5
I0719 18:01:48.800050 57921 net.cpp:477] inception_5b/output <- inception_5b/pool_proj
I0719 18:01:48.800060 57921 net.cpp:433] inception_5b/output -> inception_5b/output
I0719 18:01:48.800071 57921 net.cpp:155] Setting up inception_5b/output
I0719 18:01:48.800081 57921 net.cpp:163] Top shape: 32 1024 7 7 (1605632)
I0719 18:01:48.800088 57921 layer_factory.hpp:76] Creating layer pool5/7x7_s1
I0719 18:01:48.800101 57921 net.cpp:110] Creating Layer pool5/7x7_s1
I0719 18:01:48.800108 57921 net.cpp:477] pool5/7x7_s1 <- inception_5b/output
I0719 18:01:48.800120 57921 net.cpp:433] pool5/7x7_s1 -> pool5/7x7_s1
I0719 18:01:49.084769 57921 net.cpp:155] Setting up pool5/7x7_s1
I0719 18:01:49.084820 57921 net.cpp:163] Top shape: 32 512 1 1 (16384)
I0719 18:01:49.084835 57921 layer_factory.hpp:76] Creating layer pool5/drop_7x7_s1
I0719 18:01:49.084853 57921 net.cpp:110] Creating Layer pool5/drop_7x7_s1
I0719 18:01:49.084864 57921 net.cpp:477] pool5/drop_7x7_s1 <- pool5/7x7_s1
I0719 18:01:49.084875 57921 net.cpp:419] pool5/drop_7x7_s1 -> pool5/7x7_s1 (in-place)
I0719 18:01:49.084890 57921 net.cpp:155] Setting up pool5/drop_7x7_s1
I0719 18:01:49.084923 57921 net.cpp:163] Top shape: 32 512 1 1 (16384)
I0719 18:01:49.084931 57921 layer_factory.hpp:76] Creating layer loss3/classifier-conv
I0719 18:01:49.084950 57921 net.cpp:110] Creating Layer loss3/classifier-conv
I0719 18:01:49.084959 57921 net.cpp:477] loss3/classifier-conv <- pool5/7x7_s1
I0719 18:01:49.084970 57921 net.cpp:433] loss3/classifier-conv -> loss3/classifier-conv
I0719 18:01:49.119073 57921 net.cpp:155] Setting up loss3/classifier-conv
I0719 18:01:49.119107 57921 net.cpp:163] Top shape: 32 2 1 1 (64)
I0719 18:01:49.119153 57921 layer_factory.hpp:76] Creating layer loss3/classifier-conv_loss3/classifier-conv_0_split
I0719 18:01:49.119179 57921 net.cpp:110] Creating Layer loss3/classifier-conv_loss3/classifier-conv_0_split
I0719 18:01:49.119189 57921 net.cpp:477] loss3/classifier-conv_loss3/classifier-conv_0_split <- loss3/classifier-conv
I0719 18:01:49.119199 57921 net.cpp:433] loss3/classifier-conv_loss3/classifier-conv_0_split -> loss3/classifier-conv_loss3/classifier-conv_0_split_0
I0719 18:01:49.119211 57921 net.cpp:433] loss3/classifier-conv_loss3/classifier-conv_0_split -> loss3/classifier-conv_loss3/classifier-conv_0_split_1
I0719 18:01:49.119225 57921 net.cpp:155] Setting up loss3/classifier-conv_loss3/classifier-conv_0_split
I0719 18:01:49.119235 57921 net.cpp:163] Top shape: 32 2 1 1 (64)
I0719 18:01:49.119242 57921 net.cpp:163] Top shape: 32 2 1 1 (64)
I0719 18:01:49.119261 57921 layer_factory.hpp:76] Creating layer loss3/loss3
I0719 18:01:49.119271 57921 net.cpp:110] Creating Layer loss3/loss3
I0719 18:01:49.119279 57921 net.cpp:477] loss3/loss3 <- loss3/classifier-conv_loss3/classifier-conv_0_split_0
I0719 18:01:49.119287 57921 net.cpp:477] loss3/loss3 <- label_data_1_split_4
I0719 18:01:49.119298 57921 net.cpp:433] loss3/loss3 -> loss3/loss3
…
