…
  layer {
    name: "data"
    type: "ImageData"
    top: "data"
    top: "label"
    include {
      phase: TEST
    }
    transform_param {
      mirror: true
      mean_value: 150
      mean_value: 150
      mean_value: 150
      rotation_angle_interval: 90
    }
    image_data_param {
      source: "../../../step01_generate_traing_data/training_examples/list_stage2_te.lst"
      batch_size: 128
      shuffle: true
      new_height: 63
      new_width: 63
      root_folder: "../../../step01_generate_traing_data/training_examples/"
    }
  }
  layer {
    name: "conv1"
    type: "Convolution"
    bottom: "data"
    top: "conv1"
    param {
      lr_mult: 1
      decay_mult: 1
    }
    param {
      lr_mult: 2
      decay_mult: 0
    }
    convolution_param {
      num_output: 16
      pad: 0
      kernel_size: 4
      stride: 1
      weight_filler {
        type: "gaussian"
        std: 0.07
      }
      bias_filler {
        type: "constant"
        value: 0.1
      }
    }
  }
  layer {
    name: "nonlin1"
    type: "ReLU"
    bottom: "conv1"
    top: "conv1"
  }
  layer {
    name: "pool1"
    type: "Pooling"
    bottom: "conv1"
    top: "pool1"
    pooling_param {
      pool: MAX
      kernel_size: 2
      stride: 2
      engine: CAFFE
    }
  }
  layer {
    name: "conv2"
    type: "Convolution"
    bottom: "pool1"
    top: "conv2"
    param {
      lr_mult: 1
      decay_mult: 1
    }
    param {
      lr_mult: 2
      decay_mult: 0
    }
    convolution_param {
      num_output: 16
      pad: 0
      kernel_size: 3
      stride: 1
      weight_filler {
        type: "gaussian"
        std: 0.04
      }
      bias_filler {
        type: "constant"
        value: 0.1
      }
    }
  }
  layer {
    name: "nonlin2"
    type: "ReLU"
    bottom: "conv2"
    top: "conv2"
  }
  layer {
    name: "pool2"
    type: "Pooling"
    bottom: "conv2"
    top: "pool2"
    pooling_param {
      pool: MAX
      kernel_size: 2
      stride: 2
      engine: CAFFE
    }
  }
  layer {
    name: "conv3"
    type: "Convolution"
    bottom: "pool2"
    top: "conv3"
    param {
      lr_mult: 1
      decay_mult: 1
    }
    param {
      lr_mult: 2
      decay_mult: 0
    }
    convolution_param {
      num_output: 16
      pad: 0
      kernel_size: 3
      stride: 1
      weight_filler {
        type: "gaussian"
        std: 0.04
      }
      bias_filler {
        type: "constant"
        value: 0.1
      }
    }
  }
  layer {
    name: "nonlin3"
    type: "ReLU"
    bottom: "conv3"
    top: "conv3"
  }
  layer {
    name: "pool3"
    type: "Pooling"
    bottom: "conv3"
    top: "pool3"
    pooling_param {
      pool: MAX
      kernel_size: 2
      stride: 2
      engine: CAFFE
    }
  }
  layer {
    name: "conv4"
    type: "Convolution"
    bottom: "pool3"
    top: "conv4"
    param {
      lr_mult: 1
      decay_mult: 1
    }
    param {
      lr_mult: 2
      decay_mult: 0
    }
    convolution_param {
      num_output: 16
      pad: 0
      kernel_size: 3
      stride: 1
      weight_filler {
        type: "gaussian"
        std: 0.04
      }
      bias_filler {
        type: "constant"
        value: 0.1
      }
    }
  }
  layer {
    name: "nonlin4"
    type: "ReLU"
    bottom: "conv4"
    top: "conv4"
  }
  layer {
    name: "pool4"
    type: "Pooling"
    bottom: "conv4"
    top: "pool4"
    pooling_param {
      pool: MAX
      kernel_size: 2
      stride: 2
      engine: CAFFE
    }
  }
  layer {
    name: "ip1_c"
    type: "Convolution"
    bottom: "pool4"
    top: "ip1"
    convolution_param {
      num_output: 200
      pad: 0
      kernel_size: 2
      stride: 1
      weight_filler {
        type: "gaussian"
        std: 0.03
      }
      bias_filler {
        type: "constant"
        value: 0.1
      }
    }
  }
  layer {
    name: "nonlin_ip1"
    type: "ReLU"
    bottom: "ip1"
    top: "ip1"
  }
  layer {
    name: "ip2_c"
    type: "Convolution"
    bottom: "ip1"
    top: "ip2"
    convolution_param {
      num_output: 2
      pad: 0
      kernel_size: 1
      stride: 1
      weight_filler {
        type: "gaussian"
        std: 0.06
      }
      bias_filler {
        type: "constant"
        value: 0.1
      }
    }
  }
  layer {
    name: "accuracy"
    type: "Accuracy"
    bottom: "ip2"
    bottom: "label"
    top: "accuracy"
    include {
      phase: TEST
    }
  }
  layer {
    name: "loss"
    type: "SoftmaxWithLoss"
    bottom: "ip2"
    bottom: "label"
    top: "loss"
  }
}
test_initialization: true
average_loss: 100
I0822 14:11:34.086545  3620 solver.cpp:91] Creating training net specified in net_param.
I0822 14:11:34.086671  3620 net.cpp:339] The NetState phase (0) differed from the phase (1) specified by a rule in layer data
I0822 14:11:34.086712  3620 net.cpp:339] The NetState phase (0) differed from the phase (1) specified by a rule in layer accuracy
I0822 14:11:34.086884  3620 net.cpp:50] Initializing net from parameters: 
name: "Net"
state {
  phase: TRAIN
}
layer {
  name: "data"
  type: "ImageData"
  top: "data"
  top: "label"
  include {
    phase: TRAIN
  }
  transform_param {
    mirror: true
    mean_value: 150
    mean_value: 150
    mean_value: 150
    rotation_angle_interval: 90
    contrast_adjustment: true
    color_noise: 10
  }
  image_data_param {
    source: "../../../step01_generate_traing_data/training_examples/list_stage2_tr.lst"
    batch_size: 64
    shuffle: true
    new_height: 63
    new_width: 63
    root_folder: "../../../step01_generate_traing_data/training_examples/"
  }
}
layer {
  name: "conv1"
  type: "Convolution"
  bottom: "data"
  top: "conv1"
  param {
    lr_mult: 1
    decay_mult: 1
  }
  param {
    lr_mult: 2
    decay_mult: 0
  }
  convolution_param {
    num_output: 16
    pad: 0
    kernel_size: 4
    stride: 1
    weight_filler {
      type: "gaussian"
      std: 0.07
    }
    bias_filler {
      type: "constant"
      value: 0.1
    }
  }
}
layer {
  name: "nonlin1"
  type: "ReLU"
  bottom: "conv1"
  top: "conv1"
}
layer {
  name: "pool1"
  type: "Pooling"
  bottom: "conv1"
  top: "pool1"
  pooling_param {
    pool: MAX
    kernel_size: 2
    stride: 2
    engine: CAFFE
  }
}
layer {
  name: "conv2"
  type: "Convolution"
  bottom: "pool1"
  top: "conv2"
  param {
    lr_mult: 1
    decay_mult: 1
  }
  param {
    lr_mult: 2
    decay_mult: 0
  }
  convolution_param {
    num_output: 16
    pad: 0
    kernel_size: 3
    stride: 1
    weight_filler {
      type: "gaussian"
      std: 0.04
    }
    bias_filler {
      type: "constant"
      value: 0.1
    }
  }
}
layer {
  name: "nonlin2"
  type: "ReLU"
  bottom: "conv2"
  top: "conv2"
}
layer {
  name: "pool2"
  type: "Pooling"
  bottom: "conv2"
  top: "pool2"
  pooling_param {
    pool: MAX
    kernel_size: 2
    stride: 2
    engine: CAFFE
  }
}
layer {
  name: "conv3"
  type: "Convolution"
  bottom: "pool2"
  top: "conv3"
  param {
    lr_mult: 1
    decay_mult: 1
  }
  param {
    lr_mult: 2
    decay_mult: 0
  }
  convolution_param {
    num_output: 16
    pad: 0
    kernel_size: 3
    stride: 1
    weight_filler {
      type: "gaussian"
      std: 0.04
    }
    bias_filler {
      type: "constant"
      value: 0.1
    }
  }
}
layer {
  name: "nonlin3"
  type: "ReLU"
  bottom: "conv3"
  top: "conv3"
}
layer {
  name: "pool3"
  type: "Pooling"
  bottom: "conv3"
  top: "pool3"
  pooling_param {
    pool: MAX
    kernel_size: 2
    stride: 2
    engine: CAFFE
  }
}
layer {
  name: "conv4"
  type: "Convolution"
  bottom: "pool3"
  top: "conv4"
  param {
    lr_mult: 1
    decay_mult: 1
  }
  param {
    lr_mult: 2
    decay_mult: 0
  }
  convolution_param {
    num_output: 16
    pad: 0
    kernel_size: 3
    stride: 1
    weight_filler {
      type: "gaussian"
      std: 0.04
    }
    bias_filler {
      type: "constant"
      value: 0.1
    }
  }
}
layer {
  name: "nonlin4"
  type: "ReLU"
  bottom: "conv4"
  top: "conv4"
}
layer {
  name: "pool4"
  type: "Pooling"
  bottom: "conv4"
  top: "pool4"
  pooling_param {
    pool: MAX
    kernel_size: 2
    stride: 2
    engine: CAFFE
  }
}
layer {
  name: "ip1_c"
  type: "Convolution"
  bottom: "pool4"
  top: "ip1"
  convolution_param {
    num_output: 200
    pad: 0
    kernel_size: 2
    stride: 1
    weight_filler {
      type: "gaussian"
      std: 0.03
    }
    bias_filler {
      type: "constant"
      value: 0.1
    }
  }
}
layer {
  name: "nonlin_ip1"
  type: "ReLU"
  bottom: "ip1"
  top: "ip1"
}
layer {
  name: "ip2_c"
  type: "Convolution"
  bottom: "ip1"
  top: "ip2"
  convolution_param {
    num_output: 2
    pad: 0
    kernel_size: 1
    stride: 1
    weight_filler {
      type: "gaussian"
      std: 0.06
    }
    bias_filler {
      type: "constant"
      value: 0.1
    }
  }
}
layer {
  name: "loss"
  type: "SoftmaxWithLoss"
  bottom: "ip2"
  bottom: "label"
  top: "loss"
}
I0822 14:11:34.087852  3620 layer_factory.hpp:76] Creating layer data
I0822 14:11:34.087935  3620 net.cpp:110] Creating Layer data
I0822 14:11:34.087950  3620 net.cpp:433] data -> data
I0822 14:11:34.087997  3620 net.cpp:433] data -> label
I0822 14:11:34.088449  3620 image_data_layer.cpp:36] Opening file ../../../step01_generate_traing_data/training_examples/list_stage2_tr.lst
I0822 14:11:34.452725  3620 image_data_layer.cpp:46] Shuffling data
I0822 14:11:34.646044  3620 image_data_layer.cpp:51] A total of 725174 images.
I0822 14:11:34.646759  3620 image_data_layer.cpp:78] output data size: 64,3,63,63
I0822 14:11:34.663743  3620 net.cpp:155] Setting up data
I0822 14:11:34.663815  3620 net.cpp:163] Top shape: 64 3 63 63 (762048)
I0822 14:11:34.663827  3620 net.cpp:163] Top shape: 64 (64)
I0822 14:11:34.663841  3620 layer_factory.hpp:76] Creating layer conv1
I0822 14:11:34.663869  3620 net.cpp:110] Creating Layer conv1
I0822 14:11:34.663880  3620 net.cpp:477] conv1 <- data
I0822 14:11:34.663902  3620 net.cpp:433] conv1 -> conv1
I0822 14:11:34.802075  3620 net.cpp:155] Setting up conv1
I0822 14:11:34.802139  3620 net.cpp:163] Top shape: 64 16 60 60 (3686400)
I0822 14:11:34.802170  3620 layer_factory.hpp:76] Creating layer nonlin1
I0822 14:11:34.802188  3620 net.cpp:110] Creating Layer nonlin1
I0822 14:11:34.802197  3620 net.cpp:477] nonlin1 <- conv1
I0822 14:11:34.802208  3620 net.cpp:419] nonlin1 -> conv1 (in-place)
I0822 14:11:34.802392  3620 net.cpp:155] Setting up nonlin1
I0822 14:11:34.802420  3620 net.cpp:163] Top shape: 64 16 60 60 (3686400)
I0822 14:11:34.802443  3620 layer_factory.hpp:76] Creating layer pool1
I0822 14:11:34.802456  3620 net.cpp:110] Creating Layer pool1
I0822 14:11:34.802464  3620 net.cpp:477] pool1 <- conv1
I0822 14:11:34.802474  3620 net.cpp:433] pool1 -> pool1
I0822 14:11:34.802500  3620 net.cpp:155] Setting up pool1
I0822 14:11:34.802513  3620 net.cpp:163] Top shape: 64 16 30 30 (921600)
I0822 14:11:34.802536  3620 layer_factory.hpp:76] Creating layer conv2
I0822 14:11:34.802552  3620 net.cpp:110] Creating Layer conv2
I0822 14:11:34.802561  3620 net.cpp:477] conv2 <- pool1
I0822 14:11:34.802583  3620 net.cpp:433] conv2 -> conv2
I0822 14:11:34.803431  3620 net.cpp:155] Setting up conv2
I0822 14:11:34.803465  3620 net.cpp:163] Top shape: 64 16 28 28 (802816)
I0822 14:11:34.803480  3620 layer_factory.hpp:76] Creating layer nonlin2
I0822 14:11:34.803493  3620 net.cpp:110] Creating Layer nonlin2
I0822 14:11:34.803500  3620 net.cpp:477] nonlin2 <- conv2
I0822 14:11:34.803561  3620 net.cpp:419] nonlin2 -> conv2 (in-place)
I0822 14:11:34.803861  3620 net.cpp:155] Setting up nonlin2
I0822 14:11:34.803894  3620 net.cpp:163] Top shape: 64 16 28 28 (802816)
I0822 14:11:34.803903  3620 layer_factory.hpp:76] Creating layer pool2
I0822 14:11:34.803915  3620 net.cpp:110] Creating Layer pool2
I0822 14:11:34.803922  3620 net.cpp:477] pool2 <- conv2
I0822 14:11:34.803932  3620 net.cpp:433] pool2 -> pool2
I0822 14:11:34.803944  3620 net.cpp:155] Setting up pool2
I0822 14:11:34.803954  3620 net.cpp:163] Top shape: 64 16 14 14 (200704)
I0822 14:11:34.803962  3620 layer_factory.hpp:76] Creating layer conv3
I0822 14:11:34.803974  3620 net.cpp:110] Creating Layer conv3
I0822 14:11:34.803982  3620 net.cpp:477] conv3 <- pool2
I0822 14:11:34.803992  3620 net.cpp:433] conv3 -> conv3
I0822 14:11:34.804790  3620 net.cpp:155] Setting up conv3
I0822 14:11:34.804823  3620 net.cpp:163] Top shape: 64 16 12 12 (147456)
I0822 14:11:34.804838  3620 layer_factory.hpp:76] Creating layer nonlin3
I0822 14:11:34.804850  3620 net.cpp:110] Creating Layer nonlin3
I0822 14:11:34.804858  3620 net.cpp:477] nonlin3 <- conv3
I0822 14:11:34.804868  3620 net.cpp:419] nonlin3 -> conv3 (in-place)
I0822 14:11:34.805052  3620 net.cpp:155] Setting up nonlin3
I0822 14:11:34.805079  3620 net.cpp:163] Top shape: 64 16 12 12 (147456)
I0822 14:11:34.805089  3620 layer_factory.hpp:76] Creating layer pool3
I0822 14:11:34.805099  3620 net.cpp:110] Creating Layer pool3
I0822 14:11:34.805109  3620 net.cpp:477] pool3 <- conv3
I0822 14:11:34.805117  3620 net.cpp:433] pool3 -> pool3
I0822 14:11:34.805130  3620 net.cpp:155] Setting up pool3
I0822 14:11:34.805140  3620 net.cpp:163] Top shape: 64 16 6 6 (36864)
I0822 14:11:34.805147  3620 layer_factory.hpp:76] Creating layer conv4
I0822 14:11:34.805160  3620 net.cpp:110] Creating Layer conv4
I0822 14:11:34.805167  3620 net.cpp:477] conv4 <- pool3
I0822 14:11:34.805177  3620 net.cpp:433] conv4 -> conv4
I0822 14:11:34.806026  3620 net.cpp:155] Setting up conv4
I0822 14:11:34.806062  3620 net.cpp:163] Top shape: 64 16 4 4 (16384)
I0822 14:11:34.806077  3620 layer_factory.hpp:76] Creating layer nonlin4
I0822 14:11:34.806087  3620 net.cpp:110] Creating Layer nonlin4
I0822 14:11:34.806094  3620 net.cpp:477] nonlin4 <- conv4
I0822 14:11:34.806107  3620 net.cpp:419] nonlin4 -> conv4 (in-place)
I0822 14:11:34.806308  3620 net.cpp:155] Setting up nonlin4
I0822 14:11:34.806335  3620 net.cpp:163] Top shape: 64 16 4 4 (16384)
I0822 14:11:34.806345  3620 layer_factory.hpp:76] Creating layer pool4
I0822 14:11:34.806358  3620 net.cpp:110] Creating Layer pool4
I0822 14:11:34.806366  3620 net.cpp:477] pool4 <- conv4
I0822 14:11:34.806376  3620 net.cpp:433] pool4 -> pool4
I0822 14:11:34.806388  3620 net.cpp:155] Setting up pool4
I0822 14:11:34.806398  3620 net.cpp:163] Top shape: 64 16 2 2 (4096)
I0822 14:11:34.806406  3620 layer_factory.hpp:76] Creating layer ip1_c
I0822 14:11:34.806419  3620 net.cpp:110] Creating Layer ip1_c
I0822 14:11:34.806427  3620 net.cpp:477] ip1_c <- pool4
I0822 14:11:34.806437  3620 net.cpp:433] ip1_c -> ip1
I0822 14:11:34.808401  3620 net.cpp:155] Setting up ip1_c
I0822 14:11:34.808435  3620 net.cpp:163] Top shape: 64 200 1 1 (12800)
I0822 14:11:34.808459  3620 layer_factory.hpp:76] Creating layer nonlin_ip1
I0822 14:11:34.808470  3620 net.cpp:110] Creating Layer nonlin_ip1
I0822 14:11:34.808478  3620 net.cpp:477] nonlin_ip1 <- ip1
I0822 14:11:34.808487  3620 net.cpp:419] nonlin_ip1 -> ip1 (in-place)
I0822 14:11:34.808830  3620 net.cpp:155] Setting up nonlin_ip1
I0822 14:11:34.808862  3620 net.cpp:163] Top shape: 64 200 1 1 (12800)
I0822 14:11:34.808872  3620 layer_factory.hpp:76] Creating layer ip2_c
I0822 14:11:34.808884  3620 net.cpp:110] Creating Layer ip2_c
I0822 14:11:34.808892  3620 net.cpp:477] ip2_c <- ip1
I0822 14:11:34.808905  3620 net.cpp:433] ip2_c -> ip2
I0822 14:11:34.809749  3620 net.cpp:155] Setting up ip2_c
I0822 14:11:34.809782  3620 net.cpp:163] Top shape: 64 2 1 1 (128)
I0822 14:11:34.809798  3620 layer_factory.hpp:76] Creating layer loss
I0822 14:11:34.809814  3620 net.cpp:110] Creating Layer loss
I0822 14:11:34.809857  3620 net.cpp:477] loss <- ip2
I0822 14:11:34.809881  3620 net.cpp:477] loss <- label
I0822 14:11:34.809907  3620 net.cpp:433] loss -> loss
I0822 14:11:34.809927  3620 layer_factory.hpp:76] Creating layer loss
I0822 14:11:34.810194  3620 net.cpp:155] Setting up loss
…
I0822 14:11:34.811422  3620 net.cpp:50] Initializing net from parameters: 
name: "Net"
state {
  phase: TEST
}
layer {
  name: "data"
  type: "ImageData"
  top: "data"
  top: "label"
  include {
    phase: TEST
  }
  transform_param {
    mirror: true
    mean_value: 150
    mean_value: 150
    mean_value: 150
    rotation_angle_interval: 90
  }
  image_data_param {
    source: "../../../step01_generate_traing_data/training_examples/list_stage2_te.lst"
    batch_size: 128
    shuffle: true
    new_height: 63
    new_width: 63
    root_folder: "../../../step01_generate_traing_data/training_examples/"
  }
}
layer {
  name: "conv1"
  type: "Convolution"
  bottom: "data"
  top: "conv1"
  param {
    lr_mult: 1
    decay_mult: 1
  }
  param {
    lr_mult: 2
    decay_mult: 0
  }
  convolution_param {
    num_output: 16
    pad: 0
    kernel_size: 4
    stride: 1
    weight_filler {
      type: "gaussian"
      std: 0.07
    }
    bias_filler {
      type: "constant"
      value: 0.1
    }
  }
}
layer {
  name: "nonlin1"
  type: "ReLU"
  bottom: "conv1"
  top: "conv1"
}
layer {
  name: "pool1"
  type: "Pooling"
  bottom: "conv1"
  top: "pool1"
  pooling_param {
    pool: MAX
    kernel_size: 2
    stride: 2
    engine: CAFFE
  }
}
layer {
  name: "conv2"
  type: "Convolution"
  bottom: "pool1"
  top: "conv2"
  param {
    lr_mult: 1
    decay_mult: 1
  }
  param {
    lr_mult: 2
    decay_mult: 0
  }
  convolution_param {
    num_output: 16
    pad: 0
    kernel_size: 3
    stride: 1
    weight_filler {
      type: "gaussian"
      std: 0.04
    }
    bias_filler {
      type: "constant"
      value: 0.1
    }
  }
}
layer {
  name: "nonlin2"
  type: "ReLU"
  bottom: "conv2"
  top: "conv2"
}
layer {
  name: "pool2"
  type: "Pooling"
  bottom: "conv2"
  top: "pool2"
  pooling_param {
    pool: MAX
    kernel_size: 2
    stride: 2
    engine: CAFFE
  }
}
layer {
  name: "conv3"
  type: "Convolution"
  bottom: "pool2"
  top: "conv3"
  param {
    lr_mult: 1
    decay_mult: 1
  }
  param {
    lr_mult: 2
    decay_mult: 0
  }
  convolution_param {
    num_output: 16
    pad: 0
    kernel_size: 3
    stride: 1
    weight_filler {
      type: "gaussian"
      std: 0.04
    }
    bias_filler {
      type: "constant"
      value: 0.1
    }
  }
}
layer {
  name: "nonlin3"
  type: "ReLU"
  bottom: "conv3"
  top: "conv3"
}
layer {
  name: "pool3"
  type: "Pooling"
  bottom: "conv3"
  top: "pool3"
  pooling_param {
    pool: MAX
    kernel_size: 2
    stride: 2
    engine: CAFFE
  }
}
layer {
  name: "conv4"
  type: "Convolution"
  bottom: "pool3"
  top: "conv4"
  param {
    lr_mult: 1
    decay_mult: 1
  }
  param {
    lr_mult: 2
    decay_mult: 0
  }
  convolution_param {
    num_output: 16
    pad: 0
    kernel_size: 3
    stride: 1
    weight_filler {
      type: "gaussian"
      std: 0.04
    }
    bias_filler {
      type: "constant"
      value: 0.1
    }
  }
}
layer {
  name: "nonlin4"
  type: "ReLU"
  bottom: "conv4"
  top: "conv4"
}
layer {
  name: "pool4"
  type: "Pooling"
  bottom: "conv4"
  top: "pool4"
  pooling_param {
    pool: MAX
    kernel_size: 2
    stride: 2
    engine: CAFFE
  }
}
layer {
  name: "ip1_c"
  type: "Convolution"
  bottom: "pool4"
  top: "ip1"
  convolution_param {
    num_output: 200
    pad: 0
    kernel_size: 2
    stride: 1
    weight_filler {
      type: "gaussian"
      std: 0.03
    }
    bias_filler {
      type: "constant"
      value: 0.1
    }
  }
}
layer {
  name: "nonlin_ip1"
  type: "ReLU"
  bottom: "ip1"
  top: "ip1"
}
layer {
  name: "ip2_c"
  type: "Convolution"
  bottom: "ip1"
  top: "ip2"
  convolution_param {
    num_output: 2
    pad: 0
    kernel_size: 1
    stride: 1
    weight_filler {
      type: "gaussian"
      std: 0.06
    }
    bias_filler {
      type: "constant"
      value: 0.1
    }
  }
}
layer {
  name: "accuracy"
  type: "Accuracy"
  bottom: "ip2"
  bottom: "label"
  top: "accuracy"
  include {
    phase: TEST
  }
}
layer {
  name: "loss"
  type: "SoftmaxWithLoss"
  bottom: "ip2"
  bottom: "label"
  top: "loss"
}
I0822 14:11:34.812391  3620 layer_factory.hpp:76] Creating layer data
I0822 14:11:34.812434  3620 net.cpp:110] Creating Layer data
I0822 14:11:34.812458  3620 net.cpp:433] data -> data
I0822 14:11:34.812471  3620 net.cpp:433] data -> label
I0822 14:11:34.812505  3620 image_data_layer.cpp:36] Opening file ../../../step01_generate_traing_data/training_examples/list_stage2_te.lst
I0822 14:11:34.854274  3620 image_data_layer.cpp:46] Shuffling data
I0822 14:11:34.861302  3620 image_data_layer.cpp:51] A total of 80574 images.
I0822 14:11:34.861753  3620 image_data_layer.cpp:78] output data size: 128,3,63,63
I0822 14:11:34.879379  3620 net.cpp:155] Setting up data
I0822 14:11:34.879441  3620 net.cpp:163] Top shape: 128 3 63 63 (1524096)
I0822 14:11:34.879463  3620 net.cpp:163] Top shape: 128 (128)
I0822 14:11:34.879478  3620 layer_factory.hpp:76] Creating layer label_data_1_split
I0822 14:11:34.879508  3620 net.cpp:110] Creating Layer label_data_1_split
I0822 14:11:34.879518  3620 net.cpp:477] label_data_1_split <- label
I0822 14:11:34.879533  3620 net.cpp:433] label_data_1_split -> label_data_1_split_0
I0822 14:11:34.879552  3620 net.cpp:433] label_data_1_split -> label_data_1_split_1
I0822 14:11:34.879571  3620 net.cpp:155] Setting up label_data_1_split
I0822 14:11:34.879581  3620 net.cpp:163] Top shape: 128 (128)
I0822 14:11:34.879590  3620 net.cpp:163] Top shape: 128 (128)
I0822 14:11:34.879598  3620 layer_factory.hpp:76] Creating layer conv1
I0822 14:11:34.879617  3620 net.cpp:110] Creating Layer conv1
I0822 14:11:34.879628  3620 net.cpp:477] conv1 <- data
I0822 14:11:34.879664  3620 net.cpp:433] conv1 -> conv1
I0822 14:11:34.881901  3620 net.cpp:155] Setting up conv1
I0822 14:11:34.881937  3620 net.cpp:163] Top shape: 128 16 60 60 (7372800)
I0822 14:11:34.881959  3620 layer_factory.hpp:76] Creating layer nonlin1
I0822 14:11:34.881973  3620 net.cpp:110] Creating Layer nonlin1
I0822 14:11:34.881980  3620 net.cpp:477] nonlin1 <- conv1
I0822 14:11:34.881992  3620 net.cpp:419] nonlin1 -> conv1 (in-place)
I0822 14:11:34.882215  3620 net.cpp:155] Setting up nonlin1
I0822 14:11:34.882244  3620 net.cpp:163] Top shape: 128 16 60 60 (7372800)
I0822 14:11:34.882254  3620 layer_factory.hpp:76] Creating layer pool1
I0822 14:11:34.882267  3620 net.cpp:110] Creating Layer pool1
I0822 14:11:34.882274  3620 net.cpp:477] pool1 <- conv1
I0822 14:11:34.882284  3620 net.cpp:433] pool1 -> pool1
I0822 14:11:34.882297  3620 net.cpp:155] Setting up pool1
I0822 14:11:34.882308  3620 net.cpp:163] Top shape: 128 16 30 30 (1843200)
I0822 14:11:34.882315  3620 layer_factory.hpp:76] Creating layer conv2
I0822 14:11:34.882330  3620 net.cpp:110] Creating Layer conv2
I0822 14:11:34.882339  3620 net.cpp:477] conv2 <- pool1
I0822 14:11:34.882351  3620 net.cpp:433] conv2 -> conv2
I0822 14:11:34.885777  3620 net.cpp:155] Setting up conv2
I0822 14:11:34.885823  3620 net.cpp:163] Top shape: 128 16 28 28 (1605632)
I0822 14:11:34.885838  3620 layer_factory.hpp:76] Creating layer nonlin2
I0822 14:11:34.885864  3620 net.cpp:110] Creating Layer nonlin2
I0822 14:11:34.885874  3620 net.cpp:477] nonlin2 <- conv2
I0822 14:11:34.885884  3620 net.cpp:419] nonlin2 -> conv2 (in-place)
I0822 14:11:34.887907  3620 net.cpp:155] Setting up nonlin2
I0822 14:11:34.887949  3620 net.cpp:163] Top shape: 128 16 28 28 (1605632)
I0822 14:11:34.887960  3620 layer_factory.hpp:76] Creating layer pool2
I0822 14:11:34.887981  3620 net.cpp:110] Creating Layer pool2
I0822 14:11:34.887990  3620 net.cpp:477] pool2 <- conv2
I0822 14:11:34.888002  3620 net.cpp:433] pool2 -> pool2
I0822 14:11:34.888016  3620 net.cpp:155] Setting up pool2
I0822 14:11:34.888026  3620 net.cpp:163] Top shape: 128 16 14 14 (401408)
I0822 14:11:34.888034  3620 layer_factory.hpp:76] Creating layer conv3
I0822 14:11:34.888048  3620 net.cpp:110] Creating Layer conv3
I0822 14:11:34.888056  3620 net.cpp:477] conv3 <- pool2
I0822 14:11:34.888068  3620 net.cpp:433] conv3 -> conv3
I0822 14:11:34.889768  3620 net.cpp:155] Setting up conv3
I0822 14:11:34.889807  3620 net.cpp:163] Top shape: 128 16 12 12 (294912)
I0822 14:11:34.889829  3620 layer_factory.hpp:76] Creating layer nonlin3
I0822 14:11:34.889842  3620 net.cpp:110] Creating Layer nonlin3
I0822 14:11:34.889849  3620 net.cpp:477] nonlin3 <- conv3
I0822 14:11:34.889863  3620 net.cpp:419] nonlin3 -> conv3 (in-place)
I0822 14:11:34.890074  3620 net.cpp:155] Setting up nonlin3
I0822 14:11:34.890105  3620 net.cpp:163] Top shape: 128 16 12 12 (294912)
I0822 14:11:34.890115  3620 layer_factory.hpp:76] Creating layer pool3
I0822 14:11:34.890128  3620 net.cpp:110] Creating Layer pool3
I0822 14:11:34.890137  3620 net.cpp:477] pool3 <- conv3
I0822 14:11:34.890146  3620 net.cpp:433] pool3 -> pool3
I0822 14:11:34.890159  3620 net.cpp:155] Setting up pool3
I0822 14:11:34.890168  3620 net.cpp:163] Top shape: 128 16 6 6 (73728)
I0822 14:11:34.890177  3620 layer_factory.hpp:76] Creating layer conv4
I0822 14:11:34.890192  3620 net.cpp:110] Creating Layer conv4
I0822 14:11:34.890199  3620 net.cpp:477] conv4 <- pool3
I0822 14:11:34.890209  3620 net.cpp:433] conv4 -> conv4
I0822 14:11:34.891981  3620 net.cpp:155] Setting up conv4
I0822 14:11:34.892015  3620 net.cpp:163] Top shape: 128 16 4 4 (32768)
I0822 14:11:34.892029  3620 layer_factory.hpp:76] Creating layer nonlin4
I0822 14:11:34.892042  3620 net.cpp:110] Creating Layer nonlin4
I0822 14:11:34.892051  3620 net.cpp:477] nonlin4 <- conv4
I0822 14:11:34.892060  3620 net.cpp:419] nonlin4 -> conv4 (in-place)
I0822 14:11:34.892243  3620 net.cpp:155] Setting up nonlin4
I0822 14:11:34.892272  3620 net.cpp:163] Top shape: 128 16 4 4 (32768)
I0822 14:11:34.892282  3620 layer_factory.hpp:76] Creating layer pool4
I0822 14:11:34.892294  3620 net.cpp:110] Creating Layer pool4
I0822 14:11:34.892302  3620 net.cpp:477] pool4 <- conv4
I0822 14:11:34.892314  3620 net.cpp:433] pool4 -> pool4
I0822 14:11:34.892328  3620 net.cpp:155] Setting up pool4
I0822 14:11:34.892336  3620 net.cpp:163] Top shape: 128 16 2 2 (8192)
I0822 14:11:34.892344  3620 layer_factory.hpp:76] Creating layer ip1_c
I0822 14:11:34.892359  3620 net.cpp:110] Creating Layer ip1_c
I0822 14:11:34.892408  3620 net.cpp:477] ip1_c <- pool4
I0822 14:11:34.892429  3620 net.cpp:433] ip1_c -> ip1
I0822 14:11:34.894232  3620 net.cpp:155] Setting up ip1_c
I0822 14:11:34.894265  3620 net.cpp:163] Top shape: 128 200 1 1 (25600)
I0822 14:11:34.894281  3620 layer_factory.hpp:76] Creating layer nonlin_ip1
I0822 14:11:34.894294  3620 net.cpp:110] Creating Layer nonlin_ip1
I0822 14:11:34.894301  3620 net.cpp:477] nonlin_ip1 <- ip1
I0822 14:11:34.894314  3620 net.cpp:419] nonlin_ip1 -> ip1 (in-place)
I0822 14:11:34.894974  3620 net.cpp:155] Setting up nonlin_ip1
I0822 14:11:34.895009  3620 net.cpp:163] Top shape: 128 200 1 1 (25600)
I0822 14:11:34.895020  3620 layer_factory.hpp:76] Creating layer ip2_c
I0822 14:11:34.895037  3620 net.cpp:110] Creating Layer ip2_c
I0822 14:11:34.895046  3620 net.cpp:477] ip2_c <- ip1
I0822 14:11:34.895057  3620 net.cpp:433] ip2_c -> ip2
I0822 14:11:34.896721  3620 net.cpp:155] Setting up ip2_c
I0822 14:11:34.896754  3620 net.cpp:163] Top shape: 128 2 1 1 (256)
I0822 14:11:34.896769  3620 layer_factory.hpp:76] Creating layer ip2_ip2_c_0_split
I0822 14:11:34.896780  3620 net.cpp:110] Creating Layer ip2_ip2_c_0_split
I0822 14:11:34.896787  3620 net.cpp:477] ip2_ip2_c_0_split <- ip2
I0822 14:11:34.896797  3620 net.cpp:433] ip2_ip2_c_0_split -> ip2_ip2_c_0_split_0
I0822 14:11:34.896807  3620 net.cpp:433] ip2_ip2_c_0_split -> ip2_ip2_c_0_split_1
I0822 14:11:34.896826  3620 net.cpp:155] Setting up ip2_ip2_c_0_split
I0822 14:11:34.896836  3620 net.cpp:163] Top shape: 128 2 1 1 (256)
I0822 14:11:34.896844  3620 net.cpp:163] Top shape: 128 2 1 1 (256)
I0822 14:11:34.896852  3620 layer_factory.hpp:76] Creating layer accuracy
I0822 14:11:34.896865  3620 net.cpp:110] Creating Layer accuracy
I0822 14:11:34.896873  3620 net.cpp:477] accuracy <- ip2_ip2_c_0_split_0
I0822 14:11:34.896883  3620 net.cpp:477] accuracy <- label_data_1_split_0
I0822 14:11:34.896893  3620 net.cpp:433] accuracy -> accuracy
I0822 14:11:34.896909  3620 net.cpp:155] Setting up accuracy
…
