…
I0628 17:56:32.429831 127878 net.cpp:49] Initializing net from parameters: 
name: "GoogleNet"
state {
  phase: TRAIN
}
layer {
  name: "data"
  type: "ImageData"
  top: "data"
  top: "label"
  include {
    phase: TRAIN
  }
  transform_param {
    mirror: true
    crop_size: 224
    mean_value: 104
    mean_value: 117
    mean_value: 123
  }
  image_data_param {
    source: "/data/dywang/Database/Proliferation/libs/stage04_mitosisDetection/training_examples/train.lst"
    batch_size: 32
    shuffle: true
    new_height: 256
    new_width: 256
  }
}
layer {
  name: "conv1/7x7_s2"
  type: "Convolution"
  bottom: "data"
  top: "conv1/7x7_s2"
  param {
    lr_mult: 1
    decay_mult: 1
  }
  param {
    lr_mult: 2
    decay_mult: 0
  }
  convolution_param {
    num_output: 64
    pad: 3
    kernel_size: 7
    stride: 2
    weight_filler {
      type: "xavier"
    }
    bias_filler {
      type: "constant"
      value: 0.2
    }
  }
}
layer {
  name: "conv1/relu_7x7"
  type: "ReLU"
  bottom: "conv1/7x7_s2"
  top: "conv1/7x7_s2"
}
layer {
  name: "pool1/3x3_s2"
  type: "Pooling"
  bottom: "conv1/7x7_s2"
  top: "pool1/3x3_s2"
  pooling_param {
    pool: MAX
    kernel_size: 3
    stride: 2
  }
}
layer {
  name: "pool1/norm1"
  type: "LRN"
  bottom: "pool1/3x3_s2"
  top: "pool1/norm1"
  lrn_param {
    local_size: 5
    alpha: 0.0001
    beta: 0.75
  }
}
layer {
  name: "conv2/3x3_reduce"
  type: "Convolution"
  bottom: "pool1/norm1"
  top: "conv2/3x3_reduce"
  param {
    lr_mult: 1
    decay_mult: 1
  }
  param {
    lr_mult: 2
    decay_mult: 0
  }
  convolution_param {
    num_output: 64
    kernel_size: 1
    weight_filler {
      type: "xavier"
    }
    bias_filler {
      type: "constant"
      value: 0.2
    }
  }
}
layer {
  name: "conv2/relu_3x3_reduce"
  type: "ReLU"
  bottom: "conv2/3x3_reduce"
  top: "conv2/3x3_reduce"
}
layer {
  name: "conv2/3x3"
  type: "Convolution"
  bottom: "conv2/3x3_reduce"
  top: "conv2/3x3"
  param {
    lr_mult: 1
    decay_mult: 1
  }
  param {
    lr_mult: 2
    decay_mult: 0
  }
  convolution_param {
    num_output: 192
    pad: 1
    kernel_size: 3
    weight_filler {
      type: "xavier"
    }
    bias_filler {
      type: "constant"
      value: 0.2
    }
  }
}
layer {
  name: "conv2/relu_3x3"
  type: "ReLU"
  bottom: "conv2/3x3"
  top: "conv2/3x3"
}
layer {
  name: "conv2/norm2"
  type: "LRN"
  bottom: "conv2/3x3"
  top: "conv2/norm2"
  lrn_param {
    local_size: 5
    alpha: 0.0001
    beta: 0.75
  }
}
layer {
  name: "pool2/3x3_s2"
  type: "Pooling"
  bottom: "conv2/norm2"
  top: "pool2/3x3_s2"
  pooling_param {
    pool: MAX
    kernel_size: 3
    stride: 2
  }
}
layer {
  name: "inception_3a/1x1"
  type: "Convolution"
  bottom: "pool2/3x3_s2"
  top: "inception_3a/1x1"
  param {
    lr_mult: 1
    decay_mult: 1
  }
  param {
    lr_mult: 2
    decay_mult: 0
  }
  convolution_param {
    num_output: 64
    kernel_size: 1
    weight_filler {
      type: "xavier"
    }
    bias_filler {
      type: "constant"
      value: 0.2
    }
  }
}
layer {
  name: "inception_3a/relu_1x1"
  type: "ReLU"
  bottom: "inception_3a/1x1"
  top: "inception_3a/1x1"
}
layer {
  name: "inception_3a/3x3_reduce"
  type: "Convolution"
  bottom: "pool2/3x3_s2"
  top: "inception_3a/3x3_reduce"
  param {
    lr_mult: 1
    decay_mult: 1
  }
  param {
    lr_mult: 2
    decay_mult: 0
  }
  convolution_param {
    num_output: 96
    kernel_size: 1
    weight_filler {
      type: "xavier"
    }
    bias_filler {
      type: "constant"
      value: 0.2
    }
  }
}
layer {
  name: "inception_3a/relu_3x3_reduce"
  type: "ReLU"
  bottom: "inception_3a/3x3_reduce"
  top: "inception_3a/3x3_reduce"
}
layer {
  name: "inception_3a/3x3"
  type: "Convolution"
  bottom: "inception_3a/3x3_reduce"
  top: "inception_3a/3x3"
  param {
    lr_mult: 1
    decay_mult: 1
  }
  param {
    lr_mult: 2
    decay_mult: 0
  }
  convolution_param {
    num_output: 128
    pad: 1
    kernel_size: 3
    weight_filler {
      type: "xavier"
    }
    bias_filler {
      type: "constant"
      value: 0.2
    }
  }
}
layer {
  name: "inception_3a/relu_3x3"
  type: "ReLU"
  bottom: "inception_3a/3x3"
  top: "inception_3a/3x3"
}
layer {
  name: "inception_3a/5x5_reduce"
  type: "Convolution"
  bottom: "pool2/3x3_s2"
  top: "inception_3a/5x5_reduce"
  param {
    lr_mult: 1
    decay_mult: 1
  }
  param {
    lr_mult: 2
    decay_mult: 0
  }
  convolution_param {
    num_output: 16
    kernel_size: 1
    weight_filler {
      type: "xavier"
    }
    bias_filler {
      type: "constant"
      value: 0.2
    }
  }
}
layer {
  name: "inception_3a/relu_5x5_reduce"
  type: "ReLU"
  bottom: "inception_3a/5x5_reduce"
  top: "inception_3a/5x5_reduce"
}
layer {
  name: "inception_3a/5x5"
  type: "Convolution"
  bottom: "inception_3a/5x5_reduce"
  top: "inception_3a/5x5"
  param {
    lr_mult: 1
    decay_mult: 1
  }
  param {
    lr_mult: 2
    decay_mult: 0
  }
  convolution_param {
    num_output: 32
    pad: 2
    kernel_size: 5
    weight_filler {
      type: "xavier"
    }
    bias_filler {
      type: "constant"
      value: 0.2
    }
  }
}
layer {
  name: "inception_3a/relu_5x5"
  type: "ReLU"
  bottom: "inception_3a/5x5"
  top: "inception_3a/5x5"
}
layer {
  name: "inception_3a/pool"
  type: "Pooling"
  bottom: "pool2/3x3_s2"
  top: "inception_3a/pool"
  pooling_param {
    pool: MAX
    kernel_size: 3
    stride: 1
    pad: 1
  }
}
layer {
  name: "inception_3a/pool_proj"
  type: "Convolution"
  bottom: "inception_3a/pool"
  top: "inception_3a/pool_proj"
  param {
    lr_mult: 1
    decay_mult: 1
  }
  param {
    lr_mult: 2
    decay_mult: 0
  }
  convolution_param {
    num_output: 32
    kernel_size: 1
    weight_filler {
      type: "xavier"
    }
    bias_filler {
      type: "constant"
      value: 0.2
    }
  }
}
layer {
  name: "inception_3a/relu_pool_proj"
  type: "ReLU"
  bottom: "inception_3a/pool_proj"
  top: "inception_3a/pool_proj"
}
layer {
  name: "inception_3a/output"
  type: "Concat"
  bottom: "inception_3a/1x1"
  bottom: "inception_3a/3x3"
  bottom: "inception_3a/5x5"
  bottom: "inception_3a/pool_proj"
  top: "inception_3a/output"
}
layer {
  name: "inception_3b/1x1"
  type: "Convolution"
  bottom: "inception_3a/output"
  top: "inception_3b/1x1"
  param {
    lr_mult: 1
    decay_mult: 1
  }
  param {
    lr_mult: 2
    decay_mult: 0
  }
  convolution_param {
    num_output: 128
    kernel_size: 1
    weight_filler {
      type: "xavier"
    }
    bias_filler {
      type: "constant"
      value: 0.2
    }
  }
}
layer {
  name: "inception_3b/relu_1x1"
  type: "ReLU"
  bottom: "inception_3b/1x1"
  top: "inception_3b/1x1"
}
layer {
  name: "inception_3b/3x3_reduce"
  type: "Convolution"
  bottom: "inception_3a/output"
  top: "inception_3b/3x3_reduce"
  param {
    lr_mult: 1
    decay_mult: 1
  }
  param {
    lr_mult: 2
    decay_mult: 0
  }
  convolution_param {
    num_output: 128
    kernel_size: 1
    weight_filler {
      type: "xavier"
    }
    bias_filler {
      type: "constant"
      value: 0.2
    }
  }
}
layer {
  name: "inception_3b/relu_3x3_reduce"
  type: "ReLU"
  bottom: "inception_3b/3x3_reduce"
  top: "inception_3b/3x3_reduce"
}
layer {
  name: "inception_3b/3x3"
  type: "Convolution"
  bottom: "inception_3b/3x3_reduce"
  top: "inception_3b/3x3"
  param {
    lr_mult: 1
    decay_mult: 1
  }
  param {
    lr_mult: 2
    decay_mult: 0
  }
  convolution_param {
    num_output: 192
    pad: 1
    kernel_size: 3
    weight_filler {
      type: "xavier"
    }
    bias_filler {
      type: "constant"
      value: 0.2
    }
  }
}
layer {
  name: "inception_3b/relu_3x3"
  type: "ReLU"
  bottom: "inception_3b/3x3"
  top: "inception_3b/3x3"
}
layer {
  name: "inception_3b/5x5_reduce"
  type: "Convolution"
  bottom: "inception_3a/output"
  top: "inception_3b/5x5_reduce"
  param {
    lr_mult: 1
    decay_mult: 1
  }
  param {
    lr_mult: 2
    decay_mult: 0
  }
  convolution_param {
    num_output: 32
    kernel_size: 1
    weight_filler {
      type: "xavier"
    }
    bias_filler {
      type: "constant"
      value: 0.2
    }
  }
}
layer {
  name: "inception_3b/relu_5x5_reduce"
  type: "ReLU"
  bottom: "inception_3b/5x5_reduce"
  top: "inception_3b/5x5_reduce"
}
layer {
  name: "inception_3b/5x5"
  type: "Convolution"
  bottom: "inception_3b/5x5_reduce"
  top: "inception_3b/5x5"
  param {
    lr_mult: 1
    decay_mult: 1
  }
  param {
    lr_mult: 2
    decay_mult: 0
  }
  convolution_param {
    num_output: 96
    pad: 2
    kernel_size: 5
    weight_filler {
      type: "xavier"
    }
    bias_filler {
      type: "constant"
      value: 0.2
    }
  }
}
layer {
  name: "inception_3b/relu_5x5"
  type: "ReLU"
  bottom: "inception_3b/5x5"
  top: "inception_3b/5x5"
}
layer {
  name: "inception_3b/pool"
  type: "Pooling"
  bottom: "inception_3a/output"
  top: "inception_3b/pool"
  pooling_param {
    pool: MAX
    kernel_size: 3
    stride: 1
    pad: 1
  }
}
layer {
  name: "inception_3b/pool_proj"
  type: "Convolution"
  bottom: "inception_3b/pool"
  top: "inception_3b/pool_proj"
  param {
    lr_mult: 1
    decay_mult: 1
  }
  param {
    lr_mult: 2
    decay_mult: 0
  }
  convolution_param {
    num_output: 64
    kernel_size: 1
    weight_filler {
      type: "xavier"
    }
    bias_filler {
      type: "constant"
      value: 0.2
    }
  }
}
layer {
  name: "inception_3b/relu_pool_proj"
  type: "ReLU"
  bottom: "inception_3b/pool_proj"
  top: "inception_3b/pool_proj"
}
layer {
  name: "inception_3b/output"
  type: "Concat"
  bottom: "inception_3b/1x1"
  bottom: "inception_3b/3x3"
  bottom: "inception_3b/5x5"
  bottom: "inception_3b/pool_proj"
  top: "inception_3b/output"
}
layer {
  name: "pool3/3x3_s2"
  type: "Pooling"
  bottom: "inception_3b/output"
  top: "pool3/3x3_s2"
  pooling_param {
    pool: MAX
    kernel_size: 3
    stride: 2
  }
}
layer {
  name: "inception_4a/1x1"
  type: "Convolution"
  bottom: "pool3/3x3_s2"
  top: "inception_4a/1x1"
  param {
    lr_mult: 1
    decay_mult: 1
  }
  param {
    lr_mult: 2
    decay_mult: 0
  }
  convolution_param {
    num_output: 192
    kernel_size: 1
    weight_filler {
      type: "xavier"
    }
    bias_filler {
      type: "constant"
      value: 0.2
    }
  }
}
layer {
  name: "inception_4a/relu_1x1"
  type: "ReLU"
  bottom: "inception_4a/1x1"
  top: "inception_4a/1x1"
}
layer {
  name: "inception_4a/3x3_reduce"
  type: "Convolution"
  bottom: "pool3/3x3_s2"
  top: "inception_4a/3x3_reduce"
  param {
    lr_mult: 1
    decay_mult: 1
  }
  param {
    lr_mult: 2
    decay_mult: 0
  }
  convolution_param {
    num_output: 96
    kernel_size: 1
    weight_filler {
      type: "xavier"
    }
    bias_filler {
      type: "constant"
      value: 0.2
    }
  }
}
layer {
  name: "inception_4a/relu_3x3_reduce"
  type: "ReLU"
  bottom: "inception_4a/3x3_reduce"
  top: "inception_4a/3x3_reduce"
}
layer {
  name: "inception_4a/3x3"
  type: "Convolution"
  bottom: "inception_4a/3x3_reduce"
  top: "inception_4a/3x3"
  param {
    lr_mult: 1
    decay_mult: 1
  }
  param {
    lr_mult: 2
    decay_mult: 0
  }
  convolution_param {
    num_output: 208
    pad: 1
    kernel_size: 3
    weight_filler {
      type: "xavier"
    }
    bias_filler {
      type: "constant"
      value: 0.2
    }
  }
}
layer {
  name: "inception_4a/relu_3x3"
  type: "ReLU"
  bottom: "inception_4a/3x3"
  top: "inception_4a/3x3"
}
layer {
  name: "inception_4a/5x5_reduce"
  type: "Convolution"
  bottom: "pool3/3x3_s2"
  top: "inception_4a/5x5_reduce"
  param {
    lr_mult: 1
    decay_mult: 1
  }
  param {
    lr_mult: 2
    decay_mult: 0
  }
  convolution_param {
    num_output: 16
    kernel_size: 1
    weight_filler {
      type: "xavier"
    }
    bias_filler {
      type: "constant"
      value: 0.2
    }
  }
}
layer {
  name: "inception_4a/relu_5x5_reduce"
  type: "ReLU"
  bottom: "inception_4a/5x5_reduce"
  top: "inception_4a/5x5_reduce"
}
layer {
  name: "inception_4a/5x5"
  type: "Convolution"
  bottom: "inception_4a/5x5_reduce"
  top: "inception_4a/5x5"
  param {
    lr_mult: 1
    decay_mult: 1
  }
  param {
    lr_mult: 2
    decay_mult: 0
  }
  convolution_param {
    num_output: 48
    pad: 2
    kernel_size: 5
    weight_filler {
      type: "xavier"
    }
    bias_filler {
      type: "constant"
      value: 0.2
    }
  }
}
layer {
  name: "inception_4a/relu_5x5"
  type: "ReLU"
  bottom: "inception_4a/5x5"
  top: "inception_4a/5x5"
}
layer {
  name: "inception_4a/pool"
  type: "Pooling"
  bottom: "pool3/3x3_s2"
  top: "inception_4a/pool"
  pooling_param {
    pool: MAX
    kernel_size: 3
    stride: 1
    pad: 1
  }
}
layer {
  name: "inception_4a/pool_proj"
  type: "Convolution"
  bottom: "inception_4a/pool"
  top: "inception_4a/pool_proj"
  param {
    lr_mult: 1
    decay_mult: 1
  }
  param {
    lr_mult: 2
    decay_mult: 0
  }
  convolution_param {
    num_output: 64
    kernel_size: 1
    weight_filler {
      type: "xavier"
    }
    bias_filler {
      type: "constant"
      value: 0.2
    }
  }
}
layer {
  name: "inception_4a/relu_pool_proj"
  type: "ReLU"
  bottom: "inception_4a/pool_proj"
  top: "inception_4a/pool_proj"
}
layer {
  name: "inception_4a/output"
  type: "Concat"
  bottom: "inception_4a/1x1"
  bottom: "inception_4a/3x3"
  bottom: "inception_4a/5x5"
  bottom: "inception_4a/pool_proj"
  top: "inception_4a/output"
}
layer {
  name: "loss1/ave_pool"
  type: "Pooling"
  bottom: "inception_4a/output"
  top: "loss1/ave_pool"
  pooling_param {
    pool: AVE
    kernel_size: 5
    stride: 3
  }
}
layer {
  name: "loss1/conv"
  type: "Convolution"
  bottom: "loss1/ave_pool"
  top: "loss1/conv"
  param {
    lr_mult: 1
    decay_mult: 1
  }
  param {
    lr_mult: 2
    decay_mult: 0
  }
  convolution_param {
    num_output: 128
    kernel_size: 1
    weight_filler {
      type: "xavier"
    }
    bias_filler {
      type: "constant"
      value: 0.2
    }
  }
}
layer {
  name: "loss1/relu_conv"
  type: "ReLU"
  bottom: "loss1/conv"
  top: "loss1/conv"
}
layer {
  name: "loss1/fc"
  type: "InnerProduct"
  bottom: "loss1/conv"
  top: "loss1/fc"
  param {
    lr_mult: 1
    decay_mult: 1
  }
  param {
    lr_mult: 2
    decay_mult: 0
  }
  inner_product_param {
    num_output: 1024
    weight_filler {
      type: "xavier"
    }
    bias_filler {
      type: "constant"
      value: 0.2
    }
  }
}
layer {
  name: "loss1/relu_fc"
  type: "ReLU"
  bottom: "loss1/fc"
  top: "loss1/fc"
}
layer {
  name: "loss1/drop_fc"
  type: "Dropout"
  bottom: "loss1/fc"
  top: "loss1/fc"
  dropout_param {
    dropout_ratio: 0.7
  }
}
layer {
  name: "loss1/classifier"
  type: "InnerProduct"
  bottom: "loss1/fc"
  top: "loss1/classifier"
  param {
    lr_mult: 1
    decay_mult: 1
  }
  param {
    lr_mult: 2
    decay_mult: 0
  }
  inner_product_param {
    num_output: 2
    weight_filler {
      type: "xavier"
    }
    bias_filler {
      type: "constant"
      value: 0
    }
  }
}
layer {
  name: "loss1/loss"
  type: "SoftmaxWithLoss"
  bottom: "loss1/classifier"
  bottom: "label"
  top: "loss1/loss1"
  loss_weight: 0.3
}
layer {
  name: "inception_4b/1x1"
  type: "Convolution"
  bottom: "inception_4a/output"
  top: "inception_4b/1x1"
  param {
    lr_mult: 1
    decay_mult: 1
  }
  param {
    lr_mult: 2
    decay_mult: 0
  }
  convolution_param {
    num_output: 160
    kernel_size: 1
    weight_filler {
      type: "xavier"
    }
    bias_filler {
      type: "constant"
      value: 0.2
    }
  }
}
layer {
  name: "inception_4b/relu_1x1"
  type: "ReLU"
  bottom: "inception_4b/1x1"
  top: "inception_4b/1x1"
}
layer {
  name: "inception_4b/3x3_reduce"
  type: "Convolution"
  bottom: "inception_4a/output"
  top: "inception_4b/3x3_reduce"
  param {
    lr_mult: 1
    decay_mult: 1
  }
  param {
    lr_mult: 2
    decay_mult: 0
  }
  convolution_param {
    num_output: 112
    kernel_size: 1
    weight_filler {
      type: "xavier"
    }
    bias_filler {
      type: "constant"
      value: 0.2
    }
  }
}
layer {
  name: "inception_4b/relu_3x3_reduce"
  type: "ReLU"
  bottom: "inception_4b/3x3_reduce"
  top: "inception_4b/3x3_reduce"
}
layer {
  name: "inception_4b/3x3"
  type: "Convolution"
  bottom: "inception_4b/3x3_reduce"
  top: "inception_4b/3x3"
  param {
    lr_mult: 1
    decay_mult: 1
  }
  param {
    lr_mult: 2
    decay_mult: 0
  }
  convolution_param {
    num_output: 224
    pad: 1
    kernel_size: 3
    weight_filler {
      type: "xavier"
    }
    bias_filler {
      type: "constant"
      value: 0.2
    }
  }
}
layer {
  name: "inception_4b/relu_3x3"
  type: "ReLU"
  bottom: "inception_4b/3x3"
  top: "inception_4b/3x3"
}
layer {
  name: "inception_4b/5x5_reduce"
  type: "Convolution"
  bottom: "inception_4a/output"
  top: "inception_4b/5x5_reduce"
  param {
    lr_mult: 1
    decay_mult: 1
  }
  param {
    lr_mult: 2
    decay_mult: 0
  }
  convolution_param {
    num_output: 24
    kernel_size: 1
    weight_filler {
      type: "xavier"
    }
    bias_filler {
      type: "constant"
      value: 0.2
    }
  }
}
layer {
  name: "inception_4b/relu_5x5_reduce"
  type: "ReLU"
  bottom: "inception_4b/5x5_reduce"
  top: "inception_4b/5x5_reduce"
}
layer {
  name: "inception_4b/5x5"
  type: "Convolution"
  bottom: "inception_4b/5x5_reduce"
  top: "inception_4b/5x5"
  param {
    lr_mult: 1
    decay_mult: 1
  }
  param {
    lr_mult: 2
    decay_mult: 0
  }
  convolution_param {
    num_output: 64
    pad: 2
    kernel_size: 5
    weight_filler {
      type: "xavier"
    }
    bias_filler {
      type: "constant"
      value: 0.2
    }
  }
}
layer {
  name: "inception_4b/relu_5x5"
  type: "ReLU"
  bottom: "inception_4b/5x5"
  top: "inception_4b/5x5"
}
layer {
  name: "inception_4b/pool"
  type: "Pooling"
  bottom: "inception_4a/output"
  top: "inception_4b/pool"
  pooling_param {
    pool: MAX
    kernel_size: 3
    stride: 1
    pad: 1
  }
}
layer {
  name: "inception_4b/pool_proj"
  type: "Convolution"
  bottom: "inception_4b/pool"
  top: "inception_4b/pool_proj"
  param {
    lr_mult: 1
    decay_mult: 1
  }
  param {
    lr_mult: 2
    decay_mult: 0
  }
  convolution_param {
    num_output: 64
    kernel_size: 1
    weight_filler {
      type: "xavier"
    }
    bias_filler {
      type: "constant"
      value: 0.2
    }
  }
}
layer {
  name: "inception_4b/relu_pool_proj"
  type: "ReLU"
  bottom: "inception_4b/pool_proj"
  top: "inception_4b/pool_proj"
}
layer {
  name: "inception_4b/output"
  type: "Concat"
  bottom: "inception_4b/1x1"
  bottom: "inception_4b/3x3"
  bottom: "inception_4b/5x5"
  bottom: "inception_4b/pool_proj"
  top: "inception_4b/output"
}
layer {
  name: "inception_4c/1x1"
  type: "Convolution"
  bottom: "inception_4b/output"
  top: "inception_4c/1x1"
  param {
    lr_mult: 1
    decay_mult: 1
  }
  param {
    lr_mult: 2
    decay_mult: 0
  }
  convolution_param {
    num_output: 128
    kernel_size: 1
    weight_filler {
      type: "xavier"
    }
    bias_filler {
      type: "constant"
      value: 0.2
    }
  }
}
layer {
  name: "inception_4c/relu_1x1"
  type: "ReLU"
  bottom: "inception_4c/1x1"
  top: "inception_4c/1x1"
}
layer {
  name: "inception_4c/3x3_reduce"
  type: "Convolution"
  bottom: "inception_4b/output"
  top: "inception_4c/3x3_reduce"
  param {
    lr_mult: 1
    decay_mult: 1
  }
  param {
    lr_mult: 2
    decay_mult: 0
  }
  convolution_param {
    num_output: 128
    kernel_size: 1
    weight_filler {
      type: "xavier"
    }
    bias_filler {
      type: "constant"
      value: 0.2
    }
  }
}
layer {
  name: "inception_4c/relu_3x3_reduce"
  type: "ReLU"
  bottom: "inception_4c/3x3_reduce"
  top: "inception_4c/3x3_reduce"
}
layer {
  name: "inception_4c/3x3"
  type: "Convolution"
  bottom: "inception_4c/3x3_reduce"
  top: "inception_4c/3x3"
  param {
    lr_mult: 1
    decay_mult: 1
  }
  param {
    lr_mult: 2
    decay_mult: 0
  }
  convolution_param {
    num_output: 256
    pad: 1
    kernel_size: 3
    weight_filler {
      type: "xavier"
    }
    bias_filler {
      type: "constant"
      value: 0.2
    }
  }
}
layer {
  name: "inception_4c/relu_3x3"
  type: "ReLU"
  bottom: "inception_4c/3x3"
  top: "inception_4c/3x3"
}
layer {
  name: "inception_4c/5x5_reduce"
  type: "Convolution"
  bottom: "inception_4b/output"
  top: "inception_4c/5x5_reduce"
  param {
    lr_mult: 1
    decay_mult: 1
  }
  param {
    lr_mult: 2
    decay_mult: 0
  }
  convolution_param {
    num_output: 24
    kernel_size: 1
    weight_filler {
      type: "xavier"
    }
    bias_filler {
      type: "constant"
      value: 0.2
    }
  }
}
layer {
  name: "inception_4c/relu_5x5_reduce"
  type: "ReLU"
  bottom: "inception_4c/5x5_reduce"
  top: "inception_4c/5x5_reduce"
}
layer {
  name: "inception_4c/5x5"
  type: "Convolution"
  bottom: "inception_4c/5x5_reduce"
  top: "inception_4c/5x5"
  param {
    lr_mult: 1
    decay_mult: 1
  }
  param {
    lr_mult: 2
    decay_mult: 0
  }
  convolution_param {
    num_output: 64
    pad: 2
    kernel_size: 5
    weight_filler {
      type: "xavier"
    }
    bias_filler {
      type: "constant"
      value: 0.2
    }
  }
}
layer {
  name: "inception_4c/relu_5x5"
  type: "ReLU"
  bottom: "inception_4c/5x5"
  top: "inception_4c/5x5"
}
layer {
  name: "inception_4c/pool"
  type: "Pooling"
  bottom: "inception_4b/output"
  top: "inception_4c/pool"
  pooling_param {
    pool: MAX
    kernel_size: 3
    stride: 1
    pad: 1
  }
}
layer {
  name: "inception_4c/pool_proj"
  type: "Convolution"
  bottom: "inception_4c/pool"
  top: "inception_4c/pool_proj"
  param {
    lr_mult: 1
    decay_mult: 1
  }
  param {
    lr_mult: 2
    decay_mult: 0
  }
  convolution_param {
    num_output: 64
    kernel_size: 1
    weight_filler {
      type: "xavier"
    }
    bias_filler {
      type: "constant"
      value: 0.2
    }
  }
}
layer {
  name: "inception_4c/relu_pool_proj"
  type: "ReLU"
  bottom: "inception_4c/pool_proj"
  top: "inception_4c/pool_proj"
}
layer {
  name: "inception_4c/output"
  type: "Concat"
  bottom: "inception_4c/1x1"
  bottom: "inception_4c/3x3"
  bottom: "inception_4c/5x5"
  bottom: "inception_4c/pool_proj"
  top: "inception_4c/output"
}
layer {
  name: "inception_4d/1x1"
  type: "Convolution"
  bottom: "inception_4c/output"
  top: "inception_4d/1x1"
  param {
    lr_mult: 1
    decay_mult: 1
  }
  param {
    lr_mult: 2
    decay_mult: 0
  }
  convolution_param {
    num_output: 112
    kernel_size: 1
    weight_filler {
      type: "xavier"
    }
    bias_filler {
      type: "constant"
      value: 0.2
    }
  }
}
layer {
  name: "inception_4d/relu_1x1"
  type: "ReLU"
  bottom: "inception_4d/1x1"
  top: "inception_4d/1x1"
}
layer {
  name: "inception_4d/3x3_reduce"
  type: "Convolution"
  bottom: "inception_4c/output"
  top: "inception_4d/3x3_reduce"
  param {
    lr_mult: 1
    decay_mult: 1
  }
  param {
    lr_mult: 2
    decay_mult: 0
  }
  convolution_param {
    num_output: 144
    kernel_size: 1
    weight_filler {
      type: "xavier"
    }
    bias_filler {
      type: "constant"
      value: 0.2
    }
  }
}
layer {
  name: "inception_4d/relu_3x3_reduce"
  type: "ReLU"
  bottom: "inception_4d/3x3_reduce"
  top: "inception_4d/3x3_reduce"
}
layer {
  name: "inception_4d/3x3"
  type: "Convolution"
  bottom: "inception_4d/3x3_reduce"
  top: "inception_4d/3x3"
  param {
    lr_mult: 1
    decay_mult: 1
  }
  param {
    lr_mult: 2
    decay_mult: 0
  }
  convolution_param {
    num_output: 288
    pad: 1
    kernel_size: 3
    weight_filler {
      type: "xavier"
    }
    bias_filler {
      type: "constant"
      value: 0.2
    }
  }
}
layer {
  name: "inception_4d/relu_3x3"
  type: "ReLU"
  bottom: "inception_4d/3x3"
  top: "inception_4d/3x3"
}
layer {
  name: "inception_4d/5x5_reduce"
  type: "Convolution"
  bottom: "inception_4c/output"
  top: "inception_4d/5x5_reduce"
  param {
    lr_mult: 1
    decay_mult: 1
  }
  param {
    lr_mult: 2
    decay_mult: 0
  }
  convolution_param {
    num_output: 32
    kernel_size: 1
    weight_filler {
      type: "xavier"
    }
    bias_filler {
      type: "constant"
      value: 0.2
    }
  }
}
layer {
  name: "inception_4d/relu_5x5_reduce"
  type: "ReLU"
  bottom: "inception_4d/5x5_reduce"
  top: "inception_4d/5x5_reduce"
}
layer {
  name: "inception_4d/5x5"
  type: "Convolution"
  bottom: "inception_4d/5x5_reduce"
  top: "inception_4d/5x5"
  param {
    lr_mult: 1
    decay_mult: 1
  }
  param {
    lr_mult: 2
    decay_mult: 0
  }
  convolution_param {
    num_output: 64
    pad: 2
    kernel_size: 5
    weight_filler {
      type: "xavier"
    }
    bias_filler {
      type: "constant"
      value: 0.2
    }
  }
}
layer {
  name: "inception_4d/relu_5x5"
  type: "ReLU"
  bottom: "inception_4d/5x5"
  top: "inception_4d/5x5"
}
layer {
  name: "inception_4d/pool"
  type: "Pooling"
  bottom: "inception_4c/output"
  top: "inception_4d/pool"
  pooling_param {
    pool: MAX
    kernel_size: 3
    stride: 1
    pad: 1
  }
}
layer {
  name: "inception_4d/pool_proj"
  type: "Convolution"
  bottom: "inception_4d/pool"
  top: "inception_4d/pool_proj"
  param {
    lr_mult: 1
    decay_mult: 1
  }
  param {
    lr_mult: 2
    decay_mult: 0
  }
  convolution_param {
    num_output: 64
    kernel_size: 1
    weight_filler {
      type: "xavier"
    }
    bias_filler {
      type: "constant"
      value: 0.2
    }
  }
}
layer {
  name: "inception_4d/relu_pool_proj"
  type: "ReLU"
  bottom: "inception_4d/pool_proj"
  top: "inception_4d/pool_proj"
}
layer {
  name: "inception_4d/output"
  type: "Concat"
  bottom: "inception_4d/1x1"
  bottom: "inception_4d/3x3"
  bottom: "inception_4d/5x5"
  bottom: "inception_4d/pool_proj"
  top: "inception_4d/output"
}
layer {
  name: "loss2/ave_pool"
  type: "Pooling"
  bottom: "inception_4d/output"
  top: "loss2/ave_pool"
  pooling_param {
    pool: AVE
    kernel_size: 5
    stride: 3
  }
}
layer {
  name: "loss2/conv"
  type: "Convolution"
  bottom: "loss2/ave_pool"
  top: "loss2/conv"
  param {
    lr_mult: 1
    decay_mult: 1
  }
  param {
    lr_mult: 2
    decay_mult: 0
  }
  convolution_param {
    num_output: 128
    kernel_size: 1
    weight_filler {
      type: "xavier"
    }
    bias_filler {
      type: "constant"
      value: 0.2
    }
  }
}
layer {
  name: "loss2/relu_conv"
  type: "ReLU"
  bottom: "loss2/conv"
  top: "loss2/conv"
}
layer {
  name: "loss2/fc"
  type: "InnerProduct"
  bottom: "loss2/conv"
  top: "loss2/fc"
  param {
    lr_mult: 1
    decay_mult: 1
  }
  param {
    lr_mult: 2
    decay_mult: 0
  }
  inner_product_param {
    num_output: 1024
    weight_filler {
      type: "xavier"
    }
    bias_filler {
      type: "constant"
      value: 0.2
    }
  }
}
layer {
  name: "loss2/relu_fc"
  type: "ReLU"
  bottom: "loss2/fc"
  top: "loss2/fc"
}
layer {
  name: "loss2/drop_fc"
  type: "Dropout"
  bottom: "loss2/fc"
  top: "loss2/fc"
  dropout_param {
    dropout_ratio: 0.7
  }
}
layer {
  name: "loss2/classifier"
  type: "InnerProduct"
  bottom: "loss2/fc"
  top: "loss2/classifier"
  param {
    lr_mult: 1
    decay_mult: 1
  }
  param {
    lr_mult: 2
    decay_mult: 0
  }
  inner_product_param {
    num_output: 2
    weight_filler {
      type: "xavier"
    }
    bias_filler {
      type: "constant"
      value: 0
    }
  }
}
layer {
  name: "loss2/loss"
  type: "SoftmaxWithLoss"
  bottom: "loss2/classifier"
  bottom: "label"
  top: "loss2/loss1"
  loss_weight: 0.3
}
layer {
  name: "inception_4e/1x1"
  type: "Convolution"
  bottom: "inception_4d/output"
  top: "inception_4e/1x1"
  param {
    lr_mult: 1
    decay_mult: 1
  }
  param {
    lr_mult: 2
    decay_mult: 0
  }
  convolution_param {
    num_output: 256
    kernel_size: 1
    weight_filler {
      type: "xavier"
    }
    bias_filler {
      type: "constant"
      value: 0.2
    }
  }
}
layer {
  name: "inception_4e/relu_1x1"
  type: "ReLU"
  bottom: "inception_4e/1x1"
  top: "inception_4e/1x1"
}
layer {
  name: "inception_4e/3x3_reduce"
  type: "Convolution"
  bottom: "inception_4d/output"
  top: "inception_4e/3x3_reduce"
  param {
    lr_mult: 1
    decay_mult: 1
  }
  param {
    lr_mult: 2
    decay_mult: 0
  }
  convolution_param {
    num_output: 160
    kernel_size: 1
    weight_filler {
      type: "xavier"
    }
    bias_filler {
      type: "constant"
      value: 0.2
    }
  }
}
layer {
  name: "inception_4e/relu_3x3_reduce"
  type: "ReLU"
  bottom: "inception_4e/3x3_reduce"
  top: "inception_4e/3x3_reduce"
}
layer {
  name: "inception_4e/3x3"
  type: "Convolution"
  bottom: "inception_4e/3x3_reduce"
  top: "inception_4e/3x3"
  param {
    lr_mult: 1
    decay_mult: 1
  }
  param {
    lr_mult: 2
    decay_mult: 0
  }
  convolution_param {
    num_output: 320
    pad: 1
    kernel_size: 3
    weight_filler {
      type: "xavier"
    }
    bias_filler {
      type: "constant"
      value: 0.2
    }
  }
}
layer {
  name: "inception_4e/relu_3x3"
  type: "ReLU"
  bottom: "inception_4e/3x3"
  top: "inception_4e/3x3"
}
layer {
  name: "inception_4e/5x5_reduce"
  type: "Convolution"
  bottom: "inception_4d/output"
  top: "inception_4e/5x5_reduce"
  param {
    lr_mult: 1
    decay_mult: 1
  }
  param {
    lr_mult: 2
    decay_mult: 0
  }
  convolution_param {
    num_output: 32
    kernel_size: 1
    weight_filler {
      type: "xavier"
    }
    bias_filler {
      type: "constant"
      value: 0.2
    }
  }
}
layer {
  name: "inception_4e/relu_5x5_reduce"
  type: "ReLU"
  bottom: "inception_4e/5x5_reduce"
  top: "inception_4e/5x5_reduce"
}
layer {
  name: "inception_4e/5x5"
  type: "Convolution"
  bottom: "inception_4e/5x5_reduce"
  top: "inception_4e/5x5"
  param {
    lr_mult: 1
    decay_mult: 1
  }
  param {
    lr_mult: 2
    decay_mult: 0
  }
  convolution_param {
    num_output: 128
    pad: 2
    kernel_size: 5
    weight_filler {
      type: "xavier"
    }
    bias_filler {
      type: "constant"
      value: 0.2
    }
  }
}
layer {
  name: "inception_4e/relu_5x5"
  type: "ReLU"
  bottom: "inception_4e/5x5"
  top: "inception_4e/5x5"
}
layer {
  name: "inception_4e/pool"
  type: "Pooling"
  bottom: "inception_4d
I0628 17:56:32.436336 127878 layer_factory.hpp:76] Creating layer data
I0628 17:56:32.436383 127878 net.cpp:106] Creating Layer data
I0628 17:56:32.436398 127878 net.cpp:411] data -> data
I0628 17:56:32.436437 127878 net.cpp:411] data -> label
I0628 17:56:32.436815 127878 image_data_layer.cpp:36] Opening file /data/dywang/Database/Proliferation/libs/stage04_mitosisDetection/training_examples/train.lst
I0628 17:56:32.460187 127878 image_data_layer.cpp:46] Shuffling data
I0628 17:56:32.464090 127878 image_data_layer.cpp:51] A total of 54084 images.
I0628 17:56:32.472832 127878 image_data_layer.cpp:78] output data size: 32,3,224,224
I0628 17:56:32.506677 127878 net.cpp:150] Setting up data
I0628 17:56:32.506744 127878 net.cpp:157] Top shape: 32 3 224 224 (4816896)
I0628 17:56:32.506757 127878 net.cpp:157] Top shape: 32 (32)
I0628 17:56:32.506765 127878 net.cpp:165] Memory required for data: 19267712
I0628 17:56:32.506783 127878 layer_factory.hpp:76] Creating layer label_data_1_split
I0628 17:56:32.506806 127878 net.cpp:106] Creating Layer label_data_1_split
I0628 17:56:32.506820 127878 net.cpp:454] label_data_1_split <- label
I0628 17:56:32.506839 127878 net.cpp:411] label_data_1_split -> label_data_1_split_0
I0628 17:56:32.506856 127878 net.cpp:411] label_data_1_split -> label_data_1_split_1
I0628 17:56:32.506872 127878 net.cpp:411] label_data_1_split -> label_data_1_split_2
I0628 17:56:32.506929 127878 net.cpp:150] Setting up label_data_1_split
I0628 17:56:32.506943 127878 net.cpp:157] Top shape: 32 (32)
I0628 17:56:32.506952 127878 net.cpp:157] Top shape: 32 (32)
I0628 17:56:32.506959 127878 net.cpp:157] Top shape: 32 (32)
I0628 17:56:32.506965 127878 net.cpp:165] Memory required for data: 19268096
I0628 17:56:32.506973 127878 layer_factory.hpp:76] Creating layer conv1/7x7_s2
I0628 17:56:32.507035 127878 net.cpp:106] Creating Layer conv1/7x7_s2
I0628 17:56:32.507045 127878 net.cpp:454] conv1/7x7_s2 <- data
I0628 17:56:32.507056 127878 net.cpp:411] conv1/7x7_s2 -> conv1/7x7_s2
I0628 17:56:32.626914 127878 net.cpp:150] Setting up conv1/7x7_s2
I0628 17:56:32.626971 127878 net.cpp:157] Top shape: 32 64 112 112 (25690112)
I0628 17:56:32.626981 127878 net.cpp:165] Memory required for data: 122028544
I0628 17:56:32.627008 127878 layer_factory.hpp:76] Creating layer conv1/relu_7x7
I0628 17:56:32.627029 127878 net.cpp:106] Creating Layer conv1/relu_7x7
I0628 17:56:32.627043 127878 net.cpp:454] conv1/relu_7x7 <- conv1/7x7_s2
I0628 17:56:32.627054 127878 net.cpp:397] conv1/relu_7x7 -> conv1/7x7_s2 (in-place)
I0628 17:56:32.627214 127878 net.cpp:150] Setting up conv1/relu_7x7
I0628 17:56:32.627230 127878 net.cpp:157] Top shape: 32 64 112 112 (25690112)
I0628 17:56:32.627239 127878 net.cpp:165] Memory required for data: 224788992
I0628 17:56:32.627248 127878 layer_factory.hpp:76] Creating layer pool1/3x3_s2
I0628 17:56:32.627260 127878 net.cpp:106] Creating Layer pool1/3x3_s2
I0628 17:56:32.627269 127878 net.cpp:454] pool1/3x3_s2 <- conv1/7x7_s2
I0628 17:56:32.627280 127878 net.cpp:411] pool1/3x3_s2 -> pool1/3x3_s2
I0628 17:56:32.627610 127878 net.cpp:150] Setting up pool1/3x3_s2
I0628 17:56:32.627630 127878 net.cpp:157] Top shape: 32 64 56 56 (6422528)
I0628 17:56:32.627638 127878 net.cpp:165] Memory required for data: 250479104
I0628 17:56:32.627647 127878 layer_factory.hpp:76] Creating layer pool1/norm1
I0628 17:56:32.627667 127878 net.cpp:106] Creating Layer pool1/norm1
I0628 17:56:32.627687 127878 net.cpp:454] pool1/norm1 <- pool1/3x3_s2
I0628 17:56:32.627701 127878 net.cpp:411] pool1/norm1 -> pool1/norm1
I0628 17:56:32.627882 127878 net.cpp:150] Setting up pool1/norm1
I0628 17:56:32.627898 127878 net.cpp:157] Top shape: 32 64 56 56 (6422528)
I0628 17:56:32.627907 127878 net.cpp:165] Memory required for data: 276169216
I0628 17:56:32.627914 127878 layer_factory.hpp:76] Creating layer conv2/3x3_reduce
I0628 17:56:32.627930 127878 net.cpp:106] Creating Layer conv2/3x3_reduce
I0628 17:56:32.627939 127878 net.cpp:454] conv2/3x3_reduce <- pool1/norm1
I0628 17:56:32.627951 127878 net.cpp:411] conv2/3x3_reduce -> conv2/3x3_reduce
I0628 17:56:32.629501 127878 cudnn_conv_layer.cpp:194] Reallocating workspace storage: 768
I0628 17:56:32.629534 127878 net.cpp:150] Setting up conv2/3x3_reduce
I0628 17:56:32.629546 127878 net.cpp:157] Top shape: 32 64 56 56 (6422528)
I0628 17:56:32.629554 127878 net.cpp:165] Memory required for data: 301859328
I0628 17:56:32.629575 127878 layer_factory.hpp:76] Creating layer conv2/relu_3x3_reduce
I0628 17:56:32.629587 127878 net.cpp:106] Creating Layer conv2/relu_3x3_reduce
I0628 17:56:32.629596 127878 net.cpp:454] conv2/relu_3x3_reduce <- conv2/3x3_reduce
I0628 17:56:32.629607 127878 net.cpp:397] conv2/relu_3x3_reduce -> conv2/3x3_reduce (in-place)
I0628 17:56:32.629926 127878 net.cpp:150] Setting up conv2/relu_3x3_reduce
I0628 17:56:32.629946 127878 net.cpp:157] Top shape: 32 64 56 56 (6422528)
I0628 17:56:32.629954 127878 net.cpp:165] Memory required for data: 327549440
I0628 17:56:32.629962 127878 layer_factory.hpp:76] Creating layer conv2/3x3
I0628 17:56:32.629978 127878 net.cpp:106] Creating Layer conv2/3x3
I0628 17:56:32.629988 127878 net.cpp:454] conv2/3x3 <- conv2/3x3_reduce
I0628 17:56:32.630003 127878 net.cpp:411] conv2/3x3 -> conv2/3x3
I0628 17:56:32.632514 127878 cudnn_conv_layer.cpp:194] Reallocating workspace storage: 6912
I0628 17:56:32.632709 127878 net.cpp:150] Setting up conv2/3x3
I0628 17:56:32.632732 127878 net.cpp:157] Top shape: 32 192 56 56 (19267584)
I0628 17:56:32.632741 127878 net.cpp:165] Memory required for data: 404619776
I0628 17:56:32.632755 127878 layer_factory.hpp:76] Creating layer conv2/relu_3x3
I0628 17:56:32.632769 127878 net.cpp:106] Creating Layer conv2/relu_3x3
I0628 17:56:32.632778 127878 net.cpp:454] conv2/relu_3x3 <- conv2/3x3
I0628 17:56:32.632789 127878 net.cpp:397] conv2/relu_3x3 -> conv2/3x3 (in-place)
I0628 17:56:32.632997 127878 net.cpp:150] Setting up conv2/relu_3x3
I0628 17:56:32.633015 127878 net.cpp:157] Top shape: 32 192 56 56 (19267584)
I0628 17:56:32.633028 127878 net.cpp:165] Memory required for data: 481690112
I0628 17:56:32.633038 127878 layer_factory.hpp:76] Creating layer conv2/norm2
I0628 17:56:32.633055 127878 net.cpp:106] Creating Layer conv2/norm2
I0628 17:56:32.633064 127878 net.cpp:454] conv2/norm2 <- conv2/3x3
I0628 17:56:32.633074 127878 net.cpp:411] conv2/norm2 -> conv2/norm2
I0628 17:56:32.633424 127878 net.cpp:150] Setting up conv2/norm2
I0628 17:56:32.633443 127878 net.cpp:157] Top shape: 32 192 56 56 (19267584)
I0628 17:56:32.633451 127878 net.cpp:165] Memory required for data: 558760448
I0628 17:56:32.633460 127878 layer_factory.hpp:76] Creating layer pool2/3x3_s2
I0628 17:56:32.633474 127878 net.cpp:106] Creating Layer pool2/3x3_s2
I0628 17:56:32.633484 127878 net.cpp:454] pool2/3x3_s2 <- conv2/norm2
I0628 17:56:32.633499 127878 net.cpp:411] pool2/3x3_s2 -> pool2/3x3_s2
I0628 17:56:32.633697 127878 net.cpp:150] Setting up pool2/3x3_s2
I0628 17:56:32.633723 127878 net.cpp:157] Top shape: 32 192 28 28 (4816896)
I0628 17:56:32.633731 127878 net.cpp:165] Memory required for data: 578028032
I0628 17:56:32.633750 127878 layer_factory.hpp:76] Creating layer pool2/3x3_s2_pool2/3x3_s2_0_split
I0628 17:56:32.633766 127878 net.cpp:106] Creating Layer pool2/3x3_s2_pool2/3x3_s2_0_split
I0628 17:56:32.633775 127878 net.cpp:454] pool2/3x3_s2_pool2/3x3_s2_0_split <- pool2/3x3_s2
I0628 17:56:32.633787 127878 net.cpp:411] pool2/3x3_s2_pool2/3x3_s2_0_split -> pool2/3x3_s2_pool2/3x3_s2_0_split_0
I0628 17:56:32.633800 127878 net.cpp:411] pool2/3x3_s2_pool2/3x3_s2_0_split -> pool2/3x3_s2_pool2/3x3_s2_0_split_1
I0628 17:56:32.633816 127878 net.cpp:411] pool2/3x3_s2_pool2/3x3_s2_0_split -> pool2/3x3_s2_pool2/3x3_s2_0_split_2
I0628 17:56:32.633826 127878 net.cpp:411] pool2/3x3_s2_pool2/3x3_s2_0_split -> pool2/3x3_s2_pool2/3x3_s2_0_split_3
I0628 17:56:32.633900 127878 net.cpp:150] Setting up pool2/3x3_s2_pool2/3x3_s2_0_split
I0628 17:56:32.633913 127878 net.cpp:157] Top shape: 32 192 28 28 (4816896)
I0628 17:56:32.633922 127878 net.cpp:157] Top shape: 32 192 28 28 (4816896)
I0628 17:56:32.633930 127878 net.cpp:157] Top shape: 32 192 28 28 (4816896)
I0628 17:56:32.633939 127878 net.cpp:157] Top shape: 32 192 28 28 (4816896)
I0628 17:56:32.633945 127878 net.cpp:165] Memory required for data: 655098368
I0628 17:56:32.633954 127878 layer_factory.hpp:76] Creating layer inception_3a/1x1
I0628 17:56:32.633967 127878 net.cpp:106] Creating Layer inception_3a/1x1
I0628 17:56:32.633976 127878 net.cpp:454] inception_3a/1x1 <- pool2/3x3_s2_pool2/3x3_s2_0_split_0
I0628 17:56:32.633987 127878 net.cpp:411] inception_3a/1x1 -> inception_3a/1x1
I0628 17:56:32.635614 127878 net.cpp:150] Setting up inception_3a/1x1
I0628 17:56:32.635637 127878 net.cpp:157] Top shape: 32 64 28 28 (1605632)
I0628 17:56:32.635645 127878 net.cpp:165] Memory required for data: 661520896
I0628 17:56:32.635656 127878 layer_factory.hpp:76] Creating layer inception_3a/relu_1x1
I0628 17:56:32.635670 127878 net.cpp:106] Creating Layer inception_3a/relu_1x1
I0628 17:56:32.635679 127878 net.cpp:454] inception_3a/relu_1x1 <- inception_3a/1x1
I0628 17:56:32.635689 127878 net.cpp:397] inception_3a/relu_1x1 -> inception_3a/1x1 (in-place)
I0628 17:56:32.635998 127878 net.cpp:150] Setting up inception_3a/relu_1x1
I0628 17:56:32.636016 127878 net.cpp:157] Top shape: 32 64 28 28 (1605632)
I0628 17:56:32.636024 127878 net.cpp:165] Memory required for data: 667943424
I0628 17:56:32.636032 127878 layer_factory.hpp:76] Creating layer inception_3a/3x3_reduce
I0628 17:56:32.636047 127878 net.cpp:106] Creating Layer inception_3a/3x3_reduce
I0628 17:56:32.636057 127878 net.cpp:454] inception_3a/3x3_reduce <- pool2/3x3_s2_pool2/3x3_s2_0_split_1
I0628 17:56:32.636073 127878 net.cpp:411] inception_3a/3x3_reduce -> inception_3a/3x3_reduce
I0628 17:56:32.637624 127878 cudnn_conv_layer.cpp:194] Reallocating workspace storage: 2304
I0628 17:56:32.637833 127878 net.cpp:150] Setting up inception_3a/3x3_reduce
I0628 17:56:32.637872 127878 net.cpp:157] Top shape: 32 96 28 28 (2408448)
I0628 17:56:32.637881 127878 net.cpp:165] Memory required for data: 677577216
I0628 17:56:32.637895 127878 layer_factory.hpp:76] Creating layer inception_3a/relu_3x3_reduce
I0628 17:56:32.637910 127878 net.cpp:106] Creating Layer inception_3a/relu_3x3_reduce
I0628 17:56:32.637920 127878 net.cpp:454] inception_3a/relu_3x3_reduce <- inception_3a/3x3_reduce
I0628 17:56:32.637930 127878 net.cpp:397] inception_3a/relu_3x3_reduce -> inception_3a/3x3_reduce (in-place)
I0628 17:56:32.638242 127878 net.cpp:150] Setting up inception_3a/relu_3x3_reduce
I0628 17:56:32.638262 127878 net.cpp:157] Top shape: 32 96 28 28 (2408448)
I0628 17:56:32.638269 127878 net.cpp:165] Memory required for data: 687211008
I0628 17:56:32.638278 127878 layer_factory.hpp:76] Creating layer inception_3a/3x3
I0628 17:56:32.638306 127878 net.cpp:106] Creating Layer inception_3a/3x3
I0628 17:56:32.638319 127878 net.cpp:454] inception_3a/3x3 <- inception_3a/3x3_reduce
I0628 17:56:32.638331 127878 net.cpp:411] inception_3a/3x3 -> inception_3a/3x3
I0628 17:56:32.640228 127878 net.cpp:150] Setting up inception_3a/3x3
I0628 17:56:32.640249 127878 net.cpp:157] Top shape: 32 128 28 28 (3211264)
I0628 17:56:32.640257 127878 net.cpp:165] Memory required for data: 700056064
I0628 17:56:32.640269 127878 layer_factory.hpp:76] Creating layer inception_3a/relu_3x3
I0628 17:56:32.640282 127878 net.cpp:106] Creating Layer inception_3a/relu_3x3
I0628 17:56:32.640291 127878 net.cpp:454] inception_3a/relu_3x3 <- inception_3a/3x3
I0628 17:56:32.640301 127878 net.cpp:397] inception_3a/relu_3x3 -> inception_3a/3x3 (in-place)
I0628 17:56:32.640472 127878 net.cpp:150] Setting up inception_3a/relu_3x3
I0628 17:56:32.640489 127878 net.cpp:157] Top shape: 32 128 28 28 (3211264)
I0628 17:56:32.640496 127878 net.cpp:165] Memory required for data: 712901120
I0628 17:56:32.640504 127878 layer_factory.hpp:76] Creating layer inception_3a/5x5_reduce
I0628 17:56:32.640518 127878 net.cpp:106] Creating Layer inception_3a/5x5_reduce
I0628 17:56:32.640529 127878 net.cpp:454] inception_3a/5x5_reduce <- pool2/3x3_s2_pool2/3x3_s2_0_split_2
I0628 17:56:32.640540 127878 net.cpp:411] inception_3a/5x5_reduce -> inception_3a/5x5_reduce
I0628 17:56:32.641721 127878 net.cpp:150] Setting up inception_3a/5x5_reduce
I0628 17:56:32.641752 127878 net.cpp:157] Top shape: 32 16 28 28 (401408)
I0628 17:56:32.641775 127878 net.cpp:165] Memory required for data: 714506752
I0628 17:56:32.641788 127878 layer_factory.hpp:76] Creating layer inception_3a/relu_5x5_reduce
I0628 17:56:32.641801 127878 net.cpp:106] Creating Layer inception_3a/relu_5x5_reduce
I0628 17:56:32.641819 127878 net.cpp:454] inception_3a/relu_5x5_reduce <- inception_3a/5x5_reduce
I0628 17:56:32.641832 127878 net.cpp:397] inception_3a/relu_5x5_reduce -> inception_3a/5x5_reduce (in-place)
I0628 17:56:32.642156 127878 net.cpp:150] Setting up inception_3a/relu_5x5_reduce
I0628 17:56:32.642176 127878 net.cpp:157] Top shape: 32 16 28 28 (401408)
I0628 17:56:32.642184 127878 net.cpp:165] Memory required for data: 716112384
I0628 17:56:32.642192 127878 layer_factory.hpp:76] Creating layer inception_3a/5x5
I0628 17:56:32.642207 127878 net.cpp:106] Creating Layer inception_3a/5x5
I0628 17:56:32.642216 127878 net.cpp:454] inception_3a/5x5 <- inception_3a/5x5_reduce
I0628 17:56:32.642232 127878 net.cpp:411] inception_3a/5x5 -> inception_3a/5x5
I0628 17:56:32.643172 127878 net.cpp:150] Setting up inception_3a/5x5
I0628 17:56:32.643193 127878 net.cpp:157] Top shape: 32 32 28 28 (802816)
I0628 17:56:32.643200 127878 net.cpp:165] Memory required for data: 719323648
I0628 17:56:32.643211 127878 layer_factory.hpp:76] Creating layer inception_3a/relu_5x5
I0628 17:56:32.643225 127878 net.cpp:106] Creating Layer inception_3a/relu_5x5
I0628 17:56:32.643234 127878 net.cpp:454] inception_3a/relu_5x5 <- inception_3a/5x5
I0628 17:56:32.643244 127878 net.cpp:397] inception_3a/relu_5x5 -> inception_3a/5x5 (in-place)
I0628 17:56:32.643550 127878 net.cpp:150] Setting up inception_3a/relu_5x5
I0628 17:56:32.643584 127878 net.cpp:157] Top shape: 32 32 28 28 (802816)
I0628 17:56:32.643592 127878 net.cpp:165] Memory required for data: 722534912
I0628 17:56:32.643600 127878 layer_factory.hpp:76] Creating layer inception_3a/pool
I0628 17:56:32.643615 127878 net.cpp:106] Creating Layer inception_3a/pool
I0628 17:56:32.643625 127878 net.cpp:454] inception_3a/pool <- pool2/3x3_s2_pool2/3x3_s2_0_split_3
I0628 17:56:32.643637 127878 net.cpp:411] inception_3a/pool -> inception_3a/pool
I0628 17:56:32.643844 127878 net.cpp:150] Setting up inception_3a/pool
I0628 17:56:32.643863 127878 net.cpp:157] Top shape: 32 192 28 28 (4816896)
I0628 17:56:32.643872 127878 net.cpp:165] Memory required for data: 741802496
I0628 17:56:32.643879 127878 layer_factory.hpp:76] Creating layer inception_3a/pool_proj
I0628 17:56:32.643893 127878 net.cpp:106] Creating Layer inception_3a/pool_proj
I0628 17:56:32.643903 127878 net.cpp:454] inception_3a/pool_proj <- inception_3a/pool
I0628 17:56:32.643913 127878 net.cpp:411] inception_3a/pool_proj -> inception_3a/pool_proj
I0628 17:56:32.644951 127878 net.cpp:150] Setting up inception_3a/pool_proj
I0628 17:56:32.644973 127878 net.cpp:157] Top shape: 32 32 28 28 (802816)
I0628 17:56:32.644980 127878 net.cpp:165] Memory required for data: 745013760
I0628 17:56:32.644997 127878 layer_factory.hpp:76] Creating layer inception_3a/relu_pool_proj
I0628 17:56:32.645009 127878 net.cpp:106] Creating Layer inception_3a/relu_pool_proj
I0628 17:56:32.645018 127878 net.cpp:454] inception_3a/relu_pool_proj <- inception_3a/pool_proj
I0628 17:56:32.645028 127878 net.cpp:397] inception_3a/relu_pool_proj -> inception_3a/pool_proj (in-place)
I0628 17:56:32.645334 127878 net.cpp:150] Setting up inception_3a/relu_pool_proj
I0628 17:56:32.645354 127878 net.cpp:157] Top shape: 32 32 28 28 (802816)
I0628 17:56:32.645364 127878 net.cpp:165] Memory required for data: 748225024
I0628 17:56:32.645371 127878 layer_factory.hpp:76] Creating layer inception_3a/output
I0628 17:56:32.645388 127878 net.cpp:106] Creating Layer inception_3a/output
I0628 17:56:32.645397 127878 net.cpp:454] inception_3a/output <- inception_3a/1x1
I0628 17:56:32.645409 127878 net.cpp:454] inception_3a/output <- inception_3a/3x3
I0628 17:56:32.645418 127878 net.cpp:454] inception_3a/output <- inception_3a/5x5
I0628 17:56:32.645427 127878 net.cpp:454] inception_3a/output <- inception_3a/pool_proj
I0628 17:56:32.645437 127878 net.cpp:411] inception_3a/output -> inception_3a/output
I0628 17:56:32.645475 127878 net.cpp:150] Setting up inception_3a/output
I0628 17:56:32.645489 127878 net.cpp:157] Top shape: 32 256 28 28 (6422528)
I0628 17:56:32.645500 127878 net.cpp:165] Memory required for data: 773915136
I0628 17:56:32.645509 127878 layer_factory.hpp:76] Creating layer inception_3a/output_inception_3a/output_0_split
I0628 17:56:32.645520 127878 net.cpp:106] Creating Layer inception_3a/output_inception_3a/output_0_split
I0628 17:56:32.645529 127878 net.cpp:454] inception_3a/output_inception_3a/output_0_split <- inception_3a/output
I0628 17:56:32.645542 127878 net.cpp:411] inception_3a/output_inception_3a/output_0_split -> inception_3a/output_inception_3a/output_0_split_0
I0628 17:56:32.645557 127878 net.cpp:411] inception_3a/output_inception_3a/output_0_split -> inception_3a/output_inception_3a/output_0_split_1
I0628 17:56:32.645568 127878 net.cpp:411] inception_3a/output_inception_3a/output_0_split -> inception_3a/output_inception_3a/output_0_split_2
I0628 17:56:32.645579 127878 net.cpp:411] inception_3a/output_inception_3a/output_0_split -> inception_3a/output_inception_3a/output_0_split_3
I0628 17:56:32.645642 127878 net.cpp:150] Setting up inception_3a/output_inception_3a/output_0_split
I0628 17:56:32.645656 127878 net.cpp:157] Top shape: 32 256 28 28 (6422528)
I0628 17:56:32.645665 127878 net.cpp:157] Top shape: 32 256 28 28 (6422528)
I0628 17:56:32.645673 127878 net.cpp:157] Top shape: 32 256 28 28 (6422528)
I0628 17:56:32.645681 127878 net.cpp:157] Top shape: 32 256 28 28 (6422528)
I0628 17:56:32.645697 127878 net.cpp:165] Memory required for data: 876675584
I0628 17:56:32.645720 127878 layer_factory.hpp:76] Creating layer inception_3b/1x1
I0628 17:56:32.645735 127878 net.cpp:106] Creating Layer inception_3b/1x1
I0628 17:56:32.645748 127878 net.cpp:454] inception_3b/1x1 <- inception_3a/output_inception_3a/output_0_split_0
I0628 17:56:32.645774 127878 net.cpp:411] inception_3b/1x1 -> inception_3b/1x1
I0628 17:56:32.646993 127878 cudnn_conv_layer.cpp:194] Reallocating workspace storage: 3072
I0628 17:56:32.647028 127878 net.cpp:150] Setting up inception_3b/1x1
I0628 17:56:32.647040 127878 net.cpp:157] Top shape: 32 128 28 28 (3211264)
I0628 17:56:32.647049 127878 net.cpp:165] Memory required for data: 889520640
I0628 17:56:32.647060 127878 layer_factory.hpp:76] Creating layer inception_3b/relu_1x1
I0628 17:56:32.647074 127878 net.cpp:106] Creating Layer inception_3b/relu_1x1
I0628 17:56:32.647083 127878 net.cpp:454] inception_3b/relu_1x1 <- inception_3b/1x1
I0628 17:56:32.647094 127878 net.cpp:397] inception_3b/relu_1x1 -> inception_3b/1x1 (in-place)
I0628 17:56:32.647274 127878 net.cpp:150] Setting up inception_3b/relu_1x1
I0628 17:56:32.647289 127878 net.cpp:157] Top shape: 32 128 28 28 (3211264)
I0628 17:56:32.647296 127878 net.cpp:165] Memory required for data: 902365696
I0628 17:56:32.647305 127878 layer_factory.hpp:76] Creating layer inception_3b/3x3_reduce
I0628 17:56:32.647320 127878 net.cpp:106] Creating Layer inception_3b/3x3_reduce
I0628 17:56:32.647328 127878 net.cpp:454] inception_3b/3x3_reduce <- inception_3a/output_inception_3a/output_0_split_1
I0628 17:56:32.647341 127878 net.cpp:411] inception_3b/3x3_reduce -> inception_3b/3x3_reduce
I0628 17:56:32.648520 127878 cudnn_conv_layer.cpp:194] Reallocating workspace storage: 3072
I0628 17:56:32.648548 127878 net.cpp:150] Setting up inception_3b/3x3_reduce
I0628 17:56:32.648560 127878 net.cpp:157] Top shape: 32 128 28 28 (3211264)
I0628 17:56:32.648567 127878 net.cpp:165] Memory required for data: 915210752
I0628 17:56:32.648579 127878 layer_factory.hpp:76] Creating layer inception_3b/relu_3x3_reduce
I0628 17:56:32.648592 127878 net.cpp:106] Creating Layer inception_3b/relu_3x3_reduce
I0628 17:56:32.648602 127878 net.cpp:454] inception_3b/relu_3x3_reduce <- inception_3b/3x3_reduce
I0628 17:56:32.648612 127878 net.cpp:397] inception_3b/relu_3x3_reduce -> inception_3b/3x3_reduce (in-place)
I0628 17:56:32.648787 127878 net.cpp:150] Setting up inception_3b/relu_3x3_reduce
I0628 17:56:32.648804 127878 net.cpp:157] Top shape: 32 128 28 28 (3211264)
I0628 17:56:32.648811 127878 net.cpp:165] Memory required for data: 928055808
I0628 17:56:32.648819 127878 layer_factory.hpp:76] Creating layer inception_3b/3x3
I0628 17:56:32.648836 127878 net.cpp:106] Creating Layer inception_3b/3x3
I0628 17:56:32.648846 127878 net.cpp:454] inception_3b/3x3 <- inception_3b/3x3_reduce
I0628 17:56:32.648859 127878 net.cpp:411] inception_3b/3x3 -> inception_3b/3x3
I0628 17:56:32.651916 127878 cudnn_conv_layer.cpp:194] Reallocating workspace storage: 13824
I0628 17:56:32.651953 127878 net.cpp:150] Setting up inception_3b/3x3
I0628 17:56:32.651965 127878 net.cpp:157] Top shape: 32 192 28 28 (4816896)
I0628 17:56:32.651973 127878 net.cpp:165] Memory required for data: 947323392
I0628 17:56:32.651984 127878 layer_factory.hpp:76] Creating layer inception_3b/relu_3x3
I0628 17:56:32.651995 127878 net.cpp:106] Creating Layer inception_3b/relu_3x3
I0628 17:56:32.652014 127878 net.cpp:454] inception_3b/relu_3x3 <- inception_3b/3x3
I0628 17:56:32.652027 127878 net.cpp:397] inception_3b/relu_3x3 -> inception_3b/3x3 (in-place)
I0628 17:56:32.652330 127878 net.cpp:150] Setting up inception_3b/relu_3x3
I0628 17:56:32.652350 127878 net.cpp:157] Top shape: 32 192 28 28 (4816896)
I0628 17:56:32.652357 127878 net.cpp:165] Memory required for data: 966590976
I0628 17:56:32.652366 127878 layer_factory.hpp:76] Creating layer inception_3b/5x5_reduce
I0628 17:56:32.652380 127878 net.cpp:106] Creating Layer inception_3b/5x5_reduce
I0628 17:56:32.652390 127878 net.cpp:454] inception_3b/5x5_reduce <- inception_3a/output_inception_3a/output_0_split_2
I0628 17:56:32.652426 127878 net.cpp:411] inception_3b/5x5_reduce -> inception_3b/5x5_reduce
I0628 17:56:32.653456 127878 net.cpp:150] Setting up inception_3b/5x5_reduce
I0628 17:56:32.653476 127878 net.cpp:157] Top shape: 32 32 28 28 (802816)
I0628 17:56:32.653486 127878 net.cpp:165] Memory required for data: 969802240
I0628 17:56:32.653496 127878 layer_factory.hpp:76] Creating layer inception_3b/relu_5x5_reduce
I0628 17:56:32.653509 127878 net.cpp:106] Creating Layer inception_3b/relu_5x5_reduce
I0628 17:56:32.653519 127878 net.cpp:454] inception_3b/relu_5x5_reduce <- inception_3b/5x5_reduce
I0628 17:56:32.653529 127878 net.cpp:397] inception_3b/relu_5x5_reduce -> inception_3b/5x5_reduce (in-place)
I0628 17:56:32.653713 127878 net.cpp:150] Setting up inception_3b/relu_5x5_reduce
I0628 17:56:32.653730 127878 net.cpp:157] Top shape: 32 32 28 28 (802816)
I0628 17:56:32.653744 127878 net.cpp:165] Memory required for data: 973013504
I0628 17:56:32.653758 127878 layer_factory.hpp:76] Creating layer inception_3b/5x5
I0628 17:56:32.653772 127878 net.cpp:106] Creating Layer inception_3b/5x5
I0628 17:56:32.653782 127878 net.cpp:454] inception_3b/5x5 <- inception_3b/5x5_reduce
I0628 17:56:32.653795 127878 net.cpp:411] inception_3b/5x5 -> inception_3b/5x5
I0628 17:56:32.655905 127878 cudnn_conv_layer.cpp:194] Reallocating workspace storage: 9600
I0628 17:56:32.655938 127878 net.cpp:150] Setting up inception_3b/5x5
I0628 17:56:32.655951 127878 net.cpp:157] Top shape: 32 96 28 28 (2408448)
I0628 17:56:32.655959 127878 net.cpp:165] Memory required for data: 982647296
I0628 17:56:32.655972 127878 layer_factory.hpp:76] Creating layer inception_3b/relu_5x5
I0628 17:56:32.655984 127878 net.cpp:106] Creating Layer inception_3b/relu_5x5
I0628 17:56:32.655995 127878 net.cpp:454] inception_3b/relu_5x5 <- inception_3b/5x5
I0628 17:56:32.656008 127878 net.cpp:397] inception_3b/relu_5x5 -> inception_3b/5x5 (in-place)
I0628 17:56:32.656188 127878 net.cpp:150] Setting up inception_3b/relu_5x5
I0628 17:56:32.656206 127878 net.cpp:157] Top shape: 32 96 28 28 (2408448)
I0628 17:56:32.656213 127878 net.cpp:165] Memory required for data: 992281088
I0628 17:56:32.656222 127878 layer_factory.hpp:76] Creating layer inception_3b/pool
I0628 17:56:32.656234 127878 net.cpp:106] Creating Layer inception_3b/pool
I0628 17:56:32.656242 127878 net.cpp:454] inception_3b/pool <- inception_3a/output_inception_3a/output_0_split_3
I0628 17:56:32.656252 127878 net.cpp:411] inception_3b/pool -> inception_3b/pool
I0628 17:56:32.656581 127878 net.cpp:150] Setting up inception_3b/pool
I0628 17:56:32.656600 127878 net.cpp:157] Top shape: 32 256 28 28 (6422528)
I0628 17:56:32.656610 127878 net.cpp:165] Memory required for data: 1017971200
I0628 17:56:32.656620 127878 layer_factory.hpp:76] Creating layer inception_3b/pool_proj
I0628 17:56:32.656631 127878 net.cpp:106] Creating Layer inception_3b/pool_proj
I0628 17:56:32.656641 127878 net.cpp:454] inception_3b/pool_proj <- inception_3b/pool
I0628 17:56:32.656652 127878 net.cpp:411] inception_3b/pool_proj -> inception_3b/pool_proj
I0628 17:56:32.657923 127878 cudnn_conv_layer.cpp:194] Reallocating workspace storage: 3072
I0628 17:56:32.657955 127878 net.cpp:150] Setting up inception_3b/pool_proj
I0628 17:56:32.657968 127878 net.cpp:157] Top shape: 32 64 28 28 (1605632)
I0628 17:56:32.657976 127878 net.cpp:165] Memory required for data: 1024393728
I0628 17:56:32.657989 127878 layer_factory.hpp:76] Creating layer inception_3b/relu_pool_proj
I0628 17:56:32.658004 127878 net.cpp:106] Creating Layer inception_3b/relu_pool_proj
I0628 17:56:32.658015 127878 net.cpp:454] inception_3b/relu_pool_proj <- inception_3b/pool_proj
I0628 17:56:32.658025 127878 net.cpp:397] inception_3b/relu_pool_proj -> inception_3b/pool_proj (in-place)
I0628 17:56:32.658192 127878 net.cpp:150] Setting up inception_3b/relu_pool_proj
I0628 17:56:32.658208 127878 net.cpp:157] Top shape: 32 64 28 28 (1605632)
I0628 17:56:32.658216 127878 net.cpp:165] Memory required for data: 1030816256
I0628 17:56:32.658224 127878 layer_factory.hpp:76] Creating layer inception_3b/output
I0628 17:56:32.658254 127878 net.cpp:106] Creating Layer inception_3b/output
I0628 17:56:32.658265 127878 net.cpp:454] inception_3b/output <- inception_3b/1x1
I0628 17:56:32.658274 127878 net.cpp:454] inception_3b/output <- inception_3b/3x3
I0628 17:56:32.658284 127878 net.cpp:454] inception_3b/output <- inception_3b/5x5
I0628 17:56:32.658293 127878 net.cpp:454] inception_3b/output <- inception_3b/pool_proj
I0628 17:56:32.658303 127878 net.cpp:411] inception_3b/output -> inception_3b/output
I0628 17:56:32.658340 127878 net.cpp:150] Setting up inception_3b/output
I0628 17:56:32.658354 127878 net.cpp:157] Top shape: 32 480 28 28 (12042240)
I0628 17:56:32.658362 127878 net.cpp:165] Memory required for data: 1078985216
I0628 17:56:32.658370 127878 layer_factory.hpp:76] Creating layer pool3/3x3_s2
I0628 17:56:32.658383 127878 net.cpp:106] Creating Layer pool3/3x3_s2
I0628 17:56:32.658395 127878 net.cpp:454] pool3/3x3_s2 <- inception_3b/output
I0628 17:56:32.658407 127878 net.cpp:411] pool3/3x3_s2 -> pool3/3x3_s2
I0628 17:56:32.658740 127878 net.cpp:150] Setting up pool3/3x3_s2
I0628 17:56:32.658758 127878 net.cpp:157] Top shape: 32 480 14 14 (3010560)
I0628 17:56:32.658766 127878 net.cpp:165] Memory required for data: 1091027456
I0628 17:56:32.658774 127878 layer_factory.hpp:76] Creating layer pool3/3x3_s2_pool3/3x3_s2_0_split
I0628 17:56:32.658788 127878 net.cpp:106] Creating Layer pool3/3x3_s2_pool3/3x3_s2_0_split
I0628 17:56:32.658797 127878 net.cpp:454] pool3/3x3_s2_pool3/3x3_s2_0_split <- pool3/3x3_s2
I0628 17:56:32.658807 127878 net.cpp:411] pool3/3x3_s2_pool3/3x3_s2_0_split -> pool3/3x3_s2_pool3/3x3_s2_0_split_0
I0628 17:56:32.658819 127878 net.cpp:411] pool3/3x3_s2_pool3/3x3_s2_0_split -> pool3/3x3_s2_pool3/3x3_s2_0_split_1
I0628 17:56:32.658831 127878 net.cpp:411] pool3/3x3_s2_pool3/3x3_s2_0_split -> pool3/3x3_s2_pool3/3x3_s2_0_split_2
I0628 17:56:32.658843 127878 net.cpp:411] pool3/3x3_s2_pool3/3x3_s2_0_split -> pool3/3x3_s2_pool3/3x3_s2_0_split_3
I0628 17:56:32.658907 127878 net.cpp:150] Setting up pool3/3x3_s2_pool3/3x3_s2_0_split
I0628 17:56:32.658921 127878 net.cpp:157] Top shape: 32 480 14 14 (3010560)
I0628 17:56:32.658929 127878 net.cpp:157] Top shape: 32 480 14 14 (3010560)
I0628 17:56:32.658937 127878 net.cpp:157] Top shape: 32 480 14 14 (3010560)
I0628 17:56:32.658946 127878 net.cpp:157] Top shape: 32 480 14 14 (3010560)
I0628 17:56:32.658952 127878 net.cpp:165] Memory required for data: 1139196416
I0628 17:56:32.658967 127878 layer_factory.hpp:76] Creating layer inception_4a/1x1
I0628 17:56:32.658982 127878 net.cpp:106] Creating Layer inception_4a/1x1
I0628 17:56:32.658993 127878 net.cpp:454] inception_4a/1x1 <- pool3/3x3_s2_pool3/3x3_s2_0_split_0
I0628 17:56:32.659005 127878 net.cpp:411] inception_4a/1x1 -> inception_4a/1x1
I0628 17:56:32.660581 127878 cudnn_conv_layer.cpp:194] Reallocating workspace storage: 5760
I0628 17:56:32.660621 127878 net.cpp:150] Setting up inception_4a/1x1
I0628 17:56:32.660634 127878 net.cpp:157] Top shape: 32 192 14 14 (1204224)
I0628 17:56:32.660642 127878 net.cpp:165] Memory required for data: 1144013312
I0628 17:56:32.660652 127878 layer_factory.hpp:76] Creating layer inception_4a/relu_1x1
I0628 17:56:32.660666 127878 net.cpp:106] Creating Layer inception_4a/relu_1x1
I0628 17:56:32.660678 127878 net.cpp:454] inception_4a/relu_1x1 <- inception_4a/1x1
I0628 17:56:32.660691 127878 net.cpp:397] inception_4a/relu_1x1 -> inception_4a/1x1 (in-place)
I0628 17:56:32.660861 127878 net.cpp:150] Setting up inception_4a/relu_1x1
I0628 17:56:32.660876 127878 net.cpp:157] Top shape: 32 192 14 14 (1204224)
I0628 17:56:32.660883 127878 net.cpp:165] Memory required for data: 1148830208
I0628 17:56:32.660892 127878 layer_factory.hpp:76] Creating layer inception_4a/3x3_reduce
I0628 17:56:32.660907 127878 net.cpp:106] Creating Layer inception_4a/3x3_reduce
I0628 17:56:32.660917 127878 net.cpp:454] inception_4a/3x3_reduce <- pool3/3x3_s2_pool3/3x3_s2_0_split_1
I0628 17:56:32.660928 127878 net.cpp:411] inception_4a/3x3_reduce -> inception_4a/3x3_reduce
I0628 17:56:32.662243 127878 cudnn_conv_layer.cpp:194] Reallocating workspace storage: 5760
I0628 17:56:32.662292 127878 net.cpp:150] Setting up inception_4a/3x3_reduce
I0628 17:56:32.662303 127878 net.cpp:157] Top shape: 32 96 14 14 (602112)
I0628 17:56:32.662312 127878 net.cpp:165] Memory required for data: 1151238656
I0628 17:56:32.662331 127878 layer_factory.hpp:76] Creating layer inception_4a/relu_3x3_reduce
I0628 17:56:32.662348 127878 net.cpp:106] Creating Layer inception_4a/relu_3x3_reduce
I0628 17:56:32.662356 127878 net.cpp:454] inception_4a/relu_3x3_reduce <- inception_4a/3x3_reduce
I0628 17:56:32.662367 127878 net.cpp:397] inception_4a/relu_3x3_reduce -> inception_4a/3x3_reduce (in-place)
I0628 17:56:32.662536 127878 net.cpp:150] Setting up inception_4a/relu_3x3_reduce
I0628 17:56:32.662552 127878 net.cpp:157] Top shape: 32 96 14 14 (602112)
I0628 17:56:32.662560 127878 net.cpp:165] Memory required for data: 1153647104
I0628 17:56:32.662569 127878 layer_factory.hpp:76] Creating layer inception_4a/3x3
I0628 17:56:32.662583 127878 net.cpp:106] Creating Layer inception_4a/3x3
I0628 17:56:32.662593 127878 net.cpp:454] inception_4a/3x3 <- inception_4a/3x3_reduce
I0628 17:56:32.662605 127878 net.cpp:411] inception_4a/3x3 -> inception_4a/3x3
I0628 17:56:32.665351 127878 cudnn_conv_layer.cpp:194] Reallocating workspace storage: 10368
I0628 17:56:32.665390 127878 net.cpp:150] Setting up inception_4a/3x3
I0628 17:56:32.665401 127878 net.cpp:157] Top shape: 32 208 14 14 (1304576)
I0628 17:56:32.665410 127878 net.cpp:165] Memory required for data: 1158865408
I0628 17:56:32.665421 127878 layer_factory.hpp:76] Creating layer inception_4a/relu_3x3
I0628 17:56:32.665432 127878 net.cpp:106] Creating Layer inception_4a/relu_3x3
I0628 17:56:32.665441 127878 net.cpp:454] inception_4a/relu_3x3 <- inception_4a/3x3
I0628 17:56:32.665454 127878 net.cpp:397] inception_4a/relu_3x3 -> inception_4a/3x3 (in-place)
I0628 17:56:32.665784 127878 net.cpp:150] Setting up inception_4a/relu_3x3
I0628 17:56:32.665804 127878 net.cpp:157] Top shape: 32 208 14 14 (1304576)
I0628 17:56:32.665812 127878 net.cpp:165] Memory required for data: 1164083712
I0628 17:56:32.665819 127878 layer_factory.hpp:76] Creating layer inception_4a/5x5_reduce
I0628 17:56:32.665834 127878 net.cpp:106] Creating Layer inception_4a/5x5_reduce
I0628 17:56:32.665843 127878 net.cpp:454] inception_4a/5x5_reduce <- pool3/3x3_s2_pool3/3x3_s2_0_split_2
I0628 17:56:32.665854 127878 net.cpp:411] inception_4a/5x5_reduce -> inception_4a/5x5_reduce
I0628 17:56:32.666894 127878 net.cpp:150] Setting up inception_4a/5x5_reduce
I0628 17:56:32.666918 127878 net.cpp:157] Top shape: 32 16 14 14 (100352)
I0628 17:56:32.666925 127878 net.cpp:165] Memory required for data: 1164485120
I0628 17:56:32.666936 127878 layer_factory.hpp:76] Creating layer inception_4a/relu_5x5_reduce
I0628 17:56:32.666949 127878 net.cpp:106] Creating Layer inception_4a/relu_5x5_reduce
I0628 17:56:32.666960 127878 net.cpp:454] inception_4a/relu_5x5_reduce <- inception_4a/5x5_reduce
I0628 17:56:32.666970 127878 net.cpp:397] inception_4a/relu_5x5_reduce -> inception_4a/5x5_reduce (in-place)
I0628 17:56:32.667142 127878 net.cpp:150] Setting up inception_4a/relu_5x5_reduce
I0628 17:56:32.667160 127878 net.cpp:157] Top shape: 32 16 14 14 (100352)
I0628 17:56:32.667166 127878 net.cpp:165] Memory required for data: 1164886528
I0628 17:56:32.667174 127878 layer_factory.hpp:76] Creating layer inception_4a/5x5
I0628 17:56:32.667189 127878 net.cpp:106] Creating Layer inception_4a/5x5
I0628 17:56:32.667198 127878 net.cpp:454] inception_4a/5x5 <- inception_4a/5x5_reduce
I0628 17:56:32.667209 127878 net.cpp:411] inception_4a/5x5 -> inception_4a/5x5
I0628 17:56:32.668326 127878 net.cpp:150] Setting up inception_4a/5x5
I0628 17:56:32.668347 127878 net.cpp:157] Top shape: 32 48 14 14 (301056)
I0628 17:56:32.668355 127878 net.cpp:165] Memory required for data: 1166090752
I0628 17:56:32.668366 127878 layer_factory.hpp:76] Creating layer inception_4a/relu_5x5
I0628 17:56:32.668377 127878 net.cpp:106] Creating Layer inception_4a/relu_5x5
I0628 17:56:32.668388 127878 net.cpp:454] inception_4a/relu_5x5 <- inception_4a/5x5
I0628 17:56:32.668416 127878 net.cpp:397] inception_4a/relu_5x5 -> inception_4a/5x5 (in-place)
I0628 17:56:32.668591 127878 net.cpp:150] Setting up inception_4a/relu_5x5
I0628 17:56:32.668607 127878 net.cpp:157] Top shape: 32 48 14 14 (301056)
I0628 17:56:32.668614 127878 net.cpp:165] Memory required for data: 1167294976
I0628 17:56:32.668623 127878 layer_factory.hpp:76] Creating layer inception_4a/pool
I0628 17:56:32.668638 127878 net.cpp:106] Creating Layer inception_4a/pool
I0628 17:56:32.668648 127878 net.cpp:454] inception_4a/pool <- pool3/3x3_s2_pool3/3x3_s2_0_split_3
I0628 17:56:32.668658 127878 net.cpp:411] inception_4a/pool -> inception_4a/pool
I0628 17:56:32.668992 127878 net.cpp:150] Setting up inception_4a/pool
I0628 17:56:32.669010 127878 net.cpp:157] Top shape: 32 480 14 14 (3010560)
I0628 17:56:32.669019 127878 net.cpp:165] Memory required for data: 1179337216
I0628 17:56:32.669028 127878 layer_factory.hpp:76] Creating layer inception_4a/pool_proj
I0628 17:56:32.669044 127878 net.cpp:106] Creating Layer inception_4a/pool_proj
I0628 17:56:32.669054 127878 net.cpp:454] inception_4a/pool_proj <- inception_4a/pool
I0628 17:56:32.669066 127878 net.cpp:411] inception_4a/pool_proj -> inception_4a/pool_proj
I0628 17:56:32.670298 127878 net.cpp:150] Setting up inception_4a/pool_proj
I0628 17:56:32.670320 127878 net.cpp:157] Top shape: 32 64 14 14 (401408)
I0628 17:56:32.670327 127878 net.cpp:165] Memory required for data: 1180942848
I0628 17:56:32.670338 127878 layer_factory.hpp:76] Creating layer inception_4a/relu_pool_proj
I0628 17:56:32.670352 127878 net.cpp:106] Creating Layer inception_4a/relu_pool_proj
I0628 17:56:32.670364 127878 net.cpp:454] inception_4a/relu_pool_proj <- inception_4a/pool_proj
I0628 17:56:32.670374 127878 net.cpp:397] inception_4a/relu_pool_proj -> inception_4a/pool_proj (in-place)
I0628 17:56:32.670548 127878 net.cpp:150] Setting up inception_4a/relu_pool_proj
I0628 17:56:32.670565 127878 net.cpp:157] Top shape: 32 64 14 14 (401408)
I0628 17:56:32.670572 127878 net.cpp:165] Memory required for data: 1182548480
I0628 17:56:32.670580 127878 layer_factory.hpp:76] Creating layer inception_4a/output
I0628 17:56:32.670593 127878 net.cpp:106] Creating Layer inception_4a/output
I0628 17:56:32.670603 127878 net.cpp:454] inception_4a/output <- inception_4a/1x1
I0628 17:56:32.670613 127878 net.cpp:454] inception_4a/output <- inception_4a/3x3
I0628 17:56:32.670621 127878 net.cpp:454] inception_4a/output <- inception_4a/5x5
I0628 17:56:32.670630 127878 net.cpp:454] inception_4a/output <- inception_4a/pool_proj
I0628 17:56:32.670640 127878 net.cpp:411] inception_4a/output -> inception_4a/output
I0628 17:56:32.670677 127878 net.cpp:150] Setting up inception_4a/output
I0628 17:56:32.670691 127878 net.cpp:157] Top shape: 32 512 14 14 (3211264)
I0628 17:56:32.670701 127878 net.cpp:165] Memory required for data: 1195393536
I0628 17:56:32.670708 127878 layer_factory.hpp:76] Creating layer inception_4a/output_inception_4a/output_0_split
I0628 17:56:32.670719 127878 net.cpp:106] Creating Layer inception_4a/output_inception_4a/output_0_split
I0628 17:56:32.670728 127878 net.cpp:454] inception_4a/output_inception_4a/output_0_split <- inception_4a/output
I0628 17:56:32.670742 127878 net.cpp:411] inception_4a/output_inception_4a/output_0_split -> inception_4a/output_inception_4a/output_0_split_0
I0628 17:56:32.670754 127878 net.cpp:411] inception_4a/output_inception_4a/output_0_split -> inception_4a/output_inception_4a/output_0_split_1
I0628 17:56:32.670765 127878 net.cpp:411] inception_4a/output_inception_4a/output_0_split -> inception_4a/output_inception_4a/output_0_split_2
I0628 17:56:32.670776 127878 net.cpp:411] inception_4a/output_inception_4a/output_0_split -> inception_4a/output_inception_4a/output_0_split_3
I0628 17:56:32.670788 127878 net.cpp:411] inception_4a/output_inception_4a/output_0_split -> inception_4a/output_inception_4a/output_0_split_4
I0628 17:56:32.670872 127878 net.cpp:150] Setting up inception_4a/output_inception_4a/output_0_split
I0628 17:56:32.670897 127878 net.cpp:157] Top shape: 32 512 14 14 (3211264)
I0628 17:56:32.670907 127878 net.cpp:157] Top shape: 32 512 14 14 (3211264)
I0628 17:56:32.670914 127878 net.cpp:157] Top shape: 32 512 14 14 (3211264)
I0628 17:56:32.670922 127878 net.cpp:157] Top shape: 32 512 14 14 (3211264)
I0628 17:56:32.670930 127878 net.cpp:157] Top shape: 32 512 14 14 (3211264)
I0628 17:56:32.670938 127878 net.cpp:165] Memory required for data: 1259618816
I0628 17:56:32.670946 127878 layer_factory.hpp:76] Creating layer loss1/ave_pool
I0628 17:56:32.670959 127878 net.cpp:106] Creating Layer loss1/ave_pool
I0628 17:56:32.670967 127878 net.cpp:454] loss1/ave_pool <- inception_4a/output_inception_4a/output_0_split_0
I0628 17:56:32.670982 127878 net.cpp:411] loss1/ave_pool -> loss1/ave_pool
I0628 17:56:32.671306 127878 net.cpp:150] Setting up loss1/ave_pool
I0628 17:56:32.671325 127878 net.cpp:157] Top shape: 32 512 4 4 (262144)
I0628 17:56:32.671334 127878 net.cpp:165] Memory required for data: 1260667392
I0628 17:56:32.671341 127878 layer_factory.hpp:76] Creating layer loss1/conv
I0628 17:56:32.671358 127878 net.cpp:106] Creating Layer loss1/conv
I0628 17:56:32.671368 127878 net.cpp:454] loss1/conv <- loss1/ave_pool
I0628 17:56:32.671381 127878 net.cpp:411] loss1/conv -> loss1/conv
I0628 17:56:32.672991 127878 cudnn_conv_layer.cpp:194] Reallocating workspace storage: 6144
I0628 17:56:32.673030 127878 net.cpp:150] Setting up loss1/conv
I0628 17:56:32.673043 127878 net.cpp:157] Top shape: 32 128 4 4 (65536)
I0628 17:56:32.673051 127878 net.cpp:165] Memory required for data: 1260929536
I0628 17:56:32.673063 127878 layer_factory.hpp:76] Creating layer loss1/relu_conv
I0628 17:56:32.673074 127878 net.cpp:106] Creating Layer loss1/relu_conv
I0628 17:56:32.673084 127878 net.cpp:454] loss1/relu_conv <- loss1/conv
I0628 17:56:32.673096 127878 net.cpp:397] loss1/relu_conv -> loss1/conv (in-place)
I0628 17:56:32.673272 127878 net.cpp:150] Setting up loss1/relu_conv
I0628 17:56:32.673290 127878 net.cpp:157] Top shape: 32 128 4 4 (65536)
I0628 17:56:32.673298 127878 net.cpp:165] Memory required for data: 1261191680
I0628 17:56:32.673306 127878 layer_factory.hpp:76] Creating layer loss1/fc
I0628 17:56:32.673321 127878 net.cpp:106] Creating Layer loss1/fc
I0628 17:56:32.673331 127878 net.cpp:454] loss1/fc <- loss1/conv
I0628 17:56:32.673342 127878 net.cpp:411] loss1/fc -> loss1/fc
I0628 17:56:32.691239 127878 net.cpp:150] Setting up loss1/fc
I0628 17:56:32.691285 127878 net.cpp:157] Top shape: 32 1024 (32768)
I0628 17:56:32.691295 127878 net.cpp:165] Memory required for data: 1261322752
I0628 17:56:32.691310 127878 layer_factory.hpp:76] Creating layer loss1/relu_fc
I0628 17:56:32.691329 127878 net.cpp:106] Creating Layer loss1/relu_fc
I0628 17:56:32.691340 127878 net.cpp:454] loss1/relu_fc <- loss1/fc
I0628 17:56:32.691352 127878 net.cpp:397] loss1/relu_fc -> loss1/fc (in-place)
I0628 17:56:32.691814 127878 net.cpp:150] Setting up loss1/relu_fc
I0628 17:56:32.691834 127878 net.cpp:157] Top shape: 32 1024 (32768)
I0628 17:56:32.691850 127878 net.cpp:165] Memory required for data: 1261453824
I0628 17:56:32.691859 127878 layer_factory.hpp:76] Creating layer loss1/drop_fc
I0628 17:56:32.691890 127878 net.cpp:106] Creating Layer loss1/drop_fc
I0628 17:56:32.691901 127878 net.cpp:454] loss1/drop_fc <- loss1/fc
I0628 17:56:32.691913 127878 net.cpp:397] loss1/drop_fc -> loss1/fc (in-place)
I0628 17:56:32.691961 127878 net.cpp:150] Setting up loss1/drop_fc
I0628 17:56:32.691973 127878 net.cpp:157] Top shape: 32 1024 (32768)
I0628 17:56:32.691982 127878 net.cpp:165] Memory required for data: 1261584896
I0628 17:56:32.691992 127878 layer_factory.hpp:76] Creating layer loss1/classifier
I0628 17:56:32.692004 127878 net.cpp:106] Creating Layer loss1/classifier
I0628 17:56:32.692018 127878 net.cpp:454] loss1/classifier <- loss1/fc
I0628 17:56:32.692034 127878 net.cpp:411] loss1/classifier -> loss1/classifier
I0628 17:56:32.692172 127878 net.cpp:150] Setting up loss1/classifier
I0628 17:56:32.692185 127878 net.cpp:157] Top shape: 32 2 (64)
I0628 17:56:32.692193 127878 net.cpp:165] Memory required for data: 1261585152
I0628 17:56:32.692234 127878 layer_factory.hpp:76] Creating layer loss1/loss
I0628 17:56:32.692252 127878 net.cpp:106] Creating Layer loss1/loss
I0628 17:56:32.692263 127878 net.cpp:454] loss1/loss <- loss1/classifier
I0628 17:56:32.692275 127878 net.cpp:454] loss1/loss <- label_data_1_split_0
I0628 17:56:32.692286 127878 net.cpp:411] loss1/loss -> loss1/loss1
I0628 17:56:32.692306 127878 layer_factory.hpp:76] Creating layer loss1/loss
I0628 17:56:32.692585 127878 net.cpp:150] Setting up loss1/loss
I0628 17:56:32.692603 127878 net.cpp:157] Top shape: (1)
I0628 17:56:32.692612 127878 net.cpp:160]     with loss weight 0.3
I0628 17:56:32.692642 127878 net.cpp:165] Memory required for data: 1261585156
I0628 17:56:32.692651 127878 layer_factory.hpp:76] Creating layer inception_4b/1x1
I0628 17:56:32.692668 127878 net.cpp:106] Creating Layer inception_4b/1x1
I0628 17:56:32.692679 127878 net.cpp:454] inception_4b/1x1 <- inception_4a/output_inception_4a/output_0_split_1
I0628 17:56:32.692692 127878 net.cpp:411] inception_4b/1x1 -> inception_4b/1x1
I0628 17:56:32.694308 127878 cudnn_conv_layer.cpp:194] Reallocating workspace storage: 6144
I0628 17:56:32.694345 127878 net.cpp:150] Setting up inception_4b/1x1
I0628 17:56:32.694360 127878 net.cpp:157] Top shape: 32 160 14 14 (1003520)
I0628 17:56:32.694368 127878 net.cpp:165] Memory required for data: 1265599236
I0628 17:56:32.694380 127878 layer_factory.hpp:76] Creating layer inception_4b/relu_1x1
I0628 17:56:32.694391 127878 net.cpp:106] Creating Layer inception_4b/relu_1x1
I0628 17:56:32.694401 127878 net.cpp:454] inception_4b/relu_1x1 <- inception_4b/1x1
I0628 17:56:32.694413 127878 net.cpp:397] inception_4b/relu_1x1 -> inception_4b/1x1 (in-place)
I0628 17:56:32.694727 127878 net.cpp:150] Setting up inception_4b/relu_1x1
I0628 17:56:32.694747 127878 net.cpp:157] Top shape: 32 160 14 14 (1003520)
I0628 17:56:32.694756 127878 net.cpp:165] Memory required for data: 1269613316
I0628 17:56:32.694766 127878 layer_factory.hpp:76] Creating layer inception_4b/3x3_reduce
I0628 17:56:32.694779 127878 net.cpp:106] Creating Layer inception_4b/3x3_reduce
I0628 17:56:32.694790 127878 net.cpp:454] inception_4b/3x3_reduce <- inception_4a/output_inception_4a/output_0_split_2
I0628 17:56:32.694804 127878 net.cpp:411] inception_4b/3x3_reduce -> inception_4b/3x3_reduce
I0628 17:56:32.696668 127878 cudnn_conv_layer.cpp:194] Reallocating workspace storage: 6144
I0628 17:56:32.696703 127878 net.cpp:150] Setting up inception_4b/3x3_reduce
I0628 17:56:32.696717 127878 net.cpp:157] Top shape: 32 112 14 14 (702464)
I0628 17:56:32.696725 127878 net.cpp:165] Memory required for data: 1272423172
I0628 17:56:32.696737 127878 layer_factory.hpp:76] Creating layer inception_4b/relu_3x3_reduce
I0628 17:56:32.696748 127878 net.cpp:106] Creating Layer inception_4b/relu_3x3_reduce
I0628 17:56:32.696758 127878 net.cpp:454] inception_4b/relu_3x3_reduce <- inception_4b/3x3_reduce
I0628 17:56:32.696771 127878 net.cpp:397] inception_4b/relu_3x3_reduce -> inception_4b/3x3_reduce (in-place)
I0628 17:56:32.697087 127878 net.cpp:150] Setting up inception_4b/relu_3x3_reduce
I0628 17:56:32.697105 127878 net.cpp:157] Top shape: 32 112 14 14 (702464)
I0628 17:56:32.697113 127878 net.cpp:165] Memory required for data: 1275233028
I0628 17:56:32.697123 127878 layer_factory.hpp:76] Creating layer inception_4b/3x3
I0628 17:56:32.697139 127878 net.cpp:106] Creating Layer inception_4b/3x3
I0628 17:56:32.697149 127878 net.cpp:454] inception_4b/3x3 <- inception_4b/3x3_reduce
I0628 17:56:32.697162 127878 net.cpp:411] inception_4b/3x3 -> inception_4b/3x3
I0628 17:56:32.700255 127878 cudnn_conv_layer.cpp:194] Reallocating workspace storage: 12096
I0628 17:56:32.700289 127878 net.cpp:150] Setting up inception_4b/3x3
I0628 17:56:32.700304 127878 net.cpp:157] Top shape: 32 224 14 14 (1404928)
I0628 17:56:32.700312 127878 net.cpp:165] Memory required for data: 1280852740
I0628 17:56:32.700325 127878 layer_factory.hpp:76] Creating layer inception_4b/relu_3x3
I0628 17:56:32.700340 127878 net.cpp:106] Creating Layer inception_4b/relu_3x3
I0628 17:56:32.700374 127878 net.cpp:454] inception_4b/relu_3x3 <- inception_4b/3x3
I0628 17:56:32.700386 127878 net.cpp:397] inception_4b/relu_3x3 -> inception_4b/3x3 (in-place)
I0628 17:56:32.700567 127878 net.cpp:150] Setting up inception_4b/relu_3x3
I0628 17:56:32.700583 127878 net.cpp:157] Top shape: 32 224 14 14 (1404928)
I0628 17:56:32.700592 127878 net.cpp:165] Memory required for data: 1286472452
I0628 17:56:32.700600 127878 layer_factory.hpp:76] Creating layer inception_4b/5x5_reduce
I0628 17:56:32.700615 127878 net.cpp:106] Creating Layer inception_4b/5x5_reduce
I0628 17:56:32.700626 127878 net.cpp:454] inception_4b/5x5_reduce <- inception_4a/output_inception_4a/output_0_split_3
I0628 17:56:32.700640 127878 net.cpp:411] inception_4b/5x5_reduce -> inception_4b/5x5_reduce
I0628 17:56:32.701759 127878 net.cpp:150] Setting up inception_4b/5x5_reduce
I0628 17:56:32.701782 127878 net.cpp:157] Top shape: 32 24 14 14 (150528)
I0628 17:56:32.701794 127878 net.cpp:165] Memory required for data: 1287074564
I0628 17:56:32.701805 127878 layer_factory.hpp:76] Creating layer inception_4b/relu_5x5_reduce
I0628 17:56:32.701817 127878 net.cpp:106] Creating Layer inception_4b/relu_5x5_reduce
I0628 17:56:32.701825 127878 net.cpp:454] inception_4b/relu_5x5_reduce <- inception_4b/5x5_reduce
I0628 17:56:32.701836 127878 net.cpp:397] inception_4b/relu_5x5_reduce -> inception_4b/5x5_reduce (in-place)
I0628 17:56:32.702150 127878 net.cpp:150] Setting up inception_4b/relu_5x5_reduce
I0628 17:56:32.702173 127878 net.cpp:157] Top shape: 32 24 14 14 (150528)
I0628 17:56:32.702181 127878 net.cpp:165] Memory required for data: 1287676676
I0628 17:56:32.702190 127878 layer_factory.hpp:76] Creating layer inception_4b/5x5
I0628 17:56:32.702203 127878 net.cpp:106] Creating Layer inception_4b/5x5
I0628 17:56:32.702213 127878 net.cpp:454] inception_4b/5x5 <- inception_4b/5x5_reduce
I0628 17:56:32.702225 127878 net.cpp:411] inception_4b/5x5 -> inception_4b/5x5
I0628 17:56:32.703410 127878 net.cpp:150] Setting up inception_4b/5x5
I0628 17:56:32.703433 127878 net.cpp:157] Top shape: 32 64 14 14 (401408)
I0628 17:56:32.703441 127878 net.cpp:165] Memory required for data: 1289282308
I0628 17:56:32.703452 127878 layer_factory.hpp:76] Creating layer inception_4b/relu_5x5
I0628 17:56:32.703464 127878 net.cpp:106] Creating Layer inception_4b/relu_5x5
I0628 17:56:32.703472 127878 net.cpp:454] inception_4b/relu_5x5 <- inception_4b/5x5
I0628 17:56:32.703483 127878 net.cpp:397] inception_4b/relu_5x5 -> inception_4b/5x5 (in-place)
I0628 17:56:32.703796 127878 net.cpp:150] Setting up inception_4b/relu_5x5
I0628 17:56:32.703817 127878 net.cpp:157] Top shape: 32 64 14 14 (401408)
I0628 17:56:32.703825 127878 net.cpp:165] Memory required for data: 1290887940
I0628 17:56:32.703833 127878 layer_factory.hpp:76] Creating layer inception_4b/pool
I0628 17:56:32.703846 127878 net.cpp:106] Creating Layer inception_4b/pool
I0628 17:56:32.703855 127878 net.cpp:454] inception_4b/pool <- inception_4a/output_inception_4a/output_0_split_4
I0628 17:56:32.703866 127878 net.cpp:411] inception_4b/pool -> inception_4b/pool
I0628 17:56:32.704090 127878 net.cpp:150] Setting up inception_4b/pool
I0628 17:56:32.704107 127878 net.cpp:157] Top shape: 32 512 14 14 (3211264)
I0628 17:56:32.704115 127878 net.cpp:165] Memory required for data: 1303732996
I0628 17:56:32.704123 127878 layer_factory.hpp:76] Creating layer inception_4b/pool_proj
I0628 17:56:32.704138 127878 net.cpp:106] Creating Layer inception_4b/pool_proj
I0628 17:56:32.704147 127878 net.cpp:454] inception_4b/pool_proj <- inception_4b/pool
I0628 17:56:32.704159 127878 net.cpp:411] inception_4b/pool_proj -> inception_4b/pool_proj
I0628 17:56:32.705396 127878 cudnn_conv_layer.cpp:194] Reallocating workspace storage: 6144
I0628 17:56:32.705437 127878 net.cpp:150] Setting up inception_4b/pool_proj
I0628 17:56:32.705452 127878 net.cpp:157] Top shape: 32 64 14 14 (401408)
I0628 17:56:32.705461 127878 net.cpp:165] Memory required for data: 1305338628
I0628 17:56:32.705472 127878 layer_factory.hpp:76] Creating layer inception_4b/relu_pool_proj
I0628 17:56:32.705502 127878 net.cpp:106] Creating Layer inception_4b/relu_pool_proj
I0628 17:56:32.705513 127878 net.cpp:454] inception_4b/relu_pool_proj <- inception_4b/pool_proj
I0628 17:56:32.705523 127878 net.cpp:397] inception_4b/relu_pool_proj -> inception_4b/pool_proj (in-place)
I0628 17:56:32.705853 127878 net.cpp:150] Setting up inception_4b/relu_pool_proj
I0628 17:56:32.705874 127878 net.cpp:157] Top shape: 32 64 14 14 (401408)
I0628 17:56:32.705883 127878 net.cpp:165] Memory required for data: 1306944260
I0628 17:56:32.705891 127878 layer_factory.hpp:76] Creating layer inception_4b/output
I0628 17:56:32.705902 127878 net.cpp:106] Creating Layer inception_4b/output
I0628 17:56:32.705911 127878 net.cpp:454] inception_4b/output <- inception_4b/1x1
I0628 17:56:32.705921 127878 net.cpp:454] inception_4b/output <- inception_4b/3x3
I0628 17:56:32.705931 127878 net.cpp:454] inception_4b/output <- inception_4b/5x5
I0628 17:56:32.705940 127878 net.cpp:454] inception_4b/output <- inception_4b/pool_proj
I0628 17:56:32.705952 127878 net.cpp:411] inception_4b/output -> inception_4b/output
I0628 17:56:32.705991 127878 net.cpp:150] Setting up inception_4b/output
I0628 17:56:32.706004 127878 net.cpp:157] Top shape: 32 512 14 14 (3211264)
I0628 17:56:32.706012 127878 net.cpp:165] Memory required for data: 1319789316
I0628 17:56:32.706022 127878 layer_factory.hpp:76] Creating layer inception_4b/output_inception_4b/output_0_split
I0628 17:56:32.706034 127878 net.cpp:106] Creating Layer inception_4b/output_inception_4b/output_0_split
I0628 17:56:32.706044 127878 net.cpp:454] inception_4b/output_inception_4b/output_0_split <- inception_4b/output
I0628 17:56:32.706058 127878 net.cpp:411] inception_4b/output_inception_4b/output_0_split -> inception_4b/output_inception_4b/output_0_split_0
I0628 17:56:32.706069 127878 net.cpp:411] inception_4b/output_inception_4b/output_0_split -> inception_4b/output_inception_4b/output_0_split_1
I0628 17:56:32.706080 127878 net.cpp:411] inception_4b/output_inception_4b/output_0_split -> inception_4b/output_inception_4b/output_0_split_2
I0628 17:56:32.706094 127878 net.cpp:411] inception_4b/output_inception_4b/output_0_split -> inception_4b/output_inception_4b/output_0_split_3
I0628 17:56:32.706164 127878 net.cpp:150] Setting up inception_4b/output_inception_4b/output_0_split
I0628 17:56:32.706177 127878 net.cpp:157] Top shape: 32 512 14 14 (3211264)
I0628 17:56:32.706187 127878 net.cpp:157] Top shape: 32 512 14 14 (3211264)
I0628 17:56:32.706195 127878 net.cpp:157] Top shape: 32 512 14 14 (3211264)
I0628 17:56:32.706210 127878 net.cpp:157] Top shape: 32 512 14 14 (3211264)
I0628 17:56:32.706218 127878 net.cpp:165] Memory required for data: 1371169540
I0628 17:56:32.706226 127878 layer_factory.hpp:76] Creating layer inception_4c/1x1
I0628 17:56:32.706241 127878 net.cpp:106] Creating Layer inception_4c/1x1
I0628 17:56:32.706253 127878 net.cpp:454] inception_4c/1x1 <- inception_4b/output_inception_4b/output_0_split_0
I0628 17:56:32.706264 127878 net.cpp:411] inception_4c/1x1 -> inception_4c/1x1
I0628 17:56:32.707885 127878 cudnn_conv_layer.cpp:194] Reallocating workspace storage: 6144
I0628 17:56:32.707916 127878 net.cpp:150] Setting up inception_4c/1x1
I0628 17:56:32.707929 127878 net.cpp:157] Top shape: 32 128 14 14 (802816)
I0628 17:56:32.707938 127878 net.cpp:165] Memory required for data: 1374380804
I0628 17:56:32.707949 127878 layer_factory.hpp:76] Creating layer inception_4c/relu_1x1
I0628 17:56:32.707963 127878 net.cpp:106] Creating Layer inception_4c/relu_1x1
I0628 17:56:32.707974 127878 net.cpp:454] inception_4c/relu_1x1 <- inception_4c/1x1
I0628 17:56:32.707984 127878 net.cpp:397] inception_4c/relu_1x1 -> inception_4c/1x1 (in-place)
I0628 17:56:32.708173 127878 net.cpp:150] Setting up inception_4c/relu_1x1
I0628 17:56:32.708190 127878 net.cpp:157] Top shape: 32 128 14 14 (802816)
I0628 17:56:32.708199 127878 net.cpp:165] Memory required for data: 1377592068
I0628 17:56:32.708207 127878 layer_factory.hpp:76] Creating layer inception_4c/3x3_reduce
I0628 17:56:32.708235 127878 net.cpp:106] Creating Layer inception_4c/3x3_reduce
I0628 17:56:32.708246 127878 net.cpp:454] inception_4c/3x3_reduce <- inception_4b/output_inception_4b/output_0_split_1
I0628 17:56:32.708258 127878 net.cpp:411] inception_4c/3x3_reduce -> inception_4c/3x3_reduce
I0628 17:56:32.709764 127878 cudnn_conv_layer.cpp:194] Reallocating workspace storage: 6144
I0628 17:56:32.709799 127878 net.cpp:150] Setting up inception_4c/3x3_reduce
I0628 17:56:32.709811 127878 net.cpp:157] Top shape: 32 128 14 14 (802816)
I0628 17:56:32.709820 127878 net.cpp:165] Memory required for data: 1380803332
I0628 17:56:32.709832 127878 layer_factory.hpp:76] Creating layer inception_4c/relu_3x3_reduce
I0628 17:56:32.709844 127878 net.cpp:106] Creating Layer inception_4c/relu_3x3_reduce
I0628 17:56:32.709854 127878 net.cpp:454] inception_4c/relu_3x3_reduce <- inception_4c/3x3_reduce
I0628 17:56:32.709867 127878 net.cpp:397] inception_4c/relu_3x3_reduce -> inception_4c/3x3_reduce (in-place)
I0628 17:56:32.710047 127878 net.cpp:150] Setting up inception_4c/relu_3x3_reduce
I0628 17:56:32.710064 127878 net.cpp:157] Top shape: 32 128 14 14 (802816)
I0628 17:56:32.710072 127878 net.cpp:165] Memory required for data: 1384014596
I0628 17:56:32.710081 127878 layer_factory.hpp:76] Creating layer inception_4c/3x3
I0628 17:56:32.710095 127878 net.cpp:106] Creating Layer inception_4c/3x3
I0628 17:56:32.710106 127878 net.cpp:454] inception_4c/3x3 <- inception_4c/3x3_reduce
I0628 17:56:32.710119 127878 net.cpp:411] inception_4c/3x3 -> inception_4c/3x3
I0628 17:56:32.713749 127878 net.cpp:150] Setting up inception_4c/3x3
I0628 17:56:32.713773 127878 net.cpp:157] Top shape: 32 256 14 14 (1605632)
I0628 17:56:32.713781 127878 net.cpp:165] Memory required for data: 1390437124
I0628 17:56:32.713817 127878 layer_factory.hpp:76] Creating layer inception_4c/relu_3x3
I0628 17:56:32.713838 127878 net.cpp:106] Creating Layer inception_4c/relu_3x3
I0628 17:56:32.713848 127878 net.cpp:454] inception_4c/relu_3x3 <- inception_4c/3x3
I0628 17:56:32.713858 127878 net.cpp:397] inception_4c/relu_3x3 -> inception_4c/3x3 (in-place)
I0628 17:56:32.714180 127878 net.cpp:150] Setting up inception_4c/relu_3x3
I0628 17:56:32.714200 127878 net.cpp:157] Top shape: 32 256 14 14 (1605632)
I0628 17:56:32.714208 127878 net.cpp:165] Memory required for data: 1396859652
I0628 17:56:32.714217 127878 layer_factory.hpp:76] Creating layer inception_4c/5x5_reduce
I0628 17:56:32.714231 127878 net.cpp:106] Creating Layer inception_4c/5x5_reduce
I0628 17:56:32.714242 127878 net.cpp:454] inception_4c/5x5_reduce <- inception_4b/output_inception_4b/output_0_split_2
I0628 17:56:32.714257 127878 net.cpp:411] inception_4c/5x5_reduce -> inception_4c/5x5_reduce
I0628 17:56:32.715381 127878 net.cpp:150] Setting up inception_4c/5x5_reduce
I0628 17:56:32.715402 127878 net.cpp:157] Top shape: 32 24 14 14 (150528)
I0628 17:56:32.715410 127878 net.cpp:165] Memory required for data: 1397461764
I0628 17:56:32.715421 127878 layer_factory.hpp:76] Creating layer inception_4c/relu_5x5_reduce
I0628 17:56:32.715433 127878 net.cpp:106] Creating Layer inception_4c/relu_5x5_reduce
I0628 17:56:32.715442 127878 net.cpp:454] inception_4c/relu_5x5_reduce <- inception_4c/5x5_reduce
I0628 17:56:32.715456 127878 net.cpp:397] inception_4c/relu_5x5_reduce -> inception_4c/5x5_reduce (in-place)
I0628 17:56:32.715636 127878 net.cpp:150] Setting up inception_4c/relu_5x5_reduce
I0628 17:56:32.715651 127878 net.cpp:157] Top shape: 32 24 14 14 (150528)
I0628 17:56:32.715658 127878 net.cpp:165] Memory required for data: 1398063876
I0628 17:56:32.715667 127878 layer_factory.hpp:76] Creating layer inception_4c/5x5
I0628 17:56:32.715683 127878 net.cpp:106] Creating Layer inception_4c/5x5
I0628 17:56:32.715693 127878 net.cpp:454] inception_4c/5x5 <- inception_4c/5x5_reduce
I0628 17:56:32.715705 127878 net.cpp:411] inception_4c/5x5 -> inception_4c/5x5
I0628 17:56:32.717568 127878 net.cpp:150] Setting up inception_4c/5x5
I0628 17:56:32.717591 127878 net.cpp:157] Top shape: 32 64 14 14 (401408)
I0628 17:56:32.717598 127878 net.cpp:165] Memory required for data: 1399669508
I0628 17:56:32.717633 127878 layer_factory.hpp:76] Creating layer inception_4c/relu_5x5
I0628 17:56:32.717644 127878 net.cpp:106] Creating Layer inception_4c/relu_5x5
I0628 17:56:32.717658 127878 net.cpp:454] inception_4c/relu_5x5 <- inception_4c/5x5
I0628 17:56:32.717669 127878 net.cpp:397] inception_4c/relu_5x5 -> inception_4c/5x5 (in-place)
I0628 17:56:32.717865 127878 net.cpp:150] Setting up inception_4c/relu_5x5
I0628 17:56:32.717883 127878 net.cpp:157] Top shape: 32 64 14 14 (401408)
I0628 17:56:32.717891 127878 net.cpp:165] Memory required for data: 1401275140
I0628 17:56:32.717900 127878 layer_factory.hpp:76] Creating layer inception_4c/pool
I0628 17:56:32.717916 127878 net.cpp:106] Creating Layer inception_4c/pool
I0628 17:56:32.717924 127878 net.cpp:454] inception_4c/pool <- inception_4b/output_inception_4b/output_0_split_3
I0628 17:56:32.717936 127878 net.cpp:411] inception_4c/pool -> inception_4c/pool
I0628 17:56:32.718292 127878 net.cpp:150] Setting up inception_4c/pool
I0628 17:56:32.718312 127878 net.cpp:157] Top shape: 32 512 14 14 (3211264)
I0628 17:56:32.718320 127878 net.cpp:165] Memory required for data: 1414120196
I0628 17:56:32.718328 127878 layer_factory.hpp:76] Creating layer inception_4c/pool_proj
I0628 17:56:32.718345 127878 net.cpp:106] Creating Layer inception_4c/pool_proj
I0628 17:56:32.718355 127878 net.cpp:454] inception_4c/pool_proj <- inception_4c/pool
I0628 17:56:32.718366 127878 net.cpp:411] inception_4c/pool_proj -> inception_4c/pool_proj
I0628 17:56:32.719635 127878 cudnn_conv_layer.cpp:194] Reallocating workspace storage: 6144
I0628 17:56:32.719668 127878 net.cpp:150] Setting up inception_4c/pool_proj
I0628 17:56:32.719682 127878 net.cpp:157] Top shape: 32 64 14 14 (401408)
I0628 17:56:32.719691 127878 net.cpp:165] Memory required for data: 1415725828
I0628 17:56:32.719702 127878 layer_factory.hpp:76] Creating layer inception_4c/relu_pool_proj
I0628 17:56:32.719713 127878 net.cpp:106] Creating Layer inception_4c/relu_pool_proj
I0628 17:56:32.719725 127878 net.cpp:454] inception_4c/relu_pool_proj <- inception_4c/pool_proj
I0628 17:56:32.719738 127878 net.cpp:397] inception_4c/relu_pool_proj -> inception_4c/pool_proj (in-place)
I0628 17:56:32.719919 127878 net.cpp:150] Setting up inception_4c/relu_pool_proj
I0628 17:56:32.719935 127878 net.cpp:157] Top shape: 32 64 14 14 (401408)
I0628 17:56:32.719944 127878 net.cpp:165] Memory required for data: 1417331460
I0628 17:56:32.719951 127878 layer_factory.hpp:76] Creating layer inception_4c/output
I0628 17:56:32.719962 127878 net.cpp:106] Creating Layer inception_4c/output
I0628 17:56:32.719971 127878 net.cpp:454] inception_4c/output <- inception_4c/1x1
I0628 17:56:32.719983 127878 net.cpp:454] inception_4c/output <- inception_4c/3x3
I0628 17:56:32.719995 127878 net.cpp:454] inception_4c/output <- inception_4c/5x5
I0628 17:56:32.720003 127878 net.cpp:454] inception_4c/output <- inception_4c/pool_proj
I0628 17:56:32.720013 127878 net.cpp:411] inception_4c/output -> inception_4c/output
I0628 17:56:32.720051 127878 net.cpp:150] Setting up inception_4c/output
I0628 17:56:32.720063 127878 net.cpp:157] Top shape: 32 512 14 14 (3211264)
I0628 17:56:32.720072 127878 net.cpp:165] Memory required for data: 1430176516
I0628 17:56:32.720080 127878 layer_factory.hpp:76] Creating layer inception_4c/output_inception_4c/output_0_split
I0628 17:56:32.720093 127878 net.cpp:106] Creating Layer inception_4c/output_inception_4c/output_0_split
I0628 17:56:32.720103 127878 net.cpp:454] inception_4c/output_inception_4c/output_0_split <- inception_4c/output
I0628 17:56:32.720116 127878 net.cpp:411] inception_4c/output_inception_4c/output_0_split -> inception_4c/output_inception_4c/output_0_split_0
I0628 17:56:32.720131 127878 net.cpp:411] inception_4c/output_inception_4c/output_0_split -> inception_4c/output_inception_4c/output_0_split_1
I0628 17:56:32.720144 127878 net.cpp:411] inception_4c/output_inception_4c/output_0_split -> inception_4c/output_inception_4c/output_0_split_2
I0628 17:56:32.720155 127878 net.cpp:411] inception_4c/output_inception_4c/output_0_split -> inception_4c/output_inception_4c/output_0_split_3
I0628 17:56:32.720244 127878 net.cpp:150] Setting up inception_4c/output_inception_4c/output_0_split
I0628 17:56:32.720257 127878 net.cpp:157] Top shape: 32 512 14 14 (3211264)
I0628 17:56:32.720266 127878 net.cpp:157] Top shape: 32 512 14 14 (3211264)
I0628 17:56:32.720274 127878 net.cpp:157] Top shape: 32 512 14 14 (3211264)
I0628 17:56:32.720289 127878 net.cpp:157] Top shape: 32 512 14 14 (3211264)
I0628 17:56:32.720298 127878 net.cpp:165] Memory required for data: 1481556740
I0628 17:56:32.720306 127878 layer_factory.hpp:76] Creating layer inception_4d/1x1
I0628 17:56:32.720319 127878 net.cpp:106] Creating Layer inception_4d/1x1
I0628 17:56:32.720330 127878 net.cpp:454] inception_4d/1x1 <- inception_4c/output_inception_4c/output_0_split_0
I0628 17:56:32.720355 127878 net.cpp:411] inception_4d/1x1 -> inception_4d/1x1
I0628 17:56:32.721796 127878 cudnn_conv_layer.cpp:194] Reallocating workspace storage: 6144
I0628 17:56:32.721834 127878 net.cpp:150] Setting up inception_4d/1x1
I0628 17:56:32.721845 127878 net.cpp:157] Top shape: 32 112 14 14 (702464)
I0628 17:56:32.721854 127878 net.cpp:165] Memory required for data: 1484366596
I0628 17:56:32.721866 127878 layer_factory.hpp:76] Creating layer inception_4d/relu_1x1
I0628 17:56:32.721879 127878 net.cpp:106] Creating Layer inception_4d/relu_1x1
I0628 17:56:32.721890 127878 net.cpp:454] inception_4d/relu_1x1 <- inception_4d/1x1
I0628 17:56:32.721901 127878 net.cpp:397] inception_4d/relu_1x1 -> inception_4d/1x1 (in-place)
I0628 17:56:32.722223 127878 net.cpp:150] Setting up inception_4d/relu_1x1
I0628 17:56:32.722241 127878 net.cpp:157] Top shape: 32 112 14 14 (702464)
I0628 17:56:32.722249 127878 net.cpp:165] Memory required for data: 1487176452
I0628 17:56:32.722257 127878 layer_factory.hpp:76] Creating layer inception_4d/3x3_reduce
I0628 17:56:32.722272 127878 net.cpp:106] Creating Layer inception_4d/3x3_reduce
I0628 17:56:32.722282 127878 net.cpp:454] inception_4d/3x3_reduce <- inception_4c/output_inception_4c/output_0_split_1
I0628 17:56:32.722296 127878 net.cpp:411] inception_4d/3x3_reduce -> inception_4d/3x3_reduce
I0628 17:56:32.723737 127878 cudnn_conv_layer.cpp:194] Reallocating workspace storage: 6144
I0628 17:56:32.723769 127878 net.cpp:150] Setting up inception_4d/3x3_reduce
I0628 17:56:32.723781 127878 net.cpp:157] Top shape: 32 144 14 14 (903168)
I0628 17:56:32.723790 127878 net.cpp:165] Memory required for data: 1490789124
I0628 17:56:32.723801 127878 layer_factory.hpp:76] Creating layer inception_4d/relu_3x3_reduce
I0628 17:56:32.723812 127878 net.cpp:106] Creating Layer inception_4d/relu_3x3_reduce
I0628 17:56:32.723824 127878 net.cpp:454] inception_4d/relu_3x3_reduce <- inception_4d/3x3_reduce
I0628 17:56:32.723836 127878 net.cpp:397] inception_4d/relu_3x3_reduce -> inception_4d/3x3_reduce (in-place)
I0628 17:56:32.724158 127878 net.cpp:150] Setting up inception_4d/relu_3x3_reduce
I0628 17:56:32.724175 127878 net.cpp:157] Top shape: 32 144 14 14 (903168)
I0628 17:56:32.724184 127878 net.cpp:165] Memory required for data: 1494401796
I0628 17:56:32.724191 127878 layer_factory.hpp:76] Creating layer inception_4d/3x3
I0628 17:56:32.724208 127878 net.cpp:106] Creating Layer inception_4d/3x3
I0628 17:56:32.724218 127878 net.cpp:454] inception_4d/3x3 <- inception_4d/3x3_reduce
I0628 17:56:32.724231 127878 net.cpp:411] inception_4d/3x3 -> inception_4d/3x3
I0628 17:56:32.728698 127878 cudnn_conv_layer.cpp:194] Reallocating workspace storage: 15552
I0628 17:56:32.728736 127878 net.cpp:150] Setting up inception_4d/3x3
I0628 17:56:32.728751 127878 net.cpp:157] Top shape: 32 288 14 14 (1806336)
I0628 17:56:32.728760 127878 net.cpp:165] Memory required for data: 1501627140
I0628 17:56:32.728772 127878 layer_factory.hpp:76] Creating layer inception_4d/relu_3x3
I0628 17:56:32.728796 127878 net.cpp:106] Creating Layer inception_4d/relu_3x3
I0628 17:56:32.728807 127878 net.cpp:454] inception_4d/relu_3x3 <- inception_4d/3x3
I0628 17:56:32.728818 127878 net.cpp:397] inception_4d/relu_3x3 -> inception_4d/3x3 (in-place)
I0628 17:56:32.729022 127878 net.cpp:150] Setting up inception_4d/relu_3x3
I0628 17:56:32.729038 127878 net.cpp:157] Top shape: 32 288 14 14 (1806336)
I0628 17:56:32.729046 127878 net.cpp:165] Memory required for data: 1508852484
I0628 17:56:32.729054 127878 layer_factory.hpp:76] Creating layer inception_4d/5x5_reduce
I0628 17:56:32.729069 127878 net.cpp:106] Creating Layer inception_4d/5x5_reduce
I0628 17:56:32.729080 127878 net.cpp:454] inception_4d/5x5_reduce <- inception_4c/output_inception_4c/output_0_split_2
I0628 17:56:32.729092 127878 net.cpp:411] inception_4d/5x5_reduce -> inception_4d/5x5_reduce
I0628 17:56:32.730293 127878 net.cpp:150] Setting up inception_4d/5x5_reduce
I0628 17:56:32.730314 127878 net.cpp:157] Top shape: 32 32 14 14 (200704)
I0628 17:56:32.730321 127878 net.cpp:165] Memory required for data: 1509655300
I0628 17:56:32.730332 127878 layer_factory.hpp:76] Creating layer inception_4d/relu_5x5_reduce
I0628 17:56:32.730345 127878 net.cpp:106] Creating Layer inception_4d/relu_5x5_reduce
I0628 17:56:32.730353 127878 net.cpp:454] inception_4d/relu_5x5_reduce <- inception_4d/5x5_reduce
I0628 17:56:32.730366 127878 net.cpp:397] inception_4d/relu_5x5_reduce -> inception_4d/5x5_reduce (in-place)
I0628 17:56:32.730708 127878 net.cpp:150] Setting up inception_4d/relu_5x5_reduce
I0628 17:56:32.730727 127878 net.cpp:157] Top shape: 32 32 14 14 (200704)
I0628 17:56:32.730736 127878 net.cpp:165] Memory required for data: 1510458116
I0628 17:56:32.730743 127878 layer_factory.hpp:76] Creating layer inception_4d/5x5
I0628 17:56:32.730758 127878 net.cpp:106] Creating Layer inception_4d/5x5
I0628 17:56:32.730768 127878 net.cpp:454] inception_4d/5x5 <- inception_4d/5x5_reduce
I0628 17:56:32.730782 127878 net.cpp:411] inception_4d/5x5 -> inception_4d/5x5
I0628 17:56:32.732101 127878 net.cpp:150] Setting up inception_4d/5x5
I0628 17:56:32.732122 127878 net.cpp:157] Top shape: 32 64 14 14 (401408)
I0628 17:56:32.732131 127878 net.cpp:165] Memory required for data: 1512063748
I0628 17:56:32.732141 127878 layer_factory.hpp:76] Creating layer inception_4d/relu_5x5
I0628 17:56:32.732152 127878 net.cpp:106] Creating Layer inception_4d/relu_5x5
I0628 17:56:32.732161 127878 net.cpp:454] inception_4d/relu_5x5 <- inception_4d/5x5
I0628 17:56:32.732173 127878 net.cpp:397] inception_4d/relu_5x5 -> inception_4d/5x5 (in-place)
I0628 17:56:32.732496 127878 net.cpp:150] Setting up inception_4d/relu_5x5
I0628 17:56:32.732514 127878 net.cpp:157] Top shape: 32 64 14 14 (401408)
I0628 17:56:32.732522 127878 net.cpp:165] Memory required for data: 1513669380
I0628 17:56:32.732530 127878 layer_factory.hpp:76] Creating layer inception_4d/pool
I0628 17:56:32.732542 127878 net.cpp:106] Creating Layer inception_4d/pool
I0628 17:56:32.732552 127878 net.cpp:454] inception_4d/pool <- inception_4c/output_inception_4c/output_0_split_3
I0628 17:56:32.732564 127878 net.cpp:411] inception_4d/pool -> inception_4d/pool
I0628 17:56:32.732923 127878 net.cpp:150] Setting up inception_4d/pool
I0628 17:56:32.732944 127878 net.cpp:157] Top shape: 32 512 14 14 (3211264)
I0628 17:56:32.732951 127878 net.cpp:165] Memory required for data: 1526514436
I0628 17:56:32.732959 127878 layer_factory.hpp:76] Creating layer inception_4d/pool_proj
I0628 17:56:32.732974 127878 net.cpp:106] Creating Layer inception_4d/pool_proj
I0628 17:56:32.732983 127878 net.cpp:454] inception_4d/pool_proj <- inception_4d/pool
I0628 17:56:32.732996 127878 net.cpp:411] inception_4d/pool_proj -> inception_4d/pool_proj
I0628 17:56:32.734158 127878 cudnn_conv_layer.cpp:194] Reallocating workspace storage: 6144
I0628 17:56:32.734196 127878 net.cpp:150] Setting up inception_4d/pool_proj
I0628 17:56:32.734210 127878 net.cpp:157] Top shape: 32 64 14 14 (401408)
I0628 17:56:32.734217 127878 net.cpp:165] Memory required for data: 1528120068
I0628 17:56:32.734230 127878 layer_factory.hpp:76] Creating layer inception_4d/relu_pool_proj
I0628 17:56:32.734248 127878 net.cpp:106] Creating Layer inception_4d/relu_pool_proj
I0628 17:56:32.734258 127878 net.cpp:454] inception_4d/relu_pool_proj <- inception_4d/pool_proj
I0628 17:56:32.734287 127878 net.cpp:397] inception_4d/relu_pool_proj -> inception_4d/pool_proj (in-place)
I0628 17:56:32.734616 127878 net.cpp:150] Setting up inception_4d/relu_pool_proj
I0628 17:56:32.734635 127878 net.cpp:157] Top shape: 32 64 14 14 (401408)
I0628 17:56:32.734643 127878 net.cpp:165] Memory required for data: 1529725700
I0628 17:56:32.734652 127878 layer_factory.hpp:76] Creating layer inception_4d/output
I0628 17:56:32.734663 127878 net.cpp:106] Creating Layer inception_4d/output
I0628 17:56:32.734673 127878 net.cpp:454] inception_4d/output <- inception_4d/1x1
I0628 17:56:32.734683 127878 net.cpp:454] inception_4d/output <- inception_4d/3x3
I0628 17:56:32.734691 127878 net.cpp:454] inception_4d/output <- inception_4d/5x5
I0628 17:56:32.734700 127878 net.cpp:454] inception_4d/output <- inception_4d/pool_proj
I0628 17:56:32.734712 127878 net.cpp:411] inception_4d/output -> inception_4d/output
I0628 17:56:32.734752 127878 net.cpp:150] Setting up inception_4d/output
I0628 17:56:32.734766 127878 net.cpp:157] Top shape: 32 528 14 14 (3311616)
I0628 17:56:32.734773 127878 net.cpp:165] Memory required for data: 1542972164
I0628 17:56:32.734782 127878 layer_factory.hpp:76] Creating layer inception_4d/output_inception_4d/output_0_split
I0628 17:56:32.734796 127878 net.cpp:106] Creating Layer inception_4d/output_inception_4d/output_0_split
I0628 17:56:32.734807 127878 net.cpp:454] inception_4d/output_inception_4d/output_0_split <- inception_4d/output
I0628 17:56:32.734818 127878 net.cpp:411] inception_4d/output_inception_4d/output_0_split -> inception_4d/output_inception_4d/output_0_split_0
I0628 17:56:32.734832 127878 net.cpp:411] inception_4d/output_inception_4d/output_0_split -> inception_4d/output_inception_4d/output_0_split_1
I0628 17:56:32.734844 127878 net.cpp:411] inception_4d/output_inception_4d/output_0_split -> inception_4d/output_inception_4d/output_0_split_2
I0628 17:56:32.734858 127878 net.cpp:411] inception_4d/output_inception_4d/output_0_split -> inception_4d/output_inception_4d/output_0_split_3
I0628 17:56:32.734868 127878 net.cpp:411] inception_4d/output_inception_4d/output_0_split -> inception_4d/output_inception_4d/output_0_split_4
I0628 17:56:32.734963 127878 net.cpp:150] Setting up inception_4d/output_inception_4d/output_0_split
I0628 17:56:32.734980 127878 net.cpp:157] Top shape: 32 528 14 14 (3311616)
I0628 17:56:32.734989 127878 net.cpp:157] Top shape: 32 528 14 14 (3311616)
I0628 17:56:32.734997 127878 net.cpp:157] Top shape: 32 528 14 14 (3311616)
I0628 17:56:32.735005 127878 net.cpp:157] Top shape: 32 528 14 14 (3311616)
I0628 17:56:32.735014 127878 net.cpp:157] Top shape: 32 528 14 14 (3311616)
I0628 17:56:32.735021 127878 net.cpp:165] Memory required for data: 1609204484
I0628 17:56:32.735029 127878 layer_factory.hpp:76] Creating layer loss2/ave_pool
I0628 17:56:32.735040 127878 net.cpp:106] Creating Layer loss2/ave_pool
I0628 17:56:32.735057 127878 net.cpp:454] loss2/ave_pool <- inception_4d/output_inception_4d/output_0_split_0
I0628 17:56:32.735072 127878 net.cpp:411] loss2/ave_pool -> loss2/ave_pool
I0628 17:56:32.735275 127878 net.cpp:150] Setting up loss2/ave_pool
I0628 17:56:32.735291 127878 net.cpp:157] Top shape: 32 528 4 4 (270336)
I0628 17:56:32.735298 127878 net.cpp:165] Memory required for data: 1610285828
I0628 17:56:32.735307 127878 layer_factory.hpp:76] Creating layer loss2/conv
I0628 17:56:32.735323 127878 net.cpp:106] Creating Layer loss2/conv
I0628 17:56:32.735333 127878 net.cpp:454] loss2/conv <- loss2/ave_pool
I0628 17:56:32.735344 127878 net.cpp:411] loss2/conv -> loss2/conv
I0628 17:56:32.737417 127878 cudnn_conv_layer.cpp:194] Reallocating workspace storage: 6336
I0628 17:56:32.737453 127878 net.cpp:150] Setting up loss2/conv
I0628 17:56:32.737467 127878 net.cpp:157] Top shape: 32 128 4 4 (65536)
I0628 17:56:32.737474 127878 net.cpp:165] Memory required for data: 1610547972
I0628 17:56:32.737486 127878 layer_factory.hpp:76] Creating layer loss2/relu_conv
I0628 17:56:32.737498 127878 net.cpp:106] Creating Layer loss2/relu_conv
I0628 17:56:32.737524 127878 net.cpp:454] loss2/relu_conv <- loss2/conv
I0628 17:56:32.737538 127878 net.cpp:397] loss2/relu_conv -> loss2/conv (in-place)
I0628 17:56:32.737879 127878 net.cpp:150] Setting up loss2/relu_conv
I0628 17:56:32.737898 127878 net.cpp:157] Top shape: 32 128 4 4 (65536)
I0628 17:56:32.737906 127878 net.cpp:165] Memory required for data: 1610810116
I0628 17:56:32.737915 127878 layer_factory.hpp:76] Creating layer loss2/fc
I0628 17:56:32.737932 127878 net.cpp:106] Creating Layer loss2/fc
I0628 17:56:32.737942 127878 net.cpp:454] loss2/fc <- loss2/conv
I0628 17:56:32.737953 127878 net.cpp:411] loss2/fc -> loss2/fc
I0628 17:56:32.755827 127878 net.cpp:150] Setting up loss2/fc
I0628 17:56:32.755875 127878 net.cpp:157] Top shape: 32 1024 (32768)
I0628 17:56:32.755884 127878 net.cpp:165] Memory required for data: 1610941188
I0628 17:56:32.755900 127878 layer_factory.hpp:76] Creating layer loss2/relu_fc
I0628 17:56:32.755916 127878 net.cpp:106] Creating Layer loss2/relu_fc
I0628 17:56:32.755928 127878 net.cpp:454] loss2/relu_fc <- loss2/fc
I0628 17:56:32.755941 127878 net.cpp:397] loss2/relu_fc -> loss2/fc (in-place)
I0628 17:56:32.756204 127878 net.cpp:150] Setting up loss2/relu_fc
I0628 17:56:32.756222 127878 net.cpp:157] Top shape: 32 1024 (32768)
I0628 17:56:32.756229 127878 net.cpp:165] Memory required for data: 1611072260
I0628 17:56:32.756237 127878 layer_factory.hpp:76] Creating layer loss2/drop_fc
I0628 17:56:32.756253 127878 net.cpp:106] Creating Layer loss2/drop_fc
I0628 17:56:32.756263 127878 net.cpp:454] loss2/drop_fc <- loss2/fc
I0628 17:56:32.756276 127878 net.cpp:397] loss2/drop_fc -> loss2/fc (in-place)
I0628 17:56:32.756315 127878 net.cpp:150] Setting up loss2/drop_fc
I0628 17:56:32.756328 127878 net.cpp:157] Top shape: 32 1024 (32768)
I0628 17:56:32.756337 127878 net.cpp:165] Memory required for data: 1611203332
I0628 17:56:32.756345 127878 layer_factory.hpp:76] Creating layer loss2/classifier
I0628 17:56:32.756362 127878 net.cpp:106] Creating Layer loss2/classifier
I0628 17:56:32.756376 127878 net.cpp:454] loss2/classifier <- loss2/fc
I0628 17:56:32.756391 127878 net.cpp:411] loss2/classifier -> loss2/classifier
I0628 17:56:32.756546 127878 net.cpp:150] Setting up loss2/classifier
I0628 17:56:32.756559 127878 net.cpp:157] Top shape: 32 2 (64)
I0628 17:56:32.756567 127878 net.cpp:165] Memory required for data: 1611203588
I0628 17:56:32.756577 127878 layer_factory.hpp:76] Creating layer loss2/loss
I0628 17:56:32.756589 127878 net.cpp:106] Creating Layer loss2/loss
I0628 17:56:32.756598 127878 net.cpp:454] loss2/loss <- loss2/classifier
I0628 17:56:32.756608 127878 net.cpp:454] loss2/loss <- label_data_1_split_1
I0628 17:56:32.756618 127878 net.cpp:411] loss2/loss -> loss2/loss1
I0628 17:56:32.756633 127878 layer_factory.hpp:76] Creating layer loss2/loss
I0628 17:56:32.757164 127878 net.cpp:150] Setting up loss2/loss
I0628 17:56:32.757184 127878 net.cpp:157] Top shape: (1)
I0628 17:56:32.757192 127878 net.cpp:160]     with loss weight 0.3
I0628 17:56:32.757208 127878 net.cpp:165] Memory required for data: 1611203592
I0628 17:56:32.757216 127878 layer_factory.hpp:76] Creating layer inception_4e/1x1
I0628 17:56:32.757235 127878 net.cpp:106] Creating Layer inception_4e/1x1
I0628 17:56:32.757246 127878 net.cpp:454] inception_4e/1x1 <- inception_4d/output_inception_4d/output_0_split_1
I0628 17:56:32.757257 127878 net.cpp:411] inception_4e/1x1 -> inception_4e/1x1
I0628 17:56:32.759306 127878 cudnn_conv_layer.cpp:194] Reallocating workspace storage: 6336
I0628 17:56:32.759351 127878 net.cpp:150] Setting up inception_4e/1x1
I0628 17:56:32.759363 127878 net.cpp:157] Top shape: 32 256 14 14 (1605632)
I0628 17:56:32.759377 127878 net.cpp:165] Memory required for data: 1617626120
I0628 17:56:32.759389 127878 layer_factory.hpp:76] Creating layer inception_4e/relu_1x1
I0628 17:56:32.759403 127878 net.cpp:106] Creating Layer inception_4e/relu_1x1
I0628 17:56:32.759415 127878 net.cpp:454] inception_4e/relu_1x1 <- inception_4e/1x1
I0628 17:56:32.759426 127878 net.cpp:397] inception_4e/relu_1x1 -> inception_4e/1x1 (in-place)
I0628 17:56:32.759647 127878 net.cpp:150] Setting up inception_4e/relu_1x1
I0628 17:56:32.759665 127878 net.cpp:157] Top shape: 32 256 14 14 (1605632)
I0628 17:56:32.759672 127878 net.cpp:165] Memory required for data: 1624048648
I0628 17:56:32.759680 127878 layer_factory.hpp:76] Creating layer inception_4e/3x3_reduce
I0628 17:56:32.759696 127878 net.cpp:106] Creating Layer inception_4e/3x3_reduce
I0628 17:56:32.759706 127878 net.cpp:454] inception_4e/3x3_reduce <- inception_4d/output_inception_4d/output_0_split_2
I0628 17:56:32.759718 127878 net.cpp:411] inception_4e/3x3_reduce -> inception_4e/3x3_reduce
I0628 17:56:32.761967 127878 cudnn_conv_layer.cpp:194] Reallocating workspace storage: 6336
I0628 17:56:32.762009 127878 net.cpp:150] Setting up inception_4e/3x3_reduce
I0628 17:56:32.762024 127878 net.cpp:157] Top shape: 32 160 14 14 (1003520)
I0628 17:56:32.762033 127878 net.cpp:165] Memory required for data: 1628062728
I0628 17:56:32.762048 127878 layer_factory.hpp:76] Creating layer inception_4e/relu_3x3_reduce
I0628 17:56:32.762059 127878 net.cpp:106] Creating Layer inception_4e/relu_3x3_reduce
I0628 17:56:32.762068 127878 net.cpp:454] inception_4e/relu_3x3_reduce <- inception_4e/3x3_reduce
I0628 17:56:32.762079 127878 net.cpp:397] inception_4e/relu_3x3_reduce -> inception_4e/3x3_reduce (in-place)
I0628 17:56:32.762279 127878 net.cpp:150] Setting up inception_4e/relu_3x3_reduce
I0628 17:56:32.762295 127878 net.cpp:157] Top shape: 32 160 14 14 (1003520)
I0628 17:56:32.762303 127878 net.cpp:165] Memory required for data: 1632076808
I0628 17:56:32.762311 127878 layer_factory.hpp:76] Creating layer inception_4e/3x3
I0628 17:56:32.762326 127878 net.cpp:106] Creating Layer inception_4e/3x3
I0628 17:56:32.762336 127878 net.cpp:454] inception_4e/3x3 <- inception_4e/3x3_reduce
I0628 17:56:32.762347 127878 net.cpp:411] inception_4e/3x3 -> inception_4e/3x3
I0628 17:56:32.767539 127878 cudnn_conv_layer.cpp:194] Reallocating workspace storage: 17280
I0628 17:56:32.767573 127878 net.cpp:150] Setting up inception_4e/3x3
I0628 17:56:32.767585 127878 net.cpp:157] Top shape: 32 320 14 14 (2007040)
I0628 17:56:32.767595 127878 net.cpp:165] Memory required for data: 1640104968
I0628 17:56:32.767608 127878 layer_factory.hpp:76] Creating layer inception_4e/relu_3x3
I0628 17:56:32.767622 127878 net.cpp:106] Creating Layer inception_4e/relu_3x3
I0628 17:56:32.767632 127878 net.cpp:454] inception_4e/relu_3x3 <- inception_4e/3x3
I0628 17:56:32.767645 127878 net.cpp:397] inception_4e/relu_3x3 -> inception_4e/3x3 (in-place)
I0628 17:56:32.767998 127878 net.cpp:150] Setting up inception_4e/relu_3x3
I0628 17:56:32.768018 127878 net.cpp:157] Top shape: 32 320 14 14 (2007040)
I0628 17:56:32.768026 127878 net.cpp:165] Memory required for data: 1648133128
I0628 17:56:32.768035 127878 layer_factory.hpp:76] Creating layer inception_4e/5x5_reduce
I0628 17:56:32.768049 127878 net.cpp:106] Creating Layer inception_4e/5x5_reduce
I0628 17:56:32.768059 127878 net.cpp:454] inception_4e/5x5_reduce <- inception_4d/output_inception_4d/output_0_split_3
I0628 17:56:32.768075 127878 net.cpp:411] inception_4e/5x5_reduce -> inception_4e/5x5_reduce
I0628 17:56:32.769292 127878 net.cpp:150] Setting up inception_4e/5x5_reduce
I0628 17:56:32.769314 127878 net.cpp:157] Top shape: 32 32 14 14 (200704)
I0628 17:56:32.769322 127878 net.cpp:165] Memory required for data: 1648935944
I0628 17:56:32.769333 127878 layer_factory.hpp:76] Creating layer inception_4e/relu_5x5_reduce
I0628 17:56:32.769345 127878 net.cpp:106] Creating Layer inception_4e/relu_5x5_reduce
I0628 17:56:32.769356 127878 net.cpp:454] inception_4e/relu_5x5_reduce <- inception_4e/5x5_reduce
I0628 17:56:32.769366 127878 net.cpp:397] inception_4e/relu_5x5_reduce -> inception_4e/5x5_reduce (in-place)
I0628 17:56:32.769551 127878 net.cpp:150] Setting up inception_4e/relu_5x5_reduce
I0628 17:56:32.769568 127878 net.cpp:157] Top shape: 32 32 14 14 (200704)
I0628 17:56:32.769577 127878 net.cpp:165] Memory required for data: 1649738760
I0628 17:56:32.769584 127878 layer_factory.hpp:76] Creating layer inception_4e/5x5
I0628 17:56:32.769640 127878 net.cpp:106] Creating Layer inception_4e/5x5
I0628 17:56:32.769652 127878 net.cpp:454] inception_4e/5x5 <- inception_4e/5x5_reduce
I0628 17:56:32.769665 127878 net.cpp:411] inception_4e/5x5 -> inception_4e/5x5
I0628 17:56:32.771466 127878 net.cpp:150] Setting up inception_4e/5x5
I0628 17:56:32.771486 127878 net.cpp:157] Top shape: 32 128 14 14 (802816)
I0628 17:56:32.771494 127878 net.cpp:165] Memory required for data: 1652950024
I0628 17:56:32.771507 127878 layer_factory.hpp:76] Creating layer inception_4e/relu_5x5
I0628 17:56:32.771519 127878 net.cpp:106] Creating Layer inception_4e/relu_5x5
I0628 17:56:32.771528 127878 net.cpp:454] inception_4e/relu_5x5 <- inception_4e/5x5
I0628 17:56:32.771538 127878 net.cpp:397] inception_4e/relu_5x5 -> inception_4e/5x5 (in-place)
I0628 17:56:32.771726 127878 net.cpp:150] Setting up inception_4e/relu_5x5
I0628 17:56:32.771744 127878 net.cpp:157] Top shape: 32 128 14 14 (802816)
I0628 17:56:32.771750 127878 net.cpp:165] Memory required for data: 1656161288
I0628 17:56:32.771759 127878 layer_factory.hpp:76] Creating layer inception_4e/pool
I0628 17:56:32.771770 127878 net.cpp:106] Creating Layer inception_4e/pool
I0628 17:56:32.771780 127878 net.cpp:454] inception_4e/pool <- inception_4d/output_inception_4d/output_0_split_4
I0628 17:56:32.771793 127878 net.cpp:411] inception_4e/pool -> inception_4e/pool
I0628 17:56:32.772157 127878 net.cpp:150] Setting up inception_4e/pool
I0628 17:56:32.772176 127878 net.cpp:157] Top shape: 32 528 14 14 (3311616)
I0628 17:56:32.772184 127878 net.cpp:165] Memory required for data: 1669407752
I0628 17:56:32.772193 127878 layer_factory.hpp:76] Creating layer inception_4e/pool_proj
I0628 17:56:32.772207 127878 net.cpp:106] Creating Layer inception_4e/pool_proj
I0628 17:56:32.772217 127878 net.cpp:454] inception_4e/pool_proj <- inception_4e/pool
I0628 17:56:32.772229 127878 net.cpp:411] inception_4e/pool_proj -> inception_4e/pool_proj
I0628 17:56:32.773782 127878 cudnn_conv_layer.cpp:194] Reallocating workspace storage: 6336
I0628 17:56:32.773823 127878 net.cpp:150] Setting up inception_4e/pool_proj
I0628 17:56:32.773836 127878 net.cpp:157] Top shape: 32 128 14 14 (802816)
I0628 17:56:32.773846 127878 net.cpp:165] Memory required for data: 1672619016
I0628 17:56:32.773857 127878 layer_factory.hpp:76] Creating layer inception_4e/relu_pool_proj
I0628 17:56:32.773869 127878 net.cpp:106] Creating Layer inception_4e/relu_pool_proj
I0628 17:56:32.773880 127878 net.cpp:454] inception_4e/relu_pool_proj <- inception_4e/pool_proj
I0628 17:56:32.773891 127878 net.cpp:397] inception_4e/relu_pool_proj -> inception_4e/pool_proj (in-place)
I0628 17:56:32.774080 127878 net.cpp:150] Setting up inception_4e/relu_pool_proj
I0628 17:56:32.774097 127878 net.cpp:157] Top shape: 32 128 14 14 (802816)
I0628 17:56:32.774104 127878 net.cpp:165] Memory required for data: 1675830280
I0628 17:56:32.774112 127878 layer_factory.hpp:76] Creating layer inception_4e/output
I0628 17:56:32.774125 127878 net.cpp:106] Creating Layer inception_4e/output
I0628 17:56:32.774135 127878 net.cpp:454] inception_4e/output <- inception_4e/1x1
I0628 17:56:32.774144 127878 net.cpp:454] inception_4e/output <- inception_4e/3x3
I0628 17:56:32.774158 127878 net.cpp:454] inception_4e/output <- inception_4e/5x5
I0628 17:56:32.774166 127878 net.cpp:454] inception_4e/output <- inception_4e/pool_proj
I0628 17:56:32.774176 127878 net.cpp:411] inception_4e/output -> inception_4e/output
I0628 17:56:32.774217 127878 net.cpp:150] Setting up inception_4e/output
I0628 17:56:32.774232 127878 net.cpp:157] Top shape: 32 832 14 14 (5218304)
I0628 17:56:32.774240 127878 net.cpp:165] Memory required for data: 1696703496
I0628 17:56:32.774248 127878 layer_factory.hpp:76] Creating layer pool4/3x3_s2
I0628 17:56:32.774260 127878 net.cpp:106] Creating Layer pool4/3x3_s2
I0628 17:56:32.774269 127878 net.cpp:454] pool4/3x3_s2 <- inception_4e/output
I0628 17:56:32.774281 127878 net.cpp:411] pool4/3x3_s2 -> pool4/3x3_s2
I0628 17:56:32.774644 127878 net.cpp:150] Setting up pool4/3x3_s2
I0628 17:56:32.774675 127878 net.cpp:157] Top shape: 32 832 7 7 (1304576)
I0628 17:56:32.774684 127878 net.cpp:165] Memory required for data: 1701921800
I0628 17:56:32.774693 127878 layer_factory.hpp:76] Creating layer pool4/3x3_s2_pool4/3x3_s2_0_split
I0628 17:56:32.774705 127878 net.cpp:106] Creating Layer pool4/3x3_s2_pool4/3x3_s2_0_split
I0628 17:56:32.774714 127878 net.cpp:454] pool4/3x3_s2_pool4/3x3_s2_0_split <- pool4/3x3_s2
I0628 17:56:32.774729 127878 net.cpp:411] pool4/3x3_s2_pool4/3x3_s2_0_split -> pool4/3x3_s2_pool4/3x3_s2_0_split_0
I0628 17:56:32.774747 127878 net.cpp:411] pool4/3x3_s2_pool4/3x3_s2_0_split -> pool4/3x3_s2_pool4/3x3_s2_0_split_1
I0628 17:56:32.774760 127878 net.cpp:411] pool4/3x3_s2_pool4/3x3_s2_0_split -> pool4/3x3_s2_pool4/3x3_s2_0_split_2
I0628 17:56:32.774771 127878 net.cpp:411] pool4/3x3_s2_pool4/3x3_s2_0_split -> pool4/3x3_s2_pool4/3x3_s2_0_split_3
I0628 17:56:32.774853 127878 net.cpp:150] Setting up pool4/3x3_s2_pool4/3x3_s2_0_split
I0628 17:56:32.774866 127878 net.cpp:157] Top shape: 32 832 7 7 (1304576)
I0628 17:56:32.774875 127878 net.cpp:157] Top shape: 32 832 7 7 (1304576)
I0628 17:56:32.774883 127878 net.cpp:157] Top shape: 32 832 7 7 (1304576)
I0628 17:56:32.774891 127878 net.cpp:157] Top shape: 32 832 7 7 (1304576)
I0628 17:56:32.774901 127878 net.cpp:165] Memory required for data: 1722795016
I0628 17:56:32.774910 127878 layer_factory.hpp:76] Creating layer inception_5a/1x1
I0628 17:56:32.774924 127878 net.cpp:106] Creating Layer inception_5a/1x1
I0628 17:56:32.774935 127878 net.cpp:454] inception_5a/1x1 <- pool4/3x3_s2_pool4/3x3_s2_0_split_0
I0628 17:56:32.774950 127878 net.cpp:411] inception_5a/1x1 -> inception_5a/1x1
I0628 17:56:32.778051 127878 cudnn_conv_layer.cpp:194] Reallocating workspace storage: 9984
I0628 17:56:32.778092 127878 net.cpp:150] Setting up inception_5a/1x1
I0628 17:56:32.778105 127878 net.cpp:157] Top shape: 32 256 7 7 (401408)
I0628 17:56:32.778115 127878 net.cpp:165] Memory required for data: 1724400648
I0628 17:56:32.778126 127878 layer_factory.hpp:76] Creating layer inception_5a/relu_1x1
I0628 17:56:32.778141 127878 net.cpp:106] Creating Layer inception_5a/relu_1x1
I0628 17:56:32.778153 127878 net.cpp:454] inception_5a/relu_1x1 <- inception_5a/1x1
I0628 17:56:32.778167 127878 net.cpp:397] inception_5a/relu_1x1 -> inception_5a/1x1 (in-place)
I0628 17:56:32.778355 127878 net.cpp:150] Setting up inception_5a/relu_1x1
I0628 17:56:32.778372 127878 net.cpp:157] Top shape: 32 256 7 7 (401408)
I0628 17:56:32.778379 127878 net.cpp:165] Memory required for data: 1726006280
I0628 17:56:32.778388 127878 layer_factory.hpp:76] Creating layer inception_5a/3x3_reduce
I0628 17:56:32.778403 127878 net.cpp:106] Creating Layer inception_5a/3x3_reduce
I0628 17:56:32.778414 127878 net.cpp:454] inception_5a/3x3_reduce <- pool4/3x3_s2_pool4/3x3_s2_0_split_1
I0628 17:56:32.778426 127878 net.cpp:411] inception_5a/3x3_reduce -> inception_5a/3x3_reduce
I0628 17:56:32.780956 127878 cudnn_conv_layer.cpp:194] Reallocating workspace storage: 9984
I0628 17:56:32.780999 127878 net.cpp:150] Setting up inception_5a/3x3_reduce
I0628 17:56:32.781013 127878 net.cpp:157] Top shape: 32 160 7 7 (250880)
I0628 17:56:32.781026 127878 net.cpp:165] Memory required for data: 1727009800
I0628 17:56:32.781038 127878 layer_factory.hpp:76] Creating layer inception_5a/relu_3x3_reduce
I0628 17:56:32.781049 127878 net.cpp:106] Creating Layer inception_5a/relu_3x3_reduce
I0628 17:56:32.781059 127878 net.cpp:454] inception_5a/relu_3x3_reduce <- inception_5a/3x3_reduce
I0628 17:56:32.781070 127878 net.cpp:397] inception_5a/relu_3x3_reduce -> inception_5a/3x3_reduce (in-place)
I0628 17:56:32.781407 127878 net.cpp:150] Setting up inception_5a/relu_3x3_reduce
I0628 17:56:32.781427 127878 net.cpp:157] Top shape: 32 160 7 7 (250880)
I0628 17:56:32.781435 127878 net.cpp:165] Memory required for data: 1728013320
I0628 17:56:32.781443 127878 layer_factory.hpp:76] Creating layer inception_5a/3x3
I0628 17:56:32.781461 127878 net.cpp:106] Creating Layer inception_5a/3x3
I0628 17:56:32.781471 127878 net.cpp:454] inception_5a/3x3 <- inception_5a/3x3_reduce
I0628 17:56:32.781500 127878 net.cpp:411] inception_5a/3x3 -> inception_5a/3x3
I0628 17:56:32.786454 127878 net.cpp:150] Setting up inception_5a/3x3
I0628 17:56:32.786480 127878 net.cpp:157] Top shape: 32 320 7 7 (501760)
I0628 17:56:32.786489 127878 net.cpp:165] Memory required for data: 1730020360
I0628 17:56:32.786501 127878 layer_factory.hpp:76] Creating layer inception_5a/relu_3x3
I0628 17:56:32.786520 127878 net.cpp:106] Creating Layer inception_5a/relu_3x3
I0628 17:56:32.786530 127878 net.cpp:454] inception_5a/relu_3x3 <- inception_5a/3x3
I0628 17:56:32.786540 127878 net.cpp:397] inception_5a/relu_3x3 -> inception_5a/3x3 (in-place)
I0628 17:56:32.786900 127878 net.cpp:150] Setting up inception_5a/relu_3x3
I0628 17:56:32.786921 127878 net.cpp:157] Top shape: 32 320 7 7 (501760)
I0628 17:56:32.786928 127878 net.cpp:165] Memory required for data: 1732027400
I0628 17:56:32.786936 127878 layer_factory.hpp:76] Creating layer inception_5a/5x5_reduce
I0628 17:56:32.786957 127878 net.cpp:106] Creating Layer inception_5a/5x5_reduce
I0628 17:56:32.786967 127878 net.cpp:454] inception_5a/5x5_reduce <- pool4/3x3_s2_pool4/3x3_s2_0_split_2
I0628 17:56:32.786978 127878 net.cpp:411] inception_5a/5x5_reduce -> inception_5a/5x5_reduce
I0628 17:56:32.788441 127878 cudnn_conv_layer.cpp:194] Reallocating workspace storage: 9984
I0628 17:56:32.788482 127878 net.cpp:150] Setting up inception_5a/5x5_reduce
I0628 17:56:32.788499 127878 net.cpp:157] Top shape: 32 32 7 7 (50176)
I0628 17:56:32.788507 127878 net.cpp:165] Memory required for data: 1732228104
I0628 17:56:32.788522 127878 layer_factory.hpp:76] Creating layer inception_5a/relu_5x5_reduce
I0628 17:56:32.788532 127878 net.cpp:106] Creating Layer inception_5a/relu_5x5_reduce
I0628 17:56:32.788542 127878 net.cpp:454] inception_5a/relu_5x5_reduce <- inception_5a/5x5_reduce
I0628 17:56:32.788554 127878 net.cpp:397] inception_5a/relu_5x5_reduce -> inception_5a/5x5_reduce (in-place)
I0628 17:56:32.788753 127878 net.cpp:150] Setting up inception_5a/relu_5x5_reduce
I0628 17:56:32.788769 127878 net.cpp:157] Top shape: 32 32 7 7 (50176)
I0628 17:56:32.788777 127878 net.cpp:165] Memory required for data: 1732428808
I0628 17:56:32.788786 127878 layer_factory.hpp:76] Creating layer inception_5a/5x5
I0628 17:56:32.788800 127878 net.cpp:106] Creating Layer inception_5a/5x5
I0628 17:56:32.788818 127878 net.cpp:454] inception_5a/5x5 <- inception_5a/5x5_reduce
I0628 17:56:32.788832 127878 net.cpp:411] inception_5a/5x5 -> inception_5a/5x5
I0628 17:56:32.790660 127878 net.cpp:150] Setting up inception_5a/5x5
I0628 17:56:32.790683 127878 net.cpp:157] Top shape: 32 128 7 7 (200704)
I0628 17:56:32.790690 127878 net.cpp:165] Memory required for data: 1733231624
I0628 17:56:32.790701 127878 layer_factory.hpp:76] Creating layer inception_5a/relu_5x5
I0628 17:56:32.790712 127878 net.cpp:106] Creating Layer inception_5a/relu_5x5
I0628 17:56:32.790722 127878 net.cpp:454] inception_5a/relu_5x5 <- inception_5a/5x5
I0628 17:56:32.790735 127878 net.cpp:397] inception_5a/relu_5x5 -> inception_5a/5x5 (in-place)
I0628 17:56:32.791062 127878 net.cpp:150] Setting up inception_5a/relu_5x5
I0628 17:56:32.791081 127878 net.cpp:157] Top shape: 32 128 7 7 (200704)
I0628 17:56:32.791090 127878 net.cpp:165] Memory required for data: 1734034440
I0628 17:56:32.791097 127878 layer_factory.hpp:76] Creating layer inception_5a/pool
I0628 17:56:32.791110 127878 net.cpp:106] Creating Layer inception_5a/pool
I0628 17:56:32.791118 127878 net.cpp:454] inception_5a/pool <- pool4/3x3_s2_pool4/3x3_s2_0_split_3
I0628 17:56:32.791131 127878 net.cpp:411] inception_5a/pool -> inception_5a/pool
I0628 17:56:32.791363 127878 net.cpp:150] Setting up inception_5a/pool
I0628 17:56:32.791379 127878 net.cpp:157] Top shape: 32 832 7 7 (1304576)
I0628 17:56:32.791388 127878 net.cpp:165] Memory required for data: 1739252744
I0628 17:56:32.791395 127878 layer_factory.hpp:76] Creating layer inception_5a/pool_proj
I0628 17:56:32.791409 127878 net.cpp:106] Creating Layer inception_5a/pool_proj
I0628 17:56:32.791440 127878 net.cpp:454] inception_5a/pool_proj <- inception_5a/pool
I0628 17:56:32.791453 127878 net.cpp:411] inception_5a/pool_proj -> inception_5a/pool_proj
I0628 17:56:32.793828 127878 cudnn_conv_layer.cpp:194] Reallocating workspace storage: 9984
I0628 17:56:32.793870 127878 net.cpp:150] Setting up inception_5a/pool_proj
I0628 17:56:32.793885 127878 net.cpp:157] Top shape: 32 128 7 7 (200704)
I0628 17:56:32.793894 127878 net.cpp:165] Memory required for data: 1740055560
I0628 17:56:32.793906 127878 layer_factory.hpp:76] Creating layer inception_5a/relu_pool_proj
I0628 17:56:32.793918 127878 net.cpp:106] Creating Layer inception_5a/relu_pool_proj
I0628 17:56:32.793937 127878 net.cpp:454] inception_5a/relu_pool_proj <- inception_5a/pool_proj
I0628 17:56:32.793948 127878 net.cpp:397] inception_5a/relu_pool_proj -> inception_5a/pool_proj (in-place)
I0628 17:56:32.794138 127878 net.cpp:150] Setting up inception_5a/relu_pool_proj
I0628 17:56:32.794154 127878 net.cpp:157] Top shape: 32 128 7 7 (200704)
I0628 17:56:32.794162 127878 net.cpp:165] Memory required for data: 1740858376
I0628 17:56:32.794170 127878 layer_factory.hpp:76] Creating layer inception_5a/output
I0628 17:56:32.794183 127878 net.cpp:106] Creating Layer inception_5a/output
I0628 17:56:32.794191 127878 net.cpp:454] inception_5a/output <- inception_5a/1x1
I0628 17:56:32.794200 127878 net.cpp:454] inception_5a/output <- inception_5a/3x3
I0628 17:56:32.794209 127878 net.cpp:454] inception_5a/output <- inception_5a/5x5
I0628 17:56:32.794220 127878 net.cpp:454] inception_5a/output <- inception_5a/pool_proj
I0628 17:56:32.794234 127878 net.cpp:411] inception_5a/output -> inception_5a/output
I0628 17:56:32.794273 127878 net.cpp:150] Setting up inception_5a/output
I0628 17:56:32.794287 127878 net.cpp:157] Top shape: 32 832 7 7 (1304576)
I0628 17:56:32.794298 127878 net.cpp:165] Memory required for data: 1746076680
I0628 17:56:32.794306 127878 layer_factory.hpp:76] Creating layer inception_5a/output_inception_5a/output_0_split
I0628 17:56:32.794322 127878 net.cpp:106] Creating Layer inception_5a/output_inception_5a/output_0_split
I0628 17:56:32.794337 127878 net.cpp:454] inception_5a/output_inception_5a/output_0_split <- inception_5a/output
I0628 17:56:32.794350 127878 net.cpp:411] inception_5a/output_inception_5a/output_0_split -> inception_5a/output_inception_5a/output_0_split_0
I0628 17:56:32.794361 127878 net.cpp:411] inception_5a/output_inception_5a/output_0_split -> inception_5a/output_inception_5a/output_0_split_1
I0628 17:56:32.794376 127878 net.cpp:411] inception_5a/output_inception_5a/output_0_split -> inception_5a/output_inception_5a/output_0_split_2
I0628 17:56:32.794392 127878 net.cpp:411] inception_5a/output_inception_5a/output_0_split -> inception_5a/output_inception_5a/output_0_split_3
I0628 17:56:32.794472 127878 net.cpp:150] Setting up inception_5a/output_inception_5a/output_0_split
I0628 17:56:32.794484 127878 net.cpp:157] Top shape: 32 832 7 7 (1304576)
I0628 17:56:32.794493 127878 net.cpp:157] Top shape: 32 832 7 7 (1304576)
I0628 17:56:32.794502 127878 net.cpp:157] Top shape: 32 832 7 7 (1304576)
I0628 17:56:32.794509 127878 net.cpp:157] Top shape: 32 832 7 7 (1304576)
I0628 17:56:32.794519 127878 net.cpp:165] Memory required for data: 1766949896
I0628 17:56:32.794528 127878 layer_factory.hpp:76] Creating layer inception_5b/1x1
I0628 17:56:32.794541 127878 net.cpp:106] Creating Layer inception_5b/1x1
I0628 17:56:32.794550 127878 net.cpp:454] inception_5b/1x1 <- inception_5a/output_inception_5a/output_0_split_0
I0628 17:56:32.794562 127878 net.cpp:411] inception_5b/1x1 -> inception_5b/1x1
I0628 17:56:32.798527 127878 cudnn_conv_layer.cpp:194] Reallocating workspace storage: 9984
I0628 17:56:32.798571 127878 net.cpp:150] Setting up inception_5b/1x1
I0628 17:56:32.798588 127878 net.cpp:157] Top shape: 32 384 7 7 (602112)
I0628 17:56:32.798595 127878 net.cpp:165] Memory required for data: 1769358344
I0628 17:56:32.798609 127878 layer_factory.hpp:76] Creating layer inception_5b/relu_1x1
I0628 17:56:32.798620 127878 net.cpp:106] Creating Layer inception_5b/relu_1x1
I0628 17:56:32.798647 127878 net.cpp:454] inception_5b/relu_1x1 <- inception_5b/1x1
I0628 17:56:32.798660 127878 net.cpp:397] inception_5b/relu_1x1 -> inception_5b/1x1 (in-place)
I0628 17:56:32.798985 127878 net.cpp:150] Setting up inception_5b/relu_1x1
I0628 17:56:32.799005 127878 net.cpp:157] Top shape: 32 384 7 7 (602112)
I0628 17:56:32.799013 127878 net.cpp:165] Memory required for data: 1771766792
I0628 17:56:32.799022 127878 layer_factory.hpp:76] Creating layer inception_5b/3x3_reduce
I0628 17:56:32.799036 127878 net.cpp:106] Creating Layer inception_5b/3x3_reduce
I0628 17:56:32.799046 127878 net.cpp:454] inception_5b/3x3_reduce <- inception_5a/output_inception_5a/output_0_split_1
I0628 17:56:32.799057 127878 net.cpp:411] inception_5b/3x3_reduce -> inception_5b/3x3_reduce
I0628 17:56:32.801806 127878 cudnn_conv_layer.cpp:194] Reallocating workspace storage: 9984
I0628 17:56:32.801851 127878 net.cpp:150] Setting up inception_5b/3x3_reduce
I0628 17:56:32.801867 127878 net.cpp:157] Top shape: 32 192 7 7 (301056)
I0628 17:56:32.801875 127878 net.cpp:165] Memory required for data: 1772971016
I0628 17:56:32.801888 127878 layer_factory.hpp:76] Creating layer inception_5b/relu_3x3_reduce
I0628 17:56:32.801900 127878 net.cpp:106] Creating Layer inception_5b/relu_3x3_reduce
I0628 17:56:32.801919 127878 net.cpp:454] inception_5b/relu_3x3_reduce <- inception_5b/3x3_reduce
I0628 17:56:32.801933 127878 net.cpp:397] inception_5b/relu_3x3_reduce -> inception_5b/3x3_reduce (in-place)
I0628 17:56:32.802122 127878 net.cpp:150] Setting up inception_5b/relu_3x3_reduce
I0628 17:56:32.802139 127878 net.cpp:157] Top shape: 32 192 7 7 (301056)
I0628 17:56:32.802147 127878 net.cpp:165] Memory required for data: 1774175240
I0628 17:56:32.802155 127878 layer_factory.hpp:76] Creating layer inception_5b/3x3
I0628 17:56:32.802170 127878 net.cpp:106] Creating Layer inception_5b/3x3
I0628 17:56:32.802180 127878 net.cpp:454] inception_5b/3x3 <- inception_5b/3x3_reduce
I0628 17:56:32.802191 127878 net.cpp:411] inception_5b/3x3 -> inception_5b/3x3
I0628 17:56:32.808917 127878 cudnn_conv_layer.cpp:194] Reallocating workspace storage: 20736
I0628 17:56:32.808954 127878 net.cpp:150] Setting up inception_5b/3x3
I0628 17:56:32.808970 127878 net.cpp:157] Top shape: 32 384 7 7 (602112)
I0628 17:56:32.808979 127878 net.cpp:165] Memory required for data: 1776583688
I0628 17:56:32.808991 127878 layer_factory.hpp:76] Creating layer inception_5b/relu_3x3
I0628 17:56:32.809005 127878 net.cpp:106] Creating Layer inception_5b/relu_3x3
I0628 17:56:32.809015 127878 net.cpp:454] inception_5b/relu_3x3 <- inception_5b/3x3
I0628 17:56:32.809036 127878 net.cpp:397] inception_5b/relu_3x3 -> inception_5b/3x3 (in-place)
I0628 17:56:32.809237 127878 net.cpp:150] Setting up inception_5b/relu_3x3
I0628 17:56:32.809254 127878 net.cpp:157] Top shape: 32 384 7 7 (602112)
I0628 17:56:32.809262 127878 net.cpp:165] Memory required for data: 1778992136
I0628 17:56:32.809270 127878 layer_factory.hpp:76] Creating layer inception_5b/5x5_reduce
I0628 17:56:32.809285 127878 net.cpp:106] Creating Layer inception_5b/5x5_reduce
I0628 17:56:32.809295 127878 net.cpp:454] inception_5b/5x5_reduce <- inception_5a/output_inception_5a/output_0_split_2
I0628 17:56:32.809309 127878 net.cpp:411] inception_5b/5x5_reduce -> inception_5b/5x5_reduce
I0628 17:56:32.811316 127878 net.cpp:150] Setting up inception_5b/5x5_reduce
I0628 17:56:32.811338 127878 net.cpp:157] Top shape: 32 48 7 7 (75264)
I0628 17:56:32.811347 127878 net.cpp:165] Memory required for data: 1779293192
I0628 17:56:32.811357 127878 layer_factory.hpp:76] Creating layer inception_5b/relu_5x5_reduce
I0628 17:56:32.811372 127878 net.cpp:106] Creating Layer inception_5b/relu_5x5_reduce
I0628 17:56:32.811381 127878 net.cpp:454] inception_5b/relu_5x5_reduce <- inception_5b/5x5_reduce
I0628 17:56:32.811393 127878 net.cpp:397] inception_5b/relu_5x5_reduce -> inception_5b/5x5_reduce (in-place)
I0628 17:56:32.811733 127878 net.cpp:150] Setting up inception_5b/relu_5x5_reduce
I0628 17:56:32.811753 127878 net.cpp:157] Top shape: 32 48 7 7 (75264)
I0628 17:56:32.811780 127878 net.cpp:165] Memory required for data: 1779594248
I0628 17:56:32.811790 127878 layer_factory.hpp:76] Creating layer inception_5b/5x5
I0628 17:56:32.811810 127878 net.cpp:106] Creating Layer inception_5b/5x5
I0628 17:56:32.811826 127878 net.cpp:454] inception_5b/5x5 <- inception_5b/5x5_reduce
I0628 17:56:32.811838 127878 net.cpp:411] inception_5b/5x5 -> inception_5b/5x5
I0628 17:56:32.814055 127878 net.cpp:150] Setting up inception_5b/5x5
I0628 17:56:32.814076 127878 net.cpp:157] Top shape: 32 128 7 7 (200704)
I0628 17:56:32.814085 127878 net.cpp:165] Memory required for data: 1780397064
I0628 17:56:32.814095 127878 layer_factory.hpp:76] Creating layer inception_5b/relu_5x5
I0628 17:56:32.814108 127878 net.cpp:106] Creating Layer inception_5b/relu_5x5
I0628 17:56:32.814118 127878 net.cpp:454] inception_5b/relu_5x5 <- inception_5b/5x5
I0628 17:56:32.814131 127878 net.cpp:397] inception_5b/relu_5x5 -> inception_5b/5x5 (in-place)
I0628 17:56:32.814322 127878 net.cpp:150] Setting up inception_5b/relu_5x5
I0628 17:56:32.814338 127878 net.cpp:157] Top shape: 32 128 7 7 (200704)
I0628 17:56:32.814347 127878 net.cpp:165] Memory required for data: 1781199880
I0628 17:56:32.814354 127878 layer_factory.hpp:76] Creating layer inception_5b/pool
I0628 17:56:32.814366 127878 net.cpp:106] Creating Layer inception_5b/pool
I0628 17:56:32.814375 127878 net.cpp:454] inception_5b/pool <- inception_5a/output_inception_5a/output_0_split_3
I0628 17:56:32.814388 127878 net.cpp:411] inception_5b/pool -> inception_5b/pool
I0628 17:56:32.814934 127878 net.cpp:150] Setting up inception_5b/pool
I0628 17:56:32.814954 127878 net.cpp:157] Top shape: 32 832 7 7 (1304576)
I0628 17:56:32.814961 127878 net.cpp:165] Memory required for data: 1786418184
I0628 17:56:32.814970 127878 layer_factory.hpp:76] Creating layer inception_5b/pool_proj
I0628 17:56:32.814985 127878 net.cpp:106] Creating Layer inception_5b/pool_proj
I0628 17:56:32.814995 127878 net.cpp:454] inception_5b/pool_proj <- inception_5b/pool
I0628 17:56:32.815006 127878 net.cpp:411] inception_5b/pool_proj -> inception_5b/pool_proj
I0628 17:56:32.817296 127878 cudnn_conv_layer.cpp:194] Reallocating workspace storage: 9984
I0628 17:56:32.817342 127878 net.cpp:150] Setting up inception_5b/pool_proj
I0628 17:56:32.817354 127878 net.cpp:157] Top shape: 32 128 7 7 (200704)
I0628 17:56:32.817363 127878 net.cpp:165] Memory required for data: 1787221000
I0628 17:56:32.817376 127878 layer_factory.hpp:76] Creating layer inception_5b/relu_pool_proj
I0628 17:56:32.817390 127878 net.cpp:106] Creating Layer inception_5b/relu_pool_proj
I0628 17:56:32.817401 127878 net.cpp:454] inception_5b/relu_pool_proj <- inception_5b/pool_proj
I0628 17:56:32.817421 127878 net.cpp:397] inception_5b/relu_pool_proj -> inception_5b/pool_proj (in-place)
I0628 17:56:32.817767 127878 net.cpp:150] Setting up inception_5b/relu_pool_proj
I0628 17:56:32.817792 127878 net.cpp:157] Top shape: 32 128 7 7 (200704)
I0628 17:56:32.817800 127878 net.cpp:165] Memory required for data: 1788023816
I0628 17:56:32.817808 127878 layer_factory.hpp:76] Creating layer inception_5b/output
I0628 17:56:32.817821 127878 net.cpp:106] Creating Layer inception_5b/output
I0628 17:56:32.817832 127878 net.cpp:454] inception_5b/output <- inception_5b/1x1
I0628 17:56:32.817844 127878 net.cpp:454] inception_5b/output <- inception_5b/3x3
I0628 17:56:32.817855 127878 net.cpp:454] inception_5b/output <- inception_5b/5x5
I0628 17:56:32.817864 127878 net.cpp:454] inception_5b/output <- inception_5b/pool_proj
I0628 17:56:32.817874 127878 net.cpp:411] inception_5b/output -> inception_5b/output
I0628 17:56:32.817919 127878 net.cpp:150] Setting up inception_5b/output
I0628 17:56:32.817934 127878 net.cpp:157] Top shape: 32 1024 7 7 (1605632)
I0628 17:56:32.817941 127878 net.cpp:165] Memory required for data: 1794446344
I0628 17:56:32.817950 127878 layer_factory.hpp:76] Creating layer pool5/7x7_s1
I0628 17:56:32.817960 127878 net.cpp:106] Creating Layer pool5/7x7_s1
I0628 17:56:32.817970 127878 net.cpp:454] pool5/7x7_s1 <- inception_5b/output
I0628 17:56:32.818001 127878 net.cpp:411] pool5/7x7_s1 -> pool5/7x7_s1
I0628 17:56:32.818220 127878 net.cpp:150] Setting up pool5/7x7_s1
I0628 17:56:32.818238 127878 net.cpp:157] Top shape: 32 1024 1 1 (32768)
I0628 17:56:32.818245 127878 net.cpp:165] Memory required for data: 1794577416
I0628 17:56:32.818253 127878 layer_factory.hpp:76] Creating layer pool5/drop_7x7_s1
I0628 17:56:32.818266 127878 net.cpp:106] Creating Layer pool5/drop_7x7_s1
I0628 17:56:32.818275 127878 net.cpp:454] pool5/drop_7x7_s1 <- pool5/7x7_s1
I0628 17:56:32.818289 127878 net.cpp:397] pool5/drop_7x7_s1 -> pool5/7x7_s1 (in-place)
I0628 17:56:32.818326 127878 net.cpp:150] Setting up pool5/drop_7x7_s1
I0628 17:56:32.818339 127878 net.cpp:157] Top shape: 32 1024 1 1 (32768)
I0628 17:56:32.818347 127878 net.cpp:165] Memory required for data: 1794708488
I0628 17:56:32.818358 127878 layer_factory.hpp:76] Creating layer loss3/classifier
I0628 17:56:32.818375 127878 net.cpp:106] Creating Layer loss3/classifier
I0628 17:56:32.818385 127878 net.cpp:454] loss3/classifier <- pool5/7x7_s1
I0628 17:56:32.818395 127878 net.cpp:411] loss3/classifier -> loss3/classifier
I0628 17:56:32.818557 127878 net.cpp:150] Setting up loss3/classifier
I0628 17:56:32.818569 127878 net.cpp:157] Top shape: 32 2 (64)
I0628 17:56:32.818578 127878 net.cpp:165] Memory required for data: 1794708744
I0628 17:56:32.818588 127878 layer_factory.hpp:76] Creating layer loss3/loss3
I0628 17:56:32.818599 127878 net.cpp:106] Creating Layer loss3/loss3
I0628 17:56:32.818614 127878 net.cpp:454] loss3/loss3 <- loss3/classifier
I0628 17:56:32.818621 127878 net.cpp:454] loss3/loss3 <- label_data_1_split_2
I0628 17:56:32.818634 127878 net.cpp:411] loss3/loss3 -> loss3/loss3
…
I0628 17:56:32.825183 127878 net.cpp:49] Initializing net from parameters: 
name: "GoogleNet"
state {
  phase: TEST
}
layer {
  name: "data"
  type: "ImageData"
  top: "data"
  top: "label"
  include {
    phase: TEST
  }
  transform_param {
    mirror: false
    crop_size: 224
    mean_value: 104
    mean_value: 117
    mean_value: 123
  }
  image_data_param {
    source: "/data/dywang/Database/Proliferation/libs/stage04_mitosisDetection/training_examples/val.lst"
    batch_size: 100
    shuffle: true
    new_height: 256
    new_width: 256
  }
}
layer {
  name: "conv1/7x7_s2"
  type: "Convolution"
  bottom: "data"
  top: "conv1/7x7_s2"
  param {
    lr_mult: 1
    decay_mult: 1
  }
  param {
    lr_mult: 2
    decay_mult: 0
  }
  convolution_param {
    num_output: 64
    pad: 3
    kernel_size: 7
    stride: 2
    weight_filler {
      type: "xavier"
    }
    bias_filler {
      type: "constant"
      value: 0.2
    }
  }
}
layer {
  name: "conv1/relu_7x7"
  type: "ReLU"
  bottom: "conv1/7x7_s2"
  top: "conv1/7x7_s2"
}
layer {
  name: "pool1/3x3_s2"
  type: "Pooling"
  bottom: "conv1/7x7_s2"
  top: "pool1/3x3_s2"
  pooling_param {
    pool: MAX
    kernel_size: 3
    stride: 2
  }
}
layer {
  name: "pool1/norm1"
  type: "LRN"
  bottom: "pool1/3x3_s2"
  top: "pool1/norm1"
  lrn_param {
    local_size: 5
    alpha: 0.0001
    beta: 0.75
  }
}
layer {
  name: "conv2/3x3_reduce"
  type: "Convolution"
  bottom: "pool1/norm1"
  top: "conv2/3x3_reduce"
  param {
    lr_mult: 1
    decay_mult: 1
  }
  param {
    lr_mult: 2
    decay_mult: 0
  }
  convolution_param {
    num_output: 64
    kernel_size: 1
    weight_filler {
      type: "xavier"
    }
    bias_filler {
      type: "constant"
      value: 0.2
    }
  }
}
layer {
  name: "conv2/relu_3x3_reduce"
  type: "ReLU"
  bottom: "conv2/3x3_reduce"
  top: "conv2/3x3_reduce"
}
layer {
  name: "conv2/3x3"
  type: "Convolution"
  bottom: "conv2/3x3_reduce"
  top: "conv2/3x3"
  param {
    lr_mult: 1
    decay_mult: 1
  }
  param {
    lr_mult: 2
    decay_mult: 0
  }
  convolution_param {
    num_output: 192
    pad: 1
    kernel_size: 3
    weight_filler {
      type: "xavier"
    }
    bias_filler {
      type: "constant"
      value: 0.2
    }
  }
}
layer {
  name: "conv2/relu_3x3"
  type: "ReLU"
  bottom: "conv2/3x3"
  top: "conv2/3x3"
}
layer {
  name: "conv2/norm2"
  type: "LRN"
  bottom: "conv2/3x3"
  top: "conv2/norm2"
  lrn_param {
    local_size: 5
    alpha: 0.0001
    beta: 0.75
  }
}
layer {
  name: "pool2/3x3_s2"
  type: "Pooling"
  bottom: "conv2/norm2"
  top: "pool2/3x3_s2"
  pooling_param {
    pool: MAX
    kernel_size: 3
    stride: 2
  }
}
layer {
  name: "inception_3a/1x1"
  type: "Convolution"
  bottom: "pool2/3x3_s2"
  top: "inception_3a/1x1"
  param {
    lr_mult: 1
    decay_mult: 1
  }
  param {
    lr_mult: 2
    decay_mult: 0
  }
  convolution_param {
    num_output: 64
    kernel_size: 1
    weight_filler {
      type: "xavier"
    }
    bias_filler {
      type: "constant"
      value: 0.2
    }
  }
}
layer {
  name: "inception_3a/relu_1x1"
  type: "ReLU"
  bottom: "inception_3a/1x1"
  top: "inception_3a/1x1"
}
layer {
  name: "inception_3a/3x3_reduce"
  type: "Convolution"
  bottom: "pool2/3x3_s2"
  top: "inception_3a/3x3_reduce"
  param {
    lr_mult: 1
    decay_mult: 1
  }
  param {
    lr_mult: 2
    decay_mult: 0
  }
  convolution_param {
    num_output: 96
    kernel_size: 1
    weight_filler {
      type: "xavier"
    }
    bias_filler {
      type: "constant"
      value: 0.2
    }
  }
}
layer {
  name: "inception_3a/relu_3x3_reduce"
  type: "ReLU"
  bottom: "inception_3a/3x3_reduce"
  top: "inception_3a/3x3_reduce"
}
layer {
  name: "inception_3a/3x3"
  type: "Convolution"
  bottom: "inception_3a/3x3_reduce"
  top: "inception_3a/3x3"
  param {
    lr_mult: 1
    decay_mult: 1
  }
  param {
    lr_mult: 2
    decay_mult: 0
  }
  convolution_param {
    num_output: 128
    pad: 1
    kernel_size: 3
    weight_filler {
      type: "xavier"
    }
    bias_filler {
      type: "constant"
      value: 0.2
    }
  }
}
layer {
  name: "inception_3a/relu_3x3"
  type: "ReLU"
  bottom: "inception_3a/3x3"
  top: "inception_3a/3x3"
}
layer {
  name: "inception_3a/5x5_reduce"
  type: "Convolution"
  bottom: "pool2/3x3_s2"
  top: "inception_3a/5x5_reduce"
  param {
    lr_mult: 1
    decay_mult: 1
  }
  param {
    lr_mult: 2
    decay_mult: 0
  }
  convolution_param {
    num_output: 16
    kernel_size: 1
    weight_filler {
      type: "xavier"
    }
    bias_filler {
      type: "constant"
      value: 0.2
    }
  }
}
layer {
  name: "inception_3a/relu_5x5_reduce"
  type: "ReLU"
  bottom: "inception_3a/5x5_reduce"
  top: "inception_3a/5x5_reduce"
}
layer {
  name: "inception_3a/5x5"
  type: "Convolution"
  bottom: "inception_3a/5x5_reduce"
  top: "inception_3a/5x5"
  param {
    lr_mult: 1
    decay_mult: 1
  }
  param {
    lr_mult: 2
    decay_mult: 0
  }
  convolution_param {
    num_output: 32
    pad: 2
    kernel_size: 5
    weight_filler {
      type: "xavier"
    }
    bias_filler {
      type: "constant"
      value: 0.2
    }
  }
}
layer {
  name: "inception_3a/relu_5x5"
  type: "ReLU"
  bottom: "inception_3a/5x5"
  top: "inception_3a/5x5"
}
layer {
  name: "inception_3a/pool"
  type: "Pooling"
  bottom: "pool2/3x3_s2"
  top: "inception_3a/pool"
  pooling_param {
    pool: MAX
    kernel_size: 3
    stride: 1
    pad: 1
  }
}
layer {
  name: "inception_3a/pool_proj"
  type: "Convolution"
  bottom: "inception_3a/pool"
  top: "inception_3a/pool_proj"
  param {
    lr_mult: 1
    decay_mult: 1
  }
  param {
    lr_mult: 2
    decay_mult: 0
  }
  convolution_param {
    num_output: 32
    kernel_size: 1
    weight_filler {
      type: "xavier"
    }
    bias_filler {
      type: "constant"
      value: 0.2
    }
  }
}
layer {
  name: "inception_3a/relu_pool_proj"
  type: "ReLU"
  bottom: "inception_3a/pool_proj"
  top: "inception_3a/pool_proj"
}
layer {
  name: "inception_3a/output"
  type: "Concat"
  bottom: "inception_3a/1x1"
  bottom: "inception_3a/3x3"
  bottom: "inception_3a/5x5"
  bottom: "inception_3a/pool_proj"
  top: "inception_3a/output"
}
layer {
  name: "inception_3b/1x1"
  type: "Convolution"
  bottom: "inception_3a/output"
  top: "inception_3b/1x1"
  param {
    lr_mult: 1
    decay_mult: 1
  }
  param {
    lr_mult: 2
    decay_mult: 0
  }
  convolution_param {
    num_output: 128
    kernel_size: 1
    weight_filler {
      type: "xavier"
    }
    bias_filler {
      type: "constant"
      value: 0.2
    }
  }
}
layer {
  name: "inception_3b/relu_1x1"
  type: "ReLU"
  bottom: "inception_3b/1x1"
  top: "inception_3b/1x1"
}
layer {
  name: "inception_3b/3x3_reduce"
  type: "Convolution"
  bottom: "inception_3a/output"
  top: "inception_3b/3x3_reduce"
  param {
    lr_mult: 1
    decay_mult: 1
  }
  param {
    lr_mult: 2
    decay_mult: 0
  }
  convolution_param {
    num_output: 128
    kernel_size: 1
    weight_filler {
      type: "xavier"
    }
    bias_filler {
      type: "constant"
      value: 0.2
    }
  }
}
layer {
  name: "inception_3b/relu_3x3_reduce"
  type: "ReLU"
  bottom: "inception_3b/3x3_reduce"
  top: "inception_3b/3x3_reduce"
}
layer {
  name: "inception_3b/3x3"
  type: "Convolution"
  bottom: "inception_3b/3x3_reduce"
  top: "inception_3b/3x3"
  param {
    lr_mult: 1
    decay_mult: 1
  }
  param {
    lr_mult: 2
    decay_mult: 0
  }
  convolution_param {
    num_output: 192
    pad: 1
    kernel_size: 3
    weight_filler {
      type: "xavier"
    }
    bias_filler {
      type: "constant"
      value: 0.2
    }
  }
}
layer {
  name: "inception_3b/relu_3x3"
  type: "ReLU"
  bottom: "inception_3b/3x3"
  top: "inception_3b/3x3"
}
layer {
  name: "inception_3b/5x5_reduce"
  type: "Convolution"
  bottom: "inception_3a/output"
  top: "inception_3b/5x5_reduce"
  param {
    lr_mult: 1
    decay_mult: 1
  }
  param {
    lr_mult: 2
    decay_mult: 0
  }
  convolution_param {
    num_output: 32
    kernel_size: 1
    weight_filler {
      type: "xavier"
    }
    bias_filler {
      type: "constant"
      value: 0.2
    }
  }
}
layer {
  name: "inception_3b/relu_5x5_reduce"
  type: "ReLU"
  bottom: "inception_3b/5x5_reduce"
  top: "inception_3b/5x5_reduce"
}
layer {
  name: "inception_3b/5x5"
  type: "Convolution"
  bottom: "inception_3b/5x5_reduce"
  top: "inception_3b/5x5"
  param {
    lr_mult: 1
    decay_mult: 1
  }
  param {
    lr_mult: 2
    decay_mult: 0
  }
  convolution_param {
    num_output: 96
    pad: 2
    kernel_size: 5
    weight_filler {
      type: "xavier"
    }
    bias_filler {
      type: "constant"
      value: 0.2
    }
  }
}
layer {
  name: "inception_3b/relu_5x5"
  type: "ReLU"
  bottom: "inception_3b/5x5"
  top: "inception_3b/5x5"
}
layer {
  name: "inception_3b/pool"
  type: "Pooling"
  bottom: "inception_3a/output"
  top: "inception_3b/pool"
  pooling_param {
    pool: MAX
    kernel_size: 3
    stride: 1
    pad: 1
  }
}
layer {
  name: "inception_3b/pool_proj"
  type: "Convolution"
  bottom: "inception_3b/pool"
  top: "inception_3b/pool_proj"
  param {
    lr_mult: 1
    decay_mult: 1
  }
  param {
    lr_mult: 2
    decay_mult: 0
  }
  convolution_param {
    num_output: 64
    kernel_size: 1
    weight_filler {
      type: "xavier"
    }
    bias_filler {
      type: "constant"
      value: 0.2
    }
  }
}
layer {
  name: "inception_3b/relu_pool_proj"
  type: "ReLU"
  bottom: "inception_3b/pool_proj"
  top: "inception_3b/pool_proj"
}
layer {
  name: "inception_3b/output"
  type: "Concat"
  bottom: "inception_3b/1x1"
  bottom: "inception_3b/3x3"
  bottom: "inception_3b/5x5"
  bottom: "inception_3b/pool_proj"
  top: "inception_3b/output"
}
layer {
  name: "pool3/3x3_s2"
  type: "Pooling"
  bottom: "inception_3b/output"
  top: "pool3/3x3_s2"
  pooling_param {
    pool: MAX
    kernel_size: 3
    stride: 2
  }
}
layer {
  name: "inception_4a/1x1"
  type: "Convolution"
  bottom: "pool3/3x3_s2"
  top: "inception_4a/1x1"
  param {
    lr_mult: 1
…
I0628 17:56:33.061342 127878 net.cpp:157] Top shape: 100 64 14 14 (1254400)
I0628 17:56:33.061352 127878 net.cpp:165] Memory required for data: 4429163608
I0628 17:56:33.061359 127878 layer_factory.hpp:76] Creating layer inception_4c/output
I0628 17:56:33.061372 127878 net.cpp:106] Creating Layer inception_4c/output
I0628 17:56:33.061381 127878 net.cpp:454] inception_4c/output <- inception_4c/1x1
I0628 17:56:33.061390 127878 net.cpp:454] inception_4c/output <- inception_4c/3x3
I0628 17:56:33.061400 127878 net.cpp:454] inception_4c/output <- inception_4c/5x5
I0628 17:56:33.061410 127878 net.cpp:454] inception_4c/output <- inception_4c/pool_proj
I0628 17:56:33.061424 127878 net.cpp:411] inception_4c/output -> inception_4c/output
I0628 17:56:33.061476 127878 net.cpp:150] Setting up inception_4c/output
I0628 17:56:33.061501 127878 net.cpp:157] Top shape: 100 512 14 14 (10035200)
I0628 17:56:33.061522 127878 net.cpp:165] Memory required for data: 4469304408
I0628 17:56:33.061530 127878 layer_factory.hpp:76] Creating layer inception_4c/output_inception_4c/output_0_split
I0628 17:56:33.061543 127878 net.cpp:106] Creating Layer inception_4c/output_inception_4c/output_0_split
I0628 17:56:33.061553 127878 net.cpp:454] inception_4c/output_inception_4c/output_0_split <- inception_4c/output
I0628 17:56:33.061563 127878 net.cpp:411] inception_4c/output_inception_4c/output_0_split -> inception_4c/output_inception_4c/output_0_split_0
I0628 17:56:33.061578 127878 net.cpp:411] inception_4c/output_inception_4c/output_0_split -> inception_4c/output_inception_4c/output_0_split_1
I0628 17:56:33.061590 127878 net.cpp:411] inception_4c/output_inception_4c/output_0_split -> inception_4c/output_inception_4c/output_0_split_2
I0628 17:56:33.061602 127878 net.cpp:411] inception_4c/output_inception_4c/output_0_split -> inception_4c/output_inception_4c/output_0_split_3
I0628 17:56:33.061744 127878 net.cpp:150] Setting up inception_4c/output_inception_4c/output_0_split
I0628 17:56:33.061759 127878 net.cpp:157] Top shape: 100 512 14 14 (10035200)
I0628 17:56:33.061769 127878 net.cpp:157] Top shape: 100 512 14 14 (10035200)
I0628 17:56:33.061777 127878 net.cpp:157] Top shape: 100 512 14 14 (10035200)
I0628 17:56:33.061785 127878 net.cpp:157] Top shape: 100 512 14 14 (10035200)
I0628 17:56:33.061794 127878 net.cpp:165] Memory required for data: 4629867608
I0628 17:56:33.061802 127878 layer_factory.hpp:76] Creating layer inception_4d/1x1
I0628 17:56:33.061817 127878 net.cpp:106] Creating Layer inception_4d/1x1
I0628 17:56:33.061827 127878 net.cpp:454] inception_4d/1x1 <- inception_4c/output_inception_4c/output_0_split_0
I0628 17:56:33.061841 127878 net.cpp:411] inception_4d/1x1 -> inception_4d/1x1
I0628 17:56:33.063630 127878 cudnn_conv_layer.cpp:194] Reallocating workspace storage: 6144
I0628 17:56:33.063691 127878 net.cpp:150] Setting up inception_4d/1x1
I0628 17:56:33.063707 127878 net.cpp:157] Top shape: 100 112 14 14 (2195200)
I0628 17:56:33.063731 127878 net.cpp:165] Memory required for data: 4638648408
I0628 17:56:33.063745 127878 layer_factory.hpp:76] Creating layer inception_4d/relu_1x1
I0628 17:56:33.063758 127878 net.cpp:106] Creating Layer inception_4d/relu_1x1
I0628 17:56:33.063768 127878 net.cpp:454] inception_4d/relu_1x1 <- inception_4d/1x1
I0628 17:56:33.063779 127878 net.cpp:397] inception_4d/relu_1x1 -> inception_4d/1x1 (in-place)
I0628 17:56:33.064370 127878 net.cpp:150] Setting up inception_4d/relu_1x1
I0628 17:56:33.064402 127878 net.cpp:157] Top shape: 100 112 14 14 (2195200)
I0628 17:56:33.064410 127878 net.cpp:165] Memory required for data: 4647429208
I0628 17:56:33.064420 127878 layer_factory.hpp:76] Creating layer inception_4d/3x3_reduce
I0628 17:56:33.064436 127878 net.cpp:106] Creating Layer inception_4d/3x3_reduce
I0628 17:56:33.064447 127878 net.cpp:454] inception_4d/3x3_reduce <- inception_4c/output_inception_4c/output_0_split_1
I0628 17:56:33.064460 127878 net.cpp:411] inception_4d/3x3_reduce -> inception_4d/3x3_reduce
I0628 17:56:33.066251 127878 cudnn_conv_layer.cpp:194] Reallocating workspace storage: 6144
I0628 17:56:33.066308 127878 net.cpp:150] Setting up inception_4d/3x3_reduce
I0628 17:56:33.066321 127878 net.cpp:157] Top shape: 100 144 14 14 (2822400)
I0628 17:56:33.066329 127878 net.cpp:165] Memory required for data: 4658718808
I0628 17:56:33.066341 127878 layer_factory.hpp:76] Creating layer inception_4d/relu_3x3_reduce
I0628 17:56:33.066355 127878 net.cpp:106] Creating Layer inception_4d/relu_3x3_reduce
I0628 17:56:33.066365 127878 net.cpp:454] inception_4d/relu_3x3_reduce <- inception_4d/3x3_reduce
I0628 17:56:33.066378 127878 net.cpp:397] inception_4d/relu_3x3_reduce -> inception_4d/3x3_reduce (in-place)
I0628 17:56:33.066781 127878 net.cpp:150] Setting up inception_4d/relu_3x3_reduce
I0628 17:56:33.066812 127878 net.cpp:157] Top shape: 100 144 14 14 (2822400)
I0628 17:56:33.066820 127878 net.cpp:165] Memory required for data: 4670008408
I0628 17:56:33.066828 127878 layer_factory.hpp:76] Creating layer inception_4d/3x3
I0628 17:56:33.066844 127878 net.cpp:106] Creating Layer inception_4d/3x3
I0628 17:56:33.066854 127878 net.cpp:454] inception_4d/3x3 <- inception_4d/3x3_reduce
I0628 17:56:33.066865 127878 net.cpp:411] inception_4d/3x3 -> inception_4d/3x3
I0628 17:56:33.071713 127878 cudnn_conv_layer.cpp:194] Reallocating workspace storage: 15552
I0628 17:56:33.071779 127878 net.cpp:150] Setting up inception_4d/3x3
I0628 17:56:33.071794 127878 net.cpp:157] Top shape: 100 288 14 14 (5644800)
I0628 17:56:33.071801 127878 net.cpp:165] Memory required for data: 4692587608
I0628 17:56:33.071815 127878 layer_factory.hpp:76] Creating layer inception_4d/relu_3x3
I0628 17:56:33.071827 127878 net.cpp:106] Creating Layer inception_4d/relu_3x3
I0628 17:56:33.071844 127878 net.cpp:454] inception_4d/relu_3x3 <- inception_4d/3x3
I0628 17:56:33.071858 127878 net.cpp:397] inception_4d/relu_3x3 -> inception_4d/3x3 (in-place)
I0628 17:56:33.072095 127878 net.cpp:150] Setting up inception_4d/relu_3x3
I0628 17:56:33.072126 127878 net.cpp:157] Top shape: 100 288 14 14 (5644800)
I0628 17:56:33.072134 127878 net.cpp:165] Memory required for data: 4715166808
I0628 17:56:33.072144 127878 layer_factory.hpp:76] Creating layer inception_4d/5x5_reduce
I0628 17:56:33.072160 127878 net.cpp:106] Creating Layer inception_4d/5x5_reduce
I0628 17:56:33.072170 127878 net.cpp:454] inception_4d/5x5_reduce <- inception_4c/output_inception_4c/output_0_split_2
I0628 17:56:33.072183 127878 net.cpp:411] inception_4d/5x5_reduce -> inception_4d/5x5_reduce
I0628 17:56:33.073742 127878 net.cpp:150] Setting up inception_4d/5x5_reduce
I0628 17:56:33.073765 127878 net.cpp:157] Top shape: 100 32 14 14 (627200)
I0628 17:56:33.073774 127878 net.cpp:165] Memory required for data: 4717675608
I0628 17:56:33.073786 127878 layer_factory.hpp:76] Creating layer inception_4d/relu_5x5_reduce
I0628 17:56:33.073798 127878 net.cpp:106] Creating Layer inception_4d/relu_5x5_reduce
I0628 17:56:33.073812 127878 net.cpp:454] inception_4d/relu_5x5_reduce <- inception_4d/5x5_reduce
I0628 17:56:33.073843 127878 net.cpp:397] inception_4d/relu_5x5_reduce -> inception_4d/5x5_reduce (in-place)
I0628 17:56:33.074249 127878 net.cpp:150] Setting up inception_4d/relu_5x5_reduce
I0628 17:56:33.074280 127878 net.cpp:157] Top shape: 100 32 14 14 (627200)
I0628 17:56:33.074290 127878 net.cpp:165] Memory required for data: 4720184408
I0628 17:56:33.074297 127878 layer_factory.hpp:76] Creating layer inception_4d/5x5
I0628 17:56:33.074314 127878 net.cpp:106] Creating Layer inception_4d/5x5
I0628 17:56:33.074328 127878 net.cpp:454] inception_4d/5x5 <- inception_4d/5x5_reduce
I0628 17:56:33.074343 127878 net.cpp:411] inception_4d/5x5 -> inception_4d/5x5
I0628 17:56:33.075942 127878 cudnn_conv_layer.cpp:194] Reallocating workspace storage: 9600
I0628 17:56:33.076011 127878 net.cpp:150] Setting up inception_4d/5x5
I0628 17:56:33.076026 127878 net.cpp:157] Top shape: 100 64 14 14 (1254400)
I0628 17:56:33.076035 127878 net.cpp:165] Memory required for data: 4725202008
I0628 17:56:33.076047 127878 layer_factory.hpp:76] Creating layer inception_4d/relu_5x5
I0628 17:56:33.076063 127878 net.cpp:106] Creating Layer inception_4d/relu_5x5
I0628 17:56:33.076074 127878 net.cpp:454] inception_4d/relu_5x5 <- inception_4d/5x5
I0628 17:56:33.076086 127878 net.cpp:397] inception_4d/relu_5x5 -> inception_4d/5x5 (in-place)
I0628 17:56:33.076477 127878 net.cpp:150] Setting up inception_4d/relu_5x5
I0628 17:56:33.076498 127878 net.cpp:157] Top shape: 100 64 14 14 (1254400)
I0628 17:56:33.076508 127878 net.cpp:165] Memory required for data: 4730219608
I0628 17:56:33.076516 127878 layer_factory.hpp:76] Creating layer inception_4d/pool
I0628 17:56:33.076530 127878 net.cpp:106] Creating Layer inception_4d/pool
I0628 17:56:33.076542 127878 net.cpp:454] inception_4d/pool <- inception_4c/output_inception_4c/output_0_split_3
I0628 17:56:33.076553 127878 net.cpp:411] inception_4d/pool -> inception_4d/pool
I0628 17:56:33.077010 127878 net.cpp:150] Setting up inception_4d/pool
I0628 17:56:33.077031 127878 net.cpp:157] Top shape: 100 512 14 14 (10035200)
I0628 17:56:33.077041 127878 net.cpp:165] Memory required for data: 4770360408
I0628 17:56:33.077050 127878 layer_factory.hpp:76] Creating layer inception_4d/pool_proj
I0628 17:56:33.077069 127878 net.cpp:106] Creating Layer inception_4d/pool_proj
I0628 17:56:33.077080 127878 net.cpp:454] inception_4d/pool_proj <- inception_4d/pool
I0628 17:56:33.077090 127878 net.cpp:411] inception_4d/pool_proj -> inception_4d/pool_proj
I0628 17:56:33.078591 127878 net.cpp:150] Setting up inception_4d/pool_proj
I0628 17:56:33.078625 127878 net.cpp:157] Top shape: 100 64 14 14 (1254400)
I0628 17:56:33.078634 127878 net.cpp:165] Memory required for data: 4775378008
I0628 17:56:33.078650 127878 layer_factory.hpp:76] Creating layer inception_4d/relu_pool_proj
I0628 17:56:33.078662 127878 net.cpp:106] Creating Layer inception_4d/relu_pool_proj
I0628 17:56:33.078672 127878 net.cpp:454] inception_4d/relu_pool_proj <- inception_4d/pool_proj
I0628 17:56:33.078686 127878 net.cpp:397] inception_4d/relu_pool_proj -> inception_4d/pool_proj (in-place)
I0628 17:56:33.079090 127878 net.cpp:150] Setting up inception_4d/relu_pool_proj
I0628 17:56:33.079123 127878 net.cpp:157] Top shape: 100 64 14 14 (1254400)
I0628 17:56:33.079131 127878 net.cpp:165] Memory required for data: 4780395608
I0628 17:56:33.079140 127878 layer_factory.hpp:76] Creating layer inception_4d/output
I0628 17:56:33.079152 127878 net.cpp:106] Creating Layer inception_4d/output
I0628 17:56:33.079161 127878 net.cpp:454] inception_4d/output <- inception_4d/1x1
I0628 17:56:33.079174 127878 net.cpp:454] inception_4d/output <- inception_4d/3x3
I0628 17:56:33.079183 127878 net.cpp:454] inception_4d/output <- inception_4d/5x5
I0628 17:56:33.079192 127878 net.cpp:454] inception_4d/output <- inception_4d/pool_proj
I0628 17:56:33.079205 127878 net.cpp:411] inception_4d/output -> inception_4d/output
I0628 17:56:33.079277 127878 net.cpp:150] Setting up inception_4d/output
I0628 17:56:33.079290 127878 net.cpp:157] Top shape: 100 528 14 14 (10348800)
I0628 17:56:33.079329 127878 net.cpp:165] Memory required for data: 4821790808
I0628 17:56:33.079337 127878 layer_factory.hpp:76] Creating layer inception_4d/output_inception_4d/output_0_split
I0628 17:56:33.079350 127878 net.cpp:106] Creating Layer inception_4d/output_inception_4d/output_0_split
I0628 17:56:33.079360 127878 net.cpp:454] inception_4d/output_inception_4d/output_0_split <- inception_4d/output
I0628 17:56:33.079370 127878 net.cpp:411] inception_4d/output_inception_4d/output_0_split -> inception_4d/output_inception_4d/output_0_split_0
I0628 17:56:33.079382 127878 net.cpp:411] inception_4d/output_inception_4d/output_0_split -> inception_4d/output_inception_4d/output_0_split_1
I0628 17:56:33.079401 127878 net.cpp:411] inception_4d/output_inception_4d/output_0_split -> inception_4d/output_inception_4d/output_0_split_2
I0628 17:56:33.079414 127878 net.cpp:411] inception_4d/output_inception_4d/output_0_split -> inception_4d/output_inception_4d/output_0_split_3
I0628 17:56:33.079424 127878 net.cpp:411] inception_4d/output_inception_4d/output_0_split -> inception_4d/output_inception_4d/output_0_split_4
I0628 17:56:33.079565 127878 net.cpp:150] Setting up inception_4d/output_inception_4d/output_0_split
I0628 17:56:33.079578 127878 net.cpp:157] Top shape: 100 528 14 14 (10348800)
I0628 17:56:33.079588 127878 net.cpp:157] Top shape: 100 528 14 14 (10348800)
I0628 17:56:33.079596 127878 net.cpp:157] Top shape: 100 528 14 14 (10348800)
I0628 17:56:33.079607 127878 net.cpp:157] Top shape: 100 528 14 14 (10348800)
I0628 17:56:33.079614 127878 net.cpp:157] Top shape: 100 528 14 14 (10348800)
I0628 17:56:33.079622 127878 net.cpp:165] Memory required for data: 5028766808
I0628 17:56:33.079632 127878 layer_factory.hpp:76] Creating layer loss2/ave_pool
I0628 17:56:33.079643 127878 net.cpp:106] Creating Layer loss2/ave_pool
I0628 17:56:33.079654 127878 net.cpp:454] loss2/ave_pool <- inception_4d/output_inception_4d/output_0_split_0
I0628 17:56:33.079666 127878 net.cpp:411] loss2/ave_pool -> loss2/ave_pool
I0628 17:56:33.079924 127878 net.cpp:150] Setting up loss2/ave_pool
I0628 17:56:33.079942 127878 net.cpp:157] Top shape: 100 528 4 4 (844800)
I0628 17:56:33.079951 127878 net.cpp:165] Memory required for data: 5032146008
I0628 17:56:33.079959 127878 layer_factory.hpp:76] Creating layer loss2/conv
I0628 17:56:33.079974 127878 net.cpp:106] Creating Layer loss2/conv
I0628 17:56:33.079987 127878 net.cpp:454] loss2/conv <- loss2/ave_pool
I0628 17:56:33.079999 127878 net.cpp:411] loss2/conv -> loss2/conv
I0628 17:56:33.082528 127878 cudnn_conv_layer.cpp:194] Reallocating workspace storage: 6336
I0628 17:56:33.082605 127878 net.cpp:150] Setting up loss2/conv
I0628 17:56:33.082620 127878 net.cpp:157] Top shape: 100 128 4 4 (204800)
I0628 17:56:33.082628 127878 net.cpp:165] Memory required for data: 5032965208
I0628 17:56:33.082640 127878 layer_factory.hpp:76] Creating layer loss2/relu_conv
I0628 17:56:33.082653 127878 net.cpp:106] Creating Layer loss2/relu_conv
I0628 17:56:33.082662 127878 net.cpp:454] loss2/relu_conv <- loss2/conv
I0628 17:56:33.082674 127878 net.cpp:397] loss2/relu_conv -> loss2/conv (in-place)
I0628 17:56:33.083091 127878 net.cpp:150] Setting up loss2/relu_conv
I0628 17:56:33.083124 127878 net.cpp:157] Top shape: 100 128 4 4 (204800)
I0628 17:56:33.083133 127878 net.cpp:165] Memory required for data: 5033784408
I0628 17:56:33.083142 127878 layer_factory.hpp:76] Creating layer loss2/fc
I0628 17:56:33.083155 127878 net.cpp:106] Creating Layer loss2/fc
I0628 17:56:33.083166 127878 net.cpp:454] loss2/fc <- loss2/conv
I0628 17:56:33.083179 127878 net.cpp:411] loss2/fc -> loss2/fc
I0628 17:56:33.102064 127878 net.cpp:150] Setting up loss2/fc
I0628 17:56:33.102116 127878 net.cpp:157] Top shape: 100 1024 (102400)
I0628 17:56:33.102125 127878 net.cpp:165] Memory required for data: 5034194008
I0628 17:56:33.102140 127878 layer_factory.hpp:76] Creating layer loss2/relu_fc
I0628 17:56:33.102156 127878 net.cpp:106] Creating Layer loss2/relu_fc
I0628 17:56:33.102169 127878 net.cpp:454] loss2/relu_fc <- loss2/fc
I0628 17:56:33.102180 127878 net.cpp:397] loss2/relu_fc -> loss2/fc (in-place)
I0628 17:56:33.102543 127878 net.cpp:150] Setting up loss2/relu_fc
I0628 17:56:33.102573 127878 net.cpp:157] Top shape: 100 1024 (102400)
I0628 17:56:33.102582 127878 net.cpp:165] Memory required for data: 5034603608
I0628 17:56:33.102591 127878 layer_factory.hpp:76] Creating layer loss2/drop_fc
I0628 17:56:33.102603 127878 net.cpp:106] Creating Layer loss2/drop_fc
I0628 17:56:33.102612 127878 net.cpp:454] loss2/drop_fc <- loss2/fc
I0628 17:56:33.102624 127878 net.cpp:397] loss2/drop_fc -> loss2/fc (in-place)
I0628 17:56:33.102679 127878 net.cpp:150] Setting up loss2/drop_fc
I0628 17:56:33.102702 127878 net.cpp:157] Top shape: 100 1024 (102400)
I0628 17:56:33.102722 127878 net.cpp:165] Memory required for data: 5035013208
I0628 17:56:33.102731 127878 layer_factory.hpp:76] Creating layer loss2/classifier
I0628 17:56:33.102747 127878 net.cpp:106] Creating Layer loss2/classifier
I0628 17:56:33.102756 127878 net.cpp:454] loss2/classifier <- loss2/fc
I0628 17:56:33.102771 127878 net.cpp:411] loss2/classifier -> loss2/classifier
I0628 17:56:33.102998 127878 net.cpp:150] Setting up loss2/classifier
I0628 17:56:33.103029 127878 net.cpp:157] Top shape: 100 2 (200)
I0628 17:56:33.103037 127878 net.cpp:165] Memory required for data: 5035014008
I0628 17:56:33.103049 127878 layer_factory.hpp:76] Creating layer loss2/classifier_loss2/classifier_0_split
I0628 17:56:33.103060 127878 net.cpp:106] Creating Layer loss2/classifier_loss2/classifier_0_split
I0628 17:56:33.103070 127878 net.cpp:454] loss2/classifier_loss2/classifier_0_split <- loss2/classifier
I0628 17:56:33.103080 127878 net.cpp:411] loss2/classifier_loss2/classifier_0_split -> loss2/classifier_loss2/classifier_0_split_0
I0628 17:56:33.103091 127878 net.cpp:411] loss2/classifier_loss2/classifier_0_split -> loss2/classifier_loss2/classifier_0_split_1
I0628 17:56:33.103176 127878 net.cpp:150] Setting up loss2/classifier_loss2/classifier_0_split
I0628 17:56:33.103188 127878 net.cpp:157] Top shape: 100 2 (200)
I0628 17:56:33.103209 127878 net.cpp:157] Top shape: 100 2 (200)
I0628 17:56:33.103217 127878 net.cpp:165] Memory required for data: 5035015608
I0628 17:56:33.103225 127878 layer_factory.hpp:76] Creating layer loss2/loss
I0628 17:56:33.103236 127878 net.cpp:106] Creating Layer loss2/loss
I0628 17:56:33.103246 127878 net.cpp:454] loss2/loss <- loss2/classifier_loss2/classifier_0_split_0
I0628 17:56:33.103257 127878 net.cpp:454] loss2/loss <- label_data_1_split_2
…
I0628 17:56:33.104219 127878 net.cpp:165] Memory required for data: 5035015616
I0628 17:56:33.104228 127878 layer_factory.hpp:76] Creating layer inception_4e/1x1
I0628 17:56:33.104243 127878 net.cpp:106] Creating Layer inception_4e/1x1
I0628 17:56:33.104255 127878 net.cpp:454] inception_4e/1x1 <- inception_4d/output_inception_4d/output_0_split_1
I0628 17:56:33.104269 127878 net.cpp:411] inception_4e/1x1 -> inception_4e/1x1
I0628 17:56:33.106676 127878 cudnn_conv_layer.cpp:194] Reallocating workspace storage: 6336
I0628 17:56:33.106747 127878 net.cpp:150] Setting up inception_4e/1x1
I0628 17:56:33.106765 127878 net.cpp:157] Top shape: 100 256 14 14 (5017600)
I0628 17:56:33.106791 127878 net.cpp:165] Memory required for data: 5055086016
I0628 17:56:33.106802 127878 layer_factory.hpp:76] Creating layer inception_4e/relu_1x1
I0628 17:56:33.106814 127878 net.cpp:106] Creating Layer inception_4e/relu_1x1
I0628 17:56:33.106825 127878 net.cpp:454] inception_4e/relu_1x1 <- inception_4e/1x1
I0628 17:56:33.106837 127878 net.cpp:397] inception_4e/relu_1x1 -> inception_4e/1x1 (in-place)
I0628 17:56:33.107270 127878 net.cpp:150] Setting up inception_4e/relu_1x1
I0628 17:56:33.107290 127878 net.cpp:157] Top shape: 100 256 14 14 (5017600)
I0628 17:56:33.107300 127878 net.cpp:165] Memory required for data: 5075156416
I0628 17:56:33.107309 127878 layer_factory.hpp:76] Creating layer inception_4e/3x3_reduce
I0628 17:56:33.107326 127878 net.cpp:106] Creating Layer inception_4e/3x3_reduce
I0628 17:56:33.107336 127878 net.cpp:454] inception_4e/3x3_reduce <- inception_4d/output_inception_4d/output_0_split_2
I0628 17:56:33.107350 127878 net.cpp:411] inception_4e/3x3_reduce -> inception_4e/3x3_reduce
I0628 17:56:33.109997 127878 cudnn_conv_layer.cpp:194] Reallocating workspace storage: 6336
I0628 17:56:33.110055 127878 net.cpp:150] Setting up inception_4e/3x3_reduce
I0628 17:56:33.110070 127878 net.cpp:157] Top shape: 100 160 14 14 (3136000)
I0628 17:56:33.110079 127878 net.cpp:165] Memory required for data: 5087700416
I0628 17:56:33.110091 127878 layer_factory.hpp:76] Creating layer inception_4e/relu_3x3_reduce
I0628 17:56:33.110105 127878 net.cpp:106] Creating Layer inception_4e/relu_3x3_reduce
I0628 17:56:33.110116 127878 net.cpp:454] inception_4e/relu_3x3_reduce <- inception_4e/3x3_reduce
I0628 17:56:33.110126 127878 net.cpp:397] inception_4e/relu_3x3_reduce -> inception_4e/3x3_reduce (in-place)
I0628 17:56:33.110359 127878 net.cpp:150] Setting up inception_4e/relu_3x3_reduce
I0628 17:56:33.110375 127878 net.cpp:157] Top shape: 100 160 14 14 (3136000)
I0628 17:56:33.110395 127878 net.cpp:165] Memory required for data: 5100244416
I0628 17:56:33.110404 127878 layer_factory.hpp:76] Creating layer inception_4e/3x3
I0628 17:56:33.110441 127878 net.cpp:106] Creating Layer inception_4e/3x3
I0628 17:56:33.110453 127878 net.cpp:454] inception_4e/3x3 <- inception_4e/3x3_reduce
I0628 17:56:33.110466 127878 net.cpp:411] inception_4e/3x3 -> inception_4e/3x3
I0628 17:56:33.121479 127878 cudnn_conv_layer.cpp:194] Reallocating workspace storage: 17280
I0628 17:56:33.121538 127878 net.cpp:150] Setting up inception_4e/3x3
I0628 17:56:33.121553 127878 net.cpp:157] Top shape: 100 320 14 14 (6272000)
I0628 17:56:33.121562 127878 net.cpp:165] Memory required for data: 5125332416
I0628 17:56:33.121577 127878 layer_factory.hpp:76] Creating layer inception_4e/relu_3x3
I0628 17:56:33.121590 127878 net.cpp:106] Creating Layer inception_4e/relu_3x3
I0628 17:56:33.121601 127878 net.cpp:454] inception_4e/relu_3x3 <- inception_4e/3x3
I0628 17:56:33.121623 127878 net.cpp:397] inception_4e/relu_3x3 -> inception_4e/3x3 (in-place)
I0628 17:56:33.122084 127878 net.cpp:150] Setting up inception_4e/relu_3x3
I0628 17:56:33.122117 127878 net.cpp:157] Top shape: 100 320 14 14 (6272000)
I0628 17:56:33.122125 127878 net.cpp:165] Memory required for data: 5150420416
I0628 17:56:33.122135 127878 layer_factory.hpp:76] Creating layer inception_4e/5x5_reduce
I0628 17:56:33.122153 127878 net.cpp:106] Creating Layer inception_4e/5x5_reduce
I0628 17:56:33.122164 127878 net.cpp:454] inception_4e/5x5_reduce <- inception_4d/output_inception_4d/output_0_split_3
I0628 17:56:33.122177 127878 net.cpp:411] inception_4e/5x5_reduce -> inception_4e/5x5_reduce
I0628 17:56:33.123733 127878 cudnn_conv_layer.cpp:194] Reallocating workspace storage: 6336
I0628 17:56:33.123805 127878 net.cpp:150] Setting up inception_4e/5x5_reduce
I0628 17:56:33.123821 127878 net.cpp:157] Top shape: 100 32 14 14 (627200)
I0628 17:56:33.123829 127878 net.cpp:165] Memory required for data: 5152929216
I0628 17:56:33.123842 127878 layer_factory.hpp:76] Creating layer inception_4e/relu_5x5_reduce
I0628 17:56:33.123853 127878 net.cpp:106] Creating Layer inception_4e/relu_5x5_reduce
I0628 17:56:33.123884 127878 net.cpp:454] inception_4e/relu_5x5_reduce <- inception_4e/5x5_reduce
I0628 17:56:33.123899 127878 net.cpp:397] inception_4e/relu_5x5_reduce -> inception_4e/5x5_reduce (in-place)
I0628 17:56:33.124138 127878 net.cpp:150] Setting up inception_4e/relu_5x5_reduce
I0628 17:56:33.124167 127878 net.cpp:157] Top shape: 100 32 14 14 (627200)
I0628 17:56:33.124176 127878 net.cpp:165] Memory required for data: 5155438016
I0628 17:56:33.124184 127878 layer_factory.hpp:76] Creating layer inception_4e/5x5
I0628 17:56:33.124203 127878 net.cpp:106] Creating Layer inception_4e/5x5
I0628 17:56:33.124217 127878 net.cpp:454] inception_4e/5x5 <- inception_4e/5x5_reduce
I0628 17:56:33.124231 127878 net.cpp:411] inception_4e/5x5 -> inception_4e/5x5
I0628 17:56:33.126405 127878 net.cpp:150] Setting up inception_4e/5x5
I0628 17:56:33.126440 127878 net.cpp:157] Top shape: 100 128 14 14 (2508800)
I0628 17:56:33.126448 127878 net.cpp:165] Memory required for data: 5165473216
I0628 17:56:33.126461 127878 layer_factory.hpp:76] Creating layer inception_4e/relu_5x5
I0628 17:56:33.126473 127878 net.cpp:106] Creating Layer inception_4e/relu_5x5
I0628 17:56:33.126483 127878 net.cpp:454] inception_4e/relu_5x5 <- inception_4e/5x5
I0628 17:56:33.126495 127878 net.cpp:397] inception_4e/relu_5x5 -> inception_4e/5x5 (in-place)
I0628 17:56:33.126734 127878 net.cpp:150] Setting up inception_4e/relu_5x5
I0628 17:56:33.126754 127878 net.cpp:157] Top shape: 100 128 14 14 (2508800)
I0628 17:56:33.126775 127878 net.cpp:165] Memory required for data: 5175508416
I0628 17:56:33.126782 127878 layer_factory.hpp:76] Creating layer inception_4e/pool
I0628 17:56:33.126796 127878 net.cpp:106] Creating Layer inception_4e/pool
I0628 17:56:33.126806 127878 net.cpp:454] inception_4e/pool <- inception_4d/output_inception_4d/output_0_split_4
I0628 17:56:33.126817 127878 net.cpp:411] inception_4e/pool -> inception_4e/pool
I0628 17:56:33.127270 127878 net.cpp:150] Setting up inception_4e/pool
I0628 17:56:33.127302 127878 net.cpp:157] Top shape: 100 528 14 14 (10348800)
I0628 17:56:33.127311 127878 net.cpp:165] Memory required for data: 5216903616
I0628 17:56:33.127321 127878 layer_factory.hpp:76] Creating layer inception_4e/pool_proj
I0628 17:56:33.127337 127878 net.cpp:106] Creating Layer inception_4e/pool_proj
I0628 17:56:33.127347 127878 net.cpp:454] inception_4e/pool_proj <- inception_4e/pool
I0628 17:56:33.127360 127878 net.cpp:411] inception_4e/pool_proj -> inception_4e/pool_proj
I0628 17:56:33.129267 127878 cudnn_conv_layer.cpp:194] Reallocating workspace storage: 6336
I0628 17:56:33.129333 127878 net.cpp:150] Setting up inception_4e/pool_proj
I0628 17:56:33.129349 127878 net.cpp:157] Top shape: 100 128 14 14 (2508800)
I0628 17:56:33.129359 127878 net.cpp:165] Memory required for data: 5226938816
I0628 17:56:33.129370 127878 layer_factory.hpp:76] Creating layer inception_4e/relu_pool_proj
I0628 17:56:33.129390 127878 net.cpp:106] Creating Layer inception_4e/relu_pool_proj
I0628 17:56:33.129403 127878 net.cpp:454] inception_4e/relu_pool_proj <- inception_4e/pool_proj
I0628 17:56:33.129413 127878 net.cpp:397] inception_4e/relu_pool_proj -> inception_4e/pool_proj (in-place)
I0628 17:56:33.129654 127878 net.cpp:150] Setting up inception_4e/relu_pool_proj
I0628 17:56:33.129672 127878 net.cpp:157] Top shape: 100 128 14 14 (2508800)
I0628 17:56:33.129698 127878 net.cpp:165] Memory required for data: 5236974016
I0628 17:56:33.129706 127878 layer_factory.hpp:76] Creating layer inception_4e/output
I0628 17:56:33.129719 127878 net.cpp:106] Creating Layer inception_4e/output
I0628 17:56:33.129727 127878 net.cpp:454] inception_4e/output <- inception_4e/1x1
I0628 17:56:33.129739 127878 net.cpp:454] inception_4e/output <- inception_4e/3x3
I0628 17:56:33.129748 127878 net.cpp:454] inception_4e/output <- inception_4e/5x5
I0628 17:56:33.129757 127878 net.cpp:454] inception_4e/output <- inception_4e/pool_proj
I0628 17:56:33.129770 127878 net.cpp:411] inception_4e/output -> inception_4e/output
I0628 17:56:33.129839 127878 net.cpp:150] Setting up inception_4e/output
I0628 17:56:33.129880 127878 net.cpp:157] Top shape: 100 832 14 14 (16307200)
I0628 17:56:33.129889 127878 net.cpp:165] Memory required for data: 5302202816
I0628 17:56:33.129899 127878 layer_factory.hpp:76] Creating layer pool4/3x3_s2
I0628 17:56:33.129910 127878 net.cpp:106] Creating Layer pool4/3x3_s2
I0628 17:56:33.129920 127878 net.cpp:454] pool4/3x3_s2 <- inception_4e/output
I0628 17:56:33.129930 127878 net.cpp:411] pool4/3x3_s2 -> pool4/3x3_s2
I0628 17:56:33.130408 127878 net.cpp:150] Setting up pool4/3x3_s2
I0628 17:56:33.130439 127878 net.cpp:157] Top shape: 100 832 7 7 (4076800)
I0628 17:56:33.130448 127878 net.cpp:165] Memory required for data: 5318510016
I0628 17:56:33.130458 127878 layer_factory.hpp:76] Creating layer pool4/3x3_s2_pool4/3x3_s2_0_split
I0628 17:56:33.130470 127878 net.cpp:106] Creating Layer pool4/3x3_s2_pool4/3x3_s2_0_split
I0628 17:56:33.130480 127878 net.cpp:454] pool4/3x3_s2_pool4/3x3_s2_0_split <- pool4/3x3_s2
I0628 17:56:33.130492 127878 net.cpp:411] pool4/3x3_s2_pool4/3x3_s2_0_split -> pool4/3x3_s2_pool4/3x3_s2_0_split_0
I0628 17:56:33.130507 127878 net.cpp:411] pool4/3x3_s2_pool4/3x3_s2_0_split -> pool4/3x3_s2_pool4/3x3_s2_0_split_1
I0628 17:56:33.130519 127878 net.cpp:411] pool4/3x3_s2_pool4/3x3_s2_0_split -> pool4/3x3_s2_pool4/3x3_s2_0_split_2
I0628 17:56:33.130532 127878 net.cpp:411] pool4/3x3_s2_pool4/3x3_s2_0_split -> pool4/3x3_s2_pool4/3x3_s2_0_split_3
I0628 17:56:33.130659 127878 net.cpp:150] Setting up pool4/3x3_s2_pool4/3x3_s2_0_split
I0628 17:56:33.130672 127878 net.cpp:157] Top shape: 100 832 7 7 (4076800)
I0628 17:56:33.130693 127878 net.cpp:157] Top shape: 100 832 7 7 (4076800)
I0628 17:56:33.130702 127878 net.cpp:157] Top shape: 100 832 7 7 (4076800)
I0628 17:56:33.130710 127878 net.cpp:157] Top shape: 100 832 7 7 (4076800)
I0628 17:56:33.130718 127878 net.cpp:165] Memory required for data: 5383738816
I0628 17:56:33.130727 127878 layer_factory.hpp:76] Creating layer inception_5a/1x1
I0628 17:56:33.130744 127878 net.cpp:106] Creating Layer inception_5a/1x1
I0628 17:56:33.130754 127878 net.cpp:454] inception_5a/1x1 <- pool4/3x3_s2_pool4/3x3_s2_0_split_0
I0628 17:56:33.130765 127878 net.cpp:411] inception_5a/1x1 -> inception_5a/1x1
I0628 17:56:33.134343 127878 cudnn_conv_layer.cpp:194] Reallocating workspace storage: 9984
I0628 17:56:33.134420 127878 net.cpp:150] Setting up inception_5a/1x1
I0628 17:56:33.134435 127878 net.cpp:157] Top shape: 100 256 7 7 (1254400)
I0628 17:56:33.134444 127878 net.cpp:165] Memory required for data: 5388756416
I0628 17:56:33.134456 127878 layer_factory.hpp:76] Creating layer inception_5a/relu_1x1
I0628 17:56:33.134469 127878 net.cpp:106] Creating Layer inception_5a/relu_1x1
I0628 17:56:33.134485 127878 net.cpp:454] inception_5a/relu_1x1 <- inception_5a/1x1
I0628 17:56:33.134498 127878 net.cpp:397] inception_5a/relu_1x1 -> inception_5a/1x1 (in-place)
I0628 17:56:33.134763 127878 net.cpp:150] Setting up inception_5a/relu_1x1
I0628 17:56:33.134793 127878 net.cpp:157] Top shape: 100 256 7 7 (1254400)
I0628 17:56:33.134801 127878 net.cpp:165] Memory required for data: 5393774016
I0628 17:56:33.134810 127878 layer_factory.hpp:76] Creating layer inception_5a/3x3_reduce
I0628 17:56:33.134827 127878 net.cpp:106] Creating Layer inception_5a/3x3_reduce
I0628 17:56:33.134837 127878 net.cpp:454] inception_5a/3x3_reduce <- pool4/3x3_s2_pool4/3x3_s2_0_split_1
I0628 17:56:33.134850 127878 net.cpp:411] inception_5a/3x3_reduce -> inception_5a/3x3_reduce
I0628 17:56:33.137961 127878 cudnn_conv_layer.cpp:194] Reallocating workspace storage: 9984
I0628 17:56:33.138037 127878 net.cpp:150] Setting up inception_5a/3x3_reduce
I0628 17:56:33.138052 127878 net.cpp:157] Top shape: 100 160 7 7 (784000)
I0628 17:56:33.138062 127878 net.cpp:165] Memory required for data: 5396910016
I0628 17:56:33.138073 127878 layer_factory.hpp:76] Creating layer inception_5a/relu_3x3_reduce
I0628 17:56:33.138087 127878 net.cpp:106] Creating Layer inception_5a/relu_3x3_reduce
I0628 17:56:33.138103 127878 net.cpp:454] inception_5a/relu_3x3_reduce <- inception_5a/3x3_reduce
I0628 17:56:33.138136 127878 net.cpp:397] inception_5a/relu_3x3_reduce -> inception_5a/3x3_reduce (in-place)
I0628 17:56:33.138538 127878 net.cpp:150] Setting up inception_5a/relu_3x3_reduce
I0628 17:56:33.138572 127878 net.cpp:157] Top shape: 100 160 7 7 (784000)
I0628 17:56:33.138581 127878 net.cpp:165] Memory required for data: 5400046016
I0628 17:56:33.138591 127878 layer_factory.hpp:76] Creating layer inception_5a/3x3
I0628 17:56:33.138605 127878 net.cpp:106] Creating Layer inception_5a/3x3
I0628 17:56:33.138615 127878 net.cpp:454] inception_5a/3x3 <- inception_5a/3x3_reduce
I0628 17:56:33.138629 127878 net.cpp:411] inception_5a/3x3 -> inception_5a/3x3
I0628 17:56:33.144403 127878 net.cpp:150] Setting up inception_5a/3x3
I0628 17:56:33.144445 127878 net.cpp:157] Top shape: 100 320 7 7 (1568000)
I0628 17:56:33.144454 127878 net.cpp:165] Memory required for data: 5406318016
I0628 17:56:33.144469 127878 layer_factory.hpp:76] Creating layer inception_5a/relu_3x3
I0628 17:56:33.144485 127878 net.cpp:106] Creating Layer inception_5a/relu_3x3
I0628 17:56:33.144496 127878 net.cpp:454] inception_5a/relu_3x3 <- inception_5a/3x3
I0628 17:56:33.144507 127878 net.cpp:397] inception_5a/relu_3x3 -> inception_5a/3x3 (in-place)
I0628 17:56:33.144930 127878 net.cpp:150] Setting up inception_5a/relu_3x3
I0628 17:56:33.144961 127878 net.cpp:157] Top shape: 100 320 7 7 (1568000)
I0628 17:56:33.144970 127878 net.cpp:165] Memory required for data: 5412590016
I0628 17:56:33.144979 127878 layer_factory.hpp:76] Creating layer inception_5a/5x5_reduce
I0628 17:56:33.144997 127878 net.cpp:106] Creating Layer inception_5a/5x5_reduce
I0628 17:56:33.145009 127878 net.cpp:454] inception_5a/5x5_reduce <- pool4/3x3_s2_pool4/3x3_s2_0_split_2
I0628 17:56:33.145023 127878 net.cpp:411] inception_5a/5x5_reduce -> inception_5a/5x5_reduce
I0628 17:56:33.147294 127878 net.cpp:150] Setting up inception_5a/5x5_reduce
I0628 17:56:33.147328 127878 net.cpp:157] Top shape: 100 32 7 7 (156800)
I0628 17:56:33.147337 127878 net.cpp:165] Memory required for data: 5413217216
I0628 17:56:33.147351 127878 layer_factory.hpp:76] Creating layer inception_5a/relu_5x5_reduce
I0628 17:56:33.147366 127878 net.cpp:106] Creating Layer inception_5a/relu_5x5_reduce
I0628 17:56:33.147375 127878 net.cpp:454] inception_5a/relu_5x5_reduce <- inception_5a/5x5_reduce
I0628 17:56:33.147387 127878 net.cpp:397] inception_5a/relu_5x5_reduce -> inception_5a/5x5_reduce (in-place)
I0628 17:56:33.147627 127878 net.cpp:150] Setting up inception_5a/relu_5x5_reduce
I0628 17:56:33.147656 127878 net.cpp:157] Top shape: 100 32 7 7 (156800)
I0628 17:56:33.147665 127878 net.cpp:165] Memory required for data: 5413844416
I0628 17:56:33.147673 127878 layer_factory.hpp:76] Creating layer inception_5a/5x5
I0628 17:56:33.147691 127878 net.cpp:106] Creating Layer inception_5a/5x5
I0628 17:56:33.147699 127878 net.cpp:454] inception_5a/5x5 <- inception_5a/5x5_reduce
I0628 17:56:33.147711 127878 net.cpp:411] inception_5a/5x5 -> inception_5a/5x5
I0628 17:56:33.149917 127878 net.cpp:150] Setting up inception_5a/5x5
I0628 17:56:33.149955 127878 net.cpp:157] Top shape: 100 128 7 7 (627200)
I0628 17:56:33.149963 127878 net.cpp:165] Memory required for data: 5416353216
I0628 17:56:33.149976 127878 layer_factory.hpp:76] Creating layer inception_5a/relu_5x5
I0628 17:56:33.149988 127878 net.cpp:106] Creating Layer inception_5a/relu_5x5
I0628 17:56:33.149998 127878 net.cpp:454] inception_5a/relu_5x5 <- inception_5a/5x5
I0628 17:56:33.150010 127878 net.cpp:397] inception_5a/relu_5x5 -> inception_5a/5x5 (in-place)
I0628 17:56:33.150431 127878 net.cpp:150] Setting up inception_5a/relu_5x5
I0628 17:56:33.150463 127878 net.cpp:157] Top shape: 100 128 7 7 (627200)
I0628 17:56:33.150472 127878 net.cpp:165] Memory required for data: 5418862016
I0628 17:56:33.150482 127878 layer_factory.hpp:76] Creating layer inception_5a/pool
I0628 17:56:33.150496 127878 net.cpp:106] Creating Layer inception_5a/pool
I0628 17:56:33.150506 127878 net.cpp:454] inception_5a/pool <- pool4/3x3_s2_pool4/3x3_s2_0_split_3
I0628 17:56:33.150519 127878 net.cpp:411] inception_5a/pool -> inception_5a/pool
I0628 17:56:33.150895 127878 net.cpp:150] Setting up inception_5a/pool
I0628 17:56:33.150928 127878 net.cpp:157] Top shape: 100 832 7 7 (4076800)
I0628 17:56:33.150938 127878 net.cpp:165] Memory required for data: 5435169216
I0628 17:56:33.150946 127878 layer_factory.hpp:76] Creating layer inception_5a/pool_proj
I0628 17:56:33.150962 127878 net.cpp:106] Creating Layer inception_5a/pool_proj
I0628 17:56:33.150972 127878 net.cpp:454] inception_5a/pool_proj <- inception_5a/pool
I0628 17:56:33.150985 127878 net.cpp:411] inception_5a/pool_proj -> inception_5a/pool_proj
I0628 17:56:33.153810 127878 cudnn_conv_layer.cpp:194] Reallocating workspace storage: 9984
I0628 17:56:33.153890 127878 net.cpp:150] Setting up inception_5a/pool_proj
I0628 17:56:33.153905 127878 net.cpp:157] Top shape: 100 128 7 7 (627200)
I0628 17:56:33.153913 127878 net.cpp:165] Memory required for data: 5437678016
I0628 17:56:33.153925 127878 layer_factory.hpp:76] Creating layer inception_5a/relu_pool_proj
I0628 17:56:33.153944 127878 net.cpp:106] Creating Layer inception_5a/relu_pool_proj
I0628 17:56:33.153954 127878 net.cpp:454] inception_5a/relu_pool_proj <- inception_5a/pool_proj
I0628 17:56:33.153965 127878 net.cpp:397] inception_5a/relu_pool_proj -> inception_5a/pool_proj (in-place)
I0628 17:56:33.154211 127878 net.cpp:150] Setting up inception_5a/relu_pool_proj
I0628 17:56:33.154239 127878 net.cpp:157] Top shape: 100 128 7 7 (627200)
I0628 17:56:33.154248 127878 net.cpp:165] Memory required for data: 5440186816
I0628 17:56:33.154256 127878 layer_factory.hpp:76] Creating layer inception_5a/output
I0628 17:56:33.154270 127878 net.cpp:106] Creating Layer inception_5a/output
I0628 17:56:33.154279 127878 net.cpp:454] inception_5a/output <- inception_5a/1x1
I0628 17:56:33.154290 127878 net.cpp:454] inception_5a/output <- inception_5a/3x3
I0628 17:56:33.154299 127878 net.cpp:454] inception_5a/output <- inception_5a/5x5
I0628 17:56:33.154309 127878 net.cpp:454] inception_5a/output <- inception_5a/pool_proj
I0628 17:56:33.154319 127878 net.cpp:411] inception_5a/output -> inception_5a/output
I0628 17:56:33.154376 127878 net.cpp:150] Setting up inception_5a/output
I0628 17:56:33.154402 127878 net.cpp:157] Top shape: 100 832 7 7 (4076800)
I0628 17:56:33.154422 127878 net.cpp:165] Memory required for data: 5456494016
I0628 17:56:33.154430 127878 layer_factory.hpp:76] Creating layer inception_5a/output_inception_5a/output_0_split
I0628 17:56:33.154443 127878 net.cpp:106] Creating Layer inception_5a/output_inception_5a/output_0_split
I0628 17:56:33.154451 127878 net.cpp:454] inception_5a/output_inception_5a/output_0_split <- inception_5a/output
I0628 17:56:33.154466 127878 net.cpp:411] inception_5a/output_inception_5a/output_0_split -> inception_5a/output_inception_5a/output_0_split_0
I0628 17:56:33.154479 127878 net.cpp:411] inception_5a/output_inception_5a/output_0_split -> inception_5a/output_inception_5a/output_0_split_1
I0628 17:56:33.154491 127878 net.cpp:411] inception_5a/output_inception_5a/output_0_split -> inception_5a/output_inception_5a/output_0_split_2
I0628 17:56:33.154501 127878 net.cpp:411] inception_5a/output_inception_5a/output_0_split -> inception_5a/output_inception_5a/output_0_split_3
I0628 17:56:33.154649 127878 net.cpp:150] Setting up inception_5a/output_inception_5a/output_0_split
I0628 17:56:33.154664 127878 net.cpp:157] Top shape: 100 832 7 7 (4076800)
I0628 17:56:33.154685 127878 net.cpp:157] Top shape: 100 832 7 7 (4076800)
I0628 17:56:33.154693 127878 net.cpp:157] Top shape: 100 832 7 7 (4076800)
I0628 17:56:33.154701 127878 net.cpp:157] Top shape: 100 832 7 7 (4076800)
I0628 17:56:33.154709 127878 net.cpp:165] Memory required for data: 5521722816
I0628 17:56:33.154717 127878 layer_factory.hpp:76] Creating layer inception_5b/1x1
I0628 17:56:33.154733 127878 net.cpp:106] Creating Layer inception_5b/1x1
I0628 17:56:33.154744 127878 net.cpp:454] inception_5b/1x1 <- inception_5a/output_inception_5a/output_0_split_0
I0628 17:56:33.154755 127878 net.cpp:411] inception_5b/1x1 -> inception_5b/1x1
I0628 17:56:33.159234 127878 cudnn_conv_layer.cpp:194] Reallocating workspace storage: 9984
I0628 17:56:33.159312 127878 net.cpp:150] Setting up inception_5b/1x1
I0628 17:56:33.159325 127878 net.cpp:157] Top shape: 100 384 7 7 (1881600)
I0628 17:56:33.159343 127878 net.cpp:165] Memory required for data: 5529249216
I0628 17:56:33.159354 127878 layer_factory.hpp:76] Creating layer inception_5b/relu_1x1
I0628 17:56:33.159370 127878 net.cpp:106] Creating Layer inception_5b/relu_1x1
I0628 17:56:33.159382 127878 net.cpp:454] inception_5b/relu_1x1 <- inception_5b/1x1
I0628 17:56:33.159394 127878 net.cpp:397] inception_5b/relu_1x1 -> inception_5b/1x1 (in-place)
I0628 17:56:33.159816 127878 net.cpp:150] Setting up inception_5b/relu_1x1
I0628 17:56:33.159848 127878 net.cpp:157] Top shape: 100 384 7 7 (1881600)
I0628 17:56:33.159857 127878 net.cpp:165] Memory required for data: 5536775616
I0628 17:56:33.159867 127878 layer_factory.hpp:76] Creating layer inception_5b/3x3_reduce
I0628 17:56:33.159885 127878 net.cpp:106] Creating Layer inception_5b/3x3_reduce
I0628 17:56:33.159895 127878 net.cpp:454] inception_5b/3x3_reduce <- inception_5a/output_inception_5a/output_0_split_1
I0628 17:56:33.159907 127878 net.cpp:411] inception_5b/3x3_reduce -> inception_5b/3x3_reduce
I0628 17:56:33.163123 127878 cudnn_conv_layer.cpp:194] Reallocating workspace storage: 9984
I0628 17:56:33.163192 127878 net.cpp:150] Setting up inception_5b/3x3_reduce
I0628 17:56:33.163208 127878 net.cpp:157] Top shape: 100 192 7 7 (940800)
I0628 17:56:33.163216 127878 net.cpp:165] Memory required for data: 5540538816
I0628 17:56:33.163228 127878 layer_factory.hpp:76] Creating layer inception_5b/relu_3x3_reduce
I0628 17:56:33.163242 127878 net.cpp:106] Creating Layer inception_5b/relu_3x3_reduce
I0628 17:56:33.163255 127878 net.cpp:454] inception_5b/relu_3x3_reduce <- inception_5b/3x3_reduce
I0628 17:56:33.163266 127878 net.cpp:397] inception_5b/relu_3x3_reduce -> inception_5b/3x3_reduce (in-place)
I0628 17:56:33.163516 127878 net.cpp:150] Setting up inception_5b/relu_3x3_reduce
I0628 17:56:33.163544 127878 net.cpp:157] Top shape: 100 192 7 7 (940800)
I0628 17:56:33.163553 127878 net.cpp:165] Memory required for data: 5544302016
I0628 17:56:33.163561 127878 layer_factory.hpp:76] Creating layer inception_5b/3x3
I0628 17:56:33.163578 127878 net.cpp:106] Creating Layer inception_5b/3x3
I0628 17:56:33.163589 127878 net.cpp:454] inception_5b/3x3 <- inception_5b/3x3_reduce
I0628 17:56:33.163602 127878 net.cpp:411] inception_5b/3x3 -> inception_5b/3x3
I0628 17:56:33.171741 127878 net.cpp:150] Setting up inception_5b/3x3
I0628 17:56:33.171789 127878 net.cpp:157] Top shape: 100 384 7 7 (1881600)
I0628 17:56:33.171802 127878 net.cpp:165] Memory required for data: 5551828416
I0628 17:56:33.171815 127878 layer_factory.hpp:76] Creating layer inception_5b/relu_3x3
I0628 17:56:33.171830 127878 net.cpp:106] Creating Layer inception_5b/relu_3x3
I0628 17:56:33.171844 127878 net.cpp:454] inception_5b/relu_3x3 <- inception_5b/3x3
I0628 17:56:33.171855 127878 net.cpp:397] inception_5b/relu_3x3 -> inception_5b/3x3 (in-place)
I0628 17:56:33.172119 127878 net.cpp:150] Setting up inception_5b/relu_3x3
I0628 17:56:33.172149 127878 net.cpp:157] Top shape: 100 384 7 7 (1881600)
I0628 17:56:33.172158 127878 net.cpp:165] Memory required for data: 5559354816
I0628 17:56:33.172166 127878 layer_factory.hpp:76] Creating layer inception_5b/5x5_reduce
I0628 17:56:33.172184 127878 net.cpp:106] Creating Layer inception_5b/5x5_reduce
I0628 17:56:33.172194 127878 net.cpp:454] inception_5b/5x5_reduce <- inception_5a/output_inception_5a/output_0_split_2
I0628 17:56:33.172206 127878 net.cpp:411] inception_5b/5x5_reduce -> inception_5b/5x5_reduce
I0628 17:56:33.173769 127878 net.cpp:150] Setting up inception_5b/5x5_reduce
I0628 17:56:33.173791 127878 net.cpp:157] Top shape: 100 48 7 7 (235200)
I0628 17:56:33.173800 127878 net.cpp:165] Memory required for data: 5560295616
I0628 17:56:33.173812 127878 layer_factory.hpp:76] Creating layer inception_5b/relu_5x5_reduce
I0628 17:56:33.173826 127878 net.cpp:106] Creating Layer inception_5b/relu_5x5_reduce
I0628 17:56:33.173859 127878 net.cpp:454] inception_5b/relu_5x5_reduce <- inception_5b/5x5_reduce
I0628 17:56:33.173871 127878 net.cpp:397] inception_5b/relu_5x5_reduce -> inception_5b/5x5_reduce (in-place)
I0628 17:56:33.174465 127878 net.cpp:150] Setting up inception_5b/relu_5x5_reduce
I0628 17:56:33.174497 127878 net.cpp:157] Top shape: 100 48 7 7 (235200)
I0628 17:56:33.174506 127878 net.cpp:165] Memory required for data: 5561236416
I0628 17:56:33.174516 127878 layer_factory.hpp:76] Creating layer inception_5b/5x5
I0628 17:56:33.174533 127878 net.cpp:106] Creating Layer inception_5b/5x5
I0628 17:56:33.174543 127878 net.cpp:454] inception_5b/5x5 <- inception_5b/5x5_reduce
I0628 17:56:33.174557 127878 net.cpp:411] inception_5b/5x5 -> inception_5b/5x5
I0628 17:56:33.177006 127878 net.cpp:150] Setting up inception_5b/5x5
I0628 17:56:33.177042 127878 net.cpp:157] Top shape: 100 128 7 7 (627200)
I0628 17:56:33.177050 127878 net.cpp:165] Memory required for data: 5563745216
I0628 17:56:33.177064 127878 layer_factory.hpp:76] Creating layer inception_5b/relu_5x5
I0628 17:56:33.177079 127878 net.cpp:106] Creating Layer inception_5b/relu_5x5
I0628 17:56:33.177090 127878 net.cpp:454] inception_5b/relu_5x5 <- inception_5b/5x5
I0628 17:56:33.177101 127878 net.cpp:397] inception_5b/relu_5x5 -> inception_5b/5x5 (in-place)
I0628 17:56:33.177346 127878 net.cpp:150] Setting up inception_5b/relu_5x5
I0628 17:56:33.177363 127878 net.cpp:157] Top shape: 100 128 7 7 (627200)
I0628 17:56:33.177384 127878 net.cpp:165] Memory required for data: 5566254016
I0628 17:56:33.177392 127878 layer_factory.hpp:76] Creating layer inception_5b/pool
I0628 17:56:33.177405 127878 net.cpp:106] Creating Layer inception_5b/pool
I0628 17:56:33.177414 127878 net.cpp:454] inception_5b/pool <- inception_5a/output_inception_5a/output_0_split_3
I0628 17:56:33.177428 127878 net.cpp:411] inception_5b/pool -> inception_5b/pool
I0628 17:56:33.177917 127878 net.cpp:150] Setting up inception_5b/pool
I0628 17:56:33.177948 127878 net.cpp:157] Top shape: 100 832 7 7 (4076800)
I0628 17:56:33.177958 127878 net.cpp:165] Memory required for data: 5582561216
I0628 17:56:33.177966 127878 layer_factory.hpp:76] Creating layer inception_5b/pool_proj
I0628 17:56:33.177983 127878 net.cpp:106] Creating Layer inception_5b/pool_proj
I0628 17:56:33.177992 127878 net.cpp:454] inception_5b/pool_proj <- inception_5b/pool
I0628 17:56:33.178006 127878 net.cpp:411] inception_5b/pool_proj -> inception_5b/pool_proj
I0628 17:56:33.180605 127878 cudnn_conv_layer.cpp:194] Reallocating workspace storage: 9984
I0628 17:56:33.180685 127878 net.cpp:150] Setting up inception_5b/pool_proj
I0628 17:56:33.180699 127878 net.cpp:157] Top shape: 100 128 7 7 (627200)
I0628 17:56:33.180709 127878 net.cpp:165] Memory required for data: 5585070016
I0628 17:56:33.180721 127878 layer_factory.hpp:76] Creating layer inception_5b/relu_pool_proj
I0628 17:56:33.180735 127878 net.cpp:106] Creating Layer inception_5b/relu_pool_proj
I0628 17:56:33.180752 127878 net.cpp:454] inception_5b/relu_pool_proj <- inception_5b/pool_proj
I0628 17:56:33.180762 127878 net.cpp:397] inception_5b/relu_pool_proj -> inception_5b/pool_proj (in-place)
I0628 17:56:33.181180 127878 net.cpp:150] Setting up inception_5b/relu_pool_proj
I0628 17:56:33.181211 127878 net.cpp:157] Top shape: 100 128 7 7 (627200)
I0628 17:56:33.181221 127878 net.cpp:165] Memory required for data: 5587578816
I0628 17:56:33.181229 127878 layer_factory.hpp:76] Creating layer inception_5b/output
I0628 17:56:33.181243 127878 net.cpp:106] Creating Layer inception_5b/output
I0628 17:56:33.181257 127878 net.cpp:454] inception_5b/output <- inception_5b/1x1
I0628 17:56:33.181268 127878 net.cpp:454] inception_5b/output <- inception_5b/3x3
I0628 17:56:33.181278 127878 net.cpp:454] inception_5b/output <- inception_5b/5x5
I0628 17:56:33.181288 127878 net.cpp:454] inception_5b/output <- inception_5b/pool_proj
I0628 17:56:33.181300 127878 net.cpp:411] inception_5b/output -> inception_5b/output
I0628 17:56:33.181340 127878 net.cpp:150] Setting up inception_5b/output
I0628 17:56:33.181371 127878 net.cpp:157] Top shape: 100 1024 7 7 (5017600)
I0628 17:56:33.181380 127878 net.cpp:165] Memory required for data: 5607649216
I0628 17:56:33.181388 127878 layer_factory.hpp:76] Creating layer pool5/7x7_s1
I0628 17:56:33.181402 127878 net.cpp:106] Creating Layer pool5/7x7_s1
I0628 17:56:33.181412 127878 net.cpp:454] pool5/7x7_s1 <- inception_5b/output
I0628 17:56:33.181424 127878 net.cpp:411] pool5/7x7_s1 -> pool5/7x7_s1
I0628 17:56:33.181677 127878 net.cpp:150] Setting up pool5/7x7_s1
I0628 17:56:33.181701 127878 net.cpp:157] Top shape: 100 1024 1 1 (102400)
I0628 17:56:33.181710 127878 net.cpp:165] Memory required for data: 5608058816
I0628 17:56:33.181718 127878 layer_factory.hpp:76] Creating layer pool5/drop_7x7_s1
I0628 17:56:33.181732 127878 net.cpp:106] Creating Layer pool5/drop_7x7_s1
I0628 17:56:33.181740 127878 net.cpp:454] pool5/drop_7x7_s1 <- pool5/7x7_s1
I0628 17:56:33.181753 127878 net.cpp:397] pool5/drop_7x7_s1 -> pool5/7x7_s1 (in-place)
I0628 17:56:33.181787 127878 net.cpp:150] Setting up pool5/drop_7x7_s1
I0628 17:56:33.181800 127878 net.cpp:157] Top shape: 100 1024 1 1 (102400)
I0628 17:56:33.181812 127878 net.cpp:165] Memory required for data: 5608468416
I0628 17:56:33.181820 127878 layer_factory.hpp:76] Creating layer loss3/classifier
I0628 17:56:33.181845 127878 net.cpp:106] Creating Layer loss3/classifier
I0628 17:56:33.181857 127878 net.cpp:454] loss3/classifier <- pool5/7x7_s1
I0628 17:56:33.181872 127878 net.cpp:411] loss3/classifier -> loss3/classifier
I0628 17:56:33.182044 127878 net.cpp:150] Setting up loss3/classifier
I0628 17:56:33.182059 127878 net.cpp:157] Top shape: 100 2 (200)
I0628 17:56:33.182066 127878 net.cpp:165] Memory required for data: 5608469216
I0628 17:56:33.182077 127878 layer_factory.hpp:76] Creating layer loss3/classifier_loss3/classifier_0_split
I0628 17:56:33.182091 127878 net.cpp:106] Creating Layer loss3/classifier_loss3/classifier_0_split
I0628 17:56:33.182101 127878 net.cpp:454] loss3/classifier_loss3/classifier_0_split <- loss3/classifier
I0628 17:56:33.182112 127878 net.cpp:411] loss3/classifier_loss3/classifier_0_split -> loss3/classifier_loss3/classifier_0_split_0
I0628 17:56:33.182124 127878 net.cpp:411] loss3/classifier_loss3/classifier_0_split -> loss3/classifier_loss3/classifier_0_split_1
I0628 17:56:33.182171 127878 net.cpp:150] Setting up loss3/classifier_loss3/classifier_0_split
I0628 17:56:33.182183 127878 net.cpp:157] Top shape: 100 2 (200)
I0628 17:56:33.182193 127878 net.cpp:157] Top shape: 100 2 (200)
I0628 17:56:33.182200 127878 net.cpp:165] Memory required for data: 5608470816
I0628 17:56:33.182209 127878 layer_factory.hpp:76] Creating layer loss3/loss3
I0628 17:56:33.182219 127878 net.cpp:106] Creating Layer loss3/loss3
I0628 17:56:33.182229 127878 net.cpp:454] loss3/loss3 <- loss3/classifier_loss3/classifier_0_split_0
I0628 17:56:33.182238 127878 net.cpp:454] loss3/loss3 <- label_data_1_split_4
…
