…
  type: "Python"
  top: "data"
  top: "label"
  include {
    phase: TRAIN
  }
  python_param {
    module: "mask_image_layer"
    layer: "random_patches_from_images_withlabel"
    param_str: "{\'root_folder\': \'/home/dywang/Proliferation/data/mitoses\', \'image_list\': \'/home/dywang/00exp_wdy/stage04_mitosisDetection/step02_train_mitosis_detecotor/heatmap_mc13_tr/all_image_withlabel_mc13_tr.lst\', \'seed\': 8899, \'mean\': (128, 128, 128), \'size\': 64, \'batch\': 128, \'scale\':0.1, \'colorn\':20, \'classes\':\'1:0 2:1 3:0\', \'DEBUG\': True}"
  }
}
layer {
  name: "conv11"
  type: "Convolution"
  bottom: "data"
  top: "conv11"
  param {
    lr_mult: 1
    decay_mult: 1
  }
  param {
    lr_mult: 2
    decay_mult: 0
  }
  convolution_param {
    num_output: 32
    pad: 0
    stride: 1
    weight_filler {
      type: "xavier"
    }
    bias_filler {
      type: "constant"
    }
    kernel_h: 3
    kernel_w: 3
  }
}
layer {
  name: "relu11"
  type: "ReLU"
  bottom: "conv11"
  top: "conv11"
}
layer {
  name: "conv12"
  type: "Convolution"
  bottom: "conv11"
  top: "conv12"
  param {
    lr_mult: 1
    decay_mult: 1
  }
  param {
    lr_mult: 2
    decay_mult: 0
  }
  convolution_param {
    num_output: 32
    pad: 0
    stride: 1
    weight_filler {
      type: "xavier"
    }
    bias_filler {
      type: "constant"
    }
    kernel_h: 3
    kernel_w: 3
  }
}
layer {
  name: "relu12"
  type: "ReLU"
  bottom: "conv12"
  top: "conv12"
}
layer {
  name: "pool1"
  type: "Pooling"
  bottom: "conv12"
  top: "pool1"
  pooling_param {
    pool: MAX
    kernel_size: 2
    stride: 2
  }
}
layer {
  name: "conv21"
  type: "Convolution"
  bottom: "pool1"
  top: "conv21"
  param {
    lr_mult: 1
    decay_mult: 1
  }
  param {
    lr_mult: 2
    decay_mult: 0
  }
  convolution_param {
    num_output: 64
    pad: 0
    stride: 1
    weight_filler {
      type: "xavier"
    }
    bias_filler {
      type: "constant"
    }
    kernel_h: 3
    kernel_w: 3
  }
}
layer {
  name: "relu21"
  type: "ReLU"
  bottom: "conv21"
  top: "conv21"
}
layer {
  name: "conv22"
  type: "Convolution"
  bottom: "conv21"
  top: "conv22"
  param {
    lr_mult: 1
    decay_mult: 1
  }
  param {
    lr_mult: 2
    decay_mult: 0
  }
  convolution_param {
    num_output: 64
    pad: 0
    stride: 1
    weight_filler {
      type: "xavier"
    }
    bias_filler {
      type: "constant"
    }
    kernel_h: 3
    kernel_w: 3
  }
}
layer {
  name: "relu22"
  type: "ReLU"
  bottom: "conv22"
  top: "conv22"
}
layer {
  name: "pool2"
  type: "Pooling"
  bottom: "conv22"
  top: "pool2"
  pooling_param {
    pool: MAX
    kernel_size: 2
    stride: 2
  }
}
layer {
  name: "conv31"
  type: "Convolution"
  bottom: "pool2"
  top: "conv31"
  param {
    lr_mult: 1
    decay_mult: 1
  }
  param {
    lr_mult: 2
    decay_mult: 0
  }
  convolution_param {
    num_output: 128
    pad: 0
    stride: 1
    weight_filler {
      type: "xavier"
    }
    bias_filler {
      type: "constant"
    }
    kernel_h: 3
    kernel_w: 3
  }
}
layer {
  name: "relu31"
  type: "ReLU"
  bottom: "conv31"
  top: "conv31"
}
layer {
  name: "conv32"
  type: "Convolution"
  bottom: "conv31"
  top: "conv32"
  param {
    lr_mult: 1
    decay_mult: 1
  }
  param {
    lr_mult: 2
    decay_mult: 0
  }
  convolution_param {
    num_output: 128
    pad: 0
    stride: 1
    weight_filler {
      type: "xavier"
    }
    bias_filler {
      type: "constant"
    }
    kernel_h: 3
    kernel_w: 3
  }
}
layer {
  name: "relu32"
  type: "ReLU"
  bottom: "conv32"
  top: "conv32"
}
layer {
  name: "pool3"
  type: "Pooling"
  bottom: "conv32"
  top: "pool3"
  pooling_param {
    pool: MAX
    kernel_size: 3
    stride: 3
  }
}
layer {
  name: "conv4"
  type: "Convolution"
  bottom: "pool3"
  top: "conv4"
  param {
    lr_mult: 1
    decay_mult: 1
  }
  param {
    lr_mult: 2
    decay_mult: 0
  }
  convolution_param {
    num_output: 256
    pad: 0
    stride: 1
    weight_filler {
      type: "xavier"
    }
    bias_filler {
      type: "constant"
    }
    kernel_h: 3
    kernel_w: 3
  }
}
layer {
  name: "relu4"
  type: "ReLU"
  bottom: "conv4"
  top: "conv4"
}
layer {
  name: "drop"
  type: "Dropout"
  bottom: "conv4"
  top: "conv4"
  dropout_param {
    dropout_ratio: 0.5
  }
}
layer {
  name: "conv_c"
  type: "Convolution"
  bottom: "conv4"
  top: "conv_c"
  param {
    lr_mult: 1
    decay_mult: 1
  }
  param {
    lr_mult: 2
    decay_mult: 0
  }
  convolution_param {
    num_output: 256
    pad: 0
    stride: 1
    weight_filler {
      type: "xavier"
    }
    bias_filler {
      type: "constant"
    }
    kernel_h: 1
    kernel_w: 1
  }
}
layer {
  name: "loss"
  type: "SoftmaxWithLoss"
  bottom: "conv_c"
  bottom: "label"
  top: "loss"
}
I0726 14:01:03.085304 136306 layer_factory.hpp:76] Creating layer data
I0726 14:01:08.483398 136306 net.cpp:106] Creating Layer data
I0726 14:01:08.483448 136306 net.cpp:411] data -> data
I0726 14:01:08.483477 136306 net.cpp:411] data -> label
I0726 14:01:11.183009 136306 net.cpp:150] Setting up data
I0726 14:01:11.183071 136306 net.cpp:157] Top shape: 128 3 64 64 (1572864)
I0726 14:01:11.183082 136306 net.cpp:157] Top shape: 128 1 1 1 (128)
I0726 14:01:11.183089 136306 net.cpp:165] Memory required for data: 6291968
I0726 14:01:11.183110 136306 layer_factory.hpp:76] Creating layer conv11
I0726 14:01:11.183146 136306 net.cpp:106] Creating Layer conv11
I0726 14:01:11.183158 136306 net.cpp:454] conv11 <- data
I0726 14:01:11.183178 136306 net.cpp:411] conv11 -> conv11
I0726 14:01:11.286567 136306 net.cpp:150] Setting up conv11
I0726 14:01:11.286613 136306 net.cpp:157] Top shape: 128 32 62 62 (15745024)
I0726 14:01:11.286623 136306 net.cpp:165] Memory required for data: 69272064
I0726 14:01:11.286654 136306 layer_factory.hpp:76] Creating layer relu11
I0726 14:01:11.286679 136306 net.cpp:106] Creating Layer relu11
I0726 14:01:11.286689 136306 net.cpp:454] relu11 <- conv11
I0726 14:01:11.286701 136306 net.cpp:397] relu11 -> conv11 (in-place)
I0726 14:01:11.286860 136306 net.cpp:150] Setting up relu11
I0726 14:01:11.286876 136306 net.cpp:157] Top shape: 128 32 62 62 (15745024)
I0726 14:01:11.286883 136306 net.cpp:165] Memory required for data: 132252160
I0726 14:01:11.286891 136306 layer_factory.hpp:76] Creating layer conv12
I0726 14:01:11.286906 136306 net.cpp:106] Creating Layer conv12
I0726 14:01:11.286914 136306 net.cpp:454] conv12 <- conv11
I0726 14:01:11.286926 136306 net.cpp:411] conv12 -> conv12
I0726 14:01:11.288427 136306 net.cpp:150] Setting up conv12
I0726 14:01:11.288449 136306 net.cpp:157] Top shape: 128 32 60 60 (14745600)
I0726 14:01:11.288457 136306 net.cpp:165] Memory required for data: 191234560
I0726 14:01:11.288470 136306 layer_factory.hpp:76] Creating layer relu12
I0726 14:01:11.288480 136306 net.cpp:106] Creating Layer relu12
I0726 14:01:11.288488 136306 net.cpp:454] relu12 <- conv12
I0726 14:01:11.288502 136306 net.cpp:397] relu12 -> conv12 (in-place)
I0726 14:01:11.288790 136306 net.cpp:150] Setting up relu12
I0726 14:01:11.288808 136306 net.cpp:157] Top shape: 128 32 60 60 (14745600)
I0726 14:01:11.288815 136306 net.cpp:165] Memory required for data: 250216960
I0726 14:01:11.288823 136306 layer_factory.hpp:76] Creating layer pool1
I0726 14:01:11.288836 136306 net.cpp:106] Creating Layer pool1
I0726 14:01:11.288842 136306 net.cpp:454] pool1 <- conv12
I0726 14:01:11.288883 136306 net.cpp:411] pool1 -> pool1
I0726 14:01:11.289075 136306 net.cpp:150] Setting up pool1
I0726 14:01:11.289091 136306 net.cpp:157] Top shape: 128 32 30 30 (3686400)
I0726 14:01:11.289098 136306 net.cpp:165] Memory required for data: 264962560
I0726 14:01:11.289105 136306 layer_factory.hpp:76] Creating layer conv21
I0726 14:01:11.289129 136306 net.cpp:106] Creating Layer conv21
I0726 14:01:11.289137 136306 net.cpp:454] conv21 <- pool1
I0726 14:01:11.289147 136306 net.cpp:411] conv21 -> conv21
I0726 14:01:11.290743 136306 net.cpp:150] Setting up conv21
I0726 14:01:11.290763 136306 net.cpp:157] Top shape: 128 64 28 28 (6422528)
I0726 14:01:11.290771 136306 net.cpp:165] Memory required for data: 290652672
I0726 14:01:11.290788 136306 layer_factory.hpp:76] Creating layer relu21
I0726 14:01:11.290801 136306 net.cpp:106] Creating Layer relu21
I0726 14:01:11.290807 136306 net.cpp:454] relu21 <- conv21
I0726 14:01:11.290815 136306 net.cpp:397] relu21 -> conv21 (in-place)
I0726 14:01:11.291081 136306 net.cpp:150] Setting up relu21
I0726 14:01:11.291110 136306 net.cpp:157] Top shape: 128 64 28 28 (6422528)
I0726 14:01:11.291118 136306 net.cpp:165] Memory required for data: 316342784
I0726 14:01:11.291126 136306 layer_factory.hpp:76] Creating layer conv22
I0726 14:01:11.291144 136306 net.cpp:106] Creating Layer conv22
I0726 14:01:11.291152 136306 net.cpp:454] conv22 <- conv21
I0726 14:01:11.291160 136306 net.cpp:411] conv22 -> conv22
I0726 14:01:11.292135 136306 net.cpp:150] Setting up conv22
I0726 14:01:11.292152 136306 net.cpp:157] Top shape: 128 64 26 26 (5537792)
I0726 14:01:11.292160 136306 net.cpp:165] Memory required for data: 338493952
I0726 14:01:11.292171 136306 layer_factory.hpp:76] Creating layer relu22
I0726 14:01:11.292182 136306 net.cpp:106] Creating Layer relu22
I0726 14:01:11.292191 136306 net.cpp:454] relu22 <- conv22
I0726 14:01:11.292198 136306 net.cpp:397] relu22 -> conv22 (in-place)
I0726 14:01:11.292465 136306 net.cpp:150] Setting up relu22
I0726 14:01:11.292482 136306 net.cpp:157] Top shape: 128 64 26 26 (5537792)
I0726 14:01:11.292490 136306 net.cpp:165] Memory required for data: 360645120
I0726 14:01:11.292497 136306 layer_factory.hpp:76] Creating layer pool2
I0726 14:01:11.292510 136306 net.cpp:106] Creating Layer pool2
I0726 14:01:11.292517 136306 net.cpp:454] pool2 <- conv22
I0726 14:01:11.292526 136306 net.cpp:411] pool2 -> pool2
I0726 14:01:11.292706 136306 net.cpp:150] Setting up pool2
I0726 14:01:11.292721 136306 net.cpp:157] Top shape: 128 64 13 13 (1384448)
I0726 14:01:11.292729 136306 net.cpp:165] Memory required for data: 366182912
I0726 14:01:11.292740 136306 layer_factory.hpp:76] Creating layer conv31
I0726 14:01:11.292757 136306 net.cpp:106] Creating Layer conv31
I0726 14:01:11.292763 136306 net.cpp:454] conv31 <- pool2
I0726 14:01:11.292771 136306 net.cpp:411] conv31 -> conv31
I0726 14:01:11.294651 136306 cudnn_conv_layer.cpp:194] Reallocating workspace storage: 6912
I0726 14:01:11.294850 136306 net.cpp:150] Setting up conv31
I0726 14:01:11.294867 136306 net.cpp:157] Top shape: 128 128 11 11 (1982464)
I0726 14:01:11.294875 136306 net.cpp:165] Memory required for data: 374112768
I0726 14:01:11.294890 136306 layer_factory.hpp:76] Creating layer relu31
I0726 14:01:11.294899 136306 net.cpp:106] Creating Layer relu31
I0726 14:01:11.294911 136306 net.cpp:454] relu31 <- conv31
I0726 14:01:11.294919 136306 net.cpp:397] relu31 -> conv31 (in-place)
I0726 14:01:11.295197 136306 net.cpp:150] Setting up relu31
I0726 14:01:11.295213 136306 net.cpp:157] Top shape: 128 128 11 11 (1982464)
I0726 14:01:11.295220 136306 net.cpp:165] Memory required for data: 382042624
I0726 14:01:11.295228 136306 layer_factory.hpp:76] Creating layer conv32
I0726 14:01:11.295243 136306 net.cpp:106] Creating Layer conv32
I0726 14:01:11.295249 136306 net.cpp:454] conv32 <- conv31
I0726 14:01:11.295258 136306 net.cpp:411] conv32 -> conv32
I0726 14:01:11.296978 136306 cudnn_conv_layer.cpp:194] Reallocating workspace storage: 13824
I0726 14:01:11.297006 136306 net.cpp:150] Setting up conv32
I0726 14:01:11.297034 136306 net.cpp:157] Top shape: 128 128 9 9 (1327104)
I0726 14:01:11.297041 136306 net.cpp:165] Memory required for data: 387351040
I0726 14:01:11.297050 136306 layer_factory.hpp:76] Creating layer relu32
I0726 14:01:11.297068 136306 net.cpp:106] Creating Layer relu32
I0726 14:01:11.297075 136306 net.cpp:454] relu32 <- conv32
I0726 14:01:11.297083 136306 net.cpp:397] relu32 -> conv32 (in-place)
I0726 14:01:11.297233 136306 net.cpp:150] Setting up relu32
I0726 14:01:11.297248 136306 net.cpp:157] Top shape: 128 128 9 9 (1327104)
I0726 14:01:11.297256 136306 net.cpp:165] Memory required for data: 392659456
I0726 14:01:11.297266 136306 layer_factory.hpp:76] Creating layer pool3
I0726 14:01:11.297277 136306 net.cpp:106] Creating Layer pool3
I0726 14:01:11.297286 136306 net.cpp:454] pool3 <- conv32
I0726 14:01:11.297296 136306 net.cpp:411] pool3 -> pool3
I0726 14:01:11.297616 136306 net.cpp:150] Setting up pool3
I0726 14:01:11.297641 136306 net.cpp:157] Top shape: 128 128 3 3 (147456)
I0726 14:01:11.297648 136306 net.cpp:165] Memory required for data: 393249280
I0726 14:01:11.297657 136306 layer_factory.hpp:76] Creating layer conv4
I0726 14:01:11.297672 136306 net.cpp:106] Creating Layer conv4
I0726 14:01:11.297678 136306 net.cpp:454] conv4 <- pool3
I0726 14:01:11.297689 136306 net.cpp:411] conv4 -> conv4
I0726 14:01:11.300779 136306 cudnn_conv_layer.cpp:194] Reallocating workspace storage: 1769472
I0726 14:01:11.300973 136306 net.cpp:150] Setting up conv4
I0726 14:01:11.300992 136306 net.cpp:157] Top shape: 128 256 1 1 (32768)
I0726 14:01:11.301000 136306 net.cpp:165] Memory required for data: 393380352
I0726 14:01:11.301012 136306 layer_factory.hpp:76] Creating layer relu4
I0726 14:01:11.301023 136306 net.cpp:106] Creating Layer relu4
I0726 14:01:11.301029 136306 net.cpp:454] relu4 <- conv4
I0726 14:01:11.301038 136306 net.cpp:397] relu4 -> conv4 (in-place)
I0726 14:01:11.301306 136306 net.cpp:150] Setting up relu4
I0726 14:01:11.301334 136306 net.cpp:157] Top shape: 128 256 1 1 (32768)
I0726 14:01:11.301345 136306 net.cpp:165] Memory required for data: 393511424
I0726 14:01:11.301352 136306 layer_factory.hpp:76] Creating layer drop
I0726 14:01:11.301368 136306 net.cpp:106] Creating Layer drop
I0726 14:01:11.301375 136306 net.cpp:454] drop <- conv4
I0726 14:01:11.301383 136306 net.cpp:397] drop -> conv4 (in-place)
I0726 14:01:11.301416 136306 net.cpp:150] Setting up drop
I0726 14:01:11.301427 136306 net.cpp:157] Top shape: 128 256 1 1 (32768)
I0726 14:01:11.301434 136306 net.cpp:165] Memory required for data: 393642496
I0726 14:01:11.301441 136306 layer_factory.hpp:76] Creating layer conv_c
I0726 14:01:11.301452 136306 net.cpp:106] Creating Layer conv_c
I0726 14:01:11.301460 136306 net.cpp:454] conv_c <- conv4
I0726 14:01:11.301470 136306 net.cpp:411] conv_c -> conv_c
I0726 14:01:11.302917 136306 cudnn_conv_layer.cpp:194] Reallocating workspace storage: 3072
I0726 14:01:11.303102 136306 net.cpp:150] Setting up conv_c
I0726 14:01:11.303118 136306 net.cpp:157] Top shape: 128 256 1 1 (32768)
I0726 14:01:11.303127 136306 net.cpp:165] Memory required for data: 393773568
I0726 14:01:11.303144 136306 layer_factory.hpp:76] Creating layer loss
I0726 14:01:11.303159 136306 net.cpp:106] Creating Layer loss
I0726 14:01:11.303166 136306 net.cpp:454] loss <- conv_c
I0726 14:01:11.303175 136306 net.cpp:454] loss <- label
I0726 14:01:11.303184 136306 net.cpp:411] loss -> loss
I0726 14:01:11.303201 136306 layer_factory.hpp:76] Creating layer loss
…
  type: "Python"
  top: "data"
  top: "label"
  include {
    phase: TEST
  }
  python_param {
    module: "mask_image_layer"
    layer: "random_patches_from_images_withlabel"
    param_str: "{\'root_folder\': \'/home/dywang/Proliferation/data/mitoses\', \'image_list\': \'/home/dywang/00exp_wdy/stage04_mitosisDetection/step02_train_mitosis_detecotor/heatmap_mc13_tr/all_image_withlabel_mc13_tr.lst\', \'seed\': 8899, \'mean\': (128, 128, 128), \'size\': 64, \'batch\': 128, \'scale\':0.1, \'colorn\':20, \'classes\':\'1:0 2:1 3:0\', \'DEBUG\': True}"
  }
}
layer {
  name: "conv11"
  type: "Convolution"
  bottom: "data"
  top: "conv11"
  param {
    lr_mult: 1
    decay_mult: 1
  }
  param {
    lr_mult: 2
    decay_mult: 0
  }
  convolution_param {
    num_output: 32
    pad: 0
    stride: 1
    weight_filler {
      type: "xavier"
    }
    bias_filler {
      type: "constant"
    }
    kernel_h: 3
    kernel_w: 3
  }
}
layer {
  name: "relu11"
  type: "ReLU"
  bottom: "conv11"
  top: "conv11"
}
layer {
  name: "conv12"
  type: "Convolution"
  bottom: "conv11"
  top: "conv12"
  param {
    lr_mult: 1
    decay_mult: 1
  }
  param {
    lr_mult: 2
    decay_mult: 0
  }
  convolution_param {
    num_output: 32
    pad: 0
    stride: 1
    weight_filler {
      type: "xavier"
    }
    bias_filler {
      type: "constant"
    }
    kernel_h: 3
    kernel_w: 3
  }
}
layer {
  name: "relu12"
  type: "ReLU"
  bottom: "conv12"
  top: "conv12"
}
layer {
  name: "pool1"
  type: "Pooling"
  bottom: "conv12"
  top: "pool1"
  pooling_param {
    pool: MAX
    kernel_size: 2
    stride: 2
  }
}
layer {
  name: "conv21"
  type: "Convolution"
  bottom: "pool1"
  top: "conv21"
  param {
    lr_mult: 1
    decay_mult: 1
  }
  param {
    lr_mult: 2
    decay_mult: 0
  }
  convolution_param {
    num_output: 64
    pad: 0
    stride: 1
    weight_filler {
      type: "xavier"
    }
    bias_filler {
      type: "constant"
    }
    kernel_h: 3
    kernel_w: 3
  }
}
layer {
  name: "relu21"
  type: "ReLU"
  bottom: "conv21"
  top: "conv21"
}
layer {
  name: "conv22"
  type: "Convolution"
  bottom: "conv21"
  top: "conv22"
  param {
    lr_mult: 1
    decay_mult: 1
  }
  param {
    lr_mult: 2
    decay_mult: 0
  }
  convolution_param {
    num_output: 64
    pad: 0
    stride: 1
    weight_filler {
      type: "xavier"
    }
    bias_filler {
      type: "constant"
    }
    kernel_h: 3
    kernel_w: 3
  }
}
layer {
  name: "relu22"
  type: "ReLU"
  bottom: "conv22"
  top: "conv22"
}
layer {
  name: "pool2"
  type: "Pooling"
  bottom: "conv22"
  top: "pool2"
  pooling_param {
    pool: MAX
    kernel_size: 2
    stride: 2
  }
}
layer {
  name: "conv31"
  type: "Convolution"
  bottom: "pool2"
  top: "conv31"
  param {
    lr_mult: 1
    decay_mult: 1
  }
  param {
    lr_mult: 2
    decay_mult: 0
  }
  convolution_param {
    num_output: 128
    pad: 0
    stride: 1
    weight_filler {
      type: "xavier"
    }
    bias_filler {
      type: "constant"
    }
    kernel_h: 3
    kernel_w: 3
  }
}
layer {
  name: "relu31"
  type: "ReLU"
  bottom: "conv31"
  top: "conv31"
}
layer {
  name: "conv32"
  type: "Convolution"
  bottom: "conv31"
  top: "conv32"
  param {
    lr_mult: 1
    decay_mult: 1
  }
  param {
    lr_mult: 2
    decay_mult: 0
  }
  convolution_param {
    num_output: 128
    pad: 0
    stride: 1
    weight_filler {
      type: "xavier"
    }
    bias_filler {
      type: "constant"
    }
    kernel_h: 3
    kernel_w: 3
  }
}
layer {
  name: "relu32"
  type: "ReLU"
  bottom: "conv32"
  top: "conv32"
}
layer {
  name: "pool3"
  type: "Pooling"
  bottom: "conv32"
  top: "pool3"
  pooling_param {
    pool: MAX
    kernel_size: 3
    stride: 3
  }
}
layer {
  name: "conv4"
  type: "Convolution"
  bottom: "pool3"
  top: "conv4"
  param {
    lr_mult: 1
    decay_mult: 1
  }
  param {
    lr_mult: 2
    decay_mult: 0
  }
  convolution_param {
    num_output: 256
    pad: 0
    stride: 1
    weight_filler {
      type: "xavier"
    }
    bias_filler {
      type: "constant"
    }
    kernel_h: 3
    kernel_w: 3
  }
}
layer {
  name: "relu4"
  type: "ReLU"
  bottom: "conv4"
  top: "conv4"
}
layer {
  name: "drop"
  type: "Dropout"
  bottom: "conv4"
  top: "conv4"
  dropout_param {
    dropout_ratio: 0.5
  }
}
layer {
  name: "conv_c"
  type: "Convolution"
  bottom: "conv4"
  top: "conv_c"
  param {
    lr_mult: 1
    decay_mult: 1
  }
  param {
    lr_mult: 2
    decay_mult: 0
  }
  convolution_param {
    num_output: 256
    pad: 0
    stride: 1
    weight_filler {
      type: "xavier"
    }
    bias_filler {
      type: "constant"
    }
    kernel_h: 1
    kernel_w: 1
  }
}
layer {
  name: "accuracy"
  type: "Accuracy"
  bottom: "conv_c"
  bottom: "label"
  top: "accuracy"
  include {
    phase: TEST
  }
}
layer {
  name: "loss"
  type: "SoftmaxWithLoss"
  bottom: "conv_c"
  bottom: "label"
  top: "loss"
}
I0726 14:01:11.305572 136306 layer_factory.hpp:76] Creating layer data
I0726 14:01:11.305667 136306 net.cpp:106] Creating Layer data
I0726 14:01:11.305682 136306 net.cpp:411] data -> data
I0726 14:01:11.305696 136306 net.cpp:411] data -> label
I0726 14:01:14.218181 136306 net.cpp:150] Setting up data
I0726 14:01:14.218230 136306 net.cpp:157] Top shape: 128 3 64 64 (1572864)
I0726 14:01:14.218240 136306 net.cpp:157] Top shape: 128 1 1 1 (128)
I0726 14:01:14.218248 136306 net.cpp:165] Memory required for data: 6291968
I0726 14:01:14.218258 136306 layer_factory.hpp:76] Creating layer label_data_1_split
I0726 14:01:14.218283 136306 net.cpp:106] Creating Layer label_data_1_split
I0726 14:01:14.218292 136306 net.cpp:454] label_data_1_split <- label
I0726 14:01:14.218303 136306 net.cpp:411] label_data_1_split -> label_data_1_split_0
I0726 14:01:14.218317 136306 net.cpp:411] label_data_1_split -> label_data_1_split_1
I0726 14:01:14.218360 136306 net.cpp:150] Setting up label_data_1_split
I0726 14:01:14.218374 136306 net.cpp:157] Top shape: 128 1 1 1 (128)
I0726 14:01:14.218384 136306 net.cpp:157] Top shape: 128 1 1 1 (128)
I0726 14:01:14.218389 136306 net.cpp:165] Memory required for data: 6292992
I0726 14:01:14.218402 136306 layer_factory.hpp:76] Creating layer conv11
I0726 14:01:14.218433 136306 net.cpp:106] Creating Layer conv11
I0726 14:01:14.218441 136306 net.cpp:454] conv11 <- data
I0726 14:01:14.218452 136306 net.cpp:411] conv11 -> conv11
I0726 14:01:14.219833 136306 net.cpp:150] Setting up conv11
I0726 14:01:14.219887 136306 net.cpp:157] Top shape: 128 32 62 62 (15745024)
I0726 14:01:14.219895 136306 net.cpp:165] Memory required for data: 69273088
I0726 14:01:14.219910 136306 layer_factory.hpp:76] Creating layer relu11
I0726 14:01:14.219923 136306 net.cpp:106] Creating Layer relu11
I0726 14:01:14.219930 136306 net.cpp:454] relu11 <- conv11
I0726 14:01:14.219938 136306 net.cpp:397] relu11 -> conv11 (in-place)
I0726 14:01:14.220319 136306 net.cpp:150] Setting up relu11
I0726 14:01:14.220342 136306 net.cpp:157] Top shape: 128 32 62 62 (15745024)
I0726 14:01:14.220350 136306 net.cpp:165] Memory required for data: 132253184
I0726 14:01:14.220357 136306 layer_factory.hpp:76] Creating layer conv12
I0726 14:01:14.220371 136306 net.cpp:106] Creating Layer conv12
I0726 14:01:14.220379 136306 net.cpp:454] conv12 <- conv11
I0726 14:01:14.220389 136306 net.cpp:411] conv12 -> conv12
I0726 14:01:14.221320 136306 net.cpp:150] Setting up conv12
I0726 14:01:14.221340 136306 net.cpp:157] Top shape: 128 32 60 60 (14745600)
I0726 14:01:14.221349 136306 net.cpp:165] Memory required for data: 191235584
I0726 14:01:14.221359 136306 layer_factory.hpp:76] Creating layer relu12
I0726 14:01:14.221370 136306 net.cpp:106] Creating Layer relu12
I0726 14:01:14.221379 136306 net.cpp:454] relu12 <- conv12
I0726 14:01:14.221386 136306 net.cpp:397] relu12 -> conv12 (in-place)
I0726 14:01:14.221738 136306 net.cpp:150] Setting up relu12
I0726 14:01:14.221756 136306 net.cpp:157] Top shape: 128 32 60 60 (14745600)
I0726 14:01:14.221765 136306 net.cpp:165] Memory required for data: 250217984
I0726 14:01:14.221771 136306 layer_factory.hpp:76] Creating layer pool1
I0726 14:01:14.221782 136306 net.cpp:106] Creating Layer pool1
I0726 14:01:14.221791 136306 net.cpp:454] pool1 <- conv12
I0726 14:01:14.221799 136306 net.cpp:411] pool1 -> pool1
I0726 14:01:14.221961 136306 net.cpp:150] Setting up pool1
I0726 14:01:14.221976 136306 net.cpp:157] Top shape: 128 32 30 30 (3686400)
I0726 14:01:14.221984 136306 net.cpp:165] Memory required for data: 264963584
I0726 14:01:14.221992 136306 layer_factory.hpp:76] Creating layer conv21
I0726 14:01:14.222002 136306 net.cpp:106] Creating Layer conv21
I0726 14:01:14.222010 136306 net.cpp:454] conv21 <- pool1
I0726 14:01:14.222020 136306 net.cpp:411] conv21 -> conv21
I0726 14:01:14.223464 136306 net.cpp:150] Setting up conv21
I0726 14:01:14.223487 136306 net.cpp:157] Top shape: 128 64 28 28 (6422528)
I0726 14:01:14.223495 136306 net.cpp:165] Memory required for data: 290653696
I0726 14:01:14.223507 136306 layer_factory.hpp:76] Creating layer relu21
I0726 14:01:14.223520 136306 net.cpp:106] Creating Layer relu21
I0726 14:01:14.223527 136306 net.cpp:454] relu21 <- conv21
I0726 14:01:14.223536 136306 net.cpp:397] relu21 -> conv21 (in-place)
I0726 14:01:14.223960 136306 net.cpp:150] Setting up relu21
I0726 14:01:14.223979 136306 net.cpp:157] Top shape: 128 64 28 28 (6422528)
I0726 14:01:14.223986 136306 net.cpp:165] Memory required for data: 316343808
I0726 14:01:14.223994 136306 layer_factory.hpp:76] Creating layer conv22
I0726 14:01:14.224006 136306 net.cpp:106] Creating Layer conv22
I0726 14:01:14.224014 136306 net.cpp:454] conv22 <- conv21
I0726 14:01:14.224025 136306 net.cpp:411] conv22 -> conv22
I0726 14:01:14.225263 136306 net.cpp:150] Setting up conv22
I0726 14:01:14.225283 136306 net.cpp:157] Top shape: 128 64 26 26 (5537792)
I0726 14:01:14.225291 136306 net.cpp:165] Memory required for data: 338494976
I0726 14:01:14.225301 136306 layer_factory.hpp:76] Creating layer relu22
I0726 14:01:14.225314 136306 net.cpp:106] Creating Layer relu22
I0726 14:01:14.225322 136306 net.cpp:454] relu22 <- conv22
I0726 14:01:14.225330 136306 net.cpp:397] relu22 -> conv22 (in-place)
I0726 14:01:14.225467 136306 net.cpp:150] Setting up relu22
I0726 14:01:14.225481 136306 net.cpp:157] Top shape: 128 64 26 26 (5537792)
I0726 14:01:14.225488 136306 net.cpp:165] Memory required for data: 360646144
I0726 14:01:14.225495 136306 layer_factory.hpp:76] Creating layer pool2
I0726 14:01:14.225505 136306 net.cpp:106] Creating Layer pool2
I0726 14:01:14.225527 136306 net.cpp:454] pool2 <- conv22
I0726 14:01:14.225536 136306 net.cpp:411] pool2 -> pool2
I0726 14:01:14.225914 136306 net.cpp:150] Setting up pool2
I0726 14:01:14.225932 136306 net.cpp:157] Top shape: 128 64 13 13 (1384448)
I0726 14:01:14.225940 136306 net.cpp:165] Memory required for data: 366183936
I0726 14:01:14.225947 136306 layer_factory.hpp:76] Creating layer conv31
I0726 14:01:14.225960 136306 net.cpp:106] Creating Layer conv31
I0726 14:01:14.225967 136306 net.cpp:454] conv31 <- pool2
I0726 14:01:14.225977 136306 net.cpp:411] conv31 -> conv31
I0726 14:01:14.227803 136306 cudnn_conv_layer.cpp:194] Reallocating workspace storage: 6912
I0726 14:01:14.227833 136306 net.cpp:150] Setting up conv31
I0726 14:01:14.227844 136306 net.cpp:157] Top shape: 128 128 11 11 (1982464)
I0726 14:01:14.227851 136306 net.cpp:165] Memory required for data: 374113792
I0726 14:01:14.227865 136306 layer_factory.hpp:76] Creating layer relu31
I0726 14:01:14.227875 136306 net.cpp:106] Creating Layer relu31
I0726 14:01:14.227883 136306 net.cpp:454] relu31 <- conv31
I0726 14:01:14.227892 136306 net.cpp:397] relu31 -> conv31 (in-place)
I0726 14:01:14.228255 136306 net.cpp:150] Setting up relu31
I0726 14:01:14.228272 136306 net.cpp:157] Top shape: 128 128 11 11 (1982464)
I0726 14:01:14.228279 136306 net.cpp:165] Memory required for data: 382043648
I0726 14:01:14.228287 136306 layer_factory.hpp:76] Creating layer conv32
I0726 14:01:14.228298 136306 net.cpp:106] Creating Layer conv32
I0726 14:01:14.228307 136306 net.cpp:454] conv32 <- conv31
I0726 14:01:14.228317 136306 net.cpp:411] conv32 -> conv32
I0726 14:01:14.230317 136306 cudnn_conv_layer.cpp:194] Reallocating workspace storage: 13824
I0726 14:01:14.230348 136306 net.cpp:150] Setting up conv32
I0726 14:01:14.230360 136306 net.cpp:157] Top shape: 128 128 9 9 (1327104)
I0726 14:01:14.230368 136306 net.cpp:165] Memory required for data: 387352064
I0726 14:01:14.230378 136306 layer_factory.hpp:76] Creating layer relu32
I0726 14:01:14.230387 136306 net.cpp:106] Creating Layer relu32
I0726 14:01:14.230396 136306 net.cpp:454] relu32 <- conv32
I0726 14:01:14.230404 136306 net.cpp:397] relu32 -> conv32 (in-place)
I0726 14:01:14.230562 136306 net.cpp:150] Setting up relu32
I0726 14:01:14.230578 136306 net.cpp:157] Top shape: 128 128 9 9 (1327104)
I0726 14:01:14.230586 136306 net.cpp:165] Memory required for data: 392660480
I0726 14:01:14.230593 136306 layer_factory.hpp:76] Creating layer pool3
I0726 14:01:14.230618 136306 net.cpp:106] Creating Layer pool3
I0726 14:01:14.230625 136306 net.cpp:454] pool3 <- conv32
I0726 14:01:14.230679 136306 net.cpp:411] pool3 -> pool3
I0726 14:01:14.239653 136306 net.cpp:150] Setting up pool3
I0726 14:01:14.239676 136306 net.cpp:157] Top shape: 128 128 3 3 (147456)
I0726 14:01:14.239684 136306 net.cpp:165] Memory required for data: 393250304
I0726 14:01:14.239692 136306 layer_factory.hpp:76] Creating layer conv4
I0726 14:01:14.239704 136306 net.cpp:106] Creating Layer conv4
I0726 14:01:14.239712 136306 net.cpp:454] conv4 <- pool3
I0726 14:01:14.239722 136306 net.cpp:411] conv4 -> conv4
I0726 14:01:14.268746 136306 cudnn_conv_layer.cpp:194] Reallocating workspace storage: 1769472
I0726 14:01:14.269039 136306 net.cpp:150] Setting up conv4
I0726 14:01:14.269067 136306 net.cpp:157] Top shape: 128 256 1 1 (32768)
I0726 14:01:14.269073 136306 net.cpp:165] Memory required for data: 393381376
I0726 14:01:14.269084 136306 layer_factory.hpp:76] Creating layer relu4
I0726 14:01:14.269095 136306 net.cpp:106] Creating Layer relu4
I0726 14:01:14.269104 136306 net.cpp:454] relu4 <- conv4
I0726 14:01:14.269112 136306 net.cpp:397] relu4 -> conv4 (in-place)
I0726 14:01:14.269264 136306 net.cpp:150] Setting up relu4
I0726 14:01:14.269279 136306 net.cpp:157] Top shape: 128 256 1 1 (32768)
I0726 14:01:14.269286 136306 net.cpp:165] Memory required for data: 393512448
I0726 14:01:14.269294 136306 layer_factory.hpp:76] Creating layer drop
I0726 14:01:14.269304 136306 net.cpp:106] Creating Layer drop
I0726 14:01:14.269311 136306 net.cpp:454] drop <- conv4
I0726 14:01:14.269335 136306 net.cpp:397] drop -> conv4 (in-place)
I0726 14:01:14.269368 136306 net.cpp:150] Setting up drop
I0726 14:01:14.269383 136306 net.cpp:157] Top shape: 128 256 1 1 (32768)
I0726 14:01:14.269398 136306 net.cpp:165] Memory required for data: 393643520
I0726 14:01:14.269405 136306 layer_factory.hpp:76] Creating layer conv_c
I0726 14:01:14.269423 136306 net.cpp:106] Creating Layer conv_c
I0726 14:01:14.269429 136306 net.cpp:454] conv_c <- conv4
I0726 14:01:14.269439 136306 net.cpp:411] conv_c -> conv_c
I0726 14:01:14.271417 136306 cudnn_conv_layer.cpp:194] Reallocating workspace storage: 3072
I0726 14:01:14.271450 136306 net.cpp:150] Setting up conv_c
I0726 14:01:14.271462 136306 net.cpp:157] Top shape: 128 256 1 1 (32768)
I0726 14:01:14.271472 136306 net.cpp:165] Memory required for data: 393774592
I0726 14:01:14.271483 136306 layer_factory.hpp:76] Creating layer conv_c_conv_c_0_split
I0726 14:01:14.271494 136306 net.cpp:106] Creating Layer conv_c_conv_c_0_split
I0726 14:01:14.271503 136306 net.cpp:454] conv_c_conv_c_0_split <- conv_c
I0726 14:01:14.271513 136306 net.cpp:411] conv_c_conv_c_0_split -> conv_c_conv_c_0_split_0
I0726 14:01:14.271525 136306 net.cpp:411] conv_c_conv_c_0_split -> conv_c_conv_c_0_split_1
I0726 14:01:14.271567 136306 net.cpp:150] Setting up conv_c_conv_c_0_split
I0726 14:01:14.271589 136306 net.cpp:157] Top shape: 128 256 1 1 (32768)
I0726 14:01:14.271600 136306 net.cpp:157] Top shape: 128 256 1 1 (32768)
I0726 14:01:14.271610 136306 net.cpp:165] Memory required for data: 394036736
I0726 14:01:14.271617 136306 layer_factory.hpp:76] Creating layer accuracy
I0726 14:01:14.271634 136306 net.cpp:106] Creating Layer accuracy
I0726 14:01:14.271643 136306 net.cpp:454] accuracy <- conv_c_conv_c_0_split_0
I0726 14:01:14.271656 136306 net.cpp:454] accuracy <- label_data_1_split_0
I0726 14:01:14.271666 136306 net.cpp:411] accuracy -> accuracy
…
