…
  type: "Python"
  top: "data"
  top: "label"
  include {
    phase: TRAIN
  }
  python_param {
    module: "mask_image_layer"
    layer: "random_patches_from_images_withlabel"
    param_str: "{\'root_folder\': \'/home/dywang/Proliferation/data/mitoses\', \'image_list\': \'/home/dywang/00exp_wdy/stage04_mitosisDetection/step02_train_mitosis_detecotor/heatmap_mc13_tr/all_image_withlabel_mc13_tr.lst\', \'seed\': 8899, \'mean\': (128, 128, 128), \'size\': 64, \'batch\': 128, \'scale\':0.1, \'colorn\':20, \'classes\':\'1:0 2:1 3:0\', \'DEBUG\': True}"
  }
}
layer {
  name: "conv11"
  type: "Convolution"
  bottom: "data"
  top: "conv11"
  param {
    lr_mult: 1
    decay_mult: 1
  }
  param {
    lr_mult: 2
    decay_mult: 0
  }
  convolution_param {
    num_output: 32
    pad: 0
    kernel_size: 3
    stride: 1
    weight_filler {
      type: "gaussian"
      std: 0.04
    }
    bias_filler {
      type: "constant"
      value: 0.1
    }
  }
}
layer {
  name: "relu11"
  type: "ReLU"
  bottom: "conv11"
  top: "conv11"
}
layer {
  name: "conv12"
  type: "Convolution"
  bottom: "conv11"
  top: "conv12"
  param {
    lr_mult: 1
    decay_mult: 1
  }
  param {
    lr_mult: 2
    decay_mult: 0
  }
  convolution_param {
    num_output: 32
    pad: 0
    kernel_size: 3
    stride: 1
    weight_filler {
      type: "gaussian"
      std: 0.04
    }
    bias_filler {
      type: "constant"
      value: 0.1
    }
  }
}
layer {
  name: "relu12"
  type: "ReLU"
  bottom: "conv12"
  top: "conv12"
}
layer {
  name: "pool1"
  type: "Pooling"
  bottom: "conv12"
  top: "pool1"
  pooling_param {
    pool: MAX
    kernel_size: 2
    stride: 2
  }
}
layer {
  name: "conv21"
  type: "Convolution"
  bottom: "pool1"
  top: "conv21"
  param {
    lr_mult: 1
    decay_mult: 1
  }
  param {
    lr_mult: 2
    decay_mult: 0
  }
  convolution_param {
    num_output: 64
    pad: 0
    kernel_size: 3
    stride: 1
    weight_filler {
      type: "gaussian"
      std: 0.04
    }
    bias_filler {
      type: "constant"
      value: 0.1
    }
  }
}
layer {
  name: "relu21"
  type: "ReLU"
  bottom: "conv21"
  top: "conv21"
}
layer {
  name: "conv22"
  type: "Convolution"
  bottom: "conv21"
  top: "conv22"
  param {
    lr_mult: 1
    decay_mult: 1
  }
  param {
    lr_mult: 2
    decay_mult: 0
  }
  convolution_param {
    num_output: 64
    pad: 0
    kernel_size: 3
    stride: 1
    weight_filler {
      type: "gaussian"
      std: 0.04
    }
    bias_filler {
      type: "constant"
      value: 0.1
    }
  }
}
layer {
  name: "relu22"
  type: "ReLU"
  bottom: "conv22"
  top: "conv22"
}
layer {
  name: "pool2"
  type: "Pooling"
  bottom: "conv22"
  top: "pool2"
  pooling_param {
    pool: MAX
    kernel_size: 2
    stride: 2
  }
}
layer {
  name: "conv31"
  type: "Convolution"
  bottom: "pool2"
  top: "conv31"
  param {
    lr_mult: 1
    decay_mult: 1
  }
  param {
    lr_mult: 2
    decay_mult: 0
  }
  convolution_param {
    num_output: 128
    pad: 0
    kernel_size: 3
    stride: 1
    weight_filler {
      type: "gaussian"
      std: 0.04
    }
    bias_filler {
      type: "constant"
      value: 0.1
    }
  }
}
layer {
  name: "relu31"
  type: "ReLU"
  bottom: "conv31"
  top: "conv31"
}
layer {
  name: "conv32"
  type: "Convolution"
  bottom: "conv31"
  top: "conv32"
  param {
    lr_mult: 1
    decay_mult: 1
  }
  param {
    lr_mult: 2
    decay_mult: 0
  }
  convolution_param {
    num_output: 128
    pad: 0
    stride: 1
    weight_filler {
      type: "xavier"
    }
    bias_filler {
      type: "constant"
    }
    kernel_h: 3
    kernel_w: 3
  }
}
layer {
  name: "relu32"
  type: "ReLU"
  bottom: "conv32"
  top: "conv32"
}
layer {
  name: "pool3"
  type: "Pooling"
  bottom: "conv32"
  top: "pool3"
  pooling_param {
    pool: MAX
    kernel_size: 3
    stride: 3
  }
}
layer {
  name: "conv4"
  type: "Convolution"
  bottom: "pool3"
  top: "conv4"
  param {
    lr_mult: 1
    decay_mult: 1
  }
  param {
    lr_mult: 2
    decay_mult: 0
  }
  convolution_param {
    num_output: 256
    pad: 0
    kernel_size: 3
    stride: 1
    weight_filler {
      type: "gaussian"
      std: 0.04
    }
    bias_filler {
      type: "constant"
      value: 0.1
    }
  }
}
layer {
  name: "relu4"
  type: "ReLU"
  bottom: "conv4"
  top: "conv4"
}
layer {
  name: "drop"
  type: "Dropout"
  bottom: "conv4"
  top: "conv4"
  dropout_param {
    dropout_ratio: 0.5
  }
}
layer {
  name: "conv_c"
  type: "Convolution"
  bottom: "conv4"
  top: "conv_c"
  param {
    lr_mult: 1
    decay_mult: 1
  }
  param {
    lr_mult: 2
    decay_mult: 0
  }
  convolution_param {
    num_output: 256
    pad: 0
    kernel_size: 1
    stride: 1
    weight_filler {
      type: "gaussian"
      std: 0.04
    }
    bias_filler {
      type: "constant"
      value: 0.1
    }
  }
}
layer {
  name: "loss"
  type: "SoftmaxWithLoss"
  bottom: "conv_c"
  bottom: "label"
  top: "loss"
}
I0728 12:55:28.914261 118397 layer_factory.hpp:76] Creating layer data
I0728 12:55:33.139036 118397 net.cpp:106] Creating Layer data
I0728 12:55:33.139127 118397 net.cpp:411] data -> data
I0728 12:55:33.139159 118397 net.cpp:411] data -> label
I0728 12:55:42.477097 118397 net.cpp:150] Setting up data
I0728 12:55:42.477176 118397 net.cpp:157] Top shape: 128 3 64 64 (1572864)
I0728 12:55:42.477190 118397 net.cpp:157] Top shape: 128 1 1 1 (128)
I0728 12:55:42.477200 118397 net.cpp:165] Memory required for data: 6291968
I0728 12:55:42.477218 118397 layer_factory.hpp:76] Creating layer conv11
I0728 12:55:42.477264 118397 net.cpp:106] Creating Layer conv11
I0728 12:55:42.477277 118397 net.cpp:454] conv11 <- data
I0728 12:55:42.477303 118397 net.cpp:411] conv11 -> conv11
I0728 12:55:42.681773 118397 net.cpp:150] Setting up conv11
I0728 12:55:42.681835 118397 net.cpp:157] Top shape: 128 32 62 62 (15745024)
I0728 12:55:42.681850 118397 net.cpp:165] Memory required for data: 69272064
I0728 12:55:42.681895 118397 layer_factory.hpp:76] Creating layer relu11
I0728 12:55:42.681926 118397 net.cpp:106] Creating Layer relu11
I0728 12:55:42.681943 118397 net.cpp:454] relu11 <- conv11
I0728 12:55:42.681960 118397 net.cpp:397] relu11 -> conv11 (in-place)
I0728 12:55:42.682199 118397 net.cpp:150] Setting up relu11
I0728 12:55:42.682221 118397 net.cpp:157] Top shape: 128 32 62 62 (15745024)
I0728 12:55:42.682236 118397 net.cpp:165] Memory required for data: 132252160
I0728 12:55:42.682250 118397 layer_factory.hpp:76] Creating layer conv12
I0728 12:55:42.682276 118397 net.cpp:106] Creating Layer conv12
I0728 12:55:42.682291 118397 net.cpp:454] conv12 <- conv11
I0728 12:55:42.682308 118397 net.cpp:411] conv12 -> conv12
I0728 12:55:42.684315 118397 net.cpp:150] Setting up conv12
I0728 12:55:42.684339 118397 net.cpp:157] Top shape: 128 32 60 60 (14745600)
I0728 12:55:42.684348 118397 net.cpp:165] Memory required for data: 191234560
I0728 12:55:42.684365 118397 layer_factory.hpp:76] Creating layer relu12
I0728 12:55:42.684381 118397 net.cpp:106] Creating Layer relu12
I0728 12:55:42.684391 118397 net.cpp:454] relu12 <- conv12
I0728 12:55:42.684402 118397 net.cpp:397] relu12 -> conv12 (in-place)
I0728 12:55:42.684721 118397 net.cpp:150] Setting up relu12
I0728 12:55:42.684741 118397 net.cpp:157] Top shape: 128 32 60 60 (14745600)
I0728 12:55:42.684749 118397 net.cpp:165] Memory required for data: 250216960
I0728 12:55:42.684792 118397 layer_factory.hpp:76] Creating layer pool1
I0728 12:55:42.684808 118397 net.cpp:106] Creating Layer pool1
I0728 12:55:42.684818 118397 net.cpp:454] pool1 <- conv12
I0728 12:55:42.684828 118397 net.cpp:411] pool1 -> pool1
I0728 12:55:42.685065 118397 net.cpp:150] Setting up pool1
I0728 12:55:42.685083 118397 net.cpp:157] Top shape: 128 32 30 30 (3686400)
I0728 12:55:42.685092 118397 net.cpp:165] Memory required for data: 264962560
I0728 12:55:42.685101 118397 layer_factory.hpp:76] Creating layer conv21
I0728 12:55:42.685118 118397 net.cpp:106] Creating Layer conv21
I0728 12:55:42.685128 118397 net.cpp:454] conv21 <- pool1
I0728 12:55:42.685139 118397 net.cpp:411] conv21 -> conv21
I0728 12:55:42.687338 118397 net.cpp:150] Setting up conv21
I0728 12:55:42.687362 118397 net.cpp:157] Top shape: 128 64 28 28 (6422528)
I0728 12:55:42.687372 118397 net.cpp:165] Memory required for data: 290652672
I0728 12:55:42.687387 118397 layer_factory.hpp:76] Creating layer relu21
I0728 12:55:42.687403 118397 net.cpp:106] Creating Layer relu21
I0728 12:55:42.687415 118397 net.cpp:454] relu21 <- conv21
I0728 12:55:42.687427 118397 net.cpp:397] relu21 -> conv21 (in-place)
I0728 12:55:42.687744 118397 net.cpp:150] Setting up relu21
I0728 12:55:42.687767 118397 net.cpp:157] Top shape: 128 64 28 28 (6422528)
I0728 12:55:42.687777 118397 net.cpp:165] Memory required for data: 316342784
I0728 12:55:42.687785 118397 layer_factory.hpp:76] Creating layer conv22
I0728 12:55:42.687808 118397 net.cpp:106] Creating Layer conv22
I0728 12:55:42.687819 118397 net.cpp:454] conv22 <- conv21
I0728 12:55:42.687834 118397 net.cpp:411] conv22 -> conv22
I0728 12:55:42.689906 118397 net.cpp:150] Setting up conv22
I0728 12:55:42.689929 118397 net.cpp:157] Top shape: 128 64 26 26 (5537792)
I0728 12:55:42.689939 118397 net.cpp:165] Memory required for data: 338493952
I0728 12:55:42.689951 118397 layer_factory.hpp:76] Creating layer relu22
I0728 12:55:42.689965 118397 net.cpp:106] Creating Layer relu22
I0728 12:55:42.689975 118397 net.cpp:454] relu22 <- conv22
I0728 12:55:42.689990 118397 net.cpp:397] relu22 -> conv22 (in-place)
I0728 12:55:42.690302 118397 net.cpp:150] Setting up relu22
I0728 12:55:42.690323 118397 net.cpp:157] Top shape: 128 64 26 26 (5537792)
I0728 12:55:42.690335 118397 net.cpp:165] Memory required for data: 360645120
I0728 12:55:42.690343 118397 layer_factory.hpp:76] Creating layer pool2
I0728 12:55:42.690356 118397 net.cpp:106] Creating Layer pool2
I0728 12:55:42.690366 118397 net.cpp:454] pool2 <- conv22
I0728 12:55:42.690378 118397 net.cpp:411] pool2 -> pool2
I0728 12:55:42.690582 118397 net.cpp:150] Setting up pool2
I0728 12:55:42.690600 118397 net.cpp:157] Top shape: 128 64 13 13 (1384448)
I0728 12:55:42.690609 118397 net.cpp:165] Memory required for data: 366182912
I0728 12:55:42.690619 118397 layer_factory.hpp:76] Creating layer conv31
I0728 12:55:42.690649 118397 net.cpp:106] Creating Layer conv31
I0728 12:55:42.690659 118397 net.cpp:454] conv31 <- pool2
I0728 12:55:42.690671 118397 net.cpp:411] conv31 -> conv31
I0728 12:55:42.694748 118397 cudnn_conv_layer.cpp:194] Reallocating workspace storage: 6912
I0728 12:55:42.694969 118397 net.cpp:150] Setting up conv31
I0728 12:55:42.694990 118397 net.cpp:157] Top shape: 128 128 11 11 (1982464)
I0728 12:55:42.695000 118397 net.cpp:165] Memory required for data: 374112768
I0728 12:55:42.695015 118397 layer_factory.hpp:76] Creating layer relu31
I0728 12:55:42.695034 118397 net.cpp:106] Creating Layer relu31
I0728 12:55:42.695083 118397 net.cpp:454] relu31 <- conv31
I0728 12:55:42.695117 118397 net.cpp:397] relu31 -> conv31 (in-place)
I0728 12:55:42.695713 118397 net.cpp:150] Setting up relu31
I0728 12:55:42.695734 118397 net.cpp:157] Top shape: 128 128 11 11 (1982464)
I0728 12:55:42.695740 118397 net.cpp:165] Memory required for data: 382042624
I0728 12:55:42.695750 118397 layer_factory.hpp:76] Creating layer conv32
I0728 12:55:42.695772 118397 net.cpp:106] Creating Layer conv32
I0728 12:55:42.695780 118397 net.cpp:454] conv32 <- conv31
I0728 12:55:42.695791 118397 net.cpp:411] conv32 -> conv32
I0728 12:55:42.698580 118397 cudnn_conv_layer.cpp:194] Reallocating workspace storage: 13824
I0728 12:55:42.698612 118397 net.cpp:150] Setting up conv32
I0728 12:55:42.698746 118397 net.cpp:157] Top shape: 128 128 9 9 (1327104)
I0728 12:55:42.698791 118397 net.cpp:165] Memory required for data: 387351040
I0728 12:55:42.698837 118397 layer_factory.hpp:76] Creating layer relu32
I0728 12:55:42.698879 118397 net.cpp:106] Creating Layer relu32
I0728 12:55:42.698916 118397 net.cpp:454] relu32 <- conv32
I0728 12:55:42.698954 118397 net.cpp:397] relu32 -> conv32 (in-place)
I0728 12:55:42.699220 118397 net.cpp:150] Setting up relu32
I0728 12:55:42.699268 118397 net.cpp:157] Top shape: 128 128 9 9 (1327104)
I0728 12:55:42.699304 118397 net.cpp:165] Memory required for data: 392659456
I0728 12:55:42.699340 118397 layer_factory.hpp:76] Creating layer pool3
I0728 12:55:42.699383 118397 net.cpp:106] Creating Layer pool3
I0728 12:55:42.699419 118397 net.cpp:454] pool3 <- conv32
I0728 12:55:42.699460 118397 net.cpp:411] pool3 -> pool3
I0728 12:55:42.699934 118397 net.cpp:150] Setting up pool3
I0728 12:55:42.699985 118397 net.cpp:157] Top shape: 128 128 3 3 (147456)
I0728 12:55:42.700021 118397 net.cpp:165] Memory required for data: 393249280
I0728 12:55:42.700063 118397 layer_factory.hpp:76] Creating layer conv4
I0728 12:55:42.700116 118397 net.cpp:106] Creating Layer conv4
I0728 12:55:42.700155 118397 net.cpp:454] conv4 <- pool3
I0728 12:55:42.700198 118397 net.cpp:411] conv4 -> conv4
I0728 12:55:42.714876 118397 cudnn_conv_layer.cpp:194] Reallocating workspace storage: 1769472
I0728 12:55:42.715160 118397 net.cpp:150] Setting up conv4
I0728 12:55:42.715211 118397 net.cpp:157] Top shape: 128 256 1 1 (32768)
I0728 12:55:42.715248 118397 net.cpp:165] Memory required for data: 393380352
I0728 12:55:42.715292 118397 layer_factory.hpp:76] Creating layer relu4
I0728 12:55:42.715338 118397 net.cpp:106] Creating Layer relu4
I0728 12:55:42.715378 118397 net.cpp:454] relu4 <- conv4
I0728 12:55:42.715415 118397 net.cpp:397] relu4 -> conv4 (in-place)
I0728 12:55:42.715837 118397 net.cpp:150] Setting up relu4
I0728 12:55:42.715891 118397 net.cpp:157] Top shape: 128 256 1 1 (32768)
I0728 12:55:42.715929 118397 net.cpp:165] Memory required for data: 393511424
I0728 12:55:42.715967 118397 layer_factory.hpp:76] Creating layer drop
I0728 12:55:42.716014 118397 net.cpp:106] Creating Layer drop
I0728 12:55:42.716053 118397 net.cpp:454] drop <- conv4
I0728 12:55:42.716089 118397 net.cpp:397] drop -> conv4 (in-place)
I0728 12:55:42.716173 118397 net.cpp:150] Setting up drop
I0728 12:55:42.716215 118397 net.cpp:157] Top shape: 128 256 1 1 (32768)
I0728 12:55:42.716253 118397 net.cpp:165] Memory required for data: 393642496
I0728 12:55:42.716287 118397 layer_factory.hpp:76] Creating layer conv_c
I0728 12:55:42.716333 118397 net.cpp:106] Creating Layer conv_c
I0728 12:55:42.716368 118397 net.cpp:454] conv_c <- conv4
I0728 12:55:42.716411 118397 net.cpp:411] conv_c -> conv_c
I0728 12:55:42.720825 118397 cudnn_conv_layer.cpp:194] Reallocating workspace storage: 3072
I0728 12:55:42.721109 118397 net.cpp:150] Setting up conv_c
I0728 12:55:42.721159 118397 net.cpp:157] Top shape: 128 256 1 1 (32768)
I0728 12:55:42.721199 118397 net.cpp:165] Memory required for data: 393773568
I0728 12:55:42.721245 118397 layer_factory.hpp:76] Creating layer loss
I0728 12:55:42.721292 118397 net.cpp:106] Creating Layer loss
I0728 12:55:42.721328 118397 net.cpp:454] loss <- conv_c
I0728 12:55:42.721375 118397 net.cpp:454] loss <- label
I0728 12:55:42.721416 118397 net.cpp:411] loss -> loss
I0728 12:55:42.721465 118397 layer_factory.hpp:76] Creating layer loss
…
  type: "Python"
  top: "data"
  top: "label"
  include {
    phase: TEST
  }
  python_param {
    module: "mask_image_layer"
    layer: "random_patches_from_images_withlabel"
    param_str: "{\'root_folder\': \'/home/dywang/Proliferation/data/mitoses\', \'image_list\': \'/home/dywang/00exp_wdy/stage04_mitosisDetection/step02_train_mitosis_detecotor/heatmap_mc13_tr/all_image_withlabel_mc13_tr.lst\', \'seed\': 8899, \'mean\': (128, 128, 128), \'size\': 64, \'batch\': 128, \'scale\':0.1, \'colorn\':20, \'classes\':\'1:0 2:1 3:0\', \'DEBUG\': True}"
  }
}
layer {
  name: "conv11"
  type: "Convolution"
  bottom: "data"
  top: "conv11"
  param {
    lr_mult: 1
    decay_mult: 1
  }
  param {
    lr_mult: 2
    decay_mult: 0
  }
  convolution_param {
    num_output: 32
    pad: 0
    kernel_size: 3
    stride: 1
    weight_filler {
      type: "gaussian"
      std: 0.04
    }
    bias_filler {
      type: "constant"
      value: 0.1
    }
  }
}
layer {
  name: "relu11"
  type: "ReLU"
  bottom: "conv11"
  top: "conv11"
}
layer {
  name: "conv12"
  type: "Convolution"
  bottom: "conv11"
  top: "conv12"
  param {
    lr_mult: 1
    decay_mult: 1
  }
  param {
    lr_mult: 2
    decay_mult: 0
  }
  convolution_param {
    num_output: 32
    pad: 0
    kernel_size: 3
    stride: 1
    weight_filler {
      type: "gaussian"
      std: 0.04
    }
    bias_filler {
      type: "constant"
      value: 0.1
    }
  }
}
layer {
  name: "relu12"
  type: "ReLU"
  bottom: "conv12"
  top: "conv12"
}
layer {
  name: "pool1"
  type: "Pooling"
  bottom: "conv12"
  top: "pool1"
  pooling_param {
    pool: MAX
    kernel_size: 2
    stride: 2
  }
}
layer {
  name: "conv21"
  type: "Convolution"
  bottom: "pool1"
  top: "conv21"
  param {
    lr_mult: 1
    decay_mult: 1
  }
  param {
    lr_mult: 2
    decay_mult: 0
  }
  convolution_param {
    num_output: 64
    pad: 0
    kernel_size: 3
    stride: 1
    weight_filler {
      type: "gaussian"
      std: 0.04
    }
    bias_filler {
      type: "constant"
      value: 0.1
    }
  }
}
layer {
  name: "relu21"
  type: "ReLU"
  bottom: "conv21"
  top: "conv21"
}
layer {
  name: "conv22"
  type: "Convolution"
  bottom: "conv21"
  top: "conv22"
  param {
    lr_mult: 1
    decay_mult: 1
  }
  param {
    lr_mult: 2
    decay_mult: 0
  }
  convolution_param {
    num_output: 64
    pad: 0
    kernel_size: 3
    stride: 1
    weight_filler {
      type: "gaussian"
      std: 0.04
    }
    bias_filler {
      type: "constant"
      value: 0.1
    }
  }
}
layer {
  name: "relu22"
  type: "ReLU"
  bottom: "conv22"
  top: "conv22"
}
layer {
  name: "pool2"
  type: "Pooling"
  bottom: "conv22"
  top: "pool2"
  pooling_param {
    pool: MAX
    kernel_size: 2
    stride: 2
  }
}
layer {
  name: "conv31"
  type: "Convolution"
  bottom: "pool2"
  top: "conv31"
  param {
    lr_mult: 1
    decay_mult: 1
  }
  param {
    lr_mult: 2
    decay_mult: 0
  }
  convolution_param {
    num_output: 128
    pad: 0
    kernel_size: 3
    stride: 1
    weight_filler {
      type: "gaussian"
      std: 0.04
    }
    bias_filler {
      type: "constant"
      value: 0.1
    }
  }
}
layer {
  name: "relu31"
  type: "ReLU"
  bottom: "conv31"
  top: "conv31"
}
layer {
  name: "conv32"
  type: "Convolution"
  bottom: "conv31"
  top: "conv32"
  param {
    lr_mult: 1
    decay_mult: 1
  }
  param {
    lr_mult: 2
    decay_mult: 0
  }
  convolution_param {
    num_output: 128
    pad: 0
    stride: 1
    weight_filler {
      type: "xavier"
    }
    bias_filler {
      type: "constant"
    }
    kernel_h: 3
    kernel_w: 3
  }
}
layer {
  name: "relu32"
  type: "ReLU"
  bottom: "conv32"
  top: "conv32"
}
layer {
  name: "pool3"
  type: "Pooling"
  bottom: "conv32"
  top: "pool3"
  pooling_param {
    pool: MAX
    kernel_size: 3
    stride: 3
  }
}
layer {
  name: "conv4"
  type: "Convolution"
  bottom: "pool3"
  top: "conv4"
  param {
    lr_mult: 1
    decay_mult: 1
  }
  param {
    lr_mult: 2
    decay_mult: 0
  }
  convolution_param {
    num_output: 256
    pad: 0
    kernel_size: 3
    stride: 1
    weight_filler {
      type: "gaussian"
      std: 0.04
    }
    bias_filler {
      type: "constant"
      value: 0.1
    }
  }
}
layer {
  name: "relu4"
  type: "ReLU"
  bottom: "conv4"
  top: "conv4"
}
layer {
  name: "drop"
  type: "Dropout"
  bottom: "conv4"
  top: "conv4"
  dropout_param {
    dropout_ratio: 0.5
  }
}
layer {
  name: "conv_c"
  type: "Convolution"
  bottom: "conv4"
  top: "conv_c"
  param {
    lr_mult: 1
    decay_mult: 1
  }
  param {
    lr_mult: 2
    decay_mult: 0
  }
  convolution_param {
    num_output: 256
    pad: 0
    kernel_size: 1
    stride: 1
    weight_filler {
      type: "gaussian"
      std: 0.04
    }
    bias_filler {
      type: "constant"
      value: 0.1
    }
  }
}
layer {
  name: "accuracy"
  type: "Accuracy"
  bottom: "conv_c"
  bottom: "label"
  top: "accuracy"
  include {
    phase: TEST
  }
}
layer {
  name: "loss"
  type: "SoftmaxWithLoss"
  bottom: "conv_c"
  bottom: "label"
  top: "loss"
}
I0728 12:55:42.725220 118397 layer_factory.hpp:76] Creating layer data
I0728 12:55:42.725373 118397 net.cpp:106] Creating Layer data
I0728 12:55:42.725394 118397 net.cpp:411] data -> data
I0728 12:55:42.725415 118397 net.cpp:411] data -> label
I0728 12:55:52.467892 118397 net.cpp:150] Setting up data
I0728 12:55:52.467964 118397 net.cpp:157] Top shape: 128 3 64 64 (1572864)
I0728 12:55:52.467978 118397 net.cpp:157] Top shape: 128 1 1 1 (128)
I0728 12:55:52.467986 118397 net.cpp:165] Memory required for data: 6291968
I0728 12:55:52.468003 118397 layer_factory.hpp:76] Creating layer label_data_1_split
I0728 12:55:52.468050 118397 net.cpp:106] Creating Layer label_data_1_split
I0728 12:55:52.468063 118397 net.cpp:454] label_data_1_split <- label
I0728 12:55:52.468081 118397 net.cpp:411] label_data_1_split -> label_data_1_split_0
I0728 12:55:52.468099 118397 net.cpp:411] label_data_1_split -> label_data_1_split_1
I0728 12:55:52.468150 118397 net.cpp:150] Setting up label_data_1_split
I0728 12:55:52.468176 118397 net.cpp:157] Top shape: 128 1 1 1 (128)
I0728 12:55:52.468197 118397 net.cpp:157] Top shape: 128 1 1 1 (128)
I0728 12:55:52.468206 118397 net.cpp:165] Memory required for data: 6292992
I0728 12:55:52.468245 118397 layer_factory.hpp:76] Creating layer conv11
I0728 12:55:52.468268 118397 net.cpp:106] Creating Layer conv11
I0728 12:55:52.468279 118397 net.cpp:454] conv11 <- data
I0728 12:55:52.468291 118397 net.cpp:411] conv11 -> conv11
I0728 12:55:52.469954 118397 net.cpp:150] Setting up conv11
I0728 12:55:52.469979 118397 net.cpp:157] Top shape: 128 32 62 62 (15745024)
I0728 12:55:52.469990 118397 net.cpp:165] Memory required for data: 69273088
I0728 12:55:52.470008 118397 layer_factory.hpp:76] Creating layer relu11
I0728 12:55:52.470027 118397 net.cpp:106] Creating Layer relu11
I0728 12:55:52.470038 118397 net.cpp:454] relu11 <- conv11
I0728 12:55:52.470051 118397 net.cpp:397] relu11 -> conv11 (in-place)
I0728 12:55:52.470371 118397 net.cpp:150] Setting up relu11
I0728 12:55:52.470391 118397 net.cpp:157] Top shape: 128 32 62 62 (15745024)
I0728 12:55:52.470402 118397 net.cpp:165] Memory required for data: 132253184
I0728 12:55:52.470412 118397 layer_factory.hpp:76] Creating layer conv12
I0728 12:55:52.470429 118397 net.cpp:106] Creating Layer conv12
I0728 12:55:52.470440 118397 net.cpp:454] conv12 <- conv11
I0728 12:55:52.470453 118397 net.cpp:411] conv12 -> conv12
I0728 12:55:52.471609 118397 net.cpp:150] Setting up conv12
I0728 12:55:52.471633 118397 net.cpp:157] Top shape: 128 32 60 60 (14745600)
I0728 12:55:52.471643 118397 net.cpp:165] Memory required for data: 191235584
I0728 12:55:52.471662 118397 layer_factory.hpp:76] Creating layer relu12
I0728 12:55:52.471678 118397 net.cpp:106] Creating Layer relu12
I0728 12:55:52.471688 118397 net.cpp:454] relu12 <- conv12
I0728 12:55:52.471699 118397 net.cpp:397] relu12 -> conv12 (in-place)
I0728 12:55:52.472015 118397 net.cpp:150] Setting up relu12
I0728 12:55:52.472036 118397 net.cpp:157] Top shape: 128 32 60 60 (14745600)
I0728 12:55:52.472046 118397 net.cpp:165] Memory required for data: 250217984
I0728 12:55:52.472057 118397 layer_factory.hpp:76] Creating layer pool1
I0728 12:55:52.472071 118397 net.cpp:106] Creating Layer pool1
I0728 12:55:52.472081 118397 net.cpp:454] pool1 <- conv12
I0728 12:55:52.472093 118397 net.cpp:411] pool1 -> pool1
I0728 12:55:52.472287 118397 net.cpp:150] Setting up pool1
I0728 12:55:52.472306 118397 net.cpp:157] Top shape: 128 32 30 30 (3686400)
I0728 12:55:52.472316 118397 net.cpp:165] Memory required for data: 264963584
I0728 12:55:52.472326 118397 layer_factory.hpp:76] Creating layer conv21
I0728 12:55:52.472340 118397 net.cpp:106] Creating Layer conv21
I0728 12:55:52.472350 118397 net.cpp:454] conv21 <- pool1
I0728 12:55:52.472363 118397 net.cpp:411] conv21 -> conv21
I0728 12:55:52.474040 118397 net.cpp:150] Setting up conv21
I0728 12:55:52.474061 118397 net.cpp:157] Top shape: 128 64 28 28 (6422528)
I0728 12:55:52.474072 118397 net.cpp:165] Memory required for data: 290653696
I0728 12:55:52.474089 118397 layer_factory.hpp:76] Creating layer relu21
I0728 12:55:52.474104 118397 net.cpp:106] Creating Layer relu21
I0728 12:55:52.474114 118397 net.cpp:454] relu21 <- conv21
I0728 12:55:52.474126 118397 net.cpp:397] relu21 -> conv21 (in-place)
I0728 12:55:52.474442 118397 net.cpp:150] Setting up relu21
I0728 12:55:52.474463 118397 net.cpp:157] Top shape: 128 64 28 28 (6422528)
I0728 12:55:52.474473 118397 net.cpp:165] Memory required for data: 316343808
I0728 12:55:52.474485 118397 layer_factory.hpp:76] Creating layer conv22
I0728 12:55:52.474500 118397 net.cpp:106] Creating Layer conv22
I0728 12:55:52.474510 118397 net.cpp:454] conv22 <- conv21
I0728 12:55:52.474524 118397 net.cpp:411] conv22 -> conv22
I0728 12:55:52.476725 118397 net.cpp:150] Setting up conv22
I0728 12:55:52.476749 118397 net.cpp:157] Top shape: 128 64 26 26 (5537792)
I0728 12:55:52.476760 118397 net.cpp:165] Memory required for data: 338494976
I0728 12:55:52.476774 118397 layer_factory.hpp:76] Creating layer relu22
I0728 12:55:52.476788 118397 net.cpp:106] Creating Layer relu22
I0728 12:55:52.476799 118397 net.cpp:454] relu22 <- conv22
I0728 12:55:52.476810 118397 net.cpp:397] relu22 -> conv22 (in-place)
I0728 12:55:52.476975 118397 net.cpp:150] Setting up relu22
I0728 12:55:52.477010 118397 net.cpp:157] Top shape: 128 64 26 26 (5537792)
I0728 12:55:52.477020 118397 net.cpp:165] Memory required for data: 360646144
I0728 12:55:52.477031 118397 layer_factory.hpp:76] Creating layer pool2
I0728 12:55:52.477046 118397 net.cpp:106] Creating Layer pool2
I0728 12:55:52.477056 118397 net.cpp:454] pool2 <- conv22
I0728 12:55:52.477066 118397 net.cpp:411] pool2 -> pool2
I0728 12:55:52.477406 118397 net.cpp:150] Setting up pool2
I0728 12:55:52.477427 118397 net.cpp:157] Top shape: 128 64 13 13 (1384448)
I0728 12:55:52.477437 118397 net.cpp:165] Memory required for data: 366183936
I0728 12:55:52.477447 118397 layer_factory.hpp:76] Creating layer conv31
I0728 12:55:52.477463 118397 net.cpp:106] Creating Layer conv31
I0728 12:55:52.477473 118397 net.cpp:454] conv31 <- pool2
I0728 12:55:52.477488 118397 net.cpp:411] conv31 -> conv31
I0728 12:55:52.481360 118397 cudnn_conv_layer.cpp:194] Reallocating workspace storage: 6912
I0728 12:55:52.481422 118397 net.cpp:150] Setting up conv31
I0728 12:55:52.481438 118397 net.cpp:157] Top shape: 128 128 11 11 (1982464)
I0728 12:55:52.481448 118397 net.cpp:165] Memory required for data: 374113792
I0728 12:55:52.481465 118397 layer_factory.hpp:76] Creating layer relu31
I0728 12:55:52.481479 118397 net.cpp:106] Creating Layer relu31
I0728 12:55:52.481490 118397 net.cpp:454] relu31 <- conv31
I0728 12:55:52.481503 118397 net.cpp:397] relu31 -> conv31 (in-place)
I0728 12:55:52.481812 118397 net.cpp:150] Setting up relu31
I0728 12:55:52.481833 118397 net.cpp:157] Top shape: 128 128 11 11 (1982464)
I0728 12:55:52.481843 118397 net.cpp:165] Memory required for data: 382043648
I0728 12:55:52.481855 118397 layer_factory.hpp:76] Creating layer conv32
I0728 12:55:52.481873 118397 net.cpp:106] Creating Layer conv32
I0728 12:55:52.481884 118397 net.cpp:454] conv32 <- conv31
I0728 12:55:52.481897 118397 net.cpp:411] conv32 -> conv32
I0728 12:55:52.483966 118397 cudnn_conv_layer.cpp:194] Reallocating workspace storage: 13824
I0728 12:55:52.484002 118397 net.cpp:150] Setting up conv32
I0728 12:55:52.484016 118397 net.cpp:157] Top shape: 128 128 9 9 (1327104)
I0728 12:55:52.484026 118397 net.cpp:165] Memory required for data: 387352064
I0728 12:55:52.484040 118397 layer_factory.hpp:76] Creating layer relu32
I0728 12:55:52.484053 118397 net.cpp:106] Creating Layer relu32
I0728 12:55:52.484064 118397 net.cpp:454] relu32 <- conv32
I0728 12:55:52.484076 118397 net.cpp:397] relu32 -> conv32 (in-place)
I0728 12:55:52.484244 118397 net.cpp:150] Setting up relu32
I0728 12:55:52.484261 118397 net.cpp:157] Top shape: 128 128 9 9 (1327104)
I0728 12:55:52.484272 118397 net.cpp:165] Memory required for data: 392660480
I0728 12:55:52.484283 118397 layer_factory.hpp:76] Creating layer pool3
I0728 12:55:52.484297 118397 net.cpp:106] Creating Layer pool3
I0728 12:55:52.484308 118397 net.cpp:454] pool3 <- conv32
I0728 12:55:52.484320 118397 net.cpp:411] pool3 -> pool3
I0728 12:55:52.484696 118397 net.cpp:150] Setting up pool3
I0728 12:55:52.484717 118397 net.cpp:157] Top shape: 128 128 3 3 (147456)
I0728 12:55:52.484727 118397 net.cpp:165] Memory required for data: 393250304
I0728 12:55:52.484738 118397 layer_factory.hpp:76] Creating layer conv4
I0728 12:55:52.484753 118397 net.cpp:106] Creating Layer conv4
I0728 12:55:52.484764 118397 net.cpp:454] conv4 <- pool3
I0728 12:55:52.484778 118397 net.cpp:411] conv4 -> conv4
I0728 12:55:52.496140 118397 cudnn_conv_layer.cpp:194] Reallocating workspace storage: 1769472
I0728 12:55:52.496369 118397 net.cpp:150] Setting up conv4
I0728 12:55:52.496399 118397 net.cpp:157] Top shape: 128 256 1 1 (32768)
I0728 12:55:52.496409 118397 net.cpp:165] Memory required for data: 393381376
I0728 12:55:52.496423 118397 layer_factory.hpp:76] Creating layer relu4
I0728 12:55:52.496434 118397 net.cpp:106] Creating Layer relu4
I0728 12:55:52.496443 118397 net.cpp:454] relu4 <- conv4
I0728 12:55:52.496462 118397 net.cpp:397] relu4 -> conv4 (in-place)
I0728 12:55:52.496645 118397 net.cpp:150] Setting up relu4
I0728 12:55:52.496672 118397 net.cpp:157] Top shape: 128 256 1 1 (32768)
I0728 12:55:52.496696 118397 net.cpp:165] Memory required for data: 393512448
I0728 12:55:52.496706 118397 layer_factory.hpp:76] Creating layer drop
I0728 12:55:52.496728 118397 net.cpp:106] Creating Layer drop
I0728 12:55:52.496738 118397 net.cpp:454] drop <- conv4
I0728 12:55:52.496749 118397 net.cpp:397] drop -> conv4 (in-place)
I0728 12:55:52.496786 118397 net.cpp:150] Setting up drop
I0728 12:55:52.496800 118397 net.cpp:157] Top shape: 128 256 1 1 (32768)
I0728 12:55:52.496809 118397 net.cpp:165] Memory required for data: 393643520
I0728 12:55:52.496819 118397 layer_factory.hpp:76] Creating layer conv_c
I0728 12:55:52.496831 118397 net.cpp:106] Creating Layer conv_c
I0728 12:55:52.496841 118397 net.cpp:454] conv_c <- conv4
I0728 12:55:52.496852 118397 net.cpp:411] conv_c -> conv_c
I0728 12:55:52.500560 118397 cudnn_conv_layer.cpp:194] Reallocating workspace storage: 3072
I0728 12:55:52.500594 118397 net.cpp:150] Setting up conv_c
I0728 12:55:52.500608 118397 net.cpp:157] Top shape: 128 256 1 1 (32768)
I0728 12:55:52.500618 118397 net.cpp:165] Memory required for data: 393774592
I0728 12:55:52.500635 118397 layer_factory.hpp:76] Creating layer conv_c_conv_c_0_split
I0728 12:55:52.500649 118397 net.cpp:106] Creating Layer conv_c_conv_c_0_split
I0728 12:55:52.500660 118397 net.cpp:454] conv_c_conv_c_0_split <- conv_c
I0728 12:55:52.500674 118397 net.cpp:411] conv_c_conv_c_0_split -> conv_c_conv_c_0_split_0
I0728 12:55:52.500689 118397 net.cpp:411] conv_c_conv_c_0_split -> conv_c_conv_c_0_split_1
I0728 12:55:52.500735 118397 net.cpp:150] Setting up conv_c_conv_c_0_split
I0728 12:55:52.500749 118397 net.cpp:157] Top shape: 128 256 1 1 (32768)
I0728 12:55:52.500761 118397 net.cpp:157] Top shape: 128 256 1 1 (32768)
I0728 12:55:52.500771 118397 net.cpp:165] Memory required for data: 394036736
I0728 12:55:52.500779 118397 layer_factory.hpp:76] Creating layer accuracy
I0728 12:55:52.500798 118397 net.cpp:106] Creating Layer accuracy
I0728 12:55:52.500809 118397 net.cpp:454] accuracy <- conv_c_conv_c_0_split_0
I0728 12:55:52.500820 118397 net.cpp:454] accuracy <- label_data_1_split_0
I0728 12:55:52.500833 118397 net.cpp:411] accuracy -> accuracy
…
