…
I0904 04:02:15.789173 43922 net.cpp:322] The NetState phase (0) differed from the phase (1) specified by a rule in layer accuracy
I0904 04:02:15.789379 43922 net.cpp:58] Initializing net from parameters: 
name: "FaceNN"
state {
  phase: TRAIN
  level: 0
  stage: ""
}
layer {
  name: "data"
  type: "ImageData"
  top: "data"
  top: "label"
  include {
    phase: TRAIN
  }
  transform_param {
    mirror: true
    mean_value: 150
    mean_value: 150
    mean_value: 150
  }
  image_data_param {
    source: "../list_bias-1_tr.lst"
    batch_size: 128
    shuffle: true
  }
}
layer {
  name: "conv11"
  type: "Convolution"
  bottom: "data"
  top: "conv11"
  param {
    lr_mult: 1
    decay_mult: 1
  }
  param {
    lr_mult: 2
    decay_mult: 0
  }
  convolution_param {
    num_output: 32
    pad: 1
    stride: 1
    weight_filler {
      type: "xavier"
    }
    bias_filler {
      type: "constant"
    }
    kernel_h: 3
    kernel_w: 3
  }
}
layer {
  name: "relu11"
  type: "ReLU"
  bottom: "conv11"
  top: "conv11"
}
layer {
  name: "conv12"
  type: "Convolution"
  bottom: "conv11"
  top: "conv12"
  param {
    lr_mult: 1
    decay_mult: 1
  }
  param {
    lr_mult: 2
    decay_mult: 0
  }
  convolution_param {
    num_output: 64
    pad: 1
    stride: 1
    weight_filler {
      type: "xavier"
    }
    bias_filler {
      type: "constant"
    }
    kernel_h: 3
    kernel_w: 3
  }
}
layer {
  name: "relu12"
  type: "ReLU"
  bottom: "conv12"
  top: "conv12"
}
layer {
  name: "pool1"
  type: "Pooling"
  bottom: "conv12"
  top: "pool1"
  pooling_param {
    pool: MAX
    kernel_size: 2
    stride: 2
  }
}
layer {
  name: "conv21"
  type: "Convolution"
  bottom: "pool1"
  top: "conv21"
  param {
    lr_mult: 1
    decay_mult: 1
  }
  param {
    lr_mult: 2
    decay_mult: 0
  }
  convolution_param {
    num_output: 64
    pad: 1
    stride: 1
    weight_filler {
      type: "xavier"
    }
    bias_filler {
      type: "constant"
    }
    kernel_h: 3
    kernel_w: 3
  }
}
layer {
  name: "relu21"
  type: "ReLU"
  bottom: "conv21"
  top: "conv21"
}
layer {
  name: "conv22"
  type: "Convolution"
  bottom: "conv21"
  top: "conv22"
  param {
    lr_mult: 1
    decay_mult: 1
  }
  param {
    lr_mult: 2
    decay_mult: 0
  }
  convolution_param {
    num_output: 128
    pad: 1
    stride: 1
    weight_filler {
      type: "xavier"
    }
    bias_filler {
      type: "constant"
    }
    kernel_h: 3
    kernel_w: 3
  }
}
layer {
  name: "relu22"
  type: "ReLU"
  bottom: "conv22"
  top: "conv22"
}
layer {
  name: "pool2"
  type: "Pooling"
  bottom: "conv22"
  top: "pool2"
  pooling_param {
    pool: MAX
    kernel_size: 2
    stride: 2
  }
}
layer {
  name: "conv31"
  type: "Convolution"
  bottom: "pool2"
  top: "conv31"
  param {
    lr_mult: 1
    decay_mult: 1
  }
  param {
    lr_mult: 2
    decay_mult: 0
  }
  convolution_param {
    num_output: 96
    pad: 1
    stride: 1
    weight_filler {
      type: "xavier"
    }
    bias_filler {
      type: "constant"
    }
    kernel_h: 3
    kernel_w: 3
  }
}
layer {
  name: "relu31"
  type: "ReLU"
  bottom: "conv31"
  top: "conv31"
}
layer {
  name: "conv32"
  type: "Convolution"
  bottom: "conv31"
  top: "conv32"
  param {
    lr_mult: 1
    decay_mult: 1
  }
  param {
    lr_mult: 2
    decay_mult: 0
  }
  convolution_param {
    num_output: 192
    pad: 1
    stride: 1
    weight_filler {
      type: "xavier"
    }
    bias_filler {
      type: "constant"
    }
    kernel_h: 3
    kernel_w: 3
  }
}
layer {
  name: "relu32"
  type: "ReLU"
  bottom: "conv32"
  top: "conv32"
}
layer {
  name: "pool3"
  type: "Pooling"
  bottom: "conv32"
  top: "pool3"
  pooling_param {
    pool: MAX
    kernel_size: 2
    stride: 2
  }
}
layer {
  name: "conv41"
  type: "Convolution"
  bottom: "pool3"
  top: "conv41"
  param {
    lr_mult: 1
    decay_mult: 1
  }
  param {
    lr_mult: 2
    decay_mult: 0
  }
  convolution_param {
    num_output: 128
    pad: 1
    stride: 1
    weight_filler {
      type: "xavier"
    }
    bias_filler {
      type: "constant"
    }
    kernel_h: 3
    kernel_w: 3
  }
}
layer {
  name: "relu41"
  type: "ReLU"
  bottom: "conv41"
  top: "conv41"
}
layer {
  name: "conv42"
  type: "Convolution"
  bottom: "conv41"
  top: "conv42"
  param {
    lr_mult: 1
    decay_mult: 1
  }
  param {
    lr_mult: 2
    decay_mult: 0
  }
  convolution_param {
    num_output: 256
    pad: 1
    stride: 1
    weight_filler {
      type: "xavier"
    }
    bias_filler {
      type: "constant"
    }
    kernel_h: 3
    kernel_w: 3
  }
}
layer {
  name: "relu42"
  type: "ReLU"
  bottom: "conv42"
  top: "conv42"
}
layer {
  name: "pool4"
  type: "Pooling"
  bottom: "conv42"
  top: "pool4"
  pooling_param {
    pool: MAX
    kernel_size: 2
    stride: 2
  }
}
layer {
  name: "conv51"
  type: "Convolution"
  bottom: "pool4"
  top: "conv51"
  param {
    lr_mult: 1
    decay_mult: 1
  }
  param {
    lr_mult: 2
    decay_mult: 0
  }
  convolution_param {
    num_output: 512
    pad: 0
    stride: 1
    weight_filler {
      type: "xavier"
    }
    bias_filler {
      type: "constant"
    }
    kernel_h: 4
    kernel_w: 4
  }
}
layer {
  name: "relu51"
  type: "ReLU"
  bottom: "conv51"
  top: "conv51"
}
layer {
  name: "conv52"
  type: "Convolution"
  bottom: "conv51"
  top: "conv52"
  param {
    lr_mult: 1
    decay_mult: 1
  }
  param {
    lr_mult: 2
    decay_mult: 0
  }
  convolution_param {
    num_output: 512
    pad: 0
    stride: 1
    weight_filler {
      type: "xavier"
    }
    bias_filler {
      type: "constant"
    }
    kernel_h: 1
    kernel_w: 1
  }
}
layer {
  name: "relu52"
  type: "ReLU"
  bottom: "conv52"
  top: "conv52"
}
layer {
  name: "drop6"
  type: "Dropout"
  bottom: "conv52"
  top: "conv52"
  dropout_param {
    dropout_ratio: 0.5
  }
}
layer {
  name: "conv_c"
  type: "Convolution"
  bottom: "conv52"
  top: "conv_c"
  param {
    lr_mult: 1
    decay_mult: 1
  }
  param {
    lr_mult: 2
    decay_mult: 0
  }
  convolution_param {
    num_output: 2
    pad: 0
    stride: 1
    weight_filler {
      type: "xavier"
    }
    bias_filler {
      type: "constant"
    }
    kernel_h: 1
    kernel_w: 1
  }
}
layer {
  name: "loss"
  type: "SoftmaxWithLoss"
  bottom: "conv_c"
  bottom: "label"
  top: "loss"
}
I0904 04:02:15.790938 43922 layer_factory.hpp:77] Creating layer data
I0904 04:02:15.791005 43922 net.cpp:100] Creating Layer data
I0904 04:02:15.791033 43922 net.cpp:408] data -> data
I0904 04:02:15.791090 43922 net.cpp:408] data -> label
I0904 04:02:15.791568 43922 image_data_layer.cpp:38] Opening file ../list_bias-1_tr.lst
I0904 04:02:16.477499 43922 image_data_layer.cpp:53] Shuffling data
I0904 04:02:16.757164 43922 image_data_layer.cpp:58] A total of 1056600 images.
I0904 04:02:16.862401 43922 image_data_layer.cpp:85] output data size: 128,3,64,64
I0904 04:02:16.891099 43922 net.cpp:150] Setting up data
I0904 04:02:16.891163 43922 net.cpp:157] Top shape: 128 3 64 64 (1572864)
I0904 04:02:16.891180 43922 net.cpp:157] Top shape: 128 (128)
I0904 04:02:16.891188 43922 net.cpp:165] Memory required for data: 6291968
I0904 04:02:16.891206 43922 layer_factory.hpp:77] Creating layer conv11
I0904 04:02:16.891247 43922 net.cpp:100] Creating Layer conv11
I0904 04:02:16.891273 43922 net.cpp:434] conv11 <- data
I0904 04:02:16.891297 43922 net.cpp:408] conv11 -> conv11
I0904 04:02:17.313930 43922 net.cpp:150] Setting up conv11
I0904 04:02:17.313985 43922 net.cpp:157] Top shape: 128 32 64 64 (16777216)
I0904 04:02:17.313997 43922 net.cpp:165] Memory required for data: 73400832
I0904 04:02:17.314028 43922 layer_factory.hpp:77] Creating layer relu11
I0904 04:02:17.314056 43922 net.cpp:100] Creating Layer relu11
I0904 04:02:17.314069 43922 net.cpp:434] relu11 <- conv11
I0904 04:02:17.314081 43922 net.cpp:395] relu11 -> conv11 (in-place)
I0904 04:02:17.314281 43922 net.cpp:150] Setting up relu11
I0904 04:02:17.314298 43922 net.cpp:157] Top shape: 128 32 64 64 (16777216)
I0904 04:02:17.314307 43922 net.cpp:165] Memory required for data: 140509696
I0904 04:02:17.314317 43922 layer_factory.hpp:77] Creating layer conv12
I0904 04:02:17.314335 43922 net.cpp:100] Creating Layer conv12
I0904 04:02:17.314344 43922 net.cpp:434] conv12 <- conv11
I0904 04:02:17.314355 43922 net.cpp:408] conv12 -> conv12
I0904 04:02:17.316875 43922 net.cpp:150] Setting up conv12
I0904 04:02:17.316911 43922 net.cpp:157] Top shape: 128 64 64 64 (33554432)
I0904 04:02:17.316921 43922 net.cpp:165] Memory required for data: 274727424
I0904 04:02:17.316936 43922 layer_factory.hpp:77] Creating layer relu12
I0904 04:02:17.316958 43922 net.cpp:100] Creating Layer relu12
I0904 04:02:17.316969 43922 net.cpp:434] relu12 <- conv12
I0904 04:02:17.316984 43922 net.cpp:395] relu12 -> conv12 (in-place)
I0904 04:02:17.317499 43922 net.cpp:150] Setting up relu12
I0904 04:02:17.317530 43922 net.cpp:157] Top shape: 128 64 64 64 (33554432)
I0904 04:02:17.317540 43922 net.cpp:165] Memory required for data: 408945152
I0904 04:02:17.317548 43922 layer_factory.hpp:77] Creating layer pool1
I0904 04:02:17.317569 43922 net.cpp:100] Creating Layer pool1
I0904 04:02:17.317579 43922 net.cpp:434] pool1 <- conv12
I0904 04:02:17.317590 43922 net.cpp:408] pool1 -> pool1
I0904 04:02:17.317654 43922 net.cpp:150] Setting up pool1
I0904 04:02:17.317670 43922 net.cpp:157] Top shape: 128 64 32 32 (8388608)
I0904 04:02:17.317679 43922 net.cpp:165] Memory required for data: 442499584
I0904 04:02:17.317687 43922 layer_factory.hpp:77] Creating layer conv21
I0904 04:02:17.317703 43922 net.cpp:100] Creating Layer conv21
I0904 04:02:17.317713 43922 net.cpp:434] conv21 <- pool1
I0904 04:02:17.317725 43922 net.cpp:408] conv21 -> conv21
I0904 04:02:17.319653 43922 net.cpp:150] Setting up conv21
I0904 04:02:17.319687 43922 net.cpp:157] Top shape: 128 64 32 32 (8388608)
I0904 04:02:17.319697 43922 net.cpp:165] Memory required for data: 476054016
I0904 04:02:17.319712 43922 layer_factory.hpp:77] Creating layer relu21
I0904 04:02:17.319725 43922 net.cpp:100] Creating Layer relu21
I0904 04:02:17.319736 43922 net.cpp:434] relu21 <- conv21
I0904 04:02:17.319749 43922 net.cpp:395] relu21 -> conv21 (in-place)
I0904 04:02:17.319928 43922 net.cpp:150] Setting up relu21
I0904 04:02:17.319998 43922 net.cpp:157] Top shape: 128 64 32 32 (8388608)
I0904 04:02:17.320006 43922 net.cpp:165] Memory required for data: 509608448
I0904 04:02:17.320014 43922 layer_factory.hpp:77] Creating layer conv22
I0904 04:02:17.320032 43922 net.cpp:100] Creating Layer conv22
I0904 04:02:17.320042 43922 net.cpp:434] conv22 <- conv21
I0904 04:02:17.320055 43922 net.cpp:408] conv22 -> conv22
I0904 04:02:17.323804 43922 net.cpp:150] Setting up conv22
I0904 04:02:17.323837 43922 net.cpp:157] Top shape: 128 128 32 32 (16777216)
I0904 04:02:17.323848 43922 net.cpp:165] Memory required for data: 576717312
I0904 04:02:17.323861 43922 layer_factory.hpp:77] Creating layer relu22
I0904 04:02:17.323876 43922 net.cpp:100] Creating Layer relu22
I0904 04:02:17.323886 43922 net.cpp:434] relu22 <- conv22
I0904 04:02:17.323899 43922 net.cpp:395] relu22 -> conv22 (in-place)
I0904 04:02:17.324091 43922 net.cpp:150] Setting up relu22
I0904 04:02:17.324120 43922 net.cpp:157] Top shape: 128 128 32 32 (16777216)
I0904 04:02:17.324129 43922 net.cpp:165] Memory required for data: 643826176
I0904 04:02:17.324137 43922 layer_factory.hpp:77] Creating layer pool2
I0904 04:02:17.324153 43922 net.cpp:100] Creating Layer pool2
I0904 04:02:17.324187 43922 net.cpp:434] pool2 <- conv22
I0904 04:02:17.324200 43922 net.cpp:408] pool2 -> pool2
I0904 04:02:17.324251 43922 net.cpp:150] Setting up pool2
I0904 04:02:17.324265 43922 net.cpp:157] Top shape: 128 128 16 16 (4194304)
I0904 04:02:17.324275 43922 net.cpp:165] Memory required for data: 660603392
I0904 04:02:17.324285 43922 layer_factory.hpp:77] Creating layer conv31
I0904 04:02:17.324302 43922 net.cpp:100] Creating Layer conv31
I0904 04:02:17.324312 43922 net.cpp:434] conv31 <- pool2
I0904 04:02:17.324326 43922 net.cpp:408] conv31 -> conv31
I0904 04:02:17.326911 43922 net.cpp:150] Setting up conv31
I0904 04:02:17.326948 43922 net.cpp:157] Top shape: 128 96 16 16 (3145728)
I0904 04:02:17.326958 43922 net.cpp:165] Memory required for data: 673186304
I0904 04:02:17.326973 43922 layer_factory.hpp:77] Creating layer relu31
I0904 04:02:17.326987 43922 net.cpp:100] Creating Layer relu31
I0904 04:02:17.326997 43922 net.cpp:434] relu31 <- conv31
I0904 04:02:17.327008 43922 net.cpp:395] relu31 -> conv31 (in-place)
I0904 04:02:17.327635 43922 net.cpp:150] Setting up relu31
I0904 04:02:17.327664 43922 net.cpp:157] Top shape: 128 96 16 16 (3145728)
I0904 04:02:17.327672 43922 net.cpp:165] Memory required for data: 685769216
I0904 04:02:17.327682 43922 layer_factory.hpp:77] Creating layer conv32
I0904 04:02:17.327699 43922 net.cpp:100] Creating Layer conv32
I0904 04:02:17.327710 43922 net.cpp:434] conv32 <- conv31
I0904 04:02:17.327723 43922 net.cpp:408] conv32 -> conv32
I0904 04:02:17.357478 43922 net.cpp:150] Setting up conv32
I0904 04:02:17.357530 43922 net.cpp:157] Top shape: 128 192 16 16 (6291456)
I0904 04:02:17.357542 43922 net.cpp:165] Memory required for data: 710935040
I0904 04:02:17.357556 43922 layer_factory.hpp:77] Creating layer relu32
I0904 04:02:17.357578 43922 net.cpp:100] Creating Layer relu32
I0904 04:02:17.357590 43922 net.cpp:434] relu32 <- conv32
I0904 04:02:17.357606 43922 net.cpp:395] relu32 -> conv32 (in-place)
I0904 04:02:17.357800 43922 net.cpp:150] Setting up relu32
I0904 04:02:17.357828 43922 net.cpp:157] Top shape: 128 192 16 16 (6291456)
I0904 04:02:17.357837 43922 net.cpp:165] Memory required for data: 736100864
I0904 04:02:17.357846 43922 layer_factory.hpp:77] Creating layer pool3
I0904 04:02:17.357861 43922 net.cpp:100] Creating Layer pool3
I0904 04:02:17.357875 43922 net.cpp:434] pool3 <- conv32
I0904 04:02:17.357893 43922 net.cpp:408] pool3 -> pool3
I0904 04:02:17.357940 43922 net.cpp:150] Setting up pool3
I0904 04:02:17.357966 43922 net.cpp:157] Top shape: 128 192 8 8 (1572864)
I0904 04:02:17.357986 43922 net.cpp:165] Memory required for data: 742392320
I0904 04:02:17.357995 43922 layer_factory.hpp:77] Creating layer conv41
I0904 04:02:17.358019 43922 net.cpp:100] Creating Layer conv41
I0904 04:02:17.358031 43922 net.cpp:434] conv41 <- pool3
I0904 04:02:17.358042 43922 net.cpp:408] conv41 -> conv41
I0904 04:02:17.369758 43922 net.cpp:150] Setting up conv41
I0904 04:02:17.369802 43922 net.cpp:157] Top shape: 128 128 8 8 (1048576)
I0904 04:02:17.369813 43922 net.cpp:165] Memory required for data: 746586624
I0904 04:02:17.369827 43922 layer_factory.hpp:77] Creating layer relu41
I0904 04:02:17.369843 43922 net.cpp:100] Creating Layer relu41
I0904 04:02:17.369855 43922 net.cpp:434] relu41 <- conv41
I0904 04:02:17.369873 43922 net.cpp:395] relu41 -> conv41 (in-place)
I0904 04:02:17.370143 43922 net.cpp:150] Setting up relu41
I0904 04:02:17.370164 43922 net.cpp:157] Top shape: 128 128 8 8 (1048576)
I0904 04:02:17.370173 43922 net.cpp:165] Memory required for data: 750780928
I0904 04:02:17.370182 43922 layer_factory.hpp:77] Creating layer conv42
I0904 04:02:17.370203 43922 net.cpp:100] Creating Layer conv42
I0904 04:02:17.370223 43922 net.cpp:434] conv42 <- conv41
I0904 04:02:17.370234 43922 net.cpp:408] conv42 -> conv42
I0904 04:02:17.374676 43922 net.cpp:150] Setting up conv42
I0904 04:02:17.374704 43922 net.cpp:157] Top shape: 128 256 8 8 (2097152)
I0904 04:02:17.374714 43922 net.cpp:165] Memory required for data: 759169536
I0904 04:02:17.374732 43922 layer_factory.hpp:77] Creating layer relu42
I0904 04:02:17.374769 43922 net.cpp:100] Creating Layer relu42
I0904 04:02:17.374780 43922 net.cpp:434] relu42 <- conv42
I0904 04:02:17.374792 43922 net.cpp:395] relu42 -> conv42 (in-place)
I0904 04:02:17.375249 43922 net.cpp:150] Setting up relu42
I0904 04:02:17.375280 43922 net.cpp:157] Top shape: 128 256 8 8 (2097152)
I0904 04:02:17.375289 43922 net.cpp:165] Memory required for data: 767558144
I0904 04:02:17.375298 43922 layer_factory.hpp:77] Creating layer pool4
I0904 04:02:17.375314 43922 net.cpp:100] Creating Layer pool4
I0904 04:02:17.375324 43922 net.cpp:434] pool4 <- conv42
I0904 04:02:17.375335 43922 net.cpp:408] pool4 -> pool4
I0904 04:02:17.375387 43922 net.cpp:150] Setting up pool4
I0904 04:02:17.375402 43922 net.cpp:157] Top shape: 128 256 4 4 (524288)
I0904 04:02:17.375411 43922 net.cpp:165] Memory required for data: 769655296
I0904 04:02:17.375418 43922 layer_factory.hpp:77] Creating layer conv51
I0904 04:02:17.375434 43922 net.cpp:100] Creating Layer conv51
I0904 04:02:17.375442 43922 net.cpp:434] conv51 <- pool4
I0904 04:02:17.375453 43922 net.cpp:408] conv51 -> conv51
I0904 04:02:17.396404 43922 net.cpp:150] Setting up conv51
I0904 04:02:17.396443 43922 net.cpp:157] Top shape: 128 512 1 1 (65536)
I0904 04:02:17.396452 43922 net.cpp:165] Memory required for data: 769917440
I0904 04:02:17.396473 43922 layer_factory.hpp:77] Creating layer relu51
I0904 04:02:17.396492 43922 net.cpp:100] Creating Layer relu51
I0904 04:02:17.396510 43922 net.cpp:434] relu51 <- conv51
I0904 04:02:17.396523 43922 net.cpp:395] relu51 -> conv51 (in-place)
I0904 04:02:17.396708 43922 net.cpp:150] Setting up relu51
I0904 04:02:17.396725 43922 net.cpp:157] Top shape: 128 512 1 1 (65536)
I0904 04:02:17.396734 43922 net.cpp:165] Memory required for data: 770179584
I0904 04:02:17.396745 43922 layer_factory.hpp:77] Creating layer conv52
I0904 04:02:17.396766 43922 net.cpp:100] Creating Layer conv52
I0904 04:02:17.396777 43922 net.cpp:434] conv52 <- conv51
I0904 04:02:17.396791 43922 net.cpp:408] conv52 -> conv52
I0904 04:02:17.400523 43922 net.cpp:150] Setting up conv52
I0904 04:02:17.400547 43922 net.cpp:157] Top shape: 128 512 1 1 (65536)
I0904 04:02:17.400557 43922 net.cpp:165] Memory required for data: 770441728
I0904 04:02:17.400571 43922 layer_factory.hpp:77] Creating layer relu52
I0904 04:02:17.400583 43922 net.cpp:100] Creating Layer relu52
I0904 04:02:17.400595 43922 net.cpp:434] relu52 <- conv52
I0904 04:02:17.400605 43922 net.cpp:395] relu52 -> conv52 (in-place)
I0904 04:02:17.400781 43922 net.cpp:150] Setting up relu52
I0904 04:02:17.400797 43922 net.cpp:157] Top shape: 128 512 1 1 (65536)
I0904 04:02:17.400807 43922 net.cpp:165] Memory required for data: 770703872
I0904 04:02:17.400818 43922 layer_factory.hpp:77] Creating layer drop6
I0904 04:02:17.400836 43922 net.cpp:100] Creating Layer drop6
I0904 04:02:17.400846 43922 net.cpp:434] drop6 <- conv52
I0904 04:02:17.400857 43922 net.cpp:395] drop6 -> conv52 (in-place)
I0904 04:02:17.400897 43922 net.cpp:150] Setting up drop6
I0904 04:02:17.400912 43922 net.cpp:157] Top shape: 128 512 1 1 (65536)
I0904 04:02:17.400920 43922 net.cpp:165] Memory required for data: 770966016
I0904 04:02:17.400928 43922 layer_factory.hpp:77] Creating layer conv_c
I0904 04:02:17.400948 43922 net.cpp:100] Creating Layer conv_c
I0904 04:02:17.400959 43922 net.cpp:434] conv_c <- conv52
I0904 04:02:17.400971 43922 net.cpp:408] conv_c -> conv_c
I0904 04:02:17.402124 43922 net.cpp:150] Setting up conv_c
I0904 04:02:17.402148 43922 net.cpp:157] Top shape: 128 2 1 1 (256)
I0904 04:02:17.402158 43922 net.cpp:165] Memory required for data: 770967040
I0904 04:02:17.402170 43922 layer_factory.hpp:77] Creating layer loss
I0904 04:02:17.402191 43922 net.cpp:100] Creating Layer loss
I0904 04:02:17.402202 43922 net.cpp:434] loss <- conv_c
I0904 04:02:17.402214 43922 net.cpp:434] loss <- label
I0904 04:02:17.402226 43922 net.cpp:408] loss -> loss
I0904 04:02:17.402251 43922 layer_factory.hpp:77] Creating layer loss
…
I0904 04:02:17.403954 43922 solver.cpp:181] Creating test net (#0) specified by net file: train_val.prototxt
I0904 04:02:17.404009 43922 net.cpp:322] The NetState phase (1) differed from the phase (0) specified by a rule in layer data
I0904 04:02:17.404196 43922 net.cpp:58] Initializing net from parameters: 
name: "FaceNN"
state {
  phase: TEST
}
layer {
  name: "data"
  type: "ImageData"
  top: "data"
  top: "label"
  include {
    phase: TEST
  }
  transform_param {
    mirror: false
    mean_value: 150
    mean_value: 150
    mean_value: 150
  }
  image_data_param {
    source: "../list_bias-1_te.lst"
    batch_size: 256
    shuffle: true
  }
}
layer {
  name: "conv11"
  type: "Convolution"
  bottom: "data"
  top: "conv11"
  param {
    lr_mult: 1
    decay_mult: 1
  }
  param {
    lr_mult: 2
    decay_mult: 0
  }
  convolution_param {
    num_output: 32
    pad: 1
    stride: 1
    weight_filler {
      type: "xavier"
    }
    bias_filler {
      type: "constant"
    }
    kernel_h: 3
    kernel_w: 3
  }
}
layer {
  name: "relu11"
  type: "ReLU"
  bottom: "conv11"
  top: "conv11"
}
layer {
  name: "conv12"
  type: "Convolution"
  bottom: "conv11"
  top: "conv12"
  param {
    lr_mult: 1
    decay_mult: 1
  }
  param {
    lr_mult: 2
    decay_mult: 0
  }
  convolution_param {
    num_output: 64
    pad: 1
    stride: 1
    weight_filler {
      type: "xavier"
    }
    bias_filler {
      type: "constant"
    }
    kernel_h: 3
    kernel_w: 3
  }
}
layer {
  name: "relu12"
  type: "ReLU"
  bottom: "conv12"
  top: "conv12"
}
layer {
  name: "pool1"
  type: "Pooling"
  bottom: "conv12"
  top: "pool1"
  pooling_param {
    pool: MAX
    kernel_size: 2
    stride: 2
  }
}
layer {
  name: "conv21"
  type: "Convolution"
  bottom: "pool1"
  top: "conv21"
  param {
    lr_mult: 1
    decay_mult: 1
  }
  param {
    lr_mult: 2
    decay_mult: 0
  }
  convolution_param {
    num_output: 64
    pad: 1
    stride: 1
    weight_filler {
      type: "xavier"
    }
    bias_filler {
      type: "constant"
    }
    kernel_h: 3
    kernel_w: 3
  }
}
layer {
  name: "relu21"
  type: "ReLU"
  bottom: "conv21"
  top: "conv21"
}
layer {
  name: "conv22"
  type: "Convolution"
  bottom: "conv21"
  top: "conv22"
  param {
    lr_mult: 1
    decay_mult: 1
  }
  param {
    lr_mult: 2
    decay_mult: 0
  }
  convolution_param {
    num_output: 128
    pad: 1
    stride: 1
    weight_filler {
      type: "xavier"
    }
    bias_filler {
      type: "constant"
    }
    kernel_h: 3
    kernel_w: 3
  }
}
layer {
  name: "relu22"
  type: "ReLU"
  bottom: "conv22"
  top: "conv22"
}
layer {
  name: "pool2"
  type: "Pooling"
  bottom: "conv22"
  top: "pool2"
  pooling_param {
    pool: MAX
    kernel_size: 2
    stride: 2
  }
}
layer {
  name: "conv31"
  type: "Convolution"
  bottom: "pool2"
  top: "conv31"
  param {
    lr_mult: 1
    decay_mult: 1
  }
  param {
    lr_mult: 2
    decay_mult: 0
  }
  convolution_param {
    num_output: 96
    pad: 1
    stride: 1
    weight_filler {
      type: "xavier"
    }
    bias_filler {
      type: "constant"
    }
    kernel_h: 3
    kernel_w: 3
  }
}
layer {
  name: "relu31"
  type: "ReLU"
  bottom: "conv31"
  top: "conv31"
}
layer {
  name: "conv32"
  type: "Convolution"
  bottom: "conv31"
  top: "conv32"
  param {
    lr_mult: 1
    decay_mult: 1
  }
  param {
    lr_mult: 2
    decay_mult: 0
  }
  convolution_param {
    num_output: 192
    pad: 1
    stride: 1
    weight_filler {
      type: "xavier"
    }
    bias_filler {
      type: "constant"
    }
    kernel_h: 3
    kernel_w: 3
  }
}
layer {
  name: "relu32"
  type: "ReLU"
  bottom: "conv32"
  top: "conv32"
}
layer {
  name: "pool3"
  type: "Pooling"
  bottom: "conv32"
  top: "pool3"
  pooling_param {
    pool: MAX
    kernel_size: 2
    stride: 2
  }
}
layer {
  name: "conv41"
  type: "Convolution"
  bottom: "pool3"
  top: "conv41"
  param {
    lr_mult: 1
    decay_mult: 1
  }
  param {
    lr_mult: 2
    decay_mult: 0
  }
  convolution_param {
    num_output: 128
    pad: 1
    stride: 1
    weight_filler {
      type: "xavier"
    }
    bias_filler {
      type: "constant"
    }
    kernel_h: 3
    kernel_w: 3
  }
}
layer {
  name: "relu41"
  type: "ReLU"
  bottom: "conv41"
  top: "conv41"
}
layer {
  name: "conv42"
  type: "Convolution"
  bottom: "conv41"
  top: "conv42"
  param {
    lr_mult: 1
    decay_mult: 1
  }
  param {
    lr_mult: 2
    decay_mult: 0
  }
  convolution_param {
    num_output: 256
    pad: 1
    stride: 1
    weight_filler {
      type: "xavier"
    }
    bias_filler {
      type: "constant"
    }
    kernel_h: 3
    kernel_w: 3
  }
}
layer {
  name: "relu42"
  type: "ReLU"
  bottom: "conv42"
  top: "conv42"
}
layer {
  name: "pool4"
  type: "Pooling"
  bottom: "conv42"
  top: "pool4"
  pooling_param {
    pool: MAX
    kernel_size: 2
    stride: 2
  }
}
layer {
  name: "conv51"
  type: "Convolution"
  bottom: "pool4"
  top: "conv51"
  param {
    lr_mult: 1
    decay_mult: 1
  }
  param {
    lr_mult: 2
    decay_mult: 0
  }
  convolution_param {
    num_output: 512
    pad: 0
    stride: 1
    weight_filler {
      type: "xavier"
    }
    bias_filler {
      type: "constant"
    }
    kernel_h: 4
    kernel_w: 4
  }
}
layer {
  name: "relu51"
  type: "ReLU"
  bottom: "conv51"
  top: "conv51"
}
layer {
  name: "conv52"
  type: "Convolution"
  bottom: "conv51"
  top: "conv52"
  param {
    lr_mult: 1
    decay_mult: 1
  }
  param {
    lr_mult: 2
    decay_mult: 0
  }
  convolution_param {
    num_output: 512
    pad: 0
    stride: 1
    weight_filler {
      type: "xavier"
    }
    bias_filler {
      type: "constant"
    }
    kernel_h: 1
    kernel_w: 1
  }
}
layer {
  name: "relu52"
  type: "ReLU"
  bottom: "conv52"
  top: "conv52"
}
layer {
  name: "drop6"
  type: "Dropout"
  bottom: "conv52"
  top: "conv52"
  dropout_param {
    dropout_ratio: 0.5
  }
}
layer {
  name: "conv_c"
  type: "Convolution"
  bottom: "conv52"
  top: "conv_c"
  param {
    lr_mult: 1
    decay_mult: 1
  }
  param {
    lr_mult: 2
    decay_mult: 0
  }
  convolution_param {
    num_output: 2
    pad: 0
    stride: 1
    weight_filler {
      type: "xavier"
    }
    bias_filler {
      type: "constant"
    }
    kernel_h: 1
    kernel_w: 1
  }
}
layer {
  name: "accuracy"
  type: "Accuracy"
  bottom: "conv_c"
  bottom: "label"
  top: "accuracy"
  include {
    phase: TEST
  }
}
layer {
  name: "loss"
  type: "SoftmaxWithLoss"
  bottom: "conv_c"
  bottom: "label"
  top: "loss"
}
I0904 04:02:17.405897 43922 layer_factory.hpp:77] Creating layer data
I0904 04:02:17.405923 43922 net.cpp:100] Creating Layer data
I0904 04:02:17.405935 43922 net.cpp:408] data -> data
I0904 04:02:17.405949 43922 net.cpp:408] data -> label
I0904 04:02:17.405966 43922 image_data_layer.cpp:38] Opening file ../list_bias-1_te.lst
I0904 04:02:17.452723 43922 image_data_layer.cpp:53] Shuffling data
I0904 04:02:17.468839 43922 image_data_layer.cpp:58] A total of 117400 images.
I0904 04:02:17.469213 43922 image_data_layer.cpp:85] output data size: 256,3,64,64
I0904 04:02:17.502380 43922 net.cpp:150] Setting up data
I0904 04:02:17.502435 43922 net.cpp:157] Top shape: 256 3 64 64 (3145728)
I0904 04:02:17.502447 43922 net.cpp:157] Top shape: 256 (256)
I0904 04:02:17.502456 43922 net.cpp:165] Memory required for data: 12583936
I0904 04:02:17.502467 43922 layer_factory.hpp:77] Creating layer label_data_1_split
I0904 04:02:17.502491 43922 net.cpp:100] Creating Layer label_data_1_split
I0904 04:02:17.502503 43922 net.cpp:434] label_data_1_split <- label
I0904 04:02:17.502516 43922 net.cpp:408] label_data_1_split -> label_data_1_split_0
I0904 04:02:17.502537 43922 net.cpp:408] label_data_1_split -> label_data_1_split_1
I0904 04:02:17.502686 43922 net.cpp:150] Setting up label_data_1_split
I0904 04:02:17.502714 43922 net.cpp:157] Top shape: 256 (256)
I0904 04:02:17.502724 43922 net.cpp:157] Top shape: 256 (256)
I0904 04:02:17.502732 43922 net.cpp:165] Memory required for data: 12585984
I0904 04:02:17.502742 43922 layer_factory.hpp:77] Creating layer conv11
I0904 04:02:17.502761 43922 net.cpp:100] Creating Layer conv11
I0904 04:02:17.502771 43922 net.cpp:434] conv11 <- data
I0904 04:02:17.502784 43922 net.cpp:408] conv11 -> conv11
I0904 04:02:17.504521 43922 net.cpp:150] Setting up conv11
I0904 04:02:17.504554 43922 net.cpp:157] Top shape: 256 32 64 64 (33554432)
I0904 04:02:17.504565 43922 net.cpp:165] Memory required for data: 146803712
I0904 04:02:17.504583 43922 layer_factory.hpp:77] Creating layer relu11
I0904 04:02:17.504597 43922 net.cpp:100] Creating Layer relu11
I0904 04:02:17.504607 43922 net.cpp:434] relu11 <- conv11
I0904 04:02:17.504617 43922 net.cpp:395] relu11 -> conv11 (in-place)
I0904 04:02:17.508852 43922 net.cpp:150] Setting up relu11
I0904 04:02:17.508888 43922 net.cpp:157] Top shape: 256 32 64 64 (33554432)
I0904 04:02:17.508898 43922 net.cpp:165] Memory required for data: 281021440
I0904 04:02:17.508908 43922 layer_factory.hpp:77] Creating layer conv12
I0904 04:02:17.508929 43922 net.cpp:100] Creating Layer conv12
I0904 04:02:17.508939 43922 net.cpp:434] conv12 <- conv11
I0904 04:02:17.508960 43922 net.cpp:408] conv12 -> conv12
I0904 04:02:17.510440 43922 net.cpp:150] Setting up conv12
I0904 04:02:17.510474 43922 net.cpp:157] Top shape: 256 64 64 64 (67108864)
I0904 04:02:17.510483 43922 net.cpp:165] Memory required for data: 549456896
I0904 04:02:17.510499 43922 layer_factory.hpp:77] Creating layer relu12
I0904 04:02:17.510517 43922 net.cpp:100] Creating Layer relu12
I0904 04:02:17.510529 43922 net.cpp:434] relu12 <- conv12
I0904 04:02:17.510540 43922 net.cpp:395] relu12 -> conv12 (in-place)
I0904 04:02:17.510975 43922 net.cpp:150] Setting up relu12
I0904 04:02:17.511006 43922 net.cpp:157] Top shape: 256 64 64 64 (67108864)
I0904 04:02:17.511015 43922 net.cpp:165] Memory required for data: 817892352
I0904 04:02:17.511044 43922 layer_factory.hpp:77] Creating layer pool1
I0904 04:02:17.511062 43922 net.cpp:100] Creating Layer pool1
I0904 04:02:17.511072 43922 net.cpp:434] pool1 <- conv12
I0904 04:02:17.511085 43922 net.cpp:408] pool1 -> pool1
I0904 04:02:17.511142 43922 net.cpp:150] Setting up pool1
I0904 04:02:17.511157 43922 net.cpp:157] Top shape: 256 64 32 32 (16777216)
I0904 04:02:17.511165 43922 net.cpp:165] Memory required for data: 885001216
I0904 04:02:17.511174 43922 layer_factory.hpp:77] Creating layer conv21
I0904 04:02:17.511190 43922 net.cpp:100] Creating Layer conv21
I0904 04:02:17.511200 43922 net.cpp:434] conv21 <- pool1
I0904 04:02:17.511214 43922 net.cpp:408] conv21 -> conv21
I0904 04:02:17.512480 43922 net.cpp:150] Setting up conv21
I0904 04:02:17.512501 43922 net.cpp:157] Top shape: 256 64 32 32 (16777216)
I0904 04:02:17.512512 43922 net.cpp:165] Memory required for data: 952110080
I0904 04:02:17.512528 43922 layer_factory.hpp:77] Creating layer relu21
I0904 04:02:17.512545 43922 net.cpp:100] Creating Layer relu21
I0904 04:02:17.512555 43922 net.cpp:434] relu21 <- conv21
I0904 04:02:17.512567 43922 net.cpp:395] relu21 -> conv21 (in-place)
I0904 04:02:17.512995 43922 net.cpp:150] Setting up relu21
I0904 04:02:17.513015 43922 net.cpp:157] Top shape: 256 64 32 32 (16777216)
I0904 04:02:17.513025 43922 net.cpp:165] Memory required for data: 1019218944
I0904 04:02:17.513036 43922 layer_factory.hpp:77] Creating layer conv22
I0904 04:02:17.513053 43922 net.cpp:100] Creating Layer conv22
I0904 04:02:17.513063 43922 net.cpp:434] conv22 <- conv21
I0904 04:02:17.513077 43922 net.cpp:408] conv22 -> conv22
I0904 04:02:17.515031 43922 net.cpp:150] Setting up conv22
I0904 04:02:17.515054 43922 net.cpp:157] Top shape: 256 128 32 32 (33554432)
I0904 04:02:17.515065 43922 net.cpp:165] Memory required for data: 1153436672
I0904 04:02:17.515079 43922 layer_factory.hpp:77] Creating layer relu22
I0904 04:02:17.515094 43922 net.cpp:100] Creating Layer relu22
I0904 04:02:17.515105 43922 net.cpp:434] relu22 <- conv22
I0904 04:02:17.515115 43922 net.cpp:395] relu22 -> conv22 (in-place)
I0904 04:02:17.515302 43922 net.cpp:150] Setting up relu22
I0904 04:02:17.515319 43922 net.cpp:157] Top shape: 256 128 32 32 (33554432)
I0904 04:02:17.515329 43922 net.cpp:165] Memory required for data: 1287654400
I0904 04:02:17.515337 43922 layer_factory.hpp:77] Creating layer pool2
I0904 04:02:17.515348 43922 net.cpp:100] Creating Layer pool2
I0904 04:02:17.515358 43922 net.cpp:434] pool2 <- conv22
I0904 04:02:17.515372 43922 net.cpp:408] pool2 -> pool2
I0904 04:02:17.515425 43922 net.cpp:150] Setting up pool2
I0904 04:02:17.515439 43922 net.cpp:157] Top shape: 256 128 16 16 (8388608)
I0904 04:02:17.515449 43922 net.cpp:165] Memory required for data: 1321208832
I0904 04:02:17.515456 43922 layer_factory.hpp:77] Creating layer conv31
I0904 04:02:17.515475 43922 net.cpp:100] Creating Layer conv31
I0904 04:02:17.515486 43922 net.cpp:434] conv31 <- pool2
I0904 04:02:17.515496 43922 net.cpp:408] conv31 -> conv31
I0904 04:02:17.518224 43922 net.cpp:150] Setting up conv31
I0904 04:02:17.518250 43922 net.cpp:157] Top shape: 256 96 16 16 (6291456)
I0904 04:02:17.518261 43922 net.cpp:165] Memory required for data: 1346374656
I0904 04:02:17.518277 43922 layer_factory.hpp:77] Creating layer relu31
I0904 04:02:17.518290 43922 net.cpp:100] Creating Layer relu31
I0904 04:02:17.518301 43922 net.cpp:434] relu31 <- conv31
I0904 04:02:17.518311 43922 net.cpp:395] relu31 -> conv31 (in-place)
I0904 04:02:17.518741 43922 net.cpp:150] Setting up relu31
I0904 04:02:17.518761 43922 net.cpp:157] Top shape: 256 96 16 16 (6291456)
I0904 04:02:17.518771 43922 net.cpp:165] Memory required for data: 1371540480
I0904 04:02:17.518782 43922 layer_factory.hpp:77] Creating layer conv32
I0904 04:02:17.518800 43922 net.cpp:100] Creating Layer conv32
I0904 04:02:17.518810 43922 net.cpp:434] conv32 <- conv31
I0904 04:02:17.518824 43922 net.cpp:408] conv32 -> conv32
I0904 04:02:17.521651 43922 net.cpp:150] Setting up conv32
I0904 04:02:17.521674 43922 net.cpp:157] Top shape: 256 192 16 16 (12582912)
I0904 04:02:17.521703 43922 net.cpp:165] Memory required for data: 1421872128
I0904 04:02:17.521716 43922 layer_factory.hpp:77] Creating layer relu32
I0904 04:02:17.521730 43922 net.cpp:100] Creating Layer relu32
I0904 04:02:17.521741 43922 net.cpp:434] relu32 <- conv32
I0904 04:02:17.521751 43922 net.cpp:395] relu32 -> conv32 (in-place)
I0904 04:02:17.522203 43922 net.cpp:150] Setting up relu32
I0904 04:02:17.522235 43922 net.cpp:157] Top shape: 256 192 16 16 (12582912)
I0904 04:02:17.522245 43922 net.cpp:165] Memory required for data: 1472203776
I0904 04:02:17.522253 43922 layer_factory.hpp:77] Creating layer pool3
I0904 04:02:17.522271 43922 net.cpp:100] Creating Layer pool3
I0904 04:02:17.522282 43922 net.cpp:434] pool3 <- conv32
I0904 04:02:17.522295 43922 net.cpp:408] pool3 -> pool3
I0904 04:02:17.522349 43922 net.cpp:150] Setting up pool3
I0904 04:02:17.522363 43922 net.cpp:157] Top shape: 256 192 8 8 (3145728)
I0904 04:02:17.522372 43922 net.cpp:165] Memory required for data: 1484786688
I0904 04:02:17.522380 43922 layer_factory.hpp:77] Creating layer conv41
I0904 04:02:17.522397 43922 net.cpp:100] Creating Layer conv41
I0904 04:02:17.522408 43922 net.cpp:434] conv41 <- pool3
I0904 04:02:17.522421 43922 net.cpp:408] conv41 -> conv41
I0904 04:02:17.525807 43922 net.cpp:150] Setting up conv41
I0904 04:02:17.525833 43922 net.cpp:157] Top shape: 256 128 8 8 (2097152)
I0904 04:02:17.525846 43922 net.cpp:165] Memory required for data: 1493175296
I0904 04:02:17.525859 43922 layer_factory.hpp:77] Creating layer relu41
I0904 04:02:17.525874 43922 net.cpp:100] Creating Layer relu41
I0904 04:02:17.525885 43922 net.cpp:434] relu41 <- conv41
I0904 04:02:17.525897 43922 net.cpp:395] relu41 -> conv41 (in-place)
I0904 04:02:17.526077 43922 net.cpp:150] Setting up relu41
I0904 04:02:17.526094 43922 net.cpp:157] Top shape: 256 128 8 8 (2097152)
I0904 04:02:17.526104 43922 net.cpp:165] Memory required for data: 1501563904
I0904 04:02:17.526114 43922 layer_factory.hpp:77] Creating layer conv42
I0904 04:02:17.526134 43922 net.cpp:100] Creating Layer conv42
I0904 04:02:17.526144 43922 net.cpp:434] conv42 <- conv41
I0904 04:02:17.526157 43922 net.cpp:408] conv42 -> conv42
I0904 04:02:17.530251 43922 net.cpp:150] Setting up conv42
I0904 04:02:17.530274 43922 net.cpp:157] Top shape: 256 256 8 8 (4194304)
I0904 04:02:17.530285 43922 net.cpp:165] Memory required for data: 1518341120
I0904 04:02:17.530303 43922 layer_factory.hpp:77] Creating layer relu42
I0904 04:02:17.530318 43922 net.cpp:100] Creating Layer relu42
I0904 04:02:17.530328 43922 net.cpp:434] relu42 <- conv42
I0904 04:02:17.530339 43922 net.cpp:395] relu42 -> conv42 (in-place)
I0904 04:02:17.530793 43922 net.cpp:150] Setting up relu42
I0904 04:02:17.530813 43922 net.cpp:157] Top shape: 256 256 8 8 (4194304)
I0904 04:02:17.530824 43922 net.cpp:165] Memory required for data: 1535118336
I0904 04:02:17.530835 43922 layer_factory.hpp:77] Creating layer pool4
I0904 04:02:17.530851 43922 net.cpp:100] Creating Layer pool4
I0904 04:02:17.530861 43922 net.cpp:434] pool4 <- conv42
I0904 04:02:17.530872 43922 net.cpp:408] pool4 -> pool4
I0904 04:02:17.530930 43922 net.cpp:150] Setting up pool4
I0904 04:02:17.530944 43922 net.cpp:157] Top shape: 256 256 4 4 (1048576)
I0904 04:02:17.530954 43922 net.cpp:165] Memory required for data: 1539312640
I0904 04:02:17.530962 43922 layer_factory.hpp:77] Creating layer conv51
I0904 04:02:17.530978 43922 net.cpp:100] Creating Layer conv51
I0904 04:02:17.530989 43922 net.cpp:434] conv51 <- pool4
I0904 04:02:17.531003 43922 net.cpp:408] conv51 -> conv51
I0904 04:02:17.551106 43922 net.cpp:150] Setting up conv51
I0904 04:02:17.551146 43922 net.cpp:157] Top shape: 256 512 1 1 (131072)
I0904 04:02:17.551156 43922 net.cpp:165] Memory required for data: 1539836928
I0904 04:02:17.551178 43922 layer_factory.hpp:77] Creating layer relu51
I0904 04:02:17.551198 43922 net.cpp:100] Creating Layer relu51
I0904 04:02:17.551209 43922 net.cpp:434] relu51 <- conv51
I0904 04:02:17.551224 43922 net.cpp:395] relu51 -> conv51 (in-place)
I0904 04:02:17.551669 43922 net.cpp:150] Setting up relu51
I0904 04:02:17.551700 43922 net.cpp:157] Top shape: 256 512 1 1 (131072)
I0904 04:02:17.551709 43922 net.cpp:165] Memory required for data: 1540361216
I0904 04:02:17.551717 43922 layer_factory.hpp:77] Creating layer conv52
I0904 04:02:17.551735 43922 net.cpp:100] Creating Layer conv52
I0904 04:02:17.551746 43922 net.cpp:434] conv52 <- conv51
I0904 04:02:17.551764 43922 net.cpp:408] conv52 -> conv52
I0904 04:02:17.555516 43922 net.cpp:150] Setting up conv52
I0904 04:02:17.555538 43922 net.cpp:157] Top shape: 256 512 1 1 (131072)
I0904 04:02:17.555549 43922 net.cpp:165] Memory required for data: 1540885504
I0904 04:02:17.555562 43922 layer_factory.hpp:77] Creating layer relu52
I0904 04:02:17.555577 43922 net.cpp:100] Creating Layer relu52
I0904 04:02:17.555588 43922 net.cpp:434] relu52 <- conv52
I0904 04:02:17.555598 43922 net.cpp:395] relu52 -> conv52 (in-place)
I0904 04:02:17.555775 43922 net.cpp:150] Setting up relu52
I0904 04:02:17.555791 43922 net.cpp:157] Top shape: 256 512 1 1 (131072)
I0904 04:02:17.555801 43922 net.cpp:165] Memory required for data: 1541409792
I0904 04:02:17.555809 43922 layer_factory.hpp:77] Creating layer drop6
I0904 04:02:17.555820 43922 net.cpp:100] Creating Layer drop6
I0904 04:02:17.555830 43922 net.cpp:434] drop6 <- conv52
I0904 04:02:17.555841 43922 net.cpp:395] drop6 -> conv52 (in-place)
I0904 04:02:17.555878 43922 net.cpp:150] Setting up drop6
I0904 04:02:17.555891 43922 net.cpp:157] Top shape: 256 512 1 1 (131072)
I0904 04:02:17.555901 43922 net.cpp:165] Memory required for data: 1541934080
I0904 04:02:17.555908 43922 layer_factory.hpp:77] Creating layer conv_c
I0904 04:02:17.555924 43922 net.cpp:100] Creating Layer conv_c
I0904 04:02:17.555933 43922 net.cpp:434] conv_c <- conv52
I0904 04:02:17.555948 43922 net.cpp:408] conv_c -> conv_c
I0904 04:02:17.557272 43922 net.cpp:150] Setting up conv_c
I0904 04:02:17.557296 43922 net.cpp:157] Top shape: 256 2 1 1 (512)
I0904 04:02:17.557306 43922 net.cpp:165] Memory required for data: 1541936128
I0904 04:02:17.557318 43922 layer_factory.hpp:77] Creating layer conv_c_conv_c_0_split
I0904 04:02:17.557332 43922 net.cpp:100] Creating Layer conv_c_conv_c_0_split
I0904 04:02:17.557340 43922 net.cpp:434] conv_c_conv_c_0_split <- conv_c
I0904 04:02:17.557353 43922 net.cpp:408] conv_c_conv_c_0_split -> conv_c_conv_c_0_split_0
I0904 04:02:17.557365 43922 net.cpp:408] conv_c_conv_c_0_split -> conv_c_conv_c_0_split_1
I0904 04:02:17.557416 43922 net.cpp:150] Setting up conv_c_conv_c_0_split
I0904 04:02:17.557430 43922 net.cpp:157] Top shape: 256 2 1 1 (512)
I0904 04:02:17.557437 43922 net.cpp:157] Top shape: 256 2 1 1 (512)
I0904 04:02:17.557446 43922 net.cpp:165] Memory required for data: 1541940224
I0904 04:02:17.557453 43922 layer_factory.hpp:77] Creating layer accuracy
I0904 04:02:17.557474 43922 net.cpp:100] Creating Layer accuracy
I0904 04:02:17.557484 43922 net.cpp:434] accuracy <- conv_c_conv_c_0_split_0
I0904 04:02:17.557493 43922 net.cpp:434] accuracy <- label_data_1_split_0
I0904 04:02:17.557502 43922 net.cpp:408] accuracy -> accuracy
…
