…
I0718 14:37:58.647840 34808 net.cpp:322] The NetState phase (0) differed from the phase (1) specified by a rule in layer data
I0718 14:37:58.648731 34808 net.cpp:49] Initializing net from parameters: 
name: "GoogleNet"
state {
  phase: TRAIN
}
layer {
  name: "data"
  type: "ImageData"
  top: "data"
  top: "label"
  include {
    phase: TRAIN
  }
  transform_param {
    mirror: true
    mean_value: 163
    mean_value: 116
    mean_value: 181
  }
  image_data_param {
    source: "../lists/mitosis_train.lst"
    batch_size: 6
    shuffle: true
  }
}
layer {
  name: "conv1/7x7_s2"
  type: "Convolution"
  bottom: "data"
  top: "conv1/7x7_s2"
  param {
    lr_mult: 0
    decay_mult: 1
  }
  param {
    lr_mult: 2
    decay_mult: 0
  }
  convolution_param {
    num_output: 64
    pad: 3
    kernel_size: 7
    stride: 2
    weight_filler {
      type: "xavier"
    }
    bias_filler {
      type: "constant"
      value: 0.2
    }
  }
}
layer {
  name: "conv1/relu_7x7"
  type: "ReLU"
  bottom: "conv1/7x7_s2"
  top: "conv1/7x7_s2"
}
layer {
  name: "pool1/3x3_s2"
  type: "Pooling"
  bottom: "conv1/7x7_s2"
  top: "pool1/3x3_s2"
  pooling_param {
    pool: MAX
    kernel_size: 3
    stride: 2
  }
}
layer {
  name: "pool1/norm1"
  type: "LRN"
  bottom: "pool1/3x3_s2"
  top: "pool1/norm1"
  lrn_param {
    local_size: 5
    alpha: 0.0001
    beta: 0.75
  }
}
layer {
  name: "conv2/3x3_reduce"
  type: "Convolution"
  bottom: "pool1/norm1"
  top: "conv2/3x3_reduce"
  param {
    lr_mult: 0
    decay_mult: 1
  }
  param {
    lr_mult: 2
    decay_mult: 0
  }
  convolution_param {
    num_output: 64
    kernel_size: 1
    weight_filler {
      type: "xavier"
    }
    bias_filler {
      type: "constant"
      value: 0.2
    }
  }
}
layer {
  name: "conv2/relu_3x3_reduce"
  type: "ReLU"
  bottom: "conv2/3x3_reduce"
  top: "conv2/3x3_reduce"
}
layer {
  name: "conv2/3x3"
  type: "Convolution"
  bottom: "conv2/3x3_reduce"
  top: "conv2/3x3"
  param {
    lr_mult: 0
    decay_mult: 1
  }
  param {
    lr_mult: 2
    decay_mult: 0
  }
  convolution_param {
    num_output: 192
    pad: 1
    kernel_size: 3
    weight_filler {
      type: "xavier"
    }
    bias_filler {
      type: "constant"
      value: 0.2
    }
  }
}
layer {
  name: "conv2/relu_3x3"
  type: "ReLU"
  bottom: "conv2/3x3"
  top: "conv2/3x3"
}
layer {
  name: "conv2/norm2"
  type: "LRN"
  bottom: "conv2/3x3"
  top: "conv2/norm2"
  lrn_param {
    local_size: 5
    alpha: 0.0001
    beta: 0.75
  }
}
layer {
  name: "pool2/3x3_s2"
  type: "Pooling"
  bottom: "conv2/norm2"
  top: "pool2/3x3_s2"
  pooling_param {
    pool: MAX
    kernel_size: 3
    stride: 2
  }
}
layer {
  name: "inception_3a/1x1"
  type: "Convolution"
  bottom: "pool2/3x3_s2"
  top: "inception_3a/1x1"
  param {
    lr_mult: 0
    decay_mult: 1
  }
  param {
    lr_mult: 2
    decay_mult: 0
  }
  convolution_param {
    num_output: 64
    kernel_size: 1
    weight_filler {
      type: "xavier"
    }
    bias_filler {
      type: "constant"
      value: 0.2
    }
  }
}
layer {
  name: "inception_3a/relu_1x1"
  type: "ReLU"
  bottom: "inception_3a/1x1"
  top: "inception_3a/1x1"
}
layer {
  name: "inception_3a/3x3_reduce"
  type: "Convolution"
  bottom: "pool2/3x3_s2"
  top: "inception_3a/3x3_reduce"
  param {
    lr_mult: 0
    decay_mult: 1
  }
  param {
    lr_mult: 2
    decay_mult: 0
  }
  convolution_param {
    num_output: 96
    kernel_size: 1
    weight_filler {
      type: "xavier"
    }
    bias_filler {
      type: "constant"
      value: 0.2
    }
  }
}
layer {
  name: "inception_3a/relu_3x3_reduce"
  type: "ReLU"
  bottom: "inception_3a/3x3_reduce"
  top: "inception_3a/3x3_reduce"
}
layer {
  name: "inception_3a/3x3"
  type: "Convolution"
  bottom: "inception_3a/3x3_reduce"
  top: "inception_3a/3x3"
  param {
    lr_mult: 0
    decay_mult: 1
  }
  param {
    lr_mult: 2
    decay_mult: 0
  }
  convolution_param {
    num_output: 128
    pad: 1
    kernel_size: 3
    weight_filler {
      type: "xavier"
    }
    bias_filler {
      type: "constant"
      value: 0.2
    }
  }
}
layer {
  name: "inception_3a/relu_3x3"
  type: "ReLU"
  bottom: "inception_3a/3x3"
  top: "inception_3a/3x3"
}
layer {
  name: "inception_3a/5x5_reduce"
  type: "Convolution"
  bottom: "pool2/3x3_s2"
  top: "inception_3a/5x5_reduce"
  param {
    lr_mult: 0
    decay_mult: 1
  }
  param {
    lr_mult: 2
    decay_mult: 0
  }
  convolution_param {
    num_output: 16
    kernel_size: 1
    weight_filler {
      type: "xavier"
    }
    bias_filler {
      type: "constant"
      value: 0.2
    }
  }
}
layer {
  name: "inception_3a/relu_5x5_reduce"
  type: "ReLU"
  bottom: "inception_3a/5x5_reduce"
  top: "inception_3a/5x5_reduce"
}
layer {
  name: "inception_3a/5x5"
  type: "Convolution"
  bottom: "inception_3a/5x5_reduce"
  top: "inception_3a/5x5"
  param {
    lr_mult: 0
    decay_mult: 1
  }
  param {
    lr_mult: 2
    decay_mult: 0
  }
  convolution_param {
    num_output: 32
    pad: 2
    kernel_size: 5
    weight_filler {
      type: "xavier"
    }
    bias_filler {
      type: "constant"
      value: 0.2
    }
  }
}
layer {
  name: "inception_3a/relu_5x5"
  type: "ReLU"
  bottom: "inception_3a/5x5"
  top: "inception_3a/5x5"
}
layer {
  name: "inception_3a/pool"
  type: "Pooling"
  bottom: "pool2/3x3_s2"
  top: "inception_3a/pool"
  pooling_param {
    pool: MAX
    kernel_size: 3
    stride: 1
    pad: 1
  }
}
layer {
  name: "inception_3a/pool_proj"
  type: "Convolution"
  bottom: "inception_3a/pool"
  top: "inception_3a/pool_proj"
  param {
    lr_mult: 0
    decay_mult: 1
  }
  param {
    lr_mult: 2
    decay_mult: 0
  }
  convolution_param {
    num_output: 32
    kernel_size: 1
    weight_filler {
      type: "xavier"
    }
    bias_filler {
      type: "constant"
      value: 0.2
    }
  }
}
layer {
  name: "inception_3a/relu_pool_proj"
  type: "ReLU"
  bottom: "inception_3a/pool_proj"
  top: "inception_3a/pool_proj"
}
layer {
  name: "inception_3a/output"
  type: "Concat"
  bottom: "inception_3a/1x1"
  bottom: "inception_3a/3x3"
  bottom: "inception_3a/5x5"
  bottom: "inception_3a/pool_proj"
  top: "inception_3a/output"
}
layer {
  name: "inception_3b/1x1"
  type: "Convolution"
  bottom: "inception_3a/output"
  top: "inception_3b/1x1"
  param {
    lr_mult: 0
    decay_mult: 1
  }
  param {
    lr_mult: 2
    decay_mult: 0
  }
  convolution_param {
    num_output: 128
    kernel_size: 1
    weight_filler {
      type: "xavier"
    }
    bias_filler {
      type: "constant"
      value: 0.2
    }
  }
}
layer {
  name: "inception_3b/relu_1x1"
  type: "ReLU"
  bottom: "inception_3b/1x1"
  top: "inception_3b/1x1"
}
layer {
  name: "inception_3b/3x3_reduce"
  type: "Convolution"
  bottom: "inception_3a/output"
  top: "inception_3b/3x3_reduce"
  param {
    lr_mult: 0
    decay_mult: 1
  }
  param {
    lr_mult: 2
    decay_mult: 0
  }
  convolution_param {
    num_output: 128
    kernel_size: 1
    weight_filler {
      type: "xavier"
    }
    bias_filler {
      type: "constant"
      value: 0.2
    }
  }
}
layer {
  name: "inception_3b/relu_3x3_reduce"
  type: "ReLU"
  bottom: "inception_3b/3x3_reduce"
  top: "inception_3b/3x3_reduce"
}
layer {
  name: "inception_3b/3x3"
  type: "Convolution"
  bottom: "inception_3b/3x3_reduce"
  top: "inception_3b/3x3"
  param {
    lr_mult: 0
    decay_mult: 1
  }
  param {
    lr_mult: 2
    decay_mult: 0
  }
  convolution_param {
    num_output: 192
    pad: 1
    kernel_size: 3
    weight_filler {
      type: "xavier"
    }
    bias_filler {
      type: "constant"
      value: 0.2
    }
  }
}
layer {
  name: "inception_3b/relu_3x3"
  type: "ReLU"
  bottom: "inception_3b/3x3"
  top: "inception_3b/3x3"
}
layer {
  name: "inception_3b/5x5_reduce"
  type: "Convolution"
  bottom: "inception_3a/output"
  top: "inception_3b/5x5_reduce"
  param {
    lr_mult: 0
    decay_mult: 1
  }
  param {
    lr_mult: 2
    decay_mult: 0
  }
  convolution_param {
    num_output: 32
    kernel_size: 1
    weight_filler {
      type: "xavier"
    }
    bias_filler {
      type: "constant"
      value: 0.2
    }
  }
}
layer {
  name: "inception_3b/relu_5x5_reduce"
  type: "ReLU"
  bottom: "inception_3b/5x5_reduce"
  top: "inception_3b/5x5_reduce"
}
layer {
  name: "inception_3b/5x5"
  type: "Convolution"
  bottom: "inception_3b/5x5_reduce"
  top: "inception_3b/5x5"
  param {
    lr_mult: 0
    decay_mult: 1
  }
  param {
    lr_mult: 2
    decay_mult: 0
  }
  convolution_param {
    num_output: 96
    pad: 2
    kernel_size: 5
    weight_filler {
      type: "xavier"
    }
    bias_filler {
      type: "constant"
      value: 0.2
    }
  }
}
layer {
  name: "inception_3b/relu_5x5"
  type: "ReLU"
  bottom: "inception_3b/5x5"
  top: "inception_3b/5x5"
}
layer {
  name: "inception_3b/pool"
  type: "Pooling"
  bottom: "inception_3a/output"
  top: "inception_3b/pool"
  pooling_param {
    pool: MAX
    kernel_size: 3
    stride: 1
    pad: 1
  }
}
layer {
  name: "inception_3b/pool_proj"
  type: "Convolution"
  bottom: "inception_3b/pool"
  top: "inception_3b/pool_proj"
  param {
    lr_mult: 0
    decay_mult: 1
  }
  param {
    lr_mult: 2
    decay_mult: 0
  }
  convolution_param {
    num_output: 64
    kernel_size: 1
    weight_filler {
      type: "xavier"
    }
    bias_filler {
      type: "constant"
      value: 0.2
    }
  }
}
layer {
  name: "inception_3b/relu_pool_proj"
  type: "ReLU"
  bottom: "inception_3b/pool_proj"
  top: "inception_3b/pool_proj"
}
layer {
  name: "inception_3b/output"
  type: "Concat"
  bottom: "inception_3b/1x1"
  bottom: "inception_3b/3x3"
  bottom: "inception_3b/5x5"
  bottom: "inception_3b/pool_proj"
  top: "inception_3b/output"
}
layer {
  name: "pool3/3x3_s2"
  type: "Pooling"
  bottom: "inception_3b/output"
  top: "pool3/3x3_s2"
  pooling_param {
    pool: MAX
    kernel_size: 3
    stride: 2
  }
}
layer {
  name: "inception_4a/1x1"
  type: "Convolution"
  bottom: "pool3/3x3_s2"
  top: "inception_4a/1x1"
  param {
    lr_mult: 0
    decay_mult: 1
  }
  param {
    lr_mult: 2
    decay_mult: 0
  }
  convolution_param {
    num_output: 192
    kernel_size: 1
    weight_filler {
      type: "xavier"
    }
    bias_filler {
      type: "constant"
      value: 0.2
    }
  }
}
layer {
  name: "inception_4a/relu_1x1"
  type: "ReLU"
  bottom: "inception_4a/1x1"
  top: "inception_4a/1x1"
}
layer {
  name: "inception_4a/3x3_reduce"
  type: "Convolution"
  bottom: "pool3/3x3_s2"
  top: "inception_4a/3x3_reduce"
  param {
    lr_mult: 0
    decay_mult: 1
  }
  param {
    lr_mult: 2
    decay_mult: 0
  }
  convolution_param {
    num_output: 96
    kernel_size: 1
    weight_filler {
      type: "xavier"
    }
    bias_filler {
      type: "constant"
      value: 0.2
    }
  }
}
layer {
  name: "inception_4a/relu_3x3_reduce"
  type: "ReLU"
  bottom: "inception_4a/3x3_reduce"
  top: "inception_4a/3x3_reduce"
}
layer {
  name: "inception_4a/3x3"
  type: "Convolution"
  bottom: "inception_4a/3x3_reduce"
  top: "inception_4a/3x3"
  param {
    lr_mult: 0
    decay_mult: 1
  }
  param {
    lr_mult: 2
    decay_mult: 0
  }
  convolution_param {
    num_output: 208
    pad: 1
    kernel_size: 3
    weight_filler {
      type: "xavier"
    }
    bias_filler {
      type: "constant"
      value: 0.2
    }
  }
}
layer {
  name: "inception_4a/relu_3x3"
  type: "ReLU"
  bottom: "inception_4a/3x3"
  top: "inception_4a/3x3"
}
layer {
  name: "inception_4a/5x5_reduce"
  type: "Convolution"
  bottom: "pool3/3x3_s2"
  top: "inception_4a/5x5_reduce"
  param {
    lr_mult: 0
    decay_mult: 1
  }
  param {
    lr_mult: 2
    decay_mult: 0
  }
  convolution_param {
    num_output: 16
    kernel_size: 1
    weight_filler {
      type: "xavier"
    }
    bias_filler {
      type: "constant"
      value: 0.2
    }
  }
}
layer {
  name: "inception_4a/relu_5x5_reduce"
  type: "ReLU"
  bottom: "inception_4a/5x5_reduce"
  top: "inception_4a/5x5_reduce"
}
layer {
  name: "inception_4a/5x5"
  type: "Convolution"
  bottom: "inception_4a/5x5_reduce"
  top: "inception_4a/5x5"
  param {
    lr_mult: 0
    decay_mult: 1
  }
  param {
    lr_mult: 2
    decay_mult: 0
  }
  convolution_param {
    num_output: 48
    pad: 2
    kernel_size: 5
    weight_filler {
      type: "xavier"
    }
    bias_filler {
      type: "constant"
      value: 0.2
    }
  }
}
layer {
  name: "inception_4a/relu_5x5"
  type: "ReLU"
  bottom: "inception_4a/5x5"
  top: "inception_4a/5x5"
}
layer {
  name: "inception_4a/pool"
  type: "Pooling"
  bottom: "pool3/3x3_s2"
  top: "inception_4a/pool"
  pooling_param {
    pool: MAX
    kernel_size: 3
    stride: 1
    pad: 1
  }
}
layer {
  name: "inception_4a/pool_proj"
  type: "Convolution"
  bottom: "inception_4a/pool"
  top: "inception_4a/pool_proj"
  param {
    lr_mult: 0
    decay_mult: 1
  }
  param {
    lr_mult: 2
    decay_mult: 0
  }
  convolution_param {
    num_output: 64
    kernel_size: 1
    weight_filler {
      type: "xavier"
    }
    bias_filler {
      type: "constant"
      value: 0.2
    }
  }
}
layer {
  name: "inception_4a/relu_pool_proj"
  type: "ReLU"
  bottom: "inception_4a/pool_proj"
  top: "inception_4a/pool_proj"
}
layer {
  name: "inception_4a/output"
  type: "Concat"
  bottom: "inception_4a/1x1"
  bottom: "inception_4a/3x3"
  bottom: "inception_4a/5x5"
  bottom: "inception_4a/pool_proj"
  top: "inception_4a/output"
}
layer {
  name: "inception_4b/1x1"
  type: "Convolution"
  bottom: "inception_4a/output"
  top: "inception_4b/1x1"
  param {
    lr_mult: 0
    decay_mult: 1
  }
  param {
    lr_mult: 2
    decay_mult: 0
  }
  convolution_param {
    num_output: 160
    kernel_size: 1
    weight_filler {
      type: "xavier"
    }
    bias_filler {
      type: "constant"
      value: 0.2
    }
  }
}
layer {
  name: "inception_4b/relu_1x1"
  type: "ReLU"
  bottom: "inception_4b/1x1"
  top: "inception_4b/1x1"
}
layer {
  name: "inception_4b/3x3_reduce"
  type: "Convolution"
  bottom: "inception_4a/output"
  top: "inception_4b/3x3_reduce"
  param {
    lr_mult: 0
    decay_mult: 1
  }
  param {
    lr_mult: 2
    decay_mult: 0
  }
  convolution_param {
    num_output: 112
    kernel_size: 1
    weight_filler {
      type: "xavier"
    }
    bias_filler {
      type: "constant"
      value: 0.2
    }
  }
}
layer {
  name: "inception_4b/relu_3x3_reduce"
  type: "ReLU"
  bottom: "inception_4b/3x3_reduce"
  top: "inception_4b/3x3_reduce"
}
layer {
  name: "inception_4b/3x3"
  type: "Convolution"
  bottom: "inception_4b/3x3_reduce"
  top: "inception_4b/3x3"
  param {
    lr_mult: 0
    decay_mult: 1
  }
  param {
    lr_mult: 2
    decay_mult: 0
  }
  convolution_param {
    num_output: 224
    pad: 1
    kernel_size: 3
    weight_filler {
      type: "xavier"
    }
    bias_filler {
      type: "constant"
      value: 0.2
    }
  }
}
layer {
  name: "inception_4b/relu_3x3"
  type: "ReLU"
  bottom: "inception_4b/3x3"
  top: "inception_4b/3x3"
}
layer {
  name: "inception_4b/5x5_reduce"
  type: "Convolution"
  bottom: "inception_4a/output"
  top: "inception_4b/5x5_reduce"
  param {
    lr_mult: 0
    decay_mult: 1
  }
  param {
    lr_mult: 2
    decay_mult: 0
  }
  convolution_param {
    num_output: 24
    kernel_size: 1
    weight_filler {
      type: "xavier"
    }
    bias_filler {
      type: "constant"
      value: 0.2
    }
  }
}
layer {
  name: "inception_4b/relu_5x5_reduce"
  type: "ReLU"
  bottom: "inception_4b/5x5_reduce"
  top: "inception_4b/5x5_reduce"
}
layer {
  name: "inception_4b/5x5"
  type: "Convolution"
  bottom: "inception_4b/5x5_reduce"
  top: "inception_4b/5x5"
  param {
    lr_mult: 0
    decay_mult: 1
  }
  param {
    lr_mult: 2
    decay_mult: 0
  }
  convolution_param {
    num_output: 64
    pad: 2
    kernel_size: 5
    weight_filler {
      type: "xavier"
    }
    bias_filler {
      type: "constant"
      value: 0.2
    }
  }
}
layer {
  name: "inception_4b/relu_5x5"
  type: "ReLU"
  bottom: "inception_4b/5x5"
  top: "inception_4b/5x5"
}
layer {
  name: "inception_4b/pool"
  type: "Pooling"
  bottom: "inception_4a/output"
  top: "inception_4b/pool"
  pooling_param {
    pool: MAX
    kernel_size: 3
    stride: 1
    pad: 1
  }
}
layer {
  name: "inception_4b/pool_proj"
  type: "Convolution"
  bottom: "inception_4b/pool"
  top: "inception_4b/pool_proj"
  param {
    lr_mult: 0
    decay_mult: 1
  }
  param {
    lr_mult: 2
    decay_mult: 0
  }
  convolution_param {
    num_output: 64
    kernel_size: 1
    weight_filler {
      type: "xavier"
    }
    bias_filler {
      type: "constant"
      value: 0.2
    }
  }
}
layer {
  name: "inception_4b/relu_pool_proj"
  type: "ReLU"
  bottom: "inception_4b/pool_proj"
  top: "inception_4b/pool_proj"
}
layer {
  name: "inception_4b/output"
  type: "Concat"
  bottom: "inception_4b/1x1"
  bottom: "inception_4b/3x3"
  bottom: "inception_4b/5x5"
  bottom: "inception_4b/pool_proj"
  top: "inception_4b/output"
}
layer {
  name: "inception_4c/1x1"
  type: "Convolution"
  bottom: "inception_4b/output"
  top: "inception_4c/1x1"
  param {
    lr_mult: 0
    decay_mult: 1
  }
  param {
    lr_mult: 2
    decay_mult: 0
  }
  convolution_param {
    num_output: 128
    kernel_size: 1
    weight_filler {
      type: "xavier"
    }
    bias_filler {
      type: "constant"
      value: 0.2
    }
  }
}
layer {
  name: "inception_4c/relu_1x1"
  type: "ReLU"
  bottom: "inception_4c/1x1"
  top: "inception_4c/1x1"
}
layer {
  name: "inception_4c/3x3_reduce"
  type: "Convolution"
  bottom: "inception_4b/output"
  top: "inception_4c/3x3_reduce"
  param {
    lr_mult: 0
    decay_mult: 1
  }
  param {
    lr_mult: 2
    decay_mult: 0
  }
  convolution_param {
    num_output: 128
    kernel_size: 1
    weight_filler {
      type: "xavier"
    }
    bias_filler {
      type: "constant"
      value: 0.2
    }
  }
}
layer {
  name: "inception_4c/relu_3x3_reduce"
  type: "ReLU"
  bottom: "inception_4c/3x3_reduce"
  top: "inception_4c/3x3_reduce"
}
layer {
  name: "inception_4c/3x3"
  type: "Convolution"
  bottom: "inception_4c/3x3_reduce"
  top: "inception_4c/3x3"
  param {
    lr_mult: 0
    decay_mult: 1
  }
  param {
    lr_mult: 2
    decay_mult: 0
  }
  convolution_param {
    num_output: 256
    pad: 1
    kernel_size: 3
    weight_filler {
      type: "xavier"
    }
    bias_filler {
      type: "constant"
      value: 0.2
    }
  }
}
layer {
  name: "inception_4c/relu_3x3"
  type: "ReLU"
  bottom: "inception_4c/3x3"
  top: "inception_4c/3x3"
}
layer {
  name: "inception_4c/5x5_reduce"
  type: "Convolution"
  bottom: "inception_4b/output"
  top: "inception_4c/5x5_reduce"
  param {
    lr_mult: 0
    decay_mult: 1
  }
  param {
    lr_mult: 2
    decay_mult: 0
  }
  convolution_param {
    num_output: 24
    kernel_size: 1
    weight_filler {
      type: "xavier"
    }
    bias_filler {
      type: "constant"
      value: 0.2
    }
  }
}
layer {
  name: "inception_4c/relu_5x5_reduce"
  type: "ReLU"
  bottom: "inception_4c/5x5_reduce"
  top: "inception_4c/5x5_reduce"
}
layer {
  name: "inception_4c/5x5"
  type: "Convolution"
  bottom: "inception_4c/5x5_reduce"
  top: "inception_4c/5x5"
  param {
    lr_mult: 0
    decay_mult: 1
  }
  param {
    lr_mult: 2
    decay_mult: 0
  }
  convolution_param {
    num_output: 64
    pad: 2
    kernel_size: 5
    weight_filler {
      type: "xavier"
    }
    bias_filler {
      type: "constant"
      value: 0.2
    }
  }
}
layer {
  name: "inception_4c/relu_5x5"
  type: "ReLU"
  bottom: "inception_4c/5x5"
  top: "inception_4c/5x5"
}
layer {
  name: "inception_4c/pool"
  type: "Pooling"
  bottom: "inception_4b/output"
  top: "inception_4c/pool"
  pooling_param {
    pool: MAX
    kernel_size: 3
    stride: 1
    pad: 1
  }
}
layer {
  name: "inception_4c/pool_proj"
  type: "Convolution"
  bottom: "inception_4c/pool"
  top: "inception_4c/pool_proj"
  param {
    lr_mult: 0
    decay_mult: 1
  }
  param {
    lr_mult: 2
    decay_mult: 0
  }
  convolution_param {
    num_output: 64
    kernel_size: 1
    weight_filler {
      type: "xavier"
    }
    bias_filler {
      type: "constant"
      value: 0.2
    }
  }
}
layer {
  name: "inception_4c/relu_pool_proj"
  type: "ReLU"
  bottom: "inception_4c/pool_proj"
  top: "inception_4c/pool_proj"
}
layer {
  name: "inception_4c/output"
  type: "Concat"
  bottom: "inception_4c/1x1"
  bottom: "inception_4c/3x3"
  bottom: "inception_4c/5x5"
  bottom: "inception_4c/pool_proj"
  top: "inception_4c/output"
}
layer {
  name: "inception_4d/1x1"
  type: "Convolution"
  bottom: "inception_4c/output"
  top: "inception_4d/1x1"
  param {
    lr_mult: 0
    decay_mult: 1
  }
  param {
    lr_mult: 2
    decay_mult: 0
  }
  convolution_param {
    num_output: 112
    kernel_size: 1
    weight_filler {
      type: "xavier"
    }
    bias_filler {
      type: "constant"
      value: 0.2
    }
  }
}
layer {
  name: "inception_4d/relu_1x1"
  type: "ReLU"
  bottom: "inception_4d/1x1"
  top: "inception_4d/1x1"
}
layer {
  name: "inception_4d/3x3_reduce"
  type: "Convolution"
  bottom: "inception_4c/output"
  top: "inception_4d/3x3_reduce"
  param {
    lr_mult: 0
    decay_mult: 1
  }
  param {
    lr_mult: 2
    decay_mult: 0
  }
  convolution_param {
    num_output: 144
    kernel_size: 1
    weight_filler {
      type: "xavier"
    }
    bias_filler {
      type: "constant"
      value: 0.2
    }
  }
}
layer {
  name: "inception_4d/relu_3x3_reduce"
  type: "ReLU"
  bottom: "inception_4d/3x3_reduce"
  top: "inception_4d/3x3_reduce"
}
layer {
  name: "inception_4d/3x3"
  type: "Convolution"
  bottom: "inception_4d/3x3_reduce"
  top: "inception_4d/3x3"
  param {
    lr_mult: 0
    decay_mult: 1
  }
  param {
    lr_mult: 2
    decay_mult: 0
  }
  convolution_param {
    num_output: 288
    pad: 1
    kernel_size: 3
    weight_filler {
      type: "xavier"
    }
    bias_filler {
      type: "constant"
      value: 0.2
    }
  }
}
layer {
  name: "inception_4d/relu_3x3"
  type: "ReLU"
  bottom: "inception_4d/3x3"
  top: "inception_4d/3x3"
}
layer {
  name: "inception_4d/5x5_reduce"
  type: "Convolution"
  bottom: "inception_4c/output"
  top: "inception_4d/5x5_reduce"
  param {
    lr_mult: 0
    decay_mult: 1
  }
  param {
    lr_mult: 2
    decay_mult: 0
  }
  convolution_param {
    num_output: 32
    kernel_size: 1
    weight_filler {
      type: "xavier"
    }
    bias_filler {
      type: "constant"
      value: 0.2
    }
  }
}
layer {
  name: "inception_4d/relu_5x5_reduce"
  type: "ReLU"
  bottom: "inception_4d/5x5_reduce"
  top: "inception_4d/5x5_reduce"
}
layer {
  name: "inception_4d/5x5"
  type: "Convolution"
  bottom: "inception_4d/5x5_reduce"
  top: "inception_4d/5x5"
  param {
    lr_mult: 0
    decay_mult: 1
  }
  param {
    lr_mult: 2
    decay_mult: 0
  }
  convolution_param {
    num_output: 64
    pad: 2
    kernel_size: 5
    weight_filler {
      type: "xavier"
    }
    bias_filler {
      type: "constant"
      value: 0.2
    }
  }
}
layer {
  name: "inception_4d/relu_5x5"
  type: "ReLU"
  bottom: "inception_4d/5x5"
  top: "inception_4d/5x5"
}
layer {
  name: "inception_4d/pool"
  type: "Pooling"
  bottom: "inception_4c/output"
  top: "inception_4d/pool"
  pooling_param {
    pool: MAX
    kernel_size: 3
    stride: 1
    pad: 1
  }
}
layer {
  name: "inception_4d/pool_proj"
  type: "Convolution"
  bottom: "inception_4d/pool"
  top: "inception_4d/pool_proj"
  param {
    lr_mult: 0
    decay_mult: 1
  }
  param {
    lr_mult: 2
    decay_mult: 0
  }
  convolution_param {
    num_output: 64
    kernel_size: 1
    weight_filler {
      type: "xavier"
    }
    bias_filler {
      type: "constant"
      value: 0.2
    }
  }
}
layer {
  name: "inception_4d/relu_pool_proj"
  type: "ReLU"
  bottom: "inception_4d/pool_proj"
  top: "inception_4d/pool_proj"
}
layer {
  name: "inception_4d/output"
  type: "Concat"
  bottom: "inception_4d/1x1"
  bottom: "inception_4d/3x3"
  bottom: "inception_4d/5x5"
  bottom: "inception_4d/pool_proj"
  top: "inception_4d/output"
}
layer {
  name: "inception_4e/1x1"
  type: "Convolution"
  bottom: "inception_4d/output"
  top: "inception_4e/1x1"
  param {
    lr_mult: 0
    decay_mult: 1
  }
  param {
    lr_mult: 2
    decay_mult: 0
  }
  convolution_param {
    num_output: 256
    kernel_size: 1
    weight_filler {
      type: "xavier"
    }
    bias_filler {
      type: "constant"
      value: 0.2
    }
  }
}
layer {
  name: "inception_4e/relu_1x1"
  type: "ReLU"
  bottom: "inception_4e/1x1"
  top: "inception_4e/1x1"
}
layer {
  name: "inception_4e/3x3_reduce"
  type: "Convolution"
  bottom: "inception_4d/output"
  top: "inception_4e/3x3_reduce"
  param {
    lr_mult: 0
    decay_mult: 1
  }
  param {
    lr_mult: 2
    decay_mult: 0
  }
  convolution_param {
    num_output: 160
    kernel_size: 1
    weight_filler {
      type: "xavier"
    }
    bias_filler {
      type: "constant"
      value: 0.2
    }
  }
}
layer {
  name: "inception_4e/relu_3x3_reduce"
  type: "ReLU"
  bottom: "inception_4e/3x3_reduce"
  top: "inception_4e/3x3_reduce"
}
layer {
  name: "inception_4e/3x3"
  type: "Convolution"
  bottom: "inception_4e/3x3_reduce"
  top: "inception_4e/3x3"
  param {
    lr_mult: 0
    decay_mult: 1
  }
  param {
    lr_mult: 2
    decay_mult: 0
  }
  convolution_param {
    num_output: 320
    pad: 1
    kernel_size: 3
    weight_filler {
      type: "xavier"
    }
    bias_filler {
      type: "constant"
      value: 0.2
    }
  }
}
layer {
  name: "inception_4e/relu_3x3"
  type: "ReLU"
  bottom: "inception_4e/3x3"
  top: "inception_4e/3x3"
}
layer {
  name: "inception_4e/5x5_reduce"
  type: "Convolution"
  bottom: "inception_4d/output"
  top: "inception_4e/5x5_reduce"
  param {
    lr_mult: 0
    decay_mult: 1
  }
  param {
    lr_mult: 2
    decay_mult: 0
  }
  convolution_param {
    num_output: 32
    kernel_size: 1
    weight_filler {
      type: "xavier"
    }
    bias_filler {
      type: "constant"
      value: 0.2
    }
  }
}
layer {
  name: "inception_4e/relu_5x5_reduce"
  type: "ReLU"
  bottom: "inception_4e/5x5_reduce"
  top: "inception_4e/5x5_reduce"
}
layer {
  name: "inception_4e/5x5"
  type: "Convolution"
  bottom: "inception_4e/5x5_reduce"
  top: "inception_4e/5x5"
  param {
    lr_mult: 0
    decay_mult: 1
  }
  param {
    lr_mult: 2
    decay_mult: 0
  }
  convolution_param {
    num_output: 128
    pad: 2
    kernel_size: 5
    weight_filler {
      type: "xavier"
    }
    bias_filler {
      type: "constant"
      value: 0.2
    }
  }
}
layer {
  name: "inception_4e/relu_5x5"
  type: "ReLU"
  bottom: "inception_4e/5x5"
  top: "inception_4e/5x5"
}
layer {
  name: "inception_4e/pool"
  type: "Pooling"
  bottom: "inception_4d/output"
  top: "inception_4e/pool"
  pooling_param {
    pool: MAX
    kernel_size: 3
    stride: 1
    pad: 1
  }
}
layer {
  name: "inception_4e/pool_proj"
  type: "Convolution"
  bottom: "inception_4e/pool"
  top: "inception_4e/pool_proj"
  param {
    lr_mult: 0
    decay_mult: 1
  }
  param {
    lr_mult: 2
    decay_mult: 0
  }
  convolution_param {
    num_output: 128
    kernel_size: 1
    weight_filler {
      type: "xavier"
    }
    bias_filler {
      type: "constant"
      value: 0.2
    }
  }
}
layer {
  name: "inception_4e/relu_pool_proj"
  type: "ReLU"
  bottom: "inception_4e/pool_proj"
  top: "inception_4e/pool_proj"
}
layer {
  name: "inception_4e/output"
  type: "Concat"
  bottom: "inception_4e/1x1"
  bottom: "inception_4e/3x3"
  bottom: "inception_4e/5x5"
  bottom: "inception_4e/pool_proj"
  top: "inception_4e/output"
}
layer {
  name: "pool4/3x3_s2"
  type: "Pooling"
  bottom: "inception_4e/output"
  top: "pool4/3x3_s2"
  pooling_param {
    pool: MAX
    kernel_size: 3
    stride: 2
  }
}
layer {
  name: "inception_5a/1x1"
  type: "Convolution"
  bottom: "pool4/3x3_s2"
  top: "inception_5a/1x1"
  param {
    lr_mult: 0
    decay_mult: 1
  }
  param {
    lr_mult: 2
    decay_mult: 0
  }
  convolution_param {
    num_output: 256
    kernel_size: 1
    weight_filler {
      type: "xavier"
    }
    bias_filler {
      type: "constant"
      value: 0.2
    }
  }
}
layer {
  name: "inception_5a/relu_1x1"
  type: "ReLU"
  bottom: "inception_5a/1x1"
  top: "inception_5a/1x1"
}
layer {
  name: "inception_5a/3x3_reduce"
  type: "Convolution"
  bottom: "pool4/3x3_s2"
  top: "inception_5a/3x3_reduce"
  param {
    lr_mult: 0
    decay_mult: 1
  }
  param {
    lr_mult: 2
    decay_mult: 0
  }
  convolution_param {
    num_output: 160
    kernel_size: 1
    weight_filler {
      type: "xavier"
    }
    bias_filler {
      type: "constant"
      value: 0.2
    }
  }
}
layer {
  name: "inception_5a/relu_3x3_reduce"
  type: "ReLU"
  bottom: "inception_5a/3x3_reduce"
  top: "inception_5a/3x3_reduce"
}
layer {
  name: "inception_5a/3x3"
  type: "Convolution"
  bottom: "inception_5a/3x3_reduce"
  top: "inception_5a/3x3"
  param {
    lr_mult: 0
    decay_mult: 1
  }
  param {
    lr_mult: 2
    decay_mult: 0
  }
  convolution_param {
    num_output: 320
    pad: 1
    kernel_size: 3
    weight_filler {
      type: "xavier"
    }
    bias_filler {
      type: "constant"
      value: 0.2
    }
  }
}
layer {
  name: "inception_5a/relu_3x3"
  type: "ReLU"
  bottom: "inception_5a/3x3"
  top: "inception_5a/3x3"
}
layer {
  name: "inception_5a/5x5_reduce"
  type: "Convolution"
  bottom: "pool4/3x3_s2"
  top: "inception_5a/5x5_reduce"
  param {
    lr_mult: 0
    decay_mult: 1
  }
  param {
    lr_mult: 2
    decay_mult: 0
  }
  convolution_param {
    num_output: 32
    kernel_size: 1
    weight_filler {
      type: "xavier"
    }
    bias_filler {
      type: "constant"
      value: 0.2
    }
  }
}
layer {
  name: "inception_5a/relu_5x5_reduce"
  type: "ReLU"
  bottom: "inception_5a/5x5_reduce"
  top: "inception_5a/5x5_reduce"
}
layer {
  name: "inception_5a/5x5"
  type: "Convolution"
  bottom: "inception_5a/5x5_reduce"
  top: "inception_5a/5x5"
  param {
    lr_mult: 0
    decay_mult: 1
  }
  param {
    lr_mult: 2
    decay_mult: 0
  }
  convolution_param {
    num_output: 128
    pad: 2
    kernel_size: 5
    weight_filler {
      type: "xavier"
    }
    bias_filler {
      type: "constant"
      value: 0.2
    }
  }
}
layer {
  name: "inception_5a/relu_5x5"
  type: "ReLU"
  bottom: 
I0718 14:37:58.654696 34808 layer_factory.hpp:76] Creating layer data
I0718 14:37:58.654772 34808 net.cpp:106] Creating Layer data
I0718 14:37:58.654786 34808 net.cpp:411] data -> data
I0718 14:37:58.654824 34808 net.cpp:411] data -> label
I0718 14:37:58.655293 34808 image_data_layer.cpp:36] Opening file ../lists/mitosis_train.lst
I0718 14:37:58.666602 34808 image_data_layer.cpp:46] Shuffling data
I0718 14:37:58.668166 34808 image_data_layer.cpp:51] A total of 21366 images.
I0718 14:37:58.737819 34808 image_data_layer.cpp:78] output data size: 6,3,1000,1000
I0718 14:37:58.929069 34808 net.cpp:150] Setting up data
I0718 14:37:58.929152 34808 net.cpp:157] Top shape: 6 3 1000 1000 (18000000)
I0718 14:37:58.929163 34808 net.cpp:157] Top shape: 6 (6)
I0718 14:37:58.929172 34808 net.cpp:165] Memory required for data: 72000024
I0718 14:37:58.929186 34808 layer_factory.hpp:76] Creating layer label_data_1_split
I0718 14:37:58.929209 34808 net.cpp:106] Creating Layer label_data_1_split
I0718 14:37:58.929222 34808 net.cpp:454] label_data_1_split <- label
I0718 14:37:58.929246 34808 net.cpp:411] label_data_1_split -> label_data_1_split_0
I0718 14:37:58.929262 34808 net.cpp:411] label_data_1_split -> label_data_1_split_1
I0718 14:37:58.929338 34808 net.cpp:150] Setting up label_data_1_split
I0718 14:37:58.929352 34808 net.cpp:157] Top shape: 6 (6)
I0718 14:37:58.929364 34808 net.cpp:157] Top shape: 6 (6)
I0718 14:37:58.929373 34808 net.cpp:165] Memory required for data: 72000072
I0718 14:37:58.929381 34808 layer_factory.hpp:76] Creating layer conv1/7x7_s2
I0718 14:37:58.929406 34808 net.cpp:106] Creating Layer conv1/7x7_s2
I0718 14:37:58.929414 34808 net.cpp:454] conv1/7x7_s2 <- data
I0718 14:37:58.929430 34808 net.cpp:411] conv1/7x7_s2 -> conv1/7x7_s2
I0718 14:37:59.111044 34808 net.cpp:150] Setting up conv1/7x7_s2
I0718 14:37:59.111116 34808 net.cpp:157] Top shape: 6 64 500 500 (96000000)
I0718 14:37:59.111130 34808 net.cpp:165] Memory required for data: 456000072
I0718 14:37:59.111166 34808 layer_factory.hpp:76] Creating layer conv1/relu_7x7
I0718 14:37:59.111191 34808 net.cpp:106] Creating Layer conv1/relu_7x7
I0718 14:37:59.111237 34808 net.cpp:454] conv1/relu_7x7 <- conv1/7x7_s2
I0718 14:37:59.111251 34808 net.cpp:397] conv1/relu_7x7 -> conv1/7x7_s2 (in-place)
I0718 14:37:59.111498 34808 net.cpp:150] Setting up conv1/relu_7x7
I0718 14:37:59.111533 34808 net.cpp:157] Top shape: 6 64 500 500 (96000000)
I0718 14:37:59.111543 34808 net.cpp:165] Memory required for data: 840000072
I0718 14:37:59.111555 34808 layer_factory.hpp:76] Creating layer pool1/3x3_s2
I0718 14:37:59.111572 34808 net.cpp:106] Creating Layer pool1/3x3_s2
I0718 14:37:59.111580 34808 net.cpp:454] pool1/3x3_s2 <- conv1/7x7_s2
I0718 14:37:59.111594 34808 net.cpp:411] pool1/3x3_s2 -> pool1/3x3_s2
I0718 14:37:59.112174 34808 net.cpp:150] Setting up pool1/3x3_s2
I0718 14:37:59.112208 34808 net.cpp:157] Top shape: 6 64 250 250 (24000000)
I0718 14:37:59.112216 34808 net.cpp:165] Memory required for data: 936000072
I0718 14:37:59.112229 34808 layer_factory.hpp:76] Creating layer pool1/norm1
I0718 14:37:59.112260 34808 net.cpp:106] Creating Layer pool1/norm1
I0718 14:37:59.112273 34808 net.cpp:454] pool1/norm1 <- pool1/3x3_s2
I0718 14:37:59.112287 34808 net.cpp:411] pool1/norm1 -> pool1/norm1
I0718 14:37:59.112586 34808 net.cpp:150] Setting up pool1/norm1
I0718 14:37:59.112618 34808 net.cpp:157] Top shape: 6 64 250 250 (24000000)
I0718 14:37:59.112630 34808 net.cpp:165] Memory required for data: 1032000072
I0718 14:37:59.112642 34808 layer_factory.hpp:76] Creating layer conv2/3x3_reduce
I0718 14:37:59.112664 34808 net.cpp:106] Creating Layer conv2/3x3_reduce
I0718 14:37:59.112676 34808 net.cpp:454] conv2/3x3_reduce <- pool1/norm1
I0718 14:37:59.112694 34808 net.cpp:411] conv2/3x3_reduce -> conv2/3x3_reduce
I0718 14:37:59.116001 34808 cudnn_conv_layer.cpp:194] Reallocating workspace storage: 768
I0718 14:37:59.116065 34808 net.cpp:150] Setting up conv2/3x3_reduce
I0718 14:37:59.116080 34808 net.cpp:157] Top shape: 6 64 250 250 (24000000)
I0718 14:37:59.116092 34808 net.cpp:165] Memory required for data: 1128000072
I0718 14:37:59.116111 34808 layer_factory.hpp:76] Creating layer conv2/relu_3x3_reduce
I0718 14:37:59.116128 34808 net.cpp:106] Creating Layer conv2/relu_3x3_reduce
I0718 14:37:59.116139 34808 net.cpp:454] conv2/relu_3x3_reduce <- conv2/3x3_reduce
I0718 14:37:59.116152 34808 net.cpp:397] conv2/relu_3x3_reduce -> conv2/3x3_reduce (in-place)
I0718 14:37:59.116708 34808 net.cpp:150] Setting up conv2/relu_3x3_reduce
I0718 14:37:59.116744 34808 net.cpp:157] Top shape: 6 64 250 250 (24000000)
I0718 14:37:59.116757 34808 net.cpp:165] Memory required for data: 1224000072
I0718 14:37:59.116768 34808 layer_factory.hpp:76] Creating layer conv2/3x3
I0718 14:37:59.116788 34808 net.cpp:106] Creating Layer conv2/3x3
I0718 14:37:59.116801 34808 net.cpp:454] conv2/3x3 <- conv2/3x3_reduce
I0718 14:37:59.116817 34808 net.cpp:411] conv2/3x3 -> conv2/3x3
I0718 14:37:59.119818 34808 cudnn_conv_layer.cpp:194] Reallocating workspace storage: 6912
I0718 14:37:59.120276 34808 net.cpp:150] Setting up conv2/3x3
I0718 14:37:59.120327 34808 net.cpp:157] Top shape: 6 192 250 250 (72000000)
I0718 14:37:59.120338 34808 net.cpp:165] Memory required for data: 1512000072
I0718 14:37:59.120358 34808 layer_factory.hpp:76] Creating layer conv2/relu_3x3
I0718 14:37:59.120375 34808 net.cpp:106] Creating Layer conv2/relu_3x3
I0718 14:37:59.120388 34808 net.cpp:454] conv2/relu_3x3 <- conv2/3x3
I0718 14:37:59.120407 34808 net.cpp:397] conv2/relu_3x3 -> conv2/3x3 (in-place)
I0718 14:37:59.120658 34808 net.cpp:150] Setting up conv2/relu_3x3
I0718 14:37:59.120692 34808 net.cpp:157] Top shape: 6 192 250 250 (72000000)
I0718 14:37:59.120702 34808 net.cpp:165] Memory required for data: 1800000072
I0718 14:37:59.120714 34808 layer_factory.hpp:76] Creating layer conv2/norm2
I0718 14:37:59.120728 34808 net.cpp:106] Creating Layer conv2/norm2
I0718 14:37:59.120738 34808 net.cpp:454] conv2/norm2 <- conv2/3x3
I0718 14:37:59.120750 34808 net.cpp:411] conv2/norm2 -> conv2/norm2
I0718 14:37:59.121330 34808 net.cpp:150] Setting up conv2/norm2
I0718 14:37:59.121363 34808 net.cpp:157] Top shape: 6 192 250 250 (72000000)
I0718 14:37:59.121397 34808 net.cpp:165] Memory required for data: 2088000072
I0718 14:37:59.121407 34808 layer_factory.hpp:76] Creating layer pool2/3x3_s2
I0718 14:37:59.121423 34808 net.cpp:106] Creating Layer pool2/3x3_s2
I0718 14:37:59.121433 34808 net.cpp:454] pool2/3x3_s2 <- conv2/norm2
I0718 14:37:59.121446 34808 net.cpp:411] pool2/3x3_s2 -> pool2/3x3_s2
I0718 14:37:59.121752 34808 net.cpp:150] Setting up pool2/3x3_s2
I0718 14:37:59.121778 34808 net.cpp:157] Top shape: 6 192 125 125 (18000000)
I0718 14:37:59.121790 34808 net.cpp:165] Memory required for data: 2160000072
I0718 14:37:59.121804 34808 layer_factory.hpp:76] Creating layer pool2/3x3_s2_pool2/3x3_s2_0_split
I0718 14:37:59.121820 34808 net.cpp:106] Creating Layer pool2/3x3_s2_pool2/3x3_s2_0_split
I0718 14:37:59.121831 34808 net.cpp:454] pool2/3x3_s2_pool2/3x3_s2_0_split <- pool2/3x3_s2
I0718 14:37:59.121845 34808 net.cpp:411] pool2/3x3_s2_pool2/3x3_s2_0_split -> pool2/3x3_s2_pool2/3x3_s2_0_split_0
I0718 14:37:59.121862 34808 net.cpp:411] pool2/3x3_s2_pool2/3x3_s2_0_split -> pool2/3x3_s2_pool2/3x3_s2_0_split_1
I0718 14:37:59.121876 34808 net.cpp:411] pool2/3x3_s2_pool2/3x3_s2_0_split -> pool2/3x3_s2_pool2/3x3_s2_0_split_2
I0718 14:37:59.121888 34808 net.cpp:411] pool2/3x3_s2_pool2/3x3_s2_0_split -> pool2/3x3_s2_pool2/3x3_s2_0_split_3
I0718 14:37:59.121978 34808 net.cpp:150] Setting up pool2/3x3_s2_pool2/3x3_s2_0_split
I0718 14:37:59.121997 34808 net.cpp:157] Top shape: 6 192 125 125 (18000000)
I0718 14:37:59.122011 34808 net.cpp:157] Top shape: 6 192 125 125 (18000000)
I0718 14:37:59.122023 34808 net.cpp:157] Top shape: 6 192 125 125 (18000000)
I0718 14:37:59.122035 34808 net.cpp:157] Top shape: 6 192 125 125 (18000000)
I0718 14:37:59.122043 34808 net.cpp:165] Memory required for data: 2448000072
I0718 14:37:59.122056 34808 layer_factory.hpp:76] Creating layer inception_3a/1x1
I0718 14:37:59.122076 34808 net.cpp:106] Creating Layer inception_3a/1x1
I0718 14:37:59.122090 34808 net.cpp:454] inception_3a/1x1 <- pool2/3x3_s2_pool2/3x3_s2_0_split_0
I0718 14:37:59.122108 34808 net.cpp:411] inception_3a/1x1 -> inception_3a/1x1
I0718 14:37:59.123778 34808 cudnn_conv_layer.cpp:194] Reallocating workspace storage: 2304
I0718 14:37:59.124145 34808 net.cpp:150] Setting up inception_3a/1x1
I0718 14:37:59.124174 34808 net.cpp:157] Top shape: 6 64 125 125 (6000000)
I0718 14:37:59.124186 34808 net.cpp:165] Memory required for data: 2472000072
I0718 14:37:59.124204 34808 layer_factory.hpp:76] Creating layer inception_3a/relu_1x1
I0718 14:37:59.124222 34808 net.cpp:106] Creating Layer inception_3a/relu_1x1
I0718 14:37:59.124234 34808 net.cpp:454] inception_3a/relu_1x1 <- inception_3a/1x1
I0718 14:37:59.124245 34808 net.cpp:397] inception_3a/relu_1x1 -> inception_3a/1x1 (in-place)
I0718 14:37:59.124851 34808 net.cpp:150] Setting up inception_3a/relu_1x1
I0718 14:37:59.124892 34808 net.cpp:157] Top shape: 6 64 125 125 (6000000)
I0718 14:37:59.124904 34808 net.cpp:165] Memory required for data: 2496000072
I0718 14:37:59.124917 34808 layer_factory.hpp:76] Creating layer inception_3a/3x3_reduce
I0718 14:37:59.124934 34808 net.cpp:106] Creating Layer inception_3a/3x3_reduce
I0718 14:37:59.124946 34808 net.cpp:454] inception_3a/3x3_reduce <- pool2/3x3_s2_pool2/3x3_s2_0_split_1
I0718 14:37:59.124963 34808 net.cpp:411] inception_3a/3x3_reduce -> inception_3a/3x3_reduce
I0718 14:37:59.126462 34808 cudnn_conv_layer.cpp:194] Reallocating workspace storage: 2304
I0718 14:37:59.126518 34808 net.cpp:150] Setting up inception_3a/3x3_reduce
I0718 14:37:59.126535 34808 net.cpp:157] Top shape: 6 96 125 125 (9000000)
I0718 14:37:59.126548 34808 net.cpp:165] Memory required for data: 2532000072
I0718 14:37:59.126569 34808 layer_factory.hpp:76] Creating layer inception_3a/relu_3x3_reduce
I0718 14:37:59.126585 34808 net.cpp:106] Creating Layer inception_3a/relu_3x3_reduce
I0718 14:37:59.126597 34808 net.cpp:454] inception_3a/relu_3x3_reduce <- inception_3a/3x3_reduce
I0718 14:37:59.126613 34808 net.cpp:397] inception_3a/relu_3x3_reduce -> inception_3a/3x3_reduce (in-place)
I0718 14:37:59.127239 34808 net.cpp:150] Setting up inception_3a/relu_3x3_reduce
I0718 14:37:59.127274 34808 net.cpp:157] Top shape: 6 96 125 125 (9000000)
I0718 14:37:59.127282 34808 net.cpp:165] Memory required for data: 2568000072
I0718 14:37:59.127293 34808 layer_factory.hpp:76] Creating layer inception_3a/3x3
I0718 14:37:59.127315 34808 net.cpp:106] Creating Layer inception_3a/3x3
I0718 14:37:59.127327 34808 net.cpp:454] inception_3a/3x3 <- inception_3a/3x3_reduce
I0718 14:37:59.127346 34808 net.cpp:411] inception_3a/3x3 -> inception_3a/3x3
I0718 14:37:59.129904 34808 cudnn_conv_layer.cpp:194] Reallocating workspace storage: 10368
I0718 14:37:59.129961 34808 net.cpp:150] Setting up inception_3a/3x3
I0718 14:37:59.129986 34808 net.cpp:157] Top shape: 6 128 125 125 (12000000)
I0718 14:37:59.129999 34808 net.cpp:165] Memory required for data: 2616000072
I0718 14:37:59.130017 34808 layer_factory.hpp:76] Creating layer inception_3a/relu_3x3
I0718 14:37:59.130030 34808 net.cpp:106] Creating Layer inception_3a/relu_3x3
I0718 14:37:59.130043 34808 net.cpp:454] inception_3a/relu_3x3 <- inception_3a/3x3
I0718 14:37:59.130058 34808 net.cpp:397] inception_3a/relu_3x3 -> inception_3a/3x3 (in-place)
I0718 14:37:59.130331 34808 net.cpp:150] Setting up inception_3a/relu_3x3
I0718 14:37:59.130365 34808 net.cpp:157] Top shape: 6 128 125 125 (12000000)
I0718 14:37:59.130378 34808 net.cpp:165] Memory required for data: 2664000072
I0718 14:37:59.130389 34808 layer_factory.hpp:76] Creating layer inception_3a/5x5_reduce
I0718 14:37:59.130409 34808 net.cpp:106] Creating Layer inception_3a/5x5_reduce
I0718 14:37:59.130421 34808 net.cpp:454] inception_3a/5x5_reduce <- pool2/3x3_s2_pool2/3x3_s2_0_split_2
I0718 14:37:59.130434 34808 net.cpp:411] inception_3a/5x5_reduce -> inception_3a/5x5_reduce
I0718 14:37:59.132382 34808 net.cpp:150] Setting up inception_3a/5x5_reduce
I0718 14:37:59.132418 34808 net.cpp:157] Top shape: 6 16 125 125 (1500000)
I0718 14:37:59.132431 34808 net.cpp:165] Memory required for data: 2670000072
I0718 14:37:59.132443 34808 layer_factory.hpp:76] Creating layer inception_3a/relu_5x5_reduce
I0718 14:37:59.132458 34808 net.cpp:106] Creating Layer inception_3a/relu_5x5_reduce
I0718 14:37:59.132467 34808 net.cpp:454] inception_3a/relu_5x5_reduce <- inception_3a/5x5_reduce
I0718 14:37:59.132483 34808 net.cpp:397] inception_3a/relu_5x5_reduce -> inception_3a/5x5_reduce (in-place)
I0718 14:37:59.133100 34808 net.cpp:150] Setting up inception_3a/relu_5x5_reduce
I0718 14:37:59.133137 34808 net.cpp:157] Top shape: 6 16 125 125 (1500000)
I0718 14:37:59.133152 34808 net.cpp:165] Memory required for data: 2676000072
I0718 14:37:59.133163 34808 layer_factory.hpp:76] Creating layer inception_3a/5x5
I0718 14:37:59.133184 34808 net.cpp:106] Creating Layer inception_3a/5x5
I0718 14:37:59.133198 34808 net.cpp:454] inception_3a/5x5 <- inception_3a/5x5_reduce
I0718 14:37:59.133219 34808 net.cpp:411] inception_3a/5x5 -> inception_3a/5x5
I0718 14:37:59.134713 34808 cudnn_conv_layer.cpp:194] Reallocating workspace storage: 4800
I0718 14:37:59.134788 34808 net.cpp:150] Setting up inception_3a/5x5
I0718 14:37:59.134805 34808 net.cpp:157] Top shape: 6 32 125 125 (3000000)
I0718 14:37:59.134817 34808 net.cpp:165] Memory required for data: 2688000072
I0718 14:37:59.134835 34808 layer_factory.hpp:76] Creating layer inception_3a/relu_5x5
I0718 14:37:59.134853 34808 net.cpp:106] Creating Layer inception_3a/relu_5x5
I0718 14:37:59.134867 34808 net.cpp:454] inception_3a/relu_5x5 <- inception_3a/5x5
I0718 14:37:59.134882 34808 net.cpp:397] inception_3a/relu_5x5 -> inception_3a/5x5 (in-place)
I0718 14:37:59.135499 34808 net.cpp:150] Setting up inception_3a/relu_5x5
I0718 14:37:59.135543 34808 net.cpp:157] Top shape: 6 32 125 125 (3000000)
I0718 14:37:59.135555 34808 net.cpp:165] Memory required for data: 2700000072
I0718 14:37:59.135568 34808 layer_factory.hpp:76] Creating layer inception_3a/pool
I0718 14:37:59.135583 34808 net.cpp:106] Creating Layer inception_3a/pool
I0718 14:37:59.135594 34808 net.cpp:454] inception_3a/pool <- pool2/3x3_s2_pool2/3x3_s2_0_split_3
I0718 14:37:59.135632 34808 net.cpp:411] inception_3a/pool -> inception_3a/pool
I0718 14:37:59.135906 34808 net.cpp:150] Setting up inception_3a/pool
I0718 14:37:59.135931 34808 net.cpp:157] Top shape: 6 192 125 125 (18000000)
I0718 14:37:59.135943 34808 net.cpp:165] Memory required for data: 2772000072
I0718 14:37:59.135956 34808 layer_factory.hpp:76] Creating layer inception_3a/pool_proj
I0718 14:37:59.135977 34808 net.cpp:106] Creating Layer inception_3a/pool_proj
I0718 14:37:59.135987 34808 net.cpp:454] inception_3a/pool_proj <- inception_3a/pool
I0718 14:37:59.136008 34808 net.cpp:411] inception_3a/pool_proj -> inception_3a/pool_proj
I0718 14:37:59.137600 34808 net.cpp:150] Setting up inception_3a/pool_proj
I0718 14:37:59.137627 34808 net.cpp:157] Top shape: 6 32 125 125 (3000000)
I0718 14:37:59.137636 34808 net.cpp:165] Memory required for data: 2784000072
I0718 14:37:59.137665 34808 layer_factory.hpp:76] Creating layer inception_3a/relu_pool_proj
I0718 14:37:59.137676 34808 net.cpp:106] Creating Layer inception_3a/relu_pool_proj
I0718 14:37:59.137689 34808 net.cpp:454] inception_3a/relu_pool_proj <- inception_3a/pool_proj
I0718 14:37:59.137706 34808 net.cpp:397] inception_3a/relu_pool_proj -> inception_3a/pool_proj (in-place)
I0718 14:37:59.138202 34808 net.cpp:150] Setting up inception_3a/relu_pool_proj
I0718 14:37:59.138228 34808 net.cpp:157] Top shape: 6 32 125 125 (3000000)
I0718 14:37:59.138236 34808 net.cpp:165] Memory required for data: 2796000072
I0718 14:37:59.138249 34808 layer_factory.hpp:76] Creating layer inception_3a/output
I0718 14:37:59.138270 34808 net.cpp:106] Creating Layer inception_3a/output
I0718 14:37:59.138278 34808 net.cpp:454] inception_3a/output <- inception_3a/1x1
I0718 14:37:59.138293 34808 net.cpp:454] inception_3a/output <- inception_3a/3x3
I0718 14:37:59.138306 34808 net.cpp:454] inception_3a/output <- inception_3a/5x5
I0718 14:37:59.138316 34808 net.cpp:454] inception_3a/output <- inception_3a/pool_proj
I0718 14:37:59.138331 34808 net.cpp:411] inception_3a/output -> inception_3a/output
I0718 14:37:59.138375 34808 net.cpp:150] Setting up inception_3a/output
I0718 14:37:59.138391 34808 net.cpp:157] Top shape: 6 256 125 125 (24000000)
I0718 14:37:59.138399 34808 net.cpp:165] Memory required for data: 2892000072
I0718 14:37:59.138409 34808 layer_factory.hpp:76] Creating layer inception_3a/output_inception_3a/output_0_split
I0718 14:37:59.138430 34808 net.cpp:106] Creating Layer inception_3a/output_inception_3a/output_0_split
I0718 14:37:59.138442 34808 net.cpp:454] inception_3a/output_inception_3a/output_0_split <- inception_3a/output
I0718 14:37:59.138456 34808 net.cpp:411] inception_3a/output_inception_3a/output_0_split -> inception_3a/output_inception_3a/output_0_split_0
I0718 14:37:59.138474 34808 net.cpp:411] inception_3a/output_inception_3a/output_0_split -> inception_3a/output_inception_3a/output_0_split_1
I0718 14:37:59.138491 34808 net.cpp:411] inception_3a/output_inception_3a/output_0_split -> inception_3a/output_inception_3a/output_0_split_2
I0718 14:37:59.138507 34808 net.cpp:411] inception_3a/output_inception_3a/output_0_split -> inception_3a/output_inception_3a/output_0_split_3
I0718 14:37:59.138602 34808 net.cpp:150] Setting up inception_3a/output_inception_3a/output_0_split
I0718 14:37:59.138622 34808 net.cpp:157] Top shape: 6 256 125 125 (24000000)
I0718 14:37:59.138649 34808 net.cpp:157] Top shape: 6 256 125 125 (24000000)
I0718 14:37:59.138664 34808 net.cpp:157] Top shape: 6 256 125 125 (24000000)
I0718 14:37:59.138677 34808 net.cpp:157] Top shape: 6 256 125 125 (24000000)
I0718 14:37:59.138687 34808 net.cpp:165] Memory required for data: 3276000072
I0718 14:37:59.138700 34808 layer_factory.hpp:76] Creating layer inception_3b/1x1
I0718 14:37:59.138734 34808 net.cpp:106] Creating Layer inception_3b/1x1
I0718 14:37:59.138748 34808 net.cpp:454] inception_3b/1x1 <- inception_3a/output_inception_3a/output_0_split_0
I0718 14:37:59.138763 34808 net.cpp:411] inception_3b/1x1 -> inception_3b/1x1
I0718 14:37:59.140563 34808 cudnn_conv_layer.cpp:194] Reallocating workspace storage: 3072
I0718 14:37:59.140632 34808 net.cpp:150] Setting up inception_3b/1x1
I0718 14:37:59.140650 34808 net.cpp:157] Top shape: 6 128 125 125 (12000000)
I0718 14:37:59.140660 34808 net.cpp:165] Memory required for data: 3324000072
I0718 14:37:59.140674 34808 layer_factory.hpp:76] Creating layer inception_3b/relu_1x1
I0718 14:37:59.140686 34808 net.cpp:106] Creating Layer inception_3b/relu_1x1
I0718 14:37:59.140697 34808 net.cpp:454] inception_3b/relu_1x1 <- inception_3b/1x1
I0718 14:37:59.140713 34808 net.cpp:397] inception_3b/relu_1x1 -> inception_3b/1x1 (in-place)
I0718 14:37:59.140956 34808 net.cpp:150] Setting up inception_3b/relu_1x1
I0718 14:37:59.140981 34808 net.cpp:157] Top shape: 6 128 125 125 (12000000)
I0718 14:37:59.140995 34808 net.cpp:165] Memory required for data: 3372000072
I0718 14:37:59.141007 34808 layer_factory.hpp:76] Creating layer inception_3b/3x3_reduce
I0718 14:37:59.141023 34808 net.cpp:106] Creating Layer inception_3b/3x3_reduce
I0718 14:37:59.141034 34808 net.cpp:454] inception_3b/3x3_reduce <- inception_3a/output_inception_3a/output_0_split_1
I0718 14:37:59.141053 34808 net.cpp:411] inception_3b/3x3_reduce -> inception_3b/3x3_reduce
I0718 14:37:59.143038 34808 cudnn_conv_layer.cpp:194] Reallocating workspace storage: 3072
I0718 14:37:59.143079 34808 net.cpp:150] Setting up inception_3b/3x3_reduce
I0718 14:37:59.143098 34808 net.cpp:157] Top shape: 6 128 125 125 (12000000)
I0718 14:37:59.143108 34808 net.cpp:165] Memory required for data: 3420000072
I0718 14:37:59.143121 34808 layer_factory.hpp:76] Creating layer inception_3b/relu_3x3_reduce
I0718 14:37:59.143136 34808 net.cpp:106] Creating Layer inception_3b/relu_3x3_reduce
I0718 14:37:59.143149 34808 net.cpp:454] inception_3b/relu_3x3_reduce <- inception_3b/3x3_reduce
I0718 14:37:59.143167 34808 net.cpp:397] inception_3b/relu_3x3_reduce -> inception_3b/3x3_reduce (in-place)
I0718 14:37:59.143429 34808 net.cpp:150] Setting up inception_3b/relu_3x3_reduce
I0718 14:37:59.143468 34808 net.cpp:157] Top shape: 6 128 125 125 (12000000)
I0718 14:37:59.143493 34808 net.cpp:165] Memory required for data: 3468000072
I0718 14:37:59.143506 34808 layer_factory.hpp:76] Creating layer inception_3b/3x3
I0718 14:37:59.143530 34808 net.cpp:106] Creating Layer inception_3b/3x3
I0718 14:37:59.143538 34808 net.cpp:454] inception_3b/3x3 <- inception_3b/3x3_reduce
I0718 14:37:59.143560 34808 net.cpp:411] inception_3b/3x3 -> inception_3b/3x3
I0718 14:37:59.147647 34808 cudnn_conv_layer.cpp:194] Reallocating workspace storage: 13824
I0718 14:37:59.147683 34808 net.cpp:150] Setting up inception_3b/3x3
I0718 14:37:59.147699 34808 net.cpp:157] Top shape: 6 192 125 125 (18000000)
I0718 14:37:59.147707 34808 net.cpp:165] Memory required for data: 3540000072
I0718 14:37:59.147718 34808 layer_factory.hpp:76] Creating layer inception_3b/relu_3x3
I0718 14:37:59.147729 34808 net.cpp:106] Creating Layer inception_3b/relu_3x3
I0718 14:37:59.147737 34808 net.cpp:454] inception_3b/relu_3x3 <- inception_3b/3x3
I0718 14:37:59.147747 34808 net.cpp:397] inception_3b/relu_3x3 -> inception_3b/3x3 (in-place)
I0718 14:37:59.148252 34808 net.cpp:150] Setting up inception_3b/relu_3x3
I0718 14:37:59.148288 34808 net.cpp:157] Top shape: 6 192 125 125 (18000000)
I0718 14:37:59.148301 34808 net.cpp:165] Memory required for data: 3612000072
I0718 14:37:59.148313 34808 layer_factory.hpp:76] Creating layer inception_3b/5x5_reduce
I0718 14:37:59.148332 34808 net.cpp:106] Creating Layer inception_3b/5x5_reduce
I0718 14:37:59.148346 34808 net.cpp:454] inception_3b/5x5_reduce <- inception_3a/output_inception_3a/output_0_split_2
I0718 14:37:59.148360 34808 net.cpp:411] inception_3b/5x5_reduce -> inception_3b/5x5_reduce
I0718 14:37:59.149971 34808 net.cpp:150] Setting up inception_3b/5x5_reduce
I0718 14:37:59.150010 34808 net.cpp:157] Top shape: 6 32 125 125 (3000000)
I0718 14:37:59.150022 34808 net.cpp:165] Memory required for data: 3624000072
I0718 14:37:59.150038 34808 layer_factory.hpp:76] Creating layer inception_3b/relu_5x5_reduce
I0718 14:37:59.150055 34808 net.cpp:106] Creating Layer inception_3b/relu_5x5_reduce
I0718 14:37:59.150085 34808 net.cpp:454] inception_3b/relu_5x5_reduce <- inception_3b/5x5_reduce
I0718 14:37:59.150099 34808 net.cpp:397] inception_3b/relu_5x5_reduce -> inception_3b/5x5_reduce (in-place)
I0718 14:37:59.150334 34808 net.cpp:150] Setting up inception_3b/relu_5x5_reduce
I0718 14:37:59.150354 34808 net.cpp:157] Top shape: 6 32 125 125 (3000000)
I0718 14:37:59.150367 34808 net.cpp:165] Memory required for data: 3636000072
I0718 14:37:59.150374 34808 layer_factory.hpp:76] Creating layer inception_3b/5x5
I0718 14:37:59.150394 34808 net.cpp:106] Creating Layer inception_3b/5x5
I0718 14:37:59.150408 34808 net.cpp:454] inception_3b/5x5 <- inception_3b/5x5_reduce
I0718 14:37:59.150423 34808 net.cpp:411] inception_3b/5x5 -> inception_3b/5x5
I0718 14:37:59.153508 34808 net.cpp:150] Setting up inception_3b/5x5
I0718 14:37:59.153538 34808 net.cpp:157] Top shape: 6 96 125 125 (9000000)
I0718 14:37:59.153550 34808 net.cpp:165] Memory required for data: 3672000072
I0718 14:37:59.153566 34808 layer_factory.hpp:76] Creating layer inception_3b/relu_5x5
I0718 14:37:59.153587 34808 net.cpp:106] Creating Layer inception_3b/relu_5x5
I0718 14:37:59.153599 34808 net.cpp:454] inception_3b/relu_5x5 <- inception_3b/5x5
I0718 14:37:59.153614 34808 net.cpp:397] inception_3b/relu_5x5 -> inception_3b/5x5 (in-place)
I0718 14:37:59.153861 34808 net.cpp:150] Setting up inception_3b/relu_5x5
I0718 14:37:59.153883 34808 net.cpp:157] Top shape: 6 96 125 125 (9000000)
I0718 14:37:59.153892 34808 net.cpp:165] Memory required for data: 3708000072
I0718 14:37:59.153903 34808 layer_factory.hpp:76] Creating layer inception_3b/pool
I0718 14:37:59.153918 34808 net.cpp:106] Creating Layer inception_3b/pool
I0718 14:37:59.153931 34808 net.cpp:454] inception_3b/pool <- inception_3a/output_inception_3a/output_0_split_3
I0718 14:37:59.153946 34808 net.cpp:411] inception_3b/pool -> inception_3b/pool
I0718 14:37:59.154536 34808 net.cpp:150] Setting up inception_3b/pool
I0718 14:37:59.154557 34808 net.cpp:157] Top shape: 6 256 125 125 (24000000)
I0718 14:37:59.154567 34808 net.cpp:165] Memory required for data: 3804000072
I0718 14:37:59.154577 34808 layer_factory.hpp:76] Creating layer inception_3b/pool_proj
I0718 14:37:59.154597 34808 net.cpp:106] Creating Layer inception_3b/pool_proj
I0718 14:37:59.154609 34808 net.cpp:454] inception_3b/pool_proj <- inception_3b/pool
I0718 14:37:59.154625 34808 net.cpp:411] inception_3b/pool_proj -> inception_3b/pool_proj
I0718 14:37:59.156743 34808 net.cpp:150] Setting up inception_3b/pool_proj
I0718 14:37:59.156769 34808 net.cpp:157] Top shape: 6 64 125 125 (6000000)
I0718 14:37:59.156781 34808 net.cpp:165] Memory required for data: 3828000072
I0718 14:37:59.156796 34808 layer_factory.hpp:76] Creating layer inception_3b/relu_pool_proj
I0718 14:37:59.156810 34808 net.cpp:106] Creating Layer inception_3b/relu_pool_proj
I0718 14:37:59.156821 34808 net.cpp:454] inception_3b/relu_pool_proj <- inception_3b/pool_proj
I0718 14:37:59.156836 34808 net.cpp:397] inception_3b/relu_pool_proj -> inception_3b/pool_proj (in-place)
I0718 14:37:59.157065 34808 net.cpp:150] Setting up inception_3b/relu_pool_proj
I0718 14:37:59.157086 34808 net.cpp:157] Top shape: 6 64 125 125 (6000000)
I0718 14:37:59.157095 34808 net.cpp:165] Memory required for data: 3852000072
I0718 14:37:59.157107 34808 layer_factory.hpp:76] Creating layer inception_3b/output
I0718 14:37:59.157126 34808 net.cpp:106] Creating Layer inception_3b/output
I0718 14:37:59.157136 34808 net.cpp:454] inception_3b/output <- inception_3b/1x1
I0718 14:37:59.157146 34808 net.cpp:454] inception_3b/output <- inception_3b/3x3
I0718 14:37:59.157158 34808 net.cpp:454] inception_3b/output <- inception_3b/5x5
I0718 14:37:59.157168 34808 net.cpp:454] inception_3b/output <- inception_3b/pool_proj
I0718 14:37:59.157181 34808 net.cpp:411] inception_3b/output -> inception_3b/output
I0718 14:37:59.157232 34808 net.cpp:150] Setting up inception_3b/output
I0718 14:37:59.157248 34808 net.cpp:157] Top shape: 6 480 125 125 (45000000)
I0718 14:37:59.157258 34808 net.cpp:165] Memory required for data: 4032000072
I0718 14:37:59.157284 34808 layer_factory.hpp:76] Creating layer pool3/3x3_s2
I0718 14:37:59.157301 34808 net.cpp:106] Creating Layer pool3/3x3_s2
I0718 14:37:59.157310 34808 net.cpp:454] pool3/3x3_s2 <- inception_3b/output
I0718 14:37:59.157326 34808 net.cpp:411] pool3/3x3_s2 -> pool3/3x3_s2
I0718 14:37:59.157858 34808 net.cpp:150] Setting up pool3/3x3_s2
I0718 14:37:59.157887 34808 net.cpp:157] Top shape: 6 480 62 62 (11070720)
I0718 14:37:59.157901 34808 net.cpp:165] Memory required for data: 4076282952
I0718 14:37:59.157912 34808 layer_factory.hpp:76] Creating layer pool3/3x3_s2_pool3/3x3_s2_0_split
I0718 14:37:59.157927 34808 net.cpp:106] Creating Layer pool3/3x3_s2_pool3/3x3_s2_0_split
I0718 14:37:59.157940 34808 net.cpp:454] pool3/3x3_s2_pool3/3x3_s2_0_split <- pool3/3x3_s2
I0718 14:37:59.157955 34808 net.cpp:411] pool3/3x3_s2_pool3/3x3_s2_0_split -> pool3/3x3_s2_pool3/3x3_s2_0_split_0
I0718 14:37:59.157971 34808 net.cpp:411] pool3/3x3_s2_pool3/3x3_s2_0_split -> pool3/3x3_s2_pool3/3x3_s2_0_split_1
I0718 14:37:59.157986 34808 net.cpp:411] pool3/3x3_s2_pool3/3x3_s2_0_split -> pool3/3x3_s2_pool3/3x3_s2_0_split_2
I0718 14:37:59.157997 34808 net.cpp:411] pool3/3x3_s2_pool3/3x3_s2_0_split -> pool3/3x3_s2_pool3/3x3_s2_0_split_3
I0718 14:37:59.158085 34808 net.cpp:150] Setting up pool3/3x3_s2_pool3/3x3_s2_0_split
I0718 14:37:59.158104 34808 net.cpp:157] Top shape: 6 480 62 62 (11070720)
I0718 14:37:59.158113 34808 net.cpp:157] Top shape: 6 480 62 62 (11070720)
I0718 14:37:59.158125 34808 net.cpp:157] Top shape: 6 480 62 62 (11070720)
I0718 14:37:59.158135 34808 net.cpp:157] Top shape: 6 480 62 62 (11070720)
I0718 14:37:59.158143 34808 net.cpp:165] Memory required for data: 4253414472
I0718 14:37:59.158156 34808 layer_factory.hpp:76] Creating layer inception_4a/1x1
I0718 14:37:59.158172 34808 net.cpp:106] Creating Layer inception_4a/1x1
I0718 14:37:59.158185 34808 net.cpp:454] inception_4a/1x1 <- pool3/3x3_s2_pool3/3x3_s2_0_split_0
I0718 14:37:59.158198 34808 net.cpp:411] inception_4a/1x1 -> inception_4a/1x1
I0718 14:37:59.160504 34808 cudnn_conv_layer.cpp:194] Reallocating workspace storage: 5760
I0718 14:37:59.160547 34808 net.cpp:150] Setting up inception_4a/1x1
I0718 14:37:59.160567 34808 net.cpp:157] Top shape: 6 192 62 62 (4428288)
I0718 14:37:59.160580 34808 net.cpp:165] Memory required for data: 4271127624
I0718 14:37:59.160591 34808 layer_factory.hpp:76] Creating layer inception_4a/relu_1x1
I0718 14:37:59.160611 34808 net.cpp:106] Creating Layer inception_4a/relu_1x1
I0718 14:37:59.160622 34808 net.cpp:454] inception_4a/relu_1x1 <- inception_4a/1x1
I0718 14:37:59.160635 34808 net.cpp:397] inception_4a/relu_1x1 -> inception_4a/1x1 (in-place)
I0718 14:37:59.160892 34808 net.cpp:150] Setting up inception_4a/relu_1x1
I0718 14:37:59.160917 34808 net.cpp:157] Top shape: 6 192 62 62 (4428288)
I0718 14:37:59.160925 34808 net.cpp:165] Memory required for data: 4288840776
I0718 14:37:59.160939 34808 layer_factory.hpp:76] Creating layer inception_4a/3x3_reduce
I0718 14:37:59.160960 34808 net.cpp:106] Creating Layer inception_4a/3x3_reduce
I0718 14:37:59.160972 34808 net.cpp:454] inception_4a/3x3_reduce <- pool3/3x3_s2_pool3/3x3_s2_0_split_1
I0718 14:37:59.160990 34808 net.cpp:411] inception_4a/3x3_reduce -> inception_4a/3x3_reduce
I0718 14:37:59.163063 34808 cudnn_conv_layer.cpp:194] Reallocating workspace storage: 5760
I0718 14:37:59.163111 34808 net.cpp:150] Setting up inception_4a/3x3_reduce
I0718 14:37:59.163131 34808 net.cpp:157] Top shape: 6 96 62 62 (2214144)
I0718 14:37:59.163142 34808 net.cpp:165] Memory required for data: 4297697352
I0718 14:37:59.163172 34808 layer_factory.hpp:76] Creating layer inception_4a/relu_3x3_reduce
I0718 14:37:59.163187 34808 net.cpp:106] Creating Layer inception_4a/relu_3x3_reduce
I0718 14:37:59.163197 34808 net.cpp:454] inception_4a/relu_3x3_reduce <- inception_4a/3x3_reduce
I0718 14:37:59.163213 34808 net.cpp:397] inception_4a/relu_3x3_reduce -> inception_4a/3x3_reduce (in-place)
I0718 14:37:59.163457 34808 net.cpp:150] Setting up inception_4a/relu_3x3_reduce
I0718 14:37:59.163493 34808 net.cpp:157] Top shape: 6 96 62 62 (2214144)
I0718 14:37:59.163507 34808 net.cpp:165] Memory required for data: 4306553928
I0718 14:37:59.163518 34808 layer_factory.hpp:76] Creating layer inception_4a/3x3
I0718 14:37:59.163538 34808 net.cpp:106] Creating Layer inception_4a/3x3
I0718 14:37:59.163549 34808 net.cpp:454] inception_4a/3x3 <- inception_4a/3x3_reduce
I0718 14:37:59.163564 34808 net.cpp:411] inception_4a/3x3 -> inception_4a/3x3
I0718 14:37:59.168045 34808 net.cpp:150] Setting up inception_4a/3x3
I0718 14:37:59.168079 34808 net.cpp:157] Top shape: 6 208 62 62 (4797312)
I0718 14:37:59.168088 34808 net.cpp:165] Memory required for data: 4325743176
I0718 14:37:59.168099 34808 layer_factory.hpp:76] Creating layer inception_4a/relu_3x3
I0718 14:37:59.168119 34808 net.cpp:106] Creating Layer inception_4a/relu_3x3
I0718 14:37:59.168131 34808 net.cpp:454] inception_4a/relu_3x3 <- inception_4a/3x3
I0718 14:37:59.168146 34808 net.cpp:397] inception_4a/relu_3x3 -> inception_4a/3x3 (in-place)
I0718 14:37:59.168774 34808 net.cpp:150] Setting up inception_4a/relu_3x3
I0718 14:37:59.168803 34808 net.cpp:157] Top shape: 6 208 62 62 (4797312)
I0718 14:37:59.168815 34808 net.cpp:165] Memory required for data: 4344932424
I0718 14:37:59.168828 34808 layer_factory.hpp:76] Creating layer inception_4a/5x5_reduce
I0718 14:37:59.168850 34808 net.cpp:106] Creating Layer inception_4a/5x5_reduce
I0718 14:37:59.168864 34808 net.cpp:454] inception_4a/5x5_reduce <- pool3/3x3_s2_pool3/3x3_s2_0_split_2
I0718 14:37:59.168884 34808 net.cpp:411] inception_4a/5x5_reduce -> inception_4a/5x5_reduce
I0718 14:37:59.170716 34808 cudnn_conv_layer.cpp:194] Reallocating workspace storage: 5760
I0718 14:37:59.170800 34808 net.cpp:150] Setting up inception_4a/5x5_reduce
I0718 14:37:59.170820 34808 net.cpp:157] Top shape: 6 16 62 62 (369024)
I0718 14:37:59.170835 34808 net.cpp:165] Memory required for data: 4346408520
I0718 14:37:59.170850 34808 layer_factory.hpp:76] Creating layer inception_4a/relu_5x5_reduce
I0718 14:37:59.170866 34808 net.cpp:106] Creating Layer inception_4a/relu_5x5_reduce
I0718 14:37:59.170881 34808 net.cpp:454] inception_4a/relu_5x5_reduce <- inception_4a/5x5_reduce
I0718 14:37:59.170899 34808 net.cpp:397] inception_4a/relu_5x5_reduce -> inception_4a/5x5_reduce (in-place)
I0718 14:37:59.171241 34808 net.cpp:150] Setting up inception_4a/relu_5x5_reduce
I0718 14:37:59.171269 34808 net.cpp:157] Top shape: 6 16 62 62 (369024)
I0718 14:37:59.171284 34808 net.cpp:165] Memory required for data: 4347884616
I0718 14:37:59.171299 34808 layer_factory.hpp:76] Creating layer inception_4a/5x5
I0718 14:37:59.171325 34808 net.cpp:106] Creating Layer inception_4a/5x5
I0718 14:37:59.171342 34808 net.cpp:454] inception_4a/5x5 <- inception_4a/5x5_reduce
I0718 14:37:59.171365 34808 net.cpp:411] inception_4a/5x5 -> inception_4a/5x5
I0718 14:37:59.174111 34808 net.cpp:150] Setting up inception_4a/5x5
I0718 14:37:59.174160 34808 net.cpp:157] Top shape: 6 48 62 62 (1107072)
I0718 14:37:59.174175 34808 net.cpp:165] Memory required for data: 4352312904
I0718 14:37:59.174196 34808 layer_factory.hpp:76] Creating layer inception_4a/relu_5x5
I0718 14:37:59.174217 34808 net.cpp:106] Creating Layer inception_4a/relu_5x5
I0718 14:37:59.174232 34808 net.cpp:454] inception_4a/relu_5x5 <- inception_4a/5x5
I0718 14:37:59.174247 34808 net.cpp:397] inception_4a/relu_5x5 -> inception_4a/5x5 (in-place)
I0718 14:37:59.174602 34808 net.cpp:150] Setting up inception_4a/relu_5x5
I0718 14:37:59.174654 34808 net.cpp:157] Top shape: 6 48 62 62 (1107072)
I0718 14:37:59.174667 34808 net.cpp:165] Memory required for data: 4356741192
I0718 14:37:59.174687 34808 layer_factory.hpp:76] Creating layer inception_4a/pool
I0718 14:37:59.174703 34808 net.cpp:106] Creating Layer inception_4a/pool
I0718 14:37:59.174721 34808 net.cpp:454] inception_4a/pool <- pool3/3x3_s2_pool3/3x3_s2_0_split_3
I0718 14:37:59.174758 34808 net.cpp:411] inception_4a/pool -> inception_4a/pool
I0718 14:37:59.175384 34808 net.cpp:150] Setting up inception_4a/pool
I0718 14:37:59.175416 34808 net.cpp:157] Top shape: 6 480 62 62 (11070720)
I0718 14:37:59.175456 34808 net.cpp:165] Memory required for data: 4401024072
I0718 14:37:59.175468 34808 layer_factory.hpp:76] Creating layer inception_4a/pool_proj
I0718 14:37:59.175493 34808 net.cpp:106] Creating Layer inception_4a/pool_proj
I0718 14:37:59.175516 34808 net.cpp:454] inception_4a/pool_proj <- inception_4a/pool
I0718 14:37:59.175529 34808 net.cpp:411] inception_4a/pool_proj -> inception_4a/pool_proj
I0718 14:37:59.177685 34808 net.cpp:150] Setting up inception_4a/pool_proj
I0718 14:37:59.177729 34808 net.cpp:157] Top shape: 6 64 62 62 (1476096)
I0718 14:37:59.177755 34808 net.cpp:165] Memory required for data: 4406928456
I0718 14:37:59.177772 34808 layer_factory.hpp:76] Creating layer inception_4a/relu_pool_proj
I0718 14:37:59.177793 34808 net.cpp:106] Creating Layer inception_4a/relu_pool_proj
I0718 14:37:59.177808 34808 net.cpp:454] inception_4a/relu_pool_proj <- inception_4a/pool_proj
I0718 14:37:59.177821 34808 net.cpp:397] inception_4a/relu_pool_proj -> inception_4a/pool_proj (in-place)
I0718 14:37:59.178104 34808 net.cpp:150] Setting up inception_4a/relu_pool_proj
I0718 14:37:59.178153 34808 net.cpp:157] Top shape: 6 64 62 62 (1476096)
I0718 14:37:59.178163 34808 net.cpp:165] Memory required for data: 4412832840
I0718 14:37:59.178177 34808 layer_factory.hpp:76] Creating layer inception_4a/output
I0718 14:37:59.178202 34808 net.cpp:106] Creating Layer inception_4a/output
I0718 14:37:59.178212 34808 net.cpp:454] inception_4a/output <- inception_4a/1x1
I0718 14:37:59.178226 34808 net.cpp:454] inception_4a/output <- inception_4a/3x3
I0718 14:37:59.178237 34808 net.cpp:454] inception_4a/output <- inception_4a/5x5
I0718 14:37:59.178248 34808 net.cpp:454] inception_4a/output <- inception_4a/pool_proj
I0718 14:37:59.178266 34808 net.cpp:411] inception_4a/output -> inception_4a/output
I0718 14:37:59.178318 34808 net.cpp:150] Setting up inception_4a/output
I0718 14:37:59.178336 34808 net.cpp:157] Top shape: 6 512 62 62 (11808768)
I0718 14:37:59.178349 34808 net.cpp:165] Memory required for data: 4460067912
I0718 14:37:59.178359 34808 layer_factory.hpp:76] Creating layer inception_4a/output_inception_4a/output_0_split
I0718 14:37:59.178375 34808 net.cpp:106] Creating Layer inception_4a/output_inception_4a/output_0_split
I0718 14:37:59.178386 34808 net.cpp:454] inception_4a/output_inception_4a/output_0_split <- inception_4a/output
I0718 14:37:59.178400 34808 net.cpp:411] inception_4a/output_inception_4a/output_0_split -> inception_4a/output_inception_4a/output_0_split_0
I0718 14:37:59.178417 34808 net.cpp:411] inception_4a/output_inception_4a/output_0_split -> inception_4a/output_inception_4a/output_0_split_1
I0718 14:37:59.178433 34808 net.cpp:411] inception_4a/output_inception_4a/output_0_split -> inception_4a/output_inception_4a/output_0_split_2
I0718 14:37:59.178449 34808 net.cpp:411] inception_4a/output_inception_4a/output_0_split -> inception_4a/output_inception_4a/output_0_split_3
I0718 14:37:59.178547 34808 net.cpp:150] Setting up inception_4a/output_inception_4a/output_0_split
I0718 14:37:59.178567 34808 net.cpp:157] Top shape: 6 512 62 62 (11808768)
I0718 14:37:59.178578 34808 net.cpp:157] Top shape: 6 512 62 62 (11808768)
I0718 14:37:59.178588 34808 net.cpp:157] Top shape: 6 512 62 62 (11808768)
I0718 14:37:59.178601 34808 net.cpp:157] Top shape: 6 512 62 62 (11808768)
I0718 14:37:59.178611 34808 net.cpp:165] Memory required for data: 4649008200
I0718 14:37:59.178623 34808 layer_factory.hpp:76] Creating layer inception_4b/1x1
I0718 14:37:59.178656 34808 net.cpp:106] Creating Layer inception_4b/1x1
I0718 14:37:59.178666 34808 net.cpp:454] inception_4b/1x1 <- inception_4a/output_inception_4a/output_0_split_0
I0718 14:37:59.178678 34808 net.cpp:411] inception_4b/1x1 -> inception_4b/1x1
I0718 14:37:59.182415 34808 net.cpp:150] Setting up inception_4b/1x1
I0718 14:37:59.182446 34808 net.cpp:157] Top shape: 6 160 62 62 (3690240)
I0718 14:37:59.182458 34808 net.cpp:165] Memory required for data: 4663769160
I0718 14:37:59.182471 34808 layer_factory.hpp:76] Creating layer inception_4b/relu_1x1
I0718 14:37:59.182524 34808 net.cpp:106] Creating Layer inception_4b/relu_1x1
I0718 14:37:59.182541 34808 net.cpp:454] inception_4b/relu_1x1 <- inception_4b/1x1
I0718 14:37:59.182564 34808 net.cpp:397] inception_4b/relu_1x1 -> inception_4b/1x1 (in-place)
I0718 14:37:59.183275 34808 net.cpp:150] Setting up inception_4b/relu_1x1
I0718 14:37:59.183317 34808 net.cpp:157] Top shape: 6 160 62 62 (3690240)
I0718 14:37:59.183332 34808 net.cpp:165] Memory required for data: 4678530120
I0718 14:37:59.183346 34808 layer_factory.hpp:76] Creating layer inception_4b/3x3_reduce
I0718 14:37:59.183372 34808 net.cpp:106] Creating Layer inception_4b/3x3_reduce
I0718 14:37:59.183387 34808 net.cpp:454] inception_4b/3x3_reduce <- inception_4a/output_inception_4a/output_0_split_1
I0718 14:37:59.183410 34808 net.cpp:411] inception_4b/3x3_reduce -> inception_4b/3x3_reduce
I0718 14:37:59.185235 34808 cudnn_conv_layer.cpp:194] Reallocating workspace storage: 6144
I0718 14:37:59.185283 34808 net.cpp:150] Setting up inception_4b/3x3_reduce
I0718 14:37:59.185303 34808 net.cpp:157] Top shape: 6 112 62 62 (2583168)
I0718 14:37:59.185312 34808 net.cpp:165] Memory required for data: 4688862792
I0718 14:37:59.185325 34808 layer_factory.hpp:76] Creating layer inception_4b/relu_3x3_reduce
I0718 14:37:59.185338 34808 net.cpp:106] Creating Layer inception_4b/relu_3x3_reduce
I0718 14:37:59.185350 34808 net.cpp:454] inception_4b/relu_3x3_reduce <- inception_4b/3x3_reduce
I0718 14:37:59.185365 34808 net.cpp:397] inception_4b/relu_3x3_reduce -> inception_4b/3x3_reduce (in-place)
I0718 14:37:59.185958 34808 net.cpp:150] Setting up inception_4b/relu_3x3_reduce
I0718 14:37:59.185995 34808 net.cpp:157] Top shape: 6 112 62 62 (2583168)
I0718 14:37:59.186008 34808 net.cpp:165] Memory required for data: 4699195464
I0718 14:37:59.186020 34808 layer_factory.hpp:76] Creating layer inception_4b/3x3
I0718 14:37:59.186034 34808 net.cpp:106] Creating Layer inception_4b/3x3
I0718 14:37:59.186044 34808 net.cpp:454] inception_4b/3x3 <- inception_4b/3x3_reduce
I0718 14:37:59.186060 34808 net.cpp:411] inception_4b/3x3 -> inception_4b/3x3
I0718 14:37:59.190939 34808 cudnn_conv_layer.cpp:194] Reallocating workspace storage: 12096
I0718 14:37:59.190990 34808 net.cpp:150] Setting up inception_4b/3x3
I0718 14:37:59.191009 34808 net.cpp:157] Top shape: 6 224 62 62 (5166336)
I0718 14:37:59.191016 34808 net.cpp:165] Memory required for data: 4719860808
I0718 14:37:59.191027 34808 layer_factory.hpp:76] Creating layer inception_4b/relu_3x3
I0718 14:37:59.191051 34808 net.cpp:106] Creating Layer inception_4b/relu_3x3
I0718 14:37:59.191076 34808 net.cpp:454] inception_4b/relu_3x3 <- inception_4b/3x3
I0718 14:37:59.191097 34808 net.cpp:397] inception_4b/relu_3x3 -> inception_4b/3x3 (in-place)
I0718 14:37:59.191365 34808 net.cpp:150] Setting up inception_4b/relu_3x3
I0718 14:37:59.191388 34808 net.cpp:157] Top shape: 6 224 62 62 (5166336)
I0718 14:37:59.191401 34808 net.cpp:165] Memory required for data: 4740526152
I0718 14:37:59.191412 34808 layer_factory.hpp:76] Creating layer inception_4b/5x5_reduce
I0718 14:37:59.191429 34808 net.cpp:106] Creating Layer inception_4b/5x5_reduce
I0718 14:37:59.191444 34808 net.cpp:454] inception_4b/5x5_reduce <- inception_4a/output_inception_4a/output_0_split_2
I0718 14:37:59.191462 34808 net.cpp:411] inception_4b/5x5_reduce -> inception_4b/5x5_reduce
I0718 14:37:59.194126 34808 net.cpp:150] Setting up inception_4b/5x5_reduce
I0718 14:37:59.194159 34808 net.cpp:157] Top shape: 6 24 62 62 (553536)
I0718 14:37:59.194169 34808 net.cpp:165] Memory required for data: 4742740296
I0718 14:37:59.194187 34808 layer_factory.hpp:76] Creating layer inception_4b/relu_5x5_reduce
I0718 14:37:59.194206 34808 net.cpp:106] Creating Layer inception_4b/relu_5x5_reduce
I0718 14:37:59.194221 34808 net.cpp:454] inception_4b/relu_5x5_reduce <- inception_4b/5x5_reduce
I0718 14:37:59.194238 34808 net.cpp:397] inception_4b/relu_5x5_reduce -> inception_4b/5x5_reduce (in-place)
I0718 14:37:59.194808 34808 net.cpp:150] Setting up inception_4b/relu_5x5_reduce
I0718 14:37:59.194850 34808 net.cpp:157] Top shape: 6 24 62 62 (553536)
I0718 14:37:59.194862 34808 net.cpp:165] Memory required for data: 4744954440
I0718 14:37:59.194875 34808 layer_factory.hpp:76] Creating layer inception_4b/5x5
I0718 14:37:59.194896 34808 net.cpp:106] Creating Layer inception_4b/5x5
I0718 14:37:59.194911 34808 net.cpp:454] inception_4b/5x5 <- inception_4b/5x5_reduce
I0718 14:37:59.194927 34808 net.cpp:411] inception_4b/5x5 -> inception_4b/5x5
I0718 14:37:59.196645 34808 net.cpp:150] Setting up inception_4b/5x5
I0718 14:37:59.196674 34808 net.cpp:157] Top shape: 6 64 62 62 (1476096)
I0718 14:37:59.196687 34808 net.cpp:165] Memory required for data: 4750858824
I0718 14:37:59.196702 34808 layer_factory.hpp:76] Creating layer inception_4b/relu_5x5
I0718 14:37:59.196722 34808 net.cpp:106] Creating Layer inception_4b/relu_5x5
I0718 14:37:59.196735 34808 net.cpp:454] inception_4b/relu_5x5 <- inception_4b/5x5
I0718 14:37:59.196751 34808 net.cpp:397] inception_4b/relu_5x5 -> inception_4b/5x5 (in-place)
I0718 14:37:59.197290 34808 net.cpp:150] Setting up inception_4b/relu_5x5
I0718 14:37:59.197315 34808 net.cpp:157] Top shape: 6 64 62 62 (1476096)
I0718 14:37:59.197327 34808 net.cpp:165] Memory required for data: 4756763208
I0718 14:37:59.197340 34808 layer_factory.hpp:76] Creating layer inception_4b/pool
I0718 14:37:59.197355 34808 net.cpp:106] Creating Layer inception_4b/pool
I0718 14:37:59.197370 34808 net.cpp:454] inception_4b/pool <- inception_4a/output_inception_4a/output_0_split_3
I0718 14:37:59.197386 34808 net.cpp:411] inception_4b/pool -> inception_4b/pool
I0718 14:37:59.197991 34808 net.cpp:150] Setting up inception_4b/pool
I0718 14:37:59.198027 34808 net.cpp:157] Top shape: 6 512 62 62 (11808768)
I0718 14:37:59.198038 34808 net.cpp:165] Memory required for data: 4803998280
I0718 14:37:59.198047 34808 layer_factory.hpp:76] Creating layer inception_4b/pool_proj
I0718 14:37:59.198067 34808 net.cpp:106] Creating Layer inception_4b/pool_proj
I0718 14:37:59.198081 34808 net.cpp:454] inception_4b/pool_proj <- inception_4b/pool
I0718 14:37:59.198098 34808 net.cpp:411] inception_4b/pool_proj -> inception_4b/pool_proj
I0718 14:37:59.199790 34808 net.cpp:150] Setting up inception_4b/pool_proj
I0718 14:37:59.199826 34808 net.cpp:157] Top shape: 6 64 62 62 (1476096)
I0718 14:37:59.199839 34808 net.cpp:165] Memory required for data: 4809902664
I0718 14:37:59.199851 34808 layer_factory.hpp:76] Creating layer inception_4b/relu_pool_proj
I0718 14:37:59.199865 34808 net.cpp:106] Creating Layer inception_4b/relu_pool_proj
I0718 14:37:59.199875 34808 net.cpp:454] inception_4b/relu_pool_proj <- inception_4b/pool_proj
I0718 14:37:59.199892 34808 net.cpp:397] inception_4b/relu_pool_proj -> inception_4b/pool_proj (in-place)
I0718 14:37:59.200407 34808 net.cpp:150] Setting up inception_4b/relu_pool_proj
I0718 14:37:59.200446 34808 net.cpp:157] Top shape: 6 64 62 62 (1476096)
I0718 14:37:59.200459 34808 net.cpp:165] Memory required for data: 4815807048
I0718 14:37:59.200471 34808 layer_factory.hpp:76] Creating layer inception_4b/output
I0718 14:37:59.200487 34808 net.cpp:106] Creating Layer inception_4b/output
I0718 14:37:59.200501 34808 net.cpp:454] inception_4b/output <- inception_4b/1x1
I0718 14:37:59.200515 34808 net.cpp:454] inception_4b/output <- inception_4b/3x3
I0718 14:37:59.200530 34808 net.cpp:454] inception_4b/output <- inception_4b/5x5
I0718 14:37:59.200541 34808 net.cpp:454] inception_4b/output <- inception_4b/pool_proj
I0718 14:37:59.200559 34808 net.cpp:411] inception_4b/output -> inception_4b/output
I0718 14:37:59.200609 34808 net.cpp:150] Setting up inception_4b/output
I0718 14:37:59.200631 34808 net.cpp:157] Top shape: 6 512 62 62 (11808768)
I0718 14:37:59.200642 34808 net.cpp:165] Memory required for data: 4863042120
I0718 14:37:59.200665 34808 layer_factory.hpp:76] Creating layer inception_4b/output_inception_4b/output_0_split
I0718 14:37:59.200686 34808 net.cpp:106] Creating Layer inception_4b/output_inception_4b/output_0_split
I0718 14:37:59.200700 34808 net.cpp:454] inception_4b/output_inception_4b/output_0_split <- inception_4b/output
I0718 14:37:59.200741 34808 net.cpp:411] inception_4b/output_inception_4b/output_0_split -> inception_4b/output_inception_4b/output_0_split_0
I0718 14:37:59.200755 34808 net.cpp:411] inception_4b/output_inception_4b/output_0_split -> inception_4b/output_inception_4b/output_0_split_1
I0718 14:37:59.200776 34808 net.cpp:411] inception_4b/output_inception_4b/output_0_split -> inception_4b/output_inception_4b/output_0_split_2
I0718 14:37:59.200791 34808 net.cpp:411] inception_4b/output_inception_4b/output_0_split -> inception_4b/output_inception_4b/output_0_split_3
I0718 14:37:59.200884 34808 net.cpp:150] Setting up inception_4b/output_inception_4b/output_0_split
I0718 14:37:59.200897 34808 net.cpp:157] Top shape: 6 512 62 62 (11808768)
I0718 14:37:59.200911 34808 net.cpp:157] Top shape: 6 512 62 62 (11808768)
I0718 14:37:59.200922 34808 net.cpp:157] Top shape: 6 512 62 62 (11808768)
I0718 14:37:59.200932 34808 net.cpp:157] Top shape: 6 512 62 62 (11808768)
I0718 14:37:59.200940 34808 net.cpp:165] Memory required for data: 5051982408
I0718 14:37:59.200953 34808 layer_factory.hpp:76] Creating layer inception_4c/1x1
I0718 14:37:59.200970 34808 net.cpp:106] Creating Layer inception_4c/1x1
I0718 14:37:59.200981 34808 net.cpp:454] inception_4c/1x1 <- inception_4b/output_inception_4b/output_0_split_0
I0718 14:37:59.200999 34808 net.cpp:411] inception_4c/1x1 -> inception_4c/1x1
I0718 14:37:59.203122 34808 cudnn_conv_layer.cpp:194] Reallocating workspace storage: 6144
I0718 14:37:59.203176 34808 net.cpp:150] Setting up inception_4c/1x1
I0718 14:37:59.203198 34808 net.cpp:157] Top shape: 6 128 62 62 (2952192)
I0718 14:37:59.203210 34808 net.cpp:165] Memory required for data: 5063791176
I0718 14:37:59.203222 34808 layer_factory.hpp:76] Creating layer inception_4c/relu_1x1
I0718 14:37:59.203238 34808 net.cpp:106] Creating Layer inception_4c/relu_1x1
I0718 14:37:59.203250 34808 net.cpp:454] inception_4c/relu_1x1 <- inception_4c/1x1
I0718 14:37:59.203265 34808 net.cpp:397] inception_4c/relu_1x1 -> inception_4c/1x1 (in-place)
I0718 14:37:59.203497 34808 net.cpp:150] Setting up inception_4c/relu_1x1
I0718 14:37:59.203521 34808 net.cpp:157] Top shape: 6 128 62 62 (2952192)
I0718 14:37:59.203528 34808 net.cpp:165] Memory required for data: 5075599944
I0718 14:37:59.203541 34808 layer_factory.hpp:76] Creating layer inception_4c/3x3_reduce
I0718 14:37:59.203562 34808 net.cpp:106] Creating Layer inception_4c/3x3_reduce
I0718 14:37:59.203574 34808 net.cpp:454] inception_4c/3x3_reduce <- inception_4b/output_inception_4b/output_0_split_1
I0718 14:37:59.203591 34808 net.cpp:411] inception_4c/3x3_reduce -> inception_4c/3x3_reduce
I0718 14:37:59.206158 34808 cudnn_conv_layer.cpp:194] Reallocating workspace storage: 6144
I0718 14:37:59.206199 34808 net.cpp:150] Setting up inception_4c/3x3_reduce
I0718 14:37:59.206217 34808 net.cpp:157] Top shape: 6 128 62 62 (2952192)
I0718 14:37:59.206226 34808 net.cpp:165] Memory required for data: 5087408712
I0718 14:37:59.206239 34808 layer_factory.hpp:76] Creating layer inception_4c/relu_3x3_reduce
I0718 14:37:59.206249 34808 net.cpp:106] Creating Layer inception_4c/relu_3x3_reduce
I0718 14:37:59.206259 34808 net.cpp:454] inception_4c/relu_3x3_reduce <- inception_4c/3x3_reduce
I0718 14:37:59.206269 34808 net.cpp:397] inception_4c/relu_3x3_reduce -> inception_4c/3x3_reduce (in-place)
I0718 14:37:59.206744 34808 net.cpp:150] Setting up inception_4c/relu_3x3_reduce
I0718 14:37:59.206773 34808 net.cpp:157] Top shape: 6 128 62 62 (2952192)
I0718 14:37:59.206784 34808 net.cpp:165] Memory required for data: 5099217480
I0718 14:37:59.206795 34808 layer_factory.hpp:76] Creating layer inception_4c/3x3
I0718 14:37:59.206814 34808 net.cpp:106] Creating Layer inception_4c/3x3
I0718 14:37:59.206826 34808 net.cpp:454] inception_4c/3x3 <- inception_4c/3x3_reduce
I0718 14:37:59.206841 34808 net.cpp:411] inception_4c/3x3 -> inception_4c/3x3
I0718 14:37:59.212134 34808 net.cpp:150] Setting up inception_4c/3x3
I0718 14:37:59.212173 34808 net.cpp:157] Top shape: 6 256 62 62 (5904384)
I0718 14:37:59.212203 34808 net.cpp:165] Memory required for data: 5122835016
I0718 14:37:59.212222 34808 layer_factory.hpp:76] Creating layer inception_4c/relu_3x3
I0718 14:37:59.212241 34808 net.cpp:106] Creating Layer inception_4c/relu_3x3
I0718 14:37:59.212255 34808 net.cpp:454] inception_4c/relu_3x3 <- inception_4c/3x3
I0718 14:37:59.212266 34808 net.cpp:397] inception_4c/relu_3x3 -> inception_4c/3x3 (in-place)
I0718 14:37:59.212890 34808 net.cpp:150] Setting up inception_4c/relu_3x3
I0718 14:37:59.212927 34808 net.cpp:157] Top shape: 6 256 62 62 (5904384)
I0718 14:37:59.212940 34808 net.cpp:165] Memory required for data: 5146452552
I0718 14:37:59.212952 34808 layer_factory.hpp:76] Creating layer inception_4c/5x5_reduce
I0718 14:37:59.212972 34808 net.cpp:106] Creating Layer inception_4c/5x5_reduce
I0718 14:37:59.212987 34808 net.cpp:454] inception_4c/5x5_reduce <- inception_4b/output_inception_4b/output_0_split_2
I0718 14:37:59.213004 34808 net.cpp:411] inception_4c/5x5_reduce -> inception_4c/5x5_reduce
I0718 14:37:59.214655 34808 net.cpp:150] Setting up inception_4c/5x5_reduce
I0718 14:37:59.214691 34808 net.cpp:157] Top shape: 6 24 62 62 (553536)
I0718 14:37:59.214699 34808 net.cpp:165] Memory required for data: 5148666696
I0718 14:37:59.214712 34808 layer_factory.hpp:76] Creating layer inception_4c/relu_5x5_reduce
I0718 14:37:59.214722 34808 net.cpp:106] Creating Layer inception_4c/relu_5x5_reduce
I0718 14:37:59.214736 34808 net.cpp:454] inception_4c/relu_5x5_reduce <- inception_4c/5x5_reduce
I0718 14:37:59.214762 34808 net.cpp:397] inception_4c/relu_5x5_reduce -> inception_4c/5x5_reduce (in-place)
I0718 14:37:59.214983 34808 net.cpp:150] Setting up inception_4c/relu_5x5_reduce
I0718 14:37:59.215008 34808 net.cpp:157] Top shape: 6 24 62 62 (553536)
I0718 14:37:59.215018 34808 net.cpp:165] Memory required for data: 5150880840
I0718 14:37:59.215029 34808 layer_factory.hpp:76] Creating layer inception_4c/5x5
I0718 14:37:59.215050 34808 net.cpp:106] Creating Layer inception_4c/5x5
I0718 14:37:59.215064 34808 net.cpp:454] inception_4c/5x5 <- inception_4c/5x5_reduce
I0718 14:37:59.215081 34808 net.cpp:411] inception_4c/5x5 -> inception_4c/5x5
I0718 14:37:59.217073 34808 net.cpp:150] Setting up inception_4c/5x5
I0718 14:37:59.217113 34808 net.cpp:157] Top shape: 6 64 62 62 (1476096)
I0718 14:37:59.217128 34808 net.cpp:165] Memory required for data: 5156785224
I0718 14:37:59.217145 34808 layer_factory.hpp:76] Creating layer inception_4c/relu_5x5
I0718 14:37:59.217160 34808 net.cpp:106] Creating Layer inception_4c/relu_5x5
I0718 14:37:59.217172 34808 net.cpp:454] inception_4c/relu_5x5 <- inception_4c/5x5
I0718 14:37:59.217191 34808 net.cpp:397] inception_4c/relu_5x5 -> inception_4c/5x5 (in-place)
I0718 14:37:59.217717 34808 net.cpp:150] Setting up inception_4c/relu_5x5
I0718 14:37:59.217756 34808 net.cpp:157] Top shape: 6 64 62 62 (1476096)
I0718 14:37:59.217770 34808 net.cpp:165] Memory required for data: 5162689608
I0718 14:37:59.217783 34808 layer_factory.hpp:76] Creating layer inception_4c/pool
I0718 14:37:59.217797 34808 net.cpp:106] Creating Layer inception_4c/pool
I0718 14:37:59.217808 34808 net.cpp:454] inception_4c/pool <- inception_4b/output_inception_4b/output_0_split_3
I0718 14:37:59.217821 34808 net.cpp:411] inception_4c/pool -> inception_4c/pool
I0718 14:37:59.218106 34808 net.cpp:150] Setting up inception_4c/pool
I0718 14:37:59.218127 34808 net.cpp:157] Top shape: 6 512 62 62 (11808768)
I0718 14:37:59.218135 34808 net.cpp:165] Memory required for data: 5209924680
I0718 14:37:59.218147 34808 layer_factory.hpp:76] Creating layer inception_4c/pool_proj
I0718 14:37:59.218170 34808 net.cpp:106] Creating Layer inception_4c/pool_proj
I0718 14:37:59.218180 34808 net.cpp:454] inception_4c/pool_proj <- inception_4c/pool
I0718 14:37:59.218192 34808 net.cpp:411] inception_4c/pool_proj -> inception_4c/pool_proj
I0718 14:37:59.220103 34808 net.cpp:150] Setting up inception_4c/pool_proj
I0718 14:37:59.220139 34808 net.cpp:157] Top shape: 6 64 62 62 (1476096)
I0718 14:37:59.220146 34808 net.cpp:165] Memory required for data: 5215829064
I0718 14:37:59.220192 34808 layer_factory.hpp:76] Creating layer inception_4c/relu_pool_proj
I0718 14:37:59.220208 34808 net.cpp:106] Creating Layer inception_4c/relu_pool_proj
I0718 14:37:59.220219 34808 net.cpp:454] inception_4c/relu_pool_proj <- inception_4c/pool_proj
I0718 14:37:59.220232 34808 net.cpp:397] inception_4c/relu_pool_proj -> inception_4c/pool_proj (in-place)
I0718 14:37:59.220454 34808 net.cpp:150] Setting up inception_4c/relu_pool_proj
I0718 14:37:59.220476 34808 net.cpp:157] Top shape: 6 64 62 62 (1476096)
I0718 14:37:59.220489 34808 net.cpp:165] Memory required for data: 5221733448
I0718 14:37:59.220496 34808 layer_factory.hpp:76] Creating layer inception_4c/output
I0718 14:37:59.220506 34808 net.cpp:106] Creating Layer inception_4c/output
I0718 14:37:59.220520 34808 net.cpp:454] inception_4c/output <- inception_4c/1x1
I0718 14:37:59.220531 34808 net.cpp:454] inception_4c/output <- inception_4c/3x3
I0718 14:37:59.220544 34808 net.cpp:454] inception_4c/output <- inception_4c/5x5
I0718 14:37:59.220552 34808 net.cpp:454] inception_4c/output <- inception_4c/pool_proj
I0718 14:37:59.220561 34808 net.cpp:411] inception_4c/output -> inception_4c/output
I0718 14:37:59.220615 34808 net.cpp:150] Setting up inception_4c/output
I0718 14:37:59.220636 34808 net.cpp:157] Top shape: 6 512 62 62 (11808768)
I0718 14:37:59.220645 34808 net.cpp:165] Memory required for data: 5268968520
I0718 14:37:59.220656 34808 layer_factory.hpp:76] Creating layer inception_4c/output_inception_4c/output_0_split
I0718 14:37:59.220669 34808 net.cpp:106] Creating Layer inception_4c/output_inception_4c/output_0_split
I0718 14:37:59.220677 34808 net.cpp:454] inception_4c/output_inception_4c/output_0_split <- inception_4c/output
I0718 14:37:59.220695 34808 net.cpp:411] inception_4c/output_inception_4c/output_0_split -> inception_4c/output_inception_4c/output_0_split_0
I0718 14:37:59.220706 34808 net.cpp:411] inception_4c/output_inception_4c/output_0_split -> inception_4c/output_inception_4c/output_0_split_1
I0718 14:37:59.220720 34808 net.cpp:411] inception_4c/output_inception_4c/output_0_split -> inception_4c/output_inception_4c/output_0_split_2
I0718 14:37:59.220736 34808 net.cpp:411] inception_4c/output_inception_4c/output_0_split -> inception_4c/output_inception_4c/output_0_split_3
I0718 14:37:59.220844 34808 net.cpp:150] Setting up inception_4c/output_inception_4c/output_0_split
I0718 14:37:59.220861 34808 net.cpp:157] Top shape: 6 512 62 62 (11808768)
I0718 14:37:59.220873 34808 net.cpp:157] Top shape: 6 512 62 62 (11808768)
I0718 14:37:59.220881 34808 net.cpp:157] Top shape: 6 512 62 62 (11808768)
I0718 14:37:59.220895 34808 net.cpp:157] Top shape: 6 512 62 62 (11808768)
I0718 14:37:59.220906 34808 net.cpp:165] Memory required for data: 5457908808
I0718 14:37:59.220913 34808 layer_factory.hpp:76] Creating layer inception_4d/1x1
I0718 14:37:59.220933 34808 net.cpp:106] Creating Layer inception_4d/1x1
I0718 14:37:59.220942 34808 net.cpp:454] inception_4d/1x1 <- inception_4c/output_inception_4c/output_0_split_0
I0718 14:37:59.220959 34808 net.cpp:411] inception_4d/1x1 -> inception_4d/1x1
I0718 14:37:59.223166 34808 cudnn_conv_layer.cpp:194] Reallocating workspace storage: 6144
I0718 14:37:59.223213 34808 net.cpp:150] Setting up inception_4d/1x1
I0718 14:37:59.223227 34808 net.cpp:157] Top shape: 6 112 62 62 (2583168)
I0718 14:37:59.223235 34808 net.cpp:165] Memory required for data: 5468241480
I0718 14:37:59.223247 34808 layer_factory.hpp:76] Creating layer inception_4d/relu_1x1
I0718 14:37:59.223258 34808 net.cpp:106] Creating Layer inception_4d/relu_1x1
I0718 14:37:59.223266 34808 net.cpp:454] inception_4d/relu_1x1 <- inception_4d/1x1
I0718 14:37:59.223279 34808 net.cpp:397] inception_4d/relu_1x1 -> inception_4d/1x1 (in-place)
I0718 14:37:59.223815 34808 net.cpp:150] Setting up inception_4d/relu_1x1
I0718 14:37:59.223841 34808 net.cpp:157] Top shape: 6 112 62 62 (2583168)
I0718 14:37:59.223852 34808 net.cpp:165] Memory required for data: 5478574152
I0718 14:37:59.223860 34808 layer_factory.hpp:76] Creating layer inception_4d/3x3_reduce
I0718 14:37:59.223909 34808 net.cpp:106] Creating Layer inception_4d/3x3_reduce
I0718 14:37:59.223922 34808 net.cpp:454] inception_4d/3x3_reduce <- inception_4c/output_inception_4c/output_0_split_1
I0718 14:37:59.223949 34808 net.cpp:411] inception_4d/3x3_reduce -> inception_4d/3x3_reduce
I0718 14:37:59.226016 34808 cudnn_conv_layer.cpp:194] Reallocating workspace storage: 6144
I0718 14:37:59.226061 34808 net.cpp:150] Setting up inception_4d/3x3_reduce
I0718 14:37:59.226076 34808 net.cpp:157] Top shape: 6 144 62 62 (3321216)
I0718 14:37:59.226084 34808 net.cpp:165] Memory required for data: 5491859016
I0718 14:37:59.226099 34808 layer_factory.hpp:76] Creating layer inception_4d/relu_3x3_reduce
I0718 14:37:59.226110 34808 net.cpp:106] Creating Layer inception_4d/relu_3x3_reduce
I0718 14:37:59.226124 34808 net.cpp:454] inception_4d/relu_3x3_reduce <- inception_4d/3x3_reduce
I0718 14:37:59.226140 34808 net.cpp:397] inception_4d/relu_3x3_reduce -> inception_4d/3x3_reduce (in-place)
I0718 14:37:59.226356 34808 net.cpp:150] Setting up inception_4d/relu_3x3_reduce
I0718 14:37:59.226375 34808 net.cpp:157] Top shape: 6 144 62 62 (3321216)
I0718 14:37:59.226385 34808 net.cpp:165] Memory required for data: 5505143880
I0718 14:37:59.226397 34808 layer_factory.hpp:76] Creating layer inception_4d/3x3
I0718 14:37:59.226410 34808 net.cpp:106] Creating Layer inception_4d/3x3
I0718 14:37:59.226421 34808 net.cpp:454] inception_4d/3x3 <- inception_4d/3x3_reduce
I0718 14:37:59.226434 34808 net.cpp:411] inception_4d/3x3 -> inception_4d/3x3
I0718 14:37:59.233001 34808 cudnn_conv_layer.cpp:194] Reallocating workspace storage: 15552
I0718 14:37:59.233065 34808 net.cpp:150] Setting up inception_4d/3x3
I0718 14:37:59.233085 34808 net.cpp:157] Top shape: 6 288 62 62 (6642432)
I0718 14:37:59.233098 34808 net.cpp:165] Memory required for data: 5531713608
I0718 14:37:59.233113 34808 layer_factory.hpp:76] Creating layer inception_4d/relu_3x3
I0718 14:37:59.233131 34808 net.cpp:106] Creating Layer inception_4d/relu_3x3
I0718 14:37:59.233144 34808 net.cpp:454] inception_4d/relu_3x3 <- inception_4d/3x3
I0718 14:37:59.233160 34808 net.cpp:397] inception_4d/relu_3x3 -> inception_4d/3x3 (in-place)
I0718 14:37:59.233417 34808 net.cpp:150] Setting up inception_4d/relu_3x3
I0718 14:37:59.233439 34808 net.cpp:157] Top shape: 6 288 62 62 (6642432)
I0718 14:37:59.233453 34808 net.cpp:165] Memory required for data: 5558283336
I0718 14:37:59.233465 34808 layer_factory.hpp:76] Creating layer inception_4d/5x5_reduce
I0718 14:37:59.233489 34808 net.cpp:106] Creating Layer inception_4d/5x5_reduce
I0718 14:37:59.233505 34808 net.cpp:454] inception_4d/5x5_reduce <- inception_4c/output_inception_4c/output_0_split_2
I0718 14:37:59.233521 34808 net.cpp:411] inception_4d/5x5_reduce -> inception_4d/5x5_reduce
I0718 14:37:59.235390 34808 net.cpp:150] Setting up inception_4d/5x5_reduce
I0718 14:37:59.235417 34808 net.cpp:157] Top shape: 6 32 62 62 (738048)
I0718 14:37:59.235430 34808 net.cpp:165] Memory required for data: 5561235528
I0718 14:37:59.235446 34808 layer_factory.hpp:76] Creating layer inception_4d/relu_5x5_reduce
I0718 14:37:59.235465 34808 net.cpp:106] Creating Layer inception_4d/relu_5x5_reduce
I0718 14:37:59.235476 34808 net.cpp:454] inception_4d/relu_5x5_reduce <- inception_4d/5x5_reduce
I0718 14:37:59.235488 34808 net.cpp:397] inception_4d/relu_5x5_reduce -> inception_4d/5x5_reduce (in-place)
I0718 14:37:59.236066 34808 net.cpp:150] Setting up inception_4d/relu_5x5_reduce
I0718 14:37:59.236105 34808 net.cpp:157] Top shape: 6 32 62 62 (738048)
I0718 14:37:59.236119 34808 net.cpp:165] Memory required for data: 5564187720
I0718 14:37:59.236129 34808 layer_factory.hpp:76] Creating layer inception_4d/5x5
I0718 14:37:59.236145 34808 net.cpp:106] Creating Layer inception_4d/5x5
I0718 14:37:59.236155 34808 net.cpp:454] inception_4d/5x5 <- inception_4d/5x5_reduce
I0718 14:37:59.236171 34808 net.cpp:411] inception_4d/5x5 -> inception_4d/5x5
I0718 14:37:59.238476 34808 cudnn_conv_layer.cpp:194] Reallocating workspace storage: 9600
I0718 14:37:59.238538 34808 net.cpp:150] Setting up inception_4d/5x5
I0718 14:37:59.238567 34808 net.cpp:157] Top shape: 6 64 62 62 (1476096)
I0718 14:37:59.238579 34808 net.cpp:165] Memory required for data: 5570092104
I0718 14:37:59.238593 34808 layer_factory.hpp:76] Creating layer inception_4d/relu_5x5
I0718 14:37:59.238613 34808 net.cpp:106] Creating Layer inception_4d/relu_5x5
I0718 14:37:59.238626 34808 net.cpp:454] inception_4d/relu_5x5 <- inception_4d/5x5
I0718 14:37:59.238656 34808 net.cpp:397] inception_4d/relu_5x5 -> inception_4d/5x5 (in-place)
I0718 14:37:59.238993 34808 net.cpp:150] Setting up inception_4d/relu_5x5
I0718 14:37:59.239027 34808 net.cpp:157] Top shape: 6 64 62 62 (1476096)
I0718 14:37:59.239038 34808 net.cpp:165] Memory required for data: 5575996488
I0718 14:37:59.239050 34808 layer_factory.hpp:76] Creating layer inception_4d/pool
I0718 14:37:59.239065 34808 net.cpp:106] Creating Layer inception_4d/pool
I0718 14:37:59.239074 34808 net.cpp:454] inception_4d/pool <- inception_4c/output_inception_4c/output_0_split_3
I0718 14:37:59.239092 34808 net.cpp:411] inception_4d/pool -> inception_4d/pool
I0718 14:37:59.239712 34808 net.cpp:150] Setting up inception_4d/pool
I0718 14:37:59.239751 34808 net.cpp:157] Top shape: 6 512 62 62 (11808768)
I0718 14:37:59.239763 34808 net.cpp:165] Memory required for data: 5623231560
I0718 14:37:59.239776 34808 layer_factory.hpp:76] Creating layer inception_4d/pool_proj
I0718 14:37:59.239797 34808 net.cpp:106] Creating Layer inception_4d/pool_proj
I0718 14:37:59.239812 34808 net.cpp:454] inception_4d/pool_proj <- inception_4d/pool
I0718 14:37:59.239832 34808 net.cpp:411] inception_4d/pool_proj -> inception_4d/pool_proj
I0718 14:37:59.241657 34808 net.cpp:150] Setting up inception_4d/pool_proj
I0718 14:37:59.241690 34808 net.cpp:157] Top shape: 6 64 62 62 (1476096)
I0718 14:37:59.241699 34808 net.cpp:165] Memory required for data: 5629135944
I0718 14:37:59.241710 34808 layer_factory.hpp:76] Creating layer inception_4d/relu_pool_proj
I0718 14:37:59.241720 34808 net.cpp:106] Creating Layer inception_4d/relu_pool_proj
I0718 14:37:59.241731 34808 net.cpp:454] inception_4d/relu_pool_proj <- inception_4d/pool_proj
I0718 14:37:59.241741 34808 net.cpp:397] inception_4d/relu_pool_proj -> inception_4d/pool_proj (in-place)
I0718 14:37:59.242177 34808 net.cpp:150] Setting up inception_4d/relu_pool_proj
I0718 14:37:59.242209 34808 net.cpp:157] Top shape: 6 64 62 62 (1476096)
I0718 14:37:59.242228 34808 net.cpp:165] Memory required for data: 5635040328
I0718 14:37:59.242238 34808 layer_factory.hpp:76] Creating layer inception_4d/output
I0718 14:37:59.242250 34808 net.cpp:106] Creating Layer inception_4d/output
I0718 14:37:59.242259 34808 net.cpp:454] inception_4d/output <- inception_4d/1x1
I0718 14:37:59.242269 34808 net.cpp:454] inception_4d/output <- inception_4d/3x3
I0718 14:37:59.242276 34808 net.cpp:454] inception_4d/output <- inception_4d/5x5
I0718 14:37:59.242285 34808 net.cpp:454] inception_4d/output <- inception_4d/pool_proj
I0718 14:37:59.242295 34808 net.cpp:411] inception_4d/output -> inception_4d/output
I0718 14:37:59.242331 34808 net.cpp:150] Setting up inception_4d/output
I0718 14:37:59.242344 34808 net.cpp:157] Top shape: 6 528 62 62 (12177792)
I0718 14:37:59.242352 34808 net.cpp:165] Memory required for data: 5683751496
I0718 14:37:59.242359 34808 layer_factory.hpp:76] Creating layer inception_4d/output_inception_4d/output_0_split
I0718 14:37:59.242372 34808 net.cpp:106] Creating Layer inception_4d/output_inception_4d/output_0_split
I0718 14:37:59.242380 34808 net.cpp:454] inception_4d/output_inception_4d/output_0_split <- inception_4d/output
I0718 14:37:59.242393 34808 net.cpp:411] inception_4d/output_inception_4d/output_0_split -> inception_4d/output_inception_4d/output_0_split_0
I0718 14:37:59.242403 34808 net.cpp:411] inception_4d/output_inception_4d/output_0_split -> inception_4d/output_inception_4d/output_0_split_1
I0718 14:37:59.242413 34808 net.cpp:411] inception_4d/output_inception_4d/output_0_split -> inception_4d/output_inception_4d/output_0_split_2
I0718 14:37:59.242424 34808 net.cpp:411] inception_4d/output_inception_4d/output_0_split -> inception_4d/output_inception_4d/output_0_split_3
I0718 14:37:59.242512 34808 net.cpp:150] Setting up inception_4d/output_inception_4d/output_0_split
I0718 14:37:59.242532 34808 net.cpp:157] Top shape: 6 528 62 62 (12177792)
I0718 14:37:59.242542 34808 net.cpp:157] Top shape: 6 528 62 62 (12177792)
I0718 14:37:59.242550 34808 net.cpp:157] Top shape: 6 528 62 62 (12177792)
I0718 14:37:59.242558 34808 net.cpp:157] Top shape: 6 528 62 62 (12177792)
I0718 14:37:59.242564 34808 net.cpp:165] Memory required for data: 5878596168
I0718 14:37:59.242573 34808 layer_factory.hpp:76] Creating layer inception_4e/1x1
I0718 14:37:59.242583 34808 net.cpp:106] Creating Layer inception_4e/1x1
I0718 14:37:59.242591 34808 net.cpp:454] inception_4e/1x1 <- inception_4d/output_inception_4d/output_0_split_0
I0718 14:37:59.242604 34808 net.cpp:411] inception_4e/1x1 -> inception_4e/1x1
I0718 14:37:59.245450 34808 cudnn_conv_layer.cpp:194] Reallocating workspace storage: 6336
I0718 14:37:59.245499 34808 net.cpp:150] Setting up inception_4e/1x1
I0718 14:37:59.245514 34808 net.cpp:157] Top shape: 6 256 62 62 (5904384)
I0718 14:37:59.245522 34808 net.cpp:165] Memory required for data: 5902213704
I0718 14:37:59.245533 34808 layer_factory.hpp:76] Creating layer inception_4e/relu_1x1
I0718 14:37:59.245546 34808 net.cpp:106] Creating Layer inception_4e/relu_1x1
I0718 14:37:59.245555 34808 net.cpp:454] inception_4e/relu_1x1 <- inception_4e/1x1
I0718 14:37:59.245565 34808 net.cpp:397] inception_4e/relu_1x1 -> inception_4e/1x1 (in-place)
I0718 14:37:59.245746 34808 net.cpp:150] Setting up inception_4e/relu_1x1
I0718 14:37:59.245764 34808 net.cpp:157] Top shape: 6 256 62 62 (5904384)
I0718 14:37:59.245771 34808 net.cpp:165] Memory required for data: 5925831240
I0718 14:37:59.245779 34808 layer_factory.hpp:76] Creating layer inception_4e/3x3_reduce
I0718 14:37:59.245798 34808 net.cpp:106] Creating Layer inception_4e/3x3_reduce
I0718 14:37:59.245807 34808 net.cpp:454] inception_4e/3x3_reduce <- inception_4d/output_inception_4d/output_0_split_1
I0718 14:37:59.245817 34808 net.cpp:411] inception_4e/3x3_reduce -> inception_4e/3x3_reduce
I0718 14:37:59.247706 34808 cudnn_conv_layer.cpp:194] Reallocating workspace storage: 6336
I0718 14:37:59.247761 34808 net.cpp:150] Setting up inception_4e/3x3_reduce
I0718 14:37:59.247777 34808 net.cpp:157] Top shape: 6 160 62 62 (3690240)
I0718 14:37:59.247786 34808 net.cpp:165] Memory required for data: 5940592200
I0718 14:37:59.247797 34808 layer_factory.hpp:76] Creating layer inception_4e/relu_3x3_reduce
I0718 14:37:59.247808 34808 net.cpp:106] Creating Layer inception_4e/relu_3x3_reduce
I0718 14:37:59.247818 34808 net.cpp:454] inception_4e/relu_3x3_reduce <- inception_4e/3x3_reduce
I0718 14:37:59.247828 34808 net.cpp:397] inception_4e/relu_3x3_reduce -> inception_4e/3x3_reduce (in-place)
I0718 14:37:59.248328 34808 net.cpp:150] Setting up inception_4e/relu_3x3_reduce
I0718 14:37:59.248360 34808 net.cpp:157] Top shape: 6 160 62 62 (3690240)
I0718 14:37:59.248369 34808 net.cpp:165] Memory required for data: 5955353160
I0718 14:37:59.248378 34808 layer_factory.hpp:76] Creating layer inception_4e/3x3
I0718 14:37:59.248389 34808 net.cpp:106] Creating Layer inception_4e/3x3
I0718 14:37:59.248399 34808 net.cpp:454] inception_4e/3x3 <- inception_4e/3x3_reduce
I0718 14:37:59.248410 34808 net.cpp:411] inception_4e/3x3 -> inception_4e/3x3
I0718 14:37:59.253445 34808 net.cpp:150] Setting up inception_4e/3x3
I0718 14:37:59.253487 34808 net.cpp:157] Top shape: 6 320 62 62 (7380480)
I0718 14:37:59.253496 34808 net.cpp:165] Memory required for data: 5984875080
I0718 14:37:59.253509 34808 layer_factory.hpp:76] Creating layer inception_4e/relu_3x3
I0718 14:37:59.253522 34808 net.cpp:106] Creating Layer inception_4e/relu_3x3
I0718 14:37:59.253531 34808 net.cpp:454] inception_4e/relu_3x3 <- inception_4e/3x3
I0718 14:37:59.253543 34808 net.cpp:397] inception_4e/relu_3x3 -> inception_4e/3x3 (in-place)
I0718 14:37:59.254020 34808 net.cpp:150] Setting up inception_4e/relu_3x3
I0718 14:37:59.254040 34808 net.cpp:157] Top shape: 6 320 62 62 (7380480)
I0718 14:37:59.254075 34808 net.cpp:165] Memory required for data: 6014397000
I0718 14:37:59.254083 34808 layer_factory.hpp:76] Creating layer inception_4e/5x5_reduce
I0718 14:37:59.254099 34808 net.cpp:106] Creating Layer inception_4e/5x5_reduce
I0718 14:37:59.254108 34808 net.cpp:454] inception_4e/5x5_reduce <- inception_4d/output_inception_4d/output_0_split_2
I0718 14:37:59.254122 34808 net.cpp:411] inception_4e/5x5_reduce -> inception_4e/5x5_reduce
I0718 14:37:59.255544 34808 cudnn_conv_layer.cpp:194] Reallocating workspace storage: 6336
I0718 14:37:59.255599 34808 net.cpp:150] Setting up inception_4e/5x5_reduce
I0718 14:37:59.255614 34808 net.cpp:157] Top shape: 6 32 62 62 (738048)
I0718 14:37:59.255621 34808 net.cpp:165] Memory required for data: 6017349192
I0718 14:37:59.255632 34808 layer_factory.hpp:76] Creating layer inception_4e/relu_5x5_reduce
I0718 14:37:59.255642 34808 net.cpp:106] Creating Layer inception_4e/relu_5x5_reduce
I0718 14:37:59.255651 34808 net.cpp:454] inception_4e/relu_5x5_reduce <- inception_4e/5x5_reduce
I0718 14:37:59.255661 34808 net.cpp:397] inception_4e/relu_5x5_reduce -> inception_4e/5x5_reduce (in-place)
I0718 14:37:59.255875 34808 net.cpp:150] Setting up inception_4e/relu_5x5_reduce
I0718 14:37:59.255892 34808 net.cpp:157] Top shape: 6 32 62 62 (738048)
I0718 14:37:59.255899 34808 net.cpp:165] Memory required for data: 6020301384
I0718 14:37:59.255908 34808 layer_factory.hpp:76] Creating layer inception_4e/5x5
I0718 14:37:59.255921 34808 net.cpp:106] Creating Layer inception_4e/5x5
I0718 14:37:59.255930 34808 net.cpp:454] inception_4e/5x5 <- inception_4e/5x5_reduce
I0718 14:37:59.255940 34808 net.cpp:411] inception_4e/5x5 -> inception_4e/5x5
I0718 14:37:59.258801 34808 net.cpp:150] Setting up inception_4e/5x5
I0718 14:37:59.258836 34808 net.cpp:157] Top shape: 6 128 62 62 (2952192)
I0718 14:37:59.258846 34808 net.cpp:165] Memory required for data: 6032110152
I0718 14:37:59.258857 34808 layer_factory.hpp:76] Creating layer inception_4e/relu_5x5
I0718 14:37:59.258867 34808 net.cpp:106] Creating Layer inception_4e/relu_5x5
I0718 14:37:59.258877 34808 net.cpp:454] inception_4e/relu_5x5 <- inception_4e/5x5
I0718 14:37:59.258887 34808 net.cpp:397] inception_4e/relu_5x5 -> inception_4e/5x5 (in-place)
I0718 14:37:59.259388 34808 net.cpp:150] Setting up inception_4e/relu_5x5
I0718 14:37:59.259419 34808 net.cpp:157] Top shape: 6 128 62 62 (2952192)
I0718 14:37:59.259428 34808 net.cpp:165] Memory required for data: 6043918920
I0718 14:37:59.259436 34808 layer_factory.hpp:76] Creating layer inception_4e/pool
I0718 14:37:59.259448 34808 net.cpp:106] Creating Layer inception_4e/pool
I0718 14:37:59.259456 34808 net.cpp:454] inception_4e/pool <- inception_4d/output_inception_4d/output_0_split_3
I0718 14:37:59.259469 34808 net.cpp:411] inception_4e/pool -> inception_4e/pool
I0718 14:37:59.259726 34808 net.cpp:150] Setting up inception_4e/pool
I0718 14:37:59.259753 34808 net.cpp:157] Top shape: 6 528 62 62 (12177792)
I0718 14:37:59.259762 34808 net.cpp:165] Memory required for data: 6092630088
I0718 14:37:59.259769 34808 layer_factory.hpp:76] Creating layer inception_4e/pool_proj
I0718 14:37:59.259783 34808 net.cpp:106] Creating Layer inception_4e/pool_proj
I0718 14:37:59.259793 34808 net.cpp:454] inception_4e/pool_proj <- inception_4e/pool
I0718 14:37:59.259804 34808 net.cpp:411] inception_4e/pool_proj -> inception_4e/pool_proj
I0718 14:37:59.261880 34808 cudnn_conv_layer.cpp:194] Reallocating workspace storage: 6336
I0718 14:37:59.261932 34808 net.cpp:150] Setting up inception_4e/pool_proj
I0718 14:37:59.261950 34808 net.cpp:157] Top shape: 6 128 62 62 (2952192)
I0718 14:37:59.261958 34808 net.cpp:165] Memory required for data: 6104438856
I0718 14:37:59.261970 34808 layer_factory.hpp:76] Creating layer inception_4e/relu_pool_proj
I0718 14:37:59.261981 34808 net.cpp:106] Creating Layer inception_4e/relu_pool_proj
I0718 14:37:59.261991 34808 net.cpp:454] inception_4e/relu_pool_proj <- inception_4e/pool_proj
I0718 14:37:59.262002 34808 net.cpp:397] inception_4e/relu_pool_proj -> inception_4e/pool_proj (in-place)
I0718 14:37:59.262223 34808 net.cpp:150] Setting up inception_4e/relu_pool_proj
I0718 14:37:59.262239 34808 net.cpp:157] Top shape: 6 128 62 62 (2952192)
I0718 14:37:59.262248 34808 net.cpp:165] Memory required for data: 6116247624
I0718 14:37:59.262255 34808 layer_factory.hpp:76] Creating layer inception_4e/output
I0718 14:37:59.262266 34808 net.cpp:106] Creating Layer inception_4e/output
I0718 14:37:59.262274 34808 net.cpp:454] inception_4e/output <- inception_4e/1x1
I0718 14:37:59.262284 34808 net.cpp:454] inception_4e/output <- inception_4e/3x3
I0718 14:37:59.262292 34808 net.cpp:454] inception_4e/output <- inception_4e/5x5
I0718 14:37:59.262300 34808 net.cpp:454] inception_4e/output <- inception_4e/pool_proj
I0718 14:37:59.262311 34808 net.cpp:411] inception_4e/output -> inception_4e/output
I0718 14:37:59.262354 34808 net.cpp:150] Setting up inception_4e/output
I0718 14:37:59.262367 34808 net.cpp:157] Top shape: 6 832 62 62 (19189248)
I0718 14:37:59.262373 34808 net.cpp:165] Memory required for data: 6193004616
I0718 14:37:59.262382 34808 layer_factory.hpp:76] Creating layer pool4/3x3_s2
I0718 14:37:59.262392 34808 net.cpp:106] Creating Layer pool4/3x3_s2
I0718 14:37:59.262399 34808 net.cpp:454] pool4/3x3_s2 <- inception_4e/output
I0718 14:37:59.262410 34808 net.cpp:411] pool4/3x3_s2 -> pool4/3x3_s2
I0718 14:37:59.262887 34808 net.cpp:150] Setting up pool4/3x3_s2
I0718 14:37:59.262907 34808 net.cpp:157] Top shape: 6 832 31 31 (4797312)
I0718 14:37:59.262914 34808 net.cpp:165] Memory required for data: 6212193864
I0718 14:37:59.262923 34808 layer_factory.hpp:76] Creating layer pool4/3x3_s2_pool4/3x3_s2_0_split
I0718 14:37:59.262933 34808 net.cpp:106] Creating Layer pool4/3x3_s2_pool4/3x3_s2_0_split
I0718 14:37:59.262943 34808 net.cpp:454] pool4/3x3_s2_pool4/3x3_s2_0_split <- pool4/3x3_s2
I0718 14:37:59.262956 34808 net.cpp:411] pool4/3x3_s2_pool4/3x3_s2_0_split -> pool4/3x3_s2_pool4/3x3_s2_0_split_0
I0718 14:37:59.262969 34808 net.cpp:411] pool4/3x3_s2_pool4/3x3_s2_0_split -> pool4/3x3_s2_pool4/3x3_s2_0_split_1
I0718 14:37:59.262979 34808 net.cpp:411] pool4/3x3_s2_pool4/3x3_s2_0_split -> pool4/3x3_s2_pool4/3x3_s2_0_split_2
I0718 14:37:59.262989 34808 net.cpp:411] pool4/3x3_s2_pool4/3x3_s2_0_split -> pool4/3x3_s2_pool4/3x3_s2_0_split_3
I0718 14:37:59.263068 34808 net.cpp:150] Setting up pool4/3x3_s2_pool4/3x3_s2_0_split
I0718 14:37:59.263082 34808 net.cpp:157] Top shape: 6 832 31 31 (4797312)
I0718 14:37:59.263090 34808 net.cpp:157] Top shape: 6 832 31 31 (4797312)
I0718 14:37:59.263098 34808 net.cpp:157] Top shape: 6 832 31 31 (4797312)
I0718 14:37:59.263106 34808 net.cpp:157] Top shape: 6 832 31 31 (4797312)
I0718 14:37:59.263113 34808 net.cpp:165] Memory required for data: 6288950856
I0718 14:37:59.263120 34808 layer_factory.hpp:76] Creating layer inception_5a/1x1
I0718 14:37:59.263135 34808 net.cpp:106] Creating Layer inception_5a/1x1
I0718 14:37:59.263144 34808 net.cpp:454] inception_5a/1x1 <- pool4/3x3_s2_pool4/3x3_s2_0_split_0
I0718 14:37:59.263154 34808 net.cpp:411] inception_5a/1x1 -> inception_5a/1x1
I0718 14:37:59.266567 34808 cudnn_conv_layer.cpp:194] Reallocating workspace storage: 9984
I0718 14:37:59.266609 34808 net.cpp:150] Setting up inception_5a/1x1
I0718 14:37:59.266623 34808 net.cpp:157] Top shape: 6 256 31 31 (1476096)
I0718 14:37:59.266638 34808 net.cpp:165] Memory required for data: 6294855240
I0718 14:37:59.266660 34808 layer_factory.hpp:76] Creating layer inception_5a/relu_1x1
I0718 14:37:59.266671 34808 net.cpp:106] Creating Layer inception_5a/relu_1x1
I0718 14:37:59.266682 34808 net.cpp:454] inception_5a/relu_1x1 <- inception_5a/1x1
I0718 14:37:59.266695 34808 net.cpp:397] inception_5a/relu_1x1 -> inception_5a/1x1 (in-place)
I0718 14:37:59.266891 34808 net.cpp:150] Setting up inception_5a/relu_1x1
I0718 14:37:59.266911 34808 net.cpp:157] Top shape: 6 256 31 31 (1476096)
I0718 14:37:59.266918 34808 net.cpp:165] Memory required for data: 6300759624
I0718 14:37:59.266927 34808 layer_factory.hpp:76] Creating layer inception_5a/3x3_reduce
I0718 14:37:59.266952 34808 net.cpp:106] Creating Layer inception_5a/3x3_reduce
I0718 14:37:59.266962 34808 net.cpp:454] inception_5a/3x3_reduce <- pool4/3x3_s2_pool4/3x3_s2_0_split_1
I0718 14:37:59.266973 34808 net.cpp:411] inception_5a/3x3_reduce -> inception_5a/3x3_reduce
I0718 14:37:59.269839 34808 cudnn_conv_layer.cpp:194] Reallocating workspace storage: 9984
I0718 14:37:59.269881 34808 net.cpp:150] Setting up inception_5a/3x3_reduce
I0718 14:37:59.269901 34808 net.cpp:157] Top shape: 6 160 31 31 (922560)
I0718 14:37:59.269909 34808 net.cpp:165] Memory required for data: 6304449864
I0718 14:37:59.269922 34808 layer_factory.hpp:76] Creating layer inception_5a/relu_3x3_reduce
I0718 14:37:59.269932 34808 net.cpp:106] Creating Layer inception_5a/relu_3x3_reduce
I0718 14:37:59.269942 34808 net.cpp:454] inception_5a/relu_3x3_reduce <- inception_5a/3x3_reduce
I0718 14:37:59.269951 34808 net.cpp:397] inception_5a/relu_3x3_reduce -> inception_5a/3x3_reduce (in-place)
I0718 14:37:59.270406 34808 net.cpp:150] Setting up inception_5a/relu_3x3_reduce
I0718 14:37:59.270426 34808 net.cpp:157] Top shape: 6 160 31 31 (922560)
I0718 14:37:59.270434 34808 net.cpp:165] Memory required for data: 6308140104
I0718 14:37:59.270442 34808 layer_factory.hpp:76] Creating layer inception_5a/3x3
I0718 14:37:59.270457 34808 net.cpp:106] Creating Layer inception_5a/3x3
I0718 14:37:59.270467 34808 net.cpp:454] inception_5a/3x3 <- inception_5a/3x3_reduce
I0718 14:37:59.270478 34808 net.cpp:411] inception_5a/3x3 -> inception_5a/3x3
I0718 14:37:59.275630 34808 net.cpp:150] Setting up inception_5a/3x3
I0718 14:37:59.275652 34808 net.cpp:157] Top shape: 6 320 31 31 (1845120)
I0718 14:37:59.275660 34808 net.cpp:165] Memory required for data: 6315520584
I0718 14:37:59.275672 34808 layer_factory.hpp:76] Creating layer inception_5a/relu_3x3
I0718 14:37:59.275686 34808 net.cpp:106] Creating Layer inception_5a/relu_3x3
I0718 14:37:59.275696 34808 net.cpp:454] inception_5a/relu_3x3 <- inception_5a/3x3
I0718 14:37:59.275704 34808 net.cpp:397] inception_5a/relu_3x3 -> inception_5a/3x3 (in-place)
I0718 14:37:59.276160 34808 net.cpp:150] Setting up inception_5a/relu_3x3
I0718 14:37:59.276178 34808 net.cpp:157] Top shape: 6 320 31 31 (1845120)
I0718 14:37:59.276186 34808 net.cpp:165] Memory required for data: 6322901064
I0718 14:37:59.276196 34808 layer_factory.hpp:76] Creating layer inception_5a/5x5_reduce
I0718 14:37:59.276211 34808 net.cpp:106] Creating Layer inception_5a/5x5_reduce
I0718 14:37:59.276224 34808 net.cpp:454] inception_5a/5x5_reduce <- pool4/3x3_s2_pool4/3x3_s2_0_split_2
I0718 14:37:59.276235 34808 net.cpp:411] inception_5a/5x5_reduce -> inception_5a/5x5_reduce
I0718 14:37:59.277757 34808 net.cpp:150] Setting up inception_5a/5x5_reduce
I0718 14:37:59.277791 34808 net.cpp:157] Top shape: 6 32 31 31 (184512)
I0718 14:37:59.277798 34808 net.cpp:165] Memory required for data: 6323639112
I0718 14:37:59.277809 34808 layer_factory.hpp:76] Creating layer inception_5a/relu_5x5_reduce
I0718 14:37:59.277822 34808 net.cpp:106] Creating Layer inception_5a/relu_5x5_reduce
I0718 14:37:59.277830 34808 net.cpp:454] inception_5a/relu_5x5_reduce <- inception_5a/5x5_reduce
I0718 14:37:59.277840 34808 net.cpp:397] inception_5a/relu_5x5_reduce -> inception_5a/5x5_reduce (in-place)
I0718 14:37:59.278053 34808 net.cpp:150] Setting up inception_5a/relu_5x5_reduce
I0718 14:37:59.278082 34808 net.cpp:157] Top shape: 6 32 31 31 (184512)
I0718 14:37:59.278101 34808 net.cpp:165] Memory required for data: 6324377160
I0718 14:37:59.278110 34808 layer_factory.hpp:76] Creating layer inception_5a/5x5
I0718 14:37:59.278143 34808 net.cpp:106] Creating Layer inception_5a/5x5
I0718 14:37:59.278153 34808 net.cpp:454] inception_5a/5x5 <- inception_5a/5x5_reduce
I0718 14:37:59.278164 34808 net.cpp:411] inception_5a/5x5 -> inception_5a/5x5
I0718 14:37:59.280158 34808 net.cpp:150] Setting up inception_5a/5x5
I0718 14:37:59.280189 34808 net.cpp:157] Top shape: 6 128 31 31 (738048)
I0718 14:37:59.280199 34808 net.cpp:165] Memory required for data: 6327329352
I0718 14:37:59.280210 34808 layer_factory.hpp:76] Creating layer inception_5a/relu_5x5
I0718 14:37:59.280236 34808 net.cpp:106] Creating Layer inception_5a/relu_5x5
I0718 14:37:59.280246 34808 net.cpp:454] inception_5a/relu_5x5 <- inception_5a/5x5
I0718 14:37:59.280256 34808 net.cpp:397] inception_5a/relu_5x5 -> inception_5a/5x5 (in-place)
I0718 14:37:59.280761 34808 net.cpp:150] Setting up inception_5a/relu_5x5
I0718 14:37:59.280792 34808 net.cpp:157] Top shape: 6 128 31 31 (738048)
I0718 14:37:59.280802 34808 net.cpp:165] Memory required for data: 6330281544
I0718 14:37:59.280809 34808 layer_factory.hpp:76] Creating layer inception_5a/pool
I0718 14:37:59.280819 34808 net.cpp:106] Creating Layer inception_5a/pool
I0718 14:37:59.280828 34808 net.cpp:454] inception_5a/pool <- pool4/3x3_s2_pool4/3x3_s2_0_split_3
I0718 14:37:59.280841 34808 net.cpp:411] inception_5a/pool -> inception_5a/pool
I0718 14:37:59.281102 34808 net.cpp:150] Setting up inception_5a/pool
I0718 14:37:59.281132 34808 net.cpp:157] Top shape: 6 832 31 31 (4797312)
I0718 14:37:59.281141 34808 net.cpp:165] Memory required for data: 6349470792
I0718 14:37:59.281148 34808 layer_factory.hpp:76] Creating layer inception_5a/pool_proj
I0718 14:37:59.281160 34808 net.cpp:106] Creating Layer inception_5a/pool_proj
I0718 14:37:59.281168 34808 net.cpp:454] inception_5a/pool_proj <- inception_5a/pool
I0718 14:37:59.281180 34808 net.cpp:411] inception_5a/pool_proj -> inception_5a/pool_proj
I0718 14:37:59.283890 34808 cudnn_conv_layer.cpp:194] Reallocating workspace storage: 9984
I0718 14:37:59.283946 34808 net.cpp:150] Setting up inception_5a/pool_proj
I0718 14:37:59.283964 34808 net.cpp:157] Top shape: 6 128 31 31 (738048)
I0718 14:37:59.283972 34808 net.cpp:165] Memory required for data: 6352422984
I0718 14:37:59.283982 34808 layer_factory.hpp:76] Creating layer inception_5a/relu_pool_proj
I0718 14:37:59.283995 34808 net.cpp:106] Creating Layer inception_5a/relu_pool_proj
I0718 14:37:59.284005 34808 net.cpp:454] inception_5a/relu_pool_proj <- inception_5a/pool_proj
I0718 14:37:59.284014 34808 net.cpp:397] inception_5a/relu_pool_proj -> inception_5a/pool_proj (in-place)
I0718 14:37:59.284524 34808 net.cpp:150] Setting up inception_5a/relu_pool_proj
I0718 14:37:59.284544 34808 net.cpp:157] Top shape: 6 128 31 31 (738048)
I0718 14:37:59.284553 34808 net.cpp:165] Memory required for data: 6355375176
I0718 14:37:59.284561 34808 layer_factory.hpp:76] Creating layer inception_5a/output
I0718 14:37:59.284574 34808 net.cpp:106] Creating Layer inception_5a/output
I0718 14:37:59.284584 34808 net.cpp:454] inception_5a/output <- inception_5a/1x1
I0718 14:37:59.284592 34808 net.cpp:454] inception_5a/output <- inception_5a/3x3
I0718 14:37:59.284600 34808 net.cpp:454] inception_5a/output <- inception_5a/5x5
I0718 14:37:59.284610 34808 net.cpp:454] inception_5a/output <- inception_5a/pool_proj
I0718 14:37:59.284617 34808 net.cpp:411] inception_5a/output -> inception_5a/output
I0718 14:37:59.284660 34808 net.cpp:150] Setting up inception_5a/output
I0718 14:37:59.284673 34808 net.cpp:157] Top shape: 6 832 31 31 (4797312)
I0718 14:37:59.284680 34808 net.cpp:165] Memory required for data: 6374564424
I0718 14:37:59.284688 34808 layer_factory.hpp:76] Creating layer inception_5a/output_inception_5a/output_0_split
I0718 14:37:59.284699 34808 net.cpp:106] Creating Layer inception_5a/output_inception_5a/output_0_split
I0718 14:37:59.284708 34808 net.cpp:454] inception_5a/output_inception_5a/output_0_split <- inception_5a/output
I0718 14:37:59.284718 34808 net.cpp:411] inception_5a/output_inception_5a/output_0_split -> inception_5a/output_inception_5a/output_0_split_0
I0718 14:37:59.284729 34808 net.cpp:411] inception_5a/output_inception_5a/output_0_split -> inception_5a/output_inception_5a/output_0_split_1
I0718 14:37:59.284739 34808 net.cpp:411] inception_5a/output_inception_5a/output_0_split -> inception_5a/output_inception_5a/output_0_split_2
I0718 14:37:59.284749 34808 net.cpp:411] inception_5a/output_inception_5a/output_0_split -> inception_5a/output_inception_5a/output_0_split_3
I0718 14:37:59.284842 34808 net.cpp:150] Setting up inception_5a/output_inception_5a/output_0_split
I0718 14:37:59.284871 34808 net.cpp:157] Top shape: 6 832 31 31 (4797312)
I0718 14:37:59.284880 34808 net.cpp:157] Top shape: 6 832 31 31 (4797312)
I0718 14:37:59.284889 34808 net.cpp:157] Top shape: 6 832 31 31 (4797312)
I0718 14:37:59.284898 34808 net.cpp:157] Top shape: 6 832 31 31 (4797312)
I0718 14:37:59.284905 34808 net.cpp:165] Memory required for data: 6451321416
I0718 14:37:59.284912 34808 layer_factory.hpp:76] Creating layer inception_5b/1x1
I0718 14:37:59.284924 34808 net.cpp:106] Creating Layer inception_5b/1x1
I0718 14:37:59.284934 34808 net.cpp:454] inception_5b/1x1 <- inception_5a/output_inception_5a/output_0_split_0
I0718 14:37:59.284946 34808 net.cpp:411] inception_5b/1x1 -> inception_5b/1x1
I0718 14:37:59.289808 34808 cudnn_conv_layer.cpp:194] Reallocating workspace storage: 9984
I0718 14:37:59.289851 34808 net.cpp:150] Setting up inception_5b/1x1
I0718 14:37:59.289865 34808 net.cpp:157] Top shape: 6 384 31 31 (2214144)
I0718 14:37:59.289873 34808 net.cpp:165] Memory required for data: 6460177992
I0718 14:37:59.289885 34808 layer_factory.hpp:76] Creating layer inception_5b/relu_1x1
I0718 14:37:59.289896 34808 net.cpp:106] Creating Layer inception_5b/relu_1x1
I0718 14:37:59.289906 34808 net.cpp:454] inception_5b/relu_1x1 <- inception_5b/1x1
I0718 14:37:59.289917 34808 net.cpp:397] inception_5b/relu_1x1 -> inception_5b/1x1 (in-place)
I0718 14:37:59.290413 34808 net.cpp:150] Setting up inception_5b/relu_1x1
I0718 14:37:59.290443 34808 net.cpp:157] Top shape: 6 384 31 31 (2214144)
I0718 14:37:59.290452 34808 net.cpp:165] Memory required for data: 6469034568
I0718 14:37:59.290460 34808 layer_factory.hpp:76] Creating layer inception_5b/3x3_reduce
I0718 14:37:59.290474 34808 net.cpp:106] Creating Layer inception_5b/3x3_reduce
I0718 14:37:59.290483 34808 net.cpp:454] inception_5b/3x3_reduce <- inception_5a/output_inception_5a/output_0_split_1
I0718 14:37:59.290496 34808 net.cpp:411] inception_5b/3x3_reduce -> inception_5b/3x3_reduce
I0718 14:37:59.293840 34808 cudnn_conv_layer.cpp:194] Reallocating workspace storage: 9984
I0718 14:37:59.293896 34808 net.cpp:150] Setting up inception_5b/3x3_reduce
I0718 14:37:59.293910 34808 net.cpp:157] Top shape: 6 192 31 31 (1107072)
I0718 14:37:59.293916 34808 net.cpp:165] Memory required for data: 6473462856
I0718 14:37:59.293927 34808 layer_factory.hpp:76] Creating layer inception_5b/relu_3x3_reduce
I0718 14:37:59.293938 34808 net.cpp:106] Creating Layer inception_5b/relu_3x3_reduce
I0718 14:37:59.293947 34808 net.cpp:454] inception_5b/relu_3x3_reduce <- inception_5b/3x3_reduce
I0718 14:37:59.293958 34808 net.cpp:397] inception_5b/relu_3x3_reduce -> inception_5b/3x3_reduce (in-place)
I0718 14:37:59.294178 34808 net.cpp:150] Setting up inception_5b/relu_3x3_reduce
I0718 14:37:59.294219 34808 net.cpp:157] Top shape: 6 192 31 31 (1107072)
I0718 14:37:59.294226 34808 net.cpp:165] Memory required for data: 6477891144
I0718 14:37:59.294234 34808 layer_factory.hpp:76] Creating layer inception_5b/3x3
I0718 14:37:59.294248 34808 net.cpp:106] Creating Layer inception_5b/3x3
I0718 14:37:59.294257 34808 net.cpp:454] inception_5b/3x3 <- inception_5b/3x3_reduce
I0718 14:37:59.294270 34808 net.cpp:411] inception_5b/3x3 -> inception_5b/3x3
I0718 14:37:59.301257 34808 net.cpp:150] Setting up inception_5b/3x3
I0718 14:37:59.301291 34808 net.cpp:157] Top shape: 6 384 31 31 (2214144)
I0718 14:37:59.301301 34808 net.cpp:165] Memory required for data: 6486747720
I0718 14:37:59.301311 34808 layer_factory.hpp:76] Creating layer inception_5b/relu_3x3
I0718 14:37:59.301324 34808 net.cpp:106] Creating Layer inception_5b/relu_3x3
I0718 14:37:59.301333 34808 net.cpp:454] inception_5b/relu_3x3 <- inception_5b/3x3
I0718 14:37:59.301343 34808 net.cpp:397] inception_5b/relu_3x3 -> inception_5b/3x3 (in-place)
I0718 14:37:59.301821 34808 net.cpp:150] Setting up inception_5b/relu_3x3
I0718 14:37:59.301852 34808 net.cpp:157] Top shape: 6 384 31 31 (2214144)
I0718 14:37:59.301861 34808 net.cpp:165] Memory required for data: 6495604296
I0718 14:37:59.301868 34808 layer_factory.hpp:76] Creating layer inception_5b/5x5_reduce
I0718 14:37:59.301900 34808 net.cpp:106] Creating Layer inception_5b/5x5_reduce
I0718 14:37:59.301909 34808 net.cpp:454] inception_5b/5x5_reduce <- inception_5a/output_inception_5a/output_0_split_2
I0718 14:37:59.301923 34808 net.cpp:411] inception_5b/5x5_reduce -> inception_5b/5x5_reduce
I0718 14:37:59.303481 34808 net.cpp:150] Setting up inception_5b/5x5_reduce
I0718 14:37:59.303514 34808 net.cpp:157] Top shape: 6 48 31 31 (276768)
I0718 14:37:59.303522 34808 net.cpp:165] Memory required for data: 6496711368
I0718 14:37:59.303535 34808 layer_factory.hpp:76] Creating layer inception_5b/relu_5x5_reduce
I0718 14:37:59.303555 34808 net.cpp:106] Creating Layer inception_5b/relu_5x5_reduce
I0718 14:37:59.303565 34808 net.cpp:454] inception_5b/relu_5x5_reduce <- inception_5b/5x5_reduce
I0718 14:37:59.303575 34808 net.cpp:397] inception_5b/relu_5x5_reduce -> inception_5b/5x5_reduce (in-place)
I0718 14:37:59.304085 34808 net.cpp:150] Setting up inception_5b/relu_5x5_reduce
I0718 14:37:59.304116 34808 net.cpp:157] Top shape: 6 48 31 31 (276768)
I0718 14:37:59.304123 34808 net.cpp:165] Memory required for data: 6497818440
I0718 14:37:59.304132 34808 layer_factory.hpp:76] Creating layer inception_5b/5x5
I0718 14:37:59.304147 34808 net.cpp:106] Creating Layer inception_5b/5x5
I0718 14:37:59.304155 34808 net.cpp:454] inception_5b/5x5 <- inception_5b/5x5_reduce
I0718 14:37:59.304167 34808 net.cpp:411] inception_5b/5x5 -> inception_5b/5x5
I0718 14:37:59.306502 34808 net.cpp:150] Setting up inception_5b/5x5
I0718 14:37:59.306535 34808 net.cpp:157] Top shape: 6 128 31 31 (738048)
I0718 14:37:59.306546 34808 net.cpp:165] Memory required for data: 6500770632
I0718 14:37:59.306557 34808 layer_factory.hpp:76] Creating layer inception_5b/relu_5x5
I0718 14:37:59.306568 34808 net.cpp:106] Creating Layer inception_5b/relu_5x5
I0718 14:37:59.306576 34808 net.cpp:454] inception_5b/relu_5x5 <- inception_5b/5x5
I0718 14:37:59.306586 34808 net.cpp:397] inception_5b/relu_5x5 -> inception_5b/5x5 (in-place)
I0718 14:37:59.306848 34808 net.cpp:150] Setting up inception_5b/relu_5x5
I0718 14:37:59.306875 34808 net.cpp:157] Top shape: 6 128 31 31 (738048)
I0718 14:37:59.306884 34808 net.cpp:165] Memory required for data: 6503722824
I0718 14:37:59.306891 34808 layer_factory.hpp:76] Creating layer inception_5b/pool
I0718 14:37:59.306902 34808 net.cpp:106] Creating Layer inception_5b/pool
I0718 14:37:59.306910 34808 net.cpp:454] inception_5b/pool <- inception_5a/output_inception_5a/output_0_split_3
I0718 14:37:59.306922 34808 net.cpp:411] inception_5b/pool -> inception_5b/pool
I0718 14:37:59.307440 34808 net.cpp:150] Setting up inception_5b/pool
I0718 14:37:59.307459 34808 net.cpp:157] Top shape: 6 832 31 31 (4797312)
I0718 14:37:59.307467 34808 net.cpp:165] Memory required for data: 6522912072
I0718 14:37:59.307476 34808 layer_factory.hpp:76] Creating layer inception_5b/pool_proj
I0718 14:37:59.307489 34808 net.cpp:106] Creating Layer inception_5b/pool_proj
I0718 14:37:59.307498 34808 net.cpp:454] inception_5b/pool_proj <- inception_5b/pool
I0718 14:37:59.307510 34808 net.cpp:411] inception_5b/pool_proj -> inception_5b/pool_proj
I0718 14:37:59.311717 34808 cudnn_conv_layer.cpp:194] Reallocating workspace storage: 9984
I0718 14:37:59.311775 34808 net.cpp:150] Setting up inception_5b/pool_proj
I0718 14:37:59.311789 34808 net.cpp:157] Top shape: 6 128 31 31 (738048)
I0718 14:37:59.311797 34808 net.cpp:165] Memory required for data: 6525864264
I0718 14:37:59.311808 34808 layer_factory.hpp:76] Creating layer inception_5b/relu_pool_proj
I0718 14:37:59.311821 34808 net.cpp:106] Creating Layer inception_5b/relu_pool_proj
I0718 14:37:59.311831 34808 net.cpp:454] inception_5b/relu_pool_proj <- inception_5b/pool_proj
I0718 14:37:59.311841 34808 net.cpp:397] inception_5b/relu_pool_proj -> inception_5b/pool_proj (in-place)
I0718 14:37:59.312062 34808 net.cpp:150] Setting up inception_5b/relu_pool_proj
I0718 14:37:59.312105 34808 net.cpp:157] Top shape: 6 128 31 31 (738048)
I0718 14:37:59.312114 34808 net.cpp:165] Memory required for data: 6528816456
I0718 14:37:59.312137 34808 layer_factory.hpp:76] Creating layer inception_5b/output
I0718 14:37:59.312149 34808 net.cpp:106] Creating Layer inception_5b/output
I0718 14:37:59.312156 34808 net.cpp:454] inception_5b/output <- inception_5b/1x1
I0718 14:37:59.312166 34808 net.cpp:454] inception_5b/output <- inception_5b/3x3
I0718 14:37:59.312175 34808 net.cpp:454] inception_5b/output <- inception_5b/5x5
I0718 14:37:59.312182 34808 net.cpp:454] inception_5b/output <- inception_5b/pool_proj
I0718 14:37:59.312202 34808 net.cpp:411] inception_5b/output -> inception_5b/output
I0718 14:37:59.312245 34808 net.cpp:150] Setting up inception_5b/output
I0718 14:37:59.312265 34808 net.cpp:157] Top shape: 6 1024 31 31 (5904384)
I0718 14:37:59.312273 34808 net.cpp:165] Memory required for data: 6552433992
I0718 14:37:59.312281 34808 layer_factory.hpp:76] Creating layer pool5/7x7_s1
I0718 14:37:59.312293 34808 net.cpp:106] Creating Layer pool5/7x7_s1
I0718 14:37:59.312300 34808 net.cpp:454] pool5/7x7_s1 <- inception_5b/output
I0718 14:37:59.312312 34808 net.cpp:411] pool5/7x7_s1 -> pool5/7x7_s1
I0718 14:37:59.531672 34808 cudnn_conv_layer.cpp:194] Reallocating workspace storage: 602112
I0718 14:37:59.532066 34808 net.cpp:150] Setting up pool5/7x7_s1
I0718 14:37:59.532104 34808 net.cpp:157] Top shape: 6 512 25 25 (1920000)
I0718 14:37:59.532115 34808 net.cpp:165] Memory required for data: 6560113992
I0718 14:37:59.532140 34808 layer_factory.hpp:76] Creating layer conv61
I0718 14:37:59.532181 34808 net.cpp:106] Creating Layer conv61
I0718 14:37:59.532204 34808 net.cpp:454] conv61 <- pool5/7x7_s1
I0718 14:37:59.532228 34808 net.cpp:411] conv61 -> conv61
I0718 14:37:59.536373 34808 cudnn_conv_layer.cpp:194] Reallocating workspace storage: 55296
I0718 14:37:59.536417 34808 net.cpp:150] Setting up conv61
I0718 14:37:59.536430 34808 net.cpp:157] Top shape: 6 64 25 25 (240000)
I0718 14:37:59.536443 34808 net.cpp:165] Memory required for data: 6561073992
I0718 14:37:59.536459 34808 layer_factory.hpp:76] Creating layer relu61
I0718 14:37:59.536478 34808 net.cpp:106] Creating Layer relu61
I0718 14:37:59.536489 34808 net.cpp:454] relu61 <- conv61
I0718 14:37:59.536502 34808 net.cpp:397] relu61 -> conv61 (in-place)
I0718 14:37:59.536700 34808 net.cpp:150] Setting up relu61
I0718 14:37:59.536715 34808 net.cpp:157] Top shape: 6 64 25 25 (240000)
I0718 14:37:59.536725 34808 net.cpp:165] Memory required for data: 6562033992
I0718 14:37:59.536736 34808 layer_factory.hpp:76] Creating layer pool5
I0718 14:37:59.536747 34808 net.cpp:106] Creating Layer pool5
I0718 14:37:59.536757 34808 net.cpp:454] pool5 <- conv61
I0718 14:37:59.536770 34808 net.cpp:411] pool5 -> pool5
I0718 14:37:59.537284 34808 net.cpp:150] Setting up pool5
I0718 14:37:59.537305 34808 net.cpp:157] Top shape: 6 64 13 13 (64896)
I0718 14:37:59.537314 34808 net.cpp:165] Memory required for data: 6562293576
I0718 14:37:59.537323 34808 layer_factory.hpp:76] Creating layer conv62
I0718 14:37:59.537339 34808 net.cpp:106] Creating Layer conv62
I0718 14:37:59.537349 34808 net.cpp:454] conv62 <- pool5
I0718 14:37:59.537364 34808 net.cpp:411] conv62 -> conv62
I0718 14:37:59.539255 34808 net.cpp:150] Setting up conv62
I0718 14:37:59.539276 34808 net.cpp:157] Top shape: 6 64 13 13 (64896)
I0718 14:37:59.539286 34808 net.cpp:165] Memory required for data: 6562553160
I0718 14:37:59.539299 34808 layer_factory.hpp:76] Creating layer relu62
I0718 14:37:59.539310 34808 net.cpp:106] Creating Layer relu62
I0718 14:37:59.539319 34808 net.cpp:454] relu62 <- conv62
I0718 14:37:59.539332 34808 net.cpp:397] relu62 -> conv62 (in-place)
I0718 14:37:59.539523 34808 net.cpp:150] Setting up relu62
I0718 14:37:59.539541 34808 net.cpp:157] Top shape: 6 64 13 13 (64896)
I0718 14:37:59.539551 34808 net.cpp:165] Memory required for data: 6562812744
I0718 14:37:59.539561 34808 layer_factory.hpp:76] Creating layer pool6
I0718 14:37:59.539573 34808 net.cpp:106] Creating Layer pool6
I0718 14:37:59.539582 34808 net.cpp:454] pool6 <- conv62
I0718 14:37:59.539593 34808 net.cpp:411] pool6 -> pool6
I0718 14:37:59.540127 34808 net.cpp:150] Setting up pool6
I0718 14:37:59.540146 34808 net.cpp:157] Top shape: 6 64 7 7 (18816)
I0718 14:37:59.540155 34808 net.cpp:165] Memory required for data: 6562888008
I0718 14:37:59.540166 34808 layer_factory.hpp:76] Creating layer conv82
I0718 14:37:59.540181 34808 net.cpp:106] Creating Layer conv82
I0718 14:37:59.540191 34808 net.cpp:454] conv82 <- pool6
I0718 14:37:59.540202 34808 net.cpp:411] conv82 -> conv82
I0718 14:37:59.541774 34808 cudnn_conv_layer.cpp:194] Reallocating workspace storage: 6912
I0718 14:37:59.541842 34808 net.cpp:150] Setting up conv82
I0718 14:37:59.541857 34808 net.cpp:157] Top shape: 6 128 7 7 (37632)
I0718 14:37:59.541867 34808 net.cpp:165] Memory required for data: 6563038536
I0718 14:37:59.541877 34808 layer_factory.hpp:76] Creating layer relu82
I0718 14:37:59.541889 34808 net.cpp:106] Creating Layer relu82
I0718 14:37:59.541899 34808 net.cpp:454] relu82 <- conv82
I0718 14:37:59.541913 34808 net.cpp:397] relu82 -> conv82 (in-place)
I0718 14:37:59.542356 34808 net.cpp:150] Setting up relu82
I0718 14:37:59.542374 34808 net.cpp:157] Top shape: 6 128 7 7 (37632)
I0718 14:37:59.542383 34808 net.cpp:165] Memory required for data: 6563189064
I0718 14:37:59.542393 34808 layer_factory.hpp:76] Creating layer pool7
I0718 14:37:59.542407 34808 net.cpp:106] Creating Layer pool7
I0718 14:37:59.542415 34808 net.cpp:454] pool7 <- conv82
I0718 14:37:59.542428 34808 net.cpp:411] pool7 -> pool7
I0718 14:37:59.542668 34808 net.cpp:150] Setting up pool7
I0718 14:37:59.542686 34808 net.cpp:157] Top shape: 6 128 4 4 (12288)
I0718 14:37:59.542695 34808 net.cpp:165] Memory required for data: 6563238216
I0718 14:37:59.542706 34808 layer_factory.hpp:76] Creating layer drop0
I0718 14:37:59.542734 34808 net.cpp:106] Creating Layer drop0
I0718 14:37:59.542744 34808 net.cpp:454] drop0 <- pool7
I0718 14:37:59.542754 34808 net.cpp:397] drop0 -> pool7 (in-place)
I0718 14:37:59.542803 34808 net.cpp:150] Setting up drop0
I0718 14:37:59.542815 34808 net.cpp:157] Top shape: 6 128 4 4 (12288)
I0718 14:37:59.542824 34808 net.cpp:165] Memory required for data: 6563287368
I0718 14:37:59.542834 34808 layer_factory.hpp:76] Creating layer conv91
I0718 14:37:59.542850 34808 net.cpp:106] Creating Layer conv91
I0718 14:37:59.542858 34808 net.cpp:454] conv91 <- pool7
I0718 14:37:59.542871 34808 net.cpp:411] conv91 -> conv91
I0718 14:37:59.544479 34808 cudnn_conv_layer.cpp:194] Reallocating workspace storage: 7981056
I0718 14:37:59.544800 34808 net.cpp:150] Setting up conv91
I0718 14:37:59.544821 34808 net.cpp:157] Top shape: 6 3 1 1 (18)
I0718 14:37:59.544829 34808 net.cpp:165] Memory required for data: 6563287440
I0718 14:37:59.544842 34808 layer_factory.hpp:76] Creating layer conv91_conv91_0_split
I0718 14:37:59.544855 34808 net.cpp:106] Creating Layer conv91_conv91_0_split
I0718 14:37:59.544865 34808 net.cpp:454] conv91_conv91_0_split <- conv91
I0718 14:37:59.544877 34808 net.cpp:411] conv91_conv91_0_split -> conv91_conv91_0_split_0
I0718 14:37:59.544888 34808 net.cpp:411] conv91_conv91_0_split -> conv91_conv91_0_split_1
I0718 14:37:59.544952 34808 net.cpp:150] Setting up conv91_conv91_0_split
I0718 14:37:59.544966 34808 net.cpp:157] Top shape: 6 3 1 1 (18)
I0718 14:37:59.544976 34808 net.cpp:157] Top shape: 6 3 1 1 (18)
I0718 14:37:59.544984 34808 net.cpp:165] Memory required for data: 6563287584
I0718 14:37:59.544993 34808 layer_factory.hpp:76] Creating layer accuracy
I0718 14:37:59.545009 34808 net.cpp:106] Creating Layer accuracy
I0718 14:37:59.545018 34808 net.cpp:454] accuracy <- conv91_conv91_0_split_0
I0718 14:37:59.545029 34808 net.cpp:454] accuracy <- label_data_1_split_0
I0718 14:37:59.545040 34808 net.cpp:411] accuracy -> accuracy
…
I0718 14:37:59.551277 34808 net.cpp:322] The NetState phase (1) differed from the phase (0) specified by a rule in layer data
I0718 14:37:59.552057 34808 net.cpp:49] Initializing net from parameters: 
name: "GoogleNet"
state {
  phase: TEST
}
layer {
  name: "data"
  type: "ImageData"
  top: "data"
  top: "label"
  include {
    phase: TEST
  }
  transform_param {
    mirror: false
    mean_value: 163
    mean_value: 116
    mean_value: 181
  }
  image_data_param {
    source: "../lists/mitosis_val.lst"
    batch_size: 4
    shuffle: true
  }
}
layer {
  name: "conv1/7x7_s2"
  type: "Convolution"
  bottom: "data"
  top: "conv1/7x7_s2"
  param {
    lr_mult: 0
    decay_mult: 1
  }
  param {
    lr_mult: 2
    decay_mult: 0
  }
  convolution_param {
    num_output: 64
    pad: 3
    kernel_size: 7
    stride: 2
    weight_filler {
      type: "xavier"
    }
    bias_filler {
      type: "constant"
      value: 0.2
    }
  }
}
layer {
  name: "conv1/relu_7x7"
  type: "ReLU"
  bottom: "conv1/7x7_s2"
  top: "conv1/7x7_s2"
}
layer {
  name: "pool1/3x3_s2"
  type: "Pooling"
  bottom: "conv1/7x7_s2"
  top: "pool1/3x3_s2"
  pooling_param {
    pool: MAX
    kernel_size: 3
    stride: 2
  }
}
layer {
  name: "pool1/norm1"
  type: "LRN"
  bottom: "pool1/3x3_s2"
  top: "pool1/norm1"
  lrn_param {
    local_size: 5
    alpha: 0.0001
    beta: 0.75
  }
}
layer {
  name: "conv2/3x3_reduce"
  type: "Convolution"
  bottom: "pool1/norm1"
  top: "conv2/3x3_reduce"
  param {
    lr_mult: 0
    decay_mult: 1
  }
  param {
    lr_mult: 2
    decay_mult: 0
  }
  convolution_param {
    num_output: 64
    kernel_size: 1
    weight_filler {
      type: "xavier"
    }
    bias_filler {
      type: "constant"
      value: 0.2
    }
  }
}
layer {
  name: "conv2/relu_3x3_reduce"
  type: "ReLU"
  bottom: "conv2/3x3_reduce"
  top: "conv2/3x3_reduce"
}
layer {
  name: "conv2/3x3"
  type: "Convolution"
  bottom: "conv2/3x3_reduce"
  top: "conv2/3x3"
  param {
    lr_mult: 0
    decay_mult: 1
  }
  param {
    lr_mult: 2
    decay_mult: 0
  }
  convolution_param {
    num_output: 192
    pad: 1
    kernel_size: 3
    weight_filler {
      type: "xavier"
    }
    bias_filler {
      type: "constant"
      value: 0.2
    }
  }
}
layer {
  name: "conv2/relu_3x3"
  type: "ReLU"
  bottom: "conv2/3x3"
  top: "conv2/3x3"
}
layer {
  name: "conv2/norm2"
  type: "LRN"
  bottom: "conv2/3x3"
  top: "conv2/norm2"
  lrn_param {
    local_size: 5
    alpha: 0.0001
    beta: 0.75
  }
}
layer {
  name: "pool2/3x3_s2"
  type: "Pooling"
  bottom: "conv2/norm2"
  top: "pool2/3x3_s2"
  pooling_param {
    pool: MAX
    kernel_size: 3
    stride: 2
  }
}
layer {
  name: "inception_3a/1x1"
  type: "Convolution"
  bottom: "pool2/3x3_s2"
  top: "inception_3a/1x1"
  param {
    lr_mult: 0
    decay_mult: 1
  }
  param {
    lr_mult: 2
    decay_mult: 0
  }
  convolution_param {
    num_output: 64
    kernel_size: 1
    weight_filler {
      type: "xavier"
    }
    bias_filler {
      type: "constant"
      value: 0.2
    }
  }
}
layer {
  name: "inception_3a/relu_1x1"
  type: "ReLU"
  bottom: "inception_3a/1x1"
  top: "inception_3a/1x1"
}
layer {
  name: "inception_3a/3x3_reduce"
  type: "Convolution"
  bottom: "pool2/3x3_s2"
  top: "inception_3a/3x3_reduce"
  param {
    lr_mult: 0
    decay_mult: 1
  }
  param {
    lr_mult: 2
    decay_mult: 0
  }
  convolution_param {
    num_output: 96
    kernel_size: 1
    weight_filler {
      type: "xavier"
    }
    bias_filler {
      type: "constant"
      value: 0.2
    }
  }
}
layer {
  name: "inception_3a/relu_3x3_reduce"
  type: "ReLU"
  bottom: "inception_3a/3x3_reduce"
  top: "inception_3a/3x3_reduce"
}
layer {
  name: "inception_3a/3x3"
  type: "Convolution"
  bottom: "inception_3a/3x3_reduce"
  top: "inception_3a/3x3"
  param {
    lr_mult: 0
    decay_mult: 1
  }
  param {
    lr_mult: 2
    decay_mult: 0
  }
  convolution_param {
    num_output: 128
    pad: 1
    kernel_size: 3
    weight_filler {
      type: "xavier"
    }
    bias_filler {
      type: "constant"
      value: 0.2
    }
  }
}
layer {
  name: "inception_3a/relu_3x3"
  type: "ReLU"
  bottom: "inception_3a/3x3"
  top: "inception_3a/3x3"
}
layer {
  name: "inception_3a/5x5_reduce"
  type: "Convolution"
  bottom: "pool2/3x3_s2"
  top: "inception_3a/5x5_reduce"
  param {
    lr_mult: 0
    decay_mult: 1
  }
  param {
    lr_mult: 2
    decay_mult: 0
  }
  convolution_param {
    num_output: 16
    kernel_size: 1
    weight_filler {
      type: "xavier"
    }
    bias_filler {
      type: "constant"
      value: 0.2
    }
  }
}
layer {
  name: "inception_3a/relu_5x5_reduce"
  type: "ReLU"
  bottom: "inception_3a/5x5_reduce"
  top: "inception_3a/5x5_reduce"
}
layer {
  name: "inception_3a/5x5"
  type: "Convolution"
  bottom: "inception_3a/5x5_reduce"
  top: "inception_3a/5x5"
  param {
    lr_mult: 0
    decay_mult: 1
  }
  param {
    lr_mult: 2
    decay_mult: 0
  }
  convolution_param {
    num_output: 32
    pad: 2
    kernel_size: 5
    weight_filler {
      type: "xavier"
    }
    bias_filler {
      type: "constant"
      value: 0.2
    }
  }
}
layer {
  name: "inception_3a/relu_5x5"
  type: "ReLU"
  bottom: "inception_3a/5x5"
  top: "inception_3a/5x5"
}
layer {
  name: "inception_3a/pool"
  type: "Pooling"
  bottom: "pool2/3x3_s2"
  top: "inception_3a/pool"
  pooling_param {
    pool: MAX
    kernel_size: 3
    stride: 1
    pad: 1
  }
}
layer {
  name: "inception_3a/pool_proj"
  type: "Convolution"
  bottom: "inception_3a/pool"
  top: "inception_3a/pool_proj"
  param {
    lr_mult: 0
    decay_mult: 1
  }
  param {
    lr_mult: 2
    decay_mult: 0
  }
  convolution_param {
    num_output: 32
    kernel_size: 1
    weight_filler {
      type: "xavier"
    }
    bias_filler {
      type: "constant"
      value: 0.2
    }
  }
}
layer {
  name: "inception_3a/relu_pool_proj"
  type: "ReLU"
  bottom: "inception_3a/pool_proj"
  top: "inception_3a/pool_proj"
}
layer {
  name: "inception_3a/output"
  type: "Concat"
  bottom: "inception_3a/1x1"
  bottom: "inception_3a/3x3"
  bottom: "inception_3a/5x5"
  bottom: "inception_3a/pool_proj"
  top: "inception_3a/output"
}
layer {
  name: "inception_3b/1x1"
  type: "Convolution"
  bottom: "inception_3a/output"
  top: "inception_3b/1x1"
  param {
    lr_mult: 0
    decay_mult: 1
  }
  param {
    lr_mult: 2
    decay_mult: 0
  }
  convolution_param {
    num_output: 128
    kernel_size: 1
    weight_filler {
      type: "xavier"
    }
    bias_filler {
      type: "constant"
      value: 0.2
    }
  }
}
layer {
  name: "inception_3b/relu_1x1"
  type: "ReLU"
  bottom: "inception_3b/1x1"
  top: "inception_3b/1x1"
}
layer {
  name: "inception_3b/3x3_reduce"
  type: "Convolution"
  bottom: "inception_3a/output"
  top: "inception_3b/3x3_reduce"
  param {
    lr_mult: 0
    decay_mult: 1
  }
  param {
    lr_mult: 2
    decay_mult: 0
  }
  convolution_param {
    num_output: 128
    kernel_size: 1
    weight_filler {
      type: "xavier"
    }
    bias_filler {
      type: "constant"
      value: 0.2
    }
  }
}
layer {
  name: "inception_3b/relu_3x3_reduce"
  type: "ReLU"
  bottom: "inception_3b/3x3_reduce"
  top: "inception_3b/3x3_reduce"
}
layer {
  name: "inception_3b/3x3"
  type: "Convolution"
  bottom: "inception_3b/3x3_reduce"
  top: "inception_3b/3x3"
  param {
    lr_mult: 0
    decay_mult: 1
  }
  param {
    lr_mult: 2
    decay_mult: 0
  }
  convolution_param {
    num_output: 192
    pad: 1
    kernel_size: 3
    weight_filler {
      type: "xavier"
    }
    bias_filler {
      type: "constant"
      value: 0.2
    }
  }
}
layer {
  name: "inception_3b/relu_3x3"
  type: "ReLU"
  bottom: "inception_3b/3x3"
  top: "inception_3b/3x3"
}
layer {
  name: "inception_3b/5x5_reduce"
  type: "Convolution"
  bottom: "inception_3a/output"
  top: "inception_3b/5x5_reduce"
  param {
    lr_mult: 0
    decay_mult: 1
  }
  param {
    lr_mult: 2
    decay_mult: 0
  }
  convolution_param {
    num_output: 32
    kernel_size: 1
    weight_filler {
      type: "xavier"
    }
    bias_filler {
      type: "constant"
      value: 0.2
    }
  }
}
layer {
  name: "inception_3b/relu_5x5_reduce"
  type: "ReLU"
  bottom: "inception_3b/5x5_reduce"
  top: "inception_3b/5x5_reduce"
}
layer {
  name: "inception_3b/5x5"
  type: "Convolution"
  bottom: "inception_3b/5x5_reduce"
  top: "inception_3b/5x5"
  param {
    lr_mult: 0
    decay_mult: 1
  }
  param {
    lr_mult: 2
    decay_mult: 0
  }
  convolution_param {
    num_output: 96
    pad: 2
    kernel_size: 5
    weight_filler {
      type: "xavier"
    }
    bias_filler {
      type: "constant"
      value: 0.2
    }
  }
}
layer {
  name: "inception_3b/relu_5x5"
  type: "ReLU"
  bottom: "inception_3b/5x5"
  top: "inception_3b/5x5"
}
layer {
  name: "inception_3b/pool"
  type: "Pooling"
  bottom: "inception_3a/output"
  top: "inception_3b/pool"
  pooling_param {
    pool: MAX
    kernel_size: 3
    stride: 1
    pad: 1
  }
}
layer {
  name: "inception_3b/pool_proj"
  type: "Convolution"
  bottom: "inception_3b/pool"
  top: "inception_3b/pool_proj"
  param {
    lr_mult: 0
    decay_mult: 1
  }
  param {
    lr_mult: 2
    decay_mult: 0
  }
  convolution_param {
    num_output: 64
    kernel_size: 1
    weight_filler {
      type: "xavier"
    }
    bias_filler {
      type: "constant"
      value: 0.2
    }
  }
}
layer {
  name: "inception_3b/relu_pool_proj"
  type: "ReLU"
  bottom: "inception_3b/pool_proj"
  top: "inception_3b/pool_proj"
}
layer {
  name: "inception_3b/output"
  type: "Concat"
  bottom: "inception_3b/1x1"
  bottom: "inception_3b/3x3"
  bottom: "inception_3b/5x5"
  bottom: "inception_3b/pool_proj"
  top: "inception_3b/output"
}
layer {
  name: "pool3/3x3_s2"
  type: "Pooling"
  bottom: "inception_3b/output"
  top: "pool3/3x3_s2"
  pooling_param {
    pool: MAX
    kernel_size: 3
    stride: 2
  }
}
layer {
  name: "inception_4a/1x1"
  type: "Convolution"
  bottom: "pool3/3x3_s2"
  top: "inception_4a/1x1"
  param {
    lr_mult: 0
    decay_mult: 1
  }
  param {
    lr_mult: 2
    decay_mult: 0
  }
  convolution_param {
    num_output: 192
    kernel_size: 1
    weight_filler {
      type: "xavier"
    }
    bias_filler {
      type: "constant"
      value: 0.2
    }
  }
}
layer {
  name: "inception_4a/relu_1x1"
  type: "ReLU"
  bottom: "inception_4a/1x1"
  top: "inception_4a/1x1"
}
layer {
  name: "inception_4a/3x3_reduce"
  type: "Convolution"
  bottom: "pool3/3x3_s2"
  top: "inception_4a/3x3_reduce"
  param {
    lr_mult: 0
    decay_mult: 1
  }
  param {
    lr_mult: 2
    decay_mult: 0
  }
  convolution_param {
    num_output: 96
    kernel_size: 1
    weight_filler {
      type: "xavier"
    }
    bias_filler {
      type: "constant"
      value: 0.2
    }
  }
}
layer {
  name: "inception_4a/relu_3x3_reduce"
  type: "ReLU"
  bottom: "inception_4a/3x3_reduce"
  top: "inception_4a/3x3_reduce"
}
layer {
  name: "inception_4a/3x3"
  type: "Convolution"
  bottom: "inception_4a/3x3_reduce"
  top: "inception_4a/3x3"
  param {
    lr_mult: 0
    decay_mult: 1
  }
  param {
    lr_mult: 2
    decay_mult: 0
  }
  convolution_param {
    num_output: 208
    pad: 1
    kernel_size: 3
    weight_filler {
      type: "xavier"
    }
    bias_filler {
      type: "constant"
      value: 0.2
    }
  }
}
layer {
  name: "inception_4a/relu_3x3"
  type: "ReLU"
  bottom: "inception_4a/3x3"
  top: "inception_4a/3x3"
}
layer {
  name: "inception_4a/5x5_reduce"
  type: "Convolution"
  bottom: "pool3/3x3_s2"
  top: "inception_4a/5x5_reduce"
  param {
    lr_mult: 0
    decay_mult: 1
  }
  param {
    lr_mult: 2
    decay_mult: 0
  }
  convolution_param {
    num_output: 16
    kernel_size: 1
    weight_filler {
      type: "xavier"
    }
    bias_filler {
      type: "constant"
      value: 0.2
    }
  }
}
layer {
  name: "inception_4a/relu_5x5_reduce"
  type: "ReLU"
  bottom: "inception_4a/5x5_reduce"
  top: "inception_4a/5x5_reduce"
}
layer {
  name: "inception_4a/5x5"
  type: "Convolution"
  bottom: "inception_4a/5x5_reduce"
  top: "inception_4a/5x5"
  param {
    lr_mult: 0
    decay_mult: 1
  }
  param {
    lr_mult: 2
    decay_mult: 0
  }
  convolution_param {
    num_output: 48
    pad: 2
    kernel_size: 5
    weight_filler {
      type: "xavier"
    }
    bias_filler {
      type: "constant"
      value: 0.2
    }
  }
}
layer {
  name: "inception_4a/relu_5x5"
  type: "ReLU"
  bottom: "inception_4a/5x5"
  top: "inception_4a/5x5"
}
layer {
  name: "inception_4a/pool"
  type: "Pooling"
  bottom: "pool3/3x3_s2"
  top: "inception_4a/pool"
  pooling_param {
    pool: MAX
    kernel_size: 3
    stride: 1
    pad: 1
  }
}
layer {
  name: "inception_4a/pool_proj"
  type: "Convolution"
  bottom: "inception_4a/pool"
  top: "inception_4a/pool_proj"
  param {
    lr_mult: 0
    decay_mult: 1
  }
  param {
    lr_mult: 2
    decay_mult: 0
  }
  convolution_param {
    num_output: 64
    kernel_size: 1
    weight_filler {
      type: "xavier"
    }
    bias_filler {
      type: "constant"
      value: 0.2
    }
  }
}
layer {
  name: "inception_4a/relu_pool_proj"
  type: "ReLU"
  bottom: "inception_4a/pool_proj"
  top: "inception_4a/pool_proj"
}
layer {
  name: "inception_4a/output"
  type: "Concat"
  bottom: "inception_4a/1x1"
  bottom: "inception_4a/3x3"
  bottom: "inception_4a/5x5"
  bottom: "inception_4a/pool_proj"
  top: "inception_4a/output"
}
layer {
  name: "inception_4b/1x1"
  type: "Convolution"
  bottom: "inception_4a/output"
  top: "inception_4b/1x1"
  param {
    lr_mult: 0
    decay_mult: 1
  }
  param {
    lr_mult: 2
    decay_mult: 0
  }
  convolution_param {
    num_output: 160
    kernel_size: 1
    weight_filler {
      type: "xavier"
    }
    bias_filler {
      type: "constant"
      value: 0.2
    }
  }
}
layer {
  name: "inception_4b/relu_1x1"
  type: "ReLU"
  bottom: "inception_4b/1x1"
  top: "inception_4b/1x1"
}
layer {
  name: "inception_4b/3x3_reduce"
  type: "Convolution"
  bottom: "inception_4a/output"
  top: "inception_4b/3x3_reduce"
  param {
    lr_mult: 0
    decay_mult: 1
  }
  param {
    lr_mult: 2
    decay_mult: 0
  }
  convolution_param {
    num_output: 112
    kernel_size: 1
    weight_filler {
      type: "xavier"
    }
    bias_filler {
      type: "constant"
      value: 0.2
    }
  }
}
layer {
  name: "inception_4b/relu_3x3_reduce"
  type: "ReLU"
  bottom: "inception_4b/3x3_reduce"
  top: "inception_4b/3x3_reduce"
}
layer {
  name: "inception_4b/3x3"
  type: "Convolution"
  bottom: "inception_4b/3x3_reduce"
  top: "inception_4b/3x3"
  param {
    lr_mult: 0
    decay_mult: 1
  }
  param {
    lr_mult: 2
    decay_mult: 0
  }
  convolution_param {
    num_output: 224
    pad: 1
    kernel_size: 3
    weight_filler {
      type: "xavier"
    }
    bias_filler {
      type: "constant"
      value: 0.2
    }
  }
}
layer {
  name: "inception_4b/relu_3x3"
  type: "ReLU"
  bottom: "inception_4b/3x3"
  top: "inception_4b/3x3"
}
layer {
  name: "inception_4b/5x5_reduce"
  type: "Convolution"
  bottom: "inception_4a/output"
  top: "inception_4b/5x5_reduce"
  param {
    lr_mult: 0
    decay_mult: 1
  }
  param {
    lr_mult: 2
    decay_mult: 0
  }
  convolution_param {
    num_output: 24
    kernel_size: 1
    weight_filler {
      type: "xavier"
    }
    bias_filler {
      type: "constant"
      value: 0.2
    }
  }
}
layer {
  name: "inception_4b/relu_5x5_reduce"
  type: "ReLU"
  bottom: "inception_4b/5x5_reduce"
  top: "inception_4b/5x5_reduce"
}
layer {
  name: "inception_4b/5x5"
  type: "Convolution"
  bottom: "inception_4b/5x5_reduce"
  top: "inception_4b/5x5"
  param {
    lr_mult: 0
    decay_mult: 1
  }
  param {
    lr_mult: 2
    decay_mult: 0
  }
  convolution_param {
    num_output: 64
    pad: 2
…
I0718 14:37:59.839890 34808 net.cpp:157] Top shape: 4 64 62 62 (984064)
I0718 14:37:59.839900 34808 net.cpp:165] Memory required for data: 3441793072
I0718 14:37:59.839910 34808 layer_factory.hpp:76] Creating layer inception_4c/pool
I0718 14:37:59.839922 34808 net.cpp:106] Creating Layer inception_4c/pool
I0718 14:37:59.839933 34808 net.cpp:454] inception_4c/pool <- inception_4b/output_inception_4b/output_0_split_3
I0718 14:37:59.839948 34808 net.cpp:411] inception_4c/pool -> inception_4c/pool
I0718 14:37:59.840498 34808 net.cpp:150] Setting up inception_4c/pool
I0718 14:37:59.840519 34808 net.cpp:157] Top shape: 4 512 62 62 (7872512)
I0718 14:37:59.840529 34808 net.cpp:165] Memory required for data: 3473283120
I0718 14:37:59.840540 34808 layer_factory.hpp:76] Creating layer inception_4c/pool_proj
I0718 14:37:59.840558 34808 net.cpp:106] Creating Layer inception_4c/pool_proj
I0718 14:37:59.840569 34808 net.cpp:454] inception_4c/pool_proj <- inception_4c/pool
I0718 14:37:59.840582 34808 net.cpp:411] inception_4c/pool_proj -> inception_4c/pool_proj
I0718 14:37:59.843080 34808 net.cpp:150] Setting up inception_4c/pool_proj
I0718 14:37:59.843103 34808 net.cpp:157] Top shape: 4 64 62 62 (984064)
I0718 14:37:59.843113 34808 net.cpp:165] Memory required for data: 3477219376
I0718 14:37:59.843143 34808 layer_factory.hpp:76] Creating layer inception_4c/relu_pool_proj
I0718 14:37:59.843158 34808 net.cpp:106] Creating Layer inception_4c/relu_pool_proj
I0718 14:37:59.843169 34808 net.cpp:454] inception_4c/relu_pool_proj <- inception_4c/pool_proj
I0718 14:37:59.843183 34808 net.cpp:397] inception_4c/relu_pool_proj -> inception_4c/pool_proj (in-place)
I0718 14:37:59.843386 34808 net.cpp:150] Setting up inception_4c/relu_pool_proj
I0718 14:37:59.843405 34808 net.cpp:157] Top shape: 4 64 62 62 (984064)
I0718 14:37:59.843415 34808 net.cpp:165] Memory required for data: 3481155632
I0718 14:37:59.843425 34808 layer_factory.hpp:76] Creating layer inception_4c/output
I0718 14:37:59.843439 34808 net.cpp:106] Creating Layer inception_4c/output
I0718 14:37:59.843449 34808 net.cpp:454] inception_4c/output <- inception_4c/1x1
I0718 14:37:59.843459 34808 net.cpp:454] inception_4c/output <- inception_4c/3x3
I0718 14:37:59.843493 34808 net.cpp:454] inception_4c/output <- inception_4c/5x5
I0718 14:37:59.843504 34808 net.cpp:454] inception_4c/output <- inception_4c/pool_proj
I0718 14:37:59.843514 34808 net.cpp:411] inception_4c/output -> inception_4c/output
I0718 14:37:59.843569 34808 net.cpp:150] Setting up inception_4c/output
I0718 14:37:59.843583 34808 net.cpp:157] Top shape: 4 512 62 62 (7872512)
I0718 14:37:59.843592 34808 net.cpp:165] Memory required for data: 3512645680
I0718 14:37:59.843602 34808 layer_factory.hpp:76] Creating layer inception_4c/output_inception_4c/output_0_split
I0718 14:37:59.843616 34808 net.cpp:106] Creating Layer inception_4c/output_inception_4c/output_0_split
I0718 14:37:59.843626 34808 net.cpp:454] inception_4c/output_inception_4c/output_0_split <- inception_4c/output
I0718 14:37:59.843638 34808 net.cpp:411] inception_4c/output_inception_4c/output_0_split -> inception_4c/output_inception_4c/output_0_split_0
I0718 14:37:59.843652 34808 net.cpp:411] inception_4c/output_inception_4c/output_0_split -> inception_4c/output_inception_4c/output_0_split_1
I0718 14:37:59.843663 34808 net.cpp:411] inception_4c/output_inception_4c/output_0_split -> inception_4c/output_inception_4c/output_0_split_2
I0718 14:37:59.843677 34808 net.cpp:411] inception_4c/output_inception_4c/output_0_split -> inception_4c/output_inception_4c/output_0_split_3
I0718 14:37:59.843783 34808 net.cpp:150] Setting up inception_4c/output_inception_4c/output_0_split
I0718 14:37:59.843798 34808 net.cpp:157] Top shape: 4 512 62 62 (7872512)
I0718 14:37:59.843807 34808 net.cpp:157] Top shape: 4 512 62 62 (7872512)
I0718 14:37:59.843817 34808 net.cpp:157] Top shape: 4 512 62 62 (7872512)
I0718 14:37:59.843827 34808 net.cpp:157] Top shape: 4 512 62 62 (7872512)
I0718 14:37:59.843835 34808 net.cpp:165] Memory required for data: 3638605872
I0718 14:37:59.843844 34808 layer_factory.hpp:76] Creating layer inception_4d/1x1
I0718 14:37:59.843861 34808 net.cpp:106] Creating Layer inception_4d/1x1
I0718 14:37:59.843871 34808 net.cpp:454] inception_4d/1x1 <- inception_4c/output_inception_4c/output_0_split_0
I0718 14:37:59.843883 34808 net.cpp:411] inception_4d/1x1 -> inception_4d/1x1
I0718 14:37:59.845808 34808 cudnn_conv_layer.cpp:194] Reallocating workspace storage: 6144
I0718 14:37:59.845856 34808 net.cpp:150] Setting up inception_4d/1x1
I0718 14:37:59.845870 34808 net.cpp:157] Top shape: 4 112 62 62 (1722112)
I0718 14:37:59.845880 34808 net.cpp:165] Memory required for data: 3645494320
I0718 14:37:59.845893 34808 layer_factory.hpp:76] Creating layer inception_4d/relu_1x1
I0718 14:37:59.845909 34808 net.cpp:106] Creating Layer inception_4d/relu_1x1
I0718 14:37:59.845921 34808 net.cpp:454] inception_4d/relu_1x1 <- inception_4d/1x1
I0718 14:37:59.845932 34808 net.cpp:397] inception_4d/relu_1x1 -> inception_4d/1x1 (in-place)
I0718 14:37:59.846412 34808 net.cpp:150] Setting up inception_4d/relu_1x1
I0718 14:37:59.846432 34808 net.cpp:157] Top shape: 4 112 62 62 (1722112)
I0718 14:37:59.846442 34808 net.cpp:165] Memory required for data: 3652382768
I0718 14:37:59.846451 34808 layer_factory.hpp:76] Creating layer inception_4d/3x3_reduce
I0718 14:37:59.846468 34808 net.cpp:106] Creating Layer inception_4d/3x3_reduce
I0718 14:37:59.846482 34808 net.cpp:454] inception_4d/3x3_reduce <- inception_4c/output_inception_4c/output_0_split_1
I0718 14:37:59.846493 34808 net.cpp:411] inception_4d/3x3_reduce -> inception_4d/3x3_reduce
I0718 14:37:59.850380 34808 cudnn_conv_layer.cpp:194] Reallocating workspace storage: 6144
I0718 14:37:59.850433 34808 net.cpp:150] Setting up inception_4d/3x3_reduce
I0718 14:37:59.850450 34808 net.cpp:157] Top shape: 4 144 62 62 (2214144)
I0718 14:37:59.850462 34808 net.cpp:165] Memory required for data: 3661239344
I0718 14:37:59.850474 34808 layer_factory.hpp:76] Creating layer inception_4d/relu_3x3_reduce
I0718 14:37:59.850491 34808 net.cpp:106] Creating Layer inception_4d/relu_3x3_reduce
I0718 14:37:59.850502 34808 net.cpp:454] inception_4d/relu_3x3_reduce <- inception_4d/3x3_reduce
I0718 14:37:59.850538 34808 net.cpp:397] inception_4d/relu_3x3_reduce -> inception_4d/3x3_reduce (in-place)
I0718 14:37:59.851047 34808 net.cpp:150] Setting up inception_4d/relu_3x3_reduce
I0718 14:37:59.851066 34808 net.cpp:157] Top shape: 4 144 62 62 (2214144)
I0718 14:37:59.851076 34808 net.cpp:165] Memory required for data: 3670095920
I0718 14:37:59.851085 34808 layer_factory.hpp:76] Creating layer inception_4d/3x3
I0718 14:37:59.851102 34808 net.cpp:106] Creating Layer inception_4d/3x3
I0718 14:37:59.851114 34808 net.cpp:454] inception_4d/3x3 <- inception_4d/3x3_reduce
I0718 14:37:59.851127 34808 net.cpp:411] inception_4d/3x3 -> inception_4d/3x3
I0718 14:37:59.856120 34808 cudnn_conv_layer.cpp:194] Reallocating workspace storage: 15552
I0718 14:37:59.856173 34808 net.cpp:150] Setting up inception_4d/3x3
I0718 14:37:59.856189 34808 net.cpp:157] Top shape: 4 288 62 62 (4428288)
I0718 14:37:59.856200 34808 net.cpp:165] Memory required for data: 3687809072
I0718 14:37:59.856212 34808 layer_factory.hpp:76] Creating layer inception_4d/relu_3x3
I0718 14:37:59.856230 34808 net.cpp:106] Creating Layer inception_4d/relu_3x3
I0718 14:37:59.856240 34808 net.cpp:454] inception_4d/relu_3x3 <- inception_4d/3x3
I0718 14:37:59.856252 34808 net.cpp:397] inception_4d/relu_3x3 -> inception_4d/3x3 (in-place)
I0718 14:37:59.856462 34808 net.cpp:150] Setting up inception_4d/relu_3x3
I0718 14:37:59.856478 34808 net.cpp:157] Top shape: 4 288 62 62 (4428288)
I0718 14:37:59.856487 34808 net.cpp:165] Memory required for data: 3705522224
I0718 14:37:59.856498 34808 layer_factory.hpp:76] Creating layer inception_4d/5x5_reduce
I0718 14:37:59.856515 34808 net.cpp:106] Creating Layer inception_4d/5x5_reduce
I0718 14:37:59.856528 34808 net.cpp:454] inception_4d/5x5_reduce <- inception_4c/output_inception_4c/output_0_split_2
I0718 14:37:59.856540 34808 net.cpp:411] inception_4d/5x5_reduce -> inception_4d/5x5_reduce
I0718 14:37:59.858100 34808 net.cpp:150] Setting up inception_4d/5x5_reduce
I0718 14:37:59.858122 34808 net.cpp:157] Top shape: 4 32 62 62 (492032)
I0718 14:37:59.858132 34808 net.cpp:165] Memory required for data: 3707490352
I0718 14:37:59.858145 34808 layer_factory.hpp:76] Creating layer inception_4d/relu_5x5_reduce
I0718 14:37:59.858160 34808 net.cpp:106] Creating Layer inception_4d/relu_5x5_reduce
I0718 14:37:59.858171 34808 net.cpp:454] inception_4d/relu_5x5_reduce <- inception_4d/5x5_reduce
I0718 14:37:59.858184 34808 net.cpp:397] inception_4d/relu_5x5_reduce -> inception_4d/5x5_reduce (in-place)
I0718 14:37:59.858671 34808 net.cpp:150] Setting up inception_4d/relu_5x5_reduce
I0718 14:37:59.858693 34808 net.cpp:157] Top shape: 4 32 62 62 (492032)
I0718 14:37:59.858703 34808 net.cpp:165] Memory required for data: 3709458480
I0718 14:37:59.858713 34808 layer_factory.hpp:76] Creating layer inception_4d/5x5
I0718 14:37:59.858729 34808 net.cpp:106] Creating Layer inception_4d/5x5
I0718 14:37:59.858744 34808 net.cpp:454] inception_4d/5x5 <- inception_4d/5x5_reduce
I0718 14:37:59.858757 34808 net.cpp:411] inception_4d/5x5 -> inception_4d/5x5
I0718 14:37:59.860432 34808 net.cpp:150] Setting up inception_4d/5x5
I0718 14:37:59.860453 34808 net.cpp:157] Top shape: 4 64 62 62 (984064)
I0718 14:37:59.860463 34808 net.cpp:165] Memory required for data: 3713394736
I0718 14:37:59.860476 34808 layer_factory.hpp:76] Creating layer inception_4d/relu_5x5
I0718 14:37:59.860491 34808 net.cpp:106] Creating Layer inception_4d/relu_5x5
I0718 14:37:59.860502 34808 net.cpp:454] inception_4d/relu_5x5 <- inception_4d/5x5
I0718 14:37:59.860513 34808 net.cpp:397] inception_4d/relu_5x5 -> inception_4d/5x5 (in-place)
I0718 14:37:59.860998 34808 net.cpp:150] Setting up inception_4d/relu_5x5
I0718 14:37:59.861018 34808 net.cpp:157] Top shape: 4 64 62 62 (984064)
I0718 14:37:59.861027 34808 net.cpp:165] Memory required for data: 3717330992
I0718 14:37:59.861037 34808 layer_factory.hpp:76] Creating layer inception_4d/pool
I0718 14:37:59.861053 34808 net.cpp:106] Creating Layer inception_4d/pool
I0718 14:37:59.861064 34808 net.cpp:454] inception_4d/pool <- inception_4c/output_inception_4c/output_0_split_3
I0718 14:37:59.861100 34808 net.cpp:411] inception_4d/pool -> inception_4d/pool
I0718 14:37:59.861363 34808 net.cpp:150] Setting up inception_4d/pool
I0718 14:37:59.861382 34808 net.cpp:157] Top shape: 4 512 62 62 (7872512)
I0718 14:37:59.861390 34808 net.cpp:165] Memory required for data: 3748821040
I0718 14:37:59.861399 34808 layer_factory.hpp:76] Creating layer inception_4d/pool_proj
I0718 14:37:59.861415 34808 net.cpp:106] Creating Layer inception_4d/pool_proj
I0718 14:37:59.861426 34808 net.cpp:454] inception_4d/pool_proj <- inception_4d/pool
I0718 14:37:59.861439 34808 net.cpp:411] inception_4d/pool_proj -> inception_4d/pool_proj
I0718 14:37:59.863240 34808 net.cpp:150] Setting up inception_4d/pool_proj
I0718 14:37:59.863260 34808 net.cpp:157] Top shape: 4 64 62 62 (984064)
I0718 14:37:59.863270 34808 net.cpp:165] Memory required for data: 3752757296
I0718 14:37:59.863282 34808 layer_factory.hpp:76] Creating layer inception_4d/relu_pool_proj
I0718 14:37:59.863296 34808 net.cpp:106] Creating Layer inception_4d/relu_pool_proj
I0718 14:37:59.863306 34808 net.cpp:454] inception_4d/relu_pool_proj <- inception_4d/pool_proj
I0718 14:37:59.863319 34808 net.cpp:397] inception_4d/relu_pool_proj -> inception_4d/pool_proj (in-place)
I0718 14:37:59.863811 34808 net.cpp:150] Setting up inception_4d/relu_pool_proj
I0718 14:37:59.863831 34808 net.cpp:157] Top shape: 4 64 62 62 (984064)
I0718 14:37:59.863842 34808 net.cpp:165] Memory required for data: 3756693552
I0718 14:37:59.863850 34808 layer_factory.hpp:76] Creating layer inception_4d/output
I0718 14:37:59.863864 34808 net.cpp:106] Creating Layer inception_4d/output
I0718 14:37:59.863874 34808 net.cpp:454] inception_4d/output <- inception_4d/1x1
I0718 14:37:59.863885 34808 net.cpp:454] inception_4d/output <- inception_4d/3x3
I0718 14:37:59.863898 34808 net.cpp:454] inception_4d/output <- inception_4d/5x5
I0718 14:37:59.863905 34808 net.cpp:454] inception_4d/output <- inception_4d/pool_proj
I0718 14:37:59.863919 34808 net.cpp:411] inception_4d/output -> inception_4d/output
I0718 14:37:59.863971 34808 net.cpp:150] Setting up inception_4d/output
I0718 14:37:59.863986 34808 net.cpp:157] Top shape: 4 528 62 62 (8118528)
I0718 14:37:59.863994 34808 net.cpp:165] Memory required for data: 3789167664
I0718 14:37:59.864003 34808 layer_factory.hpp:76] Creating layer inception_4d/output_inception_4d/output_0_split
I0718 14:37:59.864019 34808 net.cpp:106] Creating Layer inception_4d/output_inception_4d/output_0_split
I0718 14:37:59.864029 34808 net.cpp:454] inception_4d/output_inception_4d/output_0_split <- inception_4d/output
I0718 14:37:59.864040 34808 net.cpp:411] inception_4d/output_inception_4d/output_0_split -> inception_4d/output_inception_4d/output_0_split_0
I0718 14:37:59.864053 34808 net.cpp:411] inception_4d/output_inception_4d/output_0_split -> inception_4d/output_inception_4d/output_0_split_1
I0718 14:37:59.864068 34808 net.cpp:411] inception_4d/output_inception_4d/output_0_split -> inception_4d/output_inception_4d/output_0_split_2
I0718 14:37:59.864079 34808 net.cpp:411] inception_4d/output_inception_4d/output_0_split -> inception_4d/output_inception_4d/output_0_split_3
I0718 14:37:59.864189 34808 net.cpp:150] Setting up inception_4d/output_inception_4d/output_0_split
I0718 14:37:59.864203 34808 net.cpp:157] Top shape: 4 528 62 62 (8118528)
I0718 14:37:59.864213 34808 net.cpp:157] Top shape: 4 528 62 62 (8118528)
I0718 14:37:59.864223 34808 net.cpp:157] Top shape: 4 528 62 62 (8118528)
I0718 14:37:59.864231 34808 net.cpp:157] Top shape: 4 528 62 62 (8118528)
I0718 14:37:59.864239 34808 net.cpp:165] Memory required for data: 3919064112
I0718 14:37:59.864248 34808 layer_factory.hpp:76] Creating layer inception_4e/1x1
I0718 14:37:59.864264 34808 net.cpp:106] Creating Layer inception_4e/1x1
I0718 14:37:59.864274 34808 net.cpp:454] inception_4e/1x1 <- inception_4d/output_inception_4d/output_0_split_0
I0718 14:37:59.864286 34808 net.cpp:411] inception_4e/1x1 -> inception_4e/1x1
I0718 14:37:59.867472 34808 cudnn_conv_layer.cpp:194] Reallocating workspace storage: 6336
I0718 14:37:59.867544 34808 net.cpp:150] Setting up inception_4e/1x1
I0718 14:37:59.867560 34808 net.cpp:157] Top shape: 4 256 62 62 (3936256)
I0718 14:37:59.867570 34808 net.cpp:165] Memory required for data: 3934809136
I0718 14:37:59.867583 34808 layer_factory.hpp:76] Creating layer inception_4e/relu_1x1
I0718 14:37:59.867597 34808 net.cpp:106] Creating Layer inception_4e/relu_1x1
I0718 14:37:59.867609 34808 net.cpp:454] inception_4e/relu_1x1 <- inception_4e/1x1
I0718 14:37:59.867620 34808 net.cpp:397] inception_4e/relu_1x1 -> inception_4e/1x1 (in-place)
I0718 14:37:59.867840 34808 net.cpp:150] Setting up inception_4e/relu_1x1
I0718 14:37:59.867857 34808 net.cpp:157] Top shape: 4 256 62 62 (3936256)
I0718 14:37:59.867866 34808 net.cpp:165] Memory required for data: 3950554160
I0718 14:37:59.867875 34808 layer_factory.hpp:76] Creating layer inception_4e/3x3_reduce
I0718 14:37:59.867892 34808 net.cpp:106] Creating Layer inception_4e/3x3_reduce
I0718 14:37:59.867902 34808 net.cpp:454] inception_4e/3x3_reduce <- inception_4d/output_inception_4d/output_0_split_1
I0718 14:37:59.867918 34808 net.cpp:411] inception_4e/3x3_reduce -> inception_4e/3x3_reduce
I0718 14:37:59.869931 34808 net.cpp:150] Setting up inception_4e/3x3_reduce
I0718 14:37:59.869952 34808 net.cpp:157] Top shape: 4 160 62 62 (2460160)
I0718 14:37:59.869962 34808 net.cpp:165] Memory required for data: 3960394800
I0718 14:37:59.869973 34808 layer_factory.hpp:76] Creating layer inception_4e/relu_3x3_reduce
I0718 14:37:59.869988 34808 net.cpp:106] Creating Layer inception_4e/relu_3x3_reduce
I0718 14:37:59.869998 34808 net.cpp:454] inception_4e/relu_3x3_reduce <- inception_4e/3x3_reduce
I0718 14:37:59.870009 34808 net.cpp:397] inception_4e/relu_3x3_reduce -> inception_4e/3x3_reduce (in-place)
I0718 14:37:59.870218 34808 net.cpp:150] Setting up inception_4e/relu_3x3_reduce
I0718 14:37:59.870234 34808 net.cpp:157] Top shape: 4 160 62 62 (2460160)
I0718 14:37:59.870242 34808 net.cpp:165] Memory required for data: 3970235440
I0718 14:37:59.870251 34808 layer_factory.hpp:76] Creating layer inception_4e/3x3
I0718 14:37:59.870267 34808 net.cpp:106] Creating Layer inception_4e/3x3
I0718 14:37:59.870277 34808 net.cpp:454] inception_4e/3x3 <- inception_4e/3x3_reduce
I0718 14:37:59.870291 34808 net.cpp:411] inception_4e/3x3 -> inception_4e/3x3
I0718 14:37:59.875823 34808 net.cpp:150] Setting up inception_4e/3x3
I0718 14:37:59.875844 34808 net.cpp:157] Top shape: 4 320 62 62 (4920320)
I0718 14:37:59.875857 34808 net.cpp:165] Memory required for data: 3989916720
I0718 14:37:59.875869 34808 layer_factory.hpp:76] Creating layer inception_4e/relu_3x3
I0718 14:37:59.875882 34808 net.cpp:106] Creating Layer inception_4e/relu_3x3
I0718 14:37:59.875896 34808 net.cpp:454] inception_4e/relu_3x3 <- inception_4e/3x3
I0718 14:37:59.875907 34808 net.cpp:397] inception_4e/relu_3x3 -> inception_4e/3x3 (in-place)
I0718 14:37:59.876616 34808 net.cpp:150] Setting up inception_4e/relu_3x3
I0718 14:37:59.876634 34808 net.cpp:157] Top shape: 4 320 62 62 (4920320)
I0718 14:37:59.876644 34808 net.cpp:165] Memory required for data: 4009598000
I0718 14:37:59.876652 34808 layer_factory.hpp:76] Creating layer inception_4e/5x5_reduce
I0718 14:37:59.876669 34808 net.cpp:106] Creating Layer inception_4e/5x5_reduce
I0718 14:37:59.876680 34808 net.cpp:454] inception_4e/5x5_reduce <- inception_4d/output_inception_4d/output_0_split_2
I0718 14:37:59.876694 34808 net.cpp:411] inception_4e/5x5_reduce -> inception_4e/5x5_reduce
I0718 14:37:59.878317 34808 net.cpp:150] Setting up inception_4e/5x5_reduce
I0718 14:37:59.878339 34808 net.cpp:157] Top shape: 4 32 62 62 (492032)
I0718 14:37:59.878348 34808 net.cpp:165] Memory required for data: 4011566128
I0718 14:37:59.878360 34808 layer_factory.hpp:76] Creating layer inception_4e/relu_5x5_reduce
I0718 14:37:59.878372 34808 net.cpp:106] Creating Layer inception_4e/relu_5x5_reduce
I0718 14:37:59.878382 34808 net.cpp:454] inception_4e/relu_5x5_reduce <- inception_4e/5x5_reduce
I0718 14:37:59.878396 34808 net.cpp:397] inception_4e/relu_5x5_reduce -> inception_4e/5x5_reduce (in-place)
I0718 14:37:59.878614 34808 net.cpp:150] Setting up inception_4e/relu_5x5_reduce
I0718 14:37:59.878656 34808 net.cpp:157] Top shape: 4 32 62 62 (492032)
I0718 14:37:59.878669 34808 net.cpp:165] Memory required for data: 4013534256
I0718 14:37:59.878682 34808 layer_factory.hpp:76] Creating layer inception_4e/5x5
I0718 14:37:59.878701 34808 net.cpp:106] Creating Layer inception_4e/5x5
I0718 14:37:59.878712 34808 net.cpp:454] inception_4e/5x5 <- inception_4e/5x5_reduce
I0718 14:37:59.878738 34808 net.cpp:411] inception_4e/5x5 -> inception_4e/5x5
I0718 14:37:59.881528 34808 cudnn_conv_layer.cpp:194] Reallocating workspace storage: 9600
I0718 14:37:59.881585 34808 net.cpp:150] Setting up inception_4e/5x5
I0718 14:37:59.881600 34808 net.cpp:157] Top shape: 4 128 62 62 (1968128)
I0718 14:37:59.881610 34808 net.cpp:165] Memory required for data: 4021406768
I0718 14:37:59.881621 34808 layer_factory.hpp:76] Creating layer inception_4e/relu_5x5
I0718 14:37:59.881636 34808 net.cpp:106] Creating Layer inception_4e/relu_5x5
I0718 14:37:59.881645 34808 net.cpp:454] inception_4e/relu_5x5 <- inception_4e/5x5
I0718 14:37:59.881655 34808 net.cpp:397] inception_4e/relu_5x5 -> inception_4e/5x5 (in-place)
I0718 14:37:59.881871 34808 net.cpp:150] Setting up inception_4e/relu_5x5
I0718 14:37:59.881888 34808 net.cpp:157] Top shape: 4 128 62 62 (1968128)
I0718 14:37:59.881896 34808 net.cpp:165] Memory required for data: 4029279280
I0718 14:37:59.881906 34808 layer_factory.hpp:76] Creating layer inception_4e/pool
I0718 14:37:59.881919 34808 net.cpp:106] Creating Layer inception_4e/pool
I0718 14:37:59.881929 34808 net.cpp:454] inception_4e/pool <- inception_4d/output_inception_4d/output_0_split_3
I0718 14:37:59.881944 34808 net.cpp:411] inception_4e/pool -> inception_4e/pool
I0718 14:37:59.882503 34808 net.cpp:150] Setting up inception_4e/pool
I0718 14:37:59.882522 34808 net.cpp:157] Top shape: 4 528 62 62 (8118528)
I0718 14:37:59.882532 34808 net.cpp:165] Memory required for data: 4061753392
I0718 14:37:59.882542 34808 layer_factory.hpp:76] Creating layer inception_4e/pool_proj
I0718 14:37:59.882558 34808 net.cpp:106] Creating Layer inception_4e/pool_proj
I0718 14:37:59.882570 34808 net.cpp:454] inception_4e/pool_proj <- inception_4e/pool
I0718 14:37:59.882583 34808 net.cpp:411] inception_4e/pool_proj -> inception_4e/pool_proj
I0718 14:37:59.884660 34808 cudnn_conv_layer.cpp:194] Reallocating workspace storage: 6336
I0718 14:37:59.884814 34808 net.cpp:150] Setting up inception_4e/pool_proj
I0718 14:37:59.884832 34808 net.cpp:157] Top shape: 4 128 62 62 (1968128)
I0718 14:37:59.884842 34808 net.cpp:165] Memory required for data: 4069625904
I0718 14:37:59.884855 34808 layer_factory.hpp:76] Creating layer inception_4e/relu_pool_proj
I0718 14:37:59.884867 34808 net.cpp:106] Creating Layer inception_4e/relu_pool_proj
I0718 14:37:59.884883 34808 net.cpp:454] inception_4e/relu_pool_proj <- inception_4e/pool_proj
I0718 14:37:59.884893 34808 net.cpp:397] inception_4e/relu_pool_proj -> inception_4e/pool_proj (in-place)
I0718 14:37:59.885116 34808 net.cpp:150] Setting up inception_4e/relu_pool_proj
I0718 14:37:59.885134 34808 net.cpp:157] Top shape: 4 128 62 62 (1968128)
I0718 14:37:59.885143 34808 net.cpp:165] Memory required for data: 4077498416
I0718 14:37:59.885152 34808 layer_factory.hpp:76] Creating layer inception_4e/output
I0718 14:37:59.885165 34808 net.cpp:106] Creating Layer inception_4e/output
I0718 14:37:59.885175 34808 net.cpp:454] inception_4e/output <- inception_4e/1x1
I0718 14:37:59.885186 34808 net.cpp:454] inception_4e/output <- inception_4e/3x3
I0718 14:37:59.885196 34808 net.cpp:454] inception_4e/output <- inception_4e/5x5
I0718 14:37:59.885206 34808 net.cpp:454] inception_4e/output <- inception_4e/pool_proj
I0718 14:37:59.885220 34808 net.cpp:411] inception_4e/output -> inception_4e/output
I0718 14:37:59.885272 34808 net.cpp:150] Setting up inception_4e/output
I0718 14:37:59.885285 34808 net.cpp:157] Top shape: 4 832 62 62 (12792832)
I0718 14:37:59.885294 34808 net.cpp:165] Memory required for data: 4128669744
I0718 14:37:59.885318 34808 layer_factory.hpp:76] Creating layer pool4/3x3_s2
I0718 14:37:59.885332 34808 net.cpp:106] Creating Layer pool4/3x3_s2
I0718 14:37:59.885342 34808 net.cpp:454] pool4/3x3_s2 <- inception_4e/output
I0718 14:37:59.885354 34808 net.cpp:411] pool4/3x3_s2 -> pool4/3x3_s2
I0718 14:37:59.885931 34808 net.cpp:150] Setting up pool4/3x3_s2
I0718 14:37:59.885951 34808 net.cpp:157] Top shape: 4 832 31 31 (3198208)
I0718 14:37:59.885962 34808 net.cpp:165] Memory required for data: 4141462576
I0718 14:37:59.885970 34808 layer_factory.hpp:76] Creating layer pool4/3x3_s2_pool4/3x3_s2_0_split
I0718 14:37:59.885988 34808 net.cpp:106] Creating Layer pool4/3x3_s2_pool4/3x3_s2_0_split
I0718 14:37:59.885999 34808 net.cpp:454] pool4/3x3_s2_pool4/3x3_s2_0_split <- pool4/3x3_s2
I0718 14:37:59.886010 34808 net.cpp:411] pool4/3x3_s2_pool4/3x3_s2_0_split -> pool4/3x3_s2_pool4/3x3_s2_0_split_0
I0718 14:37:59.886026 34808 net.cpp:411] pool4/3x3_s2_pool4/3x3_s2_0_split -> pool4/3x3_s2_pool4/3x3_s2_0_split_1
I0718 14:37:59.886039 34808 net.cpp:411] pool4/3x3_s2_pool4/3x3_s2_0_split -> pool4/3x3_s2_pool4/3x3_s2_0_split_2
I0718 14:37:59.886056 34808 net.cpp:411] pool4/3x3_s2_pool4/3x3_s2_0_split -> pool4/3x3_s2_pool4/3x3_s2_0_split_3
I0718 14:37:59.886183 34808 net.cpp:150] Setting up pool4/3x3_s2_pool4/3x3_s2_0_split
I0718 14:37:59.886198 34808 net.cpp:157] Top shape: 4 832 31 31 (3198208)
I0718 14:37:59.886207 34808 net.cpp:157] Top shape: 4 832 31 31 (3198208)
I0718 14:37:59.886217 34808 net.cpp:157] Top shape: 4 832 31 31 (3198208)
I0718 14:37:59.886226 34808 net.cpp:157] Top shape: 4 832 31 31 (3198208)
I0718 14:37:59.886235 34808 net.cpp:165] Memory required for data: 4192633904
I0718 14:37:59.886245 34808 layer_factory.hpp:76] Creating layer inception_5a/1x1
I0718 14:37:59.886260 34808 net.cpp:106] Creating Layer inception_5a/1x1
I0718 14:37:59.886271 34808 net.cpp:454] inception_5a/1x1 <- pool4/3x3_s2_pool4/3x3_s2_0_split_0
I0718 14:37:59.886284 34808 net.cpp:411] inception_5a/1x1 -> inception_5a/1x1
I0718 14:37:59.889968 34808 cudnn_conv_layer.cpp:194] Reallocating workspace storage: 9984
I0718 14:37:59.890022 34808 net.cpp:150] Setting up inception_5a/1x1
I0718 14:37:59.890048 34808 net.cpp:157] Top shape: 4 256 31 31 (984064)
I0718 14:37:59.890058 34808 net.cpp:165] Memory required for data: 4196570160
I0718 14:37:59.890070 34808 layer_factory.hpp:76] Creating layer inception_5a/relu_1x1
I0718 14:37:59.890090 34808 net.cpp:106] Creating Layer inception_5a/relu_1x1
I0718 14:37:59.890101 34808 net.cpp:454] inception_5a/relu_1x1 <- inception_5a/1x1
I0718 14:37:59.890112 34808 net.cpp:397] inception_5a/relu_1x1 -> inception_5a/1x1 (in-place)
I0718 14:37:59.890336 34808 net.cpp:150] Setting up inception_5a/relu_1x1
I0718 14:37:59.890354 34808 net.cpp:157] Top shape: 4 256 31 31 (984064)
I0718 14:37:59.890363 34808 net.cpp:165] Memory required for data: 4200506416
I0718 14:37:59.890373 34808 layer_factory.hpp:76] Creating layer inception_5a/3x3_reduce
I0718 14:37:59.890393 34808 net.cpp:106] Creating Layer inception_5a/3x3_reduce
I0718 14:37:59.890403 34808 net.cpp:454] inception_5a/3x3_reduce <- pool4/3x3_s2_pool4/3x3_s2_0_split_1
I0718 14:37:59.890416 34808 net.cpp:411] inception_5a/3x3_reduce -> inception_5a/3x3_reduce
I0718 14:37:59.893573 34808 cudnn_conv_layer.cpp:194] Reallocating workspace storage: 9984
I0718 14:37:59.893641 34808 net.cpp:150] Setting up inception_5a/3x3_reduce
I0718 14:37:59.893668 34808 net.cpp:157] Top shape: 4 160 31 31 (615040)
I0718 14:37:59.893678 34808 net.cpp:165] Memory required for data: 4202966576
I0718 14:37:59.893689 34808 layer_factory.hpp:76] Creating layer inception_5a/relu_3x3_reduce
I0718 14:37:59.893704 34808 net.cpp:106] Creating Layer inception_5a/relu_3x3_reduce
I0718 14:37:59.893726 34808 net.cpp:454] inception_5a/relu_3x3_reduce <- inception_5a/3x3_reduce
I0718 14:37:59.893738 34808 net.cpp:397] inception_5a/relu_3x3_reduce -> inception_5a/3x3_reduce (in-place)
I0718 14:37:59.893954 34808 net.cpp:150] Setting up inception_5a/relu_3x3_reduce
I0718 14:37:59.893983 34808 net.cpp:157] Top shape: 4 160 31 31 (615040)
I0718 14:37:59.893993 34808 net.cpp:165] Memory required for data: 4205426736
I0718 14:37:59.894002 34808 layer_factory.hpp:76] Creating layer inception_5a/3x3
I0718 14:37:59.894019 34808 net.cpp:106] Creating Layer inception_5a/3x3
I0718 14:37:59.894031 34808 net.cpp:454] inception_5a/3x3 <- inception_5a/3x3_reduce
I0718 14:37:59.894043 34808 net.cpp:411] inception_5a/3x3 -> inception_5a/3x3
I0718 14:37:59.899735 34808 net.cpp:150] Setting up inception_5a/3x3
I0718 14:37:59.899758 34808 net.cpp:157] Top shape: 4 320 31 31 (1230080)
I0718 14:37:59.899770 34808 net.cpp:165] Memory required for data: 4210347056
I0718 14:37:59.899782 34808 layer_factory.hpp:76] Creating layer inception_5a/relu_3x3
I0718 14:37:59.899798 34808 net.cpp:106] Creating Layer inception_5a/relu_3x3
I0718 14:37:59.899809 34808 net.cpp:454] inception_5a/relu_3x3 <- inception_5a/3x3
I0718 14:37:59.899821 34808 net.cpp:397] inception_5a/relu_3x3 -> inception_5a/3x3 (in-place)
I0718 14:37:59.900513 34808 net.cpp:150] Setting up inception_5a/relu_3x3
I0718 14:37:59.900534 34808 net.cpp:157] Top shape: 4 320 31 31 (1230080)
I0718 14:37:59.900545 34808 net.cpp:165] Memory required for data: 4215267376
I0718 14:37:59.900555 34808 layer_factory.hpp:76] Creating layer inception_5a/5x5_reduce
I0718 14:37:59.900570 34808 net.cpp:106] Creating Layer inception_5a/5x5_reduce
I0718 14:37:59.900581 34808 net.cpp:454] inception_5a/5x5_reduce <- pool4/3x3_s2_pool4/3x3_s2_0_split_2
I0718 14:37:59.900594 34808 net.cpp:411] inception_5a/5x5_reduce -> inception_5a/5x5_reduce
I0718 14:37:59.902170 34808 cudnn_conv_layer.cpp:194] Reallocating workspace storage: 9984
I0718 14:37:59.902223 34808 net.cpp:150] Setting up inception_5a/5x5_reduce
I0718 14:37:59.902238 34808 net.cpp:157] Top shape: 4 32 31 31 (123008)
I0718 14:37:59.902248 34808 net.cpp:165] Memory required for data: 4215759408
I0718 14:37:59.902261 34808 layer_factory.hpp:76] Creating layer inception_5a/relu_5x5_reduce
I0718 14:37:59.902276 34808 net.cpp:106] Creating Layer inception_5a/relu_5x5_reduce
I0718 14:37:59.902288 34808 net.cpp:454] inception_5a/relu_5x5_reduce <- inception_5a/5x5_reduce
I0718 14:37:59.902300 34808 net.cpp:397] inception_5a/relu_5x5_reduce -> inception_5a/5x5_reduce (in-place)
I0718 14:37:59.902524 34808 net.cpp:150] Setting up inception_5a/relu_5x5_reduce
I0718 14:37:59.902541 34808 net.cpp:157] Top shape: 4 32 31 31 (123008)
I0718 14:37:59.902551 34808 net.cpp:165] Memory required for data: 4216251440
I0718 14:37:59.902561 34808 layer_factory.hpp:76] Creating layer inception_5a/5x5
I0718 14:37:59.902600 34808 net.cpp:106] Creating Layer inception_5a/5x5
I0718 14:37:59.902611 34808 net.cpp:454] inception_5a/5x5 <- inception_5a/5x5_reduce
I0718 14:37:59.902626 34808 net.cpp:411] inception_5a/5x5 -> inception_5a/5x5
I0718 14:37:59.905292 34808 cudnn_conv_layer.cpp:194] Reallocating workspace storage: 9600
I0718 14:37:59.905345 34808 net.cpp:150] Setting up inception_5a/5x5
I0718 14:37:59.905361 34808 net.cpp:157] Top shape: 4 128 31 31 (492032)
I0718 14:37:59.905370 34808 net.cpp:165] Memory required for data: 4218219568
I0718 14:37:59.905385 34808 layer_factory.hpp:76] Creating layer inception_5a/relu_5x5
I0718 14:37:59.905400 34808 net.cpp:106] Creating Layer inception_5a/relu_5x5
I0718 14:37:59.905411 34808 net.cpp:454] inception_5a/relu_5x5 <- inception_5a/5x5
I0718 14:37:59.905426 34808 net.cpp:397] inception_5a/relu_5x5 -> inception_5a/5x5 (in-place)
I0718 14:37:59.905656 34808 net.cpp:150] Setting up inception_5a/relu_5x5
I0718 14:37:59.905674 34808 net.cpp:157] Top shape: 4 128 31 31 (492032)
I0718 14:37:59.905684 34808 net.cpp:165] Memory required for data: 4220187696
I0718 14:37:59.905694 34808 layer_factory.hpp:76] Creating layer inception_5a/pool
I0718 14:37:59.905709 34808 net.cpp:106] Creating Layer inception_5a/pool
I0718 14:37:59.905719 34808 net.cpp:454] inception_5a/pool <- pool4/3x3_s2_pool4/3x3_s2_0_split_3
I0718 14:37:59.905731 34808 net.cpp:411] inception_5a/pool -> inception_5a/pool
I0718 14:37:59.906294 34808 net.cpp:150] Setting up inception_5a/pool
I0718 14:37:59.906328 34808 net.cpp:157] Top shape: 4 832 31 31 (3198208)
I0718 14:37:59.906338 34808 net.cpp:165] Memory required for data: 4232980528
I0718 14:37:59.906348 34808 layer_factory.hpp:76] Creating layer inception_5a/pool_proj
I0718 14:37:59.906365 34808 net.cpp:106] Creating Layer inception_5a/pool_proj
I0718 14:37:59.906376 34808 net.cpp:454] inception_5a/pool_proj <- inception_5a/pool
I0718 14:37:59.906390 34808 net.cpp:411] inception_5a/pool_proj -> inception_5a/pool_proj
I0718 14:37:59.909521 34808 cudnn_conv_layer.cpp:194] Reallocating workspace storage: 9984
I0718 14:37:59.909581 34808 net.cpp:150] Setting up inception_5a/pool_proj
I0718 14:37:59.909597 34808 net.cpp:157] Top shape: 4 128 31 31 (492032)
I0718 14:37:59.909607 34808 net.cpp:165] Memory required for data: 4234948656
I0718 14:37:59.909620 34808 layer_factory.hpp:76] Creating layer inception_5a/relu_pool_proj
I0718 14:37:59.909632 34808 net.cpp:106] Creating Layer inception_5a/relu_pool_proj
I0718 14:37:59.909643 34808 net.cpp:454] inception_5a/relu_pool_proj <- inception_5a/pool_proj
I0718 14:37:59.909656 34808 net.cpp:397] inception_5a/relu_pool_proj -> inception_5a/pool_proj (in-place)
I0718 14:37:59.909879 34808 net.cpp:150] Setting up inception_5a/relu_pool_proj
I0718 14:37:59.909896 34808 net.cpp:157] Top shape: 4 128 31 31 (492032)
I0718 14:37:59.909905 34808 net.cpp:165] Memory required for data: 4236916784
I0718 14:37:59.909914 34808 layer_factory.hpp:76] Creating layer inception_5a/output
I0718 14:37:59.909930 34808 net.cpp:106] Creating Layer inception_5a/output
I0718 14:37:59.909940 34808 net.cpp:454] inception_5a/output <- inception_5a/1x1
I0718 14:37:59.909952 34808 net.cpp:454] inception_5a/output <- inception_5a/3x3
I0718 14:37:59.909965 34808 net.cpp:454] inception_5a/output <- inception_5a/5x5
I0718 14:37:59.909975 34808 net.cpp:454] inception_5a/output <- inception_5a/pool_proj
I0718 14:37:59.909986 34808 net.cpp:411] inception_5a/output -> inception_5a/output
I0718 14:37:59.910056 34808 net.cpp:150] Setting up inception_5a/output
I0718 14:37:59.910071 34808 net.cpp:157] Top shape: 4 832 31 31 (3198208)
I0718 14:37:59.910081 34808 net.cpp:165] Memory required for data: 4249709616
I0718 14:37:59.910092 34808 layer_factory.hpp:76] Creating layer inception_5a/output_inception_5a/output_0_split
I0718 14:37:59.910105 34808 net.cpp:106] Creating Layer inception_5a/output_inception_5a/output_0_split
I0718 14:37:59.910116 34808 net.cpp:454] inception_5a/output_inception_5a/output_0_split <- inception_5a/output
I0718 14:37:59.910130 34808 net.cpp:411] inception_5a/output_inception_5a/output_0_split -> inception_5a/output_inception_5a/output_0_split_0
I0718 14:37:59.910143 34808 net.cpp:411] inception_5a/output_inception_5a/output_0_split -> inception_5a/output_inception_5a/output_0_split_1
I0718 14:37:59.910157 34808 net.cpp:411] inception_5a/output_inception_5a/output_0_split -> inception_5a/output_inception_5a/output_0_split_2
I0718 14:37:59.910169 34808 net.cpp:411] inception_5a/output_inception_5a/output_0_split -> inception_5a/output_inception_5a/output_0_split_3
I0718 14:37:59.910305 34808 net.cpp:150] Setting up inception_5a/output_inception_5a/output_0_split
I0718 14:37:59.910321 34808 net.cpp:157] Top shape: 4 832 31 31 (3198208)
I0718 14:37:59.910332 34808 net.cpp:157] Top shape: 4 832 31 31 (3198208)
I0718 14:37:59.910341 34808 net.cpp:157] Top shape: 4 832 31 31 (3198208)
I0718 14:37:59.910351 34808 net.cpp:157] Top shape: 4 832 31 31 (3198208)
I0718 14:37:59.910361 34808 net.cpp:165] Memory required for data: 4300880944
I0718 14:37:59.910370 34808 layer_factory.hpp:76] Creating layer inception_5b/1x1
I0718 14:37:59.910384 34808 net.cpp:106] Creating Layer inception_5b/1x1
I0718 14:37:59.910394 34808 net.cpp:454] inception_5b/1x1 <- inception_5a/output_inception_5a/output_0_split_0
I0718 14:37:59.910408 34808 net.cpp:411] inception_5b/1x1 -> inception_5b/1x1
I0718 14:37:59.915032 34808 cudnn_conv_layer.cpp:194] Reallocating workspace storage: 9984
I0718 14:37:59.915091 34808 net.cpp:150] Setting up inception_5b/1x1
I0718 14:37:59.915125 34808 net.cpp:157] Top shape: 4 384 31 31 (1476096)
I0718 14:37:59.915138 34808 net.cpp:165] Memory required for data: 4306785328
I0718 14:37:59.915149 34808 layer_factory.hpp:76] Creating layer inception_5b/relu_1x1
I0718 14:37:59.915168 34808 net.cpp:106] Creating Layer inception_5b/relu_1x1
I0718 14:37:59.915179 34808 net.cpp:454] inception_5b/relu_1x1 <- inception_5b/1x1
I0718 14:37:59.915194 34808 net.cpp:397] inception_5b/relu_1x1 -> inception_5b/1x1 (in-place)
I0718 14:37:59.915709 34808 net.cpp:150] Setting up inception_5b/relu_1x1
I0718 14:37:59.915729 34808 net.cpp:157] Top shape: 4 384 31 31 (1476096)
I0718 14:37:59.915738 34808 net.cpp:165] Memory required for data: 4312689712
I0718 14:37:59.915746 34808 layer_factory.hpp:76] Creating layer inception_5b/3x3_reduce
I0718 14:37:59.915762 34808 net.cpp:106] Creating Layer inception_5b/3x3_reduce
I0718 14:37:59.915772 34808 net.cpp:454] inception_5b/3x3_reduce <- inception_5a/output_inception_5a/output_0_split_1
I0718 14:37:59.915787 34808 net.cpp:411] inception_5b/3x3_reduce -> inception_5b/3x3_reduce
I0718 14:37:59.919036 34808 cudnn_conv_layer.cpp:194] Reallocating workspace storage: 9984
I0718 14:37:59.919088 34808 net.cpp:150] Setting up inception_5b/3x3_reduce
I0718 14:37:59.919107 34808 net.cpp:157] Top shape: 4 192 31 31 (738048)
I0718 14:37:59.919121 34808 net.cpp:165] Memory required for data: 4315641904
I0718 14:37:59.919132 34808 layer_factory.hpp:76] Creating layer inception_5b/relu_3x3_reduce
I0718 14:37:59.919150 34808 net.cpp:106] Creating Layer inception_5b/relu_3x3_reduce
I0718 14:37:59.919170 34808 net.cpp:454] inception_5b/relu_3x3_reduce <- inception_5b/3x3_reduce
I0718 14:37:59.919183 34808 net.cpp:397] inception_5b/relu_3x3_reduce -> inception_5b/3x3_reduce (in-place)
I0718 14:37:59.919685 34808 net.cpp:150] Setting up inception_5b/relu_3x3_reduce
I0718 14:37:59.919705 34808 net.cpp:157] Top shape: 4 192 31 31 (738048)
I0718 14:37:59.919713 34808 net.cpp:165] Memory required for data: 4318594096
I0718 14:37:59.919721 34808 layer_factory.hpp:76] Creating layer inception_5b/3x3
I0718 14:37:59.919737 34808 net.cpp:106] Creating Layer inception_5b/3x3
I0718 14:37:59.919747 34808 net.cpp:454] inception_5b/3x3 <- inception_5b/3x3_reduce
I0718 14:37:59.919761 34808 net.cpp:411] inception_5b/3x3 -> inception_5b/3x3
I0718 14:37:59.927377 34808 net.cpp:150] Setting up inception_5b/3x3
I0718 14:37:59.927402 34808 net.cpp:157] Top shape: 4 384 31 31 (1476096)
I0718 14:37:59.927414 34808 net.cpp:165] Memory required for data: 4324498480
I0718 14:37:59.927426 34808 layer_factory.hpp:76] Creating layer inception_5b/relu_3x3
I0718 14:37:59.927440 34808 net.cpp:106] Creating Layer inception_5b/relu_3x3
I0718 14:37:59.927454 34808 net.cpp:454] inception_5b/relu_3x3 <- inception_5b/3x3
I0718 14:37:59.927465 34808 net.cpp:397] inception_5b/relu_3x3 -> inception_5b/3x3 (in-place)
I0718 14:37:59.927687 34808 net.cpp:150] Setting up inception_5b/relu_3x3
I0718 14:37:59.927705 34808 net.cpp:157] Top shape: 4 384 31 31 (1476096)
I0718 14:37:59.927717 34808 net.cpp:165] Memory required for data: 4330402864
I0718 14:37:59.927726 34808 layer_factory.hpp:76] Creating layer inception_5b/5x5_reduce
I0718 14:37:59.927742 34808 net.cpp:106] Creating Layer inception_5b/5x5_reduce
I0718 14:37:59.927753 34808 net.cpp:454] inception_5b/5x5_reduce <- inception_5a/output_inception_5a/output_0_split_2
I0718 14:37:59.927767 34808 net.cpp:411] inception_5b/5x5_reduce -> inception_5b/5x5_reduce
I0718 14:37:59.929709 34808 net.cpp:150] Setting up inception_5b/5x5_reduce
I0718 14:37:59.929734 34808 net.cpp:157] Top shape: 4 48 31 31 (184512)
I0718 14:37:59.929744 34808 net.cpp:165] Memory required for data: 4331140912
I0718 14:37:59.929757 34808 layer_factory.hpp:76] Creating layer inception_5b/relu_5x5_reduce
I0718 14:37:59.929770 34808 net.cpp:106] Creating Layer inception_5b/relu_5x5_reduce
I0718 14:37:59.929781 34808 net.cpp:454] inception_5b/relu_5x5_reduce <- inception_5b/5x5_reduce
I0718 14:37:59.929795 34808 net.cpp:397] inception_5b/relu_5x5_reduce -> inception_5b/5x5_reduce (in-place)
I0718 14:37:59.930317 34808 net.cpp:150] Setting up inception_5b/relu_5x5_reduce
I0718 14:37:59.930341 34808 net.cpp:157] Top shape: 4 48 31 31 (184512)
I0718 14:37:59.930351 34808 net.cpp:165] Memory required for data: 4331878960
I0718 14:37:59.930359 34808 layer_factory.hpp:76] Creating layer inception_5b/5x5
I0718 14:37:59.930375 34808 net.cpp:106] Creating Layer inception_5b/5x5
I0718 14:37:59.930387 34808 net.cpp:454] inception_5b/5x5 <- inception_5b/5x5_reduce
I0718 14:37:59.930403 34808 net.cpp:411] inception_5b/5x5 -> inception_5b/5x5
I0718 14:37:59.933243 34808 net.cpp:150] Setting up inception_5b/5x5
I0718 14:37:59.933269 34808 net.cpp:157] Top shape: 4 128 31 31 (492032)
I0718 14:37:59.933280 34808 net.cpp:165] Memory required for data: 4333847088
I0718 14:37:59.933293 34808 layer_factory.hpp:76] Creating layer inception_5b/relu_5x5
I0718 14:37:59.933315 34808 net.cpp:106] Creating Layer inception_5b/relu_5x5
I0718 14:37:59.933327 34808 net.cpp:454] inception_5b/relu_5x5 <- inception_5b/5x5
I0718 14:37:59.933341 34808 net.cpp:397] inception_5b/relu_5x5 -> inception_5b/5x5 (in-place)
I0718 14:37:59.933856 34808 net.cpp:150] Setting up inception_5b/relu_5x5
I0718 14:37:59.933876 34808 net.cpp:157] Top shape: 4 128 31 31 (492032)
I0718 14:37:59.933887 34808 net.cpp:165] Memory required for data: 4335815216
I0718 14:37:59.933897 34808 layer_factory.hpp:76] Creating layer inception_5b/pool
I0718 14:37:59.933910 34808 net.cpp:106] Creating Layer inception_5b/pool
I0718 14:37:59.933922 34808 net.cpp:454] inception_5b/pool <- inception_5a/output_inception_5a/output_0_split_3
I0718 14:37:59.933936 34808 net.cpp:411] inception_5b/pool -> inception_5b/pool
I0718 14:37:59.934501 34808 net.cpp:150] Setting up inception_5b/pool
I0718 14:37:59.934522 34808 net.cpp:157] Top shape: 4 832 31 31 (3198208)
I0718 14:37:59.934533 34808 net.cpp:165] Memory required for data: 4348608048
I0718 14:37:59.934545 34808 layer_factory.hpp:76] Creating layer inception_5b/pool_proj
I0718 14:37:59.934561 34808 net.cpp:106] Creating Layer inception_5b/pool_proj
I0718 14:37:59.934572 34808 net.cpp:454] inception_5b/pool_proj <- inception_5b/pool
I0718 14:37:59.934587 34808 net.cpp:411] inception_5b/pool_proj -> inception_5b/pool_proj
I0718 14:37:59.937433 34808 cudnn_conv_layer.cpp:194] Reallocating workspace storage: 9984
I0718 14:37:59.937501 34808 net.cpp:150] Setting up inception_5b/pool_proj
I0718 14:37:59.937517 34808 net.cpp:157] Top shape: 4 128 31 31 (492032)
I0718 14:37:59.937527 34808 net.cpp:165] Memory required for data: 4350576176
I0718 14:37:59.937541 34808 layer_factory.hpp:76] Creating layer inception_5b/relu_pool_proj
I0718 14:37:59.937554 34808 net.cpp:106] Creating Layer inception_5b/relu_pool_proj
I0718 14:37:59.937566 34808 net.cpp:454] inception_5b/relu_pool_proj <- inception_5b/pool_proj
I0718 14:37:59.937580 34808 net.cpp:397] inception_5b/relu_pool_proj -> inception_5b/pool_proj (in-place)
I0718 14:37:59.938390 34808 net.cpp:150] Setting up inception_5b/relu_pool_proj
I0718 14:37:59.938411 34808 net.cpp:157] Top shape: 4 128 31 31 (492032)
I0718 14:37:59.938421 34808 net.cpp:165] Memory required for data: 4352544304
I0718 14:37:59.938431 34808 layer_factory.hpp:76] Creating layer inception_5b/output
I0718 14:37:59.938446 34808 net.cpp:106] Creating Layer inception_5b/output
I0718 14:37:59.938457 34808 net.cpp:454] inception_5b/output <- inception_5b/1x1
I0718 14:37:59.938468 34808 net.cpp:454] inception_5b/output <- inception_5b/3x3
I0718 14:37:59.938478 34808 net.cpp:454] inception_5b/output <- inception_5b/5x5
I0718 14:37:59.938489 34808 net.cpp:454] inception_5b/output <- inception_5b/pool_proj
I0718 14:37:59.938503 34808 net.cpp:411] inception_5b/output -> inception_5b/output
I0718 14:37:59.938565 34808 net.cpp:150] Setting up inception_5b/output
I0718 14:37:59.938580 34808 net.cpp:157] Top shape: 4 1024 31 31 (3936256)
I0718 14:37:59.938590 34808 net.cpp:165] Memory required for data: 4368289328
I0718 14:37:59.938599 34808 layer_factory.hpp:76] Creating layer pool5/7x7_s1
I0718 14:37:59.938676 34808 net.cpp:106] Creating Layer pool5/7x7_s1
I0718 14:37:59.938690 34808 net.cpp:454] pool5/7x7_s1 <- inception_5b/output
I0718 14:37:59.938706 34808 net.cpp:411] pool5/7x7_s1 -> pool5/7x7_s1
I0718 14:38:00.158545 34808 cudnn_conv_layer.cpp:194] Reallocating workspace storage: 602112
I0718 14:38:00.158962 34808 net.cpp:150] Setting up pool5/7x7_s1
I0718 14:38:00.158993 34808 net.cpp:157] Top shape: 4 512 25 25 (1280000)
I0718 14:38:00.159003 34808 net.cpp:165] Memory required for data: 4373409328
I0718 14:38:00.159023 34808 layer_factory.hpp:76] Creating layer conv61
I0718 14:38:00.159051 34808 net.cpp:106] Creating Layer conv61
I0718 14:38:00.159065 34808 net.cpp:454] conv61 <- pool5/7x7_s1
I0718 14:38:00.159085 34808 net.cpp:411] conv61 -> conv61
I0718 14:38:00.163400 34808 cudnn_conv_layer.cpp:194] Reallocating workspace storage: 55296
I0718 14:38:00.163432 34808 net.cpp:150] Setting up conv61
I0718 14:38:00.163446 34808 net.cpp:157] Top shape: 4 64 25 25 (160000)
I0718 14:38:00.163455 34808 net.cpp:165] Memory required for data: 4374049328
I0718 14:38:00.163468 34808 layer_factory.hpp:76] Creating layer relu61
I0718 14:38:00.163491 34808 net.cpp:106] Creating Layer relu61
I0718 14:38:00.163503 34808 net.cpp:454] relu61 <- conv61
I0718 14:38:00.163514 34808 net.cpp:397] relu61 -> conv61 (in-place)
I0718 14:38:00.164126 34808 net.cpp:150] Setting up relu61
I0718 14:38:00.164147 34808 net.cpp:157] Top shape: 4 64 25 25 (160000)
I0718 14:38:00.164160 34808 net.cpp:165] Memory required for data: 4374689328
I0718 14:38:00.164170 34808 layer_factory.hpp:76] Creating layer pool5
I0718 14:38:00.164185 34808 net.cpp:106] Creating Layer pool5
I0718 14:38:00.164194 34808 net.cpp:454] pool5 <- conv61
I0718 14:38:00.164217 34808 net.cpp:411] pool5 -> pool5
I0718 14:38:00.165138 34808 net.cpp:150] Setting up pool5
I0718 14:38:00.165166 34808 net.cpp:157] Top shape: 4 64 13 13 (43264)
I0718 14:38:00.165175 34808 net.cpp:165] Memory required for data: 4374862384
I0718 14:38:00.165187 34808 layer_factory.hpp:76] Creating layer conv62
I0718 14:38:00.165201 34808 net.cpp:106] Creating Layer conv62
I0718 14:38:00.165216 34808 net.cpp:454] conv62 <- pool5
I0718 14:38:00.165230 34808 net.cpp:411] conv62 -> conv62
I0718 14:38:00.168262 34808 net.cpp:150] Setting up conv62
I0718 14:38:00.168283 34808 net.cpp:157] Top shape: 4 64 13 13 (43264)
I0718 14:38:00.168295 34808 net.cpp:165] Memory required for data: 4375035440
I0718 14:38:00.168308 34808 layer_factory.hpp:76] Creating layer relu62
I0718 14:38:00.168319 34808 net.cpp:106] Creating Layer relu62
I0718 14:38:00.168329 34808 net.cpp:454] relu62 <- conv62
I0718 14:38:00.168351 34808 net.cpp:397] relu62 -> conv62 (in-place)
I0718 14:38:00.169227 34808 net.cpp:150] Setting up relu62
I0718 14:38:00.169247 34808 net.cpp:157] Top shape: 4 64 13 13 (43264)
I0718 14:38:00.169256 34808 net.cpp:165] Memory required for data: 4375208496
I0718 14:38:00.169265 34808 layer_factory.hpp:76] Creating layer pool6
I0718 14:38:00.169280 34808 net.cpp:106] Creating Layer pool6
I0718 14:38:00.169288 34808 net.cpp:454] pool6 <- conv62
I0718 14:38:00.169299 34808 net.cpp:411] pool6 -> pool6
I0718 14:38:00.169601 34808 net.cpp:150] Setting up pool6
I0718 14:38:00.169620 34808 net.cpp:157] Top shape: 4 64 7 7 (12544)
I0718 14:38:00.169631 34808 net.cpp:165] Memory required for data: 4375258672
I0718 14:38:00.169641 34808 layer_factory.hpp:76] Creating layer conv82
I0718 14:38:00.169659 34808 net.cpp:106] Creating Layer conv82
I0718 14:38:00.169670 34808 net.cpp:454] conv82 <- pool6
I0718 14:38:00.169689 34808 net.cpp:411] conv82 -> conv82
I0718 14:38:00.172554 34808 cudnn_conv_layer.cpp:194] Reallocating workspace storage: 6912
I0718 14:38:00.172621 34808 net.cpp:150] Setting up conv82
I0718 14:38:00.172636 34808 net.cpp:157] Top shape: 4 128 7 7 (25088)
I0718 14:38:00.172652 34808 net.cpp:165] Memory required for data: 4375359024
I0718 14:38:00.172665 34808 layer_factory.hpp:76] Creating layer relu82
I0718 14:38:00.172678 34808 net.cpp:106] Creating Layer relu82
I0718 14:38:00.172716 34808 net.cpp:454] relu82 <- conv82
I0718 14:38:00.172729 34808 net.cpp:397] relu82 -> conv82 (in-place)
I0718 14:38:00.173605 34808 net.cpp:150] Setting up relu82
I0718 14:38:00.173625 34808 net.cpp:157] Top shape: 4 128 7 7 (25088)
I0718 14:38:00.173635 34808 net.cpp:165] Memory required for data: 4375459376
I0718 14:38:00.173645 34808 layer_factory.hpp:76] Creating layer pool7
I0718 14:38:00.173660 34808 net.cpp:106] Creating Layer pool7
I0718 14:38:00.173671 34808 net.cpp:454] pool7 <- conv82
I0718 14:38:00.173683 34808 net.cpp:411] pool7 -> pool7
I0718 14:38:00.173943 34808 net.cpp:150] Setting up pool7
I0718 14:38:00.173961 34808 net.cpp:157] Top shape: 4 128 4 4 (8192)
I0718 14:38:00.173971 34808 net.cpp:165] Memory required for data: 4375492144
I0718 14:38:00.173980 34808 layer_factory.hpp:76] Creating layer drop0
I0718 14:38:00.173993 34808 net.cpp:106] Creating Layer drop0
I0718 14:38:00.174003 34808 net.cpp:454] drop0 <- pool7
I0718 14:38:00.174016 34808 net.cpp:397] drop0 -> pool7 (in-place)
I0718 14:38:00.174072 34808 net.cpp:150] Setting up drop0
I0718 14:38:00.174087 34808 net.cpp:157] Top shape: 4 128 4 4 (8192)
I0718 14:38:00.174095 34808 net.cpp:165] Memory required for data: 4375524912
I0718 14:38:00.174106 34808 layer_factory.hpp:76] Creating layer conv91
I0718 14:38:00.174124 34808 net.cpp:106] Creating Layer conv91
I0718 14:38:00.174137 34808 net.cpp:454] conv91 <- pool7
I0718 14:38:00.174150 34808 net.cpp:411] conv91 -> conv91
I0718 14:38:00.176568 34808 cudnn_conv_layer.cpp:194] Reallocating workspace storage: 6211584
I0718 14:38:00.177322 34808 net.cpp:150] Setting up conv91
I0718 14:38:00.177342 34808 net.cpp:157] Top shape: 4 3 1 1 (12)
I0718 14:38:00.177353 34808 net.cpp:165] Memory required for data: 4375524960
I0718 14:38:00.177366 34808 layer_factory.hpp:76] Creating layer conv91_conv91_0_split
I0718 14:38:00.177381 34808 net.cpp:106] Creating Layer conv91_conv91_0_split
I0718 14:38:00.177391 34808 net.cpp:454] conv91_conv91_0_split <- conv91
I0718 14:38:00.177404 34808 net.cpp:411] conv91_conv91_0_split -> conv91_conv91_0_split_0
I0718 14:38:00.177418 34808 net.cpp:411] conv91_conv91_0_split -> conv91_conv91_0_split_1
I0718 14:38:00.177506 34808 net.cpp:150] Setting up conv91_conv91_0_split
I0718 14:38:00.177521 34808 net.cpp:157] Top shape: 4 3 1 1 (12)
I0718 14:38:00.177532 34808 net.cpp:157] Top shape: 4 3 1 1 (12)
I0718 14:38:00.177541 34808 net.cpp:165] Memory required for data: 4375525056
I0718 14:38:00.177551 34808 layer_factory.hpp:76] Creating layer accuracy
I0718 14:38:00.177567 34808 net.cpp:106] Creating Layer accuracy
I0718 14:38:00.177577 34808 net.cpp:454] accuracy <- conv91_conv91_0_split_0
I0718 14:38:00.177587 34808 net.cpp:454] accuracy <- label_data_1_split_0
I0718 14:38:00.177599 34808 net.cpp:411] accuracy -> accuracy
…
