…
I0718 14:20:32.248921 31389 net.cpp:322] The NetState phase (0) differed from the phase (1) specified by a rule in layer data
I0718 14:20:32.250083 31389 net.cpp:49] Initializing net from parameters: 
name: "GoogleNet"
state {
  phase: TRAIN
}
layer {
  name: "data"
  type: "ImageData"
  top: "data"
  top: "label"
  include {
    phase: TRAIN
  }
  transform_param {
    mirror: true
    mean_value: 163
    mean_value: 116
    mean_value: 181
  }
  image_data_param {
    source: "../lists/mitosis_train.lst"
    batch_size: 6
    shuffle: true
  }
}
layer {
  name: "conv1/7x7_s2"
  type: "Convolution"
  bottom: "data"
  top: "conv1/7x7_s2"
  param {
    lr_mult: 0
    decay_mult: 1
  }
  param {
    lr_mult: 2
    decay_mult: 0
  }
  convolution_param {
    num_output: 64
    pad: 3
    kernel_size: 7
    stride: 2
    weight_filler {
      type: "xavier"
    }
    bias_filler {
      type: "constant"
      value: 0.2
    }
  }
}
layer {
  name: "conv1/relu_7x7"
  type: "ReLU"
  bottom: "conv1/7x7_s2"
  top: "conv1/7x7_s2"
}
layer {
  name: "pool1/3x3_s2"
  type: "Pooling"
  bottom: "conv1/7x7_s2"
  top: "pool1/3x3_s2"
  pooling_param {
    pool: MAX
    kernel_size: 3
    stride: 2
  }
}
layer {
  name: "pool1/norm1"
  type: "LRN"
  bottom: "pool1/3x3_s2"
  top: "pool1/norm1"
  lrn_param {
    local_size: 5
    alpha: 0.0001
    beta: 0.75
  }
}
layer {
  name: "conv2/3x3_reduce"
  type: "Convolution"
  bottom: "pool1/norm1"
  top: "conv2/3x3_reduce"
  param {
    lr_mult: 0
    decay_mult: 1
  }
  param {
    lr_mult: 2
    decay_mult: 0
  }
  convolution_param {
    num_output: 64
    kernel_size: 1
    weight_filler {
      type: "xavier"
    }
    bias_filler {
      type: "constant"
      value: 0.2
    }
  }
}
layer {
  name: "conv2/relu_3x3_reduce"
  type: "ReLU"
  bottom: "conv2/3x3_reduce"
  top: "conv2/3x3_reduce"
}
layer {
  name: "conv2/3x3"
  type: "Convolution"
  bottom: "conv2/3x3_reduce"
  top: "conv2/3x3"
  param {
    lr_mult: 0
    decay_mult: 1
  }
  param {
    lr_mult: 2
    decay_mult: 0
  }
  convolution_param {
    num_output: 192
    pad: 1
    kernel_size: 3
    weight_filler {
      type: "xavier"
    }
    bias_filler {
      type: "constant"
      value: 0.2
    }
  }
}
layer {
  name: "conv2/relu_3x3"
  type: "ReLU"
  bottom: "conv2/3x3"
  top: "conv2/3x3"
}
layer {
  name: "conv2/norm2"
  type: "LRN"
  bottom: "conv2/3x3"
  top: "conv2/norm2"
  lrn_param {
    local_size: 5
    alpha: 0.0001
    beta: 0.75
  }
}
layer {
  name: "pool2/3x3_s2"
  type: "Pooling"
  bottom: "conv2/norm2"
  top: "pool2/3x3_s2"
  pooling_param {
    pool: MAX
    kernel_size: 3
    stride: 2
  }
}
layer {
  name: "inception_3a/1x1"
  type: "Convolution"
  bottom: "pool2/3x3_s2"
  top: "inception_3a/1x1"
  param {
    lr_mult: 0
    decay_mult: 1
  }
  param {
    lr_mult: 2
    decay_mult: 0
  }
  convolution_param {
    num_output: 64
    kernel_size: 1
    weight_filler {
      type: "xavier"
    }
    bias_filler {
      type: "constant"
      value: 0.2
    }
  }
}
layer {
  name: "inception_3a/relu_1x1"
  type: "ReLU"
  bottom: "inception_3a/1x1"
  top: "inception_3a/1x1"
}
layer {
  name: "inception_3a/3x3_reduce"
  type: "Convolution"
  bottom: "pool2/3x3_s2"
  top: "inception_3a/3x3_reduce"
  param {
    lr_mult: 0
    decay_mult: 1
  }
  param {
    lr_mult: 2
    decay_mult: 0
  }
  convolution_param {
    num_output: 96
    kernel_size: 1
    weight_filler {
      type: "xavier"
    }
    bias_filler {
      type: "constant"
      value: 0.2
    }
  }
}
layer {
  name: "inception_3a/relu_3x3_reduce"
  type: "ReLU"
  bottom: "inception_3a/3x3_reduce"
  top: "inception_3a/3x3_reduce"
}
layer {
  name: "inception_3a/3x3"
  type: "Convolution"
  bottom: "inception_3a/3x3_reduce"
  top: "inception_3a/3x3"
  param {
    lr_mult: 0
    decay_mult: 1
  }
  param {
    lr_mult: 2
    decay_mult: 0
  }
  convolution_param {
    num_output: 128
    pad: 1
    kernel_size: 3
    weight_filler {
      type: "xavier"
    }
    bias_filler {
      type: "constant"
      value: 0.2
    }
  }
}
layer {
  name: "inception_3a/relu_3x3"
  type: "ReLU"
  bottom: "inception_3a/3x3"
  top: "inception_3a/3x3"
}
layer {
  name: "inception_3a/5x5_reduce"
  type: "Convolution"
  bottom: "pool2/3x3_s2"
  top: "inception_3a/5x5_reduce"
  param {
    lr_mult: 0
    decay_mult: 1
  }
  param {
    lr_mult: 2
    decay_mult: 0
  }
  convolution_param {
    num_output: 16
    kernel_size: 1
    weight_filler {
      type: "xavier"
    }
    bias_filler {
      type: "constant"
      value: 0.2
    }
  }
}
layer {
  name: "inception_3a/relu_5x5_reduce"
  type: "ReLU"
  bottom: "inception_3a/5x5_reduce"
  top: "inception_3a/5x5_reduce"
}
layer {
  name: "inception_3a/5x5"
  type: "Convolution"
  bottom: "inception_3a/5x5_reduce"
  top: "inception_3a/5x5"
  param {
    lr_mult: 0
    decay_mult: 1
  }
  param {
    lr_mult: 2
    decay_mult: 0
  }
  convolution_param {
    num_output: 32
    pad: 2
    kernel_size: 5
    weight_filler {
      type: "xavier"
    }
    bias_filler {
      type: "constant"
      value: 0.2
    }
  }
}
layer {
  name: "inception_3a/relu_5x5"
  type: "ReLU"
  bottom: "inception_3a/5x5"
  top: "inception_3a/5x5"
}
layer {
  name: "inception_3a/pool"
  type: "Pooling"
  bottom: "pool2/3x3_s2"
  top: "inception_3a/pool"
  pooling_param {
    pool: MAX
    kernel_size: 3
    stride: 1
    pad: 1
  }
}
layer {
  name: "inception_3a/pool_proj"
  type: "Convolution"
  bottom: "inception_3a/pool"
  top: "inception_3a/pool_proj"
  param {
    lr_mult: 0
    decay_mult: 1
  }
  param {
    lr_mult: 2
    decay_mult: 0
  }
  convolution_param {
    num_output: 32
    kernel_size: 1
    weight_filler {
      type: "xavier"
    }
    bias_filler {
      type: "constant"
      value: 0.2
    }
  }
}
layer {
  name: "inception_3a/relu_pool_proj"
  type: "ReLU"
  bottom: "inception_3a/pool_proj"
  top: "inception_3a/pool_proj"
}
layer {
  name: "inception_3a/output"
  type: "Concat"
  bottom: "inception_3a/1x1"
  bottom: "inception_3a/3x3"
  bottom: "inception_3a/5x5"
  bottom: "inception_3a/pool_proj"
  top: "inception_3a/output"
}
layer {
  name: "inception_3b/1x1"
  type: "Convolution"
  bottom: "inception_3a/output"
  top: "inception_3b/1x1"
  param {
    lr_mult: 0
    decay_mult: 1
  }
  param {
    lr_mult: 2
    decay_mult: 0
  }
  convolution_param {
    num_output: 128
    kernel_size: 1
    weight_filler {
      type: "xavier"
    }
    bias_filler {
      type: "constant"
      value: 0.2
    }
  }
}
layer {
  name: "inception_3b/relu_1x1"
  type: "ReLU"
  bottom: "inception_3b/1x1"
  top: "inception_3b/1x1"
}
layer {
  name: "inception_3b/3x3_reduce"
  type: "Convolution"
  bottom: "inception_3a/output"
  top: "inception_3b/3x3_reduce"
  param {
    lr_mult: 0
    decay_mult: 1
  }
  param {
    lr_mult: 2
    decay_mult: 0
  }
  convolution_param {
    num_output: 128
    kernel_size: 1
    weight_filler {
      type: "xavier"
    }
    bias_filler {
      type: "constant"
      value: 0.2
    }
  }
}
layer {
  name: "inception_3b/relu_3x3_reduce"
  type: "ReLU"
  bottom: "inception_3b/3x3_reduce"
  top: "inception_3b/3x3_reduce"
}
layer {
  name: "inception_3b/3x3"
  type: "Convolution"
  bottom: "inception_3b/3x3_reduce"
  top: "inception_3b/3x3"
  param {
    lr_mult: 0
    decay_mult: 1
  }
  param {
    lr_mult: 2
    decay_mult: 0
  }
  convolution_param {
    num_output: 192
    pad: 1
    kernel_size: 3
    weight_filler {
      type: "xavier"
    }
    bias_filler {
      type: "constant"
      value: 0.2
    }
  }
}
layer {
  name: "inception_3b/relu_3x3"
  type: "ReLU"
  bottom: "inception_3b/3x3"
  top: "inception_3b/3x3"
}
layer {
  name: "inception_3b/5x5_reduce"
  type: "Convolution"
  bottom: "inception_3a/output"
  top: "inception_3b/5x5_reduce"
  param {
    lr_mult: 0
    decay_mult: 1
  }
  param {
    lr_mult: 2
    decay_mult: 0
  }
  convolution_param {
    num_output: 32
    kernel_size: 1
    weight_filler {
      type: "xavier"
    }
    bias_filler {
      type: "constant"
      value: 0.2
    }
  }
}
layer {
  name: "inception_3b/relu_5x5_reduce"
  type: "ReLU"
  bottom: "inception_3b/5x5_reduce"
  top: "inception_3b/5x5_reduce"
}
layer {
  name: "inception_3b/5x5"
  type: "Convolution"
  bottom: "inception_3b/5x5_reduce"
  top: "inception_3b/5x5"
  param {
    lr_mult: 0
    decay_mult: 1
  }
  param {
    lr_mult: 2
    decay_mult: 0
  }
  convolution_param {
    num_output: 96
    pad: 2
    kernel_size: 5
    weight_filler {
      type: "xavier"
    }
    bias_filler {
      type: "constant"
      value: 0.2
    }
  }
}
layer {
  name: "inception_3b/relu_5x5"
  type: "ReLU"
  bottom: "inception_3b/5x5"
  top: "inception_3b/5x5"
}
layer {
  name: "inception_3b/pool"
  type: "Pooling"
  bottom: "inception_3a/output"
  top: "inception_3b/pool"
  pooling_param {
    pool: MAX
    kernel_size: 3
    stride: 1
    pad: 1
  }
}
layer {
  name: "inception_3b/pool_proj"
  type: "Convolution"
  bottom: "inception_3b/pool"
  top: "inception_3b/pool_proj"
  param {
    lr_mult: 0
    decay_mult: 1
  }
  param {
    lr_mult: 2
    decay_mult: 0
  }
  convolution_param {
    num_output: 64
    kernel_size: 1
    weight_filler {
      type: "xavier"
    }
    bias_filler {
      type: "constant"
      value: 0.2
    }
  }
}
layer {
  name: "inception_3b/relu_pool_proj"
  type: "ReLU"
  bottom: "inception_3b/pool_proj"
  top: "inception_3b/pool_proj"
}
layer {
  name: "inception_3b/output"
  type: "Concat"
  bottom: "inception_3b/1x1"
  bottom: "inception_3b/3x3"
  bottom: "inception_3b/5x5"
  bottom: "inception_3b/pool_proj"
  top: "inception_3b/output"
}
layer {
  name: "pool3/3x3_s2"
  type: "Pooling"
  bottom: "inception_3b/output"
  top: "pool3/3x3_s2"
  pooling_param {
    pool: MAX
    kernel_size: 3
    stride: 2
  }
}
layer {
  name: "inception_4a/1x1"
  type: "Convolution"
  bottom: "pool3/3x3_s2"
  top: "inception_4a/1x1"
  param {
    lr_mult: 0
    decay_mult: 1
  }
  param {
    lr_mult: 2
    decay_mult: 0
  }
  convolution_param {
    num_output: 192
    kernel_size: 1
    weight_filler {
      type: "xavier"
    }
    bias_filler {
      type: "constant"
      value: 0.2
    }
  }
}
layer {
  name: "inception_4a/relu_1x1"
  type: "ReLU"
  bottom: "inception_4a/1x1"
  top: "inception_4a/1x1"
}
layer {
  name: "inception_4a/3x3_reduce"
  type: "Convolution"
  bottom: "pool3/3x3_s2"
  top: "inception_4a/3x3_reduce"
  param {
    lr_mult: 0
    decay_mult: 1
  }
  param {
    lr_mult: 2
    decay_mult: 0
  }
  convolution_param {
    num_output: 96
    kernel_size: 1
    weight_filler {
      type: "xavier"
    }
    bias_filler {
      type: "constant"
      value: 0.2
    }
  }
}
layer {
  name: "inception_4a/relu_3x3_reduce"
  type: "ReLU"
  bottom: "inception_4a/3x3_reduce"
  top: "inception_4a/3x3_reduce"
}
layer {
  name: "inception_4a/3x3"
  type: "Convolution"
  bottom: "inception_4a/3x3_reduce"
  top: "inception_4a/3x3"
  param {
    lr_mult: 0
    decay_mult: 1
  }
  param {
    lr_mult: 2
    decay_mult: 0
  }
  convolution_param {
    num_output: 208
    pad: 1
    kernel_size: 3
    weight_filler {
      type: "xavier"
    }
    bias_filler {
      type: "constant"
      value: 0.2
    }
  }
}
layer {
  name: "inception_4a/relu_3x3"
  type: "ReLU"
  bottom: "inception_4a/3x3"
  top: "inception_4a/3x3"
}
layer {
  name: "inception_4a/5x5_reduce"
  type: "Convolution"
  bottom: "pool3/3x3_s2"
  top: "inception_4a/5x5_reduce"
  param {
    lr_mult: 0
    decay_mult: 1
  }
  param {
    lr_mult: 2
    decay_mult: 0
  }
  convolution_param {
    num_output: 16
    kernel_size: 1
    weight_filler {
      type: "xavier"
    }
    bias_filler {
      type: "constant"
      value: 0.2
    }
  }
}
layer {
  name: "inception_4a/relu_5x5_reduce"
  type: "ReLU"
  bottom: "inception_4a/5x5_reduce"
  top: "inception_4a/5x5_reduce"
}
layer {
  name: "inception_4a/5x5"
  type: "Convolution"
  bottom: "inception_4a/5x5_reduce"
  top: "inception_4a/5x5"
  param {
    lr_mult: 0
    decay_mult: 1
  }
  param {
    lr_mult: 2
    decay_mult: 0
  }
  convolution_param {
    num_output: 48
    pad: 2
    kernel_size: 5
    weight_filler {
      type: "xavier"
    }
    bias_filler {
      type: "constant"
      value: 0.2
    }
  }
}
layer {
  name: "inception_4a/relu_5x5"
  type: "ReLU"
  bottom: "inception_4a/5x5"
  top: "inception_4a/5x5"
}
layer {
  name: "inception_4a/pool"
  type: "Pooling"
  bottom: "pool3/3x3_s2"
  top: "inception_4a/pool"
  pooling_param {
    pool: MAX
    kernel_size: 3
    stride: 1
    pad: 1
  }
}
layer {
  name: "inception_4a/pool_proj"
  type: "Convolution"
  bottom: "inception_4a/pool"
  top: "inception_4a/pool_proj"
  param {
    lr_mult: 0
    decay_mult: 1
  }
  param {
    lr_mult: 2
    decay_mult: 0
  }
  convolution_param {
    num_output: 64
    kernel_size: 1
    weight_filler {
      type: "xavier"
    }
    bias_filler {
      type: "constant"
      value: 0.2
    }
  }
}
layer {
  name: "inception_4a/relu_pool_proj"
  type: "ReLU"
  bottom: "inception_4a/pool_proj"
  top: "inception_4a/pool_proj"
}
layer {
  name: "inception_4a/output"
  type: "Concat"
  bottom: "inception_4a/1x1"
  bottom: "inception_4a/3x3"
  bottom: "inception_4a/5x5"
  bottom: "inception_4a/pool_proj"
  top: "inception_4a/output"
}
layer {
  name: "inception_4b/1x1"
  type: "Convolution"
  bottom: "inception_4a/output"
  top: "inception_4b/1x1"
  param {
    lr_mult: 0
    decay_mult: 1
  }
  param {
    lr_mult: 2
    decay_mult: 0
  }
  convolution_param {
    num_output: 160
    kernel_size: 1
    weight_filler {
      type: "xavier"
    }
    bias_filler {
      type: "constant"
      value: 0.2
    }
  }
}
layer {
  name: "inception_4b/relu_1x1"
  type: "ReLU"
  bottom: "inception_4b/1x1"
  top: "inception_4b/1x1"
}
layer {
  name: "inception_4b/3x3_reduce"
  type: "Convolution"
  bottom: "inception_4a/output"
  top: "inception_4b/3x3_reduce"
  param {
    lr_mult: 0
    decay_mult: 1
  }
  param {
    lr_mult: 2
    decay_mult: 0
  }
  convolution_param {
    num_output: 112
    kernel_size: 1
    weight_filler {
      type: "xavier"
    }
    bias_filler {
      type: "constant"
      value: 0.2
    }
  }
}
layer {
  name: "inception_4b/relu_3x3_reduce"
  type: "ReLU"
  bottom: "inception_4b/3x3_reduce"
  top: "inception_4b/3x3_reduce"
}
layer {
  name: "inception_4b/3x3"
  type: "Convolution"
  bottom: "inception_4b/3x3_reduce"
  top: "inception_4b/3x3"
  param {
    lr_mult: 0
    decay_mult: 1
  }
  param {
    lr_mult: 2
    decay_mult: 0
  }
  convolution_param {
    num_output: 224
    pad: 1
    kernel_size: 3
    weight_filler {
      type: "xavier"
    }
    bias_filler {
      type: "constant"
      value: 0.2
    }
  }
}
layer {
  name: "inception_4b/relu_3x3"
  type: "ReLU"
  bottom: "inception_4b/3x3"
  top: "inception_4b/3x3"
}
layer {
  name: "inception_4b/5x5_reduce"
  type: "Convolution"
  bottom: "inception_4a/output"
  top: "inception_4b/5x5_reduce"
  param {
    lr_mult: 0
    decay_mult: 1
  }
  param {
    lr_mult: 2
    decay_mult: 0
  }
  convolution_param {
    num_output: 24
    kernel_size: 1
    weight_filler {
      type: "xavier"
    }
    bias_filler {
      type: "constant"
      value: 0.2
    }
  }
}
layer {
  name: "inception_4b/relu_5x5_reduce"
  type: "ReLU"
  bottom: "inception_4b/5x5_reduce"
  top: "inception_4b/5x5_reduce"
}
layer {
  name: "inception_4b/5x5"
  type: "Convolution"
  bottom: "inception_4b/5x5_reduce"
  top: "inception_4b/5x5"
  param {
    lr_mult: 0
    decay_mult: 1
  }
  param {
    lr_mult: 2
    decay_mult: 0
  }
  convolution_param {
    num_output: 64
    pad: 2
    kernel_size: 5
    weight_filler {
      type: "xavier"
    }
    bias_filler {
      type: "constant"
      value: 0.2
    }
  }
}
layer {
  name: "inception_4b/relu_5x5"
  type: "ReLU"
  bottom: "inception_4b/5x5"
  top: "inception_4b/5x5"
}
layer {
  name: "inception_4b/pool"
  type: "Pooling"
  bottom: "inception_4a/output"
  top: "inception_4b/pool"
  pooling_param {
    pool: MAX
    kernel_size: 3
    stride: 1
    pad: 1
  }
}
layer {
  name: "inception_4b/pool_proj"
  type: "Convolution"
  bottom: "inception_4b/pool"
  top: "inception_4b/pool_proj"
  param {
    lr_mult: 0
    decay_mult: 1
  }
  param {
    lr_mult: 2
    decay_mult: 0
  }
  convolution_param {
    num_output: 64
    kernel_size: 1
    weight_filler {
      type: "xavier"
    }
    bias_filler {
      type: "constant"
      value: 0.2
    }
  }
}
layer {
  name: "inception_4b/relu_pool_proj"
  type: "ReLU"
  bottom: "inception_4b/pool_proj"
  top: "inception_4b/pool_proj"
}
layer {
  name: "inception_4b/output"
  type: "Concat"
  bottom: "inception_4b/1x1"
  bottom: "inception_4b/3x3"
  bottom: "inception_4b/5x5"
  bottom: "inception_4b/pool_proj"
  top: "inception_4b/output"
}
layer {
  name: "inception_4c/1x1"
  type: "Convolution"
  bottom: "inception_4b/output"
  top: "inception_4c/1x1"
  param {
    lr_mult: 0
    decay_mult: 1
  }
  param {
    lr_mult: 2
    decay_mult: 0
  }
  convolution_param {
    num_output: 128
    kernel_size: 1
    weight_filler {
      type: "xavier"
    }
    bias_filler {
      type: "constant"
      value: 0.2
    }
  }
}
layer {
  name: "inception_4c/relu_1x1"
  type: "ReLU"
  bottom: "inception_4c/1x1"
  top: "inception_4c/1x1"
}
layer {
  name: "inception_4c/3x3_reduce"
  type: "Convolution"
  bottom: "inception_4b/output"
  top: "inception_4c/3x3_reduce"
  param {
    lr_mult: 0
    decay_mult: 1
  }
  param {
    lr_mult: 2
    decay_mult: 0
  }
  convolution_param {
    num_output: 128
    kernel_size: 1
    weight_filler {
      type: "xavier"
    }
    bias_filler {
      type: "constant"
      value: 0.2
    }
  }
}
layer {
  name: "inception_4c/relu_3x3_reduce"
  type: "ReLU"
  bottom: "inception_4c/3x3_reduce"
  top: "inception_4c/3x3_reduce"
}
layer {
  name: "inception_4c/3x3"
  type: "Convolution"
  bottom: "inception_4c/3x3_reduce"
  top: "inception_4c/3x3"
  param {
    lr_mult: 0
    decay_mult: 1
  }
  param {
    lr_mult: 2
    decay_mult: 0
  }
  convolution_param {
    num_output: 256
    pad: 1
    kernel_size: 3
    weight_filler {
      type: "xavier"
    }
    bias_filler {
      type: "constant"
      value: 0.2
    }
  }
}
layer {
  name: "inception_4c/relu_3x3"
  type: "ReLU"
  bottom: "inception_4c/3x3"
  top: "inception_4c/3x3"
}
layer {
  name: "inception_4c/5x5_reduce"
  type: "Convolution"
  bottom: "inception_4b/output"
  top: "inception_4c/5x5_reduce"
  param {
    lr_mult: 0
    decay_mult: 1
  }
  param {
    lr_mult: 2
    decay_mult: 0
  }
  convolution_param {
    num_output: 24
    kernel_size: 1
    weight_filler {
      type: "xavier"
    }
    bias_filler {
      type: "constant"
      value: 0.2
    }
  }
}
layer {
  name: "inception_4c/relu_5x5_reduce"
  type: "ReLU"
  bottom: "inception_4c/5x5_reduce"
  top: "inception_4c/5x5_reduce"
}
layer {
  name: "inception_4c/5x5"
  type: "Convolution"
  bottom: "inception_4c/5x5_reduce"
  top: "inception_4c/5x5"
  param {
    lr_mult: 0
    decay_mult: 1
  }
  param {
    lr_mult: 2
    decay_mult: 0
  }
  convolution_param {
    num_output: 64
    pad: 2
    kernel_size: 5
    weight_filler {
      type: "xavier"
    }
    bias_filler {
      type: "constant"
      value: 0.2
    }
  }
}
layer {
  name: "inception_4c/relu_5x5"
  type: "ReLU"
  bottom: "inception_4c/5x5"
  top: "inception_4c/5x5"
}
layer {
  name: "inception_4c/pool"
  type: "Pooling"
  bottom: "inception_4b/output"
  top: "inception_4c/pool"
  pooling_param {
    pool: MAX
    kernel_size: 3
    stride: 1
    pad: 1
  }
}
layer {
  name: "inception_4c/pool_proj"
  type: "Convolution"
  bottom: "inception_4c/pool"
  top: "inception_4c/pool_proj"
  param {
    lr_mult: 0
    decay_mult: 1
  }
  param {
    lr_mult: 2
    decay_mult: 0
  }
  convolution_param {
    num_output: 64
    kernel_size: 1
    weight_filler {
      type: "xavier"
    }
    bias_filler {
      type: "constant"
      value: 0.2
    }
  }
}
layer {
  name: "inception_4c/relu_pool_proj"
  type: "ReLU"
  bottom: "inception_4c/pool_proj"
  top: "inception_4c/pool_proj"
}
layer {
  name: "inception_4c/output"
  type: "Concat"
  bottom: "inception_4c/1x1"
  bottom: "inception_4c/3x3"
  bottom: "inception_4c/5x5"
  bottom: "inception_4c/pool_proj"
  top: "inception_4c/output"
}
layer {
  name: "inception_4d/1x1"
  type: "Convolution"
  bottom: "inception_4c/output"
  top: "inception_4d/1x1"
  param {
    lr_mult: 0
    decay_mult: 1
  }
  param {
    lr_mult: 2
    decay_mult: 0
  }
  convolution_param {
    num_output: 112
    kernel_size: 1
    weight_filler {
      type: "xavier"
    }
    bias_filler {
      type: "constant"
      value: 0.2
    }
  }
}
layer {
  name: "inception_4d/relu_1x1"
  type: "ReLU"
  bottom: "inception_4d/1x1"
  top: "inception_4d/1x1"
}
layer {
  name: "inception_4d/3x3_reduce"
  type: "Convolution"
  bottom: "inception_4c/output"
  top: "inception_4d/3x3_reduce"
  param {
    lr_mult: 0
    decay_mult: 1
  }
  param {
    lr_mult: 2
    decay_mult: 0
  }
  convolution_param {
    num_output: 144
    kernel_size: 1
    weight_filler {
      type: "xavier"
    }
    bias_filler {
      type: "constant"
      value: 0.2
    }
  }
}
layer {
  name: "inception_4d/relu_3x3_reduce"
  type: "ReLU"
  bottom: "inception_4d/3x3_reduce"
  top: "inception_4d/3x3_reduce"
}
layer {
  name: "inception_4d/3x3"
  type: "Convolution"
  bottom: "inception_4d/3x3_reduce"
  top: "inception_4d/3x3"
  param {
    lr_mult: 0
    decay_mult: 1
  }
  param {
    lr_mult: 2
    decay_mult: 0
  }
  convolution_param {
    num_output: 288
    pad: 1
    kernel_size: 3
    weight_filler {
      type: "xavier"
    }
    bias_filler {
      type: "constant"
      value: 0.2
    }
  }
}
layer {
  name: "inception_4d/relu_3x3"
  type: "ReLU"
  bottom: "inception_4d/3x3"
  top: "inception_4d/3x3"
}
layer {
  name: "inception_4d/5x5_reduce"
  type: "Convolution"
  bottom: "inception_4c/output"
  top: "inception_4d/5x5_reduce"
  param {
    lr_mult: 0
    decay_mult: 1
  }
  param {
    lr_mult: 2
    decay_mult: 0
  }
  convolution_param {
    num_output: 32
    kernel_size: 1
    weight_filler {
      type: "xavier"
    }
    bias_filler {
      type: "constant"
      value: 0.2
    }
  }
}
layer {
  name: "inception_4d/relu_5x5_reduce"
  type: "ReLU"
  bottom: "inception_4d/5x5_reduce"
  top: "inception_4d/5x5_reduce"
}
layer {
  name: "inception_4d/5x5"
  type: "Convolution"
  bottom: "inception_4d/5x5_reduce"
  top: "inception_4d/5x5"
  param {
    lr_mult: 0
    decay_mult: 1
  }
  param {
    lr_mult: 2
    decay_mult: 0
  }
  convolution_param {
    num_output: 64
    pad: 2
    kernel_size: 5
    weight_filler {
      type: "xavier"
    }
    bias_filler {
      type: "constant"
      value: 0.2
    }
  }
}
layer {
  name: "inception_4d/relu_5x5"
  type: "ReLU"
  bottom: "inception_4d/5x5"
  top: "inception_4d/5x5"
}
layer {
  name: "inception_4d/pool"
  type: "Pooling"
  bottom: "inception_4c/output"
  top: "inception_4d/pool"
  pooling_param {
    pool: MAX
    kernel_size: 3
    stride: 1
    pad: 1
  }
}
layer {
  name: "inception_4d/pool_proj"
  type: "Convolution"
  bottom: "inception_4d/pool"
  top: "inception_4d/pool_proj"
  param {
    lr_mult: 0
    decay_mult: 1
  }
  param {
    lr_mult: 2
    decay_mult: 0
  }
  convolution_param {
    num_output: 64
    kernel_size: 1
    weight_filler {
      type: "xavier"
    }
    bias_filler {
      type: "constant"
      value: 0.2
    }
  }
}
layer {
  name: "inception_4d/relu_pool_proj"
  type: "ReLU"
  bottom: "inception_4d/pool_proj"
  top: "inception_4d/pool_proj"
}
layer {
  name: "inception_4d/output"
  type: "Concat"
  bottom: "inception_4d/1x1"
  bottom: "inception_4d/3x3"
  bottom: "inception_4d/5x5"
  bottom: "inception_4d/pool_proj"
  top: "inception_4d/output"
}
layer {
  name: "inception_4e/1x1"
  type: "Convolution"
  bottom: "inception_4d/output"
  top: "inception_4e/1x1"
  param {
    lr_mult: 0
    decay_mult: 1
  }
  param {
    lr_mult: 2
    decay_mult: 0
  }
  convolution_param {
    num_output: 256
    kernel_size: 1
    weight_filler {
      type: "xavier"
    }
    bias_filler {
      type: "constant"
      value: 0.2
    }
  }
}
layer {
  name: "inception_4e/relu_1x1"
  type: "ReLU"
  bottom: "inception_4e/1x1"
  top: "inception_4e/1x1"
}
layer {
  name: "inception_4e/3x3_reduce"
  type: "Convolution"
  bottom: "inception_4d/output"
  top: "inception_4e/3x3_reduce"
  param {
    lr_mult: 0
    decay_mult: 1
  }
  param {
    lr_mult: 2
    decay_mult: 0
  }
  convolution_param {
    num_output: 160
    kernel_size: 1
    weight_filler {
      type: "xavier"
    }
    bias_filler {
      type: "constant"
      value: 0.2
    }
  }
}
layer {
  name: "inception_4e/relu_3x3_reduce"
  type: "ReLU"
  bottom: "inception_4e/3x3_reduce"
  top: "inception_4e/3x3_reduce"
}
layer {
  name: "inception_4e/3x3"
  type: "Convolution"
  bottom: "inception_4e/3x3_reduce"
  top: "inception_4e/3x3"
  param {
    lr_mult: 0
    decay_mult: 1
  }
  param {
    lr_mult: 2
    decay_mult: 0
  }
  convolution_param {
    num_output: 320
    pad: 1
    kernel_size: 3
    weight_filler {
      type: "xavier"
    }
    bias_filler {
      type: "constant"
      value: 0.2
    }
  }
}
layer {
  name: "inception_4e/relu_3x3"
  type: "ReLU"
  bottom: "inception_4e/3x3"
  top: "inception_4e/3x3"
}
layer {
  name: "inception_4e/5x5_reduce"
  type: "Convolution"
  bottom: "inception_4d/output"
  top: "inception_4e/5x5_reduce"
  param {
    lr_mult: 0
    decay_mult: 1
  }
  param {
    lr_mult: 2
    decay_mult: 0
  }
  convolution_param {
    num_output: 32
    kernel_size: 1
    weight_filler {
      type: "xavier"
    }
    bias_filler {
      type: "constant"
      value: 0.2
    }
  }
}
layer {
  name: "inception_4e/relu_5x5_reduce"
  type: "ReLU"
  bottom: "inception_4e/5x5_reduce"
  top: "inception_4e/5x5_reduce"
}
layer {
  name: "inception_4e/5x5"
  type: "Convolution"
  bottom: "inception_4e/5x5_reduce"
  top: "inception_4e/5x5"
  param {
    lr_mult: 0
    decay_mult: 1
  }
  param {
    lr_mult: 2
    decay_mult: 0
  }
  convolution_param {
    num_output: 128
    pad: 2
    kernel_size: 5
    weight_filler {
      type: "xavier"
    }
    bias_filler {
      type: "constant"
      value: 0.2
    }
  }
}
layer {
  name: "inception_4e/relu_5x5"
  type: "ReLU"
  bottom: "inception_4e/5x5"
  top: "inception_4e/5x5"
}
layer {
  name: "inception_4e/pool"
  type: "Pooling"
  bottom: "inception_4d/output"
  top: "inception_4e/pool"
  pooling_param {
    pool: MAX
    kernel_size: 3
    stride: 1
    pad: 1
  }
}
layer {
  name: "inception_4e/pool_proj"
  type: "Convolution"
  bottom: "inception_4e/pool"
  top: "inception_4e/pool_proj"
  param {
    lr_mult: 0
    decay_mult: 1
  }
  param {
    lr_mult: 2
    decay_mult: 0
  }
  convolution_param {
    num_output: 128
    kernel_size: 1
    weight_filler {
      type: "xavier"
    }
    bias_filler {
      type: "constant"
      value: 0.2
    }
  }
}
layer {
  name: "inception_4e/relu_pool_proj"
  type: "ReLU"
  bottom: "inception_4e/pool_proj"
  top: "inception_4e/pool_proj"
}
layer {
  name: "inception_4e/output"
  type: "Concat"
  bottom: "inception_4e/1x1"
  bottom: "inception_4e/3x3"
  bottom: "inception_4e/5x5"
  bottom: "inception_4e/pool_proj"
  top: "inception_4e/output"
}
layer {
  name: "pool4/3x3_s2"
  type: "Pooling"
  bottom: "inception_4e/output"
  top: "pool4/3x3_s2"
  pooling_param {
    pool: MAX
    kernel_size: 3
    stride: 2
  }
}
layer {
  name: "inception_5a/1x1"
  type: "Convolution"
  bottom: "pool4/3x3_s2"
  top: "inception_5a/1x1"
  param {
    lr_mult: 0
    decay_mult: 1
  }
  param {
    lr_mult: 2
    decay_mult: 0
  }
  convolution_param {
    num_output: 256
    kernel_size: 1
    weight_filler {
      type: "xavier"
    }
    bias_filler {
      type: "constant"
      value: 0.2
    }
  }
}
layer {
  name: "inception_5a/relu_1x1"
  type: "ReLU"
  bottom: "inception_5a/1x1"
  top: "inception_5a/1x1"
}
layer {
  name: "inception_5a/3x3_reduce"
  type: "Convolution"
  bottom: "pool4/3x3_s2"
  top: "inception_5a/3x3_reduce"
  param {
    lr_mult: 0
    decay_mult: 1
  }
  param {
    lr_mult: 2
    decay_mult: 0
  }
  convolution_param {
    num_output: 160
    kernel_size: 1
    weight_filler {
      type: "xavier"
    }
    bias_filler {
      type: "constant"
      value: 0.2
    }
  }
}
layer {
  name: "inception_5a/relu_3x3_reduce"
  type: "ReLU"
  bottom: "inception_5a/3x3_reduce"
  top: "inception_5a/3x3_reduce"
}
layer {
  name: "inception_5a/3x3"
  type: "Convolution"
  bottom: "inception_5a/3x3_reduce"
  top: "inception_5a/3x3"
  param {
    lr_mult: 0
    decay_mult: 1
  }
  param {
    lr_mult: 2
    decay_mult: 0
  }
  convolution_param {
    num_output: 320
    pad: 1
    kernel_size: 3
    weight_filler {
      type: "xavier"
    }
    bias_filler {
      type: "constant"
      value: 0.2
    }
  }
}
layer {
  name: "inception_5a/relu_3x3"
  type: "ReLU"
  bottom: "inception_5a/3x3"
  top: "inception_5a/3x3"
}
layer {
  name: "inception_5a/5x5_reduce"
  type: "Convolution"
  bottom: "pool4/3x3_s2"
  top: "inception_5a/5x5_reduce"
  param {
    lr_mult: 0
    decay_mult: 1
  }
  param {
    lr_mult: 2
    decay_mult: 0
  }
  convolution_param {
    num_output: 32
    kernel_size: 1
    weight_filler {
      type: "xavier"
    }
    bias_filler {
      type: "constant"
      value: 0.2
    }
  }
}
layer {
  name: "inception_5a/relu_5x5_reduce"
  type: "ReLU"
  bottom: "inception_5a/5x5_reduce"
  top: "inception_5a/5x5_reduce"
}
layer {
  name: "inception_5a/5x5"
  type: "Convolution"
  bottom: "inception_5a/5x5_reduce"
  top: "inception_5a/5x5"
  param {
    lr_mult: 0
    decay_mult: 1
  }
  param {
    lr_mult: 2
    decay_mult: 0
  }
  convolution_param {
    num_output: 128
    pad: 2
    kernel_size: 5
    weight_filler {
      type: "xavier"
    }
    bias_filler {
      type: "constant"
      value: 0.2
    }
  }
}
layer {
  name: "inception_5a/relu_5x5"
  type: "ReLU"
  bottom: 
I0718 14:20:32.256229 31389 layer_factory.hpp:76] Creating layer data
I0718 14:20:32.256294 31389 net.cpp:106] Creating Layer data
I0718 14:20:32.256309 31389 net.cpp:411] data -> data
I0718 14:20:32.256345 31389 net.cpp:411] data -> label
I0718 14:20:32.256819 31389 image_data_layer.cpp:36] Opening file ../lists/mitosis_train.lst
I0718 14:20:32.269069 31389 image_data_layer.cpp:46] Shuffling data
I0718 14:20:32.272001 31389 image_data_layer.cpp:51] A total of 21366 images.
I0718 14:20:32.439925 31389 image_data_layer.cpp:78] output data size: 6,3,1000,1000
I0718 14:20:32.744581 31389 net.cpp:150] Setting up data
I0718 14:20:32.744699 31389 net.cpp:157] Top shape: 6 3 1000 1000 (18000000)
I0718 14:20:32.744714 31389 net.cpp:157] Top shape: 6 (6)
I0718 14:20:32.744729 31389 net.cpp:165] Memory required for data: 72000024
I0718 14:20:32.744747 31389 layer_factory.hpp:76] Creating layer label_data_1_split
I0718 14:20:32.744786 31389 net.cpp:106] Creating Layer label_data_1_split
I0718 14:20:32.744797 31389 net.cpp:454] label_data_1_split <- label
I0718 14:20:32.744820 31389 net.cpp:411] label_data_1_split -> label_data_1_split_0
I0718 14:20:32.744849 31389 net.cpp:411] label_data_1_split -> label_data_1_split_1
I0718 14:20:32.745342 31389 net.cpp:150] Setting up label_data_1_split
I0718 14:20:32.745468 31389 net.cpp:157] Top shape: 6 (6)
I0718 14:20:32.745481 31389 net.cpp:157] Top shape: 6 (6)
I0718 14:20:32.745488 31389 net.cpp:165] Memory required for data: 72000072
I0718 14:20:32.745523 31389 layer_factory.hpp:76] Creating layer conv1/7x7_s2
I0718 14:20:32.745642 31389 net.cpp:106] Creating Layer conv1/7x7_s2
I0718 14:20:32.745656 31389 net.cpp:454] conv1/7x7_s2 <- data
I0718 14:20:32.745683 31389 net.cpp:411] conv1/7x7_s2 -> conv1/7x7_s2
I0718 14:20:33.294517 31389 net.cpp:150] Setting up conv1/7x7_s2
I0718 14:20:33.294620 31389 net.cpp:157] Top shape: 6 64 500 500 (96000000)
I0718 14:20:33.294646 31389 net.cpp:165] Memory required for data: 456000072
I0718 14:20:33.294692 31389 layer_factory.hpp:76] Creating layer conv1/relu_7x7
I0718 14:20:33.294724 31389 net.cpp:106] Creating Layer conv1/relu_7x7
I0718 14:20:33.294821 31389 net.cpp:454] conv1/relu_7x7 <- conv1/7x7_s2
I0718 14:20:33.294842 31389 net.cpp:397] conv1/relu_7x7 -> conv1/7x7_s2 (in-place)
I0718 14:20:33.295111 31389 net.cpp:150] Setting up conv1/relu_7x7
I0718 14:20:33.295138 31389 net.cpp:157] Top shape: 6 64 500 500 (96000000)
I0718 14:20:33.295162 31389 net.cpp:165] Memory required for data: 840000072
I0718 14:20:33.295176 31389 layer_factory.hpp:76] Creating layer pool1/3x3_s2
I0718 14:20:33.295202 31389 net.cpp:106] Creating Layer pool1/3x3_s2
I0718 14:20:33.295217 31389 net.cpp:454] pool1/3x3_s2 <- conv1/7x7_s2
I0718 14:20:33.295235 31389 net.cpp:411] pool1/3x3_s2 -> pool1/3x3_s2
I0718 14:20:33.297271 31389 net.cpp:150] Setting up pool1/3x3_s2
I0718 14:20:33.297307 31389 net.cpp:157] Top shape: 6 64 250 250 (24000000)
I0718 14:20:33.297322 31389 net.cpp:165] Memory required for data: 936000072
I0718 14:20:33.297336 31389 layer_factory.hpp:76] Creating layer pool1/norm1
I0718 14:20:33.297369 31389 net.cpp:106] Creating Layer pool1/norm1
I0718 14:20:33.297382 31389 net.cpp:454] pool1/norm1 <- pool1/3x3_s2
I0718 14:20:33.297399 31389 net.cpp:411] pool1/norm1 -> pool1/norm1
I0718 14:20:33.298499 31389 net.cpp:150] Setting up pool1/norm1
I0718 14:20:33.298526 31389 net.cpp:157] Top shape: 6 64 250 250 (24000000)
I0718 14:20:33.298542 31389 net.cpp:165] Memory required for data: 1032000072
I0718 14:20:33.298554 31389 layer_factory.hpp:76] Creating layer conv2/3x3_reduce
I0718 14:20:33.298581 31389 net.cpp:106] Creating Layer conv2/3x3_reduce
I0718 14:20:33.298595 31389 net.cpp:454] conv2/3x3_reduce <- pool1/norm1
I0718 14:20:33.298617 31389 net.cpp:411] conv2/3x3_reduce -> conv2/3x3_reduce
I0718 14:20:33.303617 31389 cudnn_conv_layer.cpp:194] Reallocating workspace storage: 768
I0718 14:20:33.303709 31389 net.cpp:150] Setting up conv2/3x3_reduce
I0718 14:20:33.303737 31389 net.cpp:157] Top shape: 6 64 250 250 (24000000)
I0718 14:20:33.303753 31389 net.cpp:165] Memory required for data: 1128000072
I0718 14:20:33.303782 31389 layer_factory.hpp:76] Creating layer conv2/relu_3x3_reduce
I0718 14:20:33.303809 31389 net.cpp:106] Creating Layer conv2/relu_3x3_reduce
I0718 14:20:33.303824 31389 net.cpp:454] conv2/relu_3x3_reduce <- conv2/3x3_reduce
I0718 14:20:33.303846 31389 net.cpp:397] conv2/relu_3x3_reduce -> conv2/3x3_reduce (in-place)
I0718 14:20:33.304615 31389 net.cpp:150] Setting up conv2/relu_3x3_reduce
I0718 14:20:33.304744 31389 net.cpp:157] Top shape: 6 64 250 250 (24000000)
I0718 14:20:33.304828 31389 net.cpp:165] Memory required for data: 1224000072
I0718 14:20:33.304906 31389 layer_factory.hpp:76] Creating layer conv2/3x3
I0718 14:20:33.305037 31389 net.cpp:106] Creating Layer conv2/3x3
I0718 14:20:33.305095 31389 net.cpp:454] conv2/3x3 <- conv2/3x3_reduce
I0718 14:20:33.305116 31389 net.cpp:411] conv2/3x3 -> conv2/3x3
I0718 14:20:33.312278 31389 cudnn_conv_layer.cpp:194] Reallocating workspace storage: 6912
I0718 14:20:33.312682 31389 net.cpp:150] Setting up conv2/3x3
I0718 14:20:33.312721 31389 net.cpp:157] Top shape: 6 192 250 250 (72000000)
I0718 14:20:33.312741 31389 net.cpp:165] Memory required for data: 1512000072
I0718 14:20:33.312777 31389 layer_factory.hpp:76] Creating layer conv2/relu_3x3
I0718 14:20:33.312806 31389 net.cpp:106] Creating Layer conv2/relu_3x3
I0718 14:20:33.312832 31389 net.cpp:454] conv2/relu_3x3 <- conv2/3x3
I0718 14:20:33.312852 31389 net.cpp:397] conv2/relu_3x3 -> conv2/3x3 (in-place)
I0718 14:20:33.313273 31389 net.cpp:150] Setting up conv2/relu_3x3
I0718 14:20:33.313302 31389 net.cpp:157] Top shape: 6 192 250 250 (72000000)
I0718 14:20:33.313316 31389 net.cpp:165] Memory required for data: 1800000072
I0718 14:20:33.313330 31389 layer_factory.hpp:76] Creating layer conv2/norm2
I0718 14:20:33.313361 31389 net.cpp:106] Creating Layer conv2/norm2
I0718 14:20:33.313385 31389 net.cpp:454] conv2/norm2 <- conv2/3x3
I0718 14:20:33.313418 31389 net.cpp:411] conv2/norm2 -> conv2/norm2
I0718 14:20:33.314599 31389 net.cpp:150] Setting up conv2/norm2
I0718 14:20:33.314645 31389 net.cpp:157] Top shape: 6 192 250 250 (72000000)
I0718 14:20:33.314734 31389 net.cpp:165] Memory required for data: 2088000072
I0718 14:20:33.314749 31389 layer_factory.hpp:76] Creating layer pool2/3x3_s2
I0718 14:20:33.314769 31389 net.cpp:106] Creating Layer pool2/3x3_s2
I0718 14:20:33.314788 31389 net.cpp:454] pool2/3x3_s2 <- conv2/norm2
I0718 14:20:33.314807 31389 net.cpp:411] pool2/3x3_s2 -> pool2/3x3_s2
I0718 14:20:33.315868 31389 net.cpp:150] Setting up pool2/3x3_s2
I0718 14:20:33.315907 31389 net.cpp:157] Top shape: 6 192 125 125 (18000000)
I0718 14:20:33.315920 31389 net.cpp:165] Memory required for data: 2160000072
I0718 14:20:33.315935 31389 layer_factory.hpp:76] Creating layer pool2/3x3_s2_pool2/3x3_s2_0_split
I0718 14:20:33.315959 31389 net.cpp:106] Creating Layer pool2/3x3_s2_pool2/3x3_s2_0_split
I0718 14:20:33.315975 31389 net.cpp:454] pool2/3x3_s2_pool2/3x3_s2_0_split <- pool2/3x3_s2
I0718 14:20:33.315996 31389 net.cpp:411] pool2/3x3_s2_pool2/3x3_s2_0_split -> pool2/3x3_s2_pool2/3x3_s2_0_split_0
I0718 14:20:33.316015 31389 net.cpp:411] pool2/3x3_s2_pool2/3x3_s2_0_split -> pool2/3x3_s2_pool2/3x3_s2_0_split_1
I0718 14:20:33.316036 31389 net.cpp:411] pool2/3x3_s2_pool2/3x3_s2_0_split -> pool2/3x3_s2_pool2/3x3_s2_0_split_2
I0718 14:20:33.316056 31389 net.cpp:411] pool2/3x3_s2_pool2/3x3_s2_0_split -> pool2/3x3_s2_pool2/3x3_s2_0_split_3
I0718 14:20:33.316159 31389 net.cpp:150] Setting up pool2/3x3_s2_pool2/3x3_s2_0_split
I0718 14:20:33.316190 31389 net.cpp:157] Top shape: 6 192 125 125 (18000000)
I0718 14:20:33.316205 31389 net.cpp:157] Top shape: 6 192 125 125 (18000000)
I0718 14:20:33.316221 31389 net.cpp:157] Top shape: 6 192 125 125 (18000000)
I0718 14:20:33.316237 31389 net.cpp:157] Top shape: 6 192 125 125 (18000000)
I0718 14:20:33.316251 31389 net.cpp:165] Memory required for data: 2448000072
I0718 14:20:33.316264 31389 layer_factory.hpp:76] Creating layer inception_3a/1x1
I0718 14:20:33.316296 31389 net.cpp:106] Creating Layer inception_3a/1x1
I0718 14:20:33.316311 31389 net.cpp:454] inception_3a/1x1 <- pool2/3x3_s2_pool2/3x3_s2_0_split_0
I0718 14:20:33.316331 31389 net.cpp:411] inception_3a/1x1 -> inception_3a/1x1
I0718 14:20:33.319602 31389 cudnn_conv_layer.cpp:194] Reallocating workspace storage: 2304
I0718 14:20:33.320231 31389 net.cpp:150] Setting up inception_3a/1x1
I0718 14:20:33.320271 31389 net.cpp:157] Top shape: 6 64 125 125 (6000000)
I0718 14:20:33.320293 31389 net.cpp:165] Memory required for data: 2472000072
I0718 14:20:33.320318 31389 layer_factory.hpp:76] Creating layer inception_3a/relu_1x1
I0718 14:20:33.320361 31389 net.cpp:106] Creating Layer inception_3a/relu_1x1
I0718 14:20:33.320406 31389 net.cpp:454] inception_3a/relu_1x1 <- inception_3a/1x1
I0718 14:20:33.320466 31389 net.cpp:397] inception_3a/relu_1x1 -> inception_3a/1x1 (in-place)
I0718 14:20:33.321528 31389 net.cpp:150] Setting up inception_3a/relu_1x1
I0718 14:20:33.321583 31389 net.cpp:157] Top shape: 6 64 125 125 (6000000)
I0718 14:20:33.321626 31389 net.cpp:165] Memory required for data: 2496000072
I0718 14:20:33.321667 31389 layer_factory.hpp:76] Creating layer inception_3a/3x3_reduce
I0718 14:20:33.321750 31389 net.cpp:106] Creating Layer inception_3a/3x3_reduce
I0718 14:20:33.321771 31389 net.cpp:454] inception_3a/3x3_reduce <- pool2/3x3_s2_pool2/3x3_s2_0_split_1
I0718 14:20:33.321796 31389 net.cpp:411] inception_3a/3x3_reduce -> inception_3a/3x3_reduce
I0718 14:20:33.329185 31389 cudnn_conv_layer.cpp:194] Reallocating workspace storage: 2304
I0718 14:20:33.329293 31389 net.cpp:150] Setting up inception_3a/3x3_reduce
I0718 14:20:33.329324 31389 net.cpp:157] Top shape: 6 96 125 125 (9000000)
I0718 14:20:33.329340 31389 net.cpp:165] Memory required for data: 2532000072
I0718 14:20:33.329375 31389 layer_factory.hpp:76] Creating layer inception_3a/relu_3x3_reduce
I0718 14:20:33.329406 31389 net.cpp:106] Creating Layer inception_3a/relu_3x3_reduce
I0718 14:20:33.329423 31389 net.cpp:454] inception_3a/relu_3x3_reduce <- inception_3a/3x3_reduce
I0718 14:20:33.329454 31389 net.cpp:397] inception_3a/relu_3x3_reduce -> inception_3a/3x3_reduce (in-place)
I0718 14:20:33.331218 31389 net.cpp:150] Setting up inception_3a/relu_3x3_reduce
I0718 14:20:33.331250 31389 net.cpp:157] Top shape: 6 96 125 125 (9000000)
I0718 14:20:33.331266 31389 net.cpp:165] Memory required for data: 2568000072
I0718 14:20:33.331281 31389 layer_factory.hpp:76] Creating layer inception_3a/3x3
I0718 14:20:33.331313 31389 net.cpp:106] Creating Layer inception_3a/3x3
I0718 14:20:33.331331 31389 net.cpp:454] inception_3a/3x3 <- inception_3a/3x3_reduce
I0718 14:20:33.331352 31389 net.cpp:411] inception_3a/3x3 -> inception_3a/3x3
I0718 14:20:33.338874 31389 cudnn_conv_layer.cpp:194] Reallocating workspace storage: 10368
I0718 14:20:33.338960 31389 net.cpp:150] Setting up inception_3a/3x3
I0718 14:20:33.338989 31389 net.cpp:157] Top shape: 6 128 125 125 (12000000)
I0718 14:20:33.339005 31389 net.cpp:165] Memory required for data: 2616000072
I0718 14:20:33.339031 31389 layer_factory.hpp:76] Creating layer inception_3a/relu_3x3
I0718 14:20:33.339074 31389 net.cpp:106] Creating Layer inception_3a/relu_3x3
I0718 14:20:33.339095 31389 net.cpp:454] inception_3a/relu_3x3 <- inception_3a/3x3
I0718 14:20:33.339117 31389 net.cpp:397] inception_3a/relu_3x3 -> inception_3a/3x3 (in-place)
I0718 14:20:33.340956 31389 net.cpp:150] Setting up inception_3a/relu_3x3
I0718 14:20:33.341002 31389 net.cpp:157] Top shape: 6 128 125 125 (12000000)
I0718 14:20:33.341019 31389 net.cpp:165] Memory required for data: 2664000072
I0718 14:20:33.341037 31389 layer_factory.hpp:76] Creating layer inception_3a/5x5_reduce
I0718 14:20:33.341068 31389 net.cpp:106] Creating Layer inception_3a/5x5_reduce
I0718 14:20:33.341086 31389 net.cpp:454] inception_3a/5x5_reduce <- pool2/3x3_s2_pool2/3x3_s2_0_split_2
I0718 14:20:33.341111 31389 net.cpp:411] inception_3a/5x5_reduce -> inception_3a/5x5_reduce
I0718 14:20:33.350034 31389 net.cpp:150] Setting up inception_3a/5x5_reduce
I0718 14:20:33.350165 31389 net.cpp:157] Top shape: 6 16 125 125 (1500000)
I0718 14:20:33.350198 31389 net.cpp:165] Memory required for data: 2670000072
I0718 14:20:33.350250 31389 layer_factory.hpp:76] Creating layer inception_3a/relu_5x5_reduce
I0718 14:20:33.350302 31389 net.cpp:106] Creating Layer inception_3a/relu_5x5_reduce
I0718 14:20:33.350337 31389 net.cpp:454] inception_3a/relu_5x5_reduce <- inception_3a/5x5_reduce
I0718 14:20:33.350366 31389 net.cpp:397] inception_3a/relu_5x5_reduce -> inception_3a/5x5_reduce (in-place)
I0718 14:20:33.352306 31389 net.cpp:150] Setting up inception_3a/relu_5x5_reduce
I0718 14:20:33.352391 31389 net.cpp:157] Top shape: 6 16 125 125 (1500000)
I0718 14:20:33.352417 31389 net.cpp:165] Memory required for data: 2676000072
I0718 14:20:33.352445 31389 layer_factory.hpp:76] Creating layer inception_3a/5x5
I0718 14:20:33.352490 31389 net.cpp:106] Creating Layer inception_3a/5x5
I0718 14:20:33.352516 31389 net.cpp:454] inception_3a/5x5 <- inception_3a/5x5_reduce
I0718 14:20:33.352538 31389 net.cpp:411] inception_3a/5x5 -> inception_3a/5x5
I0718 14:20:33.360643 31389 cudnn_conv_layer.cpp:194] Reallocating workspace storage: 4800
I0718 14:20:33.360782 31389 net.cpp:150] Setting up inception_3a/5x5
I0718 14:20:33.360815 31389 net.cpp:157] Top shape: 6 32 125 125 (3000000)
I0718 14:20:33.360836 31389 net.cpp:165] Memory required for data: 2688000072
I0718 14:20:33.360860 31389 layer_factory.hpp:76] Creating layer inception_3a/relu_5x5
I0718 14:20:33.360905 31389 net.cpp:106] Creating Layer inception_3a/relu_5x5
I0718 14:20:33.360932 31389 net.cpp:454] inception_3a/relu_5x5 <- inception_3a/5x5
I0718 14:20:33.360956 31389 net.cpp:397] inception_3a/relu_5x5 -> inception_3a/5x5 (in-place)
I0718 14:20:33.362103 31389 net.cpp:150] Setting up inception_3a/relu_5x5
I0718 14:20:33.362133 31389 net.cpp:157] Top shape: 6 32 125 125 (3000000)
I0718 14:20:33.362150 31389 net.cpp:165] Memory required for data: 2700000072
I0718 14:20:33.362175 31389 layer_factory.hpp:76] Creating layer inception_3a/pool
I0718 14:20:33.362200 31389 net.cpp:106] Creating Layer inception_3a/pool
I0718 14:20:33.362216 31389 net.cpp:454] inception_3a/pool <- pool2/3x3_s2_pool2/3x3_s2_0_split_3
I0718 14:20:33.362306 31389 net.cpp:411] inception_3a/pool -> inception_3a/pool
I0718 14:20:33.364642 31389 net.cpp:150] Setting up inception_3a/pool
I0718 14:20:33.364683 31389 net.cpp:157] Top shape: 6 192 125 125 (18000000)
I0718 14:20:33.364701 31389 net.cpp:165] Memory required for data: 2772000072
I0718 14:20:33.364715 31389 layer_factory.hpp:76] Creating layer inception_3a/pool_proj
I0718 14:20:33.364747 31389 net.cpp:106] Creating Layer inception_3a/pool_proj
I0718 14:20:33.364766 31389 net.cpp:454] inception_3a/pool_proj <- inception_3a/pool
I0718 14:20:33.364790 31389 net.cpp:411] inception_3a/pool_proj -> inception_3a/pool_proj
I0718 14:20:33.371861 31389 net.cpp:150] Setting up inception_3a/pool_proj
I0718 14:20:33.371945 31389 net.cpp:157] Top shape: 6 32 125 125 (3000000)
I0718 14:20:33.371965 31389 net.cpp:165] Memory required for data: 2784000072
I0718 14:20:33.372002 31389 layer_factory.hpp:76] Creating layer inception_3a/relu_pool_proj
I0718 14:20:33.372033 31389 net.cpp:106] Creating Layer inception_3a/relu_pool_proj
I0718 14:20:33.372051 31389 net.cpp:454] inception_3a/relu_pool_proj <- inception_3a/pool_proj
I0718 14:20:33.372086 31389 net.cpp:397] inception_3a/relu_pool_proj -> inception_3a/pool_proj (in-place)
I0718 14:20:33.373255 31389 net.cpp:150] Setting up inception_3a/relu_pool_proj
I0718 14:20:33.373287 31389 net.cpp:157] Top shape: 6 32 125 125 (3000000)
I0718 14:20:33.373306 31389 net.cpp:165] Memory required for data: 2796000072
I0718 14:20:33.373322 31389 layer_factory.hpp:76] Creating layer inception_3a/output
I0718 14:20:33.373354 31389 net.cpp:106] Creating Layer inception_3a/output
I0718 14:20:33.373373 31389 net.cpp:454] inception_3a/output <- inception_3a/1x1
I0718 14:20:33.373389 31389 net.cpp:454] inception_3a/output <- inception_3a/3x3
I0718 14:20:33.373406 31389 net.cpp:454] inception_3a/output <- inception_3a/5x5
I0718 14:20:33.373435 31389 net.cpp:454] inception_3a/output <- inception_3a/pool_proj
I0718 14:20:33.373462 31389 net.cpp:411] inception_3a/output -> inception_3a/output
I0718 14:20:33.373533 31389 net.cpp:150] Setting up inception_3a/output
I0718 14:20:33.373558 31389 net.cpp:157] Top shape: 6 256 125 125 (24000000)
I0718 14:20:33.373574 31389 net.cpp:165] Memory required for data: 2892000072
I0718 14:20:33.373590 31389 layer_factory.hpp:76] Creating layer inception_3a/output_inception_3a/output_0_split
I0718 14:20:33.373610 31389 net.cpp:106] Creating Layer inception_3a/output_inception_3a/output_0_split
I0718 14:20:33.373626 31389 net.cpp:454] inception_3a/output_inception_3a/output_0_split <- inception_3a/output
I0718 14:20:33.373646 31389 net.cpp:411] inception_3a/output_inception_3a/output_0_split -> inception_3a/output_inception_3a/output_0_split_0
I0718 14:20:33.373668 31389 net.cpp:411] inception_3a/output_inception_3a/output_0_split -> inception_3a/output_inception_3a/output_0_split_1
I0718 14:20:33.373697 31389 net.cpp:411] inception_3a/output_inception_3a/output_0_split -> inception_3a/output_inception_3a/output_0_split_2
I0718 14:20:33.373719 31389 net.cpp:411] inception_3a/output_inception_3a/output_0_split -> inception_3a/output_inception_3a/output_0_split_3
I0718 14:20:33.373852 31389 net.cpp:150] Setting up inception_3a/output_inception_3a/output_0_split
I0718 14:20:33.373877 31389 net.cpp:157] Top shape: 6 256 125 125 (24000000)
I0718 14:20:33.373908 31389 net.cpp:157] Top shape: 6 256 125 125 (24000000)
I0718 14:20:33.373939 31389 net.cpp:157] Top shape: 6 256 125 125 (24000000)
I0718 14:20:33.373970 31389 net.cpp:157] Top shape: 6 256 125 125 (24000000)
I0718 14:20:33.373988 31389 net.cpp:165] Memory required for data: 3276000072
I0718 14:20:33.374004 31389 layer_factory.hpp:76] Creating layer inception_3b/1x1
I0718 14:20:33.374034 31389 net.cpp:106] Creating Layer inception_3b/1x1
I0718 14:20:33.374066 31389 net.cpp:454] inception_3b/1x1 <- inception_3a/output_inception_3a/output_0_split_0
I0718 14:20:33.374094 31389 net.cpp:411] inception_3b/1x1 -> inception_3b/1x1
I0718 14:20:33.381330 31389 cudnn_conv_layer.cpp:194] Reallocating workspace storage: 3072
I0718 14:20:33.381538 31389 net.cpp:150] Setting up inception_3b/1x1
I0718 14:20:33.381572 31389 net.cpp:157] Top shape: 6 128 125 125 (12000000)
I0718 14:20:33.381592 31389 net.cpp:165] Memory required for data: 3324000072
I0718 14:20:33.381619 31389 layer_factory.hpp:76] Creating layer inception_3b/relu_1x1
I0718 14:20:33.381654 31389 net.cpp:106] Creating Layer inception_3b/relu_1x1
I0718 14:20:33.381676 31389 net.cpp:454] inception_3b/relu_1x1 <- inception_3b/1x1
I0718 14:20:33.381701 31389 net.cpp:397] inception_3b/relu_1x1 -> inception_3b/1x1 (in-place)
I0718 14:20:33.383496 31389 net.cpp:150] Setting up inception_3b/relu_1x1
I0718 14:20:33.383529 31389 net.cpp:157] Top shape: 6 128 125 125 (12000000)
I0718 14:20:33.383546 31389 net.cpp:165] Memory required for data: 3372000072
I0718 14:20:33.383561 31389 layer_factory.hpp:76] Creating layer inception_3b/3x3_reduce
I0718 14:20:33.383599 31389 net.cpp:106] Creating Layer inception_3b/3x3_reduce
I0718 14:20:33.383620 31389 net.cpp:454] inception_3b/3x3_reduce <- inception_3a/output_inception_3a/output_0_split_1
I0718 14:20:33.383642 31389 net.cpp:411] inception_3b/3x3_reduce -> inception_3b/3x3_reduce
I0718 14:20:33.391571 31389 cudnn_conv_layer.cpp:194] Reallocating workspace storage: 3072
I0718 14:20:33.391675 31389 net.cpp:150] Setting up inception_3b/3x3_reduce
I0718 14:20:33.391708 31389 net.cpp:157] Top shape: 6 128 125 125 (12000000)
I0718 14:20:33.391726 31389 net.cpp:165] Memory required for data: 3420000072
I0718 14:20:33.391762 31389 layer_factory.hpp:76] Creating layer inception_3b/relu_3x3_reduce
I0718 14:20:33.391798 31389 net.cpp:106] Creating Layer inception_3b/relu_3x3_reduce
I0718 14:20:33.391819 31389 net.cpp:454] inception_3b/relu_3x3_reduce <- inception_3b/3x3_reduce
I0718 14:20:33.391841 31389 net.cpp:397] inception_3b/relu_3x3_reduce -> inception_3b/3x3_reduce (in-place)
I0718 14:20:33.395728 31389 net.cpp:150] Setting up inception_3b/relu_3x3_reduce
I0718 14:20:33.395789 31389 net.cpp:157] Top shape: 6 128 125 125 (12000000)
I0718 14:20:33.395809 31389 net.cpp:165] Memory required for data: 3468000072
I0718 14:20:33.395828 31389 layer_factory.hpp:76] Creating layer inception_3b/3x3
I0718 14:20:33.395874 31389 net.cpp:106] Creating Layer inception_3b/3x3
I0718 14:20:33.395894 31389 net.cpp:454] inception_3b/3x3 <- inception_3b/3x3_reduce
I0718 14:20:33.395925 31389 net.cpp:411] inception_3b/3x3 -> inception_3b/3x3
I0718 14:20:33.407100 31389 cudnn_conv_layer.cpp:194] Reallocating workspace storage: 13824
I0718 14:20:33.407217 31389 net.cpp:150] Setting up inception_3b/3x3
I0718 14:20:33.407248 31389 net.cpp:157] Top shape: 6 192 125 125 (18000000)
I0718 14:20:33.407266 31389 net.cpp:165] Memory required for data: 3540000072
I0718 14:20:33.407294 31389 layer_factory.hpp:76] Creating layer inception_3b/relu_3x3
I0718 14:20:33.407330 31389 net.cpp:106] Creating Layer inception_3b/relu_3x3
I0718 14:20:33.407361 31389 net.cpp:454] inception_3b/relu_3x3 <- inception_3b/3x3
I0718 14:20:33.407387 31389 net.cpp:397] inception_3b/relu_3x3 -> inception_3b/3x3 (in-place)
I0718 14:20:33.409997 31389 net.cpp:150] Setting up inception_3b/relu_3x3
I0718 14:20:33.410099 31389 net.cpp:157] Top shape: 6 192 125 125 (18000000)
I0718 14:20:33.410141 31389 net.cpp:165] Memory required for data: 3612000072
I0718 14:20:33.410166 31389 layer_factory.hpp:76] Creating layer inception_3b/5x5_reduce
I0718 14:20:33.410208 31389 net.cpp:106] Creating Layer inception_3b/5x5_reduce
I0718 14:20:33.410228 31389 net.cpp:454] inception_3b/5x5_reduce <- inception_3a/output_inception_3a/output_0_split_2
I0718 14:20:33.410255 31389 net.cpp:411] inception_3b/5x5_reduce -> inception_3b/5x5_reduce
I0718 14:20:33.420127 31389 net.cpp:150] Setting up inception_3b/5x5_reduce
I0718 14:20:33.420225 31389 net.cpp:157] Top shape: 6 32 125 125 (3000000)
I0718 14:20:33.420248 31389 net.cpp:165] Memory required for data: 3624000072
I0718 14:20:33.420277 31389 layer_factory.hpp:76] Creating layer inception_3b/relu_5x5_reduce
I0718 14:20:33.420315 31389 net.cpp:106] Creating Layer inception_3b/relu_5x5_reduce
I0718 14:20:33.420459 31389 net.cpp:454] inception_3b/relu_5x5_reduce <- inception_3b/5x5_reduce
I0718 14:20:33.420490 31389 net.cpp:397] inception_3b/relu_5x5_reduce -> inception_3b/5x5_reduce (in-place)
I0718 14:20:33.423095 31389 net.cpp:150] Setting up inception_3b/relu_5x5_reduce
I0718 14:20:33.423187 31389 net.cpp:157] Top shape: 6 32 125 125 (3000000)
I0718 14:20:33.423210 31389 net.cpp:165] Memory required for data: 3636000072
I0718 14:20:33.423229 31389 layer_factory.hpp:76] Creating layer inception_3b/5x5
I0718 14:20:33.423270 31389 net.cpp:106] Creating Layer inception_3b/5x5
I0718 14:20:33.423293 31389 net.cpp:454] inception_3b/5x5 <- inception_3b/5x5_reduce
I0718 14:20:33.423319 31389 net.cpp:411] inception_3b/5x5 -> inception_3b/5x5
I0718 14:20:33.433457 31389 net.cpp:150] Setting up inception_3b/5x5
I0718 14:20:33.433622 31389 net.cpp:157] Top shape: 6 96 125 125 (9000000)
I0718 14:20:33.433672 31389 net.cpp:165] Memory required for data: 3672000072
I0718 14:20:33.433723 31389 layer_factory.hpp:76] Creating layer inception_3b/relu_5x5
I0718 14:20:33.433773 31389 net.cpp:106] Creating Layer inception_3b/relu_5x5
I0718 14:20:33.433804 31389 net.cpp:454] inception_3b/relu_5x5 <- inception_3b/5x5
I0718 14:20:33.433837 31389 net.cpp:397] inception_3b/relu_5x5 -> inception_3b/5x5 (in-place)
I0718 14:20:33.436477 31389 net.cpp:150] Setting up inception_3b/relu_5x5
I0718 14:20:33.436533 31389 net.cpp:157] Top shape: 6 96 125 125 (9000000)
I0718 14:20:33.436552 31389 net.cpp:165] Memory required for data: 3708000072
I0718 14:20:33.436574 31389 layer_factory.hpp:76] Creating layer inception_3b/pool
I0718 14:20:33.436612 31389 net.cpp:106] Creating Layer inception_3b/pool
I0718 14:20:33.436630 31389 net.cpp:454] inception_3b/pool <- inception_3a/output_inception_3a/output_0_split_3
I0718 14:20:33.436653 31389 net.cpp:411] inception_3b/pool -> inception_3b/pool
I0718 14:20:33.439677 31389 net.cpp:150] Setting up inception_3b/pool
I0718 14:20:33.439815 31389 net.cpp:157] Top shape: 6 256 125 125 (24000000)
I0718 14:20:33.439838 31389 net.cpp:165] Memory required for data: 3804000072
I0718 14:20:33.439858 31389 layer_factory.hpp:76] Creating layer inception_3b/pool_proj
I0718 14:20:33.439888 31389 net.cpp:106] Creating Layer inception_3b/pool_proj
I0718 14:20:33.439910 31389 net.cpp:454] inception_3b/pool_proj <- inception_3b/pool
I0718 14:20:33.439949 31389 net.cpp:411] inception_3b/pool_proj -> inception_3b/pool_proj
I0718 14:20:33.448089 31389 net.cpp:150] Setting up inception_3b/pool_proj
I0718 14:20:33.448192 31389 net.cpp:157] Top shape: 6 64 125 125 (6000000)
I0718 14:20:33.448215 31389 net.cpp:165] Memory required for data: 3828000072
I0718 14:20:33.448242 31389 layer_factory.hpp:76] Creating layer inception_3b/relu_pool_proj
I0718 14:20:33.448288 31389 net.cpp:106] Creating Layer inception_3b/relu_pool_proj
I0718 14:20:33.448321 31389 net.cpp:454] inception_3b/relu_pool_proj <- inception_3b/pool_proj
I0718 14:20:33.448345 31389 net.cpp:397] inception_3b/relu_pool_proj -> inception_3b/pool_proj (in-place)
I0718 14:20:33.450127 31389 net.cpp:150] Setting up inception_3b/relu_pool_proj
I0718 14:20:33.450162 31389 net.cpp:157] Top shape: 6 64 125 125 (6000000)
I0718 14:20:33.450179 31389 net.cpp:165] Memory required for data: 3852000072
I0718 14:20:33.450201 31389 layer_factory.hpp:76] Creating layer inception_3b/output
I0718 14:20:33.450229 31389 net.cpp:106] Creating Layer inception_3b/output
I0718 14:20:33.450247 31389 net.cpp:454] inception_3b/output <- inception_3b/1x1
I0718 14:20:33.450263 31389 net.cpp:454] inception_3b/output <- inception_3b/3x3
I0718 14:20:33.450281 31389 net.cpp:454] inception_3b/output <- inception_3b/5x5
I0718 14:20:33.450315 31389 net.cpp:454] inception_3b/output <- inception_3b/pool_proj
I0718 14:20:33.450366 31389 net.cpp:411] inception_3b/output -> inception_3b/output
I0718 14:20:33.450455 31389 net.cpp:150] Setting up inception_3b/output
I0718 14:20:33.450486 31389 net.cpp:157] Top shape: 6 480 125 125 (45000000)
I0718 14:20:33.450503 31389 net.cpp:165] Memory required for data: 4032000072
I0718 14:20:33.450606 31389 layer_factory.hpp:76] Creating layer pool3/3x3_s2
I0718 14:20:33.450641 31389 net.cpp:106] Creating Layer pool3/3x3_s2
I0718 14:20:33.450661 31389 net.cpp:454] pool3/3x3_s2 <- inception_3b/output
I0718 14:20:33.450687 31389 net.cpp:411] pool3/3x3_s2 -> pool3/3x3_s2
I0718 14:20:33.452680 31389 net.cpp:150] Setting up pool3/3x3_s2
I0718 14:20:33.452739 31389 net.cpp:157] Top shape: 6 480 62 62 (11070720)
I0718 14:20:33.452756 31389 net.cpp:165] Memory required for data: 4076282952
I0718 14:20:33.452775 31389 layer_factory.hpp:76] Creating layer pool3/3x3_s2_pool3/3x3_s2_0_split
I0718 14:20:33.452800 31389 net.cpp:106] Creating Layer pool3/3x3_s2_pool3/3x3_s2_0_split
I0718 14:20:33.452816 31389 net.cpp:454] pool3/3x3_s2_pool3/3x3_s2_0_split <- pool3/3x3_s2
I0718 14:20:33.452839 31389 net.cpp:411] pool3/3x3_s2_pool3/3x3_s2_0_split -> pool3/3x3_s2_pool3/3x3_s2_0_split_0
I0718 14:20:33.452870 31389 net.cpp:411] pool3/3x3_s2_pool3/3x3_s2_0_split -> pool3/3x3_s2_pool3/3x3_s2_0_split_1
I0718 14:20:33.452894 31389 net.cpp:411] pool3/3x3_s2_pool3/3x3_s2_0_split -> pool3/3x3_s2_pool3/3x3_s2_0_split_2
I0718 14:20:33.452914 31389 net.cpp:411] pool3/3x3_s2_pool3/3x3_s2_0_split -> pool3/3x3_s2_pool3/3x3_s2_0_split_3
I0718 14:20:33.453104 31389 net.cpp:150] Setting up pool3/3x3_s2_pool3/3x3_s2_0_split
I0718 14:20:33.453181 31389 net.cpp:157] Top shape: 6 480 62 62 (11070720)
I0718 14:20:33.453224 31389 net.cpp:157] Top shape: 6 480 62 62 (11070720)
I0718 14:20:33.453244 31389 net.cpp:157] Top shape: 6 480 62 62 (11070720)
I0718 14:20:33.453261 31389 net.cpp:157] Top shape: 6 480 62 62 (11070720)
I0718 14:20:33.453275 31389 net.cpp:165] Memory required for data: 4253414472
I0718 14:20:33.453290 31389 layer_factory.hpp:76] Creating layer inception_4a/1x1
I0718 14:20:33.453323 31389 net.cpp:106] Creating Layer inception_4a/1x1
I0718 14:20:33.453343 31389 net.cpp:454] inception_4a/1x1 <- pool3/3x3_s2_pool3/3x3_s2_0_split_0
I0718 14:20:33.453371 31389 net.cpp:411] inception_4a/1x1 -> inception_4a/1x1
I0718 14:20:33.460366 31389 cudnn_conv_layer.cpp:194] Reallocating workspace storage: 5760
I0718 14:20:33.460505 31389 net.cpp:150] Setting up inception_4a/1x1
I0718 14:20:33.460544 31389 net.cpp:157] Top shape: 6 192 62 62 (4428288)
I0718 14:20:33.460582 31389 net.cpp:165] Memory required for data: 4271127624
I0718 14:20:33.460626 31389 layer_factory.hpp:76] Creating layer inception_4a/relu_1x1
I0718 14:20:33.460667 31389 net.cpp:106] Creating Layer inception_4a/relu_1x1
I0718 14:20:33.460691 31389 net.cpp:454] inception_4a/relu_1x1 <- inception_4a/1x1
I0718 14:20:33.460718 31389 net.cpp:397] inception_4a/relu_1x1 -> inception_4a/1x1 (in-place)
I0718 14:20:33.462014 31389 net.cpp:150] Setting up inception_4a/relu_1x1
I0718 14:20:33.462061 31389 net.cpp:157] Top shape: 6 192 62 62 (4428288)
I0718 14:20:33.462080 31389 net.cpp:165] Memory required for data: 4288840776
I0718 14:20:33.462095 31389 layer_factory.hpp:76] Creating layer inception_4a/3x3_reduce
I0718 14:20:33.462124 31389 net.cpp:106] Creating Layer inception_4a/3x3_reduce
I0718 14:20:33.462144 31389 net.cpp:454] inception_4a/3x3_reduce <- pool3/3x3_s2_pool3/3x3_s2_0_split_1
I0718 14:20:33.462172 31389 net.cpp:411] inception_4a/3x3_reduce -> inception_4a/3x3_reduce
I0718 14:20:33.471025 31389 cudnn_conv_layer.cpp:194] Reallocating workspace storage: 5760
I0718 14:20:33.471165 31389 net.cpp:150] Setting up inception_4a/3x3_reduce
I0718 14:20:33.471200 31389 net.cpp:157] Top shape: 6 96 62 62 (2214144)
I0718 14:20:33.471218 31389 net.cpp:165] Memory required for data: 4297697352
I0718 14:20:33.471267 31389 layer_factory.hpp:76] Creating layer inception_4a/relu_3x3_reduce
I0718 14:20:33.471318 31389 net.cpp:106] Creating Layer inception_4a/relu_3x3_reduce
I0718 14:20:33.471350 31389 net.cpp:454] inception_4a/relu_3x3_reduce <- inception_4a/3x3_reduce
I0718 14:20:33.471376 31389 net.cpp:397] inception_4a/relu_3x3_reduce -> inception_4a/3x3_reduce (in-place)
I0718 14:20:33.472760 31389 net.cpp:150] Setting up inception_4a/relu_3x3_reduce
I0718 14:20:33.472913 31389 net.cpp:157] Top shape: 6 96 62 62 (2214144)
I0718 14:20:33.472929 31389 net.cpp:165] Memory required for data: 4306553928
I0718 14:20:33.472949 31389 layer_factory.hpp:76] Creating layer inception_4a/3x3
I0718 14:20:33.472980 31389 net.cpp:106] Creating Layer inception_4a/3x3
I0718 14:20:33.472996 31389 net.cpp:454] inception_4a/3x3 <- inception_4a/3x3_reduce
I0718 14:20:33.473017 31389 net.cpp:411] inception_4a/3x3 -> inception_4a/3x3
I0718 14:20:33.481755 31389 net.cpp:150] Setting up inception_4a/3x3
I0718 14:20:33.481917 31389 net.cpp:157] Top shape: 6 208 62 62 (4797312)
I0718 14:20:33.481938 31389 net.cpp:165] Memory required for data: 4325743176
I0718 14:20:33.481968 31389 layer_factory.hpp:76] Creating layer inception_4a/relu_3x3
I0718 14:20:33.482008 31389 net.cpp:106] Creating Layer inception_4a/relu_3x3
I0718 14:20:33.482039 31389 net.cpp:454] inception_4a/relu_3x3 <- inception_4a/3x3
I0718 14:20:33.482062 31389 net.cpp:397] inception_4a/relu_3x3 -> inception_4a/3x3 (in-place)
I0718 14:20:33.483028 31389 net.cpp:150] Setting up inception_4a/relu_3x3
I0718 14:20:33.483074 31389 net.cpp:157] Top shape: 6 208 62 62 (4797312)
I0718 14:20:33.483094 31389 net.cpp:165] Memory required for data: 4344932424
I0718 14:20:33.483108 31389 layer_factory.hpp:76] Creating layer inception_4a/5x5_reduce
I0718 14:20:33.483134 31389 net.cpp:106] Creating Layer inception_4a/5x5_reduce
I0718 14:20:33.483149 31389 net.cpp:454] inception_4a/5x5_reduce <- pool3/3x3_s2_pool3/3x3_s2_0_split_2
I0718 14:20:33.483172 31389 net.cpp:411] inception_4a/5x5_reduce -> inception_4a/5x5_reduce
I0718 14:20:33.488791 31389 cudnn_conv_layer.cpp:194] Reallocating workspace storage: 5760
I0718 14:20:33.488958 31389 net.cpp:150] Setting up inception_4a/5x5_reduce
I0718 14:20:33.488998 31389 net.cpp:157] Top shape: 6 16 62 62 (369024)
I0718 14:20:33.489017 31389 net.cpp:165] Memory required for data: 4346408520
I0718 14:20:33.489040 31389 layer_factory.hpp:76] Creating layer inception_4a/relu_5x5_reduce
I0718 14:20:33.489090 31389 net.cpp:106] Creating Layer inception_4a/relu_5x5_reduce
I0718 14:20:33.489123 31389 net.cpp:454] inception_4a/relu_5x5_reduce <- inception_4a/5x5_reduce
I0718 14:20:33.489151 31389 net.cpp:397] inception_4a/relu_5x5_reduce -> inception_4a/5x5_reduce (in-place)
I0718 14:20:33.492061 31389 net.cpp:150] Setting up inception_4a/relu_5x5_reduce
I0718 14:20:33.492128 31389 net.cpp:157] Top shape: 6 16 62 62 (369024)
I0718 14:20:33.492143 31389 net.cpp:165] Memory required for data: 4347884616
I0718 14:20:33.492166 31389 layer_factory.hpp:76] Creating layer inception_4a/5x5
I0718 14:20:33.492199 31389 net.cpp:106] Creating Layer inception_4a/5x5
I0718 14:20:33.492230 31389 net.cpp:454] inception_4a/5x5 <- inception_4a/5x5_reduce
I0718 14:20:33.492254 31389 net.cpp:411] inception_4a/5x5 -> inception_4a/5x5
I0718 14:20:33.499783 31389 net.cpp:150] Setting up inception_4a/5x5
I0718 14:20:33.499907 31389 net.cpp:157] Top shape: 6 48 62 62 (1107072)
I0718 14:20:33.499924 31389 net.cpp:165] Memory required for data: 4352312904
I0718 14:20:33.499948 31389 layer_factory.hpp:76] Creating layer inception_4a/relu_5x5
I0718 14:20:33.499991 31389 net.cpp:106] Creating Layer inception_4a/relu_5x5
I0718 14:20:33.500012 31389 net.cpp:454] inception_4a/relu_5x5 <- inception_4a/5x5
I0718 14:20:33.500032 31389 net.cpp:397] inception_4a/relu_5x5 -> inception_4a/5x5 (in-place)
I0718 14:20:33.501193 31389 net.cpp:150] Setting up inception_4a/relu_5x5
I0718 14:20:33.501220 31389 net.cpp:157] Top shape: 6 48 62 62 (1107072)
I0718 14:20:33.501235 31389 net.cpp:165] Memory required for data: 4356741192
I0718 14:20:33.501250 31389 layer_factory.hpp:76] Creating layer inception_4a/pool
I0718 14:20:33.501271 31389 net.cpp:106] Creating Layer inception_4a/pool
I0718 14:20:33.501289 31389 net.cpp:454] inception_4a/pool <- pool3/3x3_s2_pool3/3x3_s2_0_split_3
I0718 14:20:33.501312 31389 net.cpp:411] inception_4a/pool -> inception_4a/pool
I0718 14:20:33.502730 31389 net.cpp:150] Setting up inception_4a/pool
I0718 14:20:33.502784 31389 net.cpp:157] Top shape: 6 480 62 62 (11070720)
I0718 14:20:33.502895 31389 net.cpp:165] Memory required for data: 4401024072
I0718 14:20:33.502912 31389 layer_factory.hpp:76] Creating layer inception_4a/pool_proj
I0718 14:20:33.502943 31389 net.cpp:106] Creating Layer inception_4a/pool_proj
I0718 14:20:33.502959 31389 net.cpp:454] inception_4a/pool_proj <- inception_4a/pool
I0718 14:20:33.503002 31389 net.cpp:411] inception_4a/pool_proj -> inception_4a/pool_proj
I0718 14:20:33.509032 31389 net.cpp:150] Setting up inception_4a/pool_proj
I0718 14:20:33.509105 31389 net.cpp:157] Top shape: 6 64 62 62 (1476096)
I0718 14:20:33.509119 31389 net.cpp:165] Memory required for data: 4406928456
I0718 14:20:33.509142 31389 layer_factory.hpp:76] Creating layer inception_4a/relu_pool_proj
I0718 14:20:33.509169 31389 net.cpp:106] Creating Layer inception_4a/relu_pool_proj
I0718 14:20:33.509186 31389 net.cpp:454] inception_4a/relu_pool_proj <- inception_4a/pool_proj
I0718 14:20:33.509204 31389 net.cpp:397] inception_4a/relu_pool_proj -> inception_4a/pool_proj (in-place)
I0718 14:20:33.510386 31389 net.cpp:150] Setting up inception_4a/relu_pool_proj
I0718 14:20:33.510417 31389 net.cpp:157] Top shape: 6 64 62 62 (1476096)
I0718 14:20:33.510431 31389 net.cpp:165] Memory required for data: 4412832840
I0718 14:20:33.510448 31389 layer_factory.hpp:76] Creating layer inception_4a/output
I0718 14:20:33.510470 31389 net.cpp:106] Creating Layer inception_4a/output
I0718 14:20:33.510486 31389 net.cpp:454] inception_4a/output <- inception_4a/1x1
I0718 14:20:33.510502 31389 net.cpp:454] inception_4a/output <- inception_4a/3x3
I0718 14:20:33.510516 31389 net.cpp:454] inception_4a/output <- inception_4a/5x5
I0718 14:20:33.510530 31389 net.cpp:454] inception_4a/output <- inception_4a/pool_proj
I0718 14:20:33.510546 31389 net.cpp:411] inception_4a/output -> inception_4a/output
I0718 14:20:33.510602 31389 net.cpp:150] Setting up inception_4a/output
I0718 14:20:33.510620 31389 net.cpp:157] Top shape: 6 512 62 62 (11808768)
I0718 14:20:33.510643 31389 net.cpp:165] Memory required for data: 4460067912
I0718 14:20:33.510663 31389 layer_factory.hpp:76] Creating layer inception_4a/output_inception_4a/output_0_split
I0718 14:20:33.510684 31389 net.cpp:106] Creating Layer inception_4a/output_inception_4a/output_0_split
I0718 14:20:33.510699 31389 net.cpp:454] inception_4a/output_inception_4a/output_0_split <- inception_4a/output
I0718 14:20:33.510715 31389 net.cpp:411] inception_4a/output_inception_4a/output_0_split -> inception_4a/output_inception_4a/output_0_split_0
I0718 14:20:33.510735 31389 net.cpp:411] inception_4a/output_inception_4a/output_0_split -> inception_4a/output_inception_4a/output_0_split_1
I0718 14:20:33.510753 31389 net.cpp:411] inception_4a/output_inception_4a/output_0_split -> inception_4a/output_inception_4a/output_0_split_2
I0718 14:20:33.510771 31389 net.cpp:411] inception_4a/output_inception_4a/output_0_split -> inception_4a/output_inception_4a/output_0_split_3
I0718 14:20:33.510871 31389 net.cpp:150] Setting up inception_4a/output_inception_4a/output_0_split
I0718 14:20:33.510890 31389 net.cpp:157] Top shape: 6 512 62 62 (11808768)
I0718 14:20:33.510905 31389 net.cpp:157] Top shape: 6 512 62 62 (11808768)
I0718 14:20:33.510918 31389 net.cpp:157] Top shape: 6 512 62 62 (11808768)
I0718 14:20:33.510932 31389 net.cpp:157] Top shape: 6 512 62 62 (11808768)
I0718 14:20:33.510946 31389 net.cpp:165] Memory required for data: 4649008200
I0718 14:20:33.510959 31389 layer_factory.hpp:76] Creating layer inception_4b/1x1
I0718 14:20:33.510982 31389 net.cpp:106] Creating Layer inception_4b/1x1
I0718 14:20:33.510996 31389 net.cpp:454] inception_4b/1x1 <- inception_4a/output_inception_4a/output_0_split_0
I0718 14:20:33.511016 31389 net.cpp:411] inception_4b/1x1 -> inception_4b/1x1
I0718 14:20:33.516729 31389 net.cpp:150] Setting up inception_4b/1x1
I0718 14:20:33.516798 31389 net.cpp:157] Top shape: 6 160 62 62 (3690240)
I0718 14:20:33.516813 31389 net.cpp:165] Memory required for data: 4663769160
I0718 14:20:33.516834 31389 layer_factory.hpp:76] Creating layer inception_4b/relu_1x1
I0718 14:20:33.516914 31389 net.cpp:106] Creating Layer inception_4b/relu_1x1
I0718 14:20:33.516932 31389 net.cpp:454] inception_4b/relu_1x1 <- inception_4b/1x1
I0718 14:20:33.516957 31389 net.cpp:397] inception_4b/relu_1x1 -> inception_4b/1x1 (in-place)
I0718 14:20:33.517686 31389 net.cpp:150] Setting up inception_4b/relu_1x1
I0718 14:20:33.517716 31389 net.cpp:157] Top shape: 6 160 62 62 (3690240)
I0718 14:20:33.517731 31389 net.cpp:165] Memory required for data: 4678530120
I0718 14:20:33.517750 31389 layer_factory.hpp:76] Creating layer inception_4b/3x3_reduce
I0718 14:20:33.517778 31389 net.cpp:106] Creating Layer inception_4b/3x3_reduce
I0718 14:20:33.517793 31389 net.cpp:454] inception_4b/3x3_reduce <- inception_4a/output_inception_4a/output_0_split_1
I0718 14:20:33.517817 31389 net.cpp:411] inception_4b/3x3_reduce -> inception_4b/3x3_reduce
I0718 14:20:33.524430 31389 cudnn_conv_layer.cpp:194] Reallocating workspace storage: 6144
I0718 14:20:33.524687 31389 net.cpp:150] Setting up inception_4b/3x3_reduce
I0718 14:20:33.524763 31389 net.cpp:157] Top shape: 6 112 62 62 (2583168)
I0718 14:20:33.524817 31389 net.cpp:165] Memory required for data: 4688862792
I0718 14:20:33.524888 31389 layer_factory.hpp:76] Creating layer inception_4b/relu_3x3_reduce
I0718 14:20:33.524991 31389 net.cpp:106] Creating Layer inception_4b/relu_3x3_reduce
I0718 14:20:33.525073 31389 net.cpp:454] inception_4b/relu_3x3_reduce <- inception_4b/3x3_reduce
I0718 14:20:33.525144 31389 net.cpp:397] inception_4b/relu_3x3_reduce -> inception_4b/3x3_reduce (in-place)
I0718 14:20:33.527415 31389 net.cpp:150] Setting up inception_4b/relu_3x3_reduce
I0718 14:20:33.527525 31389 net.cpp:157] Top shape: 6 112 62 62 (2583168)
I0718 14:20:33.527616 31389 net.cpp:165] Memory required for data: 4699195464
I0718 14:20:33.527681 31389 layer_factory.hpp:76] Creating layer inception_4b/3x3
I0718 14:20:33.527796 31389 net.cpp:106] Creating Layer inception_4b/3x3
I0718 14:20:33.527890 31389 net.cpp:454] inception_4b/3x3 <- inception_4b/3x3_reduce
I0718 14:20:33.527959 31389 net.cpp:411] inception_4b/3x3 -> inception_4b/3x3
I0718 14:20:33.542873 31389 cudnn_conv_layer.cpp:194] Reallocating workspace storage: 12096
I0718 14:20:33.543093 31389 net.cpp:150] Setting up inception_4b/3x3
I0718 14:20:33.543169 31389 net.cpp:157] Top shape: 6 224 62 62 (5166336)
I0718 14:20:33.543220 31389 net.cpp:165] Memory required for data: 4719860808
I0718 14:20:33.543299 31389 layer_factory.hpp:76] Creating layer inception_4b/relu_3x3
I0718 14:20:33.543438 31389 net.cpp:106] Creating Layer inception_4b/relu_3x3
I0718 14:20:33.543493 31389 net.cpp:454] inception_4b/relu_3x3 <- inception_4b/3x3
I0718 14:20:33.543555 31389 net.cpp:397] inception_4b/relu_3x3 -> inception_4b/3x3 (in-place)
I0718 14:20:33.545223 31389 net.cpp:150] Setting up inception_4b/relu_3x3
I0718 14:20:33.545364 31389 net.cpp:157] Top shape: 6 224 62 62 (5166336)
I0718 14:20:33.545421 31389 net.cpp:165] Memory required for data: 4740526152
I0718 14:20:33.545480 31389 layer_factory.hpp:76] Creating layer inception_4b/5x5_reduce
I0718 14:20:33.545568 31389 net.cpp:106] Creating Layer inception_4b/5x5_reduce
I0718 14:20:33.545627 31389 net.cpp:454] inception_4b/5x5_reduce <- inception_4a/output_inception_4a/output_0_split_2
I0718 14:20:33.545708 31389 net.cpp:411] inception_4b/5x5_reduce -> inception_4b/5x5_reduce
I0718 14:20:33.554954 31389 net.cpp:150] Setting up inception_4b/5x5_reduce
I0718 14:20:33.555063 31389 net.cpp:157] Top shape: 6 24 62 62 (553536)
I0718 14:20:33.555083 31389 net.cpp:165] Memory required for data: 4742740296
I0718 14:20:33.555115 31389 layer_factory.hpp:76] Creating layer inception_4b/relu_5x5_reduce
I0718 14:20:33.555153 31389 net.cpp:106] Creating Layer inception_4b/relu_5x5_reduce
I0718 14:20:33.555173 31389 net.cpp:454] inception_4b/relu_5x5_reduce <- inception_4b/5x5_reduce
I0718 14:20:33.555197 31389 net.cpp:397] inception_4b/relu_5x5_reduce -> inception_4b/5x5_reduce (in-place)
I0718 14:20:33.556984 31389 net.cpp:150] Setting up inception_4b/relu_5x5_reduce
I0718 14:20:33.557210 31389 net.cpp:157] Top shape: 6 24 62 62 (553536)
I0718 14:20:33.557230 31389 net.cpp:165] Memory required for data: 4744954440
I0718 14:20:33.557253 31389 layer_factory.hpp:76] Creating layer inception_4b/5x5
I0718 14:20:33.557302 31389 net.cpp:106] Creating Layer inception_4b/5x5
I0718 14:20:33.557324 31389 net.cpp:454] inception_4b/5x5 <- inception_4b/5x5_reduce
I0718 14:20:33.557356 31389 net.cpp:411] inception_4b/5x5 -> inception_4b/5x5
I0718 14:20:33.566488 31389 net.cpp:150] Setting up inception_4b/5x5
I0718 14:20:33.566601 31389 net.cpp:157] Top shape: 6 64 62 62 (1476096)
I0718 14:20:33.566622 31389 net.cpp:165] Memory required for data: 4750858824
I0718 14:20:33.566664 31389 layer_factory.hpp:76] Creating layer inception_4b/relu_5x5
I0718 14:20:33.566737 31389 net.cpp:106] Creating Layer inception_4b/relu_5x5
I0718 14:20:33.566771 31389 net.cpp:454] inception_4b/relu_5x5 <- inception_4b/5x5
I0718 14:20:33.566797 31389 net.cpp:397] inception_4b/relu_5x5 -> inception_4b/5x5 (in-place)
I0718 14:20:33.568070 31389 net.cpp:150] Setting up inception_4b/relu_5x5
I0718 14:20:33.568181 31389 net.cpp:157] Top shape: 6 64 62 62 (1476096)
I0718 14:20:33.568202 31389 net.cpp:165] Memory required for data: 4756763208
I0718 14:20:33.568236 31389 layer_factory.hpp:76] Creating layer inception_4b/pool
I0718 14:20:33.568274 31389 net.cpp:106] Creating Layer inception_4b/pool
I0718 14:20:33.568300 31389 net.cpp:454] inception_4b/pool <- inception_4a/output_inception_4a/output_0_split_3
I0718 14:20:33.568336 31389 net.cpp:411] inception_4b/pool -> inception_4b/pool
I0718 14:20:33.569464 31389 net.cpp:150] Setting up inception_4b/pool
I0718 14:20:33.569557 31389 net.cpp:157] Top shape: 6 512 62 62 (11808768)
I0718 14:20:33.569582 31389 net.cpp:165] Memory required for data: 4803998280
I0718 14:20:33.569607 31389 layer_factory.hpp:76] Creating layer inception_4b/pool_proj
I0718 14:20:33.569659 31389 net.cpp:106] Creating Layer inception_4b/pool_proj
I0718 14:20:33.569689 31389 net.cpp:454] inception_4b/pool_proj <- inception_4b/pool
I0718 14:20:33.569723 31389 net.cpp:411] inception_4b/pool_proj -> inception_4b/pool_proj
I0718 14:20:33.576390 31389 net.cpp:150] Setting up inception_4b/pool_proj
I0718 14:20:33.576527 31389 net.cpp:157] Top shape: 6 64 62 62 (1476096)
I0718 14:20:33.576557 31389 net.cpp:165] Memory required for data: 4809902664
I0718 14:20:33.576597 31389 layer_factory.hpp:76] Creating layer inception_4b/relu_pool_proj
I0718 14:20:33.576648 31389 net.cpp:106] Creating Layer inception_4b/relu_pool_proj
I0718 14:20:33.576683 31389 net.cpp:454] inception_4b/relu_pool_proj <- inception_4b/pool_proj
I0718 14:20:33.576724 31389 net.cpp:397] inception_4b/relu_pool_proj -> inception_4b/pool_proj (in-place)
I0718 14:20:33.577872 31389 net.cpp:150] Setting up inception_4b/relu_pool_proj
I0718 14:20:33.577929 31389 net.cpp:157] Top shape: 6 64 62 62 (1476096)
I0718 14:20:33.577956 31389 net.cpp:165] Memory required for data: 4815807048
I0718 14:20:33.577982 31389 layer_factory.hpp:76] Creating layer inception_4b/output
I0718 14:20:33.578014 31389 net.cpp:106] Creating Layer inception_4b/output
I0718 14:20:33.578042 31389 net.cpp:454] inception_4b/output <- inception_4b/1x1
I0718 14:20:33.578070 31389 net.cpp:454] inception_4b/output <- inception_4b/3x3
I0718 14:20:33.578104 31389 net.cpp:454] inception_4b/output <- inception_4b/5x5
I0718 14:20:33.578135 31389 net.cpp:454] inception_4b/output <- inception_4b/pool_proj
I0718 14:20:33.578173 31389 net.cpp:411] inception_4b/output -> inception_4b/output
I0718 14:20:33.578279 31389 net.cpp:150] Setting up inception_4b/output
I0718 14:20:33.578315 31389 net.cpp:157] Top shape: 6 512 62 62 (11808768)
I0718 14:20:33.578341 31389 net.cpp:165] Memory required for data: 4863042120
I0718 14:20:33.578366 31389 layer_factory.hpp:76] Creating layer inception_4b/output_inception_4b/output_0_split
I0718 14:20:33.578392 31389 net.cpp:106] Creating Layer inception_4b/output_inception_4b/output_0_split
I0718 14:20:33.578410 31389 net.cpp:454] inception_4b/output_inception_4b/output_0_split <- inception_4b/output
I0718 14:20:33.578531 31389 net.cpp:411] inception_4b/output_inception_4b/output_0_split -> inception_4b/output_inception_4b/output_0_split_0
I0718 14:20:33.578570 31389 net.cpp:411] inception_4b/output_inception_4b/output_0_split -> inception_4b/output_inception_4b/output_0_split_1
I0718 14:20:33.578621 31389 net.cpp:411] inception_4b/output_inception_4b/output_0_split -> inception_4b/output_inception_4b/output_0_split_2
I0718 14:20:33.578673 31389 net.cpp:411] inception_4b/output_inception_4b/output_0_split -> inception_4b/output_inception_4b/output_0_split_3
I0718 14:20:33.578922 31389 net.cpp:150] Setting up inception_4b/output_inception_4b/output_0_split
I0718 14:20:33.578963 31389 net.cpp:157] Top shape: 6 512 62 62 (11808768)
I0718 14:20:33.578989 31389 net.cpp:157] Top shape: 6 512 62 62 (11808768)
I0718 14:20:33.579011 31389 net.cpp:157] Top shape: 6 512 62 62 (11808768)
I0718 14:20:33.579037 31389 net.cpp:157] Top shape: 6 512 62 62 (11808768)
I0718 14:20:33.579058 31389 net.cpp:165] Memory required for data: 5051982408
I0718 14:20:33.579085 31389 layer_factory.hpp:76] Creating layer inception_4c/1x1
I0718 14:20:33.579138 31389 net.cpp:106] Creating Layer inception_4c/1x1
I0718 14:20:33.579166 31389 net.cpp:454] inception_4c/1x1 <- inception_4b/output_inception_4b/output_0_split_0
I0718 14:20:33.579203 31389 net.cpp:411] inception_4c/1x1 -> inception_4c/1x1
I0718 14:20:33.584630 31389 cudnn_conv_layer.cpp:194] Reallocating workspace storage: 6144
I0718 14:20:33.584763 31389 net.cpp:150] Setting up inception_4c/1x1
I0718 14:20:33.584794 31389 net.cpp:157] Top shape: 6 128 62 62 (2952192)
I0718 14:20:33.584808 31389 net.cpp:165] Memory required for data: 5063791176
I0718 14:20:33.584830 31389 layer_factory.hpp:76] Creating layer inception_4c/relu_1x1
I0718 14:20:33.584856 31389 net.cpp:106] Creating Layer inception_4c/relu_1x1
I0718 14:20:33.584875 31389 net.cpp:454] inception_4c/relu_1x1 <- inception_4c/1x1
I0718 14:20:33.584892 31389 net.cpp:397] inception_4c/relu_1x1 -> inception_4c/1x1 (in-place)
I0718 14:20:33.586102 31389 net.cpp:150] Setting up inception_4c/relu_1x1
I0718 14:20:33.586163 31389 net.cpp:157] Top shape: 6 128 62 62 (2952192)
I0718 14:20:33.586205 31389 net.cpp:165] Memory required for data: 5075599944
I0718 14:20:33.586225 31389 layer_factory.hpp:76] Creating layer inception_4c/3x3_reduce
I0718 14:20:33.586278 31389 net.cpp:106] Creating Layer inception_4c/3x3_reduce
I0718 14:20:33.586305 31389 net.cpp:454] inception_4c/3x3_reduce <- inception_4b/output_inception_4b/output_0_split_1
I0718 14:20:33.586336 31389 net.cpp:411] inception_4c/3x3_reduce -> inception_4c/3x3_reduce
I0718 14:20:33.592784 31389 cudnn_conv_layer.cpp:194] Reallocating workspace storage: 6144
I0718 14:20:33.592860 31389 net.cpp:150] Setting up inception_4c/3x3_reduce
I0718 14:20:33.592885 31389 net.cpp:157] Top shape: 6 128 62 62 (2952192)
I0718 14:20:33.592898 31389 net.cpp:165] Memory required for data: 5087408712
I0718 14:20:33.592921 31389 layer_factory.hpp:76] Creating layer inception_4c/relu_3x3_reduce
I0718 14:20:33.592950 31389 net.cpp:106] Creating Layer inception_4c/relu_3x3_reduce
I0718 14:20:33.592968 31389 net.cpp:454] inception_4c/relu_3x3_reduce <- inception_4c/3x3_reduce
I0718 14:20:33.592985 31389 net.cpp:397] inception_4c/relu_3x3_reduce -> inception_4c/3x3_reduce (in-place)
I0718 14:20:33.594681 31389 net.cpp:150] Setting up inception_4c/relu_3x3_reduce
I0718 14:20:33.594712 31389 net.cpp:157] Top shape: 6 128 62 62 (2952192)
I0718 14:20:33.594727 31389 net.cpp:165] Memory required for data: 5099217480
I0718 14:20:33.594741 31389 layer_factory.hpp:76] Creating layer inception_4c/3x3
I0718 14:20:33.594769 31389 net.cpp:106] Creating Layer inception_4c/3x3
I0718 14:20:33.594784 31389 net.cpp:454] inception_4c/3x3 <- inception_4c/3x3_reduce
I0718 14:20:33.594802 31389 net.cpp:411] inception_4c/3x3 -> inception_4c/3x3
I0718 14:20:33.602668 31389 net.cpp:150] Setting up inception_4c/3x3
I0718 14:20:33.602730 31389 net.cpp:157] Top shape: 6 256 62 62 (5904384)
I0718 14:20:33.602783 31389 net.cpp:165] Memory required for data: 5122835016
I0718 14:20:33.602807 31389 layer_factory.hpp:76] Creating layer inception_4c/relu_3x3
I0718 14:20:33.602835 31389 net.cpp:106] Creating Layer inception_4c/relu_3x3
I0718 14:20:33.602855 31389 net.cpp:454] inception_4c/relu_3x3 <- inception_4c/3x3
I0718 14:20:33.602874 31389 net.cpp:397] inception_4c/relu_3x3 -> inception_4c/3x3 (in-place)
I0718 14:20:33.604048 31389 net.cpp:150] Setting up inception_4c/relu_3x3
I0718 14:20:33.604101 31389 net.cpp:157] Top shape: 6 256 62 62 (5904384)
I0718 14:20:33.604121 31389 net.cpp:165] Memory required for data: 5146452552
I0718 14:20:33.604142 31389 layer_factory.hpp:76] Creating layer inception_4c/5x5_reduce
I0718 14:20:33.604168 31389 net.cpp:106] Creating Layer inception_4c/5x5_reduce
I0718 14:20:33.604185 31389 net.cpp:454] inception_4c/5x5_reduce <- inception_4b/output_inception_4b/output_0_split_2
I0718 14:20:33.604207 31389 net.cpp:411] inception_4c/5x5_reduce -> inception_4c/5x5_reduce
I0718 14:20:33.609561 31389 net.cpp:150] Setting up inception_4c/5x5_reduce
I0718 14:20:33.609632 31389 net.cpp:157] Top shape: 6 24 62 62 (553536)
I0718 14:20:33.609652 31389 net.cpp:165] Memory required for data: 5148666696
I0718 14:20:33.609673 31389 layer_factory.hpp:76] Creating layer inception_4c/relu_5x5_reduce
I0718 14:20:33.609699 31389 net.cpp:106] Creating Layer inception_4c/relu_5x5_reduce
I0718 14:20:33.609715 31389 net.cpp:454] inception_4c/relu_5x5_reduce <- inception_4c/5x5_reduce
I0718 14:20:33.609737 31389 net.cpp:397] inception_4c/relu_5x5_reduce -> inception_4c/5x5_reduce (in-place)
I0718 14:20:33.610699 31389 net.cpp:150] Setting up inception_4c/relu_5x5_reduce
I0718 14:20:33.610733 31389 net.cpp:157] Top shape: 6 24 62 62 (553536)
I0718 14:20:33.610749 31389 net.cpp:165] Memory required for data: 5150880840
I0718 14:20:33.610767 31389 layer_factory.hpp:76] Creating layer inception_4c/5x5
I0718 14:20:33.610791 31389 net.cpp:106] Creating Layer inception_4c/5x5
I0718 14:20:33.610807 31389 net.cpp:454] inception_4c/5x5 <- inception_4c/5x5_reduce
I0718 14:20:33.610828 31389 net.cpp:411] inception_4c/5x5 -> inception_4c/5x5
I0718 14:20:33.614104 31389 net.cpp:150] Setting up inception_4c/5x5
I0718 14:20:33.614187 31389 net.cpp:157] Top shape: 6 64 62 62 (1476096)
I0718 14:20:33.614207 31389 net.cpp:165] Memory required for data: 5156785224
I0718 14:20:33.614228 31389 layer_factory.hpp:76] Creating layer inception_4c/relu_5x5
I0718 14:20:33.614255 31389 net.cpp:106] Creating Layer inception_4c/relu_5x5
I0718 14:20:33.614272 31389 net.cpp:454] inception_4c/relu_5x5 <- inception_4c/5x5
I0718 14:20:33.614295 31389 net.cpp:397] inception_4c/relu_5x5 -> inception_4c/5x5 (in-place)
I0718 14:20:33.614974 31389 net.cpp:150] Setting up inception_4c/relu_5x5
I0718 14:20:33.615008 31389 net.cpp:157] Top shape: 6 64 62 62 (1476096)
I0718 14:20:33.615033 31389 net.cpp:165] Memory required for data: 5162689608
I0718 14:20:33.615051 31389 layer_factory.hpp:76] Creating layer inception_4c/pool
I0718 14:20:33.615077 31389 net.cpp:106] Creating Layer inception_4c/pool
I0718 14:20:33.615092 31389 net.cpp:454] inception_4c/pool <- inception_4b/output_inception_4b/output_0_split_3
I0718 14:20:33.615113 31389 net.cpp:411] inception_4c/pool -> inception_4c/pool
I0718 14:20:33.616942 31389 net.cpp:150] Setting up inception_4c/pool
I0718 14:20:33.617000 31389 net.cpp:157] Top shape: 6 512 62 62 (11808768)
I0718 14:20:33.617020 31389 net.cpp:165] Memory required for data: 5209924680
I0718 14:20:33.617043 31389 layer_factory.hpp:76] Creating layer inception_4c/pool_proj
I0718 14:20:33.617074 31389 net.cpp:106] Creating Layer inception_4c/pool_proj
I0718 14:20:33.617105 31389 net.cpp:454] inception_4c/pool_proj <- inception_4c/pool
I0718 14:20:33.617139 31389 net.cpp:411] inception_4c/pool_proj -> inception_4c/pool_proj
I0718 14:20:33.626809 31389 net.cpp:150] Setting up inception_4c/pool_proj
I0718 14:20:33.626890 31389 net.cpp:157] Top shape: 6 64 62 62 (1476096)
I0718 14:20:33.626910 31389 net.cpp:165] Memory required for data: 5215829064
I0718 14:20:33.627009 31389 layer_factory.hpp:76] Creating layer inception_4c/relu_pool_proj
I0718 14:20:33.627040 31389 net.cpp:106] Creating Layer inception_4c/relu_pool_proj
I0718 14:20:33.627058 31389 net.cpp:454] inception_4c/relu_pool_proj <- inception_4c/pool_proj
I0718 14:20:33.627074 31389 net.cpp:397] inception_4c/relu_pool_proj -> inception_4c/pool_proj (in-place)
I0718 14:20:33.628092 31389 net.cpp:150] Setting up inception_4c/relu_pool_proj
I0718 14:20:33.628118 31389 net.cpp:157] Top shape: 6 64 62 62 (1476096)
I0718 14:20:33.628131 31389 net.cpp:165] Memory required for data: 5221733448
I0718 14:20:33.628149 31389 layer_factory.hpp:76] Creating layer inception_4c/output
I0718 14:20:33.628165 31389 net.cpp:106] Creating Layer inception_4c/output
I0718 14:20:33.628180 31389 net.cpp:454] inception_4c/output <- inception_4c/1x1
I0718 14:20:33.628195 31389 net.cpp:454] inception_4c/output <- inception_4c/3x3
I0718 14:20:33.628211 31389 net.cpp:454] inception_4c/output <- inception_4c/5x5
I0718 14:20:33.628245 31389 net.cpp:454] inception_4c/output <- inception_4c/pool_proj
I0718 14:20:33.628270 31389 net.cpp:411] inception_4c/output -> inception_4c/output
I0718 14:20:33.628350 31389 net.cpp:150] Setting up inception_4c/output
I0718 14:20:33.628391 31389 net.cpp:157] Top shape: 6 512 62 62 (11808768)
I0718 14:20:33.628410 31389 net.cpp:165] Memory required for data: 5268968520
I0718 14:20:33.628439 31389 layer_factory.hpp:76] Creating layer inception_4c/output_inception_4c/output_0_split
I0718 14:20:33.628491 31389 net.cpp:106] Creating Layer inception_4c/output_inception_4c/output_0_split
I0718 14:20:33.628518 31389 net.cpp:454] inception_4c/output_inception_4c/output_0_split <- inception_4c/output
I0718 14:20:33.628540 31389 net.cpp:411] inception_4c/output_inception_4c/output_0_split -> inception_4c/output_inception_4c/output_0_split_0
I0718 14:20:33.628569 31389 net.cpp:411] inception_4c/output_inception_4c/output_0_split -> inception_4c/output_inception_4c/output_0_split_1
I0718 14:20:33.628595 31389 net.cpp:411] inception_4c/output_inception_4c/output_0_split -> inception_4c/output_inception_4c/output_0_split_2
I0718 14:20:33.628619 31389 net.cpp:411] inception_4c/output_inception_4c/output_0_split -> inception_4c/output_inception_4c/output_0_split_3
I0718 14:20:33.628793 31389 net.cpp:150] Setting up inception_4c/output_inception_4c/output_0_split
I0718 14:20:33.628818 31389 net.cpp:157] Top shape: 6 512 62 62 (11808768)
I0718 14:20:33.628834 31389 net.cpp:157] Top shape: 6 512 62 62 (11808768)
I0718 14:20:33.628849 31389 net.cpp:157] Top shape: 6 512 62 62 (11808768)
I0718 14:20:33.628862 31389 net.cpp:157] Top shape: 6 512 62 62 (11808768)
I0718 14:20:33.628875 31389 net.cpp:165] Memory required for data: 5457908808
I0718 14:20:33.628887 31389 layer_factory.hpp:76] Creating layer inception_4d/1x1
I0718 14:20:33.628912 31389 net.cpp:106] Creating Layer inception_4d/1x1
I0718 14:20:33.628926 31389 net.cpp:454] inception_4d/1x1 <- inception_4c/output_inception_4c/output_0_split_0
I0718 14:20:33.628945 31389 net.cpp:411] inception_4d/1x1 -> inception_4d/1x1
I0718 14:20:33.634165 31389 cudnn_conv_layer.cpp:194] Reallocating workspace storage: 6144
I0718 14:20:33.634277 31389 net.cpp:150] Setting up inception_4d/1x1
I0718 14:20:33.634310 31389 net.cpp:157] Top shape: 6 112 62 62 (2583168)
I0718 14:20:33.634373 31389 net.cpp:165] Memory required for data: 5468241480
I0718 14:20:33.634414 31389 layer_factory.hpp:76] Creating layer inception_4d/relu_1x1
I0718 14:20:33.634500 31389 net.cpp:106] Creating Layer inception_4d/relu_1x1
I0718 14:20:33.634577 31389 net.cpp:454] inception_4d/relu_1x1 <- inception_4d/1x1
I0718 14:20:33.634640 31389 net.cpp:397] inception_4d/relu_1x1 -> inception_4d/1x1 (in-place)
I0718 14:20:33.635939 31389 net.cpp:150] Setting up inception_4d/relu_1x1
I0718 14:20:33.635972 31389 net.cpp:157] Top shape: 6 112 62 62 (2583168)
I0718 14:20:33.635990 31389 net.cpp:165] Memory required for data: 5478574152
I0718 14:20:33.636003 31389 layer_factory.hpp:76] Creating layer inception_4d/3x3_reduce
I0718 14:20:33.636142 31389 net.cpp:106] Creating Layer inception_4d/3x3_reduce
I0718 14:20:33.636158 31389 net.cpp:454] inception_4d/3x3_reduce <- inception_4c/output_inception_4c/output_0_split_1
I0718 14:20:33.636183 31389 net.cpp:411] inception_4d/3x3_reduce -> inception_4d/3x3_reduce
I0718 14:20:33.642066 31389 cudnn_conv_layer.cpp:194] Reallocating workspace storage: 6144
I0718 14:20:33.642227 31389 net.cpp:150] Setting up inception_4d/3x3_reduce
I0718 14:20:33.642277 31389 net.cpp:157] Top shape: 6 144 62 62 (3321216)
I0718 14:20:33.642308 31389 net.cpp:165] Memory required for data: 5491859016
I0718 14:20:33.642346 31389 layer_factory.hpp:76] Creating layer inception_4d/relu_3x3_reduce
I0718 14:20:33.642380 31389 net.cpp:106] Creating Layer inception_4d/relu_3x3_reduce
I0718 14:20:33.642406 31389 net.cpp:454] inception_4d/relu_3x3_reduce <- inception_4d/3x3_reduce
I0718 14:20:33.642429 31389 net.cpp:397] inception_4d/relu_3x3_reduce -> inception_4d/3x3_reduce (in-place)
I0718 14:20:33.644971 31389 net.cpp:150] Setting up inception_4d/relu_3x3_reduce
I0718 14:20:33.645072 31389 net.cpp:157] Top shape: 6 144 62 62 (3321216)
I0718 14:20:33.645093 31389 net.cpp:165] Memory required for data: 5505143880
I0718 14:20:33.645113 31389 layer_factory.hpp:76] Creating layer inception_4d/3x3
I0718 14:20:33.645159 31389 net.cpp:106] Creating Layer inception_4d/3x3
I0718 14:20:33.645189 31389 net.cpp:454] inception_4d/3x3 <- inception_4d/3x3_reduce
I0718 14:20:33.645216 31389 net.cpp:411] inception_4d/3x3 -> inception_4d/3x3
I0718 14:20:33.658097 31389 cudnn_conv_layer.cpp:194] Reallocating workspace storage: 15552
I0718 14:20:33.658236 31389 net.cpp:150] Setting up inception_4d/3x3
I0718 14:20:33.658264 31389 net.cpp:157] Top shape: 6 288 62 62 (6642432)
I0718 14:20:33.658278 31389 net.cpp:165] Memory required for data: 5531713608
I0718 14:20:33.658300 31389 layer_factory.hpp:76] Creating layer inception_4d/relu_3x3
I0718 14:20:33.658329 31389 net.cpp:106] Creating Layer inception_4d/relu_3x3
I0718 14:20:33.658347 31389 net.cpp:454] inception_4d/relu_3x3 <- inception_4d/3x3
I0718 14:20:33.658366 31389 net.cpp:397] inception_4d/relu_3x3 -> inception_4d/3x3 (in-place)
I0718 14:20:33.660078 31389 net.cpp:150] Setting up inception_4d/relu_3x3
I0718 14:20:33.660117 31389 net.cpp:157] Top shape: 6 288 62 62 (6642432)
I0718 14:20:33.660132 31389 net.cpp:165] Memory required for data: 5558283336
I0718 14:20:33.660153 31389 layer_factory.hpp:76] Creating layer inception_4d/5x5_reduce
I0718 14:20:33.660183 31389 net.cpp:106] Creating Layer inception_4d/5x5_reduce
I0718 14:20:33.660205 31389 net.cpp:454] inception_4d/5x5_reduce <- inception_4c/output_inception_4c/output_0_split_2
I0718 14:20:33.660234 31389 net.cpp:411] inception_4d/5x5_reduce -> inception_4d/5x5_reduce
I0718 14:20:33.667284 31389 net.cpp:150] Setting up inception_4d/5x5_reduce
I0718 14:20:33.667394 31389 net.cpp:157] Top shape: 6 32 62 62 (738048)
I0718 14:20:33.667423 31389 net.cpp:165] Memory required for data: 5561235528
I0718 14:20:33.667456 31389 layer_factory.hpp:76] Creating layer inception_4d/relu_5x5_reduce
I0718 14:20:33.667491 31389 net.cpp:106] Creating Layer inception_4d/relu_5x5_reduce
I0718 14:20:33.667510 31389 net.cpp:454] inception_4d/relu_5x5_reduce <- inception_4d/5x5_reduce
I0718 14:20:33.667529 31389 net.cpp:397] inception_4d/relu_5x5_reduce -> inception_4d/5x5_reduce (in-place)
I0718 14:20:33.669637 31389 net.cpp:150] Setting up inception_4d/relu_5x5_reduce
I0718 14:20:33.669682 31389 net.cpp:157] Top shape: 6 32 62 62 (738048)
I0718 14:20:33.669703 31389 net.cpp:165] Memory required for data: 5564187720
I0718 14:20:33.669716 31389 layer_factory.hpp:76] Creating layer inception_4d/5x5
I0718 14:20:33.669742 31389 net.cpp:106] Creating Layer inception_4d/5x5
I0718 14:20:33.669759 31389 net.cpp:454] inception_4d/5x5 <- inception_4d/5x5_reduce
I0718 14:20:33.669778 31389 net.cpp:411] inception_4d/5x5 -> inception_4d/5x5
I0718 14:20:33.707442 31389 cudnn_conv_layer.cpp:194] Reallocating workspace storage: 9600
I0718 14:20:33.707579 31389 net.cpp:150] Setting up inception_4d/5x5
I0718 14:20:33.707674 31389 net.cpp:157] Top shape: 6 64 62 62 (1476096)
I0718 14:20:33.707698 31389 net.cpp:165] Memory required for data: 5570092104
I0718 14:20:33.707731 31389 layer_factory.hpp:76] Creating layer inception_4d/relu_5x5
I0718 14:20:33.707768 31389 net.cpp:106] Creating Layer inception_4d/relu_5x5
I0718 14:20:33.707788 31389 net.cpp:454] inception_4d/relu_5x5 <- inception_4d/5x5
I0718 14:20:33.707816 31389 net.cpp:397] inception_4d/relu_5x5 -> inception_4d/5x5 (in-place)
I0718 14:20:33.708374 31389 net.cpp:150] Setting up inception_4d/relu_5x5
I0718 14:20:33.708418 31389 net.cpp:157] Top shape: 6 64 62 62 (1476096)
I0718 14:20:33.708441 31389 net.cpp:165] Memory required for data: 5575996488
I0718 14:20:33.708463 31389 layer_factory.hpp:76] Creating layer inception_4d/pool
I0718 14:20:33.708508 31389 net.cpp:106] Creating Layer inception_4d/pool
I0718 14:20:33.708530 31389 net.cpp:454] inception_4d/pool <- inception_4c/output_inception_4c/output_0_split_3
I0718 14:20:33.708554 31389 net.cpp:411] inception_4d/pool -> inception_4d/pool
I0718 14:20:33.711653 31389 net.cpp:150] Setting up inception_4d/pool
I0718 14:20:33.711756 31389 net.cpp:157] Top shape: 6 512 62 62 (11808768)
I0718 14:20:33.711791 31389 net.cpp:165] Memory required for data: 5623231560
I0718 14:20:33.711823 31389 layer_factory.hpp:76] Creating layer inception_4d/pool_proj
I0718 14:20:33.711890 31389 net.cpp:106] Creating Layer inception_4d/pool_proj
I0718 14:20:33.711956 31389 net.cpp:454] inception_4d/pool_proj <- inception_4d/pool
I0718 14:20:33.712054 31389 net.cpp:411] inception_4d/pool_proj -> inception_4d/pool_proj
I0718 14:20:33.722770 31389 net.cpp:150] Setting up inception_4d/pool_proj
I0718 14:20:33.722846 31389 net.cpp:157] Top shape: 6 64 62 62 (1476096)
I0718 14:20:33.722864 31389 net.cpp:165] Memory required for data: 5629135944
I0718 14:20:33.722887 31389 layer_factory.hpp:76] Creating layer inception_4d/relu_pool_proj
I0718 14:20:33.722918 31389 net.cpp:106] Creating Layer inception_4d/relu_pool_proj
I0718 14:20:33.722934 31389 net.cpp:454] inception_4d/relu_pool_proj <- inception_4d/pool_proj
I0718 14:20:33.722955 31389 net.cpp:397] inception_4d/relu_pool_proj -> inception_4d/pool_proj (in-place)
I0718 14:20:33.725322 31389 net.cpp:150] Setting up inception_4d/relu_pool_proj
I0718 14:20:33.725394 31389 net.cpp:157] Top shape: 6 64 62 62 (1476096)
I0718 14:20:33.725414 31389 net.cpp:165] Memory required for data: 5635040328
I0718 14:20:33.725432 31389 layer_factory.hpp:76] Creating layer inception_4d/output
I0718 14:20:33.725468 31389 net.cpp:106] Creating Layer inception_4d/output
I0718 14:20:33.725487 31389 net.cpp:454] inception_4d/output <- inception_4d/1x1
I0718 14:20:33.725509 31389 net.cpp:454] inception_4d/output <- inception_4d/3x3
I0718 14:20:33.725525 31389 net.cpp:454] inception_4d/output <- inception_4d/5x5
I0718 14:20:33.725545 31389 net.cpp:454] inception_4d/output <- inception_4d/pool_proj
I0718 14:20:33.725565 31389 net.cpp:411] inception_4d/output -> inception_4d/output
I0718 14:20:33.725680 31389 net.cpp:150] Setting up inception_4d/output
I0718 14:20:33.725710 31389 net.cpp:157] Top shape: 6 528 62 62 (12177792)
I0718 14:20:33.725728 31389 net.cpp:165] Memory required for data: 5683751496
I0718 14:20:33.725749 31389 layer_factory.hpp:76] Creating layer inception_4d/output_inception_4d/output_0_split
I0718 14:20:33.725777 31389 net.cpp:106] Creating Layer inception_4d/output_inception_4d/output_0_split
I0718 14:20:33.725796 31389 net.cpp:454] inception_4d/output_inception_4d/output_0_split <- inception_4d/output
I0718 14:20:33.725819 31389 net.cpp:411] inception_4d/output_inception_4d/output_0_split -> inception_4d/output_inception_4d/output_0_split_0
I0718 14:20:33.725848 31389 net.cpp:411] inception_4d/output_inception_4d/output_0_split -> inception_4d/output_inception_4d/output_0_split_1
I0718 14:20:33.725877 31389 net.cpp:411] inception_4d/output_inception_4d/output_0_split -> inception_4d/output_inception_4d/output_0_split_2
I0718 14:20:33.725901 31389 net.cpp:411] inception_4d/output_inception_4d/output_0_split -> inception_4d/output_inception_4d/output_0_split_3
I0718 14:20:33.726112 31389 net.cpp:150] Setting up inception_4d/output_inception_4d/output_0_split
I0718 14:20:33.726133 31389 net.cpp:157] Top shape: 6 528 62 62 (12177792)
I0718 14:20:33.726148 31389 net.cpp:157] Top shape: 6 528 62 62 (12177792)
I0718 14:20:33.726161 31389 net.cpp:157] Top shape: 6 528 62 62 (12177792)
I0718 14:20:33.726174 31389 net.cpp:157] Top shape: 6 528 62 62 (12177792)
I0718 14:20:33.726186 31389 net.cpp:165] Memory required for data: 5878596168
I0718 14:20:33.726202 31389 layer_factory.hpp:76] Creating layer inception_4e/1x1
I0718 14:20:33.726227 31389 net.cpp:106] Creating Layer inception_4e/1x1
I0718 14:20:33.726243 31389 net.cpp:454] inception_4e/1x1 <- inception_4d/output_inception_4d/output_0_split_0
I0718 14:20:33.726261 31389 net.cpp:411] inception_4e/1x1 -> inception_4e/1x1
I0718 14:20:33.734477 31389 cudnn_conv_layer.cpp:194] Reallocating workspace storage: 6336
I0718 14:20:33.734691 31389 net.cpp:150] Setting up inception_4e/1x1
I0718 14:20:33.734740 31389 net.cpp:157] Top shape: 6 256 62 62 (5904384)
I0718 14:20:33.734767 31389 net.cpp:165] Memory required for data: 5902213704
I0718 14:20:33.734804 31389 layer_factory.hpp:76] Creating layer inception_4e/relu_1x1
I0718 14:20:33.734851 31389 net.cpp:106] Creating Layer inception_4e/relu_1x1
I0718 14:20:33.734877 31389 net.cpp:454] inception_4e/relu_1x1 <- inception_4e/1x1
I0718 14:20:33.734905 31389 net.cpp:397] inception_4e/relu_1x1 -> inception_4e/1x1 (in-place)
I0718 14:20:33.737030 31389 net.cpp:150] Setting up inception_4e/relu_1x1
I0718 14:20:33.737094 31389 net.cpp:157] Top shape: 6 256 62 62 (5904384)
I0718 14:20:33.737112 31389 net.cpp:165] Memory required for data: 5925831240
I0718 14:20:33.737133 31389 layer_factory.hpp:76] Creating layer inception_4e/3x3_reduce
I0718 14:20:33.737172 31389 net.cpp:106] Creating Layer inception_4e/3x3_reduce
I0718 14:20:33.737197 31389 net.cpp:454] inception_4e/3x3_reduce <- inception_4d/output_inception_4d/output_0_split_1
I0718 14:20:33.737227 31389 net.cpp:411] inception_4e/3x3_reduce -> inception_4e/3x3_reduce
I0718 14:20:33.742704 31389 cudnn_conv_layer.cpp:194] Reallocating workspace storage: 6336
I0718 14:20:33.742853 31389 net.cpp:150] Setting up inception_4e/3x3_reduce
I0718 14:20:33.742893 31389 net.cpp:157] Top shape: 6 160 62 62 (3690240)
I0718 14:20:33.742920 31389 net.cpp:165] Memory required for data: 5940592200
I0718 14:20:33.742946 31389 layer_factory.hpp:76] Creating layer inception_4e/relu_3x3_reduce
I0718 14:20:33.742988 31389 net.cpp:106] Creating Layer inception_4e/relu_3x3_reduce
I0718 14:20:33.743017 31389 net.cpp:454] inception_4e/relu_3x3_reduce <- inception_4e/3x3_reduce
I0718 14:20:33.743055 31389 net.cpp:397] inception_4e/relu_3x3_reduce -> inception_4e/3x3_reduce (in-place)
I0718 14:20:33.744029 31389 net.cpp:150] Setting up inception_4e/relu_3x3_reduce
I0718 14:20:33.744068 31389 net.cpp:157] Top shape: 6 160 62 62 (3690240)
I0718 14:20:33.744091 31389 net.cpp:165] Memory required for data: 5955353160
I0718 14:20:33.744114 31389 layer_factory.hpp:76] Creating layer inception_4e/3x3
I0718 14:20:33.744153 31389 net.cpp:106] Creating Layer inception_4e/3x3
I0718 14:20:33.744176 31389 net.cpp:454] inception_4e/3x3 <- inception_4e/3x3_reduce
I0718 14:20:33.744212 31389 net.cpp:411] inception_4e/3x3 -> inception_4e/3x3
I0718 14:20:33.756467 31389 net.cpp:150] Setting up inception_4e/3x3
I0718 14:20:33.756587 31389 net.cpp:157] Top shape: 6 320 62 62 (7380480)
I0718 14:20:33.756609 31389 net.cpp:165] Memory required for data: 5984875080
I0718 14:20:33.756644 31389 layer_factory.hpp:76] Creating layer inception_4e/relu_3x3
I0718 14:20:33.756690 31389 net.cpp:106] Creating Layer inception_4e/relu_3x3
I0718 14:20:33.756718 31389 net.cpp:454] inception_4e/relu_3x3 <- inception_4e/3x3
I0718 14:20:33.756753 31389 net.cpp:397] inception_4e/relu_3x3 -> inception_4e/3x3 (in-place)
I0718 14:20:33.760387 31389 net.cpp:150] Setting up inception_4e/relu_3x3
I0718 14:20:33.760453 31389 net.cpp:157] Top shape: 6 320 62 62 (7380480)
I0718 14:20:33.760530 31389 net.cpp:165] Memory required for data: 6014397000
I0718 14:20:33.760546 31389 layer_factory.hpp:76] Creating layer inception_4e/5x5_reduce
I0718 14:20:33.760573 31389 net.cpp:106] Creating Layer inception_4e/5x5_reduce
I0718 14:20:33.760591 31389 net.cpp:454] inception_4e/5x5_reduce <- inception_4d/output_inception_4d/output_0_split_2
I0718 14:20:33.760617 31389 net.cpp:411] inception_4e/5x5_reduce -> inception_4e/5x5_reduce
I0718 14:20:33.765826 31389 cudnn_conv_layer.cpp:194] Reallocating workspace storage: 6336
I0718 14:20:33.765985 31389 net.cpp:150] Setting up inception_4e/5x5_reduce
I0718 14:20:33.766031 31389 net.cpp:157] Top shape: 6 32 62 62 (738048)
I0718 14:20:33.766054 31389 net.cpp:165] Memory required for data: 6017349192
I0718 14:20:33.766083 31389 layer_factory.hpp:76] Creating layer inception_4e/relu_5x5_reduce
I0718 14:20:33.766113 31389 net.cpp:106] Creating Layer inception_4e/relu_5x5_reduce
I0718 14:20:33.766139 31389 net.cpp:454] inception_4e/relu_5x5_reduce <- inception_4e/5x5_reduce
I0718 14:20:33.766160 31389 net.cpp:397] inception_4e/relu_5x5_reduce -> inception_4e/5x5_reduce (in-place)
I0718 14:20:33.767333 31389 net.cpp:150] Setting up inception_4e/relu_5x5_reduce
I0718 14:20:33.767379 31389 net.cpp:157] Top shape: 6 32 62 62 (738048)
I0718 14:20:33.767393 31389 net.cpp:165] Memory required for data: 6020301384
I0718 14:20:33.767412 31389 layer_factory.hpp:76] Creating layer inception_4e/5x5
I0718 14:20:33.767446 31389 net.cpp:106] Creating Layer inception_4e/5x5
I0718 14:20:33.767462 31389 net.cpp:454] inception_4e/5x5 <- inception_4e/5x5_reduce
I0718 14:20:33.767483 31389 net.cpp:411] inception_4e/5x5 -> inception_4e/5x5
I0718 14:20:33.775024 31389 net.cpp:150] Setting up inception_4e/5x5
I0718 14:20:33.775105 31389 net.cpp:157] Top shape: 6 128 62 62 (2952192)
I0718 14:20:33.775120 31389 net.cpp:165] Memory required for data: 6032110152
I0718 14:20:33.775141 31389 layer_factory.hpp:76] Creating layer inception_4e/relu_5x5
I0718 14:20:33.775167 31389 net.cpp:106] Creating Layer inception_4e/relu_5x5
I0718 14:20:33.775184 31389 net.cpp:454] inception_4e/relu_5x5 <- inception_4e/5x5
I0718 14:20:33.775209 31389 net.cpp:397] inception_4e/relu_5x5 -> inception_4e/5x5 (in-place)
I0718 14:20:33.775984 31389 net.cpp:150] Setting up inception_4e/relu_5x5
I0718 14:20:33.776012 31389 net.cpp:157] Top shape: 6 128 62 62 (2952192)
I0718 14:20:33.776028 31389 net.cpp:165] Memory required for data: 6043918920
I0718 14:20:33.776044 31389 layer_factory.hpp:76] Creating layer inception_4e/pool
I0718 14:20:33.776062 31389 net.cpp:106] Creating Layer inception_4e/pool
I0718 14:20:33.776075 31389 net.cpp:454] inception_4e/pool <- inception_4d/output_inception_4d/output_0_split_3
I0718 14:20:33.776093 31389 net.cpp:411] inception_4e/pool -> inception_4e/pool
I0718 14:20:33.778501 31389 net.cpp:150] Setting up inception_4e/pool
I0718 14:20:33.778581 31389 net.cpp:157] Top shape: 6 528 62 62 (12177792)
I0718 14:20:33.778595 31389 net.cpp:165] Memory required for data: 6092630088
I0718 14:20:33.778611 31389 layer_factory.hpp:76] Creating layer inception_4e/pool_proj
I0718 14:20:33.778658 31389 net.cpp:106] Creating Layer inception_4e/pool_proj
I0718 14:20:33.778684 31389 net.cpp:454] inception_4e/pool_proj <- inception_4e/pool
I0718 14:20:33.778707 31389 net.cpp:411] inception_4e/pool_proj -> inception_4e/pool_proj
I0718 14:20:33.785271 31389 cudnn_conv_layer.cpp:194] Reallocating workspace storage: 6336
I0718 14:20:33.785367 31389 net.cpp:150] Setting up inception_4e/pool_proj
I0718 14:20:33.785392 31389 net.cpp:157] Top shape: 6 128 62 62 (2952192)
I0718 14:20:33.785405 31389 net.cpp:165] Memory required for data: 6104438856
I0718 14:20:33.785428 31389 layer_factory.hpp:76] Creating layer inception_4e/relu_pool_proj
I0718 14:20:33.785450 31389 net.cpp:106] Creating Layer inception_4e/relu_pool_proj
I0718 14:20:33.785467 31389 net.cpp:454] inception_4e/relu_pool_proj <- inception_4e/pool_proj
I0718 14:20:33.785490 31389 net.cpp:397] inception_4e/relu_pool_proj -> inception_4e/pool_proj (in-place)
I0718 14:20:33.786727 31389 net.cpp:150] Setting up inception_4e/relu_pool_proj
I0718 14:20:33.786761 31389 net.cpp:157] Top shape: 6 128 62 62 (2952192)
I0718 14:20:33.786775 31389 net.cpp:165] Memory required for data: 6116247624
I0718 14:20:33.786788 31389 layer_factory.hpp:76] Creating layer inception_4e/output
I0718 14:20:33.786809 31389 net.cpp:106] Creating Layer inception_4e/output
I0718 14:20:33.786828 31389 net.cpp:454] inception_4e/output <- inception_4e/1x1
I0718 14:20:33.786845 31389 net.cpp:454] inception_4e/output <- inception_4e/3x3
I0718 14:20:33.786859 31389 net.cpp:454] inception_4e/output <- inception_4e/5x5
I0718 14:20:33.786875 31389 net.cpp:454] inception_4e/output <- inception_4e/pool_proj
I0718 14:20:33.786890 31389 net.cpp:411] inception_4e/output -> inception_4e/output
I0718 14:20:33.786973 31389 net.cpp:150] Setting up inception_4e/output
I0718 14:20:33.787001 31389 net.cpp:157] Top shape: 6 832 62 62 (19189248)
I0718 14:20:33.787014 31389 net.cpp:165] Memory required for data: 6193004616
I0718 14:20:33.787027 31389 layer_factory.hpp:76] Creating layer pool4/3x3_s2
I0718 14:20:33.787046 31389 net.cpp:106] Creating Layer pool4/3x3_s2
I0718 14:20:33.787062 31389 net.cpp:454] pool4/3x3_s2 <- inception_4e/output
I0718 14:20:33.787081 31389 net.cpp:411] pool4/3x3_s2 -> pool4/3x3_s2
I0718 14:20:33.788321 31389 net.cpp:150] Setting up pool4/3x3_s2
I0718 14:20:33.788372 31389 net.cpp:157] Top shape: 6 832 31 31 (4797312)
I0718 14:20:33.788393 31389 net.cpp:165] Memory required for data: 6212193864
I0718 14:20:33.788415 31389 layer_factory.hpp:76] Creating layer pool4/3x3_s2_pool4/3x3_s2_0_split
I0718 14:20:33.788451 31389 net.cpp:106] Creating Layer pool4/3x3_s2_pool4/3x3_s2_0_split
I0718 14:20:33.788480 31389 net.cpp:454] pool4/3x3_s2_pool4/3x3_s2_0_split <- pool4/3x3_s2
I0718 14:20:33.788511 31389 net.cpp:411] pool4/3x3_s2_pool4/3x3_s2_0_split -> pool4/3x3_s2_pool4/3x3_s2_0_split_0
I0718 14:20:33.788540 31389 net.cpp:411] pool4/3x3_s2_pool4/3x3_s2_0_split -> pool4/3x3_s2_pool4/3x3_s2_0_split_1
I0718 14:20:33.788563 31389 net.cpp:411] pool4/3x3_s2_pool4/3x3_s2_0_split -> pool4/3x3_s2_pool4/3x3_s2_0_split_2
I0718 14:20:33.788581 31389 net.cpp:411] pool4/3x3_s2_pool4/3x3_s2_0_split -> pool4/3x3_s2_pool4/3x3_s2_0_split_3
I0718 14:20:33.788767 31389 net.cpp:150] Setting up pool4/3x3_s2_pool4/3x3_s2_0_split
I0718 14:20:33.788794 31389 net.cpp:157] Top shape: 6 832 31 31 (4797312)
I0718 14:20:33.788810 31389 net.cpp:157] Top shape: 6 832 31 31 (4797312)
I0718 14:20:33.788830 31389 net.cpp:157] Top shape: 6 832 31 31 (4797312)
I0718 14:20:33.788849 31389 net.cpp:157] Top shape: 6 832 31 31 (4797312)
I0718 14:20:33.788863 31389 net.cpp:165] Memory required for data: 6288950856
I0718 14:20:33.788877 31389 layer_factory.hpp:76] Creating layer inception_5a/1x1
I0718 14:20:33.788907 31389 net.cpp:106] Creating Layer inception_5a/1x1
I0718 14:20:33.788923 31389 net.cpp:454] inception_5a/1x1 <- pool4/3x3_s2_pool4/3x3_s2_0_split_0
I0718 14:20:33.788944 31389 net.cpp:411] inception_5a/1x1 -> inception_5a/1x1
I0718 14:20:33.797883 31389 cudnn_conv_layer.cpp:194] Reallocating workspace storage: 9984
I0718 14:20:33.797999 31389 net.cpp:150] Setting up inception_5a/1x1
I0718 14:20:33.798022 31389 net.cpp:157] Top shape: 6 256 31 31 (1476096)
I0718 14:20:33.798038 31389 net.cpp:165] Memory required for data: 6294855240
I0718 14:20:33.798060 31389 layer_factory.hpp:76] Creating layer inception_5a/relu_1x1
I0718 14:20:33.798087 31389 net.cpp:106] Creating Layer inception_5a/relu_1x1
I0718 14:20:33.798105 31389 net.cpp:454] inception_5a/relu_1x1 <- inception_5a/1x1
I0718 14:20:33.798121 31389 net.cpp:397] inception_5a/relu_1x1 -> inception_5a/1x1 (in-place)
I0718 14:20:33.800644 31389 net.cpp:150] Setting up inception_5a/relu_1x1
I0718 14:20:33.800717 31389 net.cpp:157] Top shape: 6 256 31 31 (1476096)
I0718 14:20:33.800730 31389 net.cpp:165] Memory required for data: 6300759624
I0718 14:20:33.800745 31389 layer_factory.hpp:76] Creating layer inception_5a/3x3_reduce
I0718 14:20:33.800845 31389 net.cpp:106] Creating Layer inception_5a/3x3_reduce
I0718 14:20:33.800864 31389 net.cpp:454] inception_5a/3x3_reduce <- pool4/3x3_s2_pool4/3x3_s2_0_split_1
I0718 14:20:33.800885 31389 net.cpp:411] inception_5a/3x3_reduce -> inception_5a/3x3_reduce
I0718 14:20:33.809087 31389 cudnn_conv_layer.cpp:194] Reallocating workspace storage: 9984
I0718 14:20:33.809216 31389 net.cpp:150] Setting up inception_5a/3x3_reduce
I0718 14:20:33.809244 31389 net.cpp:157] Top shape: 6 160 31 31 (922560)
I0718 14:20:33.809257 31389 net.cpp:165] Memory required for data: 6304449864
I0718 14:20:33.809283 31389 layer_factory.hpp:76] Creating layer inception_5a/relu_3x3_reduce
I0718 14:20:33.809321 31389 net.cpp:106] Creating Layer inception_5a/relu_3x3_reduce
I0718 14:20:33.809343 31389 net.cpp:454] inception_5a/relu_3x3_reduce <- inception_5a/3x3_reduce
I0718 14:20:33.809370 31389 net.cpp:397] inception_5a/relu_3x3_reduce -> inception_5a/3x3_reduce (in-place)
I0718 14:20:33.810482 31389 net.cpp:150] Setting up inception_5a/relu_3x3_reduce
I0718 14:20:33.810514 31389 net.cpp:157] Top shape: 6 160 31 31 (922560)
I0718 14:20:33.810528 31389 net.cpp:165] Memory required for data: 6308140104
I0718 14:20:33.810542 31389 layer_factory.hpp:76] Creating layer inception_5a/3x3
I0718 14:20:33.810569 31389 net.cpp:106] Creating Layer inception_5a/3x3
I0718 14:20:33.810583 31389 net.cpp:454] inception_5a/3x3 <- inception_5a/3x3_reduce
I0718 14:20:33.810601 31389 net.cpp:411] inception_5a/3x3 -> inception_5a/3x3
I0718 14:20:33.822546 31389 net.cpp:150] Setting up inception_5a/3x3
I0718 14:20:33.822618 31389 net.cpp:157] Top shape: 6 320 31 31 (1845120)
I0718 14:20:33.822640 31389 net.cpp:165] Memory required for data: 6315520584
I0718 14:20:33.822662 31389 layer_factory.hpp:76] Creating layer inception_5a/relu_3x3
I0718 14:20:33.822695 31389 net.cpp:106] Creating Layer inception_5a/relu_3x3
I0718 14:20:33.822717 31389 net.cpp:454] inception_5a/relu_3x3 <- inception_5a/3x3
I0718 14:20:33.822746 31389 net.cpp:397] inception_5a/relu_3x3 -> inception_5a/3x3 (in-place)
I0718 14:20:33.824198 31389 net.cpp:150] Setting up inception_5a/relu_3x3
I0718 14:20:33.824231 31389 net.cpp:157] Top shape: 6 320 31 31 (1845120)
I0718 14:20:33.824249 31389 net.cpp:165] Memory required for data: 6322901064
I0718 14:20:33.824264 31389 layer_factory.hpp:76] Creating layer inception_5a/5x5_reduce
I0718 14:20:33.824283 31389 net.cpp:106] Creating Layer inception_5a/5x5_reduce
I0718 14:20:33.824302 31389 net.cpp:454] inception_5a/5x5_reduce <- pool4/3x3_s2_pool4/3x3_s2_0_split_2
I0718 14:20:33.824339 31389 net.cpp:411] inception_5a/5x5_reduce -> inception_5a/5x5_reduce
I0718 14:20:33.832388 31389 net.cpp:150] Setting up inception_5a/5x5_reduce
I0718 14:20:33.832463 31389 net.cpp:157] Top shape: 6 32 31 31 (184512)
I0718 14:20:33.832478 31389 net.cpp:165] Memory required for data: 6323639112
I0718 14:20:33.832501 31389 layer_factory.hpp:76] Creating layer inception_5a/relu_5x5_reduce
I0718 14:20:33.832532 31389 net.cpp:106] Creating Layer inception_5a/relu_5x5_reduce
I0718 14:20:33.832551 31389 net.cpp:454] inception_5a/relu_5x5_reduce <- inception_5a/5x5_reduce
I0718 14:20:33.832576 31389 net.cpp:397] inception_5a/relu_5x5_reduce -> inception_5a/5x5_reduce (in-place)
I0718 14:20:33.834856 31389 net.cpp:150] Setting up inception_5a/relu_5x5_reduce
I0718 14:20:33.834910 31389 net.cpp:157] Top shape: 6 32 31 31 (184512)
I0718 14:20:33.834924 31389 net.cpp:165] Memory required for data: 6324377160
I0718 14:20:33.834947 31389 layer_factory.hpp:76] Creating layer inception_5a/5x5
I0718 14:20:33.835039 31389 net.cpp:106] Creating Layer inception_5a/5x5
I0718 14:20:33.835088 31389 net.cpp:454] inception_5a/5x5 <- inception_5a/5x5_reduce
I0718 14:20:33.835151 31389 net.cpp:411] inception_5a/5x5 -> inception_5a/5x5
I0718 14:20:33.842710 31389 net.cpp:150] Setting up inception_5a/5x5
I0718 14:20:33.842828 31389 net.cpp:157] Top shape: 6 128 31 31 (738048)
I0718 14:20:33.842854 31389 net.cpp:165] Memory required for data: 6327329352
I0718 14:20:33.842890 31389 layer_factory.hpp:76] Creating layer inception_5a/relu_5x5
I0718 14:20:33.843009 31389 net.cpp:106] Creating Layer inception_5a/relu_5x5
I0718 14:20:33.843042 31389 net.cpp:454] inception_5a/relu_5x5 <- inception_5a/5x5
I0718 14:20:33.843080 31389 net.cpp:397] inception_5a/relu_5x5 -> inception_5a/5x5 (in-place)
I0718 14:20:33.845351 31389 net.cpp:150] Setting up inception_5a/relu_5x5
I0718 14:20:33.845394 31389 net.cpp:157] Top shape: 6 128 31 31 (738048)
I0718 14:20:33.845408 31389 net.cpp:165] Memory required for data: 6330281544
I0718 14:20:33.845427 31389 layer_factory.hpp:76] Creating layer inception_5a/pool
I0718 14:20:33.845448 31389 net.cpp:106] Creating Layer inception_5a/pool
I0718 14:20:33.845463 31389 net.cpp:454] inception_5a/pool <- pool4/3x3_s2_pool4/3x3_s2_0_split_3
I0718 14:20:33.845486 31389 net.cpp:411] inception_5a/pool -> inception_5a/pool
I0718 14:20:33.847077 31389 net.cpp:150] Setting up inception_5a/pool
I0718 14:20:33.847111 31389 net.cpp:157] Top shape: 6 832 31 31 (4797312)
I0718 14:20:33.847141 31389 net.cpp:165] Memory required for data: 6349470792
I0718 14:20:33.847163 31389 layer_factory.hpp:76] Creating layer inception_5a/pool_proj
I0718 14:20:33.847199 31389 net.cpp:106] Creating Layer inception_5a/pool_proj
I0718 14:20:33.847221 31389 net.cpp:454] inception_5a/pool_proj <- inception_5a/pool
I0718 14:20:33.847239 31389 net.cpp:411] inception_5a/pool_proj -> inception_5a/pool_proj
I0718 14:20:33.856938 31389 cudnn_conv_layer.cpp:194] Reallocating workspace storage: 9984
I0718 14:20:33.857053 31389 net.cpp:150] Setting up inception_5a/pool_proj
I0718 14:20:33.857084 31389 net.cpp:157] Top shape: 6 128 31 31 (738048)
I0718 14:20:33.857110 31389 net.cpp:165] Memory required for data: 6352422984
I0718 14:20:33.857156 31389 layer_factory.hpp:76] Creating layer inception_5a/relu_pool_proj
I0718 14:20:33.857215 31389 net.cpp:106] Creating Layer inception_5a/relu_pool_proj
I0718 14:20:33.857241 31389 net.cpp:454] inception_5a/relu_pool_proj <- inception_5a/pool_proj
I0718 14:20:33.857267 31389 net.cpp:397] inception_5a/relu_pool_proj -> inception_5a/pool_proj (in-place)
I0718 14:20:33.857960 31389 net.cpp:150] Setting up inception_5a/relu_pool_proj
I0718 14:20:33.857995 31389 net.cpp:157] Top shape: 6 128 31 31 (738048)
I0718 14:20:33.858008 31389 net.cpp:165] Memory required for data: 6355375176
I0718 14:20:33.858027 31389 layer_factory.hpp:76] Creating layer inception_5a/output
I0718 14:20:33.858055 31389 net.cpp:106] Creating Layer inception_5a/output
I0718 14:20:33.858072 31389 net.cpp:454] inception_5a/output <- inception_5a/1x1
I0718 14:20:33.858098 31389 net.cpp:454] inception_5a/output <- inception_5a/3x3
I0718 14:20:33.858111 31389 net.cpp:454] inception_5a/output <- inception_5a/5x5
I0718 14:20:33.858127 31389 net.cpp:454] inception_5a/output <- inception_5a/pool_proj
I0718 14:20:33.858141 31389 net.cpp:411] inception_5a/output -> inception_5a/output
I0718 14:20:33.858218 31389 net.cpp:150] Setting up inception_5a/output
I0718 14:20:33.858252 31389 net.cpp:157] Top shape: 6 832 31 31 (4797312)
I0718 14:20:33.858273 31389 net.cpp:165] Memory required for data: 6374564424
I0718 14:20:33.858299 31389 layer_factory.hpp:76] Creating layer inception_5a/output_inception_5a/output_0_split
I0718 14:20:33.858327 31389 net.cpp:106] Creating Layer inception_5a/output_inception_5a/output_0_split
I0718 14:20:33.858356 31389 net.cpp:454] inception_5a/output_inception_5a/output_0_split <- inception_5a/output
I0718 14:20:33.858388 31389 net.cpp:411] inception_5a/output_inception_5a/output_0_split -> inception_5a/output_inception_5a/output_0_split_0
I0718 14:20:33.858431 31389 net.cpp:411] inception_5a/output_inception_5a/output_0_split -> inception_5a/output_inception_5a/output_0_split_1
I0718 14:20:33.858479 31389 net.cpp:411] inception_5a/output_inception_5a/output_0_split -> inception_5a/output_inception_5a/output_0_split_2
I0718 14:20:33.858507 31389 net.cpp:411] inception_5a/output_inception_5a/output_0_split -> inception_5a/output_inception_5a/output_0_split_3
I0718 14:20:33.858721 31389 net.cpp:150] Setting up inception_5a/output_inception_5a/output_0_split
I0718 14:20:33.858804 31389 net.cpp:157] Top shape: 6 832 31 31 (4797312)
I0718 14:20:33.858829 31389 net.cpp:157] Top shape: 6 832 31 31 (4797312)
I0718 14:20:33.858862 31389 net.cpp:157] Top shape: 6 832 31 31 (4797312)
I0718 14:20:33.858886 31389 net.cpp:157] Top shape: 6 832 31 31 (4797312)
I0718 14:20:33.858907 31389 net.cpp:165] Memory required for data: 6451321416
I0718 14:20:33.858943 31389 layer_factory.hpp:76] Creating layer inception_5b/1x1
I0718 14:20:33.858991 31389 net.cpp:106] Creating Layer inception_5b/1x1
I0718 14:20:33.859024 31389 net.cpp:454] inception_5b/1x1 <- inception_5a/output_inception_5a/output_0_split_0
I0718 14:20:33.859048 31389 net.cpp:411] inception_5b/1x1 -> inception_5b/1x1
I0718 14:20:33.870456 31389 cudnn_conv_layer.cpp:194] Reallocating workspace storage: 9984
I0718 14:20:33.870653 31389 net.cpp:150] Setting up inception_5b/1x1
I0718 14:20:33.870702 31389 net.cpp:157] Top shape: 6 384 31 31 (2214144)
I0718 14:20:33.870734 31389 net.cpp:165] Memory required for data: 6460177992
I0718 14:20:33.870779 31389 layer_factory.hpp:76] Creating layer inception_5b/relu_1x1
I0718 14:20:33.870818 31389 net.cpp:106] Creating Layer inception_5b/relu_1x1
I0718 14:20:33.870837 31389 net.cpp:454] inception_5b/relu_1x1 <- inception_5b/1x1
I0718 14:20:33.870854 31389 net.cpp:397] inception_5b/relu_1x1 -> inception_5b/1x1 (in-place)
I0718 14:20:33.872397 31389 net.cpp:150] Setting up inception_5b/relu_1x1
I0718 14:20:33.872458 31389 net.cpp:157] Top shape: 6 384 31 31 (2214144)
I0718 14:20:33.872473 31389 net.cpp:165] Memory required for data: 6469034568
I0718 14:20:33.872495 31389 layer_factory.hpp:76] Creating layer inception_5b/3x3_reduce
I0718 14:20:33.872551 31389 net.cpp:106] Creating Layer inception_5b/3x3_reduce
I0718 14:20:33.872591 31389 net.cpp:454] inception_5b/3x3_reduce <- inception_5a/output_inception_5a/output_0_split_1
I0718 14:20:33.872629 31389 net.cpp:411] inception_5b/3x3_reduce -> inception_5b/3x3_reduce
I0718 14:20:33.881036 31389 cudnn_conv_layer.cpp:194] Reallocating workspace storage: 9984
I0718 14:20:33.881131 31389 net.cpp:150] Setting up inception_5b/3x3_reduce
I0718 14:20:33.881163 31389 net.cpp:157] Top shape: 6 192 31 31 (1107072)
I0718 14:20:33.881182 31389 net.cpp:165] Memory required for data: 6473462856
I0718 14:20:33.881213 31389 layer_factory.hpp:76] Creating layer inception_5b/relu_3x3_reduce
I0718 14:20:33.881247 31389 net.cpp:106] Creating Layer inception_5b/relu_3x3_reduce
I0718 14:20:33.881265 31389 net.cpp:454] inception_5b/relu_3x3_reduce <- inception_5b/3x3_reduce
I0718 14:20:33.881294 31389 net.cpp:397] inception_5b/relu_3x3_reduce -> inception_5b/3x3_reduce (in-place)
I0718 14:20:33.883476 31389 net.cpp:150] Setting up inception_5b/relu_3x3_reduce
I0718 14:20:33.883524 31389 net.cpp:157] Top shape: 6 192 31 31 (1107072)
I0718 14:20:33.883548 31389 net.cpp:165] Memory required for data: 6477891144
I0718 14:20:33.883575 31389 layer_factory.hpp:76] Creating layer inception_5b/3x3
I0718 14:20:33.883605 31389 net.cpp:106] Creating Layer inception_5b/3x3
I0718 14:20:33.883621 31389 net.cpp:454] inception_5b/3x3 <- inception_5b/3x3_reduce
I0718 14:20:33.883641 31389 net.cpp:411] inception_5b/3x3 -> inception_5b/3x3
I0718 14:20:33.903434 31389 net.cpp:150] Setting up inception_5b/3x3
I0718 14:20:33.903559 31389 net.cpp:157] Top shape: 6 384 31 31 (2214144)
I0718 14:20:33.903585 31389 net.cpp:165] Memory required for data: 6486747720
I0718 14:20:33.903630 31389 layer_factory.hpp:76] Creating layer inception_5b/relu_3x3
I0718 14:20:33.903687 31389 net.cpp:106] Creating Layer inception_5b/relu_3x3
I0718 14:20:33.903723 31389 net.cpp:454] inception_5b/relu_3x3 <- inception_5b/3x3
I0718 14:20:33.903761 31389 net.cpp:397] inception_5b/relu_3x3 -> inception_5b/3x3 (in-place)
I0718 14:20:33.905633 31389 net.cpp:150] Setting up inception_5b/relu_3x3
I0718 14:20:33.905694 31389 net.cpp:157] Top shape: 6 384 31 31 (2214144)
I0718 14:20:33.905710 31389 net.cpp:165] Memory required for data: 6495604296
I0718 14:20:33.905737 31389 layer_factory.hpp:76] Creating layer inception_5b/5x5_reduce
I0718 14:20:33.906406 31389 net.cpp:106] Creating Layer inception_5b/5x5_reduce
I0718 14:20:33.906445 31389 net.cpp:454] inception_5b/5x5_reduce <- inception_5a/output_inception_5a/output_0_split_2
I0718 14:20:33.906514 31389 net.cpp:411] inception_5b/5x5_reduce -> inception_5b/5x5_reduce
I0718 14:20:33.913750 31389 net.cpp:150] Setting up inception_5b/5x5_reduce
I0718 14:20:33.913853 31389 net.cpp:157] Top shape: 6 48 31 31 (276768)
I0718 14:20:33.913882 31389 net.cpp:165] Memory required for data: 6496711368
I0718 14:20:33.913913 31389 layer_factory.hpp:76] Creating layer inception_5b/relu_5x5_reduce
I0718 14:20:33.913957 31389 net.cpp:106] Creating Layer inception_5b/relu_5x5_reduce
I0718 14:20:33.913993 31389 net.cpp:454] inception_5b/relu_5x5_reduce <- inception_5b/5x5_reduce
I0718 14:20:33.914036 31389 net.cpp:397] inception_5b/relu_5x5_reduce -> inception_5b/5x5_reduce (in-place)
I0718 14:20:33.915890 31389 net.cpp:150] Setting up inception_5b/relu_5x5_reduce
I0718 14:20:33.915941 31389 net.cpp:157] Top shape: 6 48 31 31 (276768)
I0718 14:20:33.915966 31389 net.cpp:165] Memory required for data: 6497818440
I0718 14:20:33.915992 31389 layer_factory.hpp:76] Creating layer inception_5b/5x5
I0718 14:20:33.916039 31389 net.cpp:106] Creating Layer inception_5b/5x5
I0718 14:20:33.916069 31389 net.cpp:454] inception_5b/5x5 <- inception_5b/5x5_reduce
I0718 14:20:33.916105 31389 net.cpp:411] inception_5b/5x5 -> inception_5b/5x5
I0718 14:20:33.923715 31389 net.cpp:150] Setting up inception_5b/5x5
I0718 14:20:33.923816 31389 net.cpp:157] Top shape: 6 128 31 31 (738048)
I0718 14:20:33.923840 31389 net.cpp:165] Memory required for data: 6500770632
I0718 14:20:33.923895 31389 layer_factory.hpp:76] Creating layer inception_5b/relu_5x5
I0718 14:20:33.923949 31389 net.cpp:106] Creating Layer inception_5b/relu_5x5
I0718 14:20:33.923984 31389 net.cpp:454] inception_5b/relu_5x5 <- inception_5b/5x5
I0718 14:20:33.924017 31389 net.cpp:397] inception_5b/relu_5x5 -> inception_5b/5x5 (in-place)
I0718 14:20:33.925946 31389 net.cpp:150] Setting up inception_5b/relu_5x5
I0718 14:20:33.925979 31389 net.cpp:157] Top shape: 6 128 31 31 (738048)
I0718 14:20:33.926000 31389 net.cpp:165] Memory required for data: 6503722824
I0718 14:20:33.926023 31389 layer_factory.hpp:76] Creating layer inception_5b/pool
I0718 14:20:33.926049 31389 net.cpp:106] Creating Layer inception_5b/pool
I0718 14:20:33.926069 31389 net.cpp:454] inception_5b/pool <- inception_5a/output_inception_5a/output_0_split_3
I0718 14:20:33.926097 31389 net.cpp:411] inception_5b/pool -> inception_5b/pool
I0718 14:20:33.928390 31389 net.cpp:150] Setting up inception_5b/pool
I0718 14:20:33.928438 31389 net.cpp:157] Top shape: 6 832 31 31 (4797312)
I0718 14:20:33.928460 31389 net.cpp:165] Memory required for data: 6522912072
I0718 14:20:33.928479 31389 layer_factory.hpp:76] Creating layer inception_5b/pool_proj
I0718 14:20:33.928519 31389 net.cpp:106] Creating Layer inception_5b/pool_proj
I0718 14:20:33.928542 31389 net.cpp:454] inception_5b/pool_proj <- inception_5b/pool
I0718 14:20:33.928575 31389 net.cpp:411] inception_5b/pool_proj -> inception_5b/pool_proj
I0718 14:20:33.937602 31389 cudnn_conv_layer.cpp:194] Reallocating workspace storage: 9984
I0718 14:20:33.937724 31389 net.cpp:150] Setting up inception_5b/pool_proj
I0718 14:20:33.937760 31389 net.cpp:157] Top shape: 6 128 31 31 (738048)
I0718 14:20:33.937778 31389 net.cpp:165] Memory required for data: 6525864264
I0718 14:20:33.937809 31389 layer_factory.hpp:76] Creating layer inception_5b/relu_pool_proj
I0718 14:20:33.937844 31389 net.cpp:106] Creating Layer inception_5b/relu_pool_proj
I0718 14:20:33.937877 31389 net.cpp:454] inception_5b/relu_pool_proj <- inception_5b/pool_proj
I0718 14:20:33.937916 31389 net.cpp:397] inception_5b/relu_pool_proj -> inception_5b/pool_proj (in-place)
I0718 14:20:33.940068 31389 net.cpp:150] Setting up inception_5b/relu_pool_proj
I0718 14:20:33.940100 31389 net.cpp:157] Top shape: 6 128 31 31 (738048)
I0718 14:20:33.940119 31389 net.cpp:165] Memory required for data: 6528816456
I0718 14:20:33.940191 31389 layer_factory.hpp:76] Creating layer inception_5b/output
I0718 14:20:33.940224 31389 net.cpp:106] Creating Layer inception_5b/output
I0718 14:20:33.940243 31389 net.cpp:454] inception_5b/output <- inception_5b/1x1
I0718 14:20:33.940268 31389 net.cpp:454] inception_5b/output <- inception_5b/3x3
I0718 14:20:33.940289 31389 net.cpp:454] inception_5b/output <- inception_5b/5x5
I0718 14:20:33.940310 31389 net.cpp:454] inception_5b/output <- inception_5b/pool_proj
I0718 14:20:33.940336 31389 net.cpp:411] inception_5b/output -> inception_5b/output
I0718 14:20:33.940469 31389 net.cpp:150] Setting up inception_5b/output
I0718 14:20:33.940512 31389 net.cpp:157] Top shape: 6 1024 31 31 (5904384)
I0718 14:20:33.940536 31389 net.cpp:165] Memory required for data: 6552433992
I0718 14:20:33.940559 31389 layer_factory.hpp:76] Creating layer pool5/7x7_s1
I0718 14:20:33.940620 31389 net.cpp:106] Creating Layer pool5/7x7_s1
I0718 14:20:33.940649 31389 net.cpp:454] pool5/7x7_s1 <- inception_5b/output
I0718 14:20:33.940676 31389 net.cpp:411] pool5/7x7_s1 -> pool5/7x7_s1
I0718 14:20:34.423092 31389 cudnn_conv_layer.cpp:194] Reallocating workspace storage: 602112
I0718 14:20:34.423668 31389 net.cpp:150] Setting up pool5/7x7_s1
I0718 14:20:34.423708 31389 net.cpp:157] Top shape: 6 512 25 25 (1920000)
I0718 14:20:34.423727 31389 net.cpp:165] Memory required for data: 6560113992
I0718 14:20:34.423751 31389 layer_factory.hpp:76] Creating layer conv61
I0718 14:20:34.423794 31389 net.cpp:106] Creating Layer conv61
I0718 14:20:34.423813 31389 net.cpp:454] conv61 <- pool5/7x7_s1
I0718 14:20:34.423836 31389 net.cpp:411] conv61 -> conv61
I0718 14:20:34.435024 31389 cudnn_conv_layer.cpp:194] Reallocating workspace storage: 55296
I0718 14:20:34.435125 31389 net.cpp:150] Setting up conv61
I0718 14:20:34.435158 31389 net.cpp:157] Top shape: 6 64 25 25 (240000)
I0718 14:20:34.435179 31389 net.cpp:165] Memory required for data: 6561073992
I0718 14:20:34.435214 31389 layer_factory.hpp:76] Creating layer relu61
I0718 14:20:34.435250 31389 net.cpp:106] Creating Layer relu61
I0718 14:20:34.435266 31389 net.cpp:454] relu61 <- conv61
I0718 14:20:34.435286 31389 net.cpp:397] relu61 -> conv61 (in-place)
I0718 14:20:34.437002 31389 net.cpp:150] Setting up relu61
I0718 14:20:34.437044 31389 net.cpp:157] Top shape: 6 64 25 25 (240000)
I0718 14:20:34.437068 31389 net.cpp:165] Memory required for data: 6562033992
I0718 14:20:34.437094 31389 layer_factory.hpp:76] Creating layer conv62
I0718 14:20:34.437129 31389 net.cpp:106] Creating Layer conv62
I0718 14:20:34.437142 31389 net.cpp:454] conv62 <- conv61
I0718 14:20:34.437161 31389 net.cpp:411] conv62 -> conv62
I0718 14:20:34.444115 31389 net.cpp:150] Setting up conv62
I0718 14:20:34.444192 31389 net.cpp:157] Top shape: 6 64 25 25 (240000)
I0718 14:20:34.444217 31389 net.cpp:165] Memory required for data: 6562993992
I0718 14:20:34.444252 31389 layer_factory.hpp:76] Creating layer relu62
I0718 14:20:34.444279 31389 net.cpp:106] Creating Layer relu62
I0718 14:20:34.444296 31389 net.cpp:454] relu62 <- conv62
I0718 14:20:34.444334 31389 net.cpp:397] relu62 -> conv62 (in-place)
I0718 14:20:34.447298 31389 net.cpp:150] Setting up relu62
I0718 14:20:34.447391 31389 net.cpp:157] Top shape: 6 64 25 25 (240000)
I0718 14:20:34.447407 31389 net.cpp:165] Memory required for data: 6563953992
I0718 14:20:34.447425 31389 layer_factory.hpp:76] Creating layer pool5
I0718 14:20:34.447461 31389 net.cpp:106] Creating Layer pool5
I0718 14:20:34.447490 31389 net.cpp:454] pool5 <- conv62
I0718 14:20:34.447515 31389 net.cpp:411] pool5 -> pool5
I0718 14:20:34.450000 31389 net.cpp:150] Setting up pool5
I0718 14:20:34.450063 31389 net.cpp:157] Top shape: 6 64 13 13 (64896)
I0718 14:20:34.450083 31389 net.cpp:165] Memory required for data: 6564213576
I0718 14:20:34.450116 31389 layer_factory.hpp:76] Creating layer conv71
I0718 14:20:34.450155 31389 net.cpp:106] Creating Layer conv71
I0718 14:20:34.450176 31389 net.cpp:454] conv71 <- pool5
I0718 14:20:34.450196 31389 net.cpp:411] conv71 -> conv71
I0718 14:20:34.460768 31389 cudnn_conv_layer.cpp:194] Reallocating workspace storage: 6912
I0718 14:20:34.460963 31389 net.cpp:150] Setting up conv71
I0718 14:20:34.461019 31389 net.cpp:157] Top shape: 6 96 13 13 (97344)
I0718 14:20:34.461032 31389 net.cpp:165] Memory required for data: 6564602952
I0718 14:20:34.461061 31389 layer_factory.hpp:76] Creating layer relu71
I0718 14:20:34.461104 31389 net.cpp:106] Creating Layer relu71
I0718 14:20:34.461132 31389 net.cpp:454] relu71 <- conv71
I0718 14:20:34.461149 31389 net.cpp:397] relu71 -> conv71 (in-place)
I0718 14:20:34.462893 31389 net.cpp:150] Setting up relu71
I0718 14:20:34.462996 31389 net.cpp:157] Top shape: 6 96 13 13 (97344)
I0718 14:20:34.463013 31389 net.cpp:165] Memory required for data: 6564992328
I0718 14:20:34.463033 31389 layer_factory.hpp:76] Creating layer conv72
I0718 14:20:34.463078 31389 net.cpp:106] Creating Layer conv72
I0718 14:20:34.463109 31389 net.cpp:454] conv72 <- conv71
I0718 14:20:34.463145 31389 net.cpp:411] conv72 -> conv72
I0718 14:20:34.470041 31389 net.cpp:150] Setting up conv72
I0718 14:20:34.470141 31389 net.cpp:157] Top shape: 6 96 13 13 (97344)
I0718 14:20:34.470158 31389 net.cpp:165] Memory required for data: 6565381704
I0718 14:20:34.470197 31389 layer_factory.hpp:76] Creating layer relu72
I0718 14:20:34.470238 31389 net.cpp:106] Creating Layer relu72
I0718 14:20:34.470263 31389 net.cpp:454] relu72 <- conv72
I0718 14:20:34.470300 31389 net.cpp:397] relu72 -> conv72 (in-place)
I0718 14:20:34.472028 31389 net.cpp:150] Setting up relu72
I0718 14:20:34.472136 31389 net.cpp:157] Top shape: 6 96 13 13 (97344)
I0718 14:20:34.472162 31389 net.cpp:165] Memory required for data: 6565771080
I0718 14:20:34.472187 31389 layer_factory.hpp:76] Creating layer pool6
I0718 14:20:34.472224 31389 net.cpp:106] Creating Layer pool6
I0718 14:20:34.472247 31389 net.cpp:454] pool6 <- conv72
I0718 14:20:34.472280 31389 net.cpp:411] pool6 -> pool6
I0718 14:20:34.474674 31389 net.cpp:150] Setting up pool6
I0718 14:20:34.474781 31389 net.cpp:157] Top shape: 6 96 7 7 (28224)
I0718 14:20:34.474831 31389 net.cpp:165] Memory required for data: 6565883976
I0718 14:20:34.474856 31389 layer_factory.hpp:76] Creating layer conv81
I0718 14:20:34.474902 31389 net.cpp:106] Creating Layer conv81
I0718 14:20:34.474930 31389 net.cpp:454] conv81 <- pool6
I0718 14:20:34.474983 31389 net.cpp:411] conv81 -> conv81
I0718 14:20:34.485141 31389 net.cpp:150] Setting up conv81
I0718 14:20:34.485263 31389 net.cpp:157] Top shape: 6 128 7 7 (37632)
I0718 14:20:34.485291 31389 net.cpp:165] Memory required for data: 6566034504
I0718 14:20:34.485323 31389 layer_factory.hpp:76] Creating layer relu81
I0718 14:20:34.485363 31389 net.cpp:106] Creating Layer relu81
I0718 14:20:34.485386 31389 net.cpp:454] relu81 <- conv81
I0718 14:20:34.485419 31389 net.cpp:397] relu81 -> conv81 (in-place)
I0718 14:20:34.487128 31389 net.cpp:150] Setting up relu81
I0718 14:20:34.487251 31389 net.cpp:157] Top shape: 6 128 7 7 (37632)
I0718 14:20:34.487278 31389 net.cpp:165] Memory required for data: 6566185032
I0718 14:20:34.487305 31389 layer_factory.hpp:76] Creating layer conv82
I0718 14:20:34.487347 31389 net.cpp:106] Creating Layer conv82
I0718 14:20:34.487391 31389 net.cpp:454] conv82 <- conv81
I0718 14:20:34.487435 31389 net.cpp:411] conv82 -> conv82
I0718 14:20:34.495820 31389 net.cpp:150] Setting up conv82
I0718 14:20:34.495913 31389 net.cpp:157] Top shape: 6 128 7 7 (37632)
I0718 14:20:34.495946 31389 net.cpp:165] Memory required for data: 6566335560
I0718 14:20:34.495987 31389 layer_factory.hpp:76] Creating layer relu82
I0718 14:20:34.496028 31389 net.cpp:106] Creating Layer relu82
I0718 14:20:34.496058 31389 net.cpp:454] relu82 <- conv82
I0718 14:20:34.496089 31389 net.cpp:397] relu82 -> conv82 (in-place)
I0718 14:20:34.497834 31389 net.cpp:150] Setting up relu82
I0718 14:20:34.497900 31389 net.cpp:157] Top shape: 6 128 7 7 (37632)
I0718 14:20:34.497936 31389 net.cpp:165] Memory required for data: 6566486088
I0718 14:20:34.497977 31389 layer_factory.hpp:76] Creating layer pool7
I0718 14:20:34.498114 31389 net.cpp:106] Creating Layer pool7
I0718 14:20:34.498149 31389 net.cpp:454] pool7 <- conv82
I0718 14:20:34.498190 31389 net.cpp:411] pool7 -> pool7
I0718 14:20:34.500370 31389 net.cpp:150] Setting up pool7
I0718 14:20:34.500447 31389 net.cpp:157] Top shape: 6 128 4 4 (12288)
I0718 14:20:34.500473 31389 net.cpp:165] Memory required for data: 6566535240
I0718 14:20:34.500500 31389 layer_factory.hpp:76] Creating layer drop0
I0718 14:20:34.500571 31389 net.cpp:106] Creating Layer drop0
I0718 14:20:34.500609 31389 net.cpp:454] drop0 <- pool7
I0718 14:20:34.500641 31389 net.cpp:397] drop0 -> pool7 (in-place)
I0718 14:20:34.500784 31389 net.cpp:150] Setting up drop0
I0718 14:20:34.500831 31389 net.cpp:157] Top shape: 6 128 4 4 (12288)
I0718 14:20:34.500857 31389 net.cpp:165] Memory required for data: 6566584392
I0718 14:20:34.500880 31389 layer_factory.hpp:76] Creating layer conv91
I0718 14:20:34.500910 31389 net.cpp:106] Creating Layer conv91
I0718 14:20:34.500933 31389 net.cpp:454] conv91 <- pool7
I0718 14:20:34.500958 31389 net.cpp:411] conv91 -> conv91
F0718 14:20:34.515717 31389 blob.cpp:32] Check failed: shape[i] >= 0 (-3 vs. 0) 
