…
I0718 14:29:20.606189 32986 net.cpp:322] The NetState phase (0) differed from the phase (1) specified by a rule in layer data
I0718 14:29:20.607190 32986 net.cpp:49] Initializing net from parameters: 
name: "GoogleNet"
state {
  phase: TRAIN
}
layer {
  name: "data"
  type: "ImageData"
  top: "data"
  top: "label"
  include {
    phase: TRAIN
  }
  transform_param {
    mirror: true
    mean_value: 163
    mean_value: 116
    mean_value: 181
  }
  image_data_param {
    source: "../lists/mitosis_train.lst"
    batch_size: 4
    shuffle: true
  }
}
layer {
  name: "conv1/7x7_s2"
  type: "Convolution"
  bottom: "data"
  top: "conv1/7x7_s2"
  param {
    lr_mult: 0
    decay_mult: 1
  }
  param {
    lr_mult: 2
    decay_mult: 0
  }
  convolution_param {
    num_output: 64
    pad: 3
    kernel_size: 7
    stride: 2
    weight_filler {
      type: "xavier"
    }
    bias_filler {
      type: "constant"
      value: 0.2
    }
  }
}
layer {
  name: "conv1/relu_7x7"
  type: "ReLU"
  bottom: "conv1/7x7_s2"
  top: "conv1/7x7_s2"
}
layer {
  name: "pool1/3x3_s2"
  type: "Pooling"
  bottom: "conv1/7x7_s2"
  top: "pool1/3x3_s2"
  pooling_param {
    pool: MAX
    kernel_size: 3
    stride: 2
  }
}
layer {
  name: "pool1/norm1"
  type: "LRN"
  bottom: "pool1/3x3_s2"
  top: "pool1/norm1"
  lrn_param {
    local_size: 5
    alpha: 0.0001
    beta: 0.75
  }
}
layer {
  name: "conv2/3x3_reduce"
  type: "Convolution"
  bottom: "pool1/norm1"
  top: "conv2/3x3_reduce"
  param {
    lr_mult: 0
    decay_mult: 1
  }
  param {
    lr_mult: 2
    decay_mult: 0
  }
  convolution_param {
    num_output: 64
    kernel_size: 1
    weight_filler {
      type: "xavier"
    }
    bias_filler {
      type: "constant"
      value: 0.2
    }
  }
}
layer {
  name: "conv2/relu_3x3_reduce"
  type: "ReLU"
  bottom: "conv2/3x3_reduce"
  top: "conv2/3x3_reduce"
}
layer {
  name: "conv2/3x3"
  type: "Convolution"
  bottom: "conv2/3x3_reduce"
  top: "conv2/3x3"
  param {
    lr_mult: 0
    decay_mult: 1
  }
  param {
    lr_mult: 2
    decay_mult: 0
  }
  convolution_param {
    num_output: 192
    pad: 1
    kernel_size: 3
    weight_filler {
      type: "xavier"
    }
    bias_filler {
      type: "constant"
      value: 0.2
    }
  }
}
layer {
  name: "conv2/relu_3x3"
  type: "ReLU"
  bottom: "conv2/3x3"
  top: "conv2/3x3"
}
layer {
  name: "conv2/norm2"
  type: "LRN"
  bottom: "conv2/3x3"
  top: "conv2/norm2"
  lrn_param {
    local_size: 5
    alpha: 0.0001
    beta: 0.75
  }
}
layer {
  name: "pool2/3x3_s2"
  type: "Pooling"
  bottom: "conv2/norm2"
  top: "pool2/3x3_s2"
  pooling_param {
    pool: MAX
    kernel_size: 3
    stride: 2
  }
}
layer {
  name: "inception_3a/1x1"
  type: "Convolution"
  bottom: "pool2/3x3_s2"
  top: "inception_3a/1x1"
  param {
    lr_mult: 0
    decay_mult: 1
  }
  param {
    lr_mult: 2
    decay_mult: 0
  }
  convolution_param {
    num_output: 64
    kernel_size: 1
    weight_filler {
      type: "xavier"
    }
    bias_filler {
      type: "constant"
      value: 0.2
    }
  }
}
layer {
  name: "inception_3a/relu_1x1"
  type: "ReLU"
  bottom: "inception_3a/1x1"
  top: "inception_3a/1x1"
}
layer {
  name: "inception_3a/3x3_reduce"
  type: "Convolution"
  bottom: "pool2/3x3_s2"
  top: "inception_3a/3x3_reduce"
  param {
    lr_mult: 0
    decay_mult: 1
  }
  param {
    lr_mult: 2
    decay_mult: 0
  }
  convolution_param {
    num_output: 96
    kernel_size: 1
    weight_filler {
      type: "xavier"
    }
    bias_filler {
      type: "constant"
      value: 0.2
    }
  }
}
layer {
  name: "inception_3a/relu_3x3_reduce"
  type: "ReLU"
  bottom: "inception_3a/3x3_reduce"
  top: "inception_3a/3x3_reduce"
}
layer {
  name: "inception_3a/3x3"
  type: "Convolution"
  bottom: "inception_3a/3x3_reduce"
  top: "inception_3a/3x3"
  param {
    lr_mult: 0
    decay_mult: 1
  }
  param {
    lr_mult: 2
    decay_mult: 0
  }
  convolution_param {
    num_output: 128
    pad: 1
    kernel_size: 3
    weight_filler {
      type: "xavier"
    }
    bias_filler {
      type: "constant"
      value: 0.2
    }
  }
}
layer {
  name: "inception_3a/relu_3x3"
  type: "ReLU"
  bottom: "inception_3a/3x3"
  top: "inception_3a/3x3"
}
layer {
  name: "inception_3a/5x5_reduce"
  type: "Convolution"
  bottom: "pool2/3x3_s2"
  top: "inception_3a/5x5_reduce"
  param {
    lr_mult: 0
    decay_mult: 1
  }
  param {
    lr_mult: 2
    decay_mult: 0
  }
  convolution_param {
    num_output: 16
    kernel_size: 1
    weight_filler {
      type: "xavier"
    }
    bias_filler {
      type: "constant"
      value: 0.2
    }
  }
}
layer {
  name: "inception_3a/relu_5x5_reduce"
  type: "ReLU"
  bottom: "inception_3a/5x5_reduce"
  top: "inception_3a/5x5_reduce"
}
layer {
  name: "inception_3a/5x5"
  type: "Convolution"
  bottom: "inception_3a/5x5_reduce"
  top: "inception_3a/5x5"
  param {
    lr_mult: 0
    decay_mult: 1
  }
  param {
    lr_mult: 2
    decay_mult: 0
  }
  convolution_param {
    num_output: 32
    pad: 2
    kernel_size: 5
    weight_filler {
      type: "xavier"
    }
    bias_filler {
      type: "constant"
      value: 0.2
    }
  }
}
layer {
  name: "inception_3a/relu_5x5"
  type: "ReLU"
  bottom: "inception_3a/5x5"
  top: "inception_3a/5x5"
}
layer {
  name: "inception_3a/pool"
  type: "Pooling"
  bottom: "pool2/3x3_s2"
  top: "inception_3a/pool"
  pooling_param {
    pool: MAX
    kernel_size: 3
    stride: 1
    pad: 1
  }
}
layer {
  name: "inception_3a/pool_proj"
  type: "Convolution"
  bottom: "inception_3a/pool"
  top: "inception_3a/pool_proj"
  param {
    lr_mult: 0
    decay_mult: 1
  }
  param {
    lr_mult: 2
    decay_mult: 0
  }
  convolution_param {
    num_output: 32
    kernel_size: 1
    weight_filler {
      type: "xavier"
    }
    bias_filler {
      type: "constant"
      value: 0.2
    }
  }
}
layer {
  name: "inception_3a/relu_pool_proj"
  type: "ReLU"
  bottom: "inception_3a/pool_proj"
  top: "inception_3a/pool_proj"
}
layer {
  name: "inception_3a/output"
  type: "Concat"
  bottom: "inception_3a/1x1"
  bottom: "inception_3a/3x3"
  bottom: "inception_3a/5x5"
  bottom: "inception_3a/pool_proj"
  top: "inception_3a/output"
}
layer {
  name: "inception_3b/1x1"
  type: "Convolution"
  bottom: "inception_3a/output"
  top: "inception_3b/1x1"
  param {
    lr_mult: 0
    decay_mult: 1
  }
  param {
    lr_mult: 2
    decay_mult: 0
  }
  convolution_param {
    num_output: 128
    kernel_size: 1
    weight_filler {
      type: "xavier"
    }
    bias_filler {
      type: "constant"
      value: 0.2
    }
  }
}
layer {
  name: "inception_3b/relu_1x1"
  type: "ReLU"
  bottom: "inception_3b/1x1"
  top: "inception_3b/1x1"
}
layer {
  name: "inception_3b/3x3_reduce"
  type: "Convolution"
  bottom: "inception_3a/output"
  top: "inception_3b/3x3_reduce"
  param {
    lr_mult: 0
    decay_mult: 1
  }
  param {
    lr_mult: 2
    decay_mult: 0
  }
  convolution_param {
    num_output: 128
    kernel_size: 1
    weight_filler {
      type: "xavier"
    }
    bias_filler {
      type: "constant"
      value: 0.2
    }
  }
}
layer {
  name: "inception_3b/relu_3x3_reduce"
  type: "ReLU"
  bottom: "inception_3b/3x3_reduce"
  top: "inception_3b/3x3_reduce"
}
layer {
  name: "inception_3b/3x3"
  type: "Convolution"
  bottom: "inception_3b/3x3_reduce"
  top: "inception_3b/3x3"
  param {
    lr_mult: 0
    decay_mult: 1
  }
  param {
    lr_mult: 2
    decay_mult: 0
  }
  convolution_param {
    num_output: 192
    pad: 1
    kernel_size: 3
    weight_filler {
      type: "xavier"
    }
    bias_filler {
      type: "constant"
      value: 0.2
    }
  }
}
layer {
  name: "inception_3b/relu_3x3"
  type: "ReLU"
  bottom: "inception_3b/3x3"
  top: "inception_3b/3x3"
}
layer {
  name: "inception_3b/5x5_reduce"
  type: "Convolution"
  bottom: "inception_3a/output"
  top: "inception_3b/5x5_reduce"
  param {
    lr_mult: 0
    decay_mult: 1
  }
  param {
    lr_mult: 2
    decay_mult: 0
  }
  convolution_param {
    num_output: 32
    kernel_size: 1
    weight_filler {
      type: "xavier"
    }
    bias_filler {
      type: "constant"
      value: 0.2
    }
  }
}
layer {
  name: "inception_3b/relu_5x5_reduce"
  type: "ReLU"
  bottom: "inception_3b/5x5_reduce"
  top: "inception_3b/5x5_reduce"
}
layer {
  name: "inception_3b/5x5"
  type: "Convolution"
  bottom: "inception_3b/5x5_reduce"
  top: "inception_3b/5x5"
  param {
    lr_mult: 0
    decay_mult: 1
  }
  param {
    lr_mult: 2
    decay_mult: 0
  }
  convolution_param {
    num_output: 96
    pad: 2
    kernel_size: 5
    weight_filler {
      type: "xavier"
    }
    bias_filler {
      type: "constant"
      value: 0.2
    }
  }
}
layer {
  name: "inception_3b/relu_5x5"
  type: "ReLU"
  bottom: "inception_3b/5x5"
  top: "inception_3b/5x5"
}
layer {
  name: "inception_3b/pool"
  type: "Pooling"
  bottom: "inception_3a/output"
  top: "inception_3b/pool"
  pooling_param {
    pool: MAX
    kernel_size: 3
    stride: 1
    pad: 1
  }
}
layer {
  name: "inception_3b/pool_proj"
  type: "Convolution"
  bottom: "inception_3b/pool"
  top: "inception_3b/pool_proj"
  param {
    lr_mult: 0
    decay_mult: 1
  }
  param {
    lr_mult: 2
    decay_mult: 0
  }
  convolution_param {
    num_output: 64
    kernel_size: 1
    weight_filler {
      type: "xavier"
    }
    bias_filler {
      type: "constant"
      value: 0.2
    }
  }
}
layer {
  name: "inception_3b/relu_pool_proj"
  type: "ReLU"
  bottom: "inception_3b/pool_proj"
  top: "inception_3b/pool_proj"
}
layer {
  name: "inception_3b/output"
  type: "Concat"
  bottom: "inception_3b/1x1"
  bottom: "inception_3b/3x3"
  bottom: "inception_3b/5x5"
  bottom: "inception_3b/pool_proj"
  top: "inception_3b/output"
}
layer {
  name: "pool3/3x3_s2"
  type: "Pooling"
  bottom: "inception_3b/output"
  top: "pool3/3x3_s2"
  pooling_param {
    pool: MAX
    kernel_size: 3
    stride: 2
  }
}
layer {
  name: "inception_4a/1x1"
  type: "Convolution"
  bottom: "pool3/3x3_s2"
  top: "inception_4a/1x1"
  param {
    lr_mult: 0
    decay_mult: 1
  }
  param {
    lr_mult: 2
    decay_mult: 0
  }
  convolution_param {
    num_output: 192
    kernel_size: 1
    weight_filler {
      type: "xavier"
    }
    bias_filler {
      type: "constant"
      value: 0.2
    }
  }
}
layer {
  name: "inception_4a/relu_1x1"
  type: "ReLU"
  bottom: "inception_4a/1x1"
  top: "inception_4a/1x1"
}
layer {
  name: "inception_4a/3x3_reduce"
  type: "Convolution"
  bottom: "pool3/3x3_s2"
  top: "inception_4a/3x3_reduce"
  param {
    lr_mult: 0
    decay_mult: 1
  }
  param {
    lr_mult: 2
    decay_mult: 0
  }
  convolution_param {
    num_output: 96
    kernel_size: 1
    weight_filler {
      type: "xavier"
    }
    bias_filler {
      type: "constant"
      value: 0.2
    }
  }
}
layer {
  name: "inception_4a/relu_3x3_reduce"
  type: "ReLU"
  bottom: "inception_4a/3x3_reduce"
  top: "inception_4a/3x3_reduce"
}
layer {
  name: "inception_4a/3x3"
  type: "Convolution"
  bottom: "inception_4a/3x3_reduce"
  top: "inception_4a/3x3"
  param {
    lr_mult: 0
    decay_mult: 1
  }
  param {
    lr_mult: 2
    decay_mult: 0
  }
  convolution_param {
    num_output: 208
    pad: 1
    kernel_size: 3
    weight_filler {
      type: "xavier"
    }
    bias_filler {
      type: "constant"
      value: 0.2
    }
  }
}
layer {
  name: "inception_4a/relu_3x3"
  type: "ReLU"
  bottom: "inception_4a/3x3"
  top: "inception_4a/3x3"
}
layer {
  name: "inception_4a/5x5_reduce"
  type: "Convolution"
  bottom: "pool3/3x3_s2"
  top: "inception_4a/5x5_reduce"
  param {
    lr_mult: 0
    decay_mult: 1
  }
  param {
    lr_mult: 2
    decay_mult: 0
  }
  convolution_param {
    num_output: 16
    kernel_size: 1
    weight_filler {
      type: "xavier"
    }
    bias_filler {
      type: "constant"
      value: 0.2
    }
  }
}
layer {
  name: "inception_4a/relu_5x5_reduce"
  type: "ReLU"
  bottom: "inception_4a/5x5_reduce"
  top: "inception_4a/5x5_reduce"
}
layer {
  name: "inception_4a/5x5"
  type: "Convolution"
  bottom: "inception_4a/5x5_reduce"
  top: "inception_4a/5x5"
  param {
    lr_mult: 0
    decay_mult: 1
  }
  param {
    lr_mult: 2
    decay_mult: 0
  }
  convolution_param {
    num_output: 48
    pad: 2
    kernel_size: 5
    weight_filler {
      type: "xavier"
    }
    bias_filler {
      type: "constant"
      value: 0.2
    }
  }
}
layer {
  name: "inception_4a/relu_5x5"
  type: "ReLU"
  bottom: "inception_4a/5x5"
  top: "inception_4a/5x5"
}
layer {
  name: "inception_4a/pool"
  type: "Pooling"
  bottom: "pool3/3x3_s2"
  top: "inception_4a/pool"
  pooling_param {
    pool: MAX
    kernel_size: 3
    stride: 1
    pad: 1
  }
}
layer {
  name: "inception_4a/pool_proj"
  type: "Convolution"
  bottom: "inception_4a/pool"
  top: "inception_4a/pool_proj"
  param {
    lr_mult: 0
    decay_mult: 1
  }
  param {
    lr_mult: 2
    decay_mult: 0
  }
  convolution_param {
    num_output: 64
    kernel_size: 1
    weight_filler {
      type: "xavier"
    }
    bias_filler {
      type: "constant"
      value: 0.2
    }
  }
}
layer {
  name: "inception_4a/relu_pool_proj"
  type: "ReLU"
  bottom: "inception_4a/pool_proj"
  top: "inception_4a/pool_proj"
}
layer {
  name: "inception_4a/output"
  type: "Concat"
  bottom: "inception_4a/1x1"
  bottom: "inception_4a/3x3"
  bottom: "inception_4a/5x5"
  bottom: "inception_4a/pool_proj"
  top: "inception_4a/output"
}
layer {
  name: "inception_4b/1x1"
  type: "Convolution"
  bottom: "inception_4a/output"
  top: "inception_4b/1x1"
  param {
    lr_mult: 0
    decay_mult: 1
  }
  param {
    lr_mult: 2
    decay_mult: 0
  }
  convolution_param {
    num_output: 160
    kernel_size: 1
    weight_filler {
      type: "xavier"
    }
    bias_filler {
      type: "constant"
      value: 0.2
    }
  }
}
layer {
  name: "inception_4b/relu_1x1"
  type: "ReLU"
  bottom: "inception_4b/1x1"
  top: "inception_4b/1x1"
}
layer {
  name: "inception_4b/3x3_reduce"
  type: "Convolution"
  bottom: "inception_4a/output"
  top: "inception_4b/3x3_reduce"
  param {
    lr_mult: 0
    decay_mult: 1
  }
  param {
    lr_mult: 2
    decay_mult: 0
  }
  convolution_param {
    num_output: 112
    kernel_size: 1
    weight_filler {
      type: "xavier"
    }
    bias_filler {
      type: "constant"
      value: 0.2
    }
  }
}
layer {
  name: "inception_4b/relu_3x3_reduce"
  type: "ReLU"
  bottom: "inception_4b/3x3_reduce"
  top: "inception_4b/3x3_reduce"
}
layer {
  name: "inception_4b/3x3"
  type: "Convolution"
  bottom: "inception_4b/3x3_reduce"
  top: "inception_4b/3x3"
  param {
    lr_mult: 0
    decay_mult: 1
  }
  param {
    lr_mult: 2
    decay_mult: 0
  }
  convolution_param {
    num_output: 224
    pad: 1
    kernel_size: 3
    weight_filler {
      type: "xavier"
    }
    bias_filler {
      type: "constant"
      value: 0.2
    }
  }
}
layer {
  name: "inception_4b/relu_3x3"
  type: "ReLU"
  bottom: "inception_4b/3x3"
  top: "inception_4b/3x3"
}
layer {
  name: "inception_4b/5x5_reduce"
  type: "Convolution"
  bottom: "inception_4a/output"
  top: "inception_4b/5x5_reduce"
  param {
    lr_mult: 0
    decay_mult: 1
  }
  param {
    lr_mult: 2
    decay_mult: 0
  }
  convolution_param {
    num_output: 24
    kernel_size: 1
    weight_filler {
      type: "xavier"
    }
    bias_filler {
      type: "constant"
      value: 0.2
    }
  }
}
layer {
  name: "inception_4b/relu_5x5_reduce"
  type: "ReLU"
  bottom: "inception_4b/5x5_reduce"
  top: "inception_4b/5x5_reduce"
}
layer {
  name: "inception_4b/5x5"
  type: "Convolution"
  bottom: "inception_4b/5x5_reduce"
  top: "inception_4b/5x5"
  param {
    lr_mult: 0
    decay_mult: 1
  }
  param {
    lr_mult: 2
    decay_mult: 0
  }
  convolution_param {
    num_output: 64
    pad: 2
    kernel_size: 5
    weight_filler {
      type: "xavier"
    }
    bias_filler {
      type: "constant"
      value: 0.2
    }
  }
}
layer {
  name: "inception_4b/relu_5x5"
  type: "ReLU"
  bottom: "inception_4b/5x5"
  top: "inception_4b/5x5"
}
layer {
  name: "inception_4b/pool"
  type: "Pooling"
  bottom: "inception_4a/output"
  top: "inception_4b/pool"
  pooling_param {
    pool: MAX
    kernel_size: 3
    stride: 1
    pad: 1
  }
}
layer {
  name: "inception_4b/pool_proj"
  type: "Convolution"
  bottom: "inception_4b/pool"
  top: "inception_4b/pool_proj"
  param {
    lr_mult: 0
    decay_mult: 1
  }
  param {
    lr_mult: 2
    decay_mult: 0
  }
  convolution_param {
    num_output: 64
    kernel_size: 1
    weight_filler {
      type: "xavier"
    }
    bias_filler {
      type: "constant"
      value: 0.2
    }
  }
}
layer {
  name: "inception_4b/relu_pool_proj"
  type: "ReLU"
  bottom: "inception_4b/pool_proj"
  top: "inception_4b/pool_proj"
}
layer {
  name: "inception_4b/output"
  type: "Concat"
  bottom: "inception_4b/1x1"
  bottom: "inception_4b/3x3"
  bottom: "inception_4b/5x5"
  bottom: "inception_4b/pool_proj"
  top: "inception_4b/output"
}
layer {
  name: "inception_4c/1x1"
  type: "Convolution"
  bottom: "inception_4b/output"
  top: "inception_4c/1x1"
  param {
    lr_mult: 0
    decay_mult: 1
  }
  param {
    lr_mult: 2
    decay_mult: 0
  }
  convolution_param {
    num_output: 128
    kernel_size: 1
    weight_filler {
      type: "xavier"
    }
    bias_filler {
      type: "constant"
      value: 0.2
    }
  }
}
layer {
  name: "inception_4c/relu_1x1"
  type: "ReLU"
  bottom: "inception_4c/1x1"
  top: "inception_4c/1x1"
}
layer {
  name: "inception_4c/3x3_reduce"
  type: "Convolution"
  bottom: "inception_4b/output"
  top: "inception_4c/3x3_reduce"
  param {
    lr_mult: 0
    decay_mult: 1
  }
  param {
    lr_mult: 2
    decay_mult: 0
  }
  convolution_param {
    num_output: 128
    kernel_size: 1
    weight_filler {
      type: "xavier"
    }
    bias_filler {
      type: "constant"
      value: 0.2
    }
  }
}
layer {
  name: "inception_4c/relu_3x3_reduce"
  type: "ReLU"
  bottom: "inception_4c/3x3_reduce"
  top: "inception_4c/3x3_reduce"
}
layer {
  name: "inception_4c/3x3"
  type: "Convolution"
  bottom: "inception_4c/3x3_reduce"
  top: "inception_4c/3x3"
  param {
    lr_mult: 0
    decay_mult: 1
  }
  param {
    lr_mult: 2
    decay_mult: 0
  }
  convolution_param {
    num_output: 256
    pad: 1
    kernel_size: 3
    weight_filler {
      type: "xavier"
    }
    bias_filler {
      type: "constant"
      value: 0.2
    }
  }
}
layer {
  name: "inception_4c/relu_3x3"
  type: "ReLU"
  bottom: "inception_4c/3x3"
  top: "inception_4c/3x3"
}
layer {
  name: "inception_4c/5x5_reduce"
  type: "Convolution"
  bottom: "inception_4b/output"
  top: "inception_4c/5x5_reduce"
  param {
    lr_mult: 0
    decay_mult: 1
  }
  param {
    lr_mult: 2
    decay_mult: 0
  }
  convolution_param {
    num_output: 24
    kernel_size: 1
    weight_filler {
      type: "xavier"
    }
    bias_filler {
      type: "constant"
      value: 0.2
    }
  }
}
layer {
  name: "inception_4c/relu_5x5_reduce"
  type: "ReLU"
  bottom: "inception_4c/5x5_reduce"
  top: "inception_4c/5x5_reduce"
}
layer {
  name: "inception_4c/5x5"
  type: "Convolution"
  bottom: "inception_4c/5x5_reduce"
  top: "inception_4c/5x5"
  param {
    lr_mult: 0
    decay_mult: 1
  }
  param {
    lr_mult: 2
    decay_mult: 0
  }
  convolution_param {
    num_output: 64
    pad: 2
    kernel_size: 5
    weight_filler {
      type: "xavier"
    }
    bias_filler {
      type: "constant"
      value: 0.2
    }
  }
}
layer {
  name: "inception_4c/relu_5x5"
  type: "ReLU"
  bottom: "inception_4c/5x5"
  top: "inception_4c/5x5"
}
layer {
  name: "inception_4c/pool"
  type: "Pooling"
  bottom: "inception_4b/output"
  top: "inception_4c/pool"
  pooling_param {
    pool: MAX
    kernel_size: 3
    stride: 1
    pad: 1
  }
}
layer {
  name: "inception_4c/pool_proj"
  type: "Convolution"
  bottom: "inception_4c/pool"
  top: "inception_4c/pool_proj"
  param {
    lr_mult: 0
    decay_mult: 1
  }
  param {
    lr_mult: 2
    decay_mult: 0
  }
  convolution_param {
    num_output: 64
    kernel_size: 1
    weight_filler {
      type: "xavier"
    }
    bias_filler {
      type: "constant"
      value: 0.2
    }
  }
}
layer {
  name: "inception_4c/relu_pool_proj"
  type: "ReLU"
  bottom: "inception_4c/pool_proj"
  top: "inception_4c/pool_proj"
}
layer {
  name: "inception_4c/output"
  type: "Concat"
  bottom: "inception_4c/1x1"
  bottom: "inception_4c/3x3"
  bottom: "inception_4c/5x5"
  bottom: "inception_4c/pool_proj"
  top: "inception_4c/output"
}
layer {
  name: "inception_4d/1x1"
  type: "Convolution"
  bottom: "inception_4c/output"
  top: "inception_4d/1x1"
  param {
    lr_mult: 0
    decay_mult: 1
  }
  param {
    lr_mult: 2
    decay_mult: 0
  }
  convolution_param {
    num_output: 112
    kernel_size: 1
    weight_filler {
      type: "xavier"
    }
    bias_filler {
      type: "constant"
      value: 0.2
    }
  }
}
layer {
  name: "inception_4d/relu_1x1"
  type: "ReLU"
  bottom: "inception_4d/1x1"
  top: "inception_4d/1x1"
}
layer {
  name: "inception_4d/3x3_reduce"
  type: "Convolution"
  bottom: "inception_4c/output"
  top: "inception_4d/3x3_reduce"
  param {
    lr_mult: 0
    decay_mult: 1
  }
  param {
    lr_mult: 2
    decay_mult: 0
  }
  convolution_param {
    num_output: 144
    kernel_size: 1
    weight_filler {
      type: "xavier"
    }
    bias_filler {
      type: "constant"
      value: 0.2
    }
  }
}
layer {
  name: "inception_4d/relu_3x3_reduce"
  type: "ReLU"
  bottom: "inception_4d/3x3_reduce"
  top: "inception_4d/3x3_reduce"
}
layer {
  name: "inception_4d/3x3"
  type: "Convolution"
  bottom: "inception_4d/3x3_reduce"
  top: "inception_4d/3x3"
  param {
    lr_mult: 0
    decay_mult: 1
  }
  param {
    lr_mult: 2
    decay_mult: 0
  }
  convolution_param {
    num_output: 288
    pad: 1
    kernel_size: 3
    weight_filler {
      type: "xavier"
    }
    bias_filler {
      type: "constant"
      value: 0.2
    }
  }
}
layer {
  name: "inception_4d/relu_3x3"
  type: "ReLU"
  bottom: "inception_4d/3x3"
  top: "inception_4d/3x3"
}
layer {
  name: "inception_4d/5x5_reduce"
  type: "Convolution"
  bottom: "inception_4c/output"
  top: "inception_4d/5x5_reduce"
  param {
    lr_mult: 0
    decay_mult: 1
  }
  param {
    lr_mult: 2
    decay_mult: 0
  }
  convolution_param {
    num_output: 32
    kernel_size: 1
    weight_filler {
      type: "xavier"
    }
    bias_filler {
      type: "constant"
      value: 0.2
    }
  }
}
layer {
  name: "inception_4d/relu_5x5_reduce"
  type: "ReLU"
  bottom: "inception_4d/5x5_reduce"
  top: "inception_4d/5x5_reduce"
}
layer {
  name: "inception_4d/5x5"
  type: "Convolution"
  bottom: "inception_4d/5x5_reduce"
  top: "inception_4d/5x5"
  param {
    lr_mult: 0
    decay_mult: 1
  }
  param {
    lr_mult: 2
    decay_mult: 0
  }
  convolution_param {
    num_output: 64
    pad: 2
    kernel_size: 5
    weight_filler {
      type: "xavier"
    }
    bias_filler {
      type: "constant"
      value: 0.2
    }
  }
}
layer {
  name: "inception_4d/relu_5x5"
  type: "ReLU"
  bottom: "inception_4d/5x5"
  top: "inception_4d/5x5"
}
layer {
  name: "inception_4d/pool"
  type: "Pooling"
  bottom: "inception_4c/output"
  top: "inception_4d/pool"
  pooling_param {
    pool: MAX
    kernel_size: 3
    stride: 1
    pad: 1
  }
}
layer {
  name: "inception_4d/pool_proj"
  type: "Convolution"
  bottom: "inception_4d/pool"
  top: "inception_4d/pool_proj"
  param {
    lr_mult: 0
    decay_mult: 1
  }
  param {
    lr_mult: 2
    decay_mult: 0
  }
  convolution_param {
    num_output: 64
    kernel_size: 1
    weight_filler {
      type: "xavier"
    }
    bias_filler {
      type: "constant"
      value: 0.2
    }
  }
}
layer {
  name: "inception_4d/relu_pool_proj"
  type: "ReLU"
  bottom: "inception_4d/pool_proj"
  top: "inception_4d/pool_proj"
}
layer {
  name: "inception_4d/output"
  type: "Concat"
  bottom: "inception_4d/1x1"
  bottom: "inception_4d/3x3"
  bottom: "inception_4d/5x5"
  bottom: "inception_4d/pool_proj"
  top: "inception_4d/output"
}
layer {
  name: "inception_4e/1x1"
  type: "Convolution"
  bottom: "inception_4d/output"
  top: "inception_4e/1x1"
  param {
    lr_mult: 0
    decay_mult: 1
  }
  param {
    lr_mult: 2
    decay_mult: 0
  }
  convolution_param {
    num_output: 256
    kernel_size: 1
    weight_filler {
      type: "xavier"
    }
    bias_filler {
      type: "constant"
      value: 0.2
    }
  }
}
layer {
  name: "inception_4e/relu_1x1"
  type: "ReLU"
  bottom: "inception_4e/1x1"
  top: "inception_4e/1x1"
}
layer {
  name: "inception_4e/3x3_reduce"
  type: "Convolution"
  bottom: "inception_4d/output"
  top: "inception_4e/3x3_reduce"
  param {
    lr_mult: 0
    decay_mult: 1
  }
  param {
    lr_mult: 2
    decay_mult: 0
  }
  convolution_param {
    num_output: 160
    kernel_size: 1
    weight_filler {
      type: "xavier"
    }
    bias_filler {
      type: "constant"
      value: 0.2
    }
  }
}
layer {
  name: "inception_4e/relu_3x3_reduce"
  type: "ReLU"
  bottom: "inception_4e/3x3_reduce"
  top: "inception_4e/3x3_reduce"
}
layer {
  name: "inception_4e/3x3"
  type: "Convolution"
  bottom: "inception_4e/3x3_reduce"
  top: "inception_4e/3x3"
  param {
    lr_mult: 0
    decay_mult: 1
  }
  param {
    lr_mult: 2
    decay_mult: 0
  }
  convolution_param {
    num_output: 320
    pad: 1
    kernel_size: 3
    weight_filler {
      type: "xavier"
    }
    bias_filler {
      type: "constant"
      value: 0.2
    }
  }
}
layer {
  name: "inception_4e/relu_3x3"
  type: "ReLU"
  bottom: "inception_4e/3x3"
  top: "inception_4e/3x3"
}
layer {
  name: "inception_4e/5x5_reduce"
  type: "Convolution"
  bottom: "inception_4d/output"
  top: "inception_4e/5x5_reduce"
  param {
    lr_mult: 0
    decay_mult: 1
  }
  param {
    lr_mult: 2
    decay_mult: 0
  }
  convolution_param {
    num_output: 32
    kernel_size: 1
    weight_filler {
      type: "xavier"
    }
    bias_filler {
      type: "constant"
      value: 0.2
    }
  }
}
layer {
  name: "inception_4e/relu_5x5_reduce"
  type: "ReLU"
  bottom: "inception_4e/5x5_reduce"
  top: "inception_4e/5x5_reduce"
}
layer {
  name: "inception_4e/5x5"
  type: "Convolution"
  bottom: "inception_4e/5x5_reduce"
  top: "inception_4e/5x5"
  param {
    lr_mult: 0
    decay_mult: 1
  }
  param {
    lr_mult: 2
    decay_mult: 0
  }
  convolution_param {
    num_output: 128
    pad: 2
    kernel_size: 5
    weight_filler {
      type: "xavier"
    }
    bias_filler {
      type: "constant"
      value: 0.2
    }
  }
}
layer {
  name: "inception_4e/relu_5x5"
  type: "ReLU"
  bottom: "inception_4e/5x5"
  top: "inception_4e/5x5"
}
layer {
  name: "inception_4e/pool"
  type: "Pooling"
  bottom: "inception_4d/output"
  top: "inception_4e/pool"
  pooling_param {
    pool: MAX
    kernel_size: 3
    stride: 1
    pad: 1
  }
}
layer {
  name: "inception_4e/pool_proj"
  type: "Convolution"
  bottom: "inception_4e/pool"
  top: "inception_4e/pool_proj"
  param {
    lr_mult: 0
    decay_mult: 1
  }
  param {
    lr_mult: 2
    decay_mult: 0
  }
  convolution_param {
    num_output: 128
    kernel_size: 1
    weight_filler {
      type: "xavier"
    }
    bias_filler {
      type: "constant"
      value: 0.2
    }
  }
}
layer {
  name: "inception_4e/relu_pool_proj"
  type: "ReLU"
  bottom: "inception_4e/pool_proj"
  top: "inception_4e/pool_proj"
}
layer {
  name: "inception_4e/output"
  type: "Concat"
  bottom: "inception_4e/1x1"
  bottom: "inception_4e/3x3"
  bottom: "inception_4e/5x5"
  bottom: "inception_4e/pool_proj"
  top: "inception_4e/output"
}
layer {
  name: "pool4/3x3_s2"
  type: "Pooling"
  bottom: "inception_4e/output"
  top: "pool4/3x3_s2"
  pooling_param {
    pool: MAX
    kernel_size: 3
    stride: 2
  }
}
layer {
  name: "inception_5a/1x1"
  type: "Convolution"
  bottom: "pool4/3x3_s2"
  top: "inception_5a/1x1"
  param {
    lr_mult: 0
    decay_mult: 1
  }
  param {
    lr_mult: 2
    decay_mult: 0
  }
  convolution_param {
    num_output: 256
    kernel_size: 1
    weight_filler {
      type: "xavier"
    }
    bias_filler {
      type: "constant"
      value: 0.2
    }
  }
}
layer {
  name: "inception_5a/relu_1x1"
  type: "ReLU"
  bottom: "inception_5a/1x1"
  top: "inception_5a/1x1"
}
layer {
  name: "inception_5a/3x3_reduce"
  type: "Convolution"
  bottom: "pool4/3x3_s2"
  top: "inception_5a/3x3_reduce"
  param {
    lr_mult: 0
    decay_mult: 1
  }
  param {
    lr_mult: 2
    decay_mult: 0
  }
  convolution_param {
    num_output: 160
    kernel_size: 1
    weight_filler {
      type: "xavier"
    }
    bias_filler {
      type: "constant"
      value: 0.2
    }
  }
}
layer {
  name: "inception_5a/relu_3x3_reduce"
  type: "ReLU"
  bottom: "inception_5a/3x3_reduce"
  top: "inception_5a/3x3_reduce"
}
layer {
  name: "inception_5a/3x3"
  type: "Convolution"
  bottom: "inception_5a/3x3_reduce"
  top: "inception_5a/3x3"
  param {
    lr_mult: 0
    decay_mult: 1
  }
  param {
    lr_mult: 2
    decay_mult: 0
  }
  convolution_param {
    num_output: 320
    pad: 1
    kernel_size: 3
    weight_filler {
      type: "xavier"
    }
    bias_filler {
      type: "constant"
      value: 0.2
    }
  }
}
layer {
  name: "inception_5a/relu_3x3"
  type: "ReLU"
  bottom: "inception_5a/3x3"
  top: "inception_5a/3x3"
}
layer {
  name: "inception_5a/5x5_reduce"
  type: "Convolution"
  bottom: "pool4/3x3_s2"
  top: "inception_5a/5x5_reduce"
  param {
    lr_mult: 0
    decay_mult: 1
  }
  param {
    lr_mult: 2
    decay_mult: 0
  }
  convolution_param {
    num_output: 32
    kernel_size: 1
    weight_filler {
      type: "xavier"
    }
    bias_filler {
      type: "constant"
      value: 0.2
    }
  }
}
layer {
  name: "inception_5a/relu_5x5_reduce"
  type: "ReLU"
  bottom: "inception_5a/5x5_reduce"
  top: "inception_5a/5x5_reduce"
}
layer {
  name: "inception_5a/5x5"
  type: "Convolution"
  bottom: "inception_5a/5x5_reduce"
  top: "inception_5a/5x5"
  param {
    lr_mult: 0
    decay_mult: 1
  }
  param {
    lr_mult: 2
    decay_mult: 0
  }
  convolution_param {
    num_output: 128
    pad: 2
    kernel_size: 5
    weight_filler {
      type: "xavier"
    }
    bias_filler {
      type: "constant"
      value: 0.2
    }
  }
}
layer {
  name: "inception_5a/relu_5x5"
  type: "ReLU"
  bottom: 
I0718 14:29:20.613135 32986 layer_factory.hpp:76] Creating layer data
I0718 14:29:20.613203 32986 net.cpp:106] Creating Layer data
I0718 14:29:20.613217 32986 net.cpp:411] data -> data
I0718 14:29:20.613255 32986 net.cpp:411] data -> label
I0718 14:29:20.613732 32986 image_data_layer.cpp:36] Opening file ../lists/mitosis_train.lst
I0718 14:29:20.625679 32986 image_data_layer.cpp:46] Shuffling data
I0718 14:29:20.627468 32986 image_data_layer.cpp:51] A total of 21366 images.
I0718 14:29:20.777876 32986 image_data_layer.cpp:78] output data size: 4,3,1000,1000
I0718 14:29:20.917948 32986 net.cpp:150] Setting up data
I0718 14:29:20.918016 32986 net.cpp:157] Top shape: 4 3 1000 1000 (12000000)
I0718 14:29:20.918028 32986 net.cpp:157] Top shape: 4 (4)
I0718 14:29:20.918038 32986 net.cpp:165] Memory required for data: 48000016
I0718 14:29:20.918052 32986 layer_factory.hpp:76] Creating layer label_data_1_split
I0718 14:29:20.918076 32986 net.cpp:106] Creating Layer label_data_1_split
I0718 14:29:20.918088 32986 net.cpp:454] label_data_1_split <- label
I0718 14:29:20.918109 32986 net.cpp:411] label_data_1_split -> label_data_1_split_0
I0718 14:29:20.918128 32986 net.cpp:411] label_data_1_split -> label_data_1_split_1
I0718 14:29:20.918202 32986 net.cpp:150] Setting up label_data_1_split
I0718 14:29:20.918218 32986 net.cpp:157] Top shape: 4 (4)
I0718 14:29:20.918227 32986 net.cpp:157] Top shape: 4 (4)
I0718 14:29:20.918236 32986 net.cpp:165] Memory required for data: 48000048
I0718 14:29:20.918246 32986 layer_factory.hpp:76] Creating layer conv1/7x7_s2
I0718 14:29:20.918270 32986 net.cpp:106] Creating Layer conv1/7x7_s2
I0718 14:29:20.918283 32986 net.cpp:454] conv1/7x7_s2 <- data
I0718 14:29:20.918298 32986 net.cpp:411] conv1/7x7_s2 -> conv1/7x7_s2
I0718 14:29:21.269284 32986 net.cpp:150] Setting up conv1/7x7_s2
I0718 14:29:21.269346 32986 net.cpp:157] Top shape: 4 64 500 500 (64000000)
I0718 14:29:21.269356 32986 net.cpp:165] Memory required for data: 304000048
I0718 14:29:21.269387 32986 layer_factory.hpp:76] Creating layer conv1/relu_7x7
I0718 14:29:21.269409 32986 net.cpp:106] Creating Layer conv1/relu_7x7
I0718 14:29:21.269461 32986 net.cpp:454] conv1/relu_7x7 <- conv1/7x7_s2
I0718 14:29:21.269475 32986 net.cpp:397] conv1/relu_7x7 -> conv1/7x7_s2 (in-place)
I0718 14:29:21.270709 32986 net.cpp:150] Setting up conv1/relu_7x7
I0718 14:29:21.270735 32986 net.cpp:157] Top shape: 4 64 500 500 (64000000)
I0718 14:29:21.270745 32986 net.cpp:165] Memory required for data: 560000048
I0718 14:29:21.270766 32986 layer_factory.hpp:76] Creating layer pool1/3x3_s2
I0718 14:29:21.270783 32986 net.cpp:106] Creating Layer pool1/3x3_s2
I0718 14:29:21.270793 32986 net.cpp:454] pool1/3x3_s2 <- conv1/7x7_s2
I0718 14:29:21.270803 32986 net.cpp:411] pool1/3x3_s2 -> pool1/3x3_s2
I0718 14:29:21.273144 32986 net.cpp:150] Setting up pool1/3x3_s2
I0718 14:29:21.273169 32986 net.cpp:157] Top shape: 4 64 250 250 (16000000)
I0718 14:29:21.273177 32986 net.cpp:165] Memory required for data: 624000048
I0718 14:29:21.273186 32986 layer_factory.hpp:76] Creating layer pool1/norm1
I0718 14:29:21.273210 32986 net.cpp:106] Creating Layer pool1/norm1
I0718 14:29:21.273221 32986 net.cpp:454] pool1/norm1 <- pool1/3x3_s2
I0718 14:29:21.273234 32986 net.cpp:411] pool1/norm1 -> pool1/norm1
I0718 14:29:21.275578 32986 net.cpp:150] Setting up pool1/norm1
I0718 14:29:21.275604 32986 net.cpp:157] Top shape: 4 64 250 250 (16000000)
I0718 14:29:21.275612 32986 net.cpp:165] Memory required for data: 688000048
I0718 14:29:21.275621 32986 layer_factory.hpp:76] Creating layer conv2/3x3_reduce
I0718 14:29:21.275638 32986 net.cpp:106] Creating Layer conv2/3x3_reduce
I0718 14:29:21.275647 32986 net.cpp:454] conv2/3x3_reduce <- pool1/norm1
I0718 14:29:21.275661 32986 net.cpp:411] conv2/3x3_reduce -> conv2/3x3_reduce
I0718 14:29:21.282217 32986 cudnn_conv_layer.cpp:194] Reallocating workspace storage: 768
I0718 14:29:21.282277 32986 net.cpp:150] Setting up conv2/3x3_reduce
I0718 14:29:21.282294 32986 net.cpp:157] Top shape: 4 64 250 250 (16000000)
I0718 14:29:21.282305 32986 net.cpp:165] Memory required for data: 752000048
I0718 14:29:21.282323 32986 layer_factory.hpp:76] Creating layer conv2/relu_3x3_reduce
I0718 14:29:21.282341 32986 net.cpp:106] Creating Layer conv2/relu_3x3_reduce
I0718 14:29:21.282351 32986 net.cpp:454] conv2/relu_3x3_reduce <- conv2/3x3_reduce
I0718 14:29:21.282361 32986 net.cpp:397] conv2/relu_3x3_reduce -> conv2/3x3_reduce (in-place)
I0718 14:29:21.285495 32986 net.cpp:150] Setting up conv2/relu_3x3_reduce
I0718 14:29:21.285519 32986 net.cpp:157] Top shape: 4 64 250 250 (16000000)
I0718 14:29:21.285528 32986 net.cpp:165] Memory required for data: 816000048
I0718 14:29:21.285537 32986 layer_factory.hpp:76] Creating layer conv2/3x3
I0718 14:29:21.285557 32986 net.cpp:106] Creating Layer conv2/3x3
I0718 14:29:21.285565 32986 net.cpp:454] conv2/3x3 <- conv2/3x3_reduce
I0718 14:29:21.285583 32986 net.cpp:411] conv2/3x3 -> conv2/3x3
I0718 14:29:21.293540 32986 cudnn_conv_layer.cpp:194] Reallocating workspace storage: 6912
I0718 14:29:21.293874 32986 net.cpp:150] Setting up conv2/3x3
I0718 14:29:21.293901 32986 net.cpp:157] Top shape: 4 192 250 250 (48000000)
I0718 14:29:21.293911 32986 net.cpp:165] Memory required for data: 1008000048
I0718 14:29:21.293932 32986 layer_factory.hpp:76] Creating layer conv2/relu_3x3
I0718 14:29:21.293953 32986 net.cpp:106] Creating Layer conv2/relu_3x3
I0718 14:29:21.293967 32986 net.cpp:454] conv2/relu_3x3 <- conv2/3x3
I0718 14:29:21.293977 32986 net.cpp:397] conv2/relu_3x3 -> conv2/3x3 (in-place)
I0718 14:29:21.295653 32986 net.cpp:150] Setting up conv2/relu_3x3
I0718 14:29:21.295672 32986 net.cpp:157] Top shape: 4 192 250 250 (48000000)
I0718 14:29:21.295681 32986 net.cpp:165] Memory required for data: 1200000048
I0718 14:29:21.295689 32986 layer_factory.hpp:76] Creating layer conv2/norm2
I0718 14:29:21.295706 32986 net.cpp:106] Creating Layer conv2/norm2
I0718 14:29:21.295716 32986 net.cpp:454] conv2/norm2 <- conv2/3x3
I0718 14:29:21.295727 32986 net.cpp:411] conv2/norm2 -> conv2/norm2
I0718 14:29:21.299108 32986 net.cpp:150] Setting up conv2/norm2
I0718 14:29:21.299132 32986 net.cpp:157] Top shape: 4 192 250 250 (48000000)
I0718 14:29:21.299173 32986 net.cpp:165] Memory required for data: 1392000048
I0718 14:29:21.299183 32986 layer_factory.hpp:76] Creating layer pool2/3x3_s2
I0718 14:29:21.299201 32986 net.cpp:106] Creating Layer pool2/3x3_s2
I0718 14:29:21.299209 32986 net.cpp:454] pool2/3x3_s2 <- conv2/norm2
I0718 14:29:21.299219 32986 net.cpp:411] pool2/3x3_s2 -> pool2/3x3_s2
I0718 14:29:21.301758 32986 net.cpp:150] Setting up pool2/3x3_s2
I0718 14:29:21.301780 32986 net.cpp:157] Top shape: 4 192 125 125 (12000000)
I0718 14:29:21.301794 32986 net.cpp:165] Memory required for data: 1440000048
I0718 14:29:21.301802 32986 layer_factory.hpp:76] Creating layer pool2/3x3_s2_pool2/3x3_s2_0_split
I0718 14:29:21.301816 32986 net.cpp:106] Creating Layer pool2/3x3_s2_pool2/3x3_s2_0_split
I0718 14:29:21.301825 32986 net.cpp:454] pool2/3x3_s2_pool2/3x3_s2_0_split <- pool2/3x3_s2
I0718 14:29:21.301838 32986 net.cpp:411] pool2/3x3_s2_pool2/3x3_s2_0_split -> pool2/3x3_s2_pool2/3x3_s2_0_split_0
I0718 14:29:21.301851 32986 net.cpp:411] pool2/3x3_s2_pool2/3x3_s2_0_split -> pool2/3x3_s2_pool2/3x3_s2_0_split_1
I0718 14:29:21.301862 32986 net.cpp:411] pool2/3x3_s2_pool2/3x3_s2_0_split -> pool2/3x3_s2_pool2/3x3_s2_0_split_2
I0718 14:29:21.301872 32986 net.cpp:411] pool2/3x3_s2_pool2/3x3_s2_0_split -> pool2/3x3_s2_pool2/3x3_s2_0_split_3
I0718 14:29:21.301934 32986 net.cpp:150] Setting up pool2/3x3_s2_pool2/3x3_s2_0_split
I0718 14:29:21.301946 32986 net.cpp:157] Top shape: 4 192 125 125 (12000000)
I0718 14:29:21.301955 32986 net.cpp:157] Top shape: 4 192 125 125 (12000000)
I0718 14:29:21.301969 32986 net.cpp:157] Top shape: 4 192 125 125 (12000000)
I0718 14:29:21.301976 32986 net.cpp:157] Top shape: 4 192 125 125 (12000000)
I0718 14:29:21.301985 32986 net.cpp:165] Memory required for data: 1632000048
I0718 14:29:21.301995 32986 layer_factory.hpp:76] Creating layer inception_3a/1x1
I0718 14:29:21.302022 32986 net.cpp:106] Creating Layer inception_3a/1x1
I0718 14:29:21.302039 32986 net.cpp:454] inception_3a/1x1 <- pool2/3x3_s2_pool2/3x3_s2_0_split_0
I0718 14:29:21.302050 32986 net.cpp:411] inception_3a/1x1 -> inception_3a/1x1
I0718 14:29:21.309278 32986 net.cpp:150] Setting up inception_3a/1x1
I0718 14:29:21.309366 32986 net.cpp:157] Top shape: 4 64 125 125 (4000000)
I0718 14:29:21.309377 32986 net.cpp:165] Memory required for data: 1648000048
I0718 14:29:21.309396 32986 layer_factory.hpp:76] Creating layer inception_3a/relu_1x1
I0718 14:29:21.309417 32986 net.cpp:106] Creating Layer inception_3a/relu_1x1
I0718 14:29:21.309429 32986 net.cpp:454] inception_3a/relu_1x1 <- inception_3a/1x1
I0718 14:29:21.309447 32986 net.cpp:397] inception_3a/relu_1x1 -> inception_3a/1x1 (in-place)
I0718 14:29:21.311453 32986 net.cpp:150] Setting up inception_3a/relu_1x1
I0718 14:29:21.311535 32986 net.cpp:157] Top shape: 4 64 125 125 (4000000)
I0718 14:29:21.311547 32986 net.cpp:165] Memory required for data: 1664000048
I0718 14:29:21.311558 32986 layer_factory.hpp:76] Creating layer inception_3a/3x3_reduce
I0718 14:29:21.311588 32986 net.cpp:106] Creating Layer inception_3a/3x3_reduce
I0718 14:29:21.311599 32986 net.cpp:454] inception_3a/3x3_reduce <- pool2/3x3_s2_pool2/3x3_s2_0_split_1
I0718 14:29:21.311616 32986 net.cpp:411] inception_3a/3x3_reduce -> inception_3a/3x3_reduce
I0718 14:29:21.318053 32986 cudnn_conv_layer.cpp:194] Reallocating workspace storage: 2304
I0718 14:29:21.318617 32986 net.cpp:150] Setting up inception_3a/3x3_reduce
I0718 14:29:21.318665 32986 net.cpp:157] Top shape: 4 96 125 125 (6000000)
I0718 14:29:21.318675 32986 net.cpp:165] Memory required for data: 1688000048
I0718 14:29:21.318707 32986 layer_factory.hpp:76] Creating layer inception_3a/relu_3x3_reduce
I0718 14:29:21.318732 32986 net.cpp:106] Creating Layer inception_3a/relu_3x3_reduce
I0718 14:29:21.318749 32986 net.cpp:454] inception_3a/relu_3x3_reduce <- inception_3a/3x3_reduce
I0718 14:29:21.318764 32986 net.cpp:397] inception_3a/relu_3x3_reduce -> inception_3a/3x3_reduce (in-place)
I0718 14:29:21.320019 32986 net.cpp:150] Setting up inception_3a/relu_3x3_reduce
I0718 14:29:21.320068 32986 net.cpp:157] Top shape: 4 96 125 125 (6000000)
I0718 14:29:21.320122 32986 net.cpp:165] Memory required for data: 1712000048
I0718 14:29:21.320135 32986 layer_factory.hpp:76] Creating layer inception_3a/3x3
I0718 14:29:21.320159 32986 net.cpp:106] Creating Layer inception_3a/3x3
I0718 14:29:21.320171 32986 net.cpp:454] inception_3a/3x3 <- inception_3a/3x3_reduce
I0718 14:29:21.320188 32986 net.cpp:411] inception_3a/3x3 -> inception_3a/3x3
I0718 14:29:21.326988 32986 cudnn_conv_layer.cpp:194] Reallocating workspace storage: 10368
I0718 14:29:21.327060 32986 net.cpp:150] Setting up inception_3a/3x3
I0718 14:29:21.327083 32986 net.cpp:157] Top shape: 4 128 125 125 (8000000)
I0718 14:29:21.327095 32986 net.cpp:165] Memory required for data: 1744000048
I0718 14:29:21.327111 32986 layer_factory.hpp:76] Creating layer inception_3a/relu_3x3
I0718 14:29:21.327128 32986 net.cpp:106] Creating Layer inception_3a/relu_3x3
I0718 14:29:21.327138 32986 net.cpp:454] inception_3a/relu_3x3 <- inception_3a/3x3
I0718 14:29:21.327150 32986 net.cpp:397] inception_3a/relu_3x3 -> inception_3a/3x3 (in-place)
I0718 14:29:21.328728 32986 net.cpp:150] Setting up inception_3a/relu_3x3
I0718 14:29:21.328757 32986 net.cpp:157] Top shape: 4 128 125 125 (8000000)
I0718 14:29:21.328764 32986 net.cpp:165] Memory required for data: 1776000048
I0718 14:29:21.328774 32986 layer_factory.hpp:76] Creating layer inception_3a/5x5_reduce
I0718 14:29:21.328794 32986 net.cpp:106] Creating Layer inception_3a/5x5_reduce
I0718 14:29:21.328805 32986 net.cpp:454] inception_3a/5x5_reduce <- pool2/3x3_s2_pool2/3x3_s2_0_split_2
I0718 14:29:21.328817 32986 net.cpp:411] inception_3a/5x5_reduce -> inception_3a/5x5_reduce
I0718 14:29:21.335317 32986 net.cpp:150] Setting up inception_3a/5x5_reduce
I0718 14:29:21.335355 32986 net.cpp:157] Top shape: 4 16 125 125 (1000000)
I0718 14:29:21.335363 32986 net.cpp:165] Memory required for data: 1780000048
I0718 14:29:21.335378 32986 layer_factory.hpp:76] Creating layer inception_3a/relu_5x5_reduce
I0718 14:29:21.335394 32986 net.cpp:106] Creating Layer inception_3a/relu_5x5_reduce
I0718 14:29:21.335404 32986 net.cpp:454] inception_3a/relu_5x5_reduce <- inception_3a/5x5_reduce
I0718 14:29:21.335424 32986 net.cpp:397] inception_3a/relu_5x5_reduce -> inception_3a/5x5_reduce (in-place)
I0718 14:29:21.337280 32986 net.cpp:150] Setting up inception_3a/relu_5x5_reduce
I0718 14:29:21.337301 32986 net.cpp:157] Top shape: 4 16 125 125 (1000000)
I0718 14:29:21.337316 32986 net.cpp:165] Memory required for data: 1784000048
I0718 14:29:21.337326 32986 layer_factory.hpp:76] Creating layer inception_3a/5x5
I0718 14:29:21.337343 32986 net.cpp:106] Creating Layer inception_3a/5x5
I0718 14:29:21.337353 32986 net.cpp:454] inception_3a/5x5 <- inception_3a/5x5_reduce
I0718 14:29:21.337368 32986 net.cpp:411] inception_3a/5x5 -> inception_3a/5x5
I0718 14:29:21.344535 32986 net.cpp:150] Setting up inception_3a/5x5
I0718 14:29:21.344585 32986 net.cpp:157] Top shape: 4 32 125 125 (2000000)
I0718 14:29:21.344595 32986 net.cpp:165] Memory required for data: 1792000048
I0718 14:29:21.344612 32986 layer_factory.hpp:76] Creating layer inception_3a/relu_5x5
I0718 14:29:21.344630 32986 net.cpp:106] Creating Layer inception_3a/relu_5x5
I0718 14:29:21.344640 32986 net.cpp:454] inception_3a/relu_5x5 <- inception_3a/5x5
I0718 14:29:21.344655 32986 net.cpp:397] inception_3a/relu_5x5 -> inception_3a/5x5 (in-place)
I0718 14:29:21.346767 32986 net.cpp:150] Setting up inception_3a/relu_5x5
I0718 14:29:21.346804 32986 net.cpp:157] Top shape: 4 32 125 125 (2000000)
I0718 14:29:21.346814 32986 net.cpp:165] Memory required for data: 1800000048
I0718 14:29:21.346824 32986 layer_factory.hpp:76] Creating layer inception_3a/pool
I0718 14:29:21.346840 32986 net.cpp:106] Creating Layer inception_3a/pool
I0718 14:29:21.346850 32986 net.cpp:454] inception_3a/pool <- pool2/3x3_s2_pool2/3x3_s2_0_split_3
I0718 14:29:21.346865 32986 net.cpp:411] inception_3a/pool -> inception_3a/pool
I0718 14:29:21.348090 32986 net.cpp:150] Setting up inception_3a/pool
I0718 14:29:21.348112 32986 net.cpp:157] Top shape: 4 192 125 125 (12000000)
I0718 14:29:21.348157 32986 net.cpp:165] Memory required for data: 1848000048
I0718 14:29:21.348167 32986 layer_factory.hpp:76] Creating layer inception_3a/pool_proj
I0718 14:29:21.348186 32986 net.cpp:106] Creating Layer inception_3a/pool_proj
I0718 14:29:21.348196 32986 net.cpp:454] inception_3a/pool_proj <- inception_3a/pool
I0718 14:29:21.348208 32986 net.cpp:411] inception_3a/pool_proj -> inception_3a/pool_proj
I0718 14:29:21.354584 32986 net.cpp:150] Setting up inception_3a/pool_proj
I0718 14:29:21.354656 32986 net.cpp:157] Top shape: 4 32 125 125 (2000000)
I0718 14:29:21.354667 32986 net.cpp:165] Memory required for data: 1856000048
I0718 14:29:21.354691 32986 layer_factory.hpp:76] Creating layer inception_3a/relu_pool_proj
I0718 14:29:21.354709 32986 net.cpp:106] Creating Layer inception_3a/relu_pool_proj
I0718 14:29:21.354719 32986 net.cpp:454] inception_3a/relu_pool_proj <- inception_3a/pool_proj
I0718 14:29:21.354738 32986 net.cpp:397] inception_3a/relu_pool_proj -> inception_3a/pool_proj (in-place)
I0718 14:29:21.356446 32986 net.cpp:150] Setting up inception_3a/relu_pool_proj
I0718 14:29:21.356475 32986 net.cpp:157] Top shape: 4 32 125 125 (2000000)
I0718 14:29:21.356483 32986 net.cpp:165] Memory required for data: 1864000048
I0718 14:29:21.356493 32986 layer_factory.hpp:76] Creating layer inception_3a/output
I0718 14:29:21.356520 32986 net.cpp:106] Creating Layer inception_3a/output
I0718 14:29:21.356530 32986 net.cpp:454] inception_3a/output <- inception_3a/1x1
I0718 14:29:21.356544 32986 net.cpp:454] inception_3a/output <- inception_3a/3x3
I0718 14:29:21.356554 32986 net.cpp:454] inception_3a/output <- inception_3a/5x5
I0718 14:29:21.356562 32986 net.cpp:454] inception_3a/output <- inception_3a/pool_proj
I0718 14:29:21.356572 32986 net.cpp:411] inception_3a/output -> inception_3a/output
I0718 14:29:21.356619 32986 net.cpp:150] Setting up inception_3a/output
I0718 14:29:21.356632 32986 net.cpp:157] Top shape: 4 256 125 125 (16000000)
I0718 14:29:21.356640 32986 net.cpp:165] Memory required for data: 1928000048
I0718 14:29:21.356648 32986 layer_factory.hpp:76] Creating layer inception_3a/output_inception_3a/output_0_split
I0718 14:29:21.356660 32986 net.cpp:106] Creating Layer inception_3a/output_inception_3a/output_0_split
I0718 14:29:21.356669 32986 net.cpp:454] inception_3a/output_inception_3a/output_0_split <- inception_3a/output
I0718 14:29:21.356681 32986 net.cpp:411] inception_3a/output_inception_3a/output_0_split -> inception_3a/output_inception_3a/output_0_split_0
I0718 14:29:21.356693 32986 net.cpp:411] inception_3a/output_inception_3a/output_0_split -> inception_3a/output_inception_3a/output_0_split_1
I0718 14:29:21.356708 32986 net.cpp:411] inception_3a/output_inception_3a/output_0_split -> inception_3a/output_inception_3a/output_0_split_2
I0718 14:29:21.356719 32986 net.cpp:411] inception_3a/output_inception_3a/output_0_split -> inception_3a/output_inception_3a/output_0_split_3
I0718 14:29:21.356787 32986 net.cpp:150] Setting up inception_3a/output_inception_3a/output_0_split
I0718 14:29:21.356802 32986 net.cpp:157] Top shape: 4 256 125 125 (16000000)
I0718 14:29:21.356812 32986 net.cpp:157] Top shape: 4 256 125 125 (16000000)
I0718 14:29:21.356820 32986 net.cpp:157] Top shape: 4 256 125 125 (16000000)
I0718 14:29:21.356842 32986 net.cpp:157] Top shape: 4 256 125 125 (16000000)
I0718 14:29:21.356849 32986 net.cpp:165] Memory required for data: 2184000048
I0718 14:29:21.356858 32986 layer_factory.hpp:76] Creating layer inception_3b/1x1
I0718 14:29:21.356878 32986 net.cpp:106] Creating Layer inception_3b/1x1
I0718 14:29:21.356885 32986 net.cpp:454] inception_3b/1x1 <- inception_3a/output_inception_3a/output_0_split_0
I0718 14:29:21.356897 32986 net.cpp:411] inception_3b/1x1 -> inception_3b/1x1
I0718 14:29:21.364215 32986 cudnn_conv_layer.cpp:194] Reallocating workspace storage: 3072
I0718 14:29:21.364295 32986 net.cpp:150] Setting up inception_3b/1x1
I0718 14:29:21.364315 32986 net.cpp:157] Top shape: 4 128 125 125 (8000000)
I0718 14:29:21.364327 32986 net.cpp:165] Memory required for data: 2216000048
I0718 14:29:21.364382 32986 layer_factory.hpp:76] Creating layer inception_3b/relu_1x1
I0718 14:29:21.364400 32986 net.cpp:106] Creating Layer inception_3b/relu_1x1
I0718 14:29:21.364411 32986 net.cpp:454] inception_3b/relu_1x1 <- inception_3b/1x1
I0718 14:29:21.364428 32986 net.cpp:397] inception_3b/relu_1x1 -> inception_3b/1x1 (in-place)
I0718 14:29:21.367372 32986 net.cpp:150] Setting up inception_3b/relu_1x1
I0718 14:29:21.367398 32986 net.cpp:157] Top shape: 4 128 125 125 (8000000)
I0718 14:29:21.367408 32986 net.cpp:165] Memory required for data: 2248000048
I0718 14:29:21.367419 32986 layer_factory.hpp:76] Creating layer inception_3b/3x3_reduce
I0718 14:29:21.367439 32986 net.cpp:106] Creating Layer inception_3b/3x3_reduce
I0718 14:29:21.367449 32986 net.cpp:454] inception_3b/3x3_reduce <- inception_3a/output_inception_3a/output_0_split_1
I0718 14:29:21.367462 32986 net.cpp:411] inception_3b/3x3_reduce -> inception_3b/3x3_reduce
I0718 14:29:21.376265 32986 cudnn_conv_layer.cpp:194] Reallocating workspace storage: 3072
I0718 14:29:21.376341 32986 net.cpp:150] Setting up inception_3b/3x3_reduce
I0718 14:29:21.376368 32986 net.cpp:157] Top shape: 4 128 125 125 (8000000)
I0718 14:29:21.376377 32986 net.cpp:165] Memory required for data: 2280000048
I0718 14:29:21.376394 32986 layer_factory.hpp:76] Creating layer inception_3b/relu_3x3_reduce
I0718 14:29:21.376413 32986 net.cpp:106] Creating Layer inception_3b/relu_3x3_reduce
I0718 14:29:21.376425 32986 net.cpp:454] inception_3b/relu_3x3_reduce <- inception_3b/3x3_reduce
I0718 14:29:21.376437 32986 net.cpp:397] inception_3b/relu_3x3_reduce -> inception_3b/3x3_reduce (in-place)
I0718 14:29:21.378547 32986 net.cpp:150] Setting up inception_3b/relu_3x3_reduce
I0718 14:29:21.378569 32986 net.cpp:157] Top shape: 4 128 125 125 (8000000)
I0718 14:29:21.378578 32986 net.cpp:165] Memory required for data: 2312000048
I0718 14:29:21.378587 32986 layer_factory.hpp:76] Creating layer inception_3b/3x3
I0718 14:29:21.378612 32986 net.cpp:106] Creating Layer inception_3b/3x3
I0718 14:29:21.378620 32986 net.cpp:454] inception_3b/3x3 <- inception_3b/3x3_reduce
I0718 14:29:21.378639 32986 net.cpp:411] inception_3b/3x3 -> inception_3b/3x3
I0718 14:29:21.386075 32986 cudnn_conv_layer.cpp:194] Reallocating workspace storage: 13824
I0718 14:29:21.386145 32986 net.cpp:150] Setting up inception_3b/3x3
I0718 14:29:21.386164 32986 net.cpp:157] Top shape: 4 192 125 125 (12000000)
I0718 14:29:21.386173 32986 net.cpp:165] Memory required for data: 2360000048
I0718 14:29:21.386188 32986 layer_factory.hpp:76] Creating layer inception_3b/relu_3x3
I0718 14:29:21.386212 32986 net.cpp:106] Creating Layer inception_3b/relu_3x3
I0718 14:29:21.386224 32986 net.cpp:454] inception_3b/relu_3x3 <- inception_3b/3x3
I0718 14:29:21.386240 32986 net.cpp:397] inception_3b/relu_3x3 -> inception_3b/3x3 (in-place)
I0718 14:29:21.388356 32986 net.cpp:150] Setting up inception_3b/relu_3x3
I0718 14:29:21.388383 32986 net.cpp:157] Top shape: 4 192 125 125 (12000000)
I0718 14:29:21.388392 32986 net.cpp:165] Memory required for data: 2408000048
I0718 14:29:21.388403 32986 layer_factory.hpp:76] Creating layer inception_3b/5x5_reduce
I0718 14:29:21.388424 32986 net.cpp:106] Creating Layer inception_3b/5x5_reduce
I0718 14:29:21.388435 32986 net.cpp:454] inception_3b/5x5_reduce <- inception_3a/output_inception_3a/output_0_split_2
I0718 14:29:21.388451 32986 net.cpp:411] inception_3b/5x5_reduce -> inception_3b/5x5_reduce
I0718 14:29:21.396854 32986 cudnn_conv_layer.cpp:194] Reallocating workspace storage: 3072
I0718 14:29:21.396924 32986 net.cpp:150] Setting up inception_3b/5x5_reduce
I0718 14:29:21.396944 32986 net.cpp:157] Top shape: 4 32 125 125 (2000000)
I0718 14:29:21.396952 32986 net.cpp:165] Memory required for data: 2416000048
I0718 14:29:21.396970 32986 layer_factory.hpp:76] Creating layer inception_3b/relu_5x5_reduce
I0718 14:29:21.396988 32986 net.cpp:106] Creating Layer inception_3b/relu_5x5_reduce
I0718 14:29:21.397001 32986 net.cpp:454] inception_3b/relu_5x5_reduce <- inception_3b/5x5_reduce
I0718 14:29:21.397045 32986 net.cpp:397] inception_3b/relu_5x5_reduce -> inception_3b/5x5_reduce (in-place)
I0718 14:29:21.398092 32986 net.cpp:150] Setting up inception_3b/relu_5x5_reduce
I0718 14:29:21.398123 32986 net.cpp:157] Top shape: 4 32 125 125 (2000000)
I0718 14:29:21.398138 32986 net.cpp:165] Memory required for data: 2424000048
I0718 14:29:21.398149 32986 layer_factory.hpp:76] Creating layer inception_3b/5x5
I0718 14:29:21.398167 32986 net.cpp:106] Creating Layer inception_3b/5x5
I0718 14:29:21.398178 32986 net.cpp:454] inception_3b/5x5 <- inception_3b/5x5_reduce
I0718 14:29:21.398193 32986 net.cpp:411] inception_3b/5x5 -> inception_3b/5x5
I0718 14:29:21.407768 32986 net.cpp:150] Setting up inception_3b/5x5
I0718 14:29:21.407827 32986 net.cpp:157] Top shape: 4 96 125 125 (6000000)
I0718 14:29:21.407838 32986 net.cpp:165] Memory required for data: 2448000048
I0718 14:29:21.407861 32986 layer_factory.hpp:76] Creating layer inception_3b/relu_5x5
I0718 14:29:21.407882 32986 net.cpp:106] Creating Layer inception_3b/relu_5x5
I0718 14:29:21.407896 32986 net.cpp:454] inception_3b/relu_5x5 <- inception_3b/5x5
I0718 14:29:21.407907 32986 net.cpp:397] inception_3b/relu_5x5 -> inception_3b/5x5 (in-place)
I0718 14:29:21.408823 32986 net.cpp:150] Setting up inception_3b/relu_5x5
I0718 14:29:21.408850 32986 net.cpp:157] Top shape: 4 96 125 125 (6000000)
I0718 14:29:21.408859 32986 net.cpp:165] Memory required for data: 2472000048
I0718 14:29:21.408870 32986 layer_factory.hpp:76] Creating layer inception_3b/pool
I0718 14:29:21.408885 32986 net.cpp:106] Creating Layer inception_3b/pool
I0718 14:29:21.408895 32986 net.cpp:454] inception_3b/pool <- inception_3a/output_inception_3a/output_0_split_3
I0718 14:29:21.408920 32986 net.cpp:411] inception_3b/pool -> inception_3b/pool
I0718 14:29:21.411291 32986 net.cpp:150] Setting up inception_3b/pool
I0718 14:29:21.411357 32986 net.cpp:157] Top shape: 4 256 125 125 (16000000)
I0718 14:29:21.411368 32986 net.cpp:165] Memory required for data: 2536000048
I0718 14:29:21.411382 32986 layer_factory.hpp:76] Creating layer inception_3b/pool_proj
I0718 14:29:21.411408 32986 net.cpp:106] Creating Layer inception_3b/pool_proj
I0718 14:29:21.411427 32986 net.cpp:454] inception_3b/pool_proj <- inception_3b/pool
I0718 14:29:21.411443 32986 net.cpp:411] inception_3b/pool_proj -> inception_3b/pool_proj
I0718 14:29:21.417805 32986 cudnn_conv_layer.cpp:194] Reallocating workspace storage: 3072
I0718 14:29:21.417887 32986 net.cpp:150] Setting up inception_3b/pool_proj
I0718 14:29:21.417912 32986 net.cpp:157] Top shape: 4 64 125 125 (4000000)
I0718 14:29:21.417919 32986 net.cpp:165] Memory required for data: 2552000048
I0718 14:29:21.417937 32986 layer_factory.hpp:76] Creating layer inception_3b/relu_pool_proj
I0718 14:29:21.417956 32986 net.cpp:106] Creating Layer inception_3b/relu_pool_proj
I0718 14:29:21.417968 32986 net.cpp:454] inception_3b/relu_pool_proj <- inception_3b/pool_proj
I0718 14:29:21.417984 32986 net.cpp:397] inception_3b/relu_pool_proj -> inception_3b/pool_proj (in-place)
I0718 14:29:21.420019 32986 net.cpp:150] Setting up inception_3b/relu_pool_proj
I0718 14:29:21.420083 32986 net.cpp:157] Top shape: 4 64 125 125 (4000000)
I0718 14:29:21.420094 32986 net.cpp:165] Memory required for data: 2568000048
I0718 14:29:21.420107 32986 layer_factory.hpp:76] Creating layer inception_3b/output
I0718 14:29:21.420126 32986 net.cpp:106] Creating Layer inception_3b/output
I0718 14:29:21.420138 32986 net.cpp:454] inception_3b/output <- inception_3b/1x1
I0718 14:29:21.420152 32986 net.cpp:454] inception_3b/output <- inception_3b/3x3
I0718 14:29:21.420163 32986 net.cpp:454] inception_3b/output <- inception_3b/5x5
I0718 14:29:21.420173 32986 net.cpp:454] inception_3b/output <- inception_3b/pool_proj
I0718 14:29:21.420183 32986 net.cpp:411] inception_3b/output -> inception_3b/output
I0718 14:29:21.420269 32986 net.cpp:150] Setting up inception_3b/output
I0718 14:29:21.420287 32986 net.cpp:157] Top shape: 4 480 125 125 (30000000)
I0718 14:29:21.420295 32986 net.cpp:165] Memory required for data: 2688000048
I0718 14:29:21.420349 32986 layer_factory.hpp:76] Creating layer pool3/3x3_s2
I0718 14:29:21.420368 32986 net.cpp:106] Creating Layer pool3/3x3_s2
I0718 14:29:21.420378 32986 net.cpp:454] pool3/3x3_s2 <- inception_3b/output
I0718 14:29:21.420389 32986 net.cpp:411] pool3/3x3_s2 -> pool3/3x3_s2
I0718 14:29:21.422406 32986 net.cpp:150] Setting up pool3/3x3_s2
I0718 14:29:21.422466 32986 net.cpp:157] Top shape: 4 480 62 62 (7380480)
I0718 14:29:21.422477 32986 net.cpp:165] Memory required for data: 2717521968
I0718 14:29:21.422489 32986 layer_factory.hpp:76] Creating layer pool3/3x3_s2_pool3/3x3_s2_0_split
I0718 14:29:21.422508 32986 net.cpp:106] Creating Layer pool3/3x3_s2_pool3/3x3_s2_0_split
I0718 14:29:21.422520 32986 net.cpp:454] pool3/3x3_s2_pool3/3x3_s2_0_split <- pool3/3x3_s2
I0718 14:29:21.422533 32986 net.cpp:411] pool3/3x3_s2_pool3/3x3_s2_0_split -> pool3/3x3_s2_pool3/3x3_s2_0_split_0
I0718 14:29:21.422549 32986 net.cpp:411] pool3/3x3_s2_pool3/3x3_s2_0_split -> pool3/3x3_s2_pool3/3x3_s2_0_split_1
I0718 14:29:21.422560 32986 net.cpp:411] pool3/3x3_s2_pool3/3x3_s2_0_split -> pool3/3x3_s2_pool3/3x3_s2_0_split_2
I0718 14:29:21.422571 32986 net.cpp:411] pool3/3x3_s2_pool3/3x3_s2_0_split -> pool3/3x3_s2_pool3/3x3_s2_0_split_3
I0718 14:29:21.422664 32986 net.cpp:150] Setting up pool3/3x3_s2_pool3/3x3_s2_0_split
I0718 14:29:21.422679 32986 net.cpp:157] Top shape: 4 480 62 62 (7380480)
I0718 14:29:21.422689 32986 net.cpp:157] Top shape: 4 480 62 62 (7380480)
I0718 14:29:21.422698 32986 net.cpp:157] Top shape: 4 480 62 62 (7380480)
I0718 14:29:21.422706 32986 net.cpp:157] Top shape: 4 480 62 62 (7380480)
I0718 14:29:21.422715 32986 net.cpp:165] Memory required for data: 2835609648
I0718 14:29:21.422724 32986 layer_factory.hpp:76] Creating layer inception_4a/1x1
I0718 14:29:21.422744 32986 net.cpp:106] Creating Layer inception_4a/1x1
I0718 14:29:21.422754 32986 net.cpp:454] inception_4a/1x1 <- pool3/3x3_s2_pool3/3x3_s2_0_split_0
I0718 14:29:21.422766 32986 net.cpp:411] inception_4a/1x1 -> inception_4a/1x1
I0718 14:29:21.428623 32986 cudnn_conv_layer.cpp:194] Reallocating workspace storage: 5760
I0718 14:29:21.428686 32986 net.cpp:150] Setting up inception_4a/1x1
I0718 14:29:21.428704 32986 net.cpp:157] Top shape: 4 192 62 62 (2952192)
I0718 14:29:21.428714 32986 net.cpp:165] Memory required for data: 2847418416
I0718 14:29:21.428731 32986 layer_factory.hpp:76] Creating layer inception_4a/relu_1x1
I0718 14:29:21.428752 32986 net.cpp:106] Creating Layer inception_4a/relu_1x1
I0718 14:29:21.428764 32986 net.cpp:454] inception_4a/relu_1x1 <- inception_4a/1x1
I0718 14:29:21.428777 32986 net.cpp:397] inception_4a/relu_1x1 -> inception_4a/1x1 (in-place)
I0718 14:29:21.430932 32986 net.cpp:150] Setting up inception_4a/relu_1x1
I0718 14:29:21.430976 32986 net.cpp:157] Top shape: 4 192 62 62 (2952192)
I0718 14:29:21.430986 32986 net.cpp:165] Memory required for data: 2859227184
I0718 14:29:21.430999 32986 layer_factory.hpp:76] Creating layer inception_4a/3x3_reduce
I0718 14:29:21.431025 32986 net.cpp:106] Creating Layer inception_4a/3x3_reduce
I0718 14:29:21.431037 32986 net.cpp:454] inception_4a/3x3_reduce <- pool3/3x3_s2_pool3/3x3_s2_0_split_1
I0718 14:29:21.431054 32986 net.cpp:411] inception_4a/3x3_reduce -> inception_4a/3x3_reduce
I0718 14:29:21.438392 32986 cudnn_conv_layer.cpp:194] Reallocating workspace storage: 5760
I0718 14:29:21.438465 32986 net.cpp:150] Setting up inception_4a/3x3_reduce
I0718 14:29:21.438488 32986 net.cpp:157] Top shape: 4 96 62 62 (1476096)
I0718 14:29:21.438496 32986 net.cpp:165] Memory required for data: 2865131568
I0718 14:29:21.438524 32986 layer_factory.hpp:76] Creating layer inception_4a/relu_3x3_reduce
I0718 14:29:21.438544 32986 net.cpp:106] Creating Layer inception_4a/relu_3x3_reduce
I0718 14:29:21.438556 32986 net.cpp:454] inception_4a/relu_3x3_reduce <- inception_4a/3x3_reduce
I0718 14:29:21.438568 32986 net.cpp:397] inception_4a/relu_3x3_reduce -> inception_4a/3x3_reduce (in-place)
I0718 14:29:21.440706 32986 net.cpp:150] Setting up inception_4a/relu_3x3_reduce
I0718 14:29:21.440791 32986 net.cpp:157] Top shape: 4 96 62 62 (1476096)
I0718 14:29:21.440801 32986 net.cpp:165] Memory required for data: 2871035952
I0718 14:29:21.440814 32986 layer_factory.hpp:76] Creating layer inception_4a/3x3
I0718 14:29:21.440840 32986 net.cpp:106] Creating Layer inception_4a/3x3
I0718 14:29:21.440855 32986 net.cpp:454] inception_4a/3x3 <- inception_4a/3x3_reduce
I0718 14:29:21.440871 32986 net.cpp:411] inception_4a/3x3 -> inception_4a/3x3
I0718 14:29:21.448165 32986 net.cpp:150] Setting up inception_4a/3x3
I0718 14:29:21.448227 32986 net.cpp:157] Top shape: 4 208 62 62 (3198208)
I0718 14:29:21.448238 32986 net.cpp:165] Memory required for data: 2883828784
I0718 14:29:21.448257 32986 layer_factory.hpp:76] Creating layer inception_4a/relu_3x3
I0718 14:29:21.448279 32986 net.cpp:106] Creating Layer inception_4a/relu_3x3
I0718 14:29:21.448295 32986 net.cpp:454] inception_4a/relu_3x3 <- inception_4a/3x3
I0718 14:29:21.448307 32986 net.cpp:397] inception_4a/relu_3x3 -> inception_4a/3x3 (in-place)
I0718 14:29:21.450417 32986 net.cpp:150] Setting up inception_4a/relu_3x3
I0718 14:29:21.450460 32986 net.cpp:157] Top shape: 4 208 62 62 (3198208)
I0718 14:29:21.450470 32986 net.cpp:165] Memory required for data: 2896621616
I0718 14:29:21.450482 32986 layer_factory.hpp:76] Creating layer inception_4a/5x5_reduce
I0718 14:29:21.450508 32986 net.cpp:106] Creating Layer inception_4a/5x5_reduce
I0718 14:29:21.450520 32986 net.cpp:454] inception_4a/5x5_reduce <- pool3/3x3_s2_pool3/3x3_s2_0_split_2
I0718 14:29:21.450536 32986 net.cpp:411] inception_4a/5x5_reduce -> inception_4a/5x5_reduce
I0718 14:29:21.462160 32986 net.cpp:150] Setting up inception_4a/5x5_reduce
I0718 14:29:21.462222 32986 net.cpp:157] Top shape: 4 16 62 62 (246016)
I0718 14:29:21.462237 32986 net.cpp:165] Memory required for data: 2897605680
I0718 14:29:21.462255 32986 layer_factory.hpp:76] Creating layer inception_4a/relu_5x5_reduce
I0718 14:29:21.462273 32986 net.cpp:106] Creating Layer inception_4a/relu_5x5_reduce
I0718 14:29:21.462286 32986 net.cpp:454] inception_4a/relu_5x5_reduce <- inception_4a/5x5_reduce
I0718 14:29:21.462299 32986 net.cpp:397] inception_4a/relu_5x5_reduce -> inception_4a/5x5_reduce (in-place)
I0718 14:29:21.468767 32986 net.cpp:150] Setting up inception_4a/relu_5x5_reduce
I0718 14:29:21.468869 32986 net.cpp:157] Top shape: 4 16 62 62 (246016)
I0718 14:29:21.468880 32986 net.cpp:165] Memory required for data: 2898589744
I0718 14:29:21.468896 32986 layer_factory.hpp:76] Creating layer inception_4a/5x5
I0718 14:29:21.468947 32986 net.cpp:106] Creating Layer inception_4a/5x5
I0718 14:29:21.468976 32986 net.cpp:454] inception_4a/5x5 <- inception_4a/5x5_reduce
I0718 14:29:21.468999 32986 net.cpp:411] inception_4a/5x5 -> inception_4a/5x5
I0718 14:29:21.480409 32986 net.cpp:150] Setting up inception_4a/5x5
I0718 14:29:21.480463 32986 net.cpp:157] Top shape: 4 48 62 62 (738048)
I0718 14:29:21.480473 32986 net.cpp:165] Memory required for data: 2901541936
I0718 14:29:21.480494 32986 layer_factory.hpp:76] Creating layer inception_4a/relu_5x5
I0718 14:29:21.480520 32986 net.cpp:106] Creating Layer inception_4a/relu_5x5
I0718 14:29:21.480533 32986 net.cpp:454] inception_4a/relu_5x5 <- inception_4a/5x5
I0718 14:29:21.480547 32986 net.cpp:397] inception_4a/relu_5x5 -> inception_4a/5x5 (in-place)
I0718 14:29:21.482770 32986 net.cpp:150] Setting up inception_4a/relu_5x5
I0718 14:29:21.482798 32986 net.cpp:157] Top shape: 4 48 62 62 (738048)
I0718 14:29:21.482810 32986 net.cpp:165] Memory required for data: 2904494128
I0718 14:29:21.482820 32986 layer_factory.hpp:76] Creating layer inception_4a/pool
I0718 14:29:21.482833 32986 net.cpp:106] Creating Layer inception_4a/pool
I0718 14:29:21.482848 32986 net.cpp:454] inception_4a/pool <- pool3/3x3_s2_pool3/3x3_s2_0_split_3
I0718 14:29:21.482861 32986 net.cpp:411] inception_4a/pool -> inception_4a/pool
I0718 14:29:21.485386 32986 net.cpp:150] Setting up inception_4a/pool
I0718 14:29:21.485430 32986 net.cpp:157] Top shape: 4 480 62 62 (7380480)
I0718 14:29:21.485440 32986 net.cpp:165] Memory required for data: 2934016048
I0718 14:29:21.485481 32986 layer_factory.hpp:76] Creating layer inception_4a/pool_proj
I0718 14:29:21.485502 32986 net.cpp:106] Creating Layer inception_4a/pool_proj
I0718 14:29:21.485512 32986 net.cpp:454] inception_4a/pool_proj <- inception_4a/pool
I0718 14:29:21.485527 32986 net.cpp:411] inception_4a/pool_proj -> inception_4a/pool_proj
I0718 14:29:21.496021 32986 cudnn_conv_layer.cpp:194] Reallocating workspace storage: 5760
I0718 14:29:21.496160 32986 net.cpp:150] Setting up inception_4a/pool_proj
I0718 14:29:21.496181 32986 net.cpp:157] Top shape: 4 64 62 62 (984064)
I0718 14:29:21.496191 32986 net.cpp:165] Memory required for data: 2937952304
I0718 14:29:21.496212 32986 layer_factory.hpp:76] Creating layer inception_4a/relu_pool_proj
I0718 14:29:21.496232 32986 net.cpp:106] Creating Layer inception_4a/relu_pool_proj
I0718 14:29:21.496243 32986 net.cpp:454] inception_4a/relu_pool_proj <- inception_4a/pool_proj
I0718 14:29:21.496259 32986 net.cpp:397] inception_4a/relu_pool_proj -> inception_4a/pool_proj (in-place)
I0718 14:29:21.504565 32986 net.cpp:150] Setting up inception_4a/relu_pool_proj
I0718 14:29:21.504644 32986 net.cpp:157] Top shape: 4 64 62 62 (984064)
I0718 14:29:21.504654 32986 net.cpp:165] Memory required for data: 2941888560
I0718 14:29:21.504673 32986 layer_factory.hpp:76] Creating layer inception_4a/output
I0718 14:29:21.504689 32986 net.cpp:106] Creating Layer inception_4a/output
I0718 14:29:21.504700 32986 net.cpp:454] inception_4a/output <- inception_4a/1x1
I0718 14:29:21.504714 32986 net.cpp:454] inception_4a/output <- inception_4a/3x3
I0718 14:29:21.504725 32986 net.cpp:454] inception_4a/output <- inception_4a/5x5
I0718 14:29:21.504736 32986 net.cpp:454] inception_4a/output <- inception_4a/pool_proj
I0718 14:29:21.504750 32986 net.cpp:411] inception_4a/output -> inception_4a/output
I0718 14:29:21.504823 32986 net.cpp:150] Setting up inception_4a/output
I0718 14:29:21.504839 32986 net.cpp:157] Top shape: 4 512 62 62 (7872512)
I0718 14:29:21.504848 32986 net.cpp:165] Memory required for data: 2973378608
I0718 14:29:21.504856 32986 layer_factory.hpp:76] Creating layer inception_4a/output_inception_4a/output_0_split
I0718 14:29:21.504870 32986 net.cpp:106] Creating Layer inception_4a/output_inception_4a/output_0_split
I0718 14:29:21.504879 32986 net.cpp:454] inception_4a/output_inception_4a/output_0_split <- inception_4a/output
I0718 14:29:21.504889 32986 net.cpp:411] inception_4a/output_inception_4a/output_0_split -> inception_4a/output_inception_4a/output_0_split_0
I0718 14:29:21.504904 32986 net.cpp:411] inception_4a/output_inception_4a/output_0_split -> inception_4a/output_inception_4a/output_0_split_1
I0718 14:29:21.504916 32986 net.cpp:411] inception_4a/output_inception_4a/output_0_split -> inception_4a/output_inception_4a/output_0_split_2
I0718 14:29:21.504930 32986 net.cpp:411] inception_4a/output_inception_4a/output_0_split -> inception_4a/output_inception_4a/output_0_split_3
I0718 14:29:21.505012 32986 net.cpp:150] Setting up inception_4a/output_inception_4a/output_0_split
I0718 14:29:21.505024 32986 net.cpp:157] Top shape: 4 512 62 62 (7872512)
I0718 14:29:21.505033 32986 net.cpp:157] Top shape: 4 512 62 62 (7872512)
I0718 14:29:21.505043 32986 net.cpp:157] Top shape: 4 512 62 62 (7872512)
I0718 14:29:21.505051 32986 net.cpp:157] Top shape: 4 512 62 62 (7872512)
I0718 14:29:21.505059 32986 net.cpp:165] Memory required for data: 3099338800
I0718 14:29:21.505067 32986 layer_factory.hpp:76] Creating layer inception_4b/1x1
I0718 14:29:21.505089 32986 net.cpp:106] Creating Layer inception_4b/1x1
I0718 14:29:21.505098 32986 net.cpp:454] inception_4b/1x1 <- inception_4a/output_inception_4a/output_0_split_0
I0718 14:29:21.505115 32986 net.cpp:411] inception_4b/1x1 -> inception_4b/1x1
I0718 14:29:21.525923 32986 cudnn_conv_layer.cpp:194] Reallocating workspace storage: 6144
I0718 14:29:21.526022 32986 net.cpp:150] Setting up inception_4b/1x1
I0718 14:29:21.526042 32986 net.cpp:157] Top shape: 4 160 62 62 (2460160)
I0718 14:29:21.526052 32986 net.cpp:165] Memory required for data: 3109179440
I0718 14:29:21.526109 32986 layer_factory.hpp:76] Creating layer inception_4b/relu_1x1
I0718 14:29:21.526132 32986 net.cpp:106] Creating Layer inception_4b/relu_1x1
I0718 14:29:21.526144 32986 net.cpp:454] inception_4b/relu_1x1 <- inception_4b/1x1
I0718 14:29:21.526156 32986 net.cpp:397] inception_4b/relu_1x1 -> inception_4b/1x1 (in-place)
I0718 14:29:21.532272 32986 net.cpp:150] Setting up inception_4b/relu_1x1
I0718 14:29:21.532338 32986 net.cpp:157] Top shape: 4 160 62 62 (2460160)
I0718 14:29:21.532347 32986 net.cpp:165] Memory required for data: 3119020080
I0718 14:29:21.532363 32986 layer_factory.hpp:76] Creating layer inception_4b/3x3_reduce
I0718 14:29:21.532394 32986 net.cpp:106] Creating Layer inception_4b/3x3_reduce
I0718 14:29:21.532408 32986 net.cpp:454] inception_4b/3x3_reduce <- inception_4a/output_inception_4a/output_0_split_1
I0718 14:29:21.532426 32986 net.cpp:411] inception_4b/3x3_reduce -> inception_4b/3x3_reduce
I0718 14:29:21.543643 32986 cudnn_conv_layer.cpp:194] Reallocating workspace storage: 6144
I0718 14:29:21.543725 32986 net.cpp:150] Setting up inception_4b/3x3_reduce
I0718 14:29:21.543745 32986 net.cpp:157] Top shape: 4 112 62 62 (1722112)
I0718 14:29:21.543754 32986 net.cpp:165] Memory required for data: 3125908528
I0718 14:29:21.543771 32986 layer_factory.hpp:76] Creating layer inception_4b/relu_3x3_reduce
I0718 14:29:21.543792 32986 net.cpp:106] Creating Layer inception_4b/relu_3x3_reduce
I0718 14:29:21.543805 32986 net.cpp:454] inception_4b/relu_3x3_reduce <- inception_4b/3x3_reduce
I0718 14:29:21.543820 32986 net.cpp:397] inception_4b/relu_3x3_reduce -> inception_4b/3x3_reduce (in-place)
I0718 14:29:21.545980 32986 net.cpp:150] Setting up inception_4b/relu_3x3_reduce
I0718 14:29:21.546046 32986 net.cpp:157] Top shape: 4 112 62 62 (1722112)
I0718 14:29:21.546056 32986 net.cpp:165] Memory required for data: 3132796976
I0718 14:29:21.546068 32986 layer_factory.hpp:76] Creating layer inception_4b/3x3
I0718 14:29:21.546092 32986 net.cpp:106] Creating Layer inception_4b/3x3
I0718 14:29:21.546109 32986 net.cpp:454] inception_4b/3x3 <- inception_4b/3x3_reduce
I0718 14:29:21.546125 32986 net.cpp:411] inception_4b/3x3 -> inception_4b/3x3
I0718 14:29:21.553583 32986 cudnn_conv_layer.cpp:194] Reallocating workspace storage: 12096
I0718 14:29:21.553654 32986 net.cpp:150] Setting up inception_4b/3x3
I0718 14:29:21.553673 32986 net.cpp:157] Top shape: 4 224 62 62 (3444224)
I0718 14:29:21.553683 32986 net.cpp:165] Memory required for data: 3146573872
I0718 14:29:21.553699 32986 layer_factory.hpp:76] Creating layer inception_4b/relu_3x3
I0718 14:29:21.553760 32986 net.cpp:106] Creating Layer inception_4b/relu_3x3
I0718 14:29:21.553773 32986 net.cpp:454] inception_4b/relu_3x3 <- inception_4b/3x3
I0718 14:29:21.553786 32986 net.cpp:397] inception_4b/relu_3x3 -> inception_4b/3x3 (in-place)
I0718 14:29:21.555924 32986 net.cpp:150] Setting up inception_4b/relu_3x3
I0718 14:29:21.555950 32986 net.cpp:157] Top shape: 4 224 62 62 (3444224)
I0718 14:29:21.555960 32986 net.cpp:165] Memory required for data: 3160350768
I0718 14:29:21.555970 32986 layer_factory.hpp:76] Creating layer inception_4b/5x5_reduce
I0718 14:29:21.555989 32986 net.cpp:106] Creating Layer inception_4b/5x5_reduce
I0718 14:29:21.555999 32986 net.cpp:454] inception_4b/5x5_reduce <- inception_4a/output_inception_4a/output_0_split_2
I0718 14:29:21.556015 32986 net.cpp:411] inception_4b/5x5_reduce -> inception_4b/5x5_reduce
I0718 14:29:21.563704 32986 cudnn_conv_layer.cpp:194] Reallocating workspace storage: 6144
I0718 14:29:21.563834 32986 net.cpp:150] Setting up inception_4b/5x5_reduce
I0718 14:29:21.563859 32986 net.cpp:157] Top shape: 4 24 62 62 (369024)
I0718 14:29:21.563869 32986 net.cpp:165] Memory required for data: 3161826864
I0718 14:29:21.563887 32986 layer_factory.hpp:76] Creating layer inception_4b/relu_5x5_reduce
I0718 14:29:21.563907 32986 net.cpp:106] Creating Layer inception_4b/relu_5x5_reduce
I0718 14:29:21.563920 32986 net.cpp:454] inception_4b/relu_5x5_reduce <- inception_4b/5x5_reduce
I0718 14:29:21.563941 32986 net.cpp:397] inception_4b/relu_5x5_reduce -> inception_4b/5x5_reduce (in-place)
I0718 14:29:21.566016 32986 net.cpp:150] Setting up inception_4b/relu_5x5_reduce
I0718 14:29:21.566082 32986 net.cpp:157] Top shape: 4 24 62 62 (369024)
I0718 14:29:21.566092 32986 net.cpp:165] Memory required for data: 3163302960
I0718 14:29:21.566109 32986 layer_factory.hpp:76] Creating layer inception_4b/5x5
I0718 14:29:21.566133 32986 net.cpp:106] Creating Layer inception_4b/5x5
I0718 14:29:21.566144 32986 net.cpp:454] inception_4b/5x5 <- inception_4b/5x5_reduce
I0718 14:29:21.566160 32986 net.cpp:411] inception_4b/5x5 -> inception_4b/5x5
I0718 14:29:21.573205 32986 net.cpp:150] Setting up inception_4b/5x5
I0718 14:29:21.573259 32986 net.cpp:157] Top shape: 4 64 62 62 (984064)
I0718 14:29:21.573271 32986 net.cpp:165] Memory required for data: 3167239216
I0718 14:29:21.573287 32986 layer_factory.hpp:76] Creating layer inception_4b/relu_5x5
I0718 14:29:21.573330 32986 net.cpp:106] Creating Layer inception_4b/relu_5x5
I0718 14:29:21.573344 32986 net.cpp:454] inception_4b/relu_5x5 <- inception_4b/5x5
I0718 14:29:21.573369 32986 net.cpp:397] inception_4b/relu_5x5 -> inception_4b/5x5 (in-place)
I0718 14:29:21.575599 32986 net.cpp:150] Setting up inception_4b/relu_5x5
I0718 14:29:21.575652 32986 net.cpp:157] Top shape: 4 64 62 62 (984064)
I0718 14:29:21.575666 32986 net.cpp:165] Memory required for data: 3171175472
I0718 14:29:21.575680 32986 layer_factory.hpp:76] Creating layer inception_4b/pool
I0718 14:29:21.575703 32986 net.cpp:106] Creating Layer inception_4b/pool
I0718 14:29:21.575716 32986 net.cpp:454] inception_4b/pool <- inception_4a/output_inception_4a/output_0_split_3
I0718 14:29:21.575737 32986 net.cpp:411] inception_4b/pool -> inception_4b/pool
I0718 14:29:21.606596 32986 net.cpp:150] Setting up inception_4b/pool
I0718 14:29:21.606655 32986 net.cpp:157] Top shape: 4 512 62 62 (7872512)
I0718 14:29:21.606667 32986 net.cpp:165] Memory required for data: 3202665520
I0718 14:29:21.606681 32986 layer_factory.hpp:76] Creating layer inception_4b/pool_proj
I0718 14:29:21.606705 32986 net.cpp:106] Creating Layer inception_4b/pool_proj
I0718 14:29:21.606722 32986 net.cpp:454] inception_4b/pool_proj <- inception_4b/pool
I0718 14:29:21.606739 32986 net.cpp:411] inception_4b/pool_proj -> inception_4b/pool_proj
I0718 14:29:21.613688 32986 net.cpp:150] Setting up inception_4b/pool_proj
I0718 14:29:21.613734 32986 net.cpp:157] Top shape: 4 64 62 62 (984064)
I0718 14:29:21.613747 32986 net.cpp:165] Memory required for data: 3206601776
I0718 14:29:21.613765 32986 layer_factory.hpp:76] Creating layer inception_4b/relu_pool_proj
I0718 14:29:21.613782 32986 net.cpp:106] Creating Layer inception_4b/relu_pool_proj
I0718 14:29:21.613795 32986 net.cpp:454] inception_4b/relu_pool_proj <- inception_4b/pool_proj
I0718 14:29:21.613816 32986 net.cpp:397] inception_4b/relu_pool_proj -> inception_4b/pool_proj (in-place)
I0718 14:29:21.615932 32986 net.cpp:150] Setting up inception_4b/relu_pool_proj
I0718 14:29:21.615957 32986 net.cpp:157] Top shape: 4 64 62 62 (984064)
I0718 14:29:21.615972 32986 net.cpp:165] Memory required for data: 3210538032
I0718 14:29:21.615980 32986 layer_factory.hpp:76] Creating layer inception_4b/output
I0718 14:29:21.616001 32986 net.cpp:106] Creating Layer inception_4b/output
I0718 14:29:21.616010 32986 net.cpp:454] inception_4b/output <- inception_4b/1x1
I0718 14:29:21.616021 32986 net.cpp:454] inception_4b/output <- inception_4b/3x3
I0718 14:29:21.616030 32986 net.cpp:454] inception_4b/output <- inception_4b/5x5
I0718 14:29:21.616041 32986 net.cpp:454] inception_4b/output <- inception_4b/pool_proj
I0718 14:29:21.616055 32986 net.cpp:411] inception_4b/output -> inception_4b/output
I0718 14:29:21.616101 32986 net.cpp:150] Setting up inception_4b/output
I0718 14:29:21.616116 32986 net.cpp:157] Top shape: 4 512 62 62 (7872512)
I0718 14:29:21.616123 32986 net.cpp:165] Memory required for data: 3242028080
I0718 14:29:21.616132 32986 layer_factory.hpp:76] Creating layer inception_4b/output_inception_4b/output_0_split
I0718 14:29:21.616143 32986 net.cpp:106] Creating Layer inception_4b/output_inception_4b/output_0_split
I0718 14:29:21.616178 32986 net.cpp:454] inception_4b/output_inception_4b/output_0_split <- inception_4b/output
I0718 14:29:21.616189 32986 net.cpp:411] inception_4b/output_inception_4b/output_0_split -> inception_4b/output_inception_4b/output_0_split_0
I0718 14:29:21.616204 32986 net.cpp:411] inception_4b/output_inception_4b/output_0_split -> inception_4b/output_inception_4b/output_0_split_1
I0718 14:29:21.616219 32986 net.cpp:411] inception_4b/output_inception_4b/output_0_split -> inception_4b/output_inception_4b/output_0_split_2
I0718 14:29:21.616232 32986 net.cpp:411] inception_4b/output_inception_4b/output_0_split -> inception_4b/output_inception_4b/output_0_split_3
I0718 14:29:21.616310 32986 net.cpp:150] Setting up inception_4b/output_inception_4b/output_0_split
I0718 14:29:21.616323 32986 net.cpp:157] Top shape: 4 512 62 62 (7872512)
I0718 14:29:21.616333 32986 net.cpp:157] Top shape: 4 512 62 62 (7872512)
I0718 14:29:21.616343 32986 net.cpp:157] Top shape: 4 512 62 62 (7872512)
I0718 14:29:21.616351 32986 net.cpp:157] Top shape: 4 512 62 62 (7872512)
I0718 14:29:21.616359 32986 net.cpp:165] Memory required for data: 3367988272
I0718 14:29:21.616369 32986 layer_factory.hpp:76] Creating layer inception_4c/1x1
I0718 14:29:21.616385 32986 net.cpp:106] Creating Layer inception_4c/1x1
I0718 14:29:21.616394 32986 net.cpp:454] inception_4c/1x1 <- inception_4b/output_inception_4b/output_0_split_0
I0718 14:29:21.616410 32986 net.cpp:411] inception_4c/1x1 -> inception_4c/1x1
I0718 14:29:21.623287 32986 cudnn_conv_layer.cpp:194] Reallocating workspace storage: 6144
I0718 14:29:21.623345 32986 net.cpp:150] Setting up inception_4c/1x1
I0718 14:29:21.623364 32986 net.cpp:157] Top shape: 4 128 62 62 (1968128)
I0718 14:29:21.623373 32986 net.cpp:165] Memory required for data: 3375860784
I0718 14:29:21.623386 32986 layer_factory.hpp:76] Creating layer inception_4c/relu_1x1
I0718 14:29:21.623404 32986 net.cpp:106] Creating Layer inception_4c/relu_1x1
I0718 14:29:21.623412 32986 net.cpp:454] inception_4c/relu_1x1 <- inception_4c/1x1
I0718 14:29:21.623423 32986 net.cpp:397] inception_4c/relu_1x1 -> inception_4c/1x1 (in-place)
I0718 14:29:21.625571 32986 net.cpp:150] Setting up inception_4c/relu_1x1
I0718 14:29:21.625591 32986 net.cpp:157] Top shape: 4 128 62 62 (1968128)
I0718 14:29:21.625600 32986 net.cpp:165] Memory required for data: 3383733296
I0718 14:29:21.625610 32986 layer_factory.hpp:76] Creating layer inception_4c/3x3_reduce
I0718 14:29:21.625628 32986 net.cpp:106] Creating Layer inception_4c/3x3_reduce
I0718 14:29:21.625638 32986 net.cpp:454] inception_4c/3x3_reduce <- inception_4b/output_inception_4b/output_0_split_1
I0718 14:29:21.625650 32986 net.cpp:411] inception_4c/3x3_reduce -> inception_4c/3x3_reduce
I0718 14:29:21.632928 32986 cudnn_conv_layer.cpp:194] Reallocating workspace storage: 6144
I0718 14:29:21.632988 32986 net.cpp:150] Setting up inception_4c/3x3_reduce
I0718 14:29:21.633005 32986 net.cpp:157] Top shape: 4 128 62 62 (1968128)
I0718 14:29:21.633015 32986 net.cpp:165] Memory required for data: 3391605808
I0718 14:29:21.633029 32986 layer_factory.hpp:76] Creating layer inception_4c/relu_3x3_reduce
I0718 14:29:21.633049 32986 net.cpp:106] Creating Layer inception_4c/relu_3x3_reduce
I0718 14:29:21.633060 32986 net.cpp:454] inception_4c/relu_3x3_reduce <- inception_4c/3x3_reduce
I0718 14:29:21.633072 32986 net.cpp:397] inception_4c/relu_3x3_reduce -> inception_4c/3x3_reduce (in-place)
I0718 14:29:21.635220 32986 net.cpp:150] Setting up inception_4c/relu_3x3_reduce
I0718 14:29:21.635264 32986 net.cpp:157] Top shape: 4 128 62 62 (1968128)
I0718 14:29:21.635274 32986 net.cpp:165] Memory required for data: 3399478320
I0718 14:29:21.635285 32986 layer_factory.hpp:76] Creating layer inception_4c/3x3
I0718 14:29:21.635308 32986 net.cpp:106] Creating Layer inception_4c/3x3
I0718 14:29:21.635321 32986 net.cpp:454] inception_4c/3x3 <- inception_4c/3x3_reduce
I0718 14:29:21.635335 32986 net.cpp:411] inception_4c/3x3 -> inception_4c/3x3
I0718 14:29:21.643658 32986 cudnn_conv_layer.cpp:194] Reallocating workspace storage: 13824
I0718 14:29:21.643733 32986 net.cpp:150] Setting up inception_4c/3x3
I0718 14:29:21.643753 32986 net.cpp:157] Top shape: 4 256 62 62 (3936256)
I0718 14:29:21.643761 32986 net.cpp:165] Memory required for data: 3415223344
I0718 14:29:21.643779 32986 layer_factory.hpp:76] Creating layer inception_4c/relu_3x3
I0718 14:29:21.643795 32986 net.cpp:106] Creating Layer inception_4c/relu_3x3
I0718 14:29:21.643808 32986 net.cpp:454] inception_4c/relu_3x3 <- inception_4c/3x3
I0718 14:29:21.643820 32986 net.cpp:397] inception_4c/relu_3x3 -> inception_4c/3x3 (in-place)
I0718 14:29:21.645906 32986 net.cpp:150] Setting up inception_4c/relu_3x3
I0718 14:29:21.645936 32986 net.cpp:157] Top shape: 4 256 62 62 (3936256)
I0718 14:29:21.645946 32986 net.cpp:165] Memory required for data: 3430968368
I0718 14:29:21.645959 32986 layer_factory.hpp:76] Creating layer inception_4c/5x5_reduce
I0718 14:29:21.645980 32986 net.cpp:106] Creating Layer inception_4c/5x5_reduce
I0718 14:29:21.645992 32986 net.cpp:454] inception_4c/5x5_reduce <- inception_4b/output_inception_4b/output_0_split_2
I0718 14:29:21.646005 32986 net.cpp:411] inception_4c/5x5_reduce -> inception_4c/5x5_reduce
I0718 14:29:21.652453 32986 cudnn_conv_layer.cpp:194] Reallocating workspace storage: 6144
I0718 14:29:21.652521 32986 net.cpp:150] Setting up inception_4c/5x5_reduce
I0718 14:29:21.652540 32986 net.cpp:157] Top shape: 4 24 62 62 (369024)
I0718 14:29:21.652549 32986 net.cpp:165] Memory required for data: 3432444464
I0718 14:29:21.652575 32986 layer_factory.hpp:76] Creating layer inception_4c/relu_5x5_reduce
I0718 14:29:21.652602 32986 net.cpp:106] Creating Layer inception_4c/relu_5x5_reduce
I0718 14:29:21.652616 32986 net.cpp:454] inception_4c/relu_5x5_reduce <- inception_4c/5x5_reduce
I0718 14:29:21.652631 32986 net.cpp:397] inception_4c/relu_5x5_reduce -> inception_4c/5x5_reduce (in-place)
I0718 14:29:21.654734 32986 net.cpp:150] Setting up inception_4c/relu_5x5_reduce
I0718 14:29:21.654763 32986 net.cpp:157] Top shape: 4 24 62 62 (369024)
I0718 14:29:21.654773 32986 net.cpp:165] Memory required for data: 3433920560
I0718 14:29:21.654784 32986 layer_factory.hpp:76] Creating layer inception_4c/5x5
I0718 14:29:21.654805 32986 net.cpp:106] Creating Layer inception_4c/5x5
I0718 14:29:21.654815 32986 net.cpp:454] inception_4c/5x5 <- inception_4c/5x5_reduce
I0718 14:29:21.654832 32986 net.cpp:411] inception_4c/5x5 -> inception_4c/5x5
I0718 14:29:21.662529 32986 net.cpp:150] Setting up inception_4c/5x5
I0718 14:29:21.662585 32986 net.cpp:157] Top shape: 4 64 62 62 (984064)
I0718 14:29:21.662601 32986 net.cpp:165] Memory required for data: 3437856816
I0718 14:29:21.662626 32986 layer_factory.hpp:76] Creating layer inception_4c/relu_5x5
I0718 14:29:21.662667 32986 net.cpp:106] Creating Layer inception_4c/relu_5x5
I0718 14:29:21.662684 32986 net.cpp:454] inception_4c/relu_5x5 <- inception_4c/5x5
I0718 14:29:21.662708 32986 net.cpp:397] inception_4c/relu_5x5 -> inception_4c/5x5 (in-place)
I0718 14:29:21.664919 32986 net.cpp:150] Setting up inception_4c/relu_5x5
I0718 14:29:21.664944 32986 net.cpp:157] Top shape: 4 64 62 62 (984064)
I0718 14:29:21.664958 32986 net.cpp:165] Memory required for data: 3441793072
I0718 14:29:21.664970 32986 layer_factory.hpp:76] Creating layer inception_4c/pool
I0718 14:29:21.664984 32986 net.cpp:106] Creating Layer inception_4c/pool
I0718 14:29:21.664997 32986 net.cpp:454] inception_4c/pool <- inception_4b/output_inception_4b/output_0_split_3
I0718 14:29:21.665012 32986 net.cpp:411] inception_4c/pool -> inception_4c/pool
I0718 14:29:21.667456 32986 net.cpp:150] Setting up inception_4c/pool
I0718 14:29:21.667487 32986 net.cpp:157] Top shape: 4 512 62 62 (7872512)
I0718 14:29:21.667501 32986 net.cpp:165] Memory required for data: 3473283120
I0718 14:29:21.667518 32986 layer_factory.hpp:76] Creating layer inception_4c/pool_proj
I0718 14:29:21.667552 32986 net.cpp:106] Creating Layer inception_4c/pool_proj
I0718 14:29:21.667568 32986 net.cpp:454] inception_4c/pool_proj <- inception_4c/pool
I0718 14:29:21.667632 32986 net.cpp:411] inception_4c/pool_proj -> inception_4c/pool_proj
I0718 14:29:21.707154 32986 net.cpp:150] Setting up inception_4c/pool_proj
I0718 14:29:21.707228 32986 net.cpp:157] Top shape: 4 64 62 62 (984064)
I0718 14:29:21.707242 32986 net.cpp:165] Memory required for data: 3477219376
I0718 14:29:21.707307 32986 layer_factory.hpp:76] Creating layer inception_4c/relu_pool_proj
I0718 14:29:21.707345 32986 net.cpp:106] Creating Layer inception_4c/relu_pool_proj
I0718 14:29:21.707371 32986 net.cpp:454] inception_4c/relu_pool_proj <- inception_4c/pool_proj
I0718 14:29:21.707388 32986 net.cpp:397] inception_4c/relu_pool_proj -> inception_4c/pool_proj (in-place)
I0718 14:29:21.708147 32986 net.cpp:150] Setting up inception_4c/relu_pool_proj
I0718 14:29:21.708169 32986 net.cpp:157] Top shape: 4 64 62 62 (984064)
I0718 14:29:21.708178 32986 net.cpp:165] Memory required for data: 3481155632
I0718 14:29:21.708186 32986 layer_factory.hpp:76] Creating layer inception_4c/output
I0718 14:29:21.708201 32986 net.cpp:106] Creating Layer inception_4c/output
I0718 14:29:21.708211 32986 net.cpp:454] inception_4c/output <- inception_4c/1x1
I0718 14:29:21.708221 32986 net.cpp:454] inception_4c/output <- inception_4c/3x3
I0718 14:29:21.708230 32986 net.cpp:454] inception_4c/output <- inception_4c/5x5
I0718 14:29:21.708252 32986 net.cpp:454] inception_4c/output <- inception_4c/pool_proj
I0718 14:29:21.708266 32986 net.cpp:411] inception_4c/output -> inception_4c/output
I0718 14:29:21.708333 32986 net.cpp:150] Setting up inception_4c/output
I0718 14:29:21.708349 32986 net.cpp:157] Top shape: 4 512 62 62 (7872512)
I0718 14:29:21.708358 32986 net.cpp:165] Memory required for data: 3512645680
I0718 14:29:21.708375 32986 layer_factory.hpp:76] Creating layer inception_4c/output_inception_4c/output_0_split
I0718 14:29:21.708395 32986 net.cpp:106] Creating Layer inception_4c/output_inception_4c/output_0_split
I0718 14:29:21.708411 32986 net.cpp:454] inception_4c/output_inception_4c/output_0_split <- inception_4c/output
I0718 14:29:21.708423 32986 net.cpp:411] inception_4c/output_inception_4c/output_0_split -> inception_4c/output_inception_4c/output_0_split_0
I0718 14:29:21.708436 32986 net.cpp:411] inception_4c/output_inception_4c/output_0_split -> inception_4c/output_inception_4c/output_0_split_1
I0718 14:29:21.708451 32986 net.cpp:411] inception_4c/output_inception_4c/output_0_split -> inception_4c/output_inception_4c/output_0_split_2
I0718 14:29:21.708467 32986 net.cpp:411] inception_4c/output_inception_4c/output_0_split -> inception_4c/output_inception_4c/output_0_split_3
I0718 14:29:21.708575 32986 net.cpp:150] Setting up inception_4c/output_inception_4c/output_0_split
I0718 14:29:21.708600 32986 net.cpp:157] Top shape: 4 512 62 62 (7872512)
I0718 14:29:21.708613 32986 net.cpp:157] Top shape: 4 512 62 62 (7872512)
I0718 14:29:21.708623 32986 net.cpp:157] Top shape: 4 512 62 62 (7872512)
I0718 14:29:21.708639 32986 net.cpp:157] Top shape: 4 512 62 62 (7872512)
I0718 14:29:21.708650 32986 net.cpp:165] Memory required for data: 3638605872
I0718 14:29:21.708665 32986 layer_factory.hpp:76] Creating layer inception_4d/1x1
I0718 14:29:21.708683 32986 net.cpp:106] Creating Layer inception_4d/1x1
I0718 14:29:21.708700 32986 net.cpp:454] inception_4d/1x1 <- inception_4c/output_inception_4c/output_0_split_0
I0718 14:29:21.708722 32986 net.cpp:411] inception_4d/1x1 -> inception_4d/1x1
I0718 14:29:21.714226 32986 cudnn_conv_layer.cpp:194] Reallocating workspace storage: 6144
I0718 14:29:21.714308 32986 net.cpp:150] Setting up inception_4d/1x1
I0718 14:29:21.714344 32986 net.cpp:157] Top shape: 4 112 62 62 (1722112)
I0718 14:29:21.714368 32986 net.cpp:165] Memory required for data: 3645494320
I0718 14:29:21.714385 32986 layer_factory.hpp:76] Creating layer inception_4d/relu_1x1
I0718 14:29:21.714398 32986 net.cpp:106] Creating Layer inception_4d/relu_1x1
I0718 14:29:21.714416 32986 net.cpp:454] inception_4d/relu_1x1 <- inception_4d/1x1
I0718 14:29:21.714432 32986 net.cpp:397] inception_4d/relu_1x1 -> inception_4d/1x1 (in-place)
I0718 14:29:21.715265 32986 net.cpp:150] Setting up inception_4d/relu_1x1
I0718 14:29:21.715314 32986 net.cpp:157] Top shape: 4 112 62 62 (1722112)
I0718 14:29:21.715325 32986 net.cpp:165] Memory required for data: 3652382768
I0718 14:29:21.715345 32986 layer_factory.hpp:76] Creating layer inception_4d/3x3_reduce
I0718 14:29:21.715375 32986 net.cpp:106] Creating Layer inception_4d/3x3_reduce
I0718 14:29:21.715397 32986 net.cpp:454] inception_4d/3x3_reduce <- inception_4c/output_inception_4c/output_0_split_1
I0718 14:29:21.715431 32986 net.cpp:411] inception_4d/3x3_reduce -> inception_4d/3x3_reduce
I0718 14:29:21.719777 32986 cudnn_conv_layer.cpp:194] Reallocating workspace storage: 6144
I0718 14:29:21.719847 32986 net.cpp:150] Setting up inception_4d/3x3_reduce
I0718 14:29:21.719872 32986 net.cpp:157] Top shape: 4 144 62 62 (2214144)
I0718 14:29:21.719894 32986 net.cpp:165] Memory required for data: 3661239344
I0718 14:29:21.719921 32986 layer_factory.hpp:76] Creating layer inception_4d/relu_3x3_reduce
I0718 14:29:21.719941 32986 net.cpp:106] Creating Layer inception_4d/relu_3x3_reduce
I0718 14:29:21.719954 32986 net.cpp:454] inception_4d/relu_3x3_reduce <- inception_4d/3x3_reduce
I0718 14:29:21.719969 32986 net.cpp:397] inception_4d/relu_3x3_reduce -> inception_4d/3x3_reduce (in-place)
I0718 14:29:21.721817 32986 net.cpp:150] Setting up inception_4d/relu_3x3_reduce
I0718 14:29:21.721837 32986 net.cpp:157] Top shape: 4 144 62 62 (2214144)
I0718 14:29:21.721848 32986 net.cpp:165] Memory required for data: 3670095920
I0718 14:29:21.721858 32986 layer_factory.hpp:76] Creating layer inception_4d/3x3
I0718 14:29:21.721873 32986 net.cpp:106] Creating Layer inception_4d/3x3
I0718 14:29:21.721884 32986 net.cpp:454] inception_4d/3x3 <- inception_4d/3x3_reduce
I0718 14:29:21.721897 32986 net.cpp:411] inception_4d/3x3 -> inception_4d/3x3
I0718 14:29:21.762756 32986 cudnn_conv_layer.cpp:194] Reallocating workspace storage: 15552
I0718 14:29:21.762869 32986 net.cpp:150] Setting up inception_4d/3x3
I0718 14:29:21.762900 32986 net.cpp:157] Top shape: 4 288 62 62 (4428288)
I0718 14:29:21.762917 32986 net.cpp:165] Memory required for data: 3687809072
I0718 14:29:21.762944 32986 layer_factory.hpp:76] Creating layer inception_4d/relu_3x3
I0718 14:29:21.762982 32986 net.cpp:106] Creating Layer inception_4d/relu_3x3
I0718 14:29:21.763002 32986 net.cpp:454] inception_4d/relu_3x3 <- inception_4d/3x3
I0718 14:29:21.763020 32986 net.cpp:397] inception_4d/relu_3x3 -> inception_4d/3x3 (in-place)
I0718 14:29:21.764986 32986 net.cpp:150] Setting up inception_4d/relu_3x3
I0718 14:29:21.765053 32986 net.cpp:157] Top shape: 4 288 62 62 (4428288)
I0718 14:29:21.765069 32986 net.cpp:165] Memory required for data: 3705522224
I0718 14:29:21.765086 32986 layer_factory.hpp:76] Creating layer inception_4d/5x5_reduce
I0718 14:29:21.765122 32986 net.cpp:106] Creating Layer inception_4d/5x5_reduce
I0718 14:29:21.765142 32986 net.cpp:454] inception_4d/5x5_reduce <- inception_4c/output_inception_4c/output_0_split_2
I0718 14:29:21.765163 32986 net.cpp:411] inception_4d/5x5_reduce -> inception_4d/5x5_reduce
I0718 14:29:21.773713 32986 net.cpp:150] Setting up inception_4d/5x5_reduce
I0718 14:29:21.773790 32986 net.cpp:157] Top shape: 4 32 62 62 (492032)
I0718 14:29:21.773804 32986 net.cpp:165] Memory required for data: 3707490352
I0718 14:29:21.773834 32986 layer_factory.hpp:76] Creating layer inception_4d/relu_5x5_reduce
I0718 14:29:21.773859 32986 net.cpp:106] Creating Layer inception_4d/relu_5x5_reduce
I0718 14:29:21.773879 32986 net.cpp:454] inception_4d/relu_5x5_reduce <- inception_4d/5x5_reduce
I0718 14:29:21.773895 32986 net.cpp:397] inception_4d/relu_5x5_reduce -> inception_4d/5x5_reduce (in-place)
I0718 14:29:21.775918 32986 net.cpp:150] Setting up inception_4d/relu_5x5_reduce
I0718 14:29:21.775969 32986 net.cpp:157] Top shape: 4 32 62 62 (492032)
I0718 14:29:21.775985 32986 net.cpp:165] Memory required for data: 3709458480
I0718 14:29:21.775998 32986 layer_factory.hpp:76] Creating layer inception_4d/5x5
I0718 14:29:21.776029 32986 net.cpp:106] Creating Layer inception_4d/5x5
I0718 14:29:21.776099 32986 net.cpp:454] inception_4d/5x5 <- inception_4d/5x5_reduce
I0718 14:29:21.776118 32986 net.cpp:411] inception_4d/5x5 -> inception_4d/5x5
I0718 14:29:21.783540 32986 net.cpp:150] Setting up inception_4d/5x5
I0718 14:29:21.783638 32986 net.cpp:157] Top shape: 4 64 62 62 (984064)
I0718 14:29:21.783653 32986 net.cpp:165] Memory required for data: 3713394736
I0718 14:29:21.783675 32986 layer_factory.hpp:76] Creating layer inception_4d/relu_5x5
I0718 14:29:21.783700 32986 net.cpp:106] Creating Layer inception_4d/relu_5x5
I0718 14:29:21.783725 32986 net.cpp:454] inception_4d/relu_5x5 <- inception_4d/5x5
I0718 14:29:21.783753 32986 net.cpp:397] inception_4d/relu_5x5 -> inception_4d/5x5 (in-place)
I0718 14:29:21.785768 32986 net.cpp:150] Setting up inception_4d/relu_5x5
I0718 14:29:21.785815 32986 net.cpp:157] Top shape: 4 64 62 62 (984064)
I0718 14:29:21.785823 32986 net.cpp:165] Memory required for data: 3717330992
I0718 14:29:21.785838 32986 layer_factory.hpp:76] Creating layer inception_4d/pool
I0718 14:29:21.785859 32986 net.cpp:106] Creating Layer inception_4d/pool
I0718 14:29:21.785871 32986 net.cpp:454] inception_4d/pool <- inception_4c/output_inception_4c/output_0_split_3
I0718 14:29:21.785887 32986 net.cpp:411] inception_4d/pool -> inception_4d/pool
I0718 14:29:21.788187 32986 net.cpp:150] Setting up inception_4d/pool
I0718 14:29:21.788249 32986 net.cpp:157] Top shape: 4 512 62 62 (7872512)
I0718 14:29:21.788261 32986 net.cpp:165] Memory required for data: 3748821040
I0718 14:29:21.788278 32986 layer_factory.hpp:76] Creating layer inception_4d/pool_proj
I0718 14:29:21.788307 32986 net.cpp:106] Creating Layer inception_4d/pool_proj
I0718 14:29:21.788323 32986 net.cpp:454] inception_4d/pool_proj <- inception_4d/pool
I0718 14:29:21.788346 32986 net.cpp:411] inception_4d/pool_proj -> inception_4d/pool_proj
I0718 14:29:21.795778 32986 net.cpp:150] Setting up inception_4d/pool_proj
I0718 14:29:21.795835 32986 net.cpp:157] Top shape: 4 64 62 62 (984064)
I0718 14:29:21.795845 32986 net.cpp:165] Memory required for data: 3752757296
I0718 14:29:21.795864 32986 layer_factory.hpp:76] Creating layer inception_4d/relu_pool_proj
I0718 14:29:21.795897 32986 net.cpp:106] Creating Layer inception_4d/relu_pool_proj
I0718 14:29:21.795917 32986 net.cpp:454] inception_4d/relu_pool_proj <- inception_4d/pool_proj
I0718 14:29:21.795934 32986 net.cpp:397] inception_4d/relu_pool_proj -> inception_4d/pool_proj (in-place)
I0718 14:29:21.797173 32986 net.cpp:150] Setting up inception_4d/relu_pool_proj
I0718 14:29:21.797212 32986 net.cpp:157] Top shape: 4 64 62 62 (984064)
I0718 14:29:21.797229 32986 net.cpp:165] Memory required for data: 3756693552
I0718 14:29:21.797242 32986 layer_factory.hpp:76] Creating layer inception_4d/output
I0718 14:29:21.797267 32986 net.cpp:106] Creating Layer inception_4d/output
I0718 14:29:21.797286 32986 net.cpp:454] inception_4d/output <- inception_4d/1x1
I0718 14:29:21.797302 32986 net.cpp:454] inception_4d/output <- inception_4d/3x3
I0718 14:29:21.797318 32986 net.cpp:454] inception_4d/output <- inception_4d/5x5
I0718 14:29:21.797333 32986 net.cpp:454] inception_4d/output <- inception_4d/pool_proj
I0718 14:29:21.797348 32986 net.cpp:411] inception_4d/output -> inception_4d/output
I0718 14:29:21.797430 32986 net.cpp:150] Setting up inception_4d/output
I0718 14:29:21.797454 32986 net.cpp:157] Top shape: 4 528 62 62 (8118528)
I0718 14:29:21.797466 32986 net.cpp:165] Memory required for data: 3789167664
I0718 14:29:21.797480 32986 layer_factory.hpp:76] Creating layer inception_4d/output_inception_4d/output_0_split
I0718 14:29:21.797504 32986 net.cpp:106] Creating Layer inception_4d/output_inception_4d/output_0_split
I0718 14:29:21.797520 32986 net.cpp:454] inception_4d/output_inception_4d/output_0_split <- inception_4d/output
I0718 14:29:21.797540 32986 net.cpp:411] inception_4d/output_inception_4d/output_0_split -> inception_4d/output_inception_4d/output_0_split_0
I0718 14:29:21.797560 32986 net.cpp:411] inception_4d/output_inception_4d/output_0_split -> inception_4d/output_inception_4d/output_0_split_1
I0718 14:29:21.797623 32986 net.cpp:411] inception_4d/output_inception_4d/output_0_split -> inception_4d/output_inception_4d/output_0_split_2
I0718 14:29:21.797641 32986 net.cpp:411] inception_4d/output_inception_4d/output_0_split -> inception_4d/output_inception_4d/output_0_split_3
I0718 14:29:21.797752 32986 net.cpp:150] Setting up inception_4d/output_inception_4d/output_0_split
I0718 14:29:21.797768 32986 net.cpp:157] Top shape: 4 528 62 62 (8118528)
I0718 14:29:21.797780 32986 net.cpp:157] Top shape: 4 528 62 62 (8118528)
I0718 14:29:21.797791 32986 net.cpp:157] Top shape: 4 528 62 62 (8118528)
I0718 14:29:21.797802 32986 net.cpp:157] Top shape: 4 528 62 62 (8118528)
I0718 14:29:21.797811 32986 net.cpp:165] Memory required for data: 3919064112
I0718 14:29:21.797821 32986 layer_factory.hpp:76] Creating layer inception_4e/1x1
I0718 14:29:21.797847 32986 net.cpp:106] Creating Layer inception_4e/1x1
I0718 14:29:21.797857 32986 net.cpp:454] inception_4e/1x1 <- inception_4d/output_inception_4d/output_0_split_0
I0718 14:29:21.797878 32986 net.cpp:411] inception_4e/1x1 -> inception_4e/1x1
I0718 14:29:21.804811 32986 cudnn_conv_layer.cpp:194] Reallocating workspace storage: 6336
I0718 14:29:21.804877 32986 net.cpp:150] Setting up inception_4e/1x1
I0718 14:29:21.804898 32986 net.cpp:157] Top shape: 4 256 62 62 (3936256)
I0718 14:29:21.804911 32986 net.cpp:165] Memory required for data: 3934809136
I0718 14:29:21.804927 32986 layer_factory.hpp:76] Creating layer inception_4e/relu_1x1
I0718 14:29:21.804947 32986 net.cpp:106] Creating Layer inception_4e/relu_1x1
I0718 14:29:21.804962 32986 net.cpp:454] inception_4e/relu_1x1 <- inception_4e/1x1
I0718 14:29:21.804985 32986 net.cpp:397] inception_4e/relu_1x1 -> inception_4e/1x1 (in-place)
I0718 14:29:21.807111 32986 net.cpp:150] Setting up inception_4e/relu_1x1
I0718 14:29:21.807140 32986 net.cpp:157] Top shape: 4 256 62 62 (3936256)
I0718 14:29:21.807153 32986 net.cpp:165] Memory required for data: 3950554160
I0718 14:29:21.807168 32986 layer_factory.hpp:76] Creating layer inception_4e/3x3_reduce
I0718 14:29:21.807198 32986 net.cpp:106] Creating Layer inception_4e/3x3_reduce
I0718 14:29:21.807214 32986 net.cpp:454] inception_4e/3x3_reduce <- inception_4d/output_inception_4d/output_0_split_1
I0718 14:29:21.807238 32986 net.cpp:411] inception_4e/3x3_reduce -> inception_4e/3x3_reduce
I0718 14:29:21.817523 32986 net.cpp:150] Setting up inception_4e/3x3_reduce
I0718 14:29:21.817572 32986 net.cpp:157] Top shape: 4 160 62 62 (2460160)
I0718 14:29:21.817584 32986 net.cpp:165] Memory required for data: 3960394800
I0718 14:29:21.817600 32986 layer_factory.hpp:76] Creating layer inception_4e/relu_3x3_reduce
I0718 14:29:21.817621 32986 net.cpp:106] Creating Layer inception_4e/relu_3x3_reduce
I0718 14:29:21.817633 32986 net.cpp:454] inception_4e/relu_3x3_reduce <- inception_4e/3x3_reduce
I0718 14:29:21.817647 32986 net.cpp:397] inception_4e/relu_3x3_reduce -> inception_4e/3x3_reduce (in-place)
I0718 14:29:21.820320 32986 net.cpp:150] Setting up inception_4e/relu_3x3_reduce
I0718 14:29:21.820346 32986 net.cpp:157] Top shape: 4 160 62 62 (2460160)
I0718 14:29:21.820355 32986 net.cpp:165] Memory required for data: 3970235440
I0718 14:29:21.820364 32986 layer_factory.hpp:76] Creating layer inception_4e/3x3
I0718 14:29:21.820385 32986 net.cpp:106] Creating Layer inception_4e/3x3
I0718 14:29:21.820396 32986 net.cpp:454] inception_4e/3x3 <- inception_4e/3x3_reduce
I0718 14:29:21.820420 32986 net.cpp:411] inception_4e/3x3 -> inception_4e/3x3
I0718 14:29:21.832216 32986 net.cpp:150] Setting up inception_4e/3x3
I0718 14:29:21.832264 32986 net.cpp:157] Top shape: 4 320 62 62 (4920320)
I0718 14:29:21.832274 32986 net.cpp:165] Memory required for data: 3989916720
I0718 14:29:21.832291 32986 layer_factory.hpp:76] Creating layer inception_4e/relu_3x3
I0718 14:29:21.832319 32986 net.cpp:106] Creating Layer inception_4e/relu_3x3
I0718 14:29:21.832336 32986 net.cpp:454] inception_4e/relu_3x3 <- inception_4e/3x3
I0718 14:29:21.832355 32986 net.cpp:397] inception_4e/relu_3x3 -> inception_4e/3x3 (in-place)
I0718 14:29:21.835103 32986 net.cpp:150] Setting up inception_4e/relu_3x3
I0718 14:29:21.835131 32986 net.cpp:157] Top shape: 4 320 62 62 (4920320)
I0718 14:29:21.835150 32986 net.cpp:165] Memory required for data: 4009598000
I0718 14:29:21.835170 32986 layer_factory.hpp:76] Creating layer inception_4e/5x5_reduce
I0718 14:29:21.835199 32986 net.cpp:106] Creating Layer inception_4e/5x5_reduce
I0718 14:29:21.835222 32986 net.cpp:454] inception_4e/5x5_reduce <- inception_4d/output_inception_4d/output_0_split_2
I0718 14:29:21.835245 32986 net.cpp:411] inception_4e/5x5_reduce -> inception_4e/5x5_reduce
I0718 14:29:21.845255 32986 net.cpp:150] Setting up inception_4e/5x5_reduce
I0718 14:29:21.845306 32986 net.cpp:157] Top shape: 4 32 62 62 (492032)
I0718 14:29:21.845319 32986 net.cpp:165] Memory required for data: 4011566128
I0718 14:29:21.845336 32986 layer_factory.hpp:76] Creating layer inception_4e/relu_5x5_reduce
I0718 14:29:21.845355 32986 net.cpp:106] Creating Layer inception_4e/relu_5x5_reduce
I0718 14:29:21.845368 32986 net.cpp:454] inception_4e/relu_5x5_reduce <- inception_4e/5x5_reduce
I0718 14:29:21.845381 32986 net.cpp:397] inception_4e/relu_5x5_reduce -> inception_4e/5x5_reduce (in-place)
I0718 14:29:21.848042 32986 net.cpp:150] Setting up inception_4e/relu_5x5_reduce
I0718 14:29:21.848073 32986 net.cpp:157] Top shape: 4 32 62 62 (492032)
I0718 14:29:21.848083 32986 net.cpp:165] Memory required for data: 4013534256
I0718 14:29:21.848099 32986 layer_factory.hpp:76] Creating layer inception_4e/5x5
I0718 14:29:21.848124 32986 net.cpp:106] Creating Layer inception_4e/5x5
I0718 14:29:21.848140 32986 net.cpp:454] inception_4e/5x5 <- inception_4e/5x5_reduce
I0718 14:29:21.848152 32986 net.cpp:411] inception_4e/5x5 -> inception_4e/5x5
I0718 14:29:21.858387 32986 cudnn_conv_layer.cpp:194] Reallocating workspace storage: 9600
I0718 14:29:21.858471 32986 net.cpp:150] Setting up inception_4e/5x5
I0718 14:29:21.858492 32986 net.cpp:157] Top shape: 4 128 62 62 (1968128)
I0718 14:29:21.858502 32986 net.cpp:165] Memory required for data: 4021406768
I0718 14:29:21.858522 32986 layer_factory.hpp:76] Creating layer inception_4e/relu_5x5
I0718 14:29:21.858546 32986 net.cpp:106] Creating Layer inception_4e/relu_5x5
I0718 14:29:21.858559 32986 net.cpp:454] inception_4e/relu_5x5 <- inception_4e/5x5
I0718 14:29:21.858572 32986 net.cpp:397] inception_4e/relu_5x5 -> inception_4e/5x5 (in-place)
I0718 14:29:21.861904 32986 net.cpp:150] Setting up inception_4e/relu_5x5
I0718 14:29:21.861979 32986 net.cpp:157] Top shape: 4 128 62 62 (1968128)
I0718 14:29:21.862002 32986 net.cpp:165] Memory required for data: 4029279280
I0718 14:29:21.862025 32986 layer_factory.hpp:76] Creating layer inception_4e/pool
I0718 14:29:21.862066 32986 net.cpp:106] Creating Layer inception_4e/pool
I0718 14:29:21.862095 32986 net.cpp:454] inception_4e/pool <- inception_4d/output_inception_4d/output_0_split_3
I0718 14:29:21.862130 32986 net.cpp:411] inception_4e/pool -> inception_4e/pool
I0718 14:29:21.864359 32986 net.cpp:150] Setting up inception_4e/pool
I0718 14:29:21.864384 32986 net.cpp:157] Top shape: 4 528 62 62 (8118528)
I0718 14:29:21.864393 32986 net.cpp:165] Memory required for data: 4061753392
I0718 14:29:21.864403 32986 layer_factory.hpp:76] Creating layer inception_4e/pool_proj
I0718 14:29:21.864428 32986 net.cpp:106] Creating Layer inception_4e/pool_proj
I0718 14:29:21.864437 32986 net.cpp:454] inception_4e/pool_proj <- inception_4e/pool
I0718 14:29:21.864454 32986 net.cpp:411] inception_4e/pool_proj -> inception_4e/pool_proj
I0718 14:29:21.872087 32986 cudnn_conv_layer.cpp:194] Reallocating workspace storage: 6336
I0718 14:29:21.872180 32986 net.cpp:150] Setting up inception_4e/pool_proj
I0718 14:29:21.872202 32986 net.cpp:157] Top shape: 4 128 62 62 (1968128)
I0718 14:29:21.872212 32986 net.cpp:165] Memory required for data: 4069625904
I0718 14:29:21.872229 32986 layer_factory.hpp:76] Creating layer inception_4e/relu_pool_proj
I0718 14:29:21.872253 32986 net.cpp:106] Creating Layer inception_4e/relu_pool_proj
I0718 14:29:21.872267 32986 net.cpp:454] inception_4e/relu_pool_proj <- inception_4e/pool_proj
I0718 14:29:21.872326 32986 net.cpp:397] inception_4e/relu_pool_proj -> inception_4e/pool_proj (in-place)
I0718 14:29:21.874172 32986 net.cpp:150] Setting up inception_4e/relu_pool_proj
I0718 14:29:21.874198 32986 net.cpp:157] Top shape: 4 128 62 62 (1968128)
I0718 14:29:21.874207 32986 net.cpp:165] Memory required for data: 4077498416
I0718 14:29:21.874217 32986 layer_factory.hpp:76] Creating layer inception_4e/output
I0718 14:29:21.874230 32986 net.cpp:106] Creating Layer inception_4e/output
I0718 14:29:21.874240 32986 net.cpp:454] inception_4e/output <- inception_4e/1x1
I0718 14:29:21.874251 32986 net.cpp:454] inception_4e/output <- inception_4e/3x3
I0718 14:29:21.874260 32986 net.cpp:454] inception_4e/output <- inception_4e/5x5
I0718 14:29:21.874269 32986 net.cpp:454] inception_4e/output <- inception_4e/pool_proj
I0718 14:29:21.874281 32986 net.cpp:411] inception_4e/output -> inception_4e/output
I0718 14:29:21.874328 32986 net.cpp:150] Setting up inception_4e/output
I0718 14:29:21.874341 32986 net.cpp:157] Top shape: 4 832 62 62 (12792832)
I0718 14:29:21.874349 32986 net.cpp:165] Memory required for data: 4128669744
I0718 14:29:21.874358 32986 layer_factory.hpp:76] Creating layer pool4/3x3_s2
I0718 14:29:21.874373 32986 net.cpp:106] Creating Layer pool4/3x3_s2
I0718 14:29:21.874382 32986 net.cpp:454] pool4/3x3_s2 <- inception_4e/output
I0718 14:29:21.874392 32986 net.cpp:411] pool4/3x3_s2 -> pool4/3x3_s2
I0718 14:29:21.876667 32986 net.cpp:150] Setting up pool4/3x3_s2
I0718 14:29:21.876693 32986 net.cpp:157] Top shape: 4 832 31 31 (3198208)
I0718 14:29:21.876703 32986 net.cpp:165] Memory required for data: 4141462576
I0718 14:29:21.876711 32986 layer_factory.hpp:76] Creating layer pool4/3x3_s2_pool4/3x3_s2_0_split
I0718 14:29:21.876737 32986 net.cpp:106] Creating Layer pool4/3x3_s2_pool4/3x3_s2_0_split
I0718 14:29:21.876747 32986 net.cpp:454] pool4/3x3_s2_pool4/3x3_s2_0_split <- pool4/3x3_s2
I0718 14:29:21.876759 32986 net.cpp:411] pool4/3x3_s2_pool4/3x3_s2_0_split -> pool4/3x3_s2_pool4/3x3_s2_0_split_0
I0718 14:29:21.876775 32986 net.cpp:411] pool4/3x3_s2_pool4/3x3_s2_0_split -> pool4/3x3_s2_pool4/3x3_s2_0_split_1
I0718 14:29:21.876792 32986 net.cpp:411] pool4/3x3_s2_pool4/3x3_s2_0_split -> pool4/3x3_s2_pool4/3x3_s2_0_split_2
I0718 14:29:21.876803 32986 net.cpp:411] pool4/3x3_s2_pool4/3x3_s2_0_split -> pool4/3x3_s2_pool4/3x3_s2_0_split_3
I0718 14:29:21.876888 32986 net.cpp:150] Setting up pool4/3x3_s2_pool4/3x3_s2_0_split
I0718 14:29:21.876909 32986 net.cpp:157] Top shape: 4 832 31 31 (3198208)
I0718 14:29:21.876920 32986 net.cpp:157] Top shape: 4 832 31 31 (3198208)
I0718 14:29:21.876934 32986 net.cpp:157] Top shape: 4 832 31 31 (3198208)
I0718 14:29:21.876941 32986 net.cpp:157] Top shape: 4 832 31 31 (3198208)
I0718 14:29:21.876950 32986 net.cpp:165] Memory required for data: 4192633904
I0718 14:29:21.876960 32986 layer_factory.hpp:76] Creating layer inception_5a/1x1
I0718 14:29:21.876981 32986 net.cpp:106] Creating Layer inception_5a/1x1
I0718 14:29:21.876991 32986 net.cpp:454] inception_5a/1x1 <- pool4/3x3_s2_pool4/3x3_s2_0_split_0
I0718 14:29:21.877004 32986 net.cpp:411] inception_5a/1x1 -> inception_5a/1x1
I0718 14:29:21.884348 32986 cudnn_conv_layer.cpp:194] Reallocating workspace storage: 9984
I0718 14:29:21.884433 32986 net.cpp:150] Setting up inception_5a/1x1
I0718 14:29:21.884454 32986 net.cpp:157] Top shape: 4 256 31 31 (984064)
I0718 14:29:21.884464 32986 net.cpp:165] Memory required for data: 4196570160
I0718 14:29:21.884480 32986 layer_factory.hpp:76] Creating layer inception_5a/relu_1x1
I0718 14:29:21.884503 32986 net.cpp:106] Creating Layer inception_5a/relu_1x1
I0718 14:29:21.884517 32986 net.cpp:454] inception_5a/relu_1x1 <- inception_5a/1x1
I0718 14:29:21.884532 32986 net.cpp:397] inception_5a/relu_1x1 -> inception_5a/1x1 (in-place)
I0718 14:29:21.887317 32986 net.cpp:150] Setting up inception_5a/relu_1x1
I0718 14:29:21.887339 32986 net.cpp:157] Top shape: 4 256 31 31 (984064)
I0718 14:29:21.887348 32986 net.cpp:165] Memory required for data: 4200506416
I0718 14:29:21.887390 32986 layer_factory.hpp:76] Creating layer inception_5a/3x3_reduce
I0718 14:29:21.887413 32986 net.cpp:106] Creating Layer inception_5a/3x3_reduce
I0718 14:29:21.887423 32986 net.cpp:454] inception_5a/3x3_reduce <- pool4/3x3_s2_pool4/3x3_s2_0_split_1
I0718 14:29:21.887439 32986 net.cpp:411] inception_5a/3x3_reduce -> inception_5a/3x3_reduce
I0718 14:29:21.894939 32986 cudnn_conv_layer.cpp:194] Reallocating workspace storage: 9984
I0718 14:29:21.895064 32986 net.cpp:150] Setting up inception_5a/3x3_reduce
I0718 14:29:21.895113 32986 net.cpp:157] Top shape: 4 160 31 31 (615040)
I0718 14:29:21.895145 32986 net.cpp:165] Memory required for data: 4202966576
I0718 14:29:21.895186 32986 layer_factory.hpp:76] Creating layer inception_5a/relu_3x3_reduce
I0718 14:29:21.895227 32986 net.cpp:106] Creating Layer inception_5a/relu_3x3_reduce
I0718 14:29:21.895267 32986 net.cpp:454] inception_5a/relu_3x3_reduce <- inception_5a/3x3_reduce
I0718 14:29:21.895305 32986 net.cpp:397] inception_5a/relu_3x3_reduce -> inception_5a/3x3_reduce (in-place)
I0718 14:29:21.896847 32986 net.cpp:150] Setting up inception_5a/relu_3x3_reduce
I0718 14:29:21.896889 32986 net.cpp:157] Top shape: 4 160 31 31 (615040)
I0718 14:29:21.896905 32986 net.cpp:165] Memory required for data: 4205426736
I0718 14:29:21.896920 32986 layer_factory.hpp:76] Creating layer inception_5a/3x3
I0718 14:29:21.896961 32986 net.cpp:106] Creating Layer inception_5a/3x3
I0718 14:29:21.896989 32986 net.cpp:454] inception_5a/3x3 <- inception_5a/3x3_reduce
I0718 14:29:21.897022 32986 net.cpp:411] inception_5a/3x3 -> inception_5a/3x3
I0718 14:29:21.913807 32986 net.cpp:150] Setting up inception_5a/3x3
I0718 14:29:21.913889 32986 net.cpp:157] Top shape: 4 320 31 31 (1230080)
I0718 14:29:21.913908 32986 net.cpp:165] Memory required for data: 4210347056
I0718 14:29:21.913933 32986 layer_factory.hpp:76] Creating layer inception_5a/relu_3x3
I0718 14:29:21.913959 32986 net.cpp:106] Creating Layer inception_5a/relu_3x3
I0718 14:29:21.913986 32986 net.cpp:454] inception_5a/relu_3x3 <- inception_5a/3x3
I0718 14:29:21.914019 32986 net.cpp:397] inception_5a/relu_3x3 -> inception_5a/3x3 (in-place)
I0718 14:29:21.915974 32986 net.cpp:150] Setting up inception_5a/relu_3x3
I0718 14:29:21.916016 32986 net.cpp:157] Top shape: 4 320 31 31 (1230080)
I0718 14:29:21.916026 32986 net.cpp:165] Memory required for data: 4215267376
I0718 14:29:21.916043 32986 layer_factory.hpp:76] Creating layer inception_5a/5x5_reduce
I0718 14:29:21.916066 32986 net.cpp:106] Creating Layer inception_5a/5x5_reduce
I0718 14:29:21.916079 32986 net.cpp:454] inception_5a/5x5_reduce <- pool4/3x3_s2_pool4/3x3_s2_0_split_2
I0718 14:29:21.916096 32986 net.cpp:411] inception_5a/5x5_reduce -> inception_5a/5x5_reduce
I0718 14:29:21.920824 32986 cudnn_conv_layer.cpp:194] Reallocating workspace storage: 9984
I0718 14:29:21.920909 32986 net.cpp:150] Setting up inception_5a/5x5_reduce
I0718 14:29:21.920929 32986 net.cpp:157] Top shape: 4 32 31 31 (123008)
I0718 14:29:21.920940 32986 net.cpp:165] Memory required for data: 4215759408
I0718 14:29:21.920960 32986 layer_factory.hpp:76] Creating layer inception_5a/relu_5x5_reduce
I0718 14:29:21.920981 32986 net.cpp:106] Creating Layer inception_5a/relu_5x5_reduce
I0718 14:29:21.920994 32986 net.cpp:454] inception_5a/relu_5x5_reduce <- inception_5a/5x5_reduce
I0718 14:29:21.921006 32986 net.cpp:397] inception_5a/relu_5x5_reduce -> inception_5a/5x5_reduce (in-place)
I0718 14:29:21.922837 32986 net.cpp:150] Setting up inception_5a/relu_5x5_reduce
I0718 14:29:21.922860 32986 net.cpp:157] Top shape: 4 32 31 31 (123008)
I0718 14:29:21.922870 32986 net.cpp:165] Memory required for data: 4216251440
I0718 14:29:21.922880 32986 layer_factory.hpp:76] Creating layer inception_5a/5x5
I0718 14:29:21.922921 32986 net.cpp:106] Creating Layer inception_5a/5x5
I0718 14:29:21.922932 32986 net.cpp:454] inception_5a/5x5 <- inception_5a/5x5_reduce
I0718 14:29:21.922945 32986 net.cpp:411] inception_5a/5x5 -> inception_5a/5x5
I0718 14:29:21.928629 32986 cudnn_conv_layer.cpp:194] Reallocating workspace storage: 9600
I0718 14:29:21.928777 32986 net.cpp:150] Setting up inception_5a/5x5
I0718 14:29:21.928812 32986 net.cpp:157] Top shape: 4 128 31 31 (492032)
I0718 14:29:21.928830 32986 net.cpp:165] Memory required for data: 4218219568
I0718 14:29:21.928856 32986 layer_factory.hpp:76] Creating layer inception_5a/relu_5x5
I0718 14:29:21.928890 32986 net.cpp:106] Creating Layer inception_5a/relu_5x5
I0718 14:29:21.928910 32986 net.cpp:454] inception_5a/relu_5x5 <- inception_5a/5x5
I0718 14:29:21.928931 32986 net.cpp:397] inception_5a/relu_5x5 -> inception_5a/5x5 (in-place)
I0718 14:29:21.930088 32986 net.cpp:150] Setting up inception_5a/relu_5x5
I0718 14:29:21.930121 32986 net.cpp:157] Top shape: 4 128 31 31 (492032)
I0718 14:29:21.930138 32986 net.cpp:165] Memory required for data: 4220187696
I0718 14:29:21.930153 32986 layer_factory.hpp:76] Creating layer inception_5a/pool
I0718 14:29:21.930173 32986 net.cpp:106] Creating Layer inception_5a/pool
I0718 14:29:21.930191 32986 net.cpp:454] inception_5a/pool <- pool4/3x3_s2_pool4/3x3_s2_0_split_3
I0718 14:29:21.930213 32986 net.cpp:411] inception_5a/pool -> inception_5a/pool
I0718 14:29:21.931722 32986 net.cpp:150] Setting up inception_5a/pool
I0718 14:29:21.931758 32986 net.cpp:157] Top shape: 4 832 31 31 (3198208)
I0718 14:29:21.931773 32986 net.cpp:165] Memory required for data: 4232980528
I0718 14:29:21.931792 32986 layer_factory.hpp:76] Creating layer inception_5a/pool_proj
I0718 14:29:21.931820 32986 net.cpp:106] Creating Layer inception_5a/pool_proj
I0718 14:29:21.931845 32986 net.cpp:454] inception_5a/pool_proj <- inception_5a/pool
I0718 14:29:21.931874 32986 net.cpp:411] inception_5a/pool_proj -> inception_5a/pool_proj
I0718 14:29:21.937593 32986 cudnn_conv_layer.cpp:194] Reallocating workspace storage: 9984
I0718 14:29:21.937706 32986 net.cpp:150] Setting up inception_5a/pool_proj
I0718 14:29:21.937737 32986 net.cpp:157] Top shape: 4 128 31 31 (492032)
I0718 14:29:21.937753 32986 net.cpp:165] Memory required for data: 4234948656
I0718 14:29:21.937778 32986 layer_factory.hpp:76] Creating layer inception_5a/relu_pool_proj
I0718 14:29:21.937810 32986 net.cpp:106] Creating Layer inception_5a/relu_pool_proj
I0718 14:29:21.937831 32986 net.cpp:454] inception_5a/relu_pool_proj <- inception_5a/pool_proj
I0718 14:29:21.937851 32986 net.cpp:397] inception_5a/relu_pool_proj -> inception_5a/pool_proj (in-place)
I0718 14:29:21.939005 32986 net.cpp:150] Setting up inception_5a/relu_pool_proj
I0718 14:29:21.939039 32986 net.cpp:157] Top shape: 4 128 31 31 (492032)
I0718 14:29:21.939054 32986 net.cpp:165] Memory required for data: 4236916784
I0718 14:29:21.939069 32986 layer_factory.hpp:76] Creating layer inception_5a/output
I0718 14:29:21.939097 32986 net.cpp:106] Creating Layer inception_5a/output
I0718 14:29:21.939116 32986 net.cpp:454] inception_5a/output <- inception_5a/1x1
I0718 14:29:21.939133 32986 net.cpp:454] inception_5a/output <- inception_5a/3x3
I0718 14:29:21.939149 32986 net.cpp:454] inception_5a/output <- inception_5a/5x5
I0718 14:29:21.939167 32986 net.cpp:454] inception_5a/output <- inception_5a/pool_proj
I0718 14:29:21.939185 32986 net.cpp:411] inception_5a/output -> inception_5a/output
I0718 14:29:21.939257 32986 net.cpp:150] Setting up inception_5a/output
I0718 14:29:21.939283 32986 net.cpp:157] Top shape: 4 832 31 31 (3198208)
I0718 14:29:21.939297 32986 net.cpp:165] Memory required for data: 4249709616
I0718 14:29:21.939312 32986 layer_factory.hpp:76] Creating layer inception_5a/output_inception_5a/output_0_split
I0718 14:29:21.939332 32986 net.cpp:106] Creating Layer inception_5a/output_inception_5a/output_0_split
I0718 14:29:21.939347 32986 net.cpp:454] inception_5a/output_inception_5a/output_0_split <- inception_5a/output
I0718 14:29:21.939368 32986 net.cpp:411] inception_5a/output_inception_5a/output_0_split -> inception_5a/output_inception_5a/output_0_split_0
I0718 14:29:21.939388 32986 net.cpp:411] inception_5a/output_inception_5a/output_0_split -> inception_5a/output_inception_5a/output_0_split_1
I0718 14:29:21.939409 32986 net.cpp:411] inception_5a/output_inception_5a/output_0_split -> inception_5a/output_inception_5a/output_0_split_2
I0718 14:29:21.939468 32986 net.cpp:411] inception_5a/output_inception_5a/output_0_split -> inception_5a/output_inception_5a/output_0_split_3
I0718 14:29:21.939604 32986 net.cpp:150] Setting up inception_5a/output_inception_5a/output_0_split
I0718 14:29:21.939631 32986 net.cpp:157] Top shape: 4 832 31 31 (3198208)
I0718 14:29:21.939648 32986 net.cpp:157] Top shape: 4 832 31 31 (3198208)
I0718 14:29:21.939666 32986 net.cpp:157] Top shape: 4 832 31 31 (3198208)
I0718 14:29:21.939680 32986 net.cpp:157] Top shape: 4 832 31 31 (3198208)
I0718 14:29:21.939695 32986 net.cpp:165] Memory required for data: 4300880944
I0718 14:29:21.939715 32986 layer_factory.hpp:76] Creating layer inception_5b/1x1
I0718 14:29:21.939740 32986 net.cpp:106] Creating Layer inception_5b/1x1
I0718 14:29:21.939756 32986 net.cpp:454] inception_5b/1x1 <- inception_5a/output_inception_5a/output_0_split_0
I0718 14:29:21.939779 32986 net.cpp:411] inception_5b/1x1 -> inception_5b/1x1
I0718 14:29:21.950814 32986 cudnn_conv_layer.cpp:194] Reallocating workspace storage: 9984
I0718 14:29:21.950934 32986 net.cpp:150] Setting up inception_5b/1x1
I0718 14:29:21.950963 32986 net.cpp:157] Top shape: 4 384 31 31 (1476096)
I0718 14:29:21.950979 32986 net.cpp:165] Memory required for data: 4306785328
I0718 14:29:21.951005 32986 layer_factory.hpp:76] Creating layer inception_5b/relu_1x1
I0718 14:29:21.951040 32986 net.cpp:106] Creating Layer inception_5b/relu_1x1
I0718 14:29:21.951058 32986 net.cpp:454] inception_5b/relu_1x1 <- inception_5b/1x1
I0718 14:29:21.951082 32986 net.cpp:397] inception_5b/relu_1x1 -> inception_5b/1x1 (in-place)
I0718 14:29:21.954443 32986 net.cpp:150] Setting up inception_5b/relu_1x1
I0718 14:29:21.954514 32986 net.cpp:157] Top shape: 4 384 31 31 (1476096)
I0718 14:29:21.954536 32986 net.cpp:165] Memory required for data: 4312689712
I0718 14:29:21.954555 32986 layer_factory.hpp:76] Creating layer inception_5b/3x3_reduce
I0718 14:29:21.954593 32986 net.cpp:106] Creating Layer inception_5b/3x3_reduce
I0718 14:29:21.954617 32986 net.cpp:454] inception_5b/3x3_reduce <- inception_5a/output_inception_5a/output_0_split_1
I0718 14:29:21.954663 32986 net.cpp:411] inception_5b/3x3_reduce -> inception_5b/3x3_reduce
I0718 14:29:21.963402 32986 cudnn_conv_layer.cpp:194] Reallocating workspace storage: 9984
I0718 14:29:21.963497 32986 net.cpp:150] Setting up inception_5b/3x3_reduce
I0718 14:29:21.963520 32986 net.cpp:157] Top shape: 4 192 31 31 (738048)
I0718 14:29:21.963529 32986 net.cpp:165] Memory required for data: 4315641904
I0718 14:29:21.963549 32986 layer_factory.hpp:76] Creating layer inception_5b/relu_3x3_reduce
I0718 14:29:21.963572 32986 net.cpp:106] Creating Layer inception_5b/relu_3x3_reduce
I0718 14:29:21.963587 32986 net.cpp:454] inception_5b/relu_3x3_reduce <- inception_5b/3x3_reduce
I0718 14:29:21.963600 32986 net.cpp:397] inception_5b/relu_3x3_reduce -> inception_5b/3x3_reduce (in-place)
I0718 14:29:21.966189 32986 net.cpp:150] Setting up inception_5b/relu_3x3_reduce
I0718 14:29:21.966233 32986 net.cpp:157] Top shape: 4 192 31 31 (738048)
I0718 14:29:21.966243 32986 net.cpp:165] Memory required for data: 4318594096
I0718 14:29:21.966261 32986 layer_factory.hpp:76] Creating layer inception_5b/3x3
I0718 14:29:21.966286 32986 net.cpp:106] Creating Layer inception_5b/3x3
I0718 14:29:21.966300 32986 net.cpp:454] inception_5b/3x3 <- inception_5b/3x3_reduce
I0718 14:29:21.966315 32986 net.cpp:411] inception_5b/3x3 -> inception_5b/3x3
I0718 14:29:21.978574 32986 net.cpp:150] Setting up inception_5b/3x3
I0718 14:29:21.978636 32986 net.cpp:157] Top shape: 4 384 31 31 (1476096)
I0718 14:29:21.978649 32986 net.cpp:165] Memory required for data: 4324498480
I0718 14:29:21.978667 32986 layer_factory.hpp:76] Creating layer inception_5b/relu_3x3
I0718 14:29:21.978687 32986 net.cpp:106] Creating Layer inception_5b/relu_3x3
I0718 14:29:21.978699 32986 net.cpp:454] inception_5b/relu_3x3 <- inception_5b/3x3
I0718 14:29:21.978716 32986 net.cpp:397] inception_5b/relu_3x3 -> inception_5b/3x3 (in-place)
I0718 14:29:21.981324 32986 net.cpp:150] Setting up inception_5b/relu_3x3
I0718 14:29:21.981380 32986 net.cpp:157] Top shape: 4 384 31 31 (1476096)
I0718 14:29:21.981390 32986 net.cpp:165] Memory required for data: 4330402864
I0718 14:29:21.981407 32986 layer_factory.hpp:76] Creating layer inception_5b/5x5_reduce
I0718 14:29:21.981431 32986 net.cpp:106] Creating Layer inception_5b/5x5_reduce
I0718 14:29:21.981446 32986 net.cpp:454] inception_5b/5x5_reduce <- inception_5a/output_inception_5a/output_0_split_2
I0718 14:29:21.981464 32986 net.cpp:411] inception_5b/5x5_reduce -> inception_5b/5x5_reduce
I0718 14:29:21.986807 32986 net.cpp:150] Setting up inception_5b/5x5_reduce
I0718 14:29:21.986865 32986 net.cpp:157] Top shape: 4 48 31 31 (184512)
I0718 14:29:21.986876 32986 net.cpp:165] Memory required for data: 4331140912
I0718 14:29:21.986891 32986 layer_factory.hpp:76] Creating layer inception_5b/relu_5x5_reduce
I0718 14:29:21.986912 32986 net.cpp:106] Creating Layer inception_5b/relu_5x5_reduce
I0718 14:29:21.986925 32986 net.cpp:454] inception_5b/relu_5x5_reduce <- inception_5b/5x5_reduce
I0718 14:29:21.986940 32986 net.cpp:397] inception_5b/relu_5x5_reduce -> inception_5b/5x5_reduce (in-place)
I0718 14:29:21.988908 32986 net.cpp:150] Setting up inception_5b/relu_5x5_reduce
I0718 14:29:21.988976 32986 net.cpp:157] Top shape: 4 48 31 31 (184512)
I0718 14:29:21.988986 32986 net.cpp:165] Memory required for data: 4331878960
I0718 14:29:21.989001 32986 layer_factory.hpp:76] Creating layer inception_5b/5x5
I0718 14:29:21.989029 32986 net.cpp:106] Creating Layer inception_5b/5x5
I0718 14:29:21.989044 32986 net.cpp:454] inception_5b/5x5 <- inception_5b/5x5_reduce
I0718 14:29:21.989063 32986 net.cpp:411] inception_5b/5x5 -> inception_5b/5x5
I0718 14:29:21.994745 32986 net.cpp:150] Setting up inception_5b/5x5
I0718 14:29:21.994814 32986 net.cpp:157] Top shape: 4 128 31 31 (492032)
I0718 14:29:21.994824 32986 net.cpp:165] Memory required for data: 4333847088
I0718 14:29:21.994843 32986 layer_factory.hpp:76] Creating layer inception_5b/relu_5x5
I0718 14:29:21.994870 32986 net.cpp:106] Creating Layer inception_5b/relu_5x5
I0718 14:29:21.994884 32986 net.cpp:454] inception_5b/relu_5x5 <- inception_5b/5x5
I0718 14:29:21.994896 32986 net.cpp:397] inception_5b/relu_5x5 -> inception_5b/5x5 (in-place)
I0718 14:29:21.996191 32986 net.cpp:150] Setting up inception_5b/relu_5x5
I0718 14:29:21.996237 32986 net.cpp:157] Top shape: 4 128 31 31 (492032)
I0718 14:29:21.996248 32986 net.cpp:165] Memory required for data: 4335815216
I0718 14:29:21.996258 32986 layer_factory.hpp:76] Creating layer inception_5b/pool
I0718 14:29:21.996280 32986 net.cpp:106] Creating Layer inception_5b/pool
I0718 14:29:21.996292 32986 net.cpp:454] inception_5b/pool <- inception_5a/output_inception_5a/output_0_split_3
I0718 14:29:21.996309 32986 net.cpp:411] inception_5b/pool -> inception_5b/pool
I0718 14:29:21.997812 32986 net.cpp:150] Setting up inception_5b/pool
I0718 14:29:21.997869 32986 net.cpp:157] Top shape: 4 832 31 31 (3198208)
I0718 14:29:21.997877 32986 net.cpp:165] Memory required for data: 4348608048
I0718 14:29:21.997890 32986 layer_factory.hpp:76] Creating layer inception_5b/pool_proj
I0718 14:29:21.997917 32986 net.cpp:106] Creating Layer inception_5b/pool_proj
I0718 14:29:21.997931 32986 net.cpp:454] inception_5b/pool_proj <- inception_5b/pool
I0718 14:29:21.997944 32986 net.cpp:411] inception_5b/pool_proj -> inception_5b/pool_proj
I0718 14:29:22.003792 32986 cudnn_conv_layer.cpp:194] Reallocating workspace storage: 9984
I0718 14:29:22.003890 32986 net.cpp:150] Setting up inception_5b/pool_proj
I0718 14:29:22.003911 32986 net.cpp:157] Top shape: 4 128 31 31 (492032)
I0718 14:29:22.003921 32986 net.cpp:165] Memory required for data: 4350576176
I0718 14:29:22.003939 32986 layer_factory.hpp:76] Creating layer inception_5b/relu_pool_proj
I0718 14:29:22.003968 32986 net.cpp:106] Creating Layer inception_5b/relu_pool_proj
I0718 14:29:22.003983 32986 net.cpp:454] inception_5b/relu_pool_proj <- inception_5b/pool_proj
I0718 14:29:22.004034 32986 net.cpp:397] inception_5b/relu_pool_proj -> inception_5b/pool_proj (in-place)
I0718 14:29:22.005897 32986 net.cpp:150] Setting up inception_5b/relu_pool_proj
I0718 14:29:22.005937 32986 net.cpp:157] Top shape: 4 128 31 31 (492032)
I0718 14:29:22.005946 32986 net.cpp:165] Memory required for data: 4352544304
I0718 14:29:22.005957 32986 layer_factory.hpp:76] Creating layer inception_5b/output
I0718 14:29:22.005975 32986 net.cpp:106] Creating Layer inception_5b/output
I0718 14:29:22.005987 32986 net.cpp:454] inception_5b/output <- inception_5b/1x1
I0718 14:29:22.006000 32986 net.cpp:454] inception_5b/output <- inception_5b/3x3
I0718 14:29:22.006009 32986 net.cpp:454] inception_5b/output <- inception_5b/5x5
I0718 14:29:22.006018 32986 net.cpp:454] inception_5b/output <- inception_5b/pool_proj
I0718 14:29:22.006028 32986 net.cpp:411] inception_5b/output -> inception_5b/output
I0718 14:29:22.006106 32986 net.cpp:150] Setting up inception_5b/output
I0718 14:29:22.006124 32986 net.cpp:157] Top shape: 4 1024 31 31 (3936256)
I0718 14:29:22.006132 32986 net.cpp:165] Memory required for data: 4368289328
I0718 14:29:22.006141 32986 layer_factory.hpp:76] Creating layer pool5/7x7_s1
I0718 14:29:22.006160 32986 net.cpp:106] Creating Layer pool5/7x7_s1
I0718 14:29:22.006168 32986 net.cpp:454] pool5/7x7_s1 <- inception_5b/output
I0718 14:29:22.006186 32986 net.cpp:411] pool5/7x7_s1 -> pool5/7x7_s1
I0718 14:29:22.263674 32986 cudnn_conv_layer.cpp:194] Reallocating workspace storage: 602112
I0718 14:29:22.263983 32986 net.cpp:150] Setting up pool5/7x7_s1
I0718 14:29:22.264008 32986 net.cpp:157] Top shape: 4 512 25 25 (1280000)
I0718 14:29:22.264019 32986 net.cpp:165] Memory required for data: 4373409328
I0718 14:29:22.264035 32986 layer_factory.hpp:76] Creating layer conv61
I0718 14:29:22.264060 32986 net.cpp:106] Creating Layer conv61
I0718 14:29:22.264072 32986 net.cpp:454] conv61 <- pool5/7x7_s1
I0718 14:29:22.264089 32986 net.cpp:411] conv61 -> conv61
I0718 14:29:22.271829 32986 cudnn_conv_layer.cpp:194] Reallocating workspace storage: 55296
I0718 14:29:22.271865 32986 net.cpp:150] Setting up conv61
I0718 14:29:22.271880 32986 net.cpp:157] Top shape: 4 64 25 25 (160000)
I0718 14:29:22.271895 32986 net.cpp:165] Memory required for data: 4374049328
I0718 14:29:22.271920 32986 layer_factory.hpp:76] Creating layer relu61
I0718 14:29:22.271944 32986 net.cpp:106] Creating Layer relu61
I0718 14:29:22.271961 32986 net.cpp:454] relu61 <- conv61
I0718 14:29:22.271978 32986 net.cpp:397] relu61 -> conv61 (in-place)
I0718 14:29:22.274405 32986 net.cpp:150] Setting up relu61
I0718 14:29:22.274433 32986 net.cpp:157] Top shape: 4 64 25 25 (160000)
I0718 14:29:22.274448 32986 net.cpp:165] Memory required for data: 4374689328
I0718 14:29:22.274463 32986 layer_factory.hpp:76] Creating layer pool5
I0718 14:29:22.274492 32986 net.cpp:106] Creating Layer pool5
I0718 14:29:22.274507 32986 net.cpp:454] pool5 <- conv61
I0718 14:29:22.274526 32986 net.cpp:411] pool5 -> pool5
I0718 14:29:22.277024 32986 net.cpp:150] Setting up pool5
I0718 14:29:22.277053 32986 net.cpp:157] Top shape: 4 64 13 13 (43264)
I0718 14:29:22.277068 32986 net.cpp:165] Memory required for data: 4374862384
I0718 14:29:22.277086 32986 layer_factory.hpp:76] Creating layer conv62
I0718 14:29:22.277109 32986 net.cpp:106] Creating Layer conv62
I0718 14:29:22.277125 32986 net.cpp:454] conv62 <- pool5
I0718 14:29:22.277150 32986 net.cpp:411] conv62 -> conv62
I0718 14:29:22.284271 32986 net.cpp:150] Setting up conv62
I0718 14:29:22.284337 32986 net.cpp:157] Top shape: 4 64 13 13 (43264)
I0718 14:29:22.284351 32986 net.cpp:165] Memory required for data: 4375035440
I0718 14:29:22.284373 32986 layer_factory.hpp:76] Creating layer relu62
I0718 14:29:22.284396 32986 net.cpp:106] Creating Layer relu62
I0718 14:29:22.284411 32986 net.cpp:454] relu62 <- conv62
I0718 14:29:22.284432 32986 net.cpp:397] relu62 -> conv62 (in-place)
I0718 14:29:22.286702 32986 net.cpp:150] Setting up relu62
I0718 14:29:22.286731 32986 net.cpp:157] Top shape: 4 64 13 13 (43264)
I0718 14:29:22.286787 32986 net.cpp:165] Memory required for data: 4375208496
I0718 14:29:22.286803 32986 layer_factory.hpp:76] Creating layer pool6
I0718 14:29:22.286833 32986 net.cpp:106] Creating Layer pool6
I0718 14:29:22.286849 32986 net.cpp:454] pool6 <- conv62
I0718 14:29:22.286866 32986 net.cpp:411] pool6 -> pool6
I0718 14:29:22.289418 32986 net.cpp:150] Setting up pool6
I0718 14:29:22.289585 32986 net.cpp:157] Top shape: 4 64 7 7 (12544)
I0718 14:29:22.289604 32986 net.cpp:165] Memory required for data: 4375258672
I0718 14:29:22.289619 32986 layer_factory.hpp:76] Creating layer conv81
I0718 14:29:22.289644 32986 net.cpp:106] Creating Layer conv81
I0718 14:29:22.289660 32986 net.cpp:454] conv81 <- pool6
I0718 14:29:22.289685 32986 net.cpp:411] conv81 -> conv81
I0718 14:29:22.297443 32986 cudnn_conv_layer.cpp:194] Reallocating workspace storage: 6912
I0718 14:29:22.297554 32986 net.cpp:150] Setting up conv81
I0718 14:29:22.297587 32986 net.cpp:157] Top shape: 4 128 7 7 (25088)
I0718 14:29:22.297610 32986 net.cpp:165] Memory required for data: 4375359024
I0718 14:29:22.297636 32986 layer_factory.hpp:76] Creating layer relu81
I0718 14:29:22.297663 32986 net.cpp:106] Creating Layer relu81
I0718 14:29:22.297683 32986 net.cpp:454] relu81 <- conv81
I0718 14:29:22.297706 32986 net.cpp:397] relu81 -> conv81 (in-place)
I0718 14:29:22.299818 32986 net.cpp:150] Setting up relu81
I0718 14:29:22.299850 32986 net.cpp:157] Top shape: 4 128 7 7 (25088)
I0718 14:29:22.299870 32986 net.cpp:165] Memory required for data: 4375459376
I0718 14:29:22.299885 32986 layer_factory.hpp:76] Creating layer conv82
I0718 14:29:22.299917 32986 net.cpp:106] Creating Layer conv82
I0718 14:29:22.299935 32986 net.cpp:454] conv82 <- conv81
I0718 14:29:22.299957 32986 net.cpp:411] conv82 -> conv82
I0718 14:29:22.306877 32986 net.cpp:150] Setting up conv82
I0718 14:29:22.306932 32986 net.cpp:157] Top shape: 4 128 7 7 (25088)
I0718 14:29:22.306952 32986 net.cpp:165] Memory required for data: 4375559728
I0718 14:29:22.306975 32986 layer_factory.hpp:76] Creating layer relu82
I0718 14:29:22.307004 32986 net.cpp:106] Creating Layer relu82
I0718 14:29:22.307023 32986 net.cpp:454] relu82 <- conv82
I0718 14:29:22.307044 32986 net.cpp:397] relu82 -> conv82 (in-place)
I0718 14:29:22.309345 32986 net.cpp:150] Setting up relu82
I0718 14:29:22.309377 32986 net.cpp:157] Top shape: 4 128 7 7 (25088)
I0718 14:29:22.309397 32986 net.cpp:165] Memory required for data: 4375660080
I0718 14:29:22.309414 32986 layer_factory.hpp:76] Creating layer pool7
I0718 14:29:22.309438 32986 net.cpp:106] Creating Layer pool7
I0718 14:29:22.309460 32986 net.cpp:454] pool7 <- conv82
I0718 14:29:22.309490 32986 net.cpp:411] pool7 -> pool7
I0718 14:29:22.312182 32986 net.cpp:150] Setting up pool7
I0718 14:29:22.312227 32986 net.cpp:157] Top shape: 4 128 4 4 (8192)
I0718 14:29:22.312245 32986 net.cpp:165] Memory required for data: 4375692848
I0718 14:29:22.312259 32986 layer_factory.hpp:76] Creating layer drop0
I0718 14:29:22.312296 32986 net.cpp:106] Creating Layer drop0
I0718 14:29:22.312319 32986 net.cpp:454] drop0 <- pool7
I0718 14:29:22.312346 32986 net.cpp:397] drop0 -> pool7 (in-place)
I0718 14:29:22.312497 32986 net.cpp:150] Setting up drop0
I0718 14:29:22.312530 32986 net.cpp:157] Top shape: 4 128 4 4 (8192)
I0718 14:29:22.312552 32986 net.cpp:165] Memory required for data: 4375725616
I0718 14:29:22.312577 32986 layer_factory.hpp:76] Creating layer conv91
I0718 14:29:22.312609 32986 net.cpp:106] Creating Layer conv91
I0718 14:29:22.312633 32986 net.cpp:454] conv91 <- pool7
I0718 14:29:22.312659 32986 net.cpp:411] conv91 -> conv91
I0718 14:29:22.318536 32986 cudnn_conv_layer.cpp:194] Reallocating workspace storage: 6211584
I0718 14:29:22.319097 32986 net.cpp:150] Setting up conv91
I0718 14:29:22.319156 32986 net.cpp:157] Top shape: 4 3 1 1 (12)
I0718 14:29:22.319191 32986 net.cpp:165] Memory required for data: 4375725664
I0718 14:29:22.319242 32986 layer_factory.hpp:76] Creating layer conv91_conv91_0_split
I0718 14:29:22.319288 32986 net.cpp:106] Creating Layer conv91_conv91_0_split
I0718 14:29:22.319392 32986 net.cpp:454] conv91_conv91_0_split <- conv91
I0718 14:29:22.319439 32986 net.cpp:411] conv91_conv91_0_split -> conv91_conv91_0_split_0
I0718 14:29:22.319476 32986 net.cpp:411] conv91_conv91_0_split -> conv91_conv91_0_split_1
I0718 14:29:22.319674 32986 net.cpp:150] Setting up conv91_conv91_0_split
I0718 14:29:22.319722 32986 net.cpp:157] Top shape: 4 3 1 1 (12)
I0718 14:29:22.319754 32986 net.cpp:157] Top shape: 4 3 1 1 (12)
I0718 14:29:22.319787 32986 net.cpp:165] Memory required for data: 4375725760
I0718 14:29:22.319814 32986 layer_factory.hpp:76] Creating layer accuracy
I0718 14:29:22.319869 32986 net.cpp:106] Creating Layer accuracy
I0718 14:29:22.319886 32986 net.cpp:454] accuracy <- conv91_conv91_0_split_0
I0718 14:29:22.319907 32986 net.cpp:454] accuracy <- label_data_1_split_0
I0718 14:29:22.319933 32986 net.cpp:411] accuracy -> accuracy
…
