…
I0718 14:06:13.446604 28842 net.cpp:322] The NetState phase (0) differed from the phase (1) specified by a rule in layer data
I0718 14:06:13.447613 28842 net.cpp:49] Initializing net from parameters: 
name: "GoogleNet"
state {
  phase: TRAIN
}
layer {
  name: "data"
  type: "ImageData"
  top: "data"
  top: "label"
  include {
    phase: TRAIN
  }
  transform_param {
    mirror: true
    mean_value: 163
    mean_value: 116
    mean_value: 181
  }
  image_data_param {
    source: "../lists/mitosis_train.lst"
    batch_size: 6
    shuffle: true
  }
}
layer {
  name: "conv1/7x7_s2"
  type: "Convolution"
  bottom: "data"
  top: "conv1/7x7_s2"
  param {
    lr_mult: 0
    decay_mult: 1
  }
  param {
    lr_mult: 2
    decay_mult: 0
  }
  convolution_param {
    num_output: 64
    pad: 3
    kernel_size: 7
    stride: 2
    weight_filler {
      type: "xavier"
    }
    bias_filler {
      type: "constant"
      value: 0.2
    }
  }
}
layer {
  name: "conv1/relu_7x7"
  type: "ReLU"
  bottom: "conv1/7x7_s2"
  top: "conv1/7x7_s2"
}
layer {
  name: "pool1/3x3_s2"
  type: "Pooling"
  bottom: "conv1/7x7_s2"
  top: "pool1/3x3_s2"
  pooling_param {
    pool: MAX
    kernel_size: 3
    stride: 2
  }
}
layer {
  name: "pool1/norm1"
  type: "LRN"
  bottom: "pool1/3x3_s2"
  top: "pool1/norm1"
  lrn_param {
    local_size: 5
    alpha: 0.0001
    beta: 0.75
  }
}
layer {
  name: "conv2/3x3_reduce"
  type: "Convolution"
  bottom: "pool1/norm1"
  top: "conv2/3x3_reduce"
  param {
    lr_mult: 0
    decay_mult: 1
  }
  param {
    lr_mult: 2
    decay_mult: 0
  }
  convolution_param {
    num_output: 64
    kernel_size: 1
    weight_filler {
      type: "xavier"
    }
    bias_filler {
      type: "constant"
      value: 0.2
    }
  }
}
layer {
  name: "conv2/relu_3x3_reduce"
  type: "ReLU"
  bottom: "conv2/3x3_reduce"
  top: "conv2/3x3_reduce"
}
layer {
  name: "conv2/3x3"
  type: "Convolution"
  bottom: "conv2/3x3_reduce"
  top: "conv2/3x3"
  param {
    lr_mult: 0
    decay_mult: 1
  }
  param {
    lr_mult: 2
    decay_mult: 0
  }
  convolution_param {
    num_output: 192
    pad: 1
    kernel_size: 3
    weight_filler {
      type: "xavier"
    }
    bias_filler {
      type: "constant"
      value: 0.2
    }
  }
}
layer {
  name: "conv2/relu_3x3"
  type: "ReLU"
  bottom: "conv2/3x3"
  top: "conv2/3x3"
}
layer {
  name: "conv2/norm2"
  type: "LRN"
  bottom: "conv2/3x3"
  top: "conv2/norm2"
  lrn_param {
    local_size: 5
    alpha: 0.0001
    beta: 0.75
  }
}
layer {
  name: "pool2/3x3_s2"
  type: "Pooling"
  bottom: "conv2/norm2"
  top: "pool2/3x3_s2"
  pooling_param {
    pool: MAX
    kernel_size: 3
    stride: 2
  }
}
layer {
  name: "inception_3a/1x1"
  type: "Convolution"
  bottom: "pool2/3x3_s2"
  top: "inception_3a/1x1"
  param {
    lr_mult: 0
    decay_mult: 1
  }
  param {
    lr_mult: 2
    decay_mult: 0
  }
  convolution_param {
    num_output: 64
    kernel_size: 1
    weight_filler {
      type: "xavier"
    }
    bias_filler {
      type: "constant"
      value: 0.2
    }
  }
}
layer {
  name: "inception_3a/relu_1x1"
  type: "ReLU"
  bottom: "inception_3a/1x1"
  top: "inception_3a/1x1"
}
layer {
  name: "inception_3a/3x3_reduce"
  type: "Convolution"
  bottom: "pool2/3x3_s2"
  top: "inception_3a/3x3_reduce"
  param {
    lr_mult: 0
    decay_mult: 1
  }
  param {
    lr_mult: 2
    decay_mult: 0
  }
  convolution_param {
    num_output: 96
    kernel_size: 1
    weight_filler {
      type: "xavier"
    }
    bias_filler {
      type: "constant"
      value: 0.2
    }
  }
}
layer {
  name: "inception_3a/relu_3x3_reduce"
  type: "ReLU"
  bottom: "inception_3a/3x3_reduce"
  top: "inception_3a/3x3_reduce"
}
layer {
  name: "inception_3a/3x3"
  type: "Convolution"
  bottom: "inception_3a/3x3_reduce"
  top: "inception_3a/3x3"
  param {
    lr_mult: 0
    decay_mult: 1
  }
  param {
    lr_mult: 2
    decay_mult: 0
  }
  convolution_param {
    num_output: 128
    pad: 1
    kernel_size: 3
    weight_filler {
      type: "xavier"
    }
    bias_filler {
      type: "constant"
      value: 0.2
    }
  }
}
layer {
  name: "inception_3a/relu_3x3"
  type: "ReLU"
  bottom: "inception_3a/3x3"
  top: "inception_3a/3x3"
}
layer {
  name: "inception_3a/5x5_reduce"
  type: "Convolution"
  bottom: "pool2/3x3_s2"
  top: "inception_3a/5x5_reduce"
  param {
    lr_mult: 0
    decay_mult: 1
  }
  param {
    lr_mult: 2
    decay_mult: 0
  }
  convolution_param {
    num_output: 16
    kernel_size: 1
    weight_filler {
      type: "xavier"
    }
    bias_filler {
      type: "constant"
      value: 0.2
    }
  }
}
layer {
  name: "inception_3a/relu_5x5_reduce"
  type: "ReLU"
  bottom: "inception_3a/5x5_reduce"
  top: "inception_3a/5x5_reduce"
}
layer {
  name: "inception_3a/5x5"
  type: "Convolution"
  bottom: "inception_3a/5x5_reduce"
  top: "inception_3a/5x5"
  param {
    lr_mult: 0
    decay_mult: 1
  }
  param {
    lr_mult: 2
    decay_mult: 0
  }
  convolution_param {
    num_output: 32
    pad: 2
    kernel_size: 5
    weight_filler {
      type: "xavier"
    }
    bias_filler {
      type: "constant"
      value: 0.2
    }
  }
}
layer {
  name: "inception_3a/relu_5x5"
  type: "ReLU"
  bottom: "inception_3a/5x5"
  top: "inception_3a/5x5"
}
layer {
  name: "inception_3a/pool"
  type: "Pooling"
  bottom: "pool2/3x3_s2"
  top: "inception_3a/pool"
  pooling_param {
    pool: MAX
    kernel_size: 3
    stride: 1
    pad: 1
  }
}
layer {
  name: "inception_3a/pool_proj"
  type: "Convolution"
  bottom: "inception_3a/pool"
  top: "inception_3a/pool_proj"
  param {
    lr_mult: 0
    decay_mult: 1
  }
  param {
    lr_mult: 2
    decay_mult: 0
  }
  convolution_param {
    num_output: 32
    kernel_size: 1
    weight_filler {
      type: "xavier"
    }
    bias_filler {
      type: "constant"
      value: 0.2
    }
  }
}
layer {
  name: "inception_3a/relu_pool_proj"
  type: "ReLU"
  bottom: "inception_3a/pool_proj"
  top: "inception_3a/pool_proj"
}
layer {
  name: "inception_3a/output"
  type: "Concat"
  bottom: "inception_3a/1x1"
  bottom: "inception_3a/3x3"
  bottom: "inception_3a/5x5"
  bottom: "inception_3a/pool_proj"
  top: "inception_3a/output"
}
layer {
  name: "inception_3b/1x1"
  type: "Convolution"
  bottom: "inception_3a/output"
  top: "inception_3b/1x1"
  param {
    lr_mult: 0
    decay_mult: 1
  }
  param {
    lr_mult: 2
    decay_mult: 0
  }
  convolution_param {
    num_output: 128
    kernel_size: 1
    weight_filler {
      type: "xavier"
    }
    bias_filler {
      type: "constant"
      value: 0.2
    }
  }
}
layer {
  name: "inception_3b/relu_1x1"
  type: "ReLU"
  bottom: "inception_3b/1x1"
  top: "inception_3b/1x1"
}
layer {
  name: "inception_3b/3x3_reduce"
  type: "Convolution"
  bottom: "inception_3a/output"
  top: "inception_3b/3x3_reduce"
  param {
    lr_mult: 0
    decay_mult: 1
  }
  param {
    lr_mult: 2
    decay_mult: 0
  }
  convolution_param {
    num_output: 128
    kernel_size: 1
    weight_filler {
      type: "xavier"
    }
    bias_filler {
      type: "constant"
      value: 0.2
    }
  }
}
layer {
  name: "inception_3b/relu_3x3_reduce"
  type: "ReLU"
  bottom: "inception_3b/3x3_reduce"
  top: "inception_3b/3x3_reduce"
}
layer {
  name: "inception_3b/3x3"
  type: "Convolution"
  bottom: "inception_3b/3x3_reduce"
  top: "inception_3b/3x3"
  param {
    lr_mult: 0
    decay_mult: 1
  }
  param {
    lr_mult: 2
    decay_mult: 0
  }
  convolution_param {
    num_output: 192
    pad: 1
    kernel_size: 3
    weight_filler {
      type: "xavier"
    }
    bias_filler {
      type: "constant"
      value: 0.2
    }
  }
}
layer {
  name: "inception_3b/relu_3x3"
  type: "ReLU"
  bottom: "inception_3b/3x3"
  top: "inception_3b/3x3"
}
layer {
  name: "inception_3b/5x5_reduce"
  type: "Convolution"
  bottom: "inception_3a/output"
  top: "inception_3b/5x5_reduce"
  param {
    lr_mult: 0
    decay_mult: 1
  }
  param {
    lr_mult: 2
    decay_mult: 0
  }
  convolution_param {
    num_output: 32
    kernel_size: 1
    weight_filler {
      type: "xavier"
    }
    bias_filler {
      type: "constant"
      value: 0.2
    }
  }
}
layer {
  name: "inception_3b/relu_5x5_reduce"
  type: "ReLU"
  bottom: "inception_3b/5x5_reduce"
  top: "inception_3b/5x5_reduce"
}
layer {
  name: "inception_3b/5x5"
  type: "Convolution"
  bottom: "inception_3b/5x5_reduce"
  top: "inception_3b/5x5"
  param {
    lr_mult: 0
    decay_mult: 1
  }
  param {
    lr_mult: 2
    decay_mult: 0
  }
  convolution_param {
    num_output: 96
    pad: 2
    kernel_size: 5
    weight_filler {
      type: "xavier"
    }
    bias_filler {
      type: "constant"
      value: 0.2
    }
  }
}
layer {
  name: "inception_3b/relu_5x5"
  type: "ReLU"
  bottom: "inception_3b/5x5"
  top: "inception_3b/5x5"
}
layer {
  name: "inception_3b/pool"
  type: "Pooling"
  bottom: "inception_3a/output"
  top: "inception_3b/pool"
  pooling_param {
    pool: MAX
    kernel_size: 3
    stride: 1
    pad: 1
  }
}
layer {
  name: "inception_3b/pool_proj"
  type: "Convolution"
  bottom: "inception_3b/pool"
  top: "inception_3b/pool_proj"
  param {
    lr_mult: 0
    decay_mult: 1
  }
  param {
    lr_mult: 2
    decay_mult: 0
  }
  convolution_param {
    num_output: 64
    kernel_size: 1
    weight_filler {
      type: "xavier"
    }
    bias_filler {
      type: "constant"
      value: 0.2
    }
  }
}
layer {
  name: "inception_3b/relu_pool_proj"
  type: "ReLU"
  bottom: "inception_3b/pool_proj"
  top: "inception_3b/pool_proj"
}
layer {
  name: "inception_3b/output"
  type: "Concat"
  bottom: "inception_3b/1x1"
  bottom: "inception_3b/3x3"
  bottom: "inception_3b/5x5"
  bottom: "inception_3b/pool_proj"
  top: "inception_3b/output"
}
layer {
  name: "pool3/3x3_s2"
  type: "Pooling"
  bottom: "inception_3b/output"
  top: "pool3/3x3_s2"
  pooling_param {
    pool: MAX
    kernel_size: 3
    stride: 2
  }
}
layer {
  name: "inception_4a/1x1"
  type: "Convolution"
  bottom: "pool3/3x3_s2"
  top: "inception_4a/1x1"
  param {
    lr_mult: 0
    decay_mult: 1
  }
  param {
    lr_mult: 2
    decay_mult: 0
  }
  convolution_param {
    num_output: 192
    kernel_size: 1
    weight_filler {
      type: "xavier"
    }
    bias_filler {
      type: "constant"
      value: 0.2
    }
  }
}
layer {
  name: "inception_4a/relu_1x1"
  type: "ReLU"
  bottom: "inception_4a/1x1"
  top: "inception_4a/1x1"
}
layer {
  name: "inception_4a/3x3_reduce"
  type: "Convolution"
  bottom: "pool3/3x3_s2"
  top: "inception_4a/3x3_reduce"
  param {
    lr_mult: 0
    decay_mult: 1
  }
  param {
    lr_mult: 2
    decay_mult: 0
  }
  convolution_param {
    num_output: 96
    kernel_size: 1
    weight_filler {
      type: "xavier"
    }
    bias_filler {
      type: "constant"
      value: 0.2
    }
  }
}
layer {
  name: "inception_4a/relu_3x3_reduce"
  type: "ReLU"
  bottom: "inception_4a/3x3_reduce"
  top: "inception_4a/3x3_reduce"
}
layer {
  name: "inception_4a/3x3"
  type: "Convolution"
  bottom: "inception_4a/3x3_reduce"
  top: "inception_4a/3x3"
  param {
    lr_mult: 0
    decay_mult: 1
  }
  param {
    lr_mult: 2
    decay_mult: 0
  }
  convolution_param {
    num_output: 208
    pad: 1
    kernel_size: 3
    weight_filler {
      type: "xavier"
    }
    bias_filler {
      type: "constant"
      value: 0.2
    }
  }
}
layer {
  name: "inception_4a/relu_3x3"
  type: "ReLU"
  bottom: "inception_4a/3x3"
  top: "inception_4a/3x3"
}
layer {
  name: "inception_4a/5x5_reduce"
  type: "Convolution"
  bottom: "pool3/3x3_s2"
  top: "inception_4a/5x5_reduce"
  param {
    lr_mult: 0
    decay_mult: 1
  }
  param {
    lr_mult: 2
    decay_mult: 0
  }
  convolution_param {
    num_output: 16
    kernel_size: 1
    weight_filler {
      type: "xavier"
    }
    bias_filler {
      type: "constant"
      value: 0.2
    }
  }
}
layer {
  name: "inception_4a/relu_5x5_reduce"
  type: "ReLU"
  bottom: "inception_4a/5x5_reduce"
  top: "inception_4a/5x5_reduce"
}
layer {
  name: "inception_4a/5x5"
  type: "Convolution"
  bottom: "inception_4a/5x5_reduce"
  top: "inception_4a/5x5"
  param {
    lr_mult: 0
    decay_mult: 1
  }
  param {
    lr_mult: 2
    decay_mult: 0
  }
  convolution_param {
    num_output: 48
    pad: 2
    kernel_size: 5
    weight_filler {
      type: "xavier"
    }
    bias_filler {
      type: "constant"
      value: 0.2
    }
  }
}
layer {
  name: "inception_4a/relu_5x5"
  type: "ReLU"
  bottom: "inception_4a/5x5"
  top: "inception_4a/5x5"
}
layer {
  name: "inception_4a/pool"
  type: "Pooling"
  bottom: "pool3/3x3_s2"
  top: "inception_4a/pool"
  pooling_param {
    pool: MAX
    kernel_size: 3
    stride: 1
    pad: 1
  }
}
layer {
  name: "inception_4a/pool_proj"
  type: "Convolution"
  bottom: "inception_4a/pool"
  top: "inception_4a/pool_proj"
  param {
    lr_mult: 0
    decay_mult: 1
  }
  param {
    lr_mult: 2
    decay_mult: 0
  }
  convolution_param {
    num_output: 64
    kernel_size: 1
    weight_filler {
      type: "xavier"
    }
    bias_filler {
      type: "constant"
      value: 0.2
    }
  }
}
layer {
  name: "inception_4a/relu_pool_proj"
  type: "ReLU"
  bottom: "inception_4a/pool_proj"
  top: "inception_4a/pool_proj"
}
layer {
  name: "inception_4a/output"
  type: "Concat"
  bottom: "inception_4a/1x1"
  bottom: "inception_4a/3x3"
  bottom: "inception_4a/5x5"
  bottom: "inception_4a/pool_proj"
  top: "inception_4a/output"
}
layer {
  name: "inception_4b/1x1"
  type: "Convolution"
  bottom: "inception_4a/output"
  top: "inception_4b/1x1"
  param {
    lr_mult: 0
    decay_mult: 1
  }
  param {
    lr_mult: 2
    decay_mult: 0
  }
  convolution_param {
    num_output: 160
    kernel_size: 1
    weight_filler {
      type: "xavier"
    }
    bias_filler {
      type: "constant"
      value: 0.2
    }
  }
}
layer {
  name: "inception_4b/relu_1x1"
  type: "ReLU"
  bottom: "inception_4b/1x1"
  top: "inception_4b/1x1"
}
layer {
  name: "inception_4b/3x3_reduce"
  type: "Convolution"
  bottom: "inception_4a/output"
  top: "inception_4b/3x3_reduce"
  param {
    lr_mult: 0
    decay_mult: 1
  }
  param {
    lr_mult: 2
    decay_mult: 0
  }
  convolution_param {
    num_output: 112
    kernel_size: 1
    weight_filler {
      type: "xavier"
    }
    bias_filler {
      type: "constant"
      value: 0.2
    }
  }
}
layer {
  name: "inception_4b/relu_3x3_reduce"
  type: "ReLU"
  bottom: "inception_4b/3x3_reduce"
  top: "inception_4b/3x3_reduce"
}
layer {
  name: "inception_4b/3x3"
  type: "Convolution"
  bottom: "inception_4b/3x3_reduce"
  top: "inception_4b/3x3"
  param {
    lr_mult: 0
    decay_mult: 1
  }
  param {
    lr_mult: 2
    decay_mult: 0
  }
  convolution_param {
    num_output: 224
    pad: 1
    kernel_size: 3
    weight_filler {
      type: "xavier"
    }
    bias_filler {
      type: "constant"
      value: 0.2
    }
  }
}
layer {
  name: "inception_4b/relu_3x3"
  type: "ReLU"
  bottom: "inception_4b/3x3"
  top: "inception_4b/3x3"
}
layer {
  name: "inception_4b/5x5_reduce"
  type: "Convolution"
  bottom: "inception_4a/output"
  top: "inception_4b/5x5_reduce"
  param {
    lr_mult: 0
    decay_mult: 1
  }
  param {
    lr_mult: 2
    decay_mult: 0
  }
  convolution_param {
    num_output: 24
    kernel_size: 1
    weight_filler {
      type: "xavier"
    }
    bias_filler {
      type: "constant"
      value: 0.2
    }
  }
}
layer {
  name: "inception_4b/relu_5x5_reduce"
  type: "ReLU"
  bottom: "inception_4b/5x5_reduce"
  top: "inception_4b/5x5_reduce"
}
layer {
  name: "inception_4b/5x5"
  type: "Convolution"
  bottom: "inception_4b/5x5_reduce"
  top: "inception_4b/5x5"
  param {
    lr_mult: 0
    decay_mult: 1
  }
  param {
    lr_mult: 2
    decay_mult: 0
  }
  convolution_param {
    num_output: 64
    pad: 2
    kernel_size: 5
    weight_filler {
      type: "xavier"
    }
    bias_filler {
      type: "constant"
      value: 0.2
    }
  }
}
layer {
  name: "inception_4b/relu_5x5"
  type: "ReLU"
  bottom: "inception_4b/5x5"
  top: "inception_4b/5x5"
}
layer {
  name: "inception_4b/pool"
  type: "Pooling"
  bottom: "inception_4a/output"
  top: "inception_4b/pool"
  pooling_param {
    pool: MAX
    kernel_size: 3
    stride: 1
    pad: 1
  }
}
layer {
  name: "inception_4b/pool_proj"
  type: "Convolution"
  bottom: "inception_4b/pool"
  top: "inception_4b/pool_proj"
  param {
    lr_mult: 0
    decay_mult: 1
  }
  param {
    lr_mult: 2
    decay_mult: 0
  }
  convolution_param {
    num_output: 64
    kernel_size: 1
    weight_filler {
      type: "xavier"
    }
    bias_filler {
      type: "constant"
      value: 0.2
    }
  }
}
layer {
  name: "inception_4b/relu_pool_proj"
  type: "ReLU"
  bottom: "inception_4b/pool_proj"
  top: "inception_4b/pool_proj"
}
layer {
  name: "inception_4b/output"
  type: "Concat"
  bottom: "inception_4b/1x1"
  bottom: "inception_4b/3x3"
  bottom: "inception_4b/5x5"
  bottom: "inception_4b/pool_proj"
  top: "inception_4b/output"
}
layer {
  name: "inception_4c/1x1"
  type: "Convolution"
  bottom: "inception_4b/output"
  top: "inception_4c/1x1"
  param {
    lr_mult: 0
    decay_mult: 1
  }
  param {
    lr_mult: 2
    decay_mult: 0
  }
  convolution_param {
    num_output: 128
    kernel_size: 1
    weight_filler {
      type: "xavier"
    }
    bias_filler {
      type: "constant"
      value: 0.2
    }
  }
}
layer {
  name: "inception_4c/relu_1x1"
  type: "ReLU"
  bottom: "inception_4c/1x1"
  top: "inception_4c/1x1"
}
layer {
  name: "inception_4c/3x3_reduce"
  type: "Convolution"
  bottom: "inception_4b/output"
  top: "inception_4c/3x3_reduce"
  param {
    lr_mult: 0
    decay_mult: 1
  }
  param {
    lr_mult: 2
    decay_mult: 0
  }
  convolution_param {
    num_output: 128
    kernel_size: 1
    weight_filler {
      type: "xavier"
    }
    bias_filler {
      type: "constant"
      value: 0.2
    }
  }
}
layer {
  name: "inception_4c/relu_3x3_reduce"
  type: "ReLU"
  bottom: "inception_4c/3x3_reduce"
  top: "inception_4c/3x3_reduce"
}
layer {
  name: "inception_4c/3x3"
  type: "Convolution"
  bottom: "inception_4c/3x3_reduce"
  top: "inception_4c/3x3"
  param {
    lr_mult: 0
    decay_mult: 1
  }
  param {
    lr_mult: 2
    decay_mult: 0
  }
  convolution_param {
    num_output: 256
    pad: 1
    kernel_size: 3
    weight_filler {
      type: "xavier"
    }
    bias_filler {
      type: "constant"
      value: 0.2
    }
  }
}
layer {
  name: "inception_4c/relu_3x3"
  type: "ReLU"
  bottom: "inception_4c/3x3"
  top: "inception_4c/3x3"
}
layer {
  name: "inception_4c/5x5_reduce"
  type: "Convolution"
  bottom: "inception_4b/output"
  top: "inception_4c/5x5_reduce"
  param {
    lr_mult: 0
    decay_mult: 1
  }
  param {
    lr_mult: 2
    decay_mult: 0
  }
  convolution_param {
    num_output: 24
    kernel_size: 1
    weight_filler {
      type: "xavier"
    }
    bias_filler {
      type: "constant"
      value: 0.2
    }
  }
}
layer {
  name: "inception_4c/relu_5x5_reduce"
  type: "ReLU"
  bottom: "inception_4c/5x5_reduce"
  top: "inception_4c/5x5_reduce"
}
layer {
  name: "inception_4c/5x5"
  type: "Convolution"
  bottom: "inception_4c/5x5_reduce"
  top: "inception_4c/5x5"
  param {
    lr_mult: 0
    decay_mult: 1
  }
  param {
    lr_mult: 2
    decay_mult: 0
  }
  convolution_param {
    num_output: 64
    pad: 2
    kernel_size: 5
    weight_filler {
      type: "xavier"
    }
    bias_filler {
      type: "constant"
      value: 0.2
    }
  }
}
layer {
  name: "inception_4c/relu_5x5"
  type: "ReLU"
  bottom: "inception_4c/5x5"
  top: "inception_4c/5x5"
}
layer {
  name: "inception_4c/pool"
  type: "Pooling"
  bottom: "inception_4b/output"
  top: "inception_4c/pool"
  pooling_param {
    pool: MAX
    kernel_size: 3
    stride: 1
    pad: 1
  }
}
layer {
  name: "inception_4c/pool_proj"
  type: "Convolution"
  bottom: "inception_4c/pool"
  top: "inception_4c/pool_proj"
  param {
    lr_mult: 0
    decay_mult: 1
  }
  param {
    lr_mult: 2
    decay_mult: 0
  }
  convolution_param {
    num_output: 64
    kernel_size: 1
    weight_filler {
      type: "xavier"
    }
    bias_filler {
      type: "constant"
      value: 0.2
    }
  }
}
layer {
  name: "inception_4c/relu_pool_proj"
  type: "ReLU"
  bottom: "inception_4c/pool_proj"
  top: "inception_4c/pool_proj"
}
layer {
  name: "inception_4c/output"
  type: "Concat"
  bottom: "inception_4c/1x1"
  bottom: "inception_4c/3x3"
  bottom: "inception_4c/5x5"
  bottom: "inception_4c/pool_proj"
  top: "inception_4c/output"
}
layer {
  name: "inception_4d/1x1"
  type: "Convolution"
  bottom: "inception_4c/output"
  top: "inception_4d/1x1"
  param {
    lr_mult: 0
    decay_mult: 1
  }
  param {
    lr_mult: 2
    decay_mult: 0
  }
  convolution_param {
    num_output: 112
    kernel_size: 1
    weight_filler {
      type: "xavier"
    }
    bias_filler {
      type: "constant"
      value: 0.2
    }
  }
}
layer {
  name: "inception_4d/relu_1x1"
  type: "ReLU"
  bottom: "inception_4d/1x1"
  top: "inception_4d/1x1"
}
layer {
  name: "inception_4d/3x3_reduce"
  type: "Convolution"
  bottom: "inception_4c/output"
  top: "inception_4d/3x3_reduce"
  param {
    lr_mult: 0
    decay_mult: 1
  }
  param {
    lr_mult: 2
    decay_mult: 0
  }
  convolution_param {
    num_output: 144
    kernel_size: 1
    weight_filler {
      type: "xavier"
    }
    bias_filler {
      type: "constant"
      value: 0.2
    }
  }
}
layer {
  name: "inception_4d/relu_3x3_reduce"
  type: "ReLU"
  bottom: "inception_4d/3x3_reduce"
  top: "inception_4d/3x3_reduce"
}
layer {
  name: "inception_4d/3x3"
  type: "Convolution"
  bottom: "inception_4d/3x3_reduce"
  top: "inception_4d/3x3"
  param {
    lr_mult: 0
    decay_mult: 1
  }
  param {
    lr_mult: 2
    decay_mult: 0
  }
  convolution_param {
    num_output: 288
    pad: 1
    kernel_size: 3
    weight_filler {
      type: "xavier"
    }
    bias_filler {
      type: "constant"
      value: 0.2
    }
  }
}
layer {
  name: "inception_4d/relu_3x3"
  type: "ReLU"
  bottom: "inception_4d/3x3"
  top: "inception_4d/3x3"
}
layer {
  name: "inception_4d/5x5_reduce"
  type: "Convolution"
  bottom: "inception_4c/output"
  top: "inception_4d/5x5_reduce"
  param {
    lr_mult: 0
    decay_mult: 1
  }
  param {
    lr_mult: 2
    decay_mult: 0
  }
  convolution_param {
    num_output: 32
    kernel_size: 1
    weight_filler {
      type: "xavier"
    }
    bias_filler {
      type: "constant"
      value: 0.2
    }
  }
}
layer {
  name: "inception_4d/relu_5x5_reduce"
  type: "ReLU"
  bottom: "inception_4d/5x5_reduce"
  top: "inception_4d/5x5_reduce"
}
layer {
  name: "inception_4d/5x5"
  type: "Convolution"
  bottom: "inception_4d/5x5_reduce"
  top: "inception_4d/5x5"
  param {
    lr_mult: 0
    decay_mult: 1
  }
  param {
    lr_mult: 2
    decay_mult: 0
  }
  convolution_param {
    num_output: 64
    pad: 2
    kernel_size: 5
    weight_filler {
      type: "xavier"
    }
    bias_filler {
      type: "constant"
      value: 0.2
    }
  }
}
layer {
  name: "inception_4d/relu_5x5"
  type: "ReLU"
  bottom: "inception_4d/5x5"
  top: "inception_4d/5x5"
}
layer {
  name: "inception_4d/pool"
  type: "Pooling"
  bottom: "inception_4c/output"
  top: "inception_4d/pool"
  pooling_param {
    pool: MAX
    kernel_size: 3
    stride: 1
    pad: 1
  }
}
layer {
  name: "inception_4d/pool_proj"
  type: "Convolution"
  bottom: "inception_4d/pool"
  top: "inception_4d/pool_proj"
  param {
    lr_mult: 0
    decay_mult: 1
  }
  param {
    lr_mult: 2
    decay_mult: 0
  }
  convolution_param {
    num_output: 64
    kernel_size: 1
    weight_filler {
      type: "xavier"
    }
    bias_filler {
      type: "constant"
      value: 0.2
    }
  }
}
layer {
  name: "inception_4d/relu_pool_proj"
  type: "ReLU"
  bottom: "inception_4d/pool_proj"
  top: "inception_4d/pool_proj"
}
layer {
  name: "inception_4d/output"
  type: "Concat"
  bottom: "inception_4d/1x1"
  bottom: "inception_4d/3x3"
  bottom: "inception_4d/5x5"
  bottom: "inception_4d/pool_proj"
  top: "inception_4d/output"
}
layer {
  name: "inception_4e/1x1"
  type: "Convolution"
  bottom: "inception_4d/output"
  top: "inception_4e/1x1"
  param {
    lr_mult: 0
    decay_mult: 1
  }
  param {
    lr_mult: 2
    decay_mult: 0
  }
  convolution_param {
    num_output: 256
    kernel_size: 1
    weight_filler {
      type: "xavier"
    }
    bias_filler {
      type: "constant"
      value: 0.2
    }
  }
}
layer {
  name: "inception_4e/relu_1x1"
  type: "ReLU"
  bottom: "inception_4e/1x1"
  top: "inception_4e/1x1"
}
layer {
  name: "inception_4e/3x3_reduce"
  type: "Convolution"
  bottom: "inception_4d/output"
  top: "inception_4e/3x3_reduce"
  param {
    lr_mult: 0
    decay_mult: 1
  }
  param {
    lr_mult: 2
    decay_mult: 0
  }
  convolution_param {
    num_output: 160
    kernel_size: 1
    weight_filler {
      type: "xavier"
    }
    bias_filler {
      type: "constant"
      value: 0.2
    }
  }
}
layer {
  name: "inception_4e/relu_3x3_reduce"
  type: "ReLU"
  bottom: "inception_4e/3x3_reduce"
  top: "inception_4e/3x3_reduce"
}
layer {
  name: "inception_4e/3x3"
  type: "Convolution"
  bottom: "inception_4e/3x3_reduce"
  top: "inception_4e/3x3"
  param {
    lr_mult: 0
    decay_mult: 1
  }
  param {
    lr_mult: 2
    decay_mult: 0
  }
  convolution_param {
    num_output: 320
    pad: 1
    kernel_size: 3
    weight_filler {
      type: "xavier"
    }
    bias_filler {
      type: "constant"
      value: 0.2
    }
  }
}
layer {
  name: "inception_4e/relu_3x3"
  type: "ReLU"
  bottom: "inception_4e/3x3"
  top: "inception_4e/3x3"
}
layer {
  name: "inception_4e/5x5_reduce"
  type: "Convolution"
  bottom: "inception_4d/output"
  top: "inception_4e/5x5_reduce"
  param {
    lr_mult: 0
    decay_mult: 1
  }
  param {
    lr_mult: 2
    decay_mult: 0
  }
  convolution_param {
    num_output: 32
    kernel_size: 1
    weight_filler {
      type: "xavier"
    }
    bias_filler {
      type: "constant"
      value: 0.2
    }
  }
}
layer {
  name: "inception_4e/relu_5x5_reduce"
  type: "ReLU"
  bottom: "inception_4e/5x5_reduce"
  top: "inception_4e/5x5_reduce"
}
layer {
  name: "inception_4e/5x5"
  type: "Convolution"
  bottom: "inception_4e/5x5_reduce"
  top: "inception_4e/5x5"
  param {
    lr_mult: 0
    decay_mult: 1
  }
  param {
    lr_mult: 2
    decay_mult: 0
  }
  convolution_param {
    num_output: 128
    pad: 2
    kernel_size: 5
    weight_filler {
      type: "xavier"
    }
    bias_filler {
      type: "constant"
      value: 0.2
    }
  }
}
layer {
  name: "inception_4e/relu_5x5"
  type: "ReLU"
  bottom: "inception_4e/5x5"
  top: "inception_4e/5x5"
}
layer {
  name: "inception_4e/pool"
  type: "Pooling"
  bottom: "inception_4d/output"
  top: "inception_4e/pool"
  pooling_param {
    pool: MAX
    kernel_size: 3
    stride: 1
    pad: 1
  }
}
layer {
  name: "inception_4e/pool_proj"
  type: "Convolution"
  bottom: "inception_4e/pool"
  top: "inception_4e/pool_proj"
  param {
    lr_mult: 0
    decay_mult: 1
  }
  param {
    lr_mult: 2
    decay_mult: 0
  }
  convolution_param {
    num_output: 128
    kernel_size: 1
    weight_filler {
      type: "xavier"
    }
    bias_filler {
      type: "constant"
      value: 0.2
    }
  }
}
layer {
  name: "inception_4e/relu_pool_proj"
  type: "ReLU"
  bottom: "inception_4e/pool_proj"
  top: "inception_4e/pool_proj"
}
layer {
  name: "inception_4e/output"
  type: "Concat"
  bottom: "inception_4e/1x1"
  bottom: "inception_4e/3x3"
  bottom: "inception_4e/5x5"
  bottom: "inception_4e/pool_proj"
  top: "inception_4e/output"
}
layer {
  name: "pool4/3x3_s2"
  type: "Pooling"
  bottom: "inception_4e/output"
  top: "pool4/3x3_s2"
  pooling_param {
    pool: MAX
    kernel_size: 3
    stride: 2
  }
}
layer {
  name: "inception_5a/1x1"
  type: "Convolution"
  bottom: "pool4/3x3_s2"
  top: "inception_5a/1x1"
  param {
    lr_mult: 0
    decay_mult: 1
  }
  param {
    lr_mult: 2
    decay_mult: 0
  }
  convolution_param {
    num_output: 256
    kernel_size: 1
    weight_filler {
      type: "xavier"
    }
    bias_filler {
      type: "constant"
      value: 0.2
    }
  }
}
layer {
  name: "inception_5a/relu_1x1"
  type: "ReLU"
  bottom: "inception_5a/1x1"
  top: "inception_5a/1x1"
}
layer {
  name: "inception_5a/3x3_reduce"
  type: "Convolution"
  bottom: "pool4/3x3_s2"
  top: "inception_5a/3x3_reduce"
  param {
    lr_mult: 0
    decay_mult: 1
  }
  param {
    lr_mult: 2
    decay_mult: 0
  }
  convolution_param {
    num_output: 160
    kernel_size: 1
    weight_filler {
      type: "xavier"
    }
    bias_filler {
      type: "constant"
      value: 0.2
    }
  }
}
layer {
  name: "inception_5a/relu_3x3_reduce"
  type: "ReLU"
  bottom: "inception_5a/3x3_reduce"
  top: "inception_5a/3x3_reduce"
}
layer {
  name: "inception_5a/3x3"
  type: "Convolution"
  bottom: "inception_5a/3x3_reduce"
  top: "inception_5a/3x3"
  param {
    lr_mult: 0
    decay_mult: 1
  }
  param {
    lr_mult: 2
    decay_mult: 0
  }
  convolution_param {
    num_output: 320
    pad: 1
    kernel_size: 3
    weight_filler {
      type: "xavier"
    }
    bias_filler {
      type: "constant"
      value: 0.2
    }
  }
}
layer {
  name: "inception_5a/relu_3x3"
  type: "ReLU"
  bottom: "inception_5a/3x3"
  top: "inception_5a/3x3"
}
layer {
  name: "inception_5a/5x5_reduce"
  type: "Convolution"
  bottom: "pool4/3x3_s2"
  top: "inception_5a/5x5_reduce"
  param {
    lr_mult: 0
    decay_mult: 1
  }
  param {
    lr_mult: 2
    decay_mult: 0
  }
  convolution_param {
    num_output: 32
    kernel_size: 1
    weight_filler {
      type: "xavier"
    }
    bias_filler {
      type: "constant"
      value: 0.2
    }
  }
}
layer {
  name: "inception_5a/relu_5x5_reduce"
  type: "ReLU"
  bottom: "inception_5a/5x5_reduce"
  top: "inception_5a/5x5_reduce"
}
layer {
  name: "inception_5a/5x5"
  type: "Convolution"
  bottom: "inception_5a/5x5_reduce"
  top: "inception_5a/5x5"
  param {
    lr_mult: 0
    decay_mult: 1
  }
  param {
    lr_mult: 2
    decay_mult: 0
  }
  convolution_param {
    num_output: 128
    pad: 2
    kernel_size: 5
    weight_filler {
      type: "xavier"
    }
    bias_filler {
      type: "constant"
      value: 0.2
    }
  }
}
layer {
  name: "inception_5a/relu_5x5"
  type: "ReLU"
  bottom: 
I0718 14:06:13.451095 28842 layer_factory.hpp:76] Creating layer data
I0718 14:06:13.464648 28842 net.cpp:106] Creating Layer data
I0718 14:06:13.464671 28842 net.cpp:411] data -> data
I0718 14:06:13.464700 28842 net.cpp:411] data -> label
I0718 14:06:13.486578 28842 image_data_layer.cpp:36] Opening file ../lists/mitosis_train.lst
I0718 14:06:13.575283 28842 image_data_layer.cpp:46] Shuffling data
I0718 14:06:13.576912 28842 image_data_layer.cpp:51] A total of 21366 images.
I0718 14:06:14.090957 28842 image_data_layer.cpp:78] output data size: 6,3,1000,1000
I0718 14:06:14.286556 28842 net.cpp:150] Setting up data
I0718 14:06:14.286641 28842 net.cpp:157] Top shape: 6 3 1000 1000 (18000000)
I0718 14:06:14.286664 28842 net.cpp:157] Top shape: 6 (6)
I0718 14:06:14.286679 28842 net.cpp:165] Memory required for data: 72000024
I0718 14:06:14.286703 28842 layer_factory.hpp:76] Creating layer label_data_1_split
I0718 14:06:14.286855 28842 net.cpp:106] Creating Layer label_data_1_split
I0718 14:06:14.286883 28842 net.cpp:454] label_data_1_split <- label
I0718 14:06:14.286913 28842 net.cpp:411] label_data_1_split -> label_data_1_split_0
I0718 14:06:14.286942 28842 net.cpp:411] label_data_1_split -> label_data_1_split_1
I0718 14:06:14.287039 28842 net.cpp:150] Setting up label_data_1_split
I0718 14:06:14.287062 28842 net.cpp:157] Top shape: 6 (6)
I0718 14:06:14.287078 28842 net.cpp:157] Top shape: 6 (6)
I0718 14:06:14.287091 28842 net.cpp:165] Memory required for data: 72000072
I0718 14:06:14.287106 28842 layer_factory.hpp:76] Creating layer conv1/7x7_s2
I0718 14:06:14.287142 28842 net.cpp:106] Creating Layer conv1/7x7_s2
I0718 14:06:14.287158 28842 net.cpp:454] conv1/7x7_s2 <- data
I0718 14:06:14.287178 28842 net.cpp:411] conv1/7x7_s2 -> conv1/7x7_s2
I0718 14:06:14.660550 28842 net.cpp:150] Setting up conv1/7x7_s2
I0718 14:06:14.660627 28842 net.cpp:157] Top shape: 6 64 500 500 (96000000)
I0718 14:06:14.660640 28842 net.cpp:165] Memory required for data: 456000072
I0718 14:06:14.660706 28842 layer_factory.hpp:76] Creating layer conv1/relu_7x7
I0718 14:06:14.660773 28842 net.cpp:106] Creating Layer conv1/relu_7x7
I0718 14:06:14.660830 28842 net.cpp:454] conv1/relu_7x7 <- conv1/7x7_s2
I0718 14:06:14.660856 28842 net.cpp:397] conv1/relu_7x7 -> conv1/7x7_s2 (in-place)
I0718 14:06:14.661037 28842 net.cpp:150] Setting up conv1/relu_7x7
I0718 14:06:14.661057 28842 net.cpp:157] Top shape: 6 64 500 500 (96000000)
I0718 14:06:14.661067 28842 net.cpp:165] Memory required for data: 840000072
I0718 14:06:14.661077 28842 layer_factory.hpp:76] Creating layer pool1/3x3_s2
I0718 14:06:14.661098 28842 net.cpp:106] Creating Layer pool1/3x3_s2
I0718 14:06:14.661113 28842 net.cpp:454] pool1/3x3_s2 <- conv1/7x7_s2
I0718 14:06:14.661124 28842 net.cpp:411] pool1/3x3_s2 -> pool1/3x3_s2
I0718 14:06:14.661916 28842 net.cpp:150] Setting up pool1/3x3_s2
I0718 14:06:14.661937 28842 net.cpp:157] Top shape: 6 64 250 250 (24000000)
I0718 14:06:14.661942 28842 net.cpp:165] Memory required for data: 936000072
I0718 14:06:14.661947 28842 layer_factory.hpp:76] Creating layer pool1/norm1
I0718 14:06:14.661968 28842 net.cpp:106] Creating Layer pool1/norm1
I0718 14:06:14.661973 28842 net.cpp:454] pool1/norm1 <- pool1/3x3_s2
I0718 14:06:14.661980 28842 net.cpp:411] pool1/norm1 -> pool1/norm1
I0718 14:06:14.662170 28842 net.cpp:150] Setting up pool1/norm1
I0718 14:06:14.662180 28842 net.cpp:157] Top shape: 6 64 250 250 (24000000)
I0718 14:06:14.662185 28842 net.cpp:165] Memory required for data: 1032000072
I0718 14:06:14.662190 28842 layer_factory.hpp:76] Creating layer conv2/3x3_reduce
I0718 14:06:14.662215 28842 net.cpp:106] Creating Layer conv2/3x3_reduce
I0718 14:06:14.662220 28842 net.cpp:454] conv2/3x3_reduce <- pool1/norm1
I0718 14:06:14.662247 28842 net.cpp:411] conv2/3x3_reduce -> conv2/3x3_reduce
I0718 14:06:14.665009 28842 cudnn_conv_layer.cpp:194] Reallocating workspace storage: 768
I0718 14:06:14.665041 28842 net.cpp:150] Setting up conv2/3x3_reduce
I0718 14:06:14.665050 28842 net.cpp:157] Top shape: 6 64 250 250 (24000000)
I0718 14:06:14.665055 28842 net.cpp:165] Memory required for data: 1128000072
I0718 14:06:14.665068 28842 layer_factory.hpp:76] Creating layer conv2/relu_3x3_reduce
I0718 14:06:14.665077 28842 net.cpp:106] Creating Layer conv2/relu_3x3_reduce
I0718 14:06:14.665081 28842 net.cpp:454] conv2/relu_3x3_reduce <- conv2/3x3_reduce
I0718 14:06:14.665088 28842 net.cpp:397] conv2/relu_3x3_reduce -> conv2/3x3_reduce (in-place)
I0718 14:06:14.665505 28842 net.cpp:150] Setting up conv2/relu_3x3_reduce
I0718 14:06:14.665518 28842 net.cpp:157] Top shape: 6 64 250 250 (24000000)
I0718 14:06:14.665523 28842 net.cpp:165] Memory required for data: 1224000072
I0718 14:06:14.665527 28842 layer_factory.hpp:76] Creating layer conv2/3x3
I0718 14:06:14.665549 28842 net.cpp:106] Creating Layer conv2/3x3
I0718 14:06:14.665555 28842 net.cpp:454] conv2/3x3 <- conv2/3x3_reduce
I0718 14:06:14.665571 28842 net.cpp:411] conv2/3x3 -> conv2/3x3
I0718 14:06:14.668259 28842 cudnn_conv_layer.cpp:194] Reallocating workspace storage: 6912
I0718 14:06:14.668612 28842 net.cpp:150] Setting up conv2/3x3
I0718 14:06:14.668637 28842 net.cpp:157] Top shape: 6 192 250 250 (72000000)
I0718 14:06:14.668663 28842 net.cpp:165] Memory required for data: 1512000072
I0718 14:06:14.668694 28842 layer_factory.hpp:76] Creating layer conv2/relu_3x3
I0718 14:06:14.668722 28842 net.cpp:106] Creating Layer conv2/relu_3x3
I0718 14:06:14.668750 28842 net.cpp:454] conv2/relu_3x3 <- conv2/3x3
I0718 14:06:14.668781 28842 net.cpp:397] conv2/relu_3x3 -> conv2/3x3 (in-place)
I0718 14:06:14.669003 28842 net.cpp:150] Setting up conv2/relu_3x3
I0718 14:06:14.669025 28842 net.cpp:157] Top shape: 6 192 250 250 (72000000)
I0718 14:06:14.669035 28842 net.cpp:165] Memory required for data: 1800000072
I0718 14:06:14.669059 28842 layer_factory.hpp:76] Creating layer conv2/norm2
I0718 14:06:14.669088 28842 net.cpp:106] Creating Layer conv2/norm2
I0718 14:06:14.669106 28842 net.cpp:454] conv2/norm2 <- conv2/3x3
I0718 14:06:14.669127 28842 net.cpp:411] conv2/norm2 -> conv2/norm2
I0718 14:06:14.669643 28842 net.cpp:150] Setting up conv2/norm2
I0718 14:06:14.669667 28842 net.cpp:157] Top shape: 6 192 250 250 (72000000)
I0718 14:06:14.669708 28842 net.cpp:165] Memory required for data: 2088000072
I0718 14:06:14.669719 28842 layer_factory.hpp:76] Creating layer pool2/3x3_s2
I0718 14:06:14.669735 28842 net.cpp:106] Creating Layer pool2/3x3_s2
I0718 14:06:14.669746 28842 net.cpp:454] pool2/3x3_s2 <- conv2/norm2
I0718 14:06:14.669762 28842 net.cpp:411] pool2/3x3_s2 -> pool2/3x3_s2
I0718 14:06:14.670004 28842 net.cpp:150] Setting up pool2/3x3_s2
I0718 14:06:14.670029 28842 net.cpp:157] Top shape: 6 192 125 125 (18000000)
I0718 14:06:14.670045 28842 net.cpp:165] Memory required for data: 2160000072
I0718 14:06:14.670063 28842 layer_factory.hpp:76] Creating layer pool2/3x3_s2_pool2/3x3_s2_0_split
I0718 14:06:14.670084 28842 net.cpp:106] Creating Layer pool2/3x3_s2_pool2/3x3_s2_0_split
I0718 14:06:14.670100 28842 net.cpp:454] pool2/3x3_s2_pool2/3x3_s2_0_split <- pool2/3x3_s2
I0718 14:06:14.670121 28842 net.cpp:411] pool2/3x3_s2_pool2/3x3_s2_0_split -> pool2/3x3_s2_pool2/3x3_s2_0_split_0
I0718 14:06:14.670137 28842 net.cpp:411] pool2/3x3_s2_pool2/3x3_s2_0_split -> pool2/3x3_s2_pool2/3x3_s2_0_split_1
I0718 14:06:14.670150 28842 net.cpp:411] pool2/3x3_s2_pool2/3x3_s2_0_split -> pool2/3x3_s2_pool2/3x3_s2_0_split_2
I0718 14:06:14.670161 28842 net.cpp:411] pool2/3x3_s2_pool2/3x3_s2_0_split -> pool2/3x3_s2_pool2/3x3_s2_0_split_3
I0718 14:06:14.670233 28842 net.cpp:150] Setting up pool2/3x3_s2_pool2/3x3_s2_0_split
I0718 14:06:14.670248 28842 net.cpp:157] Top shape: 6 192 125 125 (18000000)
I0718 14:06:14.670265 28842 net.cpp:157] Top shape: 6 192 125 125 (18000000)
I0718 14:06:14.670286 28842 net.cpp:157] Top shape: 6 192 125 125 (18000000)
I0718 14:06:14.670305 28842 net.cpp:157] Top shape: 6 192 125 125 (18000000)
I0718 14:06:14.670322 28842 net.cpp:165] Memory required for data: 2448000072
I0718 14:06:14.670334 28842 layer_factory.hpp:76] Creating layer inception_3a/1x1
I0718 14:06:14.670382 28842 net.cpp:106] Creating Layer inception_3a/1x1
I0718 14:06:14.670400 28842 net.cpp:454] inception_3a/1x1 <- pool2/3x3_s2_pool2/3x3_s2_0_split_0
I0718 14:06:14.670413 28842 net.cpp:411] inception_3a/1x1 -> inception_3a/1x1
I0718 14:06:14.671869 28842 cudnn_conv_layer.cpp:194] Reallocating workspace storage: 2304
I0718 14:06:14.672261 28842 net.cpp:150] Setting up inception_3a/1x1
I0718 14:06:14.672282 28842 net.cpp:157] Top shape: 6 64 125 125 (6000000)
I0718 14:06:14.672292 28842 net.cpp:165] Memory required for data: 2472000072
I0718 14:06:14.672307 28842 layer_factory.hpp:76] Creating layer inception_3a/relu_1x1
I0718 14:06:14.672322 28842 net.cpp:106] Creating Layer inception_3a/relu_1x1
I0718 14:06:14.672332 28842 net.cpp:454] inception_3a/relu_1x1 <- inception_3a/1x1
I0718 14:06:14.672349 28842 net.cpp:397] inception_3a/relu_1x1 -> inception_3a/1x1 (in-place)
I0718 14:06:14.672811 28842 net.cpp:150] Setting up inception_3a/relu_1x1
I0718 14:06:14.672832 28842 net.cpp:157] Top shape: 6 64 125 125 (6000000)
I0718 14:06:14.672842 28842 net.cpp:165] Memory required for data: 2496000072
I0718 14:06:14.672852 28842 layer_factory.hpp:76] Creating layer inception_3a/3x3_reduce
I0718 14:06:14.672878 28842 net.cpp:106] Creating Layer inception_3a/3x3_reduce
I0718 14:06:14.672890 28842 net.cpp:454] inception_3a/3x3_reduce <- pool2/3x3_s2_pool2/3x3_s2_0_split_1
I0718 14:06:14.672905 28842 net.cpp:411] inception_3a/3x3_reduce -> inception_3a/3x3_reduce
I0718 14:06:14.674042 28842 cudnn_conv_layer.cpp:194] Reallocating workspace storage: 2304
I0718 14:06:14.674084 28842 net.cpp:150] Setting up inception_3a/3x3_reduce
I0718 14:06:14.674103 28842 net.cpp:157] Top shape: 6 96 125 125 (9000000)
I0718 14:06:14.674123 28842 net.cpp:165] Memory required for data: 2532000072
I0718 14:06:14.674139 28842 layer_factory.hpp:76] Creating layer inception_3a/relu_3x3_reduce
I0718 14:06:14.674161 28842 net.cpp:106] Creating Layer inception_3a/relu_3x3_reduce
I0718 14:06:14.674175 28842 net.cpp:454] inception_3a/relu_3x3_reduce <- inception_3a/3x3_reduce
I0718 14:06:14.674187 28842 net.cpp:397] inception_3a/relu_3x3_reduce -> inception_3a/3x3_reduce (in-place)
I0718 14:06:14.674690 28842 net.cpp:150] Setting up inception_3a/relu_3x3_reduce
I0718 14:06:14.674721 28842 net.cpp:157] Top shape: 6 96 125 125 (9000000)
I0718 14:06:14.674741 28842 net.cpp:165] Memory required for data: 2568000072
I0718 14:06:14.674768 28842 layer_factory.hpp:76] Creating layer inception_3a/3x3
I0718 14:06:14.674811 28842 net.cpp:106] Creating Layer inception_3a/3x3
I0718 14:06:14.674834 28842 net.cpp:454] inception_3a/3x3 <- inception_3a/3x3_reduce
I0718 14:06:14.674860 28842 net.cpp:411] inception_3a/3x3 -> inception_3a/3x3
I0718 14:06:14.677220 28842 cudnn_conv_layer.cpp:194] Reallocating workspace storage: 10368
I0718 14:06:14.677287 28842 net.cpp:150] Setting up inception_3a/3x3
I0718 14:06:14.677305 28842 net.cpp:157] Top shape: 6 128 125 125 (12000000)
I0718 14:06:14.677321 28842 net.cpp:165] Memory required for data: 2616000072
I0718 14:06:14.677356 28842 layer_factory.hpp:76] Creating layer inception_3a/relu_3x3
I0718 14:06:14.677394 28842 net.cpp:106] Creating Layer inception_3a/relu_3x3
I0718 14:06:14.677415 28842 net.cpp:454] inception_3a/relu_3x3 <- inception_3a/3x3
I0718 14:06:14.677428 28842 net.cpp:397] inception_3a/relu_3x3 -> inception_3a/3x3 (in-place)
I0718 14:06:14.677624 28842 net.cpp:150] Setting up inception_3a/relu_3x3
I0718 14:06:14.677647 28842 net.cpp:157] Top shape: 6 128 125 125 (12000000)
I0718 14:06:14.677666 28842 net.cpp:165] Memory required for data: 2664000072
I0718 14:06:14.677686 28842 layer_factory.hpp:76] Creating layer inception_3a/5x5_reduce
I0718 14:06:14.677713 28842 net.cpp:106] Creating Layer inception_3a/5x5_reduce
I0718 14:06:14.677727 28842 net.cpp:454] inception_3a/5x5_reduce <- pool2/3x3_s2_pool2/3x3_s2_0_split_2
I0718 14:06:14.677741 28842 net.cpp:411] inception_3a/5x5_reduce -> inception_3a/5x5_reduce
I0718 14:06:14.679714 28842 net.cpp:150] Setting up inception_3a/5x5_reduce
I0718 14:06:14.679816 28842 net.cpp:157] Top shape: 6 16 125 125 (1500000)
I0718 14:06:14.679842 28842 net.cpp:165] Memory required for data: 2670000072
I0718 14:06:14.679878 28842 layer_factory.hpp:76] Creating layer inception_3a/relu_5x5_reduce
I0718 14:06:14.679926 28842 net.cpp:106] Creating Layer inception_3a/relu_5x5_reduce
I0718 14:06:14.679957 28842 net.cpp:454] inception_3a/relu_5x5_reduce <- inception_3a/5x5_reduce
I0718 14:06:14.680002 28842 net.cpp:397] inception_3a/relu_5x5_reduce -> inception_3a/5x5_reduce (in-place)
I0718 14:06:14.680860 28842 net.cpp:150] Setting up inception_3a/relu_5x5_reduce
I0718 14:06:14.680935 28842 net.cpp:157] Top shape: 6 16 125 125 (1500000)
I0718 14:06:14.680955 28842 net.cpp:165] Memory required for data: 2676000072
I0718 14:06:14.680980 28842 layer_factory.hpp:76] Creating layer inception_3a/5x5
I0718 14:06:14.681048 28842 net.cpp:106] Creating Layer inception_3a/5x5
I0718 14:06:14.681077 28842 net.cpp:454] inception_3a/5x5 <- inception_3a/5x5_reduce
I0718 14:06:14.681125 28842 net.cpp:411] inception_3a/5x5 -> inception_3a/5x5
I0718 14:06:14.683542 28842 cudnn_conv_layer.cpp:194] Reallocating workspace storage: 4800
I0718 14:06:14.683708 28842 net.cpp:150] Setting up inception_3a/5x5
I0718 14:06:14.683758 28842 net.cpp:157] Top shape: 6 32 125 125 (3000000)
I0718 14:06:14.683781 28842 net.cpp:165] Memory required for data: 2688000072
I0718 14:06:14.683820 28842 layer_factory.hpp:76] Creating layer inception_3a/relu_5x5
I0718 14:06:14.683883 28842 net.cpp:106] Creating Layer inception_3a/relu_5x5
I0718 14:06:14.683917 28842 net.cpp:454] inception_3a/relu_5x5 <- inception_3a/5x5
I0718 14:06:14.683959 28842 net.cpp:397] inception_3a/relu_5x5 -> inception_3a/5x5 (in-place)
I0718 14:06:14.685171 28842 net.cpp:150] Setting up inception_3a/relu_5x5
I0718 14:06:14.685336 28842 net.cpp:157] Top shape: 6 32 125 125 (3000000)
I0718 14:06:14.685369 28842 net.cpp:165] Memory required for data: 2700000072
I0718 14:06:14.685415 28842 layer_factory.hpp:76] Creating layer inception_3a/pool
I0718 14:06:14.685479 28842 net.cpp:106] Creating Layer inception_3a/pool
I0718 14:06:14.685516 28842 net.cpp:454] inception_3a/pool <- pool2/3x3_s2_pool2/3x3_s2_0_split_3
I0718 14:06:14.685631 28842 net.cpp:411] inception_3a/pool -> inception_3a/pool
I0718 14:06:14.686457 28842 net.cpp:150] Setting up inception_3a/pool
I0718 14:06:14.686579 28842 net.cpp:157] Top shape: 6 192 125 125 (18000000)
I0718 14:06:14.686605 28842 net.cpp:165] Memory required for data: 2772000072
I0718 14:06:14.686662 28842 layer_factory.hpp:76] Creating layer inception_3a/pool_proj
I0718 14:06:14.686751 28842 net.cpp:106] Creating Layer inception_3a/pool_proj
I0718 14:06:14.686792 28842 net.cpp:454] inception_3a/pool_proj <- inception_3a/pool
I0718 14:06:14.686833 28842 net.cpp:411] inception_3a/pool_proj -> inception_3a/pool_proj
I0718 14:06:14.689754 28842 net.cpp:150] Setting up inception_3a/pool_proj
I0718 14:06:14.689874 28842 net.cpp:157] Top shape: 6 32 125 125 (3000000)
I0718 14:06:14.689891 28842 net.cpp:165] Memory required for data: 2784000072
I0718 14:06:14.689954 28842 layer_factory.hpp:76] Creating layer inception_3a/relu_pool_proj
I0718 14:06:14.690068 28842 net.cpp:106] Creating Layer inception_3a/relu_pool_proj
I0718 14:06:14.690089 28842 net.cpp:454] inception_3a/relu_pool_proj <- inception_3a/pool_proj
I0718 14:06:14.690122 28842 net.cpp:397] inception_3a/relu_pool_proj -> inception_3a/pool_proj (in-place)
I0718 14:06:14.691046 28842 net.cpp:150] Setting up inception_3a/relu_pool_proj
I0718 14:06:14.691126 28842 net.cpp:157] Top shape: 6 32 125 125 (3000000)
I0718 14:06:14.691141 28842 net.cpp:165] Memory required for data: 2796000072
I0718 14:06:14.691161 28842 layer_factory.hpp:76] Creating layer inception_3a/output
I0718 14:06:14.691210 28842 net.cpp:106] Creating Layer inception_3a/output
I0718 14:06:14.691228 28842 net.cpp:454] inception_3a/output <- inception_3a/1x1
I0718 14:06:14.691251 28842 net.cpp:454] inception_3a/output <- inception_3a/3x3
I0718 14:06:14.691268 28842 net.cpp:454] inception_3a/output <- inception_3a/5x5
I0718 14:06:14.691284 28842 net.cpp:454] inception_3a/output <- inception_3a/pool_proj
I0718 14:06:14.691301 28842 net.cpp:411] inception_3a/output -> inception_3a/output
I0718 14:06:14.691457 28842 net.cpp:150] Setting up inception_3a/output
I0718 14:06:14.691488 28842 net.cpp:157] Top shape: 6 256 125 125 (24000000)
I0718 14:06:14.691503 28842 net.cpp:165] Memory required for data: 2892000072
I0718 14:06:14.691517 28842 layer_factory.hpp:76] Creating layer inception_3a/output_inception_3a/output_0_split
I0718 14:06:14.691541 28842 net.cpp:106] Creating Layer inception_3a/output_inception_3a/output_0_split
I0718 14:06:14.691555 28842 net.cpp:454] inception_3a/output_inception_3a/output_0_split <- inception_3a/output
I0718 14:06:14.691571 28842 net.cpp:411] inception_3a/output_inception_3a/output_0_split -> inception_3a/output_inception_3a/output_0_split_0
I0718 14:06:14.691589 28842 net.cpp:411] inception_3a/output_inception_3a/output_0_split -> inception_3a/output_inception_3a/output_0_split_1
I0718 14:06:14.691607 28842 net.cpp:411] inception_3a/output_inception_3a/output_0_split -> inception_3a/output_inception_3a/output_0_split_2
I0718 14:06:14.691624 28842 net.cpp:411] inception_3a/output_inception_3a/output_0_split -> inception_3a/output_inception_3a/output_0_split_3
I0718 14:06:14.691742 28842 net.cpp:150] Setting up inception_3a/output_inception_3a/output_0_split
I0718 14:06:14.691763 28842 net.cpp:157] Top shape: 6 256 125 125 (24000000)
I0718 14:06:14.691779 28842 net.cpp:157] Top shape: 6 256 125 125 (24000000)
I0718 14:06:14.691793 28842 net.cpp:157] Top shape: 6 256 125 125 (24000000)
I0718 14:06:14.691810 28842 net.cpp:157] Top shape: 6 256 125 125 (24000000)
I0718 14:06:14.691828 28842 net.cpp:165] Memory required for data: 3276000072
I0718 14:06:14.691841 28842 layer_factory.hpp:76] Creating layer inception_3b/1x1
I0718 14:06:14.691884 28842 net.cpp:106] Creating Layer inception_3b/1x1
I0718 14:06:14.691897 28842 net.cpp:454] inception_3b/1x1 <- inception_3a/output_inception_3a/output_0_split_0
I0718 14:06:14.691920 28842 net.cpp:411] inception_3b/1x1 -> inception_3b/1x1
I0718 14:06:14.695474 28842 cudnn_conv_layer.cpp:194] Reallocating workspace storage: 3072
I0718 14:06:14.695727 28842 net.cpp:150] Setting up inception_3b/1x1
I0718 14:06:14.695771 28842 net.cpp:157] Top shape: 6 128 125 125 (12000000)
I0718 14:06:14.695794 28842 net.cpp:165] Memory required for data: 3324000072
I0718 14:06:14.695840 28842 layer_factory.hpp:76] Creating layer inception_3b/relu_1x1
I0718 14:06:14.695924 28842 net.cpp:106] Creating Layer inception_3b/relu_1x1
I0718 14:06:14.695955 28842 net.cpp:454] inception_3b/relu_1x1 <- inception_3b/1x1
I0718 14:06:14.695992 28842 net.cpp:397] inception_3b/relu_1x1 -> inception_3b/1x1 (in-place)
I0718 14:06:14.696538 28842 net.cpp:150] Setting up inception_3b/relu_1x1
I0718 14:06:14.696594 28842 net.cpp:157] Top shape: 6 128 125 125 (12000000)
I0718 14:06:14.696610 28842 net.cpp:165] Memory required for data: 3372000072
I0718 14:06:14.696650 28842 layer_factory.hpp:76] Creating layer inception_3b/3x3_reduce
I0718 14:06:14.696763 28842 net.cpp:106] Creating Layer inception_3b/3x3_reduce
I0718 14:06:14.696786 28842 net.cpp:454] inception_3b/3x3_reduce <- inception_3a/output_inception_3a/output_0_split_1
I0718 14:06:14.696835 28842 net.cpp:411] inception_3b/3x3_reduce -> inception_3b/3x3_reduce
I0718 14:06:14.700001 28842 cudnn_conv_layer.cpp:194] Reallocating workspace storage: 3072
I0718 14:06:14.700160 28842 net.cpp:150] Setting up inception_3b/3x3_reduce
I0718 14:06:14.700211 28842 net.cpp:157] Top shape: 6 128 125 125 (12000000)
I0718 14:06:14.700240 28842 net.cpp:165] Memory required for data: 3420000072
I0718 14:06:14.700284 28842 layer_factory.hpp:76] Creating layer inception_3b/relu_3x3_reduce
I0718 14:06:14.700378 28842 net.cpp:106] Creating Layer inception_3b/relu_3x3_reduce
I0718 14:06:14.700419 28842 net.cpp:454] inception_3b/relu_3x3_reduce <- inception_3b/3x3_reduce
I0718 14:06:14.700453 28842 net.cpp:397] inception_3b/relu_3x3_reduce -> inception_3b/3x3_reduce (in-place)
I0718 14:06:14.700790 28842 net.cpp:150] Setting up inception_3b/relu_3x3_reduce
I0718 14:06:14.700825 28842 net.cpp:157] Top shape: 6 128 125 125 (12000000)
I0718 14:06:14.700844 28842 net.cpp:165] Memory required for data: 3468000072
I0718 14:06:14.700886 28842 layer_factory.hpp:76] Creating layer inception_3b/3x3
I0718 14:06:14.700964 28842 net.cpp:106] Creating Layer inception_3b/3x3
I0718 14:06:14.700990 28842 net.cpp:454] inception_3b/3x3 <- inception_3b/3x3_reduce
I0718 14:06:14.701011 28842 net.cpp:411] inception_3b/3x3 -> inception_3b/3x3
I0718 14:06:14.707878 28842 cudnn_conv_layer.cpp:194] Reallocating workspace storage: 13824
I0718 14:06:14.708070 28842 net.cpp:150] Setting up inception_3b/3x3
I0718 14:06:14.708115 28842 net.cpp:157] Top shape: 6 192 125 125 (18000000)
I0718 14:06:14.708144 28842 net.cpp:165] Memory required for data: 3540000072
I0718 14:06:14.708190 28842 layer_factory.hpp:76] Creating layer inception_3b/relu_3x3
I0718 14:06:14.708245 28842 net.cpp:106] Creating Layer inception_3b/relu_3x3
I0718 14:06:14.708276 28842 net.cpp:454] inception_3b/relu_3x3 <- inception_3b/3x3
I0718 14:06:14.708308 28842 net.cpp:397] inception_3b/relu_3x3 -> inception_3b/3x3 (in-place)
I0718 14:06:14.709182 28842 net.cpp:150] Setting up inception_3b/relu_3x3
I0718 14:06:14.709246 28842 net.cpp:157] Top shape: 6 192 125 125 (18000000)
I0718 14:06:14.709264 28842 net.cpp:165] Memory required for data: 3612000072
I0718 14:06:14.709283 28842 layer_factory.hpp:76] Creating layer inception_3b/5x5_reduce
I0718 14:06:14.709331 28842 net.cpp:106] Creating Layer inception_3b/5x5_reduce
I0718 14:06:14.709353 28842 net.cpp:454] inception_3b/5x5_reduce <- inception_3a/output_inception_3a/output_0_split_2
I0718 14:06:14.709380 28842 net.cpp:411] inception_3b/5x5_reduce -> inception_3b/5x5_reduce
I0718 14:06:14.711577 28842 net.cpp:150] Setting up inception_3b/5x5_reduce
I0718 14:06:14.711725 28842 net.cpp:157] Top shape: 6 32 125 125 (3000000)
I0718 14:06:14.711752 28842 net.cpp:165] Memory required for data: 3624000072
I0718 14:06:14.711799 28842 layer_factory.hpp:76] Creating layer inception_3b/relu_5x5_reduce
I0718 14:06:14.711886 28842 net.cpp:106] Creating Layer inception_3b/relu_5x5_reduce
I0718 14:06:14.712486 28842 net.cpp:454] inception_3b/relu_5x5_reduce <- inception_3b/5x5_reduce
I0718 14:06:14.712548 28842 net.cpp:397] inception_3b/relu_5x5_reduce -> inception_3b/5x5_reduce (in-place)
I0718 14:06:14.713089 28842 net.cpp:150] Setting up inception_3b/relu_5x5_reduce
I0718 14:06:14.713187 28842 net.cpp:157] Top shape: 6 32 125 125 (3000000)
I0718 14:06:14.713219 28842 net.cpp:165] Memory required for data: 3636000072
I0718 14:06:14.713253 28842 layer_factory.hpp:76] Creating layer inception_3b/5x5
I0718 14:06:14.713320 28842 net.cpp:106] Creating Layer inception_3b/5x5
I0718 14:06:14.713356 28842 net.cpp:454] inception_3b/5x5 <- inception_3b/5x5_reduce
I0718 14:06:14.713413 28842 net.cpp:411] inception_3b/5x5 -> inception_3b/5x5
I0718 14:06:14.718950 28842 net.cpp:150] Setting up inception_3b/5x5
I0718 14:06:14.719142 28842 net.cpp:157] Top shape: 6 96 125 125 (9000000)
I0718 14:06:14.719183 28842 net.cpp:165] Memory required for data: 3672000072
I0718 14:06:14.719241 28842 layer_factory.hpp:76] Creating layer inception_3b/relu_5x5
I0718 14:06:14.719398 28842 net.cpp:106] Creating Layer inception_3b/relu_5x5
I0718 14:06:14.719465 28842 net.cpp:454] inception_3b/relu_5x5 <- inception_3b/5x5
I0718 14:06:14.719516 28842 net.cpp:397] inception_3b/relu_5x5 -> inception_3b/5x5 (in-place)
I0718 14:06:14.719952 28842 net.cpp:150] Setting up inception_3b/relu_5x5
I0718 14:06:14.720019 28842 net.cpp:157] Top shape: 6 96 125 125 (9000000)
I0718 14:06:14.720067 28842 net.cpp:165] Memory required for data: 3708000072
I0718 14:06:14.720101 28842 layer_factory.hpp:76] Creating layer inception_3b/pool
I0718 14:06:14.720139 28842 net.cpp:106] Creating Layer inception_3b/pool
I0718 14:06:14.720185 28842 net.cpp:454] inception_3b/pool <- inception_3a/output_inception_3a/output_0_split_3
I0718 14:06:14.720227 28842 net.cpp:411] inception_3b/pool -> inception_3b/pool
I0718 14:06:14.721403 28842 net.cpp:150] Setting up inception_3b/pool
I0718 14:06:14.721513 28842 net.cpp:157] Top shape: 6 256 125 125 (24000000)
I0718 14:06:14.721561 28842 net.cpp:165] Memory required for data: 3804000072
I0718 14:06:14.721652 28842 layer_factory.hpp:76] Creating layer inception_3b/pool_proj
I0718 14:06:14.721765 28842 net.cpp:106] Creating Layer inception_3b/pool_proj
I0718 14:06:14.721798 28842 net.cpp:454] inception_3b/pool_proj <- inception_3b/pool
I0718 14:06:14.721849 28842 net.cpp:411] inception_3b/pool_proj -> inception_3b/pool_proj
I0718 14:06:14.731384 28842 net.cpp:150] Setting up inception_3b/pool_proj
I0718 14:06:14.731976 28842 net.cpp:157] Top shape: 6 64 125 125 (6000000)
I0718 14:06:14.732312 28842 net.cpp:165] Memory required for data: 3828000072
I0718 14:06:14.732414 28842 layer_factory.hpp:76] Creating layer inception_3b/relu_pool_proj
I0718 14:06:14.732930 28842 net.cpp:106] Creating Layer inception_3b/relu_pool_proj
I0718 14:06:14.733172 28842 net.cpp:454] inception_3b/relu_pool_proj <- inception_3b/pool_proj
I0718 14:06:14.733532 28842 net.cpp:397] inception_3b/relu_pool_proj -> inception_3b/pool_proj (in-place)
I0718 14:06:14.737748 28842 net.cpp:150] Setting up inception_3b/relu_pool_proj
I0718 14:06:14.738283 28842 net.cpp:157] Top shape: 6 64 125 125 (6000000)
I0718 14:06:14.738637 28842 net.cpp:165] Memory required for data: 3852000072
I0718 14:06:14.738698 28842 layer_factory.hpp:76] Creating layer inception_3b/output
I0718 14:06:14.738931 28842 net.cpp:106] Creating Layer inception_3b/output
I0718 14:06:14.739173 28842 net.cpp:454] inception_3b/output <- inception_3b/1x1
I0718 14:06:14.739399 28842 net.cpp:454] inception_3b/output <- inception_3b/3x3
I0718 14:06:14.739681 28842 net.cpp:454] inception_3b/output <- inception_3b/5x5
I0718 14:06:14.739917 28842 net.cpp:454] inception_3b/output <- inception_3b/pool_proj
I0718 14:06:14.740231 28842 net.cpp:411] inception_3b/output -> inception_3b/output
I0718 14:06:14.741241 28842 net.cpp:150] Setting up inception_3b/output
I0718 14:06:14.741586 28842 net.cpp:157] Top shape: 6 480 125 125 (45000000)
I0718 14:06:14.741797 28842 net.cpp:165] Memory required for data: 4032000072
I0718 14:06:14.742136 28842 layer_factory.hpp:76] Creating layer pool3/3x3_s2
I0718 14:06:14.742523 28842 net.cpp:106] Creating Layer pool3/3x3_s2
I0718 14:06:14.742748 28842 net.cpp:454] pool3/3x3_s2 <- inception_3b/output
I0718 14:06:14.743070 28842 net.cpp:411] pool3/3x3_s2 -> pool3/3x3_s2
I0718 14:06:14.751219 28842 net.cpp:150] Setting up pool3/3x3_s2
I0718 14:06:14.751814 28842 net.cpp:157] Top shape: 6 480 62 62 (11070720)
I0718 14:06:14.752234 28842 net.cpp:165] Memory required for data: 4076282952
I0718 14:06:14.752341 28842 layer_factory.hpp:76] Creating layer pool3/3x3_s2_pool3/3x3_s2_0_split
I0718 14:06:14.752640 28842 net.cpp:106] Creating Layer pool3/3x3_s2_pool3/3x3_s2_0_split
I0718 14:06:14.752888 28842 net.cpp:454] pool3/3x3_s2_pool3/3x3_s2_0_split <- pool3/3x3_s2
I0718 14:06:14.753201 28842 net.cpp:411] pool3/3x3_s2_pool3/3x3_s2_0_split -> pool3/3x3_s2_pool3/3x3_s2_0_split_0
I0718 14:06:14.753605 28842 net.cpp:411] pool3/3x3_s2_pool3/3x3_s2_0_split -> pool3/3x3_s2_pool3/3x3_s2_0_split_1
I0718 14:06:14.753902 28842 net.cpp:411] pool3/3x3_s2_pool3/3x3_s2_0_split -> pool3/3x3_s2_pool3/3x3_s2_0_split_2
I0718 14:06:14.753960 28842 net.cpp:411] pool3/3x3_s2_pool3/3x3_s2_0_split -> pool3/3x3_s2_pool3/3x3_s2_0_split_3
I0718 14:06:14.754739 28842 net.cpp:150] Setting up pool3/3x3_s2_pool3/3x3_s2_0_split
I0718 14:06:14.754843 28842 net.cpp:157] Top shape: 6 480 62 62 (11070720)
I0718 14:06:14.754889 28842 net.cpp:157] Top shape: 6 480 62 62 (11070720)
I0718 14:06:14.754932 28842 net.cpp:157] Top shape: 6 480 62 62 (11070720)
I0718 14:06:14.754978 28842 net.cpp:157] Top shape: 6 480 62 62 (11070720)
I0718 14:06:14.755012 28842 net.cpp:165] Memory required for data: 4253414472
I0718 14:06:14.755049 28842 layer_factory.hpp:76] Creating layer inception_4a/1x1
I0718 14:06:14.755376 28842 net.cpp:106] Creating Layer inception_4a/1x1
I0718 14:06:14.755429 28842 net.cpp:454] inception_4a/1x1 <- pool3/3x3_s2_pool3/3x3_s2_0_split_0
I0718 14:06:14.755583 28842 net.cpp:411] inception_4a/1x1 -> inception_4a/1x1
I0718 14:06:14.775909 28842 cudnn_conv_layer.cpp:194] Reallocating workspace storage: 5760
I0718 14:06:14.776394 28842 net.cpp:150] Setting up inception_4a/1x1
I0718 14:06:14.776721 28842 net.cpp:157] Top shape: 6 192 62 62 (4428288)
I0718 14:06:14.776829 28842 net.cpp:165] Memory required for data: 4271127624
I0718 14:06:14.777062 28842 layer_factory.hpp:76] Creating layer inception_4a/relu_1x1
I0718 14:06:14.777314 28842 net.cpp:106] Creating Layer inception_4a/relu_1x1
I0718 14:06:14.777469 28842 net.cpp:454] inception_4a/relu_1x1 <- inception_4a/1x1
I0718 14:06:14.777628 28842 net.cpp:397] inception_4a/relu_1x1 -> inception_4a/1x1 (in-place)
I0718 14:06:14.780288 28842 net.cpp:150] Setting up inception_4a/relu_1x1
I0718 14:06:14.780728 28842 net.cpp:157] Top shape: 6 192 62 62 (4428288)
I0718 14:06:14.780925 28842 net.cpp:165] Memory required for data: 4288840776
I0718 14:06:14.781282 28842 layer_factory.hpp:76] Creating layer inception_4a/3x3_reduce
I0718 14:06:14.781669 28842 net.cpp:106] Creating Layer inception_4a/3x3_reduce
I0718 14:06:14.781951 28842 net.cpp:454] inception_4a/3x3_reduce <- pool3/3x3_s2_pool3/3x3_s2_0_split_1
I0718 14:06:14.782264 28842 net.cpp:411] inception_4a/3x3_reduce -> inception_4a/3x3_reduce
I0718 14:06:14.791070 28842 cudnn_conv_layer.cpp:194] Reallocating workspace storage: 5760
I0718 14:06:14.791332 28842 net.cpp:150] Setting up inception_4a/3x3_reduce
I0718 14:06:14.791383 28842 net.cpp:157] Top shape: 6 96 62 62 (2214144)
I0718 14:06:14.791416 28842 net.cpp:165] Memory required for data: 4297697352
I0718 14:06:14.791488 28842 layer_factory.hpp:76] Creating layer inception_4a/relu_3x3_reduce
I0718 14:06:14.791575 28842 net.cpp:106] Creating Layer inception_4a/relu_3x3_reduce
I0718 14:06:14.791635 28842 net.cpp:454] inception_4a/relu_3x3_reduce <- inception_4a/3x3_reduce
I0718 14:06:14.791740 28842 net.cpp:397] inception_4a/relu_3x3_reduce -> inception_4a/3x3_reduce (in-place)
I0718 14:06:14.792654 28842 net.cpp:150] Setting up inception_4a/relu_3x3_reduce
I0718 14:06:14.792847 28842 net.cpp:157] Top shape: 6 96 62 62 (2214144)
I0718 14:06:14.792884 28842 net.cpp:165] Memory required for data: 4306553928
I0718 14:06:14.792913 28842 layer_factory.hpp:76] Creating layer inception_4a/3x3
I0718 14:06:14.793030 28842 net.cpp:106] Creating Layer inception_4a/3x3
I0718 14:06:14.793061 28842 net.cpp:454] inception_4a/3x3 <- inception_4a/3x3_reduce
I0718 14:06:14.793108 28842 net.cpp:411] inception_4a/3x3 -> inception_4a/3x3
I0718 14:06:14.799638 28842 net.cpp:150] Setting up inception_4a/3x3
I0718 14:06:14.799834 28842 net.cpp:157] Top shape: 6 208 62 62 (4797312)
I0718 14:06:14.799854 28842 net.cpp:165] Memory required for data: 4325743176
I0718 14:06:14.799901 28842 layer_factory.hpp:76] Creating layer inception_4a/relu_3x3
I0718 14:06:14.799993 28842 net.cpp:106] Creating Layer inception_4a/relu_3x3
I0718 14:06:14.800037 28842 net.cpp:454] inception_4a/relu_3x3 <- inception_4a/3x3
I0718 14:06:14.800087 28842 net.cpp:397] inception_4a/relu_3x3 -> inception_4a/3x3 (in-place)
I0718 14:06:14.801205 28842 net.cpp:150] Setting up inception_4a/relu_3x3
I0718 14:06:14.801285 28842 net.cpp:157] Top shape: 6 208 62 62 (4797312)
I0718 14:06:14.801306 28842 net.cpp:165] Memory required for data: 4344932424
I0718 14:06:14.801336 28842 layer_factory.hpp:76] Creating layer inception_4a/5x5_reduce
I0718 14:06:14.801378 28842 net.cpp:106] Creating Layer inception_4a/5x5_reduce
I0718 14:06:14.801403 28842 net.cpp:454] inception_4a/5x5_reduce <- pool3/3x3_s2_pool3/3x3_s2_0_split_2
I0718 14:06:14.801439 28842 net.cpp:411] inception_4a/5x5_reduce -> inception_4a/5x5_reduce
I0718 14:06:14.804291 28842 cudnn_conv_layer.cpp:194] Reallocating workspace storage: 5760
I0718 14:06:14.804461 28842 net.cpp:150] Setting up inception_4a/5x5_reduce
I0718 14:06:14.804519 28842 net.cpp:157] Top shape: 6 16 62 62 (369024)
I0718 14:06:14.804538 28842 net.cpp:165] Memory required for data: 4346408520
I0718 14:06:14.804602 28842 layer_factory.hpp:76] Creating layer inception_4a/relu_5x5_reduce
I0718 14:06:14.804720 28842 net.cpp:106] Creating Layer inception_4a/relu_5x5_reduce
I0718 14:06:14.804754 28842 net.cpp:454] inception_4a/relu_5x5_reduce <- inception_4a/5x5_reduce
I0718 14:06:14.804822 28842 net.cpp:397] inception_4a/relu_5x5_reduce -> inception_4a/5x5_reduce (in-place)
I0718 14:06:14.805207 28842 net.cpp:150] Setting up inception_4a/relu_5x5_reduce
I0718 14:06:14.805255 28842 net.cpp:157] Top shape: 6 16 62 62 (369024)
I0718 14:06:14.805279 28842 net.cpp:165] Memory required for data: 4347884616
I0718 14:06:14.805307 28842 layer_factory.hpp:76] Creating layer inception_4a/5x5
I0718 14:06:14.805397 28842 net.cpp:106] Creating Layer inception_4a/5x5
I0718 14:06:14.805431 28842 net.cpp:454] inception_4a/5x5 <- inception_4a/5x5_reduce
I0718 14:06:14.805490 28842 net.cpp:411] inception_4a/5x5 -> inception_4a/5x5
I0718 14:06:14.810117 28842 net.cpp:150] Setting up inception_4a/5x5
I0718 14:06:14.810346 28842 net.cpp:157] Top shape: 6 48 62 62 (1107072)
I0718 14:06:14.810377 28842 net.cpp:165] Memory required for data: 4352312904
I0718 14:06:14.810434 28842 layer_factory.hpp:76] Creating layer inception_4a/relu_5x5
I0718 14:06:14.810513 28842 net.cpp:106] Creating Layer inception_4a/relu_5x5
I0718 14:06:14.810613 28842 net.cpp:454] inception_4a/relu_5x5 <- inception_4a/5x5
I0718 14:06:14.810673 28842 net.cpp:397] inception_4a/relu_5x5 -> inception_4a/5x5 (in-place)
I0718 14:06:14.811311 28842 net.cpp:150] Setting up inception_4a/relu_5x5
I0718 14:06:14.811399 28842 net.cpp:157] Top shape: 6 48 62 62 (1107072)
I0718 14:06:14.811416 28842 net.cpp:165] Memory required for data: 4356741192
I0718 14:06:14.811485 28842 layer_factory.hpp:76] Creating layer inception_4a/pool
I0718 14:06:14.811576 28842 net.cpp:106] Creating Layer inception_4a/pool
I0718 14:06:14.811600 28842 net.cpp:454] inception_4a/pool <- pool3/3x3_s2_pool3/3x3_s2_0_split_3
I0718 14:06:14.811626 28842 net.cpp:411] inception_4a/pool -> inception_4a/pool
I0718 14:06:14.812851 28842 net.cpp:150] Setting up inception_4a/pool
I0718 14:06:14.812932 28842 net.cpp:157] Top shape: 6 480 62 62 (11070720)
I0718 14:06:14.813005 28842 net.cpp:165] Memory required for data: 4401024072
I0718 14:06:14.813029 28842 layer_factory.hpp:76] Creating layer inception_4a/pool_proj
I0718 14:06:14.813097 28842 net.cpp:106] Creating Layer inception_4a/pool_proj
I0718 14:06:14.813120 28842 net.cpp:454] inception_4a/pool_proj <- inception_4a/pool
I0718 14:06:14.813146 28842 net.cpp:411] inception_4a/pool_proj -> inception_4a/pool_proj
I0718 14:06:14.815716 28842 net.cpp:150] Setting up inception_4a/pool_proj
I0718 14:06:14.815836 28842 net.cpp:157] Top shape: 6 64 62 62 (1476096)
I0718 14:06:14.815861 28842 net.cpp:165] Memory required for data: 4406928456
I0718 14:06:14.815891 28842 layer_factory.hpp:76] Creating layer inception_4a/relu_pool_proj
I0718 14:06:14.815942 28842 net.cpp:106] Creating Layer inception_4a/relu_pool_proj
I0718 14:06:14.815965 28842 net.cpp:454] inception_4a/relu_pool_proj <- inception_4a/pool_proj
I0718 14:06:14.816022 28842 net.cpp:397] inception_4a/relu_pool_proj -> inception_4a/pool_proj (in-place)
I0718 14:06:14.816345 28842 net.cpp:150] Setting up inception_4a/relu_pool_proj
I0718 14:06:14.816387 28842 net.cpp:157] Top shape: 6 64 62 62 (1476096)
I0718 14:06:14.816433 28842 net.cpp:165] Memory required for data: 4412832840
I0718 14:06:14.816454 28842 layer_factory.hpp:76] Creating layer inception_4a/output
I0718 14:06:14.816498 28842 net.cpp:106] Creating Layer inception_4a/output
I0718 14:06:14.816524 28842 net.cpp:454] inception_4a/output <- inception_4a/1x1
I0718 14:06:14.816547 28842 net.cpp:454] inception_4a/output <- inception_4a/3x3
I0718 14:06:14.816572 28842 net.cpp:454] inception_4a/output <- inception_4a/5x5
I0718 14:06:14.816596 28842 net.cpp:454] inception_4a/output <- inception_4a/pool_proj
I0718 14:06:14.816619 28842 net.cpp:411] inception_4a/output -> inception_4a/output
I0718 14:06:14.816689 28842 net.cpp:150] Setting up inception_4a/output
I0718 14:06:14.816726 28842 net.cpp:157] Top shape: 6 512 62 62 (11808768)
I0718 14:06:14.816738 28842 net.cpp:165] Memory required for data: 4460067912
I0718 14:06:14.816784 28842 layer_factory.hpp:76] Creating layer inception_4a/output_inception_4a/output_0_split
I0718 14:06:14.816815 28842 net.cpp:106] Creating Layer inception_4a/output_inception_4a/output_0_split
I0718 14:06:14.816829 28842 net.cpp:454] inception_4a/output_inception_4a/output_0_split <- inception_4a/output
I0718 14:06:14.816859 28842 net.cpp:411] inception_4a/output_inception_4a/output_0_split -> inception_4a/output_inception_4a/output_0_split_0
I0718 14:06:14.816881 28842 net.cpp:411] inception_4a/output_inception_4a/output_0_split -> inception_4a/output_inception_4a/output_0_split_1
I0718 14:06:14.816910 28842 net.cpp:411] inception_4a/output_inception_4a/output_0_split -> inception_4a/output_inception_4a/output_0_split_2
I0718 14:06:14.816941 28842 net.cpp:411] inception_4a/output_inception_4a/output_0_split -> inception_4a/output_inception_4a/output_0_split_3
I0718 14:06:14.817059 28842 net.cpp:150] Setting up inception_4a/output_inception_4a/output_0_split
I0718 14:06:14.817087 28842 net.cpp:157] Top shape: 6 512 62 62 (11808768)
I0718 14:06:14.817109 28842 net.cpp:157] Top shape: 6 512 62 62 (11808768)
I0718 14:06:14.817134 28842 net.cpp:157] Top shape: 6 512 62 62 (11808768)
I0718 14:06:14.817147 28842 net.cpp:157] Top shape: 6 512 62 62 (11808768)
I0718 14:06:14.817164 28842 net.cpp:165] Memory required for data: 4649008200
I0718 14:06:14.817178 28842 layer_factory.hpp:76] Creating layer inception_4b/1x1
I0718 14:06:14.817217 28842 net.cpp:106] Creating Layer inception_4b/1x1
I0718 14:06:14.817236 28842 net.cpp:454] inception_4b/1x1 <- inception_4a/output_inception_4a/output_0_split_0
I0718 14:06:14.817276 28842 net.cpp:411] inception_4b/1x1 -> inception_4b/1x1
I0718 14:06:14.821130 28842 net.cpp:150] Setting up inception_4b/1x1
I0718 14:06:14.821285 28842 net.cpp:157] Top shape: 6 160 62 62 (3690240)
I0718 14:06:14.821313 28842 net.cpp:165] Memory required for data: 4663769160
I0718 14:06:14.821351 28842 layer_factory.hpp:76] Creating layer inception_4b/relu_1x1
I0718 14:06:14.821460 28842 net.cpp:106] Creating Layer inception_4b/relu_1x1
I0718 14:06:14.821499 28842 net.cpp:454] inception_4b/relu_1x1 <- inception_4b/1x1
I0718 14:06:14.821549 28842 net.cpp:397] inception_4b/relu_1x1 -> inception_4b/1x1 (in-place)
I0718 14:06:14.822554 28842 net.cpp:150] Setting up inception_4b/relu_1x1
I0718 14:06:14.822650 28842 net.cpp:157] Top shape: 6 160 62 62 (3690240)
I0718 14:06:14.822672 28842 net.cpp:165] Memory required for data: 4678530120
I0718 14:06:14.822705 28842 layer_factory.hpp:76] Creating layer inception_4b/3x3_reduce
I0718 14:06:14.822809 28842 net.cpp:106] Creating Layer inception_4b/3x3_reduce
I0718 14:06:14.822839 28842 net.cpp:454] inception_4b/3x3_reduce <- inception_4a/output_inception_4a/output_0_split_1
I0718 14:06:14.822875 28842 net.cpp:411] inception_4b/3x3_reduce -> inception_4b/3x3_reduce
I0718 14:06:14.825985 28842 cudnn_conv_layer.cpp:194] Reallocating workspace storage: 6144
I0718 14:06:14.826128 28842 net.cpp:150] Setting up inception_4b/3x3_reduce
I0718 14:06:14.826169 28842 net.cpp:157] Top shape: 6 112 62 62 (2583168)
I0718 14:06:14.826190 28842 net.cpp:165] Memory required for data: 4688862792
I0718 14:06:14.826233 28842 layer_factory.hpp:76] Creating layer inception_4b/relu_3x3_reduce
I0718 14:06:14.826292 28842 net.cpp:106] Creating Layer inception_4b/relu_3x3_reduce
I0718 14:06:14.826320 28842 net.cpp:454] inception_4b/relu_3x3_reduce <- inception_4b/3x3_reduce
I0718 14:06:14.826354 28842 net.cpp:397] inception_4b/relu_3x3_reduce -> inception_4b/3x3_reduce (in-place)
I0718 14:06:14.827353 28842 net.cpp:150] Setting up inception_4b/relu_3x3_reduce
I0718 14:06:14.827440 28842 net.cpp:157] Top shape: 6 112 62 62 (2583168)
I0718 14:06:14.827455 28842 net.cpp:165] Memory required for data: 4699195464
I0718 14:06:14.827478 28842 layer_factory.hpp:76] Creating layer inception_4b/3x3
I0718 14:06:14.827533 28842 net.cpp:106] Creating Layer inception_4b/3x3
I0718 14:06:14.827551 28842 net.cpp:454] inception_4b/3x3 <- inception_4b/3x3_reduce
I0718 14:06:14.827594 28842 net.cpp:411] inception_4b/3x3 -> inception_4b/3x3
I0718 14:06:14.835363 28842 cudnn_conv_layer.cpp:194] Reallocating workspace storage: 12096
I0718 14:06:14.835546 28842 net.cpp:150] Setting up inception_4b/3x3
I0718 14:06:14.835590 28842 net.cpp:157] Top shape: 6 224 62 62 (5166336)
I0718 14:06:14.835618 28842 net.cpp:165] Memory required for data: 4719860808
I0718 14:06:14.835667 28842 layer_factory.hpp:76] Creating layer inception_4b/relu_3x3
I0718 14:06:14.835793 28842 net.cpp:106] Creating Layer inception_4b/relu_3x3
I0718 14:06:14.835829 28842 net.cpp:454] inception_4b/relu_3x3 <- inception_4b/3x3
I0718 14:06:14.835868 28842 net.cpp:397] inception_4b/relu_3x3 -> inception_4b/3x3 (in-place)
I0718 14:06:14.836545 28842 net.cpp:150] Setting up inception_4b/relu_3x3
I0718 14:06:14.836608 28842 net.cpp:157] Top shape: 6 224 62 62 (5166336)
I0718 14:06:14.836629 28842 net.cpp:165] Memory required for data: 4740526152
I0718 14:06:14.836665 28842 layer_factory.hpp:76] Creating layer inception_4b/5x5_reduce
I0718 14:06:14.836838 28842 net.cpp:106] Creating Layer inception_4b/5x5_reduce
I0718 14:06:14.836884 28842 net.cpp:454] inception_4b/5x5_reduce <- inception_4a/output_inception_4a/output_0_split_2
I0718 14:06:14.836961 28842 net.cpp:411] inception_4b/5x5_reduce -> inception_4b/5x5_reduce
I0718 14:06:14.842876 28842 net.cpp:150] Setting up inception_4b/5x5_reduce
I0718 14:06:14.843042 28842 net.cpp:157] Top shape: 6 24 62 62 (553536)
I0718 14:06:14.843071 28842 net.cpp:165] Memory required for data: 4742740296
I0718 14:06:14.843125 28842 layer_factory.hpp:76] Creating layer inception_4b/relu_5x5_reduce
I0718 14:06:14.843204 28842 net.cpp:106] Creating Layer inception_4b/relu_5x5_reduce
I0718 14:06:14.843241 28842 net.cpp:454] inception_4b/relu_5x5_reduce <- inception_4b/5x5_reduce
I0718 14:06:14.843297 28842 net.cpp:397] inception_4b/relu_5x5_reduce -> inception_4b/5x5_reduce (in-place)
I0718 14:06:14.844844 28842 net.cpp:150] Setting up inception_4b/relu_5x5_reduce
I0718 14:06:14.845068 28842 net.cpp:157] Top shape: 6 24 62 62 (553536)
I0718 14:06:14.845098 28842 net.cpp:165] Memory required for data: 4744954440
I0718 14:06:14.845130 28842 layer_factory.hpp:76] Creating layer inception_4b/5x5
I0718 14:06:14.845259 28842 net.cpp:106] Creating Layer inception_4b/5x5
I0718 14:06:14.845296 28842 net.cpp:454] inception_4b/5x5 <- inception_4b/5x5_reduce
I0718 14:06:14.845361 28842 net.cpp:411] inception_4b/5x5 -> inception_4b/5x5
I0718 14:06:14.849220 28842 net.cpp:150] Setting up inception_4b/5x5
I0718 14:06:14.849409 28842 net.cpp:157] Top shape: 6 64 62 62 (1476096)
I0718 14:06:14.849436 28842 net.cpp:165] Memory required for data: 4750858824
I0718 14:06:14.849488 28842 layer_factory.hpp:76] Creating layer inception_4b/relu_5x5
I0718 14:06:14.849609 28842 net.cpp:106] Creating Layer inception_4b/relu_5x5
I0718 14:06:14.849681 28842 net.cpp:454] inception_4b/relu_5x5 <- inception_4b/5x5
I0718 14:06:14.849728 28842 net.cpp:397] inception_4b/relu_5x5 -> inception_4b/5x5 (in-place)
I0718 14:06:14.851441 28842 net.cpp:150] Setting up inception_4b/relu_5x5
I0718 14:06:14.851629 28842 net.cpp:157] Top shape: 6 64 62 62 (1476096)
I0718 14:06:14.851660 28842 net.cpp:165] Memory required for data: 4756763208
I0718 14:06:14.851692 28842 layer_factory.hpp:76] Creating layer inception_4b/pool
I0718 14:06:14.851835 28842 net.cpp:106] Creating Layer inception_4b/pool
I0718 14:06:14.851900 28842 net.cpp:454] inception_4b/pool <- inception_4a/output_inception_4a/output_0_split_3
I0718 14:06:14.851946 28842 net.cpp:411] inception_4b/pool -> inception_4b/pool
I0718 14:06:14.853888 28842 net.cpp:150] Setting up inception_4b/pool
I0718 14:06:14.854063 28842 net.cpp:157] Top shape: 6 512 62 62 (11808768)
I0718 14:06:14.854090 28842 net.cpp:165] Memory required for data: 4803998280
I0718 14:06:14.854125 28842 layer_factory.hpp:76] Creating layer inception_4b/pool_proj
I0718 14:06:14.854238 28842 net.cpp:106] Creating Layer inception_4b/pool_proj
I0718 14:06:14.854270 28842 net.cpp:454] inception_4b/pool_proj <- inception_4b/pool
I0718 14:06:14.854331 28842 net.cpp:411] inception_4b/pool_proj -> inception_4b/pool_proj
I0718 14:06:14.858337 28842 net.cpp:150] Setting up inception_4b/pool_proj
I0718 14:06:14.858481 28842 net.cpp:157] Top shape: 6 64 62 62 (1476096)
I0718 14:06:14.858505 28842 net.cpp:165] Memory required for data: 4809902664
I0718 14:06:14.858542 28842 layer_factory.hpp:76] Creating layer inception_4b/relu_pool_proj
I0718 14:06:14.858587 28842 net.cpp:106] Creating Layer inception_4b/relu_pool_proj
I0718 14:06:14.858618 28842 net.cpp:454] inception_4b/relu_pool_proj <- inception_4b/pool_proj
I0718 14:06:14.858662 28842 net.cpp:397] inception_4b/relu_pool_proj -> inception_4b/pool_proj (in-place)
I0718 14:06:14.860250 28842 net.cpp:150] Setting up inception_4b/relu_pool_proj
I0718 14:06:14.860402 28842 net.cpp:157] Top shape: 6 64 62 62 (1476096)
I0718 14:06:14.860425 28842 net.cpp:165] Memory required for data: 4815807048
I0718 14:06:14.860457 28842 layer_factory.hpp:76] Creating layer inception_4b/output
I0718 14:06:14.860512 28842 net.cpp:106] Creating Layer inception_4b/output
I0718 14:06:14.860543 28842 net.cpp:454] inception_4b/output <- inception_4b/1x1
I0718 14:06:14.860575 28842 net.cpp:454] inception_4b/output <- inception_4b/3x3
I0718 14:06:14.860605 28842 net.cpp:454] inception_4b/output <- inception_4b/5x5
I0718 14:06:14.860627 28842 net.cpp:454] inception_4b/output <- inception_4b/pool_proj
I0718 14:06:14.860651 28842 net.cpp:411] inception_4b/output -> inception_4b/output
I0718 14:06:14.860900 28842 net.cpp:150] Setting up inception_4b/output
I0718 14:06:14.860960 28842 net.cpp:157] Top shape: 6 512 62 62 (11808768)
I0718 14:06:14.860981 28842 net.cpp:165] Memory required for data: 4863042120
I0718 14:06:14.861052 28842 layer_factory.hpp:76] Creating layer inception_4b/output_inception_4b/output_0_split
I0718 14:06:14.861096 28842 net.cpp:106] Creating Layer inception_4b/output_inception_4b/output_0_split
I0718 14:06:14.861145 28842 net.cpp:454] inception_4b/output_inception_4b/output_0_split <- inception_4b/output
I0718 14:06:14.861238 28842 net.cpp:411] inception_4b/output_inception_4b/output_0_split -> inception_4b/output_inception_4b/output_0_split_0
I0718 14:06:14.861297 28842 net.cpp:411] inception_4b/output_inception_4b/output_0_split -> inception_4b/output_inception_4b/output_0_split_1
I0718 14:06:14.861335 28842 net.cpp:411] inception_4b/output_inception_4b/output_0_split -> inception_4b/output_inception_4b/output_0_split_2
I0718 14:06:14.861363 28842 net.cpp:411] inception_4b/output_inception_4b/output_0_split -> inception_4b/output_inception_4b/output_0_split_3
I0718 14:06:14.861678 28842 net.cpp:150] Setting up inception_4b/output_inception_4b/output_0_split
I0718 14:06:14.861728 28842 net.cpp:157] Top shape: 6 512 62 62 (11808768)
I0718 14:06:14.861753 28842 net.cpp:157] Top shape: 6 512 62 62 (11808768)
I0718 14:06:14.861776 28842 net.cpp:157] Top shape: 6 512 62 62 (11808768)
I0718 14:06:14.861799 28842 net.cpp:157] Top shape: 6 512 62 62 (11808768)
I0718 14:06:14.861819 28842 net.cpp:165] Memory required for data: 5051982408
I0718 14:06:14.861850 28842 layer_factory.hpp:76] Creating layer inception_4c/1x1
I0718 14:06:14.861953 28842 net.cpp:106] Creating Layer inception_4c/1x1
I0718 14:06:14.861987 28842 net.cpp:454] inception_4c/1x1 <- inception_4b/output_inception_4b/output_0_split_0
I0718 14:06:14.862025 28842 net.cpp:411] inception_4c/1x1 -> inception_4c/1x1
I0718 14:06:14.867020 28842 cudnn_conv_layer.cpp:194] Reallocating workspace storage: 6144
I0718 14:06:14.867333 28842 net.cpp:150] Setting up inception_4c/1x1
I0718 14:06:14.867403 28842 net.cpp:157] Top shape: 6 128 62 62 (2952192)
I0718 14:06:14.867426 28842 net.cpp:165] Memory required for data: 5063791176
I0718 14:06:14.867473 28842 layer_factory.hpp:76] Creating layer inception_4c/relu_1x1
I0718 14:06:14.867537 28842 net.cpp:106] Creating Layer inception_4c/relu_1x1
I0718 14:06:14.867571 28842 net.cpp:454] inception_4c/relu_1x1 <- inception_4c/1x1
I0718 14:06:14.867609 28842 net.cpp:397] inception_4c/relu_1x1 -> inception_4c/1x1 (in-place)
I0718 14:06:14.868211 28842 net.cpp:150] Setting up inception_4c/relu_1x1
I0718 14:06:14.868288 28842 net.cpp:157] Top shape: 6 128 62 62 (2952192)
I0718 14:06:14.868314 28842 net.cpp:165] Memory required for data: 5075599944
I0718 14:06:14.868335 28842 layer_factory.hpp:76] Creating layer inception_4c/3x3_reduce
I0718 14:06:14.868391 28842 net.cpp:106] Creating Layer inception_4c/3x3_reduce
I0718 14:06:14.868433 28842 net.cpp:454] inception_4c/3x3_reduce <- inception_4b/output_inception_4b/output_0_split_1
I0718 14:06:14.868475 28842 net.cpp:411] inception_4c/3x3_reduce -> inception_4c/3x3_reduce
I0718 14:06:14.874615 28842 cudnn_conv_layer.cpp:194] Reallocating workspace storage: 6144
I0718 14:06:14.874825 28842 net.cpp:150] Setting up inception_4c/3x3_reduce
I0718 14:06:14.874881 28842 net.cpp:157] Top shape: 6 128 62 62 (2952192)
I0718 14:06:14.874904 28842 net.cpp:165] Memory required for data: 5087408712
I0718 14:06:14.874987 28842 layer_factory.hpp:76] Creating layer inception_4c/relu_3x3_reduce
I0718 14:06:14.875074 28842 net.cpp:106] Creating Layer inception_4c/relu_3x3_reduce
I0718 14:06:14.875130 28842 net.cpp:454] inception_4c/relu_3x3_reduce <- inception_4c/3x3_reduce
I0718 14:06:14.875185 28842 net.cpp:397] inception_4c/relu_3x3_reduce -> inception_4c/3x3_reduce (in-place)
I0718 14:06:14.876616 28842 net.cpp:150] Setting up inception_4c/relu_3x3_reduce
I0718 14:06:14.876754 28842 net.cpp:157] Top shape: 6 128 62 62 (2952192)
I0718 14:06:14.876782 28842 net.cpp:165] Memory required for data: 5099217480
I0718 14:06:14.876817 28842 layer_factory.hpp:76] Creating layer inception_4c/3x3
I0718 14:06:14.876912 28842 net.cpp:106] Creating Layer inception_4c/3x3
I0718 14:06:14.876951 28842 net.cpp:454] inception_4c/3x3 <- inception_4c/3x3_reduce
I0718 14:06:14.876996 28842 net.cpp:411] inception_4c/3x3 -> inception_4c/3x3
I0718 14:06:14.885356 28842 net.cpp:150] Setting up inception_4c/3x3
I0718 14:06:14.885530 28842 net.cpp:157] Top shape: 6 256 62 62 (5904384)
I0718 14:06:14.885622 28842 net.cpp:165] Memory required for data: 5122835016
I0718 14:06:14.885668 28842 layer_factory.hpp:76] Creating layer inception_4c/relu_3x3
I0718 14:06:14.885722 28842 net.cpp:106] Creating Layer inception_4c/relu_3x3
I0718 14:06:14.885762 28842 net.cpp:454] inception_4c/relu_3x3 <- inception_4c/3x3
I0718 14:06:14.885802 28842 net.cpp:397] inception_4c/relu_3x3 -> inception_4c/3x3 (in-place)
I0718 14:06:14.887321 28842 net.cpp:150] Setting up inception_4c/relu_3x3
I0718 14:06:14.887466 28842 net.cpp:157] Top shape: 6 256 62 62 (5904384)
I0718 14:06:14.887490 28842 net.cpp:165] Memory required for data: 5146452552
I0718 14:06:14.887517 28842 layer_factory.hpp:76] Creating layer inception_4c/5x5_reduce
I0718 14:06:14.887612 28842 net.cpp:106] Creating Layer inception_4c/5x5_reduce
I0718 14:06:14.887645 28842 net.cpp:454] inception_4c/5x5_reduce <- inception_4b/output_inception_4b/output_0_split_2
I0718 14:06:14.887701 28842 net.cpp:411] inception_4c/5x5_reduce -> inception_4c/5x5_reduce
I0718 14:06:14.891455 28842 net.cpp:150] Setting up inception_4c/5x5_reduce
I0718 14:06:14.891613 28842 net.cpp:157] Top shape: 6 24 62 62 (553536)
I0718 14:06:14.891638 28842 net.cpp:165] Memory required for data: 5148666696
I0718 14:06:14.891690 28842 layer_factory.hpp:76] Creating layer inception_4c/relu_5x5_reduce
I0718 14:06:14.891767 28842 net.cpp:106] Creating Layer inception_4c/relu_5x5_reduce
I0718 14:06:14.891813 28842 net.cpp:454] inception_4c/relu_5x5_reduce <- inception_4c/5x5_reduce
I0718 14:06:14.891849 28842 net.cpp:397] inception_4c/relu_5x5_reduce -> inception_4c/5x5_reduce (in-place)
I0718 14:06:14.892501 28842 net.cpp:150] Setting up inception_4c/relu_5x5_reduce
I0718 14:06:14.892578 28842 net.cpp:157] Top shape: 6 24 62 62 (553536)
I0718 14:06:14.892597 28842 net.cpp:165] Memory required for data: 5150880840
I0718 14:06:14.892628 28842 layer_factory.hpp:76] Creating layer inception_4c/5x5
I0718 14:06:14.892711 28842 net.cpp:106] Creating Layer inception_4c/5x5
I0718 14:06:14.892758 28842 net.cpp:454] inception_4c/5x5 <- inception_4c/5x5_reduce
I0718 14:06:14.892815 28842 net.cpp:411] inception_4c/5x5 -> inception_4c/5x5
I0718 14:06:14.896879 28842 net.cpp:150] Setting up inception_4c/5x5
I0718 14:06:14.897042 28842 net.cpp:157] Top shape: 6 64 62 62 (1476096)
I0718 14:06:14.897068 28842 net.cpp:165] Memory required for data: 5156785224
I0718 14:06:14.897120 28842 layer_factory.hpp:76] Creating layer inception_4c/relu_5x5
I0718 14:06:14.897204 28842 net.cpp:106] Creating Layer inception_4c/relu_5x5
I0718 14:06:14.897240 28842 net.cpp:454] inception_4c/relu_5x5 <- inception_4c/5x5
I0718 14:06:14.897284 28842 net.cpp:397] inception_4c/relu_5x5 -> inception_4c/5x5 (in-place)
I0718 14:06:14.898525 28842 net.cpp:150] Setting up inception_4c/relu_5x5
I0718 14:06:14.898599 28842 net.cpp:157] Top shape: 6 64 62 62 (1476096)
I0718 14:06:14.898622 28842 net.cpp:165] Memory required for data: 5162689608
I0718 14:06:14.898656 28842 layer_factory.hpp:76] Creating layer inception_4c/pool
I0718 14:06:14.898696 28842 net.cpp:106] Creating Layer inception_4c/pool
I0718 14:06:14.898735 28842 net.cpp:454] inception_4c/pool <- inception_4b/output_inception_4b/output_0_split_3
I0718 14:06:14.898775 28842 net.cpp:411] inception_4c/pool -> inception_4c/pool
I0718 14:06:14.899327 28842 net.cpp:150] Setting up inception_4c/pool
I0718 14:06:14.899376 28842 net.cpp:157] Top shape: 6 512 62 62 (11808768)
I0718 14:06:14.899394 28842 net.cpp:165] Memory required for data: 5209924680
I0718 14:06:14.899447 28842 layer_factory.hpp:76] Creating layer inception_4c/pool_proj
I0718 14:06:14.899493 28842 net.cpp:106] Creating Layer inception_4c/pool_proj
I0718 14:06:14.899518 28842 net.cpp:454] inception_4c/pool_proj <- inception_4c/pool
I0718 14:06:14.899551 28842 net.cpp:411] inception_4c/pool_proj -> inception_4c/pool_proj
I0718 14:06:14.902537 28842 net.cpp:150] Setting up inception_4c/pool_proj
I0718 14:06:14.902652 28842 net.cpp:157] Top shape: 6 64 62 62 (1476096)
I0718 14:06:14.902673 28842 net.cpp:165] Memory required for data: 5215829064
I0718 14:06:14.902812 28842 layer_factory.hpp:76] Creating layer inception_4c/relu_pool_proj
I0718 14:06:14.902897 28842 net.cpp:106] Creating Layer inception_4c/relu_pool_proj
I0718 14:06:14.902928 28842 net.cpp:454] inception_4c/relu_pool_proj <- inception_4c/pool_proj
I0718 14:06:14.902956 28842 net.cpp:397] inception_4c/relu_pool_proj -> inception_4c/pool_proj (in-place)
I0718 14:06:14.903306 28842 net.cpp:150] Setting up inception_4c/relu_pool_proj
I0718 14:06:14.903348 28842 net.cpp:157] Top shape: 6 64 62 62 (1476096)
I0718 14:06:14.903367 28842 net.cpp:165] Memory required for data: 5221733448
I0718 14:06:14.903398 28842 layer_factory.hpp:76] Creating layer inception_4c/output
I0718 14:06:14.903424 28842 net.cpp:106] Creating Layer inception_4c/output
I0718 14:06:14.903460 28842 net.cpp:454] inception_4c/output <- inception_4c/1x1
I0718 14:06:14.903482 28842 net.cpp:454] inception_4c/output <- inception_4c/3x3
I0718 14:06:14.903502 28842 net.cpp:454] inception_4c/output <- inception_4c/5x5
I0718 14:06:14.903520 28842 net.cpp:454] inception_4c/output <- inception_4c/pool_proj
I0718 14:06:14.903539 28842 net.cpp:411] inception_4c/output -> inception_4c/output
I0718 14:06:14.903632 28842 net.cpp:150] Setting up inception_4c/output
I0718 14:06:14.903669 28842 net.cpp:157] Top shape: 6 512 62 62 (11808768)
I0718 14:06:14.903697 28842 net.cpp:165] Memory required for data: 5268968520
I0718 14:06:14.903714 28842 layer_factory.hpp:76] Creating layer inception_4c/output_inception_4c/output_0_split
I0718 14:06:14.903738 28842 net.cpp:106] Creating Layer inception_4c/output_inception_4c/output_0_split
I0718 14:06:14.903758 28842 net.cpp:454] inception_4c/output_inception_4c/output_0_split <- inception_4c/output
I0718 14:06:14.903784 28842 net.cpp:411] inception_4c/output_inception_4c/output_0_split -> inception_4c/output_inception_4c/output_0_split_0
I0718 14:06:14.903807 28842 net.cpp:411] inception_4c/output_inception_4c/output_0_split -> inception_4c/output_inception_4c/output_0_split_1
I0718 14:06:14.903836 28842 net.cpp:411] inception_4c/output_inception_4c/output_0_split -> inception_4c/output_inception_4c/output_0_split_2
I0718 14:06:14.903859 28842 net.cpp:411] inception_4c/output_inception_4c/output_0_split -> inception_4c/output_inception_4c/output_0_split_3
I0718 14:06:14.904002 28842 net.cpp:150] Setting up inception_4c/output_inception_4c/output_0_split
I0718 14:06:14.904037 28842 net.cpp:157] Top shape: 6 512 62 62 (11808768)
I0718 14:06:14.904060 28842 net.cpp:157] Top shape: 6 512 62 62 (11808768)
I0718 14:06:14.904084 28842 net.cpp:157] Top shape: 6 512 62 62 (11808768)
I0718 14:06:14.904103 28842 net.cpp:157] Top shape: 6 512 62 62 (11808768)
I0718 14:06:14.904119 28842 net.cpp:165] Memory required for data: 5457908808
I0718 14:06:14.904155 28842 layer_factory.hpp:76] Creating layer inception_4d/1x1
I0718 14:06:14.904197 28842 net.cpp:106] Creating Layer inception_4d/1x1
I0718 14:06:14.904223 28842 net.cpp:454] inception_4d/1x1 <- inception_4c/output_inception_4c/output_0_split_0
I0718 14:06:14.904239 28842 net.cpp:411] inception_4d/1x1 -> inception_4d/1x1
I0718 14:06:14.907629 28842 cudnn_conv_layer.cpp:194] Reallocating workspace storage: 6144
I0718 14:06:14.907790 28842 net.cpp:150] Setting up inception_4d/1x1
I0718 14:06:14.907846 28842 net.cpp:157] Top shape: 6 112 62 62 (2583168)
I0718 14:06:14.907866 28842 net.cpp:165] Memory required for data: 5468241480
I0718 14:06:14.907905 28842 layer_factory.hpp:76] Creating layer inception_4d/relu_1x1
I0718 14:06:14.907973 28842 net.cpp:106] Creating Layer inception_4d/relu_1x1
I0718 14:06:14.907996 28842 net.cpp:454] inception_4d/relu_1x1 <- inception_4d/1x1
I0718 14:06:14.908025 28842 net.cpp:397] inception_4d/relu_1x1 -> inception_4d/1x1 (in-place)
I0718 14:06:14.909085 28842 net.cpp:150] Setting up inception_4d/relu_1x1
I0718 14:06:14.909175 28842 net.cpp:157] Top shape: 6 112 62 62 (2583168)
I0718 14:06:14.909209 28842 net.cpp:165] Memory required for data: 5478574152
I0718 14:06:14.909237 28842 layer_factory.hpp:76] Creating layer inception_4d/3x3_reduce
I0718 14:06:14.909348 28842 net.cpp:106] Creating Layer inception_4d/3x3_reduce
I0718 14:06:14.909385 28842 net.cpp:454] inception_4d/3x3_reduce <- inception_4c/output_inception_4c/output_0_split_1
I0718 14:06:14.909427 28842 net.cpp:411] inception_4d/3x3_reduce -> inception_4d/3x3_reduce
I0718 14:06:14.912937 28842 cudnn_conv_layer.cpp:194] Reallocating workspace storage: 6144
I0718 14:06:14.913082 28842 net.cpp:150] Setting up inception_4d/3x3_reduce
I0718 14:06:14.913130 28842 net.cpp:157] Top shape: 6 144 62 62 (3321216)
I0718 14:06:14.913151 28842 net.cpp:165] Memory required for data: 5491859016
I0718 14:06:14.913194 28842 layer_factory.hpp:76] Creating layer inception_4d/relu_3x3_reduce
I0718 14:06:14.913255 28842 net.cpp:106] Creating Layer inception_4d/relu_3x3_reduce
I0718 14:06:14.913281 28842 net.cpp:454] inception_4d/relu_3x3_reduce <- inception_4d/3x3_reduce
I0718 14:06:14.913314 28842 net.cpp:397] inception_4d/relu_3x3_reduce -> inception_4d/3x3_reduce (in-place)
I0718 14:06:14.913661 28842 net.cpp:150] Setting up inception_4d/relu_3x3_reduce
I0718 14:06:14.913689 28842 net.cpp:157] Top shape: 6 144 62 62 (3321216)
I0718 14:06:14.913702 28842 net.cpp:165] Memory required for data: 5505143880
I0718 14:06:14.913733 28842 layer_factory.hpp:76] Creating layer inception_4d/3x3
I0718 14:06:14.913789 28842 net.cpp:106] Creating Layer inception_4d/3x3
I0718 14:06:14.913825 28842 net.cpp:454] inception_4d/3x3 <- inception_4d/3x3_reduce
I0718 14:06:14.913866 28842 net.cpp:411] inception_4d/3x3 -> inception_4d/3x3
I0718 14:06:14.923331 28842 cudnn_conv_layer.cpp:194] Reallocating workspace storage: 15552
I0718 14:06:14.923612 28842 net.cpp:150] Setting up inception_4d/3x3
I0718 14:06:14.923669 28842 net.cpp:157] Top shape: 6 288 62 62 (6642432)
I0718 14:06:14.923687 28842 net.cpp:165] Memory required for data: 5531713608
I0718 14:06:14.923748 28842 layer_factory.hpp:76] Creating layer inception_4d/relu_3x3
I0718 14:06:14.923833 28842 net.cpp:106] Creating Layer inception_4d/relu_3x3
I0718 14:06:14.923877 28842 net.cpp:454] inception_4d/relu_3x3 <- inception_4d/3x3
I0718 14:06:14.923941 28842 net.cpp:397] inception_4d/relu_3x3 -> inception_4d/3x3 (in-place)
I0718 14:06:14.924340 28842 net.cpp:150] Setting up inception_4d/relu_3x3
I0718 14:06:14.924386 28842 net.cpp:157] Top shape: 6 288 62 62 (6642432)
I0718 14:06:14.924412 28842 net.cpp:165] Memory required for data: 5558283336
I0718 14:06:14.924427 28842 layer_factory.hpp:76] Creating layer inception_4d/5x5_reduce
I0718 14:06:14.924465 28842 net.cpp:106] Creating Layer inception_4d/5x5_reduce
I0718 14:06:14.924492 28842 net.cpp:454] inception_4d/5x5_reduce <- inception_4c/output_inception_4c/output_0_split_2
I0718 14:06:14.924525 28842 net.cpp:411] inception_4d/5x5_reduce -> inception_4d/5x5_reduce
I0718 14:06:14.927281 28842 net.cpp:150] Setting up inception_4d/5x5_reduce
I0718 14:06:14.927414 28842 net.cpp:157] Top shape: 6 32 62 62 (738048)
I0718 14:06:14.927436 28842 net.cpp:165] Memory required for data: 5561235528
I0718 14:06:14.927515 28842 layer_factory.hpp:76] Creating layer inception_4d/relu_5x5_reduce
I0718 14:06:14.927595 28842 net.cpp:106] Creating Layer inception_4d/relu_5x5_reduce
I0718 14:06:14.927634 28842 net.cpp:454] inception_4d/relu_5x5_reduce <- inception_4d/5x5_reduce
I0718 14:06:14.927713 28842 net.cpp:397] inception_4d/relu_5x5_reduce -> inception_4d/5x5_reduce (in-place)
I0718 14:06:14.928587 28842 net.cpp:150] Setting up inception_4d/relu_5x5_reduce
I0718 14:06:14.928653 28842 net.cpp:157] Top shape: 6 32 62 62 (738048)
I0718 14:06:14.928680 28842 net.cpp:165] Memory required for data: 5564187720
I0718 14:06:14.928726 28842 layer_factory.hpp:76] Creating layer inception_4d/5x5
I0718 14:06:14.928771 28842 net.cpp:106] Creating Layer inception_4d/5x5
I0718 14:06:14.928791 28842 net.cpp:454] inception_4d/5x5 <- inception_4d/5x5_reduce
I0718 14:06:14.928822 28842 net.cpp:411] inception_4d/5x5 -> inception_4d/5x5
I0718 14:06:14.932343 28842 cudnn_conv_layer.cpp:194] Reallocating workspace storage: 9600
I0718 14:06:14.932502 28842 net.cpp:150] Setting up inception_4d/5x5
I0718 14:06:14.932584 28842 net.cpp:157] Top shape: 6 64 62 62 (1476096)
I0718 14:06:14.932605 28842 net.cpp:165] Memory required for data: 5570092104
I0718 14:06:14.932634 28842 layer_factory.hpp:76] Creating layer inception_4d/relu_5x5
I0718 14:06:14.932667 28842 net.cpp:106] Creating Layer inception_4d/relu_5x5
I0718 14:06:14.932684 28842 net.cpp:454] inception_4d/relu_5x5 <- inception_4d/5x5
I0718 14:06:14.932710 28842 net.cpp:397] inception_4d/relu_5x5 -> inception_4d/5x5 (in-place)
I0718 14:06:14.933141 28842 net.cpp:150] Setting up inception_4d/relu_5x5
I0718 14:06:14.933172 28842 net.cpp:157] Top shape: 6 64 62 62 (1476096)
I0718 14:06:14.933185 28842 net.cpp:165] Memory required for data: 5575996488
I0718 14:06:14.933198 28842 layer_factory.hpp:76] Creating layer inception_4d/pool
I0718 14:06:14.933248 28842 net.cpp:106] Creating Layer inception_4d/pool
I0718 14:06:14.933269 28842 net.cpp:454] inception_4d/pool <- inception_4c/output_inception_4c/output_0_split_3
I0718 14:06:14.933297 28842 net.cpp:411] inception_4d/pool -> inception_4d/pool
I0718 14:06:14.934283 28842 net.cpp:150] Setting up inception_4d/pool
I0718 14:06:14.934350 28842 net.cpp:157] Top shape: 6 512 62 62 (11808768)
I0718 14:06:14.934368 28842 net.cpp:165] Memory required for data: 5623231560
I0718 14:06:14.934391 28842 layer_factory.hpp:76] Creating layer inception_4d/pool_proj
I0718 14:06:14.934461 28842 net.cpp:106] Creating Layer inception_4d/pool_proj
I0718 14:06:14.934486 28842 net.cpp:454] inception_4d/pool_proj <- inception_4d/pool
I0718 14:06:14.934515 28842 net.cpp:411] inception_4d/pool_proj -> inception_4d/pool_proj
I0718 14:06:14.937679 28842 net.cpp:150] Setting up inception_4d/pool_proj
I0718 14:06:14.937744 28842 net.cpp:157] Top shape: 6 64 62 62 (1476096)
I0718 14:06:14.937755 28842 net.cpp:165] Memory required for data: 5629135944
I0718 14:06:14.937777 28842 layer_factory.hpp:76] Creating layer inception_4d/relu_pool_proj
I0718 14:06:14.937803 28842 net.cpp:106] Creating Layer inception_4d/relu_pool_proj
I0718 14:06:14.937818 28842 net.cpp:454] inception_4d/relu_pool_proj <- inception_4d/pool_proj
I0718 14:06:14.937831 28842 net.cpp:397] inception_4d/relu_pool_proj -> inception_4d/pool_proj (in-place)
I0718 14:06:14.938477 28842 net.cpp:150] Setting up inception_4d/relu_pool_proj
I0718 14:06:14.938511 28842 net.cpp:157] Top shape: 6 64 62 62 (1476096)
I0718 14:06:14.938520 28842 net.cpp:165] Memory required for data: 5635040328
I0718 14:06:14.938532 28842 layer_factory.hpp:76] Creating layer inception_4d/output
I0718 14:06:14.938566 28842 net.cpp:106] Creating Layer inception_4d/output
I0718 14:06:14.938580 28842 net.cpp:454] inception_4d/output <- inception_4d/1x1
I0718 14:06:14.938592 28842 net.cpp:454] inception_4d/output <- inception_4d/3x3
I0718 14:06:14.938603 28842 net.cpp:454] inception_4d/output <- inception_4d/5x5
I0718 14:06:14.938613 28842 net.cpp:454] inception_4d/output <- inception_4d/pool_proj
I0718 14:06:14.938627 28842 net.cpp:411] inception_4d/output -> inception_4d/output
I0718 14:06:14.938694 28842 net.cpp:150] Setting up inception_4d/output
I0718 14:06:14.938714 28842 net.cpp:157] Top shape: 6 528 62 62 (12177792)
I0718 14:06:14.938722 28842 net.cpp:165] Memory required for data: 5683751496
I0718 14:06:14.938731 28842 layer_factory.hpp:76] Creating layer inception_4d/output_inception_4d/output_0_split
I0718 14:06:14.938745 28842 net.cpp:106] Creating Layer inception_4d/output_inception_4d/output_0_split
I0718 14:06:14.938753 28842 net.cpp:454] inception_4d/output_inception_4d/output_0_split <- inception_4d/output
I0718 14:06:14.938763 28842 net.cpp:411] inception_4d/output_inception_4d/output_0_split -> inception_4d/output_inception_4d/output_0_split_0
I0718 14:06:14.938776 28842 net.cpp:411] inception_4d/output_inception_4d/output_0_split -> inception_4d/output_inception_4d/output_0_split_1
I0718 14:06:14.938787 28842 net.cpp:411] inception_4d/output_inception_4d/output_0_split -> inception_4d/output_inception_4d/output_0_split_2
I0718 14:06:14.938807 28842 net.cpp:411] inception_4d/output_inception_4d/output_0_split -> inception_4d/output_inception_4d/output_0_split_3
I0718 14:06:14.938926 28842 net.cpp:150] Setting up inception_4d/output_inception_4d/output_0_split
I0718 14:06:14.938952 28842 net.cpp:157] Top shape: 6 528 62 62 (12177792)
I0718 14:06:14.938962 28842 net.cpp:157] Top shape: 6 528 62 62 (12177792)
I0718 14:06:14.938987 28842 net.cpp:157] Top shape: 6 528 62 62 (12177792)
I0718 14:06:14.938997 28842 net.cpp:157] Top shape: 6 528 62 62 (12177792)
I0718 14:06:14.939004 28842 net.cpp:165] Memory required for data: 5878596168
I0718 14:06:14.939013 28842 layer_factory.hpp:76] Creating layer inception_4e/1x1
I0718 14:06:14.939050 28842 net.cpp:106] Creating Layer inception_4e/1x1
I0718 14:06:14.939061 28842 net.cpp:454] inception_4e/1x1 <- inception_4d/output_inception_4d/output_0_split_0
I0718 14:06:14.939080 28842 net.cpp:411] inception_4e/1x1 -> inception_4e/1x1
I0718 14:06:14.942870 28842 cudnn_conv_layer.cpp:194] Reallocating workspace storage: 6336
I0718 14:06:14.943012 28842 net.cpp:150] Setting up inception_4e/1x1
I0718 14:06:14.943042 28842 net.cpp:157] Top shape: 6 256 62 62 (5904384)
I0718 14:06:14.943058 28842 net.cpp:165] Memory required for data: 5902213704
I0718 14:06:14.943084 28842 layer_factory.hpp:76] Creating layer inception_4e/relu_1x1
I0718 14:06:14.943116 28842 net.cpp:106] Creating Layer inception_4e/relu_1x1
I0718 14:06:14.943140 28842 net.cpp:454] inception_4e/relu_1x1 <- inception_4e/1x1
I0718 14:06:14.943166 28842 net.cpp:397] inception_4e/relu_1x1 -> inception_4e/1x1 (in-place)
I0718 14:06:14.943455 28842 net.cpp:150] Setting up inception_4e/relu_1x1
I0718 14:06:14.943485 28842 net.cpp:157] Top shape: 6 256 62 62 (5904384)
I0718 14:06:14.943498 28842 net.cpp:165] Memory required for data: 5925831240
I0718 14:06:14.943511 28842 layer_factory.hpp:76] Creating layer inception_4e/3x3_reduce
I0718 14:06:14.943560 28842 net.cpp:106] Creating Layer inception_4e/3x3_reduce
I0718 14:06:14.943579 28842 net.cpp:454] inception_4e/3x3_reduce <- inception_4d/output_inception_4d/output_0_split_1
I0718 14:06:14.943603 28842 net.cpp:411] inception_4e/3x3_reduce -> inception_4e/3x3_reduce
I0718 14:06:14.946358 28842 cudnn_conv_layer.cpp:194] Reallocating workspace storage: 6336
I0718 14:06:14.946475 28842 net.cpp:150] Setting up inception_4e/3x3_reduce
I0718 14:06:14.946507 28842 net.cpp:157] Top shape: 6 160 62 62 (3690240)
I0718 14:06:14.946523 28842 net.cpp:165] Memory required for data: 5940592200
I0718 14:06:14.946547 28842 layer_factory.hpp:76] Creating layer inception_4e/relu_3x3_reduce
I0718 14:06:14.946583 28842 net.cpp:106] Creating Layer inception_4e/relu_3x3_reduce
I0718 14:06:14.946609 28842 net.cpp:454] inception_4e/relu_3x3_reduce <- inception_4e/3x3_reduce
I0718 14:06:14.946642 28842 net.cpp:397] inception_4e/relu_3x3_reduce -> inception_4e/3x3_reduce (in-place)
I0718 14:06:14.947275 28842 net.cpp:150] Setting up inception_4e/relu_3x3_reduce
I0718 14:06:14.947306 28842 net.cpp:157] Top shape: 6 160 62 62 (3690240)
I0718 14:06:14.947319 28842 net.cpp:165] Memory required for data: 5955353160
I0718 14:06:14.947335 28842 layer_factory.hpp:76] Creating layer inception_4e/3x3
I0718 14:06:14.947389 28842 net.cpp:106] Creating Layer inception_4e/3x3
I0718 14:06:14.947407 28842 net.cpp:454] inception_4e/3x3 <- inception_4e/3x3_reduce
I0718 14:06:14.947429 28842 net.cpp:411] inception_4e/3x3 -> inception_4e/3x3
I0718 14:06:14.954499 28842 net.cpp:150] Setting up inception_4e/3x3
I0718 14:06:14.954594 28842 net.cpp:157] Top shape: 6 320 62 62 (7380480)
I0718 14:06:14.954609 28842 net.cpp:165] Memory required for data: 5984875080
I0718 14:06:14.954646 28842 layer_factory.hpp:76] Creating layer inception_4e/relu_3x3
I0718 14:06:14.954704 28842 net.cpp:106] Creating Layer inception_4e/relu_3x3
I0718 14:06:14.954726 28842 net.cpp:454] inception_4e/relu_3x3 <- inception_4e/3x3
I0718 14:06:14.954753 28842 net.cpp:397] inception_4e/relu_3x3 -> inception_4e/3x3 (in-place)
I0718 14:06:14.955431 28842 net.cpp:150] Setting up inception_4e/relu_3x3
I0718 14:06:14.955456 28842 net.cpp:157] Top shape: 6 320 62 62 (7380480)
I0718 14:06:14.955497 28842 net.cpp:165] Memory required for data: 6014397000
I0718 14:06:14.955507 28842 layer_factory.hpp:76] Creating layer inception_4e/5x5_reduce
I0718 14:06:14.955531 28842 net.cpp:106] Creating Layer inception_4e/5x5_reduce
I0718 14:06:14.955543 28842 net.cpp:454] inception_4e/5x5_reduce <- inception_4d/output_inception_4d/output_0_split_2
I0718 14:06:14.955561 28842 net.cpp:411] inception_4e/5x5_reduce -> inception_4e/5x5_reduce
I0718 14:06:14.957180 28842 cudnn_conv_layer.cpp:194] Reallocating workspace storage: 6336
I0718 14:06:14.957250 28842 net.cpp:150] Setting up inception_4e/5x5_reduce
I0718 14:06:14.957269 28842 net.cpp:157] Top shape: 6 32 62 62 (738048)
I0718 14:06:14.957278 28842 net.cpp:165] Memory required for data: 6017349192
I0718 14:06:14.957294 28842 layer_factory.hpp:76] Creating layer inception_4e/relu_5x5_reduce
I0718 14:06:14.957314 28842 net.cpp:106] Creating Layer inception_4e/relu_5x5_reduce
I0718 14:06:14.957325 28842 net.cpp:454] inception_4e/relu_5x5_reduce <- inception_4e/5x5_reduce
I0718 14:06:14.957337 28842 net.cpp:397] inception_4e/relu_5x5_reduce -> inception_4e/5x5_reduce (in-place)
I0718 14:06:14.957556 28842 net.cpp:150] Setting up inception_4e/relu_5x5_reduce
I0718 14:06:14.957576 28842 net.cpp:157] Top shape: 6 32 62 62 (738048)
I0718 14:06:14.957586 28842 net.cpp:165] Memory required for data: 6020301384
I0718 14:06:14.957594 28842 layer_factory.hpp:76] Creating layer inception_4e/5x5
I0718 14:06:14.957628 28842 net.cpp:106] Creating Layer inception_4e/5x5
I0718 14:06:14.957638 28842 net.cpp:454] inception_4e/5x5 <- inception_4e/5x5_reduce
I0718 14:06:14.957650 28842 net.cpp:411] inception_4e/5x5 -> inception_4e/5x5
I0718 14:06:14.961156 28842 net.cpp:150] Setting up inception_4e/5x5
I0718 14:06:14.961226 28842 net.cpp:157] Top shape: 6 128 62 62 (2952192)
I0718 14:06:14.961237 28842 net.cpp:165] Memory required for data: 6032110152
I0718 14:06:14.961274 28842 layer_factory.hpp:76] Creating layer inception_4e/relu_5x5
I0718 14:06:14.961299 28842 net.cpp:106] Creating Layer inception_4e/relu_5x5
I0718 14:06:14.961313 28842 net.cpp:454] inception_4e/relu_5x5 <- inception_4e/5x5
I0718 14:06:14.961328 28842 net.cpp:397] inception_4e/relu_5x5 -> inception_4e/5x5 (in-place)
I0718 14:06:14.961838 28842 net.cpp:150] Setting up inception_4e/relu_5x5
I0718 14:06:14.961858 28842 net.cpp:157] Top shape: 6 128 62 62 (2952192)
I0718 14:06:14.961868 28842 net.cpp:165] Memory required for data: 6043918920
I0718 14:06:14.961877 28842 layer_factory.hpp:76] Creating layer inception_4e/pool
I0718 14:06:14.961892 28842 net.cpp:106] Creating Layer inception_4e/pool
I0718 14:06:14.961902 28842 net.cpp:454] inception_4e/pool <- inception_4d/output_inception_4d/output_0_split_3
I0718 14:06:14.961915 28842 net.cpp:411] inception_4e/pool -> inception_4e/pool
I0718 14:06:14.962182 28842 net.cpp:150] Setting up inception_4e/pool
I0718 14:06:14.962203 28842 net.cpp:157] Top shape: 6 528 62 62 (12177792)
I0718 14:06:14.962210 28842 net.cpp:165] Memory required for data: 6092630088
I0718 14:06:14.962219 28842 layer_factory.hpp:76] Creating layer inception_4e/pool_proj
I0718 14:06:14.962239 28842 net.cpp:106] Creating Layer inception_4e/pool_proj
I0718 14:06:14.962250 28842 net.cpp:454] inception_4e/pool_proj <- inception_4e/pool
I0718 14:06:14.962265 28842 net.cpp:411] inception_4e/pool_proj -> inception_4e/pool_proj
I0718 14:06:14.964622 28842 cudnn_conv_layer.cpp:194] Reallocating workspace storage: 6336
I0718 14:06:14.964701 28842 net.cpp:150] Setting up inception_4e/pool_proj
I0718 14:06:14.964725 28842 net.cpp:157] Top shape: 6 128 62 62 (2952192)
I0718 14:06:14.964735 28842 net.cpp:165] Memory required for data: 6104438856
I0718 14:06:14.964751 28842 layer_factory.hpp:76] Creating layer inception_4e/relu_pool_proj
I0718 14:06:14.964797 28842 net.cpp:106] Creating Layer inception_4e/relu_pool_proj
I0718 14:06:14.964810 28842 net.cpp:454] inception_4e/relu_pool_proj <- inception_4e/pool_proj
I0718 14:06:14.964823 28842 net.cpp:397] inception_4e/relu_pool_proj -> inception_4e/pool_proj (in-place)
I0718 14:06:14.965106 28842 net.cpp:150] Setting up inception_4e/relu_pool_proj
I0718 14:06:14.965124 28842 net.cpp:157] Top shape: 6 128 62 62 (2952192)
I0718 14:06:14.965132 28842 net.cpp:165] Memory required for data: 6116247624
I0718 14:06:14.965142 28842 layer_factory.hpp:76] Creating layer inception_4e/output
I0718 14:06:14.965153 28842 net.cpp:106] Creating Layer inception_4e/output
I0718 14:06:14.965162 28842 net.cpp:454] inception_4e/output <- inception_4e/1x1
I0718 14:06:14.965175 28842 net.cpp:454] inception_4e/output <- inception_4e/3x3
I0718 14:06:14.965185 28842 net.cpp:454] inception_4e/output <- inception_4e/5x5
I0718 14:06:14.965196 28842 net.cpp:454] inception_4e/output <- inception_4e/pool_proj
I0718 14:06:14.965209 28842 net.cpp:411] inception_4e/output -> inception_4e/output
I0718 14:06:14.965255 28842 net.cpp:150] Setting up inception_4e/output
I0718 14:06:14.965268 28842 net.cpp:157] Top shape: 6 832 62 62 (19189248)
I0718 14:06:14.965276 28842 net.cpp:165] Memory required for data: 6193004616
I0718 14:06:14.965286 28842 layer_factory.hpp:76] Creating layer pool4/3x3_s2
I0718 14:06:14.965301 28842 net.cpp:106] Creating Layer pool4/3x3_s2
I0718 14:06:14.965313 28842 net.cpp:454] pool4/3x3_s2 <- inception_4e/output
I0718 14:06:14.965324 28842 net.cpp:411] pool4/3x3_s2 -> pool4/3x3_s2
I0718 14:06:14.965884 28842 net.cpp:150] Setting up pool4/3x3_s2
I0718 14:06:14.965908 28842 net.cpp:157] Top shape: 6 832 31 31 (4797312)
I0718 14:06:14.965916 28842 net.cpp:165] Memory required for data: 6212193864
I0718 14:06:14.965926 28842 layer_factory.hpp:76] Creating layer pool4/3x3_s2_pool4/3x3_s2_0_split
I0718 14:06:14.965950 28842 net.cpp:106] Creating Layer pool4/3x3_s2_pool4/3x3_s2_0_split
I0718 14:06:14.965961 28842 net.cpp:454] pool4/3x3_s2_pool4/3x3_s2_0_split <- pool4/3x3_s2
I0718 14:06:14.965973 28842 net.cpp:411] pool4/3x3_s2_pool4/3x3_s2_0_split -> pool4/3x3_s2_pool4/3x3_s2_0_split_0
I0718 14:06:14.965986 28842 net.cpp:411] pool4/3x3_s2_pool4/3x3_s2_0_split -> pool4/3x3_s2_pool4/3x3_s2_0_split_1
I0718 14:06:14.965997 28842 net.cpp:411] pool4/3x3_s2_pool4/3x3_s2_0_split -> pool4/3x3_s2_pool4/3x3_s2_0_split_2
I0718 14:06:14.966007 28842 net.cpp:411] pool4/3x3_s2_pool4/3x3_s2_0_split -> pool4/3x3_s2_pool4/3x3_s2_0_split_3
I0718 14:06:14.966094 28842 net.cpp:150] Setting up pool4/3x3_s2_pool4/3x3_s2_0_split
I0718 14:06:14.966111 28842 net.cpp:157] Top shape: 6 832 31 31 (4797312)
I0718 14:06:14.966120 28842 net.cpp:157] Top shape: 6 832 31 31 (4797312)
I0718 14:06:14.966130 28842 net.cpp:157] Top shape: 6 832 31 31 (4797312)
I0718 14:06:14.966140 28842 net.cpp:157] Top shape: 6 832 31 31 (4797312)
I0718 14:06:14.966147 28842 net.cpp:165] Memory required for data: 6288950856
I0718 14:06:14.966166 28842 layer_factory.hpp:76] Creating layer inception_5a/1x1
I0718 14:06:14.966192 28842 net.cpp:106] Creating Layer inception_5a/1x1
I0718 14:06:14.966204 28842 net.cpp:454] inception_5a/1x1 <- pool4/3x3_s2_pool4/3x3_s2_0_split_0
I0718 14:06:14.966222 28842 net.cpp:411] inception_5a/1x1 -> inception_5a/1x1
I0718 14:06:14.970443 28842 cudnn_conv_layer.cpp:194] Reallocating workspace storage: 9984
I0718 14:06:14.970531 28842 net.cpp:150] Setting up inception_5a/1x1
I0718 14:06:14.970556 28842 net.cpp:157] Top shape: 6 256 31 31 (1476096)
I0718 14:06:14.970566 28842 net.cpp:165] Memory required for data: 6294855240
I0718 14:06:14.970584 28842 layer_factory.hpp:76] Creating layer inception_5a/relu_1x1
I0718 14:06:14.970607 28842 net.cpp:106] Creating Layer inception_5a/relu_1x1
I0718 14:06:14.970619 28842 net.cpp:454] inception_5a/relu_1x1 <- inception_5a/1x1
I0718 14:06:14.970643 28842 net.cpp:397] inception_5a/relu_1x1 -> inception_5a/1x1 (in-place)
I0718 14:06:14.970867 28842 net.cpp:150] Setting up inception_5a/relu_1x1
I0718 14:06:14.970886 28842 net.cpp:157] Top shape: 6 256 31 31 (1476096)
I0718 14:06:14.970896 28842 net.cpp:165] Memory required for data: 6300759624
I0718 14:06:14.970904 28842 layer_factory.hpp:76] Creating layer inception_5a/3x3_reduce
I0718 14:06:14.970953 28842 net.cpp:106] Creating Layer inception_5a/3x3_reduce
I0718 14:06:14.970968 28842 net.cpp:454] inception_5a/3x3_reduce <- pool4/3x3_s2_pool4/3x3_s2_0_split_1
I0718 14:06:14.970983 28842 net.cpp:411] inception_5a/3x3_reduce -> inception_5a/3x3_reduce
I0718 14:06:14.974563 28842 cudnn_conv_layer.cpp:194] Reallocating workspace storage: 9984
I0718 14:06:14.974645 28842 net.cpp:150] Setting up inception_5a/3x3_reduce
I0718 14:06:14.974663 28842 net.cpp:157] Top shape: 6 160 31 31 (922560)
I0718 14:06:14.974673 28842 net.cpp:165] Memory required for data: 6304449864
I0718 14:06:14.974687 28842 layer_factory.hpp:76] Creating layer inception_5a/relu_3x3_reduce
I0718 14:06:14.974717 28842 net.cpp:106] Creating Layer inception_5a/relu_3x3_reduce
I0718 14:06:14.974730 28842 net.cpp:454] inception_5a/relu_3x3_reduce <- inception_5a/3x3_reduce
I0718 14:06:14.974743 28842 net.cpp:397] inception_5a/relu_3x3_reduce -> inception_5a/3x3_reduce (in-place)
I0718 14:06:14.975219 28842 net.cpp:150] Setting up inception_5a/relu_3x3_reduce
I0718 14:06:14.975240 28842 net.cpp:157] Top shape: 6 160 31 31 (922560)
I0718 14:06:14.975250 28842 net.cpp:165] Memory required for data: 6308140104
I0718 14:06:14.975265 28842 layer_factory.hpp:76] Creating layer inception_5a/3x3
I0718 14:06:14.975296 28842 net.cpp:106] Creating Layer inception_5a/3x3
I0718 14:06:14.975308 28842 net.cpp:454] inception_5a/3x3 <- inception_5a/3x3_reduce
I0718 14:06:14.975322 28842 net.cpp:411] inception_5a/3x3 -> inception_5a/3x3
I0718 14:06:14.981926 28842 net.cpp:150] Setting up inception_5a/3x3
I0718 14:06:14.982002 28842 net.cpp:157] Top shape: 6 320 31 31 (1845120)
I0718 14:06:14.982017 28842 net.cpp:165] Memory required for data: 6315520584
I0718 14:06:14.982041 28842 layer_factory.hpp:76] Creating layer inception_5a/relu_3x3
I0718 14:06:14.982072 28842 net.cpp:106] Creating Layer inception_5a/relu_3x3
I0718 14:06:14.982089 28842 net.cpp:454] inception_5a/relu_3x3 <- inception_5a/3x3
I0718 14:06:14.982108 28842 net.cpp:397] inception_5a/relu_3x3 -> inception_5a/3x3 (in-place)
I0718 14:06:14.982705 28842 net.cpp:150] Setting up inception_5a/relu_3x3
I0718 14:06:14.982734 28842 net.cpp:157] Top shape: 6 320 31 31 (1845120)
I0718 14:06:14.982746 28842 net.cpp:165] Memory required for data: 6322901064
I0718 14:06:14.982759 28842 layer_factory.hpp:76] Creating layer inception_5a/5x5_reduce
I0718 14:06:14.982802 28842 net.cpp:106] Creating Layer inception_5a/5x5_reduce
I0718 14:06:14.982821 28842 net.cpp:454] inception_5a/5x5_reduce <- pool4/3x3_s2_pool4/3x3_s2_0_split_2
I0718 14:06:14.982848 28842 net.cpp:411] inception_5a/5x5_reduce -> inception_5a/5x5_reduce
I0718 14:06:14.984881 28842 net.cpp:150] Setting up inception_5a/5x5_reduce
I0718 14:06:14.984918 28842 net.cpp:157] Top shape: 6 32 31 31 (184512)
I0718 14:06:14.984928 28842 net.cpp:165] Memory required for data: 6323639112
I0718 14:06:14.984941 28842 layer_factory.hpp:76] Creating layer inception_5a/relu_5x5_reduce
I0718 14:06:14.984959 28842 net.cpp:106] Creating Layer inception_5a/relu_5x5_reduce
I0718 14:06:14.984971 28842 net.cpp:454] inception_5a/relu_5x5_reduce <- inception_5a/5x5_reduce
I0718 14:06:14.984982 28842 net.cpp:397] inception_5a/relu_5x5_reduce -> inception_5a/5x5_reduce (in-place)
I0718 14:06:14.985199 28842 net.cpp:150] Setting up inception_5a/relu_5x5_reduce
I0718 14:06:14.985221 28842 net.cpp:157] Top shape: 6 32 31 31 (184512)
I0718 14:06:14.985230 28842 net.cpp:165] Memory required for data: 6324377160
I0718 14:06:14.985252 28842 layer_factory.hpp:76] Creating layer inception_5a/5x5
I0718 14:06:14.985292 28842 net.cpp:106] Creating Layer inception_5a/5x5
I0718 14:06:14.985304 28842 net.cpp:454] inception_5a/5x5 <- inception_5a/5x5_reduce
I0718 14:06:14.985316 28842 net.cpp:411] inception_5a/5x5 -> inception_5a/5x5
I0718 14:06:14.989269 28842 net.cpp:150] Setting up inception_5a/5x5
I0718 14:06:14.989338 28842 net.cpp:157] Top shape: 6 128 31 31 (738048)
I0718 14:06:14.989358 28842 net.cpp:165] Memory required for data: 6327329352
I0718 14:06:14.989393 28842 layer_factory.hpp:76] Creating layer inception_5a/relu_5x5
I0718 14:06:14.989483 28842 net.cpp:106] Creating Layer inception_5a/relu_5x5
I0718 14:06:14.989507 28842 net.cpp:454] inception_5a/relu_5x5 <- inception_5a/5x5
I0718 14:06:14.989531 28842 net.cpp:397] inception_5a/relu_5x5 -> inception_5a/5x5 (in-place)
I0718 14:06:14.990679 28842 net.cpp:150] Setting up inception_5a/relu_5x5
I0718 14:06:14.990711 28842 net.cpp:157] Top shape: 6 128 31 31 (738048)
I0718 14:06:14.990727 28842 net.cpp:165] Memory required for data: 6330281544
I0718 14:06:14.990744 28842 layer_factory.hpp:76] Creating layer inception_5a/pool
I0718 14:06:14.990769 28842 net.cpp:106] Creating Layer inception_5a/pool
I0718 14:06:14.990792 28842 net.cpp:454] inception_5a/pool <- pool4/3x3_s2_pool4/3x3_s2_0_split_3
I0718 14:06:14.990820 28842 net.cpp:411] inception_5a/pool -> inception_5a/pool
I0718 14:06:14.991217 28842 net.cpp:150] Setting up inception_5a/pool
I0718 14:06:14.991250 28842 net.cpp:157] Top shape: 6 832 31 31 (4797312)
I0718 14:06:14.991271 28842 net.cpp:165] Memory required for data: 6349470792
I0718 14:06:14.991286 28842 layer_factory.hpp:76] Creating layer inception_5a/pool_proj
I0718 14:06:14.991313 28842 net.cpp:106] Creating Layer inception_5a/pool_proj
I0718 14:06:14.991329 28842 net.cpp:454] inception_5a/pool_proj <- inception_5a/pool
I0718 14:06:14.991353 28842 net.cpp:411] inception_5a/pool_proj -> inception_5a/pool_proj
I0718 14:06:14.999959 28842 cudnn_conv_layer.cpp:194] Reallocating workspace storage: 9984
I0718 14:06:15.000056 28842 net.cpp:150] Setting up inception_5a/pool_proj
I0718 14:06:15.000080 28842 net.cpp:157] Top shape: 6 128 31 31 (738048)
I0718 14:06:15.000090 28842 net.cpp:165] Memory required for data: 6352422984
I0718 14:06:15.000111 28842 layer_factory.hpp:76] Creating layer inception_5a/relu_pool_proj
I0718 14:06:15.000133 28842 net.cpp:106] Creating Layer inception_5a/relu_pool_proj
I0718 14:06:15.000146 28842 net.cpp:454] inception_5a/relu_pool_proj <- inception_5a/pool_proj
I0718 14:06:15.000164 28842 net.cpp:397] inception_5a/relu_pool_proj -> inception_5a/pool_proj (in-place)
I0718 14:06:15.004667 28842 net.cpp:150] Setting up inception_5a/relu_pool_proj
I0718 14:06:15.004717 28842 net.cpp:157] Top shape: 6 128 31 31 (738048)
I0718 14:06:15.004727 28842 net.cpp:165] Memory required for data: 6355375176
I0718 14:06:15.004739 28842 layer_factory.hpp:76] Creating layer inception_5a/output
I0718 14:06:15.004755 28842 net.cpp:106] Creating Layer inception_5a/output
I0718 14:06:15.004765 28842 net.cpp:454] inception_5a/output <- inception_5a/1x1
I0718 14:06:15.004778 28842 net.cpp:454] inception_5a/output <- inception_5a/3x3
I0718 14:06:15.004787 28842 net.cpp:454] inception_5a/output <- inception_5a/5x5
I0718 14:06:15.004796 28842 net.cpp:454] inception_5a/output <- inception_5a/pool_proj
I0718 14:06:15.004808 28842 net.cpp:411] inception_5a/output -> inception_5a/output
I0718 14:06:15.004897 28842 net.cpp:150] Setting up inception_5a/output
I0718 14:06:15.004909 28842 net.cpp:157] Top shape: 6 832 31 31 (4797312)
I0718 14:06:15.004916 28842 net.cpp:165] Memory required for data: 6374564424
I0718 14:06:15.004925 28842 layer_factory.hpp:76] Creating layer inception_5a/output_inception_5a/output_0_split
I0718 14:06:15.004940 28842 net.cpp:106] Creating Layer inception_5a/output_inception_5a/output_0_split
I0718 14:06:15.004947 28842 net.cpp:454] inception_5a/output_inception_5a/output_0_split <- inception_5a/output
I0718 14:06:15.004957 28842 net.cpp:411] inception_5a/output_inception_5a/output_0_split -> inception_5a/output_inception_5a/output_0_split_0
I0718 14:06:15.004969 28842 net.cpp:411] inception_5a/output_inception_5a/output_0_split -> inception_5a/output_inception_5a/output_0_split_1
I0718 14:06:15.004992 28842 net.cpp:411] inception_5a/output_inception_5a/output_0_split -> inception_5a/output_inception_5a/output_0_split_2
I0718 14:06:15.005005 28842 net.cpp:411] inception_5a/output_inception_5a/output_0_split -> inception_5a/output_inception_5a/output_0_split_3
I0718 14:06:15.005128 28842 net.cpp:150] Setting up inception_5a/output_inception_5a/output_0_split
I0718 14:06:15.005179 28842 net.cpp:157] Top shape: 6 832 31 31 (4797312)
I0718 14:06:15.005188 28842 net.cpp:157] Top shape: 6 832 31 31 (4797312)
I0718 14:06:15.005195 28842 net.cpp:157] Top shape: 6 832 31 31 (4797312)
I0718 14:06:15.005203 28842 net.cpp:157] Top shape: 6 832 31 31 (4797312)
I0718 14:06:15.005210 28842 net.cpp:165] Memory required for data: 6451321416
I0718 14:06:15.005218 28842 layer_factory.hpp:76] Creating layer inception_5b/1x1
I0718 14:06:15.005235 28842 net.cpp:106] Creating Layer inception_5b/1x1
I0718 14:06:15.005244 28842 net.cpp:454] inception_5b/1x1 <- inception_5a/output_inception_5a/output_0_split_0
I0718 14:06:15.005256 28842 net.cpp:411] inception_5b/1x1 -> inception_5b/1x1
I0718 14:06:15.011142 28842 cudnn_conv_layer.cpp:194] Reallocating workspace storage: 9984
I0718 14:06:15.011226 28842 net.cpp:150] Setting up inception_5b/1x1
I0718 14:06:15.011248 28842 net.cpp:157] Top shape: 6 384 31 31 (2214144)
I0718 14:06:15.011258 28842 net.cpp:165] Memory required for data: 6460177992
I0718 14:06:15.011276 28842 layer_factory.hpp:76] Creating layer inception_5b/relu_1x1
I0718 14:06:15.011296 28842 net.cpp:106] Creating Layer inception_5b/relu_1x1
I0718 14:06:15.011308 28842 net.cpp:454] inception_5b/relu_1x1 <- inception_5b/1x1
I0718 14:06:15.011323 28842 net.cpp:397] inception_5b/relu_1x1 -> inception_5b/1x1 (in-place)
I0718 14:06:15.012075 28842 net.cpp:150] Setting up inception_5b/relu_1x1
I0718 14:06:15.016198 28842 net.cpp:157] Top shape: 6 384 31 31 (2214144)
I0718 14:06:15.016227 28842 net.cpp:165] Memory required for data: 6469034568
I0718 14:06:15.016247 28842 layer_factory.hpp:76] Creating layer inception_5b/3x3_reduce
I0718 14:06:15.016286 28842 net.cpp:106] Creating Layer inception_5b/3x3_reduce
I0718 14:06:15.016310 28842 net.cpp:454] inception_5b/3x3_reduce <- inception_5a/output_inception_5a/output_0_split_1
I0718 14:06:15.016335 28842 net.cpp:411] inception_5b/3x3_reduce -> inception_5b/3x3_reduce
I0718 14:06:15.022758 28842 cudnn_conv_layer.cpp:194] Reallocating workspace storage: 9984
I0718 14:06:15.022838 28842 net.cpp:150] Setting up inception_5b/3x3_reduce
I0718 14:06:15.022856 28842 net.cpp:157] Top shape: 6 192 31 31 (1107072)
I0718 14:06:15.022866 28842 net.cpp:165] Memory required for data: 6473462856
I0718 14:06:15.022882 28842 layer_factory.hpp:76] Creating layer inception_5b/relu_3x3_reduce
I0718 14:06:15.022900 28842 net.cpp:106] Creating Layer inception_5b/relu_3x3_reduce
I0718 14:06:15.022918 28842 net.cpp:454] inception_5b/relu_3x3_reduce <- inception_5b/3x3_reduce
I0718 14:06:15.022932 28842 net.cpp:397] inception_5b/relu_3x3_reduce -> inception_5b/3x3_reduce (in-place)
I0718 14:06:15.023170 28842 net.cpp:150] Setting up inception_5b/relu_3x3_reduce
I0718 14:06:15.023191 28842 net.cpp:157] Top shape: 6 192 31 31 (1107072)
I0718 14:06:15.023201 28842 net.cpp:165] Memory required for data: 6477891144
I0718 14:06:15.023212 28842 layer_factory.hpp:76] Creating layer inception_5b/3x3
I0718 14:06:15.023231 28842 net.cpp:106] Creating Layer inception_5b/3x3
I0718 14:06:15.023242 28842 net.cpp:454] inception_5b/3x3 <- inception_5b/3x3_reduce
I0718 14:06:15.023260 28842 net.cpp:411] inception_5b/3x3 -> inception_5b/3x3
I0718 14:06:15.038303 28842 net.cpp:150] Setting up inception_5b/3x3
I0718 14:06:15.038365 28842 net.cpp:157] Top shape: 6 384 31 31 (2214144)
I0718 14:06:15.038381 28842 net.cpp:165] Memory required for data: 6486747720
I0718 14:06:15.038420 28842 layer_factory.hpp:76] Creating layer inception_5b/relu_3x3
I0718 14:06:15.038453 28842 net.cpp:106] Creating Layer inception_5b/relu_3x3
I0718 14:06:15.038476 28842 net.cpp:454] inception_5b/relu_3x3 <- inception_5b/3x3
I0718 14:06:15.038511 28842 net.cpp:397] inception_5b/relu_3x3 -> inception_5b/3x3 (in-place)
I0718 14:06:15.039537 28842 net.cpp:150] Setting up inception_5b/relu_3x3
I0718 14:06:15.039557 28842 net.cpp:157] Top shape: 6 384 31 31 (2214144)
I0718 14:06:15.039567 28842 net.cpp:165] Memory required for data: 6495604296
I0718 14:06:15.039577 28842 layer_factory.hpp:76] Creating layer inception_5b/5x5_reduce
I0718 14:06:15.039638 28842 net.cpp:106] Creating Layer inception_5b/5x5_reduce
I0718 14:06:15.039649 28842 net.cpp:454] inception_5b/5x5_reduce <- inception_5a/output_inception_5a/output_0_split_2
I0718 14:06:15.039662 28842 net.cpp:411] inception_5b/5x5_reduce -> inception_5b/5x5_reduce
I0718 14:06:15.041972 28842 net.cpp:150] Setting up inception_5b/5x5_reduce
I0718 14:06:15.042052 28842 net.cpp:157] Top shape: 6 48 31 31 (276768)
I0718 14:06:15.042069 28842 net.cpp:165] Memory required for data: 6496711368
I0718 14:06:15.042095 28842 layer_factory.hpp:76] Creating layer inception_5b/relu_5x5_reduce
I0718 14:06:15.042140 28842 net.cpp:106] Creating Layer inception_5b/relu_5x5_reduce
I0718 14:06:15.042187 28842 net.cpp:454] inception_5b/relu_5x5_reduce <- inception_5b/5x5_reduce
I0718 14:06:15.042213 28842 net.cpp:397] inception_5b/relu_5x5_reduce -> inception_5b/5x5_reduce (in-place)
I0718 14:06:15.053354 28842 net.cpp:150] Setting up inception_5b/relu_5x5_reduce
I0718 14:06:15.053454 28842 net.cpp:157] Top shape: 6 48 31 31 (276768)
I0718 14:06:15.053493 28842 net.cpp:165] Memory required for data: 6497818440
I0718 14:06:15.053521 28842 layer_factory.hpp:76] Creating layer inception_5b/5x5
I0718 14:06:15.053587 28842 net.cpp:106] Creating Layer inception_5b/5x5
I0718 14:06:15.053622 28842 net.cpp:454] inception_5b/5x5 <- inception_5b/5x5_reduce
I0718 14:06:15.053673 28842 net.cpp:411] inception_5b/5x5 -> inception_5b/5x5
I0718 14:06:15.072654 28842 net.cpp:150] Setting up inception_5b/5x5
I0718 14:06:15.072861 28842 net.cpp:157] Top shape: 6 128 31 31 (738048)
I0718 14:06:15.072892 28842 net.cpp:165] Memory required for data: 6500770632
I0718 14:06:15.073045 28842 layer_factory.hpp:76] Creating layer inception_5b/relu_5x5
I0718 14:06:15.073112 28842 net.cpp:106] Creating Layer inception_5b/relu_5x5
I0718 14:06:15.073176 28842 net.cpp:454] inception_5b/relu_5x5 <- inception_5b/5x5
I0718 14:06:15.073217 28842 net.cpp:397] inception_5b/relu_5x5 -> inception_5b/5x5 (in-place)
I0718 14:06:15.073616 28842 net.cpp:150] Setting up inception_5b/relu_5x5
I0718 14:06:15.073649 28842 net.cpp:157] Top shape: 6 128 31 31 (738048)
I0718 14:06:15.073679 28842 net.cpp:165] Memory required for data: 6503722824
I0718 14:06:15.073711 28842 layer_factory.hpp:76] Creating layer inception_5b/pool
I0718 14:06:15.073768 28842 net.cpp:106] Creating Layer inception_5b/pool
I0718 14:06:15.073786 28842 net.cpp:454] inception_5b/pool <- inception_5a/output_inception_5a/output_0_split_3
I0718 14:06:15.073837 28842 net.cpp:411] inception_5b/pool -> inception_5b/pool
I0718 14:06:15.085297 28842 net.cpp:150] Setting up inception_5b/pool
I0718 14:06:15.085427 28842 net.cpp:157] Top shape: 6 832 31 31 (4797312)
I0718 14:06:15.085446 28842 net.cpp:165] Memory required for data: 6522912072
I0718 14:06:15.085472 28842 layer_factory.hpp:76] Creating layer inception_5b/pool_proj
I0718 14:06:15.085536 28842 net.cpp:106] Creating Layer inception_5b/pool_proj
I0718 14:06:15.085566 28842 net.cpp:454] inception_5b/pool_proj <- inception_5b/pool
I0718 14:06:15.085604 28842 net.cpp:411] inception_5b/pool_proj -> inception_5b/pool_proj
I0718 14:06:15.090093 28842 cudnn_conv_layer.cpp:194] Reallocating workspace storage: 9984
I0718 14:06:15.090209 28842 net.cpp:150] Setting up inception_5b/pool_proj
I0718 14:06:15.090232 28842 net.cpp:157] Top shape: 6 128 31 31 (738048)
I0718 14:06:15.090242 28842 net.cpp:165] Memory required for data: 6525864264
I0718 14:06:15.090261 28842 layer_factory.hpp:76] Creating layer inception_5b/relu_pool_proj
I0718 14:06:15.090304 28842 net.cpp:106] Creating Layer inception_5b/relu_pool_proj
I0718 14:06:15.090327 28842 net.cpp:454] inception_5b/relu_pool_proj <- inception_5b/pool_proj
I0718 14:06:15.090342 28842 net.cpp:397] inception_5b/relu_pool_proj -> inception_5b/pool_proj (in-place)
I0718 14:06:15.090575 28842 net.cpp:150] Setting up inception_5b/relu_pool_proj
I0718 14:06:15.090595 28842 net.cpp:157] Top shape: 6 128 31 31 (738048)
I0718 14:06:15.090605 28842 net.cpp:165] Memory required for data: 6528816456
I0718 14:06:15.090664 28842 layer_factory.hpp:76] Creating layer inception_5b/output
I0718 14:06:15.090683 28842 net.cpp:106] Creating Layer inception_5b/output
I0718 14:06:15.090699 28842 net.cpp:454] inception_5b/output <- inception_5b/1x1
I0718 14:06:15.090710 28842 net.cpp:454] inception_5b/output <- inception_5b/3x3
I0718 14:06:15.090719 28842 net.cpp:454] inception_5b/output <- inception_5b/5x5
I0718 14:06:15.090730 28842 net.cpp:454] inception_5b/output <- inception_5b/pool_proj
I0718 14:06:15.090742 28842 net.cpp:411] inception_5b/output -> inception_5b/output
I0718 14:06:15.090800 28842 net.cpp:150] Setting up inception_5b/output
I0718 14:06:15.090816 28842 net.cpp:157] Top shape: 6 1024 31 31 (5904384)
I0718 14:06:15.090823 28842 net.cpp:165] Memory required for data: 6552433992
I0718 14:06:15.090832 28842 layer_factory.hpp:76] Creating layer pool5/7x7_s1
I0718 14:06:15.090857 28842 net.cpp:106] Creating Layer pool5/7x7_s1
I0718 14:06:15.090867 28842 net.cpp:454] pool5/7x7_s1 <- inception_5b/output
I0718 14:06:15.090879 28842 net.cpp:411] pool5/7x7_s1 -> pool5/7x7_s1
I0718 14:06:15.341984 28842 cudnn_conv_layer.cpp:194] Reallocating workspace storage: 602112
I0718 14:06:15.342691 28842 net.cpp:150] Setting up pool5/7x7_s1
I0718 14:06:15.342761 28842 net.cpp:157] Top shape: 6 512 25 25 (1920000)
I0718 14:06:15.342772 28842 net.cpp:165] Memory required for data: 6560113992
I0718 14:06:15.342797 28842 layer_factory.hpp:76] Creating layer pool5/drop_7x7_s1
I0718 14:06:15.342839 28842 net.cpp:106] Creating Layer pool5/drop_7x7_s1
I0718 14:06:15.342854 28842 net.cpp:454] pool5/drop_7x7_s1 <- pool5/7x7_s1
I0718 14:06:15.342869 28842 net.cpp:397] pool5/drop_7x7_s1 -> pool5/7x7_s1 (in-place)
I0718 14:06:15.343065 28842 net.cpp:150] Setting up pool5/drop_7x7_s1
I0718 14:06:15.343092 28842 net.cpp:157] Top shape: 6 512 25 25 (1920000)
I0718 14:06:15.343101 28842 net.cpp:165] Memory required for data: 6567793992
I0718 14:06:15.343111 28842 layer_factory.hpp:76] Creating layer loss3/classifier
I0718 14:06:15.343158 28842 net.cpp:106] Creating Layer loss3/classifier
I0718 14:06:15.343171 28842 net.cpp:454] loss3/classifier <- pool5/7x7_s1
I0718 14:06:15.343185 28842 net.cpp:411] loss3/classifier -> loss3/classifier
I0718 14:06:15.350473 28842 net.cpp:150] Setting up loss3/classifier
I0718 14:06:15.350585 28842 net.cpp:157] Top shape: 6 2 (12)
I0718 14:06:15.350600 28842 net.cpp:165] Memory required for data: 6567794040
I0718 14:06:15.350651 28842 layer_factory.hpp:76] Creating layer loss3/loss3
I0718 14:06:15.350682 28842 net.cpp:106] Creating Layer loss3/loss3
I0718 14:06:15.350708 28842 net.cpp:454] loss3/loss3 <- loss3/classifier
I0718 14:06:15.350728 28842 net.cpp:411] loss3/loss3 -> loss3/loss3
I0718 14:06:15.351495 28842 net.cpp:150] Setting up loss3/loss3
I0718 14:06:15.351550 28842 net.cpp:157] Top shape: 6 2 (12)
I0718 14:06:15.351570 28842 net.cpp:165] Memory required for data: 6567794088
I0718 14:06:15.351583 28842 layer_factory.hpp:76] Creating layer conv61
I0718 14:06:15.351634 28842 net.cpp:106] Creating Layer conv61
I0718 14:06:15.351646 28842 net.cpp:454] conv61 <- loss3/loss3
I0718 14:06:15.351670 28842 net.cpp:411] conv61 -> conv61
F0718 14:06:15.351816 28842 base_conv_layer.cpp:28] Check failed: num_spatial_axes_ == 2 (0 vs. 2) kernel_h & kernel_w can only be used for 2D convolution.
