…
I0718 14:07:13.017026 29038 net.cpp:322] The NetState phase (0) differed from the phase (1) specified by a rule in layer data
I0718 14:07:13.018838 29038 net.cpp:49] Initializing net from parameters: 
name: "GoogleNet"
state {
  phase: TRAIN
}
layer {
  name: "data"
  type: "ImageData"
  top: "data"
  top: "label"
  include {
    phase: TRAIN
  }
  transform_param {
    mirror: true
    mean_value: 163
    mean_value: 116
    mean_value: 181
  }
  image_data_param {
    source: "../lists/mitosis_train.lst"
    batch_size: 6
    shuffle: true
  }
}
layer {
  name: "conv1/7x7_s2"
  type: "Convolution"
  bottom: "data"
  top: "conv1/7x7_s2"
  param {
    lr_mult: 0
    decay_mult: 1
  }
  param {
    lr_mult: 2
    decay_mult: 0
  }
  convolution_param {
    num_output: 64
    pad: 3
    kernel_size: 7
    stride: 2
    weight_filler {
      type: "xavier"
    }
    bias_filler {
      type: "constant"
      value: 0.2
    }
  }
}
layer {
  name: "conv1/relu_7x7"
  type: "ReLU"
  bottom: "conv1/7x7_s2"
  top: "conv1/7x7_s2"
}
layer {
  name: "pool1/3x3_s2"
  type: "Pooling"
  bottom: "conv1/7x7_s2"
  top: "pool1/3x3_s2"
  pooling_param {
    pool: MAX
    kernel_size: 3
    stride: 2
  }
}
layer {
  name: "pool1/norm1"
  type: "LRN"
  bottom: "pool1/3x3_s2"
  top: "pool1/norm1"
  lrn_param {
    local_size: 5
    alpha: 0.0001
    beta: 0.75
  }
}
layer {
  name: "conv2/3x3_reduce"
  type: "Convolution"
  bottom: "pool1/norm1"
  top: "conv2/3x3_reduce"
  param {
    lr_mult: 0
    decay_mult: 1
  }
  param {
    lr_mult: 2
    decay_mult: 0
  }
  convolution_param {
    num_output: 64
    kernel_size: 1
    weight_filler {
      type: "xavier"
    }
    bias_filler {
      type: "constant"
      value: 0.2
    }
  }
}
layer {
  name: "conv2/relu_3x3_reduce"
  type: "ReLU"
  bottom: "conv2/3x3_reduce"
  top: "conv2/3x3_reduce"
}
layer {
  name: "conv2/3x3"
  type: "Convolution"
  bottom: "conv2/3x3_reduce"
  top: "conv2/3x3"
  param {
    lr_mult: 0
    decay_mult: 1
  }
  param {
    lr_mult: 2
    decay_mult: 0
  }
  convolution_param {
    num_output: 192
    pad: 1
    kernel_size: 3
    weight_filler {
      type: "xavier"
    }
    bias_filler {
      type: "constant"
      value: 0.2
    }
  }
}
layer {
  name: "conv2/relu_3x3"
  type: "ReLU"
  bottom: "conv2/3x3"
  top: "conv2/3x3"
}
layer {
  name: "conv2/norm2"
  type: "LRN"
  bottom: "conv2/3x3"
  top: "conv2/norm2"
  lrn_param {
    local_size: 5
    alpha: 0.0001
    beta: 0.75
  }
}
layer {
  name: "pool2/3x3_s2"
  type: "Pooling"
  bottom: "conv2/norm2"
  top: "pool2/3x3_s2"
  pooling_param {
    pool: MAX
    kernel_size: 3
    stride: 2
  }
}
layer {
  name: "inception_3a/1x1"
  type: "Convolution"
  bottom: "pool2/3x3_s2"
  top: "inception_3a/1x1"
  param {
    lr_mult: 0
    decay_mult: 1
  }
  param {
    lr_mult: 2
    decay_mult: 0
  }
  convolution_param {
    num_output: 64
    kernel_size: 1
    weight_filler {
      type: "xavier"
    }
    bias_filler {
      type: "constant"
      value: 0.2
    }
  }
}
layer {
  name: "inception_3a/relu_1x1"
  type: "ReLU"
  bottom: "inception_3a/1x1"
  top: "inception_3a/1x1"
}
layer {
  name: "inception_3a/3x3_reduce"
  type: "Convolution"
  bottom: "pool2/3x3_s2"
  top: "inception_3a/3x3_reduce"
  param {
    lr_mult: 0
    decay_mult: 1
  }
  param {
    lr_mult: 2
    decay_mult: 0
  }
  convolution_param {
    num_output: 96
    kernel_size: 1
    weight_filler {
      type: "xavier"
    }
    bias_filler {
      type: "constant"
      value: 0.2
    }
  }
}
layer {
  name: "inception_3a/relu_3x3_reduce"
  type: "ReLU"
  bottom: "inception_3a/3x3_reduce"
  top: "inception_3a/3x3_reduce"
}
layer {
  name: "inception_3a/3x3"
  type: "Convolution"
  bottom: "inception_3a/3x3_reduce"
  top: "inception_3a/3x3"
  param {
    lr_mult: 0
    decay_mult: 1
  }
  param {
    lr_mult: 2
    decay_mult: 0
  }
  convolution_param {
    num_output: 128
    pad: 1
    kernel_size: 3
    weight_filler {
      type: "xavier"
    }
    bias_filler {
      type: "constant"
      value: 0.2
    }
  }
}
layer {
  name: "inception_3a/relu_3x3"
  type: "ReLU"
  bottom: "inception_3a/3x3"
  top: "inception_3a/3x3"
}
layer {
  name: "inception_3a/5x5_reduce"
  type: "Convolution"
  bottom: "pool2/3x3_s2"
  top: "inception_3a/5x5_reduce"
  param {
    lr_mult: 0
    decay_mult: 1
  }
  param {
    lr_mult: 2
    decay_mult: 0
  }
  convolution_param {
    num_output: 16
    kernel_size: 1
    weight_filler {
      type: "xavier"
    }
    bias_filler {
      type: "constant"
      value: 0.2
    }
  }
}
layer {
  name: "inception_3a/relu_5x5_reduce"
  type: "ReLU"
  bottom: "inception_3a/5x5_reduce"
  top: "inception_3a/5x5_reduce"
}
layer {
  name: "inception_3a/5x5"
  type: "Convolution"
  bottom: "inception_3a/5x5_reduce"
  top: "inception_3a/5x5"
  param {
    lr_mult: 0
    decay_mult: 1
  }
  param {
    lr_mult: 2
    decay_mult: 0
  }
  convolution_param {
    num_output: 32
    pad: 2
    kernel_size: 5
    weight_filler {
      type: "xavier"
    }
    bias_filler {
      type: "constant"
      value: 0.2
    }
  }
}
layer {
  name: "inception_3a/relu_5x5"
  type: "ReLU"
  bottom: "inception_3a/5x5"
  top: "inception_3a/5x5"
}
layer {
  name: "inception_3a/pool"
  type: "Pooling"
  bottom: "pool2/3x3_s2"
  top: "inception_3a/pool"
  pooling_param {
    pool: MAX
    kernel_size: 3
    stride: 1
    pad: 1
  }
}
layer {
  name: "inception_3a/pool_proj"
  type: "Convolution"
  bottom: "inception_3a/pool"
  top: "inception_3a/pool_proj"
  param {
    lr_mult: 0
    decay_mult: 1
  }
  param {
    lr_mult: 2
    decay_mult: 0
  }
  convolution_param {
    num_output: 32
    kernel_size: 1
    weight_filler {
      type: "xavier"
    }
    bias_filler {
      type: "constant"
      value: 0.2
    }
  }
}
layer {
  name: "inception_3a/relu_pool_proj"
  type: "ReLU"
  bottom: "inception_3a/pool_proj"
  top: "inception_3a/pool_proj"
}
layer {
  name: "inception_3a/output"
  type: "Concat"
  bottom: "inception_3a/1x1"
  bottom: "inception_3a/3x3"
  bottom: "inception_3a/5x5"
  bottom: "inception_3a/pool_proj"
  top: "inception_3a/output"
}
layer {
  name: "inception_3b/1x1"
  type: "Convolution"
  bottom: "inception_3a/output"
  top: "inception_3b/1x1"
  param {
    lr_mult: 0
    decay_mult: 1
  }
  param {
    lr_mult: 2
    decay_mult: 0
  }
  convolution_param {
    num_output: 128
    kernel_size: 1
    weight_filler {
      type: "xavier"
    }
    bias_filler {
      type: "constant"
      value: 0.2
    }
  }
}
layer {
  name: "inception_3b/relu_1x1"
  type: "ReLU"
  bottom: "inception_3b/1x1"
  top: "inception_3b/1x1"
}
layer {
  name: "inception_3b/3x3_reduce"
  type: "Convolution"
  bottom: "inception_3a/output"
  top: "inception_3b/3x3_reduce"
  param {
    lr_mult: 0
    decay_mult: 1
  }
  param {
    lr_mult: 2
    decay_mult: 0
  }
  convolution_param {
    num_output: 128
    kernel_size: 1
    weight_filler {
      type: "xavier"
    }
    bias_filler {
      type: "constant"
      value: 0.2
    }
  }
}
layer {
  name: "inception_3b/relu_3x3_reduce"
  type: "ReLU"
  bottom: "inception_3b/3x3_reduce"
  top: "inception_3b/3x3_reduce"
}
layer {
  name: "inception_3b/3x3"
  type: "Convolution"
  bottom: "inception_3b/3x3_reduce"
  top: "inception_3b/3x3"
  param {
    lr_mult: 0
    decay_mult: 1
  }
  param {
    lr_mult: 2
    decay_mult: 0
  }
  convolution_param {
    num_output: 192
    pad: 1
    kernel_size: 3
    weight_filler {
      type: "xavier"
    }
    bias_filler {
      type: "constant"
      value: 0.2
    }
  }
}
layer {
  name: "inception_3b/relu_3x3"
  type: "ReLU"
  bottom: "inception_3b/3x3"
  top: "inception_3b/3x3"
}
layer {
  name: "inception_3b/5x5_reduce"
  type: "Convolution"
  bottom: "inception_3a/output"
  top: "inception_3b/5x5_reduce"
  param {
    lr_mult: 0
    decay_mult: 1
  }
  param {
    lr_mult: 2
    decay_mult: 0
  }
  convolution_param {
    num_output: 32
    kernel_size: 1
    weight_filler {
      type: "xavier"
    }
    bias_filler {
      type: "constant"
      value: 0.2
    }
  }
}
layer {
  name: "inception_3b/relu_5x5_reduce"
  type: "ReLU"
  bottom: "inception_3b/5x5_reduce"
  top: "inception_3b/5x5_reduce"
}
layer {
  name: "inception_3b/5x5"
  type: "Convolution"
  bottom: "inception_3b/5x5_reduce"
  top: "inception_3b/5x5"
  param {
    lr_mult: 0
    decay_mult: 1
  }
  param {
    lr_mult: 2
    decay_mult: 0
  }
  convolution_param {
    num_output: 96
    pad: 2
    kernel_size: 5
    weight_filler {
      type: "xavier"
    }
    bias_filler {
      type: "constant"
      value: 0.2
    }
  }
}
layer {
  name: "inception_3b/relu_5x5"
  type: "ReLU"
  bottom: "inception_3b/5x5"
  top: "inception_3b/5x5"
}
layer {
  name: "inception_3b/pool"
  type: "Pooling"
  bottom: "inception_3a/output"
  top: "inception_3b/pool"
  pooling_param {
    pool: MAX
    kernel_size: 3
    stride: 1
    pad: 1
  }
}
layer {
  name: "inception_3b/pool_proj"
  type: "Convolution"
  bottom: "inception_3b/pool"
  top: "inception_3b/pool_proj"
  param {
    lr_mult: 0
    decay_mult: 1
  }
  param {
    lr_mult: 2
    decay_mult: 0
  }
  convolution_param {
    num_output: 64
    kernel_size: 1
    weight_filler {
      type: "xavier"
    }
    bias_filler {
      type: "constant"
      value: 0.2
    }
  }
}
layer {
  name: "inception_3b/relu_pool_proj"
  type: "ReLU"
  bottom: "inception_3b/pool_proj"
  top: "inception_3b/pool_proj"
}
layer {
  name: "inception_3b/output"
  type: "Concat"
  bottom: "inception_3b/1x1"
  bottom: "inception_3b/3x3"
  bottom: "inception_3b/5x5"
  bottom: "inception_3b/pool_proj"
  top: "inception_3b/output"
}
layer {
  name: "pool3/3x3_s2"
  type: "Pooling"
  bottom: "inception_3b/output"
  top: "pool3/3x3_s2"
  pooling_param {
    pool: MAX
    kernel_size: 3
    stride: 2
  }
}
layer {
  name: "inception_4a/1x1"
  type: "Convolution"
  bottom: "pool3/3x3_s2"
  top: "inception_4a/1x1"
  param {
    lr_mult: 0
    decay_mult: 1
  }
  param {
    lr_mult: 2
    decay_mult: 0
  }
  convolution_param {
    num_output: 192
    kernel_size: 1
    weight_filler {
      type: "xavier"
    }
    bias_filler {
      type: "constant"
      value: 0.2
    }
  }
}
layer {
  name: "inception_4a/relu_1x1"
  type: "ReLU"
  bottom: "inception_4a/1x1"
  top: "inception_4a/1x1"
}
layer {
  name: "inception_4a/3x3_reduce"
  type: "Convolution"
  bottom: "pool3/3x3_s2"
  top: "inception_4a/3x3_reduce"
  param {
    lr_mult: 0
    decay_mult: 1
  }
  param {
    lr_mult: 2
    decay_mult: 0
  }
  convolution_param {
    num_output: 96
    kernel_size: 1
    weight_filler {
      type: "xavier"
    }
    bias_filler {
      type: "constant"
      value: 0.2
    }
  }
}
layer {
  name: "inception_4a/relu_3x3_reduce"
  type: "ReLU"
  bottom: "inception_4a/3x3_reduce"
  top: "inception_4a/3x3_reduce"
}
layer {
  name: "inception_4a/3x3"
  type: "Convolution"
  bottom: "inception_4a/3x3_reduce"
  top: "inception_4a/3x3"
  param {
    lr_mult: 0
    decay_mult: 1
  }
  param {
    lr_mult: 2
    decay_mult: 0
  }
  convolution_param {
    num_output: 208
    pad: 1
    kernel_size: 3
    weight_filler {
      type: "xavier"
    }
    bias_filler {
      type: "constant"
      value: 0.2
    }
  }
}
layer {
  name: "inception_4a/relu_3x3"
  type: "ReLU"
  bottom: "inception_4a/3x3"
  top: "inception_4a/3x3"
}
layer {
  name: "inception_4a/5x5_reduce"
  type: "Convolution"
  bottom: "pool3/3x3_s2"
  top: "inception_4a/5x5_reduce"
  param {
    lr_mult: 0
    decay_mult: 1
  }
  param {
    lr_mult: 2
    decay_mult: 0
  }
  convolution_param {
    num_output: 16
    kernel_size: 1
    weight_filler {
      type: "xavier"
    }
    bias_filler {
      type: "constant"
      value: 0.2
    }
  }
}
layer {
  name: "inception_4a/relu_5x5_reduce"
  type: "ReLU"
  bottom: "inception_4a/5x5_reduce"
  top: "inception_4a/5x5_reduce"
}
layer {
  name: "inception_4a/5x5"
  type: "Convolution"
  bottom: "inception_4a/5x5_reduce"
  top: "inception_4a/5x5"
  param {
    lr_mult: 0
    decay_mult: 1
  }
  param {
    lr_mult: 2
    decay_mult: 0
  }
  convolution_param {
    num_output: 48
    pad: 2
    kernel_size: 5
    weight_filler {
      type: "xavier"
    }
    bias_filler {
      type: "constant"
      value: 0.2
    }
  }
}
layer {
  name: "inception_4a/relu_5x5"
  type: "ReLU"
  bottom: "inception_4a/5x5"
  top: "inception_4a/5x5"
}
layer {
  name: "inception_4a/pool"
  type: "Pooling"
  bottom: "pool3/3x3_s2"
  top: "inception_4a/pool"
  pooling_param {
    pool: MAX
    kernel_size: 3
    stride: 1
    pad: 1
  }
}
layer {
  name: "inception_4a/pool_proj"
  type: "Convolution"
  bottom: "inception_4a/pool"
  top: "inception_4a/pool_proj"
  param {
    lr_mult: 0
    decay_mult: 1
  }
  param {
    lr_mult: 2
    decay_mult: 0
  }
  convolution_param {
    num_output: 64
    kernel_size: 1
    weight_filler {
      type: "xavier"
    }
    bias_filler {
      type: "constant"
      value: 0.2
    }
  }
}
layer {
  name: "inception_4a/relu_pool_proj"
  type: "ReLU"
  bottom: "inception_4a/pool_proj"
  top: "inception_4a/pool_proj"
}
layer {
  name: "inception_4a/output"
  type: "Concat"
  bottom: "inception_4a/1x1"
  bottom: "inception_4a/3x3"
  bottom: "inception_4a/5x5"
  bottom: "inception_4a/pool_proj"
  top: "inception_4a/output"
}
layer {
  name: "inception_4b/1x1"
  type: "Convolution"
  bottom: "inception_4a/output"
  top: "inception_4b/1x1"
  param {
    lr_mult: 0
    decay_mult: 1
  }
  param {
    lr_mult: 2
    decay_mult: 0
  }
  convolution_param {
    num_output: 160
    kernel_size: 1
    weight_filler {
      type: "xavier"
    }
    bias_filler {
      type: "constant"
      value: 0.2
    }
  }
}
layer {
  name: "inception_4b/relu_1x1"
  type: "ReLU"
  bottom: "inception_4b/1x1"
  top: "inception_4b/1x1"
}
layer {
  name: "inception_4b/3x3_reduce"
  type: "Convolution"
  bottom: "inception_4a/output"
  top: "inception_4b/3x3_reduce"
  param {
    lr_mult: 0
    decay_mult: 1
  }
  param {
    lr_mult: 2
    decay_mult: 0
  }
  convolution_param {
    num_output: 112
    kernel_size: 1
    weight_filler {
      type: "xavier"
    }
    bias_filler {
      type: "constant"
      value: 0.2
    }
  }
}
layer {
  name: "inception_4b/relu_3x3_reduce"
  type: "ReLU"
  bottom: "inception_4b/3x3_reduce"
  top: "inception_4b/3x3_reduce"
}
layer {
  name: "inception_4b/3x3"
  type: "Convolution"
  bottom: "inception_4b/3x3_reduce"
  top: "inception_4b/3x3"
  param {
    lr_mult: 0
    decay_mult: 1
  }
  param {
    lr_mult: 2
    decay_mult: 0
  }
  convolution_param {
    num_output: 224
    pad: 1
    kernel_size: 3
    weight_filler {
      type: "xavier"
    }
    bias_filler {
      type: "constant"
      value: 0.2
    }
  }
}
layer {
  name: "inception_4b/relu_3x3"
  type: "ReLU"
  bottom: "inception_4b/3x3"
  top: "inception_4b/3x3"
}
layer {
  name: "inception_4b/5x5_reduce"
  type: "Convolution"
  bottom: "inception_4a/output"
  top: "inception_4b/5x5_reduce"
  param {
    lr_mult: 0
    decay_mult: 1
  }
  param {
    lr_mult: 2
    decay_mult: 0
  }
  convolution_param {
    num_output: 24
    kernel_size: 1
    weight_filler {
      type: "xavier"
    }
    bias_filler {
      type: "constant"
      value: 0.2
    }
  }
}
layer {
  name: "inception_4b/relu_5x5_reduce"
  type: "ReLU"
  bottom: "inception_4b/5x5_reduce"
  top: "inception_4b/5x5_reduce"
}
layer {
  name: "inception_4b/5x5"
  type: "Convolution"
  bottom: "inception_4b/5x5_reduce"
  top: "inception_4b/5x5"
  param {
    lr_mult: 0
    decay_mult: 1
  }
  param {
    lr_mult: 2
    decay_mult: 0
  }
  convolution_param {
    num_output: 64
    pad: 2
    kernel_size: 5
    weight_filler {
      type: "xavier"
    }
    bias_filler {
      type: "constant"
      value: 0.2
    }
  }
}
layer {
  name: "inception_4b/relu_5x5"
  type: "ReLU"
  bottom: "inception_4b/5x5"
  top: "inception_4b/5x5"
}
layer {
  name: "inception_4b/pool"
  type: "Pooling"
  bottom: "inception_4a/output"
  top: "inception_4b/pool"
  pooling_param {
    pool: MAX
    kernel_size: 3
    stride: 1
    pad: 1
  }
}
layer {
  name: "inception_4b/pool_proj"
  type: "Convolution"
  bottom: "inception_4b/pool"
  top: "inception_4b/pool_proj"
  param {
    lr_mult: 0
    decay_mult: 1
  }
  param {
    lr_mult: 2
    decay_mult: 0
  }
  convolution_param {
    num_output: 64
    kernel_size: 1
    weight_filler {
      type: "xavier"
    }
    bias_filler {
      type: "constant"
      value: 0.2
    }
  }
}
layer {
  name: "inception_4b/relu_pool_proj"
  type: "ReLU"
  bottom: "inception_4b/pool_proj"
  top: "inception_4b/pool_proj"
}
layer {
  name: "inception_4b/output"
  type: "Concat"
  bottom: "inception_4b/1x1"
  bottom: "inception_4b/3x3"
  bottom: "inception_4b/5x5"
  bottom: "inception_4b/pool_proj"
  top: "inception_4b/output"
}
layer {
  name: "inception_4c/1x1"
  type: "Convolution"
  bottom: "inception_4b/output"
  top: "inception_4c/1x1"
  param {
    lr_mult: 0
    decay_mult: 1
  }
  param {
    lr_mult: 2
    decay_mult: 0
  }
  convolution_param {
    num_output: 128
    kernel_size: 1
    weight_filler {
      type: "xavier"
    }
    bias_filler {
      type: "constant"
      value: 0.2
    }
  }
}
layer {
  name: "inception_4c/relu_1x1"
  type: "ReLU"
  bottom: "inception_4c/1x1"
  top: "inception_4c/1x1"
}
layer {
  name: "inception_4c/3x3_reduce"
  type: "Convolution"
  bottom: "inception_4b/output"
  top: "inception_4c/3x3_reduce"
  param {
    lr_mult: 0
    decay_mult: 1
  }
  param {
    lr_mult: 2
    decay_mult: 0
  }
  convolution_param {
    num_output: 128
    kernel_size: 1
    weight_filler {
      type: "xavier"
    }
    bias_filler {
      type: "constant"
      value: 0.2
    }
  }
}
layer {
  name: "inception_4c/relu_3x3_reduce"
  type: "ReLU"
  bottom: "inception_4c/3x3_reduce"
  top: "inception_4c/3x3_reduce"
}
layer {
  name: "inception_4c/3x3"
  type: "Convolution"
  bottom: "inception_4c/3x3_reduce"
  top: "inception_4c/3x3"
  param {
    lr_mult: 0
    decay_mult: 1
  }
  param {
    lr_mult: 2
    decay_mult: 0
  }
  convolution_param {
    num_output: 256
    pad: 1
    kernel_size: 3
    weight_filler {
      type: "xavier"
    }
    bias_filler {
      type: "constant"
      value: 0.2
    }
  }
}
layer {
  name: "inception_4c/relu_3x3"
  type: "ReLU"
  bottom: "inception_4c/3x3"
  top: "inception_4c/3x3"
}
layer {
  name: "inception_4c/5x5_reduce"
  type: "Convolution"
  bottom: "inception_4b/output"
  top: "inception_4c/5x5_reduce"
  param {
    lr_mult: 0
    decay_mult: 1
  }
  param {
    lr_mult: 2
    decay_mult: 0
  }
  convolution_param {
    num_output: 24
    kernel_size: 1
    weight_filler {
      type: "xavier"
    }
    bias_filler {
      type: "constant"
      value: 0.2
    }
  }
}
layer {
  name: "inception_4c/relu_5x5_reduce"
  type: "ReLU"
  bottom: "inception_4c/5x5_reduce"
  top: "inception_4c/5x5_reduce"
}
layer {
  name: "inception_4c/5x5"
  type: "Convolution"
  bottom: "inception_4c/5x5_reduce"
  top: "inception_4c/5x5"
  param {
    lr_mult: 0
    decay_mult: 1
  }
  param {
    lr_mult: 2
    decay_mult: 0
  }
  convolution_param {
    num_output: 64
    pad: 2
    kernel_size: 5
    weight_filler {
      type: "xavier"
    }
    bias_filler {
      type: "constant"
      value: 0.2
    }
  }
}
layer {
  name: "inception_4c/relu_5x5"
  type: "ReLU"
  bottom: "inception_4c/5x5"
  top: "inception_4c/5x5"
}
layer {
  name: "inception_4c/pool"
  type: "Pooling"
  bottom: "inception_4b/output"
  top: "inception_4c/pool"
  pooling_param {
    pool: MAX
    kernel_size: 3
    stride: 1
    pad: 1
  }
}
layer {
  name: "inception_4c/pool_proj"
  type: "Convolution"
  bottom: "inception_4c/pool"
  top: "inception_4c/pool_proj"
  param {
    lr_mult: 0
    decay_mult: 1
  }
  param {
    lr_mult: 2
    decay_mult: 0
  }
  convolution_param {
    num_output: 64
    kernel_size: 1
    weight_filler {
      type: "xavier"
    }
    bias_filler {
      type: "constant"
      value: 0.2
    }
  }
}
layer {
  name: "inception_4c/relu_pool_proj"
  type: "ReLU"
  bottom: "inception_4c/pool_proj"
  top: "inception_4c/pool_proj"
}
layer {
  name: "inception_4c/output"
  type: "Concat"
  bottom: "inception_4c/1x1"
  bottom: "inception_4c/3x3"
  bottom: "inception_4c/5x5"
  bottom: "inception_4c/pool_proj"
  top: "inception_4c/output"
}
layer {
  name: "inception_4d/1x1"
  type: "Convolution"
  bottom: "inception_4c/output"
  top: "inception_4d/1x1"
  param {
    lr_mult: 0
    decay_mult: 1
  }
  param {
    lr_mult: 2
    decay_mult: 0
  }
  convolution_param {
    num_output: 112
    kernel_size: 1
    weight_filler {
      type: "xavier"
    }
    bias_filler {
      type: "constant"
      value: 0.2
    }
  }
}
layer {
  name: "inception_4d/relu_1x1"
  type: "ReLU"
  bottom: "inception_4d/1x1"
  top: "inception_4d/1x1"
}
layer {
  name: "inception_4d/3x3_reduce"
  type: "Convolution"
  bottom: "inception_4c/output"
  top: "inception_4d/3x3_reduce"
  param {
    lr_mult: 0
    decay_mult: 1
  }
  param {
    lr_mult: 2
    decay_mult: 0
  }
  convolution_param {
    num_output: 144
    kernel_size: 1
    weight_filler {
      type: "xavier"
    }
    bias_filler {
      type: "constant"
      value: 0.2
    }
  }
}
layer {
  name: "inception_4d/relu_3x3_reduce"
  type: "ReLU"
  bottom: "inception_4d/3x3_reduce"
  top: "inception_4d/3x3_reduce"
}
layer {
  name: "inception_4d/3x3"
  type: "Convolution"
  bottom: "inception_4d/3x3_reduce"
  top: "inception_4d/3x3"
  param {
    lr_mult: 0
    decay_mult: 1
  }
  param {
    lr_mult: 2
    decay_mult: 0
  }
  convolution_param {
    num_output: 288
    pad: 1
    kernel_size: 3
    weight_filler {
      type: "xavier"
    }
    bias_filler {
      type: "constant"
      value: 0.2
    }
  }
}
layer {
  name: "inception_4d/relu_3x3"
  type: "ReLU"
  bottom: "inception_4d/3x3"
  top: "inception_4d/3x3"
}
layer {
  name: "inception_4d/5x5_reduce"
  type: "Convolution"
  bottom: "inception_4c/output"
  top: "inception_4d/5x5_reduce"
  param {
    lr_mult: 0
    decay_mult: 1
  }
  param {
    lr_mult: 2
    decay_mult: 0
  }
  convolution_param {
    num_output: 32
    kernel_size: 1
    weight_filler {
      type: "xavier"
    }
    bias_filler {
      type: "constant"
      value: 0.2
    }
  }
}
layer {
  name: "inception_4d/relu_5x5_reduce"
  type: "ReLU"
  bottom: "inception_4d/5x5_reduce"
  top: "inception_4d/5x5_reduce"
}
layer {
  name: "inception_4d/5x5"
  type: "Convolution"
  bottom: "inception_4d/5x5_reduce"
  top: "inception_4d/5x5"
  param {
    lr_mult: 0
    decay_mult: 1
  }
  param {
    lr_mult: 2
    decay_mult: 0
  }
  convolution_param {
    num_output: 64
    pad: 2
    kernel_size: 5
    weight_filler {
      type: "xavier"
    }
    bias_filler {
      type: "constant"
      value: 0.2
    }
  }
}
layer {
  name: "inception_4d/relu_5x5"
  type: "ReLU"
  bottom: "inception_4d/5x5"
  top: "inception_4d/5x5"
}
layer {
  name: "inception_4d/pool"
  type: "Pooling"
  bottom: "inception_4c/output"
  top: "inception_4d/pool"
  pooling_param {
    pool: MAX
    kernel_size: 3
    stride: 1
    pad: 1
  }
}
layer {
  name: "inception_4d/pool_proj"
  type: "Convolution"
  bottom: "inception_4d/pool"
  top: "inception_4d/pool_proj"
  param {
    lr_mult: 0
    decay_mult: 1
  }
  param {
    lr_mult: 2
    decay_mult: 0
  }
  convolution_param {
    num_output: 64
    kernel_size: 1
    weight_filler {
      type: "xavier"
    }
    bias_filler {
      type: "constant"
      value: 0.2
    }
  }
}
layer {
  name: "inception_4d/relu_pool_proj"
  type: "ReLU"
  bottom: "inception_4d/pool_proj"
  top: "inception_4d/pool_proj"
}
layer {
  name: "inception_4d/output"
  type: "Concat"
  bottom: "inception_4d/1x1"
  bottom: "inception_4d/3x3"
  bottom: "inception_4d/5x5"
  bottom: "inception_4d/pool_proj"
  top: "inception_4d/output"
}
layer {
  name: "inception_4e/1x1"
  type: "Convolution"
  bottom: "inception_4d/output"
  top: "inception_4e/1x1"
  param {
    lr_mult: 0
    decay_mult: 1
  }
  param {
    lr_mult: 2
    decay_mult: 0
  }
  convolution_param {
    num_output: 256
    kernel_size: 1
    weight_filler {
      type: "xavier"
    }
    bias_filler {
      type: "constant"
      value: 0.2
    }
  }
}
layer {
  name: "inception_4e/relu_1x1"
  type: "ReLU"
  bottom: "inception_4e/1x1"
  top: "inception_4e/1x1"
}
layer {
  name: "inception_4e/3x3_reduce"
  type: "Convolution"
  bottom: "inception_4d/output"
  top: "inception_4e/3x3_reduce"
  param {
    lr_mult: 0
    decay_mult: 1
  }
  param {
    lr_mult: 2
    decay_mult: 0
  }
  convolution_param {
    num_output: 160
    kernel_size: 1
    weight_filler {
      type: "xavier"
    }
    bias_filler {
      type: "constant"
      value: 0.2
    }
  }
}
layer {
  name: "inception_4e/relu_3x3_reduce"
  type: "ReLU"
  bottom: "inception_4e/3x3_reduce"
  top: "inception_4e/3x3_reduce"
}
layer {
  name: "inception_4e/3x3"
  type: "Convolution"
  bottom: "inception_4e/3x3_reduce"
  top: "inception_4e/3x3"
  param {
    lr_mult: 0
    decay_mult: 1
  }
  param {
    lr_mult: 2
    decay_mult: 0
  }
  convolution_param {
    num_output: 320
    pad: 1
    kernel_size: 3
    weight_filler {
      type: "xavier"
    }
    bias_filler {
      type: "constant"
      value: 0.2
    }
  }
}
layer {
  name: "inception_4e/relu_3x3"
  type: "ReLU"
  bottom: "inception_4e/3x3"
  top: "inception_4e/3x3"
}
layer {
  name: "inception_4e/5x5_reduce"
  type: "Convolution"
  bottom: "inception_4d/output"
  top: "inception_4e/5x5_reduce"
  param {
    lr_mult: 0
    decay_mult: 1
  }
  param {
    lr_mult: 2
    decay_mult: 0
  }
  convolution_param {
    num_output: 32
    kernel_size: 1
    weight_filler {
      type: "xavier"
    }
    bias_filler {
      type: "constant"
      value: 0.2
    }
  }
}
layer {
  name: "inception_4e/relu_5x5_reduce"
  type: "ReLU"
  bottom: "inception_4e/5x5_reduce"
  top: "inception_4e/5x5_reduce"
}
layer {
  name: "inception_4e/5x5"
  type: "Convolution"
  bottom: "inception_4e/5x5_reduce"
  top: "inception_4e/5x5"
  param {
    lr_mult: 0
    decay_mult: 1
  }
  param {
    lr_mult: 2
    decay_mult: 0
  }
  convolution_param {
    num_output: 128
    pad: 2
    kernel_size: 5
    weight_filler {
      type: "xavier"
    }
    bias_filler {
      type: "constant"
      value: 0.2
    }
  }
}
layer {
  name: "inception_4e/relu_5x5"
  type: "ReLU"
  bottom: "inception_4e/5x5"
  top: "inception_4e/5x5"
}
layer {
  name: "inception_4e/pool"
  type: "Pooling"
  bottom: "inception_4d/output"
  top: "inception_4e/pool"
  pooling_param {
    pool: MAX
    kernel_size: 3
    stride: 1
    pad: 1
  }
}
layer {
  name: "inception_4e/pool_proj"
  type: "Convolution"
  bottom: "inception_4e/pool"
  top: "inception_4e/pool_proj"
  param {
    lr_mult: 0
    decay_mult: 1
  }
  param {
    lr_mult: 2
    decay_mult: 0
  }
  convolution_param {
    num_output: 128
    kernel_size: 1
    weight_filler {
      type: "xavier"
    }
    bias_filler {
      type: "constant"
      value: 0.2
    }
  }
}
layer {
  name: "inception_4e/relu_pool_proj"
  type: "ReLU"
  bottom: "inception_4e/pool_proj"
  top: "inception_4e/pool_proj"
}
layer {
  name: "inception_4e/output"
  type: "Concat"
  bottom: "inception_4e/1x1"
  bottom: "inception_4e/3x3"
  bottom: "inception_4e/5x5"
  bottom: "inception_4e/pool_proj"
  top: "inception_4e/output"
}
layer {
  name: "pool4/3x3_s2"
  type: "Pooling"
  bottom: "inception_4e/output"
  top: "pool4/3x3_s2"
  pooling_param {
    pool: MAX
    kernel_size: 3
    stride: 2
  }
}
layer {
  name: "inception_5a/1x1"
  type: "Convolution"
  bottom: "pool4/3x3_s2"
  top: "inception_5a/1x1"
  param {
    lr_mult: 0
    decay_mult: 1
  }
  param {
    lr_mult: 2
    decay_mult: 0
  }
  convolution_param {
    num_output: 256
    kernel_size: 1
    weight_filler {
      type: "xavier"
    }
    bias_filler {
      type: "constant"
      value: 0.2
    }
  }
}
layer {
  name: "inception_5a/relu_1x1"
  type: "ReLU"
  bottom: "inception_5a/1x1"
  top: "inception_5a/1x1"
}
layer {
  name: "inception_5a/3x3_reduce"
  type: "Convolution"
  bottom: "pool4/3x3_s2"
  top: "inception_5a/3x3_reduce"
  param {
    lr_mult: 0
    decay_mult: 1
  }
  param {
    lr_mult: 2
    decay_mult: 0
  }
  convolution_param {
    num_output: 160
    kernel_size: 1
    weight_filler {
      type: "xavier"
    }
    bias_filler {
      type: "constant"
      value: 0.2
    }
  }
}
layer {
  name: "inception_5a/relu_3x3_reduce"
  type: "ReLU"
  bottom: "inception_5a/3x3_reduce"
  top: "inception_5a/3x3_reduce"
}
layer {
  name: "inception_5a/3x3"
  type: "Convolution"
  bottom: "inception_5a/3x3_reduce"
  top: "inception_5a/3x3"
  param {
    lr_mult: 0
    decay_mult: 1
  }
  param {
    lr_mult: 2
    decay_mult: 0
  }
  convolution_param {
    num_output: 320
    pad: 1
    kernel_size: 3
    weight_filler {
      type: "xavier"
    }
    bias_filler {
      type: "constant"
      value: 0.2
    }
  }
}
layer {
  name: "inception_5a/relu_3x3"
  type: "ReLU"
  bottom: "inception_5a/3x3"
  top: "inception_5a/3x3"
}
layer {
  name: "inception_5a/5x5_reduce"
  type: "Convolution"
  bottom: "pool4/3x3_s2"
  top: "inception_5a/5x5_reduce"
  param {
    lr_mult: 0
    decay_mult: 1
  }
  param {
    lr_mult: 2
    decay_mult: 0
  }
  convolution_param {
    num_output: 32
    kernel_size: 1
    weight_filler {
      type: "xavier"
    }
    bias_filler {
      type: "constant"
      value: 0.2
    }
  }
}
layer {
  name: "inception_5a/relu_5x5_reduce"
  type: "ReLU"
  bottom: "inception_5a/5x5_reduce"
  top: "inception_5a/5x5_reduce"
}
layer {
  name: "inception_5a/5x5"
  type: "Convolution"
  bottom: "inception_5a/5x5_reduce"
  top: "inception_5a/5x5"
  param {
    lr_mult: 0
    decay_mult: 1
  }
  param {
    lr_mult: 2
    decay_mult: 0
  }
  convolution_param {
    num_output: 128
    pad: 2
    kernel_size: 5
    weight_filler {
      type: "xavier"
    }
    bias_filler {
      type: "constant"
      value: 0.2
    }
  }
}
layer {
  name: "inception_5a/relu_5x5"
  type: "ReLU"
  bottom: 
I0718 14:07:13.027791 29038 layer_factory.hpp:76] Creating layer data
I0718 14:07:13.027901 29038 net.cpp:106] Creating Layer data
I0718 14:07:13.027914 29038 net.cpp:411] data -> data
I0718 14:07:13.027948 29038 net.cpp:411] data -> label
I0718 14:07:13.028532 29038 image_data_layer.cpp:36] Opening file ../lists/mitosis_train.lst
I0718 14:07:13.041951 29038 image_data_layer.cpp:46] Shuffling data
I0718 14:07:13.046473 29038 image_data_layer.cpp:51] A total of 21366 images.
I0718 14:07:13.205138 29038 image_data_layer.cpp:78] output data size: 6,3,1000,1000
I0718 14:07:13.538239 29038 net.cpp:150] Setting up data
I0718 14:07:13.538388 29038 net.cpp:157] Top shape: 6 3 1000 1000 (18000000)
I0718 14:07:13.538404 29038 net.cpp:157] Top shape: 6 (6)
I0718 14:07:13.538415 29038 net.cpp:165] Memory required for data: 72000024
I0718 14:07:13.538434 29038 layer_factory.hpp:76] Creating layer label_data_1_split
I0718 14:07:13.538468 29038 net.cpp:106] Creating Layer label_data_1_split
I0718 14:07:13.538487 29038 net.cpp:454] label_data_1_split <- label
I0718 14:07:13.538509 29038 net.cpp:411] label_data_1_split -> label_data_1_split_0
I0718 14:07:13.538534 29038 net.cpp:411] label_data_1_split -> label_data_1_split_1
I0718 14:07:13.539283 29038 net.cpp:150] Setting up label_data_1_split
I0718 14:07:13.539361 29038 net.cpp:157] Top shape: 6 (6)
I0718 14:07:13.539392 29038 net.cpp:157] Top shape: 6 (6)
I0718 14:07:13.539419 29038 net.cpp:165] Memory required for data: 72000072
I0718 14:07:13.539445 29038 layer_factory.hpp:76] Creating layer conv1/7x7_s2
I0718 14:07:13.539531 29038 net.cpp:106] Creating Layer conv1/7x7_s2
I0718 14:07:13.539562 29038 net.cpp:454] conv1/7x7_s2 <- data
I0718 14:07:13.539628 29038 net.cpp:411] conv1/7x7_s2 -> conv1/7x7_s2
I0718 14:07:13.900265 29038 net.cpp:150] Setting up conv1/7x7_s2
I0718 14:07:13.900367 29038 net.cpp:157] Top shape: 6 64 500 500 (96000000)
I0718 14:07:13.900398 29038 net.cpp:165] Memory required for data: 456000072
I0718 14:07:13.900455 29038 layer_factory.hpp:76] Creating layer conv1/relu_7x7
I0718 14:07:13.900498 29038 net.cpp:106] Creating Layer conv1/relu_7x7
I0718 14:07:13.900580 29038 net.cpp:454] conv1/relu_7x7 <- conv1/7x7_s2
I0718 14:07:13.900604 29038 net.cpp:397] conv1/relu_7x7 -> conv1/7x7_s2 (in-place)
I0718 14:07:13.901106 29038 net.cpp:150] Setting up conv1/relu_7x7
I0718 14:07:13.901146 29038 net.cpp:157] Top shape: 6 64 500 500 (96000000)
I0718 14:07:13.901170 29038 net.cpp:165] Memory required for data: 840000072
I0718 14:07:13.901193 29038 layer_factory.hpp:76] Creating layer pool1/3x3_s2
I0718 14:07:13.901232 29038 net.cpp:106] Creating Layer pool1/3x3_s2
I0718 14:07:13.901257 29038 net.cpp:454] pool1/3x3_s2 <- conv1/7x7_s2
I0718 14:07:13.901285 29038 net.cpp:411] pool1/3x3_s2 -> pool1/3x3_s2
I0718 14:07:13.902278 29038 net.cpp:150] Setting up pool1/3x3_s2
I0718 14:07:13.902325 29038 net.cpp:157] Top shape: 6 64 250 250 (24000000)
I0718 14:07:13.902350 29038 net.cpp:165] Memory required for data: 936000072
I0718 14:07:13.902371 29038 layer_factory.hpp:76] Creating layer pool1/norm1
I0718 14:07:13.902431 29038 net.cpp:106] Creating Layer pool1/norm1
I0718 14:07:13.902457 29038 net.cpp:454] pool1/norm1 <- pool1/3x3_s2
I0718 14:07:13.902484 29038 net.cpp:411] pool1/norm1 -> pool1/norm1
I0718 14:07:13.903002 29038 net.cpp:150] Setting up pool1/norm1
I0718 14:07:13.903038 29038 net.cpp:157] Top shape: 6 64 250 250 (24000000)
I0718 14:07:13.903059 29038 net.cpp:165] Memory required for data: 1032000072
I0718 14:07:13.903076 29038 layer_factory.hpp:76] Creating layer conv2/3x3_reduce
I0718 14:07:13.903112 29038 net.cpp:106] Creating Layer conv2/3x3_reduce
I0718 14:07:13.903137 29038 net.cpp:454] conv2/3x3_reduce <- pool1/norm1
I0718 14:07:13.903168 29038 net.cpp:411] conv2/3x3_reduce -> conv2/3x3_reduce
I0718 14:07:13.908190 29038 cudnn_conv_layer.cpp:194] Reallocating workspace storage: 768
I0718 14:07:13.908290 29038 net.cpp:150] Setting up conv2/3x3_reduce
I0718 14:07:13.908331 29038 net.cpp:157] Top shape: 6 64 250 250 (24000000)
I0718 14:07:13.908359 29038 net.cpp:165] Memory required for data: 1128000072
I0718 14:07:13.908409 29038 layer_factory.hpp:76] Creating layer conv2/relu_3x3_reduce
I0718 14:07:13.908449 29038 net.cpp:106] Creating Layer conv2/relu_3x3_reduce
I0718 14:07:13.908479 29038 net.cpp:454] conv2/relu_3x3_reduce <- conv2/3x3_reduce
I0718 14:07:13.908506 29038 net.cpp:397] conv2/relu_3x3_reduce -> conv2/3x3_reduce (in-place)
I0718 14:07:13.909366 29038 net.cpp:150] Setting up conv2/relu_3x3_reduce
I0718 14:07:13.909412 29038 net.cpp:157] Top shape: 6 64 250 250 (24000000)
I0718 14:07:13.909441 29038 net.cpp:165] Memory required for data: 1224000072
I0718 14:07:13.909462 29038 layer_factory.hpp:76] Creating layer conv2/3x3
I0718 14:07:13.909505 29038 net.cpp:106] Creating Layer conv2/3x3
I0718 14:07:13.909525 29038 net.cpp:454] conv2/3x3 <- conv2/3x3_reduce
I0718 14:07:13.909565 29038 net.cpp:411] conv2/3x3 -> conv2/3x3
I0718 14:07:13.917541 29038 cudnn_conv_layer.cpp:194] Reallocating workspace storage: 6912
I0718 14:07:13.919081 29038 net.cpp:150] Setting up conv2/3x3
I0718 14:07:13.919118 29038 net.cpp:157] Top shape: 6 192 250 250 (72000000)
I0718 14:07:13.919131 29038 net.cpp:165] Memory required for data: 1512000072
I0718 14:07:13.919157 29038 layer_factory.hpp:76] Creating layer conv2/relu_3x3
I0718 14:07:13.919178 29038 net.cpp:106] Creating Layer conv2/relu_3x3
I0718 14:07:13.919188 29038 net.cpp:454] conv2/relu_3x3 <- conv2/3x3
I0718 14:07:13.919206 29038 net.cpp:397] conv2/relu_3x3 -> conv2/3x3 (in-place)
I0718 14:07:13.919536 29038 net.cpp:150] Setting up conv2/relu_3x3
I0718 14:07:13.919555 29038 net.cpp:157] Top shape: 6 192 250 250 (72000000)
I0718 14:07:13.919564 29038 net.cpp:165] Memory required for data: 1800000072
I0718 14:07:13.919574 29038 layer_factory.hpp:76] Creating layer conv2/norm2
I0718 14:07:13.919589 29038 net.cpp:106] Creating Layer conv2/norm2
I0718 14:07:13.919598 29038 net.cpp:454] conv2/norm2 <- conv2/3x3
I0718 14:07:13.919612 29038 net.cpp:411] conv2/norm2 -> conv2/norm2
I0718 14:07:13.920511 29038 net.cpp:150] Setting up conv2/norm2
I0718 14:07:13.920550 29038 net.cpp:157] Top shape: 6 192 250 250 (72000000)
I0718 14:07:13.920629 29038 net.cpp:165] Memory required for data: 2088000072
I0718 14:07:13.920661 29038 layer_factory.hpp:76] Creating layer pool2/3x3_s2
I0718 14:07:13.920677 29038 net.cpp:106] Creating Layer pool2/3x3_s2
I0718 14:07:13.920691 29038 net.cpp:454] pool2/3x3_s2 <- conv2/norm2
I0718 14:07:13.920776 29038 net.cpp:411] pool2/3x3_s2 -> pool2/3x3_s2
I0718 14:07:13.921175 29038 net.cpp:150] Setting up pool2/3x3_s2
I0718 14:07:13.921211 29038 net.cpp:157] Top shape: 6 192 125 125 (18000000)
I0718 14:07:13.921229 29038 net.cpp:165] Memory required for data: 2160000072
I0718 14:07:13.921247 29038 layer_factory.hpp:76] Creating layer pool2/3x3_s2_pool2/3x3_s2_0_split
I0718 14:07:13.921270 29038 net.cpp:106] Creating Layer pool2/3x3_s2_pool2/3x3_s2_0_split
I0718 14:07:13.921288 29038 net.cpp:454] pool2/3x3_s2_pool2/3x3_s2_0_split <- pool2/3x3_s2
I0718 14:07:13.921308 29038 net.cpp:411] pool2/3x3_s2_pool2/3x3_s2_0_split -> pool2/3x3_s2_pool2/3x3_s2_0_split_0
I0718 14:07:13.921329 29038 net.cpp:411] pool2/3x3_s2_pool2/3x3_s2_0_split -> pool2/3x3_s2_pool2/3x3_s2_0_split_1
I0718 14:07:13.921353 29038 net.cpp:411] pool2/3x3_s2_pool2/3x3_s2_0_split -> pool2/3x3_s2_pool2/3x3_s2_0_split_2
I0718 14:07:13.921378 29038 net.cpp:411] pool2/3x3_s2_pool2/3x3_s2_0_split -> pool2/3x3_s2_pool2/3x3_s2_0_split_3
I0718 14:07:13.921510 29038 net.cpp:150] Setting up pool2/3x3_s2_pool2/3x3_s2_0_split
I0718 14:07:13.921541 29038 net.cpp:157] Top shape: 6 192 125 125 (18000000)
I0718 14:07:13.921561 29038 net.cpp:157] Top shape: 6 192 125 125 (18000000)
I0718 14:07:13.921581 29038 net.cpp:157] Top shape: 6 192 125 125 (18000000)
I0718 14:07:13.921599 29038 net.cpp:157] Top shape: 6 192 125 125 (18000000)
I0718 14:07:13.921615 29038 net.cpp:165] Memory required for data: 2448000072
I0718 14:07:13.921634 29038 layer_factory.hpp:76] Creating layer inception_3a/1x1
I0718 14:07:13.921669 29038 net.cpp:106] Creating Layer inception_3a/1x1
I0718 14:07:13.921689 29038 net.cpp:454] inception_3a/1x1 <- pool2/3x3_s2_pool2/3x3_s2_0_split_0
I0718 14:07:13.921715 29038 net.cpp:411] inception_3a/1x1 -> inception_3a/1x1
I0718 14:07:13.924546 29038 cudnn_conv_layer.cpp:194] Reallocating workspace storage: 2304
I0718 14:07:13.925328 29038 net.cpp:150] Setting up inception_3a/1x1
I0718 14:07:13.925370 29038 net.cpp:157] Top shape: 6 64 125 125 (6000000)
I0718 14:07:13.925391 29038 net.cpp:165] Memory required for data: 2472000072
I0718 14:07:13.925420 29038 layer_factory.hpp:76] Creating layer inception_3a/relu_1x1
I0718 14:07:13.925451 29038 net.cpp:106] Creating Layer inception_3a/relu_1x1
I0718 14:07:13.925473 29038 net.cpp:454] inception_3a/relu_1x1 <- inception_3a/1x1
I0718 14:07:13.925498 29038 net.cpp:397] inception_3a/relu_1x1 -> inception_3a/1x1 (in-place)
I0718 14:07:13.927404 29038 net.cpp:150] Setting up inception_3a/relu_1x1
I0718 14:07:13.927428 29038 net.cpp:157] Top shape: 6 64 125 125 (6000000)
I0718 14:07:13.927438 29038 net.cpp:165] Memory required for data: 2496000072
I0718 14:07:13.927448 29038 layer_factory.hpp:76] Creating layer inception_3a/3x3_reduce
I0718 14:07:13.927462 29038 net.cpp:106] Creating Layer inception_3a/3x3_reduce
I0718 14:07:13.927472 29038 net.cpp:454] inception_3a/3x3_reduce <- pool2/3x3_s2_pool2/3x3_s2_0_split_1
I0718 14:07:13.927486 29038 net.cpp:411] inception_3a/3x3_reduce -> inception_3a/3x3_reduce
I0718 14:07:13.929174 29038 cudnn_conv_layer.cpp:194] Reallocating workspace storage: 2304
I0718 14:07:13.929210 29038 net.cpp:150] Setting up inception_3a/3x3_reduce
I0718 14:07:13.929224 29038 net.cpp:157] Top shape: 6 96 125 125 (9000000)
I0718 14:07:13.929234 29038 net.cpp:165] Memory required for data: 2532000072
I0718 14:07:13.929251 29038 layer_factory.hpp:76] Creating layer inception_3a/relu_3x3_reduce
I0718 14:07:13.929267 29038 net.cpp:106] Creating Layer inception_3a/relu_3x3_reduce
I0718 14:07:13.929278 29038 net.cpp:454] inception_3a/relu_3x3_reduce <- inception_3a/3x3_reduce
I0718 14:07:13.929289 29038 net.cpp:397] inception_3a/relu_3x3_reduce -> inception_3a/3x3_reduce (in-place)
I0718 14:07:13.930208 29038 net.cpp:150] Setting up inception_3a/relu_3x3_reduce
I0718 14:07:13.930229 29038 net.cpp:157] Top shape: 6 96 125 125 (9000000)
I0718 14:07:13.930243 29038 net.cpp:165] Memory required for data: 2568000072
I0718 14:07:13.930251 29038 layer_factory.hpp:76] Creating layer inception_3a/3x3
I0718 14:07:13.930268 29038 net.cpp:106] Creating Layer inception_3a/3x3
I0718 14:07:13.930277 29038 net.cpp:454] inception_3a/3x3 <- inception_3a/3x3_reduce
I0718 14:07:13.930290 29038 net.cpp:411] inception_3a/3x3 -> inception_3a/3x3
I0718 14:07:13.932952 29038 cudnn_conv_layer.cpp:194] Reallocating workspace storage: 10368
I0718 14:07:13.933022 29038 net.cpp:150] Setting up inception_3a/3x3
I0718 14:07:13.933046 29038 net.cpp:157] Top shape: 6 128 125 125 (12000000)
I0718 14:07:13.933059 29038 net.cpp:165] Memory required for data: 2616000072
I0718 14:07:13.933086 29038 layer_factory.hpp:76] Creating layer inception_3a/relu_3x3
I0718 14:07:13.933105 29038 net.cpp:106] Creating Layer inception_3a/relu_3x3
I0718 14:07:13.933122 29038 net.cpp:454] inception_3a/relu_3x3 <- inception_3a/3x3
I0718 14:07:13.933138 29038 net.cpp:397] inception_3a/relu_3x3 -> inception_3a/3x3 (in-place)
I0718 14:07:13.933461 29038 net.cpp:150] Setting up inception_3a/relu_3x3
I0718 14:07:13.933488 29038 net.cpp:157] Top shape: 6 128 125 125 (12000000)
I0718 14:07:13.933501 29038 net.cpp:165] Memory required for data: 2664000072
I0718 14:07:13.933519 29038 layer_factory.hpp:76] Creating layer inception_3a/5x5_reduce
I0718 14:07:13.933542 29038 net.cpp:106] Creating Layer inception_3a/5x5_reduce
I0718 14:07:13.933568 29038 net.cpp:454] inception_3a/5x5_reduce <- pool2/3x3_s2_pool2/3x3_s2_0_split_2
I0718 14:07:13.933588 29038 net.cpp:411] inception_3a/5x5_reduce -> inception_3a/5x5_reduce
I0718 14:07:13.936477 29038 net.cpp:150] Setting up inception_3a/5x5_reduce
I0718 14:07:13.936547 29038 net.cpp:157] Top shape: 6 16 125 125 (1500000)
I0718 14:07:13.936568 29038 net.cpp:165] Memory required for data: 2670000072
I0718 14:07:13.936599 29038 layer_factory.hpp:76] Creating layer inception_3a/relu_5x5_reduce
I0718 14:07:13.936632 29038 net.cpp:106] Creating Layer inception_3a/relu_5x5_reduce
I0718 14:07:13.936655 29038 net.cpp:454] inception_3a/relu_5x5_reduce <- inception_3a/5x5_reduce
I0718 14:07:13.936683 29038 net.cpp:397] inception_3a/relu_5x5_reduce -> inception_3a/5x5_reduce (in-place)
I0718 14:07:13.937474 29038 net.cpp:150] Setting up inception_3a/relu_5x5_reduce
I0718 14:07:13.937515 29038 net.cpp:157] Top shape: 6 16 125 125 (1500000)
I0718 14:07:13.937535 29038 net.cpp:165] Memory required for data: 2676000072
I0718 14:07:13.937552 29038 layer_factory.hpp:76] Creating layer inception_3a/5x5
I0718 14:07:13.937597 29038 net.cpp:106] Creating Layer inception_3a/5x5
I0718 14:07:13.937621 29038 net.cpp:454] inception_3a/5x5 <- inception_3a/5x5_reduce
I0718 14:07:13.937647 29038 net.cpp:411] inception_3a/5x5 -> inception_3a/5x5
I0718 14:07:13.944308 29038 cudnn_conv_layer.cpp:194] Reallocating workspace storage: 4800
I0718 14:07:13.944424 29038 net.cpp:150] Setting up inception_3a/5x5
I0718 14:07:13.944456 29038 net.cpp:157] Top shape: 6 32 125 125 (3000000)
I0718 14:07:13.944476 29038 net.cpp:165] Memory required for data: 2688000072
I0718 14:07:13.944514 29038 layer_factory.hpp:76] Creating layer inception_3a/relu_5x5
I0718 14:07:13.944550 29038 net.cpp:106] Creating Layer inception_3a/relu_5x5
I0718 14:07:13.944583 29038 net.cpp:454] inception_3a/relu_5x5 <- inception_3a/5x5
I0718 14:07:13.944612 29038 net.cpp:397] inception_3a/relu_5x5 -> inception_3a/5x5 (in-place)
I0718 14:07:13.948279 29038 net.cpp:150] Setting up inception_3a/relu_5x5
I0718 14:07:13.948395 29038 net.cpp:157] Top shape: 6 32 125 125 (3000000)
I0718 14:07:13.948413 29038 net.cpp:165] Memory required for data: 2700000072
I0718 14:07:13.948432 29038 layer_factory.hpp:76] Creating layer inception_3a/pool
I0718 14:07:13.948462 29038 net.cpp:106] Creating Layer inception_3a/pool
I0718 14:07:13.948482 29038 net.cpp:454] inception_3a/pool <- pool2/3x3_s2_pool2/3x3_s2_0_split_3
I0718 14:07:13.948686 29038 net.cpp:411] inception_3a/pool -> inception_3a/pool
I0718 14:07:13.949381 29038 net.cpp:150] Setting up inception_3a/pool
I0718 14:07:13.949409 29038 net.cpp:157] Top shape: 6 192 125 125 (18000000)
I0718 14:07:13.949421 29038 net.cpp:165] Memory required for data: 2772000072
I0718 14:07:13.949434 29038 layer_factory.hpp:76] Creating layer inception_3a/pool_proj
I0718 14:07:13.949462 29038 net.cpp:106] Creating Layer inception_3a/pool_proj
I0718 14:07:13.949476 29038 net.cpp:454] inception_3a/pool_proj <- inception_3a/pool
I0718 14:07:13.949497 29038 net.cpp:411] inception_3a/pool_proj -> inception_3a/pool_proj
I0718 14:07:13.958005 29038 net.cpp:150] Setting up inception_3a/pool_proj
I0718 14:07:13.958093 29038 net.cpp:157] Top shape: 6 32 125 125 (3000000)
I0718 14:07:13.958106 29038 net.cpp:165] Memory required for data: 2784000072
I0718 14:07:13.958153 29038 layer_factory.hpp:76] Creating layer inception_3a/relu_pool_proj
I0718 14:07:13.958194 29038 net.cpp:106] Creating Layer inception_3a/relu_pool_proj
I0718 14:07:13.958209 29038 net.cpp:454] inception_3a/relu_pool_proj <- inception_3a/pool_proj
I0718 14:07:13.958223 29038 net.cpp:397] inception_3a/relu_pool_proj -> inception_3a/pool_proj (in-place)
I0718 14:07:13.959611 29038 net.cpp:150] Setting up inception_3a/relu_pool_proj
I0718 14:07:13.959695 29038 net.cpp:157] Top shape: 6 32 125 125 (3000000)
I0718 14:07:13.959719 29038 net.cpp:165] Memory required for data: 2796000072
I0718 14:07:13.959743 29038 layer_factory.hpp:76] Creating layer inception_3a/output
I0718 14:07:13.959795 29038 net.cpp:106] Creating Layer inception_3a/output
I0718 14:07:13.959831 29038 net.cpp:454] inception_3a/output <- inception_3a/1x1
I0718 14:07:13.959864 29038 net.cpp:454] inception_3a/output <- inception_3a/3x3
I0718 14:07:13.959893 29038 net.cpp:454] inception_3a/output <- inception_3a/5x5
I0718 14:07:13.959918 29038 net.cpp:454] inception_3a/output <- inception_3a/pool_proj
I0718 14:07:13.959950 29038 net.cpp:411] inception_3a/output -> inception_3a/output
I0718 14:07:13.960057 29038 net.cpp:150] Setting up inception_3a/output
I0718 14:07:13.960088 29038 net.cpp:157] Top shape: 6 256 125 125 (24000000)
I0718 14:07:13.960108 29038 net.cpp:165] Memory required for data: 2892000072
I0718 14:07:13.960129 29038 layer_factory.hpp:76] Creating layer inception_3a/output_inception_3a/output_0_split
I0718 14:07:13.960170 29038 net.cpp:106] Creating Layer inception_3a/output_inception_3a/output_0_split
I0718 14:07:13.960196 29038 net.cpp:454] inception_3a/output_inception_3a/output_0_split <- inception_3a/output
I0718 14:07:13.960225 29038 net.cpp:411] inception_3a/output_inception_3a/output_0_split -> inception_3a/output_inception_3a/output_0_split_0
I0718 14:07:13.960259 29038 net.cpp:411] inception_3a/output_inception_3a/output_0_split -> inception_3a/output_inception_3a/output_0_split_1
I0718 14:07:13.960295 29038 net.cpp:411] inception_3a/output_inception_3a/output_0_split -> inception_3a/output_inception_3a/output_0_split_2
I0718 14:07:13.960330 29038 net.cpp:411] inception_3a/output_inception_3a/output_0_split -> inception_3a/output_inception_3a/output_0_split_3
I0718 14:07:13.960476 29038 net.cpp:150] Setting up inception_3a/output_inception_3a/output_0_split
I0718 14:07:13.960506 29038 net.cpp:157] Top shape: 6 256 125 125 (24000000)
I0718 14:07:13.960531 29038 net.cpp:157] Top shape: 6 256 125 125 (24000000)
I0718 14:07:13.960556 29038 net.cpp:157] Top shape: 6 256 125 125 (24000000)
I0718 14:07:13.960583 29038 net.cpp:157] Top shape: 6 256 125 125 (24000000)
I0718 14:07:13.960608 29038 net.cpp:165] Memory required for data: 3276000072
I0718 14:07:13.960628 29038 layer_factory.hpp:76] Creating layer inception_3b/1x1
I0718 14:07:13.960669 29038 net.cpp:106] Creating Layer inception_3b/1x1
I0718 14:07:13.960701 29038 net.cpp:454] inception_3b/1x1 <- inception_3a/output_inception_3a/output_0_split_0
I0718 14:07:13.960736 29038 net.cpp:411] inception_3b/1x1 -> inception_3b/1x1
I0718 14:07:13.964270 29038 cudnn_conv_layer.cpp:194] Reallocating workspace storage: 3072
I0718 14:07:13.964545 29038 net.cpp:150] Setting up inception_3b/1x1
I0718 14:07:13.964596 29038 net.cpp:157] Top shape: 6 128 125 125 (12000000)
I0718 14:07:13.964627 29038 net.cpp:165] Memory required for data: 3324000072
I0718 14:07:13.964669 29038 layer_factory.hpp:76] Creating layer inception_3b/relu_1x1
I0718 14:07:13.964706 29038 net.cpp:106] Creating Layer inception_3b/relu_1x1
I0718 14:07:13.964735 29038 net.cpp:454] inception_3b/relu_1x1 <- inception_3b/1x1
I0718 14:07:13.964767 29038 net.cpp:397] inception_3b/relu_1x1 -> inception_3b/1x1 (in-place)
I0718 14:07:13.965217 29038 net.cpp:150] Setting up inception_3b/relu_1x1
I0718 14:07:13.965265 29038 net.cpp:157] Top shape: 6 128 125 125 (12000000)
I0718 14:07:13.965288 29038 net.cpp:165] Memory required for data: 3372000072
I0718 14:07:13.965309 29038 layer_factory.hpp:76] Creating layer inception_3b/3x3_reduce
I0718 14:07:13.965344 29038 net.cpp:106] Creating Layer inception_3b/3x3_reduce
I0718 14:07:13.965366 29038 net.cpp:454] inception_3b/3x3_reduce <- inception_3a/output_inception_3a/output_0_split_1
I0718 14:07:13.965401 29038 net.cpp:411] inception_3b/3x3_reduce -> inception_3b/3x3_reduce
I0718 14:07:13.969084 29038 cudnn_conv_layer.cpp:194] Reallocating workspace storage: 3072
I0718 14:07:13.969244 29038 net.cpp:150] Setting up inception_3b/3x3_reduce
I0718 14:07:13.969288 29038 net.cpp:157] Top shape: 6 128 125 125 (12000000)
I0718 14:07:13.969318 29038 net.cpp:165] Memory required for data: 3420000072
I0718 14:07:13.969352 29038 layer_factory.hpp:76] Creating layer inception_3b/relu_3x3_reduce
I0718 14:07:13.969388 29038 net.cpp:106] Creating Layer inception_3b/relu_3x3_reduce
I0718 14:07:13.969415 29038 net.cpp:454] inception_3b/relu_3x3_reduce <- inception_3b/3x3_reduce
I0718 14:07:13.969457 29038 net.cpp:397] inception_3b/relu_3x3_reduce -> inception_3b/3x3_reduce (in-place)
I0718 14:07:13.970023 29038 net.cpp:150] Setting up inception_3b/relu_3x3_reduce
I0718 14:07:13.970062 29038 net.cpp:157] Top shape: 6 128 125 125 (12000000)
I0718 14:07:13.970082 29038 net.cpp:165] Memory required for data: 3468000072
I0718 14:07:13.970103 29038 layer_factory.hpp:76] Creating layer inception_3b/3x3
I0718 14:07:13.970155 29038 net.cpp:106] Creating Layer inception_3b/3x3
I0718 14:07:13.970181 29038 net.cpp:454] inception_3b/3x3 <- inception_3b/3x3_reduce
I0718 14:07:13.970214 29038 net.cpp:411] inception_3b/3x3 -> inception_3b/3x3
I0718 14:07:14.000138 29038 cudnn_conv_layer.cpp:194] Reallocating workspace storage: 13824
I0718 14:07:14.000375 29038 net.cpp:150] Setting up inception_3b/3x3
I0718 14:07:14.000452 29038 net.cpp:157] Top shape: 6 192 125 125 (18000000)
I0718 14:07:14.000478 29038 net.cpp:165] Memory required for data: 3540000072
I0718 14:07:14.000582 29038 layer_factory.hpp:76] Creating layer inception_3b/relu_3x3
I0718 14:07:14.000699 29038 net.cpp:106] Creating Layer inception_3b/relu_3x3
I0718 14:07:14.000762 29038 net.cpp:454] inception_3b/relu_3x3 <- inception_3b/3x3
I0718 14:07:14.000823 29038 net.cpp:397] inception_3b/relu_3x3 -> inception_3b/3x3 (in-place)
I0718 14:07:14.008353 29038 net.cpp:150] Setting up inception_3b/relu_3x3
I0718 14:07:14.008404 29038 net.cpp:157] Top shape: 6 192 125 125 (18000000)
I0718 14:07:14.008476 29038 net.cpp:165] Memory required for data: 3612000072
I0718 14:07:14.008504 29038 layer_factory.hpp:76] Creating layer inception_3b/5x5_reduce
I0718 14:07:14.008561 29038 net.cpp:106] Creating Layer inception_3b/5x5_reduce
I0718 14:07:14.008618 29038 net.cpp:454] inception_3b/5x5_reduce <- inception_3a/output_inception_3a/output_0_split_2
I0718 14:07:14.008649 29038 net.cpp:411] inception_3b/5x5_reduce -> inception_3b/5x5_reduce
I0718 14:07:14.020934 29038 net.cpp:150] Setting up inception_3b/5x5_reduce
I0718 14:07:14.020979 29038 net.cpp:157] Top shape: 6 32 125 125 (3000000)
I0718 14:07:14.020998 29038 net.cpp:165] Memory required for data: 3624000072
I0718 14:07:14.021023 29038 layer_factory.hpp:76] Creating layer inception_3b/relu_5x5_reduce
I0718 14:07:14.021056 29038 net.cpp:106] Creating Layer inception_3b/relu_5x5_reduce
I0718 14:07:14.021117 29038 net.cpp:454] inception_3b/relu_5x5_reduce <- inception_3b/5x5_reduce
I0718 14:07:14.021145 29038 net.cpp:397] inception_3b/relu_5x5_reduce -> inception_3b/5x5_reduce (in-place)
I0718 14:07:14.021596 29038 net.cpp:150] Setting up inception_3b/relu_5x5_reduce
I0718 14:07:14.021638 29038 net.cpp:157] Top shape: 6 32 125 125 (3000000)
I0718 14:07:14.021658 29038 net.cpp:165] Memory required for data: 3636000072
I0718 14:07:14.021680 29038 layer_factory.hpp:76] Creating layer inception_3b/5x5
I0718 14:07:14.021718 29038 net.cpp:106] Creating Layer inception_3b/5x5
I0718 14:07:14.021744 29038 net.cpp:454] inception_3b/5x5 <- inception_3b/5x5_reduce
I0718 14:07:14.021771 29038 net.cpp:411] inception_3b/5x5 -> inception_3b/5x5
I0718 14:07:14.025743 29038 net.cpp:150] Setting up inception_3b/5x5
I0718 14:07:14.025777 29038 net.cpp:157] Top shape: 6 96 125 125 (9000000)
I0718 14:07:14.025797 29038 net.cpp:165] Memory required for data: 3672000072
I0718 14:07:14.025812 29038 layer_factory.hpp:76] Creating layer inception_3b/relu_5x5
I0718 14:07:14.025832 29038 net.cpp:106] Creating Layer inception_3b/relu_5x5
I0718 14:07:14.025846 29038 net.cpp:454] inception_3b/relu_5x5 <- inception_3b/5x5
I0718 14:07:14.025866 29038 net.cpp:397] inception_3b/relu_5x5 -> inception_3b/5x5 (in-place)
I0718 14:07:14.026106 29038 net.cpp:150] Setting up inception_3b/relu_5x5
I0718 14:07:14.026130 29038 net.cpp:157] Top shape: 6 96 125 125 (9000000)
I0718 14:07:14.026142 29038 net.cpp:165] Memory required for data: 3708000072
I0718 14:07:14.026154 29038 layer_factory.hpp:76] Creating layer inception_3b/pool
I0718 14:07:14.026182 29038 net.cpp:106] Creating Layer inception_3b/pool
I0718 14:07:14.026196 29038 net.cpp:454] inception_3b/pool <- inception_3a/output_inception_3a/output_0_split_3
I0718 14:07:14.026212 29038 net.cpp:411] inception_3b/pool -> inception_3b/pool
I0718 14:07:14.026810 29038 net.cpp:150] Setting up inception_3b/pool
I0718 14:07:14.026836 29038 net.cpp:157] Top shape: 6 256 125 125 (24000000)
I0718 14:07:14.026849 29038 net.cpp:165] Memory required for data: 3804000072
I0718 14:07:14.026860 29038 layer_factory.hpp:76] Creating layer inception_3b/pool_proj
I0718 14:07:14.026882 29038 net.cpp:106] Creating Layer inception_3b/pool_proj
I0718 14:07:14.026895 29038 net.cpp:454] inception_3b/pool_proj <- inception_3b/pool
I0718 14:07:14.026913 29038 net.cpp:411] inception_3b/pool_proj -> inception_3b/pool_proj
I0718 14:07:14.030755 29038 net.cpp:150] Setting up inception_3b/pool_proj
I0718 14:07:14.030802 29038 net.cpp:157] Top shape: 6 64 125 125 (6000000)
I0718 14:07:14.030827 29038 net.cpp:165] Memory required for data: 3828000072
I0718 14:07:14.030855 29038 layer_factory.hpp:76] Creating layer inception_3b/relu_pool_proj
I0718 14:07:14.030884 29038 net.cpp:106] Creating Layer inception_3b/relu_pool_proj
I0718 14:07:14.030906 29038 net.cpp:454] inception_3b/relu_pool_proj <- inception_3b/pool_proj
I0718 14:07:14.030936 29038 net.cpp:397] inception_3b/relu_pool_proj -> inception_3b/pool_proj (in-place)
I0718 14:07:14.031355 29038 net.cpp:150] Setting up inception_3b/relu_pool_proj
I0718 14:07:14.031396 29038 net.cpp:157] Top shape: 6 64 125 125 (6000000)
I0718 14:07:14.031420 29038 net.cpp:165] Memory required for data: 3852000072
I0718 14:07:14.031445 29038 layer_factory.hpp:76] Creating layer inception_3b/output
I0718 14:07:14.031474 29038 net.cpp:106] Creating Layer inception_3b/output
I0718 14:07:14.031497 29038 net.cpp:454] inception_3b/output <- inception_3b/1x1
I0718 14:07:14.031520 29038 net.cpp:454] inception_3b/output <- inception_3b/3x3
I0718 14:07:14.031543 29038 net.cpp:454] inception_3b/output <- inception_3b/5x5
I0718 14:07:14.031565 29038 net.cpp:454] inception_3b/output <- inception_3b/pool_proj
I0718 14:07:14.031589 29038 net.cpp:411] inception_3b/output -> inception_3b/output
I0718 14:07:14.031667 29038 net.cpp:150] Setting up inception_3b/output
I0718 14:07:14.031697 29038 net.cpp:157] Top shape: 6 480 125 125 (45000000)
I0718 14:07:14.031718 29038 net.cpp:165] Memory required for data: 4032000072
I0718 14:07:14.031769 29038 layer_factory.hpp:76] Creating layer pool3/3x3_s2
I0718 14:07:14.031797 29038 net.cpp:106] Creating Layer pool3/3x3_s2
I0718 14:07:14.031826 29038 net.cpp:454] pool3/3x3_s2 <- inception_3b/output
I0718 14:07:14.031852 29038 net.cpp:411] pool3/3x3_s2 -> pool3/3x3_s2
I0718 14:07:14.032686 29038 net.cpp:150] Setting up pool3/3x3_s2
I0718 14:07:14.032728 29038 net.cpp:157] Top shape: 6 480 62 62 (11070720)
I0718 14:07:14.032747 29038 net.cpp:165] Memory required for data: 4076282952
I0718 14:07:14.032768 29038 layer_factory.hpp:76] Creating layer pool3/3x3_s2_pool3/3x3_s2_0_split
I0718 14:07:14.032800 29038 net.cpp:106] Creating Layer pool3/3x3_s2_pool3/3x3_s2_0_split
I0718 14:07:14.032821 29038 net.cpp:454] pool3/3x3_s2_pool3/3x3_s2_0_split <- pool3/3x3_s2
I0718 14:07:14.032845 29038 net.cpp:411] pool3/3x3_s2_pool3/3x3_s2_0_split -> pool3/3x3_s2_pool3/3x3_s2_0_split_0
I0718 14:07:14.032873 29038 net.cpp:411] pool3/3x3_s2_pool3/3x3_s2_0_split -> pool3/3x3_s2_pool3/3x3_s2_0_split_1
I0718 14:07:14.032898 29038 net.cpp:411] pool3/3x3_s2_pool3/3x3_s2_0_split -> pool3/3x3_s2_pool3/3x3_s2_0_split_2
I0718 14:07:14.032925 29038 net.cpp:411] pool3/3x3_s2_pool3/3x3_s2_0_split -> pool3/3x3_s2_pool3/3x3_s2_0_split_3
I0718 14:07:14.033089 29038 net.cpp:150] Setting up pool3/3x3_s2_pool3/3x3_s2_0_split
I0718 14:07:14.033121 29038 net.cpp:157] Top shape: 6 480 62 62 (11070720)
I0718 14:07:14.033143 29038 net.cpp:157] Top shape: 6 480 62 62 (11070720)
I0718 14:07:14.033164 29038 net.cpp:157] Top shape: 6 480 62 62 (11070720)
I0718 14:07:14.033186 29038 net.cpp:157] Top shape: 6 480 62 62 (11070720)
I0718 14:07:14.033203 29038 net.cpp:165] Memory required for data: 4253414472
I0718 14:07:14.033223 29038 layer_factory.hpp:76] Creating layer inception_4a/1x1
I0718 14:07:14.033259 29038 net.cpp:106] Creating Layer inception_4a/1x1
I0718 14:07:14.033282 29038 net.cpp:454] inception_4a/1x1 <- pool3/3x3_s2_pool3/3x3_s2_0_split_0
I0718 14:07:14.033315 29038 net.cpp:411] inception_4a/1x1 -> inception_4a/1x1
I0718 14:07:14.037055 29038 cudnn_conv_layer.cpp:194] Reallocating workspace storage: 5760
I0718 14:07:14.037125 29038 net.cpp:150] Setting up inception_4a/1x1
I0718 14:07:14.037154 29038 net.cpp:157] Top shape: 6 192 62 62 (4428288)
I0718 14:07:14.037178 29038 net.cpp:165] Memory required for data: 4271127624
I0718 14:07:14.037204 29038 layer_factory.hpp:76] Creating layer inception_4a/relu_1x1
I0718 14:07:14.037237 29038 net.cpp:106] Creating Layer inception_4a/relu_1x1
I0718 14:07:14.037259 29038 net.cpp:454] inception_4a/relu_1x1 <- inception_4a/1x1
I0718 14:07:14.037286 29038 net.cpp:397] inception_4a/relu_1x1 -> inception_4a/1x1 (in-place)
I0718 14:07:14.037708 29038 net.cpp:150] Setting up inception_4a/relu_1x1
I0718 14:07:14.037741 29038 net.cpp:157] Top shape: 6 192 62 62 (4428288)
I0718 14:07:14.037761 29038 net.cpp:165] Memory required for data: 4288840776
I0718 14:07:14.037781 29038 layer_factory.hpp:76] Creating layer inception_4a/3x3_reduce
I0718 14:07:14.037813 29038 net.cpp:106] Creating Layer inception_4a/3x3_reduce
I0718 14:07:14.037837 29038 net.cpp:454] inception_4a/3x3_reduce <- pool3/3x3_s2_pool3/3x3_s2_0_split_1
I0718 14:07:14.037865 29038 net.cpp:411] inception_4a/3x3_reduce -> inception_4a/3x3_reduce
I0718 14:07:14.041671 29038 cudnn_conv_layer.cpp:194] Reallocating workspace storage: 5760
I0718 14:07:14.041764 29038 net.cpp:150] Setting up inception_4a/3x3_reduce
I0718 14:07:14.041796 29038 net.cpp:157] Top shape: 6 96 62 62 (2214144)
I0718 14:07:14.041822 29038 net.cpp:165] Memory required for data: 4297697352
I0718 14:07:14.041896 29038 layer_factory.hpp:76] Creating layer inception_4a/relu_3x3_reduce
I0718 14:07:14.041934 29038 net.cpp:106] Creating Layer inception_4a/relu_3x3_reduce
I0718 14:07:14.041960 29038 net.cpp:454] inception_4a/relu_3x3_reduce <- inception_4a/3x3_reduce
I0718 14:07:14.041992 29038 net.cpp:397] inception_4a/relu_3x3_reduce -> inception_4a/3x3_reduce (in-place)
I0718 14:07:14.042536 29038 net.cpp:150] Setting up inception_4a/relu_3x3_reduce
I0718 14:07:14.042606 29038 net.cpp:157] Top shape: 6 96 62 62 (2214144)
I0718 14:07:14.042644 29038 net.cpp:165] Memory required for data: 4306553928
I0718 14:07:14.042682 29038 layer_factory.hpp:76] Creating layer inception_4a/3x3
I0718 14:07:14.042729 29038 net.cpp:106] Creating Layer inception_4a/3x3
I0718 14:07:14.042757 29038 net.cpp:454] inception_4a/3x3 <- inception_4a/3x3_reduce
I0718 14:07:14.042794 29038 net.cpp:411] inception_4a/3x3 -> inception_4a/3x3
I0718 14:07:14.051653 29038 net.cpp:150] Setting up inception_4a/3x3
I0718 14:07:14.051717 29038 net.cpp:157] Top shape: 6 208 62 62 (4797312)
I0718 14:07:14.051745 29038 net.cpp:165] Memory required for data: 4325743176
I0718 14:07:14.051780 29038 layer_factory.hpp:76] Creating layer inception_4a/relu_3x3
I0718 14:07:14.051820 29038 net.cpp:106] Creating Layer inception_4a/relu_3x3
I0718 14:07:14.051851 29038 net.cpp:454] inception_4a/relu_3x3 <- inception_4a/3x3
I0718 14:07:14.051873 29038 net.cpp:397] inception_4a/relu_3x3 -> inception_4a/3x3 (in-place)
I0718 14:07:14.052639 29038 net.cpp:150] Setting up inception_4a/relu_3x3
I0718 14:07:14.052670 29038 net.cpp:157] Top shape: 6 208 62 62 (4797312)
I0718 14:07:14.052690 29038 net.cpp:165] Memory required for data: 4344932424
I0718 14:07:14.052705 29038 layer_factory.hpp:76] Creating layer inception_4a/5x5_reduce
I0718 14:07:14.052734 29038 net.cpp:106] Creating Layer inception_4a/5x5_reduce
I0718 14:07:14.052749 29038 net.cpp:454] inception_4a/5x5_reduce <- pool3/3x3_s2_pool3/3x3_s2_0_split_2
I0718 14:07:14.052773 29038 net.cpp:411] inception_4a/5x5_reduce -> inception_4a/5x5_reduce
I0718 14:07:14.055562 29038 cudnn_conv_layer.cpp:194] Reallocating workspace storage: 5760
I0718 14:07:14.055652 29038 net.cpp:150] Setting up inception_4a/5x5_reduce
I0718 14:07:14.055687 29038 net.cpp:157] Top shape: 6 16 62 62 (369024)
I0718 14:07:14.055713 29038 net.cpp:165] Memory required for data: 4346408520
I0718 14:07:14.055742 29038 layer_factory.hpp:76] Creating layer inception_4a/relu_5x5_reduce
I0718 14:07:14.055773 29038 net.cpp:106] Creating Layer inception_4a/relu_5x5_reduce
I0718 14:07:14.055799 29038 net.cpp:454] inception_4a/relu_5x5_reduce <- inception_4a/5x5_reduce
I0718 14:07:14.055830 29038 net.cpp:397] inception_4a/relu_5x5_reduce -> inception_4a/5x5_reduce (in-place)
I0718 14:07:14.056330 29038 net.cpp:150] Setting up inception_4a/relu_5x5_reduce
I0718 14:07:14.056371 29038 net.cpp:157] Top shape: 6 16 62 62 (369024)
I0718 14:07:14.056396 29038 net.cpp:165] Memory required for data: 4347884616
I0718 14:07:14.056429 29038 layer_factory.hpp:76] Creating layer inception_4a/5x5
I0718 14:07:14.056462 29038 net.cpp:106] Creating Layer inception_4a/5x5
I0718 14:07:14.056486 29038 net.cpp:454] inception_4a/5x5 <- inception_4a/5x5_reduce
I0718 14:07:14.056520 29038 net.cpp:411] inception_4a/5x5 -> inception_4a/5x5
I0718 14:07:14.061969 29038 net.cpp:150] Setting up inception_4a/5x5
I0718 14:07:14.062153 29038 net.cpp:157] Top shape: 6 48 62 62 (1107072)
I0718 14:07:14.062188 29038 net.cpp:165] Memory required for data: 4352312904
I0718 14:07:14.062384 29038 layer_factory.hpp:76] Creating layer inception_4a/relu_5x5
I0718 14:07:14.062518 29038 net.cpp:106] Creating Layer inception_4a/relu_5x5
I0718 14:07:14.062556 29038 net.cpp:454] inception_4a/relu_5x5 <- inception_4a/5x5
I0718 14:07:14.062594 29038 net.cpp:397] inception_4a/relu_5x5 -> inception_4a/5x5 (in-place)
I0718 14:07:14.063138 29038 net.cpp:150] Setting up inception_4a/relu_5x5
I0718 14:07:14.063195 29038 net.cpp:157] Top shape: 6 48 62 62 (1107072)
I0718 14:07:14.063221 29038 net.cpp:165] Memory required for data: 4356741192
I0718 14:07:14.063248 29038 layer_factory.hpp:76] Creating layer inception_4a/pool
I0718 14:07:14.063282 29038 net.cpp:106] Creating Layer inception_4a/pool
I0718 14:07:14.063313 29038 net.cpp:454] inception_4a/pool <- pool3/3x3_s2_pool3/3x3_s2_0_split_3
I0718 14:07:14.063351 29038 net.cpp:411] inception_4a/pool -> inception_4a/pool
I0718 14:07:14.064795 29038 net.cpp:150] Setting up inception_4a/pool
I0718 14:07:14.064854 29038 net.cpp:157] Top shape: 6 480 62 62 (11070720)
I0718 14:07:14.064966 29038 net.cpp:165] Memory required for data: 4401024072
I0718 14:07:14.064997 29038 layer_factory.hpp:76] Creating layer inception_4a/pool_proj
I0718 14:07:14.065044 29038 net.cpp:106] Creating Layer inception_4a/pool_proj
I0718 14:07:14.065070 29038 net.cpp:454] inception_4a/pool_proj <- inception_4a/pool
I0718 14:07:14.065099 29038 net.cpp:411] inception_4a/pool_proj -> inception_4a/pool_proj
I0718 14:07:14.068480 29038 net.cpp:150] Setting up inception_4a/pool_proj
I0718 14:07:14.068578 29038 net.cpp:157] Top shape: 6 64 62 62 (1476096)
I0718 14:07:14.068606 29038 net.cpp:165] Memory required for data: 4406928456
I0718 14:07:14.068646 29038 layer_factory.hpp:76] Creating layer inception_4a/relu_pool_proj
I0718 14:07:14.068692 29038 net.cpp:106] Creating Layer inception_4a/relu_pool_proj
I0718 14:07:14.068729 29038 net.cpp:454] inception_4a/relu_pool_proj <- inception_4a/pool_proj
I0718 14:07:14.068763 29038 net.cpp:397] inception_4a/relu_pool_proj -> inception_4a/pool_proj (in-place)
I0718 14:07:14.069264 29038 net.cpp:150] Setting up inception_4a/relu_pool_proj
I0718 14:07:14.069303 29038 net.cpp:157] Top shape: 6 64 62 62 (1476096)
I0718 14:07:14.069327 29038 net.cpp:165] Memory required for data: 4412832840
I0718 14:07:14.069357 29038 layer_factory.hpp:76] Creating layer inception_4a/output
I0718 14:07:14.069391 29038 net.cpp:106] Creating Layer inception_4a/output
I0718 14:07:14.069428 29038 net.cpp:454] inception_4a/output <- inception_4a/1x1
I0718 14:07:14.069468 29038 net.cpp:454] inception_4a/output <- inception_4a/3x3
I0718 14:07:14.069497 29038 net.cpp:454] inception_4a/output <- inception_4a/5x5
I0718 14:07:14.069519 29038 net.cpp:454] inception_4a/output <- inception_4a/pool_proj
I0718 14:07:14.069551 29038 net.cpp:411] inception_4a/output -> inception_4a/output
I0718 14:07:14.069659 29038 net.cpp:150] Setting up inception_4a/output
I0718 14:07:14.069694 29038 net.cpp:157] Top shape: 6 512 62 62 (11808768)
I0718 14:07:14.069721 29038 net.cpp:165] Memory required for data: 4460067912
I0718 14:07:14.069748 29038 layer_factory.hpp:76] Creating layer inception_4a/output_inception_4a/output_0_split
I0718 14:07:14.069771 29038 net.cpp:106] Creating Layer inception_4a/output_inception_4a/output_0_split
I0718 14:07:14.069797 29038 net.cpp:454] inception_4a/output_inception_4a/output_0_split <- inception_4a/output
I0718 14:07:14.069823 29038 net.cpp:411] inception_4a/output_inception_4a/output_0_split -> inception_4a/output_inception_4a/output_0_split_0
I0718 14:07:14.069854 29038 net.cpp:411] inception_4a/output_inception_4a/output_0_split -> inception_4a/output_inception_4a/output_0_split_1
I0718 14:07:14.069890 29038 net.cpp:411] inception_4a/output_inception_4a/output_0_split -> inception_4a/output_inception_4a/output_0_split_2
I0718 14:07:14.069927 29038 net.cpp:411] inception_4a/output_inception_4a/output_0_split -> inception_4a/output_inception_4a/output_0_split_3
I0718 14:07:14.070149 29038 net.cpp:150] Setting up inception_4a/output_inception_4a/output_0_split
I0718 14:07:14.070183 29038 net.cpp:157] Top shape: 6 512 62 62 (11808768)
I0718 14:07:14.070209 29038 net.cpp:157] Top shape: 6 512 62 62 (11808768)
I0718 14:07:14.070235 29038 net.cpp:157] Top shape: 6 512 62 62 (11808768)
I0718 14:07:14.070261 29038 net.cpp:157] Top shape: 6 512 62 62 (11808768)
I0718 14:07:14.070286 29038 net.cpp:165] Memory required for data: 4649008200
I0718 14:07:14.070313 29038 layer_factory.hpp:76] Creating layer inception_4b/1x1
I0718 14:07:14.070348 29038 net.cpp:106] Creating Layer inception_4b/1x1
I0718 14:07:14.070371 29038 net.cpp:454] inception_4b/1x1 <- inception_4a/output_inception_4a/output_0_split_0
I0718 14:07:14.070410 29038 net.cpp:411] inception_4b/1x1 -> inception_4b/1x1
I0718 14:07:14.077028 29038 net.cpp:150] Setting up inception_4b/1x1
I0718 14:07:14.077147 29038 net.cpp:157] Top shape: 6 160 62 62 (3690240)
I0718 14:07:14.077177 29038 net.cpp:165] Memory required for data: 4663769160
I0718 14:07:14.077216 29038 layer_factory.hpp:76] Creating layer inception_4b/relu_1x1
I0718 14:07:14.077332 29038 net.cpp:106] Creating Layer inception_4b/relu_1x1
I0718 14:07:14.077364 29038 net.cpp:454] inception_4b/relu_1x1 <- inception_4b/1x1
I0718 14:07:14.077399 29038 net.cpp:397] inception_4b/relu_1x1 -> inception_4b/1x1 (in-place)
I0718 14:07:14.078778 29038 net.cpp:150] Setting up inception_4b/relu_1x1
I0718 14:07:14.078855 29038 net.cpp:157] Top shape: 6 160 62 62 (3690240)
I0718 14:07:14.078888 29038 net.cpp:165] Memory required for data: 4678530120
I0718 14:07:14.078919 29038 layer_factory.hpp:76] Creating layer inception_4b/3x3_reduce
I0718 14:07:14.078977 29038 net.cpp:106] Creating Layer inception_4b/3x3_reduce
I0718 14:07:14.079028 29038 net.cpp:454] inception_4b/3x3_reduce <- inception_4a/output_inception_4a/output_0_split_1
I0718 14:07:14.079072 29038 net.cpp:411] inception_4b/3x3_reduce -> inception_4b/3x3_reduce
I0718 14:07:14.083616 29038 cudnn_conv_layer.cpp:194] Reallocating workspace storage: 6144
I0718 14:07:14.083765 29038 net.cpp:150] Setting up inception_4b/3x3_reduce
I0718 14:07:14.083812 29038 net.cpp:157] Top shape: 6 112 62 62 (2583168)
I0718 14:07:14.083840 29038 net.cpp:165] Memory required for data: 4688862792
I0718 14:07:14.083869 29038 layer_factory.hpp:76] Creating layer inception_4b/relu_3x3_reduce
I0718 14:07:14.083916 29038 net.cpp:106] Creating Layer inception_4b/relu_3x3_reduce
I0718 14:07:14.083946 29038 net.cpp:454] inception_4b/relu_3x3_reduce <- inception_4b/3x3_reduce
I0718 14:07:14.083973 29038 net.cpp:397] inception_4b/relu_3x3_reduce -> inception_4b/3x3_reduce (in-place)
I0718 14:07:14.085129 29038 net.cpp:150] Setting up inception_4b/relu_3x3_reduce
I0718 14:07:14.085172 29038 net.cpp:157] Top shape: 6 112 62 62 (2583168)
I0718 14:07:14.085193 29038 net.cpp:165] Memory required for data: 4699195464
I0718 14:07:14.085213 29038 layer_factory.hpp:76] Creating layer inception_4b/3x3
I0718 14:07:14.085255 29038 net.cpp:106] Creating Layer inception_4b/3x3
I0718 14:07:14.085281 29038 net.cpp:454] inception_4b/3x3 <- inception_4b/3x3_reduce
I0718 14:07:14.085314 29038 net.cpp:411] inception_4b/3x3 -> inception_4b/3x3
I0718 14:07:14.092890 29038 cudnn_conv_layer.cpp:194] Reallocating workspace storage: 12096
I0718 14:07:14.093061 29038 net.cpp:150] Setting up inception_4b/3x3
I0718 14:07:14.093133 29038 net.cpp:157] Top shape: 6 224 62 62 (5166336)
I0718 14:07:14.093149 29038 net.cpp:165] Memory required for data: 4719860808
I0718 14:07:14.093178 29038 layer_factory.hpp:76] Creating layer inception_4b/relu_3x3
I0718 14:07:14.093231 29038 net.cpp:106] Creating Layer inception_4b/relu_3x3
I0718 14:07:14.093245 29038 net.cpp:454] inception_4b/relu_3x3 <- inception_4b/3x3
I0718 14:07:14.093256 29038 net.cpp:397] inception_4b/relu_3x3 -> inception_4b/3x3 (in-place)
I0718 14:07:14.093600 29038 net.cpp:150] Setting up inception_4b/relu_3x3
I0718 14:07:14.093618 29038 net.cpp:157] Top shape: 6 224 62 62 (5166336)
I0718 14:07:14.093626 29038 net.cpp:165] Memory required for data: 4740526152
I0718 14:07:14.093632 29038 layer_factory.hpp:76] Creating layer inception_4b/5x5_reduce
I0718 14:07:14.093658 29038 net.cpp:106] Creating Layer inception_4b/5x5_reduce
I0718 14:07:14.093664 29038 net.cpp:454] inception_4b/5x5_reduce <- inception_4a/output_inception_4a/output_0_split_2
I0718 14:07:14.093672 29038 net.cpp:411] inception_4b/5x5_reduce -> inception_4b/5x5_reduce
I0718 14:07:14.098948 29038 net.cpp:150] Setting up inception_4b/5x5_reduce
I0718 14:07:14.099020 29038 net.cpp:157] Top shape: 6 24 62 62 (553536)
I0718 14:07:14.099048 29038 net.cpp:165] Memory required for data: 4742740296
I0718 14:07:14.099102 29038 layer_factory.hpp:76] Creating layer inception_4b/relu_5x5_reduce
I0718 14:07:14.099153 29038 net.cpp:106] Creating Layer inception_4b/relu_5x5_reduce
I0718 14:07:14.099180 29038 net.cpp:454] inception_4b/relu_5x5_reduce <- inception_4b/5x5_reduce
I0718 14:07:14.099208 29038 net.cpp:397] inception_4b/relu_5x5_reduce -> inception_4b/5x5_reduce (in-place)
I0718 14:07:14.100189 29038 net.cpp:150] Setting up inception_4b/relu_5x5_reduce
I0718 14:07:14.100298 29038 net.cpp:157] Top shape: 6 24 62 62 (553536)
I0718 14:07:14.100311 29038 net.cpp:165] Memory required for data: 4744954440
I0718 14:07:14.100344 29038 layer_factory.hpp:76] Creating layer inception_4b/5x5
I0718 14:07:14.100379 29038 net.cpp:106] Creating Layer inception_4b/5x5
I0718 14:07:14.100406 29038 net.cpp:454] inception_4b/5x5 <- inception_4b/5x5_reduce
I0718 14:07:14.100450 29038 net.cpp:411] inception_4b/5x5 -> inception_4b/5x5
I0718 14:07:14.102870 29038 net.cpp:150] Setting up inception_4b/5x5
I0718 14:07:14.102953 29038 net.cpp:157] Top shape: 6 64 62 62 (1476096)
I0718 14:07:14.102969 29038 net.cpp:165] Memory required for data: 4750858824
I0718 14:07:14.102999 29038 layer_factory.hpp:76] Creating layer inception_4b/relu_5x5
I0718 14:07:14.103035 29038 net.cpp:106] Creating Layer inception_4b/relu_5x5
I0718 14:07:14.103058 29038 net.cpp:454] inception_4b/relu_5x5 <- inception_4b/5x5
I0718 14:07:14.103086 29038 net.cpp:397] inception_4b/relu_5x5 -> inception_4b/5x5 (in-place)
I0718 14:07:14.104120 29038 net.cpp:150] Setting up inception_4b/relu_5x5
I0718 14:07:14.104184 29038 net.cpp:157] Top shape: 6 64 62 62 (1476096)
I0718 14:07:14.104210 29038 net.cpp:165] Memory required for data: 4756763208
I0718 14:07:14.104233 29038 layer_factory.hpp:76] Creating layer inception_4b/pool
I0718 14:07:14.104269 29038 net.cpp:106] Creating Layer inception_4b/pool
I0718 14:07:14.104305 29038 net.cpp:454] inception_4b/pool <- inception_4a/output_inception_4a/output_0_split_3
I0718 14:07:14.104348 29038 net.cpp:411] inception_4b/pool -> inception_4b/pool
I0718 14:07:14.105402 29038 net.cpp:150] Setting up inception_4b/pool
I0718 14:07:14.105458 29038 net.cpp:157] Top shape: 6 512 62 62 (11808768)
I0718 14:07:14.105474 29038 net.cpp:165] Memory required for data: 4803998280
I0718 14:07:14.105496 29038 layer_factory.hpp:76] Creating layer inception_4b/pool_proj
I0718 14:07:14.105541 29038 net.cpp:106] Creating Layer inception_4b/pool_proj
I0718 14:07:14.105581 29038 net.cpp:454] inception_4b/pool_proj <- inception_4b/pool
I0718 14:07:14.105633 29038 net.cpp:411] inception_4b/pool_proj -> inception_4b/pool_proj
I0718 14:07:14.109061 29038 net.cpp:150] Setting up inception_4b/pool_proj
I0718 14:07:14.109194 29038 net.cpp:157] Top shape: 6 64 62 62 (1476096)
I0718 14:07:14.109222 29038 net.cpp:165] Memory required for data: 4809902664
I0718 14:07:14.109257 29038 layer_factory.hpp:76] Creating layer inception_4b/relu_pool_proj
I0718 14:07:14.109310 29038 net.cpp:106] Creating Layer inception_4b/relu_pool_proj
I0718 14:07:14.109344 29038 net.cpp:454] inception_4b/relu_pool_proj <- inception_4b/pool_proj
I0718 14:07:14.109381 29038 net.cpp:397] inception_4b/relu_pool_proj -> inception_4b/pool_proj (in-place)
I0718 14:07:14.110563 29038 net.cpp:150] Setting up inception_4b/relu_pool_proj
I0718 14:07:14.110649 29038 net.cpp:157] Top shape: 6 64 62 62 (1476096)
I0718 14:07:14.110690 29038 net.cpp:165] Memory required for data: 4815807048
I0718 14:07:14.110733 29038 layer_factory.hpp:76] Creating layer inception_4b/output
I0718 14:07:14.110787 29038 net.cpp:106] Creating Layer inception_4b/output
I0718 14:07:14.110828 29038 net.cpp:454] inception_4b/output <- inception_4b/1x1
I0718 14:07:14.110875 29038 net.cpp:454] inception_4b/output <- inception_4b/3x3
I0718 14:07:14.110919 29038 net.cpp:454] inception_4b/output <- inception_4b/5x5
I0718 14:07:14.110955 29038 net.cpp:454] inception_4b/output <- inception_4b/pool_proj
I0718 14:07:14.111007 29038 net.cpp:411] inception_4b/output -> inception_4b/output
I0718 14:07:14.111158 29038 net.cpp:150] Setting up inception_4b/output
I0718 14:07:14.111207 29038 net.cpp:157] Top shape: 6 512 62 62 (11808768)
I0718 14:07:14.111240 29038 net.cpp:165] Memory required for data: 4863042120
I0718 14:07:14.111270 29038 layer_factory.hpp:76] Creating layer inception_4b/output_inception_4b/output_0_split
I0718 14:07:14.111322 29038 net.cpp:106] Creating Layer inception_4b/output_inception_4b/output_0_split
I0718 14:07:14.111359 29038 net.cpp:454] inception_4b/output_inception_4b/output_0_split <- inception_4b/output
I0718 14:07:14.111470 29038 net.cpp:411] inception_4b/output_inception_4b/output_0_split -> inception_4b/output_inception_4b/output_0_split_0
I0718 14:07:14.111503 29038 net.cpp:411] inception_4b/output_inception_4b/output_0_split -> inception_4b/output_inception_4b/output_0_split_1
I0718 14:07:14.111527 29038 net.cpp:411] inception_4b/output_inception_4b/output_0_split -> inception_4b/output_inception_4b/output_0_split_2
I0718 14:07:14.111549 29038 net.cpp:411] inception_4b/output_inception_4b/output_0_split -> inception_4b/output_inception_4b/output_0_split_3
I0718 14:07:14.111745 29038 net.cpp:150] Setting up inception_4b/output_inception_4b/output_0_split
I0718 14:07:14.111776 29038 net.cpp:157] Top shape: 6 512 62 62 (11808768)
I0718 14:07:14.111795 29038 net.cpp:157] Top shape: 6 512 62 62 (11808768)
I0718 14:07:14.111812 29038 net.cpp:157] Top shape: 6 512 62 62 (11808768)
I0718 14:07:14.111829 29038 net.cpp:157] Top shape: 6 512 62 62 (11808768)
I0718 14:07:14.111846 29038 net.cpp:165] Memory required for data: 5051982408
I0718 14:07:14.111865 29038 layer_factory.hpp:76] Creating layer inception_4c/1x1
I0718 14:07:14.111901 29038 net.cpp:106] Creating Layer inception_4c/1x1
I0718 14:07:14.111920 29038 net.cpp:454] inception_4c/1x1 <- inception_4b/output_inception_4b/output_0_split_0
I0718 14:07:14.111950 29038 net.cpp:411] inception_4c/1x1 -> inception_4c/1x1
I0718 14:07:14.115847 29038 cudnn_conv_layer.cpp:194] Reallocating workspace storage: 6144
I0718 14:07:14.116047 29038 net.cpp:150] Setting up inception_4c/1x1
I0718 14:07:14.116097 29038 net.cpp:157] Top shape: 6 128 62 62 (2952192)
I0718 14:07:14.116137 29038 net.cpp:165] Memory required for data: 5063791176
I0718 14:07:14.116174 29038 layer_factory.hpp:76] Creating layer inception_4c/relu_1x1
I0718 14:07:14.116224 29038 net.cpp:106] Creating Layer inception_4c/relu_1x1
I0718 14:07:14.116279 29038 net.cpp:454] inception_4c/relu_1x1 <- inception_4c/1x1
I0718 14:07:14.116317 29038 net.cpp:397] inception_4c/relu_1x1 -> inception_4c/1x1 (in-place)
I0718 14:07:14.116987 29038 net.cpp:150] Setting up inception_4c/relu_1x1
I0718 14:07:14.117033 29038 net.cpp:157] Top shape: 6 128 62 62 (2952192)
I0718 14:07:14.117050 29038 net.cpp:165] Memory required for data: 5075599944
I0718 14:07:14.117069 29038 layer_factory.hpp:76] Creating layer inception_4c/3x3_reduce
I0718 14:07:14.117106 29038 net.cpp:106] Creating Layer inception_4c/3x3_reduce
I0718 14:07:14.117137 29038 net.cpp:454] inception_4c/3x3_reduce <- inception_4b/output_inception_4b/output_0_split_1
I0718 14:07:14.117189 29038 net.cpp:411] inception_4c/3x3_reduce -> inception_4c/3x3_reduce
I0718 14:07:14.123209 29038 cudnn_conv_layer.cpp:194] Reallocating workspace storage: 6144
I0718 14:07:14.123332 29038 net.cpp:150] Setting up inception_4c/3x3_reduce
I0718 14:07:14.123381 29038 net.cpp:157] Top shape: 6 128 62 62 (2952192)
I0718 14:07:14.123409 29038 net.cpp:165] Memory required for data: 5087408712
I0718 14:07:14.123455 29038 layer_factory.hpp:76] Creating layer inception_4c/relu_3x3_reduce
I0718 14:07:14.123500 29038 net.cpp:106] Creating Layer inception_4c/relu_3x3_reduce
I0718 14:07:14.123539 29038 net.cpp:454] inception_4c/relu_3x3_reduce <- inception_4c/3x3_reduce
I0718 14:07:14.123577 29038 net.cpp:397] inception_4c/relu_3x3_reduce -> inception_4c/3x3_reduce (in-place)
I0718 14:07:14.124439 29038 net.cpp:150] Setting up inception_4c/relu_3x3_reduce
I0718 14:07:14.124475 29038 net.cpp:157] Top shape: 6 128 62 62 (2952192)
I0718 14:07:14.124490 29038 net.cpp:165] Memory required for data: 5099217480
I0718 14:07:14.124506 29038 layer_factory.hpp:76] Creating layer inception_4c/3x3
I0718 14:07:14.124536 29038 net.cpp:106] Creating Layer inception_4c/3x3
I0718 14:07:14.124553 29038 net.cpp:454] inception_4c/3x3 <- inception_4c/3x3_reduce
I0718 14:07:14.124572 29038 net.cpp:411] inception_4c/3x3 -> inception_4c/3x3
I0718 14:07:14.132477 29038 net.cpp:150] Setting up inception_4c/3x3
I0718 14:07:14.132566 29038 net.cpp:157] Top shape: 6 256 62 62 (5904384)
I0718 14:07:14.132658 29038 net.cpp:165] Memory required for data: 5122835016
I0718 14:07:14.132697 29038 layer_factory.hpp:76] Creating layer inception_4c/relu_3x3
I0718 14:07:14.132767 29038 net.cpp:106] Creating Layer inception_4c/relu_3x3
I0718 14:07:14.132802 29038 net.cpp:454] inception_4c/relu_3x3 <- inception_4c/3x3
I0718 14:07:14.132836 29038 net.cpp:397] inception_4c/relu_3x3 -> inception_4c/3x3 (in-place)
I0718 14:07:14.133791 29038 net.cpp:150] Setting up inception_4c/relu_3x3
I0718 14:07:14.133836 29038 net.cpp:157] Top shape: 6 256 62 62 (5904384)
I0718 14:07:14.133855 29038 net.cpp:165] Memory required for data: 5146452552
I0718 14:07:14.133879 29038 layer_factory.hpp:76] Creating layer inception_4c/5x5_reduce
I0718 14:07:14.133919 29038 net.cpp:106] Creating Layer inception_4c/5x5_reduce
I0718 14:07:14.133963 29038 net.cpp:454] inception_4c/5x5_reduce <- inception_4b/output_inception_4b/output_0_split_2
I0718 14:07:14.134014 29038 net.cpp:411] inception_4c/5x5_reduce -> inception_4c/5x5_reduce
I0718 14:07:14.137320 29038 net.cpp:150] Setting up inception_4c/5x5_reduce
I0718 14:07:14.137372 29038 net.cpp:157] Top shape: 6 24 62 62 (553536)
I0718 14:07:14.137398 29038 net.cpp:165] Memory required for data: 5148666696
I0718 14:07:14.137434 29038 layer_factory.hpp:76] Creating layer inception_4c/relu_5x5_reduce
I0718 14:07:14.137471 29038 net.cpp:106] Creating Layer inception_4c/relu_5x5_reduce
I0718 14:07:14.137500 29038 net.cpp:454] inception_4c/relu_5x5_reduce <- inception_4c/5x5_reduce
I0718 14:07:14.137538 29038 net.cpp:397] inception_4c/relu_5x5_reduce -> inception_4c/5x5_reduce (in-place)
I0718 14:07:14.138031 29038 net.cpp:150] Setting up inception_4c/relu_5x5_reduce
I0718 14:07:14.138067 29038 net.cpp:157] Top shape: 6 24 62 62 (553536)
I0718 14:07:14.138092 29038 net.cpp:165] Memory required for data: 5150880840
I0718 14:07:14.138120 29038 layer_factory.hpp:76] Creating layer inception_4c/5x5
I0718 14:07:14.138166 29038 net.cpp:106] Creating Layer inception_4c/5x5
I0718 14:07:14.138197 29038 net.cpp:454] inception_4c/5x5 <- inception_4c/5x5_reduce
I0718 14:07:14.138237 29038 net.cpp:411] inception_4c/5x5 -> inception_4c/5x5
I0718 14:07:14.141531 29038 net.cpp:150] Setting up inception_4c/5x5
I0718 14:07:14.141602 29038 net.cpp:157] Top shape: 6 64 62 62 (1476096)
I0718 14:07:14.141634 29038 net.cpp:165] Memory required for data: 5156785224
I0718 14:07:14.141670 29038 layer_factory.hpp:76] Creating layer inception_4c/relu_5x5
I0718 14:07:14.141706 29038 net.cpp:106] Creating Layer inception_4c/relu_5x5
I0718 14:07:14.141726 29038 net.cpp:454] inception_4c/relu_5x5 <- inception_4c/5x5
I0718 14:07:14.141748 29038 net.cpp:397] inception_4c/relu_5x5 -> inception_4c/5x5 (in-place)
I0718 14:07:14.142427 29038 net.cpp:150] Setting up inception_4c/relu_5x5
I0718 14:07:14.142453 29038 net.cpp:157] Top shape: 6 64 62 62 (1476096)
I0718 14:07:14.142468 29038 net.cpp:165] Memory required for data: 5162689608
I0718 14:07:14.142482 29038 layer_factory.hpp:76] Creating layer inception_4c/pool
I0718 14:07:14.142503 29038 net.cpp:106] Creating Layer inception_4c/pool
I0718 14:07:14.142524 29038 net.cpp:454] inception_4c/pool <- inception_4b/output_inception_4b/output_0_split_3
I0718 14:07:14.142544 29038 net.cpp:411] inception_4c/pool -> inception_4c/pool
I0718 14:07:14.143160 29038 net.cpp:150] Setting up inception_4c/pool
I0718 14:07:14.143189 29038 net.cpp:157] Top shape: 6 512 62 62 (11808768)
I0718 14:07:14.143205 29038 net.cpp:165] Memory required for data: 5209924680
I0718 14:07:14.143219 29038 layer_factory.hpp:76] Creating layer inception_4c/pool_proj
I0718 14:07:14.143245 29038 net.cpp:106] Creating Layer inception_4c/pool_proj
I0718 14:07:14.143260 29038 net.cpp:454] inception_4c/pool_proj <- inception_4c/pool
I0718 14:07:14.143275 29038 net.cpp:411] inception_4c/pool_proj -> inception_4c/pool_proj
I0718 14:07:14.145489 29038 net.cpp:150] Setting up inception_4c/pool_proj
I0718 14:07:14.145526 29038 net.cpp:157] Top shape: 6 64 62 62 (1476096)
I0718 14:07:14.145537 29038 net.cpp:165] Memory required for data: 5215829064
I0718 14:07:14.145634 29038 layer_factory.hpp:76] Creating layer inception_4c/relu_pool_proj
I0718 14:07:14.145663 29038 net.cpp:106] Creating Layer inception_4c/relu_pool_proj
I0718 14:07:14.145685 29038 net.cpp:454] inception_4c/relu_pool_proj <- inception_4c/pool_proj
I0718 14:07:14.145702 29038 net.cpp:397] inception_4c/relu_pool_proj -> inception_4c/pool_proj (in-place)
I0718 14:07:14.146011 29038 net.cpp:150] Setting up inception_4c/relu_pool_proj
I0718 14:07:14.146035 29038 net.cpp:157] Top shape: 6 64 62 62 (1476096)
I0718 14:07:14.146046 29038 net.cpp:165] Memory required for data: 5221733448
I0718 14:07:14.146055 29038 layer_factory.hpp:76] Creating layer inception_4c/output
I0718 14:07:14.146071 29038 net.cpp:106] Creating Layer inception_4c/output
I0718 14:07:14.146085 29038 net.cpp:454] inception_4c/output <- inception_4c/1x1
I0718 14:07:14.146101 29038 net.cpp:454] inception_4c/output <- inception_4c/3x3
I0718 14:07:14.146119 29038 net.cpp:454] inception_4c/output <- inception_4c/5x5
I0718 14:07:14.146136 29038 net.cpp:454] inception_4c/output <- inception_4c/pool_proj
I0718 14:07:14.146149 29038 net.cpp:411] inception_4c/output -> inception_4c/output
I0718 14:07:14.146219 29038 net.cpp:150] Setting up inception_4c/output
I0718 14:07:14.146240 29038 net.cpp:157] Top shape: 6 512 62 62 (11808768)
I0718 14:07:14.146252 29038 net.cpp:165] Memory required for data: 5268968520
I0718 14:07:14.146263 29038 layer_factory.hpp:76] Creating layer inception_4c/output_inception_4c/output_0_split
I0718 14:07:14.146283 29038 net.cpp:106] Creating Layer inception_4c/output_inception_4c/output_0_split
I0718 14:07:14.146301 29038 net.cpp:454] inception_4c/output_inception_4c/output_0_split <- inception_4c/output
I0718 14:07:14.146317 29038 net.cpp:411] inception_4c/output_inception_4c/output_0_split -> inception_4c/output_inception_4c/output_0_split_0
I0718 14:07:14.146338 29038 net.cpp:411] inception_4c/output_inception_4c/output_0_split -> inception_4c/output_inception_4c/output_0_split_1
I0718 14:07:14.146360 29038 net.cpp:411] inception_4c/output_inception_4c/output_0_split -> inception_4c/output_inception_4c/output_0_split_2
I0718 14:07:14.146378 29038 net.cpp:411] inception_4c/output_inception_4c/output_0_split -> inception_4c/output_inception_4c/output_0_split_3
I0718 14:07:14.146502 29038 net.cpp:150] Setting up inception_4c/output_inception_4c/output_0_split
I0718 14:07:14.146522 29038 net.cpp:157] Top shape: 6 512 62 62 (11808768)
I0718 14:07:14.146538 29038 net.cpp:157] Top shape: 6 512 62 62 (11808768)
I0718 14:07:14.146554 29038 net.cpp:157] Top shape: 6 512 62 62 (11808768)
I0718 14:07:14.146567 29038 net.cpp:157] Top shape: 6 512 62 62 (11808768)
I0718 14:07:14.146579 29038 net.cpp:165] Memory required for data: 5457908808
I0718 14:07:14.146595 29038 layer_factory.hpp:76] Creating layer inception_4d/1x1
I0718 14:07:14.146623 29038 net.cpp:106] Creating Layer inception_4d/1x1
I0718 14:07:14.146647 29038 net.cpp:454] inception_4d/1x1 <- inception_4c/output_inception_4c/output_0_split_0
I0718 14:07:14.146669 29038 net.cpp:411] inception_4d/1x1 -> inception_4d/1x1
I0718 14:07:14.149389 29038 cudnn_conv_layer.cpp:194] Reallocating workspace storage: 6144
I0718 14:07:14.149479 29038 net.cpp:150] Setting up inception_4d/1x1
I0718 14:07:14.149505 29038 net.cpp:157] Top shape: 6 112 62 62 (2583168)
I0718 14:07:14.149519 29038 net.cpp:165] Memory required for data: 5468241480
I0718 14:07:14.149544 29038 layer_factory.hpp:76] Creating layer inception_4d/relu_1x1
I0718 14:07:14.149574 29038 net.cpp:106] Creating Layer inception_4d/relu_1x1
I0718 14:07:14.149591 29038 net.cpp:454] inception_4d/relu_1x1 <- inception_4d/1x1
I0718 14:07:14.149624 29038 net.cpp:397] inception_4d/relu_1x1 -> inception_4d/1x1 (in-place)
I0718 14:07:14.150708 29038 net.cpp:150] Setting up inception_4d/relu_1x1
I0718 14:07:14.150775 29038 net.cpp:157] Top shape: 6 112 62 62 (2583168)
I0718 14:07:14.150791 29038 net.cpp:165] Memory required for data: 5478574152
I0718 14:07:14.150807 29038 layer_factory.hpp:76] Creating layer inception_4d/3x3_reduce
I0718 14:07:14.150902 29038 net.cpp:106] Creating Layer inception_4d/3x3_reduce
I0718 14:07:14.150923 29038 net.cpp:454] inception_4d/3x3_reduce <- inception_4c/output_inception_4c/output_0_split_1
I0718 14:07:14.150948 29038 net.cpp:411] inception_4d/3x3_reduce -> inception_4d/3x3_reduce
I0718 14:07:14.155303 29038 cudnn_conv_layer.cpp:194] Reallocating workspace storage: 6144
I0718 14:07:14.155431 29038 net.cpp:150] Setting up inception_4d/3x3_reduce
I0718 14:07:14.155475 29038 net.cpp:157] Top shape: 6 144 62 62 (3321216)
I0718 14:07:14.155498 29038 net.cpp:165] Memory required for data: 5491859016
I0718 14:07:14.155529 29038 layer_factory.hpp:76] Creating layer inception_4d/relu_3x3_reduce
I0718 14:07:14.155565 29038 net.cpp:106] Creating Layer inception_4d/relu_3x3_reduce
I0718 14:07:14.155587 29038 net.cpp:454] inception_4d/relu_3x3_reduce <- inception_4d/3x3_reduce
I0718 14:07:14.155628 29038 net.cpp:397] inception_4d/relu_3x3_reduce -> inception_4d/3x3_reduce (in-place)
I0718 14:07:14.156218 29038 net.cpp:150] Setting up inception_4d/relu_3x3_reduce
I0718 14:07:14.156262 29038 net.cpp:157] Top shape: 6 144 62 62 (3321216)
I0718 14:07:14.156277 29038 net.cpp:165] Memory required for data: 5505143880
I0718 14:07:14.156299 29038 layer_factory.hpp:76] Creating layer inception_4d/3x3
I0718 14:07:14.156342 29038 net.cpp:106] Creating Layer inception_4d/3x3
I0718 14:07:14.156364 29038 net.cpp:454] inception_4d/3x3 <- inception_4d/3x3_reduce
I0718 14:07:14.156395 29038 net.cpp:411] inception_4d/3x3 -> inception_4d/3x3
I0718 14:07:14.167582 29038 cudnn_conv_layer.cpp:194] Reallocating workspace storage: 15552
I0718 14:07:14.167666 29038 net.cpp:150] Setting up inception_4d/3x3
I0718 14:07:14.167692 29038 net.cpp:157] Top shape: 6 288 62 62 (6642432)
I0718 14:07:14.167711 29038 net.cpp:165] Memory required for data: 5531713608
I0718 14:07:14.167742 29038 layer_factory.hpp:76] Creating layer inception_4d/relu_3x3
I0718 14:07:14.167773 29038 net.cpp:106] Creating Layer inception_4d/relu_3x3
I0718 14:07:14.167798 29038 net.cpp:454] inception_4d/relu_3x3 <- inception_4d/3x3
I0718 14:07:14.167815 29038 net.cpp:397] inception_4d/relu_3x3 -> inception_4d/3x3 (in-place)
I0718 14:07:14.168285 29038 net.cpp:150] Setting up inception_4d/relu_3x3
I0718 14:07:14.168318 29038 net.cpp:157] Top shape: 6 288 62 62 (6642432)
I0718 14:07:14.168335 29038 net.cpp:165] Memory required for data: 5558283336
I0718 14:07:14.168354 29038 layer_factory.hpp:76] Creating layer inception_4d/5x5_reduce
I0718 14:07:14.168392 29038 net.cpp:106] Creating Layer inception_4d/5x5_reduce
I0718 14:07:14.168411 29038 net.cpp:454] inception_4d/5x5_reduce <- inception_4c/output_inception_4c/output_0_split_2
I0718 14:07:14.168437 29038 net.cpp:411] inception_4d/5x5_reduce -> inception_4d/5x5_reduce
I0718 14:07:14.172462 29038 net.cpp:150] Setting up inception_4d/5x5_reduce
I0718 14:07:14.172569 29038 net.cpp:157] Top shape: 6 32 62 62 (738048)
I0718 14:07:14.172596 29038 net.cpp:165] Memory required for data: 5561235528
I0718 14:07:14.172636 29038 layer_factory.hpp:76] Creating layer inception_4d/relu_5x5_reduce
I0718 14:07:14.172678 29038 net.cpp:106] Creating Layer inception_4d/relu_5x5_reduce
I0718 14:07:14.172716 29038 net.cpp:454] inception_4d/relu_5x5_reduce <- inception_4d/5x5_reduce
I0718 14:07:14.172750 29038 net.cpp:397] inception_4d/relu_5x5_reduce -> inception_4d/5x5_reduce (in-place)
I0718 14:07:14.174180 29038 net.cpp:150] Setting up inception_4d/relu_5x5_reduce
I0718 14:07:14.174247 29038 net.cpp:157] Top shape: 6 32 62 62 (738048)
I0718 14:07:14.174269 29038 net.cpp:165] Memory required for data: 5564187720
I0718 14:07:14.174293 29038 layer_factory.hpp:76] Creating layer inception_4d/5x5
I0718 14:07:14.174376 29038 net.cpp:106] Creating Layer inception_4d/5x5
I0718 14:07:14.174434 29038 net.cpp:454] inception_4d/5x5 <- inception_4d/5x5_reduce
I0718 14:07:14.174495 29038 net.cpp:411] inception_4d/5x5 -> inception_4d/5x5
I0718 14:07:14.179895 29038 cudnn_conv_layer.cpp:194] Reallocating workspace storage: 9600
I0718 14:07:14.179999 29038 net.cpp:150] Setting up inception_4d/5x5
I0718 14:07:14.180078 29038 net.cpp:157] Top shape: 6 64 62 62 (1476096)
I0718 14:07:14.180088 29038 net.cpp:165] Memory required for data: 5570092104
I0718 14:07:14.180119 29038 layer_factory.hpp:76] Creating layer inception_4d/relu_5x5
I0718 14:07:14.180155 29038 net.cpp:106] Creating Layer inception_4d/relu_5x5
I0718 14:07:14.180171 29038 net.cpp:454] inception_4d/relu_5x5 <- inception_4d/5x5
I0718 14:07:14.180191 29038 net.cpp:397] inception_4d/relu_5x5 -> inception_4d/5x5 (in-place)
I0718 14:07:14.180483 29038 net.cpp:150] Setting up inception_4d/relu_5x5
I0718 14:07:14.180508 29038 net.cpp:157] Top shape: 6 64 62 62 (1476096)
I0718 14:07:14.180521 29038 net.cpp:165] Memory required for data: 5575996488
I0718 14:07:14.180531 29038 layer_factory.hpp:76] Creating layer inception_4d/pool
I0718 14:07:14.180547 29038 net.cpp:106] Creating Layer inception_4d/pool
I0718 14:07:14.180558 29038 net.cpp:454] inception_4d/pool <- inception_4c/output_inception_4c/output_0_split_3
I0718 14:07:14.180579 29038 net.cpp:411] inception_4d/pool -> inception_4d/pool
I0718 14:07:14.181252 29038 net.cpp:150] Setting up inception_4d/pool
I0718 14:07:14.181279 29038 net.cpp:157] Top shape: 6 512 62 62 (11808768)
I0718 14:07:14.181296 29038 net.cpp:165] Memory required for data: 5623231560
I0718 14:07:14.181309 29038 layer_factory.hpp:76] Creating layer inception_4d/pool_proj
I0718 14:07:14.181334 29038 net.cpp:106] Creating Layer inception_4d/pool_proj
I0718 14:07:14.181349 29038 net.cpp:454] inception_4d/pool_proj <- inception_4d/pool
I0718 14:07:14.181368 29038 net.cpp:411] inception_4d/pool_proj -> inception_4d/pool_proj
I0718 14:07:14.185518 29038 net.cpp:150] Setting up inception_4d/pool_proj
I0718 14:07:14.185621 29038 net.cpp:157] Top shape: 6 64 62 62 (1476096)
I0718 14:07:14.185644 29038 net.cpp:165] Memory required for data: 5629135944
I0718 14:07:14.185686 29038 layer_factory.hpp:76] Creating layer inception_4d/relu_pool_proj
I0718 14:07:14.185747 29038 net.cpp:106] Creating Layer inception_4d/relu_pool_proj
I0718 14:07:14.185780 29038 net.cpp:454] inception_4d/relu_pool_proj <- inception_4d/pool_proj
I0718 14:07:14.185806 29038 net.cpp:397] inception_4d/relu_pool_proj -> inception_4d/pool_proj (in-place)
I0718 14:07:14.186615 29038 net.cpp:150] Setting up inception_4d/relu_pool_proj
I0718 14:07:14.186660 29038 net.cpp:157] Top shape: 6 64 62 62 (1476096)
I0718 14:07:14.186677 29038 net.cpp:165] Memory required for data: 5635040328
I0718 14:07:14.186697 29038 layer_factory.hpp:76] Creating layer inception_4d/output
I0718 14:07:14.186719 29038 net.cpp:106] Creating Layer inception_4d/output
I0718 14:07:14.186738 29038 net.cpp:454] inception_4d/output <- inception_4d/1x1
I0718 14:07:14.186754 29038 net.cpp:454] inception_4d/output <- inception_4d/3x3
I0718 14:07:14.186771 29038 net.cpp:454] inception_4d/output <- inception_4d/5x5
I0718 14:07:14.186790 29038 net.cpp:454] inception_4d/output <- inception_4d/pool_proj
I0718 14:07:14.186811 29038 net.cpp:411] inception_4d/output -> inception_4d/output
I0718 14:07:14.186883 29038 net.cpp:150] Setting up inception_4d/output
I0718 14:07:14.186904 29038 net.cpp:157] Top shape: 6 528 62 62 (12177792)
I0718 14:07:14.186918 29038 net.cpp:165] Memory required for data: 5683751496
I0718 14:07:14.186930 29038 layer_factory.hpp:76] Creating layer inception_4d/output_inception_4d/output_0_split
I0718 14:07:14.186949 29038 net.cpp:106] Creating Layer inception_4d/output_inception_4d/output_0_split
I0718 14:07:14.186964 29038 net.cpp:454] inception_4d/output_inception_4d/output_0_split <- inception_4d/output
I0718 14:07:14.186985 29038 net.cpp:411] inception_4d/output_inception_4d/output_0_split -> inception_4d/output_inception_4d/output_0_split_0
I0718 14:07:14.187006 29038 net.cpp:411] inception_4d/output_inception_4d/output_0_split -> inception_4d/output_inception_4d/output_0_split_1
I0718 14:07:14.187024 29038 net.cpp:411] inception_4d/output_inception_4d/output_0_split -> inception_4d/output_inception_4d/output_0_split_2
I0718 14:07:14.187046 29038 net.cpp:411] inception_4d/output_inception_4d/output_0_split -> inception_4d/output_inception_4d/output_0_split_3
I0718 14:07:14.187224 29038 net.cpp:150] Setting up inception_4d/output_inception_4d/output_0_split
I0718 14:07:14.187257 29038 net.cpp:157] Top shape: 6 528 62 62 (12177792)
I0718 14:07:14.187271 29038 net.cpp:157] Top shape: 6 528 62 62 (12177792)
I0718 14:07:14.187288 29038 net.cpp:157] Top shape: 6 528 62 62 (12177792)
I0718 14:07:14.187304 29038 net.cpp:157] Top shape: 6 528 62 62 (12177792)
I0718 14:07:14.187316 29038 net.cpp:165] Memory required for data: 5878596168
I0718 14:07:14.187330 29038 layer_factory.hpp:76] Creating layer inception_4e/1x1
I0718 14:07:14.187355 29038 net.cpp:106] Creating Layer inception_4e/1x1
I0718 14:07:14.187378 29038 net.cpp:454] inception_4e/1x1 <- inception_4d/output_inception_4d/output_0_split_0
I0718 14:07:14.187402 29038 net.cpp:411] inception_4e/1x1 -> inception_4e/1x1
I0718 14:07:14.191623 29038 cudnn_conv_layer.cpp:194] Reallocating workspace storage: 6336
I0718 14:07:14.191900 29038 net.cpp:150] Setting up inception_4e/1x1
I0718 14:07:14.191944 29038 net.cpp:157] Top shape: 6 256 62 62 (5904384)
I0718 14:07:14.191968 29038 net.cpp:165] Memory required for data: 5902213704
I0718 14:07:14.191994 29038 layer_factory.hpp:76] Creating layer inception_4e/relu_1x1
I0718 14:07:14.192030 29038 net.cpp:106] Creating Layer inception_4e/relu_1x1
I0718 14:07:14.192054 29038 net.cpp:454] inception_4e/relu_1x1 <- inception_4e/1x1
I0718 14:07:14.192086 29038 net.cpp:397] inception_4e/relu_1x1 -> inception_4e/1x1 (in-place)
I0718 14:07:14.192577 29038 net.cpp:150] Setting up inception_4e/relu_1x1
I0718 14:07:14.192642 29038 net.cpp:157] Top shape: 6 256 62 62 (5904384)
I0718 14:07:14.192667 29038 net.cpp:165] Memory required for data: 5925831240
I0718 14:07:14.192683 29038 layer_factory.hpp:76] Creating layer inception_4e/3x3_reduce
I0718 14:07:14.192760 29038 net.cpp:106] Creating Layer inception_4e/3x3_reduce
I0718 14:07:14.192785 29038 net.cpp:454] inception_4e/3x3_reduce <- inception_4d/output_inception_4d/output_0_split_1
I0718 14:07:14.192826 29038 net.cpp:411] inception_4e/3x3_reduce -> inception_4e/3x3_reduce
I0718 14:07:14.196046 29038 cudnn_conv_layer.cpp:194] Reallocating workspace storage: 6336
I0718 14:07:14.196140 29038 net.cpp:150] Setting up inception_4e/3x3_reduce
I0718 14:07:14.196157 29038 net.cpp:157] Top shape: 6 160 62 62 (3690240)
I0718 14:07:14.196169 29038 net.cpp:165] Memory required for data: 5940592200
I0718 14:07:14.196183 29038 layer_factory.hpp:76] Creating layer inception_4e/relu_3x3_reduce
I0718 14:07:14.196203 29038 net.cpp:106] Creating Layer inception_4e/relu_3x3_reduce
I0718 14:07:14.196214 29038 net.cpp:454] inception_4e/relu_3x3_reduce <- inception_4e/3x3_reduce
I0718 14:07:14.196226 29038 net.cpp:397] inception_4e/relu_3x3_reduce -> inception_4e/3x3_reduce (in-place)
I0718 14:07:14.196846 29038 net.cpp:150] Setting up inception_4e/relu_3x3_reduce
I0718 14:07:14.196882 29038 net.cpp:157] Top shape: 6 160 62 62 (3690240)
I0718 14:07:14.196897 29038 net.cpp:165] Memory required for data: 5955353160
I0718 14:07:14.196908 29038 layer_factory.hpp:76] Creating layer inception_4e/3x3
I0718 14:07:14.196928 29038 net.cpp:106] Creating Layer inception_4e/3x3
I0718 14:07:14.196943 29038 net.cpp:454] inception_4e/3x3 <- inception_4e/3x3_reduce
I0718 14:07:14.196965 29038 net.cpp:411] inception_4e/3x3 -> inception_4e/3x3
I0718 14:07:14.203809 29038 net.cpp:150] Setting up inception_4e/3x3
I0718 14:07:14.203891 29038 net.cpp:157] Top shape: 6 320 62 62 (7380480)
I0718 14:07:14.203901 29038 net.cpp:165] Memory required for data: 5984875080
I0718 14:07:14.203915 29038 layer_factory.hpp:76] Creating layer inception_4e/relu_3x3
I0718 14:07:14.203935 29038 net.cpp:106] Creating Layer inception_4e/relu_3x3
I0718 14:07:14.203948 29038 net.cpp:454] inception_4e/relu_3x3 <- inception_4e/3x3
I0718 14:07:14.203959 29038 net.cpp:397] inception_4e/relu_3x3 -> inception_4e/3x3 (in-place)
I0718 14:07:14.204746 29038 net.cpp:150] Setting up inception_4e/relu_3x3
I0718 14:07:14.204789 29038 net.cpp:157] Top shape: 6 320 62 62 (7380480)
I0718 14:07:14.204854 29038 net.cpp:165] Memory required for data: 6014397000
I0718 14:07:14.204869 29038 layer_factory.hpp:76] Creating layer inception_4e/5x5_reduce
I0718 14:07:14.204890 29038 net.cpp:106] Creating Layer inception_4e/5x5_reduce
I0718 14:07:14.204901 29038 net.cpp:454] inception_4e/5x5_reduce <- inception_4d/output_inception_4d/output_0_split_2
I0718 14:07:14.204916 29038 net.cpp:411] inception_4e/5x5_reduce -> inception_4e/5x5_reduce
I0718 14:07:14.206718 29038 cudnn_conv_layer.cpp:194] Reallocating workspace storage: 6336
I0718 14:07:14.206840 29038 net.cpp:150] Setting up inception_4e/5x5_reduce
I0718 14:07:14.206874 29038 net.cpp:157] Top shape: 6 32 62 62 (738048)
I0718 14:07:14.206887 29038 net.cpp:165] Memory required for data: 6017349192
I0718 14:07:14.206912 29038 layer_factory.hpp:76] Creating layer inception_4e/relu_5x5_reduce
I0718 14:07:14.206935 29038 net.cpp:106] Creating Layer inception_4e/relu_5x5_reduce
I0718 14:07:14.206955 29038 net.cpp:454] inception_4e/relu_5x5_reduce <- inception_4e/5x5_reduce
I0718 14:07:14.206975 29038 net.cpp:397] inception_4e/relu_5x5_reduce -> inception_4e/5x5_reduce (in-place)
I0718 14:07:14.207355 29038 net.cpp:150] Setting up inception_4e/relu_5x5_reduce
I0718 14:07:14.207387 29038 net.cpp:157] Top shape: 6 32 62 62 (738048)
I0718 14:07:14.207403 29038 net.cpp:165] Memory required for data: 6020301384
I0718 14:07:14.207420 29038 layer_factory.hpp:76] Creating layer inception_4e/5x5
I0718 14:07:14.207450 29038 net.cpp:106] Creating Layer inception_4e/5x5
I0718 14:07:14.207466 29038 net.cpp:454] inception_4e/5x5 <- inception_4e/5x5_reduce
I0718 14:07:14.207486 29038 net.cpp:411] inception_4e/5x5 -> inception_4e/5x5
I0718 14:07:14.211410 29038 net.cpp:150] Setting up inception_4e/5x5
I0718 14:07:14.211470 29038 net.cpp:157] Top shape: 6 128 62 62 (2952192)
I0718 14:07:14.211479 29038 net.cpp:165] Memory required for data: 6032110152
I0718 14:07:14.211495 29038 layer_factory.hpp:76] Creating layer inception_4e/relu_5x5
I0718 14:07:14.211515 29038 net.cpp:106] Creating Layer inception_4e/relu_5x5
I0718 14:07:14.211527 29038 net.cpp:454] inception_4e/relu_5x5 <- inception_4e/5x5
I0718 14:07:14.211539 29038 net.cpp:397] inception_4e/relu_5x5 -> inception_4e/5x5 (in-place)
I0718 14:07:14.212172 29038 net.cpp:150] Setting up inception_4e/relu_5x5
I0718 14:07:14.212205 29038 net.cpp:157] Top shape: 6 128 62 62 (2952192)
I0718 14:07:14.212215 29038 net.cpp:165] Memory required for data: 6043918920
I0718 14:07:14.212227 29038 layer_factory.hpp:76] Creating layer inception_4e/pool
I0718 14:07:14.212241 29038 net.cpp:106] Creating Layer inception_4e/pool
I0718 14:07:14.212252 29038 net.cpp:454] inception_4e/pool <- inception_4d/output_inception_4d/output_0_split_3
I0718 14:07:14.212266 29038 net.cpp:411] inception_4e/pool -> inception_4e/pool
I0718 14:07:14.212525 29038 net.cpp:150] Setting up inception_4e/pool
I0718 14:07:14.212543 29038 net.cpp:157] Top shape: 6 528 62 62 (12177792)
I0718 14:07:14.212550 29038 net.cpp:165] Memory required for data: 6092630088
I0718 14:07:14.212558 29038 layer_factory.hpp:76] Creating layer inception_4e/pool_proj
I0718 14:07:14.212575 29038 net.cpp:106] Creating Layer inception_4e/pool_proj
I0718 14:07:14.212584 29038 net.cpp:454] inception_4e/pool_proj <- inception_4e/pool
I0718 14:07:14.212597 29038 net.cpp:411] inception_4e/pool_proj -> inception_4e/pool_proj
I0718 14:07:14.215472 29038 cudnn_conv_layer.cpp:194] Reallocating workspace storage: 6336
I0718 14:07:14.215560 29038 net.cpp:150] Setting up inception_4e/pool_proj
I0718 14:07:14.215590 29038 net.cpp:157] Top shape: 6 128 62 62 (2952192)
I0718 14:07:14.215605 29038 net.cpp:165] Memory required for data: 6104438856
I0718 14:07:14.215626 29038 layer_factory.hpp:76] Creating layer inception_4e/relu_pool_proj
I0718 14:07:14.215651 29038 net.cpp:106] Creating Layer inception_4e/relu_pool_proj
I0718 14:07:14.215673 29038 net.cpp:454] inception_4e/relu_pool_proj <- inception_4e/pool_proj
I0718 14:07:14.215694 29038 net.cpp:397] inception_4e/relu_pool_proj -> inception_4e/pool_proj (in-place)
I0718 14:07:14.216059 29038 net.cpp:150] Setting up inception_4e/relu_pool_proj
I0718 14:07:14.216091 29038 net.cpp:157] Top shape: 6 128 62 62 (2952192)
I0718 14:07:14.216105 29038 net.cpp:165] Memory required for data: 6116247624
I0718 14:07:14.216120 29038 layer_factory.hpp:76] Creating layer inception_4e/output
I0718 14:07:14.216140 29038 net.cpp:106] Creating Layer inception_4e/output
I0718 14:07:14.216155 29038 net.cpp:454] inception_4e/output <- inception_4e/1x1
I0718 14:07:14.216171 29038 net.cpp:454] inception_4e/output <- inception_4e/3x3
I0718 14:07:14.216184 29038 net.cpp:454] inception_4e/output <- inception_4e/5x5
I0718 14:07:14.216199 29038 net.cpp:454] inception_4e/output <- inception_4e/pool_proj
I0718 14:07:14.216220 29038 net.cpp:411] inception_4e/output -> inception_4e/output
I0718 14:07:14.216286 29038 net.cpp:150] Setting up inception_4e/output
I0718 14:07:14.216305 29038 net.cpp:157] Top shape: 6 832 62 62 (19189248)
I0718 14:07:14.216316 29038 net.cpp:165] Memory required for data: 6193004616
I0718 14:07:14.216336 29038 layer_factory.hpp:76] Creating layer pool4/3x3_s2
I0718 14:07:14.216351 29038 net.cpp:106] Creating Layer pool4/3x3_s2
I0718 14:07:14.216362 29038 net.cpp:454] pool4/3x3_s2 <- inception_4e/output
I0718 14:07:14.216382 29038 net.cpp:411] pool4/3x3_s2 -> pool4/3x3_s2
I0718 14:07:14.217072 29038 net.cpp:150] Setting up pool4/3x3_s2
I0718 14:07:14.217102 29038 net.cpp:157] Top shape: 6 832 31 31 (4797312)
I0718 14:07:14.217114 29038 net.cpp:165] Memory required for data: 6212193864
I0718 14:07:14.217126 29038 layer_factory.hpp:76] Creating layer pool4/3x3_s2_pool4/3x3_s2_0_split
I0718 14:07:14.217149 29038 net.cpp:106] Creating Layer pool4/3x3_s2_pool4/3x3_s2_0_split
I0718 14:07:14.217162 29038 net.cpp:454] pool4/3x3_s2_pool4/3x3_s2_0_split <- pool4/3x3_s2
I0718 14:07:14.217188 29038 net.cpp:411] pool4/3x3_s2_pool4/3x3_s2_0_split -> pool4/3x3_s2_pool4/3x3_s2_0_split_0
I0718 14:07:14.217207 29038 net.cpp:411] pool4/3x3_s2_pool4/3x3_s2_0_split -> pool4/3x3_s2_pool4/3x3_s2_0_split_1
I0718 14:07:14.217223 29038 net.cpp:411] pool4/3x3_s2_pool4/3x3_s2_0_split -> pool4/3x3_s2_pool4/3x3_s2_0_split_2
I0718 14:07:14.217238 29038 net.cpp:411] pool4/3x3_s2_pool4/3x3_s2_0_split -> pool4/3x3_s2_pool4/3x3_s2_0_split_3
I0718 14:07:14.217358 29038 net.cpp:150] Setting up pool4/3x3_s2_pool4/3x3_s2_0_split
I0718 14:07:14.217378 29038 net.cpp:157] Top shape: 6 832 31 31 (4797312)
I0718 14:07:14.217392 29038 net.cpp:157] Top shape: 6 832 31 31 (4797312)
I0718 14:07:14.217406 29038 net.cpp:157] Top shape: 6 832 31 31 (4797312)
I0718 14:07:14.217419 29038 net.cpp:157] Top shape: 6 832 31 31 (4797312)
I0718 14:07:14.217432 29038 net.cpp:165] Memory required for data: 6288950856
I0718 14:07:14.217443 29038 layer_factory.hpp:76] Creating layer inception_5a/1x1
I0718 14:07:14.217468 29038 net.cpp:106] Creating Layer inception_5a/1x1
I0718 14:07:14.217480 29038 net.cpp:454] inception_5a/1x1 <- pool4/3x3_s2_pool4/3x3_s2_0_split_0
I0718 14:07:14.217496 29038 net.cpp:411] inception_5a/1x1 -> inception_5a/1x1
I0718 14:07:14.228328 29038 cudnn_conv_layer.cpp:194] Reallocating workspace storage: 9984
I0718 14:07:14.228438 29038 net.cpp:150] Setting up inception_5a/1x1
I0718 14:07:14.228467 29038 net.cpp:157] Top shape: 6 256 31 31 (1476096)
I0718 14:07:14.228480 29038 net.cpp:165] Memory required for data: 6294855240
I0718 14:07:14.228502 29038 layer_factory.hpp:76] Creating layer inception_5a/relu_1x1
I0718 14:07:14.228528 29038 net.cpp:106] Creating Layer inception_5a/relu_1x1
I0718 14:07:14.228543 29038 net.cpp:454] inception_5a/relu_1x1 <- inception_5a/1x1
I0718 14:07:14.228564 29038 net.cpp:397] inception_5a/relu_1x1 -> inception_5a/1x1 (in-place)
I0718 14:07:14.228865 29038 net.cpp:150] Setting up inception_5a/relu_1x1
I0718 14:07:14.228900 29038 net.cpp:157] Top shape: 6 256 31 31 (1476096)
I0718 14:07:14.228914 29038 net.cpp:165] Memory required for data: 6300759624
I0718 14:07:14.228927 29038 layer_factory.hpp:76] Creating layer inception_5a/3x3_reduce
I0718 14:07:14.229006 29038 net.cpp:106] Creating Layer inception_5a/3x3_reduce
I0718 14:07:14.229022 29038 net.cpp:454] inception_5a/3x3_reduce <- pool4/3x3_s2_pool4/3x3_s2_0_split_1
I0718 14:07:14.229043 29038 net.cpp:411] inception_5a/3x3_reduce -> inception_5a/3x3_reduce
I0718 14:07:14.241972 29038 cudnn_conv_layer.cpp:194] Reallocating workspace storage: 9984
I0718 14:07:14.242085 29038 net.cpp:150] Setting up inception_5a/3x3_reduce
I0718 14:07:14.242117 29038 net.cpp:157] Top shape: 6 160 31 31 (922560)
I0718 14:07:14.242131 29038 net.cpp:165] Memory required for data: 6304449864
I0718 14:07:14.242152 29038 layer_factory.hpp:76] Creating layer inception_5a/relu_3x3_reduce
I0718 14:07:14.242175 29038 net.cpp:106] Creating Layer inception_5a/relu_3x3_reduce
I0718 14:07:14.242192 29038 net.cpp:454] inception_5a/relu_3x3_reduce <- inception_5a/3x3_reduce
I0718 14:07:14.242208 29038 net.cpp:397] inception_5a/relu_3x3_reduce -> inception_5a/3x3_reduce (in-place)
I0718 14:07:14.243151 29038 net.cpp:150] Setting up inception_5a/relu_3x3_reduce
I0718 14:07:14.243192 29038 net.cpp:157] Top shape: 6 160 31 31 (922560)
I0718 14:07:14.243206 29038 net.cpp:165] Memory required for data: 6308140104
I0718 14:07:14.243219 29038 layer_factory.hpp:76] Creating layer inception_5a/3x3
I0718 14:07:14.243248 29038 net.cpp:106] Creating Layer inception_5a/3x3
I0718 14:07:14.243269 29038 net.cpp:454] inception_5a/3x3 <- inception_5a/3x3_reduce
I0718 14:07:14.243286 29038 net.cpp:411] inception_5a/3x3 -> inception_5a/3x3
I0718 14:07:14.251711 29038 net.cpp:150] Setting up inception_5a/3x3
I0718 14:07:14.251791 29038 net.cpp:157] Top shape: 6 320 31 31 (1845120)
I0718 14:07:14.251804 29038 net.cpp:165] Memory required for data: 6315520584
I0718 14:07:14.251827 29038 layer_factory.hpp:76] Creating layer inception_5a/relu_3x3
I0718 14:07:14.251853 29038 net.cpp:106] Creating Layer inception_5a/relu_3x3
I0718 14:07:14.251869 29038 net.cpp:454] inception_5a/relu_3x3 <- inception_5a/3x3
I0718 14:07:14.251885 29038 net.cpp:397] inception_5a/relu_3x3 -> inception_5a/3x3 (in-place)
I0718 14:07:14.252621 29038 net.cpp:150] Setting up inception_5a/relu_3x3
I0718 14:07:14.252657 29038 net.cpp:157] Top shape: 6 320 31 31 (1845120)
I0718 14:07:14.252678 29038 net.cpp:165] Memory required for data: 6322901064
I0718 14:07:14.252691 29038 layer_factory.hpp:76] Creating layer inception_5a/5x5_reduce
I0718 14:07:14.252732 29038 net.cpp:106] Creating Layer inception_5a/5x5_reduce
I0718 14:07:14.252748 29038 net.cpp:454] inception_5a/5x5_reduce <- pool4/3x3_s2_pool4/3x3_s2_0_split_2
I0718 14:07:14.252766 29038 net.cpp:411] inception_5a/5x5_reduce -> inception_5a/5x5_reduce
I0718 14:07:14.255651 29038 net.cpp:150] Setting up inception_5a/5x5_reduce
I0718 14:07:14.255719 29038 net.cpp:157] Top shape: 6 32 31 31 (184512)
I0718 14:07:14.255733 29038 net.cpp:165] Memory required for data: 6323639112
I0718 14:07:14.255755 29038 layer_factory.hpp:76] Creating layer inception_5a/relu_5x5_reduce
I0718 14:07:14.255784 29038 net.cpp:106] Creating Layer inception_5a/relu_5x5_reduce
I0718 14:07:14.255800 29038 net.cpp:454] inception_5a/relu_5x5_reduce <- inception_5a/5x5_reduce
I0718 14:07:14.255818 29038 net.cpp:397] inception_5a/relu_5x5_reduce -> inception_5a/5x5_reduce (in-place)
I0718 14:07:14.256124 29038 net.cpp:150] Setting up inception_5a/relu_5x5_reduce
I0718 14:07:14.256150 29038 net.cpp:157] Top shape: 6 32 31 31 (184512)
I0718 14:07:14.256163 29038 net.cpp:165] Memory required for data: 6324377160
I0718 14:07:14.256175 29038 layer_factory.hpp:76] Creating layer inception_5a/5x5
I0718 14:07:14.256230 29038 net.cpp:106] Creating Layer inception_5a/5x5
I0718 14:07:14.256244 29038 net.cpp:454] inception_5a/5x5 <- inception_5a/5x5_reduce
I0718 14:07:14.256261 29038 net.cpp:411] inception_5a/5x5 -> inception_5a/5x5
I0718 14:07:14.259743 29038 net.cpp:150] Setting up inception_5a/5x5
I0718 14:07:14.259825 29038 net.cpp:157] Top shape: 6 128 31 31 (738048)
I0718 14:07:14.259840 29038 net.cpp:165] Memory required for data: 6327329352
I0718 14:07:14.259863 29038 layer_factory.hpp:76] Creating layer inception_5a/relu_5x5
I0718 14:07:14.259950 29038 net.cpp:106] Creating Layer inception_5a/relu_5x5
I0718 14:07:14.259968 29038 net.cpp:454] inception_5a/relu_5x5 <- inception_5a/5x5
I0718 14:07:14.259994 29038 net.cpp:397] inception_5a/relu_5x5 -> inception_5a/5x5 (in-place)
I0718 14:07:14.260722 29038 net.cpp:150] Setting up inception_5a/relu_5x5
I0718 14:07:14.260752 29038 net.cpp:157] Top shape: 6 128 31 31 (738048)
I0718 14:07:14.260766 29038 net.cpp:165] Memory required for data: 6330281544
I0718 14:07:14.260778 29038 layer_factory.hpp:76] Creating layer inception_5a/pool
I0718 14:07:14.260797 29038 net.cpp:106] Creating Layer inception_5a/pool
I0718 14:07:14.260810 29038 net.cpp:454] inception_5a/pool <- pool4/3x3_s2_pool4/3x3_s2_0_split_3
I0718 14:07:14.260829 29038 net.cpp:411] inception_5a/pool -> inception_5a/pool
I0718 14:07:14.261170 29038 net.cpp:150] Setting up inception_5a/pool
I0718 14:07:14.261198 29038 net.cpp:157] Top shape: 6 832 31 31 (4797312)
I0718 14:07:14.261211 29038 net.cpp:165] Memory required for data: 6349470792
I0718 14:07:14.261224 29038 layer_factory.hpp:76] Creating layer inception_5a/pool_proj
I0718 14:07:14.261245 29038 net.cpp:106] Creating Layer inception_5a/pool_proj
I0718 14:07:14.261260 29038 net.cpp:454] inception_5a/pool_proj <- inception_5a/pool
I0718 14:07:14.261279 29038 net.cpp:411] inception_5a/pool_proj -> inception_5a/pool_proj
I0718 14:07:14.265818 29038 cudnn_conv_layer.cpp:194] Reallocating workspace storage: 9984
I0718 14:07:14.265944 29038 net.cpp:150] Setting up inception_5a/pool_proj
I0718 14:07:14.265969 29038 net.cpp:157] Top shape: 6 128 31 31 (738048)
I0718 14:07:14.265981 29038 net.cpp:165] Memory required for data: 6352422984
I0718 14:07:14.266003 29038 layer_factory.hpp:76] Creating layer inception_5a/relu_pool_proj
I0718 14:07:14.266033 29038 net.cpp:106] Creating Layer inception_5a/relu_pool_proj
I0718 14:07:14.266052 29038 net.cpp:454] inception_5a/relu_pool_proj <- inception_5a/pool_proj
I0718 14:07:14.266068 29038 net.cpp:397] inception_5a/relu_pool_proj -> inception_5a/pool_proj (in-place)
I0718 14:07:14.266729 29038 net.cpp:150] Setting up inception_5a/relu_pool_proj
I0718 14:07:14.266765 29038 net.cpp:157] Top shape: 6 128 31 31 (738048)
I0718 14:07:14.266780 29038 net.cpp:165] Memory required for data: 6355375176
I0718 14:07:14.266798 29038 layer_factory.hpp:76] Creating layer inception_5a/output
I0718 14:07:14.266819 29038 net.cpp:106] Creating Layer inception_5a/output
I0718 14:07:14.266840 29038 net.cpp:454] inception_5a/output <- inception_5a/1x1
I0718 14:07:14.266855 29038 net.cpp:454] inception_5a/output <- inception_5a/3x3
I0718 14:07:14.266870 29038 net.cpp:454] inception_5a/output <- inception_5a/5x5
I0718 14:07:14.266885 29038 net.cpp:454] inception_5a/output <- inception_5a/pool_proj
I0718 14:07:14.266901 29038 net.cpp:411] inception_5a/output -> inception_5a/output
I0718 14:07:14.266971 29038 net.cpp:150] Setting up inception_5a/output
I0718 14:07:14.266990 29038 net.cpp:157] Top shape: 6 832 31 31 (4797312)
I0718 14:07:14.267002 29038 net.cpp:165] Memory required for data: 6374564424
I0718 14:07:14.267016 29038 layer_factory.hpp:76] Creating layer inception_5a/output_inception_5a/output_0_split
I0718 14:07:14.267033 29038 net.cpp:106] Creating Layer inception_5a/output_inception_5a/output_0_split
I0718 14:07:14.267047 29038 net.cpp:454] inception_5a/output_inception_5a/output_0_split <- inception_5a/output
I0718 14:07:14.267066 29038 net.cpp:411] inception_5a/output_inception_5a/output_0_split -> inception_5a/output_inception_5a/output_0_split_0
I0718 14:07:14.267082 29038 net.cpp:411] inception_5a/output_inception_5a/output_0_split -> inception_5a/output_inception_5a/output_0_split_1
I0718 14:07:14.267099 29038 net.cpp:411] inception_5a/output_inception_5a/output_0_split -> inception_5a/output_inception_5a/output_0_split_2
I0718 14:07:14.267115 29038 net.cpp:411] inception_5a/output_inception_5a/output_0_split -> inception_5a/output_inception_5a/output_0_split_3
I0718 14:07:14.267235 29038 net.cpp:150] Setting up inception_5a/output_inception_5a/output_0_split
I0718 14:07:14.267320 29038 net.cpp:157] Top shape: 6 832 31 31 (4797312)
I0718 14:07:14.267334 29038 net.cpp:157] Top shape: 6 832 31 31 (4797312)
I0718 14:07:14.267349 29038 net.cpp:157] Top shape: 6 832 31 31 (4797312)
I0718 14:07:14.267364 29038 net.cpp:157] Top shape: 6 832 31 31 (4797312)
I0718 14:07:14.267375 29038 net.cpp:165] Memory required for data: 6451321416
I0718 14:07:14.267387 29038 layer_factory.hpp:76] Creating layer inception_5b/1x1
I0718 14:07:14.267406 29038 net.cpp:106] Creating Layer inception_5b/1x1
I0718 14:07:14.267419 29038 net.cpp:454] inception_5b/1x1 <- inception_5a/output_inception_5a/output_0_split_0
I0718 14:07:14.267438 29038 net.cpp:411] inception_5b/1x1 -> inception_5b/1x1
I0718 14:07:14.273998 29038 cudnn_conv_layer.cpp:194] Reallocating workspace storage: 9984
I0718 14:07:14.274101 29038 net.cpp:150] Setting up inception_5b/1x1
I0718 14:07:14.274123 29038 net.cpp:157] Top shape: 6 384 31 31 (2214144)
I0718 14:07:14.274137 29038 net.cpp:165] Memory required for data: 6460177992
I0718 14:07:14.274158 29038 layer_factory.hpp:76] Creating layer inception_5b/relu_1x1
I0718 14:07:14.274184 29038 net.cpp:106] Creating Layer inception_5b/relu_1x1
I0718 14:07:14.274200 29038 net.cpp:454] inception_5b/relu_1x1 <- inception_5b/1x1
I0718 14:07:14.274217 29038 net.cpp:397] inception_5b/relu_1x1 -> inception_5b/1x1 (in-place)
I0718 14:07:14.274945 29038 net.cpp:150] Setting up inception_5b/relu_1x1
I0718 14:07:14.274979 29038 net.cpp:157] Top shape: 6 384 31 31 (2214144)
I0718 14:07:14.274992 29038 net.cpp:165] Memory required for data: 6469034568
I0718 14:07:14.275008 29038 layer_factory.hpp:76] Creating layer inception_5b/3x3_reduce
I0718 14:07:14.275033 29038 net.cpp:106] Creating Layer inception_5b/3x3_reduce
I0718 14:07:14.275055 29038 net.cpp:454] inception_5b/3x3_reduce <- inception_5a/output_inception_5a/output_0_split_1
I0718 14:07:14.275075 29038 net.cpp:411] inception_5b/3x3_reduce -> inception_5b/3x3_reduce
I0718 14:07:14.280421 29038 cudnn_conv_layer.cpp:194] Reallocating workspace storage: 9984
I0718 14:07:14.280529 29038 net.cpp:150] Setting up inception_5b/3x3_reduce
I0718 14:07:14.280552 29038 net.cpp:157] Top shape: 6 192 31 31 (1107072)
I0718 14:07:14.280565 29038 net.cpp:165] Memory required for data: 6473462856
I0718 14:07:14.280586 29038 layer_factory.hpp:76] Creating layer inception_5b/relu_3x3_reduce
I0718 14:07:14.280671 29038 net.cpp:106] Creating Layer inception_5b/relu_3x3_reduce
I0718 14:07:14.280691 29038 net.cpp:454] inception_5b/relu_3x3_reduce <- inception_5b/3x3_reduce
I0718 14:07:14.280709 29038 net.cpp:397] inception_5b/relu_3x3_reduce -> inception_5b/3x3_reduce (in-place)
I0718 14:07:14.281388 29038 net.cpp:150] Setting up inception_5b/relu_3x3_reduce
I0718 14:07:14.281420 29038 net.cpp:157] Top shape: 6 192 31 31 (1107072)
I0718 14:07:14.281433 29038 net.cpp:165] Memory required for data: 6477891144
I0718 14:07:14.281447 29038 layer_factory.hpp:76] Creating layer inception_5b/3x3
I0718 14:07:14.281476 29038 net.cpp:106] Creating Layer inception_5b/3x3
I0718 14:07:14.281491 29038 net.cpp:454] inception_5b/3x3 <- inception_5b/3x3_reduce
I0718 14:07:14.281509 29038 net.cpp:411] inception_5b/3x3 -> inception_5b/3x3
I0718 14:07:14.297080 29038 net.cpp:150] Setting up inception_5b/3x3
I0718 14:07:14.297166 29038 net.cpp:157] Top shape: 6 384 31 31 (2214144)
I0718 14:07:14.297180 29038 net.cpp:165] Memory required for data: 6486747720
I0718 14:07:14.297201 29038 layer_factory.hpp:76] Creating layer inception_5b/relu_3x3
I0718 14:07:14.297226 29038 net.cpp:106] Creating Layer inception_5b/relu_3x3
I0718 14:07:14.297242 29038 net.cpp:454] inception_5b/relu_3x3 <- inception_5b/3x3
I0718 14:07:14.297260 29038 net.cpp:397] inception_5b/relu_3x3 -> inception_5b/3x3 (in-place)
I0718 14:07:14.297844 29038 net.cpp:150] Setting up inception_5b/relu_3x3
I0718 14:07:14.297871 29038 net.cpp:157] Top shape: 6 384 31 31 (2214144)
I0718 14:07:14.302691 29038 net.cpp:165] Memory required for data: 6495604296
I0718 14:07:14.302742 29038 layer_factory.hpp:76] Creating layer inception_5b/5x5_reduce
I0718 14:07:14.302827 29038 net.cpp:106] Creating Layer inception_5b/5x5_reduce
I0718 14:07:14.302842 29038 net.cpp:454] inception_5b/5x5_reduce <- inception_5a/output_inception_5a/output_0_split_2
I0718 14:07:14.302863 29038 net.cpp:411] inception_5b/5x5_reduce -> inception_5b/5x5_reduce
I0718 14:07:14.305438 29038 net.cpp:150] Setting up inception_5b/5x5_reduce
I0718 14:07:14.305486 29038 net.cpp:157] Top shape: 6 48 31 31 (276768)
I0718 14:07:14.305495 29038 net.cpp:165] Memory required for data: 6496711368
I0718 14:07:14.305513 29038 layer_factory.hpp:76] Creating layer inception_5b/relu_5x5_reduce
I0718 14:07:14.305539 29038 net.cpp:106] Creating Layer inception_5b/relu_5x5_reduce
I0718 14:07:14.305552 29038 net.cpp:454] inception_5b/relu_5x5_reduce <- inception_5b/5x5_reduce
I0718 14:07:14.305565 29038 net.cpp:397] inception_5b/relu_5x5_reduce -> inception_5b/5x5_reduce (in-place)
I0718 14:07:14.306282 29038 net.cpp:150] Setting up inception_5b/relu_5x5_reduce
I0718 14:07:14.306301 29038 net.cpp:157] Top shape: 6 48 31 31 (276768)
I0718 14:07:14.306309 29038 net.cpp:165] Memory required for data: 6497818440
I0718 14:07:14.306318 29038 layer_factory.hpp:76] Creating layer inception_5b/5x5
I0718 14:07:14.306341 29038 net.cpp:106] Creating Layer inception_5b/5x5
I0718 14:07:14.306351 29038 net.cpp:454] inception_5b/5x5 <- inception_5b/5x5_reduce
I0718 14:07:14.306367 29038 net.cpp:411] inception_5b/5x5 -> inception_5b/5x5
I0718 14:07:14.310618 29038 net.cpp:150] Setting up inception_5b/5x5
I0718 14:07:14.310709 29038 net.cpp:157] Top shape: 6 128 31 31 (738048)
I0718 14:07:14.310725 29038 net.cpp:165] Memory required for data: 6500770632
I0718 14:07:14.310751 29038 layer_factory.hpp:76] Creating layer inception_5b/relu_5x5
I0718 14:07:14.310776 29038 net.cpp:106] Creating Layer inception_5b/relu_5x5
I0718 14:07:14.310794 29038 net.cpp:454] inception_5b/relu_5x5 <- inception_5b/5x5
I0718 14:07:14.310813 29038 net.cpp:397] inception_5b/relu_5x5 -> inception_5b/5x5 (in-place)
I0718 14:07:14.311130 29038 net.cpp:150] Setting up inception_5b/relu_5x5
I0718 14:07:14.311157 29038 net.cpp:157] Top shape: 6 128 31 31 (738048)
I0718 14:07:14.311172 29038 net.cpp:165] Memory required for data: 6503722824
I0718 14:07:14.311194 29038 layer_factory.hpp:76] Creating layer inception_5b/pool
I0718 14:07:14.311216 29038 net.cpp:106] Creating Layer inception_5b/pool
I0718 14:07:14.311233 29038 net.cpp:454] inception_5b/pool <- inception_5a/output_inception_5a/output_0_split_3
I0718 14:07:14.311256 29038 net.cpp:411] inception_5b/pool -> inception_5b/pool
I0718 14:07:14.312046 29038 net.cpp:150] Setting up inception_5b/pool
I0718 14:07:14.312090 29038 net.cpp:157] Top shape: 6 832 31 31 (4797312)
I0718 14:07:14.312106 29038 net.cpp:165] Memory required for data: 6522912072
I0718 14:07:14.312122 29038 layer_factory.hpp:76] Creating layer inception_5b/pool_proj
I0718 14:07:14.312151 29038 net.cpp:106] Creating Layer inception_5b/pool_proj
I0718 14:07:14.312168 29038 net.cpp:454] inception_5b/pool_proj <- inception_5b/pool
I0718 14:07:14.312196 29038 net.cpp:411] inception_5b/pool_proj -> inception_5b/pool_proj
I0718 14:07:14.317531 29038 cudnn_conv_layer.cpp:194] Reallocating workspace storage: 9984
I0718 14:07:14.317659 29038 net.cpp:150] Setting up inception_5b/pool_proj
I0718 14:07:14.317685 29038 net.cpp:157] Top shape: 6 128 31 31 (738048)
I0718 14:07:14.317701 29038 net.cpp:165] Memory required for data: 6525864264
I0718 14:07:14.317728 29038 layer_factory.hpp:76] Creating layer inception_5b/relu_pool_proj
I0718 14:07:14.317764 29038 net.cpp:106] Creating Layer inception_5b/relu_pool_proj
I0718 14:07:14.317782 29038 net.cpp:454] inception_5b/relu_pool_proj <- inception_5b/pool_proj
I0718 14:07:14.317802 29038 net.cpp:397] inception_5b/relu_pool_proj -> inception_5b/pool_proj (in-place)
I0718 14:07:14.318136 29038 net.cpp:150] Setting up inception_5b/relu_pool_proj
I0718 14:07:14.318164 29038 net.cpp:157] Top shape: 6 128 31 31 (738048)
I0718 14:07:14.318177 29038 net.cpp:165] Memory required for data: 6528816456
I0718 14:07:14.318238 29038 layer_factory.hpp:76] Creating layer inception_5b/output
I0718 14:07:14.318266 29038 net.cpp:106] Creating Layer inception_5b/output
I0718 14:07:14.318282 29038 net.cpp:454] inception_5b/output <- inception_5b/1x1
I0718 14:07:14.318300 29038 net.cpp:454] inception_5b/output <- inception_5b/3x3
I0718 14:07:14.318320 29038 net.cpp:454] inception_5b/output <- inception_5b/5x5
I0718 14:07:14.318336 29038 net.cpp:454] inception_5b/output <- inception_5b/pool_proj
I0718 14:07:14.318356 29038 net.cpp:411] inception_5b/output -> inception_5b/output
I0718 14:07:14.318473 29038 net.cpp:150] Setting up inception_5b/output
I0718 14:07:14.318516 29038 net.cpp:157] Top shape: 6 1024 31 31 (5904384)
I0718 14:07:14.318541 29038 net.cpp:165] Memory required for data: 6552433992
I0718 14:07:14.318567 29038 layer_factory.hpp:76] Creating layer pool5/7x7_s1
I0718 14:07:14.318604 29038 net.cpp:106] Creating Layer pool5/7x7_s1
I0718 14:07:14.318640 29038 net.cpp:454] pool5/7x7_s1 <- inception_5b/output
I0718 14:07:14.318681 29038 net.cpp:411] pool5/7x7_s1 -> pool5/7x7_s1
I0718 14:07:14.720654 29038 cudnn_conv_layer.cpp:194] Reallocating workspace storage: 602112
I0718 14:07:14.721366 29038 net.cpp:150] Setting up pool5/7x7_s1
I0718 14:07:14.721439 29038 net.cpp:157] Top shape: 6 512 25 25 (1920000)
I0718 14:07:14.721463 29038 net.cpp:165] Memory required for data: 6560113992
I0718 14:07:14.721505 29038 layer_factory.hpp:76] Creating layer pool5/drop_7x7_s1
I0718 14:07:14.721554 29038 net.cpp:106] Creating Layer pool5/drop_7x7_s1
I0718 14:07:14.721582 29038 net.cpp:454] pool5/drop_7x7_s1 <- pool5/7x7_s1
I0718 14:07:14.721621 29038 net.cpp:397] pool5/drop_7x7_s1 -> pool5/7x7_s1 (in-place)
I0718 14:07:14.721765 29038 net.cpp:150] Setting up pool5/drop_7x7_s1
I0718 14:07:14.721809 29038 net.cpp:157] Top shape: 6 512 25 25 (1920000)
I0718 14:07:14.721837 29038 net.cpp:165] Memory required for data: 6567793992
I0718 14:07:14.721859 29038 layer_factory.hpp:76] Creating layer loss3/classifier
I0718 14:07:14.721920 29038 net.cpp:106] Creating Layer loss3/classifier
I0718 14:07:14.721951 29038 net.cpp:454] loss3/classifier <- pool5/7x7_s1
I0718 14:07:14.721977 29038 net.cpp:411] loss3/classifier -> loss3/classifier
I0718 14:07:14.732069 29038 net.cpp:150] Setting up loss3/classifier
I0718 14:07:14.732118 29038 net.cpp:157] Top shape: 6 2 (12)
I0718 14:07:14.732130 29038 net.cpp:165] Memory required for data: 6567794040
I0718 14:07:14.732146 29038 layer_factory.hpp:76] Creating layer loss3/loss3
I0718 14:07:14.732163 29038 net.cpp:106] Creating Layer loss3/loss3
I0718 14:07:14.732175 29038 net.cpp:454] loss3/loss3 <- loss3/classifier
I0718 14:07:14.732189 29038 net.cpp:411] loss3/loss3 -> loss3/loss3
I0718 14:07:14.732620 29038 net.cpp:150] Setting up loss3/loss3
I0718 14:07:14.732640 29038 net.cpp:157] Top shape: 6 2 (12)
I0718 14:07:14.732648 29038 net.cpp:165] Memory required for data: 6567794088
I0718 14:07:14.732662 29038 layer_factory.hpp:76] Creating layer conv61
I0718 14:07:14.732681 29038 net.cpp:106] Creating Layer conv61
I0718 14:07:14.732691 29038 net.cpp:454] conv61 <- loss3/loss3
I0718 14:07:14.732704 29038 net.cpp:411] conv61 -> conv61
F0718 14:07:14.732774 29038 base_conv_layer.cpp:28] Check failed: num_spatial_axes_ == 2 (0 vs. 2) kernel_h & kernel_w can only be used for 2D convolution.
