…
I0718 14:21:33.214977 31595 net.cpp:322] The NetState phase (0) differed from the phase (1) specified by a rule in layer data
I0718 14:21:33.216481 31595 net.cpp:49] Initializing net from parameters: 
name: "GoogleNet"
state {
  phase: TRAIN
}
layer {
  name: "data"
  type: "ImageData"
  top: "data"
  top: "label"
  include {
    phase: TRAIN
  }
  transform_param {
    mirror: true
    mean_value: 163
    mean_value: 116
    mean_value: 181
  }
  image_data_param {
    source: "../lists/mitosis_train.lst"
    batch_size: 4
    shuffle: true
  }
}
layer {
  name: "conv1/7x7_s2"
  type: "Convolution"
  bottom: "data"
  top: "conv1/7x7_s2"
  param {
    lr_mult: 0
    decay_mult: 1
  }
  param {
    lr_mult: 2
    decay_mult: 0
  }
  convolution_param {
    num_output: 64
    pad: 3
    kernel_size: 7
    stride: 2
    weight_filler {
      type: "xavier"
    }
    bias_filler {
      type: "constant"
      value: 0.2
    }
  }
}
layer {
  name: "conv1/relu_7x7"
  type: "ReLU"
  bottom: "conv1/7x7_s2"
  top: "conv1/7x7_s2"
}
layer {
  name: "pool1/3x3_s2"
  type: "Pooling"
  bottom: "conv1/7x7_s2"
  top: "pool1/3x3_s2"
  pooling_param {
    pool: MAX
    kernel_size: 3
    stride: 2
  }
}
layer {
  name: "pool1/norm1"
  type: "LRN"
  bottom: "pool1/3x3_s2"
  top: "pool1/norm1"
  lrn_param {
    local_size: 5
    alpha: 0.0001
    beta: 0.75
  }
}
layer {
  name: "conv2/3x3_reduce"
  type: "Convolution"
  bottom: "pool1/norm1"
  top: "conv2/3x3_reduce"
  param {
    lr_mult: 0
    decay_mult: 1
  }
  param {
    lr_mult: 2
    decay_mult: 0
  }
  convolution_param {
    num_output: 64
    kernel_size: 1
    weight_filler {
      type: "xavier"
    }
    bias_filler {
      type: "constant"
      value: 0.2
    }
  }
}
layer {
  name: "conv2/relu_3x3_reduce"
  type: "ReLU"
  bottom: "conv2/3x3_reduce"
  top: "conv2/3x3_reduce"
}
layer {
  name: "conv2/3x3"
  type: "Convolution"
  bottom: "conv2/3x3_reduce"
  top: "conv2/3x3"
  param {
    lr_mult: 0
    decay_mult: 1
  }
  param {
    lr_mult: 2
    decay_mult: 0
  }
  convolution_param {
    num_output: 192
    pad: 1
    kernel_size: 3
    weight_filler {
      type: "xavier"
    }
    bias_filler {
      type: "constant"
      value: 0.2
    }
  }
}
layer {
  name: "conv2/relu_3x3"
  type: "ReLU"
  bottom: "conv2/3x3"
  top: "conv2/3x3"
}
layer {
  name: "conv2/norm2"
  type: "LRN"
  bottom: "conv2/3x3"
  top: "conv2/norm2"
  lrn_param {
    local_size: 5
    alpha: 0.0001
    beta: 0.75
  }
}
layer {
  name: "pool2/3x3_s2"
  type: "Pooling"
  bottom: "conv2/norm2"
  top: "pool2/3x3_s2"
  pooling_param {
    pool: MAX
    kernel_size: 3
    stride: 2
  }
}
layer {
  name: "inception_3a/1x1"
  type: "Convolution"
  bottom: "pool2/3x3_s2"
  top: "inception_3a/1x1"
  param {
    lr_mult: 0
    decay_mult: 1
  }
  param {
    lr_mult: 2
    decay_mult: 0
  }
  convolution_param {
    num_output: 64
    kernel_size: 1
    weight_filler {
      type: "xavier"
    }
    bias_filler {
      type: "constant"
      value: 0.2
    }
  }
}
layer {
  name: "inception_3a/relu_1x1"
  type: "ReLU"
  bottom: "inception_3a/1x1"
  top: "inception_3a/1x1"
}
layer {
  name: "inception_3a/3x3_reduce"
  type: "Convolution"
  bottom: "pool2/3x3_s2"
  top: "inception_3a/3x3_reduce"
  param {
    lr_mult: 0
    decay_mult: 1
  }
  param {
    lr_mult: 2
    decay_mult: 0
  }
  convolution_param {
    num_output: 96
    kernel_size: 1
    weight_filler {
      type: "xavier"
    }
    bias_filler {
      type: "constant"
      value: 0.2
    }
  }
}
layer {
  name: "inception_3a/relu_3x3_reduce"
  type: "ReLU"
  bottom: "inception_3a/3x3_reduce"
  top: "inception_3a/3x3_reduce"
}
layer {
  name: "inception_3a/3x3"
  type: "Convolution"
  bottom: "inception_3a/3x3_reduce"
  top: "inception_3a/3x3"
  param {
    lr_mult: 0
    decay_mult: 1
  }
  param {
    lr_mult: 2
    decay_mult: 0
  }
  convolution_param {
    num_output: 128
    pad: 1
    kernel_size: 3
    weight_filler {
      type: "xavier"
    }
    bias_filler {
      type: "constant"
      value: 0.2
    }
  }
}
layer {
  name: "inception_3a/relu_3x3"
  type: "ReLU"
  bottom: "inception_3a/3x3"
  top: "inception_3a/3x3"
}
layer {
  name: "inception_3a/5x5_reduce"
  type: "Convolution"
  bottom: "pool2/3x3_s2"
  top: "inception_3a/5x5_reduce"
  param {
    lr_mult: 0
    decay_mult: 1
  }
  param {
    lr_mult: 2
    decay_mult: 0
  }
  convolution_param {
    num_output: 16
    kernel_size: 1
    weight_filler {
      type: "xavier"
    }
    bias_filler {
      type: "constant"
      value: 0.2
    }
  }
}
layer {
  name: "inception_3a/relu_5x5_reduce"
  type: "ReLU"
  bottom: "inception_3a/5x5_reduce"
  top: "inception_3a/5x5_reduce"
}
layer {
  name: "inception_3a/5x5"
  type: "Convolution"
  bottom: "inception_3a/5x5_reduce"
  top: "inception_3a/5x5"
  param {
    lr_mult: 0
    decay_mult: 1
  }
  param {
    lr_mult: 2
    decay_mult: 0
  }
  convolution_param {
    num_output: 32
    pad: 2
    kernel_size: 5
    weight_filler {
      type: "xavier"
    }
    bias_filler {
      type: "constant"
      value: 0.2
    }
  }
}
layer {
  name: "inception_3a/relu_5x5"
  type: "ReLU"
  bottom: "inception_3a/5x5"
  top: "inception_3a/5x5"
}
layer {
  name: "inception_3a/pool"
  type: "Pooling"
  bottom: "pool2/3x3_s2"
  top: "inception_3a/pool"
  pooling_param {
    pool: MAX
    kernel_size: 3
    stride: 1
    pad: 1
  }
}
layer {
  name: "inception_3a/pool_proj"
  type: "Convolution"
  bottom: "inception_3a/pool"
  top: "inception_3a/pool_proj"
  param {
    lr_mult: 0
    decay_mult: 1
  }
  param {
    lr_mult: 2
    decay_mult: 0
  }
  convolution_param {
    num_output: 32
    kernel_size: 1
    weight_filler {
      type: "xavier"
    }
    bias_filler {
      type: "constant"
      value: 0.2
    }
  }
}
layer {
  name: "inception_3a/relu_pool_proj"
  type: "ReLU"
  bottom: "inception_3a/pool_proj"
  top: "inception_3a/pool_proj"
}
layer {
  name: "inception_3a/output"
  type: "Concat"
  bottom: "inception_3a/1x1"
  bottom: "inception_3a/3x3"
  bottom: "inception_3a/5x5"
  bottom: "inception_3a/pool_proj"
  top: "inception_3a/output"
}
layer {
  name: "inception_3b/1x1"
  type: "Convolution"
  bottom: "inception_3a/output"
  top: "inception_3b/1x1"
  param {
    lr_mult: 0
    decay_mult: 1
  }
  param {
    lr_mult: 2
    decay_mult: 0
  }
  convolution_param {
    num_output: 128
    kernel_size: 1
    weight_filler {
      type: "xavier"
    }
    bias_filler {
      type: "constant"
      value: 0.2
    }
  }
}
layer {
  name: "inception_3b/relu_1x1"
  type: "ReLU"
  bottom: "inception_3b/1x1"
  top: "inception_3b/1x1"
}
layer {
  name: "inception_3b/3x3_reduce"
  type: "Convolution"
  bottom: "inception_3a/output"
  top: "inception_3b/3x3_reduce"
  param {
    lr_mult: 0
    decay_mult: 1
  }
  param {
    lr_mult: 2
    decay_mult: 0
  }
  convolution_param {
    num_output: 128
    kernel_size: 1
    weight_filler {
      type: "xavier"
    }
    bias_filler {
      type: "constant"
      value: 0.2
    }
  }
}
layer {
  name: "inception_3b/relu_3x3_reduce"
  type: "ReLU"
  bottom: "inception_3b/3x3_reduce"
  top: "inception_3b/3x3_reduce"
}
layer {
  name: "inception_3b/3x3"
  type: "Convolution"
  bottom: "inception_3b/3x3_reduce"
  top: "inception_3b/3x3"
  param {
    lr_mult: 0
    decay_mult: 1
  }
  param {
    lr_mult: 2
    decay_mult: 0
  }
  convolution_param {
    num_output: 192
    pad: 1
    kernel_size: 3
    weight_filler {
      type: "xavier"
    }
    bias_filler {
      type: "constant"
      value: 0.2
    }
  }
}
layer {
  name: "inception_3b/relu_3x3"
  type: "ReLU"
  bottom: "inception_3b/3x3"
  top: "inception_3b/3x3"
}
layer {
  name: "inception_3b/5x5_reduce"
  type: "Convolution"
  bottom: "inception_3a/output"
  top: "inception_3b/5x5_reduce"
  param {
    lr_mult: 0
    decay_mult: 1
  }
  param {
    lr_mult: 2
    decay_mult: 0
  }
  convolution_param {
    num_output: 32
    kernel_size: 1
    weight_filler {
      type: "xavier"
    }
    bias_filler {
      type: "constant"
      value: 0.2
    }
  }
}
layer {
  name: "inception_3b/relu_5x5_reduce"
  type: "ReLU"
  bottom: "inception_3b/5x5_reduce"
  top: "inception_3b/5x5_reduce"
}
layer {
  name: "inception_3b/5x5"
  type: "Convolution"
  bottom: "inception_3b/5x5_reduce"
  top: "inception_3b/5x5"
  param {
    lr_mult: 0
    decay_mult: 1
  }
  param {
    lr_mult: 2
    decay_mult: 0
  }
  convolution_param {
    num_output: 96
    pad: 2
    kernel_size: 5
    weight_filler {
      type: "xavier"
    }
    bias_filler {
      type: "constant"
      value: 0.2
    }
  }
}
layer {
  name: "inception_3b/relu_5x5"
  type: "ReLU"
  bottom: "inception_3b/5x5"
  top: "inception_3b/5x5"
}
layer {
  name: "inception_3b/pool"
  type: "Pooling"
  bottom: "inception_3a/output"
  top: "inception_3b/pool"
  pooling_param {
    pool: MAX
    kernel_size: 3
    stride: 1
    pad: 1
  }
}
layer {
  name: "inception_3b/pool_proj"
  type: "Convolution"
  bottom: "inception_3b/pool"
  top: "inception_3b/pool_proj"
  param {
    lr_mult: 0
    decay_mult: 1
  }
  param {
    lr_mult: 2
    decay_mult: 0
  }
  convolution_param {
    num_output: 64
    kernel_size: 1
    weight_filler {
      type: "xavier"
    }
    bias_filler {
      type: "constant"
      value: 0.2
    }
  }
}
layer {
  name: "inception_3b/relu_pool_proj"
  type: "ReLU"
  bottom: "inception_3b/pool_proj"
  top: "inception_3b/pool_proj"
}
layer {
  name: "inception_3b/output"
  type: "Concat"
  bottom: "inception_3b/1x1"
  bottom: "inception_3b/3x3"
  bottom: "inception_3b/5x5"
  bottom: "inception_3b/pool_proj"
  top: "inception_3b/output"
}
layer {
  name: "pool3/3x3_s2"
  type: "Pooling"
  bottom: "inception_3b/output"
  top: "pool3/3x3_s2"
  pooling_param {
    pool: MAX
    kernel_size: 3
    stride: 2
  }
}
layer {
  name: "inception_4a/1x1"
  type: "Convolution"
  bottom: "pool3/3x3_s2"
  top: "inception_4a/1x1"
  param {
    lr_mult: 0
    decay_mult: 1
  }
  param {
    lr_mult: 2
    decay_mult: 0
  }
  convolution_param {
    num_output: 192
    kernel_size: 1
    weight_filler {
      type: "xavier"
    }
    bias_filler {
      type: "constant"
      value: 0.2
    }
  }
}
layer {
  name: "inception_4a/relu_1x1"
  type: "ReLU"
  bottom: "inception_4a/1x1"
  top: "inception_4a/1x1"
}
layer {
  name: "inception_4a/3x3_reduce"
  type: "Convolution"
  bottom: "pool3/3x3_s2"
  top: "inception_4a/3x3_reduce"
  param {
    lr_mult: 0
    decay_mult: 1
  }
  param {
    lr_mult: 2
    decay_mult: 0
  }
  convolution_param {
    num_output: 96
    kernel_size: 1
    weight_filler {
      type: "xavier"
    }
    bias_filler {
      type: "constant"
      value: 0.2
    }
  }
}
layer {
  name: "inception_4a/relu_3x3_reduce"
  type: "ReLU"
  bottom: "inception_4a/3x3_reduce"
  top: "inception_4a/3x3_reduce"
}
layer {
  name: "inception_4a/3x3"
  type: "Convolution"
  bottom: "inception_4a/3x3_reduce"
  top: "inception_4a/3x3"
  param {
    lr_mult: 0
    decay_mult: 1
  }
  param {
    lr_mult: 2
    decay_mult: 0
  }
  convolution_param {
    num_output: 208
    pad: 1
    kernel_size: 3
    weight_filler {
      type: "xavier"
    }
    bias_filler {
      type: "constant"
      value: 0.2
    }
  }
}
layer {
  name: "inception_4a/relu_3x3"
  type: "ReLU"
  bottom: "inception_4a/3x3"
  top: "inception_4a/3x3"
}
layer {
  name: "inception_4a/5x5_reduce"
  type: "Convolution"
  bottom: "pool3/3x3_s2"
  top: "inception_4a/5x5_reduce"
  param {
    lr_mult: 0
    decay_mult: 1
  }
  param {
    lr_mult: 2
    decay_mult: 0
  }
  convolution_param {
    num_output: 16
    kernel_size: 1
    weight_filler {
      type: "xavier"
    }
    bias_filler {
      type: "constant"
      value: 0.2
    }
  }
}
layer {
  name: "inception_4a/relu_5x5_reduce"
  type: "ReLU"
  bottom: "inception_4a/5x5_reduce"
  top: "inception_4a/5x5_reduce"
}
layer {
  name: "inception_4a/5x5"
  type: "Convolution"
  bottom: "inception_4a/5x5_reduce"
  top: "inception_4a/5x5"
  param {
    lr_mult: 0
    decay_mult: 1
  }
  param {
    lr_mult: 2
    decay_mult: 0
  }
  convolution_param {
    num_output: 48
    pad: 2
    kernel_size: 5
    weight_filler {
      type: "xavier"
    }
    bias_filler {
      type: "constant"
      value: 0.2
    }
  }
}
layer {
  name: "inception_4a/relu_5x5"
  type: "ReLU"
  bottom: "inception_4a/5x5"
  top: "inception_4a/5x5"
}
layer {
  name: "inception_4a/pool"
  type: "Pooling"
  bottom: "pool3/3x3_s2"
  top: "inception_4a/pool"
  pooling_param {
    pool: MAX
    kernel_size: 3
    stride: 1
    pad: 1
  }
}
layer {
  name: "inception_4a/pool_proj"
  type: "Convolution"
  bottom: "inception_4a/pool"
  top: "inception_4a/pool_proj"
  param {
    lr_mult: 0
    decay_mult: 1
  }
  param {
    lr_mult: 2
    decay_mult: 0
  }
  convolution_param {
    num_output: 64
    kernel_size: 1
    weight_filler {
      type: "xavier"
    }
    bias_filler {
      type: "constant"
      value: 0.2
    }
  }
}
layer {
  name: "inception_4a/relu_pool_proj"
  type: "ReLU"
  bottom: "inception_4a/pool_proj"
  top: "inception_4a/pool_proj"
}
layer {
  name: "inception_4a/output"
  type: "Concat"
  bottom: "inception_4a/1x1"
  bottom: "inception_4a/3x3"
  bottom: "inception_4a/5x5"
  bottom: "inception_4a/pool_proj"
  top: "inception_4a/output"
}
layer {
  name: "inception_4b/1x1"
  type: "Convolution"
  bottom: "inception_4a/output"
  top: "inception_4b/1x1"
  param {
    lr_mult: 0
    decay_mult: 1
  }
  param {
    lr_mult: 2
    decay_mult: 0
  }
  convolution_param {
    num_output: 160
    kernel_size: 1
    weight_filler {
      type: "xavier"
    }
    bias_filler {
      type: "constant"
      value: 0.2
    }
  }
}
layer {
  name: "inception_4b/relu_1x1"
  type: "ReLU"
  bottom: "inception_4b/1x1"
  top: "inception_4b/1x1"
}
layer {
  name: "inception_4b/3x3_reduce"
  type: "Convolution"
  bottom: "inception_4a/output"
  top: "inception_4b/3x3_reduce"
  param {
    lr_mult: 0
    decay_mult: 1
  }
  param {
    lr_mult: 2
    decay_mult: 0
  }
  convolution_param {
    num_output: 112
    kernel_size: 1
    weight_filler {
      type: "xavier"
    }
    bias_filler {
      type: "constant"
      value: 0.2
    }
  }
}
layer {
  name: "inception_4b/relu_3x3_reduce"
  type: "ReLU"
  bottom: "inception_4b/3x3_reduce"
  top: "inception_4b/3x3_reduce"
}
layer {
  name: "inception_4b/3x3"
  type: "Convolution"
  bottom: "inception_4b/3x3_reduce"
  top: "inception_4b/3x3"
  param {
    lr_mult: 0
    decay_mult: 1
  }
  param {
    lr_mult: 2
    decay_mult: 0
  }
  convolution_param {
    num_output: 224
    pad: 1
    kernel_size: 3
    weight_filler {
      type: "xavier"
    }
    bias_filler {
      type: "constant"
      value: 0.2
    }
  }
}
layer {
  name: "inception_4b/relu_3x3"
  type: "ReLU"
  bottom: "inception_4b/3x3"
  top: "inception_4b/3x3"
}
layer {
  name: "inception_4b/5x5_reduce"
  type: "Convolution"
  bottom: "inception_4a/output"
  top: "inception_4b/5x5_reduce"
  param {
    lr_mult: 0
    decay_mult: 1
  }
  param {
    lr_mult: 2
    decay_mult: 0
  }
  convolution_param {
    num_output: 24
    kernel_size: 1
    weight_filler {
      type: "xavier"
    }
    bias_filler {
      type: "constant"
      value: 0.2
    }
  }
}
layer {
  name: "inception_4b/relu_5x5_reduce"
  type: "ReLU"
  bottom: "inception_4b/5x5_reduce"
  top: "inception_4b/5x5_reduce"
}
layer {
  name: "inception_4b/5x5"
  type: "Convolution"
  bottom: "inception_4b/5x5_reduce"
  top: "inception_4b/5x5"
  param {
    lr_mult: 0
    decay_mult: 1
  }
  param {
    lr_mult: 2
    decay_mult: 0
  }
  convolution_param {
    num_output: 64
    pad: 2
    kernel_size: 5
    weight_filler {
      type: "xavier"
    }
    bias_filler {
      type: "constant"
      value: 0.2
    }
  }
}
layer {
  name: "inception_4b/relu_5x5"
  type: "ReLU"
  bottom: "inception_4b/5x5"
  top: "inception_4b/5x5"
}
layer {
  name: "inception_4b/pool"
  type: "Pooling"
  bottom: "inception_4a/output"
  top: "inception_4b/pool"
  pooling_param {
    pool: MAX
    kernel_size: 3
    stride: 1
    pad: 1
  }
}
layer {
  name: "inception_4b/pool_proj"
  type: "Convolution"
  bottom: "inception_4b/pool"
  top: "inception_4b/pool_proj"
  param {
    lr_mult: 0
    decay_mult: 1
  }
  param {
    lr_mult: 2
    decay_mult: 0
  }
  convolution_param {
    num_output: 64
    kernel_size: 1
    weight_filler {
      type: "xavier"
    }
    bias_filler {
      type: "constant"
      value: 0.2
    }
  }
}
layer {
  name: "inception_4b/relu_pool_proj"
  type: "ReLU"
  bottom: "inception_4b/pool_proj"
  top: "inception_4b/pool_proj"
}
layer {
  name: "inception_4b/output"
  type: "Concat"
  bottom: "inception_4b/1x1"
  bottom: "inception_4b/3x3"
  bottom: "inception_4b/5x5"
  bottom: "inception_4b/pool_proj"
  top: "inception_4b/output"
}
layer {
  name: "inception_4c/1x1"
  type: "Convolution"
  bottom: "inception_4b/output"
  top: "inception_4c/1x1"
  param {
    lr_mult: 0
    decay_mult: 1
  }
  param {
    lr_mult: 2
    decay_mult: 0
  }
  convolution_param {
    num_output: 128
    kernel_size: 1
    weight_filler {
      type: "xavier"
    }
    bias_filler {
      type: "constant"
      value: 0.2
    }
  }
}
layer {
  name: "inception_4c/relu_1x1"
  type: "ReLU"
  bottom: "inception_4c/1x1"
  top: "inception_4c/1x1"
}
layer {
  name: "inception_4c/3x3_reduce"
  type: "Convolution"
  bottom: "inception_4b/output"
  top: "inception_4c/3x3_reduce"
  param {
    lr_mult: 0
    decay_mult: 1
  }
  param {
    lr_mult: 2
    decay_mult: 0
  }
  convolution_param {
    num_output: 128
    kernel_size: 1
    weight_filler {
      type: "xavier"
    }
    bias_filler {
      type: "constant"
      value: 0.2
    }
  }
}
layer {
  name: "inception_4c/relu_3x3_reduce"
  type: "ReLU"
  bottom: "inception_4c/3x3_reduce"
  top: "inception_4c/3x3_reduce"
}
layer {
  name: "inception_4c/3x3"
  type: "Convolution"
  bottom: "inception_4c/3x3_reduce"
  top: "inception_4c/3x3"
  param {
    lr_mult: 0
    decay_mult: 1
  }
  param {
    lr_mult: 2
    decay_mult: 0
  }
  convolution_param {
    num_output: 256
    pad: 1
    kernel_size: 3
    weight_filler {
      type: "xavier"
    }
    bias_filler {
      type: "constant"
      value: 0.2
    }
  }
}
layer {
  name: "inception_4c/relu_3x3"
  type: "ReLU"
  bottom: "inception_4c/3x3"
  top: "inception_4c/3x3"
}
layer {
  name: "inception_4c/5x5_reduce"
  type: "Convolution"
  bottom: "inception_4b/output"
  top: "inception_4c/5x5_reduce"
  param {
    lr_mult: 0
    decay_mult: 1
  }
  param {
    lr_mult: 2
    decay_mult: 0
  }
  convolution_param {
    num_output: 24
    kernel_size: 1
    weight_filler {
      type: "xavier"
    }
    bias_filler {
      type: "constant"
      value: 0.2
    }
  }
}
layer {
  name: "inception_4c/relu_5x5_reduce"
  type: "ReLU"
  bottom: "inception_4c/5x5_reduce"
  top: "inception_4c/5x5_reduce"
}
layer {
  name: "inception_4c/5x5"
  type: "Convolution"
  bottom: "inception_4c/5x5_reduce"
  top: "inception_4c/5x5"
  param {
    lr_mult: 0
    decay_mult: 1
  }
  param {
    lr_mult: 2
    decay_mult: 0
  }
  convolution_param {
    num_output: 64
    pad: 2
    kernel_size: 5
    weight_filler {
      type: "xavier"
    }
    bias_filler {
      type: "constant"
      value: 0.2
    }
  }
}
layer {
  name: "inception_4c/relu_5x5"
  type: "ReLU"
  bottom: "inception_4c/5x5"
  top: "inception_4c/5x5"
}
layer {
  name: "inception_4c/pool"
  type: "Pooling"
  bottom: "inception_4b/output"
  top: "inception_4c/pool"
  pooling_param {
    pool: MAX
    kernel_size: 3
    stride: 1
    pad: 1
  }
}
layer {
  name: "inception_4c/pool_proj"
  type: "Convolution"
  bottom: "inception_4c/pool"
  top: "inception_4c/pool_proj"
  param {
    lr_mult: 0
    decay_mult: 1
  }
  param {
    lr_mult: 2
    decay_mult: 0
  }
  convolution_param {
    num_output: 64
    kernel_size: 1
    weight_filler {
      type: "xavier"
    }
    bias_filler {
      type: "constant"
      value: 0.2
    }
  }
}
layer {
  name: "inception_4c/relu_pool_proj"
  type: "ReLU"
  bottom: "inception_4c/pool_proj"
  top: "inception_4c/pool_proj"
}
layer {
  name: "inception_4c/output"
  type: "Concat"
  bottom: "inception_4c/1x1"
  bottom: "inception_4c/3x3"
  bottom: "inception_4c/5x5"
  bottom: "inception_4c/pool_proj"
  top: "inception_4c/output"
}
layer {
  name: "inception_4d/1x1"
  type: "Convolution"
  bottom: "inception_4c/output"
  top: "inception_4d/1x1"
  param {
    lr_mult: 0
    decay_mult: 1
  }
  param {
    lr_mult: 2
    decay_mult: 0
  }
  convolution_param {
    num_output: 112
    kernel_size: 1
    weight_filler {
      type: "xavier"
    }
    bias_filler {
      type: "constant"
      value: 0.2
    }
  }
}
layer {
  name: "inception_4d/relu_1x1"
  type: "ReLU"
  bottom: "inception_4d/1x1"
  top: "inception_4d/1x1"
}
layer {
  name: "inception_4d/3x3_reduce"
  type: "Convolution"
  bottom: "inception_4c/output"
  top: "inception_4d/3x3_reduce"
  param {
    lr_mult: 0
    decay_mult: 1
  }
  param {
    lr_mult: 2
    decay_mult: 0
  }
  convolution_param {
    num_output: 144
    kernel_size: 1
    weight_filler {
      type: "xavier"
    }
    bias_filler {
      type: "constant"
      value: 0.2
    }
  }
}
layer {
  name: "inception_4d/relu_3x3_reduce"
  type: "ReLU"
  bottom: "inception_4d/3x3_reduce"
  top: "inception_4d/3x3_reduce"
}
layer {
  name: "inception_4d/3x3"
  type: "Convolution"
  bottom: "inception_4d/3x3_reduce"
  top: "inception_4d/3x3"
  param {
    lr_mult: 0
    decay_mult: 1
  }
  param {
    lr_mult: 2
    decay_mult: 0
  }
  convolution_param {
    num_output: 288
    pad: 1
    kernel_size: 3
    weight_filler {
      type: "xavier"
    }
    bias_filler {
      type: "constant"
      value: 0.2
    }
  }
}
layer {
  name: "inception_4d/relu_3x3"
  type: "ReLU"
  bottom: "inception_4d/3x3"
  top: "inception_4d/3x3"
}
layer {
  name: "inception_4d/5x5_reduce"
  type: "Convolution"
  bottom: "inception_4c/output"
  top: "inception_4d/5x5_reduce"
  param {
    lr_mult: 0
    decay_mult: 1
  }
  param {
    lr_mult: 2
    decay_mult: 0
  }
  convolution_param {
    num_output: 32
    kernel_size: 1
    weight_filler {
      type: "xavier"
    }
    bias_filler {
      type: "constant"
      value: 0.2
    }
  }
}
layer {
  name: "inception_4d/relu_5x5_reduce"
  type: "ReLU"
  bottom: "inception_4d/5x5_reduce"
  top: "inception_4d/5x5_reduce"
}
layer {
  name: "inception_4d/5x5"
  type: "Convolution"
  bottom: "inception_4d/5x5_reduce"
  top: "inception_4d/5x5"
  param {
    lr_mult: 0
    decay_mult: 1
  }
  param {
    lr_mult: 2
    decay_mult: 0
  }
  convolution_param {
    num_output: 64
    pad: 2
    kernel_size: 5
    weight_filler {
      type: "xavier"
    }
    bias_filler {
      type: "constant"
      value: 0.2
    }
  }
}
layer {
  name: "inception_4d/relu_5x5"
  type: "ReLU"
  bottom: "inception_4d/5x5"
  top: "inception_4d/5x5"
}
layer {
  name: "inception_4d/pool"
  type: "Pooling"
  bottom: "inception_4c/output"
  top: "inception_4d/pool"
  pooling_param {
    pool: MAX
    kernel_size: 3
    stride: 1
    pad: 1
  }
}
layer {
  name: "inception_4d/pool_proj"
  type: "Convolution"
  bottom: "inception_4d/pool"
  top: "inception_4d/pool_proj"
  param {
    lr_mult: 0
    decay_mult: 1
  }
  param {
    lr_mult: 2
    decay_mult: 0
  }
  convolution_param {
    num_output: 64
    kernel_size: 1
    weight_filler {
      type: "xavier"
    }
    bias_filler {
      type: "constant"
      value: 0.2
    }
  }
}
layer {
  name: "inception_4d/relu_pool_proj"
  type: "ReLU"
  bottom: "inception_4d/pool_proj"
  top: "inception_4d/pool_proj"
}
layer {
  name: "inception_4d/output"
  type: "Concat"
  bottom: "inception_4d/1x1"
  bottom: "inception_4d/3x3"
  bottom: "inception_4d/5x5"
  bottom: "inception_4d/pool_proj"
  top: "inception_4d/output"
}
layer {
  name: "inception_4e/1x1"
  type: "Convolution"
  bottom: "inception_4d/output"
  top: "inception_4e/1x1"
  param {
    lr_mult: 0
    decay_mult: 1
  }
  param {
    lr_mult: 2
    decay_mult: 0
  }
  convolution_param {
    num_output: 256
    kernel_size: 1
    weight_filler {
      type: "xavier"
    }
    bias_filler {
      type: "constant"
      value: 0.2
    }
  }
}
layer {
  name: "inception_4e/relu_1x1"
  type: "ReLU"
  bottom: "inception_4e/1x1"
  top: "inception_4e/1x1"
}
layer {
  name: "inception_4e/3x3_reduce"
  type: "Convolution"
  bottom: "inception_4d/output"
  top: "inception_4e/3x3_reduce"
  param {
    lr_mult: 0
    decay_mult: 1
  }
  param {
    lr_mult: 2
    decay_mult: 0
  }
  convolution_param {
    num_output: 160
    kernel_size: 1
    weight_filler {
      type: "xavier"
    }
    bias_filler {
      type: "constant"
      value: 0.2
    }
  }
}
layer {
  name: "inception_4e/relu_3x3_reduce"
  type: "ReLU"
  bottom: "inception_4e/3x3_reduce"
  top: "inception_4e/3x3_reduce"
}
layer {
  name: "inception_4e/3x3"
  type: "Convolution"
  bottom: "inception_4e/3x3_reduce"
  top: "inception_4e/3x3"
  param {
    lr_mult: 0
    decay_mult: 1
  }
  param {
    lr_mult: 2
    decay_mult: 0
  }
  convolution_param {
    num_output: 320
    pad: 1
    kernel_size: 3
    weight_filler {
      type: "xavier"
    }
    bias_filler {
      type: "constant"
      value: 0.2
    }
  }
}
layer {
  name: "inception_4e/relu_3x3"
  type: "ReLU"
  bottom: "inception_4e/3x3"
  top: "inception_4e/3x3"
}
layer {
  name: "inception_4e/5x5_reduce"
  type: "Convolution"
  bottom: "inception_4d/output"
  top: "inception_4e/5x5_reduce"
  param {
    lr_mult: 0
    decay_mult: 1
  }
  param {
    lr_mult: 2
    decay_mult: 0
  }
  convolution_param {
    num_output: 32
    kernel_size: 1
    weight_filler {
      type: "xavier"
    }
    bias_filler {
      type: "constant"
      value: 0.2
    }
  }
}
layer {
  name: "inception_4e/relu_5x5_reduce"
  type: "ReLU"
  bottom: "inception_4e/5x5_reduce"
  top: "inception_4e/5x5_reduce"
}
layer {
  name: "inception_4e/5x5"
  type: "Convolution"
  bottom: "inception_4e/5x5_reduce"
  top: "inception_4e/5x5"
  param {
    lr_mult: 0
    decay_mult: 1
  }
  param {
    lr_mult: 2
    decay_mult: 0
  }
  convolution_param {
    num_output: 128
    pad: 2
    kernel_size: 5
    weight_filler {
      type: "xavier"
    }
    bias_filler {
      type: "constant"
      value: 0.2
    }
  }
}
layer {
  name: "inception_4e/relu_5x5"
  type: "ReLU"
  bottom: "inception_4e/5x5"
  top: "inception_4e/5x5"
}
layer {
  name: "inception_4e/pool"
  type: "Pooling"
  bottom: "inception_4d/output"
  top: "inception_4e/pool"
  pooling_param {
    pool: MAX
    kernel_size: 3
    stride: 1
    pad: 1
  }
}
layer {
  name: "inception_4e/pool_proj"
  type: "Convolution"
  bottom: "inception_4e/pool"
  top: "inception_4e/pool_proj"
  param {
    lr_mult: 0
    decay_mult: 1
  }
  param {
    lr_mult: 2
    decay_mult: 0
  }
  convolution_param {
    num_output: 128
    kernel_size: 1
    weight_filler {
      type: "xavier"
    }
    bias_filler {
      type: "constant"
      value: 0.2
    }
  }
}
layer {
  name: "inception_4e/relu_pool_proj"
  type: "ReLU"
  bottom: "inception_4e/pool_proj"
  top: "inception_4e/pool_proj"
}
layer {
  name: "inception_4e/output"
  type: "Concat"
  bottom: "inception_4e/1x1"
  bottom: "inception_4e/3x3"
  bottom: "inception_4e/5x5"
  bottom: "inception_4e/pool_proj"
  top: "inception_4e/output"
}
layer {
  name: "pool4/3x3_s2"
  type: "Pooling"
  bottom: "inception_4e/output"
  top: "pool4/3x3_s2"
  pooling_param {
    pool: MAX
    kernel_size: 3
    stride: 2
  }
}
layer {
  name: "inception_5a/1x1"
  type: "Convolution"
  bottom: "pool4/3x3_s2"
  top: "inception_5a/1x1"
  param {
    lr_mult: 0
    decay_mult: 1
  }
  param {
    lr_mult: 2
    decay_mult: 0
  }
  convolution_param {
    num_output: 256
    kernel_size: 1
    weight_filler {
      type: "xavier"
    }
    bias_filler {
      type: "constant"
      value: 0.2
    }
  }
}
layer {
  name: "inception_5a/relu_1x1"
  type: "ReLU"
  bottom: "inception_5a/1x1"
  top: "inception_5a/1x1"
}
layer {
  name: "inception_5a/3x3_reduce"
  type: "Convolution"
  bottom: "pool4/3x3_s2"
  top: "inception_5a/3x3_reduce"
  param {
    lr_mult: 0
    decay_mult: 1
  }
  param {
    lr_mult: 2
    decay_mult: 0
  }
  convolution_param {
    num_output: 160
    kernel_size: 1
    weight_filler {
      type: "xavier"
    }
    bias_filler {
      type: "constant"
      value: 0.2
    }
  }
}
layer {
  name: "inception_5a/relu_3x3_reduce"
  type: "ReLU"
  bottom: "inception_5a/3x3_reduce"
  top: "inception_5a/3x3_reduce"
}
layer {
  name: "inception_5a/3x3"
  type: "Convolution"
  bottom: "inception_5a/3x3_reduce"
  top: "inception_5a/3x3"
  param {
    lr_mult: 0
    decay_mult: 1
  }
  param {
    lr_mult: 2
    decay_mult: 0
  }
  convolution_param {
    num_output: 320
    pad: 1
    kernel_size: 3
    weight_filler {
      type: "xavier"
    }
    bias_filler {
      type: "constant"
      value: 0.2
    }
  }
}
layer {
  name: "inception_5a/relu_3x3"
  type: "ReLU"
  bottom: "inception_5a/3x3"
  top: "inception_5a/3x3"
}
layer {
  name: "inception_5a/5x5_reduce"
  type: "Convolution"
  bottom: "pool4/3x3_s2"
  top: "inception_5a/5x5_reduce"
  param {
    lr_mult: 0
    decay_mult: 1
  }
  param {
    lr_mult: 2
    decay_mult: 0
  }
  convolution_param {
    num_output: 32
    kernel_size: 1
    weight_filler {
      type: "xavier"
    }
    bias_filler {
      type: "constant"
      value: 0.2
    }
  }
}
layer {
  name: "inception_5a/relu_5x5_reduce"
  type: "ReLU"
  bottom: "inception_5a/5x5_reduce"
  top: "inception_5a/5x5_reduce"
}
layer {
  name: "inception_5a/5x5"
  type: "Convolution"
  bottom: "inception_5a/5x5_reduce"
  top: "inception_5a/5x5"
  param {
    lr_mult: 0
    decay_mult: 1
  }
  param {
    lr_mult: 2
    decay_mult: 0
  }
  convolution_param {
    num_output: 128
    pad: 2
    kernel_size: 5
    weight_filler {
      type: "xavier"
    }
    bias_filler {
      type: "constant"
      value: 0.2
    }
  }
}
layer {
  name: "inception_5a/relu_5x5"
  type: "ReLU"
  bottom: 
I0718 14:21:33.224479 31595 layer_factory.hpp:76] Creating layer data
I0718 14:21:33.224550 31595 net.cpp:106] Creating Layer data
I0718 14:21:33.224567 31595 net.cpp:411] data -> data
I0718 14:21:33.224611 31595 net.cpp:411] data -> label
I0718 14:21:33.225076 31595 image_data_layer.cpp:36] Opening file ../lists/mitosis_train.lst
I0718 14:21:33.240772 31595 image_data_layer.cpp:46] Shuffling data
I0718 14:21:33.244155 31595 image_data_layer.cpp:51] A total of 21366 images.
I0718 14:21:33.386112 31595 image_data_layer.cpp:78] output data size: 4,3,1000,1000
I0718 14:21:33.528275 31595 net.cpp:150] Setting up data
I0718 14:21:33.528343 31595 net.cpp:157] Top shape: 4 3 1000 1000 (12000000)
I0718 14:21:33.528357 31595 net.cpp:157] Top shape: 4 (4)
I0718 14:21:33.528367 31595 net.cpp:165] Memory required for data: 48000016
I0718 14:21:33.528384 31595 layer_factory.hpp:76] Creating layer label_data_1_split
I0718 14:21:33.528409 31595 net.cpp:106] Creating Layer label_data_1_split
I0718 14:21:33.528422 31595 net.cpp:454] label_data_1_split <- label
I0718 14:21:33.528442 31595 net.cpp:411] label_data_1_split -> label_data_1_split_0
I0718 14:21:33.528460 31595 net.cpp:411] label_data_1_split -> label_data_1_split_1
I0718 14:21:33.528539 31595 net.cpp:150] Setting up label_data_1_split
I0718 14:21:33.528554 31595 net.cpp:157] Top shape: 4 (4)
I0718 14:21:33.528563 31595 net.cpp:157] Top shape: 4 (4)
I0718 14:21:33.528571 31595 net.cpp:165] Memory required for data: 48000048
I0718 14:21:33.528580 31595 layer_factory.hpp:76] Creating layer conv1/7x7_s2
I0718 14:21:33.528607 31595 net.cpp:106] Creating Layer conv1/7x7_s2
I0718 14:21:33.528616 31595 net.cpp:454] conv1/7x7_s2 <- data
I0718 14:21:33.528630 31595 net.cpp:411] conv1/7x7_s2 -> conv1/7x7_s2
I0718 14:21:33.747539 31595 net.cpp:150] Setting up conv1/7x7_s2
I0718 14:21:33.747596 31595 net.cpp:157] Top shape: 4 64 500 500 (64000000)
I0718 14:21:33.747606 31595 net.cpp:165] Memory required for data: 304000048
I0718 14:21:33.747643 31595 layer_factory.hpp:76] Creating layer conv1/relu_7x7
I0718 14:21:33.747679 31595 net.cpp:106] Creating Layer conv1/relu_7x7
I0718 14:21:33.747743 31595 net.cpp:454] conv1/relu_7x7 <- conv1/7x7_s2
I0718 14:21:33.747758 31595 net.cpp:397] conv1/relu_7x7 -> conv1/7x7_s2 (in-place)
I0718 14:21:33.748006 31595 net.cpp:150] Setting up conv1/relu_7x7
I0718 14:21:33.748024 31595 net.cpp:157] Top shape: 4 64 500 500 (64000000)
I0718 14:21:33.748039 31595 net.cpp:165] Memory required for data: 560000048
I0718 14:21:33.748055 31595 layer_factory.hpp:76] Creating layer pool1/3x3_s2
I0718 14:21:33.748076 31595 net.cpp:106] Creating Layer pool1/3x3_s2
I0718 14:21:33.748086 31595 net.cpp:454] pool1/3x3_s2 <- conv1/7x7_s2
I0718 14:21:33.748098 31595 net.cpp:411] pool1/3x3_s2 -> pool1/3x3_s2
I0718 14:21:33.748687 31595 net.cpp:150] Setting up pool1/3x3_s2
I0718 14:21:33.748709 31595 net.cpp:157] Top shape: 4 64 250 250 (16000000)
I0718 14:21:33.748729 31595 net.cpp:165] Memory required for data: 624000048
I0718 14:21:33.748742 31595 layer_factory.hpp:76] Creating layer pool1/norm1
I0718 14:21:33.748780 31595 net.cpp:106] Creating Layer pool1/norm1
I0718 14:21:33.748793 31595 net.cpp:454] pool1/norm1 <- pool1/3x3_s2
I0718 14:21:33.748805 31595 net.cpp:411] pool1/norm1 -> pool1/norm1
I0718 14:21:33.749033 31595 net.cpp:150] Setting up pool1/norm1
I0718 14:21:33.749060 31595 net.cpp:157] Top shape: 4 64 250 250 (16000000)
I0718 14:21:33.749073 31595 net.cpp:165] Memory required for data: 688000048
I0718 14:21:33.749083 31595 layer_factory.hpp:76] Creating layer conv2/3x3_reduce
I0718 14:21:33.749101 31595 net.cpp:106] Creating Layer conv2/3x3_reduce
I0718 14:21:33.749114 31595 net.cpp:454] conv2/3x3_reduce <- pool1/norm1
I0718 14:21:33.749125 31595 net.cpp:411] conv2/3x3_reduce -> conv2/3x3_reduce
I0718 14:21:33.751857 31595 cudnn_conv_layer.cpp:194] Reallocating workspace storage: 768
I0718 14:21:33.751906 31595 net.cpp:150] Setting up conv2/3x3_reduce
I0718 14:21:33.751925 31595 net.cpp:157] Top shape: 4 64 250 250 (16000000)
I0718 14:21:33.751935 31595 net.cpp:165] Memory required for data: 752000048
I0718 14:21:33.751958 31595 layer_factory.hpp:76] Creating layer conv2/relu_3x3_reduce
I0718 14:21:33.751977 31595 net.cpp:106] Creating Layer conv2/relu_3x3_reduce
I0718 14:21:33.751989 31595 net.cpp:454] conv2/relu_3x3_reduce <- conv2/3x3_reduce
I0718 14:21:33.752002 31595 net.cpp:397] conv2/relu_3x3_reduce -> conv2/3x3_reduce (in-place)
I0718 14:21:33.752394 31595 net.cpp:150] Setting up conv2/relu_3x3_reduce
I0718 14:21:33.752416 31595 net.cpp:157] Top shape: 4 64 250 250 (16000000)
I0718 14:21:33.752426 31595 net.cpp:165] Memory required for data: 816000048
I0718 14:21:33.752436 31595 layer_factory.hpp:76] Creating layer conv2/3x3
I0718 14:21:33.752457 31595 net.cpp:106] Creating Layer conv2/3x3
I0718 14:21:33.752466 31595 net.cpp:454] conv2/3x3 <- conv2/3x3_reduce
I0718 14:21:33.752486 31595 net.cpp:411] conv2/3x3 -> conv2/3x3
I0718 14:21:33.755738 31595 cudnn_conv_layer.cpp:194] Reallocating workspace storage: 6912
I0718 14:21:33.756115 31595 net.cpp:150] Setting up conv2/3x3
I0718 14:21:33.756145 31595 net.cpp:157] Top shape: 4 192 250 250 (48000000)
I0718 14:21:33.756155 31595 net.cpp:165] Memory required for data: 1008000048
I0718 14:21:33.756175 31595 layer_factory.hpp:76] Creating layer conv2/relu_3x3
I0718 14:21:33.756189 31595 net.cpp:106] Creating Layer conv2/relu_3x3
I0718 14:21:33.756203 31595 net.cpp:454] conv2/relu_3x3 <- conv2/3x3
I0718 14:21:33.756218 31595 net.cpp:397] conv2/relu_3x3 -> conv2/3x3 (in-place)
I0718 14:21:33.756425 31595 net.cpp:150] Setting up conv2/relu_3x3
I0718 14:21:33.756444 31595 net.cpp:157] Top shape: 4 192 250 250 (48000000)
I0718 14:21:33.756456 31595 net.cpp:165] Memory required for data: 1200000048
I0718 14:21:33.756470 31595 layer_factory.hpp:76] Creating layer conv2/norm2
I0718 14:21:33.756491 31595 net.cpp:106] Creating Layer conv2/norm2
I0718 14:21:33.756500 31595 net.cpp:454] conv2/norm2 <- conv2/3x3
I0718 14:21:33.756511 31595 net.cpp:411] conv2/norm2 -> conv2/norm2
I0718 14:21:33.757036 31595 net.cpp:150] Setting up conv2/norm2
I0718 14:21:33.757064 31595 net.cpp:157] Top shape: 4 192 250 250 (48000000)
I0718 14:21:33.757124 31595 net.cpp:165] Memory required for data: 1392000048
I0718 14:21:33.757136 31595 layer_factory.hpp:76] Creating layer pool2/3x3_s2
I0718 14:21:33.757159 31595 net.cpp:106] Creating Layer pool2/3x3_s2
I0718 14:21:33.757169 31595 net.cpp:454] pool2/3x3_s2 <- conv2/norm2
I0718 14:21:33.757184 31595 net.cpp:411] pool2/3x3_s2 -> pool2/3x3_s2
I0718 14:21:33.757431 31595 net.cpp:150] Setting up pool2/3x3_s2
I0718 14:21:33.757452 31595 net.cpp:157] Top shape: 4 192 125 125 (12000000)
I0718 14:21:33.757468 31595 net.cpp:165] Memory required for data: 1440000048
I0718 14:21:33.757477 31595 layer_factory.hpp:76] Creating layer pool2/3x3_s2_pool2/3x3_s2_0_split
I0718 14:21:33.757498 31595 net.cpp:106] Creating Layer pool2/3x3_s2_pool2/3x3_s2_0_split
I0718 14:21:33.757506 31595 net.cpp:454] pool2/3x3_s2_pool2/3x3_s2_0_split <- pool2/3x3_s2
I0718 14:21:33.757517 31595 net.cpp:411] pool2/3x3_s2_pool2/3x3_s2_0_split -> pool2/3x3_s2_pool2/3x3_s2_0_split_0
I0718 14:21:33.757534 31595 net.cpp:411] pool2/3x3_s2_pool2/3x3_s2_0_split -> pool2/3x3_s2_pool2/3x3_s2_0_split_1
I0718 14:21:33.757552 31595 net.cpp:411] pool2/3x3_s2_pool2/3x3_s2_0_split -> pool2/3x3_s2_pool2/3x3_s2_0_split_2
I0718 14:21:33.757563 31595 net.cpp:411] pool2/3x3_s2_pool2/3x3_s2_0_split -> pool2/3x3_s2_pool2/3x3_s2_0_split_3
I0718 14:21:33.757652 31595 net.cpp:150] Setting up pool2/3x3_s2_pool2/3x3_s2_0_split
I0718 14:21:33.757669 31595 net.cpp:157] Top shape: 4 192 125 125 (12000000)
I0718 14:21:33.757681 31595 net.cpp:157] Top shape: 4 192 125 125 (12000000)
I0718 14:21:33.757690 31595 net.cpp:157] Top shape: 4 192 125 125 (12000000)
I0718 14:21:33.757699 31595 net.cpp:157] Top shape: 4 192 125 125 (12000000)
I0718 14:21:33.757707 31595 net.cpp:165] Memory required for data: 1632000048
I0718 14:21:33.757721 31595 layer_factory.hpp:76] Creating layer inception_3a/1x1
I0718 14:21:33.757740 31595 net.cpp:106] Creating Layer inception_3a/1x1
I0718 14:21:33.757750 31595 net.cpp:454] inception_3a/1x1 <- pool2/3x3_s2_pool2/3x3_s2_0_split_0
I0718 14:21:33.757766 31595 net.cpp:411] inception_3a/1x1 -> inception_3a/1x1
I0718 14:21:33.759343 31595 net.cpp:150] Setting up inception_3a/1x1
I0718 14:21:33.759387 31595 net.cpp:157] Top shape: 4 64 125 125 (4000000)
I0718 14:21:33.759408 31595 net.cpp:165] Memory required for data: 1648000048
I0718 14:21:33.759431 31595 layer_factory.hpp:76] Creating layer inception_3a/relu_1x1
I0718 14:21:33.759455 31595 net.cpp:106] Creating Layer inception_3a/relu_1x1
I0718 14:21:33.759474 31595 net.cpp:454] inception_3a/relu_1x1 <- inception_3a/1x1
I0718 14:21:33.759505 31595 net.cpp:397] inception_3a/relu_1x1 -> inception_3a/1x1 (in-place)
I0718 14:21:33.760109 31595 net.cpp:150] Setting up inception_3a/relu_1x1
I0718 14:21:33.760133 31595 net.cpp:157] Top shape: 4 64 125 125 (4000000)
I0718 14:21:33.760143 31595 net.cpp:165] Memory required for data: 1664000048
I0718 14:21:33.760156 31595 layer_factory.hpp:76] Creating layer inception_3a/3x3_reduce
I0718 14:21:33.760181 31595 net.cpp:106] Creating Layer inception_3a/3x3_reduce
I0718 14:21:33.760192 31595 net.cpp:454] inception_3a/3x3_reduce <- pool2/3x3_s2_pool2/3x3_s2_0_split_1
I0718 14:21:33.760210 31595 net.cpp:411] inception_3a/3x3_reduce -> inception_3a/3x3_reduce
I0718 14:21:33.761749 31595 cudnn_conv_layer.cpp:194] Reallocating workspace storage: 2304
I0718 14:21:33.762143 31595 net.cpp:150] Setting up inception_3a/3x3_reduce
I0718 14:21:33.762164 31595 net.cpp:157] Top shape: 4 96 125 125 (6000000)
I0718 14:21:33.762174 31595 net.cpp:165] Memory required for data: 1688000048
I0718 14:21:33.762189 31595 layer_factory.hpp:76] Creating layer inception_3a/relu_3x3_reduce
I0718 14:21:33.762207 31595 net.cpp:106] Creating Layer inception_3a/relu_3x3_reduce
I0718 14:21:33.762220 31595 net.cpp:454] inception_3a/relu_3x3_reduce <- inception_3a/3x3_reduce
I0718 14:21:33.762233 31595 net.cpp:397] inception_3a/relu_3x3_reduce -> inception_3a/3x3_reduce (in-place)
I0718 14:21:33.762774 31595 net.cpp:150] Setting up inception_3a/relu_3x3_reduce
I0718 14:21:33.762794 31595 net.cpp:157] Top shape: 4 96 125 125 (6000000)
I0718 14:21:33.762846 31595 net.cpp:165] Memory required for data: 1712000048
I0718 14:21:33.762861 31595 layer_factory.hpp:76] Creating layer inception_3a/3x3
I0718 14:21:33.762881 31595 net.cpp:106] Creating Layer inception_3a/3x3
I0718 14:21:33.762892 31595 net.cpp:454] inception_3a/3x3 <- inception_3a/3x3_reduce
I0718 14:21:33.762904 31595 net.cpp:411] inception_3a/3x3 -> inception_3a/3x3
I0718 14:21:33.765589 31595 cudnn_conv_layer.cpp:194] Reallocating workspace storage: 10368
I0718 14:21:33.765650 31595 net.cpp:150] Setting up inception_3a/3x3
I0718 14:21:33.765672 31595 net.cpp:157] Top shape: 4 128 125 125 (8000000)
I0718 14:21:33.765683 31595 net.cpp:165] Memory required for data: 1744000048
I0718 14:21:33.765698 31595 layer_factory.hpp:76] Creating layer inception_3a/relu_3x3
I0718 14:21:33.765722 31595 net.cpp:106] Creating Layer inception_3a/relu_3x3
I0718 14:21:33.765735 31595 net.cpp:454] inception_3a/relu_3x3 <- inception_3a/3x3
I0718 14:21:33.765758 31595 net.cpp:397] inception_3a/relu_3x3 -> inception_3a/3x3 (in-place)
I0718 14:21:33.765956 31595 net.cpp:150] Setting up inception_3a/relu_3x3
I0718 14:21:33.765976 31595 net.cpp:157] Top shape: 4 128 125 125 (8000000)
I0718 14:21:33.765985 31595 net.cpp:165] Memory required for data: 1776000048
I0718 14:21:33.765995 31595 layer_factory.hpp:76] Creating layer inception_3a/5x5_reduce
I0718 14:21:33.766017 31595 net.cpp:106] Creating Layer inception_3a/5x5_reduce
I0718 14:21:33.766029 31595 net.cpp:454] inception_3a/5x5_reduce <- pool2/3x3_s2_pool2/3x3_s2_0_split_2
I0718 14:21:33.766050 31595 net.cpp:411] inception_3a/5x5_reduce -> inception_3a/5x5_reduce
I0718 14:21:33.767946 31595 net.cpp:150] Setting up inception_3a/5x5_reduce
I0718 14:21:33.767971 31595 net.cpp:157] Top shape: 4 16 125 125 (1000000)
I0718 14:21:33.767987 31595 net.cpp:165] Memory required for data: 1780000048
I0718 14:21:33.768002 31595 layer_factory.hpp:76] Creating layer inception_3a/relu_5x5_reduce
I0718 14:21:33.768015 31595 net.cpp:106] Creating Layer inception_3a/relu_5x5_reduce
I0718 14:21:33.768025 31595 net.cpp:454] inception_3a/relu_5x5_reduce <- inception_3a/5x5_reduce
I0718 14:21:33.768039 31595 net.cpp:397] inception_3a/relu_5x5_reduce -> inception_3a/5x5_reduce (in-place)
I0718 14:21:33.768522 31595 net.cpp:150] Setting up inception_3a/relu_5x5_reduce
I0718 14:21:33.768549 31595 net.cpp:157] Top shape: 4 16 125 125 (1000000)
I0718 14:21:33.768571 31595 net.cpp:165] Memory required for data: 1784000048
I0718 14:21:33.768581 31595 layer_factory.hpp:76] Creating layer inception_3a/5x5
I0718 14:21:33.768599 31595 net.cpp:106] Creating Layer inception_3a/5x5
I0718 14:21:33.768607 31595 net.cpp:454] inception_3a/5x5 <- inception_3a/5x5_reduce
I0718 14:21:33.768622 31595 net.cpp:411] inception_3a/5x5 -> inception_3a/5x5
I0718 14:21:33.770059 31595 net.cpp:150] Setting up inception_3a/5x5
I0718 14:21:33.770088 31595 net.cpp:157] Top shape: 4 32 125 125 (2000000)
I0718 14:21:33.770102 31595 net.cpp:165] Memory required for data: 1792000048
I0718 14:21:33.770114 31595 layer_factory.hpp:76] Creating layer inception_3a/relu_5x5
I0718 14:21:33.770138 31595 net.cpp:106] Creating Layer inception_3a/relu_5x5
I0718 14:21:33.770156 31595 net.cpp:454] inception_3a/relu_5x5 <- inception_3a/5x5
I0718 14:21:33.770166 31595 net.cpp:397] inception_3a/relu_5x5 -> inception_3a/5x5 (in-place)
I0718 14:21:33.770936 31595 net.cpp:150] Setting up inception_3a/relu_5x5
I0718 14:21:33.770967 31595 net.cpp:157] Top shape: 4 32 125 125 (2000000)
I0718 14:21:33.770977 31595 net.cpp:165] Memory required for data: 1800000048
I0718 14:21:33.770992 31595 layer_factory.hpp:76] Creating layer inception_3a/pool
I0718 14:21:33.771006 31595 net.cpp:106] Creating Layer inception_3a/pool
I0718 14:21:33.771029 31595 net.cpp:454] inception_3a/pool <- pool2/3x3_s2_pool2/3x3_s2_0_split_3
I0718 14:21:33.771041 31595 net.cpp:411] inception_3a/pool -> inception_3a/pool
I0718 14:21:33.771311 31595 net.cpp:150] Setting up inception_3a/pool
I0718 14:21:33.771342 31595 net.cpp:157] Top shape: 4 192 125 125 (12000000)
I0718 14:21:33.771407 31595 net.cpp:165] Memory required for data: 1848000048
I0718 14:21:33.771425 31595 layer_factory.hpp:76] Creating layer inception_3a/pool_proj
I0718 14:21:33.771450 31595 net.cpp:106] Creating Layer inception_3a/pool_proj
I0718 14:21:33.771462 31595 net.cpp:454] inception_3a/pool_proj <- inception_3a/pool
I0718 14:21:33.771476 31595 net.cpp:411] inception_3a/pool_proj -> inception_3a/pool_proj
I0718 14:21:33.773208 31595 net.cpp:150] Setting up inception_3a/pool_proj
I0718 14:21:33.773239 31595 net.cpp:157] Top shape: 4 32 125 125 (2000000)
I0718 14:21:33.773249 31595 net.cpp:165] Memory required for data: 1856000048
I0718 14:21:33.773269 31595 layer_factory.hpp:76] Creating layer inception_3a/relu_pool_proj
I0718 14:21:33.773286 31595 net.cpp:106] Creating Layer inception_3a/relu_pool_proj
I0718 14:21:33.773310 31595 net.cpp:454] inception_3a/relu_pool_proj <- inception_3a/pool_proj
I0718 14:21:33.773329 31595 net.cpp:397] inception_3a/relu_pool_proj -> inception_3a/pool_proj (in-place)
I0718 14:21:33.773862 31595 net.cpp:150] Setting up inception_3a/relu_pool_proj
I0718 14:21:33.773898 31595 net.cpp:157] Top shape: 4 32 125 125 (2000000)
I0718 14:21:33.773919 31595 net.cpp:165] Memory required for data: 1864000048
I0718 14:21:33.773941 31595 layer_factory.hpp:76] Creating layer inception_3a/output
I0718 14:21:33.773972 31595 net.cpp:106] Creating Layer inception_3a/output
I0718 14:21:33.773982 31595 net.cpp:454] inception_3a/output <- inception_3a/1x1
I0718 14:21:33.773993 31595 net.cpp:454] inception_3a/output <- inception_3a/3x3
I0718 14:21:33.774008 31595 net.cpp:454] inception_3a/output <- inception_3a/5x5
I0718 14:21:33.774027 31595 net.cpp:454] inception_3a/output <- inception_3a/pool_proj
I0718 14:21:33.774044 31595 net.cpp:411] inception_3a/output -> inception_3a/output
I0718 14:21:33.774092 31595 net.cpp:150] Setting up inception_3a/output
I0718 14:21:33.774113 31595 net.cpp:157] Top shape: 4 256 125 125 (16000000)
I0718 14:21:33.774123 31595 net.cpp:165] Memory required for data: 1928000048
I0718 14:21:33.774142 31595 layer_factory.hpp:76] Creating layer inception_3a/output_inception_3a/output_0_split
I0718 14:21:33.774171 31595 net.cpp:106] Creating Layer inception_3a/output_inception_3a/output_0_split
I0718 14:21:33.774188 31595 net.cpp:454] inception_3a/output_inception_3a/output_0_split <- inception_3a/output
I0718 14:21:33.774199 31595 net.cpp:411] inception_3a/output_inception_3a/output_0_split -> inception_3a/output_inception_3a/output_0_split_0
I0718 14:21:33.774214 31595 net.cpp:411] inception_3a/output_inception_3a/output_0_split -> inception_3a/output_inception_3a/output_0_split_1
I0718 14:21:33.774245 31595 net.cpp:411] inception_3a/output_inception_3a/output_0_split -> inception_3a/output_inception_3a/output_0_split_2
I0718 14:21:33.774266 31595 net.cpp:411] inception_3a/output_inception_3a/output_0_split -> inception_3a/output_inception_3a/output_0_split_3
I0718 14:21:33.774376 31595 net.cpp:150] Setting up inception_3a/output_inception_3a/output_0_split
I0718 14:21:33.774392 31595 net.cpp:157] Top shape: 4 256 125 125 (16000000)
I0718 14:21:33.774410 31595 net.cpp:157] Top shape: 4 256 125 125 (16000000)
I0718 14:21:33.774423 31595 net.cpp:157] Top shape: 4 256 125 125 (16000000)
I0718 14:21:33.774433 31595 net.cpp:157] Top shape: 4 256 125 125 (16000000)
I0718 14:21:33.774462 31595 net.cpp:165] Memory required for data: 2184000048
I0718 14:21:33.774476 31595 layer_factory.hpp:76] Creating layer inception_3b/1x1
I0718 14:21:33.774493 31595 net.cpp:106] Creating Layer inception_3b/1x1
I0718 14:21:33.774507 31595 net.cpp:454] inception_3b/1x1 <- inception_3a/output_inception_3a/output_0_split_0
I0718 14:21:33.774531 31595 net.cpp:411] inception_3b/1x1 -> inception_3b/1x1
I0718 14:21:33.776648 31595 cudnn_conv_layer.cpp:194] Reallocating workspace storage: 3072
I0718 14:21:33.776716 31595 net.cpp:150] Setting up inception_3b/1x1
I0718 14:21:33.776736 31595 net.cpp:157] Top shape: 4 128 125 125 (8000000)
I0718 14:21:33.776746 31595 net.cpp:165] Memory required for data: 2216000048
I0718 14:21:33.776801 31595 layer_factory.hpp:76] Creating layer inception_3b/relu_1x1
I0718 14:21:33.776823 31595 net.cpp:106] Creating Layer inception_3b/relu_1x1
I0718 14:21:33.776839 31595 net.cpp:454] inception_3b/relu_1x1 <- inception_3b/1x1
I0718 14:21:33.776859 31595 net.cpp:397] inception_3b/relu_1x1 -> inception_3b/1x1 (in-place)
I0718 14:21:33.777075 31595 net.cpp:150] Setting up inception_3b/relu_1x1
I0718 14:21:33.777092 31595 net.cpp:157] Top shape: 4 128 125 125 (8000000)
I0718 14:21:33.777102 31595 net.cpp:165] Memory required for data: 2248000048
I0718 14:21:33.777112 31595 layer_factory.hpp:76] Creating layer inception_3b/3x3_reduce
I0718 14:21:33.777137 31595 net.cpp:106] Creating Layer inception_3b/3x3_reduce
I0718 14:21:33.777148 31595 net.cpp:454] inception_3b/3x3_reduce <- inception_3a/output_inception_3a/output_0_split_1
I0718 14:21:33.777163 31595 net.cpp:411] inception_3b/3x3_reduce -> inception_3b/3x3_reduce
I0718 14:21:33.779045 31595 cudnn_conv_layer.cpp:194] Reallocating workspace storage: 3072
I0718 14:21:33.779100 31595 net.cpp:150] Setting up inception_3b/3x3_reduce
I0718 14:21:33.779116 31595 net.cpp:157] Top shape: 4 128 125 125 (8000000)
I0718 14:21:33.779125 31595 net.cpp:165] Memory required for data: 2280000048
I0718 14:21:33.779145 31595 layer_factory.hpp:76] Creating layer inception_3b/relu_3x3_reduce
I0718 14:21:33.779172 31595 net.cpp:106] Creating Layer inception_3b/relu_3x3_reduce
I0718 14:21:33.779198 31595 net.cpp:454] inception_3b/relu_3x3_reduce <- inception_3b/3x3_reduce
I0718 14:21:33.779234 31595 net.cpp:397] inception_3b/relu_3x3_reduce -> inception_3b/3x3_reduce (in-place)
I0718 14:21:33.779517 31595 net.cpp:150] Setting up inception_3b/relu_3x3_reduce
I0718 14:21:33.779536 31595 net.cpp:157] Top shape: 4 128 125 125 (8000000)
I0718 14:21:33.779548 31595 net.cpp:165] Memory required for data: 2312000048
I0718 14:21:33.779561 31595 layer_factory.hpp:76] Creating layer inception_3b/3x3
I0718 14:21:33.779611 31595 net.cpp:106] Creating Layer inception_3b/3x3
I0718 14:21:33.779628 31595 net.cpp:454] inception_3b/3x3 <- inception_3b/3x3_reduce
I0718 14:21:33.779652 31595 net.cpp:411] inception_3b/3x3 -> inception_3b/3x3
I0718 14:21:33.784394 31595 cudnn_conv_layer.cpp:194] Reallocating workspace storage: 13824
I0718 14:21:33.784474 31595 net.cpp:150] Setting up inception_3b/3x3
I0718 14:21:33.784493 31595 net.cpp:157] Top shape: 4 192 125 125 (12000000)
I0718 14:21:33.784517 31595 net.cpp:165] Memory required for data: 2360000048
I0718 14:21:33.784538 31595 layer_factory.hpp:76] Creating layer inception_3b/relu_3x3
I0718 14:21:33.784559 31595 net.cpp:106] Creating Layer inception_3b/relu_3x3
I0718 14:21:33.784579 31595 net.cpp:454] inception_3b/relu_3x3 <- inception_3b/3x3
I0718 14:21:33.784598 31595 net.cpp:397] inception_3b/relu_3x3 -> inception_3b/3x3 (in-place)
I0718 14:21:33.785167 31595 net.cpp:150] Setting up inception_3b/relu_3x3
I0718 14:21:33.785190 31595 net.cpp:157] Top shape: 4 192 125 125 (12000000)
I0718 14:21:33.785213 31595 net.cpp:165] Memory required for data: 2408000048
I0718 14:21:33.785238 31595 layer_factory.hpp:76] Creating layer inception_3b/5x5_reduce
I0718 14:21:33.785277 31595 net.cpp:106] Creating Layer inception_3b/5x5_reduce
I0718 14:21:33.785290 31595 net.cpp:454] inception_3b/5x5_reduce <- inception_3a/output_inception_3a/output_0_split_2
I0718 14:21:33.785306 31595 net.cpp:411] inception_3b/5x5_reduce -> inception_3b/5x5_reduce
I0718 14:21:33.787029 31595 cudnn_conv_layer.cpp:194] Reallocating workspace storage: 3072
I0718 14:21:33.787075 31595 net.cpp:150] Setting up inception_3b/5x5_reduce
I0718 14:21:33.787093 31595 net.cpp:157] Top shape: 4 32 125 125 (2000000)
I0718 14:21:33.787102 31595 net.cpp:165] Memory required for data: 2416000048
I0718 14:21:33.787116 31595 layer_factory.hpp:76] Creating layer inception_3b/relu_5x5_reduce
I0718 14:21:33.787142 31595 net.cpp:106] Creating Layer inception_3b/relu_5x5_reduce
I0718 14:21:33.787163 31595 net.cpp:454] inception_3b/relu_5x5_reduce <- inception_3b/5x5_reduce
I0718 14:21:33.787209 31595 net.cpp:397] inception_3b/relu_5x5_reduce -> inception_3b/5x5_reduce (in-place)
I0718 14:21:33.787456 31595 net.cpp:150] Setting up inception_3b/relu_5x5_reduce
I0718 14:21:33.787475 31595 net.cpp:157] Top shape: 4 32 125 125 (2000000)
I0718 14:21:33.787490 31595 net.cpp:165] Memory required for data: 2424000048
I0718 14:21:33.787508 31595 layer_factory.hpp:76] Creating layer inception_3b/5x5
I0718 14:21:33.787528 31595 net.cpp:106] Creating Layer inception_3b/5x5
I0718 14:21:33.787546 31595 net.cpp:454] inception_3b/5x5 <- inception_3b/5x5_reduce
I0718 14:21:33.787564 31595 net.cpp:411] inception_3b/5x5 -> inception_3b/5x5
I0718 14:21:33.792112 31595 net.cpp:150] Setting up inception_3b/5x5
I0718 14:21:33.792163 31595 net.cpp:157] Top shape: 4 96 125 125 (6000000)
I0718 14:21:33.792172 31595 net.cpp:165] Memory required for data: 2448000048
I0718 14:21:33.792187 31595 layer_factory.hpp:76] Creating layer inception_3b/relu_5x5
I0718 14:21:33.792212 31595 net.cpp:106] Creating Layer inception_3b/relu_5x5
I0718 14:21:33.792228 31595 net.cpp:454] inception_3b/relu_5x5 <- inception_3b/5x5
I0718 14:21:33.792258 31595 net.cpp:397] inception_3b/relu_5x5 -> inception_3b/5x5 (in-place)
I0718 14:21:33.792598 31595 net.cpp:150] Setting up inception_3b/relu_5x5
I0718 14:21:33.792613 31595 net.cpp:157] Top shape: 4 96 125 125 (6000000)
I0718 14:21:33.792621 31595 net.cpp:165] Memory required for data: 2472000048
I0718 14:21:33.792629 31595 layer_factory.hpp:76] Creating layer inception_3b/pool
I0718 14:21:33.792646 31595 net.cpp:106] Creating Layer inception_3b/pool
I0718 14:21:33.792662 31595 net.cpp:454] inception_3b/pool <- inception_3a/output_inception_3a/output_0_split_3
I0718 14:21:33.792686 31595 net.cpp:411] inception_3b/pool -> inception_3b/pool
I0718 14:21:33.793416 31595 net.cpp:150] Setting up inception_3b/pool
I0718 14:21:33.793459 31595 net.cpp:157] Top shape: 4 256 125 125 (16000000)
I0718 14:21:33.793468 31595 net.cpp:165] Memory required for data: 2536000048
I0718 14:21:33.793478 31595 layer_factory.hpp:76] Creating layer inception_3b/pool_proj
I0718 14:21:33.793498 31595 net.cpp:106] Creating Layer inception_3b/pool_proj
I0718 14:21:33.793507 31595 net.cpp:454] inception_3b/pool_proj <- inception_3b/pool
I0718 14:21:33.793527 31595 net.cpp:411] inception_3b/pool_proj -> inception_3b/pool_proj
I0718 14:21:33.796218 31595 cudnn_conv_layer.cpp:194] Reallocating workspace storage: 3072
I0718 14:21:33.796274 31595 net.cpp:150] Setting up inception_3b/pool_proj
I0718 14:21:33.796298 31595 net.cpp:157] Top shape: 4 64 125 125 (4000000)
I0718 14:21:33.796317 31595 net.cpp:165] Memory required for data: 2552000048
I0718 14:21:33.796350 31595 layer_factory.hpp:76] Creating layer inception_3b/relu_pool_proj
I0718 14:21:33.796370 31595 net.cpp:106] Creating Layer inception_3b/relu_pool_proj
I0718 14:21:33.796386 31595 net.cpp:454] inception_3b/relu_pool_proj <- inception_3b/pool_proj
I0718 14:21:33.796407 31595 net.cpp:397] inception_3b/relu_pool_proj -> inception_3b/pool_proj (in-place)
I0718 14:21:33.796710 31595 net.cpp:150] Setting up inception_3b/relu_pool_proj
I0718 14:21:33.796736 31595 net.cpp:157] Top shape: 4 64 125 125 (4000000)
I0718 14:21:33.796749 31595 net.cpp:165] Memory required for data: 2568000048
I0718 14:21:33.796766 31595 layer_factory.hpp:76] Creating layer inception_3b/output
I0718 14:21:33.796792 31595 net.cpp:106] Creating Layer inception_3b/output
I0718 14:21:33.796813 31595 net.cpp:454] inception_3b/output <- inception_3b/1x1
I0718 14:21:33.796838 31595 net.cpp:454] inception_3b/output <- inception_3b/3x3
I0718 14:21:33.796861 31595 net.cpp:454] inception_3b/output <- inception_3b/5x5
I0718 14:21:33.796890 31595 net.cpp:454] inception_3b/output <- inception_3b/pool_proj
I0718 14:21:33.796919 31595 net.cpp:411] inception_3b/output -> inception_3b/output
I0718 14:21:33.797001 31595 net.cpp:150] Setting up inception_3b/output
I0718 14:21:33.797030 31595 net.cpp:157] Top shape: 4 480 125 125 (30000000)
I0718 14:21:33.797046 31595 net.cpp:165] Memory required for data: 2688000048
I0718 14:21:33.797116 31595 layer_factory.hpp:76] Creating layer pool3/3x3_s2
I0718 14:21:33.797159 31595 net.cpp:106] Creating Layer pool3/3x3_s2
I0718 14:21:33.797176 31595 net.cpp:454] pool3/3x3_s2 <- inception_3b/output
I0718 14:21:33.797193 31595 net.cpp:411] pool3/3x3_s2 -> pool3/3x3_s2
I0718 14:21:33.798012 31595 net.cpp:150] Setting up pool3/3x3_s2
I0718 14:21:33.798051 31595 net.cpp:157] Top shape: 4 480 62 62 (7380480)
I0718 14:21:33.798068 31595 net.cpp:165] Memory required for data: 2717521968
I0718 14:21:33.798080 31595 layer_factory.hpp:76] Creating layer pool3/3x3_s2_pool3/3x3_s2_0_split
I0718 14:21:33.798104 31595 net.cpp:106] Creating Layer pool3/3x3_s2_pool3/3x3_s2_0_split
I0718 14:21:33.798122 31595 net.cpp:454] pool3/3x3_s2_pool3/3x3_s2_0_split <- pool3/3x3_s2
I0718 14:21:33.798156 31595 net.cpp:411] pool3/3x3_s2_pool3/3x3_s2_0_split -> pool3/3x3_s2_pool3/3x3_s2_0_split_0
I0718 14:21:33.798179 31595 net.cpp:411] pool3/3x3_s2_pool3/3x3_s2_0_split -> pool3/3x3_s2_pool3/3x3_s2_0_split_1
I0718 14:21:33.798202 31595 net.cpp:411] pool3/3x3_s2_pool3/3x3_s2_0_split -> pool3/3x3_s2_pool3/3x3_s2_0_split_2
I0718 14:21:33.798219 31595 net.cpp:411] pool3/3x3_s2_pool3/3x3_s2_0_split -> pool3/3x3_s2_pool3/3x3_s2_0_split_3
I0718 14:21:33.798317 31595 net.cpp:150] Setting up pool3/3x3_s2_pool3/3x3_s2_0_split
I0718 14:21:33.798341 31595 net.cpp:157] Top shape: 4 480 62 62 (7380480)
I0718 14:21:33.798358 31595 net.cpp:157] Top shape: 4 480 62 62 (7380480)
I0718 14:21:33.798372 31595 net.cpp:157] Top shape: 4 480 62 62 (7380480)
I0718 14:21:33.798393 31595 net.cpp:157] Top shape: 4 480 62 62 (7380480)
I0718 14:21:33.798408 31595 net.cpp:165] Memory required for data: 2835609648
I0718 14:21:33.798421 31595 layer_factory.hpp:76] Creating layer inception_4a/1x1
I0718 14:21:33.798446 31595 net.cpp:106] Creating Layer inception_4a/1x1
I0718 14:21:33.798460 31595 net.cpp:454] inception_4a/1x1 <- pool3/3x3_s2_pool3/3x3_s2_0_split_0
I0718 14:21:33.798481 31595 net.cpp:411] inception_4a/1x1 -> inception_4a/1x1
I0718 14:21:33.801380 31595 cudnn_conv_layer.cpp:194] Reallocating workspace storage: 5760
I0718 14:21:33.801450 31595 net.cpp:150] Setting up inception_4a/1x1
I0718 14:21:33.801481 31595 net.cpp:157] Top shape: 4 192 62 62 (2952192)
I0718 14:21:33.801498 31595 net.cpp:165] Memory required for data: 2847418416
I0718 14:21:33.801522 31595 layer_factory.hpp:76] Creating layer inception_4a/relu_1x1
I0718 14:21:33.801561 31595 net.cpp:106] Creating Layer inception_4a/relu_1x1
I0718 14:21:33.801589 31595 net.cpp:454] inception_4a/relu_1x1 <- inception_4a/1x1
I0718 14:21:33.801610 31595 net.cpp:397] inception_4a/relu_1x1 -> inception_4a/1x1 (in-place)
I0718 14:21:33.801950 31595 net.cpp:150] Setting up inception_4a/relu_1x1
I0718 14:21:33.801982 31595 net.cpp:157] Top shape: 4 192 62 62 (2952192)
I0718 14:21:33.801997 31595 net.cpp:165] Memory required for data: 2859227184
I0718 14:21:33.802011 31595 layer_factory.hpp:76] Creating layer inception_4a/3x3_reduce
I0718 14:21:33.802036 31595 net.cpp:106] Creating Layer inception_4a/3x3_reduce
I0718 14:21:33.802065 31595 net.cpp:454] inception_4a/3x3_reduce <- pool3/3x3_s2_pool3/3x3_s2_0_split_1
I0718 14:21:33.802103 31595 net.cpp:411] inception_4a/3x3_reduce -> inception_4a/3x3_reduce
I0718 14:21:33.804620 31595 cudnn_conv_layer.cpp:194] Reallocating workspace storage: 5760
I0718 14:21:33.804687 31595 net.cpp:150] Setting up inception_4a/3x3_reduce
I0718 14:21:33.804724 31595 net.cpp:157] Top shape: 4 96 62 62 (1476096)
I0718 14:21:33.804741 31595 net.cpp:165] Memory required for data: 2865131568
I0718 14:21:33.804786 31595 layer_factory.hpp:76] Creating layer inception_4a/relu_3x3_reduce
I0718 14:21:33.804812 31595 net.cpp:106] Creating Layer inception_4a/relu_3x3_reduce
I0718 14:21:33.804829 31595 net.cpp:454] inception_4a/relu_3x3_reduce <- inception_4a/3x3_reduce
I0718 14:21:33.804857 31595 net.cpp:397] inception_4a/relu_3x3_reduce -> inception_4a/3x3_reduce (in-place)
I0718 14:21:33.805202 31595 net.cpp:150] Setting up inception_4a/relu_3x3_reduce
I0718 14:21:33.805270 31595 net.cpp:157] Top shape: 4 96 62 62 (1476096)
I0718 14:21:33.805284 31595 net.cpp:165] Memory required for data: 2871035952
I0718 14:21:33.805310 31595 layer_factory.hpp:76] Creating layer inception_4a/3x3
I0718 14:21:33.805343 31595 net.cpp:106] Creating Layer inception_4a/3x3
I0718 14:21:33.805363 31595 net.cpp:454] inception_4a/3x3 <- inception_4a/3x3_reduce
I0718 14:21:33.805394 31595 net.cpp:411] inception_4a/3x3 -> inception_4a/3x3
I0718 14:21:33.810289 31595 net.cpp:150] Setting up inception_4a/3x3
I0718 14:21:33.810348 31595 net.cpp:157] Top shape: 4 208 62 62 (3198208)
I0718 14:21:33.810372 31595 net.cpp:165] Memory required for data: 2883828784
I0718 14:21:33.810398 31595 layer_factory.hpp:76] Creating layer inception_4a/relu_3x3
I0718 14:21:33.810433 31595 net.cpp:106] Creating Layer inception_4a/relu_3x3
I0718 14:21:33.810466 31595 net.cpp:454] inception_4a/relu_3x3 <- inception_4a/3x3
I0718 14:21:33.810487 31595 net.cpp:397] inception_4a/relu_3x3 -> inception_4a/3x3 (in-place)
I0718 14:21:33.811159 31595 net.cpp:150] Setting up inception_4a/relu_3x3
I0718 14:21:33.811190 31595 net.cpp:157] Top shape: 4 208 62 62 (3198208)
I0718 14:21:33.811208 31595 net.cpp:165] Memory required for data: 2896621616
I0718 14:21:33.811233 31595 layer_factory.hpp:76] Creating layer inception_4a/5x5_reduce
I0718 14:21:33.811280 31595 net.cpp:106] Creating Layer inception_4a/5x5_reduce
I0718 14:21:33.811307 31595 net.cpp:454] inception_4a/5x5_reduce <- pool3/3x3_s2_pool3/3x3_s2_0_split_2
I0718 14:21:33.811331 31595 net.cpp:411] inception_4a/5x5_reduce -> inception_4a/5x5_reduce
I0718 14:21:33.813529 31595 net.cpp:150] Setting up inception_4a/5x5_reduce
I0718 14:21:33.813563 31595 net.cpp:157] Top shape: 4 16 62 62 (246016)
I0718 14:21:33.813582 31595 net.cpp:165] Memory required for data: 2897605680
I0718 14:21:33.813603 31595 layer_factory.hpp:76] Creating layer inception_4a/relu_5x5_reduce
I0718 14:21:33.813622 31595 net.cpp:106] Creating Layer inception_4a/relu_5x5_reduce
I0718 14:21:33.813642 31595 net.cpp:454] inception_4a/relu_5x5_reduce <- inception_4a/5x5_reduce
I0718 14:21:33.813663 31595 net.cpp:397] inception_4a/relu_5x5_reduce -> inception_4a/5x5_reduce (in-place)
I0718 14:21:33.813969 31595 net.cpp:150] Setting up inception_4a/relu_5x5_reduce
I0718 14:21:33.813995 31595 net.cpp:157] Top shape: 4 16 62 62 (246016)
I0718 14:21:33.814009 31595 net.cpp:165] Memory required for data: 2898589744
I0718 14:21:33.814025 31595 layer_factory.hpp:76] Creating layer inception_4a/5x5
I0718 14:21:33.814059 31595 net.cpp:106] Creating Layer inception_4a/5x5
I0718 14:21:33.814080 31595 net.cpp:454] inception_4a/5x5 <- inception_4a/5x5_reduce
I0718 14:21:33.814103 31595 net.cpp:411] inception_4a/5x5 -> inception_4a/5x5
I0718 14:21:33.817195 31595 net.cpp:150] Setting up inception_4a/5x5
I0718 14:21:33.817229 31595 net.cpp:157] Top shape: 4 48 62 62 (738048)
I0718 14:21:33.817245 31595 net.cpp:165] Memory required for data: 2901541936
I0718 14:21:33.817268 31595 layer_factory.hpp:76] Creating layer inception_4a/relu_5x5
I0718 14:21:33.817291 31595 net.cpp:106] Creating Layer inception_4a/relu_5x5
I0718 14:21:33.817306 31595 net.cpp:454] inception_4a/relu_5x5 <- inception_4a/5x5
I0718 14:21:33.817325 31595 net.cpp:397] inception_4a/relu_5x5 -> inception_4a/5x5 (in-place)
I0718 14:21:33.817639 31595 net.cpp:150] Setting up inception_4a/relu_5x5
I0718 14:21:33.817672 31595 net.cpp:157] Top shape: 4 48 62 62 (738048)
I0718 14:21:33.817693 31595 net.cpp:165] Memory required for data: 2904494128
I0718 14:21:33.817709 31595 layer_factory.hpp:76] Creating layer inception_4a/pool
I0718 14:21:33.817736 31595 net.cpp:106] Creating Layer inception_4a/pool
I0718 14:21:33.817756 31595 net.cpp:454] inception_4a/pool <- pool3/3x3_s2_pool3/3x3_s2_0_split_3
I0718 14:21:33.817775 31595 net.cpp:411] inception_4a/pool -> inception_4a/pool
I0718 14:21:33.818464 31595 net.cpp:150] Setting up inception_4a/pool
I0718 14:21:33.818495 31595 net.cpp:157] Top shape: 4 480 62 62 (7380480)
I0718 14:21:33.818514 31595 net.cpp:165] Memory required for data: 2934016048
I0718 14:21:33.818567 31595 layer_factory.hpp:76] Creating layer inception_4a/pool_proj
I0718 14:21:33.818596 31595 net.cpp:106] Creating Layer inception_4a/pool_proj
I0718 14:21:33.818613 31595 net.cpp:454] inception_4a/pool_proj <- inception_4a/pool
I0718 14:21:33.818645 31595 net.cpp:411] inception_4a/pool_proj -> inception_4a/pool_proj
I0718 14:21:33.821288 31595 cudnn_conv_layer.cpp:194] Reallocating workspace storage: 5760
I0718 14:21:33.821364 31595 net.cpp:150] Setting up inception_4a/pool_proj
I0718 14:21:33.821394 31595 net.cpp:157] Top shape: 4 64 62 62 (984064)
I0718 14:21:33.821413 31595 net.cpp:165] Memory required for data: 2937952304
I0718 14:21:33.821457 31595 layer_factory.hpp:76] Creating layer inception_4a/relu_pool_proj
I0718 14:21:33.821485 31595 net.cpp:106] Creating Layer inception_4a/relu_pool_proj
I0718 14:21:33.821502 31595 net.cpp:454] inception_4a/relu_pool_proj <- inception_4a/pool_proj
I0718 14:21:33.821534 31595 net.cpp:397] inception_4a/relu_pool_proj -> inception_4a/pool_proj (in-place)
I0718 14:21:33.821933 31595 net.cpp:150] Setting up inception_4a/relu_pool_proj
I0718 14:21:33.821964 31595 net.cpp:157] Top shape: 4 64 62 62 (984064)
I0718 14:21:33.821985 31595 net.cpp:165] Memory required for data: 2941888560
I0718 14:21:33.822000 31595 layer_factory.hpp:76] Creating layer inception_4a/output
I0718 14:21:33.822021 31595 net.cpp:106] Creating Layer inception_4a/output
I0718 14:21:33.822037 31595 net.cpp:454] inception_4a/output <- inception_4a/1x1
I0718 14:21:33.822057 31595 net.cpp:454] inception_4a/output <- inception_4a/3x3
I0718 14:21:33.822090 31595 net.cpp:454] inception_4a/output <- inception_4a/5x5
I0718 14:21:33.822124 31595 net.cpp:454] inception_4a/output <- inception_4a/pool_proj
I0718 14:21:33.822155 31595 net.cpp:411] inception_4a/output -> inception_4a/output
I0718 14:21:33.822216 31595 net.cpp:150] Setting up inception_4a/output
I0718 14:21:33.822254 31595 net.cpp:157] Top shape: 4 512 62 62 (7872512)
I0718 14:21:33.822283 31595 net.cpp:165] Memory required for data: 2973378608
I0718 14:21:33.822299 31595 layer_factory.hpp:76] Creating layer inception_4a/output_inception_4a/output_0_split
I0718 14:21:33.822322 31595 net.cpp:106] Creating Layer inception_4a/output_inception_4a/output_0_split
I0718 14:21:33.822336 31595 net.cpp:454] inception_4a/output_inception_4a/output_0_split <- inception_4a/output
I0718 14:21:33.822381 31595 net.cpp:411] inception_4a/output_inception_4a/output_0_split -> inception_4a/output_inception_4a/output_0_split_0
I0718 14:21:33.822422 31595 net.cpp:411] inception_4a/output_inception_4a/output_0_split -> inception_4a/output_inception_4a/output_0_split_1
I0718 14:21:33.822443 31595 net.cpp:411] inception_4a/output_inception_4a/output_0_split -> inception_4a/output_inception_4a/output_0_split_2
I0718 14:21:33.822463 31595 net.cpp:411] inception_4a/output_inception_4a/output_0_split -> inception_4a/output_inception_4a/output_0_split_3
I0718 14:21:33.822636 31595 net.cpp:150] Setting up inception_4a/output_inception_4a/output_0_split
I0718 14:21:33.822665 31595 net.cpp:157] Top shape: 4 512 62 62 (7872512)
I0718 14:21:33.822685 31595 net.cpp:157] Top shape: 4 512 62 62 (7872512)
I0718 14:21:33.822700 31595 net.cpp:157] Top shape: 4 512 62 62 (7872512)
I0718 14:21:33.822715 31595 net.cpp:157] Top shape: 4 512 62 62 (7872512)
I0718 14:21:33.822728 31595 net.cpp:165] Memory required for data: 3099338800
I0718 14:21:33.822751 31595 layer_factory.hpp:76] Creating layer inception_4b/1x1
I0718 14:21:33.822782 31595 net.cpp:106] Creating Layer inception_4b/1x1
I0718 14:21:33.822799 31595 net.cpp:454] inception_4b/1x1 <- inception_4a/output_inception_4a/output_0_split_0
I0718 14:21:33.822832 31595 net.cpp:411] inception_4b/1x1 -> inception_4b/1x1
I0718 14:21:33.826220 31595 cudnn_conv_layer.cpp:194] Reallocating workspace storage: 6144
I0718 14:21:33.826279 31595 net.cpp:150] Setting up inception_4b/1x1
I0718 14:21:33.826313 31595 net.cpp:157] Top shape: 4 160 62 62 (2460160)
I0718 14:21:33.826326 31595 net.cpp:165] Memory required for data: 3109179440
I0718 14:21:33.826380 31595 layer_factory.hpp:76] Creating layer inception_4b/relu_1x1
I0718 14:21:33.826403 31595 net.cpp:106] Creating Layer inception_4b/relu_1x1
I0718 14:21:33.826421 31595 net.cpp:454] inception_4b/relu_1x1 <- inception_4b/1x1
I0718 14:21:33.826442 31595 net.cpp:397] inception_4b/relu_1x1 -> inception_4b/1x1 (in-place)
I0718 14:21:33.827111 31595 net.cpp:150] Setting up inception_4b/relu_1x1
I0718 14:21:33.827139 31595 net.cpp:157] Top shape: 4 160 62 62 (2460160)
I0718 14:21:33.827157 31595 net.cpp:165] Memory required for data: 3119020080
I0718 14:21:33.827173 31595 layer_factory.hpp:76] Creating layer inception_4b/3x3_reduce
I0718 14:21:33.827203 31595 net.cpp:106] Creating Layer inception_4b/3x3_reduce
I0718 14:21:33.827224 31595 net.cpp:454] inception_4b/3x3_reduce <- inception_4a/output_inception_4a/output_0_split_1
I0718 14:21:33.827246 31595 net.cpp:411] inception_4b/3x3_reduce -> inception_4b/3x3_reduce
I0718 14:21:33.829375 31595 cudnn_conv_layer.cpp:194] Reallocating workspace storage: 6144
I0718 14:21:33.829421 31595 net.cpp:150] Setting up inception_4b/3x3_reduce
I0718 14:21:33.829442 31595 net.cpp:157] Top shape: 4 112 62 62 (1722112)
I0718 14:21:33.829463 31595 net.cpp:165] Memory required for data: 3125908528
I0718 14:21:33.829495 31595 layer_factory.hpp:76] Creating layer inception_4b/relu_3x3_reduce
I0718 14:21:33.829515 31595 net.cpp:106] Creating Layer inception_4b/relu_3x3_reduce
I0718 14:21:33.829530 31595 net.cpp:454] inception_4b/relu_3x3_reduce <- inception_4b/3x3_reduce
I0718 14:21:33.829546 31595 net.cpp:397] inception_4b/relu_3x3_reduce -> inception_4b/3x3_reduce (in-place)
I0718 14:21:33.830129 31595 net.cpp:150] Setting up inception_4b/relu_3x3_reduce
I0718 14:21:33.830163 31595 net.cpp:157] Top shape: 4 112 62 62 (1722112)
I0718 14:21:33.830178 31595 net.cpp:165] Memory required for data: 3132796976
I0718 14:21:33.830195 31595 layer_factory.hpp:76] Creating layer inception_4b/3x3
I0718 14:21:33.830219 31595 net.cpp:106] Creating Layer inception_4b/3x3
I0718 14:21:33.830236 31595 net.cpp:454] inception_4b/3x3 <- inception_4b/3x3_reduce
I0718 14:21:33.830256 31595 net.cpp:411] inception_4b/3x3 -> inception_4b/3x3
I0718 14:21:33.835914 31595 cudnn_conv_layer.cpp:194] Reallocating workspace storage: 12096
I0718 14:21:33.835963 31595 net.cpp:150] Setting up inception_4b/3x3
I0718 14:21:33.835986 31595 net.cpp:157] Top shape: 4 224 62 62 (3444224)
I0718 14:21:33.836004 31595 net.cpp:165] Memory required for data: 3146573872
I0718 14:21:33.836027 31595 layer_factory.hpp:76] Creating layer inception_4b/relu_3x3
I0718 14:21:33.836061 31595 net.cpp:106] Creating Layer inception_4b/relu_3x3
I0718 14:21:33.836082 31595 net.cpp:454] inception_4b/relu_3x3 <- inception_4b/3x3
I0718 14:21:33.836099 31595 net.cpp:397] inception_4b/relu_3x3 -> inception_4b/3x3 (in-place)
I0718 14:21:33.836397 31595 net.cpp:150] Setting up inception_4b/relu_3x3
I0718 14:21:33.836423 31595 net.cpp:157] Top shape: 4 224 62 62 (3444224)
I0718 14:21:33.836441 31595 net.cpp:165] Memory required for data: 3160350768
I0718 14:21:33.836463 31595 layer_factory.hpp:76] Creating layer inception_4b/5x5_reduce
I0718 14:21:33.836493 31595 net.cpp:106] Creating Layer inception_4b/5x5_reduce
I0718 14:21:33.836513 31595 net.cpp:454] inception_4b/5x5_reduce <- inception_4a/output_inception_4a/output_0_split_2
I0718 14:21:33.836540 31595 net.cpp:411] inception_4b/5x5_reduce -> inception_4b/5x5_reduce
I0718 14:21:33.839334 31595 cudnn_conv_layer.cpp:194] Reallocating workspace storage: 6144
I0718 14:21:33.839396 31595 net.cpp:150] Setting up inception_4b/5x5_reduce
I0718 14:21:33.839427 31595 net.cpp:157] Top shape: 4 24 62 62 (369024)
I0718 14:21:33.839444 31595 net.cpp:165] Memory required for data: 3161826864
I0718 14:21:33.839467 31595 layer_factory.hpp:76] Creating layer inception_4b/relu_5x5_reduce
I0718 14:21:33.839488 31595 net.cpp:106] Creating Layer inception_4b/relu_5x5_reduce
I0718 14:21:33.839510 31595 net.cpp:454] inception_4b/relu_5x5_reduce <- inception_4b/5x5_reduce
I0718 14:21:33.839540 31595 net.cpp:397] inception_4b/relu_5x5_reduce -> inception_4b/5x5_reduce (in-place)
I0718 14:21:33.840172 31595 net.cpp:150] Setting up inception_4b/relu_5x5_reduce
I0718 14:21:33.840205 31595 net.cpp:157] Top shape: 4 24 62 62 (369024)
I0718 14:21:33.840234 31595 net.cpp:165] Memory required for data: 3163302960
I0718 14:21:33.840250 31595 layer_factory.hpp:76] Creating layer inception_4b/5x5
I0718 14:21:33.840270 31595 net.cpp:106] Creating Layer inception_4b/5x5
I0718 14:21:33.840288 31595 net.cpp:454] inception_4b/5x5 <- inception_4b/5x5_reduce
I0718 14:21:33.840312 31595 net.cpp:411] inception_4b/5x5 -> inception_4b/5x5
I0718 14:21:33.842432 31595 net.cpp:150] Setting up inception_4b/5x5
I0718 14:21:33.842474 31595 net.cpp:157] Top shape: 4 64 62 62 (984064)
I0718 14:21:33.842494 31595 net.cpp:165] Memory required for data: 3167239216
I0718 14:21:33.842514 31595 layer_factory.hpp:76] Creating layer inception_4b/relu_5x5
I0718 14:21:33.842555 31595 net.cpp:106] Creating Layer inception_4b/relu_5x5
I0718 14:21:33.842578 31595 net.cpp:454] inception_4b/relu_5x5 <- inception_4b/5x5
I0718 14:21:33.842597 31595 net.cpp:397] inception_4b/relu_5x5 -> inception_4b/5x5 (in-place)
I0718 14:21:33.843281 31595 net.cpp:150] Setting up inception_4b/relu_5x5
I0718 14:21:33.843312 31595 net.cpp:157] Top shape: 4 64 62 62 (984064)
I0718 14:21:33.843335 31595 net.cpp:165] Memory required for data: 3171175472
I0718 14:21:33.843354 31595 layer_factory.hpp:76] Creating layer inception_4b/pool
I0718 14:21:33.843374 31595 net.cpp:106] Creating Layer inception_4b/pool
I0718 14:21:33.843411 31595 net.cpp:454] inception_4b/pool <- inception_4a/output_inception_4a/output_0_split_3
I0718 14:21:33.843444 31595 net.cpp:411] inception_4b/pool -> inception_4b/pool
I0718 14:21:33.844534 31595 net.cpp:150] Setting up inception_4b/pool
I0718 14:21:33.844576 31595 net.cpp:157] Top shape: 4 512 62 62 (7872512)
I0718 14:21:33.844593 31595 net.cpp:165] Memory required for data: 3202665520
I0718 14:21:33.844607 31595 layer_factory.hpp:76] Creating layer inception_4b/pool_proj
I0718 14:21:33.844627 31595 net.cpp:106] Creating Layer inception_4b/pool_proj
I0718 14:21:33.844650 31595 net.cpp:454] inception_4b/pool_proj <- inception_4b/pool
I0718 14:21:33.844702 31595 net.cpp:411] inception_4b/pool_proj -> inception_4b/pool_proj
I0718 14:21:33.846878 31595 net.cpp:150] Setting up inception_4b/pool_proj
I0718 14:21:33.846910 31595 net.cpp:157] Top shape: 4 64 62 62 (984064)
I0718 14:21:33.846936 31595 net.cpp:165] Memory required for data: 3206601776
I0718 14:21:33.846962 31595 layer_factory.hpp:76] Creating layer inception_4b/relu_pool_proj
I0718 14:21:33.846987 31595 net.cpp:106] Creating Layer inception_4b/relu_pool_proj
I0718 14:21:33.847008 31595 net.cpp:454] inception_4b/relu_pool_proj <- inception_4b/pool_proj
I0718 14:21:33.847043 31595 net.cpp:397] inception_4b/relu_pool_proj -> inception_4b/pool_proj (in-place)
I0718 14:21:33.847705 31595 net.cpp:150] Setting up inception_4b/relu_pool_proj
I0718 14:21:33.847740 31595 net.cpp:157] Top shape: 4 64 62 62 (984064)
I0718 14:21:33.847756 31595 net.cpp:165] Memory required for data: 3210538032
I0718 14:21:33.847770 31595 layer_factory.hpp:76] Creating layer inception_4b/output
I0718 14:21:33.847805 31595 net.cpp:106] Creating Layer inception_4b/output
I0718 14:21:33.847827 31595 net.cpp:454] inception_4b/output <- inception_4b/1x1
I0718 14:21:33.847846 31595 net.cpp:454] inception_4b/output <- inception_4b/3x3
I0718 14:21:33.847868 31595 net.cpp:454] inception_4b/output <- inception_4b/5x5
I0718 14:21:33.847889 31595 net.cpp:454] inception_4b/output <- inception_4b/pool_proj
I0718 14:21:33.847906 31595 net.cpp:411] inception_4b/output -> inception_4b/output
I0718 14:21:33.847968 31595 net.cpp:150] Setting up inception_4b/output
I0718 14:21:33.847993 31595 net.cpp:157] Top shape: 4 512 62 62 (7872512)
I0718 14:21:33.848011 31595 net.cpp:165] Memory required for data: 3242028080
I0718 14:21:33.848042 31595 layer_factory.hpp:76] Creating layer inception_4b/output_inception_4b/output_0_split
I0718 14:21:33.848073 31595 net.cpp:106] Creating Layer inception_4b/output_inception_4b/output_0_split
I0718 14:21:33.848112 31595 net.cpp:454] inception_4b/output_inception_4b/output_0_split <- inception_4b/output
I0718 14:21:33.848131 31595 net.cpp:411] inception_4b/output_inception_4b/output_0_split -> inception_4b/output_inception_4b/output_0_split_0
I0718 14:21:33.848156 31595 net.cpp:411] inception_4b/output_inception_4b/output_0_split -> inception_4b/output_inception_4b/output_0_split_1
I0718 14:21:33.848177 31595 net.cpp:411] inception_4b/output_inception_4b/output_0_split -> inception_4b/output_inception_4b/output_0_split_2
I0718 14:21:33.848198 31595 net.cpp:411] inception_4b/output_inception_4b/output_0_split -> inception_4b/output_inception_4b/output_0_split_3
I0718 14:21:33.848340 31595 net.cpp:150] Setting up inception_4b/output_inception_4b/output_0_split
I0718 14:21:33.848366 31595 net.cpp:157] Top shape: 4 512 62 62 (7872512)
I0718 14:21:33.848390 31595 net.cpp:157] Top shape: 4 512 62 62 (7872512)
I0718 14:21:33.848407 31595 net.cpp:157] Top shape: 4 512 62 62 (7872512)
I0718 14:21:33.848424 31595 net.cpp:157] Top shape: 4 512 62 62 (7872512)
I0718 14:21:33.848439 31595 net.cpp:165] Memory required for data: 3367988272
I0718 14:21:33.848458 31595 layer_factory.hpp:76] Creating layer inception_4c/1x1
I0718 14:21:33.848482 31595 net.cpp:106] Creating Layer inception_4c/1x1
I0718 14:21:33.848498 31595 net.cpp:454] inception_4c/1x1 <- inception_4b/output_inception_4b/output_0_split_0
I0718 14:21:33.848517 31595 net.cpp:411] inception_4c/1x1 -> inception_4c/1x1
I0718 14:21:33.851032 31595 cudnn_conv_layer.cpp:194] Reallocating workspace storage: 6144
I0718 14:21:33.851083 31595 net.cpp:150] Setting up inception_4c/1x1
I0718 14:21:33.851109 31595 net.cpp:157] Top shape: 4 128 62 62 (1968128)
I0718 14:21:33.851124 31595 net.cpp:165] Memory required for data: 3375860784
I0718 14:21:33.851143 31595 layer_factory.hpp:76] Creating layer inception_4c/relu_1x1
I0718 14:21:33.851167 31595 net.cpp:106] Creating Layer inception_4c/relu_1x1
I0718 14:21:33.851186 31595 net.cpp:454] inception_4c/relu_1x1 <- inception_4c/1x1
I0718 14:21:33.851204 31595 net.cpp:397] inception_4c/relu_1x1 -> inception_4c/1x1 (in-place)
I0718 14:21:33.851631 31595 net.cpp:150] Setting up inception_4c/relu_1x1
I0718 14:21:33.851660 31595 net.cpp:157] Top shape: 4 128 62 62 (1968128)
I0718 14:21:33.851675 31595 net.cpp:165] Memory required for data: 3383733296
I0718 14:21:33.851703 31595 layer_factory.hpp:76] Creating layer inception_4c/3x3_reduce
I0718 14:21:33.851732 31595 net.cpp:106] Creating Layer inception_4c/3x3_reduce
I0718 14:21:33.851752 31595 net.cpp:454] inception_4c/3x3_reduce <- inception_4b/output_inception_4b/output_0_split_1
I0718 14:21:33.851773 31595 net.cpp:411] inception_4c/3x3_reduce -> inception_4c/3x3_reduce
I0718 14:21:33.855051 31595 cudnn_conv_layer.cpp:194] Reallocating workspace storage: 6144
I0718 14:21:33.855099 31595 net.cpp:150] Setting up inception_4c/3x3_reduce
I0718 14:21:33.855118 31595 net.cpp:157] Top shape: 4 128 62 62 (1968128)
I0718 14:21:33.855132 31595 net.cpp:165] Memory required for data: 3391605808
I0718 14:21:33.855162 31595 layer_factory.hpp:76] Creating layer inception_4c/relu_3x3_reduce
I0718 14:21:33.855185 31595 net.cpp:106] Creating Layer inception_4c/relu_3x3_reduce
I0718 14:21:33.855201 31595 net.cpp:454] inception_4c/relu_3x3_reduce <- inception_4c/3x3_reduce
I0718 14:21:33.855232 31595 net.cpp:397] inception_4c/relu_3x3_reduce -> inception_4c/3x3_reduce (in-place)
I0718 14:21:33.855829 31595 net.cpp:150] Setting up inception_4c/relu_3x3_reduce
I0718 14:21:33.855855 31595 net.cpp:157] Top shape: 4 128 62 62 (1968128)
I0718 14:21:33.855870 31595 net.cpp:165] Memory required for data: 3399478320
I0718 14:21:33.855885 31595 layer_factory.hpp:76] Creating layer inception_4c/3x3
I0718 14:21:33.855907 31595 net.cpp:106] Creating Layer inception_4c/3x3
I0718 14:21:33.855924 31595 net.cpp:454] inception_4c/3x3 <- inception_4c/3x3_reduce
I0718 14:21:33.855957 31595 net.cpp:411] inception_4c/3x3 -> inception_4c/3x3
I0718 14:21:33.862113 31595 cudnn_conv_layer.cpp:194] Reallocating workspace storage: 13824
I0718 14:21:33.862160 31595 net.cpp:150] Setting up inception_4c/3x3
I0718 14:21:33.862195 31595 net.cpp:157] Top shape: 4 256 62 62 (3936256)
I0718 14:21:33.862212 31595 net.cpp:165] Memory required for data: 3415223344
I0718 14:21:33.862233 31595 layer_factory.hpp:76] Creating layer inception_4c/relu_3x3
I0718 14:21:33.862254 31595 net.cpp:106] Creating Layer inception_4c/relu_3x3
I0718 14:21:33.862270 31595 net.cpp:454] inception_4c/relu_3x3 <- inception_4c/3x3
I0718 14:21:33.862287 31595 net.cpp:397] inception_4c/relu_3x3 -> inception_4c/3x3 (in-place)
I0718 14:21:33.862943 31595 net.cpp:150] Setting up inception_4c/relu_3x3
I0718 14:21:33.862987 31595 net.cpp:157] Top shape: 4 256 62 62 (3936256)
I0718 14:21:33.863010 31595 net.cpp:165] Memory required for data: 3430968368
I0718 14:21:33.863037 31595 layer_factory.hpp:76] Creating layer inception_4c/5x5_reduce
I0718 14:21:33.863068 31595 net.cpp:106] Creating Layer inception_4c/5x5_reduce
I0718 14:21:33.863085 31595 net.cpp:454] inception_4c/5x5_reduce <- inception_4b/output_inception_4b/output_0_split_2
I0718 14:21:33.863108 31595 net.cpp:411] inception_4c/5x5_reduce -> inception_4c/5x5_reduce
I0718 14:21:33.865339 31595 cudnn_conv_layer.cpp:194] Reallocating workspace storage: 6144
I0718 14:21:33.865391 31595 net.cpp:150] Setting up inception_4c/5x5_reduce
I0718 14:21:33.865417 31595 net.cpp:157] Top shape: 4 24 62 62 (369024)
I0718 14:21:33.865442 31595 net.cpp:165] Memory required for data: 3432444464
I0718 14:21:33.865463 31595 layer_factory.hpp:76] Creating layer inception_4c/relu_5x5_reduce
I0718 14:21:33.865483 31595 net.cpp:106] Creating Layer inception_4c/relu_5x5_reduce
I0718 14:21:33.865504 31595 net.cpp:454] inception_4c/relu_5x5_reduce <- inception_4c/5x5_reduce
I0718 14:21:33.865525 31595 net.cpp:397] inception_4c/relu_5x5_reduce -> inception_4c/5x5_reduce (in-place)
I0718 14:21:33.865851 31595 net.cpp:150] Setting up inception_4c/relu_5x5_reduce
I0718 14:21:33.865885 31595 net.cpp:157] Top shape: 4 24 62 62 (369024)
I0718 14:21:33.865903 31595 net.cpp:165] Memory required for data: 3433920560
I0718 14:21:33.865924 31595 layer_factory.hpp:76] Creating layer inception_4c/5x5
I0718 14:21:33.865944 31595 net.cpp:106] Creating Layer inception_4c/5x5
I0718 14:21:33.865965 31595 net.cpp:454] inception_4c/5x5 <- inception_4c/5x5_reduce
I0718 14:21:33.865989 31595 net.cpp:411] inception_4c/5x5 -> inception_4c/5x5
I0718 14:21:33.868399 31595 net.cpp:150] Setting up inception_4c/5x5
I0718 14:21:33.868435 31595 net.cpp:157] Top shape: 4 64 62 62 (984064)
I0718 14:21:33.868451 31595 net.cpp:165] Memory required for data: 3437856816
I0718 14:21:33.868479 31595 layer_factory.hpp:76] Creating layer inception_4c/relu_5x5
I0718 14:21:33.868504 31595 net.cpp:106] Creating Layer inception_4c/relu_5x5
I0718 14:21:33.868530 31595 net.cpp:454] inception_4c/relu_5x5 <- inception_4c/5x5
I0718 14:21:33.868552 31595 net.cpp:397] inception_4c/relu_5x5 -> inception_4c/5x5 (in-place)
I0718 14:21:33.869195 31595 net.cpp:150] Setting up inception_4c/relu_5x5
I0718 14:21:33.869235 31595 net.cpp:157] Top shape: 4 64 62 62 (984064)
I0718 14:21:33.869257 31595 net.cpp:165] Memory required for data: 3441793072
I0718 14:21:33.869274 31595 layer_factory.hpp:76] Creating layer inception_4c/pool
I0718 14:21:33.869302 31595 net.cpp:106] Creating Layer inception_4c/pool
I0718 14:21:33.869324 31595 net.cpp:454] inception_4c/pool <- inception_4b/output_inception_4b/output_0_split_3
I0718 14:21:33.869343 31595 net.cpp:411] inception_4c/pool -> inception_4c/pool
I0718 14:21:33.869746 31595 net.cpp:150] Setting up inception_4c/pool
I0718 14:21:33.869776 31595 net.cpp:157] Top shape: 4 512 62 62 (7872512)
I0718 14:21:33.869791 31595 net.cpp:165] Memory required for data: 3473283120
I0718 14:21:33.869812 31595 layer_factory.hpp:76] Creating layer inception_4c/pool_proj
I0718 14:21:33.869850 31595 net.cpp:106] Creating Layer inception_4c/pool_proj
I0718 14:21:33.869874 31595 net.cpp:454] inception_4c/pool_proj <- inception_4c/pool
I0718 14:21:33.869923 31595 net.cpp:411] inception_4c/pool_proj -> inception_4c/pool_proj
I0718 14:21:33.872354 31595 net.cpp:150] Setting up inception_4c/pool_proj
I0718 14:21:33.872385 31595 net.cpp:157] Top shape: 4 64 62 62 (984064)
I0718 14:21:33.872403 31595 net.cpp:165] Memory required for data: 3477219376
I0718 14:21:33.872449 31595 layer_factory.hpp:76] Creating layer inception_4c/relu_pool_proj
I0718 14:21:33.872479 31595 net.cpp:106] Creating Layer inception_4c/relu_pool_proj
I0718 14:21:33.872503 31595 net.cpp:454] inception_4c/relu_pool_proj <- inception_4c/pool_proj
I0718 14:21:33.872520 31595 net.cpp:397] inception_4c/relu_pool_proj -> inception_4c/pool_proj (in-place)
I0718 14:21:33.872840 31595 net.cpp:150] Setting up inception_4c/relu_pool_proj
I0718 14:21:33.872865 31595 net.cpp:157] Top shape: 4 64 62 62 (984064)
I0718 14:21:33.872879 31595 net.cpp:165] Memory required for data: 3481155632
I0718 14:21:33.872895 31595 layer_factory.hpp:76] Creating layer inception_4c/output
I0718 14:21:33.872916 31595 net.cpp:106] Creating Layer inception_4c/output
I0718 14:21:33.872938 31595 net.cpp:454] inception_4c/output <- inception_4c/1x1
I0718 14:21:33.872957 31595 net.cpp:454] inception_4c/output <- inception_4c/3x3
I0718 14:21:33.872972 31595 net.cpp:454] inception_4c/output <- inception_4c/5x5
I0718 14:21:33.872989 31595 net.cpp:454] inception_4c/output <- inception_4c/pool_proj
I0718 14:21:33.873019 31595 net.cpp:411] inception_4c/output -> inception_4c/output
I0718 14:21:33.873087 31595 net.cpp:150] Setting up inception_4c/output
I0718 14:21:33.873112 31595 net.cpp:157] Top shape: 4 512 62 62 (7872512)
I0718 14:21:33.873131 31595 net.cpp:165] Memory required for data: 3512645680
I0718 14:21:33.873157 31595 layer_factory.hpp:76] Creating layer inception_4c/output_inception_4c/output_0_split
I0718 14:21:33.873188 31595 net.cpp:106] Creating Layer inception_4c/output_inception_4c/output_0_split
I0718 14:21:33.873205 31595 net.cpp:454] inception_4c/output_inception_4c/output_0_split <- inception_4c/output
I0718 14:21:33.873236 31595 net.cpp:411] inception_4c/output_inception_4c/output_0_split -> inception_4c/output_inception_4c/output_0_split_0
I0718 14:21:33.873265 31595 net.cpp:411] inception_4c/output_inception_4c/output_0_split -> inception_4c/output_inception_4c/output_0_split_1
I0718 14:21:33.873286 31595 net.cpp:411] inception_4c/output_inception_4c/output_0_split -> inception_4c/output_inception_4c/output_0_split_2
I0718 14:21:33.873306 31595 net.cpp:411] inception_4c/output_inception_4c/output_0_split -> inception_4c/output_inception_4c/output_0_split_3
I0718 14:21:33.873469 31595 net.cpp:150] Setting up inception_4c/output_inception_4c/output_0_split
I0718 14:21:33.873497 31595 net.cpp:157] Top shape: 4 512 62 62 (7872512)
I0718 14:21:33.873513 31595 net.cpp:157] Top shape: 4 512 62 62 (7872512)
I0718 14:21:33.873533 31595 net.cpp:157] Top shape: 4 512 62 62 (7872512)
I0718 14:21:33.873554 31595 net.cpp:157] Top shape: 4 512 62 62 (7872512)
I0718 14:21:33.873571 31595 net.cpp:165] Memory required for data: 3638605872
I0718 14:21:33.873589 31595 layer_factory.hpp:76] Creating layer inception_4d/1x1
I0718 14:21:33.873616 31595 net.cpp:106] Creating Layer inception_4d/1x1
I0718 14:21:33.873641 31595 net.cpp:454] inception_4d/1x1 <- inception_4c/output_inception_4c/output_0_split_0
I0718 14:21:33.873664 31595 net.cpp:411] inception_4d/1x1 -> inception_4d/1x1
I0718 14:21:33.876559 31595 cudnn_conv_layer.cpp:194] Reallocating workspace storage: 6144
I0718 14:21:33.876622 31595 net.cpp:150] Setting up inception_4d/1x1
I0718 14:21:33.876658 31595 net.cpp:157] Top shape: 4 112 62 62 (1722112)
I0718 14:21:33.876678 31595 net.cpp:165] Memory required for data: 3645494320
I0718 14:21:33.876708 31595 layer_factory.hpp:76] Creating layer inception_4d/relu_1x1
I0718 14:21:33.876731 31595 net.cpp:106] Creating Layer inception_4d/relu_1x1
I0718 14:21:33.876752 31595 net.cpp:454] inception_4d/relu_1x1 <- inception_4d/1x1
I0718 14:21:33.876788 31595 net.cpp:397] inception_4d/relu_1x1 -> inception_4d/1x1 (in-place)
I0718 14:21:33.877555 31595 net.cpp:150] Setting up inception_4d/relu_1x1
I0718 14:21:33.877601 31595 net.cpp:157] Top shape: 4 112 62 62 (1722112)
I0718 14:21:33.877630 31595 net.cpp:165] Memory required for data: 3652382768
I0718 14:21:33.877647 31595 layer_factory.hpp:76] Creating layer inception_4d/3x3_reduce
I0718 14:21:33.877682 31595 net.cpp:106] Creating Layer inception_4d/3x3_reduce
I0718 14:21:33.877712 31595 net.cpp:454] inception_4d/3x3_reduce <- inception_4c/output_inception_4c/output_0_split_1
I0718 14:21:33.877749 31595 net.cpp:411] inception_4d/3x3_reduce -> inception_4d/3x3_reduce
I0718 14:21:33.880817 31595 cudnn_conv_layer.cpp:194] Reallocating workspace storage: 6144
I0718 14:21:33.880878 31595 net.cpp:150] Setting up inception_4d/3x3_reduce
I0718 14:21:33.880900 31595 net.cpp:157] Top shape: 4 144 62 62 (2214144)
I0718 14:21:33.880920 31595 net.cpp:165] Memory required for data: 3661239344
I0718 14:21:33.880955 31595 layer_factory.hpp:76] Creating layer inception_4d/relu_3x3_reduce
I0718 14:21:33.880980 31595 net.cpp:106] Creating Layer inception_4d/relu_3x3_reduce
I0718 14:21:33.881000 31595 net.cpp:454] inception_4d/relu_3x3_reduce <- inception_4d/3x3_reduce
I0718 14:21:33.881026 31595 net.cpp:397] inception_4d/relu_3x3_reduce -> inception_4d/3x3_reduce (in-place)
I0718 14:21:33.881337 31595 net.cpp:150] Setting up inception_4d/relu_3x3_reduce
I0718 14:21:33.881361 31595 net.cpp:157] Top shape: 4 144 62 62 (2214144)
I0718 14:21:33.881378 31595 net.cpp:165] Memory required for data: 3670095920
I0718 14:21:33.881398 31595 layer_factory.hpp:76] Creating layer inception_4d/3x3
I0718 14:21:33.881428 31595 net.cpp:106] Creating Layer inception_4d/3x3
I0718 14:21:33.881449 31595 net.cpp:454] inception_4d/3x3 <- inception_4d/3x3_reduce
I0718 14:21:33.881469 31595 net.cpp:411] inception_4d/3x3 -> inception_4d/3x3
I0718 14:21:33.889791 31595 cudnn_conv_layer.cpp:194] Reallocating workspace storage: 15552
I0718 14:21:33.889863 31595 net.cpp:150] Setting up inception_4d/3x3
I0718 14:21:33.889912 31595 net.cpp:157] Top shape: 4 288 62 62 (4428288)
I0718 14:21:33.889933 31595 net.cpp:165] Memory required for data: 3687809072
I0718 14:21:33.889968 31595 layer_factory.hpp:76] Creating layer inception_4d/relu_3x3
I0718 14:21:33.889992 31595 net.cpp:106] Creating Layer inception_4d/relu_3x3
I0718 14:21:33.890008 31595 net.cpp:454] inception_4d/relu_3x3 <- inception_4d/3x3
I0718 14:21:33.890030 31595 net.cpp:397] inception_4d/relu_3x3 -> inception_4d/3x3 (in-place)
I0718 14:21:33.890424 31595 net.cpp:150] Setting up inception_4d/relu_3x3
I0718 14:21:33.890460 31595 net.cpp:157] Top shape: 4 288 62 62 (4428288)
I0718 14:21:33.890487 31595 net.cpp:165] Memory required for data: 3705522224
I0718 14:21:33.890513 31595 layer_factory.hpp:76] Creating layer inception_4d/5x5_reduce
I0718 14:21:33.890552 31595 net.cpp:106] Creating Layer inception_4d/5x5_reduce
I0718 14:21:33.890578 31595 net.cpp:454] inception_4d/5x5_reduce <- inception_4c/output_inception_4c/output_0_split_2
I0718 14:21:33.890622 31595 net.cpp:411] inception_4d/5x5_reduce -> inception_4d/5x5_reduce
I0718 14:21:33.893175 31595 net.cpp:150] Setting up inception_4d/5x5_reduce
I0718 14:21:33.893219 31595 net.cpp:157] Top shape: 4 32 62 62 (492032)
I0718 14:21:33.893244 31595 net.cpp:165] Memory required for data: 3707490352
I0718 14:21:33.893277 31595 layer_factory.hpp:76] Creating layer inception_4d/relu_5x5_reduce
I0718 14:21:33.893301 31595 net.cpp:106] Creating Layer inception_4d/relu_5x5_reduce
I0718 14:21:33.893321 31595 net.cpp:454] inception_4d/relu_5x5_reduce <- inception_4d/5x5_reduce
I0718 14:21:33.893357 31595 net.cpp:397] inception_4d/relu_5x5_reduce -> inception_4d/5x5_reduce (in-place)
I0718 14:21:33.894073 31595 net.cpp:150] Setting up inception_4d/relu_5x5_reduce
I0718 14:21:33.894105 31595 net.cpp:157] Top shape: 4 32 62 62 (492032)
I0718 14:21:33.894140 31595 net.cpp:165] Memory required for data: 3709458480
I0718 14:21:33.894165 31595 layer_factory.hpp:76] Creating layer inception_4d/5x5
I0718 14:21:33.894212 31595 net.cpp:106] Creating Layer inception_4d/5x5
I0718 14:21:33.894265 31595 net.cpp:454] inception_4d/5x5 <- inception_4d/5x5_reduce
I0718 14:21:33.894290 31595 net.cpp:411] inception_4d/5x5 -> inception_4d/5x5
I0718 14:21:33.897697 31595 net.cpp:150] Setting up inception_4d/5x5
I0718 14:21:33.897744 31595 net.cpp:157] Top shape: 4 64 62 62 (984064)
I0718 14:21:33.897761 31595 net.cpp:165] Memory required for data: 3713394736
I0718 14:21:33.897796 31595 layer_factory.hpp:76] Creating layer inception_4d/relu_5x5
I0718 14:21:33.897824 31595 net.cpp:106] Creating Layer inception_4d/relu_5x5
I0718 14:21:33.897846 31595 net.cpp:454] inception_4d/relu_5x5 <- inception_4d/5x5
I0718 14:21:33.897868 31595 net.cpp:397] inception_4d/relu_5x5 -> inception_4d/5x5 (in-place)
I0718 14:21:33.898202 31595 net.cpp:150] Setting up inception_4d/relu_5x5
I0718 14:21:33.898231 31595 net.cpp:157] Top shape: 4 64 62 62 (984064)
I0718 14:21:33.898244 31595 net.cpp:165] Memory required for data: 3717330992
I0718 14:21:33.898259 31595 layer_factory.hpp:76] Creating layer inception_4d/pool
I0718 14:21:33.898288 31595 net.cpp:106] Creating Layer inception_4d/pool
I0718 14:21:33.898304 31595 net.cpp:454] inception_4d/pool <- inception_4c/output_inception_4c/output_0_split_3
I0718 14:21:33.898327 31595 net.cpp:411] inception_4d/pool -> inception_4d/pool
I0718 14:21:33.899041 31595 net.cpp:150] Setting up inception_4d/pool
I0718 14:21:33.899073 31595 net.cpp:157] Top shape: 4 512 62 62 (7872512)
I0718 14:21:33.899088 31595 net.cpp:165] Memory required for data: 3748821040
I0718 14:21:33.899106 31595 layer_factory.hpp:76] Creating layer inception_4d/pool_proj
I0718 14:21:33.899132 31595 net.cpp:106] Creating Layer inception_4d/pool_proj
I0718 14:21:33.899148 31595 net.cpp:454] inception_4d/pool_proj <- inception_4d/pool
I0718 14:21:33.899173 31595 net.cpp:411] inception_4d/pool_proj -> inception_4d/pool_proj
I0718 14:21:33.902139 31595 net.cpp:150] Setting up inception_4d/pool_proj
I0718 14:21:33.902176 31595 net.cpp:157] Top shape: 4 64 62 62 (984064)
I0718 14:21:33.902202 31595 net.cpp:165] Memory required for data: 3752757296
I0718 14:21:33.902227 31595 layer_factory.hpp:76] Creating layer inception_4d/relu_pool_proj
I0718 14:21:33.902262 31595 net.cpp:106] Creating Layer inception_4d/relu_pool_proj
I0718 14:21:33.902281 31595 net.cpp:454] inception_4d/relu_pool_proj <- inception_4d/pool_proj
I0718 14:21:33.902300 31595 net.cpp:397] inception_4d/relu_pool_proj -> inception_4d/pool_proj (in-place)
I0718 14:21:33.902979 31595 net.cpp:150] Setting up inception_4d/relu_pool_proj
I0718 14:21:33.903017 31595 net.cpp:157] Top shape: 4 64 62 62 (984064)
I0718 14:21:33.903043 31595 net.cpp:165] Memory required for data: 3756693552
I0718 14:21:33.903062 31595 layer_factory.hpp:76] Creating layer inception_4d/output
I0718 14:21:33.903081 31595 net.cpp:106] Creating Layer inception_4d/output
I0718 14:21:33.903097 31595 net.cpp:454] inception_4d/output <- inception_4d/1x1
I0718 14:21:33.903116 31595 net.cpp:454] inception_4d/output <- inception_4d/3x3
I0718 14:21:33.903141 31595 net.cpp:454] inception_4d/output <- inception_4d/5x5
I0718 14:21:33.903165 31595 net.cpp:454] inception_4d/output <- inception_4d/pool_proj
I0718 14:21:33.903184 31595 net.cpp:411] inception_4d/output -> inception_4d/output
I0718 14:21:33.903249 31595 net.cpp:150] Setting up inception_4d/output
I0718 14:21:33.903281 31595 net.cpp:157] Top shape: 4 528 62 62 (8118528)
I0718 14:21:33.903304 31595 net.cpp:165] Memory required for data: 3789167664
I0718 14:21:33.903329 31595 layer_factory.hpp:76] Creating layer inception_4d/output_inception_4d/output_0_split
I0718 14:21:33.903353 31595 net.cpp:106] Creating Layer inception_4d/output_inception_4d/output_0_split
I0718 14:21:33.903368 31595 net.cpp:454] inception_4d/output_inception_4d/output_0_split <- inception_4d/output
I0718 14:21:33.903389 31595 net.cpp:411] inception_4d/output_inception_4d/output_0_split -> inception_4d/output_inception_4d/output_0_split_0
I0718 14:21:33.903421 31595 net.cpp:411] inception_4d/output_inception_4d/output_0_split -> inception_4d/output_inception_4d/output_0_split_1
I0718 14:21:33.903470 31595 net.cpp:411] inception_4d/output_inception_4d/output_0_split -> inception_4d/output_inception_4d/output_0_split_2
I0718 14:21:33.903503 31595 net.cpp:411] inception_4d/output_inception_4d/output_0_split -> inception_4d/output_inception_4d/output_0_split_3
I0718 14:21:33.903643 31595 net.cpp:150] Setting up inception_4d/output_inception_4d/output_0_split
I0718 14:21:33.903671 31595 net.cpp:157] Top shape: 4 528 62 62 (8118528)
I0718 14:21:33.903687 31595 net.cpp:157] Top shape: 4 528 62 62 (8118528)
I0718 14:21:33.903712 31595 net.cpp:157] Top shape: 4 528 62 62 (8118528)
I0718 14:21:33.903739 31595 net.cpp:157] Top shape: 4 528 62 62 (8118528)
I0718 14:21:33.903761 31595 net.cpp:165] Memory required for data: 3919064112
I0718 14:21:33.903782 31595 layer_factory.hpp:76] Creating layer inception_4e/1x1
I0718 14:21:33.903821 31595 net.cpp:106] Creating Layer inception_4e/1x1
I0718 14:21:33.903838 31595 net.cpp:454] inception_4e/1x1 <- inception_4d/output_inception_4d/output_0_split_0
I0718 14:21:33.903859 31595 net.cpp:411] inception_4e/1x1 -> inception_4e/1x1
I0718 14:21:33.908231 31595 cudnn_conv_layer.cpp:194] Reallocating workspace storage: 6336
I0718 14:21:33.908299 31595 net.cpp:150] Setting up inception_4e/1x1
I0718 14:21:33.908330 31595 net.cpp:157] Top shape: 4 256 62 62 (3936256)
I0718 14:21:33.908345 31595 net.cpp:165] Memory required for data: 3934809136
I0718 14:21:33.908365 31595 layer_factory.hpp:76] Creating layer inception_4e/relu_1x1
I0718 14:21:33.908390 31595 net.cpp:106] Creating Layer inception_4e/relu_1x1
I0718 14:21:33.908407 31595 net.cpp:454] inception_4e/relu_1x1 <- inception_4e/1x1
I0718 14:21:33.908434 31595 net.cpp:397] inception_4e/relu_1x1 -> inception_4e/1x1 (in-place)
I0718 14:21:33.908766 31595 net.cpp:150] Setting up inception_4e/relu_1x1
I0718 14:21:33.908795 31595 net.cpp:157] Top shape: 4 256 62 62 (3936256)
I0718 14:21:33.908819 31595 net.cpp:165] Memory required for data: 3950554160
I0718 14:21:33.908849 31595 layer_factory.hpp:76] Creating layer inception_4e/3x3_reduce
I0718 14:21:33.908879 31595 net.cpp:106] Creating Layer inception_4e/3x3_reduce
I0718 14:21:33.908907 31595 net.cpp:454] inception_4e/3x3_reduce <- inception_4d/output_inception_4d/output_0_split_1
I0718 14:21:33.908929 31595 net.cpp:411] inception_4e/3x3_reduce -> inception_4e/3x3_reduce
I0718 14:21:33.912017 31595 net.cpp:150] Setting up inception_4e/3x3_reduce
I0718 14:21:33.912047 31595 net.cpp:157] Top shape: 4 160 62 62 (2460160)
I0718 14:21:33.912068 31595 net.cpp:165] Memory required for data: 3960394800
I0718 14:21:33.912096 31595 layer_factory.hpp:76] Creating layer inception_4e/relu_3x3_reduce
I0718 14:21:33.912120 31595 net.cpp:106] Creating Layer inception_4e/relu_3x3_reduce
I0718 14:21:33.912137 31595 net.cpp:454] inception_4e/relu_3x3_reduce <- inception_4e/3x3_reduce
I0718 14:21:33.912159 31595 net.cpp:397] inception_4e/relu_3x3_reduce -> inception_4e/3x3_reduce (in-place)
I0718 14:21:33.912835 31595 net.cpp:150] Setting up inception_4e/relu_3x3_reduce
I0718 14:21:33.912873 31595 net.cpp:157] Top shape: 4 160 62 62 (2460160)
I0718 14:21:33.912888 31595 net.cpp:165] Memory required for data: 3970235440
I0718 14:21:33.912904 31595 layer_factory.hpp:76] Creating layer inception_4e/3x3
I0718 14:21:33.912927 31595 net.cpp:106] Creating Layer inception_4e/3x3
I0718 14:21:33.912942 31595 net.cpp:454] inception_4e/3x3 <- inception_4e/3x3_reduce
I0718 14:21:33.912976 31595 net.cpp:411] inception_4e/3x3 -> inception_4e/3x3
I0718 14:21:33.920848 31595 net.cpp:150] Setting up inception_4e/3x3
I0718 14:21:33.920884 31595 net.cpp:157] Top shape: 4 320 62 62 (4920320)
I0718 14:21:33.920902 31595 net.cpp:165] Memory required for data: 3989916720
I0718 14:21:33.920928 31595 layer_factory.hpp:76] Creating layer inception_4e/relu_3x3
I0718 14:21:33.920955 31595 net.cpp:106] Creating Layer inception_4e/relu_3x3
I0718 14:21:33.920971 31595 net.cpp:454] inception_4e/relu_3x3 <- inception_4e/3x3
I0718 14:21:33.920994 31595 net.cpp:397] inception_4e/relu_3x3 -> inception_4e/3x3 (in-place)
I0718 14:21:33.921721 31595 net.cpp:150] Setting up inception_4e/relu_3x3
I0718 14:21:33.921754 31595 net.cpp:157] Top shape: 4 320 62 62 (4920320)
I0718 14:21:33.921780 31595 net.cpp:165] Memory required for data: 4009598000
I0718 14:21:33.921808 31595 layer_factory.hpp:76] Creating layer inception_4e/5x5_reduce
I0718 14:21:33.921835 31595 net.cpp:106] Creating Layer inception_4e/5x5_reduce
I0718 14:21:33.921865 31595 net.cpp:454] inception_4e/5x5_reduce <- inception_4d/output_inception_4d/output_0_split_2
I0718 14:21:33.921901 31595 net.cpp:411] inception_4e/5x5_reduce -> inception_4e/5x5_reduce
I0718 14:21:33.924628 31595 net.cpp:150] Setting up inception_4e/5x5_reduce
I0718 14:21:33.924664 31595 net.cpp:157] Top shape: 4 32 62 62 (492032)
I0718 14:21:33.924680 31595 net.cpp:165] Memory required for data: 4011566128
I0718 14:21:33.924716 31595 layer_factory.hpp:76] Creating layer inception_4e/relu_5x5_reduce
I0718 14:21:33.924747 31595 net.cpp:106] Creating Layer inception_4e/relu_5x5_reduce
I0718 14:21:33.924793 31595 net.cpp:454] inception_4e/relu_5x5_reduce <- inception_4e/5x5_reduce
I0718 14:21:33.924829 31595 net.cpp:397] inception_4e/relu_5x5_reduce -> inception_4e/5x5_reduce (in-place)
I0718 14:21:33.925197 31595 net.cpp:150] Setting up inception_4e/relu_5x5_reduce
I0718 14:21:33.925231 31595 net.cpp:157] Top shape: 4 32 62 62 (492032)
I0718 14:21:33.925268 31595 net.cpp:165] Memory required for data: 4013534256
I0718 14:21:33.925289 31595 layer_factory.hpp:76] Creating layer inception_4e/5x5
I0718 14:21:33.925318 31595 net.cpp:106] Creating Layer inception_4e/5x5
I0718 14:21:33.925350 31595 net.cpp:454] inception_4e/5x5 <- inception_4e/5x5_reduce
I0718 14:21:33.925379 31595 net.cpp:411] inception_4e/5x5 -> inception_4e/5x5
I0718 14:21:33.929659 31595 cudnn_conv_layer.cpp:194] Reallocating workspace storage: 9600
I0718 14:21:33.929720 31595 net.cpp:150] Setting up inception_4e/5x5
I0718 14:21:33.929767 31595 net.cpp:157] Top shape: 4 128 62 62 (1968128)
I0718 14:21:33.929788 31595 net.cpp:165] Memory required for data: 4021406768
I0718 14:21:33.929811 31595 layer_factory.hpp:76] Creating layer inception_4e/relu_5x5
I0718 14:21:33.929829 31595 net.cpp:106] Creating Layer inception_4e/relu_5x5
I0718 14:21:33.929844 31595 net.cpp:454] inception_4e/relu_5x5 <- inception_4e/5x5
I0718 14:21:33.929867 31595 net.cpp:397] inception_4e/relu_5x5 -> inception_4e/5x5 (in-place)
I0718 14:21:33.930521 31595 net.cpp:150] Setting up inception_4e/relu_5x5
I0718 14:21:33.930560 31595 net.cpp:157] Top shape: 4 128 62 62 (1968128)
I0718 14:21:33.930575 31595 net.cpp:165] Memory required for data: 4029279280
I0718 14:21:33.930589 31595 layer_factory.hpp:76] Creating layer inception_4e/pool
I0718 14:21:33.930614 31595 net.cpp:106] Creating Layer inception_4e/pool
I0718 14:21:33.930637 31595 net.cpp:454] inception_4e/pool <- inception_4d/output_inception_4d/output_0_split_3
I0718 14:21:33.930665 31595 net.cpp:411] inception_4e/pool -> inception_4e/pool
I0718 14:21:33.931080 31595 net.cpp:150] Setting up inception_4e/pool
I0718 14:21:33.931112 31595 net.cpp:157] Top shape: 4 528 62 62 (8118528)
I0718 14:21:33.931125 31595 net.cpp:165] Memory required for data: 4061753392
I0718 14:21:33.931141 31595 layer_factory.hpp:76] Creating layer inception_4e/pool_proj
I0718 14:21:33.931179 31595 net.cpp:106] Creating Layer inception_4e/pool_proj
I0718 14:21:33.931195 31595 net.cpp:454] inception_4e/pool_proj <- inception_4e/pool
I0718 14:21:33.931216 31595 net.cpp:411] inception_4e/pool_proj -> inception_4e/pool_proj
I0718 14:21:33.934833 31595 cudnn_conv_layer.cpp:194] Reallocating workspace storage: 6336
I0718 14:21:33.934906 31595 net.cpp:150] Setting up inception_4e/pool_proj
I0718 14:21:33.934942 31595 net.cpp:157] Top shape: 4 128 62 62 (1968128)
I0718 14:21:33.934967 31595 net.cpp:165] Memory required for data: 4069625904
I0718 14:21:33.935001 31595 layer_factory.hpp:76] Creating layer inception_4e/relu_pool_proj
I0718 14:21:33.935026 31595 net.cpp:106] Creating Layer inception_4e/relu_pool_proj
I0718 14:21:33.935045 31595 net.cpp:454] inception_4e/relu_pool_proj <- inception_4e/pool_proj
I0718 14:21:33.935111 31595 net.cpp:397] inception_4e/relu_pool_proj -> inception_4e/pool_proj (in-place)
I0718 14:21:33.935482 31595 net.cpp:150] Setting up inception_4e/relu_pool_proj
I0718 14:21:33.935518 31595 net.cpp:157] Top shape: 4 128 62 62 (1968128)
I0718 14:21:33.935534 31595 net.cpp:165] Memory required for data: 4077498416
I0718 14:21:33.935554 31595 layer_factory.hpp:76] Creating layer inception_4e/output
I0718 14:21:33.935581 31595 net.cpp:106] Creating Layer inception_4e/output
I0718 14:21:33.935598 31595 net.cpp:454] inception_4e/output <- inception_4e/1x1
I0718 14:21:33.935616 31595 net.cpp:454] inception_4e/output <- inception_4e/3x3
I0718 14:21:33.935636 31595 net.cpp:454] inception_4e/output <- inception_4e/5x5
I0718 14:21:33.935663 31595 net.cpp:454] inception_4e/output <- inception_4e/pool_proj
I0718 14:21:33.935696 31595 net.cpp:411] inception_4e/output -> inception_4e/output
I0718 14:21:33.935781 31595 net.cpp:150] Setting up inception_4e/output
I0718 14:21:33.935806 31595 net.cpp:157] Top shape: 4 832 62 62 (12792832)
I0718 14:21:33.935822 31595 net.cpp:165] Memory required for data: 4128669744
I0718 14:21:33.935842 31595 layer_factory.hpp:76] Creating layer pool4/3x3_s2
I0718 14:21:33.935864 31595 net.cpp:106] Creating Layer pool4/3x3_s2
I0718 14:21:33.935880 31595 net.cpp:454] pool4/3x3_s2 <- inception_4e/output
I0718 14:21:33.935916 31595 net.cpp:411] pool4/3x3_s2 -> pool4/3x3_s2
I0718 14:21:33.936650 31595 net.cpp:150] Setting up pool4/3x3_s2
I0718 14:21:33.936681 31595 net.cpp:157] Top shape: 4 832 31 31 (3198208)
I0718 14:21:33.936694 31595 net.cpp:165] Memory required for data: 4141462576
I0718 14:21:33.936712 31595 layer_factory.hpp:76] Creating layer pool4/3x3_s2_pool4/3x3_s2_0_split
I0718 14:21:33.936738 31595 net.cpp:106] Creating Layer pool4/3x3_s2_pool4/3x3_s2_0_split
I0718 14:21:33.936758 31595 net.cpp:454] pool4/3x3_s2_pool4/3x3_s2_0_split <- pool4/3x3_s2
I0718 14:21:33.936785 31595 net.cpp:411] pool4/3x3_s2_pool4/3x3_s2_0_split -> pool4/3x3_s2_pool4/3x3_s2_0_split_0
I0718 14:21:33.936813 31595 net.cpp:411] pool4/3x3_s2_pool4/3x3_s2_0_split -> pool4/3x3_s2_pool4/3x3_s2_0_split_1
I0718 14:21:33.936838 31595 net.cpp:411] pool4/3x3_s2_pool4/3x3_s2_0_split -> pool4/3x3_s2_pool4/3x3_s2_0_split_2
I0718 14:21:33.936856 31595 net.cpp:411] pool4/3x3_s2_pool4/3x3_s2_0_split -> pool4/3x3_s2_pool4/3x3_s2_0_split_3
I0718 14:21:33.936996 31595 net.cpp:150] Setting up pool4/3x3_s2_pool4/3x3_s2_0_split
I0718 14:21:33.937021 31595 net.cpp:157] Top shape: 4 832 31 31 (3198208)
I0718 14:21:33.937037 31595 net.cpp:157] Top shape: 4 832 31 31 (3198208)
I0718 14:21:33.937057 31595 net.cpp:157] Top shape: 4 832 31 31 (3198208)
I0718 14:21:33.937074 31595 net.cpp:157] Top shape: 4 832 31 31 (3198208)
I0718 14:21:33.937088 31595 net.cpp:165] Memory required for data: 4192633904
I0718 14:21:33.937103 31595 layer_factory.hpp:76] Creating layer inception_5a/1x1
I0718 14:21:33.937129 31595 net.cpp:106] Creating Layer inception_5a/1x1
I0718 14:21:33.937144 31595 net.cpp:454] inception_5a/1x1 <- pool4/3x3_s2_pool4/3x3_s2_0_split_0
I0718 14:21:33.937163 31595 net.cpp:411] inception_5a/1x1 -> inception_5a/1x1
I0718 14:21:33.942971 31595 cudnn_conv_layer.cpp:194] Reallocating workspace storage: 9984
I0718 14:21:33.943056 31595 net.cpp:150] Setting up inception_5a/1x1
I0718 14:21:33.943086 31595 net.cpp:157] Top shape: 4 256 31 31 (984064)
I0718 14:21:33.943105 31595 net.cpp:165] Memory required for data: 4196570160
I0718 14:21:33.943130 31595 layer_factory.hpp:76] Creating layer inception_5a/relu_1x1
I0718 14:21:33.943166 31595 net.cpp:106] Creating Layer inception_5a/relu_1x1
I0718 14:21:33.943207 31595 net.cpp:454] inception_5a/relu_1x1 <- inception_5a/1x1
I0718 14:21:33.943256 31595 net.cpp:397] inception_5a/relu_1x1 -> inception_5a/1x1 (in-place)
I0718 14:21:33.943688 31595 net.cpp:150] Setting up inception_5a/relu_1x1
I0718 14:21:33.943732 31595 net.cpp:157] Top shape: 4 256 31 31 (984064)
I0718 14:21:33.943759 31595 net.cpp:165] Memory required for data: 4200506416
I0718 14:21:33.943840 31595 layer_factory.hpp:76] Creating layer inception_5a/3x3_reduce
I0718 14:21:33.943873 31595 net.cpp:106] Creating Layer inception_5a/3x3_reduce
I0718 14:21:33.943902 31595 net.cpp:454] inception_5a/3x3_reduce <- pool4/3x3_s2_pool4/3x3_s2_0_split_1
I0718 14:21:33.943929 31595 net.cpp:411] inception_5a/3x3_reduce -> inception_5a/3x3_reduce
I0718 14:21:33.949725 31595 cudnn_conv_layer.cpp:194] Reallocating workspace storage: 9984
I0718 14:21:33.949784 31595 net.cpp:150] Setting up inception_5a/3x3_reduce
I0718 14:21:33.949820 31595 net.cpp:157] Top shape: 4 160 31 31 (615040)
I0718 14:21:33.949838 31595 net.cpp:165] Memory required for data: 4202966576
I0718 14:21:33.949872 31595 layer_factory.hpp:76] Creating layer inception_5a/relu_3x3_reduce
I0718 14:21:33.949898 31595 net.cpp:106] Creating Layer inception_5a/relu_3x3_reduce
I0718 14:21:33.949916 31595 net.cpp:454] inception_5a/relu_3x3_reduce <- inception_5a/3x3_reduce
I0718 14:21:33.949936 31595 net.cpp:397] inception_5a/relu_3x3_reduce -> inception_5a/3x3_reduce (in-place)
I0718 14:21:33.950748 31595 net.cpp:150] Setting up inception_5a/relu_3x3_reduce
I0718 14:21:33.950794 31595 net.cpp:157] Top shape: 4 160 31 31 (615040)
I0718 14:21:33.950824 31595 net.cpp:165] Memory required for data: 4205426736
I0718 14:21:33.950846 31595 layer_factory.hpp:76] Creating layer inception_5a/3x3
I0718 14:21:33.950876 31595 net.cpp:106] Creating Layer inception_5a/3x3
I0718 14:21:33.950891 31595 net.cpp:454] inception_5a/3x3 <- inception_5a/3x3_reduce
I0718 14:21:33.950912 31595 net.cpp:411] inception_5a/3x3 -> inception_5a/3x3
I0718 14:21:33.962671 31595 net.cpp:150] Setting up inception_5a/3x3
I0718 14:21:33.962726 31595 net.cpp:157] Top shape: 4 320 31 31 (1230080)
I0718 14:21:33.962743 31595 net.cpp:165] Memory required for data: 4210347056
I0718 14:21:33.962810 31595 layer_factory.hpp:76] Creating layer inception_5a/relu_3x3
I0718 14:21:33.962849 31595 net.cpp:106] Creating Layer inception_5a/relu_3x3
I0718 14:21:33.962914 31595 net.cpp:454] inception_5a/relu_3x3 <- inception_5a/3x3
I0718 14:21:33.962954 31595 net.cpp:397] inception_5a/relu_3x3 -> inception_5a/3x3 (in-place)
I0718 14:21:33.963579 31595 net.cpp:150] Setting up inception_5a/relu_3x3
I0718 14:21:33.963608 31595 net.cpp:157] Top shape: 4 320 31 31 (1230080)
I0718 14:21:33.963624 31595 net.cpp:165] Memory required for data: 4215267376
I0718 14:21:33.963645 31595 layer_factory.hpp:76] Creating layer inception_5a/5x5_reduce
I0718 14:21:33.963676 31595 net.cpp:106] Creating Layer inception_5a/5x5_reduce
I0718 14:21:33.963728 31595 net.cpp:454] inception_5a/5x5_reduce <- pool4/3x3_s2_pool4/3x3_s2_0_split_2
I0718 14:21:33.963750 31595 net.cpp:411] inception_5a/5x5_reduce -> inception_5a/5x5_reduce
I0718 14:21:33.966430 31595 cudnn_conv_layer.cpp:194] Reallocating workspace storage: 9984
I0718 14:21:33.966541 31595 net.cpp:150] Setting up inception_5a/5x5_reduce
I0718 14:21:33.966564 31595 net.cpp:157] Top shape: 4 32 31 31 (123008)
I0718 14:21:33.966578 31595 net.cpp:165] Memory required for data: 4215759408
I0718 14:21:33.966596 31595 layer_factory.hpp:76] Creating layer inception_5a/relu_5x5_reduce
I0718 14:21:33.966626 31595 net.cpp:106] Creating Layer inception_5a/relu_5x5_reduce
I0718 14:21:33.966651 31595 net.cpp:454] inception_5a/relu_5x5_reduce <- inception_5a/5x5_reduce
I0718 14:21:33.966675 31595 net.cpp:397] inception_5a/relu_5x5_reduce -> inception_5a/5x5_reduce (in-place)
I0718 14:21:33.967001 31595 net.cpp:150] Setting up inception_5a/relu_5x5_reduce
I0718 14:21:33.967030 31595 net.cpp:157] Top shape: 4 32 31 31 (123008)
I0718 14:21:33.967046 31595 net.cpp:165] Memory required for data: 4216251440
I0718 14:21:33.967061 31595 layer_factory.hpp:76] Creating layer inception_5a/5x5
I0718 14:21:33.967442 31595 net.cpp:106] Creating Layer inception_5a/5x5
I0718 14:21:33.967464 31595 net.cpp:454] inception_5a/5x5 <- inception_5a/5x5_reduce
I0718 14:21:33.967488 31595 net.cpp:411] inception_5a/5x5 -> inception_5a/5x5
I0718 14:21:33.970533 31595 cudnn_conv_layer.cpp:194] Reallocating workspace storage: 9600
I0718 14:21:33.970641 31595 net.cpp:150] Setting up inception_5a/5x5
I0718 14:21:33.970665 31595 net.cpp:157] Top shape: 4 128 31 31 (492032)
I0718 14:21:33.970687 31595 net.cpp:165] Memory required for data: 4218219568
I0718 14:21:33.970708 31595 layer_factory.hpp:76] Creating layer inception_5a/relu_5x5
I0718 14:21:33.970736 31595 net.cpp:106] Creating Layer inception_5a/relu_5x5
I0718 14:21:33.970764 31595 net.cpp:454] inception_5a/relu_5x5 <- inception_5a/5x5
I0718 14:21:33.970793 31595 net.cpp:397] inception_5a/relu_5x5 -> inception_5a/5x5 (in-place)
I0718 14:21:33.971482 31595 net.cpp:150] Setting up inception_5a/relu_5x5
I0718 14:21:33.971527 31595 net.cpp:157] Top shape: 4 128 31 31 (492032)
I0718 14:21:33.971550 31595 net.cpp:165] Memory required for data: 4220187696
I0718 14:21:33.971582 31595 layer_factory.hpp:76] Creating layer inception_5a/pool
I0718 14:21:33.971603 31595 net.cpp:106] Creating Layer inception_5a/pool
I0718 14:21:33.971619 31595 net.cpp:454] inception_5a/pool <- pool4/3x3_s2_pool4/3x3_s2_0_split_3
I0718 14:21:33.971635 31595 net.cpp:411] inception_5a/pool -> inception_5a/pool
I0718 14:21:33.972060 31595 net.cpp:150] Setting up inception_5a/pool
I0718 14:21:33.972086 31595 net.cpp:157] Top shape: 4 832 31 31 (3198208)
I0718 14:21:33.972103 31595 net.cpp:165] Memory required for data: 4232980528
I0718 14:21:33.972117 31595 layer_factory.hpp:76] Creating layer inception_5a/pool_proj
I0718 14:21:33.972149 31595 net.cpp:106] Creating Layer inception_5a/pool_proj
I0718 14:21:33.972172 31595 net.cpp:454] inception_5a/pool_proj <- inception_5a/pool
I0718 14:21:33.972188 31595 net.cpp:411] inception_5a/pool_proj -> inception_5a/pool_proj
I0718 14:21:33.976542 31595 cudnn_conv_layer.cpp:194] Reallocating workspace storage: 9984
I0718 14:21:33.976680 31595 net.cpp:150] Setting up inception_5a/pool_proj
I0718 14:21:33.976704 31595 net.cpp:157] Top shape: 4 128 31 31 (492032)
I0718 14:21:33.976722 31595 net.cpp:165] Memory required for data: 4234948656
I0718 14:21:33.976761 31595 layer_factory.hpp:76] Creating layer inception_5a/relu_pool_proj
I0718 14:21:33.976794 31595 net.cpp:106] Creating Layer inception_5a/relu_pool_proj
I0718 14:21:33.976809 31595 net.cpp:454] inception_5a/relu_pool_proj <- inception_5a/pool_proj
I0718 14:21:33.976824 31595 net.cpp:397] inception_5a/relu_pool_proj -> inception_5a/pool_proj (in-place)
I0718 14:21:33.977466 31595 net.cpp:150] Setting up inception_5a/relu_pool_proj
I0718 14:21:33.977494 31595 net.cpp:157] Top shape: 4 128 31 31 (492032)
I0718 14:21:33.977509 31595 net.cpp:165] Memory required for data: 4236916784
I0718 14:21:33.977526 31595 layer_factory.hpp:76] Creating layer inception_5a/output
I0718 14:21:33.977574 31595 net.cpp:106] Creating Layer inception_5a/output
I0718 14:21:33.977594 31595 net.cpp:454] inception_5a/output <- inception_5a/1x1
I0718 14:21:33.977612 31595 net.cpp:454] inception_5a/output <- inception_5a/3x3
I0718 14:21:33.977625 31595 net.cpp:454] inception_5a/output <- inception_5a/5x5
I0718 14:21:33.977653 31595 net.cpp:454] inception_5a/output <- inception_5a/pool_proj
I0718 14:21:33.977680 31595 net.cpp:411] inception_5a/output -> inception_5a/output
I0718 14:21:33.977748 31595 net.cpp:150] Setting up inception_5a/output
I0718 14:21:33.977771 31595 net.cpp:157] Top shape: 4 832 31 31 (3198208)
I0718 14:21:33.977790 31595 net.cpp:165] Memory required for data: 4249709616
I0718 14:21:33.977804 31595 layer_factory.hpp:76] Creating layer inception_5a/output_inception_5a/output_0_split
I0718 14:21:33.977821 31595 net.cpp:106] Creating Layer inception_5a/output_inception_5a/output_0_split
I0718 14:21:33.977838 31595 net.cpp:454] inception_5a/output_inception_5a/output_0_split <- inception_5a/output
I0718 14:21:33.977864 31595 net.cpp:411] inception_5a/output_inception_5a/output_0_split -> inception_5a/output_inception_5a/output_0_split_0
I0718 14:21:33.977887 31595 net.cpp:411] inception_5a/output_inception_5a/output_0_split -> inception_5a/output_inception_5a/output_0_split_1
I0718 14:21:33.977906 31595 net.cpp:411] inception_5a/output_inception_5a/output_0_split -> inception_5a/output_inception_5a/output_0_split_2
I0718 14:21:33.977958 31595 net.cpp:411] inception_5a/output_inception_5a/output_0_split -> inception_5a/output_inception_5a/output_0_split_3
I0718 14:21:33.978117 31595 net.cpp:150] Setting up inception_5a/output_inception_5a/output_0_split
I0718 14:21:33.978142 31595 net.cpp:157] Top shape: 4 832 31 31 (3198208)
I0718 14:21:33.978165 31595 net.cpp:157] Top shape: 4 832 31 31 (3198208)
I0718 14:21:33.978186 31595 net.cpp:157] Top shape: 4 832 31 31 (3198208)
I0718 14:21:33.978202 31595 net.cpp:157] Top shape: 4 832 31 31 (3198208)
I0718 14:21:33.978215 31595 net.cpp:165] Memory required for data: 4300880944
I0718 14:21:33.978230 31595 layer_factory.hpp:76] Creating layer inception_5b/1x1
I0718 14:21:33.978282 31595 net.cpp:106] Creating Layer inception_5b/1x1
I0718 14:21:33.978301 31595 net.cpp:454] inception_5b/1x1 <- inception_5a/output_inception_5a/output_0_split_0
I0718 14:21:33.978322 31595 net.cpp:411] inception_5b/1x1 -> inception_5b/1x1
I0718 14:21:33.984552 31595 cudnn_conv_layer.cpp:194] Reallocating workspace storage: 9984
I0718 14:21:33.984644 31595 net.cpp:150] Setting up inception_5b/1x1
I0718 14:21:33.984674 31595 net.cpp:157] Top shape: 4 384 31 31 (1476096)
I0718 14:21:33.984689 31595 net.cpp:165] Memory required for data: 4306785328
I0718 14:21:33.984712 31595 layer_factory.hpp:76] Creating layer inception_5b/relu_1x1
I0718 14:21:33.984743 31595 net.cpp:106] Creating Layer inception_5b/relu_1x1
I0718 14:21:33.984774 31595 net.cpp:454] inception_5b/relu_1x1 <- inception_5b/1x1
I0718 14:21:33.984798 31595 net.cpp:397] inception_5b/relu_1x1 -> inception_5b/1x1 (in-place)
I0718 14:21:33.985476 31595 net.cpp:150] Setting up inception_5b/relu_1x1
I0718 14:21:33.985507 31595 net.cpp:157] Top shape: 4 384 31 31 (1476096)
I0718 14:21:33.985524 31595 net.cpp:165] Memory required for data: 4312689712
I0718 14:21:33.985538 31595 layer_factory.hpp:76] Creating layer inception_5b/3x3_reduce
I0718 14:21:33.985580 31595 net.cpp:106] Creating Layer inception_5b/3x3_reduce
I0718 14:21:33.985596 31595 net.cpp:454] inception_5b/3x3_reduce <- inception_5a/output_inception_5a/output_0_split_1
I0718 14:21:33.985621 31595 net.cpp:411] inception_5b/3x3_reduce -> inception_5b/3x3_reduce
I0718 14:21:33.991053 31595 cudnn_conv_layer.cpp:194] Reallocating workspace storage: 9984
I0718 14:21:33.991168 31595 net.cpp:150] Setting up inception_5b/3x3_reduce
I0718 14:21:33.991194 31595 net.cpp:157] Top shape: 4 192 31 31 (738048)
I0718 14:21:33.991207 31595 net.cpp:165] Memory required for data: 4315641904
I0718 14:21:33.991226 31595 layer_factory.hpp:76] Creating layer inception_5b/relu_3x3_reduce
I0718 14:21:33.991261 31595 net.cpp:106] Creating Layer inception_5b/relu_3x3_reduce
I0718 14:21:33.991289 31595 net.cpp:454] inception_5b/relu_3x3_reduce <- inception_5b/3x3_reduce
I0718 14:21:33.991307 31595 net.cpp:397] inception_5b/relu_3x3_reduce -> inception_5b/3x3_reduce (in-place)
I0718 14:21:33.991680 31595 net.cpp:150] Setting up inception_5b/relu_3x3_reduce
I0718 14:21:33.991715 31595 net.cpp:157] Top shape: 4 192 31 31 (738048)
I0718 14:21:33.991731 31595 net.cpp:165] Memory required for data: 4318594096
I0718 14:21:33.991745 31595 layer_factory.hpp:76] Creating layer inception_5b/3x3
I0718 14:21:33.991771 31595 net.cpp:106] Creating Layer inception_5b/3x3
I0718 14:21:33.991786 31595 net.cpp:454] inception_5b/3x3 <- inception_5b/3x3_reduce
I0718 14:21:33.991811 31595 net.cpp:411] inception_5b/3x3 -> inception_5b/3x3
I0718 14:21:34.002936 31595 net.cpp:150] Setting up inception_5b/3x3
I0718 14:21:34.003007 31595 net.cpp:157] Top shape: 4 384 31 31 (1476096)
I0718 14:21:34.003024 31595 net.cpp:165] Memory required for data: 4324498480
I0718 14:21:34.003047 31595 layer_factory.hpp:76] Creating layer inception_5b/relu_3x3
I0718 14:21:34.003113 31595 net.cpp:106] Creating Layer inception_5b/relu_3x3
I0718 14:21:34.003139 31595 net.cpp:454] inception_5b/relu_3x3 <- inception_5b/3x3
I0718 14:21:34.003159 31595 net.cpp:397] inception_5b/relu_3x3 -> inception_5b/3x3 (in-place)
I0718 14:21:34.003937 31595 net.cpp:150] Setting up inception_5b/relu_3x3
I0718 14:21:34.003975 31595 net.cpp:157] Top shape: 4 384 31 31 (1476096)
I0718 14:21:34.003991 31595 net.cpp:165] Memory required for data: 4330402864
I0718 14:21:34.004026 31595 layer_factory.hpp:76] Creating layer inception_5b/5x5_reduce
I0718 14:21:34.004060 31595 net.cpp:106] Creating Layer inception_5b/5x5_reduce
I0718 14:21:34.004087 31595 net.cpp:454] inception_5b/5x5_reduce <- inception_5a/output_inception_5a/output_0_split_2
I0718 14:21:34.004112 31595 net.cpp:411] inception_5b/5x5_reduce -> inception_5b/5x5_reduce
I0718 14:21:34.006810 31595 net.cpp:150] Setting up inception_5b/5x5_reduce
I0718 14:21:34.006875 31595 net.cpp:157] Top shape: 4 48 31 31 (184512)
I0718 14:21:34.006894 31595 net.cpp:165] Memory required for data: 4331140912
I0718 14:21:34.006923 31595 layer_factory.hpp:76] Creating layer inception_5b/relu_5x5_reduce
I0718 14:21:34.006952 31595 net.cpp:106] Creating Layer inception_5b/relu_5x5_reduce
I0718 14:21:34.006995 31595 net.cpp:454] inception_5b/relu_5x5_reduce <- inception_5b/5x5_reduce
I0718 14:21:34.007014 31595 net.cpp:397] inception_5b/relu_5x5_reduce -> inception_5b/5x5_reduce (in-place)
I0718 14:21:34.007693 31595 net.cpp:150] Setting up inception_5b/relu_5x5_reduce
I0718 14:21:34.007742 31595 net.cpp:157] Top shape: 4 48 31 31 (184512)
I0718 14:21:34.007774 31595 net.cpp:165] Memory required for data: 4331878960
I0718 14:21:34.007807 31595 layer_factory.hpp:76] Creating layer inception_5b/5x5
I0718 14:21:34.007879 31595 net.cpp:106] Creating Layer inception_5b/5x5
I0718 14:21:34.007899 31595 net.cpp:454] inception_5b/5x5 <- inception_5b/5x5_reduce
I0718 14:21:34.007930 31595 net.cpp:411] inception_5b/5x5 -> inception_5b/5x5
I0718 14:21:34.011863 31595 net.cpp:150] Setting up inception_5b/5x5
I0718 14:21:34.011919 31595 net.cpp:157] Top shape: 4 128 31 31 (492032)
I0718 14:21:34.011934 31595 net.cpp:165] Memory required for data: 4333847088
I0718 14:21:34.011963 31595 layer_factory.hpp:76] Creating layer inception_5b/relu_5x5
I0718 14:21:34.011992 31595 net.cpp:106] Creating Layer inception_5b/relu_5x5
I0718 14:21:34.012009 31595 net.cpp:454] inception_5b/relu_5x5 <- inception_5b/5x5
I0718 14:21:34.012028 31595 net.cpp:397] inception_5b/relu_5x5 -> inception_5b/5x5 (in-place)
I0718 14:21:34.012323 31595 net.cpp:150] Setting up inception_5b/relu_5x5
I0718 14:21:34.012356 31595 net.cpp:157] Top shape: 4 128 31 31 (492032)
I0718 14:21:34.012377 31595 net.cpp:165] Memory required for data: 4335815216
I0718 14:21:34.012401 31595 layer_factory.hpp:76] Creating layer inception_5b/pool
I0718 14:21:34.012441 31595 net.cpp:106] Creating Layer inception_5b/pool
I0718 14:21:34.012457 31595 net.cpp:454] inception_5b/pool <- inception_5a/output_inception_5a/output_0_split_3
I0718 14:21:34.012478 31595 net.cpp:411] inception_5b/pool -> inception_5b/pool
I0718 14:21:34.013216 31595 net.cpp:150] Setting up inception_5b/pool
I0718 14:21:34.013255 31595 net.cpp:157] Top shape: 4 832 31 31 (3198208)
I0718 14:21:34.013273 31595 net.cpp:165] Memory required for data: 4348608048
I0718 14:21:34.013288 31595 layer_factory.hpp:76] Creating layer inception_5b/pool_proj
I0718 14:21:34.013325 31595 net.cpp:106] Creating Layer inception_5b/pool_proj
I0718 14:21:34.013340 31595 net.cpp:454] inception_5b/pool_proj <- inception_5b/pool
I0718 14:21:34.013360 31595 net.cpp:411] inception_5b/pool_proj -> inception_5b/pool_proj
I0718 14:21:34.018256 31595 cudnn_conv_layer.cpp:194] Reallocating workspace storage: 9984
I0718 14:21:34.018374 31595 net.cpp:150] Setting up inception_5b/pool_proj
I0718 14:21:34.018402 31595 net.cpp:157] Top shape: 4 128 31 31 (492032)
I0718 14:21:34.018420 31595 net.cpp:165] Memory required for data: 4350576176
I0718 14:21:34.018446 31595 layer_factory.hpp:76] Creating layer inception_5b/relu_pool_proj
I0718 14:21:34.018473 31595 net.cpp:106] Creating Layer inception_5b/relu_pool_proj
I0718 14:21:34.018501 31595 net.cpp:454] inception_5b/relu_pool_proj <- inception_5b/pool_proj
I0718 14:21:34.018579 31595 net.cpp:397] inception_5b/relu_pool_proj -> inception_5b/pool_proj (in-place)
I0718 14:21:34.018949 31595 net.cpp:150] Setting up inception_5b/relu_pool_proj
I0718 14:21:34.018980 31595 net.cpp:157] Top shape: 4 128 31 31 (492032)
I0718 14:21:34.018992 31595 net.cpp:165] Memory required for data: 4352544304
I0718 14:21:34.019008 31595 layer_factory.hpp:76] Creating layer inception_5b/output
I0718 14:21:34.019028 31595 net.cpp:106] Creating Layer inception_5b/output
I0718 14:21:34.019047 31595 net.cpp:454] inception_5b/output <- inception_5b/1x1
I0718 14:21:34.019063 31595 net.cpp:454] inception_5b/output <- inception_5b/3x3
I0718 14:21:34.019085 31595 net.cpp:454] inception_5b/output <- inception_5b/5x5
I0718 14:21:34.019099 31595 net.cpp:454] inception_5b/output <- inception_5b/pool_proj
I0718 14:21:34.019117 31595 net.cpp:411] inception_5b/output -> inception_5b/output
I0718 14:21:34.019178 31595 net.cpp:150] Setting up inception_5b/output
I0718 14:21:34.019201 31595 net.cpp:157] Top shape: 4 1024 31 31 (3936256)
I0718 14:21:34.019225 31595 net.cpp:165] Memory required for data: 4368289328
I0718 14:21:34.019266 31595 layer_factory.hpp:76] Creating layer pool5/7x7_s1
I0718 14:21:34.019309 31595 net.cpp:106] Creating Layer pool5/7x7_s1
I0718 14:21:34.019326 31595 net.cpp:454] pool5/7x7_s1 <- inception_5b/output
I0718 14:21:34.019345 31595 net.cpp:411] pool5/7x7_s1 -> pool5/7x7_s1
I0718 14:21:34.359911 31595 cudnn_conv_layer.cpp:194] Reallocating workspace storage: 602112
I0718 14:21:34.360360 31595 net.cpp:150] Setting up pool5/7x7_s1
I0718 14:21:34.360395 31595 net.cpp:157] Top shape: 4 512 25 25 (1280000)
I0718 14:21:34.360414 31595 net.cpp:165] Memory required for data: 4373409328
I0718 14:21:34.360443 31595 layer_factory.hpp:76] Creating layer conv61
I0718 14:21:34.360486 31595 net.cpp:106] Creating Layer conv61
I0718 14:21:34.360504 31595 net.cpp:454] conv61 <- pool5/7x7_s1
I0718 14:21:34.360533 31595 net.cpp:411] conv61 -> conv61
I0718 14:21:34.366904 31595 cudnn_conv_layer.cpp:194] Reallocating workspace storage: 55296
I0718 14:21:34.367004 31595 net.cpp:150] Setting up conv61
I0718 14:21:34.367040 31595 net.cpp:157] Top shape: 4 64 25 25 (160000)
I0718 14:21:34.367069 31595 net.cpp:165] Memory required for data: 4374049328
I0718 14:21:34.367102 31595 layer_factory.hpp:76] Creating layer relu61
I0718 14:21:34.367133 31595 net.cpp:106] Creating Layer relu61
I0718 14:21:34.367151 31595 net.cpp:454] relu61 <- conv61
I0718 14:21:34.367172 31595 net.cpp:397] relu61 -> conv61 (in-place)
I0718 14:21:34.367530 31595 net.cpp:150] Setting up relu61
I0718 14:21:34.367568 31595 net.cpp:157] Top shape: 4 64 25 25 (160000)
I0718 14:21:34.367593 31595 net.cpp:165] Memory required for data: 4374689328
I0718 14:21:34.367612 31595 layer_factory.hpp:76] Creating layer conv62
I0718 14:21:34.367655 31595 net.cpp:106] Creating Layer conv62
I0718 14:21:34.367672 31595 net.cpp:454] conv62 <- conv61
I0718 14:21:34.367702 31595 net.cpp:411] conv62 -> conv62
I0718 14:21:34.371075 31595 net.cpp:150] Setting up conv62
I0718 14:21:34.371114 31595 net.cpp:157] Top shape: 4 64 25 25 (160000)
I0718 14:21:34.371139 31595 net.cpp:165] Memory required for data: 4375329328
I0718 14:21:34.371163 31595 layer_factory.hpp:76] Creating layer relu62
I0718 14:21:34.371182 31595 net.cpp:106] Creating Layer relu62
I0718 14:21:34.371209 31595 net.cpp:454] relu62 <- conv62
I0718 14:21:34.371235 31595 net.cpp:397] relu62 -> conv62 (in-place)
I0718 14:21:34.371948 31595 net.cpp:150] Setting up relu62
I0718 14:21:34.371985 31595 net.cpp:157] Top shape: 4 64 25 25 (160000)
I0718 14:21:34.372004 31595 net.cpp:165] Memory required for data: 4375969328
I0718 14:21:34.372030 31595 layer_factory.hpp:76] Creating layer pool5
I0718 14:21:34.372061 31595 net.cpp:106] Creating Layer pool5
I0718 14:21:34.372086 31595 net.cpp:454] pool5 <- conv62
I0718 14:21:34.372104 31595 net.cpp:411] pool5 -> pool5
I0718 14:21:34.372674 31595 net.cpp:150] Setting up pool5
I0718 14:21:34.372715 31595 net.cpp:157] Top shape: 4 64 13 13 (43264)
I0718 14:21:34.372789 31595 net.cpp:165] Memory required for data: 4376142384
I0718 14:21:34.372814 31595 layer_factory.hpp:76] Creating layer conv71
I0718 14:21:34.372869 31595 net.cpp:106] Creating Layer conv71
I0718 14:21:34.372891 31595 net.cpp:454] conv71 <- pool5
I0718 14:21:34.372933 31595 net.cpp:411] conv71 -> conv71
I0718 14:21:34.376133 31595 cudnn_conv_layer.cpp:194] Reallocating workspace storage: 6912
I0718 14:21:34.376269 31595 net.cpp:150] Setting up conv71
I0718 14:21:34.376327 31595 net.cpp:157] Top shape: 4 96 13 13 (64896)
I0718 14:21:34.376354 31595 net.cpp:165] Memory required for data: 4376401968
I0718 14:21:34.376389 31595 layer_factory.hpp:76] Creating layer relu71
I0718 14:21:34.376411 31595 net.cpp:106] Creating Layer relu71
I0718 14:21:34.376436 31595 net.cpp:454] relu71 <- conv71
I0718 14:21:34.376464 31595 net.cpp:397] relu71 -> conv71 (in-place)
I0718 14:21:34.377046 31595 net.cpp:150] Setting up relu71
I0718 14:21:34.377080 31595 net.cpp:157] Top shape: 4 96 13 13 (64896)
I0718 14:21:34.377106 31595 net.cpp:165] Memory required for data: 4376661552
I0718 14:21:34.377145 31595 layer_factory.hpp:76] Creating layer conv72
I0718 14:21:34.377182 31595 net.cpp:106] Creating Layer conv72
I0718 14:21:34.377218 31595 net.cpp:454] conv72 <- conv71
I0718 14:21:34.377248 31595 net.cpp:411] conv72 -> conv72
I0718 14:21:34.381208 31595 net.cpp:150] Setting up conv72
I0718 14:21:34.381263 31595 net.cpp:157] Top shape: 4 96 13 13 (64896)
I0718 14:21:34.381288 31595 net.cpp:165] Memory required for data: 4376921136
I0718 14:21:34.381311 31595 layer_factory.hpp:76] Creating layer relu72
I0718 14:21:34.381343 31595 net.cpp:106] Creating Layer relu72
I0718 14:21:34.381362 31595 net.cpp:454] relu72 <- conv72
I0718 14:21:34.381400 31595 net.cpp:397] relu72 -> conv72 (in-place)
I0718 14:21:34.382166 31595 net.cpp:150] Setting up relu72
I0718 14:21:34.382217 31595 net.cpp:157] Top shape: 4 96 13 13 (64896)
I0718 14:21:34.382238 31595 net.cpp:165] Memory required for data: 4377180720
I0718 14:21:34.382254 31595 layer_factory.hpp:76] Creating layer pool6
I0718 14:21:34.382287 31595 net.cpp:106] Creating Layer pool6
I0718 14:21:34.382307 31595 net.cpp:454] pool6 <- conv72
I0718 14:21:34.382326 31595 net.cpp:411] pool6 -> pool6
I0718 14:21:34.382810 31595 net.cpp:150] Setting up pool6
I0718 14:21:34.382853 31595 net.cpp:157] Top shape: 4 96 7 7 (18816)
I0718 14:21:34.382868 31595 net.cpp:165] Memory required for data: 4377255984
I0718 14:21:34.382881 31595 layer_factory.hpp:76] Creating layer conv81
I0718 14:21:34.382910 31595 net.cpp:106] Creating Layer conv81
I0718 14:21:34.382928 31595 net.cpp:454] conv81 <- pool6
I0718 14:21:34.382952 31595 net.cpp:411] conv81 -> conv81
I0718 14:21:34.387114 31595 net.cpp:150] Setting up conv81
I0718 14:21:34.387153 31595 net.cpp:157] Top shape: 4 128 7 7 (25088)
I0718 14:21:34.387171 31595 net.cpp:165] Memory required for data: 4377356336
I0718 14:21:34.387202 31595 layer_factory.hpp:76] Creating layer relu81
I0718 14:21:34.387228 31595 net.cpp:106] Creating Layer relu81
I0718 14:21:34.387244 31595 net.cpp:454] relu81 <- conv81
I0718 14:21:34.387265 31595 net.cpp:397] relu81 -> conv81 (in-place)
I0718 14:21:34.387902 31595 net.cpp:150] Setting up relu81
I0718 14:21:34.387933 31595 net.cpp:157] Top shape: 4 128 7 7 (25088)
I0718 14:21:34.387948 31595 net.cpp:165] Memory required for data: 4377456688
I0718 14:21:34.387971 31595 layer_factory.hpp:76] Creating layer conv82
I0718 14:21:34.388011 31595 net.cpp:106] Creating Layer conv82
I0718 14:21:34.388031 31595 net.cpp:454] conv82 <- conv81
I0718 14:21:34.388056 31595 net.cpp:411] conv82 -> conv82
I0718 14:21:34.391293 31595 net.cpp:150] Setting up conv82
I0718 14:21:34.391322 31595 net.cpp:157] Top shape: 4 128 7 7 (25088)
I0718 14:21:34.391345 31595 net.cpp:165] Memory required for data: 4377557040
I0718 14:21:34.391367 31595 layer_factory.hpp:76] Creating layer relu82
I0718 14:21:34.391394 31595 net.cpp:106] Creating Layer relu82
I0718 14:21:34.391410 31595 net.cpp:454] relu82 <- conv82
I0718 14:21:34.391439 31595 net.cpp:397] relu82 -> conv82 (in-place)
I0718 14:21:34.392087 31595 net.cpp:150] Setting up relu82
I0718 14:21:34.392122 31595 net.cpp:157] Top shape: 4 128 7 7 (25088)
I0718 14:21:34.392140 31595 net.cpp:165] Memory required for data: 4377657392
I0718 14:21:34.392170 31595 layer_factory.hpp:76] Creating layer pool7
I0718 14:21:34.392191 31595 net.cpp:106] Creating Layer pool7
I0718 14:21:34.392206 31595 net.cpp:454] pool7 <- conv82
I0718 14:21:34.392225 31595 net.cpp:411] pool7 -> pool7
I0718 14:21:34.392575 31595 net.cpp:150] Setting up pool7
I0718 14:21:34.392611 31595 net.cpp:157] Top shape: 4 128 4 4 (8192)
I0718 14:21:34.392627 31595 net.cpp:165] Memory required for data: 4377690160
I0718 14:21:34.392642 31595 layer_factory.hpp:76] Creating layer drop0
I0718 14:21:34.392668 31595 net.cpp:106] Creating Layer drop0
I0718 14:21:34.392683 31595 net.cpp:454] drop0 <- pool7
I0718 14:21:34.392706 31595 net.cpp:397] drop0 -> pool7 (in-place)
I0718 14:21:34.392778 31595 net.cpp:150] Setting up drop0
I0718 14:21:34.392804 31595 net.cpp:157] Top shape: 4 128 4 4 (8192)
I0718 14:21:34.392818 31595 net.cpp:165] Memory required for data: 4377722928
I0718 14:21:34.392833 31595 layer_factory.hpp:76] Creating layer conv91
I0718 14:21:34.392870 31595 net.cpp:106] Creating Layer conv91
I0718 14:21:34.392890 31595 net.cpp:454] conv91 <- pool7
I0718 14:21:34.392910 31595 net.cpp:411] conv91 -> conv91
I0718 14:21:34.395077 31595 cudnn_conv_layer.cpp:194] Reallocating workspace storage: 6211584
I0718 14:21:34.395500 31595 net.cpp:150] Setting up conv91
I0718 14:21:34.395529 31595 net.cpp:157] Top shape: 4 3 1 1 (12)
I0718 14:21:34.395545 31595 net.cpp:165] Memory required for data: 4377722976
I0718 14:21:34.395649 31595 layer_factory.hpp:76] Creating layer conv91_conv91_0_split
I0718 14:21:34.395679 31595 net.cpp:106] Creating Layer conv91_conv91_0_split
I0718 14:21:34.395694 31595 net.cpp:454] conv91_conv91_0_split <- conv91
I0718 14:21:34.395712 31595 net.cpp:411] conv91_conv91_0_split -> conv91_conv91_0_split_0
I0718 14:21:34.395733 31595 net.cpp:411] conv91_conv91_0_split -> conv91_conv91_0_split_1
I0718 14:21:34.395840 31595 net.cpp:150] Setting up conv91_conv91_0_split
I0718 14:21:34.395864 31595 net.cpp:157] Top shape: 4 3 1 1 (12)
I0718 14:21:34.395885 31595 net.cpp:157] Top shape: 4 3 1 1 (12)
I0718 14:21:34.395900 31595 net.cpp:165] Memory required for data: 4377723072
I0718 14:21:34.395915 31595 layer_factory.hpp:76] Creating layer accuracy
I0718 14:21:34.395941 31595 net.cpp:106] Creating Layer accuracy
I0718 14:21:34.395956 31595 net.cpp:454] accuracy <- conv91_conv91_0_split_0
I0718 14:21:34.395972 31595 net.cpp:454] accuracy <- label_data_1_split_0
I0718 14:21:34.395989 31595 net.cpp:411] accuracy -> accuracy
…
