…
I0718 14:33:18.954919 33824 net.cpp:322] The NetState phase (0) differed from the phase (1) specified by a rule in layer data
I0718 14:33:18.955946 33824 net.cpp:49] Initializing net from parameters: 
name: "GoogleNet"
state {
  phase: TRAIN
}
layer {
  name: "data"
  type: "ImageData"
  top: "data"
  top: "label"
  include {
    phase: TRAIN
  }
  transform_param {
    mirror: true
    mean_value: 163
    mean_value: 116
    mean_value: 181
  }
  image_data_param {
    source: "../lists/mitosis_train.lst"
    batch_size: 8
    shuffle: true
  }
}
layer {
  name: "conv1/7x7_s2"
  type: "Convolution"
  bottom: "data"
  top: "conv1/7x7_s2"
  param {
    lr_mult: 0
    decay_mult: 1
  }
  param {
    lr_mult: 2
    decay_mult: 0
  }
  convolution_param {
    num_output: 64
    pad: 3
    kernel_size: 7
    stride: 2
    weight_filler {
      type: "xavier"
    }
    bias_filler {
      type: "constant"
      value: 0.2
    }
  }
}
layer {
  name: "conv1/relu_7x7"
  type: "ReLU"
  bottom: "conv1/7x7_s2"
  top: "conv1/7x7_s2"
}
layer {
  name: "pool1/3x3_s2"
  type: "Pooling"
  bottom: "conv1/7x7_s2"
  top: "pool1/3x3_s2"
  pooling_param {
    pool: MAX
    kernel_size: 3
    stride: 2
  }
}
layer {
  name: "pool1/norm1"
  type: "LRN"
  bottom: "pool1/3x3_s2"
  top: "pool1/norm1"
  lrn_param {
    local_size: 5
    alpha: 0.0001
    beta: 0.75
  }
}
layer {
  name: "conv2/3x3_reduce"
  type: "Convolution"
  bottom: "pool1/norm1"
  top: "conv2/3x3_reduce"
  param {
    lr_mult: 0
    decay_mult: 1
  }
  param {
    lr_mult: 2
    decay_mult: 0
  }
  convolution_param {
    num_output: 64
    kernel_size: 1
    weight_filler {
      type: "xavier"
    }
    bias_filler {
      type: "constant"
      value: 0.2
    }
  }
}
layer {
  name: "conv2/relu_3x3_reduce"
  type: "ReLU"
  bottom: "conv2/3x3_reduce"
  top: "conv2/3x3_reduce"
}
layer {
  name: "conv2/3x3"
  type: "Convolution"
  bottom: "conv2/3x3_reduce"
  top: "conv2/3x3"
  param {
    lr_mult: 0
    decay_mult: 1
  }
  param {
    lr_mult: 2
    decay_mult: 0
  }
  convolution_param {
    num_output: 192
    pad: 1
    kernel_size: 3
    weight_filler {
      type: "xavier"
    }
    bias_filler {
      type: "constant"
      value: 0.2
    }
  }
}
layer {
  name: "conv2/relu_3x3"
  type: "ReLU"
  bottom: "conv2/3x3"
  top: "conv2/3x3"
}
layer {
  name: "conv2/norm2"
  type: "LRN"
  bottom: "conv2/3x3"
  top: "conv2/norm2"
  lrn_param {
    local_size: 5
    alpha: 0.0001
    beta: 0.75
  }
}
layer {
  name: "pool2/3x3_s2"
  type: "Pooling"
  bottom: "conv2/norm2"
  top: "pool2/3x3_s2"
  pooling_param {
    pool: MAX
    kernel_size: 3
    stride: 2
  }
}
layer {
  name: "inception_3a/1x1"
  type: "Convolution"
  bottom: "pool2/3x3_s2"
  top: "inception_3a/1x1"
  param {
    lr_mult: 0
    decay_mult: 1
  }
  param {
    lr_mult: 2
    decay_mult: 0
  }
  convolution_param {
    num_output: 64
    kernel_size: 1
    weight_filler {
      type: "xavier"
    }
    bias_filler {
      type: "constant"
      value: 0.2
    }
  }
}
layer {
  name: "inception_3a/relu_1x1"
  type: "ReLU"
  bottom: "inception_3a/1x1"
  top: "inception_3a/1x1"
}
layer {
  name: "inception_3a/3x3_reduce"
  type: "Convolution"
  bottom: "pool2/3x3_s2"
  top: "inception_3a/3x3_reduce"
  param {
    lr_mult: 0
    decay_mult: 1
  }
  param {
    lr_mult: 2
    decay_mult: 0
  }
  convolution_param {
    num_output: 96
    kernel_size: 1
    weight_filler {
      type: "xavier"
    }
    bias_filler {
      type: "constant"
      value: 0.2
    }
  }
}
layer {
  name: "inception_3a/relu_3x3_reduce"
  type: "ReLU"
  bottom: "inception_3a/3x3_reduce"
  top: "inception_3a/3x3_reduce"
}
layer {
  name: "inception_3a/3x3"
  type: "Convolution"
  bottom: "inception_3a/3x3_reduce"
  top: "inception_3a/3x3"
  param {
    lr_mult: 0
    decay_mult: 1
  }
  param {
    lr_mult: 2
    decay_mult: 0
  }
  convolution_param {
    num_output: 128
    pad: 1
    kernel_size: 3
    weight_filler {
      type: "xavier"
    }
    bias_filler {
      type: "constant"
      value: 0.2
    }
  }
}
layer {
  name: "inception_3a/relu_3x3"
  type: "ReLU"
  bottom: "inception_3a/3x3"
  top: "inception_3a/3x3"
}
layer {
  name: "inception_3a/5x5_reduce"
  type: "Convolution"
  bottom: "pool2/3x3_s2"
  top: "inception_3a/5x5_reduce"
  param {
    lr_mult: 0
    decay_mult: 1
  }
  param {
    lr_mult: 2
    decay_mult: 0
  }
  convolution_param {
    num_output: 16
    kernel_size: 1
    weight_filler {
      type: "xavier"
    }
    bias_filler {
      type: "constant"
      value: 0.2
    }
  }
}
layer {
  name: "inception_3a/relu_5x5_reduce"
  type: "ReLU"
  bottom: "inception_3a/5x5_reduce"
  top: "inception_3a/5x5_reduce"
}
layer {
  name: "inception_3a/5x5"
  type: "Convolution"
  bottom: "inception_3a/5x5_reduce"
  top: "inception_3a/5x5"
  param {
    lr_mult: 0
    decay_mult: 1
  }
  param {
    lr_mult: 2
    decay_mult: 0
  }
  convolution_param {
    num_output: 32
    pad: 2
    kernel_size: 5
    weight_filler {
      type: "xavier"
    }
    bias_filler {
      type: "constant"
      value: 0.2
    }
  }
}
layer {
  name: "inception_3a/relu_5x5"
  type: "ReLU"
  bottom: "inception_3a/5x5"
  top: "inception_3a/5x5"
}
layer {
  name: "inception_3a/pool"
  type: "Pooling"
  bottom: "pool2/3x3_s2"
  top: "inception_3a/pool"
  pooling_param {
    pool: MAX
    kernel_size: 3
    stride: 1
    pad: 1
  }
}
layer {
  name: "inception_3a/pool_proj"
  type: "Convolution"
  bottom: "inception_3a/pool"
  top: "inception_3a/pool_proj"
  param {
    lr_mult: 0
    decay_mult: 1
  }
  param {
    lr_mult: 2
    decay_mult: 0
  }
  convolution_param {
    num_output: 32
    kernel_size: 1
    weight_filler {
      type: "xavier"
    }
    bias_filler {
      type: "constant"
      value: 0.2
    }
  }
}
layer {
  name: "inception_3a/relu_pool_proj"
  type: "ReLU"
  bottom: "inception_3a/pool_proj"
  top: "inception_3a/pool_proj"
}
layer {
  name: "inception_3a/output"
  type: "Concat"
  bottom: "inception_3a/1x1"
  bottom: "inception_3a/3x3"
  bottom: "inception_3a/5x5"
  bottom: "inception_3a/pool_proj"
  top: "inception_3a/output"
}
layer {
  name: "inception_3b/1x1"
  type: "Convolution"
  bottom: "inception_3a/output"
  top: "inception_3b/1x1"
  param {
    lr_mult: 0
    decay_mult: 1
  }
  param {
    lr_mult: 2
    decay_mult: 0
  }
  convolution_param {
    num_output: 128
    kernel_size: 1
    weight_filler {
      type: "xavier"
    }
    bias_filler {
      type: "constant"
      value: 0.2
    }
  }
}
layer {
  name: "inception_3b/relu_1x1"
  type: "ReLU"
  bottom: "inception_3b/1x1"
  top: "inception_3b/1x1"
}
layer {
  name: "inception_3b/3x3_reduce"
  type: "Convolution"
  bottom: "inception_3a/output"
  top: "inception_3b/3x3_reduce"
  param {
    lr_mult: 0
    decay_mult: 1
  }
  param {
    lr_mult: 2
    decay_mult: 0
  }
  convolution_param {
    num_output: 128
    kernel_size: 1
    weight_filler {
      type: "xavier"
    }
    bias_filler {
      type: "constant"
      value: 0.2
    }
  }
}
layer {
  name: "inception_3b/relu_3x3_reduce"
  type: "ReLU"
  bottom: "inception_3b/3x3_reduce"
  top: "inception_3b/3x3_reduce"
}
layer {
  name: "inception_3b/3x3"
  type: "Convolution"
  bottom: "inception_3b/3x3_reduce"
  top: "inception_3b/3x3"
  param {
    lr_mult: 0
    decay_mult: 1
  }
  param {
    lr_mult: 2
    decay_mult: 0
  }
  convolution_param {
    num_output: 192
    pad: 1
    kernel_size: 3
    weight_filler {
      type: "xavier"
    }
    bias_filler {
      type: "constant"
      value: 0.2
    }
  }
}
layer {
  name: "inception_3b/relu_3x3"
  type: "ReLU"
  bottom: "inception_3b/3x3"
  top: "inception_3b/3x3"
}
layer {
  name: "inception_3b/5x5_reduce"
  type: "Convolution"
  bottom: "inception_3a/output"
  top: "inception_3b/5x5_reduce"
  param {
    lr_mult: 0
    decay_mult: 1
  }
  param {
    lr_mult: 2
    decay_mult: 0
  }
  convolution_param {
    num_output: 32
    kernel_size: 1
    weight_filler {
      type: "xavier"
    }
    bias_filler {
      type: "constant"
      value: 0.2
    }
  }
}
layer {
  name: "inception_3b/relu_5x5_reduce"
  type: "ReLU"
  bottom: "inception_3b/5x5_reduce"
  top: "inception_3b/5x5_reduce"
}
layer {
  name: "inception_3b/5x5"
  type: "Convolution"
  bottom: "inception_3b/5x5_reduce"
  top: "inception_3b/5x5"
  param {
    lr_mult: 0
    decay_mult: 1
  }
  param {
    lr_mult: 2
    decay_mult: 0
  }
  convolution_param {
    num_output: 96
    pad: 2
    kernel_size: 5
    weight_filler {
      type: "xavier"
    }
    bias_filler {
      type: "constant"
      value: 0.2
    }
  }
}
layer {
  name: "inception_3b/relu_5x5"
  type: "ReLU"
  bottom: "inception_3b/5x5"
  top: "inception_3b/5x5"
}
layer {
  name: "inception_3b/pool"
  type: "Pooling"
  bottom: "inception_3a/output"
  top: "inception_3b/pool"
  pooling_param {
    pool: MAX
    kernel_size: 3
    stride: 1
    pad: 1
  }
}
layer {
  name: "inception_3b/pool_proj"
  type: "Convolution"
  bottom: "inception_3b/pool"
  top: "inception_3b/pool_proj"
  param {
    lr_mult: 0
    decay_mult: 1
  }
  param {
    lr_mult: 2
    decay_mult: 0
  }
  convolution_param {
    num_output: 64
    kernel_size: 1
    weight_filler {
      type: "xavier"
    }
    bias_filler {
      type: "constant"
      value: 0.2
    }
  }
}
layer {
  name: "inception_3b/relu_pool_proj"
  type: "ReLU"
  bottom: "inception_3b/pool_proj"
  top: "inception_3b/pool_proj"
}
layer {
  name: "inception_3b/output"
  type: "Concat"
  bottom: "inception_3b/1x1"
  bottom: "inception_3b/3x3"
  bottom: "inception_3b/5x5"
  bottom: "inception_3b/pool_proj"
  top: "inception_3b/output"
}
layer {
  name: "pool3/3x3_s2"
  type: "Pooling"
  bottom: "inception_3b/output"
  top: "pool3/3x3_s2"
  pooling_param {
    pool: MAX
    kernel_size: 3
    stride: 2
  }
}
layer {
  name: "inception_4a/1x1"
  type: "Convolution"
  bottom: "pool3/3x3_s2"
  top: "inception_4a/1x1"
  param {
    lr_mult: 0
    decay_mult: 1
  }
  param {
    lr_mult: 2
    decay_mult: 0
  }
  convolution_param {
    num_output: 192
    kernel_size: 1
    weight_filler {
      type: "xavier"
    }
    bias_filler {
      type: "constant"
      value: 0.2
    }
  }
}
layer {
  name: "inception_4a/relu_1x1"
  type: "ReLU"
  bottom: "inception_4a/1x1"
  top: "inception_4a/1x1"
}
layer {
  name: "inception_4a/3x3_reduce"
  type: "Convolution"
  bottom: "pool3/3x3_s2"
  top: "inception_4a/3x3_reduce"
  param {
    lr_mult: 0
    decay_mult: 1
  }
  param {
    lr_mult: 2
    decay_mult: 0
  }
  convolution_param {
    num_output: 96
    kernel_size: 1
    weight_filler {
      type: "xavier"
    }
    bias_filler {
      type: "constant"
      value: 0.2
    }
  }
}
layer {
  name: "inception_4a/relu_3x3_reduce"
  type: "ReLU"
  bottom: "inception_4a/3x3_reduce"
  top: "inception_4a/3x3_reduce"
}
layer {
  name: "inception_4a/3x3"
  type: "Convolution"
  bottom: "inception_4a/3x3_reduce"
  top: "inception_4a/3x3"
  param {
    lr_mult: 0
    decay_mult: 1
  }
  param {
    lr_mult: 2
    decay_mult: 0
  }
  convolution_param {
    num_output: 208
    pad: 1
    kernel_size: 3
    weight_filler {
      type: "xavier"
    }
    bias_filler {
      type: "constant"
      value: 0.2
    }
  }
}
layer {
  name: "inception_4a/relu_3x3"
  type: "ReLU"
  bottom: "inception_4a/3x3"
  top: "inception_4a/3x3"
}
layer {
  name: "inception_4a/5x5_reduce"
  type: "Convolution"
  bottom: "pool3/3x3_s2"
  top: "inception_4a/5x5_reduce"
  param {
    lr_mult: 0
    decay_mult: 1
  }
  param {
    lr_mult: 2
    decay_mult: 0
  }
  convolution_param {
    num_output: 16
    kernel_size: 1
    weight_filler {
      type: "xavier"
    }
    bias_filler {
      type: "constant"
      value: 0.2
    }
  }
}
layer {
  name: "inception_4a/relu_5x5_reduce"
  type: "ReLU"
  bottom: "inception_4a/5x5_reduce"
  top: "inception_4a/5x5_reduce"
}
layer {
  name: "inception_4a/5x5"
  type: "Convolution"
  bottom: "inception_4a/5x5_reduce"
  top: "inception_4a/5x5"
  param {
    lr_mult: 0
    decay_mult: 1
  }
  param {
    lr_mult: 2
    decay_mult: 0
  }
  convolution_param {
    num_output: 48
    pad: 2
    kernel_size: 5
    weight_filler {
      type: "xavier"
    }
    bias_filler {
      type: "constant"
      value: 0.2
    }
  }
}
layer {
  name: "inception_4a/relu_5x5"
  type: "ReLU"
  bottom: "inception_4a/5x5"
  top: "inception_4a/5x5"
}
layer {
  name: "inception_4a/pool"
  type: "Pooling"
  bottom: "pool3/3x3_s2"
  top: "inception_4a/pool"
  pooling_param {
    pool: MAX
    kernel_size: 3
    stride: 1
    pad: 1
  }
}
layer {
  name: "inception_4a/pool_proj"
  type: "Convolution"
  bottom: "inception_4a/pool"
  top: "inception_4a/pool_proj"
  param {
    lr_mult: 0
    decay_mult: 1
  }
  param {
    lr_mult: 2
    decay_mult: 0
  }
  convolution_param {
    num_output: 64
    kernel_size: 1
    weight_filler {
      type: "xavier"
    }
    bias_filler {
      type: "constant"
      value: 0.2
    }
  }
}
layer {
  name: "inception_4a/relu_pool_proj"
  type: "ReLU"
  bottom: "inception_4a/pool_proj"
  top: "inception_4a/pool_proj"
}
layer {
  name: "inception_4a/output"
  type: "Concat"
  bottom: "inception_4a/1x1"
  bottom: "inception_4a/3x3"
  bottom: "inception_4a/5x5"
  bottom: "inception_4a/pool_proj"
  top: "inception_4a/output"
}
layer {
  name: "inception_4b/1x1"
  type: "Convolution"
  bottom: "inception_4a/output"
  top: "inception_4b/1x1"
  param {
    lr_mult: 0
    decay_mult: 1
  }
  param {
    lr_mult: 2
    decay_mult: 0
  }
  convolution_param {
    num_output: 160
    kernel_size: 1
    weight_filler {
      type: "xavier"
    }
    bias_filler {
      type: "constant"
      value: 0.2
    }
  }
}
layer {
  name: "inception_4b/relu_1x1"
  type: "ReLU"
  bottom: "inception_4b/1x1"
  top: "inception_4b/1x1"
}
layer {
  name: "inception_4b/3x3_reduce"
  type: "Convolution"
  bottom: "inception_4a/output"
  top: "inception_4b/3x3_reduce"
  param {
    lr_mult: 0
    decay_mult: 1
  }
  param {
    lr_mult: 2
    decay_mult: 0
  }
  convolution_param {
    num_output: 112
    kernel_size: 1
    weight_filler {
      type: "xavier"
    }
    bias_filler {
      type: "constant"
      value: 0.2
    }
  }
}
layer {
  name: "inception_4b/relu_3x3_reduce"
  type: "ReLU"
  bottom: "inception_4b/3x3_reduce"
  top: "inception_4b/3x3_reduce"
}
layer {
  name: "inception_4b/3x3"
  type: "Convolution"
  bottom: "inception_4b/3x3_reduce"
  top: "inception_4b/3x3"
  param {
    lr_mult: 0
    decay_mult: 1
  }
  param {
    lr_mult: 2
    decay_mult: 0
  }
  convolution_param {
    num_output: 224
    pad: 1
    kernel_size: 3
    weight_filler {
      type: "xavier"
    }
    bias_filler {
      type: "constant"
      value: 0.2
    }
  }
}
layer {
  name: "inception_4b/relu_3x3"
  type: "ReLU"
  bottom: "inception_4b/3x3"
  top: "inception_4b/3x3"
}
layer {
  name: "inception_4b/5x5_reduce"
  type: "Convolution"
  bottom: "inception_4a/output"
  top: "inception_4b/5x5_reduce"
  param {
    lr_mult: 0
    decay_mult: 1
  }
  param {
    lr_mult: 2
    decay_mult: 0
  }
  convolution_param {
    num_output: 24
    kernel_size: 1
    weight_filler {
      type: "xavier"
    }
    bias_filler {
      type: "constant"
      value: 0.2
    }
  }
}
layer {
  name: "inception_4b/relu_5x5_reduce"
  type: "ReLU"
  bottom: "inception_4b/5x5_reduce"
  top: "inception_4b/5x5_reduce"
}
layer {
  name: "inception_4b/5x5"
  type: "Convolution"
  bottom: "inception_4b/5x5_reduce"
  top: "inception_4b/5x5"
  param {
    lr_mult: 0
    decay_mult: 1
  }
  param {
    lr_mult: 2
    decay_mult: 0
  }
  convolution_param {
    num_output: 64
    pad: 2
    kernel_size: 5
    weight_filler {
      type: "xavier"
    }
    bias_filler {
      type: "constant"
      value: 0.2
    }
  }
}
layer {
  name: "inception_4b/relu_5x5"
  type: "ReLU"
  bottom: "inception_4b/5x5"
  top: "inception_4b/5x5"
}
layer {
  name: "inception_4b/pool"
  type: "Pooling"
  bottom: "inception_4a/output"
  top: "inception_4b/pool"
  pooling_param {
    pool: MAX
    kernel_size: 3
    stride: 1
    pad: 1
  }
}
layer {
  name: "inception_4b/pool_proj"
  type: "Convolution"
  bottom: "inception_4b/pool"
  top: "inception_4b/pool_proj"
  param {
    lr_mult: 0
    decay_mult: 1
  }
  param {
    lr_mult: 2
    decay_mult: 0
  }
  convolution_param {
    num_output: 64
    kernel_size: 1
    weight_filler {
      type: "xavier"
    }
    bias_filler {
      type: "constant"
      value: 0.2
    }
  }
}
layer {
  name: "inception_4b/relu_pool_proj"
  type: "ReLU"
  bottom: "inception_4b/pool_proj"
  top: "inception_4b/pool_proj"
}
layer {
  name: "inception_4b/output"
  type: "Concat"
  bottom: "inception_4b/1x1"
  bottom: "inception_4b/3x3"
  bottom: "inception_4b/5x5"
  bottom: "inception_4b/pool_proj"
  top: "inception_4b/output"
}
layer {
  name: "inception_4c/1x1"
  type: "Convolution"
  bottom: "inception_4b/output"
  top: "inception_4c/1x1"
  param {
    lr_mult: 0
    decay_mult: 1
  }
  param {
    lr_mult: 2
    decay_mult: 0
  }
  convolution_param {
    num_output: 128
    kernel_size: 1
    weight_filler {
      type: "xavier"
    }
    bias_filler {
      type: "constant"
      value: 0.2
    }
  }
}
layer {
  name: "inception_4c/relu_1x1"
  type: "ReLU"
  bottom: "inception_4c/1x1"
  top: "inception_4c/1x1"
}
layer {
  name: "inception_4c/3x3_reduce"
  type: "Convolution"
  bottom: "inception_4b/output"
  top: "inception_4c/3x3_reduce"
  param {
    lr_mult: 0
    decay_mult: 1
  }
  param {
    lr_mult: 2
    decay_mult: 0
  }
  convolution_param {
    num_output: 128
    kernel_size: 1
    weight_filler {
      type: "xavier"
    }
    bias_filler {
      type: "constant"
      value: 0.2
    }
  }
}
layer {
  name: "inception_4c/relu_3x3_reduce"
  type: "ReLU"
  bottom: "inception_4c/3x3_reduce"
  top: "inception_4c/3x3_reduce"
}
layer {
  name: "inception_4c/3x3"
  type: "Convolution"
  bottom: "inception_4c/3x3_reduce"
  top: "inception_4c/3x3"
  param {
    lr_mult: 0
    decay_mult: 1
  }
  param {
    lr_mult: 2
    decay_mult: 0
  }
  convolution_param {
    num_output: 256
    pad: 1
    kernel_size: 3
    weight_filler {
      type: "xavier"
    }
    bias_filler {
      type: "constant"
      value: 0.2
    }
  }
}
layer {
  name: "inception_4c/relu_3x3"
  type: "ReLU"
  bottom: "inception_4c/3x3"
  top: "inception_4c/3x3"
}
layer {
  name: "inception_4c/5x5_reduce"
  type: "Convolution"
  bottom: "inception_4b/output"
  top: "inception_4c/5x5_reduce"
  param {
    lr_mult: 0
    decay_mult: 1
  }
  param {
    lr_mult: 2
    decay_mult: 0
  }
  convolution_param {
    num_output: 24
    kernel_size: 1
    weight_filler {
      type: "xavier"
    }
    bias_filler {
      type: "constant"
      value: 0.2
    }
  }
}
layer {
  name: "inception_4c/relu_5x5_reduce"
  type: "ReLU"
  bottom: "inception_4c/5x5_reduce"
  top: "inception_4c/5x5_reduce"
}
layer {
  name: "inception_4c/5x5"
  type: "Convolution"
  bottom: "inception_4c/5x5_reduce"
  top: "inception_4c/5x5"
  param {
    lr_mult: 0
    decay_mult: 1
  }
  param {
    lr_mult: 2
    decay_mult: 0
  }
  convolution_param {
    num_output: 64
    pad: 2
    kernel_size: 5
    weight_filler {
      type: "xavier"
    }
    bias_filler {
      type: "constant"
      value: 0.2
    }
  }
}
layer {
  name: "inception_4c/relu_5x5"
  type: "ReLU"
  bottom: "inception_4c/5x5"
  top: "inception_4c/5x5"
}
layer {
  name: "inception_4c/pool"
  type: "Pooling"
  bottom: "inception_4b/output"
  top: "inception_4c/pool"
  pooling_param {
    pool: MAX
    kernel_size: 3
    stride: 1
    pad: 1
  }
}
layer {
  name: "inception_4c/pool_proj"
  type: "Convolution"
  bottom: "inception_4c/pool"
  top: "inception_4c/pool_proj"
  param {
    lr_mult: 0
    decay_mult: 1
  }
  param {
    lr_mult: 2
    decay_mult: 0
  }
  convolution_param {
    num_output: 64
    kernel_size: 1
    weight_filler {
      type: "xavier"
    }
    bias_filler {
      type: "constant"
      value: 0.2
    }
  }
}
layer {
  name: "inception_4c/relu_pool_proj"
  type: "ReLU"
  bottom: "inception_4c/pool_proj"
  top: "inception_4c/pool_proj"
}
layer {
  name: "inception_4c/output"
  type: "Concat"
  bottom: "inception_4c/1x1"
  bottom: "inception_4c/3x3"
  bottom: "inception_4c/5x5"
  bottom: "inception_4c/pool_proj"
  top: "inception_4c/output"
}
layer {
  name: "inception_4d/1x1"
  type: "Convolution"
  bottom: "inception_4c/output"
  top: "inception_4d/1x1"
  param {
    lr_mult: 0
    decay_mult: 1
  }
  param {
    lr_mult: 2
    decay_mult: 0
  }
  convolution_param {
    num_output: 112
    kernel_size: 1
    weight_filler {
      type: "xavier"
    }
    bias_filler {
      type: "constant"
      value: 0.2
    }
  }
}
layer {
  name: "inception_4d/relu_1x1"
  type: "ReLU"
  bottom: "inception_4d/1x1"
  top: "inception_4d/1x1"
}
layer {
  name: "inception_4d/3x3_reduce"
  type: "Convolution"
  bottom: "inception_4c/output"
  top: "inception_4d/3x3_reduce"
  param {
    lr_mult: 0
    decay_mult: 1
  }
  param {
    lr_mult: 2
    decay_mult: 0
  }
  convolution_param {
    num_output: 144
    kernel_size: 1
    weight_filler {
      type: "xavier"
    }
    bias_filler {
      type: "constant"
      value: 0.2
    }
  }
}
layer {
  name: "inception_4d/relu_3x3_reduce"
  type: "ReLU"
  bottom: "inception_4d/3x3_reduce"
  top: "inception_4d/3x3_reduce"
}
layer {
  name: "inception_4d/3x3"
  type: "Convolution"
  bottom: "inception_4d/3x3_reduce"
  top: "inception_4d/3x3"
  param {
    lr_mult: 0
    decay_mult: 1
  }
  param {
    lr_mult: 2
    decay_mult: 0
  }
  convolution_param {
    num_output: 288
    pad: 1
    kernel_size: 3
    weight_filler {
      type: "xavier"
    }
    bias_filler {
      type: "constant"
      value: 0.2
    }
  }
}
layer {
  name: "inception_4d/relu_3x3"
  type: "ReLU"
  bottom: "inception_4d/3x3"
  top: "inception_4d/3x3"
}
layer {
  name: "inception_4d/5x5_reduce"
  type: "Convolution"
  bottom: "inception_4c/output"
  top: "inception_4d/5x5_reduce"
  param {
    lr_mult: 0
    decay_mult: 1
  }
  param {
    lr_mult: 2
    decay_mult: 0
  }
  convolution_param {
    num_output: 32
    kernel_size: 1
    weight_filler {
      type: "xavier"
    }
    bias_filler {
      type: "constant"
      value: 0.2
    }
  }
}
layer {
  name: "inception_4d/relu_5x5_reduce"
  type: "ReLU"
  bottom: "inception_4d/5x5_reduce"
  top: "inception_4d/5x5_reduce"
}
layer {
  name: "inception_4d/5x5"
  type: "Convolution"
  bottom: "inception_4d/5x5_reduce"
  top: "inception_4d/5x5"
  param {
    lr_mult: 0
    decay_mult: 1
  }
  param {
    lr_mult: 2
    decay_mult: 0
  }
  convolution_param {
    num_output: 64
    pad: 2
    kernel_size: 5
    weight_filler {
      type: "xavier"
    }
    bias_filler {
      type: "constant"
      value: 0.2
    }
  }
}
layer {
  name: "inception_4d/relu_5x5"
  type: "ReLU"
  bottom: "inception_4d/5x5"
  top: "inception_4d/5x5"
}
layer {
  name: "inception_4d/pool"
  type: "Pooling"
  bottom: "inception_4c/output"
  top: "inception_4d/pool"
  pooling_param {
    pool: MAX
    kernel_size: 3
    stride: 1
    pad: 1
  }
}
layer {
  name: "inception_4d/pool_proj"
  type: "Convolution"
  bottom: "inception_4d/pool"
  top: "inception_4d/pool_proj"
  param {
    lr_mult: 0
    decay_mult: 1
  }
  param {
    lr_mult: 2
    decay_mult: 0
  }
  convolution_param {
    num_output: 64
    kernel_size: 1
    weight_filler {
      type: "xavier"
    }
    bias_filler {
      type: "constant"
      value: 0.2
    }
  }
}
layer {
  name: "inception_4d/relu_pool_proj"
  type: "ReLU"
  bottom: "inception_4d/pool_proj"
  top: "inception_4d/pool_proj"
}
layer {
  name: "inception_4d/output"
  type: "Concat"
  bottom: "inception_4d/1x1"
  bottom: "inception_4d/3x3"
  bottom: "inception_4d/5x5"
  bottom: "inception_4d/pool_proj"
  top: "inception_4d/output"
}
layer {
  name: "inception_4e/1x1"
  type: "Convolution"
  bottom: "inception_4d/output"
  top: "inception_4e/1x1"
  param {
    lr_mult: 0
    decay_mult: 1
  }
  param {
    lr_mult: 2
    decay_mult: 0
  }
  convolution_param {
    num_output: 256
    kernel_size: 1
    weight_filler {
      type: "xavier"
    }
    bias_filler {
      type: "constant"
      value: 0.2
    }
  }
}
layer {
  name: "inception_4e/relu_1x1"
  type: "ReLU"
  bottom: "inception_4e/1x1"
  top: "inception_4e/1x1"
}
layer {
  name: "inception_4e/3x3_reduce"
  type: "Convolution"
  bottom: "inception_4d/output"
  top: "inception_4e/3x3_reduce"
  param {
    lr_mult: 0
    decay_mult: 1
  }
  param {
    lr_mult: 2
    decay_mult: 0
  }
  convolution_param {
    num_output: 160
    kernel_size: 1
    weight_filler {
      type: "xavier"
    }
    bias_filler {
      type: "constant"
      value: 0.2
    }
  }
}
layer {
  name: "inception_4e/relu_3x3_reduce"
  type: "ReLU"
  bottom: "inception_4e/3x3_reduce"
  top: "inception_4e/3x3_reduce"
}
layer {
  name: "inception_4e/3x3"
  type: "Convolution"
  bottom: "inception_4e/3x3_reduce"
  top: "inception_4e/3x3"
  param {
    lr_mult: 0
    decay_mult: 1
  }
  param {
    lr_mult: 2
    decay_mult: 0
  }
  convolution_param {
    num_output: 320
    pad: 1
    kernel_size: 3
    weight_filler {
      type: "xavier"
    }
    bias_filler {
      type: "constant"
      value: 0.2
    }
  }
}
layer {
  name: "inception_4e/relu_3x3"
  type: "ReLU"
  bottom: "inception_4e/3x3"
  top: "inception_4e/3x3"
}
layer {
  name: "inception_4e/5x5_reduce"
  type: "Convolution"
  bottom: "inception_4d/output"
  top: "inception_4e/5x5_reduce"
  param {
    lr_mult: 0
    decay_mult: 1
  }
  param {
    lr_mult: 2
    decay_mult: 0
  }
  convolution_param {
    num_output: 32
    kernel_size: 1
    weight_filler {
      type: "xavier"
    }
    bias_filler {
      type: "constant"
      value: 0.2
    }
  }
}
layer {
  name: "inception_4e/relu_5x5_reduce"
  type: "ReLU"
  bottom: "inception_4e/5x5_reduce"
  top: "inception_4e/5x5_reduce"
}
layer {
  name: "inception_4e/5x5"
  type: "Convolution"
  bottom: "inception_4e/5x5_reduce"
  top: "inception_4e/5x5"
  param {
    lr_mult: 0
    decay_mult: 1
  }
  param {
    lr_mult: 2
    decay_mult: 0
  }
  convolution_param {
    num_output: 128
    pad: 2
    kernel_size: 5
    weight_filler {
      type: "xavier"
    }
    bias_filler {
      type: "constant"
      value: 0.2
    }
  }
}
layer {
  name: "inception_4e/relu_5x5"
  type: "ReLU"
  bottom: "inception_4e/5x5"
  top: "inception_4e/5x5"
}
layer {
  name: "inception_4e/pool"
  type: "Pooling"
  bottom: "inception_4d/output"
  top: "inception_4e/pool"
  pooling_param {
    pool: MAX
    kernel_size: 3
    stride: 1
    pad: 1
  }
}
layer {
  name: "inception_4e/pool_proj"
  type: "Convolution"
  bottom: "inception_4e/pool"
  top: "inception_4e/pool_proj"
  param {
    lr_mult: 0
    decay_mult: 1
  }
  param {
    lr_mult: 2
    decay_mult: 0
  }
  convolution_param {
    num_output: 128
    kernel_size: 1
    weight_filler {
      type: "xavier"
    }
    bias_filler {
      type: "constant"
      value: 0.2
    }
  }
}
layer {
  name: "inception_4e/relu_pool_proj"
  type: "ReLU"
  bottom: "inception_4e/pool_proj"
  top: "inception_4e/pool_proj"
}
layer {
  name: "inception_4e/output"
  type: "Concat"
  bottom: "inception_4e/1x1"
  bottom: "inception_4e/3x3"
  bottom: "inception_4e/5x5"
  bottom: "inception_4e/pool_proj"
  top: "inception_4e/output"
}
layer {
  name: "pool4/3x3_s2"
  type: "Pooling"
  bottom: "inception_4e/output"
  top: "pool4/3x3_s2"
  pooling_param {
    pool: MAX
    kernel_size: 3
    stride: 2
  }
}
layer {
  name: "inception_5a/1x1"
  type: "Convolution"
  bottom: "pool4/3x3_s2"
  top: "inception_5a/1x1"
  param {
    lr_mult: 0
    decay_mult: 1
  }
  param {
    lr_mult: 2
    decay_mult: 0
  }
  convolution_param {
    num_output: 256
    kernel_size: 1
    weight_filler {
      type: "xavier"
    }
    bias_filler {
      type: "constant"
      value: 0.2
    }
  }
}
layer {
  name: "inception_5a/relu_1x1"
  type: "ReLU"
  bottom: "inception_5a/1x1"
  top: "inception_5a/1x1"
}
layer {
  name: "inception_5a/3x3_reduce"
  type: "Convolution"
  bottom: "pool4/3x3_s2"
  top: "inception_5a/3x3_reduce"
  param {
    lr_mult: 0
    decay_mult: 1
  }
  param {
    lr_mult: 2
    decay_mult: 0
  }
  convolution_param {
    num_output: 160
    kernel_size: 1
    weight_filler {
      type: "xavier"
    }
    bias_filler {
      type: "constant"
      value: 0.2
    }
  }
}
layer {
  name: "inception_5a/relu_3x3_reduce"
  type: "ReLU"
  bottom: "inception_5a/3x3_reduce"
  top: "inception_5a/3x3_reduce"
}
layer {
  name: "inception_5a/3x3"
  type: "Convolution"
  bottom: "inception_5a/3x3_reduce"
  top: "inception_5a/3x3"
  param {
    lr_mult: 0
    decay_mult: 1
  }
  param {
    lr_mult: 2
    decay_mult: 0
  }
  convolution_param {
    num_output: 320
    pad: 1
    kernel_size: 3
    weight_filler {
      type: "xavier"
    }
    bias_filler {
      type: "constant"
      value: 0.2
    }
  }
}
layer {
  name: "inception_5a/relu_3x3"
  type: "ReLU"
  bottom: "inception_5a/3x3"
  top: "inception_5a/3x3"
}
layer {
  name: "inception_5a/5x5_reduce"
  type: "Convolution"
  bottom: "pool4/3x3_s2"
  top: "inception_5a/5x5_reduce"
  param {
    lr_mult: 0
    decay_mult: 1
  }
  param {
    lr_mult: 2
    decay_mult: 0
  }
  convolution_param {
    num_output: 32
    kernel_size: 1
    weight_filler {
      type: "xavier"
    }
    bias_filler {
      type: "constant"
      value: 0.2
    }
  }
}
layer {
  name: "inception_5a/relu_5x5_reduce"
  type: "ReLU"
  bottom: "inception_5a/5x5_reduce"
  top: "inception_5a/5x5_reduce"
}
layer {
  name: "inception_5a/5x5"
  type: "Convolution"
  bottom: "inception_5a/5x5_reduce"
  top: "inception_5a/5x5"
  param {
    lr_mult: 0
    decay_mult: 1
  }
  param {
    lr_mult: 2
    decay_mult: 0
  }
  convolution_param {
    num_output: 128
    pad: 2
    kernel_size: 5
    weight_filler {
      type: "xavier"
    }
    bias_filler {
      type: "constant"
      value: 0.2
    }
  }
}
layer {
  name: "inception_5a/relu_5x5"
  type: "ReLU"
  bottom: 
I0718 14:33:18.962198 33824 layer_factory.hpp:76] Creating layer data
I0718 14:33:18.962266 33824 net.cpp:106] Creating Layer data
I0718 14:33:18.962285 33824 net.cpp:411] data -> data
I0718 14:33:18.962327 33824 net.cpp:411] data -> label
I0718 14:33:18.962803 33824 image_data_layer.cpp:36] Opening file ../lists/mitosis_train.lst
I0718 14:33:18.975205 33824 image_data_layer.cpp:46] Shuffling data
I0718 14:33:18.977182 33824 image_data_layer.cpp:51] A total of 21366 images.
I0718 14:33:20.284494 33824 image_data_layer.cpp:78] output data size: 8,3,1000,1000
I0718 14:33:20.555603 33824 net.cpp:150] Setting up data
I0718 14:33:20.555763 33824 net.cpp:157] Top shape: 8 3 1000 1000 (24000000)
I0718 14:33:20.555799 33824 net.cpp:157] Top shape: 8 (8)
I0718 14:33:20.555817 33824 net.cpp:165] Memory required for data: 96000032
I0718 14:33:20.555867 33824 layer_factory.hpp:76] Creating layer label_data_1_split
I0718 14:33:20.555972 33824 net.cpp:106] Creating Layer label_data_1_split
I0718 14:33:20.555995 33824 net.cpp:454] label_data_1_split <- label
I0718 14:33:20.556061 33824 net.cpp:411] label_data_1_split -> label_data_1_split_0
I0718 14:33:20.556082 33824 net.cpp:411] label_data_1_split -> label_data_1_split_1
I0718 14:33:20.556202 33824 net.cpp:150] Setting up label_data_1_split
I0718 14:33:20.556226 33824 net.cpp:157] Top shape: 8 (8)
I0718 14:33:20.556239 33824 net.cpp:157] Top shape: 8 (8)
I0718 14:33:20.556247 33824 net.cpp:165] Memory required for data: 96000096
I0718 14:33:20.556283 33824 layer_factory.hpp:76] Creating layer conv1/7x7_s2
I0718 14:33:20.556311 33824 net.cpp:106] Creating Layer conv1/7x7_s2
I0718 14:33:20.556326 33824 net.cpp:454] conv1/7x7_s2 <- data
I0718 14:33:20.556346 33824 net.cpp:411] conv1/7x7_s2 -> conv1/7x7_s2
I0718 14:33:20.708452 33824 net.cpp:150] Setting up conv1/7x7_s2
I0718 14:33:20.708503 33824 net.cpp:157] Top shape: 8 64 500 500 (128000000)
I0718 14:33:20.708514 33824 net.cpp:165] Memory required for data: 608000096
I0718 14:33:20.708544 33824 layer_factory.hpp:76] Creating layer conv1/relu_7x7
I0718 14:33:20.708564 33824 net.cpp:106] Creating Layer conv1/relu_7x7
I0718 14:33:20.708609 33824 net.cpp:454] conv1/relu_7x7 <- conv1/7x7_s2
I0718 14:33:20.708621 33824 net.cpp:397] conv1/relu_7x7 -> conv1/7x7_s2 (in-place)
I0718 14:33:20.708802 33824 net.cpp:150] Setting up conv1/relu_7x7
I0718 14:33:20.708829 33824 net.cpp:157] Top shape: 8 64 500 500 (128000000)
I0718 14:33:20.708845 33824 net.cpp:165] Memory required for data: 1120000096
I0718 14:33:20.708861 33824 layer_factory.hpp:76] Creating layer pool1/3x3_s2
I0718 14:33:20.708884 33824 net.cpp:106] Creating Layer pool1/3x3_s2
I0718 14:33:20.708900 33824 net.cpp:454] pool1/3x3_s2 <- conv1/7x7_s2
I0718 14:33:20.708930 33824 net.cpp:411] pool1/3x3_s2 -> pool1/3x3_s2
I0718 14:33:20.709519 33824 net.cpp:150] Setting up pool1/3x3_s2
I0718 14:33:20.709555 33824 net.cpp:157] Top shape: 8 64 250 250 (32000000)
I0718 14:33:20.709578 33824 net.cpp:165] Memory required for data: 1248000096
I0718 14:33:20.709596 33824 layer_factory.hpp:76] Creating layer pool1/norm1
I0718 14:33:20.709632 33824 net.cpp:106] Creating Layer pool1/norm1
I0718 14:33:20.709651 33824 net.cpp:454] pool1/norm1 <- pool1/3x3_s2
I0718 14:33:20.709669 33824 net.cpp:411] pool1/norm1 -> pool1/norm1
I0718 14:33:20.710049 33824 net.cpp:150] Setting up pool1/norm1
I0718 14:33:20.710068 33824 net.cpp:157] Top shape: 8 64 250 250 (32000000)
I0718 14:33:20.710078 33824 net.cpp:165] Memory required for data: 1376000096
I0718 14:33:20.710086 33824 layer_factory.hpp:76] Creating layer conv2/3x3_reduce
I0718 14:33:20.710115 33824 net.cpp:106] Creating Layer conv2/3x3_reduce
I0718 14:33:20.710134 33824 net.cpp:454] conv2/3x3_reduce <- pool1/norm1
I0718 14:33:20.710160 33824 net.cpp:411] conv2/3x3_reduce -> conv2/3x3_reduce
I0718 14:33:20.713703 33824 cudnn_conv_layer.cpp:194] Reallocating workspace storage: 768
I0718 14:33:20.713771 33824 net.cpp:150] Setting up conv2/3x3_reduce
I0718 14:33:20.713794 33824 net.cpp:157] Top shape: 8 64 250 250 (32000000)
I0718 14:33:20.713809 33824 net.cpp:165] Memory required for data: 1504000096
I0718 14:33:20.713837 33824 layer_factory.hpp:76] Creating layer conv2/relu_3x3_reduce
I0718 14:33:20.713863 33824 net.cpp:106] Creating Layer conv2/relu_3x3_reduce
I0718 14:33:20.713878 33824 net.cpp:454] conv2/relu_3x3_reduce <- conv2/3x3_reduce
I0718 14:33:20.713896 33824 net.cpp:397] conv2/relu_3x3_reduce -> conv2/3x3_reduce (in-place)
I0718 14:33:20.714395 33824 net.cpp:150] Setting up conv2/relu_3x3_reduce
I0718 14:33:20.714426 33824 net.cpp:157] Top shape: 8 64 250 250 (32000000)
I0718 14:33:20.714440 33824 net.cpp:165] Memory required for data: 1632000096
I0718 14:33:20.714459 33824 layer_factory.hpp:76] Creating layer conv2/3x3
I0718 14:33:20.714489 33824 net.cpp:106] Creating Layer conv2/3x3
I0718 14:33:20.714506 33824 net.cpp:454] conv2/3x3 <- conv2/3x3_reduce
I0718 14:33:20.714529 33824 net.cpp:411] conv2/3x3 -> conv2/3x3
I0718 14:33:20.718192 33824 cudnn_conv_layer.cpp:194] Reallocating workspace storage: 6912
I0718 14:33:20.718538 33824 net.cpp:150] Setting up conv2/3x3
I0718 14:33:20.718571 33824 net.cpp:157] Top shape: 8 192 250 250 (96000000)
I0718 14:33:20.718595 33824 net.cpp:165] Memory required for data: 2016000096
I0718 14:33:20.718638 33824 layer_factory.hpp:76] Creating layer conv2/relu_3x3
I0718 14:33:20.718677 33824 net.cpp:106] Creating Layer conv2/relu_3x3
I0718 14:33:20.718698 33824 net.cpp:454] conv2/relu_3x3 <- conv2/3x3
I0718 14:33:20.718719 33824 net.cpp:397] conv2/relu_3x3 -> conv2/3x3 (in-place)
I0718 14:33:20.719025 33824 net.cpp:150] Setting up conv2/relu_3x3
I0718 14:33:20.719053 33824 net.cpp:157] Top shape: 8 192 250 250 (96000000)
I0718 14:33:20.719066 33824 net.cpp:165] Memory required for data: 2400000096
I0718 14:33:20.719082 33824 layer_factory.hpp:76] Creating layer conv2/norm2
I0718 14:33:20.719115 33824 net.cpp:106] Creating Layer conv2/norm2
I0718 14:33:20.719135 33824 net.cpp:454] conv2/norm2 <- conv2/3x3
I0718 14:33:20.719158 33824 net.cpp:411] conv2/norm2 -> conv2/norm2
I0718 14:33:20.719744 33824 net.cpp:150] Setting up conv2/norm2
I0718 14:33:20.719774 33824 net.cpp:157] Top shape: 8 192 250 250 (96000000)
I0718 14:33:20.719830 33824 net.cpp:165] Memory required for data: 2784000096
I0718 14:33:20.719847 33824 layer_factory.hpp:76] Creating layer pool2/3x3_s2
I0718 14:33:20.719868 33824 net.cpp:106] Creating Layer pool2/3x3_s2
I0718 14:33:20.719882 33824 net.cpp:454] pool2/3x3_s2 <- conv2/norm2
I0718 14:33:20.719897 33824 net.cpp:411] pool2/3x3_s2 -> pool2/3x3_s2
I0718 14:33:20.720175 33824 net.cpp:150] Setting up pool2/3x3_s2
I0718 14:33:20.720199 33824 net.cpp:157] Top shape: 8 192 125 125 (24000000)
I0718 14:33:20.720214 33824 net.cpp:165] Memory required for data: 2880000096
I0718 14:33:20.720228 33824 layer_factory.hpp:76] Creating layer pool2/3x3_s2_pool2/3x3_s2_0_split
I0718 14:33:20.720253 33824 net.cpp:106] Creating Layer pool2/3x3_s2_pool2/3x3_s2_0_split
I0718 14:33:20.720268 33824 net.cpp:454] pool2/3x3_s2_pool2/3x3_s2_0_split <- pool2/3x3_s2
I0718 14:33:20.720286 33824 net.cpp:411] pool2/3x3_s2_pool2/3x3_s2_0_split -> pool2/3x3_s2_pool2/3x3_s2_0_split_0
I0718 14:33:20.720307 33824 net.cpp:411] pool2/3x3_s2_pool2/3x3_s2_0_split -> pool2/3x3_s2_pool2/3x3_s2_0_split_1
I0718 14:33:20.720330 33824 net.cpp:411] pool2/3x3_s2_pool2/3x3_s2_0_split -> pool2/3x3_s2_pool2/3x3_s2_0_split_2
I0718 14:33:20.720341 33824 net.cpp:411] pool2/3x3_s2_pool2/3x3_s2_0_split -> pool2/3x3_s2_pool2/3x3_s2_0_split_3
I0718 14:33:20.720420 33824 net.cpp:150] Setting up pool2/3x3_s2_pool2/3x3_s2_0_split
I0718 14:33:20.720438 33824 net.cpp:157] Top shape: 8 192 125 125 (24000000)
I0718 14:33:20.720449 33824 net.cpp:157] Top shape: 8 192 125 125 (24000000)
I0718 14:33:20.720465 33824 net.cpp:157] Top shape: 8 192 125 125 (24000000)
I0718 14:33:20.720479 33824 net.cpp:157] Top shape: 8 192 125 125 (24000000)
I0718 14:33:20.720489 33824 net.cpp:165] Memory required for data: 3264000096
I0718 14:33:20.720502 33824 layer_factory.hpp:76] Creating layer inception_3a/1x1
I0718 14:33:20.720527 33824 net.cpp:106] Creating Layer inception_3a/1x1
I0718 14:33:20.720540 33824 net.cpp:454] inception_3a/1x1 <- pool2/3x3_s2_pool2/3x3_s2_0_split_0
I0718 14:33:20.720553 33824 net.cpp:411] inception_3a/1x1 -> inception_3a/1x1
I0718 14:33:20.722097 33824 cudnn_conv_layer.cpp:194] Reallocating workspace storage: 2304
I0718 14:33:20.722367 33824 net.cpp:150] Setting up inception_3a/1x1
I0718 14:33:20.722394 33824 net.cpp:157] Top shape: 8 64 125 125 (8000000)
I0718 14:33:20.722404 33824 net.cpp:165] Memory required for data: 3296000096
I0718 14:33:20.722427 33824 layer_factory.hpp:76] Creating layer inception_3a/relu_1x1
I0718 14:33:20.722450 33824 net.cpp:106] Creating Layer inception_3a/relu_1x1
I0718 14:33:20.722465 33824 net.cpp:454] inception_3a/relu_1x1 <- inception_3a/1x1
I0718 14:33:20.722498 33824 net.cpp:397] inception_3a/relu_1x1 -> inception_3a/1x1 (in-place)
I0718 14:33:20.722931 33824 net.cpp:150] Setting up inception_3a/relu_1x1
I0718 14:33:20.722954 33824 net.cpp:157] Top shape: 8 64 125 125 (8000000)
I0718 14:33:20.722967 33824 net.cpp:165] Memory required for data: 3328000096
I0718 14:33:20.722985 33824 layer_factory.hpp:76] Creating layer inception_3a/3x3_reduce
I0718 14:33:20.723016 33824 net.cpp:106] Creating Layer inception_3a/3x3_reduce
I0718 14:33:20.723031 33824 net.cpp:454] inception_3a/3x3_reduce <- pool2/3x3_s2_pool2/3x3_s2_0_split_1
I0718 14:33:20.723043 33824 net.cpp:411] inception_3a/3x3_reduce -> inception_3a/3x3_reduce
I0718 14:33:20.724616 33824 cudnn_conv_layer.cpp:194] Reallocating workspace storage: 2304
I0718 14:33:20.724674 33824 net.cpp:150] Setting up inception_3a/3x3_reduce
I0718 14:33:20.724699 33824 net.cpp:157] Top shape: 8 96 125 125 (12000000)
I0718 14:33:20.724714 33824 net.cpp:165] Memory required for data: 3376000096
I0718 14:33:20.724755 33824 layer_factory.hpp:76] Creating layer inception_3a/relu_3x3_reduce
I0718 14:33:20.724781 33824 net.cpp:106] Creating Layer inception_3a/relu_3x3_reduce
I0718 14:33:20.724799 33824 net.cpp:454] inception_3a/relu_3x3_reduce <- inception_3a/3x3_reduce
I0718 14:33:20.724831 33824 net.cpp:397] inception_3a/relu_3x3_reduce -> inception_3a/3x3_reduce (in-place)
I0718 14:33:20.725360 33824 net.cpp:150] Setting up inception_3a/relu_3x3_reduce
I0718 14:33:20.725391 33824 net.cpp:157] Top shape: 8 96 125 125 (12000000)
I0718 14:33:20.725410 33824 net.cpp:165] Memory required for data: 3424000096
I0718 14:33:20.725425 33824 layer_factory.hpp:76] Creating layer inception_3a/3x3
I0718 14:33:20.725464 33824 net.cpp:106] Creating Layer inception_3a/3x3
I0718 14:33:20.725484 33824 net.cpp:454] inception_3a/3x3 <- inception_3a/3x3_reduce
I0718 14:33:20.725513 33824 net.cpp:411] inception_3a/3x3 -> inception_3a/3x3
I0718 14:33:20.728556 33824 cudnn_conv_layer.cpp:194] Reallocating workspace storage: 10368
I0718 14:33:20.728651 33824 net.cpp:150] Setting up inception_3a/3x3
I0718 14:33:20.728670 33824 net.cpp:157] Top shape: 8 128 125 125 (16000000)
I0718 14:33:20.728683 33824 net.cpp:165] Memory required for data: 3488000096
I0718 14:33:20.728708 33824 layer_factory.hpp:76] Creating layer inception_3a/relu_3x3
I0718 14:33:20.728736 33824 net.cpp:106] Creating Layer inception_3a/relu_3x3
I0718 14:33:20.728760 33824 net.cpp:454] inception_3a/relu_3x3 <- inception_3a/3x3
I0718 14:33:20.728798 33824 net.cpp:397] inception_3a/relu_3x3 -> inception_3a/3x3 (in-place)
I0718 14:33:20.729106 33824 net.cpp:150] Setting up inception_3a/relu_3x3
I0718 14:33:20.729127 33824 net.cpp:157] Top shape: 8 128 125 125 (16000000)
I0718 14:33:20.729140 33824 net.cpp:165] Memory required for data: 3552000096
I0718 14:33:20.729156 33824 layer_factory.hpp:76] Creating layer inception_3a/5x5_reduce
I0718 14:33:20.729198 33824 net.cpp:106] Creating Layer inception_3a/5x5_reduce
I0718 14:33:20.729219 33824 net.cpp:454] inception_3a/5x5_reduce <- pool2/3x3_s2_pool2/3x3_s2_0_split_2
I0718 14:33:20.729241 33824 net.cpp:411] inception_3a/5x5_reduce -> inception_3a/5x5_reduce
I0718 14:33:20.731235 33824 net.cpp:150] Setting up inception_3a/5x5_reduce
I0718 14:33:20.731290 33824 net.cpp:157] Top shape: 8 16 125 125 (2000000)
I0718 14:33:20.731307 33824 net.cpp:165] Memory required for data: 3560000096
I0718 14:33:20.731326 33824 layer_factory.hpp:76] Creating layer inception_3a/relu_5x5_reduce
I0718 14:33:20.731364 33824 net.cpp:106] Creating Layer inception_3a/relu_5x5_reduce
I0718 14:33:20.731379 33824 net.cpp:454] inception_3a/relu_5x5_reduce <- inception_3a/5x5_reduce
I0718 14:33:20.731397 33824 net.cpp:397] inception_3a/relu_5x5_reduce -> inception_3a/5x5_reduce (in-place)
I0718 14:33:20.731839 33824 net.cpp:150] Setting up inception_3a/relu_5x5_reduce
I0718 14:33:20.731863 33824 net.cpp:157] Top shape: 8 16 125 125 (2000000)
I0718 14:33:20.731876 33824 net.cpp:165] Memory required for data: 3568000096
I0718 14:33:20.731890 33824 layer_factory.hpp:76] Creating layer inception_3a/5x5
I0718 14:33:20.731914 33824 net.cpp:106] Creating Layer inception_3a/5x5
I0718 14:33:20.731926 33824 net.cpp:454] inception_3a/5x5 <- inception_3a/5x5_reduce
I0718 14:33:20.731942 33824 net.cpp:411] inception_3a/5x5 -> inception_3a/5x5
I0718 14:33:20.733392 33824 cudnn_conv_layer.cpp:194] Reallocating workspace storage: 4800
I0718 14:33:20.733453 33824 net.cpp:150] Setting up inception_3a/5x5
I0718 14:33:20.733474 33824 net.cpp:157] Top shape: 8 32 125 125 (4000000)
I0718 14:33:20.733485 33824 net.cpp:165] Memory required for data: 3584000096
I0718 14:33:20.733503 33824 layer_factory.hpp:76] Creating layer inception_3a/relu_5x5
I0718 14:33:20.733522 33824 net.cpp:106] Creating Layer inception_3a/relu_5x5
I0718 14:33:20.733538 33824 net.cpp:454] inception_3a/relu_5x5 <- inception_3a/5x5
I0718 14:33:20.733561 33824 net.cpp:397] inception_3a/relu_5x5 -> inception_3a/5x5 (in-place)
I0718 14:33:20.734009 33824 net.cpp:150] Setting up inception_3a/relu_5x5
I0718 14:33:20.734041 33824 net.cpp:157] Top shape: 8 32 125 125 (4000000)
I0718 14:33:20.734055 33824 net.cpp:165] Memory required for data: 3600000096
I0718 14:33:20.734084 33824 layer_factory.hpp:76] Creating layer inception_3a/pool
I0718 14:33:20.734110 33824 net.cpp:106] Creating Layer inception_3a/pool
I0718 14:33:20.734122 33824 net.cpp:454] inception_3a/pool <- pool2/3x3_s2_pool2/3x3_s2_0_split_3
I0718 14:33:20.734195 33824 net.cpp:411] inception_3a/pool -> inception_3a/pool
I0718 14:33:20.734477 33824 net.cpp:150] Setting up inception_3a/pool
I0718 14:33:20.734508 33824 net.cpp:157] Top shape: 8 192 125 125 (24000000)
I0718 14:33:20.734521 33824 net.cpp:165] Memory required for data: 3696000096
I0718 14:33:20.734536 33824 layer_factory.hpp:76] Creating layer inception_3a/pool_proj
I0718 14:33:20.734560 33824 net.cpp:106] Creating Layer inception_3a/pool_proj
I0718 14:33:20.734573 33824 net.cpp:454] inception_3a/pool_proj <- inception_3a/pool
I0718 14:33:20.734589 33824 net.cpp:411] inception_3a/pool_proj -> inception_3a/pool_proj
I0718 14:33:20.736279 33824 net.cpp:150] Setting up inception_3a/pool_proj
I0718 14:33:20.736333 33824 net.cpp:157] Top shape: 8 32 125 125 (4000000)
I0718 14:33:20.736357 33824 net.cpp:165] Memory required for data: 3712000096
I0718 14:33:20.736393 33824 layer_factory.hpp:76] Creating layer inception_3a/relu_pool_proj
I0718 14:33:20.736415 33824 net.cpp:106] Creating Layer inception_3a/relu_pool_proj
I0718 14:33:20.736433 33824 net.cpp:454] inception_3a/relu_pool_proj <- inception_3a/pool_proj
I0718 14:33:20.736457 33824 net.cpp:397] inception_3a/relu_pool_proj -> inception_3a/pool_proj (in-place)
I0718 14:33:20.737022 33824 net.cpp:150] Setting up inception_3a/relu_pool_proj
I0718 14:33:20.737056 33824 net.cpp:157] Top shape: 8 32 125 125 (4000000)
I0718 14:33:20.737069 33824 net.cpp:165] Memory required for data: 3728000096
I0718 14:33:20.737084 33824 layer_factory.hpp:76] Creating layer inception_3a/output
I0718 14:33:20.737138 33824 net.cpp:106] Creating Layer inception_3a/output
I0718 14:33:20.737157 33824 net.cpp:454] inception_3a/output <- inception_3a/1x1
I0718 14:33:20.737179 33824 net.cpp:454] inception_3a/output <- inception_3a/3x3
I0718 14:33:20.737200 33824 net.cpp:454] inception_3a/output <- inception_3a/5x5
I0718 14:33:20.737215 33824 net.cpp:454] inception_3a/output <- inception_3a/pool_proj
I0718 14:33:20.737236 33824 net.cpp:411] inception_3a/output -> inception_3a/output
I0718 14:33:20.737311 33824 net.cpp:150] Setting up inception_3a/output
I0718 14:33:20.737335 33824 net.cpp:157] Top shape: 8 256 125 125 (32000000)
I0718 14:33:20.737351 33824 net.cpp:165] Memory required for data: 3856000096
I0718 14:33:20.737366 33824 layer_factory.hpp:76] Creating layer inception_3a/output_inception_3a/output_0_split
I0718 14:33:20.737388 33824 net.cpp:106] Creating Layer inception_3a/output_inception_3a/output_0_split
I0718 14:33:20.737406 33824 net.cpp:454] inception_3a/output_inception_3a/output_0_split <- inception_3a/output
I0718 14:33:20.737421 33824 net.cpp:411] inception_3a/output_inception_3a/output_0_split -> inception_3a/output_inception_3a/output_0_split_0
I0718 14:33:20.737447 33824 net.cpp:411] inception_3a/output_inception_3a/output_0_split -> inception_3a/output_inception_3a/output_0_split_1
I0718 14:33:20.737476 33824 net.cpp:411] inception_3a/output_inception_3a/output_0_split -> inception_3a/output_inception_3a/output_0_split_2
I0718 14:33:20.737491 33824 net.cpp:411] inception_3a/output_inception_3a/output_0_split -> inception_3a/output_inception_3a/output_0_split_3
I0718 14:33:20.737608 33824 net.cpp:150] Setting up inception_3a/output_inception_3a/output_0_split
I0718 14:33:20.737629 33824 net.cpp:157] Top shape: 8 256 125 125 (32000000)
I0718 14:33:20.737646 33824 net.cpp:157] Top shape: 8 256 125 125 (32000000)
I0718 14:33:20.737659 33824 net.cpp:157] Top shape: 8 256 125 125 (32000000)
I0718 14:33:20.737670 33824 net.cpp:157] Top shape: 8 256 125 125 (32000000)
I0718 14:33:20.737684 33824 net.cpp:165] Memory required for data: 4368000096
I0718 14:33:20.737699 33824 layer_factory.hpp:76] Creating layer inception_3b/1x1
I0718 14:33:20.737720 33824 net.cpp:106] Creating Layer inception_3b/1x1
I0718 14:33:20.737736 33824 net.cpp:454] inception_3b/1x1 <- inception_3a/output_inception_3a/output_0_split_0
I0718 14:33:20.737756 33824 net.cpp:411] inception_3b/1x1 -> inception_3b/1x1
I0718 14:33:20.739652 33824 cudnn_conv_layer.cpp:194] Reallocating workspace storage: 3072
I0718 14:33:20.739768 33824 net.cpp:150] Setting up inception_3b/1x1
I0718 14:33:20.739790 33824 net.cpp:157] Top shape: 8 128 125 125 (16000000)
I0718 14:33:20.739805 33824 net.cpp:165] Memory required for data: 4432000096
I0718 14:33:20.739826 33824 layer_factory.hpp:76] Creating layer inception_3b/relu_1x1
I0718 14:33:20.739850 33824 net.cpp:106] Creating Layer inception_3b/relu_1x1
I0718 14:33:20.739867 33824 net.cpp:454] inception_3b/relu_1x1 <- inception_3b/1x1
I0718 14:33:20.739884 33824 net.cpp:397] inception_3b/relu_1x1 -> inception_3b/1x1 (in-place)
I0718 14:33:20.740128 33824 net.cpp:150] Setting up inception_3b/relu_1x1
I0718 14:33:20.740149 33824 net.cpp:157] Top shape: 8 128 125 125 (16000000)
I0718 14:33:20.740161 33824 net.cpp:165] Memory required for data: 4496000096
I0718 14:33:20.740195 33824 layer_factory.hpp:76] Creating layer inception_3b/3x3_reduce
I0718 14:33:20.740234 33824 net.cpp:106] Creating Layer inception_3b/3x3_reduce
I0718 14:33:20.740249 33824 net.cpp:454] inception_3b/3x3_reduce <- inception_3a/output_inception_3a/output_0_split_1
I0718 14:33:20.740263 33824 net.cpp:411] inception_3b/3x3_reduce -> inception_3b/3x3_reduce
I0718 14:33:20.742171 33824 cudnn_conv_layer.cpp:194] Reallocating workspace storage: 3072
I0718 14:33:20.742220 33824 net.cpp:150] Setting up inception_3b/3x3_reduce
I0718 14:33:20.742254 33824 net.cpp:157] Top shape: 8 128 125 125 (16000000)
I0718 14:33:20.742270 33824 net.cpp:165] Memory required for data: 4560000096
I0718 14:33:20.742292 33824 layer_factory.hpp:76] Creating layer inception_3b/relu_3x3_reduce
I0718 14:33:20.742327 33824 net.cpp:106] Creating Layer inception_3b/relu_3x3_reduce
I0718 14:33:20.742348 33824 net.cpp:454] inception_3b/relu_3x3_reduce <- inception_3b/3x3_reduce
I0718 14:33:20.742370 33824 net.cpp:397] inception_3b/relu_3x3_reduce -> inception_3b/3x3_reduce (in-place)
I0718 14:33:20.742738 33824 net.cpp:150] Setting up inception_3b/relu_3x3_reduce
I0718 14:33:20.742776 33824 net.cpp:157] Top shape: 8 128 125 125 (16000000)
I0718 14:33:20.742792 33824 net.cpp:165] Memory required for data: 4624000096
I0718 14:33:20.742806 33824 layer_factory.hpp:76] Creating layer inception_3b/3x3
I0718 14:33:20.742844 33824 net.cpp:106] Creating Layer inception_3b/3x3
I0718 14:33:20.742861 33824 net.cpp:454] inception_3b/3x3 <- inception_3b/3x3_reduce
I0718 14:33:20.742892 33824 net.cpp:411] inception_3b/3x3 -> inception_3b/3x3
I0718 14:33:20.749110 33824 cudnn_conv_layer.cpp:194] Reallocating workspace storage: 13824
I0718 14:33:20.749241 33824 net.cpp:150] Setting up inception_3b/3x3
I0718 14:33:20.749279 33824 net.cpp:157] Top shape: 8 192 125 125 (24000000)
I0718 14:33:20.749308 33824 net.cpp:165] Memory required for data: 4720000096
I0718 14:33:20.749339 33824 layer_factory.hpp:76] Creating layer inception_3b/relu_3x3
I0718 14:33:20.749397 33824 net.cpp:106] Creating Layer inception_3b/relu_3x3
I0718 14:33:20.749423 33824 net.cpp:454] inception_3b/relu_3x3 <- inception_3b/3x3
I0718 14:33:20.749457 33824 net.cpp:397] inception_3b/relu_3x3 -> inception_3b/3x3 (in-place)
I0718 14:33:20.750195 33824 net.cpp:150] Setting up inception_3b/relu_3x3
I0718 14:33:20.750236 33824 net.cpp:157] Top shape: 8 192 125 125 (24000000)
I0718 14:33:20.750257 33824 net.cpp:165] Memory required for data: 4816000096
I0718 14:33:20.750270 33824 layer_factory.hpp:76] Creating layer inception_3b/5x5_reduce
I0718 14:33:20.750309 33824 net.cpp:106] Creating Layer inception_3b/5x5_reduce
I0718 14:33:20.750331 33824 net.cpp:454] inception_3b/5x5_reduce <- inception_3a/output_inception_3a/output_0_split_2
I0718 14:33:20.750360 33824 net.cpp:411] inception_3b/5x5_reduce -> inception_3b/5x5_reduce
I0718 14:33:20.752606 33824 net.cpp:150] Setting up inception_3b/5x5_reduce
I0718 14:33:20.752656 33824 net.cpp:157] Top shape: 8 32 125 125 (4000000)
I0718 14:33:20.752671 33824 net.cpp:165] Memory required for data: 4832000096
I0718 14:33:20.752696 33824 layer_factory.hpp:76] Creating layer inception_3b/relu_5x5_reduce
I0718 14:33:20.752717 33824 net.cpp:106] Creating Layer inception_3b/relu_5x5_reduce
I0718 14:33:20.752785 33824 net.cpp:454] inception_3b/relu_5x5_reduce <- inception_3b/5x5_reduce
I0718 14:33:20.752807 33824 net.cpp:397] inception_3b/relu_5x5_reduce -> inception_3b/5x5_reduce (in-place)
I0718 14:33:20.753162 33824 net.cpp:150] Setting up inception_3b/relu_5x5_reduce
I0718 14:33:20.753186 33824 net.cpp:157] Top shape: 8 32 125 125 (4000000)
I0718 14:33:20.753202 33824 net.cpp:165] Memory required for data: 4848000096
I0718 14:33:20.753219 33824 layer_factory.hpp:76] Creating layer inception_3b/5x5
I0718 14:33:20.753267 33824 net.cpp:106] Creating Layer inception_3b/5x5
I0718 14:33:20.753288 33824 net.cpp:454] inception_3b/5x5 <- inception_3b/5x5_reduce
I0718 14:33:20.753314 33824 net.cpp:411] inception_3b/5x5 -> inception_3b/5x5
I0718 14:33:20.757138 33824 net.cpp:150] Setting up inception_3b/5x5
I0718 14:33:20.757200 33824 net.cpp:157] Top shape: 8 96 125 125 (12000000)
I0718 14:33:20.757221 33824 net.cpp:165] Memory required for data: 4896000096
I0718 14:33:20.757247 33824 layer_factory.hpp:76] Creating layer inception_3b/relu_5x5
I0718 14:33:20.757284 33824 net.cpp:106] Creating Layer inception_3b/relu_5x5
I0718 14:33:20.757307 33824 net.cpp:454] inception_3b/relu_5x5 <- inception_3b/5x5
I0718 14:33:20.757331 33824 net.cpp:397] inception_3b/relu_5x5 -> inception_3b/5x5 (in-place)
I0718 14:33:20.757645 33824 net.cpp:150] Setting up inception_3b/relu_5x5
I0718 14:33:20.757673 33824 net.cpp:157] Top shape: 8 96 125 125 (12000000)
I0718 14:33:20.757686 33824 net.cpp:165] Memory required for data: 4944000096
I0718 14:33:20.757721 33824 layer_factory.hpp:76] Creating layer inception_3b/pool
I0718 14:33:20.757748 33824 net.cpp:106] Creating Layer inception_3b/pool
I0718 14:33:20.757766 33824 net.cpp:454] inception_3b/pool <- inception_3a/output_inception_3a/output_0_split_3
I0718 14:33:20.757794 33824 net.cpp:411] inception_3b/pool -> inception_3b/pool
I0718 14:33:20.758497 33824 net.cpp:150] Setting up inception_3b/pool
I0718 14:33:20.758546 33824 net.cpp:157] Top shape: 8 256 125 125 (32000000)
I0718 14:33:20.758560 33824 net.cpp:165] Memory required for data: 5072000096
I0718 14:33:20.758579 33824 layer_factory.hpp:76] Creating layer inception_3b/pool_proj
I0718 14:33:20.758651 33824 net.cpp:106] Creating Layer inception_3b/pool_proj
I0718 14:33:20.758682 33824 net.cpp:454] inception_3b/pool_proj <- inception_3b/pool
I0718 14:33:20.758704 33824 net.cpp:411] inception_3b/pool_proj -> inception_3b/pool_proj
I0718 14:33:20.761617 33824 net.cpp:150] Setting up inception_3b/pool_proj
I0718 14:33:20.761693 33824 net.cpp:157] Top shape: 8 64 125 125 (8000000)
I0718 14:33:20.761713 33824 net.cpp:165] Memory required for data: 5104000096
I0718 14:33:20.761750 33824 layer_factory.hpp:76] Creating layer inception_3b/relu_pool_proj
I0718 14:33:20.761798 33824 net.cpp:106] Creating Layer inception_3b/relu_pool_proj
I0718 14:33:20.761822 33824 net.cpp:454] inception_3b/relu_pool_proj <- inception_3b/pool_proj
I0718 14:33:20.761849 33824 net.cpp:397] inception_3b/relu_pool_proj -> inception_3b/pool_proj (in-place)
I0718 14:33:20.762272 33824 net.cpp:150] Setting up inception_3b/relu_pool_proj
I0718 14:33:20.762308 33824 net.cpp:157] Top shape: 8 64 125 125 (8000000)
I0718 14:33:20.762326 33824 net.cpp:165] Memory required for data: 5136000096
I0718 14:33:20.762346 33824 layer_factory.hpp:76] Creating layer inception_3b/output
I0718 14:33:20.762382 33824 net.cpp:106] Creating Layer inception_3b/output
I0718 14:33:20.762409 33824 net.cpp:454] inception_3b/output <- inception_3b/1x1
I0718 14:33:20.762431 33824 net.cpp:454] inception_3b/output <- inception_3b/3x3
I0718 14:33:20.762454 33824 net.cpp:454] inception_3b/output <- inception_3b/5x5
I0718 14:33:20.762476 33824 net.cpp:454] inception_3b/output <- inception_3b/pool_proj
I0718 14:33:20.762498 33824 net.cpp:411] inception_3b/output -> inception_3b/output
I0718 14:33:20.762601 33824 net.cpp:150] Setting up inception_3b/output
I0718 14:33:20.762626 33824 net.cpp:157] Top shape: 8 480 125 125 (60000000)
I0718 14:33:20.762653 33824 net.cpp:165] Memory required for data: 5376000096
I0718 14:33:20.762728 33824 layer_factory.hpp:76] Creating layer pool3/3x3_s2
I0718 14:33:20.762784 33824 net.cpp:106] Creating Layer pool3/3x3_s2
I0718 14:33:20.762805 33824 net.cpp:454] pool3/3x3_s2 <- inception_3b/output
I0718 14:33:20.762840 33824 net.cpp:411] pool3/3x3_s2 -> pool3/3x3_s2
I0718 14:33:20.763758 33824 net.cpp:150] Setting up pool3/3x3_s2
I0718 14:33:20.763820 33824 net.cpp:157] Top shape: 8 480 62 62 (14760960)
I0718 14:33:20.763841 33824 net.cpp:165] Memory required for data: 5435043936
I0718 14:33:20.763866 33824 layer_factory.hpp:76] Creating layer pool3/3x3_s2_pool3/3x3_s2_0_split
I0718 14:33:20.763895 33824 net.cpp:106] Creating Layer pool3/3x3_s2_pool3/3x3_s2_0_split
I0718 14:33:20.763916 33824 net.cpp:454] pool3/3x3_s2_pool3/3x3_s2_0_split <- pool3/3x3_s2
I0718 14:33:20.763937 33824 net.cpp:411] pool3/3x3_s2_pool3/3x3_s2_0_split -> pool3/3x3_s2_pool3/3x3_s2_0_split_0
I0718 14:33:20.763957 33824 net.cpp:411] pool3/3x3_s2_pool3/3x3_s2_0_split -> pool3/3x3_s2_pool3/3x3_s2_0_split_1
I0718 14:33:20.763981 33824 net.cpp:411] pool3/3x3_s2_pool3/3x3_s2_0_split -> pool3/3x3_s2_pool3/3x3_s2_0_split_2
I0718 14:33:20.764013 33824 net.cpp:411] pool3/3x3_s2_pool3/3x3_s2_0_split -> pool3/3x3_s2_pool3/3x3_s2_0_split_3
I0718 14:33:20.764163 33824 net.cpp:150] Setting up pool3/3x3_s2_pool3/3x3_s2_0_split
I0718 14:33:20.764194 33824 net.cpp:157] Top shape: 8 480 62 62 (14760960)
I0718 14:33:20.764215 33824 net.cpp:157] Top shape: 8 480 62 62 (14760960)
I0718 14:33:20.764227 33824 net.cpp:157] Top shape: 8 480 62 62 (14760960)
I0718 14:33:20.764240 33824 net.cpp:157] Top shape: 8 480 62 62 (14760960)
I0718 14:33:20.764247 33824 net.cpp:165] Memory required for data: 5671219296
I0718 14:33:20.764261 33824 layer_factory.hpp:76] Creating layer inception_4a/1x1
I0718 14:33:20.764292 33824 net.cpp:106] Creating Layer inception_4a/1x1
I0718 14:33:20.764313 33824 net.cpp:454] inception_4a/1x1 <- pool3/3x3_s2_pool3/3x3_s2_0_split_0
I0718 14:33:20.764343 33824 net.cpp:411] inception_4a/1x1 -> inception_4a/1x1
I0718 14:33:20.767319 33824 cudnn_conv_layer.cpp:194] Reallocating workspace storage: 5760
I0718 14:33:20.767395 33824 net.cpp:150] Setting up inception_4a/1x1
I0718 14:33:20.767416 33824 net.cpp:157] Top shape: 8 192 62 62 (5904384)
I0718 14:33:20.767433 33824 net.cpp:165] Memory required for data: 5694836832
I0718 14:33:20.767467 33824 layer_factory.hpp:76] Creating layer inception_4a/relu_1x1
I0718 14:33:20.767488 33824 net.cpp:106] Creating Layer inception_4a/relu_1x1
I0718 14:33:20.767503 33824 net.cpp:454] inception_4a/relu_1x1 <- inception_4a/1x1
I0718 14:33:20.767514 33824 net.cpp:397] inception_4a/relu_1x1 -> inception_4a/1x1 (in-place)
I0718 14:33:20.767766 33824 net.cpp:150] Setting up inception_4a/relu_1x1
I0718 14:33:20.767797 33824 net.cpp:157] Top shape: 8 192 62 62 (5904384)
I0718 14:33:20.767812 33824 net.cpp:165] Memory required for data: 5718454368
I0718 14:33:20.767822 33824 layer_factory.hpp:76] Creating layer inception_4a/3x3_reduce
I0718 14:33:20.767843 33824 net.cpp:106] Creating Layer inception_4a/3x3_reduce
I0718 14:33:20.767863 33824 net.cpp:454] inception_4a/3x3_reduce <- pool3/3x3_s2_pool3/3x3_s2_0_split_1
I0718 14:33:20.767880 33824 net.cpp:411] inception_4a/3x3_reduce -> inception_4a/3x3_reduce
I0718 14:33:20.770557 33824 cudnn_conv_layer.cpp:194] Reallocating workspace storage: 5760
I0718 14:33:20.770678 33824 net.cpp:150] Setting up inception_4a/3x3_reduce
I0718 14:33:20.770714 33824 net.cpp:157] Top shape: 8 96 62 62 (2952192)
I0718 14:33:20.770733 33824 net.cpp:165] Memory required for data: 5730263136
I0718 14:33:20.770776 33824 layer_factory.hpp:76] Creating layer inception_4a/relu_3x3_reduce
I0718 14:33:20.770808 33824 net.cpp:106] Creating Layer inception_4a/relu_3x3_reduce
I0718 14:33:20.770834 33824 net.cpp:454] inception_4a/relu_3x3_reduce <- inception_4a/3x3_reduce
I0718 14:33:20.770858 33824 net.cpp:397] inception_4a/relu_3x3_reduce -> inception_4a/3x3_reduce (in-place)
I0718 14:33:20.771252 33824 net.cpp:150] Setting up inception_4a/relu_3x3_reduce
I0718 14:33:20.771337 33824 net.cpp:157] Top shape: 8 96 62 62 (2952192)
I0718 14:33:20.771358 33824 net.cpp:165] Memory required for data: 5742071904
I0718 14:33:20.771378 33824 layer_factory.hpp:76] Creating layer inception_4a/3x3
I0718 14:33:20.771404 33824 net.cpp:106] Creating Layer inception_4a/3x3
I0718 14:33:20.771425 33824 net.cpp:454] inception_4a/3x3 <- inception_4a/3x3_reduce
I0718 14:33:20.771457 33824 net.cpp:411] inception_4a/3x3 -> inception_4a/3x3
I0718 14:33:20.776646 33824 cudnn_conv_layer.cpp:194] Reallocating workspace storage: 10368
I0718 14:33:20.776729 33824 net.cpp:150] Setting up inception_4a/3x3
I0718 14:33:20.776746 33824 net.cpp:157] Top shape: 8 208 62 62 (6396416)
I0718 14:33:20.776762 33824 net.cpp:165] Memory required for data: 5767657568
I0718 14:33:20.776785 33824 layer_factory.hpp:76] Creating layer inception_4a/relu_3x3
I0718 14:33:20.776836 33824 net.cpp:106] Creating Layer inception_4a/relu_3x3
I0718 14:33:20.776852 33824 net.cpp:454] inception_4a/relu_3x3 <- inception_4a/3x3
I0718 14:33:20.776872 33824 net.cpp:397] inception_4a/relu_3x3 -> inception_4a/3x3 (in-place)
I0718 14:33:20.777415 33824 net.cpp:150] Setting up inception_4a/relu_3x3
I0718 14:33:20.777449 33824 net.cpp:157] Top shape: 8 208 62 62 (6396416)
I0718 14:33:20.777461 33824 net.cpp:165] Memory required for data: 5793243232
I0718 14:33:20.777472 33824 layer_factory.hpp:76] Creating layer inception_4a/5x5_reduce
I0718 14:33:20.777509 33824 net.cpp:106] Creating Layer inception_4a/5x5_reduce
I0718 14:33:20.777525 33824 net.cpp:454] inception_4a/5x5_reduce <- pool3/3x3_s2_pool3/3x3_s2_0_split_2
I0718 14:33:20.777540 33824 net.cpp:411] inception_4a/5x5_reduce -> inception_4a/5x5_reduce
I0718 14:33:20.779350 33824 cudnn_conv_layer.cpp:194] Reallocating workspace storage: 5760
I0718 14:33:20.779445 33824 net.cpp:150] Setting up inception_4a/5x5_reduce
I0718 14:33:20.779476 33824 net.cpp:157] Top shape: 8 16 62 62 (492032)
I0718 14:33:20.779492 33824 net.cpp:165] Memory required for data: 5795211360
I0718 14:33:20.779521 33824 layer_factory.hpp:76] Creating layer inception_4a/relu_5x5_reduce
I0718 14:33:20.779567 33824 net.cpp:106] Creating Layer inception_4a/relu_5x5_reduce
I0718 14:33:20.779583 33824 net.cpp:454] inception_4a/relu_5x5_reduce <- inception_4a/5x5_reduce
I0718 14:33:20.779608 33824 net.cpp:397] inception_4a/relu_5x5_reduce -> inception_4a/5x5_reduce (in-place)
I0718 14:33:20.779958 33824 net.cpp:150] Setting up inception_4a/relu_5x5_reduce
I0718 14:33:20.779983 33824 net.cpp:157] Top shape: 8 16 62 62 (492032)
I0718 14:33:20.779992 33824 net.cpp:165] Memory required for data: 5797179488
I0718 14:33:20.780009 33824 layer_factory.hpp:76] Creating layer inception_4a/5x5
I0718 14:33:20.780046 33824 net.cpp:106] Creating Layer inception_4a/5x5
I0718 14:33:20.780066 33824 net.cpp:454] inception_4a/5x5 <- inception_4a/5x5_reduce
I0718 14:33:20.780087 33824 net.cpp:411] inception_4a/5x5 -> inception_4a/5x5
I0718 14:33:20.784183 33824 net.cpp:150] Setting up inception_4a/5x5
I0718 14:33:20.784268 33824 net.cpp:157] Top shape: 8 48 62 62 (1476096)
I0718 14:33:20.784286 33824 net.cpp:165] Memory required for data: 5803083872
I0718 14:33:20.784314 33824 layer_factory.hpp:76] Creating layer inception_4a/relu_5x5
I0718 14:33:20.784349 33824 net.cpp:106] Creating Layer inception_4a/relu_5x5
I0718 14:33:20.784373 33824 net.cpp:454] inception_4a/relu_5x5 <- inception_4a/5x5
I0718 14:33:20.784396 33824 net.cpp:397] inception_4a/relu_5x5 -> inception_4a/5x5 (in-place)
I0718 14:33:20.784811 33824 net.cpp:150] Setting up inception_4a/relu_5x5
I0718 14:33:20.784839 33824 net.cpp:157] Top shape: 8 48 62 62 (1476096)
I0718 14:33:20.784859 33824 net.cpp:165] Memory required for data: 5808988256
I0718 14:33:20.784873 33824 layer_factory.hpp:76] Creating layer inception_4a/pool
I0718 14:33:20.784894 33824 net.cpp:106] Creating Layer inception_4a/pool
I0718 14:33:20.784914 33824 net.cpp:454] inception_4a/pool <- pool3/3x3_s2_pool3/3x3_s2_0_split_3
I0718 14:33:20.784935 33824 net.cpp:411] inception_4a/pool -> inception_4a/pool
I0718 14:33:20.785902 33824 net.cpp:150] Setting up inception_4a/pool
I0718 14:33:20.785948 33824 net.cpp:157] Top shape: 8 480 62 62 (14760960)
I0718 14:33:20.785969 33824 net.cpp:165] Memory required for data: 5868032096
I0718 14:33:20.786008 33824 layer_factory.hpp:76] Creating layer inception_4a/pool_proj
I0718 14:33:20.786057 33824 net.cpp:106] Creating Layer inception_4a/pool_proj
I0718 14:33:20.786079 33824 net.cpp:454] inception_4a/pool_proj <- inception_4a/pool
I0718 14:33:20.786114 33824 net.cpp:411] inception_4a/pool_proj -> inception_4a/pool_proj
I0718 14:33:20.789108 33824 net.cpp:150] Setting up inception_4a/pool_proj
I0718 14:33:20.789189 33824 net.cpp:157] Top shape: 8 64 62 62 (1968128)
I0718 14:33:20.789216 33824 net.cpp:165] Memory required for data: 5875904608
I0718 14:33:20.789268 33824 layer_factory.hpp:76] Creating layer inception_4a/relu_pool_proj
I0718 14:33:20.789310 33824 net.cpp:106] Creating Layer inception_4a/relu_pool_proj
I0718 14:33:20.789346 33824 net.cpp:454] inception_4a/relu_pool_proj <- inception_4a/pool_proj
I0718 14:33:20.789377 33824 net.cpp:397] inception_4a/relu_pool_proj -> inception_4a/pool_proj (in-place)
I0718 14:33:20.789968 33824 net.cpp:150] Setting up inception_4a/relu_pool_proj
I0718 14:33:20.790021 33824 net.cpp:157] Top shape: 8 64 62 62 (1968128)
I0718 14:33:20.790045 33824 net.cpp:165] Memory required for data: 5883777120
I0718 14:33:20.790081 33824 layer_factory.hpp:76] Creating layer inception_4a/output
I0718 14:33:20.790118 33824 net.cpp:106] Creating Layer inception_4a/output
I0718 14:33:20.790139 33824 net.cpp:454] inception_4a/output <- inception_4a/1x1
I0718 14:33:20.790170 33824 net.cpp:454] inception_4a/output <- inception_4a/3x3
I0718 14:33:20.790200 33824 net.cpp:454] inception_4a/output <- inception_4a/5x5
I0718 14:33:20.790241 33824 net.cpp:454] inception_4a/output <- inception_4a/pool_proj
I0718 14:33:20.790269 33824 net.cpp:411] inception_4a/output -> inception_4a/output
I0718 14:33:20.790395 33824 net.cpp:150] Setting up inception_4a/output
I0718 14:33:20.790439 33824 net.cpp:157] Top shape: 8 512 62 62 (15745024)
I0718 14:33:20.790455 33824 net.cpp:165] Memory required for data: 5946757216
I0718 14:33:20.790479 33824 layer_factory.hpp:76] Creating layer inception_4a/output_inception_4a/output_0_split
I0718 14:33:20.790505 33824 net.cpp:106] Creating Layer inception_4a/output_inception_4a/output_0_split
I0718 14:33:20.790526 33824 net.cpp:454] inception_4a/output_inception_4a/output_0_split <- inception_4a/output
I0718 14:33:20.790545 33824 net.cpp:411] inception_4a/output_inception_4a/output_0_split -> inception_4a/output_inception_4a/output_0_split_0
I0718 14:33:20.790561 33824 net.cpp:411] inception_4a/output_inception_4a/output_0_split -> inception_4a/output_inception_4a/output_0_split_1
I0718 14:33:20.790581 33824 net.cpp:411] inception_4a/output_inception_4a/output_0_split -> inception_4a/output_inception_4a/output_0_split_2
I0718 14:33:20.790611 33824 net.cpp:411] inception_4a/output_inception_4a/output_0_split -> inception_4a/output_inception_4a/output_0_split_3
I0718 14:33:20.790756 33824 net.cpp:150] Setting up inception_4a/output_inception_4a/output_0_split
I0718 14:33:20.790776 33824 net.cpp:157] Top shape: 8 512 62 62 (15745024)
I0718 14:33:20.790804 33824 net.cpp:157] Top shape: 8 512 62 62 (15745024)
I0718 14:33:20.790827 33824 net.cpp:157] Top shape: 8 512 62 62 (15745024)
I0718 14:33:20.790848 33824 net.cpp:157] Top shape: 8 512 62 62 (15745024)
I0718 14:33:20.790863 33824 net.cpp:165] Memory required for data: 6198677600
I0718 14:33:20.790894 33824 layer_factory.hpp:76] Creating layer inception_4b/1x1
I0718 14:33:20.790928 33824 net.cpp:106] Creating Layer inception_4b/1x1
I0718 14:33:20.790948 33824 net.cpp:454] inception_4b/1x1 <- inception_4a/output_inception_4a/output_0_split_0
I0718 14:33:20.790997 33824 net.cpp:411] inception_4b/1x1 -> inception_4b/1x1
I0718 14:33:20.794956 33824 net.cpp:150] Setting up inception_4b/1x1
I0718 14:33:20.795018 33824 net.cpp:157] Top shape: 8 160 62 62 (4920320)
I0718 14:33:20.795037 33824 net.cpp:165] Memory required for data: 6218358880
I0718 14:33:20.795102 33824 layer_factory.hpp:76] Creating layer inception_4b/relu_1x1
I0718 14:33:20.795148 33824 net.cpp:106] Creating Layer inception_4b/relu_1x1
I0718 14:33:20.795166 33824 net.cpp:454] inception_4b/relu_1x1 <- inception_4b/1x1
I0718 14:33:20.795195 33824 net.cpp:397] inception_4b/relu_1x1 -> inception_4b/1x1 (in-place)
I0718 14:33:20.795737 33824 net.cpp:150] Setting up inception_4b/relu_1x1
I0718 14:33:20.795769 33824 net.cpp:157] Top shape: 8 160 62 62 (4920320)
I0718 14:33:20.795784 33824 net.cpp:165] Memory required for data: 6238040160
I0718 14:33:20.795799 33824 layer_factory.hpp:76] Creating layer inception_4b/3x3_reduce
I0718 14:33:20.795825 33824 net.cpp:106] Creating Layer inception_4b/3x3_reduce
I0718 14:33:20.795846 33824 net.cpp:454] inception_4b/3x3_reduce <- inception_4a/output_inception_4a/output_0_split_1
I0718 14:33:20.795862 33824 net.cpp:411] inception_4b/3x3_reduce -> inception_4b/3x3_reduce
I0718 14:33:20.798017 33824 cudnn_conv_layer.cpp:194] Reallocating workspace storage: 6144
I0718 14:33:20.798091 33824 net.cpp:150] Setting up inception_4b/3x3_reduce
I0718 14:33:20.798115 33824 net.cpp:157] Top shape: 8 112 62 62 (3444224)
I0718 14:33:20.798127 33824 net.cpp:165] Memory required for data: 6251817056
I0718 14:33:20.798144 33824 layer_factory.hpp:76] Creating layer inception_4b/relu_3x3_reduce
I0718 14:33:20.798183 33824 net.cpp:106] Creating Layer inception_4b/relu_3x3_reduce
I0718 14:33:20.798200 33824 net.cpp:454] inception_4b/relu_3x3_reduce <- inception_4b/3x3_reduce
I0718 14:33:20.798218 33824 net.cpp:397] inception_4b/relu_3x3_reduce -> inception_4b/3x3_reduce (in-place)
I0718 14:33:20.798806 33824 net.cpp:150] Setting up inception_4b/relu_3x3_reduce
I0718 14:33:20.798843 33824 net.cpp:157] Top shape: 8 112 62 62 (3444224)
I0718 14:33:20.798862 33824 net.cpp:165] Memory required for data: 6265593952
I0718 14:33:20.798889 33824 layer_factory.hpp:76] Creating layer inception_4b/3x3
I0718 14:33:20.798914 33824 net.cpp:106] Creating Layer inception_4b/3x3
I0718 14:33:20.798934 33824 net.cpp:454] inception_4b/3x3 <- inception_4b/3x3_reduce
I0718 14:33:20.798955 33824 net.cpp:411] inception_4b/3x3 -> inception_4b/3x3
I0718 14:33:20.802785 33824 cudnn_conv_layer.cpp:194] Reallocating workspace storage: 12096
I0718 14:33:20.802841 33824 net.cpp:150] Setting up inception_4b/3x3
I0718 14:33:20.802857 33824 net.cpp:157] Top shape: 8 224 62 62 (6888448)
I0718 14:33:20.802866 33824 net.cpp:165] Memory required for data: 6293147744
I0718 14:33:20.802881 33824 layer_factory.hpp:76] Creating layer inception_4b/relu_3x3
I0718 14:33:20.802906 33824 net.cpp:106] Creating Layer inception_4b/relu_3x3
I0718 14:33:20.802919 33824 net.cpp:454] inception_4b/relu_3x3 <- inception_4b/3x3
I0718 14:33:20.802933 33824 net.cpp:397] inception_4b/relu_3x3 -> inception_4b/3x3 (in-place)
I0718 14:33:20.803115 33824 net.cpp:150] Setting up inception_4b/relu_3x3
I0718 14:33:20.803133 33824 net.cpp:157] Top shape: 8 224 62 62 (6888448)
I0718 14:33:20.803141 33824 net.cpp:165] Memory required for data: 6320701536
I0718 14:33:20.803150 33824 layer_factory.hpp:76] Creating layer inception_4b/5x5_reduce
I0718 14:33:20.803164 33824 net.cpp:106] Creating Layer inception_4b/5x5_reduce
I0718 14:33:20.803174 33824 net.cpp:454] inception_4b/5x5_reduce <- inception_4a/output_inception_4a/output_0_split_2
I0718 14:33:20.803187 33824 net.cpp:411] inception_4b/5x5_reduce -> inception_4b/5x5_reduce
I0718 14:33:20.805034 33824 net.cpp:150] Setting up inception_4b/5x5_reduce
I0718 14:33:20.805058 33824 net.cpp:157] Top shape: 8 24 62 62 (738048)
I0718 14:33:20.805068 33824 net.cpp:165] Memory required for data: 6323653728
I0718 14:33:20.805083 33824 layer_factory.hpp:76] Creating layer inception_4b/relu_5x5_reduce
I0718 14:33:20.805111 33824 net.cpp:106] Creating Layer inception_4b/relu_5x5_reduce
I0718 14:33:20.805121 33824 net.cpp:454] inception_4b/relu_5x5_reduce <- inception_4b/5x5_reduce
I0718 14:33:20.805132 33824 net.cpp:397] inception_4b/relu_5x5_reduce -> inception_4b/5x5_reduce (in-place)
I0718 14:33:20.805500 33824 net.cpp:150] Setting up inception_4b/relu_5x5_reduce
I0718 14:33:20.805521 33824 net.cpp:157] Top shape: 8 24 62 62 (738048)
I0718 14:33:20.805529 33824 net.cpp:165] Memory required for data: 6326605920
I0718 14:33:20.805547 33824 layer_factory.hpp:76] Creating layer inception_4b/5x5
I0718 14:33:20.805567 33824 net.cpp:106] Creating Layer inception_4b/5x5
I0718 14:33:20.805577 33824 net.cpp:454] inception_4b/5x5 <- inception_4b/5x5_reduce
I0718 14:33:20.805588 33824 net.cpp:411] inception_4b/5x5 -> inception_4b/5x5
I0718 14:33:20.806985 33824 net.cpp:150] Setting up inception_4b/5x5
I0718 14:33:20.807018 33824 net.cpp:157] Top shape: 8 64 62 62 (1968128)
I0718 14:33:20.807034 33824 net.cpp:165] Memory required for data: 6334478432
I0718 14:33:20.807056 33824 layer_factory.hpp:76] Creating layer inception_4b/relu_5x5
I0718 14:33:20.807078 33824 net.cpp:106] Creating Layer inception_4b/relu_5x5
I0718 14:33:20.807092 33824 net.cpp:454] inception_4b/relu_5x5 <- inception_4b/5x5
I0718 14:33:20.807109 33824 net.cpp:397] inception_4b/relu_5x5 -> inception_4b/5x5 (in-place)
I0718 14:33:20.807555 33824 net.cpp:150] Setting up inception_4b/relu_5x5
I0718 14:33:20.807576 33824 net.cpp:157] Top shape: 8 64 62 62 (1968128)
I0718 14:33:20.807597 33824 net.cpp:165] Memory required for data: 6342350944
I0718 14:33:20.807607 33824 layer_factory.hpp:76] Creating layer inception_4b/pool
I0718 14:33:20.807646 33824 net.cpp:106] Creating Layer inception_4b/pool
I0718 14:33:20.807662 33824 net.cpp:454] inception_4b/pool <- inception_4a/output_inception_4a/output_0_split_3
I0718 14:33:20.807682 33824 net.cpp:411] inception_4b/pool -> inception_4b/pool
I0718 14:33:20.808176 33824 net.cpp:150] Setting up inception_4b/pool
I0718 14:33:20.808205 33824 net.cpp:157] Top shape: 8 512 62 62 (15745024)
I0718 14:33:20.808218 33824 net.cpp:165] Memory required for data: 6405331040
I0718 14:33:20.808229 33824 layer_factory.hpp:76] Creating layer inception_4b/pool_proj
I0718 14:33:20.808250 33824 net.cpp:106] Creating Layer inception_4b/pool_proj
I0718 14:33:20.808264 33824 net.cpp:454] inception_4b/pool_proj <- inception_4b/pool
I0718 14:33:20.808279 33824 net.cpp:411] inception_4b/pool_proj -> inception_4b/pool_proj
I0718 14:33:20.809795 33824 net.cpp:150] Setting up inception_4b/pool_proj
I0718 14:33:20.809818 33824 net.cpp:157] Top shape: 8 64 62 62 (1968128)
I0718 14:33:20.809828 33824 net.cpp:165] Memory required for data: 6413203552
I0718 14:33:20.809856 33824 layer_factory.hpp:76] Creating layer inception_4b/relu_pool_proj
I0718 14:33:20.809890 33824 net.cpp:106] Creating Layer inception_4b/relu_pool_proj
I0718 14:33:20.809901 33824 net.cpp:454] inception_4b/relu_pool_proj <- inception_4b/pool_proj
I0718 14:33:20.809913 33824 net.cpp:397] inception_4b/relu_pool_proj -> inception_4b/pool_proj (in-place)
I0718 14:33:20.810338 33824 net.cpp:150] Setting up inception_4b/relu_pool_proj
I0718 14:33:20.810369 33824 net.cpp:157] Top shape: 8 64 62 62 (1968128)
I0718 14:33:20.810382 33824 net.cpp:165] Memory required for data: 6421076064
I0718 14:33:20.810398 33824 layer_factory.hpp:76] Creating layer inception_4b/output
I0718 14:33:20.810420 33824 net.cpp:106] Creating Layer inception_4b/output
I0718 14:33:20.810430 33824 net.cpp:454] inception_4b/output <- inception_4b/1x1
I0718 14:33:20.810441 33824 net.cpp:454] inception_4b/output <- inception_4b/3x3
I0718 14:33:20.810453 33824 net.cpp:454] inception_4b/output <- inception_4b/5x5
I0718 14:33:20.810463 33824 net.cpp:454] inception_4b/output <- inception_4b/pool_proj
I0718 14:33:20.810478 33824 net.cpp:411] inception_4b/output -> inception_4b/output
I0718 14:33:20.810523 33824 net.cpp:150] Setting up inception_4b/output
I0718 14:33:20.810537 33824 net.cpp:157] Top shape: 8 512 62 62 (15745024)
I0718 14:33:20.810546 33824 net.cpp:165] Memory required for data: 6484056160
I0718 14:33:20.810557 33824 layer_factory.hpp:76] Creating layer inception_4b/output_inception_4b/output_0_split
I0718 14:33:20.810575 33824 net.cpp:106] Creating Layer inception_4b/output_inception_4b/output_0_split
I0718 14:33:20.810634 33824 net.cpp:454] inception_4b/output_inception_4b/output_0_split <- inception_4b/output
I0718 14:33:20.810655 33824 net.cpp:411] inception_4b/output_inception_4b/output_0_split -> inception_4b/output_inception_4b/output_0_split_0
I0718 14:33:20.810677 33824 net.cpp:411] inception_4b/output_inception_4b/output_0_split -> inception_4b/output_inception_4b/output_0_split_1
I0718 14:33:20.810689 33824 net.cpp:411] inception_4b/output_inception_4b/output_0_split -> inception_4b/output_inception_4b/output_0_split_2
I0718 14:33:20.810703 33824 net.cpp:411] inception_4b/output_inception_4b/output_0_split -> inception_4b/output_inception_4b/output_0_split_3
I0718 14:33:20.810789 33824 net.cpp:150] Setting up inception_4b/output_inception_4b/output_0_split
I0718 14:33:20.810802 33824 net.cpp:157] Top shape: 8 512 62 62 (15745024)
I0718 14:33:20.810811 33824 net.cpp:157] Top shape: 8 512 62 62 (15745024)
I0718 14:33:20.810822 33824 net.cpp:157] Top shape: 8 512 62 62 (15745024)
I0718 14:33:20.810834 33824 net.cpp:157] Top shape: 8 512 62 62 (15745024)
I0718 14:33:20.810847 33824 net.cpp:165] Memory required for data: 6735976544
I0718 14:33:20.810861 33824 layer_factory.hpp:76] Creating layer inception_4c/1x1
I0718 14:33:20.811040 33824 net.cpp:106] Creating Layer inception_4c/1x1
I0718 14:33:20.811058 33824 net.cpp:454] inception_4c/1x1 <- inception_4b/output_inception_4b/output_0_split_0
I0718 14:33:20.811074 33824 net.cpp:411] inception_4c/1x1 -> inception_4c/1x1
I0718 14:33:20.813097 33824 cudnn_conv_layer.cpp:194] Reallocating workspace storage: 6144
I0718 14:33:20.813153 33824 net.cpp:150] Setting up inception_4c/1x1
I0718 14:33:20.813169 33824 net.cpp:157] Top shape: 8 128 62 62 (3936256)
I0718 14:33:20.813179 33824 net.cpp:165] Memory required for data: 6751721568
I0718 14:33:20.813190 33824 layer_factory.hpp:76] Creating layer inception_4c/relu_1x1
I0718 14:33:20.813213 33824 net.cpp:106] Creating Layer inception_4c/relu_1x1
I0718 14:33:20.813223 33824 net.cpp:454] inception_4c/relu_1x1 <- inception_4c/1x1
I0718 14:33:20.813237 33824 net.cpp:397] inception_4c/relu_1x1 -> inception_4c/1x1 (in-place)
I0718 14:33:20.813453 33824 net.cpp:150] Setting up inception_4c/relu_1x1
I0718 14:33:20.813470 33824 net.cpp:157] Top shape: 8 128 62 62 (3936256)
I0718 14:33:20.813479 33824 net.cpp:165] Memory required for data: 6767466592
I0718 14:33:20.813488 33824 layer_factory.hpp:76] Creating layer inception_4c/3x3_reduce
I0718 14:33:20.813503 33824 net.cpp:106] Creating Layer inception_4c/3x3_reduce
I0718 14:33:20.813513 33824 net.cpp:454] inception_4c/3x3_reduce <- inception_4b/output_inception_4b/output_0_split_1
I0718 14:33:20.813524 33824 net.cpp:411] inception_4c/3x3_reduce -> inception_4c/3x3_reduce
I0718 14:33:20.816072 33824 cudnn_conv_layer.cpp:194] Reallocating workspace storage: 6144
I0718 14:33:20.816118 33824 net.cpp:150] Setting up inception_4c/3x3_reduce
I0718 14:33:20.816133 33824 net.cpp:157] Top shape: 8 128 62 62 (3936256)
I0718 14:33:20.816140 33824 net.cpp:165] Memory required for data: 6783211616
I0718 14:33:20.816154 33824 layer_factory.hpp:76] Creating layer inception_4c/relu_3x3_reduce
I0718 14:33:20.816169 33824 net.cpp:106] Creating Layer inception_4c/relu_3x3_reduce
I0718 14:33:20.816179 33824 net.cpp:454] inception_4c/relu_3x3_reduce <- inception_4c/3x3_reduce
I0718 14:33:20.816190 33824 net.cpp:397] inception_4c/relu_3x3_reduce -> inception_4c/3x3_reduce (in-place)
I0718 14:33:20.816529 33824 net.cpp:150] Setting up inception_4c/relu_3x3_reduce
I0718 14:33:20.816551 33824 net.cpp:157] Top shape: 8 128 62 62 (3936256)
I0718 14:33:20.816560 33824 net.cpp:165] Memory required for data: 6798956640
I0718 14:33:20.816570 33824 layer_factory.hpp:76] Creating layer inception_4c/3x3
I0718 14:33:20.816599 33824 net.cpp:106] Creating Layer inception_4c/3x3
I0718 14:33:20.816611 33824 net.cpp:454] inception_4c/3x3 <- inception_4c/3x3_reduce
I0718 14:33:20.816623 33824 net.cpp:411] inception_4c/3x3 -> inception_4c/3x3
I0718 14:33:20.821179 33824 cudnn_conv_layer.cpp:194] Reallocating workspace storage: 13824
I0718 14:33:20.821266 33824 net.cpp:150] Setting up inception_4c/3x3
I0718 14:33:20.821282 33824 net.cpp:157] Top shape: 8 256 62 62 (7872512)
I0718 14:33:20.821291 33824 net.cpp:165] Memory required for data: 6830446688
I0718 14:33:20.821326 33824 layer_factory.hpp:76] Creating layer inception_4c/relu_3x3
I0718 14:33:20.821342 33824 net.cpp:106] Creating Layer inception_4c/relu_3x3
I0718 14:33:20.821353 33824 net.cpp:454] inception_4c/relu_3x3 <- inception_4c/3x3
I0718 14:33:20.821365 33824 net.cpp:397] inception_4c/relu_3x3 -> inception_4c/3x3 (in-place)
I0718 14:33:20.823729 33824 net.cpp:150] Setting up inception_4c/relu_3x3
I0718 14:33:20.823752 33824 net.cpp:157] Top shape: 8 256 62 62 (7872512)
I0718 14:33:20.823760 33824 net.cpp:165] Memory required for data: 6861936736
I0718 14:33:20.823767 33824 layer_factory.hpp:76] Creating layer inception_4c/5x5_reduce
I0718 14:33:20.823787 33824 net.cpp:106] Creating Layer inception_4c/5x5_reduce
I0718 14:33:20.823796 33824 net.cpp:454] inception_4c/5x5_reduce <- inception_4b/output_inception_4b/output_0_split_2
I0718 14:33:20.823808 33824 net.cpp:411] inception_4c/5x5_reduce -> inception_4c/5x5_reduce
I0718 14:33:20.825266 33824 net.cpp:150] Setting up inception_4c/5x5_reduce
I0718 14:33:20.825284 33824 net.cpp:157] Top shape: 8 24 62 62 (738048)
I0718 14:33:20.825290 33824 net.cpp:165] Memory required for data: 6864888928
I0718 14:33:20.825301 33824 layer_factory.hpp:76] Creating layer inception_4c/relu_5x5_reduce
I0718 14:33:20.825328 33824 net.cpp:106] Creating Layer inception_4c/relu_5x5_reduce
I0718 14:33:20.825337 33824 net.cpp:454] inception_4c/relu_5x5_reduce <- inception_4c/5x5_reduce
I0718 14:33:20.825347 33824 net.cpp:397] inception_4c/relu_5x5_reduce -> inception_4c/5x5_reduce (in-place)
I0718 14:33:20.825588 33824 net.cpp:150] Setting up inception_4c/relu_5x5_reduce
I0718 14:33:20.825603 33824 net.cpp:157] Top shape: 8 24 62 62 (738048)
I0718 14:33:20.825609 33824 net.cpp:165] Memory required for data: 6867841120
I0718 14:33:20.825616 33824 layer_factory.hpp:76] Creating layer inception_4c/5x5
I0718 14:33:20.825642 33824 net.cpp:106] Creating Layer inception_4c/5x5
I0718 14:33:20.825651 33824 net.cpp:454] inception_4c/5x5 <- inception_4c/5x5_reduce
I0718 14:33:20.825662 33824 net.cpp:411] inception_4c/5x5 -> inception_4c/5x5
I0718 14:33:20.827172 33824 net.cpp:150] Setting up inception_4c/5x5
I0718 14:33:20.827195 33824 net.cpp:157] Top shape: 8 64 62 62 (1968128)
I0718 14:33:20.827205 33824 net.cpp:165] Memory required for data: 6875713632
I0718 14:33:20.827217 33824 layer_factory.hpp:76] Creating layer inception_4c/relu_5x5
I0718 14:33:20.827230 33824 net.cpp:106] Creating Layer inception_4c/relu_5x5
I0718 14:33:20.827242 33824 net.cpp:454] inception_4c/relu_5x5 <- inception_4c/5x5
I0718 14:33:20.827253 33824 net.cpp:397] inception_4c/relu_5x5 -> inception_4c/5x5 (in-place)
I0718 14:33:20.827591 33824 net.cpp:150] Setting up inception_4c/relu_5x5
I0718 14:33:20.827612 33824 net.cpp:157] Top shape: 8 64 62 62 (1968128)
I0718 14:33:20.827621 33824 net.cpp:165] Memory required for data: 6883586144
I0718 14:33:20.827630 33824 layer_factory.hpp:76] Creating layer inception_4c/pool
I0718 14:33:20.827646 33824 net.cpp:106] Creating Layer inception_4c/pool
I0718 14:33:20.827656 33824 net.cpp:454] inception_4c/pool <- inception_4b/output_inception_4b/output_0_split_3
I0718 14:33:20.827666 33824 net.cpp:411] inception_4c/pool -> inception_4c/pool
I0718 14:33:20.827893 33824 net.cpp:150] Setting up inception_4c/pool
I0718 14:33:20.827910 33824 net.cpp:157] Top shape: 8 512 62 62 (15745024)
I0718 14:33:20.827919 33824 net.cpp:165] Memory required for data: 6946566240
I0718 14:33:20.827927 33824 layer_factory.hpp:76] Creating layer inception_4c/pool_proj
I0718 14:33:20.827956 33824 net.cpp:106] Creating Layer inception_4c/pool_proj
I0718 14:33:20.827965 33824 net.cpp:454] inception_4c/pool_proj <- inception_4c/pool
I0718 14:33:20.827980 33824 net.cpp:411] inception_4c/pool_proj -> inception_4c/pool_proj
I0718 14:33:20.829347 33824 net.cpp:150] Setting up inception_4c/pool_proj
I0718 14:33:20.829399 33824 net.cpp:157] Top shape: 8 64 62 62 (1968128)
I0718 14:33:20.829409 33824 net.cpp:165] Memory required for data: 6954438752
I0718 14:33:20.829443 33824 layer_factory.hpp:76] Creating layer inception_4c/relu_pool_proj
I0718 14:33:20.829455 33824 net.cpp:106] Creating Layer inception_4c/relu_pool_proj
I0718 14:33:20.829468 33824 net.cpp:454] inception_4c/relu_pool_proj <- inception_4c/pool_proj
I0718 14:33:20.829478 33824 net.cpp:397] inception_4c/relu_pool_proj -> inception_4c/pool_proj (in-place)
I0718 14:33:20.829669 33824 net.cpp:150] Setting up inception_4c/relu_pool_proj
I0718 14:33:20.829687 33824 net.cpp:157] Top shape: 8 64 62 62 (1968128)
I0718 14:33:20.829695 33824 net.cpp:165] Memory required for data: 6962311264
I0718 14:33:20.829713 33824 layer_factory.hpp:76] Creating layer inception_4c/output
I0718 14:33:20.829725 33824 net.cpp:106] Creating Layer inception_4c/output
I0718 14:33:20.829735 33824 net.cpp:454] inception_4c/output <- inception_4c/1x1
I0718 14:33:20.829743 33824 net.cpp:454] inception_4c/output <- inception_4c/3x3
I0718 14:33:20.829756 33824 net.cpp:454] inception_4c/output <- inception_4c/5x5
I0718 14:33:20.829764 33824 net.cpp:454] inception_4c/output <- inception_4c/pool_proj
I0718 14:33:20.829779 33824 net.cpp:411] inception_4c/output -> inception_4c/output
I0718 14:33:20.829818 33824 net.cpp:150] Setting up inception_4c/output
I0718 14:33:20.829833 33824 net.cpp:157] Top shape: 8 512 62 62 (15745024)
I0718 14:33:20.829840 33824 net.cpp:165] Memory required for data: 7025291360
I0718 14:33:20.829849 33824 layer_factory.hpp:76] Creating layer inception_4c/output_inception_4c/output_0_split
I0718 14:33:20.829860 33824 net.cpp:106] Creating Layer inception_4c/output_inception_4c/output_0_split
I0718 14:33:20.829869 33824 net.cpp:454] inception_4c/output_inception_4c/output_0_split <- inception_4c/output
I0718 14:33:20.829879 33824 net.cpp:411] inception_4c/output_inception_4c/output_0_split -> inception_4c/output_inception_4c/output_0_split_0
I0718 14:33:20.829891 33824 net.cpp:411] inception_4c/output_inception_4c/output_0_split -> inception_4c/output_inception_4c/output_0_split_1
I0718 14:33:20.829902 33824 net.cpp:411] inception_4c/output_inception_4c/output_0_split -> inception_4c/output_inception_4c/output_0_split_2
I0718 14:33:20.829918 33824 net.cpp:411] inception_4c/output_inception_4c/output_0_split -> inception_4c/output_inception_4c/output_0_split_3
I0718 14:33:20.829995 33824 net.cpp:150] Setting up inception_4c/output_inception_4c/output_0_split
I0718 14:33:20.830008 33824 net.cpp:157] Top shape: 8 512 62 62 (15745024)
I0718 14:33:20.830016 33824 net.cpp:157] Top shape: 8 512 62 62 (15745024)
I0718 14:33:20.830025 33824 net.cpp:157] Top shape: 8 512 62 62 (15745024)
I0718 14:33:20.830034 33824 net.cpp:157] Top shape: 8 512 62 62 (15745024)
I0718 14:33:20.830040 33824 net.cpp:165] Memory required for data: 7277211744
I0718 14:33:20.830049 33824 layer_factory.hpp:76] Creating layer inception_4d/1x1
I0718 14:33:20.830071 33824 net.cpp:106] Creating Layer inception_4d/1x1
I0718 14:33:20.830080 33824 net.cpp:454] inception_4d/1x1 <- inception_4c/output_inception_4c/output_0_split_0
I0718 14:33:20.830095 33824 net.cpp:411] inception_4d/1x1 -> inception_4d/1x1
I0718 14:33:20.831663 33824 cudnn_conv_layer.cpp:194] Reallocating workspace storage: 6144
I0718 14:33:20.831704 33824 net.cpp:150] Setting up inception_4d/1x1
I0718 14:33:20.831717 33824 net.cpp:157] Top shape: 8 112 62 62 (3444224)
I0718 14:33:20.831729 33824 net.cpp:165] Memory required for data: 7290988640
I0718 14:33:20.831742 33824 layer_factory.hpp:76] Creating layer inception_4d/relu_1x1
I0718 14:33:20.831766 33824 net.cpp:106] Creating Layer inception_4d/relu_1x1
I0718 14:33:20.831775 33824 net.cpp:454] inception_4d/relu_1x1 <- inception_4d/1x1
I0718 14:33:20.831786 33824 net.cpp:397] inception_4d/relu_1x1 -> inception_4d/1x1 (in-place)
I0718 14:33:20.832125 33824 net.cpp:150] Setting up inception_4d/relu_1x1
I0718 14:33:20.832146 33824 net.cpp:157] Top shape: 8 112 62 62 (3444224)
I0718 14:33:20.832175 33824 net.cpp:165] Memory required for data: 7304765536
I0718 14:33:20.832186 33824 layer_factory.hpp:76] Creating layer inception_4d/3x3_reduce
I0718 14:33:20.832201 33824 net.cpp:106] Creating Layer inception_4d/3x3_reduce
I0718 14:33:20.832211 33824 net.cpp:454] inception_4d/3x3_reduce <- inception_4c/output_inception_4c/output_0_split_1
I0718 14:33:20.832226 33824 net.cpp:411] inception_4d/3x3_reduce -> inception_4d/3x3_reduce
I0718 14:33:20.833917 33824 cudnn_conv_layer.cpp:194] Reallocating workspace storage: 6144
I0718 14:33:20.833956 33824 net.cpp:150] Setting up inception_4d/3x3_reduce
I0718 14:33:20.833968 33824 net.cpp:157] Top shape: 8 144 62 62 (4428288)
I0718 14:33:20.833977 33824 net.cpp:165] Memory required for data: 7322478688
I0718 14:33:20.833989 33824 layer_factory.hpp:76] Creating layer inception_4d/relu_3x3_reduce
I0718 14:33:20.834012 33824 net.cpp:106] Creating Layer inception_4d/relu_3x3_reduce
I0718 14:33:20.834022 33824 net.cpp:454] inception_4d/relu_3x3_reduce <- inception_4d/3x3_reduce
I0718 14:33:20.834038 33824 net.cpp:397] inception_4d/relu_3x3_reduce -> inception_4d/3x3_reduce (in-place)
I0718 14:33:20.834233 33824 net.cpp:150] Setting up inception_4d/relu_3x3_reduce
I0718 14:33:20.834254 33824 net.cpp:157] Top shape: 8 144 62 62 (4428288)
I0718 14:33:20.834261 33824 net.cpp:165] Memory required for data: 7340191840
I0718 14:33:20.834270 33824 layer_factory.hpp:76] Creating layer inception_4d/3x3
I0718 14:33:20.834282 33824 net.cpp:106] Creating Layer inception_4d/3x3
I0718 14:33:20.834290 33824 net.cpp:454] inception_4d/3x3 <- inception_4d/3x3_reduce
I0718 14:33:20.834305 33824 net.cpp:411] inception_4d/3x3 -> inception_4d/3x3
I0718 14:33:20.839725 33824 cudnn_conv_layer.cpp:194] Reallocating workspace storage: 15552
I0718 14:33:20.839768 33824 net.cpp:150] Setting up inception_4d/3x3
I0718 14:33:20.839784 33824 net.cpp:157] Top shape: 8 288 62 62 (8856576)
I0718 14:33:20.839793 33824 net.cpp:165] Memory required for data: 7375618144
I0718 14:33:20.839815 33824 layer_factory.hpp:76] Creating layer inception_4d/relu_3x3
I0718 14:33:20.839828 33824 net.cpp:106] Creating Layer inception_4d/relu_3x3
I0718 14:33:20.839839 33824 net.cpp:454] inception_4d/relu_3x3 <- inception_4d/3x3
I0718 14:33:20.839850 33824 net.cpp:397] inception_4d/relu_3x3 -> inception_4d/3x3 (in-place)
I0718 14:33:20.840051 33824 net.cpp:150] Setting up inception_4d/relu_3x3
I0718 14:33:20.840068 33824 net.cpp:157] Top shape: 8 288 62 62 (8856576)
I0718 14:33:20.840076 33824 net.cpp:165] Memory required for data: 7411044448
I0718 14:33:20.840085 33824 layer_factory.hpp:76] Creating layer inception_4d/5x5_reduce
I0718 14:33:20.840109 33824 net.cpp:106] Creating Layer inception_4d/5x5_reduce
I0718 14:33:20.840119 33824 net.cpp:454] inception_4d/5x5_reduce <- inception_4c/output_inception_4c/output_0_split_2
I0718 14:33:20.840131 33824 net.cpp:411] inception_4d/5x5_reduce -> inception_4d/5x5_reduce
I0718 14:33:20.841418 33824 net.cpp:150] Setting up inception_4d/5x5_reduce
I0718 14:33:20.841440 33824 net.cpp:157] Top shape: 8 32 62 62 (984064)
I0718 14:33:20.841452 33824 net.cpp:165] Memory required for data: 7414980704
I0718 14:33:20.841464 33824 layer_factory.hpp:76] Creating layer inception_4d/relu_5x5_reduce
I0718 14:33:20.841475 33824 net.cpp:106] Creating Layer inception_4d/relu_5x5_reduce
I0718 14:33:20.841485 33824 net.cpp:454] inception_4d/relu_5x5_reduce <- inception_4d/5x5_reduce
I0718 14:33:20.841495 33824 net.cpp:397] inception_4d/relu_5x5_reduce -> inception_4d/5x5_reduce (in-place)
I0718 14:33:20.841841 33824 net.cpp:150] Setting up inception_4d/relu_5x5_reduce
I0718 14:33:20.841861 33824 net.cpp:157] Top shape: 8 32 62 62 (984064)
I0718 14:33:20.841871 33824 net.cpp:165] Memory required for data: 7418916960
I0718 14:33:20.841879 33824 layer_factory.hpp:76] Creating layer inception_4d/5x5
I0718 14:33:20.841893 33824 net.cpp:106] Creating Layer inception_4d/5x5
I0718 14:33:20.841903 33824 net.cpp:454] inception_4d/5x5 <- inception_4d/5x5_reduce
I0718 14:33:20.841917 33824 net.cpp:411] inception_4d/5x5 -> inception_4d/5x5
I0718 14:33:20.843672 33824 cudnn_conv_layer.cpp:194] Reallocating workspace storage: 9600
I0718 14:33:20.843715 33824 net.cpp:150] Setting up inception_4d/5x5
I0718 14:33:20.843729 33824 net.cpp:157] Top shape: 8 64 62 62 (1968128)
I0718 14:33:20.843736 33824 net.cpp:165] Memory required for data: 7426789472
I0718 14:33:20.843749 33824 layer_factory.hpp:76] Creating layer inception_4d/relu_5x5
I0718 14:33:20.843773 33824 net.cpp:106] Creating Layer inception_4d/relu_5x5
I0718 14:33:20.843783 33824 net.cpp:454] inception_4d/relu_5x5 <- inception_4d/5x5
I0718 14:33:20.843796 33824 net.cpp:397] inception_4d/relu_5x5 -> inception_4d/5x5 (in-place)
I0718 14:33:20.843992 33824 net.cpp:150] Setting up inception_4d/relu_5x5
I0718 14:33:20.844009 33824 net.cpp:157] Top shape: 8 64 62 62 (1968128)
I0718 14:33:20.844018 33824 net.cpp:165] Memory required for data: 7434661984
I0718 14:33:20.844027 33824 layer_factory.hpp:76] Creating layer inception_4d/pool
I0718 14:33:20.844039 33824 net.cpp:106] Creating Layer inception_4d/pool
I0718 14:33:20.844049 33824 net.cpp:454] inception_4d/pool <- inception_4c/output_inception_4c/output_0_split_3
I0718 14:33:20.844059 33824 net.cpp:411] inception_4d/pool -> inception_4d/pool
I0718 14:33:20.844446 33824 net.cpp:150] Setting up inception_4d/pool
I0718 14:33:20.844466 33824 net.cpp:157] Top shape: 8 512 62 62 (15745024)
I0718 14:33:20.844475 33824 net.cpp:165] Memory required for data: 7497642080
I0718 14:33:20.844483 33824 layer_factory.hpp:76] Creating layer inception_4d/pool_proj
I0718 14:33:20.844498 33824 net.cpp:106] Creating Layer inception_4d/pool_proj
I0718 14:33:20.844511 33824 net.cpp:454] inception_4d/pool_proj <- inception_4d/pool
I0718 14:33:20.844521 33824 net.cpp:411] inception_4d/pool_proj -> inception_4d/pool_proj
I0718 14:33:20.846349 33824 net.cpp:150] Setting up inception_4d/pool_proj
I0718 14:33:20.846372 33824 net.cpp:157] Top shape: 8 64 62 62 (1968128)
I0718 14:33:20.846381 33824 net.cpp:165] Memory required for data: 7505514592
I0718 14:33:20.846392 33824 layer_factory.hpp:76] Creating layer inception_4d/relu_pool_proj
I0718 14:33:20.846415 33824 net.cpp:106] Creating Layer inception_4d/relu_pool_proj
I0718 14:33:20.846426 33824 net.cpp:454] inception_4d/relu_pool_proj <- inception_4d/pool_proj
I0718 14:33:20.846436 33824 net.cpp:397] inception_4d/relu_pool_proj -> inception_4d/pool_proj (in-place)
I0718 14:33:20.846789 33824 net.cpp:150] Setting up inception_4d/relu_pool_proj
I0718 14:33:20.846810 33824 net.cpp:157] Top shape: 8 64 62 62 (1968128)
I0718 14:33:20.846819 33824 net.cpp:165] Memory required for data: 7513387104
I0718 14:33:20.846837 33824 layer_factory.hpp:76] Creating layer inception_4d/output
I0718 14:33:20.846851 33824 net.cpp:106] Creating Layer inception_4d/output
I0718 14:33:20.846860 33824 net.cpp:454] inception_4d/output <- inception_4d/1x1
I0718 14:33:20.846870 33824 net.cpp:454] inception_4d/output <- inception_4d/3x3
I0718 14:33:20.846879 33824 net.cpp:454] inception_4d/output <- inception_4d/5x5
I0718 14:33:20.846889 33824 net.cpp:454] inception_4d/output <- inception_4d/pool_proj
I0718 14:33:20.846899 33824 net.cpp:411] inception_4d/output -> inception_4d/output
I0718 14:33:20.846942 33824 net.cpp:150] Setting up inception_4d/output
I0718 14:33:20.846954 33824 net.cpp:157] Top shape: 8 528 62 62 (16237056)
I0718 14:33:20.846962 33824 net.cpp:165] Memory required for data: 7578335328
I0718 14:33:20.846971 33824 layer_factory.hpp:76] Creating layer inception_4d/output_inception_4d/output_0_split
I0718 14:33:20.846982 33824 net.cpp:106] Creating Layer inception_4d/output_inception_4d/output_0_split
I0718 14:33:20.846990 33824 net.cpp:454] inception_4d/output_inception_4d/output_0_split <- inception_4d/output
I0718 14:33:20.847002 33824 net.cpp:411] inception_4d/output_inception_4d/output_0_split -> inception_4d/output_inception_4d/output_0_split_0
I0718 14:33:20.847014 33824 net.cpp:411] inception_4d/output_inception_4d/output_0_split -> inception_4d/output_inception_4d/output_0_split_1
I0718 14:33:20.847040 33824 net.cpp:411] inception_4d/output_inception_4d/output_0_split -> inception_4d/output_inception_4d/output_0_split_2
I0718 14:33:20.847053 33824 net.cpp:411] inception_4d/output_inception_4d/output_0_split -> inception_4d/output_inception_4d/output_0_split_3
I0718 14:33:20.847132 33824 net.cpp:150] Setting up inception_4d/output_inception_4d/output_0_split
I0718 14:33:20.847147 33824 net.cpp:157] Top shape: 8 528 62 62 (16237056)
I0718 14:33:20.847157 33824 net.cpp:157] Top shape: 8 528 62 62 (16237056)
I0718 14:33:20.847164 33824 net.cpp:157] Top shape: 8 528 62 62 (16237056)
I0718 14:33:20.847173 33824 net.cpp:157] Top shape: 8 528 62 62 (16237056)
I0718 14:33:20.847180 33824 net.cpp:165] Memory required for data: 7838128224
I0718 14:33:20.847189 33824 layer_factory.hpp:76] Creating layer inception_4e/1x1
I0718 14:33:20.847201 33824 net.cpp:106] Creating Layer inception_4e/1x1
I0718 14:33:20.847210 33824 net.cpp:454] inception_4e/1x1 <- inception_4d/output_inception_4d/output_0_split_0
I0718 14:33:20.847223 33824 net.cpp:411] inception_4e/1x1 -> inception_4e/1x1
I0718 14:33:20.849974 33824 cudnn_conv_layer.cpp:194] Reallocating workspace storage: 6336
I0718 14:33:20.850024 33824 net.cpp:150] Setting up inception_4e/1x1
I0718 14:33:20.850039 33824 net.cpp:157] Top shape: 8 256 62 62 (7872512)
I0718 14:33:20.850049 33824 net.cpp:165] Memory required for data: 7869618272
I0718 14:33:20.850059 33824 layer_factory.hpp:76] Creating layer inception_4e/relu_1x1
I0718 14:33:20.850080 33824 net.cpp:106] Creating Layer inception_4e/relu_1x1
I0718 14:33:20.850090 33824 net.cpp:454] inception_4e/relu_1x1 <- inception_4e/1x1
I0718 14:33:20.850101 33824 net.cpp:397] inception_4e/relu_1x1 -> inception_4e/1x1 (in-place)
I0718 14:33:20.850301 33824 net.cpp:150] Setting up inception_4e/relu_1x1
I0718 14:33:20.850318 33824 net.cpp:157] Top shape: 8 256 62 62 (7872512)
I0718 14:33:20.850327 33824 net.cpp:165] Memory required for data: 7901108320
I0718 14:33:20.850342 33824 layer_factory.hpp:76] Creating layer inception_4e/3x3_reduce
I0718 14:33:20.850358 33824 net.cpp:106] Creating Layer inception_4e/3x3_reduce
I0718 14:33:20.850366 33824 net.cpp:454] inception_4e/3x3_reduce <- inception_4d/output_inception_4d/output_0_split_1
I0718 14:33:20.850378 33824 net.cpp:411] inception_4e/3x3_reduce -> inception_4e/3x3_reduce
I0718 14:33:20.852152 33824 cudnn_conv_layer.cpp:194] Reallocating workspace storage: 6336
I0718 14:33:20.852192 33824 net.cpp:150] Setting up inception_4e/3x3_reduce
I0718 14:33:20.852208 33824 net.cpp:157] Top shape: 8 160 62 62 (4920320)
I0718 14:33:20.852217 33824 net.cpp:165] Memory required for data: 7920789600
I0718 14:33:20.852229 33824 layer_factory.hpp:76] Creating layer inception_4e/relu_3x3_reduce
I0718 14:33:20.852241 33824 net.cpp:106] Creating Layer inception_4e/relu_3x3_reduce
I0718 14:33:20.852249 33824 net.cpp:454] inception_4e/relu_3x3_reduce <- inception_4e/3x3_reduce
I0718 14:33:20.852260 33824 net.cpp:397] inception_4e/relu_3x3_reduce -> inception_4e/3x3_reduce (in-place)
I0718 14:33:20.852617 33824 net.cpp:150] Setting up inception_4e/relu_3x3_reduce
I0718 14:33:20.852637 33824 net.cpp:157] Top shape: 8 160 62 62 (4920320)
I0718 14:33:20.852645 33824 net.cpp:165] Memory required for data: 7940470880
I0718 14:33:20.852654 33824 layer_factory.hpp:76] Creating layer inception_4e/3x3
I0718 14:33:20.852677 33824 net.cpp:106] Creating Layer inception_4e/3x3
I0718 14:33:20.852687 33824 net.cpp:454] inception_4e/3x3 <- inception_4e/3x3_reduce
I0718 14:33:20.852699 33824 net.cpp:411] inception_4e/3x3 -> inception_4e/3x3
I0718 14:33:20.857997 33824 cudnn_conv_layer.cpp:194] Reallocating workspace storage: 17280
I0718 14:33:20.858036 33824 net.cpp:150] Setting up inception_4e/3x3
I0718 14:33:20.858048 33824 net.cpp:157] Top shape: 8 320 62 62 (9840640)
I0718 14:33:20.858057 33824 net.cpp:165] Memory required for data: 7979833440
I0718 14:33:20.858069 33824 layer_factory.hpp:76] Creating layer inception_4e/relu_3x3
I0718 14:33:20.858080 33824 net.cpp:106] Creating Layer inception_4e/relu_3x3
I0718 14:33:20.858114 33824 net.cpp:454] inception_4e/relu_3x3 <- inception_4e/3x3
I0718 14:33:20.858129 33824 net.cpp:397] inception_4e/relu_3x3 -> inception_4e/3x3 (in-place)
I0718 14:33:20.858485 33824 net.cpp:150] Setting up inception_4e/relu_3x3
I0718 14:33:20.858505 33824 net.cpp:157] Top shape: 8 320 62 62 (9840640)
I0718 14:33:20.858515 33824 net.cpp:165] Memory required for data: 8019196000
I0718 14:33:20.858535 33824 layer_factory.hpp:76] Creating layer inception_4e/5x5_reduce
I0718 14:33:20.858551 33824 net.cpp:106] Creating Layer inception_4e/5x5_reduce
I0718 14:33:20.858562 33824 net.cpp:454] inception_4e/5x5_reduce <- inception_4d/output_inception_4d/output_0_split_2
I0718 14:33:20.858577 33824 net.cpp:411] inception_4e/5x5_reduce -> inception_4e/5x5_reduce
I0718 14:33:20.859894 33824 cudnn_conv_layer.cpp:194] Reallocating workspace storage: 6336
I0718 14:33:20.859937 33824 net.cpp:150] Setting up inception_4e/5x5_reduce
I0718 14:33:20.859951 33824 net.cpp:157] Top shape: 8 32 62 62 (984064)
I0718 14:33:20.859958 33824 net.cpp:165] Memory required for data: 8023132256
I0718 14:33:20.859971 33824 layer_factory.hpp:76] Creating layer inception_4e/relu_5x5_reduce
I0718 14:33:20.859994 33824 net.cpp:106] Creating Layer inception_4e/relu_5x5_reduce
I0718 14:33:20.860004 33824 net.cpp:454] inception_4e/relu_5x5_reduce <- inception_4e/5x5_reduce
I0718 14:33:20.860015 33824 net.cpp:397] inception_4e/relu_5x5_reduce -> inception_4e/5x5_reduce (in-place)
I0718 14:33:20.860216 33824 net.cpp:150] Setting up inception_4e/relu_5x5_reduce
I0718 14:33:20.860234 33824 net.cpp:157] Top shape: 8 32 62 62 (984064)
I0718 14:33:20.860241 33824 net.cpp:165] Memory required for data: 8027068512
I0718 14:33:20.860250 33824 layer_factory.hpp:76] Creating layer inception_4e/5x5
I0718 14:33:20.860265 33824 net.cpp:106] Creating Layer inception_4e/5x5
I0718 14:33:20.860273 33824 net.cpp:454] inception_4e/5x5 <- inception_4e/5x5_reduce
I0718 14:33:20.860285 33824 net.cpp:411] inception_4e/5x5 -> inception_4e/5x5
I0718 14:33:20.862856 33824 net.cpp:150] Setting up inception_4e/5x5
I0718 14:33:20.862879 33824 net.cpp:157] Top shape: 8 128 62 62 (3936256)
I0718 14:33:20.862889 33824 net.cpp:165] Memory required for data: 8042813536
I0718 14:33:20.862900 33824 layer_factory.hpp:76] Creating layer inception_4e/relu_5x5
I0718 14:33:20.862915 33824 net.cpp:106] Creating Layer inception_4e/relu_5x5
I0718 14:33:20.862926 33824 net.cpp:454] inception_4e/relu_5x5 <- inception_4e/5x5
I0718 14:33:20.862936 33824 net.cpp:397] inception_4e/relu_5x5 -> inception_4e/5x5 (in-place)
I0718 14:33:20.863287 33824 net.cpp:150] Setting up inception_4e/relu_5x5
I0718 14:33:20.863307 33824 net.cpp:157] Top shape: 8 128 62 62 (3936256)
I0718 14:33:20.863317 33824 net.cpp:165] Memory required for data: 8058558560
I0718 14:33:20.863335 33824 layer_factory.hpp:76] Creating layer inception_4e/pool
I0718 14:33:20.863359 33824 net.cpp:106] Creating Layer inception_4e/pool
I0718 14:33:20.863369 33824 net.cpp:454] inception_4e/pool <- inception_4d/output_inception_4d/output_0_split_3
I0718 14:33:20.863384 33824 net.cpp:411] inception_4e/pool -> inception_4e/pool
I0718 14:33:20.863620 33824 net.cpp:150] Setting up inception_4e/pool
I0718 14:33:20.863638 33824 net.cpp:157] Top shape: 8 528 62 62 (16237056)
I0718 14:33:20.863646 33824 net.cpp:165] Memory required for data: 8123506784
I0718 14:33:20.863656 33824 layer_factory.hpp:76] Creating layer inception_4e/pool_proj
I0718 14:33:20.863670 33824 net.cpp:106] Creating Layer inception_4e/pool_proj
I0718 14:33:20.863679 33824 net.cpp:454] inception_4e/pool_proj <- inception_4e/pool
I0718 14:33:20.863692 33824 net.cpp:411] inception_4e/pool_proj -> inception_4e/pool_proj
I0718 14:33:20.865475 33824 cudnn_conv_layer.cpp:194] Reallocating workspace storage: 6336
I0718 14:33:20.865532 33824 net.cpp:150] Setting up inception_4e/pool_proj
I0718 14:33:20.865545 33824 net.cpp:157] Top shape: 8 128 62 62 (3936256)
I0718 14:33:20.865555 33824 net.cpp:165] Memory required for data: 8139251808
I0718 14:33:20.865566 33824 layer_factory.hpp:76] Creating layer inception_4e/relu_pool_proj
I0718 14:33:20.865600 33824 net.cpp:106] Creating Layer inception_4e/relu_pool_proj
I0718 14:33:20.865610 33824 net.cpp:454] inception_4e/relu_pool_proj <- inception_4e/pool_proj
I0718 14:33:20.865623 33824 net.cpp:397] inception_4e/relu_pool_proj -> inception_4e/pool_proj (in-place)
I0718 14:33:20.865831 33824 net.cpp:150] Setting up inception_4e/relu_pool_proj
I0718 14:33:20.865847 33824 net.cpp:157] Top shape: 8 128 62 62 (3936256)
I0718 14:33:20.865869 33824 net.cpp:165] Memory required for data: 8154996832
I0718 14:33:20.865876 33824 layer_factory.hpp:76] Creating layer inception_4e/output
I0718 14:33:20.865898 33824 net.cpp:106] Creating Layer inception_4e/output
I0718 14:33:20.865908 33824 net.cpp:454] inception_4e/output <- inception_4e/1x1
I0718 14:33:20.865918 33824 net.cpp:454] inception_4e/output <- inception_4e/3x3
I0718 14:33:20.865927 33824 net.cpp:454] inception_4e/output <- inception_4e/5x5
I0718 14:33:20.865936 33824 net.cpp:454] inception_4e/output <- inception_4e/pool_proj
I0718 14:33:20.865947 33824 net.cpp:411] inception_4e/output -> inception_4e/output
I0718 14:33:20.865988 33824 net.cpp:150] Setting up inception_4e/output
I0718 14:33:20.866003 33824 net.cpp:157] Top shape: 8 832 62 62 (25585664)
I0718 14:33:20.866010 33824 net.cpp:165] Memory required for data: 8257339488
I0718 14:33:20.866025 33824 layer_factory.hpp:76] Creating layer pool4/3x3_s2
I0718 14:33:20.866036 33824 net.cpp:106] Creating Layer pool4/3x3_s2
I0718 14:33:20.866045 33824 net.cpp:454] pool4/3x3_s2 <- inception_4e/output
I0718 14:33:20.866058 33824 net.cpp:411] pool4/3x3_s2 -> pool4/3x3_s2
I0718 14:33:20.866452 33824 net.cpp:150] Setting up pool4/3x3_s2
I0718 14:33:20.866484 33824 net.cpp:157] Top shape: 8 832 31 31 (6396416)
I0718 14:33:20.866493 33824 net.cpp:165] Memory required for data: 8282925152
I0718 14:33:20.866502 33824 layer_factory.hpp:76] Creating layer pool4/3x3_s2_pool4/3x3_s2_0_split
I0718 14:33:20.866513 33824 net.cpp:106] Creating Layer pool4/3x3_s2_pool4/3x3_s2_0_split
I0718 14:33:20.866523 33824 net.cpp:454] pool4/3x3_s2_pool4/3x3_s2_0_split <- pool4/3x3_s2
I0718 14:33:20.866534 33824 net.cpp:411] pool4/3x3_s2_pool4/3x3_s2_0_split -> pool4/3x3_s2_pool4/3x3_s2_0_split_0
I0718 14:33:20.866547 33824 net.cpp:411] pool4/3x3_s2_pool4/3x3_s2_0_split -> pool4/3x3_s2_pool4/3x3_s2_0_split_1
I0718 14:33:20.866559 33824 net.cpp:411] pool4/3x3_s2_pool4/3x3_s2_0_split -> pool4/3x3_s2_pool4/3x3_s2_0_split_2
I0718 14:33:20.866569 33824 net.cpp:411] pool4/3x3_s2_pool4/3x3_s2_0_split -> pool4/3x3_s2_pool4/3x3_s2_0_split_3
I0718 14:33:20.866670 33824 net.cpp:150] Setting up pool4/3x3_s2_pool4/3x3_s2_0_split
I0718 14:33:20.866684 33824 net.cpp:157] Top shape: 8 832 31 31 (6396416)
I0718 14:33:20.866694 33824 net.cpp:157] Top shape: 8 832 31 31 (6396416)
I0718 14:33:20.866703 33824 net.cpp:157] Top shape: 8 832 31 31 (6396416)
I0718 14:33:20.866713 33824 net.cpp:157] Top shape: 8 832 31 31 (6396416)
I0718 14:33:20.866720 33824 net.cpp:165] Memory required for data: 8385267808
I0718 14:33:20.866729 33824 layer_factory.hpp:76] Creating layer inception_5a/1x1
I0718 14:33:20.866742 33824 net.cpp:106] Creating Layer inception_5a/1x1
I0718 14:33:20.866751 33824 net.cpp:454] inception_5a/1x1 <- pool4/3x3_s2_pool4/3x3_s2_0_split_0
I0718 14:33:20.866762 33824 net.cpp:411] inception_5a/1x1 -> inception_5a/1x1
I0718 14:33:20.870020 33824 cudnn_conv_layer.cpp:194] Reallocating workspace storage: 9984
I0718 14:33:20.870075 33824 net.cpp:150] Setting up inception_5a/1x1
I0718 14:33:20.870091 33824 net.cpp:157] Top shape: 8 256 31 31 (1968128)
I0718 14:33:20.870100 33824 net.cpp:165] Memory required for data: 8393140320
I0718 14:33:20.870111 33824 layer_factory.hpp:76] Creating layer inception_5a/relu_1x1
I0718 14:33:20.870134 33824 net.cpp:106] Creating Layer inception_5a/relu_1x1
I0718 14:33:20.870144 33824 net.cpp:454] inception_5a/relu_1x1 <- inception_5a/1x1
I0718 14:33:20.870154 33824 net.cpp:397] inception_5a/relu_1x1 -> inception_5a/1x1 (in-place)
I0718 14:33:20.870360 33824 net.cpp:150] Setting up inception_5a/relu_1x1
I0718 14:33:20.870401 33824 net.cpp:157] Top shape: 8 256 31 31 (1968128)
I0718 14:33:20.870411 33824 net.cpp:165] Memory required for data: 8401012832
I0718 14:33:20.870427 33824 layer_factory.hpp:76] Creating layer inception_5a/3x3_reduce
I0718 14:33:20.870445 33824 net.cpp:106] Creating Layer inception_5a/3x3_reduce
I0718 14:33:20.870455 33824 net.cpp:454] inception_5a/3x3_reduce <- pool4/3x3_s2_pool4/3x3_s2_0_split_1
I0718 14:33:20.870465 33824 net.cpp:411] inception_5a/3x3_reduce -> inception_5a/3x3_reduce
I0718 14:33:20.873170 33824 cudnn_conv_layer.cpp:194] Reallocating workspace storage: 9984
I0718 14:33:20.873224 33824 net.cpp:150] Setting up inception_5a/3x3_reduce
I0718 14:33:20.873237 33824 net.cpp:157] Top shape: 8 160 31 31 (1230080)
I0718 14:33:20.873245 33824 net.cpp:165] Memory required for data: 8405933152
I0718 14:33:20.873257 33824 layer_factory.hpp:76] Creating layer inception_5a/relu_3x3_reduce
I0718 14:33:20.873270 33824 net.cpp:106] Creating Layer inception_5a/relu_3x3_reduce
I0718 14:33:20.873281 33824 net.cpp:454] inception_5a/relu_3x3_reduce <- inception_5a/3x3_reduce
I0718 14:33:20.873291 33824 net.cpp:397] inception_5a/relu_3x3_reduce -> inception_5a/3x3_reduce (in-place)
I0718 14:33:20.873658 33824 net.cpp:150] Setting up inception_5a/relu_3x3_reduce
I0718 14:33:20.873692 33824 net.cpp:157] Top shape: 8 160 31 31 (1230080)
I0718 14:33:20.873702 33824 net.cpp:165] Memory required for data: 8410853472
I0718 14:33:20.873709 33824 layer_factory.hpp:76] Creating layer inception_5a/3x3
I0718 14:33:20.873733 33824 net.cpp:106] Creating Layer inception_5a/3x3
I0718 14:33:20.873744 33824 net.cpp:454] inception_5a/3x3 <- inception_5a/3x3_reduce
I0718 14:33:20.873755 33824 net.cpp:411] inception_5a/3x3 -> inception_5a/3x3
I0718 14:33:20.878995 33824 cudnn_conv_layer.cpp:194] Reallocating workspace storage: 17280
I0718 14:33:20.879029 33824 net.cpp:150] Setting up inception_5a/3x3
I0718 14:33:20.879042 33824 net.cpp:157] Top shape: 8 320 31 31 (2460160)
I0718 14:33:20.879051 33824 net.cpp:165] Memory required for data: 8420694112
I0718 14:33:20.879062 33824 layer_factory.hpp:76] Creating layer inception_5a/relu_3x3
I0718 14:33:20.879073 33824 net.cpp:106] Creating Layer inception_5a/relu_3x3
I0718 14:33:20.879082 33824 net.cpp:454] inception_5a/relu_3x3 <- inception_5a/3x3
I0718 14:33:20.879096 33824 net.cpp:397] inception_5a/relu_3x3 -> inception_5a/3x3 (in-place)
I0718 14:33:20.879457 33824 net.cpp:150] Setting up inception_5a/relu_3x3
I0718 14:33:20.879477 33824 net.cpp:157] Top shape: 8 320 31 31 (2460160)
I0718 14:33:20.879487 33824 net.cpp:165] Memory required for data: 8430534752
I0718 14:33:20.879503 33824 layer_factory.hpp:76] Creating layer inception_5a/5x5_reduce
I0718 14:33:20.879518 33824 net.cpp:106] Creating Layer inception_5a/5x5_reduce
I0718 14:33:20.879528 33824 net.cpp:454] inception_5a/5x5_reduce <- pool4/3x3_s2_pool4/3x3_s2_0_split_2
I0718 14:33:20.879540 33824 net.cpp:411] inception_5a/5x5_reduce -> inception_5a/5x5_reduce
I0718 14:33:20.880923 33824 net.cpp:150] Setting up inception_5a/5x5_reduce
I0718 14:33:20.880944 33824 net.cpp:157] Top shape: 8 32 31 31 (246016)
I0718 14:33:20.880952 33824 net.cpp:165] Memory required for data: 8431518816
I0718 14:33:20.880964 33824 layer_factory.hpp:76] Creating layer inception_5a/relu_5x5_reduce
I0718 14:33:20.880985 33824 net.cpp:106] Creating Layer inception_5a/relu_5x5_reduce
I0718 14:33:20.880995 33824 net.cpp:454] inception_5a/relu_5x5_reduce <- inception_5a/5x5_reduce
I0718 14:33:20.881006 33824 net.cpp:397] inception_5a/relu_5x5_reduce -> inception_5a/5x5_reduce (in-place)
I0718 14:33:20.881204 33824 net.cpp:150] Setting up inception_5a/relu_5x5_reduce
I0718 14:33:20.881222 33824 net.cpp:157] Top shape: 8 32 31 31 (246016)
I0718 14:33:20.881230 33824 net.cpp:165] Memory required for data: 8432502880
I0718 14:33:20.881238 33824 layer_factory.hpp:76] Creating layer inception_5a/5x5
I0718 14:33:20.881271 33824 net.cpp:106] Creating Layer inception_5a/5x5
I0718 14:33:20.881281 33824 net.cpp:454] inception_5a/5x5 <- inception_5a/5x5_reduce
I0718 14:33:20.881312 33824 net.cpp:411] inception_5a/5x5 -> inception_5a/5x5
I0718 14:33:20.883237 33824 net.cpp:150] Setting up inception_5a/5x5
I0718 14:33:20.883263 33824 net.cpp:157] Top shape: 8 128 31 31 (984064)
I0718 14:33:20.883272 33824 net.cpp:165] Memory required for data: 8436439136
I0718 14:33:20.883285 33824 layer_factory.hpp:76] Creating layer inception_5a/relu_5x5
I0718 14:33:20.883296 33824 net.cpp:106] Creating Layer inception_5a/relu_5x5
I0718 14:33:20.883304 33824 net.cpp:454] inception_5a/relu_5x5 <- inception_5a/5x5
I0718 14:33:20.883314 33824 net.cpp:397] inception_5a/relu_5x5 -> inception_5a/5x5 (in-place)
I0718 14:33:20.883668 33824 net.cpp:150] Setting up inception_5a/relu_5x5
I0718 14:33:20.883689 33824 net.cpp:157] Top shape: 8 128 31 31 (984064)
I0718 14:33:20.883697 33824 net.cpp:165] Memory required for data: 8440375392
I0718 14:33:20.883714 33824 layer_factory.hpp:76] Creating layer inception_5a/pool
I0718 14:33:20.883726 33824 net.cpp:106] Creating Layer inception_5a/pool
I0718 14:33:20.883735 33824 net.cpp:454] inception_5a/pool <- pool4/3x3_s2_pool4/3x3_s2_0_split_3
I0718 14:33:20.883754 33824 net.cpp:411] inception_5a/pool -> inception_5a/pool
I0718 14:33:20.883997 33824 net.cpp:150] Setting up inception_5a/pool
I0718 14:33:20.884013 33824 net.cpp:157] Top shape: 8 832 31 31 (6396416)
I0718 14:33:20.884022 33824 net.cpp:165] Memory required for data: 8465961056
I0718 14:33:20.884030 33824 layer_factory.hpp:76] Creating layer inception_5a/pool_proj
I0718 14:33:20.884044 33824 net.cpp:106] Creating Layer inception_5a/pool_proj
I0718 14:33:20.884054 33824 net.cpp:454] inception_5a/pool_proj <- inception_5a/pool
I0718 14:33:20.884066 33824 net.cpp:411] inception_5a/pool_proj -> inception_5a/pool_proj
I0718 14:33:20.886636 33824 cudnn_conv_layer.cpp:194] Reallocating workspace storage: 9984
I0718 14:33:20.886685 33824 net.cpp:150] Setting up inception_5a/pool_proj
I0718 14:33:20.886701 33824 net.cpp:157] Top shape: 8 128 31 31 (984064)
I0718 14:33:20.886710 33824 net.cpp:165] Memory required for data: 8469897312
I0718 14:33:20.886723 33824 layer_factory.hpp:76] Creating layer inception_5a/relu_pool_proj
I0718 14:33:20.886734 33824 net.cpp:106] Creating Layer inception_5a/relu_pool_proj
I0718 14:33:20.886742 33824 net.cpp:454] inception_5a/relu_pool_proj <- inception_5a/pool_proj
I0718 14:33:20.886754 33824 net.cpp:397] inception_5a/relu_pool_proj -> inception_5a/pool_proj (in-place)
I0718 14:33:20.887112 33824 net.cpp:150] Setting up inception_5a/relu_pool_proj
I0718 14:33:20.887133 33824 net.cpp:157] Top shape: 8 128 31 31 (984064)
I0718 14:33:20.887142 33824 net.cpp:165] Memory required for data: 8473833568
I0718 14:33:20.887151 33824 layer_factory.hpp:76] Creating layer inception_5a/output
I0718 14:33:20.887168 33824 net.cpp:106] Creating Layer inception_5a/output
I0718 14:33:20.887181 33824 net.cpp:454] inception_5a/output <- inception_5a/1x1
I0718 14:33:20.887190 33824 net.cpp:454] inception_5a/output <- inception_5a/3x3
I0718 14:33:20.887200 33824 net.cpp:454] inception_5a/output <- inception_5a/5x5
I0718 14:33:20.887209 33824 net.cpp:454] inception_5a/output <- inception_5a/pool_proj
I0718 14:33:20.887219 33824 net.cpp:411] inception_5a/output -> inception_5a/output
I0718 14:33:20.887262 33824 net.cpp:150] Setting up inception_5a/output
I0718 14:33:20.887275 33824 net.cpp:157] Top shape: 8 832 31 31 (6396416)
I0718 14:33:20.887284 33824 net.cpp:165] Memory required for data: 8499419232
I0718 14:33:20.887291 33824 layer_factory.hpp:76] Creating layer inception_5a/output_inception_5a/output_0_split
I0718 14:33:20.887305 33824 net.cpp:106] Creating Layer inception_5a/output_inception_5a/output_0_split
I0718 14:33:20.887315 33824 net.cpp:454] inception_5a/output_inception_5a/output_0_split <- inception_5a/output
I0718 14:33:20.887323 33824 net.cpp:411] inception_5a/output_inception_5a/output_0_split -> inception_5a/output_inception_5a/output_0_split_0
I0718 14:33:20.887337 33824 net.cpp:411] inception_5a/output_inception_5a/output_0_split -> inception_5a/output_inception_5a/output_0_split_1
I0718 14:33:20.887365 33824 net.cpp:411] inception_5a/output_inception_5a/output_0_split -> inception_5a/output_inception_5a/output_0_split_2
I0718 14:33:20.887377 33824 net.cpp:411] inception_5a/output_inception_5a/output_0_split -> inception_5a/output_inception_5a/output_0_split_3
I0718 14:33:20.887462 33824 net.cpp:150] Setting up inception_5a/output_inception_5a/output_0_split
I0718 14:33:20.887475 33824 net.cpp:157] Top shape: 8 832 31 31 (6396416)
I0718 14:33:20.887483 33824 net.cpp:157] Top shape: 8 832 31 31 (6396416)
I0718 14:33:20.887492 33824 net.cpp:157] Top shape: 8 832 31 31 (6396416)
I0718 14:33:20.887501 33824 net.cpp:157] Top shape: 8 832 31 31 (6396416)
I0718 14:33:20.887508 33824 net.cpp:165] Memory required for data: 8601761888
I0718 14:33:20.887516 33824 layer_factory.hpp:76] Creating layer inception_5b/1x1
I0718 14:33:20.887537 33824 net.cpp:106] Creating Layer inception_5b/1x1
I0718 14:33:20.887547 33824 net.cpp:454] inception_5b/1x1 <- inception_5a/output_inception_5a/output_0_split_0
I0718 14:33:20.887558 33824 net.cpp:411] inception_5b/1x1 -> inception_5b/1x1
I0718 14:33:20.892799 33824 cudnn_conv_layer.cpp:194] Reallocating workspace storage: 9984
I0718 14:33:20.892848 33824 net.cpp:150] Setting up inception_5b/1x1
I0718 14:33:20.892864 33824 net.cpp:157] Top shape: 8 384 31 31 (2952192)
I0718 14:33:20.892874 33824 net.cpp:165] Memory required for data: 8613570656
I0718 14:33:20.892886 33824 layer_factory.hpp:76] Creating layer inception_5b/relu_1x1
I0718 14:33:20.892897 33824 net.cpp:106] Creating Layer inception_5b/relu_1x1
I0718 14:33:20.892907 33824 net.cpp:454] inception_5b/relu_1x1 <- inception_5b/1x1
I0718 14:33:20.892920 33824 net.cpp:397] inception_5b/relu_1x1 -> inception_5b/1x1 (in-place)
I0718 14:33:20.893281 33824 net.cpp:150] Setting up inception_5b/relu_1x1
I0718 14:33:20.893303 33824 net.cpp:157] Top shape: 8 384 31 31 (2952192)
I0718 14:33:20.893311 33824 net.cpp:165] Memory required for data: 8625379424
I0718 14:33:20.893321 33824 layer_factory.hpp:76] Creating layer inception_5b/3x3_reduce
I0718 14:33:20.893347 33824 net.cpp:106] Creating Layer inception_5b/3x3_reduce
I0718 14:33:20.893358 33824 net.cpp:454] inception_5b/3x3_reduce <- inception_5a/output_inception_5a/output_0_split_1
I0718 14:33:20.893369 33824 net.cpp:411] inception_5b/3x3_reduce -> inception_5b/3x3_reduce
I0718 14:33:20.896374 33824 cudnn_conv_layer.cpp:194] Reallocating workspace storage: 9984
I0718 14:33:20.896422 33824 net.cpp:150] Setting up inception_5b/3x3_reduce
I0718 14:33:20.896437 33824 net.cpp:157] Top shape: 8 192 31 31 (1476096)
I0718 14:33:20.896446 33824 net.cpp:165] Memory required for data: 8631283808
I0718 14:33:20.896458 33824 layer_factory.hpp:76] Creating layer inception_5b/relu_3x3_reduce
I0718 14:33:20.896477 33824 net.cpp:106] Creating Layer inception_5b/relu_3x3_reduce
I0718 14:33:20.896489 33824 net.cpp:454] inception_5b/relu_3x3_reduce <- inception_5b/3x3_reduce
I0718 14:33:20.896500 33824 net.cpp:397] inception_5b/relu_3x3_reduce -> inception_5b/3x3_reduce (in-place)
I0718 14:33:20.896699 33824 net.cpp:150] Setting up inception_5b/relu_3x3_reduce
I0718 14:33:20.896718 33824 net.cpp:157] Top shape: 8 192 31 31 (1476096)
I0718 14:33:20.896726 33824 net.cpp:165] Memory required for data: 8637188192
I0718 14:33:20.896734 33824 layer_factory.hpp:76] Creating layer inception_5b/3x3
I0718 14:33:20.896749 33824 net.cpp:106] Creating Layer inception_5b/3x3
I0718 14:33:20.896759 33824 net.cpp:454] inception_5b/3x3 <- inception_5b/3x3_reduce
I0718 14:33:20.896770 33824 net.cpp:411] inception_5b/3x3 -> inception_5b/3x3
I0718 14:33:20.904022 33824 cudnn_conv_layer.cpp:194] Reallocating workspace storage: 20736
I0718 14:33:20.904057 33824 net.cpp:150] Setting up inception_5b/3x3
I0718 14:33:20.904072 33824 net.cpp:157] Top shape: 8 384 31 31 (2952192)
I0718 14:33:20.904080 33824 net.cpp:165] Memory required for data: 8648996960
I0718 14:33:20.904093 33824 layer_factory.hpp:76] Creating layer inception_5b/relu_3x3
I0718 14:33:20.904111 33824 net.cpp:106] Creating Layer inception_5b/relu_3x3
I0718 14:33:20.904141 33824 net.cpp:454] inception_5b/relu_3x3 <- inception_5b/3x3
I0718 14:33:20.904152 33824 net.cpp:397] inception_5b/relu_3x3 -> inception_5b/3x3 (in-place)
I0718 14:33:20.904520 33824 net.cpp:150] Setting up inception_5b/relu_3x3
I0718 14:33:20.904542 33824 net.cpp:157] Top shape: 8 384 31 31 (2952192)
I0718 14:33:20.904551 33824 net.cpp:165] Memory required for data: 8660805728
I0718 14:33:20.904567 33824 layer_factory.hpp:76] Creating layer inception_5b/5x5_reduce
I0718 14:33:20.904582 33824 net.cpp:106] Creating Layer inception_5b/5x5_reduce
I0718 14:33:20.904592 33824 net.cpp:454] inception_5b/5x5_reduce <- inception_5a/output_inception_5a/output_0_split_2
I0718 14:33:20.904606 33824 net.cpp:411] inception_5b/5x5_reduce -> inception_5b/5x5_reduce
I0718 14:33:20.905966 33824 net.cpp:150] Setting up inception_5b/5x5_reduce
I0718 14:33:20.905988 33824 net.cpp:157] Top shape: 8 48 31 31 (369024)
I0718 14:33:20.905997 33824 net.cpp:165] Memory required for data: 8662281824
I0718 14:33:20.906009 33824 layer_factory.hpp:76] Creating layer inception_5b/relu_5x5_reduce
I0718 14:33:20.906020 33824 net.cpp:106] Creating Layer inception_5b/relu_5x5_reduce
I0718 14:33:20.906029 33824 net.cpp:454] inception_5b/relu_5x5_reduce <- inception_5b/5x5_reduce
I0718 14:33:20.906040 33824 net.cpp:397] inception_5b/relu_5x5_reduce -> inception_5b/5x5_reduce (in-place)
I0718 14:33:20.906395 33824 net.cpp:150] Setting up inception_5b/relu_5x5_reduce
I0718 14:33:20.906415 33824 net.cpp:157] Top shape: 8 48 31 31 (369024)
I0718 14:33:20.906424 33824 net.cpp:165] Memory required for data: 8663757920
I0718 14:33:20.906433 33824 layer_factory.hpp:76] Creating layer inception_5b/5x5
I0718 14:33:20.906455 33824 net.cpp:106] Creating Layer inception_5b/5x5
I0718 14:33:20.906466 33824 net.cpp:454] inception_5b/5x5 <- inception_5b/5x5_reduce
I0718 14:33:20.906478 33824 net.cpp:411] inception_5b/5x5 -> inception_5b/5x5
I0718 14:33:20.908921 33824 cudnn_conv_layer.cpp:194] Reallocating workspace storage: 14400
I0718 14:33:20.908967 33824 net.cpp:150] Setting up inception_5b/5x5
I0718 14:33:20.908982 33824 net.cpp:157] Top shape: 8 128 31 31 (984064)
I0718 14:33:20.908990 33824 net.cpp:165] Memory required for data: 8667694176
I0718 14:33:20.909003 33824 layer_factory.hpp:76] Creating layer inception_5b/relu_5x5
I0718 14:33:20.909015 33824 net.cpp:106] Creating Layer inception_5b/relu_5x5
I0718 14:33:20.909025 33824 net.cpp:454] inception_5b/relu_5x5 <- inception_5b/5x5
I0718 14:33:20.909037 33824 net.cpp:397] inception_5b/relu_5x5 -> inception_5b/5x5 (in-place)
I0718 14:33:20.909236 33824 net.cpp:150] Setting up inception_5b/relu_5x5
I0718 14:33:20.909255 33824 net.cpp:157] Top shape: 8 128 31 31 (984064)
I0718 14:33:20.909263 33824 net.cpp:165] Memory required for data: 8671630432
I0718 14:33:20.909271 33824 layer_factory.hpp:76] Creating layer inception_5b/pool
I0718 14:33:20.909291 33824 net.cpp:106] Creating Layer inception_5b/pool
I0718 14:33:20.909299 33824 net.cpp:454] inception_5b/pool <- inception_5a/output_inception_5a/output_0_split_3
I0718 14:33:20.909313 33824 net.cpp:411] inception_5b/pool -> inception_5b/pool
I0718 14:33:20.909719 33824 net.cpp:150] Setting up inception_5b/pool
I0718 14:33:20.909740 33824 net.cpp:157] Top shape: 8 832 31 31 (6396416)
I0718 14:33:20.909749 33824 net.cpp:165] Memory required for data: 8697216096
I0718 14:33:20.909759 33824 layer_factory.hpp:76] Creating layer inception_5b/pool_proj
I0718 14:33:20.909785 33824 net.cpp:106] Creating Layer inception_5b/pool_proj
I0718 14:33:20.909796 33824 net.cpp:454] inception_5b/pool_proj <- inception_5b/pool
I0718 14:33:20.909809 33824 net.cpp:411] inception_5b/pool_proj -> inception_5b/pool_proj
I0718 14:33:20.912420 33824 cudnn_conv_layer.cpp:194] Reallocating workspace storage: 9984
I0718 14:33:20.912468 33824 net.cpp:150] Setting up inception_5b/pool_proj
I0718 14:33:20.912483 33824 net.cpp:157] Top shape: 8 128 31 31 (984064)
I0718 14:33:20.912492 33824 net.cpp:165] Memory required for data: 8701152352
I0718 14:33:20.912521 33824 layer_factory.hpp:76] Creating layer inception_5b/relu_pool_proj
I0718 14:33:20.912533 33824 net.cpp:106] Creating Layer inception_5b/relu_pool_proj
I0718 14:33:20.912544 33824 net.cpp:454] inception_5b/relu_pool_proj <- inception_5b/pool_proj
I0718 14:33:20.912554 33824 net.cpp:397] inception_5b/relu_pool_proj -> inception_5b/pool_proj (in-place)
I0718 14:33:20.912757 33824 net.cpp:150] Setting up inception_5b/relu_pool_proj
I0718 14:33:20.912775 33824 net.cpp:157] Top shape: 8 128 31 31 (984064)
I0718 14:33:20.912783 33824 net.cpp:165] Memory required for data: 8705088608
I0718 14:33:20.912791 33824 layer_factory.hpp:76] Creating layer inception_5b/output
I0718 14:33:20.912804 33824 net.cpp:106] Creating Layer inception_5b/output
I0718 14:33:20.912813 33824 net.cpp:454] inception_5b/output <- inception_5b/1x1
I0718 14:33:20.912823 33824 net.cpp:454] inception_5b/output <- inception_5b/3x3
I0718 14:33:20.912833 33824 net.cpp:454] inception_5b/output <- inception_5b/5x5
I0718 14:33:20.912842 33824 net.cpp:454] inception_5b/output <- inception_5b/pool_proj
I0718 14:33:20.912853 33824 net.cpp:411] inception_5b/output -> inception_5b/output
I0718 14:33:20.912895 33824 net.cpp:150] Setting up inception_5b/output
I0718 14:33:20.912909 33824 net.cpp:157] Top shape: 8 1024 31 31 (7872512)
I0718 14:33:20.912915 33824 net.cpp:165] Memory required for data: 8736578656
I0718 14:33:20.912924 33824 layer_factory.hpp:76] Creating layer pool5/7x7_s1
I0718 14:33:20.912945 33824 net.cpp:106] Creating Layer pool5/7x7_s1
I0718 14:33:20.912955 33824 net.cpp:454] pool5/7x7_s1 <- inception_5b/output
I0718 14:33:20.912966 33824 net.cpp:411] pool5/7x7_s1 -> pool5/7x7_s1
I0718 14:33:21.252220 33824 cudnn_conv_layer.cpp:194] Reallocating workspace storage: 602112
I0718 14:33:21.252810 33824 net.cpp:150] Setting up pool5/7x7_s1
I0718 14:33:21.252866 33824 net.cpp:157] Top shape: 8 512 25 25 (2560000)
I0718 14:33:21.252887 33824 net.cpp:165] Memory required for data: 8746818656
I0718 14:33:21.252915 33824 layer_factory.hpp:76] Creating layer conv61
I0718 14:33:21.252960 33824 net.cpp:106] Creating Layer conv61
I0718 14:33:21.252988 33824 net.cpp:454] conv61 <- pool5/7x7_s1
I0718 14:33:21.253051 33824 net.cpp:411] conv61 -> conv61
I0718 14:33:21.259474 33824 cudnn_conv_layer.cpp:194] Reallocating workspace storage: 55296
I0718 14:33:21.259536 33824 net.cpp:150] Setting up conv61
I0718 14:33:21.259554 33824 net.cpp:157] Top shape: 8 64 25 25 (320000)
I0718 14:33:21.259563 33824 net.cpp:165] Memory required for data: 8748098656
I0718 14:33:21.259579 33824 layer_factory.hpp:76] Creating layer relu61
I0718 14:33:21.259598 33824 net.cpp:106] Creating Layer relu61
I0718 14:33:21.259609 33824 net.cpp:454] relu61 <- conv61
I0718 14:33:21.259624 33824 net.cpp:397] relu61 -> conv61 (in-place)
I0718 14:33:21.260056 33824 net.cpp:150] Setting up relu61
I0718 14:33:21.260079 33824 net.cpp:157] Top shape: 8 64 25 25 (320000)
I0718 14:33:21.260089 33824 net.cpp:165] Memory required for data: 8749378656
I0718 14:33:21.260097 33824 layer_factory.hpp:76] Creating layer pool5
I0718 14:33:21.260125 33824 net.cpp:106] Creating Layer pool5
I0718 14:33:21.260135 33824 net.cpp:454] pool5 <- conv61
I0718 14:33:21.260148 33824 net.cpp:411] pool5 -> pool5
I0718 14:33:21.260642 33824 net.cpp:150] Setting up pool5
I0718 14:33:21.260663 33824 net.cpp:157] Top shape: 8 64 13 13 (86528)
I0718 14:33:21.260674 33824 net.cpp:165] Memory required for data: 8749724768
I0718 14:33:21.260684 33824 layer_factory.hpp:76] Creating layer conv62
I0718 14:33:21.260701 33824 net.cpp:106] Creating Layer conv62
I0718 14:33:21.260711 33824 net.cpp:454] conv62 <- pool5
I0718 14:33:21.260723 33824 net.cpp:411] conv62 -> conv62
I0718 14:33:21.262601 33824 net.cpp:150] Setting up conv62
I0718 14:33:21.262672 33824 net.cpp:157] Top shape: 8 64 13 13 (86528)
I0718 14:33:21.262682 33824 net.cpp:165] Memory required for data: 8750070880
I0718 14:33:21.262699 33824 layer_factory.hpp:76] Creating layer relu62
I0718 14:33:21.262717 33824 net.cpp:106] Creating Layer relu62
I0718 14:33:21.262770 33824 net.cpp:454] relu62 <- conv62
I0718 14:33:21.262784 33824 net.cpp:397] relu62 -> conv62 (in-place)
I0718 14:33:21.263011 33824 net.cpp:150] Setting up relu62
I0718 14:33:21.263031 33824 net.cpp:157] Top shape: 8 64 13 13 (86528)
I0718 14:33:21.263039 33824 net.cpp:165] Memory required for data: 8750416992
I0718 14:33:21.263049 33824 layer_factory.hpp:76] Creating layer pool6
I0718 14:33:21.263082 33824 net.cpp:106] Creating Layer pool6
I0718 14:33:21.263092 33824 net.cpp:454] pool6 <- conv62
I0718 14:33:21.263106 33824 net.cpp:411] pool6 -> pool6
I0718 14:33:21.263717 33824 net.cpp:150] Setting up pool6
I0718 14:33:21.263746 33824 net.cpp:157] Top shape: 8 64 7 7 (25088)
I0718 14:33:21.263757 33824 net.cpp:165] Memory required for data: 8750517344
I0718 14:33:21.263767 33824 layer_factory.hpp:76] Creating layer conv82
I0718 14:33:21.263785 33824 net.cpp:106] Creating Layer conv82
I0718 14:33:21.263795 33824 net.cpp:454] conv82 <- pool6
I0718 14:33:21.263813 33824 net.cpp:411] conv82 -> conv82
I0718 14:33:21.265808 33824 cudnn_conv_layer.cpp:194] Reallocating workspace storage: 6912
I0718 14:33:21.265909 33824 net.cpp:150] Setting up conv82
I0718 14:33:21.265928 33824 net.cpp:157] Top shape: 8 128 7 7 (50176)
I0718 14:33:21.265938 33824 net.cpp:165] Memory required for data: 8750718048
I0718 14:33:21.265954 33824 layer_factory.hpp:76] Creating layer relu82
I0718 14:33:21.265971 33824 net.cpp:106] Creating Layer relu82
I0718 14:33:21.265983 33824 net.cpp:454] relu82 <- conv82
I0718 14:33:21.265995 33824 net.cpp:397] relu82 -> conv82 (in-place)
I0718 14:33:21.266582 33824 net.cpp:150] Setting up relu82
I0718 14:33:21.266619 33824 net.cpp:157] Top shape: 8 128 7 7 (50176)
I0718 14:33:21.266644 33824 net.cpp:165] Memory required for data: 8750918752
I0718 14:33:21.266654 33824 layer_factory.hpp:76] Creating layer pool7
I0718 14:33:21.266675 33824 net.cpp:106] Creating Layer pool7
I0718 14:33:21.266690 33824 net.cpp:454] pool7 <- conv82
I0718 14:33:21.266703 33824 net.cpp:411] pool7 -> pool7
I0718 14:33:21.266996 33824 net.cpp:150] Setting up pool7
I0718 14:33:21.267021 33824 net.cpp:157] Top shape: 8 128 4 4 (16384)
I0718 14:33:21.267030 33824 net.cpp:165] Memory required for data: 8750984288
I0718 14:33:21.267040 33824 layer_factory.hpp:76] Creating layer drop0
I0718 14:33:21.267061 33824 net.cpp:106] Creating Layer drop0
I0718 14:33:21.267071 33824 net.cpp:454] drop0 <- pool7
I0718 14:33:21.267083 33824 net.cpp:397] drop0 -> pool7 (in-place)
I0718 14:33:21.267143 33824 net.cpp:150] Setting up drop0
I0718 14:33:21.267163 33824 net.cpp:157] Top shape: 8 128 4 4 (16384)
I0718 14:33:21.267170 33824 net.cpp:165] Memory required for data: 8751049824
I0718 14:33:21.267179 33824 layer_factory.hpp:76] Creating layer conv91
I0718 14:33:21.267215 33824 net.cpp:106] Creating Layer conv91
I0718 14:33:21.267223 33824 net.cpp:454] conv91 <- pool7
I0718 14:33:21.267238 33824 net.cpp:411] conv91 -> conv91
I0718 14:33:21.269331 33824 cudnn_conv_layer.cpp:194] Reallocating workspace storage: 9750528
I0718 14:33:21.269865 33824 net.cpp:150] Setting up conv91
I0718 14:33:21.269915 33824 net.cpp:157] Top shape: 8 3 1 1 (24)
I0718 14:33:21.269927 33824 net.cpp:165] Memory required for data: 8751049920
I0718 14:33:21.269947 33824 layer_factory.hpp:76] Creating layer conv91_conv91_0_split
I0718 14:33:21.269968 33824 net.cpp:106] Creating Layer conv91_conv91_0_split
I0718 14:33:21.269980 33824 net.cpp:454] conv91_conv91_0_split <- conv91
I0718 14:33:21.269994 33824 net.cpp:411] conv91_conv91_0_split -> conv91_conv91_0_split_0
I0718 14:33:21.270012 33824 net.cpp:411] conv91_conv91_0_split -> conv91_conv91_0_split_1
I0718 14:33:21.270153 33824 net.cpp:150] Setting up conv91_conv91_0_split
I0718 14:33:21.270174 33824 net.cpp:157] Top shape: 8 3 1 1 (24)
I0718 14:33:21.270184 33824 net.cpp:157] Top shape: 8 3 1 1 (24)
I0718 14:33:21.270191 33824 net.cpp:165] Memory required for data: 8751050112
I0718 14:33:21.270200 33824 layer_factory.hpp:76] Creating layer accuracy
I0718 14:33:21.270229 33824 net.cpp:106] Creating Layer accuracy
I0718 14:33:21.270295 33824 net.cpp:454] accuracy <- conv91_conv91_0_split_0
I0718 14:33:21.270309 33824 net.cpp:454] accuracy <- label_data_1_split_0
I0718 14:33:21.270320 33824 net.cpp:411] accuracy -> accuracy
…
I0718 14:33:21.278242 33824 net.cpp:322] The NetState phase (1) differed from the phase (0) specified by a rule in layer data
I0718 14:33:21.279352 33824 net.cpp:49] Initializing net from parameters: 
name: "GoogleNet"
state {
  phase: TEST
}
layer {
  name: "data"
  type: "ImageData"
  top: "data"
  top: "label"
  include {
    phase: TEST
  }
  transform_param {
    mirror: false
    mean_value: 163
    mean_value: 116
    mean_value: 181
  }
  image_data_param {
    source: "../lists/mitosis_val.lst"
    batch_size: 4
    shuffle: true
  }
}
layer {
  name: "conv1/7x7_s2"
  type: "Convolution"
  bottom: "data"
  top: "conv1/7x7_s2"
  param {
    lr_mult: 0
    decay_mult: 1
  }
  param {
    lr_mult: 2
    decay_mult: 0
  }
  convolution_param {
    num_output: 64
    pad: 3
    kernel_size: 7
    stride: 2
    weight_filler {
      type: "xavier"
    }
    bias_filler {
      type: "constant"
      value: 0.2
    }
  }
}
layer {
  name: "conv1/relu_7x7"
  type: "ReLU"
  bottom: "conv1/7x7_s2"
  top: "conv1/7x7_s2"
}
layer {
  name: "pool1/3x3_s2"
  type: "Pooling"
  bottom: "conv1/7x7_s2"
  top: "pool1/3x3_s2"
  pooling_param {
    pool: MAX
    kernel_size: 3
    stride: 2
  }
}
layer {
  name: "pool1/norm1"
  type: "LRN"
  bottom: "pool1/3x3_s2"
  top: "pool1/norm1"
  lrn_param {
    local_size: 5
    alpha: 0.0001
    beta: 0.75
  }
}
layer {
  name: "conv2/3x3_reduce"
  type: "Convolution"
  bottom: "pool1/norm1"
  top: "conv2/3x3_reduce"
  param {
    lr_mult: 0
    decay_mult: 1
  }
  param {
    lr_mult: 2
    decay_mult: 0
  }
  convolution_param {
    num_output: 64
    kernel_size: 1
    weight_filler {
      type: "xavier"
    }
    bias_filler {
      type: "constant"
      value: 0.2
    }
  }
}
layer {
  name: "conv2/relu_3x3_reduce"
  type: "ReLU"
  bottom: "conv2/3x3_reduce"
  top: "conv2/3x3_reduce"
}
layer {
  name: "conv2/3x3"
  type: "Convolution"
  bottom: "conv2/3x3_reduce"
  top: "conv2/3x3"
  param {
    lr_mult: 0
    decay_mult: 1
  }
  param {
    lr_mult: 2
    decay_mult: 0
  }
  convolution_param {
    num_output: 192
    pad: 1
    kernel_size: 3
    weight_filler {
      type: "xavier"
    }
    bias_filler {
      type: "constant"
      value: 0.2
    }
  }
}
layer {
  name: "conv2/relu_3x3"
  type: "ReLU"
  bottom: "conv2/3x3"
  top: "conv2/3x3"
}
layer {
  name: "conv2/norm2"
  type: "LRN"
  bottom: "conv2/3x3"
  top: "conv2/norm2"
  lrn_param {
    local_size: 5
    alpha: 0.0001
    beta: 0.75
  }
}
layer {
  name: "pool2/3x3_s2"
  type: "Pooling"
  bottom: "conv2/norm2"
  top: "pool2/3x3_s2"
  pooling_param {
    pool: MAX
    kernel_size: 3
    stride: 2
  }
}
layer {
  name: "inception_3a/1x1"
  type: "Convolution"
  bottom: "pool2/3x3_s2"
  top: "inception_3a/1x1"
  param {
    lr_mult: 0
    decay_mult: 1
  }
  param {
    lr_mult: 2
    decay_mult: 0
  }
  convolution_param {
    num_output: 64
    kernel_size: 1
    weight_filler {
      type: "xavier"
    }
    bias_filler {
      type: "constant"
      value: 0.2
    }
  }
}
layer {
  name: "inception_3a/relu_1x1"
  type: "ReLU"
  bottom: "inception_3a/1x1"
  top: "inception_3a/1x1"
}
layer {
  name: "inception_3a/3x3_reduce"
  type: "Convolution"
  bottom: "pool2/3x3_s2"
  top: "inception_3a/3x3_reduce"
  param {
    lr_mult: 0
    decay_mult: 1
  }
  param {
    lr_mult: 2
    decay_mult: 0
  }
  convolution_param {
    num_output: 96
    kernel_size: 1
    weight_filler {
      type: "xavier"
    }
    bias_filler {
      type: "constant"
      value: 0.2
    }
  }
}
layer {
  name: "inception_3a/relu_3x3_reduce"
  type: "ReLU"
  bottom: "inception_3a/3x3_reduce"
  top: "inception_3a/3x3_reduce"
}
layer {
  name: "inception_3a/3x3"
  type: "Convolution"
  bottom: "inception_3a/3x3_reduce"
  top: "inception_3a/3x3"
  param {
    lr_mult: 0
    decay_mult: 1
  }
  param {
    lr_mult: 2
    decay_mult: 0
  }
  convolution_param {
    num_output: 128
    pad: 1
    kernel_size: 3
    weight_filler {
      type: "xavier"
    }
    bias_filler {
      type: "constant"
      value: 0.2
    }
  }
}
layer {
  name: "inception_3a/relu_3x3"
  type: "ReLU"
  bottom: "inception_3a/3x3"
  top: "inception_3a/3x3"
}
layer {
  name: "inception_3a/5x5_reduce"
  type: "Convolution"
  bottom: "pool2/3x3_s2"
  top: "inception_3a/5x5_reduce"
  param {
    lr_mult: 0
    decay_mult: 1
  }
  param {
    lr_mult: 2
    decay_mult: 0
  }
  convolution_param {
    num_output: 16
    kernel_size: 1
    weight_filler {
      type: "xavier"
    }
    bias_filler {
      type: "constant"
      value: 0.2
    }
  }
}
layer {
  name: "inception_3a/relu_5x5_reduce"
  type: "ReLU"
  bottom: "inception_3a/5x5_reduce"
  top: "inception_3a/5x5_reduce"
}
layer {
  name: "inception_3a/5x5"
  type: "Convolution"
  bottom: "inception_3a/5x5_reduce"
  top: "inception_3a/5x5"
  param {
    lr_mult: 0
    decay_mult: 1
  }
  param {
    lr_mult: 2
    decay_mult: 0
  }
  convolution_param {
    num_output: 32
    pad: 2
    kernel_size: 5
    weight_filler {
      type: "xavier"
    }
    bias_filler {
      type: "constant"
      value: 0.2
    }
  }
}
layer {
  name: "inception_3a/relu_5x5"
  type: "ReLU"
  bottom: "inception_3a/5x5"
  top: "inception_3a/5x5"
}
layer {
  name: "inception_3a/pool"
  type: "Pooling"
  bottom: "pool2/3x3_s2"
  top: "inception_3a/pool"
  pooling_param {
    pool: MAX
    kernel_size: 3
    stride: 1
    pad: 1
  }
}
layer {
  name: "inception_3a/pool_proj"
  type: "Convolution"
  bottom: "inception_3a/pool"
  top: "inception_3a/pool_proj"
  param {
    lr_mult: 0
    decay_mult: 1
  }
  param {
    lr_mult: 2
    decay_mult: 0
  }
  convolution_param {
    num_output: 32
    kernel_size: 1
    weight_filler {
      type: "xavier"
    }
    bias_filler {
      type: "constant"
      value: 0.2
    }
  }
}
layer {
  name: "inception_3a/relu_pool_proj"
  type: "ReLU"
  bottom: "inception_3a/pool_proj"
  top: "inception_3a/pool_proj"
}
layer {
  name: "inception_3a/output"
  type: "Concat"
  bottom: "inception_3a/1x1"
  bottom: "inception_3a/3x3"
  bottom: "inception_3a/5x5"
  bottom: "inception_3a/pool_proj"
  top: "inception_3a/output"
}
layer {
  name: "inception_3b/1x1"
  type: "Convolution"
  bottom: "inception_3a/output"
  top: "inception_3b/1x1"
  param {
    lr_mult: 0
    decay_mult: 1
  }
  param {
    lr_mult: 2
    decay_mult: 0
  }
  convolution_param {
    num_output: 128
    kernel_size: 1
    weight_filler {
      type: "xavier"
    }
    bias_filler {
      type: "constant"
      value: 0.2
    }
  }
}
layer {
  name: "inception_3b/relu_1x1"
  type: "ReLU"
  bottom: "inception_3b/1x1"
  top: "inception_3b/1x1"
}
layer {
  name: "inception_3b/3x3_reduce"
  type: "Convolution"
  bottom: "inception_3a/output"
  top: "inception_3b/3x3_reduce"
  param {
    lr_mult: 0
    decay_mult: 1
  }
  param {
    lr_mult: 2
    decay_mult: 0
  }
  convolution_param {
    num_output: 128
    kernel_size: 1
    weight_filler {
      type: "xavier"
    }
    bias_filler {
      type: "constant"
      value: 0.2
    }
  }
}
layer {
  name: "inception_3b/relu_3x3_reduce"
  type: "ReLU"
  bottom: "inception_3b/3x3_reduce"
  top: "inception_3b/3x3_reduce"
}
layer {
  name: "inception_3b/3x3"
  type: "Convolution"
  bottom: "inception_3b/3x3_reduce"
  top: "inception_3b/3x3"
  param {
    lr_mult: 0
    decay_mult: 1
  }
  param {
    lr_mult: 2
    decay_mult: 0
  }
  convolution_param {
    num_output: 192
    pad: 1
    kernel_size: 3
    weight_filler {
      type: "xavier"
    }
    bias_filler {
      type: "constant"
      value: 0.2
    }
  }
}
layer {
  name: "inception_3b/relu_3x3"
  type: "ReLU"
  bottom: "inception_3b/3x3"
  top: "inception_3b/3x3"
}
layer {
  name: "inception_3b/5x5_reduce"
  type: "Convolution"
  bottom: "inception_3a/output"
  top: "inception_3b/5x5_reduce"
  param {
    lr_mult: 0
    decay_mult: 1
  }
  param {
    lr_mult: 2
    decay_mult: 0
  }
  convolution_param {
    num_output: 32
    kernel_size: 1
    weight_filler {
      type: "xavier"
    }
    bias_filler {
      type: "constant"
      value: 0.2
    }
  }
}
layer {
  name: "inception_3b/relu_5x5_reduce"
  type: "ReLU"
  bottom: "inception_3b/5x5_reduce"
  top: "inception_3b/5x5_reduce"
}
layer {
  name: "inception_3b/5x5"
  type: "Convolution"
  bottom: "inception_3b/5x5_reduce"
  top: "inception_3b/5x5"
  param {
    lr_mult: 0
    decay_mult: 1
  }
  param {
    lr_mult: 2
    decay_mult: 0
  }
  convolution_param {
    num_output: 96
    pad: 2
    kernel_size: 5
    weight_filler {
      type: "xavier"
    }
    bias_filler {
      type: "constant"
      value: 0.2
    }
  }
}
layer {
  name: "inception_3b/relu_5x5"
  type: "ReLU"
  bottom: "inception_3b/5x5"
  top: "inception_3b/5x5"
}
layer {
  name: "inception_3b/pool"
  type: "Pooling"
  bottom: "inception_3a/output"
  top: "inception_3b/pool"
  pooling_param {
    pool: MAX
    kernel_size: 3
    stride: 1
    pad: 1
  }
}
layer {
  name: "inception_3b/pool_proj"
  type: "Convolution"
  bottom: "inception_3b/pool"
  top: "inception_3b/pool_proj"
  param {
    lr_mult: 0
    decay_mult: 1
  }
  param {
    lr_mult: 2
    decay_mult: 0
  }
  convolution_param {
    num_output: 64
    kernel_size: 1
    weight_filler {
      type: "xavier"
    }
    bias_filler {
      type: "constant"
      value: 0.2
    }
  }
}
layer {
  name: "inception_3b/relu_pool_proj"
  type: "ReLU"
  bottom: "inception_3b/pool_proj"
  top: "inception_3b/pool_proj"
}
layer {
  name: "inception_3b/output"
  type: "Concat"
  bottom: "inception_3b/1x1"
  bottom: "inception_3b/3x3"
  bottom: "inception_3b/5x5"
  bottom: "inception_3b/pool_proj"
  top: "inception_3b/output"
}
layer {
  name: "pool3/3x3_s2"
  type: "Pooling"
  bottom: "inception_3b/output"
  top: "pool3/3x3_s2"
  pooling_param {
    pool: MAX
    kernel_size: 3
    stride: 2
  }
}
layer {
  name: "inception_4a/1x1"
  type: "Convolution"
  bottom: "pool3/3x3_s2"
  top: "inception_4a/1x1"
  param {
    lr_mult: 0
    decay_mult: 1
  }
  param {
    lr_mult: 2
    decay_mult: 0
  }
  convolution_param {
    num_output: 192
    kernel_size: 1
    weight_filler {
      type: "xavier"
    }
    bias_filler {
      type: "constant"
      value: 0.2
    }
  }
}
layer {
  name: "inception_4a/relu_1x1"
  type: "ReLU"
  bottom: "inception_4a/1x1"
  top: "inception_4a/1x1"
}
layer {
  name: "inception_4a/3x3_reduce"
  type: "Convolution"
  bottom: "pool3/3x3_s2"
  top: "inception_4a/3x3_reduce"
  param {
    lr_mult: 0
    decay_mult: 1
  }
  param {
    lr_mult: 2
    decay_mult: 0
  }
  convolution_param {
    num_output: 96
    kernel_size: 1
    weight_filler {
      type: "xavier"
    }
    bias_filler {
      type: "constant"
      value: 0.2
    }
  }
}
layer {
  name: "inception_4a/relu_3x3_reduce"
  type: "ReLU"
  bottom: "inception_4a/3x3_reduce"
  top: "inception_4a/3x3_reduce"
}
layer {
  name: "inception_4a/3x3"
  type: "Convolution"
  bottom: "inception_4a/3x3_reduce"
  top: "inception_4a/3x3"
  param {
    lr_mult: 0
    decay_mult: 1
  }
  param {
    lr_mult: 2
    decay_mult: 0
  }
  convolution_param {
    num_output: 208
    pad: 1
    kernel_size: 3
    weight_filler {
      type: "xavier"
    }
    bias_filler {
      type: "constant"
      value: 0.2
    }
  }
}
layer {
  name: "inception_4a/relu_3x3"
  type: "ReLU"
  bottom: "inception_4a/3x3"
  top: "inception_4a/3x3"
}
layer {
  name: "inception_4a/5x5_reduce"
  type: "Convolution"
  bottom: "pool3/3x3_s2"
  top: "inception_4a/5x5_reduce"
  param {
    lr_mult: 0
    decay_mult: 1
  }
  param {
    lr_mult: 2
    decay_mult: 0
  }
  convolution_param {
    num_output: 16
    kernel_size: 1
    weight_filler {
      type: "xavier"
    }
    bias_filler {
      type: "constant"
      value: 0.2
    }
  }
}
layer {
  name: "inception_4a/relu_5x5_reduce"
  type: "ReLU"
  bottom: "inception_4a/5x5_reduce"
  top: "inception_4a/5x5_reduce"
}
layer {
  name: "inception_4a/5x5"
  type: "Convolution"
  bottom: "inception_4a/5x5_reduce"
  top: "inception_4a/5x5"
  param {
    lr_mult: 0
    decay_mult: 1
  }
  param {
    lr_mult: 2
    decay_mult: 0
  }
  convolution_param {
    num_output: 48
    pad: 2
    kernel_size: 5
    weight_filler {
      type: "xavier"
    }
    bias_filler {
      type: "constant"
      value: 0.2
    }
  }
}
layer {
  name: "inception_4a/relu_5x5"
  type: "ReLU"
  bottom: "inception_4a/5x5"
  top: "inception_4a/5x5"
}
layer {
  name: "inception_4a/pool"
  type: "Pooling"
  bottom: "pool3/3x3_s2"
  top: "inception_4a/pool"
  pooling_param {
    pool: MAX
    kernel_size: 3
    stride: 1
    pad: 1
  }
}
layer {
  name: "inception_4a/pool_proj"
  type: "Convolution"
  bottom: "inception_4a/pool"
  top: "inception_4a/pool_proj"
  param {
    lr_mult: 0
    decay_mult: 1
  }
  param {
    lr_mult: 2
    decay_mult: 0
  }
  convolution_param {
    num_output: 64
    kernel_size: 1
    weight_filler {
      type: "xavier"
    }
    bias_filler {
      type: "constant"
      value: 0.2
    }
  }
}
layer {
  name: "inception_4a/relu_pool_proj"
  type: "ReLU"
  bottom: "inception_4a/pool_proj"
  top: "inception_4a/pool_proj"
}
layer {
  name: "inception_4a/output"
  type: "Concat"
  bottom: "inception_4a/1x1"
  bottom: "inception_4a/3x3"
  bottom: "inception_4a/5x5"
  bottom: "inception_4a/pool_proj"
  top: "inception_4a/output"
}
layer {
  name: "inception_4b/1x1"
  type: "Convolution"
  bottom: "inception_4a/output"
  top: "inception_4b/1x1"
  param {
    lr_mult: 0
    decay_mult: 1
  }
  param {
    lr_mult: 2
    decay_mult: 0
  }
  convolution_param {
    num_output: 160
    kernel_size: 1
    weight_filler {
      type: "xavier"
    }
    bias_filler {
      type: "constant"
      value: 0.2
    }
  }
}
layer {
  name: "inception_4b/relu_1x1"
  type: "ReLU"
  bottom: "inception_4b/1x1"
  top: "inception_4b/1x1"
}
layer {
  name: "inception_4b/3x3_reduce"
  type: "Convolution"
  bottom: "inception_4a/output"
  top: "inception_4b/3x3_reduce"
  param {
    lr_mult: 0
    decay_mult: 1
  }
  param {
    lr_mult: 2
    decay_mult: 0
  }
  convolution_param {
    num_output: 112
    kernel_size: 1
    weight_filler {
      type: "xavier"
    }
    bias_filler {
      type: "constant"
      value: 0.2
    }
  }
}
layer {
  name: "inception_4b/relu_3x3_reduce"
  type: "ReLU"
  bottom: "inception_4b/3x3_reduce"
  top: "inception_4b/3x3_reduce"
}
layer {
  name: "inception_4b/3x3"
  type: "Convolution"
  bottom: "inception_4b/3x3_reduce"
  top: "inception_4b/3x3"
  param {
    lr_mult: 0
    decay_mult: 1
  }
  param {
    lr_mult: 2
    decay_mult: 0
  }
  convolution_param {
    num_output: 224
    pad: 1
    kernel_size: 3
    weight_filler {
      type: "xavier"
    }
    bias_filler {
      type: "constant"
      value: 0.2
    }
  }
}
layer {
  name: "inception_4b/relu_3x3"
  type: "ReLU"
  bottom: "inception_4b/3x3"
  top: "inception_4b/3x3"
}
layer {
  name: "inception_4b/5x5_reduce"
  type: "Convolution"
  bottom: "inception_4a/output"
  top: "inception_4b/5x5_reduce"
  param {
    lr_mult: 0
    decay_mult: 1
  }
  param {
    lr_mult: 2
    decay_mult: 0
  }
  convolution_param {
…
I0718 14:33:21.692940 33824 net.cpp:157] Top shape: 4 64 62 62 (984064)
I0718 14:33:21.692948 33824 net.cpp:165] Memory required for data: 3441793072
I0718 14:33:21.692957 33824 layer_factory.hpp:76] Creating layer inception_4c/pool
I0718 14:33:21.692968 33824 net.cpp:106] Creating Layer inception_4c/pool
I0718 14:33:21.692977 33824 net.cpp:454] inception_4c/pool <- inception_4b/output_inception_4b/output_0_split_3
I0718 14:33:21.692991 33824 net.cpp:411] inception_4c/pool -> inception_4c/pool
I0718 14:33:21.693450 33824 net.cpp:150] Setting up inception_4c/pool
I0718 14:33:21.693472 33824 net.cpp:157] Top shape: 4 512 62 62 (7872512)
I0718 14:33:21.693481 33824 net.cpp:165] Memory required for data: 3473283120
I0718 14:33:21.693490 33824 layer_factory.hpp:76] Creating layer inception_4c/pool_proj
I0718 14:33:21.693505 33824 net.cpp:106] Creating Layer inception_4c/pool_proj
I0718 14:33:21.693514 33824 net.cpp:454] inception_4c/pool_proj <- inception_4c/pool
I0718 14:33:21.693527 33824 net.cpp:411] inception_4c/pool_proj -> inception_4c/pool_proj
I0718 14:33:21.695760 33824 net.cpp:150] Setting up inception_4c/pool_proj
I0718 14:33:21.695785 33824 net.cpp:157] Top shape: 4 64 62 62 (984064)
I0718 14:33:21.695796 33824 net.cpp:165] Memory required for data: 3477219376
I0718 14:33:21.695822 33824 layer_factory.hpp:76] Creating layer inception_4c/relu_pool_proj
I0718 14:33:21.695835 33824 net.cpp:106] Creating Layer inception_4c/relu_pool_proj
I0718 14:33:21.695845 33824 net.cpp:454] inception_4c/relu_pool_proj <- inception_4c/pool_proj
I0718 14:33:21.695855 33824 net.cpp:397] inception_4c/relu_pool_proj -> inception_4c/pool_proj (in-place)
I0718 14:33:21.696111 33824 net.cpp:150] Setting up inception_4c/relu_pool_proj
I0718 14:33:21.696131 33824 net.cpp:157] Top shape: 4 64 62 62 (984064)
I0718 14:33:21.696141 33824 net.cpp:165] Memory required for data: 3481155632
I0718 14:33:21.696151 33824 layer_factory.hpp:76] Creating layer inception_4c/output
I0718 14:33:21.696164 33824 net.cpp:106] Creating Layer inception_4c/output
I0718 14:33:21.696173 33824 net.cpp:454] inception_4c/output <- inception_4c/1x1
I0718 14:33:21.696183 33824 net.cpp:454] inception_4c/output <- inception_4c/3x3
I0718 14:33:21.696193 33824 net.cpp:454] inception_4c/output <- inception_4c/5x5
I0718 14:33:21.696202 33824 net.cpp:454] inception_4c/output <- inception_4c/pool_proj
I0718 14:33:21.696213 33824 net.cpp:411] inception_4c/output -> inception_4c/output
I0718 14:33:21.696265 33824 net.cpp:150] Setting up inception_4c/output
I0718 14:33:21.696279 33824 net.cpp:157] Top shape: 4 512 62 62 (7872512)
I0718 14:33:21.696286 33824 net.cpp:165] Memory required for data: 3512645680
I0718 14:33:21.696295 33824 layer_factory.hpp:76] Creating layer inception_4c/output_inception_4c/output_0_split
I0718 14:33:21.696311 33824 net.cpp:106] Creating Layer inception_4c/output_inception_4c/output_0_split
I0718 14:33:21.696321 33824 net.cpp:454] inception_4c/output_inception_4c/output_0_split <- inception_4c/output
I0718 14:33:21.696331 33824 net.cpp:411] inception_4c/output_inception_4c/output_0_split -> inception_4c/output_inception_4c/output_0_split_0
I0718 14:33:21.696342 33824 net.cpp:411] inception_4c/output_inception_4c/output_0_split -> inception_4c/output_inception_4c/output_0_split_1
I0718 14:33:21.696354 33824 net.cpp:411] inception_4c/output_inception_4c/output_0_split -> inception_4c/output_inception_4c/output_0_split_2
I0718 14:33:21.696369 33824 net.cpp:411] inception_4c/output_inception_4c/output_0_split -> inception_4c/output_inception_4c/output_0_split_3
I0718 14:33:21.696481 33824 net.cpp:150] Setting up inception_4c/output_inception_4c/output_0_split
I0718 14:33:21.696494 33824 net.cpp:157] Top shape: 4 512 62 62 (7872512)
I0718 14:33:21.696503 33824 net.cpp:157] Top shape: 4 512 62 62 (7872512)
I0718 14:33:21.696512 33824 net.cpp:157] Top shape: 4 512 62 62 (7872512)
I0718 14:33:21.696521 33824 net.cpp:157] Top shape: 4 512 62 62 (7872512)
I0718 14:33:21.696528 33824 net.cpp:165] Memory required for data: 3638605872
I0718 14:33:21.696537 33824 layer_factory.hpp:76] Creating layer inception_4d/1x1
I0718 14:33:21.696550 33824 net.cpp:106] Creating Layer inception_4d/1x1
I0718 14:33:21.696559 33824 net.cpp:454] inception_4d/1x1 <- inception_4c/output_inception_4c/output_0_split_0
I0718 14:33:21.696573 33824 net.cpp:411] inception_4d/1x1 -> inception_4d/1x1
I0718 14:33:21.698583 33824 cudnn_conv_layer.cpp:194] Reallocating workspace storage: 6144
I0718 14:33:21.698637 33824 net.cpp:150] Setting up inception_4d/1x1
I0718 14:33:21.698658 33824 net.cpp:157] Top shape: 4 112 62 62 (1722112)
I0718 14:33:21.698673 33824 net.cpp:165] Memory required for data: 3645494320
I0718 14:33:21.698693 33824 layer_factory.hpp:76] Creating layer inception_4d/relu_1x1
I0718 14:33:21.698710 33824 net.cpp:106] Creating Layer inception_4d/relu_1x1
I0718 14:33:21.698721 33824 net.cpp:454] inception_4d/relu_1x1 <- inception_4d/1x1
I0718 14:33:21.698731 33824 net.cpp:397] inception_4d/relu_1x1 -> inception_4d/1x1 (in-place)
I0718 14:33:21.699138 33824 net.cpp:150] Setting up inception_4d/relu_1x1
I0718 14:33:21.699161 33824 net.cpp:157] Top shape: 4 112 62 62 (1722112)
I0718 14:33:21.699168 33824 net.cpp:165] Memory required for data: 3652382768
I0718 14:33:21.699177 33824 layer_factory.hpp:76] Creating layer inception_4d/3x3_reduce
I0718 14:33:21.699194 33824 net.cpp:106] Creating Layer inception_4d/3x3_reduce
I0718 14:33:21.699204 33824 net.cpp:454] inception_4d/3x3_reduce <- inception_4c/output_inception_4c/output_0_split_1
I0718 14:33:21.699215 33824 net.cpp:411] inception_4d/3x3_reduce -> inception_4d/3x3_reduce
I0718 14:33:21.701036 33824 cudnn_conv_layer.cpp:194] Reallocating workspace storage: 6144
I0718 14:33:21.701095 33824 net.cpp:150] Setting up inception_4d/3x3_reduce
I0718 14:33:21.701118 33824 net.cpp:157] Top shape: 4 144 62 62 (2214144)
I0718 14:33:21.701133 33824 net.cpp:165] Memory required for data: 3661239344
I0718 14:33:21.701151 33824 layer_factory.hpp:76] Creating layer inception_4d/relu_3x3_reduce
I0718 14:33:21.701166 33824 net.cpp:106] Creating Layer inception_4d/relu_3x3_reduce
I0718 14:33:21.701177 33824 net.cpp:454] inception_4d/relu_3x3_reduce <- inception_4d/3x3_reduce
I0718 14:33:21.701187 33824 net.cpp:397] inception_4d/relu_3x3_reduce -> inception_4d/3x3_reduce (in-place)
I0718 14:33:21.701589 33824 net.cpp:150] Setting up inception_4d/relu_3x3_reduce
I0718 14:33:21.701611 33824 net.cpp:157] Top shape: 4 144 62 62 (2214144)
I0718 14:33:21.701620 33824 net.cpp:165] Memory required for data: 3670095920
I0718 14:33:21.701629 33824 layer_factory.hpp:76] Creating layer inception_4d/3x3
I0718 14:33:21.701647 33824 net.cpp:106] Creating Layer inception_4d/3x3
I0718 14:33:21.701658 33824 net.cpp:454] inception_4d/3x3 <- inception_4d/3x3_reduce
I0718 14:33:21.701669 33824 net.cpp:411] inception_4d/3x3 -> inception_4d/3x3
I0718 14:33:21.706552 33824 cudnn_conv_layer.cpp:194] Reallocating workspace storage: 15552
I0718 14:33:21.706599 33824 net.cpp:150] Setting up inception_4d/3x3
I0718 14:33:21.706619 33824 net.cpp:157] Top shape: 4 288 62 62 (4428288)
I0718 14:33:21.706640 33824 net.cpp:165] Memory required for data: 3687809072
I0718 14:33:21.706667 33824 layer_factory.hpp:76] Creating layer inception_4d/relu_3x3
I0718 14:33:21.706696 33824 net.cpp:106] Creating Layer inception_4d/relu_3x3
I0718 14:33:21.706714 33824 net.cpp:454] inception_4d/relu_3x3 <- inception_4d/3x3
I0718 14:33:21.706729 33824 net.cpp:397] inception_4d/relu_3x3 -> inception_4d/3x3 (in-place)
I0718 14:33:21.706979 33824 net.cpp:150] Setting up inception_4d/relu_3x3
I0718 14:33:21.706998 33824 net.cpp:157] Top shape: 4 288 62 62 (4428288)
I0718 14:33:21.707007 33824 net.cpp:165] Memory required for data: 3705522224
I0718 14:33:21.707016 33824 layer_factory.hpp:76] Creating layer inception_4d/5x5_reduce
I0718 14:33:21.707031 33824 net.cpp:106] Creating Layer inception_4d/5x5_reduce
I0718 14:33:21.707041 33824 net.cpp:454] inception_4d/5x5_reduce <- inception_4c/output_inception_4c/output_0_split_2
I0718 14:33:21.707056 33824 net.cpp:411] inception_4d/5x5_reduce -> inception_4d/5x5_reduce
I0718 14:33:21.708617 33824 net.cpp:150] Setting up inception_4d/5x5_reduce
I0718 14:33:21.708641 33824 net.cpp:157] Top shape: 4 32 62 62 (492032)
I0718 14:33:21.708649 33824 net.cpp:165] Memory required for data: 3707490352
I0718 14:33:21.708662 33824 layer_factory.hpp:76] Creating layer inception_4d/relu_5x5_reduce
I0718 14:33:21.708673 33824 net.cpp:106] Creating Layer inception_4d/relu_5x5_reduce
I0718 14:33:21.708683 33824 net.cpp:454] inception_4d/relu_5x5_reduce <- inception_4d/5x5_reduce
I0718 14:33:21.708695 33824 net.cpp:397] inception_4d/relu_5x5_reduce -> inception_4d/5x5_reduce (in-place)
I0718 14:33:21.709101 33824 net.cpp:150] Setting up inception_4d/relu_5x5_reduce
I0718 14:33:21.709123 33824 net.cpp:157] Top shape: 4 32 62 62 (492032)
I0718 14:33:21.709132 33824 net.cpp:165] Memory required for data: 3709458480
I0718 14:33:21.709141 33824 layer_factory.hpp:76] Creating layer inception_4d/5x5
I0718 14:33:21.709156 33824 net.cpp:106] Creating Layer inception_4d/5x5
I0718 14:33:21.709167 33824 net.cpp:454] inception_4d/5x5 <- inception_4d/5x5_reduce
I0718 14:33:21.709179 33824 net.cpp:411] inception_4d/5x5 -> inception_4d/5x5
I0718 14:33:21.710829 33824 net.cpp:150] Setting up inception_4d/5x5
I0718 14:33:21.710852 33824 net.cpp:157] Top shape: 4 64 62 62 (984064)
I0718 14:33:21.710861 33824 net.cpp:165] Memory required for data: 3713394736
I0718 14:33:21.710873 33824 layer_factory.hpp:76] Creating layer inception_4d/relu_5x5
I0718 14:33:21.710886 33824 net.cpp:106] Creating Layer inception_4d/relu_5x5
I0718 14:33:21.710896 33824 net.cpp:454] inception_4d/relu_5x5 <- inception_4d/5x5
I0718 14:33:21.710923 33824 net.cpp:397] inception_4d/relu_5x5 -> inception_4d/5x5 (in-place)
I0718 14:33:21.711335 33824 net.cpp:150] Setting up inception_4d/relu_5x5
I0718 14:33:21.711359 33824 net.cpp:157] Top shape: 4 64 62 62 (984064)
I0718 14:33:21.711366 33824 net.cpp:165] Memory required for data: 3717330992
I0718 14:33:21.711375 33824 layer_factory.hpp:76] Creating layer inception_4d/pool
I0718 14:33:21.711387 33824 net.cpp:106] Creating Layer inception_4d/pool
I0718 14:33:21.711396 33824 net.cpp:454] inception_4d/pool <- inception_4c/output_inception_4c/output_0_split_3
I0718 14:33:21.711410 33824 net.cpp:411] inception_4d/pool -> inception_4d/pool
I0718 14:33:21.711704 33824 net.cpp:150] Setting up inception_4d/pool
I0718 14:33:21.711730 33824 net.cpp:157] Top shape: 4 512 62 62 (7872512)
I0718 14:33:21.711738 33824 net.cpp:165] Memory required for data: 3748821040
I0718 14:33:21.711748 33824 layer_factory.hpp:76] Creating layer inception_4d/pool_proj
I0718 14:33:21.711760 33824 net.cpp:106] Creating Layer inception_4d/pool_proj
I0718 14:33:21.711771 33824 net.cpp:454] inception_4d/pool_proj <- inception_4d/pool
I0718 14:33:21.711782 33824 net.cpp:411] inception_4d/pool_proj -> inception_4d/pool_proj
I0718 14:33:21.713457 33824 net.cpp:150] Setting up inception_4d/pool_proj
I0718 14:33:21.713480 33824 net.cpp:157] Top shape: 4 64 62 62 (984064)
I0718 14:33:21.713490 33824 net.cpp:165] Memory required for data: 3752757296
I0718 14:33:21.713501 33824 layer_factory.hpp:76] Creating layer inception_4d/relu_pool_proj
I0718 14:33:21.713512 33824 net.cpp:106] Creating Layer inception_4d/relu_pool_proj
I0718 14:33:21.713522 33824 net.cpp:454] inception_4d/relu_pool_proj <- inception_4d/pool_proj
I0718 14:33:21.713537 33824 net.cpp:397] inception_4d/relu_pool_proj -> inception_4d/pool_proj (in-place)
I0718 14:33:21.713949 33824 net.cpp:150] Setting up inception_4d/relu_pool_proj
I0718 14:33:21.713971 33824 net.cpp:157] Top shape: 4 64 62 62 (984064)
I0718 14:33:21.713981 33824 net.cpp:165] Memory required for data: 3756693552
I0718 14:33:21.713989 33824 layer_factory.hpp:76] Creating layer inception_4d/output
I0718 14:33:21.714004 33824 net.cpp:106] Creating Layer inception_4d/output
I0718 14:33:21.714013 33824 net.cpp:454] inception_4d/output <- inception_4d/1x1
I0718 14:33:21.714023 33824 net.cpp:454] inception_4d/output <- inception_4d/3x3
I0718 14:33:21.714032 33824 net.cpp:454] inception_4d/output <- inception_4d/5x5
I0718 14:33:21.714041 33824 net.cpp:454] inception_4d/output <- inception_4d/pool_proj
I0718 14:33:21.714053 33824 net.cpp:411] inception_4d/output -> inception_4d/output
I0718 14:33:21.714109 33824 net.cpp:150] Setting up inception_4d/output
I0718 14:33:21.714123 33824 net.cpp:157] Top shape: 4 528 62 62 (8118528)
I0718 14:33:21.714130 33824 net.cpp:165] Memory required for data: 3789167664
I0718 14:33:21.714138 33824 layer_factory.hpp:76] Creating layer inception_4d/output_inception_4d/output_0_split
I0718 14:33:21.714150 33824 net.cpp:106] Creating Layer inception_4d/output_inception_4d/output_0_split
I0718 14:33:21.714159 33824 net.cpp:454] inception_4d/output_inception_4d/output_0_split <- inception_4d/output
I0718 14:33:21.714169 33824 net.cpp:411] inception_4d/output_inception_4d/output_0_split -> inception_4d/output_inception_4d/output_0_split_0
I0718 14:33:21.714182 33824 net.cpp:411] inception_4d/output_inception_4d/output_0_split -> inception_4d/output_inception_4d/output_0_split_1
I0718 14:33:21.714193 33824 net.cpp:411] inception_4d/output_inception_4d/output_0_split -> inception_4d/output_inception_4d/output_0_split_2
I0718 14:33:21.714205 33824 net.cpp:411] inception_4d/output_inception_4d/output_0_split -> inception_4d/output_inception_4d/output_0_split_3
I0718 14:33:21.714320 33824 net.cpp:150] Setting up inception_4d/output_inception_4d/output_0_split
I0718 14:33:21.714334 33824 net.cpp:157] Top shape: 4 528 62 62 (8118528)
I0718 14:33:21.714342 33824 net.cpp:157] Top shape: 4 528 62 62 (8118528)
I0718 14:33:21.714351 33824 net.cpp:157] Top shape: 4 528 62 62 (8118528)
I0718 14:33:21.714375 33824 net.cpp:157] Top shape: 4 528 62 62 (8118528)
I0718 14:33:21.714383 33824 net.cpp:165] Memory required for data: 3919064112
I0718 14:33:21.714392 33824 layer_factory.hpp:76] Creating layer inception_4e/1x1
I0718 14:33:21.714406 33824 net.cpp:106] Creating Layer inception_4e/1x1
I0718 14:33:21.714416 33824 net.cpp:454] inception_4e/1x1 <- inception_4d/output_inception_4d/output_0_split_0
I0718 14:33:21.714428 33824 net.cpp:411] inception_4e/1x1 -> inception_4e/1x1
I0718 14:33:21.717454 33824 cudnn_conv_layer.cpp:194] Reallocating workspace storage: 6336
I0718 14:33:21.717514 33824 net.cpp:150] Setting up inception_4e/1x1
I0718 14:33:21.717538 33824 net.cpp:157] Top shape: 4 256 62 62 (3936256)
I0718 14:33:21.717553 33824 net.cpp:165] Memory required for data: 3934809136
I0718 14:33:21.717568 33824 layer_factory.hpp:76] Creating layer inception_4e/relu_1x1
I0718 14:33:21.717581 33824 net.cpp:106] Creating Layer inception_4e/relu_1x1
I0718 14:33:21.717589 33824 net.cpp:454] inception_4e/relu_1x1 <- inception_4e/1x1
I0718 14:33:21.717599 33824 net.cpp:397] inception_4e/relu_1x1 -> inception_4e/1x1 (in-place)
I0718 14:33:21.717844 33824 net.cpp:150] Setting up inception_4e/relu_1x1
I0718 14:33:21.717864 33824 net.cpp:157] Top shape: 4 256 62 62 (3936256)
I0718 14:33:21.717874 33824 net.cpp:165] Memory required for data: 3950554160
I0718 14:33:21.717883 33824 layer_factory.hpp:76] Creating layer inception_4e/3x3_reduce
I0718 14:33:21.717901 33824 net.cpp:106] Creating Layer inception_4e/3x3_reduce
I0718 14:33:21.717911 33824 net.cpp:454] inception_4e/3x3_reduce <- inception_4d/output_inception_4d/output_0_split_1
I0718 14:33:21.717926 33824 net.cpp:411] inception_4e/3x3_reduce -> inception_4e/3x3_reduce
I0718 14:33:21.720355 33824 net.cpp:150] Setting up inception_4e/3x3_reduce
I0718 14:33:21.720386 33824 net.cpp:157] Top shape: 4 160 62 62 (2460160)
I0718 14:33:21.720398 33824 net.cpp:165] Memory required for data: 3960394800
I0718 14:33:21.720418 33824 layer_factory.hpp:76] Creating layer inception_4e/relu_3x3_reduce
I0718 14:33:21.720435 33824 net.cpp:106] Creating Layer inception_4e/relu_3x3_reduce
I0718 14:33:21.720449 33824 net.cpp:454] inception_4e/relu_3x3_reduce <- inception_4e/3x3_reduce
I0718 14:33:21.720464 33824 net.cpp:397] inception_4e/relu_3x3_reduce -> inception_4e/3x3_reduce (in-place)
I0718 14:33:21.720764 33824 net.cpp:150] Setting up inception_4e/relu_3x3_reduce
I0718 14:33:21.720791 33824 net.cpp:157] Top shape: 4 160 62 62 (2460160)
I0718 14:33:21.720803 33824 net.cpp:165] Memory required for data: 3970235440
I0718 14:33:21.720815 33824 layer_factory.hpp:76] Creating layer inception_4e/3x3
I0718 14:33:21.720836 33824 net.cpp:106] Creating Layer inception_4e/3x3
I0718 14:33:21.720849 33824 net.cpp:454] inception_4e/3x3 <- inception_4e/3x3_reduce
I0718 14:33:21.720865 33824 net.cpp:411] inception_4e/3x3 -> inception_4e/3x3
I0718 14:33:21.728075 33824 net.cpp:150] Setting up inception_4e/3x3
I0718 14:33:21.728107 33824 net.cpp:157] Top shape: 4 320 62 62 (4920320)
I0718 14:33:21.728121 33824 net.cpp:165] Memory required for data: 3989916720
I0718 14:33:21.728137 33824 layer_factory.hpp:76] Creating layer inception_4e/relu_3x3
I0718 14:33:21.728155 33824 net.cpp:106] Creating Layer inception_4e/relu_3x3
I0718 14:33:21.728168 33824 net.cpp:454] inception_4e/relu_3x3 <- inception_4e/3x3
I0718 14:33:21.728183 33824 net.cpp:397] inception_4e/relu_3x3 -> inception_4e/3x3 (in-place)
I0718 14:33:21.728679 33824 net.cpp:150] Setting up inception_4e/relu_3x3
I0718 14:33:21.728708 33824 net.cpp:157] Top shape: 4 320 62 62 (4920320)
I0718 14:33:21.728719 33824 net.cpp:165] Memory required for data: 4009598000
I0718 14:33:21.728732 33824 layer_factory.hpp:76] Creating layer inception_4e/5x5_reduce
I0718 14:33:21.728755 33824 net.cpp:106] Creating Layer inception_4e/5x5_reduce
I0718 14:33:21.728770 33824 net.cpp:454] inception_4e/5x5_reduce <- inception_4d/output_inception_4d/output_0_split_2
I0718 14:33:21.728790 33824 net.cpp:411] inception_4e/5x5_reduce -> inception_4e/5x5_reduce
I0718 14:33:21.730835 33824 net.cpp:150] Setting up inception_4e/5x5_reduce
I0718 14:33:21.730865 33824 net.cpp:157] Top shape: 4 32 62 62 (492032)
I0718 14:33:21.730877 33824 net.cpp:165] Memory required for data: 4011566128
I0718 14:33:21.730895 33824 layer_factory.hpp:76] Creating layer inception_4e/relu_5x5_reduce
I0718 14:33:21.730916 33824 net.cpp:106] Creating Layer inception_4e/relu_5x5_reduce
I0718 14:33:21.730931 33824 net.cpp:454] inception_4e/relu_5x5_reduce <- inception_4e/5x5_reduce
I0718 14:33:21.730945 33824 net.cpp:397] inception_4e/relu_5x5_reduce -> inception_4e/5x5_reduce (in-place)
I0718 14:33:21.731262 33824 net.cpp:150] Setting up inception_4e/relu_5x5_reduce
I0718 14:33:21.731288 33824 net.cpp:157] Top shape: 4 32 62 62 (492032)
I0718 14:33:21.731302 33824 net.cpp:165] Memory required for data: 4013534256
I0718 14:33:21.731314 33824 layer_factory.hpp:76] Creating layer inception_4e/5x5
I0718 14:33:21.731333 33824 net.cpp:106] Creating Layer inception_4e/5x5
I0718 14:33:21.731346 33824 net.cpp:454] inception_4e/5x5 <- inception_4e/5x5_reduce
I0718 14:33:21.731361 33824 net.cpp:411] inception_4e/5x5 -> inception_4e/5x5
I0718 14:33:21.747159 33824 cudnn_conv_layer.cpp:194] Reallocating workspace storage: 9600
I0718 14:33:21.747238 33824 net.cpp:150] Setting up inception_4e/5x5
I0718 14:33:21.747262 33824 net.cpp:157] Top shape: 4 128 62 62 (1968128)
I0718 14:33:21.747277 33824 net.cpp:165] Memory required for data: 4021406768
I0718 14:33:21.747294 33824 layer_factory.hpp:76] Creating layer inception_4e/relu_5x5
I0718 14:33:21.747310 33824 net.cpp:106] Creating Layer inception_4e/relu_5x5
I0718 14:33:21.747321 33824 net.cpp:454] inception_4e/relu_5x5 <- inception_4e/5x5
I0718 14:33:21.747333 33824 net.cpp:397] inception_4e/relu_5x5 -> inception_4e/5x5 (in-place)
I0718 14:33:21.747582 33824 net.cpp:150] Setting up inception_4e/relu_5x5
I0718 14:33:21.747608 33824 net.cpp:157] Top shape: 4 128 62 62 (1968128)
I0718 14:33:21.747622 33824 net.cpp:165] Memory required for data: 4029279280
I0718 14:33:21.747637 33824 layer_factory.hpp:76] Creating layer inception_4e/pool
I0718 14:33:21.747658 33824 net.cpp:106] Creating Layer inception_4e/pool
I0718 14:33:21.747674 33824 net.cpp:454] inception_4e/pool <- inception_4d/output_inception_4d/output_0_split_3
I0718 14:33:21.747699 33824 net.cpp:411] inception_4e/pool -> inception_4e/pool
I0718 14:33:21.748219 33824 net.cpp:150] Setting up inception_4e/pool
I0718 14:33:21.748240 33824 net.cpp:157] Top shape: 4 528 62 62 (8118528)
I0718 14:33:21.748250 33824 net.cpp:165] Memory required for data: 4061753392
I0718 14:33:21.748258 33824 layer_factory.hpp:76] Creating layer inception_4e/pool_proj
I0718 14:33:21.748273 33824 net.cpp:106] Creating Layer inception_4e/pool_proj
I0718 14:33:21.748284 33824 net.cpp:454] inception_4e/pool_proj <- inception_4e/pool
I0718 14:33:21.748298 33824 net.cpp:411] inception_4e/pool_proj -> inception_4e/pool_proj
I0718 14:33:21.750663 33824 cudnn_conv_layer.cpp:194] Reallocating workspace storage: 6336
I0718 14:33:21.750743 33824 net.cpp:150] Setting up inception_4e/pool_proj
I0718 14:33:21.750769 33824 net.cpp:157] Top shape: 4 128 62 62 (1968128)
I0718 14:33:21.750782 33824 net.cpp:165] Memory required for data: 4069625904
I0718 14:33:21.750800 33824 layer_factory.hpp:76] Creating layer inception_4e/relu_pool_proj
I0718 14:33:21.750820 33824 net.cpp:106] Creating Layer inception_4e/relu_pool_proj
I0718 14:33:21.750835 33824 net.cpp:454] inception_4e/relu_pool_proj <- inception_4e/pool_proj
I0718 14:33:21.750854 33824 net.cpp:397] inception_4e/relu_pool_proj -> inception_4e/pool_proj (in-place)
I0718 14:33:21.751137 33824 net.cpp:150] Setting up inception_4e/relu_pool_proj
I0718 14:33:21.751163 33824 net.cpp:157] Top shape: 4 128 62 62 (1968128)
I0718 14:33:21.751174 33824 net.cpp:165] Memory required for data: 4077498416
I0718 14:33:21.751183 33824 layer_factory.hpp:76] Creating layer inception_4e/output
I0718 14:33:21.751195 33824 net.cpp:106] Creating Layer inception_4e/output
I0718 14:33:21.751204 33824 net.cpp:454] inception_4e/output <- inception_4e/1x1
I0718 14:33:21.751237 33824 net.cpp:454] inception_4e/output <- inception_4e/3x3
I0718 14:33:21.751247 33824 net.cpp:454] inception_4e/output <- inception_4e/5x5
I0718 14:33:21.751256 33824 net.cpp:454] inception_4e/output <- inception_4e/pool_proj
I0718 14:33:21.751276 33824 net.cpp:411] inception_4e/output -> inception_4e/output
I0718 14:33:21.751338 33824 net.cpp:150] Setting up inception_4e/output
I0718 14:33:21.751363 33824 net.cpp:157] Top shape: 4 832 62 62 (12792832)
I0718 14:33:21.751377 33824 net.cpp:165] Memory required for data: 4128669744
I0718 14:33:21.751389 33824 layer_factory.hpp:76] Creating layer pool4/3x3_s2
I0718 14:33:21.751400 33824 net.cpp:106] Creating Layer pool4/3x3_s2
I0718 14:33:21.751410 33824 net.cpp:454] pool4/3x3_s2 <- inception_4e/output
I0718 14:33:21.751420 33824 net.cpp:411] pool4/3x3_s2 -> pool4/3x3_s2
I0718 14:33:21.752012 33824 net.cpp:150] Setting up pool4/3x3_s2
I0718 14:33:21.752041 33824 net.cpp:157] Top shape: 4 832 31 31 (3198208)
I0718 14:33:21.752054 33824 net.cpp:165] Memory required for data: 4141462576
I0718 14:33:21.752068 33824 layer_factory.hpp:76] Creating layer pool4/3x3_s2_pool4/3x3_s2_0_split
I0718 14:33:21.752084 33824 net.cpp:106] Creating Layer pool4/3x3_s2_pool4/3x3_s2_0_split
I0718 14:33:21.752097 33824 net.cpp:454] pool4/3x3_s2_pool4/3x3_s2_0_split <- pool4/3x3_s2
I0718 14:33:21.752117 33824 net.cpp:411] pool4/3x3_s2_pool4/3x3_s2_0_split -> pool4/3x3_s2_pool4/3x3_s2_0_split_0
I0718 14:33:21.752135 33824 net.cpp:411] pool4/3x3_s2_pool4/3x3_s2_0_split -> pool4/3x3_s2_pool4/3x3_s2_0_split_1
I0718 14:33:21.752151 33824 net.cpp:411] pool4/3x3_s2_pool4/3x3_s2_0_split -> pool4/3x3_s2_pool4/3x3_s2_0_split_2
I0718 14:33:21.752166 33824 net.cpp:411] pool4/3x3_s2_pool4/3x3_s2_0_split -> pool4/3x3_s2_pool4/3x3_s2_0_split_3
I0718 14:33:21.752331 33824 net.cpp:150] Setting up pool4/3x3_s2_pool4/3x3_s2_0_split
I0718 14:33:21.752351 33824 net.cpp:157] Top shape: 4 832 31 31 (3198208)
I0718 14:33:21.752365 33824 net.cpp:157] Top shape: 4 832 31 31 (3198208)
I0718 14:33:21.752378 33824 net.cpp:157] Top shape: 4 832 31 31 (3198208)
I0718 14:33:21.752391 33824 net.cpp:157] Top shape: 4 832 31 31 (3198208)
I0718 14:33:21.752401 33824 net.cpp:165] Memory required for data: 4192633904
I0718 14:33:21.752413 33824 layer_factory.hpp:76] Creating layer inception_5a/1x1
I0718 14:33:21.752434 33824 net.cpp:106] Creating Layer inception_5a/1x1
I0718 14:33:21.752454 33824 net.cpp:454] inception_5a/1x1 <- pool4/3x3_s2_pool4/3x3_s2_0_split_0
I0718 14:33:21.752470 33824 net.cpp:411] inception_5a/1x1 -> inception_5a/1x1
I0718 14:33:21.756868 33824 cudnn_conv_layer.cpp:194] Reallocating workspace storage: 9984
I0718 14:33:21.756937 33824 net.cpp:150] Setting up inception_5a/1x1
I0718 14:33:21.756963 33824 net.cpp:157] Top shape: 4 256 31 31 (984064)
I0718 14:33:21.756976 33824 net.cpp:165] Memory required for data: 4196570160
I0718 14:33:21.756994 33824 layer_factory.hpp:76] Creating layer inception_5a/relu_1x1
I0718 14:33:21.757015 33824 net.cpp:106] Creating Layer inception_5a/relu_1x1
I0718 14:33:21.757028 33824 net.cpp:454] inception_5a/relu_1x1 <- inception_5a/1x1
I0718 14:33:21.757043 33824 net.cpp:397] inception_5a/relu_1x1 -> inception_5a/1x1 (in-place)
I0718 14:33:21.757359 33824 net.cpp:150] Setting up inception_5a/relu_1x1
I0718 14:33:21.757383 33824 net.cpp:157] Top shape: 4 256 31 31 (984064)
I0718 14:33:21.757395 33824 net.cpp:165] Memory required for data: 4200506416
I0718 14:33:21.757412 33824 layer_factory.hpp:76] Creating layer inception_5a/3x3_reduce
I0718 14:33:21.757434 33824 net.cpp:106] Creating Layer inception_5a/3x3_reduce
I0718 14:33:21.757447 33824 net.cpp:454] inception_5a/3x3_reduce <- pool4/3x3_s2_pool4/3x3_s2_0_split_1
I0718 14:33:21.757467 33824 net.cpp:411] inception_5a/3x3_reduce -> inception_5a/3x3_reduce
I0718 14:33:21.761276 33824 cudnn_conv_layer.cpp:194] Reallocating workspace storage: 9984
I0718 14:33:21.761359 33824 net.cpp:150] Setting up inception_5a/3x3_reduce
I0718 14:33:21.761382 33824 net.cpp:157] Top shape: 4 160 31 31 (615040)
I0718 14:33:21.761416 33824 net.cpp:165] Memory required for data: 4202966576
I0718 14:33:21.761435 33824 layer_factory.hpp:76] Creating layer inception_5a/relu_3x3_reduce
I0718 14:33:21.761451 33824 net.cpp:106] Creating Layer inception_5a/relu_3x3_reduce
I0718 14:33:21.761466 33824 net.cpp:454] inception_5a/relu_3x3_reduce <- inception_5a/3x3_reduce
I0718 14:33:21.761483 33824 net.cpp:397] inception_5a/relu_3x3_reduce -> inception_5a/3x3_reduce (in-place)
I0718 14:33:21.761786 33824 net.cpp:150] Setting up inception_5a/relu_3x3_reduce
I0718 14:33:21.761811 33824 net.cpp:157] Top shape: 4 160 31 31 (615040)
I0718 14:33:21.761823 33824 net.cpp:165] Memory required for data: 4205426736
I0718 14:33:21.761836 33824 layer_factory.hpp:76] Creating layer inception_5a/3x3
I0718 14:33:21.761857 33824 net.cpp:106] Creating Layer inception_5a/3x3
I0718 14:33:21.761876 33824 net.cpp:454] inception_5a/3x3 <- inception_5a/3x3_reduce
I0718 14:33:21.761895 33824 net.cpp:411] inception_5a/3x3 -> inception_5a/3x3
I0718 14:33:21.768875 33824 net.cpp:150] Setting up inception_5a/3x3
I0718 14:33:21.768910 33824 net.cpp:157] Top shape: 4 320 31 31 (1230080)
I0718 14:33:21.768925 33824 net.cpp:165] Memory required for data: 4210347056
I0718 14:33:21.768944 33824 layer_factory.hpp:76] Creating layer inception_5a/relu_3x3
I0718 14:33:21.768965 33824 net.cpp:106] Creating Layer inception_5a/relu_3x3
I0718 14:33:21.768978 33824 net.cpp:454] inception_5a/relu_3x3 <- inception_5a/3x3
I0718 14:33:21.768995 33824 net.cpp:397] inception_5a/relu_3x3 -> inception_5a/3x3 (in-place)
I0718 14:33:21.769719 33824 net.cpp:150] Setting up inception_5a/relu_3x3
I0718 14:33:21.769748 33824 net.cpp:157] Top shape: 4 320 31 31 (1230080)
I0718 14:33:21.769762 33824 net.cpp:165] Memory required for data: 4215267376
I0718 14:33:21.769778 33824 layer_factory.hpp:76] Creating layer inception_5a/5x5_reduce
I0718 14:33:21.769795 33824 net.cpp:106] Creating Layer inception_5a/5x5_reduce
I0718 14:33:21.769809 33824 net.cpp:454] inception_5a/5x5_reduce <- pool4/3x3_s2_pool4/3x3_s2_0_split_2
I0718 14:33:21.769825 33824 net.cpp:411] inception_5a/5x5_reduce -> inception_5a/5x5_reduce
I0718 14:33:21.772155 33824 cudnn_conv_layer.cpp:194] Reallocating workspace storage: 9984
I0718 14:33:21.772230 33824 net.cpp:150] Setting up inception_5a/5x5_reduce
I0718 14:33:21.772253 33824 net.cpp:157] Top shape: 4 32 31 31 (123008)
I0718 14:33:21.772266 33824 net.cpp:165] Memory required for data: 4215759408
I0718 14:33:21.772284 33824 layer_factory.hpp:76] Creating layer inception_5a/relu_5x5_reduce
I0718 14:33:21.772300 33824 net.cpp:106] Creating Layer inception_5a/relu_5x5_reduce
I0718 14:33:21.772315 33824 net.cpp:454] inception_5a/relu_5x5_reduce <- inception_5a/5x5_reduce
I0718 14:33:21.772333 33824 net.cpp:397] inception_5a/relu_5x5_reduce -> inception_5a/5x5_reduce (in-place)
I0718 14:33:21.772639 33824 net.cpp:150] Setting up inception_5a/relu_5x5_reduce
I0718 14:33:21.772665 33824 net.cpp:157] Top shape: 4 32 31 31 (123008)
I0718 14:33:21.772677 33824 net.cpp:165] Memory required for data: 4216251440
I0718 14:33:21.772691 33824 layer_factory.hpp:76] Creating layer inception_5a/5x5
I0718 14:33:21.772733 33824 net.cpp:106] Creating Layer inception_5a/5x5
I0718 14:33:21.772752 33824 net.cpp:454] inception_5a/5x5 <- inception_5a/5x5_reduce
I0718 14:33:21.772770 33824 net.cpp:411] inception_5a/5x5 -> inception_5a/5x5
I0718 14:33:21.775519 33824 cudnn_conv_layer.cpp:194] Reallocating workspace storage: 9600
I0718 14:33:21.775590 33824 net.cpp:150] Setting up inception_5a/5x5
I0718 14:33:21.775614 33824 net.cpp:157] Top shape: 4 128 31 31 (492032)
I0718 14:33:21.775626 33824 net.cpp:165] Memory required for data: 4218219568
I0718 14:33:21.775645 33824 layer_factory.hpp:76] Creating layer inception_5a/relu_5x5
I0718 14:33:21.775663 33824 net.cpp:106] Creating Layer inception_5a/relu_5x5
I0718 14:33:21.775678 33824 net.cpp:454] inception_5a/relu_5x5 <- inception_5a/5x5
I0718 14:33:21.775702 33824 net.cpp:397] inception_5a/relu_5x5 -> inception_5a/5x5 (in-place)
I0718 14:33:21.775997 33824 net.cpp:150] Setting up inception_5a/relu_5x5
I0718 14:33:21.776068 33824 net.cpp:157] Top shape: 4 128 31 31 (492032)
I0718 14:33:21.776082 33824 net.cpp:165] Memory required for data: 4220187696
I0718 14:33:21.776096 33824 layer_factory.hpp:76] Creating layer inception_5a/pool
I0718 14:33:21.776114 33824 net.cpp:106] Creating Layer inception_5a/pool
I0718 14:33:21.776129 33824 net.cpp:454] inception_5a/pool <- pool4/3x3_s2_pool4/3x3_s2_0_split_3
I0718 14:33:21.776152 33824 net.cpp:411] inception_5a/pool -> inception_5a/pool
I0718 14:33:21.776738 33824 net.cpp:150] Setting up inception_5a/pool
I0718 14:33:21.776767 33824 net.cpp:157] Top shape: 4 832 31 31 (3198208)
I0718 14:33:21.776779 33824 net.cpp:165] Memory required for data: 4232980528
I0718 14:33:21.776793 33824 layer_factory.hpp:76] Creating layer inception_5a/pool_proj
I0718 14:33:21.776814 33824 net.cpp:106] Creating Layer inception_5a/pool_proj
I0718 14:33:21.776829 33824 net.cpp:454] inception_5a/pool_proj <- inception_5a/pool
I0718 14:33:21.776846 33824 net.cpp:411] inception_5a/pool_proj -> inception_5a/pool_proj
I0718 14:33:21.780325 33824 cudnn_conv_layer.cpp:194] Reallocating workspace storage: 9984
I0718 14:33:21.780413 33824 net.cpp:150] Setting up inception_5a/pool_proj
I0718 14:33:21.780434 33824 net.cpp:157] Top shape: 4 128 31 31 (492032)
I0718 14:33:21.780447 33824 net.cpp:165] Memory required for data: 4234948656
I0718 14:33:21.780462 33824 layer_factory.hpp:76] Creating layer inception_5a/relu_pool_proj
I0718 14:33:21.780478 33824 net.cpp:106] Creating Layer inception_5a/relu_pool_proj
I0718 14:33:21.780498 33824 net.cpp:454] inception_5a/relu_pool_proj <- inception_5a/pool_proj
I0718 14:33:21.780511 33824 net.cpp:397] inception_5a/relu_pool_proj -> inception_5a/pool_proj (in-place)
I0718 14:33:21.780823 33824 net.cpp:150] Setting up inception_5a/relu_pool_proj
I0718 14:33:21.780858 33824 net.cpp:157] Top shape: 4 128 31 31 (492032)
I0718 14:33:21.780874 33824 net.cpp:165] Memory required for data: 4236916784
I0718 14:33:21.780885 33824 layer_factory.hpp:76] Creating layer inception_5a/output
I0718 14:33:21.780905 33824 net.cpp:106] Creating Layer inception_5a/output
I0718 14:33:21.780921 33824 net.cpp:454] inception_5a/output <- inception_5a/1x1
I0718 14:33:21.780936 33824 net.cpp:454] inception_5a/output <- inception_5a/3x3
I0718 14:33:21.780952 33824 net.cpp:454] inception_5a/output <- inception_5a/5x5
I0718 14:33:21.780966 33824 net.cpp:454] inception_5a/output <- inception_5a/pool_proj
I0718 14:33:21.780987 33824 net.cpp:411] inception_5a/output -> inception_5a/output
I0718 14:33:21.781069 33824 net.cpp:150] Setting up inception_5a/output
I0718 14:33:21.781088 33824 net.cpp:157] Top shape: 4 832 31 31 (3198208)
I0718 14:33:21.781100 33824 net.cpp:165] Memory required for data: 4249709616
I0718 14:33:21.781116 33824 layer_factory.hpp:76] Creating layer inception_5a/output_inception_5a/output_0_split
I0718 14:33:21.781136 33824 net.cpp:106] Creating Layer inception_5a/output_inception_5a/output_0_split
I0718 14:33:21.781148 33824 net.cpp:454] inception_5a/output_inception_5a/output_0_split <- inception_5a/output
I0718 14:33:21.781167 33824 net.cpp:411] inception_5a/output_inception_5a/output_0_split -> inception_5a/output_inception_5a/output_0_split_0
I0718 14:33:21.781183 33824 net.cpp:411] inception_5a/output_inception_5a/output_0_split -> inception_5a/output_inception_5a/output_0_split_1
I0718 14:33:21.781200 33824 net.cpp:411] inception_5a/output_inception_5a/output_0_split -> inception_5a/output_inception_5a/output_0_split_2
I0718 14:33:21.781216 33824 net.cpp:411] inception_5a/output_inception_5a/output_0_split -> inception_5a/output_inception_5a/output_0_split_3
I0718 14:33:21.781404 33824 net.cpp:150] Setting up inception_5a/output_inception_5a/output_0_split
I0718 14:33:21.781424 33824 net.cpp:157] Top shape: 4 832 31 31 (3198208)
I0718 14:33:21.781438 33824 net.cpp:157] Top shape: 4 832 31 31 (3198208)
I0718 14:33:21.781451 33824 net.cpp:157] Top shape: 4 832 31 31 (3198208)
I0718 14:33:21.781464 33824 net.cpp:157] Top shape: 4 832 31 31 (3198208)
I0718 14:33:21.781497 33824 net.cpp:165] Memory required for data: 4300880944
I0718 14:33:21.781512 33824 layer_factory.hpp:76] Creating layer inception_5b/1x1
I0718 14:33:21.781534 33824 net.cpp:106] Creating Layer inception_5b/1x1
I0718 14:33:21.781551 33824 net.cpp:454] inception_5b/1x1 <- inception_5a/output_inception_5a/output_0_split_0
I0718 14:33:21.781569 33824 net.cpp:411] inception_5b/1x1 -> inception_5b/1x1
I0718 14:33:21.787050 33824 cudnn_conv_layer.cpp:194] Reallocating workspace storage: 9984
I0718 14:33:21.787122 33824 net.cpp:150] Setting up inception_5b/1x1
I0718 14:33:21.787145 33824 net.cpp:157] Top shape: 4 384 31 31 (1476096)
I0718 14:33:21.787158 33824 net.cpp:165] Memory required for data: 4306785328
I0718 14:33:21.787175 33824 layer_factory.hpp:76] Creating layer inception_5b/relu_1x1
I0718 14:33:21.787195 33824 net.cpp:106] Creating Layer inception_5b/relu_1x1
I0718 14:33:21.787209 33824 net.cpp:454] inception_5b/relu_1x1 <- inception_5b/1x1
I0718 14:33:21.787225 33824 net.cpp:397] inception_5b/relu_1x1 -> inception_5b/1x1 (in-place)
I0718 14:33:21.787739 33824 net.cpp:150] Setting up inception_5b/relu_1x1
I0718 14:33:21.787766 33824 net.cpp:157] Top shape: 4 384 31 31 (1476096)
I0718 14:33:21.787780 33824 net.cpp:165] Memory required for data: 4312689712
I0718 14:33:21.787792 33824 layer_factory.hpp:76] Creating layer inception_5b/3x3_reduce
I0718 14:33:21.787819 33824 net.cpp:106] Creating Layer inception_5b/3x3_reduce
I0718 14:33:21.787834 33824 net.cpp:454] inception_5b/3x3_reduce <- inception_5a/output_inception_5a/output_0_split_1
I0718 14:33:21.787852 33824 net.cpp:411] inception_5b/3x3_reduce -> inception_5b/3x3_reduce
I0718 14:33:21.791766 33824 cudnn_conv_layer.cpp:194] Reallocating workspace storage: 9984
I0718 14:33:21.791827 33824 net.cpp:150] Setting up inception_5b/3x3_reduce
I0718 14:33:21.791844 33824 net.cpp:157] Top shape: 4 192 31 31 (738048)
I0718 14:33:21.791851 33824 net.cpp:165] Memory required for data: 4315641904
I0718 14:33:21.791863 33824 layer_factory.hpp:76] Creating layer inception_5b/relu_3x3_reduce
I0718 14:33:21.791874 33824 net.cpp:106] Creating Layer inception_5b/relu_3x3_reduce
I0718 14:33:21.791882 33824 net.cpp:454] inception_5b/relu_3x3_reduce <- inception_5b/3x3_reduce
I0718 14:33:21.791893 33824 net.cpp:397] inception_5b/relu_3x3_reduce -> inception_5b/3x3_reduce (in-place)
I0718 14:33:21.792382 33824 net.cpp:150] Setting up inception_5b/relu_3x3_reduce
I0718 14:33:21.792398 33824 net.cpp:157] Top shape: 4 192 31 31 (738048)
I0718 14:33:21.792407 33824 net.cpp:165] Memory required for data: 4318594096
I0718 14:33:21.792414 33824 layer_factory.hpp:76] Creating layer inception_5b/3x3
I0718 14:33:21.792429 33824 net.cpp:106] Creating Layer inception_5b/3x3
I0718 14:33:21.792438 33824 net.cpp:454] inception_5b/3x3 <- inception_5b/3x3_reduce
I0718 14:33:21.792450 33824 net.cpp:411] inception_5b/3x3 -> inception_5b/3x3
I0718 14:33:21.800146 33824 net.cpp:150] Setting up inception_5b/3x3
I0718 14:33:21.800176 33824 net.cpp:157] Top shape: 4 384 31 31 (1476096)
I0718 14:33:21.800185 33824 net.cpp:165] Memory required for data: 4324498480
I0718 14:33:21.800201 33824 layer_factory.hpp:76] Creating layer inception_5b/relu_3x3
I0718 14:33:21.800212 33824 net.cpp:106] Creating Layer inception_5b/relu_3x3
I0718 14:33:21.800222 33824 net.cpp:454] inception_5b/relu_3x3 <- inception_5b/3x3
I0718 14:33:21.800235 33824 net.cpp:397] inception_5b/relu_3x3 -> inception_5b/3x3 (in-place)
I0718 14:33:21.800462 33824 net.cpp:150] Setting up inception_5b/relu_3x3
I0718 14:33:21.800479 33824 net.cpp:157] Top shape: 4 384 31 31 (1476096)
I0718 14:33:21.800487 33824 net.cpp:165] Memory required for data: 4330402864
I0718 14:33:21.800496 33824 layer_factory.hpp:76] Creating layer inception_5b/5x5_reduce
I0718 14:33:21.800510 33824 net.cpp:106] Creating Layer inception_5b/5x5_reduce
I0718 14:33:21.800520 33824 net.cpp:454] inception_5b/5x5_reduce <- inception_5a/output_inception_5a/output_0_split_2
I0718 14:33:21.800534 33824 net.cpp:411] inception_5b/5x5_reduce -> inception_5b/5x5_reduce
I0718 14:33:21.802340 33824 net.cpp:150] Setting up inception_5b/5x5_reduce
I0718 14:33:21.802363 33824 net.cpp:157] Top shape: 4 48 31 31 (184512)
I0718 14:33:21.802372 33824 net.cpp:165] Memory required for data: 4331140912
I0718 14:33:21.802384 33824 layer_factory.hpp:76] Creating layer inception_5b/relu_5x5_reduce
I0718 14:33:21.802397 33824 net.cpp:106] Creating Layer inception_5b/relu_5x5_reduce
I0718 14:33:21.802407 33824 net.cpp:454] inception_5b/relu_5x5_reduce <- inception_5b/5x5_reduce
I0718 14:33:21.802420 33824 net.cpp:397] inception_5b/relu_5x5_reduce -> inception_5b/5x5_reduce (in-place)
I0718 14:33:21.802851 33824 net.cpp:150] Setting up inception_5b/relu_5x5_reduce
I0718 14:33:21.802873 33824 net.cpp:157] Top shape: 4 48 31 31 (184512)
I0718 14:33:21.802882 33824 net.cpp:165] Memory required for data: 4331878960
I0718 14:33:21.802891 33824 layer_factory.hpp:76] Creating layer inception_5b/5x5
I0718 14:33:21.802906 33824 net.cpp:106] Creating Layer inception_5b/5x5
I0718 14:33:21.802917 33824 net.cpp:454] inception_5b/5x5 <- inception_5b/5x5_reduce
I0718 14:33:21.802927 33824 net.cpp:411] inception_5b/5x5 -> inception_5b/5x5
I0718 14:33:21.805375 33824 net.cpp:150] Setting up inception_5b/5x5
I0718 14:33:21.805397 33824 net.cpp:157] Top shape: 4 128 31 31 (492032)
I0718 14:33:21.805405 33824 net.cpp:165] Memory required for data: 4333847088
I0718 14:33:21.805418 33824 layer_factory.hpp:76] Creating layer inception_5b/relu_5x5
I0718 14:33:21.805430 33824 net.cpp:106] Creating Layer inception_5b/relu_5x5
I0718 14:33:21.805440 33824 net.cpp:454] inception_5b/relu_5x5 <- inception_5b/5x5
I0718 14:33:21.805452 33824 net.cpp:397] inception_5b/relu_5x5 -> inception_5b/5x5 (in-place)
I0718 14:33:21.805857 33824 net.cpp:150] Setting up inception_5b/relu_5x5
I0718 14:33:21.805879 33824 net.cpp:157] Top shape: 4 128 31 31 (492032)
I0718 14:33:21.805887 33824 net.cpp:165] Memory required for data: 4335815216
I0718 14:33:21.805896 33824 layer_factory.hpp:76] Creating layer inception_5b/pool
I0718 14:33:21.805909 33824 net.cpp:106] Creating Layer inception_5b/pool
I0718 14:33:21.805918 33824 net.cpp:454] inception_5b/pool <- inception_5a/output_inception_5a/output_0_split_3
I0718 14:33:21.805932 33824 net.cpp:411] inception_5b/pool -> inception_5b/pool
I0718 14:33:21.806391 33824 net.cpp:150] Setting up inception_5b/pool
I0718 14:33:21.806411 33824 net.cpp:157] Top shape: 4 832 31 31 (3198208)
I0718 14:33:21.806419 33824 net.cpp:165] Memory required for data: 4348608048
I0718 14:33:21.806428 33824 layer_factory.hpp:76] Creating layer inception_5b/pool_proj
I0718 14:33:21.806442 33824 net.cpp:106] Creating Layer inception_5b/pool_proj
I0718 14:33:21.806452 33824 net.cpp:454] inception_5b/pool_proj <- inception_5b/pool
I0718 14:33:21.806465 33824 net.cpp:411] inception_5b/pool_proj -> inception_5b/pool_proj
I0718 14:33:21.809341 33824 cudnn_conv_layer.cpp:194] Reallocating workspace storage: 9984
I0718 14:33:21.809404 33824 net.cpp:150] Setting up inception_5b/pool_proj
I0718 14:33:21.809419 33824 net.cpp:157] Top shape: 4 128 31 31 (492032)
I0718 14:33:21.809428 33824 net.cpp:165] Memory required for data: 4350576176
I0718 14:33:21.809439 33824 layer_factory.hpp:76] Creating layer inception_5b/relu_pool_proj
I0718 14:33:21.809451 33824 net.cpp:106] Creating Layer inception_5b/relu_pool_proj
I0718 14:33:21.809461 33824 net.cpp:454] inception_5b/relu_pool_proj <- inception_5b/pool_proj
I0718 14:33:21.809473 33824 net.cpp:397] inception_5b/relu_pool_proj -> inception_5b/pool_proj (in-place)
I0718 14:33:21.809880 33824 net.cpp:150] Setting up inception_5b/relu_pool_proj
I0718 14:33:21.809900 33824 net.cpp:157] Top shape: 4 128 31 31 (492032)
I0718 14:33:21.809908 33824 net.cpp:165] Memory required for data: 4352544304
I0718 14:33:21.809917 33824 layer_factory.hpp:76] Creating layer inception_5b/output
I0718 14:33:21.809929 33824 net.cpp:106] Creating Layer inception_5b/output
I0718 14:33:21.809938 33824 net.cpp:454] inception_5b/output <- inception_5b/1x1
I0718 14:33:21.809948 33824 net.cpp:454] inception_5b/output <- inception_5b/3x3
I0718 14:33:21.809976 33824 net.cpp:454] inception_5b/output <- inception_5b/5x5
I0718 14:33:21.809986 33824 net.cpp:454] inception_5b/output <- inception_5b/pool_proj
I0718 14:33:21.809999 33824 net.cpp:411] inception_5b/output -> inception_5b/output
I0718 14:33:21.810060 33824 net.cpp:150] Setting up inception_5b/output
I0718 14:33:21.810075 33824 net.cpp:157] Top shape: 4 1024 31 31 (3936256)
I0718 14:33:21.810083 33824 net.cpp:165] Memory required for data: 4368289328
I0718 14:33:21.810091 33824 layer_factory.hpp:76] Creating layer pool5/7x7_s1
I0718 14:33:21.810109 33824 net.cpp:106] Creating Layer pool5/7x7_s1
I0718 14:33:21.810118 33824 net.cpp:454] pool5/7x7_s1 <- inception_5b/output
I0718 14:33:21.810130 33824 net.cpp:411] pool5/7x7_s1 -> pool5/7x7_s1
I0718 14:33:22.052561 33824 cudnn_conv_layer.cpp:194] Reallocating workspace storage: 602112
I0718 14:33:22.052844 33824 net.cpp:150] Setting up pool5/7x7_s1
I0718 14:33:22.052868 33824 net.cpp:157] Top shape: 4 512 25 25 (1280000)
I0718 14:33:22.052878 33824 net.cpp:165] Memory required for data: 4373409328
I0718 14:33:22.052894 33824 layer_factory.hpp:76] Creating layer conv61
I0718 14:33:22.052919 33824 net.cpp:106] Creating Layer conv61
I0718 14:33:22.052932 33824 net.cpp:454] conv61 <- pool5/7x7_s1
I0718 14:33:22.052947 33824 net.cpp:411] conv61 -> conv61
I0718 14:33:22.057559 33824 cudnn_conv_layer.cpp:194] Reallocating workspace storage: 55296
I0718 14:33:22.057626 33824 net.cpp:150] Setting up conv61
I0718 14:33:22.057642 33824 net.cpp:157] Top shape: 4 64 25 25 (160000)
I0718 14:33:22.057652 33824 net.cpp:165] Memory required for data: 4374049328
I0718 14:33:22.057667 33824 layer_factory.hpp:76] Creating layer relu61
I0718 14:33:22.057685 33824 net.cpp:106] Creating Layer relu61
I0718 14:33:22.057696 33824 net.cpp:454] relu61 <- conv61
I0718 14:33:22.057708 33824 net.cpp:397] relu61 -> conv61 (in-place)
I0718 14:33:22.058118 33824 net.cpp:150] Setting up relu61
I0718 14:33:22.058140 33824 net.cpp:157] Top shape: 4 64 25 25 (160000)
I0718 14:33:22.058149 33824 net.cpp:165] Memory required for data: 4374689328
I0718 14:33:22.058158 33824 layer_factory.hpp:76] Creating layer pool5
I0718 14:33:22.058173 33824 net.cpp:106] Creating Layer pool5
I0718 14:33:22.058182 33824 net.cpp:454] pool5 <- conv61
I0718 14:33:22.058197 33824 net.cpp:411] pool5 -> pool5
I0718 14:33:22.058739 33824 net.cpp:150] Setting up pool5
I0718 14:33:22.058761 33824 net.cpp:157] Top shape: 4 64 13 13 (43264)
I0718 14:33:22.058770 33824 net.cpp:165] Memory required for data: 4374862384
I0718 14:33:22.058779 33824 layer_factory.hpp:76] Creating layer conv62
I0718 14:33:22.058796 33824 net.cpp:106] Creating Layer conv62
I0718 14:33:22.058806 33824 net.cpp:454] conv62 <- pool5
I0718 14:33:22.058817 33824 net.cpp:411] conv62 -> conv62
I0718 14:33:22.061185 33824 net.cpp:150] Setting up conv62
I0718 14:33:22.061233 33824 net.cpp:157] Top shape: 4 64 13 13 (43264)
I0718 14:33:22.061244 33824 net.cpp:165] Memory required for data: 4375035440
I0718 14:33:22.061259 33824 layer_factory.hpp:76] Creating layer relu62
I0718 14:33:22.061275 33824 net.cpp:106] Creating Layer relu62
I0718 14:33:22.061286 33824 net.cpp:454] relu62 <- conv62
I0718 14:33:22.061297 33824 net.cpp:397] relu62 -> conv62 (in-place)
I0718 14:33:22.061744 33824 net.cpp:150] Setting up relu62
I0718 14:33:22.061769 33824 net.cpp:157] Top shape: 4 64 13 13 (43264)
I0718 14:33:22.061779 33824 net.cpp:165] Memory required for data: 4375208496
I0718 14:33:22.061787 33824 layer_factory.hpp:76] Creating layer pool6
I0718 14:33:22.061801 33824 net.cpp:106] Creating Layer pool6
I0718 14:33:22.061811 33824 net.cpp:454] pool6 <- conv62
I0718 14:33:22.061822 33824 net.cpp:411] pool6 -> pool6
I0718 14:33:22.062170 33824 net.cpp:150] Setting up pool6
I0718 14:33:22.062192 33824 net.cpp:157] Top shape: 4 64 7 7 (12544)
I0718 14:33:22.062201 33824 net.cpp:165] Memory required for data: 4375258672
I0718 14:33:22.062211 33824 layer_factory.hpp:76] Creating layer conv82
I0718 14:33:22.062229 33824 net.cpp:106] Creating Layer conv82
I0718 14:33:22.062301 33824 net.cpp:454] conv82 <- pool6
I0718 14:33:22.062317 33824 net.cpp:411] conv82 -> conv82
I0718 14:33:22.065276 33824 cudnn_conv_layer.cpp:194] Reallocating workspace storage: 6912
I0718 14:33:22.065387 33824 net.cpp:150] Setting up conv82
I0718 14:33:22.065410 33824 net.cpp:157] Top shape: 4 128 7 7 (25088)
I0718 14:33:22.065419 33824 net.cpp:165] Memory required for data: 4375359024
I0718 14:33:22.065435 33824 layer_factory.hpp:76] Creating layer relu82
I0718 14:33:22.065451 33824 net.cpp:106] Creating Layer relu82
I0718 14:33:22.065466 33824 net.cpp:454] relu82 <- conv82
I0718 14:33:22.065477 33824 net.cpp:397] relu82 -> conv82 (in-place)
I0718 14:33:22.066164 33824 net.cpp:150] Setting up relu82
I0718 14:33:22.066193 33824 net.cpp:157] Top shape: 4 128 7 7 (25088)
I0718 14:33:22.066203 33824 net.cpp:165] Memory required for data: 4375459376
I0718 14:33:22.066213 33824 layer_factory.hpp:76] Creating layer pool7
I0718 14:33:22.066226 33824 net.cpp:106] Creating Layer pool7
I0718 14:33:22.066236 33824 net.cpp:454] pool7 <- conv82
I0718 14:33:22.066248 33824 net.cpp:411] pool7 -> pool7
I0718 14:33:22.066543 33824 net.cpp:150] Setting up pool7
I0718 14:33:22.066562 33824 net.cpp:157] Top shape: 4 128 4 4 (8192)
I0718 14:33:22.066572 33824 net.cpp:165] Memory required for data: 4375492144
I0718 14:33:22.066581 33824 layer_factory.hpp:76] Creating layer drop0
I0718 14:33:22.066593 33824 net.cpp:106] Creating Layer drop0
I0718 14:33:22.066602 33824 net.cpp:454] drop0 <- pool7
I0718 14:33:22.066614 33824 net.cpp:397] drop0 -> pool7 (in-place)
I0718 14:33:22.066702 33824 net.cpp:150] Setting up drop0
I0718 14:33:22.066721 33824 net.cpp:157] Top shape: 4 128 4 4 (8192)
I0718 14:33:22.066730 33824 net.cpp:165] Memory required for data: 4375524912
I0718 14:33:22.066738 33824 layer_factory.hpp:76] Creating layer conv91
I0718 14:33:22.066756 33824 net.cpp:106] Creating Layer conv91
I0718 14:33:22.066766 33824 net.cpp:454] conv91 <- pool7
I0718 14:33:22.066777 33824 net.cpp:411] conv91 -> conv91
I0718 14:33:22.069124 33824 cudnn_conv_layer.cpp:194] Reallocating workspace storage: 6211584
I0718 14:33:22.069552 33824 net.cpp:150] Setting up conv91
I0718 14:33:22.069578 33824 net.cpp:157] Top shape: 4 3 1 1 (12)
I0718 14:33:22.069588 33824 net.cpp:165] Memory required for data: 4375524960
I0718 14:33:22.069605 33824 layer_factory.hpp:76] Creating layer conv91_conv91_0_split
I0718 14:33:22.069624 33824 net.cpp:106] Creating Layer conv91_conv91_0_split
I0718 14:33:22.069635 33824 net.cpp:454] conv91_conv91_0_split <- conv91
I0718 14:33:22.069648 33824 net.cpp:411] conv91_conv91_0_split -> conv91_conv91_0_split_0
I0718 14:33:22.069664 33824 net.cpp:411] conv91_conv91_0_split -> conv91_conv91_0_split_1
I0718 14:33:22.069777 33824 net.cpp:150] Setting up conv91_conv91_0_split
I0718 14:33:22.069792 33824 net.cpp:157] Top shape: 4 3 1 1 (12)
I0718 14:33:22.069802 33824 net.cpp:157] Top shape: 4 3 1 1 (12)
I0718 14:33:22.069809 33824 net.cpp:165] Memory required for data: 4375525056
I0718 14:33:22.069818 33824 layer_factory.hpp:76] Creating layer accuracy
I0718 14:33:22.069829 33824 net.cpp:106] Creating Layer accuracy
I0718 14:33:22.069839 33824 net.cpp:454] accuracy <- conv91_conv91_0_split_0
I0718 14:33:22.069849 33824 net.cpp:454] accuracy <- label_data_1_split_0
I0718 14:33:22.069859 33824 net.cpp:411] accuracy -> accuracy
…
