…
I0718 14:14:45.692035 30362 net.cpp:322] The NetState phase (0) differed from the phase (1) specified by a rule in layer data
I0718 14:14:45.692996 30362 net.cpp:49] Initializing net from parameters: 
name: "GoogleNet"
state {
  phase: TRAIN
}
layer {
  name: "data"
  type: "ImageData"
  top: "data"
  top: "label"
  include {
    phase: TRAIN
  }
  transform_param {
    mirror: true
    mean_value: 163
    mean_value: 116
    mean_value: 181
  }
  image_data_param {
    source: "../lists/mitosis_train.lst"
    batch_size: 6
    shuffle: true
  }
}
layer {
  name: "conv1/7x7_s2"
  type: "Convolution"
  bottom: "data"
  top: "conv1/7x7_s2"
  param {
    lr_mult: 0
    decay_mult: 1
  }
  param {
    lr_mult: 2
    decay_mult: 0
  }
  convolution_param {
    num_output: 64
    pad: 3
    kernel_size: 7
    stride: 2
    weight_filler {
      type: "xavier"
    }
    bias_filler {
      type: "constant"
      value: 0.2
    }
  }
}
layer {
  name: "conv1/relu_7x7"
  type: "ReLU"
  bottom: "conv1/7x7_s2"
  top: "conv1/7x7_s2"
}
layer {
  name: "pool1/3x3_s2"
  type: "Pooling"
  bottom: "conv1/7x7_s2"
  top: "pool1/3x3_s2"
  pooling_param {
    pool: MAX
    kernel_size: 3
    stride: 2
  }
}
layer {
  name: "pool1/norm1"
  type: "LRN"
  bottom: "pool1/3x3_s2"
  top: "pool1/norm1"
  lrn_param {
    local_size: 5
    alpha: 0.0001
    beta: 0.75
  }
}
layer {
  name: "conv2/3x3_reduce"
  type: "Convolution"
  bottom: "pool1/norm1"
  top: "conv2/3x3_reduce"
  param {
    lr_mult: 0
    decay_mult: 1
  }
  param {
    lr_mult: 2
    decay_mult: 0
  }
  convolution_param {
    num_output: 64
    kernel_size: 1
    weight_filler {
      type: "xavier"
    }
    bias_filler {
      type: "constant"
      value: 0.2
    }
  }
}
layer {
  name: "conv2/relu_3x3_reduce"
  type: "ReLU"
  bottom: "conv2/3x3_reduce"
  top: "conv2/3x3_reduce"
}
layer {
  name: "conv2/3x3"
  type: "Convolution"
  bottom: "conv2/3x3_reduce"
  top: "conv2/3x3"
  param {
    lr_mult: 0
    decay_mult: 1
  }
  param {
    lr_mult: 2
    decay_mult: 0
  }
  convolution_param {
    num_output: 192
    pad: 1
    kernel_size: 3
    weight_filler {
      type: "xavier"
    }
    bias_filler {
      type: "constant"
      value: 0.2
    }
  }
}
layer {
  name: "conv2/relu_3x3"
  type: "ReLU"
  bottom: "conv2/3x3"
  top: "conv2/3x3"
}
layer {
  name: "conv2/norm2"
  type: "LRN"
  bottom: "conv2/3x3"
  top: "conv2/norm2"
  lrn_param {
    local_size: 5
    alpha: 0.0001
    beta: 0.75
  }
}
layer {
  name: "pool2/3x3_s2"
  type: "Pooling"
  bottom: "conv2/norm2"
  top: "pool2/3x3_s2"
  pooling_param {
    pool: MAX
    kernel_size: 3
    stride: 2
  }
}
layer {
  name: "inception_3a/1x1"
  type: "Convolution"
  bottom: "pool2/3x3_s2"
  top: "inception_3a/1x1"
  param {
    lr_mult: 0
    decay_mult: 1
  }
  param {
    lr_mult: 2
    decay_mult: 0
  }
  convolution_param {
    num_output: 64
    kernel_size: 1
    weight_filler {
      type: "xavier"
    }
    bias_filler {
      type: "constant"
      value: 0.2
    }
  }
}
layer {
  name: "inception_3a/relu_1x1"
  type: "ReLU"
  bottom: "inception_3a/1x1"
  top: "inception_3a/1x1"
}
layer {
  name: "inception_3a/3x3_reduce"
  type: "Convolution"
  bottom: "pool2/3x3_s2"
  top: "inception_3a/3x3_reduce"
  param {
    lr_mult: 0
    decay_mult: 1
  }
  param {
    lr_mult: 2
    decay_mult: 0
  }
  convolution_param {
    num_output: 96
    kernel_size: 1
    weight_filler {
      type: "xavier"
    }
    bias_filler {
      type: "constant"
      value: 0.2
    }
  }
}
layer {
  name: "inception_3a/relu_3x3_reduce"
  type: "ReLU"
  bottom: "inception_3a/3x3_reduce"
  top: "inception_3a/3x3_reduce"
}
layer {
  name: "inception_3a/3x3"
  type: "Convolution"
  bottom: "inception_3a/3x3_reduce"
  top: "inception_3a/3x3"
  param {
    lr_mult: 0
    decay_mult: 1
  }
  param {
    lr_mult: 2
    decay_mult: 0
  }
  convolution_param {
    num_output: 128
    pad: 1
    kernel_size: 3
    weight_filler {
      type: "xavier"
    }
    bias_filler {
      type: "constant"
      value: 0.2
    }
  }
}
layer {
  name: "inception_3a/relu_3x3"
  type: "ReLU"
  bottom: "inception_3a/3x3"
  top: "inception_3a/3x3"
}
layer {
  name: "inception_3a/5x5_reduce"
  type: "Convolution"
  bottom: "pool2/3x3_s2"
  top: "inception_3a/5x5_reduce"
  param {
    lr_mult: 0
    decay_mult: 1
  }
  param {
    lr_mult: 2
    decay_mult: 0
  }
  convolution_param {
    num_output: 16
    kernel_size: 1
    weight_filler {
      type: "xavier"
    }
    bias_filler {
      type: "constant"
      value: 0.2
    }
  }
}
layer {
  name: "inception_3a/relu_5x5_reduce"
  type: "ReLU"
  bottom: "inception_3a/5x5_reduce"
  top: "inception_3a/5x5_reduce"
}
layer {
  name: "inception_3a/5x5"
  type: "Convolution"
  bottom: "inception_3a/5x5_reduce"
  top: "inception_3a/5x5"
  param {
    lr_mult: 0
    decay_mult: 1
  }
  param {
    lr_mult: 2
    decay_mult: 0
  }
  convolution_param {
    num_output: 32
    pad: 2
    kernel_size: 5
    weight_filler {
      type: "xavier"
    }
    bias_filler {
      type: "constant"
      value: 0.2
    }
  }
}
layer {
  name: "inception_3a/relu_5x5"
  type: "ReLU"
  bottom: "inception_3a/5x5"
  top: "inception_3a/5x5"
}
layer {
  name: "inception_3a/pool"
  type: "Pooling"
  bottom: "pool2/3x3_s2"
  top: "inception_3a/pool"
  pooling_param {
    pool: MAX
    kernel_size: 3
    stride: 1
    pad: 1
  }
}
layer {
  name: "inception_3a/pool_proj"
  type: "Convolution"
  bottom: "inception_3a/pool"
  top: "inception_3a/pool_proj"
  param {
    lr_mult: 0
    decay_mult: 1
  }
  param {
    lr_mult: 2
    decay_mult: 0
  }
  convolution_param {
    num_output: 32
    kernel_size: 1
    weight_filler {
      type: "xavier"
    }
    bias_filler {
      type: "constant"
      value: 0.2
    }
  }
}
layer {
  name: "inception_3a/relu_pool_proj"
  type: "ReLU"
  bottom: "inception_3a/pool_proj"
  top: "inception_3a/pool_proj"
}
layer {
  name: "inception_3a/output"
  type: "Concat"
  bottom: "inception_3a/1x1"
  bottom: "inception_3a/3x3"
  bottom: "inception_3a/5x5"
  bottom: "inception_3a/pool_proj"
  top: "inception_3a/output"
}
layer {
  name: "inception_3b/1x1"
  type: "Convolution"
  bottom: "inception_3a/output"
  top: "inception_3b/1x1"
  param {
    lr_mult: 0
    decay_mult: 1
  }
  param {
    lr_mult: 2
    decay_mult: 0
  }
  convolution_param {
    num_output: 128
    kernel_size: 1
    weight_filler {
      type: "xavier"
    }
    bias_filler {
      type: "constant"
      value: 0.2
    }
  }
}
layer {
  name: "inception_3b/relu_1x1"
  type: "ReLU"
  bottom: "inception_3b/1x1"
  top: "inception_3b/1x1"
}
layer {
  name: "inception_3b/3x3_reduce"
  type: "Convolution"
  bottom: "inception_3a/output"
  top: "inception_3b/3x3_reduce"
  param {
    lr_mult: 0
    decay_mult: 1
  }
  param {
    lr_mult: 2
    decay_mult: 0
  }
  convolution_param {
    num_output: 128
    kernel_size: 1
    weight_filler {
      type: "xavier"
    }
    bias_filler {
      type: "constant"
      value: 0.2
    }
  }
}
layer {
  name: "inception_3b/relu_3x3_reduce"
  type: "ReLU"
  bottom: "inception_3b/3x3_reduce"
  top: "inception_3b/3x3_reduce"
}
layer {
  name: "inception_3b/3x3"
  type: "Convolution"
  bottom: "inception_3b/3x3_reduce"
  top: "inception_3b/3x3"
  param {
    lr_mult: 0
    decay_mult: 1
  }
  param {
    lr_mult: 2
    decay_mult: 0
  }
  convolution_param {
    num_output: 192
    pad: 1
    kernel_size: 3
    weight_filler {
      type: "xavier"
    }
    bias_filler {
      type: "constant"
      value: 0.2
    }
  }
}
layer {
  name: "inception_3b/relu_3x3"
  type: "ReLU"
  bottom: "inception_3b/3x3"
  top: "inception_3b/3x3"
}
layer {
  name: "inception_3b/5x5_reduce"
  type: "Convolution"
  bottom: "inception_3a/output"
  top: "inception_3b/5x5_reduce"
  param {
    lr_mult: 0
    decay_mult: 1
  }
  param {
    lr_mult: 2
    decay_mult: 0
  }
  convolution_param {
    num_output: 32
    kernel_size: 1
    weight_filler {
      type: "xavier"
    }
    bias_filler {
      type: "constant"
      value: 0.2
    }
  }
}
layer {
  name: "inception_3b/relu_5x5_reduce"
  type: "ReLU"
  bottom: "inception_3b/5x5_reduce"
  top: "inception_3b/5x5_reduce"
}
layer {
  name: "inception_3b/5x5"
  type: "Convolution"
  bottom: "inception_3b/5x5_reduce"
  top: "inception_3b/5x5"
  param {
    lr_mult: 0
    decay_mult: 1
  }
  param {
    lr_mult: 2
    decay_mult: 0
  }
  convolution_param {
    num_output: 96
    pad: 2
    kernel_size: 5
    weight_filler {
      type: "xavier"
    }
    bias_filler {
      type: "constant"
      value: 0.2
    }
  }
}
layer {
  name: "inception_3b/relu_5x5"
  type: "ReLU"
  bottom: "inception_3b/5x5"
  top: "inception_3b/5x5"
}
layer {
  name: "inception_3b/pool"
  type: "Pooling"
  bottom: "inception_3a/output"
  top: "inception_3b/pool"
  pooling_param {
    pool: MAX
    kernel_size: 3
    stride: 1
    pad: 1
  }
}
layer {
  name: "inception_3b/pool_proj"
  type: "Convolution"
  bottom: "inception_3b/pool"
  top: "inception_3b/pool_proj"
  param {
    lr_mult: 0
    decay_mult: 1
  }
  param {
    lr_mult: 2
    decay_mult: 0
  }
  convolution_param {
    num_output: 64
    kernel_size: 1
    weight_filler {
      type: "xavier"
    }
    bias_filler {
      type: "constant"
      value: 0.2
    }
  }
}
layer {
  name: "inception_3b/relu_pool_proj"
  type: "ReLU"
  bottom: "inception_3b/pool_proj"
  top: "inception_3b/pool_proj"
}
layer {
  name: "inception_3b/output"
  type: "Concat"
  bottom: "inception_3b/1x1"
  bottom: "inception_3b/3x3"
  bottom: "inception_3b/5x5"
  bottom: "inception_3b/pool_proj"
  top: "inception_3b/output"
}
layer {
  name: "pool3/3x3_s2"
  type: "Pooling"
  bottom: "inception_3b/output"
  top: "pool3/3x3_s2"
  pooling_param {
    pool: MAX
    kernel_size: 3
    stride: 2
  }
}
layer {
  name: "inception_4a/1x1"
  type: "Convolution"
  bottom: "pool3/3x3_s2"
  top: "inception_4a/1x1"
  param {
    lr_mult: 0
    decay_mult: 1
  }
  param {
    lr_mult: 2
    decay_mult: 0
  }
  convolution_param {
    num_output: 192
    kernel_size: 1
    weight_filler {
      type: "xavier"
    }
    bias_filler {
      type: "constant"
      value: 0.2
    }
  }
}
layer {
  name: "inception_4a/relu_1x1"
  type: "ReLU"
  bottom: "inception_4a/1x1"
  top: "inception_4a/1x1"
}
layer {
  name: "inception_4a/3x3_reduce"
  type: "Convolution"
  bottom: "pool3/3x3_s2"
  top: "inception_4a/3x3_reduce"
  param {
    lr_mult: 0
    decay_mult: 1
  }
  param {
    lr_mult: 2
    decay_mult: 0
  }
  convolution_param {
    num_output: 96
    kernel_size: 1
    weight_filler {
      type: "xavier"
    }
    bias_filler {
      type: "constant"
      value: 0.2
    }
  }
}
layer {
  name: "inception_4a/relu_3x3_reduce"
  type: "ReLU"
  bottom: "inception_4a/3x3_reduce"
  top: "inception_4a/3x3_reduce"
}
layer {
  name: "inception_4a/3x3"
  type: "Convolution"
  bottom: "inception_4a/3x3_reduce"
  top: "inception_4a/3x3"
  param {
    lr_mult: 0
    decay_mult: 1
  }
  param {
    lr_mult: 2
    decay_mult: 0
  }
  convolution_param {
    num_output: 208
    pad: 1
    kernel_size: 3
    weight_filler {
      type: "xavier"
    }
    bias_filler {
      type: "constant"
      value: 0.2
    }
  }
}
layer {
  name: "inception_4a/relu_3x3"
  type: "ReLU"
  bottom: "inception_4a/3x3"
  top: "inception_4a/3x3"
}
layer {
  name: "inception_4a/5x5_reduce"
  type: "Convolution"
  bottom: "pool3/3x3_s2"
  top: "inception_4a/5x5_reduce"
  param {
    lr_mult: 0
    decay_mult: 1
  }
  param {
    lr_mult: 2
    decay_mult: 0
  }
  convolution_param {
    num_output: 16
    kernel_size: 1
    weight_filler {
      type: "xavier"
    }
    bias_filler {
      type: "constant"
      value: 0.2
    }
  }
}
layer {
  name: "inception_4a/relu_5x5_reduce"
  type: "ReLU"
  bottom: "inception_4a/5x5_reduce"
  top: "inception_4a/5x5_reduce"
}
layer {
  name: "inception_4a/5x5"
  type: "Convolution"
  bottom: "inception_4a/5x5_reduce"
  top: "inception_4a/5x5"
  param {
    lr_mult: 0
    decay_mult: 1
  }
  param {
    lr_mult: 2
    decay_mult: 0
  }
  convolution_param {
    num_output: 48
    pad: 2
    kernel_size: 5
    weight_filler {
      type: "xavier"
    }
    bias_filler {
      type: "constant"
      value: 0.2
    }
  }
}
layer {
  name: "inception_4a/relu_5x5"
  type: "ReLU"
  bottom: "inception_4a/5x5"
  top: "inception_4a/5x5"
}
layer {
  name: "inception_4a/pool"
  type: "Pooling"
  bottom: "pool3/3x3_s2"
  top: "inception_4a/pool"
  pooling_param {
    pool: MAX
    kernel_size: 3
    stride: 1
    pad: 1
  }
}
layer {
  name: "inception_4a/pool_proj"
  type: "Convolution"
  bottom: "inception_4a/pool"
  top: "inception_4a/pool_proj"
  param {
    lr_mult: 0
    decay_mult: 1
  }
  param {
    lr_mult: 2
    decay_mult: 0
  }
  convolution_param {
    num_output: 64
    kernel_size: 1
    weight_filler {
      type: "xavier"
    }
    bias_filler {
      type: "constant"
      value: 0.2
    }
  }
}
layer {
  name: "inception_4a/relu_pool_proj"
  type: "ReLU"
  bottom: "inception_4a/pool_proj"
  top: "inception_4a/pool_proj"
}
layer {
  name: "inception_4a/output"
  type: "Concat"
  bottom: "inception_4a/1x1"
  bottom: "inception_4a/3x3"
  bottom: "inception_4a/5x5"
  bottom: "inception_4a/pool_proj"
  top: "inception_4a/output"
}
layer {
  name: "inception_4b/1x1"
  type: "Convolution"
  bottom: "inception_4a/output"
  top: "inception_4b/1x1"
  param {
    lr_mult: 0
    decay_mult: 1
  }
  param {
    lr_mult: 2
    decay_mult: 0
  }
  convolution_param {
    num_output: 160
    kernel_size: 1
    weight_filler {
      type: "xavier"
    }
    bias_filler {
      type: "constant"
      value: 0.2
    }
  }
}
layer {
  name: "inception_4b/relu_1x1"
  type: "ReLU"
  bottom: "inception_4b/1x1"
  top: "inception_4b/1x1"
}
layer {
  name: "inception_4b/3x3_reduce"
  type: "Convolution"
  bottom: "inception_4a/output"
  top: "inception_4b/3x3_reduce"
  param {
    lr_mult: 0
    decay_mult: 1
  }
  param {
    lr_mult: 2
    decay_mult: 0
  }
  convolution_param {
    num_output: 112
    kernel_size: 1
    weight_filler {
      type: "xavier"
    }
    bias_filler {
      type: "constant"
      value: 0.2
    }
  }
}
layer {
  name: "inception_4b/relu_3x3_reduce"
  type: "ReLU"
  bottom: "inception_4b/3x3_reduce"
  top: "inception_4b/3x3_reduce"
}
layer {
  name: "inception_4b/3x3"
  type: "Convolution"
  bottom: "inception_4b/3x3_reduce"
  top: "inception_4b/3x3"
  param {
    lr_mult: 0
    decay_mult: 1
  }
  param {
    lr_mult: 2
    decay_mult: 0
  }
  convolution_param {
    num_output: 224
    pad: 1
    kernel_size: 3
    weight_filler {
      type: "xavier"
    }
    bias_filler {
      type: "constant"
      value: 0.2
    }
  }
}
layer {
  name: "inception_4b/relu_3x3"
  type: "ReLU"
  bottom: "inception_4b/3x3"
  top: "inception_4b/3x3"
}
layer {
  name: "inception_4b/5x5_reduce"
  type: "Convolution"
  bottom: "inception_4a/output"
  top: "inception_4b/5x5_reduce"
  param {
    lr_mult: 0
    decay_mult: 1
  }
  param {
    lr_mult: 2
    decay_mult: 0
  }
  convolution_param {
    num_output: 24
    kernel_size: 1
    weight_filler {
      type: "xavier"
    }
    bias_filler {
      type: "constant"
      value: 0.2
    }
  }
}
layer {
  name: "inception_4b/relu_5x5_reduce"
  type: "ReLU"
  bottom: "inception_4b/5x5_reduce"
  top: "inception_4b/5x5_reduce"
}
layer {
  name: "inception_4b/5x5"
  type: "Convolution"
  bottom: "inception_4b/5x5_reduce"
  top: "inception_4b/5x5"
  param {
    lr_mult: 0
    decay_mult: 1
  }
  param {
    lr_mult: 2
    decay_mult: 0
  }
  convolution_param {
    num_output: 64
    pad: 2
    kernel_size: 5
    weight_filler {
      type: "xavier"
    }
    bias_filler {
      type: "constant"
      value: 0.2
    }
  }
}
layer {
  name: "inception_4b/relu_5x5"
  type: "ReLU"
  bottom: "inception_4b/5x5"
  top: "inception_4b/5x5"
}
layer {
  name: "inception_4b/pool"
  type: "Pooling"
  bottom: "inception_4a/output"
  top: "inception_4b/pool"
  pooling_param {
    pool: MAX
    kernel_size: 3
    stride: 1
    pad: 1
  }
}
layer {
  name: "inception_4b/pool_proj"
  type: "Convolution"
  bottom: "inception_4b/pool"
  top: "inception_4b/pool_proj"
  param {
    lr_mult: 0
    decay_mult: 1
  }
  param {
    lr_mult: 2
    decay_mult: 0
  }
  convolution_param {
    num_output: 64
    kernel_size: 1
    weight_filler {
      type: "xavier"
    }
    bias_filler {
      type: "constant"
      value: 0.2
    }
  }
}
layer {
  name: "inception_4b/relu_pool_proj"
  type: "ReLU"
  bottom: "inception_4b/pool_proj"
  top: "inception_4b/pool_proj"
}
layer {
  name: "inception_4b/output"
  type: "Concat"
  bottom: "inception_4b/1x1"
  bottom: "inception_4b/3x3"
  bottom: "inception_4b/5x5"
  bottom: "inception_4b/pool_proj"
  top: "inception_4b/output"
}
layer {
  name: "inception_4c/1x1"
  type: "Convolution"
  bottom: "inception_4b/output"
  top: "inception_4c/1x1"
  param {
    lr_mult: 0
    decay_mult: 1
  }
  param {
    lr_mult: 2
    decay_mult: 0
  }
  convolution_param {
    num_output: 128
    kernel_size: 1
    weight_filler {
      type: "xavier"
    }
    bias_filler {
      type: "constant"
      value: 0.2
    }
  }
}
layer {
  name: "inception_4c/relu_1x1"
  type: "ReLU"
  bottom: "inception_4c/1x1"
  top: "inception_4c/1x1"
}
layer {
  name: "inception_4c/3x3_reduce"
  type: "Convolution"
  bottom: "inception_4b/output"
  top: "inception_4c/3x3_reduce"
  param {
    lr_mult: 0
    decay_mult: 1
  }
  param {
    lr_mult: 2
    decay_mult: 0
  }
  convolution_param {
    num_output: 128
    kernel_size: 1
    weight_filler {
      type: "xavier"
    }
    bias_filler {
      type: "constant"
      value: 0.2
    }
  }
}
layer {
  name: "inception_4c/relu_3x3_reduce"
  type: "ReLU"
  bottom: "inception_4c/3x3_reduce"
  top: "inception_4c/3x3_reduce"
}
layer {
  name: "inception_4c/3x3"
  type: "Convolution"
  bottom: "inception_4c/3x3_reduce"
  top: "inception_4c/3x3"
  param {
    lr_mult: 0
    decay_mult: 1
  }
  param {
    lr_mult: 2
    decay_mult: 0
  }
  convolution_param {
    num_output: 256
    pad: 1
    kernel_size: 3
    weight_filler {
      type: "xavier"
    }
    bias_filler {
      type: "constant"
      value: 0.2
    }
  }
}
layer {
  name: "inception_4c/relu_3x3"
  type: "ReLU"
  bottom: "inception_4c/3x3"
  top: "inception_4c/3x3"
}
layer {
  name: "inception_4c/5x5_reduce"
  type: "Convolution"
  bottom: "inception_4b/output"
  top: "inception_4c/5x5_reduce"
  param {
    lr_mult: 0
    decay_mult: 1
  }
  param {
    lr_mult: 2
    decay_mult: 0
  }
  convolution_param {
    num_output: 24
    kernel_size: 1
    weight_filler {
      type: "xavier"
    }
    bias_filler {
      type: "constant"
      value: 0.2
    }
  }
}
layer {
  name: "inception_4c/relu_5x5_reduce"
  type: "ReLU"
  bottom: "inception_4c/5x5_reduce"
  top: "inception_4c/5x5_reduce"
}
layer {
  name: "inception_4c/5x5"
  type: "Convolution"
  bottom: "inception_4c/5x5_reduce"
  top: "inception_4c/5x5"
  param {
    lr_mult: 0
    decay_mult: 1
  }
  param {
    lr_mult: 2
    decay_mult: 0
  }
  convolution_param {
    num_output: 64
    pad: 2
    kernel_size: 5
    weight_filler {
      type: "xavier"
    }
    bias_filler {
      type: "constant"
      value: 0.2
    }
  }
}
layer {
  name: "inception_4c/relu_5x5"
  type: "ReLU"
  bottom: "inception_4c/5x5"
  top: "inception_4c/5x5"
}
layer {
  name: "inception_4c/pool"
  type: "Pooling"
  bottom: "inception_4b/output"
  top: "inception_4c/pool"
  pooling_param {
    pool: MAX
    kernel_size: 3
    stride: 1
    pad: 1
  }
}
layer {
  name: "inception_4c/pool_proj"
  type: "Convolution"
  bottom: "inception_4c/pool"
  top: "inception_4c/pool_proj"
  param {
    lr_mult: 0
    decay_mult: 1
  }
  param {
    lr_mult: 2
    decay_mult: 0
  }
  convolution_param {
    num_output: 64
    kernel_size: 1
    weight_filler {
      type: "xavier"
    }
    bias_filler {
      type: "constant"
      value: 0.2
    }
  }
}
layer {
  name: "inception_4c/relu_pool_proj"
  type: "ReLU"
  bottom: "inception_4c/pool_proj"
  top: "inception_4c/pool_proj"
}
layer {
  name: "inception_4c/output"
  type: "Concat"
  bottom: "inception_4c/1x1"
  bottom: "inception_4c/3x3"
  bottom: "inception_4c/5x5"
  bottom: "inception_4c/pool_proj"
  top: "inception_4c/output"
}
layer {
  name: "inception_4d/1x1"
  type: "Convolution"
  bottom: "inception_4c/output"
  top: "inception_4d/1x1"
  param {
    lr_mult: 0
    decay_mult: 1
  }
  param {
    lr_mult: 2
    decay_mult: 0
  }
  convolution_param {
    num_output: 112
    kernel_size: 1
    weight_filler {
      type: "xavier"
    }
    bias_filler {
      type: "constant"
      value: 0.2
    }
  }
}
layer {
  name: "inception_4d/relu_1x1"
  type: "ReLU"
  bottom: "inception_4d/1x1"
  top: "inception_4d/1x1"
}
layer {
  name: "inception_4d/3x3_reduce"
  type: "Convolution"
  bottom: "inception_4c/output"
  top: "inception_4d/3x3_reduce"
  param {
    lr_mult: 0
    decay_mult: 1
  }
  param {
    lr_mult: 2
    decay_mult: 0
  }
  convolution_param {
    num_output: 144
    kernel_size: 1
    weight_filler {
      type: "xavier"
    }
    bias_filler {
      type: "constant"
      value: 0.2
    }
  }
}
layer {
  name: "inception_4d/relu_3x3_reduce"
  type: "ReLU"
  bottom: "inception_4d/3x3_reduce"
  top: "inception_4d/3x3_reduce"
}
layer {
  name: "inception_4d/3x3"
  type: "Convolution"
  bottom: "inception_4d/3x3_reduce"
  top: "inception_4d/3x3"
  param {
    lr_mult: 0
    decay_mult: 1
  }
  param {
    lr_mult: 2
    decay_mult: 0
  }
  convolution_param {
    num_output: 288
    pad: 1
    kernel_size: 3
    weight_filler {
      type: "xavier"
    }
    bias_filler {
      type: "constant"
      value: 0.2
    }
  }
}
layer {
  name: "inception_4d/relu_3x3"
  type: "ReLU"
  bottom: "inception_4d/3x3"
  top: "inception_4d/3x3"
}
layer {
  name: "inception_4d/5x5_reduce"
  type: "Convolution"
  bottom: "inception_4c/output"
  top: "inception_4d/5x5_reduce"
  param {
    lr_mult: 0
    decay_mult: 1
  }
  param {
    lr_mult: 2
    decay_mult: 0
  }
  convolution_param {
    num_output: 32
    kernel_size: 1
    weight_filler {
      type: "xavier"
    }
    bias_filler {
      type: "constant"
      value: 0.2
    }
  }
}
layer {
  name: "inception_4d/relu_5x5_reduce"
  type: "ReLU"
  bottom: "inception_4d/5x5_reduce"
  top: "inception_4d/5x5_reduce"
}
layer {
  name: "inception_4d/5x5"
  type: "Convolution"
  bottom: "inception_4d/5x5_reduce"
  top: "inception_4d/5x5"
  param {
    lr_mult: 0
    decay_mult: 1
  }
  param {
    lr_mult: 2
    decay_mult: 0
  }
  convolution_param {
    num_output: 64
    pad: 2
    kernel_size: 5
    weight_filler {
      type: "xavier"
    }
    bias_filler {
      type: "constant"
      value: 0.2
    }
  }
}
layer {
  name: "inception_4d/relu_5x5"
  type: "ReLU"
  bottom: "inception_4d/5x5"
  top: "inception_4d/5x5"
}
layer {
  name: "inception_4d/pool"
  type: "Pooling"
  bottom: "inception_4c/output"
  top: "inception_4d/pool"
  pooling_param {
    pool: MAX
    kernel_size: 3
    stride: 1
    pad: 1
  }
}
layer {
  name: "inception_4d/pool_proj"
  type: "Convolution"
  bottom: "inception_4d/pool"
  top: "inception_4d/pool_proj"
  param {
    lr_mult: 0
    decay_mult: 1
  }
  param {
    lr_mult: 2
    decay_mult: 0
  }
  convolution_param {
    num_output: 64
    kernel_size: 1
    weight_filler {
      type: "xavier"
    }
    bias_filler {
      type: "constant"
      value: 0.2
    }
  }
}
layer {
  name: "inception_4d/relu_pool_proj"
  type: "ReLU"
  bottom: "inception_4d/pool_proj"
  top: "inception_4d/pool_proj"
}
layer {
  name: "inception_4d/output"
  type: "Concat"
  bottom: "inception_4d/1x1"
  bottom: "inception_4d/3x3"
  bottom: "inception_4d/5x5"
  bottom: "inception_4d/pool_proj"
  top: "inception_4d/output"
}
layer {
  name: "inception_4e/1x1"
  type: "Convolution"
  bottom: "inception_4d/output"
  top: "inception_4e/1x1"
  param {
    lr_mult: 0
    decay_mult: 1
  }
  param {
    lr_mult: 2
    decay_mult: 0
  }
  convolution_param {
    num_output: 256
    kernel_size: 1
    weight_filler {
      type: "xavier"
    }
    bias_filler {
      type: "constant"
      value: 0.2
    }
  }
}
layer {
  name: "inception_4e/relu_1x1"
  type: "ReLU"
  bottom: "inception_4e/1x1"
  top: "inception_4e/1x1"
}
layer {
  name: "inception_4e/3x3_reduce"
  type: "Convolution"
  bottom: "inception_4d/output"
  top: "inception_4e/3x3_reduce"
  param {
    lr_mult: 0
    decay_mult: 1
  }
  param {
    lr_mult: 2
    decay_mult: 0
  }
  convolution_param {
    num_output: 160
    kernel_size: 1
    weight_filler {
      type: "xavier"
    }
    bias_filler {
      type: "constant"
      value: 0.2
    }
  }
}
layer {
  name: "inception_4e/relu_3x3_reduce"
  type: "ReLU"
  bottom: "inception_4e/3x3_reduce"
  top: "inception_4e/3x3_reduce"
}
layer {
  name: "inception_4e/3x3"
  type: "Convolution"
  bottom: "inception_4e/3x3_reduce"
  top: "inception_4e/3x3"
  param {
    lr_mult: 0
    decay_mult: 1
  }
  param {
    lr_mult: 2
    decay_mult: 0
  }
  convolution_param {
    num_output: 320
    pad: 1
    kernel_size: 3
    weight_filler {
      type: "xavier"
    }
    bias_filler {
      type: "constant"
      value: 0.2
    }
  }
}
layer {
  name: "inception_4e/relu_3x3"
  type: "ReLU"
  bottom: "inception_4e/3x3"
  top: "inception_4e/3x3"
}
layer {
  name: "inception_4e/5x5_reduce"
  type: "Convolution"
  bottom: "inception_4d/output"
  top: "inception_4e/5x5_reduce"
  param {
    lr_mult: 0
    decay_mult: 1
  }
  param {
    lr_mult: 2
    decay_mult: 0
  }
  convolution_param {
    num_output: 32
    kernel_size: 1
    weight_filler {
      type: "xavier"
    }
    bias_filler {
      type: "constant"
      value: 0.2
    }
  }
}
layer {
  name: "inception_4e/relu_5x5_reduce"
  type: "ReLU"
  bottom: "inception_4e/5x5_reduce"
  top: "inception_4e/5x5_reduce"
}
layer {
  name: "inception_4e/5x5"
  type: "Convolution"
  bottom: "inception_4e/5x5_reduce"
  top: "inception_4e/5x5"
  param {
    lr_mult: 0
    decay_mult: 1
  }
  param {
    lr_mult: 2
    decay_mult: 0
  }
  convolution_param {
    num_output: 128
    pad: 2
    kernel_size: 5
    weight_filler {
      type: "xavier"
    }
    bias_filler {
      type: "constant"
      value: 0.2
    }
  }
}
layer {
  name: "inception_4e/relu_5x5"
  type: "ReLU"
  bottom: "inception_4e/5x5"
  top: "inception_4e/5x5"
}
layer {
  name: "inception_4e/pool"
  type: "Pooling"
  bottom: "inception_4d/output"
  top: "inception_4e/pool"
  pooling_param {
    pool: MAX
    kernel_size: 3
    stride: 1
    pad: 1
  }
}
layer {
  name: "inception_4e/pool_proj"
  type: "Convolution"
  bottom: "inception_4e/pool"
  top: "inception_4e/pool_proj"
  param {
    lr_mult: 0
    decay_mult: 1
  }
  param {
    lr_mult: 2
    decay_mult: 0
  }
  convolution_param {
    num_output: 128
    kernel_size: 1
    weight_filler {
      type: "xavier"
    }
    bias_filler {
      type: "constant"
      value: 0.2
    }
  }
}
layer {
  name: "inception_4e/relu_pool_proj"
  type: "ReLU"
  bottom: "inception_4e/pool_proj"
  top: "inception_4e/pool_proj"
}
layer {
  name: "inception_4e/output"
  type: "Concat"
  bottom: "inception_4e/1x1"
  bottom: "inception_4e/3x3"
  bottom: "inception_4e/5x5"
  bottom: "inception_4e/pool_proj"
  top: "inception_4e/output"
}
layer {
  name: "pool4/3x3_s2"
  type: "Pooling"
  bottom: "inception_4e/output"
  top: "pool4/3x3_s2"
  pooling_param {
    pool: MAX
    kernel_size: 3
    stride: 2
  }
}
layer {
  name: "inception_5a/1x1"
  type: "Convolution"
  bottom: "pool4/3x3_s2"
  top: "inception_5a/1x1"
  param {
    lr_mult: 0
    decay_mult: 1
  }
  param {
    lr_mult: 2
    decay_mult: 0
  }
  convolution_param {
    num_output: 256
    kernel_size: 1
    weight_filler {
      type: "xavier"
    }
    bias_filler {
      type: "constant"
      value: 0.2
    }
  }
}
layer {
  name: "inception_5a/relu_1x1"
  type: "ReLU"
  bottom: "inception_5a/1x1"
  top: "inception_5a/1x1"
}
layer {
  name: "inception_5a/3x3_reduce"
  type: "Convolution"
  bottom: "pool4/3x3_s2"
  top: "inception_5a/3x3_reduce"
  param {
    lr_mult: 0
    decay_mult: 1
  }
  param {
    lr_mult: 2
    decay_mult: 0
  }
  convolution_param {
    num_output: 160
    kernel_size: 1
    weight_filler {
      type: "xavier"
    }
    bias_filler {
      type: "constant"
      value: 0.2
    }
  }
}
layer {
  name: "inception_5a/relu_3x3_reduce"
  type: "ReLU"
  bottom: "inception_5a/3x3_reduce"
  top: "inception_5a/3x3_reduce"
}
layer {
  name: "inception_5a/3x3"
  type: "Convolution"
  bottom: "inception_5a/3x3_reduce"
  top: "inception_5a/3x3"
  param {
    lr_mult: 0
    decay_mult: 1
  }
  param {
    lr_mult: 2
    decay_mult: 0
  }
  convolution_param {
    num_output: 320
    pad: 1
    kernel_size: 3
    weight_filler {
      type: "xavier"
    }
    bias_filler {
      type: "constant"
      value: 0.2
    }
  }
}
layer {
  name: "inception_5a/relu_3x3"
  type: "ReLU"
  bottom: "inception_5a/3x3"
  top: "inception_5a/3x3"
}
layer {
  name: "inception_5a/5x5_reduce"
  type: "Convolution"
  bottom: "pool4/3x3_s2"
  top: "inception_5a/5x5_reduce"
  param {
    lr_mult: 0
    decay_mult: 1
  }
  param {
    lr_mult: 2
    decay_mult: 0
  }
  convolution_param {
    num_output: 32
    kernel_size: 1
    weight_filler {
      type: "xavier"
    }
    bias_filler {
      type: "constant"
      value: 0.2
    }
  }
}
layer {
  name: "inception_5a/relu_5x5_reduce"
  type: "ReLU"
  bottom: "inception_5a/5x5_reduce"
  top: "inception_5a/5x5_reduce"
}
layer {
  name: "inception_5a/5x5"
  type: "Convolution"
  bottom: "inception_5a/5x5_reduce"
  top: "inception_5a/5x5"
  param {
    lr_mult: 0
    decay_mult: 1
  }
  param {
    lr_mult: 2
    decay_mult: 0
  }
  convolution_param {
    num_output: 128
    pad: 2
    kernel_size: 5
    weight_filler {
      type: "xavier"
    }
    bias_filler {
      type: "constant"
      value: 0.2
    }
  }
}
layer {
  name: "inception_5a/relu_5x5"
  type: "ReLU"
  bottom: 
I0718 14:14:45.700074 30362 layer_factory.hpp:76] Creating layer data
I0718 14:14:45.700144 30362 net.cpp:106] Creating Layer data
I0718 14:14:45.700161 30362 net.cpp:411] data -> data
I0718 14:14:45.700197 30362 net.cpp:411] data -> label
I0718 14:14:45.700659 30362 image_data_layer.cpp:36] Opening file ../lists/mitosis_train.lst
I0718 14:14:45.712779 30362 image_data_layer.cpp:46] Shuffling data
I0718 14:14:45.715338 30362 image_data_layer.cpp:51] A total of 21366 images.
I0718 14:14:45.884299 30362 image_data_layer.cpp:78] output data size: 6,3,1000,1000
I0718 14:14:46.099206 30362 net.cpp:150] Setting up data
I0718 14:14:46.099298 30362 net.cpp:157] Top shape: 6 3 1000 1000 (18000000)
I0718 14:14:46.099314 30362 net.cpp:157] Top shape: 6 (6)
I0718 14:14:46.099324 30362 net.cpp:165] Memory required for data: 72000024
I0718 14:14:46.099340 30362 layer_factory.hpp:76] Creating layer label_data_1_split
I0718 14:14:46.099366 30362 net.cpp:106] Creating Layer label_data_1_split
I0718 14:14:46.099378 30362 net.cpp:454] label_data_1_split <- label
I0718 14:14:46.099397 30362 net.cpp:411] label_data_1_split -> label_data_1_split_0
I0718 14:14:46.099414 30362 net.cpp:411] label_data_1_split -> label_data_1_split_1
I0718 14:14:46.099586 30362 net.cpp:150] Setting up label_data_1_split
I0718 14:14:46.099603 30362 net.cpp:157] Top shape: 6 (6)
I0718 14:14:46.099613 30362 net.cpp:157] Top shape: 6 (6)
I0718 14:14:46.099622 30362 net.cpp:165] Memory required for data: 72000072
I0718 14:14:46.099637 30362 layer_factory.hpp:76] Creating layer conv1/7x7_s2
I0718 14:14:46.099661 30362 net.cpp:106] Creating Layer conv1/7x7_s2
I0718 14:14:46.099673 30362 net.cpp:454] conv1/7x7_s2 <- data
I0718 14:14:46.099689 30362 net.cpp:411] conv1/7x7_s2 -> conv1/7x7_s2
I0718 14:14:46.469213 30362 net.cpp:150] Setting up conv1/7x7_s2
I0718 14:14:46.469310 30362 net.cpp:157] Top shape: 6 64 500 500 (96000000)
I0718 14:14:46.469322 30362 net.cpp:165] Memory required for data: 456000072
I0718 14:14:46.469354 30362 layer_factory.hpp:76] Creating layer conv1/relu_7x7
I0718 14:14:46.469380 30362 net.cpp:106] Creating Layer conv1/relu_7x7
I0718 14:14:46.469454 30362 net.cpp:454] conv1/relu_7x7 <- conv1/7x7_s2
I0718 14:14:46.469468 30362 net.cpp:397] conv1/relu_7x7 -> conv1/7x7_s2 (in-place)
I0718 14:14:46.469727 30362 net.cpp:150] Setting up conv1/relu_7x7
I0718 14:14:46.469745 30362 net.cpp:157] Top shape: 6 64 500 500 (96000000)
I0718 14:14:46.469759 30362 net.cpp:165] Memory required for data: 840000072
I0718 14:14:46.469769 30362 layer_factory.hpp:76] Creating layer pool1/3x3_s2
I0718 14:14:46.469785 30362 net.cpp:106] Creating Layer pool1/3x3_s2
I0718 14:14:46.469794 30362 net.cpp:454] pool1/3x3_s2 <- conv1/7x7_s2
I0718 14:14:46.469808 30362 net.cpp:411] pool1/3x3_s2 -> pool1/3x3_s2
I0718 14:14:46.471616 30362 net.cpp:150] Setting up pool1/3x3_s2
I0718 14:14:46.471657 30362 net.cpp:157] Top shape: 6 64 250 250 (24000000)
I0718 14:14:46.471671 30362 net.cpp:165] Memory required for data: 936000072
I0718 14:14:46.471683 30362 layer_factory.hpp:76] Creating layer pool1/norm1
I0718 14:14:46.471719 30362 net.cpp:106] Creating Layer pool1/norm1
I0718 14:14:46.471732 30362 net.cpp:454] pool1/norm1 <- pool1/3x3_s2
I0718 14:14:46.471750 30362 net.cpp:411] pool1/norm1 -> pool1/norm1
I0718 14:14:46.474401 30362 net.cpp:150] Setting up pool1/norm1
I0718 14:14:46.474454 30362 net.cpp:157] Top shape: 6 64 250 250 (24000000)
I0718 14:14:46.474467 30362 net.cpp:165] Memory required for data: 1032000072
I0718 14:14:46.474483 30362 layer_factory.hpp:76] Creating layer conv2/3x3_reduce
I0718 14:14:46.474515 30362 net.cpp:106] Creating Layer conv2/3x3_reduce
I0718 14:14:46.474530 30362 net.cpp:454] conv2/3x3_reduce <- pool1/norm1
I0718 14:14:46.474550 30362 net.cpp:411] conv2/3x3_reduce -> conv2/3x3_reduce
I0718 14:14:46.483479 30362 cudnn_conv_layer.cpp:194] Reallocating workspace storage: 768
I0718 14:14:46.483618 30362 net.cpp:150] Setting up conv2/3x3_reduce
I0718 14:14:46.483649 30362 net.cpp:157] Top shape: 6 64 250 250 (24000000)
I0718 14:14:46.483666 30362 net.cpp:165] Memory required for data: 1128000072
I0718 14:14:46.483700 30362 layer_factory.hpp:76] Creating layer conv2/relu_3x3_reduce
I0718 14:14:46.483732 30362 net.cpp:106] Creating Layer conv2/relu_3x3_reduce
I0718 14:14:46.483748 30362 net.cpp:454] conv2/relu_3x3_reduce <- conv2/3x3_reduce
I0718 14:14:46.483767 30362 net.cpp:397] conv2/relu_3x3_reduce -> conv2/3x3_reduce (in-place)
I0718 14:14:46.484375 30362 net.cpp:150] Setting up conv2/relu_3x3_reduce
I0718 14:14:46.484405 30362 net.cpp:157] Top shape: 6 64 250 250 (24000000)
I0718 14:14:46.484417 30362 net.cpp:165] Memory required for data: 1224000072
I0718 14:14:46.484431 30362 layer_factory.hpp:76] Creating layer conv2/3x3
I0718 14:14:46.484465 30362 net.cpp:106] Creating Layer conv2/3x3
I0718 14:14:46.484482 30362 net.cpp:454] conv2/3x3 <- conv2/3x3_reduce
I0718 14:14:46.484503 30362 net.cpp:411] conv2/3x3 -> conv2/3x3
I0718 14:14:46.491400 30362 cudnn_conv_layer.cpp:194] Reallocating workspace storage: 6912
I0718 14:14:46.492003 30362 net.cpp:150] Setting up conv2/3x3
I0718 14:14:46.492039 30362 net.cpp:157] Top shape: 6 192 250 250 (72000000)
I0718 14:14:46.492054 30362 net.cpp:165] Memory required for data: 1512000072
I0718 14:14:46.492086 30362 layer_factory.hpp:76] Creating layer conv2/relu_3x3
I0718 14:14:46.492120 30362 net.cpp:106] Creating Layer conv2/relu_3x3
I0718 14:14:46.492137 30362 net.cpp:454] conv2/relu_3x3 <- conv2/3x3
I0718 14:14:46.492156 30362 net.cpp:397] conv2/relu_3x3 -> conv2/3x3 (in-place)
I0718 14:14:46.493489 30362 net.cpp:150] Setting up conv2/relu_3x3
I0718 14:14:46.493546 30362 net.cpp:157] Top shape: 6 192 250 250 (72000000)
I0718 14:14:46.493558 30362 net.cpp:165] Memory required for data: 1800000072
I0718 14:14:46.493572 30362 layer_factory.hpp:76] Creating layer conv2/norm2
I0718 14:14:46.493602 30362 net.cpp:106] Creating Layer conv2/norm2
I0718 14:14:46.493620 30362 net.cpp:454] conv2/norm2 <- conv2/3x3
I0718 14:14:46.493646 30362 net.cpp:411] conv2/norm2 -> conv2/norm2
I0718 14:14:46.495971 30362 net.cpp:150] Setting up conv2/norm2
I0718 14:14:46.496044 30362 net.cpp:157] Top shape: 6 192 250 250 (72000000)
I0718 14:14:46.496130 30362 net.cpp:165] Memory required for data: 2088000072
I0718 14:14:46.496150 30362 layer_factory.hpp:76] Creating layer pool2/3x3_s2
I0718 14:14:46.496178 30362 net.cpp:106] Creating Layer pool2/3x3_s2
I0718 14:14:46.496196 30362 net.cpp:454] pool2/3x3_s2 <- conv2/norm2
I0718 14:14:46.496213 30362 net.cpp:411] pool2/3x3_s2 -> pool2/3x3_s2
I0718 14:14:46.498293 30362 net.cpp:150] Setting up pool2/3x3_s2
I0718 14:14:46.498347 30362 net.cpp:157] Top shape: 6 192 125 125 (18000000)
I0718 14:14:46.498359 30362 net.cpp:165] Memory required for data: 2160000072
I0718 14:14:46.498374 30362 layer_factory.hpp:76] Creating layer pool2/3x3_s2_pool2/3x3_s2_0_split
I0718 14:14:46.498404 30362 net.cpp:106] Creating Layer pool2/3x3_s2_pool2/3x3_s2_0_split
I0718 14:14:46.498419 30362 net.cpp:454] pool2/3x3_s2_pool2/3x3_s2_0_split <- pool2/3x3_s2
I0718 14:14:46.498435 30362 net.cpp:411] pool2/3x3_s2_pool2/3x3_s2_0_split -> pool2/3x3_s2_pool2/3x3_s2_0_split_0
I0718 14:14:46.498458 30362 net.cpp:411] pool2/3x3_s2_pool2/3x3_s2_0_split -> pool2/3x3_s2_pool2/3x3_s2_0_split_1
I0718 14:14:46.498476 30362 net.cpp:411] pool2/3x3_s2_pool2/3x3_s2_0_split -> pool2/3x3_s2_pool2/3x3_s2_0_split_2
I0718 14:14:46.498498 30362 net.cpp:411] pool2/3x3_s2_pool2/3x3_s2_0_split -> pool2/3x3_s2_pool2/3x3_s2_0_split_3
I0718 14:14:46.498586 30362 net.cpp:150] Setting up pool2/3x3_s2_pool2/3x3_s2_0_split
I0718 14:14:46.498606 30362 net.cpp:157] Top shape: 6 192 125 125 (18000000)
I0718 14:14:46.498620 30362 net.cpp:157] Top shape: 6 192 125 125 (18000000)
I0718 14:14:46.498644 30362 net.cpp:157] Top shape: 6 192 125 125 (18000000)
I0718 14:14:46.498661 30362 net.cpp:157] Top shape: 6 192 125 125 (18000000)
I0718 14:14:46.498674 30362 net.cpp:165] Memory required for data: 2448000072
I0718 14:14:46.498690 30362 layer_factory.hpp:76] Creating layer inception_3a/1x1
I0718 14:14:46.498723 30362 net.cpp:106] Creating Layer inception_3a/1x1
I0718 14:14:46.498738 30362 net.cpp:454] inception_3a/1x1 <- pool2/3x3_s2_pool2/3x3_s2_0_split_0
I0718 14:14:46.498757 30362 net.cpp:411] inception_3a/1x1 -> inception_3a/1x1
I0718 14:14:46.505668 30362 cudnn_conv_layer.cpp:194] Reallocating workspace storage: 2304
I0718 14:14:46.506232 30362 net.cpp:150] Setting up inception_3a/1x1
I0718 14:14:46.506269 30362 net.cpp:157] Top shape: 6 64 125 125 (6000000)
I0718 14:14:46.506285 30362 net.cpp:165] Memory required for data: 2472000072
I0718 14:14:46.506319 30362 layer_factory.hpp:76] Creating layer inception_3a/relu_1x1
I0718 14:14:46.506346 30362 net.cpp:106] Creating Layer inception_3a/relu_1x1
I0718 14:14:46.506362 30362 net.cpp:454] inception_3a/relu_1x1 <- inception_3a/1x1
I0718 14:14:46.506383 30362 net.cpp:397] inception_3a/relu_1x1 -> inception_3a/1x1 (in-place)
I0718 14:14:46.507717 30362 net.cpp:150] Setting up inception_3a/relu_1x1
I0718 14:14:46.507763 30362 net.cpp:157] Top shape: 6 64 125 125 (6000000)
I0718 14:14:46.507777 30362 net.cpp:165] Memory required for data: 2496000072
I0718 14:14:46.507792 30362 layer_factory.hpp:76] Creating layer inception_3a/3x3_reduce
I0718 14:14:46.507829 30362 net.cpp:106] Creating Layer inception_3a/3x3_reduce
I0718 14:14:46.507848 30362 net.cpp:454] inception_3a/3x3_reduce <- pool2/3x3_s2_pool2/3x3_s2_0_split_1
I0718 14:14:46.507865 30362 net.cpp:411] inception_3a/3x3_reduce -> inception_3a/3x3_reduce
I0718 14:14:46.513207 30362 cudnn_conv_layer.cpp:194] Reallocating workspace storage: 2304
I0718 14:14:46.513331 30362 net.cpp:150] Setting up inception_3a/3x3_reduce
I0718 14:14:46.513360 30362 net.cpp:157] Top shape: 6 96 125 125 (9000000)
I0718 14:14:46.513375 30362 net.cpp:165] Memory required for data: 2532000072
I0718 14:14:46.513406 30362 layer_factory.hpp:76] Creating layer inception_3a/relu_3x3_reduce
I0718 14:14:46.513439 30362 net.cpp:106] Creating Layer inception_3a/relu_3x3_reduce
I0718 14:14:46.513458 30362 net.cpp:454] inception_3a/relu_3x3_reduce <- inception_3a/3x3_reduce
I0718 14:14:46.513483 30362 net.cpp:397] inception_3a/relu_3x3_reduce -> inception_3a/3x3_reduce (in-place)
I0718 14:14:46.518424 30362 net.cpp:150] Setting up inception_3a/relu_3x3_reduce
I0718 14:14:46.518537 30362 net.cpp:157] Top shape: 6 96 125 125 (9000000)
I0718 14:14:46.518553 30362 net.cpp:165] Memory required for data: 2568000072
I0718 14:14:46.518571 30362 layer_factory.hpp:76] Creating layer inception_3a/3x3
I0718 14:14:46.518611 30362 net.cpp:106] Creating Layer inception_3a/3x3
I0718 14:14:46.518653 30362 net.cpp:454] inception_3a/3x3 <- inception_3a/3x3_reduce
I0718 14:14:46.518682 30362 net.cpp:411] inception_3a/3x3 -> inception_3a/3x3
I0718 14:14:46.531587 30362 cudnn_conv_layer.cpp:194] Reallocating workspace storage: 10368
I0718 14:14:46.531704 30362 net.cpp:150] Setting up inception_3a/3x3
I0718 14:14:46.531733 30362 net.cpp:157] Top shape: 6 128 125 125 (12000000)
I0718 14:14:46.531745 30362 net.cpp:165] Memory required for data: 2616000072
I0718 14:14:46.531769 30362 layer_factory.hpp:76] Creating layer inception_3a/relu_3x3
I0718 14:14:46.531803 30362 net.cpp:106] Creating Layer inception_3a/relu_3x3
I0718 14:14:46.531821 30362 net.cpp:454] inception_3a/relu_3x3 <- inception_3a/3x3
I0718 14:14:46.531847 30362 net.cpp:397] inception_3a/relu_3x3 -> inception_3a/3x3 (in-place)
I0718 14:14:46.533056 30362 net.cpp:150] Setting up inception_3a/relu_3x3
I0718 14:14:46.533084 30362 net.cpp:157] Top shape: 6 128 125 125 (12000000)
I0718 14:14:46.533097 30362 net.cpp:165] Memory required for data: 2664000072
I0718 14:14:46.533110 30362 layer_factory.hpp:76] Creating layer inception_3a/5x5_reduce
I0718 14:14:46.533141 30362 net.cpp:106] Creating Layer inception_3a/5x5_reduce
I0718 14:14:46.533156 30362 net.cpp:454] inception_3a/5x5_reduce <- pool2/3x3_s2_pool2/3x3_s2_0_split_2
I0718 14:14:46.533180 30362 net.cpp:411] inception_3a/5x5_reduce -> inception_3a/5x5_reduce
I0718 14:14:46.542495 30362 net.cpp:150] Setting up inception_3a/5x5_reduce
I0718 14:14:46.542582 30362 net.cpp:157] Top shape: 6 16 125 125 (1500000)
I0718 14:14:46.542594 30362 net.cpp:165] Memory required for data: 2670000072
I0718 14:14:46.542620 30362 layer_factory.hpp:76] Creating layer inception_3a/relu_5x5_reduce
I0718 14:14:46.542659 30362 net.cpp:106] Creating Layer inception_3a/relu_5x5_reduce
I0718 14:14:46.542678 30362 net.cpp:454] inception_3a/relu_5x5_reduce <- inception_3a/5x5_reduce
I0718 14:14:46.542695 30362 net.cpp:397] inception_3a/relu_5x5_reduce -> inception_3a/5x5_reduce (in-place)
I0718 14:14:46.543365 30362 net.cpp:150] Setting up inception_3a/relu_5x5_reduce
I0718 14:14:46.543395 30362 net.cpp:157] Top shape: 6 16 125 125 (1500000)
I0718 14:14:46.543409 30362 net.cpp:165] Memory required for data: 2676000072
I0718 14:14:46.543422 30362 layer_factory.hpp:76] Creating layer inception_3a/5x5
I0718 14:14:46.543454 30362 net.cpp:106] Creating Layer inception_3a/5x5
I0718 14:14:46.543470 30362 net.cpp:454] inception_3a/5x5 <- inception_3a/5x5_reduce
I0718 14:14:46.543494 30362 net.cpp:411] inception_3a/5x5 -> inception_3a/5x5
I0718 14:14:46.549713 30362 cudnn_conv_layer.cpp:194] Reallocating workspace storage: 4800
I0718 14:14:46.549798 30362 net.cpp:150] Setting up inception_3a/5x5
I0718 14:14:46.549823 30362 net.cpp:157] Top shape: 6 32 125 125 (3000000)
I0718 14:14:46.549836 30362 net.cpp:165] Memory required for data: 2688000072
I0718 14:14:46.549860 30362 layer_factory.hpp:76] Creating layer inception_3a/relu_5x5
I0718 14:14:46.549881 30362 net.cpp:106] Creating Layer inception_3a/relu_5x5
I0718 14:14:46.549897 30362 net.cpp:454] inception_3a/relu_5x5 <- inception_3a/5x5
I0718 14:14:46.549916 30362 net.cpp:397] inception_3a/relu_5x5 -> inception_3a/5x5 (in-place)
I0718 14:14:46.551939 30362 net.cpp:150] Setting up inception_3a/relu_5x5
I0718 14:14:46.551976 30362 net.cpp:157] Top shape: 6 32 125 125 (3000000)
I0718 14:14:46.551990 30362 net.cpp:165] Memory required for data: 2700000072
I0718 14:14:46.552006 30362 layer_factory.hpp:76] Creating layer inception_3a/pool
I0718 14:14:46.552024 30362 net.cpp:106] Creating Layer inception_3a/pool
I0718 14:14:46.552039 30362 net.cpp:454] inception_3a/pool <- pool2/3x3_s2_pool2/3x3_s2_0_split_3
I0718 14:14:46.552109 30362 net.cpp:411] inception_3a/pool -> inception_3a/pool
I0718 14:14:46.554414 30362 net.cpp:150] Setting up inception_3a/pool
I0718 14:14:46.554455 30362 net.cpp:157] Top shape: 6 192 125 125 (18000000)
I0718 14:14:46.554471 30362 net.cpp:165] Memory required for data: 2772000072
I0718 14:14:46.554486 30362 layer_factory.hpp:76] Creating layer inception_3a/pool_proj
I0718 14:14:46.554509 30362 net.cpp:106] Creating Layer inception_3a/pool_proj
I0718 14:14:46.554528 30362 net.cpp:454] inception_3a/pool_proj <- inception_3a/pool
I0718 14:14:46.554548 30362 net.cpp:411] inception_3a/pool_proj -> inception_3a/pool_proj
I0718 14:14:46.562479 30362 net.cpp:150] Setting up inception_3a/pool_proj
I0718 14:14:46.562549 30362 net.cpp:157] Top shape: 6 32 125 125 (3000000)
I0718 14:14:46.562561 30362 net.cpp:165] Memory required for data: 2784000072
I0718 14:14:46.562583 30362 layer_factory.hpp:76] Creating layer inception_3a/relu_pool_proj
I0718 14:14:46.562602 30362 net.cpp:106] Creating Layer inception_3a/relu_pool_proj
I0718 14:14:46.562615 30362 net.cpp:454] inception_3a/relu_pool_proj <- inception_3a/pool_proj
I0718 14:14:46.562639 30362 net.cpp:397] inception_3a/relu_pool_proj -> inception_3a/pool_proj (in-place)
I0718 14:14:46.568994 30362 net.cpp:150] Setting up inception_3a/relu_pool_proj
I0718 14:14:46.569017 30362 net.cpp:157] Top shape: 6 32 125 125 (3000000)
I0718 14:14:46.569026 30362 net.cpp:165] Memory required for data: 2796000072
I0718 14:14:46.569036 30362 layer_factory.hpp:76] Creating layer inception_3a/output
I0718 14:14:46.569056 30362 net.cpp:106] Creating Layer inception_3a/output
I0718 14:14:46.569066 30362 net.cpp:454] inception_3a/output <- inception_3a/1x1
I0718 14:14:46.569077 30362 net.cpp:454] inception_3a/output <- inception_3a/3x3
I0718 14:14:46.569085 30362 net.cpp:454] inception_3a/output <- inception_3a/5x5
I0718 14:14:46.569094 30362 net.cpp:454] inception_3a/output <- inception_3a/pool_proj
I0718 14:14:46.569108 30362 net.cpp:411] inception_3a/output -> inception_3a/output
I0718 14:14:46.569151 30362 net.cpp:150] Setting up inception_3a/output
I0718 14:14:46.569166 30362 net.cpp:157] Top shape: 6 256 125 125 (24000000)
I0718 14:14:46.569175 30362 net.cpp:165] Memory required for data: 2892000072
I0718 14:14:46.569183 30362 layer_factory.hpp:76] Creating layer inception_3a/output_inception_3a/output_0_split
I0718 14:14:46.569201 30362 net.cpp:106] Creating Layer inception_3a/output_inception_3a/output_0_split
I0718 14:14:46.569211 30362 net.cpp:454] inception_3a/output_inception_3a/output_0_split <- inception_3a/output
I0718 14:14:46.569222 30362 net.cpp:411] inception_3a/output_inception_3a/output_0_split -> inception_3a/output_inception_3a/output_0_split_0
I0718 14:14:46.569244 30362 net.cpp:411] inception_3a/output_inception_3a/output_0_split -> inception_3a/output_inception_3a/output_0_split_1
I0718 14:14:46.569260 30362 net.cpp:411] inception_3a/output_inception_3a/output_0_split -> inception_3a/output_inception_3a/output_0_split_2
I0718 14:14:46.569274 30362 net.cpp:411] inception_3a/output_inception_3a/output_0_split -> inception_3a/output_inception_3a/output_0_split_3
I0718 14:14:46.569344 30362 net.cpp:150] Setting up inception_3a/output_inception_3a/output_0_split
I0718 14:14:46.569360 30362 net.cpp:157] Top shape: 6 256 125 125 (24000000)
I0718 14:14:46.569370 30362 net.cpp:157] Top shape: 6 256 125 125 (24000000)
I0718 14:14:46.569380 30362 net.cpp:157] Top shape: 6 256 125 125 (24000000)
I0718 14:14:46.569392 30362 net.cpp:157] Top shape: 6 256 125 125 (24000000)
I0718 14:14:46.569401 30362 net.cpp:165] Memory required for data: 3276000072
I0718 14:14:46.569413 30362 layer_factory.hpp:76] Creating layer inception_3b/1x1
I0718 14:14:46.569432 30362 net.cpp:106] Creating Layer inception_3b/1x1
I0718 14:14:46.569447 30362 net.cpp:454] inception_3b/1x1 <- inception_3a/output_inception_3a/output_0_split_0
I0718 14:14:46.569464 30362 net.cpp:411] inception_3b/1x1 -> inception_3b/1x1
I0718 14:14:46.589517 30362 cudnn_conv_layer.cpp:194] Reallocating workspace storage: 3072
I0718 14:14:46.589638 30362 net.cpp:150] Setting up inception_3b/1x1
I0718 14:14:46.589658 30362 net.cpp:157] Top shape: 6 128 125 125 (12000000)
I0718 14:14:46.589665 30362 net.cpp:165] Memory required for data: 3324000072
I0718 14:14:46.589682 30362 layer_factory.hpp:76] Creating layer inception_3b/relu_1x1
I0718 14:14:46.589704 30362 net.cpp:106] Creating Layer inception_3b/relu_1x1
I0718 14:14:46.589714 30362 net.cpp:454] inception_3b/relu_1x1 <- inception_3b/1x1
I0718 14:14:46.589725 30362 net.cpp:397] inception_3b/relu_1x1 -> inception_3b/1x1 (in-place)
I0718 14:14:46.591768 30362 net.cpp:150] Setting up inception_3b/relu_1x1
I0718 14:14:46.591784 30362 net.cpp:157] Top shape: 6 128 125 125 (12000000)
I0718 14:14:46.591791 30362 net.cpp:165] Memory required for data: 3372000072
I0718 14:14:46.591799 30362 layer_factory.hpp:76] Creating layer inception_3b/3x3_reduce
I0718 14:14:46.591821 30362 net.cpp:106] Creating Layer inception_3b/3x3_reduce
I0718 14:14:46.591830 30362 net.cpp:454] inception_3b/3x3_reduce <- inception_3a/output_inception_3a/output_0_split_1
I0718 14:14:46.591842 30362 net.cpp:411] inception_3b/3x3_reduce -> inception_3b/3x3_reduce
I0718 14:14:46.607116 30362 cudnn_conv_layer.cpp:194] Reallocating workspace storage: 3072
I0718 14:14:46.607182 30362 net.cpp:150] Setting up inception_3b/3x3_reduce
I0718 14:14:46.607198 30362 net.cpp:157] Top shape: 6 128 125 125 (12000000)
I0718 14:14:46.607208 30362 net.cpp:165] Memory required for data: 3420000072
I0718 14:14:46.607223 30362 layer_factory.hpp:76] Creating layer inception_3b/relu_3x3_reduce
I0718 14:14:46.607244 30362 net.cpp:106] Creating Layer inception_3b/relu_3x3_reduce
I0718 14:14:46.607255 30362 net.cpp:454] inception_3b/relu_3x3_reduce <- inception_3b/3x3_reduce
I0718 14:14:46.607267 30362 net.cpp:397] inception_3b/relu_3x3_reduce -> inception_3b/3x3_reduce (in-place)
I0718 14:14:46.609395 30362 net.cpp:150] Setting up inception_3b/relu_3x3_reduce
I0718 14:14:46.609421 30362 net.cpp:157] Top shape: 6 128 125 125 (12000000)
I0718 14:14:46.609431 30362 net.cpp:165] Memory required for data: 3468000072
I0718 14:14:46.609439 30362 layer_factory.hpp:76] Creating layer inception_3b/3x3
I0718 14:14:46.609468 30362 net.cpp:106] Creating Layer inception_3b/3x3
I0718 14:14:46.609479 30362 net.cpp:454] inception_3b/3x3 <- inception_3b/3x3_reduce
I0718 14:14:46.609494 30362 net.cpp:411] inception_3b/3x3 -> inception_3b/3x3
I0718 14:14:46.616950 30362 cudnn_conv_layer.cpp:194] Reallocating workspace storage: 13824
I0718 14:14:46.617038 30362 net.cpp:150] Setting up inception_3b/3x3
I0718 14:14:46.617063 30362 net.cpp:157] Top shape: 6 192 125 125 (18000000)
I0718 14:14:46.617076 30362 net.cpp:165] Memory required for data: 3540000072
I0718 14:14:46.617097 30362 layer_factory.hpp:76] Creating layer inception_3b/relu_3x3
I0718 14:14:46.617120 30362 net.cpp:106] Creating Layer inception_3b/relu_3x3
I0718 14:14:46.617135 30362 net.cpp:454] inception_3b/relu_3x3 <- inception_3b/3x3
I0718 14:14:46.617156 30362 net.cpp:397] inception_3b/relu_3x3 -> inception_3b/3x3 (in-place)
I0718 14:14:46.619222 30362 net.cpp:150] Setting up inception_3b/relu_3x3
I0718 14:14:46.619251 30362 net.cpp:157] Top shape: 6 192 125 125 (18000000)
I0718 14:14:46.619266 30362 net.cpp:165] Memory required for data: 3612000072
I0718 14:14:46.619280 30362 layer_factory.hpp:76] Creating layer inception_3b/5x5_reduce
I0718 14:14:46.619305 30362 net.cpp:106] Creating Layer inception_3b/5x5_reduce
I0718 14:14:46.619320 30362 net.cpp:454] inception_3b/5x5_reduce <- inception_3a/output_inception_3a/output_0_split_2
I0718 14:14:46.619338 30362 net.cpp:411] inception_3b/5x5_reduce -> inception_3b/5x5_reduce
I0718 14:14:46.626515 30362 net.cpp:150] Setting up inception_3b/5x5_reduce
I0718 14:14:46.626552 30362 net.cpp:157] Top shape: 6 32 125 125 (3000000)
I0718 14:14:46.626565 30362 net.cpp:165] Memory required for data: 3624000072
I0718 14:14:46.626582 30362 layer_factory.hpp:76] Creating layer inception_3b/relu_5x5_reduce
I0718 14:14:46.626601 30362 net.cpp:106] Creating Layer inception_3b/relu_5x5_reduce
I0718 14:14:46.626673 30362 net.cpp:454] inception_3b/relu_5x5_reduce <- inception_3b/5x5_reduce
I0718 14:14:46.626691 30362 net.cpp:397] inception_3b/relu_5x5_reduce -> inception_3b/5x5_reduce (in-place)
I0718 14:14:46.629130 30362 net.cpp:150] Setting up inception_3b/relu_5x5_reduce
I0718 14:14:46.629156 30362 net.cpp:157] Top shape: 6 32 125 125 (3000000)
I0718 14:14:46.629169 30362 net.cpp:165] Memory required for data: 3636000072
I0718 14:14:46.629186 30362 layer_factory.hpp:76] Creating layer inception_3b/5x5
I0718 14:14:46.629207 30362 net.cpp:106] Creating Layer inception_3b/5x5
I0718 14:14:46.629221 30362 net.cpp:454] inception_3b/5x5 <- inception_3b/5x5_reduce
I0718 14:14:46.629241 30362 net.cpp:411] inception_3b/5x5 -> inception_3b/5x5
I0718 14:14:46.637707 30362 net.cpp:150] Setting up inception_3b/5x5
I0718 14:14:46.637750 30362 net.cpp:157] Top shape: 6 96 125 125 (9000000)
I0718 14:14:46.637763 30362 net.cpp:165] Memory required for data: 3672000072
I0718 14:14:46.637780 30362 layer_factory.hpp:76] Creating layer inception_3b/relu_5x5
I0718 14:14:46.637799 30362 net.cpp:106] Creating Layer inception_3b/relu_5x5
I0718 14:14:46.637814 30362 net.cpp:454] inception_3b/relu_5x5 <- inception_3b/5x5
I0718 14:14:46.637832 30362 net.cpp:397] inception_3b/relu_5x5 -> inception_3b/5x5 (in-place)
I0718 14:14:46.639822 30362 net.cpp:150] Setting up inception_3b/relu_5x5
I0718 14:14:46.639848 30362 net.cpp:157] Top shape: 6 96 125 125 (9000000)
I0718 14:14:46.639863 30362 net.cpp:165] Memory required for data: 3708000072
I0718 14:14:46.639876 30362 layer_factory.hpp:76] Creating layer inception_3b/pool
I0718 14:14:46.639897 30362 net.cpp:106] Creating Layer inception_3b/pool
I0718 14:14:46.639914 30362 net.cpp:454] inception_3b/pool <- inception_3a/output_inception_3a/output_0_split_3
I0718 14:14:46.639930 30362 net.cpp:411] inception_3b/pool -> inception_3b/pool
I0718 14:14:46.642637 30362 net.cpp:150] Setting up inception_3b/pool
I0718 14:14:46.642668 30362 net.cpp:157] Top shape: 6 256 125 125 (24000000)
I0718 14:14:46.642679 30362 net.cpp:165] Memory required for data: 3804000072
I0718 14:14:46.642693 30362 layer_factory.hpp:76] Creating layer inception_3b/pool_proj
I0718 14:14:46.642720 30362 net.cpp:106] Creating Layer inception_3b/pool_proj
I0718 14:14:46.642735 30362 net.cpp:454] inception_3b/pool_proj <- inception_3b/pool
I0718 14:14:46.642752 30362 net.cpp:411] inception_3b/pool_proj -> inception_3b/pool_proj
I0718 14:14:46.651160 30362 net.cpp:150] Setting up inception_3b/pool_proj
I0718 14:14:46.651211 30362 net.cpp:157] Top shape: 6 64 125 125 (6000000)
I0718 14:14:46.651221 30362 net.cpp:165] Memory required for data: 3828000072
I0718 14:14:46.651235 30362 layer_factory.hpp:76] Creating layer inception_3b/relu_pool_proj
I0718 14:14:46.651255 30362 net.cpp:106] Creating Layer inception_3b/relu_pool_proj
I0718 14:14:46.651267 30362 net.cpp:454] inception_3b/relu_pool_proj <- inception_3b/pool_proj
I0718 14:14:46.651283 30362 net.cpp:397] inception_3b/relu_pool_proj -> inception_3b/pool_proj (in-place)
I0718 14:14:46.653343 30362 net.cpp:150] Setting up inception_3b/relu_pool_proj
I0718 14:14:46.653362 30362 net.cpp:157] Top shape: 6 64 125 125 (6000000)
I0718 14:14:46.653370 30362 net.cpp:165] Memory required for data: 3852000072
I0718 14:14:46.653378 30362 layer_factory.hpp:76] Creating layer inception_3b/output
I0718 14:14:46.653396 30362 net.cpp:106] Creating Layer inception_3b/output
I0718 14:14:46.653406 30362 net.cpp:454] inception_3b/output <- inception_3b/1x1
I0718 14:14:46.653416 30362 net.cpp:454] inception_3b/output <- inception_3b/3x3
I0718 14:14:46.653425 30362 net.cpp:454] inception_3b/output <- inception_3b/5x5
I0718 14:14:46.653434 30362 net.cpp:454] inception_3b/output <- inception_3b/pool_proj
I0718 14:14:46.653445 30362 net.cpp:411] inception_3b/output -> inception_3b/output
I0718 14:14:46.653482 30362 net.cpp:150] Setting up inception_3b/output
I0718 14:14:46.653494 30362 net.cpp:157] Top shape: 6 480 125 125 (45000000)
I0718 14:14:46.653502 30362 net.cpp:165] Memory required for data: 4032000072
I0718 14:14:46.653547 30362 layer_factory.hpp:76] Creating layer pool3/3x3_s2
I0718 14:14:46.653559 30362 net.cpp:106] Creating Layer pool3/3x3_s2
I0718 14:14:46.653568 30362 net.cpp:454] pool3/3x3_s2 <- inception_3b/output
I0718 14:14:46.653581 30362 net.cpp:411] pool3/3x3_s2 -> pool3/3x3_s2
I0718 14:14:46.655321 30362 net.cpp:150] Setting up pool3/3x3_s2
I0718 14:14:46.655344 30362 net.cpp:157] Top shape: 6 480 62 62 (11070720)
I0718 14:14:46.655354 30362 net.cpp:165] Memory required for data: 4076282952
I0718 14:14:46.655362 30362 layer_factory.hpp:76] Creating layer pool3/3x3_s2_pool3/3x3_s2_0_split
I0718 14:14:46.655375 30362 net.cpp:106] Creating Layer pool3/3x3_s2_pool3/3x3_s2_0_split
I0718 14:14:46.655383 30362 net.cpp:454] pool3/3x3_s2_pool3/3x3_s2_0_split <- pool3/3x3_s2
I0718 14:14:46.655396 30362 net.cpp:411] pool3/3x3_s2_pool3/3x3_s2_0_split -> pool3/3x3_s2_pool3/3x3_s2_0_split_0
I0718 14:14:46.655410 30362 net.cpp:411] pool3/3x3_s2_pool3/3x3_s2_0_split -> pool3/3x3_s2_pool3/3x3_s2_0_split_1
I0718 14:14:46.655421 30362 net.cpp:411] pool3/3x3_s2_pool3/3x3_s2_0_split -> pool3/3x3_s2_pool3/3x3_s2_0_split_2
I0718 14:14:46.655434 30362 net.cpp:411] pool3/3x3_s2_pool3/3x3_s2_0_split -> pool3/3x3_s2_pool3/3x3_s2_0_split_3
I0718 14:14:46.655503 30362 net.cpp:150] Setting up pool3/3x3_s2_pool3/3x3_s2_0_split
I0718 14:14:46.655516 30362 net.cpp:157] Top shape: 6 480 62 62 (11070720)
I0718 14:14:46.655525 30362 net.cpp:157] Top shape: 6 480 62 62 (11070720)
I0718 14:14:46.655534 30362 net.cpp:157] Top shape: 6 480 62 62 (11070720)
I0718 14:14:46.655547 30362 net.cpp:157] Top shape: 6 480 62 62 (11070720)
I0718 14:14:46.655558 30362 net.cpp:165] Memory required for data: 4253414472
I0718 14:14:46.655567 30362 layer_factory.hpp:76] Creating layer inception_4a/1x1
I0718 14:14:46.655583 30362 net.cpp:106] Creating Layer inception_4a/1x1
I0718 14:14:46.655593 30362 net.cpp:454] inception_4a/1x1 <- pool3/3x3_s2_pool3/3x3_s2_0_split_0
I0718 14:14:46.655607 30362 net.cpp:411] inception_4a/1x1 -> inception_4a/1x1
I0718 14:14:46.661898 30362 cudnn_conv_layer.cpp:194] Reallocating workspace storage: 5760
I0718 14:14:46.661947 30362 net.cpp:150] Setting up inception_4a/1x1
I0718 14:14:46.661963 30362 net.cpp:157] Top shape: 6 192 62 62 (4428288)
I0718 14:14:46.661972 30362 net.cpp:165] Memory required for data: 4271127624
I0718 14:14:46.661985 30362 layer_factory.hpp:76] Creating layer inception_4a/relu_1x1
I0718 14:14:46.661999 30362 net.cpp:106] Creating Layer inception_4a/relu_1x1
I0718 14:14:46.662009 30362 net.cpp:454] inception_4a/relu_1x1 <- inception_4a/1x1
I0718 14:14:46.662019 30362 net.cpp:397] inception_4a/relu_1x1 -> inception_4a/1x1 (in-place)
I0718 14:14:46.663660 30362 net.cpp:150] Setting up inception_4a/relu_1x1
I0718 14:14:46.663677 30362 net.cpp:157] Top shape: 6 192 62 62 (4428288)
I0718 14:14:46.663689 30362 net.cpp:165] Memory required for data: 4288840776
I0718 14:14:46.663698 30362 layer_factory.hpp:76] Creating layer inception_4a/3x3_reduce
I0718 14:14:46.663714 30362 net.cpp:106] Creating Layer inception_4a/3x3_reduce
I0718 14:14:46.663725 30362 net.cpp:454] inception_4a/3x3_reduce <- pool3/3x3_s2_pool3/3x3_s2_0_split_1
I0718 14:14:46.663739 30362 net.cpp:411] inception_4a/3x3_reduce -> inception_4a/3x3_reduce
I0718 14:14:46.671550 30362 cudnn_conv_layer.cpp:194] Reallocating workspace storage: 5760
I0718 14:14:46.671607 30362 net.cpp:150] Setting up inception_4a/3x3_reduce
I0718 14:14:46.671620 30362 net.cpp:157] Top shape: 6 96 62 62 (2214144)
I0718 14:14:46.671636 30362 net.cpp:165] Memory required for data: 4297697352
I0718 14:14:46.671661 30362 layer_factory.hpp:76] Creating layer inception_4a/relu_3x3_reduce
I0718 14:14:46.671679 30362 net.cpp:106] Creating Layer inception_4a/relu_3x3_reduce
I0718 14:14:46.671689 30362 net.cpp:454] inception_4a/relu_3x3_reduce <- inception_4a/3x3_reduce
I0718 14:14:46.671701 30362 net.cpp:397] inception_4a/relu_3x3_reduce -> inception_4a/3x3_reduce (in-place)
I0718 14:14:46.673918 30362 net.cpp:150] Setting up inception_4a/relu_3x3_reduce
I0718 14:14:46.673976 30362 net.cpp:157] Top shape: 6 96 62 62 (2214144)
I0718 14:14:46.673988 30362 net.cpp:165] Memory required for data: 4306553928
I0718 14:14:46.674001 30362 layer_factory.hpp:76] Creating layer inception_4a/3x3
I0718 14:14:46.674021 30362 net.cpp:106] Creating Layer inception_4a/3x3
I0718 14:14:46.674031 30362 net.cpp:454] inception_4a/3x3 <- inception_4a/3x3_reduce
I0718 14:14:46.674043 30362 net.cpp:411] inception_4a/3x3 -> inception_4a/3x3
I0718 14:14:46.680569 30362 net.cpp:150] Setting up inception_4a/3x3
I0718 14:14:46.680609 30362 net.cpp:157] Top shape: 6 208 62 62 (4797312)
I0718 14:14:46.680620 30362 net.cpp:165] Memory required for data: 4325743176
I0718 14:14:46.680634 30362 layer_factory.hpp:76] Creating layer inception_4a/relu_3x3
I0718 14:14:46.680647 30362 net.cpp:106] Creating Layer inception_4a/relu_3x3
I0718 14:14:46.680658 30362 net.cpp:454] inception_4a/relu_3x3 <- inception_4a/3x3
I0718 14:14:46.680668 30362 net.cpp:397] inception_4a/relu_3x3 -> inception_4a/3x3 (in-place)
I0718 14:14:46.682827 30362 net.cpp:150] Setting up inception_4a/relu_3x3
I0718 14:14:46.682850 30362 net.cpp:157] Top shape: 6 208 62 62 (4797312)
I0718 14:14:46.682859 30362 net.cpp:165] Memory required for data: 4344932424
I0718 14:14:46.682873 30362 layer_factory.hpp:76] Creating layer inception_4a/5x5_reduce
I0718 14:14:46.682893 30362 net.cpp:106] Creating Layer inception_4a/5x5_reduce
I0718 14:14:46.682904 30362 net.cpp:454] inception_4a/5x5_reduce <- pool3/3x3_s2_pool3/3x3_s2_0_split_2
I0718 14:14:46.682924 30362 net.cpp:411] inception_4a/5x5_reduce -> inception_4a/5x5_reduce
I0718 14:14:46.690136 30362 cudnn_conv_layer.cpp:194] Reallocating workspace storage: 5760
I0718 14:14:46.690239 30362 net.cpp:150] Setting up inception_4a/5x5_reduce
I0718 14:14:46.690263 30362 net.cpp:157] Top shape: 6 16 62 62 (369024)
I0718 14:14:46.690275 30362 net.cpp:165] Memory required for data: 4346408520
I0718 14:14:46.690295 30362 layer_factory.hpp:76] Creating layer inception_4a/relu_5x5_reduce
I0718 14:14:46.690320 30362 net.cpp:106] Creating Layer inception_4a/relu_5x5_reduce
I0718 14:14:46.690336 30362 net.cpp:454] inception_4a/relu_5x5_reduce <- inception_4a/5x5_reduce
I0718 14:14:46.690351 30362 net.cpp:397] inception_4a/relu_5x5_reduce -> inception_4a/5x5_reduce (in-place)
I0718 14:14:46.692283 30362 net.cpp:150] Setting up inception_4a/relu_5x5_reduce
I0718 14:14:46.692313 30362 net.cpp:157] Top shape: 6 16 62 62 (369024)
I0718 14:14:46.692322 30362 net.cpp:165] Memory required for data: 4347884616
I0718 14:14:46.692332 30362 layer_factory.hpp:76] Creating layer inception_4a/5x5
I0718 14:14:46.692363 30362 net.cpp:106] Creating Layer inception_4a/5x5
I0718 14:14:46.692373 30362 net.cpp:454] inception_4a/5x5 <- inception_4a/5x5_reduce
I0718 14:14:46.692385 30362 net.cpp:411] inception_4a/5x5 -> inception_4a/5x5
I0718 14:14:46.699146 30362 net.cpp:150] Setting up inception_4a/5x5
I0718 14:14:46.699203 30362 net.cpp:157] Top shape: 6 48 62 62 (1107072)
I0718 14:14:46.699213 30362 net.cpp:165] Memory required for data: 4352312904
I0718 14:14:46.699232 30362 layer_factory.hpp:76] Creating layer inception_4a/relu_5x5
I0718 14:14:46.699250 30362 net.cpp:106] Creating Layer inception_4a/relu_5x5
I0718 14:14:46.699261 30362 net.cpp:454] inception_4a/relu_5x5 <- inception_4a/5x5
I0718 14:14:46.699273 30362 net.cpp:397] inception_4a/relu_5x5 -> inception_4a/5x5 (in-place)
I0718 14:14:46.701388 30362 net.cpp:150] Setting up inception_4a/relu_5x5
I0718 14:14:46.701436 30362 net.cpp:157] Top shape: 6 48 62 62 (1107072)
I0718 14:14:46.701448 30362 net.cpp:165] Memory required for data: 4356741192
I0718 14:14:46.701460 30362 layer_factory.hpp:76] Creating layer inception_4a/pool
I0718 14:14:46.701479 30362 net.cpp:106] Creating Layer inception_4a/pool
I0718 14:14:46.701490 30362 net.cpp:454] inception_4a/pool <- pool3/3x3_s2_pool3/3x3_s2_0_split_3
I0718 14:14:46.701503 30362 net.cpp:411] inception_4a/pool -> inception_4a/pool
I0718 14:14:46.705075 30362 net.cpp:150] Setting up inception_4a/pool
I0718 14:14:46.705165 30362 net.cpp:157] Top shape: 6 480 62 62 (11070720)
I0718 14:14:46.705263 30362 net.cpp:165] Memory required for data: 4401024072
I0718 14:14:46.705281 30362 layer_factory.hpp:76] Creating layer inception_4a/pool_proj
I0718 14:14:46.705317 30362 net.cpp:106] Creating Layer inception_4a/pool_proj
I0718 14:14:46.705329 30362 net.cpp:454] inception_4a/pool_proj <- inception_4a/pool
I0718 14:14:46.705358 30362 net.cpp:411] inception_4a/pool_proj -> inception_4a/pool_proj
I0718 14:14:46.712602 30362 net.cpp:150] Setting up inception_4a/pool_proj
I0718 14:14:46.712702 30362 net.cpp:157] Top shape: 6 64 62 62 (1476096)
I0718 14:14:46.712718 30362 net.cpp:165] Memory required for data: 4406928456
I0718 14:14:46.712738 30362 layer_factory.hpp:76] Creating layer inception_4a/relu_pool_proj
I0718 14:14:46.712767 30362 net.cpp:106] Creating Layer inception_4a/relu_pool_proj
I0718 14:14:46.712781 30362 net.cpp:454] inception_4a/relu_pool_proj <- inception_4a/pool_proj
I0718 14:14:46.712795 30362 net.cpp:397] inception_4a/relu_pool_proj -> inception_4a/pool_proj (in-place)
I0718 14:14:46.715432 30362 net.cpp:150] Setting up inception_4a/relu_pool_proj
I0718 14:14:46.715495 30362 net.cpp:157] Top shape: 6 64 62 62 (1476096)
I0718 14:14:46.715504 30362 net.cpp:165] Memory required for data: 4412832840
I0718 14:14:46.715517 30362 layer_factory.hpp:76] Creating layer inception_4a/output
I0718 14:14:46.715545 30362 net.cpp:106] Creating Layer inception_4a/output
I0718 14:14:46.715558 30362 net.cpp:454] inception_4a/output <- inception_4a/1x1
I0718 14:14:46.715570 30362 net.cpp:454] inception_4a/output <- inception_4a/3x3
I0718 14:14:46.715585 30362 net.cpp:454] inception_4a/output <- inception_4a/5x5
I0718 14:14:46.715595 30362 net.cpp:454] inception_4a/output <- inception_4a/pool_proj
I0718 14:14:46.715610 30362 net.cpp:411] inception_4a/output -> inception_4a/output
I0718 14:14:46.715684 30362 net.cpp:150] Setting up inception_4a/output
I0718 14:14:46.715703 30362 net.cpp:157] Top shape: 6 512 62 62 (11808768)
I0718 14:14:46.715710 30362 net.cpp:165] Memory required for data: 4460067912
I0718 14:14:46.715719 30362 layer_factory.hpp:76] Creating layer inception_4a/output_inception_4a/output_0_split
I0718 14:14:46.715734 30362 net.cpp:106] Creating Layer inception_4a/output_inception_4a/output_0_split
I0718 14:14:46.715744 30362 net.cpp:454] inception_4a/output_inception_4a/output_0_split <- inception_4a/output
I0718 14:14:46.715759 30362 net.cpp:411] inception_4a/output_inception_4a/output_0_split -> inception_4a/output_inception_4a/output_0_split_0
I0718 14:14:46.715771 30362 net.cpp:411] inception_4a/output_inception_4a/output_0_split -> inception_4a/output_inception_4a/output_0_split_1
I0718 14:14:46.715785 30362 net.cpp:411] inception_4a/output_inception_4a/output_0_split -> inception_4a/output_inception_4a/output_0_split_2
I0718 14:14:46.715795 30362 net.cpp:411] inception_4a/output_inception_4a/output_0_split -> inception_4a/output_inception_4a/output_0_split_3
I0718 14:14:46.715904 30362 net.cpp:150] Setting up inception_4a/output_inception_4a/output_0_split
I0718 14:14:46.715929 30362 net.cpp:157] Top shape: 6 512 62 62 (11808768)
I0718 14:14:46.715939 30362 net.cpp:157] Top shape: 6 512 62 62 (11808768)
I0718 14:14:46.715948 30362 net.cpp:157] Top shape: 6 512 62 62 (11808768)
I0718 14:14:46.715958 30362 net.cpp:157] Top shape: 6 512 62 62 (11808768)
I0718 14:14:46.715968 30362 net.cpp:165] Memory required for data: 4649008200
I0718 14:14:46.715977 30362 layer_factory.hpp:76] Creating layer inception_4b/1x1
I0718 14:14:46.715994 30362 net.cpp:106] Creating Layer inception_4b/1x1
I0718 14:14:46.716003 30362 net.cpp:454] inception_4b/1x1 <- inception_4a/output_inception_4a/output_0_split_0
I0718 14:14:46.716020 30362 net.cpp:411] inception_4b/1x1 -> inception_4b/1x1
I0718 14:14:46.724242 30362 net.cpp:150] Setting up inception_4b/1x1
I0718 14:14:46.724371 30362 net.cpp:157] Top shape: 6 160 62 62 (3690240)
I0718 14:14:46.724388 30362 net.cpp:165] Memory required for data: 4663769160
I0718 14:14:46.724421 30362 layer_factory.hpp:76] Creating layer inception_4b/relu_1x1
I0718 14:14:46.724609 30362 net.cpp:106] Creating Layer inception_4b/relu_1x1
I0718 14:14:46.724627 30362 net.cpp:454] inception_4b/relu_1x1 <- inception_4b/1x1
I0718 14:14:46.724658 30362 net.cpp:397] inception_4b/relu_1x1 -> inception_4b/1x1 (in-place)
I0718 14:14:46.725843 30362 net.cpp:150] Setting up inception_4b/relu_1x1
I0718 14:14:46.725901 30362 net.cpp:157] Top shape: 6 160 62 62 (3690240)
I0718 14:14:46.725911 30362 net.cpp:165] Memory required for data: 4678530120
I0718 14:14:46.725924 30362 layer_factory.hpp:76] Creating layer inception_4b/3x3_reduce
I0718 14:14:46.725952 30362 net.cpp:106] Creating Layer inception_4b/3x3_reduce
I0718 14:14:46.725965 30362 net.cpp:454] inception_4b/3x3_reduce <- inception_4a/output_inception_4a/output_0_split_1
I0718 14:14:46.725986 30362 net.cpp:411] inception_4b/3x3_reduce -> inception_4b/3x3_reduce
I0718 14:14:46.733523 30362 cudnn_conv_layer.cpp:194] Reallocating workspace storage: 6144
I0718 14:14:46.733657 30362 net.cpp:150] Setting up inception_4b/3x3_reduce
I0718 14:14:46.733685 30362 net.cpp:157] Top shape: 6 112 62 62 (2583168)
I0718 14:14:46.733697 30362 net.cpp:165] Memory required for data: 4688862792
I0718 14:14:46.733717 30362 layer_factory.hpp:76] Creating layer inception_4b/relu_3x3_reduce
I0718 14:14:46.733748 30362 net.cpp:106] Creating Layer inception_4b/relu_3x3_reduce
I0718 14:14:46.733767 30362 net.cpp:454] inception_4b/relu_3x3_reduce <- inception_4b/3x3_reduce
I0718 14:14:46.733795 30362 net.cpp:397] inception_4b/relu_3x3_reduce -> inception_4b/3x3_reduce (in-place)
I0718 14:14:46.735036 30362 net.cpp:150] Setting up inception_4b/relu_3x3_reduce
I0718 14:14:46.735067 30362 net.cpp:157] Top shape: 6 112 62 62 (2583168)
I0718 14:14:46.735080 30362 net.cpp:165] Memory required for data: 4699195464
I0718 14:14:46.735090 30362 layer_factory.hpp:76] Creating layer inception_4b/3x3
I0718 14:14:46.735118 30362 net.cpp:106] Creating Layer inception_4b/3x3
I0718 14:14:46.735127 30362 net.cpp:454] inception_4b/3x3 <- inception_4b/3x3_reduce
I0718 14:14:46.735139 30362 net.cpp:411] inception_4b/3x3 -> inception_4b/3x3
I0718 14:14:46.744377 30362 cudnn_conv_layer.cpp:194] Reallocating workspace storage: 12096
I0718 14:14:46.744514 30362 net.cpp:150] Setting up inception_4b/3x3
I0718 14:14:46.744540 30362 net.cpp:157] Top shape: 6 224 62 62 (5166336)
I0718 14:14:46.744551 30362 net.cpp:165] Memory required for data: 4719860808
I0718 14:14:46.744583 30362 layer_factory.hpp:76] Creating layer inception_4b/relu_3x3
I0718 14:14:46.744645 30362 net.cpp:106] Creating Layer inception_4b/relu_3x3
I0718 14:14:46.744664 30362 net.cpp:454] inception_4b/relu_3x3 <- inception_4b/3x3
I0718 14:14:46.744678 30362 net.cpp:397] inception_4b/relu_3x3 -> inception_4b/3x3 (in-place)
I0718 14:14:46.746078 30362 net.cpp:150] Setting up inception_4b/relu_3x3
I0718 14:14:46.746160 30362 net.cpp:157] Top shape: 6 224 62 62 (5166336)
I0718 14:14:46.746170 30362 net.cpp:165] Memory required for data: 4740526152
I0718 14:14:46.746184 30362 layer_factory.hpp:76] Creating layer inception_4b/5x5_reduce
I0718 14:14:46.746222 30362 net.cpp:106] Creating Layer inception_4b/5x5_reduce
I0718 14:14:46.746235 30362 net.cpp:454] inception_4b/5x5_reduce <- inception_4a/output_inception_4a/output_0_split_2
I0718 14:14:46.746249 30362 net.cpp:411] inception_4b/5x5_reduce -> inception_4b/5x5_reduce
I0718 14:14:46.755432 30362 net.cpp:150] Setting up inception_4b/5x5_reduce
I0718 14:14:46.755528 30362 net.cpp:157] Top shape: 6 24 62 62 (553536)
I0718 14:14:46.755544 30362 net.cpp:165] Memory required for data: 4742740296
I0718 14:14:46.755563 30362 layer_factory.hpp:76] Creating layer inception_4b/relu_5x5_reduce
I0718 14:14:46.755591 30362 net.cpp:106] Creating Layer inception_4b/relu_5x5_reduce
I0718 14:14:46.755605 30362 net.cpp:454] inception_4b/relu_5x5_reduce <- inception_4b/5x5_reduce
I0718 14:14:46.755627 30362 net.cpp:397] inception_4b/relu_5x5_reduce -> inception_4b/5x5_reduce (in-place)
I0718 14:14:46.757380 30362 net.cpp:150] Setting up inception_4b/relu_5x5_reduce
I0718 14:14:46.757504 30362 net.cpp:157] Top shape: 6 24 62 62 (553536)
I0718 14:14:46.757514 30362 net.cpp:165] Memory required for data: 4744954440
I0718 14:14:46.757529 30362 layer_factory.hpp:76] Creating layer inception_4b/5x5
I0718 14:14:46.757555 30362 net.cpp:106] Creating Layer inception_4b/5x5
I0718 14:14:46.757567 30362 net.cpp:454] inception_4b/5x5 <- inception_4b/5x5_reduce
I0718 14:14:46.757582 30362 net.cpp:411] inception_4b/5x5 -> inception_4b/5x5
I0718 14:14:46.764132 30362 net.cpp:150] Setting up inception_4b/5x5
I0718 14:14:46.764252 30362 net.cpp:157] Top shape: 6 64 62 62 (1476096)
I0718 14:14:46.764262 30362 net.cpp:165] Memory required for data: 4750858824
I0718 14:14:46.764287 30362 layer_factory.hpp:76] Creating layer inception_4b/relu_5x5
I0718 14:14:46.764325 30362 net.cpp:106] Creating Layer inception_4b/relu_5x5
I0718 14:14:46.764339 30362 net.cpp:454] inception_4b/relu_5x5 <- inception_4b/5x5
I0718 14:14:46.764360 30362 net.cpp:397] inception_4b/relu_5x5 -> inception_4b/5x5 (in-place)
I0718 14:14:46.766237 30362 net.cpp:150] Setting up inception_4b/relu_5x5
I0718 14:14:46.766309 30362 net.cpp:157] Top shape: 6 64 62 62 (1476096)
I0718 14:14:46.766319 30362 net.cpp:165] Memory required for data: 4756763208
I0718 14:14:46.766330 30362 layer_factory.hpp:76] Creating layer inception_4b/pool
I0718 14:14:46.766352 30362 net.cpp:106] Creating Layer inception_4b/pool
I0718 14:14:46.766366 30362 net.cpp:454] inception_4b/pool <- inception_4a/output_inception_4a/output_0_split_3
I0718 14:14:46.766383 30362 net.cpp:411] inception_4b/pool -> inception_4b/pool
I0718 14:14:46.767822 30362 net.cpp:150] Setting up inception_4b/pool
I0718 14:14:46.767879 30362 net.cpp:157] Top shape: 6 512 62 62 (11808768)
I0718 14:14:46.767889 30362 net.cpp:165] Memory required for data: 4803998280
I0718 14:14:46.767899 30362 layer_factory.hpp:76] Creating layer inception_4b/pool_proj
I0718 14:14:46.767936 30362 net.cpp:106] Creating Layer inception_4b/pool_proj
I0718 14:14:46.767951 30362 net.cpp:454] inception_4b/pool_proj <- inception_4b/pool
I0718 14:14:46.767969 30362 net.cpp:411] inception_4b/pool_proj -> inception_4b/pool_proj
I0718 14:14:46.775306 30362 net.cpp:150] Setting up inception_4b/pool_proj
I0718 14:14:46.775429 30362 net.cpp:157] Top shape: 6 64 62 62 (1476096)
I0718 14:14:46.775445 30362 net.cpp:165] Memory required for data: 4809902664
I0718 14:14:46.775471 30362 layer_factory.hpp:76] Creating layer inception_4b/relu_pool_proj
I0718 14:14:46.775497 30362 net.cpp:106] Creating Layer inception_4b/relu_pool_proj
I0718 14:14:46.775513 30362 net.cpp:454] inception_4b/relu_pool_proj <- inception_4b/pool_proj
I0718 14:14:46.775553 30362 net.cpp:397] inception_4b/relu_pool_proj -> inception_4b/pool_proj (in-place)
I0718 14:14:46.777338 30362 net.cpp:150] Setting up inception_4b/relu_pool_proj
I0718 14:14:46.777410 30362 net.cpp:157] Top shape: 6 64 62 62 (1476096)
I0718 14:14:46.777420 30362 net.cpp:165] Memory required for data: 4815807048
I0718 14:14:46.777429 30362 layer_factory.hpp:76] Creating layer inception_4b/output
I0718 14:14:46.777447 30362 net.cpp:106] Creating Layer inception_4b/output
I0718 14:14:46.777462 30362 net.cpp:454] inception_4b/output <- inception_4b/1x1
I0718 14:14:46.777472 30362 net.cpp:454] inception_4b/output <- inception_4b/3x3
I0718 14:14:46.777483 30362 net.cpp:454] inception_4b/output <- inception_4b/5x5
I0718 14:14:46.777493 30362 net.cpp:454] inception_4b/output <- inception_4b/pool_proj
I0718 14:14:46.777506 30362 net.cpp:411] inception_4b/output -> inception_4b/output
I0718 14:14:46.777611 30362 net.cpp:150] Setting up inception_4b/output
I0718 14:14:46.777629 30362 net.cpp:157] Top shape: 6 512 62 62 (11808768)
I0718 14:14:46.777637 30362 net.cpp:165] Memory required for data: 4863042120
I0718 14:14:46.777647 30362 layer_factory.hpp:76] Creating layer inception_4b/output_inception_4b/output_0_split
I0718 14:14:46.777660 30362 net.cpp:106] Creating Layer inception_4b/output_inception_4b/output_0_split
I0718 14:14:46.777679 30362 net.cpp:454] inception_4b/output_inception_4b/output_0_split <- inception_4b/output
I0718 14:14:46.777793 30362 net.cpp:411] inception_4b/output_inception_4b/output_0_split -> inception_4b/output_inception_4b/output_0_split_0
I0718 14:14:46.777811 30362 net.cpp:411] inception_4b/output_inception_4b/output_0_split -> inception_4b/output_inception_4b/output_0_split_1
I0718 14:14:46.777827 30362 net.cpp:411] inception_4b/output_inception_4b/output_0_split -> inception_4b/output_inception_4b/output_0_split_2
I0718 14:14:46.777838 30362 net.cpp:411] inception_4b/output_inception_4b/output_0_split -> inception_4b/output_inception_4b/output_0_split_3
I0718 14:14:46.777928 30362 net.cpp:150] Setting up inception_4b/output_inception_4b/output_0_split
I0718 14:14:46.777948 30362 net.cpp:157] Top shape: 6 512 62 62 (11808768)
I0718 14:14:46.777957 30362 net.cpp:157] Top shape: 6 512 62 62 (11808768)
I0718 14:14:46.777967 30362 net.cpp:157] Top shape: 6 512 62 62 (11808768)
I0718 14:14:46.777976 30362 net.cpp:157] Top shape: 6 512 62 62 (11808768)
I0718 14:14:46.777984 30362 net.cpp:165] Memory required for data: 5051982408
I0718 14:14:46.777997 30362 layer_factory.hpp:76] Creating layer inception_4c/1x1
I0718 14:14:46.778017 30362 net.cpp:106] Creating Layer inception_4c/1x1
I0718 14:14:46.778024 30362 net.cpp:454] inception_4c/1x1 <- inception_4b/output_inception_4b/output_0_split_0
I0718 14:14:46.778038 30362 net.cpp:411] inception_4c/1x1 -> inception_4c/1x1
I0718 14:14:46.784822 30362 cudnn_conv_layer.cpp:194] Reallocating workspace storage: 6144
I0718 14:14:46.784983 30362 net.cpp:150] Setting up inception_4c/1x1
I0718 14:14:46.785018 30362 net.cpp:157] Top shape: 6 128 62 62 (2952192)
I0718 14:14:46.785029 30362 net.cpp:165] Memory required for data: 5063791176
I0718 14:14:46.785048 30362 layer_factory.hpp:76] Creating layer inception_4c/relu_1x1
I0718 14:14:46.785076 30362 net.cpp:106] Creating Layer inception_4c/relu_1x1
I0718 14:14:46.785100 30362 net.cpp:454] inception_4c/relu_1x1 <- inception_4c/1x1
I0718 14:14:46.785116 30362 net.cpp:397] inception_4c/relu_1x1 -> inception_4c/1x1 (in-place)
I0718 14:14:46.787094 30362 net.cpp:150] Setting up inception_4c/relu_1x1
I0718 14:14:46.787197 30362 net.cpp:157] Top shape: 6 128 62 62 (2952192)
I0718 14:14:46.787207 30362 net.cpp:165] Memory required for data: 5075599944
I0718 14:14:46.787222 30362 layer_factory.hpp:76] Creating layer inception_4c/3x3_reduce
I0718 14:14:46.787259 30362 net.cpp:106] Creating Layer inception_4c/3x3_reduce
I0718 14:14:46.787274 30362 net.cpp:454] inception_4c/3x3_reduce <- inception_4b/output_inception_4b/output_0_split_1
I0718 14:14:46.787338 30362 net.cpp:411] inception_4c/3x3_reduce -> inception_4c/3x3_reduce
I0718 14:14:46.794549 30362 cudnn_conv_layer.cpp:194] Reallocating workspace storage: 6144
I0718 14:14:46.794708 30362 net.cpp:150] Setting up inception_4c/3x3_reduce
I0718 14:14:46.794744 30362 net.cpp:157] Top shape: 6 128 62 62 (2952192)
I0718 14:14:46.794756 30362 net.cpp:165] Memory required for data: 5087408712
I0718 14:14:46.794776 30362 layer_factory.hpp:76] Creating layer inception_4c/relu_3x3_reduce
I0718 14:14:46.794811 30362 net.cpp:106] Creating Layer inception_4c/relu_3x3_reduce
I0718 14:14:46.794831 30362 net.cpp:454] inception_4c/relu_3x3_reduce <- inception_4c/3x3_reduce
I0718 14:14:46.794847 30362 net.cpp:397] inception_4c/relu_3x3_reduce -> inception_4c/3x3_reduce (in-place)
I0718 14:14:46.796084 30362 net.cpp:150] Setting up inception_4c/relu_3x3_reduce
I0718 14:14:46.796120 30362 net.cpp:157] Top shape: 6 128 62 62 (2952192)
I0718 14:14:46.796131 30362 net.cpp:165] Memory required for data: 5099217480
I0718 14:14:46.796146 30362 layer_factory.hpp:76] Creating layer inception_4c/3x3
I0718 14:14:46.796180 30362 net.cpp:106] Creating Layer inception_4c/3x3
I0718 14:14:46.796190 30362 net.cpp:454] inception_4c/3x3 <- inception_4c/3x3_reduce
I0718 14:14:46.796202 30362 net.cpp:411] inception_4c/3x3 -> inception_4c/3x3
I0718 14:14:46.815179 30362 net.cpp:150] Setting up inception_4c/3x3
I0718 14:14:46.815342 30362 net.cpp:157] Top shape: 6 256 62 62 (5904384)
I0718 14:14:46.815461 30362 net.cpp:165] Memory required for data: 5122835016
I0718 14:14:46.815515 30362 layer_factory.hpp:76] Creating layer inception_4c/relu_3x3
I0718 14:14:46.815562 30362 net.cpp:106] Creating Layer inception_4c/relu_3x3
I0718 14:14:46.815589 30362 net.cpp:454] inception_4c/relu_3x3 <- inception_4c/3x3
I0718 14:14:46.815608 30362 net.cpp:397] inception_4c/relu_3x3 -> inception_4c/3x3 (in-place)
I0718 14:14:46.818626 30362 net.cpp:150] Setting up inception_4c/relu_3x3
I0718 14:14:46.818733 30362 net.cpp:157] Top shape: 6 256 62 62 (5904384)
I0718 14:14:46.818744 30362 net.cpp:165] Memory required for data: 5146452552
I0718 14:14:46.818763 30362 layer_factory.hpp:76] Creating layer inception_4c/5x5_reduce
I0718 14:14:46.818799 30362 net.cpp:106] Creating Layer inception_4c/5x5_reduce
I0718 14:14:46.818811 30362 net.cpp:454] inception_4c/5x5_reduce <- inception_4b/output_inception_4b/output_0_split_2
I0718 14:14:46.818845 30362 net.cpp:411] inception_4c/5x5_reduce -> inception_4c/5x5_reduce
I0718 14:14:46.826444 30362 net.cpp:150] Setting up inception_4c/5x5_reduce
I0718 14:14:46.826611 30362 net.cpp:157] Top shape: 6 24 62 62 (553536)
I0718 14:14:46.826637 30362 net.cpp:165] Memory required for data: 5148666696
I0718 14:14:46.826663 30362 layer_factory.hpp:76] Creating layer inception_4c/relu_5x5_reduce
I0718 14:14:46.826694 30362 net.cpp:106] Creating Layer inception_4c/relu_5x5_reduce
I0718 14:14:46.826716 30362 net.cpp:454] inception_4c/relu_5x5_reduce <- inception_4c/5x5_reduce
I0718 14:14:46.826738 30362 net.cpp:397] inception_4c/relu_5x5_reduce -> inception_4c/5x5_reduce (in-place)
I0718 14:14:46.828732 30362 net.cpp:150] Setting up inception_4c/relu_5x5_reduce
I0718 14:14:46.828815 30362 net.cpp:157] Top shape: 6 24 62 62 (553536)
I0718 14:14:46.828835 30362 net.cpp:165] Memory required for data: 5150880840
I0718 14:14:46.828852 30362 layer_factory.hpp:76] Creating layer inception_4c/5x5
I0718 14:14:46.828894 30362 net.cpp:106] Creating Layer inception_4c/5x5
I0718 14:14:46.828923 30362 net.cpp:454] inception_4c/5x5 <- inception_4c/5x5_reduce
I0718 14:14:46.828950 30362 net.cpp:411] inception_4c/5x5 -> inception_4c/5x5
I0718 14:14:46.842830 30362 net.cpp:150] Setting up inception_4c/5x5
I0718 14:14:46.842977 30362 net.cpp:157] Top shape: 6 64 62 62 (1476096)
I0718 14:14:46.843006 30362 net.cpp:165] Memory required for data: 5156785224
I0718 14:14:46.843044 30362 layer_factory.hpp:76] Creating layer inception_4c/relu_5x5
I0718 14:14:46.843127 30362 net.cpp:106] Creating Layer inception_4c/relu_5x5
I0718 14:14:46.843156 30362 net.cpp:454] inception_4c/relu_5x5 <- inception_4c/5x5
I0718 14:14:46.843202 30362 net.cpp:397] inception_4c/relu_5x5 -> inception_4c/5x5 (in-place)
I0718 14:14:46.849272 30362 net.cpp:150] Setting up inception_4c/relu_5x5
I0718 14:14:46.849467 30362 net.cpp:157] Top shape: 6 64 62 62 (1476096)
I0718 14:14:46.849495 30362 net.cpp:165] Memory required for data: 5162689608
I0718 14:14:46.849524 30362 layer_factory.hpp:76] Creating layer inception_4c/pool
I0718 14:14:46.849575 30362 net.cpp:106] Creating Layer inception_4c/pool
I0718 14:14:46.849618 30362 net.cpp:454] inception_4c/pool <- inception_4b/output_inception_4b/output_0_split_3
I0718 14:14:46.849656 30362 net.cpp:411] inception_4c/pool -> inception_4c/pool
I0718 14:14:46.856223 30362 net.cpp:150] Setting up inception_4c/pool
I0718 14:14:46.856353 30362 net.cpp:157] Top shape: 6 512 62 62 (11808768)
I0718 14:14:46.856369 30362 net.cpp:165] Memory required for data: 5209924680
I0718 14:14:46.856389 30362 layer_factory.hpp:76] Creating layer inception_4c/pool_proj
I0718 14:14:46.856442 30362 net.cpp:106] Creating Layer inception_4c/pool_proj
I0718 14:14:46.856464 30362 net.cpp:454] inception_4c/pool_proj <- inception_4c/pool
I0718 14:14:46.856494 30362 net.cpp:411] inception_4c/pool_proj -> inception_4c/pool_proj
I0718 14:14:46.877148 30362 net.cpp:150] Setting up inception_4c/pool_proj
I0718 14:14:46.877331 30362 net.cpp:157] Top shape: 6 64 62 62 (1476096)
I0718 14:14:46.877356 30362 net.cpp:165] Memory required for data: 5215829064
I0718 14:14:46.877595 30362 layer_factory.hpp:76] Creating layer inception_4c/relu_pool_proj
I0718 14:14:46.877646 30362 net.cpp:106] Creating Layer inception_4c/relu_pool_proj
I0718 14:14:46.877672 30362 net.cpp:454] inception_4c/relu_pool_proj <- inception_4c/pool_proj
I0718 14:14:46.877696 30362 net.cpp:397] inception_4c/relu_pool_proj -> inception_4c/pool_proj (in-place)
I0718 14:14:46.882644 30362 net.cpp:150] Setting up inception_4c/relu_pool_proj
I0718 14:14:46.882763 30362 net.cpp:157] Top shape: 6 64 62 62 (1476096)
I0718 14:14:46.882777 30362 net.cpp:165] Memory required for data: 5221733448
I0718 14:14:46.882797 30362 layer_factory.hpp:76] Creating layer inception_4c/output
I0718 14:14:46.882822 30362 net.cpp:106] Creating Layer inception_4c/output
I0718 14:14:46.882840 30362 net.cpp:454] inception_4c/output <- inception_4c/1x1
I0718 14:14:46.882860 30362 net.cpp:454] inception_4c/output <- inception_4c/3x3
I0718 14:14:46.882884 30362 net.cpp:454] inception_4c/output <- inception_4c/5x5
I0718 14:14:46.882896 30362 net.cpp:454] inception_4c/output <- inception_4c/pool_proj
I0718 14:14:46.882916 30362 net.cpp:411] inception_4c/output -> inception_4c/output
I0718 14:14:46.883029 30362 net.cpp:150] Setting up inception_4c/output
I0718 14:14:46.883052 30362 net.cpp:157] Top shape: 6 512 62 62 (11808768)
I0718 14:14:46.883069 30362 net.cpp:165] Memory required for data: 5268968520
I0718 14:14:46.883083 30362 layer_factory.hpp:76] Creating layer inception_4c/output_inception_4c/output_0_split
I0718 14:14:46.883118 30362 net.cpp:106] Creating Layer inception_4c/output_inception_4c/output_0_split
I0718 14:14:46.883132 30362 net.cpp:454] inception_4c/output_inception_4c/output_0_split <- inception_4c/output
I0718 14:14:46.883147 30362 net.cpp:411] inception_4c/output_inception_4c/output_0_split -> inception_4c/output_inception_4c/output_0_split_0
I0718 14:14:46.883163 30362 net.cpp:411] inception_4c/output_inception_4c/output_0_split -> inception_4c/output_inception_4c/output_0_split_1
I0718 14:14:46.883183 30362 net.cpp:411] inception_4c/output_inception_4c/output_0_split -> inception_4c/output_inception_4c/output_0_split_2
I0718 14:14:46.883208 30362 net.cpp:411] inception_4c/output_inception_4c/output_0_split -> inception_4c/output_inception_4c/output_0_split_3
I0718 14:14:46.883347 30362 net.cpp:150] Setting up inception_4c/output_inception_4c/output_0_split
I0718 14:14:46.883373 30362 net.cpp:157] Top shape: 6 512 62 62 (11808768)
I0718 14:14:46.883391 30362 net.cpp:157] Top shape: 6 512 62 62 (11808768)
I0718 14:14:46.883410 30362 net.cpp:157] Top shape: 6 512 62 62 (11808768)
I0718 14:14:46.883425 30362 net.cpp:157] Top shape: 6 512 62 62 (11808768)
I0718 14:14:46.883447 30362 net.cpp:165] Memory required for data: 5457908808
I0718 14:14:46.883460 30362 layer_factory.hpp:76] Creating layer inception_4d/1x1
I0718 14:14:46.883497 30362 net.cpp:106] Creating Layer inception_4d/1x1
I0718 14:14:46.883514 30362 net.cpp:454] inception_4d/1x1 <- inception_4c/output_inception_4c/output_0_split_0
I0718 14:14:46.883536 30362 net.cpp:411] inception_4d/1x1 -> inception_4d/1x1
I0718 14:14:46.890312 30362 cudnn_conv_layer.cpp:194] Reallocating workspace storage: 6144
I0718 14:14:46.890441 30362 net.cpp:150] Setting up inception_4d/1x1
I0718 14:14:46.890475 30362 net.cpp:157] Top shape: 6 112 62 62 (2583168)
I0718 14:14:46.890491 30362 net.cpp:165] Memory required for data: 5468241480
I0718 14:14:46.890522 30362 layer_factory.hpp:76] Creating layer inception_4d/relu_1x1
I0718 14:14:46.890558 30362 net.cpp:106] Creating Layer inception_4d/relu_1x1
I0718 14:14:46.890578 30362 net.cpp:454] inception_4d/relu_1x1 <- inception_4d/1x1
I0718 14:14:46.890602 30362 net.cpp:397] inception_4d/relu_1x1 -> inception_4d/1x1 (in-place)
I0718 14:14:46.892488 30362 net.cpp:150] Setting up inception_4d/relu_1x1
I0718 14:14:46.892560 30362 net.cpp:157] Top shape: 6 112 62 62 (2583168)
I0718 14:14:46.892580 30362 net.cpp:165] Memory required for data: 5478574152
I0718 14:14:46.892609 30362 layer_factory.hpp:76] Creating layer inception_4d/3x3_reduce
I0718 14:14:46.892732 30362 net.cpp:106] Creating Layer inception_4d/3x3_reduce
I0718 14:14:46.892757 30362 net.cpp:454] inception_4d/3x3_reduce <- inception_4c/output_inception_4c/output_0_split_1
I0718 14:14:46.892782 30362 net.cpp:411] inception_4d/3x3_reduce -> inception_4d/3x3_reduce
I0718 14:14:46.900279 30362 cudnn_conv_layer.cpp:194] Reallocating workspace storage: 6144
I0718 14:14:46.900393 30362 net.cpp:150] Setting up inception_4d/3x3_reduce
I0718 14:14:46.900418 30362 net.cpp:157] Top shape: 6 144 62 62 (3321216)
I0718 14:14:46.900429 30362 net.cpp:165] Memory required for data: 5491859016
I0718 14:14:46.900449 30362 layer_factory.hpp:76] Creating layer inception_4d/relu_3x3_reduce
I0718 14:14:46.900486 30362 net.cpp:106] Creating Layer inception_4d/relu_3x3_reduce
I0718 14:14:46.900509 30362 net.cpp:454] inception_4d/relu_3x3_reduce <- inception_4d/3x3_reduce
I0718 14:14:46.900527 30362 net.cpp:397] inception_4d/relu_3x3_reduce -> inception_4d/3x3_reduce (in-place)
I0718 14:14:46.902592 30362 net.cpp:150] Setting up inception_4d/relu_3x3_reduce
I0718 14:14:46.902714 30362 net.cpp:157] Top shape: 6 144 62 62 (3321216)
I0718 14:14:46.902732 30362 net.cpp:165] Memory required for data: 5505143880
I0718 14:14:46.902755 30362 layer_factory.hpp:76] Creating layer inception_4d/3x3
I0718 14:14:46.902806 30362 net.cpp:106] Creating Layer inception_4d/3x3
I0718 14:14:46.902827 30362 net.cpp:454] inception_4d/3x3 <- inception_4d/3x3_reduce
I0718 14:14:46.902845 30362 net.cpp:411] inception_4d/3x3 -> inception_4d/3x3
I0718 14:14:46.915640 30362 cudnn_conv_layer.cpp:194] Reallocating workspace storage: 15552
I0718 14:14:46.915827 30362 net.cpp:150] Setting up inception_4d/3x3
I0718 14:14:46.915871 30362 net.cpp:157] Top shape: 6 288 62 62 (6642432)
I0718 14:14:46.915900 30362 net.cpp:165] Memory required for data: 5531713608
I0718 14:14:46.915968 30362 layer_factory.hpp:76] Creating layer inception_4d/relu_3x3
I0718 14:14:46.916049 30362 net.cpp:106] Creating Layer inception_4d/relu_3x3
I0718 14:14:46.916090 30362 net.cpp:454] inception_4d/relu_3x3 <- inception_4d/3x3
I0718 14:14:46.916144 30362 net.cpp:397] inception_4d/relu_3x3 -> inception_4d/3x3 (in-place)
I0718 14:14:46.916566 30362 net.cpp:150] Setting up inception_4d/relu_3x3
I0718 14:14:46.916607 30362 net.cpp:157] Top shape: 6 288 62 62 (6642432)
I0718 14:14:46.916633 30362 net.cpp:165] Memory required for data: 5558283336
I0718 14:14:46.916663 30362 layer_factory.hpp:76] Creating layer inception_4d/5x5_reduce
I0718 14:14:46.916709 30362 net.cpp:106] Creating Layer inception_4d/5x5_reduce
I0718 14:14:46.916728 30362 net.cpp:454] inception_4d/5x5_reduce <- inception_4c/output_inception_4c/output_0_split_2
I0718 14:14:46.916755 30362 net.cpp:411] inception_4d/5x5_reduce -> inception_4d/5x5_reduce
I0718 14:14:46.924892 30362 net.cpp:150] Setting up inception_4d/5x5_reduce
I0718 14:14:46.925071 30362 net.cpp:157] Top shape: 6 32 62 62 (738048)
I0718 14:14:46.925088 30362 net.cpp:165] Memory required for data: 5561235528
I0718 14:14:46.925117 30362 layer_factory.hpp:76] Creating layer inception_4d/relu_5x5_reduce
I0718 14:14:46.925168 30362 net.cpp:106] Creating Layer inception_4d/relu_5x5_reduce
I0718 14:14:46.925194 30362 net.cpp:454] inception_4d/relu_5x5_reduce <- inception_4d/5x5_reduce
I0718 14:14:46.925218 30362 net.cpp:397] inception_4d/relu_5x5_reduce -> inception_4d/5x5_reduce (in-place)
I0718 14:14:46.933908 30362 net.cpp:150] Setting up inception_4d/relu_5x5_reduce
I0718 14:14:46.934080 30362 net.cpp:157] Top shape: 6 32 62 62 (738048)
I0718 14:14:46.934099 30362 net.cpp:165] Memory required for data: 5564187720
I0718 14:14:46.934132 30362 layer_factory.hpp:76] Creating layer inception_4d/5x5
I0718 14:14:46.934191 30362 net.cpp:106] Creating Layer inception_4d/5x5
I0718 14:14:46.934226 30362 net.cpp:454] inception_4d/5x5 <- inception_4d/5x5_reduce
I0718 14:14:46.934265 30362 net.cpp:411] inception_4d/5x5 -> inception_4d/5x5
I0718 14:14:46.943528 30362 cudnn_conv_layer.cpp:194] Reallocating workspace storage: 9600
I0718 14:14:46.943761 30362 net.cpp:150] Setting up inception_4d/5x5
I0718 14:14:46.943934 30362 net.cpp:157] Top shape: 6 64 62 62 (1476096)
I0718 14:14:46.943960 30362 net.cpp:165] Memory required for data: 5570092104
I0718 14:14:46.944000 30362 layer_factory.hpp:76] Creating layer inception_4d/relu_5x5
I0718 14:14:46.944061 30362 net.cpp:106] Creating Layer inception_4d/relu_5x5
I0718 14:14:46.944097 30362 net.cpp:454] inception_4d/relu_5x5 <- inception_4d/5x5
I0718 14:14:46.944118 30362 net.cpp:397] inception_4d/relu_5x5 -> inception_4d/5x5 (in-place)
I0718 14:14:46.944847 30362 net.cpp:150] Setting up inception_4d/relu_5x5
I0718 14:14:46.944918 30362 net.cpp:157] Top shape: 6 64 62 62 (1476096)
I0718 14:14:46.944941 30362 net.cpp:165] Memory required for data: 5575996488
I0718 14:14:46.944977 30362 layer_factory.hpp:76] Creating layer inception_4d/pool
I0718 14:14:46.945021 30362 net.cpp:106] Creating Layer inception_4d/pool
I0718 14:14:46.945053 30362 net.cpp:454] inception_4d/pool <- inception_4c/output_inception_4c/output_0_split_3
I0718 14:14:46.945117 30362 net.cpp:411] inception_4d/pool -> inception_4d/pool
I0718 14:14:46.947481 30362 net.cpp:150] Setting up inception_4d/pool
I0718 14:14:46.947623 30362 net.cpp:157] Top shape: 6 512 62 62 (11808768)
I0718 14:14:46.947646 30362 net.cpp:165] Memory required for data: 5623231560
I0718 14:14:46.947679 30362 layer_factory.hpp:76] Creating layer inception_4d/pool_proj
I0718 14:14:46.947744 30362 net.cpp:106] Creating Layer inception_4d/pool_proj
I0718 14:14:46.947773 30362 net.cpp:454] inception_4d/pool_proj <- inception_4d/pool
I0718 14:14:46.947842 30362 net.cpp:411] inception_4d/pool_proj -> inception_4d/pool_proj
I0718 14:14:46.953727 30362 net.cpp:150] Setting up inception_4d/pool_proj
I0718 14:14:46.953877 30362 net.cpp:157] Top shape: 6 64 62 62 (1476096)
I0718 14:14:46.953897 30362 net.cpp:165] Memory required for data: 5629135944
I0718 14:14:46.953933 30362 layer_factory.hpp:76] Creating layer inception_4d/relu_pool_proj
I0718 14:14:46.953996 30362 net.cpp:106] Creating Layer inception_4d/relu_pool_proj
I0718 14:14:46.954025 30362 net.cpp:454] inception_4d/relu_pool_proj <- inception_4d/pool_proj
I0718 14:14:46.954046 30362 net.cpp:397] inception_4d/relu_pool_proj -> inception_4d/pool_proj (in-place)
I0718 14:14:46.955763 30362 net.cpp:150] Setting up inception_4d/relu_pool_proj
I0718 14:14:46.955855 30362 net.cpp:157] Top shape: 6 64 62 62 (1476096)
I0718 14:14:46.955873 30362 net.cpp:165] Memory required for data: 5635040328
I0718 14:14:46.955893 30362 layer_factory.hpp:76] Creating layer inception_4d/output
I0718 14:14:46.955930 30362 net.cpp:106] Creating Layer inception_4d/output
I0718 14:14:46.955946 30362 net.cpp:454] inception_4d/output <- inception_4d/1x1
I0718 14:14:46.955967 30362 net.cpp:454] inception_4d/output <- inception_4d/3x3
I0718 14:14:46.955984 30362 net.cpp:454] inception_4d/output <- inception_4d/5x5
I0718 14:14:46.956001 30362 net.cpp:454] inception_4d/output <- inception_4d/pool_proj
I0718 14:14:46.956018 30362 net.cpp:411] inception_4d/output -> inception_4d/output
I0718 14:14:46.956123 30362 net.cpp:150] Setting up inception_4d/output
I0718 14:14:46.956151 30362 net.cpp:157] Top shape: 6 528 62 62 (12177792)
I0718 14:14:46.956167 30362 net.cpp:165] Memory required for data: 5683751496
I0718 14:14:46.956197 30362 layer_factory.hpp:76] Creating layer inception_4d/output_inception_4d/output_0_split
I0718 14:14:46.956226 30362 net.cpp:106] Creating Layer inception_4d/output_inception_4d/output_0_split
I0718 14:14:46.956245 30362 net.cpp:454] inception_4d/output_inception_4d/output_0_split <- inception_4d/output
I0718 14:14:46.956274 30362 net.cpp:411] inception_4d/output_inception_4d/output_0_split -> inception_4d/output_inception_4d/output_0_split_0
I0718 14:14:46.956298 30362 net.cpp:411] inception_4d/output_inception_4d/output_0_split -> inception_4d/output_inception_4d/output_0_split_1
I0718 14:14:46.956321 30362 net.cpp:411] inception_4d/output_inception_4d/output_0_split -> inception_4d/output_inception_4d/output_0_split_2
I0718 14:14:46.956343 30362 net.cpp:411] inception_4d/output_inception_4d/output_0_split -> inception_4d/output_inception_4d/output_0_split_3
I0718 14:14:46.956776 30362 net.cpp:150] Setting up inception_4d/output_inception_4d/output_0_split
I0718 14:14:46.956810 30362 net.cpp:157] Top shape: 6 528 62 62 (12177792)
I0718 14:14:46.956837 30362 net.cpp:157] Top shape: 6 528 62 62 (12177792)
I0718 14:14:46.956871 30362 net.cpp:157] Top shape: 6 528 62 62 (12177792)
I0718 14:14:46.956890 30362 net.cpp:157] Top shape: 6 528 62 62 (12177792)
I0718 14:14:46.956924 30362 net.cpp:165] Memory required for data: 5878596168
I0718 14:14:46.956944 30362 layer_factory.hpp:76] Creating layer inception_4e/1x1
I0718 14:14:46.956997 30362 net.cpp:106] Creating Layer inception_4e/1x1
I0718 14:14:46.957026 30362 net.cpp:454] inception_4e/1x1 <- inception_4d/output_inception_4d/output_0_split_0
I0718 14:14:46.957056 30362 net.cpp:411] inception_4e/1x1 -> inception_4e/1x1
I0718 14:14:46.966500 30362 cudnn_conv_layer.cpp:194] Reallocating workspace storage: 6336
I0718 14:14:46.966665 30362 net.cpp:150] Setting up inception_4e/1x1
I0718 14:14:46.966699 30362 net.cpp:157] Top shape: 6 256 62 62 (5904384)
I0718 14:14:46.966722 30362 net.cpp:165] Memory required for data: 5902213704
I0718 14:14:46.966752 30362 layer_factory.hpp:76] Creating layer inception_4e/relu_1x1
I0718 14:14:46.966790 30362 net.cpp:106] Creating Layer inception_4e/relu_1x1
I0718 14:14:46.966814 30362 net.cpp:454] inception_4e/relu_1x1 <- inception_4e/1x1
I0718 14:14:46.966838 30362 net.cpp:397] inception_4e/relu_1x1 -> inception_4e/1x1 (in-place)
I0718 14:14:46.968614 30362 net.cpp:150] Setting up inception_4e/relu_1x1
I0718 14:14:46.968705 30362 net.cpp:157] Top shape: 6 256 62 62 (5904384)
I0718 14:14:46.968726 30362 net.cpp:165] Memory required for data: 5925831240
I0718 14:14:46.968747 30362 layer_factory.hpp:76] Creating layer inception_4e/3x3_reduce
I0718 14:14:46.968794 30362 net.cpp:106] Creating Layer inception_4e/3x3_reduce
I0718 14:14:46.968821 30362 net.cpp:454] inception_4e/3x3_reduce <- inception_4d/output_inception_4d/output_0_split_1
I0718 14:14:46.968850 30362 net.cpp:411] inception_4e/3x3_reduce -> inception_4e/3x3_reduce
I0718 14:14:46.976184 30362 cudnn_conv_layer.cpp:194] Reallocating workspace storage: 6336
I0718 14:14:46.976330 30362 net.cpp:150] Setting up inception_4e/3x3_reduce
I0718 14:14:46.976366 30362 net.cpp:157] Top shape: 6 160 62 62 (3690240)
I0718 14:14:46.976387 30362 net.cpp:165] Memory required for data: 5940592200
I0718 14:14:46.976423 30362 layer_factory.hpp:76] Creating layer inception_4e/relu_3x3_reduce
I0718 14:14:46.976466 30362 net.cpp:106] Creating Layer inception_4e/relu_3x3_reduce
I0718 14:14:46.976495 30362 net.cpp:454] inception_4e/relu_3x3_reduce <- inception_4e/3x3_reduce
I0718 14:14:46.976519 30362 net.cpp:397] inception_4e/relu_3x3_reduce -> inception_4e/3x3_reduce (in-place)
I0718 14:14:46.978232 30362 net.cpp:150] Setting up inception_4e/relu_3x3_reduce
I0718 14:14:46.978351 30362 net.cpp:157] Top shape: 6 160 62 62 (3690240)
I0718 14:14:46.978375 30362 net.cpp:165] Memory required for data: 5955353160
I0718 14:14:46.978400 30362 layer_factory.hpp:76] Creating layer inception_4e/3x3
I0718 14:14:46.978454 30362 net.cpp:106] Creating Layer inception_4e/3x3
I0718 14:14:46.978483 30362 net.cpp:454] inception_4e/3x3 <- inception_4e/3x3_reduce
I0718 14:14:46.978515 30362 net.cpp:411] inception_4e/3x3 -> inception_4e/3x3
I0718 14:14:46.989536 30362 net.cpp:150] Setting up inception_4e/3x3
I0718 14:14:46.989676 30362 net.cpp:157] Top shape: 6 320 62 62 (7380480)
I0718 14:14:46.989697 30362 net.cpp:165] Memory required for data: 5984875080
I0718 14:14:46.989730 30362 layer_factory.hpp:76] Creating layer inception_4e/relu_3x3
I0718 14:14:46.989778 30362 net.cpp:106] Creating Layer inception_4e/relu_3x3
I0718 14:14:46.989809 30362 net.cpp:454] inception_4e/relu_3x3 <- inception_4e/3x3
I0718 14:14:46.989835 30362 net.cpp:397] inception_4e/relu_3x3 -> inception_4e/3x3 (in-place)
I0718 14:14:46.991529 30362 net.cpp:150] Setting up inception_4e/relu_3x3
I0718 14:14:46.991624 30362 net.cpp:157] Top shape: 6 320 62 62 (7380480)
I0718 14:14:46.991755 30362 net.cpp:165] Memory required for data: 6014397000
I0718 14:14:46.991778 30362 layer_factory.hpp:76] Creating layer inception_4e/5x5_reduce
I0718 14:14:46.991818 30362 net.cpp:106] Creating Layer inception_4e/5x5_reduce
I0718 14:14:46.991847 30362 net.cpp:454] inception_4e/5x5_reduce <- inception_4d/output_inception_4d/output_0_split_2
I0718 14:14:46.991878 30362 net.cpp:411] inception_4e/5x5_reduce -> inception_4e/5x5_reduce
I0718 14:14:46.999505 30362 cudnn_conv_layer.cpp:194] Reallocating workspace storage: 6336
I0718 14:14:46.999582 30362 net.cpp:150] Setting up inception_4e/5x5_reduce
I0718 14:14:46.999598 30362 net.cpp:157] Top shape: 6 32 62 62 (738048)
I0718 14:14:46.999604 30362 net.cpp:165] Memory required for data: 6017349192
I0718 14:14:46.999622 30362 layer_factory.hpp:76] Creating layer inception_4e/relu_5x5_reduce
I0718 14:14:46.999641 30362 net.cpp:106] Creating Layer inception_4e/relu_5x5_reduce
I0718 14:14:46.999650 30362 net.cpp:454] inception_4e/relu_5x5_reduce <- inception_4e/5x5_reduce
I0718 14:14:46.999658 30362 net.cpp:397] inception_4e/relu_5x5_reduce -> inception_4e/5x5_reduce (in-place)
I0718 14:14:47.001766 30362 net.cpp:150] Setting up inception_4e/relu_5x5_reduce
I0718 14:14:47.001807 30362 net.cpp:157] Top shape: 6 32 62 62 (738048)
I0718 14:14:47.001814 30362 net.cpp:165] Memory required for data: 6020301384
I0718 14:14:47.001823 30362 layer_factory.hpp:76] Creating layer inception_4e/5x5
I0718 14:14:47.001847 30362 net.cpp:106] Creating Layer inception_4e/5x5
I0718 14:14:47.001857 30362 net.cpp:454] inception_4e/5x5 <- inception_4e/5x5_reduce
I0718 14:14:47.001869 30362 net.cpp:411] inception_4e/5x5 -> inception_4e/5x5
I0718 14:14:47.077471 30362 net.cpp:150] Setting up inception_4e/5x5
I0718 14:14:47.077538 30362 net.cpp:157] Top shape: 6 128 62 62 (2952192)
I0718 14:14:47.077545 30362 net.cpp:165] Memory required for data: 6032110152
I0718 14:14:47.077564 30362 layer_factory.hpp:76] Creating layer inception_4e/relu_5x5
I0718 14:14:47.077589 30362 net.cpp:106] Creating Layer inception_4e/relu_5x5
I0718 14:14:47.077600 30362 net.cpp:454] inception_4e/relu_5x5 <- inception_4e/5x5
I0718 14:14:47.077615 30362 net.cpp:397] inception_4e/relu_5x5 -> inception_4e/5x5 (in-place)
I0718 14:14:47.078646 30362 net.cpp:150] Setting up inception_4e/relu_5x5
I0718 14:14:47.078691 30362 net.cpp:157] Top shape: 6 128 62 62 (2952192)
I0718 14:14:47.078711 30362 net.cpp:165] Memory required for data: 6043918920
I0718 14:14:47.078732 30362 layer_factory.hpp:76] Creating layer inception_4e/pool
I0718 14:14:47.078773 30362 net.cpp:106] Creating Layer inception_4e/pool
I0718 14:14:47.078791 30362 net.cpp:454] inception_4e/pool <- inception_4d/output_inception_4d/output_0_split_3
I0718 14:14:47.078822 30362 net.cpp:411] inception_4e/pool -> inception_4e/pool
I0718 14:14:47.079470 30362 net.cpp:150] Setting up inception_4e/pool
I0718 14:14:47.079493 30362 net.cpp:157] Top shape: 6 528 62 62 (12177792)
I0718 14:14:47.079500 30362 net.cpp:165] Memory required for data: 6092630088
I0718 14:14:47.079512 30362 layer_factory.hpp:76] Creating layer inception_4e/pool_proj
I0718 14:14:47.079535 30362 net.cpp:106] Creating Layer inception_4e/pool_proj
I0718 14:14:47.079545 30362 net.cpp:454] inception_4e/pool_proj <- inception_4e/pool
I0718 14:14:47.079556 30362 net.cpp:411] inception_4e/pool_proj -> inception_4e/pool_proj
I0718 14:14:47.087788 30362 cudnn_conv_layer.cpp:194] Reallocating workspace storage: 6336
I0718 14:14:47.087913 30362 net.cpp:150] Setting up inception_4e/pool_proj
I0718 14:14:47.087934 30362 net.cpp:157] Top shape: 6 128 62 62 (2952192)
I0718 14:14:47.087947 30362 net.cpp:165] Memory required for data: 6104438856
I0718 14:14:47.087972 30362 layer_factory.hpp:76] Creating layer inception_4e/relu_pool_proj
I0718 14:14:47.087997 30362 net.cpp:106] Creating Layer inception_4e/relu_pool_proj
I0718 14:14:47.088011 30362 net.cpp:454] inception_4e/relu_pool_proj <- inception_4e/pool_proj
I0718 14:14:47.088047 30362 net.cpp:397] inception_4e/relu_pool_proj -> inception_4e/pool_proj (in-place)
I0718 14:14:47.088490 30362 net.cpp:150] Setting up inception_4e/relu_pool_proj
I0718 14:14:47.088510 30362 net.cpp:157] Top shape: 6 128 62 62 (2952192)
I0718 14:14:47.088516 30362 net.cpp:165] Memory required for data: 6116247624
I0718 14:14:47.088524 30362 layer_factory.hpp:76] Creating layer inception_4e/output
I0718 14:14:47.088543 30362 net.cpp:106] Creating Layer inception_4e/output
I0718 14:14:47.088551 30362 net.cpp:454] inception_4e/output <- inception_4e/1x1
I0718 14:14:47.088560 30362 net.cpp:454] inception_4e/output <- inception_4e/3x3
I0718 14:14:47.088568 30362 net.cpp:454] inception_4e/output <- inception_4e/5x5
I0718 14:14:47.088577 30362 net.cpp:454] inception_4e/output <- inception_4e/pool_proj
I0718 14:14:47.088585 30362 net.cpp:411] inception_4e/output -> inception_4e/output
I0718 14:14:47.088644 30362 net.cpp:150] Setting up inception_4e/output
I0718 14:14:47.088655 30362 net.cpp:157] Top shape: 6 832 62 62 (19189248)
I0718 14:14:47.088661 30362 net.cpp:165] Memory required for data: 6193004616
I0718 14:14:47.088668 30362 layer_factory.hpp:76] Creating layer pool4/3x3_s2
I0718 14:14:47.088680 30362 net.cpp:106] Creating Layer pool4/3x3_s2
I0718 14:14:47.088687 30362 net.cpp:454] pool4/3x3_s2 <- inception_4e/output
I0718 14:14:47.088712 30362 net.cpp:411] pool4/3x3_s2 -> pool4/3x3_s2
I0718 14:14:47.090709 30362 net.cpp:150] Setting up pool4/3x3_s2
I0718 14:14:47.090750 30362 net.cpp:157] Top shape: 6 832 31 31 (4797312)
I0718 14:14:47.090772 30362 net.cpp:165] Memory required for data: 6212193864
I0718 14:14:47.090791 30362 layer_factory.hpp:76] Creating layer pool4/3x3_s2_pool4/3x3_s2_0_split
I0718 14:14:47.090826 30362 net.cpp:106] Creating Layer pool4/3x3_s2_pool4/3x3_s2_0_split
I0718 14:14:47.090842 30362 net.cpp:454] pool4/3x3_s2_pool4/3x3_s2_0_split <- pool4/3x3_s2
I0718 14:14:47.090862 30362 net.cpp:411] pool4/3x3_s2_pool4/3x3_s2_0_split -> pool4/3x3_s2_pool4/3x3_s2_0_split_0
I0718 14:14:47.090891 30362 net.cpp:411] pool4/3x3_s2_pool4/3x3_s2_0_split -> pool4/3x3_s2_pool4/3x3_s2_0_split_1
I0718 14:14:47.090919 30362 net.cpp:411] pool4/3x3_s2_pool4/3x3_s2_0_split -> pool4/3x3_s2_pool4/3x3_s2_0_split_2
I0718 14:14:47.090937 30362 net.cpp:411] pool4/3x3_s2_pool4/3x3_s2_0_split -> pool4/3x3_s2_pool4/3x3_s2_0_split_3
I0718 14:14:47.091117 30362 net.cpp:150] Setting up pool4/3x3_s2_pool4/3x3_s2_0_split
I0718 14:14:47.091143 30362 net.cpp:157] Top shape: 6 832 31 31 (4797312)
I0718 14:14:47.091161 30362 net.cpp:157] Top shape: 6 832 31 31 (4797312)
I0718 14:14:47.091173 30362 net.cpp:157] Top shape: 6 832 31 31 (4797312)
I0718 14:14:47.091189 30362 net.cpp:157] Top shape: 6 832 31 31 (4797312)
I0718 14:14:47.091202 30362 net.cpp:165] Memory required for data: 6288950856
I0718 14:14:47.091218 30362 layer_factory.hpp:76] Creating layer inception_5a/1x1
I0718 14:14:47.091250 30362 net.cpp:106] Creating Layer inception_5a/1x1
I0718 14:14:47.091266 30362 net.cpp:454] inception_5a/1x1 <- pool4/3x3_s2_pool4/3x3_s2_0_split_0
I0718 14:14:47.091295 30362 net.cpp:411] inception_5a/1x1 -> inception_5a/1x1
I0718 14:14:47.100380 30362 cudnn_conv_layer.cpp:194] Reallocating workspace storage: 9984
I0718 14:14:47.100554 30362 net.cpp:150] Setting up inception_5a/1x1
I0718 14:14:47.100603 30362 net.cpp:157] Top shape: 6 256 31 31 (1476096)
I0718 14:14:47.100630 30362 net.cpp:165] Memory required for data: 6294855240
I0718 14:14:47.100668 30362 layer_factory.hpp:76] Creating layer inception_5a/relu_1x1
I0718 14:14:47.100733 30362 net.cpp:106] Creating Layer inception_5a/relu_1x1
I0718 14:14:47.100775 30362 net.cpp:454] inception_5a/relu_1x1 <- inception_5a/1x1
I0718 14:14:47.100801 30362 net.cpp:397] inception_5a/relu_1x1 -> inception_5a/1x1 (in-place)
I0718 14:14:47.102502 30362 net.cpp:150] Setting up inception_5a/relu_1x1
I0718 14:14:47.102555 30362 net.cpp:157] Top shape: 6 256 31 31 (1476096)
I0718 14:14:47.102572 30362 net.cpp:165] Memory required for data: 6300759624
I0718 14:14:47.102587 30362 layer_factory.hpp:76] Creating layer inception_5a/3x3_reduce
I0718 14:14:47.102780 30362 net.cpp:106] Creating Layer inception_5a/3x3_reduce
I0718 14:14:47.102807 30362 net.cpp:454] inception_5a/3x3_reduce <- pool4/3x3_s2_pool4/3x3_s2_0_split_1
I0718 14:14:47.102828 30362 net.cpp:411] inception_5a/3x3_reduce -> inception_5a/3x3_reduce
I0718 14:14:47.112434 30362 cudnn_conv_layer.cpp:194] Reallocating workspace storage: 9984
I0718 14:14:47.112612 30362 net.cpp:150] Setting up inception_5a/3x3_reduce
I0718 14:14:47.112648 30362 net.cpp:157] Top shape: 6 160 31 31 (922560)
I0718 14:14:47.112668 30362 net.cpp:165] Memory required for data: 6304449864
I0718 14:14:47.112699 30362 layer_factory.hpp:76] Creating layer inception_5a/relu_3x3_reduce
I0718 14:14:47.112740 30362 net.cpp:106] Creating Layer inception_5a/relu_3x3_reduce
I0718 14:14:47.112764 30362 net.cpp:454] inception_5a/relu_3x3_reduce <- inception_5a/3x3_reduce
I0718 14:14:47.112787 30362 net.cpp:397] inception_5a/relu_3x3_reduce -> inception_5a/3x3_reduce (in-place)
I0718 14:14:47.114919 30362 net.cpp:150] Setting up inception_5a/relu_3x3_reduce
I0718 14:14:47.114985 30362 net.cpp:157] Top shape: 6 160 31 31 (922560)
I0718 14:14:47.115001 30362 net.cpp:165] Memory required for data: 6308140104
I0718 14:14:47.115018 30362 layer_factory.hpp:76] Creating layer inception_5a/3x3
I0718 14:14:47.115056 30362 net.cpp:106] Creating Layer inception_5a/3x3
I0718 14:14:47.115074 30362 net.cpp:454] inception_5a/3x3 <- inception_5a/3x3_reduce
I0718 14:14:47.115093 30362 net.cpp:411] inception_5a/3x3 -> inception_5a/3x3
I0718 14:14:47.126857 30362 net.cpp:150] Setting up inception_5a/3x3
I0718 14:14:47.126978 30362 net.cpp:157] Top shape: 6 320 31 31 (1845120)
I0718 14:14:47.126998 30362 net.cpp:165] Memory required for data: 6315520584
I0718 14:14:47.127025 30362 layer_factory.hpp:76] Creating layer inception_5a/relu_3x3
I0718 14:14:47.127063 30362 net.cpp:106] Creating Layer inception_5a/relu_3x3
I0718 14:14:47.127082 30362 net.cpp:454] inception_5a/relu_3x3 <- inception_5a/3x3
I0718 14:14:47.127100 30362 net.cpp:397] inception_5a/relu_3x3 -> inception_5a/3x3 (in-place)
I0718 14:14:47.128985 30362 net.cpp:150] Setting up inception_5a/relu_3x3
I0718 14:14:47.129034 30362 net.cpp:157] Top shape: 6 320 31 31 (1845120)
I0718 14:14:47.129052 30362 net.cpp:165] Memory required for data: 6322901064
I0718 14:14:47.129067 30362 layer_factory.hpp:76] Creating layer inception_5a/5x5_reduce
I0718 14:14:47.129101 30362 net.cpp:106] Creating Layer inception_5a/5x5_reduce
I0718 14:14:47.129118 30362 net.cpp:454] inception_5a/5x5_reduce <- pool4/3x3_s2_pool4/3x3_s2_0_split_2
I0718 14:14:47.129137 30362 net.cpp:411] inception_5a/5x5_reduce -> inception_5a/5x5_reduce
I0718 14:14:47.136271 30362 net.cpp:150] Setting up inception_5a/5x5_reduce
I0718 14:14:47.136356 30362 net.cpp:157] Top shape: 6 32 31 31 (184512)
I0718 14:14:47.136371 30362 net.cpp:165] Memory required for data: 6323639112
I0718 14:14:47.136409 30362 layer_factory.hpp:76] Creating layer inception_5a/relu_5x5_reduce
I0718 14:14:47.136442 30362 net.cpp:106] Creating Layer inception_5a/relu_5x5_reduce
I0718 14:14:47.136461 30362 net.cpp:454] inception_5a/relu_5x5_reduce <- inception_5a/5x5_reduce
I0718 14:14:47.136479 30362 net.cpp:397] inception_5a/relu_5x5_reduce -> inception_5a/5x5_reduce (in-place)
I0718 14:14:47.137238 30362 net.cpp:150] Setting up inception_5a/relu_5x5_reduce
I0718 14:14:47.137264 30362 net.cpp:157] Top shape: 6 32 31 31 (184512)
I0718 14:14:47.137277 30362 net.cpp:165] Memory required for data: 6324377160
I0718 14:14:47.137295 30362 layer_factory.hpp:76] Creating layer inception_5a/5x5
I0718 14:14:47.137569 30362 net.cpp:106] Creating Layer inception_5a/5x5
I0718 14:14:47.137593 30362 net.cpp:454] inception_5a/5x5 <- inception_5a/5x5_reduce
I0718 14:14:47.137615 30362 net.cpp:411] inception_5a/5x5 -> inception_5a/5x5
I0718 14:14:47.145299 30362 net.cpp:150] Setting up inception_5a/5x5
I0718 14:14:47.145406 30362 net.cpp:157] Top shape: 6 128 31 31 (738048)
I0718 14:14:47.145421 30362 net.cpp:165] Memory required for data: 6327329352
I0718 14:14:47.145448 30362 layer_factory.hpp:76] Creating layer inception_5a/relu_5x5
I0718 14:14:47.145552 30362 net.cpp:106] Creating Layer inception_5a/relu_5x5
I0718 14:14:47.145576 30362 net.cpp:454] inception_5a/relu_5x5 <- inception_5a/5x5
I0718 14:14:47.145597 30362 net.cpp:397] inception_5a/relu_5x5 -> inception_5a/5x5 (in-place)
I0718 14:14:47.147486 30362 net.cpp:150] Setting up inception_5a/relu_5x5
I0718 14:14:47.147516 30362 net.cpp:157] Top shape: 6 128 31 31 (738048)
I0718 14:14:47.147529 30362 net.cpp:165] Memory required for data: 6330281544
I0718 14:14:47.147543 30362 layer_factory.hpp:76] Creating layer inception_5a/pool
I0718 14:14:47.147570 30362 net.cpp:106] Creating Layer inception_5a/pool
I0718 14:14:47.147590 30362 net.cpp:454] inception_5a/pool <- pool4/3x3_s2_pool4/3x3_s2_0_split_3
I0718 14:14:47.147610 30362 net.cpp:411] inception_5a/pool -> inception_5a/pool
I0718 14:14:47.148929 30362 net.cpp:150] Setting up inception_5a/pool
I0718 14:14:47.148957 30362 net.cpp:157] Top shape: 6 832 31 31 (4797312)
I0718 14:14:47.148970 30362 net.cpp:165] Memory required for data: 6349470792
I0718 14:14:47.148983 30362 layer_factory.hpp:76] Creating layer inception_5a/pool_proj
I0718 14:14:47.149014 30362 net.cpp:106] Creating Layer inception_5a/pool_proj
I0718 14:14:47.149029 30362 net.cpp:454] inception_5a/pool_proj <- inception_5a/pool
I0718 14:14:47.149045 30362 net.cpp:411] inception_5a/pool_proj -> inception_5a/pool_proj
I0718 14:14:47.160248 30362 cudnn_conv_layer.cpp:194] Reallocating workspace storage: 9984
I0718 14:14:47.160379 30362 net.cpp:150] Setting up inception_5a/pool_proj
I0718 14:14:47.160404 30362 net.cpp:157] Top shape: 6 128 31 31 (738048)
I0718 14:14:47.160414 30362 net.cpp:165] Memory required for data: 6352422984
I0718 14:14:47.160435 30362 layer_factory.hpp:76] Creating layer inception_5a/relu_pool_proj
I0718 14:14:47.160459 30362 net.cpp:106] Creating Layer inception_5a/relu_pool_proj
I0718 14:14:47.160473 30362 net.cpp:454] inception_5a/relu_pool_proj <- inception_5a/pool_proj
I0718 14:14:47.160486 30362 net.cpp:397] inception_5a/relu_pool_proj -> inception_5a/pool_proj (in-place)
I0718 14:14:47.162981 30362 net.cpp:150] Setting up inception_5a/relu_pool_proj
I0718 14:14:47.163044 30362 net.cpp:157] Top shape: 6 128 31 31 (738048)
I0718 14:14:47.163053 30362 net.cpp:165] Memory required for data: 6355375176
I0718 14:14:47.163066 30362 layer_factory.hpp:76] Creating layer inception_5a/output
I0718 14:14:47.163087 30362 net.cpp:106] Creating Layer inception_5a/output
I0718 14:14:47.163100 30362 net.cpp:454] inception_5a/output <- inception_5a/1x1
I0718 14:14:47.163113 30362 net.cpp:454] inception_5a/output <- inception_5a/3x3
I0718 14:14:47.163123 30362 net.cpp:454] inception_5a/output <- inception_5a/5x5
I0718 14:14:47.163133 30362 net.cpp:454] inception_5a/output <- inception_5a/pool_proj
I0718 14:14:47.163143 30362 net.cpp:411] inception_5a/output -> inception_5a/output
I0718 14:14:47.163223 30362 net.cpp:150] Setting up inception_5a/output
I0718 14:14:47.163239 30362 net.cpp:157] Top shape: 6 832 31 31 (4797312)
I0718 14:14:47.163252 30362 net.cpp:165] Memory required for data: 6374564424
I0718 14:14:47.163264 30362 layer_factory.hpp:76] Creating layer inception_5a/output_inception_5a/output_0_split
I0718 14:14:47.163278 30362 net.cpp:106] Creating Layer inception_5a/output_inception_5a/output_0_split
I0718 14:14:47.163288 30362 net.cpp:454] inception_5a/output_inception_5a/output_0_split <- inception_5a/output
I0718 14:14:47.163300 30362 net.cpp:411] inception_5a/output_inception_5a/output_0_split -> inception_5a/output_inception_5a/output_0_split_0
I0718 14:14:47.163313 30362 net.cpp:411] inception_5a/output_inception_5a/output_0_split -> inception_5a/output_inception_5a/output_0_split_1
I0718 14:14:47.163326 30362 net.cpp:411] inception_5a/output_inception_5a/output_0_split -> inception_5a/output_inception_5a/output_0_split_2
I0718 14:14:47.163337 30362 net.cpp:411] inception_5a/output_inception_5a/output_0_split -> inception_5a/output_inception_5a/output_0_split_3
I0718 14:14:47.163432 30362 net.cpp:150] Setting up inception_5a/output_inception_5a/output_0_split
I0718 14:14:47.163498 30362 net.cpp:157] Top shape: 6 832 31 31 (4797312)
I0718 14:14:47.163509 30362 net.cpp:157] Top shape: 6 832 31 31 (4797312)
I0718 14:14:47.163517 30362 net.cpp:157] Top shape: 6 832 31 31 (4797312)
I0718 14:14:47.163529 30362 net.cpp:157] Top shape: 6 832 31 31 (4797312)
I0718 14:14:47.163538 30362 net.cpp:165] Memory required for data: 6451321416
I0718 14:14:47.163547 30362 layer_factory.hpp:76] Creating layer inception_5b/1x1
I0718 14:14:47.163578 30362 net.cpp:106] Creating Layer inception_5b/1x1
I0718 14:14:47.163588 30362 net.cpp:454] inception_5b/1x1 <- inception_5a/output_inception_5a/output_0_split_0
I0718 14:14:47.163599 30362 net.cpp:411] inception_5b/1x1 -> inception_5b/1x1
I0718 14:14:47.172495 30362 cudnn_conv_layer.cpp:194] Reallocating workspace storage: 9984
I0718 14:14:47.172595 30362 net.cpp:150] Setting up inception_5b/1x1
I0718 14:14:47.172621 30362 net.cpp:157] Top shape: 6 384 31 31 (2214144)
I0718 14:14:47.172632 30362 net.cpp:165] Memory required for data: 6460177992
I0718 14:14:47.172652 30362 layer_factory.hpp:76] Creating layer inception_5b/relu_1x1
I0718 14:14:47.172673 30362 net.cpp:106] Creating Layer inception_5b/relu_1x1
I0718 14:14:47.172686 30362 net.cpp:454] inception_5b/relu_1x1 <- inception_5b/1x1
I0718 14:14:47.172698 30362 net.cpp:397] inception_5b/relu_1x1 -> inception_5b/1x1 (in-place)
I0718 14:14:47.175523 30362 net.cpp:150] Setting up inception_5b/relu_1x1
I0718 14:14:47.175577 30362 net.cpp:157] Top shape: 6 384 31 31 (2214144)
I0718 14:14:47.175592 30362 net.cpp:165] Memory required for data: 6469034568
I0718 14:14:47.175607 30362 layer_factory.hpp:76] Creating layer inception_5b/3x3_reduce
I0718 14:14:47.175648 30362 net.cpp:106] Creating Layer inception_5b/3x3_reduce
I0718 14:14:47.175674 30362 net.cpp:454] inception_5b/3x3_reduce <- inception_5a/output_inception_5a/output_0_split_1
I0718 14:14:47.175701 30362 net.cpp:411] inception_5b/3x3_reduce -> inception_5b/3x3_reduce
I0718 14:14:47.185581 30362 cudnn_conv_layer.cpp:194] Reallocating workspace storage: 9984
I0718 14:14:47.185688 30362 net.cpp:150] Setting up inception_5b/3x3_reduce
I0718 14:14:47.185710 30362 net.cpp:157] Top shape: 6 192 31 31 (1107072)
I0718 14:14:47.185720 30362 net.cpp:165] Memory required for data: 6473462856
I0718 14:14:47.185739 30362 layer_factory.hpp:76] Creating layer inception_5b/relu_3x3_reduce
I0718 14:14:47.185770 30362 net.cpp:106] Creating Layer inception_5b/relu_3x3_reduce
I0718 14:14:47.185788 30362 net.cpp:454] inception_5b/relu_3x3_reduce <- inception_5b/3x3_reduce
I0718 14:14:47.185803 30362 net.cpp:397] inception_5b/relu_3x3_reduce -> inception_5b/3x3_reduce (in-place)
I0718 14:14:47.188366 30362 net.cpp:150] Setting up inception_5b/relu_3x3_reduce
I0718 14:14:47.188403 30362 net.cpp:157] Top shape: 6 192 31 31 (1107072)
I0718 14:14:47.188417 30362 net.cpp:165] Memory required for data: 6477891144
I0718 14:14:47.188434 30362 layer_factory.hpp:76] Creating layer inception_5b/3x3
I0718 14:14:47.188457 30362 net.cpp:106] Creating Layer inception_5b/3x3
I0718 14:14:47.188473 30362 net.cpp:454] inception_5b/3x3 <- inception_5b/3x3_reduce
I0718 14:14:47.188498 30362 net.cpp:411] inception_5b/3x3 -> inception_5b/3x3
I0718 14:14:47.202741 30362 net.cpp:150] Setting up inception_5b/3x3
I0718 14:14:47.202798 30362 net.cpp:157] Top shape: 6 384 31 31 (2214144)
I0718 14:14:47.202812 30362 net.cpp:165] Memory required for data: 6486747720
I0718 14:14:47.202832 30362 layer_factory.hpp:76] Creating layer inception_5b/relu_3x3
I0718 14:14:47.202864 30362 net.cpp:106] Creating Layer inception_5b/relu_3x3
I0718 14:14:47.202883 30362 net.cpp:454] inception_5b/relu_3x3 <- inception_5b/3x3
I0718 14:14:47.202901 30362 net.cpp:397] inception_5b/relu_3x3 -> inception_5b/3x3 (in-place)
I0718 14:14:47.205204 30362 net.cpp:150] Setting up inception_5b/relu_3x3
I0718 14:14:47.205232 30362 net.cpp:157] Top shape: 6 384 31 31 (2214144)
I0718 14:14:47.205247 30362 net.cpp:165] Memory required for data: 6495604296
I0718 14:14:47.205261 30362 layer_factory.hpp:76] Creating layer inception_5b/5x5_reduce
I0718 14:14:47.205329 30362 net.cpp:106] Creating Layer inception_5b/5x5_reduce
I0718 14:14:47.205348 30362 net.cpp:454] inception_5b/5x5_reduce <- inception_5a/output_inception_5a/output_0_split_2
I0718 14:14:47.205371 30362 net.cpp:411] inception_5b/5x5_reduce -> inception_5b/5x5_reduce
I0718 14:14:47.212853 30362 net.cpp:150] Setting up inception_5b/5x5_reduce
I0718 14:14:47.212909 30362 net.cpp:157] Top shape: 6 48 31 31 (276768)
I0718 14:14:47.212924 30362 net.cpp:165] Memory required for data: 6496711368
I0718 14:14:47.212946 30362 layer_factory.hpp:76] Creating layer inception_5b/relu_5x5_reduce
I0718 14:14:47.212975 30362 net.cpp:106] Creating Layer inception_5b/relu_5x5_reduce
I0718 14:14:47.212992 30362 net.cpp:454] inception_5b/relu_5x5_reduce <- inception_5b/5x5_reduce
I0718 14:14:47.213009 30362 net.cpp:397] inception_5b/relu_5x5_reduce -> inception_5b/5x5_reduce (in-place)
I0718 14:14:47.214334 30362 net.cpp:150] Setting up inception_5b/relu_5x5_reduce
I0718 14:14:47.214364 30362 net.cpp:157] Top shape: 6 48 31 31 (276768)
I0718 14:14:47.214376 30362 net.cpp:165] Memory required for data: 6497818440
I0718 14:14:47.214390 30362 layer_factory.hpp:76] Creating layer inception_5b/5x5
I0718 14:14:47.214426 30362 net.cpp:106] Creating Layer inception_5b/5x5
I0718 14:14:47.214442 30362 net.cpp:454] inception_5b/5x5 <- inception_5b/5x5_reduce
I0718 14:14:47.214467 30362 net.cpp:411] inception_5b/5x5 -> inception_5b/5x5
I0718 14:14:47.221951 30362 net.cpp:150] Setting up inception_5b/5x5
I0718 14:14:47.222003 30362 net.cpp:157] Top shape: 6 128 31 31 (738048)
I0718 14:14:47.222018 30362 net.cpp:165] Memory required for data: 6500770632
I0718 14:14:47.222038 30362 layer_factory.hpp:76] Creating layer inception_5b/relu_5x5
I0718 14:14:47.222066 30362 net.cpp:106] Creating Layer inception_5b/relu_5x5
I0718 14:14:47.222084 30362 net.cpp:454] inception_5b/relu_5x5 <- inception_5b/5x5
I0718 14:14:47.222100 30362 net.cpp:397] inception_5b/relu_5x5 -> inception_5b/5x5 (in-place)
I0718 14:14:47.223628 30362 net.cpp:150] Setting up inception_5b/relu_5x5
I0718 14:14:47.223656 30362 net.cpp:157] Top shape: 6 128 31 31 (738048)
I0718 14:14:47.223672 30362 net.cpp:165] Memory required for data: 6503722824
I0718 14:14:47.223686 30362 layer_factory.hpp:76] Creating layer inception_5b/pool
I0718 14:14:47.223703 30362 net.cpp:106] Creating Layer inception_5b/pool
I0718 14:14:47.223718 30362 net.cpp:454] inception_5b/pool <- inception_5a/output_inception_5a/output_0_split_3
I0718 14:14:47.223738 30362 net.cpp:411] inception_5b/pool -> inception_5b/pool
I0718 14:14:47.226580 30362 net.cpp:150] Setting up inception_5b/pool
I0718 14:14:47.226608 30362 net.cpp:157] Top shape: 6 832 31 31 (4797312)
I0718 14:14:47.226622 30362 net.cpp:165] Memory required for data: 6522912072
I0718 14:14:47.226646 30362 layer_factory.hpp:76] Creating layer inception_5b/pool_proj
I0718 14:14:47.226676 30362 net.cpp:106] Creating Layer inception_5b/pool_proj
I0718 14:14:47.226691 30362 net.cpp:454] inception_5b/pool_proj <- inception_5b/pool
I0718 14:14:47.226713 30362 net.cpp:411] inception_5b/pool_proj -> inception_5b/pool_proj
I0718 14:14:47.234952 30362 cudnn_conv_layer.cpp:194] Reallocating workspace storage: 9984
I0718 14:14:47.235071 30362 net.cpp:150] Setting up inception_5b/pool_proj
I0718 14:14:47.235110 30362 net.cpp:157] Top shape: 6 128 31 31 (738048)
I0718 14:14:47.235132 30362 net.cpp:165] Memory required for data: 6525864264
I0718 14:14:47.235169 30362 layer_factory.hpp:76] Creating layer inception_5b/relu_pool_proj
I0718 14:14:47.235204 30362 net.cpp:106] Creating Layer inception_5b/relu_pool_proj
I0718 14:14:47.235224 30362 net.cpp:454] inception_5b/relu_pool_proj <- inception_5b/pool_proj
I0718 14:14:47.235244 30362 net.cpp:397] inception_5b/relu_pool_proj -> inception_5b/pool_proj (in-place)
I0718 14:14:47.236929 30362 net.cpp:150] Setting up inception_5b/relu_pool_proj
I0718 14:14:47.236955 30362 net.cpp:157] Top shape: 6 128 31 31 (738048)
I0718 14:14:47.236968 30362 net.cpp:165] Memory required for data: 6528816456
I0718 14:14:47.237033 30362 layer_factory.hpp:76] Creating layer inception_5b/output
I0718 14:14:47.237053 30362 net.cpp:106] Creating Layer inception_5b/output
I0718 14:14:47.237072 30362 net.cpp:454] inception_5b/output <- inception_5b/1x1
I0718 14:14:47.237088 30362 net.cpp:454] inception_5b/output <- inception_5b/3x3
I0718 14:14:47.237107 30362 net.cpp:454] inception_5b/output <- inception_5b/5x5
I0718 14:14:47.237123 30362 net.cpp:454] inception_5b/output <- inception_5b/pool_proj
I0718 14:14:47.237140 30362 net.cpp:411] inception_5b/output -> inception_5b/output
I0718 14:14:47.237200 30362 net.cpp:150] Setting up inception_5b/output
I0718 14:14:47.237226 30362 net.cpp:157] Top shape: 6 1024 31 31 (5904384)
I0718 14:14:47.237239 30362 net.cpp:165] Memory required for data: 6552433992
I0718 14:14:47.237254 30362 layer_factory.hpp:76] Creating layer pool5/7x7_s1
I0718 14:14:47.237283 30362 net.cpp:106] Creating Layer pool5/7x7_s1
I0718 14:14:47.237300 30362 net.cpp:454] pool5/7x7_s1 <- inception_5b/output
I0718 14:14:47.237318 30362 net.cpp:411] pool5/7x7_s1 -> pool5/7x7_s1
I0718 14:14:47.493670 30362 cudnn_conv_layer.cpp:194] Reallocating workspace storage: 602112
I0718 14:14:47.493957 30362 net.cpp:150] Setting up pool5/7x7_s1
I0718 14:14:47.493981 30362 net.cpp:157] Top shape: 6 512 25 25 (1920000)
I0718 14:14:47.493990 30362 net.cpp:165] Memory required for data: 6560113992
I0718 14:14:47.494009 30362 layer_factory.hpp:76] Creating layer pool5/drop_7x7_s1
I0718 14:14:47.494032 30362 net.cpp:106] Creating Layer pool5/drop_7x7_s1
I0718 14:14:47.494045 30362 net.cpp:454] pool5/drop_7x7_s1 <- pool5/7x7_s1
I0718 14:14:47.494056 30362 net.cpp:397] pool5/drop_7x7_s1 -> pool5/7x7_s1 (in-place)
I0718 14:14:47.494109 30362 net.cpp:150] Setting up pool5/drop_7x7_s1
I0718 14:14:47.494124 30362 net.cpp:157] Top shape: 6 512 25 25 (1920000)
I0718 14:14:47.494132 30362 net.cpp:165] Memory required for data: 6567793992
I0718 14:14:47.494141 30362 layer_factory.hpp:76] Creating layer loss3/classifier
I0718 14:14:47.494158 30362 net.cpp:106] Creating Layer loss3/classifier
I0718 14:14:47.494169 30362 net.cpp:454] loss3/classifier <- pool5/7x7_s1
I0718 14:14:47.494182 30362 net.cpp:411] loss3/classifier -> loss3/classifier
I0718 14:14:47.500298 30362 net.cpp:150] Setting up loss3/classifier
I0718 14:14:47.500320 30362 net.cpp:157] Top shape: 6 2 (12)
I0718 14:14:47.500329 30362 net.cpp:165] Memory required for data: 6567794040
I0718 14:14:47.500342 30362 layer_factory.hpp:76] Creating layer loss3/loss3
I0718 14:14:47.500357 30362 net.cpp:106] Creating Layer loss3/loss3
I0718 14:14:47.500366 30362 net.cpp:454] loss3/loss3 <- loss3/classifier
I0718 14:14:47.500380 30362 net.cpp:411] loss3/loss3 -> loss3/loss3
I0718 14:14:47.500705 30362 net.cpp:150] Setting up loss3/loss3
I0718 14:14:47.500723 30362 net.cpp:157] Top shape: 6 2 (12)
I0718 14:14:47.500732 30362 net.cpp:165] Memory required for data: 6567794088
I0718 14:14:47.500741 30362 layer_factory.hpp:76] Creating layer conv61
I0718 14:14:47.500758 30362 net.cpp:106] Creating Layer conv61
I0718 14:14:47.500767 30362 net.cpp:454] conv61 <- loss3/loss3
I0718 14:14:47.500790 30362 net.cpp:411] conv61 -> conv61
F0718 14:14:47.500861 30362 base_conv_layer.cpp:28] Check failed: num_spatial_axes_ == 2 (0 vs. 2) kernel_h & kernel_w can only be used for 2D convolution.
