…
I0718 14:30:33.817044 33277 net.cpp:322] The NetState phase (0) differed from the phase (1) specified by a rule in layer data
I0718 14:30:33.818186 33277 net.cpp:49] Initializing net from parameters: 
name: "GoogleNet"
state {
  phase: TRAIN
}
layer {
  name: "data"
  type: "ImageData"
  top: "data"
  top: "label"
  include {
    phase: TRAIN
  }
  transform_param {
    mirror: true
    mean_value: 163
    mean_value: 116
    mean_value: 181
  }
  image_data_param {
    source: "../lists/mitosis_train.lst"
    batch_size: 4
    shuffle: true
  }
}
layer {
  name: "conv1/7x7_s2"
  type: "Convolution"
  bottom: "data"
  top: "conv1/7x7_s2"
  param {
    lr_mult: 0
    decay_mult: 1
  }
  param {
    lr_mult: 2
    decay_mult: 0
  }
  convolution_param {
    num_output: 64
    pad: 3
    kernel_size: 7
    stride: 2
    weight_filler {
      type: "xavier"
    }
    bias_filler {
      type: "constant"
      value: 0.2
    }
  }
}
layer {
  name: "conv1/relu_7x7"
  type: "ReLU"
  bottom: "conv1/7x7_s2"
  top: "conv1/7x7_s2"
}
layer {
  name: "pool1/3x3_s2"
  type: "Pooling"
  bottom: "conv1/7x7_s2"
  top: "pool1/3x3_s2"
  pooling_param {
    pool: MAX
    kernel_size: 3
    stride: 2
  }
}
layer {
  name: "pool1/norm1"
  type: "LRN"
  bottom: "pool1/3x3_s2"
  top: "pool1/norm1"
  lrn_param {
    local_size: 5
    alpha: 0.0001
    beta: 0.75
  }
}
layer {
  name: "conv2/3x3_reduce"
  type: "Convolution"
  bottom: "pool1/norm1"
  top: "conv2/3x3_reduce"
  param {
    lr_mult: 0
    decay_mult: 1
  }
  param {
    lr_mult: 2
    decay_mult: 0
  }
  convolution_param {
    num_output: 64
    kernel_size: 1
    weight_filler {
      type: "xavier"
    }
    bias_filler {
      type: "constant"
      value: 0.2
    }
  }
}
layer {
  name: "conv2/relu_3x3_reduce"
  type: "ReLU"
  bottom: "conv2/3x3_reduce"
  top: "conv2/3x3_reduce"
}
layer {
  name: "conv2/3x3"
  type: "Convolution"
  bottom: "conv2/3x3_reduce"
  top: "conv2/3x3"
  param {
    lr_mult: 0
    decay_mult: 1
  }
  param {
    lr_mult: 2
    decay_mult: 0
  }
  convolution_param {
    num_output: 192
    pad: 1
    kernel_size: 3
    weight_filler {
      type: "xavier"
    }
    bias_filler {
      type: "constant"
      value: 0.2
    }
  }
}
layer {
  name: "conv2/relu_3x3"
  type: "ReLU"
  bottom: "conv2/3x3"
  top: "conv2/3x3"
}
layer {
  name: "conv2/norm2"
  type: "LRN"
  bottom: "conv2/3x3"
  top: "conv2/norm2"
  lrn_param {
    local_size: 5
    alpha: 0.0001
    beta: 0.75
  }
}
layer {
  name: "pool2/3x3_s2"
  type: "Pooling"
  bottom: "conv2/norm2"
  top: "pool2/3x3_s2"
  pooling_param {
    pool: MAX
    kernel_size: 3
    stride: 2
  }
}
layer {
  name: "inception_3a/1x1"
  type: "Convolution"
  bottom: "pool2/3x3_s2"
  top: "inception_3a/1x1"
  param {
    lr_mult: 0
    decay_mult: 1
  }
  param {
    lr_mult: 2
    decay_mult: 0
  }
  convolution_param {
    num_output: 64
    kernel_size: 1
    weight_filler {
      type: "xavier"
    }
    bias_filler {
      type: "constant"
      value: 0.2
    }
  }
}
layer {
  name: "inception_3a/relu_1x1"
  type: "ReLU"
  bottom: "inception_3a/1x1"
  top: "inception_3a/1x1"
}
layer {
  name: "inception_3a/3x3_reduce"
  type: "Convolution"
  bottom: "pool2/3x3_s2"
  top: "inception_3a/3x3_reduce"
  param {
    lr_mult: 0
    decay_mult: 1
  }
  param {
    lr_mult: 2
    decay_mult: 0
  }
  convolution_param {
    num_output: 96
    kernel_size: 1
    weight_filler {
      type: "xavier"
    }
    bias_filler {
      type: "constant"
      value: 0.2
    }
  }
}
layer {
  name: "inception_3a/relu_3x3_reduce"
  type: "ReLU"
  bottom: "inception_3a/3x3_reduce"
  top: "inception_3a/3x3_reduce"
}
layer {
  name: "inception_3a/3x3"
  type: "Convolution"
  bottom: "inception_3a/3x3_reduce"
  top: "inception_3a/3x3"
  param {
    lr_mult: 0
    decay_mult: 1
  }
  param {
    lr_mult: 2
    decay_mult: 0
  }
  convolution_param {
    num_output: 128
    pad: 1
    kernel_size: 3
    weight_filler {
      type: "xavier"
    }
    bias_filler {
      type: "constant"
      value: 0.2
    }
  }
}
layer {
  name: "inception_3a/relu_3x3"
  type: "ReLU"
  bottom: "inception_3a/3x3"
  top: "inception_3a/3x3"
}
layer {
  name: "inception_3a/5x5_reduce"
  type: "Convolution"
  bottom: "pool2/3x3_s2"
  top: "inception_3a/5x5_reduce"
  param {
    lr_mult: 0
    decay_mult: 1
  }
  param {
    lr_mult: 2
    decay_mult: 0
  }
  convolution_param {
    num_output: 16
    kernel_size: 1
    weight_filler {
      type: "xavier"
    }
    bias_filler {
      type: "constant"
      value: 0.2
    }
  }
}
layer {
  name: "inception_3a/relu_5x5_reduce"
  type: "ReLU"
  bottom: "inception_3a/5x5_reduce"
  top: "inception_3a/5x5_reduce"
}
layer {
  name: "inception_3a/5x5"
  type: "Convolution"
  bottom: "inception_3a/5x5_reduce"
  top: "inception_3a/5x5"
  param {
    lr_mult: 0
    decay_mult: 1
  }
  param {
    lr_mult: 2
    decay_mult: 0
  }
  convolution_param {
    num_output: 32
    pad: 2
    kernel_size: 5
    weight_filler {
      type: "xavier"
    }
    bias_filler {
      type: "constant"
      value: 0.2
    }
  }
}
layer {
  name: "inception_3a/relu_5x5"
  type: "ReLU"
  bottom: "inception_3a/5x5"
  top: "inception_3a/5x5"
}
layer {
  name: "inception_3a/pool"
  type: "Pooling"
  bottom: "pool2/3x3_s2"
  top: "inception_3a/pool"
  pooling_param {
    pool: MAX
    kernel_size: 3
    stride: 1
    pad: 1
  }
}
layer {
  name: "inception_3a/pool_proj"
  type: "Convolution"
  bottom: "inception_3a/pool"
  top: "inception_3a/pool_proj"
  param {
    lr_mult: 0
    decay_mult: 1
  }
  param {
    lr_mult: 2
    decay_mult: 0
  }
  convolution_param {
    num_output: 32
    kernel_size: 1
    weight_filler {
      type: "xavier"
    }
    bias_filler {
      type: "constant"
      value: 0.2
    }
  }
}
layer {
  name: "inception_3a/relu_pool_proj"
  type: "ReLU"
  bottom: "inception_3a/pool_proj"
  top: "inception_3a/pool_proj"
}
layer {
  name: "inception_3a/output"
  type: "Concat"
  bottom: "inception_3a/1x1"
  bottom: "inception_3a/3x3"
  bottom: "inception_3a/5x5"
  bottom: "inception_3a/pool_proj"
  top: "inception_3a/output"
}
layer {
  name: "inception_3b/1x1"
  type: "Convolution"
  bottom: "inception_3a/output"
  top: "inception_3b/1x1"
  param {
    lr_mult: 0
    decay_mult: 1
  }
  param {
    lr_mult: 2
    decay_mult: 0
  }
  convolution_param {
    num_output: 128
    kernel_size: 1
    weight_filler {
      type: "xavier"
    }
    bias_filler {
      type: "constant"
      value: 0.2
    }
  }
}
layer {
  name: "inception_3b/relu_1x1"
  type: "ReLU"
  bottom: "inception_3b/1x1"
  top: "inception_3b/1x1"
}
layer {
  name: "inception_3b/3x3_reduce"
  type: "Convolution"
  bottom: "inception_3a/output"
  top: "inception_3b/3x3_reduce"
  param {
    lr_mult: 0
    decay_mult: 1
  }
  param {
    lr_mult: 2
    decay_mult: 0
  }
  convolution_param {
    num_output: 128
    kernel_size: 1
    weight_filler {
      type: "xavier"
    }
    bias_filler {
      type: "constant"
      value: 0.2
    }
  }
}
layer {
  name: "inception_3b/relu_3x3_reduce"
  type: "ReLU"
  bottom: "inception_3b/3x3_reduce"
  top: "inception_3b/3x3_reduce"
}
layer {
  name: "inception_3b/3x3"
  type: "Convolution"
  bottom: "inception_3b/3x3_reduce"
  top: "inception_3b/3x3"
  param {
    lr_mult: 0
    decay_mult: 1
  }
  param {
    lr_mult: 2
    decay_mult: 0
  }
  convolution_param {
    num_output: 192
    pad: 1
    kernel_size: 3
    weight_filler {
      type: "xavier"
    }
    bias_filler {
      type: "constant"
      value: 0.2
    }
  }
}
layer {
  name: "inception_3b/relu_3x3"
  type: "ReLU"
  bottom: "inception_3b/3x3"
  top: "inception_3b/3x3"
}
layer {
  name: "inception_3b/5x5_reduce"
  type: "Convolution"
  bottom: "inception_3a/output"
  top: "inception_3b/5x5_reduce"
  param {
    lr_mult: 0
    decay_mult: 1
  }
  param {
    lr_mult: 2
    decay_mult: 0
  }
  convolution_param {
    num_output: 32
    kernel_size: 1
    weight_filler {
      type: "xavier"
    }
    bias_filler {
      type: "constant"
      value: 0.2
    }
  }
}
layer {
  name: "inception_3b/relu_5x5_reduce"
  type: "ReLU"
  bottom: "inception_3b/5x5_reduce"
  top: "inception_3b/5x5_reduce"
}
layer {
  name: "inception_3b/5x5"
  type: "Convolution"
  bottom: "inception_3b/5x5_reduce"
  top: "inception_3b/5x5"
  param {
    lr_mult: 0
    decay_mult: 1
  }
  param {
    lr_mult: 2
    decay_mult: 0
  }
  convolution_param {
    num_output: 96
    pad: 2
    kernel_size: 5
    weight_filler {
      type: "xavier"
    }
    bias_filler {
      type: "constant"
      value: 0.2
    }
  }
}
layer {
  name: "inception_3b/relu_5x5"
  type: "ReLU"
  bottom: "inception_3b/5x5"
  top: "inception_3b/5x5"
}
layer {
  name: "inception_3b/pool"
  type: "Pooling"
  bottom: "inception_3a/output"
  top: "inception_3b/pool"
  pooling_param {
    pool: MAX
    kernel_size: 3
    stride: 1
    pad: 1
  }
}
layer {
  name: "inception_3b/pool_proj"
  type: "Convolution"
  bottom: "inception_3b/pool"
  top: "inception_3b/pool_proj"
  param {
    lr_mult: 0
    decay_mult: 1
  }
  param {
    lr_mult: 2
    decay_mult: 0
  }
  convolution_param {
    num_output: 64
    kernel_size: 1
    weight_filler {
      type: "xavier"
    }
    bias_filler {
      type: "constant"
      value: 0.2
    }
  }
}
layer {
  name: "inception_3b/relu_pool_proj"
  type: "ReLU"
  bottom: "inception_3b/pool_proj"
  top: "inception_3b/pool_proj"
}
layer {
  name: "inception_3b/output"
  type: "Concat"
  bottom: "inception_3b/1x1"
  bottom: "inception_3b/3x3"
  bottom: "inception_3b/5x5"
  bottom: "inception_3b/pool_proj"
  top: "inception_3b/output"
}
layer {
  name: "pool3/3x3_s2"
  type: "Pooling"
  bottom: "inception_3b/output"
  top: "pool3/3x3_s2"
  pooling_param {
    pool: MAX
    kernel_size: 3
    stride: 2
  }
}
layer {
  name: "inception_4a/1x1"
  type: "Convolution"
  bottom: "pool3/3x3_s2"
  top: "inception_4a/1x1"
  param {
    lr_mult: 0
    decay_mult: 1
  }
  param {
    lr_mult: 2
    decay_mult: 0
  }
  convolution_param {
    num_output: 192
    kernel_size: 1
    weight_filler {
      type: "xavier"
    }
    bias_filler {
      type: "constant"
      value: 0.2
    }
  }
}
layer {
  name: "inception_4a/relu_1x1"
  type: "ReLU"
  bottom: "inception_4a/1x1"
  top: "inception_4a/1x1"
}
layer {
  name: "inception_4a/3x3_reduce"
  type: "Convolution"
  bottom: "pool3/3x3_s2"
  top: "inception_4a/3x3_reduce"
  param {
    lr_mult: 0
    decay_mult: 1
  }
  param {
    lr_mult: 2
    decay_mult: 0
  }
  convolution_param {
    num_output: 96
    kernel_size: 1
    weight_filler {
      type: "xavier"
    }
    bias_filler {
      type: "constant"
      value: 0.2
    }
  }
}
layer {
  name: "inception_4a/relu_3x3_reduce"
  type: "ReLU"
  bottom: "inception_4a/3x3_reduce"
  top: "inception_4a/3x3_reduce"
}
layer {
  name: "inception_4a/3x3"
  type: "Convolution"
  bottom: "inception_4a/3x3_reduce"
  top: "inception_4a/3x3"
  param {
    lr_mult: 0
    decay_mult: 1
  }
  param {
    lr_mult: 2
    decay_mult: 0
  }
  convolution_param {
    num_output: 208
    pad: 1
    kernel_size: 3
    weight_filler {
      type: "xavier"
    }
    bias_filler {
      type: "constant"
      value: 0.2
    }
  }
}
layer {
  name: "inception_4a/relu_3x3"
  type: "ReLU"
  bottom: "inception_4a/3x3"
  top: "inception_4a/3x3"
}
layer {
  name: "inception_4a/5x5_reduce"
  type: "Convolution"
  bottom: "pool3/3x3_s2"
  top: "inception_4a/5x5_reduce"
  param {
    lr_mult: 0
    decay_mult: 1
  }
  param {
    lr_mult: 2
    decay_mult: 0
  }
  convolution_param {
    num_output: 16
    kernel_size: 1
    weight_filler {
      type: "xavier"
    }
    bias_filler {
      type: "constant"
      value: 0.2
    }
  }
}
layer {
  name: "inception_4a/relu_5x5_reduce"
  type: "ReLU"
  bottom: "inception_4a/5x5_reduce"
  top: "inception_4a/5x5_reduce"
}
layer {
  name: "inception_4a/5x5"
  type: "Convolution"
  bottom: "inception_4a/5x5_reduce"
  top: "inception_4a/5x5"
  param {
    lr_mult: 0
    decay_mult: 1
  }
  param {
    lr_mult: 2
    decay_mult: 0
  }
  convolution_param {
    num_output: 48
    pad: 2
    kernel_size: 5
    weight_filler {
      type: "xavier"
    }
    bias_filler {
      type: "constant"
      value: 0.2
    }
  }
}
layer {
  name: "inception_4a/relu_5x5"
  type: "ReLU"
  bottom: "inception_4a/5x5"
  top: "inception_4a/5x5"
}
layer {
  name: "inception_4a/pool"
  type: "Pooling"
  bottom: "pool3/3x3_s2"
  top: "inception_4a/pool"
  pooling_param {
    pool: MAX
    kernel_size: 3
    stride: 1
    pad: 1
  }
}
layer {
  name: "inception_4a/pool_proj"
  type: "Convolution"
  bottom: "inception_4a/pool"
  top: "inception_4a/pool_proj"
  param {
    lr_mult: 0
    decay_mult: 1
  }
  param {
    lr_mult: 2
    decay_mult: 0
  }
  convolution_param {
    num_output: 64
    kernel_size: 1
    weight_filler {
      type: "xavier"
    }
    bias_filler {
      type: "constant"
      value: 0.2
    }
  }
}
layer {
  name: "inception_4a/relu_pool_proj"
  type: "ReLU"
  bottom: "inception_4a/pool_proj"
  top: "inception_4a/pool_proj"
}
layer {
  name: "inception_4a/output"
  type: "Concat"
  bottom: "inception_4a/1x1"
  bottom: "inception_4a/3x3"
  bottom: "inception_4a/5x5"
  bottom: "inception_4a/pool_proj"
  top: "inception_4a/output"
}
layer {
  name: "inception_4b/1x1"
  type: "Convolution"
  bottom: "inception_4a/output"
  top: "inception_4b/1x1"
  param {
    lr_mult: 0
    decay_mult: 1
  }
  param {
    lr_mult: 2
    decay_mult: 0
  }
  convolution_param {
    num_output: 160
    kernel_size: 1
    weight_filler {
      type: "xavier"
    }
    bias_filler {
      type: "constant"
      value: 0.2
    }
  }
}
layer {
  name: "inception_4b/relu_1x1"
  type: "ReLU"
  bottom: "inception_4b/1x1"
  top: "inception_4b/1x1"
}
layer {
  name: "inception_4b/3x3_reduce"
  type: "Convolution"
  bottom: "inception_4a/output"
  top: "inception_4b/3x3_reduce"
  param {
    lr_mult: 0
    decay_mult: 1
  }
  param {
    lr_mult: 2
    decay_mult: 0
  }
  convolution_param {
    num_output: 112
    kernel_size: 1
    weight_filler {
      type: "xavier"
    }
    bias_filler {
      type: "constant"
      value: 0.2
    }
  }
}
layer {
  name: "inception_4b/relu_3x3_reduce"
  type: "ReLU"
  bottom: "inception_4b/3x3_reduce"
  top: "inception_4b/3x3_reduce"
}
layer {
  name: "inception_4b/3x3"
  type: "Convolution"
  bottom: "inception_4b/3x3_reduce"
  top: "inception_4b/3x3"
  param {
    lr_mult: 0
    decay_mult: 1
  }
  param {
    lr_mult: 2
    decay_mult: 0
  }
  convolution_param {
    num_output: 224
    pad: 1
    kernel_size: 3
    weight_filler {
      type: "xavier"
    }
    bias_filler {
      type: "constant"
      value: 0.2
    }
  }
}
layer {
  name: "inception_4b/relu_3x3"
  type: "ReLU"
  bottom: "inception_4b/3x3"
  top: "inception_4b/3x3"
}
layer {
  name: "inception_4b/5x5_reduce"
  type: "Convolution"
  bottom: "inception_4a/output"
  top: "inception_4b/5x5_reduce"
  param {
    lr_mult: 0
    decay_mult: 1
  }
  param {
    lr_mult: 2
    decay_mult: 0
  }
  convolution_param {
    num_output: 24
    kernel_size: 1
    weight_filler {
      type: "xavier"
    }
    bias_filler {
      type: "constant"
      value: 0.2
    }
  }
}
layer {
  name: "inception_4b/relu_5x5_reduce"
  type: "ReLU"
  bottom: "inception_4b/5x5_reduce"
  top: "inception_4b/5x5_reduce"
}
layer {
  name: "inception_4b/5x5"
  type: "Convolution"
  bottom: "inception_4b/5x5_reduce"
  top: "inception_4b/5x5"
  param {
    lr_mult: 0
    decay_mult: 1
  }
  param {
    lr_mult: 2
    decay_mult: 0
  }
  convolution_param {
    num_output: 64
    pad: 2
    kernel_size: 5
    weight_filler {
      type: "xavier"
    }
    bias_filler {
      type: "constant"
      value: 0.2
    }
  }
}
layer {
  name: "inception_4b/relu_5x5"
  type: "ReLU"
  bottom: "inception_4b/5x5"
  top: "inception_4b/5x5"
}
layer {
  name: "inception_4b/pool"
  type: "Pooling"
  bottom: "inception_4a/output"
  top: "inception_4b/pool"
  pooling_param {
    pool: MAX
    kernel_size: 3
    stride: 1
    pad: 1
  }
}
layer {
  name: "inception_4b/pool_proj"
  type: "Convolution"
  bottom: "inception_4b/pool"
  top: "inception_4b/pool_proj"
  param {
    lr_mult: 0
    decay_mult: 1
  }
  param {
    lr_mult: 2
    decay_mult: 0
  }
  convolution_param {
    num_output: 64
    kernel_size: 1
    weight_filler {
      type: "xavier"
    }
    bias_filler {
      type: "constant"
      value: 0.2
    }
  }
}
layer {
  name: "inception_4b/relu_pool_proj"
  type: "ReLU"
  bottom: "inception_4b/pool_proj"
  top: "inception_4b/pool_proj"
}
layer {
  name: "inception_4b/output"
  type: "Concat"
  bottom: "inception_4b/1x1"
  bottom: "inception_4b/3x3"
  bottom: "inception_4b/5x5"
  bottom: "inception_4b/pool_proj"
  top: "inception_4b/output"
}
layer {
  name: "inception_4c/1x1"
  type: "Convolution"
  bottom: "inception_4b/output"
  top: "inception_4c/1x1"
  param {
    lr_mult: 0
    decay_mult: 1
  }
  param {
    lr_mult: 2
    decay_mult: 0
  }
  convolution_param {
    num_output: 128
    kernel_size: 1
    weight_filler {
      type: "xavier"
    }
    bias_filler {
      type: "constant"
      value: 0.2
    }
  }
}
layer {
  name: "inception_4c/relu_1x1"
  type: "ReLU"
  bottom: "inception_4c/1x1"
  top: "inception_4c/1x1"
}
layer {
  name: "inception_4c/3x3_reduce"
  type: "Convolution"
  bottom: "inception_4b/output"
  top: "inception_4c/3x3_reduce"
  param {
    lr_mult: 0
    decay_mult: 1
  }
  param {
    lr_mult: 2
    decay_mult: 0
  }
  convolution_param {
    num_output: 128
    kernel_size: 1
    weight_filler {
      type: "xavier"
    }
    bias_filler {
      type: "constant"
      value: 0.2
    }
  }
}
layer {
  name: "inception_4c/relu_3x3_reduce"
  type: "ReLU"
  bottom: "inception_4c/3x3_reduce"
  top: "inception_4c/3x3_reduce"
}
layer {
  name: "inception_4c/3x3"
  type: "Convolution"
  bottom: "inception_4c/3x3_reduce"
  top: "inception_4c/3x3"
  param {
    lr_mult: 0
    decay_mult: 1
  }
  param {
    lr_mult: 2
    decay_mult: 0
  }
  convolution_param {
    num_output: 256
    pad: 1
    kernel_size: 3
    weight_filler {
      type: "xavier"
    }
    bias_filler {
      type: "constant"
      value: 0.2
    }
  }
}
layer {
  name: "inception_4c/relu_3x3"
  type: "ReLU"
  bottom: "inception_4c/3x3"
  top: "inception_4c/3x3"
}
layer {
  name: "inception_4c/5x5_reduce"
  type: "Convolution"
  bottom: "inception_4b/output"
  top: "inception_4c/5x5_reduce"
  param {
    lr_mult: 0
    decay_mult: 1
  }
  param {
    lr_mult: 2
    decay_mult: 0
  }
  convolution_param {
    num_output: 24
    kernel_size: 1
    weight_filler {
      type: "xavier"
    }
    bias_filler {
      type: "constant"
      value: 0.2
    }
  }
}
layer {
  name: "inception_4c/relu_5x5_reduce"
  type: "ReLU"
  bottom: "inception_4c/5x5_reduce"
  top: "inception_4c/5x5_reduce"
}
layer {
  name: "inception_4c/5x5"
  type: "Convolution"
  bottom: "inception_4c/5x5_reduce"
  top: "inception_4c/5x5"
  param {
    lr_mult: 0
    decay_mult: 1
  }
  param {
    lr_mult: 2
    decay_mult: 0
  }
  convolution_param {
    num_output: 64
    pad: 2
    kernel_size: 5
    weight_filler {
      type: "xavier"
    }
    bias_filler {
      type: "constant"
      value: 0.2
    }
  }
}
layer {
  name: "inception_4c/relu_5x5"
  type: "ReLU"
  bottom: "inception_4c/5x5"
  top: "inception_4c/5x5"
}
layer {
  name: "inception_4c/pool"
  type: "Pooling"
  bottom: "inception_4b/output"
  top: "inception_4c/pool"
  pooling_param {
    pool: MAX
    kernel_size: 3
    stride: 1
    pad: 1
  }
}
layer {
  name: "inception_4c/pool_proj"
  type: "Convolution"
  bottom: "inception_4c/pool"
  top: "inception_4c/pool_proj"
  param {
    lr_mult: 0
    decay_mult: 1
  }
  param {
    lr_mult: 2
    decay_mult: 0
  }
  convolution_param {
    num_output: 64
    kernel_size: 1
    weight_filler {
      type: "xavier"
    }
    bias_filler {
      type: "constant"
      value: 0.2
    }
  }
}
layer {
  name: "inception_4c/relu_pool_proj"
  type: "ReLU"
  bottom: "inception_4c/pool_proj"
  top: "inception_4c/pool_proj"
}
layer {
  name: "inception_4c/output"
  type: "Concat"
  bottom: "inception_4c/1x1"
  bottom: "inception_4c/3x3"
  bottom: "inception_4c/5x5"
  bottom: "inception_4c/pool_proj"
  top: "inception_4c/output"
}
layer {
  name: "inception_4d/1x1"
  type: "Convolution"
  bottom: "inception_4c/output"
  top: "inception_4d/1x1"
  param {
    lr_mult: 0
    decay_mult: 1
  }
  param {
    lr_mult: 2
    decay_mult: 0
  }
  convolution_param {
    num_output: 112
    kernel_size: 1
    weight_filler {
      type: "xavier"
    }
    bias_filler {
      type: "constant"
      value: 0.2
    }
  }
}
layer {
  name: "inception_4d/relu_1x1"
  type: "ReLU"
  bottom: "inception_4d/1x1"
  top: "inception_4d/1x1"
}
layer {
  name: "inception_4d/3x3_reduce"
  type: "Convolution"
  bottom: "inception_4c/output"
  top: "inception_4d/3x3_reduce"
  param {
    lr_mult: 0
    decay_mult: 1
  }
  param {
    lr_mult: 2
    decay_mult: 0
  }
  convolution_param {
    num_output: 144
    kernel_size: 1
    weight_filler {
      type: "xavier"
    }
    bias_filler {
      type: "constant"
      value: 0.2
    }
  }
}
layer {
  name: "inception_4d/relu_3x3_reduce"
  type: "ReLU"
  bottom: "inception_4d/3x3_reduce"
  top: "inception_4d/3x3_reduce"
}
layer {
  name: "inception_4d/3x3"
  type: "Convolution"
  bottom: "inception_4d/3x3_reduce"
  top: "inception_4d/3x3"
  param {
    lr_mult: 0
    decay_mult: 1
  }
  param {
    lr_mult: 2
    decay_mult: 0
  }
  convolution_param {
    num_output: 288
    pad: 1
    kernel_size: 3
    weight_filler {
      type: "xavier"
    }
    bias_filler {
      type: "constant"
      value: 0.2
    }
  }
}
layer {
  name: "inception_4d/relu_3x3"
  type: "ReLU"
  bottom: "inception_4d/3x3"
  top: "inception_4d/3x3"
}
layer {
  name: "inception_4d/5x5_reduce"
  type: "Convolution"
  bottom: "inception_4c/output"
  top: "inception_4d/5x5_reduce"
  param {
    lr_mult: 0
    decay_mult: 1
  }
  param {
    lr_mult: 2
    decay_mult: 0
  }
  convolution_param {
    num_output: 32
    kernel_size: 1
    weight_filler {
      type: "xavier"
    }
    bias_filler {
      type: "constant"
      value: 0.2
    }
  }
}
layer {
  name: "inception_4d/relu_5x5_reduce"
  type: "ReLU"
  bottom: "inception_4d/5x5_reduce"
  top: "inception_4d/5x5_reduce"
}
layer {
  name: "inception_4d/5x5"
  type: "Convolution"
  bottom: "inception_4d/5x5_reduce"
  top: "inception_4d/5x5"
  param {
    lr_mult: 0
    decay_mult: 1
  }
  param {
    lr_mult: 2
    decay_mult: 0
  }
  convolution_param {
    num_output: 64
    pad: 2
    kernel_size: 5
    weight_filler {
      type: "xavier"
    }
    bias_filler {
      type: "constant"
      value: 0.2
    }
  }
}
layer {
  name: "inception_4d/relu_5x5"
  type: "ReLU"
  bottom: "inception_4d/5x5"
  top: "inception_4d/5x5"
}
layer {
  name: "inception_4d/pool"
  type: "Pooling"
  bottom: "inception_4c/output"
  top: "inception_4d/pool"
  pooling_param {
    pool: MAX
    kernel_size: 3
    stride: 1
    pad: 1
  }
}
layer {
  name: "inception_4d/pool_proj"
  type: "Convolution"
  bottom: "inception_4d/pool"
  top: "inception_4d/pool_proj"
  param {
    lr_mult: 0
    decay_mult: 1
  }
  param {
    lr_mult: 2
    decay_mult: 0
  }
  convolution_param {
    num_output: 64
    kernel_size: 1
    weight_filler {
      type: "xavier"
    }
    bias_filler {
      type: "constant"
      value: 0.2
    }
  }
}
layer {
  name: "inception_4d/relu_pool_proj"
  type: "ReLU"
  bottom: "inception_4d/pool_proj"
  top: "inception_4d/pool_proj"
}
layer {
  name: "inception_4d/output"
  type: "Concat"
  bottom: "inception_4d/1x1"
  bottom: "inception_4d/3x3"
  bottom: "inception_4d/5x5"
  bottom: "inception_4d/pool_proj"
  top: "inception_4d/output"
}
layer {
  name: "inception_4e/1x1"
  type: "Convolution"
  bottom: "inception_4d/output"
  top: "inception_4e/1x1"
  param {
    lr_mult: 0
    decay_mult: 1
  }
  param {
    lr_mult: 2
    decay_mult: 0
  }
  convolution_param {
    num_output: 256
    kernel_size: 1
    weight_filler {
      type: "xavier"
    }
    bias_filler {
      type: "constant"
      value: 0.2
    }
  }
}
layer {
  name: "inception_4e/relu_1x1"
  type: "ReLU"
  bottom: "inception_4e/1x1"
  top: "inception_4e/1x1"
}
layer {
  name: "inception_4e/3x3_reduce"
  type: "Convolution"
  bottom: "inception_4d/output"
  top: "inception_4e/3x3_reduce"
  param {
    lr_mult: 0
    decay_mult: 1
  }
  param {
    lr_mult: 2
    decay_mult: 0
  }
  convolution_param {
    num_output: 160
    kernel_size: 1
    weight_filler {
      type: "xavier"
    }
    bias_filler {
      type: "constant"
      value: 0.2
    }
  }
}
layer {
  name: "inception_4e/relu_3x3_reduce"
  type: "ReLU"
  bottom: "inception_4e/3x3_reduce"
  top: "inception_4e/3x3_reduce"
}
layer {
  name: "inception_4e/3x3"
  type: "Convolution"
  bottom: "inception_4e/3x3_reduce"
  top: "inception_4e/3x3"
  param {
    lr_mult: 0
    decay_mult: 1
  }
  param {
    lr_mult: 2
    decay_mult: 0
  }
  convolution_param {
    num_output: 320
    pad: 1
    kernel_size: 3
    weight_filler {
      type: "xavier"
    }
    bias_filler {
      type: "constant"
      value: 0.2
    }
  }
}
layer {
  name: "inception_4e/relu_3x3"
  type: "ReLU"
  bottom: "inception_4e/3x3"
  top: "inception_4e/3x3"
}
layer {
  name: "inception_4e/5x5_reduce"
  type: "Convolution"
  bottom: "inception_4d/output"
  top: "inception_4e/5x5_reduce"
  param {
    lr_mult: 0
    decay_mult: 1
  }
  param {
    lr_mult: 2
    decay_mult: 0
  }
  convolution_param {
    num_output: 32
    kernel_size: 1
    weight_filler {
      type: "xavier"
    }
    bias_filler {
      type: "constant"
      value: 0.2
    }
  }
}
layer {
  name: "inception_4e/relu_5x5_reduce"
  type: "ReLU"
  bottom: "inception_4e/5x5_reduce"
  top: "inception_4e/5x5_reduce"
}
layer {
  name: "inception_4e/5x5"
  type: "Convolution"
  bottom: "inception_4e/5x5_reduce"
  top: "inception_4e/5x5"
  param {
    lr_mult: 0
    decay_mult: 1
  }
  param {
    lr_mult: 2
    decay_mult: 0
  }
  convolution_param {
    num_output: 128
    pad: 2
    kernel_size: 5
    weight_filler {
      type: "xavier"
    }
    bias_filler {
      type: "constant"
      value: 0.2
    }
  }
}
layer {
  name: "inception_4e/relu_5x5"
  type: "ReLU"
  bottom: "inception_4e/5x5"
  top: "inception_4e/5x5"
}
layer {
  name: "inception_4e/pool"
  type: "Pooling"
  bottom: "inception_4d/output"
  top: "inception_4e/pool"
  pooling_param {
    pool: MAX
    kernel_size: 3
    stride: 1
    pad: 1
  }
}
layer {
  name: "inception_4e/pool_proj"
  type: "Convolution"
  bottom: "inception_4e/pool"
  top: "inception_4e/pool_proj"
  param {
    lr_mult: 0
    decay_mult: 1
  }
  param {
    lr_mult: 2
    decay_mult: 0
  }
  convolution_param {
    num_output: 128
    kernel_size: 1
    weight_filler {
      type: "xavier"
    }
    bias_filler {
      type: "constant"
      value: 0.2
    }
  }
}
layer {
  name: "inception_4e/relu_pool_proj"
  type: "ReLU"
  bottom: "inception_4e/pool_proj"
  top: "inception_4e/pool_proj"
}
layer {
  name: "inception_4e/output"
  type: "Concat"
  bottom: "inception_4e/1x1"
  bottom: "inception_4e/3x3"
  bottom: "inception_4e/5x5"
  bottom: "inception_4e/pool_proj"
  top: "inception_4e/output"
}
layer {
  name: "pool4/3x3_s2"
  type: "Pooling"
  bottom: "inception_4e/output"
  top: "pool4/3x3_s2"
  pooling_param {
    pool: MAX
    kernel_size: 3
    stride: 2
  }
}
layer {
  name: "inception_5a/1x1"
  type: "Convolution"
  bottom: "pool4/3x3_s2"
  top: "inception_5a/1x1"
  param {
    lr_mult: 0
    decay_mult: 1
  }
  param {
    lr_mult: 2
    decay_mult: 0
  }
  convolution_param {
    num_output: 256
    kernel_size: 1
    weight_filler {
      type: "xavier"
    }
    bias_filler {
      type: "constant"
      value: 0.2
    }
  }
}
layer {
  name: "inception_5a/relu_1x1"
  type: "ReLU"
  bottom: "inception_5a/1x1"
  top: "inception_5a/1x1"
}
layer {
  name: "inception_5a/3x3_reduce"
  type: "Convolution"
  bottom: "pool4/3x3_s2"
  top: "inception_5a/3x3_reduce"
  param {
    lr_mult: 0
    decay_mult: 1
  }
  param {
    lr_mult: 2
    decay_mult: 0
  }
  convolution_param {
    num_output: 160
    kernel_size: 1
    weight_filler {
      type: "xavier"
    }
    bias_filler {
      type: "constant"
      value: 0.2
    }
  }
}
layer {
  name: "inception_5a/relu_3x3_reduce"
  type: "ReLU"
  bottom: "inception_5a/3x3_reduce"
  top: "inception_5a/3x3_reduce"
}
layer {
  name: "inception_5a/3x3"
  type: "Convolution"
  bottom: "inception_5a/3x3_reduce"
  top: "inception_5a/3x3"
  param {
    lr_mult: 0
    decay_mult: 1
  }
  param {
    lr_mult: 2
    decay_mult: 0
  }
  convolution_param {
    num_output: 320
    pad: 1
    kernel_size: 3
    weight_filler {
      type: "xavier"
    }
    bias_filler {
      type: "constant"
      value: 0.2
    }
  }
}
layer {
  name: "inception_5a/relu_3x3"
  type: "ReLU"
  bottom: "inception_5a/3x3"
  top: "inception_5a/3x3"
}
layer {
  name: "inception_5a/5x5_reduce"
  type: "Convolution"
  bottom: "pool4/3x3_s2"
  top: "inception_5a/5x5_reduce"
  param {
    lr_mult: 0
    decay_mult: 1
  }
  param {
    lr_mult: 2
    decay_mult: 0
  }
  convolution_param {
    num_output: 32
    kernel_size: 1
    weight_filler {
      type: "xavier"
    }
    bias_filler {
      type: "constant"
      value: 0.2
    }
  }
}
layer {
  name: "inception_5a/relu_5x5_reduce"
  type: "ReLU"
  bottom: "inception_5a/5x5_reduce"
  top: "inception_5a/5x5_reduce"
}
layer {
  name: "inception_5a/5x5"
  type: "Convolution"
  bottom: "inception_5a/5x5_reduce"
  top: "inception_5a/5x5"
  param {
    lr_mult: 0
    decay_mult: 1
  }
  param {
    lr_mult: 2
    decay_mult: 0
  }
  convolution_param {
    num_output: 128
    pad: 2
    kernel_size: 5
    weight_filler {
      type: "xavier"
    }
    bias_filler {
      type: "constant"
      value: 0.2
    }
  }
}
layer {
  name: "inception_5a/relu_5x5"
  type: "ReLU"
  bottom: 
I0718 14:30:33.827957 33277 layer_factory.hpp:76] Creating layer data
I0718 14:30:33.828042 33277 net.cpp:106] Creating Layer data
I0718 14:30:33.828059 33277 net.cpp:411] data -> data
I0718 14:30:33.828114 33277 net.cpp:411] data -> label
I0718 14:30:33.828841 33277 image_data_layer.cpp:36] Opening file ../lists/mitosis_train.lst
I0718 14:30:33.848915 33277 image_data_layer.cpp:46] Shuffling data
I0718 14:30:33.853129 33277 image_data_layer.cpp:51] A total of 21366 images.
I0718 14:30:34.019891 33277 image_data_layer.cpp:78] output data size: 4,3,1000,1000
I0718 14:30:34.164898 33277 net.cpp:150] Setting up data
I0718 14:30:34.167539 33277 net.cpp:157] Top shape: 4 3 1000 1000 (12000000)
I0718 14:30:34.167664 33277 net.cpp:157] Top shape: 4 (4)
I0718 14:30:34.167683 33277 net.cpp:165] Memory required for data: 48000016
I0718 14:30:34.175818 33277 layer_factory.hpp:76] Creating layer label_data_1_split
I0718 14:30:34.175928 33277 net.cpp:106] Creating Layer label_data_1_split
I0718 14:30:34.175942 33277 net.cpp:454] label_data_1_split <- label
I0718 14:30:34.175997 33277 net.cpp:411] label_data_1_split -> label_data_1_split_0
I0718 14:30:34.176017 33277 net.cpp:411] label_data_1_split -> label_data_1_split_1
I0718 14:30:34.176172 33277 net.cpp:150] Setting up label_data_1_split
I0718 14:30:34.176192 33277 net.cpp:157] Top shape: 4 (4)
I0718 14:30:34.176203 33277 net.cpp:157] Top shape: 4 (4)
I0718 14:30:34.176210 33277 net.cpp:165] Memory required for data: 48000048
I0718 14:30:34.176218 33277 layer_factory.hpp:76] Creating layer conv1/7x7_s2
I0718 14:30:34.176261 33277 net.cpp:106] Creating Layer conv1/7x7_s2
I0718 14:30:34.176270 33277 net.cpp:454] conv1/7x7_s2 <- data
I0718 14:30:34.176285 33277 net.cpp:411] conv1/7x7_s2 -> conv1/7x7_s2
I0718 14:30:34.560758 33277 net.cpp:150] Setting up conv1/7x7_s2
I0718 14:30:34.560825 33277 net.cpp:157] Top shape: 4 64 500 500 (64000000)
I0718 14:30:34.560840 33277 net.cpp:165] Memory required for data: 304000048
I0718 14:30:34.560899 33277 layer_factory.hpp:76] Creating layer conv1/relu_7x7
I0718 14:30:34.560930 33277 net.cpp:106] Creating Layer conv1/relu_7x7
I0718 14:30:34.560992 33277 net.cpp:454] conv1/relu_7x7 <- conv1/7x7_s2
I0718 14:30:34.561012 33277 net.cpp:397] conv1/relu_7x7 -> conv1/7x7_s2 (in-place)
I0718 14:30:34.561249 33277 net.cpp:150] Setting up conv1/relu_7x7
I0718 14:30:34.561275 33277 net.cpp:157] Top shape: 4 64 500 500 (64000000)
I0718 14:30:34.561287 33277 net.cpp:165] Memory required for data: 560000048
I0718 14:30:34.561313 33277 layer_factory.hpp:76] Creating layer pool1/3x3_s2
I0718 14:30:34.561347 33277 net.cpp:106] Creating Layer pool1/3x3_s2
I0718 14:30:34.561363 33277 net.cpp:454] pool1/3x3_s2 <- conv1/7x7_s2
I0718 14:30:34.561386 33277 net.cpp:411] pool1/3x3_s2 -> pool1/3x3_s2
I0718 14:30:34.562240 33277 net.cpp:150] Setting up pool1/3x3_s2
I0718 14:30:34.562268 33277 net.cpp:157] Top shape: 4 64 250 250 (16000000)
I0718 14:30:34.562281 33277 net.cpp:165] Memory required for data: 624000048
I0718 14:30:34.562297 33277 layer_factory.hpp:76] Creating layer pool1/norm1
I0718 14:30:34.562326 33277 net.cpp:106] Creating Layer pool1/norm1
I0718 14:30:34.562340 33277 net.cpp:454] pool1/norm1 <- pool1/3x3_s2
I0718 14:30:34.562355 33277 net.cpp:411] pool1/norm1 -> pool1/norm1
I0718 14:30:34.564554 33277 net.cpp:150] Setting up pool1/norm1
I0718 14:30:34.564582 33277 net.cpp:157] Top shape: 4 64 250 250 (16000000)
I0718 14:30:34.564596 33277 net.cpp:165] Memory required for data: 688000048
I0718 14:30:34.564609 33277 layer_factory.hpp:76] Creating layer conv2/3x3_reduce
I0718 14:30:34.564636 33277 net.cpp:106] Creating Layer conv2/3x3_reduce
I0718 14:30:34.564652 33277 net.cpp:454] conv2/3x3_reduce <- pool1/norm1
I0718 14:30:34.564682 33277 net.cpp:411] conv2/3x3_reduce -> conv2/3x3_reduce
I0718 14:30:34.572499 33277 cudnn_conv_layer.cpp:194] Reallocating workspace storage: 768
I0718 14:30:34.572548 33277 net.cpp:150] Setting up conv2/3x3_reduce
I0718 14:30:34.572566 33277 net.cpp:157] Top shape: 4 64 250 250 (16000000)
I0718 14:30:34.572580 33277 net.cpp:165] Memory required for data: 752000048
I0718 14:30:34.572602 33277 layer_factory.hpp:76] Creating layer conv2/relu_3x3_reduce
I0718 14:30:34.572633 33277 net.cpp:106] Creating Layer conv2/relu_3x3_reduce
I0718 14:30:34.572648 33277 net.cpp:454] conv2/relu_3x3_reduce <- conv2/3x3_reduce
I0718 14:30:34.572664 33277 net.cpp:397] conv2/relu_3x3_reduce -> conv2/3x3_reduce (in-place)
I0718 14:30:34.573874 33277 net.cpp:150] Setting up conv2/relu_3x3_reduce
I0718 14:30:34.573910 33277 net.cpp:157] Top shape: 4 64 250 250 (16000000)
I0718 14:30:34.573925 33277 net.cpp:165] Memory required for data: 816000048
I0718 14:30:34.573937 33277 layer_factory.hpp:76] Creating layer conv2/3x3
I0718 14:30:34.573956 33277 net.cpp:106] Creating Layer conv2/3x3
I0718 14:30:34.573971 33277 net.cpp:454] conv2/3x3 <- conv2/3x3_reduce
I0718 14:30:34.573990 33277 net.cpp:411] conv2/3x3 -> conv2/3x3
I0718 14:30:34.579767 33277 cudnn_conv_layer.cpp:194] Reallocating workspace storage: 6912
I0718 14:30:34.580075 33277 net.cpp:150] Setting up conv2/3x3
I0718 14:30:34.580107 33277 net.cpp:157] Top shape: 4 192 250 250 (48000000)
I0718 14:30:34.580121 33277 net.cpp:165] Memory required for data: 1008000048
I0718 14:30:34.580147 33277 layer_factory.hpp:76] Creating layer conv2/relu_3x3
I0718 14:30:34.580168 33277 net.cpp:106] Creating Layer conv2/relu_3x3
I0718 14:30:34.580183 33277 net.cpp:454] conv2/relu_3x3 <- conv2/3x3
I0718 14:30:34.580202 33277 net.cpp:397] conv2/relu_3x3 -> conv2/3x3 (in-place)
I0718 14:30:34.581352 33277 net.cpp:150] Setting up conv2/relu_3x3
I0718 14:30:34.581378 33277 net.cpp:157] Top shape: 4 192 250 250 (48000000)
I0718 14:30:34.581390 33277 net.cpp:165] Memory required for data: 1200000048
I0718 14:30:34.581403 33277 layer_factory.hpp:76] Creating layer conv2/norm2
I0718 14:30:34.581426 33277 net.cpp:106] Creating Layer conv2/norm2
I0718 14:30:34.581444 33277 net.cpp:454] conv2/norm2 <- conv2/3x3
I0718 14:30:34.581473 33277 net.cpp:411] conv2/norm2 -> conv2/norm2
I0718 14:30:34.583768 33277 net.cpp:150] Setting up conv2/norm2
I0718 14:30:34.583796 33277 net.cpp:157] Top shape: 4 192 250 250 (48000000)
I0718 14:30:34.583840 33277 net.cpp:165] Memory required for data: 1392000048
I0718 14:30:34.583864 33277 layer_factory.hpp:76] Creating layer pool2/3x3_s2
I0718 14:30:34.583895 33277 net.cpp:106] Creating Layer pool2/3x3_s2
I0718 14:30:34.583914 33277 net.cpp:454] pool2/3x3_s2 <- conv2/norm2
I0718 14:30:34.583935 33277 net.cpp:411] pool2/3x3_s2 -> pool2/3x3_s2
I0718 14:30:34.586105 33277 net.cpp:150] Setting up pool2/3x3_s2
I0718 14:30:34.586130 33277 net.cpp:157] Top shape: 4 192 125 125 (12000000)
I0718 14:30:34.586148 33277 net.cpp:165] Memory required for data: 1440000048
I0718 14:30:34.586163 33277 layer_factory.hpp:76] Creating layer pool2/3x3_s2_pool2/3x3_s2_0_split
I0718 14:30:34.586179 33277 net.cpp:106] Creating Layer pool2/3x3_s2_pool2/3x3_s2_0_split
I0718 14:30:34.586195 33277 net.cpp:454] pool2/3x3_s2_pool2/3x3_s2_0_split <- pool2/3x3_s2
I0718 14:30:34.586228 33277 net.cpp:411] pool2/3x3_s2_pool2/3x3_s2_0_split -> pool2/3x3_s2_pool2/3x3_s2_0_split_0
I0718 14:30:34.586256 33277 net.cpp:411] pool2/3x3_s2_pool2/3x3_s2_0_split -> pool2/3x3_s2_pool2/3x3_s2_0_split_1
I0718 14:30:34.586274 33277 net.cpp:411] pool2/3x3_s2_pool2/3x3_s2_0_split -> pool2/3x3_s2_pool2/3x3_s2_0_split_2
I0718 14:30:34.586294 33277 net.cpp:411] pool2/3x3_s2_pool2/3x3_s2_0_split -> pool2/3x3_s2_pool2/3x3_s2_0_split_3
I0718 14:30:34.586392 33277 net.cpp:150] Setting up pool2/3x3_s2_pool2/3x3_s2_0_split
I0718 14:30:34.586412 33277 net.cpp:157] Top shape: 4 192 125 125 (12000000)
I0718 14:30:34.586424 33277 net.cpp:157] Top shape: 4 192 125 125 (12000000)
I0718 14:30:34.586437 33277 net.cpp:157] Top shape: 4 192 125 125 (12000000)
I0718 14:30:34.586450 33277 net.cpp:157] Top shape: 4 192 125 125 (12000000)
I0718 14:30:34.586465 33277 net.cpp:165] Memory required for data: 1632000048
I0718 14:30:34.586480 33277 layer_factory.hpp:76] Creating layer inception_3a/1x1
I0718 14:30:34.586519 33277 net.cpp:106] Creating Layer inception_3a/1x1
I0718 14:30:34.586535 33277 net.cpp:454] inception_3a/1x1 <- pool2/3x3_s2_pool2/3x3_s2_0_split_0
I0718 14:30:34.586554 33277 net.cpp:411] inception_3a/1x1 -> inception_3a/1x1
I0718 14:30:34.593118 33277 net.cpp:150] Setting up inception_3a/1x1
I0718 14:30:34.593152 33277 net.cpp:157] Top shape: 4 64 125 125 (4000000)
I0718 14:30:34.593164 33277 net.cpp:165] Memory required for data: 1648000048
I0718 14:30:34.593181 33277 layer_factory.hpp:76] Creating layer inception_3a/relu_1x1
I0718 14:30:34.593209 33277 net.cpp:106] Creating Layer inception_3a/relu_1x1
I0718 14:30:34.593221 33277 net.cpp:454] inception_3a/relu_1x1 <- inception_3a/1x1
I0718 14:30:34.593247 33277 net.cpp:397] inception_3a/relu_1x1 -> inception_3a/1x1 (in-place)
I0718 14:30:34.595384 33277 net.cpp:150] Setting up inception_3a/relu_1x1
I0718 14:30:34.595412 33277 net.cpp:157] Top shape: 4 64 125 125 (4000000)
I0718 14:30:34.595424 33277 net.cpp:165] Memory required for data: 1664000048
I0718 14:30:34.595437 33277 layer_factory.hpp:76] Creating layer inception_3a/3x3_reduce
I0718 14:30:34.595468 33277 net.cpp:106] Creating Layer inception_3a/3x3_reduce
I0718 14:30:34.595481 33277 net.cpp:454] inception_3a/3x3_reduce <- pool2/3x3_s2_pool2/3x3_s2_0_split_1
I0718 14:30:34.595497 33277 net.cpp:411] inception_3a/3x3_reduce -> inception_3a/3x3_reduce
I0718 14:30:34.601912 33277 cudnn_conv_layer.cpp:194] Reallocating workspace storage: 2304
I0718 14:30:34.602211 33277 net.cpp:150] Setting up inception_3a/3x3_reduce
I0718 14:30:34.602244 33277 net.cpp:157] Top shape: 4 96 125 125 (6000000)
I0718 14:30:34.602257 33277 net.cpp:165] Memory required for data: 1688000048
I0718 14:30:34.602284 33277 layer_factory.hpp:76] Creating layer inception_3a/relu_3x3_reduce
I0718 14:30:34.602304 33277 net.cpp:106] Creating Layer inception_3a/relu_3x3_reduce
I0718 14:30:34.602319 33277 net.cpp:454] inception_3a/relu_3x3_reduce <- inception_3a/3x3_reduce
I0718 14:30:34.602340 33277 net.cpp:397] inception_3a/relu_3x3_reduce -> inception_3a/3x3_reduce (in-place)
I0718 14:30:34.604318 33277 net.cpp:150] Setting up inception_3a/relu_3x3_reduce
I0718 14:30:34.604346 33277 net.cpp:157] Top shape: 4 96 125 125 (6000000)
I0718 14:30:34.604382 33277 net.cpp:165] Memory required for data: 1712000048
I0718 14:30:34.604395 33277 layer_factory.hpp:76] Creating layer inception_3a/3x3
I0718 14:30:34.604419 33277 net.cpp:106] Creating Layer inception_3a/3x3
I0718 14:30:34.604436 33277 net.cpp:454] inception_3a/3x3 <- inception_3a/3x3_reduce
I0718 14:30:34.604462 33277 net.cpp:411] inception_3a/3x3 -> inception_3a/3x3
I0718 14:30:34.612351 33277 cudnn_conv_layer.cpp:194] Reallocating workspace storage: 10368
I0718 14:30:34.612409 33277 net.cpp:150] Setting up inception_3a/3x3
I0718 14:30:34.612432 33277 net.cpp:157] Top shape: 4 128 125 125 (8000000)
I0718 14:30:34.612452 33277 net.cpp:165] Memory required for data: 1744000048
I0718 14:30:34.612476 33277 layer_factory.hpp:76] Creating layer inception_3a/relu_3x3
I0718 14:30:34.612510 33277 net.cpp:106] Creating Layer inception_3a/relu_3x3
I0718 14:30:34.612529 33277 net.cpp:454] inception_3a/relu_3x3 <- inception_3a/3x3
I0718 14:30:34.612558 33277 net.cpp:397] inception_3a/relu_3x3 -> inception_3a/3x3 (in-place)
I0718 14:30:34.614522 33277 net.cpp:150] Setting up inception_3a/relu_3x3
I0718 14:30:34.614548 33277 net.cpp:157] Top shape: 4 128 125 125 (8000000)
I0718 14:30:34.614562 33277 net.cpp:165] Memory required for data: 1776000048
I0718 14:30:34.614588 33277 layer_factory.hpp:76] Creating layer inception_3a/5x5_reduce
I0718 14:30:34.614616 33277 net.cpp:106] Creating Layer inception_3a/5x5_reduce
I0718 14:30:34.614653 33277 net.cpp:454] inception_3a/5x5_reduce <- pool2/3x3_s2_pool2/3x3_s2_0_split_2
I0718 14:30:34.614672 33277 net.cpp:411] inception_3a/5x5_reduce -> inception_3a/5x5_reduce
I0718 14:30:34.621830 33277 net.cpp:150] Setting up inception_3a/5x5_reduce
I0718 14:30:34.621865 33277 net.cpp:157] Top shape: 4 16 125 125 (1000000)
I0718 14:30:34.621881 33277 net.cpp:165] Memory required for data: 1780000048
I0718 14:30:34.621901 33277 layer_factory.hpp:76] Creating layer inception_3a/relu_5x5_reduce
I0718 14:30:34.621920 33277 net.cpp:106] Creating Layer inception_3a/relu_5x5_reduce
I0718 14:30:34.621934 33277 net.cpp:454] inception_3a/relu_5x5_reduce <- inception_3a/5x5_reduce
I0718 14:30:34.621954 33277 net.cpp:397] inception_3a/relu_5x5_reduce -> inception_3a/5x5_reduce (in-place)
I0718 14:30:34.624140 33277 net.cpp:150] Setting up inception_3a/relu_5x5_reduce
I0718 14:30:34.624168 33277 net.cpp:157] Top shape: 4 16 125 125 (1000000)
I0718 14:30:34.624181 33277 net.cpp:165] Memory required for data: 1784000048
I0718 14:30:34.624192 33277 layer_factory.hpp:76] Creating layer inception_3a/5x5
I0718 14:30:34.624225 33277 net.cpp:106] Creating Layer inception_3a/5x5
I0718 14:30:34.624238 33277 net.cpp:454] inception_3a/5x5 <- inception_3a/5x5_reduce
I0718 14:30:34.624258 33277 net.cpp:411] inception_3a/5x5 -> inception_3a/5x5
I0718 14:30:34.631804 33277 net.cpp:150] Setting up inception_3a/5x5
I0718 14:30:34.631835 33277 net.cpp:157] Top shape: 4 32 125 125 (2000000)
I0718 14:30:34.631850 33277 net.cpp:165] Memory required for data: 1792000048
I0718 14:30:34.631867 33277 layer_factory.hpp:76] Creating layer inception_3a/relu_5x5
I0718 14:30:34.631893 33277 net.cpp:106] Creating Layer inception_3a/relu_5x5
I0718 14:30:34.631907 33277 net.cpp:454] inception_3a/relu_5x5 <- inception_3a/5x5
I0718 14:30:34.631925 33277 net.cpp:397] inception_3a/relu_5x5 -> inception_3a/5x5 (in-place)
I0718 14:30:34.633913 33277 net.cpp:150] Setting up inception_3a/relu_5x5
I0718 14:30:34.633942 33277 net.cpp:157] Top shape: 4 32 125 125 (2000000)
I0718 14:30:34.633956 33277 net.cpp:165] Memory required for data: 1800000048
I0718 14:30:34.633968 33277 layer_factory.hpp:76] Creating layer inception_3a/pool
I0718 14:30:34.633985 33277 net.cpp:106] Creating Layer inception_3a/pool
I0718 14:30:34.633998 33277 net.cpp:454] inception_3a/pool <- pool2/3x3_s2_pool2/3x3_s2_0_split_3
I0718 14:30:34.634016 33277 net.cpp:411] inception_3a/pool -> inception_3a/pool
I0718 14:30:34.636173 33277 net.cpp:150] Setting up inception_3a/pool
I0718 14:30:34.636207 33277 net.cpp:157] Top shape: 4 192 125 125 (12000000)
I0718 14:30:34.636274 33277 net.cpp:165] Memory required for data: 1848000048
I0718 14:30:34.636291 33277 layer_factory.hpp:76] Creating layer inception_3a/pool_proj
I0718 14:30:34.636332 33277 net.cpp:106] Creating Layer inception_3a/pool_proj
I0718 14:30:34.636353 33277 net.cpp:454] inception_3a/pool_proj <- inception_3a/pool
I0718 14:30:34.636373 33277 net.cpp:411] inception_3a/pool_proj -> inception_3a/pool_proj
I0718 14:30:34.643000 33277 net.cpp:150] Setting up inception_3a/pool_proj
I0718 14:30:34.643092 33277 net.cpp:157] Top shape: 4 32 125 125 (2000000)
I0718 14:30:34.643118 33277 net.cpp:165] Memory required for data: 1856000048
I0718 14:30:34.643165 33277 layer_factory.hpp:76] Creating layer inception_3a/relu_pool_proj
I0718 14:30:34.643213 33277 net.cpp:106] Creating Layer inception_3a/relu_pool_proj
I0718 14:30:34.643245 33277 net.cpp:454] inception_3a/relu_pool_proj <- inception_3a/pool_proj
I0718 14:30:34.643295 33277 net.cpp:397] inception_3a/relu_pool_proj -> inception_3a/pool_proj (in-place)
I0718 14:30:34.644930 33277 net.cpp:150] Setting up inception_3a/relu_pool_proj
I0718 14:30:34.645052 33277 net.cpp:157] Top shape: 4 32 125 125 (2000000)
I0718 14:30:34.645077 33277 net.cpp:165] Memory required for data: 1864000048
I0718 14:30:34.645125 33277 layer_factory.hpp:76] Creating layer inception_3a/output
I0718 14:30:34.645186 33277 net.cpp:106] Creating Layer inception_3a/output
I0718 14:30:34.645220 33277 net.cpp:454] inception_3a/output <- inception_3a/1x1
I0718 14:30:34.645262 33277 net.cpp:454] inception_3a/output <- inception_3a/3x3
I0718 14:30:34.645298 33277 net.cpp:454] inception_3a/output <- inception_3a/5x5
I0718 14:30:34.645333 33277 net.cpp:454] inception_3a/output <- inception_3a/pool_proj
I0718 14:30:34.645366 33277 net.cpp:411] inception_3a/output -> inception_3a/output
I0718 14:30:34.645519 33277 net.cpp:150] Setting up inception_3a/output
I0718 14:30:34.645550 33277 net.cpp:157] Top shape: 4 256 125 125 (16000000)
I0718 14:30:34.645576 33277 net.cpp:165] Memory required for data: 1928000048
I0718 14:30:34.645603 33277 layer_factory.hpp:76] Creating layer inception_3a/output_inception_3a/output_0_split
I0718 14:30:34.645638 33277 net.cpp:106] Creating Layer inception_3a/output_inception_3a/output_0_split
I0718 14:30:34.645666 33277 net.cpp:454] inception_3a/output_inception_3a/output_0_split <- inception_3a/output
I0718 14:30:34.645705 33277 net.cpp:411] inception_3a/output_inception_3a/output_0_split -> inception_3a/output_inception_3a/output_0_split_0
I0718 14:30:34.645742 33277 net.cpp:411] inception_3a/output_inception_3a/output_0_split -> inception_3a/output_inception_3a/output_0_split_1
I0718 14:30:34.645779 33277 net.cpp:411] inception_3a/output_inception_3a/output_0_split -> inception_3a/output_inception_3a/output_0_split_2
I0718 14:30:34.645817 33277 net.cpp:411] inception_3a/output_inception_3a/output_0_split -> inception_3a/output_inception_3a/output_0_split_3
I0718 14:30:34.646013 33277 net.cpp:150] Setting up inception_3a/output_inception_3a/output_0_split
I0718 14:30:34.646049 33277 net.cpp:157] Top shape: 4 256 125 125 (16000000)
I0718 14:30:34.646078 33277 net.cpp:157] Top shape: 4 256 125 125 (16000000)
I0718 14:30:34.646107 33277 net.cpp:157] Top shape: 4 256 125 125 (16000000)
I0718 14:30:34.646136 33277 net.cpp:157] Top shape: 4 256 125 125 (16000000)
I0718 14:30:34.646162 33277 net.cpp:165] Memory required for data: 2184000048
I0718 14:30:34.646189 33277 layer_factory.hpp:76] Creating layer inception_3b/1x1
I0718 14:30:34.646267 33277 net.cpp:106] Creating Layer inception_3b/1x1
I0718 14:30:34.646297 33277 net.cpp:454] inception_3b/1x1 <- inception_3a/output_inception_3a/output_0_split_0
I0718 14:30:34.646345 33277 net.cpp:411] inception_3b/1x1 -> inception_3b/1x1
I0718 14:30:34.652420 33277 cudnn_conv_layer.cpp:194] Reallocating workspace storage: 3072
I0718 14:30:34.652572 33277 net.cpp:150] Setting up inception_3b/1x1
I0718 14:30:34.652608 33277 net.cpp:157] Top shape: 4 128 125 125 (8000000)
I0718 14:30:34.652634 33277 net.cpp:165] Memory required for data: 2216000048
I0718 14:30:34.652735 33277 layer_factory.hpp:76] Creating layer inception_3b/relu_1x1
I0718 14:30:34.652766 33277 net.cpp:106] Creating Layer inception_3b/relu_1x1
I0718 14:30:34.652796 33277 net.cpp:454] inception_3b/relu_1x1 <- inception_3b/1x1
I0718 14:30:34.652817 33277 net.cpp:397] inception_3b/relu_1x1 -> inception_3b/1x1 (in-place)
I0718 14:30:34.654547 33277 net.cpp:150] Setting up inception_3b/relu_1x1
I0718 14:30:34.654639 33277 net.cpp:157] Top shape: 4 128 125 125 (8000000)
I0718 14:30:34.654654 33277 net.cpp:165] Memory required for data: 2248000048
I0718 14:30:34.654672 33277 layer_factory.hpp:76] Creating layer inception_3b/3x3_reduce
I0718 14:30:34.654706 33277 net.cpp:106] Creating Layer inception_3b/3x3_reduce
I0718 14:30:34.654723 33277 net.cpp:454] inception_3b/3x3_reduce <- inception_3a/output_inception_3a/output_0_split_1
I0718 14:30:34.654760 33277 net.cpp:411] inception_3b/3x3_reduce -> inception_3b/3x3_reduce
I0718 14:30:34.661597 33277 cudnn_conv_layer.cpp:194] Reallocating workspace storage: 3072
I0718 14:30:34.661684 33277 net.cpp:150] Setting up inception_3b/3x3_reduce
I0718 14:30:34.661713 33277 net.cpp:157] Top shape: 4 128 125 125 (8000000)
I0718 14:30:34.661726 33277 net.cpp:165] Memory required for data: 2280000048
I0718 14:30:34.661748 33277 layer_factory.hpp:76] Creating layer inception_3b/relu_3x3_reduce
I0718 14:30:34.661785 33277 net.cpp:106] Creating Layer inception_3b/relu_3x3_reduce
I0718 14:30:34.661813 33277 net.cpp:454] inception_3b/relu_3x3_reduce <- inception_3b/3x3_reduce
I0718 14:30:34.661831 33277 net.cpp:397] inception_3b/relu_3x3_reduce -> inception_3b/3x3_reduce (in-place)
I0718 14:30:34.663257 33277 net.cpp:150] Setting up inception_3b/relu_3x3_reduce
I0718 14:30:34.663329 33277 net.cpp:157] Top shape: 4 128 125 125 (8000000)
I0718 14:30:34.663342 33277 net.cpp:165] Memory required for data: 2312000048
I0718 14:30:34.663358 33277 layer_factory.hpp:76] Creating layer inception_3b/3x3
I0718 14:30:34.663400 33277 net.cpp:106] Creating Layer inception_3b/3x3
I0718 14:30:34.663420 33277 net.cpp:454] inception_3b/3x3 <- inception_3b/3x3_reduce
I0718 14:30:34.663442 33277 net.cpp:411] inception_3b/3x3 -> inception_3b/3x3
I0718 14:30:34.674254 33277 cudnn_conv_layer.cpp:194] Reallocating workspace storage: 13824
I0718 14:30:34.674373 33277 net.cpp:150] Setting up inception_3b/3x3
I0718 14:30:34.674407 33277 net.cpp:157] Top shape: 4 192 125 125 (12000000)
I0718 14:30:34.674434 33277 net.cpp:165] Memory required for data: 2360000048
I0718 14:30:34.674489 33277 layer_factory.hpp:76] Creating layer inception_3b/relu_3x3
I0718 14:30:34.674525 33277 net.cpp:106] Creating Layer inception_3b/relu_3x3
I0718 14:30:34.674554 33277 net.cpp:454] inception_3b/relu_3x3 <- inception_3b/3x3
I0718 14:30:34.674592 33277 net.cpp:397] inception_3b/relu_3x3 -> inception_3b/3x3 (in-place)
I0718 14:30:34.675941 33277 net.cpp:150] Setting up inception_3b/relu_3x3
I0718 14:30:34.676005 33277 net.cpp:157] Top shape: 4 192 125 125 (12000000)
I0718 14:30:34.676028 33277 net.cpp:165] Memory required for data: 2408000048
I0718 14:30:34.676066 33277 layer_factory.hpp:76] Creating layer inception_3b/5x5_reduce
I0718 14:30:34.676126 33277 net.cpp:106] Creating Layer inception_3b/5x5_reduce
I0718 14:30:34.676156 33277 net.cpp:454] inception_3b/5x5_reduce <- inception_3a/output_inception_3a/output_0_split_2
I0718 14:30:34.676190 33277 net.cpp:411] inception_3b/5x5_reduce -> inception_3b/5x5_reduce
I0718 14:30:34.683012 33277 cudnn_conv_layer.cpp:194] Reallocating workspace storage: 3072
I0718 14:30:34.683145 33277 net.cpp:150] Setting up inception_3b/5x5_reduce
I0718 14:30:34.683190 33277 net.cpp:157] Top shape: 4 32 125 125 (2000000)
I0718 14:30:34.683228 33277 net.cpp:165] Memory required for data: 2416000048
I0718 14:30:34.683274 33277 layer_factory.hpp:76] Creating layer inception_3b/relu_5x5_reduce
I0718 14:30:34.683367 33277 net.cpp:106] Creating Layer inception_3b/relu_5x5_reduce
I0718 14:30:34.683399 33277 net.cpp:454] inception_3b/relu_5x5_reduce <- inception_3b/5x5_reduce
I0718 14:30:34.683517 33277 net.cpp:397] inception_3b/relu_5x5_reduce -> inception_3b/5x5_reduce (in-place)
I0718 14:30:34.684985 33277 net.cpp:150] Setting up inception_3b/relu_5x5_reduce
I0718 14:30:34.685089 33277 net.cpp:157] Top shape: 4 32 125 125 (2000000)
I0718 14:30:34.685132 33277 net.cpp:165] Memory required for data: 2424000048
I0718 14:30:34.685170 33277 layer_factory.hpp:76] Creating layer inception_3b/5x5
I0718 14:30:34.685221 33277 net.cpp:106] Creating Layer inception_3b/5x5
I0718 14:30:34.685256 33277 net.cpp:454] inception_3b/5x5 <- inception_3b/5x5_reduce
I0718 14:30:34.685300 33277 net.cpp:411] inception_3b/5x5 -> inception_3b/5x5
I0718 14:30:34.693297 33277 net.cpp:150] Setting up inception_3b/5x5
I0718 14:30:34.693367 33277 net.cpp:157] Top shape: 4 96 125 125 (6000000)
I0718 14:30:34.693380 33277 net.cpp:165] Memory required for data: 2448000048
I0718 14:30:34.693402 33277 layer_factory.hpp:76] Creating layer inception_3b/relu_5x5
I0718 14:30:34.693449 33277 net.cpp:106] Creating Layer inception_3b/relu_5x5
I0718 14:30:34.693469 33277 net.cpp:454] inception_3b/relu_5x5 <- inception_3b/5x5
I0718 14:30:34.693486 33277 net.cpp:397] inception_3b/relu_5x5 -> inception_3b/5x5 (in-place)
I0718 14:30:34.695472 33277 net.cpp:150] Setting up inception_3b/relu_5x5
I0718 14:30:34.695564 33277 net.cpp:157] Top shape: 4 96 125 125 (6000000)
I0718 14:30:34.695585 33277 net.cpp:165] Memory required for data: 2472000048
I0718 14:30:34.695616 33277 layer_factory.hpp:76] Creating layer inception_3b/pool
I0718 14:30:34.695648 33277 net.cpp:106] Creating Layer inception_3b/pool
I0718 14:30:34.695672 33277 net.cpp:454] inception_3b/pool <- inception_3a/output_inception_3a/output_0_split_3
I0718 14:30:34.695720 33277 net.cpp:411] inception_3b/pool -> inception_3b/pool
I0718 14:30:34.697906 33277 net.cpp:150] Setting up inception_3b/pool
I0718 14:30:34.697995 33277 net.cpp:157] Top shape: 4 256 125 125 (16000000)
I0718 14:30:34.698014 33277 net.cpp:165] Memory required for data: 2536000048
I0718 14:30:34.698035 33277 layer_factory.hpp:76] Creating layer inception_3b/pool_proj
I0718 14:30:34.698082 33277 net.cpp:106] Creating Layer inception_3b/pool_proj
I0718 14:30:34.698110 33277 net.cpp:454] inception_3b/pool_proj <- inception_3b/pool
I0718 14:30:34.698145 33277 net.cpp:411] inception_3b/pool_proj -> inception_3b/pool_proj
I0718 14:30:34.706377 33277 cudnn_conv_layer.cpp:194] Reallocating workspace storage: 3072
I0718 14:30:34.706492 33277 net.cpp:150] Setting up inception_3b/pool_proj
I0718 14:30:34.706519 33277 net.cpp:157] Top shape: 4 64 125 125 (4000000)
I0718 14:30:34.706534 33277 net.cpp:165] Memory required for data: 2552000048
I0718 14:30:34.706583 33277 layer_factory.hpp:76] Creating layer inception_3b/relu_pool_proj
I0718 14:30:34.706619 33277 net.cpp:106] Creating Layer inception_3b/relu_pool_proj
I0718 14:30:34.706645 33277 net.cpp:454] inception_3b/relu_pool_proj <- inception_3b/pool_proj
I0718 14:30:34.706667 33277 net.cpp:397] inception_3b/relu_pool_proj -> inception_3b/pool_proj (in-place)
I0718 14:30:34.709285 33277 net.cpp:150] Setting up inception_3b/relu_pool_proj
I0718 14:30:34.709359 33277 net.cpp:157] Top shape: 4 64 125 125 (4000000)
I0718 14:30:34.709377 33277 net.cpp:165] Memory required for data: 2568000048
I0718 14:30:34.709393 33277 layer_factory.hpp:76] Creating layer inception_3b/output
I0718 14:30:34.709417 33277 net.cpp:106] Creating Layer inception_3b/output
I0718 14:30:34.709444 33277 net.cpp:454] inception_3b/output <- inception_3b/1x1
I0718 14:30:34.709468 33277 net.cpp:454] inception_3b/output <- inception_3b/3x3
I0718 14:30:34.709491 33277 net.cpp:454] inception_3b/output <- inception_3b/5x5
I0718 14:30:34.709511 33277 net.cpp:454] inception_3b/output <- inception_3b/pool_proj
I0718 14:30:34.709527 33277 net.cpp:411] inception_3b/output -> inception_3b/output
I0718 14:30:34.709630 33277 net.cpp:150] Setting up inception_3b/output
I0718 14:30:34.709653 33277 net.cpp:157] Top shape: 4 480 125 125 (30000000)
I0718 14:30:34.709667 33277 net.cpp:165] Memory required for data: 2688000048
I0718 14:30:34.709746 33277 layer_factory.hpp:76] Creating layer pool3/3x3_s2
I0718 14:30:34.709779 33277 net.cpp:106] Creating Layer pool3/3x3_s2
I0718 14:30:34.709794 33277 net.cpp:454] pool3/3x3_s2 <- inception_3b/output
I0718 14:30:34.709810 33277 net.cpp:411] pool3/3x3_s2 -> pool3/3x3_s2
I0718 14:30:34.712401 33277 net.cpp:150] Setting up pool3/3x3_s2
I0718 14:30:34.712462 33277 net.cpp:157] Top shape: 4 480 62 62 (7380480)
I0718 14:30:34.712478 33277 net.cpp:165] Memory required for data: 2717521968
I0718 14:30:34.712493 33277 layer_factory.hpp:76] Creating layer pool3/3x3_s2_pool3/3x3_s2_0_split
I0718 14:30:34.712517 33277 net.cpp:106] Creating Layer pool3/3x3_s2_pool3/3x3_s2_0_split
I0718 14:30:34.712543 33277 net.cpp:454] pool3/3x3_s2_pool3/3x3_s2_0_split <- pool3/3x3_s2
I0718 14:30:34.712566 33277 net.cpp:411] pool3/3x3_s2_pool3/3x3_s2_0_split -> pool3/3x3_s2_pool3/3x3_s2_0_split_0
I0718 14:30:34.712594 33277 net.cpp:411] pool3/3x3_s2_pool3/3x3_s2_0_split -> pool3/3x3_s2_pool3/3x3_s2_0_split_1
I0718 14:30:34.712618 33277 net.cpp:411] pool3/3x3_s2_pool3/3x3_s2_0_split -> pool3/3x3_s2_pool3/3x3_s2_0_split_2
I0718 14:30:34.712641 33277 net.cpp:411] pool3/3x3_s2_pool3/3x3_s2_0_split -> pool3/3x3_s2_pool3/3x3_s2_0_split_3
I0718 14:30:34.712772 33277 net.cpp:150] Setting up pool3/3x3_s2_pool3/3x3_s2_0_split
I0718 14:30:34.712795 33277 net.cpp:157] Top shape: 4 480 62 62 (7380480)
I0718 14:30:34.712810 33277 net.cpp:157] Top shape: 4 480 62 62 (7380480)
I0718 14:30:34.712822 33277 net.cpp:157] Top shape: 4 480 62 62 (7380480)
I0718 14:30:34.712838 33277 net.cpp:157] Top shape: 4 480 62 62 (7380480)
I0718 14:30:34.712851 33277 net.cpp:165] Memory required for data: 2835609648
I0718 14:30:34.712870 33277 layer_factory.hpp:76] Creating layer inception_4a/1x1
I0718 14:30:34.712925 33277 net.cpp:106] Creating Layer inception_4a/1x1
I0718 14:30:34.712944 33277 net.cpp:454] inception_4a/1x1 <- pool3/3x3_s2_pool3/3x3_s2_0_split_0
I0718 14:30:34.712965 33277 net.cpp:411] inception_4a/1x1 -> inception_4a/1x1
I0718 14:30:34.719856 33277 cudnn_conv_layer.cpp:194] Reallocating workspace storage: 5760
I0718 14:30:34.719936 33277 net.cpp:150] Setting up inception_4a/1x1
I0718 14:30:34.719976 33277 net.cpp:157] Top shape: 4 192 62 62 (2952192)
I0718 14:30:34.719993 33277 net.cpp:165] Memory required for data: 2847418416
I0718 14:30:34.720017 33277 layer_factory.hpp:76] Creating layer inception_4a/relu_1x1
I0718 14:30:34.720053 33277 net.cpp:106] Creating Layer inception_4a/relu_1x1
I0718 14:30:34.720075 33277 net.cpp:454] inception_4a/relu_1x1 <- inception_4a/1x1
I0718 14:30:34.720096 33277 net.cpp:397] inception_4a/relu_1x1 -> inception_4a/1x1 (in-place)
I0718 14:30:34.722087 33277 net.cpp:150] Setting up inception_4a/relu_1x1
I0718 14:30:34.722146 33277 net.cpp:157] Top shape: 4 192 62 62 (2952192)
I0718 14:30:34.722162 33277 net.cpp:165] Memory required for data: 2859227184
I0718 14:30:34.722177 33277 layer_factory.hpp:76] Creating layer inception_4a/3x3_reduce
I0718 14:30:34.722216 33277 net.cpp:106] Creating Layer inception_4a/3x3_reduce
I0718 14:30:34.722239 33277 net.cpp:454] inception_4a/3x3_reduce <- pool3/3x3_s2_pool3/3x3_s2_0_split_1
I0718 14:30:34.722267 33277 net.cpp:411] inception_4a/3x3_reduce -> inception_4a/3x3_reduce
I0718 14:30:34.731691 33277 cudnn_conv_layer.cpp:194] Reallocating workspace storage: 5760
I0718 14:30:34.731786 33277 net.cpp:150] Setting up inception_4a/3x3_reduce
I0718 14:30:34.731812 33277 net.cpp:157] Top shape: 4 96 62 62 (1476096)
I0718 14:30:34.731832 33277 net.cpp:165] Memory required for data: 2865131568
I0718 14:30:34.731870 33277 layer_factory.hpp:76] Creating layer inception_4a/relu_3x3_reduce
I0718 14:30:34.731914 33277 net.cpp:106] Creating Layer inception_4a/relu_3x3_reduce
I0718 14:30:34.731935 33277 net.cpp:454] inception_4a/relu_3x3_reduce <- inception_4a/3x3_reduce
I0718 14:30:34.731955 33277 net.cpp:397] inception_4a/relu_3x3_reduce -> inception_4a/3x3_reduce (in-place)
I0718 14:30:34.732820 33277 net.cpp:150] Setting up inception_4a/relu_3x3_reduce
I0718 14:30:34.732903 33277 net.cpp:157] Top shape: 4 96 62 62 (1476096)
I0718 14:30:34.732923 33277 net.cpp:165] Memory required for data: 2871035952
I0718 14:30:34.732954 33277 layer_factory.hpp:76] Creating layer inception_4a/3x3
I0718 14:30:34.732986 33277 net.cpp:106] Creating Layer inception_4a/3x3
I0718 14:30:34.733005 33277 net.cpp:454] inception_4a/3x3 <- inception_4a/3x3_reduce
I0718 14:30:34.733026 33277 net.cpp:411] inception_4a/3x3 -> inception_4a/3x3
I0718 14:30:34.758836 33277 net.cpp:150] Setting up inception_4a/3x3
I0718 14:30:34.758908 33277 net.cpp:157] Top shape: 4 208 62 62 (3198208)
I0718 14:30:34.758924 33277 net.cpp:165] Memory required for data: 2883828784
I0718 14:30:34.758946 33277 layer_factory.hpp:76] Creating layer inception_4a/relu_3x3
I0718 14:30:34.758972 33277 net.cpp:106] Creating Layer inception_4a/relu_3x3
I0718 14:30:34.758996 33277 net.cpp:454] inception_4a/relu_3x3 <- inception_4a/3x3
I0718 14:30:34.759014 33277 net.cpp:397] inception_4a/relu_3x3 -> inception_4a/3x3 (in-place)
I0718 14:30:34.761104 33277 net.cpp:150] Setting up inception_4a/relu_3x3
I0718 14:30:34.761142 33277 net.cpp:157] Top shape: 4 208 62 62 (3198208)
I0718 14:30:34.761155 33277 net.cpp:165] Memory required for data: 2896621616
I0718 14:30:34.761169 33277 layer_factory.hpp:76] Creating layer inception_4a/5x5_reduce
I0718 14:30:34.761215 33277 net.cpp:106] Creating Layer inception_4a/5x5_reduce
I0718 14:30:34.761234 33277 net.cpp:454] inception_4a/5x5_reduce <- pool3/3x3_s2_pool3/3x3_s2_0_split_2
I0718 14:30:34.761255 33277 net.cpp:411] inception_4a/5x5_reduce -> inception_4a/5x5_reduce
I0718 14:30:34.768784 33277 net.cpp:150] Setting up inception_4a/5x5_reduce
I0718 14:30:34.768849 33277 net.cpp:157] Top shape: 4 16 62 62 (246016)
I0718 14:30:34.768864 33277 net.cpp:165] Memory required for data: 2897605680
I0718 14:30:34.768887 33277 layer_factory.hpp:76] Creating layer inception_4a/relu_5x5_reduce
I0718 14:30:34.768910 33277 net.cpp:106] Creating Layer inception_4a/relu_5x5_reduce
I0718 14:30:34.768934 33277 net.cpp:454] inception_4a/relu_5x5_reduce <- inception_4a/5x5_reduce
I0718 14:30:34.768951 33277 net.cpp:397] inception_4a/relu_5x5_reduce -> inception_4a/5x5_reduce (in-place)
I0718 14:30:34.771073 33277 net.cpp:150] Setting up inception_4a/relu_5x5_reduce
I0718 14:30:34.771103 33277 net.cpp:157] Top shape: 4 16 62 62 (246016)
I0718 14:30:34.771116 33277 net.cpp:165] Memory required for data: 2898589744
I0718 14:30:34.771128 33277 layer_factory.hpp:76] Creating layer inception_4a/5x5
I0718 14:30:34.771154 33277 net.cpp:106] Creating Layer inception_4a/5x5
I0718 14:30:34.771167 33277 net.cpp:454] inception_4a/5x5 <- inception_4a/5x5_reduce
I0718 14:30:34.771185 33277 net.cpp:411] inception_4a/5x5 -> inception_4a/5x5
I0718 14:30:34.778637 33277 net.cpp:150] Setting up inception_4a/5x5
I0718 14:30:34.778708 33277 net.cpp:157] Top shape: 4 48 62 62 (738048)
I0718 14:30:34.778726 33277 net.cpp:165] Memory required for data: 2901541936
I0718 14:30:34.778764 33277 layer_factory.hpp:76] Creating layer inception_4a/relu_5x5
I0718 14:30:34.778796 33277 net.cpp:106] Creating Layer inception_4a/relu_5x5
I0718 14:30:34.778820 33277 net.cpp:454] inception_4a/relu_5x5 <- inception_4a/5x5
I0718 14:30:34.778841 33277 net.cpp:397] inception_4a/relu_5x5 -> inception_4a/5x5 (in-place)
I0718 14:30:34.780912 33277 net.cpp:150] Setting up inception_4a/relu_5x5
I0718 14:30:34.780952 33277 net.cpp:157] Top shape: 4 48 62 62 (738048)
I0718 14:30:34.780966 33277 net.cpp:165] Memory required for data: 2904494128
I0718 14:30:34.780979 33277 layer_factory.hpp:76] Creating layer inception_4a/pool
I0718 14:30:34.780999 33277 net.cpp:106] Creating Layer inception_4a/pool
I0718 14:30:34.781014 33277 net.cpp:454] inception_4a/pool <- pool3/3x3_s2_pool3/3x3_s2_0_split_3
I0718 14:30:34.781033 33277 net.cpp:411] inception_4a/pool -> inception_4a/pool
I0718 14:30:34.783848 33277 net.cpp:150] Setting up inception_4a/pool
I0718 14:30:34.783881 33277 net.cpp:157] Top shape: 4 480 62 62 (7380480)
I0718 14:30:34.783887 33277 net.cpp:165] Memory required for data: 2934016048
I0718 14:30:34.783921 33277 layer_factory.hpp:76] Creating layer inception_4a/pool_proj
I0718 14:30:34.783941 33277 net.cpp:106] Creating Layer inception_4a/pool_proj
I0718 14:30:34.783951 33277 net.cpp:454] inception_4a/pool_proj <- inception_4a/pool
I0718 14:30:34.783963 33277 net.cpp:411] inception_4a/pool_proj -> inception_4a/pool_proj
I0718 14:30:34.792956 33277 cudnn_conv_layer.cpp:194] Reallocating workspace storage: 5760
I0718 14:30:34.793007 33277 net.cpp:150] Setting up inception_4a/pool_proj
I0718 14:30:34.793025 33277 net.cpp:157] Top shape: 4 64 62 62 (984064)
I0718 14:30:34.793033 33277 net.cpp:165] Memory required for data: 2937952304
I0718 14:30:34.793047 33277 layer_factory.hpp:76] Creating layer inception_4a/relu_pool_proj
I0718 14:30:34.793061 33277 net.cpp:106] Creating Layer inception_4a/relu_pool_proj
I0718 14:30:34.793071 33277 net.cpp:454] inception_4a/relu_pool_proj <- inception_4a/pool_proj
I0718 14:30:34.793087 33277 net.cpp:397] inception_4a/relu_pool_proj -> inception_4a/pool_proj (in-place)
I0718 14:30:34.795327 33277 net.cpp:150] Setting up inception_4a/relu_pool_proj
I0718 14:30:34.795346 33277 net.cpp:157] Top shape: 4 64 62 62 (984064)
I0718 14:30:34.795353 33277 net.cpp:165] Memory required for data: 2941888560
I0718 14:30:34.795366 33277 layer_factory.hpp:76] Creating layer inception_4a/output
I0718 14:30:34.795378 33277 net.cpp:106] Creating Layer inception_4a/output
I0718 14:30:34.795387 33277 net.cpp:454] inception_4a/output <- inception_4a/1x1
I0718 14:30:34.795397 33277 net.cpp:454] inception_4a/output <- inception_4a/3x3
I0718 14:30:34.795408 33277 net.cpp:454] inception_4a/output <- inception_4a/5x5
I0718 14:30:34.795418 33277 net.cpp:454] inception_4a/output <- inception_4a/pool_proj
I0718 14:30:34.795431 33277 net.cpp:411] inception_4a/output -> inception_4a/output
I0718 14:30:34.795475 33277 net.cpp:150] Setting up inception_4a/output
I0718 14:30:34.795488 33277 net.cpp:157] Top shape: 4 512 62 62 (7872512)
I0718 14:30:34.795495 33277 net.cpp:165] Memory required for data: 2973378608
I0718 14:30:34.795505 33277 layer_factory.hpp:76] Creating layer inception_4a/output_inception_4a/output_0_split
I0718 14:30:34.795516 33277 net.cpp:106] Creating Layer inception_4a/output_inception_4a/output_0_split
I0718 14:30:34.795526 33277 net.cpp:454] inception_4a/output_inception_4a/output_0_split <- inception_4a/output
I0718 14:30:34.795536 33277 net.cpp:411] inception_4a/output_inception_4a/output_0_split -> inception_4a/output_inception_4a/output_0_split_0
I0718 14:30:34.795549 33277 net.cpp:411] inception_4a/output_inception_4a/output_0_split -> inception_4a/output_inception_4a/output_0_split_1
I0718 14:30:34.795562 33277 net.cpp:411] inception_4a/output_inception_4a/output_0_split -> inception_4a/output_inception_4a/output_0_split_2
I0718 14:30:34.795572 33277 net.cpp:411] inception_4a/output_inception_4a/output_0_split -> inception_4a/output_inception_4a/output_0_split_3
I0718 14:30:34.795649 33277 net.cpp:150] Setting up inception_4a/output_inception_4a/output_0_split
I0718 14:30:34.795660 33277 net.cpp:157] Top shape: 4 512 62 62 (7872512)
I0718 14:30:34.795672 33277 net.cpp:157] Top shape: 4 512 62 62 (7872512)
I0718 14:30:34.795681 33277 net.cpp:157] Top shape: 4 512 62 62 (7872512)
I0718 14:30:34.795691 33277 net.cpp:157] Top shape: 4 512 62 62 (7872512)
I0718 14:30:34.795698 33277 net.cpp:165] Memory required for data: 3099338800
I0718 14:30:34.795707 33277 layer_factory.hpp:76] Creating layer inception_4b/1x1
I0718 14:30:34.795724 33277 net.cpp:106] Creating Layer inception_4b/1x1
I0718 14:30:34.795735 33277 net.cpp:454] inception_4b/1x1 <- inception_4a/output_inception_4a/output_0_split_0
I0718 14:30:34.795747 33277 net.cpp:411] inception_4b/1x1 -> inception_4b/1x1
I0718 14:30:34.803653 33277 cudnn_conv_layer.cpp:194] Reallocating workspace storage: 6144
I0718 14:30:34.803694 33277 net.cpp:150] Setting up inception_4b/1x1
I0718 14:30:34.803707 33277 net.cpp:157] Top shape: 4 160 62 62 (2460160)
I0718 14:30:34.803715 33277 net.cpp:165] Memory required for data: 3109179440
I0718 14:30:34.803751 33277 layer_factory.hpp:76] Creating layer inception_4b/relu_1x1
I0718 14:30:34.803766 33277 net.cpp:106] Creating Layer inception_4b/relu_1x1
I0718 14:30:34.803776 33277 net.cpp:454] inception_4b/relu_1x1 <- inception_4b/1x1
I0718 14:30:34.803786 33277 net.cpp:397] inception_4b/relu_1x1 -> inception_4b/1x1 (in-place)
I0718 14:30:34.805965 33277 net.cpp:150] Setting up inception_4b/relu_1x1
I0718 14:30:34.805986 33277 net.cpp:157] Top shape: 4 160 62 62 (2460160)
I0718 14:30:34.805995 33277 net.cpp:165] Memory required for data: 3119020080
I0718 14:30:34.806005 33277 layer_factory.hpp:76] Creating layer inception_4b/3x3_reduce
I0718 14:30:34.806025 33277 net.cpp:106] Creating Layer inception_4b/3x3_reduce
I0718 14:30:34.806035 33277 net.cpp:454] inception_4b/3x3_reduce <- inception_4a/output_inception_4a/output_0_split_1
I0718 14:30:34.806048 33277 net.cpp:411] inception_4b/3x3_reduce -> inception_4b/3x3_reduce
I0718 14:30:34.813096 33277 cudnn_conv_layer.cpp:194] Reallocating workspace storage: 6144
I0718 14:30:34.813129 33277 net.cpp:150] Setting up inception_4b/3x3_reduce
I0718 14:30:34.813143 33277 net.cpp:157] Top shape: 4 112 62 62 (1722112)
I0718 14:30:34.813150 33277 net.cpp:165] Memory required for data: 3125908528
I0718 14:30:34.813163 33277 layer_factory.hpp:76] Creating layer inception_4b/relu_3x3_reduce
I0718 14:30:34.813174 33277 net.cpp:106] Creating Layer inception_4b/relu_3x3_reduce
I0718 14:30:34.813182 33277 net.cpp:454] inception_4b/relu_3x3_reduce <- inception_4b/3x3_reduce
I0718 14:30:34.813195 33277 net.cpp:397] inception_4b/relu_3x3_reduce -> inception_4b/3x3_reduce (in-place)
I0718 14:30:34.815189 33277 net.cpp:150] Setting up inception_4b/relu_3x3_reduce
I0718 14:30:34.815212 33277 net.cpp:157] Top shape: 4 112 62 62 (1722112)
I0718 14:30:34.815220 33277 net.cpp:165] Memory required for data: 3132796976
I0718 14:30:34.815228 33277 layer_factory.hpp:76] Creating layer inception_4b/3x3
I0718 14:30:34.815245 33277 net.cpp:106] Creating Layer inception_4b/3x3
I0718 14:30:34.815255 33277 net.cpp:454] inception_4b/3x3 <- inception_4b/3x3_reduce
I0718 14:30:34.815268 33277 net.cpp:411] inception_4b/3x3 -> inception_4b/3x3
I0718 14:30:34.821773 33277 cudnn_conv_layer.cpp:194] Reallocating workspace storage: 12096
I0718 14:30:34.821807 33277 net.cpp:150] Setting up inception_4b/3x3
I0718 14:30:34.821820 33277 net.cpp:157] Top shape: 4 224 62 62 (3444224)
I0718 14:30:34.821828 33277 net.cpp:165] Memory required for data: 3146573872
I0718 14:30:34.821841 33277 layer_factory.hpp:76] Creating layer inception_4b/relu_3x3
I0718 14:30:34.821868 33277 net.cpp:106] Creating Layer inception_4b/relu_3x3
I0718 14:30:34.821878 33277 net.cpp:454] inception_4b/relu_3x3 <- inception_4b/3x3
I0718 14:30:34.821889 33277 net.cpp:397] inception_4b/relu_3x3 -> inception_4b/3x3 (in-place)
I0718 14:30:34.823056 33277 net.cpp:150] Setting up inception_4b/relu_3x3
I0718 14:30:34.823074 33277 net.cpp:157] Top shape: 4 224 62 62 (3444224)
I0718 14:30:34.823082 33277 net.cpp:165] Memory required for data: 3160350768
I0718 14:30:34.823093 33277 layer_factory.hpp:76] Creating layer inception_4b/5x5_reduce
I0718 14:30:34.823108 33277 net.cpp:106] Creating Layer inception_4b/5x5_reduce
I0718 14:30:34.823119 33277 net.cpp:454] inception_4b/5x5_reduce <- inception_4a/output_inception_4a/output_0_split_2
I0718 14:30:34.823132 33277 net.cpp:411] inception_4b/5x5_reduce -> inception_4b/5x5_reduce
I0718 14:30:34.831764 33277 cudnn_conv_layer.cpp:194] Reallocating workspace storage: 6144
I0718 14:30:34.831815 33277 net.cpp:150] Setting up inception_4b/5x5_reduce
I0718 14:30:34.831830 33277 net.cpp:157] Top shape: 4 24 62 62 (369024)
I0718 14:30:34.831840 33277 net.cpp:165] Memory required for data: 3161826864
I0718 14:30:34.831851 33277 layer_factory.hpp:76] Creating layer inception_4b/relu_5x5_reduce
I0718 14:30:34.831862 33277 net.cpp:106] Creating Layer inception_4b/relu_5x5_reduce
I0718 14:30:34.831872 33277 net.cpp:454] inception_4b/relu_5x5_reduce <- inception_4b/5x5_reduce
I0718 14:30:34.831885 33277 net.cpp:397] inception_4b/relu_5x5_reduce -> inception_4b/5x5_reduce (in-place)
I0718 14:30:34.834035 33277 net.cpp:150] Setting up inception_4b/relu_5x5_reduce
I0718 14:30:34.834059 33277 net.cpp:157] Top shape: 4 24 62 62 (369024)
I0718 14:30:34.834067 33277 net.cpp:165] Memory required for data: 3163302960
I0718 14:30:34.834076 33277 layer_factory.hpp:76] Creating layer inception_4b/5x5
I0718 14:30:34.834094 33277 net.cpp:106] Creating Layer inception_4b/5x5
I0718 14:30:34.834103 33277 net.cpp:454] inception_4b/5x5 <- inception_4b/5x5_reduce
I0718 14:30:34.834116 33277 net.cpp:411] inception_4b/5x5 -> inception_4b/5x5
I0718 14:30:34.841233 33277 net.cpp:150] Setting up inception_4b/5x5
I0718 14:30:34.841255 33277 net.cpp:157] Top shape: 4 64 62 62 (984064)
I0718 14:30:34.841264 33277 net.cpp:165] Memory required for data: 3167239216
I0718 14:30:34.841275 33277 layer_factory.hpp:76] Creating layer inception_4b/relu_5x5
I0718 14:30:34.841298 33277 net.cpp:106] Creating Layer inception_4b/relu_5x5
I0718 14:30:34.841307 33277 net.cpp:454] inception_4b/relu_5x5 <- inception_4b/5x5
I0718 14:30:34.841323 33277 net.cpp:397] inception_4b/relu_5x5 -> inception_4b/5x5 (in-place)
I0718 14:30:34.843505 33277 net.cpp:150] Setting up inception_4b/relu_5x5
I0718 14:30:34.843526 33277 net.cpp:157] Top shape: 4 64 62 62 (984064)
I0718 14:30:34.843534 33277 net.cpp:165] Memory required for data: 3171175472
I0718 14:30:34.843545 33277 layer_factory.hpp:76] Creating layer inception_4b/pool
I0718 14:30:34.843559 33277 net.cpp:106] Creating Layer inception_4b/pool
I0718 14:30:34.843567 33277 net.cpp:454] inception_4b/pool <- inception_4a/output_inception_4a/output_0_split_3
I0718 14:30:34.843580 33277 net.cpp:411] inception_4b/pool -> inception_4b/pool
I0718 14:30:34.845916 33277 net.cpp:150] Setting up inception_4b/pool
I0718 14:30:34.845937 33277 net.cpp:157] Top shape: 4 512 62 62 (7872512)
I0718 14:30:34.845947 33277 net.cpp:165] Memory required for data: 3202665520
I0718 14:30:34.845954 33277 layer_factory.hpp:76] Creating layer inception_4b/pool_proj
I0718 14:30:34.845973 33277 net.cpp:106] Creating Layer inception_4b/pool_proj
I0718 14:30:34.845983 33277 net.cpp:454] inception_4b/pool_proj <- inception_4b/pool
I0718 14:30:34.845996 33277 net.cpp:411] inception_4b/pool_proj -> inception_4b/pool_proj
I0718 14:30:34.852156 33277 net.cpp:150] Setting up inception_4b/pool_proj
I0718 14:30:34.852180 33277 net.cpp:157] Top shape: 4 64 62 62 (984064)
I0718 14:30:34.852188 33277 net.cpp:165] Memory required for data: 3206601776
I0718 14:30:34.852200 33277 layer_factory.hpp:76] Creating layer inception_4b/relu_pool_proj
I0718 14:30:34.852212 33277 net.cpp:106] Creating Layer inception_4b/relu_pool_proj
I0718 14:30:34.852221 33277 net.cpp:454] inception_4b/relu_pool_proj <- inception_4b/pool_proj
I0718 14:30:34.852234 33277 net.cpp:397] inception_4b/relu_pool_proj -> inception_4b/pool_proj (in-place)
I0718 14:30:34.854841 33277 net.cpp:150] Setting up inception_4b/relu_pool_proj
I0718 14:30:34.854864 33277 net.cpp:157] Top shape: 4 64 62 62 (984064)
I0718 14:30:34.854874 33277 net.cpp:165] Memory required for data: 3210538032
I0718 14:30:34.854882 33277 layer_factory.hpp:76] Creating layer inception_4b/output
I0718 14:30:34.854897 33277 net.cpp:106] Creating Layer inception_4b/output
I0718 14:30:34.854907 33277 net.cpp:454] inception_4b/output <- inception_4b/1x1
I0718 14:30:34.854917 33277 net.cpp:454] inception_4b/output <- inception_4b/3x3
I0718 14:30:34.854926 33277 net.cpp:454] inception_4b/output <- inception_4b/5x5
I0718 14:30:34.854935 33277 net.cpp:454] inception_4b/output <- inception_4b/pool_proj
I0718 14:30:34.854948 33277 net.cpp:411] inception_4b/output -> inception_4b/output
I0718 14:30:34.854989 33277 net.cpp:150] Setting up inception_4b/output
I0718 14:30:34.855001 33277 net.cpp:157] Top shape: 4 512 62 62 (7872512)
I0718 14:30:34.855010 33277 net.cpp:165] Memory required for data: 3242028080
I0718 14:30:34.855020 33277 layer_factory.hpp:76] Creating layer inception_4b/output_inception_4b/output_0_split
I0718 14:30:34.855036 33277 net.cpp:106] Creating Layer inception_4b/output_inception_4b/output_0_split
I0718 14:30:34.855067 33277 net.cpp:454] inception_4b/output_inception_4b/output_0_split <- inception_4b/output
I0718 14:30:34.855079 33277 net.cpp:411] inception_4b/output_inception_4b/output_0_split -> inception_4b/output_inception_4b/output_0_split_0
I0718 14:30:34.855094 33277 net.cpp:411] inception_4b/output_inception_4b/output_0_split -> inception_4b/output_inception_4b/output_0_split_1
I0718 14:30:34.855106 33277 net.cpp:411] inception_4b/output_inception_4b/output_0_split -> inception_4b/output_inception_4b/output_0_split_2
I0718 14:30:34.855118 33277 net.cpp:411] inception_4b/output_inception_4b/output_0_split -> inception_4b/output_inception_4b/output_0_split_3
I0718 14:30:34.855197 33277 net.cpp:150] Setting up inception_4b/output_inception_4b/output_0_split
I0718 14:30:34.855209 33277 net.cpp:157] Top shape: 4 512 62 62 (7872512)
I0718 14:30:34.855219 33277 net.cpp:157] Top shape: 4 512 62 62 (7872512)
I0718 14:30:34.855229 33277 net.cpp:157] Top shape: 4 512 62 62 (7872512)
I0718 14:30:34.855239 33277 net.cpp:157] Top shape: 4 512 62 62 (7872512)
I0718 14:30:34.855247 33277 net.cpp:165] Memory required for data: 3367988272
I0718 14:30:34.855257 33277 layer_factory.hpp:76] Creating layer inception_4c/1x1
I0718 14:30:34.855271 33277 net.cpp:106] Creating Layer inception_4c/1x1
I0718 14:30:34.855280 33277 net.cpp:454] inception_4c/1x1 <- inception_4b/output_inception_4b/output_0_split_0
I0718 14:30:34.855294 33277 net.cpp:411] inception_4c/1x1 -> inception_4c/1x1
I0718 14:30:34.862519 33277 cudnn_conv_layer.cpp:194] Reallocating workspace storage: 6144
I0718 14:30:34.862560 33277 net.cpp:150] Setting up inception_4c/1x1
I0718 14:30:34.862576 33277 net.cpp:157] Top shape: 4 128 62 62 (1968128)
I0718 14:30:34.862584 33277 net.cpp:165] Memory required for data: 3375860784
I0718 14:30:34.862596 33277 layer_factory.hpp:76] Creating layer inception_4c/relu_1x1
I0718 14:30:34.862607 33277 net.cpp:106] Creating Layer inception_4c/relu_1x1
I0718 14:30:34.862617 33277 net.cpp:454] inception_4c/relu_1x1 <- inception_4c/1x1
I0718 14:30:34.862627 33277 net.cpp:397] inception_4c/relu_1x1 -> inception_4c/1x1 (in-place)
I0718 14:30:34.865005 33277 net.cpp:150] Setting up inception_4c/relu_1x1
I0718 14:30:34.865023 33277 net.cpp:157] Top shape: 4 128 62 62 (1968128)
I0718 14:30:34.865031 33277 net.cpp:165] Memory required for data: 3383733296
I0718 14:30:34.865041 33277 layer_factory.hpp:76] Creating layer inception_4c/3x3_reduce
I0718 14:30:34.865057 33277 net.cpp:106] Creating Layer inception_4c/3x3_reduce
I0718 14:30:34.865067 33277 net.cpp:454] inception_4c/3x3_reduce <- inception_4b/output_inception_4b/output_0_split_1
I0718 14:30:34.865078 33277 net.cpp:411] inception_4c/3x3_reduce -> inception_4c/3x3_reduce
I0718 14:30:34.872457 33277 cudnn_conv_layer.cpp:194] Reallocating workspace storage: 6144
I0718 14:30:34.872493 33277 net.cpp:150] Setting up inception_4c/3x3_reduce
I0718 14:30:34.872505 33277 net.cpp:157] Top shape: 4 128 62 62 (1968128)
I0718 14:30:34.872514 33277 net.cpp:165] Memory required for data: 3391605808
I0718 14:30:34.872525 33277 layer_factory.hpp:76] Creating layer inception_4c/relu_3x3_reduce
I0718 14:30:34.872541 33277 net.cpp:106] Creating Layer inception_4c/relu_3x3_reduce
I0718 14:30:34.872551 33277 net.cpp:454] inception_4c/relu_3x3_reduce <- inception_4c/3x3_reduce
I0718 14:30:34.872563 33277 net.cpp:397] inception_4c/relu_3x3_reduce -> inception_4c/3x3_reduce (in-place)
I0718 14:30:34.874783 33277 net.cpp:150] Setting up inception_4c/relu_3x3_reduce
I0718 14:30:34.874804 33277 net.cpp:157] Top shape: 4 128 62 62 (1968128)
I0718 14:30:34.874812 33277 net.cpp:165] Memory required for data: 3399478320
I0718 14:30:34.874821 33277 layer_factory.hpp:76] Creating layer inception_4c/3x3
I0718 14:30:34.874840 33277 net.cpp:106] Creating Layer inception_4c/3x3
I0718 14:30:34.874850 33277 net.cpp:454] inception_4c/3x3 <- inception_4c/3x3_reduce
I0718 14:30:34.874861 33277 net.cpp:411] inception_4c/3x3 -> inception_4c/3x3
I0718 14:30:34.883275 33277 cudnn_conv_layer.cpp:194] Reallocating workspace storage: 13824
I0718 14:30:34.883312 33277 net.cpp:150] Setting up inception_4c/3x3
I0718 14:30:34.883325 33277 net.cpp:157] Top shape: 4 256 62 62 (3936256)
I0718 14:30:34.883334 33277 net.cpp:165] Memory required for data: 3415223344
I0718 14:30:34.883347 33277 layer_factory.hpp:76] Creating layer inception_4c/relu_3x3
I0718 14:30:34.883359 33277 net.cpp:106] Creating Layer inception_4c/relu_3x3
I0718 14:30:34.883369 33277 net.cpp:454] inception_4c/relu_3x3 <- inception_4c/3x3
I0718 14:30:34.883379 33277 net.cpp:397] inception_4c/relu_3x3 -> inception_4c/3x3 (in-place)
I0718 14:30:34.886325 33277 net.cpp:150] Setting up inception_4c/relu_3x3
I0718 14:30:34.886346 33277 net.cpp:157] Top shape: 4 256 62 62 (3936256)
I0718 14:30:34.886355 33277 net.cpp:165] Memory required for data: 3430968368
I0718 14:30:34.886365 33277 layer_factory.hpp:76] Creating layer inception_4c/5x5_reduce
I0718 14:30:34.886380 33277 net.cpp:106] Creating Layer inception_4c/5x5_reduce
I0718 14:30:34.886390 33277 net.cpp:454] inception_4c/5x5_reduce <- inception_4b/output_inception_4b/output_0_split_2
I0718 14:30:34.886404 33277 net.cpp:411] inception_4c/5x5_reduce -> inception_4c/5x5_reduce
I0718 14:30:34.894824 33277 cudnn_conv_layer.cpp:194] Reallocating workspace storage: 6144
I0718 14:30:34.894873 33277 net.cpp:150] Setting up inception_4c/5x5_reduce
I0718 14:30:34.894888 33277 net.cpp:157] Top shape: 4 24 62 62 (369024)
I0718 14:30:34.894898 33277 net.cpp:165] Memory required for data: 3432444464
I0718 14:30:34.894912 33277 layer_factory.hpp:76] Creating layer inception_4c/relu_5x5_reduce
I0718 14:30:34.894932 33277 net.cpp:106] Creating Layer inception_4c/relu_5x5_reduce
I0718 14:30:34.894942 33277 net.cpp:454] inception_4c/relu_5x5_reduce <- inception_4c/5x5_reduce
I0718 14:30:34.894958 33277 net.cpp:397] inception_4c/relu_5x5_reduce -> inception_4c/5x5_reduce (in-place)
I0718 14:30:34.897367 33277 net.cpp:150] Setting up inception_4c/relu_5x5_reduce
I0718 14:30:34.897385 33277 net.cpp:157] Top shape: 4 24 62 62 (369024)
I0718 14:30:34.897394 33277 net.cpp:165] Memory required for data: 3433920560
I0718 14:30:34.897403 33277 layer_factory.hpp:76] Creating layer inception_4c/5x5
I0718 14:30:34.897420 33277 net.cpp:106] Creating Layer inception_4c/5x5
I0718 14:30:34.897429 33277 net.cpp:454] inception_4c/5x5 <- inception_4c/5x5_reduce
I0718 14:30:34.897442 33277 net.cpp:411] inception_4c/5x5 -> inception_4c/5x5
I0718 14:30:34.906827 33277 net.cpp:150] Setting up inception_4c/5x5
I0718 14:30:34.906875 33277 net.cpp:157] Top shape: 4 64 62 62 (984064)
I0718 14:30:34.906886 33277 net.cpp:165] Memory required for data: 3437856816
I0718 14:30:34.906903 33277 layer_factory.hpp:76] Creating layer inception_4c/relu_5x5
I0718 14:30:34.906925 33277 net.cpp:106] Creating Layer inception_4c/relu_5x5
I0718 14:30:34.906939 33277 net.cpp:454] inception_4c/relu_5x5 <- inception_4c/5x5
I0718 14:30:34.906954 33277 net.cpp:397] inception_4c/relu_5x5 -> inception_4c/5x5 (in-place)
I0718 14:30:34.909090 33277 net.cpp:150] Setting up inception_4c/relu_5x5
I0718 14:30:34.909121 33277 net.cpp:157] Top shape: 4 64 62 62 (984064)
I0718 14:30:34.909129 33277 net.cpp:165] Memory required for data: 3441793072
I0718 14:30:34.909139 33277 layer_factory.hpp:76] Creating layer inception_4c/pool
I0718 14:30:34.909159 33277 net.cpp:106] Creating Layer inception_4c/pool
I0718 14:30:34.909171 33277 net.cpp:454] inception_4c/pool <- inception_4b/output_inception_4b/output_0_split_3
I0718 14:30:34.909186 33277 net.cpp:411] inception_4c/pool -> inception_4c/pool
I0718 14:30:34.911469 33277 net.cpp:150] Setting up inception_4c/pool
I0718 14:30:34.911499 33277 net.cpp:157] Top shape: 4 512 62 62 (7872512)
I0718 14:30:34.911507 33277 net.cpp:165] Memory required for data: 3473283120
I0718 14:30:34.911517 33277 layer_factory.hpp:76] Creating layer inception_4c/pool_proj
I0718 14:30:34.911538 33277 net.cpp:106] Creating Layer inception_4c/pool_proj
I0718 14:30:34.911550 33277 net.cpp:454] inception_4c/pool_proj <- inception_4c/pool
I0718 14:30:34.911593 33277 net.cpp:411] inception_4c/pool_proj -> inception_4c/pool_proj
I0718 14:30:34.917763 33277 net.cpp:150] Setting up inception_4c/pool_proj
I0718 14:30:34.917814 33277 net.cpp:157] Top shape: 4 64 62 62 (984064)
I0718 14:30:34.917824 33277 net.cpp:165] Memory required for data: 3477219376
I0718 14:30:34.917866 33277 layer_factory.hpp:76] Creating layer inception_4c/relu_pool_proj
I0718 14:30:34.917891 33277 net.cpp:106] Creating Layer inception_4c/relu_pool_proj
I0718 14:30:34.917903 33277 net.cpp:454] inception_4c/relu_pool_proj <- inception_4c/pool_proj
I0718 14:30:34.917915 33277 net.cpp:397] inception_4c/relu_pool_proj -> inception_4c/pool_proj (in-place)
I0718 14:30:34.919111 33277 net.cpp:150] Setting up inception_4c/relu_pool_proj
I0718 14:30:34.919136 33277 net.cpp:157] Top shape: 4 64 62 62 (984064)
I0718 14:30:34.919144 33277 net.cpp:165] Memory required for data: 3481155632
I0718 14:30:34.919153 33277 layer_factory.hpp:76] Creating layer inception_4c/output
I0718 14:30:34.919169 33277 net.cpp:106] Creating Layer inception_4c/output
I0718 14:30:34.919180 33277 net.cpp:454] inception_4c/output <- inception_4c/1x1
I0718 14:30:34.919191 33277 net.cpp:454] inception_4c/output <- inception_4c/3x3
I0718 14:30:34.919201 33277 net.cpp:454] inception_4c/output <- inception_4c/5x5
I0718 14:30:34.919210 33277 net.cpp:454] inception_4c/output <- inception_4c/pool_proj
I0718 14:30:34.919221 33277 net.cpp:411] inception_4c/output -> inception_4c/output
I0718 14:30:34.919281 33277 net.cpp:150] Setting up inception_4c/output
I0718 14:30:34.919296 33277 net.cpp:157] Top shape: 4 512 62 62 (7872512)
I0718 14:30:34.919302 33277 net.cpp:165] Memory required for data: 3512645680
I0718 14:30:34.919313 33277 layer_factory.hpp:76] Creating layer inception_4c/output_inception_4c/output_0_split
I0718 14:30:34.919328 33277 net.cpp:106] Creating Layer inception_4c/output_inception_4c/output_0_split
I0718 14:30:34.919338 33277 net.cpp:454] inception_4c/output_inception_4c/output_0_split <- inception_4c/output
I0718 14:30:34.919353 33277 net.cpp:411] inception_4c/output_inception_4c/output_0_split -> inception_4c/output_inception_4c/output_0_split_0
I0718 14:30:34.919373 33277 net.cpp:411] inception_4c/output_inception_4c/output_0_split -> inception_4c/output_inception_4c/output_0_split_1
I0718 14:30:34.919385 33277 net.cpp:411] inception_4c/output_inception_4c/output_0_split -> inception_4c/output_inception_4c/output_0_split_2
I0718 14:30:34.919396 33277 net.cpp:411] inception_4c/output_inception_4c/output_0_split -> inception_4c/output_inception_4c/output_0_split_3
I0718 14:30:34.919489 33277 net.cpp:150] Setting up inception_4c/output_inception_4c/output_0_split
I0718 14:30:34.919503 33277 net.cpp:157] Top shape: 4 512 62 62 (7872512)
I0718 14:30:34.919517 33277 net.cpp:157] Top shape: 4 512 62 62 (7872512)
I0718 14:30:34.919526 33277 net.cpp:157] Top shape: 4 512 62 62 (7872512)
I0718 14:30:34.919535 33277 net.cpp:157] Top shape: 4 512 62 62 (7872512)
I0718 14:30:34.919543 33277 net.cpp:165] Memory required for data: 3638605872
I0718 14:30:34.919551 33277 layer_factory.hpp:76] Creating layer inception_4d/1x1
I0718 14:30:34.919570 33277 net.cpp:106] Creating Layer inception_4d/1x1
I0718 14:30:34.919579 33277 net.cpp:454] inception_4d/1x1 <- inception_4c/output_inception_4c/output_0_split_0
I0718 14:30:34.919592 33277 net.cpp:411] inception_4d/1x1 -> inception_4d/1x1
I0718 14:30:34.926467 33277 cudnn_conv_layer.cpp:194] Reallocating workspace storage: 6144
I0718 14:30:34.926538 33277 net.cpp:150] Setting up inception_4d/1x1
I0718 14:30:34.926556 33277 net.cpp:157] Top shape: 4 112 62 62 (1722112)
I0718 14:30:34.926565 33277 net.cpp:165] Memory required for data: 3645494320
I0718 14:30:34.926583 33277 layer_factory.hpp:76] Creating layer inception_4d/relu_1x1
I0718 14:30:34.926602 33277 net.cpp:106] Creating Layer inception_4d/relu_1x1
I0718 14:30:34.926614 33277 net.cpp:454] inception_4d/relu_1x1 <- inception_4d/1x1
I0718 14:30:34.926642 33277 net.cpp:397] inception_4d/relu_1x1 -> inception_4d/1x1 (in-place)
I0718 14:30:34.928685 33277 net.cpp:150] Setting up inception_4d/relu_1x1
I0718 14:30:34.928717 33277 net.cpp:157] Top shape: 4 112 62 62 (1722112)
I0718 14:30:34.928726 33277 net.cpp:165] Memory required for data: 3652382768
I0718 14:30:34.928737 33277 layer_factory.hpp:76] Creating layer inception_4d/3x3_reduce
I0718 14:30:34.928761 33277 net.cpp:106] Creating Layer inception_4d/3x3_reduce
I0718 14:30:34.928773 33277 net.cpp:454] inception_4d/3x3_reduce <- inception_4c/output_inception_4c/output_0_split_1
I0718 14:30:34.928786 33277 net.cpp:411] inception_4d/3x3_reduce -> inception_4d/3x3_reduce
I0718 14:30:34.936075 33277 cudnn_conv_layer.cpp:194] Reallocating workspace storage: 6144
I0718 14:30:34.936151 33277 net.cpp:150] Setting up inception_4d/3x3_reduce
I0718 14:30:34.936169 33277 net.cpp:157] Top shape: 4 144 62 62 (2214144)
I0718 14:30:34.936179 33277 net.cpp:165] Memory required for data: 3661239344
I0718 14:30:34.936198 33277 layer_factory.hpp:76] Creating layer inception_4d/relu_3x3_reduce
I0718 14:30:34.936216 33277 net.cpp:106] Creating Layer inception_4d/relu_3x3_reduce
I0718 14:30:34.936228 33277 net.cpp:454] inception_4d/relu_3x3_reduce <- inception_4d/3x3_reduce
I0718 14:30:34.936242 33277 net.cpp:397] inception_4d/relu_3x3_reduce -> inception_4d/3x3_reduce (in-place)
I0718 14:30:34.938274 33277 net.cpp:150] Setting up inception_4d/relu_3x3_reduce
I0718 14:30:34.938295 33277 net.cpp:157] Top shape: 4 144 62 62 (2214144)
I0718 14:30:34.938304 33277 net.cpp:165] Memory required for data: 3670095920
I0718 14:30:34.938313 33277 layer_factory.hpp:76] Creating layer inception_4d/3x3
I0718 14:30:34.938336 33277 net.cpp:106] Creating Layer inception_4d/3x3
I0718 14:30:34.938347 33277 net.cpp:454] inception_4d/3x3 <- inception_4d/3x3_reduce
I0718 14:30:34.938361 33277 net.cpp:411] inception_4d/3x3 -> inception_4d/3x3
I0718 14:30:34.947775 33277 cudnn_conv_layer.cpp:194] Reallocating workspace storage: 15552
I0718 14:30:34.947839 33277 net.cpp:150] Setting up inception_4d/3x3
I0718 14:30:34.947854 33277 net.cpp:157] Top shape: 4 288 62 62 (4428288)
I0718 14:30:34.947863 33277 net.cpp:165] Memory required for data: 3687809072
I0718 14:30:34.947878 33277 layer_factory.hpp:76] Creating layer inception_4d/relu_3x3
I0718 14:30:34.947896 33277 net.cpp:106] Creating Layer inception_4d/relu_3x3
I0718 14:30:34.947908 33277 net.cpp:454] inception_4d/relu_3x3 <- inception_4d/3x3
I0718 14:30:34.947921 33277 net.cpp:397] inception_4d/relu_3x3 -> inception_4d/3x3 (in-place)
I0718 14:30:34.950019 33277 net.cpp:150] Setting up inception_4d/relu_3x3
I0718 14:30:34.950037 33277 net.cpp:157] Top shape: 4 288 62 62 (4428288)
I0718 14:30:34.950045 33277 net.cpp:165] Memory required for data: 3705522224
I0718 14:30:34.950054 33277 layer_factory.hpp:76] Creating layer inception_4d/5x5_reduce
I0718 14:30:34.950076 33277 net.cpp:106] Creating Layer inception_4d/5x5_reduce
I0718 14:30:34.950086 33277 net.cpp:454] inception_4d/5x5_reduce <- inception_4c/output_inception_4c/output_0_split_2
I0718 14:30:34.950098 33277 net.cpp:411] inception_4d/5x5_reduce -> inception_4d/5x5_reduce
I0718 14:30:34.964741 33277 net.cpp:150] Setting up inception_4d/5x5_reduce
I0718 14:30:34.964768 33277 net.cpp:157] Top shape: 4 32 62 62 (492032)
I0718 14:30:34.964777 33277 net.cpp:165] Memory required for data: 3707490352
I0718 14:30:34.964792 33277 layer_factory.hpp:76] Creating layer inception_4d/relu_5x5_reduce
I0718 14:30:34.964808 33277 net.cpp:106] Creating Layer inception_4d/relu_5x5_reduce
I0718 14:30:34.964818 33277 net.cpp:454] inception_4d/relu_5x5_reduce <- inception_4d/5x5_reduce
I0718 14:30:34.964829 33277 net.cpp:397] inception_4d/relu_5x5_reduce -> inception_4d/5x5_reduce (in-place)
I0718 14:30:34.970736 33277 net.cpp:150] Setting up inception_4d/relu_5x5_reduce
I0718 14:30:34.970757 33277 net.cpp:157] Top shape: 4 32 62 62 (492032)
I0718 14:30:34.970765 33277 net.cpp:165] Memory required for data: 3709458480
I0718 14:30:34.970773 33277 layer_factory.hpp:76] Creating layer inception_4d/5x5
I0718 14:30:34.970790 33277 net.cpp:106] Creating Layer inception_4d/5x5
I0718 14:30:34.970826 33277 net.cpp:454] inception_4d/5x5 <- inception_4d/5x5_reduce
I0718 14:30:34.970839 33277 net.cpp:411] inception_4d/5x5 -> inception_4d/5x5
I0718 14:30:34.979725 33277 net.cpp:150] Setting up inception_4d/5x5
I0718 14:30:34.979750 33277 net.cpp:157] Top shape: 4 64 62 62 (984064)
I0718 14:30:34.979759 33277 net.cpp:165] Memory required for data: 3713394736
I0718 14:30:34.979771 33277 layer_factory.hpp:76] Creating layer inception_4d/relu_5x5
I0718 14:30:34.979784 33277 net.cpp:106] Creating Layer inception_4d/relu_5x5
I0718 14:30:34.979794 33277 net.cpp:454] inception_4d/relu_5x5 <- inception_4d/5x5
I0718 14:30:34.979807 33277 net.cpp:397] inception_4d/relu_5x5 -> inception_4d/5x5 (in-place)
I0718 14:30:34.982050 33277 net.cpp:150] Setting up inception_4d/relu_5x5
I0718 14:30:34.982069 33277 net.cpp:157] Top shape: 4 64 62 62 (984064)
I0718 14:30:34.982076 33277 net.cpp:165] Memory required for data: 3717330992
I0718 14:30:34.982085 33277 layer_factory.hpp:76] Creating layer inception_4d/pool
I0718 14:30:34.982102 33277 net.cpp:106] Creating Layer inception_4d/pool
I0718 14:30:34.982111 33277 net.cpp:454] inception_4d/pool <- inception_4c/output_inception_4c/output_0_split_3
I0718 14:30:34.982122 33277 net.cpp:411] inception_4d/pool -> inception_4d/pool
I0718 14:30:34.984607 33277 net.cpp:150] Setting up inception_4d/pool
I0718 14:30:34.984630 33277 net.cpp:157] Top shape: 4 512 62 62 (7872512)
I0718 14:30:34.984639 33277 net.cpp:165] Memory required for data: 3748821040
I0718 14:30:34.984650 33277 layer_factory.hpp:76] Creating layer inception_4d/pool_proj
I0718 14:30:34.984663 33277 net.cpp:106] Creating Layer inception_4d/pool_proj
I0718 14:30:34.984673 33277 net.cpp:454] inception_4d/pool_proj <- inception_4d/pool
I0718 14:30:34.984686 33277 net.cpp:411] inception_4d/pool_proj -> inception_4d/pool_proj
I0718 14:30:34.998196 33277 net.cpp:150] Setting up inception_4d/pool_proj
I0718 14:30:34.998260 33277 net.cpp:157] Top shape: 4 64 62 62 (984064)
I0718 14:30:34.998270 33277 net.cpp:165] Memory required for data: 3752757296
I0718 14:30:34.998288 33277 layer_factory.hpp:76] Creating layer inception_4d/relu_pool_proj
I0718 14:30:34.998313 33277 net.cpp:106] Creating Layer inception_4d/relu_pool_proj
I0718 14:30:34.998327 33277 net.cpp:454] inception_4d/relu_pool_proj <- inception_4d/pool_proj
I0718 14:30:34.998343 33277 net.cpp:397] inception_4d/relu_pool_proj -> inception_4d/pool_proj (in-place)
I0718 14:30:35.004937 33277 net.cpp:150] Setting up inception_4d/relu_pool_proj
I0718 14:30:35.005012 33277 net.cpp:157] Top shape: 4 64 62 62 (984064)
I0718 14:30:35.005023 33277 net.cpp:165] Memory required for data: 3756693552
I0718 14:30:35.005038 33277 layer_factory.hpp:76] Creating layer inception_4d/output
I0718 14:30:35.005065 33277 net.cpp:106] Creating Layer inception_4d/output
I0718 14:30:35.005079 33277 net.cpp:454] inception_4d/output <- inception_4d/1x1
I0718 14:30:35.005095 33277 net.cpp:454] inception_4d/output <- inception_4d/3x3
I0718 14:30:35.005106 33277 net.cpp:454] inception_4d/output <- inception_4d/5x5
I0718 14:30:35.005116 33277 net.cpp:454] inception_4d/output <- inception_4d/pool_proj
I0718 14:30:35.005127 33277 net.cpp:411] inception_4d/output -> inception_4d/output
I0718 14:30:35.005226 33277 net.cpp:150] Setting up inception_4d/output
I0718 14:30:35.005239 33277 net.cpp:157] Top shape: 4 528 62 62 (8118528)
I0718 14:30:35.005247 33277 net.cpp:165] Memory required for data: 3789167664
I0718 14:30:35.005256 33277 layer_factory.hpp:76] Creating layer inception_4d/output_inception_4d/output_0_split
I0718 14:30:35.005271 33277 net.cpp:106] Creating Layer inception_4d/output_inception_4d/output_0_split
I0718 14:30:35.005280 33277 net.cpp:454] inception_4d/output_inception_4d/output_0_split <- inception_4d/output
I0718 14:30:35.005293 33277 net.cpp:411] inception_4d/output_inception_4d/output_0_split -> inception_4d/output_inception_4d/output_0_split_0
I0718 14:30:35.005306 33277 net.cpp:411] inception_4d/output_inception_4d/output_0_split -> inception_4d/output_inception_4d/output_0_split_1
I0718 14:30:35.005347 33277 net.cpp:411] inception_4d/output_inception_4d/output_0_split -> inception_4d/output_inception_4d/output_0_split_2
I0718 14:30:35.005359 33277 net.cpp:411] inception_4d/output_inception_4d/output_0_split -> inception_4d/output_inception_4d/output_0_split_3
I0718 14:30:35.005451 33277 net.cpp:150] Setting up inception_4d/output_inception_4d/output_0_split
I0718 14:30:35.005463 33277 net.cpp:157] Top shape: 4 528 62 62 (8118528)
I0718 14:30:35.005472 33277 net.cpp:157] Top shape: 4 528 62 62 (8118528)
I0718 14:30:35.005481 33277 net.cpp:157] Top shape: 4 528 62 62 (8118528)
I0718 14:30:35.005491 33277 net.cpp:157] Top shape: 4 528 62 62 (8118528)
I0718 14:30:35.005498 33277 net.cpp:165] Memory required for data: 3919064112
I0718 14:30:35.005506 33277 layer_factory.hpp:76] Creating layer inception_4e/1x1
I0718 14:30:35.005545 33277 net.cpp:106] Creating Layer inception_4e/1x1
I0718 14:30:35.005554 33277 net.cpp:454] inception_4e/1x1 <- inception_4d/output_inception_4d/output_0_split_0
I0718 14:30:35.005568 33277 net.cpp:411] inception_4e/1x1 -> inception_4e/1x1
I0718 14:30:35.025876 33277 cudnn_conv_layer.cpp:194] Reallocating workspace storage: 6336
I0718 14:30:35.025974 33277 net.cpp:150] Setting up inception_4e/1x1
I0718 14:30:35.025995 33277 net.cpp:157] Top shape: 4 256 62 62 (3936256)
I0718 14:30:35.026005 33277 net.cpp:165] Memory required for data: 3934809136
I0718 14:30:35.026024 33277 layer_factory.hpp:76] Creating layer inception_4e/relu_1x1
I0718 14:30:35.026048 33277 net.cpp:106] Creating Layer inception_4e/relu_1x1
I0718 14:30:35.026062 33277 net.cpp:454] inception_4e/relu_1x1 <- inception_4e/1x1
I0718 14:30:35.026077 33277 net.cpp:397] inception_4e/relu_1x1 -> inception_4e/1x1 (in-place)
I0718 14:30:35.032613 33277 net.cpp:150] Setting up inception_4e/relu_1x1
I0718 14:30:35.032687 33277 net.cpp:157] Top shape: 4 256 62 62 (3936256)
I0718 14:30:35.032698 33277 net.cpp:165] Memory required for data: 3950554160
I0718 14:30:35.032711 33277 layer_factory.hpp:76] Creating layer inception_4e/3x3_reduce
I0718 14:30:35.032748 33277 net.cpp:106] Creating Layer inception_4e/3x3_reduce
I0718 14:30:35.032764 33277 net.cpp:454] inception_4e/3x3_reduce <- inception_4d/output_inception_4d/output_0_split_1
I0718 14:30:35.032783 33277 net.cpp:411] inception_4e/3x3_reduce -> inception_4e/3x3_reduce
I0718 14:30:35.043674 33277 net.cpp:150] Setting up inception_4e/3x3_reduce
I0718 14:30:35.043754 33277 net.cpp:157] Top shape: 4 160 62 62 (2460160)
I0718 14:30:35.043766 33277 net.cpp:165] Memory required for data: 3960394800
I0718 14:30:35.043786 33277 layer_factory.hpp:76] Creating layer inception_4e/relu_3x3_reduce
I0718 14:30:35.043810 33277 net.cpp:106] Creating Layer inception_4e/relu_3x3_reduce
I0718 14:30:35.043824 33277 net.cpp:454] inception_4e/relu_3x3_reduce <- inception_4e/3x3_reduce
I0718 14:30:35.043844 33277 net.cpp:397] inception_4e/relu_3x3_reduce -> inception_4e/3x3_reduce (in-place)
I0718 14:30:35.045882 33277 net.cpp:150] Setting up inception_4e/relu_3x3_reduce
I0718 14:30:35.045954 33277 net.cpp:157] Top shape: 4 160 62 62 (2460160)
I0718 14:30:35.045964 33277 net.cpp:165] Memory required for data: 3970235440
I0718 14:30:35.045980 33277 layer_factory.hpp:76] Creating layer inception_4e/3x3
I0718 14:30:35.046016 33277 net.cpp:106] Creating Layer inception_4e/3x3
I0718 14:30:35.046030 33277 net.cpp:454] inception_4e/3x3 <- inception_4e/3x3_reduce
I0718 14:30:35.046049 33277 net.cpp:411] inception_4e/3x3 -> inception_4e/3x3
I0718 14:30:35.055779 33277 net.cpp:150] Setting up inception_4e/3x3
I0718 14:30:35.055847 33277 net.cpp:157] Top shape: 4 320 62 62 (4920320)
I0718 14:30:35.055858 33277 net.cpp:165] Memory required for data: 3989916720
I0718 14:30:35.055879 33277 layer_factory.hpp:76] Creating layer inception_4e/relu_3x3
I0718 14:30:35.055905 33277 net.cpp:106] Creating Layer inception_4e/relu_3x3
I0718 14:30:35.055919 33277 net.cpp:454] inception_4e/relu_3x3 <- inception_4e/3x3
I0718 14:30:35.055938 33277 net.cpp:397] inception_4e/relu_3x3 -> inception_4e/3x3 (in-place)
I0718 14:30:35.058086 33277 net.cpp:150] Setting up inception_4e/relu_3x3
I0718 14:30:35.058163 33277 net.cpp:157] Top shape: 4 320 62 62 (4920320)
I0718 14:30:35.058174 33277 net.cpp:165] Memory required for data: 4009598000
I0718 14:30:35.058188 33277 layer_factory.hpp:76] Creating layer inception_4e/5x5_reduce
I0718 14:30:35.058220 33277 net.cpp:106] Creating Layer inception_4e/5x5_reduce
I0718 14:30:35.058234 33277 net.cpp:454] inception_4e/5x5_reduce <- inception_4d/output_inception_4d/output_0_split_2
I0718 14:30:35.058251 33277 net.cpp:411] inception_4e/5x5_reduce -> inception_4e/5x5_reduce
I0718 14:30:35.065676 33277 net.cpp:150] Setting up inception_4e/5x5_reduce
I0718 14:30:35.065737 33277 net.cpp:157] Top shape: 4 32 62 62 (492032)
I0718 14:30:35.065749 33277 net.cpp:165] Memory required for data: 4011566128
I0718 14:30:35.065768 33277 layer_factory.hpp:76] Creating layer inception_4e/relu_5x5_reduce
I0718 14:30:35.065790 33277 net.cpp:106] Creating Layer inception_4e/relu_5x5_reduce
I0718 14:30:35.065804 33277 net.cpp:454] inception_4e/relu_5x5_reduce <- inception_4e/5x5_reduce
I0718 14:30:35.065817 33277 net.cpp:397] inception_4e/relu_5x5_reduce -> inception_4e/5x5_reduce (in-place)
I0718 14:30:35.068008 33277 net.cpp:150] Setting up inception_4e/relu_5x5_reduce
I0718 14:30:35.068059 33277 net.cpp:157] Top shape: 4 32 62 62 (492032)
I0718 14:30:35.068070 33277 net.cpp:165] Memory required for data: 4013534256
I0718 14:30:35.068084 33277 layer_factory.hpp:76] Creating layer inception_4e/5x5
I0718 14:30:35.068115 33277 net.cpp:106] Creating Layer inception_4e/5x5
I0718 14:30:35.068128 33277 net.cpp:454] inception_4e/5x5 <- inception_4e/5x5_reduce
I0718 14:30:35.068143 33277 net.cpp:411] inception_4e/5x5 -> inception_4e/5x5
I0718 14:30:35.075127 33277 cudnn_conv_layer.cpp:194] Reallocating workspace storage: 9600
I0718 14:30:35.075253 33277 net.cpp:150] Setting up inception_4e/5x5
I0718 14:30:35.075274 33277 net.cpp:157] Top shape: 4 128 62 62 (1968128)
I0718 14:30:35.075284 33277 net.cpp:165] Memory required for data: 4021406768
I0718 14:30:35.075305 33277 layer_factory.hpp:76] Creating layer inception_4e/relu_5x5
I0718 14:30:35.075335 33277 net.cpp:106] Creating Layer inception_4e/relu_5x5
I0718 14:30:35.075351 33277 net.cpp:454] inception_4e/relu_5x5 <- inception_4e/5x5
I0718 14:30:35.075366 33277 net.cpp:397] inception_4e/relu_5x5 -> inception_4e/5x5 (in-place)
I0718 14:30:35.076859 33277 net.cpp:150] Setting up inception_4e/relu_5x5
I0718 14:30:35.076928 33277 net.cpp:157] Top shape: 4 128 62 62 (1968128)
I0718 14:30:35.076939 33277 net.cpp:165] Memory required for data: 4029279280
I0718 14:30:35.076954 33277 layer_factory.hpp:76] Creating layer inception_4e/pool
I0718 14:30:35.076983 33277 net.cpp:106] Creating Layer inception_4e/pool
I0718 14:30:35.076998 33277 net.cpp:454] inception_4e/pool <- inception_4d/output_inception_4d/output_0_split_3
I0718 14:30:35.077015 33277 net.cpp:411] inception_4e/pool -> inception_4e/pool
I0718 14:30:35.080463 33277 net.cpp:150] Setting up inception_4e/pool
I0718 14:30:35.080515 33277 net.cpp:157] Top shape: 4 528 62 62 (8118528)
I0718 14:30:35.080535 33277 net.cpp:165] Memory required for data: 4061753392
I0718 14:30:35.080548 33277 layer_factory.hpp:76] Creating layer inception_4e/pool_proj
I0718 14:30:35.080575 33277 net.cpp:106] Creating Layer inception_4e/pool_proj
I0718 14:30:35.080588 33277 net.cpp:454] inception_4e/pool_proj <- inception_4e/pool
I0718 14:30:35.080608 33277 net.cpp:411] inception_4e/pool_proj -> inception_4e/pool_proj
I0718 14:30:35.094889 33277 cudnn_conv_layer.cpp:194] Reallocating workspace storage: 6336
I0718 14:30:35.094977 33277 net.cpp:150] Setting up inception_4e/pool_proj
I0718 14:30:35.094995 33277 net.cpp:157] Top shape: 4 128 62 62 (1968128)
I0718 14:30:35.095005 33277 net.cpp:165] Memory required for data: 4069625904
I0718 14:30:35.095022 33277 layer_factory.hpp:76] Creating layer inception_4e/relu_pool_proj
I0718 14:30:35.095043 33277 net.cpp:106] Creating Layer inception_4e/relu_pool_proj
I0718 14:30:35.095057 33277 net.cpp:454] inception_4e/relu_pool_proj <- inception_4e/pool_proj
I0718 14:30:35.095096 33277 net.cpp:397] inception_4e/relu_pool_proj -> inception_4e/pool_proj (in-place)
I0718 14:30:35.098100 33277 net.cpp:150] Setting up inception_4e/relu_pool_proj
I0718 14:30:35.098162 33277 net.cpp:157] Top shape: 4 128 62 62 (1968128)
I0718 14:30:35.098172 33277 net.cpp:165] Memory required for data: 4077498416
I0718 14:30:35.098183 33277 layer_factory.hpp:76] Creating layer inception_4e/output
I0718 14:30:35.098201 33277 net.cpp:106] Creating Layer inception_4e/output
I0718 14:30:35.098212 33277 net.cpp:454] inception_4e/output <- inception_4e/1x1
I0718 14:30:35.098225 33277 net.cpp:454] inception_4e/output <- inception_4e/3x3
I0718 14:30:35.098250 33277 net.cpp:454] inception_4e/output <- inception_4e/5x5
I0718 14:30:35.098260 33277 net.cpp:454] inception_4e/output <- inception_4e/pool_proj
I0718 14:30:35.098273 33277 net.cpp:411] inception_4e/output -> inception_4e/output
I0718 14:30:35.098362 33277 net.cpp:150] Setting up inception_4e/output
I0718 14:30:35.098379 33277 net.cpp:157] Top shape: 4 832 62 62 (12792832)
I0718 14:30:35.098387 33277 net.cpp:165] Memory required for data: 4128669744
I0718 14:30:35.098397 33277 layer_factory.hpp:76] Creating layer pool4/3x3_s2
I0718 14:30:35.098413 33277 net.cpp:106] Creating Layer pool4/3x3_s2
I0718 14:30:35.098423 33277 net.cpp:454] pool4/3x3_s2 <- inception_4e/output
I0718 14:30:35.098433 33277 net.cpp:411] pool4/3x3_s2 -> pool4/3x3_s2
I0718 14:30:35.099345 33277 net.cpp:150] Setting up pool4/3x3_s2
I0718 14:30:35.099378 33277 net.cpp:157] Top shape: 4 832 31 31 (3198208)
I0718 14:30:35.099387 33277 net.cpp:165] Memory required for data: 4141462576
I0718 14:30:35.099397 33277 layer_factory.hpp:76] Creating layer pool4/3x3_s2_pool4/3x3_s2_0_split
I0718 14:30:35.099424 33277 net.cpp:106] Creating Layer pool4/3x3_s2_pool4/3x3_s2_0_split
I0718 14:30:35.099434 33277 net.cpp:454] pool4/3x3_s2_pool4/3x3_s2_0_split <- pool4/3x3_s2
I0718 14:30:35.099459 33277 net.cpp:411] pool4/3x3_s2_pool4/3x3_s2_0_split -> pool4/3x3_s2_pool4/3x3_s2_0_split_0
I0718 14:30:35.099477 33277 net.cpp:411] pool4/3x3_s2_pool4/3x3_s2_0_split -> pool4/3x3_s2_pool4/3x3_s2_0_split_1
I0718 14:30:35.099489 33277 net.cpp:411] pool4/3x3_s2_pool4/3x3_s2_0_split -> pool4/3x3_s2_pool4/3x3_s2_0_split_2
I0718 14:30:35.099500 33277 net.cpp:411] pool4/3x3_s2_pool4/3x3_s2_0_split -> pool4/3x3_s2_pool4/3x3_s2_0_split_3
I0718 14:30:35.099611 33277 net.cpp:150] Setting up pool4/3x3_s2_pool4/3x3_s2_0_split
I0718 14:30:35.099632 33277 net.cpp:157] Top shape: 4 832 31 31 (3198208)
I0718 14:30:35.099642 33277 net.cpp:157] Top shape: 4 832 31 31 (3198208)
I0718 14:30:35.099652 33277 net.cpp:157] Top shape: 4 832 31 31 (3198208)
I0718 14:30:35.099659 33277 net.cpp:157] Top shape: 4 832 31 31 (3198208)
I0718 14:30:35.099668 33277 net.cpp:165] Memory required for data: 4192633904
I0718 14:30:35.099676 33277 layer_factory.hpp:76] Creating layer inception_5a/1x1
I0718 14:30:35.099697 33277 net.cpp:106] Creating Layer inception_5a/1x1
I0718 14:30:35.099707 33277 net.cpp:454] inception_5a/1x1 <- pool4/3x3_s2_pool4/3x3_s2_0_split_0
I0718 14:30:35.099721 33277 net.cpp:411] inception_5a/1x1 -> inception_5a/1x1
I0718 14:30:35.105743 33277 cudnn_conv_layer.cpp:194] Reallocating workspace storage: 9984
I0718 14:30:35.105823 33277 net.cpp:150] Setting up inception_5a/1x1
I0718 14:30:35.105841 33277 net.cpp:157] Top shape: 4 256 31 31 (984064)
I0718 14:30:35.105850 33277 net.cpp:165] Memory required for data: 4196570160
I0718 14:30:35.105867 33277 layer_factory.hpp:76] Creating layer inception_5a/relu_1x1
I0718 14:30:35.105901 33277 net.cpp:106] Creating Layer inception_5a/relu_1x1
I0718 14:30:35.105913 33277 net.cpp:454] inception_5a/relu_1x1 <- inception_5a/1x1
I0718 14:30:35.105926 33277 net.cpp:397] inception_5a/relu_1x1 -> inception_5a/1x1 (in-place)
I0718 14:30:35.108007 33277 net.cpp:150] Setting up inception_5a/relu_1x1
I0718 14:30:35.108055 33277 net.cpp:157] Top shape: 4 256 31 31 (984064)
I0718 14:30:35.108065 33277 net.cpp:165] Memory required for data: 4200506416
I0718 14:30:35.108108 33277 layer_factory.hpp:76] Creating layer inception_5a/3x3_reduce
I0718 14:30:35.108146 33277 net.cpp:106] Creating Layer inception_5a/3x3_reduce
I0718 14:30:35.108160 33277 net.cpp:454] inception_5a/3x3_reduce <- pool4/3x3_s2_pool4/3x3_s2_0_split_1
I0718 14:30:35.108178 33277 net.cpp:411] inception_5a/3x3_reduce -> inception_5a/3x3_reduce
I0718 14:30:35.115486 33277 cudnn_conv_layer.cpp:194] Reallocating workspace storage: 9984
I0718 14:30:35.115571 33277 net.cpp:150] Setting up inception_5a/3x3_reduce
I0718 14:30:35.115588 33277 net.cpp:157] Top shape: 4 160 31 31 (615040)
I0718 14:30:35.115598 33277 net.cpp:165] Memory required for data: 4202966576
I0718 14:30:35.115617 33277 layer_factory.hpp:76] Creating layer inception_5a/relu_3x3_reduce
I0718 14:30:35.115636 33277 net.cpp:106] Creating Layer inception_5a/relu_3x3_reduce
I0718 14:30:35.115649 33277 net.cpp:454] inception_5a/relu_3x3_reduce <- inception_5a/3x3_reduce
I0718 14:30:35.115664 33277 net.cpp:397] inception_5a/relu_3x3_reduce -> inception_5a/3x3_reduce (in-place)
I0718 14:30:35.117633 33277 net.cpp:150] Setting up inception_5a/relu_3x3_reduce
I0718 14:30:35.117676 33277 net.cpp:157] Top shape: 4 160 31 31 (615040)
I0718 14:30:35.117686 33277 net.cpp:165] Memory required for data: 4205426736
I0718 14:30:35.117697 33277 layer_factory.hpp:76] Creating layer inception_5a/3x3
I0718 14:30:35.117723 33277 net.cpp:106] Creating Layer inception_5a/3x3
I0718 14:30:35.117735 33277 net.cpp:454] inception_5a/3x3 <- inception_5a/3x3_reduce
I0718 14:30:35.117753 33277 net.cpp:411] inception_5a/3x3 -> inception_5a/3x3
I0718 14:30:35.127076 33277 net.cpp:150] Setting up inception_5a/3x3
I0718 14:30:35.127130 33277 net.cpp:157] Top shape: 4 320 31 31 (1230080)
I0718 14:30:35.127140 33277 net.cpp:165] Memory required for data: 4210347056
I0718 14:30:35.127156 33277 layer_factory.hpp:76] Creating layer inception_5a/relu_3x3
I0718 14:30:35.127174 33277 net.cpp:106] Creating Layer inception_5a/relu_3x3
I0718 14:30:35.127185 33277 net.cpp:454] inception_5a/relu_3x3 <- inception_5a/3x3
I0718 14:30:35.127200 33277 net.cpp:397] inception_5a/relu_3x3 -> inception_5a/3x3 (in-place)
I0718 14:30:35.129314 33277 net.cpp:150] Setting up inception_5a/relu_3x3
I0718 14:30:35.129341 33277 net.cpp:157] Top shape: 4 320 31 31 (1230080)
I0718 14:30:35.129349 33277 net.cpp:165] Memory required for data: 4215267376
I0718 14:30:35.129359 33277 layer_factory.hpp:76] Creating layer inception_5a/5x5_reduce
I0718 14:30:35.129379 33277 net.cpp:106] Creating Layer inception_5a/5x5_reduce
I0718 14:30:35.129390 33277 net.cpp:454] inception_5a/5x5_reduce <- pool4/3x3_s2_pool4/3x3_s2_0_split_2
I0718 14:30:35.129416 33277 net.cpp:411] inception_5a/5x5_reduce -> inception_5a/5x5_reduce
I0718 14:30:35.136798 33277 cudnn_conv_layer.cpp:194] Reallocating workspace storage: 9984
I0718 14:30:35.136886 33277 net.cpp:150] Setting up inception_5a/5x5_reduce
I0718 14:30:35.136917 33277 net.cpp:157] Top shape: 4 32 31 31 (123008)
I0718 14:30:35.136926 33277 net.cpp:165] Memory required for data: 4215759408
I0718 14:30:35.136943 33277 layer_factory.hpp:76] Creating layer inception_5a/relu_5x5_reduce
I0718 14:30:35.136966 33277 net.cpp:106] Creating Layer inception_5a/relu_5x5_reduce
I0718 14:30:35.136979 33277 net.cpp:454] inception_5a/relu_5x5_reduce <- inception_5a/5x5_reduce
I0718 14:30:35.136993 33277 net.cpp:397] inception_5a/relu_5x5_reduce -> inception_5a/5x5_reduce (in-place)
I0718 14:30:35.138994 33277 net.cpp:150] Setting up inception_5a/relu_5x5_reduce
I0718 14:30:35.139017 33277 net.cpp:157] Top shape: 4 32 31 31 (123008)
I0718 14:30:35.139025 33277 net.cpp:165] Memory required for data: 4216251440
I0718 14:30:35.139034 33277 layer_factory.hpp:76] Creating layer inception_5a/5x5
I0718 14:30:35.139082 33277 net.cpp:106] Creating Layer inception_5a/5x5
I0718 14:30:35.139107 33277 net.cpp:454] inception_5a/5x5 <- inception_5a/5x5_reduce
I0718 14:30:35.139123 33277 net.cpp:411] inception_5a/5x5 -> inception_5a/5x5
I0718 14:30:35.146592 33277 cudnn_conv_layer.cpp:194] Reallocating workspace storage: 9600
I0718 14:30:35.146723 33277 net.cpp:150] Setting up inception_5a/5x5
I0718 14:30:35.146759 33277 net.cpp:157] Top shape: 4 128 31 31 (492032)
I0718 14:30:35.146770 33277 net.cpp:165] Memory required for data: 4218219568
I0718 14:30:35.146787 33277 layer_factory.hpp:76] Creating layer inception_5a/relu_5x5
I0718 14:30:35.146808 33277 net.cpp:106] Creating Layer inception_5a/relu_5x5
I0718 14:30:35.146821 33277 net.cpp:454] inception_5a/relu_5x5 <- inception_5a/5x5
I0718 14:30:35.146834 33277 net.cpp:397] inception_5a/relu_5x5 -> inception_5a/5x5 (in-place)
I0718 14:30:35.148994 33277 net.cpp:150] Setting up inception_5a/relu_5x5
I0718 14:30:35.149016 33277 net.cpp:157] Top shape: 4 128 31 31 (492032)
I0718 14:30:35.149025 33277 net.cpp:165] Memory required for data: 4220187696
I0718 14:30:35.149034 33277 layer_factory.hpp:76] Creating layer inception_5a/pool
I0718 14:30:35.149047 33277 net.cpp:106] Creating Layer inception_5a/pool
I0718 14:30:35.149060 33277 net.cpp:454] inception_5a/pool <- pool4/3x3_s2_pool4/3x3_s2_0_split_3
I0718 14:30:35.149085 33277 net.cpp:411] inception_5a/pool -> inception_5a/pool
I0718 14:30:35.151585 33277 net.cpp:150] Setting up inception_5a/pool
I0718 14:30:35.151604 33277 net.cpp:157] Top shape: 4 832 31 31 (3198208)
I0718 14:30:35.151612 33277 net.cpp:165] Memory required for data: 4232980528
I0718 14:30:35.151623 33277 layer_factory.hpp:76] Creating layer inception_5a/pool_proj
I0718 14:30:35.151643 33277 net.cpp:106] Creating Layer inception_5a/pool_proj
I0718 14:30:35.151654 33277 net.cpp:454] inception_5a/pool_proj <- inception_5a/pool
I0718 14:30:35.151684 33277 net.cpp:411] inception_5a/pool_proj -> inception_5a/pool_proj
I0718 14:30:35.159261 33277 cudnn_conv_layer.cpp:194] Reallocating workspace storage: 9984
I0718 14:30:35.159337 33277 net.cpp:150] Setting up inception_5a/pool_proj
I0718 14:30:35.159353 33277 net.cpp:157] Top shape: 4 128 31 31 (492032)
I0718 14:30:35.159361 33277 net.cpp:165] Memory required for data: 4234948656
I0718 14:30:35.159375 33277 layer_factory.hpp:76] Creating layer inception_5a/relu_pool_proj
I0718 14:30:35.159394 33277 net.cpp:106] Creating Layer inception_5a/relu_pool_proj
I0718 14:30:35.159404 33277 net.cpp:454] inception_5a/relu_pool_proj <- inception_5a/pool_proj
I0718 14:30:35.159415 33277 net.cpp:397] inception_5a/relu_pool_proj -> inception_5a/pool_proj (in-place)
I0718 14:30:35.161731 33277 net.cpp:150] Setting up inception_5a/relu_pool_proj
I0718 14:30:35.161752 33277 net.cpp:157] Top shape: 4 128 31 31 (492032)
I0718 14:30:35.161761 33277 net.cpp:165] Memory required for data: 4236916784
I0718 14:30:35.161769 33277 layer_factory.hpp:76] Creating layer inception_5a/output
I0718 14:30:35.161784 33277 net.cpp:106] Creating Layer inception_5a/output
I0718 14:30:35.161793 33277 net.cpp:454] inception_5a/output <- inception_5a/1x1
I0718 14:30:35.161803 33277 net.cpp:454] inception_5a/output <- inception_5a/3x3
I0718 14:30:35.161813 33277 net.cpp:454] inception_5a/output <- inception_5a/5x5
I0718 14:30:35.161823 33277 net.cpp:454] inception_5a/output <- inception_5a/pool_proj
I0718 14:30:35.161834 33277 net.cpp:411] inception_5a/output -> inception_5a/output
I0718 14:30:35.161881 33277 net.cpp:150] Setting up inception_5a/output
I0718 14:30:35.161895 33277 net.cpp:157] Top shape: 4 832 31 31 (3198208)
I0718 14:30:35.161903 33277 net.cpp:165] Memory required for data: 4249709616
I0718 14:30:35.161914 33277 layer_factory.hpp:76] Creating layer inception_5a/output_inception_5a/output_0_split
I0718 14:30:35.161927 33277 net.cpp:106] Creating Layer inception_5a/output_inception_5a/output_0_split
I0718 14:30:35.161936 33277 net.cpp:454] inception_5a/output_inception_5a/output_0_split <- inception_5a/output
I0718 14:30:35.161952 33277 net.cpp:411] inception_5a/output_inception_5a/output_0_split -> inception_5a/output_inception_5a/output_0_split_0
I0718 14:30:35.161965 33277 net.cpp:411] inception_5a/output_inception_5a/output_0_split -> inception_5a/output_inception_5a/output_0_split_1
I0718 14:30:35.161978 33277 net.cpp:411] inception_5a/output_inception_5a/output_0_split -> inception_5a/output_inception_5a/output_0_split_2
I0718 14:30:35.162009 33277 net.cpp:411] inception_5a/output_inception_5a/output_0_split -> inception_5a/output_inception_5a/output_0_split_3
I0718 14:30:35.162106 33277 net.cpp:150] Setting up inception_5a/output_inception_5a/output_0_split
I0718 14:30:35.162122 33277 net.cpp:157] Top shape: 4 832 31 31 (3198208)
I0718 14:30:35.162132 33277 net.cpp:157] Top shape: 4 832 31 31 (3198208)
I0718 14:30:35.162139 33277 net.cpp:157] Top shape: 4 832 31 31 (3198208)
I0718 14:30:35.162148 33277 net.cpp:157] Top shape: 4 832 31 31 (3198208)
I0718 14:30:35.162155 33277 net.cpp:165] Memory required for data: 4300880944
I0718 14:30:35.162165 33277 layer_factory.hpp:76] Creating layer inception_5b/1x1
I0718 14:30:35.162178 33277 net.cpp:106] Creating Layer inception_5b/1x1
I0718 14:30:35.162186 33277 net.cpp:454] inception_5b/1x1 <- inception_5a/output_inception_5a/output_0_split_0
I0718 14:30:35.162199 33277 net.cpp:411] inception_5b/1x1 -> inception_5b/1x1
I0718 14:30:35.201555 33277 cudnn_conv_layer.cpp:194] Reallocating workspace storage: 9984
I0718 14:30:35.201632 33277 net.cpp:150] Setting up inception_5b/1x1
I0718 14:30:35.201648 33277 net.cpp:157] Top shape: 4 384 31 31 (1476096)
I0718 14:30:35.201658 33277 net.cpp:165] Memory required for data: 4306785328
I0718 14:30:35.201673 33277 layer_factory.hpp:76] Creating layer inception_5b/relu_1x1
I0718 14:30:35.201692 33277 net.cpp:106] Creating Layer inception_5b/relu_1x1
I0718 14:30:35.201705 33277 net.cpp:454] inception_5b/relu_1x1 <- inception_5b/1x1
I0718 14:30:35.201720 33277 net.cpp:397] inception_5b/relu_1x1 -> inception_5b/1x1 (in-place)
I0718 14:30:35.202664 33277 net.cpp:150] Setting up inception_5b/relu_1x1
I0718 14:30:35.202685 33277 net.cpp:157] Top shape: 4 384 31 31 (1476096)
I0718 14:30:35.202693 33277 net.cpp:165] Memory required for data: 4312689712
I0718 14:30:35.202702 33277 layer_factory.hpp:76] Creating layer inception_5b/3x3_reduce
I0718 14:30:35.202723 33277 net.cpp:106] Creating Layer inception_5b/3x3_reduce
I0718 14:30:35.202733 33277 net.cpp:454] inception_5b/3x3_reduce <- inception_5a/output_inception_5a/output_0_split_1
I0718 14:30:35.202746 33277 net.cpp:411] inception_5b/3x3_reduce -> inception_5b/3x3_reduce
I0718 14:30:35.209669 33277 cudnn_conv_layer.cpp:194] Reallocating workspace storage: 9984
I0718 14:30:35.209718 33277 net.cpp:150] Setting up inception_5b/3x3_reduce
I0718 14:30:35.209740 33277 net.cpp:157] Top shape: 4 192 31 31 (738048)
I0718 14:30:35.209749 33277 net.cpp:165] Memory required for data: 4315641904
I0718 14:30:35.209763 33277 layer_factory.hpp:76] Creating layer inception_5b/relu_3x3_reduce
I0718 14:30:35.209776 33277 net.cpp:106] Creating Layer inception_5b/relu_3x3_reduce
I0718 14:30:35.209786 33277 net.cpp:454] inception_5b/relu_3x3_reduce <- inception_5b/3x3_reduce
I0718 14:30:35.209800 33277 net.cpp:397] inception_5b/relu_3x3_reduce -> inception_5b/3x3_reduce (in-place)
I0718 14:30:35.210808 33277 net.cpp:150] Setting up inception_5b/relu_3x3_reduce
I0718 14:30:35.210829 33277 net.cpp:157] Top shape: 4 192 31 31 (738048)
I0718 14:30:35.210836 33277 net.cpp:165] Memory required for data: 4318594096
I0718 14:30:35.210845 33277 layer_factory.hpp:76] Creating layer inception_5b/3x3
I0718 14:30:35.210862 33277 net.cpp:106] Creating Layer inception_5b/3x3
I0718 14:30:35.210871 33277 net.cpp:454] inception_5b/3x3 <- inception_5b/3x3_reduce
I0718 14:30:35.210885 33277 net.cpp:411] inception_5b/3x3 -> inception_5b/3x3
I0718 14:30:35.220571 33277 net.cpp:150] Setting up inception_5b/3x3
I0718 14:30:35.220600 33277 net.cpp:157] Top shape: 4 384 31 31 (1476096)
I0718 14:30:35.220609 33277 net.cpp:165] Memory required for data: 4324498480
I0718 14:30:35.220621 33277 layer_factory.hpp:76] Creating layer inception_5b/relu_3x3
I0718 14:30:35.220634 33277 net.cpp:106] Creating Layer inception_5b/relu_3x3
I0718 14:30:35.220643 33277 net.cpp:454] inception_5b/relu_3x3 <- inception_5b/3x3
I0718 14:30:35.220657 33277 net.cpp:397] inception_5b/relu_3x3 -> inception_5b/3x3 (in-place)
I0718 14:30:35.221706 33277 net.cpp:150] Setting up inception_5b/relu_3x3
I0718 14:30:35.221727 33277 net.cpp:157] Top shape: 4 384 31 31 (1476096)
I0718 14:30:35.221735 33277 net.cpp:165] Memory required for data: 4330402864
I0718 14:30:35.221745 33277 layer_factory.hpp:76] Creating layer inception_5b/5x5_reduce
I0718 14:30:35.221763 33277 net.cpp:106] Creating Layer inception_5b/5x5_reduce
I0718 14:30:35.221774 33277 net.cpp:454] inception_5b/5x5_reduce <- inception_5a/output_inception_5a/output_0_split_2
I0718 14:30:35.221799 33277 net.cpp:411] inception_5b/5x5_reduce -> inception_5b/5x5_reduce
I0718 14:30:35.225899 33277 net.cpp:150] Setting up inception_5b/5x5_reduce
I0718 14:30:35.225920 33277 net.cpp:157] Top shape: 4 48 31 31 (184512)
I0718 14:30:35.225929 33277 net.cpp:165] Memory required for data: 4331140912
I0718 14:30:35.225944 33277 layer_factory.hpp:76] Creating layer inception_5b/relu_5x5_reduce
I0718 14:30:35.225956 33277 net.cpp:106] Creating Layer inception_5b/relu_5x5_reduce
I0718 14:30:35.225965 33277 net.cpp:454] inception_5b/relu_5x5_reduce <- inception_5b/5x5_reduce
I0718 14:30:35.225978 33277 net.cpp:397] inception_5b/relu_5x5_reduce -> inception_5b/5x5_reduce (in-place)
I0718 14:30:35.227241 33277 net.cpp:150] Setting up inception_5b/relu_5x5_reduce
I0718 14:30:35.227260 33277 net.cpp:157] Top shape: 4 48 31 31 (184512)
I0718 14:30:35.227268 33277 net.cpp:165] Memory required for data: 4331878960
I0718 14:30:35.227278 33277 layer_factory.hpp:76] Creating layer inception_5b/5x5
I0718 14:30:35.227293 33277 net.cpp:106] Creating Layer inception_5b/5x5
I0718 14:30:35.227303 33277 net.cpp:454] inception_5b/5x5 <- inception_5b/5x5_reduce
I0718 14:30:35.227315 33277 net.cpp:411] inception_5b/5x5 -> inception_5b/5x5
I0718 14:30:35.231819 33277 net.cpp:150] Setting up inception_5b/5x5
I0718 14:30:35.231842 33277 net.cpp:157] Top shape: 4 128 31 31 (492032)
I0718 14:30:35.231849 33277 net.cpp:165] Memory required for data: 4333847088
I0718 14:30:35.231861 33277 layer_factory.hpp:76] Creating layer inception_5b/relu_5x5
I0718 14:30:35.231878 33277 net.cpp:106] Creating Layer inception_5b/relu_5x5
I0718 14:30:35.231886 33277 net.cpp:454] inception_5b/relu_5x5 <- inception_5b/5x5
I0718 14:30:35.231896 33277 net.cpp:397] inception_5b/relu_5x5 -> inception_5b/5x5 (in-place)
I0718 14:30:35.232991 33277 net.cpp:150] Setting up inception_5b/relu_5x5
I0718 14:30:35.233009 33277 net.cpp:157] Top shape: 4 128 31 31 (492032)
I0718 14:30:35.233017 33277 net.cpp:165] Memory required for data: 4335815216
I0718 14:30:35.233026 33277 layer_factory.hpp:76] Creating layer inception_5b/pool
I0718 14:30:35.233039 33277 net.cpp:106] Creating Layer inception_5b/pool
I0718 14:30:35.233048 33277 net.cpp:454] inception_5b/pool <- inception_5a/output_inception_5a/output_0_split_3
I0718 14:30:35.233060 33277 net.cpp:411] inception_5b/pool -> inception_5b/pool
I0718 14:30:35.234649 33277 net.cpp:150] Setting up inception_5b/pool
I0718 14:30:35.234669 33277 net.cpp:157] Top shape: 4 832 31 31 (3198208)
I0718 14:30:35.234678 33277 net.cpp:165] Memory required for data: 4348608048
I0718 14:30:35.234686 33277 layer_factory.hpp:76] Creating layer inception_5b/pool_proj
I0718 14:30:35.234702 33277 net.cpp:106] Creating Layer inception_5b/pool_proj
I0718 14:30:35.234711 33277 net.cpp:454] inception_5b/pool_proj <- inception_5b/pool
I0718 14:30:35.234722 33277 net.cpp:411] inception_5b/pool_proj -> inception_5b/pool_proj
I0718 14:30:35.238530 33277 cudnn_conv_layer.cpp:194] Reallocating workspace storage: 9984
I0718 14:30:35.238579 33277 net.cpp:150] Setting up inception_5b/pool_proj
I0718 14:30:35.238607 33277 net.cpp:157] Top shape: 4 128 31 31 (492032)
I0718 14:30:35.238616 33277 net.cpp:165] Memory required for data: 4350576176
I0718 14:30:35.238634 33277 layer_factory.hpp:76] Creating layer inception_5b/relu_pool_proj
I0718 14:30:35.238652 33277 net.cpp:106] Creating Layer inception_5b/relu_pool_proj
I0718 14:30:35.238662 33277 net.cpp:454] inception_5b/relu_pool_proj <- inception_5b/pool_proj
I0718 14:30:35.238692 33277 net.cpp:397] inception_5b/relu_pool_proj -> inception_5b/pool_proj (in-place)
I0718 14:30:35.239663 33277 net.cpp:150] Setting up inception_5b/relu_pool_proj
I0718 14:30:35.239681 33277 net.cpp:157] Top shape: 4 128 31 31 (492032)
I0718 14:30:35.239689 33277 net.cpp:165] Memory required for data: 4352544304
I0718 14:30:35.239699 33277 layer_factory.hpp:76] Creating layer inception_5b/output
I0718 14:30:35.239711 33277 net.cpp:106] Creating Layer inception_5b/output
I0718 14:30:35.239719 33277 net.cpp:454] inception_5b/output <- inception_5b/1x1
I0718 14:30:35.239728 33277 net.cpp:454] inception_5b/output <- inception_5b/3x3
I0718 14:30:35.239750 33277 net.cpp:454] inception_5b/output <- inception_5b/5x5
I0718 14:30:35.239766 33277 net.cpp:454] inception_5b/output <- inception_5b/pool_proj
I0718 14:30:35.239776 33277 net.cpp:411] inception_5b/output -> inception_5b/output
I0718 14:30:35.239826 33277 net.cpp:150] Setting up inception_5b/output
I0718 14:30:35.239840 33277 net.cpp:157] Top shape: 4 1024 31 31 (3936256)
I0718 14:30:35.239847 33277 net.cpp:165] Memory required for data: 4368289328
I0718 14:30:35.239856 33277 layer_factory.hpp:76] Creating layer pool5/7x7_s1
I0718 14:30:35.239882 33277 net.cpp:106] Creating Layer pool5/7x7_s1
I0718 14:30:35.239903 33277 net.cpp:454] pool5/7x7_s1 <- inception_5b/output
I0718 14:30:35.239917 33277 net.cpp:411] pool5/7x7_s1 -> pool5/7x7_s1
I0718 14:30:35.481324 33277 cudnn_conv_layer.cpp:194] Reallocating workspace storage: 602112
I0718 14:30:35.481632 33277 net.cpp:150] Setting up pool5/7x7_s1
I0718 14:30:35.481659 33277 net.cpp:157] Top shape: 4 512 25 25 (1280000)
I0718 14:30:35.481669 33277 net.cpp:165] Memory required for data: 4373409328
I0718 14:30:35.481685 33277 layer_factory.hpp:76] Creating layer conv61
I0718 14:30:35.481712 33277 net.cpp:106] Creating Layer conv61
I0718 14:30:35.481725 33277 net.cpp:454] conv61 <- pool5/7x7_s1
I0718 14:30:35.481745 33277 net.cpp:411] conv61 -> conv61
I0718 14:30:35.488560 33277 cudnn_conv_layer.cpp:194] Reallocating workspace storage: 55296
I0718 14:30:35.488600 33277 net.cpp:150] Setting up conv61
I0718 14:30:35.488615 33277 net.cpp:157] Top shape: 4 64 25 25 (160000)
I0718 14:30:35.488626 33277 net.cpp:165] Memory required for data: 4374049328
I0718 14:30:35.488639 33277 layer_factory.hpp:76] Creating layer relu61
I0718 14:30:35.488661 33277 net.cpp:106] Creating Layer relu61
I0718 14:30:35.488670 33277 net.cpp:454] relu61 <- conv61
I0718 14:30:35.488682 33277 net.cpp:397] relu61 -> conv61 (in-place)
I0718 14:30:35.489864 33277 net.cpp:150] Setting up relu61
I0718 14:30:35.489883 33277 net.cpp:157] Top shape: 4 64 25 25 (160000)
I0718 14:30:35.489893 33277 net.cpp:165] Memory required for data: 4374689328
I0718 14:30:35.489903 33277 layer_factory.hpp:76] Creating layer pool5
I0718 14:30:35.489918 33277 net.cpp:106] Creating Layer pool5
I0718 14:30:35.489930 33277 net.cpp:454] pool5 <- conv61
I0718 14:30:35.489945 33277 net.cpp:411] pool5 -> pool5
I0718 14:30:35.491049 33277 net.cpp:150] Setting up pool5
I0718 14:30:35.491070 33277 net.cpp:157] Top shape: 4 64 13 13 (43264)
I0718 14:30:35.491086 33277 net.cpp:165] Memory required for data: 4374862384
I0718 14:30:35.491096 33277 layer_factory.hpp:76] Creating layer conv62
I0718 14:30:35.491113 33277 net.cpp:106] Creating Layer conv62
I0718 14:30:35.491123 33277 net.cpp:454] conv62 <- pool5
I0718 14:30:35.491135 33277 net.cpp:411] conv62 -> conv62
I0718 14:30:35.494668 33277 net.cpp:150] Setting up conv62
I0718 14:30:35.494693 33277 net.cpp:157] Top shape: 4 64 13 13 (43264)
I0718 14:30:35.494702 33277 net.cpp:165] Memory required for data: 4375035440
I0718 14:30:35.494715 33277 layer_factory.hpp:76] Creating layer relu62
I0718 14:30:35.494727 33277 net.cpp:106] Creating Layer relu62
I0718 14:30:35.494736 33277 net.cpp:454] relu62 <- conv62
I0718 14:30:35.494747 33277 net.cpp:397] relu62 -> conv62 (in-place)
I0718 14:30:35.497580 33277 net.cpp:150] Setting up relu62
I0718 14:30:35.497601 33277 net.cpp:157] Top shape: 4 64 13 13 (43264)
I0718 14:30:35.497644 33277 net.cpp:165] Memory required for data: 4375208496
I0718 14:30:35.497654 33277 layer_factory.hpp:76] Creating layer pool6
I0718 14:30:35.497669 33277 net.cpp:106] Creating Layer pool6
I0718 14:30:35.497678 33277 net.cpp:454] pool6 <- conv62
I0718 14:30:35.497690 33277 net.cpp:411] pool6 -> pool6
I0718 14:30:35.498900 33277 net.cpp:150] Setting up pool6
I0718 14:30:35.498927 33277 net.cpp:157] Top shape: 4 64 7 7 (12544)
I0718 14:30:35.498937 33277 net.cpp:165] Memory required for data: 4375258672
I0718 14:30:35.498946 33277 layer_factory.hpp:76] Creating layer conv82
I0718 14:30:35.498962 33277 net.cpp:106] Creating Layer conv82
I0718 14:30:35.498971 33277 net.cpp:454] conv82 <- pool6
I0718 14:30:35.498985 33277 net.cpp:411] conv82 -> conv82
I0718 14:30:35.506929 33277 cudnn_conv_layer.cpp:194] Reallocating workspace storage: 6912
I0718 14:30:35.507020 33277 net.cpp:150] Setting up conv82
I0718 14:30:35.507037 33277 net.cpp:157] Top shape: 4 128 7 7 (25088)
I0718 14:30:35.507047 33277 net.cpp:165] Memory required for data: 4375359024
I0718 14:30:35.507066 33277 layer_factory.hpp:76] Creating layer relu82
I0718 14:30:35.507083 33277 net.cpp:106] Creating Layer relu82
I0718 14:30:35.507096 33277 net.cpp:454] relu82 <- conv82
I0718 14:30:35.507109 33277 net.cpp:397] relu82 -> conv82 (in-place)
I0718 14:30:35.508350 33277 net.cpp:150] Setting up relu82
I0718 14:30:35.508373 33277 net.cpp:157] Top shape: 4 128 7 7 (25088)
I0718 14:30:35.508381 33277 net.cpp:165] Memory required for data: 4375459376
I0718 14:30:35.508390 33277 layer_factory.hpp:76] Creating layer pool7
I0718 14:30:35.508404 33277 net.cpp:106] Creating Layer pool7
I0718 14:30:35.508414 33277 net.cpp:454] pool7 <- conv82
I0718 14:30:35.508427 33277 net.cpp:411] pool7 -> pool7
I0718 14:30:35.509635 33277 net.cpp:150] Setting up pool7
I0718 14:30:35.509655 33277 net.cpp:157] Top shape: 4 128 4 4 (8192)
I0718 14:30:35.509665 33277 net.cpp:165] Memory required for data: 4375492144
I0718 14:30:35.509675 33277 layer_factory.hpp:76] Creating layer drop0
I0718 14:30:35.509694 33277 net.cpp:106] Creating Layer drop0
I0718 14:30:35.509703 33277 net.cpp:454] drop0 <- pool7
I0718 14:30:35.509713 33277 net.cpp:397] drop0 -> pool7 (in-place)
I0718 14:30:35.509768 33277 net.cpp:150] Setting up drop0
I0718 14:30:35.509793 33277 net.cpp:157] Top shape: 4 128 4 4 (8192)
I0718 14:30:35.509806 33277 net.cpp:165] Memory required for data: 4375524912
I0718 14:30:35.509814 33277 layer_factory.hpp:76] Creating layer conv91
I0718 14:30:35.509837 33277 net.cpp:106] Creating Layer conv91
I0718 14:30:35.509847 33277 net.cpp:454] conv91 <- pool7
I0718 14:30:35.509862 33277 net.cpp:411] conv91 -> conv91
I0718 14:30:35.515827 33277 cudnn_conv_layer.cpp:194] Reallocating workspace storage: 6211584
I0718 14:30:35.516386 33277 net.cpp:150] Setting up conv91
I0718 14:30:35.516427 33277 net.cpp:157] Top shape: 4 3 1 1 (12)
I0718 14:30:35.516439 33277 net.cpp:165] Memory required for data: 4375524960
I0718 14:30:35.516461 33277 layer_factory.hpp:76] Creating layer conv91_conv91_0_split
I0718 14:30:35.516484 33277 net.cpp:106] Creating Layer conv91_conv91_0_split
I0718 14:30:35.516499 33277 net.cpp:454] conv91_conv91_0_split <- conv91
I0718 14:30:35.516512 33277 net.cpp:411] conv91_conv91_0_split -> conv91_conv91_0_split_0
I0718 14:30:35.516530 33277 net.cpp:411] conv91_conv91_0_split -> conv91_conv91_0_split_1
I0718 14:30:35.516659 33277 net.cpp:150] Setting up conv91_conv91_0_split
I0718 14:30:35.516674 33277 net.cpp:157] Top shape: 4 3 1 1 (12)
I0718 14:30:35.516688 33277 net.cpp:157] Top shape: 4 3 1 1 (12)
I0718 14:30:35.516696 33277 net.cpp:165] Memory required for data: 4375525056
I0718 14:30:35.516710 33277 layer_factory.hpp:76] Creating layer accuracy
I0718 14:30:35.516731 33277 net.cpp:106] Creating Layer accuracy
I0718 14:30:35.516741 33277 net.cpp:454] accuracy <- conv91_conv91_0_split_0
I0718 14:30:35.516754 33277 net.cpp:454] accuracy <- label_data_1_split_0
I0718 14:30:35.516765 33277 net.cpp:411] accuracy -> accuracy
…
