…
I0718 14:20:55.984015 31466 net.cpp:322] The NetState phase (0) differed from the phase (1) specified by a rule in layer data
I0718 14:20:55.985541 31466 net.cpp:49] Initializing net from parameters: 
name: "GoogleNet"
state {
  phase: TRAIN
}
layer {
  name: "data"
  type: "ImageData"
  top: "data"
  top: "label"
  include {
    phase: TRAIN
  }
  transform_param {
    mirror: true
    mean_value: 163
    mean_value: 116
    mean_value: 181
  }
  image_data_param {
    source: "../lists/mitosis_train.lst"
    batch_size: 6
    shuffle: true
  }
}
layer {
  name: "conv1/7x7_s2"
  type: "Convolution"
  bottom: "data"
  top: "conv1/7x7_s2"
  param {
    lr_mult: 0
    decay_mult: 1
  }
  param {
    lr_mult: 2
    decay_mult: 0
  }
  convolution_param {
    num_output: 64
    pad: 3
    kernel_size: 7
    stride: 2
    weight_filler {
      type: "xavier"
    }
    bias_filler {
      type: "constant"
      value: 0.2
    }
  }
}
layer {
  name: "conv1/relu_7x7"
  type: "ReLU"
  bottom: "conv1/7x7_s2"
  top: "conv1/7x7_s2"
}
layer {
  name: "pool1/3x3_s2"
  type: "Pooling"
  bottom: "conv1/7x7_s2"
  top: "pool1/3x3_s2"
  pooling_param {
    pool: MAX
    kernel_size: 3
    stride: 2
  }
}
layer {
  name: "pool1/norm1"
  type: "LRN"
  bottom: "pool1/3x3_s2"
  top: "pool1/norm1"
  lrn_param {
    local_size: 5
    alpha: 0.0001
    beta: 0.75
  }
}
layer {
  name: "conv2/3x3_reduce"
  type: "Convolution"
  bottom: "pool1/norm1"
  top: "conv2/3x3_reduce"
  param {
    lr_mult: 0
    decay_mult: 1
  }
  param {
    lr_mult: 2
    decay_mult: 0
  }
  convolution_param {
    num_output: 64
    kernel_size: 1
    weight_filler {
      type: "xavier"
    }
    bias_filler {
      type: "constant"
      value: 0.2
    }
  }
}
layer {
  name: "conv2/relu_3x3_reduce"
  type: "ReLU"
  bottom: "conv2/3x3_reduce"
  top: "conv2/3x3_reduce"
}
layer {
  name: "conv2/3x3"
  type: "Convolution"
  bottom: "conv2/3x3_reduce"
  top: "conv2/3x3"
  param {
    lr_mult: 0
    decay_mult: 1
  }
  param {
    lr_mult: 2
    decay_mult: 0
  }
  convolution_param {
    num_output: 192
    pad: 1
    kernel_size: 3
    weight_filler {
      type: "xavier"
    }
    bias_filler {
      type: "constant"
      value: 0.2
    }
  }
}
layer {
  name: "conv2/relu_3x3"
  type: "ReLU"
  bottom: "conv2/3x3"
  top: "conv2/3x3"
}
layer {
  name: "conv2/norm2"
  type: "LRN"
  bottom: "conv2/3x3"
  top: "conv2/norm2"
  lrn_param {
    local_size: 5
    alpha: 0.0001
    beta: 0.75
  }
}
layer {
  name: "pool2/3x3_s2"
  type: "Pooling"
  bottom: "conv2/norm2"
  top: "pool2/3x3_s2"
  pooling_param {
    pool: MAX
    kernel_size: 3
    stride: 2
  }
}
layer {
  name: "inception_3a/1x1"
  type: "Convolution"
  bottom: "pool2/3x3_s2"
  top: "inception_3a/1x1"
  param {
    lr_mult: 0
    decay_mult: 1
  }
  param {
    lr_mult: 2
    decay_mult: 0
  }
  convolution_param {
    num_output: 64
    kernel_size: 1
    weight_filler {
      type: "xavier"
    }
    bias_filler {
      type: "constant"
      value: 0.2
    }
  }
}
layer {
  name: "inception_3a/relu_1x1"
  type: "ReLU"
  bottom: "inception_3a/1x1"
  top: "inception_3a/1x1"
}
layer {
  name: "inception_3a/3x3_reduce"
  type: "Convolution"
  bottom: "pool2/3x3_s2"
  top: "inception_3a/3x3_reduce"
  param {
    lr_mult: 0
    decay_mult: 1
  }
  param {
    lr_mult: 2
    decay_mult: 0
  }
  convolution_param {
    num_output: 96
    kernel_size: 1
    weight_filler {
      type: "xavier"
    }
    bias_filler {
      type: "constant"
      value: 0.2
    }
  }
}
layer {
  name: "inception_3a/relu_3x3_reduce"
  type: "ReLU"
  bottom: "inception_3a/3x3_reduce"
  top: "inception_3a/3x3_reduce"
}
layer {
  name: "inception_3a/3x3"
  type: "Convolution"
  bottom: "inception_3a/3x3_reduce"
  top: "inception_3a/3x3"
  param {
    lr_mult: 0
    decay_mult: 1
  }
  param {
    lr_mult: 2
    decay_mult: 0
  }
  convolution_param {
    num_output: 128
    pad: 1
    kernel_size: 3
    weight_filler {
      type: "xavier"
    }
    bias_filler {
      type: "constant"
      value: 0.2
    }
  }
}
layer {
  name: "inception_3a/relu_3x3"
  type: "ReLU"
  bottom: "inception_3a/3x3"
  top: "inception_3a/3x3"
}
layer {
  name: "inception_3a/5x5_reduce"
  type: "Convolution"
  bottom: "pool2/3x3_s2"
  top: "inception_3a/5x5_reduce"
  param {
    lr_mult: 0
    decay_mult: 1
  }
  param {
    lr_mult: 2
    decay_mult: 0
  }
  convolution_param {
    num_output: 16
    kernel_size: 1
    weight_filler {
      type: "xavier"
    }
    bias_filler {
      type: "constant"
      value: 0.2
    }
  }
}
layer {
  name: "inception_3a/relu_5x5_reduce"
  type: "ReLU"
  bottom: "inception_3a/5x5_reduce"
  top: "inception_3a/5x5_reduce"
}
layer {
  name: "inception_3a/5x5"
  type: "Convolution"
  bottom: "inception_3a/5x5_reduce"
  top: "inception_3a/5x5"
  param {
    lr_mult: 0
    decay_mult: 1
  }
  param {
    lr_mult: 2
    decay_mult: 0
  }
  convolution_param {
    num_output: 32
    pad: 2
    kernel_size: 5
    weight_filler {
      type: "xavier"
    }
    bias_filler {
      type: "constant"
      value: 0.2
    }
  }
}
layer {
  name: "inception_3a/relu_5x5"
  type: "ReLU"
  bottom: "inception_3a/5x5"
  top: "inception_3a/5x5"
}
layer {
  name: "inception_3a/pool"
  type: "Pooling"
  bottom: "pool2/3x3_s2"
  top: "inception_3a/pool"
  pooling_param {
    pool: MAX
    kernel_size: 3
    stride: 1
    pad: 1
  }
}
layer {
  name: "inception_3a/pool_proj"
  type: "Convolution"
  bottom: "inception_3a/pool"
  top: "inception_3a/pool_proj"
  param {
    lr_mult: 0
    decay_mult: 1
  }
  param {
    lr_mult: 2
    decay_mult: 0
  }
  convolution_param {
    num_output: 32
    kernel_size: 1
    weight_filler {
      type: "xavier"
    }
    bias_filler {
      type: "constant"
      value: 0.2
    }
  }
}
layer {
  name: "inception_3a/relu_pool_proj"
  type: "ReLU"
  bottom: "inception_3a/pool_proj"
  top: "inception_3a/pool_proj"
}
layer {
  name: "inception_3a/output"
  type: "Concat"
  bottom: "inception_3a/1x1"
  bottom: "inception_3a/3x3"
  bottom: "inception_3a/5x5"
  bottom: "inception_3a/pool_proj"
  top: "inception_3a/output"
}
layer {
  name: "inception_3b/1x1"
  type: "Convolution"
  bottom: "inception_3a/output"
  top: "inception_3b/1x1"
  param {
    lr_mult: 0
    decay_mult: 1
  }
  param {
    lr_mult: 2
    decay_mult: 0
  }
  convolution_param {
    num_output: 128
    kernel_size: 1
    weight_filler {
      type: "xavier"
    }
    bias_filler {
      type: "constant"
      value: 0.2
    }
  }
}
layer {
  name: "inception_3b/relu_1x1"
  type: "ReLU"
  bottom: "inception_3b/1x1"
  top: "inception_3b/1x1"
}
layer {
  name: "inception_3b/3x3_reduce"
  type: "Convolution"
  bottom: "inception_3a/output"
  top: "inception_3b/3x3_reduce"
  param {
    lr_mult: 0
    decay_mult: 1
  }
  param {
    lr_mult: 2
    decay_mult: 0
  }
  convolution_param {
    num_output: 128
    kernel_size: 1
    weight_filler {
      type: "xavier"
    }
    bias_filler {
      type: "constant"
      value: 0.2
    }
  }
}
layer {
  name: "inception_3b/relu_3x3_reduce"
  type: "ReLU"
  bottom: "inception_3b/3x3_reduce"
  top: "inception_3b/3x3_reduce"
}
layer {
  name: "inception_3b/3x3"
  type: "Convolution"
  bottom: "inception_3b/3x3_reduce"
  top: "inception_3b/3x3"
  param {
    lr_mult: 0
    decay_mult: 1
  }
  param {
    lr_mult: 2
    decay_mult: 0
  }
  convolution_param {
    num_output: 192
    pad: 1
    kernel_size: 3
    weight_filler {
      type: "xavier"
    }
    bias_filler {
      type: "constant"
      value: 0.2
    }
  }
}
layer {
  name: "inception_3b/relu_3x3"
  type: "ReLU"
  bottom: "inception_3b/3x3"
  top: "inception_3b/3x3"
}
layer {
  name: "inception_3b/5x5_reduce"
  type: "Convolution"
  bottom: "inception_3a/output"
  top: "inception_3b/5x5_reduce"
  param {
    lr_mult: 0
    decay_mult: 1
  }
  param {
    lr_mult: 2
    decay_mult: 0
  }
  convolution_param {
    num_output: 32
    kernel_size: 1
    weight_filler {
      type: "xavier"
    }
    bias_filler {
      type: "constant"
      value: 0.2
    }
  }
}
layer {
  name: "inception_3b/relu_5x5_reduce"
  type: "ReLU"
  bottom: "inception_3b/5x5_reduce"
  top: "inception_3b/5x5_reduce"
}
layer {
  name: "inception_3b/5x5"
  type: "Convolution"
  bottom: "inception_3b/5x5_reduce"
  top: "inception_3b/5x5"
  param {
    lr_mult: 0
    decay_mult: 1
  }
  param {
    lr_mult: 2
    decay_mult: 0
  }
  convolution_param {
    num_output: 96
    pad: 2
    kernel_size: 5
    weight_filler {
      type: "xavier"
    }
    bias_filler {
      type: "constant"
      value: 0.2
    }
  }
}
layer {
  name: "inception_3b/relu_5x5"
  type: "ReLU"
  bottom: "inception_3b/5x5"
  top: "inception_3b/5x5"
}
layer {
  name: "inception_3b/pool"
  type: "Pooling"
  bottom: "inception_3a/output"
  top: "inception_3b/pool"
  pooling_param {
    pool: MAX
    kernel_size: 3
    stride: 1
    pad: 1
  }
}
layer {
  name: "inception_3b/pool_proj"
  type: "Convolution"
  bottom: "inception_3b/pool"
  top: "inception_3b/pool_proj"
  param {
    lr_mult: 0
    decay_mult: 1
  }
  param {
    lr_mult: 2
    decay_mult: 0
  }
  convolution_param {
    num_output: 64
    kernel_size: 1
    weight_filler {
      type: "xavier"
    }
    bias_filler {
      type: "constant"
      value: 0.2
    }
  }
}
layer {
  name: "inception_3b/relu_pool_proj"
  type: "ReLU"
  bottom: "inception_3b/pool_proj"
  top: "inception_3b/pool_proj"
}
layer {
  name: "inception_3b/output"
  type: "Concat"
  bottom: "inception_3b/1x1"
  bottom: "inception_3b/3x3"
  bottom: "inception_3b/5x5"
  bottom: "inception_3b/pool_proj"
  top: "inception_3b/output"
}
layer {
  name: "pool3/3x3_s2"
  type: "Pooling"
  bottom: "inception_3b/output"
  top: "pool3/3x3_s2"
  pooling_param {
    pool: MAX
    kernel_size: 3
    stride: 2
  }
}
layer {
  name: "inception_4a/1x1"
  type: "Convolution"
  bottom: "pool3/3x3_s2"
  top: "inception_4a/1x1"
  param {
    lr_mult: 0
    decay_mult: 1
  }
  param {
    lr_mult: 2
    decay_mult: 0
  }
  convolution_param {
    num_output: 192
    kernel_size: 1
    weight_filler {
      type: "xavier"
    }
    bias_filler {
      type: "constant"
      value: 0.2
    }
  }
}
layer {
  name: "inception_4a/relu_1x1"
  type: "ReLU"
  bottom: "inception_4a/1x1"
  top: "inception_4a/1x1"
}
layer {
  name: "inception_4a/3x3_reduce"
  type: "Convolution"
  bottom: "pool3/3x3_s2"
  top: "inception_4a/3x3_reduce"
  param {
    lr_mult: 0
    decay_mult: 1
  }
  param {
    lr_mult: 2
    decay_mult: 0
  }
  convolution_param {
    num_output: 96
    kernel_size: 1
    weight_filler {
      type: "xavier"
    }
    bias_filler {
      type: "constant"
      value: 0.2
    }
  }
}
layer {
  name: "inception_4a/relu_3x3_reduce"
  type: "ReLU"
  bottom: "inception_4a/3x3_reduce"
  top: "inception_4a/3x3_reduce"
}
layer {
  name: "inception_4a/3x3"
  type: "Convolution"
  bottom: "inception_4a/3x3_reduce"
  top: "inception_4a/3x3"
  param {
    lr_mult: 0
    decay_mult: 1
  }
  param {
    lr_mult: 2
    decay_mult: 0
  }
  convolution_param {
    num_output: 208
    pad: 1
    kernel_size: 3
    weight_filler {
      type: "xavier"
    }
    bias_filler {
      type: "constant"
      value: 0.2
    }
  }
}
layer {
  name: "inception_4a/relu_3x3"
  type: "ReLU"
  bottom: "inception_4a/3x3"
  top: "inception_4a/3x3"
}
layer {
  name: "inception_4a/5x5_reduce"
  type: "Convolution"
  bottom: "pool3/3x3_s2"
  top: "inception_4a/5x5_reduce"
  param {
    lr_mult: 0
    decay_mult: 1
  }
  param {
    lr_mult: 2
    decay_mult: 0
  }
  convolution_param {
    num_output: 16
    kernel_size: 1
    weight_filler {
      type: "xavier"
    }
    bias_filler {
      type: "constant"
      value: 0.2
    }
  }
}
layer {
  name: "inception_4a/relu_5x5_reduce"
  type: "ReLU"
  bottom: "inception_4a/5x5_reduce"
  top: "inception_4a/5x5_reduce"
}
layer {
  name: "inception_4a/5x5"
  type: "Convolution"
  bottom: "inception_4a/5x5_reduce"
  top: "inception_4a/5x5"
  param {
    lr_mult: 0
    decay_mult: 1
  }
  param {
    lr_mult: 2
    decay_mult: 0
  }
  convolution_param {
    num_output: 48
    pad: 2
    kernel_size: 5
    weight_filler {
      type: "xavier"
    }
    bias_filler {
      type: "constant"
      value: 0.2
    }
  }
}
layer {
  name: "inception_4a/relu_5x5"
  type: "ReLU"
  bottom: "inception_4a/5x5"
  top: "inception_4a/5x5"
}
layer {
  name: "inception_4a/pool"
  type: "Pooling"
  bottom: "pool3/3x3_s2"
  top: "inception_4a/pool"
  pooling_param {
    pool: MAX
    kernel_size: 3
    stride: 1
    pad: 1
  }
}
layer {
  name: "inception_4a/pool_proj"
  type: "Convolution"
  bottom: "inception_4a/pool"
  top: "inception_4a/pool_proj"
  param {
    lr_mult: 0
    decay_mult: 1
  }
  param {
    lr_mult: 2
    decay_mult: 0
  }
  convolution_param {
    num_output: 64
    kernel_size: 1
    weight_filler {
      type: "xavier"
    }
    bias_filler {
      type: "constant"
      value: 0.2
    }
  }
}
layer {
  name: "inception_4a/relu_pool_proj"
  type: "ReLU"
  bottom: "inception_4a/pool_proj"
  top: "inception_4a/pool_proj"
}
layer {
  name: "inception_4a/output"
  type: "Concat"
  bottom: "inception_4a/1x1"
  bottom: "inception_4a/3x3"
  bottom: "inception_4a/5x5"
  bottom: "inception_4a/pool_proj"
  top: "inception_4a/output"
}
layer {
  name: "inception_4b/1x1"
  type: "Convolution"
  bottom: "inception_4a/output"
  top: "inception_4b/1x1"
  param {
    lr_mult: 0
    decay_mult: 1
  }
  param {
    lr_mult: 2
    decay_mult: 0
  }
  convolution_param {
    num_output: 160
    kernel_size: 1
    weight_filler {
      type: "xavier"
    }
    bias_filler {
      type: "constant"
      value: 0.2
    }
  }
}
layer {
  name: "inception_4b/relu_1x1"
  type: "ReLU"
  bottom: "inception_4b/1x1"
  top: "inception_4b/1x1"
}
layer {
  name: "inception_4b/3x3_reduce"
  type: "Convolution"
  bottom: "inception_4a/output"
  top: "inception_4b/3x3_reduce"
  param {
    lr_mult: 0
    decay_mult: 1
  }
  param {
    lr_mult: 2
    decay_mult: 0
  }
  convolution_param {
    num_output: 112
    kernel_size: 1
    weight_filler {
      type: "xavier"
    }
    bias_filler {
      type: "constant"
      value: 0.2
    }
  }
}
layer {
  name: "inception_4b/relu_3x3_reduce"
  type: "ReLU"
  bottom: "inception_4b/3x3_reduce"
  top: "inception_4b/3x3_reduce"
}
layer {
  name: "inception_4b/3x3"
  type: "Convolution"
  bottom: "inception_4b/3x3_reduce"
  top: "inception_4b/3x3"
  param {
    lr_mult: 0
    decay_mult: 1
  }
  param {
    lr_mult: 2
    decay_mult: 0
  }
  convolution_param {
    num_output: 224
    pad: 1
    kernel_size: 3
    weight_filler {
      type: "xavier"
    }
    bias_filler {
      type: "constant"
      value: 0.2
    }
  }
}
layer {
  name: "inception_4b/relu_3x3"
  type: "ReLU"
  bottom: "inception_4b/3x3"
  top: "inception_4b/3x3"
}
layer {
  name: "inception_4b/5x5_reduce"
  type: "Convolution"
  bottom: "inception_4a/output"
  top: "inception_4b/5x5_reduce"
  param {
    lr_mult: 0
    decay_mult: 1
  }
  param {
    lr_mult: 2
    decay_mult: 0
  }
  convolution_param {
    num_output: 24
    kernel_size: 1
    weight_filler {
      type: "xavier"
    }
    bias_filler {
      type: "constant"
      value: 0.2
    }
  }
}
layer {
  name: "inception_4b/relu_5x5_reduce"
  type: "ReLU"
  bottom: "inception_4b/5x5_reduce"
  top: "inception_4b/5x5_reduce"
}
layer {
  name: "inception_4b/5x5"
  type: "Convolution"
  bottom: "inception_4b/5x5_reduce"
  top: "inception_4b/5x5"
  param {
    lr_mult: 0
    decay_mult: 1
  }
  param {
    lr_mult: 2
    decay_mult: 0
  }
  convolution_param {
    num_output: 64
    pad: 2
    kernel_size: 5
    weight_filler {
      type: "xavier"
    }
    bias_filler {
      type: "constant"
      value: 0.2
    }
  }
}
layer {
  name: "inception_4b/relu_5x5"
  type: "ReLU"
  bottom: "inception_4b/5x5"
  top: "inception_4b/5x5"
}
layer {
  name: "inception_4b/pool"
  type: "Pooling"
  bottom: "inception_4a/output"
  top: "inception_4b/pool"
  pooling_param {
    pool: MAX
    kernel_size: 3
    stride: 1
    pad: 1
  }
}
layer {
  name: "inception_4b/pool_proj"
  type: "Convolution"
  bottom: "inception_4b/pool"
  top: "inception_4b/pool_proj"
  param {
    lr_mult: 0
    decay_mult: 1
  }
  param {
    lr_mult: 2
    decay_mult: 0
  }
  convolution_param {
    num_output: 64
    kernel_size: 1
    weight_filler {
      type: "xavier"
    }
    bias_filler {
      type: "constant"
      value: 0.2
    }
  }
}
layer {
  name: "inception_4b/relu_pool_proj"
  type: "ReLU"
  bottom: "inception_4b/pool_proj"
  top: "inception_4b/pool_proj"
}
layer {
  name: "inception_4b/output"
  type: "Concat"
  bottom: "inception_4b/1x1"
  bottom: "inception_4b/3x3"
  bottom: "inception_4b/5x5"
  bottom: "inception_4b/pool_proj"
  top: "inception_4b/output"
}
layer {
  name: "inception_4c/1x1"
  type: "Convolution"
  bottom: "inception_4b/output"
  top: "inception_4c/1x1"
  param {
    lr_mult: 0
    decay_mult: 1
  }
  param {
    lr_mult: 2
    decay_mult: 0
  }
  convolution_param {
    num_output: 128
    kernel_size: 1
    weight_filler {
      type: "xavier"
    }
    bias_filler {
      type: "constant"
      value: 0.2
    }
  }
}
layer {
  name: "inception_4c/relu_1x1"
  type: "ReLU"
  bottom: "inception_4c/1x1"
  top: "inception_4c/1x1"
}
layer {
  name: "inception_4c/3x3_reduce"
  type: "Convolution"
  bottom: "inception_4b/output"
  top: "inception_4c/3x3_reduce"
  param {
    lr_mult: 0
    decay_mult: 1
  }
  param {
    lr_mult: 2
    decay_mult: 0
  }
  convolution_param {
    num_output: 128
    kernel_size: 1
    weight_filler {
      type: "xavier"
    }
    bias_filler {
      type: "constant"
      value: 0.2
    }
  }
}
layer {
  name: "inception_4c/relu_3x3_reduce"
  type: "ReLU"
  bottom: "inception_4c/3x3_reduce"
  top: "inception_4c/3x3_reduce"
}
layer {
  name: "inception_4c/3x3"
  type: "Convolution"
  bottom: "inception_4c/3x3_reduce"
  top: "inception_4c/3x3"
  param {
    lr_mult: 0
    decay_mult: 1
  }
  param {
    lr_mult: 2
    decay_mult: 0
  }
  convolution_param {
    num_output: 256
    pad: 1
    kernel_size: 3
    weight_filler {
      type: "xavier"
    }
    bias_filler {
      type: "constant"
      value: 0.2
    }
  }
}
layer {
  name: "inception_4c/relu_3x3"
  type: "ReLU"
  bottom: "inception_4c/3x3"
  top: "inception_4c/3x3"
}
layer {
  name: "inception_4c/5x5_reduce"
  type: "Convolution"
  bottom: "inception_4b/output"
  top: "inception_4c/5x5_reduce"
  param {
    lr_mult: 0
    decay_mult: 1
  }
  param {
    lr_mult: 2
    decay_mult: 0
  }
  convolution_param {
    num_output: 24
    kernel_size: 1
    weight_filler {
      type: "xavier"
    }
    bias_filler {
      type: "constant"
      value: 0.2
    }
  }
}
layer {
  name: "inception_4c/relu_5x5_reduce"
  type: "ReLU"
  bottom: "inception_4c/5x5_reduce"
  top: "inception_4c/5x5_reduce"
}
layer {
  name: "inception_4c/5x5"
  type: "Convolution"
  bottom: "inception_4c/5x5_reduce"
  top: "inception_4c/5x5"
  param {
    lr_mult: 0
    decay_mult: 1
  }
  param {
    lr_mult: 2
    decay_mult: 0
  }
  convolution_param {
    num_output: 64
    pad: 2
    kernel_size: 5
    weight_filler {
      type: "xavier"
    }
    bias_filler {
      type: "constant"
      value: 0.2
    }
  }
}
layer {
  name: "inception_4c/relu_5x5"
  type: "ReLU"
  bottom: "inception_4c/5x5"
  top: "inception_4c/5x5"
}
layer {
  name: "inception_4c/pool"
  type: "Pooling"
  bottom: "inception_4b/output"
  top: "inception_4c/pool"
  pooling_param {
    pool: MAX
    kernel_size: 3
    stride: 1
    pad: 1
  }
}
layer {
  name: "inception_4c/pool_proj"
  type: "Convolution"
  bottom: "inception_4c/pool"
  top: "inception_4c/pool_proj"
  param {
    lr_mult: 0
    decay_mult: 1
  }
  param {
    lr_mult: 2
    decay_mult: 0
  }
  convolution_param {
    num_output: 64
    kernel_size: 1
    weight_filler {
      type: "xavier"
    }
    bias_filler {
      type: "constant"
      value: 0.2
    }
  }
}
layer {
  name: "inception_4c/relu_pool_proj"
  type: "ReLU"
  bottom: "inception_4c/pool_proj"
  top: "inception_4c/pool_proj"
}
layer {
  name: "inception_4c/output"
  type: "Concat"
  bottom: "inception_4c/1x1"
  bottom: "inception_4c/3x3"
  bottom: "inception_4c/5x5"
  bottom: "inception_4c/pool_proj"
  top: "inception_4c/output"
}
layer {
  name: "inception_4d/1x1"
  type: "Convolution"
  bottom: "inception_4c/output"
  top: "inception_4d/1x1"
  param {
    lr_mult: 0
    decay_mult: 1
  }
  param {
    lr_mult: 2
    decay_mult: 0
  }
  convolution_param {
    num_output: 112
    kernel_size: 1
    weight_filler {
      type: "xavier"
    }
    bias_filler {
      type: "constant"
      value: 0.2
    }
  }
}
layer {
  name: "inception_4d/relu_1x1"
  type: "ReLU"
  bottom: "inception_4d/1x1"
  top: "inception_4d/1x1"
}
layer {
  name: "inception_4d/3x3_reduce"
  type: "Convolution"
  bottom: "inception_4c/output"
  top: "inception_4d/3x3_reduce"
  param {
    lr_mult: 0
    decay_mult: 1
  }
  param {
    lr_mult: 2
    decay_mult: 0
  }
  convolution_param {
    num_output: 144
    kernel_size: 1
    weight_filler {
      type: "xavier"
    }
    bias_filler {
      type: "constant"
      value: 0.2
    }
  }
}
layer {
  name: "inception_4d/relu_3x3_reduce"
  type: "ReLU"
  bottom: "inception_4d/3x3_reduce"
  top: "inception_4d/3x3_reduce"
}
layer {
  name: "inception_4d/3x3"
  type: "Convolution"
  bottom: "inception_4d/3x3_reduce"
  top: "inception_4d/3x3"
  param {
    lr_mult: 0
    decay_mult: 1
  }
  param {
    lr_mult: 2
    decay_mult: 0
  }
  convolution_param {
    num_output: 288
    pad: 1
    kernel_size: 3
    weight_filler {
      type: "xavier"
    }
    bias_filler {
      type: "constant"
      value: 0.2
    }
  }
}
layer {
  name: "inception_4d/relu_3x3"
  type: "ReLU"
  bottom: "inception_4d/3x3"
  top: "inception_4d/3x3"
}
layer {
  name: "inception_4d/5x5_reduce"
  type: "Convolution"
  bottom: "inception_4c/output"
  top: "inception_4d/5x5_reduce"
  param {
    lr_mult: 0
    decay_mult: 1
  }
  param {
    lr_mult: 2
    decay_mult: 0
  }
  convolution_param {
    num_output: 32
    kernel_size: 1
    weight_filler {
      type: "xavier"
    }
    bias_filler {
      type: "constant"
      value: 0.2
    }
  }
}
layer {
  name: "inception_4d/relu_5x5_reduce"
  type: "ReLU"
  bottom: "inception_4d/5x5_reduce"
  top: "inception_4d/5x5_reduce"
}
layer {
  name: "inception_4d/5x5"
  type: "Convolution"
  bottom: "inception_4d/5x5_reduce"
  top: "inception_4d/5x5"
  param {
    lr_mult: 0
    decay_mult: 1
  }
  param {
    lr_mult: 2
    decay_mult: 0
  }
  convolution_param {
    num_output: 64
    pad: 2
    kernel_size: 5
    weight_filler {
      type: "xavier"
    }
    bias_filler {
      type: "constant"
      value: 0.2
    }
  }
}
layer {
  name: "inception_4d/relu_5x5"
  type: "ReLU"
  bottom: "inception_4d/5x5"
  top: "inception_4d/5x5"
}
layer {
  name: "inception_4d/pool"
  type: "Pooling"
  bottom: "inception_4c/output"
  top: "inception_4d/pool"
  pooling_param {
    pool: MAX
    kernel_size: 3
    stride: 1
    pad: 1
  }
}
layer {
  name: "inception_4d/pool_proj"
  type: "Convolution"
  bottom: "inception_4d/pool"
  top: "inception_4d/pool_proj"
  param {
    lr_mult: 0
    decay_mult: 1
  }
  param {
    lr_mult: 2
    decay_mult: 0
  }
  convolution_param {
    num_output: 64
    kernel_size: 1
    weight_filler {
      type: "xavier"
    }
    bias_filler {
      type: "constant"
      value: 0.2
    }
  }
}
layer {
  name: "inception_4d/relu_pool_proj"
  type: "ReLU"
  bottom: "inception_4d/pool_proj"
  top: "inception_4d/pool_proj"
}
layer {
  name: "inception_4d/output"
  type: "Concat"
  bottom: "inception_4d/1x1"
  bottom: "inception_4d/3x3"
  bottom: "inception_4d/5x5"
  bottom: "inception_4d/pool_proj"
  top: "inception_4d/output"
}
layer {
  name: "inception_4e/1x1"
  type: "Convolution"
  bottom: "inception_4d/output"
  top: "inception_4e/1x1"
  param {
    lr_mult: 0
    decay_mult: 1
  }
  param {
    lr_mult: 2
    decay_mult: 0
  }
  convolution_param {
    num_output: 256
    kernel_size: 1
    weight_filler {
      type: "xavier"
    }
    bias_filler {
      type: "constant"
      value: 0.2
    }
  }
}
layer {
  name: "inception_4e/relu_1x1"
  type: "ReLU"
  bottom: "inception_4e/1x1"
  top: "inception_4e/1x1"
}
layer {
  name: "inception_4e/3x3_reduce"
  type: "Convolution"
  bottom: "inception_4d/output"
  top: "inception_4e/3x3_reduce"
  param {
    lr_mult: 0
    decay_mult: 1
  }
  param {
    lr_mult: 2
    decay_mult: 0
  }
  convolution_param {
    num_output: 160
    kernel_size: 1
    weight_filler {
      type: "xavier"
    }
    bias_filler {
      type: "constant"
      value: 0.2
    }
  }
}
layer {
  name: "inception_4e/relu_3x3_reduce"
  type: "ReLU"
  bottom: "inception_4e/3x3_reduce"
  top: "inception_4e/3x3_reduce"
}
layer {
  name: "inception_4e/3x3"
  type: "Convolution"
  bottom: "inception_4e/3x3_reduce"
  top: "inception_4e/3x3"
  param {
    lr_mult: 0
    decay_mult: 1
  }
  param {
    lr_mult: 2
    decay_mult: 0
  }
  convolution_param {
    num_output: 320
    pad: 1
    kernel_size: 3
    weight_filler {
      type: "xavier"
    }
    bias_filler {
      type: "constant"
      value: 0.2
    }
  }
}
layer {
  name: "inception_4e/relu_3x3"
  type: "ReLU"
  bottom: "inception_4e/3x3"
  top: "inception_4e/3x3"
}
layer {
  name: "inception_4e/5x5_reduce"
  type: "Convolution"
  bottom: "inception_4d/output"
  top: "inception_4e/5x5_reduce"
  param {
    lr_mult: 0
    decay_mult: 1
  }
  param {
    lr_mult: 2
    decay_mult: 0
  }
  convolution_param {
    num_output: 32
    kernel_size: 1
    weight_filler {
      type: "xavier"
    }
    bias_filler {
      type: "constant"
      value: 0.2
    }
  }
}
layer {
  name: "inception_4e/relu_5x5_reduce"
  type: "ReLU"
  bottom: "inception_4e/5x5_reduce"
  top: "inception_4e/5x5_reduce"
}
layer {
  name: "inception_4e/5x5"
  type: "Convolution"
  bottom: "inception_4e/5x5_reduce"
  top: "inception_4e/5x5"
  param {
    lr_mult: 0
    decay_mult: 1
  }
  param {
    lr_mult: 2
    decay_mult: 0
  }
  convolution_param {
    num_output: 128
    pad: 2
    kernel_size: 5
    weight_filler {
      type: "xavier"
    }
    bias_filler {
      type: "constant"
      value: 0.2
    }
  }
}
layer {
  name: "inception_4e/relu_5x5"
  type: "ReLU"
  bottom: "inception_4e/5x5"
  top: "inception_4e/5x5"
}
layer {
  name: "inception_4e/pool"
  type: "Pooling"
  bottom: "inception_4d/output"
  top: "inception_4e/pool"
  pooling_param {
    pool: MAX
    kernel_size: 3
    stride: 1
    pad: 1
  }
}
layer {
  name: "inception_4e/pool_proj"
  type: "Convolution"
  bottom: "inception_4e/pool"
  top: "inception_4e/pool_proj"
  param {
    lr_mult: 0
    decay_mult: 1
  }
  param {
    lr_mult: 2
    decay_mult: 0
  }
  convolution_param {
    num_output: 128
    kernel_size: 1
    weight_filler {
      type: "xavier"
    }
    bias_filler {
      type: "constant"
      value: 0.2
    }
  }
}
layer {
  name: "inception_4e/relu_pool_proj"
  type: "ReLU"
  bottom: "inception_4e/pool_proj"
  top: "inception_4e/pool_proj"
}
layer {
  name: "inception_4e/output"
  type: "Concat"
  bottom: "inception_4e/1x1"
  bottom: "inception_4e/3x3"
  bottom: "inception_4e/5x5"
  bottom: "inception_4e/pool_proj"
  top: "inception_4e/output"
}
layer {
  name: "pool4/3x3_s2"
  type: "Pooling"
  bottom: "inception_4e/output"
  top: "pool4/3x3_s2"
  pooling_param {
    pool: MAX
    kernel_size: 3
    stride: 2
  }
}
layer {
  name: "inception_5a/1x1"
  type: "Convolution"
  bottom: "pool4/3x3_s2"
  top: "inception_5a/1x1"
  param {
    lr_mult: 0
    decay_mult: 1
  }
  param {
    lr_mult: 2
    decay_mult: 0
  }
  convolution_param {
    num_output: 256
    kernel_size: 1
    weight_filler {
      type: "xavier"
    }
    bias_filler {
      type: "constant"
      value: 0.2
    }
  }
}
layer {
  name: "inception_5a/relu_1x1"
  type: "ReLU"
  bottom: "inception_5a/1x1"
  top: "inception_5a/1x1"
}
layer {
  name: "inception_5a/3x3_reduce"
  type: "Convolution"
  bottom: "pool4/3x3_s2"
  top: "inception_5a/3x3_reduce"
  param {
    lr_mult: 0
    decay_mult: 1
  }
  param {
    lr_mult: 2
    decay_mult: 0
  }
  convolution_param {
    num_output: 160
    kernel_size: 1
    weight_filler {
      type: "xavier"
    }
    bias_filler {
      type: "constant"
      value: 0.2
    }
  }
}
layer {
  name: "inception_5a/relu_3x3_reduce"
  type: "ReLU"
  bottom: "inception_5a/3x3_reduce"
  top: "inception_5a/3x3_reduce"
}
layer {
  name: "inception_5a/3x3"
  type: "Convolution"
  bottom: "inception_5a/3x3_reduce"
  top: "inception_5a/3x3"
  param {
    lr_mult: 0
    decay_mult: 1
  }
  param {
    lr_mult: 2
    decay_mult: 0
  }
  convolution_param {
    num_output: 320
    pad: 1
    kernel_size: 3
    weight_filler {
      type: "xavier"
    }
    bias_filler {
      type: "constant"
      value: 0.2
    }
  }
}
layer {
  name: "inception_5a/relu_3x3"
  type: "ReLU"
  bottom: "inception_5a/3x3"
  top: "inception_5a/3x3"
}
layer {
  name: "inception_5a/5x5_reduce"
  type: "Convolution"
  bottom: "pool4/3x3_s2"
  top: "inception_5a/5x5_reduce"
  param {
    lr_mult: 0
    decay_mult: 1
  }
  param {
    lr_mult: 2
    decay_mult: 0
  }
  convolution_param {
    num_output: 32
    kernel_size: 1
    weight_filler {
      type: "xavier"
    }
    bias_filler {
      type: "constant"
      value: 0.2
    }
  }
}
layer {
  name: "inception_5a/relu_5x5_reduce"
  type: "ReLU"
  bottom: "inception_5a/5x5_reduce"
  top: "inception_5a/5x5_reduce"
}
layer {
  name: "inception_5a/5x5"
  type: "Convolution"
  bottom: "inception_5a/5x5_reduce"
  top: "inception_5a/5x5"
  param {
    lr_mult: 0
    decay_mult: 1
  }
  param {
    lr_mult: 2
    decay_mult: 0
  }
  convolution_param {
    num_output: 128
    pad: 2
    kernel_size: 5
    weight_filler {
      type: "xavier"
    }
    bias_filler {
      type: "constant"
      value: 0.2
    }
  }
}
layer {
  name: "inception_5a/relu_5x5"
  type: "ReLU"
  bottom: 
I0718 14:20:55.994604 31466 layer_factory.hpp:76] Creating layer data
I0718 14:20:55.994689 31466 net.cpp:106] Creating Layer data
I0718 14:20:55.994716 31466 net.cpp:411] data -> data
I0718 14:20:55.994772 31466 net.cpp:411] data -> label
I0718 14:20:55.995388 31466 image_data_layer.cpp:36] Opening file ../lists/mitosis_train.lst
I0718 14:20:56.013839 31466 image_data_layer.cpp:46] Shuffling data
I0718 14:20:56.016512 31466 image_data_layer.cpp:51] A total of 21366 images.
I0718 14:20:57.971655 31466 image_data_layer.cpp:78] output data size: 6,3,1000,1000
I0718 14:20:58.192457 31466 net.cpp:150] Setting up data
I0718 14:20:58.192687 31466 net.cpp:157] Top shape: 6 3 1000 1000 (18000000)
I0718 14:20:58.192740 31466 net.cpp:157] Top shape: 6 (6)
I0718 14:20:58.192762 31466 net.cpp:165] Memory required for data: 72000024
I0718 14:20:58.192868 31466 layer_factory.hpp:76] Creating layer label_data_1_split
I0718 14:20:58.193048 31466 net.cpp:106] Creating Layer label_data_1_split
I0718 14:20:58.193080 31466 net.cpp:454] label_data_1_split <- label
I0718 14:20:58.193164 31466 net.cpp:411] label_data_1_split -> label_data_1_split_0
I0718 14:20:58.193214 31466 net.cpp:411] label_data_1_split -> label_data_1_split_1
I0718 14:20:58.193364 31466 net.cpp:150] Setting up label_data_1_split
I0718 14:20:58.193399 31466 net.cpp:157] Top shape: 6 (6)
I0718 14:20:58.193423 31466 net.cpp:157] Top shape: 6 (6)
I0718 14:20:58.193449 31466 net.cpp:165] Memory required for data: 72000072
I0718 14:20:58.193501 31466 layer_factory.hpp:76] Creating layer conv1/7x7_s2
I0718 14:20:58.193604 31466 net.cpp:106] Creating Layer conv1/7x7_s2
I0718 14:20:58.193642 31466 net.cpp:454] conv1/7x7_s2 <- data
I0718 14:20:58.193701 31466 net.cpp:411] conv1/7x7_s2 -> conv1/7x7_s2
I0718 14:20:58.599057 31466 net.cpp:150] Setting up conv1/7x7_s2
I0718 14:20:58.599122 31466 net.cpp:157] Top shape: 6 64 500 500 (96000000)
I0718 14:20:58.599139 31466 net.cpp:165] Memory required for data: 456000072
I0718 14:20:58.599187 31466 layer_factory.hpp:76] Creating layer conv1/relu_7x7
I0718 14:20:58.599227 31466 net.cpp:106] Creating Layer conv1/relu_7x7
I0718 14:20:58.599284 31466 net.cpp:454] conv1/relu_7x7 <- conv1/7x7_s2
I0718 14:20:58.599309 31466 net.cpp:397] conv1/relu_7x7 -> conv1/7x7_s2 (in-place)
I0718 14:20:58.599624 31466 net.cpp:150] Setting up conv1/relu_7x7
I0718 14:20:58.599656 31466 net.cpp:157] Top shape: 6 64 500 500 (96000000)
I0718 14:20:58.599675 31466 net.cpp:165] Memory required for data: 840000072
I0718 14:20:58.599697 31466 layer_factory.hpp:76] Creating layer pool1/3x3_s2
I0718 14:20:58.599735 31466 net.cpp:106] Creating Layer pool1/3x3_s2
I0718 14:20:58.599752 31466 net.cpp:454] pool1/3x3_s2 <- conv1/7x7_s2
I0718 14:20:58.599769 31466 net.cpp:411] pool1/3x3_s2 -> pool1/3x3_s2
I0718 14:20:58.601598 31466 net.cpp:150] Setting up pool1/3x3_s2
I0718 14:20:58.601629 31466 net.cpp:157] Top shape: 6 64 250 250 (24000000)
I0718 14:20:58.601640 31466 net.cpp:165] Memory required for data: 936000072
I0718 14:20:58.601654 31466 layer_factory.hpp:76] Creating layer pool1/norm1
I0718 14:20:58.601683 31466 net.cpp:106] Creating Layer pool1/norm1
I0718 14:20:58.601701 31466 net.cpp:454] pool1/norm1 <- pool1/3x3_s2
I0718 14:20:58.601719 31466 net.cpp:411] pool1/norm1 -> pool1/norm1
I0718 14:20:58.603406 31466 net.cpp:150] Setting up pool1/norm1
I0718 14:20:58.603438 31466 net.cpp:157] Top shape: 6 64 250 250 (24000000)
I0718 14:20:58.603451 31466 net.cpp:165] Memory required for data: 1032000072
I0718 14:20:58.603466 31466 layer_factory.hpp:76] Creating layer conv2/3x3_reduce
I0718 14:20:58.603499 31466 net.cpp:106] Creating Layer conv2/3x3_reduce
I0718 14:20:58.603518 31466 net.cpp:454] conv2/3x3_reduce <- pool1/norm1
I0718 14:20:58.603544 31466 net.cpp:411] conv2/3x3_reduce -> conv2/3x3_reduce
I0718 14:20:58.610021 31466 cudnn_conv_layer.cpp:194] Reallocating workspace storage: 768
I0718 14:20:58.610092 31466 net.cpp:150] Setting up conv2/3x3_reduce
I0718 14:20:58.610116 31466 net.cpp:157] Top shape: 6 64 250 250 (24000000)
I0718 14:20:58.610132 31466 net.cpp:165] Memory required for data: 1128000072
I0718 14:20:58.610165 31466 layer_factory.hpp:76] Creating layer conv2/relu_3x3_reduce
I0718 14:20:58.610201 31466 net.cpp:106] Creating Layer conv2/relu_3x3_reduce
I0718 14:20:58.610224 31466 net.cpp:454] conv2/relu_3x3_reduce <- conv2/3x3_reduce
I0718 14:20:58.610240 31466 net.cpp:397] conv2/relu_3x3_reduce -> conv2/3x3_reduce (in-place)
I0718 14:20:58.610743 31466 net.cpp:150] Setting up conv2/relu_3x3_reduce
I0718 14:20:58.610777 31466 net.cpp:157] Top shape: 6 64 250 250 (24000000)
I0718 14:20:58.610796 31466 net.cpp:165] Memory required for data: 1224000072
I0718 14:20:58.610812 31466 layer_factory.hpp:76] Creating layer conv2/3x3
I0718 14:20:58.610844 31466 net.cpp:106] Creating Layer conv2/3x3
I0718 14:20:58.610862 31466 net.cpp:454] conv2/3x3 <- conv2/3x3_reduce
I0718 14:20:58.610889 31466 net.cpp:411] conv2/3x3 -> conv2/3x3
I0718 14:20:58.617177 31466 cudnn_conv_layer.cpp:194] Reallocating workspace storage: 6912
I0718 14:20:58.617512 31466 net.cpp:150] Setting up conv2/3x3
I0718 14:20:58.617538 31466 net.cpp:157] Top shape: 6 192 250 250 (72000000)
I0718 14:20:58.617552 31466 net.cpp:165] Memory required for data: 1512000072
I0718 14:20:58.617578 31466 layer_factory.hpp:76] Creating layer conv2/relu_3x3
I0718 14:20:58.617599 31466 net.cpp:106] Creating Layer conv2/relu_3x3
I0718 14:20:58.617615 31466 net.cpp:454] conv2/relu_3x3 <- conv2/3x3
I0718 14:20:58.617635 31466 net.cpp:397] conv2/relu_3x3 -> conv2/3x3 (in-place)
I0718 14:20:58.618587 31466 net.cpp:150] Setting up conv2/relu_3x3
I0718 14:20:58.618612 31466 net.cpp:157] Top shape: 6 192 250 250 (72000000)
I0718 14:20:58.618621 31466 net.cpp:165] Memory required for data: 1800000072
I0718 14:20:58.618636 31466 layer_factory.hpp:76] Creating layer conv2/norm2
I0718 14:20:58.618659 31466 net.cpp:106] Creating Layer conv2/norm2
I0718 14:20:58.618674 31466 net.cpp:454] conv2/norm2 <- conv2/3x3
I0718 14:20:58.618700 31466 net.cpp:411] conv2/norm2 -> conv2/norm2
I0718 14:20:58.621585 31466 net.cpp:150] Setting up conv2/norm2
I0718 14:20:58.621635 31466 net.cpp:157] Top shape: 6 192 250 250 (72000000)
I0718 14:20:58.621690 31466 net.cpp:165] Memory required for data: 2088000072
I0718 14:20:58.621708 31466 layer_factory.hpp:76] Creating layer pool2/3x3_s2
I0718 14:20:58.621729 31466 net.cpp:106] Creating Layer pool2/3x3_s2
I0718 14:20:58.621747 31466 net.cpp:454] pool2/3x3_s2 <- conv2/norm2
I0718 14:20:58.621776 31466 net.cpp:411] pool2/3x3_s2 -> pool2/3x3_s2
I0718 14:20:58.622795 31466 net.cpp:150] Setting up pool2/3x3_s2
I0718 14:20:58.622817 31466 net.cpp:157] Top shape: 6 192 125 125 (18000000)
I0718 14:20:58.622828 31466 net.cpp:165] Memory required for data: 2160000072
I0718 14:20:58.622838 31466 layer_factory.hpp:76] Creating layer pool2/3x3_s2_pool2/3x3_s2_0_split
I0718 14:20:58.622853 31466 net.cpp:106] Creating Layer pool2/3x3_s2_pool2/3x3_s2_0_split
I0718 14:20:58.622862 31466 net.cpp:454] pool2/3x3_s2_pool2/3x3_s2_0_split <- pool2/3x3_s2
I0718 14:20:58.622882 31466 net.cpp:411] pool2/3x3_s2_pool2/3x3_s2_0_split -> pool2/3x3_s2_pool2/3x3_s2_0_split_0
I0718 14:20:58.622895 31466 net.cpp:411] pool2/3x3_s2_pool2/3x3_s2_0_split -> pool2/3x3_s2_pool2/3x3_s2_0_split_1
I0718 14:20:58.622907 31466 net.cpp:411] pool2/3x3_s2_pool2/3x3_s2_0_split -> pool2/3x3_s2_pool2/3x3_s2_0_split_2
I0718 14:20:58.622923 31466 net.cpp:411] pool2/3x3_s2_pool2/3x3_s2_0_split -> pool2/3x3_s2_pool2/3x3_s2_0_split_3
I0718 14:20:58.623004 31466 net.cpp:150] Setting up pool2/3x3_s2_pool2/3x3_s2_0_split
I0718 14:20:58.623021 31466 net.cpp:157] Top shape: 6 192 125 125 (18000000)
I0718 14:20:58.623031 31466 net.cpp:157] Top shape: 6 192 125 125 (18000000)
I0718 14:20:58.623042 31466 net.cpp:157] Top shape: 6 192 125 125 (18000000)
I0718 14:20:58.623052 31466 net.cpp:157] Top shape: 6 192 125 125 (18000000)
I0718 14:20:58.623065 31466 net.cpp:165] Memory required for data: 2448000072
I0718 14:20:58.623075 31466 layer_factory.hpp:76] Creating layer inception_3a/1x1
I0718 14:20:58.623100 31466 net.cpp:106] Creating Layer inception_3a/1x1
I0718 14:20:58.623113 31466 net.cpp:454] inception_3a/1x1 <- pool2/3x3_s2_pool2/3x3_s2_0_split_0
I0718 14:20:58.623131 31466 net.cpp:411] inception_3a/1x1 -> inception_3a/1x1
I0718 14:20:58.631690 31466 cudnn_conv_layer.cpp:194] Reallocating workspace storage: 2304
I0718 14:20:58.632035 31466 net.cpp:150] Setting up inception_3a/1x1
I0718 14:20:58.632064 31466 net.cpp:157] Top shape: 6 64 125 125 (6000000)
I0718 14:20:58.632081 31466 net.cpp:165] Memory required for data: 2472000072
I0718 14:20:58.632105 31466 layer_factory.hpp:76] Creating layer inception_3a/relu_1x1
I0718 14:20:58.632138 31466 net.cpp:106] Creating Layer inception_3a/relu_1x1
I0718 14:20:58.632155 31466 net.cpp:454] inception_3a/relu_1x1 <- inception_3a/1x1
I0718 14:20:58.632176 31466 net.cpp:397] inception_3a/relu_1x1 -> inception_3a/1x1 (in-place)
I0718 14:20:58.633160 31466 net.cpp:150] Setting up inception_3a/relu_1x1
I0718 14:20:58.633190 31466 net.cpp:157] Top shape: 6 64 125 125 (6000000)
I0718 14:20:58.633204 31466 net.cpp:165] Memory required for data: 2496000072
I0718 14:20:58.633216 31466 layer_factory.hpp:76] Creating layer inception_3a/3x3_reduce
I0718 14:20:58.633250 31466 net.cpp:106] Creating Layer inception_3a/3x3_reduce
I0718 14:20:58.633266 31466 net.cpp:454] inception_3a/3x3_reduce <- pool2/3x3_s2_pool2/3x3_s2_0_split_1
I0718 14:20:58.633287 31466 net.cpp:411] inception_3a/3x3_reduce -> inception_3a/3x3_reduce
I0718 14:20:58.638276 31466 cudnn_conv_layer.cpp:194] Reallocating workspace storage: 2304
I0718 14:20:58.638317 31466 net.cpp:150] Setting up inception_3a/3x3_reduce
I0718 14:20:58.638334 31466 net.cpp:157] Top shape: 6 96 125 125 (9000000)
I0718 14:20:58.638345 31466 net.cpp:165] Memory required for data: 2532000072
I0718 14:20:58.638368 31466 layer_factory.hpp:76] Creating layer inception_3a/relu_3x3_reduce
I0718 14:20:58.638387 31466 net.cpp:106] Creating Layer inception_3a/relu_3x3_reduce
I0718 14:20:58.638402 31466 net.cpp:454] inception_3a/relu_3x3_reduce <- inception_3a/3x3_reduce
I0718 14:20:58.638434 31466 net.cpp:397] inception_3a/relu_3x3_reduce -> inception_3a/3x3_reduce (in-place)
I0718 14:20:58.639904 31466 net.cpp:150] Setting up inception_3a/relu_3x3_reduce
I0718 14:20:58.639930 31466 net.cpp:157] Top shape: 6 96 125 125 (9000000)
I0718 14:20:58.639945 31466 net.cpp:165] Memory required for data: 2568000072
I0718 14:20:58.639963 31466 layer_factory.hpp:76] Creating layer inception_3a/3x3
I0718 14:20:58.639996 31466 net.cpp:106] Creating Layer inception_3a/3x3
I0718 14:20:58.640009 31466 net.cpp:454] inception_3a/3x3 <- inception_3a/3x3_reduce
I0718 14:20:58.640027 31466 net.cpp:411] inception_3a/3x3 -> inception_3a/3x3
I0718 14:20:58.644141 31466 cudnn_conv_layer.cpp:194] Reallocating workspace storage: 10368
I0718 14:20:58.644188 31466 net.cpp:150] Setting up inception_3a/3x3
I0718 14:20:58.644210 31466 net.cpp:157] Top shape: 6 128 125 125 (12000000)
I0718 14:20:58.644222 31466 net.cpp:165] Memory required for data: 2616000072
I0718 14:20:58.644240 31466 layer_factory.hpp:76] Creating layer inception_3a/relu_3x3
I0718 14:20:58.644256 31466 net.cpp:106] Creating Layer inception_3a/relu_3x3
I0718 14:20:58.644268 31466 net.cpp:454] inception_3a/relu_3x3 <- inception_3a/3x3
I0718 14:20:58.644292 31466 net.cpp:397] inception_3a/relu_3x3 -> inception_3a/3x3 (in-place)
I0718 14:20:58.644502 31466 net.cpp:150] Setting up inception_3a/relu_3x3
I0718 14:20:58.644523 31466 net.cpp:157] Top shape: 6 128 125 125 (12000000)
I0718 14:20:58.644533 31466 net.cpp:165] Memory required for data: 2664000072
I0718 14:20:58.644543 31466 layer_factory.hpp:76] Creating layer inception_3a/5x5_reduce
I0718 14:20:58.644562 31466 net.cpp:106] Creating Layer inception_3a/5x5_reduce
I0718 14:20:58.644577 31466 net.cpp:454] inception_3a/5x5_reduce <- pool2/3x3_s2_pool2/3x3_s2_0_split_2
I0718 14:20:58.644598 31466 net.cpp:411] inception_3a/5x5_reduce -> inception_3a/5x5_reduce
I0718 14:20:58.650586 31466 net.cpp:150] Setting up inception_3a/5x5_reduce
I0718 14:20:58.650610 31466 net.cpp:157] Top shape: 6 16 125 125 (1500000)
I0718 14:20:58.650621 31466 net.cpp:165] Memory required for data: 2670000072
I0718 14:20:58.650643 31466 layer_factory.hpp:76] Creating layer inception_3a/relu_5x5_reduce
I0718 14:20:58.650677 31466 net.cpp:106] Creating Layer inception_3a/relu_5x5_reduce
I0718 14:20:58.650689 31466 net.cpp:454] inception_3a/relu_5x5_reduce <- inception_3a/5x5_reduce
I0718 14:20:58.650704 31466 net.cpp:397] inception_3a/relu_5x5_reduce -> inception_3a/5x5_reduce (in-place)
I0718 14:20:58.651525 31466 net.cpp:150] Setting up inception_3a/relu_5x5_reduce
I0718 14:20:58.651553 31466 net.cpp:157] Top shape: 6 16 125 125 (1500000)
I0718 14:20:58.651566 31466 net.cpp:165] Memory required for data: 2676000072
I0718 14:20:58.651588 31466 layer_factory.hpp:76] Creating layer inception_3a/5x5
I0718 14:20:58.651623 31466 net.cpp:106] Creating Layer inception_3a/5x5
I0718 14:20:58.651638 31466 net.cpp:454] inception_3a/5x5 <- inception_3a/5x5_reduce
I0718 14:20:58.651660 31466 net.cpp:411] inception_3a/5x5 -> inception_3a/5x5
I0718 14:20:58.660182 31466 cudnn_conv_layer.cpp:194] Reallocating workspace storage: 4800
I0718 14:20:58.660223 31466 net.cpp:150] Setting up inception_3a/5x5
I0718 14:20:58.660239 31466 net.cpp:157] Top shape: 6 32 125 125 (3000000)
I0718 14:20:58.660248 31466 net.cpp:165] Memory required for data: 2688000072
I0718 14:20:58.660265 31466 layer_factory.hpp:76] Creating layer inception_3a/relu_5x5
I0718 14:20:58.660297 31466 net.cpp:106] Creating Layer inception_3a/relu_5x5
I0718 14:20:58.660313 31466 net.cpp:454] inception_3a/relu_5x5 <- inception_3a/5x5
I0718 14:20:58.660327 31466 net.cpp:397] inception_3a/relu_5x5 -> inception_3a/5x5 (in-place)
I0718 14:20:58.661885 31466 net.cpp:150] Setting up inception_3a/relu_5x5
I0718 14:20:58.661907 31466 net.cpp:157] Top shape: 6 32 125 125 (3000000)
I0718 14:20:58.661918 31466 net.cpp:165] Memory required for data: 2700000072
I0718 14:20:58.661928 31466 layer_factory.hpp:76] Creating layer inception_3a/pool
I0718 14:20:58.661952 31466 net.cpp:106] Creating Layer inception_3a/pool
I0718 14:20:58.661964 31466 net.cpp:454] inception_3a/pool <- pool2/3x3_s2_pool2/3x3_s2_0_split_3
I0718 14:20:58.662029 31466 net.cpp:411] inception_3a/pool -> inception_3a/pool
I0718 14:20:58.663617 31466 net.cpp:150] Setting up inception_3a/pool
I0718 14:20:58.663643 31466 net.cpp:157] Top shape: 6 192 125 125 (18000000)
I0718 14:20:58.663662 31466 net.cpp:165] Memory required for data: 2772000072
I0718 14:20:58.663676 31466 layer_factory.hpp:76] Creating layer inception_3a/pool_proj
I0718 14:20:58.663698 31466 net.cpp:106] Creating Layer inception_3a/pool_proj
I0718 14:20:58.663714 31466 net.cpp:454] inception_3a/pool_proj <- inception_3a/pool
I0718 14:20:58.663732 31466 net.cpp:411] inception_3a/pool_proj -> inception_3a/pool_proj
I0718 14:20:58.669589 31466 net.cpp:150] Setting up inception_3a/pool_proj
I0718 14:20:58.669641 31466 net.cpp:157] Top shape: 6 32 125 125 (3000000)
I0718 14:20:58.669658 31466 net.cpp:165] Memory required for data: 2784000072
I0718 14:20:58.669688 31466 layer_factory.hpp:76] Creating layer inception_3a/relu_pool_proj
I0718 14:20:58.669710 31466 net.cpp:106] Creating Layer inception_3a/relu_pool_proj
I0718 14:20:58.669728 31466 net.cpp:454] inception_3a/relu_pool_proj <- inception_3a/pool_proj
I0718 14:20:58.669741 31466 net.cpp:397] inception_3a/relu_pool_proj -> inception_3a/pool_proj (in-place)
I0718 14:20:58.672516 31466 net.cpp:150] Setting up inception_3a/relu_pool_proj
I0718 14:20:58.672543 31466 net.cpp:157] Top shape: 6 32 125 125 (3000000)
I0718 14:20:58.672556 31466 net.cpp:165] Memory required for data: 2796000072
I0718 14:20:58.672569 31466 layer_factory.hpp:76] Creating layer inception_3a/output
I0718 14:20:58.672615 31466 net.cpp:106] Creating Layer inception_3a/output
I0718 14:20:58.672636 31466 net.cpp:454] inception_3a/output <- inception_3a/1x1
I0718 14:20:58.672651 31466 net.cpp:454] inception_3a/output <- inception_3a/3x3
I0718 14:20:58.672669 31466 net.cpp:454] inception_3a/output <- inception_3a/5x5
I0718 14:20:58.672684 31466 net.cpp:454] inception_3a/output <- inception_3a/pool_proj
I0718 14:20:58.672704 31466 net.cpp:411] inception_3a/output -> inception_3a/output
I0718 14:20:58.672765 31466 net.cpp:150] Setting up inception_3a/output
I0718 14:20:58.672791 31466 net.cpp:157] Top shape: 6 256 125 125 (24000000)
I0718 14:20:58.672811 31466 net.cpp:165] Memory required for data: 2892000072
I0718 14:20:58.672821 31466 layer_factory.hpp:76] Creating layer inception_3a/output_inception_3a/output_0_split
I0718 14:20:58.672850 31466 net.cpp:106] Creating Layer inception_3a/output_inception_3a/output_0_split
I0718 14:20:58.672868 31466 net.cpp:454] inception_3a/output_inception_3a/output_0_split <- inception_3a/output
I0718 14:20:58.672885 31466 net.cpp:411] inception_3a/output_inception_3a/output_0_split -> inception_3a/output_inception_3a/output_0_split_0
I0718 14:20:58.672909 31466 net.cpp:411] inception_3a/output_inception_3a/output_0_split -> inception_3a/output_inception_3a/output_0_split_1
I0718 14:20:58.672926 31466 net.cpp:411] inception_3a/output_inception_3a/output_0_split -> inception_3a/output_inception_3a/output_0_split_2
I0718 14:20:58.672941 31466 net.cpp:411] inception_3a/output_inception_3a/output_0_split -> inception_3a/output_inception_3a/output_0_split_3
I0718 14:20:58.673034 31466 net.cpp:150] Setting up inception_3a/output_inception_3a/output_0_split
I0718 14:20:58.673058 31466 net.cpp:157] Top shape: 6 256 125 125 (24000000)
I0718 14:20:58.673069 31466 net.cpp:157] Top shape: 6 256 125 125 (24000000)
I0718 14:20:58.673081 31466 net.cpp:157] Top shape: 6 256 125 125 (24000000)
I0718 14:20:58.673092 31466 net.cpp:157] Top shape: 6 256 125 125 (24000000)
I0718 14:20:58.673101 31466 net.cpp:165] Memory required for data: 3276000072
I0718 14:20:58.673113 31466 layer_factory.hpp:76] Creating layer inception_3b/1x1
I0718 14:20:58.673135 31466 net.cpp:106] Creating Layer inception_3b/1x1
I0718 14:20:58.673149 31466 net.cpp:454] inception_3b/1x1 <- inception_3a/output_inception_3a/output_0_split_0
I0718 14:20:58.673166 31466 net.cpp:411] inception_3b/1x1 -> inception_3b/1x1
I0718 14:20:58.680774 31466 cudnn_conv_layer.cpp:194] Reallocating workspace storage: 3072
I0718 14:20:58.680894 31466 net.cpp:150] Setting up inception_3b/1x1
I0718 14:20:58.680917 31466 net.cpp:157] Top shape: 6 128 125 125 (12000000)
I0718 14:20:58.680932 31466 net.cpp:165] Memory required for data: 3324000072
I0718 14:20:58.680970 31466 layer_factory.hpp:76] Creating layer inception_3b/relu_1x1
I0718 14:20:58.680994 31466 net.cpp:106] Creating Layer inception_3b/relu_1x1
I0718 14:20:58.681010 31466 net.cpp:454] inception_3b/relu_1x1 <- inception_3b/1x1
I0718 14:20:58.681033 31466 net.cpp:397] inception_3b/relu_1x1 -> inception_3b/1x1 (in-place)
I0718 14:20:58.683768 31466 net.cpp:150] Setting up inception_3b/relu_1x1
I0718 14:20:58.683801 31466 net.cpp:157] Top shape: 6 128 125 125 (12000000)
I0718 14:20:58.683817 31466 net.cpp:165] Memory required for data: 3372000072
I0718 14:20:58.683832 31466 layer_factory.hpp:76] Creating layer inception_3b/3x3_reduce
I0718 14:20:58.683862 31466 net.cpp:106] Creating Layer inception_3b/3x3_reduce
I0718 14:20:58.683878 31466 net.cpp:454] inception_3b/3x3_reduce <- inception_3a/output_inception_3a/output_0_split_1
I0718 14:20:58.683899 31466 net.cpp:411] inception_3b/3x3_reduce -> inception_3b/3x3_reduce
I0718 14:20:58.689913 31466 cudnn_conv_layer.cpp:194] Reallocating workspace storage: 3072
I0718 14:20:58.689970 31466 net.cpp:150] Setting up inception_3b/3x3_reduce
I0718 14:20:58.689998 31466 net.cpp:157] Top shape: 6 128 125 125 (12000000)
I0718 14:20:58.690016 31466 net.cpp:165] Memory required for data: 3420000072
I0718 14:20:58.690042 31466 layer_factory.hpp:76] Creating layer inception_3b/relu_3x3_reduce
I0718 14:20:58.690064 31466 net.cpp:106] Creating Layer inception_3b/relu_3x3_reduce
I0718 14:20:58.690084 31466 net.cpp:454] inception_3b/relu_3x3_reduce <- inception_3b/3x3_reduce
I0718 14:20:58.690110 31466 net.cpp:397] inception_3b/relu_3x3_reduce -> inception_3b/3x3_reduce (in-place)
I0718 14:20:58.692059 31466 net.cpp:150] Setting up inception_3b/relu_3x3_reduce
I0718 14:20:58.692088 31466 net.cpp:157] Top shape: 6 128 125 125 (12000000)
I0718 14:20:58.692101 31466 net.cpp:165] Memory required for data: 3468000072
I0718 14:20:58.692114 31466 layer_factory.hpp:76] Creating layer inception_3b/3x3
I0718 14:20:58.692147 31466 net.cpp:106] Creating Layer inception_3b/3x3
I0718 14:20:58.692167 31466 net.cpp:454] inception_3b/3x3 <- inception_3b/3x3_reduce
I0718 14:20:58.692195 31466 net.cpp:411] inception_3b/3x3 -> inception_3b/3x3
I0718 14:20:58.699455 31466 cudnn_conv_layer.cpp:194] Reallocating workspace storage: 13824
I0718 14:20:58.699534 31466 net.cpp:150] Setting up inception_3b/3x3
I0718 14:20:58.699556 31466 net.cpp:157] Top shape: 6 192 125 125 (18000000)
I0718 14:20:58.699574 31466 net.cpp:165] Memory required for data: 3540000072
I0718 14:20:58.699599 31466 layer_factory.hpp:76] Creating layer inception_3b/relu_3x3
I0718 14:20:58.699620 31466 net.cpp:106] Creating Layer inception_3b/relu_3x3
I0718 14:20:58.699638 31466 net.cpp:454] inception_3b/relu_3x3 <- inception_3b/3x3
I0718 14:20:58.699654 31466 net.cpp:397] inception_3b/relu_3x3 -> inception_3b/3x3 (in-place)
I0718 14:20:58.701594 31466 net.cpp:150] Setting up inception_3b/relu_3x3
I0718 14:20:58.701632 31466 net.cpp:157] Top shape: 6 192 125 125 (18000000)
I0718 14:20:58.701655 31466 net.cpp:165] Memory required for data: 3612000072
I0718 14:20:58.701688 31466 layer_factory.hpp:76] Creating layer inception_3b/5x5_reduce
I0718 14:20:58.701719 31466 net.cpp:106] Creating Layer inception_3b/5x5_reduce
I0718 14:20:58.701738 31466 net.cpp:454] inception_3b/5x5_reduce <- inception_3a/output_inception_3a/output_0_split_2
I0718 14:20:58.701756 31466 net.cpp:411] inception_3b/5x5_reduce -> inception_3b/5x5_reduce
I0718 14:20:58.712798 31466 net.cpp:150] Setting up inception_3b/5x5_reduce
I0718 14:20:58.712887 31466 net.cpp:157] Top shape: 6 32 125 125 (3000000)
I0718 14:20:58.712908 31466 net.cpp:165] Memory required for data: 3624000072
I0718 14:20:58.712939 31466 layer_factory.hpp:76] Creating layer inception_3b/relu_5x5_reduce
I0718 14:20:58.712983 31466 net.cpp:106] Creating Layer inception_3b/relu_5x5_reduce
I0718 14:20:58.713066 31466 net.cpp:454] inception_3b/relu_5x5_reduce <- inception_3b/5x5_reduce
I0718 14:20:58.713099 31466 net.cpp:397] inception_3b/relu_5x5_reduce -> inception_3b/5x5_reduce (in-place)
I0718 14:20:58.714001 31466 net.cpp:150] Setting up inception_3b/relu_5x5_reduce
I0718 14:20:58.714042 31466 net.cpp:157] Top shape: 6 32 125 125 (3000000)
I0718 14:20:58.714066 31466 net.cpp:165] Memory required for data: 3636000072
I0718 14:20:58.714107 31466 layer_factory.hpp:76] Creating layer inception_3b/5x5
I0718 14:20:58.714154 31466 net.cpp:106] Creating Layer inception_3b/5x5
I0718 14:20:58.714172 31466 net.cpp:454] inception_3b/5x5 <- inception_3b/5x5_reduce
I0718 14:20:58.714190 31466 net.cpp:411] inception_3b/5x5 -> inception_3b/5x5
I0718 14:20:58.721109 31466 net.cpp:150] Setting up inception_3b/5x5
I0718 14:20:58.721143 31466 net.cpp:157] Top shape: 6 96 125 125 (9000000)
I0718 14:20:58.721154 31466 net.cpp:165] Memory required for data: 3672000072
I0718 14:20:58.721169 31466 layer_factory.hpp:76] Creating layer inception_3b/relu_5x5
I0718 14:20:58.721186 31466 net.cpp:106] Creating Layer inception_3b/relu_5x5
I0718 14:20:58.721201 31466 net.cpp:454] inception_3b/relu_5x5 <- inception_3b/5x5
I0718 14:20:58.721223 31466 net.cpp:397] inception_3b/relu_5x5 -> inception_3b/5x5 (in-place)
I0718 14:20:58.722877 31466 net.cpp:150] Setting up inception_3b/relu_5x5
I0718 14:20:58.722899 31466 net.cpp:157] Top shape: 6 96 125 125 (9000000)
I0718 14:20:58.722916 31466 net.cpp:165] Memory required for data: 3708000072
I0718 14:20:58.722928 31466 layer_factory.hpp:76] Creating layer inception_3b/pool
I0718 14:20:58.722942 31466 net.cpp:106] Creating Layer inception_3b/pool
I0718 14:20:58.722951 31466 net.cpp:454] inception_3b/pool <- inception_3a/output_inception_3a/output_0_split_3
I0718 14:20:58.722967 31466 net.cpp:411] inception_3b/pool -> inception_3b/pool
I0718 14:20:58.724401 31466 net.cpp:150] Setting up inception_3b/pool
I0718 14:20:58.724426 31466 net.cpp:157] Top shape: 6 256 125 125 (24000000)
I0718 14:20:58.724441 31466 net.cpp:165] Memory required for data: 3804000072
I0718 14:20:58.724452 31466 layer_factory.hpp:76] Creating layer inception_3b/pool_proj
I0718 14:20:58.724479 31466 net.cpp:106] Creating Layer inception_3b/pool_proj
I0718 14:20:58.724491 31466 net.cpp:454] inception_3b/pool_proj <- inception_3b/pool
I0718 14:20:58.724503 31466 net.cpp:411] inception_3b/pool_proj -> inception_3b/pool_proj
I0718 14:20:58.727771 31466 net.cpp:150] Setting up inception_3b/pool_proj
I0718 14:20:58.727797 31466 net.cpp:157] Top shape: 6 64 125 125 (6000000)
I0718 14:20:58.727807 31466 net.cpp:165] Memory required for data: 3828000072
I0718 14:20:58.727819 31466 layer_factory.hpp:76] Creating layer inception_3b/relu_pool_proj
I0718 14:20:58.727831 31466 net.cpp:106] Creating Layer inception_3b/relu_pool_proj
I0718 14:20:58.727841 31466 net.cpp:454] inception_3b/relu_pool_proj <- inception_3b/pool_proj
I0718 14:20:58.727855 31466 net.cpp:397] inception_3b/relu_pool_proj -> inception_3b/pool_proj (in-place)
I0718 14:20:58.728055 31466 net.cpp:150] Setting up inception_3b/relu_pool_proj
I0718 14:20:58.728075 31466 net.cpp:157] Top shape: 6 64 125 125 (6000000)
I0718 14:20:58.728088 31466 net.cpp:165] Memory required for data: 3852000072
I0718 14:20:58.728097 31466 layer_factory.hpp:76] Creating layer inception_3b/output
I0718 14:20:58.728113 31466 net.cpp:106] Creating Layer inception_3b/output
I0718 14:20:58.728122 31466 net.cpp:454] inception_3b/output <- inception_3b/1x1
I0718 14:20:58.728132 31466 net.cpp:454] inception_3b/output <- inception_3b/3x3
I0718 14:20:58.728145 31466 net.cpp:454] inception_3b/output <- inception_3b/5x5
I0718 14:20:58.728154 31466 net.cpp:454] inception_3b/output <- inception_3b/pool_proj
I0718 14:20:58.728164 31466 net.cpp:411] inception_3b/output -> inception_3b/output
I0718 14:20:58.728202 31466 net.cpp:150] Setting up inception_3b/output
I0718 14:20:58.728215 31466 net.cpp:157] Top shape: 6 480 125 125 (45000000)
I0718 14:20:58.728224 31466 net.cpp:165] Memory required for data: 4032000072
I0718 14:20:58.728263 31466 layer_factory.hpp:76] Creating layer pool3/3x3_s2
I0718 14:20:58.728276 31466 net.cpp:106] Creating Layer pool3/3x3_s2
I0718 14:20:58.728287 31466 net.cpp:454] pool3/3x3_s2 <- inception_3b/output
I0718 14:20:58.728301 31466 net.cpp:411] pool3/3x3_s2 -> pool3/3x3_s2
I0718 14:20:58.728703 31466 net.cpp:150] Setting up pool3/3x3_s2
I0718 14:20:58.728725 31466 net.cpp:157] Top shape: 6 480 62 62 (11070720)
I0718 14:20:58.728736 31466 net.cpp:165] Memory required for data: 4076282952
I0718 14:20:58.728757 31466 layer_factory.hpp:76] Creating layer pool3/3x3_s2_pool3/3x3_s2_0_split
I0718 14:20:58.728775 31466 net.cpp:106] Creating Layer pool3/3x3_s2_pool3/3x3_s2_0_split
I0718 14:20:58.728785 31466 net.cpp:454] pool3/3x3_s2_pool3/3x3_s2_0_split <- pool3/3x3_s2
I0718 14:20:58.728795 31466 net.cpp:411] pool3/3x3_s2_pool3/3x3_s2_0_split -> pool3/3x3_s2_pool3/3x3_s2_0_split_0
I0718 14:20:58.728808 31466 net.cpp:411] pool3/3x3_s2_pool3/3x3_s2_0_split -> pool3/3x3_s2_pool3/3x3_s2_0_split_1
I0718 14:20:58.728821 31466 net.cpp:411] pool3/3x3_s2_pool3/3x3_s2_0_split -> pool3/3x3_s2_pool3/3x3_s2_0_split_2
I0718 14:20:58.728832 31466 net.cpp:411] pool3/3x3_s2_pool3/3x3_s2_0_split -> pool3/3x3_s2_pool3/3x3_s2_0_split_3
I0718 14:20:58.728902 31466 net.cpp:150] Setting up pool3/3x3_s2_pool3/3x3_s2_0_split
I0718 14:20:58.728915 31466 net.cpp:157] Top shape: 6 480 62 62 (11070720)
I0718 14:20:58.728925 31466 net.cpp:157] Top shape: 6 480 62 62 (11070720)
I0718 14:20:58.728935 31466 net.cpp:157] Top shape: 6 480 62 62 (11070720)
I0718 14:20:58.728943 31466 net.cpp:157] Top shape: 6 480 62 62 (11070720)
I0718 14:20:58.728951 31466 net.cpp:165] Memory required for data: 4253414472
I0718 14:20:58.728960 31466 layer_factory.hpp:76] Creating layer inception_4a/1x1
I0718 14:20:58.728981 31466 net.cpp:106] Creating Layer inception_4a/1x1
I0718 14:20:58.728991 31466 net.cpp:454] inception_4a/1x1 <- pool3/3x3_s2_pool3/3x3_s2_0_split_0
I0718 14:20:58.729003 31466 net.cpp:411] inception_4a/1x1 -> inception_4a/1x1
I0718 14:20:58.735985 31466 cudnn_conv_layer.cpp:194] Reallocating workspace storage: 5760
I0718 14:20:58.736027 31466 net.cpp:150] Setting up inception_4a/1x1
I0718 14:20:58.736040 31466 net.cpp:157] Top shape: 6 192 62 62 (4428288)
I0718 14:20:58.736049 31466 net.cpp:165] Memory required for data: 4271127624
I0718 14:20:58.736066 31466 layer_factory.hpp:76] Creating layer inception_4a/relu_1x1
I0718 14:20:58.736081 31466 net.cpp:106] Creating Layer inception_4a/relu_1x1
I0718 14:20:58.736093 31466 net.cpp:454] inception_4a/relu_1x1 <- inception_4a/1x1
I0718 14:20:58.736105 31466 net.cpp:397] inception_4a/relu_1x1 -> inception_4a/1x1 (in-place)
I0718 14:20:58.738417 31466 net.cpp:150] Setting up inception_4a/relu_1x1
I0718 14:20:58.738436 31466 net.cpp:157] Top shape: 6 192 62 62 (4428288)
I0718 14:20:58.738446 31466 net.cpp:165] Memory required for data: 4288840776
I0718 14:20:58.738454 31466 layer_factory.hpp:76] Creating layer inception_4a/3x3_reduce
I0718 14:20:58.738471 31466 net.cpp:106] Creating Layer inception_4a/3x3_reduce
I0718 14:20:58.738481 31466 net.cpp:454] inception_4a/3x3_reduce <- pool3/3x3_s2_pool3/3x3_s2_0_split_1
I0718 14:20:58.738495 31466 net.cpp:411] inception_4a/3x3_reduce -> inception_4a/3x3_reduce
I0718 14:20:58.749637 31466 cudnn_conv_layer.cpp:194] Reallocating workspace storage: 5760
I0718 14:20:58.749711 31466 net.cpp:150] Setting up inception_4a/3x3_reduce
I0718 14:20:58.749727 31466 net.cpp:157] Top shape: 6 96 62 62 (2214144)
I0718 14:20:58.749737 31466 net.cpp:165] Memory required for data: 4297697352
I0718 14:20:58.749763 31466 layer_factory.hpp:76] Creating layer inception_4a/relu_3x3_reduce
I0718 14:20:58.749790 31466 net.cpp:106] Creating Layer inception_4a/relu_3x3_reduce
I0718 14:20:58.749802 31466 net.cpp:454] inception_4a/relu_3x3_reduce <- inception_4a/3x3_reduce
I0718 14:20:58.749815 31466 net.cpp:397] inception_4a/relu_3x3_reduce -> inception_4a/3x3_reduce (in-place)
I0718 14:20:58.752308 31466 net.cpp:150] Setting up inception_4a/relu_3x3_reduce
I0718 14:20:58.752359 31466 net.cpp:157] Top shape: 6 96 62 62 (2214144)
I0718 14:20:58.752369 31466 net.cpp:165] Memory required for data: 4306553928
I0718 14:20:58.752385 31466 layer_factory.hpp:76] Creating layer inception_4a/3x3
I0718 14:20:58.752404 31466 net.cpp:106] Creating Layer inception_4a/3x3
I0718 14:20:58.752415 31466 net.cpp:454] inception_4a/3x3 <- inception_4a/3x3_reduce
I0718 14:20:58.752429 31466 net.cpp:411] inception_4a/3x3 -> inception_4a/3x3
I0718 14:20:58.759202 31466 net.cpp:150] Setting up inception_4a/3x3
I0718 14:20:58.759249 31466 net.cpp:157] Top shape: 6 208 62 62 (4797312)
I0718 14:20:58.759264 31466 net.cpp:165] Memory required for data: 4325743176
I0718 14:20:58.759282 31466 layer_factory.hpp:76] Creating layer inception_4a/relu_3x3
I0718 14:20:58.759305 31466 net.cpp:106] Creating Layer inception_4a/relu_3x3
I0718 14:20:58.759317 31466 net.cpp:454] inception_4a/relu_3x3 <- inception_4a/3x3
I0718 14:20:58.759330 31466 net.cpp:397] inception_4a/relu_3x3 -> inception_4a/3x3 (in-place)
I0718 14:20:58.761363 31466 net.cpp:150] Setting up inception_4a/relu_3x3
I0718 14:20:58.761414 31466 net.cpp:157] Top shape: 6 208 62 62 (4797312)
I0718 14:20:58.761425 31466 net.cpp:165] Memory required for data: 4344932424
I0718 14:20:58.761435 31466 layer_factory.hpp:76] Creating layer inception_4a/5x5_reduce
I0718 14:20:58.761479 31466 net.cpp:106] Creating Layer inception_4a/5x5_reduce
I0718 14:20:58.761493 31466 net.cpp:454] inception_4a/5x5_reduce <- pool3/3x3_s2_pool3/3x3_s2_0_split_2
I0718 14:20:58.761510 31466 net.cpp:411] inception_4a/5x5_reduce -> inception_4a/5x5_reduce
I0718 14:20:58.767449 31466 cudnn_conv_layer.cpp:194] Reallocating workspace storage: 5760
I0718 14:20:58.767535 31466 net.cpp:150] Setting up inception_4a/5x5_reduce
I0718 14:20:58.767560 31466 net.cpp:157] Top shape: 6 16 62 62 (369024)
I0718 14:20:58.767572 31466 net.cpp:165] Memory required for data: 4346408520
I0718 14:20:58.767596 31466 layer_factory.hpp:76] Creating layer inception_4a/relu_5x5_reduce
I0718 14:20:58.767617 31466 net.cpp:106] Creating Layer inception_4a/relu_5x5_reduce
I0718 14:20:58.767632 31466 net.cpp:454] inception_4a/relu_5x5_reduce <- inception_4a/5x5_reduce
I0718 14:20:58.767647 31466 net.cpp:397] inception_4a/relu_5x5_reduce -> inception_4a/5x5_reduce (in-place)
I0718 14:20:58.769649 31466 net.cpp:150] Setting up inception_4a/relu_5x5_reduce
I0718 14:20:58.769713 31466 net.cpp:157] Top shape: 6 16 62 62 (369024)
I0718 14:20:58.769733 31466 net.cpp:165] Memory required for data: 4347884616
I0718 14:20:58.769770 31466 layer_factory.hpp:76] Creating layer inception_4a/5x5
I0718 14:20:58.769798 31466 net.cpp:106] Creating Layer inception_4a/5x5
I0718 14:20:58.769815 31466 net.cpp:454] inception_4a/5x5 <- inception_4a/5x5_reduce
I0718 14:20:58.769840 31466 net.cpp:411] inception_4a/5x5 -> inception_4a/5x5
I0718 14:20:58.776242 31466 net.cpp:150] Setting up inception_4a/5x5
I0718 14:20:58.776334 31466 net.cpp:157] Top shape: 6 48 62 62 (1107072)
I0718 14:20:58.776345 31466 net.cpp:165] Memory required for data: 4352312904
I0718 14:20:58.776376 31466 layer_factory.hpp:76] Creating layer inception_4a/relu_5x5
I0718 14:20:58.776432 31466 net.cpp:106] Creating Layer inception_4a/relu_5x5
I0718 14:20:58.776449 31466 net.cpp:454] inception_4a/relu_5x5 <- inception_4a/5x5
I0718 14:20:58.776466 31466 net.cpp:397] inception_4a/relu_5x5 -> inception_4a/5x5 (in-place)
I0718 14:20:58.777199 31466 net.cpp:150] Setting up inception_4a/relu_5x5
I0718 14:20:58.777221 31466 net.cpp:157] Top shape: 6 48 62 62 (1107072)
I0718 14:20:58.777232 31466 net.cpp:165] Memory required for data: 4356741192
I0718 14:20:58.777242 31466 layer_factory.hpp:76] Creating layer inception_4a/pool
I0718 14:20:58.777257 31466 net.cpp:106] Creating Layer inception_4a/pool
I0718 14:20:58.777269 31466 net.cpp:454] inception_4a/pool <- pool3/3x3_s2_pool3/3x3_s2_0_split_3
I0718 14:20:58.777288 31466 net.cpp:411] inception_4a/pool -> inception_4a/pool
I0718 14:20:58.778538 31466 net.cpp:150] Setting up inception_4a/pool
I0718 14:20:58.778581 31466 net.cpp:157] Top shape: 6 480 62 62 (11070720)
I0718 14:20:58.778664 31466 net.cpp:165] Memory required for data: 4401024072
I0718 14:20:58.778676 31466 layer_factory.hpp:76] Creating layer inception_4a/pool_proj
I0718 14:20:58.778704 31466 net.cpp:106] Creating Layer inception_4a/pool_proj
I0718 14:20:58.778719 31466 net.cpp:454] inception_4a/pool_proj <- inception_4a/pool
I0718 14:20:58.778739 31466 net.cpp:411] inception_4a/pool_proj -> inception_4a/pool_proj
I0718 14:20:58.784656 31466 net.cpp:150] Setting up inception_4a/pool_proj
I0718 14:20:58.784736 31466 net.cpp:157] Top shape: 6 64 62 62 (1476096)
I0718 14:20:58.784749 31466 net.cpp:165] Memory required for data: 4406928456
I0718 14:20:58.784786 31466 layer_factory.hpp:76] Creating layer inception_4a/relu_pool_proj
I0718 14:20:58.784838 31466 net.cpp:106] Creating Layer inception_4a/relu_pool_proj
I0718 14:20:58.784855 31466 net.cpp:454] inception_4a/relu_pool_proj <- inception_4a/pool_proj
I0718 14:20:58.784870 31466 net.cpp:397] inception_4a/relu_pool_proj -> inception_4a/pool_proj (in-place)
I0718 14:20:58.788928 31466 net.cpp:150] Setting up inception_4a/relu_pool_proj
I0718 14:20:58.789074 31466 net.cpp:157] Top shape: 6 64 62 62 (1476096)
I0718 14:20:58.789111 31466 net.cpp:165] Memory required for data: 4412832840
I0718 14:20:58.789165 31466 layer_factory.hpp:76] Creating layer inception_4a/output
I0718 14:20:58.789219 31466 net.cpp:106] Creating Layer inception_4a/output
I0718 14:20:58.789257 31466 net.cpp:454] inception_4a/output <- inception_4a/1x1
I0718 14:20:58.789314 31466 net.cpp:454] inception_4a/output <- inception_4a/3x3
I0718 14:20:58.789356 31466 net.cpp:454] inception_4a/output <- inception_4a/5x5
I0718 14:20:58.789387 31466 net.cpp:454] inception_4a/output <- inception_4a/pool_proj
I0718 14:20:58.789427 31466 net.cpp:411] inception_4a/output -> inception_4a/output
I0718 14:20:58.789574 31466 net.cpp:150] Setting up inception_4a/output
I0718 14:20:58.789620 31466 net.cpp:157] Top shape: 6 512 62 62 (11808768)
I0718 14:20:58.789664 31466 net.cpp:165] Memory required for data: 4460067912
I0718 14:20:58.789705 31466 layer_factory.hpp:76] Creating layer inception_4a/output_inception_4a/output_0_split
I0718 14:20:58.789757 31466 net.cpp:106] Creating Layer inception_4a/output_inception_4a/output_0_split
I0718 14:20:58.789793 31466 net.cpp:454] inception_4a/output_inception_4a/output_0_split <- inception_4a/output
I0718 14:20:58.789834 31466 net.cpp:411] inception_4a/output_inception_4a/output_0_split -> inception_4a/output_inception_4a/output_0_split_0
I0718 14:20:58.789888 31466 net.cpp:411] inception_4a/output_inception_4a/output_0_split -> inception_4a/output_inception_4a/output_0_split_1
I0718 14:20:58.789958 31466 net.cpp:411] inception_4a/output_inception_4a/output_0_split -> inception_4a/output_inception_4a/output_0_split_2
I0718 14:20:58.790017 31466 net.cpp:411] inception_4a/output_inception_4a/output_0_split -> inception_4a/output_inception_4a/output_0_split_3
I0718 14:20:58.790278 31466 net.cpp:150] Setting up inception_4a/output_inception_4a/output_0_split
I0718 14:20:58.790331 31466 net.cpp:157] Top shape: 6 512 62 62 (11808768)
I0718 14:20:58.790375 31466 net.cpp:157] Top shape: 6 512 62 62 (11808768)
I0718 14:20:58.790418 31466 net.cpp:157] Top shape: 6 512 62 62 (11808768)
I0718 14:20:58.790467 31466 net.cpp:157] Top shape: 6 512 62 62 (11808768)
I0718 14:20:58.790501 31466 net.cpp:165] Memory required for data: 4649008200
I0718 14:20:58.790539 31466 layer_factory.hpp:76] Creating layer inception_4b/1x1
I0718 14:20:58.790642 31466 net.cpp:106] Creating Layer inception_4b/1x1
I0718 14:20:58.790681 31466 net.cpp:454] inception_4b/1x1 <- inception_4a/output_inception_4a/output_0_split_0
I0718 14:20:58.790740 31466 net.cpp:411] inception_4b/1x1 -> inception_4b/1x1
I0718 14:20:58.796990 31466 net.cpp:150] Setting up inception_4b/1x1
I0718 14:20:58.797158 31466 net.cpp:157] Top shape: 6 160 62 62 (3690240)
I0718 14:20:58.797206 31466 net.cpp:165] Memory required for data: 4663769160
I0718 14:20:58.797271 31466 layer_factory.hpp:76] Creating layer inception_4b/relu_1x1
I0718 14:20:58.797488 31466 net.cpp:106] Creating Layer inception_4b/relu_1x1
I0718 14:20:58.797544 31466 net.cpp:454] inception_4b/relu_1x1 <- inception_4b/1x1
I0718 14:20:58.797596 31466 net.cpp:397] inception_4b/relu_1x1 -> inception_4b/1x1 (in-place)
I0718 14:20:58.798987 31466 net.cpp:150] Setting up inception_4b/relu_1x1
I0718 14:20:58.799065 31466 net.cpp:157] Top shape: 6 160 62 62 (3690240)
I0718 14:20:58.799099 31466 net.cpp:165] Memory required for data: 4678530120
I0718 14:20:58.799139 31466 layer_factory.hpp:76] Creating layer inception_4b/3x3_reduce
I0718 14:20:58.799186 31466 net.cpp:106] Creating Layer inception_4b/3x3_reduce
I0718 14:20:58.799232 31466 net.cpp:454] inception_4b/3x3_reduce <- inception_4a/output_inception_4a/output_0_split_1
I0718 14:20:58.799293 31466 net.cpp:411] inception_4b/3x3_reduce -> inception_4b/3x3_reduce
I0718 14:20:58.805814 31466 cudnn_conv_layer.cpp:194] Reallocating workspace storage: 6144
I0718 14:20:58.805982 31466 net.cpp:150] Setting up inception_4b/3x3_reduce
I0718 14:20:58.806035 31466 net.cpp:157] Top shape: 6 112 62 62 (2583168)
I0718 14:20:58.806058 31466 net.cpp:165] Memory required for data: 4688862792
I0718 14:20:58.806092 31466 layer_factory.hpp:76] Creating layer inception_4b/relu_3x3_reduce
I0718 14:20:58.806133 31466 net.cpp:106] Creating Layer inception_4b/relu_3x3_reduce
I0718 14:20:58.806164 31466 net.cpp:454] inception_4b/relu_3x3_reduce <- inception_4b/3x3_reduce
I0718 14:20:58.806192 31466 net.cpp:397] inception_4b/relu_3x3_reduce -> inception_4b/3x3_reduce (in-place)
I0718 14:20:58.807795 31466 net.cpp:150] Setting up inception_4b/relu_3x3_reduce
I0718 14:20:58.807859 31466 net.cpp:157] Top shape: 6 112 62 62 (2583168)
I0718 14:20:58.807883 31466 net.cpp:165] Memory required for data: 4699195464
I0718 14:20:58.807917 31466 layer_factory.hpp:76] Creating layer inception_4b/3x3
I0718 14:20:58.807970 31466 net.cpp:106] Creating Layer inception_4b/3x3
I0718 14:20:58.807992 31466 net.cpp:454] inception_4b/3x3 <- inception_4b/3x3_reduce
I0718 14:20:58.808022 31466 net.cpp:411] inception_4b/3x3 -> inception_4b/3x3
I0718 14:20:58.819147 31466 cudnn_conv_layer.cpp:194] Reallocating workspace storage: 12096
I0718 14:20:58.819277 31466 net.cpp:150] Setting up inception_4b/3x3
I0718 14:20:58.819314 31466 net.cpp:157] Top shape: 6 224 62 62 (5166336)
I0718 14:20:58.819331 31466 net.cpp:165] Memory required for data: 4719860808
I0718 14:20:58.819358 31466 layer_factory.hpp:76] Creating layer inception_4b/relu_3x3
I0718 14:20:58.819408 31466 net.cpp:106] Creating Layer inception_4b/relu_3x3
I0718 14:20:58.819433 31466 net.cpp:454] inception_4b/relu_3x3 <- inception_4b/3x3
I0718 14:20:58.819455 31466 net.cpp:397] inception_4b/relu_3x3 -> inception_4b/3x3 (in-place)
I0718 14:20:58.822089 31466 net.cpp:150] Setting up inception_4b/relu_3x3
I0718 14:20:58.822193 31466 net.cpp:157] Top shape: 6 224 62 62 (5166336)
I0718 14:20:58.822216 31466 net.cpp:165] Memory required for data: 4740526152
I0718 14:20:58.822247 31466 layer_factory.hpp:76] Creating layer inception_4b/5x5_reduce
I0718 14:20:58.822304 31466 net.cpp:106] Creating Layer inception_4b/5x5_reduce
I0718 14:20:58.822335 31466 net.cpp:454] inception_4b/5x5_reduce <- inception_4a/output_inception_4a/output_0_split_2
I0718 14:20:58.822365 31466 net.cpp:411] inception_4b/5x5_reduce -> inception_4b/5x5_reduce
I0718 14:20:58.829254 31466 net.cpp:150] Setting up inception_4b/5x5_reduce
I0718 14:20:58.829346 31466 net.cpp:157] Top shape: 6 24 62 62 (553536)
I0718 14:20:58.829365 31466 net.cpp:165] Memory required for data: 4742740296
I0718 14:20:58.829392 31466 layer_factory.hpp:76] Creating layer inception_4b/relu_5x5_reduce
I0718 14:20:58.829447 31466 net.cpp:106] Creating Layer inception_4b/relu_5x5_reduce
I0718 14:20:58.829469 31466 net.cpp:454] inception_4b/relu_5x5_reduce <- inception_4b/5x5_reduce
I0718 14:20:58.829493 31466 net.cpp:397] inception_4b/relu_5x5_reduce -> inception_4b/5x5_reduce (in-place)
I0718 14:20:58.832643 31466 net.cpp:150] Setting up inception_4b/relu_5x5_reduce
I0718 14:20:58.832801 31466 net.cpp:157] Top shape: 6 24 62 62 (553536)
I0718 14:20:58.832826 31466 net.cpp:165] Memory required for data: 4744954440
I0718 14:20:58.832854 31466 layer_factory.hpp:76] Creating layer inception_4b/5x5
I0718 14:20:58.832922 31466 net.cpp:106] Creating Layer inception_4b/5x5
I0718 14:20:58.832944 31466 net.cpp:454] inception_4b/5x5 <- inception_4b/5x5_reduce
I0718 14:20:58.832972 31466 net.cpp:411] inception_4b/5x5 -> inception_4b/5x5
I0718 14:20:58.839926 31466 net.cpp:150] Setting up inception_4b/5x5
I0718 14:20:58.840040 31466 net.cpp:157] Top shape: 6 64 62 62 (1476096)
I0718 14:20:58.840057 31466 net.cpp:165] Memory required for data: 4750858824
I0718 14:20:58.840085 31466 layer_factory.hpp:76] Creating layer inception_4b/relu_5x5
I0718 14:20:58.840118 31466 net.cpp:106] Creating Layer inception_4b/relu_5x5
I0718 14:20:58.840138 31466 net.cpp:454] inception_4b/relu_5x5 <- inception_4b/5x5
I0718 14:20:58.840160 31466 net.cpp:397] inception_4b/relu_5x5 -> inception_4b/5x5 (in-place)
I0718 14:20:58.842696 31466 net.cpp:150] Setting up inception_4b/relu_5x5
I0718 14:20:58.842777 31466 net.cpp:157] Top shape: 6 64 62 62 (1476096)
I0718 14:20:58.842795 31466 net.cpp:165] Memory required for data: 4756763208
I0718 14:20:58.842819 31466 layer_factory.hpp:76] Creating layer inception_4b/pool
I0718 14:20:58.842867 31466 net.cpp:106] Creating Layer inception_4b/pool
I0718 14:20:58.842896 31466 net.cpp:454] inception_4b/pool <- inception_4a/output_inception_4a/output_0_split_3
I0718 14:20:58.842923 31466 net.cpp:411] inception_4b/pool -> inception_4b/pool
I0718 14:20:58.843977 31466 net.cpp:150] Setting up inception_4b/pool
I0718 14:20:58.844039 31466 net.cpp:157] Top shape: 6 512 62 62 (11808768)
I0718 14:20:58.844054 31466 net.cpp:165] Memory required for data: 4803998280
I0718 14:20:58.844080 31466 layer_factory.hpp:76] Creating layer inception_4b/pool_proj
I0718 14:20:58.844131 31466 net.cpp:106] Creating Layer inception_4b/pool_proj
I0718 14:20:58.844166 31466 net.cpp:454] inception_4b/pool_proj <- inception_4b/pool
I0718 14:20:58.844218 31466 net.cpp:411] inception_4b/pool_proj -> inception_4b/pool_proj
I0718 14:20:58.850119 31466 net.cpp:150] Setting up inception_4b/pool_proj
I0718 14:20:58.850217 31466 net.cpp:157] Top shape: 6 64 62 62 (1476096)
I0718 14:20:58.850236 31466 net.cpp:165] Memory required for data: 4809902664
I0718 14:20:58.850286 31466 layer_factory.hpp:76] Creating layer inception_4b/relu_pool_proj
I0718 14:20:58.850334 31466 net.cpp:106] Creating Layer inception_4b/relu_pool_proj
I0718 14:20:58.850365 31466 net.cpp:454] inception_4b/relu_pool_proj <- inception_4b/pool_proj
I0718 14:20:58.850404 31466 net.cpp:397] inception_4b/relu_pool_proj -> inception_4b/pool_proj (in-place)
I0718 14:20:58.851810 31466 net.cpp:150] Setting up inception_4b/relu_pool_proj
I0718 14:20:58.851852 31466 net.cpp:157] Top shape: 6 64 62 62 (1476096)
I0718 14:20:58.851867 31466 net.cpp:165] Memory required for data: 4815807048
I0718 14:20:58.851882 31466 layer_factory.hpp:76] Creating layer inception_4b/output
I0718 14:20:58.851915 31466 net.cpp:106] Creating Layer inception_4b/output
I0718 14:20:58.851932 31466 net.cpp:454] inception_4b/output <- inception_4b/1x1
I0718 14:20:58.851953 31466 net.cpp:454] inception_4b/output <- inception_4b/3x3
I0718 14:20:58.851972 31466 net.cpp:454] inception_4b/output <- inception_4b/5x5
I0718 14:20:58.851991 31466 net.cpp:454] inception_4b/output <- inception_4b/pool_proj
I0718 14:20:58.852012 31466 net.cpp:411] inception_4b/output -> inception_4b/output
I0718 14:20:58.852087 31466 net.cpp:150] Setting up inception_4b/output
I0718 14:20:58.852111 31466 net.cpp:157] Top shape: 6 512 62 62 (11808768)
I0718 14:20:58.852125 31466 net.cpp:165] Memory required for data: 4863042120
I0718 14:20:58.852140 31466 layer_factory.hpp:76] Creating layer inception_4b/output_inception_4b/output_0_split
I0718 14:20:58.852169 31466 net.cpp:106] Creating Layer inception_4b/output_inception_4b/output_0_split
I0718 14:20:58.852186 31466 net.cpp:454] inception_4b/output_inception_4b/output_0_split <- inception_4b/output
I0718 14:20:58.852246 31466 net.cpp:411] inception_4b/output_inception_4b/output_0_split -> inception_4b/output_inception_4b/output_0_split_0
I0718 14:20:58.852267 31466 net.cpp:411] inception_4b/output_inception_4b/output_0_split -> inception_4b/output_inception_4b/output_0_split_1
I0718 14:20:58.852291 31466 net.cpp:411] inception_4b/output_inception_4b/output_0_split -> inception_4b/output_inception_4b/output_0_split_2
I0718 14:20:58.852310 31466 net.cpp:411] inception_4b/output_inception_4b/output_0_split -> inception_4b/output_inception_4b/output_0_split_3
I0718 14:20:58.852458 31466 net.cpp:150] Setting up inception_4b/output_inception_4b/output_0_split
I0718 14:20:58.852486 31466 net.cpp:157] Top shape: 6 512 62 62 (11808768)
I0718 14:20:58.852510 31466 net.cpp:157] Top shape: 6 512 62 62 (11808768)
I0718 14:20:58.852530 31466 net.cpp:157] Top shape: 6 512 62 62 (11808768)
I0718 14:20:58.852552 31466 net.cpp:157] Top shape: 6 512 62 62 (11808768)
I0718 14:20:58.852573 31466 net.cpp:165] Memory required for data: 5051982408
I0718 14:20:58.852594 31466 layer_factory.hpp:76] Creating layer inception_4c/1x1
I0718 14:20:58.852632 31466 net.cpp:106] Creating Layer inception_4c/1x1
I0718 14:20:58.852655 31466 net.cpp:454] inception_4c/1x1 <- inception_4b/output_inception_4b/output_0_split_0
I0718 14:20:58.852684 31466 net.cpp:411] inception_4c/1x1 -> inception_4c/1x1
I0718 14:20:58.861613 31466 cudnn_conv_layer.cpp:194] Reallocating workspace storage: 6144
I0718 14:20:58.861752 31466 net.cpp:150] Setting up inception_4c/1x1
I0718 14:20:58.861788 31466 net.cpp:157] Top shape: 6 128 62 62 (2952192)
I0718 14:20:58.861809 31466 net.cpp:165] Memory required for data: 5063791176
I0718 14:20:58.861858 31466 layer_factory.hpp:76] Creating layer inception_4c/relu_1x1
I0718 14:20:58.861896 31466 net.cpp:106] Creating Layer inception_4c/relu_1x1
I0718 14:20:58.861920 31466 net.cpp:454] inception_4c/relu_1x1 <- inception_4c/1x1
I0718 14:20:58.861943 31466 net.cpp:397] inception_4c/relu_1x1 -> inception_4c/1x1 (in-place)
I0718 14:20:58.863911 31466 net.cpp:150] Setting up inception_4c/relu_1x1
I0718 14:20:58.864013 31466 net.cpp:157] Top shape: 6 128 62 62 (2952192)
I0718 14:20:58.864029 31466 net.cpp:165] Memory required for data: 5075599944
I0718 14:20:58.864048 31466 layer_factory.hpp:76] Creating layer inception_4c/3x3_reduce
I0718 14:20:58.864107 31466 net.cpp:106] Creating Layer inception_4c/3x3_reduce
I0718 14:20:58.864130 31466 net.cpp:454] inception_4c/3x3_reduce <- inception_4b/output_inception_4b/output_0_split_1
I0718 14:20:58.864156 31466 net.cpp:411] inception_4c/3x3_reduce -> inception_4c/3x3_reduce
I0718 14:20:58.874209 31466 cudnn_conv_layer.cpp:194] Reallocating workspace storage: 6144
I0718 14:20:58.874351 31466 net.cpp:150] Setting up inception_4c/3x3_reduce
I0718 14:20:58.874388 31466 net.cpp:157] Top shape: 6 128 62 62 (2952192)
I0718 14:20:58.874410 31466 net.cpp:165] Memory required for data: 5087408712
I0718 14:20:58.874447 31466 layer_factory.hpp:76] Creating layer inception_4c/relu_3x3_reduce
I0718 14:20:58.874502 31466 net.cpp:106] Creating Layer inception_4c/relu_3x3_reduce
I0718 14:20:58.874541 31466 net.cpp:454] inception_4c/relu_3x3_reduce <- inception_4c/3x3_reduce
I0718 14:20:58.874582 31466 net.cpp:397] inception_4c/relu_3x3_reduce -> inception_4c/3x3_reduce (in-place)
I0718 14:20:58.875819 31466 net.cpp:150] Setting up inception_4c/relu_3x3_reduce
I0718 14:20:58.875901 31466 net.cpp:157] Top shape: 6 128 62 62 (2952192)
I0718 14:20:58.875926 31466 net.cpp:165] Memory required for data: 5099217480
I0718 14:20:58.875949 31466 layer_factory.hpp:76] Creating layer inception_4c/3x3
I0718 14:20:58.876055 31466 net.cpp:106] Creating Layer inception_4c/3x3
I0718 14:20:58.876093 31466 net.cpp:454] inception_4c/3x3 <- inception_4c/3x3_reduce
I0718 14:20:58.876132 31466 net.cpp:411] inception_4c/3x3 -> inception_4c/3x3
I0718 14:20:58.886875 31466 net.cpp:150] Setting up inception_4c/3x3
I0718 14:20:58.886991 31466 net.cpp:157] Top shape: 6 256 62 62 (5904384)
I0718 14:20:58.887074 31466 net.cpp:165] Memory required for data: 5122835016
I0718 14:20:58.887127 31466 layer_factory.hpp:76] Creating layer inception_4c/relu_3x3
I0718 14:20:58.887183 31466 net.cpp:106] Creating Layer inception_4c/relu_3x3
I0718 14:20:58.887214 31466 net.cpp:454] inception_4c/relu_3x3 <- inception_4c/3x3
I0718 14:20:58.887243 31466 net.cpp:397] inception_4c/relu_3x3 -> inception_4c/3x3 (in-place)
I0718 14:20:58.888388 31466 net.cpp:150] Setting up inception_4c/relu_3x3
I0718 14:20:58.888485 31466 net.cpp:157] Top shape: 6 256 62 62 (5904384)
I0718 14:20:58.888514 31466 net.cpp:165] Memory required for data: 5146452552
I0718 14:20:58.888550 31466 layer_factory.hpp:76] Creating layer inception_4c/5x5_reduce
I0718 14:20:58.888612 31466 net.cpp:106] Creating Layer inception_4c/5x5_reduce
I0718 14:20:58.888639 31466 net.cpp:454] inception_4c/5x5_reduce <- inception_4b/output_inception_4b/output_0_split_2
I0718 14:20:58.888681 31466 net.cpp:411] inception_4c/5x5_reduce -> inception_4c/5x5_reduce
I0718 14:20:58.895100 31466 net.cpp:150] Setting up inception_4c/5x5_reduce
I0718 14:20:58.895233 31466 net.cpp:157] Top shape: 6 24 62 62 (553536)
I0718 14:20:58.895256 31466 net.cpp:165] Memory required for data: 5148666696
I0718 14:20:58.895300 31466 layer_factory.hpp:76] Creating layer inception_4c/relu_5x5_reduce
I0718 14:20:58.895334 31466 net.cpp:106] Creating Layer inception_4c/relu_5x5_reduce
I0718 14:20:58.895364 31466 net.cpp:454] inception_4c/relu_5x5_reduce <- inception_4c/5x5_reduce
I0718 14:20:58.895407 31466 net.cpp:397] inception_4c/relu_5x5_reduce -> inception_4c/5x5_reduce (in-place)
I0718 14:20:58.897327 31466 net.cpp:150] Setting up inception_4c/relu_5x5_reduce
I0718 14:20:58.897393 31466 net.cpp:157] Top shape: 6 24 62 62 (553536)
I0718 14:20:58.897413 31466 net.cpp:165] Memory required for data: 5150880840
I0718 14:20:58.897434 31466 layer_factory.hpp:76] Creating layer inception_4c/5x5
I0718 14:20:58.897496 31466 net.cpp:106] Creating Layer inception_4c/5x5
I0718 14:20:58.897526 31466 net.cpp:454] inception_4c/5x5 <- inception_4c/5x5_reduce
I0718 14:20:58.897559 31466 net.cpp:411] inception_4c/5x5 -> inception_4c/5x5
I0718 14:20:58.903687 31466 net.cpp:150] Setting up inception_4c/5x5
I0718 14:20:58.903775 31466 net.cpp:157] Top shape: 6 64 62 62 (1476096)
I0718 14:20:58.903795 31466 net.cpp:165] Memory required for data: 5156785224
I0718 14:20:58.903864 31466 layer_factory.hpp:76] Creating layer inception_4c/relu_5x5
I0718 14:20:58.903898 31466 net.cpp:106] Creating Layer inception_4c/relu_5x5
I0718 14:20:58.903929 31466 net.cpp:454] inception_4c/relu_5x5 <- inception_4c/5x5
I0718 14:20:58.903970 31466 net.cpp:397] inception_4c/relu_5x5 -> inception_4c/5x5 (in-place)
I0718 14:20:58.905812 31466 net.cpp:150] Setting up inception_4c/relu_5x5
I0718 14:20:58.905906 31466 net.cpp:157] Top shape: 6 64 62 62 (1476096)
I0718 14:20:58.905930 31466 net.cpp:165] Memory required for data: 5162689608
I0718 14:20:58.905952 31466 layer_factory.hpp:76] Creating layer inception_4c/pool
I0718 14:20:58.905985 31466 net.cpp:106] Creating Layer inception_4c/pool
I0718 14:20:58.906014 31466 net.cpp:454] inception_4c/pool <- inception_4b/output_inception_4b/output_0_split_3
I0718 14:20:58.906064 31466 net.cpp:411] inception_4c/pool -> inception_4c/pool
I0718 14:20:58.908416 31466 net.cpp:150] Setting up inception_4c/pool
I0718 14:20:58.908500 31466 net.cpp:157] Top shape: 6 512 62 62 (11808768)
I0718 14:20:58.908525 31466 net.cpp:165] Memory required for data: 5209924680
I0718 14:20:58.908548 31466 layer_factory.hpp:76] Creating layer inception_4c/pool_proj
I0718 14:20:58.908607 31466 net.cpp:106] Creating Layer inception_4c/pool_proj
I0718 14:20:58.908637 31466 net.cpp:454] inception_4c/pool_proj <- inception_4c/pool
I0718 14:20:58.908669 31466 net.cpp:411] inception_4c/pool_proj -> inception_4c/pool_proj
I0718 14:20:58.916010 31466 net.cpp:150] Setting up inception_4c/pool_proj
I0718 14:20:58.916157 31466 net.cpp:157] Top shape: 6 64 62 62 (1476096)
I0718 14:20:58.916188 31466 net.cpp:165] Memory required for data: 5215829064
I0718 14:20:58.916337 31466 layer_factory.hpp:76] Creating layer inception_4c/relu_pool_proj
I0718 14:20:58.916389 31466 net.cpp:106] Creating Layer inception_4c/relu_pool_proj
I0718 14:20:58.916420 31466 net.cpp:454] inception_4c/relu_pool_proj <- inception_4c/pool_proj
I0718 14:20:58.916447 31466 net.cpp:397] inception_4c/relu_pool_proj -> inception_4c/pool_proj (in-place)
I0718 14:20:58.917799 31466 net.cpp:150] Setting up inception_4c/relu_pool_proj
I0718 14:20:58.917892 31466 net.cpp:157] Top shape: 6 64 62 62 (1476096)
I0718 14:20:58.917913 31466 net.cpp:165] Memory required for data: 5221733448
I0718 14:20:58.917963 31466 layer_factory.hpp:76] Creating layer inception_4c/output
I0718 14:20:58.918009 31466 net.cpp:106] Creating Layer inception_4c/output
I0718 14:20:58.918045 31466 net.cpp:454] inception_4c/output <- inception_4c/1x1
I0718 14:20:58.918076 31466 net.cpp:454] inception_4c/output <- inception_4c/3x3
I0718 14:20:58.918107 31466 net.cpp:454] inception_4c/output <- inception_4c/5x5
I0718 14:20:58.918136 31466 net.cpp:454] inception_4c/output <- inception_4c/pool_proj
I0718 14:20:58.918171 31466 net.cpp:411] inception_4c/output -> inception_4c/output
I0718 14:20:58.918398 31466 net.cpp:150] Setting up inception_4c/output
I0718 14:20:58.918443 31466 net.cpp:157] Top shape: 6 512 62 62 (11808768)
I0718 14:20:58.918467 31466 net.cpp:165] Memory required for data: 5268968520
I0718 14:20:58.918490 31466 layer_factory.hpp:76] Creating layer inception_4c/output_inception_4c/output_0_split
I0718 14:20:58.918524 31466 net.cpp:106] Creating Layer inception_4c/output_inception_4c/output_0_split
I0718 14:20:58.918545 31466 net.cpp:454] inception_4c/output_inception_4c/output_0_split <- inception_4c/output
I0718 14:20:58.918577 31466 net.cpp:411] inception_4c/output_inception_4c/output_0_split -> inception_4c/output_inception_4c/output_0_split_0
I0718 14:20:58.918609 31466 net.cpp:411] inception_4c/output_inception_4c/output_0_split -> inception_4c/output_inception_4c/output_0_split_1
I0718 14:20:58.918653 31466 net.cpp:411] inception_4c/output_inception_4c/output_0_split -> inception_4c/output_inception_4c/output_0_split_2
I0718 14:20:58.918684 31466 net.cpp:411] inception_4c/output_inception_4c/output_0_split -> inception_4c/output_inception_4c/output_0_split_3
I0718 14:20:58.918983 31466 net.cpp:150] Setting up inception_4c/output_inception_4c/output_0_split
I0718 14:20:58.919019 31466 net.cpp:157] Top shape: 6 512 62 62 (11808768)
I0718 14:20:58.919039 31466 net.cpp:157] Top shape: 6 512 62 62 (11808768)
I0718 14:20:58.919057 31466 net.cpp:157] Top shape: 6 512 62 62 (11808768)
I0718 14:20:58.919081 31466 net.cpp:157] Top shape: 6 512 62 62 (11808768)
I0718 14:20:58.919103 31466 net.cpp:165] Memory required for data: 5457908808
I0718 14:20:58.919127 31466 layer_factory.hpp:76] Creating layer inception_4d/1x1
I0718 14:20:58.919183 31466 net.cpp:106] Creating Layer inception_4d/1x1
I0718 14:20:58.919205 31466 net.cpp:454] inception_4d/1x1 <- inception_4c/output_inception_4c/output_0_split_0
I0718 14:20:58.919235 31466 net.cpp:411] inception_4d/1x1 -> inception_4d/1x1
I0718 14:20:58.925318 31466 cudnn_conv_layer.cpp:194] Reallocating workspace storage: 6144
I0718 14:20:58.925474 31466 net.cpp:150] Setting up inception_4d/1x1
I0718 14:20:58.925510 31466 net.cpp:157] Top shape: 6 112 62 62 (2583168)
I0718 14:20:58.925546 31466 net.cpp:165] Memory required for data: 5468241480
I0718 14:20:58.925581 31466 layer_factory.hpp:76] Creating layer inception_4d/relu_1x1
I0718 14:20:58.925617 31466 net.cpp:106] Creating Layer inception_4d/relu_1x1
I0718 14:20:58.925643 31466 net.cpp:454] inception_4d/relu_1x1 <- inception_4d/1x1
I0718 14:20:58.925674 31466 net.cpp:397] inception_4d/relu_1x1 -> inception_4d/1x1 (in-place)
I0718 14:20:58.927662 31466 net.cpp:150] Setting up inception_4d/relu_1x1
I0718 14:20:58.927805 31466 net.cpp:157] Top shape: 6 112 62 62 (2583168)
I0718 14:20:58.927834 31466 net.cpp:165] Memory required for data: 5478574152
I0718 14:20:58.927902 31466 layer_factory.hpp:76] Creating layer inception_4d/3x3_reduce
I0718 14:20:58.928020 31466 net.cpp:106] Creating Layer inception_4d/3x3_reduce
I0718 14:20:58.928051 31466 net.cpp:454] inception_4d/3x3_reduce <- inception_4c/output_inception_4c/output_0_split_1
I0718 14:20:58.928091 31466 net.cpp:411] inception_4d/3x3_reduce -> inception_4d/3x3_reduce
I0718 14:20:58.935571 31466 cudnn_conv_layer.cpp:194] Reallocating workspace storage: 6144
I0718 14:20:58.935701 31466 net.cpp:150] Setting up inception_4d/3x3_reduce
I0718 14:20:58.935736 31466 net.cpp:157] Top shape: 6 144 62 62 (3321216)
I0718 14:20:58.935761 31466 net.cpp:165] Memory required for data: 5491859016
I0718 14:20:58.935801 31466 layer_factory.hpp:76] Creating layer inception_4d/relu_3x3_reduce
I0718 14:20:58.935869 31466 net.cpp:106] Creating Layer inception_4d/relu_3x3_reduce
I0718 14:20:58.935900 31466 net.cpp:454] inception_4d/relu_3x3_reduce <- inception_4d/3x3_reduce
I0718 14:20:58.935941 31466 net.cpp:397] inception_4d/relu_3x3_reduce -> inception_4d/3x3_reduce (in-place)
I0718 14:20:58.937891 31466 net.cpp:150] Setting up inception_4d/relu_3x3_reduce
I0718 14:20:58.937961 31466 net.cpp:157] Top shape: 6 144 62 62 (3321216)
I0718 14:20:58.937993 31466 net.cpp:165] Memory required for data: 5505143880
I0718 14:20:58.938015 31466 layer_factory.hpp:76] Creating layer inception_4d/3x3
I0718 14:20:58.938055 31466 net.cpp:106] Creating Layer inception_4d/3x3
I0718 14:20:58.938087 31466 net.cpp:454] inception_4d/3x3 <- inception_4d/3x3_reduce
I0718 14:20:58.938122 31466 net.cpp:411] inception_4d/3x3 -> inception_4d/3x3
I0718 14:20:58.951860 31466 cudnn_conv_layer.cpp:194] Reallocating workspace storage: 15552
I0718 14:20:58.951997 31466 net.cpp:150] Setting up inception_4d/3x3
I0718 14:20:58.952040 31466 net.cpp:157] Top shape: 6 288 62 62 (6642432)
I0718 14:20:58.952062 31466 net.cpp:165] Memory required for data: 5531713608
I0718 14:20:58.952098 31466 layer_factory.hpp:76] Creating layer inception_4d/relu_3x3
I0718 14:20:58.952145 31466 net.cpp:106] Creating Layer inception_4d/relu_3x3
I0718 14:20:58.952178 31466 net.cpp:454] inception_4d/relu_3x3 <- inception_4d/3x3
I0718 14:20:58.952213 31466 net.cpp:397] inception_4d/relu_3x3 -> inception_4d/3x3 (in-place)
I0718 14:20:58.954306 31466 net.cpp:150] Setting up inception_4d/relu_3x3
I0718 14:20:58.954378 31466 net.cpp:157] Top shape: 6 288 62 62 (6642432)
I0718 14:20:58.954394 31466 net.cpp:165] Memory required for data: 5558283336
I0718 14:20:58.954430 31466 layer_factory.hpp:76] Creating layer inception_4d/5x5_reduce
I0718 14:20:58.954484 31466 net.cpp:106] Creating Layer inception_4d/5x5_reduce
I0718 14:20:58.954509 31466 net.cpp:454] inception_4d/5x5_reduce <- inception_4c/output_inception_4c/output_0_split_2
I0718 14:20:58.954533 31466 net.cpp:411] inception_4d/5x5_reduce -> inception_4d/5x5_reduce
I0718 14:20:58.960979 31466 net.cpp:150] Setting up inception_4d/5x5_reduce
I0718 14:20:58.961104 31466 net.cpp:157] Top shape: 6 32 62 62 (738048)
I0718 14:20:58.961120 31466 net.cpp:165] Memory required for data: 5561235528
I0718 14:20:58.961166 31466 layer_factory.hpp:76] Creating layer inception_4d/relu_5x5_reduce
I0718 14:20:58.961218 31466 net.cpp:106] Creating Layer inception_4d/relu_5x5_reduce
I0718 14:20:58.961259 31466 net.cpp:454] inception_4d/relu_5x5_reduce <- inception_4d/5x5_reduce
I0718 14:20:58.961285 31466 net.cpp:397] inception_4d/relu_5x5_reduce -> inception_4d/5x5_reduce (in-place)
I0718 14:20:58.963601 31466 net.cpp:150] Setting up inception_4d/relu_5x5_reduce
I0718 14:20:58.963630 31466 net.cpp:157] Top shape: 6 32 62 62 (738048)
I0718 14:20:58.963645 31466 net.cpp:165] Memory required for data: 5564187720
I0718 14:20:58.963660 31466 layer_factory.hpp:76] Creating layer inception_4d/5x5
I0718 14:20:58.963686 31466 net.cpp:106] Creating Layer inception_4d/5x5
I0718 14:20:58.963707 31466 net.cpp:454] inception_4d/5x5 <- inception_4d/5x5_reduce
I0718 14:20:58.963733 31466 net.cpp:411] inception_4d/5x5 -> inception_4d/5x5
I0718 14:20:58.971719 31466 cudnn_conv_layer.cpp:194] Reallocating workspace storage: 9600
I0718 14:20:58.971814 31466 net.cpp:150] Setting up inception_4d/5x5
I0718 14:20:58.971891 31466 net.cpp:157] Top shape: 6 64 62 62 (1476096)
I0718 14:20:58.971915 31466 net.cpp:165] Memory required for data: 5570092104
I0718 14:20:58.971946 31466 layer_factory.hpp:76] Creating layer inception_4d/relu_5x5
I0718 14:20:58.972002 31466 net.cpp:106] Creating Layer inception_4d/relu_5x5
I0718 14:20:58.972030 31466 net.cpp:454] inception_4d/relu_5x5 <- inception_4d/5x5
I0718 14:20:58.972061 31466 net.cpp:397] inception_4d/relu_5x5 -> inception_4d/5x5 (in-place)
I0718 14:20:58.973301 31466 net.cpp:150] Setting up inception_4d/relu_5x5
I0718 14:20:58.973330 31466 net.cpp:157] Top shape: 6 64 62 62 (1476096)
I0718 14:20:58.973343 31466 net.cpp:165] Memory required for data: 5575996488
I0718 14:20:58.973369 31466 layer_factory.hpp:76] Creating layer inception_4d/pool
I0718 14:20:58.973392 31466 net.cpp:106] Creating Layer inception_4d/pool
I0718 14:20:58.973405 31466 net.cpp:454] inception_4d/pool <- inception_4c/output_inception_4c/output_0_split_3
I0718 14:20:58.973426 31466 net.cpp:411] inception_4d/pool -> inception_4d/pool
I0718 14:20:58.974041 31466 net.cpp:150] Setting up inception_4d/pool
I0718 14:20:58.974073 31466 net.cpp:157] Top shape: 6 512 62 62 (11808768)
I0718 14:20:58.974089 31466 net.cpp:165] Memory required for data: 5623231560
I0718 14:20:58.974105 31466 layer_factory.hpp:76] Creating layer inception_4d/pool_proj
I0718 14:20:58.974140 31466 net.cpp:106] Creating Layer inception_4d/pool_proj
I0718 14:20:58.974159 31466 net.cpp:454] inception_4d/pool_proj <- inception_4d/pool
I0718 14:20:58.974185 31466 net.cpp:411] inception_4d/pool_proj -> inception_4d/pool_proj
I0718 14:20:58.979486 31466 net.cpp:150] Setting up inception_4d/pool_proj
I0718 14:20:58.979527 31466 net.cpp:157] Top shape: 6 64 62 62 (1476096)
I0718 14:20:58.979547 31466 net.cpp:165] Memory required for data: 5629135944
I0718 14:20:58.979575 31466 layer_factory.hpp:76] Creating layer inception_4d/relu_pool_proj
I0718 14:20:58.979606 31466 net.cpp:106] Creating Layer inception_4d/relu_pool_proj
I0718 14:20:58.979626 31466 net.cpp:454] inception_4d/relu_pool_proj <- inception_4d/pool_proj
I0718 14:20:58.979646 31466 net.cpp:397] inception_4d/relu_pool_proj -> inception_4d/pool_proj (in-place)
I0718 14:20:58.981644 31466 net.cpp:150] Setting up inception_4d/relu_pool_proj
I0718 14:20:58.981683 31466 net.cpp:157] Top shape: 6 64 62 62 (1476096)
I0718 14:20:58.981709 31466 net.cpp:165] Memory required for data: 5635040328
I0718 14:20:58.981727 31466 layer_factory.hpp:76] Creating layer inception_4d/output
I0718 14:20:58.981780 31466 net.cpp:106] Creating Layer inception_4d/output
I0718 14:20:58.981811 31466 net.cpp:454] inception_4d/output <- inception_4d/1x1
I0718 14:20:58.981833 31466 net.cpp:454] inception_4d/output <- inception_4d/3x3
I0718 14:20:58.981860 31466 net.cpp:454] inception_4d/output <- inception_4d/5x5
I0718 14:20:58.981884 31466 net.cpp:454] inception_4d/output <- inception_4d/pool_proj
I0718 14:20:58.981907 31466 net.cpp:411] inception_4d/output -> inception_4d/output
I0718 14:20:58.981998 31466 net.cpp:150] Setting up inception_4d/output
I0718 14:20:58.982034 31466 net.cpp:157] Top shape: 6 528 62 62 (12177792)
I0718 14:20:58.982053 31466 net.cpp:165] Memory required for data: 5683751496
I0718 14:20:58.982065 31466 layer_factory.hpp:76] Creating layer inception_4d/output_inception_4d/output_0_split
I0718 14:20:58.982095 31466 net.cpp:106] Creating Layer inception_4d/output_inception_4d/output_0_split
I0718 14:20:58.982113 31466 net.cpp:454] inception_4d/output_inception_4d/output_0_split <- inception_4d/output
I0718 14:20:58.982147 31466 net.cpp:411] inception_4d/output_inception_4d/output_0_split -> inception_4d/output_inception_4d/output_0_split_0
I0718 14:20:58.982183 31466 net.cpp:411] inception_4d/output_inception_4d/output_0_split -> inception_4d/output_inception_4d/output_0_split_1
I0718 14:20:58.982218 31466 net.cpp:411] inception_4d/output_inception_4d/output_0_split -> inception_4d/output_inception_4d/output_0_split_2
I0718 14:20:58.982245 31466 net.cpp:411] inception_4d/output_inception_4d/output_0_split -> inception_4d/output_inception_4d/output_0_split_3
I0718 14:20:58.982465 31466 net.cpp:150] Setting up inception_4d/output_inception_4d/output_0_split
I0718 14:20:58.982503 31466 net.cpp:157] Top shape: 6 528 62 62 (12177792)
I0718 14:20:58.982527 31466 net.cpp:157] Top shape: 6 528 62 62 (12177792)
I0718 14:20:58.982542 31466 net.cpp:157] Top shape: 6 528 62 62 (12177792)
I0718 14:20:58.982563 31466 net.cpp:157] Top shape: 6 528 62 62 (12177792)
I0718 14:20:58.982576 31466 net.cpp:165] Memory required for data: 5878596168
I0718 14:20:58.982591 31466 layer_factory.hpp:76] Creating layer inception_4e/1x1
I0718 14:20:58.982612 31466 net.cpp:106] Creating Layer inception_4e/1x1
I0718 14:20:58.982641 31466 net.cpp:454] inception_4e/1x1 <- inception_4d/output_inception_4d/output_0_split_0
I0718 14:20:58.982667 31466 net.cpp:411] inception_4e/1x1 -> inception_4e/1x1
I0718 14:20:58.988840 31466 cudnn_conv_layer.cpp:194] Reallocating workspace storage: 6336
I0718 14:20:58.988930 31466 net.cpp:150] Setting up inception_4e/1x1
I0718 14:20:58.988953 31466 net.cpp:157] Top shape: 6 256 62 62 (5904384)
I0718 14:20:58.988975 31466 net.cpp:165] Memory required for data: 5902213704
I0718 14:20:58.989001 31466 layer_factory.hpp:76] Creating layer inception_4e/relu_1x1
I0718 14:20:58.989049 31466 net.cpp:106] Creating Layer inception_4e/relu_1x1
I0718 14:20:58.989071 31466 net.cpp:454] inception_4e/relu_1x1 <- inception_4e/1x1
I0718 14:20:58.989089 31466 net.cpp:397] inception_4e/relu_1x1 -> inception_4e/1x1 (in-place)
I0718 14:20:58.989948 31466 net.cpp:150] Setting up inception_4e/relu_1x1
I0718 14:20:58.989979 31466 net.cpp:157] Top shape: 6 256 62 62 (5904384)
I0718 14:20:58.989994 31466 net.cpp:165] Memory required for data: 5925831240
I0718 14:20:58.990010 31466 layer_factory.hpp:76] Creating layer inception_4e/3x3_reduce
I0718 14:20:58.990067 31466 net.cpp:106] Creating Layer inception_4e/3x3_reduce
I0718 14:20:58.990087 31466 net.cpp:454] inception_4e/3x3_reduce <- inception_4d/output_inception_4d/output_0_split_1
I0718 14:20:58.990106 31466 net.cpp:411] inception_4e/3x3_reduce -> inception_4e/3x3_reduce
I0718 14:20:58.996580 31466 cudnn_conv_layer.cpp:194] Reallocating workspace storage: 6336
I0718 14:20:58.996645 31466 net.cpp:150] Setting up inception_4e/3x3_reduce
I0718 14:20:58.996667 31466 net.cpp:157] Top shape: 6 160 62 62 (3690240)
I0718 14:20:58.996686 31466 net.cpp:165] Memory required for data: 5940592200
I0718 14:20:58.996709 31466 layer_factory.hpp:76] Creating layer inception_4e/relu_3x3_reduce
I0718 14:20:58.996731 31466 net.cpp:106] Creating Layer inception_4e/relu_3x3_reduce
I0718 14:20:58.996748 31466 net.cpp:454] inception_4e/relu_3x3_reduce <- inception_4e/3x3_reduce
I0718 14:20:58.996763 31466 net.cpp:397] inception_4e/relu_3x3_reduce -> inception_4e/3x3_reduce (in-place)
I0718 14:20:58.998766 31466 net.cpp:150] Setting up inception_4e/relu_3x3_reduce
I0718 14:20:58.998798 31466 net.cpp:157] Top shape: 6 160 62 62 (3690240)
I0718 14:20:58.998813 31466 net.cpp:165] Memory required for data: 5955353160
I0718 14:20:58.998823 31466 layer_factory.hpp:76] Creating layer inception_4e/3x3
I0718 14:20:58.998853 31466 net.cpp:106] Creating Layer inception_4e/3x3
I0718 14:20:58.998864 31466 net.cpp:454] inception_4e/3x3 <- inception_4e/3x3_reduce
I0718 14:20:58.998881 31466 net.cpp:411] inception_4e/3x3 -> inception_4e/3x3
I0718 14:20:59.009212 31466 net.cpp:150] Setting up inception_4e/3x3
I0718 14:20:59.009256 31466 net.cpp:157] Top shape: 6 320 62 62 (7380480)
I0718 14:20:59.009266 31466 net.cpp:165] Memory required for data: 5984875080
I0718 14:20:59.009282 31466 layer_factory.hpp:76] Creating layer inception_4e/relu_3x3
I0718 14:20:59.009299 31466 net.cpp:106] Creating Layer inception_4e/relu_3x3
I0718 14:20:59.009311 31466 net.cpp:454] inception_4e/relu_3x3 <- inception_4e/3x3
I0718 14:20:59.009326 31466 net.cpp:397] inception_4e/relu_3x3 -> inception_4e/3x3 (in-place)
I0718 14:20:59.011512 31466 net.cpp:150] Setting up inception_4e/relu_3x3
I0718 14:20:59.011554 31466 net.cpp:157] Top shape: 6 320 62 62 (7380480)
I0718 14:20:59.011596 31466 net.cpp:165] Memory required for data: 6014397000
I0718 14:20:59.011610 31466 layer_factory.hpp:76] Creating layer inception_4e/5x5_reduce
I0718 14:20:59.011641 31466 net.cpp:106] Creating Layer inception_4e/5x5_reduce
I0718 14:20:59.011652 31466 net.cpp:454] inception_4e/5x5_reduce <- inception_4d/output_inception_4d/output_0_split_2
I0718 14:20:59.011677 31466 net.cpp:411] inception_4e/5x5_reduce -> inception_4e/5x5_reduce
I0718 14:20:59.020684 31466 cudnn_conv_layer.cpp:194] Reallocating workspace storage: 6336
I0718 14:20:59.020753 31466 net.cpp:150] Setting up inception_4e/5x5_reduce
I0718 14:20:59.020774 31466 net.cpp:157] Top shape: 6 32 62 62 (738048)
I0718 14:20:59.020784 31466 net.cpp:165] Memory required for data: 6017349192
I0718 14:20:59.020813 31466 layer_factory.hpp:76] Creating layer inception_4e/relu_5x5_reduce
I0718 14:20:59.020839 31466 net.cpp:106] Creating Layer inception_4e/relu_5x5_reduce
I0718 14:20:59.020858 31466 net.cpp:454] inception_4e/relu_5x5_reduce <- inception_4e/5x5_reduce
I0718 14:20:59.020874 31466 net.cpp:397] inception_4e/relu_5x5_reduce -> inception_4e/5x5_reduce (in-place)
I0718 14:20:59.023077 31466 net.cpp:150] Setting up inception_4e/relu_5x5_reduce
I0718 14:20:59.023142 31466 net.cpp:157] Top shape: 6 32 62 62 (738048)
I0718 14:20:59.023164 31466 net.cpp:165] Memory required for data: 6020301384
I0718 14:20:59.023180 31466 layer_factory.hpp:76] Creating layer inception_4e/5x5
I0718 14:20:59.023216 31466 net.cpp:106] Creating Layer inception_4e/5x5
I0718 14:20:59.023233 31466 net.cpp:454] inception_4e/5x5 <- inception_4e/5x5_reduce
I0718 14:20:59.023249 31466 net.cpp:411] inception_4e/5x5 -> inception_4e/5x5
I0718 14:20:59.031541 31466 net.cpp:150] Setting up inception_4e/5x5
I0718 14:20:59.031615 31466 net.cpp:157] Top shape: 6 128 62 62 (2952192)
I0718 14:20:59.031625 31466 net.cpp:165] Memory required for data: 6032110152
I0718 14:20:59.031648 31466 layer_factory.hpp:76] Creating layer inception_4e/relu_5x5
I0718 14:20:59.031672 31466 net.cpp:106] Creating Layer inception_4e/relu_5x5
I0718 14:20:59.031689 31466 net.cpp:454] inception_4e/relu_5x5 <- inception_4e/5x5
I0718 14:20:59.031704 31466 net.cpp:397] inception_4e/relu_5x5 -> inception_4e/5x5 (in-place)
I0718 14:20:59.033936 31466 net.cpp:150] Setting up inception_4e/relu_5x5
I0718 14:20:59.033990 31466 net.cpp:157] Top shape: 6 128 62 62 (2952192)
I0718 14:20:59.034008 31466 net.cpp:165] Memory required for data: 6043918920
I0718 14:20:59.034025 31466 layer_factory.hpp:76] Creating layer inception_4e/pool
I0718 14:20:59.034060 31466 net.cpp:106] Creating Layer inception_4e/pool
I0718 14:20:59.034080 31466 net.cpp:454] inception_4e/pool <- inception_4d/output_inception_4d/output_0_split_3
I0718 14:20:59.034104 31466 net.cpp:411] inception_4e/pool -> inception_4e/pool
I0718 14:20:59.036779 31466 net.cpp:150] Setting up inception_4e/pool
I0718 14:20:59.036829 31466 net.cpp:157] Top shape: 6 528 62 62 (12177792)
I0718 14:20:59.036840 31466 net.cpp:165] Memory required for data: 6092630088
I0718 14:20:59.036854 31466 layer_factory.hpp:76] Creating layer inception_4e/pool_proj
I0718 14:20:59.036890 31466 net.cpp:106] Creating Layer inception_4e/pool_proj
I0718 14:20:59.036906 31466 net.cpp:454] inception_4e/pool_proj <- inception_4e/pool
I0718 14:20:59.036938 31466 net.cpp:411] inception_4e/pool_proj -> inception_4e/pool_proj
I0718 14:20:59.044889 31466 cudnn_conv_layer.cpp:194] Reallocating workspace storage: 6336
I0718 14:20:59.044989 31466 net.cpp:150] Setting up inception_4e/pool_proj
I0718 14:20:59.045014 31466 net.cpp:157] Top shape: 6 128 62 62 (2952192)
I0718 14:20:59.045025 31466 net.cpp:165] Memory required for data: 6104438856
I0718 14:20:59.045044 31466 layer_factory.hpp:76] Creating layer inception_4e/relu_pool_proj
I0718 14:20:59.045069 31466 net.cpp:106] Creating Layer inception_4e/relu_pool_proj
I0718 14:20:59.045084 31466 net.cpp:454] inception_4e/relu_pool_proj <- inception_4e/pool_proj
I0718 14:20:59.045100 31466 net.cpp:397] inception_4e/relu_pool_proj -> inception_4e/pool_proj (in-place)
I0718 14:20:59.046754 31466 net.cpp:150] Setting up inception_4e/relu_pool_proj
I0718 14:20:59.046803 31466 net.cpp:157] Top shape: 6 128 62 62 (2952192)
I0718 14:20:59.046813 31466 net.cpp:165] Memory required for data: 6116247624
I0718 14:20:59.046825 31466 layer_factory.hpp:76] Creating layer inception_4e/output
I0718 14:20:59.046846 31466 net.cpp:106] Creating Layer inception_4e/output
I0718 14:20:59.046862 31466 net.cpp:454] inception_4e/output <- inception_4e/1x1
I0718 14:20:59.046877 31466 net.cpp:454] inception_4e/output <- inception_4e/3x3
I0718 14:20:59.046888 31466 net.cpp:454] inception_4e/output <- inception_4e/5x5
I0718 14:20:59.046898 31466 net.cpp:454] inception_4e/output <- inception_4e/pool_proj
I0718 14:20:59.046911 31466 net.cpp:411] inception_4e/output -> inception_4e/output
I0718 14:20:59.047013 31466 net.cpp:150] Setting up inception_4e/output
I0718 14:20:59.047029 31466 net.cpp:157] Top shape: 6 832 62 62 (19189248)
I0718 14:20:59.047037 31466 net.cpp:165] Memory required for data: 6193004616
I0718 14:20:59.047052 31466 layer_factory.hpp:76] Creating layer pool4/3x3_s2
I0718 14:20:59.047066 31466 net.cpp:106] Creating Layer pool4/3x3_s2
I0718 14:20:59.047076 31466 net.cpp:454] pool4/3x3_s2 <- inception_4e/output
I0718 14:20:59.047089 31466 net.cpp:411] pool4/3x3_s2 -> pool4/3x3_s2
I0718 14:20:59.049157 31466 net.cpp:150] Setting up pool4/3x3_s2
I0718 14:20:59.049221 31466 net.cpp:157] Top shape: 6 832 31 31 (4797312)
I0718 14:20:59.049232 31466 net.cpp:165] Memory required for data: 6212193864
I0718 14:20:59.049244 31466 layer_factory.hpp:76] Creating layer pool4/3x3_s2_pool4/3x3_s2_0_split
I0718 14:20:59.049265 31466 net.cpp:106] Creating Layer pool4/3x3_s2_pool4/3x3_s2_0_split
I0718 14:20:59.049279 31466 net.cpp:454] pool4/3x3_s2_pool4/3x3_s2_0_split <- pool4/3x3_s2
I0718 14:20:59.049298 31466 net.cpp:411] pool4/3x3_s2_pool4/3x3_s2_0_split -> pool4/3x3_s2_pool4/3x3_s2_0_split_0
I0718 14:20:59.049316 31466 net.cpp:411] pool4/3x3_s2_pool4/3x3_s2_0_split -> pool4/3x3_s2_pool4/3x3_s2_0_split_1
I0718 14:20:59.049329 31466 net.cpp:411] pool4/3x3_s2_pool4/3x3_s2_0_split -> pool4/3x3_s2_pool4/3x3_s2_0_split_2
I0718 14:20:59.049340 31466 net.cpp:411] pool4/3x3_s2_pool4/3x3_s2_0_split -> pool4/3x3_s2_pool4/3x3_s2_0_split_3
I0718 14:20:59.049437 31466 net.cpp:150] Setting up pool4/3x3_s2_pool4/3x3_s2_0_split
I0718 14:20:59.049453 31466 net.cpp:157] Top shape: 6 832 31 31 (4797312)
I0718 14:20:59.049466 31466 net.cpp:157] Top shape: 6 832 31 31 (4797312)
I0718 14:20:59.049475 31466 net.cpp:157] Top shape: 6 832 31 31 (4797312)
I0718 14:20:59.049485 31466 net.cpp:157] Top shape: 6 832 31 31 (4797312)
I0718 14:20:59.049494 31466 net.cpp:165] Memory required for data: 6288950856
I0718 14:20:59.049501 31466 layer_factory.hpp:76] Creating layer inception_5a/1x1
I0718 14:20:59.049525 31466 net.cpp:106] Creating Layer inception_5a/1x1
I0718 14:20:59.049535 31466 net.cpp:454] inception_5a/1x1 <- pool4/3x3_s2_pool4/3x3_s2_0_split_0
I0718 14:20:59.049547 31466 net.cpp:411] inception_5a/1x1 -> inception_5a/1x1
I0718 14:20:59.058121 31466 cudnn_conv_layer.cpp:194] Reallocating workspace storage: 9984
I0718 14:20:59.058228 31466 net.cpp:150] Setting up inception_5a/1x1
I0718 14:20:59.058248 31466 net.cpp:157] Top shape: 6 256 31 31 (1476096)
I0718 14:20:59.058257 31466 net.cpp:165] Memory required for data: 6294855240
I0718 14:20:59.058279 31466 layer_factory.hpp:76] Creating layer inception_5a/relu_1x1
I0718 14:20:59.058301 31466 net.cpp:106] Creating Layer inception_5a/relu_1x1
I0718 14:20:59.058317 31466 net.cpp:454] inception_5a/relu_1x1 <- inception_5a/1x1
I0718 14:20:59.058334 31466 net.cpp:397] inception_5a/relu_1x1 -> inception_5a/1x1 (in-place)
I0718 14:20:59.060513 31466 net.cpp:150] Setting up inception_5a/relu_1x1
I0718 14:20:59.060569 31466 net.cpp:157] Top shape: 6 256 31 31 (1476096)
I0718 14:20:59.060580 31466 net.cpp:165] Memory required for data: 6300759624
I0718 14:20:59.060591 31466 layer_factory.hpp:76] Creating layer inception_5a/3x3_reduce
I0718 14:20:59.060647 31466 net.cpp:106] Creating Layer inception_5a/3x3_reduce
I0718 14:20:59.060663 31466 net.cpp:454] inception_5a/3x3_reduce <- pool4/3x3_s2_pool4/3x3_s2_0_split_1
I0718 14:20:59.060683 31466 net.cpp:411] inception_5a/3x3_reduce -> inception_5a/3x3_reduce
I0718 14:20:59.067483 31466 cudnn_conv_layer.cpp:194] Reallocating workspace storage: 9984
I0718 14:20:59.067577 31466 net.cpp:150] Setting up inception_5a/3x3_reduce
I0718 14:20:59.067601 31466 net.cpp:157] Top shape: 6 160 31 31 (922560)
I0718 14:20:59.067611 31466 net.cpp:165] Memory required for data: 6304449864
I0718 14:20:59.067633 31466 layer_factory.hpp:76] Creating layer inception_5a/relu_3x3_reduce
I0718 14:20:59.067659 31466 net.cpp:106] Creating Layer inception_5a/relu_3x3_reduce
I0718 14:20:59.067674 31466 net.cpp:454] inception_5a/relu_3x3_reduce <- inception_5a/3x3_reduce
I0718 14:20:59.067687 31466 net.cpp:397] inception_5a/relu_3x3_reduce -> inception_5a/3x3_reduce (in-place)
I0718 14:20:59.069337 31466 net.cpp:150] Setting up inception_5a/relu_3x3_reduce
I0718 14:20:59.069365 31466 net.cpp:157] Top shape: 6 160 31 31 (922560)
I0718 14:20:59.069373 31466 net.cpp:165] Memory required for data: 6308140104
I0718 14:20:59.069382 31466 layer_factory.hpp:76] Creating layer inception_5a/3x3
I0718 14:20:59.069399 31466 net.cpp:106] Creating Layer inception_5a/3x3
I0718 14:20:59.069417 31466 net.cpp:454] inception_5a/3x3 <- inception_5a/3x3_reduce
I0718 14:20:59.069434 31466 net.cpp:411] inception_5a/3x3 -> inception_5a/3x3
I0718 14:20:59.078045 31466 net.cpp:150] Setting up inception_5a/3x3
I0718 14:20:59.078093 31466 net.cpp:157] Top shape: 6 320 31 31 (1845120)
I0718 14:20:59.078104 31466 net.cpp:165] Memory required for data: 6315520584
I0718 14:20:59.078119 31466 layer_factory.hpp:76] Creating layer inception_5a/relu_3x3
I0718 14:20:59.078142 31466 net.cpp:106] Creating Layer inception_5a/relu_3x3
I0718 14:20:59.078156 31466 net.cpp:454] inception_5a/relu_3x3 <- inception_5a/3x3
I0718 14:20:59.078169 31466 net.cpp:397] inception_5a/relu_3x3 -> inception_5a/3x3 (in-place)
I0718 14:20:59.080184 31466 net.cpp:150] Setting up inception_5a/relu_3x3
I0718 14:20:59.080217 31466 net.cpp:157] Top shape: 6 320 31 31 (1845120)
I0718 14:20:59.080229 31466 net.cpp:165] Memory required for data: 6322901064
I0718 14:20:59.080241 31466 layer_factory.hpp:76] Creating layer inception_5a/5x5_reduce
I0718 14:20:59.080266 31466 net.cpp:106] Creating Layer inception_5a/5x5_reduce
I0718 14:20:59.080281 31466 net.cpp:454] inception_5a/5x5_reduce <- pool4/3x3_s2_pool4/3x3_s2_0_split_2
I0718 14:20:59.080297 31466 net.cpp:411] inception_5a/5x5_reduce -> inception_5a/5x5_reduce
I0718 14:20:59.087424 31466 net.cpp:150] Setting up inception_5a/5x5_reduce
I0718 14:20:59.087462 31466 net.cpp:157] Top shape: 6 32 31 31 (184512)
I0718 14:20:59.087472 31466 net.cpp:165] Memory required for data: 6323639112
I0718 14:20:59.087486 31466 layer_factory.hpp:76] Creating layer inception_5a/relu_5x5_reduce
I0718 14:20:59.087505 31466 net.cpp:106] Creating Layer inception_5a/relu_5x5_reduce
I0718 14:20:59.087518 31466 net.cpp:454] inception_5a/relu_5x5_reduce <- inception_5a/5x5_reduce
I0718 14:20:59.087532 31466 net.cpp:397] inception_5a/relu_5x5_reduce -> inception_5a/5x5_reduce (in-place)
I0718 14:20:59.089427 31466 net.cpp:150] Setting up inception_5a/relu_5x5_reduce
I0718 14:20:59.089457 31466 net.cpp:157] Top shape: 6 32 31 31 (184512)
I0718 14:20:59.089465 31466 net.cpp:165] Memory required for data: 6324377160
I0718 14:20:59.089478 31466 layer_factory.hpp:76] Creating layer inception_5a/5x5
I0718 14:20:59.089529 31466 net.cpp:106] Creating Layer inception_5a/5x5
I0718 14:20:59.089542 31466 net.cpp:454] inception_5a/5x5 <- inception_5a/5x5_reduce
I0718 14:20:59.089557 31466 net.cpp:411] inception_5a/5x5 -> inception_5a/5x5
I0718 14:20:59.097797 31466 net.cpp:150] Setting up inception_5a/5x5
I0718 14:20:59.097844 31466 net.cpp:157] Top shape: 6 128 31 31 (738048)
I0718 14:20:59.097856 31466 net.cpp:165] Memory required for data: 6327329352
I0718 14:20:59.097873 31466 layer_factory.hpp:76] Creating layer inception_5a/relu_5x5
I0718 14:20:59.097911 31466 net.cpp:106] Creating Layer inception_5a/relu_5x5
I0718 14:20:59.097926 31466 net.cpp:454] inception_5a/relu_5x5 <- inception_5a/5x5
I0718 14:20:59.097939 31466 net.cpp:397] inception_5a/relu_5x5 -> inception_5a/5x5 (in-place)
I0718 14:20:59.099218 31466 net.cpp:150] Setting up inception_5a/relu_5x5
I0718 14:20:59.099244 31466 net.cpp:157] Top shape: 6 128 31 31 (738048)
I0718 14:20:59.099253 31466 net.cpp:165] Memory required for data: 6330281544
I0718 14:20:59.099266 31466 layer_factory.hpp:76] Creating layer inception_5a/pool
I0718 14:20:59.099278 31466 net.cpp:106] Creating Layer inception_5a/pool
I0718 14:20:59.099289 31466 net.cpp:454] inception_5a/pool <- pool4/3x3_s2_pool4/3x3_s2_0_split_3
I0718 14:20:59.099304 31466 net.cpp:411] inception_5a/pool -> inception_5a/pool
I0718 14:20:59.100528 31466 net.cpp:150] Setting up inception_5a/pool
I0718 14:20:59.100553 31466 net.cpp:157] Top shape: 6 832 31 31 (4797312)
I0718 14:20:59.100564 31466 net.cpp:165] Memory required for data: 6349470792
I0718 14:20:59.100574 31466 layer_factory.hpp:76] Creating layer inception_5a/pool_proj
I0718 14:20:59.100590 31466 net.cpp:106] Creating Layer inception_5a/pool_proj
I0718 14:20:59.100606 31466 net.cpp:454] inception_5a/pool_proj <- inception_5a/pool
I0718 14:20:59.100622 31466 net.cpp:411] inception_5a/pool_proj -> inception_5a/pool_proj
I0718 14:20:59.108233 31466 cudnn_conv_layer.cpp:194] Reallocating workspace storage: 9984
I0718 14:20:59.108371 31466 net.cpp:150] Setting up inception_5a/pool_proj
I0718 14:20:59.108402 31466 net.cpp:157] Top shape: 6 128 31 31 (738048)
I0718 14:20:59.108417 31466 net.cpp:165] Memory required for data: 6352422984
I0718 14:20:59.108443 31466 layer_factory.hpp:76] Creating layer inception_5a/relu_pool_proj
I0718 14:20:59.108484 31466 net.cpp:106] Creating Layer inception_5a/relu_pool_proj
I0718 14:20:59.108502 31466 net.cpp:454] inception_5a/relu_pool_proj <- inception_5a/pool_proj
I0718 14:20:59.108525 31466 net.cpp:397] inception_5a/relu_pool_proj -> inception_5a/pool_proj (in-place)
I0718 14:20:59.110715 31466 net.cpp:150] Setting up inception_5a/relu_pool_proj
I0718 14:20:59.110754 31466 net.cpp:157] Top shape: 6 128 31 31 (738048)
I0718 14:20:59.110765 31466 net.cpp:165] Memory required for data: 6355375176
I0718 14:20:59.110775 31466 layer_factory.hpp:76] Creating layer inception_5a/output
I0718 14:20:59.110793 31466 net.cpp:106] Creating Layer inception_5a/output
I0718 14:20:59.110806 31466 net.cpp:454] inception_5a/output <- inception_5a/1x1
I0718 14:20:59.110821 31466 net.cpp:454] inception_5a/output <- inception_5a/3x3
I0718 14:20:59.110831 31466 net.cpp:454] inception_5a/output <- inception_5a/5x5
I0718 14:20:59.110839 31466 net.cpp:454] inception_5a/output <- inception_5a/pool_proj
I0718 14:20:59.110851 31466 net.cpp:411] inception_5a/output -> inception_5a/output
I0718 14:20:59.110925 31466 net.cpp:150] Setting up inception_5a/output
I0718 14:20:59.110941 31466 net.cpp:157] Top shape: 6 832 31 31 (4797312)
I0718 14:20:59.110950 31466 net.cpp:165] Memory required for data: 6374564424
I0718 14:20:59.110962 31466 layer_factory.hpp:76] Creating layer inception_5a/output_inception_5a/output_0_split
I0718 14:20:59.110975 31466 net.cpp:106] Creating Layer inception_5a/output_inception_5a/output_0_split
I0718 14:20:59.110985 31466 net.cpp:454] inception_5a/output_inception_5a/output_0_split <- inception_5a/output
I0718 14:20:59.110997 31466 net.cpp:411] inception_5a/output_inception_5a/output_0_split -> inception_5a/output_inception_5a/output_0_split_0
I0718 14:20:59.111011 31466 net.cpp:411] inception_5a/output_inception_5a/output_0_split -> inception_5a/output_inception_5a/output_0_split_1
I0718 14:20:59.111022 31466 net.cpp:411] inception_5a/output_inception_5a/output_0_split -> inception_5a/output_inception_5a/output_0_split_2
I0718 14:20:59.111037 31466 net.cpp:411] inception_5a/output_inception_5a/output_0_split -> inception_5a/output_inception_5a/output_0_split_3
I0718 14:20:59.111140 31466 net.cpp:150] Setting up inception_5a/output_inception_5a/output_0_split
I0718 14:20:59.111174 31466 net.cpp:157] Top shape: 6 832 31 31 (4797312)
I0718 14:20:59.111184 31466 net.cpp:157] Top shape: 6 832 31 31 (4797312)
I0718 14:20:59.111193 31466 net.cpp:157] Top shape: 6 832 31 31 (4797312)
I0718 14:20:59.111202 31466 net.cpp:157] Top shape: 6 832 31 31 (4797312)
I0718 14:20:59.111210 31466 net.cpp:165] Memory required for data: 6451321416
I0718 14:20:59.111218 31466 layer_factory.hpp:76] Creating layer inception_5b/1x1
I0718 14:20:59.111243 31466 net.cpp:106] Creating Layer inception_5b/1x1
I0718 14:20:59.111253 31466 net.cpp:454] inception_5b/1x1 <- inception_5a/output_inception_5a/output_0_split_0
I0718 14:20:59.111265 31466 net.cpp:411] inception_5b/1x1 -> inception_5b/1x1
I0718 14:20:59.148190 31466 cudnn_conv_layer.cpp:194] Reallocating workspace storage: 9984
I0718 14:20:59.148319 31466 net.cpp:150] Setting up inception_5b/1x1
I0718 14:20:59.148346 31466 net.cpp:157] Top shape: 6 384 31 31 (2214144)
I0718 14:20:59.148356 31466 net.cpp:165] Memory required for data: 6460177992
I0718 14:20:59.148377 31466 layer_factory.hpp:76] Creating layer inception_5b/relu_1x1
I0718 14:20:59.148401 31466 net.cpp:106] Creating Layer inception_5b/relu_1x1
I0718 14:20:59.148417 31466 net.cpp:454] inception_5b/relu_1x1 <- inception_5b/1x1
I0718 14:20:59.148434 31466 net.cpp:397] inception_5b/relu_1x1 -> inception_5b/1x1 (in-place)
I0718 14:20:59.150241 31466 net.cpp:150] Setting up inception_5b/relu_1x1
I0718 14:20:59.150293 31466 net.cpp:157] Top shape: 6 384 31 31 (2214144)
I0718 14:20:59.150318 31466 net.cpp:165] Memory required for data: 6469034568
I0718 14:20:59.150328 31466 layer_factory.hpp:76] Creating layer inception_5b/3x3_reduce
I0718 14:20:59.150353 31466 net.cpp:106] Creating Layer inception_5b/3x3_reduce
I0718 14:20:59.150367 31466 net.cpp:454] inception_5b/3x3_reduce <- inception_5a/output_inception_5a/output_0_split_1
I0718 14:20:59.150384 31466 net.cpp:411] inception_5b/3x3_reduce -> inception_5b/3x3_reduce
I0718 14:20:59.157685 31466 cudnn_conv_layer.cpp:194] Reallocating workspace storage: 9984
I0718 14:20:59.157801 31466 net.cpp:150] Setting up inception_5b/3x3_reduce
I0718 14:20:59.157824 31466 net.cpp:157] Top shape: 6 192 31 31 (1107072)
I0718 14:20:59.157840 31466 net.cpp:165] Memory required for data: 6473462856
I0718 14:20:59.157863 31466 layer_factory.hpp:76] Creating layer inception_5b/relu_3x3_reduce
I0718 14:20:59.157886 31466 net.cpp:106] Creating Layer inception_5b/relu_3x3_reduce
I0718 14:20:59.157905 31466 net.cpp:454] inception_5b/relu_3x3_reduce <- inception_5b/3x3_reduce
I0718 14:20:59.157923 31466 net.cpp:397] inception_5b/relu_3x3_reduce -> inception_5b/3x3_reduce (in-place)
I0718 14:20:59.161355 31466 net.cpp:150] Setting up inception_5b/relu_3x3_reduce
I0718 14:20:59.161432 31466 net.cpp:157] Top shape: 6 192 31 31 (1107072)
I0718 14:20:59.161448 31466 net.cpp:165] Memory required for data: 6477891144
I0718 14:20:59.161468 31466 layer_factory.hpp:76] Creating layer inception_5b/3x3
I0718 14:20:59.161511 31466 net.cpp:106] Creating Layer inception_5b/3x3
I0718 14:20:59.161540 31466 net.cpp:454] inception_5b/3x3 <- inception_5b/3x3_reduce
I0718 14:20:59.161566 31466 net.cpp:411] inception_5b/3x3 -> inception_5b/3x3
I0718 14:20:59.175319 31466 net.cpp:150] Setting up inception_5b/3x3
I0718 14:20:59.175384 31466 net.cpp:157] Top shape: 6 384 31 31 (2214144)
I0718 14:20:59.175395 31466 net.cpp:165] Memory required for data: 6486747720
I0718 14:20:59.175413 31466 layer_factory.hpp:76] Creating layer inception_5b/relu_3x3
I0718 14:20:59.175441 31466 net.cpp:106] Creating Layer inception_5b/relu_3x3
I0718 14:20:59.175464 31466 net.cpp:454] inception_5b/relu_3x3 <- inception_5b/3x3
I0718 14:20:59.175482 31466 net.cpp:397] inception_5b/relu_3x3 -> inception_5b/3x3 (in-place)
I0718 14:20:59.177667 31466 net.cpp:150] Setting up inception_5b/relu_3x3
I0718 14:20:59.177722 31466 net.cpp:157] Top shape: 6 384 31 31 (2214144)
I0718 14:20:59.177732 31466 net.cpp:165] Memory required for data: 6495604296
I0718 14:20:59.177745 31466 layer_factory.hpp:76] Creating layer inception_5b/5x5_reduce
I0718 14:20:59.177806 31466 net.cpp:106] Creating Layer inception_5b/5x5_reduce
I0718 14:20:59.177829 31466 net.cpp:454] inception_5b/5x5_reduce <- inception_5a/output_inception_5a/output_0_split_2
I0718 14:20:59.177847 31466 net.cpp:411] inception_5b/5x5_reduce -> inception_5b/5x5_reduce
I0718 14:20:59.184491 31466 net.cpp:150] Setting up inception_5b/5x5_reduce
I0718 14:20:59.184564 31466 net.cpp:157] Top shape: 6 48 31 31 (276768)
I0718 14:20:59.184576 31466 net.cpp:165] Memory required for data: 6496711368
I0718 14:20:59.184598 31466 layer_factory.hpp:76] Creating layer inception_5b/relu_5x5_reduce
I0718 14:20:59.184620 31466 net.cpp:106] Creating Layer inception_5b/relu_5x5_reduce
I0718 14:20:59.184639 31466 net.cpp:454] inception_5b/relu_5x5_reduce <- inception_5b/5x5_reduce
I0718 14:20:59.184659 31466 net.cpp:397] inception_5b/relu_5x5_reduce -> inception_5b/5x5_reduce (in-place)
I0718 14:20:59.186748 31466 net.cpp:150] Setting up inception_5b/relu_5x5_reduce
I0718 14:20:59.186797 31466 net.cpp:157] Top shape: 6 48 31 31 (276768)
I0718 14:20:59.186810 31466 net.cpp:165] Memory required for data: 6497818440
I0718 14:20:59.186822 31466 layer_factory.hpp:76] Creating layer inception_5b/5x5
I0718 14:20:59.186856 31466 net.cpp:106] Creating Layer inception_5b/5x5
I0718 14:20:59.186872 31466 net.cpp:454] inception_5b/5x5 <- inception_5b/5x5_reduce
I0718 14:20:59.186892 31466 net.cpp:411] inception_5b/5x5 -> inception_5b/5x5
I0718 14:20:59.193830 31466 net.cpp:150] Setting up inception_5b/5x5
I0718 14:20:59.193907 31466 net.cpp:157] Top shape: 6 128 31 31 (738048)
I0718 14:20:59.193922 31466 net.cpp:165] Memory required for data: 6500770632
I0718 14:20:59.193961 31466 layer_factory.hpp:76] Creating layer inception_5b/relu_5x5
I0718 14:20:59.193996 31466 net.cpp:106] Creating Layer inception_5b/relu_5x5
I0718 14:20:59.194017 31466 net.cpp:454] inception_5b/relu_5x5 <- inception_5b/5x5
I0718 14:20:59.194041 31466 net.cpp:397] inception_5b/relu_5x5 -> inception_5b/5x5 (in-place)
I0718 14:20:59.196051 31466 net.cpp:150] Setting up inception_5b/relu_5x5
I0718 14:20:59.196087 31466 net.cpp:157] Top shape: 6 128 31 31 (738048)
I0718 14:20:59.196105 31466 net.cpp:165] Memory required for data: 6503722824
I0718 14:20:59.196128 31466 layer_factory.hpp:76] Creating layer inception_5b/pool
I0718 14:20:59.196153 31466 net.cpp:106] Creating Layer inception_5b/pool
I0718 14:20:59.196168 31466 net.cpp:454] inception_5b/pool <- inception_5a/output_inception_5a/output_0_split_3
I0718 14:20:59.196193 31466 net.cpp:411] inception_5b/pool -> inception_5b/pool
I0718 14:20:59.197954 31466 net.cpp:150] Setting up inception_5b/pool
I0718 14:20:59.197993 31466 net.cpp:157] Top shape: 6 832 31 31 (4797312)
I0718 14:20:59.198007 31466 net.cpp:165] Memory required for data: 6522912072
I0718 14:20:59.198026 31466 layer_factory.hpp:76] Creating layer inception_5b/pool_proj
I0718 14:20:59.198052 31466 net.cpp:106] Creating Layer inception_5b/pool_proj
I0718 14:20:59.198068 31466 net.cpp:454] inception_5b/pool_proj <- inception_5b/pool
I0718 14:20:59.198092 31466 net.cpp:411] inception_5b/pool_proj -> inception_5b/pool_proj
I0718 14:20:59.205095 31466 cudnn_conv_layer.cpp:194] Reallocating workspace storage: 9984
I0718 14:20:59.205181 31466 net.cpp:150] Setting up inception_5b/pool_proj
I0718 14:20:59.205199 31466 net.cpp:157] Top shape: 6 128 31 31 (738048)
I0718 14:20:59.205211 31466 net.cpp:165] Memory required for data: 6525864264
I0718 14:20:59.205229 31466 layer_factory.hpp:76] Creating layer inception_5b/relu_pool_proj
I0718 14:20:59.205255 31466 net.cpp:106] Creating Layer inception_5b/relu_pool_proj
I0718 14:20:59.205279 31466 net.cpp:454] inception_5b/relu_pool_proj <- inception_5b/pool_proj
I0718 14:20:59.205301 31466 net.cpp:397] inception_5b/relu_pool_proj -> inception_5b/pool_proj (in-place)
I0718 14:20:59.207170 31466 net.cpp:150] Setting up inception_5b/relu_pool_proj
I0718 14:20:59.207191 31466 net.cpp:157] Top shape: 6 128 31 31 (738048)
I0718 14:20:59.207201 31466 net.cpp:165] Memory required for data: 6528816456
I0718 14:20:59.207233 31466 layer_factory.hpp:76] Creating layer inception_5b/output
I0718 14:20:59.207250 31466 net.cpp:106] Creating Layer inception_5b/output
I0718 14:20:59.207260 31466 net.cpp:454] inception_5b/output <- inception_5b/1x1
I0718 14:20:59.207274 31466 net.cpp:454] inception_5b/output <- inception_5b/3x3
I0718 14:20:59.207284 31466 net.cpp:454] inception_5b/output <- inception_5b/5x5
I0718 14:20:59.207294 31466 net.cpp:454] inception_5b/output <- inception_5b/pool_proj
I0718 14:20:59.207310 31466 net.cpp:411] inception_5b/output -> inception_5b/output
I0718 14:20:59.207370 31466 net.cpp:150] Setting up inception_5b/output
I0718 14:20:59.207389 31466 net.cpp:157] Top shape: 6 1024 31 31 (5904384)
I0718 14:20:59.207401 31466 net.cpp:165] Memory required for data: 6552433992
I0718 14:20:59.207412 31466 layer_factory.hpp:76] Creating layer pool5/7x7_s1
I0718 14:20:59.207430 31466 net.cpp:106] Creating Layer pool5/7x7_s1
I0718 14:20:59.207439 31466 net.cpp:454] pool5/7x7_s1 <- inception_5b/output
I0718 14:20:59.207453 31466 net.cpp:411] pool5/7x7_s1 -> pool5/7x7_s1
I0718 14:20:59.521428 31466 cudnn_conv_layer.cpp:194] Reallocating workspace storage: 602112
I0718 14:20:59.534282 31466 net.cpp:150] Setting up pool5/7x7_s1
I0718 14:20:59.534304 31466 net.cpp:157] Top shape: 6 512 25 25 (1920000)
I0718 14:20:59.534310 31466 net.cpp:165] Memory required for data: 6560113992
I0718 14:20:59.534322 31466 layer_factory.hpp:76] Creating layer conv61
I0718 14:20:59.534343 31466 net.cpp:106] Creating Layer conv61
I0718 14:20:59.534353 31466 net.cpp:454] conv61 <- pool5/7x7_s1
I0718 14:20:59.534365 31466 net.cpp:411] conv61 -> conv61
I0718 14:20:59.543048 31466 cudnn_conv_layer.cpp:194] Reallocating workspace storage: 55296
I0718 14:20:59.543095 31466 net.cpp:150] Setting up conv61
I0718 14:20:59.543113 31466 net.cpp:157] Top shape: 6 64 25 25 (240000)
I0718 14:20:59.543128 31466 net.cpp:165] Memory required for data: 6561073992
I0718 14:20:59.543145 31466 layer_factory.hpp:76] Creating layer relu61
I0718 14:20:59.543167 31466 net.cpp:106] Creating Layer relu61
I0718 14:20:59.543179 31466 net.cpp:454] relu61 <- conv61
I0718 14:20:59.543190 31466 net.cpp:397] relu61 -> conv61 (in-place)
I0718 14:20:59.545212 31466 net.cpp:150] Setting up relu61
I0718 14:20:59.545235 31466 net.cpp:157] Top shape: 6 64 25 25 (240000)
I0718 14:20:59.545245 31466 net.cpp:165] Memory required for data: 6562033992
I0718 14:20:59.545255 31466 layer_factory.hpp:76] Creating layer conv62
I0718 14:20:59.545271 31466 net.cpp:106] Creating Layer conv62
I0718 14:20:59.545281 31466 net.cpp:454] conv62 <- conv61
I0718 14:20:59.545294 31466 net.cpp:411] conv62 -> conv62
I0718 14:20:59.552866 31466 net.cpp:150] Setting up conv62
I0718 14:20:59.552897 31466 net.cpp:157] Top shape: 6 64 25 25 (240000)
I0718 14:20:59.552911 31466 net.cpp:165] Memory required for data: 6562993992
I0718 14:20:59.552932 31466 layer_factory.hpp:76] Creating layer relu62
I0718 14:20:59.552952 31466 net.cpp:106] Creating Layer relu62
I0718 14:20:59.552964 31466 net.cpp:454] relu62 <- conv62
I0718 14:20:59.552980 31466 net.cpp:397] relu62 -> conv62 (in-place)
I0718 14:20:59.554836 31466 net.cpp:150] Setting up relu62
I0718 14:20:59.554864 31466 net.cpp:157] Top shape: 6 64 25 25 (240000)
I0718 14:20:59.554878 31466 net.cpp:165] Memory required for data: 6563953992
I0718 14:20:59.554891 31466 layer_factory.hpp:76] Creating layer pool5
I0718 14:20:59.554909 31466 net.cpp:106] Creating Layer pool5
I0718 14:20:59.554924 31466 net.cpp:454] pool5 <- conv62
I0718 14:20:59.554942 31466 net.cpp:411] pool5 -> pool5
I0718 14:20:59.557226 31466 net.cpp:150] Setting up pool5
I0718 14:20:59.557246 31466 net.cpp:157] Top shape: 6 64 13 13 (64896)
I0718 14:20:59.557258 31466 net.cpp:165] Memory required for data: 6564213576
I0718 14:20:59.557267 31466 layer_factory.hpp:76] Creating layer conv71
I0718 14:20:59.557281 31466 net.cpp:106] Creating Layer conv71
I0718 14:20:59.557291 31466 net.cpp:454] conv71 <- pool5
I0718 14:20:59.557306 31466 net.cpp:411] conv71 -> conv71
I0718 14:20:59.576037 31466 cudnn_conv_layer.cpp:194] Reallocating workspace storage: 6912
I0718 14:20:59.576162 31466 net.cpp:150] Setting up conv71
I0718 14:20:59.576189 31466 net.cpp:157] Top shape: 6 96 13 13 (97344)
I0718 14:20:59.576205 31466 net.cpp:165] Memory required for data: 6564602952
I0718 14:20:59.576231 31466 layer_factory.hpp:76] Creating layer relu71
I0718 14:20:59.576267 31466 net.cpp:106] Creating Layer relu71
I0718 14:20:59.576287 31466 net.cpp:454] relu71 <- conv71
I0718 14:20:59.576308 31466 net.cpp:397] relu71 -> conv71 (in-place)
I0718 14:20:59.579663 31466 net.cpp:150] Setting up relu71
I0718 14:20:59.579748 31466 net.cpp:157] Top shape: 6 96 13 13 (97344)
I0718 14:20:59.579766 31466 net.cpp:165] Memory required for data: 6564992328
I0718 14:20:59.579784 31466 layer_factory.hpp:76] Creating layer conv72
I0718 14:20:59.579826 31466 net.cpp:106] Creating Layer conv72
I0718 14:20:59.579848 31466 net.cpp:454] conv72 <- conv71
I0718 14:20:59.579876 31466 net.cpp:411] conv72 -> conv72
I0718 14:20:59.589156 31466 net.cpp:150] Setting up conv72
I0718 14:20:59.589576 31466 net.cpp:157] Top shape: 6 96 13 13 (97344)
I0718 14:20:59.589807 31466 net.cpp:165] Memory required for data: 6565381704
I0718 14:20:59.590868 31466 layer_factory.hpp:76] Creating layer relu72
I0718 14:20:59.591388 31466 net.cpp:106] Creating Layer relu72
I0718 14:20:59.591859 31466 net.cpp:454] relu72 <- conv72
I0718 14:20:59.592049 31466 net.cpp:397] relu72 -> conv72 (in-place)
I0718 14:20:59.595500 31466 net.cpp:150] Setting up relu72
I0718 14:20:59.596228 31466 net.cpp:157] Top shape: 6 96 13 13 (97344)
I0718 14:20:59.596341 31466 net.cpp:165] Memory required for data: 6565771080
I0718 14:20:59.596463 31466 layer_factory.hpp:76] Creating layer pool6
I0718 14:20:59.596596 31466 net.cpp:106] Creating Layer pool6
I0718 14:20:59.596721 31466 net.cpp:454] pool6 <- conv72
I0718 14:20:59.596843 31466 net.cpp:411] pool6 -> pool6
I0718 14:20:59.599853 31466 net.cpp:150] Setting up pool6
I0718 14:20:59.600039 31466 net.cpp:157] Top shape: 6 96 7 7 (28224)
I0718 14:20:59.600133 31466 net.cpp:165] Memory required for data: 6565883976
I0718 14:20:59.600226 31466 layer_factory.hpp:76] Creating layer conv81
I0718 14:20:59.600353 31466 net.cpp:106] Creating Layer conv81
I0718 14:20:59.600425 31466 net.cpp:454] conv81 <- pool6
I0718 14:20:59.600525 31466 net.cpp:411] conv81 -> conv81
I0718 14:20:59.610929 31466 net.cpp:150] Setting up conv81
I0718 14:20:59.611151 31466 net.cpp:157] Top shape: 6 128 7 7 (37632)
I0718 14:20:59.611233 31466 net.cpp:165] Memory required for data: 6566034504
I0718 14:20:59.611305 31466 layer_factory.hpp:76] Creating layer relu81
I0718 14:20:59.611400 31466 net.cpp:106] Creating Layer relu81
I0718 14:20:59.611480 31466 net.cpp:454] relu81 <- conv81
I0718 14:20:59.611541 31466 net.cpp:397] relu81 -> conv81 (in-place)
I0718 14:20:59.613981 31466 net.cpp:150] Setting up relu81
I0718 14:20:59.614341 31466 net.cpp:157] Top shape: 6 128 7 7 (37632)
I0718 14:20:59.614470 31466 net.cpp:165] Memory required for data: 6566185032
I0718 14:20:59.614583 31466 layer_factory.hpp:76] Creating layer conv82
I0718 14:20:59.614756 31466 net.cpp:106] Creating Layer conv82
I0718 14:20:59.614858 31466 net.cpp:454] conv82 <- conv81
I0718 14:20:59.614982 31466 net.cpp:411] conv82 -> conv82
I0718 14:20:59.625465 31466 net.cpp:150] Setting up conv82
I0718 14:20:59.625797 31466 net.cpp:157] Top shape: 6 128 7 7 (37632)
I0718 14:20:59.625922 31466 net.cpp:165] Memory required for data: 6566335560
I0718 14:20:59.626060 31466 layer_factory.hpp:76] Creating layer relu82
I0718 14:20:59.626183 31466 net.cpp:106] Creating Layer relu82
I0718 14:20:59.626698 31466 net.cpp:454] relu82 <- conv82
I0718 14:20:59.626857 31466 net.cpp:397] relu82 -> conv82 (in-place)
I0718 14:20:59.628931 31466 net.cpp:150] Setting up relu82
I0718 14:20:59.629578 31466 net.cpp:157] Top shape: 6 128 7 7 (37632)
I0718 14:20:59.629683 31466 net.cpp:165] Memory required for data: 6566486088
I0718 14:20:59.629766 31466 layer_factory.hpp:76] Creating layer pool7
I0718 14:20:59.629920 31466 net.cpp:106] Creating Layer pool7
I0718 14:20:59.630040 31466 net.cpp:454] pool7 <- conv82
I0718 14:20:59.630157 31466 net.cpp:411] pool7 -> pool7
I0718 14:20:59.631764 31466 net.cpp:150] Setting up pool7
I0718 14:20:59.632483 31466 net.cpp:157] Top shape: 6 128 4 4 (12288)
I0718 14:20:59.632609 31466 net.cpp:165] Memory required for data: 6566535240
I0718 14:20:59.632712 31466 layer_factory.hpp:76] Creating layer drop0
I0718 14:20:59.632845 31466 net.cpp:106] Creating Layer drop0
I0718 14:20:59.632951 31466 net.cpp:454] drop0 <- pool7
I0718 14:20:59.633079 31466 net.cpp:397] drop0 -> pool7 (in-place)
I0718 14:20:59.633654 31466 net.cpp:150] Setting up drop0
I0718 14:20:59.633824 31466 net.cpp:157] Top shape: 6 128 4 4 (12288)
I0718 14:20:59.633895 31466 net.cpp:165] Memory required for data: 6566584392
I0718 14:20:59.634007 31466 layer_factory.hpp:76] Creating layer conv91
I0718 14:20:59.634150 31466 net.cpp:106] Creating Layer conv91
I0718 14:20:59.634265 31466 net.cpp:454] conv91 <- pool7
I0718 14:20:59.634387 31466 net.cpp:411] conv91 -> conv91
I0718 14:20:59.653163 31466 cudnn_conv_layer.cpp:194] Reallocating workspace storage: 7981056
I0718 14:20:59.654126 31466 net.cpp:150] Setting up conv91
I0718 14:20:59.654353 31466 net.cpp:157] Top shape: 6 3 1 1 (18)
I0718 14:20:59.654445 31466 net.cpp:165] Memory required for data: 6566584464
I0718 14:20:59.654667 31466 layer_factory.hpp:76] Creating layer conv91_conv91_0_split
I0718 14:20:59.654769 31466 net.cpp:106] Creating Layer conv91_conv91_0_split
I0718 14:20:59.654866 31466 net.cpp:454] conv91_conv91_0_split <- conv91
I0718 14:20:59.654961 31466 net.cpp:411] conv91_conv91_0_split -> conv91_conv91_0_split_0
I0718 14:20:59.655074 31466 net.cpp:411] conv91_conv91_0_split -> conv91_conv91_0_split_1
I0718 14:20:59.655553 31466 net.cpp:150] Setting up conv91_conv91_0_split
I0718 14:20:59.655652 31466 net.cpp:157] Top shape: 6 3 1 1 (18)
I0718 14:20:59.655719 31466 net.cpp:157] Top shape: 6 3 1 1 (18)
I0718 14:20:59.655803 31466 net.cpp:165] Memory required for data: 6566584608
I0718 14:20:59.655875 31466 layer_factory.hpp:76] Creating layer accuracy
I0718 14:20:59.655973 31466 net.cpp:106] Creating Layer accuracy
I0718 14:20:59.656055 31466 net.cpp:454] accuracy <- conv91_conv91_0_split_0
I0718 14:20:59.656155 31466 net.cpp:454] accuracy <- label_data_1_split_0
I0718 14:20:59.656231 31466 net.cpp:411] accuracy -> accuracy
…
