…
I0718 14:29:02.111455 32927 net.cpp:322] The NetState phase (0) differed from the phase (1) specified by a rule in layer data
I0718 14:29:02.113468 32927 net.cpp:49] Initializing net from parameters: 
name: "GoogleNet"
state {
  phase: TRAIN
}
layer {
  name: "data"
  type: "ImageData"
  top: "data"
  top: "label"
  include {
    phase: TRAIN
  }
  transform_param {
    mirror: true
    mean_value: 163
    mean_value: 116
    mean_value: 181
  }
  image_data_param {
    source: "../lists/mitosis_train.lst"
    batch_size: 4
    shuffle: true
  }
}
layer {
  name: "conv1/7x7_s2"
  type: "Convolution"
  bottom: "data"
  top: "conv1/7x7_s2"
  param {
    lr_mult: 0
    decay_mult: 1
  }
  param {
    lr_mult: 2
    decay_mult: 0
  }
  convolution_param {
    num_output: 64
    pad: 3
    kernel_size: 7
    stride: 2
    weight_filler {
      type: "xavier"
    }
    bias_filler {
      type: "constant"
      value: 0.2
    }
  }
}
layer {
  name: "conv1/relu_7x7"
  type: "ReLU"
  bottom: "conv1/7x7_s2"
  top: "conv1/7x7_s2"
}
layer {
  name: "pool1/3x3_s2"
  type: "Pooling"
  bottom: "conv1/7x7_s2"
  top: "pool1/3x3_s2"
  pooling_param {
    pool: MAX
    kernel_size: 3
    stride: 2
  }
}
layer {
  name: "pool1/norm1"
  type: "LRN"
  bottom: "pool1/3x3_s2"
  top: "pool1/norm1"
  lrn_param {
    local_size: 5
    alpha: 0.0001
    beta: 0.75
  }
}
layer {
  name: "conv2/3x3_reduce"
  type: "Convolution"
  bottom: "pool1/norm1"
  top: "conv2/3x3_reduce"
  param {
    lr_mult: 0
    decay_mult: 1
  }
  param {
    lr_mult: 2
    decay_mult: 0
  }
  convolution_param {
    num_output: 64
    kernel_size: 1
    weight_filler {
      type: "xavier"
    }
    bias_filler {
      type: "constant"
      value: 0.2
    }
  }
}
layer {
  name: "conv2/relu_3x3_reduce"
  type: "ReLU"
  bottom: "conv2/3x3_reduce"
  top: "conv2/3x3_reduce"
}
layer {
  name: "conv2/3x3"
  type: "Convolution"
  bottom: "conv2/3x3_reduce"
  top: "conv2/3x3"
  param {
    lr_mult: 0
    decay_mult: 1
  }
  param {
    lr_mult: 2
    decay_mult: 0
  }
  convolution_param {
    num_output: 192
    pad: 1
    kernel_size: 3
    weight_filler {
      type: "xavier"
    }
    bias_filler {
      type: "constant"
      value: 0.2
    }
  }
}
layer {
  name: "conv2/relu_3x3"
  type: "ReLU"
  bottom: "conv2/3x3"
  top: "conv2/3x3"
}
layer {
  name: "conv2/norm2"
  type: "LRN"
  bottom: "conv2/3x3"
  top: "conv2/norm2"
  lrn_param {
    local_size: 5
    alpha: 0.0001
    beta: 0.75
  }
}
layer {
  name: "pool2/3x3_s2"
  type: "Pooling"
  bottom: "conv2/norm2"
  top: "pool2/3x3_s2"
  pooling_param {
    pool: MAX
    kernel_size: 3
    stride: 2
  }
}
layer {
  name: "inception_3a/1x1"
  type: "Convolution"
  bottom: "pool2/3x3_s2"
  top: "inception_3a/1x1"
  param {
    lr_mult: 0
    decay_mult: 1
  }
  param {
    lr_mult: 2
    decay_mult: 0
  }
  convolution_param {
    num_output: 64
    kernel_size: 1
    weight_filler {
      type: "xavier"
    }
    bias_filler {
      type: "constant"
      value: 0.2
    }
  }
}
layer {
  name: "inception_3a/relu_1x1"
  type: "ReLU"
  bottom: "inception_3a/1x1"
  top: "inception_3a/1x1"
}
layer {
  name: "inception_3a/3x3_reduce"
  type: "Convolution"
  bottom: "pool2/3x3_s2"
  top: "inception_3a/3x3_reduce"
  param {
    lr_mult: 0
    decay_mult: 1
  }
  param {
    lr_mult: 2
    decay_mult: 0
  }
  convolution_param {
    num_output: 96
    kernel_size: 1
    weight_filler {
      type: "xavier"
    }
    bias_filler {
      type: "constant"
      value: 0.2
    }
  }
}
layer {
  name: "inception_3a/relu_3x3_reduce"
  type: "ReLU"
  bottom: "inception_3a/3x3_reduce"
  top: "inception_3a/3x3_reduce"
}
layer {
  name: "inception_3a/3x3"
  type: "Convolution"
  bottom: "inception_3a/3x3_reduce"
  top: "inception_3a/3x3"
  param {
    lr_mult: 0
    decay_mult: 1
  }
  param {
    lr_mult: 2
    decay_mult: 0
  }
  convolution_param {
    num_output: 128
    pad: 1
    kernel_size: 3
    weight_filler {
      type: "xavier"
    }
    bias_filler {
      type: "constant"
      value: 0.2
    }
  }
}
layer {
  name: "inception_3a/relu_3x3"
  type: "ReLU"
  bottom: "inception_3a/3x3"
  top: "inception_3a/3x3"
}
layer {
  name: "inception_3a/5x5_reduce"
  type: "Convolution"
  bottom: "pool2/3x3_s2"
  top: "inception_3a/5x5_reduce"
  param {
    lr_mult: 0
    decay_mult: 1
  }
  param {
    lr_mult: 2
    decay_mult: 0
  }
  convolution_param {
    num_output: 16
    kernel_size: 1
    weight_filler {
      type: "xavier"
    }
    bias_filler {
      type: "constant"
      value: 0.2
    }
  }
}
layer {
  name: "inception_3a/relu_5x5_reduce"
  type: "ReLU"
  bottom: "inception_3a/5x5_reduce"
  top: "inception_3a/5x5_reduce"
}
layer {
  name: "inception_3a/5x5"
  type: "Convolution"
  bottom: "inception_3a/5x5_reduce"
  top: "inception_3a/5x5"
  param {
    lr_mult: 0
    decay_mult: 1
  }
  param {
    lr_mult: 2
    decay_mult: 0
  }
  convolution_param {
    num_output: 32
    pad: 2
    kernel_size: 5
    weight_filler {
      type: "xavier"
    }
    bias_filler {
      type: "constant"
      value: 0.2
    }
  }
}
layer {
  name: "inception_3a/relu_5x5"
  type: "ReLU"
  bottom: "inception_3a/5x5"
  top: "inception_3a/5x5"
}
layer {
  name: "inception_3a/pool"
  type: "Pooling"
  bottom: "pool2/3x3_s2"
  top: "inception_3a/pool"
  pooling_param {
    pool: MAX
    kernel_size: 3
    stride: 1
    pad: 1
  }
}
layer {
  name: "inception_3a/pool_proj"
  type: "Convolution"
  bottom: "inception_3a/pool"
  top: "inception_3a/pool_proj"
  param {
    lr_mult: 0
    decay_mult: 1
  }
  param {
    lr_mult: 2
    decay_mult: 0
  }
  convolution_param {
    num_output: 32
    kernel_size: 1
    weight_filler {
      type: "xavier"
    }
    bias_filler {
      type: "constant"
      value: 0.2
    }
  }
}
layer {
  name: "inception_3a/relu_pool_proj"
  type: "ReLU"
  bottom: "inception_3a/pool_proj"
  top: "inception_3a/pool_proj"
}
layer {
  name: "inception_3a/output"
  type: "Concat"
  bottom: "inception_3a/1x1"
  bottom: "inception_3a/3x3"
  bottom: "inception_3a/5x5"
  bottom: "inception_3a/pool_proj"
  top: "inception_3a/output"
}
layer {
  name: "inception_3b/1x1"
  type: "Convolution"
  bottom: "inception_3a/output"
  top: "inception_3b/1x1"
  param {
    lr_mult: 0
    decay_mult: 1
  }
  param {
    lr_mult: 2
    decay_mult: 0
  }
  convolution_param {
    num_output: 128
    kernel_size: 1
    weight_filler {
      type: "xavier"
    }
    bias_filler {
      type: "constant"
      value: 0.2
    }
  }
}
layer {
  name: "inception_3b/relu_1x1"
  type: "ReLU"
  bottom: "inception_3b/1x1"
  top: "inception_3b/1x1"
}
layer {
  name: "inception_3b/3x3_reduce"
  type: "Convolution"
  bottom: "inception_3a/output"
  top: "inception_3b/3x3_reduce"
  param {
    lr_mult: 0
    decay_mult: 1
  }
  param {
    lr_mult: 2
    decay_mult: 0
  }
  convolution_param {
    num_output: 128
    kernel_size: 1
    weight_filler {
      type: "xavier"
    }
    bias_filler {
      type: "constant"
      value: 0.2
    }
  }
}
layer {
  name: "inception_3b/relu_3x3_reduce"
  type: "ReLU"
  bottom: "inception_3b/3x3_reduce"
  top: "inception_3b/3x3_reduce"
}
layer {
  name: "inception_3b/3x3"
  type: "Convolution"
  bottom: "inception_3b/3x3_reduce"
  top: "inception_3b/3x3"
  param {
    lr_mult: 0
    decay_mult: 1
  }
  param {
    lr_mult: 2
    decay_mult: 0
  }
  convolution_param {
    num_output: 192
    pad: 1
    kernel_size: 3
    weight_filler {
      type: "xavier"
    }
    bias_filler {
      type: "constant"
      value: 0.2
    }
  }
}
layer {
  name: "inception_3b/relu_3x3"
  type: "ReLU"
  bottom: "inception_3b/3x3"
  top: "inception_3b/3x3"
}
layer {
  name: "inception_3b/5x5_reduce"
  type: "Convolution"
  bottom: "inception_3a/output"
  top: "inception_3b/5x5_reduce"
  param {
    lr_mult: 0
    decay_mult: 1
  }
  param {
    lr_mult: 2
    decay_mult: 0
  }
  convolution_param {
    num_output: 32
    kernel_size: 1
    weight_filler {
      type: "xavier"
    }
    bias_filler {
      type: "constant"
      value: 0.2
    }
  }
}
layer {
  name: "inception_3b/relu_5x5_reduce"
  type: "ReLU"
  bottom: "inception_3b/5x5_reduce"
  top: "inception_3b/5x5_reduce"
}
layer {
  name: "inception_3b/5x5"
  type: "Convolution"
  bottom: "inception_3b/5x5_reduce"
  top: "inception_3b/5x5"
  param {
    lr_mult: 0
    decay_mult: 1
  }
  param {
    lr_mult: 2
    decay_mult: 0
  }
  convolution_param {
    num_output: 96
    pad: 2
    kernel_size: 5
    weight_filler {
      type: "xavier"
    }
    bias_filler {
      type: "constant"
      value: 0.2
    }
  }
}
layer {
  name: "inception_3b/relu_5x5"
  type: "ReLU"
  bottom: "inception_3b/5x5"
  top: "inception_3b/5x5"
}
layer {
  name: "inception_3b/pool"
  type: "Pooling"
  bottom: "inception_3a/output"
  top: "inception_3b/pool"
  pooling_param {
    pool: MAX
    kernel_size: 3
    stride: 1
    pad: 1
  }
}
layer {
  name: "inception_3b/pool_proj"
  type: "Convolution"
  bottom: "inception_3b/pool"
  top: "inception_3b/pool_proj"
  param {
    lr_mult: 0
    decay_mult: 1
  }
  param {
    lr_mult: 2
    decay_mult: 0
  }
  convolution_param {
    num_output: 64
    kernel_size: 1
    weight_filler {
      type: "xavier"
    }
    bias_filler {
      type: "constant"
      value: 0.2
    }
  }
}
layer {
  name: "inception_3b/relu_pool_proj"
  type: "ReLU"
  bottom: "inception_3b/pool_proj"
  top: "inception_3b/pool_proj"
}
layer {
  name: "inception_3b/output"
  type: "Concat"
  bottom: "inception_3b/1x1"
  bottom: "inception_3b/3x3"
  bottom: "inception_3b/5x5"
  bottom: "inception_3b/pool_proj"
  top: "inception_3b/output"
}
layer {
  name: "pool3/3x3_s2"
  type: "Pooling"
  bottom: "inception_3b/output"
  top: "pool3/3x3_s2"
  pooling_param {
    pool: MAX
    kernel_size: 3
    stride: 2
  }
}
layer {
  name: "inception_4a/1x1"
  type: "Convolution"
  bottom: "pool3/3x3_s2"
  top: "inception_4a/1x1"
  param {
    lr_mult: 0
    decay_mult: 1
  }
  param {
    lr_mult: 2
    decay_mult: 0
  }
  convolution_param {
    num_output: 192
    kernel_size: 1
    weight_filler {
      type: "xavier"
    }
    bias_filler {
      type: "constant"
      value: 0.2
    }
  }
}
layer {
  name: "inception_4a/relu_1x1"
  type: "ReLU"
  bottom: "inception_4a/1x1"
  top: "inception_4a/1x1"
}
layer {
  name: "inception_4a/3x3_reduce"
  type: "Convolution"
  bottom: "pool3/3x3_s2"
  top: "inception_4a/3x3_reduce"
  param {
    lr_mult: 0
    decay_mult: 1
  }
  param {
    lr_mult: 2
    decay_mult: 0
  }
  convolution_param {
    num_output: 96
    kernel_size: 1
    weight_filler {
      type: "xavier"
    }
    bias_filler {
      type: "constant"
      value: 0.2
    }
  }
}
layer {
  name: "inception_4a/relu_3x3_reduce"
  type: "ReLU"
  bottom: "inception_4a/3x3_reduce"
  top: "inception_4a/3x3_reduce"
}
layer {
  name: "inception_4a/3x3"
  type: "Convolution"
  bottom: "inception_4a/3x3_reduce"
  top: "inception_4a/3x3"
  param {
    lr_mult: 0
    decay_mult: 1
  }
  param {
    lr_mult: 2
    decay_mult: 0
  }
  convolution_param {
    num_output: 208
    pad: 1
    kernel_size: 3
    weight_filler {
      type: "xavier"
    }
    bias_filler {
      type: "constant"
      value: 0.2
    }
  }
}
layer {
  name: "inception_4a/relu_3x3"
  type: "ReLU"
  bottom: "inception_4a/3x3"
  top: "inception_4a/3x3"
}
layer {
  name: "inception_4a/5x5_reduce"
  type: "Convolution"
  bottom: "pool3/3x3_s2"
  top: "inception_4a/5x5_reduce"
  param {
    lr_mult: 0
    decay_mult: 1
  }
  param {
    lr_mult: 2
    decay_mult: 0
  }
  convolution_param {
    num_output: 16
    kernel_size: 1
    weight_filler {
      type: "xavier"
    }
    bias_filler {
      type: "constant"
      value: 0.2
    }
  }
}
layer {
  name: "inception_4a/relu_5x5_reduce"
  type: "ReLU"
  bottom: "inception_4a/5x5_reduce"
  top: "inception_4a/5x5_reduce"
}
layer {
  name: "inception_4a/5x5"
  type: "Convolution"
  bottom: "inception_4a/5x5_reduce"
  top: "inception_4a/5x5"
  param {
    lr_mult: 0
    decay_mult: 1
  }
  param {
    lr_mult: 2
    decay_mult: 0
  }
  convolution_param {
    num_output: 48
    pad: 2
    kernel_size: 5
    weight_filler {
      type: "xavier"
    }
    bias_filler {
      type: "constant"
      value: 0.2
    }
  }
}
layer {
  name: "inception_4a/relu_5x5"
  type: "ReLU"
  bottom: "inception_4a/5x5"
  top: "inception_4a/5x5"
}
layer {
  name: "inception_4a/pool"
  type: "Pooling"
  bottom: "pool3/3x3_s2"
  top: "inception_4a/pool"
  pooling_param {
    pool: MAX
    kernel_size: 3
    stride: 1
    pad: 1
  }
}
layer {
  name: "inception_4a/pool_proj"
  type: "Convolution"
  bottom: "inception_4a/pool"
  top: "inception_4a/pool_proj"
  param {
    lr_mult: 0
    decay_mult: 1
  }
  param {
    lr_mult: 2
    decay_mult: 0
  }
  convolution_param {
    num_output: 64
    kernel_size: 1
    weight_filler {
      type: "xavier"
    }
    bias_filler {
      type: "constant"
      value: 0.2
    }
  }
}
layer {
  name: "inception_4a/relu_pool_proj"
  type: "ReLU"
  bottom: "inception_4a/pool_proj"
  top: "inception_4a/pool_proj"
}
layer {
  name: "inception_4a/output"
  type: "Concat"
  bottom: "inception_4a/1x1"
  bottom: "inception_4a/3x3"
  bottom: "inception_4a/5x5"
  bottom: "inception_4a/pool_proj"
  top: "inception_4a/output"
}
layer {
  name: "inception_4b/1x1"
  type: "Convolution"
  bottom: "inception_4a/output"
  top: "inception_4b/1x1"
  param {
    lr_mult: 0
    decay_mult: 1
  }
  param {
    lr_mult: 2
    decay_mult: 0
  }
  convolution_param {
    num_output: 160
    kernel_size: 1
    weight_filler {
      type: "xavier"
    }
    bias_filler {
      type: "constant"
      value: 0.2
    }
  }
}
layer {
  name: "inception_4b/relu_1x1"
  type: "ReLU"
  bottom: "inception_4b/1x1"
  top: "inception_4b/1x1"
}
layer {
  name: "inception_4b/3x3_reduce"
  type: "Convolution"
  bottom: "inception_4a/output"
  top: "inception_4b/3x3_reduce"
  param {
    lr_mult: 0
    decay_mult: 1
  }
  param {
    lr_mult: 2
    decay_mult: 0
  }
  convolution_param {
    num_output: 112
    kernel_size: 1
    weight_filler {
      type: "xavier"
    }
    bias_filler {
      type: "constant"
      value: 0.2
    }
  }
}
layer {
  name: "inception_4b/relu_3x3_reduce"
  type: "ReLU"
  bottom: "inception_4b/3x3_reduce"
  top: "inception_4b/3x3_reduce"
}
layer {
  name: "inception_4b/3x3"
  type: "Convolution"
  bottom: "inception_4b/3x3_reduce"
  top: "inception_4b/3x3"
  param {
    lr_mult: 0
    decay_mult: 1
  }
  param {
    lr_mult: 2
    decay_mult: 0
  }
  convolution_param {
    num_output: 224
    pad: 1
    kernel_size: 3
    weight_filler {
      type: "xavier"
    }
    bias_filler {
      type: "constant"
      value: 0.2
    }
  }
}
layer {
  name: "inception_4b/relu_3x3"
  type: "ReLU"
  bottom: "inception_4b/3x3"
  top: "inception_4b/3x3"
}
layer {
  name: "inception_4b/5x5_reduce"
  type: "Convolution"
  bottom: "inception_4a/output"
  top: "inception_4b/5x5_reduce"
  param {
    lr_mult: 0
    decay_mult: 1
  }
  param {
    lr_mult: 2
    decay_mult: 0
  }
  convolution_param {
    num_output: 24
    kernel_size: 1
    weight_filler {
      type: "xavier"
    }
    bias_filler {
      type: "constant"
      value: 0.2
    }
  }
}
layer {
  name: "inception_4b/relu_5x5_reduce"
  type: "ReLU"
  bottom: "inception_4b/5x5_reduce"
  top: "inception_4b/5x5_reduce"
}
layer {
  name: "inception_4b/5x5"
  type: "Convolution"
  bottom: "inception_4b/5x5_reduce"
  top: "inception_4b/5x5"
  param {
    lr_mult: 0
    decay_mult: 1
  }
  param {
    lr_mult: 2
    decay_mult: 0
  }
  convolution_param {
    num_output: 64
    pad: 2
    kernel_size: 5
    weight_filler {
      type: "xavier"
    }
    bias_filler {
      type: "constant"
      value: 0.2
    }
  }
}
layer {
  name: "inception_4b/relu_5x5"
  type: "ReLU"
  bottom: "inception_4b/5x5"
  top: "inception_4b/5x5"
}
layer {
  name: "inception_4b/pool"
  type: "Pooling"
  bottom: "inception_4a/output"
  top: "inception_4b/pool"
  pooling_param {
    pool: MAX
    kernel_size: 3
    stride: 1
    pad: 1
  }
}
layer {
  name: "inception_4b/pool_proj"
  type: "Convolution"
  bottom: "inception_4b/pool"
  top: "inception_4b/pool_proj"
  param {
    lr_mult: 0
    decay_mult: 1
  }
  param {
    lr_mult: 2
    decay_mult: 0
  }
  convolution_param {
    num_output: 64
    kernel_size: 1
    weight_filler {
      type: "xavier"
    }
    bias_filler {
      type: "constant"
      value: 0.2
    }
  }
}
layer {
  name: "inception_4b/relu_pool_proj"
  type: "ReLU"
  bottom: "inception_4b/pool_proj"
  top: "inception_4b/pool_proj"
}
layer {
  name: "inception_4b/output"
  type: "Concat"
  bottom: "inception_4b/1x1"
  bottom: "inception_4b/3x3"
  bottom: "inception_4b/5x5"
  bottom: "inception_4b/pool_proj"
  top: "inception_4b/output"
}
layer {
  name: "inception_4c/1x1"
  type: "Convolution"
  bottom: "inception_4b/output"
  top: "inception_4c/1x1"
  param {
    lr_mult: 0
    decay_mult: 1
  }
  param {
    lr_mult: 2
    decay_mult: 0
  }
  convolution_param {
    num_output: 128
    kernel_size: 1
    weight_filler {
      type: "xavier"
    }
    bias_filler {
      type: "constant"
      value: 0.2
    }
  }
}
layer {
  name: "inception_4c/relu_1x1"
  type: "ReLU"
  bottom: "inception_4c/1x1"
  top: "inception_4c/1x1"
}
layer {
  name: "inception_4c/3x3_reduce"
  type: "Convolution"
  bottom: "inception_4b/output"
  top: "inception_4c/3x3_reduce"
  param {
    lr_mult: 0
    decay_mult: 1
  }
  param {
    lr_mult: 2
    decay_mult: 0
  }
  convolution_param {
    num_output: 128
    kernel_size: 1
    weight_filler {
      type: "xavier"
    }
    bias_filler {
      type: "constant"
      value: 0.2
    }
  }
}
layer {
  name: "inception_4c/relu_3x3_reduce"
  type: "ReLU"
  bottom: "inception_4c/3x3_reduce"
  top: "inception_4c/3x3_reduce"
}
layer {
  name: "inception_4c/3x3"
  type: "Convolution"
  bottom: "inception_4c/3x3_reduce"
  top: "inception_4c/3x3"
  param {
    lr_mult: 0
    decay_mult: 1
  }
  param {
    lr_mult: 2
    decay_mult: 0
  }
  convolution_param {
    num_output: 256
    pad: 1
    kernel_size: 3
    weight_filler {
      type: "xavier"
    }
    bias_filler {
      type: "constant"
      value: 0.2
    }
  }
}
layer {
  name: "inception_4c/relu_3x3"
  type: "ReLU"
  bottom: "inception_4c/3x3"
  top: "inception_4c/3x3"
}
layer {
  name: "inception_4c/5x5_reduce"
  type: "Convolution"
  bottom: "inception_4b/output"
  top: "inception_4c/5x5_reduce"
  param {
    lr_mult: 0
    decay_mult: 1
  }
  param {
    lr_mult: 2
    decay_mult: 0
  }
  convolution_param {
    num_output: 24
    kernel_size: 1
    weight_filler {
      type: "xavier"
    }
    bias_filler {
      type: "constant"
      value: 0.2
    }
  }
}
layer {
  name: "inception_4c/relu_5x5_reduce"
  type: "ReLU"
  bottom: "inception_4c/5x5_reduce"
  top: "inception_4c/5x5_reduce"
}
layer {
  name: "inception_4c/5x5"
  type: "Convolution"
  bottom: "inception_4c/5x5_reduce"
  top: "inception_4c/5x5"
  param {
    lr_mult: 0
    decay_mult: 1
  }
  param {
    lr_mult: 2
    decay_mult: 0
  }
  convolution_param {
    num_output: 64
    pad: 2
    kernel_size: 5
    weight_filler {
      type: "xavier"
    }
    bias_filler {
      type: "constant"
      value: 0.2
    }
  }
}
layer {
  name: "inception_4c/relu_5x5"
  type: "ReLU"
  bottom: "inception_4c/5x5"
  top: "inception_4c/5x5"
}
layer {
  name: "inception_4c/pool"
  type: "Pooling"
  bottom: "inception_4b/output"
  top: "inception_4c/pool"
  pooling_param {
    pool: MAX
    kernel_size: 3
    stride: 1
    pad: 1
  }
}
layer {
  name: "inception_4c/pool_proj"
  type: "Convolution"
  bottom: "inception_4c/pool"
  top: "inception_4c/pool_proj"
  param {
    lr_mult: 0
    decay_mult: 1
  }
  param {
    lr_mult: 2
    decay_mult: 0
  }
  convolution_param {
    num_output: 64
    kernel_size: 1
    weight_filler {
      type: "xavier"
    }
    bias_filler {
      type: "constant"
      value: 0.2
    }
  }
}
layer {
  name: "inception_4c/relu_pool_proj"
  type: "ReLU"
  bottom: "inception_4c/pool_proj"
  top: "inception_4c/pool_proj"
}
layer {
  name: "inception_4c/output"
  type: "Concat"
  bottom: "inception_4c/1x1"
  bottom: "inception_4c/3x3"
  bottom: "inception_4c/5x5"
  bottom: "inception_4c/pool_proj"
  top: "inception_4c/output"
}
layer {
  name: "inception_4d/1x1"
  type: "Convolution"
  bottom: "inception_4c/output"
  top: "inception_4d/1x1"
  param {
    lr_mult: 0
    decay_mult: 1
  }
  param {
    lr_mult: 2
    decay_mult: 0
  }
  convolution_param {
    num_output: 112
    kernel_size: 1
    weight_filler {
      type: "xavier"
    }
    bias_filler {
      type: "constant"
      value: 0.2
    }
  }
}
layer {
  name: "inception_4d/relu_1x1"
  type: "ReLU"
  bottom: "inception_4d/1x1"
  top: "inception_4d/1x1"
}
layer {
  name: "inception_4d/3x3_reduce"
  type: "Convolution"
  bottom: "inception_4c/output"
  top: "inception_4d/3x3_reduce"
  param {
    lr_mult: 0
    decay_mult: 1
  }
  param {
    lr_mult: 2
    decay_mult: 0
  }
  convolution_param {
    num_output: 144
    kernel_size: 1
    weight_filler {
      type: "xavier"
    }
    bias_filler {
      type: "constant"
      value: 0.2
    }
  }
}
layer {
  name: "inception_4d/relu_3x3_reduce"
  type: "ReLU"
  bottom: "inception_4d/3x3_reduce"
  top: "inception_4d/3x3_reduce"
}
layer {
  name: "inception_4d/3x3"
  type: "Convolution"
  bottom: "inception_4d/3x3_reduce"
  top: "inception_4d/3x3"
  param {
    lr_mult: 0
    decay_mult: 1
  }
  param {
    lr_mult: 2
    decay_mult: 0
  }
  convolution_param {
    num_output: 288
    pad: 1
    kernel_size: 3
    weight_filler {
      type: "xavier"
    }
    bias_filler {
      type: "constant"
      value: 0.2
    }
  }
}
layer {
  name: "inception_4d/relu_3x3"
  type: "ReLU"
  bottom: "inception_4d/3x3"
  top: "inception_4d/3x3"
}
layer {
  name: "inception_4d/5x5_reduce"
  type: "Convolution"
  bottom: "inception_4c/output"
  top: "inception_4d/5x5_reduce"
  param {
    lr_mult: 0
    decay_mult: 1
  }
  param {
    lr_mult: 2
    decay_mult: 0
  }
  convolution_param {
    num_output: 32
    kernel_size: 1
    weight_filler {
      type: "xavier"
    }
    bias_filler {
      type: "constant"
      value: 0.2
    }
  }
}
layer {
  name: "inception_4d/relu_5x5_reduce"
  type: "ReLU"
  bottom: "inception_4d/5x5_reduce"
  top: "inception_4d/5x5_reduce"
}
layer {
  name: "inception_4d/5x5"
  type: "Convolution"
  bottom: "inception_4d/5x5_reduce"
  top: "inception_4d/5x5"
  param {
    lr_mult: 0
    decay_mult: 1
  }
  param {
    lr_mult: 2
    decay_mult: 0
  }
  convolution_param {
    num_output: 64
    pad: 2
    kernel_size: 5
    weight_filler {
      type: "xavier"
    }
    bias_filler {
      type: "constant"
      value: 0.2
    }
  }
}
layer {
  name: "inception_4d/relu_5x5"
  type: "ReLU"
  bottom: "inception_4d/5x5"
  top: "inception_4d/5x5"
}
layer {
  name: "inception_4d/pool"
  type: "Pooling"
  bottom: "inception_4c/output"
  top: "inception_4d/pool"
  pooling_param {
    pool: MAX
    kernel_size: 3
    stride: 1
    pad: 1
  }
}
layer {
  name: "inception_4d/pool_proj"
  type: "Convolution"
  bottom: "inception_4d/pool"
  top: "inception_4d/pool_proj"
  param {
    lr_mult: 0
    decay_mult: 1
  }
  param {
    lr_mult: 2
    decay_mult: 0
  }
  convolution_param {
    num_output: 64
    kernel_size: 1
    weight_filler {
      type: "xavier"
    }
    bias_filler {
      type: "constant"
      value: 0.2
    }
  }
}
layer {
  name: "inception_4d/relu_pool_proj"
  type: "ReLU"
  bottom: "inception_4d/pool_proj"
  top: "inception_4d/pool_proj"
}
layer {
  name: "inception_4d/output"
  type: "Concat"
  bottom: "inception_4d/1x1"
  bottom: "inception_4d/3x3"
  bottom: "inception_4d/5x5"
  bottom: "inception_4d/pool_proj"
  top: "inception_4d/output"
}
layer {
  name: "inception_4e/1x1"
  type: "Convolution"
  bottom: "inception_4d/output"
  top: "inception_4e/1x1"
  param {
    lr_mult: 0
    decay_mult: 1
  }
  param {
    lr_mult: 2
    decay_mult: 0
  }
  convolution_param {
    num_output: 256
    kernel_size: 1
    weight_filler {
      type: "xavier"
    }
    bias_filler {
      type: "constant"
      value: 0.2
    }
  }
}
layer {
  name: "inception_4e/relu_1x1"
  type: "ReLU"
  bottom: "inception_4e/1x1"
  top: "inception_4e/1x1"
}
layer {
  name: "inception_4e/3x3_reduce"
  type: "Convolution"
  bottom: "inception_4d/output"
  top: "inception_4e/3x3_reduce"
  param {
    lr_mult: 0
    decay_mult: 1
  }
  param {
    lr_mult: 2
    decay_mult: 0
  }
  convolution_param {
    num_output: 160
    kernel_size: 1
    weight_filler {
      type: "xavier"
    }
    bias_filler {
      type: "constant"
      value: 0.2
    }
  }
}
layer {
  name: "inception_4e/relu_3x3_reduce"
  type: "ReLU"
  bottom: "inception_4e/3x3_reduce"
  top: "inception_4e/3x3_reduce"
}
layer {
  name: "inception_4e/3x3"
  type: "Convolution"
  bottom: "inception_4e/3x3_reduce"
  top: "inception_4e/3x3"
  param {
    lr_mult: 0
    decay_mult: 1
  }
  param {
    lr_mult: 2
    decay_mult: 0
  }
  convolution_param {
    num_output: 320
    pad: 1
    kernel_size: 3
    weight_filler {
      type: "xavier"
    }
    bias_filler {
      type: "constant"
      value: 0.2
    }
  }
}
layer {
  name: "inception_4e/relu_3x3"
  type: "ReLU"
  bottom: "inception_4e/3x3"
  top: "inception_4e/3x3"
}
layer {
  name: "inception_4e/5x5_reduce"
  type: "Convolution"
  bottom: "inception_4d/output"
  top: "inception_4e/5x5_reduce"
  param {
    lr_mult: 0
    decay_mult: 1
  }
  param {
    lr_mult: 2
    decay_mult: 0
  }
  convolution_param {
    num_output: 32
    kernel_size: 1
    weight_filler {
      type: "xavier"
    }
    bias_filler {
      type: "constant"
      value: 0.2
    }
  }
}
layer {
  name: "inception_4e/relu_5x5_reduce"
  type: "ReLU"
  bottom: "inception_4e/5x5_reduce"
  top: "inception_4e/5x5_reduce"
}
layer {
  name: "inception_4e/5x5"
  type: "Convolution"
  bottom: "inception_4e/5x5_reduce"
  top: "inception_4e/5x5"
  param {
    lr_mult: 0
    decay_mult: 1
  }
  param {
    lr_mult: 2
    decay_mult: 0
  }
  convolution_param {
    num_output: 128
    pad: 2
    kernel_size: 5
    weight_filler {
      type: "xavier"
    }
    bias_filler {
      type: "constant"
      value: 0.2
    }
  }
}
layer {
  name: "inception_4e/relu_5x5"
  type: "ReLU"
  bottom: "inception_4e/5x5"
  top: "inception_4e/5x5"
}
layer {
  name: "inception_4e/pool"
  type: "Pooling"
  bottom: "inception_4d/output"
  top: "inception_4e/pool"
  pooling_param {
    pool: MAX
    kernel_size: 3
    stride: 1
    pad: 1
  }
}
layer {
  name: "inception_4e/pool_proj"
  type: "Convolution"
  bottom: "inception_4e/pool"
  top: "inception_4e/pool_proj"
  param {
    lr_mult: 0
    decay_mult: 1
  }
  param {
    lr_mult: 2
    decay_mult: 0
  }
  convolution_param {
    num_output: 128
    kernel_size: 1
    weight_filler {
      type: "xavier"
    }
    bias_filler {
      type: "constant"
      value: 0.2
    }
  }
}
layer {
  name: "inception_4e/relu_pool_proj"
  type: "ReLU"
  bottom: "inception_4e/pool_proj"
  top: "inception_4e/pool_proj"
}
layer {
  name: "inception_4e/output"
  type: "Concat"
  bottom: "inception_4e/1x1"
  bottom: "inception_4e/3x3"
  bottom: "inception_4e/5x5"
  bottom: "inception_4e/pool_proj"
  top: "inception_4e/output"
}
layer {
  name: "pool4/3x3_s2"
  type: "Pooling"
  bottom: "inception_4e/output"
  top: "pool4/3x3_s2"
  pooling_param {
    pool: MAX
    kernel_size: 3
    stride: 2
  }
}
layer {
  name: "inception_5a/1x1"
  type: "Convolution"
  bottom: "pool4/3x3_s2"
  top: "inception_5a/1x1"
  param {
    lr_mult: 0
    decay_mult: 1
  }
  param {
    lr_mult: 2
    decay_mult: 0
  }
  convolution_param {
    num_output: 256
    kernel_size: 1
    weight_filler {
      type: "xavier"
    }
    bias_filler {
      type: "constant"
      value: 0.2
    }
  }
}
layer {
  name: "inception_5a/relu_1x1"
  type: "ReLU"
  bottom: "inception_5a/1x1"
  top: "inception_5a/1x1"
}
layer {
  name: "inception_5a/3x3_reduce"
  type: "Convolution"
  bottom: "pool4/3x3_s2"
  top: "inception_5a/3x3_reduce"
  param {
    lr_mult: 0
    decay_mult: 1
  }
  param {
    lr_mult: 2
    decay_mult: 0
  }
  convolution_param {
    num_output: 160
    kernel_size: 1
    weight_filler {
      type: "xavier"
    }
    bias_filler {
      type: "constant"
      value: 0.2
    }
  }
}
layer {
  name: "inception_5a/relu_3x3_reduce"
  type: "ReLU"
  bottom: "inception_5a/3x3_reduce"
  top: "inception_5a/3x3_reduce"
}
layer {
  name: "inception_5a/3x3"
  type: "Convolution"
  bottom: "inception_5a/3x3_reduce"
  top: "inception_5a/3x3"
  param {
    lr_mult: 0
    decay_mult: 1
  }
  param {
    lr_mult: 2
    decay_mult: 0
  }
  convolution_param {
    num_output: 320
    pad: 1
    kernel_size: 3
    weight_filler {
      type: "xavier"
    }
    bias_filler {
      type: "constant"
      value: 0.2
    }
  }
}
layer {
  name: "inception_5a/relu_3x3"
  type: "ReLU"
  bottom: "inception_5a/3x3"
  top: "inception_5a/3x3"
}
layer {
  name: "inception_5a/5x5_reduce"
  type: "Convolution"
  bottom: "pool4/3x3_s2"
  top: "inception_5a/5x5_reduce"
  param {
    lr_mult: 0
    decay_mult: 1
  }
  param {
    lr_mult: 2
    decay_mult: 0
  }
  convolution_param {
    num_output: 32
    kernel_size: 1
    weight_filler {
      type: "xavier"
    }
    bias_filler {
      type: "constant"
      value: 0.2
    }
  }
}
layer {
  name: "inception_5a/relu_5x5_reduce"
  type: "ReLU"
  bottom: "inception_5a/5x5_reduce"
  top: "inception_5a/5x5_reduce"
}
layer {
  name: "inception_5a/5x5"
  type: "Convolution"
  bottom: "inception_5a/5x5_reduce"
  top: "inception_5a/5x5"
  param {
    lr_mult: 0
    decay_mult: 1
  }
  param {
    lr_mult: 2
    decay_mult: 0
  }
  convolution_param {
    num_output: 128
    pad: 2
    kernel_size: 5
    weight_filler {
      type: "xavier"
    }
    bias_filler {
      type: "constant"
      value: 0.2
    }
  }
}
layer {
  name: "inception_5a/relu_5x5"
  type: "ReLU"
  bottom: 
I0718 14:29:02.128056 32927 layer_factory.hpp:76] Creating layer data
I0718 14:29:02.128192 32927 net.cpp:106] Creating Layer data
I0718 14:29:02.128211 32927 net.cpp:411] data -> data
I0718 14:29:02.128281 32927 net.cpp:411] data -> label
I0718 14:29:02.129024 32927 image_data_layer.cpp:36] Opening file ../lists/mitosis_train.lst
I0718 14:29:02.161927 32927 image_data_layer.cpp:46] Shuffling data
I0718 14:29:02.165730 32927 image_data_layer.cpp:51] A total of 21366 images.
I0718 14:29:02.542263 32927 image_data_layer.cpp:78] output data size: 4,3,1000,1000
I0718 14:29:02.755697 32927 net.cpp:150] Setting up data
I0718 14:29:02.755841 32927 net.cpp:157] Top shape: 4 3 1000 1000 (12000000)
I0718 14:29:02.755909 32927 net.cpp:157] Top shape: 4 (4)
I0718 14:29:02.755929 32927 net.cpp:165] Memory required for data: 48000016
I0718 14:29:02.755969 32927 layer_factory.hpp:76] Creating layer label_data_1_split
I0718 14:29:02.756031 32927 net.cpp:106] Creating Layer label_data_1_split
I0718 14:29:02.756057 32927 net.cpp:454] label_data_1_split <- label
I0718 14:29:02.756104 32927 net.cpp:411] label_data_1_split -> label_data_1_split_0
I0718 14:29:02.756142 32927 net.cpp:411] label_data_1_split -> label_data_1_split_1
I0718 14:29:02.756384 32927 net.cpp:150] Setting up label_data_1_split
I0718 14:29:02.756417 32927 net.cpp:157] Top shape: 4 (4)
I0718 14:29:02.756440 32927 net.cpp:157] Top shape: 4 (4)
I0718 14:29:02.756460 32927 net.cpp:165] Memory required for data: 48000048
I0718 14:29:02.756479 32927 layer_factory.hpp:76] Creating layer conv1/7x7_s2
I0718 14:29:02.756542 32927 net.cpp:106] Creating Layer conv1/7x7_s2
I0718 14:29:02.756564 32927 net.cpp:454] conv1/7x7_s2 <- data
I0718 14:29:02.756597 32927 net.cpp:411] conv1/7x7_s2 -> conv1/7x7_s2
I0718 14:29:03.148123 32927 net.cpp:150] Setting up conv1/7x7_s2
I0718 14:29:03.148203 32927 net.cpp:157] Top shape: 4 64 500 500 (64000000)
I0718 14:29:03.148223 32927 net.cpp:165] Memory required for data: 304000048
I0718 14:29:03.148265 32927 layer_factory.hpp:76] Creating layer conv1/relu_7x7
I0718 14:29:03.148298 32927 net.cpp:106] Creating Layer conv1/relu_7x7
I0718 14:29:03.148376 32927 net.cpp:454] conv1/relu_7x7 <- conv1/7x7_s2
I0718 14:29:03.148396 32927 net.cpp:397] conv1/relu_7x7 -> conv1/7x7_s2 (in-place)
I0718 14:29:03.149410 32927 net.cpp:150] Setting up conv1/relu_7x7
I0718 14:29:03.149438 32927 net.cpp:157] Top shape: 4 64 500 500 (64000000)
I0718 14:29:03.149452 32927 net.cpp:165] Memory required for data: 560000048
I0718 14:29:03.149467 32927 layer_factory.hpp:76] Creating layer pool1/3x3_s2
I0718 14:29:03.149489 32927 net.cpp:106] Creating Layer pool1/3x3_s2
I0718 14:29:03.149502 32927 net.cpp:454] pool1/3x3_s2 <- conv1/7x7_s2
I0718 14:29:03.149519 32927 net.cpp:411] pool1/3x3_s2 -> pool1/3x3_s2
I0718 14:29:03.151397 32927 net.cpp:150] Setting up pool1/3x3_s2
I0718 14:29:03.151429 32927 net.cpp:157] Top shape: 4 64 250 250 (16000000)
I0718 14:29:03.151443 32927 net.cpp:165] Memory required for data: 624000048
I0718 14:29:03.151458 32927 layer_factory.hpp:76] Creating layer pool1/norm1
I0718 14:29:03.151489 32927 net.cpp:106] Creating Layer pool1/norm1
I0718 14:29:03.151506 32927 net.cpp:454] pool1/norm1 <- pool1/3x3_s2
I0718 14:29:03.151525 32927 net.cpp:411] pool1/norm1 -> pool1/norm1
I0718 14:29:03.153720 32927 net.cpp:150] Setting up pool1/norm1
I0718 14:29:03.153750 32927 net.cpp:157] Top shape: 4 64 250 250 (16000000)
I0718 14:29:03.153764 32927 net.cpp:165] Memory required for data: 688000048
I0718 14:29:03.153779 32927 layer_factory.hpp:76] Creating layer conv2/3x3_reduce
I0718 14:29:03.153803 32927 net.cpp:106] Creating Layer conv2/3x3_reduce
I0718 14:29:03.153817 32927 net.cpp:454] conv2/3x3_reduce <- pool1/norm1
I0718 14:29:03.153836 32927 net.cpp:411] conv2/3x3_reduce -> conv2/3x3_reduce
I0718 14:29:03.162091 32927 cudnn_conv_layer.cpp:194] Reallocating workspace storage: 768
I0718 14:29:03.162183 32927 net.cpp:150] Setting up conv2/3x3_reduce
I0718 14:29:03.162214 32927 net.cpp:157] Top shape: 4 64 250 250 (16000000)
I0718 14:29:03.162230 32927 net.cpp:165] Memory required for data: 752000048
I0718 14:29:03.162261 32927 layer_factory.hpp:76] Creating layer conv2/relu_3x3_reduce
I0718 14:29:03.162292 32927 net.cpp:106] Creating Layer conv2/relu_3x3_reduce
I0718 14:29:03.162308 32927 net.cpp:454] conv2/relu_3x3_reduce <- conv2/3x3_reduce
I0718 14:29:03.162327 32927 net.cpp:397] conv2/relu_3x3_reduce -> conv2/3x3_reduce (in-place)
I0718 14:29:03.163166 32927 net.cpp:150] Setting up conv2/relu_3x3_reduce
I0718 14:29:03.163195 32927 net.cpp:157] Top shape: 4 64 250 250 (16000000)
I0718 14:29:03.163208 32927 net.cpp:165] Memory required for data: 816000048
I0718 14:29:03.163223 32927 layer_factory.hpp:76] Creating layer conv2/3x3
I0718 14:29:03.163256 32927 net.cpp:106] Creating Layer conv2/3x3
I0718 14:29:03.163271 32927 net.cpp:454] conv2/3x3 <- conv2/3x3_reduce
I0718 14:29:03.163288 32927 net.cpp:411] conv2/3x3 -> conv2/3x3
I0718 14:29:03.171882 32927 cudnn_conv_layer.cpp:194] Reallocating workspace storage: 6912
I0718 14:29:03.172381 32927 net.cpp:150] Setting up conv2/3x3
I0718 14:29:03.172416 32927 net.cpp:157] Top shape: 4 192 250 250 (48000000)
I0718 14:29:03.172432 32927 net.cpp:165] Memory required for data: 1008000048
I0718 14:29:03.172461 32927 layer_factory.hpp:76] Creating layer conv2/relu_3x3
I0718 14:29:03.172495 32927 net.cpp:106] Creating Layer conv2/relu_3x3
I0718 14:29:03.172514 32927 net.cpp:454] conv2/relu_3x3 <- conv2/3x3
I0718 14:29:03.172533 32927 net.cpp:397] conv2/relu_3x3 -> conv2/3x3 (in-place)
I0718 14:29:03.174032 32927 net.cpp:150] Setting up conv2/relu_3x3
I0718 14:29:03.174062 32927 net.cpp:157] Top shape: 4 192 250 250 (48000000)
I0718 14:29:03.174074 32927 net.cpp:165] Memory required for data: 1200000048
I0718 14:29:03.174088 32927 layer_factory.hpp:76] Creating layer conv2/norm2
I0718 14:29:03.174108 32927 net.cpp:106] Creating Layer conv2/norm2
I0718 14:29:03.174121 32927 net.cpp:454] conv2/norm2 <- conv2/3x3
I0718 14:29:03.174137 32927 net.cpp:411] conv2/norm2 -> conv2/norm2
I0718 14:29:03.175557 32927 net.cpp:150] Setting up conv2/norm2
I0718 14:29:03.175606 32927 net.cpp:157] Top shape: 4 192 250 250 (48000000)
I0718 14:29:03.175673 32927 net.cpp:165] Memory required for data: 1392000048
I0718 14:29:03.175688 32927 layer_factory.hpp:76] Creating layer pool2/3x3_s2
I0718 14:29:03.175707 32927 net.cpp:106] Creating Layer pool2/3x3_s2
I0718 14:29:03.175722 32927 net.cpp:454] pool2/3x3_s2 <- conv2/norm2
I0718 14:29:03.175740 32927 net.cpp:411] pool2/3x3_s2 -> pool2/3x3_s2
I0718 14:29:03.178076 32927 net.cpp:150] Setting up pool2/3x3_s2
I0718 14:29:03.178109 32927 net.cpp:157] Top shape: 4 192 125 125 (12000000)
I0718 14:29:03.178123 32927 net.cpp:165] Memory required for data: 1440000048
I0718 14:29:03.178135 32927 layer_factory.hpp:76] Creating layer pool2/3x3_s2_pool2/3x3_s2_0_split
I0718 14:29:03.178155 32927 net.cpp:106] Creating Layer pool2/3x3_s2_pool2/3x3_s2_0_split
I0718 14:29:03.178169 32927 net.cpp:454] pool2/3x3_s2_pool2/3x3_s2_0_split <- pool2/3x3_s2
I0718 14:29:03.178184 32927 net.cpp:411] pool2/3x3_s2_pool2/3x3_s2_0_split -> pool2/3x3_s2_pool2/3x3_s2_0_split_0
I0718 14:29:03.178201 32927 net.cpp:411] pool2/3x3_s2_pool2/3x3_s2_0_split -> pool2/3x3_s2_pool2/3x3_s2_0_split_1
I0718 14:29:03.178218 32927 net.cpp:411] pool2/3x3_s2_pool2/3x3_s2_0_split -> pool2/3x3_s2_pool2/3x3_s2_0_split_2
I0718 14:29:03.178236 32927 net.cpp:411] pool2/3x3_s2_pool2/3x3_s2_0_split -> pool2/3x3_s2_pool2/3x3_s2_0_split_3
I0718 14:29:03.178331 32927 net.cpp:150] Setting up pool2/3x3_s2_pool2/3x3_s2_0_split
I0718 14:29:03.178349 32927 net.cpp:157] Top shape: 4 192 125 125 (12000000)
I0718 14:29:03.178364 32927 net.cpp:157] Top shape: 4 192 125 125 (12000000)
I0718 14:29:03.178377 32927 net.cpp:157] Top shape: 4 192 125 125 (12000000)
I0718 14:29:03.178390 32927 net.cpp:157] Top shape: 4 192 125 125 (12000000)
I0718 14:29:03.178401 32927 net.cpp:165] Memory required for data: 1632000048
I0718 14:29:03.178414 32927 layer_factory.hpp:76] Creating layer inception_3a/1x1
I0718 14:29:03.178442 32927 net.cpp:106] Creating Layer inception_3a/1x1
I0718 14:29:03.178454 32927 net.cpp:454] inception_3a/1x1 <- pool2/3x3_s2_pool2/3x3_s2_0_split_0
I0718 14:29:03.178473 32927 net.cpp:411] inception_3a/1x1 -> inception_3a/1x1
I0718 14:29:03.185775 32927 net.cpp:150] Setting up inception_3a/1x1
I0718 14:29:03.185832 32927 net.cpp:157] Top shape: 4 64 125 125 (4000000)
I0718 14:29:03.185845 32927 net.cpp:165] Memory required for data: 1648000048
I0718 14:29:03.185868 32927 layer_factory.hpp:76] Creating layer inception_3a/relu_1x1
I0718 14:29:03.185890 32927 net.cpp:106] Creating Layer inception_3a/relu_1x1
I0718 14:29:03.185905 32927 net.cpp:454] inception_3a/relu_1x1 <- inception_3a/1x1
I0718 14:29:03.185931 32927 net.cpp:397] inception_3a/relu_1x1 -> inception_3a/1x1 (in-place)
I0718 14:29:03.188321 32927 net.cpp:150] Setting up inception_3a/relu_1x1
I0718 14:29:03.188374 32927 net.cpp:157] Top shape: 4 64 125 125 (4000000)
I0718 14:29:03.188390 32927 net.cpp:165] Memory required for data: 1664000048
I0718 14:29:03.188403 32927 layer_factory.hpp:76] Creating layer inception_3a/3x3_reduce
I0718 14:29:03.188433 32927 net.cpp:106] Creating Layer inception_3a/3x3_reduce
I0718 14:29:03.188448 32927 net.cpp:454] inception_3a/3x3_reduce <- pool2/3x3_s2_pool2/3x3_s2_0_split_1
I0718 14:29:03.188472 32927 net.cpp:411] inception_3a/3x3_reduce -> inception_3a/3x3_reduce
I0718 14:29:03.196437 32927 cudnn_conv_layer.cpp:194] Reallocating workspace storage: 2304
I0718 14:29:03.196897 32927 net.cpp:150] Setting up inception_3a/3x3_reduce
I0718 14:29:03.196933 32927 net.cpp:157] Top shape: 4 96 125 125 (6000000)
I0718 14:29:03.196946 32927 net.cpp:165] Memory required for data: 1688000048
I0718 14:29:03.196975 32927 layer_factory.hpp:76] Creating layer inception_3a/relu_3x3_reduce
I0718 14:29:03.197003 32927 net.cpp:106] Creating Layer inception_3a/relu_3x3_reduce
I0718 14:29:03.197018 32927 net.cpp:454] inception_3a/relu_3x3_reduce <- inception_3a/3x3_reduce
I0718 14:29:03.197039 32927 net.cpp:397] inception_3a/relu_3x3_reduce -> inception_3a/3x3_reduce (in-place)
I0718 14:29:03.197993 32927 net.cpp:150] Setting up inception_3a/relu_3x3_reduce
I0718 14:29:03.198021 32927 net.cpp:157] Top shape: 4 96 125 125 (6000000)
I0718 14:29:03.198103 32927 net.cpp:165] Memory required for data: 1712000048
I0718 14:29:03.198118 32927 layer_factory.hpp:76] Creating layer inception_3a/3x3
I0718 14:29:03.198145 32927 net.cpp:106] Creating Layer inception_3a/3x3
I0718 14:29:03.198159 32927 net.cpp:454] inception_3a/3x3 <- inception_3a/3x3_reduce
I0718 14:29:03.198180 32927 net.cpp:411] inception_3a/3x3 -> inception_3a/3x3
I0718 14:29:03.206001 32927 cudnn_conv_layer.cpp:194] Reallocating workspace storage: 10368
I0718 14:29:03.206094 32927 net.cpp:150] Setting up inception_3a/3x3
I0718 14:29:03.206116 32927 net.cpp:157] Top shape: 4 128 125 125 (8000000)
I0718 14:29:03.206132 32927 net.cpp:165] Memory required for data: 1744000048
I0718 14:29:03.206158 32927 layer_factory.hpp:76] Creating layer inception_3a/relu_3x3
I0718 14:29:03.206190 32927 net.cpp:106] Creating Layer inception_3a/relu_3x3
I0718 14:29:03.206207 32927 net.cpp:454] inception_3a/relu_3x3 <- inception_3a/3x3
I0718 14:29:03.206224 32927 net.cpp:397] inception_3a/relu_3x3 -> inception_3a/3x3 (in-place)
I0718 14:29:03.207134 32927 net.cpp:150] Setting up inception_3a/relu_3x3
I0718 14:29:03.207164 32927 net.cpp:157] Top shape: 4 128 125 125 (8000000)
I0718 14:29:03.207180 32927 net.cpp:165] Memory required for data: 1776000048
I0718 14:29:03.207192 32927 layer_factory.hpp:76] Creating layer inception_3a/5x5_reduce
I0718 14:29:03.207222 32927 net.cpp:106] Creating Layer inception_3a/5x5_reduce
I0718 14:29:03.207237 32927 net.cpp:454] inception_3a/5x5_reduce <- pool2/3x3_s2_pool2/3x3_s2_0_split_2
I0718 14:29:03.207259 32927 net.cpp:411] inception_3a/5x5_reduce -> inception_3a/5x5_reduce
I0718 14:29:03.214890 32927 net.cpp:150] Setting up inception_3a/5x5_reduce
I0718 14:29:03.214967 32927 net.cpp:157] Top shape: 4 16 125 125 (1000000)
I0718 14:29:03.214982 32927 net.cpp:165] Memory required for data: 1780000048
I0718 14:29:03.215003 32927 layer_factory.hpp:76] Creating layer inception_3a/relu_5x5_reduce
I0718 14:29:03.215037 32927 net.cpp:106] Creating Layer inception_3a/relu_5x5_reduce
I0718 14:29:03.215059 32927 net.cpp:454] inception_3a/relu_5x5_reduce <- inception_3a/5x5_reduce
I0718 14:29:03.215077 32927 net.cpp:397] inception_3a/relu_5x5_reduce -> inception_3a/5x5_reduce (in-place)
I0718 14:29:03.216497 32927 net.cpp:150] Setting up inception_3a/relu_5x5_reduce
I0718 14:29:03.216531 32927 net.cpp:157] Top shape: 4 16 125 125 (1000000)
I0718 14:29:03.216547 32927 net.cpp:165] Memory required for data: 1784000048
I0718 14:29:03.216562 32927 layer_factory.hpp:76] Creating layer inception_3a/5x5
I0718 14:29:03.216589 32927 net.cpp:106] Creating Layer inception_3a/5x5
I0718 14:29:03.216605 32927 net.cpp:454] inception_3a/5x5 <- inception_3a/5x5_reduce
I0718 14:29:03.216627 32927 net.cpp:411] inception_3a/5x5 -> inception_3a/5x5
I0718 14:29:03.223026 32927 net.cpp:150] Setting up inception_3a/5x5
I0718 14:29:03.223124 32927 net.cpp:157] Top shape: 4 32 125 125 (2000000)
I0718 14:29:03.223139 32927 net.cpp:165] Memory required for data: 1792000048
I0718 14:29:03.223165 32927 layer_factory.hpp:76] Creating layer inception_3a/relu_5x5
I0718 14:29:03.223196 32927 net.cpp:106] Creating Layer inception_3a/relu_5x5
I0718 14:29:03.223217 32927 net.cpp:454] inception_3a/relu_5x5 <- inception_3a/5x5
I0718 14:29:03.223235 32927 net.cpp:397] inception_3a/relu_5x5 -> inception_3a/5x5 (in-place)
I0718 14:29:03.225147 32927 net.cpp:150] Setting up inception_3a/relu_5x5
I0718 14:29:03.225179 32927 net.cpp:157] Top shape: 4 32 125 125 (2000000)
I0718 14:29:03.225193 32927 net.cpp:165] Memory required for data: 1800000048
I0718 14:29:03.225206 32927 layer_factory.hpp:76] Creating layer inception_3a/pool
I0718 14:29:03.225227 32927 net.cpp:106] Creating Layer inception_3a/pool
I0718 14:29:03.225242 32927 net.cpp:454] inception_3a/pool <- pool2/3x3_s2_pool2/3x3_s2_0_split_3
I0718 14:29:03.225260 32927 net.cpp:411] inception_3a/pool -> inception_3a/pool
I0718 14:29:03.228124 32927 net.cpp:150] Setting up inception_3a/pool
I0718 14:29:03.228185 32927 net.cpp:157] Top shape: 4 192 125 125 (12000000)
I0718 14:29:03.228266 32927 net.cpp:165] Memory required for data: 1848000048
I0718 14:29:03.228282 32927 layer_factory.hpp:76] Creating layer inception_3a/pool_proj
I0718 14:29:03.228312 32927 net.cpp:106] Creating Layer inception_3a/pool_proj
I0718 14:29:03.228328 32927 net.cpp:454] inception_3a/pool_proj <- inception_3a/pool
I0718 14:29:03.228348 32927 net.cpp:411] inception_3a/pool_proj -> inception_3a/pool_proj
I0718 14:29:03.235396 32927 net.cpp:150] Setting up inception_3a/pool_proj
I0718 14:29:03.235483 32927 net.cpp:157] Top shape: 4 32 125 125 (2000000)
I0718 14:29:03.235498 32927 net.cpp:165] Memory required for data: 1856000048
I0718 14:29:03.235530 32927 layer_factory.hpp:76] Creating layer inception_3a/relu_pool_proj
I0718 14:29:03.235553 32927 net.cpp:106] Creating Layer inception_3a/relu_pool_proj
I0718 14:29:03.235569 32927 net.cpp:454] inception_3a/relu_pool_proj <- inception_3a/pool_proj
I0718 14:29:03.235586 32927 net.cpp:397] inception_3a/relu_pool_proj -> inception_3a/pool_proj (in-place)
I0718 14:29:03.237540 32927 net.cpp:150] Setting up inception_3a/relu_pool_proj
I0718 14:29:03.237576 32927 net.cpp:157] Top shape: 4 32 125 125 (2000000)
I0718 14:29:03.237588 32927 net.cpp:165] Memory required for data: 1864000048
I0718 14:29:03.237602 32927 layer_factory.hpp:76] Creating layer inception_3a/output
I0718 14:29:03.237633 32927 net.cpp:106] Creating Layer inception_3a/output
I0718 14:29:03.237648 32927 net.cpp:454] inception_3a/output <- inception_3a/1x1
I0718 14:29:03.237663 32927 net.cpp:454] inception_3a/output <- inception_3a/3x3
I0718 14:29:03.237678 32927 net.cpp:454] inception_3a/output <- inception_3a/5x5
I0718 14:29:03.237690 32927 net.cpp:454] inception_3a/output <- inception_3a/pool_proj
I0718 14:29:03.237707 32927 net.cpp:411] inception_3a/output -> inception_3a/output
I0718 14:29:03.237769 32927 net.cpp:150] Setting up inception_3a/output
I0718 14:29:03.237789 32927 net.cpp:157] Top shape: 4 256 125 125 (16000000)
I0718 14:29:03.237802 32927 net.cpp:165] Memory required for data: 1928000048
I0718 14:29:03.237814 32927 layer_factory.hpp:76] Creating layer inception_3a/output_inception_3a/output_0_split
I0718 14:29:03.237831 32927 net.cpp:106] Creating Layer inception_3a/output_inception_3a/output_0_split
I0718 14:29:03.237843 32927 net.cpp:454] inception_3a/output_inception_3a/output_0_split <- inception_3a/output
I0718 14:29:03.237865 32927 net.cpp:411] inception_3a/output_inception_3a/output_0_split -> inception_3a/output_inception_3a/output_0_split_0
I0718 14:29:03.237881 32927 net.cpp:411] inception_3a/output_inception_3a/output_0_split -> inception_3a/output_inception_3a/output_0_split_1
I0718 14:29:03.237900 32927 net.cpp:411] inception_3a/output_inception_3a/output_0_split -> inception_3a/output_inception_3a/output_0_split_2
I0718 14:29:03.237920 32927 net.cpp:411] inception_3a/output_inception_3a/output_0_split -> inception_3a/output_inception_3a/output_0_split_3
I0718 14:29:03.238016 32927 net.cpp:150] Setting up inception_3a/output_inception_3a/output_0_split
I0718 14:29:03.238039 32927 net.cpp:157] Top shape: 4 256 125 125 (16000000)
I0718 14:29:03.238052 32927 net.cpp:157] Top shape: 4 256 125 125 (16000000)
I0718 14:29:03.238065 32927 net.cpp:157] Top shape: 4 256 125 125 (16000000)
I0718 14:29:03.238082 32927 net.cpp:157] Top shape: 4 256 125 125 (16000000)
I0718 14:29:03.238096 32927 net.cpp:165] Memory required for data: 2184000048
I0718 14:29:03.238111 32927 layer_factory.hpp:76] Creating layer inception_3b/1x1
I0718 14:29:03.238140 32927 net.cpp:106] Creating Layer inception_3b/1x1
I0718 14:29:03.238154 32927 net.cpp:454] inception_3b/1x1 <- inception_3a/output_inception_3a/output_0_split_0
I0718 14:29:03.238173 32927 net.cpp:411] inception_3b/1x1 -> inception_3b/1x1
I0718 14:29:03.243818 32927 cudnn_conv_layer.cpp:194] Reallocating workspace storage: 3072
I0718 14:29:03.243914 32927 net.cpp:150] Setting up inception_3b/1x1
I0718 14:29:03.243939 32927 net.cpp:157] Top shape: 4 128 125 125 (8000000)
I0718 14:29:03.243955 32927 net.cpp:165] Memory required for data: 2216000048
I0718 14:29:03.244040 32927 layer_factory.hpp:76] Creating layer inception_3b/relu_1x1
I0718 14:29:03.244065 32927 net.cpp:106] Creating Layer inception_3b/relu_1x1
I0718 14:29:03.244083 32927 net.cpp:454] inception_3b/relu_1x1 <- inception_3b/1x1
I0718 14:29:03.244099 32927 net.cpp:397] inception_3b/relu_1x1 -> inception_3b/1x1 (in-place)
I0718 14:29:03.246660 32927 net.cpp:150] Setting up inception_3b/relu_1x1
I0718 14:29:03.246711 32927 net.cpp:157] Top shape: 4 128 125 125 (8000000)
I0718 14:29:03.246724 32927 net.cpp:165] Memory required for data: 2248000048
I0718 14:29:03.246739 32927 layer_factory.hpp:76] Creating layer inception_3b/3x3_reduce
I0718 14:29:03.246768 32927 net.cpp:106] Creating Layer inception_3b/3x3_reduce
I0718 14:29:03.246783 32927 net.cpp:454] inception_3b/3x3_reduce <- inception_3a/output_inception_3a/output_0_split_1
I0718 14:29:03.246804 32927 net.cpp:411] inception_3b/3x3_reduce -> inception_3b/3x3_reduce
I0718 14:29:03.259940 32927 cudnn_conv_layer.cpp:194] Reallocating workspace storage: 3072
I0718 14:29:03.260011 32927 net.cpp:150] Setting up inception_3b/3x3_reduce
I0718 14:29:03.260035 32927 net.cpp:157] Top shape: 4 128 125 125 (8000000)
I0718 14:29:03.260048 32927 net.cpp:165] Memory required for data: 2280000048
I0718 14:29:03.260069 32927 layer_factory.hpp:76] Creating layer inception_3b/relu_3x3_reduce
I0718 14:29:03.260097 32927 net.cpp:106] Creating Layer inception_3b/relu_3x3_reduce
I0718 14:29:03.260114 32927 net.cpp:454] inception_3b/relu_3x3_reduce <- inception_3b/3x3_reduce
I0718 14:29:03.260133 32927 net.cpp:397] inception_3b/relu_3x3_reduce -> inception_3b/3x3_reduce (in-place)
I0718 14:29:03.262523 32927 net.cpp:150] Setting up inception_3b/relu_3x3_reduce
I0718 14:29:03.262563 32927 net.cpp:157] Top shape: 4 128 125 125 (8000000)
I0718 14:29:03.262578 32927 net.cpp:165] Memory required for data: 2312000048
I0718 14:29:03.262591 32927 layer_factory.hpp:76] Creating layer inception_3b/3x3
I0718 14:29:03.262636 32927 net.cpp:106] Creating Layer inception_3b/3x3
I0718 14:29:03.262653 32927 net.cpp:454] inception_3b/3x3 <- inception_3b/3x3_reduce
I0718 14:29:03.262671 32927 net.cpp:411] inception_3b/3x3 -> inception_3b/3x3
I0718 14:29:03.271570 32927 cudnn_conv_layer.cpp:194] Reallocating workspace storage: 13824
I0718 14:29:03.271657 32927 net.cpp:150] Setting up inception_3b/3x3
I0718 14:29:03.271680 32927 net.cpp:157] Top shape: 4 192 125 125 (12000000)
I0718 14:29:03.271694 32927 net.cpp:165] Memory required for data: 2360000048
I0718 14:29:03.271715 32927 layer_factory.hpp:76] Creating layer inception_3b/relu_3x3
I0718 14:29:03.271738 32927 net.cpp:106] Creating Layer inception_3b/relu_3x3
I0718 14:29:03.271754 32927 net.cpp:454] inception_3b/relu_3x3 <- inception_3b/3x3
I0718 14:29:03.271775 32927 net.cpp:397] inception_3b/relu_3x3 -> inception_3b/3x3 (in-place)
I0718 14:29:03.281242 32927 net.cpp:150] Setting up inception_3b/relu_3x3
I0718 14:29:03.281312 32927 net.cpp:157] Top shape: 4 192 125 125 (12000000)
I0718 14:29:03.281332 32927 net.cpp:165] Memory required for data: 2408000048
I0718 14:29:03.281347 32927 layer_factory.hpp:76] Creating layer inception_3b/5x5_reduce
I0718 14:29:03.281386 32927 net.cpp:106] Creating Layer inception_3b/5x5_reduce
I0718 14:29:03.281406 32927 net.cpp:454] inception_3b/5x5_reduce <- inception_3a/output_inception_3a/output_0_split_2
I0718 14:29:03.281438 32927 net.cpp:411] inception_3b/5x5_reduce -> inception_3b/5x5_reduce
I0718 14:29:03.323431 32927 cudnn_conv_layer.cpp:194] Reallocating workspace storage: 3072
I0718 14:29:03.323508 32927 net.cpp:150] Setting up inception_3b/5x5_reduce
I0718 14:29:03.323532 32927 net.cpp:157] Top shape: 4 32 125 125 (2000000)
I0718 14:29:03.323546 32927 net.cpp:165] Memory required for data: 2416000048
I0718 14:29:03.323568 32927 layer_factory.hpp:76] Creating layer inception_3b/relu_5x5_reduce
I0718 14:29:03.323596 32927 net.cpp:106] Creating Layer inception_3b/relu_5x5_reduce
I0718 14:29:03.323612 32927 net.cpp:454] inception_3b/relu_5x5_reduce <- inception_3b/5x5_reduce
I0718 14:29:03.323674 32927 net.cpp:397] inception_3b/relu_5x5_reduce -> inception_3b/5x5_reduce (in-place)
I0718 14:29:03.323979 32927 net.cpp:150] Setting up inception_3b/relu_5x5_reduce
I0718 14:29:03.324005 32927 net.cpp:157] Top shape: 4 32 125 125 (2000000)
I0718 14:29:03.324018 32927 net.cpp:165] Memory required for data: 2424000048
I0718 14:29:03.324033 32927 layer_factory.hpp:76] Creating layer inception_3b/5x5
I0718 14:29:03.324060 32927 net.cpp:106] Creating Layer inception_3b/5x5
I0718 14:29:03.324076 32927 net.cpp:454] inception_3b/5x5 <- inception_3b/5x5_reduce
I0718 14:29:03.324095 32927 net.cpp:411] inception_3b/5x5 -> inception_3b/5x5
I0718 14:29:03.331058 32927 net.cpp:150] Setting up inception_3b/5x5
I0718 14:29:03.331110 32927 net.cpp:157] Top shape: 4 96 125 125 (6000000)
I0718 14:29:03.331125 32927 net.cpp:165] Memory required for data: 2448000048
I0718 14:29:03.331149 32927 layer_factory.hpp:76] Creating layer inception_3b/relu_5x5
I0718 14:29:03.331168 32927 net.cpp:106] Creating Layer inception_3b/relu_5x5
I0718 14:29:03.331182 32927 net.cpp:454] inception_3b/relu_5x5 <- inception_3b/5x5
I0718 14:29:03.331199 32927 net.cpp:397] inception_3b/relu_5x5 -> inception_3b/5x5 (in-place)
I0718 14:29:03.333387 32927 net.cpp:150] Setting up inception_3b/relu_5x5
I0718 14:29:03.333413 32927 net.cpp:157] Top shape: 4 96 125 125 (6000000)
I0718 14:29:03.333426 32927 net.cpp:165] Memory required for data: 2472000048
I0718 14:29:03.333441 32927 layer_factory.hpp:76] Creating layer inception_3b/pool
I0718 14:29:03.333461 32927 net.cpp:106] Creating Layer inception_3b/pool
I0718 14:29:03.333474 32927 net.cpp:454] inception_3b/pool <- inception_3a/output_inception_3a/output_0_split_3
I0718 14:29:03.333492 32927 net.cpp:411] inception_3b/pool -> inception_3b/pool
I0718 14:29:03.335157 32927 net.cpp:150] Setting up inception_3b/pool
I0718 14:29:03.335189 32927 net.cpp:157] Top shape: 4 256 125 125 (16000000)
I0718 14:29:03.335203 32927 net.cpp:165] Memory required for data: 2536000048
I0718 14:29:03.335216 32927 layer_factory.hpp:76] Creating layer inception_3b/pool_proj
I0718 14:29:03.335237 32927 net.cpp:106] Creating Layer inception_3b/pool_proj
I0718 14:29:03.335250 32927 net.cpp:454] inception_3b/pool_proj <- inception_3b/pool
I0718 14:29:03.335270 32927 net.cpp:411] inception_3b/pool_proj -> inception_3b/pool_proj
I0718 14:29:03.341995 32927 cudnn_conv_layer.cpp:194] Reallocating workspace storage: 3072
I0718 14:29:03.342073 32927 net.cpp:150] Setting up inception_3b/pool_proj
I0718 14:29:03.342097 32927 net.cpp:157] Top shape: 4 64 125 125 (4000000)
I0718 14:29:03.342110 32927 net.cpp:165] Memory required for data: 2552000048
I0718 14:29:03.342133 32927 layer_factory.hpp:76] Creating layer inception_3b/relu_pool_proj
I0718 14:29:03.342157 32927 net.cpp:106] Creating Layer inception_3b/relu_pool_proj
I0718 14:29:03.342175 32927 net.cpp:454] inception_3b/relu_pool_proj <- inception_3b/pool_proj
I0718 14:29:03.342192 32927 net.cpp:397] inception_3b/relu_pool_proj -> inception_3b/pool_proj (in-place)
I0718 14:29:03.344122 32927 net.cpp:150] Setting up inception_3b/relu_pool_proj
I0718 14:29:03.344156 32927 net.cpp:157] Top shape: 4 64 125 125 (4000000)
I0718 14:29:03.344171 32927 net.cpp:165] Memory required for data: 2568000048
I0718 14:29:03.344189 32927 layer_factory.hpp:76] Creating layer inception_3b/output
I0718 14:29:03.344210 32927 net.cpp:106] Creating Layer inception_3b/output
I0718 14:29:03.344226 32927 net.cpp:454] inception_3b/output <- inception_3b/1x1
I0718 14:29:03.344243 32927 net.cpp:454] inception_3b/output <- inception_3b/3x3
I0718 14:29:03.344257 32927 net.cpp:454] inception_3b/output <- inception_3b/5x5
I0718 14:29:03.344269 32927 net.cpp:454] inception_3b/output <- inception_3b/pool_proj
I0718 14:29:03.344288 32927 net.cpp:411] inception_3b/output -> inception_3b/output
I0718 14:29:03.344349 32927 net.cpp:150] Setting up inception_3b/output
I0718 14:29:03.344369 32927 net.cpp:157] Top shape: 4 480 125 125 (30000000)
I0718 14:29:03.344383 32927 net.cpp:165] Memory required for data: 2688000048
I0718 14:29:03.344472 32927 layer_factory.hpp:76] Creating layer pool3/3x3_s2
I0718 14:29:03.344496 32927 net.cpp:106] Creating Layer pool3/3x3_s2
I0718 14:29:03.344511 32927 net.cpp:454] pool3/3x3_s2 <- inception_3b/output
I0718 14:29:03.344527 32927 net.cpp:411] pool3/3x3_s2 -> pool3/3x3_s2
I0718 14:29:03.346969 32927 net.cpp:150] Setting up pool3/3x3_s2
I0718 14:29:03.347023 32927 net.cpp:157] Top shape: 4 480 62 62 (7380480)
I0718 14:29:03.347043 32927 net.cpp:165] Memory required for data: 2717521968
I0718 14:29:03.347059 32927 layer_factory.hpp:76] Creating layer pool3/3x3_s2_pool3/3x3_s2_0_split
I0718 14:29:03.347082 32927 net.cpp:106] Creating Layer pool3/3x3_s2_pool3/3x3_s2_0_split
I0718 14:29:03.347098 32927 net.cpp:454] pool3/3x3_s2_pool3/3x3_s2_0_split <- pool3/3x3_s2
I0718 14:29:03.347121 32927 net.cpp:411] pool3/3x3_s2_pool3/3x3_s2_0_split -> pool3/3x3_s2_pool3/3x3_s2_0_split_0
I0718 14:29:03.347143 32927 net.cpp:411] pool3/3x3_s2_pool3/3x3_s2_0_split -> pool3/3x3_s2_pool3/3x3_s2_0_split_1
I0718 14:29:03.347163 32927 net.cpp:411] pool3/3x3_s2_pool3/3x3_s2_0_split -> pool3/3x3_s2_pool3/3x3_s2_0_split_2
I0718 14:29:03.347180 32927 net.cpp:411] pool3/3x3_s2_pool3/3x3_s2_0_split -> pool3/3x3_s2_pool3/3x3_s2_0_split_3
I0718 14:29:03.347311 32927 net.cpp:150] Setting up pool3/3x3_s2_pool3/3x3_s2_0_split
I0718 14:29:03.347334 32927 net.cpp:157] Top shape: 4 480 62 62 (7380480)
I0718 14:29:03.347357 32927 net.cpp:157] Top shape: 4 480 62 62 (7380480)
I0718 14:29:03.347378 32927 net.cpp:157] Top shape: 4 480 62 62 (7380480)
I0718 14:29:03.347393 32927 net.cpp:157] Top shape: 4 480 62 62 (7380480)
I0718 14:29:03.347405 32927 net.cpp:165] Memory required for data: 2835609648
I0718 14:29:03.347419 32927 layer_factory.hpp:76] Creating layer inception_4a/1x1
I0718 14:29:03.347445 32927 net.cpp:106] Creating Layer inception_4a/1x1
I0718 14:29:03.347460 32927 net.cpp:454] inception_4a/1x1 <- pool3/3x3_s2_pool3/3x3_s2_0_split_0
I0718 14:29:03.347478 32927 net.cpp:411] inception_4a/1x1 -> inception_4a/1x1
I0718 14:29:03.351903 32927 cudnn_conv_layer.cpp:194] Reallocating workspace storage: 5760
I0718 14:29:03.351974 32927 net.cpp:150] Setting up inception_4a/1x1
I0718 14:29:03.351999 32927 net.cpp:157] Top shape: 4 192 62 62 (2952192)
I0718 14:29:03.352018 32927 net.cpp:165] Memory required for data: 2847418416
I0718 14:29:03.352040 32927 layer_factory.hpp:76] Creating layer inception_4a/relu_1x1
I0718 14:29:03.352061 32927 net.cpp:106] Creating Layer inception_4a/relu_1x1
I0718 14:29:03.352077 32927 net.cpp:454] inception_4a/relu_1x1 <- inception_4a/1x1
I0718 14:29:03.352095 32927 net.cpp:397] inception_4a/relu_1x1 -> inception_4a/1x1 (in-place)
I0718 14:29:03.353123 32927 net.cpp:150] Setting up inception_4a/relu_1x1
I0718 14:29:03.353157 32927 net.cpp:157] Top shape: 4 192 62 62 (2952192)
I0718 14:29:03.353171 32927 net.cpp:165] Memory required for data: 2859227184
I0718 14:29:03.353185 32927 layer_factory.hpp:76] Creating layer inception_4a/3x3_reduce
I0718 14:29:03.353214 32927 net.cpp:106] Creating Layer inception_4a/3x3_reduce
I0718 14:29:03.353229 32927 net.cpp:454] inception_4a/3x3_reduce <- pool3/3x3_s2_pool3/3x3_s2_0_split_1
I0718 14:29:03.353252 32927 net.cpp:411] inception_4a/3x3_reduce -> inception_4a/3x3_reduce
I0718 14:29:03.359598 32927 cudnn_conv_layer.cpp:194] Reallocating workspace storage: 5760
I0718 14:29:03.359724 32927 net.cpp:150] Setting up inception_4a/3x3_reduce
I0718 14:29:03.359756 32927 net.cpp:157] Top shape: 4 96 62 62 (1476096)
I0718 14:29:03.359773 32927 net.cpp:165] Memory required for data: 2865131568
I0718 14:29:03.359824 32927 layer_factory.hpp:76] Creating layer inception_4a/relu_3x3_reduce
I0718 14:29:03.359858 32927 net.cpp:106] Creating Layer inception_4a/relu_3x3_reduce
I0718 14:29:03.359879 32927 net.cpp:454] inception_4a/relu_3x3_reduce <- inception_4a/3x3_reduce
I0718 14:29:03.359907 32927 net.cpp:397] inception_4a/relu_3x3_reduce -> inception_4a/3x3_reduce (in-place)
I0718 14:29:03.361711 32927 net.cpp:150] Setting up inception_4a/relu_3x3_reduce
I0718 14:29:03.361830 32927 net.cpp:157] Top shape: 4 96 62 62 (1476096)
I0718 14:29:03.361850 32927 net.cpp:165] Memory required for data: 2871035952
I0718 14:29:03.361868 32927 layer_factory.hpp:76] Creating layer inception_4a/3x3
I0718 14:29:03.361908 32927 net.cpp:106] Creating Layer inception_4a/3x3
I0718 14:29:03.361943 32927 net.cpp:454] inception_4a/3x3 <- inception_4a/3x3_reduce
I0718 14:29:03.361971 32927 net.cpp:411] inception_4a/3x3 -> inception_4a/3x3
I0718 14:29:03.368010 32927 net.cpp:150] Setting up inception_4a/3x3
I0718 14:29:03.368074 32927 net.cpp:157] Top shape: 4 208 62 62 (3198208)
I0718 14:29:03.368091 32927 net.cpp:165] Memory required for data: 2883828784
I0718 14:29:03.368115 32927 layer_factory.hpp:76] Creating layer inception_4a/relu_3x3
I0718 14:29:03.368136 32927 net.cpp:106] Creating Layer inception_4a/relu_3x3
I0718 14:29:03.368155 32927 net.cpp:454] inception_4a/relu_3x3 <- inception_4a/3x3
I0718 14:29:03.368175 32927 net.cpp:397] inception_4a/relu_3x3 -> inception_4a/3x3 (in-place)
I0718 14:29:03.370473 32927 net.cpp:150] Setting up inception_4a/relu_3x3
I0718 14:29:03.370507 32927 net.cpp:157] Top shape: 4 208 62 62 (3198208)
I0718 14:29:03.370522 32927 net.cpp:165] Memory required for data: 2896621616
I0718 14:29:03.370537 32927 layer_factory.hpp:76] Creating layer inception_4a/5x5_reduce
I0718 14:29:03.370568 32927 net.cpp:106] Creating Layer inception_4a/5x5_reduce
I0718 14:29:03.370587 32927 net.cpp:454] inception_4a/5x5_reduce <- pool3/3x3_s2_pool3/3x3_s2_0_split_2
I0718 14:29:03.370612 32927 net.cpp:411] inception_4a/5x5_reduce -> inception_4a/5x5_reduce
I0718 14:29:03.382998 32927 net.cpp:150] Setting up inception_4a/5x5_reduce
I0718 14:29:03.383067 32927 net.cpp:157] Top shape: 4 16 62 62 (246016)
I0718 14:29:03.383083 32927 net.cpp:165] Memory required for data: 2897605680
I0718 14:29:03.383107 32927 layer_factory.hpp:76] Creating layer inception_4a/relu_5x5_reduce
I0718 14:29:03.383141 32927 net.cpp:106] Creating Layer inception_4a/relu_5x5_reduce
I0718 14:29:03.383160 32927 net.cpp:454] inception_4a/relu_5x5_reduce <- inception_4a/5x5_reduce
I0718 14:29:03.383183 32927 net.cpp:397] inception_4a/relu_5x5_reduce -> inception_4a/5x5_reduce (in-place)
I0718 14:29:03.384652 32927 net.cpp:150] Setting up inception_4a/relu_5x5_reduce
I0718 14:29:03.384721 32927 net.cpp:157] Top shape: 4 16 62 62 (246016)
I0718 14:29:03.384737 32927 net.cpp:165] Memory required for data: 2898589744
I0718 14:29:03.384752 32927 layer_factory.hpp:76] Creating layer inception_4a/5x5
I0718 14:29:03.384800 32927 net.cpp:106] Creating Layer inception_4a/5x5
I0718 14:29:03.384824 32927 net.cpp:454] inception_4a/5x5 <- inception_4a/5x5_reduce
I0718 14:29:03.384852 32927 net.cpp:411] inception_4a/5x5 -> inception_4a/5x5
I0718 14:29:03.391787 32927 net.cpp:150] Setting up inception_4a/5x5
I0718 14:29:03.391851 32927 net.cpp:157] Top shape: 4 48 62 62 (738048)
I0718 14:29:03.391865 32927 net.cpp:165] Memory required for data: 2901541936
I0718 14:29:03.391890 32927 layer_factory.hpp:76] Creating layer inception_4a/relu_5x5
I0718 14:29:03.391921 32927 net.cpp:106] Creating Layer inception_4a/relu_5x5
I0718 14:29:03.391940 32927 net.cpp:454] inception_4a/relu_5x5 <- inception_4a/5x5
I0718 14:29:03.391960 32927 net.cpp:397] inception_4a/relu_5x5 -> inception_4a/5x5 (in-place)
I0718 14:29:03.392771 32927 net.cpp:150] Setting up inception_4a/relu_5x5
I0718 14:29:03.392810 32927 net.cpp:157] Top shape: 4 48 62 62 (738048)
I0718 14:29:03.392824 32927 net.cpp:165] Memory required for data: 2904494128
I0718 14:29:03.392838 32927 layer_factory.hpp:76] Creating layer inception_4a/pool
I0718 14:29:03.392865 32927 net.cpp:106] Creating Layer inception_4a/pool
I0718 14:29:03.392884 32927 net.cpp:454] inception_4a/pool <- pool3/3x3_s2_pool3/3x3_s2_0_split_3
I0718 14:29:03.392907 32927 net.cpp:411] inception_4a/pool -> inception_4a/pool
I0718 14:29:03.394819 32927 net.cpp:150] Setting up inception_4a/pool
I0718 14:29:03.394866 32927 net.cpp:157] Top shape: 4 480 62 62 (7380480)
I0718 14:29:03.394881 32927 net.cpp:165] Memory required for data: 2934016048
I0718 14:29:03.394942 32927 layer_factory.hpp:76] Creating layer inception_4a/pool_proj
I0718 14:29:03.394981 32927 net.cpp:106] Creating Layer inception_4a/pool_proj
I0718 14:29:03.395001 32927 net.cpp:454] inception_4a/pool_proj <- inception_4a/pool
I0718 14:29:03.395023 32927 net.cpp:411] inception_4a/pool_proj -> inception_4a/pool_proj
I0718 14:29:03.402963 32927 cudnn_conv_layer.cpp:194] Reallocating workspace storage: 5760
I0718 14:29:03.403051 32927 net.cpp:150] Setting up inception_4a/pool_proj
I0718 14:29:03.403079 32927 net.cpp:157] Top shape: 4 64 62 62 (984064)
I0718 14:29:03.403093 32927 net.cpp:165] Memory required for data: 2937952304
I0718 14:29:03.403120 32927 layer_factory.hpp:76] Creating layer inception_4a/relu_pool_proj
I0718 14:29:03.403147 32927 net.cpp:106] Creating Layer inception_4a/relu_pool_proj
I0718 14:29:03.403167 32927 net.cpp:454] inception_4a/relu_pool_proj <- inception_4a/pool_proj
I0718 14:29:03.403192 32927 net.cpp:397] inception_4a/relu_pool_proj -> inception_4a/pool_proj (in-place)
I0718 14:29:03.405087 32927 net.cpp:150] Setting up inception_4a/relu_pool_proj
I0718 14:29:03.405153 32927 net.cpp:157] Top shape: 4 64 62 62 (984064)
I0718 14:29:03.405170 32927 net.cpp:165] Memory required for data: 2941888560
I0718 14:29:03.405189 32927 layer_factory.hpp:76] Creating layer inception_4a/output
I0718 14:29:03.405213 32927 net.cpp:106] Creating Layer inception_4a/output
I0718 14:29:03.405232 32927 net.cpp:454] inception_4a/output <- inception_4a/1x1
I0718 14:29:03.405254 32927 net.cpp:454] inception_4a/output <- inception_4a/3x3
I0718 14:29:03.405272 32927 net.cpp:454] inception_4a/output <- inception_4a/5x5
I0718 14:29:03.405288 32927 net.cpp:454] inception_4a/output <- inception_4a/pool_proj
I0718 14:29:03.405305 32927 net.cpp:411] inception_4a/output -> inception_4a/output
I0718 14:29:03.405417 32927 net.cpp:150] Setting up inception_4a/output
I0718 14:29:03.405441 32927 net.cpp:157] Top shape: 4 512 62 62 (7872512)
I0718 14:29:03.405457 32927 net.cpp:165] Memory required for data: 2973378608
I0718 14:29:03.405470 32927 layer_factory.hpp:76] Creating layer inception_4a/output_inception_4a/output_0_split
I0718 14:29:03.405490 32927 net.cpp:106] Creating Layer inception_4a/output_inception_4a/output_0_split
I0718 14:29:03.405504 32927 net.cpp:454] inception_4a/output_inception_4a/output_0_split <- inception_4a/output
I0718 14:29:03.405525 32927 net.cpp:411] inception_4a/output_inception_4a/output_0_split -> inception_4a/output_inception_4a/output_0_split_0
I0718 14:29:03.405546 32927 net.cpp:411] inception_4a/output_inception_4a/output_0_split -> inception_4a/output_inception_4a/output_0_split_1
I0718 14:29:03.405566 32927 net.cpp:411] inception_4a/output_inception_4a/output_0_split -> inception_4a/output_inception_4a/output_0_split_2
I0718 14:29:03.405585 32927 net.cpp:411] inception_4a/output_inception_4a/output_0_split -> inception_4a/output_inception_4a/output_0_split_3
I0718 14:29:03.405700 32927 net.cpp:150] Setting up inception_4a/output_inception_4a/output_0_split
I0718 14:29:03.405726 32927 net.cpp:157] Top shape: 4 512 62 62 (7872512)
I0718 14:29:03.405742 32927 net.cpp:157] Top shape: 4 512 62 62 (7872512)
I0718 14:29:03.405758 32927 net.cpp:157] Top shape: 4 512 62 62 (7872512)
I0718 14:29:03.405773 32927 net.cpp:157] Top shape: 4 512 62 62 (7872512)
I0718 14:29:03.405786 32927 net.cpp:165] Memory required for data: 3099338800
I0718 14:29:03.405800 32927 layer_factory.hpp:76] Creating layer inception_4b/1x1
I0718 14:29:03.405824 32927 net.cpp:106] Creating Layer inception_4b/1x1
I0718 14:29:03.405840 32927 net.cpp:454] inception_4b/1x1 <- inception_4a/output_inception_4a/output_0_split_0
I0718 14:29:03.405863 32927 net.cpp:411] inception_4b/1x1 -> inception_4b/1x1
I0718 14:29:03.412192 32927 cudnn_conv_layer.cpp:194] Reallocating workspace storage: 6144
I0718 14:29:03.412295 32927 net.cpp:150] Setting up inception_4b/1x1
I0718 14:29:03.412323 32927 net.cpp:157] Top shape: 4 160 62 62 (2460160)
I0718 14:29:03.412339 32927 net.cpp:165] Memory required for data: 3109179440
I0718 14:29:03.412430 32927 layer_factory.hpp:76] Creating layer inception_4b/relu_1x1
I0718 14:29:03.412461 32927 net.cpp:106] Creating Layer inception_4b/relu_1x1
I0718 14:29:03.412487 32927 net.cpp:454] inception_4b/relu_1x1 <- inception_4b/1x1
I0718 14:29:03.412519 32927 net.cpp:397] inception_4b/relu_1x1 -> inception_4b/1x1 (in-place)
I0718 14:29:03.413871 32927 net.cpp:150] Setting up inception_4b/relu_1x1
I0718 14:29:03.413915 32927 net.cpp:157] Top shape: 4 160 62 62 (2460160)
I0718 14:29:03.413936 32927 net.cpp:165] Memory required for data: 3119020080
I0718 14:29:03.413954 32927 layer_factory.hpp:76] Creating layer inception_4b/3x3_reduce
I0718 14:29:03.413992 32927 net.cpp:106] Creating Layer inception_4b/3x3_reduce
I0718 14:29:03.414018 32927 net.cpp:454] inception_4b/3x3_reduce <- inception_4a/output_inception_4a/output_0_split_1
I0718 14:29:03.414047 32927 net.cpp:411] inception_4b/3x3_reduce -> inception_4b/3x3_reduce
I0718 14:29:03.421779 32927 cudnn_conv_layer.cpp:194] Reallocating workspace storage: 6144
I0718 14:29:03.421887 32927 net.cpp:150] Setting up inception_4b/3x3_reduce
I0718 14:29:03.421916 32927 net.cpp:157] Top shape: 4 112 62 62 (1722112)
I0718 14:29:03.421931 32927 net.cpp:165] Memory required for data: 3125908528
I0718 14:29:03.421959 32927 layer_factory.hpp:76] Creating layer inception_4b/relu_3x3_reduce
I0718 14:29:03.421996 32927 net.cpp:106] Creating Layer inception_4b/relu_3x3_reduce
I0718 14:29:03.422018 32927 net.cpp:454] inception_4b/relu_3x3_reduce <- inception_4b/3x3_reduce
I0718 14:29:03.422041 32927 net.cpp:397] inception_4b/relu_3x3_reduce -> inception_4b/3x3_reduce (in-place)
I0718 14:29:03.423566 32927 net.cpp:150] Setting up inception_4b/relu_3x3_reduce
I0718 14:29:03.423615 32927 net.cpp:157] Top shape: 4 112 62 62 (1722112)
I0718 14:29:03.423643 32927 net.cpp:165] Memory required for data: 3132796976
I0718 14:29:03.423667 32927 layer_factory.hpp:76] Creating layer inception_4b/3x3
I0718 14:29:03.423701 32927 net.cpp:106] Creating Layer inception_4b/3x3
I0718 14:29:03.423719 32927 net.cpp:454] inception_4b/3x3 <- inception_4b/3x3_reduce
I0718 14:29:03.423748 32927 net.cpp:411] inception_4b/3x3 -> inception_4b/3x3
I0718 14:29:03.430995 32927 cudnn_conv_layer.cpp:194] Reallocating workspace storage: 12096
I0718 14:29:03.431080 32927 net.cpp:150] Setting up inception_4b/3x3
I0718 14:29:03.431107 32927 net.cpp:157] Top shape: 4 224 62 62 (3444224)
I0718 14:29:03.431121 32927 net.cpp:165] Memory required for data: 3146573872
I0718 14:29:03.431146 32927 layer_factory.hpp:76] Creating layer inception_4b/relu_3x3
I0718 14:29:03.431195 32927 net.cpp:106] Creating Layer inception_4b/relu_3x3
I0718 14:29:03.431217 32927 net.cpp:454] inception_4b/relu_3x3 <- inception_4b/3x3
I0718 14:29:03.431249 32927 net.cpp:397] inception_4b/relu_3x3 -> inception_4b/3x3 (in-place)
I0718 14:29:03.433212 32927 net.cpp:150] Setting up inception_4b/relu_3x3
I0718 14:29:03.433295 32927 net.cpp:157] Top shape: 4 224 62 62 (3444224)
I0718 14:29:03.433313 32927 net.cpp:165] Memory required for data: 3160350768
I0718 14:29:03.433349 32927 layer_factory.hpp:76] Creating layer inception_4b/5x5_reduce
I0718 14:29:03.433398 32927 net.cpp:106] Creating Layer inception_4b/5x5_reduce
I0718 14:29:03.433418 32927 net.cpp:454] inception_4b/5x5_reduce <- inception_4a/output_inception_4a/output_0_split_2
I0718 14:29:03.433447 32927 net.cpp:411] inception_4b/5x5_reduce -> inception_4b/5x5_reduce
I0718 14:29:03.440629 32927 cudnn_conv_layer.cpp:194] Reallocating workspace storage: 6144
I0718 14:29:03.440801 32927 net.cpp:150] Setting up inception_4b/5x5_reduce
I0718 14:29:03.440837 32927 net.cpp:157] Top shape: 4 24 62 62 (369024)
I0718 14:29:03.440860 32927 net.cpp:165] Memory required for data: 3161826864
I0718 14:29:03.440901 32927 layer_factory.hpp:76] Creating layer inception_4b/relu_5x5_reduce
I0718 14:29:03.440953 32927 net.cpp:106] Creating Layer inception_4b/relu_5x5_reduce
I0718 14:29:03.440979 32927 net.cpp:454] inception_4b/relu_5x5_reduce <- inception_4b/5x5_reduce
I0718 14:29:03.441004 32927 net.cpp:397] inception_4b/relu_5x5_reduce -> inception_4b/5x5_reduce (in-place)
I0718 14:29:03.442730 32927 net.cpp:150] Setting up inception_4b/relu_5x5_reduce
I0718 14:29:03.442795 32927 net.cpp:157] Top shape: 4 24 62 62 (369024)
I0718 14:29:03.442811 32927 net.cpp:165] Memory required for data: 3163302960
I0718 14:29:03.442828 32927 layer_factory.hpp:76] Creating layer inception_4b/5x5
I0718 14:29:03.442869 32927 net.cpp:106] Creating Layer inception_4b/5x5
I0718 14:29:03.442890 32927 net.cpp:454] inception_4b/5x5 <- inception_4b/5x5_reduce
I0718 14:29:03.442919 32927 net.cpp:411] inception_4b/5x5 -> inception_4b/5x5
I0718 14:29:03.452246 32927 net.cpp:150] Setting up inception_4b/5x5
I0718 14:29:03.452383 32927 net.cpp:157] Top shape: 4 64 62 62 (984064)
I0718 14:29:03.452400 32927 net.cpp:165] Memory required for data: 3167239216
I0718 14:29:03.452458 32927 layer_factory.hpp:76] Creating layer inception_4b/relu_5x5
I0718 14:29:03.452533 32927 net.cpp:106] Creating Layer inception_4b/relu_5x5
I0718 14:29:03.452579 32927 net.cpp:454] inception_4b/relu_5x5 <- inception_4b/5x5
I0718 14:29:03.452617 32927 net.cpp:397] inception_4b/relu_5x5 -> inception_4b/5x5 (in-place)
I0718 14:29:03.453526 32927 net.cpp:150] Setting up inception_4b/relu_5x5
I0718 14:29:03.453588 32927 net.cpp:157] Top shape: 4 64 62 62 (984064)
I0718 14:29:03.453604 32927 net.cpp:165] Memory required for data: 3171175472
I0718 14:29:03.453629 32927 layer_factory.hpp:76] Creating layer inception_4b/pool
I0718 14:29:03.453668 32927 net.cpp:106] Creating Layer inception_4b/pool
I0718 14:29:03.453696 32927 net.cpp:454] inception_4b/pool <- inception_4a/output_inception_4a/output_0_split_3
I0718 14:29:03.453728 32927 net.cpp:411] inception_4b/pool -> inception_4b/pool
I0718 14:29:03.454931 32927 net.cpp:150] Setting up inception_4b/pool
I0718 14:29:03.454977 32927 net.cpp:157] Top shape: 4 512 62 62 (7872512)
I0718 14:29:03.454995 32927 net.cpp:165] Memory required for data: 3202665520
I0718 14:29:03.455029 32927 layer_factory.hpp:76] Creating layer inception_4b/pool_proj
I0718 14:29:03.455071 32927 net.cpp:106] Creating Layer inception_4b/pool_proj
I0718 14:29:03.455090 32927 net.cpp:454] inception_4b/pool_proj <- inception_4b/pool
I0718 14:29:03.455119 32927 net.cpp:411] inception_4b/pool_proj -> inception_4b/pool_proj
I0718 14:29:03.466635 32927 net.cpp:150] Setting up inception_4b/pool_proj
I0718 14:29:03.466729 32927 net.cpp:157] Top shape: 4 64 62 62 (984064)
I0718 14:29:03.466747 32927 net.cpp:165] Memory required for data: 3206601776
I0718 14:29:03.466784 32927 layer_factory.hpp:76] Creating layer inception_4b/relu_pool_proj
I0718 14:29:03.466817 32927 net.cpp:106] Creating Layer inception_4b/relu_pool_proj
I0718 14:29:03.466840 32927 net.cpp:454] inception_4b/relu_pool_proj <- inception_4b/pool_proj
I0718 14:29:03.466864 32927 net.cpp:397] inception_4b/relu_pool_proj -> inception_4b/pool_proj (in-place)
I0718 14:29:03.468366 32927 net.cpp:150] Setting up inception_4b/relu_pool_proj
I0718 14:29:03.468423 32927 net.cpp:157] Top shape: 4 64 62 62 (984064)
I0718 14:29:03.468439 32927 net.cpp:165] Memory required for data: 3210538032
I0718 14:29:03.468456 32927 layer_factory.hpp:76] Creating layer inception_4b/output
I0718 14:29:03.468485 32927 net.cpp:106] Creating Layer inception_4b/output
I0718 14:29:03.468504 32927 net.cpp:454] inception_4b/output <- inception_4b/1x1
I0718 14:29:03.468524 32927 net.cpp:454] inception_4b/output <- inception_4b/3x3
I0718 14:29:03.468541 32927 net.cpp:454] inception_4b/output <- inception_4b/5x5
I0718 14:29:03.468557 32927 net.cpp:454] inception_4b/output <- inception_4b/pool_proj
I0718 14:29:03.468575 32927 net.cpp:411] inception_4b/output -> inception_4b/output
I0718 14:29:03.468674 32927 net.cpp:150] Setting up inception_4b/output
I0718 14:29:03.468701 32927 net.cpp:157] Top shape: 4 512 62 62 (7872512)
I0718 14:29:03.468715 32927 net.cpp:165] Memory required for data: 3242028080
I0718 14:29:03.468729 32927 layer_factory.hpp:76] Creating layer inception_4b/output_inception_4b/output_0_split
I0718 14:29:03.468750 32927 net.cpp:106] Creating Layer inception_4b/output_inception_4b/output_0_split
I0718 14:29:03.468802 32927 net.cpp:454] inception_4b/output_inception_4b/output_0_split <- inception_4b/output
I0718 14:29:03.468832 32927 net.cpp:411] inception_4b/output_inception_4b/output_0_split -> inception_4b/output_inception_4b/output_0_split_0
I0718 14:29:03.468853 32927 net.cpp:411] inception_4b/output_inception_4b/output_0_split -> inception_4b/output_inception_4b/output_0_split_1
I0718 14:29:03.468873 32927 net.cpp:411] inception_4b/output_inception_4b/output_0_split -> inception_4b/output_inception_4b/output_0_split_2
I0718 14:29:03.468891 32927 net.cpp:411] inception_4b/output_inception_4b/output_0_split -> inception_4b/output_inception_4b/output_0_split_3
I0718 14:29:03.469017 32927 net.cpp:150] Setting up inception_4b/output_inception_4b/output_0_split
I0718 14:29:03.469045 32927 net.cpp:157] Top shape: 4 512 62 62 (7872512)
I0718 14:29:03.469060 32927 net.cpp:157] Top shape: 4 512 62 62 (7872512)
I0718 14:29:03.469076 32927 net.cpp:157] Top shape: 4 512 62 62 (7872512)
I0718 14:29:03.469091 32927 net.cpp:157] Top shape: 4 512 62 62 (7872512)
I0718 14:29:03.469105 32927 net.cpp:165] Memory required for data: 3367988272
I0718 14:29:03.469118 32927 layer_factory.hpp:76] Creating layer inception_4c/1x1
I0718 14:29:03.469144 32927 net.cpp:106] Creating Layer inception_4c/1x1
I0718 14:29:03.469159 32927 net.cpp:454] inception_4c/1x1 <- inception_4b/output_inception_4b/output_0_split_0
I0718 14:29:03.469180 32927 net.cpp:411] inception_4c/1x1 -> inception_4c/1x1
I0718 14:29:03.475831 32927 cudnn_conv_layer.cpp:194] Reallocating workspace storage: 6144
I0718 14:29:03.475983 32927 net.cpp:150] Setting up inception_4c/1x1
I0718 14:29:03.476032 32927 net.cpp:157] Top shape: 4 128 62 62 (1968128)
I0718 14:29:03.476055 32927 net.cpp:165] Memory required for data: 3375860784
I0718 14:29:03.476104 32927 layer_factory.hpp:76] Creating layer inception_4c/relu_1x1
I0718 14:29:03.476150 32927 net.cpp:106] Creating Layer inception_4c/relu_1x1
I0718 14:29:03.476181 32927 net.cpp:454] inception_4c/relu_1x1 <- inception_4c/1x1
I0718 14:29:03.476223 32927 net.cpp:397] inception_4c/relu_1x1 -> inception_4c/1x1 (in-place)
I0718 14:29:03.477910 32927 net.cpp:150] Setting up inception_4c/relu_1x1
I0718 14:29:03.477998 32927 net.cpp:157] Top shape: 4 128 62 62 (1968128)
I0718 14:29:03.478016 32927 net.cpp:165] Memory required for data: 3383733296
I0718 14:29:03.478034 32927 layer_factory.hpp:76] Creating layer inception_4c/3x3_reduce
I0718 14:29:03.478086 32927 net.cpp:106] Creating Layer inception_4c/3x3_reduce
I0718 14:29:03.478114 32927 net.cpp:454] inception_4c/3x3_reduce <- inception_4b/output_inception_4b/output_0_split_1
I0718 14:29:03.478149 32927 net.cpp:411] inception_4c/3x3_reduce -> inception_4c/3x3_reduce
I0718 14:29:03.487429 32927 cudnn_conv_layer.cpp:194] Reallocating workspace storage: 6144
I0718 14:29:03.487622 32927 net.cpp:150] Setting up inception_4c/3x3_reduce
I0718 14:29:03.487673 32927 net.cpp:157] Top shape: 4 128 62 62 (1968128)
I0718 14:29:03.487732 32927 net.cpp:165] Memory required for data: 3391605808
I0718 14:29:03.487823 32927 layer_factory.hpp:76] Creating layer inception_4c/relu_3x3_reduce
I0718 14:29:03.487880 32927 net.cpp:106] Creating Layer inception_4c/relu_3x3_reduce
I0718 14:29:03.487943 32927 net.cpp:454] inception_4c/relu_3x3_reduce <- inception_4c/3x3_reduce
I0718 14:29:03.488024 32927 net.cpp:397] inception_4c/relu_3x3_reduce -> inception_4c/3x3_reduce (in-place)
I0718 14:29:03.489454 32927 net.cpp:150] Setting up inception_4c/relu_3x3_reduce
I0718 14:29:03.489560 32927 net.cpp:157] Top shape: 4 128 62 62 (1968128)
I0718 14:29:03.489622 32927 net.cpp:165] Memory required for data: 3399478320
I0718 14:29:03.489668 32927 layer_factory.hpp:76] Creating layer inception_4c/3x3
I0718 14:29:03.489770 32927 net.cpp:106] Creating Layer inception_4c/3x3
I0718 14:29:03.489820 32927 net.cpp:454] inception_4c/3x3 <- inception_4c/3x3_reduce
I0718 14:29:03.489864 32927 net.cpp:411] inception_4c/3x3 -> inception_4c/3x3
I0718 14:29:03.502535 32927 cudnn_conv_layer.cpp:194] Reallocating workspace storage: 13824
I0718 14:29:03.502660 32927 net.cpp:150] Setting up inception_4c/3x3
I0718 14:29:03.502706 32927 net.cpp:157] Top shape: 4 256 62 62 (3936256)
I0718 14:29:03.502725 32927 net.cpp:165] Memory required for data: 3415223344
I0718 14:29:03.502758 32927 layer_factory.hpp:76] Creating layer inception_4c/relu_3x3
I0718 14:29:03.502802 32927 net.cpp:106] Creating Layer inception_4c/relu_3x3
I0718 14:29:03.502835 32927 net.cpp:454] inception_4c/relu_3x3 <- inception_4c/3x3
I0718 14:29:03.502883 32927 net.cpp:397] inception_4c/relu_3x3 -> inception_4c/3x3 (in-place)
I0718 14:29:03.504730 32927 net.cpp:150] Setting up inception_4c/relu_3x3
I0718 14:29:03.504802 32927 net.cpp:157] Top shape: 4 256 62 62 (3936256)
I0718 14:29:03.504818 32927 net.cpp:165] Memory required for data: 3430968368
I0718 14:29:03.504839 32927 layer_factory.hpp:76] Creating layer inception_4c/5x5_reduce
I0718 14:29:03.504878 32927 net.cpp:106] Creating Layer inception_4c/5x5_reduce
I0718 14:29:03.504904 32927 net.cpp:454] inception_4c/5x5_reduce <- inception_4b/output_inception_4b/output_0_split_2
I0718 14:29:03.504932 32927 net.cpp:411] inception_4c/5x5_reduce -> inception_4c/5x5_reduce
I0718 14:29:03.512363 32927 cudnn_conv_layer.cpp:194] Reallocating workspace storage: 6144
I0718 14:29:03.512486 32927 net.cpp:150] Setting up inception_4c/5x5_reduce
I0718 14:29:03.512526 32927 net.cpp:157] Top shape: 4 24 62 62 (369024)
I0718 14:29:03.512540 32927 net.cpp:165] Memory required for data: 3432444464
I0718 14:29:03.512564 32927 layer_factory.hpp:76] Creating layer inception_4c/relu_5x5_reduce
I0718 14:29:03.512605 32927 net.cpp:106] Creating Layer inception_4c/relu_5x5_reduce
I0718 14:29:03.512650 32927 net.cpp:454] inception_4c/relu_5x5_reduce <- inception_4c/5x5_reduce
I0718 14:29:03.512688 32927 net.cpp:397] inception_4c/relu_5x5_reduce -> inception_4c/5x5_reduce (in-place)
I0718 14:29:03.513526 32927 net.cpp:150] Setting up inception_4c/relu_5x5_reduce
I0718 14:29:03.513566 32927 net.cpp:157] Top shape: 4 24 62 62 (369024)
I0718 14:29:03.513583 32927 net.cpp:165] Memory required for data: 3433920560
I0718 14:29:03.513599 32927 layer_factory.hpp:76] Creating layer inception_4c/5x5
I0718 14:29:03.513633 32927 net.cpp:106] Creating Layer inception_4c/5x5
I0718 14:29:03.513653 32927 net.cpp:454] inception_4c/5x5 <- inception_4c/5x5_reduce
I0718 14:29:03.513680 32927 net.cpp:411] inception_4c/5x5 -> inception_4c/5x5
I0718 14:29:03.522958 32927 net.cpp:150] Setting up inception_4c/5x5
I0718 14:29:03.523037 32927 net.cpp:157] Top shape: 4 64 62 62 (984064)
I0718 14:29:03.523059 32927 net.cpp:165] Memory required for data: 3437856816
I0718 14:29:03.523094 32927 layer_factory.hpp:76] Creating layer inception_4c/relu_5x5
I0718 14:29:03.523136 32927 net.cpp:106] Creating Layer inception_4c/relu_5x5
I0718 14:29:03.523169 32927 net.cpp:454] inception_4c/relu_5x5 <- inception_4c/5x5
I0718 14:29:03.523196 32927 net.cpp:397] inception_4c/relu_5x5 -> inception_4c/5x5 (in-place)
I0718 14:29:03.525146 32927 net.cpp:150] Setting up inception_4c/relu_5x5
I0718 14:29:03.525205 32927 net.cpp:157] Top shape: 4 64 62 62 (984064)
I0718 14:29:03.525220 32927 net.cpp:165] Memory required for data: 3441793072
I0718 14:29:03.525254 32927 layer_factory.hpp:76] Creating layer inception_4c/pool
I0718 14:29:03.525300 32927 net.cpp:106] Creating Layer inception_4c/pool
I0718 14:29:03.525331 32927 net.cpp:454] inception_4c/pool <- inception_4b/output_inception_4b/output_0_split_3
I0718 14:29:03.525365 32927 net.cpp:411] inception_4c/pool -> inception_4c/pool
I0718 14:29:03.528192 32927 net.cpp:150] Setting up inception_4c/pool
I0718 14:29:03.528269 32927 net.cpp:157] Top shape: 4 512 62 62 (7872512)
I0718 14:29:03.528283 32927 net.cpp:165] Memory required for data: 3473283120
I0718 14:29:03.528301 32927 layer_factory.hpp:76] Creating layer inception_4c/pool_proj
I0718 14:29:03.528344 32927 net.cpp:106] Creating Layer inception_4c/pool_proj
I0718 14:29:03.528364 32927 net.cpp:454] inception_4c/pool_proj <- inception_4c/pool
I0718 14:29:03.528429 32927 net.cpp:411] inception_4c/pool_proj -> inception_4c/pool_proj
I0718 14:29:03.538524 32927 net.cpp:150] Setting up inception_4c/pool_proj
I0718 14:29:03.538645 32927 net.cpp:157] Top shape: 4 64 62 62 (984064)
I0718 14:29:03.538666 32927 net.cpp:165] Memory required for data: 3477219376
I0718 14:29:03.538789 32927 layer_factory.hpp:76] Creating layer inception_4c/relu_pool_proj
I0718 14:29:03.538837 32927 net.cpp:106] Creating Layer inception_4c/relu_pool_proj
I0718 14:29:03.538866 32927 net.cpp:454] inception_4c/relu_pool_proj <- inception_4c/pool_proj
I0718 14:29:03.538897 32927 net.cpp:397] inception_4c/relu_pool_proj -> inception_4c/pool_proj (in-place)
I0718 14:29:03.542116 32927 net.cpp:150] Setting up inception_4c/relu_pool_proj
I0718 14:29:03.542244 32927 net.cpp:157] Top shape: 4 64 62 62 (984064)
I0718 14:29:03.542274 32927 net.cpp:165] Memory required for data: 3481155632
I0718 14:29:03.542314 32927 layer_factory.hpp:76] Creating layer inception_4c/output
I0718 14:29:03.542356 32927 net.cpp:106] Creating Layer inception_4c/output
I0718 14:29:03.542393 32927 net.cpp:454] inception_4c/output <- inception_4c/1x1
I0718 14:29:03.542424 32927 net.cpp:454] inception_4c/output <- inception_4c/3x3
I0718 14:29:03.542464 32927 net.cpp:454] inception_4c/output <- inception_4c/5x5
I0718 14:29:03.542510 32927 net.cpp:454] inception_4c/output <- inception_4c/pool_proj
I0718 14:29:03.542565 32927 net.cpp:411] inception_4c/output -> inception_4c/output
I0718 14:29:03.542848 32927 net.cpp:150] Setting up inception_4c/output
I0718 14:29:03.542881 32927 net.cpp:157] Top shape: 4 512 62 62 (7872512)
I0718 14:29:03.542896 32927 net.cpp:165] Memory required for data: 3512645680
I0718 14:29:03.542915 32927 layer_factory.hpp:76] Creating layer inception_4c/output_inception_4c/output_0_split
I0718 14:29:03.542963 32927 net.cpp:106] Creating Layer inception_4c/output_inception_4c/output_0_split
I0718 14:29:03.542987 32927 net.cpp:454] inception_4c/output_inception_4c/output_0_split <- inception_4c/output
I0718 14:29:03.543009 32927 net.cpp:411] inception_4c/output_inception_4c/output_0_split -> inception_4c/output_inception_4c/output_0_split_0
I0718 14:29:03.543033 32927 net.cpp:411] inception_4c/output_inception_4c/output_0_split -> inception_4c/output_inception_4c/output_0_split_1
I0718 14:29:03.543056 32927 net.cpp:411] inception_4c/output_inception_4c/output_0_split -> inception_4c/output_inception_4c/output_0_split_2
I0718 14:29:03.543087 32927 net.cpp:411] inception_4c/output_inception_4c/output_0_split -> inception_4c/output_inception_4c/output_0_split_3
I0718 14:29:03.543272 32927 net.cpp:150] Setting up inception_4c/output_inception_4c/output_0_split
I0718 14:29:03.543306 32927 net.cpp:157] Top shape: 4 512 62 62 (7872512)
I0718 14:29:03.543344 32927 net.cpp:157] Top shape: 4 512 62 62 (7872512)
I0718 14:29:03.543372 32927 net.cpp:157] Top shape: 4 512 62 62 (7872512)
I0718 14:29:03.543406 32927 net.cpp:157] Top shape: 4 512 62 62 (7872512)
I0718 14:29:03.543436 32927 net.cpp:165] Memory required for data: 3638605872
I0718 14:29:03.543468 32927 layer_factory.hpp:76] Creating layer inception_4d/1x1
I0718 14:29:03.543522 32927 net.cpp:106] Creating Layer inception_4d/1x1
I0718 14:29:03.543550 32927 net.cpp:454] inception_4d/1x1 <- inception_4c/output_inception_4c/output_0_split_0
I0718 14:29:03.543588 32927 net.cpp:411] inception_4d/1x1 -> inception_4d/1x1
I0718 14:29:03.552341 32927 cudnn_conv_layer.cpp:194] Reallocating workspace storage: 6144
I0718 14:29:03.552466 32927 net.cpp:150] Setting up inception_4d/1x1
I0718 14:29:03.552534 32927 net.cpp:157] Top shape: 4 112 62 62 (1722112)
I0718 14:29:03.552568 32927 net.cpp:165] Memory required for data: 3645494320
I0718 14:29:03.552629 32927 layer_factory.hpp:76] Creating layer inception_4d/relu_1x1
I0718 14:29:03.552671 32927 net.cpp:106] Creating Layer inception_4d/relu_1x1
I0718 14:29:03.552693 32927 net.cpp:454] inception_4d/relu_1x1 <- inception_4d/1x1
I0718 14:29:03.552723 32927 net.cpp:397] inception_4d/relu_1x1 -> inception_4d/1x1 (in-place)
I0718 14:29:03.554409 32927 net.cpp:150] Setting up inception_4d/relu_1x1
I0718 14:29:03.554472 32927 net.cpp:157] Top shape: 4 112 62 62 (1722112)
I0718 14:29:03.554505 32927 net.cpp:165] Memory required for data: 3652382768
I0718 14:29:03.554532 32927 layer_factory.hpp:76] Creating layer inception_4d/3x3_reduce
I0718 14:29:03.554582 32927 net.cpp:106] Creating Layer inception_4d/3x3_reduce
I0718 14:29:03.554622 32927 net.cpp:454] inception_4d/3x3_reduce <- inception_4c/output_inception_4c/output_0_split_1
I0718 14:29:03.556694 32927 net.cpp:411] inception_4d/3x3_reduce -> inception_4d/3x3_reduce
I0718 14:29:03.568917 32927 cudnn_conv_layer.cpp:194] Reallocating workspace storage: 6144
I0718 14:29:03.569689 32927 net.cpp:150] Setting up inception_4d/3x3_reduce
I0718 14:29:03.569818 32927 net.cpp:157] Top shape: 4 144 62 62 (2214144)
I0718 14:29:03.569856 32927 net.cpp:165] Memory required for data: 3661239344
I0718 14:29:03.569985 32927 layer_factory.hpp:76] Creating layer inception_4d/relu_3x3_reduce
I0718 14:29:03.570122 32927 net.cpp:106] Creating Layer inception_4d/relu_3x3_reduce
I0718 14:29:03.570161 32927 net.cpp:454] inception_4d/relu_3x3_reduce <- inception_4d/3x3_reduce
I0718 14:29:03.570202 32927 net.cpp:397] inception_4d/relu_3x3_reduce -> inception_4d/3x3_reduce (in-place)
I0718 14:29:03.570919 32927 net.cpp:150] Setting up inception_4d/relu_3x3_reduce
I0718 14:29:03.571015 32927 net.cpp:157] Top shape: 4 144 62 62 (2214144)
I0718 14:29:03.571048 32927 net.cpp:165] Memory required for data: 3670095920
I0718 14:29:03.571090 32927 layer_factory.hpp:76] Creating layer inception_4d/3x3
I0718 14:29:03.571156 32927 net.cpp:106] Creating Layer inception_4d/3x3
I0718 14:29:03.571188 32927 net.cpp:454] inception_4d/3x3 <- inception_4d/3x3_reduce
I0718 14:29:03.571240 32927 net.cpp:411] inception_4d/3x3 -> inception_4d/3x3
I0718 14:29:03.582752 32927 cudnn_conv_layer.cpp:194] Reallocating workspace storage: 15552
I0718 14:29:03.582897 32927 net.cpp:150] Setting up inception_4d/3x3
I0718 14:29:03.582938 32927 net.cpp:157] Top shape: 4 288 62 62 (4428288)
I0718 14:29:03.582957 32927 net.cpp:165] Memory required for data: 3687809072
I0718 14:29:03.582991 32927 layer_factory.hpp:76] Creating layer inception_4d/relu_3x3
I0718 14:29:03.583040 32927 net.cpp:106] Creating Layer inception_4d/relu_3x3
I0718 14:29:03.583063 32927 net.cpp:454] inception_4d/relu_3x3 <- inception_4d/3x3
I0718 14:29:03.583087 32927 net.cpp:397] inception_4d/relu_3x3 -> inception_4d/3x3 (in-place)
I0718 14:29:03.584796 32927 net.cpp:150] Setting up inception_4d/relu_3x3
I0718 14:29:03.584894 32927 net.cpp:157] Top shape: 4 288 62 62 (4428288)
I0718 14:29:03.584920 32927 net.cpp:165] Memory required for data: 3705522224
I0718 14:29:03.584946 32927 layer_factory.hpp:76] Creating layer inception_4d/5x5_reduce
I0718 14:29:03.585011 32927 net.cpp:106] Creating Layer inception_4d/5x5_reduce
I0718 14:29:03.585045 32927 net.cpp:454] inception_4d/5x5_reduce <- inception_4c/output_inception_4c/output_0_split_2
I0718 14:29:03.585080 32927 net.cpp:411] inception_4d/5x5_reduce -> inception_4d/5x5_reduce
I0718 14:29:03.594534 32927 net.cpp:150] Setting up inception_4d/5x5_reduce
I0718 14:29:03.594647 32927 net.cpp:157] Top shape: 4 32 62 62 (492032)
I0718 14:29:03.594668 32927 net.cpp:165] Memory required for data: 3707490352
I0718 14:29:03.594707 32927 layer_factory.hpp:76] Creating layer inception_4d/relu_5x5_reduce
I0718 14:29:03.594776 32927 net.cpp:106] Creating Layer inception_4d/relu_5x5_reduce
I0718 14:29:03.594805 32927 net.cpp:454] inception_4d/relu_5x5_reduce <- inception_4d/5x5_reduce
I0718 14:29:03.594835 32927 net.cpp:397] inception_4d/relu_5x5_reduce -> inception_4d/5x5_reduce (in-place)
I0718 14:29:03.596781 32927 net.cpp:150] Setting up inception_4d/relu_5x5_reduce
I0718 14:29:03.596891 32927 net.cpp:157] Top shape: 4 32 62 62 (492032)
I0718 14:29:03.596920 32927 net.cpp:165] Memory required for data: 3709458480
I0718 14:29:03.596963 32927 layer_factory.hpp:76] Creating layer inception_4d/5x5
I0718 14:29:03.597034 32927 net.cpp:106] Creating Layer inception_4d/5x5
I0718 14:29:03.597115 32927 net.cpp:454] inception_4d/5x5 <- inception_4d/5x5_reduce
I0718 14:29:03.597167 32927 net.cpp:411] inception_4d/5x5 -> inception_4d/5x5
I0718 14:29:03.603700 32927 net.cpp:150] Setting up inception_4d/5x5
I0718 14:29:03.603802 32927 net.cpp:157] Top shape: 4 64 62 62 (984064)
I0718 14:29:03.603818 32927 net.cpp:165] Memory required for data: 3713394736
I0718 14:29:03.603864 32927 layer_factory.hpp:76] Creating layer inception_4d/relu_5x5
I0718 14:29:03.603921 32927 net.cpp:106] Creating Layer inception_4d/relu_5x5
I0718 14:29:03.603967 32927 net.cpp:454] inception_4d/relu_5x5 <- inception_4d/5x5
I0718 14:29:03.604010 32927 net.cpp:397] inception_4d/relu_5x5 -> inception_4d/5x5 (in-place)
I0718 14:29:03.605211 32927 net.cpp:150] Setting up inception_4d/relu_5x5
I0718 14:29:03.605290 32927 net.cpp:157] Top shape: 4 64 62 62 (984064)
I0718 14:29:03.605325 32927 net.cpp:165] Memory required for data: 3717330992
I0718 14:29:03.605351 32927 layer_factory.hpp:76] Creating layer inception_4d/pool
I0718 14:29:03.605409 32927 net.cpp:106] Creating Layer inception_4d/pool
I0718 14:29:03.605445 32927 net.cpp:454] inception_4d/pool <- inception_4c/output_inception_4c/output_0_split_3
I0718 14:29:03.605504 32927 net.cpp:411] inception_4d/pool -> inception_4d/pool
I0718 14:29:03.607635 32927 net.cpp:150] Setting up inception_4d/pool
I0718 14:29:03.607697 32927 net.cpp:157] Top shape: 4 512 62 62 (7872512)
I0718 14:29:03.607712 32927 net.cpp:165] Memory required for data: 3748821040
I0718 14:29:03.607728 32927 layer_factory.hpp:76] Creating layer inception_4d/pool_proj
I0718 14:29:03.607771 32927 net.cpp:106] Creating Layer inception_4d/pool_proj
I0718 14:29:03.607791 32927 net.cpp:454] inception_4d/pool_proj <- inception_4d/pool
I0718 14:29:03.607818 32927 net.cpp:411] inception_4d/pool_proj -> inception_4d/pool_proj
I0718 14:29:03.613364 32927 net.cpp:150] Setting up inception_4d/pool_proj
I0718 14:29:03.613481 32927 net.cpp:157] Top shape: 4 64 62 62 (984064)
I0718 14:29:03.613510 32927 net.cpp:165] Memory required for data: 3752757296
I0718 14:29:03.613569 32927 layer_factory.hpp:76] Creating layer inception_4d/relu_pool_proj
I0718 14:29:03.613651 32927 net.cpp:106] Creating Layer inception_4d/relu_pool_proj
I0718 14:29:03.613687 32927 net.cpp:454] inception_4d/relu_pool_proj <- inception_4d/pool_proj
I0718 14:29:03.613730 32927 net.cpp:397] inception_4d/relu_pool_proj -> inception_4d/pool_proj (in-place)
I0718 14:29:03.616667 32927 net.cpp:150] Setting up inception_4d/relu_pool_proj
I0718 14:29:03.616786 32927 net.cpp:157] Top shape: 4 64 62 62 (984064)
I0718 14:29:03.616817 32927 net.cpp:165] Memory required for data: 3756693552
I0718 14:29:03.616861 32927 layer_factory.hpp:76] Creating layer inception_4d/output
I0718 14:29:03.616927 32927 net.cpp:106] Creating Layer inception_4d/output
I0718 14:29:03.616966 32927 net.cpp:454] inception_4d/output <- inception_4d/1x1
I0718 14:29:03.617018 32927 net.cpp:454] inception_4d/output <- inception_4d/3x3
I0718 14:29:03.617058 32927 net.cpp:454] inception_4d/output <- inception_4d/5x5
I0718 14:29:03.617096 32927 net.cpp:454] inception_4d/output <- inception_4d/pool_proj
I0718 14:29:03.617130 32927 net.cpp:411] inception_4d/output -> inception_4d/output
I0718 14:29:03.617303 32927 net.cpp:150] Setting up inception_4d/output
I0718 14:29:03.617338 32927 net.cpp:157] Top shape: 4 528 62 62 (8118528)
I0718 14:29:03.617357 32927 net.cpp:165] Memory required for data: 3789167664
I0718 14:29:03.617372 32927 layer_factory.hpp:76] Creating layer inception_4d/output_inception_4d/output_0_split
I0718 14:29:03.617398 32927 net.cpp:106] Creating Layer inception_4d/output_inception_4d/output_0_split
I0718 14:29:03.617414 32927 net.cpp:454] inception_4d/output_inception_4d/output_0_split <- inception_4d/output
I0718 14:29:03.617436 32927 net.cpp:411] inception_4d/output_inception_4d/output_0_split -> inception_4d/output_inception_4d/output_0_split_0
I0718 14:29:03.617461 32927 net.cpp:411] inception_4d/output_inception_4d/output_0_split -> inception_4d/output_inception_4d/output_0_split_1
I0718 14:29:03.617528 32927 net.cpp:411] inception_4d/output_inception_4d/output_0_split -> inception_4d/output_inception_4d/output_0_split_2
I0718 14:29:03.617554 32927 net.cpp:411] inception_4d/output_inception_4d/output_0_split -> inception_4d/output_inception_4d/output_0_split_3
I0718 14:29:03.617689 32927 net.cpp:150] Setting up inception_4d/output_inception_4d/output_0_split
I0718 14:29:03.617715 32927 net.cpp:157] Top shape: 4 528 62 62 (8118528)
I0718 14:29:03.617730 32927 net.cpp:157] Top shape: 4 528 62 62 (8118528)
I0718 14:29:03.617745 32927 net.cpp:157] Top shape: 4 528 62 62 (8118528)
I0718 14:29:03.617760 32927 net.cpp:157] Top shape: 4 528 62 62 (8118528)
I0718 14:29:03.617774 32927 net.cpp:165] Memory required for data: 3919064112
I0718 14:29:03.617787 32927 layer_factory.hpp:76] Creating layer inception_4e/1x1
I0718 14:29:03.617841 32927 net.cpp:106] Creating Layer inception_4e/1x1
I0718 14:29:03.617859 32927 net.cpp:454] inception_4e/1x1 <- inception_4d/output_inception_4d/output_0_split_0
I0718 14:29:03.617883 32927 net.cpp:411] inception_4e/1x1 -> inception_4e/1x1
I0718 14:29:03.626204 32927 cudnn_conv_layer.cpp:194] Reallocating workspace storage: 6336
I0718 14:29:03.626379 32927 net.cpp:150] Setting up inception_4e/1x1
I0718 14:29:03.626420 32927 net.cpp:157] Top shape: 4 256 62 62 (3936256)
I0718 14:29:03.626451 32927 net.cpp:165] Memory required for data: 3934809136
I0718 14:29:03.626495 32927 layer_factory.hpp:76] Creating layer inception_4e/relu_1x1
I0718 14:29:03.626540 32927 net.cpp:106] Creating Layer inception_4e/relu_1x1
I0718 14:29:03.626564 32927 net.cpp:454] inception_4e/relu_1x1 <- inception_4e/1x1
I0718 14:29:03.626587 32927 net.cpp:397] inception_4e/relu_1x1 -> inception_4e/1x1 (in-place)
I0718 14:29:03.628273 32927 net.cpp:150] Setting up inception_4e/relu_1x1
I0718 14:29:03.628325 32927 net.cpp:157] Top shape: 4 256 62 62 (3936256)
I0718 14:29:03.628339 32927 net.cpp:165] Memory required for data: 3950554160
I0718 14:29:03.628360 32927 layer_factory.hpp:76] Creating layer inception_4e/3x3_reduce
I0718 14:29:03.628403 32927 net.cpp:106] Creating Layer inception_4e/3x3_reduce
I0718 14:29:03.628430 32927 net.cpp:454] inception_4e/3x3_reduce <- inception_4d/output_inception_4d/output_0_split_1
I0718 14:29:03.628459 32927 net.cpp:411] inception_4e/3x3_reduce -> inception_4e/3x3_reduce
I0718 14:29:03.635645 32927 net.cpp:150] Setting up inception_4e/3x3_reduce
I0718 14:29:03.635728 32927 net.cpp:157] Top shape: 4 160 62 62 (2460160)
I0718 14:29:03.635743 32927 net.cpp:165] Memory required for data: 3960394800
I0718 14:29:03.635774 32927 layer_factory.hpp:76] Creating layer inception_4e/relu_3x3_reduce
I0718 14:29:03.635817 32927 net.cpp:106] Creating Layer inception_4e/relu_3x3_reduce
I0718 14:29:03.635838 32927 net.cpp:454] inception_4e/relu_3x3_reduce <- inception_4e/3x3_reduce
I0718 14:29:03.635862 32927 net.cpp:397] inception_4e/relu_3x3_reduce -> inception_4e/3x3_reduce (in-place)
I0718 14:29:03.637761 32927 net.cpp:150] Setting up inception_4e/relu_3x3_reduce
I0718 14:29:03.637836 32927 net.cpp:157] Top shape: 4 160 62 62 (2460160)
I0718 14:29:03.637856 32927 net.cpp:165] Memory required for data: 3970235440
I0718 14:29:03.637873 32927 layer_factory.hpp:76] Creating layer inception_4e/3x3
I0718 14:29:03.637923 32927 net.cpp:106] Creating Layer inception_4e/3x3
I0718 14:29:03.637943 32927 net.cpp:454] inception_4e/3x3 <- inception_4e/3x3_reduce
I0718 14:29:03.637976 32927 net.cpp:411] inception_4e/3x3 -> inception_4e/3x3
I0718 14:29:03.648661 32927 net.cpp:150] Setting up inception_4e/3x3
I0718 14:29:03.648749 32927 net.cpp:157] Top shape: 4 320 62 62 (4920320)
I0718 14:29:03.648766 32927 net.cpp:165] Memory required for data: 3989916720
I0718 14:29:03.648802 32927 layer_factory.hpp:76] Creating layer inception_4e/relu_3x3
I0718 14:29:03.648838 32927 net.cpp:106] Creating Layer inception_4e/relu_3x3
I0718 14:29:03.648859 32927 net.cpp:454] inception_4e/relu_3x3 <- inception_4e/3x3
I0718 14:29:03.648885 32927 net.cpp:397] inception_4e/relu_3x3 -> inception_4e/3x3 (in-place)
I0718 14:29:03.650897 32927 net.cpp:150] Setting up inception_4e/relu_3x3
I0718 14:29:03.650974 32927 net.cpp:157] Top shape: 4 320 62 62 (4920320)
I0718 14:29:03.650990 32927 net.cpp:165] Memory required for data: 4009598000
I0718 14:29:03.651010 32927 layer_factory.hpp:76] Creating layer inception_4e/5x5_reduce
I0718 14:29:03.651058 32927 net.cpp:106] Creating Layer inception_4e/5x5_reduce
I0718 14:29:03.651078 32927 net.cpp:454] inception_4e/5x5_reduce <- inception_4d/output_inception_4d/output_0_split_2
I0718 14:29:03.651114 32927 net.cpp:411] inception_4e/5x5_reduce -> inception_4e/5x5_reduce
I0718 14:29:03.660123 32927 net.cpp:150] Setting up inception_4e/5x5_reduce
I0718 14:29:03.660205 32927 net.cpp:157] Top shape: 4 32 62 62 (492032)
I0718 14:29:03.660221 32927 net.cpp:165] Memory required for data: 4011566128
I0718 14:29:03.660251 32927 layer_factory.hpp:76] Creating layer inception_4e/relu_5x5_reduce
I0718 14:29:03.660292 32927 net.cpp:106] Creating Layer inception_4e/relu_5x5_reduce
I0718 14:29:03.660313 32927 net.cpp:454] inception_4e/relu_5x5_reduce <- inception_4e/5x5_reduce
I0718 14:29:03.660336 32927 net.cpp:397] inception_4e/relu_5x5_reduce -> inception_4e/5x5_reduce (in-place)
I0718 14:29:03.662993 32927 net.cpp:150] Setting up inception_4e/relu_5x5_reduce
I0718 14:29:03.663082 32927 net.cpp:157] Top shape: 4 32 62 62 (492032)
I0718 14:29:03.663096 32927 net.cpp:165] Memory required for data: 4013534256
I0718 14:29:03.663115 32927 layer_factory.hpp:76] Creating layer inception_4e/5x5
I0718 14:29:03.663157 32927 net.cpp:106] Creating Layer inception_4e/5x5
I0718 14:29:03.663177 32927 net.cpp:454] inception_4e/5x5 <- inception_4e/5x5_reduce
I0718 14:29:03.663208 32927 net.cpp:411] inception_4e/5x5 -> inception_4e/5x5
I0718 14:29:03.670583 32927 cudnn_conv_layer.cpp:194] Reallocating workspace storage: 9600
I0718 14:29:03.670778 32927 net.cpp:150] Setting up inception_4e/5x5
I0718 14:29:03.670838 32927 net.cpp:157] Top shape: 4 128 62 62 (1968128)
I0718 14:29:03.670861 32927 net.cpp:165] Memory required for data: 4021406768
I0718 14:29:03.670912 32927 layer_factory.hpp:76] Creating layer inception_4e/relu_5x5
I0718 14:29:03.670949 32927 net.cpp:106] Creating Layer inception_4e/relu_5x5
I0718 14:29:03.670971 32927 net.cpp:454] inception_4e/relu_5x5 <- inception_4e/5x5
I0718 14:29:03.670995 32927 net.cpp:397] inception_4e/relu_5x5 -> inception_4e/5x5 (in-place)
I0718 14:29:03.672873 32927 net.cpp:150] Setting up inception_4e/relu_5x5
I0718 14:29:03.673012 32927 net.cpp:157] Top shape: 4 128 62 62 (1968128)
I0718 14:29:03.673032 32927 net.cpp:165] Memory required for data: 4029279280
I0718 14:29:03.673054 32927 layer_factory.hpp:76] Creating layer inception_4e/pool
I0718 14:29:03.673105 32927 net.cpp:106] Creating Layer inception_4e/pool
I0718 14:29:03.673130 32927 net.cpp:454] inception_4e/pool <- inception_4d/output_inception_4d/output_0_split_3
I0718 14:29:03.673159 32927 net.cpp:411] inception_4e/pool -> inception_4e/pool
I0718 14:29:03.675407 32927 net.cpp:150] Setting up inception_4e/pool
I0718 14:29:03.675516 32927 net.cpp:157] Top shape: 4 528 62 62 (8118528)
I0718 14:29:03.675530 32927 net.cpp:165] Memory required for data: 4061753392
I0718 14:29:03.675549 32927 layer_factory.hpp:76] Creating layer inception_4e/pool_proj
I0718 14:29:03.675603 32927 net.cpp:106] Creating Layer inception_4e/pool_proj
I0718 14:29:03.675624 32927 net.cpp:454] inception_4e/pool_proj <- inception_4e/pool
I0718 14:29:03.675657 32927 net.cpp:411] inception_4e/pool_proj -> inception_4e/pool_proj
I0718 14:29:03.682257 32927 cudnn_conv_layer.cpp:194] Reallocating workspace storage: 6336
I0718 14:29:03.682565 32927 net.cpp:150] Setting up inception_4e/pool_proj
I0718 14:29:03.682606 32927 net.cpp:157] Top shape: 4 128 62 62 (1968128)
I0718 14:29:03.682623 32927 net.cpp:165] Memory required for data: 4069625904
I0718 14:29:03.682667 32927 layer_factory.hpp:76] Creating layer inception_4e/relu_pool_proj
I0718 14:29:03.682724 32927 net.cpp:106] Creating Layer inception_4e/relu_pool_proj
I0718 14:29:03.682750 32927 net.cpp:454] inception_4e/relu_pool_proj <- inception_4e/pool_proj
I0718 14:29:03.682816 32927 net.cpp:397] inception_4e/relu_pool_proj -> inception_4e/pool_proj (in-place)
I0718 14:29:03.684942 32927 net.cpp:150] Setting up inception_4e/relu_pool_proj
I0718 14:29:03.685009 32927 net.cpp:157] Top shape: 4 128 62 62 (1968128)
I0718 14:29:03.685025 32927 net.cpp:165] Memory required for data: 4077498416
I0718 14:29:03.685046 32927 layer_factory.hpp:76] Creating layer inception_4e/output
I0718 14:29:03.685077 32927 net.cpp:106] Creating Layer inception_4e/output
I0718 14:29:03.685098 32927 net.cpp:454] inception_4e/output <- inception_4e/1x1
I0718 14:29:03.685133 32927 net.cpp:454] inception_4e/output <- inception_4e/3x3
I0718 14:29:03.685153 32927 net.cpp:454] inception_4e/output <- inception_4e/5x5
I0718 14:29:03.685173 32927 net.cpp:454] inception_4e/output <- inception_4e/pool_proj
I0718 14:29:03.685195 32927 net.cpp:411] inception_4e/output -> inception_4e/output
I0718 14:29:03.685354 32927 net.cpp:150] Setting up inception_4e/output
I0718 14:29:03.685395 32927 net.cpp:157] Top shape: 4 832 62 62 (12792832)
I0718 14:29:03.685410 32927 net.cpp:165] Memory required for data: 4128669744
I0718 14:29:03.685428 32927 layer_factory.hpp:76] Creating layer pool4/3x3_s2
I0718 14:29:03.685453 32927 net.cpp:106] Creating Layer pool4/3x3_s2
I0718 14:29:03.685469 32927 net.cpp:454] pool4/3x3_s2 <- inception_4e/output
I0718 14:29:03.685528 32927 net.cpp:411] pool4/3x3_s2 -> pool4/3x3_s2
I0718 14:29:03.687613 32927 net.cpp:150] Setting up pool4/3x3_s2
I0718 14:29:03.687680 32927 net.cpp:157] Top shape: 4 832 31 31 (3198208)
I0718 14:29:03.687695 32927 net.cpp:165] Memory required for data: 4141462576
I0718 14:29:03.687712 32927 layer_factory.hpp:76] Creating layer pool4/3x3_s2_pool4/3x3_s2_0_split
I0718 14:29:03.687742 32927 net.cpp:106] Creating Layer pool4/3x3_s2_pool4/3x3_s2_0_split
I0718 14:29:03.687760 32927 net.cpp:454] pool4/3x3_s2_pool4/3x3_s2_0_split <- pool4/3x3_s2
I0718 14:29:03.687784 32927 net.cpp:411] pool4/3x3_s2_pool4/3x3_s2_0_split -> pool4/3x3_s2_pool4/3x3_s2_0_split_0
I0718 14:29:03.687829 32927 net.cpp:411] pool4/3x3_s2_pool4/3x3_s2_0_split -> pool4/3x3_s2_pool4/3x3_s2_0_split_1
I0718 14:29:03.687852 32927 net.cpp:411] pool4/3x3_s2_pool4/3x3_s2_0_split -> pool4/3x3_s2_pool4/3x3_s2_0_split_2
I0718 14:29:03.687870 32927 net.cpp:411] pool4/3x3_s2_pool4/3x3_s2_0_split -> pool4/3x3_s2_pool4/3x3_s2_0_split_3
I0718 14:29:03.688030 32927 net.cpp:150] Setting up pool4/3x3_s2_pool4/3x3_s2_0_split
I0718 14:29:03.688053 32927 net.cpp:157] Top shape: 4 832 31 31 (3198208)
I0718 14:29:03.688071 32927 net.cpp:157] Top shape: 4 832 31 31 (3198208)
I0718 14:29:03.688087 32927 net.cpp:157] Top shape: 4 832 31 31 (3198208)
I0718 14:29:03.688102 32927 net.cpp:157] Top shape: 4 832 31 31 (3198208)
I0718 14:29:03.688115 32927 net.cpp:165] Memory required for data: 4192633904
I0718 14:29:03.688129 32927 layer_factory.hpp:76] Creating layer inception_5a/1x1
I0718 14:29:03.688164 32927 net.cpp:106] Creating Layer inception_5a/1x1
I0718 14:29:03.688181 32927 net.cpp:454] inception_5a/1x1 <- pool4/3x3_s2_pool4/3x3_s2_0_split_0
I0718 14:29:03.688205 32927 net.cpp:411] inception_5a/1x1 -> inception_5a/1x1
I0718 14:29:03.697693 32927 cudnn_conv_layer.cpp:194] Reallocating workspace storage: 9984
I0718 14:29:03.697830 32927 net.cpp:150] Setting up inception_5a/1x1
I0718 14:29:03.697865 32927 net.cpp:157] Top shape: 4 256 31 31 (984064)
I0718 14:29:03.697880 32927 net.cpp:165] Memory required for data: 4196570160
I0718 14:29:03.697911 32927 layer_factory.hpp:76] Creating layer inception_5a/relu_1x1
I0718 14:29:03.697947 32927 net.cpp:106] Creating Layer inception_5a/relu_1x1
I0718 14:29:03.697970 32927 net.cpp:454] inception_5a/relu_1x1 <- inception_5a/1x1
I0718 14:29:03.697994 32927 net.cpp:397] inception_5a/relu_1x1 -> inception_5a/1x1 (in-place)
I0718 14:29:03.699753 32927 net.cpp:150] Setting up inception_5a/relu_1x1
I0718 14:29:03.699822 32927 net.cpp:157] Top shape: 4 256 31 31 (984064)
I0718 14:29:03.699836 32927 net.cpp:165] Memory required for data: 4200506416
I0718 14:29:03.699899 32927 layer_factory.hpp:76] Creating layer inception_5a/3x3_reduce
I0718 14:29:03.699942 32927 net.cpp:106] Creating Layer inception_5a/3x3_reduce
I0718 14:29:03.699964 32927 net.cpp:454] inception_5a/3x3_reduce <- pool4/3x3_s2_pool4/3x3_s2_0_split_1
I0718 14:29:03.699995 32927 net.cpp:411] inception_5a/3x3_reduce -> inception_5a/3x3_reduce
I0718 14:29:03.706957 32927 cudnn_conv_layer.cpp:194] Reallocating workspace storage: 9984
I0718 14:29:03.707114 32927 net.cpp:150] Setting up inception_5a/3x3_reduce
I0718 14:29:03.707150 32927 net.cpp:157] Top shape: 4 160 31 31 (615040)
I0718 14:29:03.707166 32927 net.cpp:165] Memory required for data: 4202966576
I0718 14:29:03.707195 32927 layer_factory.hpp:76] Creating layer inception_5a/relu_3x3_reduce
I0718 14:29:03.707237 32927 net.cpp:106] Creating Layer inception_5a/relu_3x3_reduce
I0718 14:29:03.707262 32927 net.cpp:454] inception_5a/relu_3x3_reduce <- inception_5a/3x3_reduce
I0718 14:29:03.707285 32927 net.cpp:397] inception_5a/relu_3x3_reduce -> inception_5a/3x3_reduce (in-place)
I0718 14:29:03.708928 32927 net.cpp:150] Setting up inception_5a/relu_3x3_reduce
I0718 14:29:03.709009 32927 net.cpp:157] Top shape: 4 160 31 31 (615040)
I0718 14:29:03.709025 32927 net.cpp:165] Memory required for data: 4205426736
I0718 14:29:03.709046 32927 layer_factory.hpp:76] Creating layer inception_5a/3x3
I0718 14:29:03.709102 32927 net.cpp:106] Creating Layer inception_5a/3x3
I0718 14:29:03.709125 32927 net.cpp:454] inception_5a/3x3 <- inception_5a/3x3_reduce
I0718 14:29:03.709156 32927 net.cpp:411] inception_5a/3x3 -> inception_5a/3x3
I0718 14:29:03.719600 32927 net.cpp:150] Setting up inception_5a/3x3
I0718 14:29:03.719718 32927 net.cpp:157] Top shape: 4 320 31 31 (1230080)
I0718 14:29:03.719734 32927 net.cpp:165] Memory required for data: 4210347056
I0718 14:29:03.719771 32927 layer_factory.hpp:76] Creating layer inception_5a/relu_3x3
I0718 14:29:03.719813 32927 net.cpp:106] Creating Layer inception_5a/relu_3x3
I0718 14:29:03.719840 32927 net.cpp:454] inception_5a/relu_3x3 <- inception_5a/3x3
I0718 14:29:03.719867 32927 net.cpp:397] inception_5a/relu_3x3 -> inception_5a/3x3 (in-place)
I0718 14:29:03.721671 32927 net.cpp:150] Setting up inception_5a/relu_3x3
I0718 14:29:03.721747 32927 net.cpp:157] Top shape: 4 320 31 31 (1230080)
I0718 14:29:03.721762 32927 net.cpp:165] Memory required for data: 4215267376
I0718 14:29:03.721783 32927 layer_factory.hpp:76] Creating layer inception_5a/5x5_reduce
I0718 14:29:03.721854 32927 net.cpp:106] Creating Layer inception_5a/5x5_reduce
I0718 14:29:03.721879 32927 net.cpp:454] inception_5a/5x5_reduce <- pool4/3x3_s2_pool4/3x3_s2_0_split_2
I0718 14:29:03.721910 32927 net.cpp:411] inception_5a/5x5_reduce -> inception_5a/5x5_reduce
I0718 14:29:03.729230 32927 cudnn_conv_layer.cpp:194] Reallocating workspace storage: 9984
I0718 14:29:03.729375 32927 net.cpp:150] Setting up inception_5a/5x5_reduce
I0718 14:29:03.729409 32927 net.cpp:157] Top shape: 4 32 31 31 (123008)
I0718 14:29:03.729423 32927 net.cpp:165] Memory required for data: 4215759408
I0718 14:29:03.729451 32927 layer_factory.hpp:76] Creating layer inception_5a/relu_5x5_reduce
I0718 14:29:03.729491 32927 net.cpp:106] Creating Layer inception_5a/relu_5x5_reduce
I0718 14:29:03.729516 32927 net.cpp:454] inception_5a/relu_5x5_reduce <- inception_5a/5x5_reduce
I0718 14:29:03.729544 32927 net.cpp:397] inception_5a/relu_5x5_reduce -> inception_5a/5x5_reduce (in-place)
I0718 14:29:03.731304 32927 net.cpp:150] Setting up inception_5a/relu_5x5_reduce
I0718 14:29:03.731369 32927 net.cpp:157] Top shape: 4 32 31 31 (123008)
I0718 14:29:03.731384 32927 net.cpp:165] Memory required for data: 4216251440
I0718 14:29:03.731403 32927 layer_factory.hpp:76] Creating layer inception_5a/5x5
I0718 14:29:03.731947 32927 net.cpp:106] Creating Layer inception_5a/5x5
I0718 14:29:03.731981 32927 net.cpp:454] inception_5a/5x5 <- inception_5a/5x5_reduce
I0718 14:29:03.732019 32927 net.cpp:411] inception_5a/5x5 -> inception_5a/5x5
I0718 14:29:03.738765 32927 cudnn_conv_layer.cpp:194] Reallocating workspace storage: 9600
I0718 14:29:03.738936 32927 net.cpp:150] Setting up inception_5a/5x5
I0718 14:29:03.738970 32927 net.cpp:157] Top shape: 4 128 31 31 (492032)
I0718 14:29:03.738983 32927 net.cpp:165] Memory required for data: 4218219568
I0718 14:29:03.739018 32927 layer_factory.hpp:76] Creating layer inception_5a/relu_5x5
I0718 14:29:03.739053 32927 net.cpp:106] Creating Layer inception_5a/relu_5x5
I0718 14:29:03.739073 32927 net.cpp:454] inception_5a/relu_5x5 <- inception_5a/5x5
I0718 14:29:03.739097 32927 net.cpp:397] inception_5a/relu_5x5 -> inception_5a/5x5 (in-place)
I0718 14:29:03.740494 32927 net.cpp:150] Setting up inception_5a/relu_5x5
I0718 14:29:03.740550 32927 net.cpp:157] Top shape: 4 128 31 31 (492032)
I0718 14:29:03.740566 32927 net.cpp:165] Memory required for data: 4220187696
I0718 14:29:03.740584 32927 layer_factory.hpp:76] Creating layer inception_5a/pool
I0718 14:29:03.740617 32927 net.cpp:106] Creating Layer inception_5a/pool
I0718 14:29:03.740638 32927 net.cpp:454] inception_5a/pool <- pool4/3x3_s2_pool4/3x3_s2_0_split_3
I0718 14:29:03.740667 32927 net.cpp:411] inception_5a/pool -> inception_5a/pool
I0718 14:29:03.746805 32927 net.cpp:150] Setting up inception_5a/pool
I0718 14:29:03.746879 32927 net.cpp:157] Top shape: 4 832 31 31 (3198208)
I0718 14:29:03.746893 32927 net.cpp:165] Memory required for data: 4232980528
I0718 14:29:03.746913 32927 layer_factory.hpp:76] Creating layer inception_5a/pool_proj
I0718 14:29:03.746958 32927 net.cpp:106] Creating Layer inception_5a/pool_proj
I0718 14:29:03.746984 32927 net.cpp:454] inception_5a/pool_proj <- inception_5a/pool
I0718 14:29:03.747010 32927 net.cpp:411] inception_5a/pool_proj -> inception_5a/pool_proj
I0718 14:29:03.762667 32927 cudnn_conv_layer.cpp:194] Reallocating workspace storage: 9984
I0718 14:29:03.762783 32927 net.cpp:150] Setting up inception_5a/pool_proj
I0718 14:29:03.762814 32927 net.cpp:157] Top shape: 4 128 31 31 (492032)
I0718 14:29:03.762828 32927 net.cpp:165] Memory required for data: 4234948656
I0718 14:29:03.762856 32927 layer_factory.hpp:76] Creating layer inception_5a/relu_pool_proj
I0718 14:29:03.762895 32927 net.cpp:106] Creating Layer inception_5a/relu_pool_proj
I0718 14:29:03.762917 32927 net.cpp:454] inception_5a/relu_pool_proj <- inception_5a/pool_proj
I0718 14:29:03.762943 32927 net.cpp:397] inception_5a/relu_pool_proj -> inception_5a/pool_proj (in-place)
I0718 14:29:03.764904 32927 net.cpp:150] Setting up inception_5a/relu_pool_proj
I0718 14:29:03.764955 32927 net.cpp:157] Top shape: 4 128 31 31 (492032)
I0718 14:29:03.764968 32927 net.cpp:165] Memory required for data: 4236916784
I0718 14:29:03.764986 32927 layer_factory.hpp:76] Creating layer inception_5a/output
I0718 14:29:03.765012 32927 net.cpp:106] Creating Layer inception_5a/output
I0718 14:29:03.765030 32927 net.cpp:454] inception_5a/output <- inception_5a/1x1
I0718 14:29:03.765049 32927 net.cpp:454] inception_5a/output <- inception_5a/3x3
I0718 14:29:03.765066 32927 net.cpp:454] inception_5a/output <- inception_5a/5x5
I0718 14:29:03.765084 32927 net.cpp:454] inception_5a/output <- inception_5a/pool_proj
I0718 14:29:03.765100 32927 net.cpp:411] inception_5a/output -> inception_5a/output
I0718 14:29:03.765202 32927 net.cpp:150] Setting up inception_5a/output
I0718 14:29:03.765228 32927 net.cpp:157] Top shape: 4 832 31 31 (3198208)
I0718 14:29:03.765244 32927 net.cpp:165] Memory required for data: 4249709616
I0718 14:29:03.765257 32927 layer_factory.hpp:76] Creating layer inception_5a/output_inception_5a/output_0_split
I0718 14:29:03.765280 32927 net.cpp:106] Creating Layer inception_5a/output_inception_5a/output_0_split
I0718 14:29:03.765295 32927 net.cpp:454] inception_5a/output_inception_5a/output_0_split <- inception_5a/output
I0718 14:29:03.765316 32927 net.cpp:411] inception_5a/output_inception_5a/output_0_split -> inception_5a/output_inception_5a/output_0_split_0
I0718 14:29:03.765339 32927 net.cpp:411] inception_5a/output_inception_5a/output_0_split -> inception_5a/output_inception_5a/output_0_split_1
I0718 14:29:03.765360 32927 net.cpp:411] inception_5a/output_inception_5a/output_0_split -> inception_5a/output_inception_5a/output_0_split_2
I0718 14:29:03.765415 32927 net.cpp:411] inception_5a/output_inception_5a/output_0_split -> inception_5a/output_inception_5a/output_0_split_3
I0718 14:29:03.765578 32927 net.cpp:150] Setting up inception_5a/output_inception_5a/output_0_split
I0718 14:29:03.765601 32927 net.cpp:157] Top shape: 4 832 31 31 (3198208)
I0718 14:29:03.765619 32927 net.cpp:157] Top shape: 4 832 31 31 (3198208)
I0718 14:29:03.765635 32927 net.cpp:157] Top shape: 4 832 31 31 (3198208)
I0718 14:29:03.765650 32927 net.cpp:157] Top shape: 4 832 31 31 (3198208)
I0718 14:29:03.765664 32927 net.cpp:165] Memory required for data: 4300880944
I0718 14:29:03.765678 32927 layer_factory.hpp:76] Creating layer inception_5b/1x1
I0718 14:29:03.765713 32927 net.cpp:106] Creating Layer inception_5b/1x1
I0718 14:29:03.765729 32927 net.cpp:454] inception_5b/1x1 <- inception_5a/output_inception_5a/output_0_split_0
I0718 14:29:03.765749 32927 net.cpp:411] inception_5b/1x1 -> inception_5b/1x1
I0718 14:29:03.773880 32927 cudnn_conv_layer.cpp:194] Reallocating workspace storage: 9984
I0718 14:29:03.773985 32927 net.cpp:150] Setting up inception_5b/1x1
I0718 14:29:03.774013 32927 net.cpp:157] Top shape: 4 384 31 31 (1476096)
I0718 14:29:03.774029 32927 net.cpp:165] Memory required for data: 4306785328
I0718 14:29:03.774051 32927 layer_factory.hpp:76] Creating layer inception_5b/relu_1x1
I0718 14:29:03.774082 32927 net.cpp:106] Creating Layer inception_5b/relu_1x1
I0718 14:29:03.774102 32927 net.cpp:454] inception_5b/relu_1x1 <- inception_5b/1x1
I0718 14:29:03.774124 32927 net.cpp:397] inception_5b/relu_1x1 -> inception_5b/1x1 (in-place)
I0718 14:29:03.776306 32927 net.cpp:150] Setting up inception_5b/relu_1x1
I0718 14:29:03.776345 32927 net.cpp:157] Top shape: 4 384 31 31 (1476096)
I0718 14:29:03.776360 32927 net.cpp:165] Memory required for data: 4312689712
I0718 14:29:03.776376 32927 layer_factory.hpp:76] Creating layer inception_5b/3x3_reduce
I0718 14:29:03.776412 32927 net.cpp:106] Creating Layer inception_5b/3x3_reduce
I0718 14:29:03.776432 32927 net.cpp:454] inception_5b/3x3_reduce <- inception_5a/output_inception_5a/output_0_split_1
I0718 14:29:03.776461 32927 net.cpp:411] inception_5b/3x3_reduce -> inception_5b/3x3_reduce
I0718 14:29:03.793692 32927 cudnn_conv_layer.cpp:194] Reallocating workspace storage: 9984
I0718 14:29:03.793792 32927 net.cpp:150] Setting up inception_5b/3x3_reduce
I0718 14:29:03.793822 32927 net.cpp:157] Top shape: 4 192 31 31 (738048)
I0718 14:29:03.793834 32927 net.cpp:165] Memory required for data: 4315641904
I0718 14:29:03.793859 32927 layer_factory.hpp:76] Creating layer inception_5b/relu_3x3_reduce
I0718 14:29:03.793892 32927 net.cpp:106] Creating Layer inception_5b/relu_3x3_reduce
I0718 14:29:03.793912 32927 net.cpp:454] inception_5b/relu_3x3_reduce <- inception_5b/3x3_reduce
I0718 14:29:03.793937 32927 net.cpp:397] inception_5b/relu_3x3_reduce -> inception_5b/3x3_reduce (in-place)
I0718 14:29:03.800346 32927 net.cpp:150] Setting up inception_5b/relu_3x3_reduce
I0718 14:29:03.800391 32927 net.cpp:157] Top shape: 4 192 31 31 (738048)
I0718 14:29:03.800408 32927 net.cpp:165] Memory required for data: 4318594096
I0718 14:29:03.800428 32927 layer_factory.hpp:76] Creating layer inception_5b/3x3
I0718 14:29:03.800459 32927 net.cpp:106] Creating Layer inception_5b/3x3
I0718 14:29:03.800478 32927 net.cpp:454] inception_5b/3x3 <- inception_5b/3x3_reduce
I0718 14:29:03.800508 32927 net.cpp:411] inception_5b/3x3 -> inception_5b/3x3
I0718 14:29:03.821276 32927 net.cpp:150] Setting up inception_5b/3x3
I0718 14:29:03.821333 32927 net.cpp:157] Top shape: 4 384 31 31 (1476096)
I0718 14:29:03.821348 32927 net.cpp:165] Memory required for data: 4324498480
I0718 14:29:03.821379 32927 layer_factory.hpp:76] Creating layer inception_5b/relu_3x3
I0718 14:29:03.821408 32927 net.cpp:106] Creating Layer inception_5b/relu_3x3
I0718 14:29:03.821426 32927 net.cpp:454] inception_5b/relu_3x3 <- inception_5b/3x3
I0718 14:29:03.821449 32927 net.cpp:397] inception_5b/relu_3x3 -> inception_5b/3x3 (in-place)
I0718 14:29:03.827034 32927 net.cpp:150] Setting up inception_5b/relu_3x3
I0718 14:29:03.827123 32927 net.cpp:157] Top shape: 4 384 31 31 (1476096)
I0718 14:29:03.827137 32927 net.cpp:165] Memory required for data: 4330402864
I0718 14:29:03.827160 32927 layer_factory.hpp:76] Creating layer inception_5b/5x5_reduce
I0718 14:29:03.827211 32927 net.cpp:106] Creating Layer inception_5b/5x5_reduce
I0718 14:29:03.827234 32927 net.cpp:454] inception_5b/5x5_reduce <- inception_5a/output_inception_5a/output_0_split_2
I0718 14:29:03.827267 32927 net.cpp:411] inception_5b/5x5_reduce -> inception_5b/5x5_reduce
I0718 14:29:03.834758 32927 net.cpp:150] Setting up inception_5b/5x5_reduce
I0718 14:29:03.834854 32927 net.cpp:157] Top shape: 4 48 31 31 (184512)
I0718 14:29:03.834869 32927 net.cpp:165] Memory required for data: 4331140912
I0718 14:29:03.834903 32927 layer_factory.hpp:76] Creating layer inception_5b/relu_5x5_reduce
I0718 14:29:03.834944 32927 net.cpp:106] Creating Layer inception_5b/relu_5x5_reduce
I0718 14:29:03.834970 32927 net.cpp:454] inception_5b/relu_5x5_reduce <- inception_5b/5x5_reduce
I0718 14:29:03.834998 32927 net.cpp:397] inception_5b/relu_5x5_reduce -> inception_5b/5x5_reduce (in-place)
I0718 14:29:03.836988 32927 net.cpp:150] Setting up inception_5b/relu_5x5_reduce
I0718 14:29:03.837085 32927 net.cpp:157] Top shape: 4 48 31 31 (184512)
I0718 14:29:03.837101 32927 net.cpp:165] Memory required for data: 4331878960
I0718 14:29:03.837122 32927 layer_factory.hpp:76] Creating layer inception_5b/5x5
I0718 14:29:03.837174 32927 net.cpp:106] Creating Layer inception_5b/5x5
I0718 14:29:03.837198 32927 net.cpp:454] inception_5b/5x5 <- inception_5b/5x5_reduce
I0718 14:29:03.837230 32927 net.cpp:411] inception_5b/5x5 -> inception_5b/5x5
I0718 14:29:03.844736 32927 net.cpp:150] Setting up inception_5b/5x5
I0718 14:29:03.844830 32927 net.cpp:157] Top shape: 4 128 31 31 (492032)
I0718 14:29:03.844843 32927 net.cpp:165] Memory required for data: 4333847088
I0718 14:29:03.844878 32927 layer_factory.hpp:76] Creating layer inception_5b/relu_5x5
I0718 14:29:03.844915 32927 net.cpp:106] Creating Layer inception_5b/relu_5x5
I0718 14:29:03.844936 32927 net.cpp:454] inception_5b/relu_5x5 <- inception_5b/5x5
I0718 14:29:03.844959 32927 net.cpp:397] inception_5b/relu_5x5 -> inception_5b/5x5 (in-place)
I0718 14:29:03.846864 32927 net.cpp:150] Setting up inception_5b/relu_5x5
I0718 14:29:03.846896 32927 net.cpp:157] Top shape: 4 128 31 31 (492032)
I0718 14:29:03.846911 32927 net.cpp:165] Memory required for data: 4335815216
I0718 14:29:03.846927 32927 layer_factory.hpp:76] Creating layer inception_5b/pool
I0718 14:29:03.846951 32927 net.cpp:106] Creating Layer inception_5b/pool
I0718 14:29:03.846969 32927 net.cpp:454] inception_5b/pool <- inception_5a/output_inception_5a/output_0_split_3
I0718 14:29:03.846994 32927 net.cpp:411] inception_5b/pool -> inception_5b/pool
I0718 14:29:03.849362 32927 net.cpp:150] Setting up inception_5b/pool
I0718 14:29:03.849392 32927 net.cpp:157] Top shape: 4 832 31 31 (3198208)
I0718 14:29:03.849411 32927 net.cpp:165] Memory required for data: 4348608048
I0718 14:29:03.849426 32927 layer_factory.hpp:76] Creating layer inception_5b/pool_proj
I0718 14:29:03.849459 32927 net.cpp:106] Creating Layer inception_5b/pool_proj
I0718 14:29:03.849478 32927 net.cpp:454] inception_5b/pool_proj <- inception_5b/pool
I0718 14:29:03.849504 32927 net.cpp:411] inception_5b/pool_proj -> inception_5b/pool_proj
I0718 14:29:03.856967 32927 cudnn_conv_layer.cpp:194] Reallocating workspace storage: 9984
I0718 14:29:03.857069 32927 net.cpp:150] Setting up inception_5b/pool_proj
I0718 14:29:03.857123 32927 net.cpp:157] Top shape: 4 128 31 31 (492032)
I0718 14:29:03.857149 32927 net.cpp:165] Memory required for data: 4350576176
I0718 14:29:03.857183 32927 layer_factory.hpp:76] Creating layer inception_5b/relu_pool_proj
I0718 14:29:03.857209 32927 net.cpp:106] Creating Layer inception_5b/relu_pool_proj
I0718 14:29:03.857228 32927 net.cpp:454] inception_5b/relu_pool_proj <- inception_5b/pool_proj
I0718 14:29:03.857305 32927 net.cpp:397] inception_5b/relu_pool_proj -> inception_5b/pool_proj (in-place)
I0718 14:29:03.859222 32927 net.cpp:150] Setting up inception_5b/relu_pool_proj
I0718 14:29:03.859261 32927 net.cpp:157] Top shape: 4 128 31 31 (492032)
I0718 14:29:03.859284 32927 net.cpp:165] Memory required for data: 4352544304
I0718 14:29:03.859313 32927 layer_factory.hpp:76] Creating layer inception_5b/output
I0718 14:29:03.859345 32927 net.cpp:106] Creating Layer inception_5b/output
I0718 14:29:03.859370 32927 net.cpp:454] inception_5b/output <- inception_5b/1x1
I0718 14:29:03.859398 32927 net.cpp:454] inception_5b/output <- inception_5b/3x3
I0718 14:29:03.859427 32927 net.cpp:454] inception_5b/output <- inception_5b/5x5
I0718 14:29:03.859453 32927 net.cpp:454] inception_5b/output <- inception_5b/pool_proj
I0718 14:29:03.859491 32927 net.cpp:411] inception_5b/output -> inception_5b/output
I0718 14:29:03.859597 32927 net.cpp:150] Setting up inception_5b/output
I0718 14:29:03.859629 32927 net.cpp:157] Top shape: 4 1024 31 31 (3936256)
I0718 14:29:03.859653 32927 net.cpp:165] Memory required for data: 4368289328
I0718 14:29:03.859678 32927 layer_factory.hpp:76] Creating layer pool5/7x7_s1
I0718 14:29:03.859726 32927 net.cpp:106] Creating Layer pool5/7x7_s1
I0718 14:29:03.859753 32927 net.cpp:454] pool5/7x7_s1 <- inception_5b/output
I0718 14:29:03.859784 32927 net.cpp:411] pool5/7x7_s1 -> pool5/7x7_s1
I0718 14:29:04.121337 32927 cudnn_conv_layer.cpp:194] Reallocating workspace storage: 602112
I0718 14:29:04.121879 32927 net.cpp:150] Setting up pool5/7x7_s1
I0718 14:29:04.121929 32927 net.cpp:157] Top shape: 4 512 25 25 (1280000)
I0718 14:29:04.121947 32927 net.cpp:165] Memory required for data: 4373409328
I0718 14:29:04.121973 32927 layer_factory.hpp:76] Creating layer conv61
I0718 14:29:04.122010 32927 net.cpp:106] Creating Layer conv61
I0718 14:29:04.122033 32927 net.cpp:454] conv61 <- pool5/7x7_s1
I0718 14:29:04.122073 32927 net.cpp:411] conv61 -> conv61
I0718 14:29:04.132030 32927 cudnn_conv_layer.cpp:194] Reallocating workspace storage: 55296
I0718 14:29:04.132122 32927 net.cpp:150] Setting up conv61
I0718 14:29:04.132148 32927 net.cpp:157] Top shape: 4 64 25 25 (160000)
I0718 14:29:04.132163 32927 net.cpp:165] Memory required for data: 4374049328
I0718 14:29:04.132187 32927 layer_factory.hpp:76] Creating layer relu61
I0718 14:29:04.132223 32927 net.cpp:106] Creating Layer relu61
I0718 14:29:04.132246 32927 net.cpp:454] relu61 <- conv61
I0718 14:29:04.132264 32927 net.cpp:397] relu61 -> conv61 (in-place)
I0718 14:29:04.134142 32927 net.cpp:150] Setting up relu61
I0718 14:29:04.134202 32927 net.cpp:157] Top shape: 4 64 25 25 (160000)
I0718 14:29:04.134217 32927 net.cpp:165] Memory required for data: 4374689328
I0718 14:29:04.134233 32927 layer_factory.hpp:76] Creating layer pool5
I0718 14:29:04.134261 32927 net.cpp:106] Creating Layer pool5
I0718 14:29:04.134280 32927 net.cpp:454] pool5 <- conv61
I0718 14:29:04.134310 32927 net.cpp:411] pool5 -> pool5
I0718 14:29:04.136723 32927 net.cpp:150] Setting up pool5
I0718 14:29:04.136790 32927 net.cpp:157] Top shape: 4 64 13 13 (43264)
I0718 14:29:04.136806 32927 net.cpp:165] Memory required for data: 4374862384
I0718 14:29:04.136821 32927 layer_factory.hpp:76] Creating layer conv62
I0718 14:29:04.136862 32927 net.cpp:106] Creating Layer conv62
I0718 14:29:04.136881 32927 net.cpp:454] conv62 <- pool5
I0718 14:29:04.136909 32927 net.cpp:411] conv62 -> conv62
I0718 14:29:04.145499 32927 net.cpp:150] Setting up conv62
I0718 14:29:04.145560 32927 net.cpp:157] Top shape: 4 64 13 13 (43264)
I0718 14:29:04.145578 32927 net.cpp:165] Memory required for data: 4375035440
I0718 14:29:04.145606 32927 layer_factory.hpp:76] Creating layer relu62
I0718 14:29:04.145638 32927 net.cpp:106] Creating Layer relu62
I0718 14:29:04.145660 32927 net.cpp:454] relu62 <- conv62
I0718 14:29:04.145684 32927 net.cpp:397] relu62 -> conv62 (in-place)
I0718 14:29:04.148592 32927 net.cpp:150] Setting up relu62
I0718 14:29:04.148622 32927 net.cpp:157] Top shape: 4 64 13 13 (43264)
I0718 14:29:04.148661 32927 net.cpp:165] Memory required for data: 4375208496
I0718 14:29:04.148679 32927 layer_factory.hpp:76] Creating layer pool6
I0718 14:29:04.148704 32927 net.cpp:106] Creating Layer pool6
I0718 14:29:04.148720 32927 net.cpp:454] pool6 <- conv62
I0718 14:29:04.148738 32927 net.cpp:411] pool6 -> pool6
I0718 14:29:04.149941 32927 net.cpp:150] Setting up pool6
I0718 14:29:04.149971 32927 net.cpp:157] Top shape: 4 64 7 7 (12544)
I0718 14:29:04.149986 32927 net.cpp:165] Memory required for data: 4375258672
I0718 14:29:04.150001 32927 layer_factory.hpp:76] Creating layer conv81
I0718 14:29:04.150032 32927 net.cpp:106] Creating Layer conv81
I0718 14:29:04.150049 32927 net.cpp:454] conv81 <- pool6
I0718 14:29:04.150068 32927 net.cpp:411] conv81 -> conv81
I0718 14:29:04.156363 32927 cudnn_conv_layer.cpp:194] Reallocating workspace storage: 6912
I0718 14:29:04.156461 32927 net.cpp:150] Setting up conv81
I0718 14:29:04.156486 32927 net.cpp:157] Top shape: 4 128 7 7 (25088)
I0718 14:29:04.156512 32927 net.cpp:165] Memory required for data: 4375359024
I0718 14:29:04.156553 32927 layer_factory.hpp:76] Creating layer relu81
I0718 14:29:04.156591 32927 net.cpp:106] Creating Layer relu81
I0718 14:29:04.156620 32927 net.cpp:454] relu81 <- conv81
I0718 14:29:04.156653 32927 net.cpp:397] relu81 -> conv81 (in-place)
I0718 14:29:04.158655 32927 net.cpp:150] Setting up relu81
I0718 14:29:04.158695 32927 net.cpp:157] Top shape: 4 128 7 7 (25088)
I0718 14:29:04.158710 32927 net.cpp:165] Memory required for data: 4375459376
I0718 14:29:04.158726 32927 layer_factory.hpp:76] Creating layer conv82
I0718 14:29:04.158761 32927 net.cpp:106] Creating Layer conv82
I0718 14:29:04.158787 32927 net.cpp:454] conv82 <- conv81
I0718 14:29:04.158814 32927 net.cpp:411] conv82 -> conv82
I0718 14:29:04.164408 32927 net.cpp:150] Setting up conv82
I0718 14:29:04.164450 32927 net.cpp:157] Top shape: 4 128 7 7 (25088)
I0718 14:29:04.164470 32927 net.cpp:165] Memory required for data: 4375559728
I0718 14:29:04.164492 32927 layer_factory.hpp:76] Creating layer relu82
I0718 14:29:04.164515 32927 net.cpp:106] Creating Layer relu82
I0718 14:29:04.164541 32927 net.cpp:454] relu82 <- conv82
I0718 14:29:04.164561 32927 net.cpp:397] relu82 -> conv82 (in-place)
I0718 14:29:04.165469 32927 net.cpp:150] Setting up relu82
I0718 14:29:04.165499 32927 net.cpp:157] Top shape: 4 128 7 7 (25088)
I0718 14:29:04.165513 32927 net.cpp:165] Memory required for data: 4375660080
I0718 14:29:04.165529 32927 layer_factory.hpp:76] Creating layer pool7
I0718 14:29:04.165547 32927 net.cpp:106] Creating Layer pool7
I0718 14:29:04.165563 32927 net.cpp:454] pool7 <- conv82
I0718 14:29:04.165585 32927 net.cpp:411] pool7 -> pool7
I0718 14:29:04.168928 32927 net.cpp:150] Setting up pool7
I0718 14:29:04.168964 32927 net.cpp:157] Top shape: 4 128 4 4 (8192)
I0718 14:29:04.168979 32927 net.cpp:165] Memory required for data: 4375692848
I0718 14:29:04.168994 32927 layer_factory.hpp:76] Creating layer drop0
I0718 14:29:04.169021 32927 net.cpp:106] Creating Layer drop0
I0718 14:29:04.169037 32927 net.cpp:454] drop0 <- pool7
I0718 14:29:04.169066 32927 net.cpp:397] drop0 -> pool7 (in-place)
I0718 14:29:04.169198 32927 net.cpp:150] Setting up drop0
I0718 14:29:04.169230 32927 net.cpp:157] Top shape: 4 128 4 4 (8192)
I0718 14:29:04.169247 32927 net.cpp:165] Memory required for data: 4375725616
I0718 14:29:04.169263 32927 layer_factory.hpp:76] Creating layer conv91
I0718 14:29:04.169291 32927 net.cpp:106] Creating Layer conv91
I0718 14:29:04.169309 32927 net.cpp:454] conv91 <- pool7
I0718 14:29:04.169335 32927 net.cpp:411] conv91 -> conv91
F0718 14:29:04.176548 32927 blob.cpp:32] Check failed: shape[i] >= 0 (-3 vs. 0) 
