…
I0718 14:31:44.755813 33522 net.cpp:322] The NetState phase (0) differed from the phase (1) specified by a rule in layer data
I0718 14:31:44.756732 33522 net.cpp:49] Initializing net from parameters: 
name: "GoogleNet"
state {
  phase: TRAIN
}
layer {
  name: "data"
  type: "ImageData"
  top: "data"
  top: "label"
  include {
    phase: TRAIN
  }
  transform_param {
    mirror: true
    mean_value: 163
    mean_value: 116
    mean_value: 181
  }
  image_data_param {
    source: "../lists/mitosis_train.lst"
    batch_size: 4
    shuffle: true
  }
}
layer {
  name: "conv1/7x7_s2"
  type: "Convolution"
  bottom: "data"
  top: "conv1/7x7_s2"
  param {
    lr_mult: 0
    decay_mult: 1
  }
  param {
    lr_mult: 2
    decay_mult: 0
  }
  convolution_param {
    num_output: 64
    pad: 3
    kernel_size: 7
    stride: 2
    weight_filler {
      type: "xavier"
    }
    bias_filler {
      type: "constant"
      value: 0.2
    }
  }
}
layer {
  name: "conv1/relu_7x7"
  type: "ReLU"
  bottom: "conv1/7x7_s2"
  top: "conv1/7x7_s2"
}
layer {
  name: "pool1/3x3_s2"
  type: "Pooling"
  bottom: "conv1/7x7_s2"
  top: "pool1/3x3_s2"
  pooling_param {
    pool: MAX
    kernel_size: 3
    stride: 2
  }
}
layer {
  name: "pool1/norm1"
  type: "LRN"
  bottom: "pool1/3x3_s2"
  top: "pool1/norm1"
  lrn_param {
    local_size: 5
    alpha: 0.0001
    beta: 0.75
  }
}
layer {
  name: "conv2/3x3_reduce"
  type: "Convolution"
  bottom: "pool1/norm1"
  top: "conv2/3x3_reduce"
  param {
    lr_mult: 0
    decay_mult: 1
  }
  param {
    lr_mult: 2
    decay_mult: 0
  }
  convolution_param {
    num_output: 64
    kernel_size: 1
    weight_filler {
      type: "xavier"
    }
    bias_filler {
      type: "constant"
      value: 0.2
    }
  }
}
layer {
  name: "conv2/relu_3x3_reduce"
  type: "ReLU"
  bottom: "conv2/3x3_reduce"
  top: "conv2/3x3_reduce"
}
layer {
  name: "conv2/3x3"
  type: "Convolution"
  bottom: "conv2/3x3_reduce"
  top: "conv2/3x3"
  param {
    lr_mult: 0
    decay_mult: 1
  }
  param {
    lr_mult: 2
    decay_mult: 0
  }
  convolution_param {
    num_output: 192
    pad: 1
    kernel_size: 3
    weight_filler {
      type: "xavier"
    }
    bias_filler {
      type: "constant"
      value: 0.2
    }
  }
}
layer {
  name: "conv2/relu_3x3"
  type: "ReLU"
  bottom: "conv2/3x3"
  top: "conv2/3x3"
}
layer {
  name: "conv2/norm2"
  type: "LRN"
  bottom: "conv2/3x3"
  top: "conv2/norm2"
  lrn_param {
    local_size: 5
    alpha: 0.0001
    beta: 0.75
  }
}
layer {
  name: "pool2/3x3_s2"
  type: "Pooling"
  bottom: "conv2/norm2"
  top: "pool2/3x3_s2"
  pooling_param {
    pool: MAX
    kernel_size: 3
    stride: 2
  }
}
layer {
  name: "inception_3a/1x1"
  type: "Convolution"
  bottom: "pool2/3x3_s2"
  top: "inception_3a/1x1"
  param {
    lr_mult: 0
    decay_mult: 1
  }
  param {
    lr_mult: 2
    decay_mult: 0
  }
  convolution_param {
    num_output: 64
    kernel_size: 1
    weight_filler {
      type: "xavier"
    }
    bias_filler {
      type: "constant"
      value: 0.2
    }
  }
}
layer {
  name: "inception_3a/relu_1x1"
  type: "ReLU"
  bottom: "inception_3a/1x1"
  top: "inception_3a/1x1"
}
layer {
  name: "inception_3a/3x3_reduce"
  type: "Convolution"
  bottom: "pool2/3x3_s2"
  top: "inception_3a/3x3_reduce"
  param {
    lr_mult: 0
    decay_mult: 1
  }
  param {
    lr_mult: 2
    decay_mult: 0
  }
  convolution_param {
    num_output: 96
    kernel_size: 1
    weight_filler {
      type: "xavier"
    }
    bias_filler {
      type: "constant"
      value: 0.2
    }
  }
}
layer {
  name: "inception_3a/relu_3x3_reduce"
  type: "ReLU"
  bottom: "inception_3a/3x3_reduce"
  top: "inception_3a/3x3_reduce"
}
layer {
  name: "inception_3a/3x3"
  type: "Convolution"
  bottom: "inception_3a/3x3_reduce"
  top: "inception_3a/3x3"
  param {
    lr_mult: 0
    decay_mult: 1
  }
  param {
    lr_mult: 2
    decay_mult: 0
  }
  convolution_param {
    num_output: 128
    pad: 1
    kernel_size: 3
    weight_filler {
      type: "xavier"
    }
    bias_filler {
      type: "constant"
      value: 0.2
    }
  }
}
layer {
  name: "inception_3a/relu_3x3"
  type: "ReLU"
  bottom: "inception_3a/3x3"
  top: "inception_3a/3x3"
}
layer {
  name: "inception_3a/5x5_reduce"
  type: "Convolution"
  bottom: "pool2/3x3_s2"
  top: "inception_3a/5x5_reduce"
  param {
    lr_mult: 0
    decay_mult: 1
  }
  param {
    lr_mult: 2
    decay_mult: 0
  }
  convolution_param {
    num_output: 16
    kernel_size: 1
    weight_filler {
      type: "xavier"
    }
    bias_filler {
      type: "constant"
      value: 0.2
    }
  }
}
layer {
  name: "inception_3a/relu_5x5_reduce"
  type: "ReLU"
  bottom: "inception_3a/5x5_reduce"
  top: "inception_3a/5x5_reduce"
}
layer {
  name: "inception_3a/5x5"
  type: "Convolution"
  bottom: "inception_3a/5x5_reduce"
  top: "inception_3a/5x5"
  param {
    lr_mult: 0
    decay_mult: 1
  }
  param {
    lr_mult: 2
    decay_mult: 0
  }
  convolution_param {
    num_output: 32
    pad: 2
    kernel_size: 5
    weight_filler {
      type: "xavier"
    }
    bias_filler {
      type: "constant"
      value: 0.2
    }
  }
}
layer {
  name: "inception_3a/relu_5x5"
  type: "ReLU"
  bottom: "inception_3a/5x5"
  top: "inception_3a/5x5"
}
layer {
  name: "inception_3a/pool"
  type: "Pooling"
  bottom: "pool2/3x3_s2"
  top: "inception_3a/pool"
  pooling_param {
    pool: MAX
    kernel_size: 3
    stride: 1
    pad: 1
  }
}
layer {
  name: "inception_3a/pool_proj"
  type: "Convolution"
  bottom: "inception_3a/pool"
  top: "inception_3a/pool_proj"
  param {
    lr_mult: 0
    decay_mult: 1
  }
  param {
    lr_mult: 2
    decay_mult: 0
  }
  convolution_param {
    num_output: 32
    kernel_size: 1
    weight_filler {
      type: "xavier"
    }
    bias_filler {
      type: "constant"
      value: 0.2
    }
  }
}
layer {
  name: "inception_3a/relu_pool_proj"
  type: "ReLU"
  bottom: "inception_3a/pool_proj"
  top: "inception_3a/pool_proj"
}
layer {
  name: "inception_3a/output"
  type: "Concat"
  bottom: "inception_3a/1x1"
  bottom: "inception_3a/3x3"
  bottom: "inception_3a/5x5"
  bottom: "inception_3a/pool_proj"
  top: "inception_3a/output"
}
layer {
  name: "inception_3b/1x1"
  type: "Convolution"
  bottom: "inception_3a/output"
  top: "inception_3b/1x1"
  param {
    lr_mult: 0
    decay_mult: 1
  }
  param {
    lr_mult: 2
    decay_mult: 0
  }
  convolution_param {
    num_output: 128
    kernel_size: 1
    weight_filler {
      type: "xavier"
    }
    bias_filler {
      type: "constant"
      value: 0.2
    }
  }
}
layer {
  name: "inception_3b/relu_1x1"
  type: "ReLU"
  bottom: "inception_3b/1x1"
  top: "inception_3b/1x1"
}
layer {
  name: "inception_3b/3x3_reduce"
  type: "Convolution"
  bottom: "inception_3a/output"
  top: "inception_3b/3x3_reduce"
  param {
    lr_mult: 0
    decay_mult: 1
  }
  param {
    lr_mult: 2
    decay_mult: 0
  }
  convolution_param {
    num_output: 128
    kernel_size: 1
    weight_filler {
      type: "xavier"
    }
    bias_filler {
      type: "constant"
      value: 0.2
    }
  }
}
layer {
  name: "inception_3b/relu_3x3_reduce"
  type: "ReLU"
  bottom: "inception_3b/3x3_reduce"
  top: "inception_3b/3x3_reduce"
}
layer {
  name: "inception_3b/3x3"
  type: "Convolution"
  bottom: "inception_3b/3x3_reduce"
  top: "inception_3b/3x3"
  param {
    lr_mult: 0
    decay_mult: 1
  }
  param {
    lr_mult: 2
    decay_mult: 0
  }
  convolution_param {
    num_output: 192
    pad: 1
    kernel_size: 3
    weight_filler {
      type: "xavier"
    }
    bias_filler {
      type: "constant"
      value: 0.2
    }
  }
}
layer {
  name: "inception_3b/relu_3x3"
  type: "ReLU"
  bottom: "inception_3b/3x3"
  top: "inception_3b/3x3"
}
layer {
  name: "inception_3b/5x5_reduce"
  type: "Convolution"
  bottom: "inception_3a/output"
  top: "inception_3b/5x5_reduce"
  param {
    lr_mult: 0
    decay_mult: 1
  }
  param {
    lr_mult: 2
    decay_mult: 0
  }
  convolution_param {
    num_output: 32
    kernel_size: 1
    weight_filler {
      type: "xavier"
    }
    bias_filler {
      type: "constant"
      value: 0.2
    }
  }
}
layer {
  name: "inception_3b/relu_5x5_reduce"
  type: "ReLU"
  bottom: "inception_3b/5x5_reduce"
  top: "inception_3b/5x5_reduce"
}
layer {
  name: "inception_3b/5x5"
  type: "Convolution"
  bottom: "inception_3b/5x5_reduce"
  top: "inception_3b/5x5"
  param {
    lr_mult: 0
    decay_mult: 1
  }
  param {
    lr_mult: 2
    decay_mult: 0
  }
  convolution_param {
    num_output: 96
    pad: 2
    kernel_size: 5
    weight_filler {
      type: "xavier"
    }
    bias_filler {
      type: "constant"
      value: 0.2
    }
  }
}
layer {
  name: "inception_3b/relu_5x5"
  type: "ReLU"
  bottom: "inception_3b/5x5"
  top: "inception_3b/5x5"
}
layer {
  name: "inception_3b/pool"
  type: "Pooling"
  bottom: "inception_3a/output"
  top: "inception_3b/pool"
  pooling_param {
    pool: MAX
    kernel_size: 3
    stride: 1
    pad: 1
  }
}
layer {
  name: "inception_3b/pool_proj"
  type: "Convolution"
  bottom: "inception_3b/pool"
  top: "inception_3b/pool_proj"
  param {
    lr_mult: 0
    decay_mult: 1
  }
  param {
    lr_mult: 2
    decay_mult: 0
  }
  convolution_param {
    num_output: 64
    kernel_size: 1
    weight_filler {
      type: "xavier"
    }
    bias_filler {
      type: "constant"
      value: 0.2
    }
  }
}
layer {
  name: "inception_3b/relu_pool_proj"
  type: "ReLU"
  bottom: "inception_3b/pool_proj"
  top: "inception_3b/pool_proj"
}
layer {
  name: "inception_3b/output"
  type: "Concat"
  bottom: "inception_3b/1x1"
  bottom: "inception_3b/3x3"
  bottom: "inception_3b/5x5"
  bottom: "inception_3b/pool_proj"
  top: "inception_3b/output"
}
layer {
  name: "pool3/3x3_s2"
  type: "Pooling"
  bottom: "inception_3b/output"
  top: "pool3/3x3_s2"
  pooling_param {
    pool: MAX
    kernel_size: 3
    stride: 2
  }
}
layer {
  name: "inception_4a/1x1"
  type: "Convolution"
  bottom: "pool3/3x3_s2"
  top: "inception_4a/1x1"
  param {
    lr_mult: 0
    decay_mult: 1
  }
  param {
    lr_mult: 2
    decay_mult: 0
  }
  convolution_param {
    num_output: 192
    kernel_size: 1
    weight_filler {
      type: "xavier"
    }
    bias_filler {
      type: "constant"
      value: 0.2
    }
  }
}
layer {
  name: "inception_4a/relu_1x1"
  type: "ReLU"
  bottom: "inception_4a/1x1"
  top: "inception_4a/1x1"
}
layer {
  name: "inception_4a/3x3_reduce"
  type: "Convolution"
  bottom: "pool3/3x3_s2"
  top: "inception_4a/3x3_reduce"
  param {
    lr_mult: 0
    decay_mult: 1
  }
  param {
    lr_mult: 2
    decay_mult: 0
  }
  convolution_param {
    num_output: 96
    kernel_size: 1
    weight_filler {
      type: "xavier"
    }
    bias_filler {
      type: "constant"
      value: 0.2
    }
  }
}
layer {
  name: "inception_4a/relu_3x3_reduce"
  type: "ReLU"
  bottom: "inception_4a/3x3_reduce"
  top: "inception_4a/3x3_reduce"
}
layer {
  name: "inception_4a/3x3"
  type: "Convolution"
  bottom: "inception_4a/3x3_reduce"
  top: "inception_4a/3x3"
  param {
    lr_mult: 0
    decay_mult: 1
  }
  param {
    lr_mult: 2
    decay_mult: 0
  }
  convolution_param {
    num_output: 208
    pad: 1
    kernel_size: 3
    weight_filler {
      type: "xavier"
    }
    bias_filler {
      type: "constant"
      value: 0.2
    }
  }
}
layer {
  name: "inception_4a/relu_3x3"
  type: "ReLU"
  bottom: "inception_4a/3x3"
  top: "inception_4a/3x3"
}
layer {
  name: "inception_4a/5x5_reduce"
  type: "Convolution"
  bottom: "pool3/3x3_s2"
  top: "inception_4a/5x5_reduce"
  param {
    lr_mult: 0
    decay_mult: 1
  }
  param {
    lr_mult: 2
    decay_mult: 0
  }
  convolution_param {
    num_output: 16
    kernel_size: 1
    weight_filler {
      type: "xavier"
    }
    bias_filler {
      type: "constant"
      value: 0.2
    }
  }
}
layer {
  name: "inception_4a/relu_5x5_reduce"
  type: "ReLU"
  bottom: "inception_4a/5x5_reduce"
  top: "inception_4a/5x5_reduce"
}
layer {
  name: "inception_4a/5x5"
  type: "Convolution"
  bottom: "inception_4a/5x5_reduce"
  top: "inception_4a/5x5"
  param {
    lr_mult: 0
    decay_mult: 1
  }
  param {
    lr_mult: 2
    decay_mult: 0
  }
  convolution_param {
    num_output: 48
    pad: 2
    kernel_size: 5
    weight_filler {
      type: "xavier"
    }
    bias_filler {
      type: "constant"
      value: 0.2
    }
  }
}
layer {
  name: "inception_4a/relu_5x5"
  type: "ReLU"
  bottom: "inception_4a/5x5"
  top: "inception_4a/5x5"
}
layer {
  name: "inception_4a/pool"
  type: "Pooling"
  bottom: "pool3/3x3_s2"
  top: "inception_4a/pool"
  pooling_param {
    pool: MAX
    kernel_size: 3
    stride: 1
    pad: 1
  }
}
layer {
  name: "inception_4a/pool_proj"
  type: "Convolution"
  bottom: "inception_4a/pool"
  top: "inception_4a/pool_proj"
  param {
    lr_mult: 0
    decay_mult: 1
  }
  param {
    lr_mult: 2
    decay_mult: 0
  }
  convolution_param {
    num_output: 64
    kernel_size: 1
    weight_filler {
      type: "xavier"
    }
    bias_filler {
      type: "constant"
      value: 0.2
    }
  }
}
layer {
  name: "inception_4a/relu_pool_proj"
  type: "ReLU"
  bottom: "inception_4a/pool_proj"
  top: "inception_4a/pool_proj"
}
layer {
  name: "inception_4a/output"
  type: "Concat"
  bottom: "inception_4a/1x1"
  bottom: "inception_4a/3x3"
  bottom: "inception_4a/5x5"
  bottom: "inception_4a/pool_proj"
  top: "inception_4a/output"
}
layer {
  name: "inception_4b/1x1"
  type: "Convolution"
  bottom: "inception_4a/output"
  top: "inception_4b/1x1"
  param {
    lr_mult: 0
    decay_mult: 1
  }
  param {
    lr_mult: 2
    decay_mult: 0
  }
  convolution_param {
    num_output: 160
    kernel_size: 1
    weight_filler {
      type: "xavier"
    }
    bias_filler {
      type: "constant"
      value: 0.2
    }
  }
}
layer {
  name: "inception_4b/relu_1x1"
  type: "ReLU"
  bottom: "inception_4b/1x1"
  top: "inception_4b/1x1"
}
layer {
  name: "inception_4b/3x3_reduce"
  type: "Convolution"
  bottom: "inception_4a/output"
  top: "inception_4b/3x3_reduce"
  param {
    lr_mult: 0
    decay_mult: 1
  }
  param {
    lr_mult: 2
    decay_mult: 0
  }
  convolution_param {
    num_output: 112
    kernel_size: 1
    weight_filler {
      type: "xavier"
    }
    bias_filler {
      type: "constant"
      value: 0.2
    }
  }
}
layer {
  name: "inception_4b/relu_3x3_reduce"
  type: "ReLU"
  bottom: "inception_4b/3x3_reduce"
  top: "inception_4b/3x3_reduce"
}
layer {
  name: "inception_4b/3x3"
  type: "Convolution"
  bottom: "inception_4b/3x3_reduce"
  top: "inception_4b/3x3"
  param {
    lr_mult: 0
    decay_mult: 1
  }
  param {
    lr_mult: 2
    decay_mult: 0
  }
  convolution_param {
    num_output: 224
    pad: 1
    kernel_size: 3
    weight_filler {
      type: "xavier"
    }
    bias_filler {
      type: "constant"
      value: 0.2
    }
  }
}
layer {
  name: "inception_4b/relu_3x3"
  type: "ReLU"
  bottom: "inception_4b/3x3"
  top: "inception_4b/3x3"
}
layer {
  name: "inception_4b/5x5_reduce"
  type: "Convolution"
  bottom: "inception_4a/output"
  top: "inception_4b/5x5_reduce"
  param {
    lr_mult: 0
    decay_mult: 1
  }
  param {
    lr_mult: 2
    decay_mult: 0
  }
  convolution_param {
    num_output: 24
    kernel_size: 1
    weight_filler {
      type: "xavier"
    }
    bias_filler {
      type: "constant"
      value: 0.2
    }
  }
}
layer {
  name: "inception_4b/relu_5x5_reduce"
  type: "ReLU"
  bottom: "inception_4b/5x5_reduce"
  top: "inception_4b/5x5_reduce"
}
layer {
  name: "inception_4b/5x5"
  type: "Convolution"
  bottom: "inception_4b/5x5_reduce"
  top: "inception_4b/5x5"
  param {
    lr_mult: 0
    decay_mult: 1
  }
  param {
    lr_mult: 2
    decay_mult: 0
  }
  convolution_param {
    num_output: 64
    pad: 2
    kernel_size: 5
    weight_filler {
      type: "xavier"
    }
    bias_filler {
      type: "constant"
      value: 0.2
    }
  }
}
layer {
  name: "inception_4b/relu_5x5"
  type: "ReLU"
  bottom: "inception_4b/5x5"
  top: "inception_4b/5x5"
}
layer {
  name: "inception_4b/pool"
  type: "Pooling"
  bottom: "inception_4a/output"
  top: "inception_4b/pool"
  pooling_param {
    pool: MAX
    kernel_size: 3
    stride: 1
    pad: 1
  }
}
layer {
  name: "inception_4b/pool_proj"
  type: "Convolution"
  bottom: "inception_4b/pool"
  top: "inception_4b/pool_proj"
  param {
    lr_mult: 0
    decay_mult: 1
  }
  param {
    lr_mult: 2
    decay_mult: 0
  }
  convolution_param {
    num_output: 64
    kernel_size: 1
    weight_filler {
      type: "xavier"
    }
    bias_filler {
      type: "constant"
      value: 0.2
    }
  }
}
layer {
  name: "inception_4b/relu_pool_proj"
  type: "ReLU"
  bottom: "inception_4b/pool_proj"
  top: "inception_4b/pool_proj"
}
layer {
  name: "inception_4b/output"
  type: "Concat"
  bottom: "inception_4b/1x1"
  bottom: "inception_4b/3x3"
  bottom: "inception_4b/5x5"
  bottom: "inception_4b/pool_proj"
  top: "inception_4b/output"
}
layer {
  name: "inception_4c/1x1"
  type: "Convolution"
  bottom: "inception_4b/output"
  top: "inception_4c/1x1"
  param {
    lr_mult: 0
    decay_mult: 1
  }
  param {
    lr_mult: 2
    decay_mult: 0
  }
  convolution_param {
    num_output: 128
    kernel_size: 1
    weight_filler {
      type: "xavier"
    }
    bias_filler {
      type: "constant"
      value: 0.2
    }
  }
}
layer {
  name: "inception_4c/relu_1x1"
  type: "ReLU"
  bottom: "inception_4c/1x1"
  top: "inception_4c/1x1"
}
layer {
  name: "inception_4c/3x3_reduce"
  type: "Convolution"
  bottom: "inception_4b/output"
  top: "inception_4c/3x3_reduce"
  param {
    lr_mult: 0
    decay_mult: 1
  }
  param {
    lr_mult: 2
    decay_mult: 0
  }
  convolution_param {
    num_output: 128
    kernel_size: 1
    weight_filler {
      type: "xavier"
    }
    bias_filler {
      type: "constant"
      value: 0.2
    }
  }
}
layer {
  name: "inception_4c/relu_3x3_reduce"
  type: "ReLU"
  bottom: "inception_4c/3x3_reduce"
  top: "inception_4c/3x3_reduce"
}
layer {
  name: "inception_4c/3x3"
  type: "Convolution"
  bottom: "inception_4c/3x3_reduce"
  top: "inception_4c/3x3"
  param {
    lr_mult: 0
    decay_mult: 1
  }
  param {
    lr_mult: 2
    decay_mult: 0
  }
  convolution_param {
    num_output: 256
    pad: 1
    kernel_size: 3
    weight_filler {
      type: "xavier"
    }
    bias_filler {
      type: "constant"
      value: 0.2
    }
  }
}
layer {
  name: "inception_4c/relu_3x3"
  type: "ReLU"
  bottom: "inception_4c/3x3"
  top: "inception_4c/3x3"
}
layer {
  name: "inception_4c/5x5_reduce"
  type: "Convolution"
  bottom: "inception_4b/output"
  top: "inception_4c/5x5_reduce"
  param {
    lr_mult: 0
    decay_mult: 1
  }
  param {
    lr_mult: 2
    decay_mult: 0
  }
  convolution_param {
    num_output: 24
    kernel_size: 1
    weight_filler {
      type: "xavier"
    }
    bias_filler {
      type: "constant"
      value: 0.2
    }
  }
}
layer {
  name: "inception_4c/relu_5x5_reduce"
  type: "ReLU"
  bottom: "inception_4c/5x5_reduce"
  top: "inception_4c/5x5_reduce"
}
layer {
  name: "inception_4c/5x5"
  type: "Convolution"
  bottom: "inception_4c/5x5_reduce"
  top: "inception_4c/5x5"
  param {
    lr_mult: 0
    decay_mult: 1
  }
  param {
    lr_mult: 2
    decay_mult: 0
  }
  convolution_param {
    num_output: 64
    pad: 2
    kernel_size: 5
    weight_filler {
      type: "xavier"
    }
    bias_filler {
      type: "constant"
      value: 0.2
    }
  }
}
layer {
  name: "inception_4c/relu_5x5"
  type: "ReLU"
  bottom: "inception_4c/5x5"
  top: "inception_4c/5x5"
}
layer {
  name: "inception_4c/pool"
  type: "Pooling"
  bottom: "inception_4b/output"
  top: "inception_4c/pool"
  pooling_param {
    pool: MAX
    kernel_size: 3
    stride: 1
    pad: 1
  }
}
layer {
  name: "inception_4c/pool_proj"
  type: "Convolution"
  bottom: "inception_4c/pool"
  top: "inception_4c/pool_proj"
  param {
    lr_mult: 0
    decay_mult: 1
  }
  param {
    lr_mult: 2
    decay_mult: 0
  }
  convolution_param {
    num_output: 64
    kernel_size: 1
    weight_filler {
      type: "xavier"
    }
    bias_filler {
      type: "constant"
      value: 0.2
    }
  }
}
layer {
  name: "inception_4c/relu_pool_proj"
  type: "ReLU"
  bottom: "inception_4c/pool_proj"
  top: "inception_4c/pool_proj"
}
layer {
  name: "inception_4c/output"
  type: "Concat"
  bottom: "inception_4c/1x1"
  bottom: "inception_4c/3x3"
  bottom: "inception_4c/5x5"
  bottom: "inception_4c/pool_proj"
  top: "inception_4c/output"
}
layer {
  name: "inception_4d/1x1"
  type: "Convolution"
  bottom: "inception_4c/output"
  top: "inception_4d/1x1"
  param {
    lr_mult: 0
    decay_mult: 1
  }
  param {
    lr_mult: 2
    decay_mult: 0
  }
  convolution_param {
    num_output: 112
    kernel_size: 1
    weight_filler {
      type: "xavier"
    }
    bias_filler {
      type: "constant"
      value: 0.2
    }
  }
}
layer {
  name: "inception_4d/relu_1x1"
  type: "ReLU"
  bottom: "inception_4d/1x1"
  top: "inception_4d/1x1"
}
layer {
  name: "inception_4d/3x3_reduce"
  type: "Convolution"
  bottom: "inception_4c/output"
  top: "inception_4d/3x3_reduce"
  param {
    lr_mult: 0
    decay_mult: 1
  }
  param {
    lr_mult: 2
    decay_mult: 0
  }
  convolution_param {
    num_output: 144
    kernel_size: 1
    weight_filler {
      type: "xavier"
    }
    bias_filler {
      type: "constant"
      value: 0.2
    }
  }
}
layer {
  name: "inception_4d/relu_3x3_reduce"
  type: "ReLU"
  bottom: "inception_4d/3x3_reduce"
  top: "inception_4d/3x3_reduce"
}
layer {
  name: "inception_4d/3x3"
  type: "Convolution"
  bottom: "inception_4d/3x3_reduce"
  top: "inception_4d/3x3"
  param {
    lr_mult: 0
    decay_mult: 1
  }
  param {
    lr_mult: 2
    decay_mult: 0
  }
  convolution_param {
    num_output: 288
    pad: 1
    kernel_size: 3
    weight_filler {
      type: "xavier"
    }
    bias_filler {
      type: "constant"
      value: 0.2
    }
  }
}
layer {
  name: "inception_4d/relu_3x3"
  type: "ReLU"
  bottom: "inception_4d/3x3"
  top: "inception_4d/3x3"
}
layer {
  name: "inception_4d/5x5_reduce"
  type: "Convolution"
  bottom: "inception_4c/output"
  top: "inception_4d/5x5_reduce"
  param {
    lr_mult: 0
    decay_mult: 1
  }
  param {
    lr_mult: 2
    decay_mult: 0
  }
  convolution_param {
    num_output: 32
    kernel_size: 1
    weight_filler {
      type: "xavier"
    }
    bias_filler {
      type: "constant"
      value: 0.2
    }
  }
}
layer {
  name: "inception_4d/relu_5x5_reduce"
  type: "ReLU"
  bottom: "inception_4d/5x5_reduce"
  top: "inception_4d/5x5_reduce"
}
layer {
  name: "inception_4d/5x5"
  type: "Convolution"
  bottom: "inception_4d/5x5_reduce"
  top: "inception_4d/5x5"
  param {
    lr_mult: 0
    decay_mult: 1
  }
  param {
    lr_mult: 2
    decay_mult: 0
  }
  convolution_param {
    num_output: 64
    pad: 2
    kernel_size: 5
    weight_filler {
      type: "xavier"
    }
    bias_filler {
      type: "constant"
      value: 0.2
    }
  }
}
layer {
  name: "inception_4d/relu_5x5"
  type: "ReLU"
  bottom: "inception_4d/5x5"
  top: "inception_4d/5x5"
}
layer {
  name: "inception_4d/pool"
  type: "Pooling"
  bottom: "inception_4c/output"
  top: "inception_4d/pool"
  pooling_param {
    pool: MAX
    kernel_size: 3
    stride: 1
    pad: 1
  }
}
layer {
  name: "inception_4d/pool_proj"
  type: "Convolution"
  bottom: "inception_4d/pool"
  top: "inception_4d/pool_proj"
  param {
    lr_mult: 0
    decay_mult: 1
  }
  param {
    lr_mult: 2
    decay_mult: 0
  }
  convolution_param {
    num_output: 64
    kernel_size: 1
    weight_filler {
      type: "xavier"
    }
    bias_filler {
      type: "constant"
      value: 0.2
    }
  }
}
layer {
  name: "inception_4d/relu_pool_proj"
  type: "ReLU"
  bottom: "inception_4d/pool_proj"
  top: "inception_4d/pool_proj"
}
layer {
  name: "inception_4d/output"
  type: "Concat"
  bottom: "inception_4d/1x1"
  bottom: "inception_4d/3x3"
  bottom: "inception_4d/5x5"
  bottom: "inception_4d/pool_proj"
  top: "inception_4d/output"
}
layer {
  name: "inception_4e/1x1"
  type: "Convolution"
  bottom: "inception_4d/output"
  top: "inception_4e/1x1"
  param {
    lr_mult: 0
    decay_mult: 1
  }
  param {
    lr_mult: 2
    decay_mult: 0
  }
  convolution_param {
    num_output: 256
    kernel_size: 1
    weight_filler {
      type: "xavier"
    }
    bias_filler {
      type: "constant"
      value: 0.2
    }
  }
}
layer {
  name: "inception_4e/relu_1x1"
  type: "ReLU"
  bottom: "inception_4e/1x1"
  top: "inception_4e/1x1"
}
layer {
  name: "inception_4e/3x3_reduce"
  type: "Convolution"
  bottom: "inception_4d/output"
  top: "inception_4e/3x3_reduce"
  param {
    lr_mult: 0
    decay_mult: 1
  }
  param {
    lr_mult: 2
    decay_mult: 0
  }
  convolution_param {
    num_output: 160
    kernel_size: 1
    weight_filler {
      type: "xavier"
    }
    bias_filler {
      type: "constant"
      value: 0.2
    }
  }
}
layer {
  name: "inception_4e/relu_3x3_reduce"
  type: "ReLU"
  bottom: "inception_4e/3x3_reduce"
  top: "inception_4e/3x3_reduce"
}
layer {
  name: "inception_4e/3x3"
  type: "Convolution"
  bottom: "inception_4e/3x3_reduce"
  top: "inception_4e/3x3"
  param {
    lr_mult: 0
    decay_mult: 1
  }
  param {
    lr_mult: 2
    decay_mult: 0
  }
  convolution_param {
    num_output: 320
    pad: 1
    kernel_size: 3
    weight_filler {
      type: "xavier"
    }
    bias_filler {
      type: "constant"
      value: 0.2
    }
  }
}
layer {
  name: "inception_4e/relu_3x3"
  type: "ReLU"
  bottom: "inception_4e/3x3"
  top: "inception_4e/3x3"
}
layer {
  name: "inception_4e/5x5_reduce"
  type: "Convolution"
  bottom: "inception_4d/output"
  top: "inception_4e/5x5_reduce"
  param {
    lr_mult: 0
    decay_mult: 1
  }
  param {
    lr_mult: 2
    decay_mult: 0
  }
  convolution_param {
    num_output: 32
    kernel_size: 1
    weight_filler {
      type: "xavier"
    }
    bias_filler {
      type: "constant"
      value: 0.2
    }
  }
}
layer {
  name: "inception_4e/relu_5x5_reduce"
  type: "ReLU"
  bottom: "inception_4e/5x5_reduce"
  top: "inception_4e/5x5_reduce"
}
layer {
  name: "inception_4e/5x5"
  type: "Convolution"
  bottom: "inception_4e/5x5_reduce"
  top: "inception_4e/5x5"
  param {
    lr_mult: 0
    decay_mult: 1
  }
  param {
    lr_mult: 2
    decay_mult: 0
  }
  convolution_param {
    num_output: 128
    pad: 2
    kernel_size: 5
    weight_filler {
      type: "xavier"
    }
    bias_filler {
      type: "constant"
      value: 0.2
    }
  }
}
layer {
  name: "inception_4e/relu_5x5"
  type: "ReLU"
  bottom: "inception_4e/5x5"
  top: "inception_4e/5x5"
}
layer {
  name: "inception_4e/pool"
  type: "Pooling"
  bottom: "inception_4d/output"
  top: "inception_4e/pool"
  pooling_param {
    pool: MAX
    kernel_size: 3
    stride: 1
    pad: 1
  }
}
layer {
  name: "inception_4e/pool_proj"
  type: "Convolution"
  bottom: "inception_4e/pool"
  top: "inception_4e/pool_proj"
  param {
    lr_mult: 0
    decay_mult: 1
  }
  param {
    lr_mult: 2
    decay_mult: 0
  }
  convolution_param {
    num_output: 128
    kernel_size: 1
    weight_filler {
      type: "xavier"
    }
    bias_filler {
      type: "constant"
      value: 0.2
    }
  }
}
layer {
  name: "inception_4e/relu_pool_proj"
  type: "ReLU"
  bottom: "inception_4e/pool_proj"
  top: "inception_4e/pool_proj"
}
layer {
  name: "inception_4e/output"
  type: "Concat"
  bottom: "inception_4e/1x1"
  bottom: "inception_4e/3x3"
  bottom: "inception_4e/5x5"
  bottom: "inception_4e/pool_proj"
  top: "inception_4e/output"
}
layer {
  name: "pool4/3x3_s2"
  type: "Pooling"
  bottom: "inception_4e/output"
  top: "pool4/3x3_s2"
  pooling_param {
    pool: MAX
    kernel_size: 3
    stride: 2
  }
}
layer {
  name: "inception_5a/1x1"
  type: "Convolution"
  bottom: "pool4/3x3_s2"
  top: "inception_5a/1x1"
  param {
    lr_mult: 0
    decay_mult: 1
  }
  param {
    lr_mult: 2
    decay_mult: 0
  }
  convolution_param {
    num_output: 256
    kernel_size: 1
    weight_filler {
      type: "xavier"
    }
    bias_filler {
      type: "constant"
      value: 0.2
    }
  }
}
layer {
  name: "inception_5a/relu_1x1"
  type: "ReLU"
  bottom: "inception_5a/1x1"
  top: "inception_5a/1x1"
}
layer {
  name: "inception_5a/3x3_reduce"
  type: "Convolution"
  bottom: "pool4/3x3_s2"
  top: "inception_5a/3x3_reduce"
  param {
    lr_mult: 0
    decay_mult: 1
  }
  param {
    lr_mult: 2
    decay_mult: 0
  }
  convolution_param {
    num_output: 160
    kernel_size: 1
    weight_filler {
      type: "xavier"
    }
    bias_filler {
      type: "constant"
      value: 0.2
    }
  }
}
layer {
  name: "inception_5a/relu_3x3_reduce"
  type: "ReLU"
  bottom: "inception_5a/3x3_reduce"
  top: "inception_5a/3x3_reduce"
}
layer {
  name: "inception_5a/3x3"
  type: "Convolution"
  bottom: "inception_5a/3x3_reduce"
  top: "inception_5a/3x3"
  param {
    lr_mult: 0
    decay_mult: 1
  }
  param {
    lr_mult: 2
    decay_mult: 0
  }
  convolution_param {
    num_output: 320
    pad: 1
    kernel_size: 3
    weight_filler {
      type: "xavier"
    }
    bias_filler {
      type: "constant"
      value: 0.2
    }
  }
}
layer {
  name: "inception_5a/relu_3x3"
  type: "ReLU"
  bottom: "inception_5a/3x3"
  top: "inception_5a/3x3"
}
layer {
  name: "inception_5a/5x5_reduce"
  type: "Convolution"
  bottom: "pool4/3x3_s2"
  top: "inception_5a/5x5_reduce"
  param {
    lr_mult: 0
    decay_mult: 1
  }
  param {
    lr_mult: 2
    decay_mult: 0
  }
  convolution_param {
    num_output: 32
    kernel_size: 1
    weight_filler {
      type: "xavier"
    }
    bias_filler {
      type: "constant"
      value: 0.2
    }
  }
}
layer {
  name: "inception_5a/relu_5x5_reduce"
  type: "ReLU"
  bottom: "inception_5a/5x5_reduce"
  top: "inception_5a/5x5_reduce"
}
layer {
  name: "inception_5a/5x5"
  type: "Convolution"
  bottom: "inception_5a/5x5_reduce"
  top: "inception_5a/5x5"
  param {
    lr_mult: 0
    decay_mult: 1
  }
  param {
    lr_mult: 2
    decay_mult: 0
  }
  convolution_param {
    num_output: 128
    pad: 2
    kernel_size: 5
    weight_filler {
      type: "xavier"
    }
    bias_filler {
      type: "constant"
      value: 0.2
    }
  }
}
layer {
  name: "inception_5a/relu_5x5"
  type: "ReLU"
  bottom: 
I0718 14:31:44.760612 33522 layer_factory.hpp:76] Creating layer data
I0718 14:31:44.760666 33522 net.cpp:106] Creating Layer data
I0718 14:31:44.760677 33522 net.cpp:411] data -> data
I0718 14:31:44.760718 33522 net.cpp:411] data -> label
I0718 14:31:44.761178 33522 image_data_layer.cpp:36] Opening file ../lists/mitosis_train.lst
I0718 14:31:44.773537 33522 image_data_layer.cpp:46] Shuffling data
I0718 14:31:44.775882 33522 image_data_layer.cpp:51] A total of 21366 images.
I0718 14:31:44.972822 33522 image_data_layer.cpp:78] output data size: 4,3,1000,1000
I0718 14:31:45.130544 33522 net.cpp:150] Setting up data
I0718 14:31:45.130609 33522 net.cpp:157] Top shape: 4 3 1000 1000 (12000000)
I0718 14:31:45.130620 33522 net.cpp:157] Top shape: 4 (4)
I0718 14:31:45.130635 33522 net.cpp:165] Memory required for data: 48000016
I0718 14:31:45.130651 33522 layer_factory.hpp:76] Creating layer label_data_1_split
I0718 14:31:45.130678 33522 net.cpp:106] Creating Layer label_data_1_split
I0718 14:31:45.130692 33522 net.cpp:454] label_data_1_split <- label
I0718 14:31:45.130712 33522 net.cpp:411] label_data_1_split -> label_data_1_split_0
I0718 14:31:45.130728 33522 net.cpp:411] label_data_1_split -> label_data_1_split_1
I0718 14:31:45.130791 33522 net.cpp:150] Setting up label_data_1_split
I0718 14:31:45.130806 33522 net.cpp:157] Top shape: 4 (4)
I0718 14:31:45.130815 33522 net.cpp:157] Top shape: 4 (4)
I0718 14:31:45.130823 33522 net.cpp:165] Memory required for data: 48000048
I0718 14:31:45.130832 33522 layer_factory.hpp:76] Creating layer conv1/7x7_s2
I0718 14:31:45.130856 33522 net.cpp:106] Creating Layer conv1/7x7_s2
I0718 14:31:45.130866 33522 net.cpp:454] conv1/7x7_s2 <- data
I0718 14:31:45.130877 33522 net.cpp:411] conv1/7x7_s2 -> conv1/7x7_s2
I0718 14:31:45.424760 33522 net.cpp:150] Setting up conv1/7x7_s2
I0718 14:31:45.424813 33522 net.cpp:157] Top shape: 4 64 500 500 (64000000)
I0718 14:31:45.424824 33522 net.cpp:165] Memory required for data: 304000048
I0718 14:31:45.424855 33522 layer_factory.hpp:76] Creating layer conv1/relu_7x7
I0718 14:31:45.424878 33522 net.cpp:106] Creating Layer conv1/relu_7x7
I0718 14:31:45.424916 33522 net.cpp:454] conv1/relu_7x7 <- conv1/7x7_s2
I0718 14:31:45.424934 33522 net.cpp:397] conv1/relu_7x7 -> conv1/7x7_s2 (in-place)
I0718 14:31:45.425613 33522 net.cpp:150] Setting up conv1/relu_7x7
I0718 14:31:45.425633 33522 net.cpp:157] Top shape: 4 64 500 500 (64000000)
I0718 14:31:45.425642 33522 net.cpp:165] Memory required for data: 560000048
I0718 14:31:45.425652 33522 layer_factory.hpp:76] Creating layer pool1/3x3_s2
I0718 14:31:45.425667 33522 net.cpp:106] Creating Layer pool1/3x3_s2
I0718 14:31:45.425676 33522 net.cpp:454] pool1/3x3_s2 <- conv1/7x7_s2
I0718 14:31:45.425688 33522 net.cpp:411] pool1/3x3_s2 -> pool1/3x3_s2
I0718 14:31:45.426198 33522 net.cpp:150] Setting up pool1/3x3_s2
I0718 14:31:45.426219 33522 net.cpp:157] Top shape: 4 64 250 250 (16000000)
I0718 14:31:45.426229 33522 net.cpp:165] Memory required for data: 624000048
I0718 14:31:45.426239 33522 layer_factory.hpp:76] Creating layer pool1/norm1
I0718 14:31:45.426262 33522 net.cpp:106] Creating Layer pool1/norm1
I0718 14:31:45.426275 33522 net.cpp:454] pool1/norm1 <- pool1/3x3_s2
I0718 14:31:45.426288 33522 net.cpp:411] pool1/norm1 -> pool1/norm1
I0718 14:31:45.426486 33522 net.cpp:150] Setting up pool1/norm1
I0718 14:31:45.426503 33522 net.cpp:157] Top shape: 4 64 250 250 (16000000)
I0718 14:31:45.426514 33522 net.cpp:165] Memory required for data: 688000048
I0718 14:31:45.426522 33522 layer_factory.hpp:76] Creating layer conv2/3x3_reduce
I0718 14:31:45.426539 33522 net.cpp:106] Creating Layer conv2/3x3_reduce
I0718 14:31:45.426551 33522 net.cpp:454] conv2/3x3_reduce <- pool1/norm1
I0718 14:31:45.426568 33522 net.cpp:411] conv2/3x3_reduce -> conv2/3x3_reduce
I0718 14:31:45.432224 33522 cudnn_conv_layer.cpp:194] Reallocating workspace storage: 768
I0718 14:31:45.432272 33522 net.cpp:150] Setting up conv2/3x3_reduce
I0718 14:31:45.432296 33522 net.cpp:157] Top shape: 4 64 250 250 (16000000)
I0718 14:31:45.432310 33522 net.cpp:165] Memory required for data: 752000048
I0718 14:31:45.432332 33522 layer_factory.hpp:76] Creating layer conv2/relu_3x3_reduce
I0718 14:31:45.432356 33522 net.cpp:106] Creating Layer conv2/relu_3x3_reduce
I0718 14:31:45.432371 33522 net.cpp:454] conv2/relu_3x3_reduce <- conv2/3x3_reduce
I0718 14:31:45.432389 33522 net.cpp:397] conv2/relu_3x3_reduce -> conv2/3x3_reduce (in-place)
I0718 14:31:45.433842 33522 net.cpp:150] Setting up conv2/relu_3x3_reduce
I0718 14:31:45.433871 33522 net.cpp:157] Top shape: 4 64 250 250 (16000000)
I0718 14:31:45.433886 33522 net.cpp:165] Memory required for data: 816000048
I0718 14:31:45.433902 33522 layer_factory.hpp:76] Creating layer conv2/3x3
I0718 14:31:45.433928 33522 net.cpp:106] Creating Layer conv2/3x3
I0718 14:31:45.433951 33522 net.cpp:454] conv2/3x3 <- conv2/3x3_reduce
I0718 14:31:45.433967 33522 net.cpp:411] conv2/3x3 -> conv2/3x3
I0718 14:31:45.441406 33522 cudnn_conv_layer.cpp:194] Reallocating workspace storage: 6912
I0718 14:31:45.441875 33522 net.cpp:150] Setting up conv2/3x3
I0718 14:31:45.441936 33522 net.cpp:157] Top shape: 4 192 250 250 (48000000)
I0718 14:31:45.441965 33522 net.cpp:165] Memory required for data: 1008000048
I0718 14:31:45.442021 33522 layer_factory.hpp:76] Creating layer conv2/relu_3x3
I0718 14:31:45.442070 33522 net.cpp:106] Creating Layer conv2/relu_3x3
I0718 14:31:45.442102 33522 net.cpp:454] conv2/relu_3x3 <- conv2/3x3
I0718 14:31:45.442142 33522 net.cpp:397] conv2/relu_3x3 -> conv2/3x3 (in-place)
I0718 14:31:45.442735 33522 net.cpp:150] Setting up conv2/relu_3x3
I0718 14:31:45.442785 33522 net.cpp:157] Top shape: 4 192 250 250 (48000000)
I0718 14:31:45.442812 33522 net.cpp:165] Memory required for data: 1200000048
I0718 14:31:45.442844 33522 layer_factory.hpp:76] Creating layer conv2/norm2
I0718 14:31:45.442886 33522 net.cpp:106] Creating Layer conv2/norm2
I0718 14:31:45.442914 33522 net.cpp:454] conv2/norm2 <- conv2/3x3
I0718 14:31:45.442937 33522 net.cpp:411] conv2/norm2 -> conv2/norm2
I0718 14:31:45.445730 33522 net.cpp:150] Setting up conv2/norm2
I0718 14:31:45.445770 33522 net.cpp:157] Top shape: 4 192 250 250 (48000000)
I0718 14:31:45.445823 33522 net.cpp:165] Memory required for data: 1392000048
I0718 14:31:45.445843 33522 layer_factory.hpp:76] Creating layer pool2/3x3_s2
I0718 14:31:45.445863 33522 net.cpp:106] Creating Layer pool2/3x3_s2
I0718 14:31:45.445878 33522 net.cpp:454] pool2/3x3_s2 <- conv2/norm2
I0718 14:31:45.445899 33522 net.cpp:411] pool2/3x3_s2 -> pool2/3x3_s2
I0718 14:31:45.449946 33522 net.cpp:150] Setting up pool2/3x3_s2
I0718 14:31:45.450011 33522 net.cpp:157] Top shape: 4 192 125 125 (12000000)
I0718 14:31:45.450028 33522 net.cpp:165] Memory required for data: 1440000048
I0718 14:31:45.450049 33522 layer_factory.hpp:76] Creating layer pool2/3x3_s2_pool2/3x3_s2_0_split
I0718 14:31:45.450083 33522 net.cpp:106] Creating Layer pool2/3x3_s2_pool2/3x3_s2_0_split
I0718 14:31:45.450103 33522 net.cpp:454] pool2/3x3_s2_pool2/3x3_s2_0_split <- pool2/3x3_s2
I0718 14:31:45.450134 33522 net.cpp:411] pool2/3x3_s2_pool2/3x3_s2_0_split -> pool2/3x3_s2_pool2/3x3_s2_0_split_0
I0718 14:31:45.450161 33522 net.cpp:411] pool2/3x3_s2_pool2/3x3_s2_0_split -> pool2/3x3_s2_pool2/3x3_s2_0_split_1
I0718 14:31:45.450184 33522 net.cpp:411] pool2/3x3_s2_pool2/3x3_s2_0_split -> pool2/3x3_s2_pool2/3x3_s2_0_split_2
I0718 14:31:45.450207 33522 net.cpp:411] pool2/3x3_s2_pool2/3x3_s2_0_split -> pool2/3x3_s2_pool2/3x3_s2_0_split_3
I0718 14:31:45.450335 33522 net.cpp:150] Setting up pool2/3x3_s2_pool2/3x3_s2_0_split
I0718 14:31:45.450363 33522 net.cpp:157] Top shape: 4 192 125 125 (12000000)
I0718 14:31:45.450382 33522 net.cpp:157] Top shape: 4 192 125 125 (12000000)
I0718 14:31:45.450400 33522 net.cpp:157] Top shape: 4 192 125 125 (12000000)
I0718 14:31:45.450417 33522 net.cpp:157] Top shape: 4 192 125 125 (12000000)
I0718 14:31:45.450431 33522 net.cpp:165] Memory required for data: 1632000048
I0718 14:31:45.450446 33522 layer_factory.hpp:76] Creating layer inception_3a/1x1
I0718 14:31:45.450484 33522 net.cpp:106] Creating Layer inception_3a/1x1
I0718 14:31:45.450505 33522 net.cpp:454] inception_3a/1x1 <- pool2/3x3_s2_pool2/3x3_s2_0_split_0
I0718 14:31:45.450533 33522 net.cpp:411] inception_3a/1x1 -> inception_3a/1x1
I0718 14:31:45.458711 33522 net.cpp:150] Setting up inception_3a/1x1
I0718 14:31:45.458786 33522 net.cpp:157] Top shape: 4 64 125 125 (4000000)
I0718 14:31:45.458806 33522 net.cpp:165] Memory required for data: 1648000048
I0718 14:31:45.458832 33522 layer_factory.hpp:76] Creating layer inception_3a/relu_1x1
I0718 14:31:45.458858 33522 net.cpp:106] Creating Layer inception_3a/relu_1x1
I0718 14:31:45.458874 33522 net.cpp:454] inception_3a/relu_1x1 <- inception_3a/1x1
I0718 14:31:45.458896 33522 net.cpp:397] inception_3a/relu_1x1 -> inception_3a/1x1 (in-place)
I0718 14:31:45.459987 33522 net.cpp:150] Setting up inception_3a/relu_1x1
I0718 14:31:45.460017 33522 net.cpp:157] Top shape: 4 64 125 125 (4000000)
I0718 14:31:45.460031 33522 net.cpp:165] Memory required for data: 1664000048
I0718 14:31:45.460045 33522 layer_factory.hpp:76] Creating layer inception_3a/3x3_reduce
I0718 14:31:45.460073 33522 net.cpp:106] Creating Layer inception_3a/3x3_reduce
I0718 14:31:45.460088 33522 net.cpp:454] inception_3a/3x3_reduce <- pool2/3x3_s2_pool2/3x3_s2_0_split_1
I0718 14:31:45.460108 33522 net.cpp:411] inception_3a/3x3_reduce -> inception_3a/3x3_reduce
I0718 14:31:45.469262 33522 cudnn_conv_layer.cpp:194] Reallocating workspace storage: 2304
I0718 14:31:45.469750 33522 net.cpp:150] Setting up inception_3a/3x3_reduce
I0718 14:31:45.469790 33522 net.cpp:157] Top shape: 4 96 125 125 (6000000)
I0718 14:31:45.469806 33522 net.cpp:165] Memory required for data: 1688000048
I0718 14:31:45.469843 33522 layer_factory.hpp:76] Creating layer inception_3a/relu_3x3_reduce
I0718 14:31:45.469884 33522 net.cpp:106] Creating Layer inception_3a/relu_3x3_reduce
I0718 14:31:45.469907 33522 net.cpp:454] inception_3a/relu_3x3_reduce <- inception_3a/3x3_reduce
I0718 14:31:45.469930 33522 net.cpp:397] inception_3a/relu_3x3_reduce -> inception_3a/3x3_reduce (in-place)
I0718 14:31:45.470798 33522 net.cpp:150] Setting up inception_3a/relu_3x3_reduce
I0718 14:31:45.470827 33522 net.cpp:157] Top shape: 4 96 125 125 (6000000)
I0718 14:31:45.470877 33522 net.cpp:165] Memory required for data: 1712000048
I0718 14:31:45.470893 33522 layer_factory.hpp:76] Creating layer inception_3a/3x3
I0718 14:31:45.470922 33522 net.cpp:106] Creating Layer inception_3a/3x3
I0718 14:31:45.470938 33522 net.cpp:454] inception_3a/3x3 <- inception_3a/3x3_reduce
I0718 14:31:45.470959 33522 net.cpp:411] inception_3a/3x3 -> inception_3a/3x3
I0718 14:31:45.477658 33522 cudnn_conv_layer.cpp:194] Reallocating workspace storage: 10368
I0718 14:31:45.477758 33522 net.cpp:150] Setting up inception_3a/3x3
I0718 14:31:45.477785 33522 net.cpp:157] Top shape: 4 128 125 125 (8000000)
I0718 14:31:45.477802 33522 net.cpp:165] Memory required for data: 1744000048
I0718 14:31:45.477828 33522 layer_factory.hpp:76] Creating layer inception_3a/relu_3x3
I0718 14:31:45.477855 33522 net.cpp:106] Creating Layer inception_3a/relu_3x3
I0718 14:31:45.477871 33522 net.cpp:454] inception_3a/relu_3x3 <- inception_3a/3x3
I0718 14:31:45.477892 33522 net.cpp:397] inception_3a/relu_3x3 -> inception_3a/3x3 (in-place)
I0718 14:31:45.479828 33522 net.cpp:150] Setting up inception_3a/relu_3x3
I0718 14:31:45.479858 33522 net.cpp:157] Top shape: 4 128 125 125 (8000000)
I0718 14:31:45.479871 33522 net.cpp:165] Memory required for data: 1776000048
I0718 14:31:45.479885 33522 layer_factory.hpp:76] Creating layer inception_3a/5x5_reduce
I0718 14:31:45.479912 33522 net.cpp:106] Creating Layer inception_3a/5x5_reduce
I0718 14:31:45.479928 33522 net.cpp:454] inception_3a/5x5_reduce <- pool2/3x3_s2_pool2/3x3_s2_0_split_2
I0718 14:31:45.479948 33522 net.cpp:411] inception_3a/5x5_reduce -> inception_3a/5x5_reduce
I0718 14:31:45.486515 33522 net.cpp:150] Setting up inception_3a/5x5_reduce
I0718 14:31:45.486589 33522 net.cpp:157] Top shape: 4 16 125 125 (1000000)
I0718 14:31:45.486606 33522 net.cpp:165] Memory required for data: 1780000048
I0718 14:31:45.486639 33522 layer_factory.hpp:76] Creating layer inception_3a/relu_5x5_reduce
I0718 14:31:45.486686 33522 net.cpp:106] Creating Layer inception_3a/relu_5x5_reduce
I0718 14:31:45.486704 33522 net.cpp:454] inception_3a/relu_5x5_reduce <- inception_3a/5x5_reduce
I0718 14:31:45.486728 33522 net.cpp:397] inception_3a/relu_5x5_reduce -> inception_3a/5x5_reduce (in-place)
I0718 14:31:45.488361 33522 net.cpp:150] Setting up inception_3a/relu_5x5_reduce
I0718 14:31:45.488406 33522 net.cpp:157] Top shape: 4 16 125 125 (1000000)
I0718 14:31:45.488420 33522 net.cpp:165] Memory required for data: 1784000048
I0718 14:31:45.488435 33522 layer_factory.hpp:76] Creating layer inception_3a/5x5
I0718 14:31:45.488459 33522 net.cpp:106] Creating Layer inception_3a/5x5
I0718 14:31:45.488472 33522 net.cpp:454] inception_3a/5x5 <- inception_3a/5x5_reduce
I0718 14:31:45.488495 33522 net.cpp:411] inception_3a/5x5 -> inception_3a/5x5
I0718 14:31:45.496703 33522 net.cpp:150] Setting up inception_3a/5x5
I0718 14:31:45.496804 33522 net.cpp:157] Top shape: 4 32 125 125 (2000000)
I0718 14:31:45.496821 33522 net.cpp:165] Memory required for data: 1792000048
I0718 14:31:45.496851 33522 layer_factory.hpp:76] Creating layer inception_3a/relu_5x5
I0718 14:31:45.496886 33522 net.cpp:106] Creating Layer inception_3a/relu_5x5
I0718 14:31:45.496904 33522 net.cpp:454] inception_3a/relu_5x5 <- inception_3a/5x5
I0718 14:31:45.496925 33522 net.cpp:397] inception_3a/relu_5x5 -> inception_3a/5x5 (in-place)
I0718 14:31:45.500386 33522 net.cpp:150] Setting up inception_3a/relu_5x5
I0718 14:31:45.500466 33522 net.cpp:157] Top shape: 4 32 125 125 (2000000)
I0718 14:31:45.500488 33522 net.cpp:165] Memory required for data: 1800000048
I0718 14:31:45.500509 33522 layer_factory.hpp:76] Creating layer inception_3a/pool
I0718 14:31:45.500545 33522 net.cpp:106] Creating Layer inception_3a/pool
I0718 14:31:45.500571 33522 net.cpp:454] inception_3a/pool <- pool2/3x3_s2_pool2/3x3_s2_0_split_3
I0718 14:31:45.500597 33522 net.cpp:411] inception_3a/pool -> inception_3a/pool
I0718 14:31:45.503227 33522 net.cpp:150] Setting up inception_3a/pool
I0718 14:31:45.503283 33522 net.cpp:157] Top shape: 4 192 125 125 (12000000)
I0718 14:31:45.503334 33522 net.cpp:165] Memory required for data: 1848000048
I0718 14:31:45.503357 33522 layer_factory.hpp:76] Creating layer inception_3a/pool_proj
I0718 14:31:45.503391 33522 net.cpp:106] Creating Layer inception_3a/pool_proj
I0718 14:31:45.503407 33522 net.cpp:454] inception_3a/pool_proj <- inception_3a/pool
I0718 14:31:45.503432 33522 net.cpp:411] inception_3a/pool_proj -> inception_3a/pool_proj
I0718 14:31:45.509474 33522 net.cpp:150] Setting up inception_3a/pool_proj
I0718 14:31:45.509619 33522 net.cpp:157] Top shape: 4 32 125 125 (2000000)
I0718 14:31:45.509644 33522 net.cpp:165] Memory required for data: 1856000048
I0718 14:31:45.509693 33522 layer_factory.hpp:76] Creating layer inception_3a/relu_pool_proj
I0718 14:31:45.509730 33522 net.cpp:106] Creating Layer inception_3a/relu_pool_proj
I0718 14:31:45.509752 33522 net.cpp:454] inception_3a/relu_pool_proj <- inception_3a/pool_proj
I0718 14:31:45.509774 33522 net.cpp:397] inception_3a/relu_pool_proj -> inception_3a/pool_proj (in-place)
I0718 14:31:45.510437 33522 net.cpp:150] Setting up inception_3a/relu_pool_proj
I0718 14:31:45.510493 33522 net.cpp:157] Top shape: 4 32 125 125 (2000000)
I0718 14:31:45.510509 33522 net.cpp:165] Memory required for data: 1864000048
I0718 14:31:45.510529 33522 layer_factory.hpp:76] Creating layer inception_3a/output
I0718 14:31:45.510561 33522 net.cpp:106] Creating Layer inception_3a/output
I0718 14:31:45.510576 33522 net.cpp:454] inception_3a/output <- inception_3a/1x1
I0718 14:31:45.510592 33522 net.cpp:454] inception_3a/output <- inception_3a/3x3
I0718 14:31:45.510607 33522 net.cpp:454] inception_3a/output <- inception_3a/5x5
I0718 14:31:45.510619 33522 net.cpp:454] inception_3a/output <- inception_3a/pool_proj
I0718 14:31:45.510643 33522 net.cpp:411] inception_3a/output -> inception_3a/output
I0718 14:31:45.510712 33522 net.cpp:150] Setting up inception_3a/output
I0718 14:31:45.510732 33522 net.cpp:157] Top shape: 4 256 125 125 (16000000)
I0718 14:31:45.510746 33522 net.cpp:165] Memory required for data: 1928000048
I0718 14:31:45.510759 33522 layer_factory.hpp:76] Creating layer inception_3a/output_inception_3a/output_0_split
I0718 14:31:45.510782 33522 net.cpp:106] Creating Layer inception_3a/output_inception_3a/output_0_split
I0718 14:31:45.510797 33522 net.cpp:454] inception_3a/output_inception_3a/output_0_split <- inception_3a/output
I0718 14:31:45.510818 33522 net.cpp:411] inception_3a/output_inception_3a/output_0_split -> inception_3a/output_inception_3a/output_0_split_0
I0718 14:31:45.510836 33522 net.cpp:411] inception_3a/output_inception_3a/output_0_split -> inception_3a/output_inception_3a/output_0_split_1
I0718 14:31:45.510854 33522 net.cpp:411] inception_3a/output_inception_3a/output_0_split -> inception_3a/output_inception_3a/output_0_split_2
I0718 14:31:45.510872 33522 net.cpp:411] inception_3a/output_inception_3a/output_0_split -> inception_3a/output_inception_3a/output_0_split_3
I0718 14:31:45.510975 33522 net.cpp:150] Setting up inception_3a/output_inception_3a/output_0_split
I0718 14:31:45.510995 33522 net.cpp:157] Top shape: 4 256 125 125 (16000000)
I0718 14:31:45.511010 33522 net.cpp:157] Top shape: 4 256 125 125 (16000000)
I0718 14:31:45.511024 33522 net.cpp:157] Top shape: 4 256 125 125 (16000000)
I0718 14:31:45.511040 33522 net.cpp:157] Top shape: 4 256 125 125 (16000000)
I0718 14:31:45.511052 33522 net.cpp:165] Memory required for data: 2184000048
I0718 14:31:45.511067 33522 layer_factory.hpp:76] Creating layer inception_3b/1x1
I0718 14:31:45.511098 33522 net.cpp:106] Creating Layer inception_3b/1x1
I0718 14:31:45.511113 33522 net.cpp:454] inception_3b/1x1 <- inception_3a/output_inception_3a/output_0_split_0
I0718 14:31:45.511134 33522 net.cpp:411] inception_3b/1x1 -> inception_3b/1x1
I0718 14:31:45.517915 33522 cudnn_conv_layer.cpp:194] Reallocating workspace storage: 3072
I0718 14:31:45.518028 33522 net.cpp:150] Setting up inception_3b/1x1
I0718 14:31:45.518059 33522 net.cpp:157] Top shape: 4 128 125 125 (8000000)
I0718 14:31:45.518076 33522 net.cpp:165] Memory required for data: 2216000048
I0718 14:31:45.518147 33522 layer_factory.hpp:76] Creating layer inception_3b/relu_1x1
I0718 14:31:45.518193 33522 net.cpp:106] Creating Layer inception_3b/relu_1x1
I0718 14:31:45.518211 33522 net.cpp:454] inception_3b/relu_1x1 <- inception_3b/1x1
I0718 14:31:45.518236 33522 net.cpp:397] inception_3b/relu_1x1 -> inception_3b/1x1 (in-place)
I0718 14:31:45.518939 33522 net.cpp:150] Setting up inception_3b/relu_1x1
I0718 14:31:45.518966 33522 net.cpp:157] Top shape: 4 128 125 125 (8000000)
I0718 14:31:45.518980 33522 net.cpp:165] Memory required for data: 2248000048
I0718 14:31:45.518993 33522 layer_factory.hpp:76] Creating layer inception_3b/3x3_reduce
I0718 14:31:45.519021 33522 net.cpp:106] Creating Layer inception_3b/3x3_reduce
I0718 14:31:45.519035 33522 net.cpp:454] inception_3b/3x3_reduce <- inception_3a/output_inception_3a/output_0_split_1
I0718 14:31:45.519057 33522 net.cpp:411] inception_3b/3x3_reduce -> inception_3b/3x3_reduce
I0718 14:31:45.525252 33522 cudnn_conv_layer.cpp:194] Reallocating workspace storage: 3072
I0718 14:31:45.525393 33522 net.cpp:150] Setting up inception_3b/3x3_reduce
I0718 14:31:45.525432 33522 net.cpp:157] Top shape: 4 128 125 125 (8000000)
I0718 14:31:45.525452 33522 net.cpp:165] Memory required for data: 2280000048
I0718 14:31:45.525486 33522 layer_factory.hpp:76] Creating layer inception_3b/relu_3x3_reduce
I0718 14:31:45.525528 33522 net.cpp:106] Creating Layer inception_3b/relu_3x3_reduce
I0718 14:31:45.525557 33522 net.cpp:454] inception_3b/relu_3x3_reduce <- inception_3b/3x3_reduce
I0718 14:31:45.525588 33522 net.cpp:397] inception_3b/relu_3x3_reduce -> inception_3b/3x3_reduce (in-place)
I0718 14:31:45.527724 33522 net.cpp:150] Setting up inception_3b/relu_3x3_reduce
I0718 14:31:45.527822 33522 net.cpp:157] Top shape: 4 128 125 125 (8000000)
I0718 14:31:45.527842 33522 net.cpp:165] Memory required for data: 2312000048
I0718 14:31:45.527864 33522 layer_factory.hpp:76] Creating layer inception_3b/3x3
I0718 14:31:45.527928 33522 net.cpp:106] Creating Layer inception_3b/3x3
I0718 14:31:45.527951 33522 net.cpp:454] inception_3b/3x3 <- inception_3b/3x3_reduce
I0718 14:31:45.527986 33522 net.cpp:411] inception_3b/3x3 -> inception_3b/3x3
I0718 14:31:45.536644 33522 cudnn_conv_layer.cpp:194] Reallocating workspace storage: 13824
I0718 14:31:45.536737 33522 net.cpp:150] Setting up inception_3b/3x3
I0718 14:31:45.536766 33522 net.cpp:157] Top shape: 4 192 125 125 (12000000)
I0718 14:31:45.536778 33522 net.cpp:165] Memory required for data: 2360000048
I0718 14:31:45.536803 33522 layer_factory.hpp:76] Creating layer inception_3b/relu_3x3
I0718 14:31:45.536834 33522 net.cpp:106] Creating Layer inception_3b/relu_3x3
I0718 14:31:45.536850 33522 net.cpp:454] inception_3b/relu_3x3 <- inception_3b/3x3
I0718 14:31:45.536871 33522 net.cpp:397] inception_3b/relu_3x3 -> inception_3b/3x3 (in-place)
I0718 14:31:45.538741 33522 net.cpp:150] Setting up inception_3b/relu_3x3
I0718 14:31:45.538771 33522 net.cpp:157] Top shape: 4 192 125 125 (12000000)
I0718 14:31:45.538785 33522 net.cpp:165] Memory required for data: 2408000048
I0718 14:31:45.538799 33522 layer_factory.hpp:76] Creating layer inception_3b/5x5_reduce
I0718 14:31:45.538825 33522 net.cpp:106] Creating Layer inception_3b/5x5_reduce
I0718 14:31:45.538837 33522 net.cpp:454] inception_3b/5x5_reduce <- inception_3a/output_inception_3a/output_0_split_2
I0718 14:31:45.538856 33522 net.cpp:411] inception_3b/5x5_reduce -> inception_3b/5x5_reduce
I0718 14:31:45.545573 33522 cudnn_conv_layer.cpp:194] Reallocating workspace storage: 3072
I0718 14:31:45.545717 33522 net.cpp:150] Setting up inception_3b/5x5_reduce
I0718 14:31:45.545773 33522 net.cpp:157] Top shape: 4 32 125 125 (2000000)
I0718 14:31:45.545792 33522 net.cpp:165] Memory required for data: 2416000048
I0718 14:31:45.545830 33522 layer_factory.hpp:76] Creating layer inception_3b/relu_5x5_reduce
I0718 14:31:45.545874 33522 net.cpp:106] Creating Layer inception_3b/relu_5x5_reduce
I0718 14:31:45.545900 33522 net.cpp:454] inception_3b/relu_5x5_reduce <- inception_3b/5x5_reduce
I0718 14:31:45.545977 33522 net.cpp:397] inception_3b/relu_5x5_reduce -> inception_3b/5x5_reduce (in-place)
I0718 14:31:45.547680 33522 net.cpp:150] Setting up inception_3b/relu_5x5_reduce
I0718 14:31:45.547744 33522 net.cpp:157] Top shape: 4 32 125 125 (2000000)
I0718 14:31:45.547765 33522 net.cpp:165] Memory required for data: 2424000048
I0718 14:31:45.547791 33522 layer_factory.hpp:76] Creating layer inception_3b/5x5
I0718 14:31:45.547837 33522 net.cpp:106] Creating Layer inception_3b/5x5
I0718 14:31:45.547857 33522 net.cpp:454] inception_3b/5x5 <- inception_3b/5x5_reduce
I0718 14:31:45.547883 33522 net.cpp:411] inception_3b/5x5 -> inception_3b/5x5
I0718 14:31:45.555156 33522 net.cpp:150] Setting up inception_3b/5x5
I0718 14:31:45.555233 33522 net.cpp:157] Top shape: 4 96 125 125 (6000000)
I0718 14:31:45.555254 33522 net.cpp:165] Memory required for data: 2448000048
I0718 14:31:45.555279 33522 layer_factory.hpp:76] Creating layer inception_3b/relu_5x5
I0718 14:31:45.555306 33522 net.cpp:106] Creating Layer inception_3b/relu_5x5
I0718 14:31:45.555325 33522 net.cpp:454] inception_3b/relu_5x5 <- inception_3b/5x5
I0718 14:31:45.555343 33522 net.cpp:397] inception_3b/relu_5x5 -> inception_3b/5x5 (in-place)
I0718 14:31:45.556391 33522 net.cpp:150] Setting up inception_3b/relu_5x5
I0718 14:31:45.556418 33522 net.cpp:157] Top shape: 4 96 125 125 (6000000)
I0718 14:31:45.556432 33522 net.cpp:165] Memory required for data: 2472000048
I0718 14:31:45.556450 33522 layer_factory.hpp:76] Creating layer inception_3b/pool
I0718 14:31:45.556471 33522 net.cpp:106] Creating Layer inception_3b/pool
I0718 14:31:45.556486 33522 net.cpp:454] inception_3b/pool <- inception_3a/output_inception_3a/output_0_split_3
I0718 14:31:45.556504 33522 net.cpp:411] inception_3b/pool -> inception_3b/pool
I0718 14:31:45.558182 33522 net.cpp:150] Setting up inception_3b/pool
I0718 14:31:45.558223 33522 net.cpp:157] Top shape: 4 256 125 125 (16000000)
I0718 14:31:45.558238 33522 net.cpp:165] Memory required for data: 2536000048
I0718 14:31:45.558251 33522 layer_factory.hpp:76] Creating layer inception_3b/pool_proj
I0718 14:31:45.558279 33522 net.cpp:106] Creating Layer inception_3b/pool_proj
I0718 14:31:45.558292 33522 net.cpp:454] inception_3b/pool_proj <- inception_3b/pool
I0718 14:31:45.558313 33522 net.cpp:411] inception_3b/pool_proj -> inception_3b/pool_proj
I0718 14:31:45.566432 33522 cudnn_conv_layer.cpp:194] Reallocating workspace storage: 3072
I0718 14:31:45.566545 33522 net.cpp:150] Setting up inception_3b/pool_proj
I0718 14:31:45.566581 33522 net.cpp:157] Top shape: 4 64 125 125 (4000000)
I0718 14:31:45.566601 33522 net.cpp:165] Memory required for data: 2552000048
I0718 14:31:45.566638 33522 layer_factory.hpp:76] Creating layer inception_3b/relu_pool_proj
I0718 14:31:45.566684 33522 net.cpp:106] Creating Layer inception_3b/relu_pool_proj
I0718 14:31:45.566704 33522 net.cpp:454] inception_3b/relu_pool_proj <- inception_3b/pool_proj
I0718 14:31:45.566727 33522 net.cpp:397] inception_3b/relu_pool_proj -> inception_3b/pool_proj (in-place)
I0718 14:31:45.568825 33522 net.cpp:150] Setting up inception_3b/relu_pool_proj
I0718 14:31:45.568887 33522 net.cpp:157] Top shape: 4 64 125 125 (4000000)
I0718 14:31:45.568904 33522 net.cpp:165] Memory required for data: 2568000048
I0718 14:31:45.568928 33522 layer_factory.hpp:76] Creating layer inception_3b/output
I0718 14:31:45.568953 33522 net.cpp:106] Creating Layer inception_3b/output
I0718 14:31:45.568971 33522 net.cpp:454] inception_3b/output <- inception_3b/1x1
I0718 14:31:45.568992 33522 net.cpp:454] inception_3b/output <- inception_3b/3x3
I0718 14:31:45.569008 33522 net.cpp:454] inception_3b/output <- inception_3b/5x5
I0718 14:31:45.569025 33522 net.cpp:454] inception_3b/output <- inception_3b/pool_proj
I0718 14:31:45.569046 33522 net.cpp:411] inception_3b/output -> inception_3b/output
I0718 14:31:45.569128 33522 net.cpp:150] Setting up inception_3b/output
I0718 14:31:45.569152 33522 net.cpp:157] Top shape: 4 480 125 125 (30000000)
I0718 14:31:45.569166 33522 net.cpp:165] Memory required for data: 2688000048
I0718 14:31:45.569221 33522 layer_factory.hpp:76] Creating layer pool3/3x3_s2
I0718 14:31:45.569249 33522 net.cpp:106] Creating Layer pool3/3x3_s2
I0718 14:31:45.569267 33522 net.cpp:454] pool3/3x3_s2 <- inception_3b/output
I0718 14:31:45.569285 33522 net.cpp:411] pool3/3x3_s2 -> pool3/3x3_s2
I0718 14:31:45.571413 33522 net.cpp:150] Setting up pool3/3x3_s2
I0718 14:31:45.571468 33522 net.cpp:157] Top shape: 4 480 62 62 (7380480)
I0718 14:31:45.571486 33522 net.cpp:165] Memory required for data: 2717521968
I0718 14:31:45.571511 33522 layer_factory.hpp:76] Creating layer pool3/3x3_s2_pool3/3x3_s2_0_split
I0718 14:31:45.571537 33522 net.cpp:106] Creating Layer pool3/3x3_s2_pool3/3x3_s2_0_split
I0718 14:31:45.571553 33522 net.cpp:454] pool3/3x3_s2_pool3/3x3_s2_0_split <- pool3/3x3_s2
I0718 14:31:45.571573 33522 net.cpp:411] pool3/3x3_s2_pool3/3x3_s2_0_split -> pool3/3x3_s2_pool3/3x3_s2_0_split_0
I0718 14:31:45.571599 33522 net.cpp:411] pool3/3x3_s2_pool3/3x3_s2_0_split -> pool3/3x3_s2_pool3/3x3_s2_0_split_1
I0718 14:31:45.571619 33522 net.cpp:411] pool3/3x3_s2_pool3/3x3_s2_0_split -> pool3/3x3_s2_pool3/3x3_s2_0_split_2
I0718 14:31:45.571638 33522 net.cpp:411] pool3/3x3_s2_pool3/3x3_s2_0_split -> pool3/3x3_s2_pool3/3x3_s2_0_split_3
I0718 14:31:45.571758 33522 net.cpp:150] Setting up pool3/3x3_s2_pool3/3x3_s2_0_split
I0718 14:31:45.571784 33522 net.cpp:157] Top shape: 4 480 62 62 (7380480)
I0718 14:31:45.571801 33522 net.cpp:157] Top shape: 4 480 62 62 (7380480)
I0718 14:31:45.571822 33522 net.cpp:157] Top shape: 4 480 62 62 (7380480)
I0718 14:31:45.571836 33522 net.cpp:157] Top shape: 4 480 62 62 (7380480)
I0718 14:31:45.571851 33522 net.cpp:165] Memory required for data: 2835609648
I0718 14:31:45.571864 33522 layer_factory.hpp:76] Creating layer inception_4a/1x1
I0718 14:31:45.571895 33522 net.cpp:106] Creating Layer inception_4a/1x1
I0718 14:31:45.571914 33522 net.cpp:454] inception_4a/1x1 <- pool3/3x3_s2_pool3/3x3_s2_0_split_0
I0718 14:31:45.571938 33522 net.cpp:411] inception_4a/1x1 -> inception_4a/1x1
I0718 14:31:45.579213 33522 cudnn_conv_layer.cpp:194] Reallocating workspace storage: 5760
I0718 14:31:45.579294 33522 net.cpp:150] Setting up inception_4a/1x1
I0718 14:31:45.579322 33522 net.cpp:157] Top shape: 4 192 62 62 (2952192)
I0718 14:31:45.579336 33522 net.cpp:165] Memory required for data: 2847418416
I0718 14:31:45.579361 33522 layer_factory.hpp:76] Creating layer inception_4a/relu_1x1
I0718 14:31:45.579390 33522 net.cpp:106] Creating Layer inception_4a/relu_1x1
I0718 14:31:45.579406 33522 net.cpp:454] inception_4a/relu_1x1 <- inception_4a/1x1
I0718 14:31:45.579430 33522 net.cpp:397] inception_4a/relu_1x1 -> inception_4a/1x1 (in-place)
I0718 14:31:45.581665 33522 net.cpp:150] Setting up inception_4a/relu_1x1
I0718 14:31:45.581728 33522 net.cpp:157] Top shape: 4 192 62 62 (2952192)
I0718 14:31:45.581748 33522 net.cpp:165] Memory required for data: 2859227184
I0718 14:31:45.581769 33522 layer_factory.hpp:76] Creating layer inception_4a/3x3_reduce
I0718 14:31:45.581801 33522 net.cpp:106] Creating Layer inception_4a/3x3_reduce
I0718 14:31:45.581818 33522 net.cpp:454] inception_4a/3x3_reduce <- pool3/3x3_s2_pool3/3x3_s2_0_split_1
I0718 14:31:45.581843 33522 net.cpp:411] inception_4a/3x3_reduce -> inception_4a/3x3_reduce
I0718 14:31:45.589769 33522 cudnn_conv_layer.cpp:194] Reallocating workspace storage: 5760
I0718 14:31:45.589891 33522 net.cpp:150] Setting up inception_4a/3x3_reduce
I0718 14:31:45.589922 33522 net.cpp:157] Top shape: 4 96 62 62 (1476096)
I0718 14:31:45.589937 33522 net.cpp:165] Memory required for data: 2865131568
I0718 14:31:45.589982 33522 layer_factory.hpp:76] Creating layer inception_4a/relu_3x3_reduce
I0718 14:31:45.590019 33522 net.cpp:106] Creating Layer inception_4a/relu_3x3_reduce
I0718 14:31:45.590044 33522 net.cpp:454] inception_4a/relu_3x3_reduce <- inception_4a/3x3_reduce
I0718 14:31:45.590065 33522 net.cpp:397] inception_4a/relu_3x3_reduce -> inception_4a/3x3_reduce (in-place)
I0718 14:31:45.591856 33522 net.cpp:150] Setting up inception_4a/relu_3x3_reduce
I0718 14:31:45.591976 33522 net.cpp:157] Top shape: 4 96 62 62 (1476096)
I0718 14:31:45.591998 33522 net.cpp:165] Memory required for data: 2871035952
I0718 14:31:45.592016 33522 layer_factory.hpp:76] Creating layer inception_4a/3x3
I0718 14:31:45.592063 33522 net.cpp:106] Creating Layer inception_4a/3x3
I0718 14:31:45.592085 33522 net.cpp:454] inception_4a/3x3 <- inception_4a/3x3_reduce
I0718 14:31:45.592115 33522 net.cpp:411] inception_4a/3x3 -> inception_4a/3x3
I0718 14:31:45.601344 33522 net.cpp:150] Setting up inception_4a/3x3
I0718 14:31:45.601444 33522 net.cpp:157] Top shape: 4 208 62 62 (3198208)
I0718 14:31:45.601467 33522 net.cpp:165] Memory required for data: 2883828784
I0718 14:31:45.601500 33522 layer_factory.hpp:76] Creating layer inception_4a/relu_3x3
I0718 14:31:45.601539 33522 net.cpp:106] Creating Layer inception_4a/relu_3x3
I0718 14:31:45.601563 33522 net.cpp:454] inception_4a/relu_3x3 <- inception_4a/3x3
I0718 14:31:45.601598 33522 net.cpp:397] inception_4a/relu_3x3 -> inception_4a/3x3 (in-place)
I0718 14:31:45.603956 33522 net.cpp:150] Setting up inception_4a/relu_3x3
I0718 14:31:45.604025 33522 net.cpp:157] Top shape: 4 208 62 62 (3198208)
I0718 14:31:45.604041 33522 net.cpp:165] Memory required for data: 2896621616
I0718 14:31:45.604061 33522 layer_factory.hpp:76] Creating layer inception_4a/5x5_reduce
I0718 14:31:45.604096 33522 net.cpp:106] Creating Layer inception_4a/5x5_reduce
I0718 14:31:45.604113 33522 net.cpp:454] inception_4a/5x5_reduce <- pool3/3x3_s2_pool3/3x3_s2_0_split_2
I0718 14:31:45.604140 33522 net.cpp:411] inception_4a/5x5_reduce -> inception_4a/5x5_reduce
I0718 14:31:45.607481 33522 net.cpp:150] Setting up inception_4a/5x5_reduce
I0718 14:31:45.607549 33522 net.cpp:157] Top shape: 4 16 62 62 (246016)
I0718 14:31:45.607568 33522 net.cpp:165] Memory required for data: 2897605680
I0718 14:31:45.607594 33522 layer_factory.hpp:76] Creating layer inception_4a/relu_5x5_reduce
I0718 14:31:45.607620 33522 net.cpp:106] Creating Layer inception_4a/relu_5x5_reduce
I0718 14:31:45.607638 33522 net.cpp:454] inception_4a/relu_5x5_reduce <- inception_4a/5x5_reduce
I0718 14:31:45.607661 33522 net.cpp:397] inception_4a/relu_5x5_reduce -> inception_4a/5x5_reduce (in-place)
I0718 14:31:45.609158 33522 net.cpp:150] Setting up inception_4a/relu_5x5_reduce
I0718 14:31:45.609205 33522 net.cpp:157] Top shape: 4 16 62 62 (246016)
I0718 14:31:45.609218 33522 net.cpp:165] Memory required for data: 2898589744
I0718 14:31:45.609233 33522 layer_factory.hpp:76] Creating layer inception_4a/5x5
I0718 14:31:45.609261 33522 net.cpp:106] Creating Layer inception_4a/5x5
I0718 14:31:45.609277 33522 net.cpp:454] inception_4a/5x5 <- inception_4a/5x5_reduce
I0718 14:31:45.609298 33522 net.cpp:411] inception_4a/5x5 -> inception_4a/5x5
I0718 14:31:45.616521 33522 net.cpp:150] Setting up inception_4a/5x5
I0718 14:31:45.616646 33522 net.cpp:157] Top shape: 4 48 62 62 (738048)
I0718 14:31:45.616662 33522 net.cpp:165] Memory required for data: 2901541936
I0718 14:31:45.616696 33522 layer_factory.hpp:76] Creating layer inception_4a/relu_5x5
I0718 14:31:45.616735 33522 net.cpp:106] Creating Layer inception_4a/relu_5x5
I0718 14:31:45.616755 33522 net.cpp:454] inception_4a/relu_5x5 <- inception_4a/5x5
I0718 14:31:45.616782 33522 net.cpp:397] inception_4a/relu_5x5 -> inception_4a/5x5 (in-place)
I0718 14:31:45.618569 33522 net.cpp:150] Setting up inception_4a/relu_5x5
I0718 14:31:45.618662 33522 net.cpp:157] Top shape: 4 48 62 62 (738048)
I0718 14:31:45.618681 33522 net.cpp:165] Memory required for data: 2904494128
I0718 14:31:45.618701 33522 layer_factory.hpp:76] Creating layer inception_4a/pool
I0718 14:31:45.618737 33522 net.cpp:106] Creating Layer inception_4a/pool
I0718 14:31:45.618773 33522 net.cpp:454] inception_4a/pool <- pool3/3x3_s2_pool3/3x3_s2_0_split_3
I0718 14:31:45.618801 33522 net.cpp:411] inception_4a/pool -> inception_4a/pool
I0718 14:31:45.620874 33522 net.cpp:150] Setting up inception_4a/pool
I0718 14:31:45.620951 33522 net.cpp:157] Top shape: 4 480 62 62 (7380480)
I0718 14:31:45.620968 33522 net.cpp:165] Memory required for data: 2934016048
I0718 14:31:45.621031 33522 layer_factory.hpp:76] Creating layer inception_4a/pool_proj
I0718 14:31:45.621081 33522 net.cpp:106] Creating Layer inception_4a/pool_proj
I0718 14:31:45.621109 33522 net.cpp:454] inception_4a/pool_proj <- inception_4a/pool
I0718 14:31:45.621131 33522 net.cpp:411] inception_4a/pool_proj -> inception_4a/pool_proj
I0718 14:31:45.627171 33522 cudnn_conv_layer.cpp:194] Reallocating workspace storage: 5760
I0718 14:31:45.627311 33522 net.cpp:150] Setting up inception_4a/pool_proj
I0718 14:31:45.627358 33522 net.cpp:157] Top shape: 4 64 62 62 (984064)
I0718 14:31:45.627384 33522 net.cpp:165] Memory required for data: 2937952304
I0718 14:31:45.627424 33522 layer_factory.hpp:76] Creating layer inception_4a/relu_pool_proj
I0718 14:31:45.627473 33522 net.cpp:106] Creating Layer inception_4a/relu_pool_proj
I0718 14:31:45.627502 33522 net.cpp:454] inception_4a/relu_pool_proj <- inception_4a/pool_proj
I0718 14:31:45.627537 33522 net.cpp:397] inception_4a/relu_pool_proj -> inception_4a/pool_proj (in-place)
I0718 14:31:45.629273 33522 net.cpp:150] Setting up inception_4a/relu_pool_proj
I0718 14:31:45.629350 33522 net.cpp:157] Top shape: 4 64 62 62 (984064)
I0718 14:31:45.629370 33522 net.cpp:165] Memory required for data: 2941888560
I0718 14:31:45.629391 33522 layer_factory.hpp:76] Creating layer inception_4a/output
I0718 14:31:45.629425 33522 net.cpp:106] Creating Layer inception_4a/output
I0718 14:31:45.629444 33522 net.cpp:454] inception_4a/output <- inception_4a/1x1
I0718 14:31:45.629467 33522 net.cpp:454] inception_4a/output <- inception_4a/3x3
I0718 14:31:45.629484 33522 net.cpp:454] inception_4a/output <- inception_4a/5x5
I0718 14:31:45.629501 33522 net.cpp:454] inception_4a/output <- inception_4a/pool_proj
I0718 14:31:45.629523 33522 net.cpp:411] inception_4a/output -> inception_4a/output
I0718 14:31:45.629640 33522 net.cpp:150] Setting up inception_4a/output
I0718 14:31:45.629668 33522 net.cpp:157] Top shape: 4 512 62 62 (7872512)
I0718 14:31:45.629683 33522 net.cpp:165] Memory required for data: 2973378608
I0718 14:31:45.629709 33522 layer_factory.hpp:76] Creating layer inception_4a/output_inception_4a/output_0_split
I0718 14:31:45.629730 33522 net.cpp:106] Creating Layer inception_4a/output_inception_4a/output_0_split
I0718 14:31:45.629750 33522 net.cpp:454] inception_4a/output_inception_4a/output_0_split <- inception_4a/output
I0718 14:31:45.629770 33522 net.cpp:411] inception_4a/output_inception_4a/output_0_split -> inception_4a/output_inception_4a/output_0_split_0
I0718 14:31:45.629796 33522 net.cpp:411] inception_4a/output_inception_4a/output_0_split -> inception_4a/output_inception_4a/output_0_split_1
I0718 14:31:45.629822 33522 net.cpp:411] inception_4a/output_inception_4a/output_0_split -> inception_4a/output_inception_4a/output_0_split_2
I0718 14:31:45.629842 33522 net.cpp:411] inception_4a/output_inception_4a/output_0_split -> inception_4a/output_inception_4a/output_0_split_3
I0718 14:31:45.629961 33522 net.cpp:150] Setting up inception_4a/output_inception_4a/output_0_split
I0718 14:31:45.629989 33522 net.cpp:157] Top shape: 4 512 62 62 (7872512)
I0718 14:31:45.630009 33522 net.cpp:157] Top shape: 4 512 62 62 (7872512)
I0718 14:31:45.630026 33522 net.cpp:157] Top shape: 4 512 62 62 (7872512)
I0718 14:31:45.630050 33522 net.cpp:157] Top shape: 4 512 62 62 (7872512)
I0718 14:31:45.630065 33522 net.cpp:165] Memory required for data: 3099338800
I0718 14:31:45.630080 33522 layer_factory.hpp:76] Creating layer inception_4b/1x1
I0718 14:31:45.630120 33522 net.cpp:106] Creating Layer inception_4b/1x1
I0718 14:31:45.630142 33522 net.cpp:454] inception_4b/1x1 <- inception_4a/output_inception_4a/output_0_split_0
I0718 14:31:45.630167 33522 net.cpp:411] inception_4b/1x1 -> inception_4b/1x1
I0718 14:31:45.638769 33522 cudnn_conv_layer.cpp:194] Reallocating workspace storage: 6144
I0718 14:31:45.638969 33522 net.cpp:150] Setting up inception_4b/1x1
I0718 14:31:45.639034 33522 net.cpp:157] Top shape: 4 160 62 62 (2460160)
I0718 14:31:45.639060 33522 net.cpp:165] Memory required for data: 3109179440
I0718 14:31:45.639153 33522 layer_factory.hpp:76] Creating layer inception_4b/relu_1x1
I0718 14:31:45.639245 33522 net.cpp:106] Creating Layer inception_4b/relu_1x1
I0718 14:31:45.639291 33522 net.cpp:454] inception_4b/relu_1x1 <- inception_4b/1x1
I0718 14:31:45.639329 33522 net.cpp:397] inception_4b/relu_1x1 -> inception_4b/1x1 (in-place)
I0718 14:31:45.640156 33522 net.cpp:150] Setting up inception_4b/relu_1x1
I0718 14:31:45.640198 33522 net.cpp:157] Top shape: 4 160 62 62 (2460160)
I0718 14:31:45.640221 33522 net.cpp:165] Memory required for data: 3119020080
I0718 14:31:45.640239 33522 layer_factory.hpp:76] Creating layer inception_4b/3x3_reduce
I0718 14:31:45.640280 33522 net.cpp:106] Creating Layer inception_4b/3x3_reduce
I0718 14:31:45.640305 33522 net.cpp:454] inception_4b/3x3_reduce <- inception_4a/output_inception_4a/output_0_split_1
I0718 14:31:45.640329 33522 net.cpp:411] inception_4b/3x3_reduce -> inception_4b/3x3_reduce
I0718 14:31:45.648794 33522 cudnn_conv_layer.cpp:194] Reallocating workspace storage: 6144
I0718 14:31:45.648897 33522 net.cpp:150] Setting up inception_4b/3x3_reduce
I0718 14:31:45.648929 33522 net.cpp:157] Top shape: 4 112 62 62 (1722112)
I0718 14:31:45.648942 33522 net.cpp:165] Memory required for data: 3125908528
I0718 14:31:45.648979 33522 layer_factory.hpp:76] Creating layer inception_4b/relu_3x3_reduce
I0718 14:31:45.649011 33522 net.cpp:106] Creating Layer inception_4b/relu_3x3_reduce
I0718 14:31:45.649031 33522 net.cpp:454] inception_4b/relu_3x3_reduce <- inception_4b/3x3_reduce
I0718 14:31:45.649057 33522 net.cpp:397] inception_4b/relu_3x3_reduce -> inception_4b/3x3_reduce (in-place)
I0718 14:31:45.651190 33522 net.cpp:150] Setting up inception_4b/relu_3x3_reduce
I0718 14:31:45.651243 33522 net.cpp:157] Top shape: 4 112 62 62 (1722112)
I0718 14:31:45.651258 33522 net.cpp:165] Memory required for data: 3132796976
I0718 14:31:45.651276 33522 layer_factory.hpp:76] Creating layer inception_4b/3x3
I0718 14:31:45.651312 33522 net.cpp:106] Creating Layer inception_4b/3x3
I0718 14:31:45.651329 33522 net.cpp:454] inception_4b/3x3 <- inception_4b/3x3_reduce
I0718 14:31:45.651363 33522 net.cpp:411] inception_4b/3x3 -> inception_4b/3x3
I0718 14:31:45.661409 33522 cudnn_conv_layer.cpp:194] Reallocating workspace storage: 12096
I0718 14:31:45.661556 33522 net.cpp:150] Setting up inception_4b/3x3
I0718 14:31:45.661592 33522 net.cpp:157] Top shape: 4 224 62 62 (3444224)
I0718 14:31:45.661607 33522 net.cpp:165] Memory required for data: 3146573872
I0718 14:31:45.661634 33522 layer_factory.hpp:76] Creating layer inception_4b/relu_3x3
I0718 14:31:45.661741 33522 net.cpp:106] Creating Layer inception_4b/relu_3x3
I0718 14:31:45.661768 33522 net.cpp:454] inception_4b/relu_3x3 <- inception_4b/3x3
I0718 14:31:45.661792 33522 net.cpp:397] inception_4b/relu_3x3 -> inception_4b/3x3 (in-place)
I0718 14:31:45.663724 33522 net.cpp:150] Setting up inception_4b/relu_3x3
I0718 14:31:45.663816 33522 net.cpp:157] Top shape: 4 224 62 62 (3444224)
I0718 14:31:45.663833 33522 net.cpp:165] Memory required for data: 3160350768
I0718 14:31:45.663856 33522 layer_factory.hpp:76] Creating layer inception_4b/5x5_reduce
I0718 14:31:45.663895 33522 net.cpp:106] Creating Layer inception_4b/5x5_reduce
I0718 14:31:45.663914 33522 net.cpp:454] inception_4b/5x5_reduce <- inception_4a/output_inception_4a/output_0_split_2
I0718 14:31:45.663940 33522 net.cpp:411] inception_4b/5x5_reduce -> inception_4b/5x5_reduce
I0718 14:31:45.671742 33522 cudnn_conv_layer.cpp:194] Reallocating workspace storage: 6144
I0718 14:31:45.671939 33522 net.cpp:150] Setting up inception_4b/5x5_reduce
I0718 14:31:45.671990 33522 net.cpp:157] Top shape: 4 24 62 62 (369024)
I0718 14:31:45.672021 33522 net.cpp:165] Memory required for data: 3161826864
I0718 14:31:45.672065 33522 layer_factory.hpp:76] Creating layer inception_4b/relu_5x5_reduce
I0718 14:31:45.672116 33522 net.cpp:106] Creating Layer inception_4b/relu_5x5_reduce
I0718 14:31:45.672149 33522 net.cpp:454] inception_4b/relu_5x5_reduce <- inception_4b/5x5_reduce
I0718 14:31:45.672180 33522 net.cpp:397] inception_4b/relu_5x5_reduce -> inception_4b/5x5_reduce (in-place)
I0718 14:31:45.674129 33522 net.cpp:150] Setting up inception_4b/relu_5x5_reduce
I0718 14:31:45.674351 33522 net.cpp:157] Top shape: 4 24 62 62 (369024)
I0718 14:31:45.674451 33522 net.cpp:165] Memory required for data: 3163302960
I0718 14:31:45.674549 33522 layer_factory.hpp:76] Creating layer inception_4b/5x5
I0718 14:31:45.674711 33522 net.cpp:106] Creating Layer inception_4b/5x5
I0718 14:31:45.674826 33522 net.cpp:454] inception_4b/5x5 <- inception_4b/5x5_reduce
I0718 14:31:45.674953 33522 net.cpp:411] inception_4b/5x5 -> inception_4b/5x5
I0718 14:31:45.685127 33522 net.cpp:150] Setting up inception_4b/5x5
I0718 14:31:45.685339 33522 net.cpp:157] Top shape: 4 64 62 62 (984064)
I0718 14:31:45.685441 33522 net.cpp:165] Memory required for data: 3167239216
I0718 14:31:45.685566 33522 layer_factory.hpp:76] Creating layer inception_4b/relu_5x5
I0718 14:31:45.685751 33522 net.cpp:106] Creating Layer inception_4b/relu_5x5
I0718 14:31:45.685839 33522 net.cpp:454] inception_4b/relu_5x5 <- inception_4b/5x5
I0718 14:31:45.685945 33522 net.cpp:397] inception_4b/relu_5x5 -> inception_4b/5x5 (in-place)
I0718 14:31:45.687937 33522 net.cpp:150] Setting up inception_4b/relu_5x5
I0718 14:31:45.688123 33522 net.cpp:157] Top shape: 4 64 62 62 (984064)
I0718 14:31:45.688180 33522 net.cpp:165] Memory required for data: 3171175472
I0718 14:31:45.688251 33522 layer_factory.hpp:76] Creating layer inception_4b/pool
I0718 14:31:45.688372 33522 net.cpp:106] Creating Layer inception_4b/pool
I0718 14:31:45.688464 33522 net.cpp:454] inception_4b/pool <- inception_4a/output_inception_4a/output_0_split_3
I0718 14:31:45.688565 33522 net.cpp:411] inception_4b/pool -> inception_4b/pool
I0718 14:31:45.691056 33522 net.cpp:150] Setting up inception_4b/pool
I0718 14:31:45.691268 33522 net.cpp:157] Top shape: 4 512 62 62 (7872512)
I0718 14:31:45.691366 33522 net.cpp:165] Memory required for data: 3202665520
I0718 14:31:45.691476 33522 layer_factory.hpp:76] Creating layer inception_4b/pool_proj
I0718 14:31:45.691606 33522 net.cpp:106] Creating Layer inception_4b/pool_proj
I0718 14:31:45.691702 33522 net.cpp:454] inception_4b/pool_proj <- inception_4b/pool
I0718 14:31:45.691840 33522 net.cpp:411] inception_4b/pool_proj -> inception_4b/pool_proj
I0718 14:31:45.700387 33522 net.cpp:150] Setting up inception_4b/pool_proj
I0718 14:31:45.700594 33522 net.cpp:157] Top shape: 4 64 62 62 (984064)
I0718 14:31:45.700695 33522 net.cpp:165] Memory required for data: 3206601776
I0718 14:31:45.700812 33522 layer_factory.hpp:76] Creating layer inception_4b/relu_pool_proj
I0718 14:31:45.700916 33522 net.cpp:106] Creating Layer inception_4b/relu_pool_proj
I0718 14:31:45.700999 33522 net.cpp:454] inception_4b/relu_pool_proj <- inception_4b/pool_proj
I0718 14:31:45.701097 33522 net.cpp:397] inception_4b/relu_pool_proj -> inception_4b/pool_proj (in-place)
I0718 14:31:45.703102 33522 net.cpp:150] Setting up inception_4b/relu_pool_proj
I0718 14:31:45.703302 33522 net.cpp:157] Top shape: 4 64 62 62 (984064)
I0718 14:31:45.703385 33522 net.cpp:165] Memory required for data: 3210538032
I0718 14:31:45.703469 33522 layer_factory.hpp:76] Creating layer inception_4b/output
I0718 14:31:45.703565 33522 net.cpp:106] Creating Layer inception_4b/output
I0718 14:31:45.703654 33522 net.cpp:454] inception_4b/output <- inception_4b/1x1
I0718 14:31:45.703740 33522 net.cpp:454] inception_4b/output <- inception_4b/3x3
I0718 14:31:45.703819 33522 net.cpp:454] inception_4b/output <- inception_4b/5x5
I0718 14:31:45.703898 33522 net.cpp:454] inception_4b/output <- inception_4b/pool_proj
I0718 14:31:45.703994 33522 net.cpp:411] inception_4b/output -> inception_4b/output
I0718 14:31:45.704365 33522 net.cpp:150] Setting up inception_4b/output
I0718 14:31:45.704476 33522 net.cpp:157] Top shape: 4 512 62 62 (7872512)
I0718 14:31:45.704548 33522 net.cpp:165] Memory required for data: 3242028080
I0718 14:31:45.704627 33522 layer_factory.hpp:76] Creating layer inception_4b/output_inception_4b/output_0_split
I0718 14:31:45.704731 33522 net.cpp:106] Creating Layer inception_4b/output_inception_4b/output_0_split
I0718 14:31:45.704900 33522 net.cpp:454] inception_4b/output_inception_4b/output_0_split <- inception_4b/output
I0718 14:31:45.705016 33522 net.cpp:411] inception_4b/output_inception_4b/output_0_split -> inception_4b/output_inception_4b/output_0_split_0
I0718 14:31:45.705127 33522 net.cpp:411] inception_4b/output_inception_4b/output_0_split -> inception_4b/output_inception_4b/output_0_split_1
I0718 14:31:45.705220 33522 net.cpp:411] inception_4b/output_inception_4b/output_0_split -> inception_4b/output_inception_4b/output_0_split_2
I0718 14:31:45.705308 33522 net.cpp:411] inception_4b/output_inception_4b/output_0_split -> inception_4b/output_inception_4b/output_0_split_3
I0718 14:31:45.705921 33522 net.cpp:150] Setting up inception_4b/output_inception_4b/output_0_split
I0718 14:31:45.706034 33522 net.cpp:157] Top shape: 4 512 62 62 (7872512)
I0718 14:31:45.706117 33522 net.cpp:157] Top shape: 4 512 62 62 (7872512)
I0718 14:31:45.706183 33522 net.cpp:157] Top shape: 4 512 62 62 (7872512)
I0718 14:31:45.706253 33522 net.cpp:157] Top shape: 4 512 62 62 (7872512)
I0718 14:31:45.706317 33522 net.cpp:165] Memory required for data: 3367988272
I0718 14:31:45.706384 33522 layer_factory.hpp:76] Creating layer inception_4c/1x1
I0718 14:31:45.706491 33522 net.cpp:106] Creating Layer inception_4c/1x1
I0718 14:31:45.706575 33522 net.cpp:454] inception_4c/1x1 <- inception_4b/output_inception_4b/output_0_split_0
I0718 14:31:45.706686 33522 net.cpp:411] inception_4c/1x1 -> inception_4c/1x1
I0718 14:31:45.714928 33522 cudnn_conv_layer.cpp:194] Reallocating workspace storage: 6144
I0718 14:31:45.715032 33522 net.cpp:150] Setting up inception_4c/1x1
I0718 14:31:45.715071 33522 net.cpp:157] Top shape: 4 128 62 62 (1968128)
I0718 14:31:45.715095 33522 net.cpp:165] Memory required for data: 3375860784
I0718 14:31:45.715127 33522 layer_factory.hpp:76] Creating layer inception_4c/relu_1x1
I0718 14:31:45.715167 33522 net.cpp:106] Creating Layer inception_4c/relu_1x1
I0718 14:31:45.715193 33522 net.cpp:454] inception_4c/relu_1x1 <- inception_4c/1x1
I0718 14:31:45.715224 33522 net.cpp:397] inception_4c/relu_1x1 -> inception_4c/1x1 (in-place)
I0718 14:31:45.716985 33522 net.cpp:150] Setting up inception_4c/relu_1x1
I0718 14:31:45.717020 33522 net.cpp:157] Top shape: 4 128 62 62 (1968128)
I0718 14:31:45.717036 33522 net.cpp:165] Memory required for data: 3383733296
I0718 14:31:45.717053 33522 layer_factory.hpp:76] Creating layer inception_4c/3x3_reduce
I0718 14:31:45.717087 33522 net.cpp:106] Creating Layer inception_4c/3x3_reduce
I0718 14:31:45.717108 33522 net.cpp:454] inception_4c/3x3_reduce <- inception_4b/output_inception_4b/output_0_split_1
I0718 14:31:45.717135 33522 net.cpp:411] inception_4c/3x3_reduce -> inception_4c/3x3_reduce
I0718 14:31:45.725018 33522 cudnn_conv_layer.cpp:194] Reallocating workspace storage: 6144
I0718 14:31:45.725256 33522 net.cpp:150] Setting up inception_4c/3x3_reduce
I0718 14:31:45.725400 33522 net.cpp:157] Top shape: 4 128 62 62 (1968128)
I0718 14:31:45.725471 33522 net.cpp:165] Memory required for data: 3391605808
I0718 14:31:45.725564 33522 layer_factory.hpp:76] Creating layer inception_4c/relu_3x3_reduce
I0718 14:31:45.725666 33522 net.cpp:106] Creating Layer inception_4c/relu_3x3_reduce
I0718 14:31:45.725725 33522 net.cpp:454] inception_4c/relu_3x3_reduce <- inception_4c/3x3_reduce
I0718 14:31:45.725813 33522 net.cpp:397] inception_4c/relu_3x3_reduce -> inception_4c/3x3_reduce (in-place)
I0718 14:31:45.727790 33522 net.cpp:150] Setting up inception_4c/relu_3x3_reduce
I0718 14:31:45.727880 33522 net.cpp:157] Top shape: 4 128 62 62 (1968128)
I0718 14:31:45.727943 33522 net.cpp:165] Memory required for data: 3399478320
I0718 14:31:45.727999 33522 layer_factory.hpp:76] Creating layer inception_4c/3x3
I0718 14:31:45.728103 33522 net.cpp:106] Creating Layer inception_4c/3x3
I0718 14:31:45.728171 33522 net.cpp:454] inception_4c/3x3 <- inception_4c/3x3_reduce
I0718 14:31:45.728278 33522 net.cpp:411] inception_4c/3x3 -> inception_4c/3x3
I0718 14:31:45.738250 33522 cudnn_conv_layer.cpp:194] Reallocating workspace storage: 13824
I0718 14:31:45.738363 33522 net.cpp:150] Setting up inception_4c/3x3
I0718 14:31:45.738404 33522 net.cpp:157] Top shape: 4 256 62 62 (3936256)
I0718 14:31:45.738427 33522 net.cpp:165] Memory required for data: 3415223344
I0718 14:31:45.738466 33522 layer_factory.hpp:76] Creating layer inception_4c/relu_3x3
I0718 14:31:45.738497 33522 net.cpp:106] Creating Layer inception_4c/relu_3x3
I0718 14:31:45.738514 33522 net.cpp:454] inception_4c/relu_3x3 <- inception_4c/3x3
I0718 14:31:45.738538 33522 net.cpp:397] inception_4c/relu_3x3 -> inception_4c/3x3 (in-place)
I0718 14:31:45.740430 33522 net.cpp:150] Setting up inception_4c/relu_3x3
I0718 14:31:45.740469 33522 net.cpp:157] Top shape: 4 256 62 62 (3936256)
I0718 14:31:45.740485 33522 net.cpp:165] Memory required for data: 3430968368
I0718 14:31:45.740502 33522 layer_factory.hpp:76] Creating layer inception_4c/5x5_reduce
I0718 14:31:45.740537 33522 net.cpp:106] Creating Layer inception_4c/5x5_reduce
I0718 14:31:45.740556 33522 net.cpp:454] inception_4c/5x5_reduce <- inception_4b/output_inception_4b/output_0_split_2
I0718 14:31:45.740581 33522 net.cpp:411] inception_4c/5x5_reduce -> inception_4c/5x5_reduce
I0718 14:31:45.771253 33522 cudnn_conv_layer.cpp:194] Reallocating workspace storage: 6144
I0718 14:31:45.771369 33522 net.cpp:150] Setting up inception_4c/5x5_reduce
I0718 14:31:45.771407 33522 net.cpp:157] Top shape: 4 24 62 62 (369024)
I0718 14:31:45.771431 33522 net.cpp:165] Memory required for data: 3432444464
I0718 14:31:45.771464 33522 layer_factory.hpp:76] Creating layer inception_4c/relu_5x5_reduce
I0718 14:31:45.771507 33522 net.cpp:106] Creating Layer inception_4c/relu_5x5_reduce
I0718 14:31:45.771535 33522 net.cpp:454] inception_4c/relu_5x5_reduce <- inception_4c/5x5_reduce
I0718 14:31:45.771574 33522 net.cpp:397] inception_4c/relu_5x5_reduce -> inception_4c/5x5_reduce (in-place)
I0718 14:31:45.771997 33522 net.cpp:150] Setting up inception_4c/relu_5x5_reduce
I0718 14:31:45.772039 33522 net.cpp:157] Top shape: 4 24 62 62 (369024)
I0718 14:31:45.772060 33522 net.cpp:165] Memory required for data: 3433920560
I0718 14:31:45.772079 33522 layer_factory.hpp:76] Creating layer inception_4c/5x5
I0718 14:31:45.772117 33522 net.cpp:106] Creating Layer inception_4c/5x5
I0718 14:31:45.772137 33522 net.cpp:454] inception_4c/5x5 <- inception_4c/5x5_reduce
I0718 14:31:45.772163 33522 net.cpp:411] inception_4c/5x5 -> inception_4c/5x5
I0718 14:31:45.779117 33522 net.cpp:150] Setting up inception_4c/5x5
I0718 14:31:45.779229 33522 net.cpp:157] Top shape: 4 64 62 62 (984064)
I0718 14:31:45.779253 33522 net.cpp:165] Memory required for data: 3437856816
I0718 14:31:45.779297 33522 layer_factory.hpp:76] Creating layer inception_4c/relu_5x5
I0718 14:31:45.779346 33522 net.cpp:106] Creating Layer inception_4c/relu_5x5
I0718 14:31:45.779378 33522 net.cpp:454] inception_4c/relu_5x5 <- inception_4c/5x5
I0718 14:31:45.779412 33522 net.cpp:397] inception_4c/relu_5x5 -> inception_4c/5x5 (in-place)
I0718 14:31:45.781039 33522 net.cpp:150] Setting up inception_4c/relu_5x5
I0718 14:31:45.781133 33522 net.cpp:157] Top shape: 4 64 62 62 (984064)
I0718 14:31:45.781157 33522 net.cpp:165] Memory required for data: 3441793072
I0718 14:31:45.781179 33522 layer_factory.hpp:76] Creating layer inception_4c/pool
I0718 14:31:45.781213 33522 net.cpp:106] Creating Layer inception_4c/pool
I0718 14:31:45.781234 33522 net.cpp:454] inception_4c/pool <- inception_4b/output_inception_4b/output_0_split_3
I0718 14:31:45.781270 33522 net.cpp:411] inception_4c/pool -> inception_4c/pool
I0718 14:31:45.783620 33522 net.cpp:150] Setting up inception_4c/pool
I0718 14:31:45.783728 33522 net.cpp:157] Top shape: 4 512 62 62 (7872512)
I0718 14:31:45.783747 33522 net.cpp:165] Memory required for data: 3473283120
I0718 14:31:45.783771 33522 layer_factory.hpp:76] Creating layer inception_4c/pool_proj
I0718 14:31:45.783823 33522 net.cpp:106] Creating Layer inception_4c/pool_proj
I0718 14:31:45.783846 33522 net.cpp:454] inception_4c/pool_proj <- inception_4c/pool
I0718 14:31:45.783937 33522 net.cpp:411] inception_4c/pool_proj -> inception_4c/pool_proj
I0718 14:31:45.791275 33522 net.cpp:150] Setting up inception_4c/pool_proj
I0718 14:31:45.791381 33522 net.cpp:157] Top shape: 4 64 62 62 (984064)
I0718 14:31:45.791405 33522 net.cpp:165] Memory required for data: 3477219376
I0718 14:31:45.791496 33522 layer_factory.hpp:76] Creating layer inception_4c/relu_pool_proj
I0718 14:31:45.791540 33522 net.cpp:106] Creating Layer inception_4c/relu_pool_proj
I0718 14:31:45.791568 33522 net.cpp:454] inception_4c/relu_pool_proj <- inception_4c/pool_proj
I0718 14:31:45.791599 33522 net.cpp:397] inception_4c/relu_pool_proj -> inception_4c/pool_proj (in-place)
I0718 14:31:45.793828 33522 net.cpp:150] Setting up inception_4c/relu_pool_proj
I0718 14:31:45.793934 33522 net.cpp:157] Top shape: 4 64 62 62 (984064)
I0718 14:31:45.793958 33522 net.cpp:165] Memory required for data: 3481155632
I0718 14:31:45.793982 33522 layer_factory.hpp:76] Creating layer inception_4c/output
I0718 14:31:45.794023 33522 net.cpp:106] Creating Layer inception_4c/output
I0718 14:31:45.794047 33522 net.cpp:454] inception_4c/output <- inception_4c/1x1
I0718 14:31:45.794075 33522 net.cpp:454] inception_4c/output <- inception_4c/3x3
I0718 14:31:45.794097 33522 net.cpp:454] inception_4c/output <- inception_4c/5x5
I0718 14:31:45.794117 33522 net.cpp:454] inception_4c/output <- inception_4c/pool_proj
I0718 14:31:45.794144 33522 net.cpp:411] inception_4c/output -> inception_4c/output
I0718 14:31:45.794260 33522 net.cpp:150] Setting up inception_4c/output
I0718 14:31:45.794292 33522 net.cpp:157] Top shape: 4 512 62 62 (7872512)
I0718 14:31:45.794311 33522 net.cpp:165] Memory required for data: 3512645680
I0718 14:31:45.794327 33522 layer_factory.hpp:76] Creating layer inception_4c/output_inception_4c/output_0_split
I0718 14:31:45.794397 33522 net.cpp:106] Creating Layer inception_4c/output_inception_4c/output_0_split
I0718 14:31:45.794425 33522 net.cpp:454] inception_4c/output_inception_4c/output_0_split <- inception_4c/output
I0718 14:31:45.794445 33522 net.cpp:411] inception_4c/output_inception_4c/output_0_split -> inception_4c/output_inception_4c/output_0_split_0
I0718 14:31:45.794471 33522 net.cpp:411] inception_4c/output_inception_4c/output_0_split -> inception_4c/output_inception_4c/output_0_split_1
I0718 14:31:45.794504 33522 net.cpp:411] inception_4c/output_inception_4c/output_0_split -> inception_4c/output_inception_4c/output_0_split_2
I0718 14:31:45.794530 33522 net.cpp:411] inception_4c/output_inception_4c/output_0_split -> inception_4c/output_inception_4c/output_0_split_3
I0718 14:31:45.794700 33522 net.cpp:150] Setting up inception_4c/output_inception_4c/output_0_split
I0718 14:31:45.794733 33522 net.cpp:157] Top shape: 4 512 62 62 (7872512)
I0718 14:31:45.794764 33522 net.cpp:157] Top shape: 4 512 62 62 (7872512)
I0718 14:31:45.794783 33522 net.cpp:157] Top shape: 4 512 62 62 (7872512)
I0718 14:31:45.794802 33522 net.cpp:157] Top shape: 4 512 62 62 (7872512)
I0718 14:31:45.794818 33522 net.cpp:165] Memory required for data: 3638605872
I0718 14:31:45.794838 33522 layer_factory.hpp:76] Creating layer inception_4d/1x1
I0718 14:31:45.794875 33522 net.cpp:106] Creating Layer inception_4d/1x1
I0718 14:31:45.794901 33522 net.cpp:454] inception_4d/1x1 <- inception_4c/output_inception_4c/output_0_split_0
I0718 14:31:45.794929 33522 net.cpp:411] inception_4d/1x1 -> inception_4d/1x1
I0718 14:31:45.804947 33522 cudnn_conv_layer.cpp:194] Reallocating workspace storage: 6144
I0718 14:31:45.808405 33522 net.cpp:150] Setting up inception_4d/1x1
I0718 14:31:45.808445 33522 net.cpp:157] Top shape: 4 112 62 62 (1722112)
I0718 14:31:45.808461 33522 net.cpp:165] Memory required for data: 3645494320
I0718 14:31:45.808487 33522 layer_factory.hpp:76] Creating layer inception_4d/relu_1x1
I0718 14:31:45.808513 33522 net.cpp:106] Creating Layer inception_4d/relu_1x1
I0718 14:31:45.808536 33522 net.cpp:454] inception_4d/relu_1x1 <- inception_4d/1x1
I0718 14:31:45.808562 33522 net.cpp:397] inception_4d/relu_1x1 -> inception_4d/1x1 (in-place)
I0718 14:31:45.815389 33522 net.cpp:150] Setting up inception_4d/relu_1x1
I0718 14:31:45.815454 33522 net.cpp:157] Top shape: 4 112 62 62 (1722112)
I0718 14:31:45.815470 33522 net.cpp:165] Memory required for data: 3652382768
I0718 14:31:45.815487 33522 layer_factory.hpp:76] Creating layer inception_4d/3x3_reduce
I0718 14:31:45.815531 33522 net.cpp:106] Creating Layer inception_4d/3x3_reduce
I0718 14:31:45.815549 33522 net.cpp:454] inception_4d/3x3_reduce <- inception_4c/output_inception_4c/output_0_split_1
I0718 14:31:45.815577 33522 net.cpp:411] inception_4d/3x3_reduce -> inception_4d/3x3_reduce
I0718 14:31:45.822021 33522 cudnn_conv_layer.cpp:194] Reallocating workspace storage: 6144
I0718 14:31:45.822116 33522 net.cpp:150] Setting up inception_4d/3x3_reduce
I0718 14:31:45.822141 33522 net.cpp:157] Top shape: 4 144 62 62 (2214144)
I0718 14:31:45.822155 33522 net.cpp:165] Memory required for data: 3661239344
I0718 14:31:45.822181 33522 layer_factory.hpp:76] Creating layer inception_4d/relu_3x3_reduce
I0718 14:31:45.822212 33522 net.cpp:106] Creating Layer inception_4d/relu_3x3_reduce
I0718 14:31:45.822232 33522 net.cpp:454] inception_4d/relu_3x3_reduce <- inception_4d/3x3_reduce
I0718 14:31:45.822252 33522 net.cpp:397] inception_4d/relu_3x3_reduce -> inception_4d/3x3_reduce (in-place)
I0718 14:31:45.824316 33522 net.cpp:150] Setting up inception_4d/relu_3x3_reduce
I0718 14:31:45.824344 33522 net.cpp:157] Top shape: 4 144 62 62 (2214144)
I0718 14:31:45.824358 33522 net.cpp:165] Memory required for data: 3670095920
I0718 14:31:45.824374 33522 layer_factory.hpp:76] Creating layer inception_4d/3x3
I0718 14:31:45.824412 33522 net.cpp:106] Creating Layer inception_4d/3x3
I0718 14:31:45.824429 33522 net.cpp:454] inception_4d/3x3 <- inception_4d/3x3_reduce
I0718 14:31:45.824446 33522 net.cpp:411] inception_4d/3x3 -> inception_4d/3x3
I0718 14:31:45.835938 33522 cudnn_conv_layer.cpp:194] Reallocating workspace storage: 15552
I0718 14:31:45.836045 33522 net.cpp:150] Setting up inception_4d/3x3
I0718 14:31:45.836071 33522 net.cpp:157] Top shape: 4 288 62 62 (4428288)
I0718 14:31:45.836086 33522 net.cpp:165] Memory required for data: 3687809072
I0718 14:31:45.836110 33522 layer_factory.hpp:76] Creating layer inception_4d/relu_3x3
I0718 14:31:45.836148 33522 net.cpp:106] Creating Layer inception_4d/relu_3x3
I0718 14:31:45.836172 33522 net.cpp:454] inception_4d/relu_3x3 <- inception_4d/3x3
I0718 14:31:45.836191 33522 net.cpp:397] inception_4d/relu_3x3 -> inception_4d/3x3 (in-place)
I0718 14:31:45.837779 33522 net.cpp:150] Setting up inception_4d/relu_3x3
I0718 14:31:45.837832 33522 net.cpp:157] Top shape: 4 288 62 62 (4428288)
I0718 14:31:45.837847 33522 net.cpp:165] Memory required for data: 3705522224
I0718 14:31:45.837864 33522 layer_factory.hpp:76] Creating layer inception_4d/5x5_reduce
I0718 14:31:45.837896 33522 net.cpp:106] Creating Layer inception_4d/5x5_reduce
I0718 14:31:45.837916 33522 net.cpp:454] inception_4d/5x5_reduce <- inception_4c/output_inception_4c/output_0_split_2
I0718 14:31:45.837940 33522 net.cpp:411] inception_4d/5x5_reduce -> inception_4d/5x5_reduce
I0718 14:31:45.843269 33522 net.cpp:150] Setting up inception_4d/5x5_reduce
I0718 14:31:45.843336 33522 net.cpp:157] Top shape: 4 32 62 62 (492032)
I0718 14:31:45.843353 33522 net.cpp:165] Memory required for data: 3707490352
I0718 14:31:45.843377 33522 layer_factory.hpp:76] Creating layer inception_4d/relu_5x5_reduce
I0718 14:31:45.843407 33522 net.cpp:106] Creating Layer inception_4d/relu_5x5_reduce
I0718 14:31:45.843428 33522 net.cpp:454] inception_4d/relu_5x5_reduce <- inception_4d/5x5_reduce
I0718 14:31:45.843448 33522 net.cpp:397] inception_4d/relu_5x5_reduce -> inception_4d/5x5_reduce (in-place)
I0718 14:31:45.852861 33522 net.cpp:150] Setting up inception_4d/relu_5x5_reduce
I0718 14:31:45.852933 33522 net.cpp:157] Top shape: 4 32 62 62 (492032)
I0718 14:31:45.852949 33522 net.cpp:165] Memory required for data: 3709458480
I0718 14:31:45.852974 33522 layer_factory.hpp:76] Creating layer inception_4d/5x5
I0718 14:31:45.853013 33522 net.cpp:106] Creating Layer inception_4d/5x5
I0718 14:31:45.853091 33522 net.cpp:454] inception_4d/5x5 <- inception_4d/5x5_reduce
I0718 14:31:45.853118 33522 net.cpp:411] inception_4d/5x5 -> inception_4d/5x5
I0718 14:31:45.883918 33522 net.cpp:150] Setting up inception_4d/5x5
I0718 14:31:45.883972 33522 net.cpp:157] Top shape: 4 64 62 62 (984064)
I0718 14:31:45.883982 33522 net.cpp:165] Memory required for data: 3713394736
I0718 14:31:45.884001 33522 layer_factory.hpp:76] Creating layer inception_4d/relu_5x5
I0718 14:31:45.884022 33522 net.cpp:106] Creating Layer inception_4d/relu_5x5
I0718 14:31:45.884034 33522 net.cpp:454] inception_4d/relu_5x5 <- inception_4d/5x5
I0718 14:31:45.884047 33522 net.cpp:397] inception_4d/relu_5x5 -> inception_4d/5x5 (in-place)
I0718 14:31:45.886065 33522 net.cpp:150] Setting up inception_4d/relu_5x5
I0718 14:31:45.886117 33522 net.cpp:157] Top shape: 4 64 62 62 (984064)
I0718 14:31:45.886127 33522 net.cpp:165] Memory required for data: 3717330992
I0718 14:31:45.886142 33522 layer_factory.hpp:76] Creating layer inception_4d/pool
I0718 14:31:45.886162 33522 net.cpp:106] Creating Layer inception_4d/pool
I0718 14:31:45.886176 33522 net.cpp:454] inception_4d/pool <- inception_4c/output_inception_4c/output_0_split_3
I0718 14:31:45.886193 33522 net.cpp:411] inception_4d/pool -> inception_4d/pool
I0718 14:31:45.888962 33522 net.cpp:150] Setting up inception_4d/pool
I0718 14:31:45.889035 33522 net.cpp:157] Top shape: 4 512 62 62 (7872512)
I0718 14:31:45.889051 33522 net.cpp:165] Memory required for data: 3748821040
I0718 14:31:45.889068 33522 layer_factory.hpp:76] Creating layer inception_4d/pool_proj
I0718 14:31:45.889111 33522 net.cpp:106] Creating Layer inception_4d/pool_proj
I0718 14:31:45.889129 33522 net.cpp:454] inception_4d/pool_proj <- inception_4d/pool
I0718 14:31:45.889154 33522 net.cpp:411] inception_4d/pool_proj -> inception_4d/pool_proj
I0718 14:31:45.895678 33522 net.cpp:150] Setting up inception_4d/pool_proj
I0718 14:31:45.895741 33522 net.cpp:157] Top shape: 4 64 62 62 (984064)
I0718 14:31:45.895752 33522 net.cpp:165] Memory required for data: 3752757296
I0718 14:31:45.895776 33522 layer_factory.hpp:76] Creating layer inception_4d/relu_pool_proj
I0718 14:31:45.895795 33522 net.cpp:106] Creating Layer inception_4d/relu_pool_proj
I0718 14:31:45.895808 33522 net.cpp:454] inception_4d/relu_pool_proj <- inception_4d/pool_proj
I0718 14:31:45.895822 33522 net.cpp:397] inception_4d/relu_pool_proj -> inception_4d/pool_proj (in-place)
I0718 14:31:45.897466 33522 net.cpp:150] Setting up inception_4d/relu_pool_proj
I0718 14:31:45.897526 33522 net.cpp:157] Top shape: 4 64 62 62 (984064)
I0718 14:31:45.897536 33522 net.cpp:165] Memory required for data: 3756693552
I0718 14:31:45.897547 33522 layer_factory.hpp:76] Creating layer inception_4d/output
I0718 14:31:45.897567 33522 net.cpp:106] Creating Layer inception_4d/output
I0718 14:31:45.897580 33522 net.cpp:454] inception_4d/output <- inception_4d/1x1
I0718 14:31:45.897594 33522 net.cpp:454] inception_4d/output <- inception_4d/3x3
I0718 14:31:45.897605 33522 net.cpp:454] inception_4d/output <- inception_4d/5x5
I0718 14:31:45.897614 33522 net.cpp:454] inception_4d/output <- inception_4d/pool_proj
I0718 14:31:45.897625 33522 net.cpp:411] inception_4d/output -> inception_4d/output
I0718 14:31:45.897716 33522 net.cpp:150] Setting up inception_4d/output
I0718 14:31:45.897740 33522 net.cpp:157] Top shape: 4 528 62 62 (8118528)
I0718 14:31:45.897753 33522 net.cpp:165] Memory required for data: 3789167664
I0718 14:31:45.897770 33522 layer_factory.hpp:76] Creating layer inception_4d/output_inception_4d/output_0_split
I0718 14:31:45.897792 33522 net.cpp:106] Creating Layer inception_4d/output_inception_4d/output_0_split
I0718 14:31:45.897809 33522 net.cpp:454] inception_4d/output_inception_4d/output_0_split <- inception_4d/output
I0718 14:31:45.897826 33522 net.cpp:411] inception_4d/output_inception_4d/output_0_split -> inception_4d/output_inception_4d/output_0_split_0
I0718 14:31:45.897846 33522 net.cpp:411] inception_4d/output_inception_4d/output_0_split -> inception_4d/output_inception_4d/output_0_split_1
I0718 14:31:45.897902 33522 net.cpp:411] inception_4d/output_inception_4d/output_0_split -> inception_4d/output_inception_4d/output_0_split_2
I0718 14:31:45.897922 33522 net.cpp:411] inception_4d/output_inception_4d/output_0_split -> inception_4d/output_inception_4d/output_0_split_3
I0718 14:31:45.898061 33522 net.cpp:150] Setting up inception_4d/output_inception_4d/output_0_split
I0718 14:31:45.898085 33522 net.cpp:157] Top shape: 4 528 62 62 (8118528)
I0718 14:31:45.898102 33522 net.cpp:157] Top shape: 4 528 62 62 (8118528)
I0718 14:31:45.898116 33522 net.cpp:157] Top shape: 4 528 62 62 (8118528)
I0718 14:31:45.898131 33522 net.cpp:157] Top shape: 4 528 62 62 (8118528)
I0718 14:31:45.898144 33522 net.cpp:165] Memory required for data: 3919064112
I0718 14:31:45.898159 33522 layer_factory.hpp:76] Creating layer inception_4e/1x1
I0718 14:31:45.898190 33522 net.cpp:106] Creating Layer inception_4e/1x1
I0718 14:31:45.898205 33522 net.cpp:454] inception_4e/1x1 <- inception_4d/output_inception_4d/output_0_split_0
I0718 14:31:45.898226 33522 net.cpp:411] inception_4e/1x1 -> inception_4e/1x1
I0718 14:31:45.904778 33522 cudnn_conv_layer.cpp:194] Reallocating workspace storage: 6336
I0718 14:31:45.904868 33522 net.cpp:150] Setting up inception_4e/1x1
I0718 14:31:45.904888 33522 net.cpp:157] Top shape: 4 256 62 62 (3936256)
I0718 14:31:45.904898 33522 net.cpp:165] Memory required for data: 3934809136
I0718 14:31:45.904917 33522 layer_factory.hpp:76] Creating layer inception_4e/relu_1x1
I0718 14:31:45.904938 33522 net.cpp:106] Creating Layer inception_4e/relu_1x1
I0718 14:31:45.904953 33522 net.cpp:454] inception_4e/relu_1x1 <- inception_4e/1x1
I0718 14:31:45.904968 33522 net.cpp:397] inception_4e/relu_1x1 -> inception_4e/1x1 (in-place)
I0718 14:31:45.907016 33522 net.cpp:150] Setting up inception_4e/relu_1x1
I0718 14:31:45.907081 33522 net.cpp:157] Top shape: 4 256 62 62 (3936256)
I0718 14:31:45.907099 33522 net.cpp:165] Memory required for data: 3950554160
I0718 14:31:45.907122 33522 layer_factory.hpp:76] Creating layer inception_4e/3x3_reduce
I0718 14:31:45.907165 33522 net.cpp:106] Creating Layer inception_4e/3x3_reduce
I0718 14:31:45.907187 33522 net.cpp:454] inception_4e/3x3_reduce <- inception_4d/output_inception_4d/output_0_split_1
I0718 14:31:45.907215 33522 net.cpp:411] inception_4e/3x3_reduce -> inception_4e/3x3_reduce
I0718 14:31:45.914331 33522 net.cpp:150] Setting up inception_4e/3x3_reduce
I0718 14:31:45.914387 33522 net.cpp:157] Top shape: 4 160 62 62 (2460160)
I0718 14:31:45.914397 33522 net.cpp:165] Memory required for data: 3960394800
I0718 14:31:45.914414 33522 layer_factory.hpp:76] Creating layer inception_4e/relu_3x3_reduce
I0718 14:31:45.914438 33522 net.cpp:106] Creating Layer inception_4e/relu_3x3_reduce
I0718 14:31:45.914451 33522 net.cpp:454] inception_4e/relu_3x3_reduce <- inception_4e/3x3_reduce
I0718 14:31:45.914464 33522 net.cpp:397] inception_4e/relu_3x3_reduce -> inception_4e/3x3_reduce (in-place)
I0718 14:31:45.916507 33522 net.cpp:150] Setting up inception_4e/relu_3x3_reduce
I0718 14:31:45.916553 33522 net.cpp:157] Top shape: 4 160 62 62 (2460160)
I0718 14:31:45.916563 33522 net.cpp:165] Memory required for data: 3970235440
I0718 14:31:45.916574 33522 layer_factory.hpp:76] Creating layer inception_4e/3x3
I0718 14:31:45.916600 33522 net.cpp:106] Creating Layer inception_4e/3x3
I0718 14:31:45.916613 33522 net.cpp:454] inception_4e/3x3 <- inception_4e/3x3_reduce
I0718 14:31:45.916628 33522 net.cpp:411] inception_4e/3x3 -> inception_4e/3x3
I0718 14:31:45.924525 33522 net.cpp:150] Setting up inception_4e/3x3
I0718 14:31:45.924582 33522 net.cpp:157] Top shape: 4 320 62 62 (4920320)
I0718 14:31:45.924592 33522 net.cpp:165] Memory required for data: 3989916720
I0718 14:31:45.924612 33522 layer_factory.hpp:76] Creating layer inception_4e/relu_3x3
I0718 14:31:45.924629 33522 net.cpp:106] Creating Layer inception_4e/relu_3x3
I0718 14:31:45.924643 33522 net.cpp:454] inception_4e/relu_3x3 <- inception_4e/3x3
I0718 14:31:45.924657 33522 net.cpp:397] inception_4e/relu_3x3 -> inception_4e/3x3 (in-place)
I0718 14:31:45.926594 33522 net.cpp:150] Setting up inception_4e/relu_3x3
I0718 14:31:45.926654 33522 net.cpp:157] Top shape: 4 320 62 62 (4920320)
I0718 14:31:45.926669 33522 net.cpp:165] Memory required for data: 4009598000
I0718 14:31:45.926682 33522 layer_factory.hpp:76] Creating layer inception_4e/5x5_reduce
I0718 14:31:45.926712 33522 net.cpp:106] Creating Layer inception_4e/5x5_reduce
I0718 14:31:45.926724 33522 net.cpp:454] inception_4e/5x5_reduce <- inception_4d/output_inception_4d/output_0_split_2
I0718 14:31:45.926739 33522 net.cpp:411] inception_4e/5x5_reduce -> inception_4e/5x5_reduce
I0718 14:31:45.935602 33522 net.cpp:150] Setting up inception_4e/5x5_reduce
I0718 14:31:45.935659 33522 net.cpp:157] Top shape: 4 32 62 62 (492032)
I0718 14:31:45.935669 33522 net.cpp:165] Memory required for data: 4011566128
I0718 14:31:45.935688 33522 layer_factory.hpp:76] Creating layer inception_4e/relu_5x5_reduce
I0718 14:31:45.935709 33522 net.cpp:106] Creating Layer inception_4e/relu_5x5_reduce
I0718 14:31:45.935721 33522 net.cpp:454] inception_4e/relu_5x5_reduce <- inception_4e/5x5_reduce
I0718 14:31:45.935736 33522 net.cpp:397] inception_4e/relu_5x5_reduce -> inception_4e/5x5_reduce (in-place)
I0718 14:31:45.937286 33522 net.cpp:150] Setting up inception_4e/relu_5x5_reduce
I0718 14:31:45.937333 33522 net.cpp:157] Top shape: 4 32 62 62 (492032)
I0718 14:31:45.937345 33522 net.cpp:165] Memory required for data: 4013534256
I0718 14:31:45.937356 33522 layer_factory.hpp:76] Creating layer inception_4e/5x5
I0718 14:31:45.937381 33522 net.cpp:106] Creating Layer inception_4e/5x5
I0718 14:31:45.937398 33522 net.cpp:454] inception_4e/5x5 <- inception_4e/5x5_reduce
I0718 14:31:45.937413 33522 net.cpp:411] inception_4e/5x5 -> inception_4e/5x5
I0718 14:31:45.944697 33522 cudnn_conv_layer.cpp:194] Reallocating workspace storage: 9600
I0718 14:31:45.944813 33522 net.cpp:150] Setting up inception_4e/5x5
I0718 14:31:45.944842 33522 net.cpp:157] Top shape: 4 128 62 62 (1968128)
I0718 14:31:45.944852 33522 net.cpp:165] Memory required for data: 4021406768
I0718 14:31:45.944876 33522 layer_factory.hpp:76] Creating layer inception_4e/relu_5x5
I0718 14:31:45.944900 33522 net.cpp:106] Creating Layer inception_4e/relu_5x5
I0718 14:31:45.944914 33522 net.cpp:454] inception_4e/relu_5x5 <- inception_4e/5x5
I0718 14:31:45.944929 33522 net.cpp:397] inception_4e/relu_5x5 -> inception_4e/5x5 (in-place)
I0718 14:31:45.946871 33522 net.cpp:150] Setting up inception_4e/relu_5x5
I0718 14:31:45.946948 33522 net.cpp:157] Top shape: 4 128 62 62 (1968128)
I0718 14:31:45.946957 33522 net.cpp:165] Memory required for data: 4029279280
I0718 14:31:45.946974 33522 layer_factory.hpp:76] Creating layer inception_4e/pool
I0718 14:31:45.946998 33522 net.cpp:106] Creating Layer inception_4e/pool
I0718 14:31:45.947012 33522 net.cpp:454] inception_4e/pool <- inception_4d/output_inception_4d/output_0_split_3
I0718 14:31:45.947029 33522 net.cpp:411] inception_4e/pool -> inception_4e/pool
I0718 14:31:45.949318 33522 net.cpp:150] Setting up inception_4e/pool
I0718 14:31:45.949414 33522 net.cpp:157] Top shape: 4 528 62 62 (8118528)
I0718 14:31:45.949432 33522 net.cpp:165] Memory required for data: 4061753392
I0718 14:31:45.949456 33522 layer_factory.hpp:76] Creating layer inception_4e/pool_proj
I0718 14:31:45.949499 33522 net.cpp:106] Creating Layer inception_4e/pool_proj
I0718 14:31:45.949518 33522 net.cpp:454] inception_4e/pool_proj <- inception_4e/pool
I0718 14:31:45.949548 33522 net.cpp:411] inception_4e/pool_proj -> inception_4e/pool_proj
I0718 14:31:45.956991 33522 cudnn_conv_layer.cpp:194] Reallocating workspace storage: 6336
I0718 14:31:45.957160 33522 net.cpp:150] Setting up inception_4e/pool_proj
I0718 14:31:45.957197 33522 net.cpp:157] Top shape: 4 128 62 62 (1968128)
I0718 14:31:45.957211 33522 net.cpp:165] Memory required for data: 4069625904
I0718 14:31:45.957243 33522 layer_factory.hpp:76] Creating layer inception_4e/relu_pool_proj
I0718 14:31:45.957285 33522 net.cpp:106] Creating Layer inception_4e/relu_pool_proj
I0718 14:31:45.957301 33522 net.cpp:454] inception_4e/relu_pool_proj <- inception_4e/pool_proj
I0718 14:31:45.957345 33522 net.cpp:397] inception_4e/relu_pool_proj -> inception_4e/pool_proj (in-place)
I0718 14:31:45.958588 33522 net.cpp:150] Setting up inception_4e/relu_pool_proj
I0718 14:31:45.958670 33522 net.cpp:157] Top shape: 4 128 62 62 (1968128)
I0718 14:31:45.958686 33522 net.cpp:165] Memory required for data: 4077498416
I0718 14:31:45.958701 33522 layer_factory.hpp:76] Creating layer inception_4e/output
I0718 14:31:45.958720 33522 net.cpp:106] Creating Layer inception_4e/output
I0718 14:31:45.958739 33522 net.cpp:454] inception_4e/output <- inception_4e/1x1
I0718 14:31:45.958752 33522 net.cpp:454] inception_4e/output <- inception_4e/3x3
I0718 14:31:45.958762 33522 net.cpp:454] inception_4e/output <- inception_4e/5x5
I0718 14:31:45.958782 33522 net.cpp:454] inception_4e/output <- inception_4e/pool_proj
I0718 14:31:45.958796 33522 net.cpp:411] inception_4e/output -> inception_4e/output
I0718 14:31:45.958889 33522 net.cpp:150] Setting up inception_4e/output
I0718 14:31:45.958901 33522 net.cpp:157] Top shape: 4 832 62 62 (12792832)
I0718 14:31:45.958910 33522 net.cpp:165] Memory required for data: 4128669744
I0718 14:31:45.958920 33522 layer_factory.hpp:76] Creating layer pool4/3x3_s2
I0718 14:31:45.958936 33522 net.cpp:106] Creating Layer pool4/3x3_s2
I0718 14:31:45.958945 33522 net.cpp:454] pool4/3x3_s2 <- inception_4e/output
I0718 14:31:45.958956 33522 net.cpp:411] pool4/3x3_s2 -> pool4/3x3_s2
I0718 14:31:45.960815 33522 net.cpp:150] Setting up pool4/3x3_s2
I0718 14:31:45.960898 33522 net.cpp:157] Top shape: 4 832 31 31 (3198208)
I0718 14:31:45.960909 33522 net.cpp:165] Memory required for data: 4141462576
I0718 14:31:45.960924 33522 layer_factory.hpp:76] Creating layer pool4/3x3_s2_pool4/3x3_s2_0_split
I0718 14:31:45.960955 33522 net.cpp:106] Creating Layer pool4/3x3_s2_pool4/3x3_s2_0_split
I0718 14:31:45.960968 33522 net.cpp:454] pool4/3x3_s2_pool4/3x3_s2_0_split <- pool4/3x3_s2
I0718 14:31:45.960999 33522 net.cpp:411] pool4/3x3_s2_pool4/3x3_s2_0_split -> pool4/3x3_s2_pool4/3x3_s2_0_split_0
I0718 14:31:45.961019 33522 net.cpp:411] pool4/3x3_s2_pool4/3x3_s2_0_split -> pool4/3x3_s2_pool4/3x3_s2_0_split_1
I0718 14:31:45.961031 33522 net.cpp:411] pool4/3x3_s2_pool4/3x3_s2_0_split -> pool4/3x3_s2_pool4/3x3_s2_0_split_2
I0718 14:31:45.961041 33522 net.cpp:411] pool4/3x3_s2_pool4/3x3_s2_0_split -> pool4/3x3_s2_pool4/3x3_s2_0_split_3
I0718 14:31:45.961139 33522 net.cpp:150] Setting up pool4/3x3_s2_pool4/3x3_s2_0_split
I0718 14:31:45.961155 33522 net.cpp:157] Top shape: 4 832 31 31 (3198208)
I0718 14:31:45.961164 33522 net.cpp:157] Top shape: 4 832 31 31 (3198208)
I0718 14:31:45.961174 33522 net.cpp:157] Top shape: 4 832 31 31 (3198208)
I0718 14:31:45.961181 33522 net.cpp:157] Top shape: 4 832 31 31 (3198208)
I0718 14:31:45.961189 33522 net.cpp:165] Memory required for data: 4192633904
I0718 14:31:45.961199 33522 layer_factory.hpp:76] Creating layer inception_5a/1x1
I0718 14:31:45.961226 33522 net.cpp:106] Creating Layer inception_5a/1x1
I0718 14:31:45.961237 33522 net.cpp:454] inception_5a/1x1 <- pool4/3x3_s2_pool4/3x3_s2_0_split_0
I0718 14:31:45.961257 33522 net.cpp:411] inception_5a/1x1 -> inception_5a/1x1
I0718 14:31:45.971323 33522 cudnn_conv_layer.cpp:194] Reallocating workspace storage: 9984
I0718 14:31:45.971433 33522 net.cpp:150] Setting up inception_5a/1x1
I0718 14:31:45.971458 33522 net.cpp:157] Top shape: 4 256 31 31 (984064)
I0718 14:31:45.971470 33522 net.cpp:165] Memory required for data: 4196570160
I0718 14:31:45.971493 33522 layer_factory.hpp:76] Creating layer inception_5a/relu_1x1
I0718 14:31:45.971518 33522 net.cpp:106] Creating Layer inception_5a/relu_1x1
I0718 14:31:45.971530 33522 net.cpp:454] inception_5a/relu_1x1 <- inception_5a/1x1
I0718 14:31:45.971546 33522 net.cpp:397] inception_5a/relu_1x1 -> inception_5a/1x1 (in-place)
I0718 14:31:45.973493 33522 net.cpp:150] Setting up inception_5a/relu_1x1
I0718 14:31:45.973577 33522 net.cpp:157] Top shape: 4 256 31 31 (984064)
I0718 14:31:45.973587 33522 net.cpp:165] Memory required for data: 4200506416
I0718 14:31:45.973644 33522 layer_factory.hpp:76] Creating layer inception_5a/3x3_reduce
I0718 14:31:45.973680 33522 net.cpp:106] Creating Layer inception_5a/3x3_reduce
I0718 14:31:45.973695 33522 net.cpp:454] inception_5a/3x3_reduce <- pool4/3x3_s2_pool4/3x3_s2_0_split_1
I0718 14:31:45.973726 33522 net.cpp:411] inception_5a/3x3_reduce -> inception_5a/3x3_reduce
I0718 14:31:45.980988 33522 cudnn_conv_layer.cpp:194] Reallocating workspace storage: 9984
I0718 14:31:45.981076 33522 net.cpp:150] Setting up inception_5a/3x3_reduce
I0718 14:31:45.981097 33522 net.cpp:157] Top shape: 4 160 31 31 (615040)
I0718 14:31:45.981107 33522 net.cpp:165] Memory required for data: 4202966576
I0718 14:31:45.981124 33522 layer_factory.hpp:76] Creating layer inception_5a/relu_3x3_reduce
I0718 14:31:45.981143 33522 net.cpp:106] Creating Layer inception_5a/relu_3x3_reduce
I0718 14:31:45.981155 33522 net.cpp:454] inception_5a/relu_3x3_reduce <- inception_5a/3x3_reduce
I0718 14:31:45.981166 33522 net.cpp:397] inception_5a/relu_3x3_reduce -> inception_5a/3x3_reduce (in-place)
I0718 14:31:45.982177 33522 net.cpp:150] Setting up inception_5a/relu_3x3_reduce
I0718 14:31:45.982200 33522 net.cpp:157] Top shape: 4 160 31 31 (615040)
I0718 14:31:45.982209 33522 net.cpp:165] Memory required for data: 4205426736
I0718 14:31:45.982218 33522 layer_factory.hpp:76] Creating layer inception_5a/3x3
I0718 14:31:45.982235 33522 net.cpp:106] Creating Layer inception_5a/3x3
I0718 14:31:45.982244 33522 net.cpp:454] inception_5a/3x3 <- inception_5a/3x3_reduce
I0718 14:31:45.982257 33522 net.cpp:411] inception_5a/3x3 -> inception_5a/3x3
I0718 14:31:45.992341 33522 net.cpp:150] Setting up inception_5a/3x3
I0718 14:31:45.992414 33522 net.cpp:157] Top shape: 4 320 31 31 (1230080)
I0718 14:31:45.992430 33522 net.cpp:165] Memory required for data: 4210347056
I0718 14:31:45.992458 33522 layer_factory.hpp:76] Creating layer inception_5a/relu_3x3
I0718 14:31:45.992488 33522 net.cpp:106] Creating Layer inception_5a/relu_3x3
I0718 14:31:45.992513 33522 net.cpp:454] inception_5a/relu_3x3 <- inception_5a/3x3
I0718 14:31:45.992532 33522 net.cpp:397] inception_5a/relu_3x3 -> inception_5a/3x3 (in-place)
I0718 14:31:45.994668 33522 net.cpp:150] Setting up inception_5a/relu_3x3
I0718 14:31:45.994724 33522 net.cpp:157] Top shape: 4 320 31 31 (1230080)
I0718 14:31:45.994738 33522 net.cpp:165] Memory required for data: 4215267376
I0718 14:31:45.994768 33522 layer_factory.hpp:76] Creating layer inception_5a/5x5_reduce
I0718 14:31:45.994817 33522 net.cpp:106] Creating Layer inception_5a/5x5_reduce
I0718 14:31:45.994838 33522 net.cpp:454] inception_5a/5x5_reduce <- pool4/3x3_s2_pool4/3x3_s2_0_split_2
I0718 14:31:45.994863 33522 net.cpp:411] inception_5a/5x5_reduce -> inception_5a/5x5_reduce
I0718 14:31:46.002117 33522 cudnn_conv_layer.cpp:194] Reallocating workspace storage: 9984
I0718 14:31:46.002202 33522 net.cpp:150] Setting up inception_5a/5x5_reduce
I0718 14:31:46.002221 33522 net.cpp:157] Top shape: 4 32 31 31 (123008)
I0718 14:31:46.002230 33522 net.cpp:165] Memory required for data: 4215759408
I0718 14:31:46.002248 33522 layer_factory.hpp:76] Creating layer inception_5a/relu_5x5_reduce
I0718 14:31:46.002269 33522 net.cpp:106] Creating Layer inception_5a/relu_5x5_reduce
I0718 14:31:46.002282 33522 net.cpp:454] inception_5a/relu_5x5_reduce <- inception_5a/5x5_reduce
I0718 14:31:46.002295 33522 net.cpp:397] inception_5a/relu_5x5_reduce -> inception_5a/5x5_reduce (in-place)
I0718 14:31:46.004406 33522 net.cpp:150] Setting up inception_5a/relu_5x5_reduce
I0718 14:31:46.004449 33522 net.cpp:157] Top shape: 4 32 31 31 (123008)
I0718 14:31:46.004459 33522 net.cpp:165] Memory required for data: 4216251440
I0718 14:31:46.004470 33522 layer_factory.hpp:76] Creating layer inception_5a/5x5
I0718 14:31:46.004519 33522 net.cpp:106] Creating Layer inception_5a/5x5
I0718 14:31:46.004534 33522 net.cpp:454] inception_5a/5x5 <- inception_5a/5x5_reduce
I0718 14:31:46.004547 33522 net.cpp:411] inception_5a/5x5 -> inception_5a/5x5
I0718 14:31:46.012037 33522 cudnn_conv_layer.cpp:194] Reallocating workspace storage: 9600
I0718 14:31:46.012365 33522 net.cpp:150] Setting up inception_5a/5x5
I0718 14:31:46.012397 33522 net.cpp:157] Top shape: 4 128 31 31 (492032)
I0718 14:31:46.012414 33522 net.cpp:165] Memory required for data: 4218219568
I0718 14:31:46.012440 33522 layer_factory.hpp:76] Creating layer inception_5a/relu_5x5
I0718 14:31:46.012470 33522 net.cpp:106] Creating Layer inception_5a/relu_5x5
I0718 14:31:46.012485 33522 net.cpp:454] inception_5a/relu_5x5 <- inception_5a/5x5
I0718 14:31:46.012508 33522 net.cpp:397] inception_5a/relu_5x5 -> inception_5a/5x5 (in-place)
I0718 14:31:46.014238 33522 net.cpp:150] Setting up inception_5a/relu_5x5
I0718 14:31:46.014262 33522 net.cpp:157] Top shape: 4 128 31 31 (492032)
I0718 14:31:46.014271 33522 net.cpp:165] Memory required for data: 4220187696
I0718 14:31:46.014281 33522 layer_factory.hpp:76] Creating layer inception_5a/pool
I0718 14:31:46.014297 33522 net.cpp:106] Creating Layer inception_5a/pool
I0718 14:31:46.014307 33522 net.cpp:454] inception_5a/pool <- pool4/3x3_s2_pool4/3x3_s2_0_split_3
I0718 14:31:46.014319 33522 net.cpp:411] inception_5a/pool -> inception_5a/pool
I0718 14:31:46.016734 33522 net.cpp:150] Setting up inception_5a/pool
I0718 14:31:46.016757 33522 net.cpp:157] Top shape: 4 832 31 31 (3198208)
I0718 14:31:46.016767 33522 net.cpp:165] Memory required for data: 4232980528
I0718 14:31:46.016775 33522 layer_factory.hpp:76] Creating layer inception_5a/pool_proj
I0718 14:31:46.016795 33522 net.cpp:106] Creating Layer inception_5a/pool_proj
I0718 14:31:46.016805 33522 net.cpp:454] inception_5a/pool_proj <- inception_5a/pool
I0718 14:31:46.016818 33522 net.cpp:411] inception_5a/pool_proj -> inception_5a/pool_proj
I0718 14:31:46.027479 33522 cudnn_conv_layer.cpp:194] Reallocating workspace storage: 9984
I0718 14:31:46.027580 33522 net.cpp:150] Setting up inception_5a/pool_proj
I0718 14:31:46.027608 33522 net.cpp:157] Top shape: 4 128 31 31 (492032)
I0718 14:31:46.027623 33522 net.cpp:165] Memory required for data: 4234948656
I0718 14:31:46.027652 33522 layer_factory.hpp:76] Creating layer inception_5a/relu_pool_proj
I0718 14:31:46.027683 33522 net.cpp:106] Creating Layer inception_5a/relu_pool_proj
I0718 14:31:46.027703 33522 net.cpp:454] inception_5a/relu_pool_proj <- inception_5a/pool_proj
I0718 14:31:46.027722 33522 net.cpp:397] inception_5a/relu_pool_proj -> inception_5a/pool_proj (in-place)
I0718 14:31:46.030966 33522 net.cpp:150] Setting up inception_5a/relu_pool_proj
I0718 14:31:46.031010 33522 net.cpp:157] Top shape: 4 128 31 31 (492032)
I0718 14:31:46.031024 33522 net.cpp:165] Memory required for data: 4236916784
I0718 14:31:46.031039 33522 layer_factory.hpp:76] Creating layer inception_5a/output
I0718 14:31:46.031064 33522 net.cpp:106] Creating Layer inception_5a/output
I0718 14:31:46.031080 33522 net.cpp:454] inception_5a/output <- inception_5a/1x1
I0718 14:31:46.031096 33522 net.cpp:454] inception_5a/output <- inception_5a/3x3
I0718 14:31:46.031111 33522 net.cpp:454] inception_5a/output <- inception_5a/5x5
I0718 14:31:46.031126 33522 net.cpp:454] inception_5a/output <- inception_5a/pool_proj
I0718 14:31:46.031141 33522 net.cpp:411] inception_5a/output -> inception_5a/output
I0718 14:31:46.031221 33522 net.cpp:150] Setting up inception_5a/output
I0718 14:31:46.031240 33522 net.cpp:157] Top shape: 4 832 31 31 (3198208)
I0718 14:31:46.031252 33522 net.cpp:165] Memory required for data: 4249709616
I0718 14:31:46.031265 33522 layer_factory.hpp:76] Creating layer inception_5a/output_inception_5a/output_0_split
I0718 14:31:46.031282 33522 net.cpp:106] Creating Layer inception_5a/output_inception_5a/output_0_split
I0718 14:31:46.031296 33522 net.cpp:454] inception_5a/output_inception_5a/output_0_split <- inception_5a/output
I0718 14:31:46.031313 33522 net.cpp:411] inception_5a/output_inception_5a/output_0_split -> inception_5a/output_inception_5a/output_0_split_0
I0718 14:31:46.031332 33522 net.cpp:411] inception_5a/output_inception_5a/output_0_split -> inception_5a/output_inception_5a/output_0_split_1
I0718 14:31:46.031350 33522 net.cpp:411] inception_5a/output_inception_5a/output_0_split -> inception_5a/output_inception_5a/output_0_split_2
I0718 14:31:46.031402 33522 net.cpp:411] inception_5a/output_inception_5a/output_0_split -> inception_5a/output_inception_5a/output_0_split_3
I0718 14:31:46.031533 33522 net.cpp:150] Setting up inception_5a/output_inception_5a/output_0_split
I0718 14:31:46.031551 33522 net.cpp:157] Top shape: 4 832 31 31 (3198208)
I0718 14:31:46.031565 33522 net.cpp:157] Top shape: 4 832 31 31 (3198208)
I0718 14:31:46.031579 33522 net.cpp:157] Top shape: 4 832 31 31 (3198208)
I0718 14:31:46.031592 33522 net.cpp:157] Top shape: 4 832 31 31 (3198208)
I0718 14:31:46.031605 33522 net.cpp:165] Memory required for data: 4300880944
I0718 14:31:46.031617 33522 layer_factory.hpp:76] Creating layer inception_5b/1x1
I0718 14:31:46.031644 33522 net.cpp:106] Creating Layer inception_5b/1x1
I0718 14:31:46.031658 33522 net.cpp:454] inception_5b/1x1 <- inception_5a/output_inception_5a/output_0_split_0
I0718 14:31:46.031675 33522 net.cpp:411] inception_5b/1x1 -> inception_5b/1x1
I0718 14:31:46.039860 33522 cudnn_conv_layer.cpp:194] Reallocating workspace storage: 9984
I0718 14:31:46.039930 33522 net.cpp:150] Setting up inception_5b/1x1
I0718 14:31:46.039947 33522 net.cpp:157] Top shape: 4 384 31 31 (1476096)
I0718 14:31:46.039958 33522 net.cpp:165] Memory required for data: 4306785328
I0718 14:31:46.039971 33522 layer_factory.hpp:76] Creating layer inception_5b/relu_1x1
I0718 14:31:46.039991 33522 net.cpp:106] Creating Layer inception_5b/relu_1x1
I0718 14:31:46.040004 33522 net.cpp:454] inception_5b/relu_1x1 <- inception_5b/1x1
I0718 14:31:46.040014 33522 net.cpp:397] inception_5b/relu_1x1 -> inception_5b/1x1 (in-place)
I0718 14:31:46.041961 33522 net.cpp:150] Setting up inception_5b/relu_1x1
I0718 14:31:46.041983 33522 net.cpp:157] Top shape: 4 384 31 31 (1476096)
I0718 14:31:46.041992 33522 net.cpp:165] Memory required for data: 4312689712
I0718 14:31:46.042001 33522 layer_factory.hpp:76] Creating layer inception_5b/3x3_reduce
I0718 14:31:46.042021 33522 net.cpp:106] Creating Layer inception_5b/3x3_reduce
I0718 14:31:46.042032 33522 net.cpp:454] inception_5b/3x3_reduce <- inception_5a/output_inception_5a/output_0_split_1
I0718 14:31:46.042044 33522 net.cpp:411] inception_5b/3x3_reduce -> inception_5b/3x3_reduce
I0718 14:31:46.050218 33522 cudnn_conv_layer.cpp:194] Reallocating workspace storage: 9984
I0718 14:31:46.050297 33522 net.cpp:150] Setting up inception_5b/3x3_reduce
I0718 14:31:46.050317 33522 net.cpp:157] Top shape: 4 192 31 31 (738048)
I0718 14:31:46.050325 33522 net.cpp:165] Memory required for data: 4315641904
I0718 14:31:46.050343 33522 layer_factory.hpp:76] Creating layer inception_5b/relu_3x3_reduce
I0718 14:31:46.050366 33522 net.cpp:106] Creating Layer inception_5b/relu_3x3_reduce
I0718 14:31:46.050379 33522 net.cpp:454] inception_5b/relu_3x3_reduce <- inception_5b/3x3_reduce
I0718 14:31:46.050393 33522 net.cpp:397] inception_5b/relu_3x3_reduce -> inception_5b/3x3_reduce (in-place)
I0718 14:31:46.052626 33522 net.cpp:150] Setting up inception_5b/relu_3x3_reduce
I0718 14:31:46.052652 33522 net.cpp:157] Top shape: 4 192 31 31 (738048)
I0718 14:31:46.052660 33522 net.cpp:165] Memory required for data: 4318594096
I0718 14:31:46.052670 33522 layer_factory.hpp:76] Creating layer inception_5b/3x3
I0718 14:31:46.052687 33522 net.cpp:106] Creating Layer inception_5b/3x3
I0718 14:31:46.052697 33522 net.cpp:454] inception_5b/3x3 <- inception_5b/3x3_reduce
I0718 14:31:46.052711 33522 net.cpp:411] inception_5b/3x3 -> inception_5b/3x3
I0718 14:31:46.066362 33522 net.cpp:150] Setting up inception_5b/3x3
I0718 14:31:46.066412 33522 net.cpp:157] Top shape: 4 384 31 31 (1476096)
I0718 14:31:46.066422 33522 net.cpp:165] Memory required for data: 4324498480
I0718 14:31:46.066440 33522 layer_factory.hpp:76] Creating layer inception_5b/relu_3x3
I0718 14:31:46.066459 33522 net.cpp:106] Creating Layer inception_5b/relu_3x3
I0718 14:31:46.066473 33522 net.cpp:454] inception_5b/relu_3x3 <- inception_5b/3x3
I0718 14:31:46.066485 33522 net.cpp:397] inception_5b/relu_3x3 -> inception_5b/3x3 (in-place)
I0718 14:31:46.068513 33522 net.cpp:150] Setting up inception_5b/relu_3x3
I0718 14:31:46.068536 33522 net.cpp:157] Top shape: 4 384 31 31 (1476096)
I0718 14:31:46.068544 33522 net.cpp:165] Memory required for data: 4330402864
I0718 14:31:46.068553 33522 layer_factory.hpp:76] Creating layer inception_5b/5x5_reduce
I0718 14:31:46.068575 33522 net.cpp:106] Creating Layer inception_5b/5x5_reduce
I0718 14:31:46.068585 33522 net.cpp:454] inception_5b/5x5_reduce <- inception_5a/output_inception_5a/output_0_split_2
I0718 14:31:46.068600 33522 net.cpp:411] inception_5b/5x5_reduce -> inception_5b/5x5_reduce
I0718 14:31:46.074842 33522 net.cpp:150] Setting up inception_5b/5x5_reduce
I0718 14:31:46.074880 33522 net.cpp:157] Top shape: 4 48 31 31 (184512)
I0718 14:31:46.074889 33522 net.cpp:165] Memory required for data: 4331140912
I0718 14:31:46.074904 33522 layer_factory.hpp:76] Creating layer inception_5b/relu_5x5_reduce
I0718 14:31:46.074923 33522 net.cpp:106] Creating Layer inception_5b/relu_5x5_reduce
I0718 14:31:46.074937 33522 net.cpp:454] inception_5b/relu_5x5_reduce <- inception_5b/5x5_reduce
I0718 14:31:46.074954 33522 net.cpp:397] inception_5b/relu_5x5_reduce -> inception_5b/5x5_reduce (in-place)
I0718 14:31:46.076998 33522 net.cpp:150] Setting up inception_5b/relu_5x5_reduce
I0718 14:31:46.077039 33522 net.cpp:157] Top shape: 4 48 31 31 (184512)
I0718 14:31:46.077049 33522 net.cpp:165] Memory required for data: 4331878960
I0718 14:31:46.077059 33522 layer_factory.hpp:76] Creating layer inception_5b/5x5
I0718 14:31:46.077082 33522 net.cpp:106] Creating Layer inception_5b/5x5
I0718 14:31:46.077093 33522 net.cpp:454] inception_5b/5x5 <- inception_5b/5x5_reduce
I0718 14:31:46.077111 33522 net.cpp:411] inception_5b/5x5 -> inception_5b/5x5
I0718 14:31:46.082595 33522 net.cpp:150] Setting up inception_5b/5x5
I0718 14:31:46.082654 33522 net.cpp:157] Top shape: 4 128 31 31 (492032)
I0718 14:31:46.082670 33522 net.cpp:165] Memory required for data: 4333847088
I0718 14:31:46.082691 33522 layer_factory.hpp:76] Creating layer inception_5b/relu_5x5
I0718 14:31:46.082710 33522 net.cpp:106] Creating Layer inception_5b/relu_5x5
I0718 14:31:46.082721 33522 net.cpp:454] inception_5b/relu_5x5 <- inception_5b/5x5
I0718 14:31:46.082744 33522 net.cpp:397] inception_5b/relu_5x5 -> inception_5b/5x5 (in-place)
I0718 14:31:46.084178 33522 net.cpp:150] Setting up inception_5b/relu_5x5
I0718 14:31:46.084198 33522 net.cpp:157] Top shape: 4 128 31 31 (492032)
I0718 14:31:46.084208 33522 net.cpp:165] Memory required for data: 4335815216
I0718 14:31:46.084216 33522 layer_factory.hpp:76] Creating layer inception_5b/pool
I0718 14:31:46.084231 33522 net.cpp:106] Creating Layer inception_5b/pool
I0718 14:31:46.084241 33522 net.cpp:454] inception_5b/pool <- inception_5a/output_inception_5a/output_0_split_3
I0718 14:31:46.084254 33522 net.cpp:411] inception_5b/pool -> inception_5b/pool
I0718 14:31:46.087963 33522 net.cpp:150] Setting up inception_5b/pool
I0718 14:31:46.088003 33522 net.cpp:157] Top shape: 4 832 31 31 (3198208)
I0718 14:31:46.088013 33522 net.cpp:165] Memory required for data: 4348608048
I0718 14:31:46.088024 33522 layer_factory.hpp:76] Creating layer inception_5b/pool_proj
I0718 14:31:46.088047 33522 net.cpp:106] Creating Layer inception_5b/pool_proj
I0718 14:31:46.088057 33522 net.cpp:454] inception_5b/pool_proj <- inception_5b/pool
I0718 14:31:46.088073 33522 net.cpp:411] inception_5b/pool_proj -> inception_5b/pool_proj
I0718 14:31:46.093703 33522 cudnn_conv_layer.cpp:194] Reallocating workspace storage: 9984
I0718 14:31:46.093770 33522 net.cpp:150] Setting up inception_5b/pool_proj
I0718 14:31:46.093788 33522 net.cpp:157] Top shape: 4 128 31 31 (492032)
I0718 14:31:46.093797 33522 net.cpp:165] Memory required for data: 4350576176
I0718 14:31:46.093811 33522 layer_factory.hpp:76] Creating layer inception_5b/relu_pool_proj
I0718 14:31:46.093827 33522 net.cpp:106] Creating Layer inception_5b/relu_pool_proj
I0718 14:31:46.093838 33522 net.cpp:454] inception_5b/relu_pool_proj <- inception_5b/pool_proj
I0718 14:31:46.093876 33522 net.cpp:397] inception_5b/relu_pool_proj -> inception_5b/pool_proj (in-place)
I0718 14:31:46.095926 33522 net.cpp:150] Setting up inception_5b/relu_pool_proj
I0718 14:31:46.095947 33522 net.cpp:157] Top shape: 4 128 31 31 (492032)
I0718 14:31:46.095955 33522 net.cpp:165] Memory required for data: 4352544304
I0718 14:31:46.095965 33522 layer_factory.hpp:76] Creating layer inception_5b/output
I0718 14:31:46.095979 33522 net.cpp:106] Creating Layer inception_5b/output
I0718 14:31:46.095989 33522 net.cpp:454] inception_5b/output <- inception_5b/1x1
I0718 14:31:46.096000 33522 net.cpp:454] inception_5b/output <- inception_5b/3x3
I0718 14:31:46.096012 33522 net.cpp:454] inception_5b/output <- inception_5b/5x5
I0718 14:31:46.096021 33522 net.cpp:454] inception_5b/output <- inception_5b/pool_proj
I0718 14:31:46.096031 33522 net.cpp:411] inception_5b/output -> inception_5b/output
I0718 14:31:46.096078 33522 net.cpp:150] Setting up inception_5b/output
I0718 14:31:46.096091 33522 net.cpp:157] Top shape: 4 1024 31 31 (3936256)
I0718 14:31:46.096098 33522 net.cpp:165] Memory required for data: 4368289328
I0718 14:31:46.096107 33522 layer_factory.hpp:76] Creating layer pool5/7x7_s1
I0718 14:31:46.096124 33522 net.cpp:106] Creating Layer pool5/7x7_s1
I0718 14:31:46.096133 33522 net.cpp:454] pool5/7x7_s1 <- inception_5b/output
I0718 14:31:46.096144 33522 net.cpp:411] pool5/7x7_s1 -> pool5/7x7_s1
I0718 14:31:46.351471 33522 cudnn_conv_layer.cpp:194] Reallocating workspace storage: 602112
I0718 14:31:46.351755 33522 net.cpp:150] Setting up pool5/7x7_s1
I0718 14:31:46.351779 33522 net.cpp:157] Top shape: 4 512 25 25 (1280000)
I0718 14:31:46.351788 33522 net.cpp:165] Memory required for data: 4373409328
I0718 14:31:46.351804 33522 layer_factory.hpp:76] Creating layer conv61
I0718 14:31:46.351825 33522 net.cpp:106] Creating Layer conv61
I0718 14:31:46.351837 33522 net.cpp:454] conv61 <- pool5/7x7_s1
I0718 14:31:46.351851 33522 net.cpp:411] conv61 -> conv61
I0718 14:31:46.359753 33522 cudnn_conv_layer.cpp:194] Reallocating workspace storage: 55296
I0718 14:31:46.359788 33522 net.cpp:150] Setting up conv61
I0718 14:31:46.359800 33522 net.cpp:157] Top shape: 4 64 25 25 (160000)
I0718 14:31:46.359809 33522 net.cpp:165] Memory required for data: 4374049328
I0718 14:31:46.359822 33522 layer_factory.hpp:76] Creating layer relu61
I0718 14:31:46.359835 33522 net.cpp:106] Creating Layer relu61
I0718 14:31:46.359844 33522 net.cpp:454] relu61 <- conv61
I0718 14:31:46.359854 33522 net.cpp:397] relu61 -> conv61 (in-place)
I0718 14:31:46.362010 33522 net.cpp:150] Setting up relu61
I0718 14:31:46.362032 33522 net.cpp:157] Top shape: 4 64 25 25 (160000)
I0718 14:31:46.362042 33522 net.cpp:165] Memory required for data: 4374689328
I0718 14:31:46.362051 33522 layer_factory.hpp:76] Creating layer pool5
I0718 14:31:46.362066 33522 net.cpp:106] Creating Layer pool5
I0718 14:31:46.362076 33522 net.cpp:454] pool5 <- conv61
I0718 14:31:46.362089 33522 net.cpp:411] pool5 -> pool5
I0718 14:31:46.364480 33522 net.cpp:150] Setting up pool5
I0718 14:31:46.364502 33522 net.cpp:157] Top shape: 4 64 13 13 (43264)
I0718 14:31:46.364514 33522 net.cpp:165] Memory required for data: 4374862384
I0718 14:31:46.364524 33522 layer_factory.hpp:76] Creating layer conv62
I0718 14:31:46.364543 33522 net.cpp:106] Creating Layer conv62
I0718 14:31:46.364552 33522 net.cpp:454] conv62 <- pool5
I0718 14:31:46.364565 33522 net.cpp:411] conv62 -> conv62
I0718 14:31:46.371848 33522 net.cpp:150] Setting up conv62
I0718 14:31:46.371879 33522 net.cpp:157] Top shape: 4 64 13 13 (43264)
I0718 14:31:46.371893 33522 net.cpp:165] Memory required for data: 4375035440
I0718 14:31:46.371912 33522 layer_factory.hpp:76] Creating layer relu62
I0718 14:31:46.371932 33522 net.cpp:106] Creating Layer relu62
I0718 14:31:46.371944 33522 net.cpp:454] relu62 <- conv62
I0718 14:31:46.371963 33522 net.cpp:397] relu62 -> conv62 (in-place)
I0718 14:31:46.374078 33522 net.cpp:150] Setting up relu62
I0718 14:31:46.374111 33522 net.cpp:157] Top shape: 4 64 13 13 (43264)
I0718 14:31:46.374155 33522 net.cpp:165] Memory required for data: 4375208496
I0718 14:31:46.374173 33522 layer_factory.hpp:76] Creating layer pool6
I0718 14:31:46.374196 33522 net.cpp:106] Creating Layer pool6
I0718 14:31:46.374210 33522 net.cpp:454] pool6 <- conv62
I0718 14:31:46.374233 33522 net.cpp:411] pool6 -> pool6
I0718 14:31:46.376588 33522 net.cpp:150] Setting up pool6
I0718 14:31:46.376627 33522 net.cpp:157] Top shape: 4 64 7 7 (12544)
I0718 14:31:46.376642 33522 net.cpp:165] Memory required for data: 4375258672
I0718 14:31:46.376657 33522 layer_factory.hpp:76] Creating layer conv82
I0718 14:31:46.376689 33522 net.cpp:106] Creating Layer conv82
I0718 14:31:46.376719 33522 net.cpp:454] conv82 <- pool6
I0718 14:31:46.376737 33522 net.cpp:411] conv82 -> conv82
I0718 14:31:46.384066 33522 cudnn_conv_layer.cpp:194] Reallocating workspace storage: 6912
I0718 14:31:46.384289 33522 net.cpp:150] Setting up conv82
I0718 14:31:46.384322 33522 net.cpp:157] Top shape: 4 128 7 7 (25088)
I0718 14:31:46.384341 33522 net.cpp:165] Memory required for data: 4375359024
I0718 14:31:46.384371 33522 layer_factory.hpp:76] Creating layer relu82
I0718 14:31:46.384403 33522 net.cpp:106] Creating Layer relu82
I0718 14:31:46.384421 33522 net.cpp:454] relu82 <- conv82
I0718 14:31:46.384448 33522 net.cpp:397] relu82 -> conv82 (in-place)
I0718 14:31:46.386133 33522 net.cpp:150] Setting up relu82
I0718 14:31:46.386167 33522 net.cpp:157] Top shape: 4 128 7 7 (25088)
I0718 14:31:46.386180 33522 net.cpp:165] Memory required for data: 4375459376
I0718 14:31:46.386193 33522 layer_factory.hpp:76] Creating layer pool7
I0718 14:31:46.386220 33522 net.cpp:106] Creating Layer pool7
I0718 14:31:46.386234 33522 net.cpp:454] pool7 <- conv82
I0718 14:31:46.386250 33522 net.cpp:411] pool7 -> pool7
I0718 14:31:46.387593 33522 net.cpp:150] Setting up pool7
I0718 14:31:46.387619 33522 net.cpp:157] Top shape: 4 128 4 4 (8192)
I0718 14:31:46.387629 33522 net.cpp:165] Memory required for data: 4375492144
I0718 14:31:46.387639 33522 layer_factory.hpp:76] Creating layer drop0
I0718 14:31:46.387660 33522 net.cpp:106] Creating Layer drop0
I0718 14:31:46.387670 33522 net.cpp:454] drop0 <- pool7
I0718 14:31:46.387681 33522 net.cpp:397] drop0 -> pool7 (in-place)
I0718 14:31:46.387776 33522 net.cpp:150] Setting up drop0
I0718 14:31:46.387794 33522 net.cpp:157] Top shape: 4 128 4 4 (8192)
I0718 14:31:46.387802 33522 net.cpp:165] Memory required for data: 4375524912
I0718 14:31:46.387810 33522 layer_factory.hpp:76] Creating layer conv91
I0718 14:31:46.387837 33522 net.cpp:106] Creating Layer conv91
I0718 14:31:46.387847 33522 net.cpp:454] conv91 <- pool7
I0718 14:31:46.387861 33522 net.cpp:411] conv91 -> conv91
I0718 14:31:46.395319 33522 cudnn_conv_layer.cpp:194] Reallocating workspace storage: 6211584
I0718 14:31:46.395694 33522 net.cpp:150] Setting up conv91
I0718 14:31:46.395720 33522 net.cpp:157] Top shape: 4 3 1 1 (12)
I0718 14:31:46.395730 33522 net.cpp:165] Memory required for data: 4375524960
I0718 14:31:46.395750 33522 layer_factory.hpp:76] Creating layer conv91_conv91_0_split
I0718 14:31:46.395772 33522 net.cpp:106] Creating Layer conv91_conv91_0_split
I0718 14:31:46.395784 33522 net.cpp:454] conv91_conv91_0_split <- conv91
I0718 14:31:46.395797 33522 net.cpp:411] conv91_conv91_0_split -> conv91_conv91_0_split_0
I0718 14:31:46.395812 33522 net.cpp:411] conv91_conv91_0_split -> conv91_conv91_0_split_1
I0718 14:31:46.395882 33522 net.cpp:150] Setting up conv91_conv91_0_split
I0718 14:31:46.395897 33522 net.cpp:157] Top shape: 4 3 1 1 (12)
I0718 14:31:46.395910 33522 net.cpp:157] Top shape: 4 3 1 1 (12)
I0718 14:31:46.395917 33522 net.cpp:165] Memory required for data: 4375525056
I0718 14:31:46.395926 33522 layer_factory.hpp:76] Creating layer accuracy
I0718 14:31:46.395946 33522 net.cpp:106] Creating Layer accuracy
I0718 14:31:46.395959 33522 net.cpp:454] accuracy <- conv91_conv91_0_split_0
I0718 14:31:46.395969 33522 net.cpp:454] accuracy <- label_data_1_split_0
I0718 14:31:46.395985 33522 net.cpp:411] accuracy -> accuracy
…
