…
I0718 14:33:54.915426 33942 net.cpp:322] The NetState phase (0) differed from the phase (1) specified by a rule in layer data
I0718 14:33:54.916340 33942 net.cpp:49] Initializing net from parameters: 
name: "GoogleNet"
state {
  phase: TRAIN
}
layer {
  name: "data"
  type: "ImageData"
  top: "data"
  top: "label"
  include {
    phase: TRAIN
  }
  transform_param {
    mirror: true
    mean_value: 163
    mean_value: 116
    mean_value: 181
  }
  image_data_param {
    source: "../lists/mitosis_train.lst"
    batch_size: 6
    shuffle: true
  }
}
layer {
  name: "conv1/7x7_s2"
  type: "Convolution"
  bottom: "data"
  top: "conv1/7x7_s2"
  param {
    lr_mult: 0
    decay_mult: 1
  }
  param {
    lr_mult: 2
    decay_mult: 0
  }
  convolution_param {
    num_output: 64
    pad: 3
    kernel_size: 7
    stride: 2
    weight_filler {
      type: "xavier"
    }
    bias_filler {
      type: "constant"
      value: 0.2
    }
  }
}
layer {
  name: "conv1/relu_7x7"
  type: "ReLU"
  bottom: "conv1/7x7_s2"
  top: "conv1/7x7_s2"
}
layer {
  name: "pool1/3x3_s2"
  type: "Pooling"
  bottom: "conv1/7x7_s2"
  top: "pool1/3x3_s2"
  pooling_param {
    pool: MAX
    kernel_size: 3
    stride: 2
  }
}
layer {
  name: "pool1/norm1"
  type: "LRN"
  bottom: "pool1/3x3_s2"
  top: "pool1/norm1"
  lrn_param {
    local_size: 5
    alpha: 0.0001
    beta: 0.75
  }
}
layer {
  name: "conv2/3x3_reduce"
  type: "Convolution"
  bottom: "pool1/norm1"
  top: "conv2/3x3_reduce"
  param {
    lr_mult: 0
    decay_mult: 1
  }
  param {
    lr_mult: 2
    decay_mult: 0
  }
  convolution_param {
    num_output: 64
    kernel_size: 1
    weight_filler {
      type: "xavier"
    }
    bias_filler {
      type: "constant"
      value: 0.2
    }
  }
}
layer {
  name: "conv2/relu_3x3_reduce"
  type: "ReLU"
  bottom: "conv2/3x3_reduce"
  top: "conv2/3x3_reduce"
}
layer {
  name: "conv2/3x3"
  type: "Convolution"
  bottom: "conv2/3x3_reduce"
  top: "conv2/3x3"
  param {
    lr_mult: 0
    decay_mult: 1
  }
  param {
    lr_mult: 2
    decay_mult: 0
  }
  convolution_param {
    num_output: 192
    pad: 1
    kernel_size: 3
    weight_filler {
      type: "xavier"
    }
    bias_filler {
      type: "constant"
      value: 0.2
    }
  }
}
layer {
  name: "conv2/relu_3x3"
  type: "ReLU"
  bottom: "conv2/3x3"
  top: "conv2/3x3"
}
layer {
  name: "conv2/norm2"
  type: "LRN"
  bottom: "conv2/3x3"
  top: "conv2/norm2"
  lrn_param {
    local_size: 5
    alpha: 0.0001
    beta: 0.75
  }
}
layer {
  name: "pool2/3x3_s2"
  type: "Pooling"
  bottom: "conv2/norm2"
  top: "pool2/3x3_s2"
  pooling_param {
    pool: MAX
    kernel_size: 3
    stride: 2
  }
}
layer {
  name: "inception_3a/1x1"
  type: "Convolution"
  bottom: "pool2/3x3_s2"
  top: "inception_3a/1x1"
  param {
    lr_mult: 0
    decay_mult: 1
  }
  param {
    lr_mult: 2
    decay_mult: 0
  }
  convolution_param {
    num_output: 64
    kernel_size: 1
    weight_filler {
      type: "xavier"
    }
    bias_filler {
      type: "constant"
      value: 0.2
    }
  }
}
layer {
  name: "inception_3a/relu_1x1"
  type: "ReLU"
  bottom: "inception_3a/1x1"
  top: "inception_3a/1x1"
}
layer {
  name: "inception_3a/3x3_reduce"
  type: "Convolution"
  bottom: "pool2/3x3_s2"
  top: "inception_3a/3x3_reduce"
  param {
    lr_mult: 0
    decay_mult: 1
  }
  param {
    lr_mult: 2
    decay_mult: 0
  }
  convolution_param {
    num_output: 96
    kernel_size: 1
    weight_filler {
      type: "xavier"
    }
    bias_filler {
      type: "constant"
      value: 0.2
    }
  }
}
layer {
  name: "inception_3a/relu_3x3_reduce"
  type: "ReLU"
  bottom: "inception_3a/3x3_reduce"
  top: "inception_3a/3x3_reduce"
}
layer {
  name: "inception_3a/3x3"
  type: "Convolution"
  bottom: "inception_3a/3x3_reduce"
  top: "inception_3a/3x3"
  param {
    lr_mult: 0
    decay_mult: 1
  }
  param {
    lr_mult: 2
    decay_mult: 0
  }
  convolution_param {
    num_output: 128
    pad: 1
    kernel_size: 3
    weight_filler {
      type: "xavier"
    }
    bias_filler {
      type: "constant"
      value: 0.2
    }
  }
}
layer {
  name: "inception_3a/relu_3x3"
  type: "ReLU"
  bottom: "inception_3a/3x3"
  top: "inception_3a/3x3"
}
layer {
  name: "inception_3a/5x5_reduce"
  type: "Convolution"
  bottom: "pool2/3x3_s2"
  top: "inception_3a/5x5_reduce"
  param {
    lr_mult: 0
    decay_mult: 1
  }
  param {
    lr_mult: 2
    decay_mult: 0
  }
  convolution_param {
    num_output: 16
    kernel_size: 1
    weight_filler {
      type: "xavier"
    }
    bias_filler {
      type: "constant"
      value: 0.2
    }
  }
}
layer {
  name: "inception_3a/relu_5x5_reduce"
  type: "ReLU"
  bottom: "inception_3a/5x5_reduce"
  top: "inception_3a/5x5_reduce"
}
layer {
  name: "inception_3a/5x5"
  type: "Convolution"
  bottom: "inception_3a/5x5_reduce"
  top: "inception_3a/5x5"
  param {
    lr_mult: 0
    decay_mult: 1
  }
  param {
    lr_mult: 2
    decay_mult: 0
  }
  convolution_param {
    num_output: 32
    pad: 2
    kernel_size: 5
    weight_filler {
      type: "xavier"
    }
    bias_filler {
      type: "constant"
      value: 0.2
    }
  }
}
layer {
  name: "inception_3a/relu_5x5"
  type: "ReLU"
  bottom: "inception_3a/5x5"
  top: "inception_3a/5x5"
}
layer {
  name: "inception_3a/pool"
  type: "Pooling"
  bottom: "pool2/3x3_s2"
  top: "inception_3a/pool"
  pooling_param {
    pool: MAX
    kernel_size: 3
    stride: 1
    pad: 1
  }
}
layer {
  name: "inception_3a/pool_proj"
  type: "Convolution"
  bottom: "inception_3a/pool"
  top: "inception_3a/pool_proj"
  param {
    lr_mult: 0
    decay_mult: 1
  }
  param {
    lr_mult: 2
    decay_mult: 0
  }
  convolution_param {
    num_output: 32
    kernel_size: 1
    weight_filler {
      type: "xavier"
    }
    bias_filler {
      type: "constant"
      value: 0.2
    }
  }
}
layer {
  name: "inception_3a/relu_pool_proj"
  type: "ReLU"
  bottom: "inception_3a/pool_proj"
  top: "inception_3a/pool_proj"
}
layer {
  name: "inception_3a/output"
  type: "Concat"
  bottom: "inception_3a/1x1"
  bottom: "inception_3a/3x3"
  bottom: "inception_3a/5x5"
  bottom: "inception_3a/pool_proj"
  top: "inception_3a/output"
}
layer {
  name: "inception_3b/1x1"
  type: "Convolution"
  bottom: "inception_3a/output"
  top: "inception_3b/1x1"
  param {
    lr_mult: 0
    decay_mult: 1
  }
  param {
    lr_mult: 2
    decay_mult: 0
  }
  convolution_param {
    num_output: 128
    kernel_size: 1
    weight_filler {
      type: "xavier"
    }
    bias_filler {
      type: "constant"
      value: 0.2
    }
  }
}
layer {
  name: "inception_3b/relu_1x1"
  type: "ReLU"
  bottom: "inception_3b/1x1"
  top: "inception_3b/1x1"
}
layer {
  name: "inception_3b/3x3_reduce"
  type: "Convolution"
  bottom: "inception_3a/output"
  top: "inception_3b/3x3_reduce"
  param {
    lr_mult: 0
    decay_mult: 1
  }
  param {
    lr_mult: 2
    decay_mult: 0
  }
  convolution_param {
    num_output: 128
    kernel_size: 1
    weight_filler {
      type: "xavier"
    }
    bias_filler {
      type: "constant"
      value: 0.2
    }
  }
}
layer {
  name: "inception_3b/relu_3x3_reduce"
  type: "ReLU"
  bottom: "inception_3b/3x3_reduce"
  top: "inception_3b/3x3_reduce"
}
layer {
  name: "inception_3b/3x3"
  type: "Convolution"
  bottom: "inception_3b/3x3_reduce"
  top: "inception_3b/3x3"
  param {
    lr_mult: 0
    decay_mult: 1
  }
  param {
    lr_mult: 2
    decay_mult: 0
  }
  convolution_param {
    num_output: 192
    pad: 1
    kernel_size: 3
    weight_filler {
      type: "xavier"
    }
    bias_filler {
      type: "constant"
      value: 0.2
    }
  }
}
layer {
  name: "inception_3b/relu_3x3"
  type: "ReLU"
  bottom: "inception_3b/3x3"
  top: "inception_3b/3x3"
}
layer {
  name: "inception_3b/5x5_reduce"
  type: "Convolution"
  bottom: "inception_3a/output"
  top: "inception_3b/5x5_reduce"
  param {
    lr_mult: 0
    decay_mult: 1
  }
  param {
    lr_mult: 2
    decay_mult: 0
  }
  convolution_param {
    num_output: 32
    kernel_size: 1
    weight_filler {
      type: "xavier"
    }
    bias_filler {
      type: "constant"
      value: 0.2
    }
  }
}
layer {
  name: "inception_3b/relu_5x5_reduce"
  type: "ReLU"
  bottom: "inception_3b/5x5_reduce"
  top: "inception_3b/5x5_reduce"
}
layer {
  name: "inception_3b/5x5"
  type: "Convolution"
  bottom: "inception_3b/5x5_reduce"
  top: "inception_3b/5x5"
  param {
    lr_mult: 0
    decay_mult: 1
  }
  param {
    lr_mult: 2
    decay_mult: 0
  }
  convolution_param {
    num_output: 96
    pad: 2
    kernel_size: 5
    weight_filler {
      type: "xavier"
    }
    bias_filler {
      type: "constant"
      value: 0.2
    }
  }
}
layer {
  name: "inception_3b/relu_5x5"
  type: "ReLU"
  bottom: "inception_3b/5x5"
  top: "inception_3b/5x5"
}
layer {
  name: "inception_3b/pool"
  type: "Pooling"
  bottom: "inception_3a/output"
  top: "inception_3b/pool"
  pooling_param {
    pool: MAX
    kernel_size: 3
    stride: 1
    pad: 1
  }
}
layer {
  name: "inception_3b/pool_proj"
  type: "Convolution"
  bottom: "inception_3b/pool"
  top: "inception_3b/pool_proj"
  param {
    lr_mult: 0
    decay_mult: 1
  }
  param {
    lr_mult: 2
    decay_mult: 0
  }
  convolution_param {
    num_output: 64
    kernel_size: 1
    weight_filler {
      type: "xavier"
    }
    bias_filler {
      type: "constant"
      value: 0.2
    }
  }
}
layer {
  name: "inception_3b/relu_pool_proj"
  type: "ReLU"
  bottom: "inception_3b/pool_proj"
  top: "inception_3b/pool_proj"
}
layer {
  name: "inception_3b/output"
  type: "Concat"
  bottom: "inception_3b/1x1"
  bottom: "inception_3b/3x3"
  bottom: "inception_3b/5x5"
  bottom: "inception_3b/pool_proj"
  top: "inception_3b/output"
}
layer {
  name: "pool3/3x3_s2"
  type: "Pooling"
  bottom: "inception_3b/output"
  top: "pool3/3x3_s2"
  pooling_param {
    pool: MAX
    kernel_size: 3
    stride: 2
  }
}
layer {
  name: "inception_4a/1x1"
  type: "Convolution"
  bottom: "pool3/3x3_s2"
  top: "inception_4a/1x1"
  param {
    lr_mult: 0
    decay_mult: 1
  }
  param {
    lr_mult: 2
    decay_mult: 0
  }
  convolution_param {
    num_output: 192
    kernel_size: 1
    weight_filler {
      type: "xavier"
    }
    bias_filler {
      type: "constant"
      value: 0.2
    }
  }
}
layer {
  name: "inception_4a/relu_1x1"
  type: "ReLU"
  bottom: "inception_4a/1x1"
  top: "inception_4a/1x1"
}
layer {
  name: "inception_4a/3x3_reduce"
  type: "Convolution"
  bottom: "pool3/3x3_s2"
  top: "inception_4a/3x3_reduce"
  param {
    lr_mult: 0
    decay_mult: 1
  }
  param {
    lr_mult: 2
    decay_mult: 0
  }
  convolution_param {
    num_output: 96
    kernel_size: 1
    weight_filler {
      type: "xavier"
    }
    bias_filler {
      type: "constant"
      value: 0.2
    }
  }
}
layer {
  name: "inception_4a/relu_3x3_reduce"
  type: "ReLU"
  bottom: "inception_4a/3x3_reduce"
  top: "inception_4a/3x3_reduce"
}
layer {
  name: "inception_4a/3x3"
  type: "Convolution"
  bottom: "inception_4a/3x3_reduce"
  top: "inception_4a/3x3"
  param {
    lr_mult: 0
    decay_mult: 1
  }
  param {
    lr_mult: 2
    decay_mult: 0
  }
  convolution_param {
    num_output: 208
    pad: 1
    kernel_size: 3
    weight_filler {
      type: "xavier"
    }
    bias_filler {
      type: "constant"
      value: 0.2
    }
  }
}
layer {
  name: "inception_4a/relu_3x3"
  type: "ReLU"
  bottom: "inception_4a/3x3"
  top: "inception_4a/3x3"
}
layer {
  name: "inception_4a/5x5_reduce"
  type: "Convolution"
  bottom: "pool3/3x3_s2"
  top: "inception_4a/5x5_reduce"
  param {
    lr_mult: 0
    decay_mult: 1
  }
  param {
    lr_mult: 2
    decay_mult: 0
  }
  convolution_param {
    num_output: 16
    kernel_size: 1
    weight_filler {
      type: "xavier"
    }
    bias_filler {
      type: "constant"
      value: 0.2
    }
  }
}
layer {
  name: "inception_4a/relu_5x5_reduce"
  type: "ReLU"
  bottom: "inception_4a/5x5_reduce"
  top: "inception_4a/5x5_reduce"
}
layer {
  name: "inception_4a/5x5"
  type: "Convolution"
  bottom: "inception_4a/5x5_reduce"
  top: "inception_4a/5x5"
  param {
    lr_mult: 0
    decay_mult: 1
  }
  param {
    lr_mult: 2
    decay_mult: 0
  }
  convolution_param {
    num_output: 48
    pad: 2
    kernel_size: 5
    weight_filler {
      type: "xavier"
    }
    bias_filler {
      type: "constant"
      value: 0.2
    }
  }
}
layer {
  name: "inception_4a/relu_5x5"
  type: "ReLU"
  bottom: "inception_4a/5x5"
  top: "inception_4a/5x5"
}
layer {
  name: "inception_4a/pool"
  type: "Pooling"
  bottom: "pool3/3x3_s2"
  top: "inception_4a/pool"
  pooling_param {
    pool: MAX
    kernel_size: 3
    stride: 1
    pad: 1
  }
}
layer {
  name: "inception_4a/pool_proj"
  type: "Convolution"
  bottom: "inception_4a/pool"
  top: "inception_4a/pool_proj"
  param {
    lr_mult: 0
    decay_mult: 1
  }
  param {
    lr_mult: 2
    decay_mult: 0
  }
  convolution_param {
    num_output: 64
    kernel_size: 1
    weight_filler {
      type: "xavier"
    }
    bias_filler {
      type: "constant"
      value: 0.2
    }
  }
}
layer {
  name: "inception_4a/relu_pool_proj"
  type: "ReLU"
  bottom: "inception_4a/pool_proj"
  top: "inception_4a/pool_proj"
}
layer {
  name: "inception_4a/output"
  type: "Concat"
  bottom: "inception_4a/1x1"
  bottom: "inception_4a/3x3"
  bottom: "inception_4a/5x5"
  bottom: "inception_4a/pool_proj"
  top: "inception_4a/output"
}
layer {
  name: "inception_4b/1x1"
  type: "Convolution"
  bottom: "inception_4a/output"
  top: "inception_4b/1x1"
  param {
    lr_mult: 0
    decay_mult: 1
  }
  param {
    lr_mult: 2
    decay_mult: 0
  }
  convolution_param {
    num_output: 160
    kernel_size: 1
    weight_filler {
      type: "xavier"
    }
    bias_filler {
      type: "constant"
      value: 0.2
    }
  }
}
layer {
  name: "inception_4b/relu_1x1"
  type: "ReLU"
  bottom: "inception_4b/1x1"
  top: "inception_4b/1x1"
}
layer {
  name: "inception_4b/3x3_reduce"
  type: "Convolution"
  bottom: "inception_4a/output"
  top: "inception_4b/3x3_reduce"
  param {
    lr_mult: 0
    decay_mult: 1
  }
  param {
    lr_mult: 2
    decay_mult: 0
  }
  convolution_param {
    num_output: 112
    kernel_size: 1
    weight_filler {
      type: "xavier"
    }
    bias_filler {
      type: "constant"
      value: 0.2
    }
  }
}
layer {
  name: "inception_4b/relu_3x3_reduce"
  type: "ReLU"
  bottom: "inception_4b/3x3_reduce"
  top: "inception_4b/3x3_reduce"
}
layer {
  name: "inception_4b/3x3"
  type: "Convolution"
  bottom: "inception_4b/3x3_reduce"
  top: "inception_4b/3x3"
  param {
    lr_mult: 0
    decay_mult: 1
  }
  param {
    lr_mult: 2
    decay_mult: 0
  }
  convolution_param {
    num_output: 224
    pad: 1
    kernel_size: 3
    weight_filler {
      type: "xavier"
    }
    bias_filler {
      type: "constant"
      value: 0.2
    }
  }
}
layer {
  name: "inception_4b/relu_3x3"
  type: "ReLU"
  bottom: "inception_4b/3x3"
  top: "inception_4b/3x3"
}
layer {
  name: "inception_4b/5x5_reduce"
  type: "Convolution"
  bottom: "inception_4a/output"
  top: "inception_4b/5x5_reduce"
  param {
    lr_mult: 0
    decay_mult: 1
  }
  param {
    lr_mult: 2
    decay_mult: 0
  }
  convolution_param {
    num_output: 24
    kernel_size: 1
    weight_filler {
      type: "xavier"
    }
    bias_filler {
      type: "constant"
      value: 0.2
    }
  }
}
layer {
  name: "inception_4b/relu_5x5_reduce"
  type: "ReLU"
  bottom: "inception_4b/5x5_reduce"
  top: "inception_4b/5x5_reduce"
}
layer {
  name: "inception_4b/5x5"
  type: "Convolution"
  bottom: "inception_4b/5x5_reduce"
  top: "inception_4b/5x5"
  param {
    lr_mult: 0
    decay_mult: 1
  }
  param {
    lr_mult: 2
    decay_mult: 0
  }
  convolution_param {
    num_output: 64
    pad: 2
    kernel_size: 5
    weight_filler {
      type: "xavier"
    }
    bias_filler {
      type: "constant"
      value: 0.2
    }
  }
}
layer {
  name: "inception_4b/relu_5x5"
  type: "ReLU"
  bottom: "inception_4b/5x5"
  top: "inception_4b/5x5"
}
layer {
  name: "inception_4b/pool"
  type: "Pooling"
  bottom: "inception_4a/output"
  top: "inception_4b/pool"
  pooling_param {
    pool: MAX
    kernel_size: 3
    stride: 1
    pad: 1
  }
}
layer {
  name: "inception_4b/pool_proj"
  type: "Convolution"
  bottom: "inception_4b/pool"
  top: "inception_4b/pool_proj"
  param {
    lr_mult: 0
    decay_mult: 1
  }
  param {
    lr_mult: 2
    decay_mult: 0
  }
  convolution_param {
    num_output: 64
    kernel_size: 1
    weight_filler {
      type: "xavier"
    }
    bias_filler {
      type: "constant"
      value: 0.2
    }
  }
}
layer {
  name: "inception_4b/relu_pool_proj"
  type: "ReLU"
  bottom: "inception_4b/pool_proj"
  top: "inception_4b/pool_proj"
}
layer {
  name: "inception_4b/output"
  type: "Concat"
  bottom: "inception_4b/1x1"
  bottom: "inception_4b/3x3"
  bottom: "inception_4b/5x5"
  bottom: "inception_4b/pool_proj"
  top: "inception_4b/output"
}
layer {
  name: "inception_4c/1x1"
  type: "Convolution"
  bottom: "inception_4b/output"
  top: "inception_4c/1x1"
  param {
    lr_mult: 0
    decay_mult: 1
  }
  param {
    lr_mult: 2
    decay_mult: 0
  }
  convolution_param {
    num_output: 128
    kernel_size: 1
    weight_filler {
      type: "xavier"
    }
    bias_filler {
      type: "constant"
      value: 0.2
    }
  }
}
layer {
  name: "inception_4c/relu_1x1"
  type: "ReLU"
  bottom: "inception_4c/1x1"
  top: "inception_4c/1x1"
}
layer {
  name: "inception_4c/3x3_reduce"
  type: "Convolution"
  bottom: "inception_4b/output"
  top: "inception_4c/3x3_reduce"
  param {
    lr_mult: 0
    decay_mult: 1
  }
  param {
    lr_mult: 2
    decay_mult: 0
  }
  convolution_param {
    num_output: 128
    kernel_size: 1
    weight_filler {
      type: "xavier"
    }
    bias_filler {
      type: "constant"
      value: 0.2
    }
  }
}
layer {
  name: "inception_4c/relu_3x3_reduce"
  type: "ReLU"
  bottom: "inception_4c/3x3_reduce"
  top: "inception_4c/3x3_reduce"
}
layer {
  name: "inception_4c/3x3"
  type: "Convolution"
  bottom: "inception_4c/3x3_reduce"
  top: "inception_4c/3x3"
  param {
    lr_mult: 0
    decay_mult: 1
  }
  param {
    lr_mult: 2
    decay_mult: 0
  }
  convolution_param {
    num_output: 256
    pad: 1
    kernel_size: 3
    weight_filler {
      type: "xavier"
    }
    bias_filler {
      type: "constant"
      value: 0.2
    }
  }
}
layer {
  name: "inception_4c/relu_3x3"
  type: "ReLU"
  bottom: "inception_4c/3x3"
  top: "inception_4c/3x3"
}
layer {
  name: "inception_4c/5x5_reduce"
  type: "Convolution"
  bottom: "inception_4b/output"
  top: "inception_4c/5x5_reduce"
  param {
    lr_mult: 0
    decay_mult: 1
  }
  param {
    lr_mult: 2
    decay_mult: 0
  }
  convolution_param {
    num_output: 24
    kernel_size: 1
    weight_filler {
      type: "xavier"
    }
    bias_filler {
      type: "constant"
      value: 0.2
    }
  }
}
layer {
  name: "inception_4c/relu_5x5_reduce"
  type: "ReLU"
  bottom: "inception_4c/5x5_reduce"
  top: "inception_4c/5x5_reduce"
}
layer {
  name: "inception_4c/5x5"
  type: "Convolution"
  bottom: "inception_4c/5x5_reduce"
  top: "inception_4c/5x5"
  param {
    lr_mult: 0
    decay_mult: 1
  }
  param {
    lr_mult: 2
    decay_mult: 0
  }
  convolution_param {
    num_output: 64
    pad: 2
    kernel_size: 5
    weight_filler {
      type: "xavier"
    }
    bias_filler {
      type: "constant"
      value: 0.2
    }
  }
}
layer {
  name: "inception_4c/relu_5x5"
  type: "ReLU"
  bottom: "inception_4c/5x5"
  top: "inception_4c/5x5"
}
layer {
  name: "inception_4c/pool"
  type: "Pooling"
  bottom: "inception_4b/output"
  top: "inception_4c/pool"
  pooling_param {
    pool: MAX
    kernel_size: 3
    stride: 1
    pad: 1
  }
}
layer {
  name: "inception_4c/pool_proj"
  type: "Convolution"
  bottom: "inception_4c/pool"
  top: "inception_4c/pool_proj"
  param {
    lr_mult: 0
    decay_mult: 1
  }
  param {
    lr_mult: 2
    decay_mult: 0
  }
  convolution_param {
    num_output: 64
    kernel_size: 1
    weight_filler {
      type: "xavier"
    }
    bias_filler {
      type: "constant"
      value: 0.2
    }
  }
}
layer {
  name: "inception_4c/relu_pool_proj"
  type: "ReLU"
  bottom: "inception_4c/pool_proj"
  top: "inception_4c/pool_proj"
}
layer {
  name: "inception_4c/output"
  type: "Concat"
  bottom: "inception_4c/1x1"
  bottom: "inception_4c/3x3"
  bottom: "inception_4c/5x5"
  bottom: "inception_4c/pool_proj"
  top: "inception_4c/output"
}
layer {
  name: "inception_4d/1x1"
  type: "Convolution"
  bottom: "inception_4c/output"
  top: "inception_4d/1x1"
  param {
    lr_mult: 0
    decay_mult: 1
  }
  param {
    lr_mult: 2
    decay_mult: 0
  }
  convolution_param {
    num_output: 112
    kernel_size: 1
    weight_filler {
      type: "xavier"
    }
    bias_filler {
      type: "constant"
      value: 0.2
    }
  }
}
layer {
  name: "inception_4d/relu_1x1"
  type: "ReLU"
  bottom: "inception_4d/1x1"
  top: "inception_4d/1x1"
}
layer {
  name: "inception_4d/3x3_reduce"
  type: "Convolution"
  bottom: "inception_4c/output"
  top: "inception_4d/3x3_reduce"
  param {
    lr_mult: 0
    decay_mult: 1
  }
  param {
    lr_mult: 2
    decay_mult: 0
  }
  convolution_param {
    num_output: 144
    kernel_size: 1
    weight_filler {
      type: "xavier"
    }
    bias_filler {
      type: "constant"
      value: 0.2
    }
  }
}
layer {
  name: "inception_4d/relu_3x3_reduce"
  type: "ReLU"
  bottom: "inception_4d/3x3_reduce"
  top: "inception_4d/3x3_reduce"
}
layer {
  name: "inception_4d/3x3"
  type: "Convolution"
  bottom: "inception_4d/3x3_reduce"
  top: "inception_4d/3x3"
  param {
    lr_mult: 0
    decay_mult: 1
  }
  param {
    lr_mult: 2
    decay_mult: 0
  }
  convolution_param {
    num_output: 288
    pad: 1
    kernel_size: 3
    weight_filler {
      type: "xavier"
    }
    bias_filler {
      type: "constant"
      value: 0.2
    }
  }
}
layer {
  name: "inception_4d/relu_3x3"
  type: "ReLU"
  bottom: "inception_4d/3x3"
  top: "inception_4d/3x3"
}
layer {
  name: "inception_4d/5x5_reduce"
  type: "Convolution"
  bottom: "inception_4c/output"
  top: "inception_4d/5x5_reduce"
  param {
    lr_mult: 0
    decay_mult: 1
  }
  param {
    lr_mult: 2
    decay_mult: 0
  }
  convolution_param {
    num_output: 32
    kernel_size: 1
    weight_filler {
      type: "xavier"
    }
    bias_filler {
      type: "constant"
      value: 0.2
    }
  }
}
layer {
  name: "inception_4d/relu_5x5_reduce"
  type: "ReLU"
  bottom: "inception_4d/5x5_reduce"
  top: "inception_4d/5x5_reduce"
}
layer {
  name: "inception_4d/5x5"
  type: "Convolution"
  bottom: "inception_4d/5x5_reduce"
  top: "inception_4d/5x5"
  param {
    lr_mult: 0
    decay_mult: 1
  }
  param {
    lr_mult: 2
    decay_mult: 0
  }
  convolution_param {
    num_output: 64
    pad: 2
    kernel_size: 5
    weight_filler {
      type: "xavier"
    }
    bias_filler {
      type: "constant"
      value: 0.2
    }
  }
}
layer {
  name: "inception_4d/relu_5x5"
  type: "ReLU"
  bottom: "inception_4d/5x5"
  top: "inception_4d/5x5"
}
layer {
  name: "inception_4d/pool"
  type: "Pooling"
  bottom: "inception_4c/output"
  top: "inception_4d/pool"
  pooling_param {
    pool: MAX
    kernel_size: 3
    stride: 1
    pad: 1
  }
}
layer {
  name: "inception_4d/pool_proj"
  type: "Convolution"
  bottom: "inception_4d/pool"
  top: "inception_4d/pool_proj"
  param {
    lr_mult: 0
    decay_mult: 1
  }
  param {
    lr_mult: 2
    decay_mult: 0
  }
  convolution_param {
    num_output: 64
    kernel_size: 1
    weight_filler {
      type: "xavier"
    }
    bias_filler {
      type: "constant"
      value: 0.2
    }
  }
}
layer {
  name: "inception_4d/relu_pool_proj"
  type: "ReLU"
  bottom: "inception_4d/pool_proj"
  top: "inception_4d/pool_proj"
}
layer {
  name: "inception_4d/output"
  type: "Concat"
  bottom: "inception_4d/1x1"
  bottom: "inception_4d/3x3"
  bottom: "inception_4d/5x5"
  bottom: "inception_4d/pool_proj"
  top: "inception_4d/output"
}
layer {
  name: "inception_4e/1x1"
  type: "Convolution"
  bottom: "inception_4d/output"
  top: "inception_4e/1x1"
  param {
    lr_mult: 0
    decay_mult: 1
  }
  param {
    lr_mult: 2
    decay_mult: 0
  }
  convolution_param {
    num_output: 256
    kernel_size: 1
    weight_filler {
      type: "xavier"
    }
    bias_filler {
      type: "constant"
      value: 0.2
    }
  }
}
layer {
  name: "inception_4e/relu_1x1"
  type: "ReLU"
  bottom: "inception_4e/1x1"
  top: "inception_4e/1x1"
}
layer {
  name: "inception_4e/3x3_reduce"
  type: "Convolution"
  bottom: "inception_4d/output"
  top: "inception_4e/3x3_reduce"
  param {
    lr_mult: 0
    decay_mult: 1
  }
  param {
    lr_mult: 2
    decay_mult: 0
  }
  convolution_param {
    num_output: 160
    kernel_size: 1
    weight_filler {
      type: "xavier"
    }
    bias_filler {
      type: "constant"
      value: 0.2
    }
  }
}
layer {
  name: "inception_4e/relu_3x3_reduce"
  type: "ReLU"
  bottom: "inception_4e/3x3_reduce"
  top: "inception_4e/3x3_reduce"
}
layer {
  name: "inception_4e/3x3"
  type: "Convolution"
  bottom: "inception_4e/3x3_reduce"
  top: "inception_4e/3x3"
  param {
    lr_mult: 0
    decay_mult: 1
  }
  param {
    lr_mult: 2
    decay_mult: 0
  }
  convolution_param {
    num_output: 320
    pad: 1
    kernel_size: 3
    weight_filler {
      type: "xavier"
    }
    bias_filler {
      type: "constant"
      value: 0.2
    }
  }
}
layer {
  name: "inception_4e/relu_3x3"
  type: "ReLU"
  bottom: "inception_4e/3x3"
  top: "inception_4e/3x3"
}
layer {
  name: "inception_4e/5x5_reduce"
  type: "Convolution"
  bottom: "inception_4d/output"
  top: "inception_4e/5x5_reduce"
  param {
    lr_mult: 0
    decay_mult: 1
  }
  param {
    lr_mult: 2
    decay_mult: 0
  }
  convolution_param {
    num_output: 32
    kernel_size: 1
    weight_filler {
      type: "xavier"
    }
    bias_filler {
      type: "constant"
      value: 0.2
    }
  }
}
layer {
  name: "inception_4e/relu_5x5_reduce"
  type: "ReLU"
  bottom: "inception_4e/5x5_reduce"
  top: "inception_4e/5x5_reduce"
}
layer {
  name: "inception_4e/5x5"
  type: "Convolution"
  bottom: "inception_4e/5x5_reduce"
  top: "inception_4e/5x5"
  param {
    lr_mult: 0
    decay_mult: 1
  }
  param {
    lr_mult: 2
    decay_mult: 0
  }
  convolution_param {
    num_output: 128
    pad: 2
    kernel_size: 5
    weight_filler {
      type: "xavier"
    }
    bias_filler {
      type: "constant"
      value: 0.2
    }
  }
}
layer {
  name: "inception_4e/relu_5x5"
  type: "ReLU"
  bottom: "inception_4e/5x5"
  top: "inception_4e/5x5"
}
layer {
  name: "inception_4e/pool"
  type: "Pooling"
  bottom: "inception_4d/output"
  top: "inception_4e/pool"
  pooling_param {
    pool: MAX
    kernel_size: 3
    stride: 1
    pad: 1
  }
}
layer {
  name: "inception_4e/pool_proj"
  type: "Convolution"
  bottom: "inception_4e/pool"
  top: "inception_4e/pool_proj"
  param {
    lr_mult: 0
    decay_mult: 1
  }
  param {
    lr_mult: 2
    decay_mult: 0
  }
  convolution_param {
    num_output: 128
    kernel_size: 1
    weight_filler {
      type: "xavier"
    }
    bias_filler {
      type: "constant"
      value: 0.2
    }
  }
}
layer {
  name: "inception_4e/relu_pool_proj"
  type: "ReLU"
  bottom: "inception_4e/pool_proj"
  top: "inception_4e/pool_proj"
}
layer {
  name: "inception_4e/output"
  type: "Concat"
  bottom: "inception_4e/1x1"
  bottom: "inception_4e/3x3"
  bottom: "inception_4e/5x5"
  bottom: "inception_4e/pool_proj"
  top: "inception_4e/output"
}
layer {
  name: "pool4/3x3_s2"
  type: "Pooling"
  bottom: "inception_4e/output"
  top: "pool4/3x3_s2"
  pooling_param {
    pool: MAX
    kernel_size: 3
    stride: 2
  }
}
layer {
  name: "inception_5a/1x1"
  type: "Convolution"
  bottom: "pool4/3x3_s2"
  top: "inception_5a/1x1"
  param {
    lr_mult: 0
    decay_mult: 1
  }
  param {
    lr_mult: 2
    decay_mult: 0
  }
  convolution_param {
    num_output: 256
    kernel_size: 1
    weight_filler {
      type: "xavier"
    }
    bias_filler {
      type: "constant"
      value: 0.2
    }
  }
}
layer {
  name: "inception_5a/relu_1x1"
  type: "ReLU"
  bottom: "inception_5a/1x1"
  top: "inception_5a/1x1"
}
layer {
  name: "inception_5a/3x3_reduce"
  type: "Convolution"
  bottom: "pool4/3x3_s2"
  top: "inception_5a/3x3_reduce"
  param {
    lr_mult: 0
    decay_mult: 1
  }
  param {
    lr_mult: 2
    decay_mult: 0
  }
  convolution_param {
    num_output: 160
    kernel_size: 1
    weight_filler {
      type: "xavier"
    }
    bias_filler {
      type: "constant"
      value: 0.2
    }
  }
}
layer {
  name: "inception_5a/relu_3x3_reduce"
  type: "ReLU"
  bottom: "inception_5a/3x3_reduce"
  top: "inception_5a/3x3_reduce"
}
layer {
  name: "inception_5a/3x3"
  type: "Convolution"
  bottom: "inception_5a/3x3_reduce"
  top: "inception_5a/3x3"
  param {
    lr_mult: 0
    decay_mult: 1
  }
  param {
    lr_mult: 2
    decay_mult: 0
  }
  convolution_param {
    num_output: 320
    pad: 1
    kernel_size: 3
    weight_filler {
      type: "xavier"
    }
    bias_filler {
      type: "constant"
      value: 0.2
    }
  }
}
layer {
  name: "inception_5a/relu_3x3"
  type: "ReLU"
  bottom: "inception_5a/3x3"
  top: "inception_5a/3x3"
}
layer {
  name: "inception_5a/5x5_reduce"
  type: "Convolution"
  bottom: "pool4/3x3_s2"
  top: "inception_5a/5x5_reduce"
  param {
    lr_mult: 0
    decay_mult: 1
  }
  param {
    lr_mult: 2
    decay_mult: 0
  }
  convolution_param {
    num_output: 32
    kernel_size: 1
    weight_filler {
      type: "xavier"
    }
    bias_filler {
      type: "constant"
      value: 0.2
    }
  }
}
layer {
  name: "inception_5a/relu_5x5_reduce"
  type: "ReLU"
  bottom: "inception_5a/5x5_reduce"
  top: "inception_5a/5x5_reduce"
}
layer {
  name: "inception_5a/5x5"
  type: "Convolution"
  bottom: "inception_5a/5x5_reduce"
  top: "inception_5a/5x5"
  param {
    lr_mult: 0
    decay_mult: 1
  }
  param {
    lr_mult: 2
    decay_mult: 0
  }
  convolution_param {
    num_output: 128
    pad: 2
    kernel_size: 5
    weight_filler {
      type: "xavier"
    }
    bias_filler {
      type: "constant"
      value: 0.2
    }
  }
}
layer {
  name: "inception_5a/relu_5x5"
  type: "ReLU"
  bottom: 
I0718 14:33:54.922500 33942 layer_factory.hpp:76] Creating layer data
I0718 14:33:54.922550 33942 net.cpp:106] Creating Layer data
I0718 14:33:54.922565 33942 net.cpp:411] data -> data
I0718 14:33:54.922600 33942 net.cpp:411] data -> label
I0718 14:33:54.923063 33942 image_data_layer.cpp:36] Opening file ../lists/mitosis_train.lst
I0718 14:33:54.934952 33942 image_data_layer.cpp:46] Shuffling data
I0718 14:33:54.936769 33942 image_data_layer.cpp:51] A total of 21366 images.
I0718 14:33:55.070091 33942 image_data_layer.cpp:78] output data size: 6,3,1000,1000
I0718 14:33:55.284303 33942 net.cpp:150] Setting up data
I0718 14:33:55.284374 33942 net.cpp:157] Top shape: 6 3 1000 1000 (18000000)
I0718 14:33:55.284387 33942 net.cpp:157] Top shape: 6 (6)
I0718 14:33:55.284397 33942 net.cpp:165] Memory required for data: 72000024
I0718 14:33:55.284412 33942 layer_factory.hpp:76] Creating layer label_data_1_split
I0718 14:33:55.284436 33942 net.cpp:106] Creating Layer label_data_1_split
I0718 14:33:55.284448 33942 net.cpp:454] label_data_1_split <- label
I0718 14:33:55.284469 33942 net.cpp:411] label_data_1_split -> label_data_1_split_0
I0718 14:33:55.284487 33942 net.cpp:411] label_data_1_split -> label_data_1_split_1
I0718 14:33:55.284574 33942 net.cpp:150] Setting up label_data_1_split
I0718 14:33:55.284590 33942 net.cpp:157] Top shape: 6 (6)
I0718 14:33:55.284598 33942 net.cpp:157] Top shape: 6 (6)
I0718 14:33:55.284606 33942 net.cpp:165] Memory required for data: 72000072
I0718 14:33:55.284615 33942 layer_factory.hpp:76] Creating layer conv1/7x7_s2
I0718 14:33:55.284641 33942 net.cpp:106] Creating Layer conv1/7x7_s2
I0718 14:33:55.284652 33942 net.cpp:454] conv1/7x7_s2 <- data
I0718 14:33:55.284663 33942 net.cpp:411] conv1/7x7_s2 -> conv1/7x7_s2
I0718 14:33:55.718967 33942 net.cpp:150] Setting up conv1/7x7_s2
I0718 14:33:55.719058 33942 net.cpp:157] Top shape: 6 64 500 500 (96000000)
I0718 14:33:55.719074 33942 net.cpp:165] Memory required for data: 456000072
I0718 14:33:55.719117 33942 layer_factory.hpp:76] Creating layer conv1/relu_7x7
I0718 14:33:55.719151 33942 net.cpp:106] Creating Layer conv1/relu_7x7
I0718 14:33:55.719254 33942 net.cpp:454] conv1/relu_7x7 <- conv1/7x7_s2
I0718 14:33:55.719274 33942 net.cpp:397] conv1/relu_7x7 -> conv1/7x7_s2 (in-place)
I0718 14:33:55.719630 33942 net.cpp:150] Setting up conv1/relu_7x7
I0718 14:33:55.719658 33942 net.cpp:157] Top shape: 6 64 500 500 (96000000)
I0718 14:33:55.719673 33942 net.cpp:165] Memory required for data: 840000072
I0718 14:33:55.719689 33942 layer_factory.hpp:76] Creating layer pool1/3x3_s2
I0718 14:33:55.719719 33942 net.cpp:106] Creating Layer pool1/3x3_s2
I0718 14:33:55.719738 33942 net.cpp:454] pool1/3x3_s2 <- conv1/7x7_s2
I0718 14:33:55.719763 33942 net.cpp:411] pool1/3x3_s2 -> pool1/3x3_s2
I0718 14:33:55.724906 33942 net.cpp:150] Setting up pool1/3x3_s2
I0718 14:33:55.725049 33942 net.cpp:157] Top shape: 6 64 250 250 (24000000)
I0718 14:33:55.725069 33942 net.cpp:165] Memory required for data: 936000072
I0718 14:33:55.725093 33942 layer_factory.hpp:76] Creating layer pool1/norm1
I0718 14:33:55.725142 33942 net.cpp:106] Creating Layer pool1/norm1
I0718 14:33:55.725164 33942 net.cpp:454] pool1/norm1 <- pool1/3x3_s2
I0718 14:33:55.725186 33942 net.cpp:411] pool1/norm1 -> pool1/norm1
I0718 14:33:55.727501 33942 net.cpp:150] Setting up pool1/norm1
I0718 14:33:55.727567 33942 net.cpp:157] Top shape: 6 64 250 250 (24000000)
I0718 14:33:55.727582 33942 net.cpp:165] Memory required for data: 1032000072
I0718 14:33:55.727602 33942 layer_factory.hpp:76] Creating layer conv2/3x3_reduce
I0718 14:33:55.727635 33942 net.cpp:106] Creating Layer conv2/3x3_reduce
I0718 14:33:55.727651 33942 net.cpp:454] conv2/3x3_reduce <- pool1/norm1
I0718 14:33:55.727679 33942 net.cpp:411] conv2/3x3_reduce -> conv2/3x3_reduce
I0718 14:33:55.736166 33942 cudnn_conv_layer.cpp:194] Reallocating workspace storage: 768
I0718 14:33:55.736304 33942 net.cpp:150] Setting up conv2/3x3_reduce
I0718 14:33:55.736331 33942 net.cpp:157] Top shape: 6 64 250 250 (24000000)
I0718 14:33:55.736348 33942 net.cpp:165] Memory required for data: 1128000072
I0718 14:33:55.736382 33942 layer_factory.hpp:76] Creating layer conv2/relu_3x3_reduce
I0718 14:33:55.736418 33942 net.cpp:106] Creating Layer conv2/relu_3x3_reduce
I0718 14:33:55.736440 33942 net.cpp:454] conv2/relu_3x3_reduce <- conv2/3x3_reduce
I0718 14:33:55.736459 33942 net.cpp:397] conv2/relu_3x3_reduce -> conv2/3x3_reduce (in-place)
I0718 14:33:55.737145 33942 net.cpp:150] Setting up conv2/relu_3x3_reduce
I0718 14:33:55.737185 33942 net.cpp:157] Top shape: 6 64 250 250 (24000000)
I0718 14:33:55.737198 33942 net.cpp:165] Memory required for data: 1224000072
I0718 14:33:55.737218 33942 layer_factory.hpp:76] Creating layer conv2/3x3
I0718 14:33:55.737246 33942 net.cpp:106] Creating Layer conv2/3x3
I0718 14:33:55.737272 33942 net.cpp:454] conv2/3x3 <- conv2/3x3_reduce
I0718 14:33:55.737294 33942 net.cpp:411] conv2/3x3 -> conv2/3x3
I0718 14:33:55.745790 33942 cudnn_conv_layer.cpp:194] Reallocating workspace storage: 6912
I0718 14:33:55.746606 33942 net.cpp:150] Setting up conv2/3x3
I0718 14:33:55.746665 33942 net.cpp:157] Top shape: 6 192 250 250 (72000000)
I0718 14:33:55.746687 33942 net.cpp:165] Memory required for data: 1512000072
I0718 14:33:55.746723 33942 layer_factory.hpp:76] Creating layer conv2/relu_3x3
I0718 14:33:55.746757 33942 net.cpp:106] Creating Layer conv2/relu_3x3
I0718 14:33:55.746776 33942 net.cpp:454] conv2/relu_3x3 <- conv2/3x3
I0718 14:33:55.746801 33942 net.cpp:397] conv2/relu_3x3 -> conv2/3x3 (in-place)
I0718 14:33:55.747637 33942 net.cpp:150] Setting up conv2/relu_3x3
I0718 14:33:55.747678 33942 net.cpp:157] Top shape: 6 192 250 250 (72000000)
I0718 14:33:55.747694 33942 net.cpp:165] Memory required for data: 1800000072
I0718 14:33:55.747714 33942 layer_factory.hpp:76] Creating layer conv2/norm2
I0718 14:33:55.747741 33942 net.cpp:106] Creating Layer conv2/norm2
I0718 14:33:55.747756 33942 net.cpp:454] conv2/norm2 <- conv2/3x3
I0718 14:33:55.747781 33942 net.cpp:411] conv2/norm2 -> conv2/norm2
I0718 14:33:55.750107 33942 net.cpp:150] Setting up conv2/norm2
I0718 14:33:55.750177 33942 net.cpp:157] Top shape: 6 192 250 250 (72000000)
I0718 14:33:55.750290 33942 net.cpp:165] Memory required for data: 2088000072
I0718 14:33:55.750308 33942 layer_factory.hpp:76] Creating layer pool2/3x3_s2
I0718 14:33:55.750334 33942 net.cpp:106] Creating Layer pool2/3x3_s2
I0718 14:33:55.750349 33942 net.cpp:454] pool2/3x3_s2 <- conv2/norm2
I0718 14:33:55.750377 33942 net.cpp:411] pool2/3x3_s2 -> pool2/3x3_s2
I0718 14:33:55.752449 33942 net.cpp:150] Setting up pool2/3x3_s2
I0718 14:33:55.752517 33942 net.cpp:157] Top shape: 6 192 125 125 (18000000)
I0718 14:33:55.752535 33942 net.cpp:165] Memory required for data: 2160000072
I0718 14:33:55.752552 33942 layer_factory.hpp:76] Creating layer pool2/3x3_s2_pool2/3x3_s2_0_split
I0718 14:33:55.752583 33942 net.cpp:106] Creating Layer pool2/3x3_s2_pool2/3x3_s2_0_split
I0718 14:33:55.752596 33942 net.cpp:454] pool2/3x3_s2_pool2/3x3_s2_0_split <- pool2/3x3_s2
I0718 14:33:55.752612 33942 net.cpp:411] pool2/3x3_s2_pool2/3x3_s2_0_split -> pool2/3x3_s2_pool2/3x3_s2_0_split_0
I0718 14:33:55.752635 33942 net.cpp:411] pool2/3x3_s2_pool2/3x3_s2_0_split -> pool2/3x3_s2_pool2/3x3_s2_0_split_1
I0718 14:33:55.752651 33942 net.cpp:411] pool2/3x3_s2_pool2/3x3_s2_0_split -> pool2/3x3_s2_pool2/3x3_s2_0_split_2
I0718 14:33:55.752671 33942 net.cpp:411] pool2/3x3_s2_pool2/3x3_s2_0_split -> pool2/3x3_s2_pool2/3x3_s2_0_split_3
I0718 14:33:55.752763 33942 net.cpp:150] Setting up pool2/3x3_s2_pool2/3x3_s2_0_split
I0718 14:33:55.752789 33942 net.cpp:157] Top shape: 6 192 125 125 (18000000)
I0718 14:33:55.752805 33942 net.cpp:157] Top shape: 6 192 125 125 (18000000)
I0718 14:33:55.752820 33942 net.cpp:157] Top shape: 6 192 125 125 (18000000)
I0718 14:33:55.752835 33942 net.cpp:157] Top shape: 6 192 125 125 (18000000)
I0718 14:33:55.752848 33942 net.cpp:165] Memory required for data: 2448000072
I0718 14:33:55.752866 33942 layer_factory.hpp:76] Creating layer inception_3a/1x1
I0718 14:33:55.752894 33942 net.cpp:106] Creating Layer inception_3a/1x1
I0718 14:33:55.752908 33942 net.cpp:454] inception_3a/1x1 <- pool2/3x3_s2_pool2/3x3_s2_0_split_0
I0718 14:33:55.752928 33942 net.cpp:411] inception_3a/1x1 -> inception_3a/1x1
I0718 14:33:55.759946 33942 cudnn_conv_layer.cpp:194] Reallocating workspace storage: 2304
I0718 14:33:55.760753 33942 net.cpp:150] Setting up inception_3a/1x1
I0718 14:33:55.760788 33942 net.cpp:157] Top shape: 6 64 125 125 (6000000)
I0718 14:33:55.760810 33942 net.cpp:165] Memory required for data: 2472000072
I0718 14:33:55.760836 33942 layer_factory.hpp:76] Creating layer inception_3a/relu_1x1
I0718 14:33:55.760869 33942 net.cpp:106] Creating Layer inception_3a/relu_1x1
I0718 14:33:55.760893 33942 net.cpp:454] inception_3a/relu_1x1 <- inception_3a/1x1
I0718 14:33:55.760922 33942 net.cpp:397] inception_3a/relu_1x1 -> inception_3a/1x1 (in-place)
I0718 14:33:55.762827 33942 net.cpp:150] Setting up inception_3a/relu_1x1
I0718 14:33:55.762929 33942 net.cpp:157] Top shape: 6 64 125 125 (6000000)
I0718 14:33:55.762944 33942 net.cpp:165] Memory required for data: 2496000072
I0718 14:33:55.762962 33942 layer_factory.hpp:76] Creating layer inception_3a/3x3_reduce
I0718 14:33:55.763005 33942 net.cpp:106] Creating Layer inception_3a/3x3_reduce
I0718 14:33:55.763027 33942 net.cpp:454] inception_3a/3x3_reduce <- pool2/3x3_s2_pool2/3x3_s2_0_split_1
I0718 14:33:55.763051 33942 net.cpp:411] inception_3a/3x3_reduce -> inception_3a/3x3_reduce
I0718 14:33:55.770922 33942 cudnn_conv_layer.cpp:194] Reallocating workspace storage: 2304
I0718 14:33:55.771075 33942 net.cpp:150] Setting up inception_3a/3x3_reduce
I0718 14:33:55.771109 33942 net.cpp:157] Top shape: 6 96 125 125 (9000000)
I0718 14:33:55.771136 33942 net.cpp:165] Memory required for data: 2532000072
I0718 14:33:55.771168 33942 layer_factory.hpp:76] Creating layer inception_3a/relu_3x3_reduce
I0718 14:33:55.771217 33942 net.cpp:106] Creating Layer inception_3a/relu_3x3_reduce
I0718 14:33:55.771237 33942 net.cpp:454] inception_3a/relu_3x3_reduce <- inception_3a/3x3_reduce
I0718 14:33:55.771258 33942 net.cpp:397] inception_3a/relu_3x3_reduce -> inception_3a/3x3_reduce (in-place)
I0718 14:33:55.772990 33942 net.cpp:150] Setting up inception_3a/relu_3x3_reduce
I0718 14:33:55.773069 33942 net.cpp:157] Top shape: 6 96 125 125 (9000000)
I0718 14:33:55.773085 33942 net.cpp:165] Memory required for data: 2568000072
I0718 14:33:55.773103 33942 layer_factory.hpp:76] Creating layer inception_3a/3x3
I0718 14:33:55.773138 33942 net.cpp:106] Creating Layer inception_3a/3x3
I0718 14:33:55.773155 33942 net.cpp:454] inception_3a/3x3 <- inception_3a/3x3_reduce
I0718 14:33:55.773190 33942 net.cpp:411] inception_3a/3x3 -> inception_3a/3x3
I0718 14:33:55.782513 33942 cudnn_conv_layer.cpp:194] Reallocating workspace storage: 10368
I0718 14:33:55.782670 33942 net.cpp:150] Setting up inception_3a/3x3
I0718 14:33:55.782699 33942 net.cpp:157] Top shape: 6 128 125 125 (12000000)
I0718 14:33:55.782717 33942 net.cpp:165] Memory required for data: 2616000072
I0718 14:33:55.782743 33942 layer_factory.hpp:76] Creating layer inception_3a/relu_3x3
I0718 14:33:55.782784 33942 net.cpp:106] Creating Layer inception_3a/relu_3x3
I0718 14:33:55.782805 33942 net.cpp:454] inception_3a/relu_3x3 <- inception_3a/3x3
I0718 14:33:55.782825 33942 net.cpp:397] inception_3a/relu_3x3 -> inception_3a/3x3 (in-place)
I0718 14:33:55.784740 33942 net.cpp:150] Setting up inception_3a/relu_3x3
I0718 14:33:55.784826 33942 net.cpp:157] Top shape: 6 128 125 125 (12000000)
I0718 14:33:55.784843 33942 net.cpp:165] Memory required for data: 2664000072
I0718 14:33:55.784862 33942 layer_factory.hpp:76] Creating layer inception_3a/5x5_reduce
I0718 14:33:55.784914 33942 net.cpp:106] Creating Layer inception_3a/5x5_reduce
I0718 14:33:55.784936 33942 net.cpp:454] inception_3a/5x5_reduce <- pool2/3x3_s2_pool2/3x3_s2_0_split_2
I0718 14:33:55.784962 33942 net.cpp:411] inception_3a/5x5_reduce -> inception_3a/5x5_reduce
I0718 14:33:55.792230 33942 net.cpp:150] Setting up inception_3a/5x5_reduce
I0718 14:33:55.792347 33942 net.cpp:157] Top shape: 6 16 125 125 (1500000)
I0718 14:33:55.792366 33942 net.cpp:165] Memory required for data: 2670000072
I0718 14:33:55.792394 33942 layer_factory.hpp:76] Creating layer inception_3a/relu_5x5_reduce
I0718 14:33:55.792423 33942 net.cpp:106] Creating Layer inception_3a/relu_5x5_reduce
I0718 14:33:55.792440 33942 net.cpp:454] inception_3a/relu_5x5_reduce <- inception_3a/5x5_reduce
I0718 14:33:55.792464 33942 net.cpp:397] inception_3a/relu_5x5_reduce -> inception_3a/5x5_reduce (in-place)
I0718 14:33:55.794028 33942 net.cpp:150] Setting up inception_3a/relu_5x5_reduce
I0718 14:33:55.794121 33942 net.cpp:157] Top shape: 6 16 125 125 (1500000)
I0718 14:33:55.794138 33942 net.cpp:165] Memory required for data: 2676000072
I0718 14:33:55.794157 33942 layer_factory.hpp:76] Creating layer inception_3a/5x5
I0718 14:33:55.794188 33942 net.cpp:106] Creating Layer inception_3a/5x5
I0718 14:33:55.794209 33942 net.cpp:454] inception_3a/5x5 <- inception_3a/5x5_reduce
I0718 14:33:55.794234 33942 net.cpp:411] inception_3a/5x5 -> inception_3a/5x5
I0718 14:33:55.805670 33942 cudnn_conv_layer.cpp:194] Reallocating workspace storage: 4800
I0718 14:33:55.805894 33942 net.cpp:150] Setting up inception_3a/5x5
I0718 14:33:55.805937 33942 net.cpp:157] Top shape: 6 32 125 125 (3000000)
I0718 14:33:55.805975 33942 net.cpp:165] Memory required for data: 2688000072
I0718 14:33:55.806030 33942 layer_factory.hpp:76] Creating layer inception_3a/relu_5x5
I0718 14:33:55.806092 33942 net.cpp:106] Creating Layer inception_3a/relu_5x5
I0718 14:33:55.806123 33942 net.cpp:454] inception_3a/relu_5x5 <- inception_3a/5x5
I0718 14:33:55.806161 33942 net.cpp:397] inception_3a/relu_5x5 -> inception_3a/5x5 (in-place)
I0718 14:33:55.809110 33942 net.cpp:150] Setting up inception_3a/relu_5x5
I0718 14:33:55.809240 33942 net.cpp:157] Top shape: 6 32 125 125 (3000000)
I0718 14:33:55.809262 33942 net.cpp:165] Memory required for data: 2700000072
I0718 14:33:55.809281 33942 layer_factory.hpp:76] Creating layer inception_3a/pool
I0718 14:33:55.809320 33942 net.cpp:106] Creating Layer inception_3a/pool
I0718 14:33:55.809348 33942 net.cpp:454] inception_3a/pool <- pool2/3x3_s2_pool2/3x3_s2_0_split_3
I0718 14:33:55.809476 33942 net.cpp:411] inception_3a/pool -> inception_3a/pool
I0718 14:33:55.812954 33942 net.cpp:150] Setting up inception_3a/pool
I0718 14:33:55.813060 33942 net.cpp:157] Top shape: 6 192 125 125 (18000000)
I0718 14:33:55.813076 33942 net.cpp:165] Memory required for data: 2772000072
I0718 14:33:55.813097 33942 layer_factory.hpp:76] Creating layer inception_3a/pool_proj
I0718 14:33:55.813143 33942 net.cpp:106] Creating Layer inception_3a/pool_proj
I0718 14:33:55.813164 33942 net.cpp:454] inception_3a/pool_proj <- inception_3a/pool
I0718 14:33:55.813196 33942 net.cpp:411] inception_3a/pool_proj -> inception_3a/pool_proj
I0718 14:33:55.820487 33942 net.cpp:150] Setting up inception_3a/pool_proj
I0718 14:33:55.820571 33942 net.cpp:157] Top shape: 6 32 125 125 (3000000)
I0718 14:33:55.820587 33942 net.cpp:165] Memory required for data: 2784000072
I0718 14:33:55.820627 33942 layer_factory.hpp:76] Creating layer inception_3a/relu_pool_proj
I0718 14:33:55.820655 33942 net.cpp:106] Creating Layer inception_3a/relu_pool_proj
I0718 14:33:55.820677 33942 net.cpp:454] inception_3a/relu_pool_proj <- inception_3a/pool_proj
I0718 14:33:55.820695 33942 net.cpp:397] inception_3a/relu_pool_proj -> inception_3a/pool_proj (in-place)
I0718 14:33:55.822717 33942 net.cpp:150] Setting up inception_3a/relu_pool_proj
I0718 14:33:55.822820 33942 net.cpp:157] Top shape: 6 32 125 125 (3000000)
I0718 14:33:55.822835 33942 net.cpp:165] Memory required for data: 2796000072
I0718 14:33:55.822852 33942 layer_factory.hpp:76] Creating layer inception_3a/output
I0718 14:33:55.822896 33942 net.cpp:106] Creating Layer inception_3a/output
I0718 14:33:55.822914 33942 net.cpp:454] inception_3a/output <- inception_3a/1x1
I0718 14:33:55.822939 33942 net.cpp:454] inception_3a/output <- inception_3a/3x3
I0718 14:33:55.822957 33942 net.cpp:454] inception_3a/output <- inception_3a/5x5
I0718 14:33:55.822973 33942 net.cpp:454] inception_3a/output <- inception_3a/pool_proj
I0718 14:33:55.822990 33942 net.cpp:411] inception_3a/output -> inception_3a/output
I0718 14:33:55.823107 33942 net.cpp:150] Setting up inception_3a/output
I0718 14:33:55.823143 33942 net.cpp:157] Top shape: 6 256 125 125 (24000000)
I0718 14:33:55.823158 33942 net.cpp:165] Memory required for data: 2892000072
I0718 14:33:55.823171 33942 layer_factory.hpp:76] Creating layer inception_3a/output_inception_3a/output_0_split
I0718 14:33:55.823192 33942 net.cpp:106] Creating Layer inception_3a/output_inception_3a/output_0_split
I0718 14:33:55.823206 33942 net.cpp:454] inception_3a/output_inception_3a/output_0_split <- inception_3a/output
I0718 14:33:55.823223 33942 net.cpp:411] inception_3a/output_inception_3a/output_0_split -> inception_3a/output_inception_3a/output_0_split_0
I0718 14:33:55.823242 33942 net.cpp:411] inception_3a/output_inception_3a/output_0_split -> inception_3a/output_inception_3a/output_0_split_1
I0718 14:33:55.823266 33942 net.cpp:411] inception_3a/output_inception_3a/output_0_split -> inception_3a/output_inception_3a/output_0_split_2
I0718 14:33:55.823283 33942 net.cpp:411] inception_3a/output_inception_3a/output_0_split -> inception_3a/output_inception_3a/output_0_split_3
I0718 14:33:55.823402 33942 net.cpp:150] Setting up inception_3a/output_inception_3a/output_0_split
I0718 14:33:55.823431 33942 net.cpp:157] Top shape: 6 256 125 125 (24000000)
I0718 14:33:55.823447 33942 net.cpp:157] Top shape: 6 256 125 125 (24000000)
I0718 14:33:55.823463 33942 net.cpp:157] Top shape: 6 256 125 125 (24000000)
I0718 14:33:55.823477 33942 net.cpp:157] Top shape: 6 256 125 125 (24000000)
I0718 14:33:55.823490 33942 net.cpp:165] Memory required for data: 3276000072
I0718 14:33:55.823508 33942 layer_factory.hpp:76] Creating layer inception_3b/1x1
I0718 14:33:55.823542 33942 net.cpp:106] Creating Layer inception_3b/1x1
I0718 14:33:55.823559 33942 net.cpp:454] inception_3b/1x1 <- inception_3a/output_inception_3a/output_0_split_0
I0718 14:33:55.823585 33942 net.cpp:411] inception_3b/1x1 -> inception_3b/1x1
I0718 14:33:55.830250 33942 cudnn_conv_layer.cpp:194] Reallocating workspace storage: 3072
I0718 14:33:55.830482 33942 net.cpp:150] Setting up inception_3b/1x1
I0718 14:33:55.830507 33942 net.cpp:157] Top shape: 6 128 125 125 (12000000)
I0718 14:33:55.830534 33942 net.cpp:165] Memory required for data: 3324000072
I0718 14:33:55.830560 33942 layer_factory.hpp:76] Creating layer inception_3b/relu_1x1
I0718 14:33:55.830590 33942 net.cpp:106] Creating Layer inception_3b/relu_1x1
I0718 14:33:55.830618 33942 net.cpp:454] inception_3b/relu_1x1 <- inception_3b/1x1
I0718 14:33:55.830654 33942 net.cpp:397] inception_3b/relu_1x1 -> inception_3b/1x1 (in-place)
I0718 14:33:55.832461 33942 net.cpp:150] Setting up inception_3b/relu_1x1
I0718 14:33:55.832525 33942 net.cpp:157] Top shape: 6 128 125 125 (12000000)
I0718 14:33:55.832538 33942 net.cpp:165] Memory required for data: 3372000072
I0718 14:33:55.832554 33942 layer_factory.hpp:76] Creating layer inception_3b/3x3_reduce
I0718 14:33:55.832594 33942 net.cpp:106] Creating Layer inception_3b/3x3_reduce
I0718 14:33:55.832610 33942 net.cpp:454] inception_3b/3x3_reduce <- inception_3a/output_inception_3a/output_0_split_1
I0718 14:33:55.832633 33942 net.cpp:411] inception_3b/3x3_reduce -> inception_3b/3x3_reduce
I0718 14:33:55.839956 33942 cudnn_conv_layer.cpp:194] Reallocating workspace storage: 3072
I0718 14:33:55.840056 33942 net.cpp:150] Setting up inception_3b/3x3_reduce
I0718 14:33:55.840080 33942 net.cpp:157] Top shape: 6 128 125 125 (12000000)
I0718 14:33:55.840095 33942 net.cpp:165] Memory required for data: 3420000072
I0718 14:33:55.840116 33942 layer_factory.hpp:76] Creating layer inception_3b/relu_3x3_reduce
I0718 14:33:55.840142 33942 net.cpp:106] Creating Layer inception_3b/relu_3x3_reduce
I0718 14:33:55.840170 33942 net.cpp:454] inception_3b/relu_3x3_reduce <- inception_3b/3x3_reduce
I0718 14:33:55.840189 33942 net.cpp:397] inception_3b/relu_3x3_reduce -> inception_3b/3x3_reduce (in-place)
I0718 14:33:55.842411 33942 net.cpp:150] Setting up inception_3b/relu_3x3_reduce
I0718 14:33:55.842442 33942 net.cpp:157] Top shape: 6 128 125 125 (12000000)
I0718 14:33:55.842455 33942 net.cpp:165] Memory required for data: 3468000072
I0718 14:33:55.842471 33942 layer_factory.hpp:76] Creating layer inception_3b/3x3
I0718 14:33:55.842527 33942 net.cpp:106] Creating Layer inception_3b/3x3
I0718 14:33:55.842542 33942 net.cpp:454] inception_3b/3x3 <- inception_3b/3x3_reduce
I0718 14:33:55.842562 33942 net.cpp:411] inception_3b/3x3 -> inception_3b/3x3
I0718 14:33:55.850200 33942 cudnn_conv_layer.cpp:194] Reallocating workspace storage: 13824
I0718 14:33:55.850284 33942 net.cpp:150] Setting up inception_3b/3x3
I0718 14:33:55.850308 33942 net.cpp:157] Top shape: 6 192 125 125 (18000000)
I0718 14:33:55.850327 33942 net.cpp:165] Memory required for data: 3540000072
I0718 14:33:55.850348 33942 layer_factory.hpp:76] Creating layer inception_3b/relu_3x3
I0718 14:33:55.850376 33942 net.cpp:106] Creating Layer inception_3b/relu_3x3
I0718 14:33:55.850395 33942 net.cpp:454] inception_3b/relu_3x3 <- inception_3b/3x3
I0718 14:33:55.850416 33942 net.cpp:397] inception_3b/relu_3x3 -> inception_3b/3x3 (in-place)
I0718 14:33:55.852624 33942 net.cpp:150] Setting up inception_3b/relu_3x3
I0718 14:33:55.852658 33942 net.cpp:157] Top shape: 6 192 125 125 (18000000)
I0718 14:33:55.852675 33942 net.cpp:165] Memory required for data: 3612000072
I0718 14:33:55.852689 33942 layer_factory.hpp:76] Creating layer inception_3b/5x5_reduce
I0718 14:33:55.852723 33942 net.cpp:106] Creating Layer inception_3b/5x5_reduce
I0718 14:33:55.852738 33942 net.cpp:454] inception_3b/5x5_reduce <- inception_3a/output_inception_3a/output_0_split_2
I0718 14:33:55.852758 33942 net.cpp:411] inception_3b/5x5_reduce -> inception_3b/5x5_reduce
I0718 14:33:55.859906 33942 net.cpp:150] Setting up inception_3b/5x5_reduce
I0718 14:33:55.860044 33942 net.cpp:157] Top shape: 6 32 125 125 (3000000)
I0718 14:33:55.860069 33942 net.cpp:165] Memory required for data: 3624000072
I0718 14:33:55.860098 33942 layer_factory.hpp:76] Creating layer inception_3b/relu_5x5_reduce
I0718 14:33:55.860141 33942 net.cpp:106] Creating Layer inception_3b/relu_5x5_reduce
I0718 14:33:55.860267 33942 net.cpp:454] inception_3b/relu_5x5_reduce <- inception_3b/5x5_reduce
I0718 14:33:55.860298 33942 net.cpp:397] inception_3b/relu_5x5_reduce -> inception_3b/5x5_reduce (in-place)
I0718 14:33:55.861946 33942 net.cpp:150] Setting up inception_3b/relu_5x5_reduce
I0718 14:33:55.861994 33942 net.cpp:157] Top shape: 6 32 125 125 (3000000)
I0718 14:33:55.862011 33942 net.cpp:165] Memory required for data: 3636000072
I0718 14:33:55.862028 33942 layer_factory.hpp:76] Creating layer inception_3b/5x5
I0718 14:33:55.862076 33942 net.cpp:106] Creating Layer inception_3b/5x5
I0718 14:33:55.862095 33942 net.cpp:454] inception_3b/5x5 <- inception_3b/5x5_reduce
I0718 14:33:55.862120 33942 net.cpp:411] inception_3b/5x5 -> inception_3b/5x5
I0718 14:33:55.870560 33942 net.cpp:150] Setting up inception_3b/5x5
I0718 14:33:55.870721 33942 net.cpp:157] Top shape: 6 96 125 125 (9000000)
I0718 14:33:55.870748 33942 net.cpp:165] Memory required for data: 3672000072
I0718 14:33:55.870775 33942 layer_factory.hpp:76] Creating layer inception_3b/relu_5x5
I0718 14:33:55.870813 33942 net.cpp:106] Creating Layer inception_3b/relu_5x5
I0718 14:33:55.870841 33942 net.cpp:454] inception_3b/relu_5x5 <- inception_3b/5x5
I0718 14:33:55.870862 33942 net.cpp:397] inception_3b/relu_5x5 -> inception_3b/5x5 (in-place)
I0718 14:33:55.872050 33942 net.cpp:150] Setting up inception_3b/relu_5x5
I0718 14:33:55.872118 33942 net.cpp:157] Top shape: 6 96 125 125 (9000000)
I0718 14:33:55.872143 33942 net.cpp:165] Memory required for data: 3708000072
I0718 14:33:55.872164 33942 layer_factory.hpp:76] Creating layer inception_3b/pool
I0718 14:33:55.872202 33942 net.cpp:106] Creating Layer inception_3b/pool
I0718 14:33:55.872225 33942 net.cpp:454] inception_3b/pool <- inception_3a/output_inception_3a/output_0_split_3
I0718 14:33:55.872248 33942 net.cpp:411] inception_3b/pool -> inception_3b/pool
I0718 14:33:55.874430 33942 net.cpp:150] Setting up inception_3b/pool
I0718 14:33:55.874524 33942 net.cpp:157] Top shape: 6 256 125 125 (24000000)
I0718 14:33:55.874548 33942 net.cpp:165] Memory required for data: 3804000072
I0718 14:33:55.874572 33942 layer_factory.hpp:76] Creating layer inception_3b/pool_proj
I0718 14:33:55.874614 33942 net.cpp:106] Creating Layer inception_3b/pool_proj
I0718 14:33:55.874651 33942 net.cpp:454] inception_3b/pool_proj <- inception_3b/pool
I0718 14:33:55.874688 33942 net.cpp:411] inception_3b/pool_proj -> inception_3b/pool_proj
I0718 14:33:55.882663 33942 net.cpp:150] Setting up inception_3b/pool_proj
I0718 14:33:55.882779 33942 net.cpp:157] Top shape: 6 64 125 125 (6000000)
I0718 14:33:55.882802 33942 net.cpp:165] Memory required for data: 3828000072
I0718 14:33:55.882833 33942 layer_factory.hpp:76] Creating layer inception_3b/relu_pool_proj
I0718 14:33:55.882872 33942 net.cpp:106] Creating Layer inception_3b/relu_pool_proj
I0718 14:33:55.882899 33942 net.cpp:454] inception_3b/relu_pool_proj <- inception_3b/pool_proj
I0718 14:33:55.882951 33942 net.cpp:397] inception_3b/relu_pool_proj -> inception_3b/pool_proj (in-place)
I0718 14:33:55.883991 33942 net.cpp:150] Setting up inception_3b/relu_pool_proj
I0718 14:33:55.884042 33942 net.cpp:157] Top shape: 6 64 125 125 (6000000)
I0718 14:33:55.884065 33942 net.cpp:165] Memory required for data: 3852000072
I0718 14:33:55.884088 33942 layer_factory.hpp:76] Creating layer inception_3b/output
I0718 14:33:55.884114 33942 net.cpp:106] Creating Layer inception_3b/output
I0718 14:33:55.884136 33942 net.cpp:454] inception_3b/output <- inception_3b/1x1
I0718 14:33:55.884178 33942 net.cpp:454] inception_3b/output <- inception_3b/3x3
I0718 14:33:55.884207 33942 net.cpp:454] inception_3b/output <- inception_3b/5x5
I0718 14:33:55.884224 33942 net.cpp:454] inception_3b/output <- inception_3b/pool_proj
I0718 14:33:55.884245 33942 net.cpp:411] inception_3b/output -> inception_3b/output
I0718 14:33:55.884354 33942 net.cpp:150] Setting up inception_3b/output
I0718 14:33:55.884387 33942 net.cpp:157] Top shape: 6 480 125 125 (45000000)
I0718 14:33:55.884402 33942 net.cpp:165] Memory required for data: 4032000072
I0718 14:33:55.884516 33942 layer_factory.hpp:76] Creating layer pool3/3x3_s2
I0718 14:33:55.884547 33942 net.cpp:106] Creating Layer pool3/3x3_s2
I0718 14:33:55.884564 33942 net.cpp:454] pool3/3x3_s2 <- inception_3b/output
I0718 14:33:55.884593 33942 net.cpp:411] pool3/3x3_s2 -> pool3/3x3_s2
I0718 14:33:55.886498 33942 net.cpp:150] Setting up pool3/3x3_s2
I0718 14:33:55.886591 33942 net.cpp:157] Top shape: 6 480 62 62 (11070720)
I0718 14:33:55.886621 33942 net.cpp:165] Memory required for data: 4076282952
I0718 14:33:55.886652 33942 layer_factory.hpp:76] Creating layer pool3/3x3_s2_pool3/3x3_s2_0_split
I0718 14:33:55.886687 33942 net.cpp:106] Creating Layer pool3/3x3_s2_pool3/3x3_s2_0_split
I0718 14:33:55.886708 33942 net.cpp:454] pool3/3x3_s2_pool3/3x3_s2_0_split <- pool3/3x3_s2
I0718 14:33:55.886757 33942 net.cpp:411] pool3/3x3_s2_pool3/3x3_s2_0_split -> pool3/3x3_s2_pool3/3x3_s2_0_split_0
I0718 14:33:55.886795 33942 net.cpp:411] pool3/3x3_s2_pool3/3x3_s2_0_split -> pool3/3x3_s2_pool3/3x3_s2_0_split_1
I0718 14:33:55.886827 33942 net.cpp:411] pool3/3x3_s2_pool3/3x3_s2_0_split -> pool3/3x3_s2_pool3/3x3_s2_0_split_2
I0718 14:33:55.886859 33942 net.cpp:411] pool3/3x3_s2_pool3/3x3_s2_0_split -> pool3/3x3_s2_pool3/3x3_s2_0_split_3
I0718 14:33:55.887032 33942 net.cpp:150] Setting up pool3/3x3_s2_pool3/3x3_s2_0_split
I0718 14:33:55.887068 33942 net.cpp:157] Top shape: 6 480 62 62 (11070720)
I0718 14:33:55.887086 33942 net.cpp:157] Top shape: 6 480 62 62 (11070720)
I0718 14:33:55.887104 33942 net.cpp:157] Top shape: 6 480 62 62 (11070720)
I0718 14:33:55.887121 33942 net.cpp:157] Top shape: 6 480 62 62 (11070720)
I0718 14:33:55.887141 33942 net.cpp:165] Memory required for data: 4253414472
I0718 14:33:55.887158 33942 layer_factory.hpp:76] Creating layer inception_4a/1x1
I0718 14:33:55.887199 33942 net.cpp:106] Creating Layer inception_4a/1x1
I0718 14:33:55.887220 33942 net.cpp:454] inception_4a/1x1 <- pool3/3x3_s2_pool3/3x3_s2_0_split_0
I0718 14:33:55.887243 33942 net.cpp:411] inception_4a/1x1 -> inception_4a/1x1
I0718 14:33:55.893846 33942 cudnn_conv_layer.cpp:194] Reallocating workspace storage: 5760
I0718 14:33:55.893996 33942 net.cpp:150] Setting up inception_4a/1x1
I0718 14:33:55.894049 33942 net.cpp:157] Top shape: 6 192 62 62 (4428288)
I0718 14:33:55.894075 33942 net.cpp:165] Memory required for data: 4271127624
I0718 14:33:55.894127 33942 layer_factory.hpp:76] Creating layer inception_4a/relu_1x1
I0718 14:33:55.894176 33942 net.cpp:106] Creating Layer inception_4a/relu_1x1
I0718 14:33:55.894199 33942 net.cpp:454] inception_4a/relu_1x1 <- inception_4a/1x1
I0718 14:33:55.894222 33942 net.cpp:397] inception_4a/relu_1x1 -> inception_4a/1x1 (in-place)
I0718 14:33:55.895859 33942 net.cpp:150] Setting up inception_4a/relu_1x1
I0718 14:33:55.895921 33942 net.cpp:157] Top shape: 6 192 62 62 (4428288)
I0718 14:33:55.895946 33942 net.cpp:165] Memory required for data: 4288840776
I0718 14:33:55.895972 33942 layer_factory.hpp:76] Creating layer inception_4a/3x3_reduce
I0718 14:33:55.896016 33942 net.cpp:106] Creating Layer inception_4a/3x3_reduce
I0718 14:33:55.896042 33942 net.cpp:454] inception_4a/3x3_reduce <- pool3/3x3_s2_pool3/3x3_s2_0_split_1
I0718 14:33:55.896069 33942 net.cpp:411] inception_4a/3x3_reduce -> inception_4a/3x3_reduce
I0718 14:33:55.903323 33942 cudnn_conv_layer.cpp:194] Reallocating workspace storage: 5760
I0718 14:33:55.903507 33942 net.cpp:150] Setting up inception_4a/3x3_reduce
I0718 14:33:55.903554 33942 net.cpp:157] Top shape: 6 96 62 62 (2214144)
I0718 14:33:55.903578 33942 net.cpp:165] Memory required for data: 4297697352
I0718 14:33:55.903636 33942 layer_factory.hpp:76] Creating layer inception_4a/relu_3x3_reduce
I0718 14:33:55.903687 33942 net.cpp:106] Creating Layer inception_4a/relu_3x3_reduce
I0718 14:33:55.903714 33942 net.cpp:454] inception_4a/relu_3x3_reduce <- inception_4a/3x3_reduce
I0718 14:33:55.903736 33942 net.cpp:397] inception_4a/relu_3x3_reduce -> inception_4a/3x3_reduce (in-place)
I0718 14:33:55.905535 33942 net.cpp:150] Setting up inception_4a/relu_3x3_reduce
I0718 14:33:55.905711 33942 net.cpp:157] Top shape: 6 96 62 62 (2214144)
I0718 14:33:55.905737 33942 net.cpp:165] Memory required for data: 4306553928
I0718 14:33:55.905757 33942 layer_factory.hpp:76] Creating layer inception_4a/3x3
I0718 14:33:55.905802 33942 net.cpp:106] Creating Layer inception_4a/3x3
I0718 14:33:55.905829 33942 net.cpp:454] inception_4a/3x3 <- inception_4a/3x3_reduce
I0718 14:33:55.905871 33942 net.cpp:411] inception_4a/3x3 -> inception_4a/3x3
I0718 14:33:55.916669 33942 net.cpp:150] Setting up inception_4a/3x3
I0718 14:33:55.916793 33942 net.cpp:157] Top shape: 6 208 62 62 (4797312)
I0718 14:33:55.916815 33942 net.cpp:165] Memory required for data: 4325743176
I0718 14:33:55.916846 33942 layer_factory.hpp:76] Creating layer inception_4a/relu_3x3
I0718 14:33:55.916883 33942 net.cpp:106] Creating Layer inception_4a/relu_3x3
I0718 14:33:55.916906 33942 net.cpp:454] inception_4a/relu_3x3 <- inception_4a/3x3
I0718 14:33:55.916929 33942 net.cpp:397] inception_4a/relu_3x3 -> inception_4a/3x3 (in-place)
I0718 14:33:55.918699 33942 net.cpp:150] Setting up inception_4a/relu_3x3
I0718 14:33:55.918789 33942 net.cpp:157] Top shape: 6 208 62 62 (4797312)
I0718 14:33:55.918818 33942 net.cpp:165] Memory required for data: 4344932424
I0718 14:33:55.918843 33942 layer_factory.hpp:76] Creating layer inception_4a/5x5_reduce
I0718 14:33:55.918884 33942 net.cpp:106] Creating Layer inception_4a/5x5_reduce
I0718 14:33:55.918910 33942 net.cpp:454] inception_4a/5x5_reduce <- pool3/3x3_s2_pool3/3x3_s2_0_split_2
I0718 14:33:55.918943 33942 net.cpp:411] inception_4a/5x5_reduce -> inception_4a/5x5_reduce
I0718 14:33:55.928320 33942 cudnn_conv_layer.cpp:194] Reallocating workspace storage: 5760
I0718 14:33:55.928454 33942 net.cpp:150] Setting up inception_4a/5x5_reduce
I0718 14:33:55.928479 33942 net.cpp:157] Top shape: 6 16 62 62 (369024)
I0718 14:33:55.928491 33942 net.cpp:165] Memory required for data: 4346408520
I0718 14:33:55.928513 33942 layer_factory.hpp:76] Creating layer inception_4a/relu_5x5_reduce
I0718 14:33:55.928534 33942 net.cpp:106] Creating Layer inception_4a/relu_5x5_reduce
I0718 14:33:55.928551 33942 net.cpp:454] inception_4a/relu_5x5_reduce <- inception_4a/5x5_reduce
I0718 14:33:55.928571 33942 net.cpp:397] inception_4a/relu_5x5_reduce -> inception_4a/5x5_reduce (in-place)
I0718 14:33:55.930490 33942 net.cpp:150] Setting up inception_4a/relu_5x5_reduce
I0718 14:33:55.930554 33942 net.cpp:157] Top shape: 6 16 62 62 (369024)
I0718 14:33:55.930572 33942 net.cpp:165] Memory required for data: 4347884616
I0718 14:33:55.930595 33942 layer_factory.hpp:76] Creating layer inception_4a/5x5
I0718 14:33:55.930642 33942 net.cpp:106] Creating Layer inception_4a/5x5
I0718 14:33:55.930671 33942 net.cpp:454] inception_4a/5x5 <- inception_4a/5x5_reduce
I0718 14:33:55.930696 33942 net.cpp:411] inception_4a/5x5 -> inception_4a/5x5
I0718 14:33:55.938182 33942 net.cpp:150] Setting up inception_4a/5x5
I0718 14:33:55.938295 33942 net.cpp:157] Top shape: 6 48 62 62 (1107072)
I0718 14:33:55.938315 33942 net.cpp:165] Memory required for data: 4352312904
I0718 14:33:55.938339 33942 layer_factory.hpp:76] Creating layer inception_4a/relu_5x5
I0718 14:33:55.938377 33942 net.cpp:106] Creating Layer inception_4a/relu_5x5
I0718 14:33:55.938396 33942 net.cpp:454] inception_4a/relu_5x5 <- inception_4a/5x5
I0718 14:33:55.938416 33942 net.cpp:397] inception_4a/relu_5x5 -> inception_4a/5x5 (in-place)
I0718 14:33:55.940385 33942 net.cpp:150] Setting up inception_4a/relu_5x5
I0718 14:33:55.940486 33942 net.cpp:157] Top shape: 6 48 62 62 (1107072)
I0718 14:33:55.940500 33942 net.cpp:165] Memory required for data: 4356741192
I0718 14:33:55.940528 33942 layer_factory.hpp:76] Creating layer inception_4a/pool
I0718 14:33:55.940557 33942 net.cpp:106] Creating Layer inception_4a/pool
I0718 14:33:55.940575 33942 net.cpp:454] inception_4a/pool <- pool3/3x3_s2_pool3/3x3_s2_0_split_3
I0718 14:33:55.940606 33942 net.cpp:411] inception_4a/pool -> inception_4a/pool
I0718 14:33:55.942934 33942 net.cpp:150] Setting up inception_4a/pool
I0718 14:33:55.943012 33942 net.cpp:157] Top shape: 6 480 62 62 (11070720)
I0718 14:33:55.943090 33942 net.cpp:165] Memory required for data: 4401024072
I0718 14:33:55.943109 33942 layer_factory.hpp:76] Creating layer inception_4a/pool_proj
I0718 14:33:55.943150 33942 net.cpp:106] Creating Layer inception_4a/pool_proj
I0718 14:33:55.943168 33942 net.cpp:454] inception_4a/pool_proj <- inception_4a/pool
I0718 14:33:55.943191 33942 net.cpp:411] inception_4a/pool_proj -> inception_4a/pool_proj
I0718 14:33:55.951553 33942 net.cpp:150] Setting up inception_4a/pool_proj
I0718 14:33:55.951699 33942 net.cpp:157] Top shape: 6 64 62 62 (1476096)
I0718 14:33:55.951719 33942 net.cpp:165] Memory required for data: 4406928456
I0718 14:33:55.951758 33942 layer_factory.hpp:76] Creating layer inception_4a/relu_pool_proj
I0718 14:33:55.951808 33942 net.cpp:106] Creating Layer inception_4a/relu_pool_proj
I0718 14:33:55.951853 33942 net.cpp:454] inception_4a/relu_pool_proj <- inception_4a/pool_proj
I0718 14:33:55.951886 33942 net.cpp:397] inception_4a/relu_pool_proj -> inception_4a/pool_proj (in-place)
I0718 14:33:55.953196 33942 net.cpp:150] Setting up inception_4a/relu_pool_proj
I0718 14:33:55.953291 33942 net.cpp:157] Top shape: 6 64 62 62 (1476096)
I0718 14:33:55.953305 33942 net.cpp:165] Memory required for data: 4412832840
I0718 14:33:55.953323 33942 layer_factory.hpp:76] Creating layer inception_4a/output
I0718 14:33:55.953347 33942 net.cpp:106] Creating Layer inception_4a/output
I0718 14:33:55.953366 33942 net.cpp:454] inception_4a/output <- inception_4a/1x1
I0718 14:33:55.953388 33942 net.cpp:454] inception_4a/output <- inception_4a/3x3
I0718 14:33:55.953403 33942 net.cpp:454] inception_4a/output <- inception_4a/5x5
I0718 14:33:55.953421 33942 net.cpp:454] inception_4a/output <- inception_4a/pool_proj
I0718 14:33:55.953438 33942 net.cpp:411] inception_4a/output -> inception_4a/output
I0718 14:33:55.953531 33942 net.cpp:150] Setting up inception_4a/output
I0718 14:33:55.953552 33942 net.cpp:157] Top shape: 6 512 62 62 (11808768)
I0718 14:33:55.953567 33942 net.cpp:165] Memory required for data: 4460067912
I0718 14:33:55.953583 33942 layer_factory.hpp:76] Creating layer inception_4a/output_inception_4a/output_0_split
I0718 14:33:55.953603 33942 net.cpp:106] Creating Layer inception_4a/output_inception_4a/output_0_split
I0718 14:33:55.953618 33942 net.cpp:454] inception_4a/output_inception_4a/output_0_split <- inception_4a/output
I0718 14:33:55.953630 33942 net.cpp:411] inception_4a/output_inception_4a/output_0_split -> inception_4a/output_inception_4a/output_0_split_0
I0718 14:33:55.953647 33942 net.cpp:411] inception_4a/output_inception_4a/output_0_split -> inception_4a/output_inception_4a/output_0_split_1
I0718 14:33:55.953665 33942 net.cpp:411] inception_4a/output_inception_4a/output_0_split -> inception_4a/output_inception_4a/output_0_split_2
I0718 14:33:55.953680 33942 net.cpp:411] inception_4a/output_inception_4a/output_0_split -> inception_4a/output_inception_4a/output_0_split_3
I0718 14:33:55.953778 33942 net.cpp:150] Setting up inception_4a/output_inception_4a/output_0_split
I0718 14:33:55.953795 33942 net.cpp:157] Top shape: 6 512 62 62 (11808768)
I0718 14:33:55.953814 33942 net.cpp:157] Top shape: 6 512 62 62 (11808768)
I0718 14:33:55.953826 33942 net.cpp:157] Top shape: 6 512 62 62 (11808768)
I0718 14:33:55.953840 33942 net.cpp:157] Top shape: 6 512 62 62 (11808768)
I0718 14:33:55.953850 33942 net.cpp:165] Memory required for data: 4649008200
I0718 14:33:55.953860 33942 layer_factory.hpp:76] Creating layer inception_4b/1x1
I0718 14:33:55.953884 33942 net.cpp:106] Creating Layer inception_4b/1x1
I0718 14:33:55.953897 33942 net.cpp:454] inception_4b/1x1 <- inception_4a/output_inception_4a/output_0_split_0
I0718 14:33:55.953920 33942 net.cpp:411] inception_4b/1x1 -> inception_4b/1x1
I0718 14:33:55.964126 33942 net.cpp:150] Setting up inception_4b/1x1
I0718 14:33:55.964280 33942 net.cpp:157] Top shape: 6 160 62 62 (3690240)
I0718 14:33:55.964311 33942 net.cpp:165] Memory required for data: 4663769160
I0718 14:33:55.964354 33942 layer_factory.hpp:76] Creating layer inception_4b/relu_1x1
I0718 14:33:55.964510 33942 net.cpp:106] Creating Layer inception_4b/relu_1x1
I0718 14:33:55.964545 33942 net.cpp:454] inception_4b/relu_1x1 <- inception_4b/1x1
I0718 14:33:55.964567 33942 net.cpp:397] inception_4b/relu_1x1 -> inception_4b/1x1 (in-place)
I0718 14:33:55.965728 33942 net.cpp:150] Setting up inception_4b/relu_1x1
I0718 14:33:55.965843 33942 net.cpp:157] Top shape: 6 160 62 62 (3690240)
I0718 14:33:55.965867 33942 net.cpp:165] Memory required for data: 4678530120
I0718 14:33:55.965896 33942 layer_factory.hpp:76] Creating layer inception_4b/3x3_reduce
I0718 14:33:55.965947 33942 net.cpp:106] Creating Layer inception_4b/3x3_reduce
I0718 14:33:55.965975 33942 net.cpp:454] inception_4b/3x3_reduce <- inception_4a/output_inception_4a/output_0_split_1
I0718 14:33:55.966012 33942 net.cpp:411] inception_4b/3x3_reduce -> inception_4b/3x3_reduce
I0718 14:33:55.971952 33942 cudnn_conv_layer.cpp:194] Reallocating workspace storage: 6144
I0718 14:33:55.972097 33942 net.cpp:150] Setting up inception_4b/3x3_reduce
I0718 14:33:55.972136 33942 net.cpp:157] Top shape: 6 112 62 62 (2583168)
I0718 14:33:55.972153 33942 net.cpp:165] Memory required for data: 4688862792
I0718 14:33:55.972182 33942 layer_factory.hpp:76] Creating layer inception_4b/relu_3x3_reduce
I0718 14:33:55.972230 33942 net.cpp:106] Creating Layer inception_4b/relu_3x3_reduce
I0718 14:33:55.972264 33942 net.cpp:454] inception_4b/relu_3x3_reduce <- inception_4b/3x3_reduce
I0718 14:33:55.972286 33942 net.cpp:397] inception_4b/relu_3x3_reduce -> inception_4b/3x3_reduce (in-place)
I0718 14:33:55.974014 33942 net.cpp:150] Setting up inception_4b/relu_3x3_reduce
I0718 14:33:55.974149 33942 net.cpp:157] Top shape: 6 112 62 62 (2583168)
I0718 14:33:55.974177 33942 net.cpp:165] Memory required for data: 4699195464
I0718 14:33:55.974198 33942 layer_factory.hpp:76] Creating layer inception_4b/3x3
I0718 14:33:55.974269 33942 net.cpp:106] Creating Layer inception_4b/3x3
I0718 14:33:55.974305 33942 net.cpp:454] inception_4b/3x3 <- inception_4b/3x3_reduce
I0718 14:33:55.974329 33942 net.cpp:411] inception_4b/3x3 -> inception_4b/3x3
I0718 14:33:55.983640 33942 cudnn_conv_layer.cpp:194] Reallocating workspace storage: 12096
I0718 14:33:55.983762 33942 net.cpp:150] Setting up inception_4b/3x3
I0718 14:33:55.983800 33942 net.cpp:157] Top shape: 6 224 62 62 (5166336)
I0718 14:33:55.983820 33942 net.cpp:165] Memory required for data: 4719860808
I0718 14:33:55.983857 33942 layer_factory.hpp:76] Creating layer inception_4b/relu_3x3
I0718 14:33:55.983917 33942 net.cpp:106] Creating Layer inception_4b/relu_3x3
I0718 14:33:55.983944 33942 net.cpp:454] inception_4b/relu_3x3 <- inception_4b/3x3
I0718 14:33:55.983968 33942 net.cpp:397] inception_4b/relu_3x3 -> inception_4b/3x3 (in-place)
I0718 14:33:55.985716 33942 net.cpp:150] Setting up inception_4b/relu_3x3
I0718 14:33:55.985829 33942 net.cpp:157] Top shape: 6 224 62 62 (5166336)
I0718 14:33:55.985847 33942 net.cpp:165] Memory required for data: 4740526152
I0718 14:33:55.985867 33942 layer_factory.hpp:76] Creating layer inception_4b/5x5_reduce
I0718 14:33:55.985906 33942 net.cpp:106] Creating Layer inception_4b/5x5_reduce
I0718 14:33:55.985936 33942 net.cpp:454] inception_4b/5x5_reduce <- inception_4a/output_inception_4a/output_0_split_2
I0718 14:33:55.985965 33942 net.cpp:411] inception_4b/5x5_reduce -> inception_4b/5x5_reduce
I0718 14:33:55.993217 33942 net.cpp:150] Setting up inception_4b/5x5_reduce
I0718 14:33:55.993355 33942 net.cpp:157] Top shape: 6 24 62 62 (553536)
I0718 14:33:55.993374 33942 net.cpp:165] Memory required for data: 4742740296
I0718 14:33:55.993407 33942 layer_factory.hpp:76] Creating layer inception_4b/relu_5x5_reduce
I0718 14:33:55.993459 33942 net.cpp:106] Creating Layer inception_4b/relu_5x5_reduce
I0718 14:33:55.993489 33942 net.cpp:454] inception_4b/relu_5x5_reduce <- inception_4b/5x5_reduce
I0718 14:33:55.993510 33942 net.cpp:397] inception_4b/relu_5x5_reduce -> inception_4b/5x5_reduce (in-place)
I0718 14:33:55.995331 33942 net.cpp:150] Setting up inception_4b/relu_5x5_reduce
I0718 14:33:55.995565 33942 net.cpp:157] Top shape: 6 24 62 62 (553536)
I0718 14:33:55.995590 33942 net.cpp:165] Memory required for data: 4744954440
I0718 14:33:55.995612 33942 layer_factory.hpp:76] Creating layer inception_4b/5x5
I0718 14:33:55.995651 33942 net.cpp:106] Creating Layer inception_4b/5x5
I0718 14:33:55.995681 33942 net.cpp:454] inception_4b/5x5 <- inception_4b/5x5_reduce
I0718 14:33:55.995713 33942 net.cpp:411] inception_4b/5x5 -> inception_4b/5x5
I0718 14:33:56.002838 33942 net.cpp:150] Setting up inception_4b/5x5
I0718 14:33:56.002946 33942 net.cpp:157] Top shape: 6 64 62 62 (1476096)
I0718 14:33:56.002969 33942 net.cpp:165] Memory required for data: 4750858824
I0718 14:33:56.003005 33942 layer_factory.hpp:76] Creating layer inception_4b/relu_5x5
I0718 14:33:56.003056 33942 net.cpp:106] Creating Layer inception_4b/relu_5x5
I0718 14:33:56.003082 33942 net.cpp:454] inception_4b/relu_5x5 <- inception_4b/5x5
I0718 14:33:56.003104 33942 net.cpp:397] inception_4b/relu_5x5 -> inception_4b/5x5 (in-place)
I0718 14:33:56.004909 33942 net.cpp:150] Setting up inception_4b/relu_5x5
I0718 14:33:56.004997 33942 net.cpp:157] Top shape: 6 64 62 62 (1476096)
I0718 14:33:56.005020 33942 net.cpp:165] Memory required for data: 4756763208
I0718 14:33:56.005039 33942 layer_factory.hpp:76] Creating layer inception_4b/pool
I0718 14:33:56.005076 33942 net.cpp:106] Creating Layer inception_4b/pool
I0718 14:33:56.005105 33942 net.cpp:454] inception_4b/pool <- inception_4a/output_inception_4a/output_0_split_3
I0718 14:33:56.005131 33942 net.cpp:411] inception_4b/pool -> inception_4b/pool
I0718 14:33:56.011839 33942 net.cpp:150] Setting up inception_4b/pool
I0718 14:33:56.011956 33942 net.cpp:157] Top shape: 6 512 62 62 (11808768)
I0718 14:33:56.011983 33942 net.cpp:165] Memory required for data: 4803998280
I0718 14:33:56.012004 33942 layer_factory.hpp:76] Creating layer inception_4b/pool_proj
I0718 14:33:56.012045 33942 net.cpp:106] Creating Layer inception_4b/pool_proj
I0718 14:33:56.012073 33942 net.cpp:454] inception_4b/pool_proj <- inception_4b/pool
I0718 14:33:56.012105 33942 net.cpp:411] inception_4b/pool_proj -> inception_4b/pool_proj
I0718 14:33:56.027998 33942 net.cpp:150] Setting up inception_4b/pool_proj
I0718 14:33:56.028086 33942 net.cpp:157] Top shape: 6 64 62 62 (1476096)
I0718 14:33:56.028101 33942 net.cpp:165] Memory required for data: 4809902664
I0718 14:33:56.028127 33942 layer_factory.hpp:76] Creating layer inception_4b/relu_pool_proj
I0718 14:33:56.028151 33942 net.cpp:106] Creating Layer inception_4b/relu_pool_proj
I0718 14:33:56.028167 33942 net.cpp:454] inception_4b/relu_pool_proj <- inception_4b/pool_proj
I0718 14:33:56.028183 33942 net.cpp:397] inception_4b/relu_pool_proj -> inception_4b/pool_proj (in-place)
I0718 14:33:56.030127 33942 net.cpp:150] Setting up inception_4b/relu_pool_proj
I0718 14:33:56.030163 33942 net.cpp:157] Top shape: 6 64 62 62 (1476096)
I0718 14:33:56.030180 33942 net.cpp:165] Memory required for data: 4815807048
I0718 14:33:56.030200 33942 layer_factory.hpp:76] Creating layer inception_4b/output
I0718 14:33:56.030221 33942 net.cpp:106] Creating Layer inception_4b/output
I0718 14:33:56.030236 33942 net.cpp:454] inception_4b/output <- inception_4b/1x1
I0718 14:33:56.030251 33942 net.cpp:454] inception_4b/output <- inception_4b/3x3
I0718 14:33:56.030266 33942 net.cpp:454] inception_4b/output <- inception_4b/5x5
I0718 14:33:56.030279 33942 net.cpp:454] inception_4b/output <- inception_4b/pool_proj
I0718 14:33:56.030293 33942 net.cpp:411] inception_4b/output -> inception_4b/output
I0718 14:33:56.030354 33942 net.cpp:150] Setting up inception_4b/output
I0718 14:33:56.030376 33942 net.cpp:157] Top shape: 6 512 62 62 (11808768)
I0718 14:33:56.030390 33942 net.cpp:165] Memory required for data: 4863042120
I0718 14:33:56.030403 33942 layer_factory.hpp:76] Creating layer inception_4b/output_inception_4b/output_0_split
I0718 14:33:56.030426 33942 net.cpp:106] Creating Layer inception_4b/output_inception_4b/output_0_split
I0718 14:33:56.030439 33942 net.cpp:454] inception_4b/output_inception_4b/output_0_split <- inception_4b/output
I0718 14:33:56.030521 33942 net.cpp:411] inception_4b/output_inception_4b/output_0_split -> inception_4b/output_inception_4b/output_0_split_0
I0718 14:33:56.030541 33942 net.cpp:411] inception_4b/output_inception_4b/output_0_split -> inception_4b/output_inception_4b/output_0_split_1
I0718 14:33:56.030565 33942 net.cpp:411] inception_4b/output_inception_4b/output_0_split -> inception_4b/output_inception_4b/output_0_split_2
I0718 14:33:56.030582 33942 net.cpp:411] inception_4b/output_inception_4b/output_0_split -> inception_4b/output_inception_4b/output_0_split_3
I0718 14:33:56.030714 33942 net.cpp:150] Setting up inception_4b/output_inception_4b/output_0_split
I0718 14:33:56.030740 33942 net.cpp:157] Top shape: 6 512 62 62 (11808768)
I0718 14:33:56.030755 33942 net.cpp:157] Top shape: 6 512 62 62 (11808768)
I0718 14:33:56.030771 33942 net.cpp:157] Top shape: 6 512 62 62 (11808768)
I0718 14:33:56.030784 33942 net.cpp:157] Top shape: 6 512 62 62 (11808768)
I0718 14:33:56.030797 33942 net.cpp:165] Memory required for data: 5051982408
I0718 14:33:56.030812 33942 layer_factory.hpp:76] Creating layer inception_4c/1x1
I0718 14:33:56.030839 33942 net.cpp:106] Creating Layer inception_4c/1x1
I0718 14:33:56.030853 33942 net.cpp:454] inception_4c/1x1 <- inception_4b/output_inception_4b/output_0_split_0
I0718 14:33:56.030874 33942 net.cpp:411] inception_4c/1x1 -> inception_4c/1x1
I0718 14:33:56.037937 33942 cudnn_conv_layer.cpp:194] Reallocating workspace storage: 6144
I0718 14:33:56.038084 33942 net.cpp:150] Setting up inception_4c/1x1
I0718 14:33:56.038120 33942 net.cpp:157] Top shape: 6 128 62 62 (2952192)
I0718 14:33:56.038137 33942 net.cpp:165] Memory required for data: 5063791176
I0718 14:33:56.038161 33942 layer_factory.hpp:76] Creating layer inception_4c/relu_1x1
I0718 14:33:56.038190 33942 net.cpp:106] Creating Layer inception_4c/relu_1x1
I0718 14:33:56.038214 33942 net.cpp:454] inception_4c/relu_1x1 <- inception_4c/1x1
I0718 14:33:56.038234 33942 net.cpp:397] inception_4c/relu_1x1 -> inception_4c/1x1 (in-place)
I0718 14:33:56.040184 33942 net.cpp:150] Setting up inception_4c/relu_1x1
I0718 14:33:56.040227 33942 net.cpp:157] Top shape: 6 128 62 62 (2952192)
I0718 14:33:56.040243 33942 net.cpp:165] Memory required for data: 5075599944
I0718 14:33:56.040256 33942 layer_factory.hpp:76] Creating layer inception_4c/3x3_reduce
I0718 14:33:56.040287 33942 net.cpp:106] Creating Layer inception_4c/3x3_reduce
I0718 14:33:56.040304 33942 net.cpp:454] inception_4c/3x3_reduce <- inception_4b/output_inception_4b/output_0_split_1
I0718 14:33:56.040323 33942 net.cpp:411] inception_4c/3x3_reduce -> inception_4c/3x3_reduce
I0718 14:33:56.061903 33942 cudnn_conv_layer.cpp:194] Reallocating workspace storage: 6144
I0718 14:33:56.062019 33942 net.cpp:150] Setting up inception_4c/3x3_reduce
I0718 14:33:56.062047 33942 net.cpp:157] Top shape: 6 128 62 62 (2952192)
I0718 14:33:56.062063 33942 net.cpp:165] Memory required for data: 5087408712
I0718 14:33:56.062086 33942 layer_factory.hpp:76] Creating layer inception_4c/relu_3x3_reduce
I0718 14:33:56.062119 33942 net.cpp:106] Creating Layer inception_4c/relu_3x3_reduce
I0718 14:33:56.062141 33942 net.cpp:454] inception_4c/relu_3x3_reduce <- inception_4c/3x3_reduce
I0718 14:33:56.062162 33942 net.cpp:397] inception_4c/relu_3x3_reduce -> inception_4c/3x3_reduce (in-place)
I0718 14:33:56.068536 33942 net.cpp:150] Setting up inception_4c/relu_3x3_reduce
I0718 14:33:56.068616 33942 net.cpp:157] Top shape: 6 128 62 62 (2952192)
I0718 14:33:56.068632 33942 net.cpp:165] Memory required for data: 5099217480
I0718 14:33:56.068650 33942 layer_factory.hpp:76] Creating layer inception_4c/3x3
I0718 14:33:56.068686 33942 net.cpp:106] Creating Layer inception_4c/3x3
I0718 14:33:56.068704 33942 net.cpp:454] inception_4c/3x3 <- inception_4c/3x3_reduce
I0718 14:33:56.068727 33942 net.cpp:411] inception_4c/3x3 -> inception_4c/3x3
I0718 14:33:56.088764 33942 net.cpp:150] Setting up inception_4c/3x3
I0718 14:33:56.088842 33942 net.cpp:157] Top shape: 6 256 62 62 (5904384)
I0718 14:33:56.088922 33942 net.cpp:165] Memory required for data: 5122835016
I0718 14:33:56.088946 33942 layer_factory.hpp:76] Creating layer inception_4c/relu_3x3
I0718 14:33:56.088984 33942 net.cpp:106] Creating Layer inception_4c/relu_3x3
I0718 14:33:56.089010 33942 net.cpp:454] inception_4c/relu_3x3 <- inception_4c/3x3
I0718 14:33:56.089028 33942 net.cpp:397] inception_4c/relu_3x3 -> inception_4c/3x3 (in-place)
I0718 14:33:56.090941 33942 net.cpp:150] Setting up inception_4c/relu_3x3
I0718 14:33:56.090975 33942 net.cpp:157] Top shape: 6 256 62 62 (5904384)
I0718 14:33:56.090988 33942 net.cpp:165] Memory required for data: 5146452552
I0718 14:33:56.091002 33942 layer_factory.hpp:76] Creating layer inception_4c/5x5_reduce
I0718 14:33:56.091027 33942 net.cpp:106] Creating Layer inception_4c/5x5_reduce
I0718 14:33:56.091042 33942 net.cpp:454] inception_4c/5x5_reduce <- inception_4b/output_inception_4b/output_0_split_2
I0718 14:33:56.091066 33942 net.cpp:411] inception_4c/5x5_reduce -> inception_4c/5x5_reduce
I0718 14:33:56.098707 33942 net.cpp:150] Setting up inception_4c/5x5_reduce
I0718 14:33:56.098780 33942 net.cpp:157] Top shape: 6 24 62 62 (553536)
I0718 14:33:56.098796 33942 net.cpp:165] Memory required for data: 5148666696
I0718 14:33:56.098820 33942 layer_factory.hpp:76] Creating layer inception_4c/relu_5x5_reduce
I0718 14:33:56.098850 33942 net.cpp:106] Creating Layer inception_4c/relu_5x5_reduce
I0718 14:33:56.098870 33942 net.cpp:454] inception_4c/relu_5x5_reduce <- inception_4c/5x5_reduce
I0718 14:33:56.098886 33942 net.cpp:397] inception_4c/relu_5x5_reduce -> inception_4c/5x5_reduce (in-place)
I0718 14:33:56.100981 33942 net.cpp:150] Setting up inception_4c/relu_5x5_reduce
I0718 14:33:56.101018 33942 net.cpp:157] Top shape: 6 24 62 62 (553536)
I0718 14:33:56.101032 33942 net.cpp:165] Memory required for data: 5150880840
I0718 14:33:56.101047 33942 layer_factory.hpp:76] Creating layer inception_4c/5x5
I0718 14:33:56.101078 33942 net.cpp:106] Creating Layer inception_4c/5x5
I0718 14:33:56.101094 33942 net.cpp:454] inception_4c/5x5 <- inception_4c/5x5_reduce
I0718 14:33:56.101114 33942 net.cpp:411] inception_4c/5x5 -> inception_4c/5x5
I0718 14:33:56.108697 33942 net.cpp:150] Setting up inception_4c/5x5
I0718 14:33:56.108757 33942 net.cpp:157] Top shape: 6 64 62 62 (1476096)
I0718 14:33:56.108772 33942 net.cpp:165] Memory required for data: 5156785224
I0718 14:33:56.108796 33942 layer_factory.hpp:76] Creating layer inception_4c/relu_5x5
I0718 14:33:56.108824 33942 net.cpp:106] Creating Layer inception_4c/relu_5x5
I0718 14:33:56.108840 33942 net.cpp:454] inception_4c/relu_5x5 <- inception_4c/5x5
I0718 14:33:56.108857 33942 net.cpp:397] inception_4c/relu_5x5 -> inception_4c/5x5 (in-place)
I0718 14:33:56.110993 33942 net.cpp:150] Setting up inception_4c/relu_5x5
I0718 14:33:56.111023 33942 net.cpp:157] Top shape: 6 64 62 62 (1476096)
I0718 14:33:56.111037 33942 net.cpp:165] Memory required for data: 5162689608
I0718 14:33:56.111048 33942 layer_factory.hpp:76] Creating layer inception_4c/pool
I0718 14:33:56.111066 33942 net.cpp:106] Creating Layer inception_4c/pool
I0718 14:33:56.111079 33942 net.cpp:454] inception_4c/pool <- inception_4b/output_inception_4b/output_0_split_3
I0718 14:33:56.111098 33942 net.cpp:411] inception_4c/pool -> inception_4c/pool
I0718 14:33:56.113553 33942 net.cpp:150] Setting up inception_4c/pool
I0718 14:33:56.113580 33942 net.cpp:157] Top shape: 6 512 62 62 (11808768)
I0718 14:33:56.113597 33942 net.cpp:165] Memory required for data: 5209924680
I0718 14:33:56.113615 33942 layer_factory.hpp:76] Creating layer inception_4c/pool_proj
I0718 14:33:56.113641 33942 net.cpp:106] Creating Layer inception_4c/pool_proj
I0718 14:33:56.113656 33942 net.cpp:454] inception_4c/pool_proj <- inception_4c/pool
I0718 14:33:56.113679 33942 net.cpp:411] inception_4c/pool_proj -> inception_4c/pool_proj
I0718 14:33:56.121176 33942 net.cpp:150] Setting up inception_4c/pool_proj
I0718 14:33:56.121217 33942 net.cpp:157] Top shape: 6 64 62 62 (1476096)
I0718 14:33:56.121238 33942 net.cpp:165] Memory required for data: 5215829064
I0718 14:33:56.121330 33942 layer_factory.hpp:76] Creating layer inception_4c/relu_pool_proj
I0718 14:33:56.121353 33942 net.cpp:106] Creating Layer inception_4c/relu_pool_proj
I0718 14:33:56.121368 33942 net.cpp:454] inception_4c/relu_pool_proj <- inception_4c/pool_proj
I0718 14:33:56.121387 33942 net.cpp:397] inception_4c/relu_pool_proj -> inception_4c/pool_proj (in-place)
I0718 14:33:56.123196 33942 net.cpp:150] Setting up inception_4c/relu_pool_proj
I0718 14:33:56.123227 33942 net.cpp:157] Top shape: 6 64 62 62 (1476096)
I0718 14:33:56.123242 33942 net.cpp:165] Memory required for data: 5221733448
I0718 14:33:56.123257 33942 layer_factory.hpp:76] Creating layer inception_4c/output
I0718 14:33:56.123284 33942 net.cpp:106] Creating Layer inception_4c/output
I0718 14:33:56.123303 33942 net.cpp:454] inception_4c/output <- inception_4c/1x1
I0718 14:33:56.123320 33942 net.cpp:454] inception_4c/output <- inception_4c/3x3
I0718 14:33:56.123335 33942 net.cpp:454] inception_4c/output <- inception_4c/5x5
I0718 14:33:56.123354 33942 net.cpp:454] inception_4c/output <- inception_4c/pool_proj
I0718 14:33:56.123373 33942 net.cpp:411] inception_4c/output -> inception_4c/output
I0718 14:33:56.123440 33942 net.cpp:150] Setting up inception_4c/output
I0718 14:33:56.123466 33942 net.cpp:157] Top shape: 6 512 62 62 (11808768)
I0718 14:33:56.123478 33942 net.cpp:165] Memory required for data: 5268968520
I0718 14:33:56.123493 33942 layer_factory.hpp:76] Creating layer inception_4c/output_inception_4c/output_0_split
I0718 14:33:56.123513 33942 net.cpp:106] Creating Layer inception_4c/output_inception_4c/output_0_split
I0718 14:33:56.123528 33942 net.cpp:454] inception_4c/output_inception_4c/output_0_split <- inception_4c/output
I0718 14:33:56.123563 33942 net.cpp:411] inception_4c/output_inception_4c/output_0_split -> inception_4c/output_inception_4c/output_0_split_0
I0718 14:33:56.123582 33942 net.cpp:411] inception_4c/output_inception_4c/output_0_split -> inception_4c/output_inception_4c/output_0_split_1
I0718 14:33:56.123600 33942 net.cpp:411] inception_4c/output_inception_4c/output_0_split -> inception_4c/output_inception_4c/output_0_split_2
I0718 14:33:56.123616 33942 net.cpp:411] inception_4c/output_inception_4c/output_0_split -> inception_4c/output_inception_4c/output_0_split_3
I0718 14:33:56.123742 33942 net.cpp:150] Setting up inception_4c/output_inception_4c/output_0_split
I0718 14:33:56.123767 33942 net.cpp:157] Top shape: 6 512 62 62 (11808768)
I0718 14:33:56.123783 33942 net.cpp:157] Top shape: 6 512 62 62 (11808768)
I0718 14:33:56.123800 33942 net.cpp:157] Top shape: 6 512 62 62 (11808768)
I0718 14:33:56.123818 33942 net.cpp:157] Top shape: 6 512 62 62 (11808768)
I0718 14:33:56.123831 33942 net.cpp:165] Memory required for data: 5457908808
I0718 14:33:56.123844 33942 layer_factory.hpp:76] Creating layer inception_4d/1x1
I0718 14:33:56.123868 33942 net.cpp:106] Creating Layer inception_4d/1x1
I0718 14:33:56.123884 33942 net.cpp:454] inception_4d/1x1 <- inception_4c/output_inception_4c/output_0_split_0
I0718 14:33:56.123908 33942 net.cpp:411] inception_4d/1x1 -> inception_4d/1x1
I0718 14:33:56.132221 33942 cudnn_conv_layer.cpp:194] Reallocating workspace storage: 6144
I0718 14:33:56.132308 33942 net.cpp:150] Setting up inception_4d/1x1
I0718 14:33:56.132334 33942 net.cpp:157] Top shape: 6 112 62 62 (2583168)
I0718 14:33:56.132349 33942 net.cpp:165] Memory required for data: 5468241480
I0718 14:33:56.132375 33942 layer_factory.hpp:76] Creating layer inception_4d/relu_1x1
I0718 14:33:56.132396 33942 net.cpp:106] Creating Layer inception_4d/relu_1x1
I0718 14:33:56.132416 33942 net.cpp:454] inception_4d/relu_1x1 <- inception_4d/1x1
I0718 14:33:56.132433 33942 net.cpp:397] inception_4d/relu_1x1 -> inception_4d/1x1 (in-place)
I0718 14:33:56.134652 33942 net.cpp:150] Setting up inception_4d/relu_1x1
I0718 14:33:56.134680 33942 net.cpp:157] Top shape: 6 112 62 62 (2583168)
I0718 14:33:56.134693 33942 net.cpp:165] Memory required for data: 5478574152
I0718 14:33:56.134709 33942 layer_factory.hpp:76] Creating layer inception_4d/3x3_reduce
I0718 14:33:56.134775 33942 net.cpp:106] Creating Layer inception_4d/3x3_reduce
I0718 14:33:56.134793 33942 net.cpp:454] inception_4d/3x3_reduce <- inception_4c/output_inception_4c/output_0_split_1
I0718 14:33:56.134812 33942 net.cpp:411] inception_4d/3x3_reduce -> inception_4d/3x3_reduce
I0718 14:33:56.148083 33942 cudnn_conv_layer.cpp:194] Reallocating workspace storage: 6144
I0718 14:33:56.148139 33942 net.cpp:150] Setting up inception_4d/3x3_reduce
I0718 14:33:56.148159 33942 net.cpp:157] Top shape: 6 144 62 62 (3321216)
I0718 14:33:56.148170 33942 net.cpp:165] Memory required for data: 5491859016
I0718 14:33:56.148188 33942 layer_factory.hpp:76] Creating layer inception_4d/relu_3x3_reduce
I0718 14:33:56.148208 33942 net.cpp:106] Creating Layer inception_4d/relu_3x3_reduce
I0718 14:33:56.148222 33942 net.cpp:454] inception_4d/relu_3x3_reduce <- inception_4d/3x3_reduce
I0718 14:33:56.148241 33942 net.cpp:397] inception_4d/relu_3x3_reduce -> inception_4d/3x3_reduce (in-place)
I0718 14:33:56.150900 33942 net.cpp:150] Setting up inception_4d/relu_3x3_reduce
I0718 14:33:56.150925 33942 net.cpp:157] Top shape: 6 144 62 62 (3321216)
I0718 14:33:56.150939 33942 net.cpp:165] Memory required for data: 5505143880
I0718 14:33:56.150956 33942 layer_factory.hpp:76] Creating layer inception_4d/3x3
I0718 14:33:56.150979 33942 net.cpp:106] Creating Layer inception_4d/3x3
I0718 14:33:56.150992 33942 net.cpp:454] inception_4d/3x3 <- inception_4d/3x3_reduce
I0718 14:33:56.151010 33942 net.cpp:411] inception_4d/3x3 -> inception_4d/3x3
I0718 14:33:56.159934 33942 cudnn_conv_layer.cpp:194] Reallocating workspace storage: 15552
I0718 14:33:56.159988 33942 net.cpp:150] Setting up inception_4d/3x3
I0718 14:33:56.160007 33942 net.cpp:157] Top shape: 6 288 62 62 (6642432)
I0718 14:33:56.160020 33942 net.cpp:165] Memory required for data: 5531713608
I0718 14:33:56.160043 33942 layer_factory.hpp:76] Creating layer inception_4d/relu_3x3
I0718 14:33:56.160063 33942 net.cpp:106] Creating Layer inception_4d/relu_3x3
I0718 14:33:56.160081 33942 net.cpp:454] inception_4d/relu_3x3 <- inception_4d/3x3
I0718 14:33:56.160099 33942 net.cpp:397] inception_4d/relu_3x3 -> inception_4d/3x3 (in-place)
I0718 14:33:56.162175 33942 net.cpp:150] Setting up inception_4d/relu_3x3
I0718 14:33:56.162202 33942 net.cpp:157] Top shape: 6 288 62 62 (6642432)
I0718 14:33:56.162216 33942 net.cpp:165] Memory required for data: 5558283336
I0718 14:33:56.162232 33942 layer_factory.hpp:76] Creating layer inception_4d/5x5_reduce
I0718 14:33:56.162256 33942 net.cpp:106] Creating Layer inception_4d/5x5_reduce
I0718 14:33:56.162271 33942 net.cpp:454] inception_4d/5x5_reduce <- inception_4c/output_inception_4c/output_0_split_2
I0718 14:33:56.162294 33942 net.cpp:411] inception_4d/5x5_reduce -> inception_4d/5x5_reduce
I0718 14:33:56.169589 33942 net.cpp:150] Setting up inception_4d/5x5_reduce
I0718 14:33:56.169620 33942 net.cpp:157] Top shape: 6 32 62 62 (738048)
I0718 14:33:56.169634 33942 net.cpp:165] Memory required for data: 5561235528
I0718 14:33:56.169651 33942 layer_factory.hpp:76] Creating layer inception_4d/relu_5x5_reduce
I0718 14:33:56.169668 33942 net.cpp:106] Creating Layer inception_4d/relu_5x5_reduce
I0718 14:33:56.169682 33942 net.cpp:454] inception_4d/relu_5x5_reduce <- inception_4d/5x5_reduce
I0718 14:33:56.169699 33942 net.cpp:397] inception_4d/relu_5x5_reduce -> inception_4d/5x5_reduce (in-place)
I0718 14:33:56.171829 33942 net.cpp:150] Setting up inception_4d/relu_5x5_reduce
I0718 14:33:56.171857 33942 net.cpp:157] Top shape: 6 32 62 62 (738048)
I0718 14:33:56.171871 33942 net.cpp:165] Memory required for data: 5564187720
I0718 14:33:56.171885 33942 layer_factory.hpp:76] Creating layer inception_4d/5x5
I0718 14:33:56.171906 33942 net.cpp:106] Creating Layer inception_4d/5x5
I0718 14:33:56.171921 33942 net.cpp:454] inception_4d/5x5 <- inception_4d/5x5_reduce
I0718 14:33:56.171941 33942 net.cpp:411] inception_4d/5x5 -> inception_4d/5x5
I0718 14:33:56.179327 33942 cudnn_conv_layer.cpp:194] Reallocating workspace storage: 9600
I0718 14:33:56.179430 33942 net.cpp:150] Setting up inception_4d/5x5
I0718 14:33:56.179513 33942 net.cpp:157] Top shape: 6 64 62 62 (1476096)
I0718 14:33:56.179529 33942 net.cpp:165] Memory required for data: 5570092104
I0718 14:33:56.179550 33942 layer_factory.hpp:76] Creating layer inception_4d/relu_5x5
I0718 14:33:56.179584 33942 net.cpp:106] Creating Layer inception_4d/relu_5x5
I0718 14:33:56.179605 33942 net.cpp:454] inception_4d/relu_5x5 <- inception_4d/5x5
I0718 14:33:56.179622 33942 net.cpp:397] inception_4d/relu_5x5 -> inception_4d/5x5 (in-place)
I0718 14:33:56.181485 33942 net.cpp:150] Setting up inception_4d/relu_5x5
I0718 14:33:56.181514 33942 net.cpp:157] Top shape: 6 64 62 62 (1476096)
I0718 14:33:56.181527 33942 net.cpp:165] Memory required for data: 5575996488
I0718 14:33:56.181542 33942 layer_factory.hpp:76] Creating layer inception_4d/pool
I0718 14:33:56.181561 33942 net.cpp:106] Creating Layer inception_4d/pool
I0718 14:33:56.181574 33942 net.cpp:454] inception_4d/pool <- inception_4c/output_inception_4c/output_0_split_3
I0718 14:33:56.181596 33942 net.cpp:411] inception_4d/pool -> inception_4d/pool
I0718 14:33:56.183976 33942 net.cpp:150] Setting up inception_4d/pool
I0718 14:33:56.184005 33942 net.cpp:157] Top shape: 6 512 62 62 (11808768)
I0718 14:33:56.184022 33942 net.cpp:165] Memory required for data: 5623231560
I0718 14:33:56.184036 33942 layer_factory.hpp:76] Creating layer inception_4d/pool_proj
I0718 14:33:56.184059 33942 net.cpp:106] Creating Layer inception_4d/pool_proj
I0718 14:33:56.184073 33942 net.cpp:454] inception_4d/pool_proj <- inception_4d/pool
I0718 14:33:56.184101 33942 net.cpp:411] inception_4d/pool_proj -> inception_4d/pool_proj
I0718 14:33:56.191325 33942 net.cpp:150] Setting up inception_4d/pool_proj
I0718 14:33:56.191365 33942 net.cpp:157] Top shape: 6 64 62 62 (1476096)
I0718 14:33:56.191380 33942 net.cpp:165] Memory required for data: 5629135944
I0718 14:33:56.191400 33942 layer_factory.hpp:76] Creating layer inception_4d/relu_pool_proj
I0718 14:33:56.191419 33942 net.cpp:106] Creating Layer inception_4d/relu_pool_proj
I0718 14:33:56.191433 33942 net.cpp:454] inception_4d/relu_pool_proj <- inception_4d/pool_proj
I0718 14:33:56.191452 33942 net.cpp:397] inception_4d/relu_pool_proj -> inception_4d/pool_proj (in-place)
I0718 14:33:56.193578 33942 net.cpp:150] Setting up inception_4d/relu_pool_proj
I0718 14:33:56.193606 33942 net.cpp:157] Top shape: 6 64 62 62 (1476096)
I0718 14:33:56.193621 33942 net.cpp:165] Memory required for data: 5635040328
I0718 14:33:56.193635 33942 layer_factory.hpp:76] Creating layer inception_4d/output
I0718 14:33:56.193651 33942 net.cpp:106] Creating Layer inception_4d/output
I0718 14:33:56.193665 33942 net.cpp:454] inception_4d/output <- inception_4d/1x1
I0718 14:33:56.193681 33942 net.cpp:454] inception_4d/output <- inception_4d/3x3
I0718 14:33:56.193693 33942 net.cpp:454] inception_4d/output <- inception_4d/5x5
I0718 14:33:56.193706 33942 net.cpp:454] inception_4d/output <- inception_4d/pool_proj
I0718 14:33:56.193724 33942 net.cpp:411] inception_4d/output -> inception_4d/output
I0718 14:33:56.193783 33942 net.cpp:150] Setting up inception_4d/output
I0718 14:33:56.193805 33942 net.cpp:157] Top shape: 6 528 62 62 (12177792)
I0718 14:33:56.193816 33942 net.cpp:165] Memory required for data: 5683751496
I0718 14:33:56.193830 33942 layer_factory.hpp:76] Creating layer inception_4d/output_inception_4d/output_0_split
I0718 14:33:56.193847 33942 net.cpp:106] Creating Layer inception_4d/output_inception_4d/output_0_split
I0718 14:33:56.193861 33942 net.cpp:454] inception_4d/output_inception_4d/output_0_split <- inception_4d/output
I0718 14:33:56.193876 33942 net.cpp:411] inception_4d/output_inception_4d/output_0_split -> inception_4d/output_inception_4d/output_0_split_0
I0718 14:33:56.193893 33942 net.cpp:411] inception_4d/output_inception_4d/output_0_split -> inception_4d/output_inception_4d/output_0_split_1
I0718 14:33:56.193917 33942 net.cpp:411] inception_4d/output_inception_4d/output_0_split -> inception_4d/output_inception_4d/output_0_split_2
I0718 14:33:56.193933 33942 net.cpp:411] inception_4d/output_inception_4d/output_0_split -> inception_4d/output_inception_4d/output_0_split_3
I0718 14:33:56.194079 33942 net.cpp:150] Setting up inception_4d/output_inception_4d/output_0_split
I0718 14:33:56.194100 33942 net.cpp:157] Top shape: 6 528 62 62 (12177792)
I0718 14:33:56.194115 33942 net.cpp:157] Top shape: 6 528 62 62 (12177792)
I0718 14:33:56.194129 33942 net.cpp:157] Top shape: 6 528 62 62 (12177792)
I0718 14:33:56.194144 33942 net.cpp:157] Top shape: 6 528 62 62 (12177792)
I0718 14:33:56.194155 33942 net.cpp:165] Memory required for data: 5878596168
I0718 14:33:56.194167 33942 layer_factory.hpp:76] Creating layer inception_4e/1x1
I0718 14:33:56.194187 33942 net.cpp:106] Creating Layer inception_4e/1x1
I0718 14:33:56.194201 33942 net.cpp:454] inception_4e/1x1 <- inception_4d/output_inception_4d/output_0_split_0
I0718 14:33:56.194221 33942 net.cpp:411] inception_4e/1x1 -> inception_4e/1x1
I0718 14:33:56.201309 33942 cudnn_conv_layer.cpp:194] Reallocating workspace storage: 6336
I0718 14:33:56.201444 33942 net.cpp:150] Setting up inception_4e/1x1
I0718 14:33:56.201478 33942 net.cpp:157] Top shape: 6 256 62 62 (5904384)
I0718 14:33:56.201498 33942 net.cpp:165] Memory required for data: 5902213704
I0718 14:33:56.201521 33942 layer_factory.hpp:76] Creating layer inception_4e/relu_1x1
I0718 14:33:56.201550 33942 net.cpp:106] Creating Layer inception_4e/relu_1x1
I0718 14:33:56.201566 33942 net.cpp:454] inception_4e/relu_1x1 <- inception_4e/1x1
I0718 14:33:56.201587 33942 net.cpp:397] inception_4e/relu_1x1 -> inception_4e/1x1 (in-place)
I0718 14:33:56.203542 33942 net.cpp:150] Setting up inception_4e/relu_1x1
I0718 14:33:56.203583 33942 net.cpp:157] Top shape: 6 256 62 62 (5904384)
I0718 14:33:56.203598 33942 net.cpp:165] Memory required for data: 5925831240
I0718 14:33:56.203610 33942 layer_factory.hpp:76] Creating layer inception_4e/3x3_reduce
I0718 14:33:56.203642 33942 net.cpp:106] Creating Layer inception_4e/3x3_reduce
I0718 14:33:56.203663 33942 net.cpp:454] inception_4e/3x3_reduce <- inception_4d/output_inception_4d/output_0_split_1
I0718 14:33:56.203690 33942 net.cpp:411] inception_4e/3x3_reduce -> inception_4e/3x3_reduce
I0718 14:33:56.211360 33942 cudnn_conv_layer.cpp:194] Reallocating workspace storage: 6336
I0718 14:33:56.211457 33942 net.cpp:150] Setting up inception_4e/3x3_reduce
I0718 14:33:56.211483 33942 net.cpp:157] Top shape: 6 160 62 62 (3690240)
I0718 14:33:56.211496 33942 net.cpp:165] Memory required for data: 5940592200
I0718 14:33:56.211520 33942 layer_factory.hpp:76] Creating layer inception_4e/relu_3x3_reduce
I0718 14:33:56.211544 33942 net.cpp:106] Creating Layer inception_4e/relu_3x3_reduce
I0718 14:33:56.211560 33942 net.cpp:454] inception_4e/relu_3x3_reduce <- inception_4e/3x3_reduce
I0718 14:33:56.211592 33942 net.cpp:397] inception_4e/relu_3x3_reduce -> inception_4e/3x3_reduce (in-place)
I0718 14:33:56.213686 33942 net.cpp:150] Setting up inception_4e/relu_3x3_reduce
I0718 14:33:56.213721 33942 net.cpp:157] Top shape: 6 160 62 62 (3690240)
I0718 14:33:56.213742 33942 net.cpp:165] Memory required for data: 5955353160
I0718 14:33:56.213755 33942 layer_factory.hpp:76] Creating layer inception_4e/3x3
I0718 14:33:56.213783 33942 net.cpp:106] Creating Layer inception_4e/3x3
I0718 14:33:56.213805 33942 net.cpp:454] inception_4e/3x3 <- inception_4e/3x3_reduce
I0718 14:33:56.213826 33942 net.cpp:411] inception_4e/3x3 -> inception_4e/3x3
I0718 14:33:56.248898 33942 net.cpp:150] Setting up inception_4e/3x3
I0718 14:33:56.248993 33942 net.cpp:157] Top shape: 6 320 62 62 (7380480)
I0718 14:33:56.249013 33942 net.cpp:165] Memory required for data: 5984875080
I0718 14:33:56.249038 33942 layer_factory.hpp:76] Creating layer inception_4e/relu_3x3
I0718 14:33:56.249073 33942 net.cpp:106] Creating Layer inception_4e/relu_3x3
I0718 14:33:56.249100 33942 net.cpp:454] inception_4e/relu_3x3 <- inception_4e/3x3
I0718 14:33:56.249128 33942 net.cpp:397] inception_4e/relu_3x3 -> inception_4e/3x3 (in-place)
I0718 14:33:56.253408 33942 net.cpp:150] Setting up inception_4e/relu_3x3
I0718 14:33:56.253486 33942 net.cpp:157] Top shape: 6 320 62 62 (7380480)
I0718 14:33:56.253576 33942 net.cpp:165] Memory required for data: 6014397000
I0718 14:33:56.253597 33942 layer_factory.hpp:76] Creating layer inception_4e/5x5_reduce
I0718 14:33:56.253636 33942 net.cpp:106] Creating Layer inception_4e/5x5_reduce
I0718 14:33:56.253661 33942 net.cpp:454] inception_4e/5x5_reduce <- inception_4d/output_inception_4d/output_0_split_2
I0718 14:33:56.253690 33942 net.cpp:411] inception_4e/5x5_reduce -> inception_4e/5x5_reduce
I0718 14:33:56.295261 33942 cudnn_conv_layer.cpp:194] Reallocating workspace storage: 6336
I0718 14:33:56.295529 33942 net.cpp:150] Setting up inception_4e/5x5_reduce
I0718 14:33:56.295570 33942 net.cpp:157] Top shape: 6 32 62 62 (738048)
I0718 14:33:56.295585 33942 net.cpp:165] Memory required for data: 6017349192
I0718 14:33:56.295619 33942 layer_factory.hpp:76] Creating layer inception_4e/relu_5x5_reduce
I0718 14:33:56.295651 33942 net.cpp:106] Creating Layer inception_4e/relu_5x5_reduce
I0718 14:33:56.295742 33942 net.cpp:454] inception_4e/relu_5x5_reduce <- inception_4e/5x5_reduce
I0718 14:33:56.295810 33942 net.cpp:397] inception_4e/relu_5x5_reduce -> inception_4e/5x5_reduce (in-place)
I0718 14:33:56.296762 33942 net.cpp:150] Setting up inception_4e/relu_5x5_reduce
I0718 14:33:56.296841 33942 net.cpp:157] Top shape: 6 32 62 62 (738048)
I0718 14:33:56.296887 33942 net.cpp:165] Memory required for data: 6020301384
I0718 14:33:56.296931 33942 layer_factory.hpp:76] Creating layer inception_4e/5x5
I0718 14:33:56.297014 33942 net.cpp:106] Creating Layer inception_4e/5x5
I0718 14:33:56.297076 33942 net.cpp:454] inception_4e/5x5 <- inception_4e/5x5_reduce
I0718 14:33:56.297143 33942 net.cpp:411] inception_4e/5x5 -> inception_4e/5x5
I0718 14:33:56.307965 33942 net.cpp:150] Setting up inception_4e/5x5
I0718 14:33:56.308060 33942 net.cpp:157] Top shape: 6 128 62 62 (2952192)
I0718 14:33:56.308089 33942 net.cpp:165] Memory required for data: 6032110152
I0718 14:33:56.308121 33942 layer_factory.hpp:76] Creating layer inception_4e/relu_5x5
I0718 14:33:56.308159 33942 net.cpp:106] Creating Layer inception_4e/relu_5x5
I0718 14:33:56.308187 33942 net.cpp:454] inception_4e/relu_5x5 <- inception_4e/5x5
I0718 14:33:56.308218 33942 net.cpp:397] inception_4e/relu_5x5 -> inception_4e/5x5 (in-place)
I0718 14:33:56.310029 33942 net.cpp:150] Setting up inception_4e/relu_5x5
I0718 14:33:56.310127 33942 net.cpp:157] Top shape: 6 128 62 62 (2952192)
I0718 14:33:56.310154 33942 net.cpp:165] Memory required for data: 6043918920
I0718 14:33:56.310179 33942 layer_factory.hpp:76] Creating layer inception_4e/pool
I0718 14:33:56.310226 33942 net.cpp:106] Creating Layer inception_4e/pool
I0718 14:33:56.310259 33942 net.cpp:454] inception_4e/pool <- inception_4d/output_inception_4d/output_0_split_3
I0718 14:33:56.310300 33942 net.cpp:411] inception_4e/pool -> inception_4e/pool
I0718 14:33:56.312536 33942 net.cpp:150] Setting up inception_4e/pool
I0718 14:33:56.312583 33942 net.cpp:157] Top shape: 6 528 62 62 (12177792)
I0718 14:33:56.312602 33942 net.cpp:165] Memory required for data: 6092630088
I0718 14:33:56.312620 33942 layer_factory.hpp:76] Creating layer inception_4e/pool_proj
I0718 14:33:56.312654 33942 net.cpp:106] Creating Layer inception_4e/pool_proj
I0718 14:33:56.312672 33942 net.cpp:454] inception_4e/pool_proj <- inception_4e/pool
I0718 14:33:56.312695 33942 net.cpp:411] inception_4e/pool_proj -> inception_4e/pool_proj
I0718 14:33:56.321491 33942 cudnn_conv_layer.cpp:194] Reallocating workspace storage: 6336
I0718 14:33:56.321637 33942 net.cpp:150] Setting up inception_4e/pool_proj
I0718 14:33:56.321681 33942 net.cpp:157] Top shape: 6 128 62 62 (2952192)
I0718 14:33:56.321710 33942 net.cpp:165] Memory required for data: 6104438856
I0718 14:33:56.321743 33942 layer_factory.hpp:76] Creating layer inception_4e/relu_pool_proj
I0718 14:33:56.321782 33942 net.cpp:106] Creating Layer inception_4e/relu_pool_proj
I0718 14:33:56.321817 33942 net.cpp:454] inception_4e/relu_pool_proj <- inception_4e/pool_proj
I0718 14:33:56.321846 33942 net.cpp:397] inception_4e/relu_pool_proj -> inception_4e/pool_proj (in-place)
I0718 14:33:56.323340 33942 net.cpp:150] Setting up inception_4e/relu_pool_proj
I0718 14:33:56.323386 33942 net.cpp:157] Top shape: 6 128 62 62 (2952192)
I0718 14:33:56.323405 33942 net.cpp:165] Memory required for data: 6116247624
I0718 14:33:56.323422 33942 layer_factory.hpp:76] Creating layer inception_4e/output
I0718 14:33:56.323444 33942 net.cpp:106] Creating Layer inception_4e/output
I0718 14:33:56.323462 33942 net.cpp:454] inception_4e/output <- inception_4e/1x1
I0718 14:33:56.323480 33942 net.cpp:454] inception_4e/output <- inception_4e/3x3
I0718 14:33:56.323503 33942 net.cpp:454] inception_4e/output <- inception_4e/5x5
I0718 14:33:56.323520 33942 net.cpp:454] inception_4e/output <- inception_4e/pool_proj
I0718 14:33:56.323539 33942 net.cpp:411] inception_4e/output -> inception_4e/output
I0718 14:33:56.323624 33942 net.cpp:150] Setting up inception_4e/output
I0718 14:33:56.323652 33942 net.cpp:157] Top shape: 6 832 62 62 (19189248)
I0718 14:33:56.323668 33942 net.cpp:165] Memory required for data: 6193004616
I0718 14:33:56.323693 33942 layer_factory.hpp:76] Creating layer pool4/3x3_s2
I0718 14:33:56.323722 33942 net.cpp:106] Creating Layer pool4/3x3_s2
I0718 14:33:56.323736 33942 net.cpp:454] pool4/3x3_s2 <- inception_4e/output
I0718 14:33:56.323756 33942 net.cpp:411] pool4/3x3_s2 -> pool4/3x3_s2
I0718 14:33:56.326478 33942 net.cpp:150] Setting up pool4/3x3_s2
I0718 14:33:56.326645 33942 net.cpp:157] Top shape: 6 832 31 31 (4797312)
I0718 14:33:56.326692 33942 net.cpp:165] Memory required for data: 6212193864
I0718 14:33:56.326761 33942 layer_factory.hpp:76] Creating layer pool4/3x3_s2_pool4/3x3_s2_0_split
I0718 14:33:56.326829 33942 net.cpp:106] Creating Layer pool4/3x3_s2_pool4/3x3_s2_0_split
I0718 14:33:56.326879 33942 net.cpp:454] pool4/3x3_s2_pool4/3x3_s2_0_split <- pool4/3x3_s2
I0718 14:33:56.326942 33942 net.cpp:411] pool4/3x3_s2_pool4/3x3_s2_0_split -> pool4/3x3_s2_pool4/3x3_s2_0_split_0
I0718 14:33:56.327016 33942 net.cpp:411] pool4/3x3_s2_pool4/3x3_s2_0_split -> pool4/3x3_s2_pool4/3x3_s2_0_split_1
I0718 14:33:56.327075 33942 net.cpp:411] pool4/3x3_s2_pool4/3x3_s2_0_split -> pool4/3x3_s2_pool4/3x3_s2_0_split_2
I0718 14:33:56.327127 33942 net.cpp:411] pool4/3x3_s2_pool4/3x3_s2_0_split -> pool4/3x3_s2_pool4/3x3_s2_0_split_3
I0718 14:33:56.327515 33942 net.cpp:150] Setting up pool4/3x3_s2_pool4/3x3_s2_0_split
I0718 14:33:56.327579 33942 net.cpp:157] Top shape: 6 832 31 31 (4797312)
I0718 14:33:56.327622 33942 net.cpp:157] Top shape: 6 832 31 31 (4797312)
I0718 14:33:56.327666 33942 net.cpp:157] Top shape: 6 832 31 31 (4797312)
I0718 14:33:56.327715 33942 net.cpp:157] Top shape: 6 832 31 31 (4797312)
I0718 14:33:56.327755 33942 net.cpp:165] Memory required for data: 6288950856
I0718 14:33:56.327796 33942 layer_factory.hpp:76] Creating layer inception_5a/1x1
I0718 14:33:56.327862 33942 net.cpp:106] Creating Layer inception_5a/1x1
I0718 14:33:56.327906 33942 net.cpp:454] inception_5a/1x1 <- pool4/3x3_s2_pool4/3x3_s2_0_split_0
I0718 14:33:56.327957 33942 net.cpp:411] inception_5a/1x1 -> inception_5a/1x1
I0718 14:33:56.341061 33942 cudnn_conv_layer.cpp:194] Reallocating workspace storage: 9984
I0718 14:33:56.341274 33942 net.cpp:150] Setting up inception_5a/1x1
I0718 14:33:56.341333 33942 net.cpp:157] Top shape: 6 256 31 31 (1476096)
I0718 14:33:56.341372 33942 net.cpp:165] Memory required for data: 6294855240
I0718 14:33:56.341419 33942 layer_factory.hpp:76] Creating layer inception_5a/relu_1x1
I0718 14:33:56.341487 33942 net.cpp:106] Creating Layer inception_5a/relu_1x1
I0718 14:33:56.341537 33942 net.cpp:454] inception_5a/relu_1x1 <- inception_5a/1x1
I0718 14:33:56.341591 33942 net.cpp:397] inception_5a/relu_1x1 -> inception_5a/1x1 (in-place)
I0718 14:33:56.342092 33942 net.cpp:150] Setting up inception_5a/relu_1x1
I0718 14:33:56.342129 33942 net.cpp:157] Top shape: 6 256 31 31 (1476096)
I0718 14:33:56.342151 33942 net.cpp:165] Memory required for data: 6300759624
I0718 14:33:56.342171 33942 layer_factory.hpp:76] Creating layer inception_5a/3x3_reduce
I0718 14:33:56.342326 33942 net.cpp:106] Creating Layer inception_5a/3x3_reduce
I0718 14:33:56.342355 33942 net.cpp:454] inception_5a/3x3_reduce <- pool4/3x3_s2_pool4/3x3_s2_0_split_1
I0718 14:33:56.342387 33942 net.cpp:411] inception_5a/3x3_reduce -> inception_5a/3x3_reduce
I0718 14:33:56.351730 33942 cudnn_conv_layer.cpp:194] Reallocating workspace storage: 9984
I0718 14:33:56.351881 33942 net.cpp:150] Setting up inception_5a/3x3_reduce
I0718 14:33:56.351959 33942 net.cpp:157] Top shape: 6 160 31 31 (922560)
I0718 14:33:56.351987 33942 net.cpp:165] Memory required for data: 6304449864
I0718 14:33:56.352031 33942 layer_factory.hpp:76] Creating layer inception_5a/relu_3x3_reduce
I0718 14:33:56.352072 33942 net.cpp:106] Creating Layer inception_5a/relu_3x3_reduce
I0718 14:33:56.352102 33942 net.cpp:454] inception_5a/relu_3x3_reduce <- inception_5a/3x3_reduce
I0718 14:33:56.352130 33942 net.cpp:397] inception_5a/relu_3x3_reduce -> inception_5a/3x3_reduce (in-place)
I0718 14:33:56.353487 33942 net.cpp:150] Setting up inception_5a/relu_3x3_reduce
I0718 14:33:56.353586 33942 net.cpp:157] Top shape: 6 160 31 31 (922560)
I0718 14:33:56.353626 33942 net.cpp:165] Memory required for data: 6308140104
I0718 14:33:56.353673 33942 layer_factory.hpp:76] Creating layer inception_5a/3x3
I0718 14:33:56.353737 33942 net.cpp:106] Creating Layer inception_5a/3x3
I0718 14:33:56.353778 33942 net.cpp:454] inception_5a/3x3 <- inception_5a/3x3_reduce
I0718 14:33:56.353818 33942 net.cpp:411] inception_5a/3x3 -> inception_5a/3x3
I0718 14:33:56.371852 33942 net.cpp:150] Setting up inception_5a/3x3
I0718 14:33:56.371994 33942 net.cpp:157] Top shape: 6 320 31 31 (1845120)
I0718 14:33:56.372025 33942 net.cpp:165] Memory required for data: 6315520584
I0718 14:33:56.372066 33942 layer_factory.hpp:76] Creating layer inception_5a/relu_3x3
I0718 14:33:56.372143 33942 net.cpp:106] Creating Layer inception_5a/relu_3x3
I0718 14:33:56.372184 33942 net.cpp:454] inception_5a/relu_3x3 <- inception_5a/3x3
I0718 14:33:56.372227 33942 net.cpp:397] inception_5a/relu_3x3 -> inception_5a/3x3 (in-place)
I0718 14:33:56.374295 33942 net.cpp:150] Setting up inception_5a/relu_3x3
I0718 14:33:56.374439 33942 net.cpp:157] Top shape: 6 320 31 31 (1845120)
I0718 14:33:56.374480 33942 net.cpp:165] Memory required for data: 6322901064
I0718 14:33:56.374516 33942 layer_factory.hpp:76] Creating layer inception_5a/5x5_reduce
I0718 14:33:56.374579 33942 net.cpp:106] Creating Layer inception_5a/5x5_reduce
I0718 14:33:56.374614 33942 net.cpp:454] inception_5a/5x5_reduce <- pool4/3x3_s2_pool4/3x3_s2_0_split_2
I0718 14:33:56.374680 33942 net.cpp:411] inception_5a/5x5_reduce -> inception_5a/5x5_reduce
I0718 14:33:56.384374 33942 net.cpp:150] Setting up inception_5a/5x5_reduce
I0718 14:33:56.384492 33942 net.cpp:157] Top shape: 6 32 31 31 (184512)
I0718 14:33:56.384515 33942 net.cpp:165] Memory required for data: 6323639112
I0718 14:33:56.384537 33942 layer_factory.hpp:76] Creating layer inception_5a/relu_5x5_reduce
I0718 14:33:56.384564 33942 net.cpp:106] Creating Layer inception_5a/relu_5x5_reduce
I0718 14:33:56.384583 33942 net.cpp:454] inception_5a/relu_5x5_reduce <- inception_5a/5x5_reduce
I0718 14:33:56.384603 33942 net.cpp:397] inception_5a/relu_5x5_reduce -> inception_5a/5x5_reduce (in-place)
I0718 14:33:56.387063 33942 net.cpp:150] Setting up inception_5a/relu_5x5_reduce
I0718 14:33:56.387179 33942 net.cpp:157] Top shape: 6 32 31 31 (184512)
I0718 14:33:56.387215 33942 net.cpp:165] Memory required for data: 6324377160
I0718 14:33:56.387249 33942 layer_factory.hpp:76] Creating layer inception_5a/5x5
I0718 14:33:56.387334 33942 net.cpp:106] Creating Layer inception_5a/5x5
I0718 14:33:56.387364 33942 net.cpp:454] inception_5a/5x5 <- inception_5a/5x5_reduce
I0718 14:33:56.387394 33942 net.cpp:411] inception_5a/5x5 -> inception_5a/5x5
I0718 14:33:56.396703 33942 net.cpp:150] Setting up inception_5a/5x5
I0718 14:33:56.396790 33942 net.cpp:157] Top shape: 6 128 31 31 (738048)
I0718 14:33:56.396817 33942 net.cpp:165] Memory required for data: 6327329352
I0718 14:33:56.396855 33942 layer_factory.hpp:76] Creating layer inception_5a/relu_5x5
I0718 14:33:56.396947 33942 net.cpp:106] Creating Layer inception_5a/relu_5x5
I0718 14:33:56.396972 33942 net.cpp:454] inception_5a/relu_5x5 <- inception_5a/5x5
I0718 14:33:56.397002 33942 net.cpp:397] inception_5a/relu_5x5 -> inception_5a/5x5 (in-place)
I0718 14:33:56.399935 33942 net.cpp:150] Setting up inception_5a/relu_5x5
I0718 14:33:56.400012 33942 net.cpp:157] Top shape: 6 128 31 31 (738048)
I0718 14:33:56.400033 33942 net.cpp:165] Memory required for data: 6330281544
I0718 14:33:56.400063 33942 layer_factory.hpp:76] Creating layer inception_5a/pool
I0718 14:33:56.400100 33942 net.cpp:106] Creating Layer inception_5a/pool
I0718 14:33:56.400126 33942 net.cpp:454] inception_5a/pool <- pool4/3x3_s2_pool4/3x3_s2_0_split_3
I0718 14:33:56.400161 33942 net.cpp:411] inception_5a/pool -> inception_5a/pool
I0718 14:33:56.403242 33942 net.cpp:150] Setting up inception_5a/pool
I0718 14:33:56.403307 33942 net.cpp:157] Top shape: 6 832 31 31 (4797312)
I0718 14:33:56.403324 33942 net.cpp:165] Memory required for data: 6349470792
I0718 14:33:56.403340 33942 layer_factory.hpp:76] Creating layer inception_5a/pool_proj
I0718 14:33:56.403375 33942 net.cpp:106] Creating Layer inception_5a/pool_proj
I0718 14:33:56.403395 33942 net.cpp:454] inception_5a/pool_proj <- inception_5a/pool
I0718 14:33:56.403417 33942 net.cpp:411] inception_5a/pool_proj -> inception_5a/pool_proj
I0718 14:33:56.412622 33942 cudnn_conv_layer.cpp:194] Reallocating workspace storage: 9984
I0718 14:33:56.412740 33942 net.cpp:150] Setting up inception_5a/pool_proj
I0718 14:33:56.412767 33942 net.cpp:157] Top shape: 6 128 31 31 (738048)
I0718 14:33:56.412781 33942 net.cpp:165] Memory required for data: 6352422984
I0718 14:33:56.412803 33942 layer_factory.hpp:76] Creating layer inception_5a/relu_pool_proj
I0718 14:33:56.412829 33942 net.cpp:106] Creating Layer inception_5a/relu_pool_proj
I0718 14:33:56.412847 33942 net.cpp:454] inception_5a/relu_pool_proj <- inception_5a/pool_proj
I0718 14:33:56.412869 33942 net.cpp:397] inception_5a/relu_pool_proj -> inception_5a/pool_proj (in-place)
I0718 14:33:56.415629 33942 net.cpp:150] Setting up inception_5a/relu_pool_proj
I0718 14:33:56.415694 33942 net.cpp:157] Top shape: 6 128 31 31 (738048)
I0718 14:33:56.415709 33942 net.cpp:165] Memory required for data: 6355375176
I0718 14:33:56.415726 33942 layer_factory.hpp:76] Creating layer inception_5a/output
I0718 14:33:56.415750 33942 net.cpp:106] Creating Layer inception_5a/output
I0718 14:33:56.415766 33942 net.cpp:454] inception_5a/output <- inception_5a/1x1
I0718 14:33:56.415786 33942 net.cpp:454] inception_5a/output <- inception_5a/3x3
I0718 14:33:56.415802 33942 net.cpp:454] inception_5a/output <- inception_5a/5x5
I0718 14:33:56.415820 33942 net.cpp:454] inception_5a/output <- inception_5a/pool_proj
I0718 14:33:56.415846 33942 net.cpp:411] inception_5a/output -> inception_5a/output
I0718 14:33:56.416004 33942 net.cpp:150] Setting up inception_5a/output
I0718 14:33:56.416039 33942 net.cpp:157] Top shape: 6 832 31 31 (4797312)
I0718 14:33:56.416056 33942 net.cpp:165] Memory required for data: 6374564424
I0718 14:33:56.416077 33942 layer_factory.hpp:76] Creating layer inception_5a/output_inception_5a/output_0_split
I0718 14:33:56.416111 33942 net.cpp:106] Creating Layer inception_5a/output_inception_5a/output_0_split
I0718 14:33:56.416132 33942 net.cpp:454] inception_5a/output_inception_5a/output_0_split <- inception_5a/output
I0718 14:33:56.416155 33942 net.cpp:411] inception_5a/output_inception_5a/output_0_split -> inception_5a/output_inception_5a/output_0_split_0
I0718 14:33:56.416193 33942 net.cpp:411] inception_5a/output_inception_5a/output_0_split -> inception_5a/output_inception_5a/output_0_split_1
I0718 14:33:56.416221 33942 net.cpp:411] inception_5a/output_inception_5a/output_0_split -> inception_5a/output_inception_5a/output_0_split_2
I0718 14:33:56.416250 33942 net.cpp:411] inception_5a/output_inception_5a/output_0_split -> inception_5a/output_inception_5a/output_0_split_3
I0718 14:33:56.416465 33942 net.cpp:150] Setting up inception_5a/output_inception_5a/output_0_split
I0718 14:33:56.416538 33942 net.cpp:157] Top shape: 6 832 31 31 (4797312)
I0718 14:33:56.416554 33942 net.cpp:157] Top shape: 6 832 31 31 (4797312)
I0718 14:33:56.416569 33942 net.cpp:157] Top shape: 6 832 31 31 (4797312)
I0718 14:33:56.416584 33942 net.cpp:157] Top shape: 6 832 31 31 (4797312)
I0718 14:33:56.416595 33942 net.cpp:165] Memory required for data: 6451321416
I0718 14:33:56.416609 33942 layer_factory.hpp:76] Creating layer inception_5b/1x1
I0718 14:33:56.416638 33942 net.cpp:106] Creating Layer inception_5b/1x1
I0718 14:33:56.416652 33942 net.cpp:454] inception_5b/1x1 <- inception_5a/output_inception_5a/output_0_split_0
I0718 14:33:56.416673 33942 net.cpp:411] inception_5b/1x1 -> inception_5b/1x1
I0718 14:33:56.426199 33942 cudnn_conv_layer.cpp:194] Reallocating workspace storage: 9984
I0718 14:33:56.426322 33942 net.cpp:150] Setting up inception_5b/1x1
I0718 14:33:56.426369 33942 net.cpp:157] Top shape: 6 384 31 31 (2214144)
I0718 14:33:56.426403 33942 net.cpp:165] Memory required for data: 6460177992
I0718 14:33:56.426429 33942 layer_factory.hpp:76] Creating layer inception_5b/relu_1x1
I0718 14:33:56.426457 33942 net.cpp:106] Creating Layer inception_5b/relu_1x1
I0718 14:33:56.426476 33942 net.cpp:454] inception_5b/relu_1x1 <- inception_5b/1x1
I0718 14:33:56.426496 33942 net.cpp:397] inception_5b/relu_1x1 -> inception_5b/1x1 (in-place)
I0718 14:33:56.428308 33942 net.cpp:150] Setting up inception_5b/relu_1x1
I0718 14:33:56.428369 33942 net.cpp:157] Top shape: 6 384 31 31 (2214144)
I0718 14:33:56.428385 33942 net.cpp:165] Memory required for data: 6469034568
I0718 14:33:56.428401 33942 layer_factory.hpp:76] Creating layer inception_5b/3x3_reduce
I0718 14:33:56.428434 33942 net.cpp:106] Creating Layer inception_5b/3x3_reduce
I0718 14:33:56.428452 33942 net.cpp:454] inception_5b/3x3_reduce <- inception_5a/output_inception_5a/output_0_split_1
I0718 14:33:56.428473 33942 net.cpp:411] inception_5b/3x3_reduce -> inception_5b/3x3_reduce
I0718 14:33:56.438098 33942 cudnn_conv_layer.cpp:194] Reallocating workspace storage: 9984
I0718 14:33:56.438259 33942 net.cpp:150] Setting up inception_5b/3x3_reduce
I0718 14:33:56.438287 33942 net.cpp:157] Top shape: 6 192 31 31 (1107072)
I0718 14:33:56.438302 33942 net.cpp:165] Memory required for data: 6473462856
I0718 14:33:56.438325 33942 layer_factory.hpp:76] Creating layer inception_5b/relu_3x3_reduce
I0718 14:33:56.438356 33942 net.cpp:106] Creating Layer inception_5b/relu_3x3_reduce
I0718 14:33:56.438375 33942 net.cpp:454] inception_5b/relu_3x3_reduce <- inception_5b/3x3_reduce
I0718 14:33:56.438397 33942 net.cpp:397] inception_5b/relu_3x3_reduce -> inception_5b/3x3_reduce (in-place)
I0718 14:33:56.441089 33942 net.cpp:150] Setting up inception_5b/relu_3x3_reduce
I0718 14:33:56.441167 33942 net.cpp:157] Top shape: 6 192 31 31 (1107072)
I0718 14:33:56.441181 33942 net.cpp:165] Memory required for data: 6477891144
I0718 14:33:56.441200 33942 layer_factory.hpp:76] Creating layer inception_5b/3x3
I0718 14:33:56.441233 33942 net.cpp:106] Creating Layer inception_5b/3x3
I0718 14:33:56.441253 33942 net.cpp:454] inception_5b/3x3 <- inception_5b/3x3_reduce
I0718 14:33:56.441277 33942 net.cpp:411] inception_5b/3x3 -> inception_5b/3x3
I0718 14:33:56.455989 33942 net.cpp:150] Setting up inception_5b/3x3
I0718 14:33:56.456087 33942 net.cpp:157] Top shape: 6 384 31 31 (2214144)
I0718 14:33:56.456110 33942 net.cpp:165] Memory required for data: 6486747720
I0718 14:33:56.456137 33942 layer_factory.hpp:76] Creating layer inception_5b/relu_3x3
I0718 14:33:56.456172 33942 net.cpp:106] Creating Layer inception_5b/relu_3x3
I0718 14:33:56.456193 33942 net.cpp:454] inception_5b/relu_3x3 <- inception_5b/3x3
I0718 14:33:56.456218 33942 net.cpp:397] inception_5b/relu_3x3 -> inception_5b/3x3 (in-place)
I0718 14:33:56.458011 33942 net.cpp:150] Setting up inception_5b/relu_3x3
I0718 14:33:56.458091 33942 net.cpp:157] Top shape: 6 384 31 31 (2214144)
I0718 14:33:56.458114 33942 net.cpp:165] Memory required for data: 6495604296
I0718 14:33:56.458135 33942 layer_factory.hpp:76] Creating layer inception_5b/5x5_reduce
I0718 14:33:56.458240 33942 net.cpp:106] Creating Layer inception_5b/5x5_reduce
I0718 14:33:56.458274 33942 net.cpp:454] inception_5b/5x5_reduce <- inception_5a/output_inception_5a/output_0_split_2
I0718 14:33:56.458303 33942 net.cpp:411] inception_5b/5x5_reduce -> inception_5b/5x5_reduce
I0718 14:33:56.464320 33942 net.cpp:150] Setting up inception_5b/5x5_reduce
I0718 14:33:56.464406 33942 net.cpp:157] Top shape: 6 48 31 31 (276768)
I0718 14:33:56.464423 33942 net.cpp:165] Memory required for data: 6496711368
I0718 14:33:56.464450 33942 layer_factory.hpp:76] Creating layer inception_5b/relu_5x5_reduce
I0718 14:33:56.464476 33942 net.cpp:106] Creating Layer inception_5b/relu_5x5_reduce
I0718 14:33:56.464495 33942 net.cpp:454] inception_5b/relu_5x5_reduce <- inception_5b/5x5_reduce
I0718 14:33:56.464516 33942 net.cpp:397] inception_5b/relu_5x5_reduce -> inception_5b/5x5_reduce (in-place)
I0718 14:33:56.467586 33942 net.cpp:150] Setting up inception_5b/relu_5x5_reduce
I0718 14:33:56.467664 33942 net.cpp:157] Top shape: 6 48 31 31 (276768)
I0718 14:33:56.467680 33942 net.cpp:165] Memory required for data: 6497818440
I0718 14:33:56.467699 33942 layer_factory.hpp:76] Creating layer inception_5b/5x5
I0718 14:33:56.467737 33942 net.cpp:106] Creating Layer inception_5b/5x5
I0718 14:33:56.467758 33942 net.cpp:454] inception_5b/5x5 <- inception_5b/5x5_reduce
I0718 14:33:56.467784 33942 net.cpp:411] inception_5b/5x5 -> inception_5b/5x5
I0718 14:33:56.473779 33942 net.cpp:150] Setting up inception_5b/5x5
I0718 14:33:56.473961 33942 net.cpp:157] Top shape: 6 128 31 31 (738048)
I0718 14:33:56.474007 33942 net.cpp:165] Memory required for data: 6500770632
I0718 14:33:56.474086 33942 layer_factory.hpp:76] Creating layer inception_5b/relu_5x5
I0718 14:33:56.474169 33942 net.cpp:106] Creating Layer inception_5b/relu_5x5
I0718 14:33:56.474222 33942 net.cpp:454] inception_5b/relu_5x5 <- inception_5b/5x5
I0718 14:33:56.474282 33942 net.cpp:397] inception_5b/relu_5x5 -> inception_5b/5x5 (in-place)
I0718 14:33:56.475235 33942 net.cpp:150] Setting up inception_5b/relu_5x5
I0718 14:33:56.475359 33942 net.cpp:157] Top shape: 6 128 31 31 (738048)
I0718 14:33:56.475394 33942 net.cpp:165] Memory required for data: 6503722824
I0718 14:33:56.475435 33942 layer_factory.hpp:76] Creating layer inception_5b/pool
I0718 14:33:56.475497 33942 net.cpp:106] Creating Layer inception_5b/pool
I0718 14:33:56.475549 33942 net.cpp:454] inception_5b/pool <- inception_5a/output_inception_5a/output_0_split_3
I0718 14:33:56.475605 33942 net.cpp:411] inception_5b/pool -> inception_5b/pool
I0718 14:33:56.477171 33942 net.cpp:150] Setting up inception_5b/pool
I0718 14:33:56.477260 33942 net.cpp:157] Top shape: 6 832 31 31 (4797312)
I0718 14:33:56.477279 33942 net.cpp:165] Memory required for data: 6522912072
I0718 14:33:56.477304 33942 layer_factory.hpp:76] Creating layer inception_5b/pool_proj
I0718 14:33:56.477344 33942 net.cpp:106] Creating Layer inception_5b/pool_proj
I0718 14:33:56.477366 33942 net.cpp:454] inception_5b/pool_proj <- inception_5b/pool
I0718 14:33:56.477397 33942 net.cpp:411] inception_5b/pool_proj -> inception_5b/pool_proj
I0718 14:33:56.484313 33942 cudnn_conv_layer.cpp:194] Reallocating workspace storage: 9984
I0718 14:33:56.484424 33942 net.cpp:150] Setting up inception_5b/pool_proj
I0718 14:33:56.484452 33942 net.cpp:157] Top shape: 6 128 31 31 (738048)
I0718 14:33:56.484468 33942 net.cpp:165] Memory required for data: 6525864264
I0718 14:33:56.484496 33942 layer_factory.hpp:76] Creating layer inception_5b/relu_pool_proj
I0718 14:33:56.484531 33942 net.cpp:106] Creating Layer inception_5b/relu_pool_proj
I0718 14:33:56.484551 33942 net.cpp:454] inception_5b/relu_pool_proj <- inception_5b/pool_proj
I0718 14:33:56.484572 33942 net.cpp:397] inception_5b/relu_pool_proj -> inception_5b/pool_proj (in-place)
I0718 14:33:56.485432 33942 net.cpp:150] Setting up inception_5b/relu_pool_proj
I0718 14:33:56.485476 33942 net.cpp:157] Top shape: 6 128 31 31 (738048)
I0718 14:33:56.485489 33942 net.cpp:165] Memory required for data: 6528816456
I0718 14:33:56.485549 33942 layer_factory.hpp:76] Creating layer inception_5b/output
I0718 14:33:56.485575 33942 net.cpp:106] Creating Layer inception_5b/output
I0718 14:33:56.485594 33942 net.cpp:454] inception_5b/output <- inception_5b/1x1
I0718 14:33:56.485611 33942 net.cpp:454] inception_5b/output <- inception_5b/3x3
I0718 14:33:56.485627 33942 net.cpp:454] inception_5b/output <- inception_5b/5x5
I0718 14:33:56.485641 33942 net.cpp:454] inception_5b/output <- inception_5b/pool_proj
I0718 14:33:56.485664 33942 net.cpp:411] inception_5b/output -> inception_5b/output
I0718 14:33:56.485757 33942 net.cpp:150] Setting up inception_5b/output
I0718 14:33:56.485780 33942 net.cpp:157] Top shape: 6 1024 31 31 (5904384)
I0718 14:33:56.485793 33942 net.cpp:165] Memory required for data: 6552433992
I0718 14:33:56.485807 33942 layer_factory.hpp:76] Creating layer pool5/7x7_s1
I0718 14:33:56.485831 33942 net.cpp:106] Creating Layer pool5/7x7_s1
I0718 14:33:56.485847 33942 net.cpp:454] pool5/7x7_s1 <- inception_5b/output
I0718 14:33:56.485867 33942 net.cpp:411] pool5/7x7_s1 -> pool5/7x7_s1
I0718 14:33:56.889771 33942 cudnn_conv_layer.cpp:194] Reallocating workspace storage: 602112
I0718 14:33:56.890350 33942 net.cpp:150] Setting up pool5/7x7_s1
I0718 14:33:56.890385 33942 net.cpp:157] Top shape: 6 512 25 25 (1920000)
I0718 14:33:56.890401 33942 net.cpp:165] Memory required for data: 6560113992
I0718 14:33:56.890429 33942 layer_factory.hpp:76] Creating layer conv61
I0718 14:33:56.890470 33942 net.cpp:106] Creating Layer conv61
I0718 14:33:56.890491 33942 net.cpp:454] conv61 <- pool5/7x7_s1
I0718 14:33:56.890516 33942 net.cpp:411] conv61 -> conv61
I0718 14:33:56.899471 33942 cudnn_conv_layer.cpp:194] Reallocating workspace storage: 55296
I0718 14:33:56.899552 33942 net.cpp:150] Setting up conv61
I0718 14:33:56.899579 33942 net.cpp:157] Top shape: 6 64 25 25 (240000)
I0718 14:33:56.899596 33942 net.cpp:165] Memory required for data: 6561073992
I0718 14:33:56.899622 33942 layer_factory.hpp:76] Creating layer relu61
I0718 14:33:56.899652 33942 net.cpp:106] Creating Layer relu61
I0718 14:33:56.899672 33942 net.cpp:454] relu61 <- conv61
I0718 14:33:56.899693 33942 net.cpp:397] relu61 -> conv61 (in-place)
I0718 14:33:56.901163 33942 net.cpp:150] Setting up relu61
I0718 14:33:56.901208 33942 net.cpp:157] Top shape: 6 64 25 25 (240000)
I0718 14:33:56.901223 33942 net.cpp:165] Memory required for data: 6562033992
I0718 14:33:56.901239 33942 layer_factory.hpp:76] Creating layer pool5
I0718 14:33:56.901262 33942 net.cpp:106] Creating Layer pool5
I0718 14:33:56.901275 33942 net.cpp:454] pool5 <- conv61
I0718 14:33:56.901293 33942 net.cpp:411] pool5 -> pool5
I0718 14:33:56.902703 33942 net.cpp:150] Setting up pool5
I0718 14:33:56.902755 33942 net.cpp:157] Top shape: 6 64 13 13 (64896)
I0718 14:33:56.902773 33942 net.cpp:165] Memory required for data: 6562293576
I0718 14:33:56.902791 33942 layer_factory.hpp:76] Creating layer conv62
I0718 14:33:56.902824 33942 net.cpp:106] Creating Layer conv62
I0718 14:33:56.902842 33942 net.cpp:454] conv62 <- pool5
I0718 14:33:56.902868 33942 net.cpp:411] conv62 -> conv62
I0718 14:33:56.910537 33942 net.cpp:150] Setting up conv62
I0718 14:33:56.910620 33942 net.cpp:157] Top shape: 6 64 13 13 (64896)
I0718 14:33:56.910652 33942 net.cpp:165] Memory required for data: 6562553160
I0718 14:33:56.910681 33942 layer_factory.hpp:76] Creating layer relu62
I0718 14:33:56.910709 33942 net.cpp:106] Creating Layer relu62
I0718 14:33:56.910730 33942 net.cpp:454] relu62 <- conv62
I0718 14:33:56.910753 33942 net.cpp:397] relu62 -> conv62 (in-place)
I0718 14:33:56.912807 33942 net.cpp:150] Setting up relu62
I0718 14:33:56.912859 33942 net.cpp:157] Top shape: 6 64 13 13 (64896)
I0718 14:33:56.912873 33942 net.cpp:165] Memory required for data: 6562812744
I0718 14:33:56.912888 33942 layer_factory.hpp:76] Creating layer pool6
I0718 14:33:56.912911 33942 net.cpp:106] Creating Layer pool6
I0718 14:33:56.912925 33942 net.cpp:454] pool6 <- conv62
I0718 14:33:56.912950 33942 net.cpp:411] pool6 -> pool6
I0718 14:33:56.915499 33942 net.cpp:150] Setting up pool6
I0718 14:33:56.915541 33942 net.cpp:157] Top shape: 6 64 7 7 (18816)
I0718 14:33:56.915556 33942 net.cpp:165] Memory required for data: 6562888008
I0718 14:33:56.915570 33942 layer_factory.hpp:76] Creating layer conv82
I0718 14:33:56.915602 33942 net.cpp:106] Creating Layer conv82
I0718 14:33:56.915617 33942 net.cpp:454] conv82 <- pool6
I0718 14:33:56.915635 33942 net.cpp:411] conv82 -> conv82
I0718 14:33:56.923696 33942 cudnn_conv_layer.cpp:194] Reallocating workspace storage: 6912
I0718 14:33:56.923807 33942 net.cpp:150] Setting up conv82
I0718 14:33:56.923832 33942 net.cpp:157] Top shape: 6 128 7 7 (37632)
I0718 14:33:56.923851 33942 net.cpp:165] Memory required for data: 6563038536
I0718 14:33:56.923872 33942 layer_factory.hpp:76] Creating layer relu82
I0718 14:33:56.923902 33942 net.cpp:106] Creating Layer relu82
I0718 14:33:56.923918 33942 net.cpp:454] relu82 <- conv82
I0718 14:33:56.923940 33942 net.cpp:397] relu82 -> conv82 (in-place)
I0718 14:33:56.925138 33942 net.cpp:150] Setting up relu82
I0718 14:33:56.925194 33942 net.cpp:157] Top shape: 6 128 7 7 (37632)
I0718 14:33:56.925209 33942 net.cpp:165] Memory required for data: 6563189064
I0718 14:33:56.925223 33942 layer_factory.hpp:76] Creating layer pool7
I0718 14:33:56.925243 33942 net.cpp:106] Creating Layer pool7
I0718 14:33:56.925257 33942 net.cpp:454] pool7 <- conv82
I0718 14:33:56.925278 33942 net.cpp:411] pool7 -> pool7
I0718 14:33:56.927640 33942 net.cpp:150] Setting up pool7
I0718 14:33:56.927708 33942 net.cpp:157] Top shape: 6 128 4 4 (12288)
I0718 14:33:56.927723 33942 net.cpp:165] Memory required for data: 6563238216
I0718 14:33:56.927737 33942 layer_factory.hpp:76] Creating layer drop0
I0718 14:33:56.927765 33942 net.cpp:106] Creating Layer drop0
I0718 14:33:56.927783 33942 net.cpp:454] drop0 <- pool7
I0718 14:33:56.927800 33942 net.cpp:397] drop0 -> pool7 (in-place)
I0718 14:33:56.927878 33942 net.cpp:150] Setting up drop0
I0718 14:33:56.927899 33942 net.cpp:157] Top shape: 6 128 4 4 (12288)
I0718 14:33:56.927911 33942 net.cpp:165] Memory required for data: 6563287368
I0718 14:33:56.927928 33942 layer_factory.hpp:76] Creating layer conv91
I0718 14:33:56.927953 33942 net.cpp:106] Creating Layer conv91
I0718 14:33:56.927968 33942 net.cpp:454] conv91 <- pool7
I0718 14:33:56.927986 33942 net.cpp:411] conv91 -> conv91
I0718 14:33:56.934347 33942 cudnn_conv_layer.cpp:194] Reallocating workspace storage: 7981056
I0718 14:33:56.934849 33942 net.cpp:150] Setting up conv91
I0718 14:33:56.934881 33942 net.cpp:157] Top shape: 6 3 1 1 (18)
I0718 14:33:56.934895 33942 net.cpp:165] Memory required for data: 6563287440
I0718 14:33:56.934916 33942 layer_factory.hpp:76] Creating layer conv91_conv91_0_split
I0718 14:33:56.934942 33942 net.cpp:106] Creating Layer conv91_conv91_0_split
I0718 14:33:56.934957 33942 net.cpp:454] conv91_conv91_0_split <- conv91
I0718 14:33:56.934978 33942 net.cpp:411] conv91_conv91_0_split -> conv91_conv91_0_split_0
I0718 14:33:56.934999 33942 net.cpp:411] conv91_conv91_0_split -> conv91_conv91_0_split_1
I0718 14:33:56.935099 33942 net.cpp:150] Setting up conv91_conv91_0_split
I0718 14:33:56.935120 33942 net.cpp:157] Top shape: 6 3 1 1 (18)
I0718 14:33:56.935134 33942 net.cpp:157] Top shape: 6 3 1 1 (18)
I0718 14:33:56.935149 33942 net.cpp:165] Memory required for data: 6563287584
I0718 14:33:56.935161 33942 layer_factory.hpp:76] Creating layer accuracy
I0718 14:33:56.935191 33942 net.cpp:106] Creating Layer accuracy
I0718 14:33:56.935204 33942 net.cpp:454] accuracy <- conv91_conv91_0_split_0
I0718 14:33:56.935221 33942 net.cpp:454] accuracy <- label_data_1_split_0
I0718 14:33:56.935236 33942 net.cpp:411] accuracy -> accuracy
…
I0718 14:33:56.945183 33942 net.cpp:322] The NetState phase (1) differed from the phase (0) specified by a rule in layer data
I0718 14:33:56.946677 33942 net.cpp:49] Initializing net from parameters: 
name: "GoogleNet"
state {
  phase: TEST
}
layer {
  name: "data"
  type: "ImageData"
  top: "data"
  top: "label"
  include {
    phase: TEST
  }
  transform_param {
    mirror: false
    mean_value: 163
    mean_value: 116
    mean_value: 181
  }
  image_data_param {
    source: "../lists/mitosis_val.lst"
    batch_size: 4
    shuffle: true
  }
}
layer {
  name: "conv1/7x7_s2"
  type: "Convolution"
  bottom: "data"
  top: "conv1/7x7_s2"
  param {
    lr_mult: 0
    decay_mult: 1
  }
  param {
    lr_mult: 2
    decay_mult: 0
  }
  convolution_param {
    num_output: 64
    pad: 3
    kernel_size: 7
    stride: 2
    weight_filler {
      type: "xavier"
    }
    bias_filler {
      type: "constant"
      value: 0.2
    }
  }
}
layer {
  name: "conv1/relu_7x7"
  type: "ReLU"
  bottom: "conv1/7x7_s2"
  top: "conv1/7x7_s2"
}
layer {
  name: "pool1/3x3_s2"
  type: "Pooling"
  bottom: "conv1/7x7_s2"
  top: "pool1/3x3_s2"
  pooling_param {
    pool: MAX
    kernel_size: 3
    stride: 2
  }
}
layer {
  name: "pool1/norm1"
  type: "LRN"
  bottom: "pool1/3x3_s2"
  top: "pool1/norm1"
  lrn_param {
    local_size: 5
    alpha: 0.0001
    beta: 0.75
  }
}
layer {
  name: "conv2/3x3_reduce"
  type: "Convolution"
  bottom: "pool1/norm1"
  top: "conv2/3x3_reduce"
  param {
    lr_mult: 0
    decay_mult: 1
  }
  param {
    lr_mult: 2
    decay_mult: 0
  }
  convolution_param {
    num_output: 64
    kernel_size: 1
    weight_filler {
      type: "xavier"
    }
    bias_filler {
      type: "constant"
      value: 0.2
    }
  }
}
layer {
  name: "conv2/relu_3x3_reduce"
  type: "ReLU"
  bottom: "conv2/3x3_reduce"
  top: "conv2/3x3_reduce"
}
layer {
  name: "conv2/3x3"
  type: "Convolution"
  bottom: "conv2/3x3_reduce"
  top: "conv2/3x3"
  param {
    lr_mult: 0
    decay_mult: 1
  }
  param {
    lr_mult: 2
    decay_mult: 0
  }
  convolution_param {
    num_output: 192
    pad: 1
    kernel_size: 3
    weight_filler {
      type: "xavier"
    }
    bias_filler {
      type: "constant"
      value: 0.2
    }
  }
}
layer {
  name: "conv2/relu_3x3"
  type: "ReLU"
  bottom: "conv2/3x3"
  top: "conv2/3x3"
}
layer {
  name: "conv2/norm2"
  type: "LRN"
  bottom: "conv2/3x3"
  top: "conv2/norm2"
  lrn_param {
    local_size: 5
    alpha: 0.0001
    beta: 0.75
  }
}
layer {
  name: "pool2/3x3_s2"
  type: "Pooling"
  bottom: "conv2/norm2"
  top: "pool2/3x3_s2"
  pooling_param {
    pool: MAX
    kernel_size: 3
    stride: 2
  }
}
layer {
  name: "inception_3a/1x1"
  type: "Convolution"
  bottom: "pool2/3x3_s2"
  top: "inception_3a/1x1"
  param {
    lr_mult: 0
    decay_mult: 1
  }
  param {
    lr_mult: 2
    decay_mult: 0
  }
  convolution_param {
    num_output: 64
    kernel_size: 1
    weight_filler {
      type: "xavier"
    }
    bias_filler {
      type: "constant"
      value: 0.2
    }
  }
}
layer {
  name: "inception_3a/relu_1x1"
  type: "ReLU"
  bottom: "inception_3a/1x1"
  top: "inception_3a/1x1"
}
layer {
  name: "inception_3a/3x3_reduce"
  type: "Convolution"
  bottom: "pool2/3x3_s2"
  top: "inception_3a/3x3_reduce"
  param {
    lr_mult: 0
    decay_mult: 1
  }
  param {
    lr_mult: 2
    decay_mult: 0
  }
  convolution_param {
    num_output: 96
    kernel_size: 1
    weight_filler {
      type: "xavier"
    }
    bias_filler {
      type: "constant"
      value: 0.2
    }
  }
}
layer {
  name: "inception_3a/relu_3x3_reduce"
  type: "ReLU"
  bottom: "inception_3a/3x3_reduce"
  top: "inception_3a/3x3_reduce"
}
layer {
  name: "inception_3a/3x3"
  type: "Convolution"
  bottom: "inception_3a/3x3_reduce"
  top: "inception_3a/3x3"
  param {
    lr_mult: 0
    decay_mult: 1
  }
  param {
    lr_mult: 2
    decay_mult: 0
  }
  convolution_param {
    num_output: 128
    pad: 1
    kernel_size: 3
    weight_filler {
      type: "xavier"
    }
    bias_filler {
      type: "constant"
      value: 0.2
    }
  }
}
layer {
  name: "inception_3a/relu_3x3"
  type: "ReLU"
  bottom: "inception_3a/3x3"
  top: "inception_3a/3x3"
}
layer {
  name: "inception_3a/5x5_reduce"
  type: "Convolution"
  bottom: "pool2/3x3_s2"
  top: "inception_3a/5x5_reduce"
  param {
    lr_mult: 0
    decay_mult: 1
  }
  param {
    lr_mult: 2
    decay_mult: 0
  }
  convolution_param {
    num_output: 16
    kernel_size: 1
    weight_filler {
      type: "xavier"
    }
    bias_filler {
      type: "constant"
      value: 0.2
    }
  }
}
layer {
  name: "inception_3a/relu_5x5_reduce"
  type: "ReLU"
  bottom: "inception_3a/5x5_reduce"
  top: "inception_3a/5x5_reduce"
}
layer {
  name: "inception_3a/5x5"
  type: "Convolution"
  bottom: "inception_3a/5x5_reduce"
  top: "inception_3a/5x5"
  param {
    lr_mult: 0
    decay_mult: 1
  }
  param {
    lr_mult: 2
    decay_mult: 0
  }
  convolution_param {
    num_output: 32
    pad: 2
    kernel_size: 5
    weight_filler {
      type: "xavier"
    }
    bias_filler {
      type: "constant"
      value: 0.2
    }
  }
}
layer {
  name: "inception_3a/relu_5x5"
  type: "ReLU"
  bottom: "inception_3a/5x5"
  top: "inception_3a/5x5"
}
layer {
  name: "inception_3a/pool"
  type: "Pooling"
  bottom: "pool2/3x3_s2"
  top: "inception_3a/pool"
  pooling_param {
    pool: MAX
    kernel_size: 3
    stride: 1
    pad: 1
  }
}
layer {
  name: "inception_3a/pool_proj"
  type: "Convolution"
  bottom: "inception_3a/pool"
  top: "inception_3a/pool_proj"
  param {
    lr_mult: 0
    decay_mult: 1
  }
  param {
    lr_mult: 2
    decay_mult: 0
  }
  convolution_param {
    num_output: 32
    kernel_size: 1
    weight_filler {
      type: "xavier"
    }
    bias_filler {
      type: "constant"
      value: 0.2
    }
  }
}
layer {
  name: "inception_3a/relu_pool_proj"
  type: "ReLU"
  bottom: "inception_3a/pool_proj"
  top: "inception_3a/pool_proj"
}
layer {
  name: "inception_3a/output"
  type: "Concat"
  bottom: "inception_3a/1x1"
  bottom: "inception_3a/3x3"
  bottom: "inception_3a/5x5"
  bottom: "inception_3a/pool_proj"
  top: "inception_3a/output"
}
layer {
  name: "inception_3b/1x1"
  type: "Convolution"
  bottom: "inception_3a/output"
  top: "inception_3b/1x1"
  param {
    lr_mult: 0
    decay_mult: 1
  }
  param {
    lr_mult: 2
    decay_mult: 0
  }
  convolution_param {
    num_output: 128
    kernel_size: 1
    weight_filler {
      type: "xavier"
    }
    bias_filler {
      type: "constant"
      value: 0.2
    }
  }
}
layer {
  name: "inception_3b/relu_1x1"
  type: "ReLU"
  bottom: "inception_3b/1x1"
  top: "inception_3b/1x1"
}
layer {
  name: "inception_3b/3x3_reduce"
  type: "Convolution"
  bottom: "inception_3a/output"
  top: "inception_3b/3x3_reduce"
  param {
    lr_mult: 0
    decay_mult: 1
  }
  param {
    lr_mult: 2
    decay_mult: 0
  }
  convolution_param {
    num_output: 128
    kernel_size: 1
    weight_filler {
      type: "xavier"
    }
    bias_filler {
      type: "constant"
      value: 0.2
    }
  }
}
layer {
  name: "inception_3b/relu_3x3_reduce"
  type: "ReLU"
  bottom: "inception_3b/3x3_reduce"
  top: "inception_3b/3x3_reduce"
}
layer {
  name: "inception_3b/3x3"
  type: "Convolution"
  bottom: "inception_3b/3x3_reduce"
  top: "inception_3b/3x3"
  param {
    lr_mult: 0
    decay_mult: 1
  }
  param {
    lr_mult: 2
    decay_mult: 0
  }
  convolution_param {
    num_output: 192
    pad: 1
    kernel_size: 3
    weight_filler {
      type: "xavier"
    }
    bias_filler {
      type: "constant"
      value: 0.2
    }
  }
}
layer {
  name: "inception_3b/relu_3x3"
  type: "ReLU"
  bottom: "inception_3b/3x3"
  top: "inception_3b/3x3"
}
layer {
  name: "inception_3b/5x5_reduce"
  type: "Convolution"
  bottom: "inception_3a/output"
  top: "inception_3b/5x5_reduce"
  param {
    lr_mult: 0
    decay_mult: 1
  }
  param {
    lr_mult: 2
    decay_mult: 0
  }
  convolution_param {
    num_output: 32
    kernel_size: 1
    weight_filler {
      type: "xavier"
    }
    bias_filler {
      type: "constant"
      value: 0.2
    }
  }
}
layer {
  name: "inception_3b/relu_5x5_reduce"
  type: "ReLU"
  bottom: "inception_3b/5x5_reduce"
  top: "inception_3b/5x5_reduce"
}
layer {
  name: "inception_3b/5x5"
  type: "Convolution"
  bottom: "inception_3b/5x5_reduce"
  top: "inception_3b/5x5"
  param {
    lr_mult: 0
    decay_mult: 1
  }
  param {
    lr_mult: 2
    decay_mult: 0
  }
  convolution_param {
    num_output: 96
    pad: 2
    kernel_size: 5
    weight_filler {
      type: "xavier"
    }
    bias_filler {
      type: "constant"
      value: 0.2
    }
  }
}
layer {
  name: "inception_3b/relu_5x5"
  type: "ReLU"
  bottom: "inception_3b/5x5"
  top: "inception_3b/5x5"
}
layer {
  name: "inception_3b/pool"
  type: "Pooling"
  bottom: "inception_3a/output"
  top: "inception_3b/pool"
  pooling_param {
    pool: MAX
    kernel_size: 3
    stride: 1
    pad: 1
  }
}
layer {
  name: "inception_3b/pool_proj"
  type: "Convolution"
  bottom: "inception_3b/pool"
  top: "inception_3b/pool_proj"
  param {
    lr_mult: 0
    decay_mult: 1
  }
  param {
    lr_mult: 2
    decay_mult: 0
  }
  convolution_param {
    num_output: 64
    kernel_size: 1
    weight_filler {
      type: "xavier"
    }
    bias_filler {
      type: "constant"
      value: 0.2
    }
  }
}
layer {
  name: "inception_3b/relu_pool_proj"
  type: "ReLU"
  bottom: "inception_3b/pool_proj"
  top: "inception_3b/pool_proj"
}
layer {
  name: "inception_3b/output"
  type: "Concat"
  bottom: "inception_3b/1x1"
  bottom: "inception_3b/3x3"
  bottom: "inception_3b/5x5"
  bottom: "inception_3b/pool_proj"
  top: "inception_3b/output"
}
layer {
  name: "pool3/3x3_s2"
  type: "Pooling"
  bottom: "inception_3b/output"
  top: "pool3/3x3_s2"
  pooling_param {
    pool: MAX
    kernel_size: 3
    stride: 2
  }
}
layer {
  name: "inception_4a/1x1"
  type: "Convolution"
  bottom: "pool3/3x3_s2"
  top: "inception_4a/1x1"
  param {
    lr_mult: 0
    decay_mult: 1
  }
  param {
    lr_mult: 2
    decay_mult: 0
  }
  convolution_param {
    num_output: 192
    kernel_size: 1
    weight_filler {
      type: "xavier"
    }
    bias_filler {
      type: "constant"
      value: 0.2
    }
  }
}
layer {
  name: "inception_4a/relu_1x1"
  type: "ReLU"
  bottom: "inception_4a/1x1"
  top: "inception_4a/1x1"
}
layer {
  name: "inception_4a/3x3_reduce"
  type: "Convolution"
  bottom: "pool3/3x3_s2"
  top: "inception_4a/3x3_reduce"
  param {
    lr_mult: 0
    decay_mult: 1
  }
  param {
    lr_mult: 2
    decay_mult: 0
  }
  convolution_param {
    num_output: 96
    kernel_size: 1
    weight_filler {
      type: "xavier"
    }
    bias_filler {
      type: "constant"
      value: 0.2
    }
  }
}
layer {
  name: "inception_4a/relu_3x3_reduce"
  type: "ReLU"
  bottom: "inception_4a/3x3_reduce"
  top: "inception_4a/3x3_reduce"
}
layer {
  name: "inception_4a/3x3"
  type: "Convolution"
  bottom: "inception_4a/3x3_reduce"
  top: "inception_4a/3x3"
  param {
    lr_mult: 0
    decay_mult: 1
  }
  param {
    lr_mult: 2
    decay_mult: 0
  }
  convolution_param {
    num_output: 208
    pad: 1
    kernel_size: 3
    weight_filler {
      type: "xavier"
    }
    bias_filler {
      type: "constant"
      value: 0.2
    }
  }
}
layer {
  name: "inception_4a/relu_3x3"
  type: "ReLU"
  bottom: "inception_4a/3x3"
  top: "inception_4a/3x3"
}
layer {
  name: "inception_4a/5x5_reduce"
  type: "Convolution"
  bottom: "pool3/3x3_s2"
  top: "inception_4a/5x5_reduce"
  param {
    lr_mult: 0
    decay_mult: 1
  }
  param {
    lr_mult: 2
    decay_mult: 0
  }
  convolution_param {
    num_output: 16
    kernel_size: 1
    weight_filler {
      type: "xavier"
    }
    bias_filler {
      type: "constant"
      value: 0.2
    }
  }
}
layer {
  name: "inception_4a/relu_5x5_reduce"
  type: "ReLU"
  bottom: "inception_4a/5x5_reduce"
  top: "inception_4a/5x5_reduce"
}
layer {
  name: "inception_4a/5x5"
  type: "Convolution"
  bottom: "inception_4a/5x5_reduce"
  top: "inception_4a/5x5"
  param {
    lr_mult: 0
    decay_mult: 1
  }
  param {
    lr_mult: 2
    decay_mult: 0
  }
  convolution_param {
    num_output: 48
    pad: 2
    kernel_size: 5
    weight_filler {
      type: "xavier"
    }
    bias_filler {
      type: "constant"
      value: 0.2
    }
  }
}
layer {
  name: "inception_4a/relu_5x5"
  type: "ReLU"
  bottom: "inception_4a/5x5"
  top: "inception_4a/5x5"
}
layer {
  name: "inception_4a/pool"
  type: "Pooling"
  bottom: "pool3/3x3_s2"
  top: "inception_4a/pool"
  pooling_param {
    pool: MAX
    kernel_size: 3
    stride: 1
    pad: 1
  }
}
layer {
  name: "inception_4a/pool_proj"
  type: "Convolution"
  bottom: "inception_4a/pool"
  top: "inception_4a/pool_proj"
  param {
    lr_mult: 0
    decay_mult: 1
  }
  param {
    lr_mult: 2
    decay_mult: 0
  }
  convolution_param {
    num_output: 64
    kernel_size: 1
    weight_filler {
      type: "xavier"
    }
    bias_filler {
      type: "constant"
      value: 0.2
    }
  }
}
layer {
  name: "inception_4a/relu_pool_proj"
  type: "ReLU"
  bottom: "inception_4a/pool_proj"
  top: "inception_4a/pool_proj"
}
layer {
  name: "inception_4a/output"
  type: "Concat"
  bottom: "inception_4a/1x1"
  bottom: "inception_4a/3x3"
  bottom: "inception_4a/5x5"
  bottom: "inception_4a/pool_proj"
  top: "inception_4a/output"
}
layer {
  name: "inception_4b/1x1"
  type: "Convolution"
  bottom: "inception_4a/output"
  top: "inception_4b/1x1"
  param {
    lr_mult: 0
    decay_mult: 1
  }
  param {
    lr_mult: 2
    decay_mult: 0
  }
  convolution_param {
    num_output: 160
    kernel_size: 1
    weight_filler {
      type: "xavier"
    }
    bias_filler {
      type: "constant"
      value: 0.2
    }
  }
}
layer {
  name: "inception_4b/relu_1x1"
  type: "ReLU"
  bottom: "inception_4b/1x1"
  top: "inception_4b/1x1"
}
layer {
  name: "inception_4b/3x3_reduce"
  type: "Convolution"
  bottom: "inception_4a/output"
  top: "inception_4b/3x3_reduce"
  param {
    lr_mult: 0
    decay_mult: 1
  }
  param {
    lr_mult: 2
    decay_mult: 0
  }
  convolution_param {
    num_output: 112
    kernel_size: 1
    weight_filler {
      type: "xavier"
    }
    bias_filler {
      type: "constant"
      value: 0.2
    }
  }
}
layer {
  name: "inception_4b/relu_3x3_reduce"
  type: "ReLU"
  bottom: "inception_4b/3x3_reduce"
  top: "inception_4b/3x3_reduce"
}
layer {
  name: "inception_4b/3x3"
  type: "Convolution"
  bottom: "inception_4b/3x3_reduce"
  top: "inception_4b/3x3"
  param {
    lr_mult: 0
    decay_mult: 1
  }
  param {
    lr_mult: 2
    decay_mult: 0
  }
  convolution_param {
    num_output: 224
    pad: 1
    kernel_size: 3
    weight_filler {
      type: "xavier"
    }
    bias_filler {
      type: "constant"
      value: 0.2
    }
  }
}
layer {
  name: "inception_4b/relu_3x3"
  type: "ReLU"
  bottom: "inception_4b/3x3"
  top: "inception_4b/3x3"
}
layer {
  name: "inception_4b/5x5_reduce"
  type: "Convolution"
  bottom: "inception_4a/output"
  top: "inception_4b/5x5_reduce"
  param {
    lr_mult: 0
    decay_mult: 1
  }
  param {
    lr_mult: 2
    decay_mult: 0
  }
  convolution_param {
    num_output: 24
    kernel_size: 1
    weight_filler {
      type: "xavier"
    }
    bias_filler {
      type: "constant"
      value: 0.2
    }
  }
}
layer {
  name: "inception_4b/relu_5x5_reduce"
  type: "ReLU"
  bottom: "inception_4b/5x5_reduce"
  top: "inception_4b/5x5_reduce"
}
layer {
  name: "inception_4b/5x5"
  type: "Convolution"
  bottom: "inception_4b/5x5_reduce"
  top: "inception_4b/5x5"
  param {
    lr_mult: 0
    decay_mult: 1
  }
  param {
    lr_mult: 2
    decay_mult: 0
  }
  convolution_param {
    num_output: 64
    pad: 2
…
I0718 14:33:57.793171 33942 net.cpp:157] Top shape: 4 64 62 62 (984064)
I0718 14:33:57.793200 33942 net.cpp:165] Memory required for data: 3441793072
I0718 14:33:57.793231 33942 layer_factory.hpp:76] Creating layer inception_4c/pool
I0718 14:33:57.793269 33942 net.cpp:106] Creating Layer inception_4c/pool
I0718 14:33:57.793292 33942 net.cpp:454] inception_4c/pool <- inception_4b/output_inception_4b/output_0_split_3
I0718 14:33:57.793323 33942 net.cpp:411] inception_4c/pool -> inception_4c/pool
I0718 14:33:57.795657 33942 net.cpp:150] Setting up inception_4c/pool
I0718 14:33:57.795740 33942 net.cpp:157] Top shape: 4 512 62 62 (7872512)
I0718 14:33:57.795771 33942 net.cpp:165] Memory required for data: 3473283120
I0718 14:33:57.795804 33942 layer_factory.hpp:76] Creating layer inception_4c/pool_proj
I0718 14:33:57.795860 33942 net.cpp:106] Creating Layer inception_4c/pool_proj
I0718 14:33:57.795888 33942 net.cpp:454] inception_4c/pool_proj <- inception_4c/pool
I0718 14:33:57.795923 33942 net.cpp:411] inception_4c/pool_proj -> inception_4c/pool_proj
I0718 14:33:57.806465 33942 net.cpp:150] Setting up inception_4c/pool_proj
I0718 14:33:57.806555 33942 net.cpp:157] Top shape: 4 64 62 62 (984064)
I0718 14:33:57.806571 33942 net.cpp:165] Memory required for data: 3477219376
I0718 14:33:57.806639 33942 layer_factory.hpp:76] Creating layer inception_4c/relu_pool_proj
I0718 14:33:57.806691 33942 net.cpp:106] Creating Layer inception_4c/relu_pool_proj
I0718 14:33:57.806720 33942 net.cpp:454] inception_4c/relu_pool_proj <- inception_4c/pool_proj
I0718 14:33:57.806740 33942 net.cpp:397] inception_4c/relu_pool_proj -> inception_4c/pool_proj (in-place)
I0718 14:33:57.809265 33942 net.cpp:150] Setting up inception_4c/relu_pool_proj
I0718 14:33:57.809337 33942 net.cpp:157] Top shape: 4 64 62 62 (984064)
I0718 14:33:57.809355 33942 net.cpp:165] Memory required for data: 3481155632
I0718 14:33:57.809383 33942 layer_factory.hpp:76] Creating layer inception_4c/output
I0718 14:33:57.809411 33942 net.cpp:106] Creating Layer inception_4c/output
I0718 14:33:57.809445 33942 net.cpp:454] inception_4c/output <- inception_4c/1x1
I0718 14:33:57.809468 33942 net.cpp:454] inception_4c/output <- inception_4c/3x3
I0718 14:33:57.809554 33942 net.cpp:454] inception_4c/output <- inception_4c/5x5
I0718 14:33:57.809583 33942 net.cpp:454] inception_4c/output <- inception_4c/pool_proj
I0718 14:33:57.809613 33942 net.cpp:411] inception_4c/output -> inception_4c/output
I0718 14:33:57.809839 33942 net.cpp:150] Setting up inception_4c/output
I0718 14:33:57.809864 33942 net.cpp:157] Top shape: 4 512 62 62 (7872512)
I0718 14:33:57.809875 33942 net.cpp:165] Memory required for data: 3512645680
I0718 14:33:57.809892 33942 layer_factory.hpp:76] Creating layer inception_4c/output_inception_4c/output_0_split
I0718 14:33:57.809922 33942 net.cpp:106] Creating Layer inception_4c/output_inception_4c/output_0_split
I0718 14:33:57.809942 33942 net.cpp:454] inception_4c/output_inception_4c/output_0_split <- inception_4c/output
I0718 14:33:57.809965 33942 net.cpp:411] inception_4c/output_inception_4c/output_0_split -> inception_4c/output_inception_4c/output_0_split_0
I0718 14:33:57.810003 33942 net.cpp:411] inception_4c/output_inception_4c/output_0_split -> inception_4c/output_inception_4c/output_0_split_1
I0718 14:33:57.810031 33942 net.cpp:411] inception_4c/output_inception_4c/output_0_split -> inception_4c/output_inception_4c/output_0_split_2
I0718 14:33:57.810052 33942 net.cpp:411] inception_4c/output_inception_4c/output_0_split -> inception_4c/output_inception_4c/output_0_split_3
I0718 14:33:57.810343 33942 net.cpp:150] Setting up inception_4c/output_inception_4c/output_0_split
I0718 14:33:57.810370 33942 net.cpp:157] Top shape: 4 512 62 62 (7872512)
I0718 14:33:57.810390 33942 net.cpp:157] Top shape: 4 512 62 62 (7872512)
I0718 14:33:57.810407 33942 net.cpp:157] Top shape: 4 512 62 62 (7872512)
I0718 14:33:57.810427 33942 net.cpp:157] Top shape: 4 512 62 62 (7872512)
I0718 14:33:57.810443 33942 net.cpp:165] Memory required for data: 3638605872
I0718 14:33:57.810462 33942 layer_factory.hpp:76] Creating layer inception_4d/1x1
I0718 14:33:57.810497 33942 net.cpp:106] Creating Layer inception_4d/1x1
I0718 14:33:57.810514 33942 net.cpp:454] inception_4d/1x1 <- inception_4c/output_inception_4c/output_0_split_0
I0718 14:33:57.810534 33942 net.cpp:411] inception_4d/1x1 -> inception_4d/1x1
I0718 14:33:57.824324 33942 cudnn_conv_layer.cpp:194] Reallocating workspace storage: 6144
I0718 14:33:57.824897 33942 net.cpp:150] Setting up inception_4d/1x1
I0718 14:33:57.824980 33942 net.cpp:157] Top shape: 4 112 62 62 (1722112)
I0718 14:33:57.825013 33942 net.cpp:165] Memory required for data: 3645494320
I0718 14:33:57.825098 33942 layer_factory.hpp:76] Creating layer inception_4d/relu_1x1
I0718 14:33:57.825240 33942 net.cpp:106] Creating Layer inception_4d/relu_1x1
I0718 14:33:57.825337 33942 net.cpp:454] inception_4d/relu_1x1 <- inception_4d/1x1
I0718 14:33:57.825382 33942 net.cpp:397] inception_4d/relu_1x1 -> inception_4d/1x1 (in-place)
I0718 14:33:57.826776 33942 net.cpp:150] Setting up inception_4d/relu_1x1
I0718 14:33:57.826819 33942 net.cpp:157] Top shape: 4 112 62 62 (1722112)
I0718 14:33:57.826838 33942 net.cpp:165] Memory required for data: 3652382768
I0718 14:33:57.826855 33942 layer_factory.hpp:76] Creating layer inception_4d/3x3_reduce
I0718 14:33:57.826892 33942 net.cpp:106] Creating Layer inception_4d/3x3_reduce
I0718 14:33:57.826917 33942 net.cpp:454] inception_4d/3x3_reduce <- inception_4c/output_inception_4c/output_0_split_1
I0718 14:33:57.826946 33942 net.cpp:411] inception_4d/3x3_reduce -> inception_4d/3x3_reduce
I0718 14:33:57.837201 33942 cudnn_conv_layer.cpp:194] Reallocating workspace storage: 6144
I0718 14:33:57.837352 33942 net.cpp:150] Setting up inception_4d/3x3_reduce
I0718 14:33:57.837388 33942 net.cpp:157] Top shape: 4 144 62 62 (2214144)
I0718 14:33:57.837429 33942 net.cpp:165] Memory required for data: 3661239344
I0718 14:33:57.837481 33942 layer_factory.hpp:76] Creating layer inception_4d/relu_3x3_reduce
I0718 14:33:57.837560 33942 net.cpp:106] Creating Layer inception_4d/relu_3x3_reduce
I0718 14:33:57.837602 33942 net.cpp:454] inception_4d/relu_3x3_reduce <- inception_4d/3x3_reduce
I0718 14:33:57.837728 33942 net.cpp:397] inception_4d/relu_3x3_reduce -> inception_4d/3x3_reduce (in-place)
I0718 14:33:57.839743 33942 net.cpp:150] Setting up inception_4d/relu_3x3_reduce
I0718 14:33:57.839821 33942 net.cpp:157] Top shape: 4 144 62 62 (2214144)
I0718 14:33:57.839849 33942 net.cpp:165] Memory required for data: 3670095920
I0718 14:33:57.839877 33942 layer_factory.hpp:76] Creating layer inception_4d/3x3
I0718 14:33:57.839921 33942 net.cpp:106] Creating Layer inception_4d/3x3
I0718 14:33:57.839948 33942 net.cpp:454] inception_4d/3x3 <- inception_4d/3x3_reduce
I0718 14:33:57.839977 33942 net.cpp:411] inception_4d/3x3 -> inception_4d/3x3
I0718 14:33:57.855849 33942 cudnn_conv_layer.cpp:194] Reallocating workspace storage: 15552
I0718 14:33:57.856045 33942 net.cpp:150] Setting up inception_4d/3x3
I0718 14:33:57.856075 33942 net.cpp:157] Top shape: 4 288 62 62 (4428288)
I0718 14:33:57.856094 33942 net.cpp:165] Memory required for data: 3687809072
I0718 14:33:57.856119 33942 layer_factory.hpp:76] Creating layer inception_4d/relu_3x3
I0718 14:33:57.856149 33942 net.cpp:106] Creating Layer inception_4d/relu_3x3
I0718 14:33:57.856192 33942 net.cpp:454] inception_4d/relu_3x3 <- inception_4d/3x3
I0718 14:33:57.856251 33942 net.cpp:397] inception_4d/relu_3x3 -> inception_4d/3x3 (in-place)
I0718 14:33:57.857547 33942 net.cpp:150] Setting up inception_4d/relu_3x3
I0718 14:33:57.857581 33942 net.cpp:157] Top shape: 4 288 62 62 (4428288)
I0718 14:33:57.857597 33942 net.cpp:165] Memory required for data: 3705522224
I0718 14:33:57.857614 33942 layer_factory.hpp:76] Creating layer inception_4d/5x5_reduce
I0718 14:33:57.857652 33942 net.cpp:106] Creating Layer inception_4d/5x5_reduce
I0718 14:33:57.857678 33942 net.cpp:454] inception_4d/5x5_reduce <- inception_4c/output_inception_4c/output_0_split_2
I0718 14:33:57.857707 33942 net.cpp:411] inception_4d/5x5_reduce -> inception_4d/5x5_reduce
I0718 14:33:57.865418 33942 net.cpp:150] Setting up inception_4d/5x5_reduce
I0718 14:33:57.865486 33942 net.cpp:157] Top shape: 4 32 62 62 (492032)
I0718 14:33:57.865502 33942 net.cpp:165] Memory required for data: 3707490352
I0718 14:33:57.865526 33942 layer_factory.hpp:76] Creating layer inception_4d/relu_5x5_reduce
I0718 14:33:57.865556 33942 net.cpp:106] Creating Layer inception_4d/relu_5x5_reduce
I0718 14:33:57.865576 33942 net.cpp:454] inception_4d/relu_5x5_reduce <- inception_4d/5x5_reduce
I0718 14:33:57.865594 33942 net.cpp:397] inception_4d/relu_5x5_reduce -> inception_4d/5x5_reduce (in-place)
I0718 14:33:57.866852 33942 net.cpp:150] Setting up inception_4d/relu_5x5_reduce
I0718 14:33:57.866892 33942 net.cpp:157] Top shape: 4 32 62 62 (492032)
I0718 14:33:57.866907 33942 net.cpp:165] Memory required for data: 3709458480
I0718 14:33:57.866921 33942 layer_factory.hpp:76] Creating layer inception_4d/5x5
I0718 14:33:57.866950 33942 net.cpp:106] Creating Layer inception_4d/5x5
I0718 14:33:57.866976 33942 net.cpp:454] inception_4d/5x5 <- inception_4d/5x5_reduce
I0718 14:33:57.866996 33942 net.cpp:411] inception_4d/5x5 -> inception_4d/5x5
I0718 14:33:57.876862 33942 net.cpp:150] Setting up inception_4d/5x5
I0718 14:33:57.876950 33942 net.cpp:157] Top shape: 4 64 62 62 (984064)
I0718 14:33:57.876965 33942 net.cpp:165] Memory required for data: 3713394736
I0718 14:33:57.876991 33942 layer_factory.hpp:76] Creating layer inception_4d/relu_5x5
I0718 14:33:57.877022 33942 net.cpp:106] Creating Layer inception_4d/relu_5x5
I0718 14:33:57.877043 33942 net.cpp:454] inception_4d/relu_5x5 <- inception_4d/5x5
I0718 14:33:57.877060 33942 net.cpp:397] inception_4d/relu_5x5 -> inception_4d/5x5 (in-place)
I0718 14:33:57.877931 33942 net.cpp:150] Setting up inception_4d/relu_5x5
I0718 14:33:57.877966 33942 net.cpp:157] Top shape: 4 64 62 62 (984064)
I0718 14:33:57.877981 33942 net.cpp:165] Memory required for data: 3717330992
I0718 14:33:57.877998 33942 layer_factory.hpp:76] Creating layer inception_4d/pool
I0718 14:33:57.878028 33942 net.cpp:106] Creating Layer inception_4d/pool
I0718 14:33:57.878044 33942 net.cpp:454] inception_4d/pool <- inception_4c/output_inception_4c/output_0_split_3
I0718 14:33:57.878099 33942 net.cpp:411] inception_4d/pool -> inception_4d/pool
I0718 14:33:57.880216 33942 net.cpp:150] Setting up inception_4d/pool
I0718 14:33:57.880261 33942 net.cpp:157] Top shape: 4 512 62 62 (7872512)
I0718 14:33:57.880276 33942 net.cpp:165] Memory required for data: 3748821040
I0718 14:33:57.880291 33942 layer_factory.hpp:76] Creating layer inception_4d/pool_proj
I0718 14:33:57.880319 33942 net.cpp:106] Creating Layer inception_4d/pool_proj
I0718 14:33:57.880336 33942 net.cpp:454] inception_4d/pool_proj <- inception_4d/pool
I0718 14:33:57.880358 33942 net.cpp:411] inception_4d/pool_proj -> inception_4d/pool_proj
I0718 14:33:57.886754 33942 net.cpp:150] Setting up inception_4d/pool_proj
I0718 14:33:57.886816 33942 net.cpp:157] Top shape: 4 64 62 62 (984064)
I0718 14:33:57.886833 33942 net.cpp:165] Memory required for data: 3752757296
I0718 14:33:57.886862 33942 layer_factory.hpp:76] Creating layer inception_4d/relu_pool_proj
I0718 14:33:57.886906 33942 net.cpp:106] Creating Layer inception_4d/relu_pool_proj
I0718 14:33:57.886926 33942 net.cpp:454] inception_4d/relu_pool_proj <- inception_4d/pool_proj
I0718 14:33:57.886950 33942 net.cpp:397] inception_4d/relu_pool_proj -> inception_4d/pool_proj (in-place)
I0718 14:33:57.887799 33942 net.cpp:150] Setting up inception_4d/relu_pool_proj
I0718 14:33:57.887842 33942 net.cpp:157] Top shape: 4 64 62 62 (984064)
I0718 14:33:57.887858 33942 net.cpp:165] Memory required for data: 3756693552
I0718 14:33:57.887876 33942 layer_factory.hpp:76] Creating layer inception_4d/output
I0718 14:33:57.887905 33942 net.cpp:106] Creating Layer inception_4d/output
I0718 14:33:57.887923 33942 net.cpp:454] inception_4d/output <- inception_4d/1x1
I0718 14:33:57.887943 33942 net.cpp:454] inception_4d/output <- inception_4d/3x3
I0718 14:33:57.887960 33942 net.cpp:454] inception_4d/output <- inception_4d/5x5
I0718 14:33:57.887976 33942 net.cpp:454] inception_4d/output <- inception_4d/pool_proj
I0718 14:33:57.887997 33942 net.cpp:411] inception_4d/output -> inception_4d/output
I0718 14:33:57.888095 33942 net.cpp:150] Setting up inception_4d/output
I0718 14:33:57.888118 33942 net.cpp:157] Top shape: 4 528 62 62 (8118528)
I0718 14:33:57.888133 33942 net.cpp:165] Memory required for data: 3789167664
I0718 14:33:57.888150 33942 layer_factory.hpp:76] Creating layer inception_4d/output_inception_4d/output_0_split
I0718 14:33:57.888172 33942 net.cpp:106] Creating Layer inception_4d/output_inception_4d/output_0_split
I0718 14:33:57.888187 33942 net.cpp:454] inception_4d/output_inception_4d/output_0_split <- inception_4d/output
I0718 14:33:57.888208 33942 net.cpp:411] inception_4d/output_inception_4d/output_0_split -> inception_4d/output_inception_4d/output_0_split_0
I0718 14:33:57.888231 33942 net.cpp:411] inception_4d/output_inception_4d/output_0_split -> inception_4d/output_inception_4d/output_0_split_1
I0718 14:33:57.888253 33942 net.cpp:411] inception_4d/output_inception_4d/output_0_split -> inception_4d/output_inception_4d/output_0_split_2
I0718 14:33:57.888273 33942 net.cpp:411] inception_4d/output_inception_4d/output_0_split -> inception_4d/output_inception_4d/output_0_split_3
I0718 14:33:57.888476 33942 net.cpp:150] Setting up inception_4d/output_inception_4d/output_0_split
I0718 14:33:57.888499 33942 net.cpp:157] Top shape: 4 528 62 62 (8118528)
I0718 14:33:57.888515 33942 net.cpp:157] Top shape: 4 528 62 62 (8118528)
I0718 14:33:57.888533 33942 net.cpp:157] Top shape: 4 528 62 62 (8118528)
I0718 14:33:57.888548 33942 net.cpp:157] Top shape: 4 528 62 62 (8118528)
I0718 14:33:57.888561 33942 net.cpp:165] Memory required for data: 3919064112
I0718 14:33:57.888576 33942 layer_factory.hpp:76] Creating layer inception_4e/1x1
I0718 14:33:57.888605 33942 net.cpp:106] Creating Layer inception_4e/1x1
I0718 14:33:57.888622 33942 net.cpp:454] inception_4e/1x1 <- inception_4d/output_inception_4d/output_0_split_0
I0718 14:33:57.888639 33942 net.cpp:411] inception_4e/1x1 -> inception_4e/1x1
I0718 14:33:57.897076 33942 cudnn_conv_layer.cpp:194] Reallocating workspace storage: 6336
I0718 14:33:57.897295 33942 net.cpp:150] Setting up inception_4e/1x1
I0718 14:33:57.897327 33942 net.cpp:157] Top shape: 4 256 62 62 (3936256)
I0718 14:33:57.897347 33942 net.cpp:165] Memory required for data: 3934809136
I0718 14:33:57.897369 33942 layer_factory.hpp:76] Creating layer inception_4e/relu_1x1
I0718 14:33:57.897395 33942 net.cpp:106] Creating Layer inception_4e/relu_1x1
I0718 14:33:57.897413 33942 net.cpp:454] inception_4e/relu_1x1 <- inception_4e/1x1
I0718 14:33:57.897433 33942 net.cpp:397] inception_4e/relu_1x1 -> inception_4e/1x1 (in-place)
I0718 14:33:57.900148 33942 net.cpp:150] Setting up inception_4e/relu_1x1
I0718 14:33:57.900215 33942 net.cpp:157] Top shape: 4 256 62 62 (3936256)
I0718 14:33:57.900231 33942 net.cpp:165] Memory required for data: 3950554160
I0718 14:33:57.900249 33942 layer_factory.hpp:76] Creating layer inception_4e/3x3_reduce
I0718 14:33:57.900279 33942 net.cpp:106] Creating Layer inception_4e/3x3_reduce
I0718 14:33:57.900305 33942 net.cpp:454] inception_4e/3x3_reduce <- inception_4d/output_inception_4d/output_0_split_1
I0718 14:33:57.900332 33942 net.cpp:411] inception_4e/3x3_reduce -> inception_4e/3x3_reduce
I0718 14:33:57.906251 33942 net.cpp:150] Setting up inception_4e/3x3_reduce
I0718 14:33:57.906347 33942 net.cpp:157] Top shape: 4 160 62 62 (2460160)
I0718 14:33:57.906361 33942 net.cpp:165] Memory required for data: 3960394800
I0718 14:33:57.906391 33942 layer_factory.hpp:76] Creating layer inception_4e/relu_3x3_reduce
I0718 14:33:57.906419 33942 net.cpp:106] Creating Layer inception_4e/relu_3x3_reduce
I0718 14:33:57.906442 33942 net.cpp:454] inception_4e/relu_3x3_reduce <- inception_4e/3x3_reduce
I0718 14:33:57.906466 33942 net.cpp:397] inception_4e/relu_3x3_reduce -> inception_4e/3x3_reduce (in-place)
I0718 14:33:57.907378 33942 net.cpp:150] Setting up inception_4e/relu_3x3_reduce
I0718 14:33:57.907413 33942 net.cpp:157] Top shape: 4 160 62 62 (2460160)
I0718 14:33:57.907428 33942 net.cpp:165] Memory required for data: 3970235440
I0718 14:33:57.907444 33942 layer_factory.hpp:76] Creating layer inception_4e/3x3
I0718 14:33:57.907469 33942 net.cpp:106] Creating Layer inception_4e/3x3
I0718 14:33:57.907485 33942 net.cpp:454] inception_4e/3x3 <- inception_4e/3x3_reduce
I0718 14:33:57.907507 33942 net.cpp:411] inception_4e/3x3 -> inception_4e/3x3
I0718 14:33:57.918134 33942 net.cpp:150] Setting up inception_4e/3x3
I0718 14:33:57.918249 33942 net.cpp:157] Top shape: 4 320 62 62 (4920320)
I0718 14:33:57.918268 33942 net.cpp:165] Memory required for data: 3989916720
I0718 14:33:57.918294 33942 layer_factory.hpp:76] Creating layer inception_4e/relu_3x3
I0718 14:33:57.918329 33942 net.cpp:106] Creating Layer inception_4e/relu_3x3
I0718 14:33:57.918349 33942 net.cpp:454] inception_4e/relu_3x3 <- inception_4e/3x3
I0718 14:33:57.918372 33942 net.cpp:397] inception_4e/relu_3x3 -> inception_4e/3x3 (in-place)
I0718 14:33:57.920979 33942 net.cpp:150] Setting up inception_4e/relu_3x3
I0718 14:33:57.921041 33942 net.cpp:157] Top shape: 4 320 62 62 (4920320)
I0718 14:33:57.921057 33942 net.cpp:165] Memory required for data: 4009598000
I0718 14:33:57.921075 33942 layer_factory.hpp:76] Creating layer inception_4e/5x5_reduce
I0718 14:33:57.921113 33942 net.cpp:106] Creating Layer inception_4e/5x5_reduce
I0718 14:33:57.921138 33942 net.cpp:454] inception_4e/5x5_reduce <- inception_4d/output_inception_4d/output_0_split_2
I0718 14:33:57.921160 33942 net.cpp:411] inception_4e/5x5_reduce -> inception_4e/5x5_reduce
I0718 14:33:57.925683 33942 net.cpp:150] Setting up inception_4e/5x5_reduce
I0718 14:33:57.925782 33942 net.cpp:157] Top shape: 4 32 62 62 (492032)
I0718 14:33:57.925801 33942 net.cpp:165] Memory required for data: 4011566128
I0718 14:33:57.925838 33942 layer_factory.hpp:76] Creating layer inception_4e/relu_5x5_reduce
I0718 14:33:57.925865 33942 net.cpp:106] Creating Layer inception_4e/relu_5x5_reduce
I0718 14:33:57.925887 33942 net.cpp:454] inception_4e/relu_5x5_reduce <- inception_4e/5x5_reduce
I0718 14:33:57.925906 33942 net.cpp:397] inception_4e/relu_5x5_reduce -> inception_4e/5x5_reduce (in-place)
I0718 14:33:57.927970 33942 net.cpp:150] Setting up inception_4e/relu_5x5_reduce
I0718 14:33:57.928014 33942 net.cpp:157] Top shape: 4 32 62 62 (492032)
I0718 14:33:57.928030 33942 net.cpp:165] Memory required for data: 4013534256
I0718 14:33:57.928046 33942 layer_factory.hpp:76] Creating layer inception_4e/5x5
I0718 14:33:57.928082 33942 net.cpp:106] Creating Layer inception_4e/5x5
I0718 14:33:57.928099 33942 net.cpp:454] inception_4e/5x5 <- inception_4e/5x5_reduce
I0718 14:33:57.928122 33942 net.cpp:411] inception_4e/5x5 -> inception_4e/5x5
I0718 14:33:57.940448 33942 cudnn_conv_layer.cpp:194] Reallocating workspace storage: 9600
I0718 14:33:57.940605 33942 net.cpp:150] Setting up inception_4e/5x5
I0718 14:33:57.940647 33942 net.cpp:157] Top shape: 4 128 62 62 (1968128)
I0718 14:33:57.940665 33942 net.cpp:165] Memory required for data: 4021406768
I0718 14:33:57.940692 33942 layer_factory.hpp:76] Creating layer inception_4e/relu_5x5
I0718 14:33:57.940731 33942 net.cpp:106] Creating Layer inception_4e/relu_5x5
I0718 14:33:57.940757 33942 net.cpp:454] inception_4e/relu_5x5 <- inception_4e/5x5
I0718 14:33:57.940788 33942 net.cpp:397] inception_4e/relu_5x5 -> inception_4e/5x5 (in-place)
I0718 14:33:57.943114 33942 net.cpp:150] Setting up inception_4e/relu_5x5
I0718 14:33:57.943151 33942 net.cpp:157] Top shape: 4 128 62 62 (1968128)
I0718 14:33:57.943168 33942 net.cpp:165] Memory required for data: 4029279280
I0718 14:33:57.943184 33942 layer_factory.hpp:76] Creating layer inception_4e/pool
I0718 14:33:57.943218 33942 net.cpp:106] Creating Layer inception_4e/pool
I0718 14:33:57.943239 33942 net.cpp:454] inception_4e/pool <- inception_4d/output_inception_4d/output_0_split_3
I0718 14:33:57.943264 33942 net.cpp:411] inception_4e/pool -> inception_4e/pool
I0718 14:33:57.946465 33942 net.cpp:150] Setting up inception_4e/pool
I0718 14:33:57.946506 33942 net.cpp:157] Top shape: 4 528 62 62 (8118528)
I0718 14:33:57.946524 33942 net.cpp:165] Memory required for data: 4061753392
I0718 14:33:57.946544 33942 layer_factory.hpp:76] Creating layer inception_4e/pool_proj
I0718 14:33:57.946580 33942 net.cpp:106] Creating Layer inception_4e/pool_proj
I0718 14:33:57.946601 33942 net.cpp:454] inception_4e/pool_proj <- inception_4e/pool
I0718 14:33:57.946625 33942 net.cpp:411] inception_4e/pool_proj -> inception_4e/pool_proj
I0718 14:33:57.956138 33942 cudnn_conv_layer.cpp:194] Reallocating workspace storage: 6336
I0718 14:33:57.956272 33942 net.cpp:150] Setting up inception_4e/pool_proj
I0718 14:33:57.956300 33942 net.cpp:157] Top shape: 4 128 62 62 (1968128)
I0718 14:33:57.956315 33942 net.cpp:165] Memory required for data: 4069625904
I0718 14:33:57.956337 33942 layer_factory.hpp:76] Creating layer inception_4e/relu_pool_proj
I0718 14:33:57.956367 33942 net.cpp:106] Creating Layer inception_4e/relu_pool_proj
I0718 14:33:57.956387 33942 net.cpp:454] inception_4e/relu_pool_proj <- inception_4e/pool_proj
I0718 14:33:57.956408 33942 net.cpp:397] inception_4e/relu_pool_proj -> inception_4e/pool_proj (in-place)
I0718 14:33:57.957196 33942 net.cpp:150] Setting up inception_4e/relu_pool_proj
I0718 14:33:57.957222 33942 net.cpp:157] Top shape: 4 128 62 62 (1968128)
I0718 14:33:57.957237 33942 net.cpp:165] Memory required for data: 4077498416
I0718 14:33:57.957252 33942 layer_factory.hpp:76] Creating layer inception_4e/output
I0718 14:33:57.957274 33942 net.cpp:106] Creating Layer inception_4e/output
I0718 14:33:57.957291 33942 net.cpp:454] inception_4e/output <- inception_4e/1x1
I0718 14:33:57.957312 33942 net.cpp:454] inception_4e/output <- inception_4e/3x3
I0718 14:33:57.957327 33942 net.cpp:454] inception_4e/output <- inception_4e/5x5
I0718 14:33:57.957346 33942 net.cpp:454] inception_4e/output <- inception_4e/pool_proj
I0718 14:33:57.957365 33942 net.cpp:411] inception_4e/output -> inception_4e/output
I0718 14:33:57.957443 33942 net.cpp:150] Setting up inception_4e/output
I0718 14:33:57.957468 33942 net.cpp:157] Top shape: 4 832 62 62 (12792832)
I0718 14:33:57.957480 33942 net.cpp:165] Memory required for data: 4128669744
I0718 14:33:57.957545 33942 layer_factory.hpp:76] Creating layer pool4/3x3_s2
I0718 14:33:57.957572 33942 net.cpp:106] Creating Layer pool4/3x3_s2
I0718 14:33:57.957590 33942 net.cpp:454] pool4/3x3_s2 <- inception_4e/output
I0718 14:33:57.957629 33942 net.cpp:411] pool4/3x3_s2 -> pool4/3x3_s2
I0718 14:33:57.961616 33942 net.cpp:150] Setting up pool4/3x3_s2
I0718 14:33:57.961663 33942 net.cpp:157] Top shape: 4 832 31 31 (3198208)
I0718 14:33:57.961670 33942 net.cpp:165] Memory required for data: 4141462576
I0718 14:33:57.961680 33942 layer_factory.hpp:76] Creating layer pool4/3x3_s2_pool4/3x3_s2_0_split
I0718 14:33:57.961701 33942 net.cpp:106] Creating Layer pool4/3x3_s2_pool4/3x3_s2_0_split
I0718 14:33:57.961711 33942 net.cpp:454] pool4/3x3_s2_pool4/3x3_s2_0_split <- pool4/3x3_s2
I0718 14:33:57.961732 33942 net.cpp:411] pool4/3x3_s2_pool4/3x3_s2_0_split -> pool4/3x3_s2_pool4/3x3_s2_0_split_0
I0718 14:33:57.961750 33942 net.cpp:411] pool4/3x3_s2_pool4/3x3_s2_0_split -> pool4/3x3_s2_pool4/3x3_s2_0_split_1
I0718 14:33:57.961762 33942 net.cpp:411] pool4/3x3_s2_pool4/3x3_s2_0_split -> pool4/3x3_s2_pool4/3x3_s2_0_split_2
I0718 14:33:57.961776 33942 net.cpp:411] pool4/3x3_s2_pool4/3x3_s2_0_split -> pool4/3x3_s2_pool4/3x3_s2_0_split_3
I0718 14:33:57.961956 33942 net.cpp:150] Setting up pool4/3x3_s2_pool4/3x3_s2_0_split
I0718 14:33:57.961968 33942 net.cpp:157] Top shape: 4 832 31 31 (3198208)
I0718 14:33:57.961977 33942 net.cpp:157] Top shape: 4 832 31 31 (3198208)
I0718 14:33:57.961985 33942 net.cpp:157] Top shape: 4 832 31 31 (3198208)
I0718 14:33:57.961993 33942 net.cpp:157] Top shape: 4 832 31 31 (3198208)
I0718 14:33:57.962000 33942 net.cpp:165] Memory required for data: 4192633904
I0718 14:33:57.962008 33942 layer_factory.hpp:76] Creating layer inception_5a/1x1
I0718 14:33:57.962033 33942 net.cpp:106] Creating Layer inception_5a/1x1
I0718 14:33:57.962044 33942 net.cpp:454] inception_5a/1x1 <- pool4/3x3_s2_pool4/3x3_s2_0_split_0
I0718 14:33:57.962060 33942 net.cpp:411] inception_5a/1x1 -> inception_5a/1x1
I0718 14:33:57.975437 33942 cudnn_conv_layer.cpp:194] Reallocating workspace storage: 9984
I0718 14:33:57.975548 33942 net.cpp:150] Setting up inception_5a/1x1
I0718 14:33:57.975580 33942 net.cpp:157] Top shape: 4 256 31 31 (984064)
I0718 14:33:57.975596 33942 net.cpp:165] Memory required for data: 4196570160
I0718 14:33:57.975620 33942 layer_factory.hpp:76] Creating layer inception_5a/relu_1x1
I0718 14:33:57.975646 33942 net.cpp:106] Creating Layer inception_5a/relu_1x1
I0718 14:33:57.975664 33942 net.cpp:454] inception_5a/relu_1x1 <- inception_5a/1x1
I0718 14:33:57.975685 33942 net.cpp:397] inception_5a/relu_1x1 -> inception_5a/1x1 (in-place)
I0718 14:33:57.977138 33942 net.cpp:150] Setting up inception_5a/relu_1x1
I0718 14:33:57.977165 33942 net.cpp:157] Top shape: 4 256 31 31 (984064)
I0718 14:33:57.977180 33942 net.cpp:165] Memory required for data: 4200506416
I0718 14:33:57.977195 33942 layer_factory.hpp:76] Creating layer inception_5a/3x3_reduce
I0718 14:33:57.977222 33942 net.cpp:106] Creating Layer inception_5a/3x3_reduce
I0718 14:33:57.977238 33942 net.cpp:454] inception_5a/3x3_reduce <- pool4/3x3_s2_pool4/3x3_s2_0_split_1
I0718 14:33:57.977262 33942 net.cpp:411] inception_5a/3x3_reduce -> inception_5a/3x3_reduce
I0718 14:33:57.992113 33942 cudnn_conv_layer.cpp:194] Reallocating workspace storage: 9984
I0718 14:33:57.992324 33942 net.cpp:150] Setting up inception_5a/3x3_reduce
I0718 14:33:57.992424 33942 net.cpp:157] Top shape: 4 160 31 31 (615040)
I0718 14:33:57.992461 33942 net.cpp:165] Memory required for data: 4202966576
I0718 14:33:57.992525 33942 layer_factory.hpp:76] Creating layer inception_5a/relu_3x3_reduce
I0718 14:33:57.992596 33942 net.cpp:106] Creating Layer inception_5a/relu_3x3_reduce
I0718 14:33:57.992622 33942 net.cpp:454] inception_5a/relu_3x3_reduce <- inception_5a/3x3_reduce
I0718 14:33:57.992646 33942 net.cpp:397] inception_5a/relu_3x3_reduce -> inception_5a/3x3_reduce (in-place)
I0718 14:33:57.993052 33942 net.cpp:150] Setting up inception_5a/relu_3x3_reduce
I0718 14:33:57.993165 33942 net.cpp:157] Top shape: 4 160 31 31 (615040)
I0718 14:33:57.993185 33942 net.cpp:165] Memory required for data: 4205426736
I0718 14:33:57.993206 33942 layer_factory.hpp:76] Creating layer inception_5a/3x3
I0718 14:33:57.993242 33942 net.cpp:106] Creating Layer inception_5a/3x3
I0718 14:33:57.993269 33942 net.cpp:454] inception_5a/3x3 <- inception_5a/3x3_reduce
I0718 14:33:57.993297 33942 net.cpp:411] inception_5a/3x3 -> inception_5a/3x3
I0718 14:33:58.005307 33942 net.cpp:150] Setting up inception_5a/3x3
I0718 14:33:58.005373 33942 net.cpp:157] Top shape: 4 320 31 31 (1230080)
I0718 14:33:58.005389 33942 net.cpp:165] Memory required for data: 4210347056
I0718 14:33:58.005415 33942 layer_factory.hpp:76] Creating layer inception_5a/relu_3x3
I0718 14:33:58.005441 33942 net.cpp:106] Creating Layer inception_5a/relu_3x3
I0718 14:33:58.005460 33942 net.cpp:454] inception_5a/relu_3x3 <- inception_5a/3x3
I0718 14:33:58.005481 33942 net.cpp:397] inception_5a/relu_3x3 -> inception_5a/3x3 (in-place)
I0718 14:33:58.006469 33942 net.cpp:150] Setting up inception_5a/relu_3x3
I0718 14:33:58.006499 33942 net.cpp:157] Top shape: 4 320 31 31 (1230080)
I0718 14:33:58.006513 33942 net.cpp:165] Memory required for data: 4215267376
I0718 14:33:58.006528 33942 layer_factory.hpp:76] Creating layer inception_5a/5x5_reduce
I0718 14:33:58.006557 33942 net.cpp:106] Creating Layer inception_5a/5x5_reduce
I0718 14:33:58.006574 33942 net.cpp:454] inception_5a/5x5_reduce <- pool4/3x3_s2_pool4/3x3_s2_0_split_2
I0718 14:33:58.006593 33942 net.cpp:411] inception_5a/5x5_reduce -> inception_5a/5x5_reduce
I0718 14:33:58.012723 33942 cudnn_conv_layer.cpp:194] Reallocating workspace storage: 9984
I0718 14:33:58.012832 33942 net.cpp:150] Setting up inception_5a/5x5_reduce
I0718 14:33:58.012861 33942 net.cpp:157] Top shape: 4 32 31 31 (123008)
I0718 14:33:58.012876 33942 net.cpp:165] Memory required for data: 4215759408
I0718 14:33:58.012897 33942 layer_factory.hpp:76] Creating layer inception_5a/relu_5x5_reduce
I0718 14:33:58.012923 33942 net.cpp:106] Creating Layer inception_5a/relu_5x5_reduce
I0718 14:33:58.012940 33942 net.cpp:454] inception_5a/relu_5x5_reduce <- inception_5a/5x5_reduce
I0718 14:33:58.012964 33942 net.cpp:397] inception_5a/relu_5x5_reduce -> inception_5a/5x5_reduce (in-place)
I0718 14:33:58.013855 33942 net.cpp:150] Setting up inception_5a/relu_5x5_reduce
I0718 14:33:58.013881 33942 net.cpp:157] Top shape: 4 32 31 31 (123008)
I0718 14:33:58.013898 33942 net.cpp:165] Memory required for data: 4216251440
I0718 14:33:58.013914 33942 layer_factory.hpp:76] Creating layer inception_5a/5x5
I0718 14:33:58.014133 33942 net.cpp:106] Creating Layer inception_5a/5x5
I0718 14:33:58.014154 33942 net.cpp:454] inception_5a/5x5 <- inception_5a/5x5_reduce
I0718 14:33:58.014174 33942 net.cpp:411] inception_5a/5x5 -> inception_5a/5x5
I0718 14:33:58.021016 33942 cudnn_conv_layer.cpp:194] Reallocating workspace storage: 9600
I0718 14:33:58.021167 33942 net.cpp:150] Setting up inception_5a/5x5
I0718 14:33:58.021206 33942 net.cpp:157] Top shape: 4 128 31 31 (492032)
I0718 14:33:58.021237 33942 net.cpp:165] Memory required for data: 4218219568
I0718 14:33:58.021270 33942 layer_factory.hpp:76] Creating layer inception_5a/relu_5x5
I0718 14:33:58.021307 33942 net.cpp:106] Creating Layer inception_5a/relu_5x5
I0718 14:33:58.021342 33942 net.cpp:454] inception_5a/relu_5x5 <- inception_5a/5x5
I0718 14:33:58.021361 33942 net.cpp:397] inception_5a/relu_5x5 -> inception_5a/5x5 (in-place)
I0718 14:33:58.023252 33942 net.cpp:150] Setting up inception_5a/relu_5x5
I0718 14:33:58.023298 33942 net.cpp:157] Top shape: 4 128 31 31 (492032)
I0718 14:33:58.023320 33942 net.cpp:165] Memory required for data: 4220187696
I0718 14:33:58.023349 33942 layer_factory.hpp:76] Creating layer inception_5a/pool
I0718 14:33:58.023381 33942 net.cpp:106] Creating Layer inception_5a/pool
I0718 14:33:58.023412 33942 net.cpp:454] inception_5a/pool <- pool4/3x3_s2_pool4/3x3_s2_0_split_3
I0718 14:33:58.023458 33942 net.cpp:411] inception_5a/pool -> inception_5a/pool
I0718 14:33:58.026823 33942 net.cpp:150] Setting up inception_5a/pool
I0718 14:33:58.026918 33942 net.cpp:157] Top shape: 4 832 31 31 (3198208)
I0718 14:33:58.026942 33942 net.cpp:165] Memory required for data: 4232980528
I0718 14:33:58.026968 33942 layer_factory.hpp:76] Creating layer inception_5a/pool_proj
I0718 14:33:58.027011 33942 net.cpp:106] Creating Layer inception_5a/pool_proj
I0718 14:33:58.027043 33942 net.cpp:454] inception_5a/pool_proj <- inception_5a/pool
I0718 14:33:58.027072 33942 net.cpp:411] inception_5a/pool_proj -> inception_5a/pool_proj
I0718 14:33:58.033120 33942 cudnn_conv_layer.cpp:194] Reallocating workspace storage: 9984
I0718 14:33:58.033233 33942 net.cpp:150] Setting up inception_5a/pool_proj
I0718 14:33:58.033268 33942 net.cpp:157] Top shape: 4 128 31 31 (492032)
I0718 14:33:58.033303 33942 net.cpp:165] Memory required for data: 4234948656
I0718 14:33:58.033329 33942 layer_factory.hpp:76] Creating layer inception_5a/relu_pool_proj
I0718 14:33:58.033354 33942 net.cpp:106] Creating Layer inception_5a/relu_pool_proj
I0718 14:33:58.033372 33942 net.cpp:454] inception_5a/relu_pool_proj <- inception_5a/pool_proj
I0718 14:33:58.033398 33942 net.cpp:397] inception_5a/relu_pool_proj -> inception_5a/pool_proj (in-place)
I0718 14:33:58.034232 33942 net.cpp:150] Setting up inception_5a/relu_pool_proj
I0718 14:33:58.034263 33942 net.cpp:157] Top shape: 4 128 31 31 (492032)
I0718 14:33:58.034281 33942 net.cpp:165] Memory required for data: 4236916784
I0718 14:33:58.034303 33942 layer_factory.hpp:76] Creating layer inception_5a/output
I0718 14:33:58.034327 33942 net.cpp:106] Creating Layer inception_5a/output
I0718 14:33:58.034344 33942 net.cpp:454] inception_5a/output <- inception_5a/1x1
I0718 14:33:58.034363 33942 net.cpp:454] inception_5a/output <- inception_5a/3x3
I0718 14:33:58.034386 33942 net.cpp:454] inception_5a/output <- inception_5a/5x5
I0718 14:33:58.034407 33942 net.cpp:454] inception_5a/output <- inception_5a/pool_proj
I0718 14:33:58.034432 33942 net.cpp:411] inception_5a/output -> inception_5a/output
I0718 14:33:58.034536 33942 net.cpp:150] Setting up inception_5a/output
I0718 14:33:58.034561 33942 net.cpp:157] Top shape: 4 832 31 31 (3198208)
I0718 14:33:58.034576 33942 net.cpp:165] Memory required for data: 4249709616
I0718 14:33:58.034600 33942 layer_factory.hpp:76] Creating layer inception_5a/output_inception_5a/output_0_split
I0718 14:33:58.034624 33942 net.cpp:106] Creating Layer inception_5a/output_inception_5a/output_0_split
I0718 14:33:58.034653 33942 net.cpp:454] inception_5a/output_inception_5a/output_0_split <- inception_5a/output
I0718 14:33:58.034677 33942 net.cpp:411] inception_5a/output_inception_5a/output_0_split -> inception_5a/output_inception_5a/output_0_split_0
I0718 14:33:58.034703 33942 net.cpp:411] inception_5a/output_inception_5a/output_0_split -> inception_5a/output_inception_5a/output_0_split_1
I0718 14:33:58.034729 33942 net.cpp:411] inception_5a/output_inception_5a/output_0_split -> inception_5a/output_inception_5a/output_0_split_2
I0718 14:33:58.034749 33942 net.cpp:411] inception_5a/output_inception_5a/output_0_split -> inception_5a/output_inception_5a/output_0_split_3
I0718 14:33:58.035014 33942 net.cpp:150] Setting up inception_5a/output_inception_5a/output_0_split
I0718 14:33:58.035043 33942 net.cpp:157] Top shape: 4 832 31 31 (3198208)
I0718 14:33:58.035063 33942 net.cpp:157] Top shape: 4 832 31 31 (3198208)
I0718 14:33:58.035085 33942 net.cpp:157] Top shape: 4 832 31 31 (3198208)
I0718 14:33:58.035099 33942 net.cpp:157] Top shape: 4 832 31 31 (3198208)
I0718 14:33:58.035115 33942 net.cpp:165] Memory required for data: 4300880944
I0718 14:33:58.035136 33942 layer_factory.hpp:76] Creating layer inception_5b/1x1
I0718 14:33:58.035169 33942 net.cpp:106] Creating Layer inception_5b/1x1
I0718 14:33:58.035190 33942 net.cpp:454] inception_5b/1x1 <- inception_5a/output_inception_5a/output_0_split_0
I0718 14:33:58.035220 33942 net.cpp:411] inception_5b/1x1 -> inception_5b/1x1
I0718 14:33:58.046568 33942 cudnn_conv_layer.cpp:194] Reallocating workspace storage: 9984
I0718 14:33:58.046684 33942 net.cpp:150] Setting up inception_5b/1x1
I0718 14:33:58.046736 33942 net.cpp:157] Top shape: 4 384 31 31 (1476096)
I0718 14:33:58.046756 33942 net.cpp:165] Memory required for data: 4306785328
I0718 14:33:58.046784 33942 layer_factory.hpp:76] Creating layer inception_5b/relu_1x1
I0718 14:33:58.046810 33942 net.cpp:106] Creating Layer inception_5b/relu_1x1
I0718 14:33:58.046829 33942 net.cpp:454] inception_5b/relu_1x1 <- inception_5b/1x1
I0718 14:33:58.046854 33942 net.cpp:397] inception_5b/relu_1x1 -> inception_5b/1x1 (in-place)
I0718 14:33:58.047591 33942 net.cpp:150] Setting up inception_5b/relu_1x1
I0718 14:33:58.047628 33942 net.cpp:157] Top shape: 4 384 31 31 (1476096)
I0718 14:33:58.047644 33942 net.cpp:165] Memory required for data: 4312689712
I0718 14:33:58.047657 33942 layer_factory.hpp:76] Creating layer inception_5b/3x3_reduce
I0718 14:33:58.047695 33942 net.cpp:106] Creating Layer inception_5b/3x3_reduce
I0718 14:33:58.047715 33942 net.cpp:454] inception_5b/3x3_reduce <- inception_5a/output_inception_5a/output_0_split_1
I0718 14:33:58.047742 33942 net.cpp:411] inception_5b/3x3_reduce -> inception_5b/3x3_reduce
I0718 14:33:58.064051 33942 cudnn_conv_layer.cpp:194] Reallocating workspace storage: 9984
I0718 14:33:58.064142 33942 net.cpp:150] Setting up inception_5b/3x3_reduce
I0718 14:33:58.064177 33942 net.cpp:157] Top shape: 4 192 31 31 (738048)
I0718 14:33:58.064198 33942 net.cpp:165] Memory required for data: 4315641904
I0718 14:33:58.064224 33942 layer_factory.hpp:76] Creating layer inception_5b/relu_3x3_reduce
I0718 14:33:58.064245 33942 net.cpp:106] Creating Layer inception_5b/relu_3x3_reduce
I0718 14:33:58.064260 33942 net.cpp:454] inception_5b/relu_3x3_reduce <- inception_5b/3x3_reduce
I0718 14:33:58.064285 33942 net.cpp:397] inception_5b/relu_3x3_reduce -> inception_5b/3x3_reduce (in-place)
I0718 14:33:58.065268 33942 net.cpp:150] Setting up inception_5b/relu_3x3_reduce
I0718 14:33:58.065304 33942 net.cpp:157] Top shape: 4 192 31 31 (738048)
I0718 14:33:58.065326 33942 net.cpp:165] Memory required for data: 4318594096
I0718 14:33:58.065345 33942 layer_factory.hpp:76] Creating layer inception_5b/3x3
I0718 14:33:58.065378 33942 net.cpp:106] Creating Layer inception_5b/3x3
I0718 14:33:58.065398 33942 net.cpp:454] inception_5b/3x3 <- inception_5b/3x3_reduce
I0718 14:33:58.065423 33942 net.cpp:411] inception_5b/3x3 -> inception_5b/3x3
I0718 14:33:58.103670 33942 net.cpp:150] Setting up inception_5b/3x3
I0718 14:33:58.103749 33942 net.cpp:157] Top shape: 4 384 31 31 (1476096)
I0718 14:33:58.103775 33942 net.cpp:165] Memory required for data: 4324498480
I0718 14:33:58.103816 33942 layer_factory.hpp:76] Creating layer inception_5b/relu_3x3
I0718 14:33:58.103865 33942 net.cpp:106] Creating Layer inception_5b/relu_3x3
I0718 14:33:58.103898 33942 net.cpp:454] inception_5b/relu_3x3 <- inception_5b/3x3
I0718 14:33:58.103927 33942 net.cpp:397] inception_5b/relu_3x3 -> inception_5b/3x3 (in-place)
I0718 14:33:58.104437 33942 net.cpp:150] Setting up inception_5b/relu_3x3
I0718 14:33:58.104481 33942 net.cpp:157] Top shape: 4 384 31 31 (1476096)
I0718 14:33:58.104516 33942 net.cpp:165] Memory required for data: 4330402864
I0718 14:33:58.104542 33942 layer_factory.hpp:76] Creating layer inception_5b/5x5_reduce
I0718 14:33:58.104583 33942 net.cpp:106] Creating Layer inception_5b/5x5_reduce
I0718 14:33:58.104607 33942 net.cpp:454] inception_5b/5x5_reduce <- inception_5a/output_inception_5a/output_0_split_2
I0718 14:33:58.104632 33942 net.cpp:411] inception_5b/5x5_reduce -> inception_5b/5x5_reduce
I0718 14:33:58.119371 33942 net.cpp:150] Setting up inception_5b/5x5_reduce
I0718 14:33:58.119451 33942 net.cpp:157] Top shape: 4 48 31 31 (184512)
I0718 14:33:58.119499 33942 net.cpp:165] Memory required for data: 4331140912
I0718 14:33:58.119536 33942 layer_factory.hpp:76] Creating layer inception_5b/relu_5x5_reduce
I0718 14:33:58.119583 33942 net.cpp:106] Creating Layer inception_5b/relu_5x5_reduce
I0718 14:33:58.119616 33942 net.cpp:454] inception_5b/relu_5x5_reduce <- inception_5b/5x5_reduce
I0718 14:33:58.119649 33942 net.cpp:397] inception_5b/relu_5x5_reduce -> inception_5b/5x5_reduce (in-place)
I0718 14:33:58.120857 33942 net.cpp:150] Setting up inception_5b/relu_5x5_reduce
I0718 14:33:58.120893 33942 net.cpp:157] Top shape: 4 48 31 31 (184512)
I0718 14:33:58.120920 33942 net.cpp:165] Memory required for data: 4331878960
I0718 14:33:58.120939 33942 layer_factory.hpp:76] Creating layer inception_5b/5x5
I0718 14:33:58.120968 33942 net.cpp:106] Creating Layer inception_5b/5x5
I0718 14:33:58.120990 33942 net.cpp:454] inception_5b/5x5 <- inception_5b/5x5_reduce
I0718 14:33:58.121037 33942 net.cpp:411] inception_5b/5x5 -> inception_5b/5x5
I0718 14:33:58.127954 33942 net.cpp:150] Setting up inception_5b/5x5
I0718 14:33:58.128023 33942 net.cpp:157] Top shape: 4 128 31 31 (492032)
I0718 14:33:58.128068 33942 net.cpp:165] Memory required for data: 4333847088
I0718 14:33:58.128108 33942 layer_factory.hpp:76] Creating layer inception_5b/relu_5x5
I0718 14:33:58.128154 33942 net.cpp:106] Creating Layer inception_5b/relu_5x5
I0718 14:33:58.128183 33942 net.cpp:454] inception_5b/relu_5x5 <- inception_5b/5x5
I0718 14:33:58.128216 33942 net.cpp:397] inception_5b/relu_5x5 -> inception_5b/5x5 (in-place)
I0718 14:33:58.129763 33942 net.cpp:150] Setting up inception_5b/relu_5x5
I0718 14:33:58.129803 33942 net.cpp:157] Top shape: 4 128 31 31 (492032)
I0718 14:33:58.129829 33942 net.cpp:165] Memory required for data: 4335815216
I0718 14:33:58.129858 33942 layer_factory.hpp:76] Creating layer inception_5b/pool
I0718 14:33:58.129884 33942 net.cpp:106] Creating Layer inception_5b/pool
I0718 14:33:58.129916 33942 net.cpp:454] inception_5b/pool <- inception_5a/output_inception_5a/output_0_split_3
I0718 14:33:58.129947 33942 net.cpp:411] inception_5b/pool -> inception_5b/pool
I0718 14:33:58.131218 33942 net.cpp:150] Setting up inception_5b/pool
I0718 14:33:58.131263 33942 net.cpp:157] Top shape: 4 832 31 31 (3198208)
I0718 14:33:58.131288 33942 net.cpp:165] Memory required for data: 4348608048
I0718 14:33:58.131311 33942 layer_factory.hpp:76] Creating layer inception_5b/pool_proj
I0718 14:33:58.131348 33942 net.cpp:106] Creating Layer inception_5b/pool_proj
I0718 14:33:58.131376 33942 net.cpp:454] inception_5b/pool_proj <- inception_5b/pool
I0718 14:33:58.131407 33942 net.cpp:411] inception_5b/pool_proj -> inception_5b/pool_proj
I0718 14:33:58.137068 33942 cudnn_conv_layer.cpp:194] Reallocating workspace storage: 9984
I0718 14:33:58.137230 33942 net.cpp:150] Setting up inception_5b/pool_proj
I0718 14:33:58.137276 33942 net.cpp:157] Top shape: 4 128 31 31 (492032)
I0718 14:33:58.137302 33942 net.cpp:165] Memory required for data: 4350576176
I0718 14:33:58.137334 33942 layer_factory.hpp:76] Creating layer inception_5b/relu_pool_proj
I0718 14:33:58.137373 33942 net.cpp:106] Creating Layer inception_5b/relu_pool_proj
I0718 14:33:58.137408 33942 net.cpp:454] inception_5b/relu_pool_proj <- inception_5b/pool_proj
I0718 14:33:58.137436 33942 net.cpp:397] inception_5b/relu_pool_proj -> inception_5b/pool_proj (in-place)
I0718 14:33:58.138638 33942 net.cpp:150] Setting up inception_5b/relu_pool_proj
I0718 14:33:58.138674 33942 net.cpp:157] Top shape: 4 128 31 31 (492032)
I0718 14:33:58.138700 33942 net.cpp:165] Memory required for data: 4352544304
I0718 14:33:58.138718 33942 layer_factory.hpp:76] Creating layer inception_5b/output
I0718 14:33:58.138751 33942 net.cpp:106] Creating Layer inception_5b/output
I0718 14:33:58.138779 33942 net.cpp:454] inception_5b/output <- inception_5b/1x1
I0718 14:33:58.138808 33942 net.cpp:454] inception_5b/output <- inception_5b/3x3
I0718 14:33:58.138835 33942 net.cpp:454] inception_5b/output <- inception_5b/5x5
I0718 14:33:58.138859 33942 net.cpp:454] inception_5b/output <- inception_5b/pool_proj
I0718 14:33:58.138893 33942 net.cpp:411] inception_5b/output -> inception_5b/output
I0718 14:33:58.139044 33942 net.cpp:150] Setting up inception_5b/output
I0718 14:33:58.139078 33942 net.cpp:157] Top shape: 4 1024 31 31 (3936256)
I0718 14:33:58.139102 33942 net.cpp:165] Memory required for data: 4368289328
I0718 14:33:58.139127 33942 layer_factory.hpp:76] Creating layer pool5/7x7_s1
I0718 14:33:58.139240 33942 net.cpp:106] Creating Layer pool5/7x7_s1
I0718 14:33:58.139261 33942 net.cpp:454] pool5/7x7_s1 <- inception_5b/output
I0718 14:33:58.139291 33942 net.cpp:411] pool5/7x7_s1 -> pool5/7x7_s1
I0718 14:33:58.416642 33942 cudnn_conv_layer.cpp:194] Reallocating workspace storage: 602112
I0718 14:33:58.416960 33942 net.cpp:150] Setting up pool5/7x7_s1
I0718 14:33:58.416985 33942 net.cpp:157] Top shape: 4 512 25 25 (1280000)
I0718 14:33:58.416997 33942 net.cpp:165] Memory required for data: 4373409328
I0718 14:33:58.417011 33942 layer_factory.hpp:76] Creating layer conv61
I0718 14:33:58.417033 33942 net.cpp:106] Creating Layer conv61
I0718 14:33:58.417047 33942 net.cpp:454] conv61 <- pool5/7x7_s1
I0718 14:33:58.417078 33942 net.cpp:411] conv61 -> conv61
I0718 14:33:58.426771 33942 cudnn_conv_layer.cpp:194] Reallocating workspace storage: 55296
I0718 14:33:58.426808 33942 net.cpp:150] Setting up conv61
I0718 14:33:58.426821 33942 net.cpp:157] Top shape: 4 64 25 25 (160000)
I0718 14:33:58.426831 33942 net.cpp:165] Memory required for data: 4374049328
I0718 14:33:58.426841 33942 layer_factory.hpp:76] Creating layer relu61
I0718 14:33:58.426854 33942 net.cpp:106] Creating Layer relu61
I0718 14:33:58.426864 33942 net.cpp:454] relu61 <- conv61
I0718 14:33:58.426877 33942 net.cpp:397] relu61 -> conv61 (in-place)
I0718 14:33:58.429008 33942 net.cpp:150] Setting up relu61
I0718 14:33:58.429030 33942 net.cpp:157] Top shape: 4 64 25 25 (160000)
I0718 14:33:58.429040 33942 net.cpp:165] Memory required for data: 4374689328
I0718 14:33:58.429049 33942 layer_factory.hpp:76] Creating layer pool5
I0718 14:33:58.429064 33942 net.cpp:106] Creating Layer pool5
I0718 14:33:58.429075 33942 net.cpp:454] pool5 <- conv61
I0718 14:33:58.429085 33942 net.cpp:411] pool5 -> pool5
I0718 14:33:58.430385 33942 net.cpp:150] Setting up pool5
I0718 14:33:58.430408 33942 net.cpp:157] Top shape: 4 64 13 13 (43264)
I0718 14:33:58.430419 33942 net.cpp:165] Memory required for data: 4374862384
I0718 14:33:58.430428 33942 layer_factory.hpp:76] Creating layer conv62
I0718 14:33:58.430444 33942 net.cpp:106] Creating Layer conv62
I0718 14:33:58.430456 33942 net.cpp:454] conv62 <- pool5
I0718 14:33:58.430469 33942 net.cpp:411] conv62 -> conv62
I0718 14:33:58.438746 33942 net.cpp:150] Setting up conv62
I0718 14:33:58.438781 33942 net.cpp:157] Top shape: 4 64 13 13 (43264)
I0718 14:33:58.438796 33942 net.cpp:165] Memory required for data: 4375035440
I0718 14:33:58.438814 33942 layer_factory.hpp:76] Creating layer relu62
I0718 14:33:58.438832 33942 net.cpp:106] Creating Layer relu62
I0718 14:33:58.438844 33942 net.cpp:454] relu62 <- conv62
I0718 14:33:58.438858 33942 net.cpp:397] relu62 -> conv62 (in-place)
I0718 14:33:58.441066 33942 net.cpp:150] Setting up relu62
I0718 14:33:58.441097 33942 net.cpp:157] Top shape: 4 64 13 13 (43264)
I0718 14:33:58.441117 33942 net.cpp:165] Memory required for data: 4375208496
I0718 14:33:58.441128 33942 layer_factory.hpp:76] Creating layer pool6
I0718 14:33:58.441149 33942 net.cpp:106] Creating Layer pool6
I0718 14:33:58.441162 33942 net.cpp:454] pool6 <- conv62
I0718 14:33:58.441181 33942 net.cpp:411] pool6 -> pool6
I0718 14:33:58.443569 33942 net.cpp:150] Setting up pool6
I0718 14:33:58.443591 33942 net.cpp:157] Top shape: 4 64 7 7 (12544)
I0718 14:33:58.443604 33942 net.cpp:165] Memory required for data: 4375258672
I0718 14:33:58.443613 33942 layer_factory.hpp:76] Creating layer conv82
I0718 14:33:58.443631 33942 net.cpp:106] Creating Layer conv82
I0718 14:33:58.443640 33942 net.cpp:454] conv82 <- pool6
I0718 14:33:58.443653 33942 net.cpp:411] conv82 -> conv82
I0718 14:33:58.451253 33942 cudnn_conv_layer.cpp:194] Reallocating workspace storage: 6912
I0718 14:33:58.451345 33942 net.cpp:150] Setting up conv82
I0718 14:33:58.451367 33942 net.cpp:157] Top shape: 4 128 7 7 (25088)
I0718 14:33:58.451381 33942 net.cpp:165] Memory required for data: 4375359024
I0718 14:33:58.451401 33942 layer_factory.hpp:76] Creating layer relu82
I0718 14:33:58.451419 33942 net.cpp:106] Creating Layer relu82
I0718 14:33:58.451472 33942 net.cpp:454] relu82 <- conv82
I0718 14:33:58.451489 33942 net.cpp:397] relu82 -> conv82 (in-place)
I0718 14:33:58.453644 33942 net.cpp:150] Setting up relu82
I0718 14:33:58.453675 33942 net.cpp:157] Top shape: 4 128 7 7 (25088)
I0718 14:33:58.453692 33942 net.cpp:165] Memory required for data: 4375459376
I0718 14:33:58.453706 33942 layer_factory.hpp:76] Creating layer pool7
I0718 14:33:58.453723 33942 net.cpp:106] Creating Layer pool7
I0718 14:33:58.453737 33942 net.cpp:454] pool7 <- conv82
I0718 14:33:58.453757 33942 net.cpp:411] pool7 -> pool7
I0718 14:33:58.454937 33942 net.cpp:150] Setting up pool7
I0718 14:33:58.454967 33942 net.cpp:157] Top shape: 4 128 4 4 (8192)
I0718 14:33:58.454980 33942 net.cpp:165] Memory required for data: 4375492144
I0718 14:33:58.454994 33942 layer_factory.hpp:76] Creating layer drop0
I0718 14:33:58.455015 33942 net.cpp:106] Creating Layer drop0
I0718 14:33:58.455029 33942 net.cpp:454] drop0 <- pool7
I0718 14:33:58.455044 33942 net.cpp:397] drop0 -> pool7 (in-place)
I0718 14:33:58.455122 33942 net.cpp:150] Setting up drop0
I0718 14:33:58.455145 33942 net.cpp:157] Top shape: 4 128 4 4 (8192)
I0718 14:33:58.455162 33942 net.cpp:165] Memory required for data: 4375524912
I0718 14:33:58.455178 33942 layer_factory.hpp:76] Creating layer conv91
I0718 14:33:58.455200 33942 net.cpp:106] Creating Layer conv91
I0718 14:33:58.455214 33942 net.cpp:454] conv91 <- pool7
I0718 14:33:58.455235 33942 net.cpp:411] conv91 -> conv91
I0718 14:33:58.462180 33942 cudnn_conv_layer.cpp:194] Reallocating workspace storage: 6211584
I0718 14:33:58.463023 33942 net.cpp:150] Setting up conv91
I0718 14:33:58.463063 33942 net.cpp:157] Top shape: 4 3 1 1 (12)
I0718 14:33:58.463078 33942 net.cpp:165] Memory required for data: 4375524960
I0718 14:33:58.463093 33942 layer_factory.hpp:76] Creating layer conv91_conv91_0_split
I0718 14:33:58.463114 33942 net.cpp:106] Creating Layer conv91_conv91_0_split
I0718 14:33:58.463124 33942 net.cpp:454] conv91_conv91_0_split <- conv91
I0718 14:33:58.463136 33942 net.cpp:411] conv91_conv91_0_split -> conv91_conv91_0_split_0
I0718 14:33:58.463150 33942 net.cpp:411] conv91_conv91_0_split -> conv91_conv91_0_split_1
I0718 14:33:58.463248 33942 net.cpp:150] Setting up conv91_conv91_0_split
I0718 14:33:58.463264 33942 net.cpp:157] Top shape: 4 3 1 1 (12)
I0718 14:33:58.463279 33942 net.cpp:157] Top shape: 4 3 1 1 (12)
I0718 14:33:58.463289 33942 net.cpp:165] Memory required for data: 4375525056
I0718 14:33:58.463297 33942 layer_factory.hpp:76] Creating layer accuracy
I0718 14:33:58.463310 33942 net.cpp:106] Creating Layer accuracy
I0718 14:33:58.463317 33942 net.cpp:454] accuracy <- conv91_conv91_0_split_0
I0718 14:33:58.463331 33942 net.cpp:454] accuracy <- label_data_1_split_0
I0718 14:33:58.463346 33942 net.cpp:411] accuracy -> accuracy
…
