…
I0718 14:09:16.104538 29391 net.cpp:322] The NetState phase (0) differed from the phase (1) specified by a rule in layer data
I0718 14:09:16.105495 29391 net.cpp:49] Initializing net from parameters: 
name: "GoogleNet"
state {
  phase: TRAIN
}
layer {
  name: "data"
  type: "ImageData"
  top: "data"
  top: "label"
  include {
    phase: TRAIN
  }
  transform_param {
    mirror: true
    mean_value: 163
    mean_value: 116
    mean_value: 181
  }
  image_data_param {
    source: "../lists/mitosis_train.lst"
    batch_size: 6
    shuffle: true
  }
}
layer {
  name: "conv1/7x7_s2"
  type: "Convolution"
  bottom: "data"
  top: "conv1/7x7_s2"
  param {
    lr_mult: 0
    decay_mult: 1
  }
  param {
    lr_mult: 2
    decay_mult: 0
  }
  convolution_param {
    num_output: 64
    pad: 3
    kernel_size: 7
    stride: 2
    weight_filler {
      type: "xavier"
    }
    bias_filler {
      type: "constant"
      value: 0.2
    }
  }
}
layer {
  name: "conv1/relu_7x7"
  type: "ReLU"
  bottom: "conv1/7x7_s2"
  top: "conv1/7x7_s2"
}
layer {
  name: "pool1/3x3_s2"
  type: "Pooling"
  bottom: "conv1/7x7_s2"
  top: "pool1/3x3_s2"
  pooling_param {
    pool: MAX
    kernel_size: 3
    stride: 2
  }
}
layer {
  name: "pool1/norm1"
  type: "LRN"
  bottom: "pool1/3x3_s2"
  top: "pool1/norm1"
  lrn_param {
    local_size: 5
    alpha: 0.0001
    beta: 0.75
  }
}
layer {
  name: "conv2/3x3_reduce"
  type: "Convolution"
  bottom: "pool1/norm1"
  top: "conv2/3x3_reduce"
  param {
    lr_mult: 0
    decay_mult: 1
  }
  param {
    lr_mult: 2
    decay_mult: 0
  }
  convolution_param {
    num_output: 64
    kernel_size: 1
    weight_filler {
      type: "xavier"
    }
    bias_filler {
      type: "constant"
      value: 0.2
    }
  }
}
layer {
  name: "conv2/relu_3x3_reduce"
  type: "ReLU"
  bottom: "conv2/3x3_reduce"
  top: "conv2/3x3_reduce"
}
layer {
  name: "conv2/3x3"
  type: "Convolution"
  bottom: "conv2/3x3_reduce"
  top: "conv2/3x3"
  param {
    lr_mult: 0
    decay_mult: 1
  }
  param {
    lr_mult: 2
    decay_mult: 0
  }
  convolution_param {
    num_output: 192
    pad: 1
    kernel_size: 3
    weight_filler {
      type: "xavier"
    }
    bias_filler {
      type: "constant"
      value: 0.2
    }
  }
}
layer {
  name: "conv2/relu_3x3"
  type: "ReLU"
  bottom: "conv2/3x3"
  top: "conv2/3x3"
}
layer {
  name: "conv2/norm2"
  type: "LRN"
  bottom: "conv2/3x3"
  top: "conv2/norm2"
  lrn_param {
    local_size: 5
    alpha: 0.0001
    beta: 0.75
  }
}
layer {
  name: "pool2/3x3_s2"
  type: "Pooling"
  bottom: "conv2/norm2"
  top: "pool2/3x3_s2"
  pooling_param {
    pool: MAX
    kernel_size: 3
    stride: 2
  }
}
layer {
  name: "inception_3a/1x1"
  type: "Convolution"
  bottom: "pool2/3x3_s2"
  top: "inception_3a/1x1"
  param {
    lr_mult: 0
    decay_mult: 1
  }
  param {
    lr_mult: 2
    decay_mult: 0
  }
  convolution_param {
    num_output: 64
    kernel_size: 1
    weight_filler {
      type: "xavier"
    }
    bias_filler {
      type: "constant"
      value: 0.2
    }
  }
}
layer {
  name: "inception_3a/relu_1x1"
  type: "ReLU"
  bottom: "inception_3a/1x1"
  top: "inception_3a/1x1"
}
layer {
  name: "inception_3a/3x3_reduce"
  type: "Convolution"
  bottom: "pool2/3x3_s2"
  top: "inception_3a/3x3_reduce"
  param {
    lr_mult: 0
    decay_mult: 1
  }
  param {
    lr_mult: 2
    decay_mult: 0
  }
  convolution_param {
    num_output: 96
    kernel_size: 1
    weight_filler {
      type: "xavier"
    }
    bias_filler {
      type: "constant"
      value: 0.2
    }
  }
}
layer {
  name: "inception_3a/relu_3x3_reduce"
  type: "ReLU"
  bottom: "inception_3a/3x3_reduce"
  top: "inception_3a/3x3_reduce"
}
layer {
  name: "inception_3a/3x3"
  type: "Convolution"
  bottom: "inception_3a/3x3_reduce"
  top: "inception_3a/3x3"
  param {
    lr_mult: 0
    decay_mult: 1
  }
  param {
    lr_mult: 2
    decay_mult: 0
  }
  convolution_param {
    num_output: 128
    pad: 1
    kernel_size: 3
    weight_filler {
      type: "xavier"
    }
    bias_filler {
      type: "constant"
      value: 0.2
    }
  }
}
layer {
  name: "inception_3a/relu_3x3"
  type: "ReLU"
  bottom: "inception_3a/3x3"
  top: "inception_3a/3x3"
}
layer {
  name: "inception_3a/5x5_reduce"
  type: "Convolution"
  bottom: "pool2/3x3_s2"
  top: "inception_3a/5x5_reduce"
  param {
    lr_mult: 0
    decay_mult: 1
  }
  param {
    lr_mult: 2
    decay_mult: 0
  }
  convolution_param {
    num_output: 16
    kernel_size: 1
    weight_filler {
      type: "xavier"
    }
    bias_filler {
      type: "constant"
      value: 0.2
    }
  }
}
layer {
  name: "inception_3a/relu_5x5_reduce"
  type: "ReLU"
  bottom: "inception_3a/5x5_reduce"
  top: "inception_3a/5x5_reduce"
}
layer {
  name: "inception_3a/5x5"
  type: "Convolution"
  bottom: "inception_3a/5x5_reduce"
  top: "inception_3a/5x5"
  param {
    lr_mult: 0
    decay_mult: 1
  }
  param {
    lr_mult: 2
    decay_mult: 0
  }
  convolution_param {
    num_output: 32
    pad: 2
    kernel_size: 5
    weight_filler {
      type: "xavier"
    }
    bias_filler {
      type: "constant"
      value: 0.2
    }
  }
}
layer {
  name: "inception_3a/relu_5x5"
  type: "ReLU"
  bottom: "inception_3a/5x5"
  top: "inception_3a/5x5"
}
layer {
  name: "inception_3a/pool"
  type: "Pooling"
  bottom: "pool2/3x3_s2"
  top: "inception_3a/pool"
  pooling_param {
    pool: MAX
    kernel_size: 3
    stride: 1
    pad: 1
  }
}
layer {
  name: "inception_3a/pool_proj"
  type: "Convolution"
  bottom: "inception_3a/pool"
  top: "inception_3a/pool_proj"
  param {
    lr_mult: 0
    decay_mult: 1
  }
  param {
    lr_mult: 2
    decay_mult: 0
  }
  convolution_param {
    num_output: 32
    kernel_size: 1
    weight_filler {
      type: "xavier"
    }
    bias_filler {
      type: "constant"
      value: 0.2
    }
  }
}
layer {
  name: "inception_3a/relu_pool_proj"
  type: "ReLU"
  bottom: "inception_3a/pool_proj"
  top: "inception_3a/pool_proj"
}
layer {
  name: "inception_3a/output"
  type: "Concat"
  bottom: "inception_3a/1x1"
  bottom: "inception_3a/3x3"
  bottom: "inception_3a/5x5"
  bottom: "inception_3a/pool_proj"
  top: "inception_3a/output"
}
layer {
  name: "inception_3b/1x1"
  type: "Convolution"
  bottom: "inception_3a/output"
  top: "inception_3b/1x1"
  param {
    lr_mult: 0
    decay_mult: 1
  }
  param {
    lr_mult: 2
    decay_mult: 0
  }
  convolution_param {
    num_output: 128
    kernel_size: 1
    weight_filler {
      type: "xavier"
    }
    bias_filler {
      type: "constant"
      value: 0.2
    }
  }
}
layer {
  name: "inception_3b/relu_1x1"
  type: "ReLU"
  bottom: "inception_3b/1x1"
  top: "inception_3b/1x1"
}
layer {
  name: "inception_3b/3x3_reduce"
  type: "Convolution"
  bottom: "inception_3a/output"
  top: "inception_3b/3x3_reduce"
  param {
    lr_mult: 0
    decay_mult: 1
  }
  param {
    lr_mult: 2
    decay_mult: 0
  }
  convolution_param {
    num_output: 128
    kernel_size: 1
    weight_filler {
      type: "xavier"
    }
    bias_filler {
      type: "constant"
      value: 0.2
    }
  }
}
layer {
  name: "inception_3b/relu_3x3_reduce"
  type: "ReLU"
  bottom: "inception_3b/3x3_reduce"
  top: "inception_3b/3x3_reduce"
}
layer {
  name: "inception_3b/3x3"
  type: "Convolution"
  bottom: "inception_3b/3x3_reduce"
  top: "inception_3b/3x3"
  param {
    lr_mult: 0
    decay_mult: 1
  }
  param {
    lr_mult: 2
    decay_mult: 0
  }
  convolution_param {
    num_output: 192
    pad: 1
    kernel_size: 3
    weight_filler {
      type: "xavier"
    }
    bias_filler {
      type: "constant"
      value: 0.2
    }
  }
}
layer {
  name: "inception_3b/relu_3x3"
  type: "ReLU"
  bottom: "inception_3b/3x3"
  top: "inception_3b/3x3"
}
layer {
  name: "inception_3b/5x5_reduce"
  type: "Convolution"
  bottom: "inception_3a/output"
  top: "inception_3b/5x5_reduce"
  param {
    lr_mult: 0
    decay_mult: 1
  }
  param {
    lr_mult: 2
    decay_mult: 0
  }
  convolution_param {
    num_output: 32
    kernel_size: 1
    weight_filler {
      type: "xavier"
    }
    bias_filler {
      type: "constant"
      value: 0.2
    }
  }
}
layer {
  name: "inception_3b/relu_5x5_reduce"
  type: "ReLU"
  bottom: "inception_3b/5x5_reduce"
  top: "inception_3b/5x5_reduce"
}
layer {
  name: "inception_3b/5x5"
  type: "Convolution"
  bottom: "inception_3b/5x5_reduce"
  top: "inception_3b/5x5"
  param {
    lr_mult: 0
    decay_mult: 1
  }
  param {
    lr_mult: 2
    decay_mult: 0
  }
  convolution_param {
    num_output: 96
    pad: 2
    kernel_size: 5
    weight_filler {
      type: "xavier"
    }
    bias_filler {
      type: "constant"
      value: 0.2
    }
  }
}
layer {
  name: "inception_3b/relu_5x5"
  type: "ReLU"
  bottom: "inception_3b/5x5"
  top: "inception_3b/5x5"
}
layer {
  name: "inception_3b/pool"
  type: "Pooling"
  bottom: "inception_3a/output"
  top: "inception_3b/pool"
  pooling_param {
    pool: MAX
    kernel_size: 3
    stride: 1
    pad: 1
  }
}
layer {
  name: "inception_3b/pool_proj"
  type: "Convolution"
  bottom: "inception_3b/pool"
  top: "inception_3b/pool_proj"
  param {
    lr_mult: 0
    decay_mult: 1
  }
  param {
    lr_mult: 2
    decay_mult: 0
  }
  convolution_param {
    num_output: 64
    kernel_size: 1
    weight_filler {
      type: "xavier"
    }
    bias_filler {
      type: "constant"
      value: 0.2
    }
  }
}
layer {
  name: "inception_3b/relu_pool_proj"
  type: "ReLU"
  bottom: "inception_3b/pool_proj"
  top: "inception_3b/pool_proj"
}
layer {
  name: "inception_3b/output"
  type: "Concat"
  bottom: "inception_3b/1x1"
  bottom: "inception_3b/3x3"
  bottom: "inception_3b/5x5"
  bottom: "inception_3b/pool_proj"
  top: "inception_3b/output"
}
layer {
  name: "pool3/3x3_s2"
  type: "Pooling"
  bottom: "inception_3b/output"
  top: "pool3/3x3_s2"
  pooling_param {
    pool: MAX
    kernel_size: 3
    stride: 2
  }
}
layer {
  name: "inception_4a/1x1"
  type: "Convolution"
  bottom: "pool3/3x3_s2"
  top: "inception_4a/1x1"
  param {
    lr_mult: 0
    decay_mult: 1
  }
  param {
    lr_mult: 2
    decay_mult: 0
  }
  convolution_param {
    num_output: 192
    kernel_size: 1
    weight_filler {
      type: "xavier"
    }
    bias_filler {
      type: "constant"
      value: 0.2
    }
  }
}
layer {
  name: "inception_4a/relu_1x1"
  type: "ReLU"
  bottom: "inception_4a/1x1"
  top: "inception_4a/1x1"
}
layer {
  name: "inception_4a/3x3_reduce"
  type: "Convolution"
  bottom: "pool3/3x3_s2"
  top: "inception_4a/3x3_reduce"
  param {
    lr_mult: 0
    decay_mult: 1
  }
  param {
    lr_mult: 2
    decay_mult: 0
  }
  convolution_param {
    num_output: 96
    kernel_size: 1
    weight_filler {
      type: "xavier"
    }
    bias_filler {
      type: "constant"
      value: 0.2
    }
  }
}
layer {
  name: "inception_4a/relu_3x3_reduce"
  type: "ReLU"
  bottom: "inception_4a/3x3_reduce"
  top: "inception_4a/3x3_reduce"
}
layer {
  name: "inception_4a/3x3"
  type: "Convolution"
  bottom: "inception_4a/3x3_reduce"
  top: "inception_4a/3x3"
  param {
    lr_mult: 0
    decay_mult: 1
  }
  param {
    lr_mult: 2
    decay_mult: 0
  }
  convolution_param {
    num_output: 208
    pad: 1
    kernel_size: 3
    weight_filler {
      type: "xavier"
    }
    bias_filler {
      type: "constant"
      value: 0.2
    }
  }
}
layer {
  name: "inception_4a/relu_3x3"
  type: "ReLU"
  bottom: "inception_4a/3x3"
  top: "inception_4a/3x3"
}
layer {
  name: "inception_4a/5x5_reduce"
  type: "Convolution"
  bottom: "pool3/3x3_s2"
  top: "inception_4a/5x5_reduce"
  param {
    lr_mult: 0
    decay_mult: 1
  }
  param {
    lr_mult: 2
    decay_mult: 0
  }
  convolution_param {
    num_output: 16
    kernel_size: 1
    weight_filler {
      type: "xavier"
    }
    bias_filler {
      type: "constant"
      value: 0.2
    }
  }
}
layer {
  name: "inception_4a/relu_5x5_reduce"
  type: "ReLU"
  bottom: "inception_4a/5x5_reduce"
  top: "inception_4a/5x5_reduce"
}
layer {
  name: "inception_4a/5x5"
  type: "Convolution"
  bottom: "inception_4a/5x5_reduce"
  top: "inception_4a/5x5"
  param {
    lr_mult: 0
    decay_mult: 1
  }
  param {
    lr_mult: 2
    decay_mult: 0
  }
  convolution_param {
    num_output: 48
    pad: 2
    kernel_size: 5
    weight_filler {
      type: "xavier"
    }
    bias_filler {
      type: "constant"
      value: 0.2
    }
  }
}
layer {
  name: "inception_4a/relu_5x5"
  type: "ReLU"
  bottom: "inception_4a/5x5"
  top: "inception_4a/5x5"
}
layer {
  name: "inception_4a/pool"
  type: "Pooling"
  bottom: "pool3/3x3_s2"
  top: "inception_4a/pool"
  pooling_param {
    pool: MAX
    kernel_size: 3
    stride: 1
    pad: 1
  }
}
layer {
  name: "inception_4a/pool_proj"
  type: "Convolution"
  bottom: "inception_4a/pool"
  top: "inception_4a/pool_proj"
  param {
    lr_mult: 0
    decay_mult: 1
  }
  param {
    lr_mult: 2
    decay_mult: 0
  }
  convolution_param {
    num_output: 64
    kernel_size: 1
    weight_filler {
      type: "xavier"
    }
    bias_filler {
      type: "constant"
      value: 0.2
    }
  }
}
layer {
  name: "inception_4a/relu_pool_proj"
  type: "ReLU"
  bottom: "inception_4a/pool_proj"
  top: "inception_4a/pool_proj"
}
layer {
  name: "inception_4a/output"
  type: "Concat"
  bottom: "inception_4a/1x1"
  bottom: "inception_4a/3x3"
  bottom: "inception_4a/5x5"
  bottom: "inception_4a/pool_proj"
  top: "inception_4a/output"
}
layer {
  name: "inception_4b/1x1"
  type: "Convolution"
  bottom: "inception_4a/output"
  top: "inception_4b/1x1"
  param {
    lr_mult: 0
    decay_mult: 1
  }
  param {
    lr_mult: 2
    decay_mult: 0
  }
  convolution_param {
    num_output: 160
    kernel_size: 1
    weight_filler {
      type: "xavier"
    }
    bias_filler {
      type: "constant"
      value: 0.2
    }
  }
}
layer {
  name: "inception_4b/relu_1x1"
  type: "ReLU"
  bottom: "inception_4b/1x1"
  top: "inception_4b/1x1"
}
layer {
  name: "inception_4b/3x3_reduce"
  type: "Convolution"
  bottom: "inception_4a/output"
  top: "inception_4b/3x3_reduce"
  param {
    lr_mult: 0
    decay_mult: 1
  }
  param {
    lr_mult: 2
    decay_mult: 0
  }
  convolution_param {
    num_output: 112
    kernel_size: 1
    weight_filler {
      type: "xavier"
    }
    bias_filler {
      type: "constant"
      value: 0.2
    }
  }
}
layer {
  name: "inception_4b/relu_3x3_reduce"
  type: "ReLU"
  bottom: "inception_4b/3x3_reduce"
  top: "inception_4b/3x3_reduce"
}
layer {
  name: "inception_4b/3x3"
  type: "Convolution"
  bottom: "inception_4b/3x3_reduce"
  top: "inception_4b/3x3"
  param {
    lr_mult: 0
    decay_mult: 1
  }
  param {
    lr_mult: 2
    decay_mult: 0
  }
  convolution_param {
    num_output: 224
    pad: 1
    kernel_size: 3
    weight_filler {
      type: "xavier"
    }
    bias_filler {
      type: "constant"
      value: 0.2
    }
  }
}
layer {
  name: "inception_4b/relu_3x3"
  type: "ReLU"
  bottom: "inception_4b/3x3"
  top: "inception_4b/3x3"
}
layer {
  name: "inception_4b/5x5_reduce"
  type: "Convolution"
  bottom: "inception_4a/output"
  top: "inception_4b/5x5_reduce"
  param {
    lr_mult: 0
    decay_mult: 1
  }
  param {
    lr_mult: 2
    decay_mult: 0
  }
  convolution_param {
    num_output: 24
    kernel_size: 1
    weight_filler {
      type: "xavier"
    }
    bias_filler {
      type: "constant"
      value: 0.2
    }
  }
}
layer {
  name: "inception_4b/relu_5x5_reduce"
  type: "ReLU"
  bottom: "inception_4b/5x5_reduce"
  top: "inception_4b/5x5_reduce"
}
layer {
  name: "inception_4b/5x5"
  type: "Convolution"
  bottom: "inception_4b/5x5_reduce"
  top: "inception_4b/5x5"
  param {
    lr_mult: 0
    decay_mult: 1
  }
  param {
    lr_mult: 2
    decay_mult: 0
  }
  convolution_param {
    num_output: 64
    pad: 2
    kernel_size: 5
    weight_filler {
      type: "xavier"
    }
    bias_filler {
      type: "constant"
      value: 0.2
    }
  }
}
layer {
  name: "inception_4b/relu_5x5"
  type: "ReLU"
  bottom: "inception_4b/5x5"
  top: "inception_4b/5x5"
}
layer {
  name: "inception_4b/pool"
  type: "Pooling"
  bottom: "inception_4a/output"
  top: "inception_4b/pool"
  pooling_param {
    pool: MAX
    kernel_size: 3
    stride: 1
    pad: 1
  }
}
layer {
  name: "inception_4b/pool_proj"
  type: "Convolution"
  bottom: "inception_4b/pool"
  top: "inception_4b/pool_proj"
  param {
    lr_mult: 0
    decay_mult: 1
  }
  param {
    lr_mult: 2
    decay_mult: 0
  }
  convolution_param {
    num_output: 64
    kernel_size: 1
    weight_filler {
      type: "xavier"
    }
    bias_filler {
      type: "constant"
      value: 0.2
    }
  }
}
layer {
  name: "inception_4b/relu_pool_proj"
  type: "ReLU"
  bottom: "inception_4b/pool_proj"
  top: "inception_4b/pool_proj"
}
layer {
  name: "inception_4b/output"
  type: "Concat"
  bottom: "inception_4b/1x1"
  bottom: "inception_4b/3x3"
  bottom: "inception_4b/5x5"
  bottom: "inception_4b/pool_proj"
  top: "inception_4b/output"
}
layer {
  name: "inception_4c/1x1"
  type: "Convolution"
  bottom: "inception_4b/output"
  top: "inception_4c/1x1"
  param {
    lr_mult: 0
    decay_mult: 1
  }
  param {
    lr_mult: 2
    decay_mult: 0
  }
  convolution_param {
    num_output: 128
    kernel_size: 1
    weight_filler {
      type: "xavier"
    }
    bias_filler {
      type: "constant"
      value: 0.2
    }
  }
}
layer {
  name: "inception_4c/relu_1x1"
  type: "ReLU"
  bottom: "inception_4c/1x1"
  top: "inception_4c/1x1"
}
layer {
  name: "inception_4c/3x3_reduce"
  type: "Convolution"
  bottom: "inception_4b/output"
  top: "inception_4c/3x3_reduce"
  param {
    lr_mult: 0
    decay_mult: 1
  }
  param {
    lr_mult: 2
    decay_mult: 0
  }
  convolution_param {
    num_output: 128
    kernel_size: 1
    weight_filler {
      type: "xavier"
    }
    bias_filler {
      type: "constant"
      value: 0.2
    }
  }
}
layer {
  name: "inception_4c/relu_3x3_reduce"
  type: "ReLU"
  bottom: "inception_4c/3x3_reduce"
  top: "inception_4c/3x3_reduce"
}
layer {
  name: "inception_4c/3x3"
  type: "Convolution"
  bottom: "inception_4c/3x3_reduce"
  top: "inception_4c/3x3"
  param {
    lr_mult: 0
    decay_mult: 1
  }
  param {
    lr_mult: 2
    decay_mult: 0
  }
  convolution_param {
    num_output: 256
    pad: 1
    kernel_size: 3
    weight_filler {
      type: "xavier"
    }
    bias_filler {
      type: "constant"
      value: 0.2
    }
  }
}
layer {
  name: "inception_4c/relu_3x3"
  type: "ReLU"
  bottom: "inception_4c/3x3"
  top: "inception_4c/3x3"
}
layer {
  name: "inception_4c/5x5_reduce"
  type: "Convolution"
  bottom: "inception_4b/output"
  top: "inception_4c/5x5_reduce"
  param {
    lr_mult: 0
    decay_mult: 1
  }
  param {
    lr_mult: 2
    decay_mult: 0
  }
  convolution_param {
    num_output: 24
    kernel_size: 1
    weight_filler {
      type: "xavier"
    }
    bias_filler {
      type: "constant"
      value: 0.2
    }
  }
}
layer {
  name: "inception_4c/relu_5x5_reduce"
  type: "ReLU"
  bottom: "inception_4c/5x5_reduce"
  top: "inception_4c/5x5_reduce"
}
layer {
  name: "inception_4c/5x5"
  type: "Convolution"
  bottom: "inception_4c/5x5_reduce"
  top: "inception_4c/5x5"
  param {
    lr_mult: 0
    decay_mult: 1
  }
  param {
    lr_mult: 2
    decay_mult: 0
  }
  convolution_param {
    num_output: 64
    pad: 2
    kernel_size: 5
    weight_filler {
      type: "xavier"
    }
    bias_filler {
      type: "constant"
      value: 0.2
    }
  }
}
layer {
  name: "inception_4c/relu_5x5"
  type: "ReLU"
  bottom: "inception_4c/5x5"
  top: "inception_4c/5x5"
}
layer {
  name: "inception_4c/pool"
  type: "Pooling"
  bottom: "inception_4b/output"
  top: "inception_4c/pool"
  pooling_param {
    pool: MAX
    kernel_size: 3
    stride: 1
    pad: 1
  }
}
layer {
  name: "inception_4c/pool_proj"
  type: "Convolution"
  bottom: "inception_4c/pool"
  top: "inception_4c/pool_proj"
  param {
    lr_mult: 0
    decay_mult: 1
  }
  param {
    lr_mult: 2
    decay_mult: 0
  }
  convolution_param {
    num_output: 64
    kernel_size: 1
    weight_filler {
      type: "xavier"
    }
    bias_filler {
      type: "constant"
      value: 0.2
    }
  }
}
layer {
  name: "inception_4c/relu_pool_proj"
  type: "ReLU"
  bottom: "inception_4c/pool_proj"
  top: "inception_4c/pool_proj"
}
layer {
  name: "inception_4c/output"
  type: "Concat"
  bottom: "inception_4c/1x1"
  bottom: "inception_4c/3x3"
  bottom: "inception_4c/5x5"
  bottom: "inception_4c/pool_proj"
  top: "inception_4c/output"
}
layer {
  name: "inception_4d/1x1"
  type: "Convolution"
  bottom: "inception_4c/output"
  top: "inception_4d/1x1"
  param {
    lr_mult: 0
    decay_mult: 1
  }
  param {
    lr_mult: 2
    decay_mult: 0
  }
  convolution_param {
    num_output: 112
    kernel_size: 1
    weight_filler {
      type: "xavier"
    }
    bias_filler {
      type: "constant"
      value: 0.2
    }
  }
}
layer {
  name: "inception_4d/relu_1x1"
  type: "ReLU"
  bottom: "inception_4d/1x1"
  top: "inception_4d/1x1"
}
layer {
  name: "inception_4d/3x3_reduce"
  type: "Convolution"
  bottom: "inception_4c/output"
  top: "inception_4d/3x3_reduce"
  param {
    lr_mult: 0
    decay_mult: 1
  }
  param {
    lr_mult: 2
    decay_mult: 0
  }
  convolution_param {
    num_output: 144
    kernel_size: 1
    weight_filler {
      type: "xavier"
    }
    bias_filler {
      type: "constant"
      value: 0.2
    }
  }
}
layer {
  name: "inception_4d/relu_3x3_reduce"
  type: "ReLU"
  bottom: "inception_4d/3x3_reduce"
  top: "inception_4d/3x3_reduce"
}
layer {
  name: "inception_4d/3x3"
  type: "Convolution"
  bottom: "inception_4d/3x3_reduce"
  top: "inception_4d/3x3"
  param {
    lr_mult: 0
    decay_mult: 1
  }
  param {
    lr_mult: 2
    decay_mult: 0
  }
  convolution_param {
    num_output: 288
    pad: 1
    kernel_size: 3
    weight_filler {
      type: "xavier"
    }
    bias_filler {
      type: "constant"
      value: 0.2
    }
  }
}
layer {
  name: "inception_4d/relu_3x3"
  type: "ReLU"
  bottom: "inception_4d/3x3"
  top: "inception_4d/3x3"
}
layer {
  name: "inception_4d/5x5_reduce"
  type: "Convolution"
  bottom: "inception_4c/output"
  top: "inception_4d/5x5_reduce"
  param {
    lr_mult: 0
    decay_mult: 1
  }
  param {
    lr_mult: 2
    decay_mult: 0
  }
  convolution_param {
    num_output: 32
    kernel_size: 1
    weight_filler {
      type: "xavier"
    }
    bias_filler {
      type: "constant"
      value: 0.2
    }
  }
}
layer {
  name: "inception_4d/relu_5x5_reduce"
  type: "ReLU"
  bottom: "inception_4d/5x5_reduce"
  top: "inception_4d/5x5_reduce"
}
layer {
  name: "inception_4d/5x5"
  type: "Convolution"
  bottom: "inception_4d/5x5_reduce"
  top: "inception_4d/5x5"
  param {
    lr_mult: 0
    decay_mult: 1
  }
  param {
    lr_mult: 2
    decay_mult: 0
  }
  convolution_param {
    num_output: 64
    pad: 2
    kernel_size: 5
    weight_filler {
      type: "xavier"
    }
    bias_filler {
      type: "constant"
      value: 0.2
    }
  }
}
layer {
  name: "inception_4d/relu_5x5"
  type: "ReLU"
  bottom: "inception_4d/5x5"
  top: "inception_4d/5x5"
}
layer {
  name: "inception_4d/pool"
  type: "Pooling"
  bottom: "inception_4c/output"
  top: "inception_4d/pool"
  pooling_param {
    pool: MAX
    kernel_size: 3
    stride: 1
    pad: 1
  }
}
layer {
  name: "inception_4d/pool_proj"
  type: "Convolution"
  bottom: "inception_4d/pool"
  top: "inception_4d/pool_proj"
  param {
    lr_mult: 0
    decay_mult: 1
  }
  param {
    lr_mult: 2
    decay_mult: 0
  }
  convolution_param {
    num_output: 64
    kernel_size: 1
    weight_filler {
      type: "xavier"
    }
    bias_filler {
      type: "constant"
      value: 0.2
    }
  }
}
layer {
  name: "inception_4d/relu_pool_proj"
  type: "ReLU"
  bottom: "inception_4d/pool_proj"
  top: "inception_4d/pool_proj"
}
layer {
  name: "inception_4d/output"
  type: "Concat"
  bottom: "inception_4d/1x1"
  bottom: "inception_4d/3x3"
  bottom: "inception_4d/5x5"
  bottom: "inception_4d/pool_proj"
  top: "inception_4d/output"
}
layer {
  name: "inception_4e/1x1"
  type: "Convolution"
  bottom: "inception_4d/output"
  top: "inception_4e/1x1"
  param {
    lr_mult: 0
    decay_mult: 1
  }
  param {
    lr_mult: 2
    decay_mult: 0
  }
  convolution_param {
    num_output: 256
    kernel_size: 1
    weight_filler {
      type: "xavier"
    }
    bias_filler {
      type: "constant"
      value: 0.2
    }
  }
}
layer {
  name: "inception_4e/relu_1x1"
  type: "ReLU"
  bottom: "inception_4e/1x1"
  top: "inception_4e/1x1"
}
layer {
  name: "inception_4e/3x3_reduce"
  type: "Convolution"
  bottom: "inception_4d/output"
  top: "inception_4e/3x3_reduce"
  param {
    lr_mult: 0
    decay_mult: 1
  }
  param {
    lr_mult: 2
    decay_mult: 0
  }
  convolution_param {
    num_output: 160
    kernel_size: 1
    weight_filler {
      type: "xavier"
    }
    bias_filler {
      type: "constant"
      value: 0.2
    }
  }
}
layer {
  name: "inception_4e/relu_3x3_reduce"
  type: "ReLU"
  bottom: "inception_4e/3x3_reduce"
  top: "inception_4e/3x3_reduce"
}
layer {
  name: "inception_4e/3x3"
  type: "Convolution"
  bottom: "inception_4e/3x3_reduce"
  top: "inception_4e/3x3"
  param {
    lr_mult: 0
    decay_mult: 1
  }
  param {
    lr_mult: 2
    decay_mult: 0
  }
  convolution_param {
    num_output: 320
    pad: 1
    kernel_size: 3
    weight_filler {
      type: "xavier"
    }
    bias_filler {
      type: "constant"
      value: 0.2
    }
  }
}
layer {
  name: "inception_4e/relu_3x3"
  type: "ReLU"
  bottom: "inception_4e/3x3"
  top: "inception_4e/3x3"
}
layer {
  name: "inception_4e/5x5_reduce"
  type: "Convolution"
  bottom: "inception_4d/output"
  top: "inception_4e/5x5_reduce"
  param {
    lr_mult: 0
    decay_mult: 1
  }
  param {
    lr_mult: 2
    decay_mult: 0
  }
  convolution_param {
    num_output: 32
    kernel_size: 1
    weight_filler {
      type: "xavier"
    }
    bias_filler {
      type: "constant"
      value: 0.2
    }
  }
}
layer {
  name: "inception_4e/relu_5x5_reduce"
  type: "ReLU"
  bottom: "inception_4e/5x5_reduce"
  top: "inception_4e/5x5_reduce"
}
layer {
  name: "inception_4e/5x5"
  type: "Convolution"
  bottom: "inception_4e/5x5_reduce"
  top: "inception_4e/5x5"
  param {
    lr_mult: 0
    decay_mult: 1
  }
  param {
    lr_mult: 2
    decay_mult: 0
  }
  convolution_param {
    num_output: 128
    pad: 2
    kernel_size: 5
    weight_filler {
      type: "xavier"
    }
    bias_filler {
      type: "constant"
      value: 0.2
    }
  }
}
layer {
  name: "inception_4e/relu_5x5"
  type: "ReLU"
  bottom: "inception_4e/5x5"
  top: "inception_4e/5x5"
}
layer {
  name: "inception_4e/pool"
  type: "Pooling"
  bottom: "inception_4d/output"
  top: "inception_4e/pool"
  pooling_param {
    pool: MAX
    kernel_size: 3
    stride: 1
    pad: 1
  }
}
layer {
  name: "inception_4e/pool_proj"
  type: "Convolution"
  bottom: "inception_4e/pool"
  top: "inception_4e/pool_proj"
  param {
    lr_mult: 0
    decay_mult: 1
  }
  param {
    lr_mult: 2
    decay_mult: 0
  }
  convolution_param {
    num_output: 128
    kernel_size: 1
    weight_filler {
      type: "xavier"
    }
    bias_filler {
      type: "constant"
      value: 0.2
    }
  }
}
layer {
  name: "inception_4e/relu_pool_proj"
  type: "ReLU"
  bottom: "inception_4e/pool_proj"
  top: "inception_4e/pool_proj"
}
layer {
  name: "inception_4e/output"
  type: "Concat"
  bottom: "inception_4e/1x1"
  bottom: "inception_4e/3x3"
  bottom: "inception_4e/5x5"
  bottom: "inception_4e/pool_proj"
  top: "inception_4e/output"
}
layer {
  name: "pool4/3x3_s2"
  type: "Pooling"
  bottom: "inception_4e/output"
  top: "pool4/3x3_s2"
  pooling_param {
    pool: MAX
    kernel_size: 3
    stride: 2
  }
}
layer {
  name: "inception_5a/1x1"
  type: "Convolution"
  bottom: "pool4/3x3_s2"
  top: "inception_5a/1x1"
  param {
    lr_mult: 0
    decay_mult: 1
  }
  param {
    lr_mult: 2
    decay_mult: 0
  }
  convolution_param {
    num_output: 256
    kernel_size: 1
    weight_filler {
      type: "xavier"
    }
    bias_filler {
      type: "constant"
      value: 0.2
    }
  }
}
layer {
  name: "inception_5a/relu_1x1"
  type: "ReLU"
  bottom: "inception_5a/1x1"
  top: "inception_5a/1x1"
}
layer {
  name: "inception_5a/3x3_reduce"
  type: "Convolution"
  bottom: "pool4/3x3_s2"
  top: "inception_5a/3x3_reduce"
  param {
    lr_mult: 0
    decay_mult: 1
  }
  param {
    lr_mult: 2
    decay_mult: 0
  }
  convolution_param {
    num_output: 160
    kernel_size: 1
    weight_filler {
      type: "xavier"
    }
    bias_filler {
      type: "constant"
      value: 0.2
    }
  }
}
layer {
  name: "inception_5a/relu_3x3_reduce"
  type: "ReLU"
  bottom: "inception_5a/3x3_reduce"
  top: "inception_5a/3x3_reduce"
}
layer {
  name: "inception_5a/3x3"
  type: "Convolution"
  bottom: "inception_5a/3x3_reduce"
  top: "inception_5a/3x3"
  param {
    lr_mult: 0
    decay_mult: 1
  }
  param {
    lr_mult: 2
    decay_mult: 0
  }
  convolution_param {
    num_output: 320
    pad: 1
    kernel_size: 3
    weight_filler {
      type: "xavier"
    }
    bias_filler {
      type: "constant"
      value: 0.2
    }
  }
}
layer {
  name: "inception_5a/relu_3x3"
  type: "ReLU"
  bottom: "inception_5a/3x3"
  top: "inception_5a/3x3"
}
layer {
  name: "inception_5a/5x5_reduce"
  type: "Convolution"
  bottom: "pool4/3x3_s2"
  top: "inception_5a/5x5_reduce"
  param {
    lr_mult: 0
    decay_mult: 1
  }
  param {
    lr_mult: 2
    decay_mult: 0
  }
  convolution_param {
    num_output: 32
    kernel_size: 1
    weight_filler {
      type: "xavier"
    }
    bias_filler {
      type: "constant"
      value: 0.2
    }
  }
}
layer {
  name: "inception_5a/relu_5x5_reduce"
  type: "ReLU"
  bottom: "inception_5a/5x5_reduce"
  top: "inception_5a/5x5_reduce"
}
layer {
  name: "inception_5a/5x5"
  type: "Convolution"
  bottom: "inception_5a/5x5_reduce"
  top: "inception_5a/5x5"
  param {
    lr_mult: 0
    decay_mult: 1
  }
  param {
    lr_mult: 2
    decay_mult: 0
  }
  convolution_param {
    num_output: 128
    pad: 2
    kernel_size: 5
    weight_filler {
      type: "xavier"
    }
    bias_filler {
      type: "constant"
      value: 0.2
    }
  }
}
layer {
  name: "inception_5a/relu_5x5"
  type: "ReLU"
  bottom: 
I0718 14:09:16.111488 29391 layer_factory.hpp:76] Creating layer data
I0718 14:09:16.111536 29391 net.cpp:106] Creating Layer data
I0718 14:09:16.111552 29391 net.cpp:411] data -> data
I0718 14:09:16.111583 29391 net.cpp:411] data -> label
I0718 14:09:16.112018 29391 image_data_layer.cpp:36] Opening file ../lists/mitosis_train.lst
I0718 14:09:16.123765 29391 image_data_layer.cpp:46] Shuffling data
I0718 14:09:16.125293 29391 image_data_layer.cpp:51] A total of 21366 images.
I0718 14:09:16.190294 29391 image_data_layer.cpp:78] output data size: 6,3,1000,1000
I0718 14:09:16.406170 29391 net.cpp:150] Setting up data
I0718 14:09:16.406249 29391 net.cpp:157] Top shape: 6 3 1000 1000 (18000000)
I0718 14:09:16.406267 29391 net.cpp:157] Top shape: 6 (6)
I0718 14:09:16.406278 29391 net.cpp:165] Memory required for data: 72000024
I0718 14:09:16.406293 29391 layer_factory.hpp:76] Creating layer label_data_1_split
I0718 14:09:16.406327 29391 net.cpp:106] Creating Layer label_data_1_split
I0718 14:09:16.406342 29391 net.cpp:454] label_data_1_split <- label
I0718 14:09:16.406366 29391 net.cpp:411] label_data_1_split -> label_data_1_split_0
I0718 14:09:16.406393 29391 net.cpp:411] label_data_1_split -> label_data_1_split_1
I0718 14:09:16.406466 29391 net.cpp:150] Setting up label_data_1_split
I0718 14:09:16.406493 29391 net.cpp:157] Top shape: 6 (6)
I0718 14:09:16.406505 29391 net.cpp:157] Top shape: 6 (6)
I0718 14:09:16.406513 29391 net.cpp:165] Memory required for data: 72000072
I0718 14:09:16.406522 29391 layer_factory.hpp:76] Creating layer conv1/7x7_s2
I0718 14:09:16.406546 29391 net.cpp:106] Creating Layer conv1/7x7_s2
I0718 14:09:16.406566 29391 net.cpp:454] conv1/7x7_s2 <- data
I0718 14:09:16.406579 29391 net.cpp:411] conv1/7x7_s2 -> conv1/7x7_s2
I0718 14:09:16.764894 29391 net.cpp:150] Setting up conv1/7x7_s2
I0718 14:09:16.765039 29391 net.cpp:157] Top shape: 6 64 500 500 (96000000)
I0718 14:09:16.765079 29391 net.cpp:165] Memory required for data: 456000072
I0718 14:09:16.765189 29391 layer_factory.hpp:76] Creating layer conv1/relu_7x7
I0718 14:09:16.765254 29391 net.cpp:106] Creating Layer conv1/relu_7x7
I0718 14:09:16.765380 29391 net.cpp:454] conv1/relu_7x7 <- conv1/7x7_s2
I0718 14:09:16.765440 29391 net.cpp:397] conv1/relu_7x7 -> conv1/7x7_s2 (in-place)
I0718 14:09:16.766286 29391 net.cpp:150] Setting up conv1/relu_7x7
I0718 14:09:16.766351 29391 net.cpp:157] Top shape: 6 64 500 500 (96000000)
I0718 14:09:16.766378 29391 net.cpp:165] Memory required for data: 840000072
I0718 14:09:16.766404 29391 layer_factory.hpp:76] Creating layer pool1/3x3_s2
I0718 14:09:16.766451 29391 net.cpp:106] Creating Layer pool1/3x3_s2
I0718 14:09:16.766479 29391 net.cpp:454] pool1/3x3_s2 <- conv1/7x7_s2
I0718 14:09:16.766512 29391 net.cpp:411] pool1/3x3_s2 -> pool1/3x3_s2
I0718 14:09:16.768302 29391 net.cpp:150] Setting up pool1/3x3_s2
I0718 14:09:16.768425 29391 net.cpp:157] Top shape: 6 64 250 250 (24000000)
I0718 14:09:16.768462 29391 net.cpp:165] Memory required for data: 936000072
I0718 14:09:16.768502 29391 layer_factory.hpp:76] Creating layer pool1/norm1
I0718 14:09:16.768599 29391 net.cpp:106] Creating Layer pool1/norm1
I0718 14:09:16.768638 29391 net.cpp:454] pool1/norm1 <- pool1/3x3_s2
I0718 14:09:16.768699 29391 net.cpp:411] pool1/norm1 -> pool1/norm1
I0718 14:09:16.770838 29391 net.cpp:150] Setting up pool1/norm1
I0718 14:09:16.770977 29391 net.cpp:157] Top shape: 6 64 250 250 (24000000)
I0718 14:09:16.771015 29391 net.cpp:165] Memory required for data: 1032000072
I0718 14:09:16.771067 29391 layer_factory.hpp:76] Creating layer conv2/3x3_reduce
I0718 14:09:16.771162 29391 net.cpp:106] Creating Layer conv2/3x3_reduce
I0718 14:09:16.771209 29391 net.cpp:454] conv2/3x3_reduce <- pool1/norm1
I0718 14:09:16.771265 29391 net.cpp:411] conv2/3x3_reduce -> conv2/3x3_reduce
I0718 14:09:16.780515 29391 cudnn_conv_layer.cpp:194] Reallocating workspace storage: 768
I0718 14:09:16.780642 29391 net.cpp:150] Setting up conv2/3x3_reduce
I0718 14:09:16.780699 29391 net.cpp:157] Top shape: 6 64 250 250 (24000000)
I0718 14:09:16.780727 29391 net.cpp:165] Memory required for data: 1128000072
I0718 14:09:16.780794 29391 layer_factory.hpp:76] Creating layer conv2/relu_3x3_reduce
I0718 14:09:16.780834 29391 net.cpp:106] Creating Layer conv2/relu_3x3_reduce
I0718 14:09:16.780871 29391 net.cpp:454] conv2/relu_3x3_reduce <- conv2/3x3_reduce
I0718 14:09:16.780911 29391 net.cpp:397] conv2/relu_3x3_reduce -> conv2/3x3_reduce (in-place)
I0718 14:09:16.781785 29391 net.cpp:150] Setting up conv2/relu_3x3_reduce
I0718 14:09:16.781837 29391 net.cpp:157] Top shape: 6 64 250 250 (24000000)
I0718 14:09:16.781867 29391 net.cpp:165] Memory required for data: 1224000072
I0718 14:09:16.781894 29391 layer_factory.hpp:76] Creating layer conv2/3x3
I0718 14:09:16.781950 29391 net.cpp:106] Creating Layer conv2/3x3
I0718 14:09:16.781996 29391 net.cpp:454] conv2/3x3 <- conv2/3x3_reduce
I0718 14:09:16.782034 29391 net.cpp:411] conv2/3x3 -> conv2/3x3
I0718 14:09:16.790112 29391 cudnn_conv_layer.cpp:194] Reallocating workspace storage: 6912
I0718 14:09:16.790587 29391 net.cpp:150] Setting up conv2/3x3
I0718 14:09:16.790650 29391 net.cpp:157] Top shape: 6 192 250 250 (72000000)
I0718 14:09:16.790676 29391 net.cpp:165] Memory required for data: 1512000072
I0718 14:09:16.790732 29391 layer_factory.hpp:76] Creating layer conv2/relu_3x3
I0718 14:09:16.790776 29391 net.cpp:106] Creating Layer conv2/relu_3x3
I0718 14:09:16.790802 29391 net.cpp:454] conv2/relu_3x3 <- conv2/3x3
I0718 14:09:16.790838 29391 net.cpp:397] conv2/relu_3x3 -> conv2/3x3 (in-place)
I0718 14:09:16.792333 29391 net.cpp:150] Setting up conv2/relu_3x3
I0718 14:09:16.792382 29391 net.cpp:157] Top shape: 6 192 250 250 (72000000)
I0718 14:09:16.792412 29391 net.cpp:165] Memory required for data: 1800000072
I0718 14:09:16.792440 29391 layer_factory.hpp:76] Creating layer conv2/norm2
I0718 14:09:16.792484 29391 net.cpp:106] Creating Layer conv2/norm2
I0718 14:09:16.792508 29391 net.cpp:454] conv2/norm2 <- conv2/3x3
I0718 14:09:16.792538 29391 net.cpp:411] conv2/norm2 -> conv2/norm2
I0718 14:09:16.794324 29391 net.cpp:150] Setting up conv2/norm2
I0718 14:09:16.794375 29391 net.cpp:157] Top shape: 6 192 250 250 (72000000)
I0718 14:09:16.794458 29391 net.cpp:165] Memory required for data: 2088000072
I0718 14:09:16.794484 29391 layer_factory.hpp:76] Creating layer pool2/3x3_s2
I0718 14:09:16.794528 29391 net.cpp:106] Creating Layer pool2/3x3_s2
I0718 14:09:16.794564 29391 net.cpp:454] pool2/3x3_s2 <- conv2/norm2
I0718 14:09:16.794595 29391 net.cpp:411] pool2/3x3_s2 -> pool2/3x3_s2
I0718 14:09:16.797094 29391 net.cpp:150] Setting up pool2/3x3_s2
I0718 14:09:16.797127 29391 net.cpp:157] Top shape: 6 192 125 125 (18000000)
I0718 14:09:16.797140 29391 net.cpp:165] Memory required for data: 2160000072
I0718 14:09:16.797153 29391 layer_factory.hpp:76] Creating layer pool2/3x3_s2_pool2/3x3_s2_0_split
I0718 14:09:16.797180 29391 net.cpp:106] Creating Layer pool2/3x3_s2_pool2/3x3_s2_0_split
I0718 14:09:16.797206 29391 net.cpp:454] pool2/3x3_s2_pool2/3x3_s2_0_split <- pool2/3x3_s2
I0718 14:09:16.797245 29391 net.cpp:411] pool2/3x3_s2_pool2/3x3_s2_0_split -> pool2/3x3_s2_pool2/3x3_s2_0_split_0
I0718 14:09:16.797282 29391 net.cpp:411] pool2/3x3_s2_pool2/3x3_s2_0_split -> pool2/3x3_s2_pool2/3x3_s2_0_split_1
I0718 14:09:16.797310 29391 net.cpp:411] pool2/3x3_s2_pool2/3x3_s2_0_split -> pool2/3x3_s2_pool2/3x3_s2_0_split_2
I0718 14:09:16.797341 29391 net.cpp:411] pool2/3x3_s2_pool2/3x3_s2_0_split -> pool2/3x3_s2_pool2/3x3_s2_0_split_3
I0718 14:09:16.797622 29391 net.cpp:150] Setting up pool2/3x3_s2_pool2/3x3_s2_0_split
I0718 14:09:16.797662 29391 net.cpp:157] Top shape: 6 192 125 125 (18000000)
I0718 14:09:16.797685 29391 net.cpp:157] Top shape: 6 192 125 125 (18000000)
I0718 14:09:16.797703 29391 net.cpp:157] Top shape: 6 192 125 125 (18000000)
I0718 14:09:16.797726 29391 net.cpp:157] Top shape: 6 192 125 125 (18000000)
I0718 14:09:16.797744 29391 net.cpp:165] Memory required for data: 2448000072
I0718 14:09:16.797765 29391 layer_factory.hpp:76] Creating layer inception_3a/1x1
I0718 14:09:16.797797 29391 net.cpp:106] Creating Layer inception_3a/1x1
I0718 14:09:16.797823 29391 net.cpp:454] inception_3a/1x1 <- pool2/3x3_s2_pool2/3x3_s2_0_split_0
I0718 14:09:16.797852 29391 net.cpp:411] inception_3a/1x1 -> inception_3a/1x1
I0718 14:09:16.809510 29391 cudnn_conv_layer.cpp:194] Reallocating workspace storage: 2304
I0718 14:09:16.809939 29391 net.cpp:150] Setting up inception_3a/1x1
I0718 14:09:16.809983 29391 net.cpp:157] Top shape: 6 64 125 125 (6000000)
I0718 14:09:16.810006 29391 net.cpp:165] Memory required for data: 2472000072
I0718 14:09:16.810061 29391 layer_factory.hpp:76] Creating layer inception_3a/relu_1x1
I0718 14:09:16.810091 29391 net.cpp:106] Creating Layer inception_3a/relu_1x1
I0718 14:09:16.810112 29391 net.cpp:454] inception_3a/relu_1x1 <- inception_3a/1x1
I0718 14:09:16.810145 29391 net.cpp:397] inception_3a/relu_1x1 -> inception_3a/1x1 (in-place)
I0718 14:09:16.812110 29391 net.cpp:150] Setting up inception_3a/relu_1x1
I0718 14:09:16.812173 29391 net.cpp:157] Top shape: 6 64 125 125 (6000000)
I0718 14:09:16.812207 29391 net.cpp:165] Memory required for data: 2496000072
I0718 14:09:16.812252 29391 layer_factory.hpp:76] Creating layer inception_3a/3x3_reduce
I0718 14:09:16.812309 29391 net.cpp:106] Creating Layer inception_3a/3x3_reduce
I0718 14:09:16.812352 29391 net.cpp:454] inception_3a/3x3_reduce <- pool2/3x3_s2_pool2/3x3_s2_0_split_1
I0718 14:09:16.812407 29391 net.cpp:411] inception_3a/3x3_reduce -> inception_3a/3x3_reduce
I0718 14:09:16.824448 29391 cudnn_conv_layer.cpp:194] Reallocating workspace storage: 2304
I0718 14:09:16.824532 29391 net.cpp:150] Setting up inception_3a/3x3_reduce
I0718 14:09:16.824559 29391 net.cpp:157] Top shape: 6 96 125 125 (9000000)
I0718 14:09:16.824581 29391 net.cpp:165] Memory required for data: 2532000072
I0718 14:09:16.824615 29391 layer_factory.hpp:76] Creating layer inception_3a/relu_3x3_reduce
I0718 14:09:16.824656 29391 net.cpp:106] Creating Layer inception_3a/relu_3x3_reduce
I0718 14:09:16.824677 29391 net.cpp:454] inception_3a/relu_3x3_reduce <- inception_3a/3x3_reduce
I0718 14:09:16.824704 29391 net.cpp:397] inception_3a/relu_3x3_reduce -> inception_3a/3x3_reduce (in-place)
I0718 14:09:16.827404 29391 net.cpp:150] Setting up inception_3a/relu_3x3_reduce
I0718 14:09:16.827461 29391 net.cpp:157] Top shape: 6 96 125 125 (9000000)
I0718 14:09:16.827497 29391 net.cpp:165] Memory required for data: 2568000072
I0718 14:09:16.827530 29391 layer_factory.hpp:76] Creating layer inception_3a/3x3
I0718 14:09:16.827589 29391 net.cpp:106] Creating Layer inception_3a/3x3
I0718 14:09:16.827636 29391 net.cpp:454] inception_3a/3x3 <- inception_3a/3x3_reduce
I0718 14:09:16.827682 29391 net.cpp:411] inception_3a/3x3 -> inception_3a/3x3
I0718 14:09:16.837817 29391 cudnn_conv_layer.cpp:194] Reallocating workspace storage: 10368
I0718 14:09:16.837954 29391 net.cpp:150] Setting up inception_3a/3x3
I0718 14:09:16.838013 29391 net.cpp:157] Top shape: 6 128 125 125 (12000000)
I0718 14:09:16.838047 29391 net.cpp:165] Memory required for data: 2616000072
I0718 14:09:16.838093 29391 layer_factory.hpp:76] Creating layer inception_3a/relu_3x3
I0718 14:09:16.838132 29391 net.cpp:106] Creating Layer inception_3a/relu_3x3
I0718 14:09:16.838160 29391 net.cpp:454] inception_3a/relu_3x3 <- inception_3a/3x3
I0718 14:09:16.838203 29391 net.cpp:397] inception_3a/relu_3x3 -> inception_3a/3x3 (in-place)
I0718 14:09:16.840759 29391 net.cpp:150] Setting up inception_3a/relu_3x3
I0718 14:09:16.840801 29391 net.cpp:157] Top shape: 6 128 125 125 (12000000)
I0718 14:09:16.840816 29391 net.cpp:165] Memory required for data: 2664000072
I0718 14:09:16.840831 29391 layer_factory.hpp:76] Creating layer inception_3a/5x5_reduce
I0718 14:09:16.840863 29391 net.cpp:106] Creating Layer inception_3a/5x5_reduce
I0718 14:09:16.840880 29391 net.cpp:454] inception_3a/5x5_reduce <- pool2/3x3_s2_pool2/3x3_s2_0_split_2
I0718 14:09:16.840909 29391 net.cpp:411] inception_3a/5x5_reduce -> inception_3a/5x5_reduce
I0718 14:09:16.851605 29391 net.cpp:150] Setting up inception_3a/5x5_reduce
I0718 14:09:16.851737 29391 net.cpp:157] Top shape: 6 16 125 125 (1500000)
I0718 14:09:16.851774 29391 net.cpp:165] Memory required for data: 2670000072
I0718 14:09:16.851826 29391 layer_factory.hpp:76] Creating layer inception_3a/relu_5x5_reduce
I0718 14:09:16.851874 29391 net.cpp:106] Creating Layer inception_3a/relu_5x5_reduce
I0718 14:09:16.851912 29391 net.cpp:454] inception_3a/relu_5x5_reduce <- inception_3a/5x5_reduce
I0718 14:09:16.851948 29391 net.cpp:397] inception_3a/relu_5x5_reduce -> inception_3a/5x5_reduce (in-place)
I0718 14:09:16.853881 29391 net.cpp:150] Setting up inception_3a/relu_5x5_reduce
I0718 14:09:16.853930 29391 net.cpp:157] Top shape: 6 16 125 125 (1500000)
I0718 14:09:16.853947 29391 net.cpp:165] Memory required for data: 2676000072
I0718 14:09:16.853965 29391 layer_factory.hpp:76] Creating layer inception_3a/5x5
I0718 14:09:16.853994 29391 net.cpp:106] Creating Layer inception_3a/5x5
I0718 14:09:16.854012 29391 net.cpp:454] inception_3a/5x5 <- inception_3a/5x5_reduce
I0718 14:09:16.854049 29391 net.cpp:411] inception_3a/5x5 -> inception_3a/5x5
I0718 14:09:16.863817 29391 cudnn_conv_layer.cpp:194] Reallocating workspace storage: 4800
I0718 14:09:16.863932 29391 net.cpp:150] Setting up inception_3a/5x5
I0718 14:09:16.863965 29391 net.cpp:157] Top shape: 6 32 125 125 (3000000)
I0718 14:09:16.863984 29391 net.cpp:165] Memory required for data: 2688000072
I0718 14:09:16.864017 29391 layer_factory.hpp:76] Creating layer inception_3a/relu_5x5
I0718 14:09:16.864054 29391 net.cpp:106] Creating Layer inception_3a/relu_5x5
I0718 14:09:16.864071 29391 net.cpp:454] inception_3a/relu_5x5 <- inception_3a/5x5
I0718 14:09:16.864109 29391 net.cpp:397] inception_3a/relu_5x5 -> inception_3a/5x5 (in-place)
I0718 14:09:16.867239 29391 net.cpp:150] Setting up inception_3a/relu_5x5
I0718 14:09:16.867298 29391 net.cpp:157] Top shape: 6 32 125 125 (3000000)
I0718 14:09:16.867331 29391 net.cpp:165] Memory required for data: 2700000072
I0718 14:09:16.867360 29391 layer_factory.hpp:76] Creating layer inception_3a/pool
I0718 14:09:16.867403 29391 net.cpp:106] Creating Layer inception_3a/pool
I0718 14:09:16.867444 29391 net.cpp:454] inception_3a/pool <- pool2/3x3_s2_pool2/3x3_s2_0_split_3
I0718 14:09:16.867527 29391 net.cpp:411] inception_3a/pool -> inception_3a/pool
I0718 14:09:16.870702 29391 net.cpp:150] Setting up inception_3a/pool
I0718 14:09:16.870756 29391 net.cpp:157] Top shape: 6 192 125 125 (18000000)
I0718 14:09:16.870776 29391 net.cpp:165] Memory required for data: 2772000072
I0718 14:09:16.870790 29391 layer_factory.hpp:76] Creating layer inception_3a/pool_proj
I0718 14:09:16.870820 29391 net.cpp:106] Creating Layer inception_3a/pool_proj
I0718 14:09:16.870854 29391 net.cpp:454] inception_3a/pool_proj <- inception_3a/pool
I0718 14:09:16.870892 29391 net.cpp:411] inception_3a/pool_proj -> inception_3a/pool_proj
I0718 14:09:16.880674 29391 net.cpp:150] Setting up inception_3a/pool_proj
I0718 14:09:16.880719 29391 net.cpp:157] Top shape: 6 32 125 125 (3000000)
I0718 14:09:16.880739 29391 net.cpp:165] Memory required for data: 2784000072
I0718 14:09:16.880772 29391 layer_factory.hpp:76] Creating layer inception_3a/relu_pool_proj
I0718 14:09:16.880807 29391 net.cpp:106] Creating Layer inception_3a/relu_pool_proj
I0718 14:09:16.880827 29391 net.cpp:454] inception_3a/relu_pool_proj <- inception_3a/pool_proj
I0718 14:09:16.880847 29391 net.cpp:397] inception_3a/relu_pool_proj -> inception_3a/pool_proj (in-place)
I0718 14:09:16.883500 29391 net.cpp:150] Setting up inception_3a/relu_pool_proj
I0718 14:09:16.883574 29391 net.cpp:157] Top shape: 6 32 125 125 (3000000)
I0718 14:09:16.883599 29391 net.cpp:165] Memory required for data: 2796000072
I0718 14:09:16.883621 29391 layer_factory.hpp:76] Creating layer inception_3a/output
I0718 14:09:16.883679 29391 net.cpp:106] Creating Layer inception_3a/output
I0718 14:09:16.883716 29391 net.cpp:454] inception_3a/output <- inception_3a/1x1
I0718 14:09:16.883756 29391 net.cpp:454] inception_3a/output <- inception_3a/3x3
I0718 14:09:16.883785 29391 net.cpp:454] inception_3a/output <- inception_3a/5x5
I0718 14:09:16.883821 29391 net.cpp:454] inception_3a/output <- inception_3a/pool_proj
I0718 14:09:16.883852 29391 net.cpp:411] inception_3a/output -> inception_3a/output
I0718 14:09:16.883965 29391 net.cpp:150] Setting up inception_3a/output
I0718 14:09:16.884007 29391 net.cpp:157] Top shape: 6 256 125 125 (24000000)
I0718 14:09:16.884032 29391 net.cpp:165] Memory required for data: 2892000072
I0718 14:09:16.884065 29391 layer_factory.hpp:76] Creating layer inception_3a/output_inception_3a/output_0_split
I0718 14:09:16.884100 29391 net.cpp:106] Creating Layer inception_3a/output_inception_3a/output_0_split
I0718 14:09:16.884125 29391 net.cpp:454] inception_3a/output_inception_3a/output_0_split <- inception_3a/output
I0718 14:09:16.884169 29391 net.cpp:411] inception_3a/output_inception_3a/output_0_split -> inception_3a/output_inception_3a/output_0_split_0
I0718 14:09:16.884204 29391 net.cpp:411] inception_3a/output_inception_3a/output_0_split -> inception_3a/output_inception_3a/output_0_split_1
I0718 14:09:16.884253 29391 net.cpp:411] inception_3a/output_inception_3a/output_0_split -> inception_3a/output_inception_3a/output_0_split_2
I0718 14:09:16.884285 29391 net.cpp:411] inception_3a/output_inception_3a/output_0_split -> inception_3a/output_inception_3a/output_0_split_3
I0718 14:09:16.884560 29391 net.cpp:150] Setting up inception_3a/output_inception_3a/output_0_split
I0718 14:09:16.884596 29391 net.cpp:157] Top shape: 6 256 125 125 (24000000)
I0718 14:09:16.884624 29391 net.cpp:157] Top shape: 6 256 125 125 (24000000)
I0718 14:09:16.884649 29391 net.cpp:157] Top shape: 6 256 125 125 (24000000)
I0718 14:09:16.884677 29391 net.cpp:157] Top shape: 6 256 125 125 (24000000)
I0718 14:09:16.884713 29391 net.cpp:165] Memory required for data: 3276000072
I0718 14:09:16.884743 29391 layer_factory.hpp:76] Creating layer inception_3b/1x1
I0718 14:09:16.884788 29391 net.cpp:106] Creating Layer inception_3b/1x1
I0718 14:09:16.884814 29391 net.cpp:454] inception_3b/1x1 <- inception_3a/output_inception_3a/output_0_split_0
I0718 14:09:16.884852 29391 net.cpp:411] inception_3b/1x1 -> inception_3b/1x1
I0718 14:09:16.892856 29391 cudnn_conv_layer.cpp:194] Reallocating workspace storage: 3072
I0718 14:09:16.893019 29391 net.cpp:150] Setting up inception_3b/1x1
I0718 14:09:16.893056 29391 net.cpp:157] Top shape: 6 128 125 125 (12000000)
I0718 14:09:16.893074 29391 net.cpp:165] Memory required for data: 3324000072
I0718 14:09:16.893106 29391 layer_factory.hpp:76] Creating layer inception_3b/relu_1x1
I0718 14:09:16.893131 29391 net.cpp:106] Creating Layer inception_3b/relu_1x1
I0718 14:09:16.893149 29391 net.cpp:454] inception_3b/relu_1x1 <- inception_3b/1x1
I0718 14:09:16.893168 29391 net.cpp:397] inception_3b/relu_1x1 -> inception_3b/1x1 (in-place)
I0718 14:09:16.895768 29391 net.cpp:150] Setting up inception_3b/relu_1x1
I0718 14:09:16.895800 29391 net.cpp:157] Top shape: 6 128 125 125 (12000000)
I0718 14:09:16.895815 29391 net.cpp:165] Memory required for data: 3372000072
I0718 14:09:16.895835 29391 layer_factory.hpp:76] Creating layer inception_3b/3x3_reduce
I0718 14:09:16.895866 29391 net.cpp:106] Creating Layer inception_3b/3x3_reduce
I0718 14:09:16.895885 29391 net.cpp:454] inception_3b/3x3_reduce <- inception_3a/output_inception_3a/output_0_split_1
I0718 14:09:16.895908 29391 net.cpp:411] inception_3b/3x3_reduce -> inception_3b/3x3_reduce
I0718 14:09:16.905483 29391 cudnn_conv_layer.cpp:194] Reallocating workspace storage: 3072
I0718 14:09:16.905573 29391 net.cpp:150] Setting up inception_3b/3x3_reduce
I0718 14:09:16.905622 29391 net.cpp:157] Top shape: 6 128 125 125 (12000000)
I0718 14:09:16.905645 29391 net.cpp:165] Memory required for data: 3420000072
I0718 14:09:16.905673 29391 layer_factory.hpp:76] Creating layer inception_3b/relu_3x3_reduce
I0718 14:09:16.905694 29391 net.cpp:106] Creating Layer inception_3b/relu_3x3_reduce
I0718 14:09:16.905709 29391 net.cpp:454] inception_3b/relu_3x3_reduce <- inception_3b/3x3_reduce
I0718 14:09:16.905743 29391 net.cpp:397] inception_3b/relu_3x3_reduce -> inception_3b/3x3_reduce (in-place)
I0718 14:09:16.908635 29391 net.cpp:150] Setting up inception_3b/relu_3x3_reduce
I0718 14:09:16.908682 29391 net.cpp:157] Top shape: 6 128 125 125 (12000000)
I0718 14:09:16.908699 29391 net.cpp:165] Memory required for data: 3468000072
I0718 14:09:16.908717 29391 layer_factory.hpp:76] Creating layer inception_3b/3x3
I0718 14:09:16.908768 29391 net.cpp:106] Creating Layer inception_3b/3x3
I0718 14:09:16.908793 29391 net.cpp:454] inception_3b/3x3 <- inception_3b/3x3_reduce
I0718 14:09:16.908823 29391 net.cpp:411] inception_3b/3x3 -> inception_3b/3x3
I0718 14:09:16.921509 29391 cudnn_conv_layer.cpp:194] Reallocating workspace storage: 13824
I0718 14:09:16.921654 29391 net.cpp:150] Setting up inception_3b/3x3
I0718 14:09:16.921695 29391 net.cpp:157] Top shape: 6 192 125 125 (18000000)
I0718 14:09:16.921712 29391 net.cpp:165] Memory required for data: 3540000072
I0718 14:09:16.921746 29391 layer_factory.hpp:76] Creating layer inception_3b/relu_3x3
I0718 14:09:16.921782 29391 net.cpp:106] Creating Layer inception_3b/relu_3x3
I0718 14:09:16.921811 29391 net.cpp:454] inception_3b/relu_3x3 <- inception_3b/3x3
I0718 14:09:16.921844 29391 net.cpp:397] inception_3b/relu_3x3 -> inception_3b/3x3 (in-place)
I0718 14:09:16.924265 29391 net.cpp:150] Setting up inception_3b/relu_3x3
I0718 14:09:16.924309 29391 net.cpp:157] Top shape: 6 192 125 125 (18000000)
I0718 14:09:16.924329 29391 net.cpp:165] Memory required for data: 3612000072
I0718 14:09:16.924350 29391 layer_factory.hpp:76] Creating layer inception_3b/5x5_reduce
I0718 14:09:16.924394 29391 net.cpp:106] Creating Layer inception_3b/5x5_reduce
I0718 14:09:16.924414 29391 net.cpp:454] inception_3b/5x5_reduce <- inception_3a/output_inception_3a/output_0_split_2
I0718 14:09:16.924443 29391 net.cpp:411] inception_3b/5x5_reduce -> inception_3b/5x5_reduce
I0718 14:09:16.933859 29391 net.cpp:150] Setting up inception_3b/5x5_reduce
I0718 14:09:16.933905 29391 net.cpp:157] Top shape: 6 32 125 125 (3000000)
I0718 14:09:16.933926 29391 net.cpp:165] Memory required for data: 3624000072
I0718 14:09:16.933950 29391 layer_factory.hpp:76] Creating layer inception_3b/relu_5x5_reduce
I0718 14:09:16.933977 29391 net.cpp:106] Creating Layer inception_3b/relu_5x5_reduce
I0718 14:09:16.934039 29391 net.cpp:454] inception_3b/relu_5x5_reduce <- inception_3b/5x5_reduce
I0718 14:09:16.934065 29391 net.cpp:397] inception_3b/relu_5x5_reduce -> inception_3b/5x5_reduce (in-place)
I0718 14:09:16.936887 29391 net.cpp:150] Setting up inception_3b/relu_5x5_reduce
I0718 14:09:16.936959 29391 net.cpp:157] Top shape: 6 32 125 125 (3000000)
I0718 14:09:16.936977 29391 net.cpp:165] Memory required for data: 3636000072
I0718 14:09:16.936996 29391 layer_factory.hpp:76] Creating layer inception_3b/5x5
I0718 14:09:16.937050 29391 net.cpp:106] Creating Layer inception_3b/5x5
I0718 14:09:16.937072 29391 net.cpp:454] inception_3b/5x5 <- inception_3b/5x5_reduce
I0718 14:09:16.937096 29391 net.cpp:411] inception_3b/5x5 -> inception_3b/5x5
I0718 14:09:16.947085 29391 net.cpp:150] Setting up inception_3b/5x5
I0718 14:09:16.947192 29391 net.cpp:157] Top shape: 6 96 125 125 (9000000)
I0718 14:09:16.947211 29391 net.cpp:165] Memory required for data: 3672000072
I0718 14:09:16.947252 29391 layer_factory.hpp:76] Creating layer inception_3b/relu_5x5
I0718 14:09:16.947312 29391 net.cpp:106] Creating Layer inception_3b/relu_5x5
I0718 14:09:16.947345 29391 net.cpp:454] inception_3b/relu_5x5 <- inception_3b/5x5
I0718 14:09:16.947379 29391 net.cpp:397] inception_3b/relu_5x5 -> inception_3b/5x5 (in-place)
I0718 14:09:16.949867 29391 net.cpp:150] Setting up inception_3b/relu_5x5
I0718 14:09:16.949951 29391 net.cpp:157] Top shape: 6 96 125 125 (9000000)
I0718 14:09:16.949966 29391 net.cpp:165] Memory required for data: 3708000072
I0718 14:09:16.949990 29391 layer_factory.hpp:76] Creating layer inception_3b/pool
I0718 14:09:16.950043 29391 net.cpp:106] Creating Layer inception_3b/pool
I0718 14:09:16.950067 29391 net.cpp:454] inception_3b/pool <- inception_3a/output_inception_3a/output_0_split_3
I0718 14:09:16.950094 29391 net.cpp:411] inception_3b/pool -> inception_3b/pool
I0718 14:09:16.953397 29391 net.cpp:150] Setting up inception_3b/pool
I0718 14:09:16.953599 29391 net.cpp:157] Top shape: 6 256 125 125 (24000000)
I0718 14:09:16.953619 29391 net.cpp:165] Memory required for data: 3804000072
I0718 14:09:16.953655 29391 layer_factory.hpp:76] Creating layer inception_3b/pool_proj
I0718 14:09:16.953733 29391 net.cpp:106] Creating Layer inception_3b/pool_proj
I0718 14:09:16.953768 29391 net.cpp:454] inception_3b/pool_proj <- inception_3b/pool
I0718 14:09:16.953815 29391 net.cpp:411] inception_3b/pool_proj -> inception_3b/pool_proj
I0718 14:09:16.964161 29391 net.cpp:150] Setting up inception_3b/pool_proj
I0718 14:09:16.964408 29391 net.cpp:157] Top shape: 6 64 125 125 (6000000)
I0718 14:09:16.964428 29391 net.cpp:165] Memory required for data: 3828000072
I0718 14:09:16.964509 29391 layer_factory.hpp:76] Creating layer inception_3b/relu_pool_proj
I0718 14:09:16.964613 29391 net.cpp:106] Creating Layer inception_3b/relu_pool_proj
I0718 14:09:16.964658 29391 net.cpp:454] inception_3b/relu_pool_proj <- inception_3b/pool_proj
I0718 14:09:16.964714 29391 net.cpp:397] inception_3b/relu_pool_proj -> inception_3b/pool_proj (in-place)
I0718 14:09:16.966549 29391 net.cpp:150] Setting up inception_3b/relu_pool_proj
I0718 14:09:16.966603 29391 net.cpp:157] Top shape: 6 64 125 125 (6000000)
I0718 14:09:16.966625 29391 net.cpp:165] Memory required for data: 3852000072
I0718 14:09:16.966687 29391 layer_factory.hpp:76] Creating layer inception_3b/output
I0718 14:09:16.966737 29391 net.cpp:106] Creating Layer inception_3b/output
I0718 14:09:16.966789 29391 net.cpp:454] inception_3b/output <- inception_3b/1x1
I0718 14:09:16.966845 29391 net.cpp:454] inception_3b/output <- inception_3b/3x3
I0718 14:09:16.966898 29391 net.cpp:454] inception_3b/output <- inception_3b/5x5
I0718 14:09:16.966933 29391 net.cpp:454] inception_3b/output <- inception_3b/pool_proj
I0718 14:09:16.966996 29391 net.cpp:411] inception_3b/output -> inception_3b/output
I0718 14:09:16.967236 29391 net.cpp:150] Setting up inception_3b/output
I0718 14:09:16.967291 29391 net.cpp:157] Top shape: 6 480 125 125 (45000000)
I0718 14:09:16.967324 29391 net.cpp:165] Memory required for data: 4032000072
I0718 14:09:16.967470 29391 layer_factory.hpp:76] Creating layer pool3/3x3_s2
I0718 14:09:16.967588 29391 net.cpp:106] Creating Layer pool3/3x3_s2
I0718 14:09:16.967640 29391 net.cpp:454] pool3/3x3_s2 <- inception_3b/output
I0718 14:09:16.967711 29391 net.cpp:411] pool3/3x3_s2 -> pool3/3x3_s2
I0718 14:09:16.969826 29391 net.cpp:150] Setting up pool3/3x3_s2
I0718 14:09:16.969957 29391 net.cpp:157] Top shape: 6 480 62 62 (11070720)
I0718 14:09:16.970005 29391 net.cpp:165] Memory required for data: 4076282952
I0718 14:09:16.970049 29391 layer_factory.hpp:76] Creating layer pool3/3x3_s2_pool3/3x3_s2_0_split
I0718 14:09:16.970115 29391 net.cpp:106] Creating Layer pool3/3x3_s2_pool3/3x3_s2_0_split
I0718 14:09:16.970146 29391 net.cpp:454] pool3/3x3_s2_pool3/3x3_s2_0_split <- pool3/3x3_s2
I0718 14:09:16.970190 29391 net.cpp:411] pool3/3x3_s2_pool3/3x3_s2_0_split -> pool3/3x3_s2_pool3/3x3_s2_0_split_0
I0718 14:09:16.970245 29391 net.cpp:411] pool3/3x3_s2_pool3/3x3_s2_0_split -> pool3/3x3_s2_pool3/3x3_s2_0_split_1
I0718 14:09:16.970296 29391 net.cpp:411] pool3/3x3_s2_pool3/3x3_s2_0_split -> pool3/3x3_s2_pool3/3x3_s2_0_split_2
I0718 14:09:16.970353 29391 net.cpp:411] pool3/3x3_s2_pool3/3x3_s2_0_split -> pool3/3x3_s2_pool3/3x3_s2_0_split_3
I0718 14:09:16.970610 29391 net.cpp:150] Setting up pool3/3x3_s2_pool3/3x3_s2_0_split
I0718 14:09:16.970685 29391 net.cpp:157] Top shape: 6 480 62 62 (11070720)
I0718 14:09:16.970722 29391 net.cpp:157] Top shape: 6 480 62 62 (11070720)
I0718 14:09:16.970748 29391 net.cpp:157] Top shape: 6 480 62 62 (11070720)
I0718 14:09:16.970777 29391 net.cpp:157] Top shape: 6 480 62 62 (11070720)
I0718 14:09:16.970800 29391 net.cpp:165] Memory required for data: 4253414472
I0718 14:09:16.970824 29391 layer_factory.hpp:76] Creating layer inception_4a/1x1
I0718 14:09:16.970892 29391 net.cpp:106] Creating Layer inception_4a/1x1
I0718 14:09:16.970914 29391 net.cpp:454] inception_4a/1x1 <- pool3/3x3_s2_pool3/3x3_s2_0_split_0
I0718 14:09:16.970947 29391 net.cpp:411] inception_4a/1x1 -> inception_4a/1x1
I0718 14:09:16.979181 29391 cudnn_conv_layer.cpp:194] Reallocating workspace storage: 5760
I0718 14:09:16.979284 29391 net.cpp:150] Setting up inception_4a/1x1
I0718 14:09:16.979311 29391 net.cpp:157] Top shape: 6 192 62 62 (4428288)
I0718 14:09:16.979321 29391 net.cpp:165] Memory required for data: 4271127624
I0718 14:09:16.979344 29391 layer_factory.hpp:76] Creating layer inception_4a/relu_1x1
I0718 14:09:16.979382 29391 net.cpp:106] Creating Layer inception_4a/relu_1x1
I0718 14:09:16.979401 29391 net.cpp:454] inception_4a/relu_1x1 <- inception_4a/1x1
I0718 14:09:16.979427 29391 net.cpp:397] inception_4a/relu_1x1 -> inception_4a/1x1 (in-place)
I0718 14:09:16.981431 29391 net.cpp:150] Setting up inception_4a/relu_1x1
I0718 14:09:16.981485 29391 net.cpp:157] Top shape: 6 192 62 62 (4428288)
I0718 14:09:16.981497 29391 net.cpp:165] Memory required for data: 4288840776
I0718 14:09:16.981511 29391 layer_factory.hpp:76] Creating layer inception_4a/3x3_reduce
I0718 14:09:16.981549 29391 net.cpp:106] Creating Layer inception_4a/3x3_reduce
I0718 14:09:16.981564 29391 net.cpp:454] inception_4a/3x3_reduce <- pool3/3x3_s2_pool3/3x3_s2_0_split_1
I0718 14:09:16.981585 29391 net.cpp:411] inception_4a/3x3_reduce -> inception_4a/3x3_reduce
I0718 14:09:16.989140 29391 cudnn_conv_layer.cpp:194] Reallocating workspace storage: 5760
I0718 14:09:16.989254 29391 net.cpp:150] Setting up inception_4a/3x3_reduce
I0718 14:09:16.989276 29391 net.cpp:157] Top shape: 6 96 62 62 (2214144)
I0718 14:09:16.989286 29391 net.cpp:165] Memory required for data: 4297697352
I0718 14:09:16.989321 29391 layer_factory.hpp:76] Creating layer inception_4a/relu_3x3_reduce
I0718 14:09:16.989354 29391 net.cpp:106] Creating Layer inception_4a/relu_3x3_reduce
I0718 14:09:16.989377 29391 net.cpp:454] inception_4a/relu_3x3_reduce <- inception_4a/3x3_reduce
I0718 14:09:16.989409 29391 net.cpp:397] inception_4a/relu_3x3_reduce -> inception_4a/3x3_reduce (in-place)
I0718 14:09:16.991390 29391 net.cpp:150] Setting up inception_4a/relu_3x3_reduce
I0718 14:09:16.991499 29391 net.cpp:157] Top shape: 6 96 62 62 (2214144)
I0718 14:09:16.991516 29391 net.cpp:165] Memory required for data: 4306553928
I0718 14:09:16.991535 29391 layer_factory.hpp:76] Creating layer inception_4a/3x3
I0718 14:09:16.991580 29391 net.cpp:106] Creating Layer inception_4a/3x3
I0718 14:09:16.991601 29391 net.cpp:454] inception_4a/3x3 <- inception_4a/3x3_reduce
I0718 14:09:16.991627 29391 net.cpp:411] inception_4a/3x3 -> inception_4a/3x3
I0718 14:09:17.001585 29391 net.cpp:150] Setting up inception_4a/3x3
I0718 14:09:17.001729 29391 net.cpp:157] Top shape: 6 208 62 62 (4797312)
I0718 14:09:17.001740 29391 net.cpp:165] Memory required for data: 4325743176
I0718 14:09:17.001814 29391 layer_factory.hpp:76] Creating layer inception_4a/relu_3x3
I0718 14:09:17.001880 29391 net.cpp:106] Creating Layer inception_4a/relu_3x3
I0718 14:09:17.001958 29391 net.cpp:454] inception_4a/relu_3x3 <- inception_4a/3x3
I0718 14:09:17.001991 29391 net.cpp:397] inception_4a/relu_3x3 -> inception_4a/3x3 (in-place)
I0718 14:09:17.003888 29391 net.cpp:150] Setting up inception_4a/relu_3x3
I0718 14:09:17.003949 29391 net.cpp:157] Top shape: 6 208 62 62 (4797312)
I0718 14:09:17.003962 29391 net.cpp:165] Memory required for data: 4344932424
I0718 14:09:17.003973 29391 layer_factory.hpp:76] Creating layer inception_4a/5x5_reduce
I0718 14:09:17.004016 29391 net.cpp:106] Creating Layer inception_4a/5x5_reduce
I0718 14:09:17.004039 29391 net.cpp:454] inception_4a/5x5_reduce <- pool3/3x3_s2_pool3/3x3_s2_0_split_2
I0718 14:09:17.004057 29391 net.cpp:411] inception_4a/5x5_reduce -> inception_4a/5x5_reduce
I0718 14:09:17.010716 29391 cudnn_conv_layer.cpp:194] Reallocating workspace storage: 5760
I0718 14:09:17.010887 29391 net.cpp:150] Setting up inception_4a/5x5_reduce
I0718 14:09:17.010915 29391 net.cpp:157] Top shape: 6 16 62 62 (369024)
I0718 14:09:17.010924 29391 net.cpp:165] Memory required for data: 4346408520
I0718 14:09:17.010974 29391 layer_factory.hpp:76] Creating layer inception_4a/relu_5x5_reduce
I0718 14:09:17.011021 29391 net.cpp:106] Creating Layer inception_4a/relu_5x5_reduce
I0718 14:09:17.011042 29391 net.cpp:454] inception_4a/relu_5x5_reduce <- inception_4a/5x5_reduce
I0718 14:09:17.011064 29391 net.cpp:397] inception_4a/relu_5x5_reduce -> inception_4a/5x5_reduce (in-place)
I0718 14:09:17.012946 29391 net.cpp:150] Setting up inception_4a/relu_5x5_reduce
I0718 14:09:17.013007 29391 net.cpp:157] Top shape: 6 16 62 62 (369024)
I0718 14:09:17.013026 29391 net.cpp:165] Memory required for data: 4347884616
I0718 14:09:17.013039 29391 layer_factory.hpp:76] Creating layer inception_4a/5x5
I0718 14:09:17.013088 29391 net.cpp:106] Creating Layer inception_4a/5x5
I0718 14:09:17.013113 29391 net.cpp:454] inception_4a/5x5 <- inception_4a/5x5_reduce
I0718 14:09:17.013139 29391 net.cpp:411] inception_4a/5x5 -> inception_4a/5x5
I0718 14:09:17.045601 29391 net.cpp:150] Setting up inception_4a/5x5
I0718 14:09:17.046762 29391 net.cpp:157] Top shape: 6 48 62 62 (1107072)
I0718 14:09:17.046819 29391 net.cpp:165] Memory required for data: 4352312904
I0718 14:09:17.046874 29391 layer_factory.hpp:76] Creating layer inception_4a/relu_5x5
I0718 14:09:17.046962 29391 net.cpp:106] Creating Layer inception_4a/relu_5x5
I0718 14:09:17.047003 29391 net.cpp:454] inception_4a/relu_5x5 <- inception_4a/5x5
I0718 14:09:17.047054 29391 net.cpp:397] inception_4a/relu_5x5 -> inception_4a/5x5 (in-place)
I0718 14:09:17.048282 29391 net.cpp:150] Setting up inception_4a/relu_5x5
I0718 14:09:17.048311 29391 net.cpp:157] Top shape: 6 48 62 62 (1107072)
I0718 14:09:17.048329 29391 net.cpp:165] Memory required for data: 4356741192
I0718 14:09:17.048364 29391 layer_factory.hpp:76] Creating layer inception_4a/pool
I0718 14:09:17.048421 29391 net.cpp:106] Creating Layer inception_4a/pool
I0718 14:09:17.048451 29391 net.cpp:454] inception_4a/pool <- pool3/3x3_s2_pool3/3x3_s2_0_split_3
I0718 14:09:17.048490 29391 net.cpp:411] inception_4a/pool -> inception_4a/pool
I0718 14:09:17.059051 29391 net.cpp:150] Setting up inception_4a/pool
I0718 14:09:17.059198 29391 net.cpp:157] Top shape: 6 480 62 62 (11070720)
I0718 14:09:17.059366 29391 net.cpp:165] Memory required for data: 4401024072
I0718 14:09:17.059420 29391 layer_factory.hpp:76] Creating layer inception_4a/pool_proj
I0718 14:09:17.059490 29391 net.cpp:106] Creating Layer inception_4a/pool_proj
I0718 14:09:17.059533 29391 net.cpp:454] inception_4a/pool_proj <- inception_4a/pool
I0718 14:09:17.059609 29391 net.cpp:411] inception_4a/pool_proj -> inception_4a/pool_proj
I0718 14:09:17.067575 29391 net.cpp:150] Setting up inception_4a/pool_proj
I0718 14:09:17.067703 29391 net.cpp:157] Top shape: 6 64 62 62 (1476096)
I0718 14:09:17.067736 29391 net.cpp:165] Memory required for data: 4406928456
I0718 14:09:17.067792 29391 layer_factory.hpp:76] Creating layer inception_4a/relu_pool_proj
I0718 14:09:17.067843 29391 net.cpp:106] Creating Layer inception_4a/relu_pool_proj
I0718 14:09:17.067890 29391 net.cpp:454] inception_4a/relu_pool_proj <- inception_4a/pool_proj
I0718 14:09:17.067927 29391 net.cpp:397] inception_4a/relu_pool_proj -> inception_4a/pool_proj (in-place)
I0718 14:09:17.069460 29391 net.cpp:150] Setting up inception_4a/relu_pool_proj
I0718 14:09:17.069581 29391 net.cpp:157] Top shape: 6 64 62 62 (1476096)
I0718 14:09:17.069598 29391 net.cpp:165] Memory required for data: 4412832840
I0718 14:09:17.069625 29391 layer_factory.hpp:76] Creating layer inception_4a/output
I0718 14:09:17.069663 29391 net.cpp:106] Creating Layer inception_4a/output
I0718 14:09:17.069684 29391 net.cpp:454] inception_4a/output <- inception_4a/1x1
I0718 14:09:17.069711 29391 net.cpp:454] inception_4a/output <- inception_4a/3x3
I0718 14:09:17.069736 29391 net.cpp:454] inception_4a/output <- inception_4a/5x5
I0718 14:09:17.069756 29391 net.cpp:454] inception_4a/output <- inception_4a/pool_proj
I0718 14:09:17.069771 29391 net.cpp:411] inception_4a/output -> inception_4a/output
I0718 14:09:17.069967 29391 net.cpp:150] Setting up inception_4a/output
I0718 14:09:17.069998 29391 net.cpp:157] Top shape: 6 512 62 62 (11808768)
I0718 14:09:17.070015 29391 net.cpp:165] Memory required for data: 4460067912
I0718 14:09:17.070031 29391 layer_factory.hpp:76] Creating layer inception_4a/output_inception_4a/output_0_split
I0718 14:09:17.070057 29391 net.cpp:106] Creating Layer inception_4a/output_inception_4a/output_0_split
I0718 14:09:17.070072 29391 net.cpp:454] inception_4a/output_inception_4a/output_0_split <- inception_4a/output
I0718 14:09:17.070101 29391 net.cpp:411] inception_4a/output_inception_4a/output_0_split -> inception_4a/output_inception_4a/output_0_split_0
I0718 14:09:17.070139 29391 net.cpp:411] inception_4a/output_inception_4a/output_0_split -> inception_4a/output_inception_4a/output_0_split_1
I0718 14:09:17.070163 29391 net.cpp:411] inception_4a/output_inception_4a/output_0_split -> inception_4a/output_inception_4a/output_0_split_2
I0718 14:09:17.070204 29391 net.cpp:411] inception_4a/output_inception_4a/output_0_split -> inception_4a/output_inception_4a/output_0_split_3
I0718 14:09:17.070394 29391 net.cpp:150] Setting up inception_4a/output_inception_4a/output_0_split
I0718 14:09:17.070418 29391 net.cpp:157] Top shape: 6 512 62 62 (11808768)
I0718 14:09:17.070433 29391 net.cpp:157] Top shape: 6 512 62 62 (11808768)
I0718 14:09:17.070456 29391 net.cpp:157] Top shape: 6 512 62 62 (11808768)
I0718 14:09:17.070467 29391 net.cpp:157] Top shape: 6 512 62 62 (11808768)
I0718 14:09:17.070479 29391 net.cpp:165] Memory required for data: 4649008200
I0718 14:09:17.070493 29391 layer_factory.hpp:76] Creating layer inception_4b/1x1
I0718 14:09:17.070526 29391 net.cpp:106] Creating Layer inception_4b/1x1
I0718 14:09:17.070540 29391 net.cpp:454] inception_4b/1x1 <- inception_4a/output_inception_4a/output_0_split_0
I0718 14:09:17.070572 29391 net.cpp:411] inception_4b/1x1 -> inception_4b/1x1
I0718 14:09:17.078774 29391 net.cpp:150] Setting up inception_4b/1x1
I0718 14:09:17.078897 29391 net.cpp:157] Top shape: 6 160 62 62 (3690240)
I0718 14:09:17.078929 29391 net.cpp:165] Memory required for data: 4663769160
I0718 14:09:17.078994 29391 layer_factory.hpp:76] Creating layer inception_4b/relu_1x1
I0718 14:09:17.079154 29391 net.cpp:106] Creating Layer inception_4b/relu_1x1
I0718 14:09:17.079200 29391 net.cpp:454] inception_4b/relu_1x1 <- inception_4b/1x1
I0718 14:09:17.079246 29391 net.cpp:397] inception_4b/relu_1x1 -> inception_4b/1x1 (in-place)
I0718 14:09:17.080683 29391 net.cpp:150] Setting up inception_4b/relu_1x1
I0718 14:09:17.080739 29391 net.cpp:157] Top shape: 6 160 62 62 (3690240)
I0718 14:09:17.080770 29391 net.cpp:165] Memory required for data: 4678530120
I0718 14:09:17.080801 29391 layer_factory.hpp:76] Creating layer inception_4b/3x3_reduce
I0718 14:09:17.080875 29391 net.cpp:106] Creating Layer inception_4b/3x3_reduce
I0718 14:09:17.080909 29391 net.cpp:454] inception_4b/3x3_reduce <- inception_4a/output_inception_4a/output_0_split_1
I0718 14:09:17.080961 29391 net.cpp:411] inception_4b/3x3_reduce -> inception_4b/3x3_reduce
I0718 14:09:17.087748 29391 cudnn_conv_layer.cpp:194] Reallocating workspace storage: 6144
I0718 14:09:17.087894 29391 net.cpp:150] Setting up inception_4b/3x3_reduce
I0718 14:09:17.087936 29391 net.cpp:157] Top shape: 6 112 62 62 (2583168)
I0718 14:09:17.087965 29391 net.cpp:165] Memory required for data: 4688862792
I0718 14:09:17.088007 29391 layer_factory.hpp:76] Creating layer inception_4b/relu_3x3_reduce
I0718 14:09:17.088043 29391 net.cpp:106] Creating Layer inception_4b/relu_3x3_reduce
I0718 14:09:17.088073 29391 net.cpp:454] inception_4b/relu_3x3_reduce <- inception_4b/3x3_reduce
I0718 14:09:17.088104 29391 net.cpp:397] inception_4b/relu_3x3_reduce -> inception_4b/3x3_reduce (in-place)
I0718 14:09:17.089846 29391 net.cpp:150] Setting up inception_4b/relu_3x3_reduce
I0718 14:09:17.089889 29391 net.cpp:157] Top shape: 6 112 62 62 (2583168)
I0718 14:09:17.089912 29391 net.cpp:165] Memory required for data: 4699195464
I0718 14:09:17.089941 29391 layer_factory.hpp:76] Creating layer inception_4b/3x3
I0718 14:09:17.089988 29391 net.cpp:106] Creating Layer inception_4b/3x3
I0718 14:09:17.090011 29391 net.cpp:454] inception_4b/3x3 <- inception_4b/3x3_reduce
I0718 14:09:17.090049 29391 net.cpp:411] inception_4b/3x3 -> inception_4b/3x3
I0718 14:09:17.104290 29391 cudnn_conv_layer.cpp:194] Reallocating workspace storage: 12096
I0718 14:09:17.104463 29391 net.cpp:150] Setting up inception_4b/3x3
I0718 14:09:17.104511 29391 net.cpp:157] Top shape: 6 224 62 62 (5166336)
I0718 14:09:17.104540 29391 net.cpp:165] Memory required for data: 4719860808
I0718 14:09:17.104590 29391 layer_factory.hpp:76] Creating layer inception_4b/relu_3x3
I0718 14:09:17.104953 29391 net.cpp:106] Creating Layer inception_4b/relu_3x3
I0718 14:09:17.104998 29391 net.cpp:454] inception_4b/relu_3x3 <- inception_4b/3x3
I0718 14:09:17.105037 29391 net.cpp:397] inception_4b/relu_3x3 -> inception_4b/3x3 (in-place)
I0718 14:09:17.108002 29391 net.cpp:150] Setting up inception_4b/relu_3x3
I0718 14:09:17.108103 29391 net.cpp:157] Top shape: 6 224 62 62 (5166336)
I0718 14:09:17.108149 29391 net.cpp:165] Memory required for data: 4740526152
I0718 14:09:17.108191 29391 layer_factory.hpp:76] Creating layer inception_4b/5x5_reduce
I0718 14:09:17.108259 29391 net.cpp:106] Creating Layer inception_4b/5x5_reduce
I0718 14:09:17.108304 29391 net.cpp:454] inception_4b/5x5_reduce <- inception_4a/output_inception_4a/output_0_split_2
I0718 14:09:17.108360 29391 net.cpp:411] inception_4b/5x5_reduce -> inception_4b/5x5_reduce
I0718 14:09:17.119463 29391 net.cpp:150] Setting up inception_4b/5x5_reduce
I0718 14:09:17.119570 29391 net.cpp:157] Top shape: 6 24 62 62 (553536)
I0718 14:09:17.119585 29391 net.cpp:165] Memory required for data: 4742740296
I0718 14:09:17.119611 29391 layer_factory.hpp:76] Creating layer inception_4b/relu_5x5_reduce
I0718 14:09:17.119642 29391 net.cpp:106] Creating Layer inception_4b/relu_5x5_reduce
I0718 14:09:17.119668 29391 net.cpp:454] inception_4b/relu_5x5_reduce <- inception_4b/5x5_reduce
I0718 14:09:17.119693 29391 net.cpp:397] inception_4b/relu_5x5_reduce -> inception_4b/5x5_reduce (in-place)
I0718 14:09:17.122532 29391 net.cpp:150] Setting up inception_4b/relu_5x5_reduce
I0718 14:09:17.122716 29391 net.cpp:157] Top shape: 6 24 62 62 (553536)
I0718 14:09:17.122742 29391 net.cpp:165] Memory required for data: 4744954440
I0718 14:09:17.122768 29391 layer_factory.hpp:76] Creating layer inception_4b/5x5
I0718 14:09:17.122838 29391 net.cpp:106] Creating Layer inception_4b/5x5
I0718 14:09:17.122886 29391 net.cpp:454] inception_4b/5x5 <- inception_4b/5x5_reduce
I0718 14:09:17.122937 29391 net.cpp:411] inception_4b/5x5 -> inception_4b/5x5
I0718 14:09:17.133507 29391 net.cpp:150] Setting up inception_4b/5x5
I0718 14:09:17.133644 29391 net.cpp:157] Top shape: 6 64 62 62 (1476096)
I0718 14:09:17.133671 29391 net.cpp:165] Memory required for data: 4750858824
I0718 14:09:17.133702 29391 layer_factory.hpp:76] Creating layer inception_4b/relu_5x5
I0718 14:09:17.133741 29391 net.cpp:106] Creating Layer inception_4b/relu_5x5
I0718 14:09:17.133766 29391 net.cpp:454] inception_4b/relu_5x5 <- inception_4b/5x5
I0718 14:09:17.133793 29391 net.cpp:397] inception_4b/relu_5x5 -> inception_4b/5x5 (in-place)
I0718 14:09:17.136448 29391 net.cpp:150] Setting up inception_4b/relu_5x5
I0718 14:09:17.136600 29391 net.cpp:157] Top shape: 6 64 62 62 (1476096)
I0718 14:09:17.136632 29391 net.cpp:165] Memory required for data: 4756763208
I0718 14:09:17.136664 29391 layer_factory.hpp:76] Creating layer inception_4b/pool
I0718 14:09:17.136714 29391 net.cpp:106] Creating Layer inception_4b/pool
I0718 14:09:17.136750 29391 net.cpp:454] inception_4b/pool <- inception_4a/output_inception_4a/output_0_split_3
I0718 14:09:17.136785 29391 net.cpp:411] inception_4b/pool -> inception_4b/pool
I0718 14:09:17.139984 29391 net.cpp:150] Setting up inception_4b/pool
I0718 14:09:17.140168 29391 net.cpp:157] Top shape: 6 512 62 62 (11808768)
I0718 14:09:17.140204 29391 net.cpp:165] Memory required for data: 4803998280
I0718 14:09:17.140229 29391 layer_factory.hpp:76] Creating layer inception_4b/pool_proj
I0718 14:09:17.140305 29391 net.cpp:106] Creating Layer inception_4b/pool_proj
I0718 14:09:17.140354 29391 net.cpp:454] inception_4b/pool_proj <- inception_4b/pool
I0718 14:09:17.140403 29391 net.cpp:411] inception_4b/pool_proj -> inception_4b/pool_proj
I0718 14:09:17.147336 29391 net.cpp:150] Setting up inception_4b/pool_proj
I0718 14:09:17.147460 29391 net.cpp:157] Top shape: 6 64 62 62 (1476096)
I0718 14:09:17.147502 29391 net.cpp:165] Memory required for data: 4809902664
I0718 14:09:17.147543 29391 layer_factory.hpp:76] Creating layer inception_4b/relu_pool_proj
I0718 14:09:17.147600 29391 net.cpp:106] Creating Layer inception_4b/relu_pool_proj
I0718 14:09:17.147639 29391 net.cpp:454] inception_4b/relu_pool_proj <- inception_4b/pool_proj
I0718 14:09:17.147675 29391 net.cpp:397] inception_4b/relu_pool_proj -> inception_4b/pool_proj (in-place)
I0718 14:09:17.149330 29391 net.cpp:150] Setting up inception_4b/relu_pool_proj
I0718 14:09:17.149451 29391 net.cpp:157] Top shape: 6 64 62 62 (1476096)
I0718 14:09:17.149476 29391 net.cpp:165] Memory required for data: 4815807048
I0718 14:09:17.149504 29391 layer_factory.hpp:76] Creating layer inception_4b/output
I0718 14:09:17.149586 29391 net.cpp:106] Creating Layer inception_4b/output
I0718 14:09:17.149617 29391 net.cpp:454] inception_4b/output <- inception_4b/1x1
I0718 14:09:17.149648 29391 net.cpp:454] inception_4b/output <- inception_4b/3x3
I0718 14:09:17.149695 29391 net.cpp:454] inception_4b/output <- inception_4b/5x5
I0718 14:09:17.149729 29391 net.cpp:454] inception_4b/output <- inception_4b/pool_proj
I0718 14:09:17.149751 29391 net.cpp:411] inception_4b/output -> inception_4b/output
I0718 14:09:17.149973 29391 net.cpp:150] Setting up inception_4b/output
I0718 14:09:17.150012 29391 net.cpp:157] Top shape: 6 512 62 62 (11808768)
I0718 14:09:17.150058 29391 net.cpp:165] Memory required for data: 4863042120
I0718 14:09:17.150099 29391 layer_factory.hpp:76] Creating layer inception_4b/output_inception_4b/output_0_split
I0718 14:09:17.150147 29391 net.cpp:106] Creating Layer inception_4b/output_inception_4b/output_0_split
I0718 14:09:17.150180 29391 net.cpp:454] inception_4b/output_inception_4b/output_0_split <- inception_4b/output
I0718 14:09:17.150351 29391 net.cpp:411] inception_4b/output_inception_4b/output_0_split -> inception_4b/output_inception_4b/output_0_split_0
I0718 14:09:17.150408 29391 net.cpp:411] inception_4b/output_inception_4b/output_0_split -> inception_4b/output_inception_4b/output_0_split_1
I0718 14:09:17.150444 29391 net.cpp:411] inception_4b/output_inception_4b/output_0_split -> inception_4b/output_inception_4b/output_0_split_2
I0718 14:09:17.150487 29391 net.cpp:411] inception_4b/output_inception_4b/output_0_split -> inception_4b/output_inception_4b/output_0_split_3
I0718 14:09:17.150784 29391 net.cpp:150] Setting up inception_4b/output_inception_4b/output_0_split
I0718 14:09:17.150853 29391 net.cpp:157] Top shape: 6 512 62 62 (11808768)
I0718 14:09:17.150888 29391 net.cpp:157] Top shape: 6 512 62 62 (11808768)
I0718 14:09:17.150918 29391 net.cpp:157] Top shape: 6 512 62 62 (11808768)
I0718 14:09:17.150950 29391 net.cpp:157] Top shape: 6 512 62 62 (11808768)
I0718 14:09:17.150985 29391 net.cpp:165] Memory required for data: 5051982408
I0718 14:09:17.151013 29391 layer_factory.hpp:76] Creating layer inception_4c/1x1
I0718 14:09:17.151082 29391 net.cpp:106] Creating Layer inception_4c/1x1
I0718 14:09:17.151114 29391 net.cpp:454] inception_4c/1x1 <- inception_4b/output_inception_4b/output_0_split_0
I0718 14:09:17.151161 29391 net.cpp:411] inception_4c/1x1 -> inception_4c/1x1
I0718 14:09:17.160264 29391 cudnn_conv_layer.cpp:194] Reallocating workspace storage: 6144
I0718 14:09:17.160779 29391 net.cpp:150] Setting up inception_4c/1x1
I0718 14:09:17.160835 29391 net.cpp:157] Top shape: 6 128 62 62 (2952192)
I0718 14:09:17.160862 29391 net.cpp:165] Memory required for data: 5063791176
I0718 14:09:17.160915 29391 layer_factory.hpp:76] Creating layer inception_4c/relu_1x1
I0718 14:09:17.160959 29391 net.cpp:106] Creating Layer inception_4c/relu_1x1
I0718 14:09:17.160985 29391 net.cpp:454] inception_4c/relu_1x1 <- inception_4c/1x1
I0718 14:09:17.161015 29391 net.cpp:397] inception_4c/relu_1x1 -> inception_4c/1x1 (in-place)
I0718 14:09:17.161928 29391 net.cpp:150] Setting up inception_4c/relu_1x1
I0718 14:09:17.162075 29391 net.cpp:157] Top shape: 6 128 62 62 (2952192)
I0718 14:09:17.162096 29391 net.cpp:165] Memory required for data: 5075599944
I0718 14:09:17.162117 29391 layer_factory.hpp:76] Creating layer inception_4c/3x3_reduce
I0718 14:09:17.162178 29391 net.cpp:106] Creating Layer inception_4c/3x3_reduce
I0718 14:09:17.162215 29391 net.cpp:454] inception_4c/3x3_reduce <- inception_4b/output_inception_4b/output_0_split_1
I0718 14:09:17.162245 29391 net.cpp:411] inception_4c/3x3_reduce -> inception_4c/3x3_reduce
I0718 14:09:17.171746 29391 cudnn_conv_layer.cpp:194] Reallocating workspace storage: 6144
I0718 14:09:17.171890 29391 net.cpp:150] Setting up inception_4c/3x3_reduce
I0718 14:09:17.171928 29391 net.cpp:157] Top shape: 6 128 62 62 (2952192)
I0718 14:09:17.171946 29391 net.cpp:165] Memory required for data: 5087408712
I0718 14:09:17.171974 29391 layer_factory.hpp:76] Creating layer inception_4c/relu_3x3_reduce
I0718 14:09:17.172014 29391 net.cpp:106] Creating Layer inception_4c/relu_3x3_reduce
I0718 14:09:17.172039 29391 net.cpp:454] inception_4c/relu_3x3_reduce <- inception_4c/3x3_reduce
I0718 14:09:17.172070 29391 net.cpp:397] inception_4c/relu_3x3_reduce -> inception_4c/3x3_reduce (in-place)
I0718 14:09:17.173928 29391 net.cpp:150] Setting up inception_4c/relu_3x3_reduce
I0718 14:09:17.174026 29391 net.cpp:157] Top shape: 6 128 62 62 (2952192)
I0718 14:09:17.174053 29391 net.cpp:165] Memory required for data: 5099217480
I0718 14:09:17.174077 29391 layer_factory.hpp:76] Creating layer inception_4c/3x3
I0718 14:09:17.174147 29391 net.cpp:106] Creating Layer inception_4c/3x3
I0718 14:09:17.174180 29391 net.cpp:454] inception_4c/3x3 <- inception_4c/3x3_reduce
I0718 14:09:17.174219 29391 net.cpp:411] inception_4c/3x3 -> inception_4c/3x3
I0718 14:09:17.185166 29391 net.cpp:150] Setting up inception_4c/3x3
I0718 14:09:17.185303 29391 net.cpp:157] Top shape: 6 256 62 62 (5904384)
I0718 14:09:17.185421 29391 net.cpp:165] Memory required for data: 5122835016
I0718 14:09:17.185461 29391 layer_factory.hpp:76] Creating layer inception_4c/relu_3x3
I0718 14:09:17.185504 29391 net.cpp:106] Creating Layer inception_4c/relu_3x3
I0718 14:09:17.185539 29391 net.cpp:454] inception_4c/relu_3x3 <- inception_4c/3x3
I0718 14:09:17.185562 29391 net.cpp:397] inception_4c/relu_3x3 -> inception_4c/3x3 (in-place)
I0718 14:09:17.186883 29391 net.cpp:150] Setting up inception_4c/relu_3x3
I0718 14:09:17.186931 29391 net.cpp:157] Top shape: 6 256 62 62 (5904384)
I0718 14:09:17.186944 29391 net.cpp:165] Memory required for data: 5146452552
I0718 14:09:17.186956 29391 layer_factory.hpp:76] Creating layer inception_4c/5x5_reduce
I0718 14:09:17.187000 29391 net.cpp:106] Creating Layer inception_4c/5x5_reduce
I0718 14:09:17.187026 29391 net.cpp:454] inception_4c/5x5_reduce <- inception_4b/output_inception_4b/output_0_split_2
I0718 14:09:17.187041 29391 net.cpp:411] inception_4c/5x5_reduce -> inception_4c/5x5_reduce
I0718 14:09:17.193227 29391 net.cpp:150] Setting up inception_4c/5x5_reduce
I0718 14:09:17.193383 29391 net.cpp:157] Top shape: 6 24 62 62 (553536)
I0718 14:09:17.193394 29391 net.cpp:165] Memory required for data: 5148666696
I0718 14:09:17.193424 29391 layer_factory.hpp:76] Creating layer inception_4c/relu_5x5_reduce
I0718 14:09:17.193464 29391 net.cpp:106] Creating Layer inception_4c/relu_5x5_reduce
I0718 14:09:17.193503 29391 net.cpp:454] inception_4c/relu_5x5_reduce <- inception_4c/5x5_reduce
I0718 14:09:17.193524 29391 net.cpp:397] inception_4c/relu_5x5_reduce -> inception_4c/5x5_reduce (in-place)
I0718 14:09:17.195432 29391 net.cpp:150] Setting up inception_4c/relu_5x5_reduce
I0718 14:09:17.195507 29391 net.cpp:157] Top shape: 6 24 62 62 (553536)
I0718 14:09:17.195528 29391 net.cpp:165] Memory required for data: 5150880840
I0718 14:09:17.195551 29391 layer_factory.hpp:76] Creating layer inception_4c/5x5
I0718 14:09:17.195603 29391 net.cpp:106] Creating Layer inception_4c/5x5
I0718 14:09:17.195623 29391 net.cpp:454] inception_4c/5x5 <- inception_4c/5x5_reduce
I0718 14:09:17.195653 29391 net.cpp:411] inception_4c/5x5 -> inception_4c/5x5
I0718 14:09:17.202059 29391 net.cpp:150] Setting up inception_4c/5x5
I0718 14:09:17.202142 29391 net.cpp:157] Top shape: 6 64 62 62 (1476096)
I0718 14:09:17.202159 29391 net.cpp:165] Memory required for data: 5156785224
I0718 14:09:17.202184 29391 layer_factory.hpp:76] Creating layer inception_4c/relu_5x5
I0718 14:09:17.202211 29391 net.cpp:106] Creating Layer inception_4c/relu_5x5
I0718 14:09:17.202239 29391 net.cpp:454] inception_4c/relu_5x5 <- inception_4c/5x5
I0718 14:09:17.202265 29391 net.cpp:397] inception_4c/relu_5x5 -> inception_4c/5x5 (in-place)
I0718 14:09:17.204354 29391 net.cpp:150] Setting up inception_4c/relu_5x5
I0718 14:09:17.204473 29391 net.cpp:157] Top shape: 6 64 62 62 (1476096)
I0718 14:09:17.204495 29391 net.cpp:165] Memory required for data: 5162689608
I0718 14:09:17.204526 29391 layer_factory.hpp:76] Creating layer inception_4c/pool
I0718 14:09:17.204561 29391 net.cpp:106] Creating Layer inception_4c/pool
I0718 14:09:17.204591 29391 net.cpp:454] inception_4c/pool <- inception_4b/output_inception_4b/output_0_split_3
I0718 14:09:17.204617 29391 net.cpp:411] inception_4c/pool -> inception_4c/pool
I0718 14:09:17.207016 29391 net.cpp:150] Setting up inception_4c/pool
I0718 14:09:17.207118 29391 net.cpp:157] Top shape: 6 512 62 62 (11808768)
I0718 14:09:17.207147 29391 net.cpp:165] Memory required for data: 5209924680
I0718 14:09:17.207175 29391 layer_factory.hpp:76] Creating layer inception_4c/pool_proj
I0718 14:09:17.207236 29391 net.cpp:106] Creating Layer inception_4c/pool_proj
I0718 14:09:17.207269 29391 net.cpp:454] inception_4c/pool_proj <- inception_4c/pool
I0718 14:09:17.207306 29391 net.cpp:411] inception_4c/pool_proj -> inception_4c/pool_proj
I0718 14:09:17.215397 29391 net.cpp:150] Setting up inception_4c/pool_proj
I0718 14:09:17.215518 29391 net.cpp:157] Top shape: 6 64 62 62 (1476096)
I0718 14:09:17.215546 29391 net.cpp:165] Memory required for data: 5215829064
I0718 14:09:17.215819 29391 layer_factory.hpp:76] Creating layer inception_4c/relu_pool_proj
I0718 14:09:17.215867 29391 net.cpp:106] Creating Layer inception_4c/relu_pool_proj
I0718 14:09:17.215914 29391 net.cpp:454] inception_4c/relu_pool_proj <- inception_4c/pool_proj
I0718 14:09:17.215948 29391 net.cpp:397] inception_4c/relu_pool_proj -> inception_4c/pool_proj (in-place)
I0718 14:09:17.216598 29391 net.cpp:150] Setting up inception_4c/relu_pool_proj
I0718 14:09:17.216658 29391 net.cpp:157] Top shape: 6 64 62 62 (1476096)
I0718 14:09:17.216676 29391 net.cpp:165] Memory required for data: 5221733448
I0718 14:09:17.216699 29391 layer_factory.hpp:76] Creating layer inception_4c/output
I0718 14:09:17.216733 29391 net.cpp:106] Creating Layer inception_4c/output
I0718 14:09:17.216761 29391 net.cpp:454] inception_4c/output <- inception_4c/1x1
I0718 14:09:17.216799 29391 net.cpp:454] inception_4c/output <- inception_4c/3x3
I0718 14:09:17.216828 29391 net.cpp:454] inception_4c/output <- inception_4c/5x5
I0718 14:09:17.216858 29391 net.cpp:454] inception_4c/output <- inception_4c/pool_proj
I0718 14:09:17.216886 29391 net.cpp:411] inception_4c/output -> inception_4c/output
I0718 14:09:17.217093 29391 net.cpp:150] Setting up inception_4c/output
I0718 14:09:17.217134 29391 net.cpp:157] Top shape: 6 512 62 62 (11808768)
I0718 14:09:17.217154 29391 net.cpp:165] Memory required for data: 5268968520
I0718 14:09:17.217180 29391 layer_factory.hpp:76] Creating layer inception_4c/output_inception_4c/output_0_split
I0718 14:09:17.217229 29391 net.cpp:106] Creating Layer inception_4c/output_inception_4c/output_0_split
I0718 14:09:17.217257 29391 net.cpp:454] inception_4c/output_inception_4c/output_0_split <- inception_4c/output
I0718 14:09:17.217281 29391 net.cpp:411] inception_4c/output_inception_4c/output_0_split -> inception_4c/output_inception_4c/output_0_split_0
I0718 14:09:17.217310 29391 net.cpp:411] inception_4c/output_inception_4c/output_0_split -> inception_4c/output_inception_4c/output_0_split_1
I0718 14:09:17.217324 29391 net.cpp:411] inception_4c/output_inception_4c/output_0_split -> inception_4c/output_inception_4c/output_0_split_2
I0718 14:09:17.217344 29391 net.cpp:411] inception_4c/output_inception_4c/output_0_split -> inception_4c/output_inception_4c/output_0_split_3
I0718 14:09:17.217607 29391 net.cpp:150] Setting up inception_4c/output_inception_4c/output_0_split
I0718 14:09:17.217653 29391 net.cpp:157] Top shape: 6 512 62 62 (11808768)
I0718 14:09:17.217680 29391 net.cpp:157] Top shape: 6 512 62 62 (11808768)
I0718 14:09:17.217696 29391 net.cpp:157] Top shape: 6 512 62 62 (11808768)
I0718 14:09:17.217712 29391 net.cpp:157] Top shape: 6 512 62 62 (11808768)
I0718 14:09:17.217725 29391 net.cpp:165] Memory required for data: 5457908808
I0718 14:09:17.217741 29391 layer_factory.hpp:76] Creating layer inception_4d/1x1
I0718 14:09:17.217788 29391 net.cpp:106] Creating Layer inception_4d/1x1
I0718 14:09:17.217818 29391 net.cpp:454] inception_4d/1x1 <- inception_4c/output_inception_4c/output_0_split_0
I0718 14:09:17.217869 29391 net.cpp:411] inception_4d/1x1 -> inception_4d/1x1
I0718 14:09:17.224115 29391 cudnn_conv_layer.cpp:194] Reallocating workspace storage: 6144
I0718 14:09:17.224247 29391 net.cpp:150] Setting up inception_4d/1x1
I0718 14:09:17.224277 29391 net.cpp:157] Top shape: 6 112 62 62 (2583168)
I0718 14:09:17.224299 29391 net.cpp:165] Memory required for data: 5468241480
I0718 14:09:17.224326 29391 layer_factory.hpp:76] Creating layer inception_4d/relu_1x1
I0718 14:09:17.224357 29391 net.cpp:106] Creating Layer inception_4d/relu_1x1
I0718 14:09:17.224386 29391 net.cpp:454] inception_4d/relu_1x1 <- inception_4d/1x1
I0718 14:09:17.224409 29391 net.cpp:397] inception_4d/relu_1x1 -> inception_4d/1x1 (in-place)
I0718 14:09:17.226078 29391 net.cpp:150] Setting up inception_4d/relu_1x1
I0718 14:09:17.226153 29391 net.cpp:157] Top shape: 6 112 62 62 (2583168)
I0718 14:09:17.226164 29391 net.cpp:165] Memory required for data: 5478574152
I0718 14:09:17.226182 29391 layer_factory.hpp:76] Creating layer inception_4d/3x3_reduce
I0718 14:09:17.226279 29391 net.cpp:106] Creating Layer inception_4d/3x3_reduce
I0718 14:09:17.226312 29391 net.cpp:454] inception_4d/3x3_reduce <- inception_4c/output_inception_4c/output_0_split_1
I0718 14:09:17.226341 29391 net.cpp:411] inception_4d/3x3_reduce -> inception_4d/3x3_reduce
I0718 14:09:17.242638 29391 cudnn_conv_layer.cpp:194] Reallocating workspace storage: 6144
I0718 14:09:17.242874 29391 net.cpp:150] Setting up inception_4d/3x3_reduce
I0718 14:09:17.242924 29391 net.cpp:157] Top shape: 6 144 62 62 (3321216)
I0718 14:09:17.242955 29391 net.cpp:165] Memory required for data: 5491859016
I0718 14:09:17.243013 29391 layer_factory.hpp:76] Creating layer inception_4d/relu_3x3_reduce
I0718 14:09:17.243065 29391 net.cpp:106] Creating Layer inception_4d/relu_3x3_reduce
I0718 14:09:17.243103 29391 net.cpp:454] inception_4d/relu_3x3_reduce <- inception_4d/3x3_reduce
I0718 14:09:17.243142 29391 net.cpp:397] inception_4d/relu_3x3_reduce -> inception_4d/3x3_reduce (in-place)
I0718 14:09:17.245885 29391 net.cpp:150] Setting up inception_4d/relu_3x3_reduce
I0718 14:09:17.245944 29391 net.cpp:157] Top shape: 6 144 62 62 (3321216)
I0718 14:09:17.245965 29391 net.cpp:165] Memory required for data: 5505143880
I0718 14:09:17.245981 29391 layer_factory.hpp:76] Creating layer inception_4d/3x3
I0718 14:09:17.246022 29391 net.cpp:106] Creating Layer inception_4d/3x3
I0718 14:09:17.246045 29391 net.cpp:454] inception_4d/3x3 <- inception_4d/3x3_reduce
I0718 14:09:17.246065 29391 net.cpp:411] inception_4d/3x3 -> inception_4d/3x3
I0718 14:09:17.260251 29391 cudnn_conv_layer.cpp:194] Reallocating workspace storage: 15552
I0718 14:09:17.260407 29391 net.cpp:150] Setting up inception_4d/3x3
I0718 14:09:17.260447 29391 net.cpp:157] Top shape: 6 288 62 62 (6642432)
I0718 14:09:17.260469 29391 net.cpp:165] Memory required for data: 5531713608
I0718 14:09:17.260499 29391 layer_factory.hpp:76] Creating layer inception_4d/relu_3x3
I0718 14:09:17.260537 29391 net.cpp:106] Creating Layer inception_4d/relu_3x3
I0718 14:09:17.260576 29391 net.cpp:454] inception_4d/relu_3x3 <- inception_4d/3x3
I0718 14:09:17.260606 29391 net.cpp:397] inception_4d/relu_3x3 -> inception_4d/3x3 (in-place)
I0718 14:09:17.262900 29391 net.cpp:150] Setting up inception_4d/relu_3x3
I0718 14:09:17.262979 29391 net.cpp:157] Top shape: 6 288 62 62 (6642432)
I0718 14:09:17.263005 29391 net.cpp:165] Memory required for data: 5558283336
I0718 14:09:17.263044 29391 layer_factory.hpp:76] Creating layer inception_4d/5x5_reduce
I0718 14:09:17.263097 29391 net.cpp:106] Creating Layer inception_4d/5x5_reduce
I0718 14:09:17.263135 29391 net.cpp:454] inception_4d/5x5_reduce <- inception_4c/output_inception_4c/output_0_split_2
I0718 14:09:17.263162 29391 net.cpp:411] inception_4d/5x5_reduce -> inception_4d/5x5_reduce
I0718 14:09:17.272033 29391 net.cpp:150] Setting up inception_4d/5x5_reduce
I0718 14:09:17.272120 29391 net.cpp:157] Top shape: 6 32 62 62 (738048)
I0718 14:09:17.272145 29391 net.cpp:165] Memory required for data: 5561235528
I0718 14:09:17.272178 29391 layer_factory.hpp:76] Creating layer inception_4d/relu_5x5_reduce
I0718 14:09:17.272213 29391 net.cpp:106] Creating Layer inception_4d/relu_5x5_reduce
I0718 14:09:17.272244 29391 net.cpp:454] inception_4d/relu_5x5_reduce <- inception_4d/5x5_reduce
I0718 14:09:17.272284 29391 net.cpp:397] inception_4d/relu_5x5_reduce -> inception_4d/5x5_reduce (in-place)
I0718 14:09:17.274624 29391 net.cpp:150] Setting up inception_4d/relu_5x5_reduce
I0718 14:09:17.274719 29391 net.cpp:157] Top shape: 6 32 62 62 (738048)
I0718 14:09:17.274735 29391 net.cpp:165] Memory required for data: 5564187720
I0718 14:09:17.274757 29391 layer_factory.hpp:76] Creating layer inception_4d/5x5
I0718 14:09:17.274799 29391 net.cpp:106] Creating Layer inception_4d/5x5
I0718 14:09:17.274826 29391 net.cpp:454] inception_4d/5x5 <- inception_4d/5x5_reduce
I0718 14:09:17.274857 29391 net.cpp:411] inception_4d/5x5 -> inception_4d/5x5
I0718 14:09:17.284087 29391 cudnn_conv_layer.cpp:194] Reallocating workspace storage: 9600
I0718 14:09:17.284322 29391 net.cpp:150] Setting up inception_4d/5x5
I0718 14:09:17.284483 29391 net.cpp:157] Top shape: 6 64 62 62 (1476096)
I0718 14:09:17.284504 29391 net.cpp:165] Memory required for data: 5570092104
I0718 14:09:17.284543 29391 layer_factory.hpp:76] Creating layer inception_4d/relu_5x5
I0718 14:09:17.284598 29391 net.cpp:106] Creating Layer inception_4d/relu_5x5
I0718 14:09:17.284624 29391 net.cpp:454] inception_4d/relu_5x5 <- inception_4d/5x5
I0718 14:09:17.284653 29391 net.cpp:397] inception_4d/relu_5x5 -> inception_4d/5x5 (in-place)
I0718 14:09:17.286512 29391 net.cpp:150] Setting up inception_4d/relu_5x5
I0718 14:09:17.286607 29391 net.cpp:157] Top shape: 6 64 62 62 (1476096)
I0718 14:09:17.286644 29391 net.cpp:165] Memory required for data: 5575996488
I0718 14:09:17.286669 29391 layer_factory.hpp:76] Creating layer inception_4d/pool
I0718 14:09:17.286710 29391 net.cpp:106] Creating Layer inception_4d/pool
I0718 14:09:17.286738 29391 net.cpp:454] inception_4d/pool <- inception_4c/output_inception_4c/output_0_split_3
I0718 14:09:17.286763 29391 net.cpp:411] inception_4d/pool -> inception_4d/pool
I0718 14:09:17.289708 29391 net.cpp:150] Setting up inception_4d/pool
I0718 14:09:17.289830 29391 net.cpp:157] Top shape: 6 512 62 62 (11808768)
I0718 14:09:17.289849 29391 net.cpp:165] Memory required for data: 5623231560
I0718 14:09:17.289885 29391 layer_factory.hpp:76] Creating layer inception_4d/pool_proj
I0718 14:09:17.289947 29391 net.cpp:106] Creating Layer inception_4d/pool_proj
I0718 14:09:17.289978 29391 net.cpp:454] inception_4d/pool_proj <- inception_4d/pool
I0718 14:09:17.290006 29391 net.cpp:411] inception_4d/pool_proj -> inception_4d/pool_proj
I0718 14:09:17.298816 29391 net.cpp:150] Setting up inception_4d/pool_proj
I0718 14:09:17.298928 29391 net.cpp:157] Top shape: 6 64 62 62 (1476096)
I0718 14:09:17.298957 29391 net.cpp:165] Memory required for data: 5629135944
I0718 14:09:17.298993 29391 layer_factory.hpp:76] Creating layer inception_4d/relu_pool_proj
I0718 14:09:17.299054 29391 net.cpp:106] Creating Layer inception_4d/relu_pool_proj
I0718 14:09:17.299084 29391 net.cpp:454] inception_4d/relu_pool_proj <- inception_4d/pool_proj
I0718 14:09:17.299124 29391 net.cpp:397] inception_4d/relu_pool_proj -> inception_4d/pool_proj (in-place)
I0718 14:09:17.301195 29391 net.cpp:150] Setting up inception_4d/relu_pool_proj
I0718 14:09:17.301242 29391 net.cpp:157] Top shape: 6 64 62 62 (1476096)
I0718 14:09:17.301264 29391 net.cpp:165] Memory required for data: 5635040328
I0718 14:09:17.301280 29391 layer_factory.hpp:76] Creating layer inception_4d/output
I0718 14:09:17.301311 29391 net.cpp:106] Creating Layer inception_4d/output
I0718 14:09:17.301337 29391 net.cpp:454] inception_4d/output <- inception_4d/1x1
I0718 14:09:17.301364 29391 net.cpp:454] inception_4d/output <- inception_4d/3x3
I0718 14:09:17.301393 29391 net.cpp:454] inception_4d/output <- inception_4d/5x5
I0718 14:09:17.301411 29391 net.cpp:454] inception_4d/output <- inception_4d/pool_proj
I0718 14:09:17.301430 29391 net.cpp:411] inception_4d/output -> inception_4d/output
I0718 14:09:17.301544 29391 net.cpp:150] Setting up inception_4d/output
I0718 14:09:17.301569 29391 net.cpp:157] Top shape: 6 528 62 62 (12177792)
I0718 14:09:17.301584 29391 net.cpp:165] Memory required for data: 5683751496
I0718 14:09:17.301600 29391 layer_factory.hpp:76] Creating layer inception_4d/output_inception_4d/output_0_split
I0718 14:09:17.301636 29391 net.cpp:106] Creating Layer inception_4d/output_inception_4d/output_0_split
I0718 14:09:17.301661 29391 net.cpp:454] inception_4d/output_inception_4d/output_0_split <- inception_4d/output
I0718 14:09:17.301681 29391 net.cpp:411] inception_4d/output_inception_4d/output_0_split -> inception_4d/output_inception_4d/output_0_split_0
I0718 14:09:17.301702 29391 net.cpp:411] inception_4d/output_inception_4d/output_0_split -> inception_4d/output_inception_4d/output_0_split_1
I0718 14:09:17.301734 29391 net.cpp:411] inception_4d/output_inception_4d/output_0_split -> inception_4d/output_inception_4d/output_0_split_2
I0718 14:09:17.301764 29391 net.cpp:411] inception_4d/output_inception_4d/output_0_split -> inception_4d/output_inception_4d/output_0_split_3
I0718 14:09:17.302023 29391 net.cpp:150] Setting up inception_4d/output_inception_4d/output_0_split
I0718 14:09:17.302060 29391 net.cpp:157] Top shape: 6 528 62 62 (12177792)
I0718 14:09:17.302078 29391 net.cpp:157] Top shape: 6 528 62 62 (12177792)
I0718 14:09:17.302096 29391 net.cpp:157] Top shape: 6 528 62 62 (12177792)
I0718 14:09:17.302112 29391 net.cpp:157] Top shape: 6 528 62 62 (12177792)
I0718 14:09:17.302127 29391 net.cpp:165] Memory required for data: 5878596168
I0718 14:09:17.302142 29391 layer_factory.hpp:76] Creating layer inception_4e/1x1
I0718 14:09:17.302193 29391 net.cpp:106] Creating Layer inception_4e/1x1
I0718 14:09:17.302214 29391 net.cpp:454] inception_4e/1x1 <- inception_4d/output_inception_4d/output_0_split_0
I0718 14:09:17.302232 29391 net.cpp:411] inception_4e/1x1 -> inception_4e/1x1
I0718 14:09:17.312141 29391 cudnn_conv_layer.cpp:194] Reallocating workspace storage: 6336
I0718 14:09:17.312580 29391 net.cpp:150] Setting up inception_4e/1x1
I0718 14:09:17.312625 29391 net.cpp:157] Top shape: 6 256 62 62 (5904384)
I0718 14:09:17.312647 29391 net.cpp:165] Memory required for data: 5902213704
I0718 14:09:17.312680 29391 layer_factory.hpp:76] Creating layer inception_4e/relu_1x1
I0718 14:09:17.312711 29391 net.cpp:106] Creating Layer inception_4e/relu_1x1
I0718 14:09:17.312743 29391 net.cpp:454] inception_4e/relu_1x1 <- inception_4e/1x1
I0718 14:09:17.312770 29391 net.cpp:397] inception_4e/relu_1x1 -> inception_4e/1x1 (in-place)
I0718 14:09:17.314163 29391 net.cpp:150] Setting up inception_4e/relu_1x1
I0718 14:09:17.314190 29391 net.cpp:157] Top shape: 6 256 62 62 (5904384)
I0718 14:09:17.314200 29391 net.cpp:165] Memory required for data: 5925831240
I0718 14:09:17.314213 29391 layer_factory.hpp:76] Creating layer inception_4e/3x3_reduce
I0718 14:09:17.314254 29391 net.cpp:106] Creating Layer inception_4e/3x3_reduce
I0718 14:09:17.314287 29391 net.cpp:454] inception_4e/3x3_reduce <- inception_4d/output_inception_4d/output_0_split_1
I0718 14:09:17.314312 29391 net.cpp:411] inception_4e/3x3_reduce -> inception_4e/3x3_reduce
I0718 14:09:17.322126 29391 cudnn_conv_layer.cpp:194] Reallocating workspace storage: 6336
I0718 14:09:17.322327 29391 net.cpp:150] Setting up inception_4e/3x3_reduce
I0718 14:09:17.322376 29391 net.cpp:157] Top shape: 6 160 62 62 (3690240)
I0718 14:09:17.322391 29391 net.cpp:165] Memory required for data: 5940592200
I0718 14:09:17.322422 29391 layer_factory.hpp:76] Creating layer inception_4e/relu_3x3_reduce
I0718 14:09:17.322482 29391 net.cpp:106] Creating Layer inception_4e/relu_3x3_reduce
I0718 14:09:17.322517 29391 net.cpp:454] inception_4e/relu_3x3_reduce <- inception_4e/3x3_reduce
I0718 14:09:17.322557 29391 net.cpp:397] inception_4e/relu_3x3_reduce -> inception_4e/3x3_reduce (in-place)
I0718 14:09:17.323937 29391 net.cpp:150] Setting up inception_4e/relu_3x3_reduce
I0718 14:09:17.323982 29391 net.cpp:157] Top shape: 6 160 62 62 (3690240)
I0718 14:09:17.323997 29391 net.cpp:165] Memory required for data: 5955353160
I0718 14:09:17.324009 29391 layer_factory.hpp:76] Creating layer inception_4e/3x3
I0718 14:09:17.324059 29391 net.cpp:106] Creating Layer inception_4e/3x3
I0718 14:09:17.324091 29391 net.cpp:454] inception_4e/3x3 <- inception_4e/3x3_reduce
I0718 14:09:17.324120 29391 net.cpp:411] inception_4e/3x3 -> inception_4e/3x3
I0718 14:09:17.338644 29391 net.cpp:150] Setting up inception_4e/3x3
I0718 14:09:17.338768 29391 net.cpp:157] Top shape: 6 320 62 62 (7380480)
I0718 14:09:17.338786 29391 net.cpp:165] Memory required for data: 5984875080
I0718 14:09:17.338824 29391 layer_factory.hpp:76] Creating layer inception_4e/relu_3x3
I0718 14:09:17.338876 29391 net.cpp:106] Creating Layer inception_4e/relu_3x3
I0718 14:09:17.338903 29391 net.cpp:454] inception_4e/relu_3x3 <- inception_4e/3x3
I0718 14:09:17.338932 29391 net.cpp:397] inception_4e/relu_3x3 -> inception_4e/3x3 (in-place)
I0718 14:09:17.341442 29391 net.cpp:150] Setting up inception_4e/relu_3x3
I0718 14:09:17.341490 29391 net.cpp:157] Top shape: 6 320 62 62 (7380480)
I0718 14:09:17.341585 29391 net.cpp:165] Memory required for data: 6014397000
I0718 14:09:17.341599 29391 layer_factory.hpp:76] Creating layer inception_4e/5x5_reduce
I0718 14:09:17.341650 29391 net.cpp:106] Creating Layer inception_4e/5x5_reduce
I0718 14:09:17.341675 29391 net.cpp:454] inception_4e/5x5_reduce <- inception_4d/output_inception_4d/output_0_split_2
I0718 14:09:17.341703 29391 net.cpp:411] inception_4e/5x5_reduce -> inception_4e/5x5_reduce
I0718 14:09:17.350924 29391 cudnn_conv_layer.cpp:194] Reallocating workspace storage: 6336
I0718 14:09:17.351089 29391 net.cpp:150] Setting up inception_4e/5x5_reduce
I0718 14:09:17.351128 29391 net.cpp:157] Top shape: 6 32 62 62 (738048)
I0718 14:09:17.351150 29391 net.cpp:165] Memory required for data: 6017349192
I0718 14:09:17.351181 29391 layer_factory.hpp:76] Creating layer inception_4e/relu_5x5_reduce
I0718 14:09:17.351218 29391 net.cpp:106] Creating Layer inception_4e/relu_5x5_reduce
I0718 14:09:17.351243 29391 net.cpp:454] inception_4e/relu_5x5_reduce <- inception_4e/5x5_reduce
I0718 14:09:17.351270 29391 net.cpp:397] inception_4e/relu_5x5_reduce -> inception_4e/5x5_reduce (in-place)
I0718 14:09:17.353070 29391 net.cpp:150] Setting up inception_4e/relu_5x5_reduce
I0718 14:09:17.353128 29391 net.cpp:157] Top shape: 6 32 62 62 (738048)
I0718 14:09:17.353148 29391 net.cpp:165] Memory required for data: 6020301384
I0718 14:09:17.353178 29391 layer_factory.hpp:76] Creating layer inception_4e/5x5
I0718 14:09:17.353211 29391 net.cpp:106] Creating Layer inception_4e/5x5
I0718 14:09:17.353235 29391 net.cpp:454] inception_4e/5x5 <- inception_4e/5x5_reduce
I0718 14:09:17.353260 29391 net.cpp:411] inception_4e/5x5 -> inception_4e/5x5
I0718 14:09:17.360957 29391 net.cpp:150] Setting up inception_4e/5x5
I0718 14:09:17.361037 29391 net.cpp:157] Top shape: 6 128 62 62 (2952192)
I0718 14:09:17.361053 29391 net.cpp:165] Memory required for data: 6032110152
I0718 14:09:17.361085 29391 layer_factory.hpp:76] Creating layer inception_4e/relu_5x5
I0718 14:09:17.361115 29391 net.cpp:106] Creating Layer inception_4e/relu_5x5
I0718 14:09:17.361147 29391 net.cpp:454] inception_4e/relu_5x5 <- inception_4e/5x5
I0718 14:09:17.361171 29391 net.cpp:397] inception_4e/relu_5x5 -> inception_4e/5x5 (in-place)
I0718 14:09:17.362741 29391 net.cpp:150] Setting up inception_4e/relu_5x5
I0718 14:09:17.362769 29391 net.cpp:157] Top shape: 6 128 62 62 (2952192)
I0718 14:09:17.362779 29391 net.cpp:165] Memory required for data: 6043918920
I0718 14:09:17.362792 29391 layer_factory.hpp:76] Creating layer inception_4e/pool
I0718 14:09:17.362820 29391 net.cpp:106] Creating Layer inception_4e/pool
I0718 14:09:17.362838 29391 net.cpp:454] inception_4e/pool <- inception_4d/output_inception_4d/output_0_split_3
I0718 14:09:17.362857 29391 net.cpp:411] inception_4e/pool -> inception_4e/pool
I0718 14:09:17.364974 29391 net.cpp:150] Setting up inception_4e/pool
I0718 14:09:17.365002 29391 net.cpp:157] Top shape: 6 528 62 62 (12177792)
I0718 14:09:17.365013 29391 net.cpp:165] Memory required for data: 6092630088
I0718 14:09:17.365027 29391 layer_factory.hpp:76] Creating layer inception_4e/pool_proj
I0718 14:09:17.365092 29391 net.cpp:106] Creating Layer inception_4e/pool_proj
I0718 14:09:17.365105 29391 net.cpp:454] inception_4e/pool_proj <- inception_4e/pool
I0718 14:09:17.365124 29391 net.cpp:411] inception_4e/pool_proj -> inception_4e/pool_proj
I0718 14:09:17.374034 29391 cudnn_conv_layer.cpp:194] Reallocating workspace storage: 6336
I0718 14:09:17.374266 29391 net.cpp:150] Setting up inception_4e/pool_proj
I0718 14:09:17.374364 29391 net.cpp:157] Top shape: 6 128 62 62 (2952192)
I0718 14:09:17.374440 29391 net.cpp:165] Memory required for data: 6104438856
I0718 14:09:17.374528 29391 layer_factory.hpp:76] Creating layer inception_4e/relu_pool_proj
I0718 14:09:17.374610 29391 net.cpp:106] Creating Layer inception_4e/relu_pool_proj
I0718 14:09:17.374692 29391 net.cpp:454] inception_4e/relu_pool_proj <- inception_4e/pool_proj
I0718 14:09:17.374780 29391 net.cpp:397] inception_4e/relu_pool_proj -> inception_4e/pool_proj (in-place)
I0718 14:09:17.375612 29391 net.cpp:150] Setting up inception_4e/relu_pool_proj
I0718 14:09:17.375723 29391 net.cpp:157] Top shape: 6 128 62 62 (2952192)
I0718 14:09:17.375795 29391 net.cpp:165] Memory required for data: 6116247624
I0718 14:09:17.375867 29391 layer_factory.hpp:76] Creating layer inception_4e/output
I0718 14:09:17.375953 29391 net.cpp:106] Creating Layer inception_4e/output
I0718 14:09:17.376026 29391 net.cpp:454] inception_4e/output <- inception_4e/1x1
I0718 14:09:17.376099 29391 net.cpp:454] inception_4e/output <- inception_4e/3x3
I0718 14:09:17.376176 29391 net.cpp:454] inception_4e/output <- inception_4e/5x5
I0718 14:09:17.376246 29391 net.cpp:454] inception_4e/output <- inception_4e/pool_proj
I0718 14:09:17.376315 29391 net.cpp:411] inception_4e/output -> inception_4e/output
I0718 14:09:17.376494 29391 net.cpp:150] Setting up inception_4e/output
I0718 14:09:17.376576 29391 net.cpp:157] Top shape: 6 832 62 62 (19189248)
I0718 14:09:17.376643 29391 net.cpp:165] Memory required for data: 6193004616
I0718 14:09:17.376716 29391 layer_factory.hpp:76] Creating layer pool4/3x3_s2
I0718 14:09:17.376817 29391 net.cpp:106] Creating Layer pool4/3x3_s2
I0718 14:09:17.376893 29391 net.cpp:454] pool4/3x3_s2 <- inception_4e/output
I0718 14:09:17.376976 29391 net.cpp:411] pool4/3x3_s2 -> pool4/3x3_s2
I0718 14:09:17.378324 29391 net.cpp:150] Setting up pool4/3x3_s2
I0718 14:09:17.378419 29391 net.cpp:157] Top shape: 6 832 31 31 (4797312)
I0718 14:09:17.378489 29391 net.cpp:165] Memory required for data: 6212193864
I0718 14:09:17.378561 29391 layer_factory.hpp:76] Creating layer pool4/3x3_s2_pool4/3x3_s2_0_split
I0718 14:09:17.378681 29391 net.cpp:106] Creating Layer pool4/3x3_s2_pool4/3x3_s2_0_split
I0718 14:09:17.378751 29391 net.cpp:454] pool4/3x3_s2_pool4/3x3_s2_0_split <- pool4/3x3_s2
I0718 14:09:17.378828 29391 net.cpp:411] pool4/3x3_s2_pool4/3x3_s2_0_split -> pool4/3x3_s2_pool4/3x3_s2_0_split_0
I0718 14:09:17.378921 29391 net.cpp:411] pool4/3x3_s2_pool4/3x3_s2_0_split -> pool4/3x3_s2_pool4/3x3_s2_0_split_1
I0718 14:09:17.379005 29391 net.cpp:411] pool4/3x3_s2_pool4/3x3_s2_0_split -> pool4/3x3_s2_pool4/3x3_s2_0_split_2
I0718 14:09:17.379088 29391 net.cpp:411] pool4/3x3_s2_pool4/3x3_s2_0_split -> pool4/3x3_s2_pool4/3x3_s2_0_split_3
I0718 14:09:17.379393 29391 net.cpp:150] Setting up pool4/3x3_s2_pool4/3x3_s2_0_split
I0718 14:09:17.379477 29391 net.cpp:157] Top shape: 6 832 31 31 (4797312)
I0718 14:09:17.379544 29391 net.cpp:157] Top shape: 6 832 31 31 (4797312)
I0718 14:09:17.379616 29391 net.cpp:157] Top shape: 6 832 31 31 (4797312)
I0718 14:09:17.379691 29391 net.cpp:157] Top shape: 6 832 31 31 (4797312)
I0718 14:09:17.379766 29391 net.cpp:165] Memory required for data: 6288950856
I0718 14:09:17.379838 29391 layer_factory.hpp:76] Creating layer inception_5a/1x1
I0718 14:09:17.379922 29391 net.cpp:106] Creating Layer inception_5a/1x1
I0718 14:09:17.379993 29391 net.cpp:454] inception_5a/1x1 <- pool4/3x3_s2_pool4/3x3_s2_0_split_0
I0718 14:09:17.380076 29391 net.cpp:411] inception_5a/1x1 -> inception_5a/1x1
I0718 14:09:17.390074 29391 cudnn_conv_layer.cpp:194] Reallocating workspace storage: 9984
I0718 14:09:17.390180 29391 net.cpp:150] Setting up inception_5a/1x1
I0718 14:09:17.390208 29391 net.cpp:157] Top shape: 6 256 31 31 (1476096)
I0718 14:09:17.390229 29391 net.cpp:165] Memory required for data: 6294855240
I0718 14:09:17.390255 29391 layer_factory.hpp:76] Creating layer inception_5a/relu_1x1
I0718 14:09:17.390280 29391 net.cpp:106] Creating Layer inception_5a/relu_1x1
I0718 14:09:17.390302 29391 net.cpp:454] inception_5a/relu_1x1 <- inception_5a/1x1
I0718 14:09:17.390332 29391 net.cpp:397] inception_5a/relu_1x1 -> inception_5a/1x1 (in-place)
I0718 14:09:17.392079 29391 net.cpp:150] Setting up inception_5a/relu_1x1
I0718 14:09:17.392113 29391 net.cpp:157] Top shape: 6 256 31 31 (1476096)
I0718 14:09:17.392137 29391 net.cpp:165] Memory required for data: 6300759624
I0718 14:09:17.392158 29391 layer_factory.hpp:76] Creating layer inception_5a/3x3_reduce
I0718 14:09:17.392242 29391 net.cpp:106] Creating Layer inception_5a/3x3_reduce
I0718 14:09:17.392267 29391 net.cpp:454] inception_5a/3x3_reduce <- pool4/3x3_s2_pool4/3x3_s2_0_split_1
I0718 14:09:17.392293 29391 net.cpp:411] inception_5a/3x3_reduce -> inception_5a/3x3_reduce
I0718 14:09:17.401667 29391 cudnn_conv_layer.cpp:194] Reallocating workspace storage: 9984
I0718 14:09:17.401798 29391 net.cpp:150] Setting up inception_5a/3x3_reduce
I0718 14:09:17.401832 29391 net.cpp:157] Top shape: 6 160 31 31 (922560)
I0718 14:09:17.401850 29391 net.cpp:165] Memory required for data: 6304449864
I0718 14:09:17.401897 29391 layer_factory.hpp:76] Creating layer inception_5a/relu_3x3_reduce
I0718 14:09:17.401923 29391 net.cpp:106] Creating Layer inception_5a/relu_3x3_reduce
I0718 14:09:17.401944 29391 net.cpp:454] inception_5a/relu_3x3_reduce <- inception_5a/3x3_reduce
I0718 14:09:17.401975 29391 net.cpp:397] inception_5a/relu_3x3_reduce -> inception_5a/3x3_reduce (in-place)
I0718 14:09:17.403482 29391 net.cpp:150] Setting up inception_5a/relu_3x3_reduce
I0718 14:09:17.403529 29391 net.cpp:157] Top shape: 6 160 31 31 (922560)
I0718 14:09:17.403555 29391 net.cpp:165] Memory required for data: 6308140104
I0718 14:09:17.403576 29391 layer_factory.hpp:76] Creating layer inception_5a/3x3
I0718 14:09:17.403617 29391 net.cpp:106] Creating Layer inception_5a/3x3
I0718 14:09:17.403650 29391 net.cpp:454] inception_5a/3x3 <- inception_5a/3x3_reduce
I0718 14:09:17.403697 29391 net.cpp:411] inception_5a/3x3 -> inception_5a/3x3
I0718 14:09:17.421262 29391 net.cpp:150] Setting up inception_5a/3x3
I0718 14:09:17.421375 29391 net.cpp:157] Top shape: 6 320 31 31 (1845120)
I0718 14:09:17.421411 29391 net.cpp:165] Memory required for data: 6315520584
I0718 14:09:17.421463 29391 layer_factory.hpp:76] Creating layer inception_5a/relu_3x3
I0718 14:09:17.421536 29391 net.cpp:106] Creating Layer inception_5a/relu_3x3
I0718 14:09:17.421574 29391 net.cpp:454] inception_5a/relu_3x3 <- inception_5a/3x3
I0718 14:09:17.421618 29391 net.cpp:397] inception_5a/relu_3x3 -> inception_5a/3x3 (in-place)
I0718 14:09:17.423476 29391 net.cpp:150] Setting up inception_5a/relu_3x3
I0718 14:09:17.423534 29391 net.cpp:157] Top shape: 6 320 31 31 (1845120)
I0718 14:09:17.423560 29391 net.cpp:165] Memory required for data: 6322901064
I0718 14:09:17.423590 29391 layer_factory.hpp:76] Creating layer inception_5a/5x5_reduce
I0718 14:09:17.423631 29391 net.cpp:106] Creating Layer inception_5a/5x5_reduce
I0718 14:09:17.423658 29391 net.cpp:454] inception_5a/5x5_reduce <- pool4/3x3_s2_pool4/3x3_s2_0_split_2
I0718 14:09:17.423687 29391 net.cpp:411] inception_5a/5x5_reduce -> inception_5a/5x5_reduce
I0718 14:09:17.430392 29391 net.cpp:150] Setting up inception_5a/5x5_reduce
I0718 14:09:17.430428 29391 net.cpp:157] Top shape: 6 32 31 31 (184512)
I0718 14:09:17.430443 29391 net.cpp:165] Memory required for data: 6323639112
I0718 14:09:17.430460 29391 layer_factory.hpp:76] Creating layer inception_5a/relu_5x5_reduce
I0718 14:09:17.430498 29391 net.cpp:106] Creating Layer inception_5a/relu_5x5_reduce
I0718 14:09:17.430516 29391 net.cpp:454] inception_5a/relu_5x5_reduce <- inception_5a/5x5_reduce
I0718 14:09:17.430537 29391 net.cpp:397] inception_5a/relu_5x5_reduce -> inception_5a/5x5_reduce (in-place)
I0718 14:09:17.433105 29391 net.cpp:150] Setting up inception_5a/relu_5x5_reduce
I0718 14:09:17.433149 29391 net.cpp:157] Top shape: 6 32 31 31 (184512)
I0718 14:09:17.433163 29391 net.cpp:165] Memory required for data: 6324377160
I0718 14:09:17.433178 29391 layer_factory.hpp:76] Creating layer inception_5a/5x5
I0718 14:09:17.433286 29391 net.cpp:106] Creating Layer inception_5a/5x5
I0718 14:09:17.433316 29391 net.cpp:454] inception_5a/5x5 <- inception_5a/5x5_reduce
I0718 14:09:17.433372 29391 net.cpp:411] inception_5a/5x5 -> inception_5a/5x5
I0718 14:09:17.440476 29391 net.cpp:150] Setting up inception_5a/5x5
I0718 14:09:17.440515 29391 net.cpp:157] Top shape: 6 128 31 31 (738048)
I0718 14:09:17.440536 29391 net.cpp:165] Memory required for data: 6327329352
I0718 14:09:17.440556 29391 layer_factory.hpp:76] Creating layer inception_5a/relu_5x5
I0718 14:09:17.440611 29391 net.cpp:106] Creating Layer inception_5a/relu_5x5
I0718 14:09:17.440629 29391 net.cpp:454] inception_5a/relu_5x5 <- inception_5a/5x5
I0718 14:09:17.440649 29391 net.cpp:397] inception_5a/relu_5x5 -> inception_5a/5x5 (in-place)
I0718 14:09:17.443307 29391 net.cpp:150] Setting up inception_5a/relu_5x5
I0718 14:09:17.443349 29391 net.cpp:157] Top shape: 6 128 31 31 (738048)
I0718 14:09:17.443364 29391 net.cpp:165] Memory required for data: 6330281544
I0718 14:09:17.443378 29391 layer_factory.hpp:76] Creating layer inception_5a/pool
I0718 14:09:17.443431 29391 net.cpp:106] Creating Layer inception_5a/pool
I0718 14:09:17.443469 29391 net.cpp:454] inception_5a/pool <- pool4/3x3_s2_pool4/3x3_s2_0_split_3
I0718 14:09:17.443490 29391 net.cpp:411] inception_5a/pool -> inception_5a/pool
I0718 14:09:17.446396 29391 net.cpp:150] Setting up inception_5a/pool
I0718 14:09:17.446424 29391 net.cpp:157] Top shape: 6 832 31 31 (4797312)
I0718 14:09:17.446447 29391 net.cpp:165] Memory required for data: 6349470792
I0718 14:09:17.446490 29391 layer_factory.hpp:76] Creating layer inception_5a/pool_proj
I0718 14:09:17.446533 29391 net.cpp:106] Creating Layer inception_5a/pool_proj
I0718 14:09:17.446563 29391 net.cpp:454] inception_5a/pool_proj <- inception_5a/pool
I0718 14:09:17.446594 29391 net.cpp:411] inception_5a/pool_proj -> inception_5a/pool_proj
I0718 14:09:17.454941 29391 cudnn_conv_layer.cpp:194] Reallocating workspace storage: 9984
I0718 14:09:17.455081 29391 net.cpp:150] Setting up inception_5a/pool_proj
I0718 14:09:17.455123 29391 net.cpp:157] Top shape: 6 128 31 31 (738048)
I0718 14:09:17.455142 29391 net.cpp:165] Memory required for data: 6352422984
I0718 14:09:17.455174 29391 layer_factory.hpp:76] Creating layer inception_5a/relu_pool_proj
I0718 14:09:17.455226 29391 net.cpp:106] Creating Layer inception_5a/relu_pool_proj
I0718 14:09:17.455251 29391 net.cpp:454] inception_5a/relu_pool_proj <- inception_5a/pool_proj
I0718 14:09:17.455276 29391 net.cpp:397] inception_5a/relu_pool_proj -> inception_5a/pool_proj (in-place)
I0718 14:09:17.456699 29391 net.cpp:150] Setting up inception_5a/relu_pool_proj
I0718 14:09:17.456745 29391 net.cpp:157] Top shape: 6 128 31 31 (738048)
I0718 14:09:17.456761 29391 net.cpp:165] Memory required for data: 6355375176
I0718 14:09:17.456775 29391 layer_factory.hpp:76] Creating layer inception_5a/output
I0718 14:09:17.456809 29391 net.cpp:106] Creating Layer inception_5a/output
I0718 14:09:17.456828 29391 net.cpp:454] inception_5a/output <- inception_5a/1x1
I0718 14:09:17.456853 29391 net.cpp:454] inception_5a/output <- inception_5a/3x3
I0718 14:09:17.456879 29391 net.cpp:454] inception_5a/output <- inception_5a/5x5
I0718 14:09:17.456904 29391 net.cpp:454] inception_5a/output <- inception_5a/pool_proj
I0718 14:09:17.456931 29391 net.cpp:411] inception_5a/output -> inception_5a/output
I0718 14:09:17.457044 29391 net.cpp:150] Setting up inception_5a/output
I0718 14:09:17.457068 29391 net.cpp:157] Top shape: 6 832 31 31 (4797312)
I0718 14:09:17.457082 29391 net.cpp:165] Memory required for data: 6374564424
I0718 14:09:17.457096 29391 layer_factory.hpp:76] Creating layer inception_5a/output_inception_5a/output_0_split
I0718 14:09:17.457114 29391 net.cpp:106] Creating Layer inception_5a/output_inception_5a/output_0_split
I0718 14:09:17.457128 29391 net.cpp:454] inception_5a/output_inception_5a/output_0_split <- inception_5a/output
I0718 14:09:17.457165 29391 net.cpp:411] inception_5a/output_inception_5a/output_0_split -> inception_5a/output_inception_5a/output_0_split_0
I0718 14:09:17.457192 29391 net.cpp:411] inception_5a/output_inception_5a/output_0_split -> inception_5a/output_inception_5a/output_0_split_1
I0718 14:09:17.457208 29391 net.cpp:411] inception_5a/output_inception_5a/output_0_split -> inception_5a/output_inception_5a/output_0_split_2
I0718 14:09:17.457234 29391 net.cpp:411] inception_5a/output_inception_5a/output_0_split -> inception_5a/output_inception_5a/output_0_split_3
I0718 14:09:17.457622 29391 net.cpp:150] Setting up inception_5a/output_inception_5a/output_0_split
I0718 14:09:17.457710 29391 net.cpp:157] Top shape: 6 832 31 31 (4797312)
I0718 14:09:17.457737 29391 net.cpp:157] Top shape: 6 832 31 31 (4797312)
I0718 14:09:17.457768 29391 net.cpp:157] Top shape: 6 832 31 31 (4797312)
I0718 14:09:17.457806 29391 net.cpp:157] Top shape: 6 832 31 31 (4797312)
I0718 14:09:17.457847 29391 net.cpp:165] Memory required for data: 6451321416
I0718 14:09:17.457902 29391 layer_factory.hpp:76] Creating layer inception_5b/1x1
I0718 14:09:17.457978 29391 net.cpp:106] Creating Layer inception_5b/1x1
I0718 14:09:17.458024 29391 net.cpp:454] inception_5b/1x1 <- inception_5a/output_inception_5a/output_0_split_0
I0718 14:09:17.458068 29391 net.cpp:411] inception_5b/1x1 -> inception_5b/1x1
I0718 14:09:17.471179 29391 cudnn_conv_layer.cpp:194] Reallocating workspace storage: 9984
I0718 14:09:17.471379 29391 net.cpp:150] Setting up inception_5b/1x1
I0718 14:09:17.471444 29391 net.cpp:157] Top shape: 6 384 31 31 (2214144)
I0718 14:09:17.471467 29391 net.cpp:165] Memory required for data: 6460177992
I0718 14:09:17.471508 29391 layer_factory.hpp:76] Creating layer inception_5b/relu_1x1
I0718 14:09:17.471557 29391 net.cpp:106] Creating Layer inception_5b/relu_1x1
I0718 14:09:17.471604 29391 net.cpp:454] inception_5b/relu_1x1 <- inception_5b/1x1
I0718 14:09:17.471640 29391 net.cpp:397] inception_5b/relu_1x1 -> inception_5b/1x1 (in-place)
I0718 14:09:17.473219 29391 net.cpp:150] Setting up inception_5b/relu_1x1
I0718 14:09:17.473254 29391 net.cpp:157] Top shape: 6 384 31 31 (2214144)
I0718 14:09:17.473278 29391 net.cpp:165] Memory required for data: 6469034568
I0718 14:09:17.473295 29391 layer_factory.hpp:76] Creating layer inception_5b/3x3_reduce
I0718 14:09:17.473335 29391 net.cpp:106] Creating Layer inception_5b/3x3_reduce
I0718 14:09:17.473357 29391 net.cpp:454] inception_5b/3x3_reduce <- inception_5a/output_inception_5a/output_0_split_1
I0718 14:09:17.473395 29391 net.cpp:411] inception_5b/3x3_reduce -> inception_5b/3x3_reduce
I0718 14:09:17.483741 29391 cudnn_conv_layer.cpp:194] Reallocating workspace storage: 9984
I0718 14:09:17.483959 29391 net.cpp:150] Setting up inception_5b/3x3_reduce
I0718 14:09:17.484027 29391 net.cpp:157] Top shape: 6 192 31 31 (1107072)
I0718 14:09:17.484050 29391 net.cpp:165] Memory required for data: 6473462856
I0718 14:09:17.484100 29391 layer_factory.hpp:76] Creating layer inception_5b/relu_3x3_reduce
I0718 14:09:17.484194 29391 net.cpp:106] Creating Layer inception_5b/relu_3x3_reduce
I0718 14:09:17.484236 29391 net.cpp:454] inception_5b/relu_3x3_reduce <- inception_5b/3x3_reduce
I0718 14:09:17.484268 29391 net.cpp:397] inception_5b/relu_3x3_reduce -> inception_5b/3x3_reduce (in-place)
I0718 14:09:17.484827 29391 net.cpp:150] Setting up inception_5b/relu_3x3_reduce
I0718 14:09:17.484874 29391 net.cpp:157] Top shape: 6 192 31 31 (1107072)
I0718 14:09:17.484905 29391 net.cpp:165] Memory required for data: 6477891144
I0718 14:09:17.484951 29391 layer_factory.hpp:76] Creating layer inception_5b/3x3
I0718 14:09:17.484997 29391 net.cpp:106] Creating Layer inception_5b/3x3
I0718 14:09:17.485028 29391 net.cpp:454] inception_5b/3x3 <- inception_5b/3x3_reduce
I0718 14:09:17.485074 29391 net.cpp:411] inception_5b/3x3 -> inception_5b/3x3
I0718 14:09:17.503536 29391 net.cpp:150] Setting up inception_5b/3x3
I0718 14:09:17.503612 29391 net.cpp:157] Top shape: 6 384 31 31 (2214144)
I0718 14:09:17.503626 29391 net.cpp:165] Memory required for data: 6486747720
I0718 14:09:17.503657 29391 layer_factory.hpp:76] Creating layer inception_5b/relu_3x3
I0718 14:09:17.503702 29391 net.cpp:106] Creating Layer inception_5b/relu_3x3
I0718 14:09:17.503728 29391 net.cpp:454] inception_5b/relu_3x3 <- inception_5b/3x3
I0718 14:09:17.503751 29391 net.cpp:397] inception_5b/relu_3x3 -> inception_5b/3x3 (in-place)
I0718 14:09:17.506278 29391 net.cpp:150] Setting up inception_5b/relu_3x3
I0718 14:09:17.506322 29391 net.cpp:157] Top shape: 6 384 31 31 (2214144)
I0718 14:09:17.506341 29391 net.cpp:165] Memory required for data: 6495604296
I0718 14:09:17.506367 29391 layer_factory.hpp:76] Creating layer inception_5b/5x5_reduce
I0718 14:09:17.506444 29391 net.cpp:106] Creating Layer inception_5b/5x5_reduce
I0718 14:09:17.506474 29391 net.cpp:454] inception_5b/5x5_reduce <- inception_5a/output_inception_5a/output_0_split_2
I0718 14:09:17.506506 29391 net.cpp:411] inception_5b/5x5_reduce -> inception_5b/5x5_reduce
I0718 14:09:17.512190 29391 net.cpp:150] Setting up inception_5b/5x5_reduce
I0718 14:09:17.512254 29391 net.cpp:157] Top shape: 6 48 31 31 (276768)
I0718 14:09:17.512284 29391 net.cpp:165] Memory required for data: 6496711368
I0718 14:09:17.512327 29391 layer_factory.hpp:76] Creating layer inception_5b/relu_5x5_reduce
I0718 14:09:17.512362 29391 net.cpp:106] Creating Layer inception_5b/relu_5x5_reduce
I0718 14:09:17.512377 29391 net.cpp:454] inception_5b/relu_5x5_reduce <- inception_5b/5x5_reduce
I0718 14:09:17.512406 29391 net.cpp:397] inception_5b/relu_5x5_reduce -> inception_5b/5x5_reduce (in-place)
I0718 14:09:17.515514 29391 net.cpp:150] Setting up inception_5b/relu_5x5_reduce
I0718 14:09:17.515550 29391 net.cpp:157] Top shape: 6 48 31 31 (276768)
I0718 14:09:17.515573 29391 net.cpp:165] Memory required for data: 6497818440
I0718 14:09:17.515607 29391 layer_factory.hpp:76] Creating layer inception_5b/5x5
I0718 14:09:17.515645 29391 net.cpp:106] Creating Layer inception_5b/5x5
I0718 14:09:17.515658 29391 net.cpp:454] inception_5b/5x5 <- inception_5b/5x5_reduce
I0718 14:09:17.515681 29391 net.cpp:411] inception_5b/5x5 -> inception_5b/5x5
I0718 14:09:17.554842 29391 net.cpp:150] Setting up inception_5b/5x5
I0718 14:09:17.554929 29391 net.cpp:157] Top shape: 6 128 31 31 (738048)
I0718 14:09:17.554944 29391 net.cpp:165] Memory required for data: 6500770632
I0718 14:09:17.554968 29391 layer_factory.hpp:76] Creating layer inception_5b/relu_5x5
I0718 14:09:17.555012 29391 net.cpp:106] Creating Layer inception_5b/relu_5x5
I0718 14:09:17.555035 29391 net.cpp:454] inception_5b/relu_5x5 <- inception_5b/5x5
I0718 14:09:17.555058 29391 net.cpp:397] inception_5b/relu_5x5 -> inception_5b/5x5 (in-place)
I0718 14:09:17.557127 29391 net.cpp:150] Setting up inception_5b/relu_5x5
I0718 14:09:17.557160 29391 net.cpp:157] Top shape: 6 128 31 31 (738048)
I0718 14:09:17.557173 29391 net.cpp:165] Memory required for data: 6503722824
I0718 14:09:17.557194 29391 layer_factory.hpp:76] Creating layer inception_5b/pool
I0718 14:09:17.557216 29391 net.cpp:106] Creating Layer inception_5b/pool
I0718 14:09:17.557230 29391 net.cpp:454] inception_5b/pool <- inception_5a/output_inception_5a/output_0_split_3
I0718 14:09:17.557251 29391 net.cpp:411] inception_5b/pool -> inception_5b/pool
I0718 14:09:17.558607 29391 net.cpp:150] Setting up inception_5b/pool
I0718 14:09:17.558645 29391 net.cpp:157] Top shape: 6 832 31 31 (4797312)
I0718 14:09:17.558668 29391 net.cpp:165] Memory required for data: 6522912072
I0718 14:09:17.558683 29391 layer_factory.hpp:76] Creating layer inception_5b/pool_proj
I0718 14:09:17.558715 29391 net.cpp:106] Creating Layer inception_5b/pool_proj
I0718 14:09:17.558732 29391 net.cpp:454] inception_5b/pool_proj <- inception_5b/pool
I0718 14:09:17.558753 29391 net.cpp:411] inception_5b/pool_proj -> inception_5b/pool_proj
I0718 14:09:17.569463 29391 cudnn_conv_layer.cpp:194] Reallocating workspace storage: 9984
I0718 14:09:17.569654 29391 net.cpp:150] Setting up inception_5b/pool_proj
I0718 14:09:17.569697 29391 net.cpp:157] Top shape: 6 128 31 31 (738048)
I0718 14:09:17.569721 29391 net.cpp:165] Memory required for data: 6525864264
I0718 14:09:17.569825 29391 layer_factory.hpp:76] Creating layer inception_5b/relu_pool_proj
I0718 14:09:17.569901 29391 net.cpp:106] Creating Layer inception_5b/relu_pool_proj
I0718 14:09:17.569933 29391 net.cpp:454] inception_5b/relu_pool_proj <- inception_5b/pool_proj
I0718 14:09:17.569965 29391 net.cpp:397] inception_5b/relu_pool_proj -> inception_5b/pool_proj (in-place)
I0718 14:09:17.570799 29391 net.cpp:150] Setting up inception_5b/relu_pool_proj
I0718 14:09:17.570847 29391 net.cpp:157] Top shape: 6 128 31 31 (738048)
I0718 14:09:17.570868 29391 net.cpp:165] Memory required for data: 6528816456
I0718 14:09:17.570974 29391 layer_factory.hpp:76] Creating layer inception_5b/output
I0718 14:09:17.571024 29391 net.cpp:106] Creating Layer inception_5b/output
I0718 14:09:17.571055 29391 net.cpp:454] inception_5b/output <- inception_5b/1x1
I0718 14:09:17.571082 29391 net.cpp:454] inception_5b/output <- inception_5b/3x3
I0718 14:09:17.571115 29391 net.cpp:454] inception_5b/output <- inception_5b/5x5
I0718 14:09:17.571156 29391 net.cpp:454] inception_5b/output <- inception_5b/pool_proj
I0718 14:09:17.571226 29391 net.cpp:411] inception_5b/output -> inception_5b/output
I0718 14:09:17.571429 29391 net.cpp:150] Setting up inception_5b/output
I0718 14:09:17.571466 29391 net.cpp:157] Top shape: 6 1024 31 31 (5904384)
I0718 14:09:17.571496 29391 net.cpp:165] Memory required for data: 6552433992
I0718 14:09:17.571524 29391 layer_factory.hpp:76] Creating layer pool5/7x7_s1
I0718 14:09:17.571588 29391 net.cpp:106] Creating Layer pool5/7x7_s1
I0718 14:09:17.571636 29391 net.cpp:454] pool5/7x7_s1 <- inception_5b/output
I0718 14:09:17.571676 29391 net.cpp:411] pool5/7x7_s1 -> pool5/7x7_s1
I0718 14:09:17.940971 29391 cudnn_conv_layer.cpp:194] Reallocating workspace storage: 602112
I0718 14:09:17.941504 29391 net.cpp:150] Setting up pool5/7x7_s1
I0718 14:09:17.941552 29391 net.cpp:157] Top shape: 6 512 25 25 (1920000)
I0718 14:09:17.941591 29391 net.cpp:165] Memory required for data: 6560113992
I0718 14:09:17.941633 29391 layer_factory.hpp:76] Creating layer pool5/drop_7x7_s1
I0718 14:09:17.941704 29391 net.cpp:106] Creating Layer pool5/drop_7x7_s1
I0718 14:09:17.941730 29391 net.cpp:454] pool5/drop_7x7_s1 <- pool5/7x7_s1
I0718 14:09:17.941753 29391 net.cpp:397] pool5/drop_7x7_s1 -> pool5/7x7_s1 (in-place)
I0718 14:09:17.941853 29391 net.cpp:150] Setting up pool5/drop_7x7_s1
I0718 14:09:17.941880 29391 net.cpp:157] Top shape: 6 512 25 25 (1920000)
I0718 14:09:17.941915 29391 net.cpp:165] Memory required for data: 6567793992
I0718 14:09:17.941946 29391 layer_factory.hpp:76] Creating layer loss3/classifier
I0718 14:09:17.941977 29391 net.cpp:106] Creating Layer loss3/classifier
I0718 14:09:17.941994 29391 net.cpp:454] loss3/classifier <- pool5/7x7_s1
I0718 14:09:17.942013 29391 net.cpp:411] loss3/classifier -> loss3/classifier
I0718 14:09:17.954326 29391 net.cpp:150] Setting up loss3/classifier
I0718 14:09:17.954424 29391 net.cpp:157] Top shape: 6 2 (12)
I0718 14:09:17.954447 29391 net.cpp:165] Memory required for data: 6567794040
I0718 14:09:17.954483 29391 layer_factory.hpp:76] Creating layer loss3/loss3
I0718 14:09:17.954524 29391 net.cpp:106] Creating Layer loss3/loss3
I0718 14:09:17.954551 29391 net.cpp:454] loss3/loss3 <- loss3/classifier
I0718 14:09:17.954581 29391 net.cpp:411] loss3/loss3 -> loss3/loss3
I0718 14:09:17.955482 29391 net.cpp:150] Setting up loss3/loss3
I0718 14:09:17.955514 29391 net.cpp:157] Top shape: 6 2 (12)
I0718 14:09:17.955533 29391 net.cpp:165] Memory required for data: 6567794088
I0718 14:09:17.955545 29391 layer_factory.hpp:76] Creating layer conv61
I0718 14:09:17.955596 29391 net.cpp:106] Creating Layer conv61
I0718 14:09:17.955617 29391 net.cpp:454] conv61 <- loss3/loss3
I0718 14:09:17.955639 29391 net.cpp:411] conv61 -> conv61
F0718 14:09:17.955785 29391 base_conv_layer.cpp:28] Check failed: num_spatial_axes_ == 2 (0 vs. 2) kernel_h & kernel_w can only be used for 2D convolution.
