…
I0718 14:32:08.422694 33611 net.cpp:322] The NetState phase (0) differed from the phase (1) specified by a rule in layer data
I0718 14:32:08.423800 33611 net.cpp:49] Initializing net from parameters: 
name: "GoogleNet"
state {
  phase: TRAIN
}
layer {
  name: "data"
  type: "ImageData"
  top: "data"
  top: "label"
  include {
    phase: TRAIN
  }
  transform_param {
    mirror: true
    mean_value: 163
    mean_value: 116
    mean_value: 181
  }
  image_data_param {
    source: "../lists/mitosis_train.lst"
    batch_size: 4
    shuffle: true
  }
}
layer {
  name: "conv1/7x7_s2"
  type: "Convolution"
  bottom: "data"
  top: "conv1/7x7_s2"
  param {
    lr_mult: 0
    decay_mult: 1
  }
  param {
    lr_mult: 2
    decay_mult: 0
  }
  convolution_param {
    num_output: 64
    pad: 3
    kernel_size: 7
    stride: 2
    weight_filler {
      type: "xavier"
    }
    bias_filler {
      type: "constant"
      value: 0.2
    }
  }
}
layer {
  name: "conv1/relu_7x7"
  type: "ReLU"
  bottom: "conv1/7x7_s2"
  top: "conv1/7x7_s2"
}
layer {
  name: "pool1/3x3_s2"
  type: "Pooling"
  bottom: "conv1/7x7_s2"
  top: "pool1/3x3_s2"
  pooling_param {
    pool: MAX
    kernel_size: 3
    stride: 2
  }
}
layer {
  name: "pool1/norm1"
  type: "LRN"
  bottom: "pool1/3x3_s2"
  top: "pool1/norm1"
  lrn_param {
    local_size: 5
    alpha: 0.0001
    beta: 0.75
  }
}
layer {
  name: "conv2/3x3_reduce"
  type: "Convolution"
  bottom: "pool1/norm1"
  top: "conv2/3x3_reduce"
  param {
    lr_mult: 0
    decay_mult: 1
  }
  param {
    lr_mult: 2
    decay_mult: 0
  }
  convolution_param {
    num_output: 64
    kernel_size: 1
    weight_filler {
      type: "xavier"
    }
    bias_filler {
      type: "constant"
      value: 0.2
    }
  }
}
layer {
  name: "conv2/relu_3x3_reduce"
  type: "ReLU"
  bottom: "conv2/3x3_reduce"
  top: "conv2/3x3_reduce"
}
layer {
  name: "conv2/3x3"
  type: "Convolution"
  bottom: "conv2/3x3_reduce"
  top: "conv2/3x3"
  param {
    lr_mult: 0
    decay_mult: 1
  }
  param {
    lr_mult: 2
    decay_mult: 0
  }
  convolution_param {
    num_output: 192
    pad: 1
    kernel_size: 3
    weight_filler {
      type: "xavier"
    }
    bias_filler {
      type: "constant"
      value: 0.2
    }
  }
}
layer {
  name: "conv2/relu_3x3"
  type: "ReLU"
  bottom: "conv2/3x3"
  top: "conv2/3x3"
}
layer {
  name: "conv2/norm2"
  type: "LRN"
  bottom: "conv2/3x3"
  top: "conv2/norm2"
  lrn_param {
    local_size: 5
    alpha: 0.0001
    beta: 0.75
  }
}
layer {
  name: "pool2/3x3_s2"
  type: "Pooling"
  bottom: "conv2/norm2"
  top: "pool2/3x3_s2"
  pooling_param {
    pool: MAX
    kernel_size: 3
    stride: 2
  }
}
layer {
  name: "inception_3a/1x1"
  type: "Convolution"
  bottom: "pool2/3x3_s2"
  top: "inception_3a/1x1"
  param {
    lr_mult: 0
    decay_mult: 1
  }
  param {
    lr_mult: 2
    decay_mult: 0
  }
  convolution_param {
    num_output: 64
    kernel_size: 1
    weight_filler {
      type: "xavier"
    }
    bias_filler {
      type: "constant"
      value: 0.2
    }
  }
}
layer {
  name: "inception_3a/relu_1x1"
  type: "ReLU"
  bottom: "inception_3a/1x1"
  top: "inception_3a/1x1"
}
layer {
  name: "inception_3a/3x3_reduce"
  type: "Convolution"
  bottom: "pool2/3x3_s2"
  top: "inception_3a/3x3_reduce"
  param {
    lr_mult: 0
    decay_mult: 1
  }
  param {
    lr_mult: 2
    decay_mult: 0
  }
  convolution_param {
    num_output: 96
    kernel_size: 1
    weight_filler {
      type: "xavier"
    }
    bias_filler {
      type: "constant"
      value: 0.2
    }
  }
}
layer {
  name: "inception_3a/relu_3x3_reduce"
  type: "ReLU"
  bottom: "inception_3a/3x3_reduce"
  top: "inception_3a/3x3_reduce"
}
layer {
  name: "inception_3a/3x3"
  type: "Convolution"
  bottom: "inception_3a/3x3_reduce"
  top: "inception_3a/3x3"
  param {
    lr_mult: 0
    decay_mult: 1
  }
  param {
    lr_mult: 2
    decay_mult: 0
  }
  convolution_param {
    num_output: 128
    pad: 1
    kernel_size: 3
    weight_filler {
      type: "xavier"
    }
    bias_filler {
      type: "constant"
      value: 0.2
    }
  }
}
layer {
  name: "inception_3a/relu_3x3"
  type: "ReLU"
  bottom: "inception_3a/3x3"
  top: "inception_3a/3x3"
}
layer {
  name: "inception_3a/5x5_reduce"
  type: "Convolution"
  bottom: "pool2/3x3_s2"
  top: "inception_3a/5x5_reduce"
  param {
    lr_mult: 0
    decay_mult: 1
  }
  param {
    lr_mult: 2
    decay_mult: 0
  }
  convolution_param {
    num_output: 16
    kernel_size: 1
    weight_filler {
      type: "xavier"
    }
    bias_filler {
      type: "constant"
      value: 0.2
    }
  }
}
layer {
  name: "inception_3a/relu_5x5_reduce"
  type: "ReLU"
  bottom: "inception_3a/5x5_reduce"
  top: "inception_3a/5x5_reduce"
}
layer {
  name: "inception_3a/5x5"
  type: "Convolution"
  bottom: "inception_3a/5x5_reduce"
  top: "inception_3a/5x5"
  param {
    lr_mult: 0
    decay_mult: 1
  }
  param {
    lr_mult: 2
    decay_mult: 0
  }
  convolution_param {
    num_output: 32
    pad: 2
    kernel_size: 5
    weight_filler {
      type: "xavier"
    }
    bias_filler {
      type: "constant"
      value: 0.2
    }
  }
}
layer {
  name: "inception_3a/relu_5x5"
  type: "ReLU"
  bottom: "inception_3a/5x5"
  top: "inception_3a/5x5"
}
layer {
  name: "inception_3a/pool"
  type: "Pooling"
  bottom: "pool2/3x3_s2"
  top: "inception_3a/pool"
  pooling_param {
    pool: MAX
    kernel_size: 3
    stride: 1
    pad: 1
  }
}
layer {
  name: "inception_3a/pool_proj"
  type: "Convolution"
  bottom: "inception_3a/pool"
  top: "inception_3a/pool_proj"
  param {
    lr_mult: 0
    decay_mult: 1
  }
  param {
    lr_mult: 2
    decay_mult: 0
  }
  convolution_param {
    num_output: 32
    kernel_size: 1
    weight_filler {
      type: "xavier"
    }
    bias_filler {
      type: "constant"
      value: 0.2
    }
  }
}
layer {
  name: "inception_3a/relu_pool_proj"
  type: "ReLU"
  bottom: "inception_3a/pool_proj"
  top: "inception_3a/pool_proj"
}
layer {
  name: "inception_3a/output"
  type: "Concat"
  bottom: "inception_3a/1x1"
  bottom: "inception_3a/3x3"
  bottom: "inception_3a/5x5"
  bottom: "inception_3a/pool_proj"
  top: "inception_3a/output"
}
layer {
  name: "inception_3b/1x1"
  type: "Convolution"
  bottom: "inception_3a/output"
  top: "inception_3b/1x1"
  param {
    lr_mult: 0
    decay_mult: 1
  }
  param {
    lr_mult: 2
    decay_mult: 0
  }
  convolution_param {
    num_output: 128
    kernel_size: 1
    weight_filler {
      type: "xavier"
    }
    bias_filler {
      type: "constant"
      value: 0.2
    }
  }
}
layer {
  name: "inception_3b/relu_1x1"
  type: "ReLU"
  bottom: "inception_3b/1x1"
  top: "inception_3b/1x1"
}
layer {
  name: "inception_3b/3x3_reduce"
  type: "Convolution"
  bottom: "inception_3a/output"
  top: "inception_3b/3x3_reduce"
  param {
    lr_mult: 0
    decay_mult: 1
  }
  param {
    lr_mult: 2
    decay_mult: 0
  }
  convolution_param {
    num_output: 128
    kernel_size: 1
    weight_filler {
      type: "xavier"
    }
    bias_filler {
      type: "constant"
      value: 0.2
    }
  }
}
layer {
  name: "inception_3b/relu_3x3_reduce"
  type: "ReLU"
  bottom: "inception_3b/3x3_reduce"
  top: "inception_3b/3x3_reduce"
}
layer {
  name: "inception_3b/3x3"
  type: "Convolution"
  bottom: "inception_3b/3x3_reduce"
  top: "inception_3b/3x3"
  param {
    lr_mult: 0
    decay_mult: 1
  }
  param {
    lr_mult: 2
    decay_mult: 0
  }
  convolution_param {
    num_output: 192
    pad: 1
    kernel_size: 3
    weight_filler {
      type: "xavier"
    }
    bias_filler {
      type: "constant"
      value: 0.2
    }
  }
}
layer {
  name: "inception_3b/relu_3x3"
  type: "ReLU"
  bottom: "inception_3b/3x3"
  top: "inception_3b/3x3"
}
layer {
  name: "inception_3b/5x5_reduce"
  type: "Convolution"
  bottom: "inception_3a/output"
  top: "inception_3b/5x5_reduce"
  param {
    lr_mult: 0
    decay_mult: 1
  }
  param {
    lr_mult: 2
    decay_mult: 0
  }
  convolution_param {
    num_output: 32
    kernel_size: 1
    weight_filler {
      type: "xavier"
    }
    bias_filler {
      type: "constant"
      value: 0.2
    }
  }
}
layer {
  name: "inception_3b/relu_5x5_reduce"
  type: "ReLU"
  bottom: "inception_3b/5x5_reduce"
  top: "inception_3b/5x5_reduce"
}
layer {
  name: "inception_3b/5x5"
  type: "Convolution"
  bottom: "inception_3b/5x5_reduce"
  top: "inception_3b/5x5"
  param {
    lr_mult: 0
    decay_mult: 1
  }
  param {
    lr_mult: 2
    decay_mult: 0
  }
  convolution_param {
    num_output: 96
    pad: 2
    kernel_size: 5
    weight_filler {
      type: "xavier"
    }
    bias_filler {
      type: "constant"
      value: 0.2
    }
  }
}
layer {
  name: "inception_3b/relu_5x5"
  type: "ReLU"
  bottom: "inception_3b/5x5"
  top: "inception_3b/5x5"
}
layer {
  name: "inception_3b/pool"
  type: "Pooling"
  bottom: "inception_3a/output"
  top: "inception_3b/pool"
  pooling_param {
    pool: MAX
    kernel_size: 3
    stride: 1
    pad: 1
  }
}
layer {
  name: "inception_3b/pool_proj"
  type: "Convolution"
  bottom: "inception_3b/pool"
  top: "inception_3b/pool_proj"
  param {
    lr_mult: 0
    decay_mult: 1
  }
  param {
    lr_mult: 2
    decay_mult: 0
  }
  convolution_param {
    num_output: 64
    kernel_size: 1
    weight_filler {
      type: "xavier"
    }
    bias_filler {
      type: "constant"
      value: 0.2
    }
  }
}
layer {
  name: "inception_3b/relu_pool_proj"
  type: "ReLU"
  bottom: "inception_3b/pool_proj"
  top: "inception_3b/pool_proj"
}
layer {
  name: "inception_3b/output"
  type: "Concat"
  bottom: "inception_3b/1x1"
  bottom: "inception_3b/3x3"
  bottom: "inception_3b/5x5"
  bottom: "inception_3b/pool_proj"
  top: "inception_3b/output"
}
layer {
  name: "pool3/3x3_s2"
  type: "Pooling"
  bottom: "inception_3b/output"
  top: "pool3/3x3_s2"
  pooling_param {
    pool: MAX
    kernel_size: 3
    stride: 2
  }
}
layer {
  name: "inception_4a/1x1"
  type: "Convolution"
  bottom: "pool3/3x3_s2"
  top: "inception_4a/1x1"
  param {
    lr_mult: 0
    decay_mult: 1
  }
  param {
    lr_mult: 2
    decay_mult: 0
  }
  convolution_param {
    num_output: 192
    kernel_size: 1
    weight_filler {
      type: "xavier"
    }
    bias_filler {
      type: "constant"
      value: 0.2
    }
  }
}
layer {
  name: "inception_4a/relu_1x1"
  type: "ReLU"
  bottom: "inception_4a/1x1"
  top: "inception_4a/1x1"
}
layer {
  name: "inception_4a/3x3_reduce"
  type: "Convolution"
  bottom: "pool3/3x3_s2"
  top: "inception_4a/3x3_reduce"
  param {
    lr_mult: 0
    decay_mult: 1
  }
  param {
    lr_mult: 2
    decay_mult: 0
  }
  convolution_param {
    num_output: 96
    kernel_size: 1
    weight_filler {
      type: "xavier"
    }
    bias_filler {
      type: "constant"
      value: 0.2
    }
  }
}
layer {
  name: "inception_4a/relu_3x3_reduce"
  type: "ReLU"
  bottom: "inception_4a/3x3_reduce"
  top: "inception_4a/3x3_reduce"
}
layer {
  name: "inception_4a/3x3"
  type: "Convolution"
  bottom: "inception_4a/3x3_reduce"
  top: "inception_4a/3x3"
  param {
    lr_mult: 0
    decay_mult: 1
  }
  param {
    lr_mult: 2
    decay_mult: 0
  }
  convolution_param {
    num_output: 208
    pad: 1
    kernel_size: 3
    weight_filler {
      type: "xavier"
    }
    bias_filler {
      type: "constant"
      value: 0.2
    }
  }
}
layer {
  name: "inception_4a/relu_3x3"
  type: "ReLU"
  bottom: "inception_4a/3x3"
  top: "inception_4a/3x3"
}
layer {
  name: "inception_4a/5x5_reduce"
  type: "Convolution"
  bottom: "pool3/3x3_s2"
  top: "inception_4a/5x5_reduce"
  param {
    lr_mult: 0
    decay_mult: 1
  }
  param {
    lr_mult: 2
    decay_mult: 0
  }
  convolution_param {
    num_output: 16
    kernel_size: 1
    weight_filler {
      type: "xavier"
    }
    bias_filler {
      type: "constant"
      value: 0.2
    }
  }
}
layer {
  name: "inception_4a/relu_5x5_reduce"
  type: "ReLU"
  bottom: "inception_4a/5x5_reduce"
  top: "inception_4a/5x5_reduce"
}
layer {
  name: "inception_4a/5x5"
  type: "Convolution"
  bottom: "inception_4a/5x5_reduce"
  top: "inception_4a/5x5"
  param {
    lr_mult: 0
    decay_mult: 1
  }
  param {
    lr_mult: 2
    decay_mult: 0
  }
  convolution_param {
    num_output: 48
    pad: 2
    kernel_size: 5
    weight_filler {
      type: "xavier"
    }
    bias_filler {
      type: "constant"
      value: 0.2
    }
  }
}
layer {
  name: "inception_4a/relu_5x5"
  type: "ReLU"
  bottom: "inception_4a/5x5"
  top: "inception_4a/5x5"
}
layer {
  name: "inception_4a/pool"
  type: "Pooling"
  bottom: "pool3/3x3_s2"
  top: "inception_4a/pool"
  pooling_param {
    pool: MAX
    kernel_size: 3
    stride: 1
    pad: 1
  }
}
layer {
  name: "inception_4a/pool_proj"
  type: "Convolution"
  bottom: "inception_4a/pool"
  top: "inception_4a/pool_proj"
  param {
    lr_mult: 0
    decay_mult: 1
  }
  param {
    lr_mult: 2
    decay_mult: 0
  }
  convolution_param {
    num_output: 64
    kernel_size: 1
    weight_filler {
      type: "xavier"
    }
    bias_filler {
      type: "constant"
      value: 0.2
    }
  }
}
layer {
  name: "inception_4a/relu_pool_proj"
  type: "ReLU"
  bottom: "inception_4a/pool_proj"
  top: "inception_4a/pool_proj"
}
layer {
  name: "inception_4a/output"
  type: "Concat"
  bottom: "inception_4a/1x1"
  bottom: "inception_4a/3x3"
  bottom: "inception_4a/5x5"
  bottom: "inception_4a/pool_proj"
  top: "inception_4a/output"
}
layer {
  name: "inception_4b/1x1"
  type: "Convolution"
  bottom: "inception_4a/output"
  top: "inception_4b/1x1"
  param {
    lr_mult: 0
    decay_mult: 1
  }
  param {
    lr_mult: 2
    decay_mult: 0
  }
  convolution_param {
    num_output: 160
    kernel_size: 1
    weight_filler {
      type: "xavier"
    }
    bias_filler {
      type: "constant"
      value: 0.2
    }
  }
}
layer {
  name: "inception_4b/relu_1x1"
  type: "ReLU"
  bottom: "inception_4b/1x1"
  top: "inception_4b/1x1"
}
layer {
  name: "inception_4b/3x3_reduce"
  type: "Convolution"
  bottom: "inception_4a/output"
  top: "inception_4b/3x3_reduce"
  param {
    lr_mult: 0
    decay_mult: 1
  }
  param {
    lr_mult: 2
    decay_mult: 0
  }
  convolution_param {
    num_output: 112
    kernel_size: 1
    weight_filler {
      type: "xavier"
    }
    bias_filler {
      type: "constant"
      value: 0.2
    }
  }
}
layer {
  name: "inception_4b/relu_3x3_reduce"
  type: "ReLU"
  bottom: "inception_4b/3x3_reduce"
  top: "inception_4b/3x3_reduce"
}
layer {
  name: "inception_4b/3x3"
  type: "Convolution"
  bottom: "inception_4b/3x3_reduce"
  top: "inception_4b/3x3"
  param {
    lr_mult: 0
    decay_mult: 1
  }
  param {
    lr_mult: 2
    decay_mult: 0
  }
  convolution_param {
    num_output: 224
    pad: 1
    kernel_size: 3
    weight_filler {
      type: "xavier"
    }
    bias_filler {
      type: "constant"
      value: 0.2
    }
  }
}
layer {
  name: "inception_4b/relu_3x3"
  type: "ReLU"
  bottom: "inception_4b/3x3"
  top: "inception_4b/3x3"
}
layer {
  name: "inception_4b/5x5_reduce"
  type: "Convolution"
  bottom: "inception_4a/output"
  top: "inception_4b/5x5_reduce"
  param {
    lr_mult: 0
    decay_mult: 1
  }
  param {
    lr_mult: 2
    decay_mult: 0
  }
  convolution_param {
    num_output: 24
    kernel_size: 1
    weight_filler {
      type: "xavier"
    }
    bias_filler {
      type: "constant"
      value: 0.2
    }
  }
}
layer {
  name: "inception_4b/relu_5x5_reduce"
  type: "ReLU"
  bottom: "inception_4b/5x5_reduce"
  top: "inception_4b/5x5_reduce"
}
layer {
  name: "inception_4b/5x5"
  type: "Convolution"
  bottom: "inception_4b/5x5_reduce"
  top: "inception_4b/5x5"
  param {
    lr_mult: 0
    decay_mult: 1
  }
  param {
    lr_mult: 2
    decay_mult: 0
  }
  convolution_param {
    num_output: 64
    pad: 2
    kernel_size: 5
    weight_filler {
      type: "xavier"
    }
    bias_filler {
      type: "constant"
      value: 0.2
    }
  }
}
layer {
  name: "inception_4b/relu_5x5"
  type: "ReLU"
  bottom: "inception_4b/5x5"
  top: "inception_4b/5x5"
}
layer {
  name: "inception_4b/pool"
  type: "Pooling"
  bottom: "inception_4a/output"
  top: "inception_4b/pool"
  pooling_param {
    pool: MAX
    kernel_size: 3
    stride: 1
    pad: 1
  }
}
layer {
  name: "inception_4b/pool_proj"
  type: "Convolution"
  bottom: "inception_4b/pool"
  top: "inception_4b/pool_proj"
  param {
    lr_mult: 0
    decay_mult: 1
  }
  param {
    lr_mult: 2
    decay_mult: 0
  }
  convolution_param {
    num_output: 64
    kernel_size: 1
    weight_filler {
      type: "xavier"
    }
    bias_filler {
      type: "constant"
      value: 0.2
    }
  }
}
layer {
  name: "inception_4b/relu_pool_proj"
  type: "ReLU"
  bottom: "inception_4b/pool_proj"
  top: "inception_4b/pool_proj"
}
layer {
  name: "inception_4b/output"
  type: "Concat"
  bottom: "inception_4b/1x1"
  bottom: "inception_4b/3x3"
  bottom: "inception_4b/5x5"
  bottom: "inception_4b/pool_proj"
  top: "inception_4b/output"
}
layer {
  name: "inception_4c/1x1"
  type: "Convolution"
  bottom: "inception_4b/output"
  top: "inception_4c/1x1"
  param {
    lr_mult: 0
    decay_mult: 1
  }
  param {
    lr_mult: 2
    decay_mult: 0
  }
  convolution_param {
    num_output: 128
    kernel_size: 1
    weight_filler {
      type: "xavier"
    }
    bias_filler {
      type: "constant"
      value: 0.2
    }
  }
}
layer {
  name: "inception_4c/relu_1x1"
  type: "ReLU"
  bottom: "inception_4c/1x1"
  top: "inception_4c/1x1"
}
layer {
  name: "inception_4c/3x3_reduce"
  type: "Convolution"
  bottom: "inception_4b/output"
  top: "inception_4c/3x3_reduce"
  param {
    lr_mult: 0
    decay_mult: 1
  }
  param {
    lr_mult: 2
    decay_mult: 0
  }
  convolution_param {
    num_output: 128
    kernel_size: 1
    weight_filler {
      type: "xavier"
    }
    bias_filler {
      type: "constant"
      value: 0.2
    }
  }
}
layer {
  name: "inception_4c/relu_3x3_reduce"
  type: "ReLU"
  bottom: "inception_4c/3x3_reduce"
  top: "inception_4c/3x3_reduce"
}
layer {
  name: "inception_4c/3x3"
  type: "Convolution"
  bottom: "inception_4c/3x3_reduce"
  top: "inception_4c/3x3"
  param {
    lr_mult: 0
    decay_mult: 1
  }
  param {
    lr_mult: 2
    decay_mult: 0
  }
  convolution_param {
    num_output: 256
    pad: 1
    kernel_size: 3
    weight_filler {
      type: "xavier"
    }
    bias_filler {
      type: "constant"
      value: 0.2
    }
  }
}
layer {
  name: "inception_4c/relu_3x3"
  type: "ReLU"
  bottom: "inception_4c/3x3"
  top: "inception_4c/3x3"
}
layer {
  name: "inception_4c/5x5_reduce"
  type: "Convolution"
  bottom: "inception_4b/output"
  top: "inception_4c/5x5_reduce"
  param {
    lr_mult: 0
    decay_mult: 1
  }
  param {
    lr_mult: 2
    decay_mult: 0
  }
  convolution_param {
    num_output: 24
    kernel_size: 1
    weight_filler {
      type: "xavier"
    }
    bias_filler {
      type: "constant"
      value: 0.2
    }
  }
}
layer {
  name: "inception_4c/relu_5x5_reduce"
  type: "ReLU"
  bottom: "inception_4c/5x5_reduce"
  top: "inception_4c/5x5_reduce"
}
layer {
  name: "inception_4c/5x5"
  type: "Convolution"
  bottom: "inception_4c/5x5_reduce"
  top: "inception_4c/5x5"
  param {
    lr_mult: 0
    decay_mult: 1
  }
  param {
    lr_mult: 2
    decay_mult: 0
  }
  convolution_param {
    num_output: 64
    pad: 2
    kernel_size: 5
    weight_filler {
      type: "xavier"
    }
    bias_filler {
      type: "constant"
      value: 0.2
    }
  }
}
layer {
  name: "inception_4c/relu_5x5"
  type: "ReLU"
  bottom: "inception_4c/5x5"
  top: "inception_4c/5x5"
}
layer {
  name: "inception_4c/pool"
  type: "Pooling"
  bottom: "inception_4b/output"
  top: "inception_4c/pool"
  pooling_param {
    pool: MAX
    kernel_size: 3
    stride: 1
    pad: 1
  }
}
layer {
  name: "inception_4c/pool_proj"
  type: "Convolution"
  bottom: "inception_4c/pool"
  top: "inception_4c/pool_proj"
  param {
    lr_mult: 0
    decay_mult: 1
  }
  param {
    lr_mult: 2
    decay_mult: 0
  }
  convolution_param {
    num_output: 64
    kernel_size: 1
    weight_filler {
      type: "xavier"
    }
    bias_filler {
      type: "constant"
      value: 0.2
    }
  }
}
layer {
  name: "inception_4c/relu_pool_proj"
  type: "ReLU"
  bottom: "inception_4c/pool_proj"
  top: "inception_4c/pool_proj"
}
layer {
  name: "inception_4c/output"
  type: "Concat"
  bottom: "inception_4c/1x1"
  bottom: "inception_4c/3x3"
  bottom: "inception_4c/5x5"
  bottom: "inception_4c/pool_proj"
  top: "inception_4c/output"
}
layer {
  name: "inception_4d/1x1"
  type: "Convolution"
  bottom: "inception_4c/output"
  top: "inception_4d/1x1"
  param {
    lr_mult: 0
    decay_mult: 1
  }
  param {
    lr_mult: 2
    decay_mult: 0
  }
  convolution_param {
    num_output: 112
    kernel_size: 1
    weight_filler {
      type: "xavier"
    }
    bias_filler {
      type: "constant"
      value: 0.2
    }
  }
}
layer {
  name: "inception_4d/relu_1x1"
  type: "ReLU"
  bottom: "inception_4d/1x1"
  top: "inception_4d/1x1"
}
layer {
  name: "inception_4d/3x3_reduce"
  type: "Convolution"
  bottom: "inception_4c/output"
  top: "inception_4d/3x3_reduce"
  param {
    lr_mult: 0
    decay_mult: 1
  }
  param {
    lr_mult: 2
    decay_mult: 0
  }
  convolution_param {
    num_output: 144
    kernel_size: 1
    weight_filler {
      type: "xavier"
    }
    bias_filler {
      type: "constant"
      value: 0.2
    }
  }
}
layer {
  name: "inception_4d/relu_3x3_reduce"
  type: "ReLU"
  bottom: "inception_4d/3x3_reduce"
  top: "inception_4d/3x3_reduce"
}
layer {
  name: "inception_4d/3x3"
  type: "Convolution"
  bottom: "inception_4d/3x3_reduce"
  top: "inception_4d/3x3"
  param {
    lr_mult: 0
    decay_mult: 1
  }
  param {
    lr_mult: 2
    decay_mult: 0
  }
  convolution_param {
    num_output: 288
    pad: 1
    kernel_size: 3
    weight_filler {
      type: "xavier"
    }
    bias_filler {
      type: "constant"
      value: 0.2
    }
  }
}
layer {
  name: "inception_4d/relu_3x3"
  type: "ReLU"
  bottom: "inception_4d/3x3"
  top: "inception_4d/3x3"
}
layer {
  name: "inception_4d/5x5_reduce"
  type: "Convolution"
  bottom: "inception_4c/output"
  top: "inception_4d/5x5_reduce"
  param {
    lr_mult: 0
    decay_mult: 1
  }
  param {
    lr_mult: 2
    decay_mult: 0
  }
  convolution_param {
    num_output: 32
    kernel_size: 1
    weight_filler {
      type: "xavier"
    }
    bias_filler {
      type: "constant"
      value: 0.2
    }
  }
}
layer {
  name: "inception_4d/relu_5x5_reduce"
  type: "ReLU"
  bottom: "inception_4d/5x5_reduce"
  top: "inception_4d/5x5_reduce"
}
layer {
  name: "inception_4d/5x5"
  type: "Convolution"
  bottom: "inception_4d/5x5_reduce"
  top: "inception_4d/5x5"
  param {
    lr_mult: 0
    decay_mult: 1
  }
  param {
    lr_mult: 2
    decay_mult: 0
  }
  convolution_param {
    num_output: 64
    pad: 2
    kernel_size: 5
    weight_filler {
      type: "xavier"
    }
    bias_filler {
      type: "constant"
      value: 0.2
    }
  }
}
layer {
  name: "inception_4d/relu_5x5"
  type: "ReLU"
  bottom: "inception_4d/5x5"
  top: "inception_4d/5x5"
}
layer {
  name: "inception_4d/pool"
  type: "Pooling"
  bottom: "inception_4c/output"
  top: "inception_4d/pool"
  pooling_param {
    pool: MAX
    kernel_size: 3
    stride: 1
    pad: 1
  }
}
layer {
  name: "inception_4d/pool_proj"
  type: "Convolution"
  bottom: "inception_4d/pool"
  top: "inception_4d/pool_proj"
  param {
    lr_mult: 0
    decay_mult: 1
  }
  param {
    lr_mult: 2
    decay_mult: 0
  }
  convolution_param {
    num_output: 64
    kernel_size: 1
    weight_filler {
      type: "xavier"
    }
    bias_filler {
      type: "constant"
      value: 0.2
    }
  }
}
layer {
  name: "inception_4d/relu_pool_proj"
  type: "ReLU"
  bottom: "inception_4d/pool_proj"
  top: "inception_4d/pool_proj"
}
layer {
  name: "inception_4d/output"
  type: "Concat"
  bottom: "inception_4d/1x1"
  bottom: "inception_4d/3x3"
  bottom: "inception_4d/5x5"
  bottom: "inception_4d/pool_proj"
  top: "inception_4d/output"
}
layer {
  name: "inception_4e/1x1"
  type: "Convolution"
  bottom: "inception_4d/output"
  top: "inception_4e/1x1"
  param {
    lr_mult: 0
    decay_mult: 1
  }
  param {
    lr_mult: 2
    decay_mult: 0
  }
  convolution_param {
    num_output: 256
    kernel_size: 1
    weight_filler {
      type: "xavier"
    }
    bias_filler {
      type: "constant"
      value: 0.2
    }
  }
}
layer {
  name: "inception_4e/relu_1x1"
  type: "ReLU"
  bottom: "inception_4e/1x1"
  top: "inception_4e/1x1"
}
layer {
  name: "inception_4e/3x3_reduce"
  type: "Convolution"
  bottom: "inception_4d/output"
  top: "inception_4e/3x3_reduce"
  param {
    lr_mult: 0
    decay_mult: 1
  }
  param {
    lr_mult: 2
    decay_mult: 0
  }
  convolution_param {
    num_output: 160
    kernel_size: 1
    weight_filler {
      type: "xavier"
    }
    bias_filler {
      type: "constant"
      value: 0.2
    }
  }
}
layer {
  name: "inception_4e/relu_3x3_reduce"
  type: "ReLU"
  bottom: "inception_4e/3x3_reduce"
  top: "inception_4e/3x3_reduce"
}
layer {
  name: "inception_4e/3x3"
  type: "Convolution"
  bottom: "inception_4e/3x3_reduce"
  top: "inception_4e/3x3"
  param {
    lr_mult: 0
    decay_mult: 1
  }
  param {
    lr_mult: 2
    decay_mult: 0
  }
  convolution_param {
    num_output: 320
    pad: 1
    kernel_size: 3
    weight_filler {
      type: "xavier"
    }
    bias_filler {
      type: "constant"
      value: 0.2
    }
  }
}
layer {
  name: "inception_4e/relu_3x3"
  type: "ReLU"
  bottom: "inception_4e/3x3"
  top: "inception_4e/3x3"
}
layer {
  name: "inception_4e/5x5_reduce"
  type: "Convolution"
  bottom: "inception_4d/output"
  top: "inception_4e/5x5_reduce"
  param {
    lr_mult: 0
    decay_mult: 1
  }
  param {
    lr_mult: 2
    decay_mult: 0
  }
  convolution_param {
    num_output: 32
    kernel_size: 1
    weight_filler {
      type: "xavier"
    }
    bias_filler {
      type: "constant"
      value: 0.2
    }
  }
}
layer {
  name: "inception_4e/relu_5x5_reduce"
  type: "ReLU"
  bottom: "inception_4e/5x5_reduce"
  top: "inception_4e/5x5_reduce"
}
layer {
  name: "inception_4e/5x5"
  type: "Convolution"
  bottom: "inception_4e/5x5_reduce"
  top: "inception_4e/5x5"
  param {
    lr_mult: 0
    decay_mult: 1
  }
  param {
    lr_mult: 2
    decay_mult: 0
  }
  convolution_param {
    num_output: 128
    pad: 2
    kernel_size: 5
    weight_filler {
      type: "xavier"
    }
    bias_filler {
      type: "constant"
      value: 0.2
    }
  }
}
layer {
  name: "inception_4e/relu_5x5"
  type: "ReLU"
  bottom: "inception_4e/5x5"
  top: "inception_4e/5x5"
}
layer {
  name: "inception_4e/pool"
  type: "Pooling"
  bottom: "inception_4d/output"
  top: "inception_4e/pool"
  pooling_param {
    pool: MAX
    kernel_size: 3
    stride: 1
    pad: 1
  }
}
layer {
  name: "inception_4e/pool_proj"
  type: "Convolution"
  bottom: "inception_4e/pool"
  top: "inception_4e/pool_proj"
  param {
    lr_mult: 0
    decay_mult: 1
  }
  param {
    lr_mult: 2
    decay_mult: 0
  }
  convolution_param {
    num_output: 128
    kernel_size: 1
    weight_filler {
      type: "xavier"
    }
    bias_filler {
      type: "constant"
      value: 0.2
    }
  }
}
layer {
  name: "inception_4e/relu_pool_proj"
  type: "ReLU"
  bottom: "inception_4e/pool_proj"
  top: "inception_4e/pool_proj"
}
layer {
  name: "inception_4e/output"
  type: "Concat"
  bottom: "inception_4e/1x1"
  bottom: "inception_4e/3x3"
  bottom: "inception_4e/5x5"
  bottom: "inception_4e/pool_proj"
  top: "inception_4e/output"
}
layer {
  name: "pool4/3x3_s2"
  type: "Pooling"
  bottom: "inception_4e/output"
  top: "pool4/3x3_s2"
  pooling_param {
    pool: MAX
    kernel_size: 3
    stride: 2
  }
}
layer {
  name: "inception_5a/1x1"
  type: "Convolution"
  bottom: "pool4/3x3_s2"
  top: "inception_5a/1x1"
  param {
    lr_mult: 0
    decay_mult: 1
  }
  param {
    lr_mult: 2
    decay_mult: 0
  }
  convolution_param {
    num_output: 256
    kernel_size: 1
    weight_filler {
      type: "xavier"
    }
    bias_filler {
      type: "constant"
      value: 0.2
    }
  }
}
layer {
  name: "inception_5a/relu_1x1"
  type: "ReLU"
  bottom: "inception_5a/1x1"
  top: "inception_5a/1x1"
}
layer {
  name: "inception_5a/3x3_reduce"
  type: "Convolution"
  bottom: "pool4/3x3_s2"
  top: "inception_5a/3x3_reduce"
  param {
    lr_mult: 0
    decay_mult: 1
  }
  param {
    lr_mult: 2
    decay_mult: 0
  }
  convolution_param {
    num_output: 160
    kernel_size: 1
    weight_filler {
      type: "xavier"
    }
    bias_filler {
      type: "constant"
      value: 0.2
    }
  }
}
layer {
  name: "inception_5a/relu_3x3_reduce"
  type: "ReLU"
  bottom: "inception_5a/3x3_reduce"
  top: "inception_5a/3x3_reduce"
}
layer {
  name: "inception_5a/3x3"
  type: "Convolution"
  bottom: "inception_5a/3x3_reduce"
  top: "inception_5a/3x3"
  param {
    lr_mult: 0
    decay_mult: 1
  }
  param {
    lr_mult: 2
    decay_mult: 0
  }
  convolution_param {
    num_output: 320
    pad: 1
    kernel_size: 3
    weight_filler {
      type: "xavier"
    }
    bias_filler {
      type: "constant"
      value: 0.2
    }
  }
}
layer {
  name: "inception_5a/relu_3x3"
  type: "ReLU"
  bottom: "inception_5a/3x3"
  top: "inception_5a/3x3"
}
layer {
  name: "inception_5a/5x5_reduce"
  type: "Convolution"
  bottom: "pool4/3x3_s2"
  top: "inception_5a/5x5_reduce"
  param {
    lr_mult: 0
    decay_mult: 1
  }
  param {
    lr_mult: 2
    decay_mult: 0
  }
  convolution_param {
    num_output: 32
    kernel_size: 1
    weight_filler {
      type: "xavier"
    }
    bias_filler {
      type: "constant"
      value: 0.2
    }
  }
}
layer {
  name: "inception_5a/relu_5x5_reduce"
  type: "ReLU"
  bottom: "inception_5a/5x5_reduce"
  top: "inception_5a/5x5_reduce"
}
layer {
  name: "inception_5a/5x5"
  type: "Convolution"
  bottom: "inception_5a/5x5_reduce"
  top: "inception_5a/5x5"
  param {
    lr_mult: 0
    decay_mult: 1
  }
  param {
    lr_mult: 2
    decay_mult: 0
  }
  convolution_param {
    num_output: 128
    pad: 2
    kernel_size: 5
    weight_filler {
      type: "xavier"
    }
    bias_filler {
      type: "constant"
      value: 0.2
    }
  }
}
layer {
  name: "inception_5a/relu_5x5"
  type: "ReLU"
  bottom: 
I0718 14:32:08.430994 33611 layer_factory.hpp:76] Creating layer data
I0718 14:32:08.431113 33611 net.cpp:106] Creating Layer data
I0718 14:32:08.431138 33611 net.cpp:411] data -> data
I0718 14:32:08.431217 33611 net.cpp:411] data -> label
I0718 14:32:08.431711 33611 image_data_layer.cpp:36] Opening file ../lists/mitosis_train.lst
I0718 14:32:08.445521 33611 image_data_layer.cpp:46] Shuffling data
I0718 14:32:08.448175 33611 image_data_layer.cpp:51] A total of 21366 images.
I0718 14:32:08.592705 33611 image_data_layer.cpp:78] output data size: 4,3,1000,1000
I0718 14:32:08.701458 33611 net.cpp:150] Setting up data
I0718 14:32:08.701553 33611 net.cpp:157] Top shape: 4 3 1000 1000 (12000000)
I0718 14:32:08.701567 33611 net.cpp:157] Top shape: 4 (4)
I0718 14:32:08.701576 33611 net.cpp:165] Memory required for data: 48000016
I0718 14:32:08.701598 33611 layer_factory.hpp:76] Creating layer label_data_1_split
I0718 14:32:08.701634 33611 net.cpp:106] Creating Layer label_data_1_split
I0718 14:32:08.701655 33611 net.cpp:454] label_data_1_split <- label
I0718 14:32:08.701699 33611 net.cpp:411] label_data_1_split -> label_data_1_split_0
I0718 14:32:08.701728 33611 net.cpp:411] label_data_1_split -> label_data_1_split_1
I0718 14:32:08.701802 33611 net.cpp:150] Setting up label_data_1_split
I0718 14:32:08.701815 33611 net.cpp:157] Top shape: 4 (4)
I0718 14:32:08.701823 33611 net.cpp:157] Top shape: 4 (4)
I0718 14:32:08.701831 33611 net.cpp:165] Memory required for data: 48000048
I0718 14:32:08.701845 33611 layer_factory.hpp:76] Creating layer conv1/7x7_s2
I0718 14:32:08.701879 33611 net.cpp:106] Creating Layer conv1/7x7_s2
I0718 14:32:08.701887 33611 net.cpp:454] conv1/7x7_s2 <- data
I0718 14:32:08.701900 33611 net.cpp:411] conv1/7x7_s2 -> conv1/7x7_s2
I0718 14:32:08.880264 33611 net.cpp:150] Setting up conv1/7x7_s2
I0718 14:32:08.880367 33611 net.cpp:157] Top shape: 4 64 500 500 (64000000)
I0718 14:32:08.880389 33611 net.cpp:165] Memory required for data: 304000048
I0718 14:32:08.880445 33611 layer_factory.hpp:76] Creating layer conv1/relu_7x7
I0718 14:32:08.880496 33611 net.cpp:106] Creating Layer conv1/relu_7x7
I0718 14:32:08.880565 33611 net.cpp:454] conv1/relu_7x7 <- conv1/7x7_s2
I0718 14:32:08.880592 33611 net.cpp:397] conv1/relu_7x7 -> conv1/7x7_s2 (in-place)
I0718 14:32:08.880981 33611 net.cpp:150] Setting up conv1/relu_7x7
I0718 14:32:08.881016 33611 net.cpp:157] Top shape: 4 64 500 500 (64000000)
I0718 14:32:08.881038 33611 net.cpp:165] Memory required for data: 560000048
I0718 14:32:08.881062 33611 layer_factory.hpp:76] Creating layer pool1/3x3_s2
I0718 14:32:08.881093 33611 net.cpp:106] Creating Layer pool1/3x3_s2
I0718 14:32:08.881119 33611 net.cpp:454] pool1/3x3_s2 <- conv1/7x7_s2
I0718 14:32:08.881147 33611 net.cpp:411] pool1/3x3_s2 -> pool1/3x3_s2
I0718 14:32:08.881893 33611 net.cpp:150] Setting up pool1/3x3_s2
I0718 14:32:08.881934 33611 net.cpp:157] Top shape: 4 64 250 250 (16000000)
I0718 14:32:08.881959 33611 net.cpp:165] Memory required for data: 624000048
I0718 14:32:08.881995 33611 layer_factory.hpp:76] Creating layer pool1/norm1
I0718 14:32:08.882052 33611 net.cpp:106] Creating Layer pool1/norm1
I0718 14:32:08.882077 33611 net.cpp:454] pool1/norm1 <- pool1/3x3_s2
I0718 14:32:08.882105 33611 net.cpp:411] pool1/norm1 -> pool1/norm1
I0718 14:32:08.882520 33611 net.cpp:150] Setting up pool1/norm1
I0718 14:32:08.882558 33611 net.cpp:157] Top shape: 4 64 250 250 (16000000)
I0718 14:32:08.882580 33611 net.cpp:165] Memory required for data: 688000048
I0718 14:32:08.882601 33611 layer_factory.hpp:76] Creating layer conv2/3x3_reduce
I0718 14:32:08.882660 33611 net.cpp:106] Creating Layer conv2/3x3_reduce
I0718 14:32:08.882688 33611 net.cpp:454] conv2/3x3_reduce <- pool1/norm1
I0718 14:32:08.882719 33611 net.cpp:411] conv2/3x3_reduce -> conv2/3x3_reduce
I0718 14:32:08.887512 33611 cudnn_conv_layer.cpp:194] Reallocating workspace storage: 768
I0718 14:32:08.887627 33611 net.cpp:150] Setting up conv2/3x3_reduce
I0718 14:32:08.887670 33611 net.cpp:157] Top shape: 4 64 250 250 (16000000)
I0718 14:32:08.887694 33611 net.cpp:165] Memory required for data: 752000048
I0718 14:32:08.887743 33611 layer_factory.hpp:76] Creating layer conv2/relu_3x3_reduce
I0718 14:32:08.887787 33611 net.cpp:106] Creating Layer conv2/relu_3x3_reduce
I0718 14:32:08.887814 33611 net.cpp:454] conv2/relu_3x3_reduce <- conv2/3x3_reduce
I0718 14:32:08.887845 33611 net.cpp:397] conv2/relu_3x3_reduce -> conv2/3x3_reduce (in-place)
I0718 14:32:08.888440 33611 net.cpp:150] Setting up conv2/relu_3x3_reduce
I0718 14:32:08.888476 33611 net.cpp:157] Top shape: 4 64 250 250 (16000000)
I0718 14:32:08.888495 33611 net.cpp:165] Memory required for data: 816000048
I0718 14:32:08.888514 33611 layer_factory.hpp:76] Creating layer conv2/3x3
I0718 14:32:08.888556 33611 net.cpp:106] Creating Layer conv2/3x3
I0718 14:32:08.888581 33611 net.cpp:454] conv2/3x3 <- conv2/3x3_reduce
I0718 14:32:08.888607 33611 net.cpp:411] conv2/3x3 -> conv2/3x3
I0718 14:32:08.892493 33611 cudnn_conv_layer.cpp:194] Reallocating workspace storage: 6912
I0718 14:32:08.892866 33611 net.cpp:150] Setting up conv2/3x3
I0718 14:32:08.892907 33611 net.cpp:157] Top shape: 4 192 250 250 (48000000)
I0718 14:32:08.892935 33611 net.cpp:165] Memory required for data: 1008000048
I0718 14:32:08.892976 33611 layer_factory.hpp:76] Creating layer conv2/relu_3x3
I0718 14:32:08.893021 33611 net.cpp:106] Creating Layer conv2/relu_3x3
I0718 14:32:08.893048 33611 net.cpp:454] conv2/relu_3x3 <- conv2/3x3
I0718 14:32:08.893079 33611 net.cpp:397] conv2/relu_3x3 -> conv2/3x3 (in-place)
I0718 14:32:08.893396 33611 net.cpp:150] Setting up conv2/relu_3x3
I0718 14:32:08.893425 33611 net.cpp:157] Top shape: 4 192 250 250 (48000000)
I0718 14:32:08.893442 33611 net.cpp:165] Memory required for data: 1200000048
I0718 14:32:08.893456 33611 layer_factory.hpp:76] Creating layer conv2/norm2
I0718 14:32:08.893483 33611 net.cpp:106] Creating Layer conv2/norm2
I0718 14:32:08.893501 33611 net.cpp:454] conv2/norm2 <- conv2/3x3
I0718 14:32:08.893529 33611 net.cpp:411] conv2/norm2 -> conv2/norm2
I0718 14:32:08.894093 33611 net.cpp:150] Setting up conv2/norm2
I0718 14:32:08.894124 33611 net.cpp:157] Top shape: 4 192 250 250 (48000000)
I0718 14:32:08.894186 33611 net.cpp:165] Memory required for data: 1392000048
I0718 14:32:08.894203 33611 layer_factory.hpp:76] Creating layer pool2/3x3_s2
I0718 14:32:08.894224 33611 net.cpp:106] Creating Layer pool2/3x3_s2
I0718 14:32:08.894240 33611 net.cpp:454] pool2/3x3_s2 <- conv2/norm2
I0718 14:32:08.894263 33611 net.cpp:411] pool2/3x3_s2 -> pool2/3x3_s2
I0718 14:32:08.894608 33611 net.cpp:150] Setting up pool2/3x3_s2
I0718 14:32:08.894644 33611 net.cpp:157] Top shape: 4 192 125 125 (12000000)
I0718 14:32:08.894660 33611 net.cpp:165] Memory required for data: 1440000048
I0718 14:32:08.894676 33611 layer_factory.hpp:76] Creating layer pool2/3x3_s2_pool2/3x3_s2_0_split
I0718 14:32:08.894701 33611 net.cpp:106] Creating Layer pool2/3x3_s2_pool2/3x3_s2_0_split
I0718 14:32:08.894731 33611 net.cpp:454] pool2/3x3_s2_pool2/3x3_s2_0_split <- pool2/3x3_s2
I0718 14:32:08.894749 33611 net.cpp:411] pool2/3x3_s2_pool2/3x3_s2_0_split -> pool2/3x3_s2_pool2/3x3_s2_0_split_0
I0718 14:32:08.894767 33611 net.cpp:411] pool2/3x3_s2_pool2/3x3_s2_0_split -> pool2/3x3_s2_pool2/3x3_s2_0_split_1
I0718 14:32:08.894786 33611 net.cpp:411] pool2/3x3_s2_pool2/3x3_s2_0_split -> pool2/3x3_s2_pool2/3x3_s2_0_split_2
I0718 14:32:08.894801 33611 net.cpp:411] pool2/3x3_s2_pool2/3x3_s2_0_split -> pool2/3x3_s2_pool2/3x3_s2_0_split_3
I0718 14:32:08.894973 33611 net.cpp:150] Setting up pool2/3x3_s2_pool2/3x3_s2_0_split
I0718 14:32:08.895021 33611 net.cpp:157] Top shape: 4 192 125 125 (12000000)
I0718 14:32:08.895059 33611 net.cpp:157] Top shape: 4 192 125 125 (12000000)
I0718 14:32:08.895098 33611 net.cpp:157] Top shape: 4 192 125 125 (12000000)
I0718 14:32:08.895138 33611 net.cpp:157] Top shape: 4 192 125 125 (12000000)
I0718 14:32:08.895174 33611 net.cpp:165] Memory required for data: 1632000048
I0718 14:32:08.895211 33611 layer_factory.hpp:76] Creating layer inception_3a/1x1
I0718 14:32:08.895278 33611 net.cpp:106] Creating Layer inception_3a/1x1
I0718 14:32:08.895316 33611 net.cpp:454] inception_3a/1x1 <- pool2/3x3_s2_pool2/3x3_s2_0_split_0
I0718 14:32:08.895366 33611 net.cpp:411] inception_3a/1x1 -> inception_3a/1x1
I0718 14:32:08.897794 33611 net.cpp:150] Setting up inception_3a/1x1
I0718 14:32:08.897836 33611 net.cpp:157] Top shape: 4 64 125 125 (4000000)
I0718 14:32:08.897851 33611 net.cpp:165] Memory required for data: 1648000048
I0718 14:32:08.897872 33611 layer_factory.hpp:76] Creating layer inception_3a/relu_1x1
I0718 14:32:08.897897 33611 net.cpp:106] Creating Layer inception_3a/relu_1x1
I0718 14:32:08.897912 33611 net.cpp:454] inception_3a/relu_1x1 <- inception_3a/1x1
I0718 14:32:08.897929 33611 net.cpp:397] inception_3a/relu_1x1 -> inception_3a/1x1 (in-place)
I0718 14:32:08.898388 33611 net.cpp:150] Setting up inception_3a/relu_1x1
I0718 14:32:08.898421 33611 net.cpp:157] Top shape: 4 64 125 125 (4000000)
I0718 14:32:08.898448 33611 net.cpp:165] Memory required for data: 1664000048
I0718 14:32:08.898468 33611 layer_factory.hpp:76] Creating layer inception_3a/3x3_reduce
I0718 14:32:08.898515 33611 net.cpp:106] Creating Layer inception_3a/3x3_reduce
I0718 14:32:08.898545 33611 net.cpp:454] inception_3a/3x3_reduce <- pool2/3x3_s2_pool2/3x3_s2_0_split_1
I0718 14:32:08.898581 33611 net.cpp:411] inception_3a/3x3_reduce -> inception_3a/3x3_reduce
I0718 14:32:08.900140 33611 cudnn_conv_layer.cpp:194] Reallocating workspace storage: 2304
I0718 14:32:08.900501 33611 net.cpp:150] Setting up inception_3a/3x3_reduce
I0718 14:32:08.900529 33611 net.cpp:157] Top shape: 4 96 125 125 (6000000)
I0718 14:32:08.900543 33611 net.cpp:165] Memory required for data: 1688000048
I0718 14:32:08.900568 33611 layer_factory.hpp:76] Creating layer inception_3a/relu_3x3_reduce
I0718 14:32:08.900593 33611 net.cpp:106] Creating Layer inception_3a/relu_3x3_reduce
I0718 14:32:08.900610 33611 net.cpp:454] inception_3a/relu_3x3_reduce <- inception_3a/3x3_reduce
I0718 14:32:08.900627 33611 net.cpp:397] inception_3a/relu_3x3_reduce -> inception_3a/3x3_reduce (in-place)
I0718 14:32:08.901072 33611 net.cpp:150] Setting up inception_3a/relu_3x3_reduce
I0718 14:32:08.901103 33611 net.cpp:157] Top shape: 4 96 125 125 (6000000)
I0718 14:32:08.901149 33611 net.cpp:165] Memory required for data: 1712000048
I0718 14:32:08.901165 33611 layer_factory.hpp:76] Creating layer inception_3a/3x3
I0718 14:32:08.901185 33611 net.cpp:106] Creating Layer inception_3a/3x3
I0718 14:32:08.901198 33611 net.cpp:454] inception_3a/3x3 <- inception_3a/3x3_reduce
I0718 14:32:08.901222 33611 net.cpp:411] inception_3a/3x3 -> inception_3a/3x3
I0718 14:32:08.904063 33611 cudnn_conv_layer.cpp:194] Reallocating workspace storage: 10368
I0718 14:32:08.904121 33611 net.cpp:150] Setting up inception_3a/3x3
I0718 14:32:08.904145 33611 net.cpp:157] Top shape: 4 128 125 125 (8000000)
I0718 14:32:08.904160 33611 net.cpp:165] Memory required for data: 1744000048
I0718 14:32:08.904177 33611 layer_factory.hpp:76] Creating layer inception_3a/relu_3x3
I0718 14:32:08.904196 33611 net.cpp:106] Creating Layer inception_3a/relu_3x3
I0718 14:32:08.904211 33611 net.cpp:454] inception_3a/relu_3x3 <- inception_3a/3x3
I0718 14:32:08.904235 33611 net.cpp:397] inception_3a/relu_3x3 -> inception_3a/3x3 (in-place)
I0718 14:32:08.904477 33611 net.cpp:150] Setting up inception_3a/relu_3x3
I0718 14:32:08.904501 33611 net.cpp:157] Top shape: 4 128 125 125 (8000000)
I0718 14:32:08.904516 33611 net.cpp:165] Memory required for data: 1776000048
I0718 14:32:08.904530 33611 layer_factory.hpp:76] Creating layer inception_3a/5x5_reduce
I0718 14:32:08.904552 33611 net.cpp:106] Creating Layer inception_3a/5x5_reduce
I0718 14:32:08.904567 33611 net.cpp:454] inception_3a/5x5_reduce <- pool2/3x3_s2_pool2/3x3_s2_0_split_2
I0718 14:32:08.904587 33611 net.cpp:411] inception_3a/5x5_reduce -> inception_3a/5x5_reduce
I0718 14:32:08.906400 33611 net.cpp:150] Setting up inception_3a/5x5_reduce
I0718 14:32:08.906430 33611 net.cpp:157] Top shape: 4 16 125 125 (1000000)
I0718 14:32:08.906445 33611 net.cpp:165] Memory required for data: 1780000048
I0718 14:32:08.906461 33611 layer_factory.hpp:76] Creating layer inception_3a/relu_5x5_reduce
I0718 14:32:08.906483 33611 net.cpp:106] Creating Layer inception_3a/relu_5x5_reduce
I0718 14:32:08.906497 33611 net.cpp:454] inception_3a/relu_5x5_reduce <- inception_3a/5x5_reduce
I0718 14:32:08.906513 33611 net.cpp:397] inception_3a/relu_5x5_reduce -> inception_3a/5x5_reduce (in-place)
I0718 14:32:08.907070 33611 net.cpp:150] Setting up inception_3a/relu_5x5_reduce
I0718 14:32:08.907099 33611 net.cpp:157] Top shape: 4 16 125 125 (1000000)
I0718 14:32:08.907111 33611 net.cpp:165] Memory required for data: 1784000048
I0718 14:32:08.907125 33611 layer_factory.hpp:76] Creating layer inception_3a/5x5
I0718 14:32:08.907152 33611 net.cpp:106] Creating Layer inception_3a/5x5
I0718 14:32:08.907166 33611 net.cpp:454] inception_3a/5x5 <- inception_3a/5x5_reduce
I0718 14:32:08.907184 33611 net.cpp:411] inception_3a/5x5 -> inception_3a/5x5
I0718 14:32:08.908699 33611 net.cpp:150] Setting up inception_3a/5x5
I0718 14:32:08.908727 33611 net.cpp:157] Top shape: 4 32 125 125 (2000000)
I0718 14:32:08.908741 33611 net.cpp:165] Memory required for data: 1792000048
I0718 14:32:08.908759 33611 layer_factory.hpp:76] Creating layer inception_3a/relu_5x5
I0718 14:32:08.908779 33611 net.cpp:106] Creating Layer inception_3a/relu_5x5
I0718 14:32:08.908793 33611 net.cpp:454] inception_3a/relu_5x5 <- inception_3a/5x5
I0718 14:32:08.908812 33611 net.cpp:397] inception_3a/relu_5x5 -> inception_3a/5x5 (in-place)
I0718 14:32:08.909240 33611 net.cpp:150] Setting up inception_3a/relu_5x5
I0718 14:32:08.909267 33611 net.cpp:157] Top shape: 4 32 125 125 (2000000)
I0718 14:32:08.909292 33611 net.cpp:165] Memory required for data: 1800000048
I0718 14:32:08.909307 33611 layer_factory.hpp:76] Creating layer inception_3a/pool
I0718 14:32:08.909328 33611 net.cpp:106] Creating Layer inception_3a/pool
I0718 14:32:08.909354 33611 net.cpp:454] inception_3a/pool <- pool2/3x3_s2_pool2/3x3_s2_0_split_3
I0718 14:32:08.909375 33611 net.cpp:411] inception_3a/pool -> inception_3a/pool
I0718 14:32:08.909660 33611 net.cpp:150] Setting up inception_3a/pool
I0718 14:32:08.909685 33611 net.cpp:157] Top shape: 4 192 125 125 (12000000)
I0718 14:32:08.909726 33611 net.cpp:165] Memory required for data: 1848000048
I0718 14:32:08.909740 33611 layer_factory.hpp:76] Creating layer inception_3a/pool_proj
I0718 14:32:08.909764 33611 net.cpp:106] Creating Layer inception_3a/pool_proj
I0718 14:32:08.909777 33611 net.cpp:454] inception_3a/pool_proj <- inception_3a/pool
I0718 14:32:08.909798 33611 net.cpp:411] inception_3a/pool_proj -> inception_3a/pool_proj
I0718 14:32:08.911432 33611 net.cpp:150] Setting up inception_3a/pool_proj
I0718 14:32:08.911461 33611 net.cpp:157] Top shape: 4 32 125 125 (2000000)
I0718 14:32:08.911491 33611 net.cpp:165] Memory required for data: 1856000048
I0718 14:32:08.911536 33611 layer_factory.hpp:76] Creating layer inception_3a/relu_pool_proj
I0718 14:32:08.911574 33611 net.cpp:106] Creating Layer inception_3a/relu_pool_proj
I0718 14:32:08.911602 33611 net.cpp:454] inception_3a/relu_pool_proj <- inception_3a/pool_proj
I0718 14:32:08.911634 33611 net.cpp:397] inception_3a/relu_pool_proj -> inception_3a/pool_proj (in-place)
I0718 14:32:08.912123 33611 net.cpp:150] Setting up inception_3a/relu_pool_proj
I0718 14:32:08.912153 33611 net.cpp:157] Top shape: 4 32 125 125 (2000000)
I0718 14:32:08.912165 33611 net.cpp:165] Memory required for data: 1864000048
I0718 14:32:08.912181 33611 layer_factory.hpp:76] Creating layer inception_3a/output
I0718 14:32:08.912209 33611 net.cpp:106] Creating Layer inception_3a/output
I0718 14:32:08.912222 33611 net.cpp:454] inception_3a/output <- inception_3a/1x1
I0718 14:32:08.912237 33611 net.cpp:454] inception_3a/output <- inception_3a/3x3
I0718 14:32:08.912252 33611 net.cpp:454] inception_3a/output <- inception_3a/5x5
I0718 14:32:08.912266 33611 net.cpp:454] inception_3a/output <- inception_3a/pool_proj
I0718 14:32:08.912283 33611 net.cpp:411] inception_3a/output -> inception_3a/output
I0718 14:32:08.912333 33611 net.cpp:150] Setting up inception_3a/output
I0718 14:32:08.912353 33611 net.cpp:157] Top shape: 4 256 125 125 (16000000)
I0718 14:32:08.912365 33611 net.cpp:165] Memory required for data: 1928000048
I0718 14:32:08.912379 33611 layer_factory.hpp:76] Creating layer inception_3a/output_inception_3a/output_0_split
I0718 14:32:08.912402 33611 net.cpp:106] Creating Layer inception_3a/output_inception_3a/output_0_split
I0718 14:32:08.912417 33611 net.cpp:454] inception_3a/output_inception_3a/output_0_split <- inception_3a/output
I0718 14:32:08.912436 33611 net.cpp:411] inception_3a/output_inception_3a/output_0_split -> inception_3a/output_inception_3a/output_0_split_0
I0718 14:32:08.912452 33611 net.cpp:411] inception_3a/output_inception_3a/output_0_split -> inception_3a/output_inception_3a/output_0_split_1
I0718 14:32:08.912469 33611 net.cpp:411] inception_3a/output_inception_3a/output_0_split -> inception_3a/output_inception_3a/output_0_split_2
I0718 14:32:08.912488 33611 net.cpp:411] inception_3a/output_inception_3a/output_0_split -> inception_3a/output_inception_3a/output_0_split_3
I0718 14:32:08.912581 33611 net.cpp:150] Setting up inception_3a/output_inception_3a/output_0_split
I0718 14:32:08.912600 33611 net.cpp:157] Top shape: 4 256 125 125 (16000000)
I0718 14:32:08.912616 33611 net.cpp:157] Top shape: 4 256 125 125 (16000000)
I0718 14:32:08.912631 33611 net.cpp:157] Top shape: 4 256 125 125 (16000000)
I0718 14:32:08.912647 33611 net.cpp:157] Top shape: 4 256 125 125 (16000000)
I0718 14:32:08.912658 33611 net.cpp:165] Memory required for data: 2184000048
I0718 14:32:08.912670 33611 layer_factory.hpp:76] Creating layer inception_3b/1x1
I0718 14:32:08.912691 33611 net.cpp:106] Creating Layer inception_3b/1x1
I0718 14:32:08.912704 33611 net.cpp:454] inception_3b/1x1 <- inception_3a/output_inception_3a/output_0_split_0
I0718 14:32:08.912724 33611 net.cpp:411] inception_3b/1x1 -> inception_3b/1x1
I0718 14:32:08.914511 33611 cudnn_conv_layer.cpp:194] Reallocating workspace storage: 3072
I0718 14:32:08.914561 33611 net.cpp:150] Setting up inception_3b/1x1
I0718 14:32:08.914582 33611 net.cpp:157] Top shape: 4 128 125 125 (8000000)
I0718 14:32:08.914595 33611 net.cpp:165] Memory required for data: 2216000048
I0718 14:32:08.914650 33611 layer_factory.hpp:76] Creating layer inception_3b/relu_1x1
I0718 14:32:08.914671 33611 net.cpp:106] Creating Layer inception_3b/relu_1x1
I0718 14:32:08.914686 33611 net.cpp:454] inception_3b/relu_1x1 <- inception_3b/1x1
I0718 14:32:08.914702 33611 net.cpp:397] inception_3b/relu_1x1 -> inception_3b/1x1 (in-place)
I0718 14:32:08.915105 33611 net.cpp:150] Setting up inception_3b/relu_1x1
I0718 14:32:08.915129 33611 net.cpp:157] Top shape: 4 128 125 125 (8000000)
I0718 14:32:08.915143 33611 net.cpp:165] Memory required for data: 2248000048
I0718 14:32:08.915163 33611 layer_factory.hpp:76] Creating layer inception_3b/3x3_reduce
I0718 14:32:08.915187 33611 net.cpp:106] Creating Layer inception_3b/3x3_reduce
I0718 14:32:08.915200 33611 net.cpp:454] inception_3b/3x3_reduce <- inception_3a/output_inception_3a/output_0_split_1
I0718 14:32:08.915221 33611 net.cpp:411] inception_3b/3x3_reduce -> inception_3b/3x3_reduce
I0718 14:32:08.917143 33611 cudnn_conv_layer.cpp:194] Reallocating workspace storage: 3072
I0718 14:32:08.917187 33611 net.cpp:150] Setting up inception_3b/3x3_reduce
I0718 14:32:08.917208 33611 net.cpp:157] Top shape: 4 128 125 125 (8000000)
I0718 14:32:08.917222 33611 net.cpp:165] Memory required for data: 2280000048
I0718 14:32:08.917240 33611 layer_factory.hpp:76] Creating layer inception_3b/relu_3x3_reduce
I0718 14:32:08.917258 33611 net.cpp:106] Creating Layer inception_3b/relu_3x3_reduce
I0718 14:32:08.917271 33611 net.cpp:454] inception_3b/relu_3x3_reduce <- inception_3b/3x3_reduce
I0718 14:32:08.917289 33611 net.cpp:397] inception_3b/relu_3x3_reduce -> inception_3b/3x3_reduce (in-place)
I0718 14:32:08.917557 33611 net.cpp:150] Setting up inception_3b/relu_3x3_reduce
I0718 14:32:08.917593 33611 net.cpp:157] Top shape: 4 128 125 125 (8000000)
I0718 14:32:08.917608 33611 net.cpp:165] Memory required for data: 2312000048
I0718 14:32:08.917623 33611 layer_factory.hpp:76] Creating layer inception_3b/3x3
I0718 14:32:08.917650 33611 net.cpp:106] Creating Layer inception_3b/3x3
I0718 14:32:08.917665 33611 net.cpp:454] inception_3b/3x3 <- inception_3b/3x3_reduce
I0718 14:32:08.917682 33611 net.cpp:411] inception_3b/3x3 -> inception_3b/3x3
I0718 14:32:08.922238 33611 cudnn_conv_layer.cpp:194] Reallocating workspace storage: 13824
I0718 14:32:08.922291 33611 net.cpp:150] Setting up inception_3b/3x3
I0718 14:32:08.922322 33611 net.cpp:157] Top shape: 4 192 125 125 (12000000)
I0718 14:32:08.922335 33611 net.cpp:165] Memory required for data: 2360000048
I0718 14:32:08.922353 33611 layer_factory.hpp:76] Creating layer inception_3b/relu_3x3
I0718 14:32:08.922370 33611 net.cpp:106] Creating Layer inception_3b/relu_3x3
I0718 14:32:08.922384 33611 net.cpp:454] inception_3b/relu_3x3 <- inception_3b/3x3
I0718 14:32:08.922402 33611 net.cpp:397] inception_3b/relu_3x3 -> inception_3b/3x3 (in-place)
I0718 14:32:08.922842 33611 net.cpp:150] Setting up inception_3b/relu_3x3
I0718 14:32:08.922871 33611 net.cpp:157] Top shape: 4 192 125 125 (12000000)
I0718 14:32:08.922884 33611 net.cpp:165] Memory required for data: 2408000048
I0718 14:32:08.922915 33611 layer_factory.hpp:76] Creating layer inception_3b/5x5_reduce
I0718 14:32:08.922945 33611 net.cpp:106] Creating Layer inception_3b/5x5_reduce
I0718 14:32:08.922978 33611 net.cpp:454] inception_3b/5x5_reduce <- inception_3a/output_inception_3a/output_0_split_2
I0718 14:32:08.923017 33611 net.cpp:411] inception_3b/5x5_reduce -> inception_3b/5x5_reduce
I0718 14:32:08.924747 33611 cudnn_conv_layer.cpp:194] Reallocating workspace storage: 3072
I0718 14:32:08.924799 33611 net.cpp:150] Setting up inception_3b/5x5_reduce
I0718 14:32:08.924830 33611 net.cpp:157] Top shape: 4 32 125 125 (2000000)
I0718 14:32:08.924849 33611 net.cpp:165] Memory required for data: 2416000048
I0718 14:32:08.924872 33611 layer_factory.hpp:76] Creating layer inception_3b/relu_5x5_reduce
I0718 14:32:08.924906 33611 net.cpp:106] Creating Layer inception_3b/relu_5x5_reduce
I0718 14:32:08.924926 33611 net.cpp:454] inception_3b/relu_5x5_reduce <- inception_3b/5x5_reduce
I0718 14:32:08.924973 33611 net.cpp:397] inception_3b/relu_5x5_reduce -> inception_3b/5x5_reduce (in-place)
I0718 14:32:08.925228 33611 net.cpp:150] Setting up inception_3b/relu_5x5_reduce
I0718 14:32:08.925252 33611 net.cpp:157] Top shape: 4 32 125 125 (2000000)
I0718 14:32:08.925266 33611 net.cpp:165] Memory required for data: 2424000048
I0718 14:32:08.925278 33611 layer_factory.hpp:76] Creating layer inception_3b/5x5
I0718 14:32:08.925299 33611 net.cpp:106] Creating Layer inception_3b/5x5
I0718 14:32:08.925313 33611 net.cpp:454] inception_3b/5x5 <- inception_3b/5x5_reduce
I0718 14:32:08.925331 33611 net.cpp:411] inception_3b/5x5 -> inception_3b/5x5
I0718 14:32:08.928485 33611 net.cpp:150] Setting up inception_3b/5x5
I0718 14:32:08.928517 33611 net.cpp:157] Top shape: 4 96 125 125 (6000000)
I0718 14:32:08.928531 33611 net.cpp:165] Memory required for data: 2448000048
I0718 14:32:08.928550 33611 layer_factory.hpp:76] Creating layer inception_3b/relu_5x5
I0718 14:32:08.928565 33611 net.cpp:106] Creating Layer inception_3b/relu_5x5
I0718 14:32:08.928580 33611 net.cpp:454] inception_3b/relu_5x5 <- inception_3b/5x5
I0718 14:32:08.928598 33611 net.cpp:397] inception_3b/relu_5x5 -> inception_3b/5x5 (in-place)
I0718 14:32:08.928848 33611 net.cpp:150] Setting up inception_3b/relu_5x5
I0718 14:32:08.928871 33611 net.cpp:157] Top shape: 4 96 125 125 (6000000)
I0718 14:32:08.928884 33611 net.cpp:165] Memory required for data: 2472000048
I0718 14:32:08.928897 33611 layer_factory.hpp:76] Creating layer inception_3b/pool
I0718 14:32:08.928917 33611 net.cpp:106] Creating Layer inception_3b/pool
I0718 14:32:08.928931 33611 net.cpp:454] inception_3b/pool <- inception_3a/output_inception_3a/output_0_split_3
I0718 14:32:08.928948 33611 net.cpp:411] inception_3b/pool -> inception_3b/pool
I0718 14:32:08.929528 33611 net.cpp:150] Setting up inception_3b/pool
I0718 14:32:08.929566 33611 net.cpp:157] Top shape: 4 256 125 125 (16000000)
I0718 14:32:08.929587 33611 net.cpp:165] Memory required for data: 2536000048
I0718 14:32:08.929608 33611 layer_factory.hpp:76] Creating layer inception_3b/pool_proj
I0718 14:32:08.929639 33611 net.cpp:106] Creating Layer inception_3b/pool_proj
I0718 14:32:08.929659 33611 net.cpp:454] inception_3b/pool_proj <- inception_3b/pool
I0718 14:32:08.929685 33611 net.cpp:411] inception_3b/pool_proj -> inception_3b/pool_proj
I0718 14:32:08.931715 33611 cudnn_conv_layer.cpp:194] Reallocating workspace storage: 3072
I0718 14:32:08.931757 33611 net.cpp:150] Setting up inception_3b/pool_proj
I0718 14:32:08.931779 33611 net.cpp:157] Top shape: 4 64 125 125 (4000000)
I0718 14:32:08.931793 33611 net.cpp:165] Memory required for data: 2552000048
I0718 14:32:08.931812 33611 layer_factory.hpp:76] Creating layer inception_3b/relu_pool_proj
I0718 14:32:08.931833 33611 net.cpp:106] Creating Layer inception_3b/relu_pool_proj
I0718 14:32:08.931852 33611 net.cpp:454] inception_3b/relu_pool_proj <- inception_3b/pool_proj
I0718 14:32:08.931869 33611 net.cpp:397] inception_3b/relu_pool_proj -> inception_3b/pool_proj (in-place)
I0718 14:32:08.932132 33611 net.cpp:150] Setting up inception_3b/relu_pool_proj
I0718 14:32:08.932157 33611 net.cpp:157] Top shape: 4 64 125 125 (4000000)
I0718 14:32:08.932173 33611 net.cpp:165] Memory required for data: 2568000048
I0718 14:32:08.932185 33611 layer_factory.hpp:76] Creating layer inception_3b/output
I0718 14:32:08.932204 33611 net.cpp:106] Creating Layer inception_3b/output
I0718 14:32:08.932217 33611 net.cpp:454] inception_3b/output <- inception_3b/1x1
I0718 14:32:08.932232 33611 net.cpp:454] inception_3b/output <- inception_3b/3x3
I0718 14:32:08.932247 33611 net.cpp:454] inception_3b/output <- inception_3b/5x5
I0718 14:32:08.932262 33611 net.cpp:454] inception_3b/output <- inception_3b/pool_proj
I0718 14:32:08.932284 33611 net.cpp:411] inception_3b/output -> inception_3b/output
I0718 14:32:08.932338 33611 net.cpp:150] Setting up inception_3b/output
I0718 14:32:08.932359 33611 net.cpp:157] Top shape: 4 480 125 125 (30000000)
I0718 14:32:08.932373 33611 net.cpp:165] Memory required for data: 2688000048
I0718 14:32:08.932405 33611 layer_factory.hpp:76] Creating layer pool3/3x3_s2
I0718 14:32:08.932423 33611 net.cpp:106] Creating Layer pool3/3x3_s2
I0718 14:32:08.932437 33611 net.cpp:454] pool3/3x3_s2 <- inception_3b/output
I0718 14:32:08.932453 33611 net.cpp:411] pool3/3x3_s2 -> pool3/3x3_s2
I0718 14:32:08.933065 33611 net.cpp:150] Setting up pool3/3x3_s2
I0718 14:32:08.933094 33611 net.cpp:157] Top shape: 4 480 62 62 (7380480)
I0718 14:32:08.933109 33611 net.cpp:165] Memory required for data: 2717521968
I0718 14:32:08.933123 33611 layer_factory.hpp:76] Creating layer pool3/3x3_s2_pool3/3x3_s2_0_split
I0718 14:32:08.933141 33611 net.cpp:106] Creating Layer pool3/3x3_s2_pool3/3x3_s2_0_split
I0718 14:32:08.933156 33611 net.cpp:454] pool3/3x3_s2_pool3/3x3_s2_0_split <- pool3/3x3_s2
I0718 14:32:08.933172 33611 net.cpp:411] pool3/3x3_s2_pool3/3x3_s2_0_split -> pool3/3x3_s2_pool3/3x3_s2_0_split_0
I0718 14:32:08.933194 33611 net.cpp:411] pool3/3x3_s2_pool3/3x3_s2_0_split -> pool3/3x3_s2_pool3/3x3_s2_0_split_1
I0718 14:32:08.933214 33611 net.cpp:411] pool3/3x3_s2_pool3/3x3_s2_0_split -> pool3/3x3_s2_pool3/3x3_s2_0_split_2
I0718 14:32:08.933233 33611 net.cpp:411] pool3/3x3_s2_pool3/3x3_s2_0_split -> pool3/3x3_s2_pool3/3x3_s2_0_split_3
I0718 14:32:08.933331 33611 net.cpp:150] Setting up pool3/3x3_s2_pool3/3x3_s2_0_split
I0718 14:32:08.933352 33611 net.cpp:157] Top shape: 4 480 62 62 (7380480)
I0718 14:32:08.933367 33611 net.cpp:157] Top shape: 4 480 62 62 (7380480)
I0718 14:32:08.933382 33611 net.cpp:157] Top shape: 4 480 62 62 (7380480)
I0718 14:32:08.933398 33611 net.cpp:157] Top shape: 4 480 62 62 (7380480)
I0718 14:32:08.933411 33611 net.cpp:165] Memory required for data: 2835609648
I0718 14:32:08.933425 33611 layer_factory.hpp:76] Creating layer inception_4a/1x1
I0718 14:32:08.933454 33611 net.cpp:106] Creating Layer inception_4a/1x1
I0718 14:32:08.933471 33611 net.cpp:454] inception_4a/1x1 <- pool3/3x3_s2_pool3/3x3_s2_0_split_0
I0718 14:32:08.933492 33611 net.cpp:411] inception_4a/1x1 -> inception_4a/1x1
I0718 14:32:08.935925 33611 cudnn_conv_layer.cpp:194] Reallocating workspace storage: 5760
I0718 14:32:08.935973 33611 net.cpp:150] Setting up inception_4a/1x1
I0718 14:32:08.935994 33611 net.cpp:157] Top shape: 4 192 62 62 (2952192)
I0718 14:32:08.936009 33611 net.cpp:165] Memory required for data: 2847418416
I0718 14:32:08.936028 33611 layer_factory.hpp:76] Creating layer inception_4a/relu_1x1
I0718 14:32:08.936058 33611 net.cpp:106] Creating Layer inception_4a/relu_1x1
I0718 14:32:08.936102 33611 net.cpp:454] inception_4a/relu_1x1 <- inception_4a/1x1
I0718 14:32:08.936137 33611 net.cpp:397] inception_4a/relu_1x1 -> inception_4a/1x1 (in-place)
I0718 14:32:08.936554 33611 net.cpp:150] Setting up inception_4a/relu_1x1
I0718 14:32:08.936580 33611 net.cpp:157] Top shape: 4 192 62 62 (2952192)
I0718 14:32:08.936594 33611 net.cpp:165] Memory required for data: 2859227184
I0718 14:32:08.936609 33611 layer_factory.hpp:76] Creating layer inception_4a/3x3_reduce
I0718 14:32:08.936635 33611 net.cpp:106] Creating Layer inception_4a/3x3_reduce
I0718 14:32:08.936652 33611 net.cpp:454] inception_4a/3x3_reduce <- pool3/3x3_s2_pool3/3x3_s2_0_split_1
I0718 14:32:08.936671 33611 net.cpp:411] inception_4a/3x3_reduce -> inception_4a/3x3_reduce
I0718 14:32:08.938959 33611 cudnn_conv_layer.cpp:194] Reallocating workspace storage: 5760
I0718 14:32:08.939030 33611 net.cpp:150] Setting up inception_4a/3x3_reduce
I0718 14:32:08.939054 33611 net.cpp:157] Top shape: 4 96 62 62 (1476096)
I0718 14:32:08.939069 33611 net.cpp:165] Memory required for data: 2865131568
I0718 14:32:08.939102 33611 layer_factory.hpp:76] Creating layer inception_4a/relu_3x3_reduce
I0718 14:32:08.939126 33611 net.cpp:106] Creating Layer inception_4a/relu_3x3_reduce
I0718 14:32:08.939144 33611 net.cpp:454] inception_4a/relu_3x3_reduce <- inception_4a/3x3_reduce
I0718 14:32:08.939165 33611 net.cpp:397] inception_4a/relu_3x3_reduce -> inception_4a/3x3_reduce (in-place)
I0718 14:32:08.939429 33611 net.cpp:150] Setting up inception_4a/relu_3x3_reduce
I0718 14:32:08.939494 33611 net.cpp:157] Top shape: 4 96 62 62 (1476096)
I0718 14:32:08.939512 33611 net.cpp:165] Memory required for data: 2871035952
I0718 14:32:08.939527 33611 layer_factory.hpp:76] Creating layer inception_4a/3x3
I0718 14:32:08.939553 33611 net.cpp:106] Creating Layer inception_4a/3x3
I0718 14:32:08.939574 33611 net.cpp:454] inception_4a/3x3 <- inception_4a/3x3_reduce
I0718 14:32:08.939596 33611 net.cpp:411] inception_4a/3x3 -> inception_4a/3x3
I0718 14:32:08.944743 33611 net.cpp:150] Setting up inception_4a/3x3
I0718 14:32:08.944841 33611 net.cpp:157] Top shape: 4 208 62 62 (3198208)
I0718 14:32:08.944864 33611 net.cpp:165] Memory required for data: 2883828784
I0718 14:32:08.944897 33611 layer_factory.hpp:76] Creating layer inception_4a/relu_3x3
I0718 14:32:08.944948 33611 net.cpp:106] Creating Layer inception_4a/relu_3x3
I0718 14:32:08.945051 33611 net.cpp:454] inception_4a/relu_3x3 <- inception_4a/3x3
I0718 14:32:08.945140 33611 net.cpp:397] inception_4a/relu_3x3 -> inception_4a/3x3 (in-place)
I0718 14:32:08.945755 33611 net.cpp:150] Setting up inception_4a/relu_3x3
I0718 14:32:08.945785 33611 net.cpp:157] Top shape: 4 208 62 62 (3198208)
I0718 14:32:08.945802 33611 net.cpp:165] Memory required for data: 2896621616
I0718 14:32:08.945819 33611 layer_factory.hpp:76] Creating layer inception_4a/5x5_reduce
I0718 14:32:08.945860 33611 net.cpp:106] Creating Layer inception_4a/5x5_reduce
I0718 14:32:08.945881 33611 net.cpp:454] inception_4a/5x5_reduce <- pool3/3x3_s2_pool3/3x3_s2_0_split_2
I0718 14:32:08.945905 33611 net.cpp:411] inception_4a/5x5_reduce -> inception_4a/5x5_reduce
I0718 14:32:08.947931 33611 net.cpp:150] Setting up inception_4a/5x5_reduce
I0718 14:32:08.947999 33611 net.cpp:157] Top shape: 4 16 62 62 (246016)
I0718 14:32:08.948019 33611 net.cpp:165] Memory required for data: 2897605680
I0718 14:32:08.948043 33611 layer_factory.hpp:76] Creating layer inception_4a/relu_5x5_reduce
I0718 14:32:08.948076 33611 net.cpp:106] Creating Layer inception_4a/relu_5x5_reduce
I0718 14:32:08.948099 33611 net.cpp:454] inception_4a/relu_5x5_reduce <- inception_4a/5x5_reduce
I0718 14:32:08.948129 33611 net.cpp:397] inception_4a/relu_5x5_reduce -> inception_4a/5x5_reduce (in-place)
I0718 14:32:08.948415 33611 net.cpp:150] Setting up inception_4a/relu_5x5_reduce
I0718 14:32:08.948444 33611 net.cpp:157] Top shape: 4 16 62 62 (246016)
I0718 14:32:08.948467 33611 net.cpp:165] Memory required for data: 2898589744
I0718 14:32:08.948482 33611 layer_factory.hpp:76] Creating layer inception_4a/5x5
I0718 14:32:08.948513 33611 net.cpp:106] Creating Layer inception_4a/5x5
I0718 14:32:08.948539 33611 net.cpp:454] inception_4a/5x5 <- inception_4a/5x5_reduce
I0718 14:32:08.948591 33611 net.cpp:411] inception_4a/5x5 -> inception_4a/5x5
I0718 14:32:08.951901 33611 net.cpp:150] Setting up inception_4a/5x5
I0718 14:32:08.951973 33611 net.cpp:157] Top shape: 4 48 62 62 (738048)
I0718 14:32:08.951990 33611 net.cpp:165] Memory required for data: 2901541936
I0718 14:32:08.952014 33611 layer_factory.hpp:76] Creating layer inception_4a/relu_5x5
I0718 14:32:08.952046 33611 net.cpp:106] Creating Layer inception_4a/relu_5x5
I0718 14:32:08.952069 33611 net.cpp:454] inception_4a/relu_5x5 <- inception_4a/5x5
I0718 14:32:08.952116 33611 net.cpp:397] inception_4a/relu_5x5 -> inception_4a/5x5 (in-place)
I0718 14:32:08.952538 33611 net.cpp:150] Setting up inception_4a/relu_5x5
I0718 14:32:08.952564 33611 net.cpp:157] Top shape: 4 48 62 62 (738048)
I0718 14:32:08.952579 33611 net.cpp:165] Memory required for data: 2904494128
I0718 14:32:08.952594 33611 layer_factory.hpp:76] Creating layer inception_4a/pool
I0718 14:32:08.952615 33611 net.cpp:106] Creating Layer inception_4a/pool
I0718 14:32:08.952632 33611 net.cpp:454] inception_4a/pool <- pool3/3x3_s2_pool3/3x3_s2_0_split_3
I0718 14:32:08.952653 33611 net.cpp:411] inception_4a/pool -> inception_4a/pool
I0718 14:32:08.953220 33611 net.cpp:150] Setting up inception_4a/pool
I0718 14:32:08.953253 33611 net.cpp:157] Top shape: 4 480 62 62 (7380480)
I0718 14:32:08.953269 33611 net.cpp:165] Memory required for data: 2934016048
I0718 14:32:08.953318 33611 layer_factory.hpp:76] Creating layer inception_4a/pool_proj
I0718 14:32:08.953349 33611 net.cpp:106] Creating Layer inception_4a/pool_proj
I0718 14:32:08.953367 33611 net.cpp:454] inception_4a/pool_proj <- inception_4a/pool
I0718 14:32:08.953389 33611 net.cpp:411] inception_4a/pool_proj -> inception_4a/pool_proj
I0718 14:32:08.955330 33611 cudnn_conv_layer.cpp:194] Reallocating workspace storage: 5760
I0718 14:32:08.955404 33611 net.cpp:150] Setting up inception_4a/pool_proj
I0718 14:32:08.955430 33611 net.cpp:157] Top shape: 4 64 62 62 (984064)
I0718 14:32:08.955446 33611 net.cpp:165] Memory required for data: 2937952304
I0718 14:32:08.955471 33611 layer_factory.hpp:76] Creating layer inception_4a/relu_pool_proj
I0718 14:32:08.955499 33611 net.cpp:106] Creating Layer inception_4a/relu_pool_proj
I0718 14:32:08.955520 33611 net.cpp:454] inception_4a/relu_pool_proj <- inception_4a/pool_proj
I0718 14:32:08.955540 33611 net.cpp:397] inception_4a/relu_pool_proj -> inception_4a/pool_proj (in-place)
I0718 14:32:08.955812 33611 net.cpp:150] Setting up inception_4a/relu_pool_proj
I0718 14:32:08.955838 33611 net.cpp:157] Top shape: 4 64 62 62 (984064)
I0718 14:32:08.955857 33611 net.cpp:165] Memory required for data: 2941888560
I0718 14:32:08.955873 33611 layer_factory.hpp:76] Creating layer inception_4a/output
I0718 14:32:08.955896 33611 net.cpp:106] Creating Layer inception_4a/output
I0718 14:32:08.955915 33611 net.cpp:454] inception_4a/output <- inception_4a/1x1
I0718 14:32:08.955931 33611 net.cpp:454] inception_4a/output <- inception_4a/3x3
I0718 14:32:08.955947 33611 net.cpp:454] inception_4a/output <- inception_4a/5x5
I0718 14:32:08.955965 33611 net.cpp:454] inception_4a/output <- inception_4a/pool_proj
I0718 14:32:08.955982 33611 net.cpp:411] inception_4a/output -> inception_4a/output
I0718 14:32:08.956043 33611 net.cpp:150] Setting up inception_4a/output
I0718 14:32:08.956075 33611 net.cpp:157] Top shape: 4 512 62 62 (7872512)
I0718 14:32:08.956110 33611 net.cpp:165] Memory required for data: 2973378608
I0718 14:32:08.956143 33611 layer_factory.hpp:76] Creating layer inception_4a/output_inception_4a/output_0_split
I0718 14:32:08.956171 33611 net.cpp:106] Creating Layer inception_4a/output_inception_4a/output_0_split
I0718 14:32:08.956195 33611 net.cpp:454] inception_4a/output_inception_4a/output_0_split <- inception_4a/output
I0718 14:32:08.956223 33611 net.cpp:411] inception_4a/output_inception_4a/output_0_split -> inception_4a/output_inception_4a/output_0_split_0
I0718 14:32:08.956251 33611 net.cpp:411] inception_4a/output_inception_4a/output_0_split -> inception_4a/output_inception_4a/output_0_split_1
I0718 14:32:08.956276 33611 net.cpp:411] inception_4a/output_inception_4a/output_0_split -> inception_4a/output_inception_4a/output_0_split_2
I0718 14:32:08.956295 33611 net.cpp:411] inception_4a/output_inception_4a/output_0_split -> inception_4a/output_inception_4a/output_0_split_3
I0718 14:32:08.956413 33611 net.cpp:150] Setting up inception_4a/output_inception_4a/output_0_split
I0718 14:32:08.956436 33611 net.cpp:157] Top shape: 4 512 62 62 (7872512)
I0718 14:32:08.956454 33611 net.cpp:157] Top shape: 4 512 62 62 (7872512)
I0718 14:32:08.956470 33611 net.cpp:157] Top shape: 4 512 62 62 (7872512)
I0718 14:32:08.956491 33611 net.cpp:157] Top shape: 4 512 62 62 (7872512)
I0718 14:32:08.956506 33611 net.cpp:165] Memory required for data: 3099338800
I0718 14:32:08.956523 33611 layer_factory.hpp:76] Creating layer inception_4b/1x1
I0718 14:32:08.956557 33611 net.cpp:106] Creating Layer inception_4b/1x1
I0718 14:32:08.956574 33611 net.cpp:454] inception_4b/1x1 <- inception_4a/output_inception_4a/output_0_split_0
I0718 14:32:08.956593 33611 net.cpp:411] inception_4b/1x1 -> inception_4b/1x1
I0718 14:32:08.959594 33611 cudnn_conv_layer.cpp:194] Reallocating workspace storage: 6144
I0718 14:32:08.959709 33611 net.cpp:150] Setting up inception_4b/1x1
I0718 14:32:08.959743 33611 net.cpp:157] Top shape: 4 160 62 62 (2460160)
I0718 14:32:08.959763 33611 net.cpp:165] Memory required for data: 3109179440
I0718 14:32:08.959830 33611 layer_factory.hpp:76] Creating layer inception_4b/relu_1x1
I0718 14:32:08.959864 33611 net.cpp:106] Creating Layer inception_4b/relu_1x1
I0718 14:32:08.959885 33611 net.cpp:454] inception_4b/relu_1x1 <- inception_4b/1x1
I0718 14:32:08.959913 33611 net.cpp:397] inception_4b/relu_1x1 -> inception_4b/1x1 (in-place)
I0718 14:32:08.960407 33611 net.cpp:150] Setting up inception_4b/relu_1x1
I0718 14:32:08.960436 33611 net.cpp:157] Top shape: 4 160 62 62 (2460160)
I0718 14:32:08.960454 33611 net.cpp:165] Memory required for data: 3119020080
I0718 14:32:08.960469 33611 layer_factory.hpp:76] Creating layer inception_4b/3x3_reduce
I0718 14:32:08.960501 33611 net.cpp:106] Creating Layer inception_4b/3x3_reduce
I0718 14:32:08.960521 33611 net.cpp:454] inception_4b/3x3_reduce <- inception_4a/output_inception_4a/output_0_split_1
I0718 14:32:08.960543 33611 net.cpp:411] inception_4b/3x3_reduce -> inception_4b/3x3_reduce
I0718 14:32:08.962690 33611 cudnn_conv_layer.cpp:194] Reallocating workspace storage: 6144
I0718 14:32:08.962772 33611 net.cpp:150] Setting up inception_4b/3x3_reduce
I0718 14:32:08.962800 33611 net.cpp:157] Top shape: 4 112 62 62 (1722112)
I0718 14:32:08.962818 33611 net.cpp:165] Memory required for data: 3125908528
I0718 14:32:08.962846 33611 layer_factory.hpp:76] Creating layer inception_4b/relu_3x3_reduce
I0718 14:32:08.962882 33611 net.cpp:106] Creating Layer inception_4b/relu_3x3_reduce
I0718 14:32:08.962908 33611 net.cpp:454] inception_4b/relu_3x3_reduce <- inception_4b/3x3_reduce
I0718 14:32:08.962929 33611 net.cpp:397] inception_4b/relu_3x3_reduce -> inception_4b/3x3_reduce (in-place)
I0718 14:32:08.963423 33611 net.cpp:150] Setting up inception_4b/relu_3x3_reduce
I0718 14:32:08.963459 33611 net.cpp:157] Top shape: 4 112 62 62 (1722112)
I0718 14:32:08.963476 33611 net.cpp:165] Memory required for data: 3132796976
I0718 14:32:08.963491 33611 layer_factory.hpp:76] Creating layer inception_4b/3x3
I0718 14:32:08.963523 33611 net.cpp:106] Creating Layer inception_4b/3x3
I0718 14:32:08.963542 33611 net.cpp:454] inception_4b/3x3 <- inception_4b/3x3_reduce
I0718 14:32:08.963562 33611 net.cpp:411] inception_4b/3x3 -> inception_4b/3x3
I0718 14:32:08.968894 33611 cudnn_conv_layer.cpp:194] Reallocating workspace storage: 12096
I0718 14:32:08.969012 33611 net.cpp:150] Setting up inception_4b/3x3
I0718 14:32:08.969048 33611 net.cpp:157] Top shape: 4 224 62 62 (3444224)
I0718 14:32:08.969072 33611 net.cpp:165] Memory required for data: 3146573872
I0718 14:32:08.969115 33611 layer_factory.hpp:76] Creating layer inception_4b/relu_3x3
I0718 14:32:08.969172 33611 net.cpp:106] Creating Layer inception_4b/relu_3x3
I0718 14:32:08.969199 33611 net.cpp:454] inception_4b/relu_3x3 <- inception_4b/3x3
I0718 14:32:08.969228 33611 net.cpp:397] inception_4b/relu_3x3 -> inception_4b/3x3 (in-place)
I0718 14:32:08.969519 33611 net.cpp:150] Setting up inception_4b/relu_3x3
I0718 14:32:08.969554 33611 net.cpp:157] Top shape: 4 224 62 62 (3444224)
I0718 14:32:08.969573 33611 net.cpp:165] Memory required for data: 3160350768
I0718 14:32:08.969588 33611 layer_factory.hpp:76] Creating layer inception_4b/5x5_reduce
I0718 14:32:08.969627 33611 net.cpp:106] Creating Layer inception_4b/5x5_reduce
I0718 14:32:08.969648 33611 net.cpp:454] inception_4b/5x5_reduce <- inception_4a/output_inception_4a/output_0_split_2
I0718 14:32:08.969669 33611 net.cpp:411] inception_4b/5x5_reduce -> inception_4b/5x5_reduce
I0718 14:32:08.972718 33611 cudnn_conv_layer.cpp:194] Reallocating workspace storage: 6144
I0718 14:32:08.972831 33611 net.cpp:150] Setting up inception_4b/5x5_reduce
I0718 14:32:08.972865 33611 net.cpp:157] Top shape: 4 24 62 62 (369024)
I0718 14:32:08.972887 33611 net.cpp:165] Memory required for data: 3161826864
I0718 14:32:08.972914 33611 layer_factory.hpp:76] Creating layer inception_4b/relu_5x5_reduce
I0718 14:32:08.972951 33611 net.cpp:106] Creating Layer inception_4b/relu_5x5_reduce
I0718 14:32:08.972990 33611 net.cpp:454] inception_4b/relu_5x5_reduce <- inception_4b/5x5_reduce
I0718 14:32:08.973039 33611 net.cpp:397] inception_4b/relu_5x5_reduce -> inception_4b/5x5_reduce (in-place)
I0718 14:32:08.973618 33611 net.cpp:150] Setting up inception_4b/relu_5x5_reduce
I0718 14:32:08.973647 33611 net.cpp:157] Top shape: 4 24 62 62 (369024)
I0718 14:32:08.973662 33611 net.cpp:165] Memory required for data: 3163302960
I0718 14:32:08.973680 33611 layer_factory.hpp:76] Creating layer inception_4b/5x5
I0718 14:32:08.973722 33611 net.cpp:106] Creating Layer inception_4b/5x5
I0718 14:32:08.973740 33611 net.cpp:454] inception_4b/5x5 <- inception_4b/5x5_reduce
I0718 14:32:08.973762 33611 net.cpp:411] inception_4b/5x5 -> inception_4b/5x5
I0718 14:32:08.975653 33611 net.cpp:150] Setting up inception_4b/5x5
I0718 14:32:08.975690 33611 net.cpp:157] Top shape: 4 64 62 62 (984064)
I0718 14:32:08.975708 33611 net.cpp:165] Memory required for data: 3167239216
I0718 14:32:08.975728 33611 layer_factory.hpp:76] Creating layer inception_4b/relu_5x5
I0718 14:32:08.975752 33611 net.cpp:106] Creating Layer inception_4b/relu_5x5
I0718 14:32:08.975769 33611 net.cpp:454] inception_4b/relu_5x5 <- inception_4b/5x5
I0718 14:32:08.975786 33611 net.cpp:397] inception_4b/relu_5x5 -> inception_4b/5x5 (in-place)
I0718 14:32:08.976254 33611 net.cpp:150] Setting up inception_4b/relu_5x5
I0718 14:32:08.976282 33611 net.cpp:157] Top shape: 4 64 62 62 (984064)
I0718 14:32:08.976297 33611 net.cpp:165] Memory required for data: 3171175472
I0718 14:32:08.976311 33611 layer_factory.hpp:76] Creating layer inception_4b/pool
I0718 14:32:08.976333 33611 net.cpp:106] Creating Layer inception_4b/pool
I0718 14:32:08.976351 33611 net.cpp:454] inception_4b/pool <- inception_4a/output_inception_4a/output_0_split_3
I0718 14:32:08.976369 33611 net.cpp:411] inception_4b/pool -> inception_4b/pool
I0718 14:32:08.976876 33611 net.cpp:150] Setting up inception_4b/pool
I0718 14:32:08.976903 33611 net.cpp:157] Top shape: 4 512 62 62 (7872512)
I0718 14:32:08.976917 33611 net.cpp:165] Memory required for data: 3202665520
I0718 14:32:08.976933 33611 layer_factory.hpp:76] Creating layer inception_4b/pool_proj
I0718 14:32:08.976958 33611 net.cpp:106] Creating Layer inception_4b/pool_proj
I0718 14:32:08.976974 33611 net.cpp:454] inception_4b/pool_proj <- inception_4b/pool
I0718 14:32:08.976994 33611 net.cpp:411] inception_4b/pool_proj -> inception_4b/pool_proj
I0718 14:32:08.978690 33611 net.cpp:150] Setting up inception_4b/pool_proj
I0718 14:32:08.978719 33611 net.cpp:157] Top shape: 4 64 62 62 (984064)
I0718 14:32:08.978735 33611 net.cpp:165] Memory required for data: 3206601776
I0718 14:32:08.978754 33611 layer_factory.hpp:76] Creating layer inception_4b/relu_pool_proj
I0718 14:32:08.978780 33611 net.cpp:106] Creating Layer inception_4b/relu_pool_proj
I0718 14:32:08.978797 33611 net.cpp:454] inception_4b/relu_pool_proj <- inception_4b/pool_proj
I0718 14:32:08.978816 33611 net.cpp:397] inception_4b/relu_pool_proj -> inception_4b/pool_proj (in-place)
I0718 14:32:08.979285 33611 net.cpp:150] Setting up inception_4b/relu_pool_proj
I0718 14:32:08.979313 33611 net.cpp:157] Top shape: 4 64 62 62 (984064)
I0718 14:32:08.979327 33611 net.cpp:165] Memory required for data: 3210538032
I0718 14:32:08.979341 33611 layer_factory.hpp:76] Creating layer inception_4b/output
I0718 14:32:08.979362 33611 net.cpp:106] Creating Layer inception_4b/output
I0718 14:32:08.979378 33611 net.cpp:454] inception_4b/output <- inception_4b/1x1
I0718 14:32:08.979395 33611 net.cpp:454] inception_4b/output <- inception_4b/3x3
I0718 14:32:08.979413 33611 net.cpp:454] inception_4b/output <- inception_4b/5x5
I0718 14:32:08.979429 33611 net.cpp:454] inception_4b/output <- inception_4b/pool_proj
I0718 14:32:08.979444 33611 net.cpp:411] inception_4b/output -> inception_4b/output
I0718 14:32:08.979498 33611 net.cpp:150] Setting up inception_4b/output
I0718 14:32:08.979521 33611 net.cpp:157] Top shape: 4 512 62 62 (7872512)
I0718 14:32:08.979533 33611 net.cpp:165] Memory required for data: 3242028080
I0718 14:32:08.979547 33611 layer_factory.hpp:76] Creating layer inception_4b/output_inception_4b/output_0_split
I0718 14:32:08.979565 33611 net.cpp:106] Creating Layer inception_4b/output_inception_4b/output_0_split
I0718 14:32:08.979609 33611 net.cpp:454] inception_4b/output_inception_4b/output_0_split <- inception_4b/output
I0718 14:32:08.979629 33611 net.cpp:411] inception_4b/output_inception_4b/output_0_split -> inception_4b/output_inception_4b/output_0_split_0
I0718 14:32:08.979650 33611 net.cpp:411] inception_4b/output_inception_4b/output_0_split -> inception_4b/output_inception_4b/output_0_split_1
I0718 14:32:08.979672 33611 net.cpp:411] inception_4b/output_inception_4b/output_0_split -> inception_4b/output_inception_4b/output_0_split_2
I0718 14:32:08.979689 33611 net.cpp:411] inception_4b/output_inception_4b/output_0_split -> inception_4b/output_inception_4b/output_0_split_3
I0718 14:32:08.979801 33611 net.cpp:150] Setting up inception_4b/output_inception_4b/output_0_split
I0718 14:32:08.979822 33611 net.cpp:157] Top shape: 4 512 62 62 (7872512)
I0718 14:32:08.979838 33611 net.cpp:157] Top shape: 4 512 62 62 (7872512)
I0718 14:32:08.979853 33611 net.cpp:157] Top shape: 4 512 62 62 (7872512)
I0718 14:32:08.979874 33611 net.cpp:157] Top shape: 4 512 62 62 (7872512)
I0718 14:32:08.979892 33611 net.cpp:165] Memory required for data: 3367988272
I0718 14:32:08.979912 33611 layer_factory.hpp:76] Creating layer inception_4c/1x1
I0718 14:32:08.979938 33611 net.cpp:106] Creating Layer inception_4c/1x1
I0718 14:32:08.979955 33611 net.cpp:454] inception_4c/1x1 <- inception_4b/output_inception_4b/output_0_split_0
I0718 14:32:08.979974 33611 net.cpp:411] inception_4c/1x1 -> inception_4c/1x1
I0718 14:32:08.982204 33611 cudnn_conv_layer.cpp:194] Reallocating workspace storage: 6144
I0718 14:32:08.982255 33611 net.cpp:150] Setting up inception_4c/1x1
I0718 14:32:08.982278 33611 net.cpp:157] Top shape: 4 128 62 62 (1968128)
I0718 14:32:08.982292 33611 net.cpp:165] Memory required for data: 3375860784
I0718 14:32:08.982311 33611 layer_factory.hpp:76] Creating layer inception_4c/relu_1x1
I0718 14:32:08.982328 33611 net.cpp:106] Creating Layer inception_4c/relu_1x1
I0718 14:32:08.982345 33611 net.cpp:454] inception_4c/relu_1x1 <- inception_4c/1x1
I0718 14:32:08.982365 33611 net.cpp:397] inception_4c/relu_1x1 -> inception_4c/1x1 (in-place)
I0718 14:32:08.982641 33611 net.cpp:150] Setting up inception_4c/relu_1x1
I0718 14:32:08.982667 33611 net.cpp:157] Top shape: 4 128 62 62 (1968128)
I0718 14:32:08.982683 33611 net.cpp:165] Memory required for data: 3383733296
I0718 14:32:08.982698 33611 layer_factory.hpp:76] Creating layer inception_4c/3x3_reduce
I0718 14:32:08.982717 33611 net.cpp:106] Creating Layer inception_4c/3x3_reduce
I0718 14:32:08.982733 33611 net.cpp:454] inception_4c/3x3_reduce <- inception_4b/output_inception_4b/output_0_split_1
I0718 14:32:08.982758 33611 net.cpp:411] inception_4c/3x3_reduce -> inception_4c/3x3_reduce
I0718 14:32:08.985812 33611 cudnn_conv_layer.cpp:194] Reallocating workspace storage: 6144
I0718 14:32:08.985869 33611 net.cpp:150] Setting up inception_4c/3x3_reduce
I0718 14:32:08.985893 33611 net.cpp:157] Top shape: 4 128 62 62 (1968128)
I0718 14:32:08.985906 33611 net.cpp:165] Memory required for data: 3391605808
I0718 14:32:08.985926 33611 layer_factory.hpp:76] Creating layer inception_4c/relu_3x3_reduce
I0718 14:32:08.985952 33611 net.cpp:106] Creating Layer inception_4c/relu_3x3_reduce
I0718 14:32:08.985971 33611 net.cpp:454] inception_4c/relu_3x3_reduce <- inception_4c/3x3_reduce
I0718 14:32:08.985988 33611 net.cpp:397] inception_4c/relu_3x3_reduce -> inception_4c/3x3_reduce (in-place)
I0718 14:32:08.986457 33611 net.cpp:150] Setting up inception_4c/relu_3x3_reduce
I0718 14:32:08.986486 33611 net.cpp:157] Top shape: 4 128 62 62 (1968128)
I0718 14:32:08.986500 33611 net.cpp:165] Memory required for data: 3399478320
I0718 14:32:08.986515 33611 layer_factory.hpp:76] Creating layer inception_4c/3x3
I0718 14:32:08.986541 33611 net.cpp:106] Creating Layer inception_4c/3x3
I0718 14:32:08.986559 33611 net.cpp:454] inception_4c/3x3 <- inception_4c/3x3_reduce
I0718 14:32:08.986582 33611 net.cpp:411] inception_4c/3x3 -> inception_4c/3x3
I0718 14:32:08.992053 33611 cudnn_conv_layer.cpp:194] Reallocating workspace storage: 13824
I0718 14:32:08.992117 33611 net.cpp:150] Setting up inception_4c/3x3
I0718 14:32:08.992141 33611 net.cpp:157] Top shape: 4 256 62 62 (3936256)
I0718 14:32:08.992156 33611 net.cpp:165] Memory required for data: 3415223344
I0718 14:32:08.992175 33611 layer_factory.hpp:76] Creating layer inception_4c/relu_3x3
I0718 14:32:08.992197 33611 net.cpp:106] Creating Layer inception_4c/relu_3x3
I0718 14:32:08.992216 33611 net.cpp:454] inception_4c/relu_3x3 <- inception_4c/3x3
I0718 14:32:08.992238 33611 net.cpp:397] inception_4c/relu_3x3 -> inception_4c/3x3 (in-place)
I0718 14:32:08.992705 33611 net.cpp:150] Setting up inception_4c/relu_3x3
I0718 14:32:08.992734 33611 net.cpp:157] Top shape: 4 256 62 62 (3936256)
I0718 14:32:08.992749 33611 net.cpp:165] Memory required for data: 3430968368
I0718 14:32:08.992763 33611 layer_factory.hpp:76] Creating layer inception_4c/5x5_reduce
I0718 14:32:08.992789 33611 net.cpp:106] Creating Layer inception_4c/5x5_reduce
I0718 14:32:08.992808 33611 net.cpp:454] inception_4c/5x5_reduce <- inception_4b/output_inception_4b/output_0_split_2
I0718 14:32:08.992830 33611 net.cpp:411] inception_4c/5x5_reduce -> inception_4c/5x5_reduce
I0718 14:32:08.994524 33611 cudnn_conv_layer.cpp:194] Reallocating workspace storage: 6144
I0718 14:32:08.994572 33611 net.cpp:150] Setting up inception_4c/5x5_reduce
I0718 14:32:08.994595 33611 net.cpp:157] Top shape: 4 24 62 62 (369024)
I0718 14:32:08.994608 33611 net.cpp:165] Memory required for data: 3432444464
I0718 14:32:08.994637 33611 layer_factory.hpp:76] Creating layer inception_4c/relu_5x5_reduce
I0718 14:32:08.994668 33611 net.cpp:106] Creating Layer inception_4c/relu_5x5_reduce
I0718 14:32:08.994693 33611 net.cpp:454] inception_4c/relu_5x5_reduce <- inception_4c/5x5_reduce
I0718 14:32:08.994724 33611 net.cpp:397] inception_4c/relu_5x5_reduce -> inception_4c/5x5_reduce (in-place)
I0718 14:32:08.995007 33611 net.cpp:150] Setting up inception_4c/relu_5x5_reduce
I0718 14:32:08.995033 33611 net.cpp:157] Top shape: 4 24 62 62 (369024)
I0718 14:32:08.995046 33611 net.cpp:165] Memory required for data: 3433920560
I0718 14:32:08.995059 33611 layer_factory.hpp:76] Creating layer inception_4c/5x5
I0718 14:32:08.995085 33611 net.cpp:106] Creating Layer inception_4c/5x5
I0718 14:32:08.995100 33611 net.cpp:454] inception_4c/5x5 <- inception_4c/5x5_reduce
I0718 14:32:08.995118 33611 net.cpp:411] inception_4c/5x5 -> inception_4c/5x5
I0718 14:32:08.997086 33611 net.cpp:150] Setting up inception_4c/5x5
I0718 14:32:08.997115 33611 net.cpp:157] Top shape: 4 64 62 62 (984064)
I0718 14:32:08.997138 33611 net.cpp:165] Memory required for data: 3437856816
I0718 14:32:08.997159 33611 layer_factory.hpp:76] Creating layer inception_4c/relu_5x5
I0718 14:32:08.997179 33611 net.cpp:106] Creating Layer inception_4c/relu_5x5
I0718 14:32:08.997195 33611 net.cpp:454] inception_4c/relu_5x5 <- inception_4c/5x5
I0718 14:32:08.997212 33611 net.cpp:397] inception_4c/relu_5x5 -> inception_4c/5x5 (in-place)
I0718 14:32:08.997684 33611 net.cpp:150] Setting up inception_4c/relu_5x5
I0718 14:32:08.997714 33611 net.cpp:157] Top shape: 4 64 62 62 (984064)
I0718 14:32:08.997731 33611 net.cpp:165] Memory required for data: 3441793072
I0718 14:32:08.997747 33611 layer_factory.hpp:76] Creating layer inception_4c/pool
I0718 14:32:08.997771 33611 net.cpp:106] Creating Layer inception_4c/pool
I0718 14:32:08.997787 33611 net.cpp:454] inception_4c/pool <- inception_4b/output_inception_4b/output_0_split_3
I0718 14:32:08.997804 33611 net.cpp:411] inception_4c/pool -> inception_4c/pool
I0718 14:32:08.998137 33611 net.cpp:150] Setting up inception_4c/pool
I0718 14:32:08.998163 33611 net.cpp:157] Top shape: 4 512 62 62 (7872512)
I0718 14:32:08.998178 33611 net.cpp:165] Memory required for data: 3473283120
I0718 14:32:08.998190 33611 layer_factory.hpp:76] Creating layer inception_4c/pool_proj
I0718 14:32:08.998215 33611 net.cpp:106] Creating Layer inception_4c/pool_proj
I0718 14:32:08.998234 33611 net.cpp:454] inception_4c/pool_proj <- inception_4c/pool
I0718 14:32:08.998280 33611 net.cpp:411] inception_4c/pool_proj -> inception_4c/pool_proj
I0718 14:32:09.000202 33611 net.cpp:150] Setting up inception_4c/pool_proj
I0718 14:32:09.000232 33611 net.cpp:157] Top shape: 4 64 62 62 (984064)
I0718 14:32:09.000248 33611 net.cpp:165] Memory required for data: 3477219376
I0718 14:32:09.000288 33611 layer_factory.hpp:76] Creating layer inception_4c/relu_pool_proj
I0718 14:32:09.000309 33611 net.cpp:106] Creating Layer inception_4c/relu_pool_proj
I0718 14:32:09.000324 33611 net.cpp:454] inception_4c/relu_pool_proj <- inception_4c/pool_proj
I0718 14:32:09.000340 33611 net.cpp:397] inception_4c/relu_pool_proj -> inception_4c/pool_proj (in-place)
I0718 14:32:09.000624 33611 net.cpp:150] Setting up inception_4c/relu_pool_proj
I0718 14:32:09.000649 33611 net.cpp:157] Top shape: 4 64 62 62 (984064)
I0718 14:32:09.000663 33611 net.cpp:165] Memory required for data: 3481155632
I0718 14:32:09.000679 33611 layer_factory.hpp:76] Creating layer inception_4c/output
I0718 14:32:09.000699 33611 net.cpp:106] Creating Layer inception_4c/output
I0718 14:32:09.000716 33611 net.cpp:454] inception_4c/output <- inception_4c/1x1
I0718 14:32:09.000732 33611 net.cpp:454] inception_4c/output <- inception_4c/3x3
I0718 14:32:09.000747 33611 net.cpp:454] inception_4c/output <- inception_4c/5x5
I0718 14:32:09.000763 33611 net.cpp:454] inception_4c/output <- inception_4c/pool_proj
I0718 14:32:09.000787 33611 net.cpp:411] inception_4c/output -> inception_4c/output
I0718 14:32:09.000844 33611 net.cpp:150] Setting up inception_4c/output
I0718 14:32:09.000866 33611 net.cpp:157] Top shape: 4 512 62 62 (7872512)
I0718 14:32:09.000880 33611 net.cpp:165] Memory required for data: 3512645680
I0718 14:32:09.000896 33611 layer_factory.hpp:76] Creating layer inception_4c/output_inception_4c/output_0_split
I0718 14:32:09.000918 33611 net.cpp:106] Creating Layer inception_4c/output_inception_4c/output_0_split
I0718 14:32:09.000932 33611 net.cpp:454] inception_4c/output_inception_4c/output_0_split <- inception_4c/output
I0718 14:32:09.000953 33611 net.cpp:411] inception_4c/output_inception_4c/output_0_split -> inception_4c/output_inception_4c/output_0_split_0
I0718 14:32:09.000972 33611 net.cpp:411] inception_4c/output_inception_4c/output_0_split -> inception_4c/output_inception_4c/output_0_split_1
I0718 14:32:09.001003 33611 net.cpp:411] inception_4c/output_inception_4c/output_0_split -> inception_4c/output_inception_4c/output_0_split_2
I0718 14:32:09.001024 33611 net.cpp:411] inception_4c/output_inception_4c/output_0_split -> inception_4c/output_inception_4c/output_0_split_3
I0718 14:32:09.001137 33611 net.cpp:150] Setting up inception_4c/output_inception_4c/output_0_split
I0718 14:32:09.001157 33611 net.cpp:157] Top shape: 4 512 62 62 (7872512)
I0718 14:32:09.001173 33611 net.cpp:157] Top shape: 4 512 62 62 (7872512)
I0718 14:32:09.001188 33611 net.cpp:157] Top shape: 4 512 62 62 (7872512)
I0718 14:32:09.001207 33611 net.cpp:157] Top shape: 4 512 62 62 (7872512)
I0718 14:32:09.001222 33611 net.cpp:165] Memory required for data: 3638605872
I0718 14:32:09.001235 33611 layer_factory.hpp:76] Creating layer inception_4d/1x1
I0718 14:32:09.001257 33611 net.cpp:106] Creating Layer inception_4d/1x1
I0718 14:32:09.001273 33611 net.cpp:454] inception_4d/1x1 <- inception_4c/output_inception_4c/output_0_split_0
I0718 14:32:09.001293 33611 net.cpp:411] inception_4d/1x1 -> inception_4d/1x1
I0718 14:32:09.003566 33611 cudnn_conv_layer.cpp:194] Reallocating workspace storage: 6144
I0718 14:32:09.003628 33611 net.cpp:150] Setting up inception_4d/1x1
I0718 14:32:09.003653 33611 net.cpp:157] Top shape: 4 112 62 62 (1722112)
I0718 14:32:09.003669 33611 net.cpp:165] Memory required for data: 3645494320
I0718 14:32:09.003687 33611 layer_factory.hpp:76] Creating layer inception_4d/relu_1x1
I0718 14:32:09.003715 33611 net.cpp:106] Creating Layer inception_4d/relu_1x1
I0718 14:32:09.003736 33611 net.cpp:454] inception_4d/relu_1x1 <- inception_4d/1x1
I0718 14:32:09.003752 33611 net.cpp:397] inception_4d/relu_1x1 -> inception_4d/1x1 (in-place)
I0718 14:32:09.004246 33611 net.cpp:150] Setting up inception_4d/relu_1x1
I0718 14:32:09.004277 33611 net.cpp:157] Top shape: 4 112 62 62 (1722112)
I0718 14:32:09.004295 33611 net.cpp:165] Memory required for data: 3652382768
I0718 14:32:09.004309 33611 layer_factory.hpp:76] Creating layer inception_4d/3x3_reduce
I0718 14:32:09.004336 33611 net.cpp:106] Creating Layer inception_4d/3x3_reduce
I0718 14:32:09.004356 33611 net.cpp:454] inception_4d/3x3_reduce <- inception_4c/output_inception_4c/output_0_split_1
I0718 14:32:09.004379 33611 net.cpp:411] inception_4d/3x3_reduce -> inception_4d/3x3_reduce
I0718 14:32:09.006652 33611 cudnn_conv_layer.cpp:194] Reallocating workspace storage: 6144
I0718 14:32:09.006719 33611 net.cpp:150] Setting up inception_4d/3x3_reduce
I0718 14:32:09.006747 33611 net.cpp:157] Top shape: 4 144 62 62 (2214144)
I0718 14:32:09.006764 33611 net.cpp:165] Memory required for data: 3661239344
I0718 14:32:09.006785 33611 layer_factory.hpp:76] Creating layer inception_4d/relu_3x3_reduce
I0718 14:32:09.006816 33611 net.cpp:106] Creating Layer inception_4d/relu_3x3_reduce
I0718 14:32:09.006839 33611 net.cpp:454] inception_4d/relu_3x3_reduce <- inception_4d/3x3_reduce
I0718 14:32:09.006857 33611 net.cpp:397] inception_4d/relu_3x3_reduce -> inception_4d/3x3_reduce (in-place)
I0718 14:32:09.007138 33611 net.cpp:150] Setting up inception_4d/relu_3x3_reduce
I0718 14:32:09.007165 33611 net.cpp:157] Top shape: 4 144 62 62 (2214144)
I0718 14:32:09.007181 33611 net.cpp:165] Memory required for data: 3670095920
I0718 14:32:09.007196 33611 layer_factory.hpp:76] Creating layer inception_4d/3x3
I0718 14:32:09.007223 33611 net.cpp:106] Creating Layer inception_4d/3x3
I0718 14:32:09.007242 33611 net.cpp:454] inception_4d/3x3 <- inception_4d/3x3_reduce
I0718 14:32:09.007262 33611 net.cpp:411] inception_4d/3x3 -> inception_4d/3x3
I0718 14:32:09.015120 33611 cudnn_conv_layer.cpp:194] Reallocating workspace storage: 15552
I0718 14:32:09.015202 33611 net.cpp:150] Setting up inception_4d/3x3
I0718 14:32:09.015233 33611 net.cpp:157] Top shape: 4 288 62 62 (4428288)
I0718 14:32:09.015249 33611 net.cpp:165] Memory required for data: 3687809072
I0718 14:32:09.015275 33611 layer_factory.hpp:76] Creating layer inception_4d/relu_3x3
I0718 14:32:09.015301 33611 net.cpp:106] Creating Layer inception_4d/relu_3x3
I0718 14:32:09.015321 33611 net.cpp:454] inception_4d/relu_3x3 <- inception_4d/3x3
I0718 14:32:09.015344 33611 net.cpp:397] inception_4d/relu_3x3 -> inception_4d/3x3 (in-place)
I0718 14:32:09.015633 33611 net.cpp:150] Setting up inception_4d/relu_3x3
I0718 14:32:09.015661 33611 net.cpp:157] Top shape: 4 288 62 62 (4428288)
I0718 14:32:09.015674 33611 net.cpp:165] Memory required for data: 3705522224
I0718 14:32:09.015692 33611 layer_factory.hpp:76] Creating layer inception_4d/5x5_reduce
I0718 14:32:09.015718 33611 net.cpp:106] Creating Layer inception_4d/5x5_reduce
I0718 14:32:09.015735 33611 net.cpp:454] inception_4d/5x5_reduce <- inception_4c/output_inception_4c/output_0_split_2
I0718 14:32:09.015756 33611 net.cpp:411] inception_4d/5x5_reduce -> inception_4d/5x5_reduce
I0718 14:32:09.017556 33611 net.cpp:150] Setting up inception_4d/5x5_reduce
I0718 14:32:09.017590 33611 net.cpp:157] Top shape: 4 32 62 62 (492032)
I0718 14:32:09.017604 33611 net.cpp:165] Memory required for data: 3707490352
I0718 14:32:09.017623 33611 layer_factory.hpp:76] Creating layer inception_4d/relu_5x5_reduce
I0718 14:32:09.017642 33611 net.cpp:106] Creating Layer inception_4d/relu_5x5_reduce
I0718 14:32:09.017657 33611 net.cpp:454] inception_4d/relu_5x5_reduce <- inception_4d/5x5_reduce
I0718 14:32:09.017673 33611 net.cpp:397] inception_4d/relu_5x5_reduce -> inception_4d/5x5_reduce (in-place)
I0718 14:32:09.018143 33611 net.cpp:150] Setting up inception_4d/relu_5x5_reduce
I0718 14:32:09.018173 33611 net.cpp:157] Top shape: 4 32 62 62 (492032)
I0718 14:32:09.018188 33611 net.cpp:165] Memory required for data: 3709458480
I0718 14:32:09.018203 33611 layer_factory.hpp:76] Creating layer inception_4d/5x5
I0718 14:32:09.018225 33611 net.cpp:106] Creating Layer inception_4d/5x5
I0718 14:32:09.018273 33611 net.cpp:454] inception_4d/5x5 <- inception_4d/5x5_reduce
I0718 14:32:09.018296 33611 net.cpp:411] inception_4d/5x5 -> inception_4d/5x5
I0718 14:32:09.020653 33611 net.cpp:150] Setting up inception_4d/5x5
I0718 14:32:09.020685 33611 net.cpp:157] Top shape: 4 64 62 62 (984064)
I0718 14:32:09.020699 33611 net.cpp:165] Memory required for data: 3713394736
I0718 14:32:09.020719 33611 layer_factory.hpp:76] Creating layer inception_4d/relu_5x5
I0718 14:32:09.020740 33611 net.cpp:106] Creating Layer inception_4d/relu_5x5
I0718 14:32:09.020758 33611 net.cpp:454] inception_4d/relu_5x5 <- inception_4d/5x5
I0718 14:32:09.020776 33611 net.cpp:397] inception_4d/relu_5x5 -> inception_4d/5x5 (in-place)
I0718 14:32:09.021049 33611 net.cpp:150] Setting up inception_4d/relu_5x5
I0718 14:32:09.021073 33611 net.cpp:157] Top shape: 4 64 62 62 (984064)
I0718 14:32:09.021090 33611 net.cpp:165] Memory required for data: 3717330992
I0718 14:32:09.021105 33611 layer_factory.hpp:76] Creating layer inception_4d/pool
I0718 14:32:09.021127 33611 net.cpp:106] Creating Layer inception_4d/pool
I0718 14:32:09.021142 33611 net.cpp:454] inception_4d/pool <- inception_4c/output_inception_4c/output_0_split_3
I0718 14:32:09.021162 33611 net.cpp:411] inception_4d/pool -> inception_4d/pool
I0718 14:32:09.021682 33611 net.cpp:150] Setting up inception_4d/pool
I0718 14:32:09.021710 33611 net.cpp:157] Top shape: 4 512 62 62 (7872512)
I0718 14:32:09.021726 33611 net.cpp:165] Memory required for data: 3748821040
I0718 14:32:09.021740 33611 layer_factory.hpp:76] Creating layer inception_4d/pool_proj
I0718 14:32:09.021765 33611 net.cpp:106] Creating Layer inception_4d/pool_proj
I0718 14:32:09.021783 33611 net.cpp:454] inception_4d/pool_proj <- inception_4d/pool
I0718 14:32:09.021803 33611 net.cpp:411] inception_4d/pool_proj -> inception_4d/pool_proj
I0718 14:32:09.024344 33611 net.cpp:150] Setting up inception_4d/pool_proj
I0718 14:32:09.024376 33611 net.cpp:157] Top shape: 4 64 62 62 (984064)
I0718 14:32:09.024390 33611 net.cpp:165] Memory required for data: 3752757296
I0718 14:32:09.024412 33611 layer_factory.hpp:76] Creating layer inception_4d/relu_pool_proj
I0718 14:32:09.024433 33611 net.cpp:106] Creating Layer inception_4d/relu_pool_proj
I0718 14:32:09.024449 33611 net.cpp:454] inception_4d/relu_pool_proj <- inception_4d/pool_proj
I0718 14:32:09.024471 33611 net.cpp:397] inception_4d/relu_pool_proj -> inception_4d/pool_proj (in-place)
I0718 14:32:09.024930 33611 net.cpp:150] Setting up inception_4d/relu_pool_proj
I0718 14:32:09.024958 33611 net.cpp:157] Top shape: 4 64 62 62 (984064)
I0718 14:32:09.024972 33611 net.cpp:165] Memory required for data: 3756693552
I0718 14:32:09.024986 33611 layer_factory.hpp:76] Creating layer inception_4d/output
I0718 14:32:09.025008 33611 net.cpp:106] Creating Layer inception_4d/output
I0718 14:32:09.025023 33611 net.cpp:454] inception_4d/output <- inception_4d/1x1
I0718 14:32:09.025038 33611 net.cpp:454] inception_4d/output <- inception_4d/3x3
I0718 14:32:09.025055 33611 net.cpp:454] inception_4d/output <- inception_4d/5x5
I0718 14:32:09.025069 33611 net.cpp:454] inception_4d/output <- inception_4d/pool_proj
I0718 14:32:09.025089 33611 net.cpp:411] inception_4d/output -> inception_4d/output
I0718 14:32:09.025144 33611 net.cpp:150] Setting up inception_4d/output
I0718 14:32:09.025164 33611 net.cpp:157] Top shape: 4 528 62 62 (8118528)
I0718 14:32:09.025180 33611 net.cpp:165] Memory required for data: 3789167664
I0718 14:32:09.025195 33611 layer_factory.hpp:76] Creating layer inception_4d/output_inception_4d/output_0_split
I0718 14:32:09.025218 33611 net.cpp:106] Creating Layer inception_4d/output_inception_4d/output_0_split
I0718 14:32:09.025233 33611 net.cpp:454] inception_4d/output_inception_4d/output_0_split <- inception_4d/output
I0718 14:32:09.025249 33611 net.cpp:411] inception_4d/output_inception_4d/output_0_split -> inception_4d/output_inception_4d/output_0_split_0
I0718 14:32:09.025269 33611 net.cpp:411] inception_4d/output_inception_4d/output_0_split -> inception_4d/output_inception_4d/output_0_split_1
I0718 14:32:09.025312 33611 net.cpp:411] inception_4d/output_inception_4d/output_0_split -> inception_4d/output_inception_4d/output_0_split_2
I0718 14:32:09.025331 33611 net.cpp:411] inception_4d/output_inception_4d/output_0_split -> inception_4d/output_inception_4d/output_0_split_3
I0718 14:32:09.025444 33611 net.cpp:150] Setting up inception_4d/output_inception_4d/output_0_split
I0718 14:32:09.025465 33611 net.cpp:157] Top shape: 4 528 62 62 (8118528)
I0718 14:32:09.025481 33611 net.cpp:157] Top shape: 4 528 62 62 (8118528)
I0718 14:32:09.025498 33611 net.cpp:157] Top shape: 4 528 62 62 (8118528)
I0718 14:32:09.025514 33611 net.cpp:157] Top shape: 4 528 62 62 (8118528)
I0718 14:32:09.025532 33611 net.cpp:165] Memory required for data: 3919064112
I0718 14:32:09.025545 33611 layer_factory.hpp:76] Creating layer inception_4e/1x1
I0718 14:32:09.025569 33611 net.cpp:106] Creating Layer inception_4e/1x1
I0718 14:32:09.025588 33611 net.cpp:454] inception_4e/1x1 <- inception_4d/output_inception_4d/output_0_split_0
I0718 14:32:09.025609 33611 net.cpp:411] inception_4e/1x1 -> inception_4e/1x1
I0718 14:32:09.029347 33611 cudnn_conv_layer.cpp:194] Reallocating workspace storage: 6336
I0718 14:32:09.029412 33611 net.cpp:150] Setting up inception_4e/1x1
I0718 14:32:09.029433 33611 net.cpp:157] Top shape: 4 256 62 62 (3936256)
I0718 14:32:09.029446 33611 net.cpp:165] Memory required for data: 3934809136
I0718 14:32:09.029467 33611 layer_factory.hpp:76] Creating layer inception_4e/relu_1x1
I0718 14:32:09.029484 33611 net.cpp:106] Creating Layer inception_4e/relu_1x1
I0718 14:32:09.029498 33611 net.cpp:454] inception_4e/relu_1x1 <- inception_4e/1x1
I0718 14:32:09.029517 33611 net.cpp:397] inception_4e/relu_1x1 -> inception_4e/1x1 (in-place)
I0718 14:32:09.029788 33611 net.cpp:150] Setting up inception_4e/relu_1x1
I0718 14:32:09.029813 33611 net.cpp:157] Top shape: 4 256 62 62 (3936256)
I0718 14:32:09.029826 33611 net.cpp:165] Memory required for data: 3950554160
I0718 14:32:09.029841 33611 layer_factory.hpp:76] Creating layer inception_4e/3x3_reduce
I0718 14:32:09.029881 33611 net.cpp:106] Creating Layer inception_4e/3x3_reduce
I0718 14:32:09.029894 33611 net.cpp:454] inception_4e/3x3_reduce <- inception_4d/output_inception_4d/output_0_split_1
I0718 14:32:09.029917 33611 net.cpp:411] inception_4e/3x3_reduce -> inception_4e/3x3_reduce
I0718 14:32:09.032358 33611 net.cpp:150] Setting up inception_4e/3x3_reduce
I0718 14:32:09.032389 33611 net.cpp:157] Top shape: 4 160 62 62 (2460160)
I0718 14:32:09.032403 33611 net.cpp:165] Memory required for data: 3960394800
I0718 14:32:09.032423 33611 layer_factory.hpp:76] Creating layer inception_4e/relu_3x3_reduce
I0718 14:32:09.032443 33611 net.cpp:106] Creating Layer inception_4e/relu_3x3_reduce
I0718 14:32:09.032457 33611 net.cpp:454] inception_4e/relu_3x3_reduce <- inception_4e/3x3_reduce
I0718 14:32:09.032474 33611 net.cpp:397] inception_4e/relu_3x3_reduce -> inception_4e/3x3_reduce (in-place)
I0718 14:32:09.032938 33611 net.cpp:150] Setting up inception_4e/relu_3x3_reduce
I0718 14:32:09.032966 33611 net.cpp:157] Top shape: 4 160 62 62 (2460160)
I0718 14:32:09.032980 33611 net.cpp:165] Memory required for data: 3970235440
I0718 14:32:09.032996 33611 layer_factory.hpp:76] Creating layer inception_4e/3x3
I0718 14:32:09.033025 33611 net.cpp:106] Creating Layer inception_4e/3x3
I0718 14:32:09.033040 33611 net.cpp:454] inception_4e/3x3 <- inception_4e/3x3_reduce
I0718 14:32:09.033058 33611 net.cpp:411] inception_4e/3x3 -> inception_4e/3x3
I0718 14:32:09.040359 33611 net.cpp:150] Setting up inception_4e/3x3
I0718 14:32:09.040396 33611 net.cpp:157] Top shape: 4 320 62 62 (4920320)
I0718 14:32:09.040413 33611 net.cpp:165] Memory required for data: 3989916720
I0718 14:32:09.040431 33611 layer_factory.hpp:76] Creating layer inception_4e/relu_3x3
I0718 14:32:09.040455 33611 net.cpp:106] Creating Layer inception_4e/relu_3x3
I0718 14:32:09.040472 33611 net.cpp:454] inception_4e/relu_3x3 <- inception_4e/3x3
I0718 14:32:09.040490 33611 net.cpp:397] inception_4e/relu_3x3 -> inception_4e/3x3 (in-place)
I0718 14:32:09.041012 33611 net.cpp:150] Setting up inception_4e/relu_3x3
I0718 14:32:09.041040 33611 net.cpp:157] Top shape: 4 320 62 62 (4920320)
I0718 14:32:09.041055 33611 net.cpp:165] Memory required for data: 4009598000
I0718 14:32:09.041071 33611 layer_factory.hpp:76] Creating layer inception_4e/5x5_reduce
I0718 14:32:09.041096 33611 net.cpp:106] Creating Layer inception_4e/5x5_reduce
I0718 14:32:09.041111 33611 net.cpp:454] inception_4e/5x5_reduce <- inception_4d/output_inception_4d/output_0_split_2
I0718 14:32:09.041138 33611 net.cpp:411] inception_4e/5x5_reduce -> inception_4e/5x5_reduce
I0718 14:32:09.043092 33611 net.cpp:150] Setting up inception_4e/5x5_reduce
I0718 14:32:09.043130 33611 net.cpp:157] Top shape: 4 32 62 62 (492032)
I0718 14:32:09.043148 33611 net.cpp:165] Memory required for data: 4011566128
I0718 14:32:09.043170 33611 layer_factory.hpp:76] Creating layer inception_4e/relu_5x5_reduce
I0718 14:32:09.043190 33611 net.cpp:106] Creating Layer inception_4e/relu_5x5_reduce
I0718 14:32:09.043210 33611 net.cpp:454] inception_4e/relu_5x5_reduce <- inception_4e/5x5_reduce
I0718 14:32:09.043233 33611 net.cpp:397] inception_4e/relu_5x5_reduce -> inception_4e/5x5_reduce (in-place)
I0718 14:32:09.043542 33611 net.cpp:150] Setting up inception_4e/relu_5x5_reduce
I0718 14:32:09.043573 33611 net.cpp:157] Top shape: 4 32 62 62 (492032)
I0718 14:32:09.043591 33611 net.cpp:165] Memory required for data: 4013534256
I0718 14:32:09.043611 33611 layer_factory.hpp:76] Creating layer inception_4e/5x5
I0718 14:32:09.043637 33611 net.cpp:106] Creating Layer inception_4e/5x5
I0718 14:32:09.043655 33611 net.cpp:454] inception_4e/5x5 <- inception_4e/5x5_reduce
I0718 14:32:09.043680 33611 net.cpp:411] inception_4e/5x5 -> inception_4e/5x5
I0718 14:32:09.047325 33611 cudnn_conv_layer.cpp:194] Reallocating workspace storage: 9600
I0718 14:32:09.047401 33611 net.cpp:150] Setting up inception_4e/5x5
I0718 14:32:09.047423 33611 net.cpp:157] Top shape: 4 128 62 62 (1968128)
I0718 14:32:09.047436 33611 net.cpp:165] Memory required for data: 4021406768
I0718 14:32:09.047457 33611 layer_factory.hpp:76] Creating layer inception_4e/relu_5x5
I0718 14:32:09.047482 33611 net.cpp:106] Creating Layer inception_4e/relu_5x5
I0718 14:32:09.047498 33611 net.cpp:454] inception_4e/relu_5x5 <- inception_4e/5x5
I0718 14:32:09.047519 33611 net.cpp:397] inception_4e/relu_5x5 -> inception_4e/5x5 (in-place)
I0718 14:32:09.047991 33611 net.cpp:150] Setting up inception_4e/relu_5x5
I0718 14:32:09.048018 33611 net.cpp:157] Top shape: 4 128 62 62 (1968128)
I0718 14:32:09.048034 33611 net.cpp:165] Memory required for data: 4029279280
I0718 14:32:09.048049 33611 layer_factory.hpp:76] Creating layer inception_4e/pool
I0718 14:32:09.048066 33611 net.cpp:106] Creating Layer inception_4e/pool
I0718 14:32:09.048082 33611 net.cpp:454] inception_4e/pool <- inception_4d/output_inception_4d/output_0_split_3
I0718 14:32:09.048105 33611 net.cpp:411] inception_4e/pool -> inception_4e/pool
I0718 14:32:09.048439 33611 net.cpp:150] Setting up inception_4e/pool
I0718 14:32:09.048463 33611 net.cpp:157] Top shape: 4 528 62 62 (8118528)
I0718 14:32:09.048477 33611 net.cpp:165] Memory required for data: 4061753392
I0718 14:32:09.048496 33611 layer_factory.hpp:76] Creating layer inception_4e/pool_proj
I0718 14:32:09.048518 33611 net.cpp:106] Creating Layer inception_4e/pool_proj
I0718 14:32:09.048533 33611 net.cpp:454] inception_4e/pool_proj <- inception_4e/pool
I0718 14:32:09.048557 33611 net.cpp:411] inception_4e/pool_proj -> inception_4e/pool_proj
I0718 14:32:09.051092 33611 cudnn_conv_layer.cpp:194] Reallocating workspace storage: 6336
I0718 14:32:09.051154 33611 net.cpp:150] Setting up inception_4e/pool_proj
I0718 14:32:09.051177 33611 net.cpp:157] Top shape: 4 128 62 62 (1968128)
I0718 14:32:09.051189 33611 net.cpp:165] Memory required for data: 4069625904
I0718 14:32:09.051208 33611 layer_factory.hpp:76] Creating layer inception_4e/relu_pool_proj
I0718 14:32:09.051223 33611 net.cpp:106] Creating Layer inception_4e/relu_pool_proj
I0718 14:32:09.051236 33611 net.cpp:454] inception_4e/relu_pool_proj <- inception_4e/pool_proj
I0718 14:32:09.051280 33611 net.cpp:397] inception_4e/relu_pool_proj -> inception_4e/pool_proj (in-place)
I0718 14:32:09.051563 33611 net.cpp:150] Setting up inception_4e/relu_pool_proj
I0718 14:32:09.051586 33611 net.cpp:157] Top shape: 4 128 62 62 (1968128)
I0718 14:32:09.051599 33611 net.cpp:165] Memory required for data: 4077498416
I0718 14:32:09.051611 33611 layer_factory.hpp:76] Creating layer inception_4e/output
I0718 14:32:09.051631 33611 net.cpp:106] Creating Layer inception_4e/output
I0718 14:32:09.051643 33611 net.cpp:454] inception_4e/output <- inception_4e/1x1
I0718 14:32:09.051658 33611 net.cpp:454] inception_4e/output <- inception_4e/3x3
I0718 14:32:09.051671 33611 net.cpp:454] inception_4e/output <- inception_4e/5x5
I0718 14:32:09.051686 33611 net.cpp:454] inception_4e/output <- inception_4e/pool_proj
I0718 14:32:09.051699 33611 net.cpp:411] inception_4e/output -> inception_4e/output
I0718 14:32:09.051756 33611 net.cpp:150] Setting up inception_4e/output
I0718 14:32:09.051775 33611 net.cpp:157] Top shape: 4 832 62 62 (12792832)
I0718 14:32:09.051787 33611 net.cpp:165] Memory required for data: 4128669744
I0718 14:32:09.051800 33611 layer_factory.hpp:76] Creating layer pool4/3x3_s2
I0718 14:32:09.051815 33611 net.cpp:106] Creating Layer pool4/3x3_s2
I0718 14:32:09.051828 33611 net.cpp:454] pool4/3x3_s2 <- inception_4e/output
I0718 14:32:09.051846 33611 net.cpp:411] pool4/3x3_s2 -> pool4/3x3_s2
I0718 14:32:09.052350 33611 net.cpp:150] Setting up pool4/3x3_s2
I0718 14:32:09.052376 33611 net.cpp:157] Top shape: 4 832 31 31 (3198208)
I0718 14:32:09.052388 33611 net.cpp:165] Memory required for data: 4141462576
I0718 14:32:09.052402 33611 layer_factory.hpp:76] Creating layer pool4/3x3_s2_pool4/3x3_s2_0_split
I0718 14:32:09.052417 33611 net.cpp:106] Creating Layer pool4/3x3_s2_pool4/3x3_s2_0_split
I0718 14:32:09.052429 33611 net.cpp:454] pool4/3x3_s2_pool4/3x3_s2_0_split <- pool4/3x3_s2
I0718 14:32:09.052448 33611 net.cpp:411] pool4/3x3_s2_pool4/3x3_s2_0_split -> pool4/3x3_s2_pool4/3x3_s2_0_split_0
I0718 14:32:09.052465 33611 net.cpp:411] pool4/3x3_s2_pool4/3x3_s2_0_split -> pool4/3x3_s2_pool4/3x3_s2_0_split_1
I0718 14:32:09.052481 33611 net.cpp:411] pool4/3x3_s2_pool4/3x3_s2_0_split -> pool4/3x3_s2_pool4/3x3_s2_0_split_2
I0718 14:32:09.052496 33611 net.cpp:411] pool4/3x3_s2_pool4/3x3_s2_0_split -> pool4/3x3_s2_pool4/3x3_s2_0_split_3
I0718 14:32:09.052615 33611 net.cpp:150] Setting up pool4/3x3_s2_pool4/3x3_s2_0_split
I0718 14:32:09.052635 33611 net.cpp:157] Top shape: 4 832 31 31 (3198208)
I0718 14:32:09.052650 33611 net.cpp:157] Top shape: 4 832 31 31 (3198208)
I0718 14:32:09.052664 33611 net.cpp:157] Top shape: 4 832 31 31 (3198208)
I0718 14:32:09.052677 33611 net.cpp:157] Top shape: 4 832 31 31 (3198208)
I0718 14:32:09.052688 33611 net.cpp:165] Memory required for data: 4192633904
I0718 14:32:09.052701 33611 layer_factory.hpp:76] Creating layer inception_5a/1x1
I0718 14:32:09.052721 33611 net.cpp:106] Creating Layer inception_5a/1x1
I0718 14:32:09.052734 33611 net.cpp:454] inception_5a/1x1 <- pool4/3x3_s2_pool4/3x3_s2_0_split_0
I0718 14:32:09.052750 33611 net.cpp:411] inception_5a/1x1 -> inception_5a/1x1
I0718 14:32:09.057211 33611 cudnn_conv_layer.cpp:194] Reallocating workspace storage: 9984
I0718 14:32:09.057271 33611 net.cpp:150] Setting up inception_5a/1x1
I0718 14:32:09.057293 33611 net.cpp:157] Top shape: 4 256 31 31 (984064)
I0718 14:32:09.057307 33611 net.cpp:165] Memory required for data: 4196570160
I0718 14:32:09.057325 33611 layer_factory.hpp:76] Creating layer inception_5a/relu_1x1
I0718 14:32:09.057344 33611 net.cpp:106] Creating Layer inception_5a/relu_1x1
I0718 14:32:09.057358 33611 net.cpp:454] inception_5a/relu_1x1 <- inception_5a/1x1
I0718 14:32:09.057374 33611 net.cpp:397] inception_5a/relu_1x1 -> inception_5a/1x1 (in-place)
I0718 14:32:09.057646 33611 net.cpp:150] Setting up inception_5a/relu_1x1
I0718 14:32:09.057669 33611 net.cpp:157] Top shape: 4 256 31 31 (984064)
I0718 14:32:09.057682 33611 net.cpp:165] Memory required for data: 4200506416
I0718 14:32:09.057711 33611 layer_factory.hpp:76] Creating layer inception_5a/3x3_reduce
I0718 14:32:09.057734 33611 net.cpp:106] Creating Layer inception_5a/3x3_reduce
I0718 14:32:09.057747 33611 net.cpp:454] inception_5a/3x3_reduce <- pool4/3x3_s2_pool4/3x3_s2_0_split_1
I0718 14:32:09.057765 33611 net.cpp:411] inception_5a/3x3_reduce -> inception_5a/3x3_reduce
I0718 14:32:09.061731 33611 cudnn_conv_layer.cpp:194] Reallocating workspace storage: 9984
I0718 14:32:09.061812 33611 net.cpp:150] Setting up inception_5a/3x3_reduce
I0718 14:32:09.061841 33611 net.cpp:157] Top shape: 4 160 31 31 (615040)
I0718 14:32:09.061856 33611 net.cpp:165] Memory required for data: 4202966576
I0718 14:32:09.061880 33611 layer_factory.hpp:76] Creating layer inception_5a/relu_3x3_reduce
I0718 14:32:09.061909 33611 net.cpp:106] Creating Layer inception_5a/relu_3x3_reduce
I0718 14:32:09.061930 33611 net.cpp:454] inception_5a/relu_3x3_reduce <- inception_5a/3x3_reduce
I0718 14:32:09.061952 33611 net.cpp:397] inception_5a/relu_3x3_reduce -> inception_5a/3x3_reduce (in-place)
I0718 14:32:09.062459 33611 net.cpp:150] Setting up inception_5a/relu_3x3_reduce
I0718 14:32:09.062490 33611 net.cpp:157] Top shape: 4 160 31 31 (615040)
I0718 14:32:09.062505 33611 net.cpp:165] Memory required for data: 4205426736
I0718 14:32:09.062520 33611 layer_factory.hpp:76] Creating layer inception_5a/3x3
I0718 14:32:09.062551 33611 net.cpp:106] Creating Layer inception_5a/3x3
I0718 14:32:09.062567 33611 net.cpp:454] inception_5a/3x3 <- inception_5a/3x3_reduce
I0718 14:32:09.062585 33611 net.cpp:411] inception_5a/3x3 -> inception_5a/3x3
I0718 14:32:09.069929 33611 net.cpp:150] Setting up inception_5a/3x3
I0718 14:32:09.069996 33611 net.cpp:157] Top shape: 4 320 31 31 (1230080)
I0718 14:32:09.070013 33611 net.cpp:165] Memory required for data: 4210347056
I0718 14:32:09.070035 33611 layer_factory.hpp:76] Creating layer inception_5a/relu_3x3
I0718 14:32:09.070060 33611 net.cpp:106] Creating Layer inception_5a/relu_3x3
I0718 14:32:09.070078 33611 net.cpp:454] inception_5a/relu_3x3 <- inception_5a/3x3
I0718 14:32:09.070101 33611 net.cpp:397] inception_5a/relu_3x3 -> inception_5a/3x3 (in-place)
I0718 14:32:09.070607 33611 net.cpp:150] Setting up inception_5a/relu_3x3
I0718 14:32:09.070670 33611 net.cpp:157] Top shape: 4 320 31 31 (1230080)
I0718 14:32:09.070688 33611 net.cpp:165] Memory required for data: 4215267376
I0718 14:32:09.070703 33611 layer_factory.hpp:76] Creating layer inception_5a/5x5_reduce
I0718 14:32:09.070727 33611 net.cpp:106] Creating Layer inception_5a/5x5_reduce
I0718 14:32:09.070755 33611 net.cpp:454] inception_5a/5x5_reduce <- pool4/3x3_s2_pool4/3x3_s2_0_split_2
I0718 14:32:09.070782 33611 net.cpp:411] inception_5a/5x5_reduce -> inception_5a/5x5_reduce
I0718 14:32:09.072789 33611 cudnn_conv_layer.cpp:194] Reallocating workspace storage: 9984
I0718 14:32:09.072857 33611 net.cpp:150] Setting up inception_5a/5x5_reduce
I0718 14:32:09.072880 33611 net.cpp:157] Top shape: 4 32 31 31 (123008)
I0718 14:32:09.072895 33611 net.cpp:165] Memory required for data: 4215759408
I0718 14:32:09.072912 33611 layer_factory.hpp:76] Creating layer inception_5a/relu_5x5_reduce
I0718 14:32:09.072934 33611 net.cpp:106] Creating Layer inception_5a/relu_5x5_reduce
I0718 14:32:09.072949 33611 net.cpp:454] inception_5a/relu_5x5_reduce <- inception_5a/5x5_reduce
I0718 14:32:09.072965 33611 net.cpp:397] inception_5a/relu_5x5_reduce -> inception_5a/5x5_reduce (in-place)
I0718 14:32:09.073267 33611 net.cpp:150] Setting up inception_5a/relu_5x5_reduce
I0718 14:32:09.073297 33611 net.cpp:157] Top shape: 4 32 31 31 (123008)
I0718 14:32:09.073309 33611 net.cpp:165] Memory required for data: 4216251440
I0718 14:32:09.073325 33611 layer_factory.hpp:76] Creating layer inception_5a/5x5
I0718 14:32:09.073372 33611 net.cpp:106] Creating Layer inception_5a/5x5
I0718 14:32:09.073396 33611 net.cpp:454] inception_5a/5x5 <- inception_5a/5x5_reduce
I0718 14:32:09.073421 33611 net.cpp:411] inception_5a/5x5 -> inception_5a/5x5
I0718 14:32:09.076153 33611 cudnn_conv_layer.cpp:194] Reallocating workspace storage: 9600
I0718 14:32:09.076267 33611 net.cpp:150] Setting up inception_5a/5x5
I0718 14:32:09.076297 33611 net.cpp:157] Top shape: 4 128 31 31 (492032)
I0718 14:32:09.076313 33611 net.cpp:165] Memory required for data: 4218219568
I0718 14:32:09.076339 33611 layer_factory.hpp:76] Creating layer inception_5a/relu_5x5
I0718 14:32:09.076362 33611 net.cpp:106] Creating Layer inception_5a/relu_5x5
I0718 14:32:09.076380 33611 net.cpp:454] inception_5a/relu_5x5 <- inception_5a/5x5
I0718 14:32:09.076405 33611 net.cpp:397] inception_5a/relu_5x5 -> inception_5a/5x5 (in-place)
I0718 14:32:09.076920 33611 net.cpp:150] Setting up inception_5a/relu_5x5
I0718 14:32:09.076951 33611 net.cpp:157] Top shape: 4 128 31 31 (492032)
I0718 14:32:09.076967 33611 net.cpp:165] Memory required for data: 4220187696
I0718 14:32:09.076982 33611 layer_factory.hpp:76] Creating layer inception_5a/pool
I0718 14:32:09.077006 33611 net.cpp:106] Creating Layer inception_5a/pool
I0718 14:32:09.077024 33611 net.cpp:454] inception_5a/pool <- pool4/3x3_s2_pool4/3x3_s2_0_split_3
I0718 14:32:09.077044 33611 net.cpp:411] inception_5a/pool -> inception_5a/pool
I0718 14:32:09.077396 33611 net.cpp:150] Setting up inception_5a/pool
I0718 14:32:09.077425 33611 net.cpp:157] Top shape: 4 832 31 31 (3198208)
I0718 14:32:09.077437 33611 net.cpp:165] Memory required for data: 4232980528
I0718 14:32:09.077451 33611 layer_factory.hpp:76] Creating layer inception_5a/pool_proj
I0718 14:32:09.077476 33611 net.cpp:106] Creating Layer inception_5a/pool_proj
I0718 14:32:09.077494 33611 net.cpp:454] inception_5a/pool_proj <- inception_5a/pool
I0718 14:32:09.077512 33611 net.cpp:411] inception_5a/pool_proj -> inception_5a/pool_proj
I0718 14:32:09.081589 33611 cudnn_conv_layer.cpp:194] Reallocating workspace storage: 9984
I0718 14:32:09.081722 33611 net.cpp:150] Setting up inception_5a/pool_proj
I0718 14:32:09.081754 33611 net.cpp:157] Top shape: 4 128 31 31 (492032)
I0718 14:32:09.081771 33611 net.cpp:165] Memory required for data: 4234948656
I0718 14:32:09.081795 33611 layer_factory.hpp:76] Creating layer inception_5a/relu_pool_proj
I0718 14:32:09.081820 33611 net.cpp:106] Creating Layer inception_5a/relu_pool_proj
I0718 14:32:09.081840 33611 net.cpp:454] inception_5a/relu_pool_proj <- inception_5a/pool_proj
I0718 14:32:09.081861 33611 net.cpp:397] inception_5a/relu_pool_proj -> inception_5a/pool_proj (in-place)
I0718 14:32:09.082345 33611 net.cpp:150] Setting up inception_5a/relu_pool_proj
I0718 14:32:09.082376 33611 net.cpp:157] Top shape: 4 128 31 31 (492032)
I0718 14:32:09.082391 33611 net.cpp:165] Memory required for data: 4236916784
I0718 14:32:09.082406 33611 layer_factory.hpp:76] Creating layer inception_5a/output
I0718 14:32:09.082432 33611 net.cpp:106] Creating Layer inception_5a/output
I0718 14:32:09.082447 33611 net.cpp:454] inception_5a/output <- inception_5a/1x1
I0718 14:32:09.082463 33611 net.cpp:454] inception_5a/output <- inception_5a/3x3
I0718 14:32:09.082484 33611 net.cpp:454] inception_5a/output <- inception_5a/5x5
I0718 14:32:09.082504 33611 net.cpp:454] inception_5a/output <- inception_5a/pool_proj
I0718 14:32:09.082521 33611 net.cpp:411] inception_5a/output -> inception_5a/output
I0718 14:32:09.082595 33611 net.cpp:150] Setting up inception_5a/output
I0718 14:32:09.082619 33611 net.cpp:157] Top shape: 4 832 31 31 (3198208)
I0718 14:32:09.082658 33611 net.cpp:165] Memory required for data: 4249709616
I0718 14:32:09.082677 33611 layer_factory.hpp:76] Creating layer inception_5a/output_inception_5a/output_0_split
I0718 14:32:09.082702 33611 net.cpp:106] Creating Layer inception_5a/output_inception_5a/output_0_split
I0718 14:32:09.082736 33611 net.cpp:454] inception_5a/output_inception_5a/output_0_split <- inception_5a/output
I0718 14:32:09.082753 33611 net.cpp:411] inception_5a/output_inception_5a/output_0_split -> inception_5a/output_inception_5a/output_0_split_0
I0718 14:32:09.082772 33611 net.cpp:411] inception_5a/output_inception_5a/output_0_split -> inception_5a/output_inception_5a/output_0_split_1
I0718 14:32:09.082787 33611 net.cpp:411] inception_5a/output_inception_5a/output_0_split -> inception_5a/output_inception_5a/output_0_split_2
I0718 14:32:09.082839 33611 net.cpp:411] inception_5a/output_inception_5a/output_0_split -> inception_5a/output_inception_5a/output_0_split_3
I0718 14:32:09.082957 33611 net.cpp:150] Setting up inception_5a/output_inception_5a/output_0_split
I0718 14:32:09.082975 33611 net.cpp:157] Top shape: 4 832 31 31 (3198208)
I0718 14:32:09.082988 33611 net.cpp:157] Top shape: 4 832 31 31 (3198208)
I0718 14:32:09.082999 33611 net.cpp:157] Top shape: 4 832 31 31 (3198208)
I0718 14:32:09.083010 33611 net.cpp:157] Top shape: 4 832 31 31 (3198208)
I0718 14:32:09.083020 33611 net.cpp:165] Memory required for data: 4300880944
I0718 14:32:09.083030 33611 layer_factory.hpp:76] Creating layer inception_5b/1x1
I0718 14:32:09.083053 33611 net.cpp:106] Creating Layer inception_5b/1x1
I0718 14:32:09.083065 33611 net.cpp:454] inception_5b/1x1 <- inception_5a/output_inception_5a/output_0_split_0
I0718 14:32:09.083082 33611 net.cpp:411] inception_5b/1x1 -> inception_5b/1x1
I0718 14:32:09.088747 33611 cudnn_conv_layer.cpp:194] Reallocating workspace storage: 9984
I0718 14:32:09.088841 33611 net.cpp:150] Setting up inception_5b/1x1
I0718 14:32:09.088866 33611 net.cpp:157] Top shape: 4 384 31 31 (1476096)
I0718 14:32:09.088879 33611 net.cpp:165] Memory required for data: 4306785328
I0718 14:32:09.088901 33611 layer_factory.hpp:76] Creating layer inception_5b/relu_1x1
I0718 14:32:09.088935 33611 net.cpp:106] Creating Layer inception_5b/relu_1x1
I0718 14:32:09.088953 33611 net.cpp:454] inception_5b/relu_1x1 <- inception_5b/1x1
I0718 14:32:09.088973 33611 net.cpp:397] inception_5b/relu_1x1 -> inception_5b/1x1 (in-place)
I0718 14:32:09.089462 33611 net.cpp:150] Setting up inception_5b/relu_1x1
I0718 14:32:09.089491 33611 net.cpp:157] Top shape: 4 384 31 31 (1476096)
I0718 14:32:09.089504 33611 net.cpp:165] Memory required for data: 4312689712
I0718 14:32:09.089519 33611 layer_factory.hpp:76] Creating layer inception_5b/3x3_reduce
I0718 14:32:09.089545 33611 net.cpp:106] Creating Layer inception_5b/3x3_reduce
I0718 14:32:09.089560 33611 net.cpp:454] inception_5b/3x3_reduce <- inception_5a/output_inception_5a/output_0_split_1
I0718 14:32:09.089581 33611 net.cpp:411] inception_5b/3x3_reduce -> inception_5b/3x3_reduce
I0718 14:32:09.093657 33611 cudnn_conv_layer.cpp:194] Reallocating workspace storage: 9984
I0718 14:32:09.093714 33611 net.cpp:150] Setting up inception_5b/3x3_reduce
I0718 14:32:09.093734 33611 net.cpp:157] Top shape: 4 192 31 31 (738048)
I0718 14:32:09.093746 33611 net.cpp:165] Memory required for data: 4315641904
I0718 14:32:09.093765 33611 layer_factory.hpp:76] Creating layer inception_5b/relu_3x3_reduce
I0718 14:32:09.093782 33611 net.cpp:106] Creating Layer inception_5b/relu_3x3_reduce
I0718 14:32:09.093797 33611 net.cpp:454] inception_5b/relu_3x3_reduce <- inception_5b/3x3_reduce
I0718 14:32:09.093811 33611 net.cpp:397] inception_5b/relu_3x3_reduce -> inception_5b/3x3_reduce (in-place)
I0718 14:32:09.094080 33611 net.cpp:150] Setting up inception_5b/relu_3x3_reduce
I0718 14:32:09.094106 33611 net.cpp:157] Top shape: 4 192 31 31 (738048)
I0718 14:32:09.094120 33611 net.cpp:165] Memory required for data: 4318594096
I0718 14:32:09.094131 33611 layer_factory.hpp:76] Creating layer inception_5b/3x3
I0718 14:32:09.094151 33611 net.cpp:106] Creating Layer inception_5b/3x3
I0718 14:32:09.094164 33611 net.cpp:454] inception_5b/3x3 <- inception_5b/3x3_reduce
I0718 14:32:09.094179 33611 net.cpp:411] inception_5b/3x3 -> inception_5b/3x3
I0718 14:32:09.103065 33611 net.cpp:150] Setting up inception_5b/3x3
I0718 14:32:09.103123 33611 net.cpp:157] Top shape: 4 384 31 31 (1476096)
I0718 14:32:09.103138 33611 net.cpp:165] Memory required for data: 4324498480
I0718 14:32:09.103158 33611 layer_factory.hpp:76] Creating layer inception_5b/relu_3x3
I0718 14:32:09.103181 33611 net.cpp:106] Creating Layer inception_5b/relu_3x3
I0718 14:32:09.103199 33611 net.cpp:454] inception_5b/relu_3x3 <- inception_5b/3x3
I0718 14:32:09.103215 33611 net.cpp:397] inception_5b/relu_3x3 -> inception_5b/3x3 (in-place)
I0718 14:32:09.103719 33611 net.cpp:150] Setting up inception_5b/relu_3x3
I0718 14:32:09.103749 33611 net.cpp:157] Top shape: 4 384 31 31 (1476096)
I0718 14:32:09.103762 33611 net.cpp:165] Memory required for data: 4330402864
I0718 14:32:09.103775 33611 layer_factory.hpp:76] Creating layer inception_5b/5x5_reduce
I0718 14:32:09.103806 33611 net.cpp:106] Creating Layer inception_5b/5x5_reduce
I0718 14:32:09.103821 33611 net.cpp:454] inception_5b/5x5_reduce <- inception_5a/output_inception_5a/output_0_split_2
I0718 14:32:09.103840 33611 net.cpp:411] inception_5b/5x5_reduce -> inception_5b/5x5_reduce
I0718 14:32:09.105546 33611 net.cpp:150] Setting up inception_5b/5x5_reduce
I0718 14:32:09.105576 33611 net.cpp:157] Top shape: 4 48 31 31 (184512)
I0718 14:32:09.105590 33611 net.cpp:165] Memory required for data: 4331140912
I0718 14:32:09.105612 33611 layer_factory.hpp:76] Creating layer inception_5b/relu_5x5_reduce
I0718 14:32:09.105626 33611 net.cpp:106] Creating Layer inception_5b/relu_5x5_reduce
I0718 14:32:09.105638 33611 net.cpp:454] inception_5b/relu_5x5_reduce <- inception_5b/5x5_reduce
I0718 14:32:09.105651 33611 net.cpp:397] inception_5b/relu_5x5_reduce -> inception_5b/5x5_reduce (in-place)
I0718 14:32:09.106117 33611 net.cpp:150] Setting up inception_5b/relu_5x5_reduce
I0718 14:32:09.106148 33611 net.cpp:157] Top shape: 4 48 31 31 (184512)
I0718 14:32:09.106161 33611 net.cpp:165] Memory required for data: 4331878960
I0718 14:32:09.106173 33611 layer_factory.hpp:76] Creating layer inception_5b/5x5
I0718 14:32:09.106190 33611 net.cpp:106] Creating Layer inception_5b/5x5
I0718 14:32:09.106204 33611 net.cpp:454] inception_5b/5x5 <- inception_5b/5x5_reduce
I0718 14:32:09.106220 33611 net.cpp:411] inception_5b/5x5 -> inception_5b/5x5
I0718 14:32:09.109261 33611 net.cpp:150] Setting up inception_5b/5x5
I0718 14:32:09.109314 33611 net.cpp:157] Top shape: 4 128 31 31 (492032)
I0718 14:32:09.109328 33611 net.cpp:165] Memory required for data: 4333847088
I0718 14:32:09.109349 33611 layer_factory.hpp:76] Creating layer inception_5b/relu_5x5
I0718 14:32:09.109371 33611 net.cpp:106] Creating Layer inception_5b/relu_5x5
I0718 14:32:09.109386 33611 net.cpp:454] inception_5b/relu_5x5 <- inception_5b/5x5
I0718 14:32:09.109403 33611 net.cpp:397] inception_5b/relu_5x5 -> inception_5b/5x5 (in-place)
I0718 14:32:09.109691 33611 net.cpp:150] Setting up inception_5b/relu_5x5
I0718 14:32:09.109714 33611 net.cpp:157] Top shape: 4 128 31 31 (492032)
I0718 14:32:09.109726 33611 net.cpp:165] Memory required for data: 4335815216
I0718 14:32:09.109738 33611 layer_factory.hpp:76] Creating layer inception_5b/pool
I0718 14:32:09.109758 33611 net.cpp:106] Creating Layer inception_5b/pool
I0718 14:32:09.109772 33611 net.cpp:454] inception_5b/pool <- inception_5a/output_inception_5a/output_0_split_3
I0718 14:32:09.109788 33611 net.cpp:411] inception_5b/pool -> inception_5b/pool
I0718 14:32:09.110332 33611 net.cpp:150] Setting up inception_5b/pool
I0718 14:32:09.110358 33611 net.cpp:157] Top shape: 4 832 31 31 (3198208)
I0718 14:32:09.110376 33611 net.cpp:165] Memory required for data: 4348608048
I0718 14:32:09.110389 33611 layer_factory.hpp:76] Creating layer inception_5b/pool_proj
I0718 14:32:09.110411 33611 net.cpp:106] Creating Layer inception_5b/pool_proj
I0718 14:32:09.110424 33611 net.cpp:454] inception_5b/pool_proj <- inception_5b/pool
I0718 14:32:09.110445 33611 net.cpp:411] inception_5b/pool_proj -> inception_5b/pool_proj
I0718 14:32:09.113981 33611 cudnn_conv_layer.cpp:194] Reallocating workspace storage: 9984
I0718 14:32:09.114064 33611 net.cpp:150] Setting up inception_5b/pool_proj
I0718 14:32:09.114095 33611 net.cpp:157] Top shape: 4 128 31 31 (492032)
I0718 14:32:09.114111 33611 net.cpp:165] Memory required for data: 4350576176
I0718 14:32:09.114130 33611 layer_factory.hpp:76] Creating layer inception_5b/relu_pool_proj
I0718 14:32:09.114148 33611 net.cpp:106] Creating Layer inception_5b/relu_pool_proj
I0718 14:32:09.114187 33611 net.cpp:454] inception_5b/relu_pool_proj <- inception_5b/pool_proj
I0718 14:32:09.114239 33611 net.cpp:397] inception_5b/relu_pool_proj -> inception_5b/pool_proj (in-place)
I0718 14:32:09.114560 33611 net.cpp:150] Setting up inception_5b/relu_pool_proj
I0718 14:32:09.114588 33611 net.cpp:157] Top shape: 4 128 31 31 (492032)
I0718 14:32:09.114600 33611 net.cpp:165] Memory required for data: 4352544304
I0718 14:32:09.114612 33611 layer_factory.hpp:76] Creating layer inception_5b/output
I0718 14:32:09.114635 33611 net.cpp:106] Creating Layer inception_5b/output
I0718 14:32:09.114661 33611 net.cpp:454] inception_5b/output <- inception_5b/1x1
I0718 14:32:09.114687 33611 net.cpp:454] inception_5b/output <- inception_5b/3x3
I0718 14:32:09.114701 33611 net.cpp:454] inception_5b/output <- inception_5b/5x5
I0718 14:32:09.114715 33611 net.cpp:454] inception_5b/output <- inception_5b/pool_proj
I0718 14:32:09.114747 33611 net.cpp:411] inception_5b/output -> inception_5b/output
I0718 14:32:09.114807 33611 net.cpp:150] Setting up inception_5b/output
I0718 14:32:09.114827 33611 net.cpp:157] Top shape: 4 1024 31 31 (3936256)
I0718 14:32:09.114840 33611 net.cpp:165] Memory required for data: 4368289328
I0718 14:32:09.114852 33611 layer_factory.hpp:76] Creating layer pool5/7x7_s1
I0718 14:32:09.114871 33611 net.cpp:106] Creating Layer pool5/7x7_s1
I0718 14:32:09.114883 33611 net.cpp:454] pool5/7x7_s1 <- inception_5b/output
I0718 14:32:09.114899 33611 net.cpp:411] pool5/7x7_s1 -> pool5/7x7_s1
I0718 14:32:09.395701 33611 cudnn_conv_layer.cpp:194] Reallocating workspace storage: 602112
I0718 14:32:09.396003 33611 net.cpp:150] Setting up pool5/7x7_s1
I0718 14:32:09.396031 33611 net.cpp:157] Top shape: 4 512 25 25 (1280000)
I0718 14:32:09.396042 33611 net.cpp:165] Memory required for data: 4373409328
I0718 14:32:09.396086 33611 layer_factory.hpp:76] Creating layer conv61
I0718 14:32:09.396144 33611 net.cpp:106] Creating Layer conv61
I0718 14:32:09.396167 33611 net.cpp:454] conv61 <- pool5/7x7_s1
I0718 14:32:09.396201 33611 net.cpp:411] conv61 -> conv61
I0718 14:32:09.400573 33611 cudnn_conv_layer.cpp:194] Reallocating workspace storage: 55296
I0718 14:32:09.400642 33611 net.cpp:150] Setting up conv61
I0718 14:32:09.400663 33611 net.cpp:157] Top shape: 4 64 25 25 (160000)
I0718 14:32:09.400672 33611 net.cpp:165] Memory required for data: 4374049328
I0718 14:32:09.400688 33611 layer_factory.hpp:76] Creating layer relu61
I0718 14:32:09.400710 33611 net.cpp:106] Creating Layer relu61
I0718 14:32:09.400723 33611 net.cpp:454] relu61 <- conv61
I0718 14:32:09.400738 33611 net.cpp:397] relu61 -> conv61 (in-place)
I0718 14:32:09.400960 33611 net.cpp:150] Setting up relu61
I0718 14:32:09.400979 33611 net.cpp:157] Top shape: 4 64 25 25 (160000)
I0718 14:32:09.400987 33611 net.cpp:165] Memory required for data: 4374689328
I0718 14:32:09.400996 33611 layer_factory.hpp:76] Creating layer pool5
I0718 14:32:09.401015 33611 net.cpp:106] Creating Layer pool5
I0718 14:32:09.401031 33611 net.cpp:454] pool5 <- conv61
I0718 14:32:09.401051 33611 net.cpp:411] pool5 -> pool5
I0718 14:32:09.401489 33611 net.cpp:150] Setting up pool5
I0718 14:32:09.401510 33611 net.cpp:157] Top shape: 4 64 13 13 (43264)
I0718 14:32:09.401525 33611 net.cpp:165] Memory required for data: 4374862384
I0718 14:32:09.401540 33611 layer_factory.hpp:76] Creating layer conv62
I0718 14:32:09.401558 33611 net.cpp:106] Creating Layer conv62
I0718 14:32:09.401568 33611 net.cpp:454] conv62 <- pool5
I0718 14:32:09.401582 33611 net.cpp:411] conv62 -> conv62
I0718 14:32:09.403405 33611 net.cpp:150] Setting up conv62
I0718 14:32:09.403430 33611 net.cpp:157] Top shape: 4 64 13 13 (43264)
I0718 14:32:09.403440 33611 net.cpp:165] Memory required for data: 4375035440
I0718 14:32:09.403452 33611 layer_factory.hpp:76] Creating layer relu62
I0718 14:32:09.403470 33611 net.cpp:106] Creating Layer relu62
I0718 14:32:09.403478 33611 net.cpp:454] relu62 <- conv62
I0718 14:32:09.403488 33611 net.cpp:397] relu62 -> conv62 (in-place)
I0718 14:32:09.403707 33611 net.cpp:150] Setting up relu62
I0718 14:32:09.403724 33611 net.cpp:157] Top shape: 4 64 13 13 (43264)
I0718 14:32:09.403762 33611 net.cpp:165] Memory required for data: 4375208496
I0718 14:32:09.403774 33611 layer_factory.hpp:76] Creating layer pool6
I0718 14:32:09.403787 33611 net.cpp:106] Creating Layer pool6
I0718 14:32:09.403801 33611 net.cpp:454] pool6 <- conv62
I0718 14:32:09.403815 33611 net.cpp:411] pool6 -> pool6
I0718 14:32:09.404297 33611 net.cpp:150] Setting up pool6
I0718 14:32:09.404323 33611 net.cpp:157] Top shape: 4 64 7 7 (12544)
I0718 14:32:09.404333 33611 net.cpp:165] Memory required for data: 4375258672
I0718 14:32:09.404345 33611 layer_factory.hpp:76] Creating layer conv82
I0718 14:32:09.404362 33611 net.cpp:106] Creating Layer conv82
I0718 14:32:09.404388 33611 net.cpp:454] conv82 <- pool6
I0718 14:32:09.404402 33611 net.cpp:411] conv82 -> conv82
I0718 14:32:09.406106 33611 cudnn_conv_layer.cpp:194] Reallocating workspace storage: 6912
I0718 14:32:09.406193 33611 net.cpp:150] Setting up conv82
I0718 14:32:09.406208 33611 net.cpp:157] Top shape: 4 128 7 7 (25088)
I0718 14:32:09.406219 33611 net.cpp:165] Memory required for data: 4375359024
I0718 14:32:09.406229 33611 layer_factory.hpp:76] Creating layer relu82
I0718 14:32:09.406242 33611 net.cpp:106] Creating Layer relu82
I0718 14:32:09.406253 33611 net.cpp:454] relu82 <- conv82
I0718 14:32:09.406271 33611 net.cpp:397] relu82 -> conv82 (in-place)
I0718 14:32:09.406661 33611 net.cpp:150] Setting up relu82
I0718 14:32:09.406682 33611 net.cpp:157] Top shape: 4 128 7 7 (25088)
I0718 14:32:09.406692 33611 net.cpp:165] Memory required for data: 4375459376
I0718 14:32:09.406700 33611 layer_factory.hpp:76] Creating layer pool7
I0718 14:32:09.406716 33611 net.cpp:106] Creating Layer pool7
I0718 14:32:09.406726 33611 net.cpp:454] pool7 <- conv82
I0718 14:32:09.406736 33611 net.cpp:411] pool7 -> pool7
I0718 14:32:09.406980 33611 net.cpp:150] Setting up pool7
I0718 14:32:09.406998 33611 net.cpp:157] Top shape: 4 128 4 4 (8192)
I0718 14:32:09.407007 33611 net.cpp:165] Memory required for data: 4375492144
I0718 14:32:09.407017 33611 layer_factory.hpp:76] Creating layer drop0
I0718 14:32:09.407037 33611 net.cpp:106] Creating Layer drop0
I0718 14:32:09.407047 33611 net.cpp:454] drop0 <- pool7
I0718 14:32:09.407058 33611 net.cpp:397] drop0 -> pool7 (in-place)
I0718 14:32:09.407150 33611 net.cpp:150] Setting up drop0
I0718 14:32:09.407168 33611 net.cpp:157] Top shape: 4 128 4 4 (8192)
I0718 14:32:09.407177 33611 net.cpp:165] Memory required for data: 4375524912
I0718 14:32:09.407186 33611 layer_factory.hpp:76] Creating layer conv91
I0718 14:32:09.407210 33611 net.cpp:106] Creating Layer conv91
I0718 14:32:09.407222 33611 net.cpp:454] conv91 <- pool7
I0718 14:32:09.407232 33611 net.cpp:411] conv91 -> conv91
I0718 14:32:09.408691 33611 cudnn_conv_layer.cpp:194] Reallocating workspace storage: 6211584
I0718 14:32:09.408946 33611 net.cpp:150] Setting up conv91
I0718 14:32:09.408970 33611 net.cpp:157] Top shape: 4 3 1 1 (12)
I0718 14:32:09.408982 33611 net.cpp:165] Memory required for data: 4375524960
I0718 14:32:09.408998 33611 layer_factory.hpp:76] Creating layer conv91_conv91_0_split
I0718 14:32:09.409011 33611 net.cpp:106] Creating Layer conv91_conv91_0_split
I0718 14:32:09.409020 33611 net.cpp:454] conv91_conv91_0_split <- conv91
I0718 14:32:09.409031 33611 net.cpp:411] conv91_conv91_0_split -> conv91_conv91_0_split_0
I0718 14:32:09.409044 33611 net.cpp:411] conv91_conv91_0_split -> conv91_conv91_0_split_1
I0718 14:32:09.409117 33611 net.cpp:150] Setting up conv91_conv91_0_split
I0718 14:32:09.409134 33611 net.cpp:157] Top shape: 4 3 1 1 (12)
I0718 14:32:09.409143 33611 net.cpp:157] Top shape: 4 3 1 1 (12)
I0718 14:32:09.409152 33611 net.cpp:165] Memory required for data: 4375525056
I0718 14:32:09.409160 33611 layer_factory.hpp:76] Creating layer accuracy
I0718 14:32:09.409178 33611 net.cpp:106] Creating Layer accuracy
I0718 14:32:09.409190 33611 net.cpp:454] accuracy <- conv91_conv91_0_split_0
I0718 14:32:09.409206 33611 net.cpp:454] accuracy <- label_data_1_split_0
I0718 14:32:09.409219 33611 net.cpp:411] accuracy -> accuracy
…
