…
  type: "Python"
  top: "data"
  top: "label"
  include {
    phase: TRAIN
  }
  python_param {
    module: "mask_image_layer"
    layer: "random_patches_from_images_withlabel"
    param_str: "{\'root_folder\': \'/home/dywang/Proliferation/data/mitoses\', \'image_list\': \'/home/dywang/00exp_wdy/stage04_mitosisDetection/step02_train_mitosis_detecotor/heatmap_mc13_tr/all_image_withlabel_mc13_tr.lst\', \'seed\': 8899, \'mean\': (128, 128, 128), \'size\': 64, \'batch\': 128, \'scale\':0.1, \'colorn\':20, \'classes\':\'1:0 2:1 3:0\', \'DEBUG\': True}"
  }
}
layer {
  name: "conv11"
  type: "Convolution"
  bottom: "data"
  top: "conv11"
  param {
    lr_mult: 1
    decay_mult: 1
  }
  param {
    lr_mult: 2
    decay_mult: 0
  }
  convolution_param {
    num_output: 32
    pad: 0
    stride: 1
    weight_filler {
      type: "xavier"
    }
    bias_filler {
      type: "constant"
    }
    kernel_h: 3
    kernel_w: 3
  }
}
layer {
  name: "relu11"
  type: "ReLU"
  bottom: "conv11"
  top: "conv11"
}
layer {
  name: "conv12"
  type: "Convolution"
  bottom: "conv11"
  top: "conv12"
  param {
    lr_mult: 1
    decay_mult: 1
  }
  param {
    lr_mult: 2
    decay_mult: 0
  }
  convolution_param {
    num_output: 32
    pad: 0
    stride: 1
    weight_filler {
      type: "xavier"
    }
    bias_filler {
      type: "constant"
    }
    kernel_h: 3
    kernel_w: 3
  }
}
layer {
  name: "relu12"
  type: "ReLU"
  bottom: "conv12"
  top: "conv12"
}
layer {
  name: "pool1"
  type: "Pooling"
  bottom: "conv12"
  top: "pool1"
  pooling_param {
    pool: MAX
    kernel_size: 2
    stride: 2
  }
}
layer {
  name: "conv21"
  type: "Convolution"
  bottom: "pool1"
  top: "conv21"
  param {
    lr_mult: 1
    decay_mult: 1
  }
  param {
    lr_mult: 2
    decay_mult: 0
  }
  convolution_param {
    num_output: 64
    pad: 0
    stride: 1
    weight_filler {
      type: "xavier"
    }
    bias_filler {
      type: "constant"
    }
    kernel_h: 3
    kernel_w: 3
  }
}
layer {
  name: "relu21"
  type: "ReLU"
  bottom: "conv21"
  top: "conv21"
}
layer {
  name: "conv22"
  type: "Convolution"
  bottom: "conv21"
  top: "conv22"
  param {
    lr_mult: 1
    decay_mult: 1
  }
  param {
    lr_mult: 2
    decay_mult: 0
  }
  convolution_param {
    num_output: 64
    pad: 0
    stride: 1
    weight_filler {
      type: "xavier"
    }
    bias_filler {
      type: "constant"
    }
    kernel_h: 3
    kernel_w: 3
  }
}
layer {
  name: "relu22"
  type: "ReLU"
  bottom: "conv22"
  top: "conv22"
}
layer {
  name: "pool2"
  type: "Pooling"
  bottom: "conv22"
  top: "pool2"
  pooling_param {
    pool: MAX
    kernel_size: 2
    stride: 2
  }
}
layer {
  name: "conv31"
  type: "Convolution"
  bottom: "pool2"
  top: "conv31"
  param {
    lr_mult: 1
    decay_mult: 1
  }
  param {
    lr_mult: 2
    decay_mult: 0
  }
  convolution_param {
    num_output: 128
    pad: 0
    stride: 1
    weight_filler {
      type: "xavier"
    }
    bias_filler {
      type: "constant"
    }
    kernel_h: 3
    kernel_w: 3
  }
}
layer {
  name: "relu31"
  type: "ReLU"
  bottom: "conv31"
  top: "conv31"
}
layer {
  name: "conv32"
  type: "Convolution"
  bottom: "conv31"
  top: "conv32"
  param {
    lr_mult: 1
    decay_mult: 1
  }
  param {
    lr_mult: 2
    decay_mult: 0
  }
  convolution_param {
    num_output: 128
    pad: 0
    stride: 1
    weight_filler {
      type: "xavier"
    }
    bias_filler {
      type: "constant"
    }
    kernel_h: 3
    kernel_w: 3
  }
}
layer {
  name: "relu32"
  type: "ReLU"
  bottom: "conv32"
  top: "conv32"
}
layer {
  name: "pool3"
  type: "Pooling"
  bottom: "conv32"
  top: "pool3"
  pooling_param {
    pool: MAX
    kernel_size: 3
    stride: 3
  }
}
layer {
  name: "conv4"
  type: "Convolution"
  bottom: "pool3"
  top: "conv4"
  param {
    lr_mult: 1
    decay_mult: 1
  }
  param {
    lr_mult: 2
    decay_mult: 0
  }
  convolution_param {
    num_output: 256
    pad: 0
    stride: 1
    weight_filler {
      type: "xavier"
    }
    bias_filler {
      type: "constant"
    }
    kernel_h: 3
    kernel_w: 3
  }
}
layer {
  name: "relu4"
  type: "ReLU"
  bottom: "conv4"
  top: "conv4"
}
layer {
  name: "drop"
  type: "Dropout"
  bottom: "conv4"
  top: "conv4"
  dropout_param {
    dropout_ratio: 0.5
  }
}
layer {
  name: "conv_c"
  type: "Convolution"
  bottom: "conv4"
  top: "conv_c"
  param {
    lr_mult: 1
    decay_mult: 1
  }
  param {
    lr_mult: 2
    decay_mult: 0
  }
  convolution_param {
    num_output: 256
    pad: 0
    stride: 1
    weight_filler {
      type: "xavier"
    }
    bias_filler {
      type: "constant"
    }
    kernel_h: 1
    kernel_w: 1
  }
}
layer {
  name: "loss"
  type: "SoftmaxWithLoss"
  bottom: "conv_c"
  bottom: "label"
  top: "loss"
}
I0727 15:12:51.642704 103017 layer_factory.hpp:76] Creating layer data
I0727 15:12:53.176213 103017 net.cpp:106] Creating Layer data
I0727 15:12:53.176276 103017 net.cpp:411] data -> data
I0727 15:12:53.176306 103017 net.cpp:411] data -> label
I0727 15:12:58.044838 103017 net.cpp:150] Setting up data
I0727 15:12:58.044903 103017 net.cpp:157] Top shape: 128 3 64 64 (1572864)
I0727 15:12:58.044916 103017 net.cpp:157] Top shape: 128 1 1 1 (128)
I0727 15:12:58.044924 103017 net.cpp:165] Memory required for data: 6291968
I0727 15:12:58.044941 103017 layer_factory.hpp:76] Creating layer conv11
I0727 15:12:58.044975 103017 net.cpp:106] Creating Layer conv11
I0727 15:12:58.044986 103017 net.cpp:454] conv11 <- data
I0727 15:12:58.045008 103017 net.cpp:411] conv11 -> conv11
I0727 15:12:58.274307 103017 net.cpp:150] Setting up conv11
I0727 15:12:58.274394 103017 net.cpp:157] Top shape: 128 32 62 62 (15745024)
I0727 15:12:58.274404 103017 net.cpp:165] Memory required for data: 69272064
I0727 15:12:58.274441 103017 layer_factory.hpp:76] Creating layer relu11
I0727 15:12:58.274490 103017 net.cpp:106] Creating Layer relu11
I0727 15:12:58.274502 103017 net.cpp:454] relu11 <- conv11
I0727 15:12:58.274518 103017 net.cpp:397] relu11 -> conv11 (in-place)
I0727 15:12:58.274780 103017 net.cpp:150] Setting up relu11
I0727 15:12:58.274813 103017 net.cpp:157] Top shape: 128 32 62 62 (15745024)
I0727 15:12:58.274822 103017 net.cpp:165] Memory required for data: 132252160
I0727 15:12:58.274832 103017 layer_factory.hpp:76] Creating layer conv12
I0727 15:12:58.274847 103017 net.cpp:106] Creating Layer conv12
I0727 15:12:58.274855 103017 net.cpp:454] conv12 <- conv11
I0727 15:12:58.274868 103017 net.cpp:411] conv12 -> conv12
I0727 15:12:58.276638 103017 net.cpp:150] Setting up conv12
I0727 15:12:58.276682 103017 net.cpp:157] Top shape: 128 32 60 60 (14745600)
I0727 15:12:58.276692 103017 net.cpp:165] Memory required for data: 191234560
I0727 15:12:58.276728 103017 layer_factory.hpp:76] Creating layer relu12
I0727 15:12:58.276747 103017 net.cpp:106] Creating Layer relu12
I0727 15:12:58.276757 103017 net.cpp:454] relu12 <- conv12
I0727 15:12:58.276767 103017 net.cpp:397] relu12 -> conv12 (in-place)
I0727 15:12:58.277123 103017 net.cpp:150] Setting up relu12
I0727 15:12:58.277143 103017 net.cpp:157] Top shape: 128 32 60 60 (14745600)
I0727 15:12:58.277153 103017 net.cpp:165] Memory required for data: 250216960
I0727 15:12:58.277159 103017 layer_factory.hpp:76] Creating layer pool1
I0727 15:12:58.277184 103017 net.cpp:106] Creating Layer pool1
I0727 15:12:58.277192 103017 net.cpp:454] pool1 <- conv12
I0727 15:12:58.277253 103017 net.cpp:411] pool1 -> pool1
I0727 15:12:58.277498 103017 net.cpp:150] Setting up pool1
I0727 15:12:58.277528 103017 net.cpp:157] Top shape: 128 32 30 30 (3686400)
I0727 15:12:58.277536 103017 net.cpp:165] Memory required for data: 264962560
I0727 15:12:58.277545 103017 layer_factory.hpp:76] Creating layer conv21
I0727 15:12:58.277564 103017 net.cpp:106] Creating Layer conv21
I0727 15:12:58.277572 103017 net.cpp:454] conv21 <- pool1
I0727 15:12:58.277582 103017 net.cpp:411] conv21 -> conv21
I0727 15:12:58.279518 103017 net.cpp:150] Setting up conv21
I0727 15:12:58.279554 103017 net.cpp:157] Top shape: 128 64 28 28 (6422528)
I0727 15:12:58.279564 103017 net.cpp:165] Memory required for data: 290652672
I0727 15:12:58.279584 103017 layer_factory.hpp:76] Creating layer relu21
I0727 15:12:58.279597 103017 net.cpp:106] Creating Layer relu21
I0727 15:12:58.279604 103017 net.cpp:454] relu21 <- conv21
I0727 15:12:58.279614 103017 net.cpp:397] relu21 -> conv21 (in-place)
I0727 15:12:58.279968 103017 net.cpp:150] Setting up relu21
I0727 15:12:58.279997 103017 net.cpp:157] Top shape: 128 64 28 28 (6422528)
I0727 15:12:58.280005 103017 net.cpp:165] Memory required for data: 316342784
I0727 15:12:58.280014 103017 layer_factory.hpp:76] Creating layer conv22
I0727 15:12:58.280046 103017 net.cpp:106] Creating Layer conv22
I0727 15:12:58.280056 103017 net.cpp:454] conv22 <- conv21
I0727 15:12:58.280066 103017 net.cpp:411] conv22 -> conv22
I0727 15:12:58.284577 103017 net.cpp:150] Setting up conv22
I0727 15:12:58.284610 103017 net.cpp:157] Top shape: 128 64 26 26 (5537792)
I0727 15:12:58.284618 103017 net.cpp:165] Memory required for data: 338493952
I0727 15:12:58.284632 103017 layer_factory.hpp:76] Creating layer relu22
I0727 15:12:58.284646 103017 net.cpp:106] Creating Layer relu22
I0727 15:12:58.284653 103017 net.cpp:454] relu22 <- conv22
I0727 15:12:58.284663 103017 net.cpp:397] relu22 -> conv22 (in-place)
I0727 15:12:58.285979 103017 net.cpp:150] Setting up relu22
I0727 15:12:58.286022 103017 net.cpp:157] Top shape: 128 64 26 26 (5537792)
I0727 15:12:58.286034 103017 net.cpp:165] Memory required for data: 360645120
I0727 15:12:58.286046 103017 layer_factory.hpp:76] Creating layer pool2
I0727 15:12:58.286067 103017 net.cpp:106] Creating Layer pool2
I0727 15:12:58.286079 103017 net.cpp:454] pool2 <- conv22
I0727 15:12:58.286095 103017 net.cpp:411] pool2 -> pool2
I0727 15:12:58.288306 103017 net.cpp:150] Setting up pool2
I0727 15:12:58.288326 103017 net.cpp:157] Top shape: 128 64 13 13 (1384448)
I0727 15:12:58.288336 103017 net.cpp:165] Memory required for data: 366182912
I0727 15:12:58.288344 103017 layer_factory.hpp:76] Creating layer conv31
I0727 15:12:58.288367 103017 net.cpp:106] Creating Layer conv31
I0727 15:12:58.288378 103017 net.cpp:454] conv31 <- pool2
I0727 15:12:58.288395 103017 net.cpp:411] conv31 -> conv31
I0727 15:12:58.295258 103017 cudnn_conv_layer.cpp:194] Reallocating workspace storage: 6912
I0727 15:12:58.295574 103017 net.cpp:150] Setting up conv31
I0727 15:12:58.295611 103017 net.cpp:157] Top shape: 128 128 11 11 (1982464)
I0727 15:12:58.295629 103017 net.cpp:165] Memory required for data: 374112768
I0727 15:12:58.295670 103017 layer_factory.hpp:76] Creating layer relu31
I0727 15:12:58.295720 103017 net.cpp:106] Creating Layer relu31
I0727 15:12:58.295747 103017 net.cpp:454] relu31 <- conv31
I0727 15:12:58.295778 103017 net.cpp:397] relu31 -> conv31 (in-place)
I0727 15:12:58.297410 103017 net.cpp:150] Setting up relu31
I0727 15:12:58.297440 103017 net.cpp:157] Top shape: 128 128 11 11 (1982464)
I0727 15:12:58.297457 103017 net.cpp:165] Memory required for data: 382042624
I0727 15:12:58.297473 103017 layer_factory.hpp:76] Creating layer conv32
I0727 15:12:58.297502 103017 net.cpp:106] Creating Layer conv32
I0727 15:12:58.297533 103017 net.cpp:454] conv32 <- conv31
I0727 15:12:58.297560 103017 net.cpp:411] conv32 -> conv32
I0727 15:12:58.303874 103017 cudnn_conv_layer.cpp:194] Reallocating workspace storage: 13824
I0727 15:12:58.303927 103017 net.cpp:150] Setting up conv32
I0727 15:12:58.303998 103017 net.cpp:157] Top shape: 128 128 9 9 (1327104)
I0727 15:12:58.304020 103017 net.cpp:165] Memory required for data: 387351040
I0727 15:12:58.304042 103017 layer_factory.hpp:76] Creating layer relu32
I0727 15:12:58.304069 103017 net.cpp:106] Creating Layer relu32
I0727 15:12:58.304085 103017 net.cpp:454] relu32 <- conv32
I0727 15:12:58.304105 103017 net.cpp:397] relu32 -> conv32 (in-place)
I0727 15:12:58.306027 103017 net.cpp:150] Setting up relu32
I0727 15:12:58.306056 103017 net.cpp:157] Top shape: 128 128 9 9 (1327104)
I0727 15:12:58.306072 103017 net.cpp:165] Memory required for data: 392659456
I0727 15:12:58.306088 103017 layer_factory.hpp:76] Creating layer pool3
I0727 15:12:58.306113 103017 net.cpp:106] Creating Layer pool3
I0727 15:12:58.306135 103017 net.cpp:454] pool3 <- conv32
I0727 15:12:58.306155 103017 net.cpp:411] pool3 -> pool3
I0727 15:12:58.308379 103017 net.cpp:150] Setting up pool3
I0727 15:12:58.308418 103017 net.cpp:157] Top shape: 128 128 3 3 (147456)
I0727 15:12:58.308436 103017 net.cpp:165] Memory required for data: 393249280
I0727 15:12:58.308465 103017 layer_factory.hpp:76] Creating layer conv4
I0727 15:12:58.308506 103017 net.cpp:106] Creating Layer conv4
I0727 15:12:58.308526 103017 net.cpp:454] conv4 <- pool3
I0727 15:12:58.308547 103017 net.cpp:411] conv4 -> conv4
I0727 15:12:58.315326 103017 cudnn_conv_layer.cpp:194] Reallocating workspace storage: 1769472
I0727 15:12:58.315608 103017 net.cpp:150] Setting up conv4
I0727 15:12:58.315637 103017 net.cpp:157] Top shape: 128 256 1 1 (32768)
I0727 15:12:58.315654 103017 net.cpp:165] Memory required for data: 393380352
I0727 15:12:58.315677 103017 layer_factory.hpp:76] Creating layer relu4
I0727 15:12:58.315698 103017 net.cpp:106] Creating Layer relu4
I0727 15:12:58.315718 103017 net.cpp:454] relu4 <- conv4
I0727 15:12:58.315748 103017 net.cpp:397] relu4 -> conv4 (in-place)
I0727 15:12:58.317562 103017 net.cpp:150] Setting up relu4
I0727 15:12:58.317592 103017 net.cpp:157] Top shape: 128 256 1 1 (32768)
I0727 15:12:58.317610 103017 net.cpp:165] Memory required for data: 393511424
I0727 15:12:58.317625 103017 layer_factory.hpp:76] Creating layer drop
I0727 15:12:58.317667 103017 net.cpp:106] Creating Layer drop
I0727 15:12:58.317693 103017 net.cpp:454] drop <- conv4
I0727 15:12:58.317716 103017 net.cpp:397] drop -> conv4 (in-place)
I0727 15:12:58.317836 103017 net.cpp:150] Setting up drop
I0727 15:12:58.317859 103017 net.cpp:157] Top shape: 128 256 1 1 (32768)
I0727 15:12:58.317864 103017 net.cpp:165] Memory required for data: 393642496
I0727 15:12:58.317869 103017 layer_factory.hpp:76] Creating layer conv_c
I0727 15:12:58.317885 103017 net.cpp:106] Creating Layer conv_c
I0727 15:12:58.317891 103017 net.cpp:454] conv_c <- conv4
I0727 15:12:58.317900 103017 net.cpp:411] conv_c -> conv_c
I0727 15:12:58.324771 103017 cudnn_conv_layer.cpp:194] Reallocating workspace storage: 3072
I0727 15:12:58.324966 103017 net.cpp:150] Setting up conv_c
I0727 15:12:58.324977 103017 net.cpp:157] Top shape: 128 256 1 1 (32768)
I0727 15:12:58.324981 103017 net.cpp:165] Memory required for data: 393773568
I0727 15:12:58.324992 103017 layer_factory.hpp:76] Creating layer loss
I0727 15:12:58.325013 103017 net.cpp:106] Creating Layer loss
I0727 15:12:58.325018 103017 net.cpp:454] loss <- conv_c
I0727 15:12:58.325024 103017 net.cpp:454] loss <- label
I0727 15:12:58.325034 103017 net.cpp:411] loss -> loss
I0727 15:12:58.325049 103017 layer_factory.hpp:76] Creating layer loss
…
  type: "Python"
  top: "data"
  top: "label"
  include {
    phase: TEST
  }
  python_param {
    module: "mask_image_layer"
    layer: "random_patches_from_images_withlabel"
    param_str: "{\'root_folder\': \'/home/dywang/Proliferation/data/mitoses\', \'image_list\': \'/home/dywang/00exp_wdy/stage04_mitosisDetection/step02_train_mitosis_detecotor/heatmap_mc13_tr/all_image_withlabel_mc13_tr.lst\', \'seed\': 8899, \'mean\': (128, 128, 128), \'size\': 64, \'batch\': 128, \'scale\':0.1, \'colorn\':20, \'classes\':\'1:0 2:1 3:0\', \'DEBUG\': True}"
  }
}
layer {
  name: "conv11"
  type: "Convolution"
  bottom: "data"
  top: "conv11"
  param {
    lr_mult: 1
    decay_mult: 1
  }
  param {
    lr_mult: 2
    decay_mult: 0
  }
  convolution_param {
    num_output: 32
    pad: 0
    stride: 1
    weight_filler {
      type: "xavier"
    }
    bias_filler {
      type: "constant"
    }
    kernel_h: 3
    kernel_w: 3
  }
}
layer {
  name: "relu11"
  type: "ReLU"
  bottom: "conv11"
  top: "conv11"
}
layer {
  name: "conv12"
  type: "Convolution"
  bottom: "conv11"
  top: "conv12"
  param {
    lr_mult: 1
    decay_mult: 1
  }
  param {
    lr_mult: 2
    decay_mult: 0
  }
  convolution_param {
    num_output: 32
    pad: 0
    stride: 1
    weight_filler {
      type: "xavier"
    }
    bias_filler {
      type: "constant"
    }
    kernel_h: 3
    kernel_w: 3
  }
}
layer {
  name: "relu12"
  type: "ReLU"
  bottom: "conv12"
  top: "conv12"
}
layer {
  name: "pool1"
  type: "Pooling"
  bottom: "conv12"
  top: "pool1"
  pooling_param {
    pool: MAX
    kernel_size: 2
    stride: 2
  }
}
layer {
  name: "conv21"
  type: "Convolution"
  bottom: "pool1"
  top: "conv21"
  param {
    lr_mult: 1
    decay_mult: 1
  }
  param {
    lr_mult: 2
    decay_mult: 0
  }
  convolution_param {
    num_output: 64
    pad: 0
    stride: 1
    weight_filler {
      type: "xavier"
    }
    bias_filler {
      type: "constant"
    }
    kernel_h: 3
    kernel_w: 3
  }
}
layer {
  name: "relu21"
  type: "ReLU"
  bottom: "conv21"
  top: "conv21"
}
layer {
  name: "conv22"
  type: "Convolution"
  bottom: "conv21"
  top: "conv22"
  param {
    lr_mult: 1
    decay_mult: 1
  }
  param {
    lr_mult: 2
    decay_mult: 0
  }
  convolution_param {
    num_output: 64
    pad: 0
    stride: 1
    weight_filler {
      type: "xavier"
    }
    bias_filler {
      type: "constant"
    }
    kernel_h: 3
    kernel_w: 3
  }
}
layer {
  name: "relu22"
  type: "ReLU"
  bottom: "conv22"
  top: "conv22"
}
layer {
  name: "pool2"
  type: "Pooling"
  bottom: "conv22"
  top: "pool2"
  pooling_param {
    pool: MAX
    kernel_size: 2
    stride: 2
  }
}
layer {
  name: "conv31"
  type: "Convolution"
  bottom: "pool2"
  top: "conv31"
  param {
    lr_mult: 1
    decay_mult: 1
  }
  param {
    lr_mult: 2
    decay_mult: 0
  }
  convolution_param {
    num_output: 128
    pad: 0
    stride: 1
    weight_filler {
      type: "xavier"
    }
    bias_filler {
      type: "constant"
    }
    kernel_h: 3
    kernel_w: 3
  }
}
layer {
  name: "relu31"
  type: "ReLU"
  bottom: "conv31"
  top: "conv31"
}
layer {
  name: "conv32"
  type: "Convolution"
  bottom: "conv31"
  top: "conv32"
  param {
    lr_mult: 1
    decay_mult: 1
  }
  param {
    lr_mult: 2
    decay_mult: 0
  }
  convolution_param {
    num_output: 128
    pad: 0
    stride: 1
    weight_filler {
      type: "xavier"
    }
    bias_filler {
      type: "constant"
    }
    kernel_h: 3
    kernel_w: 3
  }
}
layer {
  name: "relu32"
  type: "ReLU"
  bottom: "conv32"
  top: "conv32"
}
layer {
  name: "pool3"
  type: "Pooling"
  bottom: "conv32"
  top: "pool3"
  pooling_param {
    pool: MAX
    kernel_size: 3
    stride: 3
  }
}
layer {
  name: "conv4"
  type: "Convolution"
  bottom: "pool3"
  top: "conv4"
  param {
    lr_mult: 1
    decay_mult: 1
  }
  param {
    lr_mult: 2
    decay_mult: 0
  }
  convolution_param {
    num_output: 256
    pad: 0
    stride: 1
    weight_filler {
      type: "xavier"
    }
    bias_filler {
      type: "constant"
    }
    kernel_h: 3
    kernel_w: 3
  }
}
layer {
  name: "relu4"
  type: "ReLU"
  bottom: "conv4"
  top: "conv4"
}
layer {
  name: "drop"
  type: "Dropout"
  bottom: "conv4"
  top: "conv4"
  dropout_param {
    dropout_ratio: 0.5
  }
}
layer {
  name: "conv_c"
  type: "Convolution"
  bottom: "conv4"
  top: "conv_c"
  param {
    lr_mult: 1
    decay_mult: 1
  }
  param {
    lr_mult: 2
    decay_mult: 0
  }
  convolution_param {
    num_output: 256
    pad: 0
    stride: 1
    weight_filler {
      type: "xavier"
    }
    bias_filler {
      type: "constant"
    }
    kernel_h: 1
    kernel_w: 1
  }
}
layer {
  name: "accuracy"
  type: "Accuracy"
  bottom: "conv_c"
  bottom: "label"
  top: "accuracy"
  include {
    phase: TEST
  }
}
layer {
  name: "loss"
  type: "SoftmaxWithLoss"
  bottom: "conv_c"
  bottom: "label"
  top: "loss"
}
I0727 15:12:58.328330 103017 layer_factory.hpp:76] Creating layer data
I0727 15:12:58.328408 103017 net.cpp:106] Creating Layer data
I0727 15:12:58.328415 103017 net.cpp:411] data -> data
I0727 15:12:58.328423 103017 net.cpp:411] data -> label
I0727 15:13:02.150620 103017 net.cpp:150] Setting up data
I0727 15:13:02.150697 103017 net.cpp:157] Top shape: 128 3 64 64 (1572864)
I0727 15:13:02.150709 103017 net.cpp:157] Top shape: 128 1 1 1 (128)
I0727 15:13:02.150719 103017 net.cpp:165] Memory required for data: 6291968
I0727 15:13:02.150732 103017 layer_factory.hpp:76] Creating layer label_data_1_split
I0727 15:13:02.150907 103017 net.cpp:106] Creating Layer label_data_1_split
I0727 15:13:02.150943 103017 net.cpp:454] label_data_1_split <- label
I0727 15:13:02.150959 103017 net.cpp:411] label_data_1_split -> label_data_1_split_0
I0727 15:13:02.150975 103017 net.cpp:411] label_data_1_split -> label_data_1_split_1
I0727 15:13:02.151054 103017 net.cpp:150] Setting up label_data_1_split
I0727 15:13:02.151069 103017 net.cpp:157] Top shape: 128 1 1 1 (128)
I0727 15:13:02.151079 103017 net.cpp:157] Top shape: 128 1 1 1 (128)
I0727 15:13:02.151087 103017 net.cpp:165] Memory required for data: 6292992
I0727 15:13:02.151095 103017 layer_factory.hpp:76] Creating layer conv11
I0727 15:13:02.151118 103017 net.cpp:106] Creating Layer conv11
I0727 15:13:02.151151 103017 net.cpp:454] conv11 <- data
I0727 15:13:02.151175 103017 net.cpp:411] conv11 -> conv11
I0727 15:13:02.152951 103017 net.cpp:150] Setting up conv11
I0727 15:13:02.153038 103017 net.cpp:157] Top shape: 128 32 62 62 (15745024)
I0727 15:13:02.153048 103017 net.cpp:165] Memory required for data: 69273088
I0727 15:13:02.153066 103017 layer_factory.hpp:76] Creating layer relu11
I0727 15:13:02.153086 103017 net.cpp:106] Creating Layer relu11
I0727 15:13:02.153096 103017 net.cpp:454] relu11 <- conv11
I0727 15:13:02.153107 103017 net.cpp:397] relu11 -> conv11 (in-place)
I0727 15:13:02.153470 103017 net.cpp:150] Setting up relu11
I0727 15:13:02.153501 103017 net.cpp:157] Top shape: 128 32 62 62 (15745024)
I0727 15:13:02.153509 103017 net.cpp:165] Memory required for data: 132253184
I0727 15:13:02.153520 103017 layer_factory.hpp:76] Creating layer conv12
I0727 15:13:02.153539 103017 net.cpp:106] Creating Layer conv12
I0727 15:13:02.153548 103017 net.cpp:454] conv12 <- conv11
I0727 15:13:02.153559 103017 net.cpp:411] conv12 -> conv12
I0727 15:13:02.154579 103017 net.cpp:150] Setting up conv12
I0727 15:13:02.154623 103017 net.cpp:157] Top shape: 128 32 60 60 (14745600)
I0727 15:13:02.154654 103017 net.cpp:165] Memory required for data: 191235584
I0727 15:13:02.154670 103017 layer_factory.hpp:76] Creating layer relu12
I0727 15:13:02.154686 103017 net.cpp:106] Creating Layer relu12
I0727 15:13:02.154695 103017 net.cpp:454] relu12 <- conv12
I0727 15:13:02.154706 103017 net.cpp:397] relu12 -> conv12 (in-place)
I0727 15:13:02.155081 103017 net.cpp:150] Setting up relu12
I0727 15:13:02.155112 103017 net.cpp:157] Top shape: 128 32 60 60 (14745600)
I0727 15:13:02.155120 103017 net.cpp:165] Memory required for data: 250217984
I0727 15:13:02.155129 103017 layer_factory.hpp:76] Creating layer pool1
I0727 15:13:02.155143 103017 net.cpp:106] Creating Layer pool1
I0727 15:13:02.155151 103017 net.cpp:454] pool1 <- conv12
I0727 15:13:02.155163 103017 net.cpp:411] pool1 -> pool1
I0727 15:13:02.155400 103017 net.cpp:150] Setting up pool1
I0727 15:13:02.155428 103017 net.cpp:157] Top shape: 128 32 30 30 (3686400)
I0727 15:13:02.155436 103017 net.cpp:165] Memory required for data: 264963584
I0727 15:13:02.155444 103017 layer_factory.hpp:76] Creating layer conv21
I0727 15:13:02.155462 103017 net.cpp:106] Creating Layer conv21
I0727 15:13:02.155469 103017 net.cpp:454] conv21 <- pool1
I0727 15:13:02.155483 103017 net.cpp:411] conv21 -> conv21
I0727 15:13:02.156700 103017 net.cpp:150] Setting up conv21
I0727 15:13:02.156738 103017 net.cpp:157] Top shape: 128 64 28 28 (6422528)
I0727 15:13:02.156747 103017 net.cpp:165] Memory required for data: 290653696
I0727 15:13:02.156765 103017 layer_factory.hpp:76] Creating layer relu21
I0727 15:13:02.156781 103017 net.cpp:106] Creating Layer relu21
I0727 15:13:02.156790 103017 net.cpp:454] relu21 <- conv21
I0727 15:13:02.156800 103017 net.cpp:397] relu21 -> conv21 (in-place)
I0727 15:13:02.157152 103017 net.cpp:150] Setting up relu21
I0727 15:13:02.157182 103017 net.cpp:157] Top shape: 128 64 28 28 (6422528)
I0727 15:13:02.157191 103017 net.cpp:165] Memory required for data: 316343808
I0727 15:13:02.157199 103017 layer_factory.hpp:76] Creating layer conv22
I0727 15:13:02.157217 103017 net.cpp:106] Creating Layer conv22
I0727 15:13:02.157224 103017 net.cpp:454] conv22 <- conv21
I0727 15:13:02.157236 103017 net.cpp:411] conv22 -> conv22
I0727 15:13:02.158610 103017 net.cpp:150] Setting up conv22
I0727 15:13:02.158680 103017 net.cpp:157] Top shape: 128 64 26 26 (5537792)
I0727 15:13:02.158692 103017 net.cpp:165] Memory required for data: 338494976
I0727 15:13:02.158707 103017 layer_factory.hpp:76] Creating layer relu22
I0727 15:13:02.158723 103017 net.cpp:106] Creating Layer relu22
I0727 15:13:02.158733 103017 net.cpp:454] relu22 <- conv22
I0727 15:13:02.158746 103017 net.cpp:397] relu22 -> conv22 (in-place)
I0727 15:13:02.158967 103017 net.cpp:150] Setting up relu22
I0727 15:13:02.158993 103017 net.cpp:157] Top shape: 128 64 26 26 (5537792)
I0727 15:13:02.159001 103017 net.cpp:165] Memory required for data: 360646144
I0727 15:13:02.159010 103017 layer_factory.hpp:76] Creating layer pool2
I0727 15:13:02.159024 103017 net.cpp:106] Creating Layer pool2
I0727 15:13:02.159060 103017 net.cpp:454] pool2 <- conv22
I0727 15:13:02.159070 103017 net.cpp:411] pool2 -> pool2
I0727 15:13:02.159458 103017 net.cpp:150] Setting up pool2
I0727 15:13:02.159489 103017 net.cpp:157] Top shape: 128 64 13 13 (1384448)
I0727 15:13:02.159497 103017 net.cpp:165] Memory required for data: 366183936
I0727 15:13:02.159507 103017 layer_factory.hpp:76] Creating layer conv31
I0727 15:13:02.159524 103017 net.cpp:106] Creating Layer conv31
I0727 15:13:02.159533 103017 net.cpp:454] conv31 <- pool2
I0727 15:13:02.159543 103017 net.cpp:411] conv31 -> conv31
I0727 15:13:02.163529 103017 cudnn_conv_layer.cpp:194] Reallocating workspace storage: 6912
I0727 15:13:02.163635 103017 net.cpp:150] Setting up conv31
I0727 15:13:02.163652 103017 net.cpp:157] Top shape: 128 128 11 11 (1982464)
I0727 15:13:02.163661 103017 net.cpp:165] Memory required for data: 374113792
I0727 15:13:02.163682 103017 layer_factory.hpp:76] Creating layer relu31
I0727 15:13:02.163715 103017 net.cpp:106] Creating Layer relu31
I0727 15:13:02.163738 103017 net.cpp:454] relu31 <- conv31
I0727 15:13:02.163751 103017 net.cpp:397] relu31 -> conv31 (in-place)
I0727 15:13:02.165508 103017 net.cpp:150] Setting up relu31
I0727 15:13:02.165539 103017 net.cpp:157] Top shape: 128 128 11 11 (1982464)
I0727 15:13:02.165547 103017 net.cpp:165] Memory required for data: 382043648
I0727 15:13:02.165556 103017 layer_factory.hpp:76] Creating layer conv32
I0727 15:13:02.165573 103017 net.cpp:106] Creating Layer conv32
I0727 15:13:02.165582 103017 net.cpp:454] conv32 <- conv31
I0727 15:13:02.165594 103017 net.cpp:411] conv32 -> conv32
I0727 15:13:02.171624 103017 cudnn_conv_layer.cpp:194] Reallocating workspace storage: 13824
I0727 15:13:02.171668 103017 net.cpp:150] Setting up conv32
I0727 15:13:02.171680 103017 net.cpp:157] Top shape: 128 128 9 9 (1327104)
I0727 15:13:02.171689 103017 net.cpp:165] Memory required for data: 387352064
I0727 15:13:02.171702 103017 layer_factory.hpp:76] Creating layer relu32
I0727 15:13:02.171715 103017 net.cpp:106] Creating Layer relu32
I0727 15:13:02.171725 103017 net.cpp:454] relu32 <- conv32
I0727 15:13:02.171737 103017 net.cpp:397] relu32 -> conv32 (in-place)
I0727 15:13:02.173837 103017 net.cpp:150] Setting up relu32
I0727 15:13:02.173856 103017 net.cpp:157] Top shape: 128 128 9 9 (1327104)
I0727 15:13:02.173863 103017 net.cpp:165] Memory required for data: 392660480
I0727 15:13:02.173871 103017 layer_factory.hpp:76] Creating layer pool3
I0727 15:13:02.173888 103017 net.cpp:106] Creating Layer pool3
I0727 15:13:02.173897 103017 net.cpp:454] pool3 <- conv32
I0727 15:13:02.173907 103017 net.cpp:411] pool3 -> pool3
I0727 15:13:02.176206 103017 net.cpp:150] Setting up pool3
I0727 15:13:02.176231 103017 net.cpp:157] Top shape: 128 128 3 3 (147456)
I0727 15:13:02.176241 103017 net.cpp:165] Memory required for data: 393250304
I0727 15:13:02.176250 103017 layer_factory.hpp:76] Creating layer conv4
I0727 15:13:02.176266 103017 net.cpp:106] Creating Layer conv4
I0727 15:13:02.176275 103017 net.cpp:454] conv4 <- pool3
I0727 15:13:02.176287 103017 net.cpp:411] conv4 -> conv4
I0727 15:13:02.184077 103017 cudnn_conv_layer.cpp:194] Reallocating workspace storage: 1769472
I0727 15:13:02.184620 103017 net.cpp:150] Setting up conv4
I0727 15:13:02.184645 103017 net.cpp:157] Top shape: 128 256 1 1 (32768)
I0727 15:13:02.184655 103017 net.cpp:165] Memory required for data: 393381376
I0727 15:13:02.184670 103017 layer_factory.hpp:76] Creating layer relu4
I0727 15:13:02.184687 103017 net.cpp:106] Creating Layer relu4
I0727 15:13:02.184697 103017 net.cpp:454] relu4 <- conv4
I0727 15:13:02.184710 103017 net.cpp:397] relu4 -> conv4 (in-place)
I0727 15:13:02.185389 103017 net.cpp:150] Setting up relu4
I0727 15:13:02.185406 103017 net.cpp:157] Top shape: 128 256 1 1 (32768)
I0727 15:13:02.185415 103017 net.cpp:165] Memory required for data: 393512448
I0727 15:13:02.185422 103017 layer_factory.hpp:76] Creating layer drop
I0727 15:13:02.185437 103017 net.cpp:106] Creating Layer drop
I0727 15:13:02.185446 103017 net.cpp:454] drop <- conv4
I0727 15:13:02.185482 103017 net.cpp:397] drop -> conv4 (in-place)
I0727 15:13:02.185547 103017 net.cpp:150] Setting up drop
I0727 15:13:02.185559 103017 net.cpp:157] Top shape: 128 256 1 1 (32768)
I0727 15:13:02.185567 103017 net.cpp:165] Memory required for data: 393643520
I0727 15:13:02.185575 103017 layer_factory.hpp:76] Creating layer conv_c
I0727 15:13:02.185592 103017 net.cpp:106] Creating Layer conv_c
I0727 15:13:02.185601 103017 net.cpp:454] conv_c <- conv4
I0727 15:13:02.185613 103017 net.cpp:411] conv_c -> conv_c
I0727 15:13:02.192395 103017 cudnn_conv_layer.cpp:194] Reallocating workspace storage: 3072
I0727 15:13:02.192456 103017 net.cpp:150] Setting up conv_c
I0727 15:13:02.192471 103017 net.cpp:157] Top shape: 128 256 1 1 (32768)
I0727 15:13:02.192479 103017 net.cpp:165] Memory required for data: 393774592
I0727 15:13:02.192494 103017 layer_factory.hpp:76] Creating layer conv_c_conv_c_0_split
I0727 15:13:02.192522 103017 net.cpp:106] Creating Layer conv_c_conv_c_0_split
I0727 15:13:02.192533 103017 net.cpp:454] conv_c_conv_c_0_split <- conv_c
I0727 15:13:02.192549 103017 net.cpp:411] conv_c_conv_c_0_split -> conv_c_conv_c_0_split_0
I0727 15:13:02.192574 103017 net.cpp:411] conv_c_conv_c_0_split -> conv_c_conv_c_0_split_1
I0727 15:13:02.192637 103017 net.cpp:150] Setting up conv_c_conv_c_0_split
I0727 15:13:02.192651 103017 net.cpp:157] Top shape: 128 256 1 1 (32768)
I0727 15:13:02.192662 103017 net.cpp:157] Top shape: 128 256 1 1 (32768)
I0727 15:13:02.192670 103017 net.cpp:165] Memory required for data: 394036736
I0727 15:13:02.192679 103017 layer_factory.hpp:76] Creating layer accuracy
I0727 15:13:02.192699 103017 net.cpp:106] Creating Layer accuracy
I0727 15:13:02.192711 103017 net.cpp:454] accuracy <- conv_c_conv_c_0_split_0
I0727 15:13:02.192721 103017 net.cpp:454] accuracy <- label_data_1_split_0
I0727 15:13:02.192735 103017 net.cpp:411] accuracy -> accuracy
…
