…
I0714 09:29:09.056444 29225 net.cpp:322] The NetState phase (0) differed from the phase (1) specified by a rule in layer data
I0714 09:29:09.056666 29225 net.cpp:49] Initializing net from parameters: 
name: "FaceNN"
state {
  phase: TRAIN
}
layer {
  name: "data"
  type: "ImageData"
  top: "data"
  top: "label"
  include {
    phase: TRAIN
  }
  transform_param {
    mirror: true
    mean_value: 104
    mean_value: 117
    mean_value: 123
  }
  image_data_param {
    source: "../lists/pos_result_map_train.lst"
    batch_size: 64
    shuffle: true
  }
}
layer {
  name: "conv61"
  type: "Convolution"
  bottom: "data"
  top: "conv61"
  param {
    lr_mult: 1
    decay_mult: 1
  }
  param {
    lr_mult: 2
    decay_mult: 0
  }
  convolution_param {
    num_output: 64
    pad: 1
    stride: 1
    weight_filler {
      type: "xavier"
    }
    bias_filler {
      type: "constant"
    }
    kernel_h: 3
    kernel_w: 3
  }
}
layer {
  name: "relu61"
  type: "ReLU"
  bottom: "conv61"
  top: "conv61"
}
layer {
  name: "conv62"
  type: "Convolution"
  bottom: "conv61"
  top: "conv62"
  param {
    lr_mult: 1
    decay_mult: 1
  }
  param {
    lr_mult: 2
    decay_mult: 0
  }
  convolution_param {
    num_output: 64
    pad: 1
    stride: 1
    weight_filler {
      type: "xavier"
    }
    bias_filler {
      type: "constant"
    }
    kernel_h: 3
    kernel_w: 3
  }
}
layer {
  name: "relu62"
  type: "ReLU"
  bottom: "conv62"
  top: "conv62"
}
layer {
  name: "pool5"
  type: "Pooling"
  bottom: "conv62"
  top: "pool5"
  pooling_param {
    pool: MAX
    kernel_size: 2
    stride: 2
  }
}
layer {
  name: "conv71"
  type: "Convolution"
  bottom: "pool5"
  top: "conv71"
  param {
    lr_mult: 1
    decay_mult: 1
  }
  param {
    lr_mult: 2
    decay_mult: 0
  }
  convolution_param {
    num_output: 96
    pad: 1
    stride: 1
    weight_filler {
      type: "xavier"
    }
    bias_filler {
      type: "constant"
    }
    kernel_h: 3
    kernel_w: 3
  }
}
layer {
  name: "relu71"
  type: "ReLU"
  bottom: "conv71"
  top: "conv71"
}
layer {
  name: "conv72"
  type: "Convolution"
  bottom: "conv71"
  top: "conv72"
  param {
    lr_mult: 1
    decay_mult: 1
  }
  param {
    lr_mult: 2
    decay_mult: 0
  }
  convolution_param {
    num_output: 96
    pad: 1
    stride: 1
    weight_filler {
      type: "xavier"
    }
    bias_filler {
      type: "constant"
    }
    kernel_h: 3
    kernel_w: 3
  }
}
layer {
  name: "relu72"
  type: "ReLU"
  bottom: "conv72"
  top: "conv72"
}
layer {
  name: "pool6"
  type: "Pooling"
  bottom: "conv72"
  top: "pool6"
  pooling_param {
    pool: MAX
    kernel_size: 2
    stride: 2
  }
}
layer {
  name: "conv81"
  type: "Convolution"
  bottom: "pool6"
  top: "conv81"
  param {
    lr_mult: 1
    decay_mult: 1
  }
  param {
    lr_mult: 2
    decay_mult: 0
  }
  convolution_param {
    num_output: 128
    pad: 1
    stride: 1
    weight_filler {
      type: "xavier"
    }
    bias_filler {
      type: "constant"
    }
    kernel_h: 3
    kernel_w: 3
  }
}
layer {
  name: "relu81"
  type: "ReLU"
  bottom: "conv81"
  top: "conv81"
}
layer {
  name: "conv82"
  type: "Convolution"
  bottom: "conv81"
  top: "conv82"
  param {
    lr_mult: 1
    decay_mult: 1
  }
  param {
    lr_mult: 2
    decay_mult: 0
  }
  convolution_param {
    num_output: 128
    pad: 1
    stride: 1
    weight_filler {
      type: "xavier"
    }
    bias_filler {
      type: "constant"
    }
    kernel_h: 3
    kernel_w: 3
  }
}
layer {
  name: "relu82"
  type: "ReLU"
  bottom: "conv82"
  top: "conv82"
}
layer {
  name: "pool7"
  type: "Pooling"
  bottom: "conv82"
  top: "pool7"
  pooling_param {
    pool: AVE
    kernel_size: 2
    stride: 2
  }
}
layer {
  name: "drop0"
  type: "Dropout"
  bottom: "pool7"
  top: "pool7"
  dropout_param {
    dropout_ratio: 0.4
  }
}
layer {
  name: "conv91"
  type: "Convolution"
  bottom: "pool7"
  top: "conv91"
  param {
    lr_mult: 1
    decay_mult: 1
  }
  param {
    lr_mult: 2
    decay_mult: 0
  }
  convolution_param {
    num_output: 3
    stride: 1
    weight_filler {
      type: "xavier"
    }
    bias_filler {
      type: "constant"
    }
    kernel_h: 7
    kernel_w: 7
  }
}
layer {
  name: "accuracy"
  type: "Accuracy"
  bottom: "conv91"
  bottom: "label"
  top: "accuracy"
}
layer {
  name: "loss"
  type: "SoftmaxWithLoss"
  bottom: "conv91"
  bottom: "label"
  top: "loss"
}
I0714 09:29:09.057804 29225 layer_factory.hpp:76] Creating layer data
I0714 09:29:09.057868 29225 net.cpp:106] Creating Layer data
I0714 09:29:09.057899 29225 net.cpp:411] data -> data
I0714 09:29:09.057937 29225 net.cpp:411] data -> label
I0714 09:29:09.058392 29225 image_data_layer.cpp:36] Opening file ../lists/pos_result_map_train.lst
I0714 09:29:09.070663 29225 image_data_layer.cpp:46] Shuffling data
I0714 09:29:09.072348 29225 image_data_layer.cpp:51] A total of 23544 images.
I0714 09:29:09.165215 29225 image_data_layer.cpp:78] output data size: 64,3,56,56
I0714 09:29:09.183207 29225 net.cpp:150] Setting up data
I0714 09:29:09.183308 29225 net.cpp:157] Top shape: 64 3 56 56 (602112)
I0714 09:29:09.183338 29225 net.cpp:157] Top shape: 64 (64)
I0714 09:29:09.183343 29225 net.cpp:165] Memory required for data: 2408704
I0714 09:29:09.183354 29225 layer_factory.hpp:76] Creating layer label_data_1_split
I0714 09:29:09.183380 29225 net.cpp:106] Creating Layer label_data_1_split
I0714 09:29:09.183387 29225 net.cpp:454] label_data_1_split <- label
I0714 09:29:09.183404 29225 net.cpp:411] label_data_1_split -> label_data_1_split_0
I0714 09:29:09.183416 29225 net.cpp:411] label_data_1_split -> label_data_1_split_1
I0714 09:29:09.183481 29225 net.cpp:150] Setting up label_data_1_split
I0714 09:29:09.183488 29225 net.cpp:157] Top shape: 64 (64)
I0714 09:29:09.183493 29225 net.cpp:157] Top shape: 64 (64)
I0714 09:29:09.183497 29225 net.cpp:165] Memory required for data: 2409216
I0714 09:29:09.183502 29225 layer_factory.hpp:76] Creating layer conv61
I0714 09:29:09.183519 29225 net.cpp:106] Creating Layer conv61
I0714 09:29:09.183524 29225 net.cpp:454] conv61 <- data
I0714 09:29:09.183537 29225 net.cpp:411] conv61 -> conv61
I0714 09:29:09.546238 29225 net.cpp:150] Setting up conv61
I0714 09:29:09.546283 29225 net.cpp:157] Top shape: 64 64 56 56 (12845056)
I0714 09:29:09.546293 29225 net.cpp:165] Memory required for data: 53789440
I0714 09:29:09.546320 29225 layer_factory.hpp:76] Creating layer relu61
I0714 09:29:09.546339 29225 net.cpp:106] Creating Layer relu61
I0714 09:29:09.546350 29225 net.cpp:454] relu61 <- conv61
I0714 09:29:09.546362 29225 net.cpp:397] relu61 -> conv61 (in-place)
I0714 09:29:09.549069 29225 net.cpp:150] Setting up relu61
I0714 09:29:09.549088 29225 net.cpp:157] Top shape: 64 64 56 56 (12845056)
I0714 09:29:09.549095 29225 net.cpp:165] Memory required for data: 105169664
I0714 09:29:09.549103 29225 layer_factory.hpp:76] Creating layer conv62
I0714 09:29:09.549119 29225 net.cpp:106] Creating Layer conv62
I0714 09:29:09.549125 29225 net.cpp:454] conv62 <- conv61
I0714 09:29:09.549135 29225 net.cpp:411] conv62 -> conv62
I0714 09:29:09.558096 29225 net.cpp:150] Setting up conv62
I0714 09:29:09.558130 29225 net.cpp:157] Top shape: 64 64 56 56 (12845056)
I0714 09:29:09.558140 29225 net.cpp:165] Memory required for data: 156549888
I0714 09:29:09.558157 29225 layer_factory.hpp:76] Creating layer relu62
I0714 09:29:09.558169 29225 net.cpp:106] Creating Layer relu62
I0714 09:29:09.558178 29225 net.cpp:454] relu62 <- conv62
I0714 09:29:09.558190 29225 net.cpp:397] relu62 -> conv62 (in-place)
I0714 09:29:09.560997 29225 net.cpp:150] Setting up relu62
I0714 09:29:09.561028 29225 net.cpp:157] Top shape: 64 64 56 56 (12845056)
I0714 09:29:09.561060 29225 net.cpp:165] Memory required for data: 207930112
I0714 09:29:09.561069 29225 layer_factory.hpp:76] Creating layer pool5
I0714 09:29:09.561082 29225 net.cpp:106] Creating Layer pool5
I0714 09:29:09.561090 29225 net.cpp:454] pool5 <- conv62
I0714 09:29:09.561102 29225 net.cpp:411] pool5 -> pool5
I0714 09:29:09.564088 29225 net.cpp:150] Setting up pool5
I0714 09:29:09.564118 29225 net.cpp:157] Top shape: 64 64 28 28 (3211264)
I0714 09:29:09.564127 29225 net.cpp:165] Memory required for data: 220775168
I0714 09:29:09.564136 29225 layer_factory.hpp:76] Creating layer conv71
I0714 09:29:09.564147 29225 net.cpp:106] Creating Layer conv71
I0714 09:29:09.564155 29225 net.cpp:454] conv71 <- pool5
I0714 09:29:09.564170 29225 net.cpp:411] conv71 -> conv71
I0714 09:29:09.573719 29225 cudnn_conv_layer.cpp:194] Reallocating workspace storage: 6912
I0714 09:29:09.574045 29225 net.cpp:150] Setting up conv71
I0714 09:29:09.574075 29225 net.cpp:157] Top shape: 64 96 28 28 (4816896)
I0714 09:29:09.574084 29225 net.cpp:165] Memory required for data: 240042752
I0714 09:29:09.574100 29225 layer_factory.hpp:76] Creating layer relu71
I0714 09:29:09.574115 29225 net.cpp:106] Creating Layer relu71
I0714 09:29:09.574123 29225 net.cpp:454] relu71 <- conv71
I0714 09:29:09.574133 29225 net.cpp:397] relu71 -> conv71 (in-place)
I0714 09:29:09.575994 29225 net.cpp:150] Setting up relu71
I0714 09:29:09.576025 29225 net.cpp:157] Top shape: 64 96 28 28 (4816896)
I0714 09:29:09.576035 29225 net.cpp:165] Memory required for data: 259310336
I0714 09:29:09.576045 29225 layer_factory.hpp:76] Creating layer conv72
I0714 09:29:09.576058 29225 net.cpp:106] Creating Layer conv72
I0714 09:29:09.576066 29225 net.cpp:454] conv72 <- conv71
I0714 09:29:09.576078 29225 net.cpp:411] conv72 -> conv72
I0714 09:29:09.585067 29225 cudnn_conv_layer.cpp:194] Reallocating workspace storage: 10368
I0714 09:29:09.585114 29225 net.cpp:150] Setting up conv72
I0714 09:29:09.585127 29225 net.cpp:157] Top shape: 64 96 28 28 (4816896)
I0714 09:29:09.585136 29225 net.cpp:165] Memory required for data: 278577920
I0714 09:29:09.585149 29225 layer_factory.hpp:76] Creating layer relu72
I0714 09:29:09.585160 29225 net.cpp:106] Creating Layer relu72
I0714 09:29:09.585167 29225 net.cpp:454] relu72 <- conv72
I0714 09:29:09.585177 29225 net.cpp:397] relu72 -> conv72 (in-place)
I0714 09:29:09.588021 29225 net.cpp:150] Setting up relu72
I0714 09:29:09.588053 29225 net.cpp:157] Top shape: 64 96 28 28 (4816896)
I0714 09:29:09.588063 29225 net.cpp:165] Memory required for data: 297845504
I0714 09:29:09.588071 29225 layer_factory.hpp:76] Creating layer pool6
I0714 09:29:09.588083 29225 net.cpp:106] Creating Layer pool6
I0714 09:29:09.588091 29225 net.cpp:454] pool6 <- conv72
I0714 09:29:09.588100 29225 net.cpp:411] pool6 -> pool6
I0714 09:29:09.591034 29225 net.cpp:150] Setting up pool6
I0714 09:29:09.591064 29225 net.cpp:157] Top shape: 64 96 14 14 (1204224)
I0714 09:29:09.591073 29225 net.cpp:165] Memory required for data: 302662400
I0714 09:29:09.591081 29225 layer_factory.hpp:76] Creating layer conv81
I0714 09:29:09.591095 29225 net.cpp:106] Creating Layer conv81
I0714 09:29:09.591104 29225 net.cpp:454] conv81 <- pool6
I0714 09:29:09.591119 29225 net.cpp:411] conv81 -> conv81
I0714 09:29:09.597184 29225 net.cpp:150] Setting up conv81
I0714 09:29:09.597220 29225 net.cpp:157] Top shape: 64 128 14 14 (1605632)
I0714 09:29:09.597229 29225 net.cpp:165] Memory required for data: 309084928
I0714 09:29:09.597244 29225 layer_factory.hpp:76] Creating layer relu81
I0714 09:29:09.597255 29225 net.cpp:106] Creating Layer relu81
I0714 09:29:09.597264 29225 net.cpp:454] relu81 <- conv81
I0714 09:29:09.597272 29225 net.cpp:397] relu81 -> conv81 (in-place)
I0714 09:29:09.599633 29225 net.cpp:150] Setting up relu81
I0714 09:29:09.599665 29225 net.cpp:157] Top shape: 64 128 14 14 (1605632)
I0714 09:29:09.599674 29225 net.cpp:165] Memory required for data: 315507456
I0714 09:29:09.599684 29225 layer_factory.hpp:76] Creating layer conv82
I0714 09:29:09.599699 29225 net.cpp:106] Creating Layer conv82
I0714 09:29:09.599721 29225 net.cpp:454] conv82 <- conv81
I0714 09:29:09.599733 29225 net.cpp:411] conv82 -> conv82
I0714 09:29:09.607311 29225 cudnn_conv_layer.cpp:194] Reallocating workspace storage: 13824
I0714 09:29:09.607357 29225 net.cpp:150] Setting up conv82
I0714 09:29:09.607370 29225 net.cpp:157] Top shape: 64 128 14 14 (1605632)
I0714 09:29:09.607380 29225 net.cpp:165] Memory required for data: 321929984
I0714 09:29:09.607391 29225 layer_factory.hpp:76] Creating layer relu82
I0714 09:29:09.607404 29225 net.cpp:106] Creating Layer relu82
I0714 09:29:09.607414 29225 net.cpp:454] relu82 <- conv82
I0714 09:29:09.607424 29225 net.cpp:397] relu82 -> conv82 (in-place)
I0714 09:29:09.609761 29225 net.cpp:150] Setting up relu82
I0714 09:29:09.609791 29225 net.cpp:157] Top shape: 64 128 14 14 (1605632)
I0714 09:29:09.609798 29225 net.cpp:165] Memory required for data: 328352512
I0714 09:29:09.609807 29225 layer_factory.hpp:76] Creating layer pool7
I0714 09:29:09.609822 29225 net.cpp:106] Creating Layer pool7
I0714 09:29:09.609830 29225 net.cpp:454] pool7 <- conv82
I0714 09:29:09.609843 29225 net.cpp:411] pool7 -> pool7
I0714 09:29:09.612315 29225 net.cpp:150] Setting up pool7
I0714 09:29:09.612349 29225 net.cpp:157] Top shape: 64 128 7 7 (401408)
I0714 09:29:09.612357 29225 net.cpp:165] Memory required for data: 329958144
I0714 09:29:09.612366 29225 layer_factory.hpp:76] Creating layer drop0
I0714 09:29:09.612381 29225 net.cpp:106] Creating Layer drop0
I0714 09:29:09.612390 29225 net.cpp:454] drop0 <- pool7
I0714 09:29:09.612403 29225 net.cpp:397] drop0 -> pool7 (in-place)
I0714 09:29:09.612439 29225 net.cpp:150] Setting up drop0
I0714 09:29:09.612464 29225 net.cpp:157] Top shape: 64 128 7 7 (401408)
I0714 09:29:09.612473 29225 net.cpp:165] Memory required for data: 331563776
I0714 09:29:09.612481 29225 layer_factory.hpp:76] Creating layer conv91
I0714 09:29:09.612493 29225 net.cpp:106] Creating Layer conv91
I0714 09:29:09.612503 29225 net.cpp:454] conv91 <- pool7
I0714 09:29:09.612515 29225 net.cpp:411] conv91 -> conv91
I0714 09:29:09.621068 29225 cudnn_conv_layer.cpp:194] Reallocating workspace storage: 4816896
I0714 09:29:09.621383 29225 net.cpp:150] Setting up conv91
I0714 09:29:09.621412 29225 net.cpp:157] Top shape: 64 3 1 1 (192)
I0714 09:29:09.621423 29225 net.cpp:165] Memory required for data: 331564544
I0714 09:29:09.621435 29225 layer_factory.hpp:76] Creating layer conv91_conv91_0_split
I0714 09:29:09.621449 29225 net.cpp:106] Creating Layer conv91_conv91_0_split
I0714 09:29:09.621459 29225 net.cpp:454] conv91_conv91_0_split <- conv91
I0714 09:29:09.621469 29225 net.cpp:411] conv91_conv91_0_split -> conv91_conv91_0_split_0
I0714 09:29:09.621479 29225 net.cpp:411] conv91_conv91_0_split -> conv91_conv91_0_split_1
I0714 09:29:09.621537 29225 net.cpp:150] Setting up conv91_conv91_0_split
I0714 09:29:09.621551 29225 net.cpp:157] Top shape: 64 3 1 1 (192)
I0714 09:29:09.621561 29225 net.cpp:157] Top shape: 64 3 1 1 (192)
I0714 09:29:09.621568 29225 net.cpp:165] Memory required for data: 331566080
I0714 09:29:09.621577 29225 layer_factory.hpp:76] Creating layer accuracy
I0714 09:29:09.621592 29225 net.cpp:106] Creating Layer accuracy
I0714 09:29:09.621600 29225 net.cpp:454] accuracy <- conv91_conv91_0_split_0
I0714 09:29:09.621620 29225 net.cpp:454] accuracy <- label_data_1_split_0
I0714 09:29:09.621632 29225 net.cpp:411] accuracy -> accuracy
…
I0714 09:29:09.625129 29225 net.cpp:322] The NetState phase (1) differed from the phase (0) specified by a rule in layer data
I0714 09:29:09.625313 29225 net.cpp:49] Initializing net from parameters: 
name: "FaceNN"
state {
  phase: TEST
}
layer {
  name: "data"
  type: "ImageData"
  top: "data"
  top: "label"
  include {
    phase: TEST
  }
  transform_param {
    mirror: false
    mean_value: 104
    mean_value: 117
    mean_value: 123
  }
  image_data_param {
    source: "../lists/pos_result_map_val.lst"
    batch_size: 128
    shuffle: true
  }
}
layer {
  name: "conv61"
  type: "Convolution"
  bottom: "data"
  top: "conv61"
  param {
    lr_mult: 1
    decay_mult: 1
  }
  param {
    lr_mult: 2
    decay_mult: 0
  }
  convolution_param {
    num_output: 64
    pad: 1
    stride: 1
    weight_filler {
      type: "xavier"
    }
    bias_filler {
      type: "constant"
    }
    kernel_h: 3
    kernel_w: 3
  }
}
layer {
  name: "relu61"
  type: "ReLU"
  bottom: "conv61"
  top: "conv61"
}
layer {
  name: "conv62"
  type: "Convolution"
  bottom: "conv61"
  top: "conv62"
  param {
    lr_mult: 1
    decay_mult: 1
  }
  param {
    lr_mult: 2
    decay_mult: 0
  }
  convolution_param {
    num_output: 64
    pad: 1
    stride: 1
    weight_filler {
      type: "xavier"
    }
    bias_filler {
      type: "constant"
    }
    kernel_h: 3
    kernel_w: 3
  }
}
layer {
  name: "relu62"
  type: "ReLU"
  bottom: "conv62"
  top: "conv62"
}
layer {
  name: "pool5"
  type: "Pooling"
  bottom: "conv62"
  top: "pool5"
  pooling_param {
    pool: MAX
    kernel_size: 2
    stride: 2
  }
}
layer {
  name: "conv71"
  type: "Convolution"
  bottom: "pool5"
  top: "conv71"
  param {
    lr_mult: 1
    decay_mult: 1
  }
  param {
    lr_mult: 2
    decay_mult: 0
  }
  convolution_param {
    num_output: 96
    pad: 1
    stride: 1
    weight_filler {
      type: "xavier"
    }
    bias_filler {
      type: "constant"
    }
    kernel_h: 3
    kernel_w: 3
  }
}
layer {
  name: "relu71"
  type: "ReLU"
  bottom: "conv71"
  top: "conv71"
}
layer {
  name: "conv72"
  type: "Convolution"
  bottom: "conv71"
  top: "conv72"
  param {
    lr_mult: 1
    decay_mult: 1
  }
  param {
    lr_mult: 2
    decay_mult: 0
  }
  convolution_param {
    num_output: 96
    pad: 1
    stride: 1
    weight_filler {
      type: "xavier"
    }
    bias_filler {
      type: "constant"
    }
    kernel_h: 3
    kernel_w: 3
  }
}
layer {
  name: "relu72"
  type: "ReLU"
  bottom: "conv72"
  top: "conv72"
}
layer {
  name: "pool6"
  type: "Pooling"
  bottom: "conv72"
  top: "pool6"
  pooling_param {
    pool: MAX
    kernel_size: 2
    stride: 2
  }
}
layer {
  name: "conv81"
  type: "Convolution"
  bottom: "pool6"
  top: "conv81"
  param {
    lr_mult: 1
    decay_mult: 1
  }
  param {
    lr_mult: 2
    decay_mult: 0
  }
  convolution_param {
    num_output: 128
    pad: 1
    stride: 1
    weight_filler {
      type: "xavier"
    }
    bias_filler {
      type: "constant"
    }
    kernel_h: 3
    kernel_w: 3
  }
}
layer {
  name: "relu81"
  type: "ReLU"
  bottom: "conv81"
  top: "conv81"
}
layer {
  name: "conv82"
  type: "Convolution"
  bottom: "conv81"
  top: "conv82"
  param {
    lr_mult: 1
    decay_mult: 1
  }
  param {
    lr_mult: 2
    decay_mult: 0
  }
  convolution_param {
    num_output: 128
    pad: 1
    stride: 1
    weight_filler {
      type: "xavier"
    }
    bias_filler {
      type: "constant"
    }
    kernel_h: 3
    kernel_w: 3
  }
}
layer {
  name: "relu82"
  type: "ReLU"
  bottom: "conv82"
  top: "conv82"
}
layer {
  name: "pool7"
  type: "Pooling"
  bottom: "conv82"
  top: "pool7"
  pooling_param {
    pool: AVE
    kernel_size: 2
    stride: 2
  }
}
layer {
  name: "drop0"
  type: "Dropout"
  bottom: "pool7"
  top: "pool7"
  dropout_param {
    dropout_ratio: 0.4
  }
}
layer {
  name: "conv91"
  type: "Convolution"
  bottom: "pool7"
  top: "conv91"
  param {
    lr_mult: 1
    decay_mult: 1
  }
  param {
    lr_mult: 2
    decay_mult: 0
  }
  convolution_param {
    num_output: 3
    stride: 1
    weight_filler {
      type: "xavier"
    }
    bias_filler {
      type: "constant"
    }
    kernel_h: 7
    kernel_w: 7
  }
}
layer {
  name: "accuracy"
  type: "Accuracy"
  bottom: "conv91"
  bottom: "label"
  top: "accuracy"
}
layer {
  name: "loss"
  type: "SoftmaxWithLoss"
  bottom: "conv91"
  bottom: "label"
  top: "loss"
}
I0714 09:29:09.626456 29225 layer_factory.hpp:76] Creating layer data
I0714 09:29:09.626490 29225 net.cpp:106] Creating Layer data
I0714 09:29:09.626500 29225 net.cpp:411] data -> data
I0714 09:29:09.626525 29225 net.cpp:411] data -> label
I0714 09:29:09.626539 29225 image_data_layer.cpp:36] Opening file ../lists/pos_result_map_val.lst
I0714 09:29:09.628051 29225 image_data_layer.cpp:46] Shuffling data
I0714 09:29:09.628303 29225 image_data_layer.cpp:51] A total of 2627 images.
I0714 09:29:09.639422 29225 image_data_layer.cpp:78] output data size: 128,3,56,56
I0714 09:29:09.661659 29225 net.cpp:150] Setting up data
I0714 09:29:09.661703 29225 net.cpp:157] Top shape: 128 3 56 56 (1204224)
I0714 09:29:09.661715 29225 net.cpp:157] Top shape: 128 (128)
I0714 09:29:09.661723 29225 net.cpp:165] Memory required for data: 4817408
I0714 09:29:09.661734 29225 layer_factory.hpp:76] Creating layer label_data_1_split
I0714 09:29:09.661751 29225 net.cpp:106] Creating Layer label_data_1_split
I0714 09:29:09.661759 29225 net.cpp:454] label_data_1_split <- label
I0714 09:29:09.661772 29225 net.cpp:411] label_data_1_split -> label_data_1_split_0
I0714 09:29:09.661785 29225 net.cpp:411] label_data_1_split -> label_data_1_split_1
I0714 09:29:09.661952 29225 net.cpp:150] Setting up label_data_1_split
I0714 09:29:09.661988 29225 net.cpp:157] Top shape: 128 (128)
I0714 09:29:09.661995 29225 net.cpp:157] Top shape: 128 (128)
I0714 09:29:09.662000 29225 net.cpp:165] Memory required for data: 4818432
I0714 09:29:09.662009 29225 layer_factory.hpp:76] Creating layer conv61
I0714 09:29:09.662062 29225 net.cpp:106] Creating Layer conv61
I0714 09:29:09.662070 29225 net.cpp:454] conv61 <- data
I0714 09:29:09.662080 29225 net.cpp:411] conv61 -> conv61
I0714 09:29:09.673403 29225 net.cpp:150] Setting up conv61
I0714 09:29:09.673431 29225 net.cpp:157] Top shape: 128 64 56 56 (25690112)
I0714 09:29:09.673440 29225 net.cpp:165] Memory required for data: 107578880
I0714 09:29:09.673458 29225 layer_factory.hpp:76] Creating layer relu61
I0714 09:29:09.673475 29225 net.cpp:106] Creating Layer relu61
I0714 09:29:09.673483 29225 net.cpp:454] relu61 <- conv61
I0714 09:29:09.673494 29225 net.cpp:397] relu61 -> conv61 (in-place)
I0714 09:29:09.675038 29225 net.cpp:150] Setting up relu61
I0714 09:29:09.675055 29225 net.cpp:157] Top shape: 128 64 56 56 (25690112)
I0714 09:29:09.675063 29225 net.cpp:165] Memory required for data: 210339328
I0714 09:29:09.675071 29225 layer_factory.hpp:76] Creating layer conv62
I0714 09:29:09.675089 29225 net.cpp:106] Creating Layer conv62
I0714 09:29:09.675098 29225 net.cpp:454] conv62 <- conv61
I0714 09:29:09.675110 29225 net.cpp:411] conv62 -> conv62
I0714 09:29:09.683709 29225 cudnn_conv_layer.cpp:194] Reallocating workspace storage: 6912
I0714 09:29:09.683749 29225 net.cpp:150] Setting up conv62
I0714 09:29:09.683765 29225 net.cpp:157] Top shape: 128 64 56 56 (25690112)
I0714 09:29:09.683775 29225 net.cpp:165] Memory required for data: 313099776
I0714 09:29:09.683790 29225 layer_factory.hpp:76] Creating layer relu62
I0714 09:29:09.683804 29225 net.cpp:106] Creating Layer relu62
I0714 09:29:09.683812 29225 net.cpp:454] relu62 <- conv62
I0714 09:29:09.683826 29225 net.cpp:397] relu62 -> conv62 (in-place)
I0714 09:29:09.686538 29225 net.cpp:150] Setting up relu62
I0714 09:29:09.686558 29225 net.cpp:157] Top shape: 128 64 56 56 (25690112)
I0714 09:29:09.686568 29225 net.cpp:165] Memory required for data: 415860224
I0714 09:29:09.686575 29225 layer_factory.hpp:76] Creating layer pool5
I0714 09:29:09.686589 29225 net.cpp:106] Creating Layer pool5
I0714 09:29:09.686596 29225 net.cpp:454] pool5 <- conv62
I0714 09:29:09.686609 29225 net.cpp:411] pool5 -> pool5
I0714 09:29:09.689493 29225 net.cpp:150] Setting up pool5
I0714 09:29:09.689512 29225 net.cpp:157] Top shape: 128 64 28 28 (6422528)
I0714 09:29:09.689520 29225 net.cpp:165] Memory required for data: 441550336
I0714 09:29:09.689528 29225 layer_factory.hpp:76] Creating layer conv71
I0714 09:29:09.689543 29225 net.cpp:106] Creating Layer conv71
I0714 09:29:09.689554 29225 net.cpp:454] conv71 <- pool5
I0714 09:29:09.689564 29225 net.cpp:411] conv71 -> conv71
I0714 09:29:09.696526 29225 cudnn_conv_layer.cpp:194] Reallocating workspace storage: 6912
I0714 09:29:09.696573 29225 net.cpp:150] Setting up conv71
I0714 09:29:09.696589 29225 net.cpp:157] Top shape: 128 96 28 28 (9633792)
I0714 09:29:09.696599 29225 net.cpp:165] Memory required for data: 480085504
I0714 09:29:09.696621 29225 layer_factory.hpp:76] Creating layer relu71
I0714 09:29:09.696638 29225 net.cpp:106] Creating Layer relu71
I0714 09:29:09.696648 29225 net.cpp:454] relu71 <- conv71
I0714 09:29:09.696661 29225 net.cpp:397] relu71 -> conv71 (in-place)
I0714 09:29:09.698920 29225 net.cpp:150] Setting up relu71
I0714 09:29:09.698941 29225 net.cpp:157] Top shape: 128 96 28 28 (9633792)
I0714 09:29:09.698951 29225 net.cpp:165] Memory required for data: 518620672
I0714 09:29:09.698959 29225 layer_factory.hpp:76] Creating layer conv72
I0714 09:29:09.698977 29225 net.cpp:106] Creating Layer conv72
I0714 09:29:09.698987 29225 net.cpp:454] conv72 <- conv71
I0714 09:29:09.698999 29225 net.cpp:411] conv72 -> conv72
I0714 09:29:09.706487 29225 cudnn_conv_layer.cpp:194] Reallocating workspace storage: 10368
I0714 09:29:09.706544 29225 net.cpp:150] Setting up conv72
I0714 09:29:09.706559 29225 net.cpp:157] Top shape: 128 96 28 28 (9633792)
I0714 09:29:09.706573 29225 net.cpp:165] Memory required for data: 557155840
I0714 09:29:09.706588 29225 layer_factory.hpp:76] Creating layer relu72
I0714 09:29:09.706604 29225 net.cpp:106] Creating Layer relu72
I0714 09:29:09.706614 29225 net.cpp:454] relu72 <- conv72
I0714 09:29:09.706679 29225 net.cpp:397] relu72 -> conv72 (in-place)
I0714 09:29:09.708878 29225 net.cpp:150] Setting up relu72
I0714 09:29:09.708897 29225 net.cpp:157] Top shape: 128 96 28 28 (9633792)
I0714 09:29:09.708906 29225 net.cpp:165] Memory required for data: 595691008
I0714 09:29:09.708915 29225 layer_factory.hpp:76] Creating layer pool6
I0714 09:29:09.708930 29225 net.cpp:106] Creating Layer pool6
I0714 09:29:09.708940 29225 net.cpp:454] pool6 <- conv72
I0714 09:29:09.708950 29225 net.cpp:411] pool6 -> pool6
I0714 09:29:09.711439 29225 net.cpp:150] Setting up pool6
I0714 09:29:09.711458 29225 net.cpp:157] Top shape: 128 96 14 14 (2408448)
I0714 09:29:09.711467 29225 net.cpp:165] Memory required for data: 605324800
I0714 09:29:09.711474 29225 layer_factory.hpp:76] Creating layer conv81
I0714 09:29:09.711493 29225 net.cpp:106] Creating Layer conv81
I0714 09:29:09.711501 29225 net.cpp:454] conv81 <- pool6
I0714 09:29:09.711511 29225 net.cpp:411] conv81 -> conv81
I0714 09:29:09.718156 29225 net.cpp:150] Setting up conv81
I0714 09:29:09.718186 29225 net.cpp:157] Top shape: 128 128 14 14 (3211264)
I0714 09:29:09.718195 29225 net.cpp:165] Memory required for data: 618169856
I0714 09:29:09.718214 29225 layer_factory.hpp:76] Creating layer relu81
I0714 09:29:09.718230 29225 net.cpp:106] Creating Layer relu81
I0714 09:29:09.718240 29225 net.cpp:454] relu81 <- conv81
I0714 09:29:09.718250 29225 net.cpp:397] relu81 -> conv81 (in-place)
I0714 09:29:09.720502 29225 net.cpp:150] Setting up relu81
I0714 09:29:09.720523 29225 net.cpp:157] Top shape: 128 128 14 14 (3211264)
I0714 09:29:09.720531 29225 net.cpp:165] Memory required for data: 631014912
I0714 09:29:09.720541 29225 layer_factory.hpp:76] Creating layer conv82
I0714 09:29:09.720557 29225 net.cpp:106] Creating Layer conv82
I0714 09:29:09.720566 29225 net.cpp:454] conv82 <- conv81
I0714 09:29:09.720579 29225 net.cpp:411] conv82 -> conv82
I0714 09:29:09.751073 29225 cudnn_conv_layer.cpp:194] Reallocating workspace storage: 13824
I0714 09:29:09.751145 29225 net.cpp:150] Setting up conv82
I0714 09:29:09.751163 29225 net.cpp:157] Top shape: 128 128 14 14 (3211264)
I0714 09:29:09.751173 29225 net.cpp:165] Memory required for data: 643859968
I0714 09:29:09.751194 29225 layer_factory.hpp:76] Creating layer relu82
I0714 09:29:09.751212 29225 net.cpp:106] Creating Layer relu82
I0714 09:29:09.751226 29225 net.cpp:454] relu82 <- conv82
I0714 09:29:09.751245 29225 net.cpp:397] relu82 -> conv82 (in-place)
I0714 09:29:09.754447 29225 net.cpp:150] Setting up relu82
I0714 09:29:09.754472 29225 net.cpp:157] Top shape: 128 128 14 14 (3211264)
I0714 09:29:09.754480 29225 net.cpp:165] Memory required for data: 656705024
I0714 09:29:09.754489 29225 layer_factory.hpp:76] Creating layer pool7
I0714 09:29:09.754508 29225 net.cpp:106] Creating Layer pool7
I0714 09:29:09.754515 29225 net.cpp:454] pool7 <- conv82
I0714 09:29:09.754528 29225 net.cpp:411] pool7 -> pool7
I0714 09:29:09.758117 29225 net.cpp:150] Setting up pool7
I0714 09:29:09.758141 29225 net.cpp:157] Top shape: 128 128 7 7 (802816)
I0714 09:29:09.758149 29225 net.cpp:165] Memory required for data: 659916288
I0714 09:29:09.758158 29225 layer_factory.hpp:76] Creating layer drop0
I0714 09:29:09.758174 29225 net.cpp:106] Creating Layer drop0
I0714 09:29:09.758185 29225 net.cpp:454] drop0 <- pool7
I0714 09:29:09.758195 29225 net.cpp:397] drop0 -> pool7 (in-place)
I0714 09:29:09.758229 29225 net.cpp:150] Setting up drop0
I0714 09:29:09.758242 29225 net.cpp:157] Top shape: 128 128 7 7 (802816)
I0714 09:29:09.758250 29225 net.cpp:165] Memory required for data: 663127552
I0714 09:29:09.758261 29225 layer_factory.hpp:76] Creating layer conv91
I0714 09:29:09.758281 29225 net.cpp:106] Creating Layer conv91
I0714 09:29:09.758291 29225 net.cpp:454] conv91 <- pool7
I0714 09:29:09.758302 29225 net.cpp:411] conv91 -> conv91
I0714 09:29:09.765806 29225 cudnn_conv_layer.cpp:194] Reallocating workspace storage: 9633792
I0714 09:29:09.766089 29225 net.cpp:150] Setting up conv91
I0714 09:29:09.766108 29225 net.cpp:157] Top shape: 128 3 1 1 (384)
I0714 09:29:09.766144 29225 net.cpp:165] Memory required for data: 663129088
I0714 09:29:09.766158 29225 layer_factory.hpp:76] Creating layer conv91_conv91_0_split
I0714 09:29:09.766172 29225 net.cpp:106] Creating Layer conv91_conv91_0_split
I0714 09:29:09.766182 29225 net.cpp:454] conv91_conv91_0_split <- conv91
I0714 09:29:09.766196 29225 net.cpp:411] conv91_conv91_0_split -> conv91_conv91_0_split_0
I0714 09:29:09.766211 29225 net.cpp:411] conv91_conv91_0_split -> conv91_conv91_0_split_1
I0714 09:29:09.766261 29225 net.cpp:150] Setting up conv91_conv91_0_split
I0714 09:29:09.766276 29225 net.cpp:157] Top shape: 128 3 1 1 (384)
I0714 09:29:09.766285 29225 net.cpp:157] Top shape: 128 3 1 1 (384)
I0714 09:29:09.766294 29225 net.cpp:165] Memory required for data: 663132160
I0714 09:29:09.766301 29225 layer_factory.hpp:76] Creating layer accuracy
I0714 09:29:09.766312 29225 net.cpp:106] Creating Layer accuracy
I0714 09:29:09.766319 29225 net.cpp:454] accuracy <- conv91_conv91_0_split_0
I0714 09:29:09.766329 29225 net.cpp:454] accuracy <- label_data_1_split_0
I0714 09:29:09.766337 29225 net.cpp:411] accuracy -> accuracy
…
