…
I0715 14:40:15.418889  9232 solver.cpp:90] Creating training net from net file: train_val-resultlayer-3stack.prototxt
I0715 14:40:15.419453  9232 net.cpp:322] The NetState phase (0) differed from the phase (1) specified by a rule in layer data
I0715 14:40:15.419611  9232 net.cpp:49] Initializing net from parameters: 
name: "FaceNN"
state {
  phase: TRAIN
}
layer {
  name: "data"
  type: "ImageData"
  top: "data"
  top: "label"
  include {
    phase: TRAIN
  }
  transform_param {
    mirror: true
  }
  image_data_param {
    source: "../lists/pos_result_map_train.lst"
    batch_size: 64
    shuffle: true
  }
}
layer {
  name: "conv61"
  type: "Convolution"
  bottom: "data"
  top: "conv61"
  param {
    lr_mult: 1
    decay_mult: 1
  }
  param {
    lr_mult: 2
    decay_mult: 0
  }
  convolution_param {
    num_output: 64
    pad: 1
    stride: 1
    weight_filler {
      type: "xavier"
    }
    bias_filler {
      type: "constant"
    }
    kernel_h: 3
    kernel_w: 3
  }
}
layer {
  name: "relu61"
  type: "ReLU"
  bottom: "conv61"
  top: "conv61"
}
layer {
  name: "conv62"
  type: "Convolution"
  bottom: "conv61"
  top: "conv62"
  param {
    lr_mult: 1
    decay_mult: 1
  }
  param {
    lr_mult: 2
    decay_mult: 0
  }
  convolution_param {
    num_output: 64
    pad: 1
    stride: 1
    weight_filler {
      type: "xavier"
    }
    bias_filler {
      type: "constant"
    }
    kernel_h: 3
    kernel_w: 3
  }
}
layer {
  name: "relu62"
  type: "ReLU"
  bottom: "conv62"
  top: "conv62"
}
layer {
  name: "pool5"
  type: "Pooling"
  bottom: "conv62"
  top: "pool5"
  pooling_param {
    pool: MAX
    kernel_size: 2
    stride: 2
  }
}
layer {
  name: "conv71"
  type: "Convolution"
  bottom: "pool5"
  top: "conv71"
  param {
    lr_mult: 1
    decay_mult: 1
  }
  param {
    lr_mult: 2
    decay_mult: 0
  }
  convolution_param {
    num_output: 96
    pad: 1
    stride: 1
    weight_filler {
      type: "xavier"
    }
    bias_filler {
      type: "constant"
    }
    kernel_h: 3
    kernel_w: 3
  }
}
layer {
  name: "relu71"
  type: "ReLU"
  bottom: "conv71"
  top: "conv71"
}
layer {
  name: "conv72"
  type: "Convolution"
  bottom: "conv71"
  top: "conv72"
  param {
    lr_mult: 1
    decay_mult: 1
  }
  param {
    lr_mult: 2
    decay_mult: 0
  }
  convolution_param {
    num_output: 96
    pad: 1
    stride: 1
    weight_filler {
      type: "xavier"
    }
    bias_filler {
      type: "constant"
    }
    kernel_h: 3
    kernel_w: 3
  }
}
layer {
  name: "relu72"
  type: "ReLU"
  bottom: "conv72"
  top: "conv72"
}
layer {
  name: "pool6"
  type: "Pooling"
  bottom: "conv72"
  top: "pool6"
  pooling_param {
    pool: MAX
    kernel_size: 2
    stride: 2
  }
}
layer {
  name: "conv81"
  type: "Convolution"
  bottom: "pool6"
  top: "conv81"
  param {
    lr_mult: 1
    decay_mult: 1
  }
  param {
    lr_mult: 2
    decay_mult: 0
  }
  convolution_param {
    num_output: 128
    pad: 1
    stride: 1
    weight_filler {
      type: "xavier"
    }
    bias_filler {
      type: "constant"
    }
    kernel_h: 3
    kernel_w: 3
  }
}
layer {
  name: "relu81"
  type: "ReLU"
  bottom: "conv81"
  top: "conv81"
}
layer {
  name: "conv82"
  type: "Convolution"
  bottom: "conv81"
  top: "conv82"
  param {
    lr_mult: 1
    decay_mult: 1
  }
  param {
    lr_mult: 2
    decay_mult: 0
  }
  convolution_param {
    num_output: 128
    pad: 1
    stride: 1
    weight_filler {
      type: "xavier"
    }
    bias_filler {
      type: "constant"
    }
    kernel_h: 3
    kernel_w: 3
  }
}
layer {
  name: "relu82"
  type: "ReLU"
  bottom: "conv82"
  top: "conv82"
}
layer {
  name: "pool7"
  type: "Pooling"
  bottom: "conv82"
  top: "pool7"
  pooling_param {
    pool: AVE
    kernel_size: 2
    stride: 2
  }
}
layer {
  name: "drop0"
  type: "Dropout"
  bottom: "pool7"
  top: "pool7"
  dropout_param {
    dropout_ratio: 0.4
  }
}
layer {
  name: "conv91"
  type: "Convolution"
  bottom: "pool7"
  top: "conv91"
  param {
    lr_mult: 1
    decay_mult: 1
  }
  param {
    lr_mult: 2
    decay_mult: 0
  }
  convolution_param {
    num_output: 3
    stride: 1
    weight_filler {
      type: "xavier"
    }
    bias_filler {
      type: "constant"
    }
    kernel_h: 7
    kernel_w: 7
  }
}
layer {
  name: "accuracy"
  type: "Accuracy"
  bottom: "conv91"
  bottom: "label"
  top: "accuracy"
}
layer {
  name: "loss"
  type: "SoftmaxWithLoss"
  bottom: "conv91"
  bottom: "label"
  top: "loss"
}
I0715 14:40:15.420708  9232 layer_factory.hpp:76] Creating layer data
I0715 14:40:15.420758  9232 net.cpp:106] Creating Layer data
I0715 14:40:15.420774  9232 net.cpp:411] data -> data
I0715 14:40:15.420810  9232 net.cpp:411] data -> label
I0715 14:40:15.421222  9232 image_data_layer.cpp:36] Opening file ../lists/pos_result_map_train.lst
I0715 14:40:15.429229  9232 image_data_layer.cpp:46] Shuffling data
I0715 14:40:15.430271  9232 image_data_layer.cpp:51] A total of 15237 images.
I0715 14:40:15.440968  9232 image_data_layer.cpp:78] output data size: 64,3,56,56
I0715 14:40:15.449460  9232 net.cpp:150] Setting up data
I0715 14:40:15.449579  9232 net.cpp:157] Top shape: 64 3 56 56 (602112)
I0715 14:40:15.449601  9232 net.cpp:157] Top shape: 64 (64)
I0715 14:40:15.449606  9232 net.cpp:165] Memory required for data: 2408704
I0715 14:40:15.449628  9232 layer_factory.hpp:76] Creating layer label_data_1_split
I0715 14:40:15.449646  9232 net.cpp:106] Creating Layer label_data_1_split
I0715 14:40:15.449653  9232 net.cpp:454] label_data_1_split <- label
I0715 14:40:15.449679  9232 net.cpp:411] label_data_1_split -> label_data_1_split_0
I0715 14:40:15.449702  9232 net.cpp:411] label_data_1_split -> label_data_1_split_1
I0715 14:40:15.449779  9232 net.cpp:150] Setting up label_data_1_split
I0715 14:40:15.449787  9232 net.cpp:157] Top shape: 64 (64)
I0715 14:40:15.449792  9232 net.cpp:157] Top shape: 64 (64)
I0715 14:40:15.449796  9232 net.cpp:165] Memory required for data: 2409216
I0715 14:40:15.449800  9232 layer_factory.hpp:76] Creating layer conv61
I0715 14:40:15.449817  9232 net.cpp:106] Creating Layer conv61
I0715 14:40:15.449822  9232 net.cpp:454] conv61 <- data
I0715 14:40:15.449828  9232 net.cpp:411] conv61 -> conv61
I0715 14:40:15.584022  9232 net.cpp:150] Setting up conv61
I0715 14:40:15.584076  9232 net.cpp:157] Top shape: 64 64 56 56 (12845056)
I0715 14:40:15.584089  9232 net.cpp:165] Memory required for data: 53789440
I0715 14:40:15.584117  9232 layer_factory.hpp:76] Creating layer relu61
I0715 14:40:15.584136  9232 net.cpp:106] Creating Layer relu61
I0715 14:40:15.584146  9232 net.cpp:454] relu61 <- conv61
I0715 14:40:15.584158  9232 net.cpp:397] relu61 -> conv61 (in-place)
I0715 14:40:15.584364  9232 net.cpp:150] Setting up relu61
I0715 14:40:15.584383  9232 net.cpp:157] Top shape: 64 64 56 56 (12845056)
I0715 14:40:15.584393  9232 net.cpp:165] Memory required for data: 105169664
I0715 14:40:15.584400  9232 layer_factory.hpp:76] Creating layer conv62
I0715 14:40:15.584417  9232 net.cpp:106] Creating Layer conv62
I0715 14:40:15.584426  9232 net.cpp:454] conv62 <- conv61
I0715 14:40:15.584439  9232 net.cpp:411] conv62 -> conv62
I0715 14:40:15.586580  9232 net.cpp:150] Setting up conv62
I0715 14:40:15.586614  9232 net.cpp:157] Top shape: 64 64 56 56 (12845056)
I0715 14:40:15.586623  9232 net.cpp:165] Memory required for data: 156549888
I0715 14:40:15.586655  9232 layer_factory.hpp:76] Creating layer relu62
I0715 14:40:15.586669  9232 net.cpp:106] Creating Layer relu62
I0715 14:40:15.586678  9232 net.cpp:454] relu62 <- conv62
I0715 14:40:15.586690  9232 net.cpp:397] relu62 -> conv62 (in-place)
I0715 14:40:15.587164  9232 net.cpp:150] Setting up relu62
I0715 14:40:15.587195  9232 net.cpp:157] Top shape: 64 64 56 56 (12845056)
I0715 14:40:15.587203  9232 net.cpp:165] Memory required for data: 207930112
I0715 14:40:15.587255  9232 layer_factory.hpp:76] Creating layer pool5
I0715 14:40:15.587275  9232 net.cpp:106] Creating Layer pool5
I0715 14:40:15.587285  9232 net.cpp:454] pool5 <- conv62
I0715 14:40:15.587294  9232 net.cpp:411] pool5 -> pool5
I0715 14:40:15.587537  9232 net.cpp:150] Setting up pool5
I0715 14:40:15.587554  9232 net.cpp:157] Top shape: 64 64 28 28 (3211264)
I0715 14:40:15.587563  9232 net.cpp:165] Memory required for data: 220775168
I0715 14:40:15.587571  9232 layer_factory.hpp:76] Creating layer conv71
I0715 14:40:15.587589  9232 net.cpp:106] Creating Layer conv71
I0715 14:40:15.587596  9232 net.cpp:454] conv71 <- pool5
I0715 14:40:15.587607  9232 net.cpp:411] conv71 -> conv71
I0715 14:40:15.589953  9232 cudnn_conv_layer.cpp:194] Reallocating workspace storage: 6912
I0715 14:40:15.590312  9232 net.cpp:150] Setting up conv71
I0715 14:40:15.590342  9232 net.cpp:157] Top shape: 64 96 28 28 (4816896)
I0715 14:40:15.590351  9232 net.cpp:165] Memory required for data: 240042752
I0715 14:40:15.590380  9232 layer_factory.hpp:76] Creating layer relu71
I0715 14:40:15.590399  9232 net.cpp:106] Creating Layer relu71
I0715 14:40:15.590407  9232 net.cpp:454] relu71 <- conv71
I0715 14:40:15.590417  9232 net.cpp:397] relu71 -> conv71 (in-place)
I0715 14:40:15.590944  9232 net.cpp:150] Setting up relu71
I0715 14:40:15.590975  9232 net.cpp:157] Top shape: 64 96 28 28 (4816896)
I0715 14:40:15.590983  9232 net.cpp:165] Memory required for data: 259310336
I0715 14:40:15.590991  9232 layer_factory.hpp:76] Creating layer conv72
I0715 14:40:15.591009  9232 net.cpp:106] Creating Layer conv72
I0715 14:40:15.591017  9232 net.cpp:454] conv72 <- conv71
I0715 14:40:15.591028  9232 net.cpp:411] conv72 -> conv72
I0715 14:40:15.593209  9232 cudnn_conv_layer.cpp:194] Reallocating workspace storage: 10368
I0715 14:40:15.593258  9232 net.cpp:150] Setting up conv72
I0715 14:40:15.593271  9232 net.cpp:157] Top shape: 64 96 28 28 (4816896)
I0715 14:40:15.593279  9232 net.cpp:165] Memory required for data: 278577920
I0715 14:40:15.593291  9232 layer_factory.hpp:76] Creating layer relu72
I0715 14:40:15.593304  9232 net.cpp:106] Creating Layer relu72
I0715 14:40:15.593312  9232 net.cpp:454] relu72 <- conv72
I0715 14:40:15.593323  9232 net.cpp:397] relu72 -> conv72 (in-place)
I0715 14:40:15.593688  9232 net.cpp:150] Setting up relu72
I0715 14:40:15.593719  9232 net.cpp:157] Top shape: 64 96 28 28 (4816896)
I0715 14:40:15.593729  9232 net.cpp:165] Memory required for data: 297845504
I0715 14:40:15.593739  9232 layer_factory.hpp:76] Creating layer pool6
I0715 14:40:15.593750  9232 net.cpp:106] Creating Layer pool6
I0715 14:40:15.593758  9232 net.cpp:454] pool6 <- conv72
I0715 14:40:15.593771  9232 net.cpp:411] pool6 -> pool6
I0715 14:40:15.594024  9232 net.cpp:150] Setting up pool6
I0715 14:40:15.594053  9232 net.cpp:157] Top shape: 64 96 14 14 (1204224)
I0715 14:40:15.594061  9232 net.cpp:165] Memory required for data: 302662400
I0715 14:40:15.594070  9232 layer_factory.hpp:76] Creating layer conv81
I0715 14:40:15.594085  9232 net.cpp:106] Creating Layer conv81
I0715 14:40:15.594094  9232 net.cpp:454] conv81 <- pool6
I0715 14:40:15.594107  9232 net.cpp:411] conv81 -> conv81
I0715 14:40:15.596132  9232 net.cpp:150] Setting up conv81
I0715 14:40:15.596166  9232 net.cpp:157] Top shape: 64 128 14 14 (1605632)
I0715 14:40:15.596175  9232 net.cpp:165] Memory required for data: 309084928
I0715 14:40:15.596191  9232 layer_factory.hpp:76] Creating layer relu81
I0715 14:40:15.596204  9232 net.cpp:106] Creating Layer relu81
I0715 14:40:15.596211  9232 net.cpp:454] relu81 <- conv81
I0715 14:40:15.596222  9232 net.cpp:397] relu81 -> conv81 (in-place)
I0715 14:40:15.596703  9232 net.cpp:150] Setting up relu81
I0715 14:40:15.596734  9232 net.cpp:157] Top shape: 64 128 14 14 (1605632)
I0715 14:40:15.596742  9232 net.cpp:165] Memory required for data: 315507456
I0715 14:40:15.596751  9232 layer_factory.hpp:76] Creating layer conv82
I0715 14:40:15.596765  9232 net.cpp:106] Creating Layer conv82
I0715 14:40:15.596774  9232 net.cpp:454] conv82 <- conv81
I0715 14:40:15.596828  9232 net.cpp:411] conv82 -> conv82
I0715 14:40:15.599653  9232 cudnn_conv_layer.cpp:194] Reallocating workspace storage: 13824
I0715 14:40:15.599705  9232 net.cpp:150] Setting up conv82
I0715 14:40:15.599717  9232 net.cpp:157] Top shape: 64 128 14 14 (1605632)
I0715 14:40:15.599726  9232 net.cpp:165] Memory required for data: 321929984
I0715 14:40:15.599738  9232 layer_factory.hpp:76] Creating layer relu82
I0715 14:40:15.599752  9232 net.cpp:106] Creating Layer relu82
I0715 14:40:15.599761  9232 net.cpp:454] relu82 <- conv82
I0715 14:40:15.599771  9232 net.cpp:397] relu82 -> conv82 (in-place)
I0715 14:40:15.599975  9232 net.cpp:150] Setting up relu82
I0715 14:40:15.600003  9232 net.cpp:157] Top shape: 64 128 14 14 (1605632)
I0715 14:40:15.600013  9232 net.cpp:165] Memory required for data: 328352512
I0715 14:40:15.600021  9232 layer_factory.hpp:76] Creating layer pool7
I0715 14:40:15.600036  9232 net.cpp:106] Creating Layer pool7
I0715 14:40:15.600044  9232 net.cpp:454] pool7 <- conv82
I0715 14:40:15.600056  9232 net.cpp:411] pool7 -> pool7
I0715 14:40:15.600569  9232 net.cpp:150] Setting up pool7
I0715 14:40:15.600599  9232 net.cpp:157] Top shape: 64 128 7 7 (401408)
I0715 14:40:15.600607  9232 net.cpp:165] Memory required for data: 329958144
I0715 14:40:15.600615  9232 layer_factory.hpp:76] Creating layer drop0
I0715 14:40:15.600631  9232 net.cpp:106] Creating Layer drop0
I0715 14:40:15.600641  9232 net.cpp:454] drop0 <- pool7
I0715 14:40:15.600652  9232 net.cpp:397] drop0 -> pool7 (in-place)
I0715 14:40:15.600700  9232 net.cpp:150] Setting up drop0
I0715 14:40:15.600713  9232 net.cpp:157] Top shape: 64 128 7 7 (401408)
I0715 14:40:15.600723  9232 net.cpp:165] Memory required for data: 331563776
I0715 14:40:15.600730  9232 layer_factory.hpp:76] Creating layer conv91
I0715 14:40:15.600749  9232 net.cpp:106] Creating Layer conv91
I0715 14:40:15.600761  9232 net.cpp:454] conv91 <- pool7
I0715 14:40:15.600771  9232 net.cpp:411] conv91 -> conv91
I0715 14:40:15.601847  9232 cudnn_conv_layer.cpp:194] Reallocating workspace storage: 4816896
I0715 14:40:15.602138  9232 net.cpp:150] Setting up conv91
I0715 14:40:15.602166  9232 net.cpp:157] Top shape: 64 3 1 1 (192)
I0715 14:40:15.602174  9232 net.cpp:165] Memory required for data: 331564544
I0715 14:40:15.602187  9232 layer_factory.hpp:76] Creating layer conv91_conv91_0_split
I0715 14:40:15.602201  9232 net.cpp:106] Creating Layer conv91_conv91_0_split
I0715 14:40:15.602210  9232 net.cpp:454] conv91_conv91_0_split <- conv91
I0715 14:40:15.602221  9232 net.cpp:411] conv91_conv91_0_split -> conv91_conv91_0_split_0
I0715 14:40:15.602231  9232 net.cpp:411] conv91_conv91_0_split -> conv91_conv91_0_split_1
I0715 14:40:15.602289  9232 net.cpp:150] Setting up conv91_conv91_0_split
I0715 14:40:15.602303  9232 net.cpp:157] Top shape: 64 3 1 1 (192)
I0715 14:40:15.602311  9232 net.cpp:157] Top shape: 64 3 1 1 (192)
I0715 14:40:15.602319  9232 net.cpp:165] Memory required for data: 331566080
I0715 14:40:15.602329  9232 layer_factory.hpp:76] Creating layer accuracy
I0715 14:40:15.602346  9232 net.cpp:106] Creating Layer accuracy
I0715 14:40:15.602355  9232 net.cpp:454] accuracy <- conv91_conv91_0_split_0
I0715 14:40:15.602365  9232 net.cpp:454] accuracy <- label_data_1_split_0
I0715 14:40:15.602385  9232 net.cpp:411] accuracy -> accuracy
…
