…
I0826 22:19:52.868857 99815 net.cpp:322] The NetState phase (0) differed from the phase (1) specified by a rule in layer loss3/top-1
I0826 22:19:52.870179 99815 net.cpp:58] Initializing net from parameters: 
name: "GoogleNet"
state {
  phase: TRAIN
  level: 0
  stage: ""
}
layer {
  name: "data"
  type: "Data"
  top: "data"
  top: "label"
  include {
    phase: TRAIN
  }
  transform_param {
    mirror: true
    mean_value: 150
    mean_value: 150
    mean_value: 150
  }
  data_param {
    source: "../../step01_generate_traing_data/training_examples_babak/lmdb_stage2_tr_top12"
    batch_size: 64
    backend: LMDB
  }
}
layer {
  name: "conv1/7x7_s2"
  type: "Convolution"
  bottom: "data"
  top: "conv1/7x7_s2"
  param {
    lr_mult: 1
    decay_mult: 1
  }
  param {
    lr_mult: 2
    decay_mult: 0
  }
  convolution_param {
    num_output: 64
    pad: 1
    kernel_size: 3
    stride: 1
    weight_filler {
      type: "xavier"
    }
    bias_filler {
      type: "constant"
      value: 0.2
    }
  }
}
layer {
  name: "conv1/relu_7x7"
  type: "ReLU"
  bottom: "conv1/7x7_s2"
  top: "conv1/7x7_s2"
}
layer {
  name: "pool1/3x3_s2"
  type: "Pooling"
  bottom: "conv1/7x7_s2"
  top: "pool1/3x3_s2"
  pooling_param {
    pool: MAX
    kernel_size: 2
    stride: 2
  }
}
layer {
  name: "pool1/norm1"
  type: "LRN"
  bottom: "pool1/3x3_s2"
  top: "pool1/norm1"
  lrn_param {
    local_size: 5
    alpha: 0.0001
    beta: 0.75
  }
}
layer {
  name: "conv2/3x3_reduce"
  type: "Convolution"
  bottom: "pool1/norm1"
  top: "conv2/3x3_reduce"
  param {
    lr_mult: 1
    decay_mult: 1
  }
  param {
    lr_mult: 2
    decay_mult: 0
  }
  convolution_param {
    num_output: 64
    kernel_size: 1
    weight_filler {
      type: "xavier"
    }
    bias_filler {
      type: "constant"
      value: 0.2
    }
  }
}
layer {
  name: "conv2/relu_3x3_reduce"
  type: "ReLU"
  bottom: "conv2/3x3_reduce"
  top: "conv2/3x3_reduce"
}
layer {
  name: "conv2/3x3"
  type: "Convolution"
  bottom: "conv2/3x3_reduce"
  top: "conv2/3x3"
  param {
    lr_mult: 1
    decay_mult: 1
  }
  param {
    lr_mult: 2
    decay_mult: 0
  }
  convolution_param {
    num_output: 192
    pad: 1
    kernel_size: 3
    weight_filler {
      type: "xavier"
    }
    bias_filler {
      type: "constant"
      value: 0.2
    }
  }
}
layer {
  name: "conv2/relu_3x3"
  type: "ReLU"
  bottom: "conv2/3x3"
  top: "conv2/3x3"
}
layer {
  name: "conv2/norm2"
  type: "LRN"
  bottom: "conv2/3x3"
  top: "conv2/norm2"
  lrn_param {
    local_size: 5
    alpha: 0.0001
    beta: 0.75
  }
}
layer {
  name: "pool2/3x3_s2"
  type: "Pooling"
  bottom: "conv2/norm2"
  top: "pool2/3x3_s2"
  pooling_param {
    pool: MAX
    kernel_size: 3
    stride: 2
  }
}
layer {
  name: "inception_3a/1x1"
  type: "Convolution"
  bottom: "pool2/3x3_s2"
  top: "inception_3a/1x1"
  param {
    lr_mult: 1
    decay_mult: 1
  }
  param {
    lr_mult: 2
    decay_mult: 0
  }
  convolution_param {
    num_output: 64
    kernel_size: 1
    weight_filler {
      type: "xavier"
    }
    bias_filler {
      type: "constant"
      value: 0.2
    }
  }
}
layer {
  name: "inception_3a/relu_1x1"
  type: "ReLU"
  bottom: "inception_3a/1x1"
  top: "inception_3a/1x1"
}
layer {
  name: "inception_3a/3x3_reduce"
  type: "Convolution"
  bottom: "pool2/3x3_s2"
  top: "inception_3a/3x3_reduce"
  param {
    lr_mult: 1
    decay_mult: 1
  }
  param {
    lr_mult: 2
    decay_mult: 0
  }
  convolution_param {
    num_output: 96
    kernel_size: 1
    weight_filler {
      type: "xavier"
    }
    bias_filler {
      type: "constant"
      value: 0.2
    }
  }
}
layer {
  name: "inception_3a/relu_3x3_reduce"
  type: "ReLU"
  bottom: "inception_3a/3x3_reduce"
  top: "inception_3a/3x3_reduce"
}
layer {
  name: "inception_3a/3x3"
  type: "Convolution"
  bottom: "inception_3a/3x3_reduce"
  top: "inception_3a/3x3"
  param {
    lr_mult: 1
    decay_mult: 1
  }
  param {
    lr_mult: 2
    decay_mult: 0
  }
  convolution_param {
    num_output: 128
    pad: 1
    kernel_size: 3
    weight_filler {
      type: "xavier"
    }
    bias_filler {
      type: "constant"
      value: 0.2
    }
  }
}
layer {
  name: "inception_3a/relu_3x3"
  type: "ReLU"
  bottom: "inception_3a/3x3"
  top: "inception_3a/3x3"
}
layer {
  name: "inception_3a/5x5_reduce"
  type: "Convolution"
  bottom: "pool2/3x3_s2"
  top: "inception_3a/5x5_reduce"
  param {
    lr_mult: 1
    decay_mult: 1
  }
  param {
    lr_mult: 2
    decay_mult: 0
  }
  convolution_param {
    num_output: 16
    kernel_size: 1
    weight_filler {
      type: "xavier"
    }
    bias_filler {
      type: "constant"
      value: 0.2
    }
  }
}
layer {
  name: "inception_3a/relu_5x5_reduce"
  type: "ReLU"
  bottom: "inception_3a/5x5_reduce"
  top: "inception_3a/5x5_reduce"
}
layer {
  name: "inception_3a/5x5"
  type: "Convolution"
  bottom: "inception_3a/5x5_reduce"
  top: "inception_3a/5x5"
  param {
    lr_mult: 1
    decay_mult: 1
  }
  param {
    lr_mult: 2
    decay_mult: 0
  }
  convolution_param {
    num_output: 32
    pad: 2
    kernel_size: 5
    weight_filler {
      type: "xavier"
    }
    bias_filler {
      type: "constant"
      value: 0.2
    }
  }
}
layer {
  name: "inception_3a/relu_5x5"
  type: "ReLU"
  bottom: "inception_3a/5x5"
  top: "inception_3a/5x5"
}
layer {
  name: "inception_3a/pool"
  type: "Pooling"
  bottom: "pool2/3x3_s2"
  top: "inception_3a/pool"
  pooling_param {
    pool: MAX
    kernel_size: 3
    stride: 1
    pad: 1
  }
}
layer {
  name: "inception_3a/pool_proj"
  type: "Convolution"
  bottom: "inception_3a/pool"
  top: "inception_3a/pool_proj"
  param {
    lr_mult: 1
    decay_mult: 1
  }
  param {
    lr_mult: 2
    decay_mult: 0
  }
  convolution_param {
    num_output: 32
    kernel_size: 1
    weight_filler {
      type: "xavier"
    }
    bias_filler {
      type: "constant"
      value: 0.2
    }
  }
}
layer {
  name: "inception_3a/relu_pool_proj"
  type: "ReLU"
  bottom: "inception_3a/pool_proj"
  top: "inception_3a/pool_proj"
}
layer {
  name: "inception_3a/output"
  type: "Concat"
  bottom: "inception_3a/1x1"
  bottom: "inception_3a/3x3"
  bottom: "inception_3a/5x5"
  bottom: "inception_3a/pool_proj"
  top: "inception_3a/output"
}
layer {
  name: "inception_3b/1x1"
  type: "Convolution"
  bottom: "inception_3a/output"
  top: "inception_3b/1x1"
  param {
    lr_mult: 1
    decay_mult: 1
  }
  param {
    lr_mult: 2
    decay_mult: 0
  }
  convolution_param {
    num_output: 128
    kernel_size: 1
    weight_filler {
      type: "xavier"
    }
    bias_filler {
      type: "constant"
      value: 0.2
    }
  }
}
layer {
  name: "inception_3b/relu_1x1"
  type: "ReLU"
  bottom: "inception_3b/1x1"
  top: "inception_3b/1x1"
}
layer {
  name: "inception_3b/3x3_reduce"
  type: "Convolution"
  bottom: "inception_3a/output"
  top: "inception_3b/3x3_reduce"
  param {
    lr_mult: 1
    decay_mult: 1
  }
  param {
    lr_mult: 2
    decay_mult: 0
  }
  convolution_param {
    num_output: 128
    kernel_size: 1
    weight_filler {
      type: "xavier"
    }
    bias_filler {
      type: "constant"
      value: 0.2
    }
  }
}
layer {
  name: "inception_3b/relu_3x3_reduce"
  type: "ReLU"
  bottom: "inception_3b/3x3_reduce"
  top: "inception_3b/3x3_reduce"
}
layer {
  name: "inception_3b/3x3"
  type: "Convolution"
  bottom: "inception_3b/3x3_reduce"
  top: "inception_3b/3x3"
  param {
    lr_mult: 1
    decay_mult: 1
  }
  param {
    lr_mult: 2
    decay_mult: 0
  }
  convolution_param {
    num_output: 192
    pad: 1
    kernel_size: 3
    weight_filler {
      type: "xavier"
    }
    bias_filler {
      type: "constant"
      value: 0.2
    }
  }
}
layer {
  name: "inception_3b/relu_3x3"
  type: "ReLU"
  bottom: "inception_3b/3x3"
  top: "inception_3b/3x3"
}
layer {
  name: "inception_3b/5x5_reduce"
  type: "Convolution"
  bottom: "inception_3a/output"
  top: "inception_3b/5x5_reduce"
  param {
    lr_mult: 1
    decay_mult: 1
  }
  param {
    lr_mult: 2
    decay_mult: 0
  }
  convolution_param {
    num_output: 32
    kernel_size: 1
    weight_filler {
      type: "xavier"
    }
    bias_filler {
      type: "constant"
      value: 0.2
    }
  }
}
layer {
  name: "inception_3b/relu_5x5_reduce"
  type: "ReLU"
  bottom: "inception_3b/5x5_reduce"
  top: "inception_3b/5x5_reduce"
}
layer {
  name: "inception_3b/5x5"
  type: "Convolution"
  bottom: "inception_3b/5x5_reduce"
  top: "inception_3b/5x5"
  param {
    lr_mult: 1
    decay_mult: 1
  }
  param {
    lr_mult: 2
    decay_mult: 0
  }
  convolution_param {
    num_output: 96
    pad: 2
    kernel_size: 5
    weight_filler {
      type: "xavier"
    }
    bias_filler {
      type: "constant"
      value: 0.2
    }
  }
}
layer {
  name: "inception_3b/relu_5x5"
  type: "ReLU"
  bottom: "inception_3b/5x5"
  top: "inception_3b/5x5"
}
layer {
  name: "inception_3b/pool"
  type: "Pooling"
  bottom: "inception_3a/output"
  top: "inception_3b/pool"
  pooling_param {
    pool: MAX
    kernel_size: 3
    stride: 1
    pad: 1
  }
}
layer {
  name: "inception_3b/pool_proj"
  type: "Convolution"
  bottom: "inception_3b/pool"
  top: "inception_3b/pool_proj"
  param {
    lr_mult: 1
    decay_mult: 1
  }
  param {
    lr_mult: 2
    decay_mult: 0
  }
  convolution_param {
    num_output: 64
    kernel_size: 1
    weight_filler {
      type: "xavier"
    }
    bias_filler {
      type: "constant"
      value: 0.2
    }
  }
}
layer {
  name: "inception_3b/relu_pool_proj"
  type: "ReLU"
  bottom: "inception_3b/pool_proj"
  top: "inception_3b/pool_proj"
}
layer {
  name: "inception_3b/output"
  type: "Concat"
  bottom: "inception_3b/1x1"
  bottom: "inception_3b/3x3"
  bottom: "inception_3b/5x5"
  bottom: "inception_3b/pool_proj"
  top: "inception_3b/output"
}
layer {
  name: "pool3/3x3_s2"
  type: "Pooling"
  bottom: "inception_3b/output"
  top: "pool3/3x3_s2"
  pooling_param {
    pool: MAX
    kernel_size: 3
    stride: 2
  }
}
layer {
  name: "inception_4a/1x1"
  type: "Convolution"
  bottom: "pool3/3x3_s2"
  top: "inception_4a/1x1"
  param {
    lr_mult: 1
    decay_mult: 1
  }
  param {
    lr_mult: 2
    decay_mult: 0
  }
  convolution_param {
    num_output: 192
    kernel_size: 1
    weight_filler {
      type: "xavier"
    }
    bias_filler {
      type: "constant"
      value: 0.2
    }
  }
}
layer {
  name: "inception_4a/relu_1x1"
  type: "ReLU"
  bottom: "inception_4a/1x1"
  top: "inception_4a/1x1"
}
layer {
  name: "inception_4a/3x3_reduce"
  type: "Convolution"
  bottom: "pool3/3x3_s2"
  top: "inception_4a/3x3_reduce"
  param {
    lr_mult: 1
    decay_mult: 1
  }
  param {
    lr_mult: 2
    decay_mult: 0
  }
  convolution_param {
    num_output: 96
    kernel_size: 1
    weight_filler {
      type: "xavier"
    }
    bias_filler {
      type: "constant"
      value: 0.2
    }
  }
}
layer {
  name: "inception_4a/relu_3x3_reduce"
  type: "ReLU"
  bottom: "inception_4a/3x3_reduce"
  top: "inception_4a/3x3_reduce"
}
layer {
  name: "inception_4a/3x3"
  type: "Convolution"
  bottom: "inception_4a/3x3_reduce"
  top: "inception_4a/3x3"
  param {
    lr_mult: 1
    decay_mult: 1
  }
  param {
    lr_mult: 2
    decay_mult: 0
  }
  convolution_param {
    num_output: 208
    pad: 1
    kernel_size: 3
    weight_filler {
      type: "xavier"
    }
    bias_filler {
      type: "constant"
      value: 0.2
    }
  }
}
layer {
  name: "inception_4a/relu_3x3"
  type: "ReLU"
  bottom: "inception_4a/3x3"
  top: "inception_4a/3x3"
}
layer {
  name: "inception_4a/5x5_reduce"
  type: "Convolution"
  bottom: "pool3/3x3_s2"
  top: "inception_4a/5x5_reduce"
  param {
    lr_mult: 1
    decay_mult: 1
  }
  param {
    lr_mult: 2
    decay_mult: 0
  }
  convolution_param {
    num_output: 16
    kernel_size: 1
    weight_filler {
      type: "xavier"
    }
    bias_filler {
      type: "constant"
      value: 0.2
    }
  }
}
layer {
  name: "inception_4a/relu_5x5_reduce"
  type: "ReLU"
  bottom: "inception_4a/5x5_reduce"
  top: "inception_4a/5x5_reduce"
}
layer {
  name: "inception_4a/5x5"
  type: "Convolution"
  bottom: "inception_4a/5x5_reduce"
  top: "inception_4a/5x5"
  param {
    lr_mult: 1
    decay_mult: 1
  }
  param {
    lr_mult: 2
    decay_mult: 0
  }
  convolution_param {
    num_output: 48
    pad: 2
    kernel_size: 5
    weight_filler {
      type: "xavier"
    }
    bias_filler {
      type: "constant"
      value: 0.2
    }
  }
}
layer {
  name: "inception_4a/relu_5x5"
  type: "ReLU"
  bottom: "inception_4a/5x5"
  top: "inception_4a/5x5"
}
layer {
  name: "inception_4a/pool"
  type: "Pooling"
  bottom: "pool3/3x3_s2"
  top: "inception_4a/pool"
  pooling_param {
    pool: MAX
    kernel_size: 3
    stride: 1
    pad: 1
  }
}
layer {
  name: "inception_4a/pool_proj"
  type: "Convolution"
  bottom: "inception_4a/pool"
  top: "inception_4a/pool_proj"
  param {
    lr_mult: 1
    decay_mult: 1
  }
  param {
    lr_mult: 2
    decay_mult: 0
  }
  convolution_param {
    num_output: 64
    kernel_size: 1
    weight_filler {
      type: "xavier"
    }
    bias_filler {
      type: "constant"
      value: 0.2
    }
  }
}
layer {
  name: "inception_4a/relu_pool_proj"
  type: "ReLU"
  bottom: "inception_4a/pool_proj"
  top: "inception_4a/pool_proj"
}
layer {
  name: "inception_4a/output"
  type: "Concat"
  bottom: "inception_4a/1x1"
  bottom: "inception_4a/3x3"
  bottom: "inception_4a/5x5"
  bottom: "inception_4a/pool_proj"
  top: "inception_4a/output"
}
layer {
  name: "loss1/ave_pool"
  type: "Pooling"
  bottom: "inception_4a/output"
  top: "loss1/ave_pool"
  pooling_param {
    pool: AVE
    kernel_size: 5
    stride: 3
  }
}
layer {
  name: "loss1/conv"
  type: "Convolution"
  bottom: "loss1/ave_pool"
  top: "loss1/conv"
  param {
    lr_mult: 1
    decay_mult: 1
  }
  param {
    lr_mult: 2
    decay_mult: 0
  }
  convolution_param {
    num_output: 128
    kernel_size: 1
    weight_filler {
      type: "xavier"
    }
    bias_filler {
      type: "constant"
      value: 0.2
    }
  }
}
layer {
  name: "loss1/relu_conv"
  type: "ReLU"
  bottom: "loss1/conv"
  top: "loss1/conv"
}
layer {
  name: "loss1/fc"
  type: "InnerProduct"
  bottom: "loss1/conv"
  top: "loss1/fc"
  param {
    lr_mult: 1
    decay_mult: 1
  }
  param {
    lr_mult: 2
    decay_mult: 0
  }
  inner_product_param {
    num_output: 1024
    weight_filler {
      type: "xavier"
    }
    bias_filler {
      type: "constant"
      value: 0.2
    }
  }
}
layer {
  name: "loss1/relu_fc"
  type: "ReLU"
  bottom: "loss1/fc"
  top: "loss1/fc"
}
layer {
  name: "loss1/drop_fc"
  type: "Dropout"
  bottom: "loss1/fc"
  top: "loss1/fc"
  dropout_param {
    dropout_ratio: 0.7
  }
}
layer {
  name: "loss1/classifier"
  type: "InnerProduct"
  bottom: "loss1/fc"
  top: "loss1/classifier"
  param {
    lr_mult: 1
    decay_mult: 1
  }
  param {
    lr_mult: 2
    decay_mult: 0
  }
  inner_product_param {
    num_output: 2
    weight_filler {
      type: "xavier"
    }
    bias_filler {
      type: "constant"
      value: 0
    }
  }
}
layer {
  name: "loss1/loss"
  type: "SoftmaxWithLoss"
  bottom: "loss1/classifier"
  bottom: "label"
  top: "loss1/loss1"
  loss_weight: 0.3
}
layer {
  name: "inception_4b/1x1"
  type: "Convolution"
  bottom: "inception_4a/output"
  top: "inception_4b/1x1"
  param {
    lr_mult: 1
    decay_mult: 1
  }
  param {
    lr_mult: 2
    decay_mult: 0
  }
  convolution_param {
    num_output: 160
    kernel_size: 1
    weight_filler {
      type: "xavier"
    }
    bias_filler {
      type: "constant"
      value: 0.2
    }
  }
}
layer {
  name: "inception_4b/relu_1x1"
  type: "ReLU"
  bottom: "inception_4b/1x1"
  top: "inception_4b/1x1"
}
layer {
  name: "inception_4b/3x3_reduce"
  type: "Convolution"
  bottom: "inception_4a/output"
  top: "inception_4b/3x3_reduce"
  param {
    lr_mult: 1
    decay_mult: 1
  }
  param {
    lr_mult: 2
    decay_mult: 0
  }
  convolution_param {
    num_output: 112
    kernel_size: 1
    weight_filler {
      type: "xavier"
    }
    bias_filler {
      type: "constant"
      value: 0.2
    }
  }
}
layer {
  name: "inception_4b/relu_3x3_reduce"
  type: "ReLU"
  bottom: "inception_4b/3x3_reduce"
  top: "inception_4b/3x3_reduce"
}
layer {
  name: "inception_4b/3x3"
  type: "Convolution"
  bottom: "inception_4b/3x3_reduce"
  top: "inception_4b/3x3"
  param {
    lr_mult: 1
    decay_mult: 1
  }
  param {
    lr_mult: 2
    decay_mult: 0
  }
  convolution_param {
    num_output: 224
    pad: 1
    kernel_size: 3
    weight_filler {
      type: "xavier"
    }
    bias_filler {
      type: "constant"
      value: 0.2
    }
  }
}
layer {
  name: "inception_4b/relu_3x3"
  type: "ReLU"
  bottom: "inception_4b/3x3"
  top: "inception_4b/3x3"
}
layer {
  name: "inception_4b/5x5_reduce"
  type: "Convolution"
  bottom: "inception_4a/output"
  top: "inception_4b/5x5_reduce"
  param {
    lr_mult: 1
    decay_mult: 1
  }
  param {
    lr_mult: 2
    decay_mult: 0
  }
  convolution_param {
    num_output: 24
    kernel_size: 1
    weight_filler {
      type: "xavier"
    }
    bias_filler {
      type: "constant"
      value: 0.2
    }
  }
}
layer {
  name: "inception_4b/relu_5x5_reduce"
  type: "ReLU"
  bottom: "inception_4b/5x5_reduce"
  top: "inception_4b/5x5_reduce"
}
layer {
  name: "inception_4b/5x5"
  type: "Convolution"
  bottom: "inception_4b/5x5_reduce"
  top: "inception_4b/5x5"
  param {
    lr_mult: 1
    decay_mult: 1
  }
  param {
    lr_mult: 2
    decay_mult: 0
  }
  convolution_param {
    num_output: 64
    pad: 2
    kernel_size: 5
    weight_filler {
      type: "xavier"
    }
    bias_filler {
      type: "constant"
      value: 0.2
    }
  }
}
layer {
  name: "inception_4b/relu_5x5"
  type: "ReLU"
  bottom: "inception_4b/5x5"
  top: "inception_4b/5x5"
}
layer {
  name: "inception_4b/pool"
  type: "Pooling"
  bottom: "inception_4a/output"
  top: "inception_4b/pool"
  pooling_param {
    pool: MAX
    kernel_size: 3
    stride: 1
    pad: 1
  }
}
layer {
  name: "inception_4b/pool_proj"
  type: "Convolution"
  bottom: "inception_4b/pool"
  top: "inception_4b/pool_proj"
  param {
    lr_mult: 1
    decay_mult: 1
  }
  param {
    lr_mult: 2
    decay_mult: 0
  }
  convolution_param {
    num_output: 64
    kernel_size: 1
    weight_filler {
      type: "xavier"
    }
    bias_filler {
      type: "constant"
      value: 0.2
    }
  }
}
layer {
  name: "inception_4b/relu_pool_proj"
  type: "ReLU"
  bottom: "inception_4b/pool_proj"
  top: "inception_4b/pool_proj"
}
layer {
  name: "inception_4b/output"
  type: "Concat"
  bottom: "inception_4b/1x1"
  bottom: "inception_4b/3x3"
  bottom: "inception_4b/5x5"
  bottom: "inception_4b/pool_proj"
  top: "inception_4b/output"
}
layer {
  name: "inception_4c/1x1"
  type: "Convolution"
  bottom: "inception_4b/output"
  top: "inception_4c/1x1"
  param {
    lr_mult: 1
    decay_mult: 1
  }
  param {
    lr_mult: 2
    decay_mult: 0
  }
  convolution_param {
    num_output: 128
    kernel_size: 1
    weight_filler {
      type: "xavier"
    }
    bias_filler {
      type: "constant"
      value: 0.2
    }
  }
}
layer {
  name: "inception_4c/relu_1x1"
  type: "ReLU"
  bottom: "inception_4c/1x1"
  top: "inception_4c/1x1"
}
layer {
  name: "inception_4c/3x3_reduce"
  type: "Convolution"
  bottom: "inception_4b/output"
  top: "inception_4c/3x3_reduce"
  param {
    lr_mult: 1
    decay_mult: 1
  }
  param {
    lr_mult: 2
    decay_mult: 0
  }
  convolution_param {
    num_output: 128
    kernel_size: 1
    weight_filler {
      type: "xavier"
    }
    bias_filler {
      type: "constant"
      value: 0.2
    }
  }
}
layer {
  name: "inception_4c/relu_3x3_reduce"
  type: "ReLU"
  bottom: "inception_4c/3x3_reduce"
  top: "inception_4c/3x3_reduce"
}
layer {
  name: "inception_4c/3x3"
  type: "Convolution"
  bottom: "inception_4c/3x3_reduce"
  top: "inception_4c/3x3"
  param {
    lr_mult: 1
    decay_mult: 1
  }
  param {
    lr_mult: 2
    decay_mult: 0
  }
  convolution_param {
    num_output: 256
    pad: 1
    kernel_size: 3
    weight_filler {
      type: "xavier"
    }
    bias_filler {
      type: "constant"
      value: 0.2
    }
  }
}
layer {
  name: "inception_4c/relu_3x3"
  type: "ReLU"
  bottom: "inception_4c/3x3"
  top: "inception_4c/3x3"
}
layer {
  name: "inception_4c/5x5_reduce"
  type: "Convolution"
  bottom: "inception_4b/output"
  top: "inception_4c/5x5_reduce"
  param {
    lr_mult: 1
    decay_mult: 1
  }
  param {
    lr_mult: 2
    decay_mult: 0
  }
  convolution_param {
    num_output: 24
    kernel_size: 1
    weight_filler {
      type: "xavier"
    }
    bias_filler {
      type: "constant"
      value: 0.2
    }
  }
}
layer {
  name: "inception_4c/relu_5x5_reduce"
  type: "ReLU"
  bottom: "inception_4c/5x5_reduce"
  top: "inception_4c/5x5_reduce"
}
layer {
  name: "inception_4c/5x5"
  type: "Convolution"
  bottom: "inception_4c/5x5_reduce"
  top: "inception_4c/5x5"
  param {
    lr_mult: 1
    decay_mult: 1
  }
  param {
    lr_mult: 2
    decay_mult: 0
  }
  convolution_param {
    num_output: 64
    pad: 2
    kernel_size: 5
    weight_filler {
      type: "xavier"
    }
    bias_filler {
      type: "constant"
      value: 0.2
    }
  }
}
layer {
  name: "inception_4c/relu_5x5"
  type: "ReLU"
  bottom: "inception_4c/5x5"
  top: "inception_4c/5x5"
}
layer {
  name: "inception_4c/pool"
  type: "Pooling"
  bottom: "inception_4b/output"
  top: "inception_4c/pool"
  pooling_param {
    pool: MAX
    kernel_size: 3
    stride: 1
    pad: 1
  }
}
layer {
  name: "inception_4c/pool_proj"
  type: "Convolution"
  bottom: "inception_4c/pool"
  top: "inception_4c/pool_proj"
  param {
    lr_mult: 1
    decay_mult: 1
  }
  param {
    lr_mult: 2
    decay_mult: 0
  }
  convolution_param {
    num_output: 64
    kernel_size: 1
    weight_filler {
      type: "xavier"
    }
    bias_filler {
      type: "constant"
      value: 0.2
    }
  }
}
layer {
  name: "inception_4c/relu_pool_proj"
  type: "ReLU"
  bottom: "inception_4c/pool_proj"
  top: "inception_4c/pool_proj"
}
layer {
  name: "inception_4c/output"
  type: "Concat"
  bottom: "inception_4c/1x1"
  bottom: "inception_4c/3x3"
  bottom: "inception_4c/5x5"
  bottom: "inception_4c/pool_proj"
  top: "inception_4c/output"
}
layer {
  name: "inception_4d/1x1"
  type: "Convolution"
  bottom: "inception_4c/output"
  top: "inception_4d/1x1"
  param {
    lr_mult: 1
    decay_mult: 1
  }
  param {
    lr_mult: 2
    decay_mult: 0
  }
  convolution_param {
    num_output: 112
    kernel_size: 1
    weight_filler {
      type: "xavier"
    }
    bias_filler {
      type: "constant"
      value: 0.2
    }
  }
}
layer {
  name: "inception_4d/relu_1x1"
  type: "ReLU"
  bottom: "inception_4d/1x1"
  top: "inception_4d/1x1"
}
layer {
  name: "inception_4d/3x3_reduce"
  type: "Convolution"
  bottom: "inception_4c/output"
  top: "inception_4d/3x3_reduce"
  param {
    lr_mult: 1
    decay_mult: 1
  }
  param {
    lr_mult: 2
    decay_mult: 0
  }
  convolution_param {
    num_output: 144
    kernel_size: 1
    weight_filler {
      type: "xavier"
    }
    bias_filler {
      type: "constant"
      value: 0.2
    }
  }
}
layer {
  name: "inception_4d/relu_3x3_reduce"
  type: "ReLU"
  bottom: "inception_4d/3x3_reduce"
  top: "inception_4d/3x3_reduce"
}
layer {
  name: "inception_4d/3x3"
  type: "Convolution"
  bottom: "inception_4d/3x3_reduce"
  top: "inception_4d/3x3"
  param {
    lr_mult: 1
    decay_mult: 1
  }
  param {
    lr_mult: 2
    decay_mult: 0
  }
  convolution_param {
    num_output: 288
    pad: 1
    kernel_size: 3
    weight_filler {
      type: "xavier"
    }
    bias_filler {
      type: "constant"
      value: 0.2
    }
  }
}
layer {
  name: "inception_4d/relu_3x3"
  type: "ReLU"
  bottom: "inception_4d/3x3"
  top: "inception_4d/3x3"
}
layer {
  name: "inception_4d/5x5_reduce"
  type: "Convolution"
  bottom: "inception_4c/output"
  top: "inception_4d/5x5_reduce"
  param {
    lr_mult: 1
    decay_mult: 1
  }
  param {
    lr_mult: 2
    decay_mult: 0
  }
  convolution_param {
    num_output: 32
    kernel_size: 1
    weight_filler {
      type: "xavier"
    }
    bias_filler {
      type: "constant"
      value: 0.2
    }
  }
}
layer {
  name: "inception_4d/relu_5x5_reduce"
  type: "ReLU"
  bottom: "inception_4d/5x5_reduce"
  top: "inception_4d/5x5_reduce"
}
layer {
  name: "inception_4d/5x5"
  type: "Convolution"
  bottom: "inception_4d/5x5_reduce"
  top: "inception_4d/5x5"
  param {
    lr_mult: 1
    decay_mult: 1
  }
  param {
    lr_mult: 2
    decay_mult: 0
  }
  convolution_param {
    num_output: 64
    pad: 2
    kernel_size: 5
    weight_filler {
      type: "xavier"
    }
    bias_filler {
      type: "constant"
      value: 0.2
    }
  }
}
layer {
  name: "inception_4d/relu_5x5"
  type: "ReLU"
  bottom: "inception_4d/5x5"
  top: "inception_4d/5x5"
}
layer {
  name: "inception_4d/pool"
  type: "Pooling"
  bottom: "inception_4c/output"
  top: "inception_4d/pool"
  pooling_param {
    pool: MAX
    kernel_size: 3
    stride: 1
    pad: 1
  }
}
layer {
  name: "inception_4d/pool_proj"
  type: "Convolution"
  bottom: "inception_4d/pool"
  top: "inception_4d/pool_proj"
  param {
    lr_mult: 1
    decay_mult: 1
  }
  param {
    lr_mult: 2
    decay_mult: 0
  }
  convolution_param {
    num_output: 64
    kernel_size: 1
    weight_filler {
      type: "xavier"
    }
    bias_filler {
      type: "constant"
      value: 0.2
    }
  }
}
layer {
  name: "inception_4d/relu_pool_proj"
  type: "ReLU"
  bottom: "inception_4d/pool_proj"
  top: "inception_4d/pool_proj"
}
layer {
  name: "inception_4d/output"
  type: "Concat"
  bottom: "inception_4d/1x1"
  bottom: "inception_4d/3x3"
  bottom: "inception_4d/5x5"
  bottom: "inception_4d/pool_proj"
  top: "inception_4d/output"
}
layer {
  name: "loss2/ave_pool"
  type: "Pooling"
  bottom: "inception_4d/output"
  top: "loss2/ave_pool"
  pooling_param {
    pool: AVE
    kernel_size: 5
    stride: 3
  }
}
layer {
  name: "loss2/conv"
  type: "Convolution"
  bottom: "loss2/ave_pool"
  top: "loss2/conv"
  param {
    lr_mult: 1
    decay_mult: 1
  }
  param {
    lr_mult: 2
    decay_mult: 0
  }
  convolution_param {
    num_output: 128
    kernel_size: 1
    weight_filler {
      type: "xavier"
    }
    bias_filler {
      type: "constant"
      value: 0.2
    }
  }
}
layer {
  name: "loss2/relu_conv"
  type: "ReLU"
  bottom: "loss2/conv"
  top: "loss2/conv"
}
layer {
  name: "loss2/fc"
  type: "InnerProduct"
  bottom: "loss2/conv"
  top: "loss2/fc"
  param {
    lr_mult: 1
    decay_mult: 1
  }
  param {
    lr_mult: 2
    decay_mult: 0
  }
  inner_product_param {
    num_output: 1024
    weight_filler {
      type: "xavier"
    }
    bias_filler {
      type: "constant"
      value: 0.2
    }
  }
}
layer {
  name: "loss2/relu_fc"
  type: "ReLU"
  bottom: "loss2/fc"
  top: "loss2/fc"
}
layer {
  name: "loss2/drop_fc"
  type: "Dropout"
  bottom: "loss2/fc"
  top: "loss2/fc"
  dropout_param {
    dropout_ratio: 0.7
  }
}
layer {
  name: "loss2/classifier"
  type: "InnerProduct"
  bottom: "loss2/fc"
  top: "loss2/classifier"
  param {
    lr_mult: 1
    decay_mult: 1
  }
  param {
    lr_mult: 2
    decay_mult: 0
  }
  inner_product_param {
    num_output: 2
    weight_filler {
      type: "xavier"
    }
    bias_filler {
      type: "constant"
      value: 0
    }
  }
}
layer {
  name: "loss2/loss"
  type: "SoftmaxWithLoss"
  bottom: "loss2/classifier"
  bottom: "label"
  top: "loss2/loss1"
  loss_weight: 0.3
}
layer {
  name: "inception_4e/1x1"
  type: "Convolution"
  bottom: "inception_4d/output"
  top: "inception_4e/1x1"
  param {
    lr_mult: 1
    decay_mult: 1
  }
  param {
    lr_mult: 2
    decay_mult: 0
  }
  convolution_param {
    num_output: 256
    kernel_size: 1
    weight_filler {
      type: "xavier"
    }
    bias_filler {
      type: "constant"
      value: 0.2
    }
  }
}
layer {
  name: "inception_4e/relu_1x1"
  type: "ReLU"
  bottom: "inception_4e/1x1"
  top: "inception_4e/1x1"
}
layer {
  name: "inception_4e/3x3_reduce"
  type: "Convolution"
  bottom: "inception_4d/output"
  top: "inception_4e/3x3_reduce"
  param {
    lr_mult: 1
    decay_mult: 1
  }
  param {
    lr_mult: 2
    decay_mult: 0
  }
  convolution_param {
    num_output: 160
    kernel_size: 1
    weight_filler {
      type: "xavier"
    }
    bias_filler {
      type: "constant"
      value: 0.2
    }
  }
}
layer {
  name: "inception_4e/relu_3x3_reduce"
  type: "ReLU"
  bottom: "inception_4e/3x3_reduce"
  top: "inception_4e/3x3_reduce"
}
layer {
  name: "inception_4e/3x3"
  type: "Convolution"
  bottom: "inception_4e/3x3_reduce"
  top: "inception_4e/3x3"
  param {
    lr_mult: 1
    decay_mult: 1
  }
  param {
    lr_mult: 2
    decay_mult: 0
  }
  convolution_param {
    num_output: 320
    pad: 1
    kernel_size: 3
    weight_filler {
      type: "xavier"
    }
    bias_filler {
      type: "constant"
      value: 0.2
    }
  }
}
layer {
  name: "inception_4e/relu_3x3"
  type: "ReLU"
  bottom: "inception_4e/3x3"
  top: "inception_4e/3x3"
}
layer {
  name: "inception_4e/5x5_reduce"
  type: "Convolution"
  bottom: "inception_4d/output"
  top: "inception_4e/5x5_reduce"
  param {
    lr_mult: 1
    decay_mult: 1
  }
  param {
    lr_mult: 2
    decay_mult: 0
  }
  convolution_param {
    num_output: 32
    kernel_size: 1
    weight_filler {
      type: "xavier"
    }
    bias_filler {
      type: "constant"
      value: 0.2
    }
  }
}
layer {
  name: "inception_4e/relu_5x5_reduce"
  type: "ReLU"
  bottom: "inception_4e/5x5_reduce"
  top: "inception_4e/5x5_reduce"
}
layer {
  name: "inception_4e/5x5"
  type: "Convolution"
  bottom: "inception_4e/5x5_reduce"
  top: "inception_4e/5x5"
  param {
    lr_mult: 1
    decay_mult: 1
  }
  param {
    lr_mult: 2
    decay_mult: 0
  }
  convolution_param {
    num_output: 128
    pad: 2
    kernel_size: 5
    weight_filler {
      type: "xavier"
    }
    bias_filler {
      type: "constant"
      value: 0.2
    }
  }
}
layer {
  name: "inception_4e/relu_5x5"
  type: "ReLU"
  bottom: "inception_4e/5x5"
  top: "inception_4e/5x5"
}
layer {
  name: "inception_4e/pool"
  type: "Pooling"
  bottom: "inception_4d/output"
  top: "inception_4e/pool"
  pooling_param {
    pool
I0826 22:19:52.879498 99815 layer_factory.hpp:77] Creating layer data
I0826 22:19:52.880383 99815 net.cpp:100] Creating Layer data
I0826 22:19:52.880426 99815 net.cpp:408] data -> data
I0826 22:19:52.880476 99815 net.cpp:408] data -> label
I0826 22:19:52.881994 99823 db_lmdb.cpp:35] Opened lmdb ../../step01_generate_traing_data/training_examples_babak/lmdb_stage2_tr_top12
I0826 22:19:52.968900 99815 data_layer.cpp:41] output data size: 64,3,64,64
I0826 22:19:52.987658 99815 net.cpp:150] Setting up data
I0826 22:19:52.987722 99815 net.cpp:157] Top shape: 64 3 64 64 (786432)
I0826 22:19:52.987742 99815 net.cpp:157] Top shape: 64 (64)
I0826 22:19:52.987757 99815 net.cpp:165] Memory required for data: 3145984
I0826 22:19:52.987781 99815 layer_factory.hpp:77] Creating layer label_data_1_split
I0826 22:19:52.987808 99815 net.cpp:100] Creating Layer label_data_1_split
I0826 22:19:52.987828 99815 net.cpp:434] label_data_1_split <- label
I0826 22:19:52.987859 99815 net.cpp:408] label_data_1_split -> label_data_1_split_0
I0826 22:19:52.987884 99815 net.cpp:408] label_data_1_split -> label_data_1_split_1
I0826 22:19:52.987913 99815 net.cpp:408] label_data_1_split -> label_data_1_split_2
I0826 22:19:52.988008 99815 net.cpp:150] Setting up label_data_1_split
I0826 22:19:52.988029 99815 net.cpp:157] Top shape: 64 (64)
I0826 22:19:52.988046 99815 net.cpp:157] Top shape: 64 (64)
I0826 22:19:52.988062 99815 net.cpp:157] Top shape: 64 (64)
I0826 22:19:52.988076 99815 net.cpp:165] Memory required for data: 3146752
I0826 22:19:52.988090 99815 layer_factory.hpp:77] Creating layer conv1/7x7_s2
I0826 22:19:52.988137 99815 net.cpp:100] Creating Layer conv1/7x7_s2
I0826 22:19:52.988180 99815 net.cpp:434] conv1/7x7_s2 <- data
I0826 22:19:52.988201 99815 net.cpp:408] conv1/7x7_s2 -> conv1/7x7_s2
I0826 22:19:53.503029 99815 net.cpp:150] Setting up conv1/7x7_s2
I0826 22:19:53.503108 99815 net.cpp:157] Top shape: 64 64 64 64 (16777216)
I0826 22:19:53.503128 99815 net.cpp:165] Memory required for data: 70255616
I0826 22:19:53.503180 99815 layer_factory.hpp:77] Creating layer conv1/relu_7x7
I0826 22:19:53.503219 99815 net.cpp:100] Creating Layer conv1/relu_7x7
I0826 22:19:53.503238 99815 net.cpp:434] conv1/relu_7x7 <- conv1/7x7_s2
I0826 22:19:53.503265 99815 net.cpp:395] conv1/relu_7x7 -> conv1/7x7_s2 (in-place)
I0826 22:19:53.504029 99815 net.cpp:150] Setting up conv1/relu_7x7
I0826 22:19:53.504055 99815 net.cpp:157] Top shape: 64 64 64 64 (16777216)
I0826 22:19:53.504070 99815 net.cpp:165] Memory required for data: 137364480
I0826 22:19:53.504087 99815 layer_factory.hpp:77] Creating layer pool1/3x3_s2
I0826 22:19:53.504118 99815 net.cpp:100] Creating Layer pool1/3x3_s2
I0826 22:19:53.504134 99815 net.cpp:434] pool1/3x3_s2 <- conv1/7x7_s2
I0826 22:19:53.504154 99815 net.cpp:408] pool1/3x3_s2 -> pool1/3x3_s2
I0826 22:19:53.504251 99815 net.cpp:150] Setting up pool1/3x3_s2
I0826 22:19:53.504274 99815 net.cpp:157] Top shape: 64 64 32 32 (4194304)
I0826 22:19:53.504288 99815 net.cpp:165] Memory required for data: 154141696
I0826 22:19:53.504307 99815 layer_factory.hpp:77] Creating layer pool1/norm1
I0826 22:19:53.504338 99815 net.cpp:100] Creating Layer pool1/norm1
I0826 22:19:53.504355 99815 net.cpp:434] pool1/norm1 <- pool1/3x3_s2
I0826 22:19:53.504372 99815 net.cpp:408] pool1/norm1 -> pool1/norm1
I0826 22:19:53.505216 99815 net.cpp:150] Setting up pool1/norm1
I0826 22:19:53.505250 99815 net.cpp:157] Top shape: 64 64 32 32 (4194304)
I0826 22:19:53.505266 99815 net.cpp:165] Memory required for data: 170918912
I0826 22:19:53.505283 99815 layer_factory.hpp:77] Creating layer conv2/3x3_reduce
I0826 22:19:53.505314 99815 net.cpp:100] Creating Layer conv2/3x3_reduce
I0826 22:19:53.505331 99815 net.cpp:434] conv2/3x3_reduce <- pool1/norm1
I0826 22:19:53.505350 99815 net.cpp:408] conv2/3x3_reduce -> conv2/3x3_reduce
I0826 22:19:53.510502 99815 net.cpp:150] Setting up conv2/3x3_reduce
I0826 22:19:53.510541 99815 net.cpp:157] Top shape: 64 64 32 32 (4194304)
I0826 22:19:53.510557 99815 net.cpp:165] Memory required for data: 187696128
I0826 22:19:53.510581 99815 layer_factory.hpp:77] Creating layer conv2/relu_3x3_reduce
I0826 22:19:53.510599 99815 net.cpp:100] Creating Layer conv2/relu_3x3_reduce
I0826 22:19:53.510618 99815 net.cpp:434] conv2/relu_3x3_reduce <- conv2/3x3_reduce
I0826 22:19:53.510644 99815 net.cpp:395] conv2/relu_3x3_reduce -> conv2/3x3_reduce (in-place)
I0826 22:19:53.511579 99815 net.cpp:150] Setting up conv2/relu_3x3_reduce
I0826 22:19:53.511610 99815 net.cpp:157] Top shape: 64 64 32 32 (4194304)
I0826 22:19:53.511626 99815 net.cpp:165] Memory required for data: 204473344
I0826 22:19:53.511644 99815 layer_factory.hpp:77] Creating layer conv2/3x3
I0826 22:19:53.511678 99815 net.cpp:100] Creating Layer conv2/3x3
I0826 22:19:53.511695 99815 net.cpp:434] conv2/3x3 <- conv2/3x3_reduce
I0826 22:19:53.511719 99815 net.cpp:408] conv2/3x3 -> conv2/3x3
I0826 22:19:53.518610 99815 net.cpp:150] Setting up conv2/3x3
I0826 22:19:53.518685 99815 net.cpp:157] Top shape: 64 192 32 32 (12582912)
I0826 22:19:53.518704 99815 net.cpp:165] Memory required for data: 254804992
I0826 22:19:53.518735 99815 layer_factory.hpp:77] Creating layer conv2/relu_3x3
I0826 22:19:53.518764 99815 net.cpp:100] Creating Layer conv2/relu_3x3
I0826 22:19:53.518780 99815 net.cpp:434] conv2/relu_3x3 <- conv2/3x3
I0826 22:19:53.518800 99815 net.cpp:395] conv2/relu_3x3 -> conv2/3x3 (in-place)
I0826 22:19:53.519819 99815 net.cpp:150] Setting up conv2/relu_3x3
I0826 22:19:53.519857 99815 net.cpp:157] Top shape: 64 192 32 32 (12582912)
I0826 22:19:53.519872 99815 net.cpp:165] Memory required for data: 305136640
I0826 22:19:53.519887 99815 layer_factory.hpp:77] Creating layer conv2/norm2
I0826 22:19:53.519912 99815 net.cpp:100] Creating Layer conv2/norm2
I0826 22:19:53.519974 99815 net.cpp:434] conv2/norm2 <- conv2/3x3
I0826 22:19:53.520004 99815 net.cpp:408] conv2/norm2 -> conv2/norm2
I0826 22:19:53.522253 99815 net.cpp:150] Setting up conv2/norm2
I0826 22:19:53.522296 99815 net.cpp:157] Top shape: 64 192 32 32 (12582912)
I0826 22:19:53.522312 99815 net.cpp:165] Memory required for data: 355468288
I0826 22:19:53.522328 99815 layer_factory.hpp:77] Creating layer pool2/3x3_s2
I0826 22:19:53.522351 99815 net.cpp:100] Creating Layer pool2/3x3_s2
I0826 22:19:53.522367 99815 net.cpp:434] pool2/3x3_s2 <- conv2/norm2
I0826 22:19:53.522389 99815 net.cpp:408] pool2/3x3_s2 -> pool2/3x3_s2
I0826 22:19:53.522464 99815 net.cpp:150] Setting up pool2/3x3_s2
I0826 22:19:53.522486 99815 net.cpp:157] Top shape: 64 192 16 16 (3145728)
I0826 22:19:53.522500 99815 net.cpp:165] Memory required for data: 368051200
I0826 22:19:53.522517 99815 layer_factory.hpp:77] Creating layer pool2/3x3_s2_pool2/3x3_s2_0_split
I0826 22:19:53.522539 99815 net.cpp:100] Creating Layer pool2/3x3_s2_pool2/3x3_s2_0_split
I0826 22:19:53.522555 99815 net.cpp:434] pool2/3x3_s2_pool2/3x3_s2_0_split <- pool2/3x3_s2
I0826 22:19:53.522578 99815 net.cpp:408] pool2/3x3_s2_pool2/3x3_s2_0_split -> pool2/3x3_s2_pool2/3x3_s2_0_split_0
I0826 22:19:53.522598 99815 net.cpp:408] pool2/3x3_s2_pool2/3x3_s2_0_split -> pool2/3x3_s2_pool2/3x3_s2_0_split_1
I0826 22:19:53.522617 99815 net.cpp:408] pool2/3x3_s2_pool2/3x3_s2_0_split -> pool2/3x3_s2_pool2/3x3_s2_0_split_2
I0826 22:19:53.522645 99815 net.cpp:408] pool2/3x3_s2_pool2/3x3_s2_0_split -> pool2/3x3_s2_pool2/3x3_s2_0_split_3
I0826 22:19:53.522754 99815 net.cpp:150] Setting up pool2/3x3_s2_pool2/3x3_s2_0_split
I0826 22:19:53.522778 99815 net.cpp:157] Top shape: 64 192 16 16 (3145728)
I0826 22:19:53.522794 99815 net.cpp:157] Top shape: 64 192 16 16 (3145728)
I0826 22:19:53.522812 99815 net.cpp:157] Top shape: 64 192 16 16 (3145728)
I0826 22:19:53.522827 99815 net.cpp:157] Top shape: 64 192 16 16 (3145728)
I0826 22:19:53.522841 99815 net.cpp:165] Memory required for data: 418382848
I0826 22:19:53.522855 99815 layer_factory.hpp:77] Creating layer inception_3a/1x1
I0826 22:19:53.522888 99815 net.cpp:100] Creating Layer inception_3a/1x1
I0826 22:19:53.522907 99815 net.cpp:434] inception_3a/1x1 <- pool2/3x3_s2_pool2/3x3_s2_0_split_0
I0826 22:19:53.522929 99815 net.cpp:408] inception_3a/1x1 -> inception_3a/1x1
I0826 22:19:53.529538 99815 net.cpp:150] Setting up inception_3a/1x1
I0826 22:19:53.529605 99815 net.cpp:157] Top shape: 64 64 16 16 (1048576)
I0826 22:19:53.529623 99815 net.cpp:165] Memory required for data: 422577152
I0826 22:19:53.529650 99815 layer_factory.hpp:77] Creating layer inception_3a/relu_1x1
I0826 22:19:53.529675 99815 net.cpp:100] Creating Layer inception_3a/relu_1x1
I0826 22:19:53.529693 99815 net.cpp:434] inception_3a/relu_1x1 <- inception_3a/1x1
I0826 22:19:53.529719 99815 net.cpp:395] inception_3a/relu_1x1 -> inception_3a/1x1 (in-place)
I0826 22:19:53.530778 99815 net.cpp:150] Setting up inception_3a/relu_1x1
I0826 22:19:53.530808 99815 net.cpp:157] Top shape: 64 64 16 16 (1048576)
I0826 22:19:53.530824 99815 net.cpp:165] Memory required for data: 426771456
I0826 22:19:53.530839 99815 layer_factory.hpp:77] Creating layer inception_3a/3x3_reduce
I0826 22:19:53.530872 99815 net.cpp:100] Creating Layer inception_3a/3x3_reduce
I0826 22:19:53.530890 99815 net.cpp:434] inception_3a/3x3_reduce <- pool2/3x3_s2_pool2/3x3_s2_0_split_1
I0826 22:19:53.530915 99815 net.cpp:408] inception_3a/3x3_reduce -> inception_3a/3x3_reduce
I0826 22:19:53.538043 99815 net.cpp:150] Setting up inception_3a/3x3_reduce
I0826 22:19:53.538115 99815 net.cpp:157] Top shape: 64 96 16 16 (1572864)
I0826 22:19:53.538132 99815 net.cpp:165] Memory required for data: 433062912
I0826 22:19:53.538164 99815 layer_factory.hpp:77] Creating layer inception_3a/relu_3x3_reduce
I0826 22:19:53.538198 99815 net.cpp:100] Creating Layer inception_3a/relu_3x3_reduce
I0826 22:19:53.538216 99815 net.cpp:434] inception_3a/relu_3x3_reduce <- inception_3a/3x3_reduce
I0826 22:19:53.538244 99815 net.cpp:395] inception_3a/relu_3x3_reduce -> inception_3a/3x3_reduce (in-place)
I0826 22:19:53.538780 99815 net.cpp:150] Setting up inception_3a/relu_3x3_reduce
I0826 22:19:53.538811 99815 net.cpp:157] Top shape: 64 96 16 16 (1572864)
I0826 22:19:53.538826 99815 net.cpp:165] Memory required for data: 439354368
I0826 22:19:53.538843 99815 layer_factory.hpp:77] Creating layer inception_3a/3x3
I0826 22:19:53.538874 99815 net.cpp:100] Creating Layer inception_3a/3x3
I0826 22:19:53.538892 99815 net.cpp:434] inception_3a/3x3 <- inception_3a/3x3_reduce
I0826 22:19:53.538914 99815 net.cpp:408] inception_3a/3x3 -> inception_3a/3x3
I0826 22:19:53.543958 99815 net.cpp:150] Setting up inception_3a/3x3
I0826 22:19:53.544013 99815 net.cpp:157] Top shape: 64 128 16 16 (2097152)
I0826 22:19:53.544028 99815 net.cpp:165] Memory required for data: 447742976
I0826 22:19:53.544055 99815 layer_factory.hpp:77] Creating layer inception_3a/relu_3x3
I0826 22:19:53.544080 99815 net.cpp:100] Creating Layer inception_3a/relu_3x3
I0826 22:19:53.544096 99815 net.cpp:434] inception_3a/relu_3x3 <- inception_3a/3x3
I0826 22:19:53.544121 99815 net.cpp:395] inception_3a/relu_3x3 -> inception_3a/3x3 (in-place)
I0826 22:19:53.544402 99815 net.cpp:150] Setting up inception_3a/relu_3x3
I0826 22:19:53.544432 99815 net.cpp:157] Top shape: 64 128 16 16 (2097152)
I0826 22:19:53.544447 99815 net.cpp:165] Memory required for data: 456131584
I0826 22:19:53.544463 99815 layer_factory.hpp:77] Creating layer inception_3a/5x5_reduce
I0826 22:19:53.544492 99815 net.cpp:100] Creating Layer inception_3a/5x5_reduce
I0826 22:19:53.544510 99815 net.cpp:434] inception_3a/5x5_reduce <- pool2/3x3_s2_pool2/3x3_s2_0_split_2
I0826 22:19:53.544534 99815 net.cpp:408] inception_3a/5x5_reduce -> inception_3a/5x5_reduce
I0826 22:19:53.548676 99815 net.cpp:150] Setting up inception_3a/5x5_reduce
I0826 22:19:53.548708 99815 net.cpp:157] Top shape: 64 16 16 16 (262144)
I0826 22:19:53.548724 99815 net.cpp:165] Memory required for data: 457180160
I0826 22:19:53.548743 99815 layer_factory.hpp:77] Creating layer inception_3a/relu_5x5_reduce
I0826 22:19:53.548764 99815 net.cpp:100] Creating Layer inception_3a/relu_5x5_reduce
I0826 22:19:53.548781 99815 net.cpp:434] inception_3a/relu_5x5_reduce <- inception_3a/5x5_reduce
I0826 22:19:53.548802 99815 net.cpp:395] inception_3a/relu_5x5_reduce -> inception_3a/5x5_reduce (in-place)
I0826 22:19:53.551012 99815 net.cpp:150] Setting up inception_3a/relu_5x5_reduce
I0826 22:19:53.551043 99815 net.cpp:157] Top shape: 64 16 16 16 (262144)
I0826 22:19:53.551059 99815 net.cpp:165] Memory required for data: 458228736
I0826 22:19:53.551075 99815 layer_factory.hpp:77] Creating layer inception_3a/5x5
I0826 22:19:53.551102 99815 net.cpp:100] Creating Layer inception_3a/5x5
I0826 22:19:53.551118 99815 net.cpp:434] inception_3a/5x5 <- inception_3a/5x5_reduce
I0826 22:19:53.551146 99815 net.cpp:408] inception_3a/5x5 -> inception_3a/5x5
I0826 22:19:53.557721 99815 net.cpp:150] Setting up inception_3a/5x5
I0826 22:19:53.557754 99815 net.cpp:157] Top shape: 64 32 16 16 (524288)
I0826 22:19:53.557770 99815 net.cpp:165] Memory required for data: 460325888
I0826 22:19:53.557790 99815 layer_factory.hpp:77] Creating layer inception_3a/relu_5x5
I0826 22:19:53.557816 99815 net.cpp:100] Creating Layer inception_3a/relu_5x5
I0826 22:19:53.557832 99815 net.cpp:434] inception_3a/relu_5x5 <- inception_3a/5x5
I0826 22:19:53.557849 99815 net.cpp:395] inception_3a/relu_5x5 -> inception_3a/5x5 (in-place)
I0826 22:19:53.559844 99815 net.cpp:150] Setting up inception_3a/relu_5x5
I0826 22:19:53.559875 99815 net.cpp:157] Top shape: 64 32 16 16 (524288)
I0826 22:19:53.559890 99815 net.cpp:165] Memory required for data: 462423040
I0826 22:19:53.559906 99815 layer_factory.hpp:77] Creating layer inception_3a/pool
I0826 22:19:53.559931 99815 net.cpp:100] Creating Layer inception_3a/pool
I0826 22:19:53.559947 99815 net.cpp:434] inception_3a/pool <- pool2/3x3_s2_pool2/3x3_s2_0_split_3
I0826 22:19:53.559964 99815 net.cpp:408] inception_3a/pool -> inception_3a/pool
I0826 22:19:53.560036 99815 net.cpp:150] Setting up inception_3a/pool
I0826 22:19:53.560083 99815 net.cpp:157] Top shape: 64 192 16 16 (3145728)
I0826 22:19:53.560098 99815 net.cpp:165] Memory required for data: 475005952
I0826 22:19:53.560112 99815 layer_factory.hpp:77] Creating layer inception_3a/pool_proj
I0826 22:19:53.560142 99815 net.cpp:100] Creating Layer inception_3a/pool_proj
I0826 22:19:53.560158 99815 net.cpp:434] inception_3a/pool_proj <- inception_3a/pool
I0826 22:19:53.560178 99815 net.cpp:408] inception_3a/pool_proj -> inception_3a/pool_proj
I0826 22:19:53.566782 99815 net.cpp:150] Setting up inception_3a/pool_proj
I0826 22:19:53.566814 99815 net.cpp:157] Top shape: 64 32 16 16 (524288)
I0826 22:19:53.566829 99815 net.cpp:165] Memory required for data: 477103104
I0826 22:19:53.566864 99815 layer_factory.hpp:77] Creating layer inception_3a/relu_pool_proj
I0826 22:19:53.566890 99815 net.cpp:100] Creating Layer inception_3a/relu_pool_proj
I0826 22:19:53.566905 99815 net.cpp:434] inception_3a/relu_pool_proj <- inception_3a/pool_proj
I0826 22:19:53.566923 99815 net.cpp:395] inception_3a/relu_pool_proj -> inception_3a/pool_proj (in-place)
I0826 22:19:53.568899 99815 net.cpp:150] Setting up inception_3a/relu_pool_proj
I0826 22:19:53.568927 99815 net.cpp:157] Top shape: 64 32 16 16 (524288)
I0826 22:19:53.568941 99815 net.cpp:165] Memory required for data: 479200256
I0826 22:19:53.568960 99815 layer_factory.hpp:77] Creating layer inception_3a/output
I0826 22:19:53.568992 99815 net.cpp:100] Creating Layer inception_3a/output
I0826 22:19:53.569008 99815 net.cpp:434] inception_3a/output <- inception_3a/1x1
I0826 22:19:53.569025 99815 net.cpp:434] inception_3a/output <- inception_3a/3x3
I0826 22:19:53.569042 99815 net.cpp:434] inception_3a/output <- inception_3a/5x5
I0826 22:19:53.569057 99815 net.cpp:434] inception_3a/output <- inception_3a/pool_proj
I0826 22:19:53.569074 99815 net.cpp:408] inception_3a/output -> inception_3a/output
I0826 22:19:53.569128 99815 net.cpp:150] Setting up inception_3a/output
I0826 22:19:53.569150 99815 net.cpp:157] Top shape: 64 256 16 16 (4194304)
I0826 22:19:53.569164 99815 net.cpp:165] Memory required for data: 495977472
I0826 22:19:53.569180 99815 layer_factory.hpp:77] Creating layer inception_3a/output_inception_3a/output_0_split
I0826 22:19:53.569198 99815 net.cpp:100] Creating Layer inception_3a/output_inception_3a/output_0_split
I0826 22:19:53.569213 99815 net.cpp:434] inception_3a/output_inception_3a/output_0_split <- inception_3a/output
I0826 22:19:53.569236 99815 net.cpp:408] inception_3a/output_inception_3a/output_0_split -> inception_3a/output_inception_3a/output_0_split_0
I0826 22:19:53.569255 99815 net.cpp:408] inception_3a/output_inception_3a/output_0_split -> inception_3a/output_inception_3a/output_0_split_1
I0826 22:19:53.569274 99815 net.cpp:408] inception_3a/output_inception_3a/output_0_split -> inception_3a/output_inception_3a/output_0_split_2
I0826 22:19:53.569293 99815 net.cpp:408] inception_3a/output_inception_3a/output_0_split -> inception_3a/output_inception_3a/output_0_split_3
I0826 22:19:53.569396 99815 net.cpp:150] Setting up inception_3a/output_inception_3a/output_0_split
I0826 22:19:53.569419 99815 net.cpp:157] Top shape: 64 256 16 16 (4194304)
I0826 22:19:53.569437 99815 net.cpp:157] Top shape: 64 256 16 16 (4194304)
I0826 22:19:53.569454 99815 net.cpp:157] Top shape: 64 256 16 16 (4194304)
I0826 22:19:53.569469 99815 net.cpp:157] Top shape: 64 256 16 16 (4194304)
I0826 22:19:53.569483 99815 net.cpp:165] Memory required for data: 563086336
I0826 22:19:53.569496 99815 layer_factory.hpp:77] Creating layer inception_3b/1x1
I0826 22:19:53.569526 99815 net.cpp:100] Creating Layer inception_3b/1x1
I0826 22:19:53.569542 99815 net.cpp:434] inception_3b/1x1 <- inception_3a/output_inception_3a/output_0_split_0
I0826 22:19:53.569561 99815 net.cpp:408] inception_3b/1x1 -> inception_3b/1x1
I0826 22:19:53.575309 99815 net.cpp:150] Setting up inception_3b/1x1
I0826 22:19:53.575341 99815 net.cpp:157] Top shape: 64 128 16 16 (2097152)
I0826 22:19:53.575357 99815 net.cpp:165] Memory required for data: 571474944
I0826 22:19:53.575398 99815 layer_factory.hpp:77] Creating layer inception_3b/relu_1x1
I0826 22:19:53.575425 99815 net.cpp:100] Creating Layer inception_3b/relu_1x1
I0826 22:19:53.575441 99815 net.cpp:434] inception_3b/relu_1x1 <- inception_3b/1x1
I0826 22:19:53.575459 99815 net.cpp:395] inception_3b/relu_1x1 -> inception_3b/1x1 (in-place)
I0826 22:19:53.577430 99815 net.cpp:150] Setting up inception_3b/relu_1x1
I0826 22:19:53.577462 99815 net.cpp:157] Top shape: 64 128 16 16 (2097152)
I0826 22:19:53.577478 99815 net.cpp:165] Memory required for data: 579863552
I0826 22:19:53.577493 99815 layer_factory.hpp:77] Creating layer inception_3b/3x3_reduce
I0826 22:19:53.577519 99815 net.cpp:100] Creating Layer inception_3b/3x3_reduce
I0826 22:19:53.577538 99815 net.cpp:434] inception_3b/3x3_reduce <- inception_3a/output_inception_3a/output_0_split_1
I0826 22:19:53.577561 99815 net.cpp:408] inception_3b/3x3_reduce -> inception_3b/3x3_reduce
I0826 22:19:53.583839 99815 net.cpp:150] Setting up inception_3b/3x3_reduce
I0826 22:19:53.583870 99815 net.cpp:157] Top shape: 64 128 16 16 (2097152)
I0826 22:19:53.583885 99815 net.cpp:165] Memory required for data: 588252160
I0826 22:19:53.583909 99815 layer_factory.hpp:77] Creating layer inception_3b/relu_3x3_reduce
I0826 22:19:53.583926 99815 net.cpp:100] Creating Layer inception_3b/relu_3x3_reduce
I0826 22:19:53.583946 99815 net.cpp:434] inception_3b/relu_3x3_reduce <- inception_3b/3x3_reduce
I0826 22:19:53.583967 99815 net.cpp:395] inception_3b/relu_3x3_reduce -> inception_3b/3x3_reduce (in-place)
I0826 22:19:53.586076 99815 net.cpp:150] Setting up inception_3b/relu_3x3_reduce
I0826 22:19:53.586105 99815 net.cpp:157] Top shape: 64 128 16 16 (2097152)
I0826 22:19:53.586122 99815 net.cpp:165] Memory required for data: 596640768
I0826 22:19:53.586138 99815 layer_factory.hpp:77] Creating layer inception_3b/3x3
I0826 22:19:53.586172 99815 net.cpp:100] Creating Layer inception_3b/3x3
I0826 22:19:53.586189 99815 net.cpp:434] inception_3b/3x3 <- inception_3b/3x3_reduce
I0826 22:19:53.586210 99815 net.cpp:408] inception_3b/3x3 -> inception_3b/3x3
I0826 22:19:53.594068 99815 net.cpp:150] Setting up inception_3b/3x3
I0826 22:19:53.594102 99815 net.cpp:157] Top shape: 64 192 16 16 (3145728)
I0826 22:19:53.594117 99815 net.cpp:165] Memory required for data: 609223680
I0826 22:19:53.594139 99815 layer_factory.hpp:77] Creating layer inception_3b/relu_3x3
I0826 22:19:53.594164 99815 net.cpp:100] Creating Layer inception_3b/relu_3x3
I0826 22:19:53.594180 99815 net.cpp:434] inception_3b/relu_3x3 <- inception_3b/3x3
I0826 22:19:53.594198 99815 net.cpp:395] inception_3b/relu_3x3 -> inception_3b/3x3 (in-place)
I0826 22:19:53.596454 99815 net.cpp:150] Setting up inception_3b/relu_3x3
I0826 22:19:53.596482 99815 net.cpp:157] Top shape: 64 192 16 16 (3145728)
I0826 22:19:53.596496 99815 net.cpp:165] Memory required for data: 621806592
I0826 22:19:53.596514 99815 layer_factory.hpp:77] Creating layer inception_3b/5x5_reduce
I0826 22:19:53.596540 99815 net.cpp:100] Creating Layer inception_3b/5x5_reduce
I0826 22:19:53.596556 99815 net.cpp:434] inception_3b/5x5_reduce <- inception_3a/output_inception_3a/output_0_split_2
I0826 22:19:53.596580 99815 net.cpp:408] inception_3b/5x5_reduce -> inception_3b/5x5_reduce
I0826 22:19:53.602341 99815 net.cpp:150] Setting up inception_3b/5x5_reduce
I0826 22:19:53.602375 99815 net.cpp:157] Top shape: 64 32 16 16 (524288)
I0826 22:19:53.602390 99815 net.cpp:165] Memory required for data: 623903744
I0826 22:19:53.602411 99815 layer_factory.hpp:77] Creating layer inception_3b/relu_5x5_reduce
I0826 22:19:53.602432 99815 net.cpp:100] Creating Layer inception_3b/relu_5x5_reduce
I0826 22:19:53.602447 99815 net.cpp:434] inception_3b/relu_5x5_reduce <- inception_3b/5x5_reduce
I0826 22:19:53.602478 99815 net.cpp:395] inception_3b/relu_5x5_reduce -> inception_3b/5x5_reduce (in-place)
I0826 22:19:53.604656 99815 net.cpp:150] Setting up inception_3b/relu_5x5_reduce
I0826 22:19:53.604687 99815 net.cpp:157] Top shape: 64 32 16 16 (524288)
I0826 22:19:53.604701 99815 net.cpp:165] Memory required for data: 626000896
I0826 22:19:53.604737 99815 layer_factory.hpp:77] Creating layer inception_3b/5x5
I0826 22:19:53.604771 99815 net.cpp:100] Creating Layer inception_3b/5x5
I0826 22:19:53.604789 99815 net.cpp:434] inception_3b/5x5 <- inception_3b/5x5_reduce
I0826 22:19:53.604814 99815 net.cpp:408] inception_3b/5x5 -> inception_3b/5x5
I0826 22:19:53.611558 99815 net.cpp:150] Setting up inception_3b/5x5
I0826 22:19:53.611591 99815 net.cpp:157] Top shape: 64 96 16 16 (1572864)
I0826 22:19:53.611608 99815 net.cpp:165] Memory required for data: 632292352
I0826 22:19:53.611626 99815 layer_factory.hpp:77] Creating layer inception_3b/relu_5x5
I0826 22:19:53.611645 99815 net.cpp:100] Creating Layer inception_3b/relu_5x5
I0826 22:19:53.611660 99815 net.cpp:434] inception_3b/relu_5x5 <- inception_3b/5x5
I0826 22:19:53.611681 99815 net.cpp:395] inception_3b/relu_5x5 -> inception_3b/5x5 (in-place)
I0826 22:19:53.613636 99815 net.cpp:150] Setting up inception_3b/relu_5x5
I0826 22:19:53.613665 99815 net.cpp:157] Top shape: 64 96 16 16 (1572864)
I0826 22:19:53.613680 99815 net.cpp:165] Memory required for data: 638583808
I0826 22:19:53.613697 99815 layer_factory.hpp:77] Creating layer inception_3b/pool
I0826 22:19:53.613716 99815 net.cpp:100] Creating Layer inception_3b/pool
I0826 22:19:53.613732 99815 net.cpp:434] inception_3b/pool <- inception_3a/output_inception_3a/output_0_split_3
I0826 22:19:53.613754 99815 net.cpp:408] inception_3b/pool -> inception_3b/pool
I0826 22:19:53.613821 99815 net.cpp:150] Setting up inception_3b/pool
I0826 22:19:53.613849 99815 net.cpp:157] Top shape: 64 256 16 16 (4194304)
I0826 22:19:53.613863 99815 net.cpp:165] Memory required for data: 655361024
I0826 22:19:53.613878 99815 layer_factory.hpp:77] Creating layer inception_3b/pool_proj
I0826 22:19:53.613905 99815 net.cpp:100] Creating Layer inception_3b/pool_proj
I0826 22:19:53.613922 99815 net.cpp:434] inception_3b/pool_proj <- inception_3b/pool
I0826 22:19:53.613945 99815 net.cpp:408] inception_3b/pool_proj -> inception_3b/pool_proj
I0826 22:19:53.619786 99815 net.cpp:150] Setting up inception_3b/pool_proj
I0826 22:19:53.619822 99815 net.cpp:157] Top shape: 64 64 16 16 (1048576)
I0826 22:19:53.619837 99815 net.cpp:165] Memory required for data: 659555328
I0826 22:19:53.619856 99815 layer_factory.hpp:77] Creating layer inception_3b/relu_pool_proj
I0826 22:19:53.619879 99815 net.cpp:100] Creating Layer inception_3b/relu_pool_proj
I0826 22:19:53.619896 99815 net.cpp:434] inception_3b/relu_pool_proj <- inception_3b/pool_proj
I0826 22:19:53.619913 99815 net.cpp:395] inception_3b/relu_pool_proj -> inception_3b/pool_proj (in-place)
I0826 22:19:53.622414 99815 net.cpp:150] Setting up inception_3b/relu_pool_proj
I0826 22:19:53.622444 99815 net.cpp:157] Top shape: 64 64 16 16 (1048576)
I0826 22:19:53.622459 99815 net.cpp:165] Memory required for data: 663749632
I0826 22:19:53.622475 99815 layer_factory.hpp:77] Creating layer inception_3b/output
I0826 22:19:53.622495 99815 net.cpp:100] Creating Layer inception_3b/output
I0826 22:19:53.622510 99815 net.cpp:434] inception_3b/output <- inception_3b/1x1
I0826 22:19:53.622527 99815 net.cpp:434] inception_3b/output <- inception_3b/3x3
I0826 22:19:53.622542 99815 net.cpp:434] inception_3b/output <- inception_3b/5x5
I0826 22:19:53.622558 99815 net.cpp:434] inception_3b/output <- inception_3b/pool_proj
I0826 22:19:53.622575 99815 net.cpp:408] inception_3b/output -> inception_3b/output
I0826 22:19:53.622637 99815 net.cpp:150] Setting up inception_3b/output
I0826 22:19:53.622661 99815 net.cpp:157] Top shape: 64 480 16 16 (7864320)
I0826 22:19:53.622675 99815 net.cpp:165] Memory required for data: 695206912
I0826 22:19:53.622690 99815 layer_factory.hpp:77] Creating layer pool3/3x3_s2
I0826 22:19:53.622714 99815 net.cpp:100] Creating Layer pool3/3x3_s2
I0826 22:19:53.622730 99815 net.cpp:434] pool3/3x3_s2 <- inception_3b/output
I0826 22:19:53.622747 99815 net.cpp:408] pool3/3x3_s2 -> pool3/3x3_s2
I0826 22:19:53.622828 99815 net.cpp:150] Setting up pool3/3x3_s2
I0826 22:19:53.622849 99815 net.cpp:157] Top shape: 64 480 8 8 (1966080)
I0826 22:19:53.622885 99815 net.cpp:165] Memory required for data: 703071232
I0826 22:19:53.622900 99815 layer_factory.hpp:77] Creating layer pool3/3x3_s2_pool3/3x3_s2_0_split
I0826 22:19:53.622922 99815 net.cpp:100] Creating Layer pool3/3x3_s2_pool3/3x3_s2_0_split
I0826 22:19:53.622937 99815 net.cpp:434] pool3/3x3_s2_pool3/3x3_s2_0_split <- pool3/3x3_s2
I0826 22:19:53.622954 99815 net.cpp:408] pool3/3x3_s2_pool3/3x3_s2_0_split -> pool3/3x3_s2_pool3/3x3_s2_0_split_0
I0826 22:19:53.622977 99815 net.cpp:408] pool3/3x3_s2_pool3/3x3_s2_0_split -> pool3/3x3_s2_pool3/3x3_s2_0_split_1
I0826 22:19:53.622997 99815 net.cpp:408] pool3/3x3_s2_pool3/3x3_s2_0_split -> pool3/3x3_s2_pool3/3x3_s2_0_split_2
I0826 22:19:53.623015 99815 net.cpp:408] pool3/3x3_s2_pool3/3x3_s2_0_split -> pool3/3x3_s2_pool3/3x3_s2_0_split_3
I0826 22:19:53.623122 99815 net.cpp:150] Setting up pool3/3x3_s2_pool3/3x3_s2_0_split
I0826 22:19:53.623143 99815 net.cpp:157] Top shape: 64 480 8 8 (1966080)
I0826 22:19:53.623160 99815 net.cpp:157] Top shape: 64 480 8 8 (1966080)
I0826 22:19:53.623178 99815 net.cpp:157] Top shape: 64 480 8 8 (1966080)
I0826 22:19:53.623193 99815 net.cpp:157] Top shape: 64 480 8 8 (1966080)
I0826 22:19:53.623205 99815 net.cpp:165] Memory required for data: 734528512
I0826 22:19:53.623219 99815 layer_factory.hpp:77] Creating layer inception_4a/1x1
I0826 22:19:53.623253 99815 net.cpp:100] Creating Layer inception_4a/1x1
I0826 22:19:53.623271 99815 net.cpp:434] inception_4a/1x1 <- pool3/3x3_s2_pool3/3x3_s2_0_split_0
I0826 22:19:53.623291 99815 net.cpp:408] inception_4a/1x1 -> inception_4a/1x1
I0826 22:19:53.628718 99815 net.cpp:150] Setting up inception_4a/1x1
I0826 22:19:53.628751 99815 net.cpp:157] Top shape: 64 192 8 8 (786432)
I0826 22:19:53.628767 99815 net.cpp:165] Memory required for data: 737674240
I0826 22:19:53.628787 99815 layer_factory.hpp:77] Creating layer inception_4a/relu_1x1
I0826 22:19:53.628808 99815 net.cpp:100] Creating Layer inception_4a/relu_1x1
I0826 22:19:53.628824 99815 net.cpp:434] inception_4a/relu_1x1 <- inception_4a/1x1
I0826 22:19:53.628841 99815 net.cpp:395] inception_4a/relu_1x1 -> inception_4a/1x1 (in-place)
I0826 22:19:53.629855 99815 net.cpp:150] Setting up inception_4a/relu_1x1
I0826 22:19:53.629889 99815 net.cpp:157] Top shape: 64 192 8 8 (786432)
I0826 22:19:53.629904 99815 net.cpp:165] Memory required for data: 740819968
I0826 22:19:53.629920 99815 layer_factory.hpp:77] Creating layer inception_4a/3x3_reduce
I0826 22:19:53.629951 99815 net.cpp:100] Creating Layer inception_4a/3x3_reduce
I0826 22:19:53.629968 99815 net.cpp:434] inception_4a/3x3_reduce <- pool3/3x3_s2_pool3/3x3_s2_0_split_1
I0826 22:19:53.629992 99815 net.cpp:408] inception_4a/3x3_reduce -> inception_4a/3x3_reduce
I0826 22:19:53.636713 99815 net.cpp:150] Setting up inception_4a/3x3_reduce
I0826 22:19:53.636744 99815 net.cpp:157] Top shape: 64 96 8 8 (393216)
I0826 22:19:53.636759 99815 net.cpp:165] Memory required for data: 742392832
I0826 22:19:53.636797 99815 layer_factory.hpp:77] Creating layer inception_4a/relu_3x3_reduce
I0826 22:19:53.636818 99815 net.cpp:100] Creating Layer inception_4a/relu_3x3_reduce
I0826 22:19:53.636834 99815 net.cpp:434] inception_4a/relu_3x3_reduce <- inception_4a/3x3_reduce
I0826 22:19:53.636855 99815 net.cpp:395] inception_4a/relu_3x3_reduce -> inception_4a/3x3_reduce (in-place)
I0826 22:19:53.638778 99815 net.cpp:150] Setting up inception_4a/relu_3x3_reduce
I0826 22:19:53.638808 99815 net.cpp:157] Top shape: 64 96 8 8 (393216)
I0826 22:19:53.638824 99815 net.cpp:165] Memory required for data: 743965696
I0826 22:19:53.638844 99815 layer_factory.hpp:77] Creating layer inception_4a/3x3
I0826 22:19:53.638875 99815 net.cpp:100] Creating Layer inception_4a/3x3
I0826 22:19:53.638892 99815 net.cpp:434] inception_4a/3x3 <- inception_4a/3x3_reduce
I0826 22:19:53.638912 99815 net.cpp:408] inception_4a/3x3 -> inception_4a/3x3
I0826 22:19:53.647178 99815 net.cpp:150] Setting up inception_4a/3x3
I0826 22:19:53.647212 99815 net.cpp:157] Top shape: 64 208 8 8 (851968)
I0826 22:19:53.647231 99815 net.cpp:165] Memory required for data: 747373568
I0826 22:19:53.647270 99815 layer_factory.hpp:77] Creating layer inception_4a/relu_3x3
I0826 22:19:53.647297 99815 net.cpp:100] Creating Layer inception_4a/relu_3x3
I0826 22:19:53.647316 99815 net.cpp:434] inception_4a/relu_3x3 <- inception_4a/3x3
I0826 22:19:53.647333 99815 net.cpp:395] inception_4a/relu_3x3 -> inception_4a/3x3 (in-place)
I0826 22:19:53.649361 99815 net.cpp:150] Setting up inception_4a/relu_3x3
I0826 22:19:53.649389 99815 net.cpp:157] Top shape: 64 208 8 8 (851968)
I0826 22:19:53.649405 99815 net.cpp:165] Memory required for data: 750781440
I0826 22:19:53.649421 99815 layer_factory.hpp:77] Creating layer inception_4a/5x5_reduce
I0826 22:19:53.649449 99815 net.cpp:100] Creating Layer inception_4a/5x5_reduce
I0826 22:19:53.649466 99815 net.cpp:434] inception_4a/5x5_reduce <- pool3/3x3_s2_pool3/3x3_s2_0_split_2
I0826 22:19:53.649490 99815 net.cpp:408] inception_4a/5x5_reduce -> inception_4a/5x5_reduce
I0826 22:19:53.654652 99815 net.cpp:150] Setting up inception_4a/5x5_reduce
I0826 22:19:53.654685 99815 net.cpp:157] Top shape: 64 16 8 8 (65536)
I0826 22:19:53.654700 99815 net.cpp:165] Memory required for data: 751043584
I0826 22:19:53.654719 99815 layer_factory.hpp:77] Creating layer inception_4a/relu_5x5_reduce
I0826 22:19:53.654745 99815 net.cpp:100] Creating Layer inception_4a/relu_5x5_reduce
I0826 22:19:53.654762 99815 net.cpp:434] inception_4a/relu_5x5_reduce <- inception_4a/5x5_reduce
I0826 22:19:53.654779 99815 net.cpp:395] inception_4a/relu_5x5_reduce -> inception_4a/5x5_reduce (in-place)
I0826 22:19:53.655616 99815 net.cpp:150] Setting up inception_4a/relu_5x5_reduce
I0826 22:19:53.655650 99815 net.cpp:157] Top shape: 64 16 8 8 (65536)
I0826 22:19:53.655665 99815 net.cpp:165] Memory required for data: 751305728
I0826 22:19:53.655683 99815 layer_factory.hpp:77] Creating layer inception_4a/5x5
I0826 22:19:53.655711 99815 net.cpp:100] Creating Layer inception_4a/5x5
I0826 22:19:53.655728 99815 net.cpp:434] inception_4a/5x5 <- inception_4a/5x5_reduce
I0826 22:19:53.655748 99815 net.cpp:408] inception_4a/5x5 -> inception_4a/5x5
I0826 22:19:53.659868 99815 net.cpp:150] Setting up inception_4a/5x5
I0826 22:19:53.659899 99815 net.cpp:157] Top shape: 64 48 8 8 (196608)
I0826 22:19:53.659915 99815 net.cpp:165] Memory required for data: 752092160
I0826 22:19:53.659934 99815 layer_factory.hpp:77] Creating layer inception_4a/relu_5x5
I0826 22:19:53.659953 99815 net.cpp:100] Creating Layer inception_4a/relu_5x5
I0826 22:19:53.659968 99815 net.cpp:434] inception_4a/relu_5x5 <- inception_4a/5x5
I0826 22:19:53.659991 99815 net.cpp:395] inception_4a/relu_5x5 -> inception_4a/5x5 (in-place)
I0826 22:19:53.662003 99815 net.cpp:150] Setting up inception_4a/relu_5x5
I0826 22:19:53.662032 99815 net.cpp:157] Top shape: 64 48 8 8 (196608)
I0826 22:19:53.662048 99815 net.cpp:165] Memory required for data: 752878592
I0826 22:19:53.662067 99815 layer_factory.hpp:77] Creating layer inception_4a/pool
I0826 22:19:53.662086 99815 net.cpp:100] Creating Layer inception_4a/pool
I0826 22:19:53.662101 99815 net.cpp:434] inception_4a/pool <- pool3/3x3_s2_pool3/3x3_s2_0_split_3
I0826 22:19:53.662122 99815 net.cpp:408] inception_4a/pool -> inception_4a/pool
I0826 22:19:53.662204 99815 net.cpp:150] Setting up inception_4a/pool
I0826 22:19:53.662228 99815 net.cpp:157] Top shape: 64 480 8 8 (1966080)
I0826 22:19:53.662242 99815 net.cpp:165] Memory required for data: 760742912
I0826 22:19:53.662258 99815 layer_factory.hpp:77] Creating layer inception_4a/pool_proj
I0826 22:19:53.662287 99815 net.cpp:100] Creating Layer inception_4a/pool_proj
I0826 22:19:53.662303 99815 net.cpp:434] inception_4a/pool_proj <- inception_4a/pool
I0826 22:19:53.662323 99815 net.cpp:408] inception_4a/pool_proj -> inception_4a/pool_proj
I0826 22:19:53.668676 99815 net.cpp:150] Setting up inception_4a/pool_proj
I0826 22:19:53.668709 99815 net.cpp:157] Top shape: 64 64 8 8 (262144)
I0826 22:19:53.668725 99815 net.cpp:165] Memory required for data: 761791488
I0826 22:19:53.668743 99815 layer_factory.hpp:77] Creating layer inception_4a/relu_pool_proj
I0826 22:19:53.668779 99815 net.cpp:100] Creating Layer inception_4a/relu_pool_proj
I0826 22:19:53.668797 99815 net.cpp:434] inception_4a/relu_pool_proj <- inception_4a/pool_proj
I0826 22:19:53.668813 99815 net.cpp:395] inception_4a/relu_pool_proj -> inception_4a/pool_proj (in-place)
I0826 22:19:53.670250 99815 net.cpp:150] Setting up inception_4a/relu_pool_proj
I0826 22:19:53.670277 99815 net.cpp:157] Top shape: 64 64 8 8 (262144)
I0826 22:19:53.670291 99815 net.cpp:165] Memory required for data: 762840064
I0826 22:19:53.670305 99815 layer_factory.hpp:77] Creating layer inception_4a/output
I0826 22:19:53.670330 99815 net.cpp:100] Creating Layer inception_4a/output
I0826 22:19:53.670343 99815 net.cpp:434] inception_4a/output <- inception_4a/1x1
I0826 22:19:53.670361 99815 net.cpp:434] inception_4a/output <- inception_4a/3x3
I0826 22:19:53.670375 99815 net.cpp:434] inception_4a/output <- inception_4a/5x5
I0826 22:19:53.670393 99815 net.cpp:434] inception_4a/output <- inception_4a/pool_proj
I0826 22:19:53.670410 99815 net.cpp:408] inception_4a/output -> inception_4a/output
I0826 22:19:53.670462 99815 net.cpp:150] Setting up inception_4a/output
I0826 22:19:53.670485 99815 net.cpp:157] Top shape: 64 512 8 8 (2097152)
I0826 22:19:53.670501 99815 net.cpp:165] Memory required for data: 771228672
I0826 22:19:53.670516 99815 layer_factory.hpp:77] Creating layer inception_4a/output_inception_4a/output_0_split
I0826 22:19:53.670536 99815 net.cpp:100] Creating Layer inception_4a/output_inception_4a/output_0_split
I0826 22:19:53.670553 99815 net.cpp:434] inception_4a/output_inception_4a/output_0_split <- inception_4a/output
I0826 22:19:53.670573 99815 net.cpp:408] inception_4a/output_inception_4a/output_0_split -> inception_4a/output_inception_4a/output_0_split_0
I0826 22:19:53.670594 99815 net.cpp:408] inception_4a/output_inception_4a/output_0_split -> inception_4a/output_inception_4a/output_0_split_1
I0826 22:19:53.670614 99815 net.cpp:408] inception_4a/output_inception_4a/output_0_split -> inception_4a/output_inception_4a/output_0_split_2
I0826 22:19:53.670639 99815 net.cpp:408] inception_4a/output_inception_4a/output_0_split -> inception_4a/output_inception_4a/output_0_split_3
I0826 22:19:53.670657 99815 net.cpp:408] inception_4a/output_inception_4a/output_0_split -> inception_4a/output_inception_4a/output_0_split_4
I0826 22:19:53.670786 99815 net.cpp:150] Setting up inception_4a/output_inception_4a/output_0_split
I0826 22:19:53.670809 99815 net.cpp:157] Top shape: 64 512 8 8 (2097152)
I0826 22:19:53.670825 99815 net.cpp:157] Top shape: 64 512 8 8 (2097152)
I0826 22:19:53.670845 99815 net.cpp:157] Top shape: 64 512 8 8 (2097152)
I0826 22:19:53.670860 99815 net.cpp:157] Top shape: 64 512 8 8 (2097152)
I0826 22:19:53.670874 99815 net.cpp:157] Top shape: 64 512 8 8 (2097152)
I0826 22:19:53.670887 99815 net.cpp:165] Memory required for data: 813171712
I0826 22:19:53.670902 99815 layer_factory.hpp:77] Creating layer loss1/ave_pool
I0826 22:19:53.670924 99815 net.cpp:100] Creating Layer loss1/ave_pool
I0826 22:19:53.670939 99815 net.cpp:434] loss1/ave_pool <- inception_4a/output_inception_4a/output_0_split_0
I0826 22:19:53.670959 99815 net.cpp:408] loss1/ave_pool -> loss1/ave_pool
I0826 22:19:53.672674 99815 net.cpp:150] Setting up loss1/ave_pool
I0826 22:19:53.672704 99815 net.cpp:157] Top shape: 64 512 2 2 (131072)
I0826 22:19:53.672720 99815 net.cpp:165] Memory required for data: 813696000
I0826 22:19:53.672736 99815 layer_factory.hpp:77] Creating layer loss1/conv
I0826 22:19:53.672762 99815 net.cpp:100] Creating Layer loss1/conv
I0826 22:19:53.672780 99815 net.cpp:434] loss1/conv <- loss1/ave_pool
I0826 22:19:53.672801 99815 net.cpp:408] loss1/conv -> loss1/conv
I0826 22:19:53.680002 99815 net.cpp:150] Setting up loss1/conv
I0826 22:19:53.680037 99815 net.cpp:157] Top shape: 64 128 2 2 (32768)
I0826 22:19:53.680052 99815 net.cpp:165] Memory required for data: 813827072
I0826 22:19:53.680071 99815 layer_factory.hpp:77] Creating layer loss1/relu_conv
I0826 22:19:53.680090 99815 net.cpp:100] Creating Layer loss1/relu_conv
I0826 22:19:53.680121 99815 net.cpp:434] loss1/relu_conv <- loss1/conv
I0826 22:19:53.680142 99815 net.cpp:395] loss1/relu_conv -> loss1/conv (in-place)
I0826 22:19:53.681231 99815 net.cpp:150] Setting up loss1/relu_conv
I0826 22:19:53.681259 99815 net.cpp:157] Top shape: 64 128 2 2 (32768)
I0826 22:19:53.681273 99815 net.cpp:165] Memory required for data: 813958144
I0826 22:19:53.681298 99815 layer_factory.hpp:77] Creating layer loss1/fc
I0826 22:19:53.681318 99815 net.cpp:100] Creating Layer loss1/fc
I0826 22:19:53.681334 99815 net.cpp:434] loss1/fc <- loss1/conv
I0826 22:19:53.681354 99815 net.cpp:408] loss1/fc -> loss1/fc
I0826 22:19:53.688091 99815 net.cpp:150] Setting up loss1/fc
I0826 22:19:53.688122 99815 net.cpp:157] Top shape: 64 1024 (65536)
I0826 22:19:53.688138 99815 net.cpp:165] Memory required for data: 814220288
I0826 22:19:53.688159 99815 layer_factory.hpp:77] Creating layer loss1/relu_fc
I0826 22:19:53.688179 99815 net.cpp:100] Creating Layer loss1/relu_fc
I0826 22:19:53.688194 99815 net.cpp:434] loss1/relu_fc <- loss1/fc
I0826 22:19:53.688215 99815 net.cpp:395] loss1/relu_fc -> loss1/fc (in-place)
I0826 22:19:53.688675 99815 net.cpp:150] Setting up loss1/relu_fc
I0826 22:19:53.688705 99815 net.cpp:157] Top shape: 64 1024 (65536)
I0826 22:19:53.688720 99815 net.cpp:165] Memory required for data: 814482432
I0826 22:19:53.688735 99815 layer_factory.hpp:77] Creating layer loss1/drop_fc
I0826 22:19:53.688772 99815 net.cpp:100] Creating Layer loss1/drop_fc
I0826 22:19:53.688791 99815 net.cpp:434] loss1/drop_fc <- loss1/fc
I0826 22:19:53.688814 99815 net.cpp:395] loss1/drop_fc -> loss1/fc (in-place)
I0826 22:19:53.688870 99815 net.cpp:150] Setting up loss1/drop_fc
I0826 22:19:53.688896 99815 net.cpp:157] Top shape: 64 1024 (65536)
I0826 22:19:53.688910 99815 net.cpp:165] Memory required for data: 814744576
I0826 22:19:53.688925 99815 layer_factory.hpp:77] Creating layer loss1/classifier
I0826 22:19:53.688949 99815 net.cpp:100] Creating Layer loss1/classifier
I0826 22:19:53.688964 99815 net.cpp:434] loss1/classifier <- loss1/fc
I0826 22:19:53.688985 99815 net.cpp:408] loss1/classifier -> loss1/classifier
I0826 22:19:53.689198 99815 net.cpp:150] Setting up loss1/classifier
I0826 22:19:53.689223 99815 net.cpp:157] Top shape: 64 2 (128)
I0826 22:19:53.689236 99815 net.cpp:165] Memory required for data: 814745088
I0826 22:19:53.689257 99815 layer_factory.hpp:77] Creating layer loss1/loss
I0826 22:19:53.689285 99815 net.cpp:100] Creating Layer loss1/loss
I0826 22:19:53.689301 99815 net.cpp:434] loss1/loss <- loss1/classifier
I0826 22:19:53.689318 99815 net.cpp:434] loss1/loss <- label_data_1_split_0
I0826 22:19:53.689337 99815 net.cpp:408] loss1/loss -> loss1/loss1
I0826 22:19:53.689366 99815 layer_factory.hpp:77] Creating layer loss1/loss
I0826 22:19:53.690249 99815 net.cpp:150] Setting up loss1/loss
I0826 22:19:53.690276 99815 net.cpp:157] Top shape: (1)
I0826 22:19:53.690291 99815 net.cpp:160]     with loss weight 0.3
I0826 22:19:53.690332 99815 net.cpp:165] Memory required for data: 814745092
I0826 22:19:53.690349 99815 layer_factory.hpp:77] Creating layer inception_4b/1x1
I0826 22:19:53.690376 99815 net.cpp:100] Creating Layer inception_4b/1x1
I0826 22:19:53.690392 99815 net.cpp:434] inception_4b/1x1 <- inception_4a/output_inception_4a/output_0_split_1
I0826 22:19:53.690414 99815 net.cpp:408] inception_4b/1x1 -> inception_4b/1x1
I0826 22:19:53.694599 99815 net.cpp:150] Setting up inception_4b/1x1
I0826 22:19:53.694639 99815 net.cpp:157] Top shape: 64 160 8 8 (655360)
I0826 22:19:53.694660 99815 net.cpp:165] Memory required for data: 817366532
I0826 22:19:53.694679 99815 layer_factory.hpp:77] Creating layer inception_4b/relu_1x1
I0826 22:19:53.694703 99815 net.cpp:100] Creating Layer inception_4b/relu_1x1
I0826 22:19:53.694720 99815 net.cpp:434] inception_4b/relu_1x1 <- inception_4b/1x1
I0826 22:19:53.694742 99815 net.cpp:395] inception_4b/relu_1x1 -> inception_4b/1x1 (in-place)
I0826 22:19:53.695021 99815 net.cpp:150] Setting up inception_4b/relu_1x1
I0826 22:19:53.695046 99815 net.cpp:157] Top shape: 64 160 8 8 (655360)
I0826 22:19:53.695077 99815 net.cpp:165] Memory required for data: 819987972
I0826 22:19:53.695092 99815 layer_factory.hpp:77] Creating layer inception_4b/3x3_reduce
I0826 22:19:53.695122 99815 net.cpp:100] Creating Layer inception_4b/3x3_reduce
I0826 22:19:53.695138 99815 net.cpp:434] inception_4b/3x3_reduce <- inception_4a/output_inception_4a/output_0_split_2
I0826 22:19:53.695160 99815 net.cpp:408] inception_4b/3x3_reduce -> inception_4b/3x3_reduce
I0826 22:19:53.702252 99815 net.cpp:150] Setting up inception_4b/3x3_reduce
I0826 22:19:53.702286 99815 net.cpp:157] Top shape: 64 112 8 8 (458752)
I0826 22:19:53.702301 99815 net.cpp:165] Memory required for data: 821822980
I0826 22:19:53.702324 99815 layer_factory.hpp:77] Creating layer inception_4b/relu_3x3_reduce
I0826 22:19:53.702345 99815 net.cpp:100] Creating Layer inception_4b/relu_3x3_reduce
I0826 22:19:53.702363 99815 net.cpp:434] inception_4b/relu_3x3_reduce <- inception_4b/3x3_reduce
I0826 22:19:53.702379 99815 net.cpp:395] inception_4b/relu_3x3_reduce -> inception_4b/3x3_reduce (in-place)
I0826 22:19:53.704322 99815 net.cpp:150] Setting up inception_4b/relu_3x3_reduce
I0826 22:19:53.704366 99815 net.cpp:157] Top shape: 64 112 8 8 (458752)
I0826 22:19:53.704382 99815 net.cpp:165] Memory required for data: 823657988
I0826 22:19:53.704399 99815 layer_factory.hpp:77] Creating layer inception_4b/3x3
I0826 22:19:53.704428 99815 net.cpp:100] Creating Layer inception_4b/3x3
I0826 22:19:53.704447 99815 net.cpp:434] inception_4b/3x3 <- inception_4b/3x3_reduce
I0826 22:19:53.704469 99815 net.cpp:408] inception_4b/3x3 -> inception_4b/3x3
I0826 22:19:53.712333 99815 net.cpp:150] Setting up inception_4b/3x3
I0826 22:19:53.712366 99815 net.cpp:157] Top shape: 64 224 8 8 (917504)
I0826 22:19:53.712381 99815 net.cpp:165] Memory required for data: 827328004
I0826 22:19:53.712402 99815 layer_factory.hpp:77] Creating layer inception_4b/relu_3x3
I0826 22:19:53.712427 99815 net.cpp:100] Creating Layer inception_4b/relu_3x3
I0826 22:19:53.712445 99815 net.cpp:434] inception_4b/relu_3x3 <- inception_4b/3x3
I0826 22:19:53.712461 99815 net.cpp:395] inception_4b/relu_3x3 -> inception_4b/3x3 (in-place)
I0826 22:19:53.714406 99815 net.cpp:150] Setting up inception_4b/relu_3x3
I0826 22:19:53.714433 99815 net.cpp:157] Top shape: 64 224 8 8 (917504)
I0826 22:19:53.714448 99815 net.cpp:165] Memory required for data: 830998020
I0826 22:19:53.714462 99815 layer_factory.hpp:77] Creating layer inception_4b/5x5_reduce
I0826 22:19:53.714494 99815 net.cpp:100] Creating Layer inception_4b/5x5_reduce
I0826 22:19:53.714510 99815 net.cpp:434] inception_4b/5x5_reduce <- inception_4a/output_inception_4a/output_0_split_3
I0826 22:19:53.714530 99815 net.cpp:408] inception_4b/5x5_reduce -> inception_4b/5x5_reduce
I0826 22:19:53.721390 99815 net.cpp:150] Setting up inception_4b/5x5_reduce
I0826 22:19:53.721426 99815 net.cpp:157] Top shape: 64 24 8 8 (98304)
I0826 22:19:53.721441 99815 net.cpp:165] Memory required for data: 831391236
I0826 22:19:53.721462 99815 layer_factory.hpp:77] Creating layer inception_4b/relu_5x5_reduce
I0826 22:19:53.721483 99815 net.cpp:100] Creating Layer inception_4b/relu_5x5_reduce
I0826 22:19:53.721499 99815 net.cpp:434] inception_4b/relu_5x5_reduce <- inception_4b/5x5_reduce
I0826 22:19:53.721518 99815 net.cpp:395] inception_4b/relu_5x5_reduce -> inception_4b/5x5_reduce (in-place)
I0826 22:19:53.723472 99815 net.cpp:150] Setting up inception_4b/relu_5x5_reduce
I0826 22:19:53.723500 99815 net.cpp:157] Top shape: 64 24 8 8 (98304)
I0826 22:19:53.723515 99815 net.cpp:165] Memory required for data: 831784452
I0826 22:19:53.723532 99815 layer_factory.hpp:77] Creating layer inception_4b/5x5
I0826 22:19:53.723558 99815 net.cpp:100] Creating Layer inception_4b/5x5
I0826 22:19:53.723574 99815 net.cpp:434] inception_4b/5x5 <- inception_4b/5x5_reduce
I0826 22:19:53.723600 99815 net.cpp:408] inception_4b/5x5 -> inception_4b/5x5
I0826 22:19:53.729470 99815 net.cpp:150] Setting up inception_4b/5x5
I0826 22:19:53.729502 99815 net.cpp:157] Top shape: 64 64 8 8 (262144)
I0826 22:19:53.729517 99815 net.cpp:165] Memory required for data: 832833028
I0826 22:19:53.729560 99815 layer_factory.hpp:77] Creating layer inception_4b/relu_5x5
I0826 22:19:53.729593 99815 net.cpp:100] Creating Layer inception_4b/relu_5x5
I0826 22:19:53.729612 99815 net.cpp:434] inception_4b/relu_5x5 <- inception_4b/5x5
I0826 22:19:53.729630 99815 net.cpp:395] inception_4b/relu_5x5 -> inception_4b/5x5 (in-place)
I0826 22:19:53.731601 99815 net.cpp:150] Setting up inception_4b/relu_5x5
I0826 22:19:53.731631 99815 net.cpp:157] Top shape: 64 64 8 8 (262144)
I0826 22:19:53.731647 99815 net.cpp:165] Memory required for data: 833881604
I0826 22:19:53.731662 99815 layer_factory.hpp:77] Creating layer inception_4b/pool
I0826 22:19:53.731685 99815 net.cpp:100] Creating Layer inception_4b/pool
I0826 22:19:53.731703 99815 net.cpp:434] inception_4b/pool <- inception_4a/output_inception_4a/output_0_split_4
I0826 22:19:53.731724 99815 net.cpp:408] inception_4b/pool -> inception_4b/pool
I0826 22:19:53.731828 99815 net.cpp:150] Setting up inception_4b/pool
I0826 22:19:53.731853 99815 net.cpp:157] Top shape: 64 512 8 8 (2097152)
I0826 22:19:53.731866 99815 net.cpp:165] Memory required for data: 842270212
I0826 22:19:53.731880 99815 layer_factory.hpp:77] Creating layer inception_4b/pool_proj
I0826 22:19:53.731911 99815 net.cpp:100] Creating Layer inception_4b/pool_proj
I0826 22:19:53.731927 99815 net.cpp:434] inception_4b/pool_proj <- inception_4b/pool
I0826 22:19:53.731950 99815 net.cpp:408] inception_4b/pool_proj -> inception_4b/pool_proj
I0826 22:19:53.738229 99815 net.cpp:150] Setting up inception_4b/pool_proj
I0826 22:19:53.738260 99815 net.cpp:157] Top shape: 64 64 8 8 (262144)
I0826 22:19:53.738276 99815 net.cpp:165] Memory required for data: 843318788
I0826 22:19:53.738297 99815 layer_factory.hpp:77] Creating layer inception_4b/relu_pool_proj
I0826 22:19:53.738323 99815 net.cpp:100] Creating Layer inception_4b/relu_pool_proj
I0826 22:19:53.738340 99815 net.cpp:434] inception_4b/relu_pool_proj <- inception_4b/pool_proj
I0826 22:19:53.738358 99815 net.cpp:395] inception_4b/relu_pool_proj -> inception_4b/pool_proj (in-place)
I0826 22:19:53.740463 99815 net.cpp:150] Setting up inception_4b/relu_pool_proj
I0826 22:19:53.740491 99815 net.cpp:157] Top shape: 64 64 8 8 (262144)
I0826 22:19:53.740506 99815 net.cpp:165] Memory required for data: 844367364
I0826 22:19:53.740525 99815 layer_factory.hpp:77] Creating layer inception_4b/output
I0826 22:19:53.740542 99815 net.cpp:100] Creating Layer inception_4b/output
I0826 22:19:53.740557 99815 net.cpp:434] inception_4b/output <- inception_4b/1x1
I0826 22:19:53.740574 99815 net.cpp:434] inception_4b/output <- inception_4b/3x3
I0826 22:19:53.740591 99815 net.cpp:434] inception_4b/output <- inception_4b/5x5
I0826 22:19:53.740605 99815 net.cpp:434] inception_4b/output <- inception_4b/pool_proj
I0826 22:19:53.740624 99815 net.cpp:408] inception_4b/output -> inception_4b/output
I0826 22:19:53.740679 99815 net.cpp:150] Setting up inception_4b/output
I0826 22:19:53.740701 99815 net.cpp:157] Top shape: 64 512 8 8 (2097152)
I0826 22:19:53.740715 99815 net.cpp:165] Memory required for data: 852755972
I0826 22:19:53.740731 99815 layer_factory.hpp:77] Creating layer inception_4b/output_inception_4b/output_0_split
I0826 22:19:53.740751 99815 net.cpp:100] Creating Layer inception_4b/output_inception_4b/output_0_split
I0826 22:19:53.740767 99815 net.cpp:434] inception_4b/output_inception_4b/output_0_split <- inception_4b/output
I0826 22:19:53.740784 99815 net.cpp:408] inception_4b/output_inception_4b/output_0_split -> inception_4b/output_inception_4b/output_0_split_0
I0826 22:19:53.740804 99815 net.cpp:408] inception_4b/output_inception_4b/output_0_split -> inception_4b/output_inception_4b/output_0_split_1
I0826 22:19:53.740823 99815 net.cpp:408] inception_4b/output_inception_4b/output_0_split -> inception_4b/output_inception_4b/output_0_split_2
I0826 22:19:53.740844 99815 net.cpp:408] inception_4b/output_inception_4b/output_0_split -> inception_4b/output_inception_4b/output_0_split_3
I0826 22:19:53.740948 99815 net.cpp:150] Setting up inception_4b/output_inception_4b/output_0_split
I0826 22:19:53.740990 99815 net.cpp:157] Top shape: 64 512 8 8 (2097152)
I0826 22:19:53.741008 99815 net.cpp:157] Top shape: 64 512 8 8 (2097152)
I0826 22:19:53.741022 99815 net.cpp:157] Top shape: 64 512 8 8 (2097152)
I0826 22:19:53.741037 99815 net.cpp:157] Top shape: 64 512 8 8 (2097152)
I0826 22:19:53.741051 99815 net.cpp:165] Memory required for data: 886310404
I0826 22:19:53.741067 99815 layer_factory.hpp:77] Creating layer inception_4c/1x1
I0826 22:19:53.741091 99815 net.cpp:100] Creating Layer inception_4c/1x1
I0826 22:19:53.741106 99815 net.cpp:434] inception_4c/1x1 <- inception_4b/output_inception_4b/output_0_split_0
I0826 22:19:53.741129 99815 net.cpp:408] inception_4c/1x1 -> inception_4c/1x1
I0826 22:19:53.746673 99815 net.cpp:150] Setting up inception_4c/1x1
I0826 22:19:53.746704 99815 net.cpp:157] Top shape: 64 128 8 8 (524288)
I0826 22:19:53.746721 99815 net.cpp:165] Memory required for data: 888407556
I0826 22:19:53.746740 99815 layer_factory.hpp:77] Creating layer inception_4c/relu_1x1
I0826 22:19:53.746764 99815 net.cpp:100] Creating Layer inception_4c/relu_1x1
I0826 22:19:53.746780 99815 net.cpp:434] inception_4c/relu_1x1 <- inception_4c/1x1
I0826 22:19:53.746800 99815 net.cpp:395] inception_4c/relu_1x1 -> inception_4c/1x1 (in-place)
I0826 22:19:53.747704 99815 net.cpp:150] Setting up inception_4c/relu_1x1
I0826 22:19:53.747730 99815 net.cpp:157] Top shape: 64 128 8 8 (524288)
I0826 22:19:53.747745 99815 net.cpp:165] Memory required for data: 890504708
I0826 22:19:53.747759 99815 layer_factory.hpp:77] Creating layer inception_4c/3x3_reduce
I0826 22:19:53.747783 99815 net.cpp:100] Creating Layer inception_4c/3x3_reduce
I0826 22:19:53.747800 99815 net.cpp:434] inception_4c/3x3_reduce <- inception_4b/output_inception_4b/output_0_split_1
I0826 22:19:53.747822 99815 net.cpp:408] inception_4c/3x3_reduce -> inception_4c/3x3_reduce
I0826 22:19:53.754343 99815 net.cpp:150] Setting up inception_4c/3x3_reduce
I0826 22:19:53.754375 99815 net.cpp:157] Top shape: 64 128 8 8 (524288)
I0826 22:19:53.754390 99815 net.cpp:165] Memory required for data: 892601860
I0826 22:19:53.754410 99815 layer_factory.hpp:77] Creating layer inception_4c/relu_3x3_reduce
I0826 22:19:53.754431 99815 net.cpp:100] Creating Layer inception_4c/relu_3x3_reduce
I0826 22:19:53.754449 99815 net.cpp:434] inception_4c/relu_3x3_reduce <- inception_4c/3x3_reduce
I0826 22:19:53.754470 99815 net.cpp:395] inception_4c/relu_3x3_reduce -> inception_4c/3x3_reduce (in-place)
I0826 22:19:53.756418 99815 net.cpp:150] Setting up inception_4c/relu_3x3_reduce
I0826 22:19:53.756449 99815 net.cpp:157] Top shape: 64 128 8 8 (524288)
I0826 22:19:53.756464 99815 net.cpp:165] Memory required for data: 894699012
I0826 22:19:53.756479 99815 layer_factory.hpp:77] Creating layer inception_4c/3x3
I0826 22:19:53.756511 99815 net.cpp:100] Creating Layer inception_4c/3x3
I0826 22:19:53.756528 99815 net.cpp:434] inception_4c/3x3 <- inception_4c/3x3_reduce
I0826 22:19:53.756548 99815 net.cpp:408] inception_4c/3x3 -> inception_4c/3x3
I0826 22:19:53.764730 99815 net.cpp:150] Setting up inception_4c/3x3
I0826 22:19:53.764765 99815 net.cpp:157] Top shape: 64 256 8 8 (1048576)
I0826 22:19:53.764780 99815 net.cpp:165] Memory required for data: 898893316
I0826 22:19:53.764822 99815 layer_factory.hpp:77] Creating layer inception_4c/relu_3x3
I0826 22:19:53.764847 99815 net.cpp:100] Creating Layer inception_4c/relu_3x3
I0826 22:19:53.764863 99815 net.cpp:434] inception_4c/relu_3x3 <- inception_4c/3x3
I0826 22:19:53.764886 99815 net.cpp:395] inception_4c/relu_3x3 -> inception_4c/3x3 (in-place)
I0826 22:19:53.767118 99815 net.cpp:150] Setting up inception_4c/relu_3x3
I0826 22:19:53.767146 99815 net.cpp:157] Top shape: 64 256 8 8 (1048576)
I0826 22:19:53.767160 99815 net.cpp:165] Memory required for data: 903087620
I0826 22:19:53.767179 99815 layer_factory.hpp:77] Creating layer inception_4c/5x5_reduce
I0826 22:19:53.767206 99815 net.cpp:100] Creating Layer inception_4c/5x5_reduce
I0826 22:19:53.767223 99815 net.cpp:434] inception_4c/5x5_reduce <- inception_4b/output_inception_4b/output_0_split_2
I0826 22:19:53.767277 99815 net.cpp:408] inception_4c/5x5_reduce -> inception_4c/5x5_reduce
I0826 22:19:53.774101 99815 net.cpp:150] Setting up inception_4c/5x5_reduce
I0826 22:19:53.774133 99815 net.cpp:157] Top shape: 64 24 8 8 (98304)
I0826 22:19:53.774149 99815 net.cpp:165] Memory required for data: 903480836
I0826 22:19:53.774168 99815 layer_factory.hpp:77] Creating layer inception_4c/relu_5x5_reduce
I0826 22:19:53.774193 99815 net.cpp:100] Creating Layer inception_4c/relu_5x5_reduce
I0826 22:19:53.774209 99815 net.cpp:434] inception_4c/relu_5x5_reduce <- inception_4c/5x5_reduce
I0826 22:19:53.774230 99815 net.cpp:395] inception_4c/relu_5x5_reduce -> inception_4c/5x5_reduce (in-place)
I0826 22:19:53.776093 99815 net.cpp:150] Setting up inception_4c/relu_5x5_reduce
I0826 22:19:53.776121 99815 net.cpp:157] Top shape: 64 24 8 8 (98304)
I0826 22:19:53.776135 99815 net.cpp:165] Memory required for data: 903874052
I0826 22:19:53.776152 99815 layer_factory.hpp:77] Creating layer inception_4c/5x5
I0826 22:19:53.776182 99815 net.cpp:100] Creating Layer inception_4c/5x5
I0826 22:19:53.776198 99815 net.cpp:434] inception_4c/5x5 <- inception_4c/5x5_reduce
I0826 22:19:53.776217 99815 net.cpp:408] inception_4c/5x5 -> inception_4c/5x5
I0826 22:19:53.781980 99815 net.cpp:150] Setting up inception_4c/5x5
I0826 22:19:53.782011 99815 net.cpp:157] Top shape: 64 64 8 8 (262144)
I0826 22:19:53.782027 99815 net.cpp:165] Memory required for data: 904922628
I0826 22:19:53.782047 99815 layer_factory.hpp:77] Creating layer inception_4c/relu_5x5
I0826 22:19:53.782068 99815 net.cpp:100] Creating Layer inception_4c/relu_5x5
I0826 22:19:53.782083 99815 net.cpp:434] inception_4c/relu_5x5 <- inception_4c/5x5
I0826 22:19:53.782105 99815 net.cpp:395] inception_4c/relu_5x5 -> inception_4c/5x5 (in-place)
I0826 22:19:53.784054 99815 net.cpp:150] Setting up inception_4c/relu_5x5
I0826 22:19:53.784085 99815 net.cpp:157] Top shape: 64 64 8 8 (262144)
I0826 22:19:53.784099 99815 net.cpp:165] Memory required for data: 905971204
I0826 22:19:53.784114 99815 layer_factory.hpp:77] Creating layer inception_4c/pool
I0826 22:19:53.784133 99815 net.cpp:100] Creating Layer inception_4c/pool
I0826 22:19:53.784153 99815 net.cpp:434] inception_4c/pool <- inception_4b/output_inception_4b/output_0_split_3
I0826 22:19:53.784175 99815 net.cpp:408] inception_4c/pool -> inception_4c/pool
I0826 22:19:53.784262 99815 net.cpp:150] Setting up inception_4c/pool
I0826 22:19:53.784286 99815 net.cpp:157] Top shape: 64 512 8 8 (2097152)
I0826 22:19:53.784301 99815 net.cpp:165] Memory required for data: 914359812
I0826 22:19:53.784317 99815 layer_factory.hpp:77] Creating layer inception_4c/pool_proj
I0826 22:19:53.784343 99815 net.cpp:100] Creating Layer inception_4c/pool_proj
I0826 22:19:53.784359 99815 net.cpp:434] inception_4c/pool_proj <- inception_4c/pool
I0826 22:19:53.784379 99815 net.cpp:408] inception_4c/pool_proj -> inception_4c/pool_proj
I0826 22:19:53.790918 99815 net.cpp:150] Setting up inception_4c/pool_proj
I0826 22:19:53.790951 99815 net.cpp:157] Top shape: 64 64 8 8 (262144)
I0826 22:19:53.790966 99815 net.cpp:165] Memory required for data: 915408388
I0826 22:19:53.790988 99815 layer_factory.hpp:77] Creating layer inception_4c/relu_pool_proj
I0826 22:19:53.791013 99815 net.cpp:100] Creating Layer inception_4c/relu_pool_proj
I0826 22:19:53.791029 99815 net.cpp:434] inception_4c/relu_pool_proj <- inception_4c/pool_proj
I0826 22:19:53.791048 99815 net.cpp:395] inception_4c/relu_pool_proj -> inception_4c/pool_proj (in-place)
I0826 22:19:53.793123 99815 net.cpp:150] Setting up inception_4c/relu_pool_proj
I0826 22:19:53.793148 99815 net.cpp:157] Top shape: 64 64 8 8 (262144)
I0826 22:19:53.793164 99815 net.cpp:165] Memory required for data: 916456964
I0826 22:19:53.793181 99815 layer_factory.hpp:77] Creating layer inception_4c/output
I0826 22:19:53.793200 99815 net.cpp:100] Creating Layer inception_4c/output
I0826 22:19:53.793215 99815 net.cpp:434] inception_4c/output <- inception_4c/1x1
I0826 22:19:53.793231 99815 net.cpp:434] inception_4c/output <- inception_4c/3x3
I0826 22:19:53.793264 99815 net.cpp:434] inception_4c/output <- inception_4c/5x5
I0826 22:19:53.793282 99815 net.cpp:434] inception_4c/output <- inception_4c/pool_proj
I0826 22:19:53.793300 99815 net.cpp:408] inception_4c/output -> inception_4c/output
I0826 22:19:53.793360 99815 net.cpp:150] Setting up inception_4c/output
I0826 22:19:53.793385 99815 net.cpp:157] Top shape: 64 512 8 8 (2097152)
I0826 22:19:53.793402 99815 net.cpp:165] Memory required for data: 924845572
I0826 22:19:53.793417 99815 layer_factory.hpp:77] Creating layer inception_4c/output_inception_4c/output_0_split
I0826 22:19:53.793438 99815 net.cpp:100] Creating Layer inception_4c/output_inception_4c/output_0_split
I0826 22:19:53.793452 99815 net.cpp:434] inception_4c/output_inception_4c/output_0_split <- inception_4c/output
I0826 22:19:53.793469 99815 net.cpp:408] inception_4c/output_inception_4c/output_0_split -> inception_4c/output_inception_4c/output_0_split_0
I0826 22:19:53.793489 99815 net.cpp:408] inception_4c/output_inception_4c/output_0_split -> inception_4c/output_inception_4c/output_0_split_1
I0826 22:19:53.793509 99815 net.cpp:408] inception_4c/output_inception_4c/output_0_split -> inception_4c/output_inception_4c/output_0_split_2
I0826 22:19:53.793531 99815 net.cpp:408] inception_4c/output_inception_4c/output_0_split -> inception_4c/output_inception_4c/output_0_split_3
I0826 22:19:53.793650 99815 net.cpp:150] Setting up inception_4c/output_inception_4c/output_0_split
I0826 22:19:53.793673 99815 net.cpp:157] Top shape: 64 512 8 8 (2097152)
I0826 22:19:53.793689 99815 net.cpp:157] Top shape: 64 512 8 8 (2097152)
I0826 22:19:53.793704 99815 net.cpp:157] Top shape: 64 512 8 8 (2097152)
I0826 22:19:53.793720 99815 net.cpp:157] Top shape: 64 512 8 8 (2097152)
I0826 22:19:53.793732 99815 net.cpp:165] Memory required for data: 958400004
I0826 22:19:53.793750 99815 layer_factory.hpp:77] Creating layer inception_4d/1x1
I0826 22:19:53.793776 99815 net.cpp:100] Creating Layer inception_4d/1x1
I0826 22:19:53.793793 99815 net.cpp:434] inception_4d/1x1 <- inception_4c/output_inception_4c/output_0_split_0
I0826 22:19:53.793815 99815 net.cpp:408] inception_4d/1x1 -> inception_4d/1x1
I0826 22:19:53.800441 99815 net.cpp:150] Setting up inception_4d/1x1
I0826 22:19:53.800484 99815 net.cpp:157] Top shape: 64 112 8 8 (458752)
I0826 22:19:53.800500 99815 net.cpp:165] Memory required for data: 960235012
I0826 22:19:53.800520 99815 layer_factory.hpp:77] Creating layer inception_4d/relu_1x1
I0826 22:19:53.800541 99815 net.cpp:100] Creating Layer inception_4d/relu_1x1
I0826 22:19:53.800557 99815 net.cpp:434] inception_4d/relu_1x1 <- inception_4d/1x1
I0826 22:19:53.800582 99815 net.cpp:395] inception_4d/relu_1x1 -> inception_4d/1x1 (in-place)
I0826 22:19:53.802187 99815 net.cpp:150] Setting up inception_4d/relu_1x1
I0826 22:19:53.802213 99815 net.cpp:157] Top shape: 64 112 8 8 (458752)
I0826 22:19:53.802228 99815 net.cpp:165] Memory required for data: 962070020
I0826 22:19:53.802244 99815 layer_factory.hpp:77] Creating layer inception_4d/3x3_reduce
I0826 22:19:53.802271 99815 net.cpp:100] Creating Layer inception_4d/3x3_reduce
I0826 22:19:53.802291 99815 net.cpp:434] inception_4d/3x3_reduce <- inception_4c/output_inception_4c/output_0_split_1
I0826 22:19:53.802311 99815 net.cpp:408] inception_4d/3x3_reduce -> inception_4d/3x3_reduce
I0826 22:19:53.805781 99815 net.cpp:150] Setting up inception_4d/3x3_reduce
I0826 22:19:53.805814 99815 net.cpp:157] Top shape: 64 144 8 8 (589824)
I0826 22:19:53.805830 99815 net.cpp:165] Memory required for data: 964429316
I0826 22:19:53.805848 99815 layer_factory.hpp:77] Creating layer inception_4d/relu_3x3_reduce
I0826 22:19:53.805873 99815 net.cpp:100] Creating Layer inception_4d/relu_3x3_reduce
I0826 22:19:53.805889 99815 net.cpp:434] inception_4d/relu_3x3_reduce <- inception_4d/3x3_reduce
I0826 22:19:53.805907 99815 net.cpp:395] inception_4d/relu_3x3_reduce -> inception_4d/3x3_reduce (in-place)
I0826 22:19:53.806381 99815 net.cpp:150] Setting up inception_4d/relu_3x3_reduce
I0826 22:19:53.806427 99815 net.cpp:157] Top shape: 64 144 8 8 (589824)
I0826 22:19:53.806442 99815 net.cpp:165] Memory required for data: 966788612
I0826 22:19:53.806457 99815 layer_factory.hpp:77] Creating layer inception_4d/3x3
I0826 22:19:53.806489 99815 net.cpp:100] Creating Layer inception_4d/3x3
I0826 22:19:53.806509 99815 net.cpp:434] inception_4d/3x3 <- inception_4d/3x3_reduce
I0826 22:19:53.806527 99815 net.cpp:408] inception_4d/3x3 -> inception_4d/3x3
I0826 22:19:53.816128 99815 net.cpp:150] Setting up inception_4d/3x3
I0826 22:19:53.816164 99815 net.cpp:157] Top shape: 64 288 8 8 (1179648)
I0826 22:19:53.816182 99815 net.cpp:165] Memory required for data: 971507204
I0826 22:19:53.816205 99815 layer_factory.hpp:77] Creating layer inception_4d/relu_3x3
I0826 22:19:53.816226 99815 net.cpp:100] Creating Layer inception_4d/relu_3x3
I0826 22:19:53.816254 99815 net.cpp:434] inception_4d/relu_3x3 <- inception_4d/3x3
I0826 22:19:53.816277 99815 net.cpp:395] inception_4d/relu_3x3 -> inception_4d/3x3 (in-place)
I0826 22:19:53.817064 99815 net.cpp:150] Setting up inception_4d/relu_3x3
I0826 22:19:53.817101 99815 net.cpp:157] Top shape: 64 288 8 8 (1179648)
I0826 22:19:53.817121 99815 net.cpp:165] Memory required for data: 976225796
I0826 22:19:53.817137 99815 layer_factory.hpp:77] Creating layer inception_4d/5x5_reduce
I0826 22:19:53.817164 99815 net.cpp:100] Creating Layer inception_4d/5x5_reduce
I0826 22:19:53.817191 99815 net.cpp:434] inception_4d/5x5_reduce <- inception_4c/output_inception_4c/output_0_split_2
I0826 22:19:53.817216 99815 net.cpp:408] inception_4d/5x5_reduce -> inception_4d/5x5_reduce
I0826 22:19:53.823756 99815 net.cpp:150] Setting up inception_4d/5x5_reduce
I0826 22:19:53.823788 99815 net.cpp:157] Top shape: 64 32 8 8 (131072)
I0826 22:19:53.823803 99815 net.cpp:165] Memory required for data: 976750084
I0826 22:19:53.823825 99815 layer_factory.hpp:77] Creating layer inception_4d/relu_5x5_reduce
I0826 22:19:53.823849 99815 net.cpp:100] Creating Layer inception_4d/relu_5x5_reduce
I0826 22:19:53.823868 99815 net.cpp:434] inception_4d/relu_5x5_reduce <- inception_4d/5x5_reduce
I0826 22:19:53.823889 99815 net.cpp:395] inception_4d/relu_5x5_reduce -> inception_4d/5x5_reduce (in-place)
I0826 22:19:53.824759 99815 net.cpp:150] Setting up inception_4d/relu_5x5_reduce
I0826 22:19:53.824786 99815 net.cpp:157] Top shape: 64 32 8 8 (131072)
I0826 22:19:53.824800 99815 net.cpp:165] Memory required for data: 977274372
I0826 22:19:53.824817 99815 layer_factory.hpp:77] Creating layer inception_4d/5x5
I0826 22:19:53.824842 99815 net.cpp:100] Creating Layer inception_4d/5x5
I0826 22:19:53.824859 99815 net.cpp:434] inception_4d/5x5 <- inception_4d/5x5_reduce
I0826 22:19:53.824882 99815 net.cpp:408] inception_4d/5x5 -> inception_4d/5x5
I0826 22:19:53.831033 99815 net.cpp:150] Setting up inception_4d/5x5
I0826 22:19:53.831068 99815 net.cpp:157] Top shape: 64 64 8 8 (262144)
I0826 22:19:53.831082 99815 net.cpp:165] Memory required for data: 978322948
I0826 22:19:53.831102 99815 layer_factory.hpp:77] Creating layer inception_4d/relu_5x5
I0826 22:19:53.831128 99815 net.cpp:100] Creating Layer inception_4d/relu_5x5
I0826 22:19:53.831145 99815 net.cpp:434] inception_4d/relu_5x5 <- inception_4d/5x5
I0826 22:19:53.831162 99815 net.cpp:395] inception_4d/relu_5x5 -> inception_4d/5x5 (in-place)
I0826 22:19:53.833470 99815 net.cpp:150] Setting up inception_4d/relu_5x5
I0826 22:19:53.833501 99815 net.cpp:157] Top shape: 64 64 8 8 (262144)
I0826 22:19:53.833515 99815 net.cpp:165] Memory required for data: 979371524
I0826 22:19:53.833530 99815 layer_factory.hpp:77] Creating layer inception_4d/pool
I0826 22:19:53.833557 99815 net.cpp:100] Creating Layer inception_4d/pool
I0826 22:19:53.833573 99815 net.cpp:434] inception_4d/pool <- inception_4c/output_inception_4c/output_0_split_3
I0826 22:19:53.833597 99815 net.cpp:408] inception_4d/pool -> inception_4d/pool
I0826 22:19:53.833688 99815 net.cpp:150] Setting up inception_4d/pool
I0826 22:19:53.833710 99815 net.cpp:157] Top shape: 64 512 8 8 (2097152)
I0826 22:19:53.833724 99815 net.cpp:165] Memory required for data: 987760132
I0826 22:19:53.833765 99815 layer_factory.hpp:77] Creating layer inception_4d/pool_proj
I0826 22:19:53.833791 99815 net.cpp:100] Creating Layer inception_4d/pool_proj
I0826 22:19:53.833807 99815 net.cpp:434] inception_4d/pool_proj <- inception_4d/pool
I0826 22:19:53.833830 99815 net.cpp:408] inception_4d/pool_proj -> inception_4d/pool_proj
I0826 22:19:53.839077 99815 net.cpp:150] Setting up inception_4d/pool_proj
I0826 22:19:53.839112 99815 net.cpp:157] Top shape: 64 64 8 8 (262144)
I0826 22:19:53.839148 99815 net.cpp:165] Memory required for data: 988808708
I0826 22:19:53.839169 99815 layer_factory.hpp:77] Creating layer inception_4d/relu_pool_proj
I0826 22:19:53.839206 99815 net.cpp:100] Creating Layer inception_4d/relu_pool_proj
I0826 22:19:53.839246 99815 net.cpp:434] inception_4d/relu_pool_proj <- inception_4d/pool_proj
I0826 22:19:53.839287 99815 net.cpp:395] inception_4d/relu_pool_proj -> inception_4d/pool_proj (in-place)
I0826 22:19:53.840415 99815 net.cpp:150] Setting up inception_4d/relu_pool_proj
I0826 22:19:53.840457 99815 net.cpp:157] Top shape: 64 64 8 8 (262144)
I0826 22:19:53.840481 99815 net.cpp:165] Memory required for data: 989857284
I0826 22:19:53.840505 99815 layer_factory.hpp:77] Creating layer inception_4d/output
I0826 22:19:53.840541 99815 net.cpp:100] Creating Layer inception_4d/output
I0826 22:19:53.840561 99815 net.cpp:434] inception_4d/output <- inception_4d/1x1
I0826 22:19:53.840579 99815 net.cpp:434] inception_4d/output <- inception_4d/3x3
I0826 22:19:53.840595 99815 net.cpp:434] inception_4d/output <- inception_4d/5x5
I0826 22:19:53.840615 99815 net.cpp:434] inception_4d/output <- inception_4d/pool_proj
I0826 22:19:53.840634 99815 net.cpp:408] inception_4d/output -> inception_4d/output
I0826 22:19:53.840700 99815 net.cpp:150] Setting up inception_4d/output
I0826 22:19:53.840721 99815 net.cpp:157] Top shape: 64 528 8 8 (2162688)
I0826 22:19:53.840735 99815 net.cpp:165] Memory required for data: 998508036
I0826 22:19:53.840750 99815 layer_factory.hpp:77] Creating layer inception_4d/output_inception_4d/output_0_split
I0826 22:19:53.840769 99815 net.cpp:100] Creating Layer inception_4d/output_inception_4d/output_0_split
I0826 22:19:53.840782 99815 net.cpp:434] inception_4d/output_inception_4d/output_0_split <- inception_4d/output
I0826 22:19:53.840802 99815 net.cpp:408] inception_4d/output_inception_4d/output_0_split -> inception_4d/output_inception_4d/output_0_split_0
I0826 22:19:53.840821 99815 net.cpp:408] inception_4d/output_inception_4d/output_0_split -> inception_4d/output_inception_4d/output_0_split_1
I0826 22:19:53.840842 99815 net.cpp:408] inception_4d/output_inception_4d/output_0_split -> inception_4d/output_inception_4d/output_0_split_2
I0826 22:19:53.840858 99815 net.cpp:408] inception_4d/output_inception_4d/output_0_split -> inception_4d/output_inception_4d/output_0_split_3
I0826 22:19:53.840874 99815 net.cpp:408] inception_4d/output_inception_4d/output_0_split -> inception_4d/output_inception_4d/output_0_split_4
I0826 22:19:53.841019 99815 net.cpp:150] Setting up inception_4d/output_inception_4d/output_0_split
I0826 22:19:53.841042 99815 net.cpp:157] Top shape: 64 528 8 8 (2162688)
I0826 22:19:53.841056 99815 net.cpp:157] Top shape: 64 528 8 8 (2162688)
I0826 22:19:53.841070 99815 net.cpp:157] Top shape: 64 528 8 8 (2162688)
I0826 22:19:53.841084 99815 net.cpp:157] Top shape: 64 528 8 8 (2162688)
I0826 22:19:53.841099 99815 net.cpp:157] Top shape: 64 528 8 8 (2162688)
I0826 22:19:53.841111 99815 net.cpp:165] Memory required for data: 1041761796
I0826 22:19:53.841126 99815 layer_factory.hpp:77] Creating layer loss2/ave_pool
I0826 22:19:53.841147 99815 net.cpp:100] Creating Layer loss2/ave_pool
I0826 22:19:53.841161 99815 net.cpp:434] loss2/ave_pool <- inception_4d/output_inception_4d/output_0_split_0
I0826 22:19:53.841181 99815 net.cpp:408] loss2/ave_pool -> loss2/ave_pool
I0826 22:19:53.842582 99815 net.cpp:150] Setting up loss2/ave_pool
I0826 22:19:53.842612 99815 net.cpp:157] Top shape: 64 528 2 2 (135168)
I0826 22:19:53.842634 99815 net.cpp:165] Memory required for data: 1042302468
I0826 22:19:53.842679 99815 layer_factory.hpp:77] Creating layer loss2/conv
I0826 22:19:53.842705 99815 net.cpp:100] Creating Layer loss2/conv
I0826 22:19:53.842722 99815 net.cpp:434] loss2/conv <- loss2/ave_pool
I0826 22:19:53.842746 99815 net.cpp:408] loss2/conv -> loss2/conv
I0826 22:19:53.846909 99815 net.cpp:150] Setting up loss2/conv
I0826 22:19:53.846945 99815 net.cpp:157] Top shape: 64 128 2 2 (32768)
I0826 22:19:53.846962 99815 net.cpp:165] Memory required for data: 1042433540
I0826 22:19:53.846987 99815 layer_factory.hpp:77] Creating layer loss2/relu_conv
I0826 22:19:53.847018 99815 net.cpp:100] Creating Layer loss2/relu_conv
I0826 22:19:53.847038 99815 net.cpp:434] loss2/relu_conv <- loss2/conv
I0826 22:19:53.847056 99815 net.cpp:395] loss2/relu_conv -> loss2/conv (in-place)
I0826 22:19:53.849113 99815 net.cpp:150] Setting up loss2/relu_conv
I0826 22:19:53.849148 99815 net.cpp:157] Top shape: 64 128 2 2 (32768)
I0826 22:19:53.849164 99815 net.cpp:165] Memory required for data: 1042564612
I0826 22:19:53.849181 99815 layer_factory.hpp:77] Creating layer loss2/fc
I0826 22:19:53.849213 99815 net.cpp:100] Creating Layer loss2/fc
I0826 22:19:53.849233 99815 net.cpp:434] loss2/fc <- loss2/conv
I0826 22:19:53.849261 99815 net.cpp:408] loss2/fc -> loss2/fc
I0826 22:19:53.860460 99815 net.cpp:150] Setting up loss2/fc
I0826 22:19:53.860497 99815 net.cpp:157] Top shape: 64 1024 (65536)
I0826 22:19:53.860512 99815 net.cpp:165] Memory required for data: 1042826756
I0826 22:19:53.860538 99815 layer_factory.hpp:77] Creating layer loss2/relu_fc
I0826 22:19:53.860561 99815 net.cpp:100] Creating Layer loss2/relu_fc
I0826 22:19:53.860580 99815 net.cpp:434] loss2/relu_fc <- loss2/fc
I0826 22:19:53.860601 99815 net.cpp:395] loss2/relu_fc -> loss2/fc (in-place)
I0826 22:19:53.866861 99815 net.cpp:150] Setting up loss2/relu_fc
I0826 22:19:53.866894 99815 net.cpp:157] Top shape: 64 1024 (65536)
I0826 22:19:53.866909 99815 net.cpp:165] Memory required for data: 1043088900
I0826 22:19:53.866925 99815 layer_factory.hpp:77] Creating layer loss2/drop_fc
I0826 22:19:53.866946 99815 net.cpp:100] Creating Layer loss2/drop_fc
I0826 22:19:53.866961 99815 net.cpp:434] loss2/drop_fc <- loss2/fc
I0826 22:19:53.866977 99815 net.cpp:395] loss2/drop_fc -> loss2/fc (in-place)
I0826 22:19:53.867039 99815 net.cpp:150] Setting up loss2/drop_fc
I0826 22:19:53.867060 99815 net.cpp:157] Top shape: 64 1024 (65536)
I0826 22:19:53.867072 99815 net.cpp:165] Memory required for data: 1043351044
I0826 22:19:53.867089 99815 layer_factory.hpp:77] Creating layer loss2/classifier
I0826 22:19:53.867110 99815 net.cpp:100] Creating Layer loss2/classifier
I0826 22:19:53.867125 99815 net.cpp:434] loss2/classifier <- loss2/fc
I0826 22:19:53.867146 99815 net.cpp:408] loss2/classifier -> loss2/classifier
I0826 22:19:53.867374 99815 net.cpp:150] Setting up loss2/classifier
I0826 22:19:53.867398 99815 net.cpp:157] Top shape: 64 2 (128)
I0826 22:19:53.867411 99815 net.cpp:165] Memory required for data: 1043351556
I0826 22:19:53.867434 99815 layer_factory.hpp:77] Creating layer loss2/loss
I0826 22:19:53.867456 99815 net.cpp:100] Creating Layer loss2/loss
I0826 22:19:53.867475 99815 net.cpp:434] loss2/loss <- loss2/classifier
I0826 22:19:53.867491 99815 net.cpp:434] loss2/loss <- label_data_1_split_1
I0826 22:19:53.867511 99815 net.cpp:408] loss2/loss -> loss2/loss1
I0826 22:19:53.867532 99815 layer_factory.hpp:77] Creating layer loss2/loss
I0826 22:19:53.868692 99815 net.cpp:150] Setting up loss2/loss
I0826 22:19:53.868718 99815 net.cpp:157] Top shape: (1)
I0826 22:19:53.868733 99815 net.cpp:160]     with loss weight 0.3
I0826 22:19:53.868752 99815 net.cpp:165] Memory required for data: 1043351560
I0826 22:19:53.868768 99815 layer_factory.hpp:77] Creating layer inception_4e/1x1
I0826 22:19:53.868801 99815 net.cpp:100] Creating Layer inception_4e/1x1
I0826 22:19:53.868818 99815 net.cpp:434] inception_4e/1x1 <- inception_4d/output_inception_4d/output_0_split_1
I0826 22:19:53.868840 99815 net.cpp:408] inception_4e/1x1 -> inception_4e/1x1
I0826 22:19:53.885473 99815 net.cpp:150] Setting up inception_4e/1x1
I0826 22:19:53.885510 99815 net.cpp:157] Top shape: 64 256 8 8 (1048576)
I0826 22:19:53.885525 99815 net.cpp:165] Memory required for data: 1047545864
I0826 22:19:53.885545 99815 layer_factory.hpp:77] Creating layer inception_4e/relu_1x1
I0826 22:19:53.885571 99815 net.cpp:100] Creating Layer inception_4e/relu_1x1
I0826 22:19:53.885586 99815 net.cpp:434] inception_4e/relu_1x1 <- inception_4e/1x1
I0826 22:19:53.885608 99815 net.cpp:395] inception_4e/relu_1x1 -> inception_4e/1x1 (in-place)
I0826 22:19:53.886852 99815 net.cpp:150] Setting up inception_4e/relu_1x1
I0826 22:19:53.886883 99815 net.cpp:157] Top shape: 64 256 8 8 (1048576)
I0826 22:19:53.886898 99815 net.cpp:165] Memory required for data: 1051740168
I0826 22:19:53.886914 99815 layer_factory.hpp:77] Creating layer inception_4e/3x3_reduce
I0826 22:19:53.886940 99815 net.cpp:100] Creating Layer inception_4e/3x3_reduce
I0826 22:19:53.886957 99815 net.cpp:434] inception_4e/3x3_reduce <- inception_4d/output_inception_4d/output_0_split_2
I0826 22:19:53.886986 99815 net.cpp:408] inception_4e/3x3_reduce -> inception_4e/3x3_reduce
I0826 22:19:53.901374 99815 net.cpp:150] Setting up inception_4e/3x3_reduce
I0826 22:19:53.901414 99815 net.cpp:157] Top shape: 64 160 8 8 (655360)
I0826 22:19:53.901430 99815 net.cpp:165] Memory required for data: 1054361608
I0826 22:19:53.901450 99815 layer_factory.hpp:77] Creating layer inception_4e/relu_3x3_reduce
I0826 22:19:53.901476 99815 net.cpp:100] Creating Layer inception_4e/relu_3x3_reduce
I0826 22:19:53.901497 99815 net.cpp:434] inception_4e/relu_3x3_reduce <- inception_4e/3x3_reduce
I0826 22:19:53.901520 99815 net.cpp:395] inception_4e/relu_3x3_reduce -> inception_4e/3x3_reduce (in-place)
I0826 22:19:53.903604 99815 net.cpp:150] Setting up inception_4e/relu_3x3_reduce
I0826 22:19:53.903637 99815 net.cpp:157] Top shape: 64 160 8 8 (655360)
I0826 22:19:53.903652 99815 net.cpp:165] Memory required for data: 1056983048
I0826 22:19:53.903667 99815 layer_factory.hpp:77] Creating layer inception_4e/3x3
I0826 22:19:53.903697 99815 net.cpp:100] Creating Layer inception_4e/3x3
I0826 22:19:53.903713 99815 net.cpp:434] inception_4e/3x3 <- inception_4e/3x3_reduce
I0826 22:19:53.903736 99815 net.cpp:408] inception_4e/3x3 -> inception_4e/3x3
I0826 22:19:53.914050 99815 net.cpp:150] Setting up inception_4e/3x3
I0826 22:19:53.914086 99815 net.cpp:157] Top shape: 64 320 8 8 (1310720)
I0826 22:19:53.914101 99815 net.cpp:165] Memory required for data: 1062225928
I0826 22:19:53.914122 99815 layer_factory.hpp:77] Creating layer inception_4e/relu_3x3
I0826 22:19:53.914152 99815 net.cpp:100] Creating Layer inception_4e/relu_3x3
I0826 22:19:53.914170 99815 net.cpp:434] inception_4e/relu_3x3 <- inception_4e/3x3
I0826 22:19:53.914194 99815 net.cpp:395] inception_4e/relu_3x3 -> inception_4e/3x3 (in-place)
I0826 22:19:53.916436 99815 net.cpp:150] Setting up inception_4e/relu_3x3
I0826 22:19:53.916470 99815 net.cpp:157] Top shape: 64 320 8 8 (1310720)
I0826 22:19:53.916484 99815 net.cpp:165] Memory required for data: 1067468808
I0826 22:19:53.916501 99815 layer_factory.hpp:77] Creating layer inception_4e/5x5_reduce
I0826 22:19:53.916533 99815 net.cpp:100] Creating Layer inception_4e/5x5_reduce
I0826 22:19:53.916553 99815 net.cpp:434] inception_4e/5x5_reduce <- inception_4d/output_inception_4d/output_0_split_3
I0826 22:19:53.916573 99815 net.cpp:408] inception_4e/5x5_reduce -> inception_4e/5x5_reduce
I0826 22:19:53.923607 99815 net.cpp:150] Setting up inception_4e/5x5_reduce
I0826 22:19:53.923641 99815 net.cpp:157] Top shape: 64 32 8 8 (131072)
I0826 22:19:53.923656 99815 net.cpp:165] Memory required for data: 1067993096
I0826 22:19:53.923678 99815 layer_factory.hpp:77] Creating layer inception_4e/relu_5x5_reduce
I0826 22:19:53.923705 99815 net.cpp:100] Creating Layer inception_4e/relu_5x5_reduce
I0826 22:19:53.923722 99815 net.cpp:434] inception_4e/relu_5x5_reduce <- inception_4e/5x5_reduce
I0826 22:19:53.923740 99815 net.cpp:395] inception_4e/relu_5x5_reduce -> inception_4e/5x5_reduce (in-place)
I0826 22:19:53.925573 99815 net.cpp:150] Setting up inception_4e/relu_5x5_reduce
I0826 22:19:53.925601 99815 net.cpp:157] Top shape: 64 32 8 8 (131072)
I0826 22:19:53.925614 99815 net.cpp:165] Memory required for data: 1068517384
I0826 22:19:53.925631 99815 layer_factory.hpp:77] Creating layer inception_4e/5x5
I0826 22:19:53.925688 99815 net.cpp:100] Creating Layer inception_4e/5x5
I0826 22:19:53.925707 99815 net.cpp:434] inception_4e/5x5 <- inception_4e/5x5_reduce
I0826 22:19:53.925726 99815 net.cpp:408] inception_4e/5x5 -> inception_4e/5x5
I0826 22:19:53.931538 99815 net.cpp:150] Setting up inception_4e/5x5
I0826 22:19:53.931573 99815 net.cpp:157] Top shape: 64 128 8 8 (524288)
I0826 22:19:53.931589 99815 net.cpp:165] Memory required for data: 1070614536
I0826 22:19:53.931610 99815 layer_factory.hpp:77] Creating layer inception_4e/relu_5x5
I0826 22:19:53.931633 99815 net.cpp:100] Creating Layer inception_4e/relu_5x5
I0826 22:19:53.931649 99815 net.cpp:434] inception_4e/relu_5x5 <- inception_4e/5x5
I0826 22:19:53.931670 99815 net.cpp:395] inception_4e/relu_5x5 -> inception_4e/5x5 (in-place)
I0826 22:19:53.933570 99815 net.cpp:150] Setting up inception_4e/relu_5x5
I0826 22:19:53.933605 99815 net.cpp:157] Top shape: 64 128 8 8 (524288)
I0826 22:19:53.933621 99815 net.cpp:165] Memory required for data: 1072711688
I0826 22:19:53.933637 99815 layer_factory.hpp:77] Creating layer inception_4e/pool
I0826 22:19:53.933660 99815 net.cpp:100] Creating Layer inception_4e/pool
I0826 22:19:53.933679 99815 net.cpp:434] inception_4e/pool <- inception_4d/output_inception_4d/output_0_split_4
I0826 22:19:53.933696 99815 net.cpp:408] inception_4e/pool -> inception_4e/pool
I0826 22:19:53.933791 99815 net.cpp:150] Setting up inception_4e/pool
I0826 22:19:53.933815 99815 net.cpp:157] Top shape: 64 528 8 8 (2162688)
I0826 22:19:53.933827 99815 net.cpp:165] Memory required for data: 1081362440
I0826 22:19:53.933846 99815 layer_factory.hpp:77] Creating layer inception_4e/pool_proj
I0826 22:19:53.933874 99815 net.cpp:100] Creating Layer inception_4e/pool_proj
I0826 22:19:53.933890 99815 net.cpp:434] inception_4e/pool_proj <- inception_4e/pool
I0826 22:19:53.933924 99815 net.cpp:408] inception_4e/pool_proj -> inception_4e/pool_proj
I0826 22:19:53.940531 99815 net.cpp:150] Setting up inception_4e/pool_proj
I0826 22:19:53.940568 99815 net.cpp:157] Top shape: 64 128 8 8 (524288)
I0826 22:19:53.940587 99815 net.cpp:165] Memory required for data: 1083459592
I0826 22:19:53.940610 99815 layer_factory.hpp:77] Creating layer inception_4e/relu_pool_proj
I0826 22:19:53.940630 99815 net.cpp:100] Creating Layer inception_4e/relu_pool_proj
I0826 22:19:53.940649 99815 net.cpp:434] inception_4e/relu_pool_proj <- inception_4e/pool_proj
I0826 22:19:53.940676 99815 net.cpp:395] inception_4e/relu_pool_proj -> inception_4e/pool_proj (in-place)
I0826 22:19:53.942534 99815 net.cpp:150] Setting up inception_4e/relu_pool_proj
I0826 22:19:53.942566 99815 net.cpp:157] Top shape: 64 128 8 8 (524288)
I0826 22:19:53.942585 99815 net.cpp:165] Memory required for data: 1085556744
I0826 22:19:53.942601 99815 layer_factory.hpp:77] Creating layer inception_4e/output
I0826 22:19:53.942626 99815 net.cpp:100] Creating Layer inception_4e/output
I0826 22:19:53.942653 99815 net.cpp:434] inception_4e/output <- inception_4e/1x1
I0826 22:19:53.942669 99815 net.cpp:434] inception_4e/output <- inception_4e/3x3
I0826 22:19:53.942688 99815 net.cpp:434] inception_4e/output <- inception_4e/5x5
I0826 22:19:53.942703 99815 net.cpp:434] inception_4e/output <- inception_4e/pool_proj
I0826 22:19:53.942720 99815 net.cpp:408] inception_4e/output -> inception_4e/output
I0826 22:19:53.942786 99815 net.cpp:150] Setting up inception_4e/output
I0826 22:19:53.942814 99815 net.cpp:157] Top shape: 64 832 8 8 (3407872)
I0826 22:19:53.942828 99815 net.cpp:165] Memory required for data: 1099188232
I0826 22:19:53.942847 99815 layer_factory.hpp:77] Creating layer pool4/3x3_s2
I0826 22:19:53.942864 99815 net.cpp:100] Creating Layer pool4/3x3_s2
I0826 22:19:53.942879 99815 net.cpp:434] pool4/3x3_s2 <- inception_4e/output
I0826 22:19:53.942922 99815 net.cpp:408] pool4/3x3_s2 -> pool4/3x3_s2
I0826 22:19:53.943009 99815 net.cpp:150] Setting up pool4/3x3_s2
I0826 22:19:53.943032 99815 net.cpp:157] Top shape: 64 832 4 4 (851968)
I0826 22:19:53.943044 99815 net.cpp:165] Memory required for data: 1102596104
I0826 22:19:53.943061 99815 layer_factory.hpp:77] Creating layer pool4/3x3_s2_pool4/3x3_s2_0_split
I0826 22:19:53.943084 99815 net.cpp:100] Creating Layer pool4/3x3_s2_pool4/3x3_s2_0_split
I0826 22:19:53.943101 99815 net.cpp:434] pool4/3x3_s2_pool4/3x3_s2_0_split <- pool4/3x3_s2
I0826 22:19:53.943119 99815 net.cpp:408] pool4/3x3_s2_pool4/3x3_s2_0_split -> pool4/3x3_s2_pool4/3x3_s2_0_split_0
I0826 22:19:53.943145 99815 net.cpp:408] pool4/3x3_s2_pool4/3x3_s2_0_split -> pool4/3x3_s2_pool4/3x3_s2_0_split_1
I0826 22:19:53.943171 99815 net.cpp:408] pool4/3x3_s2_pool4/3x3_s2_0_split -> pool4/3x3_s2_pool4/3x3_s2_0_split_2
I0826 22:19:53.943192 99815 net.cpp:408] pool4/3x3_s2_pool4/3x3_s2_0_split -> pool4/3x3_s2_pool4/3x3_s2_0_split_3
I0826 22:19:53.943347 99815 net.cpp:150] Setting up pool4/3x3_s2_pool4/3x3_s2_0_split
I0826 22:19:53.943374 99815 net.cpp:157] Top shape: 64 832 4 4 (851968)
I0826 22:19:53.943392 99815 net.cpp:157] Top shape: 64 832 4 4 (851968)
I0826 22:19:53.943410 99815 net.cpp:157] Top shape: 64 832 4 4 (851968)
I0826 22:19:53.943428 99815 net.cpp:157] Top shape: 64 832 4 4 (851968)
I0826 22:19:53.943440 99815 net.cpp:165] Memory required for data: 1116227592
I0826 22:19:53.943454 99815 layer_factory.hpp:77] Creating layer inception_5a/1x1
I0826 22:19:53.943483 99815 net.cpp:100] Creating Layer inception_5a/1x1
I0826 22:19:53.943500 99815 net.cpp:434] inception_5a/1x1 <- pool4/3x3_s2_pool4/3x3_s2_0_split_0
I0826 22:19:53.943522 99815 net.cpp:408] inception_5a/1x1 -> inception_5a/1x1
I0826 22:19:53.952255 99815 net.cpp:150] Setting up inception_5a/1x1
I0826 22:19:53.952306 99815 net.cpp:157] Top shape: 64 256 4 4 (262144)
I0826 22:19:53.952322 99815 net.cpp:165] Memory required for data: 1117276168
I0826 22:19:53.952342 99815 layer_factory.hpp:77] Creating layer inception_5a/relu_1x1
I0826 22:19:53.952363 99815 net.cpp:100] Creating Layer inception_5a/relu_1x1
I0826 22:19:53.952378 99815 net.cpp:434] inception_5a/relu_1x1 <- inception_5a/1x1
I0826 22:19:53.952401 99815 net.cpp:395] inception_5a/relu_1x1 -> inception_5a/1x1 (in-place)
I0826 22:19:53.953948 99815 net.cpp:150] Setting up inception_5a/relu_1x1
I0826 22:19:53.953974 99815 net.cpp:157] Top shape: 64 256 4 4 (262144)
I0826 22:19:53.953987 99815 net.cpp:165] Memory required for data: 1118324744
I0826 22:19:53.954004 99815 layer_factory.hpp:77] Creating layer inception_5a/3x3_reduce
I0826 22:19:53.954032 99815 net.cpp:100] Creating Layer inception_5a/3x3_reduce
I0826 22:19:53.954051 99815 net.cpp:434] inception_5a/3x3_reduce <- pool4/3x3_s2_pool4/3x3_s2_0_split_1
I0826 22:19:53.954071 99815 net.cpp:408] inception_5a/3x3_reduce -> inception_5a/3x3_reduce
I0826 22:19:53.959812 99815 net.cpp:150] Setting up inception_5a/3x3_reduce
I0826 22:19:53.959849 99815 net.cpp:157] Top shape: 64 160 4 4 (163840)
I0826 22:19:53.959866 99815 net.cpp:165] Memory required for data: 1118980104
I0826 22:19:53.959885 99815 layer_factory.hpp:77] Creating layer inception_5a/relu_3x3_reduce
I0826 22:19:53.959903 99815 net.cpp:100] Creating Layer inception_5a/relu_3x3_reduce
I0826 22:19:53.959919 99815 net.cpp:434] inception_5a/relu_3x3_reduce <- inception_5a/3x3_reduce
I0826 22:19:53.959936 99815 net.cpp:395] inception_5a/relu_3x3_reduce -> inception_5a/3x3_reduce (in-place)
I0826 22:19:53.961916 99815 net.cpp:150] Setting up inception_5a/relu_3x3_reduce
I0826 22:19:53.961947 99815 net.cpp:157] Top shape: 64 160 4 4 (163840)
I0826 22:19:53.961963 99815 net.cpp:165] Memory required for data: 1119635464
I0826 22:19:53.961979 99815 layer_factory.hpp:77] Creating layer inception_5a/3x3
I0826 22:19:53.962007 99815 net.cpp:100] Creating Layer inception_5a/3x3
I0826 22:19:53.962023 99815 net.cpp:434] inception_5a/3x3 <- inception_5a/3x3_reduce
I0826 22:19:53.962044 99815 net.cpp:408] inception_5a/3x3 -> inception_5a/3x3
I0826 22:19:53.972576 99815 net.cpp:150] Setting up inception_5a/3x3
I0826 22:19:53.972616 99815 net.cpp:157] Top shape: 64 320 4 4 (327680)
I0826 22:19:53.972637 99815 net.cpp:165] Memory required for data: 1120946184
I0826 22:19:53.972659 99815 layer_factory.hpp:77] Creating layer inception_5a/relu_3x3
I0826 22:19:53.972686 99815 net.cpp:100] Creating Layer inception_5a/relu_3x3
I0826 22:19:53.972710 99815 net.cpp:434] inception_5a/relu_3x3 <- inception_5a/3x3
I0826 22:19:53.972740 99815 net.cpp:395] inception_5a/relu_3x3 -> inception_5a/3x3 (in-place)
I0826 22:19:53.974454 99815 net.cpp:150] Setting up inception_5a/relu_3x3
I0826 22:19:53.974493 99815 net.cpp:157] Top shape: 64 320 4 4 (327680)
I0826 22:19:53.974510 99815 net.cpp:165] Memory required for data: 1122256904
I0826 22:19:53.974531 99815 layer_factory.hpp:77] Creating layer inception_5a/5x5_reduce
I0826 22:19:53.974565 99815 net.cpp:100] Creating Layer inception_5a/5x5_reduce
I0826 22:19:53.974586 99815 net.cpp:434] inception_5a/5x5_reduce <- pool4/3x3_s2_pool4/3x3_s2_0_split_2
I0826 22:19:53.974611 99815 net.cpp:408] inception_5a/5x5_reduce -> inception_5a/5x5_reduce
I0826 22:19:53.981181 99815 net.cpp:150] Setting up inception_5a/5x5_reduce
I0826 22:19:53.981216 99815 net.cpp:157] Top shape: 64 32 4 4 (32768)
I0826 22:19:53.981233 99815 net.cpp:165] Memory required for data: 1122387976
I0826 22:19:53.981253 99815 layer_factory.hpp:77] Creating layer inception_5a/relu_5x5_reduce
I0826 22:19:53.981279 99815 net.cpp:100] Creating Layer inception_5a/relu_5x5_reduce
I0826 22:19:53.981297 99815 net.cpp:434] inception_5a/relu_5x5_reduce <- inception_5a/5x5_reduce
I0826 22:19:53.981317 99815 net.cpp:395] inception_5a/relu_5x5_reduce -> inception_5a/5x5_reduce (in-place)
I0826 22:19:53.982821 99815 net.cpp:150] Setting up inception_5a/relu_5x5_reduce
I0826 22:19:53.982851 99815 net.cpp:157] Top shape: 64 32 4 4 (32768)
I0826 22:19:53.982864 99815 net.cpp:165] Memory required for data: 1122519048
I0826 22:19:53.982882 99815 layer_factory.hpp:77] Creating layer inception_5a/5x5
I0826 22:19:53.982908 99815 net.cpp:100] Creating Layer inception_5a/5x5
I0826 22:19:53.982923 99815 net.cpp:434] inception_5a/5x5 <- inception_5a/5x5_reduce
I0826 22:19:53.982949 99815 net.cpp:408] inception_5a/5x5 -> inception_5a/5x5
I0826 22:19:53.989310 99815 net.cpp:150] Setting up inception_5a/5x5
I0826 22:19:53.989346 99815 net.cpp:157] Top shape: 64 128 4 4 (131072)
I0826 22:19:53.989377 99815 net.cpp:165] Memory required for data: 1123043336
I0826 22:19:53.989419 99815 layer_factory.hpp:77] Creating layer inception_5a/relu_5x5
I0826 22:19:53.989456 99815 net.cpp:100] Creating Layer inception_5a/relu_5x5
I0826 22:19:53.989480 99815 net.cpp:434] inception_5a/relu_5x5 <- inception_5a/5x5
I0826 22:19:53.989509 99815 net.cpp:395] inception_5a/relu_5x5 -> inception_5a/5x5 (in-place)
I0826 22:19:53.991231 99815 net.cpp:150] Setting up inception_5a/relu_5x5
I0826 22:19:53.991273 99815 net.cpp:157] Top shape: 64 128 4 4 (131072)
I0826 22:19:53.991291 99815 net.cpp:165] Memory required for data: 1123567624
I0826 22:19:53.991307 99815 layer_factory.hpp:77] Creating layer inception_5a/pool
I0826 22:19:53.991328 99815 net.cpp:100] Creating Layer inception_5a/pool
I0826 22:19:53.991345 99815 net.cpp:434] inception_5a/pool <- pool4/3x3_s2_pool4/3x3_s2_0_split_3
I0826 22:19:53.991369 99815 net.cpp:408] inception_5a/pool -> inception_5a/pool
I0826 22:19:53.991472 99815 net.cpp:150] Setting up inception_5a/pool
I0826 22:19:53.991497 99815 net.cpp:157] Top shape: 64 832 4 4 (851968)
I0826 22:19:53.991510 99815 net.cpp:165] Memory required for data: 1126975496
I0826 22:19:53.991528 99815 layer_factory.hpp:77] Creating layer inception_5a/pool_proj
I0826 22:19:53.991554 99815 net.cpp:100] Creating Layer inception_5a/pool_proj
I0826 22:19:53.991570 99815 net.cpp:434] inception_5a/pool_proj <- inception_5a/pool
I0826 22:19:53.991597 99815 net.cpp:408] inception_5a/pool_proj -> inception_5a/pool_proj
I0826 22:19:53.995391 99815 net.cpp:150] Setting up inception_5a/pool_proj
I0826 22:19:53.995443 99815 net.cpp:157] Top shape: 64 128 4 4 (131072)
I0826 22:19:53.995460 99815 net.cpp:165] Memory required for data: 1127499784
I0826 22:19:53.995482 99815 layer_factory.hpp:77] Creating layer inception_5a/relu_pool_proj
I0826 22:19:53.995499 99815 net.cpp:100] Creating Layer inception_5a/relu_pool_proj
I0826 22:19:53.995515 99815 net.cpp:434] inception_5a/relu_pool_proj <- inception_5a/pool_proj
I0826 22:19:53.995532 99815 net.cpp:395] inception_5a/relu_pool_proj -> inception_5a/pool_proj (in-place)
I0826 22:19:53.995836 99815 net.cpp:150] Setting up inception_5a/relu_pool_proj
I0826 22:19:53.995872 99815 net.cpp:157] Top shape: 64 128 4 4 (131072)
I0826 22:19:53.995887 99815 net.cpp:165] Memory required for data: 1128024072
I0826 22:19:53.995924 99815 layer_factory.hpp:77] Creating layer inception_5a/output
I0826 22:19:53.995968 99815 net.cpp:100] Creating Layer inception_5a/output
I0826 22:19:53.996003 99815 net.cpp:434] inception_5a/output <- inception_5a/1x1
I0826 22:19:53.996040 99815 net.cpp:434] inception_5a/output <- inception_5a/3x3
I0826 22:19:53.996063 99815 net.cpp:434] inception_5a/output <- inception_5a/5x5
I0826 22:19:53.996099 99815 net.cpp:434] inception_5a/output <- inception_5a/pool_proj
I0826 22:19:53.996135 99815 net.cpp:408] inception_5a/output -> inception_5a/output
I0826 22:19:53.996225 99815 net.cpp:150] Setting up inception_5a/output
I0826 22:19:53.996268 99815 net.cpp:157] Top shape: 64 832 4 4 (851968)
I0826 22:19:53.996306 99815 net.cpp:165] Memory required for data: 1131431944
I0826 22:19:53.996343 99815 layer_factory.hpp:77] Creating layer inception_5a/output_inception_5a/output_0_split
I0826 22:19:53.996387 99815 net.cpp:100] Creating Layer inception_5a/output_inception_5a/output_0_split
I0826 22:19:53.996425 99815 net.cpp:434] inception_5a/output_inception_5a/output_0_split <- inception_5a/output
I0826 22:19:53.996464 99815 net.cpp:408] inception_5a/output_inception_5a/output_0_split -> inception_5a/output_inception_5a/output_0_split_0
I0826 22:19:53.996507 99815 net.cpp:408] inception_5a/output_inception_5a/output_0_split -> inception_5a/output_inception_5a/output_0_split_1
I0826 22:19:53.996551 99815 net.cpp:408] inception_5a/output_inception_5a/output_0_split -> inception_5a/output_inception_5a/output_0_split_2
I0826 22:19:53.996593 99815 net.cpp:408] inception_5a/output_inception_5a/output_0_split -> inception_5a/output_inception_5a/output_0_split_3
I0826 22:19:53.996753 99815 net.cpp:150] Setting up inception_5a/output_inception_5a/output_0_split
I0826 22:19:53.996795 99815 net.cpp:157] Top shape: 64 832 4 4 (851968)
I0826 22:19:53.996832 99815 net.cpp:157] Top shape: 64 832 4 4 (851968)
I0826 22:19:53.996873 99815 net.cpp:157] Top shape: 64 832 4 4 (851968)
I0826 22:19:53.996912 99815 net.cpp:157] Top shape: 64 832 4 4 (851968)
I0826 22:19:53.996945 99815 net.cpp:165] Memory required for data: 1145063432
I0826 22:19:53.996963 99815 layer_factory.hpp:77] Creating layer inception_5b/1x1
I0826 22:19:53.997015 99815 net.cpp:100] Creating Layer inception_5b/1x1
I0826 22:19:53.997052 99815 net.cpp:434] inception_5b/1x1 <- inception_5a/output_inception_5a/output_0_split_0
I0826 22:19:53.997097 99815 net.cpp:408] inception_5b/1x1 -> inception_5b/1x1
I0826 22:19:54.006817 99815 net.cpp:150] Setting up inception_5b/1x1
I0826 22:19:54.006855 99815 net.cpp:157] Top shape: 64 384 4 4 (393216)
I0826 22:19:54.006875 99815 net.cpp:165] Memory required for data: 1146636296
I0826 22:19:54.006897 99815 layer_factory.hpp:77] Creating layer inception_5b/relu_1x1
I0826 22:19:54.006922 99815 net.cpp:100] Creating Layer inception_5b/relu_1x1
I0826 22:19:54.006942 99815 net.cpp:434] inception_5b/relu_1x1 <- inception_5b/1x1
I0826 22:19:54.006963 99815 net.cpp:395] inception_5b/relu_1x1 -> inception_5b/1x1 (in-place)
I0826 22:19:54.008858 99815 net.cpp:150] Setting up inception_5b/relu_1x1
I0826 22:19:54.008890 99815 net.cpp:157] Top shape: 64 384 4 4 (393216)
I0826 22:19:54.008905 99815 net.cpp:165] Memory required for data: 1148209160
I0826 22:19:54.008922 99815 layer_factory.hpp:77] Creating layer inception_5b/3x3_reduce
I0826 22:19:54.008970 99815 net.cpp:100] Creating Layer inception_5b/3x3_reduce
I0826 22:19:54.008991 99815 net.cpp:434] inception_5b/3x3_reduce <- inception_5a/output_inception_5a/output_0_split_1
I0826 22:19:54.009016 99815 net.cpp:408] inception_5b/3x3_reduce -> inception_5b/3x3_reduce
I0826 22:19:54.016898 99815 net.cpp:150] Setting up inception_5b/3x3_reduce
I0826 22:19:54.016933 99815 net.cpp:157] Top shape: 64 192 4 4 (196608)
I0826 22:19:54.016948 99815 net.cpp:165] Memory required for data: 1148995592
I0826 22:19:54.016971 99815 layer_factory.hpp:77] Creating layer inception_5b/relu_3x3_reduce
I0826 22:19:54.016996 99815 net.cpp:100] Creating Layer inception_5b/relu_3x3_reduce
I0826 22:19:54.017014 99815 net.cpp:434] inception_5b/relu_3x3_reduce <- inception_5b/3x3_reduce
I0826 22:19:54.017046 99815 net.cpp:395] inception_5b/relu_3x3_reduce -> inception_5b/3x3_reduce (in-place)
I0826 22:19:54.018937 99815 net.cpp:150] Setting up inception_5b/relu_3x3_reduce
I0826 22:19:54.018970 99815 net.cpp:157] Top shape: 64 192 4 4 (196608)
I0826 22:19:54.018985 99815 net.cpp:165] Memory required for data: 1149782024
I0826 22:19:54.019001 99815 layer_factory.hpp:77] Creating layer inception_5b/3x3
I0826 22:19:54.019028 99815 net.cpp:100] Creating Layer inception_5b/3x3
I0826 22:19:54.019045 99815 net.cpp:434] inception_5b/3x3 <- inception_5b/3x3_reduce
I0826 22:19:54.019069 99815 net.cpp:408] inception_5b/3x3 -> inception_5b/3x3
I0826 22:19:54.033077 99815 net.cpp:150] Setting up inception_5b/3x3
I0826 22:19:54.033135 99815 net.cpp:157] Top shape: 64 384 4 4 (393216)
I0826 22:19:54.033155 99815 net.cpp:165] Memory required for data: 1151354888
I0826 22:19:54.033184 99815 layer_factory.hpp:77] Creating layer inception_5b/relu_3x3
I0826 22:19:54.033216 99815 net.cpp:100] Creating Layer inception_5b/relu_3x3
I0826 22:19:54.033239 99815 net.cpp:434] inception_5b/relu_3x3 <- inception_5b/3x3
I0826 22:19:54.033264 99815 net.cpp:395] inception_5b/relu_3x3 -> inception_5b/3x3 (in-place)
I0826 22:19:54.033993 99815 net.cpp:150] Setting up inception_5b/relu_3x3
I0826 22:19:54.034030 99815 net.cpp:157] Top shape: 64 384 4 4 (393216)
I0826 22:19:54.034047 99815 net.cpp:165] Memory required for data: 1152927752
I0826 22:19:54.034062 99815 layer_factory.hpp:77] Creating layer inception_5b/5x5_reduce
I0826 22:19:54.034092 99815 net.cpp:100] Creating Layer inception_5b/5x5_reduce
I0826 22:19:54.034111 99815 net.cpp:434] inception_5b/5x5_reduce <- inception_5a/output_inception_5a/output_0_split_2
I0826 22:19:54.034132 99815 net.cpp:408] inception_5b/5x5_reduce -> inception_5b/5x5_reduce
I0826 22:19:54.041112 99815 net.cpp:150] Setting up inception_5b/5x5_reduce
I0826 22:19:54.041154 99815 net.cpp:157] Top shape: 64 48 4 4 (49152)
I0826 22:19:54.041175 99815 net.cpp:165] Memory required for data: 1153124360
I0826 22:19:54.041199 99815 layer_factory.hpp:77] Creating layer inception_5b/relu_5x5_reduce
I0826 22:19:54.041224 99815 net.cpp:100] Creating Layer inception_5b/relu_5x5_reduce
I0826 22:19:54.041244 99815 net.cpp:434] inception_5b/relu_5x5_reduce <- inception_5b/5x5_reduce
I0826 22:19:54.041266 99815 net.cpp:395] inception_5b/relu_5x5_reduce -> inception_5b/5x5_reduce (in-place)
I0826 22:19:54.042055 99815 net.cpp:150] Setting up inception_5b/relu_5x5_reduce
I0826 22:19:54.042088 99815 net.cpp:157] Top shape: 64 48 4 4 (49152)
I0826 22:19:54.042103 99815 net.cpp:165] Memory required for data: 1153320968
I0826 22:19:54.042117 99815 layer_factory.hpp:77] Creating layer inception_5b/5x5
I0826 22:19:54.042155 99815 net.cpp:100] Creating Layer inception_5b/5x5
I0826 22:19:54.042176 99815 net.cpp:434] inception_5b/5x5 <- inception_5b/5x5_reduce
I0826 22:19:54.042196 99815 net.cpp:408] inception_5b/5x5 -> inception_5b/5x5
I0826 22:19:54.048442 99815 net.cpp:150] Setting up inception_5b/5x5
I0826 22:19:54.048480 99815 net.cpp:157] Top shape: 64 128 4 4 (131072)
I0826 22:19:54.048499 99815 net.cpp:165] Memory required for data: 1153845256
I0826 22:19:54.048523 99815 layer_factory.hpp:77] Creating layer inception_5b/relu_5x5
I0826 22:19:54.048589 99815 net.cpp:100] Creating Layer inception_5b/relu_5x5
I0826 22:19:54.048610 99815 net.cpp:434] inception_5b/relu_5x5 <- inception_5b/5x5
I0826 22:19:54.048630 99815 net.cpp:395] inception_5b/relu_5x5 -> inception_5b/5x5 (in-place)
I0826 22:19:54.050276 99815 net.cpp:150] Setting up inception_5b/relu_5x5
I0826 22:19:54.050308 99815 net.cpp:157] Top shape: 64 128 4 4 (131072)
I0826 22:19:54.050323 99815 net.cpp:165] Memory required for data: 1154369544
I0826 22:19:54.050338 99815 layer_factory.hpp:77] Creating layer inception_5b/pool
I0826 22:19:54.050361 99815 net.cpp:100] Creating Layer inception_5b/pool
I0826 22:19:54.050379 99815 net.cpp:434] inception_5b/pool <- inception_5a/output_inception_5a/output_0_split_3
I0826 22:19:54.050403 99815 net.cpp:408] inception_5b/pool -> inception_5b/pool
I0826 22:19:54.050504 99815 net.cpp:150] Setting up inception_5b/pool
I0826 22:19:54.050528 99815 net.cpp:157] Top shape: 64 832 4 4 (851968)
I0826 22:19:54.050541 99815 net.cpp:165] Memory required for data: 1157777416
I0826 22:19:54.050559 99815 layer_factory.hpp:77] Creating layer inception_5b/pool_proj
I0826 22:19:54.050593 99815 net.cpp:100] Creating Layer inception_5b/pool_proj
I0826 22:19:54.050612 99815 net.cpp:434] inception_5b/pool_proj <- inception_5b/pool
I0826 22:19:54.050647 99815 net.cpp:408] inception_5b/pool_proj -> inception_5b/pool_proj
I0826 22:19:54.057763 99815 net.cpp:150] Setting up inception_5b/pool_proj
I0826 22:19:54.057803 99815 net.cpp:157] Top shape: 64 128 4 4 (131072)
I0826 22:19:54.057822 99815 net.cpp:165] Memory required for data: 1158301704
I0826 22:19:54.057844 99815 layer_factory.hpp:77] Creating layer inception_5b/relu_pool_proj
I0826 22:19:54.057865 99815 net.cpp:100] Creating Layer inception_5b/relu_pool_proj
I0826 22:19:54.057883 99815 net.cpp:434] inception_5b/relu_pool_proj <- inception_5b/pool_proj
I0826 22:19:54.057907 99815 net.cpp:395] inception_5b/relu_pool_proj -> inception_5b/pool_proj (in-place)
I0826 22:19:54.059743 99815 net.cpp:150] Setting up inception_5b/relu_pool_proj
I0826 22:19:54.059773 99815 net.cpp:157] Top shape: 64 128 4 4 (131072)
I0826 22:19:54.059787 99815 net.cpp:165] Memory required for data: 1158825992
I0826 22:19:54.059806 99815 layer_factory.hpp:77] Creating layer inception_5b/output
I0826 22:19:54.059831 99815 net.cpp:100] Creating Layer inception_5b/output
I0826 22:19:54.059847 99815 net.cpp:434] inception_5b/output <- inception_5b/1x1
I0826 22:19:54.059867 99815 net.cpp:434] inception_5b/output <- inception_5b/3x3
I0826 22:19:54.059883 99815 net.cpp:434] inception_5b/output <- inception_5b/5x5
I0826 22:19:54.059900 99815 net.cpp:434] inception_5b/output <- inception_5b/pool_proj
I0826 22:19:54.059916 99815 net.cpp:408] inception_5b/output -> inception_5b/output
I0826 22:19:54.059994 99815 net.cpp:150] Setting up inception_5b/output
I0826 22:19:54.060016 99815 net.cpp:157] Top shape: 64 1024 4 4 (1048576)
I0826 22:19:54.060029 99815 net.cpp:165] Memory required for data: 1163020296
I0826 22:19:54.060045 99815 layer_factory.hpp:77] Creating layer fc
I0826 22:19:54.060075 99815 net.cpp:100] Creating Layer fc
I0826 22:19:54.060091 99815 net.cpp:434] fc <- inception_5b/output
I0826 22:19:54.060117 99815 net.cpp:408] fc -> fc
I0826 22:19:54.136492 99815 net.cpp:150] Setting up fc
I0826 22:19:54.136561 99815 net.cpp:157] Top shape: 64 256 1 1 (16384)
I0826 22:19:54.136582 99815 net.cpp:165] Memory required for data: 1163085832
I0826 22:19:54.136608 99815 layer_factory.hpp:77] Creating layer drop
I0826 22:19:54.136636 99815 net.cpp:100] Creating Layer drop
I0826 22:19:54.136656 99815 net.cpp:434] drop <- fc
I0826 22:19:54.136677 99815 net.cpp:395] drop -> fc (in-place)
I0826 22:19:54.136759 99815 net.cpp:150] Setting up drop
I0826 22:19:54.136786 99815 net.cpp:157] Top shape: 64 256 1 1 (16384)
I0826 22:19:54.136802 99815 net.cpp:165] Memory required for data: 1163151368
I0826 22:19:54.136819 99815 layer_factory.hpp:77] Creating layer loss3/classifier
I0826 22:19:54.136858 99815 net.cpp:100] Creating Layer loss3/classifier
I0826 22:19:54.136907 99815 net.cpp:434] loss3/classifier <- fc
I0826 22:19:54.136940 99815 net.cpp:408] loss3/classifier -> loss3/classifier
I0826 22:19:54.141945 99815 net.cpp:150] Setting up loss3/classifier
I0826 22:19:54.141979 99815 net.cpp:157] Top shape: 64 128 1 1 (8192)
I0826 22:19:54.141994 99815 net.cpp:165] Memory required for data: 1163184136
I0826 22:19:54.142056 99815 layer_factory.hpp:77] Creating layer loss3/loss3
I0826 22:19:54.142087 99815 net.cpp:100] Creating Layer loss3/loss3
I0826 22:19:54.142104 99815 net.cpp:434] loss3/loss3 <- loss3/classifier
I0826 22:19:54.142123 99815 net.cpp:434] loss3/loss3 <- label_data_1_split_2
I0826 22:19:54.142143 99815 net.cpp:408] loss3/loss3 -> loss3/loss3
…
I0826 22:19:54.151875 99815 net.cpp:322] The NetState phase (1) differed from the phase (0) specified by a rule in layer data
I0826 22:19:54.153453 99815 net.cpp:58] Initializing net from parameters: 
name: "GoogleNet"
state {
  phase: TEST
}
layer {
  name: "data"
  type: "Data"
  top: "data"
  top: "label"
  include {
    phase: TEST
  }
  transform_param {
    mirror: true
    mean_value: 150
    mean_value: 150
    mean_value: 150
  }
  data_param {
    source: "../../step01_generate_traing_data/training_examples_babak/lmdb_stage2_te_top12"
    batch_size: 128
    backend: LMDB
  }
}
layer {
  name: "conv1/7x7_s2"
  type: "Convolution"
  bottom: "data"
  top: "conv1/7x7_s2"
  param {
    lr_mult: 1
    decay_mult: 1
  }
  param {
    lr_mult: 2
    decay_mult: 0
  }
  convolution_param {
    num_output: 64
    pad: 1
    kernel_size: 3
    stride: 1
    weight_filler {
      type: "xavier"
    }
    bias_filler {
      type: "constant"
      value: 0.2
    }
  }
}
layer {
  name: "conv1/relu_7x7"
  type: "ReLU"
  bottom: "conv1/7x7_s2"
  top: "conv1/7x7_s2"
}
layer {
  name: "pool1/3x3_s2"
  type: "Pooling"
  bottom: "conv1/7x7_s2"
  top: "pool1/3x3_s2"
  pooling_param {
    pool: MAX
    kernel_size: 2
    stride: 2
  }
}
layer {
  name: "pool1/norm1"
  type: "LRN"
  bottom: "pool1/3x3_s2"
  top: "pool1/norm1"
  lrn_param {
    local_size: 5
    alpha: 0.0001
    beta: 0.75
  }
}
layer {
  name: "conv2/3x3_reduce"
  type: "Convolution"
  bottom: "pool1/norm1"
  top: "conv2/3x3_reduce"
  param {
    lr_mult: 1
    decay_mult: 1
  }
  param {
    lr_mult: 2
    decay_mult: 0
  }
  convolution_param {
    num_output: 64
    kernel_size: 1
    weight_filler {
      type: "xavier"
    }
    bias_filler {
      type: "constant"
      value: 0.2
    }
  }
}
layer {
  name: "conv2/relu_3x3_reduce"
  type: "ReLU"
  bottom: "conv2/3x3_reduce"
  top: "conv2/3x3_reduce"
}
layer {
  name: "conv2/3x3"
  type: "Convolution"
  bottom: "conv2/3x3_reduce"
  top: "conv2/3x3"
  param {
    lr_mult: 1
    decay_mult: 1
  }
  param {
    lr_mult: 2
    decay_mult: 0
  }
  convolution_param {
    num_output: 192
    pad: 1
    kernel_size: 3
    weight_filler {
      type: "xavier"
    }
    bias_filler {
      type: "constant"
      value: 0.2
    }
  }
}
layer {
  name: "conv2/relu_3x3"
  type: "ReLU"
  bottom: "conv2/3x3"
  top: "conv2/3x3"
}
layer {
  name: "conv2/norm2"
  type: "LRN"
  bottom: "conv2/3x3"
  top: "conv2/norm2"
  lrn_param {
    local_size: 5
    alpha: 0.0001
    beta: 0.75
  }
}
layer {
  name: "pool2/3x3_s2"
  type: "Pooling"
  bottom: "conv2/norm2"
  top: "pool2/3x3_s2"
  pooling_param {
    pool: MAX
    kernel_size: 3
    stride: 2
  }
}
layer {
  name: "inception_3a/1x1"
  type: "Convolution"
  bottom: "pool2/3x3_s2"
  top: "inception_3a/1x1"
  param {
    lr_mult: 1
    decay_mult: 1
  }
  param {
    lr_mult: 2
    decay_mult: 0
  }
  convolution_param {
    num_output: 64
    kernel_size: 1
    weight_filler {
      type: "xavier"
    }
    bias_filler {
      type: "constant"
      value: 0.2
    }
  }
}
layer {
  name: "inception_3a/relu_1x1"
  type: "ReLU"
  bottom: "inception_3a/1x1"
  top: "inception_3a/1x1"
}
layer {
  name: "inception_3a/3x3_reduce"
  type: "Convolution"
  bottom: "pool2/3x3_s2"
  top: "inception_3a/3x3_reduce"
  param {
    lr_mult: 1
    decay_mult: 1
  }
  param {
    lr_mult: 2
    decay_mult: 0
  }
  convolution_param {
    num_output: 96
    kernel_size: 1
    weight_filler {
      type: "xavier"
    }
    bias_filler {
      type: "constant"
      value: 0.2
    }
  }
}
layer {
  name: "inception_3a/relu_3x3_reduce"
  type: "ReLU"
  bottom: "inception_3a/3x3_reduce"
  top: "inception_3a/3x3_reduce"
}
layer {
  name: "inception_3a/3x3"
  type: "Convolution"
  bottom: "inception_3a/3x3_reduce"
  top: "inception_3a/3x3"
  param {
    lr_mult: 1
    decay_mult: 1
  }
  param {
    lr_mult: 2
    decay_mult: 0
  }
  convolution_param {
    num_output: 128
    pad: 1
    kernel_size: 3
    weight_filler {
      type: "xavier"
    }
    bias_filler {
      type: "constant"
      value: 0.2
    }
  }
}
layer {
  name: "inception_3a/relu_3x3"
  type: "ReLU"
  bottom: "inception_3a/3x3"
  top: "inception_3a/3x3"
}
layer {
  name: "inception_3a/5x5_reduce"
  type: "Convolution"
  bottom: "pool2/3x3_s2"
  top: "inception_3a/5x5_reduce"
  param {
    lr_mult: 1
    decay_mult: 1
  }
  param {
    lr_mult: 2
    decay_mult: 0
  }
  convolution_param {
    num_output: 16
    kernel_size: 1
    weight_filler {
      type: "xavier"
    }
    bias_filler {
      type: "constant"
      value: 0.2
    }
  }
}
layer {
  name: "inception_3a/relu_5x5_reduce"
  type: "ReLU"
  bottom: "inception_3a/5x5_reduce"
  top: "inception_3a/5x5_reduce"
}
layer {
  name: "inception_3a/5x5"
  type: "Convolution"
  bottom: "inception_3a/5x5_reduce"
  top: "inception_3a/5x5"
  param {
    lr_mult: 1
    decay_mult: 1
  }
  param {
    lr_mult: 2
    decay_mult: 0
  }
  convolution_param {
    num_output: 32
    pad: 2
    kernel_size: 5
    weight_filler {
      type: "xavier"
    }
    bias_filler {
      type: "constant"
      value: 0.2
    }
  }
}
layer {
  name: "inception_3a/relu_5x5"
  type: "ReLU"
  bottom: "inception_3a/5x5"
  top: "inception_3a/5x5"
}
layer {
  name: "inception_3a/pool"
  type: "Pooling"
  bottom: "pool2/3x3_s2"
  top: "inception_3a/pool"
  pooling_param {
    pool: MAX
    kernel_size: 3
    stride: 1
    pad: 1
  }
}
layer {
  name: "inception_3a/pool_proj"
  type: "Convolution"
  bottom: "inception_3a/pool"
  top: "inception_3a/pool_proj"
  param {
    lr_mult: 1
    decay_mult: 1
  }
  param {
    lr_mult: 2
    decay_mult: 0
  }
  convolution_param {
    num_output: 32
    kernel_size: 1
    weight_filler {
      type: "xavier"
    }
    bias_filler {
      type: "constant"
      value: 0.2
    }
  }
}
layer {
  name: "inception_3a/relu_pool_proj"
  type: "ReLU"
  bottom: "inception_3a/pool_proj"
  top: "inception_3a/pool_proj"
}
layer {
  name: "inception_3a/output"
  type: "Concat"
  bottom: "inception_3a/1x1"
  bottom: "inception_3a/3x3"
  bottom: "inception_3a/5x5"
  bottom: "inception_3a/pool_proj"
  top: "inception_3a/output"
}
layer {
  name: "inception_3b/1x1"
  type: "Convolution"
  bottom: "inception_3a/output"
  top: "inception_3b/1x1"
  param {
    lr_mult: 1
    decay_mult: 1
  }
  param {
    lr_mult: 2
    decay_mult: 0
  }
  convolution_param {
    num_output: 128
    kernel_size: 1
    weight_filler {
      type: "xavier"
    }
    bias_filler {
      type: "constant"
      value: 0.2
    }
  }
}
layer {
  name: "inception_3b/relu_1x1"
  type: "ReLU"
  bottom: "inception_3b/1x1"
  top: "inception_3b/1x1"
}
layer {
  name: "inception_3b/3x3_reduce"
  type: "Convolution"
  bottom: "inception_3a/output"
  top: "inception_3b/3x3_reduce"
  param {
    lr_mult: 1
    decay_mult: 1
  }
  param {
    lr_mult: 2
    decay_mult: 0
  }
  convolution_param {
    num_output: 128
    kernel_size: 1
    weight_filler {
      type: "xavier"
    }
    bias_filler {
      type: "constant"
      value: 0.2
    }
  }
}
layer {
  name: "inception_3b/relu_3x3_reduce"
  type: "ReLU"
  bottom: "inception_3b/3x3_reduce"
  top: "inception_3b/3x3_reduce"
}
layer {
  name: "inception_3b/3x3"
  type: "Convolution"
  bottom: "inception_3b/3x3_reduce"
  top: "inception_3b/3x3"
  param {
    lr_mult: 1
    decay_mult: 1
  }
  param {
    lr_mult: 2
    decay_mult: 0
  }
  convolution_param {
    num_output: 192
    pad: 1
    kernel_size: 3
    weight_filler {
      type: "xavier"
    }
    bias_filler {
      type: "constant"
      value: 0.2
    }
  }
}
layer {
  name: "inception_3b/relu_3x3"
  type: "ReLU"
  bottom: "inception_3b/3x3"
  top: "inception_3b/3x3"
}
layer {
  name: "inception_3b/5x5_reduce"
  type: "Convolution"
  bottom: "inception_3a/output"
  top: "inception_3b/5x5_reduce"
  param {
    lr_mult: 1
    decay_mult: 1
  }
  param {
    lr_mult: 2
    decay_mult: 0
  }
  convolution_param {
    num_output: 32
    kernel_size: 1
    weight_filler {
      type: "xavier"
    }
    bias_filler {
      type: "constant"
      value: 0.2
    }
  }
}
layer {
  name: "inception_3b/relu_5x5_reduce"
  type: "ReLU"
  bottom: "inception_3b/5x5_reduce"
  top: "inception_3b/5x5_reduce"
}
layer {
  name: "inception_3b/5x5"
  type: "Convolution"
  bottom: "inception_3b/5x5_reduce"
  top: "inception_3b/5x5"
  param {
    lr_mult: 1
    decay_mult: 1
  }
  param {
    lr_mult: 2
    decay_mult: 0
  }
  convolution_param {
    num_output: 96
    pad: 2
    kernel_size: 5
    weight_filler {
      type: "xavier"
    }
    bias_filler {
      type: "constant"
      value: 0.2
    }
  }
}
layer {
  name: "inception_3b/relu_5x5"
  type: "ReLU"
  bottom: "inception_3b/5x5"
  top: "inception_3b/5x5"
}
layer {
  name: "inception_3b/pool"
  type: "Pooling"
  bottom: "inception_3a/output"
  top: "inception_3b/pool"
  pooling_param {
    pool: MAX
    kernel_size: 3
    stride: 1
    pad: 1
  }
}
layer {
  name: "inception_3b/pool_proj"
  type: "Convolution"
  bottom: "inception_3b/pool"
  top: "inception_3b/pool_proj"
  param {
    lr_mult: 1
    decay_mult: 1
  }
  param {
    lr_mult: 2
    decay_mult: 0
  }
  convolution_param {
    num_output: 64
    kernel_size: 1
    weight_filler {
      type: "xavier"
    }
    bias_filler {
      type: "constant"
      value: 0.2
    }
  }
}
layer {
  name: "inception_3b/relu_pool_proj"
  type: "ReLU"
  bottom: "inception_3b/pool_proj"
  top: "inception_3b/pool_proj"
}
layer {
  name: "inception_3b/output"
  type: "Concat"
  bottom: "inception_3b/1x1"
  bottom: "inception_3b/3x3"
  bottom: "inception_3b/5x5"
  bottom: "inception_3b/pool_proj"
  top: "inception_3b/output"
}
layer {
  name: "pool3/3x3_s2"
  type: "Pooling"
  bottom: "inception_3b/output"
  top: "pool3/3x3_s2"
  pooling_param {
    pool: MAX
    kernel_size: 3
    stride: 2
  }
}
layer {
  name: "inception_4a/1x1"
  type: "Convolution"
  bottom: "pool3/3x3_s2"
  top: "inception_4a/1x1"
  param {
    lr_mult: 1
    decay_mult: 1
  }
  param {
    lr_mult: 2
    decay_mult: 0
  }
  convolution_param {
    num_output: 192
    kernel_size: 1
    weight_filler {
      type: "xavier"
    }
    bias_filler {
      type: "constant"
      value: 0.2
    }
  }
}
layer {
  name: "inception_4a/relu_1x1"
  type: "ReLU"
  bottom: "inception_4a/1x1"
  top: "inception_4a/1x1"
}
layer {
  name: "inception_4a/3x3_reduce"
  type: "Convolution"
  bottom: "pool3/3x3_s2"
  top: "inception_4a/3x3_reduce"
  param {
    lr_mult: 1
    decay_mult: 1
  }
  param {
    lr_mult: 2
    decay_mult: 0
  }
  convolution_param {
    num_output: 96
    kernel_size: 1
    weight_filler {
      type: "xavier"
    }
    bias_filler {
      type: "constant"
      value: 0.2
    }
  }
}
layer {
  name: "inception_4a/relu_3x3_reduce"
  type: "ReLU"
  bottom: "inception_4a/3x3_reduce"
  top: "inception_4a/3x3_reduce"
}
layer {
  name: "inception_4a/3x3"
  type: "Convolution"
  bottom: "inception_4a/3x3_reduce"
  top: "inception_4a/3x3"
  param {
    lr_mult: 1
    decay_mult: 1
  }
  param {
    lr_mult: 2
    decay_mult: 0
  }
  convolution_param {
    num_output: 208
    pad: 1
    kernel_size: 3
    weight_filler {
      type: "xavier"
    }
    bias_filler {
      type: "constant"
      value: 0.2
    }
  }
}
layer {
  name: "inception_4a/relu_3x3"
  type: "ReLU"
  bottom: "inception_4a/3x3"
  top: "inception_4a/3x3"
}
layer {
  name: "inception_4a/5x5_reduce"
  type: "Convolution"
  bottom: "pool3/3x3_s2"
  top: "inception_4a/5x5_reduce"
  param {
    lr_mult: 1
    decay_mult: 1
  }
  param {
    lr_mult: 2
    decay_mult: 0
  }
  convolution_param {
    num_output: 16
    kernel_size: 1
    weight_filler {
      type: "xavier"
    }
    bias_filler {
      type: "constant"
      value: 0.2
    }
  }
}
layer {
  name: "inception_4a/relu_5x5_reduce"
  type: "ReLU"
  bottom: "inception_4a/5x5_reduce"
  top: "inception_4a/5x5_reduce"
}
layer {
  name: "inception_4a/5x5"
  type: "Convolution"
  bottom: "inception_4a/5x5_reduce"
  top: "inception_4a/5x5"
  param {
    lr_mult: 1
    decay_mult: 1
  }
  param {
    lr_mult: 2
    decay_mult: 0
  }
  convolution_param {
    num_output: 48
    pad: 2
    kernel_size: 5
    weight_filler {
      type: "xavier"
    }
    bias_filler {
      type: "constant"
      value: 0.2
    }
  }
}
layer {
  name: "inception_4a/relu_5x5"
  type: "ReLU"
  bottom: "inception_4a/5x5"
  top: "inception_4a/5x5"
}
layer {
  name: "inception_4a/pool"
  type: "Pooling"
  bottom: "pool3/3x3_s2"
  top: "inception_4a/pool"
  pooling_param {
    pool: MAX
    kernel_size: 3
    stride: 1
    pad: 1
  }
}
layer {
  name: "inception_4a/pool_proj"
  type: "Convolution"
  bottom: "inception_4a/pool"
  top: "inception_4a/pool_proj"
  param {
    lr_mult: 1
    decay_mult: 1
  }
  param {
    lr_mult: 2
    decay_mult: 0
  }
  convolution_param {
    num_output: 64
    kernel_size: 1
    weight_filler {
      type: "xavier"
    }
    bias_filler {
      type: "constant"
      value: 0.2
    }
  }
}
layer {
  name: "inception_4a/relu_pool_proj"
  type: "ReLU"
  bottom: "inception_4a/pool_proj"
  top: "inception_4a/pool_proj"
}
layer {
  name: "inception_4a/output"
  type: "Concat"
  bottom: "inception_4a/1x1"
  bottom: "inception_4a/3x3"
  bottom: "inception_4a/5x5"
  bottom: "inception_4a/pool_proj"
  top: "inception_4a/output"
}
layer {
  name: "loss1/ave_pool"
  type: "Pooling"
  bottom: "inception_4a/output"
  top: "loss1/ave_pool"
  pooling_param {
    pool: AVE
    kernel_size: 5
    stride: 3
  }
}
layer {
  name: "loss1/conv"
  type: "Convolution"
  bottom: "loss1/ave_pool"
  top: "loss1/conv"
  param {
    lr_mult: 1
    decay_mult: 1
  }
  param {
    lr_mult: 2
    decay_mult: 0
  }
  convolution_param {
    num_output: 128
    kernel_size: 1
    weight_filler {
      type: "xavier"
    }
    bias_filler {
      type: "constant"
      value: 0.2
    }
  }
}
layer {
  name: "loss1/relu_conv"
  type: "ReLU"
  bottom: "loss1/conv"
  top: "loss1/conv"
}
layer {
  name: "loss1/fc"
  type: "InnerProduct"
  bottom: "loss1/conv"
  top: "loss1/fc"
  param {
    lr_mult: 1
    decay_mult: 1
  }
  param {
    lr_mult: 2
    decay_mult: 0
  }
  inner_product_param {
    num_output: 1024
    weight_filler {
      type: "xavier"
    }
    bias_filler {
      type: "constant"
      value: 0.2
    }
  }
}
layer {
  name: "loss1/relu_fc"
  type: "ReLU"
  bottom: "loss1/fc"
  top: "loss1/fc"
}
layer {
  name: "loss1/drop_fc"
  type: "Dropout"
  bottom: "loss1/fc"
  top: "loss1/fc"
  dropout_param {
    dropout_ratio: 0.7
  }
}
layer {
  name: "loss1/classifier"
  type: "InnerProduct"
  bottom: "loss1/fc"
  top: "loss1/classifier"
  param {
    lr_mult: 1
    decay_mult: 1
  }
  param {
    lr_mult: 2
    decay_mult: 0
  }
  inner_product_param {
    num_output: 2
    weight_filler {
      type: "xavier"
    }
    bias_filler {
      type: "constant"
      value: 0
    }
  }
}
layer {
  name: "loss1/loss"
  type: "SoftmaxWithLoss"
  bottom: "loss1/classifier"
  bottom: "label"
  top: "loss1/loss1"
…
I0826 22:19:54.487330 99815 layer_factory.hpp:77] Creating layer inception_4c/relu_5x5
I0826 22:19:54.487350 99815 net.cpp:100] Creating Layer inception_4c/relu_5x5
I0826 22:19:54.487365 99815 net.cpp:434] inception_4c/relu_5x5 <- inception_4c/5x5
I0826 22:19:54.487383 99815 net.cpp:395] inception_4c/relu_5x5 -> inception_4c/5x5 (in-place)
I0826 22:19:54.489380 99815 net.cpp:150] Setting up inception_4c/relu_5x5
I0826 22:19:54.489410 99815 net.cpp:157] Top shape: 128 64 8 8 (524288)
I0826 22:19:54.489424 99815 net.cpp:165] Memory required for data: 1811945992
I0826 22:19:54.489439 99815 layer_factory.hpp:77] Creating layer inception_4c/pool
I0826 22:19:54.489457 99815 net.cpp:100] Creating Layer inception_4c/pool
I0826 22:19:54.489472 99815 net.cpp:434] inception_4c/pool <- inception_4b/output_inception_4b/output_0_split_3
I0826 22:19:54.489492 99815 net.cpp:408] inception_4c/pool -> inception_4c/pool
I0826 22:19:54.489599 99815 net.cpp:150] Setting up inception_4c/pool
I0826 22:19:54.489651 99815 net.cpp:157] Top shape: 128 512 8 8 (4194304)
I0826 22:19:54.489665 99815 net.cpp:165] Memory required for data: 1828723208
I0826 22:19:54.489677 99815 layer_factory.hpp:77] Creating layer inception_4c/pool_proj
I0826 22:19:54.489702 99815 net.cpp:100] Creating Layer inception_4c/pool_proj
I0826 22:19:54.489717 99815 net.cpp:434] inception_4c/pool_proj <- inception_4c/pool
I0826 22:19:54.489734 99815 net.cpp:408] inception_4c/pool_proj -> inception_4c/pool_proj
I0826 22:19:54.496816 99815 net.cpp:150] Setting up inception_4c/pool_proj
I0826 22:19:54.496845 99815 net.cpp:157] Top shape: 128 64 8 8 (524288)
I0826 22:19:54.496853 99815 net.cpp:165] Memory required for data: 1830820360
I0826 22:19:54.496867 99815 layer_factory.hpp:77] Creating layer inception_4c/relu_pool_proj
I0826 22:19:54.496881 99815 net.cpp:100] Creating Layer inception_4c/relu_pool_proj
I0826 22:19:54.496891 99815 net.cpp:434] inception_4c/relu_pool_proj <- inception_4c/pool_proj
I0826 22:19:54.496901 99815 net.cpp:395] inception_4c/relu_pool_proj -> inception_4c/pool_proj (in-place)
I0826 22:19:54.498271 99815 net.cpp:150] Setting up inception_4c/relu_pool_proj
I0826 22:19:54.498286 99815 net.cpp:157] Top shape: 128 64 8 8 (524288)
I0826 22:19:54.498293 99815 net.cpp:165] Memory required for data: 1832917512
I0826 22:19:54.498301 99815 layer_factory.hpp:77] Creating layer inception_4c/output
I0826 22:19:54.498316 99815 net.cpp:100] Creating Layer inception_4c/output
I0826 22:19:54.498324 99815 net.cpp:434] inception_4c/output <- inception_4c/1x1
I0826 22:19:54.498333 99815 net.cpp:434] inception_4c/output <- inception_4c/3x3
I0826 22:19:54.498342 99815 net.cpp:434] inception_4c/output <- inception_4c/5x5
I0826 22:19:54.498352 99815 net.cpp:434] inception_4c/output <- inception_4c/pool_proj
I0826 22:19:54.498361 99815 net.cpp:408] inception_4c/output -> inception_4c/output
I0826 22:19:54.498423 99815 net.cpp:150] Setting up inception_4c/output
I0826 22:19:54.498435 99815 net.cpp:157] Top shape: 128 512 8 8 (4194304)
I0826 22:19:54.498442 99815 net.cpp:165] Memory required for data: 1849694728
I0826 22:19:54.498450 99815 layer_factory.hpp:77] Creating layer inception_4c/output_inception_4c/output_0_split
I0826 22:19:54.498461 99815 net.cpp:100] Creating Layer inception_4c/output_inception_4c/output_0_split
I0826 22:19:54.498469 99815 net.cpp:434] inception_4c/output_inception_4c/output_0_split <- inception_4c/output
I0826 22:19:54.498481 99815 net.cpp:408] inception_4c/output_inception_4c/output_0_split -> inception_4c/output_inception_4c/output_0_split_0
I0826 22:19:54.498493 99815 net.cpp:408] inception_4c/output_inception_4c/output_0_split -> inception_4c/output_inception_4c/output_0_split_1
I0826 22:19:54.498504 99815 net.cpp:408] inception_4c/output_inception_4c/output_0_split -> inception_4c/output_inception_4c/output_0_split_2
I0826 22:19:54.498517 99815 net.cpp:408] inception_4c/output_inception_4c/output_0_split -> inception_4c/output_inception_4c/output_0_split_3
I0826 22:19:54.498670 99815 net.cpp:150] Setting up inception_4c/output_inception_4c/output_0_split
I0826 22:19:54.498685 99815 net.cpp:157] Top shape: 128 512 8 8 (4194304)
I0826 22:19:54.498695 99815 net.cpp:157] Top shape: 128 512 8 8 (4194304)
I0826 22:19:54.498703 99815 net.cpp:157] Top shape: 128 512 8 8 (4194304)
I0826 22:19:54.498713 99815 net.cpp:157] Top shape: 128 512 8 8 (4194304)
I0826 22:19:54.498719 99815 net.cpp:165] Memory required for data: 1916803592
I0826 22:19:54.498726 99815 layer_factory.hpp:77] Creating layer inception_4d/1x1
I0826 22:19:54.498744 99815 net.cpp:100] Creating Layer inception_4d/1x1
I0826 22:19:54.498752 99815 net.cpp:434] inception_4d/1x1 <- inception_4c/output_inception_4c/output_0_split_0
I0826 22:19:54.498764 99815 net.cpp:408] inception_4d/1x1 -> inception_4d/1x1
I0826 22:19:54.505208 99815 net.cpp:150] Setting up inception_4d/1x1
I0826 22:19:54.505228 99815 net.cpp:157] Top shape: 128 112 8 8 (917504)
I0826 22:19:54.505235 99815 net.cpp:165] Memory required for data: 1920473608
I0826 22:19:54.505249 99815 layer_factory.hpp:77] Creating layer inception_4d/relu_1x1
I0826 22:19:54.505285 99815 net.cpp:100] Creating Layer inception_4d/relu_1x1
I0826 22:19:54.505295 99815 net.cpp:434] inception_4d/relu_1x1 <- inception_4d/1x1
I0826 22:19:54.505305 99815 net.cpp:395] inception_4d/relu_1x1 -> inception_4d/1x1 (in-place)
I0826 22:19:54.507205 99815 net.cpp:150] Setting up inception_4d/relu_1x1
I0826 22:19:54.507225 99815 net.cpp:157] Top shape: 128 112 8 8 (917504)
I0826 22:19:54.507231 99815 net.cpp:165] Memory required for data: 1924143624
I0826 22:19:54.507239 99815 layer_factory.hpp:77] Creating layer inception_4d/3x3_reduce
I0826 22:19:54.507261 99815 net.cpp:100] Creating Layer inception_4d/3x3_reduce
I0826 22:19:54.507269 99815 net.cpp:434] inception_4d/3x3_reduce <- inception_4c/output_inception_4c/output_0_split_1
I0826 22:19:54.507282 99815 net.cpp:408] inception_4d/3x3_reduce -> inception_4d/3x3_reduce
I0826 22:19:54.514542 99815 net.cpp:150] Setting up inception_4d/3x3_reduce
I0826 22:19:54.514580 99815 net.cpp:157] Top shape: 128 144 8 8 (1179648)
I0826 22:19:54.514595 99815 net.cpp:165] Memory required for data: 1928862216
I0826 22:19:54.514613 99815 layer_factory.hpp:77] Creating layer inception_4d/relu_3x3_reduce
I0826 22:19:54.514645 99815 net.cpp:100] Creating Layer inception_4d/relu_3x3_reduce
I0826 22:19:54.514662 99815 net.cpp:434] inception_4d/relu_3x3_reduce <- inception_4d/3x3_reduce
I0826 22:19:54.514681 99815 net.cpp:395] inception_4d/relu_3x3_reduce -> inception_4d/3x3_reduce (in-place)
I0826 22:19:54.515806 99815 net.cpp:150] Setting up inception_4d/relu_3x3_reduce
I0826 22:19:54.515836 99815 net.cpp:157] Top shape: 128 144 8 8 (1179648)
I0826 22:19:54.515849 99815 net.cpp:165] Memory required for data: 1933580808
I0826 22:19:54.515862 99815 layer_factory.hpp:77] Creating layer inception_4d/3x3
I0826 22:19:54.515887 99815 net.cpp:100] Creating Layer inception_4d/3x3
I0826 22:19:54.515902 99815 net.cpp:434] inception_4d/3x3 <- inception_4d/3x3_reduce
I0826 22:19:54.515923 99815 net.cpp:408] inception_4d/3x3 -> inception_4d/3x3
I0826 22:19:54.527557 99815 net.cpp:150] Setting up inception_4d/3x3
I0826 22:19:54.527612 99815 net.cpp:157] Top shape: 128 288 8 8 (2359296)
I0826 22:19:54.527626 99815 net.cpp:165] Memory required for data: 1943017992
I0826 22:19:54.527648 99815 layer_factory.hpp:77] Creating layer inception_4d/relu_3x3
I0826 22:19:54.527673 99815 net.cpp:100] Creating Layer inception_4d/relu_3x3
I0826 22:19:54.527690 99815 net.cpp:434] inception_4d/relu_3x3 <- inception_4d/3x3
I0826 22:19:54.527709 99815 net.cpp:395] inception_4d/relu_3x3 -> inception_4d/3x3 (in-place)
I0826 22:19:54.529464 99815 net.cpp:150] Setting up inception_4d/relu_3x3
I0826 22:19:54.529489 99815 net.cpp:157] Top shape: 128 288 8 8 (2359296)
I0826 22:19:54.529502 99815 net.cpp:165] Memory required for data: 1952455176
I0826 22:19:54.529516 99815 layer_factory.hpp:77] Creating layer inception_4d/5x5_reduce
I0826 22:19:54.529544 99815 net.cpp:100] Creating Layer inception_4d/5x5_reduce
I0826 22:19:54.529559 99815 net.cpp:434] inception_4d/5x5_reduce <- inception_4c/output_inception_4c/output_0_split_2
I0826 22:19:54.529579 99815 net.cpp:408] inception_4d/5x5_reduce -> inception_4d/5x5_reduce
I0826 22:19:54.535583 99815 net.cpp:150] Setting up inception_4d/5x5_reduce
I0826 22:19:54.535614 99815 net.cpp:157] Top shape: 128 32 8 8 (262144)
I0826 22:19:54.535627 99815 net.cpp:165] Memory required for data: 1953503752
I0826 22:19:54.535646 99815 layer_factory.hpp:77] Creating layer inception_4d/relu_5x5_reduce
I0826 22:19:54.535667 99815 net.cpp:100] Creating Layer inception_4d/relu_5x5_reduce
I0826 22:19:54.535682 99815 net.cpp:434] inception_4d/relu_5x5_reduce <- inception_4d/5x5_reduce
I0826 22:19:54.535699 99815 net.cpp:395] inception_4d/relu_5x5_reduce -> inception_4d/5x5_reduce (in-place)
I0826 22:19:54.537536 99815 net.cpp:150] Setting up inception_4d/relu_5x5_reduce
I0826 22:19:54.537564 99815 net.cpp:157] Top shape: 128 32 8 8 (262144)
I0826 22:19:54.537578 99815 net.cpp:165] Memory required for data: 1954552328
I0826 22:19:54.537592 99815 layer_factory.hpp:77] Creating layer inception_4d/5x5
I0826 22:19:54.537641 99815 net.cpp:100] Creating Layer inception_4d/5x5
I0826 22:19:54.537657 99815 net.cpp:434] inception_4d/5x5 <- inception_4d/5x5_reduce
I0826 22:19:54.537677 99815 net.cpp:408] inception_4d/5x5 -> inception_4d/5x5
I0826 22:19:54.544755 99815 net.cpp:150] Setting up inception_4d/5x5
I0826 22:19:54.544788 99815 net.cpp:157] Top shape: 128 64 8 8 (524288)
I0826 22:19:54.544802 99815 net.cpp:165] Memory required for data: 1956649480
I0826 22:19:54.544821 99815 layer_factory.hpp:77] Creating layer inception_4d/relu_5x5
I0826 22:19:54.544837 99815 net.cpp:100] Creating Layer inception_4d/relu_5x5
I0826 22:19:54.544852 99815 net.cpp:434] inception_4d/relu_5x5 <- inception_4d/5x5
I0826 22:19:54.544868 99815 net.cpp:395] inception_4d/relu_5x5 -> inception_4d/5x5 (in-place)
I0826 22:19:54.546728 99815 net.cpp:150] Setting up inception_4d/relu_5x5
I0826 22:19:54.546756 99815 net.cpp:157] Top shape: 128 64 8 8 (524288)
I0826 22:19:54.546771 99815 net.cpp:165] Memory required for data: 1958746632
I0826 22:19:54.546783 99815 layer_factory.hpp:77] Creating layer inception_4d/pool
I0826 22:19:54.546802 99815 net.cpp:100] Creating Layer inception_4d/pool
I0826 22:19:54.546816 99815 net.cpp:434] inception_4d/pool <- inception_4c/output_inception_4c/output_0_split_3
I0826 22:19:54.546836 99815 net.cpp:408] inception_4d/pool -> inception_4d/pool
I0826 22:19:54.546947 99815 net.cpp:150] Setting up inception_4d/pool
I0826 22:19:54.546968 99815 net.cpp:157] Top shape: 128 512 8 8 (4194304)
I0826 22:19:54.546982 99815 net.cpp:165] Memory required for data: 1975523848
I0826 22:19:54.546994 99815 layer_factory.hpp:77] Creating layer inception_4d/pool_proj
I0826 22:19:54.547019 99815 net.cpp:100] Creating Layer inception_4d/pool_proj
I0826 22:19:54.547034 99815 net.cpp:434] inception_4d/pool_proj <- inception_4d/pool
I0826 22:19:54.547051 99815 net.cpp:408] inception_4d/pool_proj -> inception_4d/pool_proj
I0826 22:19:54.554168 99815 net.cpp:150] Setting up inception_4d/pool_proj
I0826 22:19:54.554205 99815 net.cpp:157] Top shape: 128 64 8 8 (524288)
I0826 22:19:54.554220 99815 net.cpp:165] Memory required for data: 1977621000
I0826 22:19:54.554240 99815 layer_factory.hpp:77] Creating layer inception_4d/relu_pool_proj
I0826 22:19:54.554257 99815 net.cpp:100] Creating Layer inception_4d/relu_pool_proj
I0826 22:19:54.554272 99815 net.cpp:434] inception_4d/relu_pool_proj <- inception_4d/pool_proj
I0826 22:19:54.554289 99815 net.cpp:395] inception_4d/relu_pool_proj -> inception_4d/pool_proj (in-place)
I0826 22:19:54.555892 99815 net.cpp:150] Setting up inception_4d/relu_pool_proj
I0826 22:19:54.555917 99815 net.cpp:157] Top shape: 128 64 8 8 (524288)
I0826 22:19:54.555932 99815 net.cpp:165] Memory required for data: 1979718152
I0826 22:19:54.555944 99815 layer_factory.hpp:77] Creating layer inception_4d/output
I0826 22:19:54.555963 99815 net.cpp:100] Creating Layer inception_4d/output
I0826 22:19:54.555980 99815 net.cpp:434] inception_4d/output <- inception_4d/1x1
I0826 22:19:54.555995 99815 net.cpp:434] inception_4d/output <- inception_4d/3x3
I0826 22:19:54.556010 99815 net.cpp:434] inception_4d/output <- inception_4d/5x5
I0826 22:19:54.556025 99815 net.cpp:434] inception_4d/output <- inception_4d/pool_proj
I0826 22:19:54.556041 99815 net.cpp:408] inception_4d/output -> inception_4d/output
I0826 22:19:54.556109 99815 net.cpp:150] Setting up inception_4d/output
I0826 22:19:54.556133 99815 net.cpp:157] Top shape: 128 528 8 8 (4325376)
I0826 22:19:54.556145 99815 net.cpp:165] Memory required for data: 1997019656
I0826 22:19:54.556157 99815 layer_factory.hpp:77] Creating layer inception_4d/output_inception_4d/output_0_split
I0826 22:19:54.556179 99815 net.cpp:100] Creating Layer inception_4d/output_inception_4d/output_0_split
I0826 22:19:54.556192 99815 net.cpp:434] inception_4d/output_inception_4d/output_0_split <- inception_4d/output
I0826 22:19:54.556210 99815 net.cpp:408] inception_4d/output_inception_4d/output_0_split -> inception_4d/output_inception_4d/output_0_split_0
I0826 22:19:54.556249 99815 net.cpp:408] inception_4d/output_inception_4d/output_0_split -> inception_4d/output_inception_4d/output_0_split_1
I0826 22:19:54.556269 99815 net.cpp:408] inception_4d/output_inception_4d/output_0_split -> inception_4d/output_inception_4d/output_0_split_2
I0826 22:19:54.556288 99815 net.cpp:408] inception_4d/output_inception_4d/output_0_split -> inception_4d/output_inception_4d/output_0_split_3
I0826 22:19:54.556304 99815 net.cpp:408] inception_4d/output_inception_4d/output_0_split -> inception_4d/output_inception_4d/output_0_split_4
I0826 22:19:54.556501 99815 net.cpp:150] Setting up inception_4d/output_inception_4d/output_0_split
I0826 22:19:54.556524 99815 net.cpp:157] Top shape: 128 528 8 8 (4325376)
I0826 22:19:54.556538 99815 net.cpp:157] Top shape: 128 528 8 8 (4325376)
I0826 22:19:54.556553 99815 net.cpp:157] Top shape: 128 528 8 8 (4325376)
I0826 22:19:54.556567 99815 net.cpp:157] Top shape: 128 528 8 8 (4325376)
I0826 22:19:54.556581 99815 net.cpp:157] Top shape: 128 528 8 8 (4325376)
I0826 22:19:54.556593 99815 net.cpp:165] Memory required for data: 2083527176
I0826 22:19:54.556605 99815 layer_factory.hpp:77] Creating layer loss2/ave_pool
I0826 22:19:54.556624 99815 net.cpp:100] Creating Layer loss2/ave_pool
I0826 22:19:54.556638 99815 net.cpp:434] loss2/ave_pool <- inception_4d/output_inception_4d/output_0_split_0
I0826 22:19:54.556656 99815 net.cpp:408] loss2/ave_pool -> loss2/ave_pool
I0826 22:19:54.557206 99815 net.cpp:150] Setting up loss2/ave_pool
I0826 22:19:54.557235 99815 net.cpp:157] Top shape: 128 528 2 2 (270336)
I0826 22:19:54.557248 99815 net.cpp:165] Memory required for data: 2084608520
I0826 22:19:54.557262 99815 layer_factory.hpp:77] Creating layer loss2/conv
I0826 22:19:54.557286 99815 net.cpp:100] Creating Layer loss2/conv
I0826 22:19:54.557301 99815 net.cpp:434] loss2/conv <- loss2/ave_pool
I0826 22:19:54.557322 99815 net.cpp:408] loss2/conv -> loss2/conv
I0826 22:19:54.563276 99815 net.cpp:150] Setting up loss2/conv
I0826 22:19:54.563308 99815 net.cpp:157] Top shape: 128 128 2 2 (65536)
I0826 22:19:54.563321 99815 net.cpp:165] Memory required for data: 2084870664
I0826 22:19:54.563338 99815 layer_factory.hpp:77] Creating layer loss2/relu_conv
I0826 22:19:54.563359 99815 net.cpp:100] Creating Layer loss2/relu_conv
I0826 22:19:54.563374 99815 net.cpp:434] loss2/relu_conv <- loss2/conv
I0826 22:19:54.563392 99815 net.cpp:395] loss2/relu_conv -> loss2/conv (in-place)
I0826 22:19:54.565299 99815 net.cpp:150] Setting up loss2/relu_conv
I0826 22:19:54.565325 99815 net.cpp:157] Top shape: 128 128 2 2 (65536)
I0826 22:19:54.565337 99815 net.cpp:165] Memory required for data: 2085132808
I0826 22:19:54.565351 99815 layer_factory.hpp:77] Creating layer loss2/fc
I0826 22:19:54.565372 99815 net.cpp:100] Creating Layer loss2/fc
I0826 22:19:54.565387 99815 net.cpp:434] loss2/fc <- loss2/conv
I0826 22:19:54.565403 99815 net.cpp:408] loss2/fc -> loss2/fc
I0826 22:19:54.571666 99815 net.cpp:150] Setting up loss2/fc
I0826 22:19:54.571694 99815 net.cpp:157] Top shape: 128 1024 (131072)
I0826 22:19:54.571707 99815 net.cpp:165] Memory required for data: 2085657096
I0826 22:19:54.571725 99815 layer_factory.hpp:77] Creating layer loss2/relu_fc
I0826 22:19:54.571743 99815 net.cpp:100] Creating Layer loss2/relu_fc
I0826 22:19:54.571758 99815 net.cpp:434] loss2/relu_fc <- loss2/fc
I0826 22:19:54.571776 99815 net.cpp:395] loss2/relu_fc -> loss2/fc (in-place)
I0826 22:19:54.572285 99815 net.cpp:150] Setting up loss2/relu_fc
I0826 22:19:54.572314 99815 net.cpp:157] Top shape: 128 1024 (131072)
I0826 22:19:54.572329 99815 net.cpp:165] Memory required for data: 2086181384
I0826 22:19:54.572341 99815 layer_factory.hpp:77] Creating layer loss2/drop_fc
I0826 22:19:54.572360 99815 net.cpp:100] Creating Layer loss2/drop_fc
I0826 22:19:54.572373 99815 net.cpp:434] loss2/drop_fc <- loss2/fc
I0826 22:19:54.572391 99815 net.cpp:395] loss2/drop_fc -> loss2/fc (in-place)
I0826 22:19:54.572453 99815 net.cpp:150] Setting up loss2/drop_fc
I0826 22:19:54.572474 99815 net.cpp:157] Top shape: 128 1024 (131072)
I0826 22:19:54.572509 99815 net.cpp:165] Memory required for data: 2086705672
I0826 22:19:54.572522 99815 layer_factory.hpp:77] Creating layer loss2/classifier
I0826 22:19:54.572543 99815 net.cpp:100] Creating Layer loss2/classifier
I0826 22:19:54.572558 99815 net.cpp:434] loss2/classifier <- loss2/fc
I0826 22:19:54.572574 99815 net.cpp:408] loss2/classifier -> loss2/classifier
I0826 22:19:54.572870 99815 net.cpp:150] Setting up loss2/classifier
I0826 22:19:54.572892 99815 net.cpp:157] Top shape: 128 2 (256)
I0826 22:19:54.572906 99815 net.cpp:165] Memory required for data: 2086706696
I0826 22:19:54.572922 99815 layer_factory.hpp:77] Creating layer loss2/classifier_loss2/classifier_0_split
I0826 22:19:54.572939 99815 net.cpp:100] Creating Layer loss2/classifier_loss2/classifier_0_split
I0826 22:19:54.572953 99815 net.cpp:434] loss2/classifier_loss2/classifier_0_split <- loss2/classifier
I0826 22:19:54.572971 99815 net.cpp:408] loss2/classifier_loss2/classifier_0_split -> loss2/classifier_loss2/classifier_0_split_0
I0826 22:19:54.572990 99815 net.cpp:408] loss2/classifier_loss2/classifier_0_split -> loss2/classifier_loss2/classifier_0_split_1
I0826 22:19:54.573082 99815 net.cpp:150] Setting up loss2/classifier_loss2/classifier_0_split
I0826 22:19:54.573103 99815 net.cpp:157] Top shape: 128 2 (256)
I0826 22:19:54.573118 99815 net.cpp:157] Top shape: 128 2 (256)
I0826 22:19:54.573132 99815 net.cpp:165] Memory required for data: 2086708744
I0826 22:19:54.573144 99815 layer_factory.hpp:77] Creating layer loss2/loss
I0826 22:19:54.573165 99815 net.cpp:100] Creating Layer loss2/loss
I0826 22:19:54.573179 99815 net.cpp:434] loss2/loss <- loss2/classifier_loss2/classifier_0_split_0
I0826 22:19:54.573194 99815 net.cpp:434] loss2/loss <- label_data_1_split_2
…
I0826 22:19:54.574558 99815 net.cpp:150] Setting up loss2/top-1
I0826 22:19:54.574574 99815 net.cpp:157] Top shape: (1)
I0826 22:19:54.574586 99815 net.cpp:165] Memory required for data: 2086708752
I0826 22:19:54.574599 99815 layer_factory.hpp:77] Creating layer inception_4e/1x1
I0826 22:19:54.574622 99815 net.cpp:100] Creating Layer inception_4e/1x1
I0826 22:19:54.574645 99815 net.cpp:434] inception_4e/1x1 <- inception_4d/output_inception_4d/output_0_split_1
I0826 22:19:54.574662 99815 net.cpp:408] inception_4e/1x1 -> inception_4e/1x1
I0826 22:19:54.580883 99815 net.cpp:150] Setting up inception_4e/1x1
I0826 22:19:54.580914 99815 net.cpp:157] Top shape: 128 256 8 8 (2097152)
I0826 22:19:54.580929 99815 net.cpp:165] Memory required for data: 2095097360
I0826 22:19:54.580946 99815 layer_factory.hpp:77] Creating layer inception_4e/relu_1x1
I0826 22:19:54.580967 99815 net.cpp:100] Creating Layer inception_4e/relu_1x1
I0826 22:19:54.580981 99815 net.cpp:434] inception_4e/relu_1x1 <- inception_4e/1x1
I0826 22:19:54.580998 99815 net.cpp:395] inception_4e/relu_1x1 -> inception_4e/1x1 (in-place)
I0826 22:19:54.582466 99815 net.cpp:150] Setting up inception_4e/relu_1x1
I0826 22:19:54.582501 99815 net.cpp:157] Top shape: 128 256 8 8 (2097152)
I0826 22:19:54.582515 99815 net.cpp:165] Memory required for data: 2103485968
I0826 22:19:54.582528 99815 layer_factory.hpp:77] Creating layer inception_4e/3x3_reduce
I0826 22:19:54.582552 99815 net.cpp:100] Creating Layer inception_4e/3x3_reduce
I0826 22:19:54.582567 99815 net.cpp:434] inception_4e/3x3_reduce <- inception_4d/output_inception_4d/output_0_split_2
I0826 22:19:54.582607 99815 net.cpp:408] inception_4e/3x3_reduce -> inception_4e/3x3_reduce
I0826 22:19:54.588582 99815 net.cpp:150] Setting up inception_4e/3x3_reduce
I0826 22:19:54.588615 99815 net.cpp:157] Top shape: 128 160 8 8 (1310720)
I0826 22:19:54.588629 99815 net.cpp:165] Memory required for data: 2108728848
I0826 22:19:54.588649 99815 layer_factory.hpp:77] Creating layer inception_4e/relu_3x3_reduce
I0826 22:19:54.588665 99815 net.cpp:100] Creating Layer inception_4e/relu_3x3_reduce
I0826 22:19:54.588680 99815 net.cpp:434] inception_4e/relu_3x3_reduce <- inception_4e/3x3_reduce
I0826 22:19:54.588701 99815 net.cpp:395] inception_4e/relu_3x3_reduce -> inception_4e/3x3_reduce (in-place)
I0826 22:19:54.590857 99815 net.cpp:150] Setting up inception_4e/relu_3x3_reduce
I0826 22:19:54.590885 99815 net.cpp:157] Top shape: 128 160 8 8 (1310720)
I0826 22:19:54.590899 99815 net.cpp:165] Memory required for data: 2113971728
I0826 22:19:54.590912 99815 layer_factory.hpp:77] Creating layer inception_4e/3x3
I0826 22:19:54.590961 99815 net.cpp:100] Creating Layer inception_4e/3x3
I0826 22:19:54.590981 99815 net.cpp:434] inception_4e/3x3 <- inception_4e/3x3_reduce
I0826 22:19:54.590999 99815 net.cpp:408] inception_4e/3x3 -> inception_4e/3x3
I0826 22:19:54.599622 99815 net.cpp:150] Setting up inception_4e/3x3
I0826 22:19:54.599683 99815 net.cpp:157] Top shape: 128 320 8 8 (2621440)
I0826 22:19:54.599701 99815 net.cpp:165] Memory required for data: 2124457488
I0826 22:19:54.599721 99815 layer_factory.hpp:77] Creating layer inception_4e/relu_3x3
I0826 22:19:54.599741 99815 net.cpp:100] Creating Layer inception_4e/relu_3x3
I0826 22:19:54.599757 99815 net.cpp:434] inception_4e/relu_3x3 <- inception_4e/3x3
I0826 22:19:54.599774 99815 net.cpp:395] inception_4e/relu_3x3 -> inception_4e/3x3 (in-place)
I0826 22:19:54.601773 99815 net.cpp:150] Setting up inception_4e/relu_3x3
I0826 22:19:54.601800 99815 net.cpp:157] Top shape: 128 320 8 8 (2621440)
I0826 22:19:54.601814 99815 net.cpp:165] Memory required for data: 2134943248
I0826 22:19:54.601827 99815 layer_factory.hpp:77] Creating layer inception_4e/5x5_reduce
I0826 22:19:54.601853 99815 net.cpp:100] Creating Layer inception_4e/5x5_reduce
I0826 22:19:54.601871 99815 net.cpp:434] inception_4e/5x5_reduce <- inception_4d/output_inception_4d/output_0_split_3
I0826 22:19:54.601896 99815 net.cpp:408] inception_4e/5x5_reduce -> inception_4e/5x5_reduce
I0826 22:19:54.608739 99815 net.cpp:150] Setting up inception_4e/5x5_reduce
I0826 22:19:54.608770 99815 net.cpp:157] Top shape: 128 32 8 8 (262144)
I0826 22:19:54.608784 99815 net.cpp:165] Memory required for data: 2135991824
I0826 22:19:54.608803 99815 layer_factory.hpp:77] Creating layer inception_4e/relu_5x5_reduce
I0826 22:19:54.608820 99815 net.cpp:100] Creating Layer inception_4e/relu_5x5_reduce
I0826 22:19:54.608835 99815 net.cpp:434] inception_4e/relu_5x5_reduce <- inception_4e/5x5_reduce
I0826 22:19:54.608855 99815 net.cpp:395] inception_4e/relu_5x5_reduce -> inception_4e/5x5_reduce (in-place)
I0826 22:19:54.610831 99815 net.cpp:150] Setting up inception_4e/relu_5x5_reduce
I0826 22:19:54.610860 99815 net.cpp:157] Top shape: 128 32 8 8 (262144)
I0826 22:19:54.610874 99815 net.cpp:165] Memory required for data: 2137040400
I0826 22:19:54.610888 99815 layer_factory.hpp:77] Creating layer inception_4e/5x5
I0826 22:19:54.610911 99815 net.cpp:100] Creating Layer inception_4e/5x5
I0826 22:19:54.610929 99815 net.cpp:434] inception_4e/5x5 <- inception_4e/5x5_reduce
I0826 22:19:54.610949 99815 net.cpp:408] inception_4e/5x5 -> inception_4e/5x5
I0826 22:19:54.618001 99815 net.cpp:150] Setting up inception_4e/5x5
I0826 22:19:54.618032 99815 net.cpp:157] Top shape: 128 128 8 8 (1048576)
I0826 22:19:54.618046 99815 net.cpp:165] Memory required for data: 2141234704
I0826 22:19:54.618064 99815 layer_factory.hpp:77] Creating layer inception_4e/relu_5x5
I0826 22:19:54.618083 99815 net.cpp:100] Creating Layer inception_4e/relu_5x5
I0826 22:19:54.618098 99815 net.cpp:434] inception_4e/relu_5x5 <- inception_4e/5x5
I0826 22:19:54.618149 99815 net.cpp:395] inception_4e/relu_5x5 -> inception_4e/5x5 (in-place)
I0826 22:19:54.619886 99815 net.cpp:150] Setting up inception_4e/relu_5x5
I0826 22:19:54.619915 99815 net.cpp:157] Top shape: 128 128 8 8 (1048576)
I0826 22:19:54.619928 99815 net.cpp:165] Memory required for data: 2145429008
I0826 22:19:54.619942 99815 layer_factory.hpp:77] Creating layer inception_4e/pool
I0826 22:19:54.619964 99815 net.cpp:100] Creating Layer inception_4e/pool
I0826 22:19:54.619979 99815 net.cpp:434] inception_4e/pool <- inception_4d/output_inception_4d/output_0_split_4
I0826 22:19:54.619997 99815 net.cpp:408] inception_4e/pool -> inception_4e/pool
I0826 22:19:54.620075 99815 net.cpp:150] Setting up inception_4e/pool
I0826 22:19:54.620097 99815 net.cpp:157] Top shape: 128 528 8 8 (4325376)
I0826 22:19:54.620110 99815 net.cpp:165] Memory required for data: 2162730512
I0826 22:19:54.620122 99815 layer_factory.hpp:77] Creating layer inception_4e/pool_proj
I0826 22:19:54.620146 99815 net.cpp:100] Creating Layer inception_4e/pool_proj
I0826 22:19:54.620160 99815 net.cpp:434] inception_4e/pool_proj <- inception_4e/pool
I0826 22:19:54.620177 99815 net.cpp:408] inception_4e/pool_proj -> inception_4e/pool_proj
I0826 22:19:54.627244 99815 net.cpp:150] Setting up inception_4e/pool_proj
I0826 22:19:54.627279 99815 net.cpp:157] Top shape: 128 128 8 8 (1048576)
I0826 22:19:54.627293 99815 net.cpp:165] Memory required for data: 2166924816
I0826 22:19:54.627313 99815 layer_factory.hpp:77] Creating layer inception_4e/relu_pool_proj
I0826 22:19:54.627331 99815 net.cpp:100] Creating Layer inception_4e/relu_pool_proj
I0826 22:19:54.627346 99815 net.cpp:434] inception_4e/relu_pool_proj <- inception_4e/pool_proj
I0826 22:19:54.627362 99815 net.cpp:395] inception_4e/relu_pool_proj -> inception_4e/pool_proj (in-place)
I0826 22:19:54.629359 99815 net.cpp:150] Setting up inception_4e/relu_pool_proj
I0826 22:19:54.629390 99815 net.cpp:157] Top shape: 128 128 8 8 (1048576)
I0826 22:19:54.629405 99815 net.cpp:165] Memory required for data: 2171119120
I0826 22:19:54.629420 99815 layer_factory.hpp:77] Creating layer inception_4e/output
I0826 22:19:54.629439 99815 net.cpp:100] Creating Layer inception_4e/output
I0826 22:19:54.629453 99815 net.cpp:434] inception_4e/output <- inception_4e/1x1
I0826 22:19:54.629470 99815 net.cpp:434] inception_4e/output <- inception_4e/3x3
I0826 22:19:54.629487 99815 net.cpp:434] inception_4e/output <- inception_4e/5x5
I0826 22:19:54.629501 99815 net.cpp:434] inception_4e/output <- inception_4e/pool_proj
I0826 22:19:54.629523 99815 net.cpp:408] inception_4e/output -> inception_4e/output
I0826 22:19:54.629577 99815 net.cpp:150] Setting up inception_4e/output
I0826 22:19:54.629600 99815 net.cpp:157] Top shape: 128 832 8 8 (6815744)
I0826 22:19:54.629613 99815 net.cpp:165] Memory required for data: 2198382096
I0826 22:19:54.629628 99815 layer_factory.hpp:77] Creating layer pool4/3x3_s2
I0826 22:19:54.629649 99815 net.cpp:100] Creating Layer pool4/3x3_s2
I0826 22:19:54.629664 99815 net.cpp:434] pool4/3x3_s2 <- inception_4e/output
I0826 22:19:54.629681 99815 net.cpp:408] pool4/3x3_s2 -> pool4/3x3_s2
I0826 22:19:54.629753 99815 net.cpp:150] Setting up pool4/3x3_s2
I0826 22:19:54.629776 99815 net.cpp:157] Top shape: 128 832 4 4 (1703936)
I0826 22:19:54.629791 99815 net.cpp:165] Memory required for data: 2205197840
I0826 22:19:54.629803 99815 layer_factory.hpp:77] Creating layer pool4/3x3_s2_pool4/3x3_s2_0_split
I0826 22:19:54.629822 99815 net.cpp:100] Creating Layer pool4/3x3_s2_pool4/3x3_s2_0_split
I0826 22:19:54.629838 99815 net.cpp:434] pool4/3x3_s2_pool4/3x3_s2_0_split <- pool4/3x3_s2
I0826 22:19:54.629855 99815 net.cpp:408] pool4/3x3_s2_pool4/3x3_s2_0_split -> pool4/3x3_s2_pool4/3x3_s2_0_split_0
I0826 22:19:54.629873 99815 net.cpp:408] pool4/3x3_s2_pool4/3x3_s2_0_split -> pool4/3x3_s2_pool4/3x3_s2_0_split_1
I0826 22:19:54.629891 99815 net.cpp:408] pool4/3x3_s2_pool4/3x3_s2_0_split -> pool4/3x3_s2_pool4/3x3_s2_0_split_2
I0826 22:19:54.629909 99815 net.cpp:408] pool4/3x3_s2_pool4/3x3_s2_0_split -> pool4/3x3_s2_pool4/3x3_s2_0_split_3
I0826 22:19:54.630034 99815 net.cpp:150] Setting up pool4/3x3_s2_pool4/3x3_s2_0_split
I0826 22:19:54.630058 99815 net.cpp:157] Top shape: 128 832 4 4 (1703936)
I0826 22:19:54.630074 99815 net.cpp:157] Top shape: 128 832 4 4 (1703936)
I0826 22:19:54.630087 99815 net.cpp:157] Top shape: 128 832 4 4 (1703936)
I0826 22:19:54.630100 99815 net.cpp:157] Top shape: 128 832 4 4 (1703936)
I0826 22:19:54.630115 99815 net.cpp:165] Memory required for data: 2232460816
I0826 22:19:54.630127 99815 layer_factory.hpp:77] Creating layer inception_5a/1x1
I0826 22:19:54.630153 99815 net.cpp:100] Creating Layer inception_5a/1x1
I0826 22:19:54.630168 99815 net.cpp:434] inception_5a/1x1 <- pool4/3x3_s2_pool4/3x3_s2_0_split_0
I0826 22:19:54.630189 99815 net.cpp:408] inception_5a/1x1 -> inception_5a/1x1
I0826 22:19:54.636716 99815 net.cpp:150] Setting up inception_5a/1x1
I0826 22:19:54.636750 99815 net.cpp:157] Top shape: 128 256 4 4 (524288)
I0826 22:19:54.636765 99815 net.cpp:165] Memory required for data: 2234557968
I0826 22:19:54.636783 99815 layer_factory.hpp:77] Creating layer inception_5a/relu_1x1
I0826 22:19:54.636801 99815 net.cpp:100] Creating Layer inception_5a/relu_1x1
I0826 22:19:54.636816 99815 net.cpp:434] inception_5a/relu_1x1 <- inception_5a/1x1
I0826 22:19:54.636832 99815 net.cpp:395] inception_5a/relu_1x1 -> inception_5a/1x1 (in-place)
I0826 22:19:54.638820 99815 net.cpp:150] Setting up inception_5a/relu_1x1
I0826 22:19:54.638850 99815 net.cpp:157] Top shape: 128 256 4 4 (524288)
I0826 22:19:54.638864 99815 net.cpp:165] Memory required for data: 2236655120
I0826 22:19:54.638877 99815 layer_factory.hpp:77] Creating layer inception_5a/3x3_reduce
I0826 22:19:54.638901 99815 net.cpp:100] Creating Layer inception_5a/3x3_reduce
I0826 22:19:54.638917 99815 net.cpp:434] inception_5a/3x3_reduce <- pool4/3x3_s2_pool4/3x3_s2_0_split_1
I0826 22:19:54.638936 99815 net.cpp:408] inception_5a/3x3_reduce -> inception_5a/3x3_reduce
I0826 22:19:54.644876 99815 net.cpp:150] Setting up inception_5a/3x3_reduce
I0826 22:19:54.644907 99815 net.cpp:157] Top shape: 128 160 4 4 (327680)
I0826 22:19:54.644922 99815 net.cpp:165] Memory required for data: 2237965840
I0826 22:19:54.644939 99815 layer_factory.hpp:77] Creating layer inception_5a/relu_3x3_reduce
I0826 22:19:54.644959 99815 net.cpp:100] Creating Layer inception_5a/relu_3x3_reduce
I0826 22:19:54.644975 99815 net.cpp:434] inception_5a/relu_3x3_reduce <- inception_5a/3x3_reduce
I0826 22:19:54.644991 99815 net.cpp:395] inception_5a/relu_3x3_reduce -> inception_5a/3x3_reduce (in-place)
I0826 22:19:54.647122 99815 net.cpp:150] Setting up inception_5a/relu_3x3_reduce
I0826 22:19:54.647150 99815 net.cpp:157] Top shape: 128 160 4 4 (327680)
I0826 22:19:54.647164 99815 net.cpp:165] Memory required for data: 2239276560
I0826 22:19:54.647177 99815 layer_factory.hpp:77] Creating layer inception_5a/3x3
I0826 22:19:54.647204 99815 net.cpp:100] Creating Layer inception_5a/3x3
I0826 22:19:54.647220 99815 net.cpp:434] inception_5a/3x3 <- inception_5a/3x3_reduce
I0826 22:19:54.647238 99815 net.cpp:408] inception_5a/3x3 -> inception_5a/3x3
I0826 22:19:54.658000 99815 net.cpp:150] Setting up inception_5a/3x3
I0826 22:19:54.658061 99815 net.cpp:157] Top shape: 128 320 4 4 (655360)
I0826 22:19:54.658078 99815 net.cpp:165] Memory required for data: 2241898000
I0826 22:19:54.658102 99815 layer_factory.hpp:77] Creating layer inception_5a/relu_3x3
I0826 22:19:54.658125 99815 net.cpp:100] Creating Layer inception_5a/relu_3x3
I0826 22:19:54.658143 99815 net.cpp:434] inception_5a/relu_3x3 <- inception_5a/3x3
I0826 22:19:54.658166 99815 net.cpp:395] inception_5a/relu_3x3 -> inception_5a/3x3 (in-place)
I0826 22:19:54.660066 99815 net.cpp:150] Setting up inception_5a/relu_3x3
I0826 22:19:54.660097 99815 net.cpp:157] Top shape: 128 320 4 4 (655360)
I0826 22:19:54.660112 99815 net.cpp:165] Memory required for data: 2244519440
I0826 22:19:54.660127 99815 layer_factory.hpp:77] Creating layer inception_5a/5x5_reduce
I0826 22:19:54.660159 99815 net.cpp:100] Creating Layer inception_5a/5x5_reduce
I0826 22:19:54.660205 99815 net.cpp:434] inception_5a/5x5_reduce <- pool4/3x3_s2_pool4/3x3_s2_0_split_2
I0826 22:19:54.660236 99815 net.cpp:408] inception_5a/5x5_reduce -> inception_5a/5x5_reduce
I0826 22:19:54.666965 99815 net.cpp:150] Setting up inception_5a/5x5_reduce
I0826 22:19:54.667001 99815 net.cpp:157] Top shape: 128 32 4 4 (65536)
I0826 22:19:54.667014 99815 net.cpp:165] Memory required for data: 2244781584
I0826 22:19:54.667033 99815 layer_factory.hpp:77] Creating layer inception_5a/relu_5x5_reduce
I0826 22:19:54.667055 99815 net.cpp:100] Creating Layer inception_5a/relu_5x5_reduce
I0826 22:19:54.667073 99815 net.cpp:434] inception_5a/relu_5x5_reduce <- inception_5a/5x5_reduce
I0826 22:19:54.667091 99815 net.cpp:395] inception_5a/relu_5x5_reduce -> inception_5a/5x5_reduce (in-place)
I0826 22:19:54.668066 99815 net.cpp:150] Setting up inception_5a/relu_5x5_reduce
I0826 22:19:54.668093 99815 net.cpp:157] Top shape: 128 32 4 4 (65536)
I0826 22:19:54.668107 99815 net.cpp:165] Memory required for data: 2245043728
I0826 22:19:54.668120 99815 layer_factory.hpp:77] Creating layer inception_5a/5x5
I0826 22:19:54.668145 99815 net.cpp:100] Creating Layer inception_5a/5x5
I0826 22:19:54.668160 99815 net.cpp:434] inception_5a/5x5 <- inception_5a/5x5_reduce
I0826 22:19:54.668181 99815 net.cpp:408] inception_5a/5x5 -> inception_5a/5x5
I0826 22:19:54.675735 99815 net.cpp:150] Setting up inception_5a/5x5
I0826 22:19:54.675766 99815 net.cpp:157] Top shape: 128 128 4 4 (262144)
I0826 22:19:54.675781 99815 net.cpp:165] Memory required for data: 2246092304
I0826 22:19:54.675798 99815 layer_factory.hpp:77] Creating layer inception_5a/relu_5x5
I0826 22:19:54.675815 99815 net.cpp:100] Creating Layer inception_5a/relu_5x5
I0826 22:19:54.675830 99815 net.cpp:434] inception_5a/relu_5x5 <- inception_5a/5x5
I0826 22:19:54.675846 99815 net.cpp:395] inception_5a/relu_5x5 -> inception_5a/5x5 (in-place)
I0826 22:19:54.677664 99815 net.cpp:150] Setting up inception_5a/relu_5x5
I0826 22:19:54.677692 99815 net.cpp:157] Top shape: 128 128 4 4 (262144)
I0826 22:19:54.677706 99815 net.cpp:165] Memory required for data: 2247140880
I0826 22:19:54.677719 99815 layer_factory.hpp:77] Creating layer inception_5a/pool
I0826 22:19:54.677738 99815 net.cpp:100] Creating Layer inception_5a/pool
I0826 22:19:54.677753 99815 net.cpp:434] inception_5a/pool <- pool4/3x3_s2_pool4/3x3_s2_0_split_3
I0826 22:19:54.677775 99815 net.cpp:408] inception_5a/pool -> inception_5a/pool
I0826 22:19:54.677873 99815 net.cpp:150] Setting up inception_5a/pool
I0826 22:19:54.677896 99815 net.cpp:157] Top shape: 128 832 4 4 (1703936)
I0826 22:19:54.677909 99815 net.cpp:165] Memory required for data: 2253956624
I0826 22:19:54.677923 99815 layer_factory.hpp:77] Creating layer inception_5a/pool_proj
I0826 22:19:54.677948 99815 net.cpp:100] Creating Layer inception_5a/pool_proj
I0826 22:19:54.677963 99815 net.cpp:434] inception_5a/pool_proj <- inception_5a/pool
I0826 22:19:54.677983 99815 net.cpp:408] inception_5a/pool_proj -> inception_5a/pool_proj
I0826 22:19:54.683605 99815 net.cpp:150] Setting up inception_5a/pool_proj
I0826 22:19:54.683640 99815 net.cpp:157] Top shape: 128 128 4 4 (262144)
I0826 22:19:54.683655 99815 net.cpp:165] Memory required for data: 2255005200
I0826 22:19:54.683675 99815 layer_factory.hpp:77] Creating layer inception_5a/relu_pool_proj
I0826 22:19:54.683693 99815 net.cpp:100] Creating Layer inception_5a/relu_pool_proj
I0826 22:19:54.683709 99815 net.cpp:434] inception_5a/relu_pool_proj <- inception_5a/pool_proj
I0826 22:19:54.683727 99815 net.cpp:395] inception_5a/relu_pool_proj -> inception_5a/pool_proj (in-place)
I0826 22:19:54.685667 99815 net.cpp:150] Setting up inception_5a/relu_pool_proj
I0826 22:19:54.685693 99815 net.cpp:157] Top shape: 128 128 4 4 (262144)
I0826 22:19:54.685708 99815 net.cpp:165] Memory required for data: 2256053776
I0826 22:19:54.685720 99815 layer_factory.hpp:77] Creating layer inception_5a/output
I0826 22:19:54.685739 99815 net.cpp:100] Creating Layer inception_5a/output
I0826 22:19:54.685752 99815 net.cpp:434] inception_5a/output <- inception_5a/1x1
I0826 22:19:54.685803 99815 net.cpp:434] inception_5a/output <- inception_5a/3x3
I0826 22:19:54.685819 99815 net.cpp:434] inception_5a/output <- inception_5a/5x5
I0826 22:19:54.685833 99815 net.cpp:434] inception_5a/output <- inception_5a/pool_proj
I0826 22:19:54.685852 99815 net.cpp:408] inception_5a/output -> inception_5a/output
I0826 22:19:54.685904 99815 net.cpp:150] Setting up inception_5a/output
I0826 22:19:54.685925 99815 net.cpp:157] Top shape: 128 832 4 4 (1703936)
I0826 22:19:54.685938 99815 net.cpp:165] Memory required for data: 2262869520
I0826 22:19:54.685951 99815 layer_factory.hpp:77] Creating layer inception_5a/output_inception_5a/output_0_split
I0826 22:19:54.685968 99815 net.cpp:100] Creating Layer inception_5a/output_inception_5a/output_0_split
I0826 22:19:54.685982 99815 net.cpp:434] inception_5a/output_inception_5a/output_0_split <- inception_5a/output
I0826 22:19:54.685998 99815 net.cpp:408] inception_5a/output_inception_5a/output_0_split -> inception_5a/output_inception_5a/output_0_split_0
I0826 22:19:54.686018 99815 net.cpp:408] inception_5a/output_inception_5a/output_0_split -> inception_5a/output_inception_5a/output_0_split_1
I0826 22:19:54.686036 99815 net.cpp:408] inception_5a/output_inception_5a/output_0_split -> inception_5a/output_inception_5a/output_0_split_2
I0826 22:19:54.686053 99815 net.cpp:408] inception_5a/output_inception_5a/output_0_split -> inception_5a/output_inception_5a/output_0_split_3
I0826 22:19:54.686144 99815 net.cpp:150] Setting up inception_5a/output_inception_5a/output_0_split
I0826 22:19:54.686162 99815 net.cpp:157] Top shape: 128 832 4 4 (1703936)
I0826 22:19:54.686178 99815 net.cpp:157] Top shape: 128 832 4 4 (1703936)
I0826 22:19:54.686192 99815 net.cpp:157] Top shape: 128 832 4 4 (1703936)
I0826 22:19:54.686205 99815 net.cpp:157] Top shape: 128 832 4 4 (1703936)
I0826 22:19:54.686218 99815 net.cpp:165] Memory required for data: 2290132496
I0826 22:19:54.686231 99815 layer_factory.hpp:77] Creating layer inception_5b/1x1
I0826 22:19:54.686252 99815 net.cpp:100] Creating Layer inception_5b/1x1
I0826 22:19:54.686267 99815 net.cpp:434] inception_5b/1x1 <- inception_5a/output_inception_5a/output_0_split_0
I0826 22:19:54.686285 99815 net.cpp:408] inception_5b/1x1 -> inception_5b/1x1
I0826 22:19:54.694690 99815 net.cpp:150] Setting up inception_5b/1x1
I0826 22:19:54.694725 99815 net.cpp:157] Top shape: 128 384 4 4 (786432)
I0826 22:19:54.694738 99815 net.cpp:165] Memory required for data: 2293278224
I0826 22:19:54.694758 99815 layer_factory.hpp:77] Creating layer inception_5b/relu_1x1
I0826 22:19:54.694777 99815 net.cpp:100] Creating Layer inception_5b/relu_1x1
I0826 22:19:54.694792 99815 net.cpp:434] inception_5b/relu_1x1 <- inception_5b/1x1
I0826 22:19:54.694813 99815 net.cpp:395] inception_5b/relu_1x1 -> inception_5b/1x1 (in-place)
I0826 22:19:54.696753 99815 net.cpp:150] Setting up inception_5b/relu_1x1
I0826 22:19:54.696781 99815 net.cpp:157] Top shape: 128 384 4 4 (786432)
I0826 22:19:54.696795 99815 net.cpp:165] Memory required for data: 2296423952
I0826 22:19:54.696808 99815 layer_factory.hpp:77] Creating layer inception_5b/3x3_reduce
I0826 22:19:54.696832 99815 net.cpp:100] Creating Layer inception_5b/3x3_reduce
I0826 22:19:54.696848 99815 net.cpp:434] inception_5b/3x3_reduce <- inception_5a/output_inception_5a/output_0_split_1
I0826 22:19:54.696871 99815 net.cpp:408] inception_5b/3x3_reduce -> inception_5b/3x3_reduce
I0826 22:19:54.704047 99815 net.cpp:150] Setting up inception_5b/3x3_reduce
I0826 22:19:54.704079 99815 net.cpp:157] Top shape: 128 192 4 4 (393216)
I0826 22:19:54.704093 99815 net.cpp:165] Memory required for data: 2297996816
I0826 22:19:54.704111 99815 layer_factory.hpp:77] Creating layer inception_5b/relu_3x3_reduce
I0826 22:19:54.704133 99815 net.cpp:100] Creating Layer inception_5b/relu_3x3_reduce
I0826 22:19:54.704149 99815 net.cpp:434] inception_5b/relu_3x3_reduce <- inception_5b/3x3_reduce
I0826 22:19:54.704164 99815 net.cpp:395] inception_5b/relu_3x3_reduce -> inception_5b/3x3_reduce (in-place)
I0826 22:19:54.706188 99815 net.cpp:150] Setting up inception_5b/relu_3x3_reduce
I0826 22:19:54.706218 99815 net.cpp:157] Top shape: 128 192 4 4 (393216)
I0826 22:19:54.706233 99815 net.cpp:165] Memory required for data: 2299569680
I0826 22:19:54.706248 99815 layer_factory.hpp:77] Creating layer inception_5b/3x3
I0826 22:19:54.706269 99815 net.cpp:100] Creating Layer inception_5b/3x3
I0826 22:19:54.706284 99815 net.cpp:434] inception_5b/3x3 <- inception_5b/3x3_reduce
I0826 22:19:54.706308 99815 net.cpp:408] inception_5b/3x3 -> inception_5b/3x3
I0826 22:19:54.720852 99815 net.cpp:150] Setting up inception_5b/3x3
I0826 22:19:54.720904 99815 net.cpp:157] Top shape: 128 384 4 4 (786432)
I0826 22:19:54.720918 99815 net.cpp:165] Memory required for data: 2302715408
I0826 22:19:54.720942 99815 layer_factory.hpp:77] Creating layer inception_5b/relu_3x3
I0826 22:19:54.720968 99815 net.cpp:100] Creating Layer inception_5b/relu_3x3
I0826 22:19:54.720988 99815 net.cpp:434] inception_5b/relu_3x3 <- inception_5b/3x3
I0826 22:19:54.721009 99815 net.cpp:395] inception_5b/relu_3x3 -> inception_5b/3x3 (in-place)
I0826 22:19:54.722431 99815 net.cpp:150] Setting up inception_5b/relu_3x3
I0826 22:19:54.722457 99815 net.cpp:157] Top shape: 128 384 4 4 (786432)
I0826 22:19:54.722470 99815 net.cpp:165] Memory required for data: 2305861136
I0826 22:19:54.722484 99815 layer_factory.hpp:77] Creating layer inception_5b/5x5_reduce
I0826 22:19:54.722513 99815 net.cpp:100] Creating Layer inception_5b/5x5_reduce
I0826 22:19:54.722529 99815 net.cpp:434] inception_5b/5x5_reduce <- inception_5a/output_inception_5a/output_0_split_2
I0826 22:19:54.722549 99815 net.cpp:408] inception_5b/5x5_reduce -> inception_5b/5x5_reduce
I0826 22:19:54.728571 99815 net.cpp:150] Setting up inception_5b/5x5_reduce
I0826 22:19:54.728603 99815 net.cpp:157] Top shape: 128 48 4 4 (98304)
I0826 22:19:54.728617 99815 net.cpp:165] Memory required for data: 2306254352
I0826 22:19:54.728636 99815 layer_factory.hpp:77] Creating layer inception_5b/relu_5x5_reduce
I0826 22:19:54.728653 99815 net.cpp:100] Creating Layer inception_5b/relu_5x5_reduce
I0826 22:19:54.728668 99815 net.cpp:434] inception_5b/relu_5x5_reduce <- inception_5b/5x5_reduce
I0826 22:19:54.728688 99815 net.cpp:395] inception_5b/relu_5x5_reduce -> inception_5b/5x5_reduce (in-place)
I0826 22:19:54.730846 99815 net.cpp:150] Setting up inception_5b/relu_5x5_reduce
I0826 22:19:54.730875 99815 net.cpp:157] Top shape: 128 48 4 4 (98304)
I0826 22:19:54.730890 99815 net.cpp:165] Memory required for data: 2306647568
I0826 22:19:54.730902 99815 layer_factory.hpp:77] Creating layer inception_5b/5x5
I0826 22:19:54.730926 99815 net.cpp:100] Creating Layer inception_5b/5x5
I0826 22:19:54.730942 99815 net.cpp:434] inception_5b/5x5 <- inception_5b/5x5_reduce
I0826 22:19:54.730964 99815 net.cpp:408] inception_5b/5x5 -> inception_5b/5x5
I0826 22:19:54.737608 99815 net.cpp:150] Setting up inception_5b/5x5
I0826 22:19:54.737646 99815 net.cpp:157] Top shape: 128 128 4 4 (262144)
I0826 22:19:54.737661 99815 net.cpp:165] Memory required for data: 2307696144
I0826 22:19:54.737680 99815 layer_factory.hpp:77] Creating layer inception_5b/relu_5x5
I0826 22:19:54.737704 99815 net.cpp:100] Creating Layer inception_5b/relu_5x5
I0826 22:19:54.737720 99815 net.cpp:434] inception_5b/relu_5x5 <- inception_5b/5x5
I0826 22:19:54.737736 99815 net.cpp:395] inception_5b/relu_5x5 -> inception_5b/5x5 (in-place)
I0826 22:19:54.740039 99815 net.cpp:150] Setting up inception_5b/relu_5x5
I0826 22:19:54.740067 99815 net.cpp:157] Top shape: 128 128 4 4 (262144)
I0826 22:19:54.740082 99815 net.cpp:165] Memory required for data: 2308744720
I0826 22:19:54.740095 99815 layer_factory.hpp:77] Creating layer inception_5b/pool
I0826 22:19:54.740118 99815 net.cpp:100] Creating Layer inception_5b/pool
I0826 22:19:54.740134 99815 net.cpp:434] inception_5b/pool <- inception_5a/output_inception_5a/output_0_split_3
I0826 22:19:54.740150 99815 net.cpp:408] inception_5b/pool -> inception_5b/pool
I0826 22:19:54.740232 99815 net.cpp:150] Setting up inception_5b/pool
I0826 22:19:54.740277 99815 net.cpp:157] Top shape: 128 832 4 4 (1703936)
I0826 22:19:54.740290 99815 net.cpp:165] Memory required for data: 2315560464
I0826 22:19:54.740303 99815 layer_factory.hpp:77] Creating layer inception_5b/pool_proj
I0826 22:19:54.740327 99815 net.cpp:100] Creating Layer inception_5b/pool_proj
I0826 22:19:54.740342 99815 net.cpp:434] inception_5b/pool_proj <- inception_5b/pool
I0826 22:19:54.740365 99815 net.cpp:408] inception_5b/pool_proj -> inception_5b/pool_proj
I0826 22:19:54.746495 99815 net.cpp:150] Setting up inception_5b/pool_proj
I0826 22:19:54.746526 99815 net.cpp:157] Top shape: 128 128 4 4 (262144)
I0826 22:19:54.746541 99815 net.cpp:165] Memory required for data: 2316609040
I0826 22:19:54.746558 99815 layer_factory.hpp:77] Creating layer inception_5b/relu_pool_proj
I0826 22:19:54.746579 99815 net.cpp:100] Creating Layer inception_5b/relu_pool_proj
I0826 22:19:54.746595 99815 net.cpp:434] inception_5b/relu_pool_proj <- inception_5b/pool_proj
I0826 22:19:54.746613 99815 net.cpp:395] inception_5b/relu_pool_proj -> inception_5b/pool_proj (in-place)
I0826 22:19:54.747480 99815 net.cpp:150] Setting up inception_5b/relu_pool_proj
I0826 22:19:54.747511 99815 net.cpp:157] Top shape: 128 128 4 4 (262144)
I0826 22:19:54.747525 99815 net.cpp:165] Memory required for data: 2317657616
I0826 22:19:54.747539 99815 layer_factory.hpp:77] Creating layer inception_5b/output
I0826 22:19:54.747557 99815 net.cpp:100] Creating Layer inception_5b/output
I0826 22:19:54.747573 99815 net.cpp:434] inception_5b/output <- inception_5b/1x1
I0826 22:19:54.747594 99815 net.cpp:434] inception_5b/output <- inception_5b/3x3
I0826 22:19:54.747611 99815 net.cpp:434] inception_5b/output <- inception_5b/5x5
I0826 22:19:54.747627 99815 net.cpp:434] inception_5b/output <- inception_5b/pool_proj
I0826 22:19:54.747644 99815 net.cpp:408] inception_5b/output -> inception_5b/output
I0826 22:19:54.747711 99815 net.cpp:150] Setting up inception_5b/output
I0826 22:19:54.747735 99815 net.cpp:157] Top shape: 128 1024 4 4 (2097152)
I0826 22:19:54.747747 99815 net.cpp:165] Memory required for data: 2326046224
I0826 22:19:54.747761 99815 layer_factory.hpp:77] Creating layer fc
I0826 22:19:54.747786 99815 net.cpp:100] Creating Layer fc
I0826 22:19:54.747802 99815 net.cpp:434] fc <- inception_5b/output
I0826 22:19:54.747823 99815 net.cpp:408] fc -> fc
I0826 22:19:54.801139 99815 net.cpp:150] Setting up fc
I0826 22:19:54.801203 99815 net.cpp:157] Top shape: 128 256 1 1 (32768)
I0826 22:19:54.801218 99815 net.cpp:165] Memory required for data: 2326177296
I0826 22:19:54.801240 99815 layer_factory.hpp:77] Creating layer drop
I0826 22:19:54.801267 99815 net.cpp:100] Creating Layer drop
I0826 22:19:54.801285 99815 net.cpp:434] drop <- fc
I0826 22:19:54.801306 99815 net.cpp:395] drop -> fc (in-place)
I0826 22:19:54.801359 99815 net.cpp:150] Setting up drop
I0826 22:19:54.801381 99815 net.cpp:157] Top shape: 128 256 1 1 (32768)
I0826 22:19:54.801394 99815 net.cpp:165] Memory required for data: 2326308368
I0826 22:19:54.801406 99815 layer_factory.hpp:77] Creating layer loss3/classifier
I0826 22:19:54.801434 99815 net.cpp:100] Creating Layer loss3/classifier
I0826 22:19:54.801453 99815 net.cpp:434] loss3/classifier <- fc
I0826 22:19:54.801472 99815 net.cpp:408] loss3/classifier -> loss3/classifier
I0826 22:19:54.808311 99815 net.cpp:150] Setting up loss3/classifier
I0826 22:19:54.808341 99815 net.cpp:157] Top shape: 128 128 1 1 (16384)
I0826 22:19:54.808356 99815 net.cpp:165] Memory required for data: 2326373904
I0826 22:19:54.808408 99815 layer_factory.hpp:77] Creating layer loss3/classifier_loss3/classifier_0_split
I0826 22:19:54.808434 99815 net.cpp:100] Creating Layer loss3/classifier_loss3/classifier_0_split
I0826 22:19:54.808449 99815 net.cpp:434] loss3/classifier_loss3/classifier_0_split <- loss3/classifier
I0826 22:19:54.808466 99815 net.cpp:408] loss3/classifier_loss3/classifier_0_split -> loss3/classifier_loss3/classifier_0_split_0
I0826 22:19:54.808487 99815 net.cpp:408] loss3/classifier_loss3/classifier_0_split -> loss3/classifier_loss3/classifier_0_split_1
I0826 22:19:54.808588 99815 net.cpp:150] Setting up loss3/classifier_loss3/classifier_0_split
I0826 22:19:54.808610 99815 net.cpp:157] Top shape: 128 128 1 1 (16384)
I0826 22:19:54.808625 99815 net.cpp:157] Top shape: 128 128 1 1 (16384)
I0826 22:19:54.808639 99815 net.cpp:165] Memory required for data: 2326504976
I0826 22:19:54.808651 99815 layer_factory.hpp:77] Creating layer loss3/loss3
I0826 22:19:54.808668 99815 net.cpp:100] Creating Layer loss3/loss3
I0826 22:19:54.808681 99815 net.cpp:434] loss3/loss3 <- loss3/classifier_loss3/classifier_0_split_0
I0826 22:19:54.808698 99815 net.cpp:434] loss3/loss3 <- label_data_1_split_4
…
